…
      sampler {
        min_scale: 0.3
        max_scale: 1
        min_aspect_ratio: 0.5
        max_aspect_ratio: 2
      }
      sample_constraint {
        min_jaccard_overlap: 0.9
      }
      max_sample: 1
      max_trials: 50
    }
    batch_sampler {
      sampler {
        min_scale: 0.3
        max_scale: 1
        min_aspect_ratio: 0.5
        max_aspect_ratio: 2
      }
      sample_constraint {
        max_jaccard_overlap: 1
      }
      max_sample: 1
      max_trials: 50
    }
    label_map_file: "data/NWPU_VHR/labelmap_NWPU_VHR.prototxt"
  }
}
layer {
  name: "conv1_1"
  type: "Convolution"
  bottom: "data"
  top: "conv1_1"
  param {
    lr_mult: 1
    decay_mult: 1
  }
  param {
    lr_mult: 2
    decay_mult: 0
  }
  convolution_param {
    num_output: 64
    pad: 1
    kernel_size: 3
    weight_filler {
      type: "xavier"
    }
    bias_filler {
      type: "constant"
      value: 0
    }
  }
}
layer {
  name: "relu1_1"
  type: "ReLU"
  bottom: "conv1_1"
  top: "conv1_1"
}
layer {
  name: "conv1_2"
  type: "Convolution"
  bottom: "conv1_1"
  top: "conv1_2"
  param {
    lr_mult: 1
    decay_mult: 1
  }
  param {
    lr_mult: 2
    decay_mult: 0
  }
  convolution_param {
    num_output: 64
    pad: 1
    kernel_size: 3
    weight_filler {
      type: "xavier"
    }
    bias_filler {
      type: "constant"
      value: 0
    }
  }
}
layer {
  name: "relu1_2"
  type: "ReLU"
  bottom: "conv1_2"
  top: "conv1_2"
}
layer {
  name: "pool1"
  type: "Pooling"
  bottom: "conv1_2"
  top: "pool1"
  pooling_param {
    pool: MAX
    kernel_size: 2
    stride: 2
  }
}
layer {
  name: "conv2_1"
  type: "Convolution"
  bottom: "pool1"
  top: "conv2_1"
  param {
    lr_mult: 1
    decay_mult: 1
  }
  param {
    lr_mult: 2
    decay_mult: 0
  }
  convolution_param {
    num_output: 128
    pad: 1
    kernel_size: 3
    weight_filler {
      type: "xavier"
    }
    bias_filler {
      type: "constant"
      value: 0
    }
  }
}
layer {
  name: "relu2_1"
  type: "ReLU"
  bottom: "conv2_1"
  top: "conv2_1"
}
layer {
  name: "conv2_2"
  type: "Convolution"
  bottom: "conv2_1"
  top: "conv2_2"
  param {
    lr_mult: 1
    decay_mult: 1
  }
  param {
    lr_mult: 2
    decay_mult: 0
  }
  convolution_param {
    num_output: 128
    pad: 1
    kernel_size: 3
    weight_filler {
      type: "xavier"
    }
    bias_filler {
      type: "constant"
      value: 0
    }
  }
}
layer {
  name: "relu2_2"
  type: "ReLU"
  bottom: "conv2_2"
  top: "conv2_2"
}
layer {
  name: "pool2"
  type: "Pooling"
  bottom: "conv2_2"
  top: "pool2"
  pooling_param {
    pool: MAX
    kernel_size: 2
    stride: 2
  }
}
layer {
  name: "conv3_1"
  type: "Convolution"
  bottom: "pool2"
  top: "conv3_1"
  param {
    lr_mult: 1
    decay_mult: 1
  }
  param {
    lr_mult: 2
    decay_mult: 0
  }
  convolution_param {
    num_output: 256
    pad: 1
    kernel_size: 3
    weight_filler {
      type: "xavier"
    }
    bias_filler {
      type: "constant"
      value: 0
    }
  }
}
layer {
  name: "relu3_1"
  type: "ReLU"
  bottom: "conv3_1"
  top: "conv3_1"
}
layer {
  name: "conv3_2"
  type: "Convolution"
  bottom: "conv3_1"
  top: "conv3_2"
  param {
    lr_mult: 1
    decay_mult: 1
  }
  param {
    lr_mult: 2
    decay_mult: 0
  }
  convolution_param {
    num_output: 256
    pad: 1
    kernel_size: 3
    weight_filler {
      type: "xavier"
    }
    bias_filler {
      type: "constant"
      value: 0
    }
  }
}
layer {
  name: "relu3_2"
  type: "ReLU"
  bottom: "conv3_2"
  top: "conv3_2"
}
layer {
  name: "conv3_3"
  type: "Convolution"
  bottom: "conv3_2"
  top: "conv3_3"
  param {
    lr_mult: 1
    decay_mult: 1
  }
  param {
    lr_mult: 2
    decay_mult: 0
  }
  convolution_param {
    num_output: 256
    pad: 1
    kernel_size: 3
    weight_filler {
      type: "xavier"
    }
    bias_filler {
      type: "constant"
      value: 0
    }
  }
}
layer {
  name: "relu3_3"
  type: "ReLU"
  bottom: "conv3_3"
  top: "conv3_3"
}
layer {
  name: "pool3"
  type: "Pooling"
  bottom: "conv3_3"
  top: "pool3"
  pooling_param {
    pool: MAX
    kernel_size: 2
    stride: 2
  }
}
layer {
  name: "conv4_1"
  type: "Convolution"
  bottom: "pool3"
  top: "conv4_1"
  param {
    lr_mult: 1
    decay_mult: 1
  }
  param {
    lr_mult: 2
    decay_mult: 0
  }
  convolution_param {
    num_output: 512
    pad: 1
    kernel_size: 3
    weight_filler {
      type: "xavier"
    }
    bias_filler {
      type: "constant"
      value: 0
    }
  }
}
layer {
  name: "relu4_1"
  type: "ReLU"
  bottom: "conv4_1"
  top: "conv4_1"
}
layer {
  name: "conv4_2"
  type: "Convolution"
  bottom: "conv4_1"
  top: "conv4_2"
  param {
    lr_mult: 1
    decay_mult: 1
  }
  param {
    lr_mult: 2
    decay_mult: 0
  }
  convolution_param {
    num_output: 512
    pad: 1
    kernel_size: 3
    weight_filler {
      type: "xavier"
    }
    bias_filler {
      type: "constant"
      value: 0
    }
  }
}
layer {
  name: "relu4_2"
  type: "ReLU"
  bottom: "conv4_2"
  top: "conv4_2"
}
layer {
  name: "conv4_3"
  type: "Convolution"
  bottom: "conv4_2"
  top: "conv4_3"
  param {
    lr_mult: 1
    decay_mult: 1
  }
  param {
    lr_mult: 2
    decay_mult: 0
  }
  convolution_param {
    num_output: 512
    pad: 1
    kernel_size: 3
    weight_filler {
      type: "xavier"
    }
    bias_filler {
      type: "constant"
      value: 0
    }
  }
}
layer {
  name: "relu4_3"
  type: "ReLU"
  bottom: "conv4_3"
  top: "conv4_3"
}
layer {
  name: "pool4"
  type: "Pooling"
  bottom: "conv4_3"
  top: "pool4"
  pooling_param {
    pool: MAX
    kernel_size: 2
    stride: 2
  }
}
layer {
  name: "conv5_1"
  type: "Convolution"
  bottom: "pool4"
  top: "conv5_1"
  param {
    lr_mult: 1
    decay_mult: 1
  }
  param {
    lr_mult: 2
    decay_mult: 0
  }
  convolution_param {
    num_output: 512
    pad: 1
    kernel_size: 3
    weight_filler {
      type: "xavier"
    }
    bias_filler {
      type: "constant"
      value: 0
    }
    dilation: 1
  }
}
layer {
  name: "relu5_1"
  type: "ReLU"
  bottom: "conv5_1"
  top: "conv5_1"
}
layer {
  name: "conv5_2"
  type: "Convolution"
  bottom: "conv5_1"
  top: "conv5_2"
  param {
    lr_mult: 1
    decay_mult: 1
  }
  param {
    lr_mult: 2
    decay_mult: 0
  }
  convolution_param {
    num_output: 512
    pad: 1
    kernel_size: 3
    weight_filler {
      type: "xavier"
    }
    bias_filler {
      type: "constant"
      value: 0
    }
    dilation: 1
  }
}
layer {
  name: "relu5_2"
  type: "ReLU"
  bottom: "conv5_2"
  top: "conv5_2"
}
layer {
  name: "conv5_3"
  type: "Convolution"
  bottom: "conv5_2"
  top: "conv5_3"
  param {
    lr_mult: 1
    decay_mult: 1
  }
  param {
    lr_mult: 2
    decay_mult: 0
  }
  convolution_param {
    num_output: 512
    pad: 1
    kernel_size: 3
    weight_filler {
      type: "xavier"
    }
    bias_filler {
      type: "constant"
      value: 0
    }
    dilation: 1
  }
}
layer {
  name: "relu5_3"
  type: "ReLU"
  bottom: "conv5_3"
  top: "conv5_3"
}
layer {
  name: "pool5"
  type: "Pooling"
  bottom: "conv5_3"
  top: "pool5"
  pooling_param {
    pool: MAX
    kernel_size: 3
    stride: 1
    pad: 1
  }
}
layer {
  name: "fc6_depthwise"
  type: "DepthwiseConvolution"
  bottom: "pool5"
  top: "fc6_3x3"
  param {
    lr_mult: 1
    decay_mult: 1
  }
  param {
    lr_mult: 2
    decay_mult: 0
  }
  convolution_param {
    num_output: 512
    pad: 6
    kernel_size: 3
    group: 512
    weight_filler {
      type: "xavier"
    }
    bias_filler {
      type: "constant"
      value: 0
    }
    dilation: 6
  }
}
layer {
  name: "fc6_3x3_relu"
  type: "ReLU"
  bottom: "fc6_3x3"
  top: "fc6_3x3"
}
layer {
  name: "fc6_1x1"
  type: "Convolution"
  bottom: "fc6_3x3"
  top: "fc6"
  param {
    lr_mult: 1
    decay_mult: 1
  }
  param {
    lr_mult: 2
    decay_mult: 0
  }
  convolution_param {
    num_output: 1024
    pad: 0
    kernel_size: 1
    stride: 1
    weight_filler {
      type: "xavier"
    }
    bias_filler {
      type: "constant"
      value: 0
    }
    dilation: 6
  }
}
layer {
  name: "relu6"
  type: "ReLU"
  bottom: "fc6"
  top: "fc6"
}
layer {
  name: "fc7"
  type: "Convolution"
  bottom: "fc6"
  top: "fc7"
  param {
    lr_mult: 1
    decay_mult: 1
  }
  param {
    lr_mult: 2
    decay_mult: 0
  }
  convolution_param {
    num_output: 1024
    kernel_size: 1
    weight_filler {
      type: "xavier"
    }
    bias_filler {
      type: "constant"
      value: 0
    }
  }
}
layer {
  name: "relu7"
  type: "ReLU"
  bottom: "fc7"
  top: "fc7"
}
layer {
  name: "conv6_1"
  type: "Convolution"
  bottom: "fc7"
  top: "conv6_1"
  param {
    lr_mult: 1
    decay_mult: 1
  }
  param {
    lr_mult: 2
    decay_mult: 0
  }
  convolution_param {
    num_output: 256
    pad: 0
    kernel_size: 1
    stride: 1
    weight_filler {
      type: "xavier"
    }
    bias_filler {
      type: "constant"
      value: 0
    }
  }
}
layer {
  name: "conv6_1_relu"
  type: "ReLU"
  bottom: "conv6_1"
  top: "conv6_1"
}
layer {
  name: "conv6_2"
  type: "Convolution"
  bottom: "conv6_1"
  top: "conv6_2"
  param {
    lr_mult: 1
    decay_mult: 1
  }
  param {
    lr_mult: 2
    decay_mult: 0
  }
  convolution_param {
    num_output: 512
    pad: 1
    kernel_size: 3
    stride: 2
    weight_filler {
      type: "xavier"
    }
    bias_filler {
      type: "constant"
      value: 0
    }
  }
}
layer {
  name: "conv6_2_relu"
  type: "ReLU"
  bottom: "conv6_2"
  top: "conv6_2"
}
layer {
  name: "conv7_1"
  type: "Convolution"
  bottom: "conv6_2"
  top: "conv7_1"
  param {
    lr_mult: 1
    decay_mult: 1
  }
  param {
    lr_mult: 2
    decay_mult: 0
  }
  convolution_param {
    num_output: 128
    pad: 0
    kernel_size: 1
    stride: 1
    weight_filler {
      type: "xavier"
    }
    bias_filler {
      type: "constant"
      value: 0
    }
  }
}
layer {
  name: "conv7_1_relu"
  type: "ReLU"
  bottom: "conv7_1"
  top: "conv7_1"
}
layer {
  name: "conv7_2"
  type: "Convolution"
  bottom: "conv7_1"
  top: "conv7_2"
  param {
    lr_mult: 1
    decay_mult: 1
  }
  param {
    lr_mult: 2
    decay_mult: 0
  }
  convolution_param {
    num_output: 256
    pad: 1
    kernel_size: 3
    stride: 2
    weight_filler {
      type: "xavier"
    }
    bias_filler {
      type: "constant"
      value: 0
    }
  }
}
layer {
  name: "conv7_2_relu"
  type: "ReLU"
  bottom: "conv7_2"
  top: "conv7_2"
}
layer {
  name: "conv8_1"
  type: "Convolution"
  bottom: "conv7_2"
  top: "conv8_1"
  param {
    lr_mult: 1
    decay_mult: 1
  }
  param {
    lr_mult: 2
    decay_mult: 0
  }
  convolution_param {
    num_output: 128
    pad: 0
    kernel_size: 1
    stride: 1
    weight_filler {
      type: "xavier"
    }
    bias_filler {
      type: "constant"
      value: 0
    }
  }
}
layer {
  name: "conv8_1_relu"
  type: "ReLU"
  bottom: "conv8_1"
  top: "conv8_1"
}
layer {
  name: "conv8_2"
  type: "Convolution"
  bottom: "conv8_1"
  top: "conv8_2"
  param {
    lr_mult: 1
    decay_mult: 1
  }
  param {
    lr_mult: 2
    decay_mult: 0
  }
  convolution_param {
    num_output: 256
    pad: 0
    kernel_size: 3
    stride: 1
    weight_filler {
      type: "xavier"
    }
    bias_filler {
      type: "constant"
      value: 0
    }
  }
}
layer {
  name: "conv8_2_relu"
  type: "ReLU"
  bottom: "conv8_2"
  top: "conv8_2"
}
layer {
  name: "conv9_1"
  type: "Convolution"
  bottom: "conv8_2"
  top: "conv9_1"
  param {
    lr_mult: 1
    decay_mult: 1
  }
  param {
    lr_mult: 2
    decay_mult: 0
  }
  convolution_param {
    num_output: 128
    pad: 0
    kernel_size: 1
    stride: 1
    weight_filler {
      type: "xavier"
    }
    bias_filler {
      type: "constant"
      value: 0
    }
  }
}
layer {
  name: "conv9_1_relu"
  type: "ReLU"
  bottom: "conv9_1"
  top: "conv9_1"
}
layer {
  name: "conv9_2"
  type: "Convolution"
  bottom: "conv9_1"
  top: "conv9_2"
  param {
    lr_mult: 1
    decay_mult: 1
  }
  param {
    lr_mult: 2
    decay_mult: 0
  }
  convolution_param {
    num_output: 256
    pad: 0
    kernel_size: 3
    stride: 1
    weight_filler {
      type: "xavier"
    }
    bias_filler {
      type: "constant"
      value: 0
    }
  }
}
layer {
  name: "conv9_2_relu"
  type: "ReLU"
  bottom: "conv9_2"
  top: "conv9_2"
}
layer {
  name: "conv4_3_norm"
  type: "Normalize"
  bottom: "conv4_3"
  top: "conv4_3_norm"
  norm_param {
    across_spatial: false
    scale_filler {
      type: "constant"
      value: 20
    }
    channel_shared: false
  }
}
layer {
  name: "conv4_3_norm_mbox_loc"
  type: "Convolution"
  bottom: "conv4_3_norm"
  top: "conv4_3_norm_mbox_loc"
  param {
    lr_mult: 1
    decay_mult: 1
  }
  param {
    lr_mult: 2
    decay_mult: 0
  }
  convolution_param {
    num_output: 16
    pad: 1
    kernel_size: 3
    stride: 1
    weight_filler {
      type: "xavier"
    }
    bias_filler {
      type: "constant"
      value: 0
    }
  }
}
layer {
  name: "conv4_3_norm_mbox_loc_perm"
  type: "Permute"
  bottom: "conv4_3_norm_mbox_loc"
  top: "conv4_3_norm_mbox_loc_perm"
  permute_param {
    order: 0
    order: 2
    order: 3
    order: 1
  }
}
layer {
  name: "conv4_3_norm_mbox_loc_flat"
  type: "Flatten"
  bottom: "conv4_3_norm_mbox_loc_perm"
  top: "conv4_3_norm_mbox_loc_flat"
  flatten_param {
    axis: 1
  }
}
layer {
  name: "conv4_3_norm_mbox_conf"
  type: "Convolution"
  bottom: "conv4_3_norm"
  top: "conv4_3_norm_mbox_conf"
  param {
    lr_mult: 1
    decay_mult: 1
  }
  param {
    lr_mult: 2
    decay_mult: 0
  }
  convolution_param {
    num_output: 44
    pad: 1
    kernel_size: 3
    stride: 1
    weight_filler {
      type: "xavier"
    }
    bias_filler {
      type: "constant"
      value: 0
    }
  }
}
layer {
  name: "conv4_3_norm_mbox_conf_perm"
  type: "Permute"
  bottom: "conv4_3_norm_mbox_conf"
  top: "conv4_3_norm_mbox_conf_perm"
  permute_param {
    order: 0
    order: 2
    order: 3
    order: 1
  }
}
layer {
  name: "conv4_3_norm_mbox_conf_flat"
  type: "Flatten"
  bottom: "conv4_3_norm_mbox_conf_perm"
  top: "conv4_3_norm_mbox_conf_flat"
  flatten_param {
    axis: 1
  }
}
layer {
  name: "conv4_3_norm_mbox_priorbox"
  type: "PriorBox"
  bottom: "conv4_3_norm"
  bottom: "data"
  top: "conv4_3_norm_mbox_priorbox"
  prior_box_param {
    min_size: 30
    max_size: 60
    aspect_ratio: 2
    flip: true
    clip: false
    variance: 0.1
    variance: 0.1
    variance: 0.2
    variance: 0.2
    step: 8
    offset: 0.5
  }
}
layer {
  name: "fc7_mbox_loc"
  type: "Convolution"
  bottom: "fc7"
  top: "fc7_mbox_loc"
  param {
    lr_mult: 1
    decay_mult: 1
  }
  param {
    lr_mult: 2
    decay_mult: 0
  }
  convolution_param {
    num_output: 24
    pad: 1
    kernel_size: 3
    stride: 1
    weight_filler {
      type: "xavier"
    }
    bias_filler {
      type: "constant"
      value: 0
    }
  }
}
layer {
  name: "fc7_mbox_loc_perm"
  type: "Permute"
  bottom: "fc7_mbox_loc"
  top: "fc7_mbox_loc_perm"
  permute_param {
    order: 0
    order: 2
    order: 3
    order: 1
  }
}
layer {
  name: "fc7_mbox_loc_flat"
  type: "Flatten"
  bottom: "fc7_mbox_loc_perm"
  top: "fc7_mbox_loc_flat"
  flatten_param {
    axis: 1
  }
}
layer {
  name: "fc7_mbox_conf"
  type: "Convolution"
  bottom: "fc7"
  top: "fc7_mbox_conf"
  param {
    lr_mult: 1
    decay_mult: 1
  }
  param {
    lr_mult: 2
    decay_mult: 0
  }
  convolution_param {
    num_output: 66
    pad: 1
    kernel_size: 3
    stride: 1
    weight_filler {
      type: "xavier"
    }
    bias_filler {
      type: "constant"
      value: 0
    }
  }
}
layer {
  name: "fc7_mbox_conf_perm"
  type: "Permute"
  bottom: "fc7_mbox_conf"
  top: "fc7_mbox_conf_perm"
  permute_param {
    order: 0
    order: 2
    order: 3
    order: 1
  }
}
layer {
  name: "fc7_mbox_conf_flat"
  type: "Flatten"
  bottom: "fc7_mbox_conf_perm"
  top: "fc7_mbox_conf_flat"
  flatten_param {
    axis: 1
  }
}
layer {
  name: "fc7_mbox_priorbox"
  type: "PriorBox"
  bottom: "fc7"
  bottom: "data"
  top: "fc7_mbox_priorbox"
  prior_box_param {
    min_size: 60
    max_size: 111
    aspect_ratio: 2
    aspect_ratio: 3
    flip: true
    clip: false
    variance: 0.1
    variance: 0.1
    variance: 0.2
    variance: 0.2
    step: 16
    offset: 0.5
  }
}
layer {
  name: "conv6_2_mbox_loc"
  type: "Convolution"
  bottom: "conv6_2"
  top: "conv6_2_mbox_loc"
  param {
    lr_mult: 1
    decay_mult: 1
  }
  param {
    lr_mult: 2
    decay_mult: 0
  }
  convolution_param {
    num_output: 24
    pad: 1
    kernel_size: 3
    stride: 1
    weight_filler {
      type: "xavier"
    }
    bias_filler {
      type: "constant"
      value: 0
    }
  }
}
layer {
  name: "conv6_2_mbox_loc_perm"
  type: "Permute"
  bottom: "conv6_2_mbox_loc"
  top: "conv6_2_mbox_loc_perm"
  permute_param {
    order: 0
    order: 2
    order: 3
    order: 1
  }
}
layer {
  name: "conv6_2_mbox_loc_flat"
  type: "Flatten"
  bottom: "conv6_2_mbox_loc_perm"
  top: "conv6_2_mbox_loc_flat"
  flatten_param {
    axis: 1
  }
}
layer {
  name: "conv6_2_mbox_conf"
  type: "Convolution"
  bottom: "conv6_2"
  top: "conv6_2_mbox_conf"
  param {
    lr_mult: 1
    decay_mult: 1
  }
  param {
    lr_mult: 2
    decay_mult: 0
  }
  convolution_param {
    num_output: 66
    pad: 1
    kernel_size: 3
    stride: 1
    weight_filler {
      type: "xavier"
    }
    bias_filler {
      type: "constant"
      value: 0
    }
  }
}
layer {
  name: "conv6_2_mbox_conf_perm"
  type: "Permute"
  bottom: "conv6_2_mbox_conf"
  top: "conv6_2_mbox_conf_perm"
  permute_param {
    order: 0
    order: 2
    order: 3
    order: 1
  }
}
layer {
  name: "conv6_2_mbox_conf_flat"
  type: "Flatten"
  bottom: "conv6_2_mbox_conf_perm"
  top: "conv6_2_mbox_conf_flat"
  flatten_param {
    axis: 1
  }
}
layer {
  name: "conv6_2_mbox_priorbox"
  type: "PriorBox"
  bottom: "conv6_2"
  bottom: "data"
  top: "conv6_2_mbox_priorbox"
  prior_box_param {
    min_size: 111
    max_size: 162
    aspect_ratio: 2
    aspect_ratio: 3
    flip: true
    clip: false
    variance: 0.1
    variance: 0.1
    variance: 0.2
    variance: 0.2
    step: 32
    offset: 0.5
  }
}
layer {
  name: "conv7_2_mbox_loc"
  type: "Convolution"
  bottom: "conv7_2"
  top: "conv7_2_mbox_loc"
  param {
    lr_mult: 1
    decay_mult: 1
  }
  param {
    lr_mult: 2
    decay_mult: 0
  }
  convolution_param {
    num_output: 24
    pad: 1
    kernel_size: 3
    stride: 1
    weight_filler {
      type: "xavier"
    }
    bias_filler {
      type: "constant"
      value: 0
    }
  }
}
layer {
  name: "conv7_2_mbox_loc_perm"
  type: "Permute"
  bottom: "conv7_2_mbox_loc"
  top: "conv7_2_mbox_loc_perm"
  permute_param {
    order: 0
    order: 2
    order: 3
    order: 1
  }
}
layer {
  name: "conv7_2_mbox_loc_flat"
  type: "Flatten"
  bottom: "conv7_2_mbox_loc_perm"
  top: "conv7_2_mbox_loc_flat"
  flatten_param {
    axis: 1
  }
}
layer {
  name: "conv7_2_mbox_conf"
  type: "Convolution"
  bottom: "conv7_2"
  top: "conv7_2_mbox_conf"
  param {
    lr_mult: 1
    decay_mult: 1
  }
  param {
    lr_mult: 2
    decay_mult: 0
  }
  convolution_param {
    num_output: 66
    pad: 1
    kernel_size: 3
    stride: 1
    weight_filler {
      type: "xavier"
    }
    bias_filler {
      type: "constant"
      value: 0
    }
  }
}
layer {
  name: "conv7_2_mbox_conf_perm"
  type: "Permute"
  bottom: "conv7_2_mbox_conf"
  top: "conv7_2_mbox_conf_perm"
  permute_param {
    order: 0
    order: 2
    order: 3
    order: 1
  }
}
layer {
  name: "conv7_2_mbox_conf_flat"
  type: "Flatten"
  bottom: "conv7_2_mbox_conf_perm"
  top: "conv7_2_mbox_conf_flat"
  flatten_param {
    axis: 1
  }
}
layer {
  name: "conv7_2_mbox_priorbox"
  type: "PriorBox"
  bottom: "conv7_2"
  bottom: "data"
  top: "conv7_2_mbox_priorbox"
  prior_box_param {
    min_size: 162
    max_size: 213
    aspect_ratio: 2
    aspect_ratio: 3
    flip: true
    clip: false
    variance: 0.1
    variance: 0.1
    variance: 0.2
    variance: 0.2
    step: 64
    offset: 0.5
  }
}
layer {
  name: "conv8_2_mbox_loc"
  type: "Convolution"
  bottom: "conv8_2"
  top: "conv8_2_mbox_loc"
  param {
    lr_mult: 1
    decay_mult: 1
  }
  param {
    lr_mult: 2
    decay_mult: 0
  }
  convolution_param {
    num_output: 16
    pad: 1
    kernel_size: 3
    stride: 1
    weight_filler {
      type: "xavier"
    }
    bias_filler {
      type: "constant"
      value: 0
    }
  }
}
layer {
  name: "conv8_2_mbox_loc_perm"
  type: "Permute"
  bottom: "conv8_2_mbox_loc"
  top: "conv8_2_mbox_loc_perm"
  permute_param {
    order: 0
    order: 2
    order: 3
    order: 1
  }
}
layer {
  name: "conv8_2_mbox_loc_flat"
  type: "Flatten"
  bottom: "conv8_2_mbox_loc_perm"
  top: "conv8_2_mbox_loc_flat"
  flatten_param {
    axis: 1
  }
}
layer {
  name: "conv8_2_mbox_conf"
  type: "Convolution"
  bottom: "conv8_2"
  top: "conv8_2_mbox_conf"
  param {
    lr_mult: 1
    decay_mult: 1
  }
  param {
    lr_mult: 2
    decay_mult: 0
  }
  convolution_param {
    num_output: 44
    pad: 1
    kernel_size: 3
    stride: 1
    weight_filler {
      type: "xavier"
    }
    bias_filler {
      type: "constant"
      value: 0
    }
  }
}
layer {
  name: "conv8_2_mbox_conf_perm"
  type: "Permute"
  bottom: "conv8_2_mbox_conf"
  top: "conv8_2_mbox_conf_perm"
  permute_param {
    order: 0
    order: 2
    order: 3
    order: 1
  }
}
layer {
  name: "conv8_2_mbox_conf_flat"
  type: "Flatten"
  bottom: "conv8_2_mbox_conf_perm"
  top: "conv8_2_mbox_conf_flat"
  flatten_param {
    axis: 1
  }
}
layer {
  name: "conv8_2_mbox_priorbox"
  type: "PriorBox"
  bottom: "conv8_2"
  bottom: "data"
  top: "conv8_2_mbox_priorbox"
  prior_box_param {
    min_size: 213
    max_size: 264
    aspect_ratio: 2
    flip: true
    clip: false
    variance: 0.1
    variance: 0.1
    variance: 0.2
    variance: 0.2
    step: 100
    offset: 0.5
  }
}
layer {
  name: "conv9_2_mbox_loc"
  type: "Convolution"
  bottom: "conv9_2"
  top: "conv9_2_mbox_loc"
  param {
    lr_mult: 1
    decay_mult: 1
  }
  param {
    lr_mult: 2
    decay_mult: 0
  }
  convolution_param {
    num_output: 16
    pad: 1
    kernel_size: 3
    stride: 1
    weight_filler {
      type: "xavier"
    }
    bias_filler {
      type: "constant"
      value: 0
    }
  }
}
layer {
  name: "conv9_2_mbox_loc_perm"
  type: "Permute"
  bottom: "conv9_2_mbox_loc"
  top: "conv9_2_mbox_loc_perm"
  permute_param {
    order: 0
    order: 2
    order: 3
    order: 1
  }
}
layer {
  name: "conv9_2_mbox_loc_flat"
  type: "Flatten"
  bottom: "conv9_2_mbox_loc_perm"
  top: "conv9_2_mbox_loc_flat"
  flatten_param {
    axis: 1
  }
}
layer {
  name: "conv9_2_mbox_conf"
  type: "Convolution"
  bottom: "conv9_2"
  top: "conv9_2_mbox_conf"
  param {
    lr_mult: 1
    decay_mult: 1
  }
  param {
    lr_mult: 2
    decay_mult: 0
  }
  convolution_param {
    num_output: 44
    pad: 1
    kernel_size: 3
    stride: 1
    weight_filler {
      type: "xavier"
    }
    bias_filler {
      type: "constant"
      value: 0
    }
  }
}
layer {
  name: "conv9_2_mbox_conf_perm"
  type: "Permute"
  bottom: "conv9_2_mbox_conf"
  top: "conv9_2_mbox_conf_perm"
  permute_param {
    order: 0
    order: 2
    order: 3
    order: 1
  }
}
layer {
  name: "conv9_2_mbox_conf_flat"
  type: "Flatten"
  bottom: "conv9_2_mbox_conf_perm"
  top: "conv9_2_mbox_conf_flat"
  flatten_param {
    axis: 1
  }
}
layer {
  name: "conv9_2_mbox_priorbox"
  type: "PriorBox"
  bottom: "conv9_2"
  bottom: "data"
  top: "conv9_2_mbox_priorbox"
  prior_box_param {
    min_size: 264
    max_size: 315
    aspect_ratio: 2
    flip: true
    clip: false
    variance: 0.1
    variance: 0.1
    variance: 0.2
    variance: 0.2
    step: 300
    offset: 0.5
  }
}
layer {
  name: "mbox_loc"
  type: "Concat"
  bottom: "conv4_3_norm_mbox_loc_flat"
  bottom: "fc7_mbox_loc_flat"
  bottom: "conv6_2_mbox_loc_flat"
  bottom: "conv7_2_mbox_loc_flat"
  bottom: "conv8_2_mbox_loc_flat"
  bottom: "conv9_2_mbox_loc_flat"
  top: "mbox_loc"
  concat_param {
    axis: 1
  }
}
layer {
  name: "mbox_conf"
  type: "Concat"
  bottom: "conv4_3_norm_mbox_conf_flat"
  bottom: "fc7_mbox_conf_flat"
  bottom: "conv6_2_mbox_conf_flat"
  bottom: "conv7_2_mbox_conf_flat"
  bottom: "conv8_2_mbox_conf_flat"
  bottom: "conv9_2_mbox_conf_flat"
  top: "mbox_conf"
  concat_param {
    axis: 1
  }
}
layer {
  name: "mbox_priorbox"
  type: "Concat"
  bottom: "conv4_3_norm_mbox_priorbox"
  bottom: "fc7_mbox_priorbox"
  bottom: "conv6_2_mbox_priorbox"
  bottom: "conv7_2_mbox_priorbox"
  bottom: "conv8_2_mbox_priorbox"
  bottom: "conv9_2_mbox_priorbox"
  top: "mbox_priorbox"
  concat_param {
    axis: 2
  }
}
layer {
  name: "mbox_loss"
  type: "MultiBoxLoss"
  bottom: "mbox_loc"
  bottom: "mbox_conf"
  bottom: "mbox_priorbox"
  bottom: "label"
  top: "mbox_loss"
  include {
    phase: TRAIN
  }
  propagate_down: true
  propagate_down: true
  propagate_down: false
  propagate_down: false
  loss_param {
    normalization: VALID
  }
  multibox_loss_param {
    loc_loss_type: SMOOTH_L1
    conf_loss_type: SOFTMAX
    loc_weight: 1
    num_classes: 11
    share_location: true
    match_type: PER_PREDICTION
    overlap_threshold: 0.5
    use_prior_for_matching: true
    background_label_id: 0
    use_difficult_gt: true
    neg_pos_ratio: 3
    neg_overlap: 0.5
    code_type: CENTER_SIZE
    ignore_cross_boundary_bbox: false
    mining_type: MAX_NEGATIVE
  }
}
I0402 10:07:12.994449 11179 layer_factory.hpp:77] Creating layer data
I0402 10:07:12.995116 11179 net.cpp:100] Creating Layer data
I0402 10:07:12.995201 11179 net.cpp:408] data -> data
I0402 10:07:12.995306 11179 net.cpp:408] data -> label
I0402 10:07:12.998821 11193 db_lmdb.cpp:35] Opened lmdb examples/NWPU_VHR/NWPU_VHR_trainval_lmdb
I0402 10:07:13.041460 11179 annotated_data_layer.cpp:62] output data size: 32,3,300,300
I0402 10:07:13.177645 11179 net.cpp:150] Setting up data
I0402 10:07:13.185775 11179 net.cpp:157] Top shape: 32 3 300 300 (8640000)
I0402 10:07:13.185819 11179 net.cpp:157] Top shape: 1 1 4 8 (32)
I0402 10:07:13.185837 11179 net.cpp:165] Memory required for data: 34560128
I0402 10:07:13.185860 11179 layer_factory.hpp:77] Creating layer data_data_0_split
I0402 10:07:13.185889 11179 net.cpp:100] Creating Layer data_data_0_split
I0402 10:07:13.185910 11179 net.cpp:434] data_data_0_split <- data
I0402 10:07:13.185942 11179 net.cpp:408] data_data_0_split -> data_data_0_split_0
I0402 10:07:13.185971 11179 net.cpp:408] data_data_0_split -> data_data_0_split_1
I0402 10:07:13.185993 11179 net.cpp:408] data_data_0_split -> data_data_0_split_2
I0402 10:07:13.186017 11179 net.cpp:408] data_data_0_split -> data_data_0_split_3
I0402 10:07:13.186039 11179 net.cpp:408] data_data_0_split -> data_data_0_split_4
I0402 10:07:13.186060 11179 net.cpp:408] data_data_0_split -> data_data_0_split_5
I0402 10:07:13.186084 11179 net.cpp:408] data_data_0_split -> data_data_0_split_6
I0402 10:07:13.186208 11179 net.cpp:150] Setting up data_data_0_split
I0402 10:07:13.186231 11179 net.cpp:157] Top shape: 32 3 300 300 (8640000)
I0402 10:07:13.186250 11179 net.cpp:157] Top shape: 32 3 300 300 (8640000)
I0402 10:07:13.186269 11179 net.cpp:157] Top shape: 32 3 300 300 (8640000)
I0402 10:07:13.186287 11179 net.cpp:157] Top shape: 32 3 300 300 (8640000)
I0402 10:07:13.186305 11179 net.cpp:157] Top shape: 32 3 300 300 (8640000)
I0402 10:07:13.186322 11179 net.cpp:157] Top shape: 32 3 300 300 (8640000)
I0402 10:07:13.186343 11179 net.cpp:157] Top shape: 32 3 300 300 (8640000)
I0402 10:07:13.186359 11179 net.cpp:165] Memory required for data: 276480128
I0402 10:07:13.186375 11179 layer_factory.hpp:77] Creating layer conv1_1
I0402 10:07:13.186410 11179 net.cpp:100] Creating Layer conv1_1
I0402 10:07:13.186429 11179 net.cpp:434] conv1_1 <- data_data_0_split_0
I0402 10:07:13.186450 11179 net.cpp:408] conv1_1 -> conv1_1
I0402 10:07:14.570525 11179 net.cpp:150] Setting up conv1_1
I0402 10:07:14.571017 11179 net.cpp:157] Top shape: 32 64 300 300 (184320000)
I0402 10:07:14.571038 11179 net.cpp:165] Memory required for data: 1013760128
I0402 10:07:14.571077 11179 layer_factory.hpp:77] Creating layer relu1_1
I0402 10:07:14.571101 11179 net.cpp:100] Creating Layer relu1_1
I0402 10:07:14.571120 11179 net.cpp:434] relu1_1 <- conv1_1
I0402 10:07:14.571139 11179 net.cpp:395] relu1_1 -> conv1_1 (in-place)
I0402 10:07:14.572018 11179 net.cpp:150] Setting up relu1_1
I0402 10:07:14.574182 11179 net.cpp:157] Top shape: 32 64 300 300 (184320000)
I0402 10:07:14.574204 11179 net.cpp:165] Memory required for data: 1751040128
I0402 10:07:14.574223 11179 layer_factory.hpp:77] Creating layer conv1_2
I0402 10:07:14.574252 11179 net.cpp:100] Creating Layer conv1_2
I0402 10:07:14.574271 11179 net.cpp:434] conv1_2 <- conv1_1
I0402 10:07:14.574292 11179 net.cpp:408] conv1_2 -> conv1_2
I0402 10:07:14.583798 11179 net.cpp:150] Setting up conv1_2
I0402 10:07:14.583861 11179 net.cpp:157] Top shape: 32 64 300 300 (184320000)
I0402 10:07:14.583883 11179 net.cpp:165] Memory required for data: 2488320128
I0402 10:07:14.583912 11179 layer_factory.hpp:77] Creating layer relu1_2
I0402 10:07:14.583938 11179 net.cpp:100] Creating Layer relu1_2
I0402 10:07:14.583956 11179 net.cpp:434] relu1_2 <- conv1_2
I0402 10:07:14.584753 11179 net.cpp:395] relu1_2 -> conv1_2 (in-place)
I0402 10:07:14.584990 11179 net.cpp:150] Setting up relu1_2
I0402 10:07:14.585018 11179 net.cpp:157] Top shape: 32 64 300 300 (184320000)
I0402 10:07:14.585037 11179 net.cpp:165] Memory required for data: 3225600128
I0402 10:07:14.585054 11179 layer_factory.hpp:77] Creating layer pool1
I0402 10:07:14.585074 11179 net.cpp:100] Creating Layer pool1
I0402 10:07:14.585093 11179 net.cpp:434] pool1 <- conv1_2
I0402 10:07:14.585113 11179 net.cpp:408] pool1 -> pool1
I0402 10:07:14.585198 11179 net.cpp:150] Setting up pool1
I0402 10:07:14.585222 11179 net.cpp:157] Top shape: 32 64 150 150 (46080000)
I0402 10:07:14.585242 11179 net.cpp:165] Memory required for data: 3409920128
I0402 10:07:14.585281 11179 layer_factory.hpp:77] Creating layer conv2_1
I0402 10:07:14.585309 11179 net.cpp:100] Creating Layer conv2_1
I0402 10:07:14.585327 11179 net.cpp:434] conv2_1 <- pool1
I0402 10:07:14.585346 11179 net.cpp:408] conv2_1 -> conv2_1
I0402 10:07:14.594885 11179 net.cpp:150] Setting up conv2_1
I0402 10:07:14.594954 11179 net.cpp:157] Top shape: 32 128 150 150 (92160000)
I0402 10:07:14.594972 11179 net.cpp:165] Memory required for data: 3778560128
I0402 10:07:14.595002 11179 layer_factory.hpp:77] Creating layer relu2_1
I0402 10:07:14.595029 11179 net.cpp:100] Creating Layer relu2_1
I0402 10:07:14.595046 11179 net.cpp:434] relu2_1 <- conv2_1
I0402 10:07:14.595067 11179 net.cpp:395] relu2_1 -> conv2_1 (in-place)
I0402 10:07:14.596393 11179 net.cpp:150] Setting up relu2_1
I0402 10:07:14.596424 11179 net.cpp:157] Top shape: 32 128 150 150 (92160000)
I0402 10:07:14.596441 11179 net.cpp:165] Memory required for data: 4147200128
I0402 10:07:14.596457 11179 layer_factory.hpp:77] Creating layer conv2_2
I0402 10:07:14.596487 11179 net.cpp:100] Creating Layer conv2_2
I0402 10:07:14.597440 11179 net.cpp:434] conv2_2 <- conv2_1
I0402 10:07:14.597470 11179 net.cpp:408] conv2_2 -> conv2_2
I0402 10:07:14.607659 11179 net.cpp:150] Setting up conv2_2
I0402 10:07:14.607724 11179 net.cpp:157] Top shape: 32 128 150 150 (92160000)
I0402 10:07:14.607744 11179 net.cpp:165] Memory required for data: 4515840128
I0402 10:07:14.607770 11179 layer_factory.hpp:77] Creating layer relu2_2
I0402 10:07:14.607792 11179 net.cpp:100] Creating Layer relu2_2
I0402 10:07:14.607810 11179 net.cpp:434] relu2_2 <- conv2_2
I0402 10:07:14.607831 11179 net.cpp:395] relu2_2 -> conv2_2 (in-place)
I0402 10:07:14.608943 11179 net.cpp:150] Setting up relu2_2
I0402 10:07:14.611505 11179 net.cpp:157] Top shape: 32 128 150 150 (92160000)
I0402 10:07:14.611534 11179 net.cpp:165] Memory required for data: 4884480128
I0402 10:07:14.611557 11179 layer_factory.hpp:77] Creating layer pool2
I0402 10:07:14.611582 11179 net.cpp:100] Creating Layer pool2
I0402 10:07:14.611603 11179 net.cpp:434] pool2 <- conv2_2
I0402 10:07:14.611624 11179 net.cpp:408] pool2 -> pool2
I0402 10:07:14.611718 11179 net.cpp:150] Setting up pool2
I0402 10:07:14.611742 11179 net.cpp:157] Top shape: 32 128 75 75 (23040000)
I0402 10:07:14.611759 11179 net.cpp:165] Memory required for data: 4976640128
I0402 10:07:14.611776 11179 layer_factory.hpp:77] Creating layer conv3_1
I0402 10:07:14.611805 11179 net.cpp:100] Creating Layer conv3_1
I0402 10:07:14.611824 11179 net.cpp:434] conv3_1 <- pool2
I0402 10:07:14.611845 11179 net.cpp:408] conv3_1 -> conv3_1
I0402 10:07:14.628180 11179 net.cpp:150] Setting up conv3_1
I0402 10:07:14.629487 11179 net.cpp:157] Top shape: 32 256 75 75 (46080000)
I0402 10:07:14.629508 11179 net.cpp:165] Memory required for data: 5160960128
I0402 10:07:14.629542 11179 layer_factory.hpp:77] Creating layer relu3_1
I0402 10:07:14.629571 11179 net.cpp:100] Creating Layer relu3_1
I0402 10:07:14.629592 11179 net.cpp:434] relu3_1 <- conv3_1
I0402 10:07:14.629613 11179 net.cpp:395] relu3_1 -> conv3_1 (in-place)
I0402 10:07:14.629920 11179 net.cpp:150] Setting up relu3_1
I0402 10:07:14.629950 11179 net.cpp:157] Top shape: 32 256 75 75 (46080000)
I0402 10:07:14.629968 11179 net.cpp:165] Memory required for data: 5345280128
I0402 10:07:14.629986 11179 layer_factory.hpp:77] Creating layer conv3_2
I0402 10:07:14.630014 11179 net.cpp:100] Creating Layer conv3_2
I0402 10:07:14.630034 11179 net.cpp:434] conv3_2 <- conv3_1
I0402 10:07:14.630057 11179 net.cpp:408] conv3_2 -> conv3_2
I0402 10:07:14.678274 11179 net.cpp:150] Setting up conv3_2
I0402 10:07:14.678311 11179 net.cpp:157] Top shape: 32 256 75 75 (46080000)
I0402 10:07:14.678318 11179 net.cpp:165] Memory required for data: 5529600128
I0402 10:07:14.678337 11179 layer_factory.hpp:77] Creating layer relu3_2
I0402 10:07:14.678354 11179 net.cpp:100] Creating Layer relu3_2
I0402 10:07:14.678364 11179 net.cpp:434] relu3_2 <- conv3_2
I0402 10:07:14.678373 11179 net.cpp:395] relu3_2 -> conv3_2 (in-place)
I0402 10:07:14.678649 11179 net.cpp:150] Setting up relu3_2
I0402 10:07:14.678685 11179 net.cpp:157] Top shape: 32 256 75 75 (46080000)
I0402 10:07:14.678697 11179 net.cpp:165] Memory required for data: 5713920128
I0402 10:07:14.678704 11179 layer_factory.hpp:77] Creating layer conv3_3
I0402 10:07:14.678731 11179 net.cpp:100] Creating Layer conv3_3
I0402 10:07:14.678741 11179 net.cpp:434] conv3_3 <- conv3_2
I0402 10:07:14.678755 11179 net.cpp:408] conv3_3 -> conv3_3
I0402 10:07:14.705876 11179 net.cpp:150] Setting up conv3_3
I0402 10:07:14.705915 11179 net.cpp:157] Top shape: 32 256 75 75 (46080000)
I0402 10:07:14.705922 11179 net.cpp:165] Memory required for data: 5898240128
I0402 10:07:14.705940 11179 layer_factory.hpp:77] Creating layer relu3_3
I0402 10:07:14.705957 11179 net.cpp:100] Creating Layer relu3_3
I0402 10:07:14.705969 11179 net.cpp:434] relu3_3 <- conv3_3
I0402 10:07:14.705986 11179 net.cpp:395] relu3_3 -> conv3_3 (in-place)
I0402 10:07:14.710186 11179 net.cpp:150] Setting up relu3_3
I0402 10:07:14.710211 11179 net.cpp:157] Top shape: 32 256 75 75 (46080000)
I0402 10:07:14.710220 11179 net.cpp:165] Memory required for data: 6082560128
I0402 10:07:14.710229 11179 layer_factory.hpp:77] Creating layer pool3
I0402 10:07:14.710245 11179 net.cpp:100] Creating Layer pool3
I0402 10:07:14.710254 11179 net.cpp:434] pool3 <- conv3_3
I0402 10:07:14.710266 11179 net.cpp:408] pool3 -> pool3
I0402 10:07:14.710355 11179 net.cpp:150] Setting up pool3
I0402 10:07:14.710369 11179 net.cpp:157] Top shape: 32 256 38 38 (11829248)
I0402 10:07:14.710376 11179 net.cpp:165] Memory required for data: 6129877120
I0402 10:07:14.710383 11179 layer_factory.hpp:77] Creating layer conv4_1
I0402 10:07:14.710402 11179 net.cpp:100] Creating Layer conv4_1
I0402 10:07:14.710410 11179 net.cpp:434] conv4_1 <- pool3
I0402 10:07:14.710422 11179 net.cpp:408] conv4_1 -> conv4_1
I0402 10:07:14.767941 11179 net.cpp:150] Setting up conv4_1
I0402 10:07:14.767980 11179 net.cpp:157] Top shape: 32 512 38 38 (23658496)
I0402 10:07:14.767988 11179 net.cpp:165] Memory required for data: 6224511104
I0402 10:07:14.768008 11179 layer_factory.hpp:77] Creating layer relu4_1
I0402 10:07:14.768023 11179 net.cpp:100] Creating Layer relu4_1
I0402 10:07:14.768035 11179 net.cpp:434] relu4_1 <- conv4_1
I0402 10:07:14.768045 11179 net.cpp:395] relu4_1 -> conv4_1 (in-place)
I0402 10:07:14.771559 11179 net.cpp:150] Setting up relu4_1
I0402 10:07:14.771581 11179 net.cpp:157] Top shape: 32 512 38 38 (23658496)
I0402 10:07:14.771589 11179 net.cpp:165] Memory required for data: 6319145088
I0402 10:07:14.771596 11179 layer_factory.hpp:77] Creating layer conv4_2
I0402 10:07:14.771616 11179 net.cpp:100] Creating Layer conv4_2
I0402 10:07:14.771625 11179 net.cpp:434] conv4_2 <- conv4_1
I0402 10:07:14.771642 11179 net.cpp:408] conv4_2 -> conv4_2
I0402 10:07:14.902878 11179 net.cpp:150] Setting up conv4_2
I0402 10:07:14.902916 11179 net.cpp:157] Top shape: 32 512 38 38 (23658496)
I0402 10:07:14.902923 11179 net.cpp:165] Memory required for data: 6413779072
I0402 10:07:14.902950 11179 layer_factory.hpp:77] Creating layer relu4_2
I0402 10:07:14.902964 11179 net.cpp:100] Creating Layer relu4_2
I0402 10:07:14.902973 11179 net.cpp:434] relu4_2 <- conv4_2
I0402 10:07:14.902985 11179 net.cpp:395] relu4_2 -> conv4_2 (in-place)
I0402 10:07:14.903228 11179 net.cpp:150] Setting up relu4_2
I0402 10:07:14.903242 11179 net.cpp:157] Top shape: 32 512 38 38 (23658496)
I0402 10:07:14.903247 11179 net.cpp:165] Memory required for data: 6508413056
I0402 10:07:14.903254 11179 layer_factory.hpp:77] Creating layer conv4_3
I0402 10:07:14.903271 11179 net.cpp:100] Creating Layer conv4_3
I0402 10:07:14.903280 11179 net.cpp:434] conv4_3 <- conv4_2
I0402 10:07:14.903290 11179 net.cpp:408] conv4_3 -> conv4_3
I0402 10:07:14.977140 11179 net.cpp:150] Setting up conv4_3
I0402 10:07:14.997790 11179 net.cpp:157] Top shape: 32 512 38 38 (23658496)
I0402 10:07:14.998018 11179 net.cpp:165] Memory required for data: 6603047040
I0402 10:07:14.998152 11179 layer_factory.hpp:77] Creating layer relu4_3
I0402 10:07:14.998247 11179 net.cpp:100] Creating Layer relu4_3
I0402 10:07:14.998373 11179 net.cpp:434] relu4_3 <- conv4_3
I0402 10:07:14.998448 11179 net.cpp:395] relu4_3 -> conv4_3 (in-place)
I0402 10:07:14.998991 11179 net.cpp:150] Setting up relu4_3
I0402 10:07:14.999125 11179 net.cpp:157] Top shape: 32 512 38 38 (23658496)
I0402 10:07:14.999229 11179 net.cpp:165] Memory required for data: 6697681024
I0402 10:07:14.999300 11179 layer_factory.hpp:77] Creating layer conv4_3_relu4_3_0_split
I0402 10:07:14.999379 11179 net.cpp:100] Creating Layer conv4_3_relu4_3_0_split
I0402 10:07:14.999486 11179 net.cpp:434] conv4_3_relu4_3_0_split <- conv4_3
I0402 10:07:14.999563 11179 net.cpp:408] conv4_3_relu4_3_0_split -> conv4_3_relu4_3_0_split_0
I0402 10:07:14.999684 11179 net.cpp:408] conv4_3_relu4_3_0_split -> conv4_3_relu4_3_0_split_1
I0402 10:07:14.999836 11179 net.cpp:150] Setting up conv4_3_relu4_3_0_split
I0402 10:07:14.999948 11179 net.cpp:157] Top shape: 32 512 38 38 (23658496)
I0402 10:07:15.000020 11179 net.cpp:157] Top shape: 32 512 38 38 (23658496)
I0402 10:07:15.000087 11179 net.cpp:165] Memory required for data: 6886948992
I0402 10:07:15.000191 11179 layer_factory.hpp:77] Creating layer pool4
I0402 10:07:15.000269 11179 net.cpp:100] Creating Layer pool4
I0402 10:07:15.000339 11179 net.cpp:434] pool4 <- conv4_3_relu4_3_0_split_0
I0402 10:07:15.000449 11179 net.cpp:408] pool4 -> pool4
I0402 10:07:15.000615 11179 net.cpp:150] Setting up pool4
I0402 10:07:15.000690 11179 net.cpp:157] Top shape: 32 512 19 19 (5914624)
I0402 10:07:15.000797 11179 net.cpp:165] Memory required for data: 6910607488
I0402 10:07:15.000866 11179 layer_factory.hpp:77] Creating layer conv5_1
I0402 10:07:15.000985 11179 net.cpp:100] Creating Layer conv5_1
I0402 10:07:15.001055 11179 net.cpp:434] conv5_1 <- pool4
I0402 10:07:15.001135 11179 net.cpp:408] conv5_1 -> conv5_1
I0402 10:07:15.069478 11179 net.cpp:150] Setting up conv5_1
I0402 10:07:15.069705 11179 net.cpp:157] Top shape: 32 512 19 19 (5914624)
I0402 10:07:15.069849 11179 net.cpp:165] Memory required for data: 6934265984
I0402 10:07:15.069936 11179 layer_factory.hpp:77] Creating layer relu5_1
I0402 10:07:15.070019 11179 net.cpp:100] Creating Layer relu5_1
I0402 10:07:15.070094 11179 net.cpp:434] relu5_1 <- conv5_1
I0402 10:07:15.070175 11179 net.cpp:395] relu5_1 -> conv5_1 (in-place)
I0402 10:07:15.071319 11179 net.cpp:150] Setting up relu5_1
I0402 10:07:15.071452 11179 net.cpp:157] Top shape: 32 512 19 19 (5914624)
I0402 10:07:15.071521 11179 net.cpp:165] Memory required for data: 6957924480
I0402 10:07:15.071593 11179 layer_factory.hpp:77] Creating layer conv5_2
I0402 10:07:15.071676 11179 net.cpp:100] Creating Layer conv5_2
I0402 10:07:15.071746 11179 net.cpp:434] conv5_2 <- conv5_1
I0402 10:07:15.077864 11179 net.cpp:408] conv5_2 -> conv5_2
I0402 10:07:15.155881 11179 net.cpp:150] Setting up conv5_2
I0402 10:07:15.156102 11179 net.cpp:157] Top shape: 32 512 19 19 (5914624)
I0402 10:07:15.156215 11179 net.cpp:165] Memory required for data: 6981582976
I0402 10:07:15.156294 11179 layer_factory.hpp:77] Creating layer relu5_2
I0402 10:07:15.156368 11179 net.cpp:100] Creating Layer relu5_2
I0402 10:07:15.156466 11179 net.cpp:434] relu5_2 <- conv5_2
I0402 10:07:15.156541 11179 net.cpp:395] relu5_2 -> conv5_2 (in-place)
I0402 10:07:15.156836 11179 net.cpp:150] Setting up relu5_2
I0402 10:07:15.156936 11179 net.cpp:157] Top shape: 32 512 19 19 (5914624)
I0402 10:07:15.156997 11179 net.cpp:165] Memory required for data: 7005241472
I0402 10:07:15.157061 11179 layer_factory.hpp:77] Creating layer conv5_3
I0402 10:07:15.157140 11179 net.cpp:100] Creating Layer conv5_3
I0402 10:07:15.157202 11179 net.cpp:434] conv5_3 <- conv5_2
I0402 10:07:15.158972 11179 net.cpp:408] conv5_3 -> conv5_3
I0402 10:07:15.215013 11179 net.cpp:150] Setting up conv5_3
I0402 10:07:15.233777 11179 net.cpp:157] Top shape: 32 512 19 19 (5914624)
I0402 10:07:15.233999 11179 net.cpp:165] Memory required for data: 7028899968
I0402 10:07:15.234139 11179 layer_factory.hpp:77] Creating layer relu5_3
I0402 10:07:15.234242 11179 net.cpp:100] Creating Layer relu5_3
I0402 10:07:15.234364 11179 net.cpp:434] relu5_3 <- conv5_3
I0402 10:07:15.234452 11179 net.cpp:395] relu5_3 -> conv5_3 (in-place)
I0402 10:07:15.234974 11179 net.cpp:150] Setting up relu5_3
I0402 10:07:15.235107 11179 net.cpp:157] Top shape: 32 512 19 19 (5914624)
I0402 10:07:15.235213 11179 net.cpp:165] Memory required for data: 7052558464
I0402 10:07:15.235285 11179 layer_factory.hpp:77] Creating layer pool5
I0402 10:07:15.235361 11179 net.cpp:100] Creating Layer pool5
I0402 10:07:15.235469 11179 net.cpp:434] pool5 <- conv5_3
I0402 10:07:15.235544 11179 net.cpp:408] pool5 -> pool5
I0402 10:07:15.235741 11179 net.cpp:150] Setting up pool5
I0402 10:07:15.235818 11179 net.cpp:157] Top shape: 32 512 19 19 (5914624)
I0402 10:07:15.235918 11179 net.cpp:165] Memory required for data: 7076216960
I0402 10:07:15.235991 11179 layer_factory.hpp:77] Creating layer fc6_depthwise
I0402 10:07:15.236078 11179 net.cpp:100] Creating Layer fc6_depthwise
I0402 10:07:15.236184 11179 net.cpp:434] fc6_depthwise <- pool5
I0402 10:07:15.236264 11179 net.cpp:408] fc6_depthwise -> fc6_3x3
I0402 10:07:15.236860 11179 net.cpp:150] Setting up fc6_depthwise
I0402 10:07:15.236989 11179 net.cpp:157] Top shape: 32 512 19 19 (5914624)
I0402 10:07:15.237095 11179 net.cpp:165] Memory required for data: 7099875456
I0402 10:07:15.237174 11179 layer_factory.hpp:77] Creating layer fc6_3x3_relu
I0402 10:07:15.237252 11179 net.cpp:100] Creating Layer fc6_3x3_relu
I0402 10:07:15.237323 11179 net.cpp:434] fc6_3x3_relu <- fc6_3x3
I0402 10:07:15.237432 11179 net.cpp:395] fc6_3x3_relu -> fc6_3x3 (in-place)
I0402 10:07:15.238644 11179 net.cpp:150] Setting up fc6_3x3_relu
I0402 10:07:15.239779 11179 net.cpp:157] Top shape: 32 512 19 19 (5914624)
I0402 10:07:15.239945 11179 net.cpp:165] Memory required for data: 7123533952
I0402 10:07:15.240047 11179 layer_factory.hpp:77] Creating layer fc6_1x1
I0402 10:07:15.240129 11179 net.cpp:100] Creating Layer fc6_1x1
I0402 10:07:15.240195 11179 net.cpp:434] fc6_1x1 <- fc6_3x3
I0402 10:07:15.240303 11179 net.cpp:408] fc6_1x1 -> fc6
I0402 10:07:15.246453 11179 net.cpp:150] Setting up fc6_1x1
I0402 10:07:15.264195 11179 net.cpp:157] Top shape: 32 1024 19 19 (11829248)
I0402 10:07:15.264411 11179 net.cpp:165] Memory required for data: 7170850944
I0402 10:07:15.264497 11179 layer_factory.hpp:77] Creating layer relu6
I0402 10:07:15.264571 11179 net.cpp:100] Creating Layer relu6
I0402 10:07:15.264639 11179 net.cpp:434] relu6 <- fc6
I0402 10:07:15.264716 11179 net.cpp:395] relu6 -> fc6 (in-place)
I0402 10:07:15.265143 11179 net.cpp:150] Setting up relu6
I0402 10:07:15.265249 11179 net.cpp:157] Top shape: 32 1024 19 19 (11829248)
I0402 10:07:15.265317 11179 net.cpp:165] Memory required for data: 7218167936
I0402 10:07:15.265388 11179 layer_factory.hpp:77] Creating layer fc7
I0402 10:07:15.265470 11179 net.cpp:100] Creating Layer fc7
I0402 10:07:15.265537 11179 net.cpp:434] fc7 <- fc6
I0402 10:07:15.265611 11179 net.cpp:408] fc7 -> fc7
I0402 10:07:15.295681 11179 net.cpp:150] Setting up fc7
I0402 10:07:15.304430 11179 net.cpp:157] Top shape: 32 1024 19 19 (11829248)
I0402 10:07:15.304615 11179 net.cpp:165] Memory required for data: 7265484928
I0402 10:07:15.304742 11179 layer_factory.hpp:77] Creating layer relu7
I0402 10:07:15.304819 11179 net.cpp:100] Creating Layer relu7
I0402 10:07:15.304929 11179 net.cpp:434] relu7 <- fc7
I0402 10:07:15.305016 11179 net.cpp:395] relu7 -> fc7 (in-place)
I0402 10:07:15.305467 11179 net.cpp:150] Setting up relu7
I0402 10:07:15.305583 11179 net.cpp:157] Top shape: 32 1024 19 19 (11829248)
I0402 10:07:15.305652 11179 net.cpp:165] Memory required for data: 7312801920
I0402 10:07:15.305744 11179 layer_factory.hpp:77] Creating layer fc7_relu7_0_split
I0402 10:07:15.305829 11179 net.cpp:100] Creating Layer fc7_relu7_0_split
I0402 10:07:15.305932 11179 net.cpp:434] fc7_relu7_0_split <- fc7
I0402 10:07:15.306013 11179 net.cpp:408] fc7_relu7_0_split -> fc7_relu7_0_split_0
I0402 10:07:15.306140 11179 net.cpp:408] fc7_relu7_0_split -> fc7_relu7_0_split_1
I0402 10:07:15.306219 11179 net.cpp:408] fc7_relu7_0_split -> fc7_relu7_0_split_2
I0402 10:07:15.306360 11179 net.cpp:408] fc7_relu7_0_split -> fc7_relu7_0_split_3
I0402 10:07:15.306596 11179 net.cpp:150] Setting up fc7_relu7_0_split
I0402 10:07:15.306713 11179 net.cpp:157] Top shape: 32 1024 19 19 (11829248)
I0402 10:07:15.306818 11179 net.cpp:157] Top shape: 32 1024 19 19 (11829248)
I0402 10:07:15.306890 11179 net.cpp:157] Top shape: 32 1024 19 19 (11829248)
I0402 10:07:15.306962 11179 net.cpp:157] Top shape: 32 1024 19 19 (11829248)
I0402 10:07:15.307063 11179 net.cpp:165] Memory required for data: 7502069888
I0402 10:07:15.307134 11179 layer_factory.hpp:77] Creating layer conv6_1
I0402 10:07:15.307256 11179 net.cpp:100] Creating Layer conv6_1
I0402 10:07:15.307329 11179 net.cpp:434] conv6_1 <- fc7_relu7_0_split_0
I0402 10:07:15.307412 11179 net.cpp:408] conv6_1 -> conv6_1
I0402 10:07:15.324527 11179 net.cpp:150] Setting up conv6_1
I0402 10:07:15.333775 11179 net.cpp:157] Top shape: 32 256 19 19 (2957312)
I0402 10:07:15.333947 11179 net.cpp:165] Memory required for data: 7513899136
I0402 10:07:15.334090 11179 layer_factory.hpp:77] Creating layer conv6_1_relu
I0402 10:07:15.334177 11179 net.cpp:100] Creating Layer conv6_1_relu
I0402 10:07:15.334292 11179 net.cpp:434] conv6_1_relu <- conv6_1
I0402 10:07:15.334372 11179 net.cpp:395] conv6_1_relu -> conv6_1 (in-place)
I0402 10:07:15.335705 11179 net.cpp:150] Setting up conv6_1_relu
I0402 10:07:15.335844 11179 net.cpp:157] Top shape: 32 256 19 19 (2957312)
I0402 10:07:15.335956 11179 net.cpp:165] Memory required for data: 7525728384
I0402 10:07:15.336031 11179 layer_factory.hpp:77] Creating layer conv6_2
I0402 10:07:15.336155 11179 net.cpp:100] Creating Layer conv6_2
I0402 10:07:15.336228 11179 net.cpp:434] conv6_2 <- conv6_1
I0402 10:07:15.336310 11179 net.cpp:408] conv6_2 -> conv6_2
I0402 10:07:15.368180 11179 net.cpp:150] Setting up conv6_2
I0402 10:07:15.385229 11179 net.cpp:157] Top shape: 32 512 10 10 (1638400)
I0402 10:07:15.385452 11179 net.cpp:165] Memory required for data: 7532281984
I0402 10:07:15.385596 11179 layer_factory.hpp:77] Creating layer conv6_2_relu
I0402 10:07:15.385725 11179 net.cpp:100] Creating Layer conv6_2_relu
I0402 10:07:15.385820 11179 net.cpp:434] conv6_2_relu <- conv6_2
I0402 10:07:15.385895 11179 net.cpp:395] conv6_2_relu -> conv6_2 (in-place)
I0402 10:07:15.386392 11179 net.cpp:150] Setting up conv6_2_relu
I0402 10:07:15.386515 11179 net.cpp:157] Top shape: 32 512 10 10 (1638400)
I0402 10:07:15.386582 11179 net.cpp:165] Memory required for data: 7538835584
I0402 10:07:15.386683 11179 layer_factory.hpp:77] Creating layer conv6_2_conv6_2_relu_0_split
I0402 10:07:15.386761 11179 net.cpp:100] Creating Layer conv6_2_conv6_2_relu_0_split
I0402 10:07:15.386827 11179 net.cpp:434] conv6_2_conv6_2_relu_0_split <- conv6_2
I0402 10:07:15.386899 11179 net.cpp:408] conv6_2_conv6_2_relu_0_split -> conv6_2_conv6_2_relu_0_split_0
I0402 10:07:15.386979 11179 net.cpp:408] conv6_2_conv6_2_relu_0_split -> conv6_2_conv6_2_relu_0_split_1
I0402 10:07:15.387084 11179 net.cpp:408] conv6_2_conv6_2_relu_0_split -> conv6_2_conv6_2_relu_0_split_2
I0402 10:07:15.387158 11179 net.cpp:408] conv6_2_conv6_2_relu_0_split -> conv6_2_conv6_2_relu_0_split_3
I0402 10:07:15.387336 11179 net.cpp:150] Setting up conv6_2_conv6_2_relu_0_split
I0402 10:07:15.387440 11179 net.cpp:157] Top shape: 32 512 10 10 (1638400)
I0402 10:07:15.387506 11179 net.cpp:157] Top shape: 32 512 10 10 (1638400)
I0402 10:07:15.387578 11179 net.cpp:157] Top shape: 32 512 10 10 (1638400)
I0402 10:07:15.387676 11179 net.cpp:157] Top shape: 32 512 10 10 (1638400)
I0402 10:07:15.387737 11179 net.cpp:165] Memory required for data: 7565049984
I0402 10:07:15.387800 11179 layer_factory.hpp:77] Creating layer conv7_1
I0402 10:07:15.387881 11179 net.cpp:100] Creating Layer conv7_1
I0402 10:07:15.387948 11179 net.cpp:434] conv7_1 <- conv6_2_conv6_2_relu_0_split_0
I0402 10:07:15.388020 11179 net.cpp:408] conv7_1 -> conv7_1
I0402 10:07:15.390641 11179 net.cpp:150] Setting up conv7_1
I0402 10:07:15.390753 11179 net.cpp:157] Top shape: 32 128 10 10 (409600)
I0402 10:07:15.390833 11179 net.cpp:165] Memory required for data: 7566688384
I0402 10:07:15.390916 11179 layer_factory.hpp:77] Creating layer conv7_1_relu
I0402 10:07:15.391036 11179 net.cpp:100] Creating Layer conv7_1_relu
I0402 10:07:15.391103 11179 net.cpp:434] conv7_1_relu <- conv7_1
I0402 10:07:15.391178 11179 net.cpp:395] conv7_1_relu -> conv7_1 (in-place)
I0402 10:07:15.391510 11179 net.cpp:150] Setting up conv7_1_relu
I0402 10:07:15.391650 11179 net.cpp:157] Top shape: 32 128 10 10 (409600)
I0402 10:07:15.391721 11179 net.cpp:165] Memory required for data: 7568326784
I0402 10:07:15.391822 11179 layer_factory.hpp:77] Creating layer conv7_2
I0402 10:07:15.391899 11179 net.cpp:100] Creating Layer conv7_2
I0402 10:07:15.391964 11179 net.cpp:434] conv7_2 <- conv7_1
I0402 10:07:15.392036 11179 net.cpp:408] conv7_2 -> conv7_2
I0402 10:07:15.397542 11179 net.cpp:150] Setting up conv7_2
I0402 10:07:15.417546 11179 net.cpp:157] Top shape: 32 256 5 5 (204800)
I0402 10:07:15.417771 11179 net.cpp:165] Memory required for data: 7569145984
I0402 10:07:15.417901 11179 layer_factory.hpp:77] Creating layer conv7_2_relu
I0402 10:07:15.417981 11179 net.cpp:100] Creating Layer conv7_2_relu
I0402 10:07:15.418092 11179 net.cpp:434] conv7_2_relu <- conv7_2
I0402 10:07:15.418179 11179 net.cpp:395] conv7_2_relu -> conv7_2 (in-place)
I0402 10:07:15.418720 11179 net.cpp:150] Setting up conv7_2_relu
I0402 10:07:15.418846 11179 net.cpp:157] Top shape: 32 256 5 5 (204800)
I0402 10:07:15.418951 11179 net.cpp:165] Memory required for data: 7569965184
I0402 10:07:15.419024 11179 layer_factory.hpp:77] Creating layer conv7_2_conv7_2_relu_0_split
I0402 10:07:15.419106 11179 net.cpp:100] Creating Layer conv7_2_conv7_2_relu_0_split
I0402 10:07:15.419211 11179 net.cpp:434] conv7_2_conv7_2_relu_0_split <- conv7_2
I0402 10:07:15.419291 11179 net.cpp:408] conv7_2_conv7_2_relu_0_split -> conv7_2_conv7_2_relu_0_split_0
I0402 10:07:15.419373 11179 net.cpp:408] conv7_2_conv7_2_relu_0_split -> conv7_2_conv7_2_relu_0_split_1
I0402 10:07:15.419484 11179 net.cpp:408] conv7_2_conv7_2_relu_0_split -> conv7_2_conv7_2_relu_0_split_2
I0402 10:07:15.419564 11179 net.cpp:408] conv7_2_conv7_2_relu_0_split -> conv7_2_conv7_2_relu_0_split_3
I0402 10:07:15.419800 11179 net.cpp:150] Setting up conv7_2_conv7_2_relu_0_split
I0402 10:07:15.419876 11179 net.cpp:157] Top shape: 32 256 5 5 (204800)
I0402 10:07:15.419981 11179 net.cpp:157] Top shape: 32 256 5 5 (204800)
I0402 10:07:15.420055 11179 net.cpp:157] Top shape: 32 256 5 5 (204800)
I0402 10:07:15.420125 11179 net.cpp:157] Top shape: 32 256 5 5 (204800)
I0402 10:07:15.420223 11179 net.cpp:165] Memory required for data: 7573241984
I0402 10:07:15.420294 11179 layer_factory.hpp:77] Creating layer conv8_1
I0402 10:07:15.420379 11179 net.cpp:100] Creating Layer conv8_1
I0402 10:07:15.420449 11179 net.cpp:434] conv8_1 <- conv7_2_conv7_2_relu_0_split_0
I0402 10:07:15.420527 11179 net.cpp:408] conv8_1 -> conv8_1
I0402 10:07:15.423038 11179 net.cpp:150] Setting up conv8_1
I0402 10:07:15.423295 11179 net.cpp:157] Top shape: 32 128 5 5 (102400)
I0402 10:07:15.423362 11179 net.cpp:165] Memory required for data: 7573651584
I0402 10:07:15.423487 11179 layer_factory.hpp:77] Creating layer conv8_1_relu
I0402 10:07:15.423557 11179 net.cpp:100] Creating Layer conv8_1_relu
I0402 10:07:15.423656 11179 net.cpp:434] conv8_1_relu <- conv8_1
I0402 10:07:15.423728 11179 net.cpp:395] conv8_1_relu -> conv8_1 (in-place)
I0402 10:07:15.424870 11179 net.cpp:150] Setting up conv8_1_relu
I0402 10:07:15.424991 11179 net.cpp:157] Top shape: 32 128 5 5 (102400)
I0402 10:07:15.425086 11179 net.cpp:165] Memory required for data: 7574061184
I0402 10:07:15.425154 11179 layer_factory.hpp:77] Creating layer conv8_2
I0402 10:07:15.425230 11179 net.cpp:100] Creating Layer conv8_2
I0402 10:07:15.425295 11179 net.cpp:434] conv8_2 <- conv8_1
I0402 10:07:15.425405 11179 net.cpp:408] conv8_2 -> conv8_2
I0402 10:07:15.449801 11179 net.cpp:150] Setting up conv8_2
I0402 10:07:15.450027 11179 net.cpp:157] Top shape: 32 256 3 3 (73728)
I0402 10:07:15.450106 11179 net.cpp:165] Memory required for data: 7574356096
I0402 10:07:15.450251 11179 layer_factory.hpp:77] Creating layer conv8_2_relu
I0402 10:07:15.450330 11179 net.cpp:100] Creating Layer conv8_2_relu
I0402 10:07:15.450443 11179 net.cpp:434] conv8_2_relu <- conv8_2
I0402 10:07:15.450523 11179 net.cpp:395] conv8_2_relu -> conv8_2 (in-place)
I0402 10:07:15.450973 11179 net.cpp:150] Setting up conv8_2_relu
I0402 10:07:15.451104 11179 net.cpp:157] Top shape: 32 256 3 3 (73728)
I0402 10:07:15.451205 11179 net.cpp:165] Memory required for data: 7574651008
I0402 10:07:15.451279 11179 layer_factory.hpp:77] Creating layer conv8_2_conv8_2_relu_0_split
I0402 10:07:15.451403 11179 net.cpp:100] Creating Layer conv8_2_conv8_2_relu_0_split
I0402 10:07:15.451475 11179 net.cpp:434] conv8_2_conv8_2_relu_0_split <- conv8_2
I0402 10:07:15.451591 11179 net.cpp:408] conv8_2_conv8_2_relu_0_split -> conv8_2_conv8_2_relu_0_split_0
I0402 10:07:15.451678 11179 net.cpp:408] conv8_2_conv8_2_relu_0_split -> conv8_2_conv8_2_relu_0_split_1
I0402 10:07:15.451756 11179 net.cpp:408] conv8_2_conv8_2_relu_0_split -> conv8_2_conv8_2_relu_0_split_2
I0402 10:07:15.451871 11179 net.cpp:408] conv8_2_conv8_2_relu_0_split -> conv8_2_conv8_2_relu_0_split_3
I0402 10:07:15.452123 11179 net.cpp:150] Setting up conv8_2_conv8_2_relu_0_split
I0402 10:07:15.452199 11179 net.cpp:157] Top shape: 32 256 3 3 (73728)
I0402 10:07:15.452306 11179 net.cpp:157] Top shape: 32 256 3 3 (73728)
I0402 10:07:15.452375 11179 net.cpp:157] Top shape: 32 256 3 3 (73728)
I0402 10:07:15.452445 11179 net.cpp:157] Top shape: 32 256 3 3 (73728)
I0402 10:07:15.461756 11179 net.cpp:165] Memory required for data: 7575830656
I0402 10:07:15.461876 11179 layer_factory.hpp:77] Creating layer conv9_1
I0402 10:07:15.461971 11179 net.cpp:100] Creating Layer conv9_1
I0402 10:07:15.462046 11179 net.cpp:434] conv9_1 <- conv8_2_conv8_2_relu_0_split_0
I0402 10:07:15.462132 11179 net.cpp:408] conv9_1 -> conv9_1
I0402 10:07:15.464784 11179 net.cpp:150] Setting up conv9_1
I0402 10:07:15.464922 11179 net.cpp:157] Top shape: 32 128 3 3 (36864)
I0402 10:07:15.465035 11179 net.cpp:165] Memory required for data: 7575978112
I0402 10:07:15.465116 11179 layer_factory.hpp:77] Creating layer conv9_1_relu
I0402 10:07:15.465188 11179 net.cpp:100] Creating Layer conv9_1_relu
I0402 10:07:15.465296 11179 net.cpp:434] conv9_1_relu <- conv9_1
I0402 10:07:15.465378 11179 net.cpp:395] conv9_1_relu -> conv9_1 (in-place)
I0402 10:07:15.465705 11179 net.cpp:150] Setting up conv9_1_relu
I0402 10:07:15.477775 11179 net.cpp:157] Top shape: 32 128 3 3 (36864)
I0402 10:07:15.478121 11179 net.cpp:165] Memory required for data: 7576125568
I0402 10:07:15.478201 11179 layer_factory.hpp:77] Creating layer conv9_2
I0402 10:07:15.478334 11179 net.cpp:100] Creating Layer conv9_2
I0402 10:07:15.478411 11179 net.cpp:434] conv9_2 <- conv9_1
I0402 10:07:15.478529 11179 net.cpp:408] conv9_2 -> conv9_2
I0402 10:07:15.485093 11179 net.cpp:150] Setting up conv9_2
I0402 10:07:15.493768 11179 net.cpp:157] Top shape: 32 256 1 1 (8192)
I0402 10:07:15.493921 11179 net.cpp:165] Memory required for data: 7576158336
I0402 10:07:15.494007 11179 layer_factory.hpp:77] Creating layer conv9_2_relu
I0402 10:07:15.494087 11179 net.cpp:100] Creating Layer conv9_2_relu
I0402 10:07:15.494163 11179 net.cpp:434] conv9_2_relu <- conv9_2
I0402 10:07:15.494246 11179 net.cpp:395] conv9_2_relu -> conv9_2 (in-place)
I0402 10:07:15.495429 11179 net.cpp:150] Setting up conv9_2_relu
I0402 10:07:15.495548 11179 net.cpp:157] Top shape: 32 256 1 1 (8192)
I0402 10:07:15.495618 11179 net.cpp:165] Memory required for data: 7576191104
I0402 10:07:15.495689 11179 layer_factory.hpp:77] Creating layer conv9_2_conv9_2_relu_0_split
I0402 10:07:15.495769 11179 net.cpp:100] Creating Layer conv9_2_conv9_2_relu_0_split
I0402 10:07:15.495838 11179 net.cpp:434] conv9_2_conv9_2_relu_0_split <- conv9_2
I0402 10:07:15.495914 11179 net.cpp:408] conv9_2_conv9_2_relu_0_split -> conv9_2_conv9_2_relu_0_split_0
I0402 10:07:15.496002 11179 net.cpp:408] conv9_2_conv9_2_relu_0_split -> conv9_2_conv9_2_relu_0_split_1
I0402 10:07:15.496091 11179 net.cpp:408] conv9_2_conv9_2_relu_0_split -> conv9_2_conv9_2_relu_0_split_2
I0402 10:07:15.496273 11179 net.cpp:150] Setting up conv9_2_conv9_2_relu_0_split
I0402 10:07:15.496346 11179 net.cpp:157] Top shape: 32 256 1 1 (8192)
I0402 10:07:15.496417 11179 net.cpp:157] Top shape: 32 256 1 1 (8192)
I0402 10:07:15.496486 11179 net.cpp:157] Top shape: 32 256 1 1 (8192)
I0402 10:07:15.496552 11179 net.cpp:165] Memory required for data: 7576289408
I0402 10:07:15.496623 11179 layer_factory.hpp:77] Creating layer conv4_3_norm
I0402 10:07:15.496701 11179 net.cpp:100] Creating Layer conv4_3_norm
I0402 10:07:15.496773 11179 net.cpp:434] conv4_3_norm <- conv4_3_relu4_3_0_split_1
I0402 10:07:15.496850 11179 net.cpp:408] conv4_3_norm -> conv4_3_norm
I0402 10:07:15.497186 11179 net.cpp:150] Setting up conv4_3_norm
I0402 10:07:15.497297 11179 net.cpp:157] Top shape: 32 512 38 38 (23658496)
I0402 10:07:15.497364 11179 net.cpp:165] Memory required for data: 7670923392
I0402 10:07:15.497439 11179 layer_factory.hpp:77] Creating layer conv4_3_norm_conv4_3_norm_0_split
I0402 10:07:15.497519 11179 net.cpp:100] Creating Layer conv4_3_norm_conv4_3_norm_0_split
I0402 10:07:15.497591 11179 net.cpp:434] conv4_3_norm_conv4_3_norm_0_split <- conv4_3_norm
I0402 10:07:15.497684 11179 net.cpp:408] conv4_3_norm_conv4_3_norm_0_split -> conv4_3_norm_conv4_3_norm_0_split_0
I0402 10:07:15.497781 11179 net.cpp:408] conv4_3_norm_conv4_3_norm_0_split -> conv4_3_norm_conv4_3_norm_0_split_1
I0402 10:07:15.497866 11179 net.cpp:408] conv4_3_norm_conv4_3_norm_0_split -> conv4_3_norm_conv4_3_norm_0_split_2
I0402 10:07:15.498018 11179 net.cpp:150] Setting up conv4_3_norm_conv4_3_norm_0_split
I0402 10:07:15.498093 11179 net.cpp:157] Top shape: 32 512 38 38 (23658496)
I0402 10:07:15.498164 11179 net.cpp:157] Top shape: 32 512 38 38 (23658496)
I0402 10:07:15.498235 11179 net.cpp:157] Top shape: 32 512 38 38 (23658496)
I0402 10:07:15.498302 11179 net.cpp:165] Memory required for data: 7954825344
I0402 10:07:15.498380 11179 layer_factory.hpp:77] Creating layer conv4_3_norm_mbox_loc
I0402 10:07:15.498462 11179 net.cpp:100] Creating Layer conv4_3_norm_mbox_loc
I0402 10:07:15.498533 11179 net.cpp:434] conv4_3_norm_mbox_loc <- conv4_3_norm_conv4_3_norm_0_split_0
I0402 10:07:15.498613 11179 net.cpp:408] conv4_3_norm_mbox_loc -> conv4_3_norm_mbox_loc
I0402 10:07:15.502125 11179 net.cpp:150] Setting up conv4_3_norm_mbox_loc
I0402 10:07:15.510100 11179 net.cpp:157] Top shape: 32 16 38 38 (739328)
I0402 10:07:15.510324 11179 net.cpp:165] Memory required for data: 7957782656
I0402 10:07:15.510458 11179 layer_factory.hpp:77] Creating layer conv4_3_norm_mbox_loc_perm
I0402 10:07:15.510566 11179 net.cpp:100] Creating Layer conv4_3_norm_mbox_loc_perm
I0402 10:07:15.510675 11179 net.cpp:434] conv4_3_norm_mbox_loc_perm <- conv4_3_norm_mbox_loc
I0402 10:07:15.510759 11179 net.cpp:408] conv4_3_norm_mbox_loc_perm -> conv4_3_norm_mbox_loc_perm
I0402 10:07:15.511134 11179 net.cpp:150] Setting up conv4_3_norm_mbox_loc_perm
I0402 10:07:15.511292 11179 net.cpp:157] Top shape: 32 38 38 16 (739328)
I0402 10:07:15.511364 11179 net.cpp:165] Memory required for data: 7960739968
I0402 10:07:15.511468 11179 layer_factory.hpp:77] Creating layer conv4_3_norm_mbox_loc_flat
I0402 10:07:15.511548 11179 net.cpp:100] Creating Layer conv4_3_norm_mbox_loc_flat
I0402 10:07:15.511652 11179 net.cpp:434] conv4_3_norm_mbox_loc_flat <- conv4_3_norm_mbox_loc_perm
I0402 10:07:15.511732 11179 net.cpp:408] conv4_3_norm_mbox_loc_flat -> conv4_3_norm_mbox_loc_flat
I0402 10:07:15.511852 11179 net.cpp:150] Setting up conv4_3_norm_mbox_loc_flat
I0402 10:07:15.511963 11179 net.cpp:157] Top shape: 32 23104 (739328)
I0402 10:07:15.512033 11179 net.cpp:165] Memory required for data: 7963697280
I0402 10:07:15.512104 11179 layer_factory.hpp:77] Creating layer conv4_3_norm_mbox_conf
I0402 10:07:15.512224 11179 net.cpp:100] Creating Layer conv4_3_norm_mbox_conf
I0402 10:07:15.512331 11179 net.cpp:434] conv4_3_norm_mbox_conf <- conv4_3_norm_conv4_3_norm_0_split_1
I0402 10:07:15.512414 11179 net.cpp:408] conv4_3_norm_mbox_conf -> conv4_3_norm_mbox_conf
I0402 10:07:15.517479 11179 net.cpp:150] Setting up conv4_3_norm_mbox_conf
I0402 10:07:15.521772 11179 net.cpp:157] Top shape: 32 44 38 38 (2033152)
I0402 10:07:15.524034 11179 net.cpp:165] Memory required for data: 7971829888
I0402 10:07:15.524129 11179 layer_factory.hpp:77] Creating layer conv4_3_norm_mbox_conf_perm
I0402 10:07:15.524205 11179 net.cpp:100] Creating Layer conv4_3_norm_mbox_conf_perm
I0402 10:07:15.524276 11179 net.cpp:434] conv4_3_norm_mbox_conf_perm <- conv4_3_norm_mbox_conf
I0402 10:07:15.524353 11179 net.cpp:408] conv4_3_norm_mbox_conf_perm -> conv4_3_norm_mbox_conf_perm
I0402 10:07:15.524585 11179 net.cpp:150] Setting up conv4_3_norm_mbox_conf_perm
I0402 10:07:15.524720 11179 net.cpp:157] Top shape: 32 38 38 44 (2033152)
I0402 10:07:15.524821 11179 net.cpp:165] Memory required for data: 7979962496
I0402 10:07:15.524888 11179 layer_factory.hpp:77] Creating layer conv4_3_norm_mbox_conf_flat
I0402 10:07:15.524991 11179 net.cpp:100] Creating Layer conv4_3_norm_mbox_conf_flat
I0402 10:07:15.525055 11179 net.cpp:434] conv4_3_norm_mbox_conf_flat <- conv4_3_norm_mbox_conf_perm
I0402 10:07:15.525178 11179 net.cpp:408] conv4_3_norm_mbox_conf_flat -> conv4_3_norm_mbox_conf_flat
I0402 10:07:15.525288 11179 net.cpp:150] Setting up conv4_3_norm_mbox_conf_flat
I0402 10:07:15.525393 11179 net.cpp:157] Top shape: 32 63536 (2033152)
I0402 10:07:15.525456 11179 net.cpp:165] Memory required for data: 7988095104
I0402 10:07:15.525522 11179 layer_factory.hpp:77] Creating layer conv4_3_norm_mbox_priorbox
I0402 10:07:15.525626 11179 net.cpp:100] Creating Layer conv4_3_norm_mbox_priorbox
I0402 10:07:15.525694 11179 net.cpp:434] conv4_3_norm_mbox_priorbox <- conv4_3_norm_conv4_3_norm_0_split_2
I0402 10:07:15.525802 11179 net.cpp:434] conv4_3_norm_mbox_priorbox <- data_data_0_split_1
I0402 10:07:15.525914 11179 net.cpp:408] conv4_3_norm_mbox_priorbox -> conv4_3_norm_mbox_priorbox
I0402 10:07:15.526064 11179 net.cpp:150] Setting up conv4_3_norm_mbox_priorbox
I0402 10:07:15.526136 11179 net.cpp:157] Top shape: 1 2 23104 (46208)
I0402 10:07:15.526202 11179 net.cpp:165] Memory required for data: 7988279936
I0402 10:07:15.526268 11179 layer_factory.hpp:77] Creating layer fc7_mbox_loc
I0402 10:07:15.526384 11179 net.cpp:100] Creating Layer fc7_mbox_loc
I0402 10:07:15.529764 11179 net.cpp:434] fc7_mbox_loc <- fc7_relu7_0_split_1
I0402 10:07:15.529903 11179 net.cpp:408] fc7_mbox_loc -> fc7_mbox_loc
I0402 10:07:15.534847 11179 net.cpp:150] Setting up fc7_mbox_loc
I0402 10:07:15.557780 11179 net.cpp:157] Top shape: 32 24 19 19 (277248)
I0402 10:07:15.558007 11179 net.cpp:165] Memory required for data: 7989388928
I0402 10:07:15.558154 11179 layer_factory.hpp:77] Creating layer fc7_mbox_loc_perm
I0402 10:07:15.558244 11179 net.cpp:100] Creating Layer fc7_mbox_loc_perm
I0402 10:07:15.558357 11179 net.cpp:434] fc7_mbox_loc_perm <- fc7_mbox_loc
I0402 10:07:15.558441 11179 net.cpp:408] fc7_mbox_loc_perm -> fc7_mbox_loc_perm
I0402 10:07:15.558815 11179 net.cpp:150] Setting up fc7_mbox_loc_perm
I0402 10:07:15.558948 11179 net.cpp:157] Top shape: 32 19 19 24 (277248)
I0402 10:07:15.559021 11179 net.cpp:165] Memory required for data: 7990497920
I0402 10:07:15.559092 11179 layer_factory.hpp:77] Creating layer fc7_mbox_loc_flat
I0402 10:07:15.559170 11179 net.cpp:100] Creating Layer fc7_mbox_loc_flat
I0402 10:07:15.559278 11179 net.cpp:434] fc7_mbox_loc_flat <- fc7_mbox_loc_perm
I0402 10:07:15.559352 11179 net.cpp:408] fc7_mbox_loc_flat -> fc7_mbox_loc_flat
I0402 10:07:15.559502 11179 net.cpp:150] Setting up fc7_mbox_loc_flat
I0402 10:07:15.559577 11179 net.cpp:157] Top shape: 32 8664 (277248)
I0402 10:07:15.559648 11179 net.cpp:165] Memory required for data: 7991606912
I0402 10:07:15.559756 11179 layer_factory.hpp:77] Creating layer fc7_mbox_conf
I0402 10:07:15.559842 11179 net.cpp:100] Creating Layer fc7_mbox_conf
I0402 10:07:15.559911 11179 net.cpp:434] fc7_mbox_conf <- fc7_relu7_0_split_2
I0402 10:07:15.560027 11179 net.cpp:408] fc7_mbox_conf -> fc7_mbox_conf
I0402 10:07:15.569200 11179 net.cpp:150] Setting up fc7_mbox_conf
I0402 10:07:15.573776 11179 net.cpp:157] Top shape: 32 66 19 19 (762432)
I0402 10:07:15.573930 11179 net.cpp:165] Memory required for data: 7994656640
I0402 10:07:15.574021 11179 layer_factory.hpp:77] Creating layer fc7_mbox_conf_perm
I0402 10:07:15.574112 11179 net.cpp:100] Creating Layer fc7_mbox_conf_perm
I0402 10:07:15.574188 11179 net.cpp:434] fc7_mbox_conf_perm <- fc7_mbox_conf
I0402 10:07:15.574271 11179 net.cpp:408] fc7_mbox_conf_perm -> fc7_mbox_conf_perm
I0402 10:07:15.574584 11179 net.cpp:150] Setting up fc7_mbox_conf_perm
I0402 10:07:15.577764 11179 net.cpp:157] Top shape: 32 19 19 66 (762432)
I0402 10:07:15.577894 11179 net.cpp:165] Memory required for data: 7997706368
I0402 10:07:15.577965 11179 layer_factory.hpp:77] Creating layer fc7_mbox_conf_flat
I0402 10:07:15.578040 11179 net.cpp:100] Creating Layer fc7_mbox_conf_flat
I0402 10:07:15.578109 11179 net.cpp:434] fc7_mbox_conf_flat <- fc7_mbox_conf_perm
I0402 10:07:15.578313 11179 net.cpp:408] fc7_mbox_conf_flat -> fc7_mbox_conf_flat
I0402 10:07:15.578441 11179 net.cpp:150] Setting up fc7_mbox_conf_flat
I0402 10:07:15.578512 11179 net.cpp:157] Top shape: 32 23826 (762432)
I0402 10:07:15.578579 11179 net.cpp:165] Memory required for data: 8000756096
I0402 10:07:15.578646 11179 layer_factory.hpp:77] Creating layer fc7_mbox_priorbox
I0402 10:07:15.578721 11179 net.cpp:100] Creating Layer fc7_mbox_priorbox
I0402 10:07:15.578788 11179 net.cpp:434] fc7_mbox_priorbox <- fc7_relu7_0_split_3
I0402 10:07:15.578855 11179 net.cpp:434] fc7_mbox_priorbox <- data_data_0_split_2
I0402 10:07:15.578930 11179 net.cpp:408] fc7_mbox_priorbox -> fc7_mbox_priorbox
I0402 10:07:15.579043 11179 net.cpp:150] Setting up fc7_mbox_priorbox
I0402 10:07:15.579116 11179 net.cpp:157] Top shape: 1 2 8664 (17328)
I0402 10:07:15.579183 11179 net.cpp:165] Memory required for data: 8000825408
I0402 10:07:15.579249 11179 layer_factory.hpp:77] Creating layer conv6_2_mbox_loc
I0402 10:07:15.579331 11179 net.cpp:100] Creating Layer conv6_2_mbox_loc
I0402 10:07:15.579397 11179 net.cpp:434] conv6_2_mbox_loc <- conv6_2_conv6_2_relu_0_split_1
I0402 10:07:15.579471 11179 net.cpp:408] conv6_2_mbox_loc -> conv6_2_mbox_loc
I0402 10:07:15.595492 11179 net.cpp:150] Setting up conv6_2_mbox_loc
I0402 10:07:15.597779 11179 net.cpp:157] Top shape: 32 24 10 10 (76800)
I0402 10:07:15.597934 11179 net.cpp:165] Memory required for data: 8001132608
I0402 10:07:15.598059 11179 layer_factory.hpp:77] Creating layer conv6_2_mbox_loc_perm
I0402 10:07:15.598150 11179 net.cpp:100] Creating Layer conv6_2_mbox_loc_perm
I0402 10:07:15.598268 11179 net.cpp:434] conv6_2_mbox_loc_perm <- conv6_2_mbox_loc
I0402 10:07:15.598354 11179 net.cpp:408] conv6_2_mbox_loc_perm -> conv6_2_mbox_loc_perm
I0402 10:07:15.598686 11179 net.cpp:150] Setting up conv6_2_mbox_loc_perm
I0402 10:07:15.598852 11179 net.cpp:157] Top shape: 32 10 10 24 (76800)
I0402 10:07:15.598928 11179 net.cpp:165] Memory required for data: 8001439808
I0402 10:07:15.599038 11179 layer_factory.hpp:77] Creating layer conv6_2_mbox_loc_flat
I0402 10:07:15.599119 11179 net.cpp:100] Creating Layer conv6_2_mbox_loc_flat
I0402 10:07:15.601758 11179 net.cpp:434] conv6_2_mbox_loc_flat <- conv6_2_mbox_loc_perm
I0402 10:07:15.601927 11179 net.cpp:408] conv6_2_mbox_loc_flat -> conv6_2_mbox_loc_flat
I0402 10:07:15.602108 11179 net.cpp:150] Setting up conv6_2_mbox_loc_flat
I0402 10:07:15.602185 11179 net.cpp:157] Top shape: 32 2400 (76800)
I0402 10:07:15.602257 11179 net.cpp:165] Memory required for data: 8001747008
I0402 10:07:15.602330 11179 layer_factory.hpp:77] Creating layer conv6_2_mbox_conf
I0402 10:07:15.602419 11179 net.cpp:100] Creating Layer conv6_2_mbox_conf
I0402 10:07:15.602526 11179 net.cpp:434] conv6_2_mbox_conf <- conv6_2_conv6_2_relu_0_split_2
I0402 10:07:15.602605 11179 net.cpp:408] conv6_2_mbox_conf -> conv6_2_mbox_conf
I0402 10:07:15.614230 11179 net.cpp:150] Setting up conv6_2_mbox_conf
I0402 10:07:15.617957 11179 net.cpp:157] Top shape: 32 66 10 10 (211200)
I0402 10:07:15.618134 11179 net.cpp:165] Memory required for data: 8002591808
I0402 10:07:15.618271 11179 layer_factory.hpp:77] Creating layer conv6_2_mbox_conf_perm
I0402 10:07:15.618377 11179 net.cpp:100] Creating Layer conv6_2_mbox_conf_perm
I0402 10:07:15.618486 11179 net.cpp:434] conv6_2_mbox_conf_perm <- conv6_2_mbox_conf
I0402 10:07:15.618568 11179 net.cpp:408] conv6_2_mbox_conf_perm -> conv6_2_mbox_conf_perm
I0402 10:07:15.618876 11179 net.cpp:150] Setting up conv6_2_mbox_conf_perm
I0402 10:07:15.626619 11179 net.cpp:157] Top shape: 32 10 10 66 (211200)
I0402 10:07:15.626775 11179 net.cpp:165] Memory required for data: 8003436608
I0402 10:07:15.626848 11179 layer_factory.hpp:77] Creating layer conv6_2_mbox_conf_flat
I0402 10:07:15.626932 11179 net.cpp:100] Creating Layer conv6_2_mbox_conf_flat
I0402 10:07:15.627002 11179 net.cpp:434] conv6_2_mbox_conf_flat <- conv6_2_mbox_conf_perm
I0402 10:07:15.627075 11179 net.cpp:408] conv6_2_mbox_conf_flat -> conv6_2_mbox_conf_flat
I0402 10:07:15.627234 11179 net.cpp:150] Setting up conv6_2_mbox_conf_flat
I0402 10:07:15.627305 11179 net.cpp:157] Top shape: 32 6600 (211200)
I0402 10:07:15.627374 11179 net.cpp:165] Memory required for data: 8004281408
I0402 10:07:15.627442 11179 layer_factory.hpp:77] Creating layer conv6_2_mbox_priorbox
I0402 10:07:15.627555 11179 net.cpp:100] Creating Layer conv6_2_mbox_priorbox
I0402 10:07:15.627626 11179 net.cpp:434] conv6_2_mbox_priorbox <- conv6_2_conv6_2_relu_0_split_3
I0402 10:07:15.627696 11179 net.cpp:434] conv6_2_mbox_priorbox <- data_data_0_split_3
I0402 10:07:15.627801 11179 net.cpp:408] conv6_2_mbox_priorbox -> conv6_2_mbox_priorbox
I0402 10:07:15.627921 11179 net.cpp:150] Setting up conv6_2_mbox_priorbox
I0402 10:07:15.627988 11179 net.cpp:157] Top shape: 1 2 2400 (4800)
I0402 10:07:15.628082 11179 net.cpp:165] Memory required for data: 8004300608
I0402 10:07:15.628146 11179 layer_factory.hpp:77] Creating layer conv7_2_mbox_loc
I0402 10:07:15.628224 11179 net.cpp:100] Creating Layer conv7_2_mbox_loc
I0402 10:07:15.628319 11179 net.cpp:434] conv7_2_mbox_loc <- conv7_2_conv7_2_relu_0_split_1
I0402 10:07:15.628396 11179 net.cpp:408] conv7_2_mbox_loc -> conv7_2_mbox_loc
I0402 10:07:15.630985 11179 net.cpp:150] Setting up conv7_2_mbox_loc
I0402 10:07:15.641777 11179 net.cpp:157] Top shape: 32 24 5 5 (19200)
I0402 10:07:15.641997 11179 net.cpp:165] Memory required for data: 8004377408
I0402 10:07:15.642086 11179 layer_factory.hpp:77] Creating layer conv7_2_mbox_loc_perm
I0402 10:07:15.642180 11179 net.cpp:100] Creating Layer conv7_2_mbox_loc_perm
I0402 10:07:15.642254 11179 net.cpp:434] conv7_2_mbox_loc_perm <- conv7_2_mbox_loc
I0402 10:07:15.642338 11179 net.cpp:408] conv7_2_mbox_loc_perm -> conv7_2_mbox_loc_perm
I0402 10:07:15.642660 11179 net.cpp:150] Setting up conv7_2_mbox_loc_perm
I0402 10:07:15.642776 11179 net.cpp:157] Top shape: 32 5 5 24 (19200)
I0402 10:07:15.642848 11179 net.cpp:165] Memory required for data: 8004454208
I0402 10:07:15.642916 11179 layer_factory.hpp:77] Creating layer conv7_2_mbox_loc_flat
I0402 10:07:15.642989 11179 net.cpp:100] Creating Layer conv7_2_mbox_loc_flat
I0402 10:07:15.643101 11179 net.cpp:434] conv7_2_mbox_loc_flat <- conv7_2_mbox_loc_perm
I0402 10:07:15.643178 11179 net.cpp:408] conv7_2_mbox_loc_flat -> conv7_2_mbox_loc_flat
I0402 10:07:15.643299 11179 net.cpp:150] Setting up conv7_2_mbox_loc_flat
I0402 10:07:15.643373 11179 net.cpp:157] Top shape: 32 600 (19200)
I0402 10:07:15.643443 11179 net.cpp:165] Memory required for data: 8004531008
I0402 10:07:15.643515 11179 layer_factory.hpp:77] Creating layer conv7_2_mbox_conf
I0402 10:07:15.643604 11179 net.cpp:100] Creating Layer conv7_2_mbox_conf
I0402 10:07:15.643673 11179 net.cpp:434] conv7_2_mbox_conf <- conv7_2_conv7_2_relu_0_split_2
I0402 10:07:15.643787 11179 net.cpp:408] conv7_2_mbox_conf -> conv7_2_mbox_conf
I0402 10:07:15.647521 11179 net.cpp:150] Setting up conv7_2_mbox_conf
I0402 10:07:15.653769 11179 net.cpp:157] Top shape: 32 66 5 5 (52800)
I0402 10:07:15.653913 11179 net.cpp:165] Memory required for data: 8004742208
I0402 10:07:15.654016 11179 layer_factory.hpp:77] Creating layer conv7_2_mbox_conf_perm
I0402 10:07:15.654109 11179 net.cpp:100] Creating Layer conv7_2_mbox_conf_perm
I0402 10:07:15.654196 11179 net.cpp:434] conv7_2_mbox_conf_perm <- conv7_2_mbox_conf
I0402 10:07:15.654278 11179 net.cpp:408] conv7_2_mbox_conf_perm -> conv7_2_mbox_conf_perm
I0402 10:07:15.654551 11179 net.cpp:150] Setting up conv7_2_mbox_conf_perm
I0402 10:07:15.654665 11179 net.cpp:157] Top shape: 32 5 5 66 (52800)
I0402 10:07:15.654737 11179 net.cpp:165] Memory required for data: 8004953408
I0402 10:07:15.654808 11179 layer_factory.hpp:77] Creating layer conv7_2_mbox_conf_flat
I0402 10:07:15.654884 11179 net.cpp:100] Creating Layer conv7_2_mbox_conf_flat
I0402 10:07:15.654989 11179 net.cpp:434] conv7_2_mbox_conf_flat <- conv7_2_mbox_conf_perm
I0402 10:07:15.655071 11179 net.cpp:408] conv7_2_mbox_conf_flat -> conv7_2_mbox_conf_flat
I0402 10:07:15.655187 11179 net.cpp:150] Setting up conv7_2_mbox_conf_flat
I0402 10:07:15.655261 11179 net.cpp:157] Top shape: 32 1650 (52800)
I0402 10:07:15.655329 11179 net.cpp:165] Memory required for data: 8005164608
I0402 10:07:15.655437 11179 layer_factory.hpp:77] Creating layer conv7_2_mbox_priorbox
I0402 10:07:15.655517 11179 net.cpp:100] Creating Layer conv7_2_mbox_priorbox
I0402 10:07:15.655587 11179 net.cpp:434] conv7_2_mbox_priorbox <- conv7_2_conv7_2_relu_0_split_3
I0402 10:07:15.655661 11179 net.cpp:434] conv7_2_mbox_priorbox <- data_data_0_split_4
I0402 10:07:15.655777 11179 net.cpp:408] conv7_2_mbox_priorbox -> conv7_2_mbox_priorbox
I0402 10:07:15.655895 11179 net.cpp:150] Setting up conv7_2_mbox_priorbox
I0402 10:07:15.655968 11179 net.cpp:157] Top shape: 1 2 600 (1200)
I0402 10:07:15.656038 11179 net.cpp:165] Memory required for data: 8005169408
I0402 10:07:15.656106 11179 layer_factory.hpp:77] Creating layer conv8_2_mbox_loc
I0402 10:07:15.656229 11179 net.cpp:100] Creating Layer conv8_2_mbox_loc
I0402 10:07:15.656301 11179 net.cpp:434] conv8_2_mbox_loc <- conv8_2_conv8_2_relu_0_split_1
I0402 10:07:15.656379 11179 net.cpp:408] conv8_2_mbox_loc -> conv8_2_mbox_loc
I0402 10:07:15.658933 11179 net.cpp:150] Setting up conv8_2_mbox_loc
I0402 10:07:15.659080 11179 net.cpp:157] Top shape: 32 16 3 3 (4608)
I0402 10:07:15.659185 11179 net.cpp:165] Memory required for data: 8005187840
I0402 10:07:15.659265 11179 layer_factory.hpp:77] Creating layer conv8_2_mbox_loc_perm
I0402 10:07:15.659339 11179 net.cpp:100] Creating Layer conv8_2_mbox_loc_perm
I0402 10:07:15.659407 11179 net.cpp:434] conv8_2_mbox_loc_perm <- conv8_2_mbox_loc
I0402 10:07:15.659483 11179 net.cpp:408] conv8_2_mbox_loc_perm -> conv8_2_mbox_loc_perm
I0402 10:07:15.659698 11179 net.cpp:150] Setting up conv8_2_mbox_loc_perm
I0402 10:07:15.659770 11179 net.cpp:157] Top shape: 32 3 3 16 (4608)
I0402 10:07:15.659931 11179 net.cpp:165] Memory required for data: 8005206272
I0402 10:07:15.659999 11179 layer_factory.hpp:77] Creating layer conv8_2_mbox_loc_flat
I0402 10:07:15.660074 11179 net.cpp:100] Creating Layer conv8_2_mbox_loc_flat
I0402 10:07:15.660145 11179 net.cpp:434] conv8_2_mbox_loc_flat <- conv8_2_mbox_loc_perm
I0402 10:07:15.660218 11179 net.cpp:408] conv8_2_mbox_loc_flat -> conv8_2_mbox_loc_flat
I0402 10:07:15.660326 11179 net.cpp:150] Setting up conv8_2_mbox_loc_flat
I0402 10:07:15.660436 11179 net.cpp:157] Top shape: 32 144 (4608)
I0402 10:07:15.660504 11179 net.cpp:165] Memory required for data: 8005224704
I0402 10:07:15.660573 11179 layer_factory.hpp:77] Creating layer conv8_2_mbox_conf
I0402 10:07:15.660655 11179 net.cpp:100] Creating Layer conv8_2_mbox_conf
I0402 10:07:15.660722 11179 net.cpp:434] conv8_2_mbox_conf <- conv8_2_conv8_2_relu_0_split_2
I0402 10:07:15.660797 11179 net.cpp:408] conv8_2_mbox_conf -> conv8_2_mbox_conf
I0402 10:07:15.663868 11179 net.cpp:150] Setting up conv8_2_mbox_conf
I0402 10:07:15.678431 11179 net.cpp:157] Top shape: 32 44 3 3 (12672)
I0402 10:07:15.678648 11179 net.cpp:165] Memory required for data: 8005275392
I0402 10:07:15.678738 11179 layer_factory.hpp:77] Creating layer conv8_2_mbox_conf_perm
I0402 10:07:15.678825 11179 net.cpp:100] Creating Layer conv8_2_mbox_conf_perm
I0402 10:07:15.678902 11179 net.cpp:434] conv8_2_mbox_conf_perm <- conv8_2_mbox_conf
I0402 10:07:15.679018 11179 net.cpp:408] conv8_2_mbox_conf_perm -> conv8_2_mbox_conf_perm
I0402 10:07:15.679347 11179 net.cpp:150] Setting up conv8_2_mbox_conf_perm
I0402 10:07:15.679457 11179 net.cpp:157] Top shape: 32 3 3 44 (12672)
I0402 10:07:15.679530 11179 net.cpp:165] Memory required for data: 8005326080
I0402 10:07:15.679601 11179 layer_factory.hpp:77] Creating layer conv8_2_mbox_conf_flat
I0402 10:07:15.679677 11179 net.cpp:100] Creating Layer conv8_2_mbox_conf_flat
I0402 10:07:15.679749 11179 net.cpp:434] conv8_2_mbox_conf_flat <- conv8_2_mbox_conf_perm
I0402 10:07:15.679883 11179 net.cpp:408] conv8_2_mbox_conf_flat -> conv8_2_mbox_conf_flat
I0402 10:07:15.680001 11179 net.cpp:150] Setting up conv8_2_mbox_conf_flat
I0402 10:07:15.680073 11179 net.cpp:157] Top shape: 32 396 (12672)
I0402 10:07:15.680176 11179 net.cpp:165] Memory required for data: 8005376768
I0402 10:07:15.680250 11179 layer_factory.hpp:77] Creating layer conv8_2_mbox_priorbox
I0402 10:07:15.680362 11179 net.cpp:100] Creating Layer conv8_2_mbox_priorbox
I0402 10:07:15.680433 11179 net.cpp:434] conv8_2_mbox_priorbox <- conv8_2_conv8_2_relu_0_split_3
I0402 10:07:15.680507 11179 net.cpp:434] conv8_2_mbox_priorbox <- data_data_0_split_5
I0402 10:07:15.680621 11179 net.cpp:408] conv8_2_mbox_priorbox -> conv8_2_mbox_priorbox
I0402 10:07:15.680743 11179 net.cpp:150] Setting up conv8_2_mbox_priorbox
I0402 10:07:15.680848 11179 net.cpp:157] Top shape: 1 2 144 (288)
I0402 10:07:15.680922 11179 net.cpp:165] Memory required for data: 8005377920
I0402 10:07:15.680991 11179 layer_factory.hpp:77] Creating layer conv9_2_mbox_loc
I0402 10:07:15.681077 11179 net.cpp:100] Creating Layer conv9_2_mbox_loc
I0402 10:07:15.681182 11179 net.cpp:434] conv9_2_mbox_loc <- conv9_2_conv9_2_relu_0_split_0
I0402 10:07:15.681270 11179 net.cpp:408] conv9_2_mbox_loc -> conv9_2_mbox_loc
I0402 10:07:15.684001 11179 net.cpp:150] Setting up conv9_2_mbox_loc
I0402 10:07:15.689018 11179 net.cpp:157] Top shape: 32 16 1 1 (512)
I0402 10:07:15.689122 11179 net.cpp:165] Memory required for data: 8005379968
I0402 10:07:15.689208 11179 layer_factory.hpp:77] Creating layer conv9_2_mbox_loc_perm
I0402 10:07:15.689296 11179 net.cpp:100] Creating Layer conv9_2_mbox_loc_perm
I0402 10:07:15.689373 11179 net.cpp:434] conv9_2_mbox_loc_perm <- conv9_2_mbox_loc
I0402 10:07:15.689460 11179 net.cpp:408] conv9_2_mbox_loc_perm -> conv9_2_mbox_loc_perm
I0402 10:07:15.689805 11179 net.cpp:150] Setting up conv9_2_mbox_loc_perm
I0402 10:07:15.689924 11179 net.cpp:157] Top shape: 32 1 1 16 (512)
I0402 10:07:15.689996 11179 net.cpp:165] Memory required for data: 8005382016
I0402 10:07:15.690068 11179 layer_factory.hpp:77] Creating layer conv9_2_mbox_loc_flat
I0402 10:07:15.690145 11179 net.cpp:100] Creating Layer conv9_2_mbox_loc_flat
I0402 10:07:15.690215 11179 net.cpp:434] conv9_2_mbox_loc_flat <- conv9_2_mbox_loc_perm
I0402 10:07:15.690296 11179 net.cpp:408] conv9_2_mbox_loc_flat -> conv9_2_mbox_loc_flat
I0402 10:07:15.690412 11179 net.cpp:150] Setting up conv9_2_mbox_loc_flat
I0402 10:07:15.690570 11179 net.cpp:157] Top shape: 32 16 (512)
I0402 10:07:15.690639 11179 net.cpp:165] Memory required for data: 8005384064
I0402 10:07:15.690709 11179 layer_factory.hpp:77] Creating layer conv9_2_mbox_conf
I0402 10:07:15.690793 11179 net.cpp:100] Creating Layer conv9_2_mbox_conf
I0402 10:07:15.690865 11179 net.cpp:434] conv9_2_mbox_conf <- conv9_2_conv9_2_relu_0_split_1
I0402 10:07:15.690945 11179 net.cpp:408] conv9_2_mbox_conf -> conv9_2_mbox_conf
I0402 10:07:15.698973 11179 net.cpp:150] Setting up conv9_2_mbox_conf
I0402 10:07:15.701767 11179 net.cpp:157] Top shape: 32 44 1 1 (1408)
I0402 10:07:15.701901 11179 net.cpp:165] Memory required for data: 8005389696
I0402 10:07:15.701982 11179 layer_factory.hpp:77] Creating layer conv9_2_mbox_conf_perm
I0402 10:07:15.702070 11179 net.cpp:100] Creating Layer conv9_2_mbox_conf_perm
I0402 10:07:15.702138 11179 net.cpp:434] conv9_2_mbox_conf_perm <- conv9_2_mbox_conf
I0402 10:07:15.702209 11179 net.cpp:408] conv9_2_mbox_conf_perm -> conv9_2_mbox_conf_perm
I0402 10:07:15.702464 11179 net.cpp:150] Setting up conv9_2_mbox_conf_perm
I0402 10:07:15.702577 11179 net.cpp:157] Top shape: 32 1 1 44 (1408)
I0402 10:07:15.702641 11179 net.cpp:165] Memory required for data: 8005395328
I0402 10:07:15.702708 11179 layer_factory.hpp:77] Creating layer conv9_2_mbox_conf_flat
I0402 10:07:15.702780 11179 net.cpp:100] Creating Layer conv9_2_mbox_conf_flat
I0402 10:07:15.702845 11179 net.cpp:434] conv9_2_mbox_conf_flat <- conv9_2_mbox_conf_perm
I0402 10:07:15.702916 11179 net.cpp:408] conv9_2_mbox_conf_flat -> conv9_2_mbox_conf_flat
I0402 10:07:15.703024 11179 net.cpp:150] Setting up conv9_2_mbox_conf_flat
I0402 10:07:15.703094 11179 net.cpp:157] Top shape: 32 44 (1408)
I0402 10:07:15.703157 11179 net.cpp:165] Memory required for data: 8005400960
I0402 10:07:15.703222 11179 layer_factory.hpp:77] Creating layer conv9_2_mbox_priorbox
I0402 10:07:15.703294 11179 net.cpp:100] Creating Layer conv9_2_mbox_priorbox
I0402 10:07:15.703357 11179 net.cpp:434] conv9_2_mbox_priorbox <- conv9_2_conv9_2_relu_0_split_2
I0402 10:07:15.703425 11179 net.cpp:434] conv9_2_mbox_priorbox <- data_data_0_split_6
I0402 10:07:15.703533 11179 net.cpp:408] conv9_2_mbox_priorbox -> conv9_2_mbox_priorbox
I0402 10:07:15.703645 11179 net.cpp:150] Setting up conv9_2_mbox_priorbox
I0402 10:07:15.703713 11179 net.cpp:157] Top shape: 1 2 16 (32)
I0402 10:07:15.703835 11179 net.cpp:165] Memory required for data: 8005401088
I0402 10:07:15.703897 11179 layer_factory.hpp:77] Creating layer mbox_loc
I0402 10:07:15.703968 11179 net.cpp:100] Creating Layer mbox_loc
I0402 10:07:15.704066 11179 net.cpp:434] mbox_loc <- conv4_3_norm_mbox_loc_flat
I0402 10:07:15.704138 11179 net.cpp:434] mbox_loc <- fc7_mbox_loc_flat
I0402 10:07:15.704205 11179 net.cpp:434] mbox_loc <- conv6_2_mbox_loc_flat
I0402 10:07:15.704272 11179 net.cpp:434] mbox_loc <- conv7_2_mbox_loc_flat
I0402 10:07:15.704342 11179 net.cpp:434] mbox_loc <- conv8_2_mbox_loc_flat
I0402 10:07:15.704408 11179 net.cpp:434] mbox_loc <- conv9_2_mbox_loc_flat
I0402 10:07:15.704476 11179 net.cpp:408] mbox_loc -> mbox_loc
I0402 10:07:15.704589 11179 net.cpp:150] Setting up mbox_loc
I0402 10:07:15.704659 11179 net.cpp:157] Top shape: 32 34928 (1117696)
I0402 10:07:15.704725 11179 net.cpp:165] Memory required for data: 8009871872
I0402 10:07:15.704823 11179 layer_factory.hpp:77] Creating layer mbox_conf
I0402 10:07:15.704888 11179 net.cpp:100] Creating Layer mbox_conf
I0402 10:07:15.704954 11179 net.cpp:434] mbox_conf <- conv4_3_norm_mbox_conf_flat
I0402 10:07:15.705054 11179 net.cpp:434] mbox_conf <- fc7_mbox_conf_flat
I0402 10:07:15.705119 11179 net.cpp:434] mbox_conf <- conv6_2_mbox_conf_flat
I0402 10:07:15.705184 11179 net.cpp:434] mbox_conf <- conv7_2_mbox_conf_flat
I0402 10:07:15.705250 11179 net.cpp:434] mbox_conf <- conv8_2_mbox_conf_flat
I0402 10:07:15.705348 11179 net.cpp:434] mbox_conf <- conv9_2_mbox_conf_flat
I0402 10:07:15.705417 11179 net.cpp:408] mbox_conf -> mbox_conf
I0402 10:07:15.705549 11179 net.cpp:150] Setting up mbox_conf
I0402 10:07:15.705619 11179 net.cpp:157] Top shape: 32 96052 (3073664)
I0402 10:07:15.705682 11179 net.cpp:165] Memory required for data: 8022166528
I0402 10:07:15.705798 11179 layer_factory.hpp:77] Creating layer mbox_priorbox
I0402 10:07:15.705866 11179 net.cpp:100] Creating Layer mbox_priorbox
I0402 10:07:15.705929 11179 net.cpp:434] mbox_priorbox <- conv4_3_norm_mbox_priorbox
I0402 10:07:15.706028 11179 net.cpp:434] mbox_priorbox <- fc7_mbox_priorbox
I0402 10:07:15.706096 11179 net.cpp:434] mbox_priorbox <- conv6_2_mbox_priorbox
I0402 10:07:15.706161 11179 net.cpp:434] mbox_priorbox <- conv7_2_mbox_priorbox
I0402 10:07:15.706225 11179 net.cpp:434] mbox_priorbox <- conv8_2_mbox_priorbox
I0402 10:07:15.706326 11179 net.cpp:434] mbox_priorbox <- conv9_2_mbox_priorbox
I0402 10:07:15.706398 11179 net.cpp:408] mbox_priorbox -> mbox_priorbox
I0402 10:07:15.706533 11179 net.cpp:150] Setting up mbox_priorbox
I0402 10:07:15.706604 11179 net.cpp:157] Top shape: 1 2 34928 (69856)
I0402 10:07:15.706668 11179 net.cpp:165] Memory required for data: 8022445952
I0402 10:07:15.706739 11179 layer_factory.hpp:77] Creating layer mbox_loss
I0402 10:07:15.706822 11179 net.cpp:100] Creating Layer mbox_loss
I0402 10:07:15.706887 11179 net.cpp:434] mbox_loss <- mbox_loc
I0402 10:07:15.706954 11179 net.cpp:434] mbox_loss <- mbox_conf
I0402 10:07:15.707070 11179 net.cpp:434] mbox_loss <- mbox_priorbox
…
  phase: TEST
}
layer {
  name: "data"
  type: "AnnotatedData"
  top: "data"
  top: "label"
  include {
    phase: TEST
  }
  transform_param {
    mean_value: 104
    mean_value: 117
    mean_value: 123
    resize_param {
      prob: 1
      resize_mode: WARP
      height: 300
      width: 300
      interp_mode: LINEAR
    }
  }
  data_param {
    source: "examples/NWPU_VHR/NWPU_VHR_test_lmdb"
    batch_size: 1
    backend: LMDB
  }
  annotated_data_param {
    batch_sampler {
    }
    label_map_file: "data/NWPU_VHR/labelmap_NWPU_VHR.prototxt"
  }
}
layer {
  name: "conv1_1"
  type: "Convolution"
  bottom: "data"
  top: "conv1_1"
  param {
    lr_mult: 1
    decay_mult: 1
  }
  param {
    lr_mult: 2
    decay_mult: 0
  }
  convolution_param {
    num_output: 64
    pad: 1
    kernel_size: 3
    weight_filler {
      type: "xavier"
    }
    bias_filler {
      type: "constant"
      value: 0
    }
  }
}
layer {
  name: "relu1_1"
  type: "ReLU"
  bottom: "conv1_1"
  top: "conv1_1"
}
layer {
  name: "conv1_2"
  type: "Convolution"
  bottom: "conv1_1"
  top: "conv1_2"
  param {
    lr_mult: 1
    decay_mult: 1
  }
  param {
    lr_mult: 2
    decay_mult: 0
  }
  convolution_param {
    num_output: 64
    pad: 1
    kernel_size: 3
    weight_filler {
      type: "xavier"
    }
    bias_filler {
      type: "constant"
      value: 0
    }
  }
}
layer {
  name: "relu1_2"
  type: "ReLU"
  bottom: "conv1_2"
  top: "conv1_2"
}
layer {
  name: "pool1"
  type: "Pooling"
  bottom: "conv1_2"
  top: "pool1"
  pooling_param {
    pool: MAX
    kernel_size: 2
    stride: 2
  }
}
layer {
  name: "conv2_1"
  type: "Convolution"
  bottom: "pool1"
  top: "conv2_1"
  param {
    lr_mult: 1
    decay_mult: 1
  }
  param {
    lr_mult: 2
    decay_mult: 0
  }
  convolution_param {
    num_output: 128
    pad: 1
    kernel_size: 3
    weight_filler {
      type: "xavier"
    }
    bias_filler {
      type: "constant"
      value: 0
    }
  }
}
layer {
  name: "relu2_1"
  type: "ReLU"
  bottom: "conv2_1"
  top: "conv2_1"
}
layer {
  name: "conv2_2"
  type: "Convolution"
  bottom: "conv2_1"
  top: "conv2_2"
  param {
    lr_mult: 1
    decay_mult: 1
  }
  param {
    lr_mult: 2
    decay_mult: 0
  }
  convolution_param {
    num_output: 128
    pad: 1
    kernel_size: 3
    weight_filler {
      type: "xavier"
    }
    bias_filler {
      type: "constant"
      value: 0
    }
  }
}
layer {
  name: "relu2_2"
  type: "ReLU"
  bottom: "conv2_2"
  top: "conv2_2"
}
layer {
  name: "pool2"
  type: "Pooling"
  bottom: "conv2_2"
  top: "pool2"
  pooling_param {
    pool: MAX
    kernel_size: 2
    stride: 2
  }
}
layer {
  name: "conv3_1"
  type: "Convolution"
  bottom: "pool2"
  top: "conv3_1"
  param {
    lr_mult: 1
    decay_mult: 1
  }
  param {
    lr_mult: 2
    decay_mult: 0
  }
  convolution_param {
    num_output: 256
    pad: 1
    kernel_size: 3
    weight_filler {
      type: "xavier"
    }
    bias_filler {
      type: "constant"
      value: 0
    }
  }
}
layer {
  name: "relu3_1"
  type: "ReLU"
  bottom: "conv3_1"
  top: "conv3_1"
}
layer {
  name: "conv3_2"
  type: "Convolution"
  bottom: "conv3_1"
  top: "conv3_2"
  param {
    lr_mult: 1
    decay_mult: 1
  }
  param {
    lr_mult: 2
    decay_mult: 0
  }
  convolution_param {
    num_output: 256
    pad: 1
    kernel_size: 3
    weight_filler {
      type: "xavier"
    }
    bias_filler {
      type: "constant"
      value: 0
    }
  }
}
layer {
  name: "relu3_2"
  type: "ReLU"
  bottom: "conv3_2"
  top: "conv3_2"
}
layer {
  name: "conv3_3"
  type: "Convolution"
  bottom: "conv3_2"
  top: "conv3_3"
  param {
    lr_mult: 1
    decay_mult: 1
  }
  param {
    lr_mult: 2
    decay_mult: 0
  }
  convolution_param {
    num_output: 256
    pad: 1
    kernel_size: 3
    weight_filler {
      type: "xavier"
    }
    bias_filler {
      type: "constant"
      value: 0
    }
  }
}
layer {
  name: "relu3_3"
  type: "ReLU"
  bottom: "conv3_3"
  top: "conv3_3"
}
layer {
  name: "pool3"
  type: "Pooling"
  bottom: "conv3_3"
  top: "pool3"
  pooling_param {
    pool: MAX
    kernel_size: 2
    stride: 2
  }
}
layer {
  name: "conv4_1"
  type: "Convolution"
  bottom: "pool3"
  top: "conv4_1"
  param {
    lr_mult: 1
    decay_mult: 1
  }
  param {
    lr_mult: 2
    decay_mult: 0
  }
  convolution_param {
    num_output: 512
    pad: 1
    kernel_size: 3
    weight_filler {
      type: "xavier"
    }
    bias_filler {
      type: "constant"
      value: 0
    }
  }
}
layer {
  name: "relu4_1"
  type: "ReLU"
  bottom: "conv4_1"
  top: "conv4_1"
}
layer {
  name: "conv4_2"
  type: "Convolution"
  bottom: "conv4_1"
  top: "conv4_2"
  param {
    lr_mult: 1
    decay_mult: 1
  }
  param {
    lr_mult: 2
    decay_mult: 0
  }
  convolution_param {
    num_output: 512
    pad: 1
    kernel_size: 3
    weight_filler {
      type: "xavier"
    }
    bias_filler {
      type: "constant"
      value: 0
    }
  }
}
layer {
  name: "relu4_2"
  type: "ReLU"
  bottom: "conv4_2"
  top: "conv4_2"
}
layer {
  name: "conv4_3"
  type: "Convolution"
  bottom: "conv4_2"
  top: "conv4_3"
  param {
    lr_mult: 1
    decay_mult: 1
  }
  param {
    lr_mult: 2
    decay_mult: 0
  }
  convolution_param {
    num_output: 512
    pad: 1
    kernel_size: 3
    weight_filler {
      type: "xavier"
    }
    bias_filler {
      type: "constant"
      value: 0
    }
  }
}
layer {
  name: "relu4_3"
  type: "ReLU"
  bottom: "conv4_3"
  top: "conv4_3"
}
layer {
  name: "pool4"
  type: "Pooling"
  bottom: "conv4_3"
  top: "pool4"
  pooling_param {
    pool: MAX
    kernel_size: 2
    stride: 2
  }
}
layer {
  name: "conv5_1"
  type: "Convolution"
  bottom: "pool4"
  top: "conv5_1"
  param {
    lr_mult: 1
    decay_mult: 1
  }
  param {
    lr_mult: 2
    decay_mult: 0
  }
  convolution_param {
    num_output: 512
    pad: 1
    kernel_size: 3
    weight_filler {
      type: "xavier"
    }
    bias_filler {
      type: "constant"
      value: 0
    }
    dilation: 1
  }
}
layer {
  name: "relu5_1"
  type: "ReLU"
  bottom: "conv5_1"
  top: "conv5_1"
}
layer {
  name: "conv5_2"
  type: "Convolution"
  bottom: "conv5_1"
  top: "conv5_2"
  param {
    lr_mult: 1
    decay_mult: 1
  }
  param {
    lr_mult: 2
    decay_mult: 0
  }
  convolution_param {
    num_output: 512
    pad: 1
    kernel_size: 3
    weight_filler {
      type: "xavier"
    }
    bias_filler {
      type: "constant"
      value: 0
    }
    dilation: 1
  }
}
layer {
  name: "relu5_2"
  type: "ReLU"
  bottom: "conv5_2"
  top: "conv5_2"
}
layer {
  name: "conv5_3"
  type: "Convolution"
  bottom: "conv5_2"
  top: "conv5_3"
  param {
    lr_mult: 1
    decay_mult: 1
  }
  param {
    lr_mult: 2
    decay_mult: 0
  }
  convolution_param {
    num_output: 512
    pad: 1
    kernel_size: 3
    weight_filler {
      type: "xavier"
    }
    bias_filler {
      type: "constant"
      value: 0
    }
    dilation: 1
  }
}
layer {
  name: "relu5_3"
  type: "ReLU"
  bottom: "conv5_3"
  top: "conv5_3"
}
layer {
  name: "pool5"
  type: "Pooling"
  bottom: "conv5_3"
  top: "pool5"
  pooling_param {
    pool: MAX
    kernel_size: 3
    stride: 1
    pad: 1
  }
}
layer {
  name: "fc6_depthwise"
  type: "DepthwiseConvolution"
  bottom: "pool5"
  top: "fc6_3x3"
  param {
    lr_mult: 1
    decay_mult: 1
  }
  param {
    lr_mult: 2
    decay_mult: 0
  }
  convolution_param {
    num_output: 512
    pad: 6
    kernel_size: 3
    group: 512
    weight_filler {
      type: "xavier"
    }
    bias_filler {
      type: "constant"
      value: 0
    }
    dilation: 6
  }
}
layer {
  name: "fc6_3x3_relu"
  type: "ReLU"
  bottom: "fc6_3x3"
  top: "fc6_3x3"
}
layer {
  name: "fc6_1x1"
  type: "Convolution"
  bottom: "fc6_3x3"
  top: "fc6"
  param {
    lr_mult: 1
    decay_mult: 1
  }
  param {
    lr_mult: 2
    decay_mult: 0
  }
  convolution_param {
    num_output: 1024
    pad: 0
    kernel_size: 1
    stride: 1
    weight_filler {
      type: "xavier"
    }
    bias_filler {
      type: "constant"
      value: 0
    }
    dilation: 6
  }
}
layer {
  name: "relu6"
  type: "ReLU"
  bottom: "fc6"
  top: "fc6"
}
layer {
  name: "fc7"
  type: "Convolution"
  bottom: "fc6"
  top: "fc7"
  param {
    lr_mult: 1
    decay_mult: 1
  }
  param {
    lr_mult: 2
    decay_mult: 0
  }
  convolution_param {
    num_output: 1024
    kernel_size: 1
    weight_filler {
      type: "xavier"
    }
    bias_filler {
      type: "constant"
      value: 0
    }
  }
}
layer {
  name: "relu7"
  type: "ReLU"
  bottom: "fc7"
  top: "fc7"
}
layer {
  name: "conv6_1"
  type: "Convolution"
  bottom: "fc7"
  top: "conv6_1"
  param {
    lr_mult: 1
    decay_mult: 1
  }
  param {
    lr_mult: 2
    decay_mult: 0
  }
  convolution_param {
    num_output: 256
    pad: 0
    kernel_size: 1
    stride: 1
    weight_filler {
      type: "xavier"
    }
    bias_filler {
      type: "constant"
      value: 0
    }
  }
}
layer {
  name: "conv6_1_relu"
  type: "ReLU"
  bottom: "conv6_1"
  top: "conv6_1"
}
layer {
  name: "conv6_2"
  type: "Convolution"
  bottom: "conv6_1"
  top: "conv6_2"
  param {
    lr_mult: 1
    decay_mult: 1
  }
  param {
    lr_mult: 2
    decay_mult: 0
  }
  convolution_param {
    num_output: 512
    pad: 1
    kernel_size: 3
    stride: 2
    weight_filler {
      type: "xavier"
    }
    bias_filler {
      type: "constant"
      value: 0
    }
  }
}
layer {
  name: "conv6_2_relu"
  type: "ReLU"
  bottom: "conv6_2"
  top: "conv6_2"
}
layer {
  name: "conv7_1"
  type: "Convolution"
  bottom: "conv6_2"
  top: "conv7_1"
  param {
    lr_mult: 1
    decay_mult: 1
  }
  param {
    lr_mult: 2
    decay_mult: 0
  }
  convolution_param {
    num_output: 128
    pad: 0
    kernel_size: 1
    stride: 1
    weight_filler {
      type: "xavier"
    }
    bias_filler {
      type: "constant"
      value: 0
    }
  }
}
layer {
  name: "conv7_1_relu"
  type: "ReLU"
  bottom: "conv7_1"
  top: "conv7_1"
}
layer {
  name: "conv7_2"
  type: "Convolution"
  bottom: "conv7_1"
  top: "conv7_2"
  param {
    lr_mult: 1
    decay_mult: 1
  }
  param {
    lr_mult: 2
    decay_mult: 0
  }
  convolution_param {
    num_output: 256
    pad: 1
    kernel_size: 3
    stride: 2
    weight_filler {
      type: "xavier"
    }
    bias_filler {
      type: "constant"
      value: 0
    }
  }
}
layer {
  name: "conv7_2_relu"
  type: "ReLU"
  bottom: "conv7_2"
  top: "conv7_2"
}
layer {
  name: "conv8_1"
  type: "Convolution"
  bottom: "conv7_2"
  top: "conv8_1"
  param {
    lr_mult: 1
    decay_mult: 1
  }
  param {
    lr_mult: 2
    decay_mult: 0
  }
  convolution_param {
    num_output: 128
    pad: 0
    kernel_size: 1
    stride: 1
    weight_filler {
      type: "xavier"
    }
    bias_filler {
      type: "constant"
      value: 0
    }
  }
}
layer {
  name: "conv8_1_relu"
  type: "ReLU"
  bottom: "conv8_1"
  top: "conv8_1"
}
layer {
  name: "conv8_2"
  type: "Convolution"
  bottom: "conv8_1"
  top: "conv8_2"
  param {
    lr_mult: 1
    decay_mult: 1
  }
  param {
    lr_mult: 2
    decay_mult: 0
  }
  convolution_param {
    num_output: 256
    pad: 0
    kernel_size: 3
    stride: 1
    weight_filler {
      type: "xavier"
    }
    bias_filler {
      type: "constant"
      value: 0
    }
  }
}
layer {
  name: "conv8_2_relu"
  type: "ReLU"
  bottom: "conv8_2"
  top: "conv8_2"
}
layer {
  name: "conv9_1"
  type: "Convolution"
  bottom: "conv8_2"
  top: "conv9_1"
  param {
    lr_mult: 1
    decay_mult: 1
  }
  param {
    lr_mult: 2
    decay_mult: 0
  }
  convolution_param {
    num_output: 128
    pad: 0
    kernel_size: 1
    stride: 1
    weight_filler {
      type: "xavier"
    }
    bias_filler {
      type: "constant"
      value: 0
    }
  }
}
layer {
  name: "conv9_1_relu"
  type: "ReLU"
  bottom: "conv9_1"
  top: "conv9_1"
}
layer {
  name: "conv9_2"
  type: "Convolution"
  bottom: "conv9_1"
  top: "conv9_2"
  param {
    lr_mult: 1
    decay_mult: 1
  }
  param {
    lr_mult: 2
    decay_mult: 0
  }
  convolution_param {
    num_output: 256
    pad: 0
    kernel_size: 3
    stride: 1
    weight_filler {
      type: "xavier"
    }
    bias_filler {
      type: "constant"
      value: 0
    }
  }
}
layer {
  name: "conv9_2_relu"
  type: "ReLU"
  bottom: "conv9_2"
  top: "conv9_2"
}
layer {
  name: "conv4_3_norm"
  type: "Normalize"
  bottom: "conv4_3"
  top: "conv4_3_norm"
  norm_param {
    across_spatial: false
    scale_filler {
      type: "constant"
      value: 20
    }
    channel_shared: false
  }
}
layer {
  name: "conv4_3_norm_mbox_loc"
  type: "Convolution"
  bottom: "conv4_3_norm"
  top: "conv4_3_norm_mbox_loc"
  param {
    lr_mult: 1
    decay_mult: 1
  }
  param {
    lr_mult: 2
    decay_mult: 0
  }
  convolution_param {
    num_output: 16
    pad: 1
    kernel_size: 3
    stride: 1
    weight_filler {
      type: "xavier"
    }
    bias_filler {
      type: "constant"
      value: 0
    }
  }
}
layer {
  name: "conv4_3_norm_mbox_loc_perm"
  type: "Permute"
  bottom: "conv4_3_norm_mbox_loc"
  top: "conv4_3_norm_mbox_loc_perm"
  permute_param {
    order: 0
    order: 2
    order: 3
    order: 1
  }
}
layer {
  name: "conv4_3_norm_mbox_loc_flat"
  type: "Flatten"
  bottom: "conv4_3_norm_mbox_loc_perm"
  top: "conv4_3_norm_mbox_loc_flat"
  flatten_param {
    axis: 1
  }
}
layer {
  name: "conv4_3_norm_mbox_conf"
  type: "Convolution"
  bottom: "conv4_3_norm"
  top: "conv4_3_norm_mbox_conf"
  param {
    lr_mult: 1
    decay_mult: 1
  }
  param {
    lr_mult: 2
    decay_mult: 0
  }
  convolution_param {
    num_output: 44
    pad: 1
    kernel_size: 3
    stride: 1
    weight_filler {
      type: "xavier"
    }
    bias_filler {
      type: "constant"
      value: 0
    }
  }
}
layer {
  name: "conv4_3_norm_mbox_conf_perm"
  type: "Permute"
  bottom: "conv4_3_norm_mbox_conf"
  top: "conv4_3_norm_mbox_conf_perm"
  permute_param {
    order: 0
    order: 2
    order: 3
    order: 1
  }
}
layer {
  name: "conv4_3_norm_mbox_conf_flat"
  type: "Flatten"
  bottom: "conv4_3_norm_mbox_conf_perm"
  top: "conv4_3_norm_mbox_conf_flat"
  flatten_param {
    axis: 1
  }
}
layer {
  name: "conv4_3_norm_mbox_priorbox"
  type: "PriorBox"
  bottom: "conv4_3_norm"
  bottom: "data"
  top: "conv4_3_norm_mbox_priorbox"
  prior_box_param {
    min_size: 30
    max_size: 60
    aspect_ratio: 2
    flip: true
    clip: false
    variance: 0.1
    variance: 0.1
    variance: 0.2
    variance: 0.2
    step: 8
    offset: 0.5
  }
}
layer {
  name: "fc7_mbox_loc"
  type: "Convolution"
  bottom: "fc7"
  top: "fc7_mbox_loc"
  param {
    lr_mult: 1
    decay_mult: 1
  }
  param {
    lr_mult: 2
    decay_mult: 0
  }
  convolution_param {
    num_output: 24
    pad: 1
    kernel_size: 3
    stride: 1
    weight_filler {
      type: "xavier"
    }
    bias_filler {
      type: "constant"
      value: 0
    }
  }
}
layer {
  name: "fc7_mbox_loc_perm"
  type: "Permute"
  bottom: "fc7_mbox_loc"
  top: "fc7_mbox_loc_perm"
  permute_param {
    order: 0
    order: 2
    order: 3
    order: 1
  }
}
layer {
  name: "fc7_mbox_loc_flat"
  type: "Flatten"
  bottom: "fc7_mbox_loc_perm"
  top: "fc7_mbox_loc_flat"
  flatten_param {
    axis: 1
  }
}
layer {
  name: "fc7_mbox_conf"
  type: "Convolution"
  bottom: "fc7"
  top: "fc7_mbox_conf"
  param {
    lr_mult: 1
    decay_mult: 1
  }
  param {
    lr_mult: 2
    decay_mult: 0
  }
  convolution_param {
    num_output: 66
    pad: 1
    kernel_size: 3
    stride: 1
    weight_filler {
      type: "xavier"
    }
    bias_filler {
      type: "constant"
      value: 0
    }
  }
}
layer {
  name: "fc7_mbox_conf_perm"
  type: "Permute"
  bottom: "fc7_mbox_conf"
  top: "fc7_mbox_conf_perm"
  permute_param {
    order: 0
    order: 2
    order: 3
    order: 1
  }
}
layer {
  name: "fc7_mbox_conf_flat"
  type: "Flatten"
  bottom: "fc7_mbox_conf_perm"
  top: "fc7_mbox_conf_flat"
  flatten_param {
    axis: 1
  }
}
layer {
  name: "fc7_mbox_priorbox"
  type: "PriorBox"
  bottom: "fc7"
  bottom: "data"
  top: "fc7_mbox_priorbox"
  prior_box_param {
    min_size: 60
    max_size: 111
    aspect_ratio: 2
    aspect_ratio: 3
    flip: true
    clip: false
    variance: 0.1
    variance: 0.1
    variance: 0.2
    variance: 0.2
    step: 16
    offset: 0.5
  }
}
layer {
  name: "conv6_2_mbox_loc"
  type: "Convolution"
  bottom: "conv6_2"
  top: "conv6_2_mbox_loc"
  param {
    lr_mult: 1
    decay_mult: 1
  }
  param {
    lr_mult: 2
    decay_mult: 0
  }
  convolution_param {
    num_output: 24
    pad: 1
    kernel_size: 3
    stride: 1
    weight_filler {
      type: "xavier"
    }
    bias_filler {
      type: "constant"
      value: 0
    }
  }
}
layer {
  name: "conv6_2_mbox_loc_perm"
  type: "Permute"
  bottom: "conv6_2_mbox_loc"
  top: "conv6_2_mbox_loc_perm"
  permute_param {
    order: 0
    order: 2
    order: 3
    order: 1
  }
}
layer {
  name: "conv6_2_mbox_loc_flat"
  type: "Flatten"
  bottom: "conv6_2_mbox_loc_perm"
  top: "conv6_2_mbox_loc_flat"
  flatten_param {
    axis: 1
  }
}
layer {
  name: "conv6_2_mbox_conf"
  type: "Convolution"
  bottom: "conv6_2"
  top: "conv6_2_mbox_conf"
  param {
    lr_mult: 1
    decay_mult: 1
  }
  param {
    lr_mult: 2
    decay_mult: 0
  }
  convolution_param {
    num_output: 66
    pad: 1
    kernel_size: 3
    stride: 1
    weight_filler {
      type: "xavier"
    }
    bias_filler {
      type: "constant"
      value: 0
    }
  }
}
layer {
  name: "conv6_2_mbox_conf_perm"
  type: "Permute"
  bottom: "conv6_2_mbox_conf"
  top: "conv6_2_mbox_conf_perm"
  permute_param {
    order: 0
    order: 2
    order: 3
    order: 1
  }
}
layer {
  name: "conv6_2_mbox_conf_flat"
  type: "Flatten"
  bottom: "conv6_2_mbox_conf_perm"
  top: "conv6_2_mbox_conf_flat"
  flatten_param {
    axis: 1
  }
}
layer {
  name: "conv6_2_mbox_priorbox"
  type: "PriorBox"
  bottom: "conv6_2"
  bottom: "data"
  top: "conv6_2_mbox_priorbox"
  prior_box_param {
    min_size: 111
    max_size: 162
    aspect_ratio: 2
    aspect_ratio: 3
    flip: true
    clip: false
    variance: 0.1
    variance: 0.1
    variance: 0.2
    variance: 0.2
    step: 32
    offset: 0.5
  }
}
layer {
  name: "conv7_2_mbox_loc"
  type: "Convolution"
  bottom: "conv7_2"
  top: "conv7_2_mbox_loc"
  param {
    lr_mult: 1
    decay_mult: 1
  }
  param {
    lr_mult: 2
    decay_mult: 0
  }
  convolution_param {
    num_output: 24
    pad: 1
    kernel_size: 3
    stride: 1
    weight_filler {
      type: "xavier"
    }
    bias_filler {
      type: "constant"
      value: 0
    }
  }
}
layer {
  name: "conv7_2_mbox_loc_perm"
  type: "Permute"
  bottom: "conv7_2_mbox_loc"
  top: "conv7_2_mbox_loc_perm"
  permute_param {
    order: 0
    order: 2
    order: 3
    order: 1
  }
}
layer {
  name: "conv7_2_mbox_loc_flat"
  type: "Flatten"
  bottom: "conv7_2_mbox_loc_perm"
  top: "conv7_2_mbox_loc_flat"
  flatten_param {
    axis: 1
  }
}
layer {
  name: "conv7_2_mbox_conf"
  type: "Convolution"
  bottom: "conv7_2"
  top: "conv7_2_mbox_conf"
  param {
    lr_mult: 1
    decay_mult: 1
  }
  param {
    lr_mult: 2
    decay_mult: 0
  }
  convolution_param {
    num_output: 66
    pad: 1
    kernel_size: 3
    stride: 1
    weight_filler {
      type: "xavier"
    }
    bias_filler {
      type: "constant"
      value: 0
    }
  }
}
layer {
  name: "conv7_2_mbox_conf_perm"
  type: "Permute"
  bottom: "conv7_2_mbox_conf"
  top: "conv7_2_mbox_conf_perm"
  permute_param {
    order: 0
    order: 2
    order: 3
    order: 1
  }
}
layer {
  name: "conv7_2_mbox_conf_flat"
  type: "Flatten"
  bottom: "conv7_2_mbox_conf_perm"
  top: "conv7_2_mbox_conf_flat"
  flatten_param {
    axis: 1
  }
}
layer {
  name: "conv7_2_mbox_priorbox"
  type: "PriorBox"
  bottom: "conv7_2"
  bottom: "data"
  top: "conv7_2_mbox_priorbox"
  prior_box_param {
    min_size: 162
    max_size: 213
    aspect_ratio: 2
    aspect_ratio: 3
    flip: true
    clip: false
    variance: 0.1
    variance: 0.1
    variance: 0.2
    variance: 0.2
    step: 64
    offset: 0.5
  }
}
layer {
  name: "conv8_2_mbox_loc"
  type: "Convolution"
  bottom: "conv8_2"
  top: "conv8_2_mbox_loc"
  param {
    lr_mult: 1
    decay_mult: 1
  }
  param {
    lr_mult: 2
    decay_mult: 0
  }
  convolution_param {
    num_output: 16
    pad: 1
    kernel_size: 3
    stride: 1
    weight_filler {
      type: "xavier"
    }
    bias_filler {
      type: "constant"
      value: 0
    }
  }
}
layer {
  name: "conv8_2_mbox_loc_perm"
  type: "Permute"
  bottom: "conv8_2_mbox_loc"
  top: "conv8_2_mbox_loc_perm"
  permute_param {
    order: 0
    order: 2
    order: 3
    order: 1
  }
}
layer {
  name: "conv8_2_mbox_loc_flat"
  type: "Flatten"
  bottom: "conv8_2_mbox_loc_perm"
  top: "conv8_2_mbox_loc_flat"
  flatten_param {
    axis: 1
  }
}
layer {
  name: "conv8_2_mbox_conf"
  type: "Convolution"
  bottom: "conv8_2"
  top: "conv8_2_mbox_conf"
  param {
    lr_mult: 1
    decay_mult: 1
  }
  param {
    lr_mult: 2
    decay_mult: 0
  }
  convolution_param {
    num_output: 44
    pad: 1
    kernel_size: 3
    stride: 1
    weight_filler {
      type: "xavier"
    }
    bias_filler {
      type: "constant"
      value: 0
    }
  }
}
layer {
  name: "conv8_2_mbox_conf_perm"
  type: "Permute"
  bottom: "conv8_2_mbox_conf"
  top: "conv8_2_mbox_conf_perm"
  permute_param {
    order: 0
    order: 2
    order: 3
    order: 1
  }
}
layer {
  name: "conv8_2_mbox_conf_flat"
  type: "Flatten"
  bottom: "conv8_2_mbox_conf_perm"
  top: "conv8_2_mbox_conf_flat"
  flatten_param {
    axis: 1
  }
}
layer {
  name: "conv8_2_mbox_priorbox"
  type: "PriorBox"
  bottom: "conv8_2"
  bottom: "data"
  top: "conv8_2_mbox_priorbox"
  prior_box_param {
    min_size: 213
    max_size: 264
    aspect_ratio: 2
    flip: true
    clip: false
    variance: 0.1
    variance: 0.1
    variance: 0.2
    variance: 0.2
    step: 100
    offset: 0.5
  }
}
layer {
  name: "conv9_2_mbox_loc"
  type: "Convolution"
  bottom: "conv9_2"
  top: "conv9_2_mbox_loc"
  param {
    lr_mult: 1
    decay_mult: 1
  }
  param {
    lr_mult: 2
    decay_mult: 0
  }
  convolution_param {
    num_output: 16
    pad: 1
    kernel_size: 3
    stride: 1
    weight_filler {
      type: "xavier"
    }
    bias_filler {
      type: "constant"
      value: 0
    }
  }
}
layer {
  name: "conv9_2_mbox_loc_perm"
  type: "Permute"
  bottom: "conv9_2_mbox_loc"
  top: "conv9_2_mbox_loc_perm"
  permute_param {
    order: 0
    order: 2
    order: 3
    order: 1
  }
}
layer {
  name: "conv9_2_mbox_loc_flat"
  type: "Flatten"
  bottom: "conv9_2_mbox_loc_perm"
  top: "conv9_2_mbox_loc_flat"
  flatten_param {
    axis: 1
  }
}
layer {
  name: "conv9_2_mbox_conf"
  type: "Convolution"
  bottom: "conv9_2"
  top: "conv9_2_mbox_conf"
  param {
    lr_mult: 1
    decay_mult: 1
  }
  param {
    lr_mult: 2
    decay_mult: 0
  }
  convolution_param {
    num_output: 44
    pad: 1
    kernel_size: 3
    stride: 1
    weight_filler {
      type: "xavier"
    }
    bias_filler {
      type: "constant"
      value: 0
    }
  }
}
layer {
  name: "conv9_2_mbox_conf_perm"
  type: "Permute"
  bottom: "conv9_2_mbox_conf"
  top: "conv9_2_mbox_conf_perm"
  permute_param {
    order: 0
    order: 2
    order: 3
    order: 1
  }
}
layer {
  name: "conv9_2_mbox_conf_flat"
  type: "Flatten"
  bottom: "conv9_2_mbox_conf_perm"
  top: "conv9_2_mbox_conf_flat"
  flatten_param {
    axis: 1
  }
}
layer {
  name: "conv9_2_mbox_priorbox"
  type: "PriorBox"
  bottom: "conv9_2"
  bottom: "data"
  top: "conv9_2_mbox_priorbox"
  prior_box_param {
    min_size: 264
    max_size: 315
    aspect_ratio: 2
    flip: true
    clip: false
    variance: 0.1
    variance: 0.1
    variance: 0.2
    variance: 0.2
    step: 300
    offset: 0.5
  }
}
layer {
  name: "mbox_loc"
  type: "Concat"
  bottom: "conv4_3_norm_mbox_loc_flat"
  bottom: "fc7_mbox_loc_flat"
  bottom: "conv6_2_mbox_loc_flat"
  bottom: "conv7_2_mbox_loc_flat"
  bottom: "conv8_2_mbox_loc_flat"
  bottom: "conv9_2_mbox_loc_flat"
  top: "mbox_loc"
  concat_param {
    axis: 1
  }
}
layer {
  name: "mbox_conf"
  type: "Concat"
  bottom: "conv4_3_norm_mbox_conf_flat"
  bottom: "fc7_mbox_conf_flat"
  bottom: "conv6_2_mbox_conf_flat"
  bottom: "conv7_2_mbox_conf_flat"
  bottom: "conv8_2_mbox_conf_flat"
  bottom: "conv9_2_mbox_conf_flat"
  top: "mbox_conf"
  concat_param {
    axis: 1
  }
}
layer {
  name: "mbox_priorbox"
  type: "Concat"
  bottom: "conv4_3_norm_mbox_priorbox"
  bottom: "fc7_mbox_priorbox"
  bottom: "conv6_2_mbox_priorbox"
  bottom: "conv7_2_mbox_priorbox"
  bottom: "conv8_2_mbox_priorbox"
  bottom: "conv9_2_mbox_priorbox"
  top: "mbox_priorbox"
  concat_param {
    axis: 2
  }
}
layer {
  name: "test_loss"
  type: "MultiBoxLoss"
  bottom: "mbox_loc"
  bottom: "mbox_conf"
  bottom: "mbox_priorbox"
  bottom: "label"
  top: "test_loss"
  include {
    phase: TEST
  }
  propagate_down: true
  propagate_down: true
  propagate_down: false
  propagate_down: false
  loss_param {
    normalization: VALID
  }
  multibox_loss_param {
    loc_loss_type: SMOOTH_L1
    conf_loss_type: SOFTMAX
    loc_weight: 1
    num_classes: 11
    share_location: true
    match_type: PER_PREDICTION
    overlap_threshold: 0.5
    use_prior_for_matching: true
    background_label_id: 0
    use_difficult_gt: true
    neg_pos_ratio: 3
    neg_overlap: 0.5
    code_type: CENTER_SIZE
    ignore_cross_boundary_bbox: false
    mining_type: MAX_NEGATIVE
  }
}
layer {
  name: "silence"
  type: "Silence"
  bottom: "test_loss"
}
layer {
  name: "mbox_conf_reshape"
  type: "Reshape"
  bottom: "mbox_conf"
  top: "mbox_conf_reshape"
  reshape_param {
    shape {
      dim: 0
      dim: -1
      dim: 11
    }
  }
}
layer {
  name: "mbox_conf_softmax"
  type: "Softmax"
  bottom: "mbox_conf_reshape"
  top: "mbox_conf_softmax"
  softmax_param {
    axis: 2
  }
}
layer {
  name: "mbox_conf_flatten"
  type: "Flatten"
  bottom: "mbox_conf_softmax"
  top: "mbox_conf_flatten"
  flatten_param {
    axis: 1
  }
}
layer {
  name: "detection_out"
  type: "DetectionOutput"
  bottom: "mbox_loc"
  bottom: "mbox_conf_flatten"
  bottom: "mbox_priorbox"
  bottom: "label"
  top: "detection_out"
  include {
    phase: TEST
  }
  detection_output_param {
    num_classes: 11
    share_location: true
    background_label_id: 0
    nms_param {
      nms_threshold: 0.45
      top_k: 400
    }
    save_output_param {
      output_directory: "/home/zs/data/VOCdevkit/results/VOC2007/SSD_300x300_0320_fc6/Main"
      output_name_prefix: "comp4_det_test_"
      output_format: "VOC"
      label_map_file: "data/NWPU_VHR/labelmap_NWPU_VHR.prototxt"
      name_size_file: "data/NWPU_VHR/test_name_size.txt"
      num_test_image: 123
    }
    code_type: CENTER_SIZE
    keep_top_k: 200
    confidence_threshold: 0.01
  }
}
layer {
  name: "detection_eval"
  type: "DetectionEvaluate"
  bottom: "detection_out"
  bottom: "label"
  top: "detection_eval"
  include {
    phase: TEST
  }
  detection_evaluate_param {
    num_classes: 11
    background_label_id: 0
    overlap_threshold: 0.5
    evaluate_difficult_gt: false
    name_size_file: "data/NWPU_VHR/test_name_size.txt"
  }
}
I0402 10:07:15.746810 11179 layer_factory.hpp:77] Creating layer data
I0402 10:07:15.746963 11179 net.cpp:100] Creating Layer data
I0402 10:07:15.747000 11179 net.cpp:408] data -> data
I0402 10:07:15.747041 11179 net.cpp:408] data -> label
I0402 10:07:15.754858 11197 db_lmdb.cpp:35] Opened lmdb examples/NWPU_VHR/NWPU_VHR_test_lmdb
I0402 10:07:15.788796 11179 annotated_data_layer.cpp:62] output data size: 1,3,300,300
I0402 10:07:15.807184 11179 net.cpp:150] Setting up data
I0402 10:07:15.821779 11179 net.cpp:157] Top shape: 1 3 300 300 (270000)
I0402 10:07:15.822017 11179 net.cpp:157] Top shape: 1 1 4 8 (32)
I0402 10:07:15.822134 11179 net.cpp:165] Memory required for data: 1080128
I0402 10:07:15.822217 11179 layer_factory.hpp:77] Creating layer data_data_0_split
I0402 10:07:15.822309 11179 net.cpp:100] Creating Layer data_data_0_split
I0402 10:07:15.822418 11179 net.cpp:434] data_data_0_split <- data
I0402 10:07:15.822499 11179 net.cpp:408] data_data_0_split -> data_data_0_split_0
I0402 10:07:15.822618 11179 net.cpp:408] data_data_0_split -> data_data_0_split_1
I0402 10:07:15.822696 11179 net.cpp:408] data_data_0_split -> data_data_0_split_2
I0402 10:07:15.822775 11179 net.cpp:408] data_data_0_split -> data_data_0_split_3
I0402 10:07:15.822888 11179 net.cpp:408] data_data_0_split -> data_data_0_split_4
I0402 10:07:15.822965 11179 net.cpp:408] data_data_0_split -> data_data_0_split_5
I0402 10:07:15.823077 11179 net.cpp:408] data_data_0_split -> data_data_0_split_6
I0402 10:07:15.823388 11179 net.cpp:150] Setting up data_data_0_split
I0402 10:07:15.823501 11179 net.cpp:157] Top shape: 1 3 300 300 (270000)
I0402 10:07:15.823575 11179 net.cpp:157] Top shape: 1 3 300 300 (270000)
I0402 10:07:15.823647 11179 net.cpp:157] Top shape: 1 3 300 300 (270000)
I0402 10:07:15.823753 11179 net.cpp:157] Top shape: 1 3 300 300 (270000)
I0402 10:07:15.823823 11179 net.cpp:157] Top shape: 1 3 300 300 (270000)
I0402 10:07:15.823894 11179 net.cpp:157] Top shape: 1 3 300 300 (270000)
I0402 10:07:15.823999 11179 net.cpp:157] Top shape: 1 3 300 300 (270000)
I0402 10:07:15.831532 11179 net.cpp:165] Memory required for data: 8640128
I0402 10:07:15.831670 11179 layer_factory.hpp:77] Creating layer label_data_1_split
I0402 10:07:15.831758 11179 net.cpp:100] Creating Layer label_data_1_split
I0402 10:07:15.831828 11179 net.cpp:434] label_data_1_split <- label
I0402 10:07:15.831907 11179 net.cpp:408] label_data_1_split -> label_data_1_split_0
I0402 10:07:15.831993 11179 net.cpp:408] label_data_1_split -> label_data_1_split_1
I0402 10:07:15.832068 11179 net.cpp:408] label_data_1_split -> label_data_1_split_2
I0402 10:07:15.832310 11179 net.cpp:150] Setting up label_data_1_split
I0402 10:07:15.832384 11179 net.cpp:157] Top shape: 1 1 4 8 (32)
I0402 10:07:15.832454 11179 net.cpp:157] Top shape: 1 1 4 8 (32)
I0402 10:07:15.832558 11179 net.cpp:157] Top shape: 1 1 4 8 (32)
I0402 10:07:15.832624 11179 net.cpp:165] Memory required for data: 8640512
I0402 10:07:15.832726 11179 layer_factory.hpp:77] Creating layer conv1_1
I0402 10:07:15.832820 11179 net.cpp:100] Creating Layer conv1_1
I0402 10:07:15.832891 11179 net.cpp:434] conv1_1 <- data_data_0_split_0
I0402 10:07:15.833006 11179 net.cpp:408] conv1_1 -> conv1_1
I0402 10:07:15.836100 11179 net.cpp:150] Setting up conv1_1
I0402 10:07:15.836268 11179 net.cpp:157] Top shape: 1 64 300 300 (5760000)
I0402 10:07:15.836354 11179 net.cpp:165] Memory required for data: 31680512
I0402 10:07:15.836434 11179 layer_factory.hpp:77] Creating layer relu1_1
I0402 10:07:15.836515 11179 net.cpp:100] Creating Layer relu1_1
I0402 10:07:15.836635 11179 net.cpp:434] relu1_1 <- conv1_1
I0402 10:07:15.836706 11179 net.cpp:395] relu1_1 -> conv1_1 (in-place)
I0402 10:07:15.837018 11179 net.cpp:150] Setting up relu1_1
I0402 10:07:15.837122 11179 net.cpp:157] Top shape: 1 64 300 300 (5760000)
I0402 10:07:15.837188 11179 net.cpp:165] Memory required for data: 54720512
I0402 10:07:15.837254 11179 layer_factory.hpp:77] Creating layer conv1_2
I0402 10:07:15.837332 11179 net.cpp:100] Creating Layer conv1_2
I0402 10:07:15.837399 11179 net.cpp:434] conv1_2 <- conv1_1
I0402 10:07:15.837468 11179 net.cpp:408] conv1_2 -> conv1_2
I0402 10:07:15.839901 11179 net.cpp:150] Setting up conv1_2
I0402 10:07:15.840037 11179 net.cpp:157] Top shape: 1 64 300 300 (5760000)
I0402 10:07:15.840138 11179 net.cpp:165] Memory required for data: 77760512
I0402 10:07:15.840220 11179 layer_factory.hpp:77] Creating layer relu1_2
I0402 10:07:15.840296 11179 net.cpp:100] Creating Layer relu1_2
I0402 10:07:15.840363 11179 net.cpp:434] relu1_2 <- conv1_2
I0402 10:07:15.840469 11179 net.cpp:395] relu1_2 -> conv1_2 (in-place)
I0402 10:07:15.841560 11179 net.cpp:150] Setting up relu1_2
I0402 10:07:15.843243 11179 net.cpp:157] Top shape: 1 64 300 300 (5760000)
I0402 10:07:15.843359 11179 net.cpp:165] Memory required for data: 100800512
I0402 10:07:15.843461 11179 layer_factory.hpp:77] Creating layer pool1
I0402 10:07:15.843536 11179 net.cpp:100] Creating Layer pool1
I0402 10:07:15.843602 11179 net.cpp:434] pool1 <- conv1_2
I0402 10:07:15.843708 11179 net.cpp:408] pool1 -> pool1
I0402 10:07:15.843894 11179 net.cpp:150] Setting up pool1
I0402 10:07:15.843997 11179 net.cpp:157] Top shape: 1 64 150 150 (1440000)
I0402 10:07:15.844063 11179 net.cpp:165] Memory required for data: 106560512
I0402 10:07:15.844128 11179 layer_factory.hpp:77] Creating layer conv2_1
I0402 10:07:15.844216 11179 net.cpp:100] Creating Layer conv2_1
I0402 10:07:15.844318 11179 net.cpp:434] conv2_1 <- pool1
I0402 10:07:15.844393 11179 net.cpp:408] conv2_1 -> conv2_1
I0402 10:07:15.862942 11179 net.cpp:150] Setting up conv2_1
I0402 10:07:15.863162 11179 net.cpp:157] Top shape: 1 128 150 150 (2880000)
I0402 10:07:15.863271 11179 net.cpp:165] Memory required for data: 118080512
I0402 10:07:15.863356 11179 layer_factory.hpp:77] Creating layer relu2_1
I0402 10:07:15.863430 11179 net.cpp:100] Creating Layer relu2_1
I0402 10:07:15.863533 11179 net.cpp:434] relu2_1 <- conv2_1
I0402 10:07:15.863602 11179 net.cpp:395] relu2_1 -> conv2_1 (in-place)
I0402 10:07:15.864038 11179 net.cpp:150] Setting up relu2_1
I0402 10:07:15.864157 11179 net.cpp:157] Top shape: 1 128 150 150 (2880000)
I0402 10:07:15.864253 11179 net.cpp:165] Memory required for data: 129600512
I0402 10:07:15.864320 11179 layer_factory.hpp:77] Creating layer conv2_2
I0402 10:07:15.864434 11179 net.cpp:100] Creating Layer conv2_2
I0402 10:07:15.864500 11179 net.cpp:434] conv2_2 <- conv2_1
I0402 10:07:15.864620 11179 net.cpp:408] conv2_2 -> conv2_2
I0402 10:07:15.868674 11179 net.cpp:150] Setting up conv2_2
I0402 10:07:15.877774 11179 net.cpp:157] Top shape: 1 128 150 150 (2880000)
I0402 10:07:15.877974 11179 net.cpp:165] Memory required for data: 141120512
I0402 10:07:15.878101 11179 layer_factory.hpp:77] Creating layer relu2_2
I0402 10:07:15.878180 11179 net.cpp:100] Creating Layer relu2_2
I0402 10:07:15.878284 11179 net.cpp:434] relu2_2 <- conv2_2
I0402 10:07:15.878360 11179 net.cpp:395] relu2_2 -> conv2_2 (in-place)
I0402 10:07:15.879011 11179 net.cpp:150] Setting up relu2_2
I0402 10:07:15.879140 11179 net.cpp:157] Top shape: 1 128 150 150 (2880000)
I0402 10:07:15.879245 11179 net.cpp:165] Memory required for data: 152640512
I0402 10:07:15.879317 11179 layer_factory.hpp:77] Creating layer pool2
I0402 10:07:15.879392 11179 net.cpp:100] Creating Layer pool2
I0402 10:07:15.879498 11179 net.cpp:434] pool2 <- conv2_2
I0402 10:07:15.879588 11179 net.cpp:408] pool2 -> pool2
I0402 10:07:15.879791 11179 net.cpp:150] Setting up pool2
I0402 10:07:15.879899 11179 net.cpp:157] Top shape: 1 128 75 75 (720000)
I0402 10:07:15.879968 11179 net.cpp:165] Memory required for data: 155520512
I0402 10:07:15.880038 11179 layer_factory.hpp:77] Creating layer conv3_1
I0402 10:07:15.880116 11179 net.cpp:100] Creating Layer conv3_1
I0402 10:07:15.880185 11179 net.cpp:434] conv3_1 <- pool2
I0402 10:07:15.880265 11179 net.cpp:408] conv3_1 -> conv3_1
I0402 10:07:15.887169 11179 net.cpp:150] Setting up conv3_1
I0402 10:07:15.903462 11179 net.cpp:157] Top shape: 1 256 75 75 (1440000)
I0402 10:07:15.903667 11179 net.cpp:165] Memory required for data: 161280512
I0402 10:07:15.903753 11179 layer_factory.hpp:77] Creating layer relu3_1
I0402 10:07:15.903832 11179 net.cpp:100] Creating Layer relu3_1
I0402 10:07:15.903899 11179 net.cpp:434] relu3_1 <- conv3_1
I0402 10:07:15.903971 11179 net.cpp:395] relu3_1 -> conv3_1 (in-place)
I0402 10:07:15.904376 11179 net.cpp:150] Setting up relu3_1
I0402 10:07:15.904479 11179 net.cpp:157] Top shape: 1 256 75 75 (1440000)
I0402 10:07:15.904624 11179 net.cpp:165] Memory required for data: 167040512
I0402 10:07:15.904687 11179 layer_factory.hpp:77] Creating layer conv3_2
I0402 10:07:15.904767 11179 net.cpp:100] Creating Layer conv3_2
I0402 10:07:15.904865 11179 net.cpp:434] conv3_2 <- conv3_1
I0402 10:07:15.904935 11179 net.cpp:408] conv3_2 -> conv3_2
I0402 10:07:15.939704 11179 net.cpp:150] Setting up conv3_2
I0402 10:07:15.939913 11179 net.cpp:157] Top shape: 1 256 75 75 (1440000)
I0402 10:07:15.939981 11179 net.cpp:165] Memory required for data: 172800512
I0402 10:07:15.940058 11179 layer_factory.hpp:77] Creating layer relu3_2
I0402 10:07:15.940136 11179 net.cpp:100] Creating Layer relu3_2
I0402 10:07:15.940201 11179 net.cpp:434] relu3_2 <- conv3_2
I0402 10:07:15.940273 11179 net.cpp:395] relu3_2 -> conv3_2 (in-place)
I0402 10:07:15.943671 11179 net.cpp:150] Setting up relu3_2
I0402 10:07:15.943801 11179 net.cpp:157] Top shape: 1 256 75 75 (1440000)
I0402 10:07:15.943898 11179 net.cpp:165] Memory required for data: 178560512
I0402 10:07:15.943966 11179 layer_factory.hpp:77] Creating layer conv3_3
I0402 10:07:15.944044 11179 net.cpp:100] Creating Layer conv3_3
I0402 10:07:15.944147 11179 net.cpp:434] conv3_3 <- conv3_2
I0402 10:07:15.944219 11179 net.cpp:408] conv3_3 -> conv3_3
I0402 10:07:15.966631 11179 net.cpp:150] Setting up conv3_3
I0402 10:07:15.966856 11179 net.cpp:157] Top shape: 1 256 75 75 (1440000)
I0402 10:07:15.966928 11179 net.cpp:165] Memory required for data: 184320512
I0402 10:07:15.967010 11179 layer_factory.hpp:77] Creating layer relu3_3
I0402 10:07:15.967087 11179 net.cpp:100] Creating Layer relu3_3
I0402 10:07:15.967159 11179 net.cpp:434] relu3_3 <- conv3_3
I0402 10:07:15.967233 11179 net.cpp:395] relu3_3 -> conv3_3 (in-place)
I0402 10:07:15.967572 11179 net.cpp:150] Setting up relu3_3
I0402 10:07:15.977763 11179 net.cpp:157] Top shape: 1 256 75 75 (1440000)
I0402 10:07:15.977892 11179 net.cpp:165] Memory required for data: 190080512
I0402 10:07:15.977962 11179 layer_factory.hpp:77] Creating layer pool3
I0402 10:07:15.978039 11179 net.cpp:100] Creating Layer pool3
I0402 10:07:15.978106 11179 net.cpp:434] pool3 <- conv3_3
I0402 10:07:15.978176 11179 net.cpp:408] pool3 -> pool3
I0402 10:07:15.978327 11179 net.cpp:150] Setting up pool3
I0402 10:07:15.978397 11179 net.cpp:157] Top shape: 1 256 38 38 (369664)
I0402 10:07:15.978461 11179 net.cpp:165] Memory required for data: 191559168
I0402 10:07:15.978528 11179 layer_factory.hpp:77] Creating layer conv4_1
I0402 10:07:15.978607 11179 net.cpp:100] Creating Layer conv4_1
I0402 10:07:15.978790 11179 net.cpp:434] conv4_1 <- pool3
I0402 10:07:15.978859 11179 net.cpp:408] conv4_1 -> conv4_1
I0402 10:07:16.013887 11179 net.cpp:150] Setting up conv4_1
I0402 10:07:16.014103 11179 net.cpp:157] Top shape: 1 512 38 38 (739328)
I0402 10:07:16.014173 11179 net.cpp:165] Memory required for data: 194516480
I0402 10:07:16.014251 11179 layer_factory.hpp:77] Creating layer relu4_1
I0402 10:07:16.014341 11179 net.cpp:100] Creating Layer relu4_1
I0402 10:07:16.014408 11179 net.cpp:434] relu4_1 <- conv4_1
I0402 10:07:16.014479 11179 net.cpp:395] relu4_1 -> conv4_1 (in-place)
I0402 10:07:16.014789 11179 net.cpp:150] Setting up relu4_1
I0402 10:07:16.014894 11179 net.cpp:157] Top shape: 1 512 38 38 (739328)
I0402 10:07:16.014956 11179 net.cpp:165] Memory required for data: 197473792
I0402 10:07:16.015025 11179 layer_factory.hpp:77] Creating layer conv4_2
I0402 10:07:16.015100 11179 net.cpp:100] Creating Layer conv4_2
I0402 10:07:16.015163 11179 net.cpp:434] conv4_2 <- conv4_1
I0402 10:07:16.015239 11179 net.cpp:408] conv4_2 -> conv4_2
I0402 10:07:16.084678 11179 net.cpp:150] Setting up conv4_2
I0402 10:07:16.105769 11179 net.cpp:157] Top shape: 1 512 38 38 (739328)
I0402 10:07:16.105984 11179 net.cpp:165] Memory required for data: 200431104
I0402 10:07:16.106081 11179 layer_factory.hpp:77] Creating layer relu4_2
I0402 10:07:16.106158 11179 net.cpp:100] Creating Layer relu4_2
I0402 10:07:16.106271 11179 net.cpp:434] relu4_2 <- conv4_2
I0402 10:07:16.106348 11179 net.cpp:395] relu4_2 -> conv4_2 (in-place)
I0402 10:07:16.107801 11179 net.cpp:150] Setting up relu4_2
I0402 10:07:16.107935 11179 net.cpp:157] Top shape: 1 512 38 38 (739328)
I0402 10:07:16.108003 11179 net.cpp:165] Memory required for data: 203388416
I0402 10:07:16.108076 11179 layer_factory.hpp:77] Creating layer conv4_3
I0402 10:07:16.108160 11179 net.cpp:100] Creating Layer conv4_3
I0402 10:07:16.108229 11179 net.cpp:434] conv4_3 <- conv4_2
I0402 10:07:16.108304 11179 net.cpp:408] conv4_3 -> conv4_3
I0402 10:07:16.158974 11179 net.cpp:150] Setting up conv4_3
I0402 10:07:16.179049 11179 net.cpp:157] Top shape: 1 512 38 38 (739328)
I0402 10:07:16.179250 11179 net.cpp:165] Memory required for data: 206345728
I0402 10:07:16.179329 11179 layer_factory.hpp:77] Creating layer relu4_3
I0402 10:07:16.179407 11179 net.cpp:100] Creating Layer relu4_3
I0402 10:07:16.179472 11179 net.cpp:434] relu4_3 <- conv4_3
I0402 10:07:16.179541 11179 net.cpp:395] relu4_3 -> conv4_3 (in-place)
I0402 10:07:16.179955 11179 net.cpp:150] Setting up relu4_3
I0402 10:07:16.180057 11179 net.cpp:157] Top shape: 1 512 38 38 (739328)
I0402 10:07:16.180119 11179 net.cpp:165] Memory required for data: 209303040
I0402 10:07:16.180182 11179 layer_factory.hpp:77] Creating layer conv4_3_relu4_3_0_split
I0402 10:07:16.180255 11179 net.cpp:100] Creating Layer conv4_3_relu4_3_0_split
I0402 10:07:16.180320 11179 net.cpp:434] conv4_3_relu4_3_0_split <- conv4_3
I0402 10:07:16.180387 11179 net.cpp:408] conv4_3_relu4_3_0_split -> conv4_3_relu4_3_0_split_0
I0402 10:07:16.180460 11179 net.cpp:408] conv4_3_relu4_3_0_split -> conv4_3_relu4_3_0_split_1
I0402 10:07:16.180613 11179 net.cpp:150] Setting up conv4_3_relu4_3_0_split
I0402 10:07:16.180682 11179 net.cpp:157] Top shape: 1 512 38 38 (739328)
I0402 10:07:16.180747 11179 net.cpp:157] Top shape: 1 512 38 38 (739328)
I0402 10:07:16.180806 11179 net.cpp:165] Memory required for data: 215217664
I0402 10:07:16.180868 11179 layer_factory.hpp:77] Creating layer pool4
I0402 10:07:16.180935 11179 net.cpp:100] Creating Layer pool4
I0402 10:07:16.180999 11179 net.cpp:434] pool4 <- conv4_3_relu4_3_0_split_0
I0402 10:07:16.181064 11179 net.cpp:408] pool4 -> pool4
I0402 10:07:16.181188 11179 net.cpp:150] Setting up pool4
I0402 10:07:16.181255 11179 net.cpp:157] Top shape: 1 512 19 19 (184832)
I0402 10:07:16.181319 11179 net.cpp:165] Memory required for data: 215956992
I0402 10:07:16.181385 11179 layer_factory.hpp:77] Creating layer conv5_1
I0402 10:07:16.181510 11179 net.cpp:100] Creating Layer conv5_1
I0402 10:07:16.181576 11179 net.cpp:434] conv5_1 <- pool4
I0402 10:07:16.181644 11179 net.cpp:408] conv5_1 -> conv5_1
I0402 10:07:16.248452 11179 net.cpp:150] Setting up conv5_1
I0402 10:07:16.257786 11179 net.cpp:157] Top shape: 1 512 19 19 (184832)
I0402 10:07:16.258006 11179 net.cpp:165] Memory required for data: 216696320
I0402 10:07:16.258139 11179 layer_factory.hpp:77] Creating layer relu5_1
I0402 10:07:16.258222 11179 net.cpp:100] Creating Layer relu5_1
I0402 10:07:16.258355 11179 net.cpp:434] relu5_1 <- conv5_1
I0402 10:07:16.258435 11179 net.cpp:395] relu5_1 -> conv5_1 (in-place)
I0402 10:07:16.258981 11179 net.cpp:150] Setting up relu5_1
I0402 10:07:16.259110 11179 net.cpp:157] Top shape: 1 512 19 19 (184832)
I0402 10:07:16.259299 11179 net.cpp:165] Memory required for data: 217435648
I0402 10:07:16.259371 11179 layer_factory.hpp:77] Creating layer conv5_2
I0402 10:07:16.259495 11179 net.cpp:100] Creating Layer conv5_2
I0402 10:07:16.259598 11179 net.cpp:434] conv5_2 <- conv5_1
I0402 10:07:16.259676 11179 net.cpp:408] conv5_2 -> conv5_2
I0402 10:07:16.330058 11179 net.cpp:150] Setting up conv5_2
I0402 10:07:16.341779 11179 net.cpp:157] Top shape: 1 512 19 19 (184832)
I0402 10:07:16.343011 11179 net.cpp:165] Memory required for data: 218174976
I0402 10:07:16.343116 11179 layer_factory.hpp:77] Creating layer relu5_2
I0402 10:07:16.343199 11179 net.cpp:100] Creating Layer relu5_2
I0402 10:07:16.343276 11179 net.cpp:434] relu5_2 <- conv5_2
I0402 10:07:16.343364 11179 net.cpp:395] relu5_2 -> conv5_2 (in-place)
I0402 10:07:16.344817 11179 net.cpp:150] Setting up relu5_2
I0402 10:07:16.349856 11179 net.cpp:157] Top shape: 1 512 19 19 (184832)
I0402 10:07:16.350006 11179 net.cpp:165] Memory required for data: 218914304
I0402 10:07:16.350119 11179 layer_factory.hpp:77] Creating layer conv5_3
I0402 10:07:16.350221 11179 net.cpp:100] Creating Layer conv5_3
I0402 10:07:16.350332 11179 net.cpp:434] conv5_3 <- conv5_2
I0402 10:07:16.350419 11179 net.cpp:408] conv5_3 -> conv5_3
I0402 10:07:16.429453 11179 net.cpp:150] Setting up conv5_3
I0402 10:07:16.429491 11179 net.cpp:157] Top shape: 1 512 19 19 (184832)
I0402 10:07:16.429499 11179 net.cpp:165] Memory required for data: 219653632
I0402 10:07:16.429517 11179 layer_factory.hpp:77] Creating layer relu5_3
I0402 10:07:16.429530 11179 net.cpp:100] Creating Layer relu5_3
I0402 10:07:16.429538 11179 net.cpp:434] relu5_3 <- conv5_3
I0402 10:07:16.429550 11179 net.cpp:395] relu5_3 -> conv5_3 (in-place)
I0402 10:07:16.431093 11179 net.cpp:150] Setting up relu5_3
I0402 10:07:16.431115 11179 net.cpp:157] Top shape: 1 512 19 19 (184832)
I0402 10:07:16.431123 11179 net.cpp:165] Memory required for data: 220392960
I0402 10:07:16.431129 11179 layer_factory.hpp:77] Creating layer pool5
I0402 10:07:16.431141 11179 net.cpp:100] Creating Layer pool5
I0402 10:07:16.431149 11179 net.cpp:434] pool5 <- conv5_3
I0402 10:07:16.431157 11179 net.cpp:408] pool5 -> pool5
I0402 10:07:16.431238 11179 net.cpp:150] Setting up pool5
I0402 10:07:16.431252 11179 net.cpp:157] Top shape: 1 512 19 19 (184832)
I0402 10:07:16.431257 11179 net.cpp:165] Memory required for data: 221132288
I0402 10:07:16.431262 11179 layer_factory.hpp:77] Creating layer fc6_depthwise
I0402 10:07:16.431278 11179 net.cpp:100] Creating Layer fc6_depthwise
I0402 10:07:16.431286 11179 net.cpp:434] fc6_depthwise <- pool5
I0402 10:07:16.431298 11179 net.cpp:408] fc6_depthwise -> fc6_3x3
I0402 10:07:16.431782 11179 net.cpp:150] Setting up fc6_depthwise
I0402 10:07:16.431802 11179 net.cpp:157] Top shape: 1 512 19 19 (184832)
I0402 10:07:16.431809 11179 net.cpp:165] Memory required for data: 221871616
I0402 10:07:16.431821 11179 layer_factory.hpp:77] Creating layer fc6_3x3_relu
I0402 10:07:16.431830 11179 net.cpp:100] Creating Layer fc6_3x3_relu
I0402 10:07:16.431836 11179 net.cpp:434] fc6_3x3_relu <- fc6_3x3
I0402 10:07:16.431847 11179 net.cpp:395] fc6_3x3_relu -> fc6_3x3 (in-place)
I0402 10:07:16.434260 11179 net.cpp:150] Setting up fc6_3x3_relu
I0402 10:07:16.434283 11179 net.cpp:157] Top shape: 1 512 19 19 (184832)
I0402 10:07:16.434289 11179 net.cpp:165] Memory required for data: 222610944
I0402 10:07:16.434296 11179 layer_factory.hpp:77] Creating layer fc6_1x1
I0402 10:07:16.434312 11179 net.cpp:100] Creating Layer fc6_1x1
I0402 10:07:16.434319 11179 net.cpp:434] fc6_1x1 <- fc6_3x3
I0402 10:07:16.434329 11179 net.cpp:408] fc6_1x1 -> fc6
I0402 10:07:16.459635 11179 net.cpp:150] Setting up fc6_1x1
I0402 10:07:16.459676 11179 net.cpp:157] Top shape: 1 1024 19 19 (369664)
I0402 10:07:16.459682 11179 net.cpp:165] Memory required for data: 224089600
I0402 10:07:16.459725 11179 layer_factory.hpp:77] Creating layer relu6
I0402 10:07:16.459741 11179 net.cpp:100] Creating Layer relu6
I0402 10:07:16.459749 11179 net.cpp:434] relu6 <- fc6
I0402 10:07:16.459758 11179 net.cpp:395] relu6 -> fc6 (in-place)
I0402 10:07:16.460114 11179 net.cpp:150] Setting up relu6
I0402 10:07:16.460129 11179 net.cpp:157] Top shape: 1 1024 19 19 (369664)
I0402 10:07:16.460134 11179 net.cpp:165] Memory required for data: 225568256
I0402 10:07:16.460139 11179 layer_factory.hpp:77] Creating layer fc7
I0402 10:07:16.460155 11179 net.cpp:100] Creating Layer fc7
I0402 10:07:16.460161 11179 net.cpp:434] fc7 <- fc6
I0402 10:07:16.460171 11179 net.cpp:408] fc7 -> fc7
I0402 10:07:16.527670 11179 net.cpp:150] Setting up fc7
I0402 10:07:16.527709 11179 net.cpp:157] Top shape: 1 1024 19 19 (369664)
I0402 10:07:16.527717 11179 net.cpp:165] Memory required for data: 227046912
I0402 10:07:16.527734 11179 layer_factory.hpp:77] Creating layer relu7
I0402 10:07:16.527748 11179 net.cpp:100] Creating Layer relu7
I0402 10:07:16.527757 11179 net.cpp:434] relu7 <- fc7
I0402 10:07:16.527768 11179 net.cpp:395] relu7 -> fc7 (in-place)
I0402 10:07:16.528854 11179 net.cpp:150] Setting up relu7
I0402 10:07:16.528874 11179 net.cpp:157] Top shape: 1 1024 19 19 (369664)
I0402 10:07:16.528882 11179 net.cpp:165] Memory required for data: 228525568
I0402 10:07:16.528888 11179 layer_factory.hpp:77] Creating layer fc7_relu7_0_split
I0402 10:07:16.528900 11179 net.cpp:100] Creating Layer fc7_relu7_0_split
I0402 10:07:16.528908 11179 net.cpp:434] fc7_relu7_0_split <- fc7
I0402 10:07:16.528918 11179 net.cpp:408] fc7_relu7_0_split -> fc7_relu7_0_split_0
I0402 10:07:16.528933 11179 net.cpp:408] fc7_relu7_0_split -> fc7_relu7_0_split_1
I0402 10:07:16.528944 11179 net.cpp:408] fc7_relu7_0_split -> fc7_relu7_0_split_2
I0402 10:07:16.528952 11179 net.cpp:408] fc7_relu7_0_split -> fc7_relu7_0_split_3
I0402 10:07:16.529078 11179 net.cpp:150] Setting up fc7_relu7_0_split
I0402 10:07:16.529094 11179 net.cpp:157] Top shape: 1 1024 19 19 (369664)
I0402 10:07:16.529103 11179 net.cpp:157] Top shape: 1 1024 19 19 (369664)
I0402 10:07:16.529109 11179 net.cpp:157] Top shape: 1 1024 19 19 (369664)
I0402 10:07:16.529117 11179 net.cpp:157] Top shape: 1 1024 19 19 (369664)
I0402 10:07:16.529124 11179 net.cpp:165] Memory required for data: 234440192
I0402 10:07:16.529129 11179 layer_factory.hpp:77] Creating layer conv6_1
I0402 10:07:16.529147 11179 net.cpp:100] Creating Layer conv6_1
I0402 10:07:16.529157 11179 net.cpp:434] conv6_1 <- fc7_relu7_0_split_0
I0402 10:07:16.529168 11179 net.cpp:408] conv6_1 -> conv6_1
I0402 10:07:16.572420 11179 net.cpp:150] Setting up conv6_1
I0402 10:07:16.572463 11179 net.cpp:157] Top shape: 1 256 19 19 (92416)
I0402 10:07:16.572470 11179 net.cpp:165] Memory required for data: 234809856
I0402 10:07:16.572500 11179 layer_factory.hpp:77] Creating layer conv6_1_relu
I0402 10:07:16.572516 11179 net.cpp:100] Creating Layer conv6_1_relu
I0402 10:07:16.572526 11179 net.cpp:434] conv6_1_relu <- conv6_1
I0402 10:07:16.572537 11179 net.cpp:395] conv6_1_relu -> conv6_1 (in-place)
I0402 10:07:16.572844 11179 net.cpp:150] Setting up conv6_1_relu
I0402 10:07:16.572861 11179 net.cpp:157] Top shape: 1 256 19 19 (92416)
I0402 10:07:16.572867 11179 net.cpp:165] Memory required for data: 235179520
I0402 10:07:16.572873 11179 layer_factory.hpp:77] Creating layer conv6_2
I0402 10:07:16.572892 11179 net.cpp:100] Creating Layer conv6_2
I0402 10:07:16.572902 11179 net.cpp:434] conv6_2 <- conv6_1
I0402 10:07:16.572914 11179 net.cpp:408] conv6_2 -> conv6_2
I0402 10:07:16.605345 11179 net.cpp:150] Setting up conv6_2
I0402 10:07:16.605388 11179 net.cpp:157] Top shape: 1 512 10 10 (51200)
I0402 10:07:16.605396 11179 net.cpp:165] Memory required for data: 235384320
I0402 10:07:16.605412 11179 layer_factory.hpp:77] Creating layer conv6_2_relu
I0402 10:07:16.605429 11179 net.cpp:100] Creating Layer conv6_2_relu
I0402 10:07:16.605438 11179 net.cpp:434] conv6_2_relu <- conv6_2
I0402 10:07:16.605448 11179 net.cpp:395] conv6_2_relu -> conv6_2 (in-place)
I0402 10:07:16.629318 11179 net.cpp:150] Setting up conv6_2_relu
I0402 10:07:16.629356 11179 net.cpp:157] Top shape: 1 512 10 10 (51200)
I0402 10:07:16.629362 11179 net.cpp:165] Memory required for data: 235589120
I0402 10:07:16.629371 11179 layer_factory.hpp:77] Creating layer conv6_2_conv6_2_relu_0_split
I0402 10:07:16.629386 11179 net.cpp:100] Creating Layer conv6_2_conv6_2_relu_0_split
I0402 10:07:16.629395 11179 net.cpp:434] conv6_2_conv6_2_relu_0_split <- conv6_2
I0402 10:07:16.629408 11179 net.cpp:408] conv6_2_conv6_2_relu_0_split -> conv6_2_conv6_2_relu_0_split_0
I0402 10:07:16.629421 11179 net.cpp:408] conv6_2_conv6_2_relu_0_split -> conv6_2_conv6_2_relu_0_split_1
I0402 10:07:16.629431 11179 net.cpp:408] conv6_2_conv6_2_relu_0_split -> conv6_2_conv6_2_relu_0_split_2
I0402 10:07:16.629438 11179 net.cpp:408] conv6_2_conv6_2_relu_0_split -> conv6_2_conv6_2_relu_0_split_3
I0402 10:07:16.629609 11179 net.cpp:150] Setting up conv6_2_conv6_2_relu_0_split
I0402 10:07:16.629624 11179 net.cpp:157] Top shape: 1 512 10 10 (51200)
I0402 10:07:16.629631 11179 net.cpp:157] Top shape: 1 512 10 10 (51200)
I0402 10:07:16.629638 11179 net.cpp:157] Top shape: 1 512 10 10 (51200)
I0402 10:07:16.629644 11179 net.cpp:157] Top shape: 1 512 10 10 (51200)
I0402 10:07:16.629649 11179 net.cpp:165] Memory required for data: 236408320
I0402 10:07:16.629654 11179 layer_factory.hpp:77] Creating layer conv7_1
I0402 10:07:16.629671 11179 net.cpp:100] Creating Layer conv7_1
I0402 10:07:16.629678 11179 net.cpp:434] conv7_1 <- conv6_2_conv6_2_relu_0_split_0
I0402 10:07:16.629688 11179 net.cpp:408] conv7_1 -> conv7_1
I0402 10:07:16.639015 11179 net.cpp:150] Setting up conv7_1
I0402 10:07:16.639055 11179 net.cpp:157] Top shape: 1 128 10 10 (12800)
I0402 10:07:16.639061 11179 net.cpp:165] Memory required for data: 236459520
I0402 10:07:16.639077 11179 layer_factory.hpp:77] Creating layer conv7_1_relu
I0402 10:07:16.639089 11179 net.cpp:100] Creating Layer conv7_1_relu
I0402 10:07:16.639098 11179 net.cpp:434] conv7_1_relu <- conv7_1
I0402 10:07:16.639109 11179 net.cpp:395] conv7_1_relu -> conv7_1 (in-place)
I0402 10:07:16.642408 11179 net.cpp:150] Setting up conv7_1_relu
I0402 10:07:16.642436 11179 net.cpp:157] Top shape: 1 128 10 10 (12800)
I0402 10:07:16.642443 11179 net.cpp:165] Memory required for data: 236510720
I0402 10:07:16.642451 11179 layer_factory.hpp:77] Creating layer conv7_2
I0402 10:07:16.642470 11179 net.cpp:100] Creating Layer conv7_2
I0402 10:07:16.642478 11179 net.cpp:434] conv7_2 <- conv7_1
I0402 10:07:16.642489 11179 net.cpp:408] conv7_2 -> conv7_2
I0402 10:07:16.661514 11179 net.cpp:150] Setting up conv7_2
I0402 10:07:16.661548 11179 net.cpp:157] Top shape: 1 256 5 5 (6400)
I0402 10:07:16.661554 11179 net.cpp:165] Memory required for data: 236536320
I0402 10:07:16.661571 11179 layer_factory.hpp:77] Creating layer conv7_2_relu
I0402 10:07:16.661587 11179 net.cpp:100] Creating Layer conv7_2_relu
I0402 10:07:16.661595 11179 net.cpp:434] conv7_2_relu <- conv7_2
I0402 10:07:16.661605 11179 net.cpp:395] conv7_2_relu -> conv7_2 (in-place)
I0402 10:07:16.661881 11179 net.cpp:150] Setting up conv7_2_relu
I0402 10:07:16.661900 11179 net.cpp:157] Top shape: 1 256 5 5 (6400)
I0402 10:07:16.661906 11179 net.cpp:165] Memory required for data: 236561920
I0402 10:07:16.661911 11179 layer_factory.hpp:77] Creating layer conv7_2_conv7_2_relu_0_split
I0402 10:07:16.661922 11179 net.cpp:100] Creating Layer conv7_2_conv7_2_relu_0_split
I0402 10:07:16.661928 11179 net.cpp:434] conv7_2_conv7_2_relu_0_split <- conv7_2
I0402 10:07:16.661937 11179 net.cpp:408] conv7_2_conv7_2_relu_0_split -> conv7_2_conv7_2_relu_0_split_0
I0402 10:07:16.661949 11179 net.cpp:408] conv7_2_conv7_2_relu_0_split -> conv7_2_conv7_2_relu_0_split_1
I0402 10:07:16.661960 11179 net.cpp:408] conv7_2_conv7_2_relu_0_split -> conv7_2_conv7_2_relu_0_split_2
I0402 10:07:16.661970 11179 net.cpp:408] conv7_2_conv7_2_relu_0_split -> conv7_2_conv7_2_relu_0_split_3
I0402 10:07:16.662076 11179 net.cpp:150] Setting up conv7_2_conv7_2_relu_0_split
I0402 10:07:16.662108 11179 net.cpp:157] Top shape: 1 256 5 5 (6400)
I0402 10:07:16.662117 11179 net.cpp:157] Top shape: 1 256 5 5 (6400)
I0402 10:07:16.662124 11179 net.cpp:157] Top shape: 1 256 5 5 (6400)
I0402 10:07:16.662130 11179 net.cpp:157] Top shape: 1 256 5 5 (6400)
I0402 10:07:16.662135 11179 net.cpp:165] Memory required for data: 236664320
I0402 10:07:16.662142 11179 layer_factory.hpp:77] Creating layer conv8_1
I0402 10:07:16.662158 11179 net.cpp:100] Creating Layer conv8_1
I0402 10:07:16.662168 11179 net.cpp:434] conv8_1 <- conv7_2_conv7_2_relu_0_split_0
I0402 10:07:16.662178 11179 net.cpp:408] conv8_1 -> conv8_1
I0402 10:07:16.671196 11179 net.cpp:150] Setting up conv8_1
I0402 10:07:16.671226 11179 net.cpp:157] Top shape: 1 128 5 5 (3200)
I0402 10:07:16.671232 11179 net.cpp:165] Memory required for data: 236677120
I0402 10:07:16.671247 11179 layer_factory.hpp:77] Creating layer conv8_1_relu
I0402 10:07:16.671262 11179 net.cpp:100] Creating Layer conv8_1_relu
I0402 10:07:16.671269 11179 net.cpp:434] conv8_1_relu <- conv8_1
I0402 10:07:16.671278 11179 net.cpp:395] conv8_1_relu -> conv8_1 (in-place)
I0402 10:07:16.671525 11179 net.cpp:150] Setting up conv8_1_relu
I0402 10:07:16.671540 11179 net.cpp:157] Top shape: 1 128 5 5 (3200)
I0402 10:07:16.671545 11179 net.cpp:165] Memory required for data: 236689920
I0402 10:07:16.671552 11179 layer_factory.hpp:77] Creating layer conv8_2
I0402 10:07:16.671568 11179 net.cpp:100] Creating Layer conv8_2
I0402 10:07:16.671578 11179 net.cpp:434] conv8_2 <- conv8_1
I0402 10:07:16.671587 11179 net.cpp:408] conv8_2 -> conv8_2
I0402 10:07:16.691529 11179 net.cpp:150] Setting up conv8_2
I0402 10:07:16.691563 11179 net.cpp:157] Top shape: 1 256 3 3 (2304)
I0402 10:07:16.691571 11179 net.cpp:165] Memory required for data: 236699136
I0402 10:07:16.691588 11179 layer_factory.hpp:77] Creating layer conv8_2_relu
I0402 10:07:16.691603 11179 net.cpp:100] Creating Layer conv8_2_relu
I0402 10:07:16.691612 11179 net.cpp:434] conv8_2_relu <- conv8_2
I0402 10:07:16.691622 11179 net.cpp:395] conv8_2_relu -> conv8_2 (in-place)
I0402 10:07:16.697177 11179 net.cpp:150] Setting up conv8_2_relu
I0402 10:07:16.697216 11179 net.cpp:157] Top shape: 1 256 3 3 (2304)
I0402 10:07:16.697222 11179 net.cpp:165] Memory required for data: 236708352
I0402 10:07:16.697232 11179 layer_factory.hpp:77] Creating layer conv8_2_conv8_2_relu_0_split
I0402 10:07:16.697247 11179 net.cpp:100] Creating Layer conv8_2_conv8_2_relu_0_split
I0402 10:07:16.697257 11179 net.cpp:434] conv8_2_conv8_2_relu_0_split <- conv8_2
I0402 10:07:16.697268 11179 net.cpp:408] conv8_2_conv8_2_relu_0_split -> conv8_2_conv8_2_relu_0_split_0
I0402 10:07:16.697281 11179 net.cpp:408] conv8_2_conv8_2_relu_0_split -> conv8_2_conv8_2_relu_0_split_1
I0402 10:07:16.697291 11179 net.cpp:408] conv8_2_conv8_2_relu_0_split -> conv8_2_conv8_2_relu_0_split_2
I0402 10:07:16.697301 11179 net.cpp:408] conv8_2_conv8_2_relu_0_split -> conv8_2_conv8_2_relu_0_split_3
I0402 10:07:16.697463 11179 net.cpp:150] Setting up conv8_2_conv8_2_relu_0_split
I0402 10:07:16.697476 11179 net.cpp:157] Top shape: 1 256 3 3 (2304)
I0402 10:07:16.697484 11179 net.cpp:157] Top shape: 1 256 3 3 (2304)
I0402 10:07:16.697490 11179 net.cpp:157] Top shape: 1 256 3 3 (2304)
I0402 10:07:16.697497 11179 net.cpp:157] Top shape: 1 256 3 3 (2304)
I0402 10:07:16.697504 11179 net.cpp:165] Memory required for data: 236745216
I0402 10:07:16.697510 11179 layer_factory.hpp:77] Creating layer conv9_1
I0402 10:07:16.697533 11179 net.cpp:100] Creating Layer conv9_1
I0402 10:07:16.697540 11179 net.cpp:434] conv9_1 <- conv8_2_conv8_2_relu_0_split_0
I0402 10:07:16.697551 11179 net.cpp:408] conv9_1 -> conv9_1
I0402 10:07:16.710496 11179 net.cpp:150] Setting up conv9_1
I0402 10:07:16.710531 11179 net.cpp:157] Top shape: 1 128 3 3 (1152)
I0402 10:07:16.710537 11179 net.cpp:165] Memory required for data: 236749824
I0402 10:07:16.710553 11179 layer_factory.hpp:77] Creating layer conv9_1_relu
I0402 10:07:16.710566 11179 net.cpp:100] Creating Layer conv9_1_relu
I0402 10:07:16.710573 11179 net.cpp:434] conv9_1_relu <- conv9_1
I0402 10:07:16.710610 11179 net.cpp:395] conv9_1_relu -> conv9_1 (in-place)
I0402 10:07:16.710882 11179 net.cpp:150] Setting up conv9_1_relu
I0402 10:07:16.710898 11179 net.cpp:157] Top shape: 1 128 3 3 (1152)
I0402 10:07:16.710904 11179 net.cpp:165] Memory required for data: 236754432
I0402 10:07:16.710911 11179 layer_factory.hpp:77] Creating layer conv9_2
I0402 10:07:16.713064 11179 net.cpp:100] Creating Layer conv9_2
I0402 10:07:16.713074 11179 net.cpp:434] conv9_2 <- conv9_1
I0402 10:07:16.713086 11179 net.cpp:408] conv9_2 -> conv9_2
I0402 10:07:16.732852 11179 net.cpp:150] Setting up conv9_2
I0402 10:07:16.732884 11179 net.cpp:157] Top shape: 1 256 1 1 (256)
I0402 10:07:16.732890 11179 net.cpp:165] Memory required for data: 236755456
I0402 10:07:16.732908 11179 layer_factory.hpp:77] Creating layer conv9_2_relu
I0402 10:07:16.732923 11179 net.cpp:100] Creating Layer conv9_2_relu
I0402 10:07:16.732933 11179 net.cpp:434] conv9_2_relu <- conv9_2
I0402 10:07:16.732944 11179 net.cpp:395] conv9_2_relu -> conv9_2 (in-place)
I0402 10:07:16.733227 11179 net.cpp:150] Setting up conv9_2_relu
I0402 10:07:16.733242 11179 net.cpp:157] Top shape: 1 256 1 1 (256)
I0402 10:07:16.733247 11179 net.cpp:165] Memory required for data: 236756480
I0402 10:07:16.733253 11179 layer_factory.hpp:77] Creating layer conv9_2_conv9_2_relu_0_split
I0402 10:07:16.733263 11179 net.cpp:100] Creating Layer conv9_2_conv9_2_relu_0_split
I0402 10:07:16.733269 11179 net.cpp:434] conv9_2_conv9_2_relu_0_split <- conv9_2
I0402 10:07:16.733279 11179 net.cpp:408] conv9_2_conv9_2_relu_0_split -> conv9_2_conv9_2_relu_0_split_0
I0402 10:07:16.733291 11179 net.cpp:408] conv9_2_conv9_2_relu_0_split -> conv9_2_conv9_2_relu_0_split_1
I0402 10:07:16.733306 11179 net.cpp:408] conv9_2_conv9_2_relu_0_split -> conv9_2_conv9_2_relu_0_split_2
I0402 10:07:16.733407 11179 net.cpp:150] Setting up conv9_2_conv9_2_relu_0_split
I0402 10:07:16.735553 11179 net.cpp:157] Top shape: 1 256 1 1 (256)
I0402 10:07:16.735563 11179 net.cpp:157] Top shape: 1 256 1 1 (256)
I0402 10:07:16.735569 11179 net.cpp:157] Top shape: 1 256 1 1 (256)
I0402 10:07:16.735574 11179 net.cpp:165] Memory required for data: 236759552
I0402 10:07:16.735580 11179 layer_factory.hpp:77] Creating layer conv4_3_norm
I0402 10:07:16.735595 11179 net.cpp:100] Creating Layer conv4_3_norm
I0402 10:07:16.735602 11179 net.cpp:434] conv4_3_norm <- conv4_3_relu4_3_0_split_1
I0402 10:07:16.735613 11179 net.cpp:408] conv4_3_norm -> conv4_3_norm
I0402 10:07:16.735899 11179 net.cpp:150] Setting up conv4_3_norm
I0402 10:07:16.735914 11179 net.cpp:157] Top shape: 1 512 38 38 (739328)
I0402 10:07:16.735919 11179 net.cpp:165] Memory required for data: 239716864
I0402 10:07:16.735930 11179 layer_factory.hpp:77] Creating layer conv4_3_norm_conv4_3_norm_0_split
I0402 10:07:16.735941 11179 net.cpp:100] Creating Layer conv4_3_norm_conv4_3_norm_0_split
I0402 10:07:16.735949 11179 net.cpp:434] conv4_3_norm_conv4_3_norm_0_split <- conv4_3_norm
I0402 10:07:16.735956 11179 net.cpp:408] conv4_3_norm_conv4_3_norm_0_split -> conv4_3_norm_conv4_3_norm_0_split_0
I0402 10:07:16.735966 11179 net.cpp:408] conv4_3_norm_conv4_3_norm_0_split -> conv4_3_norm_conv4_3_norm_0_split_1
I0402 10:07:16.735988 11179 net.cpp:408] conv4_3_norm_conv4_3_norm_0_split -> conv4_3_norm_conv4_3_norm_0_split_2
I0402 10:07:16.736065 11179 net.cpp:150] Setting up conv4_3_norm_conv4_3_norm_0_split
I0402 10:07:16.736078 11179 net.cpp:157] Top shape: 1 512 38 38 (739328)
I0402 10:07:16.736085 11179 net.cpp:157] Top shape: 1 512 38 38 (739328)
I0402 10:07:16.736093 11179 net.cpp:157] Top shape: 1 512 38 38 (739328)
I0402 10:07:16.736099 11179 net.cpp:165] Memory required for data: 248588800
I0402 10:07:16.736104 11179 layer_factory.hpp:77] Creating layer conv4_3_norm_mbox_loc
I0402 10:07:16.736130 11179 net.cpp:100] Creating Layer conv4_3_norm_mbox_loc
I0402 10:07:16.736140 11179 net.cpp:434] conv4_3_norm_mbox_loc <- conv4_3_norm_conv4_3_norm_0_split_0
I0402 10:07:16.736148 11179 net.cpp:408] conv4_3_norm_mbox_loc -> conv4_3_norm_mbox_loc
I0402 10:07:16.746893 11179 net.cpp:150] Setting up conv4_3_norm_mbox_loc
I0402 10:07:16.746949 11179 net.cpp:157] Top shape: 1 16 38 38 (23104)
I0402 10:07:16.746958 11179 net.cpp:165] Memory required for data: 248681216
I0402 10:07:16.746974 11179 layer_factory.hpp:77] Creating layer conv4_3_norm_mbox_loc_perm
I0402 10:07:16.746994 11179 net.cpp:100] Creating Layer conv4_3_norm_mbox_loc_perm
I0402 10:07:16.747004 11179 net.cpp:434] conv4_3_norm_mbox_loc_perm <- conv4_3_norm_mbox_loc
I0402 10:07:16.747015 11179 net.cpp:408] conv4_3_norm_mbox_loc_perm -> conv4_3_norm_mbox_loc_perm
I0402 10:07:16.747213 11179 net.cpp:150] Setting up conv4_3_norm_mbox_loc_perm
I0402 10:07:16.747227 11179 net.cpp:157] Top shape: 1 38 38 16 (23104)
I0402 10:07:16.747233 11179 net.cpp:165] Memory required for data: 248773632
I0402 10:07:16.747241 11179 layer_factory.hpp:77] Creating layer conv4_3_norm_mbox_loc_flat
I0402 10:07:16.747251 11179 net.cpp:100] Creating Layer conv4_3_norm_mbox_loc_flat
I0402 10:07:16.747256 11179 net.cpp:434] conv4_3_norm_mbox_loc_flat <- conv4_3_norm_mbox_loc_perm
I0402 10:07:16.747264 11179 net.cpp:408] conv4_3_norm_mbox_loc_flat -> conv4_3_norm_mbox_loc_flat
I0402 10:07:16.747306 11179 net.cpp:150] Setting up conv4_3_norm_mbox_loc_flat
I0402 10:07:16.747318 11179 net.cpp:157] Top shape: 1 23104 (23104)
I0402 10:07:16.747323 11179 net.cpp:165] Memory required for data: 248866048
I0402 10:07:16.747328 11179 layer_factory.hpp:77] Creating layer conv4_3_norm_mbox_conf
I0402 10:07:16.747349 11179 net.cpp:100] Creating Layer conv4_3_norm_mbox_conf
I0402 10:07:16.749490 11179 net.cpp:434] conv4_3_norm_mbox_conf <- conv4_3_norm_conv4_3_norm_0_split_1
I0402 10:07:16.749503 11179 net.cpp:408] conv4_3_norm_mbox_conf -> conv4_3_norm_mbox_conf
I0402 10:07:16.764008 11179 net.cpp:150] Setting up conv4_3_norm_mbox_conf
I0402 10:07:16.764045 11179 net.cpp:157] Top shape: 1 44 38 38 (63536)
I0402 10:07:16.764051 11179 net.cpp:165] Memory required for data: 249120192
I0402 10:07:16.764070 11179 layer_factory.hpp:77] Creating layer conv4_3_norm_mbox_conf_perm
I0402 10:07:16.764084 11179 net.cpp:100] Creating Layer conv4_3_norm_mbox_conf_perm
I0402 10:07:16.764093 11179 net.cpp:434] conv4_3_norm_mbox_conf_perm <- conv4_3_norm_mbox_conf
I0402 10:07:16.764106 11179 net.cpp:408] conv4_3_norm_mbox_conf_perm -> conv4_3_norm_mbox_conf_perm
I0402 10:07:16.764318 11179 net.cpp:150] Setting up conv4_3_norm_mbox_conf_perm
I0402 10:07:16.764333 11179 net.cpp:157] Top shape: 1 38 38 44 (63536)
I0402 10:07:16.764339 11179 net.cpp:165] Memory required for data: 249374336
I0402 10:07:16.764345 11179 layer_factory.hpp:77] Creating layer conv4_3_norm_mbox_conf_flat
I0402 10:07:16.764355 11179 net.cpp:100] Creating Layer conv4_3_norm_mbox_conf_flat
I0402 10:07:16.764361 11179 net.cpp:434] conv4_3_norm_mbox_conf_flat <- conv4_3_norm_mbox_conf_perm
I0402 10:07:16.764372 11179 net.cpp:408] conv4_3_norm_mbox_conf_flat -> conv4_3_norm_mbox_conf_flat
I0402 10:07:16.764413 11179 net.cpp:150] Setting up conv4_3_norm_mbox_conf_flat
I0402 10:07:16.764425 11179 net.cpp:157] Top shape: 1 63536 (63536)
I0402 10:07:16.764430 11179 net.cpp:165] Memory required for data: 249628480
I0402 10:07:16.764436 11179 layer_factory.hpp:77] Creating layer conv4_3_norm_mbox_priorbox
I0402 10:07:16.764447 11179 net.cpp:100] Creating Layer conv4_3_norm_mbox_priorbox
I0402 10:07:16.764454 11179 net.cpp:434] conv4_3_norm_mbox_priorbox <- conv4_3_norm_conv4_3_norm_0_split_2
I0402 10:07:16.764462 11179 net.cpp:434] conv4_3_norm_mbox_priorbox <- data_data_0_split_1
I0402 10:07:16.766618 11179 net.cpp:408] conv4_3_norm_mbox_priorbox -> conv4_3_norm_mbox_priorbox
I0402 10:07:16.766685 11179 net.cpp:150] Setting up conv4_3_norm_mbox_priorbox
I0402 10:07:16.766696 11179 net.cpp:157] Top shape: 1 2 23104 (46208)
I0402 10:07:16.766701 11179 net.cpp:165] Memory required for data: 249813312
I0402 10:07:16.766708 11179 layer_factory.hpp:77] Creating layer fc7_mbox_loc
I0402 10:07:16.766727 11179 net.cpp:100] Creating Layer fc7_mbox_loc
I0402 10:07:16.766737 11179 net.cpp:434] fc7_mbox_loc <- fc7_relu7_0_split_1
I0402 10:07:16.766746 11179 net.cpp:408] fc7_mbox_loc -> fc7_mbox_loc
I0402 10:07:16.780184 11179 net.cpp:150] Setting up fc7_mbox_loc
I0402 10:07:16.780211 11179 net.cpp:157] Top shape: 1 24 19 19 (8664)
I0402 10:07:16.780216 11179 net.cpp:165] Memory required for data: 249847968
I0402 10:07:16.780231 11179 layer_factory.hpp:77] Creating layer fc7_mbox_loc_perm
I0402 10:07:16.780246 11179 net.cpp:100] Creating Layer fc7_mbox_loc_perm
I0402 10:07:16.780254 11179 net.cpp:434] fc7_mbox_loc_perm <- fc7_mbox_loc
I0402 10:07:16.780263 11179 net.cpp:408] fc7_mbox_loc_perm -> fc7_mbox_loc_perm
I0402 10:07:16.782595 11179 net.cpp:150] Setting up fc7_mbox_loc_perm
I0402 10:07:16.782614 11179 net.cpp:157] Top shape: 1 19 19 24 (8664)
I0402 10:07:16.782620 11179 net.cpp:165] Memory required for data: 249882624
I0402 10:07:16.782626 11179 layer_factory.hpp:77] Creating layer fc7_mbox_loc_flat
I0402 10:07:16.782639 11179 net.cpp:100] Creating Layer fc7_mbox_loc_flat
I0402 10:07:16.782645 11179 net.cpp:434] fc7_mbox_loc_flat <- fc7_mbox_loc_perm
I0402 10:07:16.782655 11179 net.cpp:408] fc7_mbox_loc_flat -> fc7_mbox_loc_flat
I0402 10:07:16.782697 11179 net.cpp:150] Setting up fc7_mbox_loc_flat
I0402 10:07:16.782706 11179 net.cpp:157] Top shape: 1 8664 (8664)
I0402 10:07:16.782711 11179 net.cpp:165] Memory required for data: 249917280
I0402 10:07:16.782717 11179 layer_factory.hpp:77] Creating layer fc7_mbox_conf
I0402 10:07:16.782733 11179 net.cpp:100] Creating Layer fc7_mbox_conf
I0402 10:07:16.782739 11179 net.cpp:434] fc7_mbox_conf <- fc7_relu7_0_split_2
I0402 10:07:16.782750 11179 net.cpp:408] fc7_mbox_conf -> fc7_mbox_conf
I0402 10:07:16.812723 11179 net.cpp:150] Setting up fc7_mbox_conf
I0402 10:07:16.813771 11179 net.cpp:157] Top shape: 1 66 19 19 (23826)
I0402 10:07:16.813869 11179 net.cpp:165] Memory required for data: 250012584
I0402 10:07:16.813958 11179 layer_factory.hpp:77] Creating layer fc7_mbox_conf_perm
I0402 10:07:16.814051 11179 net.cpp:100] Creating Layer fc7_mbox_conf_perm
I0402 10:07:16.814126 11179 net.cpp:434] fc7_mbox_conf_perm <- fc7_mbox_conf
I0402 10:07:16.814204 11179 net.cpp:408] fc7_mbox_conf_perm -> fc7_mbox_conf_perm
I0402 10:07:16.814496 11179 net.cpp:150] Setting up fc7_mbox_conf_perm
I0402 10:07:16.814604 11179 net.cpp:157] Top shape: 1 19 19 66 (23826)
I0402 10:07:16.814673 11179 net.cpp:165] Memory required for data: 250107888
I0402 10:07:16.814743 11179 layer_factory.hpp:77] Creating layer fc7_mbox_conf_flat
I0402 10:07:16.814821 11179 net.cpp:100] Creating Layer fc7_mbox_conf_flat
I0402 10:07:16.814889 11179 net.cpp:434] fc7_mbox_conf_flat <- fc7_mbox_conf_perm
I0402 10:07:16.814965 11179 net.cpp:408] fc7_mbox_conf_flat -> fc7_mbox_conf_flat
I0402 10:07:16.815090 11179 net.cpp:150] Setting up fc7_mbox_conf_flat
I0402 10:07:16.815165 11179 net.cpp:157] Top shape: 1 23826 (23826)
I0402 10:07:16.815237 11179 net.cpp:165] Memory required for data: 250203192
I0402 10:07:16.815306 11179 layer_factory.hpp:77] Creating layer fc7_mbox_priorbox
I0402 10:07:16.815387 11179 net.cpp:100] Creating Layer fc7_mbox_priorbox
I0402 10:07:16.815459 11179 net.cpp:434] fc7_mbox_priorbox <- fc7_relu7_0_split_3
I0402 10:07:16.815534 11179 net.cpp:434] fc7_mbox_priorbox <- data_data_0_split_2
I0402 10:07:16.815611 11179 net.cpp:408] fc7_mbox_priorbox -> fc7_mbox_priorbox
I0402 10:07:16.815740 11179 net.cpp:150] Setting up fc7_mbox_priorbox
I0402 10:07:16.819239 11179 net.cpp:157] Top shape: 1 2 8664 (17328)
I0402 10:07:16.819353 11179 net.cpp:165] Memory required for data: 250272504
I0402 10:07:16.819429 11179 layer_factory.hpp:77] Creating layer conv6_2_mbox_loc
I0402 10:07:16.819516 11179 net.cpp:100] Creating Layer conv6_2_mbox_loc
I0402 10:07:16.819588 11179 net.cpp:434] conv6_2_mbox_loc <- conv6_2_conv6_2_relu_0_split_1
I0402 10:07:16.819674 11179 net.cpp:408] conv6_2_mbox_loc -> conv6_2_mbox_loc
I0402 10:07:16.829160 11179 net.cpp:150] Setting up conv6_2_mbox_loc
I0402 10:07:16.833786 11179 net.cpp:157] Top shape: 1 24 10 10 (2400)
I0402 10:07:16.833956 11179 net.cpp:165] Memory required for data: 250282104
I0402 10:07:16.834070 11179 layer_factory.hpp:77] Creating layer conv6_2_mbox_loc_perm
I0402 10:07:16.834165 11179 net.cpp:100] Creating Layer conv6_2_mbox_loc_perm
I0402 10:07:16.834244 11179 net.cpp:434] conv6_2_mbox_loc_perm <- conv6_2_mbox_loc
I0402 10:07:16.834326 11179 net.cpp:408] conv6_2_mbox_loc_perm -> conv6_2_mbox_loc_perm
I0402 10:07:16.834664 11179 net.cpp:150] Setting up conv6_2_mbox_loc_perm
I0402 10:07:16.834782 11179 net.cpp:157] Top shape: 1 10 10 24 (2400)
I0402 10:07:16.834861 11179 net.cpp:165] Memory required for data: 250291704
I0402 10:07:16.834930 11179 layer_factory.hpp:77] Creating layer conv6_2_mbox_loc_flat
I0402 10:07:16.835005 11179 net.cpp:100] Creating Layer conv6_2_mbox_loc_flat
I0402 10:07:16.835077 11179 net.cpp:434] conv6_2_mbox_loc_flat <- conv6_2_mbox_loc_perm
I0402 10:07:16.835152 11179 net.cpp:408] conv6_2_mbox_loc_flat -> conv6_2_mbox_loc_flat
I0402 10:07:16.835263 11179 net.cpp:150] Setting up conv6_2_mbox_loc_flat
I0402 10:07:16.835335 11179 net.cpp:157] Top shape: 1 2400 (2400)
I0402 10:07:16.835402 11179 net.cpp:165] Memory required for data: 250301304
I0402 10:07:16.835471 11179 layer_factory.hpp:77] Creating layer conv6_2_mbox_conf
I0402 10:07:16.835556 11179 net.cpp:100] Creating Layer conv6_2_mbox_conf
I0402 10:07:16.835628 11179 net.cpp:434] conv6_2_mbox_conf <- conv6_2_conv6_2_relu_0_split_2
I0402 10:07:16.835708 11179 net.cpp:408] conv6_2_mbox_conf -> conv6_2_mbox_conf
I0402 10:07:16.861188 11179 net.cpp:150] Setting up conv6_2_mbox_conf
I0402 10:07:16.869776 11179 net.cpp:157] Top shape: 1 66 10 10 (6600)
I0402 10:07:16.869976 11179 net.cpp:165] Memory required for data: 250327704
I0402 10:07:16.870066 11179 layer_factory.hpp:77] Creating layer conv6_2_mbox_conf_perm
I0402 10:07:16.870151 11179 net.cpp:100] Creating Layer conv6_2_mbox_conf_perm
I0402 10:07:16.870229 11179 net.cpp:434] conv6_2_mbox_conf_perm <- conv6_2_mbox_conf
I0402 10:07:16.870318 11179 net.cpp:408] conv6_2_mbox_conf_perm -> conv6_2_mbox_conf_perm
I0402 10:07:16.870679 11179 net.cpp:150] Setting up conv6_2_mbox_conf_perm
I0402 10:07:16.870811 11179 net.cpp:157] Top shape: 1 10 10 66 (6600)
I0402 10:07:16.870883 11179 net.cpp:165] Memory required for data: 250354104
I0402 10:07:16.870955 11179 layer_factory.hpp:77] Creating layer conv6_2_mbox_conf_flat
I0402 10:07:16.871033 11179 net.cpp:100] Creating Layer conv6_2_mbox_conf_flat
I0402 10:07:16.871192 11179 net.cpp:434] conv6_2_mbox_conf_flat <- conv6_2_mbox_conf_perm
I0402 10:07:16.871271 11179 net.cpp:408] conv6_2_mbox_conf_flat -> conv6_2_mbox_conf_flat
I0402 10:07:16.871394 11179 net.cpp:150] Setting up conv6_2_mbox_conf_flat
I0402 10:07:16.871467 11179 net.cpp:157] Top shape: 1 6600 (6600)
I0402 10:07:16.871536 11179 net.cpp:165] Memory required for data: 250380504
I0402 10:07:16.871610 11179 layer_factory.hpp:77] Creating layer conv6_2_mbox_priorbox
I0402 10:07:16.871686 11179 net.cpp:100] Creating Layer conv6_2_mbox_priorbox
I0402 10:07:16.871759 11179 net.cpp:434] conv6_2_mbox_priorbox <- conv6_2_conv6_2_relu_0_split_3
I0402 10:07:16.871836 11179 net.cpp:434] conv6_2_mbox_priorbox <- data_data_0_split_3
I0402 10:07:16.871922 11179 net.cpp:408] conv6_2_mbox_priorbox -> conv6_2_mbox_priorbox
I0402 10:07:16.872061 11179 net.cpp:150] Setting up conv6_2_mbox_priorbox
I0402 10:07:16.872134 11179 net.cpp:157] Top shape: 1 2 2400 (4800)
I0402 10:07:16.872202 11179 net.cpp:165] Memory required for data: 250399704
I0402 10:07:16.872272 11179 layer_factory.hpp:77] Creating layer conv7_2_mbox_loc
I0402 10:07:16.872359 11179 net.cpp:100] Creating Layer conv7_2_mbox_loc
I0402 10:07:16.872459 11179 net.cpp:434] conv7_2_mbox_loc <- conv7_2_conv7_2_relu_0_split_1
I0402 10:07:16.872539 11179 net.cpp:408] conv7_2_mbox_loc -> conv7_2_mbox_loc
I0402 10:07:16.876323 11179 net.cpp:150] Setting up conv7_2_mbox_loc
I0402 10:07:16.876469 11179 net.cpp:157] Top shape: 1 24 5 5 (600)
I0402 10:07:16.876539 11179 net.cpp:165] Memory required for data: 250402104
I0402 10:07:16.876619 11179 layer_factory.hpp:77] Creating layer conv7_2_mbox_loc_perm
I0402 10:07:16.876708 11179 net.cpp:100] Creating Layer conv7_2_mbox_loc_perm
I0402 10:07:16.876791 11179 net.cpp:434] conv7_2_mbox_loc_perm <- conv7_2_mbox_loc
I0402 10:07:16.876866 11179 net.cpp:408] conv7_2_mbox_loc_perm -> conv7_2_mbox_loc_perm
I0402 10:07:16.877161 11179 net.cpp:150] Setting up conv7_2_mbox_loc_perm
I0402 10:07:16.877285 11179 net.cpp:157] Top shape: 1 5 5 24 (600)
I0402 10:07:16.877352 11179 net.cpp:165] Memory required for data: 250404504
I0402 10:07:16.877423 11179 layer_factory.hpp:77] Creating layer conv7_2_mbox_loc_flat
I0402 10:07:16.877499 11179 net.cpp:100] Creating Layer conv7_2_mbox_loc_flat
I0402 10:07:16.877584 11179 net.cpp:434] conv7_2_mbox_loc_flat <- conv7_2_mbox_loc_perm
I0402 10:07:16.877660 11179 net.cpp:408] conv7_2_mbox_loc_flat -> conv7_2_mbox_loc_flat
I0402 10:07:16.877794 11179 net.cpp:150] Setting up conv7_2_mbox_loc_flat
I0402 10:07:16.877866 11179 net.cpp:157] Top shape: 1 600 (600)
I0402 10:07:16.877933 11179 net.cpp:165] Memory required for data: 250406904
I0402 10:07:16.878003 11179 layer_factory.hpp:77] Creating layer conv7_2_mbox_conf
I0402 10:07:16.878085 11179 net.cpp:100] Creating Layer conv7_2_mbox_conf
I0402 10:07:16.878155 11179 net.cpp:434] conv7_2_mbox_conf <- conv7_2_conv7_2_relu_0_split_2
I0402 10:07:16.878234 11179 net.cpp:408] conv7_2_mbox_conf -> conv7_2_mbox_conf
I0402 10:07:16.882704 11179 net.cpp:150] Setting up conv7_2_mbox_conf
I0402 10:07:16.905776 11179 net.cpp:157] Top shape: 1 66 5 5 (1650)
I0402 10:07:16.906008 11179 net.cpp:165] Memory required for data: 250413504
I0402 10:07:16.906116 11179 layer_factory.hpp:77] Creating layer conv7_2_mbox_conf_perm
I0402 10:07:16.906206 11179 net.cpp:100] Creating Layer conv7_2_mbox_conf_perm
I0402 10:07:16.906282 11179 net.cpp:434] conv7_2_mbox_conf_perm <- conv7_2_mbox_conf
I0402 10:07:16.906361 11179 net.cpp:408] conv7_2_mbox_conf_perm -> conv7_2_mbox_conf_perm
I0402 10:07:16.906745 11179 net.cpp:150] Setting up conv7_2_mbox_conf_perm
I0402 10:07:16.906869 11179 net.cpp:157] Top shape: 1 5 5 66 (1650)
I0402 10:07:16.906941 11179 net.cpp:165] Memory required for data: 250420104
I0402 10:07:16.907011 11179 layer_factory.hpp:77] Creating layer conv7_2_mbox_conf_flat
I0402 10:07:16.907083 11179 net.cpp:100] Creating Layer conv7_2_mbox_conf_flat
I0402 10:07:16.907156 11179 net.cpp:434] conv7_2_mbox_conf_flat <- conv7_2_mbox_conf_perm
I0402 10:07:16.907234 11179 net.cpp:408] conv7_2_mbox_conf_flat -> conv7_2_mbox_conf_flat
I0402 10:07:16.907352 11179 net.cpp:150] Setting up conv7_2_mbox_conf_flat
I0402 10:07:16.907428 11179 net.cpp:157] Top shape: 1 1650 (1650)
I0402 10:07:16.907496 11179 net.cpp:165] Memory required for data: 250426704
I0402 10:07:16.907564 11179 layer_factory.hpp:77] Creating layer conv7_2_mbox_priorbox
I0402 10:07:16.907640 11179 net.cpp:100] Creating Layer conv7_2_mbox_priorbox
I0402 10:07:16.907711 11179 net.cpp:434] conv7_2_mbox_priorbox <- conv7_2_conv7_2_relu_0_split_3
I0402 10:07:16.907784 11179 net.cpp:434] conv7_2_mbox_priorbox <- data_data_0_split_4
I0402 10:07:16.907862 11179 net.cpp:408] conv7_2_mbox_priorbox -> conv7_2_mbox_priorbox
I0402 10:07:16.907985 11179 net.cpp:150] Setting up conv7_2_mbox_priorbox
I0402 10:07:16.908058 11179 net.cpp:157] Top shape: 1 2 600 (1200)
I0402 10:07:16.908128 11179 net.cpp:165] Memory required for data: 250431504
I0402 10:07:16.908196 11179 layer_factory.hpp:77] Creating layer conv8_2_mbox_loc
I0402 10:07:16.908295 11179 net.cpp:100] Creating Layer conv8_2_mbox_loc
I0402 10:07:16.908363 11179 net.cpp:434] conv8_2_mbox_loc <- conv8_2_conv8_2_relu_0_split_1
I0402 10:07:16.908440 11179 net.cpp:408] conv8_2_mbox_loc -> conv8_2_mbox_loc
I0402 10:07:16.911228 11179 net.cpp:150] Setting up conv8_2_mbox_loc
I0402 10:07:16.911386 11179 net.cpp:157] Top shape: 1 16 3 3 (144)
I0402 10:07:16.911463 11179 net.cpp:165] Memory required for data: 250432080
I0402 10:07:16.911542 11179 layer_factory.hpp:77] Creating layer conv8_2_mbox_loc_perm
I0402 10:07:16.911622 11179 net.cpp:100] Creating Layer conv8_2_mbox_loc_perm
I0402 10:07:16.911692 11179 net.cpp:434] conv8_2_mbox_loc_perm <- conv8_2_mbox_loc
I0402 10:07:16.911788 11179 net.cpp:408] conv8_2_mbox_loc_perm -> conv8_2_mbox_loc_perm
I0402 10:07:16.912107 11179 net.cpp:150] Setting up conv8_2_mbox_loc_perm
I0402 10:07:16.912214 11179 net.cpp:157] Top shape: 1 3 3 16 (144)
I0402 10:07:16.912287 11179 net.cpp:165] Memory required for data: 250432656
I0402 10:07:16.912356 11179 layer_factory.hpp:77] Creating layer conv8_2_mbox_loc_flat
I0402 10:07:16.912437 11179 net.cpp:100] Creating Layer conv8_2_mbox_loc_flat
I0402 10:07:16.912509 11179 net.cpp:434] conv8_2_mbox_loc_flat <- conv8_2_mbox_loc_perm
I0402 10:07:16.912592 11179 net.cpp:408] conv8_2_mbox_loc_flat -> conv8_2_mbox_loc_flat
I0402 10:07:16.912711 11179 net.cpp:150] Setting up conv8_2_mbox_loc_flat
I0402 10:07:16.912786 11179 net.cpp:157] Top shape: 1 144 (144)
I0402 10:07:16.912853 11179 net.cpp:165] Memory required for data: 250433232
I0402 10:07:16.912925 11179 layer_factory.hpp:77] Creating layer conv8_2_mbox_conf
I0402 10:07:16.913008 11179 net.cpp:100] Creating Layer conv8_2_mbox_conf
I0402 10:07:16.913080 11179 net.cpp:434] conv8_2_mbox_conf <- conv8_2_conv8_2_relu_0_split_2
I0402 10:07:16.913163 11179 net.cpp:408] conv8_2_mbox_conf -> conv8_2_mbox_conf
I0402 10:07:16.917301 11179 net.cpp:150] Setting up conv8_2_mbox_conf
I0402 10:07:16.922490 11179 net.cpp:157] Top shape: 1 44 3 3 (396)
I0402 10:07:16.922660 11179 net.cpp:165] Memory required for data: 250434816
I0402 10:07:16.922747 11179 layer_factory.hpp:77] Creating layer conv8_2_mbox_conf_perm
I0402 10:07:16.922832 11179 net.cpp:100] Creating Layer conv8_2_mbox_conf_perm
I0402 10:07:16.922909 11179 net.cpp:434] conv8_2_mbox_conf_perm <- conv8_2_mbox_conf
I0402 10:07:16.922986 11179 net.cpp:408] conv8_2_mbox_conf_perm -> conv8_2_mbox_conf_perm
I0402 10:07:16.923349 11179 net.cpp:150] Setting up conv8_2_mbox_conf_perm
I0402 10:07:16.923458 11179 net.cpp:157] Top shape: 1 3 3 44 (396)
I0402 10:07:16.923527 11179 net.cpp:165] Memory required for data: 250436400
I0402 10:07:16.927032 11179 layer_factory.hpp:77] Creating layer conv8_2_mbox_conf_flat
I0402 10:07:16.927134 11179 net.cpp:100] Creating Layer conv8_2_mbox_conf_flat
I0402 10:07:16.927208 11179 net.cpp:434] conv8_2_mbox_conf_flat <- conv8_2_mbox_conf_perm
I0402 10:07:16.927285 11179 net.cpp:408] conv8_2_mbox_conf_flat -> conv8_2_mbox_conf_flat
I0402 10:07:16.927420 11179 net.cpp:150] Setting up conv8_2_mbox_conf_flat
I0402 10:07:16.927492 11179 net.cpp:157] Top shape: 1 396 (396)
I0402 10:07:16.927561 11179 net.cpp:165] Memory required for data: 250437984
I0402 10:07:16.927631 11179 layer_factory.hpp:77] Creating layer conv8_2_mbox_priorbox
I0402 10:07:16.927712 11179 net.cpp:100] Creating Layer conv8_2_mbox_priorbox
I0402 10:07:16.927783 11179 net.cpp:434] conv8_2_mbox_priorbox <- conv8_2_conv8_2_relu_0_split_3
I0402 10:07:16.927856 11179 net.cpp:434] conv8_2_mbox_priorbox <- data_data_0_split_5
I0402 10:07:16.927938 11179 net.cpp:408] conv8_2_mbox_priorbox -> conv8_2_mbox_priorbox
I0402 10:07:16.928071 11179 net.cpp:150] Setting up conv8_2_mbox_priorbox
I0402 10:07:16.928144 11179 net.cpp:157] Top shape: 1 2 144 (288)
I0402 10:07:16.928215 11179 net.cpp:165] Memory required for data: 250439136
I0402 10:07:16.928283 11179 layer_factory.hpp:77] Creating layer conv9_2_mbox_loc
I0402 10:07:16.928367 11179 net.cpp:100] Creating Layer conv9_2_mbox_loc
I0402 10:07:16.928436 11179 net.cpp:434] conv9_2_mbox_loc <- conv9_2_conv9_2_relu_0_split_0
I0402 10:07:16.928521 11179 net.cpp:408] conv9_2_mbox_loc -> conv9_2_mbox_loc
I0402 10:07:16.932160 11179 net.cpp:150] Setting up conv9_2_mbox_loc
I0402 10:07:16.945780 11179 net.cpp:157] Top shape: 1 16 1 1 (16)
I0402 10:07:16.946022 11179 net.cpp:165] Memory required for data: 250439200
I0402 10:07:16.946112 11179 layer_factory.hpp:77] Creating layer conv9_2_mbox_loc_perm
I0402 10:07:16.946210 11179 net.cpp:100] Creating Layer conv9_2_mbox_loc_perm
I0402 10:07:16.946290 11179 net.cpp:434] conv9_2_mbox_loc_perm <- conv9_2_mbox_loc
I0402 10:07:16.946370 11179 net.cpp:408] conv9_2_mbox_loc_perm -> conv9_2_mbox_loc_perm
I0402 10:07:16.946781 11179 net.cpp:150] Setting up conv9_2_mbox_loc_perm
I0402 10:07:16.946920 11179 net.cpp:157] Top shape: 1 1 1 16 (16)
I0402 10:07:16.946998 11179 net.cpp:165] Memory required for data: 250439264
I0402 10:07:16.947074 11179 layer_factory.hpp:77] Creating layer conv9_2_mbox_loc_flat
I0402 10:07:16.947152 11179 net.cpp:100] Creating Layer conv9_2_mbox_loc_flat
I0402 10:07:16.947237 11179 net.cpp:434] conv9_2_mbox_loc_flat <- conv9_2_mbox_loc_perm
I0402 10:07:16.947314 11179 net.cpp:408] conv9_2_mbox_loc_flat -> conv9_2_mbox_loc_flat
I0402 10:07:16.947435 11179 net.cpp:150] Setting up conv9_2_mbox_loc_flat
I0402 10:07:16.947510 11179 net.cpp:157] Top shape: 1 16 (16)
I0402 10:07:16.947578 11179 net.cpp:165] Memory required for data: 250439328
I0402 10:07:16.947645 11179 layer_factory.hpp:77] Creating layer conv9_2_mbox_conf
I0402 10:07:16.947728 11179 net.cpp:100] Creating Layer conv9_2_mbox_conf
I0402 10:07:16.947798 11179 net.cpp:434] conv9_2_mbox_conf <- conv9_2_conv9_2_relu_0_split_1
I0402 10:07:16.947877 11179 net.cpp:408] conv9_2_mbox_conf -> conv9_2_mbox_conf
I0402 10:07:16.951997 11179 net.cpp:150] Setting up conv9_2_mbox_conf
I0402 10:07:16.952133 11179 net.cpp:157] Top shape: 1 44 1 1 (44)
I0402 10:07:16.952204 11179 net.cpp:165] Memory required for data: 250439504
I0402 10:07:16.952283 11179 layer_factory.hpp:77] Creating layer conv9_2_mbox_conf_perm
I0402 10:07:16.952358 11179 net.cpp:100] Creating Layer conv9_2_mbox_conf_perm
I0402 10:07:16.952430 11179 net.cpp:434] conv9_2_mbox_conf_perm <- conv9_2_mbox_conf
I0402 10:07:16.952510 11179 net.cpp:408] conv9_2_mbox_conf_perm -> conv9_2_mbox_conf_perm
I0402 10:07:16.952814 11179 net.cpp:150] Setting up conv9_2_mbox_conf_perm
I0402 10:07:16.952935 11179 net.cpp:157] Top shape: 1 1 1 44 (44)
I0402 10:07:16.953003 11179 net.cpp:165] Memory required for data: 250439680
I0402 10:07:16.953074 11179 layer_factory.hpp:77] Creating layer conv9_2_mbox_conf_flat
I0402 10:07:16.953148 11179 net.cpp:100] Creating Layer conv9_2_mbox_conf_flat
I0402 10:07:16.953218 11179 net.cpp:434] conv9_2_mbox_conf_flat <- conv9_2_mbox_conf_perm
I0402 10:07:16.953295 11179 net.cpp:408] conv9_2_mbox_conf_flat -> conv9_2_mbox_conf_flat
I0402 10:07:16.953411 11179 net.cpp:150] Setting up conv9_2_mbox_conf_flat
I0402 10:07:16.953483 11179 net.cpp:157] Top shape: 1 44 (44)
I0402 10:07:16.953549 11179 net.cpp:165] Memory required for data: 250439856
I0402 10:07:16.953619 11179 layer_factory.hpp:77] Creating layer conv9_2_mbox_priorbox
I0402 10:07:16.953696 11179 net.cpp:100] Creating Layer conv9_2_mbox_priorbox
I0402 10:07:16.953785 11179 net.cpp:434] conv9_2_mbox_priorbox <- conv9_2_conv9_2_relu_0_split_2
I0402 10:07:16.953860 11179 net.cpp:434] conv9_2_mbox_priorbox <- data_data_0_split_6
I0402 10:07:16.953939 11179 net.cpp:408] conv9_2_mbox_priorbox -> conv9_2_mbox_priorbox
I0402 10:07:16.954059 11179 net.cpp:150] Setting up conv9_2_mbox_priorbox
I0402 10:07:16.954131 11179 net.cpp:157] Top shape: 1 2 16 (32)
I0402 10:07:16.954200 11179 net.cpp:165] Memory required for data: 250439984
I0402 10:07:16.954267 11179 layer_factory.hpp:77] Creating layer mbox_loc
I0402 10:07:16.954341 11179 net.cpp:100] Creating Layer mbox_loc
I0402 10:07:16.954412 11179 net.cpp:434] mbox_loc <- conv4_3_norm_mbox_loc_flat
I0402 10:07:16.954485 11179 net.cpp:434] mbox_loc <- fc7_mbox_loc_flat
I0402 10:07:16.954556 11179 net.cpp:434] mbox_loc <- conv6_2_mbox_loc_flat
I0402 10:07:16.954629 11179 net.cpp:434] mbox_loc <- conv7_2_mbox_loc_flat
I0402 10:07:16.954699 11179 net.cpp:434] mbox_loc <- conv8_2_mbox_loc_flat
I0402 10:07:16.954768 11179 net.cpp:434] mbox_loc <- conv9_2_mbox_loc_flat
I0402 10:07:16.954843 11179 net.cpp:408] mbox_loc -> mbox_loc
I0402 10:07:16.954964 11179 net.cpp:150] Setting up mbox_loc
I0402 10:07:16.955035 11179 net.cpp:157] Top shape: 1 34928 (34928)
I0402 10:07:16.955109 11179 net.cpp:165] Memory required for data: 250579696
I0402 10:07:16.955178 11179 layer_factory.hpp:77] Creating layer mbox_loc_mbox_loc_0_split
I0402 10:07:16.955253 11179 net.cpp:100] Creating Layer mbox_loc_mbox_loc_0_split
I0402 10:07:16.955332 11179 net.cpp:434] mbox_loc_mbox_loc_0_split <- mbox_loc
I0402 10:07:16.955417 11179 net.cpp:408] mbox_loc_mbox_loc_0_split -> mbox_loc_mbox_loc_0_split_0
I0402 10:07:16.955497 11179 net.cpp:408] mbox_loc_mbox_loc_0_split -> mbox_loc_mbox_loc_0_split_1
I0402 10:07:16.955642 11179 net.cpp:150] Setting up mbox_loc_mbox_loc_0_split
I0402 10:07:16.955715 11179 net.cpp:157] Top shape: 1 34928 (34928)
I0402 10:07:16.955785 11179 net.cpp:157] Top shape: 1 34928 (34928)
I0402 10:07:16.955849 11179 net.cpp:165] Memory required for data: 250859120
I0402 10:07:16.955915 11179 layer_factory.hpp:77] Creating layer mbox_conf
I0402 10:07:16.955991 11179 net.cpp:100] Creating Layer mbox_conf
I0402 10:07:16.956061 11179 net.cpp:434] mbox_conf <- conv4_3_norm_mbox_conf_flat
I0402 10:07:16.956132 11179 net.cpp:434] mbox_conf <- fc7_mbox_conf_flat
I0402 10:07:16.956203 11179 net.cpp:434] mbox_conf <- conv6_2_mbox_conf_flat
I0402 10:07:16.956275 11179 net.cpp:434] mbox_conf <- conv7_2_mbox_conf_flat
I0402 10:07:16.956346 11179 net.cpp:434] mbox_conf <- conv8_2_mbox_conf_flat
I0402 10:07:16.956415 11179 net.cpp:434] mbox_conf <- conv9_2_mbox_conf_flat
I0402 10:07:16.956490 11179 net.cpp:408] mbox_conf -> mbox_conf
I0402 10:07:16.956609 11179 net.cpp:150] Setting up mbox_conf
I0402 10:07:16.956682 11179 net.cpp:157] Top shape: 1 96052 (96052)
I0402 10:07:16.956749 11179 net.cpp:165] Memory required for data: 251243328
I0402 10:07:16.956816 11179 layer_factory.hpp:77] Creating layer mbox_conf_mbox_conf_0_split
I0402 10:07:16.956890 11179 net.cpp:100] Creating Layer mbox_conf_mbox_conf_0_split
I0402 10:07:16.956961 11179 net.cpp:434] mbox_conf_mbox_conf_0_split <- mbox_conf
I0402 10:07:16.957041 11179 net.cpp:408] mbox_conf_mbox_conf_0_split -> mbox_conf_mbox_conf_0_split_0
I0402 10:07:16.957123 11179 net.cpp:408] mbox_conf_mbox_conf_0_split -> mbox_conf_mbox_conf_0_split_1
I0402 10:07:16.957268 11179 net.cpp:150] Setting up mbox_conf_mbox_conf_0_split
I0402 10:07:16.957340 11179 net.cpp:157] Top shape: 1 96052 (96052)
I0402 10:07:16.957407 11179 net.cpp:157] Top shape: 1 96052 (96052)
I0402 10:07:16.957471 11179 net.cpp:165] Memory required for data: 252011744
I0402 10:07:16.957541 11179 layer_factory.hpp:77] Creating layer mbox_priorbox
I0402 10:07:16.957613 11179 net.cpp:100] Creating Layer mbox_priorbox
I0402 10:07:16.957697 11179 net.cpp:434] mbox_priorbox <- conv4_3_norm_mbox_priorbox
I0402 10:07:16.957789 11179 net.cpp:434] mbox_priorbox <- fc7_mbox_priorbox
I0402 10:07:16.957861 11179 net.cpp:434] mbox_priorbox <- conv6_2_mbox_priorbox
I0402 10:07:16.957931 11179 net.cpp:434] mbox_priorbox <- conv7_2_mbox_priorbox
I0402 10:07:16.958000 11179 net.cpp:434] mbox_priorbox <- conv8_2_mbox_priorbox
I0402 10:07:16.958070 11179 net.cpp:434] mbox_priorbox <- conv9_2_mbox_priorbox
I0402 10:07:16.958142 11179 net.cpp:408] mbox_priorbox -> mbox_priorbox
I0402 10:07:16.958261 11179 net.cpp:150] Setting up mbox_priorbox
I0402 10:07:16.958334 11179 net.cpp:157] Top shape: 1 2 34928 (69856)
I0402 10:07:16.958400 11179 net.cpp:165] Memory required for data: 252291168
I0402 10:07:16.958468 11179 layer_factory.hpp:77] Creating layer mbox_priorbox_mbox_priorbox_0_split
I0402 10:07:16.958542 11179 net.cpp:100] Creating Layer mbox_priorbox_mbox_priorbox_0_split
I0402 10:07:16.958611 11179 net.cpp:434] mbox_priorbox_mbox_priorbox_0_split <- mbox_priorbox
I0402 10:07:16.958698 11179 net.cpp:408] mbox_priorbox_mbox_priorbox_0_split -> mbox_priorbox_mbox_priorbox_0_split_0
I0402 10:07:16.958777 11179 net.cpp:408] mbox_priorbox_mbox_priorbox_0_split -> mbox_priorbox_mbox_priorbox_0_split_1
I0402 10:07:16.958925 11179 net.cpp:150] Setting up mbox_priorbox_mbox_priorbox_0_split
I0402 10:07:16.958999 11179 net.cpp:157] Top shape: 1 2 34928 (69856)
I0402 10:07:16.959069 11179 net.cpp:157] Top shape: 1 2 34928 (69856)
I0402 10:07:16.959133 11179 net.cpp:165] Memory required for data: 252850016
I0402 10:07:16.959208 11179 layer_factory.hpp:77] Creating layer test_loss
I0402 10:07:16.959288 11179 net.cpp:100] Creating Layer test_loss
I0402 10:07:16.959362 11179 net.cpp:434] test_loss <- mbox_loc_mbox_loc_0_split_0
I0402 10:07:16.959445 11179 net.cpp:434] test_loss <- mbox_conf_mbox_conf_0_split_0
…
I0402 10:07:16.961325 11179 net.cpp:434] silence <- test_loss
I0402 10:07:16.961395 11179 net.cpp:150] Setting up silence
I0402 10:07:16.961462 11179 net.cpp:165] Memory required for data: 252850020
I0402 10:07:16.961529 11179 layer_factory.hpp:77] Creating layer mbox_conf_reshape
I0402 10:07:16.961606 11179 net.cpp:100] Creating Layer mbox_conf_reshape
I0402 10:07:16.961671 11179 net.cpp:434] mbox_conf_reshape <- mbox_conf_mbox_conf_0_split_1
I0402 10:07:16.961766 11179 net.cpp:408] mbox_conf_reshape -> mbox_conf_reshape
I0402 10:07:16.961895 11179 net.cpp:150] Setting up mbox_conf_reshape
I0402 10:07:16.961966 11179 net.cpp:157] Top shape: 1 8732 11 (96052)
I0402 10:07:16.962033 11179 net.cpp:165] Memory required for data: 253234228
I0402 10:07:16.962102 11179 layer_factory.hpp:77] Creating layer mbox_conf_softmax
I0402 10:07:16.962177 11179 net.cpp:100] Creating Layer mbox_conf_softmax
I0402 10:07:16.962244 11179 net.cpp:434] mbox_conf_softmax <- mbox_conf_reshape
I0402 10:07:16.962317 11179 net.cpp:408] mbox_conf_softmax -> mbox_conf_softmax
I0402 10:07:16.963758 11179 net.cpp:150] Setting up mbox_conf_softmax
I0402 10:07:16.963873 11179 net.cpp:157] Top shape: 1 8732 11 (96052)
I0402 10:07:16.963943 11179 net.cpp:165] Memory required for data: 253618436
I0402 10:07:16.964011 11179 layer_factory.hpp:77] Creating layer mbox_conf_flatten
I0402 10:07:16.964088 11179 net.cpp:100] Creating Layer mbox_conf_flatten
I0402 10:07:16.964159 11179 net.cpp:434] mbox_conf_flatten <- mbox_conf_softmax
I0402 10:07:16.964232 11179 net.cpp:408] mbox_conf_flatten -> mbox_conf_flatten
I0402 10:07:16.964356 11179 net.cpp:150] Setting up mbox_conf_flatten
I0402 10:07:16.964428 11179 net.cpp:157] Top shape: 1 96052 (96052)
I0402 10:07:16.964494 11179 net.cpp:165] Memory required for data: 254002644
I0402 10:07:16.964563 11179 layer_factory.hpp:77] Creating layer detection_out
I0402 10:07:16.964648 11179 net.cpp:100] Creating Layer detection_out
I0402 10:07:16.964715 11179 net.cpp:434] detection_out <- mbox_loc_mbox_loc_0_split_1
I0402 10:07:16.964787 11179 net.cpp:434] detection_out <- mbox_conf_flatten
I0402 10:07:16.964856 11179 net.cpp:434] detection_out <- mbox_priorbox_mbox_priorbox_0_split_1
I0402 10:07:16.964924 11179 net.cpp:434] detection_out <- label_data_1_split_1
I0402 10:07:16.965001 11179 net.cpp:408] detection_out -> detection_out
W0402 10:07:16.965102 11179 detection_output_layer.cpp:49] Failed to create directory: /home/zs/data/VOCdevkit/results/VOC2007/SSD_300x300_0320_fc6/Main
I0402 10:07:16.983953 11179 net.cpp:150] Setting up detection_out
I0402 10:07:16.983975 11179 net.cpp:157] Top shape: 1 1 1 7 (7)
I0402 10:07:16.983983 11179 net.cpp:165] Memory required for data: 254002672
I0402 10:07:16.983990 11179 layer_factory.hpp:77] Creating layer detection_eval
I0402 10:07:16.984007 11179 net.cpp:100] Creating Layer detection_eval
I0402 10:07:16.984016 11179 net.cpp:434] detection_eval <- detection_out
I0402 10:07:16.984025 11179 net.cpp:434] detection_eval <- label_data_1_split_2
I0402 10:07:16.984036 11179 net.cpp:408] detection_eval -> detection_eval
I0402 10:07:16.984244 11179 net.cpp:150] Setting up detection_eval
I0402 10:07:16.984256 11179 net.cpp:157] Top shape: 1 1 11 5 (55)
I0402 10:07:16.984261 11179 net.cpp:165] Memory required for data: 254002892
I0402 10:07:16.984268 11179 net.cpp:228] detection_eval does not need backward computation.
I0402 10:07:16.984277 11179 net.cpp:228] detection_out does not need backward computation.
I0402 10:07:16.984284 11179 net.cpp:228] mbox_conf_flatten does not need backward computation.
I0402 10:07:16.984292 11179 net.cpp:228] mbox_conf_softmax does not need backward computation.
…
