…
      sampler {
        min_scale: 0.3
        max_scale: 1
        min_aspect_ratio: 0.5
        max_aspect_ratio: 2
      }
      sample_constraint {
        min_jaccard_overlap: 0.9
      }
      max_sample: 1
      max_trials: 50
    }
    batch_sampler {
      sampler {
        min_scale: 0.3
        max_scale: 1
        min_aspect_ratio: 0.5
        max_aspect_ratio: 2
      }
      sample_constraint {
        max_jaccard_overlap: 1
      }
      max_sample: 1
      max_trials: 50
    }
    label_map_file: "data/NWPU_VHR/labelmap_NWPU_VHR.prototxt"
  }
}
layer {
  name: "conv1_1"
  type: "Convolution"
  bottom: "data"
  top: "conv1_1"
  param {
    lr_mult: 1
    decay_mult: 1
  }
  param {
    lr_mult: 2
    decay_mult: 0
  }
  convolution_param {
    num_output: 64
    pad: 1
    kernel_size: 3
    weight_filler {
      type: "xavier"
    }
    bias_filler {
      type: "constant"
      value: 0
    }
  }
}
layer {
  name: "relu1_1"
  type: "ReLU"
  bottom: "conv1_1"
  top: "conv1_1"
}
layer {
  name: "conv1_2"
  type: "Convolution"
  bottom: "conv1_1"
  top: "conv1_2"
  param {
    lr_mult: 1
    decay_mult: 1
  }
  param {
    lr_mult: 2
    decay_mult: 0
  }
  convolution_param {
    num_output: 64
    pad: 1
    kernel_size: 3
    weight_filler {
      type: "xavier"
    }
    bias_filler {
      type: "constant"
      value: 0
    }
  }
}
layer {
  name: "relu1_2"
  type: "ReLU"
  bottom: "conv1_2"
  top: "conv1_2"
}
layer {
  name: "pool1"
  type: "Pooling"
  bottom: "conv1_2"
  top: "pool1"
  pooling_param {
    pool: MAX
    kernel_size: 2
    stride: 2
  }
}
layer {
  name: "conv2_1"
  type: "Convolution"
  bottom: "pool1"
  top: "conv2_1"
  param {
    lr_mult: 1
    decay_mult: 1
  }
  param {
    lr_mult: 2
    decay_mult: 0
  }
  convolution_param {
    num_output: 128
    pad: 1
    kernel_size: 3
    weight_filler {
      type: "xavier"
    }
    bias_filler {
      type: "constant"
      value: 0
    }
  }
}
layer {
  name: "relu2_1"
  type: "ReLU"
  bottom: "conv2_1"
  top: "conv2_1"
}
layer {
  name: "conv2_2"
  type: "Convolution"
  bottom: "conv2_1"
  top: "conv2_2"
  param {
    lr_mult: 1
    decay_mult: 1
  }
  param {
    lr_mult: 2
    decay_mult: 0
  }
  convolution_param {
    num_output: 128
    pad: 1
    kernel_size: 3
    weight_filler {
      type: "xavier"
    }
    bias_filler {
      type: "constant"
      value: 0
    }
  }
}
layer {
  name: "relu2_2"
  type: "ReLU"
  bottom: "conv2_2"
  top: "conv2_2"
}
layer {
  name: "pool2"
  type: "Pooling"
  bottom: "conv2_2"
  top: "pool2"
  pooling_param {
    pool: MAX
    kernel_size: 2
    stride: 2
  }
}
layer {
  name: "conv3_1"
  type: "Convolution"
  bottom: "pool2"
  top: "conv3_1"
  param {
    lr_mult: 1
    decay_mult: 1
  }
  param {
    lr_mult: 2
    decay_mult: 0
  }
  convolution_param {
    num_output: 256
    pad: 1
    kernel_size: 3
    weight_filler {
      type: "xavier"
    }
    bias_filler {
      type: "constant"
      value: 0
    }
  }
}
layer {
  name: "relu3_1"
  type: "ReLU"
  bottom: "conv3_1"
  top: "conv3_1"
}
layer {
  name: "conv3_2"
  type: "Convolution"
  bottom: "conv3_1"
  top: "conv3_2"
  param {
    lr_mult: 1
    decay_mult: 1
  }
  param {
    lr_mult: 2
    decay_mult: 0
  }
  convolution_param {
    num_output: 256
    pad: 1
    kernel_size: 3
    weight_filler {
      type: "xavier"
    }
    bias_filler {
      type: "constant"
      value: 0
    }
  }
}
layer {
  name: "relu3_2"
  type: "ReLU"
  bottom: "conv3_2"
  top: "conv3_2"
}
layer {
  name: "conv3_3"
  type: "Convolution"
  bottom: "conv3_2"
  top: "conv3_3"
  param {
    lr_mult: 1
    decay_mult: 1
  }
  param {
    lr_mult: 2
    decay_mult: 0
  }
  convolution_param {
    num_output: 256
    pad: 1
    kernel_size: 3
    weight_filler {
      type: "xavier"
    }
    bias_filler {
      type: "constant"
      value: 0
    }
  }
}
layer {
  name: "relu3_3"
  type: "ReLU"
  bottom: "conv3_3"
  top: "conv3_3"
}
layer {
  name: "pool3"
  type: "Pooling"
  bottom: "conv3_3"
  top: "pool3"
  pooling_param {
    pool: MAX
    kernel_size: 2
    stride: 2
  }
}
layer {
  name: "conv4_1"
  type: "Convolution"
  bottom: "pool3"
  top: "conv4_1"
  param {
    lr_mult: 1
    decay_mult: 1
  }
  param {
    lr_mult: 2
    decay_mult: 0
  }
  convolution_param {
    num_output: 512
    pad: 1
    kernel_size: 3
    weight_filler {
      type: "xavier"
    }
    bias_filler {
      type: "constant"
      value: 0
    }
  }
}
layer {
  name: "relu4_1"
  type: "ReLU"
  bottom: "conv4_1"
  top: "conv4_1"
}
layer {
  name: "conv4_2"
  type: "Convolution"
  bottom: "conv4_1"
  top: "conv4_2"
  param {
    lr_mult: 1
    decay_mult: 1
  }
  param {
    lr_mult: 2
    decay_mult: 0
  }
  convolution_param {
    num_output: 512
    pad: 1
    kernel_size: 3
    weight_filler {
      type: "xavier"
    }
    bias_filler {
      type: "constant"
      value: 0
    }
  }
}
layer {
  name: "relu4_2"
  type: "ReLU"
  bottom: "conv4_2"
  top: "conv4_2"
}
layer {
  name: "conv4_3"
  type: "Convolution"
  bottom: "conv4_2"
  top: "conv4_3"
  param {
    lr_mult: 1
    decay_mult: 1
  }
  param {
    lr_mult: 2
    decay_mult: 0
  }
  convolution_param {
    num_output: 512
    pad: 1
    kernel_size: 3
    weight_filler {
      type: "xavier"
    }
    bias_filler {
      type: "constant"
      value: 0
    }
  }
}
layer {
  name: "relu4_3"
  type: "ReLU"
  bottom: "conv4_3"
  top: "conv4_3"
}
layer {
  name: "pool4"
  type: "Pooling"
  bottom: "conv4_3"
  top: "pool4"
  pooling_param {
    pool: MAX
    kernel_size: 2
    stride: 2
  }
}
layer {
  name: "conv5_1"
  type: "Convolution"
  bottom: "pool4"
  top: "conv5_1"
  param {
    lr_mult: 1
    decay_mult: 1
  }
  param {
    lr_mult: 2
    decay_mult: 0
  }
  convolution_param {
    num_output: 512
    pad: 1
    kernel_size: 3
    weight_filler {
      type: "xavier"
    }
    bias_filler {
      type: "constant"
      value: 0
    }
    dilation: 1
  }
}
layer {
  name: "relu5_1"
  type: "ReLU"
  bottom: "conv5_1"
  top: "conv5_1"
}
layer {
  name: "conv5_2"
  type: "Convolution"
  bottom: "conv5_1"
  top: "conv5_2"
  param {
    lr_mult: 1
    decay_mult: 1
  }
  param {
    lr_mult: 2
    decay_mult: 0
  }
  convolution_param {
    num_output: 512
    pad: 1
    kernel_size: 3
    weight_filler {
      type: "xavier"
    }
    bias_filler {
      type: "constant"
      value: 0
    }
    dilation: 1
  }
}
layer {
  name: "relu5_2"
  type: "ReLU"
  bottom: "conv5_2"
  top: "conv5_2"
}
layer {
  name: "conv5_3"
  type: "Convolution"
  bottom: "conv5_2"
  top: "conv5_3"
  param {
    lr_mult: 1
    decay_mult: 1
  }
  param {
    lr_mult: 2
    decay_mult: 0
  }
  convolution_param {
    num_output: 512
    pad: 1
    kernel_size: 3
    weight_filler {
      type: "xavier"
    }
    bias_filler {
      type: "constant"
      value: 0
    }
    dilation: 1
  }
}
layer {
  name: "relu5_3"
  type: "ReLU"
  bottom: "conv5_3"
  top: "conv5_3"
}
layer {
  name: "pool5"
  type: "Pooling"
  bottom: "conv5_3"
  top: "pool5"
  pooling_param {
    pool: MAX
    kernel_size: 3
    stride: 1
    pad: 1
  }
}
layer {
  name: "fc6"
  type: "Convolution"
  bottom: "pool5"
  top: "fc6"
  param {
    lr_mult: 1
    decay_mult: 1
  }
  param {
    lr_mult: 2
    decay_mult: 0
  }
  convolution_param {
    num_output: 1024
    pad: 6
    kernel_size: 3
    weight_filler {
      type: "xavier"
    }
    bias_filler {
      type: "constant"
      value: 0
    }
    dilation: 6
  }
}
layer {
  name: "relu6"
  type: "ReLU"
  bottom: "fc6"
  top: "fc6"
}
layer {
  name: "fc7"
  type: "Convolution"
  bottom: "fc6"
  top: "fc7"
  param {
    lr_mult: 1
    decay_mult: 1
  }
  param {
    lr_mult: 2
    decay_mult: 0
  }
  convolution_param {
    num_output: 1024
    kernel_size: 1
    weight_filler {
      type: "xavier"
    }
    bias_filler {
      type: "constant"
      value: 0
    }
  }
}
layer {
  name: "relu7"
  type: "ReLU"
  bottom: "fc7"
  top: "fc7"
}
layer {
  name: "conv6_1"
  type: "Convolution"
  bottom: "fc7"
  top: "conv6_1"
  param {
    lr_mult: 1
    decay_mult: 1
  }
  param {
    lr_mult: 2
    decay_mult: 0
  }
  convolution_param {
    num_output: 256
    pad: 0
    kernel_size: 1
    stride: 1
    weight_filler {
      type: "xavier"
    }
    bias_filler {
      type: "constant"
      value: 0
    }
  }
}
layer {
  name: "conv6_1_relu"
  type: "ReLU"
  bottom: "conv6_1"
  top: "conv6_1"
}
layer {
  name: "conv6_2"
  type: "Convolution"
  bottom: "conv6_1"
  top: "conv6_2"
  param {
    lr_mult: 1
    decay_mult: 1
  }
  param {
    lr_mult: 2
    decay_mult: 0
  }
  convolution_param {
    num_output: 512
    pad: 1
    kernel_size: 3
    stride: 2
    weight_filler {
      type: "xavier"
    }
    bias_filler {
      type: "constant"
      value: 0
    }
  }
}
layer {
  name: "conv6_2_relu"
  type: "ReLU"
  bottom: "conv6_2"
  top: "conv6_2"
}
layer {
  name: "conv7_1"
  type: "Convolution"
  bottom: "conv6_2"
  top: "conv7_1"
  param {
    lr_mult: 1
    decay_mult: 1
  }
  param {
    lr_mult: 2
    decay_mult: 0
  }
  convolution_param {
    num_output: 128
    pad: 0
    kernel_size: 1
    stride: 1
    weight_filler {
      type: "xavier"
    }
    bias_filler {
      type: "constant"
      value: 0
    }
  }
}
layer {
  name: "conv7_1_relu"
  type: "ReLU"
  bottom: "conv7_1"
  top: "conv7_1"
}
layer {
  name: "conv7_2"
  type: "Convolution"
  bottom: "conv7_1"
  top: "conv7_2"
  param {
    lr_mult: 1
    decay_mult: 1
  }
  param {
    lr_mult: 2
    decay_mult: 0
  }
  convolution_param {
    num_output: 256
    pad: 1
    kernel_size: 3
    stride: 2
    weight_filler {
      type: "xavier"
    }
    bias_filler {
      type: "constant"
      value: 0
    }
  }
}
layer {
  name: "conv7_2_relu"
  type: "ReLU"
  bottom: "conv7_2"
  top: "conv7_2"
}
layer {
  name: "conv8_1"
  type: "Convolution"
  bottom: "conv7_2"
  top: "conv8_1"
  param {
    lr_mult: 1
    decay_mult: 1
  }
  param {
    lr_mult: 2
    decay_mult: 0
  }
  convolution_param {
    num_output: 128
    pad: 0
    kernel_size: 1
    stride: 1
    weight_filler {
      type: "xavier"
    }
    bias_filler {
      type: "constant"
      value: 0
    }
  }
}
layer {
  name: "conv8_1_relu"
  type: "ReLU"
  bottom: "conv8_1"
  top: "conv8_1"
}
layer {
  name: "conv8_2"
  type: "Convolution"
  bottom: "conv8_1"
  top: "conv8_2"
  param {
    lr_mult: 1
    decay_mult: 1
  }
  param {
    lr_mult: 2
    decay_mult: 0
  }
  convolution_param {
    num_output: 256
    pad: 0
    kernel_size: 3
    stride: 1
    weight_filler {
      type: "xavier"
    }
    bias_filler {
      type: "constant"
      value: 0
    }
  }
}
layer {
  name: "conv8_2_relu"
  type: "ReLU"
  bottom: "conv8_2"
  top: "conv8_2"
}
layer {
  name: "conv9_1"
  type: "Convolution"
  bottom: "conv8_2"
  top: "conv9_1"
  param {
    lr_mult: 1
    decay_mult: 1
  }
  param {
    lr_mult: 2
    decay_mult: 0
  }
  convolution_param {
    num_output: 128
    pad: 0
    kernel_size: 1
    stride: 1
    weight_filler {
      type: "xavier"
    }
    bias_filler {
      type: "constant"
      value: 0
    }
  }
}
layer {
  name: "conv9_1_relu"
  type: "ReLU"
  bottom: "conv9_1"
  top: "conv9_1"
}
layer {
  name: "conv9_2"
  type: "Convolution"
  bottom: "conv9_1"
  top: "conv9_2"
  param {
    lr_mult: 1
    decay_mult: 1
  }
  param {
    lr_mult: 2
    decay_mult: 0
  }
  convolution_param {
    num_output: 256
    pad: 0
    kernel_size: 3
    stride: 1
    weight_filler {
      type: "xavier"
    }
    bias_filler {
      type: "constant"
      value: 0
    }
  }
}
layer {
  name: "conv9_2_relu"
  type: "ReLU"
  bottom: "conv9_2"
  top: "conv9_2"
}
layer {
  name: "conv4_3_norm"
  type: "Normalize"
  bottom: "conv4_3"
  top: "conv4_3_norm"
  norm_param {
    across_spatial: false
    scale_filler {
      type: "constant"
      value: 20
    }
    channel_shared: false
  }
}
layer {
  name: "conv4_3_norm_mbox_loc"
  type: "Convolution"
  bottom: "conv4_3_norm"
  top: "conv4_3_norm_mbox_loc"
  param {
    lr_mult: 1
    decay_mult: 1
  }
  param {
    lr_mult: 2
    decay_mult: 0
  }
  convolution_param {
    num_output: 16
    pad: 1
    kernel_size: 3
    stride: 1
    weight_filler {
      type: "xavier"
    }
    bias_filler {
      type: "constant"
      value: 0
    }
  }
}
layer {
  name: "conv4_3_norm_mbox_loc_perm"
  type: "Permute"
  bottom: "conv4_3_norm_mbox_loc"
  top: "conv4_3_norm_mbox_loc_perm"
  permute_param {
    order: 0
    order: 2
    order: 3
    order: 1
  }
}
layer {
  name: "conv4_3_norm_mbox_loc_flat"
  type: "Flatten"
  bottom: "conv4_3_norm_mbox_loc_perm"
  top: "conv4_3_norm_mbox_loc_flat"
  flatten_param {
    axis: 1
  }
}
layer {
  name: "conv4_3_norm_mbox_conf"
  type: "Convolution"
  bottom: "conv4_3_norm"
  top: "conv4_3_norm_mbox_conf"
  param {
    lr_mult: 1
    decay_mult: 1
  }
  param {
    lr_mult: 2
    decay_mult: 0
  }
  convolution_param {
    num_output: 44
    pad: 1
    kernel_size: 3
    stride: 1
    weight_filler {
      type: "xavier"
    }
    bias_filler {
      type: "constant"
      value: 0
    }
  }
}
layer {
  name: "conv4_3_norm_mbox_conf_perm"
  type: "Permute"
  bottom: "conv4_3_norm_mbox_conf"
  top: "conv4_3_norm_mbox_conf_perm"
  permute_param {
    order: 0
    order: 2
    order: 3
    order: 1
  }
}
layer {
  name: "conv4_3_norm_mbox_conf_flat"
  type: "Flatten"
  bottom: "conv4_3_norm_mbox_conf_perm"
  top: "conv4_3_norm_mbox_conf_flat"
  flatten_param {
    axis: 1
  }
}
layer {
  name: "conv4_3_norm_mbox_priorbox"
  type: "PriorBox"
  bottom: "conv4_3_norm"
  bottom: "data"
  top: "conv4_3_norm_mbox_priorbox"
  prior_box_param {
    min_size: 30
    max_size: 60
    aspect_ratio: 2
    flip: true
    clip: false
    variance: 0.1
    variance: 0.1
    variance: 0.2
    variance: 0.2
    step: 8
    offset: 0.5
  }
}
layer {
  name: "fc7_mbox_loc"
  type: "Convolution"
  bottom: "fc7"
  top: "fc7_mbox_loc"
  param {
    lr_mult: 1
    decay_mult: 1
  }
  param {
    lr_mult: 2
    decay_mult: 0
  }
  convolution_param {
    num_output: 24
    pad: 1
    kernel_size: 3
    stride: 1
    weight_filler {
      type: "xavier"
    }
    bias_filler {
      type: "constant"
      value: 0
    }
  }
}
layer {
  name: "fc7_mbox_loc_perm"
  type: "Permute"
  bottom: "fc7_mbox_loc"
  top: "fc7_mbox_loc_perm"
  permute_param {
    order: 0
    order: 2
    order: 3
    order: 1
  }
}
layer {
  name: "fc7_mbox_loc_flat"
  type: "Flatten"
  bottom: "fc7_mbox_loc_perm"
  top: "fc7_mbox_loc_flat"
  flatten_param {
    axis: 1
  }
}
layer {
  name: "fc7_mbox_conf"
  type: "Convolution"
  bottom: "fc7"
  top: "fc7_mbox_conf"
  param {
    lr_mult: 1
    decay_mult: 1
  }
  param {
    lr_mult: 2
    decay_mult: 0
  }
  convolution_param {
    num_output: 66
    pad: 1
    kernel_size: 3
    stride: 1
    weight_filler {
      type: "xavier"
    }
    bias_filler {
      type: "constant"
      value: 0
    }
  }
}
layer {
  name: "fc7_mbox_conf_perm"
  type: "Permute"
  bottom: "fc7_mbox_conf"
  top: "fc7_mbox_conf_perm"
  permute_param {
    order: 0
    order: 2
    order: 3
    order: 1
  }
}
layer {
  name: "fc7_mbox_conf_flat"
  type: "Flatten"
  bottom: "fc7_mbox_conf_perm"
  top: "fc7_mbox_conf_flat"
  flatten_param {
    axis: 1
  }
}
layer {
  name: "fc7_mbox_priorbox"
  type: "PriorBox"
  bottom: "fc7"
  bottom: "data"
  top: "fc7_mbox_priorbox"
  prior_box_param {
    min_size: 60
    max_size: 111
    aspect_ratio: 2
    aspect_ratio: 3
    flip: true
    clip: false
    variance: 0.1
    variance: 0.1
    variance: 0.2
    variance: 0.2
    step: 16
    offset: 0.5
  }
}
layer {
  name: "conv6_2_mbox_loc"
  type: "Convolution"
  bottom: "conv6_2"
  top: "conv6_2_mbox_loc"
  param {
    lr_mult: 1
    decay_mult: 1
  }
  param {
    lr_mult: 2
    decay_mult: 0
  }
  convolution_param {
    num_output: 24
    pad: 1
    kernel_size: 3
    stride: 1
    weight_filler {
      type: "xavier"
    }
    bias_filler {
      type: "constant"
      value: 0
    }
  }
}
layer {
  name: "conv6_2_mbox_loc_perm"
  type: "Permute"
  bottom: "conv6_2_mbox_loc"
  top: "conv6_2_mbox_loc_perm"
  permute_param {
    order: 0
    order: 2
    order: 3
    order: 1
  }
}
layer {
  name: "conv6_2_mbox_loc_flat"
  type: "Flatten"
  bottom: "conv6_2_mbox_loc_perm"
  top: "conv6_2_mbox_loc_flat"
  flatten_param {
    axis: 1
  }
}
layer {
  name: "conv6_2_mbox_conf"
  type: "Convolution"
  bottom: "conv6_2"
  top: "conv6_2_mbox_conf"
  param {
    lr_mult: 1
    decay_mult: 1
  }
  param {
    lr_mult: 2
    decay_mult: 0
  }
  convolution_param {
    num_output: 66
    pad: 1
    kernel_size: 3
    stride: 1
    weight_filler {
      type: "xavier"
    }
    bias_filler {
      type: "constant"
      value: 0
    }
  }
}
layer {
  name: "conv6_2_mbox_conf_perm"
  type: "Permute"
  bottom: "conv6_2_mbox_conf"
  top: "conv6_2_mbox_conf_perm"
  permute_param {
    order: 0
    order: 2
    order: 3
    order: 1
  }
}
layer {
  name: "conv6_2_mbox_conf_flat"
  type: "Flatten"
  bottom: "conv6_2_mbox_conf_perm"
  top: "conv6_2_mbox_conf_flat"
  flatten_param {
    axis: 1
  }
}
layer {
  name: "conv6_2_mbox_priorbox"
  type: "PriorBox"
  bottom: "conv6_2"
  bottom: "data"
  top: "conv6_2_mbox_priorbox"
  prior_box_param {
    min_size: 111
    max_size: 162
    aspect_ratio: 2
    aspect_ratio: 3
    flip: true
    clip: false
    variance: 0.1
    variance: 0.1
    variance: 0.2
    variance: 0.2
    step: 32
    offset: 0.5
  }
}
layer {
  name: "conv7_2_mbox_loc"
  type: "Convolution"
  bottom: "conv7_2"
  top: "conv7_2_mbox_loc"
  param {
    lr_mult: 1
    decay_mult: 1
  }
  param {
    lr_mult: 2
    decay_mult: 0
  }
  convolution_param {
    num_output: 24
    pad: 1
    kernel_size: 3
    stride: 1
    weight_filler {
      type: "xavier"
    }
    bias_filler {
      type: "constant"
      value: 0
    }
  }
}
layer {
  name: "conv7_2_mbox_loc_perm"
  type: "Permute"
  bottom: "conv7_2_mbox_loc"
  top: "conv7_2_mbox_loc_perm"
  permute_param {
    order: 0
    order: 2
    order: 3
    order: 1
  }
}
layer {
  name: "conv7_2_mbox_loc_flat"
  type: "Flatten"
  bottom: "conv7_2_mbox_loc_perm"
  top: "conv7_2_mbox_loc_flat"
  flatten_param {
    axis: 1
  }
}
layer {
  name: "conv7_2_mbox_conf"
  type: "Convolution"
  bottom: "conv7_2"
  top: "conv7_2_mbox_conf"
  param {
    lr_mult: 1
    decay_mult: 1
  }
  param {
    lr_mult: 2
    decay_mult: 0
  }
  convolution_param {
    num_output: 66
    pad: 1
    kernel_size: 3
    stride: 1
    weight_filler {
      type: "xavier"
    }
    bias_filler {
      type: "constant"
      value: 0
    }
  }
}
layer {
  name: "conv7_2_mbox_conf_perm"
  type: "Permute"
  bottom: "conv7_2_mbox_conf"
  top: "conv7_2_mbox_conf_perm"
  permute_param {
    order: 0
    order: 2
    order: 3
    order: 1
  }
}
layer {
  name: "conv7_2_mbox_conf_flat"
  type: "Flatten"
  bottom: "conv7_2_mbox_conf_perm"
  top: "conv7_2_mbox_conf_flat"
  flatten_param {
    axis: 1
  }
}
layer {
  name: "conv7_2_mbox_priorbox"
  type: "PriorBox"
  bottom: "conv7_2"
  bottom: "data"
  top: "conv7_2_mbox_priorbox"
  prior_box_param {
    min_size: 162
    max_size: 213
    aspect_ratio: 2
    aspect_ratio: 3
    flip: true
    clip: false
    variance: 0.1
    variance: 0.1
    variance: 0.2
    variance: 0.2
    step: 64
    offset: 0.5
  }
}
layer {
  name: "conv8_2_mbox_loc"
  type: "Convolution"
  bottom: "conv8_2"
  top: "conv8_2_mbox_loc"
  param {
    lr_mult: 1
    decay_mult: 1
  }
  param {
    lr_mult: 2
    decay_mult: 0
  }
  convolution_param {
    num_output: 16
    pad: 1
    kernel_size: 3
    stride: 1
    weight_filler {
      type: "xavier"
    }
    bias_filler {
      type: "constant"
      value: 0
    }
  }
}
layer {
  name: "conv8_2_mbox_loc_perm"
  type: "Permute"
  bottom: "conv8_2_mbox_loc"
  top: "conv8_2_mbox_loc_perm"
  permute_param {
    order: 0
    order: 2
    order: 3
    order: 1
  }
}
layer {
  name: "conv8_2_mbox_loc_flat"
  type: "Flatten"
  bottom: "conv8_2_mbox_loc_perm"
  top: "conv8_2_mbox_loc_flat"
  flatten_param {
    axis: 1
  }
}
layer {
  name: "conv8_2_mbox_conf"
  type: "Convolution"
  bottom: "conv8_2"
  top: "conv8_2_mbox_conf"
  param {
    lr_mult: 1
    decay_mult: 1
  }
  param {
    lr_mult: 2
    decay_mult: 0
  }
  convolution_param {
    num_output: 44
    pad: 1
    kernel_size: 3
    stride: 1
    weight_filler {
      type: "xavier"
    }
    bias_filler {
      type: "constant"
      value: 0
    }
  }
}
layer {
  name: "conv8_2_mbox_conf_perm"
  type: "Permute"
  bottom: "conv8_2_mbox_conf"
  top: "conv8_2_mbox_conf_perm"
  permute_param {
    order: 0
    order: 2
    order: 3
    order: 1
  }
}
layer {
  name: "conv8_2_mbox_conf_flat"
  type: "Flatten"
  bottom: "conv8_2_mbox_conf_perm"
  top: "conv8_2_mbox_conf_flat"
  flatten_param {
    axis: 1
  }
}
layer {
  name: "conv8_2_mbox_priorbox"
  type: "PriorBox"
  bottom: "conv8_2"
  bottom: "data"
  top: "conv8_2_mbox_priorbox"
  prior_box_param {
    min_size: 213
    max_size: 264
    aspect_ratio: 2
    flip: true
    clip: false
    variance: 0.1
    variance: 0.1
    variance: 0.2
    variance: 0.2
    step: 100
    offset: 0.5
  }
}
layer {
  name: "conv9_2_mbox_loc"
  type: "Convolution"
  bottom: "conv9_2"
  top: "conv9_2_mbox_loc"
  param {
    lr_mult: 1
    decay_mult: 1
  }
  param {
    lr_mult: 2
    decay_mult: 0
  }
  convolution_param {
    num_output: 16
    pad: 1
    kernel_size: 3
    stride: 1
    weight_filler {
      type: "xavier"
    }
    bias_filler {
      type: "constant"
      value: 0
    }
  }
}
layer {
  name: "conv9_2_mbox_loc_perm"
  type: "Permute"
  bottom: "conv9_2_mbox_loc"
  top: "conv9_2_mbox_loc_perm"
  permute_param {
    order: 0
    order: 2
    order: 3
    order: 1
  }
}
layer {
  name: "conv9_2_mbox_loc_flat"
  type: "Flatten"
  bottom: "conv9_2_mbox_loc_perm"
  top: "conv9_2_mbox_loc_flat"
  flatten_param {
    axis: 1
  }
}
layer {
  name: "conv9_2_mbox_conf"
  type: "Convolution"
  bottom: "conv9_2"
  top: "conv9_2_mbox_conf"
  param {
    lr_mult: 1
    decay_mult: 1
  }
  param {
    lr_mult: 2
    decay_mult: 0
  }
  convolution_param {
    num_output: 44
    pad: 1
    kernel_size: 3
    stride: 1
    weight_filler {
      type: "xavier"
    }
    bias_filler {
      type: "constant"
      value: 0
    }
  }
}
layer {
  name: "conv9_2_mbox_conf_perm"
  type: "Permute"
  bottom: "conv9_2_mbox_conf"
  top: "conv9_2_mbox_conf_perm"
  permute_param {
    order: 0
    order: 2
    order: 3
    order: 1
  }
}
layer {
  name: "conv9_2_mbox_conf_flat"
  type: "Flatten"
  bottom: "conv9_2_mbox_conf_perm"
  top: "conv9_2_mbox_conf_flat"
  flatten_param {
    axis: 1
  }
}
layer {
  name: "conv9_2_mbox_priorbox"
  type: "PriorBox"
  bottom: "conv9_2"
  bottom: "data"
  top: "conv9_2_mbox_priorbox"
  prior_box_param {
    min_size: 264
    max_size: 315
    aspect_ratio: 2
    flip: true
    clip: false
    variance: 0.1
    variance: 0.1
    variance: 0.2
    variance: 0.2
    step: 300
    offset: 0.5
  }
}
layer {
  name: "mbox_loc"
  type: "Concat"
  bottom: "conv4_3_norm_mbox_loc_flat"
  bottom: "fc7_mbox_loc_flat"
  bottom: "conv6_2_mbox_loc_flat"
  bottom: "conv7_2_mbox_loc_flat"
  bottom: "conv8_2_mbox_loc_flat"
  bottom: "conv9_2_mbox_loc_flat"
  top: "mbox_loc"
  concat_param {
    axis: 1
  }
}
layer {
  name: "mbox_conf"
  type: "Concat"
  bottom: "conv4_3_norm_mbox_conf_flat"
  bottom: "fc7_mbox_conf_flat"
  bottom: "conv6_2_mbox_conf_flat"
  bottom: "conv7_2_mbox_conf_flat"
  bottom: "conv8_2_mbox_conf_flat"
  bottom: "conv9_2_mbox_conf_flat"
  top: "mbox_conf"
  concat_param {
    axis: 1
  }
}
layer {
  name: "mbox_priorbox"
  type: "Concat"
  bottom: "conv4_3_norm_mbox_priorbox"
  bottom: "fc7_mbox_priorbox"
  bottom: "conv6_2_mbox_priorbox"
  bottom: "conv7_2_mbox_priorbox"
  bottom: "conv8_2_mbox_priorbox"
  bottom: "conv9_2_mbox_priorbox"
  top: "mbox_priorbox"
  concat_param {
    axis: 2
  }
}
layer {
  name: "mbox_loss"
  type: "MultiBoxLoss"
  bottom: "mbox_loc"
  bottom: "mbox_conf"
  bottom: "mbox_priorbox"
  bottom: "label"
  top: "mbox_loss"
  include {
    phase: TRAIN
  }
  propagate_down: true
  propagate_down: true
  propagate_down: false
  propagate_down: false
  loss_param {
    normalization: VALID
  }
  multibox_loss_param {
    loc_loss_type: SMOOTH_L1
    conf_loss_type: SOFTMAX
    loc_weight: 1
    num_classes: 11
    share_location: true
    match_type: PER_PREDICTION
    overlap_threshold: 0.5
    use_prior_for_matching: true
    background_label_id: 0
    use_difficult_gt: true
    neg_pos_ratio: 3
    neg_overlap: 0.5
    code_type: CENTER_SIZE
    ignore_cross_boundary_bbox: false
    mining_type: MAX_NEGATIVE
  }
}
I0318 09:17:12.979357 28692 layer_factory.hpp:77] Creating layer data
I0318 09:17:12.979877 28692 net.cpp:100] Creating Layer data
I0318 09:17:12.979897 28692 net.cpp:408] data -> data
I0318 09:17:12.979930 28692 net.cpp:408] data -> label
I0318 09:17:12.980769 28706 db_lmdb.cpp:35] Opened lmdb examples/NWPU_VHR/NWPU_VHR_trainval_lmdb
I0318 09:17:12.998504 28692 annotated_data_layer.cpp:62] output data size: 32,3,300,300
I0318 09:17:13.043576 28692 net.cpp:150] Setting up data
I0318 09:17:13.043601 28692 net.cpp:157] Top shape: 32 3 300 300 (8640000)
I0318 09:17:13.043607 28692 net.cpp:157] Top shape: 1 1 4 8 (32)
I0318 09:17:13.043612 28692 net.cpp:165] Memory required for data: 34560128
I0318 09:17:13.043622 28692 layer_factory.hpp:77] Creating layer data_data_0_split
I0318 09:17:13.043642 28692 net.cpp:100] Creating Layer data_data_0_split
I0318 09:17:13.043656 28692 net.cpp:434] data_data_0_split <- data
I0318 09:17:13.043695 28692 net.cpp:408] data_data_0_split -> data_data_0_split_0
I0318 09:17:13.043714 28692 net.cpp:408] data_data_0_split -> data_data_0_split_1
I0318 09:17:13.043725 28692 net.cpp:408] data_data_0_split -> data_data_0_split_2
I0318 09:17:13.043735 28692 net.cpp:408] data_data_0_split -> data_data_0_split_3
I0318 09:17:13.043745 28692 net.cpp:408] data_data_0_split -> data_data_0_split_4
I0318 09:17:13.043754 28692 net.cpp:408] data_data_0_split -> data_data_0_split_5
I0318 09:17:13.043763 28692 net.cpp:408] data_data_0_split -> data_data_0_split_6
I0318 09:17:13.043848 28692 net.cpp:150] Setting up data_data_0_split
I0318 09:17:13.043855 28692 net.cpp:157] Top shape: 32 3 300 300 (8640000)
I0318 09:17:13.043860 28692 net.cpp:157] Top shape: 32 3 300 300 (8640000)
I0318 09:17:13.043864 28692 net.cpp:157] Top shape: 32 3 300 300 (8640000)
I0318 09:17:13.043869 28692 net.cpp:157] Top shape: 32 3 300 300 (8640000)
I0318 09:17:13.043874 28692 net.cpp:157] Top shape: 32 3 300 300 (8640000)
I0318 09:17:13.043877 28692 net.cpp:157] Top shape: 32 3 300 300 (8640000)
I0318 09:17:13.043882 28692 net.cpp:157] Top shape: 32 3 300 300 (8640000)
I0318 09:17:13.043886 28692 net.cpp:165] Memory required for data: 276480128
I0318 09:17:13.043890 28692 layer_factory.hpp:77] Creating layer conv1_1
I0318 09:17:13.043908 28692 net.cpp:100] Creating Layer conv1_1
I0318 09:17:13.043912 28692 net.cpp:434] conv1_1 <- data_data_0_split_0
I0318 09:17:13.043920 28692 net.cpp:408] conv1_1 -> conv1_1
I0318 09:17:13.473832 28692 net.cpp:150] Setting up conv1_1
I0318 09:17:13.473861 28692 net.cpp:157] Top shape: 32 64 300 300 (184320000)
I0318 09:17:13.473865 28692 net.cpp:165] Memory required for data: 1013760128
I0318 09:17:13.473887 28692 layer_factory.hpp:77] Creating layer relu1_1
I0318 09:17:13.473902 28692 net.cpp:100] Creating Layer relu1_1
I0318 09:17:13.473912 28692 net.cpp:434] relu1_1 <- conv1_1
I0318 09:17:13.473922 28692 net.cpp:395] relu1_1 -> conv1_1 (in-place)
I0318 09:17:13.474596 28692 net.cpp:150] Setting up relu1_1
I0318 09:17:13.474607 28692 net.cpp:157] Top shape: 32 64 300 300 (184320000)
I0318 09:17:13.474611 28692 net.cpp:165] Memory required for data: 1751040128
I0318 09:17:13.474615 28692 layer_factory.hpp:77] Creating layer conv1_2
I0318 09:17:13.474629 28692 net.cpp:100] Creating Layer conv1_2
I0318 09:17:13.474635 28692 net.cpp:434] conv1_2 <- conv1_1
I0318 09:17:13.474642 28692 net.cpp:408] conv1_2 -> conv1_2
I0318 09:17:13.476668 28692 net.cpp:150] Setting up conv1_2
I0318 09:17:13.476682 28692 net.cpp:157] Top shape: 32 64 300 300 (184320000)
I0318 09:17:13.476686 28692 net.cpp:165] Memory required for data: 2488320128
I0318 09:17:13.476696 28692 layer_factory.hpp:77] Creating layer relu1_2
I0318 09:17:13.476702 28692 net.cpp:100] Creating Layer relu1_2
I0318 09:17:13.476708 28692 net.cpp:434] relu1_2 <- conv1_2
I0318 09:17:13.476713 28692 net.cpp:395] relu1_2 -> conv1_2 (in-place)
I0318 09:17:13.476882 28692 net.cpp:150] Setting up relu1_2
I0318 09:17:13.476891 28692 net.cpp:157] Top shape: 32 64 300 300 (184320000)
I0318 09:17:13.476897 28692 net.cpp:165] Memory required for data: 3225600128
I0318 09:17:13.476900 28692 layer_factory.hpp:77] Creating layer pool1
I0318 09:17:13.476908 28692 net.cpp:100] Creating Layer pool1
I0318 09:17:13.476915 28692 net.cpp:434] pool1 <- conv1_2
I0318 09:17:13.476923 28692 net.cpp:408] pool1 -> pool1
I0318 09:17:13.476982 28692 net.cpp:150] Setting up pool1
I0318 09:17:13.476994 28692 net.cpp:157] Top shape: 32 64 150 150 (46080000)
I0318 09:17:13.476999 28692 net.cpp:165] Memory required for data: 3409920128
I0318 09:17:13.477005 28692 layer_factory.hpp:77] Creating layer conv2_1
I0318 09:17:13.477012 28692 net.cpp:100] Creating Layer conv2_1
I0318 09:17:13.477016 28692 net.cpp:434] conv2_1 <- pool1
I0318 09:17:13.477021 28692 net.cpp:408] conv2_1 -> conv2_1
I0318 09:17:13.478904 28692 net.cpp:150] Setting up conv2_1
I0318 09:17:13.478915 28692 net.cpp:157] Top shape: 32 128 150 150 (92160000)
I0318 09:17:13.478919 28692 net.cpp:165] Memory required for data: 3778560128
I0318 09:17:13.478947 28692 layer_factory.hpp:77] Creating layer relu2_1
I0318 09:17:13.478961 28692 net.cpp:100] Creating Layer relu2_1
I0318 09:17:13.478968 28692 net.cpp:434] relu2_1 <- conv2_1
I0318 09:17:13.478976 28692 net.cpp:395] relu2_1 -> conv2_1 (in-place)
I0318 09:17:13.479141 28692 net.cpp:150] Setting up relu2_1
I0318 09:17:13.479151 28692 net.cpp:157] Top shape: 32 128 150 150 (92160000)
I0318 09:17:13.479156 28692 net.cpp:165] Memory required for data: 4147200128
I0318 09:17:13.479161 28692 layer_factory.hpp:77] Creating layer conv2_2
I0318 09:17:13.479177 28692 net.cpp:100] Creating Layer conv2_2
I0318 09:17:13.479184 28692 net.cpp:434] conv2_2 <- conv2_1
I0318 09:17:13.479189 28692 net.cpp:408] conv2_2 -> conv2_2
I0318 09:17:13.481393 28692 net.cpp:150] Setting up conv2_2
I0318 09:17:13.481408 28692 net.cpp:157] Top shape: 32 128 150 150 (92160000)
I0318 09:17:13.481413 28692 net.cpp:165] Memory required for data: 4515840128
I0318 09:17:13.481420 28692 layer_factory.hpp:77] Creating layer relu2_2
I0318 09:17:13.481426 28692 net.cpp:100] Creating Layer relu2_2
I0318 09:17:13.481431 28692 net.cpp:434] relu2_2 <- conv2_2
I0318 09:17:13.481436 28692 net.cpp:395] relu2_2 -> conv2_2 (in-place)
I0318 09:17:13.482091 28692 net.cpp:150] Setting up relu2_2
I0318 09:17:13.482103 28692 net.cpp:157] Top shape: 32 128 150 150 (92160000)
I0318 09:17:13.482107 28692 net.cpp:165] Memory required for data: 4884480128
I0318 09:17:13.482112 28692 layer_factory.hpp:77] Creating layer pool2
I0318 09:17:13.482120 28692 net.cpp:100] Creating Layer pool2
I0318 09:17:13.482125 28692 net.cpp:434] pool2 <- conv2_2
I0318 09:17:13.482129 28692 net.cpp:408] pool2 -> pool2
I0318 09:17:13.482165 28692 net.cpp:150] Setting up pool2
I0318 09:17:13.482172 28692 net.cpp:157] Top shape: 32 128 75 75 (23040000)
I0318 09:17:13.482175 28692 net.cpp:165] Memory required for data: 4976640128
I0318 09:17:13.482179 28692 layer_factory.hpp:77] Creating layer conv3_1
I0318 09:17:13.482188 28692 net.cpp:100] Creating Layer conv3_1
I0318 09:17:13.482193 28692 net.cpp:434] conv3_1 <- pool2
I0318 09:17:13.482198 28692 net.cpp:408] conv3_1 -> conv3_1
I0318 09:17:13.486441 28692 net.cpp:150] Setting up conv3_1
I0318 09:17:13.486459 28692 net.cpp:157] Top shape: 32 256 75 75 (46080000)
I0318 09:17:13.486462 28692 net.cpp:165] Memory required for data: 5160960128
I0318 09:17:13.486474 28692 layer_factory.hpp:77] Creating layer relu3_1
I0318 09:17:13.486480 28692 net.cpp:100] Creating Layer relu3_1
I0318 09:17:13.486487 28692 net.cpp:434] relu3_1 <- conv3_1
I0318 09:17:13.486493 28692 net.cpp:395] relu3_1 -> conv3_1 (in-place)
I0318 09:17:13.486660 28692 net.cpp:150] Setting up relu3_1
I0318 09:17:13.486671 28692 net.cpp:157] Top shape: 32 256 75 75 (46080000)
I0318 09:17:13.486676 28692 net.cpp:165] Memory required for data: 5345280128
I0318 09:17:13.486682 28692 layer_factory.hpp:77] Creating layer conv3_2
I0318 09:17:13.486694 28692 net.cpp:100] Creating Layer conv3_2
I0318 09:17:13.486702 28692 net.cpp:434] conv3_2 <- conv3_1
I0318 09:17:13.486711 28692 net.cpp:408] conv3_2 -> conv3_2
I0318 09:17:13.491576 28692 net.cpp:150] Setting up conv3_2
I0318 09:17:13.491592 28692 net.cpp:157] Top shape: 32 256 75 75 (46080000)
I0318 09:17:13.491596 28692 net.cpp:165] Memory required for data: 5529600128
I0318 09:17:13.491605 28692 layer_factory.hpp:77] Creating layer relu3_2
I0318 09:17:13.491611 28692 net.cpp:100] Creating Layer relu3_2
I0318 09:17:13.491618 28692 net.cpp:434] relu3_2 <- conv3_2
I0318 09:17:13.491623 28692 net.cpp:395] relu3_2 -> conv3_2 (in-place)
I0318 09:17:13.491782 28692 net.cpp:150] Setting up relu3_2
I0318 09:17:13.491794 28692 net.cpp:157] Top shape: 32 256 75 75 (46080000)
I0318 09:17:13.491799 28692 net.cpp:165] Memory required for data: 5713920128
I0318 09:17:13.491804 28692 layer_factory.hpp:77] Creating layer conv3_3
I0318 09:17:13.491820 28692 net.cpp:100] Creating Layer conv3_3
I0318 09:17:13.491828 28692 net.cpp:434] conv3_3 <- conv3_2
I0318 09:17:13.491837 28692 net.cpp:408] conv3_3 -> conv3_3
I0318 09:17:13.496659 28692 net.cpp:150] Setting up conv3_3
I0318 09:17:13.496690 28692 net.cpp:157] Top shape: 32 256 75 75 (46080000)
I0318 09:17:13.496695 28692 net.cpp:165] Memory required for data: 5898240128
I0318 09:17:13.496701 28692 layer_factory.hpp:77] Creating layer relu3_3
I0318 09:17:13.496708 28692 net.cpp:100] Creating Layer relu3_3
I0318 09:17:13.496716 28692 net.cpp:434] relu3_3 <- conv3_3
I0318 09:17:13.496721 28692 net.cpp:395] relu3_3 -> conv3_3 (in-place)
I0318 09:17:13.497385 28692 net.cpp:150] Setting up relu3_3
I0318 09:17:13.497397 28692 net.cpp:157] Top shape: 32 256 75 75 (46080000)
I0318 09:17:13.497401 28692 net.cpp:165] Memory required for data: 6082560128
I0318 09:17:13.497406 28692 layer_factory.hpp:77] Creating layer pool3
I0318 09:17:13.497413 28692 net.cpp:100] Creating Layer pool3
I0318 09:17:13.497419 28692 net.cpp:434] pool3 <- conv3_3
I0318 09:17:13.497426 28692 net.cpp:408] pool3 -> pool3
I0318 09:17:13.497464 28692 net.cpp:150] Setting up pool3
I0318 09:17:13.497472 28692 net.cpp:157] Top shape: 32 256 38 38 (11829248)
I0318 09:17:13.497475 28692 net.cpp:165] Memory required for data: 6129877120
I0318 09:17:13.497479 28692 layer_factory.hpp:77] Creating layer conv4_1
I0318 09:17:13.497488 28692 net.cpp:100] Creating Layer conv4_1
I0318 09:17:13.497491 28692 net.cpp:434] conv4_1 <- pool3
I0318 09:17:13.497496 28692 net.cpp:408] conv4_1 -> conv4_1
I0318 09:17:13.506314 28692 net.cpp:150] Setting up conv4_1
I0318 09:17:13.506333 28692 net.cpp:157] Top shape: 32 512 38 38 (23658496)
I0318 09:17:13.506338 28692 net.cpp:165] Memory required for data: 6224511104
I0318 09:17:13.506348 28692 layer_factory.hpp:77] Creating layer relu4_1
I0318 09:17:13.506358 28692 net.cpp:100] Creating Layer relu4_1
I0318 09:17:13.506362 28692 net.cpp:434] relu4_1 <- conv4_1
I0318 09:17:13.506369 28692 net.cpp:395] relu4_1 -> conv4_1 (in-place)
I0318 09:17:13.506552 28692 net.cpp:150] Setting up relu4_1
I0318 09:17:13.506567 28692 net.cpp:157] Top shape: 32 512 38 38 (23658496)
I0318 09:17:13.506573 28692 net.cpp:165] Memory required for data: 6319145088
I0318 09:17:13.506578 28692 layer_factory.hpp:77] Creating layer conv4_2
I0318 09:17:13.506592 28692 net.cpp:100] Creating Layer conv4_2
I0318 09:17:13.506600 28692 net.cpp:434] conv4_2 <- conv4_1
I0318 09:17:13.506608 28692 net.cpp:408] conv4_2 -> conv4_2
I0318 09:17:13.520239 28692 net.cpp:150] Setting up conv4_2
I0318 09:17:13.520262 28692 net.cpp:157] Top shape: 32 512 38 38 (23658496)
I0318 09:17:13.520267 28692 net.cpp:165] Memory required for data: 6413779072
I0318 09:17:13.520282 28692 layer_factory.hpp:77] Creating layer relu4_2
I0318 09:17:13.520290 28692 net.cpp:100] Creating Layer relu4_2
I0318 09:17:13.520296 28692 net.cpp:434] relu4_2 <- conv4_2
I0318 09:17:13.520303 28692 net.cpp:395] relu4_2 -> conv4_2 (in-place)
I0318 09:17:13.520468 28692 net.cpp:150] Setting up relu4_2
I0318 09:17:13.520483 28692 net.cpp:157] Top shape: 32 512 38 38 (23658496)
I0318 09:17:13.520488 28692 net.cpp:165] Memory required for data: 6508413056
I0318 09:17:13.520495 28692 layer_factory.hpp:77] Creating layer conv4_3
I0318 09:17:13.520509 28692 net.cpp:100] Creating Layer conv4_3
I0318 09:17:13.520516 28692 net.cpp:434] conv4_3 <- conv4_2
I0318 09:17:13.520525 28692 net.cpp:408] conv4_3 -> conv4_3
I0318 09:17:13.534137 28692 net.cpp:150] Setting up conv4_3
I0318 09:17:13.534159 28692 net.cpp:157] Top shape: 32 512 38 38 (23658496)
I0318 09:17:13.534163 28692 net.cpp:165] Memory required for data: 6603047040
I0318 09:17:13.534173 28692 layer_factory.hpp:77] Creating layer relu4_3
I0318 09:17:13.534185 28692 net.cpp:100] Creating Layer relu4_3
I0318 09:17:13.534193 28692 net.cpp:434] relu4_3 <- conv4_3
I0318 09:17:13.534201 28692 net.cpp:395] relu4_3 -> conv4_3 (in-place)
I0318 09:17:13.534377 28692 net.cpp:150] Setting up relu4_3
I0318 09:17:13.534392 28692 net.cpp:157] Top shape: 32 512 38 38 (23658496)
I0318 09:17:13.534399 28692 net.cpp:165] Memory required for data: 6697681024
I0318 09:17:13.534404 28692 layer_factory.hpp:77] Creating layer conv4_3_relu4_3_0_split
I0318 09:17:13.534412 28692 net.cpp:100] Creating Layer conv4_3_relu4_3_0_split
I0318 09:17:13.534436 28692 net.cpp:434] conv4_3_relu4_3_0_split <- conv4_3
I0318 09:17:13.534445 28692 net.cpp:408] conv4_3_relu4_3_0_split -> conv4_3_relu4_3_0_split_0
I0318 09:17:13.534457 28692 net.cpp:408] conv4_3_relu4_3_0_split -> conv4_3_relu4_3_0_split_1
I0318 09:17:13.534507 28692 net.cpp:150] Setting up conv4_3_relu4_3_0_split
I0318 09:17:13.534518 28692 net.cpp:157] Top shape: 32 512 38 38 (23658496)
I0318 09:17:13.534524 28692 net.cpp:157] Top shape: 32 512 38 38 (23658496)
I0318 09:17:13.534529 28692 net.cpp:165] Memory required for data: 6886948992
I0318 09:17:13.534534 28692 layer_factory.hpp:77] Creating layer pool4
I0318 09:17:13.534544 28692 net.cpp:100] Creating Layer pool4
I0318 09:17:13.534551 28692 net.cpp:434] pool4 <- conv4_3_relu4_3_0_split_0
I0318 09:17:13.534559 28692 net.cpp:408] pool4 -> pool4
I0318 09:17:13.534608 28692 net.cpp:150] Setting up pool4
I0318 09:17:13.534620 28692 net.cpp:157] Top shape: 32 512 19 19 (5914624)
I0318 09:17:13.534623 28692 net.cpp:165] Memory required for data: 6910607488
I0318 09:17:13.534629 28692 layer_factory.hpp:77] Creating layer conv5_1
I0318 09:17:13.534641 28692 net.cpp:100] Creating Layer conv5_1
I0318 09:17:13.534654 28692 net.cpp:434] conv5_1 <- pool4
I0318 09:17:13.534662 28692 net.cpp:408] conv5_1 -> conv5_1
I0318 09:17:13.548823 28692 net.cpp:150] Setting up conv5_1
I0318 09:17:13.548847 28692 net.cpp:157] Top shape: 32 512 19 19 (5914624)
I0318 09:17:13.548851 28692 net.cpp:165] Memory required for data: 6934265984
I0318 09:17:13.548863 28692 layer_factory.hpp:77] Creating layer relu5_1
I0318 09:17:13.548873 28692 net.cpp:100] Creating Layer relu5_1
I0318 09:17:13.548883 28692 net.cpp:434] relu5_1 <- conv5_1
I0318 09:17:13.548894 28692 net.cpp:395] relu5_1 -> conv5_1 (in-place)
I0318 09:17:13.549607 28692 net.cpp:150] Setting up relu5_1
I0318 09:17:13.549621 28692 net.cpp:157] Top shape: 32 512 19 19 (5914624)
I0318 09:17:13.549626 28692 net.cpp:165] Memory required for data: 6957924480
I0318 09:17:13.549633 28692 layer_factory.hpp:77] Creating layer conv5_2
I0318 09:17:13.549648 28692 net.cpp:100] Creating Layer conv5_2
I0318 09:17:13.549654 28692 net.cpp:434] conv5_2 <- conv5_1
I0318 09:17:13.549662 28692 net.cpp:408] conv5_2 -> conv5_2
I0318 09:17:13.563418 28692 net.cpp:150] Setting up conv5_2
I0318 09:17:13.563442 28692 net.cpp:157] Top shape: 32 512 19 19 (5914624)
I0318 09:17:13.563446 28692 net.cpp:165] Memory required for data: 6981582976
I0318 09:17:13.563457 28692 layer_factory.hpp:77] Creating layer relu5_2
I0318 09:17:13.563467 28692 net.cpp:100] Creating Layer relu5_2
I0318 09:17:13.563473 28692 net.cpp:434] relu5_2 <- conv5_2
I0318 09:17:13.563479 28692 net.cpp:395] relu5_2 -> conv5_2 (in-place)
I0318 09:17:13.563663 28692 net.cpp:150] Setting up relu5_2
I0318 09:17:13.563678 28692 net.cpp:157] Top shape: 32 512 19 19 (5914624)
I0318 09:17:13.563683 28692 net.cpp:165] Memory required for data: 7005241472
I0318 09:17:13.563688 28692 layer_factory.hpp:77] Creating layer conv5_3
I0318 09:17:13.563701 28692 net.cpp:100] Creating Layer conv5_3
I0318 09:17:13.563710 28692 net.cpp:434] conv5_3 <- conv5_2
I0318 09:17:13.563720 28692 net.cpp:408] conv5_3 -> conv5_3
I0318 09:17:13.577431 28692 net.cpp:150] Setting up conv5_3
I0318 09:17:13.577456 28692 net.cpp:157] Top shape: 32 512 19 19 (5914624)
I0318 09:17:13.577461 28692 net.cpp:165] Memory required for data: 7028899968
I0318 09:17:13.577471 28692 layer_factory.hpp:77] Creating layer relu5_3
I0318 09:17:13.577484 28692 net.cpp:100] Creating Layer relu5_3
I0318 09:17:13.577493 28692 net.cpp:434] relu5_3 <- conv5_3
I0318 09:17:13.577500 28692 net.cpp:395] relu5_3 -> conv5_3 (in-place)
I0318 09:17:13.577702 28692 net.cpp:150] Setting up relu5_3
I0318 09:17:13.577718 28692 net.cpp:157] Top shape: 32 512 19 19 (5914624)
I0318 09:17:13.577723 28692 net.cpp:165] Memory required for data: 7052558464
I0318 09:17:13.577740 28692 layer_factory.hpp:77] Creating layer pool5
I0318 09:17:13.577749 28692 net.cpp:100] Creating Layer pool5
I0318 09:17:13.577770 28692 net.cpp:434] pool5 <- conv5_3
I0318 09:17:13.577778 28692 net.cpp:408] pool5 -> pool5
I0318 09:17:13.577837 28692 net.cpp:150] Setting up pool5
I0318 09:17:13.577847 28692 net.cpp:157] Top shape: 32 512 19 19 (5914624)
I0318 09:17:13.577852 28692 net.cpp:165] Memory required for data: 7076216960
I0318 09:17:13.577858 28692 layer_factory.hpp:77] Creating layer fc6
I0318 09:17:13.577872 28692 net.cpp:100] Creating Layer fc6
I0318 09:17:13.577880 28692 net.cpp:434] fc6 <- pool5
I0318 09:17:13.577888 28692 net.cpp:408] fc6 -> fc6
I0318 09:17:13.602553 28692 net.cpp:150] Setting up fc6
I0318 09:17:13.602582 28692 net.cpp:157] Top shape: 32 1024 19 19 (11829248)
I0318 09:17:13.602586 28692 net.cpp:165] Memory required for data: 7123533952
I0318 09:17:13.602596 28692 layer_factory.hpp:77] Creating layer relu6
I0318 09:17:13.602605 28692 net.cpp:100] Creating Layer relu6
I0318 09:17:13.602612 28692 net.cpp:434] relu6 <- fc6
I0318 09:17:13.602618 28692 net.cpp:395] relu6 -> fc6 (in-place)
I0318 09:17:13.603483 28692 net.cpp:150] Setting up relu6
I0318 09:17:13.603497 28692 net.cpp:157] Top shape: 32 1024 19 19 (11829248)
I0318 09:17:13.603500 28692 net.cpp:165] Memory required for data: 7170850944
I0318 09:17:13.603505 28692 layer_factory.hpp:77] Creating layer fc7
I0318 09:17:13.603516 28692 net.cpp:100] Creating Layer fc7
I0318 09:17:13.603523 28692 net.cpp:434] fc7 <- fc6
I0318 09:17:13.603529 28692 net.cpp:408] fc7 -> fc7
I0318 09:17:13.610393 28692 net.cpp:150] Setting up fc7
I0318 09:17:13.610412 28692 net.cpp:157] Top shape: 32 1024 19 19 (11829248)
I0318 09:17:13.610416 28692 net.cpp:165] Memory required for data: 7218167936
I0318 09:17:13.610426 28692 layer_factory.hpp:77] Creating layer relu7
I0318 09:17:13.610435 28692 net.cpp:100] Creating Layer relu7
I0318 09:17:13.610440 28692 net.cpp:434] relu7 <- fc7
I0318 09:17:13.610448 28692 net.cpp:395] relu7 -> fc7 (in-place)
I0318 09:17:13.610622 28692 net.cpp:150] Setting up relu7
I0318 09:17:13.610636 28692 net.cpp:157] Top shape: 32 1024 19 19 (11829248)
I0318 09:17:13.610641 28692 net.cpp:165] Memory required for data: 7265484928
I0318 09:17:13.610646 28692 layer_factory.hpp:77] Creating layer fc7_relu7_0_split
I0318 09:17:13.610656 28692 net.cpp:100] Creating Layer fc7_relu7_0_split
I0318 09:17:13.610661 28692 net.cpp:434] fc7_relu7_0_split <- fc7
I0318 09:17:13.610668 28692 net.cpp:408] fc7_relu7_0_split -> fc7_relu7_0_split_0
I0318 09:17:13.610678 28692 net.cpp:408] fc7_relu7_0_split -> fc7_relu7_0_split_1
I0318 09:17:13.610693 28692 net.cpp:408] fc7_relu7_0_split -> fc7_relu7_0_split_2
I0318 09:17:13.610703 28692 net.cpp:408] fc7_relu7_0_split -> fc7_relu7_0_split_3
I0318 09:17:13.610788 28692 net.cpp:150] Setting up fc7_relu7_0_split
I0318 09:17:13.610800 28692 net.cpp:157] Top shape: 32 1024 19 19 (11829248)
I0318 09:17:13.610808 28692 net.cpp:157] Top shape: 32 1024 19 19 (11829248)
I0318 09:17:13.610813 28692 net.cpp:157] Top shape: 32 1024 19 19 (11829248)
I0318 09:17:13.610821 28692 net.cpp:157] Top shape: 32 1024 19 19 (11829248)
I0318 09:17:13.610826 28692 net.cpp:165] Memory required for data: 7454752896
I0318 09:17:13.610831 28692 layer_factory.hpp:77] Creating layer conv6_1
I0318 09:17:13.610843 28692 net.cpp:100] Creating Layer conv6_1
I0318 09:17:13.610847 28692 net.cpp:434] conv6_1 <- fc7_relu7_0_split_0
I0318 09:17:13.610857 28692 net.cpp:408] conv6_1 -> conv6_1
I0318 09:17:13.614362 28692 net.cpp:150] Setting up conv6_1
I0318 09:17:13.614377 28692 net.cpp:157] Top shape: 32 256 19 19 (2957312)
I0318 09:17:13.614382 28692 net.cpp:165] Memory required for data: 7466582144
I0318 09:17:13.614388 28692 layer_factory.hpp:77] Creating layer conv6_1_relu
I0318 09:17:13.614396 28692 net.cpp:100] Creating Layer conv6_1_relu
I0318 09:17:13.614400 28692 net.cpp:434] conv6_1_relu <- conv6_1
I0318 09:17:13.614406 28692 net.cpp:395] conv6_1_relu -> conv6_1 (in-place)
I0318 09:17:13.614583 28692 net.cpp:150] Setting up conv6_1_relu
I0318 09:17:13.614594 28692 net.cpp:157] Top shape: 32 256 19 19 (2957312)
I0318 09:17:13.614598 28692 net.cpp:165] Memory required for data: 7478411392
I0318 09:17:13.614621 28692 layer_factory.hpp:77] Creating layer conv6_2
I0318 09:17:13.614630 28692 net.cpp:100] Creating Layer conv6_2
I0318 09:17:13.614636 28692 net.cpp:434] conv6_2 <- conv6_1
I0318 09:17:13.614645 28692 net.cpp:408] conv6_2 -> conv6_2
I0318 09:17:13.622370 28692 net.cpp:150] Setting up conv6_2
I0318 09:17:13.622395 28692 net.cpp:157] Top shape: 32 512 10 10 (1638400)
I0318 09:17:13.622400 28692 net.cpp:165] Memory required for data: 7484964992
I0318 09:17:13.622416 28692 layer_factory.hpp:77] Creating layer conv6_2_relu
I0318 09:17:13.622424 28692 net.cpp:100] Creating Layer conv6_2_relu
I0318 09:17:13.622431 28692 net.cpp:434] conv6_2_relu <- conv6_2
I0318 09:17:13.622438 28692 net.cpp:395] conv6_2_relu -> conv6_2 (in-place)
I0318 09:17:13.623153 28692 net.cpp:150] Setting up conv6_2_relu
I0318 09:17:13.623165 28692 net.cpp:157] Top shape: 32 512 10 10 (1638400)
I0318 09:17:13.623169 28692 net.cpp:165] Memory required for data: 7491518592
I0318 09:17:13.623174 28692 layer_factory.hpp:77] Creating layer conv6_2_conv6_2_relu_0_split
I0318 09:17:13.623181 28692 net.cpp:100] Creating Layer conv6_2_conv6_2_relu_0_split
I0318 09:17:13.623186 28692 net.cpp:434] conv6_2_conv6_2_relu_0_split <- conv6_2
I0318 09:17:13.623193 28692 net.cpp:408] conv6_2_conv6_2_relu_0_split -> conv6_2_conv6_2_relu_0_split_0
I0318 09:17:13.623201 28692 net.cpp:408] conv6_2_conv6_2_relu_0_split -> conv6_2_conv6_2_relu_0_split_1
I0318 09:17:13.623206 28692 net.cpp:408] conv6_2_conv6_2_relu_0_split -> conv6_2_conv6_2_relu_0_split_2
I0318 09:17:13.623212 28692 net.cpp:408] conv6_2_conv6_2_relu_0_split -> conv6_2_conv6_2_relu_0_split_3
I0318 09:17:13.623271 28692 net.cpp:150] Setting up conv6_2_conv6_2_relu_0_split
I0318 09:17:13.623281 28692 net.cpp:157] Top shape: 32 512 10 10 (1638400)
I0318 09:17:13.623286 28692 net.cpp:157] Top shape: 32 512 10 10 (1638400)
I0318 09:17:13.623291 28692 net.cpp:157] Top shape: 32 512 10 10 (1638400)
I0318 09:17:13.623297 28692 net.cpp:157] Top shape: 32 512 10 10 (1638400)
I0318 09:17:13.623303 28692 net.cpp:165] Memory required for data: 7517732992
I0318 09:17:13.623308 28692 layer_factory.hpp:77] Creating layer conv7_1
I0318 09:17:13.623322 28692 net.cpp:100] Creating Layer conv7_1
I0318 09:17:13.623327 28692 net.cpp:434] conv7_1 <- conv6_2_conv6_2_relu_0_split_0
I0318 09:17:13.623337 28692 net.cpp:408] conv7_1 -> conv7_1
I0318 09:17:13.624879 28692 net.cpp:150] Setting up conv7_1
I0318 09:17:13.624891 28692 net.cpp:157] Top shape: 32 128 10 10 (409600)
I0318 09:17:13.624895 28692 net.cpp:165] Memory required for data: 7519371392
I0318 09:17:13.624904 28692 layer_factory.hpp:77] Creating layer conv7_1_relu
I0318 09:17:13.624910 28692 net.cpp:100] Creating Layer conv7_1_relu
I0318 09:17:13.624914 28692 net.cpp:434] conv7_1_relu <- conv7_1
I0318 09:17:13.624920 28692 net.cpp:395] conv7_1_relu -> conv7_1 (in-place)
I0318 09:17:13.625090 28692 net.cpp:150] Setting up conv7_1_relu
I0318 09:17:13.625100 28692 net.cpp:157] Top shape: 32 128 10 10 (409600)
I0318 09:17:13.625104 28692 net.cpp:165] Memory required for data: 7521009792
I0318 09:17:13.625108 28692 layer_factory.hpp:77] Creating layer conv7_2
I0318 09:17:13.625118 28692 net.cpp:100] Creating Layer conv7_2
I0318 09:17:13.625123 28692 net.cpp:434] conv7_2 <- conv7_1
I0318 09:17:13.625128 28692 net.cpp:408] conv7_2 -> conv7_2
I0318 09:17:13.628330 28692 net.cpp:150] Setting up conv7_2
I0318 09:17:13.628345 28692 net.cpp:157] Top shape: 32 256 5 5 (204800)
I0318 09:17:13.628350 28692 net.cpp:165] Memory required for data: 7521828992
I0318 09:17:13.628356 28692 layer_factory.hpp:77] Creating layer conv7_2_relu
I0318 09:17:13.628362 28692 net.cpp:100] Creating Layer conv7_2_relu
I0318 09:17:13.628367 28692 net.cpp:434] conv7_2_relu <- conv7_2
I0318 09:17:13.628376 28692 net.cpp:395] conv7_2_relu -> conv7_2 (in-place)
I0318 09:17:13.628546 28692 net.cpp:150] Setting up conv7_2_relu
I0318 09:17:13.628556 28692 net.cpp:157] Top shape: 32 256 5 5 (204800)
I0318 09:17:13.628561 28692 net.cpp:165] Memory required for data: 7522648192
I0318 09:17:13.628581 28692 layer_factory.hpp:77] Creating layer conv7_2_conv7_2_relu_0_split
I0318 09:17:13.628587 28692 net.cpp:100] Creating Layer conv7_2_conv7_2_relu_0_split
I0318 09:17:13.628592 28692 net.cpp:434] conv7_2_conv7_2_relu_0_split <- conv7_2
I0318 09:17:13.628599 28692 net.cpp:408] conv7_2_conv7_2_relu_0_split -> conv7_2_conv7_2_relu_0_split_0
I0318 09:17:13.628607 28692 net.cpp:408] conv7_2_conv7_2_relu_0_split -> conv7_2_conv7_2_relu_0_split_1
I0318 09:17:13.628612 28692 net.cpp:408] conv7_2_conv7_2_relu_0_split -> conv7_2_conv7_2_relu_0_split_2
I0318 09:17:13.628618 28692 net.cpp:408] conv7_2_conv7_2_relu_0_split -> conv7_2_conv7_2_relu_0_split_3
I0318 09:17:13.628697 28692 net.cpp:150] Setting up conv7_2_conv7_2_relu_0_split
I0318 09:17:13.628710 28692 net.cpp:157] Top shape: 32 256 5 5 (204800)
I0318 09:17:13.628716 28692 net.cpp:157] Top shape: 32 256 5 5 (204800)
I0318 09:17:13.628722 28692 net.cpp:157] Top shape: 32 256 5 5 (204800)
I0318 09:17:13.628731 28692 net.cpp:157] Top shape: 32 256 5 5 (204800)
I0318 09:17:13.628736 28692 net.cpp:165] Memory required for data: 7525924992
I0318 09:17:13.628741 28692 layer_factory.hpp:77] Creating layer conv8_1
I0318 09:17:13.628753 28692 net.cpp:100] Creating Layer conv8_1
I0318 09:17:13.628762 28692 net.cpp:434] conv8_1 <- conv7_2_conv7_2_relu_0_split_0
I0318 09:17:13.628772 28692 net.cpp:408] conv8_1 -> conv8_1
I0318 09:17:13.630131 28692 net.cpp:150] Setting up conv8_1
I0318 09:17:13.630144 28692 net.cpp:157] Top shape: 32 128 5 5 (102400)
I0318 09:17:13.630148 28692 net.cpp:165] Memory required for data: 7526334592
I0318 09:17:13.630157 28692 layer_factory.hpp:77] Creating layer conv8_1_relu
I0318 09:17:13.630168 28692 net.cpp:100] Creating Layer conv8_1_relu
I0318 09:17:13.630172 28692 net.cpp:434] conv8_1_relu <- conv8_1
I0318 09:17:13.630179 28692 net.cpp:395] conv8_1_relu -> conv8_1 (in-place)
I0318 09:17:13.630350 28692 net.cpp:150] Setting up conv8_1_relu
I0318 09:17:13.630360 28692 net.cpp:157] Top shape: 32 128 5 5 (102400)
I0318 09:17:13.630364 28692 net.cpp:165] Memory required for data: 7526744192
I0318 09:17:13.630369 28692 layer_factory.hpp:77] Creating layer conv8_2
I0318 09:17:13.630383 28692 net.cpp:100] Creating Layer conv8_2
I0318 09:17:13.630389 28692 net.cpp:434] conv8_2 <- conv8_1
I0318 09:17:13.630395 28692 net.cpp:408] conv8_2 -> conv8_2
I0318 09:17:13.634054 28692 net.cpp:150] Setting up conv8_2
I0318 09:17:13.634068 28692 net.cpp:157] Top shape: 32 256 3 3 (73728)
I0318 09:17:13.634073 28692 net.cpp:165] Memory required for data: 7527039104
I0318 09:17:13.634079 28692 layer_factory.hpp:77] Creating layer conv8_2_relu
I0318 09:17:13.634086 28692 net.cpp:100] Creating Layer conv8_2_relu
I0318 09:17:13.634090 28692 net.cpp:434] conv8_2_relu <- conv8_2
I0318 09:17:13.634099 28692 net.cpp:395] conv8_2_relu -> conv8_2 (in-place)
I0318 09:17:13.634770 28692 net.cpp:150] Setting up conv8_2_relu
I0318 09:17:13.634783 28692 net.cpp:157] Top shape: 32 256 3 3 (73728)
I0318 09:17:13.634786 28692 net.cpp:165] Memory required for data: 7527334016
I0318 09:17:13.634791 28692 layer_factory.hpp:77] Creating layer conv8_2_conv8_2_relu_0_split
I0318 09:17:13.634800 28692 net.cpp:100] Creating Layer conv8_2_conv8_2_relu_0_split
I0318 09:17:13.634809 28692 net.cpp:434] conv8_2_conv8_2_relu_0_split <- conv8_2
I0318 09:17:13.634815 28692 net.cpp:408] conv8_2_conv8_2_relu_0_split -> conv8_2_conv8_2_relu_0_split_0
I0318 09:17:13.634825 28692 net.cpp:408] conv8_2_conv8_2_relu_0_split -> conv8_2_conv8_2_relu_0_split_1
I0318 09:17:13.634832 28692 net.cpp:408] conv8_2_conv8_2_relu_0_split -> conv8_2_conv8_2_relu_0_split_2
I0318 09:17:13.634842 28692 net.cpp:408] conv8_2_conv8_2_relu_0_split -> conv8_2_conv8_2_relu_0_split_3
I0318 09:17:13.634899 28692 net.cpp:150] Setting up conv8_2_conv8_2_relu_0_split
I0318 09:17:13.634907 28692 net.cpp:157] Top shape: 32 256 3 3 (73728)
I0318 09:17:13.634910 28692 net.cpp:157] Top shape: 32 256 3 3 (73728)
I0318 09:17:13.634915 28692 net.cpp:157] Top shape: 32 256 3 3 (73728)
I0318 09:17:13.634922 28692 net.cpp:157] Top shape: 32 256 3 3 (73728)
I0318 09:17:13.634939 28692 net.cpp:165] Memory required for data: 7528513664
I0318 09:17:13.634943 28692 layer_factory.hpp:77] Creating layer conv9_1
I0318 09:17:13.634953 28692 net.cpp:100] Creating Layer conv9_1
I0318 09:17:13.634956 28692 net.cpp:434] conv9_1 <- conv8_2_conv8_2_relu_0_split_0
I0318 09:17:13.634963 28692 net.cpp:408] conv9_1 -> conv9_1
I0318 09:17:13.636265 28692 net.cpp:150] Setting up conv9_1
I0318 09:17:13.636278 28692 net.cpp:157] Top shape: 32 128 3 3 (36864)
I0318 09:17:13.636282 28692 net.cpp:165] Memory required for data: 7528661120
I0318 09:17:13.636289 28692 layer_factory.hpp:77] Creating layer conv9_1_relu
I0318 09:17:13.636297 28692 net.cpp:100] Creating Layer conv9_1_relu
I0318 09:17:13.636306 28692 net.cpp:434] conv9_1_relu <- conv9_1
I0318 09:17:13.636312 28692 net.cpp:395] conv9_1_relu -> conv9_1 (in-place)
I0318 09:17:13.636462 28692 net.cpp:150] Setting up conv9_1_relu
I0318 09:17:13.636471 28692 net.cpp:157] Top shape: 32 128 3 3 (36864)
I0318 09:17:13.636476 28692 net.cpp:165] Memory required for data: 7528808576
I0318 09:17:13.636479 28692 layer_factory.hpp:77] Creating layer conv9_2
I0318 09:17:13.636492 28692 net.cpp:100] Creating Layer conv9_2
I0318 09:17:13.636499 28692 net.cpp:434] conv9_2 <- conv9_1
I0318 09:17:13.636505 28692 net.cpp:408] conv9_2 -> conv9_2
I0318 09:17:13.640166 28692 net.cpp:150] Setting up conv9_2
I0318 09:17:13.640180 28692 net.cpp:157] Top shape: 32 256 1 1 (8192)
I0318 09:17:13.640184 28692 net.cpp:165] Memory required for data: 7528841344
I0318 09:17:13.640193 28692 layer_factory.hpp:77] Creating layer conv9_2_relu
I0318 09:17:13.640202 28692 net.cpp:100] Creating Layer conv9_2_relu
I0318 09:17:13.640209 28692 net.cpp:434] conv9_2_relu <- conv9_2
I0318 09:17:13.640216 28692 net.cpp:395] conv9_2_relu -> conv9_2 (in-place)
I0318 09:17:13.640373 28692 net.cpp:150] Setting up conv9_2_relu
I0318 09:17:13.640383 28692 net.cpp:157] Top shape: 32 256 1 1 (8192)
I0318 09:17:13.640386 28692 net.cpp:165] Memory required for data: 7528874112
I0318 09:17:13.640390 28692 layer_factory.hpp:77] Creating layer conv9_2_conv9_2_relu_0_split
I0318 09:17:13.640398 28692 net.cpp:100] Creating Layer conv9_2_conv9_2_relu_0_split
I0318 09:17:13.640401 28692 net.cpp:434] conv9_2_conv9_2_relu_0_split <- conv9_2
I0318 09:17:13.640406 28692 net.cpp:408] conv9_2_conv9_2_relu_0_split -> conv9_2_conv9_2_relu_0_split_0
I0318 09:17:13.640413 28692 net.cpp:408] conv9_2_conv9_2_relu_0_split -> conv9_2_conv9_2_relu_0_split_1
I0318 09:17:13.640427 28692 net.cpp:408] conv9_2_conv9_2_relu_0_split -> conv9_2_conv9_2_relu_0_split_2
I0318 09:17:13.640475 28692 net.cpp:150] Setting up conv9_2_conv9_2_relu_0_split
I0318 09:17:13.640481 28692 net.cpp:157] Top shape: 32 256 1 1 (8192)
I0318 09:17:13.640486 28692 net.cpp:157] Top shape: 32 256 1 1 (8192)
I0318 09:17:13.640491 28692 net.cpp:157] Top shape: 32 256 1 1 (8192)
I0318 09:17:13.640493 28692 net.cpp:165] Memory required for data: 7528972416
I0318 09:17:13.640496 28692 layer_factory.hpp:77] Creating layer conv4_3_norm
I0318 09:17:13.640504 28692 net.cpp:100] Creating Layer conv4_3_norm
I0318 09:17:13.640509 28692 net.cpp:434] conv4_3_norm <- conv4_3_relu4_3_0_split_1
I0318 09:17:13.640514 28692 net.cpp:408] conv4_3_norm -> conv4_3_norm
I0318 09:17:13.640650 28692 net.cpp:150] Setting up conv4_3_norm
I0318 09:17:13.640656 28692 net.cpp:157] Top shape: 32 512 38 38 (23658496)
I0318 09:17:13.640661 28692 net.cpp:165] Memory required for data: 7623606400
I0318 09:17:13.640666 28692 layer_factory.hpp:77] Creating layer conv4_3_norm_conv4_3_norm_0_split
I0318 09:17:13.640671 28692 net.cpp:100] Creating Layer conv4_3_norm_conv4_3_norm_0_split
I0318 09:17:13.640674 28692 net.cpp:434] conv4_3_norm_conv4_3_norm_0_split <- conv4_3_norm
I0318 09:17:13.640679 28692 net.cpp:408] conv4_3_norm_conv4_3_norm_0_split -> conv4_3_norm_conv4_3_norm_0_split_0
I0318 09:17:13.640686 28692 net.cpp:408] conv4_3_norm_conv4_3_norm_0_split -> conv4_3_norm_conv4_3_norm_0_split_1
I0318 09:17:13.640691 28692 net.cpp:408] conv4_3_norm_conv4_3_norm_0_split -> conv4_3_norm_conv4_3_norm_0_split_2
I0318 09:17:13.640743 28692 net.cpp:150] Setting up conv4_3_norm_conv4_3_norm_0_split
I0318 09:17:13.640749 28692 net.cpp:157] Top shape: 32 512 38 38 (23658496)
I0318 09:17:13.640753 28692 net.cpp:157] Top shape: 32 512 38 38 (23658496)
I0318 09:17:13.640758 28692 net.cpp:157] Top shape: 32 512 38 38 (23658496)
I0318 09:17:13.640760 28692 net.cpp:165] Memory required for data: 7907508352
I0318 09:17:13.640764 28692 layer_factory.hpp:77] Creating layer conv4_3_norm_mbox_loc
I0318 09:17:13.640774 28692 net.cpp:100] Creating Layer conv4_3_norm_mbox_loc
I0318 09:17:13.640781 28692 net.cpp:434] conv4_3_norm_mbox_loc <- conv4_3_norm_conv4_3_norm_0_split_0
I0318 09:17:13.640787 28692 net.cpp:408] conv4_3_norm_mbox_loc -> conv4_3_norm_mbox_loc
I0318 09:17:13.642801 28692 net.cpp:150] Setting up conv4_3_norm_mbox_loc
I0318 09:17:13.642812 28692 net.cpp:157] Top shape: 32 16 38 38 (739328)
I0318 09:17:13.642817 28692 net.cpp:165] Memory required for data: 7910465664
I0318 09:17:13.642823 28692 layer_factory.hpp:77] Creating layer conv4_3_norm_mbox_loc_perm
I0318 09:17:13.642830 28692 net.cpp:100] Creating Layer conv4_3_norm_mbox_loc_perm
I0318 09:17:13.642835 28692 net.cpp:434] conv4_3_norm_mbox_loc_perm <- conv4_3_norm_mbox_loc
I0318 09:17:13.642840 28692 net.cpp:408] conv4_3_norm_mbox_loc_perm -> conv4_3_norm_mbox_loc_perm
I0318 09:17:13.642932 28692 net.cpp:150] Setting up conv4_3_norm_mbox_loc_perm
I0318 09:17:13.642941 28692 net.cpp:157] Top shape: 32 38 38 16 (739328)
I0318 09:17:13.642949 28692 net.cpp:165] Memory required for data: 7913422976
I0318 09:17:13.642953 28692 layer_factory.hpp:77] Creating layer conv4_3_norm_mbox_loc_flat
I0318 09:17:13.642959 28692 net.cpp:100] Creating Layer conv4_3_norm_mbox_loc_flat
I0318 09:17:13.642964 28692 net.cpp:434] conv4_3_norm_mbox_loc_flat <- conv4_3_norm_mbox_loc_perm
I0318 09:17:13.642969 28692 net.cpp:408] conv4_3_norm_mbox_loc_flat -> conv4_3_norm_mbox_loc_flat
I0318 09:17:13.643007 28692 net.cpp:150] Setting up conv4_3_norm_mbox_loc_flat
I0318 09:17:13.643015 28692 net.cpp:157] Top shape: 32 23104 (739328)
I0318 09:17:13.643019 28692 net.cpp:165] Memory required for data: 7916380288
I0318 09:17:13.643023 28692 layer_factory.hpp:77] Creating layer conv4_3_norm_mbox_conf
I0318 09:17:13.643043 28692 net.cpp:100] Creating Layer conv4_3_norm_mbox_conf
I0318 09:17:13.643049 28692 net.cpp:434] conv4_3_norm_mbox_conf <- conv4_3_norm_conv4_3_norm_0_split_1
I0318 09:17:13.643055 28692 net.cpp:408] conv4_3_norm_mbox_conf -> conv4_3_norm_mbox_conf
I0318 09:17:13.645649 28692 net.cpp:150] Setting up conv4_3_norm_mbox_conf
I0318 09:17:13.645661 28692 net.cpp:157] Top shape: 32 44 38 38 (2033152)
I0318 09:17:13.645664 28692 net.cpp:165] Memory required for data: 7924512896
I0318 09:17:13.645671 28692 layer_factory.hpp:77] Creating layer conv4_3_norm_mbox_conf_perm
I0318 09:17:13.645681 28692 net.cpp:100] Creating Layer conv4_3_norm_mbox_conf_perm
I0318 09:17:13.645687 28692 net.cpp:434] conv4_3_norm_mbox_conf_perm <- conv4_3_norm_mbox_conf
I0318 09:17:13.645694 28692 net.cpp:408] conv4_3_norm_mbox_conf_perm -> conv4_3_norm_mbox_conf_perm
I0318 09:17:13.645814 28692 net.cpp:150] Setting up conv4_3_norm_mbox_conf_perm
I0318 09:17:13.645825 28692 net.cpp:157] Top shape: 32 38 38 44 (2033152)
I0318 09:17:13.645829 28692 net.cpp:165] Memory required for data: 7932645504
I0318 09:17:13.645834 28692 layer_factory.hpp:77] Creating layer conv4_3_norm_mbox_conf_flat
I0318 09:17:13.645843 28692 net.cpp:100] Creating Layer conv4_3_norm_mbox_conf_flat
I0318 09:17:13.645848 28692 net.cpp:434] conv4_3_norm_mbox_conf_flat <- conv4_3_norm_mbox_conf_perm
I0318 09:17:13.645853 28692 net.cpp:408] conv4_3_norm_mbox_conf_flat -> conv4_3_norm_mbox_conf_flat
I0318 09:17:13.645879 28692 net.cpp:150] Setting up conv4_3_norm_mbox_conf_flat
I0318 09:17:13.645884 28692 net.cpp:157] Top shape: 32 63536 (2033152)
I0318 09:17:13.645889 28692 net.cpp:165] Memory required for data: 7940778112
I0318 09:17:13.645893 28692 layer_factory.hpp:77] Creating layer conv4_3_norm_mbox_priorbox
I0318 09:17:13.645912 28692 net.cpp:100] Creating Layer conv4_3_norm_mbox_priorbox
I0318 09:17:13.645917 28692 net.cpp:434] conv4_3_norm_mbox_priorbox <- conv4_3_norm_conv4_3_norm_0_split_2
I0318 09:17:13.645925 28692 net.cpp:434] conv4_3_norm_mbox_priorbox <- data_data_0_split_1
I0318 09:17:13.645931 28692 net.cpp:408] conv4_3_norm_mbox_priorbox -> conv4_3_norm_mbox_priorbox
I0318 09:17:13.645964 28692 net.cpp:150] Setting up conv4_3_norm_mbox_priorbox
I0318 09:17:13.645975 28692 net.cpp:157] Top shape: 1 2 23104 (46208)
I0318 09:17:13.645979 28692 net.cpp:165] Memory required for data: 7940962944
I0318 09:17:13.645983 28692 layer_factory.hpp:77] Creating layer fc7_mbox_loc
I0318 09:17:13.645997 28692 net.cpp:100] Creating Layer fc7_mbox_loc
I0318 09:17:13.646004 28692 net.cpp:434] fc7_mbox_loc <- fc7_relu7_0_split_1
I0318 09:17:13.646010 28692 net.cpp:408] fc7_mbox_loc -> fc7_mbox_loc
I0318 09:17:13.648677 28692 net.cpp:150] Setting up fc7_mbox_loc
I0318 09:17:13.648691 28692 net.cpp:157] Top shape: 32 24 19 19 (277248)
I0318 09:17:13.648695 28692 net.cpp:165] Memory required for data: 7942071936
I0318 09:17:13.648705 28692 layer_factory.hpp:77] Creating layer fc7_mbox_loc_perm
I0318 09:17:13.648715 28692 net.cpp:100] Creating Layer fc7_mbox_loc_perm
I0318 09:17:13.648720 28692 net.cpp:434] fc7_mbox_loc_perm <- fc7_mbox_loc
I0318 09:17:13.648730 28692 net.cpp:408] fc7_mbox_loc_perm -> fc7_mbox_loc_perm
I0318 09:17:13.648835 28692 net.cpp:150] Setting up fc7_mbox_loc_perm
I0318 09:17:13.648844 28692 net.cpp:157] Top shape: 32 19 19 24 (277248)
I0318 09:17:13.648847 28692 net.cpp:165] Memory required for data: 7943180928
I0318 09:17:13.648854 28692 layer_factory.hpp:77] Creating layer fc7_mbox_loc_flat
I0318 09:17:13.648862 28692 net.cpp:100] Creating Layer fc7_mbox_loc_flat
I0318 09:17:13.648866 28692 net.cpp:434] fc7_mbox_loc_flat <- fc7_mbox_loc_perm
I0318 09:17:13.648874 28692 net.cpp:408] fc7_mbox_loc_flat -> fc7_mbox_loc_flat
I0318 09:17:13.648902 28692 net.cpp:150] Setting up fc7_mbox_loc_flat
I0318 09:17:13.648910 28692 net.cpp:157] Top shape: 32 8664 (277248)
I0318 09:17:13.648916 28692 net.cpp:165] Memory required for data: 7944289920
I0318 09:17:13.648919 28692 layer_factory.hpp:77] Creating layer fc7_mbox_conf
I0318 09:17:13.648934 28692 net.cpp:100] Creating Layer fc7_mbox_conf
I0318 09:17:13.648941 28692 net.cpp:434] fc7_mbox_conf <- fc7_relu7_0_split_2
I0318 09:17:13.648949 28692 net.cpp:408] fc7_mbox_conf -> fc7_mbox_conf
I0318 09:17:13.654084 28692 net.cpp:150] Setting up fc7_mbox_conf
I0318 09:17:13.654101 28692 net.cpp:157] Top shape: 32 66 19 19 (762432)
I0318 09:17:13.654105 28692 net.cpp:165] Memory required for data: 7947339648
I0318 09:17:13.654112 28692 layer_factory.hpp:77] Creating layer fc7_mbox_conf_perm
I0318 09:17:13.654119 28692 net.cpp:100] Creating Layer fc7_mbox_conf_perm
I0318 09:17:13.654124 28692 net.cpp:434] fc7_mbox_conf_perm <- fc7_mbox_conf
I0318 09:17:13.654131 28692 net.cpp:408] fc7_mbox_conf_perm -> fc7_mbox_conf_perm
I0318 09:17:13.654229 28692 net.cpp:150] Setting up fc7_mbox_conf_perm
I0318 09:17:13.654240 28692 net.cpp:157] Top shape: 32 19 19 66 (762432)
I0318 09:17:13.654245 28692 net.cpp:165] Memory required for data: 7950389376
I0318 09:17:13.654250 28692 layer_factory.hpp:77] Creating layer fc7_mbox_conf_flat
I0318 09:17:13.654258 28692 net.cpp:100] Creating Layer fc7_mbox_conf_flat
I0318 09:17:13.654263 28692 net.cpp:434] fc7_mbox_conf_flat <- fc7_mbox_conf_perm
I0318 09:17:13.654273 28692 net.cpp:408] fc7_mbox_conf_flat -> fc7_mbox_conf_flat
I0318 09:17:13.654299 28692 net.cpp:150] Setting up fc7_mbox_conf_flat
I0318 09:17:13.654307 28692 net.cpp:157] Top shape: 32 23826 (762432)
I0318 09:17:13.654312 28692 net.cpp:165] Memory required for data: 7953439104
I0318 09:17:13.654320 28692 layer_factory.hpp:77] Creating layer fc7_mbox_priorbox
I0318 09:17:13.654330 28692 net.cpp:100] Creating Layer fc7_mbox_priorbox
I0318 09:17:13.654335 28692 net.cpp:434] fc7_mbox_priorbox <- fc7_relu7_0_split_3
I0318 09:17:13.654340 28692 net.cpp:434] fc7_mbox_priorbox <- data_data_0_split_2
I0318 09:17:13.654359 28692 net.cpp:408] fc7_mbox_priorbox -> fc7_mbox_priorbox
I0318 09:17:13.654389 28692 net.cpp:150] Setting up fc7_mbox_priorbox
I0318 09:17:13.654397 28692 net.cpp:157] Top shape: 1 2 8664 (17328)
I0318 09:17:13.654399 28692 net.cpp:165] Memory required for data: 7953508416
I0318 09:17:13.654403 28692 layer_factory.hpp:77] Creating layer conv6_2_mbox_loc
I0318 09:17:13.654415 28692 net.cpp:100] Creating Layer conv6_2_mbox_loc
I0318 09:17:13.654419 28692 net.cpp:434] conv6_2_mbox_loc <- conv6_2_conv6_2_relu_0_split_1
I0318 09:17:13.654428 28692 net.cpp:408] conv6_2_mbox_loc -> conv6_2_mbox_loc
I0318 09:17:13.656651 28692 net.cpp:150] Setting up conv6_2_mbox_loc
I0318 09:17:13.656662 28692 net.cpp:157] Top shape: 32 24 10 10 (76800)
I0318 09:17:13.656666 28692 net.cpp:165] Memory required for data: 7953815616
I0318 09:17:13.656672 28692 layer_factory.hpp:77] Creating layer conv6_2_mbox_loc_perm
I0318 09:17:13.656680 28692 net.cpp:100] Creating Layer conv6_2_mbox_loc_perm
I0318 09:17:13.656684 28692 net.cpp:434] conv6_2_mbox_loc_perm <- conv6_2_mbox_loc
I0318 09:17:13.656690 28692 net.cpp:408] conv6_2_mbox_loc_perm -> conv6_2_mbox_loc_perm
I0318 09:17:13.656798 28692 net.cpp:150] Setting up conv6_2_mbox_loc_perm
I0318 09:17:13.656807 28692 net.cpp:157] Top shape: 32 10 10 24 (76800)
I0318 09:17:13.656810 28692 net.cpp:165] Memory required for data: 7954122816
I0318 09:17:13.656814 28692 layer_factory.hpp:77] Creating layer conv6_2_mbox_loc_flat
I0318 09:17:13.656821 28692 net.cpp:100] Creating Layer conv6_2_mbox_loc_flat
I0318 09:17:13.656826 28692 net.cpp:434] conv6_2_mbox_loc_flat <- conv6_2_mbox_loc_perm
I0318 09:17:13.656834 28692 net.cpp:408] conv6_2_mbox_loc_flat -> conv6_2_mbox_loc_flat
I0318 09:17:13.656857 28692 net.cpp:150] Setting up conv6_2_mbox_loc_flat
I0318 09:17:13.656864 28692 net.cpp:157] Top shape: 32 2400 (76800)
I0318 09:17:13.656867 28692 net.cpp:165] Memory required for data: 7954430016
I0318 09:17:13.656872 28692 layer_factory.hpp:77] Creating layer conv6_2_mbox_conf
I0318 09:17:13.656880 28692 net.cpp:100] Creating Layer conv6_2_mbox_conf
I0318 09:17:13.656884 28692 net.cpp:434] conv6_2_mbox_conf <- conv6_2_conv6_2_relu_0_split_2
I0318 09:17:13.656891 28692 net.cpp:408] conv6_2_mbox_conf -> conv6_2_mbox_conf
I0318 09:17:13.660624 28692 net.cpp:150] Setting up conv6_2_mbox_conf
I0318 09:17:13.660637 28692 net.cpp:157] Top shape: 32 66 10 10 (211200)
I0318 09:17:13.660641 28692 net.cpp:165] Memory required for data: 7955274816
I0318 09:17:13.660650 28692 layer_factory.hpp:77] Creating layer conv6_2_mbox_conf_perm
I0318 09:17:13.660656 28692 net.cpp:100] Creating Layer conv6_2_mbox_conf_perm
I0318 09:17:13.660660 28692 net.cpp:434] conv6_2_mbox_conf_perm <- conv6_2_mbox_conf
I0318 09:17:13.660667 28692 net.cpp:408] conv6_2_mbox_conf_perm -> conv6_2_mbox_conf_perm
I0318 09:17:13.660768 28692 net.cpp:150] Setting up conv6_2_mbox_conf_perm
I0318 09:17:13.660775 28692 net.cpp:157] Top shape: 32 10 10 66 (211200)
I0318 09:17:13.660778 28692 net.cpp:165] Memory required for data: 7956119616
I0318 09:17:13.660782 28692 layer_factory.hpp:77] Creating layer conv6_2_mbox_conf_flat
I0318 09:17:13.660789 28692 net.cpp:100] Creating Layer conv6_2_mbox_conf_flat
I0318 09:17:13.660794 28692 net.cpp:434] conv6_2_mbox_conf_flat <- conv6_2_mbox_conf_perm
I0318 09:17:13.660799 28692 net.cpp:408] conv6_2_mbox_conf_flat -> conv6_2_mbox_conf_flat
I0318 09:17:13.660823 28692 net.cpp:150] Setting up conv6_2_mbox_conf_flat
I0318 09:17:13.660831 28692 net.cpp:157] Top shape: 32 6600 (211200)
I0318 09:17:13.660835 28692 net.cpp:165] Memory required for data: 7956964416
I0318 09:17:13.660840 28692 layer_factory.hpp:77] Creating layer conv6_2_mbox_priorbox
I0318 09:17:13.660851 28692 net.cpp:100] Creating Layer conv6_2_mbox_priorbox
I0318 09:17:13.660857 28692 net.cpp:434] conv6_2_mbox_priorbox <- conv6_2_conv6_2_relu_0_split_3
I0318 09:17:13.660864 28692 net.cpp:434] conv6_2_mbox_priorbox <- data_data_0_split_3
I0318 09:17:13.660873 28692 net.cpp:408] conv6_2_mbox_priorbox -> conv6_2_mbox_priorbox
I0318 09:17:13.660917 28692 net.cpp:150] Setting up conv6_2_mbox_priorbox
I0318 09:17:13.660924 28692 net.cpp:157] Top shape: 1 2 2400 (4800)
I0318 09:17:13.660928 28692 net.cpp:165] Memory required for data: 7956983616
I0318 09:17:13.660933 28692 layer_factory.hpp:77] Creating layer conv7_2_mbox_loc
I0318 09:17:13.660946 28692 net.cpp:100] Creating Layer conv7_2_mbox_loc
I0318 09:17:13.660953 28692 net.cpp:434] conv7_2_mbox_loc <- conv7_2_conv7_2_relu_0_split_1
I0318 09:17:13.660964 28692 net.cpp:408] conv7_2_mbox_loc -> conv7_2_mbox_loc
I0318 09:17:13.662447 28692 net.cpp:150] Setting up conv7_2_mbox_loc
I0318 09:17:13.662459 28692 net.cpp:157] Top shape: 32 24 5 5 (19200)
I0318 09:17:13.662464 28692 net.cpp:165] Memory required for data: 7957060416
I0318 09:17:13.662470 28692 layer_factory.hpp:77] Creating layer conv7_2_mbox_loc_perm
I0318 09:17:13.662477 28692 net.cpp:100] Creating Layer conv7_2_mbox_loc_perm
I0318 09:17:13.662482 28692 net.cpp:434] conv7_2_mbox_loc_perm <- conv7_2_mbox_loc
I0318 09:17:13.662490 28692 net.cpp:408] conv7_2_mbox_loc_perm -> conv7_2_mbox_loc_perm
I0318 09:17:13.662587 28692 net.cpp:150] Setting up conv7_2_mbox_loc_perm
I0318 09:17:13.662595 28692 net.cpp:157] Top shape: 32 5 5 24 (19200)
I0318 09:17:13.662598 28692 net.cpp:165] Memory required for data: 7957137216
I0318 09:17:13.662603 28692 layer_factory.hpp:77] Creating layer conv7_2_mbox_loc_flat
I0318 09:17:13.662608 28692 net.cpp:100] Creating Layer conv7_2_mbox_loc_flat
I0318 09:17:13.662612 28692 net.cpp:434] conv7_2_mbox_loc_flat <- conv7_2_mbox_loc_perm
I0318 09:17:13.662618 28692 net.cpp:408] conv7_2_mbox_loc_flat -> conv7_2_mbox_loc_flat
I0318 09:17:13.662641 28692 net.cpp:150] Setting up conv7_2_mbox_loc_flat
I0318 09:17:13.662647 28692 net.cpp:157] Top shape: 32 600 (19200)
I0318 09:17:13.662649 28692 net.cpp:165] Memory required for data: 7957214016
I0318 09:17:13.662652 28692 layer_factory.hpp:77] Creating layer conv7_2_mbox_conf
I0318 09:17:13.662663 28692 net.cpp:100] Creating Layer conv7_2_mbox_conf
I0318 09:17:13.662672 28692 net.cpp:434] conv7_2_mbox_conf <- conv7_2_conv7_2_relu_0_split_2
I0318 09:17:13.662681 28692 net.cpp:408] conv7_2_mbox_conf -> conv7_2_mbox_conf
I0318 09:17:13.664538 28692 net.cpp:150] Setting up conv7_2_mbox_conf
I0318 09:17:13.664551 28692 net.cpp:157] Top shape: 32 66 5 5 (52800)
I0318 09:17:13.664554 28692 net.cpp:165] Memory required for data: 7957425216
I0318 09:17:13.664561 28692 layer_factory.hpp:77] Creating layer conv7_2_mbox_conf_perm
I0318 09:17:13.664567 28692 net.cpp:100] Creating Layer conv7_2_mbox_conf_perm
I0318 09:17:13.664572 28692 net.cpp:434] conv7_2_mbox_conf_perm <- conv7_2_mbox_conf
I0318 09:17:13.664578 28692 net.cpp:408] conv7_2_mbox_conf_perm -> conv7_2_mbox_conf_perm
I0318 09:17:13.664675 28692 net.cpp:150] Setting up conv7_2_mbox_conf_perm
I0318 09:17:13.664683 28692 net.cpp:157] Top shape: 32 5 5 66 (52800)
I0318 09:17:13.664687 28692 net.cpp:165] Memory required for data: 7957636416
I0318 09:17:13.664692 28692 layer_factory.hpp:77] Creating layer conv7_2_mbox_conf_flat
I0318 09:17:13.664700 28692 net.cpp:100] Creating Layer conv7_2_mbox_conf_flat
I0318 09:17:13.664703 28692 net.cpp:434] conv7_2_mbox_conf_flat <- conv7_2_mbox_conf_perm
I0318 09:17:13.664711 28692 net.cpp:408] conv7_2_mbox_conf_flat -> conv7_2_mbox_conf_flat
I0318 09:17:13.664736 28692 net.cpp:150] Setting up conv7_2_mbox_conf_flat
I0318 09:17:13.664741 28692 net.cpp:157] Top shape: 32 1650 (52800)
I0318 09:17:13.664744 28692 net.cpp:165] Memory required for data: 7957847616
I0318 09:17:13.664748 28692 layer_factory.hpp:77] Creating layer conv7_2_mbox_priorbox
I0318 09:17:13.664754 28692 net.cpp:100] Creating Layer conv7_2_mbox_priorbox
I0318 09:17:13.664758 28692 net.cpp:434] conv7_2_mbox_priorbox <- conv7_2_conv7_2_relu_0_split_3
I0318 09:17:13.664763 28692 net.cpp:434] conv7_2_mbox_priorbox <- data_data_0_split_4
I0318 09:17:13.664770 28692 net.cpp:408] conv7_2_mbox_priorbox -> conv7_2_mbox_priorbox
I0318 09:17:13.664798 28692 net.cpp:150] Setting up conv7_2_mbox_priorbox
I0318 09:17:13.664813 28692 net.cpp:157] Top shape: 1 2 600 (1200)
I0318 09:17:13.664815 28692 net.cpp:165] Memory required for data: 7957852416
I0318 09:17:13.664821 28692 layer_factory.hpp:77] Creating layer conv8_2_mbox_loc
I0318 09:17:13.664834 28692 net.cpp:100] Creating Layer conv8_2_mbox_loc
I0318 09:17:13.664840 28692 net.cpp:434] conv8_2_mbox_loc <- conv8_2_conv8_2_relu_0_split_1
I0318 09:17:13.664849 28692 net.cpp:408] conv8_2_mbox_loc -> conv8_2_mbox_loc
I0318 09:17:13.666257 28692 net.cpp:150] Setting up conv8_2_mbox_loc
I0318 09:17:13.666270 28692 net.cpp:157] Top shape: 32 16 3 3 (4608)
I0318 09:17:13.666273 28692 net.cpp:165] Memory required for data: 7957870848
I0318 09:17:13.666291 28692 layer_factory.hpp:77] Creating layer conv8_2_mbox_loc_perm
I0318 09:17:13.666302 28692 net.cpp:100] Creating Layer conv8_2_mbox_loc_perm
I0318 09:17:13.666306 28692 net.cpp:434] conv8_2_mbox_loc_perm <- conv8_2_mbox_loc
I0318 09:17:13.666312 28692 net.cpp:408] conv8_2_mbox_loc_perm -> conv8_2_mbox_loc_perm
I0318 09:17:13.666416 28692 net.cpp:150] Setting up conv8_2_mbox_loc_perm
I0318 09:17:13.666425 28692 net.cpp:157] Top shape: 32 3 3 16 (4608)
I0318 09:17:13.666429 28692 net.cpp:165] Memory required for data: 7957889280
I0318 09:17:13.666433 28692 layer_factory.hpp:77] Creating layer conv8_2_mbox_loc_flat
I0318 09:17:13.666445 28692 net.cpp:100] Creating Layer conv8_2_mbox_loc_flat
I0318 09:17:13.666456 28692 net.cpp:434] conv8_2_mbox_loc_flat <- conv8_2_mbox_loc_perm
I0318 09:17:13.666467 28692 net.cpp:408] conv8_2_mbox_loc_flat -> conv8_2_mbox_loc_flat
I0318 09:17:13.666505 28692 net.cpp:150] Setting up conv8_2_mbox_loc_flat
I0318 09:17:13.666517 28692 net.cpp:157] Top shape: 32 144 (4608)
I0318 09:17:13.666525 28692 net.cpp:165] Memory required for data: 7957907712
I0318 09:17:13.666532 28692 layer_factory.hpp:77] Creating layer conv8_2_mbox_conf
I0318 09:17:13.666544 28692 net.cpp:100] Creating Layer conv8_2_mbox_conf
I0318 09:17:13.666549 28692 net.cpp:434] conv8_2_mbox_conf <- conv8_2_conv8_2_relu_0_split_2
I0318 09:17:13.666559 28692 net.cpp:408] conv8_2_mbox_conf -> conv8_2_mbox_conf
I0318 09:17:13.668256 28692 net.cpp:150] Setting up conv8_2_mbox_conf
I0318 09:17:13.668268 28692 net.cpp:157] Top shape: 32 44 3 3 (12672)
I0318 09:17:13.668272 28692 net.cpp:165] Memory required for data: 7957958400
I0318 09:17:13.668280 28692 layer_factory.hpp:77] Creating layer conv8_2_mbox_conf_perm
I0318 09:17:13.668292 28692 net.cpp:100] Creating Layer conv8_2_mbox_conf_perm
I0318 09:17:13.668303 28692 net.cpp:434] conv8_2_mbox_conf_perm <- conv8_2_mbox_conf
I0318 09:17:13.668313 28692 net.cpp:408] conv8_2_mbox_conf_perm -> conv8_2_mbox_conf_perm
I0318 09:17:13.668437 28692 net.cpp:150] Setting up conv8_2_mbox_conf_perm
I0318 09:17:13.668444 28692 net.cpp:157] Top shape: 32 3 3 44 (12672)
I0318 09:17:13.668447 28692 net.cpp:165] Memory required for data: 7958009088
I0318 09:17:13.668452 28692 layer_factory.hpp:77] Creating layer conv8_2_mbox_conf_flat
I0318 09:17:13.668462 28692 net.cpp:100] Creating Layer conv8_2_mbox_conf_flat
I0318 09:17:13.668467 28692 net.cpp:434] conv8_2_mbox_conf_flat <- conv8_2_mbox_conf_perm
I0318 09:17:13.668476 28692 net.cpp:408] conv8_2_mbox_conf_flat -> conv8_2_mbox_conf_flat
I0318 09:17:13.668517 28692 net.cpp:150] Setting up conv8_2_mbox_conf_flat
I0318 09:17:13.668531 28692 net.cpp:157] Top shape: 32 396 (12672)
I0318 09:17:13.668536 28692 net.cpp:165] Memory required for data: 7958059776
I0318 09:17:13.668541 28692 layer_factory.hpp:77] Creating layer conv8_2_mbox_priorbox
I0318 09:17:13.668552 28692 net.cpp:100] Creating Layer conv8_2_mbox_priorbox
I0318 09:17:13.668561 28692 net.cpp:434] conv8_2_mbox_priorbox <- conv8_2_conv8_2_relu_0_split_3
I0318 09:17:13.668568 28692 net.cpp:434] conv8_2_mbox_priorbox <- data_data_0_split_5
I0318 09:17:13.668576 28692 net.cpp:408] conv8_2_mbox_priorbox -> conv8_2_mbox_priorbox
I0318 09:17:13.668614 28692 net.cpp:150] Setting up conv8_2_mbox_priorbox
I0318 09:17:13.668624 28692 net.cpp:157] Top shape: 1 2 144 (288)
I0318 09:17:13.668629 28692 net.cpp:165] Memory required for data: 7958060928
I0318 09:17:13.668648 28692 layer_factory.hpp:77] Creating layer conv9_2_mbox_loc
I0318 09:17:13.668661 28692 net.cpp:100] Creating Layer conv9_2_mbox_loc
I0318 09:17:13.668671 28692 net.cpp:434] conv9_2_mbox_loc <- conv9_2_conv9_2_relu_0_split_0
I0318 09:17:13.668681 28692 net.cpp:408] conv9_2_mbox_loc -> conv9_2_mbox_loc
I0318 09:17:13.670127 28692 net.cpp:150] Setting up conv9_2_mbox_loc
I0318 09:17:13.670140 28692 net.cpp:157] Top shape: 32 16 1 1 (512)
I0318 09:17:13.670145 28692 net.cpp:165] Memory required for data: 7958062976
I0318 09:17:13.670151 28692 layer_factory.hpp:77] Creating layer conv9_2_mbox_loc_perm
I0318 09:17:13.670162 28692 net.cpp:100] Creating Layer conv9_2_mbox_loc_perm
I0318 09:17:13.670171 28692 net.cpp:434] conv9_2_mbox_loc_perm <- conv9_2_mbox_loc
I0318 09:17:13.670182 28692 net.cpp:408] conv9_2_mbox_loc_perm -> conv9_2_mbox_loc_perm
I0318 09:17:13.670302 28692 net.cpp:150] Setting up conv9_2_mbox_loc_perm
I0318 09:17:13.670310 28692 net.cpp:157] Top shape: 32 1 1 16 (512)
I0318 09:17:13.670313 28692 net.cpp:165] Memory required for data: 7958065024
I0318 09:17:13.670320 28692 layer_factory.hpp:77] Creating layer conv9_2_mbox_loc_flat
I0318 09:17:13.670328 28692 net.cpp:100] Creating Layer conv9_2_mbox_loc_flat
I0318 09:17:13.670336 28692 net.cpp:434] conv9_2_mbox_loc_flat <- conv9_2_mbox_loc_perm
I0318 09:17:13.670346 28692 net.cpp:408] conv9_2_mbox_loc_flat -> conv9_2_mbox_loc_flat
I0318 09:17:13.670380 28692 net.cpp:150] Setting up conv9_2_mbox_loc_flat
I0318 09:17:13.670389 28692 net.cpp:157] Top shape: 32 16 (512)
I0318 09:17:13.670397 28692 net.cpp:165] Memory required for data: 7958067072
I0318 09:17:13.670403 28692 layer_factory.hpp:77] Creating layer conv9_2_mbox_conf
I0318 09:17:13.670418 28692 net.cpp:100] Creating Layer conv9_2_mbox_conf
I0318 09:17:13.670424 28692 net.cpp:434] conv9_2_mbox_conf <- conv9_2_conv9_2_relu_0_split_1
I0318 09:17:13.670433 28692 net.cpp:408] conv9_2_mbox_conf -> conv9_2_mbox_conf
I0318 09:17:13.672639 28692 net.cpp:150] Setting up conv9_2_mbox_conf
I0318 09:17:13.672653 28692 net.cpp:157] Top shape: 32 44 1 1 (1408)
I0318 09:17:13.672657 28692 net.cpp:165] Memory required for data: 7958072704
I0318 09:17:13.672665 28692 layer_factory.hpp:77] Creating layer conv9_2_mbox_conf_perm
I0318 09:17:13.672677 28692 net.cpp:100] Creating Layer conv9_2_mbox_conf_perm
I0318 09:17:13.672684 28692 net.cpp:434] conv9_2_mbox_conf_perm <- conv9_2_mbox_conf
I0318 09:17:13.672695 28692 net.cpp:408] conv9_2_mbox_conf_perm -> conv9_2_mbox_conf_perm
I0318 09:17:13.672817 28692 net.cpp:150] Setting up conv9_2_mbox_conf_perm
I0318 09:17:13.672827 28692 net.cpp:157] Top shape: 32 1 1 44 (1408)
I0318 09:17:13.672832 28692 net.cpp:165] Memory required for data: 7958078336
I0318 09:17:13.672838 28692 layer_factory.hpp:77] Creating layer conv9_2_mbox_conf_flat
I0318 09:17:13.672848 28692 net.cpp:100] Creating Layer conv9_2_mbox_conf_flat
I0318 09:17:13.672855 28692 net.cpp:434] conv9_2_mbox_conf_flat <- conv9_2_mbox_conf_perm
I0318 09:17:13.672868 28692 net.cpp:408] conv9_2_mbox_conf_flat -> conv9_2_mbox_conf_flat
I0318 09:17:13.672900 28692 net.cpp:150] Setting up conv9_2_mbox_conf_flat
I0318 09:17:13.672910 28692 net.cpp:157] Top shape: 32 44 (1408)
I0318 09:17:13.672915 28692 net.cpp:165] Memory required for data: 7958083968
I0318 09:17:13.672922 28692 layer_factory.hpp:77] Creating layer conv9_2_mbox_priorbox
I0318 09:17:13.672930 28692 net.cpp:100] Creating Layer conv9_2_mbox_priorbox
I0318 09:17:13.672938 28692 net.cpp:434] conv9_2_mbox_priorbox <- conv9_2_conv9_2_relu_0_split_2
I0318 09:17:13.672945 28692 net.cpp:434] conv9_2_mbox_priorbox <- data_data_0_split_6
I0318 09:17:13.672956 28692 net.cpp:408] conv9_2_mbox_priorbox -> conv9_2_mbox_priorbox
I0318 09:17:13.672992 28692 net.cpp:150] Setting up conv9_2_mbox_priorbox
I0318 09:17:13.673003 28692 net.cpp:157] Top shape: 1 2 16 (32)
I0318 09:17:13.673009 28692 net.cpp:165] Memory required for data: 7958084096
I0318 09:17:13.673015 28692 layer_factory.hpp:77] Creating layer mbox_loc
I0318 09:17:13.673038 28692 net.cpp:100] Creating Layer mbox_loc
I0318 09:17:13.673045 28692 net.cpp:434] mbox_loc <- conv4_3_norm_mbox_loc_flat
I0318 09:17:13.673054 28692 net.cpp:434] mbox_loc <- fc7_mbox_loc_flat
I0318 09:17:13.673063 28692 net.cpp:434] mbox_loc <- conv6_2_mbox_loc_flat
I0318 09:17:13.673069 28692 net.cpp:434] mbox_loc <- conv7_2_mbox_loc_flat
I0318 09:17:13.673077 28692 net.cpp:434] mbox_loc <- conv8_2_mbox_loc_flat
I0318 09:17:13.673084 28692 net.cpp:434] mbox_loc <- conv9_2_mbox_loc_flat
I0318 09:17:13.673094 28692 net.cpp:408] mbox_loc -> mbox_loc
I0318 09:17:13.673132 28692 net.cpp:150] Setting up mbox_loc
I0318 09:17:13.673142 28692 net.cpp:157] Top shape: 32 34928 (1117696)
I0318 09:17:13.673148 28692 net.cpp:165] Memory required for data: 7962554880
I0318 09:17:13.673154 28692 layer_factory.hpp:77] Creating layer mbox_conf
I0318 09:17:13.673164 28692 net.cpp:100] Creating Layer mbox_conf
I0318 09:17:13.673171 28692 net.cpp:434] mbox_conf <- conv4_3_norm_mbox_conf_flat
I0318 09:17:13.673178 28692 net.cpp:434] mbox_conf <- fc7_mbox_conf_flat
I0318 09:17:13.673187 28692 net.cpp:434] mbox_conf <- conv6_2_mbox_conf_flat
I0318 09:17:13.673192 28692 net.cpp:434] mbox_conf <- conv7_2_mbox_conf_flat
I0318 09:17:13.673199 28692 net.cpp:434] mbox_conf <- conv8_2_mbox_conf_flat
I0318 09:17:13.673205 28692 net.cpp:434] mbox_conf <- conv9_2_mbox_conf_flat
I0318 09:17:13.673215 28692 net.cpp:408] mbox_conf -> mbox_conf
I0318 09:17:13.673252 28692 net.cpp:150] Setting up mbox_conf
I0318 09:17:13.673262 28692 net.cpp:157] Top shape: 32 96052 (3073664)
I0318 09:17:13.673269 28692 net.cpp:165] Memory required for data: 7974849536
I0318 09:17:13.673275 28692 layer_factory.hpp:77] Creating layer mbox_priorbox
I0318 09:17:13.673285 28692 net.cpp:100] Creating Layer mbox_priorbox
I0318 09:17:13.673293 28692 net.cpp:434] mbox_priorbox <- conv4_3_norm_mbox_priorbox
I0318 09:17:13.673301 28692 net.cpp:434] mbox_priorbox <- fc7_mbox_priorbox
I0318 09:17:13.673310 28692 net.cpp:434] mbox_priorbox <- conv6_2_mbox_priorbox
I0318 09:17:13.673316 28692 net.cpp:434] mbox_priorbox <- conv7_2_mbox_priorbox
I0318 09:17:13.673322 28692 net.cpp:434] mbox_priorbox <- conv8_2_mbox_priorbox
I0318 09:17:13.673329 28692 net.cpp:434] mbox_priorbox <- conv9_2_mbox_priorbox
I0318 09:17:13.673338 28692 net.cpp:408] mbox_priorbox -> mbox_priorbox
I0318 09:17:13.673372 28692 net.cpp:150] Setting up mbox_priorbox
I0318 09:17:13.673382 28692 net.cpp:157] Top shape: 1 2 34928 (69856)
I0318 09:17:13.673386 28692 net.cpp:165] Memory required for data: 7975128960
I0318 09:17:13.673393 28692 layer_factory.hpp:77] Creating layer mbox_loss
I0318 09:17:13.673408 28692 net.cpp:100] Creating Layer mbox_loss
I0318 09:17:13.673415 28692 net.cpp:434] mbox_loss <- mbox_loc
I0318 09:17:13.673422 28692 net.cpp:434] mbox_loss <- mbox_conf
I0318 09:17:13.673430 28692 net.cpp:434] mbox_loss <- mbox_priorbox
…
  phase: TEST
}
layer {
  name: "data"
  type: "AnnotatedData"
  top: "data"
  top: "label"
  include {
    phase: TEST
  }
  transform_param {
    mean_value: 104
    mean_value: 117
    mean_value: 123
    resize_param {
      prob: 1
      resize_mode: WARP
      height: 300
      width: 300
      interp_mode: LINEAR
    }
  }
  data_param {
    source: "examples/NWPU_VHR/NWPU_VHR_test_lmdb"
    batch_size: 1
    backend: LMDB
  }
  annotated_data_param {
    batch_sampler {
    }
    label_map_file: "data/NWPU_VHR/labelmap_NWPU_VHR.prototxt"
  }
}
layer {
  name: "conv1_1"
  type: "Convolution"
  bottom: "data"
  top: "conv1_1"
  param {
    lr_mult: 1
    decay_mult: 1
  }
  param {
    lr_mult: 2
    decay_mult: 0
  }
  convolution_param {
    num_output: 64
    pad: 1
    kernel_size: 3
    weight_filler {
      type: "xavier"
    }
    bias_filler {
      type: "constant"
      value: 0
    }
  }
}
layer {
  name: "relu1_1"
  type: "ReLU"
  bottom: "conv1_1"
  top: "conv1_1"
}
layer {
  name: "conv1_2"
  type: "Convolution"
  bottom: "conv1_1"
  top: "conv1_2"
  param {
    lr_mult: 1
    decay_mult: 1
  }
  param {
    lr_mult: 2
    decay_mult: 0
  }
  convolution_param {
    num_output: 64
    pad: 1
    kernel_size: 3
    weight_filler {
      type: "xavier"
    }
    bias_filler {
      type: "constant"
      value: 0
    }
  }
}
layer {
  name: "relu1_2"
  type: "ReLU"
  bottom: "conv1_2"
  top: "conv1_2"
}
layer {
  name: "pool1"
  type: "Pooling"
  bottom: "conv1_2"
  top: "pool1"
  pooling_param {
    pool: MAX
    kernel_size: 2
    stride: 2
  }
}
layer {
  name: "conv2_1"
  type: "Convolution"
  bottom: "pool1"
  top: "conv2_1"
  param {
    lr_mult: 1
    decay_mult: 1
  }
  param {
    lr_mult: 2
    decay_mult: 0
  }
  convolution_param {
    num_output: 128
    pad: 1
    kernel_size: 3
    weight_filler {
      type: "xavier"
    }
    bias_filler {
      type: "constant"
      value: 0
    }
  }
}
layer {
  name: "relu2_1"
  type: "ReLU"
  bottom: "conv2_1"
  top: "conv2_1"
}
layer {
  name: "conv2_2"
  type: "Convolution"
  bottom: "conv2_1"
  top: "conv2_2"
  param {
    lr_mult: 1
    decay_mult: 1
  }
  param {
    lr_mult: 2
    decay_mult: 0
  }
  convolution_param {
    num_output: 128
    pad: 1
    kernel_size: 3
    weight_filler {
      type: "xavier"
    }
    bias_filler {
      type: "constant"
      value: 0
    }
  }
}
layer {
  name: "relu2_2"
  type: "ReLU"
  bottom: "conv2_2"
  top: "conv2_2"
}
layer {
  name: "pool2"
  type: "Pooling"
  bottom: "conv2_2"
  top: "pool2"
  pooling_param {
    pool: MAX
    kernel_size: 2
    stride: 2
  }
}
layer {
  name: "conv3_1"
  type: "Convolution"
  bottom: "pool2"
  top: "conv3_1"
  param {
    lr_mult: 1
    decay_mult: 1
  }
  param {
    lr_mult: 2
    decay_mult: 0
  }
  convolution_param {
    num_output: 256
    pad: 1
    kernel_size: 3
    weight_filler {
      type: "xavier"
    }
    bias_filler {
      type: "constant"
      value: 0
    }
  }
}
layer {
  name: "relu3_1"
  type: "ReLU"
  bottom: "conv3_1"
  top: "conv3_1"
}
layer {
  name: "conv3_2"
  type: "Convolution"
  bottom: "conv3_1"
  top: "conv3_2"
  param {
    lr_mult: 1
    decay_mult: 1
  }
  param {
    lr_mult: 2
    decay_mult: 0
  }
  convolution_param {
    num_output: 256
    pad: 1
    kernel_size: 3
    weight_filler {
      type: "xavier"
    }
    bias_filler {
      type: "constant"
      value: 0
    }
  }
}
layer {
  name: "relu3_2"
  type: "ReLU"
  bottom: "conv3_2"
  top: "conv3_2"
}
layer {
  name: "conv3_3"
  type: "Convolution"
  bottom: "conv3_2"
  top: "conv3_3"
  param {
    lr_mult: 1
    decay_mult: 1
  }
  param {
    lr_mult: 2
    decay_mult: 0
  }
  convolution_param {
    num_output: 256
    pad: 1
    kernel_size: 3
    weight_filler {
      type: "xavier"
    }
    bias_filler {
      type: "constant"
      value: 0
    }
  }
}
layer {
  name: "relu3_3"
  type: "ReLU"
  bottom: "conv3_3"
  top: "conv3_3"
}
layer {
  name: "pool3"
  type: "Pooling"
  bottom: "conv3_3"
  top: "pool3"
  pooling_param {
    pool: MAX
    kernel_size: 2
    stride: 2
  }
}
layer {
  name: "conv4_1"
  type: "Convolution"
  bottom: "pool3"
  top: "conv4_1"
  param {
    lr_mult: 1
    decay_mult: 1
  }
  param {
    lr_mult: 2
    decay_mult: 0
  }
  convolution_param {
    num_output: 512
    pad: 1
    kernel_size: 3
    weight_filler {
      type: "xavier"
    }
    bias_filler {
      type: "constant"
      value: 0
    }
  }
}
layer {
  name: "relu4_1"
  type: "ReLU"
  bottom: "conv4_1"
  top: "conv4_1"
}
layer {
  name: "conv4_2"
  type: "Convolution"
  bottom: "conv4_1"
  top: "conv4_2"
  param {
    lr_mult: 1
    decay_mult: 1
  }
  param {
    lr_mult: 2
    decay_mult: 0
  }
  convolution_param {
    num_output: 512
    pad: 1
    kernel_size: 3
    weight_filler {
      type: "xavier"
    }
    bias_filler {
      type: "constant"
      value: 0
    }
  }
}
layer {
  name: "relu4_2"
  type: "ReLU"
  bottom: "conv4_2"
  top: "conv4_2"
}
layer {
  name: "conv4_3"
  type: "Convolution"
  bottom: "conv4_2"
  top: "conv4_3"
  param {
    lr_mult: 1
    decay_mult: 1
  }
  param {
    lr_mult: 2
    decay_mult: 0
  }
  convolution_param {
    num_output: 512
    pad: 1
    kernel_size: 3
    weight_filler {
      type: "xavier"
    }
    bias_filler {
      type: "constant"
      value: 0
    }
  }
}
layer {
  name: "relu4_3"
  type: "ReLU"
  bottom: "conv4_3"
  top: "conv4_3"
}
layer {
  name: "pool4"
  type: "Pooling"
  bottom: "conv4_3"
  top: "pool4"
  pooling_param {
    pool: MAX
    kernel_size: 2
    stride: 2
  }
}
layer {
  name: "conv5_1"
  type: "Convolution"
  bottom: "pool4"
  top: "conv5_1"
  param {
    lr_mult: 1
    decay_mult: 1
  }
  param {
    lr_mult: 2
    decay_mult: 0
  }
  convolution_param {
    num_output: 512
    pad: 1
    kernel_size: 3
    weight_filler {
      type: "xavier"
    }
    bias_filler {
      type: "constant"
      value: 0
    }
    dilation: 1
  }
}
layer {
  name: "relu5_1"
  type: "ReLU"
  bottom: "conv5_1"
  top: "conv5_1"
}
layer {
  name: "conv5_2"
  type: "Convolution"
  bottom: "conv5_1"
  top: "conv5_2"
  param {
    lr_mult: 1
    decay_mult: 1
  }
  param {
    lr_mult: 2
    decay_mult: 0
  }
  convolution_param {
    num_output: 512
    pad: 1
    kernel_size: 3
    weight_filler {
      type: "xavier"
    }
    bias_filler {
      type: "constant"
      value: 0
    }
    dilation: 1
  }
}
layer {
  name: "relu5_2"
  type: "ReLU"
  bottom: "conv5_2"
  top: "conv5_2"
}
layer {
  name: "conv5_3"
  type: "Convolution"
  bottom: "conv5_2"
  top: "conv5_3"
  param {
    lr_mult: 1
    decay_mult: 1
  }
  param {
    lr_mult: 2
    decay_mult: 0
  }
  convolution_param {
    num_output: 512
    pad: 1
    kernel_size: 3
    weight_filler {
      type: "xavier"
    }
    bias_filler {
      type: "constant"
      value: 0
    }
    dilation: 1
  }
}
layer {
  name: "relu5_3"
  type: "ReLU"
  bottom: "conv5_3"
  top: "conv5_3"
}
layer {
  name: "pool5"
  type: "Pooling"
  bottom: "conv5_3"
  top: "pool5"
  pooling_param {
    pool: MAX
    kernel_size: 3
    stride: 1
    pad: 1
  }
}
layer {
  name: "fc6"
  type: "Convolution"
  bottom: "pool5"
  top: "fc6"
  param {
    lr_mult: 1
    decay_mult: 1
  }
  param {
    lr_mult: 2
    decay_mult: 0
  }
  convolution_param {
    num_output: 1024
    pad: 6
    kernel_size: 3
    weight_filler {
      type: "xavier"
    }
    bias_filler {
      type: "constant"
      value: 0
    }
    dilation: 6
  }
}
layer {
  name: "relu6"
  type: "ReLU"
  bottom: "fc6"
  top: "fc6"
}
layer {
  name: "fc7"
  type: "Convolution"
  bottom: "fc6"
  top: "fc7"
  param {
    lr_mult: 1
    decay_mult: 1
  }
  param {
    lr_mult: 2
    decay_mult: 0
  }
  convolution_param {
    num_output: 1024
    kernel_size: 1
    weight_filler {
      type: "xavier"
    }
    bias_filler {
      type: "constant"
      value: 0
    }
  }
}
layer {
  name: "relu7"
  type: "ReLU"
  bottom: "fc7"
  top: "fc7"
}
layer {
  name: "conv6_1"
  type: "Convolution"
  bottom: "fc7"
  top: "conv6_1"
  param {
    lr_mult: 1
    decay_mult: 1
  }
  param {
    lr_mult: 2
    decay_mult: 0
  }
  convolution_param {
    num_output: 256
    pad: 0
    kernel_size: 1
    stride: 1
    weight_filler {
      type: "xavier"
    }
    bias_filler {
      type: "constant"
      value: 0
    }
  }
}
layer {
  name: "conv6_1_relu"
  type: "ReLU"
  bottom: "conv6_1"
  top: "conv6_1"
}
layer {
  name: "conv6_2"
  type: "Convolution"
  bottom: "conv6_1"
  top: "conv6_2"
  param {
    lr_mult: 1
    decay_mult: 1
  }
  param {
    lr_mult: 2
    decay_mult: 0
  }
  convolution_param {
    num_output: 512
    pad: 1
    kernel_size: 3
    stride: 2
    weight_filler {
      type: "xavier"
    }
    bias_filler {
      type: "constant"
      value: 0
    }
  }
}
layer {
  name: "conv6_2_relu"
  type: "ReLU"
  bottom: "conv6_2"
  top: "conv6_2"
}
layer {
  name: "conv7_1"
  type: "Convolution"
  bottom: "conv6_2"
  top: "conv7_1"
  param {
    lr_mult: 1
    decay_mult: 1
  }
  param {
    lr_mult: 2
    decay_mult: 0
  }
  convolution_param {
    num_output: 128
    pad: 0
    kernel_size: 1
    stride: 1
    weight_filler {
      type: "xavier"
    }
    bias_filler {
      type: "constant"
      value: 0
    }
  }
}
layer {
  name: "conv7_1_relu"
  type: "ReLU"
  bottom: "conv7_1"
  top: "conv7_1"
}
layer {
  name: "conv7_2"
  type: "Convolution"
  bottom: "conv7_1"
  top: "conv7_2"
  param {
    lr_mult: 1
    decay_mult: 1
  }
  param {
    lr_mult: 2
    decay_mult: 0
  }
  convolution_param {
    num_output: 256
    pad: 1
    kernel_size: 3
    stride: 2
    weight_filler {
      type: "xavier"
    }
    bias_filler {
      type: "constant"
      value: 0
    }
  }
}
layer {
  name: "conv7_2_relu"
  type: "ReLU"
  bottom: "conv7_2"
  top: "conv7_2"
}
layer {
  name: "conv8_1"
  type: "Convolution"
  bottom: "conv7_2"
  top: "conv8_1"
  param {
    lr_mult: 1
    decay_mult: 1
  }
  param {
    lr_mult: 2
    decay_mult: 0
  }
  convolution_param {
    num_output: 128
    pad: 0
    kernel_size: 1
    stride: 1
    weight_filler {
      type: "xavier"
    }
    bias_filler {
      type: "constant"
      value: 0
    }
  }
}
layer {
  name: "conv8_1_relu"
  type: "ReLU"
  bottom: "conv8_1"
  top: "conv8_1"
}
layer {
  name: "conv8_2"
  type: "Convolution"
  bottom: "conv8_1"
  top: "conv8_2"
  param {
    lr_mult: 1
    decay_mult: 1
  }
  param {
    lr_mult: 2
    decay_mult: 0
  }
  convolution_param {
    num_output: 256
    pad: 0
    kernel_size: 3
    stride: 1
    weight_filler {
      type: "xavier"
    }
    bias_filler {
      type: "constant"
      value: 0
    }
  }
}
layer {
  name: "conv8_2_relu"
  type: "ReLU"
  bottom: "conv8_2"
  top: "conv8_2"
}
layer {
  name: "conv9_1"
  type: "Convolution"
  bottom: "conv8_2"
  top: "conv9_1"
  param {
    lr_mult: 1
    decay_mult: 1
  }
  param {
    lr_mult: 2
    decay_mult: 0
  }
  convolution_param {
    num_output: 128
    pad: 0
    kernel_size: 1
    stride: 1
    weight_filler {
      type: "xavier"
    }
    bias_filler {
      type: "constant"
      value: 0
    }
  }
}
layer {
  name: "conv9_1_relu"
  type: "ReLU"
  bottom: "conv9_1"
  top: "conv9_1"
}
layer {
  name: "conv9_2"
  type: "Convolution"
  bottom: "conv9_1"
  top: "conv9_2"
  param {
    lr_mult: 1
    decay_mult: 1
  }
  param {
    lr_mult: 2
    decay_mult: 0
  }
  convolution_param {
    num_output: 256
    pad: 0
    kernel_size: 3
    stride: 1
    weight_filler {
      type: "xavier"
    }
    bias_filler {
      type: "constant"
      value: 0
    }
  }
}
layer {
  name: "conv9_2_relu"
  type: "ReLU"
  bottom: "conv9_2"
  top: "conv9_2"
}
layer {
  name: "conv4_3_norm"
  type: "Normalize"
  bottom: "conv4_3"
  top: "conv4_3_norm"
  norm_param {
    across_spatial: false
    scale_filler {
      type: "constant"
      value: 20
    }
    channel_shared: false
  }
}
layer {
  name: "conv4_3_norm_mbox_loc"
  type: "Convolution"
  bottom: "conv4_3_norm"
  top: "conv4_3_norm_mbox_loc"
  param {
    lr_mult: 1
    decay_mult: 1
  }
  param {
    lr_mult: 2
    decay_mult: 0
  }
  convolution_param {
    num_output: 16
    pad: 1
    kernel_size: 3
    stride: 1
    weight_filler {
      type: "xavier"
    }
    bias_filler {
      type: "constant"
      value: 0
    }
  }
}
layer {
  name: "conv4_3_norm_mbox_loc_perm"
  type: "Permute"
  bottom: "conv4_3_norm_mbox_loc"
  top: "conv4_3_norm_mbox_loc_perm"
  permute_param {
    order: 0
    order: 2
    order: 3
    order: 1
  }
}
layer {
  name: "conv4_3_norm_mbox_loc_flat"
  type: "Flatten"
  bottom: "conv4_3_norm_mbox_loc_perm"
  top: "conv4_3_norm_mbox_loc_flat"
  flatten_param {
    axis: 1
  }
}
layer {
  name: "conv4_3_norm_mbox_conf"
  type: "Convolution"
  bottom: "conv4_3_norm"
  top: "conv4_3_norm_mbox_conf"
  param {
    lr_mult: 1
    decay_mult: 1
  }
  param {
    lr_mult: 2
    decay_mult: 0
  }
  convolution_param {
    num_output: 44
    pad: 1
    kernel_size: 3
    stride: 1
    weight_filler {
      type: "xavier"
    }
    bias_filler {
      type: "constant"
      value: 0
    }
  }
}
layer {
  name: "conv4_3_norm_mbox_conf_perm"
  type: "Permute"
  bottom: "conv4_3_norm_mbox_conf"
  top: "conv4_3_norm_mbox_conf_perm"
  permute_param {
    order: 0
    order: 2
    order: 3
    order: 1
  }
}
layer {
  name: "conv4_3_norm_mbox_conf_flat"
  type: "Flatten"
  bottom: "conv4_3_norm_mbox_conf_perm"
  top: "conv4_3_norm_mbox_conf_flat"
  flatten_param {
    axis: 1
  }
}
layer {
  name: "conv4_3_norm_mbox_priorbox"
  type: "PriorBox"
  bottom: "conv4_3_norm"
  bottom: "data"
  top: "conv4_3_norm_mbox_priorbox"
  prior_box_param {
    min_size: 30
    max_size: 60
    aspect_ratio: 2
    flip: true
    clip: false
    variance: 0.1
    variance: 0.1
    variance: 0.2
    variance: 0.2
    step: 8
    offset: 0.5
  }
}
layer {
  name: "fc7_mbox_loc"
  type: "Convolution"
  bottom: "fc7"
  top: "fc7_mbox_loc"
  param {
    lr_mult: 1
    decay_mult: 1
  }
  param {
    lr_mult: 2
    decay_mult: 0
  }
  convolution_param {
    num_output: 24
    pad: 1
    kernel_size: 3
    stride: 1
    weight_filler {
      type: "xavier"
    }
    bias_filler {
      type: "constant"
      value: 0
    }
  }
}
layer {
  name: "fc7_mbox_loc_perm"
  type: "Permute"
  bottom: "fc7_mbox_loc"
  top: "fc7_mbox_loc_perm"
  permute_param {
    order: 0
    order: 2
    order: 3
    order: 1
  }
}
layer {
  name: "fc7_mbox_loc_flat"
  type: "Flatten"
  bottom: "fc7_mbox_loc_perm"
  top: "fc7_mbox_loc_flat"
  flatten_param {
    axis: 1
  }
}
layer {
  name: "fc7_mbox_conf"
  type: "Convolution"
  bottom: "fc7"
  top: "fc7_mbox_conf"
  param {
    lr_mult: 1
    decay_mult: 1
  }
  param {
    lr_mult: 2
    decay_mult: 0
  }
  convolution_param {
    num_output: 66
    pad: 1
    kernel_size: 3
    stride: 1
    weight_filler {
      type: "xavier"
    }
    bias_filler {
      type: "constant"
      value: 0
    }
  }
}
layer {
  name: "fc7_mbox_conf_perm"
  type: "Permute"
  bottom: "fc7_mbox_conf"
  top: "fc7_mbox_conf_perm"
  permute_param {
    order: 0
    order: 2
    order: 3
    order: 1
  }
}
layer {
  name: "fc7_mbox_conf_flat"
  type: "Flatten"
  bottom: "fc7_mbox_conf_perm"
  top: "fc7_mbox_conf_flat"
  flatten_param {
    axis: 1
  }
}
layer {
  name: "fc7_mbox_priorbox"
  type: "PriorBox"
  bottom: "fc7"
  bottom: "data"
  top: "fc7_mbox_priorbox"
  prior_box_param {
    min_size: 60
    max_size: 111
    aspect_ratio: 2
    aspect_ratio: 3
    flip: true
    clip: false
    variance: 0.1
    variance: 0.1
    variance: 0.2
    variance: 0.2
    step: 16
    offset: 0.5
  }
}
layer {
  name: "conv6_2_mbox_loc"
  type: "Convolution"
  bottom: "conv6_2"
  top: "conv6_2_mbox_loc"
  param {
    lr_mult: 1
    decay_mult: 1
  }
  param {
    lr_mult: 2
    decay_mult: 0
  }
  convolution_param {
    num_output: 24
    pad: 1
    kernel_size: 3
    stride: 1
    weight_filler {
      type: "xavier"
    }
    bias_filler {
      type: "constant"
      value: 0
    }
  }
}
layer {
  name: "conv6_2_mbox_loc_perm"
  type: "Permute"
  bottom: "conv6_2_mbox_loc"
  top: "conv6_2_mbox_loc_perm"
  permute_param {
    order: 0
    order: 2
    order: 3
    order: 1
  }
}
layer {
  name: "conv6_2_mbox_loc_flat"
  type: "Flatten"
  bottom: "conv6_2_mbox_loc_perm"
  top: "conv6_2_mbox_loc_flat"
  flatten_param {
    axis: 1
  }
}
layer {
  name: "conv6_2_mbox_conf"
  type: "Convolution"
  bottom: "conv6_2"
  top: "conv6_2_mbox_conf"
  param {
    lr_mult: 1
    decay_mult: 1
  }
  param {
    lr_mult: 2
    decay_mult: 0
  }
  convolution_param {
    num_output: 66
    pad: 1
    kernel_size: 3
    stride: 1
    weight_filler {
      type: "xavier"
    }
    bias_filler {
      type: "constant"
      value: 0
    }
  }
}
layer {
  name: "conv6_2_mbox_conf_perm"
  type: "Permute"
  bottom: "conv6_2_mbox_conf"
  top: "conv6_2_mbox_conf_perm"
  permute_param {
    order: 0
    order: 2
    order: 3
    order: 1
  }
}
layer {
  name: "conv6_2_mbox_conf_flat"
  type: "Flatten"
  bottom: "conv6_2_mbox_conf_perm"
  top: "conv6_2_mbox_conf_flat"
  flatten_param {
    axis: 1
  }
}
layer {
  name: "conv6_2_mbox_priorbox"
  type: "PriorBox"
  bottom: "conv6_2"
  bottom: "data"
  top: "conv6_2_mbox_priorbox"
  prior_box_param {
    min_size: 111
    max_size: 162
    aspect_ratio: 2
    aspect_ratio: 3
    flip: true
    clip: false
    variance: 0.1
    variance: 0.1
    variance: 0.2
    variance: 0.2
    step: 32
    offset: 0.5
  }
}
layer {
  name: "conv7_2_mbox_loc"
  type: "Convolution"
  bottom: "conv7_2"
  top: "conv7_2_mbox_loc"
  param {
    lr_mult: 1
    decay_mult: 1
  }
  param {
    lr_mult: 2
    decay_mult: 0
  }
  convolution_param {
    num_output: 24
    pad: 1
    kernel_size: 3
    stride: 1
    weight_filler {
      type: "xavier"
    }
    bias_filler {
      type: "constant"
      value: 0
    }
  }
}
layer {
  name: "conv7_2_mbox_loc_perm"
  type: "Permute"
  bottom: "conv7_2_mbox_loc"
  top: "conv7_2_mbox_loc_perm"
  permute_param {
    order: 0
    order: 2
    order: 3
    order: 1
  }
}
layer {
  name: "conv7_2_mbox_loc_flat"
  type: "Flatten"
  bottom: "conv7_2_mbox_loc_perm"
  top: "conv7_2_mbox_loc_flat"
  flatten_param {
    axis: 1
  }
}
layer {
  name: "conv7_2_mbox_conf"
  type: "Convolution"
  bottom: "conv7_2"
  top: "conv7_2_mbox_conf"
  param {
    lr_mult: 1
    decay_mult: 1
  }
  param {
    lr_mult: 2
    decay_mult: 0
  }
  convolution_param {
    num_output: 66
    pad: 1
    kernel_size: 3
    stride: 1
    weight_filler {
      type: "xavier"
    }
    bias_filler {
      type: "constant"
      value: 0
    }
  }
}
layer {
  name: "conv7_2_mbox_conf_perm"
  type: "Permute"
  bottom: "conv7_2_mbox_conf"
  top: "conv7_2_mbox_conf_perm"
  permute_param {
    order: 0
    order: 2
    order: 3
    order: 1
  }
}
layer {
  name: "conv7_2_mbox_conf_flat"
  type: "Flatten"
  bottom: "conv7_2_mbox_conf_perm"
  top: "conv7_2_mbox_conf_flat"
  flatten_param {
    axis: 1
  }
}
layer {
  name: "conv7_2_mbox_priorbox"
  type: "PriorBox"
  bottom: "conv7_2"
  bottom: "data"
  top: "conv7_2_mbox_priorbox"
  prior_box_param {
    min_size: 162
    max_size: 213
    aspect_ratio: 2
    aspect_ratio: 3
    flip: true
    clip: false
    variance: 0.1
    variance: 0.1
    variance: 0.2
    variance: 0.2
    step: 64
    offset: 0.5
  }
}
layer {
  name: "conv8_2_mbox_loc"
  type: "Convolution"
  bottom: "conv8_2"
  top: "conv8_2_mbox_loc"
  param {
    lr_mult: 1
    decay_mult: 1
  }
  param {
    lr_mult: 2
    decay_mult: 0
  }
  convolution_param {
    num_output: 16
    pad: 1
    kernel_size: 3
    stride: 1
    weight_filler {
      type: "xavier"
    }
    bias_filler {
      type: "constant"
      value: 0
    }
  }
}
layer {
  name: "conv8_2_mbox_loc_perm"
  type: "Permute"
  bottom: "conv8_2_mbox_loc"
  top: "conv8_2_mbox_loc_perm"
  permute_param {
    order: 0
    order: 2
    order: 3
    order: 1
  }
}
layer {
  name: "conv8_2_mbox_loc_flat"
  type: "Flatten"
  bottom: "conv8_2_mbox_loc_perm"
  top: "conv8_2_mbox_loc_flat"
  flatten_param {
    axis: 1
  }
}
layer {
  name: "conv8_2_mbox_conf"
  type: "Convolution"
  bottom: "conv8_2"
  top: "conv8_2_mbox_conf"
  param {
    lr_mult: 1
    decay_mult: 1
  }
  param {
    lr_mult: 2
    decay_mult: 0
  }
  convolution_param {
    num_output: 44
    pad: 1
    kernel_size: 3
    stride: 1
    weight_filler {
      type: "xavier"
    }
    bias_filler {
      type: "constant"
      value: 0
    }
  }
}
layer {
  name: "conv8_2_mbox_conf_perm"
  type: "Permute"
  bottom: "conv8_2_mbox_conf"
  top: "conv8_2_mbox_conf_perm"
  permute_param {
    order: 0
    order: 2
    order: 3
    order: 1
  }
}
layer {
  name: "conv8_2_mbox_conf_flat"
  type: "Flatten"
  bottom: "conv8_2_mbox_conf_perm"
  top: "conv8_2_mbox_conf_flat"
  flatten_param {
    axis: 1
  }
}
layer {
  name: "conv8_2_mbox_priorbox"
  type: "PriorBox"
  bottom: "conv8_2"
  bottom: "data"
  top: "conv8_2_mbox_priorbox"
  prior_box_param {
    min_size: 213
    max_size: 264
    aspect_ratio: 2
    flip: true
    clip: false
    variance: 0.1
    variance: 0.1
    variance: 0.2
    variance: 0.2
    step: 100
    offset: 0.5
  }
}
layer {
  name: "conv9_2_mbox_loc"
  type: "Convolution"
  bottom: "conv9_2"
  top: "conv9_2_mbox_loc"
  param {
    lr_mult: 1
    decay_mult: 1
  }
  param {
    lr_mult: 2
    decay_mult: 0
  }
  convolution_param {
    num_output: 16
    pad: 1
    kernel_size: 3
    stride: 1
    weight_filler {
      type: "xavier"
    }
    bias_filler {
      type: "constant"
      value: 0
    }
  }
}
layer {
  name: "conv9_2_mbox_loc_perm"
  type: "Permute"
  bottom: "conv9_2_mbox_loc"
  top: "conv9_2_mbox_loc_perm"
  permute_param {
    order: 0
    order: 2
    order: 3
    order: 1
  }
}
layer {
  name: "conv9_2_mbox_loc_flat"
  type: "Flatten"
  bottom: "conv9_2_mbox_loc_perm"
  top: "conv9_2_mbox_loc_flat"
  flatten_param {
    axis: 1
  }
}
layer {
  name: "conv9_2_mbox_conf"
  type: "Convolution"
  bottom: "conv9_2"
  top: "conv9_2_mbox_conf"
  param {
    lr_mult: 1
    decay_mult: 1
  }
  param {
    lr_mult: 2
    decay_mult: 0
  }
  convolution_param {
    num_output: 44
    pad: 1
    kernel_size: 3
    stride: 1
    weight_filler {
      type: "xavier"
    }
    bias_filler {
      type: "constant"
      value: 0
    }
  }
}
layer {
  name: "conv9_2_mbox_conf_perm"
  type: "Permute"
  bottom: "conv9_2_mbox_conf"
  top: "conv9_2_mbox_conf_perm"
  permute_param {
    order: 0
    order: 2
    order: 3
    order: 1
  }
}
layer {
  name: "conv9_2_mbox_conf_flat"
  type: "Flatten"
  bottom: "conv9_2_mbox_conf_perm"
  top: "conv9_2_mbox_conf_flat"
  flatten_param {
    axis: 1
  }
}
layer {
  name: "conv9_2_mbox_priorbox"
  type: "PriorBox"
  bottom: "conv9_2"
  bottom: "data"
  top: "conv9_2_mbox_priorbox"
  prior_box_param {
    min_size: 264
    max_size: 315
    aspect_ratio: 2
    flip: true
    clip: false
    variance: 0.1
    variance: 0.1
    variance: 0.2
    variance: 0.2
    step: 300
    offset: 0.5
  }
}
layer {
  name: "mbox_loc"
  type: "Concat"
  bottom: "conv4_3_norm_mbox_loc_flat"
  bottom: "fc7_mbox_loc_flat"
  bottom: "conv6_2_mbox_loc_flat"
  bottom: "conv7_2_mbox_loc_flat"
  bottom: "conv8_2_mbox_loc_flat"
  bottom: "conv9_2_mbox_loc_flat"
  top: "mbox_loc"
  concat_param {
    axis: 1
  }
}
layer {
  name: "mbox_conf"
  type: "Concat"
  bottom: "conv4_3_norm_mbox_conf_flat"
  bottom: "fc7_mbox_conf_flat"
  bottom: "conv6_2_mbox_conf_flat"
  bottom: "conv7_2_mbox_conf_flat"
  bottom: "conv8_2_mbox_conf_flat"
  bottom: "conv9_2_mbox_conf_flat"
  top: "mbox_conf"
  concat_param {
    axis: 1
  }
}
layer {
  name: "mbox_priorbox"
  type: "Concat"
  bottom: "conv4_3_norm_mbox_priorbox"
  bottom: "fc7_mbox_priorbox"
  bottom: "conv6_2_mbox_priorbox"
  bottom: "conv7_2_mbox_priorbox"
  bottom: "conv8_2_mbox_priorbox"
  bottom: "conv9_2_mbox_priorbox"
  top: "mbox_priorbox"
  concat_param {
    axis: 2
  }
}
layer {
  name: "mbox_conf_reshape"
  type: "Reshape"
  bottom: "mbox_conf"
  top: "mbox_conf_reshape"
  reshape_param {
    shape {
      dim: 0
      dim: -1
      dim: 11
    }
  }
}
layer {
  name: "mbox_conf_softmax"
  type: "Softmax"
  bottom: "mbox_conf_reshape"
  top: "mbox_conf_softmax"
  softmax_param {
    axis: 2
  }
}
layer {
  name: "mbox_conf_flatten"
  type: "Flatten"
  bottom: "mbox_conf_softmax"
  top: "mbox_conf_flatten"
  flatten_param {
    axis: 1
  }
}
layer {
  name: "detection_out"
  type: "DetectionOutput"
  bottom: "mbox_loc"
  bottom: "mbox_conf_flatten"
  bottom: "mbox_priorbox"
  top: "detection_out"
  include {
    phase: TEST
  }
  detection_output_param {
    num_classes: 11
    share_location: true
    background_label_id: 0
    nms_param {
      nms_threshold: 0.45
      top_k: 400
    }
    save_output_param {
      output_directory: "/home/zs/data/VOCdevkit/results/VOC2007/SSD_300x300_initial_0317/Main"
      output_name_prefix: "comp4_det_test_"
      output_format: "VOC"
      label_map_file: "data/NWPU_VHR/labelmap_NWPU_VHR.prototxt"
      name_size_file: "data/NWPU_VHR/test_name_size.txt"
      num_test_image: 123
    }
    code_type: CENTER_SIZE
    keep_top_k: 200
    confidence_threshold: 0.01
  }
}
layer {
  name: "detection_eval"
  type: "DetectionEvaluate"
  bottom: "detection_out"
  bottom: "label"
  top: "detection_eval"
  include {
    phase: TEST
  }
  detection_evaluate_param {
    num_classes: 11
    background_label_id: 0
    overlap_threshold: 0.5
    evaluate_difficult_gt: false
    name_size_file: "data/NWPU_VHR/test_name_size.txt"
  }
}
I0318 09:17:13.677445 28692 layer_factory.hpp:77] Creating layer data
I0318 09:17:13.677516 28692 net.cpp:100] Creating Layer data
I0318 09:17:13.677527 28692 net.cpp:408] data -> data
I0318 09:17:13.677541 28692 net.cpp:408] data -> label
I0318 09:17:13.679164 28708 db_lmdb.cpp:35] Opened lmdb examples/NWPU_VHR/NWPU_VHR_test_lmdb
I0318 09:17:13.689076 28692 annotated_data_layer.cpp:62] output data size: 1,3,300,300
I0318 09:17:13.692730 28692 net.cpp:150] Setting up data
I0318 09:17:13.692754 28692 net.cpp:157] Top shape: 1 3 300 300 (270000)
I0318 09:17:13.692759 28692 net.cpp:157] Top shape: 1 1 4 8 (32)
I0318 09:17:13.692761 28692 net.cpp:165] Memory required for data: 1080128
I0318 09:17:13.692770 28692 layer_factory.hpp:77] Creating layer data_data_0_split
I0318 09:17:13.692786 28692 net.cpp:100] Creating Layer data_data_0_split
I0318 09:17:13.692795 28692 net.cpp:434] data_data_0_split <- data
I0318 09:17:13.692803 28692 net.cpp:408] data_data_0_split -> data_data_0_split_0
I0318 09:17:13.692817 28692 net.cpp:408] data_data_0_split -> data_data_0_split_1
I0318 09:17:13.692827 28692 net.cpp:408] data_data_0_split -> data_data_0_split_2
I0318 09:17:13.692837 28692 net.cpp:408] data_data_0_split -> data_data_0_split_3
I0318 09:17:13.692844 28692 net.cpp:408] data_data_0_split -> data_data_0_split_4
I0318 09:17:13.692852 28692 net.cpp:408] data_data_0_split -> data_data_0_split_5
I0318 09:17:13.692862 28692 net.cpp:408] data_data_0_split -> data_data_0_split_6
I0318 09:17:13.693017 28692 net.cpp:150] Setting up data_data_0_split
I0318 09:17:13.693027 28692 net.cpp:157] Top shape: 1 3 300 300 (270000)
I0318 09:17:13.693032 28692 net.cpp:157] Top shape: 1 3 300 300 (270000)
I0318 09:17:13.693037 28692 net.cpp:157] Top shape: 1 3 300 300 (270000)
I0318 09:17:13.693043 28692 net.cpp:157] Top shape: 1 3 300 300 (270000)
I0318 09:17:13.693049 28692 net.cpp:157] Top shape: 1 3 300 300 (270000)
I0318 09:17:13.693054 28692 net.cpp:157] Top shape: 1 3 300 300 (270000)
I0318 09:17:13.693061 28692 net.cpp:157] Top shape: 1 3 300 300 (270000)
I0318 09:17:13.693066 28692 net.cpp:165] Memory required for data: 8640128
I0318 09:17:13.693073 28692 layer_factory.hpp:77] Creating layer conv1_1
I0318 09:17:13.693089 28692 net.cpp:100] Creating Layer conv1_1
I0318 09:17:13.693114 28692 net.cpp:434] conv1_1 <- data_data_0_split_0
I0318 09:17:13.693123 28692 net.cpp:408] conv1_1 -> conv1_1
I0318 09:17:13.695116 28692 net.cpp:150] Setting up conv1_1
I0318 09:17:13.695128 28692 net.cpp:157] Top shape: 1 64 300 300 (5760000)
I0318 09:17:13.695133 28692 net.cpp:165] Memory required for data: 31680128
I0318 09:17:13.695145 28692 layer_factory.hpp:77] Creating layer relu1_1
I0318 09:17:13.695154 28692 net.cpp:100] Creating Layer relu1_1
I0318 09:17:13.695159 28692 net.cpp:434] relu1_1 <- conv1_1
I0318 09:17:13.695168 28692 net.cpp:395] relu1_1 -> conv1_1 (in-place)
I0318 09:17:13.695355 28692 net.cpp:150] Setting up relu1_1
I0318 09:17:13.695365 28692 net.cpp:157] Top shape: 1 64 300 300 (5760000)
I0318 09:17:13.695370 28692 net.cpp:165] Memory required for data: 54720128
I0318 09:17:13.695376 28692 layer_factory.hpp:77] Creating layer conv1_2
I0318 09:17:13.695389 28692 net.cpp:100] Creating Layer conv1_2
I0318 09:17:13.695394 28692 net.cpp:434] conv1_2 <- conv1_1
I0318 09:17:13.695402 28692 net.cpp:408] conv1_2 -> conv1_2
I0318 09:17:13.696851 28692 net.cpp:150] Setting up conv1_2
I0318 09:17:13.696862 28692 net.cpp:157] Top shape: 1 64 300 300 (5760000)
I0318 09:17:13.696866 28692 net.cpp:165] Memory required for data: 77760128
I0318 09:17:13.696877 28692 layer_factory.hpp:77] Creating layer relu1_2
I0318 09:17:13.696885 28692 net.cpp:100] Creating Layer relu1_2
I0318 09:17:13.696890 28692 net.cpp:434] relu1_2 <- conv1_2
I0318 09:17:13.696897 28692 net.cpp:395] relu1_2 -> conv1_2 (in-place)
I0318 09:17:13.697074 28692 net.cpp:150] Setting up relu1_2
I0318 09:17:13.697084 28692 net.cpp:157] Top shape: 1 64 300 300 (5760000)
I0318 09:17:13.697088 28692 net.cpp:165] Memory required for data: 100800128
I0318 09:17:13.697091 28692 layer_factory.hpp:77] Creating layer pool1
I0318 09:17:13.697099 28692 net.cpp:100] Creating Layer pool1
I0318 09:17:13.697106 28692 net.cpp:434] pool1 <- conv1_2
I0318 09:17:13.697113 28692 net.cpp:408] pool1 -> pool1
I0318 09:17:13.697170 28692 net.cpp:150] Setting up pool1
I0318 09:17:13.697180 28692 net.cpp:157] Top shape: 1 64 150 150 (1440000)
I0318 09:17:13.697187 28692 net.cpp:165] Memory required for data: 106560128
I0318 09:17:13.697192 28692 layer_factory.hpp:77] Creating layer conv2_1
I0318 09:17:13.697203 28692 net.cpp:100] Creating Layer conv2_1
I0318 09:17:13.697208 28692 net.cpp:434] conv2_1 <- pool1
I0318 09:17:13.697217 28692 net.cpp:408] conv2_1 -> conv2_1
I0318 09:17:13.699287 28692 net.cpp:150] Setting up conv2_1
I0318 09:17:13.699301 28692 net.cpp:157] Top shape: 1 128 150 150 (2880000)
I0318 09:17:13.699304 28692 net.cpp:165] Memory required for data: 118080128
I0318 09:17:13.699316 28692 layer_factory.hpp:77] Creating layer relu2_1
I0318 09:17:13.699324 28692 net.cpp:100] Creating Layer relu2_1
I0318 09:17:13.699331 28692 net.cpp:434] relu2_1 <- conv2_1
I0318 09:17:13.699337 28692 net.cpp:395] relu2_1 -> conv2_1 (in-place)
I0318 09:17:13.700042 28692 net.cpp:150] Setting up relu2_1
I0318 09:17:13.700055 28692 net.cpp:157] Top shape: 1 128 150 150 (2880000)
I0318 09:17:13.700059 28692 net.cpp:165] Memory required for data: 129600128
I0318 09:17:13.700063 28692 layer_factory.hpp:77] Creating layer conv2_2
I0318 09:17:13.700076 28692 net.cpp:100] Creating Layer conv2_2
I0318 09:17:13.700081 28692 net.cpp:434] conv2_2 <- conv2_1
I0318 09:17:13.700090 28692 net.cpp:408] conv2_2 -> conv2_2
I0318 09:17:13.702530 28692 net.cpp:150] Setting up conv2_2
I0318 09:17:13.702544 28692 net.cpp:157] Top shape: 1 128 150 150 (2880000)
I0318 09:17:13.702548 28692 net.cpp:165] Memory required for data: 141120128
I0318 09:17:13.702558 28692 layer_factory.hpp:77] Creating layer relu2_2
I0318 09:17:13.702572 28692 net.cpp:100] Creating Layer relu2_2
I0318 09:17:13.702581 28692 net.cpp:434] relu2_2 <- conv2_2
I0318 09:17:13.702589 28692 net.cpp:395] relu2_2 -> conv2_2 (in-place)
I0318 09:17:13.702771 28692 net.cpp:150] Setting up relu2_2
I0318 09:17:13.702781 28692 net.cpp:157] Top shape: 1 128 150 150 (2880000)
I0318 09:17:13.702802 28692 net.cpp:165] Memory required for data: 152640128
I0318 09:17:13.702808 28692 layer_factory.hpp:77] Creating layer pool2
I0318 09:17:13.702818 28692 net.cpp:100] Creating Layer pool2
I0318 09:17:13.702824 28692 net.cpp:434] pool2 <- conv2_2
I0318 09:17:13.702833 28692 net.cpp:408] pool2 -> pool2
I0318 09:17:13.702893 28692 net.cpp:150] Setting up pool2
I0318 09:17:13.702904 28692 net.cpp:157] Top shape: 1 128 75 75 (720000)
I0318 09:17:13.702908 28692 net.cpp:165] Memory required for data: 155520128
I0318 09:17:13.702913 28692 layer_factory.hpp:77] Creating layer conv3_1
I0318 09:17:13.702924 28692 net.cpp:100] Creating Layer conv3_1
I0318 09:17:13.702930 28692 net.cpp:434] conv3_1 <- pool2
I0318 09:17:13.702939 28692 net.cpp:408] conv3_1 -> conv3_1
I0318 09:17:13.706843 28692 net.cpp:150] Setting up conv3_1
I0318 09:17:13.706861 28692 net.cpp:157] Top shape: 1 256 75 75 (1440000)
I0318 09:17:13.706864 28692 net.cpp:165] Memory required for data: 161280128
I0318 09:17:13.706876 28692 layer_factory.hpp:77] Creating layer relu3_1
I0318 09:17:13.706889 28692 net.cpp:100] Creating Layer relu3_1
I0318 09:17:13.706902 28692 net.cpp:434] relu3_1 <- conv3_1
I0318 09:17:13.706910 28692 net.cpp:395] relu3_1 -> conv3_1 (in-place)
I0318 09:17:13.707103 28692 net.cpp:150] Setting up relu3_1
I0318 09:17:13.707113 28692 net.cpp:157] Top shape: 1 256 75 75 (1440000)
I0318 09:17:13.707118 28692 net.cpp:165] Memory required for data: 167040128
I0318 09:17:13.707121 28692 layer_factory.hpp:77] Creating layer conv3_2
I0318 09:17:13.707132 28692 net.cpp:100] Creating Layer conv3_2
I0318 09:17:13.707139 28692 net.cpp:434] conv3_2 <- conv3_1
I0318 09:17:13.707147 28692 net.cpp:408] conv3_2 -> conv3_2
I0318 09:17:13.712251 28692 net.cpp:150] Setting up conv3_2
I0318 09:17:13.712270 28692 net.cpp:157] Top shape: 1 256 75 75 (1440000)
I0318 09:17:13.712275 28692 net.cpp:165] Memory required for data: 172800128
I0318 09:17:13.712285 28692 layer_factory.hpp:77] Creating layer relu3_2
I0318 09:17:13.712293 28692 net.cpp:100] Creating Layer relu3_2
I0318 09:17:13.712298 28692 net.cpp:434] relu3_2 <- conv3_2
I0318 09:17:13.712307 28692 net.cpp:395] relu3_2 -> conv3_2 (in-place)
I0318 09:17:13.712496 28692 net.cpp:150] Setting up relu3_2
I0318 09:17:13.712507 28692 net.cpp:157] Top shape: 1 256 75 75 (1440000)
I0318 09:17:13.712510 28692 net.cpp:165] Memory required for data: 178560128
I0318 09:17:13.712515 28692 layer_factory.hpp:77] Creating layer conv3_3
I0318 09:17:13.712532 28692 net.cpp:100] Creating Layer conv3_3
I0318 09:17:13.712539 28692 net.cpp:434] conv3_3 <- conv3_2
I0318 09:17:13.712548 28692 net.cpp:408] conv3_3 -> conv3_3
I0318 09:17:13.717746 28692 net.cpp:150] Setting up conv3_3
I0318 09:17:13.717767 28692 net.cpp:157] Top shape: 1 256 75 75 (1440000)
I0318 09:17:13.717770 28692 net.cpp:165] Memory required for data: 184320128
I0318 09:17:13.717779 28692 layer_factory.hpp:77] Creating layer relu3_3
I0318 09:17:13.717794 28692 net.cpp:100] Creating Layer relu3_3
I0318 09:17:13.717805 28692 net.cpp:434] relu3_3 <- conv3_3
I0318 09:17:13.717813 28692 net.cpp:395] relu3_3 -> conv3_3 (in-place)
I0318 09:17:13.718545 28692 net.cpp:150] Setting up relu3_3
I0318 09:17:13.718559 28692 net.cpp:157] Top shape: 1 256 75 75 (1440000)
I0318 09:17:13.718561 28692 net.cpp:165] Memory required for data: 190080128
I0318 09:17:13.718565 28692 layer_factory.hpp:77] Creating layer pool3
I0318 09:17:13.718575 28692 net.cpp:100] Creating Layer pool3
I0318 09:17:13.718580 28692 net.cpp:434] pool3 <- conv3_3
I0318 09:17:13.718588 28692 net.cpp:408] pool3 -> pool3
I0318 09:17:13.718653 28692 net.cpp:150] Setting up pool3
I0318 09:17:13.718663 28692 net.cpp:157] Top shape: 1 256 38 38 (369664)
I0318 09:17:13.718668 28692 net.cpp:165] Memory required for data: 191558784
I0318 09:17:13.718674 28692 layer_factory.hpp:77] Creating layer conv4_1
I0318 09:17:13.718686 28692 net.cpp:100] Creating Layer conv4_1
I0318 09:17:13.718691 28692 net.cpp:434] conv4_1 <- pool3
I0318 09:17:13.718701 28692 net.cpp:408] conv4_1 -> conv4_1
I0318 09:17:13.726941 28692 net.cpp:150] Setting up conv4_1
I0318 09:17:13.726979 28692 net.cpp:157] Top shape: 1 512 38 38 (739328)
I0318 09:17:13.726982 28692 net.cpp:165] Memory required for data: 194516096
I0318 09:17:13.726991 28692 layer_factory.hpp:77] Creating layer relu4_1
I0318 09:17:13.727003 28692 net.cpp:100] Creating Layer relu4_1
I0318 09:17:13.727013 28692 net.cpp:434] relu4_1 <- conv4_1
I0318 09:17:13.727022 28692 net.cpp:395] relu4_1 -> conv4_1 (in-place)
I0318 09:17:13.727216 28692 net.cpp:150] Setting up relu4_1
I0318 09:17:13.727226 28692 net.cpp:157] Top shape: 1 512 38 38 (739328)
I0318 09:17:13.727229 28692 net.cpp:165] Memory required for data: 197473408
I0318 09:17:13.727233 28692 layer_factory.hpp:77] Creating layer conv4_2
I0318 09:17:13.727247 28692 net.cpp:100] Creating Layer conv4_2
I0318 09:17:13.727252 28692 net.cpp:434] conv4_2 <- conv4_1
I0318 09:17:13.727262 28692 net.cpp:408] conv4_2 -> conv4_2
I0318 09:17:13.741171 28692 net.cpp:150] Setting up conv4_2
I0318 09:17:13.741196 28692 net.cpp:157] Top shape: 1 512 38 38 (739328)
I0318 09:17:13.741200 28692 net.cpp:165] Memory required for data: 200430720
I0318 09:17:13.741214 28692 layer_factory.hpp:77] Creating layer relu4_2
I0318 09:17:13.741227 28692 net.cpp:100] Creating Layer relu4_2
I0318 09:17:13.741240 28692 net.cpp:434] relu4_2 <- conv4_2
I0318 09:17:13.741251 28692 net.cpp:395] relu4_2 -> conv4_2 (in-place)
I0318 09:17:13.741447 28692 net.cpp:150] Setting up relu4_2
I0318 09:17:13.741457 28692 net.cpp:157] Top shape: 1 512 38 38 (739328)
I0318 09:17:13.741462 28692 net.cpp:165] Memory required for data: 203388032
I0318 09:17:13.741466 28692 layer_factory.hpp:77] Creating layer conv4_3
I0318 09:17:13.741479 28692 net.cpp:100] Creating Layer conv4_3
I0318 09:17:13.741485 28692 net.cpp:434] conv4_3 <- conv4_2
I0318 09:17:13.741494 28692 net.cpp:408] conv4_3 -> conv4_3
I0318 09:17:13.755430 28692 net.cpp:150] Setting up conv4_3
I0318 09:17:13.755452 28692 net.cpp:157] Top shape: 1 512 38 38 (739328)
I0318 09:17:13.755456 28692 net.cpp:165] Memory required for data: 206345344
I0318 09:17:13.755465 28692 layer_factory.hpp:77] Creating layer relu4_3
I0318 09:17:13.755476 28692 net.cpp:100] Creating Layer relu4_3
I0318 09:17:13.755482 28692 net.cpp:434] relu4_3 <- conv4_3
I0318 09:17:13.755491 28692 net.cpp:395] relu4_3 -> conv4_3 (in-place)
I0318 09:17:13.756232 28692 net.cpp:150] Setting up relu4_3
I0318 09:17:13.756244 28692 net.cpp:157] Top shape: 1 512 38 38 (739328)
I0318 09:17:13.756247 28692 net.cpp:165] Memory required for data: 209302656
I0318 09:17:13.756253 28692 layer_factory.hpp:77] Creating layer conv4_3_relu4_3_0_split
I0318 09:17:13.756261 28692 net.cpp:100] Creating Layer conv4_3_relu4_3_0_split
I0318 09:17:13.756266 28692 net.cpp:434] conv4_3_relu4_3_0_split <- conv4_3
I0318 09:17:13.756274 28692 net.cpp:408] conv4_3_relu4_3_0_split -> conv4_3_relu4_3_0_split_0
I0318 09:17:13.756285 28692 net.cpp:408] conv4_3_relu4_3_0_split -> conv4_3_relu4_3_0_split_1
I0318 09:17:13.756346 28692 net.cpp:150] Setting up conv4_3_relu4_3_0_split
I0318 09:17:13.756356 28692 net.cpp:157] Top shape: 1 512 38 38 (739328)
I0318 09:17:13.756362 28692 net.cpp:157] Top shape: 1 512 38 38 (739328)
I0318 09:17:13.756368 28692 net.cpp:165] Memory required for data: 215217280
I0318 09:17:13.756377 28692 layer_factory.hpp:77] Creating layer pool4
I0318 09:17:13.756387 28692 net.cpp:100] Creating Layer pool4
I0318 09:17:13.756394 28692 net.cpp:434] pool4 <- conv4_3_relu4_3_0_split_0
I0318 09:17:13.756402 28692 net.cpp:408] pool4 -> pool4
I0318 09:17:13.756458 28692 net.cpp:150] Setting up pool4
I0318 09:17:13.756469 28692 net.cpp:157] Top shape: 1 512 19 19 (184832)
I0318 09:17:13.756474 28692 net.cpp:165] Memory required for data: 215956608
I0318 09:17:13.756477 28692 layer_factory.hpp:77] Creating layer conv5_1
I0318 09:17:13.756491 28692 net.cpp:100] Creating Layer conv5_1
I0318 09:17:13.756497 28692 net.cpp:434] conv5_1 <- pool4
I0318 09:17:13.756505 28692 net.cpp:408] conv5_1 -> conv5_1
I0318 09:17:13.770625 28692 net.cpp:150] Setting up conv5_1
I0318 09:17:13.770648 28692 net.cpp:157] Top shape: 1 512 19 19 (184832)
I0318 09:17:13.770673 28692 net.cpp:165] Memory required for data: 216695936
I0318 09:17:13.770694 28692 layer_factory.hpp:77] Creating layer relu5_1
I0318 09:17:13.770709 28692 net.cpp:100] Creating Layer relu5_1
I0318 09:17:13.770716 28692 net.cpp:434] relu5_1 <- conv5_1
I0318 09:17:13.770725 28692 net.cpp:395] relu5_1 -> conv5_1 (in-place)
I0318 09:17:13.770908 28692 net.cpp:150] Setting up relu5_1
I0318 09:17:13.770917 28692 net.cpp:157] Top shape: 1 512 19 19 (184832)
I0318 09:17:13.770921 28692 net.cpp:165] Memory required for data: 217435264
I0318 09:17:13.770926 28692 layer_factory.hpp:77] Creating layer conv5_2
I0318 09:17:13.770941 28692 net.cpp:100] Creating Layer conv5_2
I0318 09:17:13.770946 28692 net.cpp:434] conv5_2 <- conv5_1
I0318 09:17:13.770954 28692 net.cpp:408] conv5_2 -> conv5_2
I0318 09:17:13.785048 28692 net.cpp:150] Setting up conv5_2
I0318 09:17:13.785073 28692 net.cpp:157] Top shape: 1 512 19 19 (184832)
I0318 09:17:13.785078 28692 net.cpp:165] Memory required for data: 218174592
I0318 09:17:13.785087 28692 layer_factory.hpp:77] Creating layer relu5_2
I0318 09:17:13.785102 28692 net.cpp:100] Creating Layer relu5_2
I0318 09:17:13.785112 28692 net.cpp:434] relu5_2 <- conv5_2
I0318 09:17:13.785123 28692 net.cpp:395] relu5_2 -> conv5_2 (in-place)
I0318 09:17:13.785320 28692 net.cpp:150] Setting up relu5_2
I0318 09:17:13.785331 28692 net.cpp:157] Top shape: 1 512 19 19 (184832)
I0318 09:17:13.785333 28692 net.cpp:165] Memory required for data: 218913920
I0318 09:17:13.785338 28692 layer_factory.hpp:77] Creating layer conv5_3
I0318 09:17:13.785353 28692 net.cpp:100] Creating Layer conv5_3
I0318 09:17:13.785360 28692 net.cpp:434] conv5_3 <- conv5_2
I0318 09:17:13.785369 28692 net.cpp:408] conv5_3 -> conv5_3
I0318 09:17:13.799412 28692 net.cpp:150] Setting up conv5_3
I0318 09:17:13.799438 28692 net.cpp:157] Top shape: 1 512 19 19 (184832)
I0318 09:17:13.799443 28692 net.cpp:165] Memory required for data: 219653248
I0318 09:17:13.799453 28692 layer_factory.hpp:77] Creating layer relu5_3
I0318 09:17:13.799469 28692 net.cpp:100] Creating Layer relu5_3
I0318 09:17:13.799479 28692 net.cpp:434] relu5_3 <- conv5_3
I0318 09:17:13.799487 28692 net.cpp:395] relu5_3 -> conv5_3 (in-place)
I0318 09:17:13.800249 28692 net.cpp:150] Setting up relu5_3
I0318 09:17:13.800261 28692 net.cpp:157] Top shape: 1 512 19 19 (184832)
I0318 09:17:13.800266 28692 net.cpp:165] Memory required for data: 220392576
I0318 09:17:13.800272 28692 layer_factory.hpp:77] Creating layer pool5
I0318 09:17:13.800282 28692 net.cpp:100] Creating Layer pool5
I0318 09:17:13.800287 28692 net.cpp:434] pool5 <- conv5_3
I0318 09:17:13.800297 28692 net.cpp:408] pool5 -> pool5
I0318 09:17:13.800367 28692 net.cpp:150] Setting up pool5
I0318 09:17:13.800379 28692 net.cpp:157] Top shape: 1 512 19 19 (184832)
I0318 09:17:13.800384 28692 net.cpp:165] Memory required for data: 221131904
I0318 09:17:13.800388 28692 layer_factory.hpp:77] Creating layer fc6
I0318 09:17:13.800405 28692 net.cpp:100] Creating Layer fc6
I0318 09:17:13.800412 28692 net.cpp:434] fc6 <- pool5
I0318 09:17:13.800423 28692 net.cpp:408] fc6 -> fc6
I0318 09:17:13.825358 28692 net.cpp:150] Setting up fc6
I0318 09:17:13.825387 28692 net.cpp:157] Top shape: 1 1024 19 19 (369664)
I0318 09:17:13.825390 28692 net.cpp:165] Memory required for data: 222610560
I0318 09:17:13.825399 28692 layer_factory.hpp:77] Creating layer relu6
I0318 09:17:13.825412 28692 net.cpp:100] Creating Layer relu6
I0318 09:17:13.825425 28692 net.cpp:434] relu6 <- fc6
I0318 09:17:13.825438 28692 net.cpp:395] relu6 -> fc6 (in-place)
I0318 09:17:13.825702 28692 net.cpp:150] Setting up relu6
I0318 09:17:13.825713 28692 net.cpp:157] Top shape: 1 1024 19 19 (369664)
I0318 09:17:13.825717 28692 net.cpp:165] Memory required for data: 224089216
I0318 09:17:13.825721 28692 layer_factory.hpp:77] Creating layer fc7
I0318 09:17:13.825753 28692 net.cpp:100] Creating Layer fc7
I0318 09:17:13.825762 28692 net.cpp:434] fc7 <- fc6
I0318 09:17:13.825773 28692 net.cpp:408] fc7 -> fc7
I0318 09:17:13.833034 28692 net.cpp:150] Setting up fc7
I0318 09:17:13.833056 28692 net.cpp:157] Top shape: 1 1024 19 19 (369664)
I0318 09:17:13.833061 28692 net.cpp:165] Memory required for data: 225567872
I0318 09:17:13.833070 28692 layer_factory.hpp:77] Creating layer relu7
I0318 09:17:13.833082 28692 net.cpp:100] Creating Layer relu7
I0318 09:17:13.833088 28692 net.cpp:434] relu7 <- fc7
I0318 09:17:13.833098 28692 net.cpp:395] relu7 -> fc7 (in-place)
I0318 09:17:13.833290 28692 net.cpp:150] Setting up relu7
I0318 09:17:13.833300 28692 net.cpp:157] Top shape: 1 1024 19 19 (369664)
I0318 09:17:13.833304 28692 net.cpp:165] Memory required for data: 227046528
I0318 09:17:13.833309 28692 layer_factory.hpp:77] Creating layer fc7_relu7_0_split
I0318 09:17:13.833319 28692 net.cpp:100] Creating Layer fc7_relu7_0_split
I0318 09:17:13.833324 28692 net.cpp:434] fc7_relu7_0_split <- fc7
I0318 09:17:13.833333 28692 net.cpp:408] fc7_relu7_0_split -> fc7_relu7_0_split_0
I0318 09:17:13.833343 28692 net.cpp:408] fc7_relu7_0_split -> fc7_relu7_0_split_1
I0318 09:17:13.833361 28692 net.cpp:408] fc7_relu7_0_split -> fc7_relu7_0_split_2
I0318 09:17:13.833371 28692 net.cpp:408] fc7_relu7_0_split -> fc7_relu7_0_split_3
I0318 09:17:13.833468 28692 net.cpp:150] Setting up fc7_relu7_0_split
I0318 09:17:13.833477 28692 net.cpp:157] Top shape: 1 1024 19 19 (369664)
I0318 09:17:13.833483 28692 net.cpp:157] Top shape: 1 1024 19 19 (369664)
I0318 09:17:13.833488 28692 net.cpp:157] Top shape: 1 1024 19 19 (369664)
I0318 09:17:13.833493 28692 net.cpp:157] Top shape: 1 1024 19 19 (369664)
I0318 09:17:13.833498 28692 net.cpp:165] Memory required for data: 232961152
I0318 09:17:13.833504 28692 layer_factory.hpp:77] Creating layer conv6_1
I0318 09:17:13.833518 28692 net.cpp:100] Creating Layer conv6_1
I0318 09:17:13.833524 28692 net.cpp:434] conv6_1 <- fc7_relu7_0_split_0
I0318 09:17:13.833534 28692 net.cpp:408] conv6_1 -> conv6_1
I0318 09:17:13.837357 28692 net.cpp:150] Setting up conv6_1
I0318 09:17:13.837370 28692 net.cpp:157] Top shape: 1 256 19 19 (92416)
I0318 09:17:13.837373 28692 net.cpp:165] Memory required for data: 233330816
I0318 09:17:13.837381 28692 layer_factory.hpp:77] Creating layer conv6_1_relu
I0318 09:17:13.837388 28692 net.cpp:100] Creating Layer conv6_1_relu
I0318 09:17:13.837393 28692 net.cpp:434] conv6_1_relu <- conv6_1
I0318 09:17:13.837401 28692 net.cpp:395] conv6_1_relu -> conv6_1 (in-place)
I0318 09:17:13.837595 28692 net.cpp:150] Setting up conv6_1_relu
I0318 09:17:13.837606 28692 net.cpp:157] Top shape: 1 256 19 19 (92416)
I0318 09:17:13.837610 28692 net.cpp:165] Memory required for data: 233700480
I0318 09:17:13.837613 28692 layer_factory.hpp:77] Creating layer conv6_2
I0318 09:17:13.837627 28692 net.cpp:100] Creating Layer conv6_2
I0318 09:17:13.837635 28692 net.cpp:434] conv6_2 <- conv6_1
I0318 09:17:13.837644 28692 net.cpp:408] conv6_2 -> conv6_2
I0318 09:17:13.846041 28692 net.cpp:150] Setting up conv6_2
I0318 09:17:13.846065 28692 net.cpp:157] Top shape: 1 512 10 10 (51200)
I0318 09:17:13.846069 28692 net.cpp:165] Memory required for data: 233905280
I0318 09:17:13.846088 28692 layer_factory.hpp:77] Creating layer conv6_2_relu
I0318 09:17:13.846102 28692 net.cpp:100] Creating Layer conv6_2_relu
I0318 09:17:13.846112 28692 net.cpp:434] conv6_2_relu <- conv6_2
I0318 09:17:13.846122 28692 net.cpp:395] conv6_2_relu -> conv6_2 (in-place)
I0318 09:17:13.846889 28692 net.cpp:150] Setting up conv6_2_relu
I0318 09:17:13.846900 28692 net.cpp:157] Top shape: 1 512 10 10 (51200)
I0318 09:17:13.846904 28692 net.cpp:165] Memory required for data: 234110080
I0318 09:17:13.846909 28692 layer_factory.hpp:77] Creating layer conv6_2_conv6_2_relu_0_split
I0318 09:17:13.846917 28692 net.cpp:100] Creating Layer conv6_2_conv6_2_relu_0_split
I0318 09:17:13.846925 28692 net.cpp:434] conv6_2_conv6_2_relu_0_split <- conv6_2
I0318 09:17:13.846936 28692 net.cpp:408] conv6_2_conv6_2_relu_0_split -> conv6_2_conv6_2_relu_0_split_0
I0318 09:17:13.846951 28692 net.cpp:408] conv6_2_conv6_2_relu_0_split -> conv6_2_conv6_2_relu_0_split_1
I0318 09:17:13.846961 28692 net.cpp:408] conv6_2_conv6_2_relu_0_split -> conv6_2_conv6_2_relu_0_split_2
I0318 09:17:13.846985 28692 net.cpp:408] conv6_2_conv6_2_relu_0_split -> conv6_2_conv6_2_relu_0_split_3
I0318 09:17:13.847100 28692 net.cpp:150] Setting up conv6_2_conv6_2_relu_0_split
I0318 09:17:13.847110 28692 net.cpp:157] Top shape: 1 512 10 10 (51200)
I0318 09:17:13.847115 28692 net.cpp:157] Top shape: 1 512 10 10 (51200)
I0318 09:17:13.847121 28692 net.cpp:157] Top shape: 1 512 10 10 (51200)
I0318 09:17:13.847127 28692 net.cpp:157] Top shape: 1 512 10 10 (51200)
I0318 09:17:13.847133 28692 net.cpp:165] Memory required for data: 234929280
I0318 09:17:13.847138 28692 layer_factory.hpp:77] Creating layer conv7_1
I0318 09:17:13.847157 28692 net.cpp:100] Creating Layer conv7_1
I0318 09:17:13.847164 28692 net.cpp:434] conv7_1 <- conv6_2_conv6_2_relu_0_split_0
I0318 09:17:13.847173 28692 net.cpp:408] conv7_1 -> conv7_1
I0318 09:17:13.848841 28692 net.cpp:150] Setting up conv7_1
I0318 09:17:13.848855 28692 net.cpp:157] Top shape: 1 128 10 10 (12800)
I0318 09:17:13.848860 28692 net.cpp:165] Memory required for data: 234980480
I0318 09:17:13.848868 28692 layer_factory.hpp:77] Creating layer conv7_1_relu
I0318 09:17:13.848879 28692 net.cpp:100] Creating Layer conv7_1_relu
I0318 09:17:13.848886 28692 net.cpp:434] conv7_1_relu <- conv7_1
I0318 09:17:13.848893 28692 net.cpp:395] conv7_1_relu -> conv7_1 (in-place)
I0318 09:17:13.849092 28692 net.cpp:150] Setting up conv7_1_relu
I0318 09:17:13.849102 28692 net.cpp:157] Top shape: 1 128 10 10 (12800)
I0318 09:17:13.849107 28692 net.cpp:165] Memory required for data: 235031680
I0318 09:17:13.849112 28692 layer_factory.hpp:77] Creating layer conv7_2
I0318 09:17:13.849126 28692 net.cpp:100] Creating Layer conv7_2
I0318 09:17:13.849133 28692 net.cpp:434] conv7_2 <- conv7_1
I0318 09:17:13.849143 28692 net.cpp:408] conv7_2 -> conv7_2
I0318 09:17:13.852644 28692 net.cpp:150] Setting up conv7_2
I0318 09:17:13.852664 28692 net.cpp:157] Top shape: 1 256 5 5 (6400)
I0318 09:17:13.852668 28692 net.cpp:165] Memory required for data: 235057280
I0318 09:17:13.852677 28692 layer_factory.hpp:77] Creating layer conv7_2_relu
I0318 09:17:13.852689 28692 net.cpp:100] Creating Layer conv7_2_relu
I0318 09:17:13.852699 28692 net.cpp:434] conv7_2_relu <- conv7_2
I0318 09:17:13.852705 28692 net.cpp:395] conv7_2_relu -> conv7_2 (in-place)
I0318 09:17:13.852906 28692 net.cpp:150] Setting up conv7_2_relu
I0318 09:17:13.852916 28692 net.cpp:157] Top shape: 1 256 5 5 (6400)
I0318 09:17:13.852921 28692 net.cpp:165] Memory required for data: 235082880
I0318 09:17:13.852926 28692 layer_factory.hpp:77] Creating layer conv7_2_conv7_2_relu_0_split
I0318 09:17:13.852936 28692 net.cpp:100] Creating Layer conv7_2_conv7_2_relu_0_split
I0318 09:17:13.852943 28692 net.cpp:434] conv7_2_conv7_2_relu_0_split <- conv7_2
I0318 09:17:13.852952 28692 net.cpp:408] conv7_2_conv7_2_relu_0_split -> conv7_2_conv7_2_relu_0_split_0
I0318 09:17:13.852963 28692 net.cpp:408] conv7_2_conv7_2_relu_0_split -> conv7_2_conv7_2_relu_0_split_1
I0318 09:17:13.852973 28692 net.cpp:408] conv7_2_conv7_2_relu_0_split -> conv7_2_conv7_2_relu_0_split_2
I0318 09:17:13.852982 28692 net.cpp:408] conv7_2_conv7_2_relu_0_split -> conv7_2_conv7_2_relu_0_split_3
I0318 09:17:13.853091 28692 net.cpp:150] Setting up conv7_2_conv7_2_relu_0_split
I0318 09:17:13.853103 28692 net.cpp:157] Top shape: 1 256 5 5 (6400)
I0318 09:17:13.853109 28692 net.cpp:157] Top shape: 1 256 5 5 (6400)
I0318 09:17:13.853117 28692 net.cpp:157] Top shape: 1 256 5 5 (6400)
I0318 09:17:13.853123 28692 net.cpp:157] Top shape: 1 256 5 5 (6400)
I0318 09:17:13.853128 28692 net.cpp:165] Memory required for data: 235185280
I0318 09:17:13.853133 28692 layer_factory.hpp:77] Creating layer conv8_1
I0318 09:17:13.853147 28692 net.cpp:100] Creating Layer conv8_1
I0318 09:17:13.853157 28692 net.cpp:434] conv8_1 <- conv7_2_conv7_2_relu_0_split_0
I0318 09:17:13.853165 28692 net.cpp:408] conv8_1 -> conv8_1
I0318 09:17:13.854707 28692 net.cpp:150] Setting up conv8_1
I0318 09:17:13.854719 28692 net.cpp:157] Top shape: 1 128 5 5 (3200)
I0318 09:17:13.854739 28692 net.cpp:165] Memory required for data: 235198080
I0318 09:17:13.854750 28692 layer_factory.hpp:77] Creating layer conv8_1_relu
I0318 09:17:13.854761 28692 net.cpp:100] Creating Layer conv8_1_relu
I0318 09:17:13.854768 28692 net.cpp:434] conv8_1_relu <- conv8_1
I0318 09:17:13.854776 28692 net.cpp:395] conv8_1_relu -> conv8_1 (in-place)
I0318 09:17:13.855530 28692 net.cpp:150] Setting up conv8_1_relu
I0318 09:17:13.855541 28692 net.cpp:157] Top shape: 1 128 5 5 (3200)
I0318 09:17:13.855545 28692 net.cpp:165] Memory required for data: 235210880
I0318 09:17:13.855551 28692 layer_factory.hpp:77] Creating layer conv8_2
I0318 09:17:13.855564 28692 net.cpp:100] Creating Layer conv8_2
I0318 09:17:13.855571 28692 net.cpp:434] conv8_2 <- conv8_1
I0318 09:17:13.855581 28692 net.cpp:408] conv8_2 -> conv8_2
I0318 09:17:13.859751 28692 net.cpp:150] Setting up conv8_2
I0318 09:17:13.859766 28692 net.cpp:157] Top shape: 1 256 3 3 (2304)
I0318 09:17:13.859771 28692 net.cpp:165] Memory required for data: 235220096
I0318 09:17:13.859779 28692 layer_factory.hpp:77] Creating layer conv8_2_relu
I0318 09:17:13.859797 28692 net.cpp:100] Creating Layer conv8_2_relu
I0318 09:17:13.859804 28692 net.cpp:434] conv8_2_relu <- conv8_2
I0318 09:17:13.859812 28692 net.cpp:395] conv8_2_relu -> conv8_2 (in-place)
I0318 09:17:13.860014 28692 net.cpp:150] Setting up conv8_2_relu
I0318 09:17:13.860024 28692 net.cpp:157] Top shape: 1 256 3 3 (2304)
I0318 09:17:13.860028 28692 net.cpp:165] Memory required for data: 235229312
I0318 09:17:13.860033 28692 layer_factory.hpp:77] Creating layer conv8_2_conv8_2_relu_0_split
I0318 09:17:13.860044 28692 net.cpp:100] Creating Layer conv8_2_conv8_2_relu_0_split
I0318 09:17:13.860052 28692 net.cpp:434] conv8_2_conv8_2_relu_0_split <- conv8_2
I0318 09:17:13.860060 28692 net.cpp:408] conv8_2_conv8_2_relu_0_split -> conv8_2_conv8_2_relu_0_split_0
I0318 09:17:13.860071 28692 net.cpp:408] conv8_2_conv8_2_relu_0_split -> conv8_2_conv8_2_relu_0_split_1
I0318 09:17:13.860082 28692 net.cpp:408] conv8_2_conv8_2_relu_0_split -> conv8_2_conv8_2_relu_0_split_2
I0318 09:17:13.860090 28692 net.cpp:408] conv8_2_conv8_2_relu_0_split -> conv8_2_conv8_2_relu_0_split_3
I0318 09:17:13.860200 28692 net.cpp:150] Setting up conv8_2_conv8_2_relu_0_split
I0318 09:17:13.860213 28692 net.cpp:157] Top shape: 1 256 3 3 (2304)
I0318 09:17:13.860219 28692 net.cpp:157] Top shape: 1 256 3 3 (2304)
I0318 09:17:13.860227 28692 net.cpp:157] Top shape: 1 256 3 3 (2304)
I0318 09:17:13.860234 28692 net.cpp:157] Top shape: 1 256 3 3 (2304)
I0318 09:17:13.860239 28692 net.cpp:165] Memory required for data: 235266176
I0318 09:17:13.860245 28692 layer_factory.hpp:77] Creating layer conv9_1
I0318 09:17:13.860260 28692 net.cpp:100] Creating Layer conv9_1
I0318 09:17:13.860267 28692 net.cpp:434] conv9_1 <- conv8_2_conv8_2_relu_0_split_0
I0318 09:17:13.860276 28692 net.cpp:408] conv9_1 -> conv9_1
I0318 09:17:13.862964 28692 net.cpp:150] Setting up conv9_1
I0318 09:17:13.862983 28692 net.cpp:157] Top shape: 1 128 3 3 (1152)
I0318 09:17:13.862987 28692 net.cpp:165] Memory required for data: 235270784
I0318 09:17:13.862998 28692 layer_factory.hpp:77] Creating layer conv9_1_relu
I0318 09:17:13.863011 28692 net.cpp:100] Creating Layer conv9_1_relu
I0318 09:17:13.863023 28692 net.cpp:434] conv9_1_relu <- conv9_1
I0318 09:17:13.863032 28692 net.cpp:395] conv9_1_relu -> conv9_1 (in-place)
I0318 09:17:13.863247 28692 net.cpp:150] Setting up conv9_1_relu
I0318 09:17:13.863257 28692 net.cpp:157] Top shape: 1 128 3 3 (1152)
I0318 09:17:13.863261 28692 net.cpp:165] Memory required for data: 235275392
I0318 09:17:13.863266 28692 layer_factory.hpp:77] Creating layer conv9_2
I0318 09:17:13.863281 28692 net.cpp:100] Creating Layer conv9_2
I0318 09:17:13.863289 28692 net.cpp:434] conv9_2 <- conv9_1
I0318 09:17:13.863301 28692 net.cpp:408] conv9_2 -> conv9_2
I0318 09:17:13.867302 28692 net.cpp:150] Setting up conv9_2
I0318 09:17:13.867317 28692 net.cpp:157] Top shape: 1 256 1 1 (256)
I0318 09:17:13.867321 28692 net.cpp:165] Memory required for data: 235276416
I0318 09:17:13.867352 28692 layer_factory.hpp:77] Creating layer conv9_2_relu
I0318 09:17:13.867362 28692 net.cpp:100] Creating Layer conv9_2_relu
I0318 09:17:13.867370 28692 net.cpp:434] conv9_2_relu <- conv9_2
I0318 09:17:13.867379 28692 net.cpp:395] conv9_2_relu -> conv9_2 (in-place)
I0318 09:17:13.868151 28692 net.cpp:150] Setting up conv9_2_relu
I0318 09:17:13.868163 28692 net.cpp:157] Top shape: 1 256 1 1 (256)
I0318 09:17:13.868166 28692 net.cpp:165] Memory required for data: 235277440
I0318 09:17:13.868171 28692 layer_factory.hpp:77] Creating layer conv9_2_conv9_2_relu_0_split
I0318 09:17:13.868182 28692 net.cpp:100] Creating Layer conv9_2_conv9_2_relu_0_split
I0318 09:17:13.868189 28692 net.cpp:434] conv9_2_conv9_2_relu_0_split <- conv9_2
I0318 09:17:13.868199 28692 net.cpp:408] conv9_2_conv9_2_relu_0_split -> conv9_2_conv9_2_relu_0_split_0
I0318 09:17:13.868211 28692 net.cpp:408] conv9_2_conv9_2_relu_0_split -> conv9_2_conv9_2_relu_0_split_1
I0318 09:17:13.868224 28692 net.cpp:408] conv9_2_conv9_2_relu_0_split -> conv9_2_conv9_2_relu_0_split_2
I0318 09:17:13.868317 28692 net.cpp:150] Setting up conv9_2_conv9_2_relu_0_split
I0318 09:17:13.868324 28692 net.cpp:157] Top shape: 1 256 1 1 (256)
I0318 09:17:13.868330 28692 net.cpp:157] Top shape: 1 256 1 1 (256)
I0318 09:17:13.868335 28692 net.cpp:157] Top shape: 1 256 1 1 (256)
I0318 09:17:13.868341 28692 net.cpp:165] Memory required for data: 235280512
I0318 09:17:13.868347 28692 layer_factory.hpp:77] Creating layer conv4_3_norm
I0318 09:17:13.868360 28692 net.cpp:100] Creating Layer conv4_3_norm
I0318 09:17:13.868368 28692 net.cpp:434] conv4_3_norm <- conv4_3_relu4_3_0_split_1
I0318 09:17:13.868378 28692 net.cpp:408] conv4_3_norm -> conv4_3_norm
I0318 09:17:13.868580 28692 net.cpp:150] Setting up conv4_3_norm
I0318 09:17:13.868589 28692 net.cpp:157] Top shape: 1 512 38 38 (739328)
I0318 09:17:13.868593 28692 net.cpp:165] Memory required for data: 238237824
I0318 09:17:13.868602 28692 layer_factory.hpp:77] Creating layer conv4_3_norm_conv4_3_norm_0_split
I0318 09:17:13.868613 28692 net.cpp:100] Creating Layer conv4_3_norm_conv4_3_norm_0_split
I0318 09:17:13.868621 28692 net.cpp:434] conv4_3_norm_conv4_3_norm_0_split <- conv4_3_norm
I0318 09:17:13.868630 28692 net.cpp:408] conv4_3_norm_conv4_3_norm_0_split -> conv4_3_norm_conv4_3_norm_0_split_0
I0318 09:17:13.868640 28692 net.cpp:408] conv4_3_norm_conv4_3_norm_0_split -> conv4_3_norm_conv4_3_norm_0_split_1
I0318 09:17:13.868650 28692 net.cpp:408] conv4_3_norm_conv4_3_norm_0_split -> conv4_3_norm_conv4_3_norm_0_split_2
I0318 09:17:13.868727 28692 net.cpp:150] Setting up conv4_3_norm_conv4_3_norm_0_split
I0318 09:17:13.868737 28692 net.cpp:157] Top shape: 1 512 38 38 (739328)
I0318 09:17:13.868742 28692 net.cpp:157] Top shape: 1 512 38 38 (739328)
I0318 09:17:13.868748 28692 net.cpp:157] Top shape: 1 512 38 38 (739328)
I0318 09:17:13.868754 28692 net.cpp:165] Memory required for data: 247109760
I0318 09:17:13.868760 28692 layer_factory.hpp:77] Creating layer conv4_3_norm_mbox_loc
I0318 09:17:13.868777 28692 net.cpp:100] Creating Layer conv4_3_norm_mbox_loc
I0318 09:17:13.868783 28692 net.cpp:434] conv4_3_norm_mbox_loc <- conv4_3_norm_conv4_3_norm_0_split_0
I0318 09:17:13.868794 28692 net.cpp:408] conv4_3_norm_mbox_loc -> conv4_3_norm_mbox_loc
I0318 09:17:13.871069 28692 net.cpp:150] Setting up conv4_3_norm_mbox_loc
I0318 09:17:13.871081 28692 net.cpp:157] Top shape: 1 16 38 38 (23104)
I0318 09:17:13.871086 28692 net.cpp:165] Memory required for data: 247202176
I0318 09:17:13.871094 28692 layer_factory.hpp:77] Creating layer conv4_3_norm_mbox_loc_perm
I0318 09:17:13.871106 28692 net.cpp:100] Creating Layer conv4_3_norm_mbox_loc_perm
I0318 09:17:13.871114 28692 net.cpp:434] conv4_3_norm_mbox_loc_perm <- conv4_3_norm_mbox_loc
I0318 09:17:13.871124 28692 net.cpp:408] conv4_3_norm_mbox_loc_perm -> conv4_3_norm_mbox_loc_perm
I0318 09:17:13.871271 28692 net.cpp:150] Setting up conv4_3_norm_mbox_loc_perm
I0318 09:17:13.871280 28692 net.cpp:157] Top shape: 1 38 38 16 (23104)
I0318 09:17:13.871284 28692 net.cpp:165] Memory required for data: 247294592
I0318 09:17:13.871300 28692 layer_factory.hpp:77] Creating layer conv4_3_norm_mbox_loc_flat
I0318 09:17:13.871311 28692 net.cpp:100] Creating Layer conv4_3_norm_mbox_loc_flat
I0318 09:17:13.871317 28692 net.cpp:434] conv4_3_norm_mbox_loc_flat <- conv4_3_norm_mbox_loc_perm
I0318 09:17:13.871328 28692 net.cpp:408] conv4_3_norm_mbox_loc_flat -> conv4_3_norm_mbox_loc_flat
I0318 09:17:13.871385 28692 net.cpp:150] Setting up conv4_3_norm_mbox_loc_flat
I0318 09:17:13.871397 28692 net.cpp:157] Top shape: 1 23104 (23104)
I0318 09:17:13.871402 28692 net.cpp:165] Memory required for data: 247387008
I0318 09:17:13.871407 28692 layer_factory.hpp:77] Creating layer conv4_3_norm_mbox_conf
I0318 09:17:13.871428 28692 net.cpp:100] Creating Layer conv4_3_norm_mbox_conf
I0318 09:17:13.871435 28692 net.cpp:434] conv4_3_norm_mbox_conf <- conv4_3_norm_conv4_3_norm_0_split_1
I0318 09:17:13.871444 28692 net.cpp:408] conv4_3_norm_mbox_conf -> conv4_3_norm_mbox_conf
I0318 09:17:13.874275 28692 net.cpp:150] Setting up conv4_3_norm_mbox_conf
I0318 09:17:13.874289 28692 net.cpp:157] Top shape: 1 44 38 38 (63536)
I0318 09:17:13.874292 28692 net.cpp:165] Memory required for data: 247641152
I0318 09:17:13.874300 28692 layer_factory.hpp:77] Creating layer conv4_3_norm_mbox_conf_perm
I0318 09:17:13.874307 28692 net.cpp:100] Creating Layer conv4_3_norm_mbox_conf_perm
I0318 09:17:13.874311 28692 net.cpp:434] conv4_3_norm_mbox_conf_perm <- conv4_3_norm_mbox_conf
I0318 09:17:13.874320 28692 net.cpp:408] conv4_3_norm_mbox_conf_perm -> conv4_3_norm_mbox_conf_perm
I0318 09:17:13.874481 28692 net.cpp:150] Setting up conv4_3_norm_mbox_conf_perm
I0318 09:17:13.874491 28692 net.cpp:157] Top shape: 1 38 38 44 (63536)
I0318 09:17:13.874495 28692 net.cpp:165] Memory required for data: 247895296
I0318 09:17:13.874500 28692 layer_factory.hpp:77] Creating layer conv4_3_norm_mbox_conf_flat
I0318 09:17:13.874511 28692 net.cpp:100] Creating Layer conv4_3_norm_mbox_conf_flat
I0318 09:17:13.874517 28692 net.cpp:434] conv4_3_norm_mbox_conf_flat <- conv4_3_norm_mbox_conf_perm
I0318 09:17:13.874526 28692 net.cpp:408] conv4_3_norm_mbox_conf_flat -> conv4_3_norm_mbox_conf_flat
I0318 09:17:13.874568 28692 net.cpp:150] Setting up conv4_3_norm_mbox_conf_flat
I0318 09:17:13.874578 28692 net.cpp:157] Top shape: 1 63536 (63536)
I0318 09:17:13.874583 28692 net.cpp:165] Memory required for data: 248149440
I0318 09:17:13.874589 28692 layer_factory.hpp:77] Creating layer conv4_3_norm_mbox_priorbox
I0318 09:17:13.874601 28692 net.cpp:100] Creating Layer conv4_3_norm_mbox_priorbox
I0318 09:17:13.874608 28692 net.cpp:434] conv4_3_norm_mbox_priorbox <- conv4_3_norm_conv4_3_norm_0_split_2
I0318 09:17:13.874616 28692 net.cpp:434] conv4_3_norm_mbox_priorbox <- data_data_0_split_1
I0318 09:17:13.874626 28692 net.cpp:408] conv4_3_norm_mbox_priorbox -> conv4_3_norm_mbox_priorbox
I0318 09:17:13.874668 28692 net.cpp:150] Setting up conv4_3_norm_mbox_priorbox
I0318 09:17:13.874678 28692 net.cpp:157] Top shape: 1 2 23104 (46208)
I0318 09:17:13.874686 28692 net.cpp:165] Memory required for data: 248334272
I0318 09:17:13.874691 28692 layer_factory.hpp:77] Creating layer fc7_mbox_loc
I0318 09:17:13.874707 28692 net.cpp:100] Creating Layer fc7_mbox_loc
I0318 09:17:13.874716 28692 net.cpp:434] fc7_mbox_loc <- fc7_relu7_0_split_1
I0318 09:17:13.874724 28692 net.cpp:408] fc7_mbox_loc -> fc7_mbox_loc
I0318 09:17:13.877647 28692 net.cpp:150] Setting up fc7_mbox_loc
I0318 09:17:13.877661 28692 net.cpp:157] Top shape: 1 24 19 19 (8664)
I0318 09:17:13.877666 28692 net.cpp:165] Memory required for data: 248368928
I0318 09:17:13.877676 28692 layer_factory.hpp:77] Creating layer fc7_mbox_loc_perm
I0318 09:17:13.877686 28692 net.cpp:100] Creating Layer fc7_mbox_loc_perm
I0318 09:17:13.877693 28692 net.cpp:434] fc7_mbox_loc_perm <- fc7_mbox_loc
I0318 09:17:13.877707 28692 net.cpp:408] fc7_mbox_loc_perm -> fc7_mbox_loc_perm
I0318 09:17:13.877873 28692 net.cpp:150] Setting up fc7_mbox_loc_perm
I0318 09:17:13.877882 28692 net.cpp:157] Top shape: 1 19 19 24 (8664)
I0318 09:17:13.877885 28692 net.cpp:165] Memory required for data: 248403584
I0318 09:17:13.877904 28692 layer_factory.hpp:77] Creating layer fc7_mbox_loc_flat
I0318 09:17:13.877913 28692 net.cpp:100] Creating Layer fc7_mbox_loc_flat
I0318 09:17:13.877920 28692 net.cpp:434] fc7_mbox_loc_flat <- fc7_mbox_loc_perm
I0318 09:17:13.877929 28692 net.cpp:408] fc7_mbox_loc_flat -> fc7_mbox_loc_flat
I0318 09:17:13.877974 28692 net.cpp:150] Setting up fc7_mbox_loc_flat
I0318 09:17:13.877984 28692 net.cpp:157] Top shape: 1 8664 (8664)
I0318 09:17:13.877990 28692 net.cpp:165] Memory required for data: 248438240
I0318 09:17:13.877997 28692 layer_factory.hpp:77] Creating layer fc7_mbox_conf
I0318 09:17:13.878012 28692 net.cpp:100] Creating Layer fc7_mbox_conf
I0318 09:17:13.878020 28692 net.cpp:434] fc7_mbox_conf <- fc7_relu7_0_split_2
I0318 09:17:13.878031 28692 net.cpp:408] fc7_mbox_conf -> fc7_mbox_conf
I0318 09:17:13.883409 28692 net.cpp:150] Setting up fc7_mbox_conf
I0318 09:17:13.883424 28692 net.cpp:157] Top shape: 1 66 19 19 (23826)
I0318 09:17:13.883428 28692 net.cpp:165] Memory required for data: 248533544
I0318 09:17:13.883435 28692 layer_factory.hpp:77] Creating layer fc7_mbox_conf_perm
I0318 09:17:13.883445 28692 net.cpp:100] Creating Layer fc7_mbox_conf_perm
I0318 09:17:13.883450 28692 net.cpp:434] fc7_mbox_conf_perm <- fc7_mbox_conf
I0318 09:17:13.883455 28692 net.cpp:408] fc7_mbox_conf_perm -> fc7_mbox_conf_perm
I0318 09:17:13.883618 28692 net.cpp:150] Setting up fc7_mbox_conf_perm
I0318 09:17:13.883627 28692 net.cpp:157] Top shape: 1 19 19 66 (23826)
I0318 09:17:13.883631 28692 net.cpp:165] Memory required for data: 248628848
I0318 09:17:13.883636 28692 layer_factory.hpp:77] Creating layer fc7_mbox_conf_flat
I0318 09:17:13.883649 28692 net.cpp:100] Creating Layer fc7_mbox_conf_flat
I0318 09:17:13.883657 28692 net.cpp:434] fc7_mbox_conf_flat <- fc7_mbox_conf_perm
I0318 09:17:13.883666 28692 net.cpp:408] fc7_mbox_conf_flat -> fc7_mbox_conf_flat
I0318 09:17:13.883705 28692 net.cpp:150] Setting up fc7_mbox_conf_flat
I0318 09:17:13.883714 28692 net.cpp:157] Top shape: 1 23826 (23826)
I0318 09:17:13.883721 28692 net.cpp:165] Memory required for data: 248724152
I0318 09:17:13.883728 28692 layer_factory.hpp:77] Creating layer fc7_mbox_priorbox
I0318 09:17:13.883738 28692 net.cpp:100] Creating Layer fc7_mbox_priorbox
I0318 09:17:13.883746 28692 net.cpp:434] fc7_mbox_priorbox <- fc7_relu7_0_split_3
I0318 09:17:13.883754 28692 net.cpp:434] fc7_mbox_priorbox <- data_data_0_split_2
I0318 09:17:13.883761 28692 net.cpp:408] fc7_mbox_priorbox -> fc7_mbox_priorbox
I0318 09:17:13.883808 28692 net.cpp:150] Setting up fc7_mbox_priorbox
I0318 09:17:13.883817 28692 net.cpp:157] Top shape: 1 2 8664 (17328)
I0318 09:17:13.883824 28692 net.cpp:165] Memory required for data: 248793464
I0318 09:17:13.883831 28692 layer_factory.hpp:77] Creating layer conv6_2_mbox_loc
I0318 09:17:13.883846 28692 net.cpp:100] Creating Layer conv6_2_mbox_loc
I0318 09:17:13.883853 28692 net.cpp:434] conv6_2_mbox_loc <- conv6_2_conv6_2_relu_0_split_1
I0318 09:17:13.883864 28692 net.cpp:408] conv6_2_mbox_loc -> conv6_2_mbox_loc
I0318 09:17:13.886319 28692 net.cpp:150] Setting up conv6_2_mbox_loc
I0318 09:17:13.886332 28692 net.cpp:157] Top shape: 1 24 10 10 (2400)
I0318 09:17:13.886335 28692 net.cpp:165] Memory required for data: 248803064
I0318 09:17:13.886344 28692 layer_factory.hpp:77] Creating layer conv6_2_mbox_loc_perm
I0318 09:17:13.886358 28692 net.cpp:100] Creating Layer conv6_2_mbox_loc_perm
I0318 09:17:13.886364 28692 net.cpp:434] conv6_2_mbox_loc_perm <- conv6_2_mbox_loc
I0318 09:17:13.886373 28692 net.cpp:408] conv6_2_mbox_loc_perm -> conv6_2_mbox_loc_perm
I0318 09:17:13.886519 28692 net.cpp:150] Setting up conv6_2_mbox_loc_perm
I0318 09:17:13.886528 28692 net.cpp:157] Top shape: 1 10 10 24 (2400)
I0318 09:17:13.886531 28692 net.cpp:165] Memory required for data: 248812664
I0318 09:17:13.886536 28692 layer_factory.hpp:77] Creating layer conv6_2_mbox_loc_flat
I0318 09:17:13.886548 28692 net.cpp:100] Creating Layer conv6_2_mbox_loc_flat
I0318 09:17:13.886555 28692 net.cpp:434] conv6_2_mbox_loc_flat <- conv6_2_mbox_loc_perm
I0318 09:17:13.886576 28692 net.cpp:408] conv6_2_mbox_loc_flat -> conv6_2_mbox_loc_flat
I0318 09:17:13.886620 28692 net.cpp:150] Setting up conv6_2_mbox_loc_flat
I0318 09:17:13.886631 28692 net.cpp:157] Top shape: 1 2400 (2400)
I0318 09:17:13.886638 28692 net.cpp:165] Memory required for data: 248822264
I0318 09:17:13.886644 28692 layer_factory.hpp:77] Creating layer conv6_2_mbox_conf
I0318 09:17:13.886659 28692 net.cpp:100] Creating Layer conv6_2_mbox_conf
I0318 09:17:13.886667 28692 net.cpp:434] conv6_2_mbox_conf <- conv6_2_conv6_2_relu_0_split_2
I0318 09:17:13.886678 28692 net.cpp:408] conv6_2_mbox_conf -> conv6_2_mbox_conf
I0318 09:17:13.890756 28692 net.cpp:150] Setting up conv6_2_mbox_conf
I0318 09:17:13.890774 28692 net.cpp:157] Top shape: 1 66 10 10 (6600)
I0318 09:17:13.890779 28692 net.cpp:165] Memory required for data: 248848664
I0318 09:17:13.890787 28692 layer_factory.hpp:77] Creating layer conv6_2_mbox_conf_perm
I0318 09:17:13.890796 28692 net.cpp:100] Creating Layer conv6_2_mbox_conf_perm
I0318 09:17:13.890801 28692 net.cpp:434] conv6_2_mbox_conf_perm <- conv6_2_mbox_conf
I0318 09:17:13.890812 28692 net.cpp:408] conv6_2_mbox_conf_perm -> conv6_2_mbox_conf_perm
I0318 09:17:13.890976 28692 net.cpp:150] Setting up conv6_2_mbox_conf_perm
I0318 09:17:13.890986 28692 net.cpp:157] Top shape: 1 10 10 66 (6600)
I0318 09:17:13.890990 28692 net.cpp:165] Memory required for data: 248875064
I0318 09:17:13.890993 28692 layer_factory.hpp:77] Creating layer conv6_2_mbox_conf_flat
I0318 09:17:13.891002 28692 net.cpp:100] Creating Layer conv6_2_mbox_conf_flat
I0318 09:17:13.891010 28692 net.cpp:434] conv6_2_mbox_conf_flat <- conv6_2_mbox_conf_perm
I0318 09:17:13.891018 28692 net.cpp:408] conv6_2_mbox_conf_flat -> conv6_2_mbox_conf_flat
I0318 09:17:13.891058 28692 net.cpp:150] Setting up conv6_2_mbox_conf_flat
I0318 09:17:13.891068 28692 net.cpp:157] Top shape: 1 6600 (6600)
I0318 09:17:13.891074 28692 net.cpp:165] Memory required for data: 248901464
I0318 09:17:13.891080 28692 layer_factory.hpp:77] Creating layer conv6_2_mbox_priorbox
I0318 09:17:13.891093 28692 net.cpp:100] Creating Layer conv6_2_mbox_priorbox
I0318 09:17:13.891101 28692 net.cpp:434] conv6_2_mbox_priorbox <- conv6_2_conv6_2_relu_0_split_3
I0318 09:17:13.891108 28692 net.cpp:434] conv6_2_mbox_priorbox <- data_data_0_split_3
I0318 09:17:13.891119 28692 net.cpp:408] conv6_2_mbox_priorbox -> conv6_2_mbox_priorbox
I0318 09:17:13.891163 28692 net.cpp:150] Setting up conv6_2_mbox_priorbox
I0318 09:17:13.891175 28692 net.cpp:157] Top shape: 1 2 2400 (4800)
I0318 09:17:13.891180 28692 net.cpp:165] Memory required for data: 248920664
I0318 09:17:13.891185 28692 layer_factory.hpp:77] Creating layer conv7_2_mbox_loc
I0318 09:17:13.891202 28692 net.cpp:100] Creating Layer conv7_2_mbox_loc
I0318 09:17:13.891209 28692 net.cpp:434] conv7_2_mbox_loc <- conv7_2_conv7_2_relu_0_split_1
I0318 09:17:13.891217 28692 net.cpp:408] conv7_2_mbox_loc -> conv7_2_mbox_loc
I0318 09:17:13.893441 28692 net.cpp:150] Setting up conv7_2_mbox_loc
I0318 09:17:13.893455 28692 net.cpp:157] Top shape: 1 24 5 5 (600)
I0318 09:17:13.893458 28692 net.cpp:165] Memory required for data: 248923064
I0318 09:17:13.893468 28692 layer_factory.hpp:77] Creating layer conv7_2_mbox_loc_perm
I0318 09:17:13.893478 28692 net.cpp:100] Creating Layer conv7_2_mbox_loc_perm
I0318 09:17:13.893486 28692 net.cpp:434] conv7_2_mbox_loc_perm <- conv7_2_mbox_loc
I0318 09:17:13.893496 28692 net.cpp:408] conv7_2_mbox_loc_perm -> conv7_2_mbox_loc_perm
I0318 09:17:13.893647 28692 net.cpp:150] Setting up conv7_2_mbox_loc_perm
I0318 09:17:13.893656 28692 net.cpp:157] Top shape: 1 5 5 24 (600)
I0318 09:17:13.893659 28692 net.cpp:165] Memory required for data: 248925464
I0318 09:17:13.893666 28692 layer_factory.hpp:77] Creating layer conv7_2_mbox_loc_flat
I0318 09:17:13.893674 28692 net.cpp:100] Creating Layer conv7_2_mbox_loc_flat
I0318 09:17:13.893682 28692 net.cpp:434] conv7_2_mbox_loc_flat <- conv7_2_mbox_loc_perm
I0318 09:17:13.893692 28692 net.cpp:408] conv7_2_mbox_loc_flat -> conv7_2_mbox_loc_flat
I0318 09:17:13.893774 28692 net.cpp:150] Setting up conv7_2_mbox_loc_flat
I0318 09:17:13.893784 28692 net.cpp:157] Top shape: 1 600 (600)
I0318 09:17:13.893790 28692 net.cpp:165] Memory required for data: 248927864
I0318 09:17:13.893795 28692 layer_factory.hpp:77] Creating layer conv7_2_mbox_conf
I0318 09:17:13.893812 28692 net.cpp:100] Creating Layer conv7_2_mbox_conf
I0318 09:17:13.893820 28692 net.cpp:434] conv7_2_mbox_conf <- conv7_2_conv7_2_relu_0_split_2
I0318 09:17:13.893829 28692 net.cpp:408] conv7_2_mbox_conf -> conv7_2_mbox_conf
I0318 09:17:13.896450 28692 net.cpp:150] Setting up conv7_2_mbox_conf
I0318 09:17:13.896463 28692 net.cpp:157] Top shape: 1 66 5 5 (1650)
I0318 09:17:13.896467 28692 net.cpp:165] Memory required for data: 248934464
I0318 09:17:13.896476 28692 layer_factory.hpp:77] Creating layer conv7_2_mbox_conf_perm
I0318 09:17:13.896486 28692 net.cpp:100] Creating Layer conv7_2_mbox_conf_perm
I0318 09:17:13.896495 28692 net.cpp:434] conv7_2_mbox_conf_perm <- conv7_2_mbox_conf
I0318 09:17:13.896507 28692 net.cpp:408] conv7_2_mbox_conf_perm -> conv7_2_mbox_conf_perm
I0318 09:17:13.896653 28692 net.cpp:150] Setting up conv7_2_mbox_conf_perm
I0318 09:17:13.896661 28692 net.cpp:157] Top shape: 1 5 5 66 (1650)
I0318 09:17:13.896665 28692 net.cpp:165] Memory required for data: 248941064
I0318 09:17:13.896670 28692 layer_factory.hpp:77] Creating layer conv7_2_mbox_conf_flat
I0318 09:17:13.896682 28692 net.cpp:100] Creating Layer conv7_2_mbox_conf_flat
I0318 09:17:13.896689 28692 net.cpp:434] conv7_2_mbox_conf_flat <- conv7_2_mbox_conf_perm
I0318 09:17:13.896697 28692 net.cpp:408] conv7_2_mbox_conf_flat -> conv7_2_mbox_conf_flat
I0318 09:17:13.896739 28692 net.cpp:150] Setting up conv7_2_mbox_conf_flat
I0318 09:17:13.896749 28692 net.cpp:157] Top shape: 1 1650 (1650)
I0318 09:17:13.896754 28692 net.cpp:165] Memory required for data: 248947664
I0318 09:17:13.896759 28692 layer_factory.hpp:77] Creating layer conv7_2_mbox_priorbox
I0318 09:17:13.896771 28692 net.cpp:100] Creating Layer conv7_2_mbox_priorbox
I0318 09:17:13.896780 28692 net.cpp:434] conv7_2_mbox_priorbox <- conv7_2_conv7_2_relu_0_split_3
I0318 09:17:13.896787 28692 net.cpp:434] conv7_2_mbox_priorbox <- data_data_0_split_4
I0318 09:17:13.896797 28692 net.cpp:408] conv7_2_mbox_priorbox -> conv7_2_mbox_priorbox
I0318 09:17:13.896840 28692 net.cpp:150] Setting up conv7_2_mbox_priorbox
I0318 09:17:13.896849 28692 net.cpp:157] Top shape: 1 2 600 (1200)
I0318 09:17:13.896855 28692 net.cpp:165] Memory required for data: 248952464
I0318 09:17:13.896863 28692 layer_factory.hpp:77] Creating layer conv8_2_mbox_loc
I0318 09:17:13.896878 28692 net.cpp:100] Creating Layer conv8_2_mbox_loc
I0318 09:17:13.896885 28692 net.cpp:434] conv8_2_mbox_loc <- conv8_2_conv8_2_relu_0_split_1
I0318 09:17:13.896896 28692 net.cpp:408] conv8_2_mbox_loc -> conv8_2_mbox_loc
I0318 09:17:13.898496 28692 net.cpp:150] Setting up conv8_2_mbox_loc
I0318 09:17:13.898509 28692 net.cpp:157] Top shape: 1 16 3 3 (144)
I0318 09:17:13.898512 28692 net.cpp:165] Memory required for data: 248953040
I0318 09:17:13.898532 28692 layer_factory.hpp:77] Creating layer conv8_2_mbox_loc_perm
I0318 09:17:13.898545 28692 net.cpp:100] Creating Layer conv8_2_mbox_loc_perm
I0318 09:17:13.898553 28692 net.cpp:434] conv8_2_mbox_loc_perm <- conv8_2_mbox_loc
I0318 09:17:13.898562 28692 net.cpp:408] conv8_2_mbox_loc_perm -> conv8_2_mbox_loc_perm
I0318 09:17:13.898706 28692 net.cpp:150] Setting up conv8_2_mbox_loc_perm
I0318 09:17:13.898715 28692 net.cpp:157] Top shape: 1 3 3 16 (144)
I0318 09:17:13.898720 28692 net.cpp:165] Memory required for data: 248953616
I0318 09:17:13.898723 28692 layer_factory.hpp:77] Creating layer conv8_2_mbox_loc_flat
I0318 09:17:13.898735 28692 net.cpp:100] Creating Layer conv8_2_mbox_loc_flat
I0318 09:17:13.898742 28692 net.cpp:434] conv8_2_mbox_loc_flat <- conv8_2_mbox_loc_perm
I0318 09:17:13.898751 28692 net.cpp:408] conv8_2_mbox_loc_flat -> conv8_2_mbox_loc_flat
I0318 09:17:13.898793 28692 net.cpp:150] Setting up conv8_2_mbox_loc_flat
I0318 09:17:13.898803 28692 net.cpp:157] Top shape: 1 144 (144)
I0318 09:17:13.898823 28692 net.cpp:165] Memory required for data: 248954192
I0318 09:17:13.898828 28692 layer_factory.hpp:77] Creating layer conv8_2_mbox_conf
I0318 09:17:13.898844 28692 net.cpp:100] Creating Layer conv8_2_mbox_conf
I0318 09:17:13.898851 28692 net.cpp:434] conv8_2_mbox_conf <- conv8_2_conv8_2_relu_0_split_2
I0318 09:17:13.898861 28692 net.cpp:408] conv8_2_mbox_conf -> conv8_2_mbox_conf
I0318 09:17:13.901293 28692 net.cpp:150] Setting up conv8_2_mbox_conf
I0318 09:17:13.901305 28692 net.cpp:157] Top shape: 1 44 3 3 (396)
I0318 09:17:13.901309 28692 net.cpp:165] Memory required for data: 248955776
I0318 09:17:13.901319 28692 layer_factory.hpp:77] Creating layer conv8_2_mbox_conf_perm
I0318 09:17:13.901335 28692 net.cpp:100] Creating Layer conv8_2_mbox_conf_perm
I0318 09:17:13.901345 28692 net.cpp:434] conv8_2_mbox_conf_perm <- conv8_2_mbox_conf
I0318 09:17:13.901356 28692 net.cpp:408] conv8_2_mbox_conf_perm -> conv8_2_mbox_conf_perm
I0318 09:17:13.901510 28692 net.cpp:150] Setting up conv8_2_mbox_conf_perm
I0318 09:17:13.901517 28692 net.cpp:157] Top shape: 1 3 3 44 (396)
I0318 09:17:13.901521 28692 net.cpp:165] Memory required for data: 248957360
I0318 09:17:13.901526 28692 layer_factory.hpp:77] Creating layer conv8_2_mbox_conf_flat
I0318 09:17:13.901537 28692 net.cpp:100] Creating Layer conv8_2_mbox_conf_flat
I0318 09:17:13.901546 28692 net.cpp:434] conv8_2_mbox_conf_flat <- conv8_2_mbox_conf_perm
I0318 09:17:13.901553 28692 net.cpp:408] conv8_2_mbox_conf_flat -> conv8_2_mbox_conf_flat
I0318 09:17:13.901597 28692 net.cpp:150] Setting up conv8_2_mbox_conf_flat
I0318 09:17:13.901607 28692 net.cpp:157] Top shape: 1 396 (396)
I0318 09:17:13.901613 28692 net.cpp:165] Memory required for data: 248958944
I0318 09:17:13.901618 28692 layer_factory.hpp:77] Creating layer conv8_2_mbox_priorbox
I0318 09:17:13.901631 28692 net.cpp:100] Creating Layer conv8_2_mbox_priorbox
I0318 09:17:13.901638 28692 net.cpp:434] conv8_2_mbox_priorbox <- conv8_2_conv8_2_relu_0_split_3
I0318 09:17:13.901645 28692 net.cpp:434] conv8_2_mbox_priorbox <- data_data_0_split_5
I0318 09:17:13.901654 28692 net.cpp:408] conv8_2_mbox_priorbox -> conv8_2_mbox_priorbox
I0318 09:17:13.901700 28692 net.cpp:150] Setting up conv8_2_mbox_priorbox
I0318 09:17:13.901711 28692 net.cpp:157] Top shape: 1 2 144 (288)
I0318 09:17:13.901717 28692 net.cpp:165] Memory required for data: 248960096
I0318 09:17:13.901722 28692 layer_factory.hpp:77] Creating layer conv9_2_mbox_loc
I0318 09:17:13.901760 28692 net.cpp:100] Creating Layer conv9_2_mbox_loc
I0318 09:17:13.901768 28692 net.cpp:434] conv9_2_mbox_loc <- conv9_2_conv9_2_relu_0_split_0
I0318 09:17:13.901780 28692 net.cpp:408] conv9_2_mbox_loc -> conv9_2_mbox_loc
I0318 09:17:13.903931 28692 net.cpp:150] Setting up conv9_2_mbox_loc
I0318 09:17:13.903944 28692 net.cpp:157] Top shape: 1 16 1 1 (16)
I0318 09:17:13.903947 28692 net.cpp:165] Memory required for data: 248960160
I0318 09:17:13.903955 28692 layer_factory.hpp:77] Creating layer conv9_2_mbox_loc_perm
I0318 09:17:13.903966 28692 net.cpp:100] Creating Layer conv9_2_mbox_loc_perm
I0318 09:17:13.903975 28692 net.cpp:434] conv9_2_mbox_loc_perm <- conv9_2_mbox_loc
I0318 09:17:13.903985 28692 net.cpp:408] conv9_2_mbox_loc_perm -> conv9_2_mbox_loc_perm
I0318 09:17:13.904131 28692 net.cpp:150] Setting up conv9_2_mbox_loc_perm
I0318 09:17:13.904140 28692 net.cpp:157] Top shape: 1 1 1 16 (16)
I0318 09:17:13.904144 28692 net.cpp:165] Memory required for data: 248960224
I0318 09:17:13.904148 28692 layer_factory.hpp:77] Creating layer conv9_2_mbox_loc_flat
I0318 09:17:13.904157 28692 net.cpp:100] Creating Layer conv9_2_mbox_loc_flat
I0318 09:17:13.904165 28692 net.cpp:434] conv9_2_mbox_loc_flat <- conv9_2_mbox_loc_perm
I0318 09:17:13.904173 28692 net.cpp:408] conv9_2_mbox_loc_flat -> conv9_2_mbox_loc_flat
I0318 09:17:13.904217 28692 net.cpp:150] Setting up conv9_2_mbox_loc_flat
I0318 09:17:13.904225 28692 net.cpp:157] Top shape: 1 16 (16)
I0318 09:17:13.904232 28692 net.cpp:165] Memory required for data: 248960288
I0318 09:17:13.904237 28692 layer_factory.hpp:77] Creating layer conv9_2_mbox_conf
I0318 09:17:13.904264 28692 net.cpp:100] Creating Layer conv9_2_mbox_conf
I0318 09:17:13.904273 28692 net.cpp:434] conv9_2_mbox_conf <- conv9_2_conv9_2_relu_0_split_1
I0318 09:17:13.904284 28692 net.cpp:408] conv9_2_mbox_conf -> conv9_2_mbox_conf
I0318 09:17:13.906814 28692 net.cpp:150] Setting up conv9_2_mbox_conf
I0318 09:17:13.906827 28692 net.cpp:157] Top shape: 1 44 1 1 (44)
I0318 09:17:13.906831 28692 net.cpp:165] Memory required for data: 248960464
I0318 09:17:13.906839 28692 layer_factory.hpp:77] Creating layer conv9_2_mbox_conf_perm
I0318 09:17:13.906857 28692 net.cpp:100] Creating Layer conv9_2_mbox_conf_perm
I0318 09:17:13.906867 28692 net.cpp:434] conv9_2_mbox_conf_perm <- conv9_2_mbox_conf
I0318 09:17:13.906880 28692 net.cpp:408] conv9_2_mbox_conf_perm -> conv9_2_mbox_conf_perm
I0318 09:17:13.907028 28692 net.cpp:150] Setting up conv9_2_mbox_conf_perm
I0318 09:17:13.907038 28692 net.cpp:157] Top shape: 1 1 1 44 (44)
I0318 09:17:13.907045 28692 net.cpp:165] Memory required for data: 248960640
I0318 09:17:13.907050 28692 layer_factory.hpp:77] Creating layer conv9_2_mbox_conf_flat
I0318 09:17:13.907058 28692 net.cpp:100] Creating Layer conv9_2_mbox_conf_flat
I0318 09:17:13.907065 28692 net.cpp:434] conv9_2_mbox_conf_flat <- conv9_2_mbox_conf_perm
I0318 09:17:13.907075 28692 net.cpp:408] conv9_2_mbox_conf_flat -> conv9_2_mbox_conf_flat
I0318 09:17:13.907117 28692 net.cpp:150] Setting up conv9_2_mbox_conf_flat
I0318 09:17:13.907126 28692 net.cpp:157] Top shape: 1 44 (44)
I0318 09:17:13.907131 28692 net.cpp:165] Memory required for data: 248960816
I0318 09:17:13.907140 28692 layer_factory.hpp:77] Creating layer conv9_2_mbox_priorbox
I0318 09:17:13.907150 28692 net.cpp:100] Creating Layer conv9_2_mbox_priorbox
I0318 09:17:13.907156 28692 net.cpp:434] conv9_2_mbox_priorbox <- conv9_2_conv9_2_relu_0_split_2
I0318 09:17:13.907164 28692 net.cpp:434] conv9_2_mbox_priorbox <- data_data_0_split_6
I0318 09:17:13.907181 28692 net.cpp:408] conv9_2_mbox_priorbox -> conv9_2_mbox_priorbox
I0318 09:17:13.907222 28692 net.cpp:150] Setting up conv9_2_mbox_priorbox
I0318 09:17:13.907233 28692 net.cpp:157] Top shape: 1 2 16 (32)
I0318 09:17:13.907240 28692 net.cpp:165] Memory required for data: 248960944
I0318 09:17:13.907246 28692 layer_factory.hpp:77] Creating layer mbox_loc
I0318 09:17:13.907256 28692 net.cpp:100] Creating Layer mbox_loc
I0318 09:17:13.907265 28692 net.cpp:434] mbox_loc <- conv4_3_norm_mbox_loc_flat
I0318 09:17:13.907274 28692 net.cpp:434] mbox_loc <- fc7_mbox_loc_flat
I0318 09:17:13.907282 28692 net.cpp:434] mbox_loc <- conv6_2_mbox_loc_flat
I0318 09:17:13.907289 28692 net.cpp:434] mbox_loc <- conv7_2_mbox_loc_flat
I0318 09:17:13.907295 28692 net.cpp:434] mbox_loc <- conv8_2_mbox_loc_flat
I0318 09:17:13.907304 28692 net.cpp:434] mbox_loc <- conv9_2_mbox_loc_flat
I0318 09:17:13.907313 28692 net.cpp:408] mbox_loc -> mbox_loc
I0318 09:17:13.907358 28692 net.cpp:150] Setting up mbox_loc
I0318 09:17:13.907367 28692 net.cpp:157] Top shape: 1 34928 (34928)
I0318 09:17:13.907374 28692 net.cpp:165] Memory required for data: 249100656
I0318 09:17:13.907380 28692 layer_factory.hpp:77] Creating layer mbox_conf
I0318 09:17:13.907390 28692 net.cpp:100] Creating Layer mbox_conf
I0318 09:17:13.907398 28692 net.cpp:434] mbox_conf <- conv4_3_norm_mbox_conf_flat
I0318 09:17:13.907407 28692 net.cpp:434] mbox_conf <- fc7_mbox_conf_flat
I0318 09:17:13.907414 28692 net.cpp:434] mbox_conf <- conv6_2_mbox_conf_flat
I0318 09:17:13.907420 28692 net.cpp:434] mbox_conf <- conv7_2_mbox_conf_flat
I0318 09:17:13.907428 28692 net.cpp:434] mbox_conf <- conv8_2_mbox_conf_flat
I0318 09:17:13.907433 28692 net.cpp:434] mbox_conf <- conv9_2_mbox_conf_flat
I0318 09:17:13.907443 28692 net.cpp:408] mbox_conf -> mbox_conf
I0318 09:17:13.907485 28692 net.cpp:150] Setting up mbox_conf
I0318 09:17:13.907495 28692 net.cpp:157] Top shape: 1 96052 (96052)
I0318 09:17:13.907501 28692 net.cpp:165] Memory required for data: 249484864
I0318 09:17:13.907506 28692 layer_factory.hpp:77] Creating layer mbox_priorbox
I0318 09:17:13.907527 28692 net.cpp:100] Creating Layer mbox_priorbox
I0318 09:17:13.907534 28692 net.cpp:434] mbox_priorbox <- conv4_3_norm_mbox_priorbox
I0318 09:17:13.907542 28692 net.cpp:434] mbox_priorbox <- fc7_mbox_priorbox
I0318 09:17:13.907552 28692 net.cpp:434] mbox_priorbox <- conv6_2_mbox_priorbox
I0318 09:17:13.907558 28692 net.cpp:434] mbox_priorbox <- conv7_2_mbox_priorbox
I0318 09:17:13.907564 28692 net.cpp:434] mbox_priorbox <- conv8_2_mbox_priorbox
I0318 09:17:13.907572 28692 net.cpp:434] mbox_priorbox <- conv9_2_mbox_priorbox
I0318 09:17:13.907582 28692 net.cpp:408] mbox_priorbox -> mbox_priorbox
I0318 09:17:13.907624 28692 net.cpp:150] Setting up mbox_priorbox
I0318 09:17:13.907635 28692 net.cpp:157] Top shape: 1 2 34928 (69856)
I0318 09:17:13.907642 28692 net.cpp:165] Memory required for data: 249764288
I0318 09:17:13.907647 28692 layer_factory.hpp:77] Creating layer mbox_conf_reshape
I0318 09:17:13.907657 28692 net.cpp:100] Creating Layer mbox_conf_reshape
I0318 09:17:13.907665 28692 net.cpp:434] mbox_conf_reshape <- mbox_conf
I0318 09:17:13.907676 28692 net.cpp:408] mbox_conf_reshape -> mbox_conf_reshape
I0318 09:17:13.907724 28692 net.cpp:150] Setting up mbox_conf_reshape
I0318 09:17:13.907735 28692 net.cpp:157] Top shape: 1 8732 11 (96052)
I0318 09:17:13.907740 28692 net.cpp:165] Memory required for data: 250148496
I0318 09:17:13.907745 28692 layer_factory.hpp:77] Creating layer mbox_conf_softmax
I0318 09:17:13.907757 28692 net.cpp:100] Creating Layer mbox_conf_softmax
I0318 09:17:13.907764 28692 net.cpp:434] mbox_conf_softmax <- mbox_conf_reshape
I0318 09:17:13.907774 28692 net.cpp:408] mbox_conf_softmax -> mbox_conf_softmax
I0318 09:17:13.908051 28692 net.cpp:150] Setting up mbox_conf_softmax
I0318 09:17:13.908062 28692 net.cpp:157] Top shape: 1 8732 11 (96052)
I0318 09:17:13.908066 28692 net.cpp:165] Memory required for data: 250532704
I0318 09:17:13.908071 28692 layer_factory.hpp:77] Creating layer mbox_conf_flatten
I0318 09:17:13.908082 28692 net.cpp:100] Creating Layer mbox_conf_flatten
I0318 09:17:13.908088 28692 net.cpp:434] mbox_conf_flatten <- mbox_conf_softmax
I0318 09:17:13.908097 28692 net.cpp:408] mbox_conf_flatten -> mbox_conf_flatten
I0318 09:17:13.908139 28692 net.cpp:150] Setting up mbox_conf_flatten
I0318 09:17:13.908152 28692 net.cpp:157] Top shape: 1 96052 (96052)
I0318 09:17:13.908159 28692 net.cpp:165] Memory required for data: 250916912
I0318 09:17:13.908164 28692 layer_factory.hpp:77] Creating layer detection_out
I0318 09:17:13.908186 28692 net.cpp:100] Creating Layer detection_out
I0318 09:17:13.908195 28692 net.cpp:434] detection_out <- mbox_loc
I0318 09:17:13.908200 28692 net.cpp:434] detection_out <- mbox_conf_flatten
I0318 09:17:13.908206 28692 net.cpp:434] detection_out <- mbox_priorbox
I0318 09:17:13.908219 28692 net.cpp:408] detection_out -> detection_out
W0318 09:17:13.908255 28692 detection_output_layer.cpp:49] Failed to create directory: /home/zs/data/VOCdevkit/results/VOC2007/SSD_300x300_initial_0317/Main
I0318 09:17:13.908761 28692 net.cpp:150] Setting up detection_out
I0318 09:17:13.908771 28692 net.cpp:157] Top shape: 1 1 1 7 (7)
I0318 09:17:13.908776 28692 net.cpp:165] Memory required for data: 250916940
I0318 09:17:13.908782 28692 layer_factory.hpp:77] Creating layer detection_eval
I0318 09:17:13.908794 28692 net.cpp:100] Creating Layer detection_eval
I0318 09:17:13.908802 28692 net.cpp:434] detection_eval <- detection_out
I0318 09:17:13.908808 28692 net.cpp:434] detection_eval <- label
I0318 09:17:13.908818 28692 net.cpp:408] detection_eval -> detection_eval
I0318 09:17:13.908933 28692 net.cpp:150] Setting up detection_eval
I0318 09:17:13.908941 28692 net.cpp:157] Top shape: 1 1 11 5 (55)
I0318 09:17:13.908946 28692 net.cpp:165] Memory required for data: 250917160
I0318 09:17:13.908952 28692 net.cpp:228] detection_eval does not need backward computation.
I0318 09:17:13.908960 28692 net.cpp:228] detection_out does not need backward computation.
I0318 09:17:13.908967 28692 net.cpp:228] mbox_conf_flatten does not need backward computation.
I0318 09:17:13.908972 28692 net.cpp:228] mbox_conf_softmax does not need backward computation.
…
