…
      sampler {
        min_scale: 0.3
        max_scale: 1
        min_aspect_ratio: 0.5
        max_aspect_ratio: 2
      }
      sample_constraint {
        min_jaccard_overlap: 0.9
      }
      max_sample: 1
      max_trials: 50
    }
    batch_sampler {
      sampler {
        min_scale: 0.3
        max_scale: 1
        min_aspect_ratio: 0.5
        max_aspect_ratio: 2
      }
      sample_constraint {
        max_jaccard_overlap: 1
      }
      max_sample: 1
      max_trials: 50
    }
    label_map_file: "data/NWPU_VHR/labelmap_NWPU_VHR.prototxt"
  }
}
layer {
  name: "conv1_1"
  type: "Convolution"
  bottom: "data"
  top: "conv1_1"
  param {
    lr_mult: 1
    decay_mult: 1
  }
  param {
    lr_mult: 2
    decay_mult: 0
  }
  convolution_param {
    num_output: 64
    pad: 1
    kernel_size: 3
    weight_filler {
      type: "xavier"
    }
    bias_filler {
      type: "constant"
      value: 0
    }
  }
}
layer {
  name: "relu1_1"
  type: "ReLU"
  bottom: "conv1_1"
  top: "conv1_1"
}
layer {
  name: "conv1_2"
  type: "Convolution"
  bottom: "conv1_1"
  top: "conv1_2"
  param {
    lr_mult: 1
    decay_mult: 1
  }
  param {
    lr_mult: 2
    decay_mult: 0
  }
  convolution_param {
    num_output: 64
    pad: 1
    kernel_size: 3
    weight_filler {
      type: "xavier"
    }
    bias_filler {
      type: "constant"
      value: 0
    }
  }
}
layer {
  name: "relu1_2"
  type: "ReLU"
  bottom: "conv1_2"
  top: "conv1_2"
}
layer {
  name: "pool1"
  type: "Pooling"
  bottom: "conv1_2"
  top: "pool1"
  pooling_param {
    pool: MAX
    kernel_size: 2
    stride: 2
  }
}
layer {
  name: "conv2_1"
  type: "Convolution"
  bottom: "pool1"
  top: "conv2_1"
  param {
    lr_mult: 1
    decay_mult: 1
  }
  param {
    lr_mult: 2
    decay_mult: 0
  }
  convolution_param {
    num_output: 128
    pad: 1
    kernel_size: 3
    weight_filler {
      type: "xavier"
    }
    bias_filler {
      type: "constant"
      value: 0
    }
  }
}
layer {
  name: "relu2_1"
  type: "ReLU"
  bottom: "conv2_1"
  top: "conv2_1"
}
layer {
  name: "conv2_2"
  type: "Convolution"
  bottom: "conv2_1"
  top: "conv2_2"
  param {
    lr_mult: 1
    decay_mult: 1
  }
  param {
    lr_mult: 2
    decay_mult: 0
  }
  convolution_param {
    num_output: 128
    pad: 1
    kernel_size: 3
    weight_filler {
      type: "xavier"
    }
    bias_filler {
      type: "constant"
      value: 0
    }
  }
}
layer {
  name: "relu2_2"
  type: "ReLU"
  bottom: "conv2_2"
  top: "conv2_2"
}
layer {
  name: "pool2"
  type: "Pooling"
  bottom: "conv2_2"
  top: "pool2"
  pooling_param {
    pool: MAX
    kernel_size: 2
    stride: 2
  }
}
layer {
  name: "conv3_1"
  type: "Convolution"
  bottom: "pool2"
  top: "conv3_1"
  param {
    lr_mult: 1
    decay_mult: 1
  }
  param {
    lr_mult: 2
    decay_mult: 0
  }
  convolution_param {
    num_output: 256
    pad: 1
    kernel_size: 3
    weight_filler {
      type: "xavier"
    }
    bias_filler {
      type: "constant"
      value: 0
    }
  }
}
layer {
  name: "relu3_1"
  type: "ReLU"
  bottom: "conv3_1"
  top: "conv3_1"
}
layer {
  name: "conv3_2"
  type: "Convolution"
  bottom: "conv3_1"
  top: "conv3_2"
  param {
    lr_mult: 1
    decay_mult: 1
  }
  param {
    lr_mult: 2
    decay_mult: 0
  }
  convolution_param {
    num_output: 256
    pad: 1
    kernel_size: 3
    weight_filler {
      type: "xavier"
    }
    bias_filler {
      type: "constant"
      value: 0
    }
  }
}
layer {
  name: "relu3_2"
  type: "ReLU"
  bottom: "conv3_2"
  top: "conv3_2"
}
layer {
  name: "conv3_3"
  type: "Convolution"
  bottom: "conv3_2"
  top: "conv3_3"
  param {
    lr_mult: 1
    decay_mult: 1
  }
  param {
    lr_mult: 2
    decay_mult: 0
  }
  convolution_param {
    num_output: 256
    pad: 1
    kernel_size: 3
    weight_filler {
      type: "xavier"
    }
    bias_filler {
      type: "constant"
      value: 0
    }
  }
}
layer {
  name: "relu3_3"
  type: "ReLU"
  bottom: "conv3_3"
  top: "conv3_3"
}
layer {
  name: "pool3"
  type: "Pooling"
  bottom: "conv3_3"
  top: "pool3"
  pooling_param {
    pool: MAX
    kernel_size: 2
    stride: 2
  }
}
layer {
  name: "conv4_1"
  type: "Convolution"
  bottom: "pool3"
  top: "conv4_1"
  param {
    lr_mult: 1
    decay_mult: 1
  }
  param {
    lr_mult: 2
    decay_mult: 0
  }
  convolution_param {
    num_output: 512
    pad: 1
    kernel_size: 3
    weight_filler {
      type: "xavier"
    }
    bias_filler {
      type: "constant"
      value: 0
    }
  }
}
layer {
  name: "relu4_1"
  type: "ReLU"
  bottom: "conv4_1"
  top: "conv4_1"
}
layer {
  name: "conv4_2"
  type: "Convolution"
  bottom: "conv4_1"
  top: "conv4_2"
  param {
    lr_mult: 1
    decay_mult: 1
  }
  param {
    lr_mult: 2
    decay_mult: 0
  }
  convolution_param {
    num_output: 512
    pad: 1
    kernel_size: 3
    weight_filler {
      type: "xavier"
    }
    bias_filler {
      type: "constant"
      value: 0
    }
  }
}
layer {
  name: "relu4_2"
  type: "ReLU"
  bottom: "conv4_2"
  top: "conv4_2"
}
layer {
  name: "conv4_3"
  type: "Convolution"
  bottom: "conv4_2"
  top: "conv4_3"
  param {
    lr_mult: 1
    decay_mult: 1
  }
  param {
    lr_mult: 2
    decay_mult: 0
  }
  convolution_param {
    num_output: 512
    pad: 1
    kernel_size: 3
    weight_filler {
      type: "xavier"
    }
    bias_filler {
      type: "constant"
      value: 0
    }
  }
}
layer {
  name: "relu4_3"
  type: "ReLU"
  bottom: "conv4_3"
  top: "conv4_3"
}
layer {
  name: "pool4"
  type: "Pooling"
  bottom: "conv4_3"
  top: "pool4"
  pooling_param {
    pool: MAX
    kernel_size: 2
    stride: 2
  }
}
layer {
  name: "conv5_1"
  type: "Convolution"
  bottom: "pool4"
  top: "conv5_1"
  param {
    lr_mult: 1
    decay_mult: 1
  }
  param {
    lr_mult: 2
    decay_mult: 0
  }
  convolution_param {
    num_output: 512
    pad: 1
    kernel_size: 3
    weight_filler {
      type: "xavier"
    }
    bias_filler {
      type: "constant"
      value: 0
    }
    dilation: 1
  }
}
layer {
  name: "relu5_1"
  type: "ReLU"
  bottom: "conv5_1"
  top: "conv5_1"
}
layer {
  name: "conv5_2"
  type: "Convolution"
  bottom: "conv5_1"
  top: "conv5_2"
  param {
    lr_mult: 1
    decay_mult: 1
  }
  param {
    lr_mult: 2
    decay_mult: 0
  }
  convolution_param {
    num_output: 512
    pad: 1
    kernel_size: 3
    weight_filler {
      type: "xavier"
    }
    bias_filler {
      type: "constant"
      value: 0
    }
    dilation: 1
  }
}
layer {
  name: "relu5_2"
  type: "ReLU"
  bottom: "conv5_2"
  top: "conv5_2"
}
layer {
  name: "conv5_3"
  type: "Convolution"
  bottom: "conv5_2"
  top: "conv5_3"
  param {
    lr_mult: 1
    decay_mult: 1
  }
  param {
    lr_mult: 2
    decay_mult: 0
  }
  convolution_param {
    num_output: 512
    pad: 1
    kernel_size: 3
    weight_filler {
      type: "xavier"
    }
    bias_filler {
      type: "constant"
      value: 0
    }
    dilation: 1
  }
}
layer {
  name: "relu5_3"
  type: "ReLU"
  bottom: "conv5_3"
  top: "conv5_3"
}
layer {
  name: "pool5"
  type: "Pooling"
  bottom: "conv5_3"
  top: "pool5"
  pooling_param {
    pool: MAX
    kernel_size: 3
    stride: 1
    pad: 1
  }
}
layer {
  name: "fc6"
  type: "Convolution"
  bottom: "pool5"
  top: "fc6"
  param {
    lr_mult: 1
    decay_mult: 1
  }
  param {
    lr_mult: 2
    decay_mult: 0
  }
  convolution_param {
    num_output: 1024
    pad: 6
    kernel_size: 3
    weight_filler {
      type: "xavier"
    }
    bias_filler {
      type: "constant"
      value: 0
    }
    dilation: 6
  }
}
layer {
  name: "relu6"
  type: "ReLU"
  bottom: "fc6"
  top: "fc6"
}
layer {
  name: "fc7"
  type: "Convolution"
  bottom: "fc6"
  top: "fc7"
  param {
    lr_mult: 1
    decay_mult: 1
  }
  param {
    lr_mult: 2
    decay_mult: 0
  }
  convolution_param {
    num_output: 1024
    kernel_size: 1
    weight_filler {
      type: "xavier"
    }
    bias_filler {
      type: "constant"
      value: 0
    }
  }
}
layer {
  name: "relu7"
  type: "ReLU"
  bottom: "fc7"
  top: "fc7"
}
layer {
  name: "conv6_1"
  type: "Convolution"
  bottom: "fc7"
  top: "conv6_1"
  param {
    lr_mult: 1
    decay_mult: 1
  }
  param {
    lr_mult: 2
    decay_mult: 0
  }
  convolution_param {
    num_output: 256
    pad: 0
    kernel_size: 1
    stride: 1
    weight_filler {
      type: "xavier"
    }
    bias_filler {
      type: "constant"
      value: 0
    }
  }
}
layer {
  name: "conv6_1_relu"
  type: "ReLU"
  bottom: "conv6_1"
  top: "conv6_1"
}
layer {
  name: "conv6_2"
  type: "Convolution"
  bottom: "conv6_1"
  top: "conv6_2"
  param {
    lr_mult: 1
    decay_mult: 1
  }
  param {
    lr_mult: 2
    decay_mult: 0
  }
  convolution_param {
    num_output: 512
    pad: 1
    kernel_size: 3
    stride: 2
    weight_filler {
      type: "xavier"
    }
    bias_filler {
      type: "constant"
      value: 0
    }
  }
}
layer {
  name: "conv6_2_relu"
  type: "ReLU"
  bottom: "conv6_2"
  top: "conv6_2"
}
layer {
  name: "conv7_1"
  type: "Convolution"
  bottom: "conv6_2"
  top: "conv7_1"
  param {
    lr_mult: 1
    decay_mult: 1
  }
  param {
    lr_mult: 2
    decay_mult: 0
  }
  convolution_param {
    num_output: 128
    pad: 0
    kernel_size: 1
    stride: 1
    weight_filler {
      type: "xavier"
    }
    bias_filler {
      type: "constant"
      value: 0
    }
  }
}
layer {
  name: "conv7_1_relu"
  type: "ReLU"
  bottom: "conv7_1"
  top: "conv7_1"
}
layer {
  name: "conv7_2"
  type: "Convolution"
  bottom: "conv7_1"
  top: "conv7_2"
  param {
    lr_mult: 1
    decay_mult: 1
  }
  param {
    lr_mult: 2
    decay_mult: 0
  }
  convolution_param {
    num_output: 256
    pad: 1
    kernel_size: 3
    stride: 2
    weight_filler {
      type: "xavier"
    }
    bias_filler {
      type: "constant"
      value: 0
    }
  }
}
layer {
  name: "conv7_2_relu"
  type: "ReLU"
  bottom: "conv7_2"
  top: "conv7_2"
}
layer {
  name: "conv8_1"
  type: "Convolution"
  bottom: "conv7_2"
  top: "conv8_1"
  param {
    lr_mult: 1
    decay_mult: 1
  }
  param {
    lr_mult: 2
    decay_mult: 0
  }
  convolution_param {
    num_output: 128
    pad: 0
    kernel_size: 1
    stride: 1
    weight_filler {
      type: "xavier"
    }
    bias_filler {
      type: "constant"
      value: 0
    }
  }
}
layer {
  name: "conv8_1_relu"
  type: "ReLU"
  bottom: "conv8_1"
  top: "conv8_1"
}
layer {
  name: "conv8_2"
  type: "Convolution"
  bottom: "conv8_1"
  top: "conv8_2"
  param {
    lr_mult: 1
    decay_mult: 1
  }
  param {
    lr_mult: 2
    decay_mult: 0
  }
  convolution_param {
    num_output: 256
    pad: 0
    kernel_size: 3
    stride: 1
    weight_filler {
      type: "xavier"
    }
    bias_filler {
      type: "constant"
      value: 0
    }
  }
}
layer {
  name: "conv8_2_relu"
  type: "ReLU"
  bottom: "conv8_2"
  top: "conv8_2"
}
layer {
  name: "conv9_1"
  type: "Convolution"
  bottom: "conv8_2"
  top: "conv9_1"
  param {
    lr_mult: 1
    decay_mult: 1
  }
  param {
    lr_mult: 2
    decay_mult: 0
  }
  convolution_param {
    num_output: 128
    pad: 0
    kernel_size: 1
    stride: 1
    weight_filler {
      type: "xavier"
    }
    bias_filler {
      type: "constant"
      value: 0
    }
  }
}
layer {
  name: "conv9_1_relu"
  type: "ReLU"
  bottom: "conv9_1"
  top: "conv9_1"
}
layer {
  name: "conv9_2"
  type: "Convolution"
  bottom: "conv9_1"
  top: "conv9_2"
  param {
    lr_mult: 1
    decay_mult: 1
  }
  param {
    lr_mult: 2
    decay_mult: 0
  }
  convolution_param {
    num_output: 256
    pad: 0
    kernel_size: 3
    stride: 1
    weight_filler {
      type: "xavier"
    }
    bias_filler {
      type: "constant"
      value: 0
    }
  }
}
layer {
  name: "conv9_2_relu"
  type: "ReLU"
  bottom: "conv9_2"
  top: "conv9_2"
}
layer {
  name: "conv4_3_norm"
  type: "Normalize"
  bottom: "conv4_3"
  top: "conv4_3_norm"
  norm_param {
    across_spatial: false
    scale_filler {
      type: "constant"
      value: 20
    }
    channel_shared: false
  }
}
layer {
  name: "conv4_3_norm_mbox_loc"
  type: "Convolution"
  bottom: "conv4_3_norm"
  top: "conv4_3_norm_mbox_loc"
  param {
    lr_mult: 1
    decay_mult: 1
  }
  param {
    lr_mult: 2
    decay_mult: 0
  }
  convolution_param {
    num_output: 16
    pad: 1
    kernel_size: 3
    stride: 1
    weight_filler {
      type: "xavier"
    }
    bias_filler {
      type: "constant"
      value: 0
    }
  }
}
layer {
  name: "conv4_3_norm_mbox_loc_perm"
  type: "Permute"
  bottom: "conv4_3_norm_mbox_loc"
  top: "conv4_3_norm_mbox_loc_perm"
  permute_param {
    order: 0
    order: 2
    order: 3
    order: 1
  }
}
layer {
  name: "conv4_3_norm_mbox_loc_flat"
  type: "Flatten"
  bottom: "conv4_3_norm_mbox_loc_perm"
  top: "conv4_3_norm_mbox_loc_flat"
  flatten_param {
    axis: 1
  }
}
layer {
  name: "conv4_3_norm_mbox_conf"
  type: "Convolution"
  bottom: "conv4_3_norm"
  top: "conv4_3_norm_mbox_conf"
  param {
    lr_mult: 1
    decay_mult: 1
  }
  param {
    lr_mult: 2
    decay_mult: 0
  }
  convolution_param {
    num_output: 44
    pad: 1
    kernel_size: 3
    stride: 1
    weight_filler {
      type: "xavier"
    }
    bias_filler {
      type: "constant"
      value: 0
    }
  }
}
layer {
  name: "conv4_3_norm_mbox_conf_perm"
  type: "Permute"
  bottom: "conv4_3_norm_mbox_conf"
  top: "conv4_3_norm_mbox_conf_perm"
  permute_param {
    order: 0
    order: 2
    order: 3
    order: 1
  }
}
layer {
  name: "conv4_3_norm_mbox_conf_flat"
  type: "Flatten"
  bottom: "conv4_3_norm_mbox_conf_perm"
  top: "conv4_3_norm_mbox_conf_flat"
  flatten_param {
    axis: 1
  }
}
layer {
  name: "conv4_3_norm_mbox_priorbox"
  type: "PriorBox"
  bottom: "conv4_3_norm"
  bottom: "data"
  top: "conv4_3_norm_mbox_priorbox"
  prior_box_param {
    min_size: 30
    max_size: 60
    aspect_ratio: 2
    flip: true
    clip: false
    variance: 0.1
    variance: 0.1
    variance: 0.2
    variance: 0.2
    step: 8
    offset: 0.5
  }
}
layer {
  name: "fc7_mbox_loc"
  type: "Convolution"
  bottom: "fc7"
  top: "fc7_mbox_loc"
  param {
    lr_mult: 1
    decay_mult: 1
  }
  param {
    lr_mult: 2
    decay_mult: 0
  }
  convolution_param {
    num_output: 24
    pad: 1
    kernel_size: 3
    stride: 1
    weight_filler {
      type: "xavier"
    }
    bias_filler {
      type: "constant"
      value: 0
    }
  }
}
layer {
  name: "fc7_mbox_loc_perm"
  type: "Permute"
  bottom: "fc7_mbox_loc"
  top: "fc7_mbox_loc_perm"
  permute_param {
    order: 0
    order: 2
    order: 3
    order: 1
  }
}
layer {
  name: "fc7_mbox_loc_flat"
  type: "Flatten"
  bottom: "fc7_mbox_loc_perm"
  top: "fc7_mbox_loc_flat"
  flatten_param {
    axis: 1
  }
}
layer {
  name: "fc7_mbox_conf"
  type: "Convolution"
  bottom: "fc7"
  top: "fc7_mbox_conf"
  param {
    lr_mult: 1
    decay_mult: 1
  }
  param {
    lr_mult: 2
    decay_mult: 0
  }
  convolution_param {
    num_output: 66
    pad: 1
    kernel_size: 3
    stride: 1
    weight_filler {
      type: "xavier"
    }
    bias_filler {
      type: "constant"
      value: 0
    }
  }
}
layer {
  name: "fc7_mbox_conf_perm"
  type: "Permute"
  bottom: "fc7_mbox_conf"
  top: "fc7_mbox_conf_perm"
  permute_param {
    order: 0
    order: 2
    order: 3
    order: 1
  }
}
layer {
  name: "fc7_mbox_conf_flat"
  type: "Flatten"
  bottom: "fc7_mbox_conf_perm"
  top: "fc7_mbox_conf_flat"
  flatten_param {
    axis: 1
  }
}
layer {
  name: "fc7_mbox_priorbox"
  type: "PriorBox"
  bottom: "fc7"
  bottom: "data"
  top: "fc7_mbox_priorbox"
  prior_box_param {
    min_size: 60
    max_size: 111
    aspect_ratio: 2
    aspect_ratio: 3
    flip: true
    clip: false
    variance: 0.1
    variance: 0.1
    variance: 0.2
    variance: 0.2
    step: 16
    offset: 0.5
  }
}
layer {
  name: "conv6_2_mbox_loc"
  type: "Convolution"
  bottom: "conv6_2"
  top: "conv6_2_mbox_loc"
  param {
    lr_mult: 1
    decay_mult: 1
  }
  param {
    lr_mult: 2
    decay_mult: 0
  }
  convolution_param {
    num_output: 24
    pad: 1
    kernel_size: 3
    stride: 1
    weight_filler {
      type: "xavier"
    }
    bias_filler {
      type: "constant"
      value: 0
    }
  }
}
layer {
  name: "conv6_2_mbox_loc_perm"
  type: "Permute"
  bottom: "conv6_2_mbox_loc"
  top: "conv6_2_mbox_loc_perm"
  permute_param {
    order: 0
    order: 2
    order: 3
    order: 1
  }
}
layer {
  name: "conv6_2_mbox_loc_flat"
  type: "Flatten"
  bottom: "conv6_2_mbox_loc_perm"
  top: "conv6_2_mbox_loc_flat"
  flatten_param {
    axis: 1
  }
}
layer {
  name: "conv6_2_mbox_conf"
  type: "Convolution"
  bottom: "conv6_2"
  top: "conv6_2_mbox_conf"
  param {
    lr_mult: 1
    decay_mult: 1
  }
  param {
    lr_mult: 2
    decay_mult: 0
  }
  convolution_param {
    num_output: 66
    pad: 1
    kernel_size: 3
    stride: 1
    weight_filler {
      type: "xavier"
    }
    bias_filler {
      type: "constant"
      value: 0
    }
  }
}
layer {
  name: "conv6_2_mbox_conf_perm"
  type: "Permute"
  bottom: "conv6_2_mbox_conf"
  top: "conv6_2_mbox_conf_perm"
  permute_param {
    order: 0
    order: 2
    order: 3
    order: 1
  }
}
layer {
  name: "conv6_2_mbox_conf_flat"
  type: "Flatten"
  bottom: "conv6_2_mbox_conf_perm"
  top: "conv6_2_mbox_conf_flat"
  flatten_param {
    axis: 1
  }
}
layer {
  name: "conv6_2_mbox_priorbox"
  type: "PriorBox"
  bottom: "conv6_2"
  bottom: "data"
  top: "conv6_2_mbox_priorbox"
  prior_box_param {
    min_size: 111
    max_size: 162
    aspect_ratio: 2
    aspect_ratio: 3
    flip: true
    clip: false
    variance: 0.1
    variance: 0.1
    variance: 0.2
    variance: 0.2
    step: 32
    offset: 0.5
  }
}
layer {
  name: "conv7_2_mbox_loc"
  type: "Convolution"
  bottom: "conv7_2"
  top: "conv7_2_mbox_loc"
  param {
    lr_mult: 1
    decay_mult: 1
  }
  param {
    lr_mult: 2
    decay_mult: 0
  }
  convolution_param {
    num_output: 24
    pad: 1
    kernel_size: 3
    stride: 1
    weight_filler {
      type: "xavier"
    }
    bias_filler {
      type: "constant"
      value: 0
    }
  }
}
layer {
  name: "conv7_2_mbox_loc_perm"
  type: "Permute"
  bottom: "conv7_2_mbox_loc"
  top: "conv7_2_mbox_loc_perm"
  permute_param {
    order: 0
    order: 2
    order: 3
    order: 1
  }
}
layer {
  name: "conv7_2_mbox_loc_flat"
  type: "Flatten"
  bottom: "conv7_2_mbox_loc_perm"
  top: "conv7_2_mbox_loc_flat"
  flatten_param {
    axis: 1
  }
}
layer {
  name: "conv7_2_mbox_conf"
  type: "Convolution"
  bottom: "conv7_2"
  top: "conv7_2_mbox_conf"
  param {
    lr_mult: 1
    decay_mult: 1
  }
  param {
    lr_mult: 2
    decay_mult: 0
  }
  convolution_param {
    num_output: 66
    pad: 1
    kernel_size: 3
    stride: 1
    weight_filler {
      type: "xavier"
    }
    bias_filler {
      type: "constant"
      value: 0
    }
  }
}
layer {
  name: "conv7_2_mbox_conf_perm"
  type: "Permute"
  bottom: "conv7_2_mbox_conf"
  top: "conv7_2_mbox_conf_perm"
  permute_param {
    order: 0
    order: 2
    order: 3
    order: 1
  }
}
layer {
  name: "conv7_2_mbox_conf_flat"
  type: "Flatten"
  bottom: "conv7_2_mbox_conf_perm"
  top: "conv7_2_mbox_conf_flat"
  flatten_param {
    axis: 1
  }
}
layer {
  name: "conv7_2_mbox_priorbox"
  type: "PriorBox"
  bottom: "conv7_2"
  bottom: "data"
  top: "conv7_2_mbox_priorbox"
  prior_box_param {
    min_size: 162
    max_size: 213
    aspect_ratio: 2
    aspect_ratio: 3
    flip: true
    clip: false
    variance: 0.1
    variance: 0.1
    variance: 0.2
    variance: 0.2
    step: 64
    offset: 0.5
  }
}
layer {
  name: "conv8_2_mbox_loc"
  type: "Convolution"
  bottom: "conv8_2"
  top: "conv8_2_mbox_loc"
  param {
    lr_mult: 1
    decay_mult: 1
  }
  param {
    lr_mult: 2
    decay_mult: 0
  }
  convolution_param {
    num_output: 16
    pad: 1
    kernel_size: 3
    stride: 1
    weight_filler {
      type: "xavier"
    }
    bias_filler {
      type: "constant"
      value: 0
    }
  }
}
layer {
  name: "conv8_2_mbox_loc_perm"
  type: "Permute"
  bottom: "conv8_2_mbox_loc"
  top: "conv8_2_mbox_loc_perm"
  permute_param {
    order: 0
    order: 2
    order: 3
    order: 1
  }
}
layer {
  name: "conv8_2_mbox_loc_flat"
  type: "Flatten"
  bottom: "conv8_2_mbox_loc_perm"
  top: "conv8_2_mbox_loc_flat"
  flatten_param {
    axis: 1
  }
}
layer {
  name: "conv8_2_mbox_conf"
  type: "Convolution"
  bottom: "conv8_2"
  top: "conv8_2_mbox_conf"
  param {
    lr_mult: 1
    decay_mult: 1
  }
  param {
    lr_mult: 2
    decay_mult: 0
  }
  convolution_param {
    num_output: 44
    pad: 1
    kernel_size: 3
    stride: 1
    weight_filler {
      type: "xavier"
    }
    bias_filler {
      type: "constant"
      value: 0
    }
  }
}
layer {
  name: "conv8_2_mbox_conf_perm"
  type: "Permute"
  bottom: "conv8_2_mbox_conf"
  top: "conv8_2_mbox_conf_perm"
  permute_param {
    order: 0
    order: 2
    order: 3
    order: 1
  }
}
layer {
  name: "conv8_2_mbox_conf_flat"
  type: "Flatten"
  bottom: "conv8_2_mbox_conf_perm"
  top: "conv8_2_mbox_conf_flat"
  flatten_param {
    axis: 1
  }
}
layer {
  name: "conv8_2_mbox_priorbox"
  type: "PriorBox"
  bottom: "conv8_2"
  bottom: "data"
  top: "conv8_2_mbox_priorbox"
  prior_box_param {
    min_size: 213
    max_size: 264
    aspect_ratio: 2
    flip: true
    clip: false
    variance: 0.1
    variance: 0.1
    variance: 0.2
    variance: 0.2
    step: 100
    offset: 0.5
  }
}
layer {
  name: "conv9_2_mbox_loc"
  type: "Convolution"
  bottom: "conv9_2"
  top: "conv9_2_mbox_loc"
  param {
    lr_mult: 1
    decay_mult: 1
  }
  param {
    lr_mult: 2
    decay_mult: 0
  }
  convolution_param {
    num_output: 16
    pad: 1
    kernel_size: 3
    stride: 1
    weight_filler {
      type: "xavier"
    }
    bias_filler {
      type: "constant"
      value: 0
    }
  }
}
layer {
  name: "conv9_2_mbox_loc_perm"
  type: "Permute"
  bottom: "conv9_2_mbox_loc"
  top: "conv9_2_mbox_loc_perm"
  permute_param {
    order: 0
    order: 2
    order: 3
    order: 1
  }
}
layer {
  name: "conv9_2_mbox_loc_flat"
  type: "Flatten"
  bottom: "conv9_2_mbox_loc_perm"
  top: "conv9_2_mbox_loc_flat"
  flatten_param {
    axis: 1
  }
}
layer {
  name: "conv9_2_mbox_conf"
  type: "Convolution"
  bottom: "conv9_2"
  top: "conv9_2_mbox_conf"
  param {
    lr_mult: 1
    decay_mult: 1
  }
  param {
    lr_mult: 2
    decay_mult: 0
  }
  convolution_param {
    num_output: 44
    pad: 1
    kernel_size: 3
    stride: 1
    weight_filler {
      type: "xavier"
    }
    bias_filler {
      type: "constant"
      value: 0
    }
  }
}
layer {
  name: "conv9_2_mbox_conf_perm"
  type: "Permute"
  bottom: "conv9_2_mbox_conf"
  top: "conv9_2_mbox_conf_perm"
  permute_param {
    order: 0
    order: 2
    order: 3
    order: 1
  }
}
layer {
  name: "conv9_2_mbox_conf_flat"
  type: "Flatten"
  bottom: "conv9_2_mbox_conf_perm"
  top: "conv9_2_mbox_conf_flat"
  flatten_param {
    axis: 1
  }
}
layer {
  name: "conv9_2_mbox_priorbox"
  type: "PriorBox"
  bottom: "conv9_2"
  bottom: "data"
  top: "conv9_2_mbox_priorbox"
  prior_box_param {
    min_size: 264
    max_size: 315
    aspect_ratio: 2
    flip: true
    clip: false
    variance: 0.1
    variance: 0.1
    variance: 0.2
    variance: 0.2
    step: 300
    offset: 0.5
  }
}
layer {
  name: "mbox_loc"
  type: "Concat"
  bottom: "conv4_3_norm_mbox_loc_flat"
  bottom: "fc7_mbox_loc_flat"
  bottom: "conv6_2_mbox_loc_flat"
  bottom: "conv7_2_mbox_loc_flat"
  bottom: "conv8_2_mbox_loc_flat"
  bottom: "conv9_2_mbox_loc_flat"
  top: "mbox_loc"
  concat_param {
    axis: 1
  }
}
layer {
  name: "mbox_conf"
  type: "Concat"
  bottom: "conv4_3_norm_mbox_conf_flat"
  bottom: "fc7_mbox_conf_flat"
  bottom: "conv6_2_mbox_conf_flat"
  bottom: "conv7_2_mbox_conf_flat"
  bottom: "conv8_2_mbox_conf_flat"
  bottom: "conv9_2_mbox_conf_flat"
  top: "mbox_conf"
  concat_param {
    axis: 1
  }
}
layer {
  name: "mbox_priorbox"
  type: "Concat"
  bottom: "conv4_3_norm_mbox_priorbox"
  bottom: "fc7_mbox_priorbox"
  bottom: "conv6_2_mbox_priorbox"
  bottom: "conv7_2_mbox_priorbox"
  bottom: "conv8_2_mbox_priorbox"
  bottom: "conv9_2_mbox_priorbox"
  top: "mbox_priorbox"
  concat_param {
    axis: 2
  }
}
layer {
  name: "mbox_loss"
  type: "MultiBoxLoss"
  bottom: "mbox_loc"
  bottom: "mbox_conf"
  bottom: "mbox_priorbox"
  bottom: "label"
  top: "mbox_loss"
  include {
    phase: TRAIN
  }
  propagate_down: true
  propagate_down: true
  propagate_down: false
  propagate_down: false
  loss_param {
    normalization: VALID
  }
  multibox_loss_param {
    loc_loss_type: SMOOTH_L1
    conf_loss_type: SOFTMAX
    loc_weight: 1
    num_classes: 11
    share_location: true
    match_type: PER_PREDICTION
    overlap_threshold: 0.5
    use_prior_for_matching: true
    background_label_id: 0
    use_difficult_gt: true
    neg_pos_ratio: 3
    neg_overlap: 0.5
    code_type: CENTER_SIZE
    ignore_cross_boundary_bbox: false
    mining_type: MAX_NEGATIVE
  }
}
I0301 13:13:54.573501 10294 layer_factory.hpp:77] Creating layer data
I0301 13:13:54.574677 10294 net.cpp:100] Creating Layer data
I0301 13:13:54.574715 10294 net.cpp:408] data -> data
I0301 13:13:54.574774 10294 net.cpp:408] data -> label
I0301 13:13:54.608155 10309 db_lmdb.cpp:35] Opened lmdb examples/NWPU_VHR/NWPU_VHR_trainval_lmdb
I0301 13:13:55.678797 10294 annotated_data_layer.cpp:62] output data size: 32,3,300,300
I0301 13:13:55.751902 10294 net.cpp:150] Setting up data
I0301 13:13:55.751941 10294 net.cpp:157] Top shape: 32 3 300 300 (8640000)
I0301 13:13:55.751952 10294 net.cpp:157] Top shape: 1 1 4 8 (32)
I0301 13:13:55.751958 10294 net.cpp:165] Memory required for data: 34560128
I0301 13:13:55.751974 10294 layer_factory.hpp:77] Creating layer data_data_0_split
I0301 13:13:55.751993 10294 net.cpp:100] Creating Layer data_data_0_split
I0301 13:13:55.752004 10294 net.cpp:434] data_data_0_split <- data
I0301 13:13:55.752025 10294 net.cpp:408] data_data_0_split -> data_data_0_split_0
I0301 13:13:55.752044 10294 net.cpp:408] data_data_0_split -> data_data_0_split_1
I0301 13:13:55.752077 10294 net.cpp:408] data_data_0_split -> data_data_0_split_2
I0301 13:13:55.752091 10294 net.cpp:408] data_data_0_split -> data_data_0_split_3
I0301 13:13:55.752102 10294 net.cpp:408] data_data_0_split -> data_data_0_split_4
I0301 13:13:55.752113 10294 net.cpp:408] data_data_0_split -> data_data_0_split_5
I0301 13:13:55.752125 10294 net.cpp:408] data_data_0_split -> data_data_0_split_6
I0301 13:13:55.752306 10294 net.cpp:150] Setting up data_data_0_split
I0301 13:13:55.752322 10294 net.cpp:157] Top shape: 32 3 300 300 (8640000)
I0301 13:13:55.752329 10294 net.cpp:157] Top shape: 32 3 300 300 (8640000)
I0301 13:13:55.752336 10294 net.cpp:157] Top shape: 32 3 300 300 (8640000)
I0301 13:13:55.752346 10294 net.cpp:157] Top shape: 32 3 300 300 (8640000)
I0301 13:13:55.752354 10294 net.cpp:157] Top shape: 32 3 300 300 (8640000)
I0301 13:13:55.752362 10294 net.cpp:157] Top shape: 32 3 300 300 (8640000)
I0301 13:13:55.752369 10294 net.cpp:157] Top shape: 32 3 300 300 (8640000)
I0301 13:13:55.752377 10294 net.cpp:165] Memory required for data: 276480128
I0301 13:13:55.752382 10294 layer_factory.hpp:77] Creating layer conv1_1
I0301 13:13:55.752408 10294 net.cpp:100] Creating Layer conv1_1
I0301 13:13:55.752418 10294 net.cpp:434] conv1_1 <- data_data_0_split_0
I0301 13:13:55.752432 10294 net.cpp:408] conv1_1 -> conv1_1
I0301 13:13:59.879751 10294 net.cpp:150] Setting up conv1_1
I0301 13:13:59.879801 10294 net.cpp:157] Top shape: 32 64 300 300 (184320000)
I0301 13:13:59.879812 10294 net.cpp:165] Memory required for data: 1013760128
I0301 13:13:59.879851 10294 layer_factory.hpp:77] Creating layer relu1_1
I0301 13:13:59.879873 10294 net.cpp:100] Creating Layer relu1_1
I0301 13:13:59.879882 10294 net.cpp:434] relu1_1 <- conv1_1
I0301 13:13:59.879895 10294 net.cpp:395] relu1_1 -> conv1_1 (in-place)
I0301 13:13:59.881530 10294 net.cpp:150] Setting up relu1_1
I0301 13:13:59.881561 10294 net.cpp:157] Top shape: 32 64 300 300 (184320000)
I0301 13:13:59.881569 10294 net.cpp:165] Memory required for data: 1751040128
I0301 13:13:59.881578 10294 layer_factory.hpp:77] Creating layer conv1_2
I0301 13:13:59.881608 10294 net.cpp:100] Creating Layer conv1_2
I0301 13:13:59.881618 10294 net.cpp:434] conv1_2 <- conv1_1
I0301 13:13:59.881633 10294 net.cpp:408] conv1_2 -> conv1_2
I0301 13:13:59.886605 10294 net.cpp:150] Setting up conv1_2
I0301 13:13:59.886638 10294 net.cpp:157] Top shape: 32 64 300 300 (184320000)
I0301 13:13:59.886646 10294 net.cpp:165] Memory required for data: 2488320128
I0301 13:13:59.886667 10294 layer_factory.hpp:77] Creating layer relu1_2
I0301 13:13:59.886679 10294 net.cpp:100] Creating Layer relu1_2
I0301 13:13:59.886689 10294 net.cpp:434] relu1_2 <- conv1_2
I0301 13:13:59.886700 10294 net.cpp:395] relu1_2 -> conv1_2 (in-place)
I0301 13:13:59.887037 10294 net.cpp:150] Setting up relu1_2
I0301 13:13:59.887058 10294 net.cpp:157] Top shape: 32 64 300 300 (184320000)
I0301 13:13:59.887066 10294 net.cpp:165] Memory required for data: 3225600128
I0301 13:13:59.887074 10294 layer_factory.hpp:77] Creating layer pool1
I0301 13:13:59.887089 10294 net.cpp:100] Creating Layer pool1
I0301 13:13:59.887097 10294 net.cpp:434] pool1 <- conv1_2
I0301 13:13:59.887110 10294 net.cpp:408] pool1 -> pool1
I0301 13:13:59.887202 10294 net.cpp:150] Setting up pool1
I0301 13:13:59.887219 10294 net.cpp:157] Top shape: 32 64 150 150 (46080000)
I0301 13:13:59.887228 10294 net.cpp:165] Memory required for data: 3409920128
I0301 13:13:59.887236 10294 layer_factory.hpp:77] Creating layer conv2_1
I0301 13:13:59.887254 10294 net.cpp:100] Creating Layer conv2_1
I0301 13:13:59.887265 10294 net.cpp:434] conv2_1 <- pool1
I0301 13:13:59.887279 10294 net.cpp:408] conv2_1 -> conv2_1
I0301 13:13:59.891852 10294 net.cpp:150] Setting up conv2_1
I0301 13:13:59.891882 10294 net.cpp:157] Top shape: 32 128 150 150 (92160000)
I0301 13:13:59.891891 10294 net.cpp:165] Memory required for data: 3778560128
I0301 13:13:59.891911 10294 layer_factory.hpp:77] Creating layer relu2_1
I0301 13:13:59.891930 10294 net.cpp:100] Creating Layer relu2_1
I0301 13:13:59.891975 10294 net.cpp:434] relu2_1 <- conv2_1
I0301 13:13:59.891989 10294 net.cpp:395] relu2_1 -> conv2_1 (in-place)
I0301 13:13:59.892349 10294 net.cpp:150] Setting up relu2_1
I0301 13:13:59.892370 10294 net.cpp:157] Top shape: 32 128 150 150 (92160000)
I0301 13:13:59.892379 10294 net.cpp:165] Memory required for data: 4147200128
I0301 13:13:59.892386 10294 layer_factory.hpp:77] Creating layer conv2_2
I0301 13:13:59.892405 10294 net.cpp:100] Creating Layer conv2_2
I0301 13:13:59.892421 10294 net.cpp:434] conv2_2 <- conv2_1
I0301 13:13:59.892433 10294 net.cpp:408] conv2_2 -> conv2_2
I0301 13:13:59.897918 10294 net.cpp:150] Setting up conv2_2
I0301 13:13:59.897948 10294 net.cpp:157] Top shape: 32 128 150 150 (92160000)
I0301 13:13:59.897958 10294 net.cpp:165] Memory required for data: 4515840128
I0301 13:13:59.897972 10294 layer_factory.hpp:77] Creating layer relu2_2
I0301 13:13:59.897985 10294 net.cpp:100] Creating Layer relu2_2
I0301 13:13:59.897994 10294 net.cpp:434] relu2_2 <- conv2_2
I0301 13:13:59.898005 10294 net.cpp:395] relu2_2 -> conv2_2 (in-place)
I0301 13:13:59.899428 10294 net.cpp:150] Setting up relu2_2
I0301 13:13:59.899456 10294 net.cpp:157] Top shape: 32 128 150 150 (92160000)
I0301 13:13:59.899462 10294 net.cpp:165] Memory required for data: 4884480128
I0301 13:13:59.899471 10294 layer_factory.hpp:77] Creating layer pool2
I0301 13:13:59.899484 10294 net.cpp:100] Creating Layer pool2
I0301 13:13:59.899493 10294 net.cpp:434] pool2 <- conv2_2
I0301 13:13:59.899504 10294 net.cpp:408] pool2 -> pool2
I0301 13:13:59.899587 10294 net.cpp:150] Setting up pool2
I0301 13:13:59.899603 10294 net.cpp:157] Top shape: 32 128 75 75 (23040000)
I0301 13:13:59.899610 10294 net.cpp:165] Memory required for data: 4976640128
I0301 13:13:59.899617 10294 layer_factory.hpp:77] Creating layer conv3_1
I0301 13:13:59.899636 10294 net.cpp:100] Creating Layer conv3_1
I0301 13:13:59.899644 10294 net.cpp:434] conv3_1 <- pool2
I0301 13:13:59.899655 10294 net.cpp:408] conv3_1 -> conv3_1
I0301 13:13:59.909042 10294 net.cpp:150] Setting up conv3_1
I0301 13:13:59.909075 10294 net.cpp:157] Top shape: 32 256 75 75 (46080000)
I0301 13:13:59.909082 10294 net.cpp:165] Memory required for data: 5160960128
I0301 13:13:59.909101 10294 layer_factory.hpp:77] Creating layer relu3_1
I0301 13:13:59.909114 10294 net.cpp:100] Creating Layer relu3_1
I0301 13:13:59.909124 10294 net.cpp:434] relu3_1 <- conv3_1
I0301 13:13:59.909134 10294 net.cpp:395] relu3_1 -> conv3_1 (in-place)
I0301 13:13:59.909463 10294 net.cpp:150] Setting up relu3_1
I0301 13:13:59.909484 10294 net.cpp:157] Top shape: 32 256 75 75 (46080000)
I0301 13:13:59.909493 10294 net.cpp:165] Memory required for data: 5345280128
I0301 13:13:59.909500 10294 layer_factory.hpp:77] Creating layer conv3_2
I0301 13:13:59.909518 10294 net.cpp:100] Creating Layer conv3_2
I0301 13:13:59.909528 10294 net.cpp:434] conv3_2 <- conv3_1
I0301 13:13:59.909543 10294 net.cpp:408] conv3_2 -> conv3_2
I0301 13:13:59.919836 10294 net.cpp:150] Setting up conv3_2
I0301 13:13:59.919865 10294 net.cpp:157] Top shape: 32 256 75 75 (46080000)
I0301 13:13:59.919873 10294 net.cpp:165] Memory required for data: 5529600128
I0301 13:13:59.919888 10294 layer_factory.hpp:77] Creating layer relu3_2
I0301 13:13:59.919900 10294 net.cpp:100] Creating Layer relu3_2
I0301 13:13:59.919917 10294 net.cpp:434] relu3_2 <- conv3_2
I0301 13:13:59.919930 10294 net.cpp:395] relu3_2 -> conv3_2 (in-place)
I0301 13:13:59.920258 10294 net.cpp:150] Setting up relu3_2
I0301 13:13:59.920277 10294 net.cpp:157] Top shape: 32 256 75 75 (46080000)
I0301 13:13:59.920284 10294 net.cpp:165] Memory required for data: 5713920128
I0301 13:13:59.920291 10294 layer_factory.hpp:77] Creating layer conv3_3
I0301 13:13:59.920320 10294 net.cpp:100] Creating Layer conv3_3
I0301 13:13:59.920331 10294 net.cpp:434] conv3_3 <- conv3_2
I0301 13:13:59.920344 10294 net.cpp:408] conv3_3 -> conv3_3
I0301 13:13:59.930161 10294 net.cpp:150] Setting up conv3_3
I0301 13:13:59.930191 10294 net.cpp:157] Top shape: 32 256 75 75 (46080000)
I0301 13:13:59.930222 10294 net.cpp:165] Memory required for data: 5898240128
I0301 13:13:59.930246 10294 layer_factory.hpp:77] Creating layer relu3_3
I0301 13:13:59.930264 10294 net.cpp:100] Creating Layer relu3_3
I0301 13:13:59.930276 10294 net.cpp:434] relu3_3 <- conv3_3
I0301 13:13:59.930285 10294 net.cpp:395] relu3_3 -> conv3_3 (in-place)
I0301 13:13:59.931563 10294 net.cpp:150] Setting up relu3_3
I0301 13:13:59.931586 10294 net.cpp:157] Top shape: 32 256 75 75 (46080000)
I0301 13:13:59.931596 10294 net.cpp:165] Memory required for data: 6082560128
I0301 13:13:59.931602 10294 layer_factory.hpp:77] Creating layer pool3
I0301 13:13:59.931614 10294 net.cpp:100] Creating Layer pool3
I0301 13:13:59.931622 10294 net.cpp:434] pool3 <- conv3_3
I0301 13:13:59.931641 10294 net.cpp:408] pool3 -> pool3
I0301 13:13:59.931723 10294 net.cpp:150] Setting up pool3
I0301 13:13:59.931737 10294 net.cpp:157] Top shape: 32 256 38 38 (11829248)
I0301 13:13:59.931744 10294 net.cpp:165] Memory required for data: 6129877120
I0301 13:13:59.931754 10294 layer_factory.hpp:77] Creating layer conv4_1
I0301 13:13:59.931771 10294 net.cpp:100] Creating Layer conv4_1
I0301 13:13:59.931779 10294 net.cpp:434] conv4_1 <- pool3
I0301 13:13:59.931789 10294 net.cpp:408] conv4_1 -> conv4_1
I0301 13:13:59.946838 10294 net.cpp:150] Setting up conv4_1
I0301 13:13:59.946873 10294 net.cpp:157] Top shape: 32 512 38 38 (23658496)
I0301 13:13:59.946880 10294 net.cpp:165] Memory required for data: 6224511104
I0301 13:13:59.946895 10294 layer_factory.hpp:77] Creating layer relu4_1
I0301 13:13:59.946910 10294 net.cpp:100] Creating Layer relu4_1
I0301 13:13:59.946929 10294 net.cpp:434] relu4_1 <- conv4_1
I0301 13:13:59.946938 10294 net.cpp:395] relu4_1 -> conv4_1 (in-place)
I0301 13:13:59.947232 10294 net.cpp:150] Setting up relu4_1
I0301 13:13:59.947248 10294 net.cpp:157] Top shape: 32 512 38 38 (23658496)
I0301 13:13:59.947254 10294 net.cpp:165] Memory required for data: 6319145088
I0301 13:13:59.947260 10294 layer_factory.hpp:77] Creating layer conv4_2
I0301 13:13:59.947276 10294 net.cpp:100] Creating Layer conv4_2
I0301 13:13:59.947284 10294 net.cpp:434] conv4_2 <- conv4_1
I0301 13:13:59.947304 10294 net.cpp:408] conv4_2 -> conv4_2
I0301 13:13:59.971202 10294 net.cpp:150] Setting up conv4_2
I0301 13:13:59.971241 10294 net.cpp:157] Top shape: 32 512 38 38 (23658496)
I0301 13:13:59.971249 10294 net.cpp:165] Memory required for data: 6413779072
I0301 13:13:59.971271 10294 layer_factory.hpp:77] Creating layer relu4_2
I0301 13:13:59.971285 10294 net.cpp:100] Creating Layer relu4_2
I0301 13:13:59.971297 10294 net.cpp:434] relu4_2 <- conv4_2
I0301 13:13:59.971307 10294 net.cpp:395] relu4_2 -> conv4_2 (in-place)
I0301 13:13:59.971568 10294 net.cpp:150] Setting up relu4_2
I0301 13:13:59.971583 10294 net.cpp:157] Top shape: 32 512 38 38 (23658496)
I0301 13:13:59.971588 10294 net.cpp:165] Memory required for data: 6508413056
I0301 13:13:59.971596 10294 layer_factory.hpp:77] Creating layer conv4_3
I0301 13:13:59.971611 10294 net.cpp:100] Creating Layer conv4_3
I0301 13:13:59.971621 10294 net.cpp:434] conv4_3 <- conv4_2
I0301 13:13:59.971628 10294 net.cpp:408] conv4_3 -> conv4_3
I0301 13:13:59.993932 10294 net.cpp:150] Setting up conv4_3
I0301 13:13:59.993968 10294 net.cpp:157] Top shape: 32 512 38 38 (23658496)
I0301 13:13:59.993973 10294 net.cpp:165] Memory required for data: 6603047040
I0301 13:13:59.993988 10294 layer_factory.hpp:77] Creating layer relu4_3
I0301 13:13:59.994004 10294 net.cpp:100] Creating Layer relu4_3
I0301 13:13:59.994010 10294 net.cpp:434] relu4_3 <- conv4_3
I0301 13:13:59.994033 10294 net.cpp:395] relu4_3 -> conv4_3 (in-place)
I0301 13:13:59.994289 10294 net.cpp:150] Setting up relu4_3
I0301 13:13:59.994305 10294 net.cpp:157] Top shape: 32 512 38 38 (23658496)
I0301 13:13:59.994310 10294 net.cpp:165] Memory required for data: 6697681024
I0301 13:13:59.994315 10294 layer_factory.hpp:77] Creating layer conv4_3_relu4_3_0_split
I0301 13:13:59.994324 10294 net.cpp:100] Creating Layer conv4_3_relu4_3_0_split
I0301 13:13:59.994330 10294 net.cpp:434] conv4_3_relu4_3_0_split <- conv4_3
I0301 13:13:59.994367 10294 net.cpp:408] conv4_3_relu4_3_0_split -> conv4_3_relu4_3_0_split_0
I0301 13:13:59.994380 10294 net.cpp:408] conv4_3_relu4_3_0_split -> conv4_3_relu4_3_0_split_1
I0301 13:13:59.994444 10294 net.cpp:150] Setting up conv4_3_relu4_3_0_split
I0301 13:13:59.994457 10294 net.cpp:157] Top shape: 32 512 38 38 (23658496)
I0301 13:13:59.994463 10294 net.cpp:157] Top shape: 32 512 38 38 (23658496)
I0301 13:13:59.994470 10294 net.cpp:165] Memory required for data: 6886948992
I0301 13:13:59.994475 10294 layer_factory.hpp:77] Creating layer pool4
I0301 13:13:59.994487 10294 net.cpp:100] Creating Layer pool4
I0301 13:13:59.994493 10294 net.cpp:434] pool4 <- conv4_3_relu4_3_0_split_0
I0301 13:13:59.994503 10294 net.cpp:408] pool4 -> pool4
I0301 13:13:59.994554 10294 net.cpp:150] Setting up pool4
I0301 13:13:59.994567 10294 net.cpp:157] Top shape: 32 512 19 19 (5914624)
I0301 13:13:59.994575 10294 net.cpp:165] Memory required for data: 6910607488
I0301 13:13:59.994581 10294 layer_factory.hpp:77] Creating layer conv5_1
I0301 13:13:59.994597 10294 net.cpp:100] Creating Layer conv5_1
I0301 13:13:59.994606 10294 net.cpp:434] conv5_1 <- pool4
I0301 13:13:59.994616 10294 net.cpp:408] conv5_1 -> conv5_1
I0301 13:14:00.017386 10294 net.cpp:150] Setting up conv5_1
I0301 13:14:00.017418 10294 net.cpp:157] Top shape: 32 512 19 19 (5914624)
I0301 13:14:00.017426 10294 net.cpp:165] Memory required for data: 6934265984
I0301 13:14:00.017438 10294 layer_factory.hpp:77] Creating layer relu5_1
I0301 13:14:00.017467 10294 net.cpp:100] Creating Layer relu5_1
I0301 13:14:00.017475 10294 net.cpp:434] relu5_1 <- conv5_1
I0301 13:14:00.017488 10294 net.cpp:395] relu5_1 -> conv5_1 (in-place)
I0301 13:14:00.018426 10294 net.cpp:150] Setting up relu5_1
I0301 13:14:00.018443 10294 net.cpp:157] Top shape: 32 512 19 19 (5914624)
I0301 13:14:00.018450 10294 net.cpp:165] Memory required for data: 6957924480
I0301 13:14:00.018471 10294 layer_factory.hpp:77] Creating layer conv5_2
I0301 13:14:00.018486 10294 net.cpp:100] Creating Layer conv5_2
I0301 13:14:00.018493 10294 net.cpp:434] conv5_2 <- conv5_1
I0301 13:14:00.018504 10294 net.cpp:408] conv5_2 -> conv5_2
I0301 13:14:00.037187 10294 net.cpp:150] Setting up conv5_2
I0301 13:14:00.037217 10294 net.cpp:157] Top shape: 32 512 19 19 (5914624)
I0301 13:14:00.037225 10294 net.cpp:165] Memory required for data: 6981582976
I0301 13:14:00.037238 10294 layer_factory.hpp:77] Creating layer relu5_2
I0301 13:14:00.037252 10294 net.cpp:100] Creating Layer relu5_2
I0301 13:14:00.037261 10294 net.cpp:434] relu5_2 <- conv5_2
I0301 13:14:00.037269 10294 net.cpp:395] relu5_2 -> conv5_2 (in-place)
I0301 13:14:00.037487 10294 net.cpp:150] Setting up relu5_2
I0301 13:14:00.037500 10294 net.cpp:157] Top shape: 32 512 19 19 (5914624)
I0301 13:14:00.037505 10294 net.cpp:165] Memory required for data: 7005241472
I0301 13:14:00.037510 10294 layer_factory.hpp:77] Creating layer conv5_3
I0301 13:14:00.037525 10294 net.cpp:100] Creating Layer conv5_3
I0301 13:14:00.037531 10294 net.cpp:434] conv5_3 <- conv5_2
I0301 13:14:00.037559 10294 net.cpp:408] conv5_3 -> conv5_3
I0301 13:14:00.055431 10294 net.cpp:150] Setting up conv5_3
I0301 13:14:00.055461 10294 net.cpp:157] Top shape: 32 512 19 19 (5914624)
I0301 13:14:00.055467 10294 net.cpp:165] Memory required for data: 7028899968
I0301 13:14:00.055478 10294 layer_factory.hpp:77] Creating layer relu5_3
I0301 13:14:00.055497 10294 net.cpp:100] Creating Layer relu5_3
I0301 13:14:00.055505 10294 net.cpp:434] relu5_3 <- conv5_3
I0301 13:14:00.055513 10294 net.cpp:395] relu5_3 -> conv5_3 (in-place)
I0301 13:14:00.055730 10294 net.cpp:150] Setting up relu5_3
I0301 13:14:00.055742 10294 net.cpp:157] Top shape: 32 512 19 19 (5914624)
I0301 13:14:00.055747 10294 net.cpp:165] Memory required for data: 7052558464
I0301 13:14:00.055753 10294 layer_factory.hpp:77] Creating layer pool5
I0301 13:14:00.055761 10294 net.cpp:100] Creating Layer pool5
I0301 13:14:00.055766 10294 net.cpp:434] pool5 <- conv5_3
I0301 13:14:00.055774 10294 net.cpp:408] pool5 -> pool5
I0301 13:14:00.055842 10294 net.cpp:150] Setting up pool5
I0301 13:14:00.055853 10294 net.cpp:157] Top shape: 32 512 19 19 (5914624)
I0301 13:14:00.055857 10294 net.cpp:165] Memory required for data: 7076216960
I0301 13:14:00.055862 10294 layer_factory.hpp:77] Creating layer fc6
I0301 13:14:00.055878 10294 net.cpp:100] Creating Layer fc6
I0301 13:14:00.055884 10294 net.cpp:434] fc6 <- pool5
I0301 13:14:00.055891 10294 net.cpp:408] fc6 -> fc6
I0301 13:14:00.085929 10294 net.cpp:150] Setting up fc6
I0301 13:14:00.085958 10294 net.cpp:157] Top shape: 32 1024 19 19 (11829248)
I0301 13:14:00.085963 10294 net.cpp:165] Memory required for data: 7123533952
I0301 13:14:00.085973 10294 layer_factory.hpp:77] Creating layer relu6
I0301 13:14:00.085984 10294 net.cpp:100] Creating Layer relu6
I0301 13:14:00.085991 10294 net.cpp:434] relu6 <- fc6
I0301 13:14:00.085999 10294 net.cpp:395] relu6 -> fc6 (in-place)
I0301 13:14:00.086927 10294 net.cpp:150] Setting up relu6
I0301 13:14:00.086944 10294 net.cpp:157] Top shape: 32 1024 19 19 (11829248)
I0301 13:14:00.086951 10294 net.cpp:165] Memory required for data: 7170850944
I0301 13:14:00.086954 10294 layer_factory.hpp:77] Creating layer fc7
I0301 13:14:00.086967 10294 net.cpp:100] Creating Layer fc7
I0301 13:14:00.086974 10294 net.cpp:434] fc7 <- fc6
I0301 13:14:00.086983 10294 net.cpp:408] fc7 -> fc7
I0301 13:14:00.094691 10294 net.cpp:150] Setting up fc7
I0301 13:14:00.094709 10294 net.cpp:157] Top shape: 32 1024 19 19 (11829248)
I0301 13:14:00.094714 10294 net.cpp:165] Memory required for data: 7218167936
I0301 13:14:00.094723 10294 layer_factory.hpp:77] Creating layer relu7
I0301 13:14:00.094732 10294 net.cpp:100] Creating Layer relu7
I0301 13:14:00.094736 10294 net.cpp:434] relu7 <- fc7
I0301 13:14:00.094743 10294 net.cpp:395] relu7 -> fc7 (in-place)
I0301 13:14:00.094920 10294 net.cpp:150] Setting up relu7
I0301 13:14:00.094931 10294 net.cpp:157] Top shape: 32 1024 19 19 (11829248)
I0301 13:14:00.094935 10294 net.cpp:165] Memory required for data: 7265484928
I0301 13:14:00.094940 10294 layer_factory.hpp:77] Creating layer fc7_relu7_0_split
I0301 13:14:00.094949 10294 net.cpp:100] Creating Layer fc7_relu7_0_split
I0301 13:14:00.094954 10294 net.cpp:434] fc7_relu7_0_split <- fc7
I0301 13:14:00.094960 10294 net.cpp:408] fc7_relu7_0_split -> fc7_relu7_0_split_0
I0301 13:14:00.094969 10294 net.cpp:408] fc7_relu7_0_split -> fc7_relu7_0_split_1
I0301 13:14:00.094983 10294 net.cpp:408] fc7_relu7_0_split -> fc7_relu7_0_split_2
I0301 13:14:00.094991 10294 net.cpp:408] fc7_relu7_0_split -> fc7_relu7_0_split_3
I0301 13:14:00.095055 10294 net.cpp:150] Setting up fc7_relu7_0_split
I0301 13:14:00.095063 10294 net.cpp:157] Top shape: 32 1024 19 19 (11829248)
I0301 13:14:00.095070 10294 net.cpp:157] Top shape: 32 1024 19 19 (11829248)
I0301 13:14:00.095075 10294 net.cpp:157] Top shape: 32 1024 19 19 (11829248)
I0301 13:14:00.095079 10294 net.cpp:157] Top shape: 32 1024 19 19 (11829248)
I0301 13:14:00.095083 10294 net.cpp:165] Memory required for data: 7454752896
I0301 13:14:00.095089 10294 layer_factory.hpp:77] Creating layer conv6_1
I0301 13:14:00.095101 10294 net.cpp:100] Creating Layer conv6_1
I0301 13:14:00.095108 10294 net.cpp:434] conv6_1 <- fc7_relu7_0_split_0
I0301 13:14:00.095116 10294 net.cpp:408] conv6_1 -> conv6_1
I0301 13:14:00.099097 10294 net.cpp:150] Setting up conv6_1
I0301 13:14:00.099114 10294 net.cpp:157] Top shape: 32 256 19 19 (2957312)
I0301 13:14:00.099118 10294 net.cpp:165] Memory required for data: 7466582144
I0301 13:14:00.099126 10294 layer_factory.hpp:77] Creating layer conv6_1_relu
I0301 13:14:00.099134 10294 net.cpp:100] Creating Layer conv6_1_relu
I0301 13:14:00.099139 10294 net.cpp:434] conv6_1_relu <- conv6_1
I0301 13:14:00.099145 10294 net.cpp:395] conv6_1_relu -> conv6_1 (in-place)
I0301 13:14:00.099326 10294 net.cpp:150] Setting up conv6_1_relu
I0301 13:14:00.099339 10294 net.cpp:157] Top shape: 32 256 19 19 (2957312)
I0301 13:14:00.099344 10294 net.cpp:165] Memory required for data: 7478411392
I0301 13:14:00.099347 10294 layer_factory.hpp:77] Creating layer conv6_2
I0301 13:14:00.099373 10294 net.cpp:100] Creating Layer conv6_2
I0301 13:14:00.099380 10294 net.cpp:434] conv6_2 <- conv6_1
I0301 13:14:00.099386 10294 net.cpp:408] conv6_2 -> conv6_2
I0301 13:14:00.107625 10294 net.cpp:150] Setting up conv6_2
I0301 13:14:00.107646 10294 net.cpp:157] Top shape: 32 512 10 10 (1638400)
I0301 13:14:00.107651 10294 net.cpp:165] Memory required for data: 7484964992
I0301 13:14:00.107669 10294 layer_factory.hpp:77] Creating layer conv6_2_relu
I0301 13:14:00.107684 10294 net.cpp:100] Creating Layer conv6_2_relu
I0301 13:14:00.107692 10294 net.cpp:434] conv6_2_relu <- conv6_2
I0301 13:14:00.107698 10294 net.cpp:395] conv6_2_relu -> conv6_2 (in-place)
I0301 13:14:00.108449 10294 net.cpp:150] Setting up conv6_2_relu
I0301 13:14:00.108463 10294 net.cpp:157] Top shape: 32 512 10 10 (1638400)
I0301 13:14:00.108466 10294 net.cpp:165] Memory required for data: 7491518592
I0301 13:14:00.108474 10294 layer_factory.hpp:77] Creating layer conv6_2_conv6_2_relu_0_split
I0301 13:14:00.108480 10294 net.cpp:100] Creating Layer conv6_2_conv6_2_relu_0_split
I0301 13:14:00.108486 10294 net.cpp:434] conv6_2_conv6_2_relu_0_split <- conv6_2
I0301 13:14:00.108494 10294 net.cpp:408] conv6_2_conv6_2_relu_0_split -> conv6_2_conv6_2_relu_0_split_0
I0301 13:14:00.108505 10294 net.cpp:408] conv6_2_conv6_2_relu_0_split -> conv6_2_conv6_2_relu_0_split_1
I0301 13:14:00.108513 10294 net.cpp:408] conv6_2_conv6_2_relu_0_split -> conv6_2_conv6_2_relu_0_split_2
I0301 13:14:00.108521 10294 net.cpp:408] conv6_2_conv6_2_relu_0_split -> conv6_2_conv6_2_relu_0_split_3
I0301 13:14:00.108589 10294 net.cpp:150] Setting up conv6_2_conv6_2_relu_0_split
I0301 13:14:00.108598 10294 net.cpp:157] Top shape: 32 512 10 10 (1638400)
I0301 13:14:00.108603 10294 net.cpp:157] Top shape: 32 512 10 10 (1638400)
I0301 13:14:00.108608 10294 net.cpp:157] Top shape: 32 512 10 10 (1638400)
I0301 13:14:00.108613 10294 net.cpp:157] Top shape: 32 512 10 10 (1638400)
I0301 13:14:00.108618 10294 net.cpp:165] Memory required for data: 7517732992
I0301 13:14:00.108624 10294 layer_factory.hpp:77] Creating layer conv7_1
I0301 13:14:00.108638 10294 net.cpp:100] Creating Layer conv7_1
I0301 13:14:00.108644 10294 net.cpp:434] conv7_1 <- conv6_2_conv6_2_relu_0_split_0
I0301 13:14:00.108654 10294 net.cpp:408] conv7_1 -> conv7_1
I0301 13:14:00.110292 10294 net.cpp:150] Setting up conv7_1
I0301 13:14:00.110306 10294 net.cpp:157] Top shape: 32 128 10 10 (409600)
I0301 13:14:00.110312 10294 net.cpp:165] Memory required for data: 7519371392
I0301 13:14:00.110329 10294 layer_factory.hpp:77] Creating layer conv7_1_relu
I0301 13:14:00.110337 10294 net.cpp:100] Creating Layer conv7_1_relu
I0301 13:14:00.110343 10294 net.cpp:434] conv7_1_relu <- conv7_1
I0301 13:14:00.110350 10294 net.cpp:395] conv7_1_relu -> conv7_1 (in-place)
I0301 13:14:00.110523 10294 net.cpp:150] Setting up conv7_1_relu
I0301 13:14:00.110532 10294 net.cpp:157] Top shape: 32 128 10 10 (409600)
I0301 13:14:00.110536 10294 net.cpp:165] Memory required for data: 7521009792
I0301 13:14:00.110543 10294 layer_factory.hpp:77] Creating layer conv7_2
I0301 13:14:00.110555 10294 net.cpp:100] Creating Layer conv7_2
I0301 13:14:00.110561 10294 net.cpp:434] conv7_2 <- conv7_1
I0301 13:14:00.110569 10294 net.cpp:408] conv7_2 -> conv7_2
I0301 13:14:00.113994 10294 net.cpp:150] Setting up conv7_2
I0301 13:14:00.114010 10294 net.cpp:157] Top shape: 32 256 5 5 (204800)
I0301 13:14:00.114017 10294 net.cpp:165] Memory required for data: 7521828992
I0301 13:14:00.114023 10294 layer_factory.hpp:77] Creating layer conv7_2_relu
I0301 13:14:00.114032 10294 net.cpp:100] Creating Layer conv7_2_relu
I0301 13:14:00.114037 10294 net.cpp:434] conv7_2_relu <- conv7_2
I0301 13:14:00.114045 10294 net.cpp:395] conv7_2_relu -> conv7_2 (in-place)
I0301 13:14:00.114207 10294 net.cpp:150] Setting up conv7_2_relu
I0301 13:14:00.114217 10294 net.cpp:157] Top shape: 32 256 5 5 (204800)
I0301 13:14:00.114223 10294 net.cpp:165] Memory required for data: 7522648192
I0301 13:14:00.114228 10294 layer_factory.hpp:77] Creating layer conv7_2_conv7_2_relu_0_split
I0301 13:14:00.114250 10294 net.cpp:100] Creating Layer conv7_2_conv7_2_relu_0_split
I0301 13:14:00.114256 10294 net.cpp:434] conv7_2_conv7_2_relu_0_split <- conv7_2
I0301 13:14:00.114265 10294 net.cpp:408] conv7_2_conv7_2_relu_0_split -> conv7_2_conv7_2_relu_0_split_0
I0301 13:14:00.114274 10294 net.cpp:408] conv7_2_conv7_2_relu_0_split -> conv7_2_conv7_2_relu_0_split_1
I0301 13:14:00.114280 10294 net.cpp:408] conv7_2_conv7_2_relu_0_split -> conv7_2_conv7_2_relu_0_split_2
I0301 13:14:00.114289 10294 net.cpp:408] conv7_2_conv7_2_relu_0_split -> conv7_2_conv7_2_relu_0_split_3
I0301 13:14:00.114352 10294 net.cpp:150] Setting up conv7_2_conv7_2_relu_0_split
I0301 13:14:00.114361 10294 net.cpp:157] Top shape: 32 256 5 5 (204800)
I0301 13:14:00.114365 10294 net.cpp:157] Top shape: 32 256 5 5 (204800)
I0301 13:14:00.114370 10294 net.cpp:157] Top shape: 32 256 5 5 (204800)
I0301 13:14:00.114377 10294 net.cpp:157] Top shape: 32 256 5 5 (204800)
I0301 13:14:00.114380 10294 net.cpp:165] Memory required for data: 7525924992
I0301 13:14:00.114384 10294 layer_factory.hpp:77] Creating layer conv8_1
I0301 13:14:00.114394 10294 net.cpp:100] Creating Layer conv8_1
I0301 13:14:00.114403 10294 net.cpp:434] conv8_1 <- conv7_2_conv7_2_relu_0_split_0
I0301 13:14:00.114413 10294 net.cpp:408] conv8_1 -> conv8_1
I0301 13:14:00.115857 10294 net.cpp:150] Setting up conv8_1
I0301 13:14:00.115870 10294 net.cpp:157] Top shape: 32 128 5 5 (102400)
I0301 13:14:00.115877 10294 net.cpp:165] Memory required for data: 7526334592
I0301 13:14:00.115885 10294 layer_factory.hpp:77] Creating layer conv8_1_relu
I0301 13:14:00.115890 10294 net.cpp:100] Creating Layer conv8_1_relu
I0301 13:14:00.115896 10294 net.cpp:434] conv8_1_relu <- conv8_1
I0301 13:14:00.115906 10294 net.cpp:395] conv8_1_relu -> conv8_1 (in-place)
I0301 13:14:00.116071 10294 net.cpp:150] Setting up conv8_1_relu
I0301 13:14:00.116081 10294 net.cpp:157] Top shape: 32 128 5 5 (102400)
I0301 13:14:00.116086 10294 net.cpp:165] Memory required for data: 7526744192
I0301 13:14:00.116091 10294 layer_factory.hpp:77] Creating layer conv8_2
I0301 13:14:00.116102 10294 net.cpp:100] Creating Layer conv8_2
I0301 13:14:00.116108 10294 net.cpp:434] conv8_2 <- conv8_1
I0301 13:14:00.116117 10294 net.cpp:408] conv8_2 -> conv8_2
I0301 13:14:00.120026 10294 net.cpp:150] Setting up conv8_2
I0301 13:14:00.120040 10294 net.cpp:157] Top shape: 32 256 3 3 (73728)
I0301 13:14:00.120045 10294 net.cpp:165] Memory required for data: 7527039104
I0301 13:14:00.120054 10294 layer_factory.hpp:77] Creating layer conv8_2_relu
I0301 13:14:00.120062 10294 net.cpp:100] Creating Layer conv8_2_relu
I0301 13:14:00.120067 10294 net.cpp:434] conv8_2_relu <- conv8_2
I0301 13:14:00.120074 10294 net.cpp:395] conv8_2_relu -> conv8_2 (in-place)
I0301 13:14:00.120805 10294 net.cpp:150] Setting up conv8_2_relu
I0301 13:14:00.120817 10294 net.cpp:157] Top shape: 32 256 3 3 (73728)
I0301 13:14:00.120821 10294 net.cpp:165] Memory required for data: 7527334016
I0301 13:14:00.120826 10294 layer_factory.hpp:77] Creating layer conv8_2_conv8_2_relu_0_split
I0301 13:14:00.120843 10294 net.cpp:100] Creating Layer conv8_2_conv8_2_relu_0_split
I0301 13:14:00.120851 10294 net.cpp:434] conv8_2_conv8_2_relu_0_split <- conv8_2
I0301 13:14:00.120858 10294 net.cpp:408] conv8_2_conv8_2_relu_0_split -> conv8_2_conv8_2_relu_0_split_0
I0301 13:14:00.120867 10294 net.cpp:408] conv8_2_conv8_2_relu_0_split -> conv8_2_conv8_2_relu_0_split_1
I0301 13:14:00.120873 10294 net.cpp:408] conv8_2_conv8_2_relu_0_split -> conv8_2_conv8_2_relu_0_split_2
I0301 13:14:00.120880 10294 net.cpp:408] conv8_2_conv8_2_relu_0_split -> conv8_2_conv8_2_relu_0_split_3
I0301 13:14:00.120946 10294 net.cpp:150] Setting up conv8_2_conv8_2_relu_0_split
I0301 13:14:00.120955 10294 net.cpp:157] Top shape: 32 256 3 3 (73728)
I0301 13:14:00.120960 10294 net.cpp:157] Top shape: 32 256 3 3 (73728)
I0301 13:14:00.120967 10294 net.cpp:157] Top shape: 32 256 3 3 (73728)
I0301 13:14:00.120971 10294 net.cpp:157] Top shape: 32 256 3 3 (73728)
I0301 13:14:00.120975 10294 net.cpp:165] Memory required for data: 7528513664
I0301 13:14:00.120990 10294 layer_factory.hpp:77] Creating layer conv9_1
I0301 13:14:00.121001 10294 net.cpp:100] Creating Layer conv9_1
I0301 13:14:00.121007 10294 net.cpp:434] conv9_1 <- conv8_2_conv8_2_relu_0_split_0
I0301 13:14:00.121016 10294 net.cpp:408] conv9_1 -> conv9_1
I0301 13:14:00.122462 10294 net.cpp:150] Setting up conv9_1
I0301 13:14:00.122478 10294 net.cpp:157] Top shape: 32 128 3 3 (36864)
I0301 13:14:00.122484 10294 net.cpp:165] Memory required for data: 7528661120
I0301 13:14:00.122491 10294 layer_factory.hpp:77] Creating layer conv9_1_relu
I0301 13:14:00.122498 10294 net.cpp:100] Creating Layer conv9_1_relu
I0301 13:14:00.122507 10294 net.cpp:434] conv9_1_relu <- conv9_1
I0301 13:14:00.122514 10294 net.cpp:395] conv9_1_relu -> conv9_1 (in-place)
I0301 13:14:00.122680 10294 net.cpp:150] Setting up conv9_1_relu
I0301 13:14:00.122690 10294 net.cpp:157] Top shape: 32 128 3 3 (36864)
I0301 13:14:00.122694 10294 net.cpp:165] Memory required for data: 7528808576
I0301 13:14:00.122700 10294 layer_factory.hpp:77] Creating layer conv9_2
I0301 13:14:00.122711 10294 net.cpp:100] Creating Layer conv9_2
I0301 13:14:00.122718 10294 net.cpp:434] conv9_2 <- conv9_1
I0301 13:14:00.122726 10294 net.cpp:408] conv9_2 -> conv9_2
I0301 13:14:00.126582 10294 net.cpp:150] Setting up conv9_2
I0301 13:14:00.126597 10294 net.cpp:157] Top shape: 32 256 1 1 (8192)
I0301 13:14:00.126603 10294 net.cpp:165] Memory required for data: 7528841344
I0301 13:14:00.126610 10294 layer_factory.hpp:77] Creating layer conv9_2_relu
I0301 13:14:00.126618 10294 net.cpp:100] Creating Layer conv9_2_relu
I0301 13:14:00.126623 10294 net.cpp:434] conv9_2_relu <- conv9_2
I0301 13:14:00.126632 10294 net.cpp:395] conv9_2_relu -> conv9_2 (in-place)
I0301 13:14:00.126801 10294 net.cpp:150] Setting up conv9_2_relu
I0301 13:14:00.126809 10294 net.cpp:157] Top shape: 32 256 1 1 (8192)
I0301 13:14:00.126813 10294 net.cpp:165] Memory required for data: 7528874112
I0301 13:14:00.126817 10294 layer_factory.hpp:77] Creating layer conv9_2_conv9_2_relu_0_split
I0301 13:14:00.126827 10294 net.cpp:100] Creating Layer conv9_2_conv9_2_relu_0_split
I0301 13:14:00.126832 10294 net.cpp:434] conv9_2_conv9_2_relu_0_split <- conv9_2
I0301 13:14:00.126837 10294 net.cpp:408] conv9_2_conv9_2_relu_0_split -> conv9_2_conv9_2_relu_0_split_0
I0301 13:14:00.126845 10294 net.cpp:408] conv9_2_conv9_2_relu_0_split -> conv9_2_conv9_2_relu_0_split_1
I0301 13:14:00.126855 10294 net.cpp:408] conv9_2_conv9_2_relu_0_split -> conv9_2_conv9_2_relu_0_split_2
I0301 13:14:00.126907 10294 net.cpp:150] Setting up conv9_2_conv9_2_relu_0_split
I0301 13:14:00.126915 10294 net.cpp:157] Top shape: 32 256 1 1 (8192)
I0301 13:14:00.126920 10294 net.cpp:157] Top shape: 32 256 1 1 (8192)
I0301 13:14:00.126926 10294 net.cpp:157] Top shape: 32 256 1 1 (8192)
I0301 13:14:00.126931 10294 net.cpp:165] Memory required for data: 7528972416
I0301 13:14:00.126935 10294 layer_factory.hpp:77] Creating layer conv4_3_norm
I0301 13:14:00.126942 10294 net.cpp:100] Creating Layer conv4_3_norm
I0301 13:14:00.126950 10294 net.cpp:434] conv4_3_norm <- conv4_3_relu4_3_0_split_1
I0301 13:14:00.126956 10294 net.cpp:408] conv4_3_norm -> conv4_3_norm
I0301 13:14:00.127099 10294 net.cpp:150] Setting up conv4_3_norm
I0301 13:14:00.127107 10294 net.cpp:157] Top shape: 32 512 38 38 (23658496)
I0301 13:14:00.127111 10294 net.cpp:165] Memory required for data: 7623606400
I0301 13:14:00.127120 10294 layer_factory.hpp:77] Creating layer conv4_3_norm_conv4_3_norm_0_split
I0301 13:14:00.127126 10294 net.cpp:100] Creating Layer conv4_3_norm_conv4_3_norm_0_split
I0301 13:14:00.127131 10294 net.cpp:434] conv4_3_norm_conv4_3_norm_0_split <- conv4_3_norm
I0301 13:14:00.127140 10294 net.cpp:408] conv4_3_norm_conv4_3_norm_0_split -> conv4_3_norm_conv4_3_norm_0_split_0
I0301 13:14:00.127146 10294 net.cpp:408] conv4_3_norm_conv4_3_norm_0_split -> conv4_3_norm_conv4_3_norm_0_split_1
I0301 13:14:00.127152 10294 net.cpp:408] conv4_3_norm_conv4_3_norm_0_split -> conv4_3_norm_conv4_3_norm_0_split_2
I0301 13:14:00.127195 10294 net.cpp:150] Setting up conv4_3_norm_conv4_3_norm_0_split
I0301 13:14:00.127213 10294 net.cpp:157] Top shape: 32 512 38 38 (23658496)
I0301 13:14:00.127218 10294 net.cpp:157] Top shape: 32 512 38 38 (23658496)
I0301 13:14:00.127223 10294 net.cpp:157] Top shape: 32 512 38 38 (23658496)
I0301 13:14:00.127228 10294 net.cpp:165] Memory required for data: 7907508352
I0301 13:14:00.127233 10294 layer_factory.hpp:77] Creating layer conv4_3_norm_mbox_loc
I0301 13:14:00.127243 10294 net.cpp:100] Creating Layer conv4_3_norm_mbox_loc
I0301 13:14:00.127249 10294 net.cpp:434] conv4_3_norm_mbox_loc <- conv4_3_norm_conv4_3_norm_0_split_0
I0301 13:14:00.127256 10294 net.cpp:408] conv4_3_norm_mbox_loc -> conv4_3_norm_mbox_loc
I0301 13:14:00.129398 10294 net.cpp:150] Setting up conv4_3_norm_mbox_loc
I0301 13:14:00.129412 10294 net.cpp:157] Top shape: 32 16 38 38 (739328)
I0301 13:14:00.129416 10294 net.cpp:165] Memory required for data: 7910465664
I0301 13:14:00.129425 10294 layer_factory.hpp:77] Creating layer conv4_3_norm_mbox_loc_perm
I0301 13:14:00.129433 10294 net.cpp:100] Creating Layer conv4_3_norm_mbox_loc_perm
I0301 13:14:00.129441 10294 net.cpp:434] conv4_3_norm_mbox_loc_perm <- conv4_3_norm_mbox_loc
I0301 13:14:00.129447 10294 net.cpp:408] conv4_3_norm_mbox_loc_perm -> conv4_3_norm_mbox_loc_perm
I0301 13:14:00.129554 10294 net.cpp:150] Setting up conv4_3_norm_mbox_loc_perm
I0301 13:14:00.129564 10294 net.cpp:157] Top shape: 32 38 38 16 (739328)
I0301 13:14:00.129567 10294 net.cpp:165] Memory required for data: 7913422976
I0301 13:14:00.129571 10294 layer_factory.hpp:77] Creating layer conv4_3_norm_mbox_loc_flat
I0301 13:14:00.129581 10294 net.cpp:100] Creating Layer conv4_3_norm_mbox_loc_flat
I0301 13:14:00.129587 10294 net.cpp:434] conv4_3_norm_mbox_loc_flat <- conv4_3_norm_mbox_loc_perm
I0301 13:14:00.129592 10294 net.cpp:408] conv4_3_norm_mbox_loc_flat -> conv4_3_norm_mbox_loc_flat
I0301 13:14:00.129629 10294 net.cpp:150] Setting up conv4_3_norm_mbox_loc_flat
I0301 13:14:00.129638 10294 net.cpp:157] Top shape: 32 23104 (739328)
I0301 13:14:00.129644 10294 net.cpp:165] Memory required for data: 7916380288
I0301 13:14:00.129648 10294 layer_factory.hpp:77] Creating layer conv4_3_norm_mbox_conf
I0301 13:14:00.129663 10294 net.cpp:100] Creating Layer conv4_3_norm_mbox_conf
I0301 13:14:00.129669 10294 net.cpp:434] conv4_3_norm_mbox_conf <- conv4_3_norm_conv4_3_norm_0_split_1
I0301 13:14:00.129678 10294 net.cpp:408] conv4_3_norm_mbox_conf -> conv4_3_norm_mbox_conf
I0301 13:14:00.132333 10294 net.cpp:150] Setting up conv4_3_norm_mbox_conf
I0301 13:14:00.132347 10294 net.cpp:157] Top shape: 32 44 38 38 (2033152)
I0301 13:14:00.132354 10294 net.cpp:165] Memory required for data: 7924512896
I0301 13:14:00.132361 10294 layer_factory.hpp:77] Creating layer conv4_3_norm_mbox_conf_perm
I0301 13:14:00.132369 10294 net.cpp:100] Creating Layer conv4_3_norm_mbox_conf_perm
I0301 13:14:00.132375 10294 net.cpp:434] conv4_3_norm_mbox_conf_perm <- conv4_3_norm_mbox_conf
I0301 13:14:00.132385 10294 net.cpp:408] conv4_3_norm_mbox_conf_perm -> conv4_3_norm_mbox_conf_perm
I0301 13:14:00.132485 10294 net.cpp:150] Setting up conv4_3_norm_mbox_conf_perm
I0301 13:14:00.132493 10294 net.cpp:157] Top shape: 32 38 38 44 (2033152)
I0301 13:14:00.132496 10294 net.cpp:165] Memory required for data: 7932645504
I0301 13:14:00.132500 10294 layer_factory.hpp:77] Creating layer conv4_3_norm_mbox_conf_flat
I0301 13:14:00.132508 10294 net.cpp:100] Creating Layer conv4_3_norm_mbox_conf_flat
I0301 13:14:00.132513 10294 net.cpp:434] conv4_3_norm_mbox_conf_flat <- conv4_3_norm_mbox_conf_perm
I0301 13:14:00.132519 10294 net.cpp:408] conv4_3_norm_mbox_conf_flat -> conv4_3_norm_mbox_conf_flat
I0301 13:14:00.132545 10294 net.cpp:150] Setting up conv4_3_norm_mbox_conf_flat
I0301 13:14:00.132553 10294 net.cpp:157] Top shape: 32 63536 (2033152)
I0301 13:14:00.132556 10294 net.cpp:165] Memory required for data: 7940778112
I0301 13:14:00.132561 10294 layer_factory.hpp:77] Creating layer conv4_3_norm_mbox_priorbox
I0301 13:14:00.132570 10294 net.cpp:100] Creating Layer conv4_3_norm_mbox_priorbox
I0301 13:14:00.132586 10294 net.cpp:434] conv4_3_norm_mbox_priorbox <- conv4_3_norm_conv4_3_norm_0_split_2
I0301 13:14:00.132593 10294 net.cpp:434] conv4_3_norm_mbox_priorbox <- data_data_0_split_1
I0301 13:14:00.132601 10294 net.cpp:408] conv4_3_norm_mbox_priorbox -> conv4_3_norm_mbox_priorbox
I0301 13:14:00.132630 10294 net.cpp:150] Setting up conv4_3_norm_mbox_priorbox
I0301 13:14:00.132638 10294 net.cpp:157] Top shape: 1 2 23104 (46208)
I0301 13:14:00.132642 10294 net.cpp:165] Memory required for data: 7940962944
I0301 13:14:00.132647 10294 layer_factory.hpp:77] Creating layer fc7_mbox_loc
I0301 13:14:00.132656 10294 net.cpp:100] Creating Layer fc7_mbox_loc
I0301 13:14:00.132663 10294 net.cpp:434] fc7_mbox_loc <- fc7_relu7_0_split_1
I0301 13:14:00.132673 10294 net.cpp:408] fc7_mbox_loc -> fc7_mbox_loc
I0301 13:14:00.135432 10294 net.cpp:150] Setting up fc7_mbox_loc
I0301 13:14:00.135445 10294 net.cpp:157] Top shape: 32 24 19 19 (277248)
I0301 13:14:00.135450 10294 net.cpp:165] Memory required for data: 7942071936
I0301 13:14:00.135458 10294 layer_factory.hpp:77] Creating layer fc7_mbox_loc_perm
I0301 13:14:00.135468 10294 net.cpp:100] Creating Layer fc7_mbox_loc_perm
I0301 13:14:00.135474 10294 net.cpp:434] fc7_mbox_loc_perm <- fc7_mbox_loc
I0301 13:14:00.135481 10294 net.cpp:408] fc7_mbox_loc_perm -> fc7_mbox_loc_perm
I0301 13:14:00.135576 10294 net.cpp:150] Setting up fc7_mbox_loc_perm
I0301 13:14:00.135584 10294 net.cpp:157] Top shape: 32 19 19 24 (277248)
I0301 13:14:00.135588 10294 net.cpp:165] Memory required for data: 7943180928
I0301 13:14:00.135593 10294 layer_factory.hpp:77] Creating layer fc7_mbox_loc_flat
I0301 13:14:00.135601 10294 net.cpp:100] Creating Layer fc7_mbox_loc_flat
I0301 13:14:00.135607 10294 net.cpp:434] fc7_mbox_loc_flat <- fc7_mbox_loc_perm
I0301 13:14:00.135614 10294 net.cpp:408] fc7_mbox_loc_flat -> fc7_mbox_loc_flat
I0301 13:14:00.135637 10294 net.cpp:150] Setting up fc7_mbox_loc_flat
I0301 13:14:00.135644 10294 net.cpp:157] Top shape: 32 8664 (277248)
I0301 13:14:00.135648 10294 net.cpp:165] Memory required for data: 7944289920
I0301 13:14:00.135651 10294 layer_factory.hpp:77] Creating layer fc7_mbox_conf
I0301 13:14:00.135661 10294 net.cpp:100] Creating Layer fc7_mbox_conf
I0301 13:14:00.135668 10294 net.cpp:434] fc7_mbox_conf <- fc7_relu7_0_split_2
I0301 13:14:00.135675 10294 net.cpp:408] fc7_mbox_conf -> fc7_mbox_conf
I0301 13:14:00.140837 10294 net.cpp:150] Setting up fc7_mbox_conf
I0301 13:14:00.140854 10294 net.cpp:157] Top shape: 32 66 19 19 (762432)
I0301 13:14:00.140858 10294 net.cpp:165] Memory required for data: 7947339648
I0301 13:14:00.140866 10294 layer_factory.hpp:77] Creating layer fc7_mbox_conf_perm
I0301 13:14:00.140875 10294 net.cpp:100] Creating Layer fc7_mbox_conf_perm
I0301 13:14:00.140885 10294 net.cpp:434] fc7_mbox_conf_perm <- fc7_mbox_conf
I0301 13:14:00.140892 10294 net.cpp:408] fc7_mbox_conf_perm -> fc7_mbox_conf_perm
I0301 13:14:00.140990 10294 net.cpp:150] Setting up fc7_mbox_conf_perm
I0301 13:14:00.140996 10294 net.cpp:157] Top shape: 32 19 19 66 (762432)
I0301 13:14:00.141001 10294 net.cpp:165] Memory required for data: 7950389376
I0301 13:14:00.141005 10294 layer_factory.hpp:77] Creating layer fc7_mbox_conf_flat
I0301 13:14:00.141013 10294 net.cpp:100] Creating Layer fc7_mbox_conf_flat
I0301 13:14:00.141017 10294 net.cpp:434] fc7_mbox_conf_flat <- fc7_mbox_conf_perm
I0301 13:14:00.141023 10294 net.cpp:408] fc7_mbox_conf_flat -> fc7_mbox_conf_flat
I0301 13:14:00.141049 10294 net.cpp:150] Setting up fc7_mbox_conf_flat
I0301 13:14:00.141057 10294 net.cpp:157] Top shape: 32 23826 (762432)
I0301 13:14:00.141060 10294 net.cpp:165] Memory required for data: 7953439104
I0301 13:14:00.141065 10294 layer_factory.hpp:77] Creating layer fc7_mbox_priorbox
I0301 13:14:00.141073 10294 net.cpp:100] Creating Layer fc7_mbox_priorbox
I0301 13:14:00.141079 10294 net.cpp:434] fc7_mbox_priorbox <- fc7_relu7_0_split_3
I0301 13:14:00.141086 10294 net.cpp:434] fc7_mbox_priorbox <- data_data_0_split_2
I0301 13:14:00.141093 10294 net.cpp:408] fc7_mbox_priorbox -> fc7_mbox_priorbox
I0301 13:14:00.141132 10294 net.cpp:150] Setting up fc7_mbox_priorbox
I0301 13:14:00.141139 10294 net.cpp:157] Top shape: 1 2 8664 (17328)
I0301 13:14:00.141144 10294 net.cpp:165] Memory required for data: 7953508416
I0301 13:14:00.141147 10294 layer_factory.hpp:77] Creating layer conv6_2_mbox_loc
I0301 13:14:00.141160 10294 net.cpp:100] Creating Layer conv6_2_mbox_loc
I0301 13:14:00.141165 10294 net.cpp:434] conv6_2_mbox_loc <- conv6_2_conv6_2_relu_0_split_1
I0301 13:14:00.141172 10294 net.cpp:408] conv6_2_mbox_loc -> conv6_2_mbox_loc
I0301 13:14:00.143420 10294 net.cpp:150] Setting up conv6_2_mbox_loc
I0301 13:14:00.143434 10294 net.cpp:157] Top shape: 32 24 10 10 (76800)
I0301 13:14:00.143437 10294 net.cpp:165] Memory required for data: 7953815616
I0301 13:14:00.143446 10294 layer_factory.hpp:77] Creating layer conv6_2_mbox_loc_perm
I0301 13:14:00.143453 10294 net.cpp:100] Creating Layer conv6_2_mbox_loc_perm
I0301 13:14:00.143460 10294 net.cpp:434] conv6_2_mbox_loc_perm <- conv6_2_mbox_loc
I0301 13:14:00.143467 10294 net.cpp:408] conv6_2_mbox_loc_perm -> conv6_2_mbox_loc_perm
I0301 13:14:00.143569 10294 net.cpp:150] Setting up conv6_2_mbox_loc_perm
I0301 13:14:00.143577 10294 net.cpp:157] Top shape: 32 10 10 24 (76800)
I0301 13:14:00.143581 10294 net.cpp:165] Memory required for data: 7954122816
I0301 13:14:00.143585 10294 layer_factory.hpp:77] Creating layer conv6_2_mbox_loc_flat
I0301 13:14:00.143594 10294 net.cpp:100] Creating Layer conv6_2_mbox_loc_flat
I0301 13:14:00.143599 10294 net.cpp:434] conv6_2_mbox_loc_flat <- conv6_2_mbox_loc_perm
I0301 13:14:00.143604 10294 net.cpp:408] conv6_2_mbox_loc_flat -> conv6_2_mbox_loc_flat
I0301 13:14:00.143630 10294 net.cpp:150] Setting up conv6_2_mbox_loc_flat
I0301 13:14:00.143636 10294 net.cpp:157] Top shape: 32 2400 (76800)
I0301 13:14:00.143640 10294 net.cpp:165] Memory required for data: 7954430016
I0301 13:14:00.143646 10294 layer_factory.hpp:77] Creating layer conv6_2_mbox_conf
I0301 13:14:00.143656 10294 net.cpp:100] Creating Layer conv6_2_mbox_conf
I0301 13:14:00.143661 10294 net.cpp:434] conv6_2_mbox_conf <- conv6_2_conv6_2_relu_0_split_2
I0301 13:14:00.143671 10294 net.cpp:408] conv6_2_mbox_conf -> conv6_2_mbox_conf
I0301 13:14:00.147430 10294 net.cpp:150] Setting up conv6_2_mbox_conf
I0301 13:14:00.147444 10294 net.cpp:157] Top shape: 32 66 10 10 (211200)
I0301 13:14:00.147447 10294 net.cpp:165] Memory required for data: 7955274816
I0301 13:14:00.147456 10294 layer_factory.hpp:77] Creating layer conv6_2_mbox_conf_perm
I0301 13:14:00.147467 10294 net.cpp:100] Creating Layer conv6_2_mbox_conf_perm
I0301 13:14:00.147473 10294 net.cpp:434] conv6_2_mbox_conf_perm <- conv6_2_mbox_conf
I0301 13:14:00.147480 10294 net.cpp:408] conv6_2_mbox_conf_perm -> conv6_2_mbox_conf_perm
I0301 13:14:00.147578 10294 net.cpp:150] Setting up conv6_2_mbox_conf_perm
I0301 13:14:00.147585 10294 net.cpp:157] Top shape: 32 10 10 66 (211200)
I0301 13:14:00.147589 10294 net.cpp:165] Memory required for data: 7956119616
I0301 13:14:00.147593 10294 layer_factory.hpp:77] Creating layer conv6_2_mbox_conf_flat
I0301 13:14:00.147599 10294 net.cpp:100] Creating Layer conv6_2_mbox_conf_flat
I0301 13:14:00.147606 10294 net.cpp:434] conv6_2_mbox_conf_flat <- conv6_2_mbox_conf_perm
I0301 13:14:00.147613 10294 net.cpp:408] conv6_2_mbox_conf_flat -> conv6_2_mbox_conf_flat
I0301 13:14:00.147639 10294 net.cpp:150] Setting up conv6_2_mbox_conf_flat
I0301 13:14:00.147645 10294 net.cpp:157] Top shape: 32 6600 (211200)
I0301 13:14:00.147650 10294 net.cpp:165] Memory required for data: 7956964416
I0301 13:14:00.147652 10294 layer_factory.hpp:77] Creating layer conv6_2_mbox_priorbox
I0301 13:14:00.147660 10294 net.cpp:100] Creating Layer conv6_2_mbox_priorbox
I0301 13:14:00.147667 10294 net.cpp:434] conv6_2_mbox_priorbox <- conv6_2_conv6_2_relu_0_split_3
I0301 13:14:00.147673 10294 net.cpp:434] conv6_2_mbox_priorbox <- data_data_0_split_3
I0301 13:14:00.147680 10294 net.cpp:408] conv6_2_mbox_priorbox -> conv6_2_mbox_priorbox
I0301 13:14:00.147709 10294 net.cpp:150] Setting up conv6_2_mbox_priorbox
I0301 13:14:00.147725 10294 net.cpp:157] Top shape: 1 2 2400 (4800)
I0301 13:14:00.147730 10294 net.cpp:165] Memory required for data: 7956983616
I0301 13:14:00.147734 10294 layer_factory.hpp:77] Creating layer conv7_2_mbox_loc
I0301 13:14:00.147745 10294 net.cpp:100] Creating Layer conv7_2_mbox_loc
I0301 13:14:00.147753 10294 net.cpp:434] conv7_2_mbox_loc <- conv7_2_conv7_2_relu_0_split_1
I0301 13:14:00.147759 10294 net.cpp:408] conv7_2_mbox_loc -> conv7_2_mbox_loc
I0301 13:14:00.149266 10294 net.cpp:150] Setting up conv7_2_mbox_loc
I0301 13:14:00.149279 10294 net.cpp:157] Top shape: 32 24 5 5 (19200)
I0301 13:14:00.149283 10294 net.cpp:165] Memory required for data: 7957060416
I0301 13:14:00.149292 10294 layer_factory.hpp:77] Creating layer conv7_2_mbox_loc_perm
I0301 13:14:00.149302 10294 net.cpp:100] Creating Layer conv7_2_mbox_loc_perm
I0301 13:14:00.149307 10294 net.cpp:434] conv7_2_mbox_loc_perm <- conv7_2_mbox_loc
I0301 13:14:00.149314 10294 net.cpp:408] conv7_2_mbox_loc_perm -> conv7_2_mbox_loc_perm
I0301 13:14:00.149408 10294 net.cpp:150] Setting up conv7_2_mbox_loc_perm
I0301 13:14:00.149416 10294 net.cpp:157] Top shape: 32 5 5 24 (19200)
I0301 13:14:00.149420 10294 net.cpp:165] Memory required for data: 7957137216
I0301 13:14:00.149425 10294 layer_factory.hpp:77] Creating layer conv7_2_mbox_loc_flat
I0301 13:14:00.149433 10294 net.cpp:100] Creating Layer conv7_2_mbox_loc_flat
I0301 13:14:00.149439 10294 net.cpp:434] conv7_2_mbox_loc_flat <- conv7_2_mbox_loc_perm
I0301 13:14:00.149444 10294 net.cpp:408] conv7_2_mbox_loc_flat -> conv7_2_mbox_loc_flat
I0301 13:14:00.149468 10294 net.cpp:150] Setting up conv7_2_mbox_loc_flat
I0301 13:14:00.149475 10294 net.cpp:157] Top shape: 32 600 (19200)
I0301 13:14:00.149479 10294 net.cpp:165] Memory required for data: 7957214016
I0301 13:14:00.149483 10294 layer_factory.hpp:77] Creating layer conv7_2_mbox_conf
I0301 13:14:00.149494 10294 net.cpp:100] Creating Layer conv7_2_mbox_conf
I0301 13:14:00.149502 10294 net.cpp:434] conv7_2_mbox_conf <- conv7_2_conv7_2_relu_0_split_2
I0301 13:14:00.149508 10294 net.cpp:408] conv7_2_mbox_conf -> conv7_2_mbox_conf
I0301 13:14:00.151381 10294 net.cpp:150] Setting up conv7_2_mbox_conf
I0301 13:14:00.151394 10294 net.cpp:157] Top shape: 32 66 5 5 (52800)
I0301 13:14:00.151401 10294 net.cpp:165] Memory required for data: 7957425216
I0301 13:14:00.151407 10294 layer_factory.hpp:77] Creating layer conv7_2_mbox_conf_perm
I0301 13:14:00.151415 10294 net.cpp:100] Creating Layer conv7_2_mbox_conf_perm
I0301 13:14:00.151423 10294 net.cpp:434] conv7_2_mbox_conf_perm <- conv7_2_mbox_conf
I0301 13:14:00.151430 10294 net.cpp:408] conv7_2_mbox_conf_perm -> conv7_2_mbox_conf_perm
I0301 13:14:00.151525 10294 net.cpp:150] Setting up conv7_2_mbox_conf_perm
I0301 13:14:00.151535 10294 net.cpp:157] Top shape: 32 5 5 66 (52800)
I0301 13:14:00.151538 10294 net.cpp:165] Memory required for data: 7957636416
I0301 13:14:00.151543 10294 layer_factory.hpp:77] Creating layer conv7_2_mbox_conf_flat
I0301 13:14:00.151549 10294 net.cpp:100] Creating Layer conv7_2_mbox_conf_flat
I0301 13:14:00.151553 10294 net.cpp:434] conv7_2_mbox_conf_flat <- conv7_2_mbox_conf_perm
I0301 13:14:00.151561 10294 net.cpp:408] conv7_2_mbox_conf_flat -> conv7_2_mbox_conf_flat
I0301 13:14:00.151585 10294 net.cpp:150] Setting up conv7_2_mbox_conf_flat
I0301 13:14:00.151592 10294 net.cpp:157] Top shape: 32 1650 (52800)
I0301 13:14:00.151595 10294 net.cpp:165] Memory required for data: 7957847616
I0301 13:14:00.151600 10294 layer_factory.hpp:77] Creating layer conv7_2_mbox_priorbox
I0301 13:14:00.151607 10294 net.cpp:100] Creating Layer conv7_2_mbox_priorbox
I0301 13:14:00.151614 10294 net.cpp:434] conv7_2_mbox_priorbox <- conv7_2_conv7_2_relu_0_split_3
I0301 13:14:00.151619 10294 net.cpp:434] conv7_2_mbox_priorbox <- data_data_0_split_4
I0301 13:14:00.151628 10294 net.cpp:408] conv7_2_mbox_priorbox -> conv7_2_mbox_priorbox
I0301 13:14:00.151654 10294 net.cpp:150] Setting up conv7_2_mbox_priorbox
I0301 13:14:00.151661 10294 net.cpp:157] Top shape: 1 2 600 (1200)
I0301 13:14:00.151664 10294 net.cpp:165] Memory required for data: 7957852416
I0301 13:14:00.151679 10294 layer_factory.hpp:77] Creating layer conv8_2_mbox_loc
I0301 13:14:00.151690 10294 net.cpp:100] Creating Layer conv8_2_mbox_loc
I0301 13:14:00.151695 10294 net.cpp:434] conv8_2_mbox_loc <- conv8_2_conv8_2_relu_0_split_1
I0301 13:14:00.151702 10294 net.cpp:408] conv8_2_mbox_loc -> conv8_2_mbox_loc
I0301 13:14:00.153126 10294 net.cpp:150] Setting up conv8_2_mbox_loc
I0301 13:14:00.153139 10294 net.cpp:157] Top shape: 32 16 3 3 (4608)
I0301 13:14:00.153143 10294 net.cpp:165] Memory required for data: 7957870848
I0301 13:14:00.153159 10294 layer_factory.hpp:77] Creating layer conv8_2_mbox_loc_perm
I0301 13:14:00.153170 10294 net.cpp:100] Creating Layer conv8_2_mbox_loc_perm
I0301 13:14:00.153175 10294 net.cpp:434] conv8_2_mbox_loc_perm <- conv8_2_mbox_loc
I0301 13:14:00.153183 10294 net.cpp:408] conv8_2_mbox_loc_perm -> conv8_2_mbox_loc_perm
I0301 13:14:00.153280 10294 net.cpp:150] Setting up conv8_2_mbox_loc_perm
I0301 13:14:00.153287 10294 net.cpp:157] Top shape: 32 3 3 16 (4608)
I0301 13:14:00.153291 10294 net.cpp:165] Memory required for data: 7957889280
I0301 13:14:00.153295 10294 layer_factory.hpp:77] Creating layer conv8_2_mbox_loc_flat
I0301 13:14:00.153303 10294 net.cpp:100] Creating Layer conv8_2_mbox_loc_flat
I0301 13:14:00.153308 10294 net.cpp:434] conv8_2_mbox_loc_flat <- conv8_2_mbox_loc_perm
I0301 13:14:00.153313 10294 net.cpp:408] conv8_2_mbox_loc_flat -> conv8_2_mbox_loc_flat
I0301 13:14:00.153337 10294 net.cpp:150] Setting up conv8_2_mbox_loc_flat
I0301 13:14:00.153343 10294 net.cpp:157] Top shape: 32 144 (4608)
I0301 13:14:00.153348 10294 net.cpp:165] Memory required for data: 7957907712
I0301 13:14:00.153352 10294 layer_factory.hpp:77] Creating layer conv8_2_mbox_conf
I0301 13:14:00.153362 10294 net.cpp:100] Creating Layer conv8_2_mbox_conf
I0301 13:14:00.153368 10294 net.cpp:434] conv8_2_mbox_conf <- conv8_2_conv8_2_relu_0_split_2
I0301 13:14:00.153376 10294 net.cpp:408] conv8_2_mbox_conf -> conv8_2_mbox_conf
I0301 13:14:00.155066 10294 net.cpp:150] Setting up conv8_2_mbox_conf
I0301 13:14:00.155078 10294 net.cpp:157] Top shape: 32 44 3 3 (12672)
I0301 13:14:00.155084 10294 net.cpp:165] Memory required for data: 7957958400
I0301 13:14:00.155092 10294 layer_factory.hpp:77] Creating layer conv8_2_mbox_conf_perm
I0301 13:14:00.155102 10294 net.cpp:100] Creating Layer conv8_2_mbox_conf_perm
I0301 13:14:00.155107 10294 net.cpp:434] conv8_2_mbox_conf_perm <- conv8_2_mbox_conf
I0301 13:14:00.155117 10294 net.cpp:408] conv8_2_mbox_conf_perm -> conv8_2_mbox_conf_perm
I0301 13:14:00.155212 10294 net.cpp:150] Setting up conv8_2_mbox_conf_perm
I0301 13:14:00.155220 10294 net.cpp:157] Top shape: 32 3 3 44 (12672)
I0301 13:14:00.155223 10294 net.cpp:165] Memory required for data: 7958009088
I0301 13:14:00.155227 10294 layer_factory.hpp:77] Creating layer conv8_2_mbox_conf_flat
I0301 13:14:00.155236 10294 net.cpp:100] Creating Layer conv8_2_mbox_conf_flat
I0301 13:14:00.155241 10294 net.cpp:434] conv8_2_mbox_conf_flat <- conv8_2_mbox_conf_perm
I0301 13:14:00.155247 10294 net.cpp:408] conv8_2_mbox_conf_flat -> conv8_2_mbox_conf_flat
I0301 13:14:00.155272 10294 net.cpp:150] Setting up conv8_2_mbox_conf_flat
I0301 13:14:00.155280 10294 net.cpp:157] Top shape: 32 396 (12672)
I0301 13:14:00.155283 10294 net.cpp:165] Memory required for data: 7958059776
I0301 13:14:00.155288 10294 layer_factory.hpp:77] Creating layer conv8_2_mbox_priorbox
I0301 13:14:00.155297 10294 net.cpp:100] Creating Layer conv8_2_mbox_priorbox
I0301 13:14:00.155303 10294 net.cpp:434] conv8_2_mbox_priorbox <- conv8_2_conv8_2_relu_0_split_3
I0301 13:14:00.155308 10294 net.cpp:434] conv8_2_mbox_priorbox <- data_data_0_split_5
I0301 13:14:00.155315 10294 net.cpp:408] conv8_2_mbox_priorbox -> conv8_2_mbox_priorbox
I0301 13:14:00.155341 10294 net.cpp:150] Setting up conv8_2_mbox_priorbox
I0301 13:14:00.155349 10294 net.cpp:157] Top shape: 1 2 144 (288)
I0301 13:14:00.155352 10294 net.cpp:165] Memory required for data: 7958060928
I0301 13:14:00.155356 10294 layer_factory.hpp:77] Creating layer conv9_2_mbox_loc
I0301 13:14:00.155375 10294 net.cpp:100] Creating Layer conv9_2_mbox_loc
I0301 13:14:00.155381 10294 net.cpp:434] conv9_2_mbox_loc <- conv9_2_conv9_2_relu_0_split_0
I0301 13:14:00.155390 10294 net.cpp:408] conv9_2_mbox_loc -> conv9_2_mbox_loc
I0301 13:14:00.156811 10294 net.cpp:150] Setting up conv9_2_mbox_loc
I0301 13:14:00.156824 10294 net.cpp:157] Top shape: 32 16 1 1 (512)
I0301 13:14:00.156828 10294 net.cpp:165] Memory required for data: 7958062976
I0301 13:14:00.156837 10294 layer_factory.hpp:77] Creating layer conv9_2_mbox_loc_perm
I0301 13:14:00.156846 10294 net.cpp:100] Creating Layer conv9_2_mbox_loc_perm
I0301 13:14:00.156852 10294 net.cpp:434] conv9_2_mbox_loc_perm <- conv9_2_mbox_loc
I0301 13:14:00.156858 10294 net.cpp:408] conv9_2_mbox_loc_perm -> conv9_2_mbox_loc_perm
I0301 13:14:00.156952 10294 net.cpp:150] Setting up conv9_2_mbox_loc_perm
I0301 13:14:00.156960 10294 net.cpp:157] Top shape: 32 1 1 16 (512)
I0301 13:14:00.156962 10294 net.cpp:165] Memory required for data: 7958065024
I0301 13:14:00.156966 10294 layer_factory.hpp:77] Creating layer conv9_2_mbox_loc_flat
I0301 13:14:00.156975 10294 net.cpp:100] Creating Layer conv9_2_mbox_loc_flat
I0301 13:14:00.156978 10294 net.cpp:434] conv9_2_mbox_loc_flat <- conv9_2_mbox_loc_perm
I0301 13:14:00.156985 10294 net.cpp:408] conv9_2_mbox_loc_flat -> conv9_2_mbox_loc_flat
I0301 13:14:00.157013 10294 net.cpp:150] Setting up conv9_2_mbox_loc_flat
I0301 13:14:00.157021 10294 net.cpp:157] Top shape: 32 16 (512)
I0301 13:14:00.157024 10294 net.cpp:165] Memory required for data: 7958067072
I0301 13:14:00.157027 10294 layer_factory.hpp:77] Creating layer conv9_2_mbox_conf
I0301 13:14:00.157038 10294 net.cpp:100] Creating Layer conv9_2_mbox_conf
I0301 13:14:00.157044 10294 net.cpp:434] conv9_2_mbox_conf <- conv9_2_conv9_2_relu_0_split_1
I0301 13:14:00.157052 10294 net.cpp:408] conv9_2_mbox_conf -> conv9_2_mbox_conf
I0301 13:14:00.159272 10294 net.cpp:150] Setting up conv9_2_mbox_conf
I0301 13:14:00.159286 10294 net.cpp:157] Top shape: 32 44 1 1 (1408)
I0301 13:14:00.159292 10294 net.cpp:165] Memory required for data: 7958072704
I0301 13:14:00.159301 10294 layer_factory.hpp:77] Creating layer conv9_2_mbox_conf_perm
I0301 13:14:00.159310 10294 net.cpp:100] Creating Layer conv9_2_mbox_conf_perm
I0301 13:14:00.159317 10294 net.cpp:434] conv9_2_mbox_conf_perm <- conv9_2_mbox_conf
I0301 13:14:00.159324 10294 net.cpp:408] conv9_2_mbox_conf_perm -> conv9_2_mbox_conf_perm
I0301 13:14:00.159420 10294 net.cpp:150] Setting up conv9_2_mbox_conf_perm
I0301 13:14:00.159428 10294 net.cpp:157] Top shape: 32 1 1 44 (1408)
I0301 13:14:00.159432 10294 net.cpp:165] Memory required for data: 7958078336
I0301 13:14:00.159437 10294 layer_factory.hpp:77] Creating layer conv9_2_mbox_conf_flat
I0301 13:14:00.159445 10294 net.cpp:100] Creating Layer conv9_2_mbox_conf_flat
I0301 13:14:00.159449 10294 net.cpp:434] conv9_2_mbox_conf_flat <- conv9_2_mbox_conf_perm
I0301 13:14:00.159456 10294 net.cpp:408] conv9_2_mbox_conf_flat -> conv9_2_mbox_conf_flat
I0301 13:14:00.159479 10294 net.cpp:150] Setting up conv9_2_mbox_conf_flat
I0301 13:14:00.159487 10294 net.cpp:157] Top shape: 32 44 (1408)
I0301 13:14:00.159490 10294 net.cpp:165] Memory required for data: 7958083968
I0301 13:14:00.159494 10294 layer_factory.hpp:77] Creating layer conv9_2_mbox_priorbox
I0301 13:14:00.159502 10294 net.cpp:100] Creating Layer conv9_2_mbox_priorbox
I0301 13:14:00.159507 10294 net.cpp:434] conv9_2_mbox_priorbox <- conv9_2_conv9_2_relu_0_split_2
I0301 13:14:00.159512 10294 net.cpp:434] conv9_2_mbox_priorbox <- data_data_0_split_6
I0301 13:14:00.159518 10294 net.cpp:408] conv9_2_mbox_priorbox -> conv9_2_mbox_priorbox
I0301 13:14:00.159544 10294 net.cpp:150] Setting up conv9_2_mbox_priorbox
I0301 13:14:00.159551 10294 net.cpp:157] Top shape: 1 2 16 (32)
I0301 13:14:00.159554 10294 net.cpp:165] Memory required for data: 7958084096
I0301 13:14:00.159559 10294 layer_factory.hpp:77] Creating layer mbox_loc
I0301 13:14:00.159567 10294 net.cpp:100] Creating Layer mbox_loc
I0301 13:14:00.159572 10294 net.cpp:434] mbox_loc <- conv4_3_norm_mbox_loc_flat
I0301 13:14:00.159587 10294 net.cpp:434] mbox_loc <- fc7_mbox_loc_flat
I0301 13:14:00.159593 10294 net.cpp:434] mbox_loc <- conv6_2_mbox_loc_flat
I0301 13:14:00.159600 10294 net.cpp:434] mbox_loc <- conv7_2_mbox_loc_flat
I0301 13:14:00.159605 10294 net.cpp:434] mbox_loc <- conv8_2_mbox_loc_flat
I0301 13:14:00.159610 10294 net.cpp:434] mbox_loc <- conv9_2_mbox_loc_flat
I0301 13:14:00.159620 10294 net.cpp:408] mbox_loc -> mbox_loc
I0301 13:14:00.159652 10294 net.cpp:150] Setting up mbox_loc
I0301 13:14:00.159659 10294 net.cpp:157] Top shape: 32 34928 (1117696)
I0301 13:14:00.159663 10294 net.cpp:165] Memory required for data: 7962554880
I0301 13:14:00.159669 10294 layer_factory.hpp:77] Creating layer mbox_conf
I0301 13:14:00.159675 10294 net.cpp:100] Creating Layer mbox_conf
I0301 13:14:00.159679 10294 net.cpp:434] mbox_conf <- conv4_3_norm_mbox_conf_flat
I0301 13:14:00.159684 10294 net.cpp:434] mbox_conf <- fc7_mbox_conf_flat
I0301 13:14:00.159693 10294 net.cpp:434] mbox_conf <- conv6_2_mbox_conf_flat
I0301 13:14:00.159698 10294 net.cpp:434] mbox_conf <- conv7_2_mbox_conf_flat
I0301 13:14:00.159703 10294 net.cpp:434] mbox_conf <- conv8_2_mbox_conf_flat
I0301 13:14:00.159706 10294 net.cpp:434] mbox_conf <- conv9_2_mbox_conf_flat
I0301 13:14:00.159715 10294 net.cpp:408] mbox_conf -> mbox_conf
I0301 13:14:00.159739 10294 net.cpp:150] Setting up mbox_conf
I0301 13:14:00.159747 10294 net.cpp:157] Top shape: 32 96052 (3073664)
I0301 13:14:00.159750 10294 net.cpp:165] Memory required for data: 7974849536
I0301 13:14:00.159755 10294 layer_factory.hpp:77] Creating layer mbox_priorbox
I0301 13:14:00.159762 10294 net.cpp:100] Creating Layer mbox_priorbox
I0301 13:14:00.159766 10294 net.cpp:434] mbox_priorbox <- conv4_3_norm_mbox_priorbox
I0301 13:14:00.159772 10294 net.cpp:434] mbox_priorbox <- fc7_mbox_priorbox
I0301 13:14:00.159778 10294 net.cpp:434] mbox_priorbox <- conv6_2_mbox_priorbox
I0301 13:14:00.159783 10294 net.cpp:434] mbox_priorbox <- conv7_2_mbox_priorbox
I0301 13:14:00.159788 10294 net.cpp:434] mbox_priorbox <- conv8_2_mbox_priorbox
I0301 13:14:00.159793 10294 net.cpp:434] mbox_priorbox <- conv9_2_mbox_priorbox
I0301 13:14:00.159799 10294 net.cpp:408] mbox_priorbox -> mbox_priorbox
I0301 13:14:00.159823 10294 net.cpp:150] Setting up mbox_priorbox
I0301 13:14:00.159832 10294 net.cpp:157] Top shape: 1 2 34928 (69856)
I0301 13:14:00.159834 10294 net.cpp:165] Memory required for data: 7975128960
I0301 13:14:00.159840 10294 layer_factory.hpp:77] Creating layer mbox_loss
I0301 13:14:00.159852 10294 net.cpp:100] Creating Layer mbox_loss
I0301 13:14:00.159859 10294 net.cpp:434] mbox_loss <- mbox_loc
I0301 13:14:00.159864 10294 net.cpp:434] mbox_loss <- mbox_conf
I0301 13:14:00.159871 10294 net.cpp:434] mbox_loss <- mbox_priorbox
…
  phase: TEST
}
layer {
  name: "data"
  type: "AnnotatedData"
  top: "data"
  top: "label"
  include {
    phase: TEST
  }
  transform_param {
    mean_value: 104
    mean_value: 117
    mean_value: 123
    resize_param {
      prob: 1
      resize_mode: WARP
      height: 300
      width: 300
      interp_mode: LINEAR
    }
  }
  data_param {
    source: "examples/NWPU_VHR/NWPU_VHR_test_lmdb"
    batch_size: 8
    backend: LMDB
  }
  annotated_data_param {
    batch_sampler {
    }
    label_map_file: "data/NWPU_VHR/labelmap_NWPU_VHR.prototxt"
  }
}
layer {
  name: "conv1_1"
  type: "Convolution"
  bottom: "data"
  top: "conv1_1"
  param {
    lr_mult: 1
    decay_mult: 1
  }
  param {
    lr_mult: 2
    decay_mult: 0
  }
  convolution_param {
    num_output: 64
    pad: 1
    kernel_size: 3
    weight_filler {
      type: "xavier"
    }
    bias_filler {
      type: "constant"
      value: 0
    }
  }
}
layer {
  name: "relu1_1"
  type: "ReLU"
  bottom: "conv1_1"
  top: "conv1_1"
}
layer {
  name: "conv1_2"
  type: "Convolution"
  bottom: "conv1_1"
  top: "conv1_2"
  param {
    lr_mult: 1
    decay_mult: 1
  }
  param {
    lr_mult: 2
    decay_mult: 0
  }
  convolution_param {
    num_output: 64
    pad: 1
    kernel_size: 3
    weight_filler {
      type: "xavier"
    }
    bias_filler {
      type: "constant"
      value: 0
    }
  }
}
layer {
  name: "relu1_2"
  type: "ReLU"
  bottom: "conv1_2"
  top: "conv1_2"
}
layer {
  name: "pool1"
  type: "Pooling"
  bottom: "conv1_2"
  top: "pool1"
  pooling_param {
    pool: MAX
    kernel_size: 2
    stride: 2
  }
}
layer {
  name: "conv2_1"
  type: "Convolution"
  bottom: "pool1"
  top: "conv2_1"
  param {
    lr_mult: 1
    decay_mult: 1
  }
  param {
    lr_mult: 2
    decay_mult: 0
  }
  convolution_param {
    num_output: 128
    pad: 1
    kernel_size: 3
    weight_filler {
      type: "xavier"
    }
    bias_filler {
      type: "constant"
      value: 0
    }
  }
}
layer {
  name: "relu2_1"
  type: "ReLU"
  bottom: "conv2_1"
  top: "conv2_1"
}
layer {
  name: "conv2_2"
  type: "Convolution"
  bottom: "conv2_1"
  top: "conv2_2"
  param {
    lr_mult: 1
    decay_mult: 1
  }
  param {
    lr_mult: 2
    decay_mult: 0
  }
  convolution_param {
    num_output: 128
    pad: 1
    kernel_size: 3
    weight_filler {
      type: "xavier"
    }
    bias_filler {
      type: "constant"
      value: 0
    }
  }
}
layer {
  name: "relu2_2"
  type: "ReLU"
  bottom: "conv2_2"
  top: "conv2_2"
}
layer {
  name: "pool2"
  type: "Pooling"
  bottom: "conv2_2"
  top: "pool2"
  pooling_param {
    pool: MAX
    kernel_size: 2
    stride: 2
  }
}
layer {
  name: "conv3_1"
  type: "Convolution"
  bottom: "pool2"
  top: "conv3_1"
  param {
    lr_mult: 1
    decay_mult: 1
  }
  param {
    lr_mult: 2
    decay_mult: 0
  }
  convolution_param {
    num_output: 256
    pad: 1
    kernel_size: 3
    weight_filler {
      type: "xavier"
    }
    bias_filler {
      type: "constant"
      value: 0
    }
  }
}
layer {
  name: "relu3_1"
  type: "ReLU"
  bottom: "conv3_1"
  top: "conv3_1"
}
layer {
  name: "conv3_2"
  type: "Convolution"
  bottom: "conv3_1"
  top: "conv3_2"
  param {
    lr_mult: 1
    decay_mult: 1
  }
  param {
    lr_mult: 2
    decay_mult: 0
  }
  convolution_param {
    num_output: 256
    pad: 1
    kernel_size: 3
    weight_filler {
      type: "xavier"
    }
    bias_filler {
      type: "constant"
      value: 0
    }
  }
}
layer {
  name: "relu3_2"
  type: "ReLU"
  bottom: "conv3_2"
  top: "conv3_2"
}
layer {
  name: "conv3_3"
  type: "Convolution"
  bottom: "conv3_2"
  top: "conv3_3"
  param {
    lr_mult: 1
    decay_mult: 1
  }
  param {
    lr_mult: 2
    decay_mult: 0
  }
  convolution_param {
    num_output: 256
    pad: 1
    kernel_size: 3
    weight_filler {
      type: "xavier"
    }
    bias_filler {
      type: "constant"
      value: 0
    }
  }
}
layer {
  name: "relu3_3"
  type: "ReLU"
  bottom: "conv3_3"
  top: "conv3_3"
}
layer {
  name: "pool3"
  type: "Pooling"
  bottom: "conv3_3"
  top: "pool3"
  pooling_param {
    pool: MAX
    kernel_size: 2
    stride: 2
  }
}
layer {
  name: "conv4_1"
  type: "Convolution"
  bottom: "pool3"
  top: "conv4_1"
  param {
    lr_mult: 1
    decay_mult: 1
  }
  param {
    lr_mult: 2
    decay_mult: 0
  }
  convolution_param {
    num_output: 512
    pad: 1
    kernel_size: 3
    weight_filler {
      type: "xavier"
    }
    bias_filler {
      type: "constant"
      value: 0
    }
  }
}
layer {
  name: "relu4_1"
  type: "ReLU"
  bottom: "conv4_1"
  top: "conv4_1"
}
layer {
  name: "conv4_2"
  type: "Convolution"
  bottom: "conv4_1"
  top: "conv4_2"
  param {
    lr_mult: 1
    decay_mult: 1
  }
  param {
    lr_mult: 2
    decay_mult: 0
  }
  convolution_param {
    num_output: 512
    pad: 1
    kernel_size: 3
    weight_filler {
      type: "xavier"
    }
    bias_filler {
      type: "constant"
      value: 0
    }
  }
}
layer {
  name: "relu4_2"
  type: "ReLU"
  bottom: "conv4_2"
  top: "conv4_2"
}
layer {
  name: "conv4_3"
  type: "Convolution"
  bottom: "conv4_2"
  top: "conv4_3"
  param {
    lr_mult: 1
    decay_mult: 1
  }
  param {
    lr_mult: 2
    decay_mult: 0
  }
  convolution_param {
    num_output: 512
    pad: 1
    kernel_size: 3
    weight_filler {
      type: "xavier"
    }
    bias_filler {
      type: "constant"
      value: 0
    }
  }
}
layer {
  name: "relu4_3"
  type: "ReLU"
  bottom: "conv4_3"
  top: "conv4_3"
}
layer {
  name: "pool4"
  type: "Pooling"
  bottom: "conv4_3"
  top: "pool4"
  pooling_param {
    pool: MAX
    kernel_size: 2
    stride: 2
  }
}
layer {
  name: "conv5_1"
  type: "Convolution"
  bottom: "pool4"
  top: "conv5_1"
  param {
    lr_mult: 1
    decay_mult: 1
  }
  param {
    lr_mult: 2
    decay_mult: 0
  }
  convolution_param {
    num_output: 512
    pad: 1
    kernel_size: 3
    weight_filler {
      type: "xavier"
    }
    bias_filler {
      type: "constant"
      value: 0
    }
    dilation: 1
  }
}
layer {
  name: "relu5_1"
  type: "ReLU"
  bottom: "conv5_1"
  top: "conv5_1"
}
layer {
  name: "conv5_2"
  type: "Convolution"
  bottom: "conv5_1"
  top: "conv5_2"
  param {
    lr_mult: 1
    decay_mult: 1
  }
  param {
    lr_mult: 2
    decay_mult: 0
  }
  convolution_param {
    num_output: 512
    pad: 1
    kernel_size: 3
    weight_filler {
      type: "xavier"
    }
    bias_filler {
      type: "constant"
      value: 0
    }
    dilation: 1
  }
}
layer {
  name: "relu5_2"
  type: "ReLU"
  bottom: "conv5_2"
  top: "conv5_2"
}
layer {
  name: "conv5_3"
  type: "Convolution"
  bottom: "conv5_2"
  top: "conv5_3"
  param {
    lr_mult: 1
    decay_mult: 1
  }
  param {
    lr_mult: 2
    decay_mult: 0
  }
  convolution_param {
    num_output: 512
    pad: 1
    kernel_size: 3
    weight_filler {
      type: "xavier"
    }
    bias_filler {
      type: "constant"
      value: 0
    }
    dilation: 1
  }
}
layer {
  name: "relu5_3"
  type: "ReLU"
  bottom: "conv5_3"
  top: "conv5_3"
}
layer {
  name: "pool5"
  type: "Pooling"
  bottom: "conv5_3"
  top: "pool5"
  pooling_param {
    pool: MAX
    kernel_size: 3
    stride: 1
    pad: 1
  }
}
layer {
  name: "fc6"
  type: "Convolution"
  bottom: "pool5"
  top: "fc6"
  param {
    lr_mult: 1
    decay_mult: 1
  }
  param {
    lr_mult: 2
    decay_mult: 0
  }
  convolution_param {
    num_output: 1024
    pad: 6
    kernel_size: 3
    weight_filler {
      type: "xavier"
    }
    bias_filler {
      type: "constant"
      value: 0
    }
    dilation: 6
  }
}
layer {
  name: "relu6"
  type: "ReLU"
  bottom: "fc6"
  top: "fc6"
}
layer {
  name: "fc7"
  type: "Convolution"
  bottom: "fc6"
  top: "fc7"
  param {
    lr_mult: 1
    decay_mult: 1
  }
  param {
    lr_mult: 2
    decay_mult: 0
  }
  convolution_param {
    num_output: 1024
    kernel_size: 1
    weight_filler {
      type: "xavier"
    }
    bias_filler {
      type: "constant"
      value: 0
    }
  }
}
layer {
  name: "relu7"
  type: "ReLU"
  bottom: "fc7"
  top: "fc7"
}
layer {
  name: "conv6_1"
  type: "Convolution"
  bottom: "fc7"
  top: "conv6_1"
  param {
    lr_mult: 1
    decay_mult: 1
  }
  param {
    lr_mult: 2
    decay_mult: 0
  }
  convolution_param {
    num_output: 256
    pad: 0
    kernel_size: 1
    stride: 1
    weight_filler {
      type: "xavier"
    }
    bias_filler {
      type: "constant"
      value: 0
    }
  }
}
layer {
  name: "conv6_1_relu"
  type: "ReLU"
  bottom: "conv6_1"
  top: "conv6_1"
}
layer {
  name: "conv6_2"
  type: "Convolution"
  bottom: "conv6_1"
  top: "conv6_2"
  param {
    lr_mult: 1
    decay_mult: 1
  }
  param {
    lr_mult: 2
    decay_mult: 0
  }
  convolution_param {
    num_output: 512
    pad: 1
    kernel_size: 3
    stride: 2
    weight_filler {
      type: "xavier"
    }
    bias_filler {
      type: "constant"
      value: 0
    }
  }
}
layer {
  name: "conv6_2_relu"
  type: "ReLU"
  bottom: "conv6_2"
  top: "conv6_2"
}
layer {
  name: "conv7_1"
  type: "Convolution"
  bottom: "conv6_2"
  top: "conv7_1"
  param {
    lr_mult: 1
    decay_mult: 1
  }
  param {
    lr_mult: 2
    decay_mult: 0
  }
  convolution_param {
    num_output: 128
    pad: 0
    kernel_size: 1
    stride: 1
    weight_filler {
      type: "xavier"
    }
    bias_filler {
      type: "constant"
      value: 0
    }
  }
}
layer {
  name: "conv7_1_relu"
  type: "ReLU"
  bottom: "conv7_1"
  top: "conv7_1"
}
layer {
  name: "conv7_2"
  type: "Convolution"
  bottom: "conv7_1"
  top: "conv7_2"
  param {
    lr_mult: 1
    decay_mult: 1
  }
  param {
    lr_mult: 2
    decay_mult: 0
  }
  convolution_param {
    num_output: 256
    pad: 1
    kernel_size: 3
    stride: 2
    weight_filler {
      type: "xavier"
    }
    bias_filler {
      type: "constant"
      value: 0
    }
  }
}
layer {
  name: "conv7_2_relu"
  type: "ReLU"
  bottom: "conv7_2"
  top: "conv7_2"
}
layer {
  name: "conv8_1"
  type: "Convolution"
  bottom: "conv7_2"
  top: "conv8_1"
  param {
    lr_mult: 1
    decay_mult: 1
  }
  param {
    lr_mult: 2
    decay_mult: 0
  }
  convolution_param {
    num_output: 128
    pad: 0
    kernel_size: 1
    stride: 1
    weight_filler {
      type: "xavier"
    }
    bias_filler {
      type: "constant"
      value: 0
    }
  }
}
layer {
  name: "conv8_1_relu"
  type: "ReLU"
  bottom: "conv8_1"
  top: "conv8_1"
}
layer {
  name: "conv8_2"
  type: "Convolution"
  bottom: "conv8_1"
  top: "conv8_2"
  param {
    lr_mult: 1
    decay_mult: 1
  }
  param {
    lr_mult: 2
    decay_mult: 0
  }
  convolution_param {
    num_output: 256
    pad: 0
    kernel_size: 3
    stride: 1
    weight_filler {
      type: "xavier"
    }
    bias_filler {
      type: "constant"
      value: 0
    }
  }
}
layer {
  name: "conv8_2_relu"
  type: "ReLU"
  bottom: "conv8_2"
  top: "conv8_2"
}
layer {
  name: "conv9_1"
  type: "Convolution"
  bottom: "conv8_2"
  top: "conv9_1"
  param {
    lr_mult: 1
    decay_mult: 1
  }
  param {
    lr_mult: 2
    decay_mult: 0
  }
  convolution_param {
    num_output: 128
    pad: 0
    kernel_size: 1
    stride: 1
    weight_filler {
      type: "xavier"
    }
    bias_filler {
      type: "constant"
      value: 0
    }
  }
}
layer {
  name: "conv9_1_relu"
  type: "ReLU"
  bottom: "conv9_1"
  top: "conv9_1"
}
layer {
  name: "conv9_2"
  type: "Convolution"
  bottom: "conv9_1"
  top: "conv9_2"
  param {
    lr_mult: 1
    decay_mult: 1
  }
  param {
    lr_mult: 2
    decay_mult: 0
  }
  convolution_param {
    num_output: 256
    pad: 0
    kernel_size: 3
    stride: 1
    weight_filler {
      type: "xavier"
    }
    bias_filler {
      type: "constant"
      value: 0
    }
  }
}
layer {
  name: "conv9_2_relu"
  type: "ReLU"
  bottom: "conv9_2"
  top: "conv9_2"
}
layer {
  name: "conv4_3_norm"
  type: "Normalize"
  bottom: "conv4_3"
  top: "conv4_3_norm"
  norm_param {
    across_spatial: false
    scale_filler {
      type: "constant"
      value: 20
    }
    channel_shared: false
  }
}
layer {
  name: "conv4_3_norm_mbox_loc"
  type: "Convolution"
  bottom: "conv4_3_norm"
  top: "conv4_3_norm_mbox_loc"
  param {
    lr_mult: 1
    decay_mult: 1
  }
  param {
    lr_mult: 2
    decay_mult: 0
  }
  convolution_param {
    num_output: 16
    pad: 1
    kernel_size: 3
    stride: 1
    weight_filler {
      type: "xavier"
    }
    bias_filler {
      type: "constant"
      value: 0
    }
  }
}
layer {
  name: "conv4_3_norm_mbox_loc_perm"
  type: "Permute"
  bottom: "conv4_3_norm_mbox_loc"
  top: "conv4_3_norm_mbox_loc_perm"
  permute_param {
    order: 0
    order: 2
    order: 3
    order: 1
  }
}
layer {
  name: "conv4_3_norm_mbox_loc_flat"
  type: "Flatten"
  bottom: "conv4_3_norm_mbox_loc_perm"
  top: "conv4_3_norm_mbox_loc_flat"
  flatten_param {
    axis: 1
  }
}
layer {
  name: "conv4_3_norm_mbox_conf"
  type: "Convolution"
  bottom: "conv4_3_norm"
  top: "conv4_3_norm_mbox_conf"
  param {
    lr_mult: 1
    decay_mult: 1
  }
  param {
    lr_mult: 2
    decay_mult: 0
  }
  convolution_param {
    num_output: 44
    pad: 1
    kernel_size: 3
    stride: 1
    weight_filler {
      type: "xavier"
    }
    bias_filler {
      type: "constant"
      value: 0
    }
  }
}
layer {
  name: "conv4_3_norm_mbox_conf_perm"
  type: "Permute"
  bottom: "conv4_3_norm_mbox_conf"
  top: "conv4_3_norm_mbox_conf_perm"
  permute_param {
    order: 0
    order: 2
    order: 3
    order: 1
  }
}
layer {
  name: "conv4_3_norm_mbox_conf_flat"
  type: "Flatten"
  bottom: "conv4_3_norm_mbox_conf_perm"
  top: "conv4_3_norm_mbox_conf_flat"
  flatten_param {
    axis: 1
  }
}
layer {
  name: "conv4_3_norm_mbox_priorbox"
  type: "PriorBox"
  bottom: "conv4_3_norm"
  bottom: "data"
  top: "conv4_3_norm_mbox_priorbox"
  prior_box_param {
    min_size: 30
    max_size: 60
    aspect_ratio: 2
    flip: true
    clip: false
    variance: 0.1
    variance: 0.1
    variance: 0.2
    variance: 0.2
    step: 8
    offset: 0.5
  }
}
layer {
  name: "fc7_mbox_loc"
  type: "Convolution"
  bottom: "fc7"
  top: "fc7_mbox_loc"
  param {
    lr_mult: 1
    decay_mult: 1
  }
  param {
    lr_mult: 2
    decay_mult: 0
  }
  convolution_param {
    num_output: 24
    pad: 1
    kernel_size: 3
    stride: 1
    weight_filler {
      type: "xavier"
    }
    bias_filler {
      type: "constant"
      value: 0
    }
  }
}
layer {
  name: "fc7_mbox_loc_perm"
  type: "Permute"
  bottom: "fc7_mbox_loc"
  top: "fc7_mbox_loc_perm"
  permute_param {
    order: 0
    order: 2
    order: 3
    order: 1
  }
}
layer {
  name: "fc7_mbox_loc_flat"
  type: "Flatten"
  bottom: "fc7_mbox_loc_perm"
  top: "fc7_mbox_loc_flat"
  flatten_param {
    axis: 1
  }
}
layer {
  name: "fc7_mbox_conf"
  type: "Convolution"
  bottom: "fc7"
  top: "fc7_mbox_conf"
  param {
    lr_mult: 1
    decay_mult: 1
  }
  param {
    lr_mult: 2
    decay_mult: 0
  }
  convolution_param {
    num_output: 66
    pad: 1
    kernel_size: 3
    stride: 1
    weight_filler {
      type: "xavier"
    }
    bias_filler {
      type: "constant"
      value: 0
    }
  }
}
layer {
  name: "fc7_mbox_conf_perm"
  type: "Permute"
  bottom: "fc7_mbox_conf"
  top: "fc7_mbox_conf_perm"
  permute_param {
    order: 0
    order: 2
    order: 3
    order: 1
  }
}
layer {
  name: "fc7_mbox_conf_flat"
  type: "Flatten"
  bottom: "fc7_mbox_conf_perm"
  top: "fc7_mbox_conf_flat"
  flatten_param {
    axis: 1
  }
}
layer {
  name: "fc7_mbox_priorbox"
  type: "PriorBox"
  bottom: "fc7"
  bottom: "data"
  top: "fc7_mbox_priorbox"
  prior_box_param {
    min_size: 60
    max_size: 111
    aspect_ratio: 2
    aspect_ratio: 3
    flip: true
    clip: false
    variance: 0.1
    variance: 0.1
    variance: 0.2
    variance: 0.2
    step: 16
    offset: 0.5
  }
}
layer {
  name: "conv6_2_mbox_loc"
  type: "Convolution"
  bottom: "conv6_2"
  top: "conv6_2_mbox_loc"
  param {
    lr_mult: 1
    decay_mult: 1
  }
  param {
    lr_mult: 2
    decay_mult: 0
  }
  convolution_param {
    num_output: 24
    pad: 1
    kernel_size: 3
    stride: 1
    weight_filler {
      type: "xavier"
    }
    bias_filler {
      type: "constant"
      value: 0
    }
  }
}
layer {
  name: "conv6_2_mbox_loc_perm"
  type: "Permute"
  bottom: "conv6_2_mbox_loc"
  top: "conv6_2_mbox_loc_perm"
  permute_param {
    order: 0
    order: 2
    order: 3
    order: 1
  }
}
layer {
  name: "conv6_2_mbox_loc_flat"
  type: "Flatten"
  bottom: "conv6_2_mbox_loc_perm"
  top: "conv6_2_mbox_loc_flat"
  flatten_param {
    axis: 1
  }
}
layer {
  name: "conv6_2_mbox_conf"
  type: "Convolution"
  bottom: "conv6_2"
  top: "conv6_2_mbox_conf"
  param {
    lr_mult: 1
    decay_mult: 1
  }
  param {
    lr_mult: 2
    decay_mult: 0
  }
  convolution_param {
    num_output: 66
    pad: 1
    kernel_size: 3
    stride: 1
    weight_filler {
      type: "xavier"
    }
    bias_filler {
      type: "constant"
      value: 0
    }
  }
}
layer {
  name: "conv6_2_mbox_conf_perm"
  type: "Permute"
  bottom: "conv6_2_mbox_conf"
  top: "conv6_2_mbox_conf_perm"
  permute_param {
    order: 0
    order: 2
    order: 3
    order: 1
  }
}
layer {
  name: "conv6_2_mbox_conf_flat"
  type: "Flatten"
  bottom: "conv6_2_mbox_conf_perm"
  top: "conv6_2_mbox_conf_flat"
  flatten_param {
    axis: 1
  }
}
layer {
  name: "conv6_2_mbox_priorbox"
  type: "PriorBox"
  bottom: "conv6_2"
  bottom: "data"
  top: "conv6_2_mbox_priorbox"
  prior_box_param {
    min_size: 111
    max_size: 162
    aspect_ratio: 2
    aspect_ratio: 3
    flip: true
    clip: false
    variance: 0.1
    variance: 0.1
    variance: 0.2
    variance: 0.2
    step: 32
    offset: 0.5
  }
}
layer {
  name: "conv7_2_mbox_loc"
  type: "Convolution"
  bottom: "conv7_2"
  top: "conv7_2_mbox_loc"
  param {
    lr_mult: 1
    decay_mult: 1
  }
  param {
    lr_mult: 2
    decay_mult: 0
  }
  convolution_param {
    num_output: 24
    pad: 1
    kernel_size: 3
    stride: 1
    weight_filler {
      type: "xavier"
    }
    bias_filler {
      type: "constant"
      value: 0
    }
  }
}
layer {
  name: "conv7_2_mbox_loc_perm"
  type: "Permute"
  bottom: "conv7_2_mbox_loc"
  top: "conv7_2_mbox_loc_perm"
  permute_param {
    order: 0
    order: 2
    order: 3
    order: 1
  }
}
layer {
  name: "conv7_2_mbox_loc_flat"
  type: "Flatten"
  bottom: "conv7_2_mbox_loc_perm"
  top: "conv7_2_mbox_loc_flat"
  flatten_param {
    axis: 1
  }
}
layer {
  name: "conv7_2_mbox_conf"
  type: "Convolution"
  bottom: "conv7_2"
  top: "conv7_2_mbox_conf"
  param {
    lr_mult: 1
    decay_mult: 1
  }
  param {
    lr_mult: 2
    decay_mult: 0
  }
  convolution_param {
    num_output: 66
    pad: 1
    kernel_size: 3
    stride: 1
    weight_filler {
      type: "xavier"
    }
    bias_filler {
      type: "constant"
      value: 0
    }
  }
}
layer {
  name: "conv7_2_mbox_conf_perm"
  type: "Permute"
  bottom: "conv7_2_mbox_conf"
  top: "conv7_2_mbox_conf_perm"
  permute_param {
    order: 0
    order: 2
    order: 3
    order: 1
  }
}
layer {
  name: "conv7_2_mbox_conf_flat"
  type: "Flatten"
  bottom: "conv7_2_mbox_conf_perm"
  top: "conv7_2_mbox_conf_flat"
  flatten_param {
    axis: 1
  }
}
layer {
  name: "conv7_2_mbox_priorbox"
  type: "PriorBox"
  bottom: "conv7_2"
  bottom: "data"
  top: "conv7_2_mbox_priorbox"
  prior_box_param {
    min_size: 162
    max_size: 213
    aspect_ratio: 2
    aspect_ratio: 3
    flip: true
    clip: false
    variance: 0.1
    variance: 0.1
    variance: 0.2
    variance: 0.2
    step: 64
    offset: 0.5
  }
}
layer {
  name: "conv8_2_mbox_loc"
  type: "Convolution"
  bottom: "conv8_2"
  top: "conv8_2_mbox_loc"
  param {
    lr_mult: 1
    decay_mult: 1
  }
  param {
    lr_mult: 2
    decay_mult: 0
  }
  convolution_param {
    num_output: 16
    pad: 1
    kernel_size: 3
    stride: 1
    weight_filler {
      type: "xavier"
    }
    bias_filler {
      type: "constant"
      value: 0
    }
  }
}
layer {
  name: "conv8_2_mbox_loc_perm"
  type: "Permute"
  bottom: "conv8_2_mbox_loc"
  top: "conv8_2_mbox_loc_perm"
  permute_param {
    order: 0
    order: 2
    order: 3
    order: 1
  }
}
layer {
  name: "conv8_2_mbox_loc_flat"
  type: "Flatten"
  bottom: "conv8_2_mbox_loc_perm"
  top: "conv8_2_mbox_loc_flat"
  flatten_param {
    axis: 1
  }
}
layer {
  name: "conv8_2_mbox_conf"
  type: "Convolution"
  bottom: "conv8_2"
  top: "conv8_2_mbox_conf"
  param {
    lr_mult: 1
    decay_mult: 1
  }
  param {
    lr_mult: 2
    decay_mult: 0
  }
  convolution_param {
    num_output: 44
    pad: 1
    kernel_size: 3
    stride: 1
    weight_filler {
      type: "xavier"
    }
    bias_filler {
      type: "constant"
      value: 0
    }
  }
}
layer {
  name: "conv8_2_mbox_conf_perm"
  type: "Permute"
  bottom: "conv8_2_mbox_conf"
  top: "conv8_2_mbox_conf_perm"
  permute_param {
    order: 0
    order: 2
    order: 3
    order: 1
  }
}
layer {
  name: "conv8_2_mbox_conf_flat"
  type: "Flatten"
  bottom: "conv8_2_mbox_conf_perm"
  top: "conv8_2_mbox_conf_flat"
  flatten_param {
    axis: 1
  }
}
layer {
  name: "conv8_2_mbox_priorbox"
  type: "PriorBox"
  bottom: "conv8_2"
  bottom: "data"
  top: "conv8_2_mbox_priorbox"
  prior_box_param {
    min_size: 213
    max_size: 264
    aspect_ratio: 2
    flip: true
    clip: false
    variance: 0.1
    variance: 0.1
    variance: 0.2
    variance: 0.2
    step: 100
    offset: 0.5
  }
}
layer {
  name: "conv9_2_mbox_loc"
  type: "Convolution"
  bottom: "conv9_2"
  top: "conv9_2_mbox_loc"
  param {
    lr_mult: 1
    decay_mult: 1
  }
  param {
    lr_mult: 2
    decay_mult: 0
  }
  convolution_param {
    num_output: 16
    pad: 1
    kernel_size: 3
    stride: 1
    weight_filler {
      type: "xavier"
    }
    bias_filler {
      type: "constant"
      value: 0
    }
  }
}
layer {
  name: "conv9_2_mbox_loc_perm"
  type: "Permute"
  bottom: "conv9_2_mbox_loc"
  top: "conv9_2_mbox_loc_perm"
  permute_param {
    order: 0
    order: 2
    order: 3
    order: 1
  }
}
layer {
  name: "conv9_2_mbox_loc_flat"
  type: "Flatten"
  bottom: "conv9_2_mbox_loc_perm"
  top: "conv9_2_mbox_loc_flat"
  flatten_param {
    axis: 1
  }
}
layer {
  name: "conv9_2_mbox_conf"
  type: "Convolution"
  bottom: "conv9_2"
  top: "conv9_2_mbox_conf"
  param {
    lr_mult: 1
    decay_mult: 1
  }
  param {
    lr_mult: 2
    decay_mult: 0
  }
  convolution_param {
    num_output: 44
    pad: 1
    kernel_size: 3
    stride: 1
    weight_filler {
      type: "xavier"
    }
    bias_filler {
      type: "constant"
      value: 0
    }
  }
}
layer {
  name: "conv9_2_mbox_conf_perm"
  type: "Permute"
  bottom: "conv9_2_mbox_conf"
  top: "conv9_2_mbox_conf_perm"
  permute_param {
    order: 0
    order: 2
    order: 3
    order: 1
  }
}
layer {
  name: "conv9_2_mbox_conf_flat"
  type: "Flatten"
  bottom: "conv9_2_mbox_conf_perm"
  top: "conv9_2_mbox_conf_flat"
  flatten_param {
    axis: 1
  }
}
layer {
  name: "conv9_2_mbox_priorbox"
  type: "PriorBox"
  bottom: "conv9_2"
  bottom: "data"
  top: "conv9_2_mbox_priorbox"
  prior_box_param {
    min_size: 264
    max_size: 315
    aspect_ratio: 2
    flip: true
    clip: false
    variance: 0.1
    variance: 0.1
    variance: 0.2
    variance: 0.2
    step: 300
    offset: 0.5
  }
}
layer {
  name: "mbox_loc"
  type: "Concat"
  bottom: "conv4_3_norm_mbox_loc_flat"
  bottom: "fc7_mbox_loc_flat"
  bottom: "conv6_2_mbox_loc_flat"
  bottom: "conv7_2_mbox_loc_flat"
  bottom: "conv8_2_mbox_loc_flat"
  bottom: "conv9_2_mbox_loc_flat"
  top: "mbox_loc"
  concat_param {
    axis: 1
  }
}
layer {
  name: "mbox_conf"
  type: "Concat"
  bottom: "conv4_3_norm_mbox_conf_flat"
  bottom: "fc7_mbox_conf_flat"
  bottom: "conv6_2_mbox_conf_flat"
  bottom: "conv7_2_mbox_conf_flat"
  bottom: "conv8_2_mbox_conf_flat"
  bottom: "conv9_2_mbox_conf_flat"
  top: "mbox_conf"
  concat_param {
    axis: 1
  }
}
layer {
  name: "mbox_priorbox"
  type: "Concat"
  bottom: "conv4_3_norm_mbox_priorbox"
  bottom: "fc7_mbox_priorbox"
  bottom: "conv6_2_mbox_priorbox"
  bottom: "conv7_2_mbox_priorbox"
  bottom: "conv8_2_mbox_priorbox"
  bottom: "conv9_2_mbox_priorbox"
  top: "mbox_priorbox"
  concat_param {
    axis: 2
  }
}
layer {
  name: "mbox_conf_reshape"
  type: "Reshape"
  bottom: "mbox_conf"
  top: "mbox_conf_reshape"
  reshape_param {
    shape {
      dim: 0
      dim: -1
      dim: 11
    }
  }
}
layer {
  name: "mbox_conf_softmax"
  type: "Softmax"
  bottom: "mbox_conf_reshape"
  top: "mbox_conf_softmax"
  softmax_param {
    axis: 2
  }
}
layer {
  name: "mbox_conf_flatten"
  type: "Flatten"
  bottom: "mbox_conf_softmax"
  top: "mbox_conf_flatten"
  flatten_param {
    axis: 1
  }
}
layer {
  name: "detection_out"
  type: "DetectionOutput"
  bottom: "mbox_loc"
  bottom: "mbox_conf_flatten"
  bottom: "mbox_priorbox"
  top: "detection_out"
  include {
    phase: TEST
  }
  detection_output_param {
    num_classes: 11
    share_location: true
    background_label_id: 0
    nms_param {
      nms_threshold: 0.45
      top_k: 400
    }
    save_output_param {
      output_directory: "/home/zs/data/VOCdevkit/results/VOC2007/SSD_300x300/Main"
      output_name_prefix: "comp4_det_test_"
      output_format: "VOC"
      label_map_file: "data/NWPU_VHR/labelmap_NWPU_VHR.prototxt"
      name_size_file: "data/NWPU_VHR/test_name_size.txt"
      num_test_image: 123
    }
    code_type: CENTER_SIZE
    keep_top_k: 200
    confidence_threshold: 0.01
  }
}
layer {
  name: "detection_eval"
  type: "DetectionEvaluate"
  bottom: "detection_out"
  bottom: "label"
  top: "detection_eval"
  include {
    phase: TEST
  }
  detection_evaluate_param {
    num_classes: 11
    background_label_id: 0
    overlap_threshold: 0.5
    evaluate_difficult_gt: false
    name_size_file: "data/NWPU_VHR/test_name_size.txt"
  }
}
I0301 13:14:00.163244 10294 layer_factory.hpp:77] Creating layer data
I0301 13:14:00.163298 10294 net.cpp:100] Creating Layer data
I0301 13:14:00.163307 10294 net.cpp:408] data -> data
I0301 13:14:00.163317 10294 net.cpp:408] data -> label
I0301 13:14:00.196353 10311 db_lmdb.cpp:35] Opened lmdb examples/NWPU_VHR/NWPU_VHR_test_lmdb
I0301 13:14:00.222324 10294 annotated_data_layer.cpp:62] output data size: 8,3,300,300
I0301 13:14:00.238500 10294 net.cpp:150] Setting up data
I0301 13:14:00.238530 10294 net.cpp:157] Top shape: 8 3 300 300 (2160000)
I0301 13:14:00.238538 10294 net.cpp:157] Top shape: 1 1 4 8 (32)
I0301 13:14:00.238541 10294 net.cpp:165] Memory required for data: 8640128
I0301 13:14:00.238549 10294 layer_factory.hpp:77] Creating layer data_data_0_split
I0301 13:14:00.238566 10294 net.cpp:100] Creating Layer data_data_0_split
I0301 13:14:00.238572 10294 net.cpp:434] data_data_0_split <- data
I0301 13:14:00.238581 10294 net.cpp:408] data_data_0_split -> data_data_0_split_0
I0301 13:14:00.238596 10294 net.cpp:408] data_data_0_split -> data_data_0_split_1
I0301 13:14:00.238610 10294 net.cpp:408] data_data_0_split -> data_data_0_split_2
I0301 13:14:00.238624 10294 net.cpp:408] data_data_0_split -> data_data_0_split_3
I0301 13:14:00.238642 10294 net.cpp:408] data_data_0_split -> data_data_0_split_4
I0301 13:14:00.238656 10294 net.cpp:408] data_data_0_split -> data_data_0_split_5
I0301 13:14:00.238667 10294 net.cpp:408] data_data_0_split -> data_data_0_split_6
I0301 13:14:00.238862 10294 net.cpp:150] Setting up data_data_0_split
I0301 13:14:00.238873 10294 net.cpp:157] Top shape: 8 3 300 300 (2160000)
I0301 13:14:00.238879 10294 net.cpp:157] Top shape: 8 3 300 300 (2160000)
I0301 13:14:00.238886 10294 net.cpp:157] Top shape: 8 3 300 300 (2160000)
I0301 13:14:00.238893 10294 net.cpp:157] Top shape: 8 3 300 300 (2160000)
I0301 13:14:00.238900 10294 net.cpp:157] Top shape: 8 3 300 300 (2160000)
I0301 13:14:00.238909 10294 net.cpp:157] Top shape: 8 3 300 300 (2160000)
I0301 13:14:00.238919 10294 net.cpp:157] Top shape: 8 3 300 300 (2160000)
I0301 13:14:00.238925 10294 net.cpp:165] Memory required for data: 69120128
I0301 13:14:00.238934 10294 layer_factory.hpp:77] Creating layer conv1_1
I0301 13:14:00.238952 10294 net.cpp:100] Creating Layer conv1_1
I0301 13:14:00.238965 10294 net.cpp:434] conv1_1 <- data_data_0_split_0
I0301 13:14:00.238976 10294 net.cpp:408] conv1_1 -> conv1_1
I0301 13:14:00.241253 10294 net.cpp:150] Setting up conv1_1
I0301 13:14:00.241271 10294 net.cpp:157] Top shape: 8 64 300 300 (46080000)
I0301 13:14:00.241277 10294 net.cpp:165] Memory required for data: 253440128
I0301 13:14:00.241291 10294 layer_factory.hpp:77] Creating layer relu1_1
I0301 13:14:00.241300 10294 net.cpp:100] Creating Layer relu1_1
I0301 13:14:00.241307 10294 net.cpp:434] relu1_1 <- conv1_1
I0301 13:14:00.241317 10294 net.cpp:395] relu1_1 -> conv1_1 (in-place)
I0301 13:14:00.241554 10294 net.cpp:150] Setting up relu1_1
I0301 13:14:00.241567 10294 net.cpp:157] Top shape: 8 64 300 300 (46080000)
I0301 13:14:00.241572 10294 net.cpp:165] Memory required for data: 437760128
I0301 13:14:00.241578 10294 layer_factory.hpp:77] Creating layer conv1_2
I0301 13:14:00.241593 10294 net.cpp:100] Creating Layer conv1_2
I0301 13:14:00.241605 10294 net.cpp:434] conv1_2 <- conv1_1
I0301 13:14:00.241616 10294 net.cpp:408] conv1_2 -> conv1_2
I0301 13:14:00.243706 10294 net.cpp:150] Setting up conv1_2
I0301 13:14:00.243723 10294 net.cpp:157] Top shape: 8 64 300 300 (46080000)
I0301 13:14:00.243728 10294 net.cpp:165] Memory required for data: 622080128
I0301 13:14:00.243739 10294 layer_factory.hpp:77] Creating layer relu1_2
I0301 13:14:00.243748 10294 net.cpp:100] Creating Layer relu1_2
I0301 13:14:00.243755 10294 net.cpp:434] relu1_2 <- conv1_2
I0301 13:14:00.243765 10294 net.cpp:395] relu1_2 -> conv1_2 (in-place)
I0301 13:14:00.243994 10294 net.cpp:150] Setting up relu1_2
I0301 13:14:00.244009 10294 net.cpp:157] Top shape: 8 64 300 300 (46080000)
I0301 13:14:00.244014 10294 net.cpp:165] Memory required for data: 806400128
I0301 13:14:00.244019 10294 layer_factory.hpp:77] Creating layer pool1
I0301 13:14:00.244029 10294 net.cpp:100] Creating Layer pool1
I0301 13:14:00.244037 10294 net.cpp:434] pool1 <- conv1_2
I0301 13:14:00.244046 10294 net.cpp:408] pool1 -> pool1
I0301 13:14:00.244124 10294 net.cpp:150] Setting up pool1
I0301 13:14:00.244135 10294 net.cpp:157] Top shape: 8 64 150 150 (11520000)
I0301 13:14:00.244141 10294 net.cpp:165] Memory required for data: 852480128
I0301 13:14:00.244146 10294 layer_factory.hpp:77] Creating layer conv2_1
I0301 13:14:00.244159 10294 net.cpp:100] Creating Layer conv2_1
I0301 13:14:00.244166 10294 net.cpp:434] conv2_1 <- pool1
I0301 13:14:00.244180 10294 net.cpp:408] conv2_1 -> conv2_1
I0301 13:14:00.246374 10294 net.cpp:150] Setting up conv2_1
I0301 13:14:00.246392 10294 net.cpp:157] Top shape: 8 128 150 150 (23040000)
I0301 13:14:00.246397 10294 net.cpp:165] Memory required for data: 944640128
I0301 13:14:00.246408 10294 layer_factory.hpp:77] Creating layer relu2_1
I0301 13:14:00.246417 10294 net.cpp:100] Creating Layer relu2_1
I0301 13:14:00.246423 10294 net.cpp:434] relu2_1 <- conv2_1
I0301 13:14:00.246433 10294 net.cpp:395] relu2_1 -> conv2_1 (in-place)
I0301 13:14:00.247403 10294 net.cpp:150] Setting up relu2_1
I0301 13:14:00.247419 10294 net.cpp:157] Top shape: 8 128 150 150 (23040000)
I0301 13:14:00.247424 10294 net.cpp:165] Memory required for data: 1036800128
I0301 13:14:00.247429 10294 layer_factory.hpp:77] Creating layer conv2_2
I0301 13:14:00.247442 10294 net.cpp:100] Creating Layer conv2_2
I0301 13:14:00.247447 10294 net.cpp:434] conv2_2 <- conv2_1
I0301 13:14:00.247455 10294 net.cpp:408] conv2_2 -> conv2_2
I0301 13:14:00.251783 10294 net.cpp:150] Setting up conv2_2
I0301 13:14:00.251802 10294 net.cpp:157] Top shape: 8 128 150 150 (23040000)
I0301 13:14:00.251807 10294 net.cpp:165] Memory required for data: 1128960128
I0301 13:14:00.251816 10294 layer_factory.hpp:77] Creating layer relu2_2
I0301 13:14:00.251823 10294 net.cpp:100] Creating Layer relu2_2
I0301 13:14:00.251830 10294 net.cpp:434] relu2_2 <- conv2_2
I0301 13:14:00.251837 10294 net.cpp:395] relu2_2 -> conv2_2 (in-place)
I0301 13:14:00.252077 10294 net.cpp:150] Setting up relu2_2
I0301 13:14:00.252091 10294 net.cpp:157] Top shape: 8 128 150 150 (23040000)
I0301 13:14:00.252096 10294 net.cpp:165] Memory required for data: 1221120128
I0301 13:14:00.252101 10294 layer_factory.hpp:77] Creating layer pool2
I0301 13:14:00.252125 10294 net.cpp:100] Creating Layer pool2
I0301 13:14:00.252133 10294 net.cpp:434] pool2 <- conv2_2
I0301 13:14:00.252144 10294 net.cpp:408] pool2 -> pool2
I0301 13:14:00.252220 10294 net.cpp:150] Setting up pool2
I0301 13:14:00.252231 10294 net.cpp:157] Top shape: 8 128 75 75 (5760000)
I0301 13:14:00.252236 10294 net.cpp:165] Memory required for data: 1244160128
I0301 13:14:00.252243 10294 layer_factory.hpp:77] Creating layer conv3_1
I0301 13:14:00.252257 10294 net.cpp:100] Creating Layer conv3_1
I0301 13:14:00.252264 10294 net.cpp:434] conv3_1 <- pool2
I0301 13:14:00.252275 10294 net.cpp:408] conv3_1 -> conv3_1
I0301 13:14:00.256505 10294 net.cpp:150] Setting up conv3_1
I0301 13:14:00.256522 10294 net.cpp:157] Top shape: 8 256 75 75 (11520000)
I0301 13:14:00.256527 10294 net.cpp:165] Memory required for data: 1290240128
I0301 13:14:00.256541 10294 layer_factory.hpp:77] Creating layer relu3_1
I0301 13:14:00.256553 10294 net.cpp:100] Creating Layer relu3_1
I0301 13:14:00.256561 10294 net.cpp:434] relu3_1 <- conv3_1
I0301 13:14:00.256572 10294 net.cpp:395] relu3_1 -> conv3_1 (in-place)
I0301 13:14:00.256834 10294 net.cpp:150] Setting up relu3_1
I0301 13:14:00.256850 10294 net.cpp:157] Top shape: 8 256 75 75 (11520000)
I0301 13:14:00.256855 10294 net.cpp:165] Memory required for data: 1336320128
I0301 13:14:00.256858 10294 layer_factory.hpp:77] Creating layer conv3_2
I0301 13:14:00.256868 10294 net.cpp:100] Creating Layer conv3_2
I0301 13:14:00.256875 10294 net.cpp:434] conv3_2 <- conv3_1
I0301 13:14:00.256884 10294 net.cpp:408] conv3_2 -> conv3_2
I0301 13:14:00.264317 10294 net.cpp:150] Setting up conv3_2
I0301 13:14:00.264335 10294 net.cpp:157] Top shape: 8 256 75 75 (11520000)
I0301 13:14:00.264341 10294 net.cpp:165] Memory required for data: 1382400128
I0301 13:14:00.264350 10294 layer_factory.hpp:77] Creating layer relu3_2
I0301 13:14:00.264360 10294 net.cpp:100] Creating Layer relu3_2
I0301 13:14:00.264369 10294 net.cpp:434] relu3_2 <- conv3_2
I0301 13:14:00.264379 10294 net.cpp:395] relu3_2 -> conv3_2 (in-place)
I0301 13:14:00.264619 10294 net.cpp:150] Setting up relu3_2
I0301 13:14:00.264632 10294 net.cpp:157] Top shape: 8 256 75 75 (11520000)
I0301 13:14:00.264637 10294 net.cpp:165] Memory required for data: 1428480128
I0301 13:14:00.264643 10294 layer_factory.hpp:77] Creating layer conv3_3
I0301 13:14:00.264660 10294 net.cpp:100] Creating Layer conv3_3
I0301 13:14:00.264669 10294 net.cpp:434] conv3_3 <- conv3_2
I0301 13:14:00.264700 10294 net.cpp:408] conv3_3 -> conv3_3
I0301 13:14:00.270647 10294 net.cpp:150] Setting up conv3_3
I0301 13:14:00.270665 10294 net.cpp:157] Top shape: 8 256 75 75 (11520000)
I0301 13:14:00.270671 10294 net.cpp:165] Memory required for data: 1474560128
I0301 13:14:00.270681 10294 layer_factory.hpp:77] Creating layer relu3_3
I0301 13:14:00.270691 10294 net.cpp:100] Creating Layer relu3_3
I0301 13:14:00.270697 10294 net.cpp:434] relu3_3 <- conv3_3
I0301 13:14:00.270705 10294 net.cpp:395] relu3_3 -> conv3_3 (in-place)
I0301 13:14:00.271605 10294 net.cpp:150] Setting up relu3_3
I0301 13:14:00.271620 10294 net.cpp:157] Top shape: 8 256 75 75 (11520000)
I0301 13:14:00.271625 10294 net.cpp:165] Memory required for data: 1520640128
I0301 13:14:00.271628 10294 layer_factory.hpp:77] Creating layer pool3
I0301 13:14:00.271637 10294 net.cpp:100] Creating Layer pool3
I0301 13:14:00.271642 10294 net.cpp:434] pool3 <- conv3_3
I0301 13:14:00.271649 10294 net.cpp:408] pool3 -> pool3
I0301 13:14:00.271701 10294 net.cpp:150] Setting up pool3
I0301 13:14:00.271710 10294 net.cpp:157] Top shape: 8 256 38 38 (2957312)
I0301 13:14:00.271715 10294 net.cpp:165] Memory required for data: 1532469376
I0301 13:14:00.271719 10294 layer_factory.hpp:77] Creating layer conv4_1
I0301 13:14:00.271729 10294 net.cpp:100] Creating Layer conv4_1
I0301 13:14:00.271733 10294 net.cpp:434] conv4_1 <- pool3
I0301 13:14:00.271740 10294 net.cpp:408] conv4_1 -> conv4_1
I0301 13:14:00.280477 10294 net.cpp:150] Setting up conv4_1
I0301 13:14:00.280498 10294 net.cpp:157] Top shape: 8 512 38 38 (5914624)
I0301 13:14:00.280521 10294 net.cpp:165] Memory required for data: 1556127872
I0301 13:14:00.280534 10294 layer_factory.hpp:77] Creating layer relu4_1
I0301 13:14:00.280546 10294 net.cpp:100] Creating Layer relu4_1
I0301 13:14:00.280553 10294 net.cpp:434] relu4_1 <- conv4_1
I0301 13:14:00.280561 10294 net.cpp:395] relu4_1 -> conv4_1 (in-place)
I0301 13:14:00.280769 10294 net.cpp:150] Setting up relu4_1
I0301 13:14:00.280781 10294 net.cpp:157] Top shape: 8 512 38 38 (5914624)
I0301 13:14:00.280786 10294 net.cpp:165] Memory required for data: 1579786368
I0301 13:14:00.280789 10294 layer_factory.hpp:77] Creating layer conv4_2
I0301 13:14:00.280802 10294 net.cpp:100] Creating Layer conv4_2
I0301 13:14:00.280807 10294 net.cpp:434] conv4_2 <- conv4_1
I0301 13:14:00.280815 10294 net.cpp:408] conv4_2 -> conv4_2
I0301 13:14:00.295516 10294 net.cpp:150] Setting up conv4_2
I0301 13:14:00.295543 10294 net.cpp:157] Top shape: 8 512 38 38 (5914624)
I0301 13:14:00.295547 10294 net.cpp:165] Memory required for data: 1603444864
I0301 13:14:00.295562 10294 layer_factory.hpp:77] Creating layer relu4_2
I0301 13:14:00.295572 10294 net.cpp:100] Creating Layer relu4_2
I0301 13:14:00.295578 10294 net.cpp:434] relu4_2 <- conv4_2
I0301 13:14:00.295585 10294 net.cpp:395] relu4_2 -> conv4_2 (in-place)
I0301 13:14:00.295776 10294 net.cpp:150] Setting up relu4_2
I0301 13:14:00.295789 10294 net.cpp:157] Top shape: 8 512 38 38 (5914624)
I0301 13:14:00.295792 10294 net.cpp:165] Memory required for data: 1627103360
I0301 13:14:00.295797 10294 layer_factory.hpp:77] Creating layer conv4_3
I0301 13:14:00.295810 10294 net.cpp:100] Creating Layer conv4_3
I0301 13:14:00.295816 10294 net.cpp:434] conv4_3 <- conv4_2
I0301 13:14:00.295827 10294 net.cpp:408] conv4_3 -> conv4_3
I0301 13:14:00.310986 10294 net.cpp:150] Setting up conv4_3
I0301 13:14:00.311012 10294 net.cpp:157] Top shape: 8 512 38 38 (5914624)
I0301 13:14:00.311015 10294 net.cpp:165] Memory required for data: 1650761856
I0301 13:14:00.311026 10294 layer_factory.hpp:77] Creating layer relu4_3
I0301 13:14:00.311036 10294 net.cpp:100] Creating Layer relu4_3
I0301 13:14:00.311041 10294 net.cpp:434] relu4_3 <- conv4_3
I0301 13:14:00.311048 10294 net.cpp:395] relu4_3 -> conv4_3 (in-place)
I0301 13:14:00.311805 10294 net.cpp:150] Setting up relu4_3
I0301 13:14:00.311818 10294 net.cpp:157] Top shape: 8 512 38 38 (5914624)
I0301 13:14:00.311822 10294 net.cpp:165] Memory required for data: 1674420352
I0301 13:14:00.311826 10294 layer_factory.hpp:77] Creating layer conv4_3_relu4_3_0_split
I0301 13:14:00.311836 10294 net.cpp:100] Creating Layer conv4_3_relu4_3_0_split
I0301 13:14:00.311839 10294 net.cpp:434] conv4_3_relu4_3_0_split <- conv4_3
I0301 13:14:00.311846 10294 net.cpp:408] conv4_3_relu4_3_0_split -> conv4_3_relu4_3_0_split_0
I0301 13:14:00.311856 10294 net.cpp:408] conv4_3_relu4_3_0_split -> conv4_3_relu4_3_0_split_1
I0301 13:14:00.311931 10294 net.cpp:150] Setting up conv4_3_relu4_3_0_split
I0301 13:14:00.311940 10294 net.cpp:157] Top shape: 8 512 38 38 (5914624)
I0301 13:14:00.311944 10294 net.cpp:157] Top shape: 8 512 38 38 (5914624)
I0301 13:14:00.311949 10294 net.cpp:165] Memory required for data: 1721737344
I0301 13:14:00.311954 10294 layer_factory.hpp:77] Creating layer pool4
I0301 13:14:00.311962 10294 net.cpp:100] Creating Layer pool4
I0301 13:14:00.311969 10294 net.cpp:434] pool4 <- conv4_3_relu4_3_0_split_0
I0301 13:14:00.311976 10294 net.cpp:408] pool4 -> pool4
I0301 13:14:00.312034 10294 net.cpp:150] Setting up pool4
I0301 13:14:00.312042 10294 net.cpp:157] Top shape: 8 512 19 19 (1478656)
I0301 13:14:00.312047 10294 net.cpp:165] Memory required for data: 1727651968
I0301 13:14:00.312050 10294 layer_factory.hpp:77] Creating layer conv5_1
I0301 13:14:00.312063 10294 net.cpp:100] Creating Layer conv5_1
I0301 13:14:00.312068 10294 net.cpp:434] conv5_1 <- pool4
I0301 13:14:00.312077 10294 net.cpp:408] conv5_1 -> conv5_1
I0301 13:14:00.326158 10294 net.cpp:150] Setting up conv5_1
I0301 13:14:00.326185 10294 net.cpp:157] Top shape: 8 512 19 19 (1478656)
I0301 13:14:00.326189 10294 net.cpp:165] Memory required for data: 1733566592
I0301 13:14:00.326216 10294 layer_factory.hpp:77] Creating layer relu5_1
I0301 13:14:00.326227 10294 net.cpp:100] Creating Layer relu5_1
I0301 13:14:00.326236 10294 net.cpp:434] relu5_1 <- conv5_1
I0301 13:14:00.326249 10294 net.cpp:395] relu5_1 -> conv5_1 (in-place)
I0301 13:14:00.326428 10294 net.cpp:150] Setting up relu5_1
I0301 13:14:00.326439 10294 net.cpp:157] Top shape: 8 512 19 19 (1478656)
I0301 13:14:00.326443 10294 net.cpp:165] Memory required for data: 1739481216
I0301 13:14:00.326447 10294 layer_factory.hpp:77] Creating layer conv5_2
I0301 13:14:00.326460 10294 net.cpp:100] Creating Layer conv5_2
I0301 13:14:00.326468 10294 net.cpp:434] conv5_2 <- conv5_1
I0301 13:14:00.326478 10294 net.cpp:408] conv5_2 -> conv5_2
I0301 13:14:00.341320 10294 net.cpp:150] Setting up conv5_2
I0301 13:14:00.341346 10294 net.cpp:157] Top shape: 8 512 19 19 (1478656)
I0301 13:14:00.341351 10294 net.cpp:165] Memory required for data: 1745395840
I0301 13:14:00.341361 10294 layer_factory.hpp:77] Creating layer relu5_2
I0301 13:14:00.341372 10294 net.cpp:100] Creating Layer relu5_2
I0301 13:14:00.341377 10294 net.cpp:434] relu5_2 <- conv5_2
I0301 13:14:00.341384 10294 net.cpp:395] relu5_2 -> conv5_2 (in-place)
I0301 13:14:00.341575 10294 net.cpp:150] Setting up relu5_2
I0301 13:14:00.341588 10294 net.cpp:157] Top shape: 8 512 19 19 (1478656)
I0301 13:14:00.341591 10294 net.cpp:165] Memory required for data: 1751310464
I0301 13:14:00.341595 10294 layer_factory.hpp:77] Creating layer conv5_3
I0301 13:14:00.341609 10294 net.cpp:100] Creating Layer conv5_3
I0301 13:14:00.341617 10294 net.cpp:434] conv5_3 <- conv5_2
I0301 13:14:00.341629 10294 net.cpp:408] conv5_3 -> conv5_3
I0301 13:14:00.355656 10294 net.cpp:150] Setting up conv5_3
I0301 13:14:00.355684 10294 net.cpp:157] Top shape: 8 512 19 19 (1478656)
I0301 13:14:00.355687 10294 net.cpp:165] Memory required for data: 1757225088
I0301 13:14:00.355697 10294 layer_factory.hpp:77] Creating layer relu5_3
I0301 13:14:00.355713 10294 net.cpp:100] Creating Layer relu5_3
I0301 13:14:00.355720 10294 net.cpp:434] relu5_3 <- conv5_3
I0301 13:14:00.355726 10294 net.cpp:395] relu5_3 -> conv5_3 (in-place)
I0301 13:14:00.356498 10294 net.cpp:150] Setting up relu5_3
I0301 13:14:00.356511 10294 net.cpp:157] Top shape: 8 512 19 19 (1478656)
I0301 13:14:00.356516 10294 net.cpp:165] Memory required for data: 1763139712
I0301 13:14:00.356520 10294 layer_factory.hpp:77] Creating layer pool5
I0301 13:14:00.356528 10294 net.cpp:100] Creating Layer pool5
I0301 13:14:00.356532 10294 net.cpp:434] pool5 <- conv5_3
I0301 13:14:00.356539 10294 net.cpp:408] pool5 -> pool5
I0301 13:14:00.356608 10294 net.cpp:150] Setting up pool5
I0301 13:14:00.356618 10294 net.cpp:157] Top shape: 8 512 19 19 (1478656)
I0301 13:14:00.356622 10294 net.cpp:165] Memory required for data: 1769054336
I0301 13:14:00.356626 10294 layer_factory.hpp:77] Creating layer fc6
I0301 13:14:00.356642 10294 net.cpp:100] Creating Layer fc6
I0301 13:14:00.356653 10294 net.cpp:434] fc6 <- pool5
I0301 13:14:00.356664 10294 net.cpp:408] fc6 -> fc6
I0301 13:14:00.382686 10294 net.cpp:150] Setting up fc6
I0301 13:14:00.382716 10294 net.cpp:157] Top shape: 8 1024 19 19 (2957312)
I0301 13:14:00.382720 10294 net.cpp:165] Memory required for data: 1780883584
I0301 13:14:00.382730 10294 layer_factory.hpp:77] Creating layer relu6
I0301 13:14:00.382741 10294 net.cpp:100] Creating Layer relu6
I0301 13:14:00.382747 10294 net.cpp:434] relu6 <- fc6
I0301 13:14:00.382756 10294 net.cpp:395] relu6 -> fc6 (in-place)
I0301 13:14:00.383021 10294 net.cpp:150] Setting up relu6
I0301 13:14:00.383036 10294 net.cpp:157] Top shape: 8 1024 19 19 (2957312)
I0301 13:14:00.383040 10294 net.cpp:165] Memory required for data: 1792712832
I0301 13:14:00.383044 10294 layer_factory.hpp:77] Creating layer fc7
I0301 13:14:00.383062 10294 net.cpp:100] Creating Layer fc7
I0301 13:14:00.383074 10294 net.cpp:434] fc7 <- fc6
I0301 13:14:00.383080 10294 net.cpp:408] fc7 -> fc7
I0301 13:14:00.390272 10294 net.cpp:150] Setting up fc7
I0301 13:14:00.390288 10294 net.cpp:157] Top shape: 8 1024 19 19 (2957312)
I0301 13:14:00.390308 10294 net.cpp:165] Memory required for data: 1804542080
I0301 13:14:00.390316 10294 layer_factory.hpp:77] Creating layer relu7
I0301 13:14:00.390324 10294 net.cpp:100] Creating Layer relu7
I0301 13:14:00.390333 10294 net.cpp:434] relu7 <- fc7
I0301 13:14:00.390341 10294 net.cpp:395] relu7 -> fc7 (in-place)
I0301 13:14:00.390529 10294 net.cpp:150] Setting up relu7
I0301 13:14:00.390540 10294 net.cpp:157] Top shape: 8 1024 19 19 (2957312)
I0301 13:14:00.390544 10294 net.cpp:165] Memory required for data: 1816371328
I0301 13:14:00.390549 10294 layer_factory.hpp:77] Creating layer fc7_relu7_0_split
I0301 13:14:00.390558 10294 net.cpp:100] Creating Layer fc7_relu7_0_split
I0301 13:14:00.390563 10294 net.cpp:434] fc7_relu7_0_split <- fc7
I0301 13:14:00.390573 10294 net.cpp:408] fc7_relu7_0_split -> fc7_relu7_0_split_0
I0301 13:14:00.390588 10294 net.cpp:408] fc7_relu7_0_split -> fc7_relu7_0_split_1
I0301 13:14:00.390606 10294 net.cpp:408] fc7_relu7_0_split -> fc7_relu7_0_split_2
I0301 13:14:00.390619 10294 net.cpp:408] fc7_relu7_0_split -> fc7_relu7_0_split_3
I0301 13:14:00.390718 10294 net.cpp:150] Setting up fc7_relu7_0_split
I0301 13:14:00.390728 10294 net.cpp:157] Top shape: 8 1024 19 19 (2957312)
I0301 13:14:00.390733 10294 net.cpp:157] Top shape: 8 1024 19 19 (2957312)
I0301 13:14:00.390738 10294 net.cpp:157] Top shape: 8 1024 19 19 (2957312)
I0301 13:14:00.390743 10294 net.cpp:157] Top shape: 8 1024 19 19 (2957312)
I0301 13:14:00.390750 10294 net.cpp:165] Memory required for data: 1863688320
I0301 13:14:00.390755 10294 layer_factory.hpp:77] Creating layer conv6_1
I0301 13:14:00.390770 10294 net.cpp:100] Creating Layer conv6_1
I0301 13:14:00.390779 10294 net.cpp:434] conv6_1 <- fc7_relu7_0_split_0
I0301 13:14:00.390792 10294 net.cpp:408] conv6_1 -> conv6_1
I0301 13:14:00.394657 10294 net.cpp:150] Setting up conv6_1
I0301 13:14:00.394673 10294 net.cpp:157] Top shape: 8 256 19 19 (739328)
I0301 13:14:00.394677 10294 net.cpp:165] Memory required for data: 1866645632
I0301 13:14:00.394685 10294 layer_factory.hpp:77] Creating layer conv6_1_relu
I0301 13:14:00.394695 10294 net.cpp:100] Creating Layer conv6_1_relu
I0301 13:14:00.394699 10294 net.cpp:434] conv6_1_relu <- conv6_1
I0301 13:14:00.394704 10294 net.cpp:395] conv6_1_relu -> conv6_1 (in-place)
I0301 13:14:00.394894 10294 net.cpp:150] Setting up conv6_1_relu
I0301 13:14:00.394906 10294 net.cpp:157] Top shape: 8 256 19 19 (739328)
I0301 13:14:00.394909 10294 net.cpp:165] Memory required for data: 1869602944
I0301 13:14:00.394913 10294 layer_factory.hpp:77] Creating layer conv6_2
I0301 13:14:00.394927 10294 net.cpp:100] Creating Layer conv6_2
I0301 13:14:00.394934 10294 net.cpp:434] conv6_2 <- conv6_1
I0301 13:14:00.394944 10294 net.cpp:408] conv6_2 -> conv6_2
I0301 13:14:00.403806 10294 net.cpp:150] Setting up conv6_2
I0301 13:14:00.403832 10294 net.cpp:157] Top shape: 8 512 10 10 (409600)
I0301 13:14:00.403837 10294 net.cpp:165] Memory required for data: 1871241344
I0301 13:14:00.403852 10294 layer_factory.hpp:77] Creating layer conv6_2_relu
I0301 13:14:00.403862 10294 net.cpp:100] Creating Layer conv6_2_relu
I0301 13:14:00.403872 10294 net.cpp:434] conv6_2_relu <- conv6_2
I0301 13:14:00.403883 10294 net.cpp:395] conv6_2_relu -> conv6_2 (in-place)
I0301 13:14:00.404656 10294 net.cpp:150] Setting up conv6_2_relu
I0301 13:14:00.404670 10294 net.cpp:157] Top shape: 8 512 10 10 (409600)
I0301 13:14:00.404675 10294 net.cpp:165] Memory required for data: 1872879744
I0301 13:14:00.404680 10294 layer_factory.hpp:77] Creating layer conv6_2_conv6_2_relu_0_split
I0301 13:14:00.404767 10294 net.cpp:100] Creating Layer conv6_2_conv6_2_relu_0_split
I0301 13:14:00.404776 10294 net.cpp:434] conv6_2_conv6_2_relu_0_split <- conv6_2
I0301 13:14:00.404788 10294 net.cpp:408] conv6_2_conv6_2_relu_0_split -> conv6_2_conv6_2_relu_0_split_0
I0301 13:14:00.404798 10294 net.cpp:408] conv6_2_conv6_2_relu_0_split -> conv6_2_conv6_2_relu_0_split_1
I0301 13:14:00.404805 10294 net.cpp:408] conv6_2_conv6_2_relu_0_split -> conv6_2_conv6_2_relu_0_split_2
I0301 13:14:00.404826 10294 net.cpp:408] conv6_2_conv6_2_relu_0_split -> conv6_2_conv6_2_relu_0_split_3
I0301 13:14:00.404919 10294 net.cpp:150] Setting up conv6_2_conv6_2_relu_0_split
I0301 13:14:00.404929 10294 net.cpp:157] Top shape: 8 512 10 10 (409600)
I0301 13:14:00.404933 10294 net.cpp:157] Top shape: 8 512 10 10 (409600)
I0301 13:14:00.404937 10294 net.cpp:157] Top shape: 8 512 10 10 (409600)
I0301 13:14:00.404943 10294 net.cpp:157] Top shape: 8 512 10 10 (409600)
I0301 13:14:00.404947 10294 net.cpp:165] Memory required for data: 1879433344
I0301 13:14:00.404950 10294 layer_factory.hpp:77] Creating layer conv7_1
I0301 13:14:00.404963 10294 net.cpp:100] Creating Layer conv7_1
I0301 13:14:00.404968 10294 net.cpp:434] conv7_1 <- conv6_2_conv6_2_relu_0_split_0
I0301 13:14:00.404975 10294 net.cpp:408] conv7_1 -> conv7_1
I0301 13:14:00.406801 10294 net.cpp:150] Setting up conv7_1
I0301 13:14:00.406816 10294 net.cpp:157] Top shape: 8 128 10 10 (102400)
I0301 13:14:00.406821 10294 net.cpp:165] Memory required for data: 1879842944
I0301 13:14:00.406826 10294 layer_factory.hpp:77] Creating layer conv7_1_relu
I0301 13:14:00.406833 10294 net.cpp:100] Creating Layer conv7_1_relu
I0301 13:14:00.406838 10294 net.cpp:434] conv7_1_relu <- conv7_1
I0301 13:14:00.406847 10294 net.cpp:395] conv7_1_relu -> conv7_1 (in-place)
I0301 13:14:00.407017 10294 net.cpp:150] Setting up conv7_1_relu
I0301 13:14:00.407027 10294 net.cpp:157] Top shape: 8 128 10 10 (102400)
I0301 13:14:00.407030 10294 net.cpp:165] Memory required for data: 1880252544
I0301 13:14:00.407035 10294 layer_factory.hpp:77] Creating layer conv7_2
I0301 13:14:00.407047 10294 net.cpp:100] Creating Layer conv7_2
I0301 13:14:00.407053 10294 net.cpp:434] conv7_2 <- conv7_1
I0301 13:14:00.407061 10294 net.cpp:408] conv7_2 -> conv7_2
I0301 13:14:00.410534 10294 net.cpp:150] Setting up conv7_2
I0301 13:14:00.410549 10294 net.cpp:157] Top shape: 8 256 5 5 (51200)
I0301 13:14:00.410553 10294 net.cpp:165] Memory required for data: 1880457344
I0301 13:14:00.410560 10294 layer_factory.hpp:77] Creating layer conv7_2_relu
I0301 13:14:00.410567 10294 net.cpp:100] Creating Layer conv7_2_relu
I0301 13:14:00.410573 10294 net.cpp:434] conv7_2_relu <- conv7_2
I0301 13:14:00.410579 10294 net.cpp:395] conv7_2_relu -> conv7_2 (in-place)
I0301 13:14:00.410754 10294 net.cpp:150] Setting up conv7_2_relu
I0301 13:14:00.410764 10294 net.cpp:157] Top shape: 8 256 5 5 (51200)
I0301 13:14:00.410768 10294 net.cpp:165] Memory required for data: 1880662144
I0301 13:14:00.410773 10294 layer_factory.hpp:77] Creating layer conv7_2_conv7_2_relu_0_split
I0301 13:14:00.410779 10294 net.cpp:100] Creating Layer conv7_2_conv7_2_relu_0_split
I0301 13:14:00.410784 10294 net.cpp:434] conv7_2_conv7_2_relu_0_split <- conv7_2
I0301 13:14:00.410792 10294 net.cpp:408] conv7_2_conv7_2_relu_0_split -> conv7_2_conv7_2_relu_0_split_0
I0301 13:14:00.410799 10294 net.cpp:408] conv7_2_conv7_2_relu_0_split -> conv7_2_conv7_2_relu_0_split_1
I0301 13:14:00.410807 10294 net.cpp:408] conv7_2_conv7_2_relu_0_split -> conv7_2_conv7_2_relu_0_split_2
I0301 13:14:00.410816 10294 net.cpp:408] conv7_2_conv7_2_relu_0_split -> conv7_2_conv7_2_relu_0_split_3
I0301 13:14:00.410893 10294 net.cpp:150] Setting up conv7_2_conv7_2_relu_0_split
I0301 13:14:00.410902 10294 net.cpp:157] Top shape: 8 256 5 5 (51200)
I0301 13:14:00.410905 10294 net.cpp:157] Top shape: 8 256 5 5 (51200)
I0301 13:14:00.410912 10294 net.cpp:157] Top shape: 8 256 5 5 (51200)
I0301 13:14:00.410917 10294 net.cpp:157] Top shape: 8 256 5 5 (51200)
I0301 13:14:00.410920 10294 net.cpp:165] Memory required for data: 1881481344
I0301 13:14:00.410925 10294 layer_factory.hpp:77] Creating layer conv8_1
I0301 13:14:00.410936 10294 net.cpp:100] Creating Layer conv8_1
I0301 13:14:00.410943 10294 net.cpp:434] conv8_1 <- conv7_2_conv7_2_relu_0_split_0
I0301 13:14:00.410950 10294 net.cpp:408] conv8_1 -> conv8_1
I0301 13:14:00.412480 10294 net.cpp:150] Setting up conv8_1
I0301 13:14:00.412494 10294 net.cpp:157] Top shape: 8 128 5 5 (25600)
I0301 13:14:00.412499 10294 net.cpp:165] Memory required for data: 1881583744
I0301 13:14:00.412518 10294 layer_factory.hpp:77] Creating layer conv8_1_relu
I0301 13:14:00.412525 10294 net.cpp:100] Creating Layer conv8_1_relu
I0301 13:14:00.412533 10294 net.cpp:434] conv8_1_relu <- conv8_1
I0301 13:14:00.412540 10294 net.cpp:395] conv8_1_relu -> conv8_1 (in-place)
I0301 13:14:00.413314 10294 net.cpp:150] Setting up conv8_1_relu
I0301 13:14:00.413327 10294 net.cpp:157] Top shape: 8 128 5 5 (25600)
I0301 13:14:00.413332 10294 net.cpp:165] Memory required for data: 1881686144
I0301 13:14:00.413336 10294 layer_factory.hpp:77] Creating layer conv8_2
I0301 13:14:00.413347 10294 net.cpp:100] Creating Layer conv8_2
I0301 13:14:00.413352 10294 net.cpp:434] conv8_2 <- conv8_1
I0301 13:14:00.413362 10294 net.cpp:408] conv8_2 -> conv8_2
I0301 13:14:00.417407 10294 net.cpp:150] Setting up conv8_2
I0301 13:14:00.417420 10294 net.cpp:157] Top shape: 8 256 3 3 (18432)
I0301 13:14:00.417424 10294 net.cpp:165] Memory required for data: 1881759872
I0301 13:14:00.417433 10294 layer_factory.hpp:77] Creating layer conv8_2_relu
I0301 13:14:00.417438 10294 net.cpp:100] Creating Layer conv8_2_relu
I0301 13:14:00.417445 10294 net.cpp:434] conv8_2_relu <- conv8_2
I0301 13:14:00.417452 10294 net.cpp:395] conv8_2_relu -> conv8_2 (in-place)
I0301 13:14:00.417640 10294 net.cpp:150] Setting up conv8_2_relu
I0301 13:14:00.417650 10294 net.cpp:157] Top shape: 8 256 3 3 (18432)
I0301 13:14:00.417654 10294 net.cpp:165] Memory required for data: 1881833600
I0301 13:14:00.417659 10294 layer_factory.hpp:77] Creating layer conv8_2_conv8_2_relu_0_split
I0301 13:14:00.417666 10294 net.cpp:100] Creating Layer conv8_2_conv8_2_relu_0_split
I0301 13:14:00.417670 10294 net.cpp:434] conv8_2_conv8_2_relu_0_split <- conv8_2
I0301 13:14:00.417678 10294 net.cpp:408] conv8_2_conv8_2_relu_0_split -> conv8_2_conv8_2_relu_0_split_0
I0301 13:14:00.417685 10294 net.cpp:408] conv8_2_conv8_2_relu_0_split -> conv8_2_conv8_2_relu_0_split_1
I0301 13:14:00.417695 10294 net.cpp:408] conv8_2_conv8_2_relu_0_split -> conv8_2_conv8_2_relu_0_split_2
I0301 13:14:00.417703 10294 net.cpp:408] conv8_2_conv8_2_relu_0_split -> conv8_2_conv8_2_relu_0_split_3
I0301 13:14:00.417783 10294 net.cpp:150] Setting up conv8_2_conv8_2_relu_0_split
I0301 13:14:00.417791 10294 net.cpp:157] Top shape: 8 256 3 3 (18432)
I0301 13:14:00.417796 10294 net.cpp:157] Top shape: 8 256 3 3 (18432)
I0301 13:14:00.417801 10294 net.cpp:157] Top shape: 8 256 3 3 (18432)
I0301 13:14:00.417805 10294 net.cpp:157] Top shape: 8 256 3 3 (18432)
I0301 13:14:00.417810 10294 net.cpp:165] Memory required for data: 1882128512
I0301 13:14:00.417815 10294 layer_factory.hpp:77] Creating layer conv9_1
I0301 13:14:00.417826 10294 net.cpp:100] Creating Layer conv9_1
I0301 13:14:00.417832 10294 net.cpp:434] conv9_1 <- conv8_2_conv8_2_relu_0_split_0
I0301 13:14:00.417841 10294 net.cpp:408] conv9_1 -> conv9_1
I0301 13:14:00.420284 10294 net.cpp:150] Setting up conv9_1
I0301 13:14:00.420300 10294 net.cpp:157] Top shape: 8 128 3 3 (9216)
I0301 13:14:00.420303 10294 net.cpp:165] Memory required for data: 1882165376
I0301 13:14:00.420311 10294 layer_factory.hpp:77] Creating layer conv9_1_relu
I0301 13:14:00.420318 10294 net.cpp:100] Creating Layer conv9_1_relu
I0301 13:14:00.420322 10294 net.cpp:434] conv9_1_relu <- conv9_1
I0301 13:14:00.420328 10294 net.cpp:395] conv9_1_relu -> conv9_1 (in-place)
I0301 13:14:00.420502 10294 net.cpp:150] Setting up conv9_1_relu
I0301 13:14:00.420513 10294 net.cpp:157] Top shape: 8 128 3 3 (9216)
I0301 13:14:00.420517 10294 net.cpp:165] Memory required for data: 1882202240
I0301 13:14:00.420521 10294 layer_factory.hpp:77] Creating layer conv9_2
I0301 13:14:00.420531 10294 net.cpp:100] Creating Layer conv9_2
I0301 13:14:00.420536 10294 net.cpp:434] conv9_2 <- conv9_1
I0301 13:14:00.420545 10294 net.cpp:408] conv9_2 -> conv9_2
I0301 13:14:00.424609 10294 net.cpp:150] Setting up conv9_2
I0301 13:14:00.424628 10294 net.cpp:157] Top shape: 8 256 1 1 (2048)
I0301 13:14:00.424633 10294 net.cpp:165] Memory required for data: 1882210432
I0301 13:14:00.424639 10294 layer_factory.hpp:77] Creating layer conv9_2_relu
I0301 13:14:00.424662 10294 net.cpp:100] Creating Layer conv9_2_relu
I0301 13:14:00.424670 10294 net.cpp:434] conv9_2_relu <- conv9_2
I0301 13:14:00.424677 10294 net.cpp:395] conv9_2_relu -> conv9_2 (in-place)
I0301 13:14:00.425469 10294 net.cpp:150] Setting up conv9_2_relu
I0301 13:14:00.425483 10294 net.cpp:157] Top shape: 8 256 1 1 (2048)
I0301 13:14:00.425487 10294 net.cpp:165] Memory required for data: 1882218624
I0301 13:14:00.425493 10294 layer_factory.hpp:77] Creating layer conv9_2_conv9_2_relu_0_split
I0301 13:14:00.425499 10294 net.cpp:100] Creating Layer conv9_2_conv9_2_relu_0_split
I0301 13:14:00.425503 10294 net.cpp:434] conv9_2_conv9_2_relu_0_split <- conv9_2
I0301 13:14:00.425511 10294 net.cpp:408] conv9_2_conv9_2_relu_0_split -> conv9_2_conv9_2_relu_0_split_0
I0301 13:14:00.425521 10294 net.cpp:408] conv9_2_conv9_2_relu_0_split -> conv9_2_conv9_2_relu_0_split_1
I0301 13:14:00.425527 10294 net.cpp:408] conv9_2_conv9_2_relu_0_split -> conv9_2_conv9_2_relu_0_split_2
I0301 13:14:00.425595 10294 net.cpp:150] Setting up conv9_2_conv9_2_relu_0_split
I0301 13:14:00.425603 10294 net.cpp:157] Top shape: 8 256 1 1 (2048)
I0301 13:14:00.425609 10294 net.cpp:157] Top shape: 8 256 1 1 (2048)
I0301 13:14:00.425613 10294 net.cpp:157] Top shape: 8 256 1 1 (2048)
I0301 13:14:00.425616 10294 net.cpp:165] Memory required for data: 1882243200
I0301 13:14:00.425621 10294 layer_factory.hpp:77] Creating layer conv4_3_norm
I0301 13:14:00.425631 10294 net.cpp:100] Creating Layer conv4_3_norm
I0301 13:14:00.425637 10294 net.cpp:434] conv4_3_norm <- conv4_3_relu4_3_0_split_1
I0301 13:14:00.425642 10294 net.cpp:408] conv4_3_norm -> conv4_3_norm
I0301 13:14:00.425822 10294 net.cpp:150] Setting up conv4_3_norm
I0301 13:14:00.425832 10294 net.cpp:157] Top shape: 8 512 38 38 (5914624)
I0301 13:14:00.425837 10294 net.cpp:165] Memory required for data: 1905901696
I0301 13:14:00.425843 10294 layer_factory.hpp:77] Creating layer conv4_3_norm_conv4_3_norm_0_split
I0301 13:14:00.425848 10294 net.cpp:100] Creating Layer conv4_3_norm_conv4_3_norm_0_split
I0301 13:14:00.425854 10294 net.cpp:434] conv4_3_norm_conv4_3_norm_0_split <- conv4_3_norm
I0301 13:14:00.425860 10294 net.cpp:408] conv4_3_norm_conv4_3_norm_0_split -> conv4_3_norm_conv4_3_norm_0_split_0
I0301 13:14:00.425868 10294 net.cpp:408] conv4_3_norm_conv4_3_norm_0_split -> conv4_3_norm_conv4_3_norm_0_split_1
I0301 13:14:00.425874 10294 net.cpp:408] conv4_3_norm_conv4_3_norm_0_split -> conv4_3_norm_conv4_3_norm_0_split_2
I0301 13:14:00.425930 10294 net.cpp:150] Setting up conv4_3_norm_conv4_3_norm_0_split
I0301 13:14:00.425938 10294 net.cpp:157] Top shape: 8 512 38 38 (5914624)
I0301 13:14:00.425943 10294 net.cpp:157] Top shape: 8 512 38 38 (5914624)
I0301 13:14:00.425947 10294 net.cpp:157] Top shape: 8 512 38 38 (5914624)
I0301 13:14:00.425952 10294 net.cpp:165] Memory required for data: 1976877184
I0301 13:14:00.425956 10294 layer_factory.hpp:77] Creating layer conv4_3_norm_mbox_loc
I0301 13:14:00.425968 10294 net.cpp:100] Creating Layer conv4_3_norm_mbox_loc
I0301 13:14:00.425974 10294 net.cpp:434] conv4_3_norm_mbox_loc <- conv4_3_norm_conv4_3_norm_0_split_0
I0301 13:14:00.425983 10294 net.cpp:408] conv4_3_norm_mbox_loc -> conv4_3_norm_mbox_loc
I0301 13:14:00.428284 10294 net.cpp:150] Setting up conv4_3_norm_mbox_loc
I0301 13:14:00.428298 10294 net.cpp:157] Top shape: 8 16 38 38 (184832)
I0301 13:14:00.428303 10294 net.cpp:165] Memory required for data: 1977616512
I0301 13:14:00.428309 10294 layer_factory.hpp:77] Creating layer conv4_3_norm_mbox_loc_perm
I0301 13:14:00.428318 10294 net.cpp:100] Creating Layer conv4_3_norm_mbox_loc_perm
I0301 13:14:00.428324 10294 net.cpp:434] conv4_3_norm_mbox_loc_perm <- conv4_3_norm_mbox_loc
I0301 13:14:00.428331 10294 net.cpp:408] conv4_3_norm_mbox_loc_perm -> conv4_3_norm_mbox_loc_perm
I0301 13:14:00.428460 10294 net.cpp:150] Setting up conv4_3_norm_mbox_loc_perm
I0301 13:14:00.428468 10294 net.cpp:157] Top shape: 8 38 38 16 (184832)
I0301 13:14:00.428472 10294 net.cpp:165] Memory required for data: 1978355840
I0301 13:14:00.428486 10294 layer_factory.hpp:77] Creating layer conv4_3_norm_mbox_loc_flat
I0301 13:14:00.428494 10294 net.cpp:100] Creating Layer conv4_3_norm_mbox_loc_flat
I0301 13:14:00.428499 10294 net.cpp:434] conv4_3_norm_mbox_loc_flat <- conv4_3_norm_mbox_loc_perm
I0301 13:14:00.428508 10294 net.cpp:408] conv4_3_norm_mbox_loc_flat -> conv4_3_norm_mbox_loc_flat
I0301 13:14:00.428553 10294 net.cpp:150] Setting up conv4_3_norm_mbox_loc_flat
I0301 13:14:00.428563 10294 net.cpp:157] Top shape: 8 23104 (184832)
I0301 13:14:00.428566 10294 net.cpp:165] Memory required for data: 1979095168
I0301 13:14:00.428570 10294 layer_factory.hpp:77] Creating layer conv4_3_norm_mbox_conf
I0301 13:14:00.428587 10294 net.cpp:100] Creating Layer conv4_3_norm_mbox_conf
I0301 13:14:00.428594 10294 net.cpp:434] conv4_3_norm_mbox_conf <- conv4_3_norm_conv4_3_norm_0_split_1
I0301 13:14:00.428601 10294 net.cpp:408] conv4_3_norm_mbox_conf -> conv4_3_norm_mbox_conf
I0301 13:14:00.431514 10294 net.cpp:150] Setting up conv4_3_norm_mbox_conf
I0301 13:14:00.431527 10294 net.cpp:157] Top shape: 8 44 38 38 (508288)
I0301 13:14:00.431532 10294 net.cpp:165] Memory required for data: 1981128320
I0301 13:14:00.431540 10294 layer_factory.hpp:77] Creating layer conv4_3_norm_mbox_conf_perm
I0301 13:14:00.431550 10294 net.cpp:100] Creating Layer conv4_3_norm_mbox_conf_perm
I0301 13:14:00.431555 10294 net.cpp:434] conv4_3_norm_mbox_conf_perm <- conv4_3_norm_mbox_conf
I0301 13:14:00.431562 10294 net.cpp:408] conv4_3_norm_mbox_conf_perm -> conv4_3_norm_mbox_conf_perm
I0301 13:14:00.431689 10294 net.cpp:150] Setting up conv4_3_norm_mbox_conf_perm
I0301 13:14:00.431699 10294 net.cpp:157] Top shape: 8 38 38 44 (508288)
I0301 13:14:00.431704 10294 net.cpp:165] Memory required for data: 1983161472
I0301 13:14:00.431708 10294 layer_factory.hpp:77] Creating layer conv4_3_norm_mbox_conf_flat
I0301 13:14:00.431717 10294 net.cpp:100] Creating Layer conv4_3_norm_mbox_conf_flat
I0301 13:14:00.431721 10294 net.cpp:434] conv4_3_norm_mbox_conf_flat <- conv4_3_norm_mbox_conf_perm
I0301 13:14:00.431728 10294 net.cpp:408] conv4_3_norm_mbox_conf_flat -> conv4_3_norm_mbox_conf_flat
I0301 13:14:00.431761 10294 net.cpp:150] Setting up conv4_3_norm_mbox_conf_flat
I0301 13:14:00.431768 10294 net.cpp:157] Top shape: 8 63536 (508288)
I0301 13:14:00.431772 10294 net.cpp:165] Memory required for data: 1985194624
I0301 13:14:00.431777 10294 layer_factory.hpp:77] Creating layer conv4_3_norm_mbox_priorbox
I0301 13:14:00.431785 10294 net.cpp:100] Creating Layer conv4_3_norm_mbox_priorbox
I0301 13:14:00.431793 10294 net.cpp:434] conv4_3_norm_mbox_priorbox <- conv4_3_norm_conv4_3_norm_0_split_2
I0301 13:14:00.431799 10294 net.cpp:434] conv4_3_norm_mbox_priorbox <- data_data_0_split_1
I0301 13:14:00.431804 10294 net.cpp:408] conv4_3_norm_mbox_priorbox -> conv4_3_norm_mbox_priorbox
I0301 13:14:00.431840 10294 net.cpp:150] Setting up conv4_3_norm_mbox_priorbox
I0301 13:14:00.431849 10294 net.cpp:157] Top shape: 1 2 23104 (46208)
I0301 13:14:00.431854 10294 net.cpp:165] Memory required for data: 1985379456
I0301 13:14:00.431857 10294 layer_factory.hpp:77] Creating layer fc7_mbox_loc
I0301 13:14:00.431869 10294 net.cpp:100] Creating Layer fc7_mbox_loc
I0301 13:14:00.431874 10294 net.cpp:434] fc7_mbox_loc <- fc7_relu7_0_split_1
I0301 13:14:00.431885 10294 net.cpp:408] fc7_mbox_loc -> fc7_mbox_loc
I0301 13:14:00.434864 10294 net.cpp:150] Setting up fc7_mbox_loc
I0301 13:14:00.434881 10294 net.cpp:157] Top shape: 8 24 19 19 (69312)
I0301 13:14:00.434885 10294 net.cpp:165] Memory required for data: 1985656704
I0301 13:14:00.434892 10294 layer_factory.hpp:77] Creating layer fc7_mbox_loc_perm
I0301 13:14:00.434900 10294 net.cpp:100] Creating Layer fc7_mbox_loc_perm
I0301 13:14:00.434906 10294 net.cpp:434] fc7_mbox_loc_perm <- fc7_mbox_loc
I0301 13:14:00.434913 10294 net.cpp:408] fc7_mbox_loc_perm -> fc7_mbox_loc_perm
I0301 13:14:00.435036 10294 net.cpp:150] Setting up fc7_mbox_loc_perm
I0301 13:14:00.435045 10294 net.cpp:157] Top shape: 8 19 19 24 (69312)
I0301 13:14:00.435050 10294 net.cpp:165] Memory required for data: 1985933952
I0301 13:14:00.435065 10294 layer_factory.hpp:77] Creating layer fc7_mbox_loc_flat
I0301 13:14:00.435071 10294 net.cpp:100] Creating Layer fc7_mbox_loc_flat
I0301 13:14:00.435075 10294 net.cpp:434] fc7_mbox_loc_flat <- fc7_mbox_loc_perm
I0301 13:14:00.435083 10294 net.cpp:408] fc7_mbox_loc_flat -> fc7_mbox_loc_flat
I0301 13:14:00.435117 10294 net.cpp:150] Setting up fc7_mbox_loc_flat
I0301 13:14:00.435123 10294 net.cpp:157] Top shape: 8 8664 (69312)
I0301 13:14:00.435127 10294 net.cpp:165] Memory required for data: 1986211200
I0301 13:14:00.435132 10294 layer_factory.hpp:77] Creating layer fc7_mbox_conf
I0301 13:14:00.435143 10294 net.cpp:100] Creating Layer fc7_mbox_conf
I0301 13:14:00.435148 10294 net.cpp:434] fc7_mbox_conf <- fc7_relu7_0_split_2
I0301 13:14:00.435156 10294 net.cpp:408] fc7_mbox_conf -> fc7_mbox_conf
I0301 13:14:00.440791 10294 net.cpp:150] Setting up fc7_mbox_conf
I0301 13:14:00.440810 10294 net.cpp:157] Top shape: 8 66 19 19 (190608)
I0301 13:14:00.440814 10294 net.cpp:165] Memory required for data: 1986973632
I0301 13:14:00.440822 10294 layer_factory.hpp:77] Creating layer fc7_mbox_conf_perm
I0301 13:14:00.440834 10294 net.cpp:100] Creating Layer fc7_mbox_conf_perm
I0301 13:14:00.440840 10294 net.cpp:434] fc7_mbox_conf_perm <- fc7_mbox_conf
I0301 13:14:00.440846 10294 net.cpp:408] fc7_mbox_conf_perm -> fc7_mbox_conf_perm
I0301 13:14:00.440974 10294 net.cpp:150] Setting up fc7_mbox_conf_perm
I0301 13:14:00.440984 10294 net.cpp:157] Top shape: 8 19 19 66 (190608)
I0301 13:14:00.440987 10294 net.cpp:165] Memory required for data: 1987736064
I0301 13:14:00.440991 10294 layer_factory.hpp:77] Creating layer fc7_mbox_conf_flat
I0301 13:14:00.440999 10294 net.cpp:100] Creating Layer fc7_mbox_conf_flat
I0301 13:14:00.441004 10294 net.cpp:434] fc7_mbox_conf_flat <- fc7_mbox_conf_perm
I0301 13:14:00.441011 10294 net.cpp:408] fc7_mbox_conf_flat -> fc7_mbox_conf_flat
I0301 13:14:00.441042 10294 net.cpp:150] Setting up fc7_mbox_conf_flat
I0301 13:14:00.441051 10294 net.cpp:157] Top shape: 8 23826 (190608)
I0301 13:14:00.441056 10294 net.cpp:165] Memory required for data: 1988498496
I0301 13:14:00.441059 10294 layer_factory.hpp:77] Creating layer fc7_mbox_priorbox
I0301 13:14:00.441067 10294 net.cpp:100] Creating Layer fc7_mbox_priorbox
I0301 13:14:00.441073 10294 net.cpp:434] fc7_mbox_priorbox <- fc7_relu7_0_split_3
I0301 13:14:00.441082 10294 net.cpp:434] fc7_mbox_priorbox <- data_data_0_split_2
I0301 13:14:00.441087 10294 net.cpp:408] fc7_mbox_priorbox -> fc7_mbox_priorbox
I0301 13:14:00.441123 10294 net.cpp:150] Setting up fc7_mbox_priorbox
I0301 13:14:00.441130 10294 net.cpp:157] Top shape: 1 2 8664 (17328)
I0301 13:14:00.441135 10294 net.cpp:165] Memory required for data: 1988567808
I0301 13:14:00.441138 10294 layer_factory.hpp:77] Creating layer conv6_2_mbox_loc
I0301 13:14:00.441150 10294 net.cpp:100] Creating Layer conv6_2_mbox_loc
I0301 13:14:00.441156 10294 net.cpp:434] conv6_2_mbox_loc <- conv6_2_conv6_2_relu_0_split_1
I0301 13:14:00.441165 10294 net.cpp:408] conv6_2_mbox_loc -> conv6_2_mbox_loc
I0301 13:14:00.443684 10294 net.cpp:150] Setting up conv6_2_mbox_loc
I0301 13:14:00.443698 10294 net.cpp:157] Top shape: 8 24 10 10 (19200)
I0301 13:14:00.443702 10294 net.cpp:165] Memory required for data: 1988644608
I0301 13:14:00.443709 10294 layer_factory.hpp:77] Creating layer conv6_2_mbox_loc_perm
I0301 13:14:00.443717 10294 net.cpp:100] Creating Layer conv6_2_mbox_loc_perm
I0301 13:14:00.443723 10294 net.cpp:434] conv6_2_mbox_loc_perm <- conv6_2_mbox_loc
I0301 13:14:00.443728 10294 net.cpp:408] conv6_2_mbox_loc_perm -> conv6_2_mbox_loc_perm
I0301 13:14:00.443861 10294 net.cpp:150] Setting up conv6_2_mbox_loc_perm
I0301 13:14:00.443869 10294 net.cpp:157] Top shape: 8 10 10 24 (19200)
I0301 13:14:00.443872 10294 net.cpp:165] Memory required for data: 1988721408
I0301 13:14:00.443876 10294 layer_factory.hpp:77] Creating layer conv6_2_mbox_loc_flat
I0301 13:14:00.443886 10294 net.cpp:100] Creating Layer conv6_2_mbox_loc_flat
I0301 13:14:00.443889 10294 net.cpp:434] conv6_2_mbox_loc_flat <- conv6_2_mbox_loc_perm
I0301 13:14:00.443907 10294 net.cpp:408] conv6_2_mbox_loc_flat -> conv6_2_mbox_loc_flat
I0301 13:14:00.443943 10294 net.cpp:150] Setting up conv6_2_mbox_loc_flat
I0301 13:14:00.443951 10294 net.cpp:157] Top shape: 8 2400 (19200)
I0301 13:14:00.443954 10294 net.cpp:165] Memory required for data: 1988798208
I0301 13:14:00.443958 10294 layer_factory.hpp:77] Creating layer conv6_2_mbox_conf
I0301 13:14:00.443969 10294 net.cpp:100] Creating Layer conv6_2_mbox_conf
I0301 13:14:00.443976 10294 net.cpp:434] conv6_2_mbox_conf <- conv6_2_conv6_2_relu_0_split_2
I0301 13:14:00.443984 10294 net.cpp:408] conv6_2_mbox_conf -> conv6_2_mbox_conf
I0301 13:14:00.448118 10294 net.cpp:150] Setting up conv6_2_mbox_conf
I0301 13:14:00.448137 10294 net.cpp:157] Top shape: 8 66 10 10 (52800)
I0301 13:14:00.448141 10294 net.cpp:165] Memory required for data: 1989009408
I0301 13:14:00.448148 10294 layer_factory.hpp:77] Creating layer conv6_2_mbox_conf_perm
I0301 13:14:00.448156 10294 net.cpp:100] Creating Layer conv6_2_mbox_conf_perm
I0301 13:14:00.448161 10294 net.cpp:434] conv6_2_mbox_conf_perm <- conv6_2_mbox_conf
I0301 13:14:00.448169 10294 net.cpp:408] conv6_2_mbox_conf_perm -> conv6_2_mbox_conf_perm
I0301 13:14:00.448298 10294 net.cpp:150] Setting up conv6_2_mbox_conf_perm
I0301 13:14:00.448308 10294 net.cpp:157] Top shape: 8 10 10 66 (52800)
I0301 13:14:00.448312 10294 net.cpp:165] Memory required for data: 1989220608
I0301 13:14:00.448318 10294 layer_factory.hpp:77] Creating layer conv6_2_mbox_conf_flat
I0301 13:14:00.448325 10294 net.cpp:100] Creating Layer conv6_2_mbox_conf_flat
I0301 13:14:00.448330 10294 net.cpp:434] conv6_2_mbox_conf_flat <- conv6_2_mbox_conf_perm
I0301 13:14:00.448338 10294 net.cpp:408] conv6_2_mbox_conf_flat -> conv6_2_mbox_conf_flat
I0301 13:14:00.448367 10294 net.cpp:150] Setting up conv6_2_mbox_conf_flat
I0301 13:14:00.448376 10294 net.cpp:157] Top shape: 8 6600 (52800)
I0301 13:14:00.448379 10294 net.cpp:165] Memory required for data: 1989431808
I0301 13:14:00.448384 10294 layer_factory.hpp:77] Creating layer conv6_2_mbox_priorbox
I0301 13:14:00.448391 10294 net.cpp:100] Creating Layer conv6_2_mbox_priorbox
I0301 13:14:00.448396 10294 net.cpp:434] conv6_2_mbox_priorbox <- conv6_2_conv6_2_relu_0_split_3
I0301 13:14:00.448402 10294 net.cpp:434] conv6_2_mbox_priorbox <- data_data_0_split_3
I0301 13:14:00.448410 10294 net.cpp:408] conv6_2_mbox_priorbox -> conv6_2_mbox_priorbox
I0301 13:14:00.448446 10294 net.cpp:150] Setting up conv6_2_mbox_priorbox
I0301 13:14:00.448454 10294 net.cpp:157] Top shape: 1 2 2400 (4800)
I0301 13:14:00.448457 10294 net.cpp:165] Memory required for data: 1989451008
I0301 13:14:00.448462 10294 layer_factory.hpp:77] Creating layer conv7_2_mbox_loc
I0301 13:14:00.448472 10294 net.cpp:100] Creating Layer conv7_2_mbox_loc
I0301 13:14:00.448477 10294 net.cpp:434] conv7_2_mbox_loc <- conv7_2_conv7_2_relu_0_split_1
I0301 13:14:00.448483 10294 net.cpp:408] conv7_2_mbox_loc -> conv7_2_mbox_loc
I0301 13:14:00.450793 10294 net.cpp:150] Setting up conv7_2_mbox_loc
I0301 13:14:00.450806 10294 net.cpp:157] Top shape: 8 24 5 5 (4800)
I0301 13:14:00.450810 10294 net.cpp:165] Memory required for data: 1989470208
I0301 13:14:00.450817 10294 layer_factory.hpp:77] Creating layer conv7_2_mbox_loc_perm
I0301 13:14:00.450825 10294 net.cpp:100] Creating Layer conv7_2_mbox_loc_perm
I0301 13:14:00.450831 10294 net.cpp:434] conv7_2_mbox_loc_perm <- conv7_2_mbox_loc
I0301 13:14:00.450839 10294 net.cpp:408] conv7_2_mbox_loc_perm -> conv7_2_mbox_loc_perm
I0301 13:14:00.450969 10294 net.cpp:150] Setting up conv7_2_mbox_loc_perm
I0301 13:14:00.450978 10294 net.cpp:157] Top shape: 8 5 5 24 (4800)
I0301 13:14:00.450983 10294 net.cpp:165] Memory required for data: 1989489408
I0301 13:14:00.450985 10294 layer_factory.hpp:77] Creating layer conv7_2_mbox_loc_flat
I0301 13:14:00.450992 10294 net.cpp:100] Creating Layer conv7_2_mbox_loc_flat
I0301 13:14:00.450997 10294 net.cpp:434] conv7_2_mbox_loc_flat <- conv7_2_mbox_loc_perm
I0301 13:14:00.451004 10294 net.cpp:408] conv7_2_mbox_loc_flat -> conv7_2_mbox_loc_flat
I0301 13:14:00.451050 10294 net.cpp:150] Setting up conv7_2_mbox_loc_flat
I0301 13:14:00.451058 10294 net.cpp:157] Top shape: 8 600 (4800)
I0301 13:14:00.451061 10294 net.cpp:165] Memory required for data: 1989508608
I0301 13:14:00.451066 10294 layer_factory.hpp:77] Creating layer conv7_2_mbox_conf
I0301 13:14:00.451078 10294 net.cpp:100] Creating Layer conv7_2_mbox_conf
I0301 13:14:00.451086 10294 net.cpp:434] conv7_2_mbox_conf <- conv7_2_conv7_2_relu_0_split_2
I0301 13:14:00.451097 10294 net.cpp:408] conv7_2_mbox_conf -> conv7_2_mbox_conf
I0301 13:14:00.453774 10294 net.cpp:150] Setting up conv7_2_mbox_conf
I0301 13:14:00.453788 10294 net.cpp:157] Top shape: 8 66 5 5 (13200)
I0301 13:14:00.453793 10294 net.cpp:165] Memory required for data: 1989561408
I0301 13:14:00.453799 10294 layer_factory.hpp:77] Creating layer conv7_2_mbox_conf_perm
I0301 13:14:00.453810 10294 net.cpp:100] Creating Layer conv7_2_mbox_conf_perm
I0301 13:14:00.453817 10294 net.cpp:434] conv7_2_mbox_conf_perm <- conv7_2_mbox_conf
I0301 13:14:00.453824 10294 net.cpp:408] conv7_2_mbox_conf_perm -> conv7_2_mbox_conf_perm
I0301 13:14:00.453953 10294 net.cpp:150] Setting up conv7_2_mbox_conf_perm
I0301 13:14:00.453961 10294 net.cpp:157] Top shape: 8 5 5 66 (13200)
I0301 13:14:00.453965 10294 net.cpp:165] Memory required for data: 1989614208
I0301 13:14:00.453969 10294 layer_factory.hpp:77] Creating layer conv7_2_mbox_conf_flat
I0301 13:14:00.453977 10294 net.cpp:100] Creating Layer conv7_2_mbox_conf_flat
I0301 13:14:00.453982 10294 net.cpp:434] conv7_2_mbox_conf_flat <- conv7_2_mbox_conf_perm
I0301 13:14:00.453989 10294 net.cpp:408] conv7_2_mbox_conf_flat -> conv7_2_mbox_conf_flat
I0301 13:14:00.454020 10294 net.cpp:150] Setting up conv7_2_mbox_conf_flat
I0301 13:14:00.454027 10294 net.cpp:157] Top shape: 8 1650 (13200)
I0301 13:14:00.454032 10294 net.cpp:165] Memory required for data: 1989667008
I0301 13:14:00.454035 10294 layer_factory.hpp:77] Creating layer conv7_2_mbox_priorbox
I0301 13:14:00.454046 10294 net.cpp:100] Creating Layer conv7_2_mbox_priorbox
I0301 13:14:00.454049 10294 net.cpp:434] conv7_2_mbox_priorbox <- conv7_2_conv7_2_relu_0_split_3
I0301 13:14:00.454056 10294 net.cpp:434] conv7_2_mbox_priorbox <- data_data_0_split_4
I0301 13:14:00.454061 10294 net.cpp:408] conv7_2_mbox_priorbox -> conv7_2_mbox_priorbox
I0301 13:14:00.454097 10294 net.cpp:150] Setting up conv7_2_mbox_priorbox
I0301 13:14:00.454104 10294 net.cpp:157] Top shape: 1 2 600 (1200)
I0301 13:14:00.454108 10294 net.cpp:165] Memory required for data: 1989671808
I0301 13:14:00.454113 10294 layer_factory.hpp:77] Creating layer conv8_2_mbox_loc
I0301 13:14:00.454123 10294 net.cpp:100] Creating Layer conv8_2_mbox_loc
I0301 13:14:00.454130 10294 net.cpp:434] conv8_2_mbox_loc <- conv8_2_conv8_2_relu_0_split_1
I0301 13:14:00.454138 10294 net.cpp:408] conv8_2_mbox_loc -> conv8_2_mbox_loc
I0301 13:14:00.455766 10294 net.cpp:150] Setting up conv8_2_mbox_loc
I0301 13:14:00.455780 10294 net.cpp:157] Top shape: 8 16 3 3 (1152)
I0301 13:14:00.455783 10294 net.cpp:165] Memory required for data: 1989676416
I0301 13:14:00.455803 10294 layer_factory.hpp:77] Creating layer conv8_2_mbox_loc_perm
I0301 13:14:00.455813 10294 net.cpp:100] Creating Layer conv8_2_mbox_loc_perm
I0301 13:14:00.455818 10294 net.cpp:434] conv8_2_mbox_loc_perm <- conv8_2_mbox_loc
I0301 13:14:00.455826 10294 net.cpp:408] conv8_2_mbox_loc_perm -> conv8_2_mbox_loc_perm
I0301 13:14:00.455955 10294 net.cpp:150] Setting up conv8_2_mbox_loc_perm
I0301 13:14:00.455962 10294 net.cpp:157] Top shape: 8 3 3 16 (1152)
I0301 13:14:00.455965 10294 net.cpp:165] Memory required for data: 1989681024
I0301 13:14:00.455970 10294 layer_factory.hpp:77] Creating layer conv8_2_mbox_loc_flat
I0301 13:14:00.455976 10294 net.cpp:100] Creating Layer conv8_2_mbox_loc_flat
I0301 13:14:00.455982 10294 net.cpp:434] conv8_2_mbox_loc_flat <- conv8_2_mbox_loc_perm
I0301 13:14:00.455989 10294 net.cpp:408] conv8_2_mbox_loc_flat -> conv8_2_mbox_loc_flat
I0301 13:14:00.456019 10294 net.cpp:150] Setting up conv8_2_mbox_loc_flat
I0301 13:14:00.456037 10294 net.cpp:157] Top shape: 8 144 (1152)
I0301 13:14:00.456040 10294 net.cpp:165] Memory required for data: 1989685632
I0301 13:14:00.456044 10294 layer_factory.hpp:77] Creating layer conv8_2_mbox_conf
I0301 13:14:00.456055 10294 net.cpp:100] Creating Layer conv8_2_mbox_conf
I0301 13:14:00.456063 10294 net.cpp:434] conv8_2_mbox_conf <- conv8_2_conv8_2_relu_0_split_2
I0301 13:14:00.456071 10294 net.cpp:408] conv8_2_mbox_conf -> conv8_2_mbox_conf
I0301 13:14:00.458570 10294 net.cpp:150] Setting up conv8_2_mbox_conf
I0301 13:14:00.458583 10294 net.cpp:157] Top shape: 8 44 3 3 (3168)
I0301 13:14:00.458587 10294 net.cpp:165] Memory required for data: 1989698304
I0301 13:14:00.458595 10294 layer_factory.hpp:77] Creating layer conv8_2_mbox_conf_perm
I0301 13:14:00.458603 10294 net.cpp:100] Creating Layer conv8_2_mbox_conf_perm
I0301 13:14:00.458609 10294 net.cpp:434] conv8_2_mbox_conf_perm <- conv8_2_mbox_conf
I0301 13:14:00.458616 10294 net.cpp:408] conv8_2_mbox_conf_perm -> conv8_2_mbox_conf_perm
I0301 13:14:00.458745 10294 net.cpp:150] Setting up conv8_2_mbox_conf_perm
I0301 13:14:00.458752 10294 net.cpp:157] Top shape: 8 3 3 44 (3168)
I0301 13:14:00.458756 10294 net.cpp:165] Memory required for data: 1989710976
I0301 13:14:00.458760 10294 layer_factory.hpp:77] Creating layer conv8_2_mbox_conf_flat
I0301 13:14:00.458767 10294 net.cpp:100] Creating Layer conv8_2_mbox_conf_flat
I0301 13:14:00.458771 10294 net.cpp:434] conv8_2_mbox_conf_flat <- conv8_2_mbox_conf_perm
I0301 13:14:00.458778 10294 net.cpp:408] conv8_2_mbox_conf_flat -> conv8_2_mbox_conf_flat
I0301 13:14:00.458813 10294 net.cpp:150] Setting up conv8_2_mbox_conf_flat
I0301 13:14:00.458822 10294 net.cpp:157] Top shape: 8 396 (3168)
I0301 13:14:00.458825 10294 net.cpp:165] Memory required for data: 1989723648
I0301 13:14:00.458829 10294 layer_factory.hpp:77] Creating layer conv8_2_mbox_priorbox
I0301 13:14:00.458837 10294 net.cpp:100] Creating Layer conv8_2_mbox_priorbox
I0301 13:14:00.458842 10294 net.cpp:434] conv8_2_mbox_priorbox <- conv8_2_conv8_2_relu_0_split_3
I0301 13:14:00.458848 10294 net.cpp:434] conv8_2_mbox_priorbox <- data_data_0_split_5
I0301 13:14:00.458856 10294 net.cpp:408] conv8_2_mbox_priorbox -> conv8_2_mbox_priorbox
I0301 13:14:00.458892 10294 net.cpp:150] Setting up conv8_2_mbox_priorbox
I0301 13:14:00.458899 10294 net.cpp:157] Top shape: 1 2 144 (288)
I0301 13:14:00.458904 10294 net.cpp:165] Memory required for data: 1989724800
I0301 13:14:00.458906 10294 layer_factory.hpp:77] Creating layer conv9_2_mbox_loc
I0301 13:14:00.458920 10294 net.cpp:100] Creating Layer conv9_2_mbox_loc
I0301 13:14:00.458927 10294 net.cpp:434] conv9_2_mbox_loc <- conv9_2_conv9_2_relu_0_split_0
I0301 13:14:00.458935 10294 net.cpp:408] conv9_2_mbox_loc -> conv9_2_mbox_loc
I0301 13:14:00.461144 10294 net.cpp:150] Setting up conv9_2_mbox_loc
I0301 13:14:00.461159 10294 net.cpp:157] Top shape: 8 16 1 1 (128)
I0301 13:14:00.461163 10294 net.cpp:165] Memory required for data: 1989725312
I0301 13:14:00.461169 10294 layer_factory.hpp:77] Creating layer conv9_2_mbox_loc_perm
I0301 13:14:00.461177 10294 net.cpp:100] Creating Layer conv9_2_mbox_loc_perm
I0301 13:14:00.461184 10294 net.cpp:434] conv9_2_mbox_loc_perm <- conv9_2_mbox_loc
I0301 13:14:00.461191 10294 net.cpp:408] conv9_2_mbox_loc_perm -> conv9_2_mbox_loc_perm
I0301 13:14:00.461316 10294 net.cpp:150] Setting up conv9_2_mbox_loc_perm
I0301 13:14:00.461324 10294 net.cpp:157] Top shape: 8 1 1 16 (128)
I0301 13:14:00.461328 10294 net.cpp:165] Memory required for data: 1989725824
I0301 13:14:00.461333 10294 layer_factory.hpp:77] Creating layer conv9_2_mbox_loc_flat
I0301 13:14:00.461338 10294 net.cpp:100] Creating Layer conv9_2_mbox_loc_flat
I0301 13:14:00.461344 10294 net.cpp:434] conv9_2_mbox_loc_flat <- conv9_2_mbox_loc_perm
I0301 13:14:00.461351 10294 net.cpp:408] conv9_2_mbox_loc_flat -> conv9_2_mbox_loc_flat
I0301 13:14:00.461383 10294 net.cpp:150] Setting up conv9_2_mbox_loc_flat
I0301 13:14:00.461390 10294 net.cpp:157] Top shape: 8 16 (128)
I0301 13:14:00.461395 10294 net.cpp:165] Memory required for data: 1989726336
I0301 13:14:00.461408 10294 layer_factory.hpp:77] Creating layer conv9_2_mbox_conf
I0301 13:14:00.461419 10294 net.cpp:100] Creating Layer conv9_2_mbox_conf
I0301 13:14:00.461426 10294 net.cpp:434] conv9_2_mbox_conf <- conv9_2_conv9_2_relu_0_split_1
I0301 13:14:00.461433 10294 net.cpp:408] conv9_2_mbox_conf -> conv9_2_mbox_conf
I0301 13:14:00.463910 10294 net.cpp:150] Setting up conv9_2_mbox_conf
I0301 13:14:00.463923 10294 net.cpp:157] Top shape: 8 44 1 1 (352)
I0301 13:14:00.463927 10294 net.cpp:165] Memory required for data: 1989727744
I0301 13:14:00.463934 10294 layer_factory.hpp:77] Creating layer conv9_2_mbox_conf_perm
I0301 13:14:00.463945 10294 net.cpp:100] Creating Layer conv9_2_mbox_conf_perm
I0301 13:14:00.463951 10294 net.cpp:434] conv9_2_mbox_conf_perm <- conv9_2_mbox_conf
I0301 13:14:00.463958 10294 net.cpp:408] conv9_2_mbox_conf_perm -> conv9_2_mbox_conf_perm
I0301 13:14:00.464090 10294 net.cpp:150] Setting up conv9_2_mbox_conf_perm
I0301 13:14:00.464099 10294 net.cpp:157] Top shape: 8 1 1 44 (352)
I0301 13:14:00.464102 10294 net.cpp:165] Memory required for data: 1989729152
I0301 13:14:00.464107 10294 layer_factory.hpp:77] Creating layer conv9_2_mbox_conf_flat
I0301 13:14:00.464114 10294 net.cpp:100] Creating Layer conv9_2_mbox_conf_flat
I0301 13:14:00.464119 10294 net.cpp:434] conv9_2_mbox_conf_flat <- conv9_2_mbox_conf_perm
I0301 13:14:00.464125 10294 net.cpp:408] conv9_2_mbox_conf_flat -> conv9_2_mbox_conf_flat
I0301 13:14:00.464157 10294 net.cpp:150] Setting up conv9_2_mbox_conf_flat
I0301 13:14:00.464164 10294 net.cpp:157] Top shape: 8 44 (352)
I0301 13:14:00.464169 10294 net.cpp:165] Memory required for data: 1989730560
I0301 13:14:00.464172 10294 layer_factory.hpp:77] Creating layer conv9_2_mbox_priorbox
I0301 13:14:00.464180 10294 net.cpp:100] Creating Layer conv9_2_mbox_priorbox
I0301 13:14:00.464185 10294 net.cpp:434] conv9_2_mbox_priorbox <- conv9_2_conv9_2_relu_0_split_2
I0301 13:14:00.464191 10294 net.cpp:434] conv9_2_mbox_priorbox <- data_data_0_split_6
I0301 13:14:00.464198 10294 net.cpp:408] conv9_2_mbox_priorbox -> conv9_2_mbox_priorbox
I0301 13:14:00.464232 10294 net.cpp:150] Setting up conv9_2_mbox_priorbox
I0301 13:14:00.464241 10294 net.cpp:157] Top shape: 1 2 16 (32)
I0301 13:14:00.464244 10294 net.cpp:165] Memory required for data: 1989730688
I0301 13:14:00.464248 10294 layer_factory.hpp:77] Creating layer mbox_loc
I0301 13:14:00.464257 10294 net.cpp:100] Creating Layer mbox_loc
I0301 13:14:00.464264 10294 net.cpp:434] mbox_loc <- conv4_3_norm_mbox_loc_flat
I0301 13:14:00.464270 10294 net.cpp:434] mbox_loc <- fc7_mbox_loc_flat
I0301 13:14:00.464277 10294 net.cpp:434] mbox_loc <- conv6_2_mbox_loc_flat
I0301 13:14:00.464280 10294 net.cpp:434] mbox_loc <- conv7_2_mbox_loc_flat
I0301 13:14:00.464287 10294 net.cpp:434] mbox_loc <- conv8_2_mbox_loc_flat
I0301 13:14:00.464293 10294 net.cpp:434] mbox_loc <- conv9_2_mbox_loc_flat
I0301 13:14:00.464299 10294 net.cpp:408] mbox_loc -> mbox_loc
I0301 13:14:00.464335 10294 net.cpp:150] Setting up mbox_loc
I0301 13:14:00.464344 10294 net.cpp:157] Top shape: 8 34928 (279424)
I0301 13:14:00.464349 10294 net.cpp:165] Memory required for data: 1990848384
I0301 13:14:00.464351 10294 layer_factory.hpp:77] Creating layer mbox_conf
I0301 13:14:00.464359 10294 net.cpp:100] Creating Layer mbox_conf
I0301 13:14:00.464363 10294 net.cpp:434] mbox_conf <- conv4_3_norm_mbox_conf_flat
I0301 13:14:00.464370 10294 net.cpp:434] mbox_conf <- fc7_mbox_conf_flat
I0301 13:14:00.464377 10294 net.cpp:434] mbox_conf <- conv6_2_mbox_conf_flat
I0301 13:14:00.464381 10294 net.cpp:434] mbox_conf <- conv7_2_mbox_conf_flat
I0301 13:14:00.464385 10294 net.cpp:434] mbox_conf <- conv8_2_mbox_conf_flat
I0301 13:14:00.464390 10294 net.cpp:434] mbox_conf <- conv9_2_mbox_conf_flat
I0301 13:14:00.464397 10294 net.cpp:408] mbox_conf -> mbox_conf
I0301 13:14:00.464427 10294 net.cpp:150] Setting up mbox_conf
I0301 13:14:00.464435 10294 net.cpp:157] Top shape: 8 96052 (768416)
I0301 13:14:00.464439 10294 net.cpp:165] Memory required for data: 1993922048
I0301 13:14:00.464453 10294 layer_factory.hpp:77] Creating layer mbox_priorbox
I0301 13:14:00.464460 10294 net.cpp:100] Creating Layer mbox_priorbox
I0301 13:14:00.464464 10294 net.cpp:434] mbox_priorbox <- conv4_3_norm_mbox_priorbox
I0301 13:14:00.464471 10294 net.cpp:434] mbox_priorbox <- fc7_mbox_priorbox
I0301 13:14:00.464476 10294 net.cpp:434] mbox_priorbox <- conv6_2_mbox_priorbox
I0301 13:14:00.464480 10294 net.cpp:434] mbox_priorbox <- conv7_2_mbox_priorbox
I0301 13:14:00.464484 10294 net.cpp:434] mbox_priorbox <- conv8_2_mbox_priorbox
I0301 13:14:00.464489 10294 net.cpp:434] mbox_priorbox <- conv9_2_mbox_priorbox
I0301 13:14:00.464496 10294 net.cpp:408] mbox_priorbox -> mbox_priorbox
I0301 13:14:00.464529 10294 net.cpp:150] Setting up mbox_priorbox
I0301 13:14:00.464537 10294 net.cpp:157] Top shape: 1 2 34928 (69856)
I0301 13:14:00.464541 10294 net.cpp:165] Memory required for data: 1994201472
I0301 13:14:00.464545 10294 layer_factory.hpp:77] Creating layer mbox_conf_reshape
I0301 13:14:00.464553 10294 net.cpp:100] Creating Layer mbox_conf_reshape
I0301 13:14:00.464558 10294 net.cpp:434] mbox_conf_reshape <- mbox_conf
I0301 13:14:00.464566 10294 net.cpp:408] mbox_conf_reshape -> mbox_conf_reshape
I0301 13:14:00.464607 10294 net.cpp:150] Setting up mbox_conf_reshape
I0301 13:14:00.464617 10294 net.cpp:157] Top shape: 8 8732 11 (768416)
I0301 13:14:00.464620 10294 net.cpp:165] Memory required for data: 1997275136
I0301 13:14:00.464627 10294 layer_factory.hpp:77] Creating layer mbox_conf_softmax
I0301 13:14:00.464637 10294 net.cpp:100] Creating Layer mbox_conf_softmax
I0301 13:14:00.464642 10294 net.cpp:434] mbox_conf_softmax <- mbox_conf_reshape
I0301 13:14:00.464646 10294 net.cpp:408] mbox_conf_softmax -> mbox_conf_softmax
I0301 13:14:00.464928 10294 net.cpp:150] Setting up mbox_conf_softmax
I0301 13:14:00.464938 10294 net.cpp:157] Top shape: 8 8732 11 (768416)
I0301 13:14:00.464942 10294 net.cpp:165] Memory required for data: 2000348800
I0301 13:14:00.464947 10294 layer_factory.hpp:77] Creating layer mbox_conf_flatten
I0301 13:14:00.464956 10294 net.cpp:100] Creating Layer mbox_conf_flatten
I0301 13:14:00.464960 10294 net.cpp:434] mbox_conf_flatten <- mbox_conf_softmax
I0301 13:14:00.464967 10294 net.cpp:408] mbox_conf_flatten -> mbox_conf_flatten
I0301 13:14:00.465001 10294 net.cpp:150] Setting up mbox_conf_flatten
I0301 13:14:00.465010 10294 net.cpp:157] Top shape: 8 96052 (768416)
I0301 13:14:00.465014 10294 net.cpp:165] Memory required for data: 2003422464
I0301 13:14:00.465018 10294 layer_factory.hpp:77] Creating layer detection_out
I0301 13:14:00.465039 10294 net.cpp:100] Creating Layer detection_out
I0301 13:14:00.465045 10294 net.cpp:434] detection_out <- mbox_loc
I0301 13:14:00.465050 10294 net.cpp:434] detection_out <- mbox_conf_flatten
I0301 13:14:00.465055 10294 net.cpp:434] detection_out <- mbox_priorbox
I0301 13:14:00.465061 10294 net.cpp:408] detection_out -> detection_out
W0301 13:14:00.465092 10294 detection_output_layer.cpp:49] Failed to create directory: /home/zs/data/VOCdevkit/results/VOC2007/SSD_300x300/Main
I0301 13:14:00.495640 10294 net.cpp:150] Setting up detection_out
I0301 13:14:00.495666 10294 net.cpp:157] Top shape: 1 1 1 7 (7)
I0301 13:14:00.495671 10294 net.cpp:165] Memory required for data: 2003422492
I0301 13:14:00.495679 10294 layer_factory.hpp:77] Creating layer detection_eval
I0301 13:14:00.495693 10294 net.cpp:100] Creating Layer detection_eval
I0301 13:14:00.495702 10294 net.cpp:434] detection_eval <- detection_out
I0301 13:14:00.495712 10294 net.cpp:434] detection_eval <- label
I0301 13:14:00.495728 10294 net.cpp:408] detection_eval -> detection_eval
I0301 13:14:00.495877 10294 net.cpp:150] Setting up detection_eval
I0301 13:14:00.495888 10294 net.cpp:157] Top shape: 1 1 11 5 (55)
I0301 13:14:00.495899 10294 net.cpp:165] Memory required for data: 2003422712
I0301 13:14:00.495908 10294 net.cpp:228] detection_eval does not need backward computation.
I0301 13:14:00.495920 10294 net.cpp:228] detection_out does not need backward computation.
I0301 13:14:00.495929 10294 net.cpp:228] mbox_conf_flatten does not need backward computation.
I0301 13:14:00.495950 10294 net.cpp:228] mbox_conf_softmax does not need backward computation.
…
