…
      sampler {
        min_scale: 0.3
        max_scale: 1
        min_aspect_ratio: 0.5
        max_aspect_ratio: 2
      }
      sample_constraint {
        min_jaccard_overlap: 0.9
      }
      max_sample: 1
      max_trials: 50
    }
    batch_sampler {
      sampler {
        min_scale: 0.3
        max_scale: 1
        min_aspect_ratio: 0.5
        max_aspect_ratio: 2
      }
      sample_constraint {
        max_jaccard_overlap: 1
      }
      max_sample: 1
      max_trials: 50
    }
    label_map_file: "data/NWPU_VHR/labelmap_NWPU_VHR.prototxt"
  }
}
layer {
  name: "conv1_1"
  type: "Convolution"
  bottom: "data"
  top: "conv1_1"
  param {
    lr_mult: 1
    decay_mult: 1
  }
  param {
    lr_mult: 2
    decay_mult: 0
  }
  convolution_param {
    num_output: 64
    pad: 1
    kernel_size: 3
    weight_filler {
      type: "xavier"
    }
    bias_filler {
      type: "constant"
      value: 0
    }
  }
}
layer {
  name: "relu1_1"
  type: "ReLU"
  bottom: "conv1_1"
  top: "conv1_1"
}
layer {
  name: "conv1_2"
  type: "Convolution"
  bottom: "conv1_1"
  top: "conv1_2"
  param {
    lr_mult: 1
    decay_mult: 1
  }
  param {
    lr_mult: 2
    decay_mult: 0
  }
  convolution_param {
    num_output: 64
    pad: 1
    kernel_size: 3
    weight_filler {
      type: "xavier"
    }
    bias_filler {
      type: "constant"
      value: 0
    }
  }
}
layer {
  name: "relu1_2"
  type: "ReLU"
  bottom: "conv1_2"
  top: "conv1_2"
}
layer {
  name: "pool1"
  type: "Pooling"
  bottom: "conv1_2"
  top: "pool1"
  pooling_param {
    pool: MAX
    kernel_size: 2
    stride: 2
  }
}
layer {
  name: "conv2_1"
  type: "Convolution"
  bottom: "pool1"
  top: "conv2_1"
  param {
    lr_mult: 1
    decay_mult: 1
  }
  param {
    lr_mult: 2
    decay_mult: 0
  }
  convolution_param {
    num_output: 128
    pad: 1
    kernel_size: 3
    weight_filler {
      type: "xavier"
    }
    bias_filler {
      type: "constant"
      value: 0
    }
  }
}
layer {
  name: "relu2_1"
  type: "ReLU"
  bottom: "conv2_1"
  top: "conv2_1"
}
layer {
  name: "conv2_2"
  type: "Convolution"
  bottom: "conv2_1"
  top: "conv2_2"
  param {
    lr_mult: 1
    decay_mult: 1
  }
  param {
    lr_mult: 2
    decay_mult: 0
  }
  convolution_param {
    num_output: 128
    pad: 1
    kernel_size: 3
    weight_filler {
      type: "xavier"
    }
    bias_filler {
      type: "constant"
      value: 0
    }
  }
}
layer {
  name: "relu2_2"
  type: "ReLU"
  bottom: "conv2_2"
  top: "conv2_2"
}
layer {
  name: "pool2"
  type: "Pooling"
  bottom: "conv2_2"
  top: "pool2"
  pooling_param {
    pool: MAX
    kernel_size: 2
    stride: 2
  }
}
layer {
  name: "conv3_1"
  type: "Convolution"
  bottom: "pool2"
  top: "conv3_1"
  param {
    lr_mult: 1
    decay_mult: 1
  }
  param {
    lr_mult: 2
    decay_mult: 0
  }
  convolution_param {
    num_output: 256
    pad: 1
    kernel_size: 3
    weight_filler {
      type: "xavier"
    }
    bias_filler {
      type: "constant"
      value: 0
    }
  }
}
layer {
  name: "relu3_1"
  type: "ReLU"
  bottom: "conv3_1"
  top: "conv3_1"
}
layer {
  name: "conv3_2"
  type: "Convolution"
  bottom: "conv3_1"
  top: "conv3_2"
  param {
    lr_mult: 1
    decay_mult: 1
  }
  param {
    lr_mult: 2
    decay_mult: 0
  }
  convolution_param {
    num_output: 256
    pad: 1
    kernel_size: 3
    weight_filler {
      type: "xavier"
    }
    bias_filler {
      type: "constant"
      value: 0
    }
  }
}
layer {
  name: "relu3_2"
  type: "ReLU"
  bottom: "conv3_2"
  top: "conv3_2"
}
layer {
  name: "conv3_3"
  type: "Convolution"
  bottom: "conv3_2"
  top: "conv3_3"
  param {
    lr_mult: 1
    decay_mult: 1
  }
  param {
    lr_mult: 2
    decay_mult: 0
  }
  convolution_param {
    num_output: 256
    pad: 1
    kernel_size: 3
    weight_filler {
      type: "xavier"
    }
    bias_filler {
      type: "constant"
      value: 0
    }
  }
}
layer {
  name: "relu3_3"
  type: "ReLU"
  bottom: "conv3_3"
  top: "conv3_3"
}
layer {
  name: "pool3"
  type: "Pooling"
  bottom: "conv3_3"
  top: "pool3"
  pooling_param {
    pool: MAX
    kernel_size: 2
    stride: 2
  }
}
layer {
  name: "conv4_1"
  type: "Convolution"
  bottom: "pool3"
  top: "conv4_1"
  param {
    lr_mult: 1
    decay_mult: 1
  }
  param {
    lr_mult: 2
    decay_mult: 0
  }
  convolution_param {
    num_output: 512
    pad: 1
    kernel_size: 3
    weight_filler {
      type: "xavier"
    }
    bias_filler {
      type: "constant"
      value: 0
    }
  }
}
layer {
  name: "relu4_1"
  type: "ReLU"
  bottom: "conv4_1"
  top: "conv4_1"
}
layer {
  name: "conv4_2"
  type: "Convolution"
  bottom: "conv4_1"
  top: "conv4_2"
  param {
    lr_mult: 1
    decay_mult: 1
  }
  param {
    lr_mult: 2
    decay_mult: 0
  }
  convolution_param {
    num_output: 512
    pad: 1
    kernel_size: 3
    weight_filler {
      type: "xavier"
    }
    bias_filler {
      type: "constant"
      value: 0
    }
  }
}
layer {
  name: "relu4_2"
  type: "ReLU"
  bottom: "conv4_2"
  top: "conv4_2"
}
layer {
  name: "conv4_3"
  type: "Convolution"
  bottom: "conv4_2"
  top: "conv4_3"
  param {
    lr_mult: 1
    decay_mult: 1
  }
  param {
    lr_mult: 2
    decay_mult: 0
  }
  convolution_param {
    num_output: 512
    pad: 1
    kernel_size: 3
    weight_filler {
      type: "xavier"
    }
    bias_filler {
      type: "constant"
      value: 0
    }
  }
}
layer {
  name: "relu4_3"
  type: "ReLU"
  bottom: "conv4_3"
  top: "conv4_3"
}
layer {
  name: "pool4"
  type: "Pooling"
  bottom: "conv4_3"
  top: "pool4"
  pooling_param {
    pool: MAX
    kernel_size: 2
    stride: 2
  }
}
layer {
  name: "conv5_1"
  type: "Convolution"
  bottom: "pool4"
  top: "conv5_1"
  param {
    lr_mult: 1
    decay_mult: 1
  }
  param {
    lr_mult: 2
    decay_mult: 0
  }
  convolution_param {
    num_output: 512
    pad: 1
    kernel_size: 3
    weight_filler {
      type: "xavier"
    }
    bias_filler {
      type: "constant"
      value: 0
    }
    dilation: 1
  }
}
layer {
  name: "relu5_1"
  type: "ReLU"
  bottom: "conv5_1"
  top: "conv5_1"
}
layer {
  name: "conv5_2"
  type: "Convolution"
  bottom: "conv5_1"
  top: "conv5_2"
  param {
    lr_mult: 1
    decay_mult: 1
  }
  param {
    lr_mult: 2
    decay_mult: 0
  }
  convolution_param {
    num_output: 512
    pad: 1
    kernel_size: 3
    weight_filler {
      type: "xavier"
    }
    bias_filler {
      type: "constant"
      value: 0
    }
    dilation: 1
  }
}
layer {
  name: "relu5_2"
  type: "ReLU"
  bottom: "conv5_2"
  top: "conv5_2"
}
layer {
  name: "conv5_3"
  type: "Convolution"
  bottom: "conv5_2"
  top: "conv5_3"
  param {
    lr_mult: 1
    decay_mult: 1
  }
  param {
    lr_mult: 2
    decay_mult: 0
  }
  convolution_param {
    num_output: 512
    pad: 1
    kernel_size: 3
    weight_filler {
      type: "xavier"
    }
    bias_filler {
      type: "constant"
      value: 0
    }
    dilation: 1
  }
}
layer {
  name: "relu5_3"
  type: "ReLU"
  bottom: "conv5_3"
  top: "conv5_3"
}
layer {
  name: "pool5"
  type: "Pooling"
  bottom: "conv5_3"
  top: "pool5"
  pooling_param {
    pool: MAX
    kernel_size: 3
    stride: 1
    pad: 1
  }
}
layer {
  name: "fc6_depthwise"
  type: "DepthwiseConvolution"
  bottom: "pool5"
  top: "fc6_3x3"
  param {
    lr_mult: 1
    decay_mult: 1
  }
  param {
    lr_mult: 2
    decay_mult: 0
  }
  convolution_param {
    num_output: 512
    pad: 6
    kernel_size: 3
    group: 512
    weight_filler {
      type: "xavier"
    }
    bias_filler {
      type: "constant"
      value: 0
    }
    dilation: 6
  }
}
layer {
  name: "fc6_3x3_relu"
  type: "ReLU"
  bottom: "fc6_3x3"
  top: "fc6_3x3"
}
layer {
  name: "fc6_1x1"
  type: "Convolution"
  bottom: "fc6_3x3"
  top: "fc6"
  param {
    lr_mult: 1
    decay_mult: 1
  }
  param {
    lr_mult: 2
    decay_mult: 0
  }
  convolution_param {
    num_output: 1024
    pad: 0
    kernel_size: 1
    stride: 1
    weight_filler {
      type: "xavier"
    }
    bias_filler {
      type: "constant"
      value: 0
    }
    dilation: 6
  }
}
layer {
  name: "relu6"
  type: "ReLU"
  bottom: "fc6"
  top: "fc6"
}
layer {
  name: "fc7"
  type: "Convolution"
  bottom: "fc6"
  top: "fc7"
  param {
    lr_mult: 1
    decay_mult: 1
  }
  param {
    lr_mult: 2
    decay_mult: 0
  }
  convolution_param {
    num_output: 1024
    kernel_size: 1
    weight_filler {
      type: "xavier"
    }
    bias_filler {
      type: "constant"
      value: 0
    }
  }
}
layer {
  name: "relu7"
  type: "ReLU"
  bottom: "fc7"
  top: "fc7"
}
layer {
  name: "conv6_1"
  type: "Convolution"
  bottom: "fc7"
  top: "conv6_1"
  param {
    lr_mult: 1
    decay_mult: 1
  }
  param {
    lr_mult: 2
    decay_mult: 0
  }
  convolution_param {
    num_output: 256
    pad: 0
    kernel_size: 1
    stride: 1
    weight_filler {
      type: "xavier"
    }
    bias_filler {
      type: "constant"
      value: 0
    }
  }
}
layer {
  name: "conv6_1_relu"
  type: "ReLU"
  bottom: "conv6_1"
  top: "conv6_1"
}
layer {
  name: "conv6_2"
  type: "Convolution"
  bottom: "conv6_1"
  top: "conv6_2"
  param {
    lr_mult: 1
    decay_mult: 1
  }
  param {
    lr_mult: 2
    decay_mult: 0
  }
  convolution_param {
    num_output: 512
    pad: 1
    kernel_size: 3
    stride: 2
    weight_filler {
      type: "xavier"
    }
    bias_filler {
      type: "constant"
      value: 0
    }
  }
}
layer {
  name: "conv6_2_relu"
  type: "ReLU"
  bottom: "conv6_2"
  top: "conv6_2"
}
layer {
  name: "conv7_1"
  type: "Convolution"
  bottom: "conv6_2"
  top: "conv7_1"
  param {
    lr_mult: 1
    decay_mult: 1
  }
  param {
    lr_mult: 2
    decay_mult: 0
  }
  convolution_param {
    num_output: 128
    pad: 0
    kernel_size: 1
    stride: 1
    weight_filler {
      type: "xavier"
    }
    bias_filler {
      type: "constant"
      value: 0
    }
  }
}
layer {
  name: "conv7_1_relu"
  type: "ReLU"
  bottom: "conv7_1"
  top: "conv7_1"
}
layer {
  name: "conv7_2"
  type: "Convolution"
  bottom: "conv7_1"
  top: "conv7_2"
  param {
    lr_mult: 1
    decay_mult: 1
  }
  param {
    lr_mult: 2
    decay_mult: 0
  }
  convolution_param {
    num_output: 256
    pad: 1
    kernel_size: 3
    stride: 2
    weight_filler {
      type: "xavier"
    }
    bias_filler {
      type: "constant"
      value: 0
    }
  }
}
layer {
  name: "conv7_2_relu"
  type: "ReLU"
  bottom: "conv7_2"
  top: "conv7_2"
}
layer {
  name: "conv8_1"
  type: "Convolution"
  bottom: "conv7_2"
  top: "conv8_1"
  param {
    lr_mult: 1
    decay_mult: 1
  }
  param {
    lr_mult: 2
    decay_mult: 0
  }
  convolution_param {
    num_output: 128
    pad: 0
    kernel_size: 1
    stride: 1
    weight_filler {
      type: "xavier"
    }
    bias_filler {
      type: "constant"
      value: 0
    }
  }
}
layer {
  name: "conv8_1_relu"
  type: "ReLU"
  bottom: "conv8_1"
  top: "conv8_1"
}
layer {
  name: "conv8_2"
  type: "Convolution"
  bottom: "conv8_1"
  top: "conv8_2"
  param {
    lr_mult: 1
    decay_mult: 1
  }
  param {
    lr_mult: 2
    decay_mult: 0
  }
  convolution_param {
    num_output: 256
    pad: 0
    kernel_size: 3
    stride: 1
    weight_filler {
      type: "xavier"
    }
    bias_filler {
      type: "constant"
      value: 0
    }
  }
}
layer {
  name: "conv8_2_relu"
  type: "ReLU"
  bottom: "conv8_2"
  top: "conv8_2"
}
layer {
  name: "conv9_1"
  type: "Convolution"
  bottom: "conv8_2"
  top: "conv9_1"
  param {
    lr_mult: 1
    decay_mult: 1
  }
  param {
    lr_mult: 2
    decay_mult: 0
  }
  convolution_param {
    num_output: 128
    pad: 0
    kernel_size: 1
    stride: 1
    weight_filler {
      type: "xavier"
    }
    bias_filler {
      type: "constant"
      value: 0
    }
  }
}
layer {
  name: "conv9_1_relu"
  type: "ReLU"
  bottom: "conv9_1"
  top: "conv9_1"
}
layer {
  name: "conv9_2"
  type: "Convolution"
  bottom: "conv9_1"
  top: "conv9_2"
  param {
    lr_mult: 1
    decay_mult: 1
  }
  param {
    lr_mult: 2
    decay_mult: 0
  }
  convolution_param {
    num_output: 256
    pad: 0
    kernel_size: 3
    stride: 1
    weight_filler {
      type: "xavier"
    }
    bias_filler {
      type: "constant"
      value: 0
    }
  }
}
layer {
  name: "conv9_2_relu"
  type: "ReLU"
  bottom: "conv9_2"
  top: "conv9_2"
}
layer {
  name: "conv4_3_norm"
  type: "Normalize"
  bottom: "conv4_3"
  top: "conv4_3_norm"
  norm_param {
    across_spatial: false
    scale_filler {
      type: "constant"
      value: 20
    }
    channel_shared: false
  }
}
layer {
  name: "conv4_3_norm_mbox_loc"
  type: "Convolution"
  bottom: "conv4_3_norm"
  top: "conv4_3_norm_mbox_loc"
  param {
    lr_mult: 1
    decay_mult: 1
  }
  param {
    lr_mult: 2
    decay_mult: 0
  }
  convolution_param {
    num_output: 16
    pad: 1
    kernel_size: 3
    stride: 1
    weight_filler {
      type: "xavier"
    }
    bias_filler {
      type: "constant"
      value: 0
    }
  }
}
layer {
  name: "conv4_3_norm_mbox_loc_perm"
  type: "Permute"
  bottom: "conv4_3_norm_mbox_loc"
  top: "conv4_3_norm_mbox_loc_perm"
  permute_param {
    order: 0
    order: 2
    order: 3
    order: 1
  }
}
layer {
  name: "conv4_3_norm_mbox_loc_flat"
  type: "Flatten"
  bottom: "conv4_3_norm_mbox_loc_perm"
  top: "conv4_3_norm_mbox_loc_flat"
  flatten_param {
    axis: 1
  }
}
layer {
  name: "conv4_3_norm_mbox_conf"
  type: "Convolution"
  bottom: "conv4_3_norm"
  top: "conv4_3_norm_mbox_conf"
  param {
    lr_mult: 1
    decay_mult: 1
  }
  param {
    lr_mult: 2
    decay_mult: 0
  }
  convolution_param {
    num_output: 44
    pad: 1
    kernel_size: 3
    stride: 1
    weight_filler {
      type: "xavier"
    }
    bias_filler {
      type: "constant"
      value: 0
    }
  }
}
layer {
  name: "conv4_3_norm_mbox_conf_perm"
  type: "Permute"
  bottom: "conv4_3_norm_mbox_conf"
  top: "conv4_3_norm_mbox_conf_perm"
  permute_param {
    order: 0
    order: 2
    order: 3
    order: 1
  }
}
layer {
  name: "conv4_3_norm_mbox_conf_flat"
  type: "Flatten"
  bottom: "conv4_3_norm_mbox_conf_perm"
  top: "conv4_3_norm_mbox_conf_flat"
  flatten_param {
    axis: 1
  }
}
layer {
  name: "conv4_3_norm_mbox_priorbox"
  type: "PriorBox"
  bottom: "conv4_3_norm"
  bottom: "data"
  top: "conv4_3_norm_mbox_priorbox"
  prior_box_param {
    min_size: 30
    max_size: 60
    aspect_ratio: 2
    flip: true
    clip: false
    variance: 0.1
    variance: 0.1
    variance: 0.2
    variance: 0.2
    step: 8
    offset: 0.5
  }
}
layer {
  name: "fc7_mbox_loc"
  type: "Convolution"
  bottom: "fc7"
  top: "fc7_mbox_loc"
  param {
    lr_mult: 1
    decay_mult: 1
  }
  param {
    lr_mult: 2
    decay_mult: 0
  }
  convolution_param {
    num_output: 24
    pad: 1
    kernel_size: 3
    stride: 1
    weight_filler {
      type: "xavier"
    }
    bias_filler {
      type: "constant"
      value: 0
    }
  }
}
layer {
  name: "fc7_mbox_loc_perm"
  type: "Permute"
  bottom: "fc7_mbox_loc"
  top: "fc7_mbox_loc_perm"
  permute_param {
    order: 0
    order: 2
    order: 3
    order: 1
  }
}
layer {
  name: "fc7_mbox_loc_flat"
  type: "Flatten"
  bottom: "fc7_mbox_loc_perm"
  top: "fc7_mbox_loc_flat"
  flatten_param {
    axis: 1
  }
}
layer {
  name: "fc7_mbox_conf"
  type: "Convolution"
  bottom: "fc7"
  top: "fc7_mbox_conf"
  param {
    lr_mult: 1
    decay_mult: 1
  }
  param {
    lr_mult: 2
    decay_mult: 0
  }
  convolution_param {
    num_output: 66
    pad: 1
    kernel_size: 3
    stride: 1
    weight_filler {
      type: "xavier"
    }
    bias_filler {
      type: "constant"
      value: 0
    }
  }
}
layer {
  name: "fc7_mbox_conf_perm"
  type: "Permute"
  bottom: "fc7_mbox_conf"
  top: "fc7_mbox_conf_perm"
  permute_param {
    order: 0
    order: 2
    order: 3
    order: 1
  }
}
layer {
  name: "fc7_mbox_conf_flat"
  type: "Flatten"
  bottom: "fc7_mbox_conf_perm"
  top: "fc7_mbox_conf_flat"
  flatten_param {
    axis: 1
  }
}
layer {
  name: "fc7_mbox_priorbox"
  type: "PriorBox"
  bottom: "fc7"
  bottom: "data"
  top: "fc7_mbox_priorbox"
  prior_box_param {
    min_size: 60
    max_size: 111
    aspect_ratio: 2
    aspect_ratio: 3
    flip: true
    clip: false
    variance: 0.1
    variance: 0.1
    variance: 0.2
    variance: 0.2
    step: 16
    offset: 0.5
  }
}
layer {
  name: "conv6_2_mbox_loc"
  type: "Convolution"
  bottom: "conv6_2"
  top: "conv6_2_mbox_loc"
  param {
    lr_mult: 1
    decay_mult: 1
  }
  param {
    lr_mult: 2
    decay_mult: 0
  }
  convolution_param {
    num_output: 24
    pad: 1
    kernel_size: 3
    stride: 1
    weight_filler {
      type: "xavier"
    }
    bias_filler {
      type: "constant"
      value: 0
    }
  }
}
layer {
  name: "conv6_2_mbox_loc_perm"
  type: "Permute"
  bottom: "conv6_2_mbox_loc"
  top: "conv6_2_mbox_loc_perm"
  permute_param {
    order: 0
    order: 2
    order: 3
    order: 1
  }
}
layer {
  name: "conv6_2_mbox_loc_flat"
  type: "Flatten"
  bottom: "conv6_2_mbox_loc_perm"
  top: "conv6_2_mbox_loc_flat"
  flatten_param {
    axis: 1
  }
}
layer {
  name: "conv6_2_mbox_conf"
  type: "Convolution"
  bottom: "conv6_2"
  top: "conv6_2_mbox_conf"
  param {
    lr_mult: 1
    decay_mult: 1
  }
  param {
    lr_mult: 2
    decay_mult: 0
  }
  convolution_param {
    num_output: 66
    pad: 1
    kernel_size: 3
    stride: 1
    weight_filler {
      type: "xavier"
    }
    bias_filler {
      type: "constant"
      value: 0
    }
  }
}
layer {
  name: "conv6_2_mbox_conf_perm"
  type: "Permute"
  bottom: "conv6_2_mbox_conf"
  top: "conv6_2_mbox_conf_perm"
  permute_param {
    order: 0
    order: 2
    order: 3
    order: 1
  }
}
layer {
  name: "conv6_2_mbox_conf_flat"
  type: "Flatten"
  bottom: "conv6_2_mbox_conf_perm"
  top: "conv6_2_mbox_conf_flat"
  flatten_param {
    axis: 1
  }
}
layer {
  name: "conv6_2_mbox_priorbox"
  type: "PriorBox"
  bottom: "conv6_2"
  bottom: "data"
  top: "conv6_2_mbox_priorbox"
  prior_box_param {
    min_size: 111
    max_size: 162
    aspect_ratio: 2
    aspect_ratio: 3
    flip: true
    clip: false
    variance: 0.1
    variance: 0.1
    variance: 0.2
    variance: 0.2
    step: 32
    offset: 0.5
  }
}
layer {
  name: "conv7_2_mbox_loc"
  type: "Convolution"
  bottom: "conv7_2"
  top: "conv7_2_mbox_loc"
  param {
    lr_mult: 1
    decay_mult: 1
  }
  param {
    lr_mult: 2
    decay_mult: 0
  }
  convolution_param {
    num_output: 24
    pad: 1
    kernel_size: 3
    stride: 1
    weight_filler {
      type: "xavier"
    }
    bias_filler {
      type: "constant"
      value: 0
    }
  }
}
layer {
  name: "conv7_2_mbox_loc_perm"
  type: "Permute"
  bottom: "conv7_2_mbox_loc"
  top: "conv7_2_mbox_loc_perm"
  permute_param {
    order: 0
    order: 2
    order: 3
    order: 1
  }
}
layer {
  name: "conv7_2_mbox_loc_flat"
  type: "Flatten"
  bottom: "conv7_2_mbox_loc_perm"
  top: "conv7_2_mbox_loc_flat"
  flatten_param {
    axis: 1
  }
}
layer {
  name: "conv7_2_mbox_conf"
  type: "Convolution"
  bottom: "conv7_2"
  top: "conv7_2_mbox_conf"
  param {
    lr_mult: 1
    decay_mult: 1
  }
  param {
    lr_mult: 2
    decay_mult: 0
  }
  convolution_param {
    num_output: 66
    pad: 1
    kernel_size: 3
    stride: 1
    weight_filler {
      type: "xavier"
    }
    bias_filler {
      type: "constant"
      value: 0
    }
  }
}
layer {
  name: "conv7_2_mbox_conf_perm"
  type: "Permute"
  bottom: "conv7_2_mbox_conf"
  top: "conv7_2_mbox_conf_perm"
  permute_param {
    order: 0
    order: 2
    order: 3
    order: 1
  }
}
layer {
  name: "conv7_2_mbox_conf_flat"
  type: "Flatten"
  bottom: "conv7_2_mbox_conf_perm"
  top: "conv7_2_mbox_conf_flat"
  flatten_param {
    axis: 1
  }
}
layer {
  name: "conv7_2_mbox_priorbox"
  type: "PriorBox"
  bottom: "conv7_2"
  bottom: "data"
  top: "conv7_2_mbox_priorbox"
  prior_box_param {
    min_size: 162
    max_size: 213
    aspect_ratio: 2
    aspect_ratio: 3
    flip: true
    clip: false
    variance: 0.1
    variance: 0.1
    variance: 0.2
    variance: 0.2
    step: 64
    offset: 0.5
  }
}
layer {
  name: "conv8_2_mbox_loc"
  type: "Convolution"
  bottom: "conv8_2"
  top: "conv8_2_mbox_loc"
  param {
    lr_mult: 1
    decay_mult: 1
  }
  param {
    lr_mult: 2
    decay_mult: 0
  }
  convolution_param {
    num_output: 16
    pad: 1
    kernel_size: 3
    stride: 1
    weight_filler {
      type: "xavier"
    }
    bias_filler {
      type: "constant"
      value: 0
    }
  }
}
layer {
  name: "conv8_2_mbox_loc_perm"
  type: "Permute"
  bottom: "conv8_2_mbox_loc"
  top: "conv8_2_mbox_loc_perm"
  permute_param {
    order: 0
    order: 2
    order: 3
    order: 1
  }
}
layer {
  name: "conv8_2_mbox_loc_flat"
  type: "Flatten"
  bottom: "conv8_2_mbox_loc_perm"
  top: "conv8_2_mbox_loc_flat"
  flatten_param {
    axis: 1
  }
}
layer {
  name: "conv8_2_mbox_conf"
  type: "Convolution"
  bottom: "conv8_2"
  top: "conv8_2_mbox_conf"
  param {
    lr_mult: 1
    decay_mult: 1
  }
  param {
    lr_mult: 2
    decay_mult: 0
  }
  convolution_param {
    num_output: 44
    pad: 1
    kernel_size: 3
    stride: 1
    weight_filler {
      type: "xavier"
    }
    bias_filler {
      type: "constant"
      value: 0
    }
  }
}
layer {
  name: "conv8_2_mbox_conf_perm"
  type: "Permute"
  bottom: "conv8_2_mbox_conf"
  top: "conv8_2_mbox_conf_perm"
  permute_param {
    order: 0
    order: 2
    order: 3
    order: 1
  }
}
layer {
  name: "conv8_2_mbox_conf_flat"
  type: "Flatten"
  bottom: "conv8_2_mbox_conf_perm"
  top: "conv8_2_mbox_conf_flat"
  flatten_param {
    axis: 1
  }
}
layer {
  name: "conv8_2_mbox_priorbox"
  type: "PriorBox"
  bottom: "conv8_2"
  bottom: "data"
  top: "conv8_2_mbox_priorbox"
  prior_box_param {
    min_size: 213
    max_size: 264
    aspect_ratio: 2
    flip: true
    clip: false
    variance: 0.1
    variance: 0.1
    variance: 0.2
    variance: 0.2
    step: 100
    offset: 0.5
  }
}
layer {
  name: "conv9_2_mbox_loc"
  type: "Convolution"
  bottom: "conv9_2"
  top: "conv9_2_mbox_loc"
  param {
    lr_mult: 1
    decay_mult: 1
  }
  param {
    lr_mult: 2
    decay_mult: 0
  }
  convolution_param {
    num_output: 16
    pad: 1
    kernel_size: 3
    stride: 1
    weight_filler {
      type: "xavier"
    }
    bias_filler {
      type: "constant"
      value: 0
    }
  }
}
layer {
  name: "conv9_2_mbox_loc_perm"
  type: "Permute"
  bottom: "conv9_2_mbox_loc"
  top: "conv9_2_mbox_loc_perm"
  permute_param {
    order: 0
    order: 2
    order: 3
    order: 1
  }
}
layer {
  name: "conv9_2_mbox_loc_flat"
  type: "Flatten"
  bottom: "conv9_2_mbox_loc_perm"
  top: "conv9_2_mbox_loc_flat"
  flatten_param {
    axis: 1
  }
}
layer {
  name: "conv9_2_mbox_conf"
  type: "Convolution"
  bottom: "conv9_2"
  top: "conv9_2_mbox_conf"
  param {
    lr_mult: 1
    decay_mult: 1
  }
  param {
    lr_mult: 2
    decay_mult: 0
  }
  convolution_param {
    num_output: 44
    pad: 1
    kernel_size: 3
    stride: 1
    weight_filler {
      type: "xavier"
    }
    bias_filler {
      type: "constant"
      value: 0
    }
  }
}
layer {
  name: "conv9_2_mbox_conf_perm"
  type: "Permute"
  bottom: "conv9_2_mbox_conf"
  top: "conv9_2_mbox_conf_perm"
  permute_param {
    order: 0
    order: 2
    order: 3
    order: 1
  }
}
layer {
  name: "conv9_2_mbox_conf_flat"
  type: "Flatten"
  bottom: "conv9_2_mbox_conf_perm"
  top: "conv9_2_mbox_conf_flat"
  flatten_param {
    axis: 1
  }
}
layer {
  name: "conv9_2_mbox_priorbox"
  type: "PriorBox"
  bottom: "conv9_2"
  bottom: "data"
  top: "conv9_2_mbox_priorbox"
  prior_box_param {
    min_size: 264
    max_size: 315
    aspect_ratio: 2
    flip: true
    clip: false
    variance: 0.1
    variance: 0.1
    variance: 0.2
    variance: 0.2
    step: 300
    offset: 0.5
  }
}
layer {
  name: "mbox_loc"
  type: "Concat"
  bottom: "conv4_3_norm_mbox_loc_flat"
  bottom: "fc7_mbox_loc_flat"
  bottom: "conv6_2_mbox_loc_flat"
  bottom: "conv7_2_mbox_loc_flat"
  bottom: "conv8_2_mbox_loc_flat"
  bottom: "conv9_2_mbox_loc_flat"
  top: "mbox_loc"
  concat_param {
    axis: 1
  }
}
layer {
  name: "mbox_conf"
  type: "Concat"
  bottom: "conv4_3_norm_mbox_conf_flat"
  bottom: "fc7_mbox_conf_flat"
  bottom: "conv6_2_mbox_conf_flat"
  bottom: "conv7_2_mbox_conf_flat"
  bottom: "conv8_2_mbox_conf_flat"
  bottom: "conv9_2_mbox_conf_flat"
  top: "mbox_conf"
  concat_param {
    axis: 1
  }
}
layer {
  name: "mbox_priorbox"
  type: "Concat"
  bottom: "conv4_3_norm_mbox_priorbox"
  bottom: "fc7_mbox_priorbox"
  bottom: "conv6_2_mbox_priorbox"
  bottom: "conv7_2_mbox_priorbox"
  bottom: "conv8_2_mbox_priorbox"
  bottom: "conv9_2_mbox_priorbox"
  top: "mbox_priorbox"
  concat_param {
    axis: 2
  }
}
layer {
  name: "mbox_loss"
  type: "MultiBoxLoss"
  bottom: "mbox_loc"
  bottom: "mbox_conf"
  bottom: "mbox_priorbox"
  bottom: "label"
  top: "mbox_loss"
  include {
    phase: TRAIN
  }
  propagate_down: true
  propagate_down: true
  propagate_down: false
  propagate_down: false
  loss_param {
    normalization: VALID
  }
  multibox_loss_param {
    loc_loss_type: SMOOTH_L1
    conf_loss_type: SOFTMAX
    loc_weight: 1
    num_classes: 11
    share_location: true
    match_type: PER_PREDICTION
    overlap_threshold: 0.5
    use_prior_for_matching: true
    background_label_id: 0
    use_difficult_gt: true
    neg_pos_ratio: 3
    neg_overlap: 0.5
    code_type: CENTER_SIZE
    ignore_cross_boundary_bbox: false
    mining_type: MAX_NEGATIVE
  }
}
I0321 00:10:49.670644  5826 layer_factory.hpp:77] Creating layer data
I0321 00:10:49.671142  5826 net.cpp:100] Creating Layer data
I0321 00:10:49.671160  5826 net.cpp:408] data -> data
I0321 00:10:49.671197  5826 net.cpp:408] data -> label
I0321 00:10:49.674006  5840 db_lmdb.cpp:35] Opened lmdb examples/NWPU_VHR/NWPU_VHR_trainval_lmdb
I0321 00:10:49.690233  5826 annotated_data_layer.cpp:62] output data size: 32,3,300,300
I0321 00:10:49.734571  5826 net.cpp:150] Setting up data
I0321 00:10:49.734616  5826 net.cpp:157] Top shape: 32 3 300 300 (8640000)
I0321 00:10:49.734624  5826 net.cpp:157] Top shape: 1 1 4 8 (32)
I0321 00:10:49.734628  5826 net.cpp:165] Memory required for data: 34560128
I0321 00:10:49.734642  5826 layer_factory.hpp:77] Creating layer data_data_0_split
I0321 00:10:49.734660  5826 net.cpp:100] Creating Layer data_data_0_split
I0321 00:10:49.734681  5826 net.cpp:434] data_data_0_split <- data
I0321 00:10:49.734699  5826 net.cpp:408] data_data_0_split -> data_data_0_split_0
I0321 00:10:49.734714  5826 net.cpp:408] data_data_0_split -> data_data_0_split_1
I0321 00:10:49.734724  5826 net.cpp:408] data_data_0_split -> data_data_0_split_2
I0321 00:10:49.734737  5826 net.cpp:408] data_data_0_split -> data_data_0_split_3
I0321 00:10:49.734745  5826 net.cpp:408] data_data_0_split -> data_data_0_split_4
I0321 00:10:49.734753  5826 net.cpp:408] data_data_0_split -> data_data_0_split_5
I0321 00:10:49.734762  5826 net.cpp:408] data_data_0_split -> data_data_0_split_6
I0321 00:10:49.734850  5826 net.cpp:150] Setting up data_data_0_split
I0321 00:10:49.734861  5826 net.cpp:157] Top shape: 32 3 300 300 (8640000)
I0321 00:10:49.734867  5826 net.cpp:157] Top shape: 32 3 300 300 (8640000)
I0321 00:10:49.734875  5826 net.cpp:157] Top shape: 32 3 300 300 (8640000)
I0321 00:10:49.734882  5826 net.cpp:157] Top shape: 32 3 300 300 (8640000)
I0321 00:10:49.734889  5826 net.cpp:157] Top shape: 32 3 300 300 (8640000)
I0321 00:10:49.734895  5826 net.cpp:157] Top shape: 32 3 300 300 (8640000)
I0321 00:10:49.734905  5826 net.cpp:157] Top shape: 32 3 300 300 (8640000)
I0321 00:10:49.734911  5826 net.cpp:165] Memory required for data: 276480128
I0321 00:10:49.734918  5826 layer_factory.hpp:77] Creating layer conv1_1
I0321 00:10:49.734942  5826 net.cpp:100] Creating Layer conv1_1
I0321 00:10:49.734947  5826 net.cpp:434] conv1_1 <- data_data_0_split_0
I0321 00:10:49.734958  5826 net.cpp:408] conv1_1 -> conv1_1
I0321 00:10:50.179150  5826 net.cpp:150] Setting up conv1_1
I0321 00:10:50.179186  5826 net.cpp:157] Top shape: 32 64 300 300 (184320000)
I0321 00:10:50.179191  5826 net.cpp:165] Memory required for data: 1013760128
I0321 00:10:50.179219  5826 layer_factory.hpp:77] Creating layer relu1_1
I0321 00:10:50.179237  5826 net.cpp:100] Creating Layer relu1_1
I0321 00:10:50.179245  5826 net.cpp:434] relu1_1 <- conv1_1
I0321 00:10:50.179255  5826 net.cpp:395] relu1_1 -> conv1_1 (in-place)
I0321 00:10:50.180069  5826 net.cpp:150] Setting up relu1_1
I0321 00:10:50.180094  5826 net.cpp:157] Top shape: 32 64 300 300 (184320000)
I0321 00:10:50.180099  5826 net.cpp:165] Memory required for data: 1751040128
I0321 00:10:50.180106  5826 layer_factory.hpp:77] Creating layer conv1_2
I0321 00:10:50.180130  5826 net.cpp:100] Creating Layer conv1_2
I0321 00:10:50.180137  5826 net.cpp:434] conv1_2 <- conv1_1
I0321 00:10:50.180147  5826 net.cpp:408] conv1_2 -> conv1_2
I0321 00:10:50.182719  5826 net.cpp:150] Setting up conv1_2
I0321 00:10:50.182775  5826 net.cpp:157] Top shape: 32 64 300 300 (184320000)
I0321 00:10:50.182783  5826 net.cpp:165] Memory required for data: 2488320128
I0321 00:10:50.182799  5826 layer_factory.hpp:77] Creating layer relu1_2
I0321 00:10:50.182813  5826 net.cpp:100] Creating Layer relu1_2
I0321 00:10:50.182821  5826 net.cpp:434] relu1_2 <- conv1_2
I0321 00:10:50.182829  5826 net.cpp:395] relu1_2 -> conv1_2 (in-place)
I0321 00:10:50.182988  5826 net.cpp:150] Setting up relu1_2
I0321 00:10:50.182998  5826 net.cpp:157] Top shape: 32 64 300 300 (184320000)
I0321 00:10:50.183004  5826 net.cpp:165] Memory required for data: 3225600128
I0321 00:10:50.183009  5826 layer_factory.hpp:77] Creating layer pool1
I0321 00:10:50.183018  5826 net.cpp:100] Creating Layer pool1
I0321 00:10:50.183023  5826 net.cpp:434] pool1 <- conv1_2
I0321 00:10:50.183033  5826 net.cpp:408] pool1 -> pool1
I0321 00:10:50.183085  5826 net.cpp:150] Setting up pool1
I0321 00:10:50.183094  5826 net.cpp:157] Top shape: 32 64 150 150 (46080000)
I0321 00:10:50.183099  5826 net.cpp:165] Memory required for data: 3409920128
I0321 00:10:50.183120  5826 layer_factory.hpp:77] Creating layer conv2_1
I0321 00:10:50.183135  5826 net.cpp:100] Creating Layer conv2_1
I0321 00:10:50.183141  5826 net.cpp:434] conv2_1 <- pool1
I0321 00:10:50.183151  5826 net.cpp:408] conv2_1 -> conv2_1
I0321 00:10:50.185109  5826 net.cpp:150] Setting up conv2_1
I0321 00:10:50.185125  5826 net.cpp:157] Top shape: 32 128 150 150 (92160000)
I0321 00:10:50.185130  5826 net.cpp:165] Memory required for data: 3778560128
I0321 00:10:50.185147  5826 layer_factory.hpp:77] Creating layer relu2_1
I0321 00:10:50.185159  5826 net.cpp:100] Creating Layer relu2_1
I0321 00:10:50.185164  5826 net.cpp:434] relu2_1 <- conv2_1
I0321 00:10:50.185176  5826 net.cpp:395] relu2_1 -> conv2_1 (in-place)
I0321 00:10:50.185341  5826 net.cpp:150] Setting up relu2_1
I0321 00:10:50.185353  5826 net.cpp:157] Top shape: 32 128 150 150 (92160000)
I0321 00:10:50.185359  5826 net.cpp:165] Memory required for data: 4147200128
I0321 00:10:50.185364  5826 layer_factory.hpp:77] Creating layer conv2_2
I0321 00:10:50.185377  5826 net.cpp:100] Creating Layer conv2_2
I0321 00:10:50.185386  5826 net.cpp:434] conv2_2 <- conv2_1
I0321 00:10:50.185397  5826 net.cpp:408] conv2_2 -> conv2_2
I0321 00:10:50.187732  5826 net.cpp:150] Setting up conv2_2
I0321 00:10:50.187750  5826 net.cpp:157] Top shape: 32 128 150 150 (92160000)
I0321 00:10:50.187755  5826 net.cpp:165] Memory required for data: 4515840128
I0321 00:10:50.187765  5826 layer_factory.hpp:77] Creating layer relu2_2
I0321 00:10:50.187778  5826 net.cpp:100] Creating Layer relu2_2
I0321 00:10:50.187786  5826 net.cpp:434] relu2_2 <- conv2_2
I0321 00:10:50.187795  5826 net.cpp:395] relu2_2 -> conv2_2 (in-place)
I0321 00:10:50.188436  5826 net.cpp:150] Setting up relu2_2
I0321 00:10:50.188449  5826 net.cpp:157] Top shape: 32 128 150 150 (92160000)
I0321 00:10:50.188454  5826 net.cpp:165] Memory required for data: 4884480128
I0321 00:10:50.188460  5826 layer_factory.hpp:77] Creating layer pool2
I0321 00:10:50.188472  5826 net.cpp:100] Creating Layer pool2
I0321 00:10:50.188478  5826 net.cpp:434] pool2 <- conv2_2
I0321 00:10:50.188486  5826 net.cpp:408] pool2 -> pool2
I0321 00:10:50.188532  5826 net.cpp:150] Setting up pool2
I0321 00:10:50.188540  5826 net.cpp:157] Top shape: 32 128 75 75 (23040000)
I0321 00:10:50.188545  5826 net.cpp:165] Memory required for data: 4976640128
I0321 00:10:50.188550  5826 layer_factory.hpp:77] Creating layer conv3_1
I0321 00:10:50.188565  5826 net.cpp:100] Creating Layer conv3_1
I0321 00:10:50.188570  5826 net.cpp:434] conv3_1 <- pool2
I0321 00:10:50.188580  5826 net.cpp:408] conv3_1 -> conv3_1
I0321 00:10:50.193136  5826 net.cpp:150] Setting up conv3_1
I0321 00:10:50.193163  5826 net.cpp:157] Top shape: 32 256 75 75 (46080000)
I0321 00:10:50.193168  5826 net.cpp:165] Memory required for data: 5160960128
I0321 00:10:50.193186  5826 layer_factory.hpp:77] Creating layer relu3_1
I0321 00:10:50.193204  5826 net.cpp:100] Creating Layer relu3_1
I0321 00:10:50.193212  5826 net.cpp:434] relu3_1 <- conv3_1
I0321 00:10:50.193222  5826 net.cpp:395] relu3_1 -> conv3_1 (in-place)
I0321 00:10:50.193413  5826 net.cpp:150] Setting up relu3_1
I0321 00:10:50.193424  5826 net.cpp:157] Top shape: 32 256 75 75 (46080000)
I0321 00:10:50.193429  5826 net.cpp:165] Memory required for data: 5345280128
I0321 00:10:50.193435  5826 layer_factory.hpp:77] Creating layer conv3_2
I0321 00:10:50.193452  5826 net.cpp:100] Creating Layer conv3_2
I0321 00:10:50.193457  5826 net.cpp:434] conv3_2 <- conv3_1
I0321 00:10:50.193469  5826 net.cpp:408] conv3_2 -> conv3_2
I0321 00:10:50.198659  5826 net.cpp:150] Setting up conv3_2
I0321 00:10:50.198689  5826 net.cpp:157] Top shape: 32 256 75 75 (46080000)
I0321 00:10:50.198694  5826 net.cpp:165] Memory required for data: 5529600128
I0321 00:10:50.198707  5826 layer_factory.hpp:77] Creating layer relu3_2
I0321 00:10:50.198719  5826 net.cpp:100] Creating Layer relu3_2
I0321 00:10:50.198726  5826 net.cpp:434] relu3_2 <- conv3_2
I0321 00:10:50.198736  5826 net.cpp:395] relu3_2 -> conv3_2 (in-place)
I0321 00:10:50.198948  5826 net.cpp:150] Setting up relu3_2
I0321 00:10:50.198971  5826 net.cpp:157] Top shape: 32 256 75 75 (46080000)
I0321 00:10:50.198977  5826 net.cpp:165] Memory required for data: 5713920128
I0321 00:10:50.198983  5826 layer_factory.hpp:77] Creating layer conv3_3
I0321 00:10:50.199005  5826 net.cpp:100] Creating Layer conv3_3
I0321 00:10:50.199012  5826 net.cpp:434] conv3_3 <- conv3_2
I0321 00:10:50.199021  5826 net.cpp:408] conv3_3 -> conv3_3
I0321 00:10:50.204205  5826 net.cpp:150] Setting up conv3_3
I0321 00:10:50.204234  5826 net.cpp:157] Top shape: 32 256 75 75 (46080000)
I0321 00:10:50.204238  5826 net.cpp:165] Memory required for data: 5898240128
I0321 00:10:50.204249  5826 layer_factory.hpp:77] Creating layer relu3_3
I0321 00:10:50.204258  5826 net.cpp:100] Creating Layer relu3_3
I0321 00:10:50.204264  5826 net.cpp:434] relu3_3 <- conv3_3
I0321 00:10:50.204275  5826 net.cpp:395] relu3_3 -> conv3_3 (in-place)
I0321 00:10:50.204957  5826 net.cpp:150] Setting up relu3_3
I0321 00:10:50.204970  5826 net.cpp:157] Top shape: 32 256 75 75 (46080000)
I0321 00:10:50.204977  5826 net.cpp:165] Memory required for data: 6082560128
I0321 00:10:50.204982  5826 layer_factory.hpp:77] Creating layer pool3
I0321 00:10:50.204991  5826 net.cpp:100] Creating Layer pool3
I0321 00:10:50.204996  5826 net.cpp:434] pool3 <- conv3_3
I0321 00:10:50.205003  5826 net.cpp:408] pool3 -> pool3
I0321 00:10:50.205045  5826 net.cpp:150] Setting up pool3
I0321 00:10:50.205054  5826 net.cpp:157] Top shape: 32 256 38 38 (11829248)
I0321 00:10:50.205056  5826 net.cpp:165] Memory required for data: 6129877120
I0321 00:10:50.205061  5826 layer_factory.hpp:77] Creating layer conv4_1
I0321 00:10:50.205075  5826 net.cpp:100] Creating Layer conv4_1
I0321 00:10:50.205080  5826 net.cpp:434] conv4_1 <- pool3
I0321 00:10:50.205087  5826 net.cpp:408] conv4_1 -> conv4_1
I0321 00:10:50.214112  5826 net.cpp:150] Setting up conv4_1
I0321 00:10:50.214138  5826 net.cpp:157] Top shape: 32 512 38 38 (23658496)
I0321 00:10:50.214141  5826 net.cpp:165] Memory required for data: 6224511104
I0321 00:10:50.214151  5826 layer_factory.hpp:77] Creating layer relu4_1
I0321 00:10:50.214165  5826 net.cpp:100] Creating Layer relu4_1
I0321 00:10:50.214172  5826 net.cpp:434] relu4_1 <- conv4_1
I0321 00:10:50.214180  5826 net.cpp:395] relu4_1 -> conv4_1 (in-place)
I0321 00:10:50.214385  5826 net.cpp:150] Setting up relu4_1
I0321 00:10:50.214398  5826 net.cpp:157] Top shape: 32 512 38 38 (23658496)
I0321 00:10:50.214402  5826 net.cpp:165] Memory required for data: 6319145088
I0321 00:10:50.214408  5826 layer_factory.hpp:77] Creating layer conv4_2
I0321 00:10:50.214426  5826 net.cpp:100] Creating Layer conv4_2
I0321 00:10:50.214434  5826 net.cpp:434] conv4_2 <- conv4_1
I0321 00:10:50.214442  5826 net.cpp:408] conv4_2 -> conv4_2
I0321 00:10:50.228505  5826 net.cpp:150] Setting up conv4_2
I0321 00:10:50.228530  5826 net.cpp:157] Top shape: 32 512 38 38 (23658496)
I0321 00:10:50.228534  5826 net.cpp:165] Memory required for data: 6413779072
I0321 00:10:50.228547  5826 layer_factory.hpp:77] Creating layer relu4_2
I0321 00:10:50.228559  5826 net.cpp:100] Creating Layer relu4_2
I0321 00:10:50.228564  5826 net.cpp:434] relu4_2 <- conv4_2
I0321 00:10:50.228571  5826 net.cpp:395] relu4_2 -> conv4_2 (in-place)
I0321 00:10:50.228778  5826 net.cpp:150] Setting up relu4_2
I0321 00:10:50.228794  5826 net.cpp:157] Top shape: 32 512 38 38 (23658496)
I0321 00:10:50.228799  5826 net.cpp:165] Memory required for data: 6508413056
I0321 00:10:50.228808  5826 layer_factory.hpp:77] Creating layer conv4_3
I0321 00:10:50.228824  5826 net.cpp:100] Creating Layer conv4_3
I0321 00:10:50.228830  5826 net.cpp:434] conv4_3 <- conv4_2
I0321 00:10:50.228837  5826 net.cpp:408] conv4_3 -> conv4_3
I0321 00:10:50.242769  5826 net.cpp:150] Setting up conv4_3
I0321 00:10:50.242795  5826 net.cpp:157] Top shape: 32 512 38 38 (23658496)
I0321 00:10:50.242800  5826 net.cpp:165] Memory required for data: 6603047040
I0321 00:10:50.242813  5826 layer_factory.hpp:77] Creating layer relu4_3
I0321 00:10:50.242827  5826 net.cpp:100] Creating Layer relu4_3
I0321 00:10:50.242847  5826 net.cpp:434] relu4_3 <- conv4_3
I0321 00:10:50.242857  5826 net.cpp:395] relu4_3 -> conv4_3 (in-place)
I0321 00:10:50.243029  5826 net.cpp:150] Setting up relu4_3
I0321 00:10:50.243041  5826 net.cpp:157] Top shape: 32 512 38 38 (23658496)
I0321 00:10:50.243044  5826 net.cpp:165] Memory required for data: 6697681024
I0321 00:10:50.243049  5826 layer_factory.hpp:77] Creating layer conv4_3_relu4_3_0_split
I0321 00:10:50.243060  5826 net.cpp:100] Creating Layer conv4_3_relu4_3_0_split
I0321 00:10:50.243067  5826 net.cpp:434] conv4_3_relu4_3_0_split <- conv4_3
I0321 00:10:50.243077  5826 net.cpp:408] conv4_3_relu4_3_0_split -> conv4_3_relu4_3_0_split_0
I0321 00:10:50.243088  5826 net.cpp:408] conv4_3_relu4_3_0_split -> conv4_3_relu4_3_0_split_1
I0321 00:10:50.243131  5826 net.cpp:150] Setting up conv4_3_relu4_3_0_split
I0321 00:10:50.243141  5826 net.cpp:157] Top shape: 32 512 38 38 (23658496)
I0321 00:10:50.243149  5826 net.cpp:157] Top shape: 32 512 38 38 (23658496)
I0321 00:10:50.243154  5826 net.cpp:165] Memory required for data: 6886948992
I0321 00:10:50.243158  5826 layer_factory.hpp:77] Creating layer pool4
I0321 00:10:50.243168  5826 net.cpp:100] Creating Layer pool4
I0321 00:10:50.243175  5826 net.cpp:434] pool4 <- conv4_3_relu4_3_0_split_0
I0321 00:10:50.243181  5826 net.cpp:408] pool4 -> pool4
I0321 00:10:50.243219  5826 net.cpp:150] Setting up pool4
I0321 00:10:50.243228  5826 net.cpp:157] Top shape: 32 512 19 19 (5914624)
I0321 00:10:50.243233  5826 net.cpp:165] Memory required for data: 6910607488
I0321 00:10:50.243238  5826 layer_factory.hpp:77] Creating layer conv5_1
I0321 00:10:50.243254  5826 net.cpp:100] Creating Layer conv5_1
I0321 00:10:50.243263  5826 net.cpp:434] conv5_1 <- pool4
I0321 00:10:50.243271  5826 net.cpp:408] conv5_1 -> conv5_1
I0321 00:10:50.257663  5826 net.cpp:150] Setting up conv5_1
I0321 00:10:50.257685  5826 net.cpp:157] Top shape: 32 512 19 19 (5914624)
I0321 00:10:50.257691  5826 net.cpp:165] Memory required for data: 6934265984
I0321 00:10:50.257702  5826 layer_factory.hpp:77] Creating layer relu5_1
I0321 00:10:50.257714  5826 net.cpp:100] Creating Layer relu5_1
I0321 00:10:50.257722  5826 net.cpp:434] relu5_1 <- conv5_1
I0321 00:10:50.257778  5826 net.cpp:395] relu5_1 -> conv5_1 (in-place)
I0321 00:10:50.258456  5826 net.cpp:150] Setting up relu5_1
I0321 00:10:50.258469  5826 net.cpp:157] Top shape: 32 512 19 19 (5914624)
I0321 00:10:50.258474  5826 net.cpp:165] Memory required for data: 6957924480
I0321 00:10:50.258481  5826 layer_factory.hpp:77] Creating layer conv5_2
I0321 00:10:50.258498  5826 net.cpp:100] Creating Layer conv5_2
I0321 00:10:50.258505  5826 net.cpp:434] conv5_2 <- conv5_1
I0321 00:10:50.258515  5826 net.cpp:408] conv5_2 -> conv5_2
I0321 00:10:50.272449  5826 net.cpp:150] Setting up conv5_2
I0321 00:10:50.272471  5826 net.cpp:157] Top shape: 32 512 19 19 (5914624)
I0321 00:10:50.272476  5826 net.cpp:165] Memory required for data: 6981582976
I0321 00:10:50.272487  5826 layer_factory.hpp:77] Creating layer relu5_2
I0321 00:10:50.272498  5826 net.cpp:100] Creating Layer relu5_2
I0321 00:10:50.272508  5826 net.cpp:434] relu5_2 <- conv5_2
I0321 00:10:50.272519  5826 net.cpp:395] relu5_2 -> conv5_2 (in-place)
I0321 00:10:50.272697  5826 net.cpp:150] Setting up relu5_2
I0321 00:10:50.272712  5826 net.cpp:157] Top shape: 32 512 19 19 (5914624)
I0321 00:10:50.272716  5826 net.cpp:165] Memory required for data: 7005241472
I0321 00:10:50.272722  5826 layer_factory.hpp:77] Creating layer conv5_3
I0321 00:10:50.272737  5826 net.cpp:100] Creating Layer conv5_3
I0321 00:10:50.272742  5826 net.cpp:434] conv5_3 <- conv5_2
I0321 00:10:50.272749  5826 net.cpp:408] conv5_3 -> conv5_3
I0321 00:10:50.286769  5826 net.cpp:150] Setting up conv5_3
I0321 00:10:50.286794  5826 net.cpp:157] Top shape: 32 512 19 19 (5914624)
I0321 00:10:50.286799  5826 net.cpp:165] Memory required for data: 7028899968
I0321 00:10:50.286809  5826 layer_factory.hpp:77] Creating layer relu5_3
I0321 00:10:50.286824  5826 net.cpp:100] Creating Layer relu5_3
I0321 00:10:50.286831  5826 net.cpp:434] relu5_3 <- conv5_3
I0321 00:10:50.286859  5826 net.cpp:395] relu5_3 -> conv5_3 (in-place)
I0321 00:10:50.287078  5826 net.cpp:150] Setting up relu5_3
I0321 00:10:50.287091  5826 net.cpp:157] Top shape: 32 512 19 19 (5914624)
I0321 00:10:50.287093  5826 net.cpp:165] Memory required for data: 7052558464
I0321 00:10:50.287099  5826 layer_factory.hpp:77] Creating layer pool5
I0321 00:10:50.287111  5826 net.cpp:100] Creating Layer pool5
I0321 00:10:50.287117  5826 net.cpp:434] pool5 <- conv5_3
I0321 00:10:50.287123  5826 net.cpp:408] pool5 -> pool5
I0321 00:10:50.287173  5826 net.cpp:150] Setting up pool5
I0321 00:10:50.287183  5826 net.cpp:157] Top shape: 32 512 19 19 (5914624)
I0321 00:10:50.287187  5826 net.cpp:165] Memory required for data: 7076216960
I0321 00:10:50.287191  5826 layer_factory.hpp:77] Creating layer fc6_depthwise
I0321 00:10:50.287201  5826 net.cpp:100] Creating Layer fc6_depthwise
I0321 00:10:50.287205  5826 net.cpp:434] fc6_depthwise <- pool5
I0321 00:10:50.287212  5826 net.cpp:408] fc6_depthwise -> fc6_3x3
I0321 00:10:50.287514  5826 net.cpp:150] Setting up fc6_depthwise
I0321 00:10:50.287528  5826 net.cpp:157] Top shape: 32 512 19 19 (5914624)
I0321 00:10:50.287531  5826 net.cpp:165] Memory required for data: 7099875456
I0321 00:10:50.287540  5826 layer_factory.hpp:77] Creating layer fc6_3x3_relu
I0321 00:10:50.287546  5826 net.cpp:100] Creating Layer fc6_3x3_relu
I0321 00:10:50.287551  5826 net.cpp:434] fc6_3x3_relu <- fc6_3x3
I0321 00:10:50.287557  5826 net.cpp:395] fc6_3x3_relu -> fc6_3x3 (in-place)
I0321 00:10:50.288269  5826 net.cpp:150] Setting up fc6_3x3_relu
I0321 00:10:50.288282  5826 net.cpp:157] Top shape: 32 512 19 19 (5914624)
I0321 00:10:50.288287  5826 net.cpp:165] Memory required for data: 7123533952
I0321 00:10:50.288291  5826 layer_factory.hpp:77] Creating layer fc6_1x1
I0321 00:10:50.288305  5826 net.cpp:100] Creating Layer fc6_1x1
I0321 00:10:50.288311  5826 net.cpp:434] fc6_1x1 <- fc6_3x3
I0321 00:10:50.288317  5826 net.cpp:408] fc6_1x1 -> fc6
I0321 00:10:50.291538  5826 net.cpp:150] Setting up fc6_1x1
I0321 00:10:50.291558  5826 net.cpp:157] Top shape: 32 1024 19 19 (11829248)
I0321 00:10:50.291560  5826 net.cpp:165] Memory required for data: 7170850944
I0321 00:10:50.291570  5826 layer_factory.hpp:77] Creating layer relu6
I0321 00:10:50.291581  5826 net.cpp:100] Creating Layer relu6
I0321 00:10:50.291586  5826 net.cpp:434] relu6 <- fc6
I0321 00:10:50.291594  5826 net.cpp:395] relu6 -> fc6 (in-place)
I0321 00:10:50.291826  5826 net.cpp:150] Setting up relu6
I0321 00:10:50.291838  5826 net.cpp:157] Top shape: 32 1024 19 19 (11829248)
I0321 00:10:50.291841  5826 net.cpp:165] Memory required for data: 7218167936
I0321 00:10:50.291846  5826 layer_factory.hpp:77] Creating layer fc7
I0321 00:10:50.291860  5826 net.cpp:100] Creating Layer fc7
I0321 00:10:50.291869  5826 net.cpp:434] fc7 <- fc6
I0321 00:10:50.291883  5826 net.cpp:408] fc7 -> fc7
I0321 00:10:50.299036  5826 net.cpp:150] Setting up fc7
I0321 00:10:50.299060  5826 net.cpp:157] Top shape: 32 1024 19 19 (11829248)
I0321 00:10:50.299064  5826 net.cpp:165] Memory required for data: 7265484928
I0321 00:10:50.299073  5826 layer_factory.hpp:77] Creating layer relu7
I0321 00:10:50.299082  5826 net.cpp:100] Creating Layer relu7
I0321 00:10:50.299088  5826 net.cpp:434] relu7 <- fc7
I0321 00:10:50.299095  5826 net.cpp:395] relu7 -> fc7 (in-place)
I0321 00:10:50.299278  5826 net.cpp:150] Setting up relu7
I0321 00:10:50.299293  5826 net.cpp:157] Top shape: 32 1024 19 19 (11829248)
I0321 00:10:50.299299  5826 net.cpp:165] Memory required for data: 7312801920
I0321 00:10:50.299304  5826 layer_factory.hpp:77] Creating layer fc7_relu7_0_split
I0321 00:10:50.299311  5826 net.cpp:100] Creating Layer fc7_relu7_0_split
I0321 00:10:50.299320  5826 net.cpp:434] fc7_relu7_0_split <- fc7
I0321 00:10:50.299329  5826 net.cpp:408] fc7_relu7_0_split -> fc7_relu7_0_split_0
I0321 00:10:50.299340  5826 net.cpp:408] fc7_relu7_0_split -> fc7_relu7_0_split_1
I0321 00:10:50.299347  5826 net.cpp:408] fc7_relu7_0_split -> fc7_relu7_0_split_2
I0321 00:10:50.299368  5826 net.cpp:408] fc7_relu7_0_split -> fc7_relu7_0_split_3
I0321 00:10:50.299443  5826 net.cpp:150] Setting up fc7_relu7_0_split
I0321 00:10:50.299456  5826 net.cpp:157] Top shape: 32 1024 19 19 (11829248)
I0321 00:10:50.299463  5826 net.cpp:157] Top shape: 32 1024 19 19 (11829248)
I0321 00:10:50.299468  5826 net.cpp:157] Top shape: 32 1024 19 19 (11829248)
I0321 00:10:50.299475  5826 net.cpp:157] Top shape: 32 1024 19 19 (11829248)
I0321 00:10:50.299479  5826 net.cpp:165] Memory required for data: 7502069888
I0321 00:10:50.299485  5826 layer_factory.hpp:77] Creating layer conv6_1
I0321 00:10:50.299500  5826 net.cpp:100] Creating Layer conv6_1
I0321 00:10:50.299507  5826 net.cpp:434] conv6_1 <- fc7_relu7_0_split_0
I0321 00:10:50.299517  5826 net.cpp:408] conv6_1 -> conv6_1
I0321 00:10:50.303184  5826 net.cpp:150] Setting up conv6_1
I0321 00:10:50.303200  5826 net.cpp:157] Top shape: 32 256 19 19 (2957312)
I0321 00:10:50.303205  5826 net.cpp:165] Memory required for data: 7513899136
I0321 00:10:50.303217  5826 layer_factory.hpp:77] Creating layer conv6_1_relu
I0321 00:10:50.303225  5826 net.cpp:100] Creating Layer conv6_1_relu
I0321 00:10:50.303231  5826 net.cpp:434] conv6_1_relu <- conv6_1
I0321 00:10:50.303237  5826 net.cpp:395] conv6_1_relu -> conv6_1 (in-place)
I0321 00:10:50.303983  5826 net.cpp:150] Setting up conv6_1_relu
I0321 00:10:50.303997  5826 net.cpp:157] Top shape: 32 256 19 19 (2957312)
I0321 00:10:50.304002  5826 net.cpp:165] Memory required for data: 7525728384
I0321 00:10:50.304006  5826 layer_factory.hpp:77] Creating layer conv6_2
I0321 00:10:50.304018  5826 net.cpp:100] Creating Layer conv6_2
I0321 00:10:50.304023  5826 net.cpp:434] conv6_2 <- conv6_1
I0321 00:10:50.304030  5826 net.cpp:408] conv6_2 -> conv6_2
I0321 00:10:50.312105  5826 net.cpp:150] Setting up conv6_2
I0321 00:10:50.312132  5826 net.cpp:157] Top shape: 32 512 10 10 (1638400)
I0321 00:10:50.312136  5826 net.cpp:165] Memory required for data: 7532281984
I0321 00:10:50.312149  5826 layer_factory.hpp:77] Creating layer conv6_2_relu
I0321 00:10:50.312163  5826 net.cpp:100] Creating Layer conv6_2_relu
I0321 00:10:50.312171  5826 net.cpp:434] conv6_2_relu <- conv6_2
I0321 00:10:50.312186  5826 net.cpp:395] conv6_2_relu -> conv6_2 (in-place)
I0321 00:10:50.312435  5826 net.cpp:150] Setting up conv6_2_relu
I0321 00:10:50.312471  5826 net.cpp:157] Top shape: 32 512 10 10 (1638400)
I0321 00:10:50.312489  5826 net.cpp:165] Memory required for data: 7538835584
I0321 00:10:50.312516  5826 layer_factory.hpp:77] Creating layer conv6_2_conv6_2_relu_0_split
I0321 00:10:50.312546  5826 net.cpp:100] Creating Layer conv6_2_conv6_2_relu_0_split
I0321 00:10:50.312567  5826 net.cpp:434] conv6_2_conv6_2_relu_0_split <- conv6_2
I0321 00:10:50.312592  5826 net.cpp:408] conv6_2_conv6_2_relu_0_split -> conv6_2_conv6_2_relu_0_split_0
I0321 00:10:50.312623  5826 net.cpp:408] conv6_2_conv6_2_relu_0_split -> conv6_2_conv6_2_relu_0_split_1
I0321 00:10:50.312659  5826 net.cpp:408] conv6_2_conv6_2_relu_0_split -> conv6_2_conv6_2_relu_0_split_2
I0321 00:10:50.312686  5826 net.cpp:408] conv6_2_conv6_2_relu_0_split -> conv6_2_conv6_2_relu_0_split_3
I0321 00:10:50.312819  5826 net.cpp:150] Setting up conv6_2_conv6_2_relu_0_split
I0321 00:10:50.312849  5826 net.cpp:157] Top shape: 32 512 10 10 (1638400)
I0321 00:10:50.312876  5826 net.cpp:157] Top shape: 32 512 10 10 (1638400)
I0321 00:10:50.312898  5826 net.cpp:157] Top shape: 32 512 10 10 (1638400)
I0321 00:10:50.312927  5826 net.cpp:157] Top shape: 32 512 10 10 (1638400)
I0321 00:10:50.312945  5826 net.cpp:165] Memory required for data: 7565049984
I0321 00:10:50.312973  5826 layer_factory.hpp:77] Creating layer conv7_1
I0321 00:10:50.313009  5826 net.cpp:100] Creating Layer conv7_1
I0321 00:10:50.313030  5826 net.cpp:434] conv7_1 <- conv6_2_conv6_2_relu_0_split_0
I0321 00:10:50.313061  5826 net.cpp:408] conv7_1 -> conv7_1
I0321 00:10:50.315083  5826 net.cpp:150] Setting up conv7_1
I0321 00:10:50.315115  5826 net.cpp:157] Top shape: 32 128 10 10 (409600)
I0321 00:10:50.315120  5826 net.cpp:165] Memory required for data: 7566688384
I0321 00:10:50.315162  5826 layer_factory.hpp:77] Creating layer conv7_1_relu
I0321 00:10:50.315199  5826 net.cpp:100] Creating Layer conv7_1_relu
I0321 00:10:50.315222  5826 net.cpp:434] conv7_1_relu <- conv7_1
I0321 00:10:50.315248  5826 net.cpp:395] conv7_1_relu -> conv7_1 (in-place)
I0321 00:10:50.315546  5826 net.cpp:150] Setting up conv7_1_relu
I0321 00:10:50.315577  5826 net.cpp:157] Top shape: 32 128 10 10 (409600)
I0321 00:10:50.315605  5826 net.cpp:165] Memory required for data: 7568326784
I0321 00:10:50.315634  5826 layer_factory.hpp:77] Creating layer conv7_2
I0321 00:10:50.315675  5826 net.cpp:100] Creating Layer conv7_2
I0321 00:10:50.315702  5826 net.cpp:434] conv7_2 <- conv7_1
I0321 00:10:50.315734  5826 net.cpp:408] conv7_2 -> conv7_2
I0321 00:10:50.320044  5826 net.cpp:150] Setting up conv7_2
I0321 00:10:50.320103  5826 net.cpp:157] Top shape: 32 256 5 5 (204800)
I0321 00:10:50.320109  5826 net.cpp:165] Memory required for data: 7569145984
I0321 00:10:50.320130  5826 layer_factory.hpp:77] Creating layer conv7_2_relu
I0321 00:10:50.320152  5826 net.cpp:100] Creating Layer conv7_2_relu
I0321 00:10:50.320163  5826 net.cpp:434] conv7_2_relu <- conv7_2
I0321 00:10:50.320183  5826 net.cpp:395] conv7_2_relu -> conv7_2 (in-place)
I0321 00:10:50.320613  5826 net.cpp:150] Setting up conv7_2_relu
I0321 00:10:50.320684  5826 net.cpp:157] Top shape: 32 256 5 5 (204800)
I0321 00:10:50.320714  5826 net.cpp:165] Memory required for data: 7569965184
I0321 00:10:50.320744  5826 layer_factory.hpp:77] Creating layer conv7_2_conv7_2_relu_0_split
I0321 00:10:50.320780  5826 net.cpp:100] Creating Layer conv7_2_conv7_2_relu_0_split
I0321 00:10:50.320804  5826 net.cpp:434] conv7_2_conv7_2_relu_0_split <- conv7_2
I0321 00:10:50.320838  5826 net.cpp:408] conv7_2_conv7_2_relu_0_split -> conv7_2_conv7_2_relu_0_split_0
I0321 00:10:50.320874  5826 net.cpp:408] conv7_2_conv7_2_relu_0_split -> conv7_2_conv7_2_relu_0_split_1
I0321 00:10:50.320906  5826 net.cpp:408] conv7_2_conv7_2_relu_0_split -> conv7_2_conv7_2_relu_0_split_2
I0321 00:10:50.320945  5826 net.cpp:408] conv7_2_conv7_2_relu_0_split -> conv7_2_conv7_2_relu_0_split_3
I0321 00:10:50.321126  5826 net.cpp:150] Setting up conv7_2_conv7_2_relu_0_split
I0321 00:10:50.321141  5826 net.cpp:157] Top shape: 32 256 5 5 (204800)
I0321 00:10:50.321149  5826 net.cpp:157] Top shape: 32 256 5 5 (204800)
I0321 00:10:50.321156  5826 net.cpp:157] Top shape: 32 256 5 5 (204800)
I0321 00:10:50.321161  5826 net.cpp:157] Top shape: 32 256 5 5 (204800)
I0321 00:10:50.321166  5826 net.cpp:165] Memory required for data: 7573241984
I0321 00:10:50.321173  5826 layer_factory.hpp:77] Creating layer conv8_1
I0321 00:10:50.321194  5826 net.cpp:100] Creating Layer conv8_1
I0321 00:10:50.321220  5826 net.cpp:434] conv8_1 <- conv7_2_conv7_2_relu_0_split_0
I0321 00:10:50.321247  5826 net.cpp:408] conv8_1 -> conv8_1
I0321 00:10:50.323263  5826 net.cpp:150] Setting up conv8_1
I0321 00:10:50.323318  5826 net.cpp:157] Top shape: 32 128 5 5 (102400)
I0321 00:10:50.323324  5826 net.cpp:165] Memory required for data: 7573651584
I0321 00:10:50.323341  5826 layer_factory.hpp:77] Creating layer conv8_1_relu
I0321 00:10:50.323360  5826 net.cpp:100] Creating Layer conv8_1_relu
I0321 00:10:50.323370  5826 net.cpp:434] conv8_1_relu <- conv8_1
I0321 00:10:50.323385  5826 net.cpp:395] conv8_1_relu -> conv8_1 (in-place)
I0321 00:10:50.324441  5826 net.cpp:150] Setting up conv8_1_relu
I0321 00:10:50.324473  5826 net.cpp:157] Top shape: 32 128 5 5 (102400)
I0321 00:10:50.324478  5826 net.cpp:165] Memory required for data: 7574061184
I0321 00:10:50.324486  5826 layer_factory.hpp:77] Creating layer conv8_2
I0321 00:10:50.324510  5826 net.cpp:100] Creating Layer conv8_2
I0321 00:10:50.324543  5826 net.cpp:434] conv8_2 <- conv8_1
I0321 00:10:50.324580  5826 net.cpp:408] conv8_2 -> conv8_2
I0321 00:10:50.329102  5826 net.cpp:150] Setting up conv8_2
I0321 00:10:50.329167  5826 net.cpp:157] Top shape: 32 256 3 3 (73728)
I0321 00:10:50.329188  5826 net.cpp:165] Memory required for data: 7574356096
I0321 00:10:50.329236  5826 layer_factory.hpp:77] Creating layer conv8_2_relu
I0321 00:10:50.329262  5826 net.cpp:100] Creating Layer conv8_2_relu
I0321 00:10:50.329283  5826 net.cpp:434] conv8_2_relu <- conv8_2
I0321 00:10:50.329311  5826 net.cpp:395] conv8_2_relu -> conv8_2 (in-place)
I0321 00:10:50.329677  5826 net.cpp:150] Setting up conv8_2_relu
I0321 00:10:50.329749  5826 net.cpp:157] Top shape: 32 256 3 3 (73728)
I0321 00:10:50.329784  5826 net.cpp:165] Memory required for data: 7574651008
I0321 00:10:50.329820  5826 layer_factory.hpp:77] Creating layer conv8_2_conv8_2_relu_0_split
I0321 00:10:50.329860  5826 net.cpp:100] Creating Layer conv8_2_conv8_2_relu_0_split
I0321 00:10:50.329897  5826 net.cpp:434] conv8_2_conv8_2_relu_0_split <- conv8_2
I0321 00:10:50.329942  5826 net.cpp:408] conv8_2_conv8_2_relu_0_split -> conv8_2_conv8_2_relu_0_split_0
I0321 00:10:50.329984  5826 net.cpp:408] conv8_2_conv8_2_relu_0_split -> conv8_2_conv8_2_relu_0_split_1
I0321 00:10:50.330021  5826 net.cpp:408] conv8_2_conv8_2_relu_0_split -> conv8_2_conv8_2_relu_0_split_2
I0321 00:10:50.330063  5826 net.cpp:408] conv8_2_conv8_2_relu_0_split -> conv8_2_conv8_2_relu_0_split_3
I0321 00:10:50.330286  5826 net.cpp:150] Setting up conv8_2_conv8_2_relu_0_split
I0321 00:10:50.330322  5826 net.cpp:157] Top shape: 32 256 3 3 (73728)
I0321 00:10:50.330351  5826 net.cpp:157] Top shape: 32 256 3 3 (73728)
I0321 00:10:50.330380  5826 net.cpp:157] Top shape: 32 256 3 3 (73728)
I0321 00:10:50.330411  5826 net.cpp:157] Top shape: 32 256 3 3 (73728)
I0321 00:10:50.330441  5826 net.cpp:165] Memory required for data: 7575830656
I0321 00:10:50.330468  5826 layer_factory.hpp:77] Creating layer conv9_1
I0321 00:10:50.330500  5826 net.cpp:100] Creating Layer conv9_1
I0321 00:10:50.330523  5826 net.cpp:434] conv9_1 <- conv8_2_conv8_2_relu_0_split_0
I0321 00:10:50.330577  5826 net.cpp:408] conv9_1 -> conv9_1
I0321 00:10:50.333324  5826 net.cpp:150] Setting up conv9_1
I0321 00:10:50.333395  5826 net.cpp:157] Top shape: 32 128 3 3 (36864)
I0321 00:10:50.333417  5826 net.cpp:165] Memory required for data: 7575978112
I0321 00:10:50.333446  5826 layer_factory.hpp:77] Creating layer conv9_1_relu
I0321 00:10:50.333473  5826 net.cpp:100] Creating Layer conv9_1_relu
I0321 00:10:50.333495  5826 net.cpp:434] conv9_1_relu <- conv9_1
I0321 00:10:50.333518  5826 net.cpp:395] conv9_1_relu -> conv9_1 (in-place)
I0321 00:10:50.333779  5826 net.cpp:150] Setting up conv9_1_relu
I0321 00:10:50.333814  5826 net.cpp:157] Top shape: 32 128 3 3 (36864)
I0321 00:10:50.333839  5826 net.cpp:165] Memory required for data: 7576125568
I0321 00:10:50.333858  5826 layer_factory.hpp:77] Creating layer conv9_2
I0321 00:10:50.333889  5826 net.cpp:100] Creating Layer conv9_2
I0321 00:10:50.333909  5826 net.cpp:434] conv9_2 <- conv9_1
I0321 00:10:50.333933  5826 net.cpp:408] conv9_2 -> conv9_2
I0321 00:10:50.340209  5826 net.cpp:150] Setting up conv9_2
I0321 00:10:50.340258  5826 net.cpp:157] Top shape: 32 256 1 1 (8192)
I0321 00:10:50.340281  5826 net.cpp:165] Memory required for data: 7576158336
I0321 00:10:50.340304  5826 layer_factory.hpp:77] Creating layer conv9_2_relu
I0321 00:10:50.340329  5826 net.cpp:100] Creating Layer conv9_2_relu
I0321 00:10:50.340351  5826 net.cpp:434] conv9_2_relu <- conv9_2
I0321 00:10:50.340373  5826 net.cpp:395] conv9_2_relu -> conv9_2 (in-place)
I0321 00:10:50.341361  5826 net.cpp:150] Setting up conv9_2_relu
I0321 00:10:50.341393  5826 net.cpp:157] Top shape: 32 256 1 1 (8192)
I0321 00:10:50.341414  5826 net.cpp:165] Memory required for data: 7576191104
I0321 00:10:50.341434  5826 layer_factory.hpp:77] Creating layer conv9_2_conv9_2_relu_0_split
I0321 00:10:50.341459  5826 net.cpp:100] Creating Layer conv9_2_conv9_2_relu_0_split
I0321 00:10:50.341478  5826 net.cpp:434] conv9_2_conv9_2_relu_0_split <- conv9_2
I0321 00:10:50.341502  5826 net.cpp:408] conv9_2_conv9_2_relu_0_split -> conv9_2_conv9_2_relu_0_split_0
I0321 00:10:50.341528  5826 net.cpp:408] conv9_2_conv9_2_relu_0_split -> conv9_2_conv9_2_relu_0_split_1
I0321 00:10:50.341565  5826 net.cpp:408] conv9_2_conv9_2_relu_0_split -> conv9_2_conv9_2_relu_0_split_2
I0321 00:10:50.341676  5826 net.cpp:150] Setting up conv9_2_conv9_2_relu_0_split
I0321 00:10:50.341702  5826 net.cpp:157] Top shape: 32 256 1 1 (8192)
I0321 00:10:50.341723  5826 net.cpp:157] Top shape: 32 256 1 1 (8192)
I0321 00:10:50.341763  5826 net.cpp:157] Top shape: 32 256 1 1 (8192)
I0321 00:10:50.341780  5826 net.cpp:165] Memory required for data: 7576289408
I0321 00:10:50.341800  5826 layer_factory.hpp:77] Creating layer conv4_3_norm
I0321 00:10:50.341827  5826 net.cpp:100] Creating Layer conv4_3_norm
I0321 00:10:50.341848  5826 net.cpp:434] conv4_3_norm <- conv4_3_relu4_3_0_split_1
I0321 00:10:50.341871  5826 net.cpp:408] conv4_3_norm -> conv4_3_norm
I0321 00:10:50.342137  5826 net.cpp:150] Setting up conv4_3_norm
I0321 00:10:50.342164  5826 net.cpp:157] Top shape: 32 512 38 38 (23658496)
I0321 00:10:50.342185  5826 net.cpp:165] Memory required for data: 7670923392
I0321 00:10:50.342206  5826 layer_factory.hpp:77] Creating layer conv4_3_norm_conv4_3_norm_0_split
I0321 00:10:50.342227  5826 net.cpp:100] Creating Layer conv4_3_norm_conv4_3_norm_0_split
I0321 00:10:50.342247  5826 net.cpp:434] conv4_3_norm_conv4_3_norm_0_split <- conv4_3_norm
I0321 00:10:50.342272  5826 net.cpp:408] conv4_3_norm_conv4_3_norm_0_split -> conv4_3_norm_conv4_3_norm_0_split_0
I0321 00:10:50.342296  5826 net.cpp:408] conv4_3_norm_conv4_3_norm_0_split -> conv4_3_norm_conv4_3_norm_0_split_1
I0321 00:10:50.342321  5826 net.cpp:408] conv4_3_norm_conv4_3_norm_0_split -> conv4_3_norm_conv4_3_norm_0_split_2
I0321 00:10:50.342411  5826 net.cpp:150] Setting up conv4_3_norm_conv4_3_norm_0_split
I0321 00:10:50.342435  5826 net.cpp:157] Top shape: 32 512 38 38 (23658496)
I0321 00:10:50.342456  5826 net.cpp:157] Top shape: 32 512 38 38 (23658496)
I0321 00:10:50.342478  5826 net.cpp:157] Top shape: 32 512 38 38 (23658496)
I0321 00:10:50.342494  5826 net.cpp:165] Memory required for data: 7954825344
I0321 00:10:50.342514  5826 layer_factory.hpp:77] Creating layer conv4_3_norm_mbox_loc
I0321 00:10:50.342542  5826 net.cpp:100] Creating Layer conv4_3_norm_mbox_loc
I0321 00:10:50.342563  5826 net.cpp:434] conv4_3_norm_mbox_loc <- conv4_3_norm_conv4_3_norm_0_split_0
I0321 00:10:50.342589  5826 net.cpp:408] conv4_3_norm_mbox_loc -> conv4_3_norm_mbox_loc
I0321 00:10:50.345820  5826 net.cpp:150] Setting up conv4_3_norm_mbox_loc
I0321 00:10:50.345855  5826 net.cpp:157] Top shape: 32 16 38 38 (739328)
I0321 00:10:50.345876  5826 net.cpp:165] Memory required for data: 7957782656
I0321 00:10:50.345901  5826 layer_factory.hpp:77] Creating layer conv4_3_norm_mbox_loc_perm
I0321 00:10:50.345938  5826 net.cpp:100] Creating Layer conv4_3_norm_mbox_loc_perm
I0321 00:10:50.345962  5826 net.cpp:434] conv4_3_norm_mbox_loc_perm <- conv4_3_norm_mbox_loc
I0321 00:10:50.345985  5826 net.cpp:408] conv4_3_norm_mbox_loc_perm -> conv4_3_norm_mbox_loc_perm
I0321 00:10:50.346184  5826 net.cpp:150] Setting up conv4_3_norm_mbox_loc_perm
I0321 00:10:50.346211  5826 net.cpp:157] Top shape: 32 38 38 16 (739328)
I0321 00:10:50.346230  5826 net.cpp:165] Memory required for data: 7960739968
I0321 00:10:50.346251  5826 layer_factory.hpp:77] Creating layer conv4_3_norm_mbox_loc_flat
I0321 00:10:50.346276  5826 net.cpp:100] Creating Layer conv4_3_norm_mbox_loc_flat
I0321 00:10:50.346295  5826 net.cpp:434] conv4_3_norm_mbox_loc_flat <- conv4_3_norm_mbox_loc_perm
I0321 00:10:50.346318  5826 net.cpp:408] conv4_3_norm_mbox_loc_flat -> conv4_3_norm_mbox_loc_flat
I0321 00:10:50.346376  5826 net.cpp:150] Setting up conv4_3_norm_mbox_loc_flat
I0321 00:10:50.346401  5826 net.cpp:157] Top shape: 32 23104 (739328)
I0321 00:10:50.346421  5826 net.cpp:165] Memory required for data: 7963697280
I0321 00:10:50.346439  5826 layer_factory.hpp:77] Creating layer conv4_3_norm_mbox_conf
I0321 00:10:50.346469  5826 net.cpp:100] Creating Layer conv4_3_norm_mbox_conf
I0321 00:10:50.346490  5826 net.cpp:434] conv4_3_norm_mbox_conf <- conv4_3_norm_conv4_3_norm_0_split_1
I0321 00:10:50.346513  5826 net.cpp:408] conv4_3_norm_mbox_conf -> conv4_3_norm_mbox_conf
I0321 00:10:50.350890  5826 net.cpp:150] Setting up conv4_3_norm_mbox_conf
I0321 00:10:50.350944  5826 net.cpp:157] Top shape: 32 44 38 38 (2033152)
I0321 00:10:50.350966  5826 net.cpp:165] Memory required for data: 7971829888
I0321 00:10:50.350988  5826 layer_factory.hpp:77] Creating layer conv4_3_norm_mbox_conf_perm
I0321 00:10:50.351013  5826 net.cpp:100] Creating Layer conv4_3_norm_mbox_conf_perm
I0321 00:10:50.351035  5826 net.cpp:434] conv4_3_norm_mbox_conf_perm <- conv4_3_norm_mbox_conf
I0321 00:10:50.351060  5826 net.cpp:408] conv4_3_norm_mbox_conf_perm -> conv4_3_norm_mbox_conf_perm
I0321 00:10:50.351241  5826 net.cpp:150] Setting up conv4_3_norm_mbox_conf_perm
I0321 00:10:50.351267  5826 net.cpp:157] Top shape: 32 38 38 44 (2033152)
I0321 00:10:50.351286  5826 net.cpp:165] Memory required for data: 7979962496
I0321 00:10:50.351305  5826 layer_factory.hpp:77] Creating layer conv4_3_norm_mbox_conf_flat
I0321 00:10:50.351327  5826 net.cpp:100] Creating Layer conv4_3_norm_mbox_conf_flat
I0321 00:10:50.351348  5826 net.cpp:434] conv4_3_norm_mbox_conf_flat <- conv4_3_norm_mbox_conf_perm
I0321 00:10:50.351374  5826 net.cpp:408] conv4_3_norm_mbox_conf_flat -> conv4_3_norm_mbox_conf_flat
I0321 00:10:50.351433  5826 net.cpp:150] Setting up conv4_3_norm_mbox_conf_flat
I0321 00:10:50.351459  5826 net.cpp:157] Top shape: 32 63536 (2033152)
I0321 00:10:50.351477  5826 net.cpp:165] Memory required for data: 7988095104
I0321 00:10:50.351497  5826 layer_factory.hpp:77] Creating layer conv4_3_norm_mbox_priorbox
I0321 00:10:50.351521  5826 net.cpp:100] Creating Layer conv4_3_norm_mbox_priorbox
I0321 00:10:50.351541  5826 net.cpp:434] conv4_3_norm_mbox_priorbox <- conv4_3_norm_conv4_3_norm_0_split_2
I0321 00:10:50.351563  5826 net.cpp:434] conv4_3_norm_mbox_priorbox <- data_data_0_split_1
I0321 00:10:50.351590  5826 net.cpp:408] conv4_3_norm_mbox_priorbox -> conv4_3_norm_mbox_priorbox
I0321 00:10:50.351653  5826 net.cpp:150] Setting up conv4_3_norm_mbox_priorbox
I0321 00:10:50.351678  5826 net.cpp:157] Top shape: 1 2 23104 (46208)
I0321 00:10:50.351697  5826 net.cpp:165] Memory required for data: 7988279936
I0321 00:10:50.351717  5826 layer_factory.hpp:77] Creating layer fc7_mbox_loc
I0321 00:10:50.351752  5826 net.cpp:100] Creating Layer fc7_mbox_loc
I0321 00:10:50.351773  5826 net.cpp:434] fc7_mbox_loc <- fc7_relu7_0_split_1
I0321 00:10:50.351797  5826 net.cpp:408] fc7_mbox_loc -> fc7_mbox_loc
I0321 00:10:50.356323  5826 net.cpp:150] Setting up fc7_mbox_loc
I0321 00:10:50.356361  5826 net.cpp:157] Top shape: 32 24 19 19 (277248)
I0321 00:10:50.356384  5826 net.cpp:165] Memory required for data: 7989388928
I0321 00:10:50.356406  5826 layer_factory.hpp:77] Creating layer fc7_mbox_loc_perm
I0321 00:10:50.356436  5826 net.cpp:100] Creating Layer fc7_mbox_loc_perm
I0321 00:10:50.356459  5826 net.cpp:434] fc7_mbox_loc_perm <- fc7_mbox_loc
I0321 00:10:50.356482  5826 net.cpp:408] fc7_mbox_loc_perm -> fc7_mbox_loc_perm
I0321 00:10:50.356679  5826 net.cpp:150] Setting up fc7_mbox_loc_perm
I0321 00:10:50.356711  5826 net.cpp:157] Top shape: 32 19 19 24 (277248)
I0321 00:10:50.356731  5826 net.cpp:165] Memory required for data: 7990497920
I0321 00:10:50.356753  5826 layer_factory.hpp:77] Creating layer fc7_mbox_loc_flat
I0321 00:10:50.356781  5826 net.cpp:100] Creating Layer fc7_mbox_loc_flat
I0321 00:10:50.356803  5826 net.cpp:434] fc7_mbox_loc_flat <- fc7_mbox_loc_perm
I0321 00:10:50.356827  5826 net.cpp:408] fc7_mbox_loc_flat -> fc7_mbox_loc_flat
I0321 00:10:50.356889  5826 net.cpp:150] Setting up fc7_mbox_loc_flat
I0321 00:10:50.356915  5826 net.cpp:157] Top shape: 32 8664 (277248)
I0321 00:10:50.356937  5826 net.cpp:165] Memory required for data: 7991606912
I0321 00:10:50.356958  5826 layer_factory.hpp:77] Creating layer fc7_mbox_conf
I0321 00:10:50.356988  5826 net.cpp:100] Creating Layer fc7_mbox_conf
I0321 00:10:50.357012  5826 net.cpp:434] fc7_mbox_conf <- fc7_relu7_0_split_2
I0321 00:10:50.357040  5826 net.cpp:408] fc7_mbox_conf -> fc7_mbox_conf
I0321 00:10:50.366211  5826 net.cpp:150] Setting up fc7_mbox_conf
I0321 00:10:50.366273  5826 net.cpp:157] Top shape: 32 66 19 19 (762432)
I0321 00:10:50.366307  5826 net.cpp:165] Memory required for data: 7994656640
I0321 00:10:50.366334  5826 layer_factory.hpp:77] Creating layer fc7_mbox_conf_perm
I0321 00:10:50.366364  5826 net.cpp:100] Creating Layer fc7_mbox_conf_perm
I0321 00:10:50.366386  5826 net.cpp:434] fc7_mbox_conf_perm <- fc7_mbox_conf
I0321 00:10:50.366411  5826 net.cpp:408] fc7_mbox_conf_perm -> fc7_mbox_conf_perm
I0321 00:10:50.366601  5826 net.cpp:150] Setting up fc7_mbox_conf_perm
I0321 00:10:50.366629  5826 net.cpp:157] Top shape: 32 19 19 66 (762432)
I0321 00:10:50.366648  5826 net.cpp:165] Memory required for data: 7997706368
I0321 00:10:50.366667  5826 layer_factory.hpp:77] Creating layer fc7_mbox_conf_flat
I0321 00:10:50.366694  5826 net.cpp:100] Creating Layer fc7_mbox_conf_flat
I0321 00:10:50.366714  5826 net.cpp:434] fc7_mbox_conf_flat <- fc7_mbox_conf_perm
I0321 00:10:50.366737  5826 net.cpp:408] fc7_mbox_conf_flat -> fc7_mbox_conf_flat
I0321 00:10:50.366793  5826 net.cpp:150] Setting up fc7_mbox_conf_flat
I0321 00:10:50.366819  5826 net.cpp:157] Top shape: 32 23826 (762432)
I0321 00:10:50.366829  5826 net.cpp:165] Memory required for data: 8000756096
I0321 00:10:50.366835  5826 layer_factory.hpp:77] Creating layer fc7_mbox_priorbox
I0321 00:10:50.366848  5826 net.cpp:100] Creating Layer fc7_mbox_priorbox
I0321 00:10:50.366860  5826 net.cpp:434] fc7_mbox_priorbox <- fc7_relu7_0_split_3
I0321 00:10:50.366868  5826 net.cpp:434] fc7_mbox_priorbox <- data_data_0_split_2
I0321 00:10:50.366878  5826 net.cpp:408] fc7_mbox_priorbox -> fc7_mbox_priorbox
I0321 00:10:50.366922  5826 net.cpp:150] Setting up fc7_mbox_priorbox
I0321 00:10:50.366935  5826 net.cpp:157] Top shape: 1 2 8664 (17328)
I0321 00:10:50.366943  5826 net.cpp:165] Memory required for data: 8000825408
I0321 00:10:50.366948  5826 layer_factory.hpp:77] Creating layer conv6_2_mbox_loc
I0321 00:10:50.366966  5826 net.cpp:100] Creating Layer conv6_2_mbox_loc
I0321 00:10:50.366976  5826 net.cpp:434] conv6_2_mbox_loc <- conv6_2_conv6_2_relu_0_split_1
I0321 00:10:50.366986  5826 net.cpp:408] conv6_2_mbox_loc -> conv6_2_mbox_loc
I0321 00:10:50.370565  5826 net.cpp:150] Setting up conv6_2_mbox_loc
I0321 00:10:50.370582  5826 net.cpp:157] Top shape: 32 24 10 10 (76800)
I0321 00:10:50.370589  5826 net.cpp:165] Memory required for data: 8001132608
I0321 00:10:50.370599  5826 layer_factory.hpp:77] Creating layer conv6_2_mbox_loc_perm
I0321 00:10:50.370611  5826 net.cpp:100] Creating Layer conv6_2_mbox_loc_perm
I0321 00:10:50.370620  5826 net.cpp:434] conv6_2_mbox_loc_perm <- conv6_2_mbox_loc
I0321 00:10:50.370633  5826 net.cpp:408] conv6_2_mbox_loc_perm -> conv6_2_mbox_loc_perm
I0321 00:10:50.370805  5826 net.cpp:150] Setting up conv6_2_mbox_loc_perm
I0321 00:10:50.370818  5826 net.cpp:157] Top shape: 32 10 10 24 (76800)
I0321 00:10:50.370823  5826 net.cpp:165] Memory required for data: 8001439808
I0321 00:10:50.370831  5826 layer_factory.hpp:77] Creating layer conv6_2_mbox_loc_flat
I0321 00:10:50.370842  5826 net.cpp:100] Creating Layer conv6_2_mbox_loc_flat
I0321 00:10:50.370851  5826 net.cpp:434] conv6_2_mbox_loc_flat <- conv6_2_mbox_loc_perm
I0321 00:10:50.370858  5826 net.cpp:408] conv6_2_mbox_loc_flat -> conv6_2_mbox_loc_flat
I0321 00:10:50.370896  5826 net.cpp:150] Setting up conv6_2_mbox_loc_flat
I0321 00:10:50.370908  5826 net.cpp:157] Top shape: 32 2400 (76800)
I0321 00:10:50.370913  5826 net.cpp:165] Memory required for data: 8001747008
I0321 00:10:50.370918  5826 layer_factory.hpp:77] Creating layer conv6_2_mbox_conf
I0321 00:10:50.370932  5826 net.cpp:100] Creating Layer conv6_2_mbox_conf
I0321 00:10:50.370941  5826 net.cpp:434] conv6_2_mbox_conf <- conv6_2_conv6_2_relu_0_split_2
I0321 00:10:50.370952  5826 net.cpp:408] conv6_2_mbox_conf -> conv6_2_mbox_conf
I0321 00:10:50.377285  5826 net.cpp:150] Setting up conv6_2_mbox_conf
I0321 00:10:50.377308  5826 net.cpp:157] Top shape: 32 66 10 10 (211200)
I0321 00:10:50.377313  5826 net.cpp:165] Memory required for data: 8002591808
I0321 00:10:50.377324  5826 layer_factory.hpp:77] Creating layer conv6_2_mbox_conf_perm
I0321 00:10:50.377358  5826 net.cpp:100] Creating Layer conv6_2_mbox_conf_perm
I0321 00:10:50.377369  5826 net.cpp:434] conv6_2_mbox_conf_perm <- conv6_2_mbox_conf
I0321 00:10:50.377377  5826 net.cpp:408] conv6_2_mbox_conf_perm -> conv6_2_mbox_conf_perm
I0321 00:10:50.377557  5826 net.cpp:150] Setting up conv6_2_mbox_conf_perm
I0321 00:10:50.377573  5826 net.cpp:157] Top shape: 32 10 10 66 (211200)
I0321 00:10:50.377579  5826 net.cpp:165] Memory required for data: 8003436608
I0321 00:10:50.377585  5826 layer_factory.hpp:77] Creating layer conv6_2_mbox_conf_flat
I0321 00:10:50.377594  5826 net.cpp:100] Creating Layer conv6_2_mbox_conf_flat
I0321 00:10:50.377604  5826 net.cpp:434] conv6_2_mbox_conf_flat <- conv6_2_mbox_conf_perm
I0321 00:10:50.377615  5826 net.cpp:408] conv6_2_mbox_conf_flat -> conv6_2_mbox_conf_flat
I0321 00:10:50.377660  5826 net.cpp:150] Setting up conv6_2_mbox_conf_flat
I0321 00:10:50.377672  5826 net.cpp:157] Top shape: 32 6600 (211200)
I0321 00:10:50.377677  5826 net.cpp:165] Memory required for data: 8004281408
I0321 00:10:50.377683  5826 layer_factory.hpp:77] Creating layer conv6_2_mbox_priorbox
I0321 00:10:50.377694  5826 net.cpp:100] Creating Layer conv6_2_mbox_priorbox
I0321 00:10:50.377703  5826 net.cpp:434] conv6_2_mbox_priorbox <- conv6_2_conv6_2_relu_0_split_3
I0321 00:10:50.377714  5826 net.cpp:434] conv6_2_mbox_priorbox <- data_data_0_split_3
I0321 00:10:50.377746  5826 net.cpp:408] conv6_2_mbox_priorbox -> conv6_2_mbox_priorbox
I0321 00:10:50.377797  5826 net.cpp:150] Setting up conv6_2_mbox_priorbox
I0321 00:10:50.377810  5826 net.cpp:157] Top shape: 1 2 2400 (4800)
I0321 00:10:50.377815  5826 net.cpp:165] Memory required for data: 8004300608
I0321 00:10:50.377821  5826 layer_factory.hpp:77] Creating layer conv7_2_mbox_loc
I0321 00:10:50.377837  5826 net.cpp:100] Creating Layer conv7_2_mbox_loc
I0321 00:10:50.377847  5826 net.cpp:434] conv7_2_mbox_loc <- conv7_2_conv7_2_relu_0_split_1
I0321 00:10:50.377862  5826 net.cpp:408] conv7_2_mbox_loc -> conv7_2_mbox_loc
I0321 00:10:50.380340  5826 net.cpp:150] Setting up conv7_2_mbox_loc
I0321 00:10:50.380358  5826 net.cpp:157] Top shape: 32 24 5 5 (19200)
I0321 00:10:50.380364  5826 net.cpp:165] Memory required for data: 8004377408
I0321 00:10:50.380375  5826 layer_factory.hpp:77] Creating layer conv7_2_mbox_loc_perm
I0321 00:10:50.380390  5826 net.cpp:100] Creating Layer conv7_2_mbox_loc_perm
I0321 00:10:50.380400  5826 net.cpp:434] conv7_2_mbox_loc_perm <- conv7_2_mbox_loc
I0321 00:10:50.380409  5826 net.cpp:408] conv7_2_mbox_loc_perm -> conv7_2_mbox_loc_perm
I0321 00:10:50.380574  5826 net.cpp:150] Setting up conv7_2_mbox_loc_perm
I0321 00:10:50.380587  5826 net.cpp:157] Top shape: 32 5 5 24 (19200)
I0321 00:10:50.380592  5826 net.cpp:165] Memory required for data: 8004454208
I0321 00:10:50.380599  5826 layer_factory.hpp:77] Creating layer conv7_2_mbox_loc_flat
I0321 00:10:50.380609  5826 net.cpp:100] Creating Layer conv7_2_mbox_loc_flat
I0321 00:10:50.380617  5826 net.cpp:434] conv7_2_mbox_loc_flat <- conv7_2_mbox_loc_perm
I0321 00:10:50.380625  5826 net.cpp:408] conv7_2_mbox_loc_flat -> conv7_2_mbox_loc_flat
I0321 00:10:50.380664  5826 net.cpp:150] Setting up conv7_2_mbox_loc_flat
I0321 00:10:50.380679  5826 net.cpp:157] Top shape: 32 600 (19200)
I0321 00:10:50.380686  5826 net.cpp:165] Memory required for data: 8004531008
I0321 00:10:50.380692  5826 layer_factory.hpp:77] Creating layer conv7_2_mbox_conf
I0321 00:10:50.380707  5826 net.cpp:100] Creating Layer conv7_2_mbox_conf
I0321 00:10:50.380717  5826 net.cpp:434] conv7_2_mbox_conf <- conv7_2_conv7_2_relu_0_split_2
I0321 00:10:50.380728  5826 net.cpp:408] conv7_2_mbox_conf -> conv7_2_mbox_conf
I0321 00:10:50.383929  5826 net.cpp:150] Setting up conv7_2_mbox_conf
I0321 00:10:50.383949  5826 net.cpp:157] Top shape: 32 66 5 5 (52800)
I0321 00:10:50.383955  5826 net.cpp:165] Memory required for data: 8004742208
I0321 00:10:50.383976  5826 layer_factory.hpp:77] Creating layer conv7_2_mbox_conf_perm
I0321 00:10:50.383991  5826 net.cpp:100] Creating Layer conv7_2_mbox_conf_perm
I0321 00:10:50.384013  5826 net.cpp:434] conv7_2_mbox_conf_perm <- conv7_2_mbox_conf
I0321 00:10:50.384024  5826 net.cpp:408] conv7_2_mbox_conf_perm -> conv7_2_mbox_conf_perm
I0321 00:10:50.384192  5826 net.cpp:150] Setting up conv7_2_mbox_conf_perm
I0321 00:10:50.384204  5826 net.cpp:157] Top shape: 32 5 5 66 (52800)
I0321 00:10:50.384210  5826 net.cpp:165] Memory required for data: 8004953408
I0321 00:10:50.384215  5826 layer_factory.hpp:77] Creating layer conv7_2_mbox_conf_flat
I0321 00:10:50.384228  5826 net.cpp:100] Creating Layer conv7_2_mbox_conf_flat
I0321 00:10:50.384238  5826 net.cpp:434] conv7_2_mbox_conf_flat <- conv7_2_mbox_conf_perm
I0321 00:10:50.384245  5826 net.cpp:408] conv7_2_mbox_conf_flat -> conv7_2_mbox_conf_flat
I0321 00:10:50.384284  5826 net.cpp:150] Setting up conv7_2_mbox_conf_flat
I0321 00:10:50.384294  5826 net.cpp:157] Top shape: 32 1650 (52800)
I0321 00:10:50.384299  5826 net.cpp:165] Memory required for data: 8005164608
I0321 00:10:50.384305  5826 layer_factory.hpp:77] Creating layer conv7_2_mbox_priorbox
I0321 00:10:50.384317  5826 net.cpp:100] Creating Layer conv7_2_mbox_priorbox
I0321 00:10:50.384326  5826 net.cpp:434] conv7_2_mbox_priorbox <- conv7_2_conv7_2_relu_0_split_3
I0321 00:10:50.384333  5826 net.cpp:434] conv7_2_mbox_priorbox <- data_data_0_split_4
I0321 00:10:50.384341  5826 net.cpp:408] conv7_2_mbox_priorbox -> conv7_2_mbox_priorbox
I0321 00:10:50.384383  5826 net.cpp:150] Setting up conv7_2_mbox_priorbox
I0321 00:10:50.384394  5826 net.cpp:157] Top shape: 1 2 600 (1200)
I0321 00:10:50.384399  5826 net.cpp:165] Memory required for data: 8005169408
I0321 00:10:50.384405  5826 layer_factory.hpp:77] Creating layer conv8_2_mbox_loc
I0321 00:10:50.384418  5826 net.cpp:100] Creating Layer conv8_2_mbox_loc
I0321 00:10:50.384426  5826 net.cpp:434] conv8_2_mbox_loc <- conv8_2_conv8_2_relu_0_split_1
I0321 00:10:50.384438  5826 net.cpp:408] conv8_2_mbox_loc -> conv8_2_mbox_loc
I0321 00:10:50.386683  5826 net.cpp:150] Setting up conv8_2_mbox_loc
I0321 00:10:50.386700  5826 net.cpp:157] Top shape: 32 16 3 3 (4608)
I0321 00:10:50.386708  5826 net.cpp:165] Memory required for data: 8005187840
I0321 00:10:50.386718  5826 layer_factory.hpp:77] Creating layer conv8_2_mbox_loc_perm
I0321 00:10:50.386732  5826 net.cpp:100] Creating Layer conv8_2_mbox_loc_perm
I0321 00:10:50.386741  5826 net.cpp:434] conv8_2_mbox_loc_perm <- conv8_2_mbox_loc
I0321 00:10:50.386751  5826 net.cpp:408] conv8_2_mbox_loc_perm -> conv8_2_mbox_loc_perm
I0321 00:10:50.386917  5826 net.cpp:150] Setting up conv8_2_mbox_loc_perm
I0321 00:10:50.386930  5826 net.cpp:157] Top shape: 32 3 3 16 (4608)
I0321 00:10:50.386935  5826 net.cpp:165] Memory required for data: 8005206272
I0321 00:10:50.386941  5826 layer_factory.hpp:77] Creating layer conv8_2_mbox_loc_flat
I0321 00:10:50.386951  5826 net.cpp:100] Creating Layer conv8_2_mbox_loc_flat
I0321 00:10:50.386960  5826 net.cpp:434] conv8_2_mbox_loc_flat <- conv8_2_mbox_loc_perm
I0321 00:10:50.386967  5826 net.cpp:408] conv8_2_mbox_loc_flat -> conv8_2_mbox_loc_flat
I0321 00:10:50.387006  5826 net.cpp:150] Setting up conv8_2_mbox_loc_flat
I0321 00:10:50.387017  5826 net.cpp:157] Top shape: 32 144 (4608)
I0321 00:10:50.387022  5826 net.cpp:165] Memory required for data: 8005224704
I0321 00:10:50.387027  5826 layer_factory.hpp:77] Creating layer conv8_2_mbox_conf
I0321 00:10:50.387042  5826 net.cpp:100] Creating Layer conv8_2_mbox_conf
I0321 00:10:50.387050  5826 net.cpp:434] conv8_2_mbox_conf <- conv8_2_conv8_2_relu_0_split_2
I0321 00:10:50.387063  5826 net.cpp:408] conv8_2_mbox_conf -> conv8_2_mbox_conf
I0321 00:10:50.389838  5826 net.cpp:150] Setting up conv8_2_mbox_conf
I0321 00:10:50.389858  5826 net.cpp:157] Top shape: 32 44 3 3 (12672)
I0321 00:10:50.389864  5826 net.cpp:165] Memory required for data: 8005275392
I0321 00:10:50.389874  5826 layer_factory.hpp:77] Creating layer conv8_2_mbox_conf_perm
I0321 00:10:50.389885  5826 net.cpp:100] Creating Layer conv8_2_mbox_conf_perm
I0321 00:10:50.389894  5826 net.cpp:434] conv8_2_mbox_conf_perm <- conv8_2_mbox_conf
I0321 00:10:50.389919  5826 net.cpp:408] conv8_2_mbox_conf_perm -> conv8_2_mbox_conf_perm
I0321 00:10:50.390085  5826 net.cpp:150] Setting up conv8_2_mbox_conf_perm
I0321 00:10:50.390099  5826 net.cpp:157] Top shape: 32 3 3 44 (12672)
I0321 00:10:50.390105  5826 net.cpp:165] Memory required for data: 8005326080
I0321 00:10:50.390110  5826 layer_factory.hpp:77] Creating layer conv8_2_mbox_conf_flat
I0321 00:10:50.390118  5826 net.cpp:100] Creating Layer conv8_2_mbox_conf_flat
I0321 00:10:50.390126  5826 net.cpp:434] conv8_2_mbox_conf_flat <- conv8_2_mbox_conf_perm
I0321 00:10:50.390137  5826 net.cpp:408] conv8_2_mbox_conf_flat -> conv8_2_mbox_conf_flat
I0321 00:10:50.390175  5826 net.cpp:150] Setting up conv8_2_mbox_conf_flat
I0321 00:10:50.390187  5826 net.cpp:157] Top shape: 32 396 (12672)
I0321 00:10:50.390192  5826 net.cpp:165] Memory required for data: 8005376768
I0321 00:10:50.390200  5826 layer_factory.hpp:77] Creating layer conv8_2_mbox_priorbox
I0321 00:10:50.390209  5826 net.cpp:100] Creating Layer conv8_2_mbox_priorbox
I0321 00:10:50.390216  5826 net.cpp:434] conv8_2_mbox_priorbox <- conv8_2_conv8_2_relu_0_split_3
I0321 00:10:50.390223  5826 net.cpp:434] conv8_2_mbox_priorbox <- data_data_0_split_5
I0321 00:10:50.390236  5826 net.cpp:408] conv8_2_mbox_priorbox -> conv8_2_mbox_priorbox
I0321 00:10:50.390281  5826 net.cpp:150] Setting up conv8_2_mbox_priorbox
I0321 00:10:50.390291  5826 net.cpp:157] Top shape: 1 2 144 (288)
I0321 00:10:50.390296  5826 net.cpp:165] Memory required for data: 8005377920
I0321 00:10:50.390303  5826 layer_factory.hpp:77] Creating layer conv9_2_mbox_loc
I0321 00:10:50.390317  5826 net.cpp:100] Creating Layer conv9_2_mbox_loc
I0321 00:10:50.390327  5826 net.cpp:434] conv9_2_mbox_loc <- conv9_2_conv9_2_relu_0_split_0
I0321 00:10:50.390339  5826 net.cpp:408] conv9_2_mbox_loc -> conv9_2_mbox_loc
I0321 00:10:50.392566  5826 net.cpp:150] Setting up conv9_2_mbox_loc
I0321 00:10:50.392582  5826 net.cpp:157] Top shape: 32 16 1 1 (512)
I0321 00:10:50.392588  5826 net.cpp:165] Memory required for data: 8005379968
I0321 00:10:50.392598  5826 layer_factory.hpp:77] Creating layer conv9_2_mbox_loc_perm
I0321 00:10:50.392611  5826 net.cpp:100] Creating Layer conv9_2_mbox_loc_perm
I0321 00:10:50.392619  5826 net.cpp:434] conv9_2_mbox_loc_perm <- conv9_2_mbox_loc
I0321 00:10:50.392629  5826 net.cpp:408] conv9_2_mbox_loc_perm -> conv9_2_mbox_loc_perm
I0321 00:10:50.392799  5826 net.cpp:150] Setting up conv9_2_mbox_loc_perm
I0321 00:10:50.392812  5826 net.cpp:157] Top shape: 32 1 1 16 (512)
I0321 00:10:50.392817  5826 net.cpp:165] Memory required for data: 8005382016
I0321 00:10:50.392822  5826 layer_factory.hpp:77] Creating layer conv9_2_mbox_loc_flat
I0321 00:10:50.392832  5826 net.cpp:100] Creating Layer conv9_2_mbox_loc_flat
I0321 00:10:50.392839  5826 net.cpp:434] conv9_2_mbox_loc_flat <- conv9_2_mbox_loc_perm
I0321 00:10:50.392849  5826 net.cpp:408] conv9_2_mbox_loc_flat -> conv9_2_mbox_loc_flat
I0321 00:10:50.392891  5826 net.cpp:150] Setting up conv9_2_mbox_loc_flat
I0321 00:10:50.392902  5826 net.cpp:157] Top shape: 32 16 (512)
I0321 00:10:50.392908  5826 net.cpp:165] Memory required for data: 8005384064
I0321 00:10:50.392913  5826 layer_factory.hpp:77] Creating layer conv9_2_mbox_conf
I0321 00:10:50.392928  5826 net.cpp:100] Creating Layer conv9_2_mbox_conf
I0321 00:10:50.392936  5826 net.cpp:434] conv9_2_mbox_conf <- conv9_2_conv9_2_relu_0_split_1
I0321 00:10:50.392949  5826 net.cpp:408] conv9_2_mbox_conf -> conv9_2_mbox_conf
I0321 00:10:50.396468  5826 net.cpp:150] Setting up conv9_2_mbox_conf
I0321 00:10:50.396487  5826 net.cpp:157] Top shape: 32 44 1 1 (1408)
I0321 00:10:50.396493  5826 net.cpp:165] Memory required for data: 8005389696
I0321 00:10:50.396503  5826 layer_factory.hpp:77] Creating layer conv9_2_mbox_conf_perm
I0321 00:10:50.396515  5826 net.cpp:100] Creating Layer conv9_2_mbox_conf_perm
I0321 00:10:50.396525  5826 net.cpp:434] conv9_2_mbox_conf_perm <- conv9_2_mbox_conf
I0321 00:10:50.396535  5826 net.cpp:408] conv9_2_mbox_conf_perm -> conv9_2_mbox_conf_perm
I0321 00:10:50.396703  5826 net.cpp:150] Setting up conv9_2_mbox_conf_perm
I0321 00:10:50.396728  5826 net.cpp:157] Top shape: 32 1 1 44 (1408)
I0321 00:10:50.396733  5826 net.cpp:165] Memory required for data: 8005395328
I0321 00:10:50.396739  5826 layer_factory.hpp:77] Creating layer conv9_2_mbox_conf_flat
I0321 00:10:50.396751  5826 net.cpp:100] Creating Layer conv9_2_mbox_conf_flat
I0321 00:10:50.396759  5826 net.cpp:434] conv9_2_mbox_conf_flat <- conv9_2_mbox_conf_perm
I0321 00:10:50.396767  5826 net.cpp:408] conv9_2_mbox_conf_flat -> conv9_2_mbox_conf_flat
I0321 00:10:50.396807  5826 net.cpp:150] Setting up conv9_2_mbox_conf_flat
I0321 00:10:50.396818  5826 net.cpp:157] Top shape: 32 44 (1408)
I0321 00:10:50.396824  5826 net.cpp:165] Memory required for data: 8005400960
I0321 00:10:50.396829  5826 layer_factory.hpp:77] Creating layer conv9_2_mbox_priorbox
I0321 00:10:50.396840  5826 net.cpp:100] Creating Layer conv9_2_mbox_priorbox
I0321 00:10:50.396849  5826 net.cpp:434] conv9_2_mbox_priorbox <- conv9_2_conv9_2_relu_0_split_2
I0321 00:10:50.396857  5826 net.cpp:434] conv9_2_mbox_priorbox <- data_data_0_split_6
I0321 00:10:50.396865  5826 net.cpp:408] conv9_2_mbox_priorbox -> conv9_2_mbox_priorbox
I0321 00:10:50.396908  5826 net.cpp:150] Setting up conv9_2_mbox_priorbox
I0321 00:10:50.396920  5826 net.cpp:157] Top shape: 1 2 16 (32)
I0321 00:10:50.396925  5826 net.cpp:165] Memory required for data: 8005401088
I0321 00:10:50.396930  5826 layer_factory.hpp:77] Creating layer mbox_loc
I0321 00:10:50.396942  5826 net.cpp:100] Creating Layer mbox_loc
I0321 00:10:50.396952  5826 net.cpp:434] mbox_loc <- conv4_3_norm_mbox_loc_flat
I0321 00:10:50.396960  5826 net.cpp:434] mbox_loc <- fc7_mbox_loc_flat
I0321 00:10:50.396970  5826 net.cpp:434] mbox_loc <- conv6_2_mbox_loc_flat
I0321 00:10:50.396976  5826 net.cpp:434] mbox_loc <- conv7_2_mbox_loc_flat
I0321 00:10:50.396984  5826 net.cpp:434] mbox_loc <- conv8_2_mbox_loc_flat
I0321 00:10:50.396991  5826 net.cpp:434] mbox_loc <- conv9_2_mbox_loc_flat
I0321 00:10:50.396999  5826 net.cpp:408] mbox_loc -> mbox_loc
I0321 00:10:50.397047  5826 net.cpp:150] Setting up mbox_loc
I0321 00:10:50.397059  5826 net.cpp:157] Top shape: 32 34928 (1117696)
I0321 00:10:50.397064  5826 net.cpp:165] Memory required for data: 8009871872
I0321 00:10:50.397069  5826 layer_factory.hpp:77] Creating layer mbox_conf
I0321 00:10:50.397078  5826 net.cpp:100] Creating Layer mbox_conf
I0321 00:10:50.397089  5826 net.cpp:434] mbox_conf <- conv4_3_norm_mbox_conf_flat
I0321 00:10:50.397095  5826 net.cpp:434] mbox_conf <- fc7_mbox_conf_flat
I0321 00:10:50.397102  5826 net.cpp:434] mbox_conf <- conv6_2_mbox_conf_flat
I0321 00:10:50.397110  5826 net.cpp:434] mbox_conf <- conv7_2_mbox_conf_flat
I0321 00:10:50.397117  5826 net.cpp:434] mbox_conf <- conv8_2_mbox_conf_flat
I0321 00:10:50.397123  5826 net.cpp:434] mbox_conf <- conv9_2_mbox_conf_flat
I0321 00:10:50.397133  5826 net.cpp:408] mbox_conf -> mbox_conf
I0321 00:10:50.397171  5826 net.cpp:150] Setting up mbox_conf
I0321 00:10:50.397183  5826 net.cpp:157] Top shape: 32 96052 (3073664)
I0321 00:10:50.397189  5826 net.cpp:165] Memory required for data: 8022166528
I0321 00:10:50.397194  5826 layer_factory.hpp:77] Creating layer mbox_priorbox
I0321 00:10:50.397203  5826 net.cpp:100] Creating Layer mbox_priorbox
I0321 00:10:50.397212  5826 net.cpp:434] mbox_priorbox <- conv4_3_norm_mbox_priorbox
I0321 00:10:50.397219  5826 net.cpp:434] mbox_priorbox <- fc7_mbox_priorbox
I0321 00:10:50.397227  5826 net.cpp:434] mbox_priorbox <- conv6_2_mbox_priorbox
I0321 00:10:50.397233  5826 net.cpp:434] mbox_priorbox <- conv7_2_mbox_priorbox
I0321 00:10:50.397240  5826 net.cpp:434] mbox_priorbox <- conv8_2_mbox_priorbox
I0321 00:10:50.397246  5826 net.cpp:434] mbox_priorbox <- conv9_2_mbox_priorbox
I0321 00:10:50.397254  5826 net.cpp:408] mbox_priorbox -> mbox_priorbox
I0321 00:10:50.397289  5826 net.cpp:150] Setting up mbox_priorbox
I0321 00:10:50.397301  5826 net.cpp:157] Top shape: 1 2 34928 (69856)
I0321 00:10:50.397306  5826 net.cpp:165] Memory required for data: 8022445952
I0321 00:10:50.397311  5826 layer_factory.hpp:77] Creating layer mbox_loss
I0321 00:10:50.397338  5826 net.cpp:100] Creating Layer mbox_loss
I0321 00:10:50.397348  5826 net.cpp:434] mbox_loss <- mbox_loc
I0321 00:10:50.397356  5826 net.cpp:434] mbox_loss <- mbox_conf
I0321 00:10:50.397361  5826 net.cpp:434] mbox_loss <- mbox_priorbox
…
  phase: TEST
}
layer {
  name: "data"
  type: "AnnotatedData"
  top: "data"
  top: "label"
  include {
    phase: TEST
  }
  transform_param {
    mean_value: 104
    mean_value: 117
    mean_value: 123
    resize_param {
      prob: 1
      resize_mode: WARP
      height: 300
      width: 300
      interp_mode: LINEAR
    }
  }
  data_param {
    source: "examples/NWPU_VHR/NWPU_VHR_test_lmdb"
    batch_size: 1
    backend: LMDB
  }
  annotated_data_param {
    batch_sampler {
    }
    label_map_file: "data/NWPU_VHR/labelmap_NWPU_VHR.prototxt"
  }
}
layer {
  name: "conv1_1"
  type: "Convolution"
  bottom: "data"
  top: "conv1_1"
  param {
    lr_mult: 1
    decay_mult: 1
  }
  param {
    lr_mult: 2
    decay_mult: 0
  }
  convolution_param {
    num_output: 64
    pad: 1
    kernel_size: 3
    weight_filler {
      type: "xavier"
    }
    bias_filler {
      type: "constant"
      value: 0
    }
  }
}
layer {
  name: "relu1_1"
  type: "ReLU"
  bottom: "conv1_1"
  top: "conv1_1"
}
layer {
  name: "conv1_2"
  type: "Convolution"
  bottom: "conv1_1"
  top: "conv1_2"
  param {
    lr_mult: 1
    decay_mult: 1
  }
  param {
    lr_mult: 2
    decay_mult: 0
  }
  convolution_param {
    num_output: 64
    pad: 1
    kernel_size: 3
    weight_filler {
      type: "xavier"
    }
    bias_filler {
      type: "constant"
      value: 0
    }
  }
}
layer {
  name: "relu1_2"
  type: "ReLU"
  bottom: "conv1_2"
  top: "conv1_2"
}
layer {
  name: "pool1"
  type: "Pooling"
  bottom: "conv1_2"
  top: "pool1"
  pooling_param {
    pool: MAX
    kernel_size: 2
    stride: 2
  }
}
layer {
  name: "conv2_1"
  type: "Convolution"
  bottom: "pool1"
  top: "conv2_1"
  param {
    lr_mult: 1
    decay_mult: 1
  }
  param {
    lr_mult: 2
    decay_mult: 0
  }
  convolution_param {
    num_output: 128
    pad: 1
    kernel_size: 3
    weight_filler {
      type: "xavier"
    }
    bias_filler {
      type: "constant"
      value: 0
    }
  }
}
layer {
  name: "relu2_1"
  type: "ReLU"
  bottom: "conv2_1"
  top: "conv2_1"
}
layer {
  name: "conv2_2"
  type: "Convolution"
  bottom: "conv2_1"
  top: "conv2_2"
  param {
    lr_mult: 1
    decay_mult: 1
  }
  param {
    lr_mult: 2
    decay_mult: 0
  }
  convolution_param {
    num_output: 128
    pad: 1
    kernel_size: 3
    weight_filler {
      type: "xavier"
    }
    bias_filler {
      type: "constant"
      value: 0
    }
  }
}
layer {
  name: "relu2_2"
  type: "ReLU"
  bottom: "conv2_2"
  top: "conv2_2"
}
layer {
  name: "pool2"
  type: "Pooling"
  bottom: "conv2_2"
  top: "pool2"
  pooling_param {
    pool: MAX
    kernel_size: 2
    stride: 2
  }
}
layer {
  name: "conv3_1"
  type: "Convolution"
  bottom: "pool2"
  top: "conv3_1"
  param {
    lr_mult: 1
    decay_mult: 1
  }
  param {
    lr_mult: 2
    decay_mult: 0
  }
  convolution_param {
    num_output: 256
    pad: 1
    kernel_size: 3
    weight_filler {
      type: "xavier"
    }
    bias_filler {
      type: "constant"
      value: 0
    }
  }
}
layer {
  name: "relu3_1"
  type: "ReLU"
  bottom: "conv3_1"
  top: "conv3_1"
}
layer {
  name: "conv3_2"
  type: "Convolution"
  bottom: "conv3_1"
  top: "conv3_2"
  param {
    lr_mult: 1
    decay_mult: 1
  }
  param {
    lr_mult: 2
    decay_mult: 0
  }
  convolution_param {
    num_output: 256
    pad: 1
    kernel_size: 3
    weight_filler {
      type: "xavier"
    }
    bias_filler {
      type: "constant"
      value: 0
    }
  }
}
layer {
  name: "relu3_2"
  type: "ReLU"
  bottom: "conv3_2"
  top: "conv3_2"
}
layer {
  name: "conv3_3"
  type: "Convolution"
  bottom: "conv3_2"
  top: "conv3_3"
  param {
    lr_mult: 1
    decay_mult: 1
  }
  param {
    lr_mult: 2
    decay_mult: 0
  }
  convolution_param {
    num_output: 256
    pad: 1
    kernel_size: 3
    weight_filler {
      type: "xavier"
    }
    bias_filler {
      type: "constant"
      value: 0
    }
  }
}
layer {
  name: "relu3_3"
  type: "ReLU"
  bottom: "conv3_3"
  top: "conv3_3"
}
layer {
  name: "pool3"
  type: "Pooling"
  bottom: "conv3_3"
  top: "pool3"
  pooling_param {
    pool: MAX
    kernel_size: 2
    stride: 2
  }
}
layer {
  name: "conv4_1"
  type: "Convolution"
  bottom: "pool3"
  top: "conv4_1"
  param {
    lr_mult: 1
    decay_mult: 1
  }
  param {
    lr_mult: 2
    decay_mult: 0
  }
  convolution_param {
    num_output: 512
    pad: 1
    kernel_size: 3
    weight_filler {
      type: "xavier"
    }
    bias_filler {
      type: "constant"
      value: 0
    }
  }
}
layer {
  name: "relu4_1"
  type: "ReLU"
  bottom: "conv4_1"
  top: "conv4_1"
}
layer {
  name: "conv4_2"
  type: "Convolution"
  bottom: "conv4_1"
  top: "conv4_2"
  param {
    lr_mult: 1
    decay_mult: 1
  }
  param {
    lr_mult: 2
    decay_mult: 0
  }
  convolution_param {
    num_output: 512
    pad: 1
    kernel_size: 3
    weight_filler {
      type: "xavier"
    }
    bias_filler {
      type: "constant"
      value: 0
    }
  }
}
layer {
  name: "relu4_2"
  type: "ReLU"
  bottom: "conv4_2"
  top: "conv4_2"
}
layer {
  name: "conv4_3"
  type: "Convolution"
  bottom: "conv4_2"
  top: "conv4_3"
  param {
    lr_mult: 1
    decay_mult: 1
  }
  param {
    lr_mult: 2
    decay_mult: 0
  }
  convolution_param {
    num_output: 512
    pad: 1
    kernel_size: 3
    weight_filler {
      type: "xavier"
    }
    bias_filler {
      type: "constant"
      value: 0
    }
  }
}
layer {
  name: "relu4_3"
  type: "ReLU"
  bottom: "conv4_3"
  top: "conv4_3"
}
layer {
  name: "pool4"
  type: "Pooling"
  bottom: "conv4_3"
  top: "pool4"
  pooling_param {
    pool: MAX
    kernel_size: 2
    stride: 2
  }
}
layer {
  name: "conv5_1"
  type: "Convolution"
  bottom: "pool4"
  top: "conv5_1"
  param {
    lr_mult: 1
    decay_mult: 1
  }
  param {
    lr_mult: 2
    decay_mult: 0
  }
  convolution_param {
    num_output: 512
    pad: 1
    kernel_size: 3
    weight_filler {
      type: "xavier"
    }
    bias_filler {
      type: "constant"
      value: 0
    }
    dilation: 1
  }
}
layer {
  name: "relu5_1"
  type: "ReLU"
  bottom: "conv5_1"
  top: "conv5_1"
}
layer {
  name: "conv5_2"
  type: "Convolution"
  bottom: "conv5_1"
  top: "conv5_2"
  param {
    lr_mult: 1
    decay_mult: 1
  }
  param {
    lr_mult: 2
    decay_mult: 0
  }
  convolution_param {
    num_output: 512
    pad: 1
    kernel_size: 3
    weight_filler {
      type: "xavier"
    }
    bias_filler {
      type: "constant"
      value: 0
    }
    dilation: 1
  }
}
layer {
  name: "relu5_2"
  type: "ReLU"
  bottom: "conv5_2"
  top: "conv5_2"
}
layer {
  name: "conv5_3"
  type: "Convolution"
  bottom: "conv5_2"
  top: "conv5_3"
  param {
    lr_mult: 1
    decay_mult: 1
  }
  param {
    lr_mult: 2
    decay_mult: 0
  }
  convolution_param {
    num_output: 512
    pad: 1
    kernel_size: 3
    weight_filler {
      type: "xavier"
    }
    bias_filler {
      type: "constant"
      value: 0
    }
    dilation: 1
  }
}
layer {
  name: "relu5_3"
  type: "ReLU"
  bottom: "conv5_3"
  top: "conv5_3"
}
layer {
  name: "pool5"
  type: "Pooling"
  bottom: "conv5_3"
  top: "pool5"
  pooling_param {
    pool: MAX
    kernel_size: 3
    stride: 1
    pad: 1
  }
}
layer {
  name: "fc6_depthwise"
  type: "DepthwiseConvolution"
  bottom: "pool5"
  top: "fc6_3x3"
  param {
    lr_mult: 1
    decay_mult: 1
  }
  param {
    lr_mult: 2
    decay_mult: 0
  }
  convolution_param {
    num_output: 512
    pad: 6
    kernel_size: 3
    group: 512
    weight_filler {
      type: "xavier"
    }
    bias_filler {
      type: "constant"
      value: 0
    }
    dilation: 6
  }
}
layer {
  name: "fc6_3x3_relu"
  type: "ReLU"
  bottom: "fc6_3x3"
  top: "fc6_3x3"
}
layer {
  name: "fc6_1x1"
  type: "Convolution"
  bottom: "fc6_3x3"
  top: "fc6"
  param {
    lr_mult: 1
    decay_mult: 1
  }
  param {
    lr_mult: 2
    decay_mult: 0
  }
  convolution_param {
    num_output: 1024
    pad: 0
    kernel_size: 1
    stride: 1
    weight_filler {
      type: "xavier"
    }
    bias_filler {
      type: "constant"
      value: 0
    }
    dilation: 6
  }
}
layer {
  name: "relu6"
  type: "ReLU"
  bottom: "fc6"
  top: "fc6"
}
layer {
  name: "fc7"
  type: "Convolution"
  bottom: "fc6"
  top: "fc7"
  param {
    lr_mult: 1
    decay_mult: 1
  }
  param {
    lr_mult: 2
    decay_mult: 0
  }
  convolution_param {
    num_output: 1024
    kernel_size: 1
    weight_filler {
      type: "xavier"
    }
    bias_filler {
      type: "constant"
      value: 0
    }
  }
}
layer {
  name: "relu7"
  type: "ReLU"
  bottom: "fc7"
  top: "fc7"
}
layer {
  name: "conv6_1"
  type: "Convolution"
  bottom: "fc7"
  top: "conv6_1"
  param {
    lr_mult: 1
    decay_mult: 1
  }
  param {
    lr_mult: 2
    decay_mult: 0
  }
  convolution_param {
    num_output: 256
    pad: 0
    kernel_size: 1
    stride: 1
    weight_filler {
      type: "xavier"
    }
    bias_filler {
      type: "constant"
      value: 0
    }
  }
}
layer {
  name: "conv6_1_relu"
  type: "ReLU"
  bottom: "conv6_1"
  top: "conv6_1"
}
layer {
  name: "conv6_2"
  type: "Convolution"
  bottom: "conv6_1"
  top: "conv6_2"
  param {
    lr_mult: 1
    decay_mult: 1
  }
  param {
    lr_mult: 2
    decay_mult: 0
  }
  convolution_param {
    num_output: 512
    pad: 1
    kernel_size: 3
    stride: 2
    weight_filler {
      type: "xavier"
    }
    bias_filler {
      type: "constant"
      value: 0
    }
  }
}
layer {
  name: "conv6_2_relu"
  type: "ReLU"
  bottom: "conv6_2"
  top: "conv6_2"
}
layer {
  name: "conv7_1"
  type: "Convolution"
  bottom: "conv6_2"
  top: "conv7_1"
  param {
    lr_mult: 1
    decay_mult: 1
  }
  param {
    lr_mult: 2
    decay_mult: 0
  }
  convolution_param {
    num_output: 128
    pad: 0
    kernel_size: 1
    stride: 1
    weight_filler {
      type: "xavier"
    }
    bias_filler {
      type: "constant"
      value: 0
    }
  }
}
layer {
  name: "conv7_1_relu"
  type: "ReLU"
  bottom: "conv7_1"
  top: "conv7_1"
}
layer {
  name: "conv7_2"
  type: "Convolution"
  bottom: "conv7_1"
  top: "conv7_2"
  param {
    lr_mult: 1
    decay_mult: 1
  }
  param {
    lr_mult: 2
    decay_mult: 0
  }
  convolution_param {
    num_output: 256
    pad: 1
    kernel_size: 3
    stride: 2
    weight_filler {
      type: "xavier"
    }
    bias_filler {
      type: "constant"
      value: 0
    }
  }
}
layer {
  name: "conv7_2_relu"
  type: "ReLU"
  bottom: "conv7_2"
  top: "conv7_2"
}
layer {
  name: "conv8_1"
  type: "Convolution"
  bottom: "conv7_2"
  top: "conv8_1"
  param {
    lr_mult: 1
    decay_mult: 1
  }
  param {
    lr_mult: 2
    decay_mult: 0
  }
  convolution_param {
    num_output: 128
    pad: 0
    kernel_size: 1
    stride: 1
    weight_filler {
      type: "xavier"
    }
    bias_filler {
      type: "constant"
      value: 0
    }
  }
}
layer {
  name: "conv8_1_relu"
  type: "ReLU"
  bottom: "conv8_1"
  top: "conv8_1"
}
layer {
  name: "conv8_2"
  type: "Convolution"
  bottom: "conv8_1"
  top: "conv8_2"
  param {
    lr_mult: 1
    decay_mult: 1
  }
  param {
    lr_mult: 2
    decay_mult: 0
  }
  convolution_param {
    num_output: 256
    pad: 0
    kernel_size: 3
    stride: 1
    weight_filler {
      type: "xavier"
    }
    bias_filler {
      type: "constant"
      value: 0
    }
  }
}
layer {
  name: "conv8_2_relu"
  type: "ReLU"
  bottom: "conv8_2"
  top: "conv8_2"
}
layer {
  name: "conv9_1"
  type: "Convolution"
  bottom: "conv8_2"
  top: "conv9_1"
  param {
    lr_mult: 1
    decay_mult: 1
  }
  param {
    lr_mult: 2
    decay_mult: 0
  }
  convolution_param {
    num_output: 128
    pad: 0
    kernel_size: 1
    stride: 1
    weight_filler {
      type: "xavier"
    }
    bias_filler {
      type: "constant"
      value: 0
    }
  }
}
layer {
  name: "conv9_1_relu"
  type: "ReLU"
  bottom: "conv9_1"
  top: "conv9_1"
}
layer {
  name: "conv9_2"
  type: "Convolution"
  bottom: "conv9_1"
  top: "conv9_2"
  param {
    lr_mult: 1
    decay_mult: 1
  }
  param {
    lr_mult: 2
    decay_mult: 0
  }
  convolution_param {
    num_output: 256
    pad: 0
    kernel_size: 3
    stride: 1
    weight_filler {
      type: "xavier"
    }
    bias_filler {
      type: "constant"
      value: 0
    }
  }
}
layer {
  name: "conv9_2_relu"
  type: "ReLU"
  bottom: "conv9_2"
  top: "conv9_2"
}
layer {
  name: "conv4_3_norm"
  type: "Normalize"
  bottom: "conv4_3"
  top: "conv4_3_norm"
  norm_param {
    across_spatial: false
    scale_filler {
      type: "constant"
      value: 20
    }
    channel_shared: false
  }
}
layer {
  name: "conv4_3_norm_mbox_loc"
  type: "Convolution"
  bottom: "conv4_3_norm"
  top: "conv4_3_norm_mbox_loc"
  param {
    lr_mult: 1
    decay_mult: 1
  }
  param {
    lr_mult: 2
    decay_mult: 0
  }
  convolution_param {
    num_output: 16
    pad: 1
    kernel_size: 3
    stride: 1
    weight_filler {
      type: "xavier"
    }
    bias_filler {
      type: "constant"
      value: 0
    }
  }
}
layer {
  name: "conv4_3_norm_mbox_loc_perm"
  type: "Permute"
  bottom: "conv4_3_norm_mbox_loc"
  top: "conv4_3_norm_mbox_loc_perm"
  permute_param {
    order: 0
    order: 2
    order: 3
    order: 1
  }
}
layer {
  name: "conv4_3_norm_mbox_loc_flat"
  type: "Flatten"
  bottom: "conv4_3_norm_mbox_loc_perm"
  top: "conv4_3_norm_mbox_loc_flat"
  flatten_param {
    axis: 1
  }
}
layer {
  name: "conv4_3_norm_mbox_conf"
  type: "Convolution"
  bottom: "conv4_3_norm"
  top: "conv4_3_norm_mbox_conf"
  param {
    lr_mult: 1
    decay_mult: 1
  }
  param {
    lr_mult: 2
    decay_mult: 0
  }
  convolution_param {
    num_output: 44
    pad: 1
    kernel_size: 3
    stride: 1
    weight_filler {
      type: "xavier"
    }
    bias_filler {
      type: "constant"
      value: 0
    }
  }
}
layer {
  name: "conv4_3_norm_mbox_conf_perm"
  type: "Permute"
  bottom: "conv4_3_norm_mbox_conf"
  top: "conv4_3_norm_mbox_conf_perm"
  permute_param {
    order: 0
    order: 2
    order: 3
    order: 1
  }
}
layer {
  name: "conv4_3_norm_mbox_conf_flat"
  type: "Flatten"
  bottom: "conv4_3_norm_mbox_conf_perm"
  top: "conv4_3_norm_mbox_conf_flat"
  flatten_param {
    axis: 1
  }
}
layer {
  name: "conv4_3_norm_mbox_priorbox"
  type: "PriorBox"
  bottom: "conv4_3_norm"
  bottom: "data"
  top: "conv4_3_norm_mbox_priorbox"
  prior_box_param {
    min_size: 30
    max_size: 60
    aspect_ratio: 2
    flip: true
    clip: false
    variance: 0.1
    variance: 0.1
    variance: 0.2
    variance: 0.2
    step: 8
    offset: 0.5
  }
}
layer {
  name: "fc7_mbox_loc"
  type: "Convolution"
  bottom: "fc7"
  top: "fc7_mbox_loc"
  param {
    lr_mult: 1
    decay_mult: 1
  }
  param {
    lr_mult: 2
    decay_mult: 0
  }
  convolution_param {
    num_output: 24
    pad: 1
    kernel_size: 3
    stride: 1
    weight_filler {
      type: "xavier"
    }
    bias_filler {
      type: "constant"
      value: 0
    }
  }
}
layer {
  name: "fc7_mbox_loc_perm"
  type: "Permute"
  bottom: "fc7_mbox_loc"
  top: "fc7_mbox_loc_perm"
  permute_param {
    order: 0
    order: 2
    order: 3
    order: 1
  }
}
layer {
  name: "fc7_mbox_loc_flat"
  type: "Flatten"
  bottom: "fc7_mbox_loc_perm"
  top: "fc7_mbox_loc_flat"
  flatten_param {
    axis: 1
  }
}
layer {
  name: "fc7_mbox_conf"
  type: "Convolution"
  bottom: "fc7"
  top: "fc7_mbox_conf"
  param {
    lr_mult: 1
    decay_mult: 1
  }
  param {
    lr_mult: 2
    decay_mult: 0
  }
  convolution_param {
    num_output: 66
    pad: 1
    kernel_size: 3
    stride: 1
    weight_filler {
      type: "xavier"
    }
    bias_filler {
      type: "constant"
      value: 0
    }
  }
}
layer {
  name: "fc7_mbox_conf_perm"
  type: "Permute"
  bottom: "fc7_mbox_conf"
  top: "fc7_mbox_conf_perm"
  permute_param {
    order: 0
    order: 2
    order: 3
    order: 1
  }
}
layer {
  name: "fc7_mbox_conf_flat"
  type: "Flatten"
  bottom: "fc7_mbox_conf_perm"
  top: "fc7_mbox_conf_flat"
  flatten_param {
    axis: 1
  }
}
layer {
  name: "fc7_mbox_priorbox"
  type: "PriorBox"
  bottom: "fc7"
  bottom: "data"
  top: "fc7_mbox_priorbox"
  prior_box_param {
    min_size: 60
    max_size: 111
    aspect_ratio: 2
    aspect_ratio: 3
    flip: true
    clip: false
    variance: 0.1
    variance: 0.1
    variance: 0.2
    variance: 0.2
    step: 16
    offset: 0.5
  }
}
layer {
  name: "conv6_2_mbox_loc"
  type: "Convolution"
  bottom: "conv6_2"
  top: "conv6_2_mbox_loc"
  param {
    lr_mult: 1
    decay_mult: 1
  }
  param {
    lr_mult: 2
    decay_mult: 0
  }
  convolution_param {
    num_output: 24
    pad: 1
    kernel_size: 3
    stride: 1
    weight_filler {
      type: "xavier"
    }
    bias_filler {
      type: "constant"
      value: 0
    }
  }
}
layer {
  name: "conv6_2_mbox_loc_perm"
  type: "Permute"
  bottom: "conv6_2_mbox_loc"
  top: "conv6_2_mbox_loc_perm"
  permute_param {
    order: 0
    order: 2
    order: 3
    order: 1
  }
}
layer {
  name: "conv6_2_mbox_loc_flat"
  type: "Flatten"
  bottom: "conv6_2_mbox_loc_perm"
  top: "conv6_2_mbox_loc_flat"
  flatten_param {
    axis: 1
  }
}
layer {
  name: "conv6_2_mbox_conf"
  type: "Convolution"
  bottom: "conv6_2"
  top: "conv6_2_mbox_conf"
  param {
    lr_mult: 1
    decay_mult: 1
  }
  param {
    lr_mult: 2
    decay_mult: 0
  }
  convolution_param {
    num_output: 66
    pad: 1
    kernel_size: 3
    stride: 1
    weight_filler {
      type: "xavier"
    }
    bias_filler {
      type: "constant"
      value: 0
    }
  }
}
layer {
  name: "conv6_2_mbox_conf_perm"
  type: "Permute"
  bottom: "conv6_2_mbox_conf"
  top: "conv6_2_mbox_conf_perm"
  permute_param {
    order: 0
    order: 2
    order: 3
    order: 1
  }
}
layer {
  name: "conv6_2_mbox_conf_flat"
  type: "Flatten"
  bottom: "conv6_2_mbox_conf_perm"
  top: "conv6_2_mbox_conf_flat"
  flatten_param {
    axis: 1
  }
}
layer {
  name: "conv6_2_mbox_priorbox"
  type: "PriorBox"
  bottom: "conv6_2"
  bottom: "data"
  top: "conv6_2_mbox_priorbox"
  prior_box_param {
    min_size: 111
    max_size: 162
    aspect_ratio: 2
    aspect_ratio: 3
    flip: true
    clip: false
    variance: 0.1
    variance: 0.1
    variance: 0.2
    variance: 0.2
    step: 32
    offset: 0.5
  }
}
layer {
  name: "conv7_2_mbox_loc"
  type: "Convolution"
  bottom: "conv7_2"
  top: "conv7_2_mbox_loc"
  param {
    lr_mult: 1
    decay_mult: 1
  }
  param {
    lr_mult: 2
    decay_mult: 0
  }
  convolution_param {
    num_output: 24
    pad: 1
    kernel_size: 3
    stride: 1
    weight_filler {
      type: "xavier"
    }
    bias_filler {
      type: "constant"
      value: 0
    }
  }
}
layer {
  name: "conv7_2_mbox_loc_perm"
  type: "Permute"
  bottom: "conv7_2_mbox_loc"
  top: "conv7_2_mbox_loc_perm"
  permute_param {
    order: 0
    order: 2
    order: 3
    order: 1
  }
}
layer {
  name: "conv7_2_mbox_loc_flat"
  type: "Flatten"
  bottom: "conv7_2_mbox_loc_perm"
  top: "conv7_2_mbox_loc_flat"
  flatten_param {
    axis: 1
  }
}
layer {
  name: "conv7_2_mbox_conf"
  type: "Convolution"
  bottom: "conv7_2"
  top: "conv7_2_mbox_conf"
  param {
    lr_mult: 1
    decay_mult: 1
  }
  param {
    lr_mult: 2
    decay_mult: 0
  }
  convolution_param {
    num_output: 66
    pad: 1
    kernel_size: 3
    stride: 1
    weight_filler {
      type: "xavier"
    }
    bias_filler {
      type: "constant"
      value: 0
    }
  }
}
layer {
  name: "conv7_2_mbox_conf_perm"
  type: "Permute"
  bottom: "conv7_2_mbox_conf"
  top: "conv7_2_mbox_conf_perm"
  permute_param {
    order: 0
    order: 2
    order: 3
    order: 1
  }
}
layer {
  name: "conv7_2_mbox_conf_flat"
  type: "Flatten"
  bottom: "conv7_2_mbox_conf_perm"
  top: "conv7_2_mbox_conf_flat"
  flatten_param {
    axis: 1
  }
}
layer {
  name: "conv7_2_mbox_priorbox"
  type: "PriorBox"
  bottom: "conv7_2"
  bottom: "data"
  top: "conv7_2_mbox_priorbox"
  prior_box_param {
    min_size: 162
    max_size: 213
    aspect_ratio: 2
    aspect_ratio: 3
    flip: true
    clip: false
    variance: 0.1
    variance: 0.1
    variance: 0.2
    variance: 0.2
    step: 64
    offset: 0.5
  }
}
layer {
  name: "conv8_2_mbox_loc"
  type: "Convolution"
  bottom: "conv8_2"
  top: "conv8_2_mbox_loc"
  param {
    lr_mult: 1
    decay_mult: 1
  }
  param {
    lr_mult: 2
    decay_mult: 0
  }
  convolution_param {
    num_output: 16
    pad: 1
    kernel_size: 3
    stride: 1
    weight_filler {
      type: "xavier"
    }
    bias_filler {
      type: "constant"
      value: 0
    }
  }
}
layer {
  name: "conv8_2_mbox_loc_perm"
  type: "Permute"
  bottom: "conv8_2_mbox_loc"
  top: "conv8_2_mbox_loc_perm"
  permute_param {
    order: 0
    order: 2
    order: 3
    order: 1
  }
}
layer {
  name: "conv8_2_mbox_loc_flat"
  type: "Flatten"
  bottom: "conv8_2_mbox_loc_perm"
  top: "conv8_2_mbox_loc_flat"
  flatten_param {
    axis: 1
  }
}
layer {
  name: "conv8_2_mbox_conf"
  type: "Convolution"
  bottom: "conv8_2"
  top: "conv8_2_mbox_conf"
  param {
    lr_mult: 1
    decay_mult: 1
  }
  param {
    lr_mult: 2
    decay_mult: 0
  }
  convolution_param {
    num_output: 44
    pad: 1
    kernel_size: 3
    stride: 1
    weight_filler {
      type: "xavier"
    }
    bias_filler {
      type: "constant"
      value: 0
    }
  }
}
layer {
  name: "conv8_2_mbox_conf_perm"
  type: "Permute"
  bottom: "conv8_2_mbox_conf"
  top: "conv8_2_mbox_conf_perm"
  permute_param {
    order: 0
    order: 2
    order: 3
    order: 1
  }
}
layer {
  name: "conv8_2_mbox_conf_flat"
  type: "Flatten"
  bottom: "conv8_2_mbox_conf_perm"
  top: "conv8_2_mbox_conf_flat"
  flatten_param {
    axis: 1
  }
}
layer {
  name: "conv8_2_mbox_priorbox"
  type: "PriorBox"
  bottom: "conv8_2"
  bottom: "data"
  top: "conv8_2_mbox_priorbox"
  prior_box_param {
    min_size: 213
    max_size: 264
    aspect_ratio: 2
    flip: true
    clip: false
    variance: 0.1
    variance: 0.1
    variance: 0.2
    variance: 0.2
    step: 100
    offset: 0.5
  }
}
layer {
  name: "conv9_2_mbox_loc"
  type: "Convolution"
  bottom: "conv9_2"
  top: "conv9_2_mbox_loc"
  param {
    lr_mult: 1
    decay_mult: 1
  }
  param {
    lr_mult: 2
    decay_mult: 0
  }
  convolution_param {
    num_output: 16
    pad: 1
    kernel_size: 3
    stride: 1
    weight_filler {
      type: "xavier"
    }
    bias_filler {
      type: "constant"
      value: 0
    }
  }
}
layer {
  name: "conv9_2_mbox_loc_perm"
  type: "Permute"
  bottom: "conv9_2_mbox_loc"
  top: "conv9_2_mbox_loc_perm"
  permute_param {
    order: 0
    order: 2
    order: 3
    order: 1
  }
}
layer {
  name: "conv9_2_mbox_loc_flat"
  type: "Flatten"
  bottom: "conv9_2_mbox_loc_perm"
  top: "conv9_2_mbox_loc_flat"
  flatten_param {
    axis: 1
  }
}
layer {
  name: "conv9_2_mbox_conf"
  type: "Convolution"
  bottom: "conv9_2"
  top: "conv9_2_mbox_conf"
  param {
    lr_mult: 1
    decay_mult: 1
  }
  param {
    lr_mult: 2
    decay_mult: 0
  }
  convolution_param {
    num_output: 44
    pad: 1
    kernel_size: 3
    stride: 1
    weight_filler {
      type: "xavier"
    }
    bias_filler {
      type: "constant"
      value: 0
    }
  }
}
layer {
  name: "conv9_2_mbox_conf_perm"
  type: "Permute"
  bottom: "conv9_2_mbox_conf"
  top: "conv9_2_mbox_conf_perm"
  permute_param {
    order: 0
    order: 2
    order: 3
    order: 1
  }
}
layer {
  name: "conv9_2_mbox_conf_flat"
  type: "Flatten"
  bottom: "conv9_2_mbox_conf_perm"
  top: "conv9_2_mbox_conf_flat"
  flatten_param {
    axis: 1
  }
}
layer {
  name: "conv9_2_mbox_priorbox"
  type: "PriorBox"
  bottom: "conv9_2"
  bottom: "data"
  top: "conv9_2_mbox_priorbox"
  prior_box_param {
    min_size: 264
    max_size: 315
    aspect_ratio: 2
    flip: true
    clip: false
    variance: 0.1
    variance: 0.1
    variance: 0.2
    variance: 0.2
    step: 300
    offset: 0.5
  }
}
layer {
  name: "mbox_loc"
  type: "Concat"
  bottom: "conv4_3_norm_mbox_loc_flat"
  bottom: "fc7_mbox_loc_flat"
  bottom: "conv6_2_mbox_loc_flat"
  bottom: "conv7_2_mbox_loc_flat"
  bottom: "conv8_2_mbox_loc_flat"
  bottom: "conv9_2_mbox_loc_flat"
  top: "mbox_loc"
  concat_param {
    axis: 1
  }
}
layer {
  name: "mbox_conf"
  type: "Concat"
  bottom: "conv4_3_norm_mbox_conf_flat"
  bottom: "fc7_mbox_conf_flat"
  bottom: "conv6_2_mbox_conf_flat"
  bottom: "conv7_2_mbox_conf_flat"
  bottom: "conv8_2_mbox_conf_flat"
  bottom: "conv9_2_mbox_conf_flat"
  top: "mbox_conf"
  concat_param {
    axis: 1
  }
}
layer {
  name: "mbox_priorbox"
  type: "Concat"
  bottom: "conv4_3_norm_mbox_priorbox"
  bottom: "fc7_mbox_priorbox"
  bottom: "conv6_2_mbox_priorbox"
  bottom: "conv7_2_mbox_priorbox"
  bottom: "conv8_2_mbox_priorbox"
  bottom: "conv9_2_mbox_priorbox"
  top: "mbox_priorbox"
  concat_param {
    axis: 2
  }
}
layer {
  name: "mbox_conf_reshape"
  type: "Reshape"
  bottom: "mbox_conf"
  top: "mbox_conf_reshape"
  reshape_param {
    shape {
      dim: 0
      dim: -1
      dim: 11
    }
  }
}
layer {
  name: "mbox_conf_softmax"
  type: "Softmax"
  bottom: "mbox_conf_reshape"
  top: "mbox_conf_softmax"
  softmax_param {
    axis: 2
  }
}
layer {
  name: "mbox_conf_flatten"
  type: "Flatten"
  bottom: "mbox_conf_softmax"
  top: "mbox_conf_flatten"
  flatten_param {
    axis: 1
  }
}
layer {
  name: "detection_out"
  type: "DetectionOutput"
  bottom: "mbox_loc"
  bottom: "mbox_conf_flatten"
  bottom: "mbox_priorbox"
  top: "detection_out"
  include {
    phase: TEST
  }
  detection_output_param {
    num_classes: 11
    share_location: true
    background_label_id: 0
    nms_param {
      nms_threshold: 0.45
      top_k: 400
    }
    save_output_param {
      output_directory: "/home/zs/data/VOCdevkit/results/VOC2007/SSD_300x300_0320_fc6/Main"
      output_name_prefix: "comp4_det_test_"
      output_format: "VOC"
      label_map_file: "data/NWPU_VHR/labelmap_NWPU_VHR.prototxt"
      name_size_file: "data/NWPU_VHR/test_name_size.txt"
      num_test_image: 123
    }
    code_type: CENTER_SIZE
    keep_top_k: 200
    confidence_threshold: 0.01
  }
}
layer {
  name: "detection_eval"
  type: "DetectionEvaluate"
  bottom: "detection_out"
  bottom: "label"
  top: "detection_eval"
  include {
    phase: TEST
  }
  detection_evaluate_param {
    num_classes: 11
    background_label_id: 0
    overlap_threshold: 0.5
    evaluate_difficult_gt: false
    name_size_file: "data/NWPU_VHR/test_name_size.txt"
  }
}
I0321 00:10:50.404393  5826 layer_factory.hpp:77] Creating layer data
I0321 00:10:50.404492  5826 net.cpp:100] Creating Layer data
I0321 00:10:50.404531  5826 net.cpp:408] data -> data
I0321 00:10:50.404562  5826 net.cpp:408] data -> label
I0321 00:10:50.405503  5843 db_lmdb.cpp:35] Opened lmdb examples/NWPU_VHR/NWPU_VHR_test_lmdb
I0321 00:10:50.421129  5826 annotated_data_layer.cpp:62] output data size: 1,3,300,300
I0321 00:10:50.426281  5826 net.cpp:150] Setting up data
I0321 00:10:50.426345  5826 net.cpp:157] Top shape: 1 3 300 300 (270000)
I0321 00:10:50.426369  5826 net.cpp:157] Top shape: 1 1 4 8 (32)
I0321 00:10:50.426388  5826 net.cpp:165] Memory required for data: 1080128
I0321 00:10:50.426414  5826 layer_factory.hpp:77] Creating layer data_data_0_split
I0321 00:10:50.426446  5826 net.cpp:100] Creating Layer data_data_0_split
I0321 00:10:50.426467  5826 net.cpp:434] data_data_0_split <- data
I0321 00:10:50.426491  5826 net.cpp:408] data_data_0_split -> data_data_0_split_0
I0321 00:10:50.426522  5826 net.cpp:408] data_data_0_split -> data_data_0_split_1
I0321 00:10:50.426548  5826 net.cpp:408] data_data_0_split -> data_data_0_split_2
I0321 00:10:50.426571  5826 net.cpp:408] data_data_0_split -> data_data_0_split_3
I0321 00:10:50.426595  5826 net.cpp:408] data_data_0_split -> data_data_0_split_4
I0321 00:10:50.426618  5826 net.cpp:408] data_data_0_split -> data_data_0_split_5
I0321 00:10:50.426642  5826 net.cpp:408] data_data_0_split -> data_data_0_split_6
I0321 00:10:50.426827  5826 net.cpp:150] Setting up data_data_0_split
I0321 00:10:50.426854  5826 net.cpp:157] Top shape: 1 3 300 300 (270000)
I0321 00:10:50.426875  5826 net.cpp:157] Top shape: 1 3 300 300 (270000)
I0321 00:10:50.426896  5826 net.cpp:157] Top shape: 1 3 300 300 (270000)
I0321 00:10:50.426918  5826 net.cpp:157] Top shape: 1 3 300 300 (270000)
I0321 00:10:50.426937  5826 net.cpp:157] Top shape: 1 3 300 300 (270000)
I0321 00:10:50.426955  5826 net.cpp:157] Top shape: 1 3 300 300 (270000)
I0321 00:10:50.426976  5826 net.cpp:157] Top shape: 1 3 300 300 (270000)
I0321 00:10:50.426995  5826 net.cpp:165] Memory required for data: 8640128
I0321 00:10:50.427013  5826 layer_factory.hpp:77] Creating layer conv1_1
I0321 00:10:50.427043  5826 net.cpp:100] Creating Layer conv1_1
I0321 00:10:50.427065  5826 net.cpp:434] conv1_1 <- data_data_0_split_0
I0321 00:10:50.427088  5826 net.cpp:408] conv1_1 -> conv1_1
I0321 00:10:50.429949  5826 net.cpp:150] Setting up conv1_1
I0321 00:10:50.429983  5826 net.cpp:157] Top shape: 1 64 300 300 (5760000)
I0321 00:10:50.430006  5826 net.cpp:165] Memory required for data: 31680128
I0321 00:10:50.430033  5826 layer_factory.hpp:77] Creating layer relu1_1
I0321 00:10:50.430058  5826 net.cpp:100] Creating Layer relu1_1
I0321 00:10:50.430078  5826 net.cpp:434] relu1_1 <- conv1_1
I0321 00:10:50.430100  5826 net.cpp:395] relu1_1 -> conv1_1 (in-place)
I0321 00:10:50.430361  5826 net.cpp:150] Setting up relu1_1
I0321 00:10:50.430390  5826 net.cpp:157] Top shape: 1 64 300 300 (5760000)
I0321 00:10:50.430411  5826 net.cpp:165] Memory required for data: 54720128
I0321 00:10:50.430431  5826 layer_factory.hpp:77] Creating layer conv1_2
I0321 00:10:50.430459  5826 net.cpp:100] Creating Layer conv1_2
I0321 00:10:50.430478  5826 net.cpp:434] conv1_2 <- conv1_1
I0321 00:10:50.430501  5826 net.cpp:408] conv1_2 -> conv1_2
I0321 00:10:50.432735  5826 net.cpp:150] Setting up conv1_2
I0321 00:10:50.432771  5826 net.cpp:157] Top shape: 1 64 300 300 (5760000)
I0321 00:10:50.432790  5826 net.cpp:165] Memory required for data: 77760128
I0321 00:10:50.432816  5826 layer_factory.hpp:77] Creating layer relu1_2
I0321 00:10:50.432842  5826 net.cpp:100] Creating Layer relu1_2
I0321 00:10:50.432862  5826 net.cpp:434] relu1_2 <- conv1_2
I0321 00:10:50.432883  5826 net.cpp:395] relu1_2 -> conv1_2 (in-place)
I0321 00:10:50.433878  5826 net.cpp:150] Setting up relu1_2
I0321 00:10:50.433913  5826 net.cpp:157] Top shape: 1 64 300 300 (5760000)
I0321 00:10:50.433933  5826 net.cpp:165] Memory required for data: 100800128
I0321 00:10:50.433954  5826 layer_factory.hpp:77] Creating layer pool1
I0321 00:10:50.433986  5826 net.cpp:100] Creating Layer pool1
I0321 00:10:50.434018  5826 net.cpp:434] pool1 <- conv1_2
I0321 00:10:50.434041  5826 net.cpp:408] pool1 -> pool1
I0321 00:10:50.434124  5826 net.cpp:150] Setting up pool1
I0321 00:10:50.434150  5826 net.cpp:157] Top shape: 1 64 150 150 (1440000)
I0321 00:10:50.434170  5826 net.cpp:165] Memory required for data: 106560128
I0321 00:10:50.434188  5826 layer_factory.hpp:77] Creating layer conv2_1
I0321 00:10:50.434214  5826 net.cpp:100] Creating Layer conv2_1
I0321 00:10:50.434233  5826 net.cpp:434] conv2_1 <- pool1
I0321 00:10:50.434257  5826 net.cpp:408] conv2_1 -> conv2_1
I0321 00:10:50.437564  5826 net.cpp:150] Setting up conv2_1
I0321 00:10:50.437610  5826 net.cpp:157] Top shape: 1 128 150 150 (2880000)
I0321 00:10:50.437630  5826 net.cpp:165] Memory required for data: 118080128
I0321 00:10:50.437661  5826 layer_factory.hpp:77] Creating layer relu2_1
I0321 00:10:50.437690  5826 net.cpp:100] Creating Layer relu2_1
I0321 00:10:50.437710  5826 net.cpp:434] relu2_1 <- conv2_1
I0321 00:10:50.437748  5826 net.cpp:395] relu2_1 -> conv2_1 (in-place)
I0321 00:10:50.438011  5826 net.cpp:150] Setting up relu2_1
I0321 00:10:50.438040  5826 net.cpp:157] Top shape: 1 128 150 150 (2880000)
I0321 00:10:50.438060  5826 net.cpp:165] Memory required for data: 129600128
I0321 00:10:50.438078  5826 layer_factory.hpp:77] Creating layer conv2_2
I0321 00:10:50.438107  5826 net.cpp:100] Creating Layer conv2_2
I0321 00:10:50.438127  5826 net.cpp:434] conv2_2 <- conv2_1
I0321 00:10:50.438149  5826 net.cpp:408] conv2_2 -> conv2_2
I0321 00:10:50.442085  5826 net.cpp:150] Setting up conv2_2
I0321 00:10:50.442124  5826 net.cpp:157] Top shape: 1 128 150 150 (2880000)
I0321 00:10:50.442145  5826 net.cpp:165] Memory required for data: 141120128
I0321 00:10:50.442171  5826 layer_factory.hpp:77] Creating layer relu2_2
I0321 00:10:50.442195  5826 net.cpp:100] Creating Layer relu2_2
I0321 00:10:50.442216  5826 net.cpp:434] relu2_2 <- conv2_2
I0321 00:10:50.442237  5826 net.cpp:395] relu2_2 -> conv2_2 (in-place)
I0321 00:10:50.442508  5826 net.cpp:150] Setting up relu2_2
I0321 00:10:50.442541  5826 net.cpp:157] Top shape: 1 128 150 150 (2880000)
I0321 00:10:50.442564  5826 net.cpp:165] Memory required for data: 152640128
I0321 00:10:50.442584  5826 layer_factory.hpp:77] Creating layer pool2
I0321 00:10:50.442607  5826 net.cpp:100] Creating Layer pool2
I0321 00:10:50.442627  5826 net.cpp:434] pool2 <- conv2_2
I0321 00:10:50.442651  5826 net.cpp:408] pool2 -> pool2
I0321 00:10:50.442741  5826 net.cpp:150] Setting up pool2
I0321 00:10:50.442770  5826 net.cpp:157] Top shape: 1 128 75 75 (720000)
I0321 00:10:50.442790  5826 net.cpp:165] Memory required for data: 155520128
I0321 00:10:50.442812  5826 layer_factory.hpp:77] Creating layer conv3_1
I0321 00:10:50.442836  5826 net.cpp:100] Creating Layer conv3_1
I0321 00:10:50.442855  5826 net.cpp:434] conv3_1 <- pool2
I0321 00:10:50.442879  5826 net.cpp:408] conv3_1 -> conv3_1
I0321 00:10:50.449224  5826 net.cpp:150] Setting up conv3_1
I0321 00:10:50.449273  5826 net.cpp:157] Top shape: 1 256 75 75 (1440000)
I0321 00:10:50.449295  5826 net.cpp:165] Memory required for data: 161280128
I0321 00:10:50.449326  5826 layer_factory.hpp:77] Creating layer relu3_1
I0321 00:10:50.449353  5826 net.cpp:100] Creating Layer relu3_1
I0321 00:10:50.449374  5826 net.cpp:434] relu3_1 <- conv3_1
I0321 00:10:50.449396  5826 net.cpp:395] relu3_1 -> conv3_1 (in-place)
I0321 00:10:50.449661  5826 net.cpp:150] Setting up relu3_1
I0321 00:10:50.449698  5826 net.cpp:157] Top shape: 1 256 75 75 (1440000)
I0321 00:10:50.449718  5826 net.cpp:165] Memory required for data: 167040128
I0321 00:10:50.449760  5826 layer_factory.hpp:77] Creating layer conv3_2
I0321 00:10:50.449789  5826 net.cpp:100] Creating Layer conv3_2
I0321 00:10:50.449810  5826 net.cpp:434] conv3_2 <- conv3_1
I0321 00:10:50.449833  5826 net.cpp:408] conv3_2 -> conv3_2
I0321 00:10:50.458840  5826 net.cpp:150] Setting up conv3_2
I0321 00:10:50.458902  5826 net.cpp:157] Top shape: 1 256 75 75 (1440000)
I0321 00:10:50.458925  5826 net.cpp:165] Memory required for data: 172800128
I0321 00:10:50.458974  5826 layer_factory.hpp:77] Creating layer relu3_2
I0321 00:10:50.459002  5826 net.cpp:100] Creating Layer relu3_2
I0321 00:10:50.459024  5826 net.cpp:434] relu3_2 <- conv3_2
I0321 00:10:50.459049  5826 net.cpp:395] relu3_2 -> conv3_2 (in-place)
I0321 00:10:50.460078  5826 net.cpp:150] Setting up relu3_2
I0321 00:10:50.460110  5826 net.cpp:157] Top shape: 1 256 75 75 (1440000)
I0321 00:10:50.460131  5826 net.cpp:165] Memory required for data: 178560128
I0321 00:10:50.460151  5826 layer_factory.hpp:77] Creating layer conv3_3
I0321 00:10:50.460183  5826 net.cpp:100] Creating Layer conv3_3
I0321 00:10:50.460203  5826 net.cpp:434] conv3_3 <- conv3_2
I0321 00:10:50.460227  5826 net.cpp:408] conv3_3 -> conv3_3
I0321 00:10:50.469007  5826 net.cpp:150] Setting up conv3_3
I0321 00:10:50.469074  5826 net.cpp:157] Top shape: 1 256 75 75 (1440000)
I0321 00:10:50.469095  5826 net.cpp:165] Memory required for data: 184320128
I0321 00:10:50.469123  5826 layer_factory.hpp:77] Creating layer relu3_3
I0321 00:10:50.469151  5826 net.cpp:100] Creating Layer relu3_3
I0321 00:10:50.469172  5826 net.cpp:434] relu3_3 <- conv3_3
I0321 00:10:50.469197  5826 net.cpp:395] relu3_3 -> conv3_3 (in-place)
I0321 00:10:50.469465  5826 net.cpp:150] Setting up relu3_3
I0321 00:10:50.469497  5826 net.cpp:157] Top shape: 1 256 75 75 (1440000)
I0321 00:10:50.469518  5826 net.cpp:165] Memory required for data: 190080128
I0321 00:10:50.469539  5826 layer_factory.hpp:77] Creating layer pool3
I0321 00:10:50.469563  5826 net.cpp:100] Creating Layer pool3
I0321 00:10:50.469585  5826 net.cpp:434] pool3 <- conv3_3
I0321 00:10:50.469611  5826 net.cpp:408] pool3 -> pool3
I0321 00:10:50.469704  5826 net.cpp:150] Setting up pool3
I0321 00:10:50.469769  5826 net.cpp:157] Top shape: 1 256 38 38 (369664)
I0321 00:10:50.469790  5826 net.cpp:165] Memory required for data: 191558784
I0321 00:10:50.469808  5826 layer_factory.hpp:77] Creating layer conv4_1
I0321 00:10:50.469836  5826 net.cpp:100] Creating Layer conv4_1
I0321 00:10:50.469857  5826 net.cpp:434] conv4_1 <- pool3
I0321 00:10:50.469880  5826 net.cpp:408] conv4_1 -> conv4_1
I0321 00:10:50.484771  5826 net.cpp:150] Setting up conv4_1
I0321 00:10:50.484836  5826 net.cpp:157] Top shape: 1 512 38 38 (739328)
I0321 00:10:50.484858  5826 net.cpp:165] Memory required for data: 194516096
I0321 00:10:50.484886  5826 layer_factory.hpp:77] Creating layer relu4_1
I0321 00:10:50.484913  5826 net.cpp:100] Creating Layer relu4_1
I0321 00:10:50.484935  5826 net.cpp:434] relu4_1 <- conv4_1
I0321 00:10:50.484959  5826 net.cpp:395] relu4_1 -> conv4_1 (in-place)
I0321 00:10:50.485230  5826 net.cpp:150] Setting up relu4_1
I0321 00:10:50.485260  5826 net.cpp:157] Top shape: 1 512 38 38 (739328)
I0321 00:10:50.485280  5826 net.cpp:165] Memory required for data: 197473408
I0321 00:10:50.485298  5826 layer_factory.hpp:77] Creating layer conv4_2
I0321 00:10:50.485327  5826 net.cpp:100] Creating Layer conv4_2
I0321 00:10:50.485347  5826 net.cpp:434] conv4_2 <- conv4_1
I0321 00:10:50.485369  5826 net.cpp:408] conv4_2 -> conv4_2
I0321 00:10:50.511112  5826 net.cpp:150] Setting up conv4_2
I0321 00:10:50.511180  5826 net.cpp:157] Top shape: 1 512 38 38 (739328)
I0321 00:10:50.511202  5826 net.cpp:165] Memory required for data: 200430720
I0321 00:10:50.511235  5826 layer_factory.hpp:77] Creating layer relu4_2
I0321 00:10:50.511265  5826 net.cpp:100] Creating Layer relu4_2
I0321 00:10:50.511289  5826 net.cpp:434] relu4_2 <- conv4_2
I0321 00:10:50.511313  5826 net.cpp:395] relu4_2 -> conv4_2 (in-place)
I0321 00:10:50.512326  5826 net.cpp:150] Setting up relu4_2
I0321 00:10:50.512359  5826 net.cpp:157] Top shape: 1 512 38 38 (739328)
I0321 00:10:50.512382  5826 net.cpp:165] Memory required for data: 203388032
I0321 00:10:50.512400  5826 layer_factory.hpp:77] Creating layer conv4_3
I0321 00:10:50.512428  5826 net.cpp:100] Creating Layer conv4_3
I0321 00:10:50.512452  5826 net.cpp:434] conv4_3 <- conv4_2
I0321 00:10:50.512476  5826 net.cpp:408] conv4_3 -> conv4_3
I0321 00:10:50.537983  5826 net.cpp:150] Setting up conv4_3
I0321 00:10:50.538012  5826 net.cpp:157] Top shape: 1 512 38 38 (739328)
I0321 00:10:50.538043  5826 net.cpp:165] Memory required for data: 206345344
I0321 00:10:50.538058  5826 layer_factory.hpp:77] Creating layer relu4_3
I0321 00:10:50.538070  5826 net.cpp:100] Creating Layer relu4_3
I0321 00:10:50.538079  5826 net.cpp:434] relu4_3 <- conv4_3
I0321 00:10:50.538090  5826 net.cpp:395] relu4_3 -> conv4_3 (in-place)
I0321 00:10:50.538341  5826 net.cpp:150] Setting up relu4_3
I0321 00:10:50.538355  5826 net.cpp:157] Top shape: 1 512 38 38 (739328)
I0321 00:10:50.538360  5826 net.cpp:165] Memory required for data: 209302656
I0321 00:10:50.538367  5826 layer_factory.hpp:77] Creating layer conv4_3_relu4_3_0_split
I0321 00:10:50.538377  5826 net.cpp:100] Creating Layer conv4_3_relu4_3_0_split
I0321 00:10:50.538383  5826 net.cpp:434] conv4_3_relu4_3_0_split <- conv4_3
I0321 00:10:50.538390  5826 net.cpp:408] conv4_3_relu4_3_0_split -> conv4_3_relu4_3_0_split_0
I0321 00:10:50.538401  5826 net.cpp:408] conv4_3_relu4_3_0_split -> conv4_3_relu4_3_0_split_1
I0321 00:10:50.538486  5826 net.cpp:150] Setting up conv4_3_relu4_3_0_split
I0321 00:10:50.538498  5826 net.cpp:157] Top shape: 1 512 38 38 (739328)
I0321 00:10:50.538506  5826 net.cpp:157] Top shape: 1 512 38 38 (739328)
I0321 00:10:50.538513  5826 net.cpp:165] Memory required for data: 215217280
I0321 00:10:50.538520  5826 layer_factory.hpp:77] Creating layer pool4
I0321 00:10:50.538532  5826 net.cpp:100] Creating Layer pool4
I0321 00:10:50.538539  5826 net.cpp:434] pool4 <- conv4_3_relu4_3_0_split_0
I0321 00:10:50.538547  5826 net.cpp:408] pool4 -> pool4
I0321 00:10:50.538655  5826 net.cpp:150] Setting up pool4
I0321 00:10:50.538668  5826 net.cpp:157] Top shape: 1 512 19 19 (184832)
I0321 00:10:50.538733  5826 net.cpp:165] Memory required for data: 215956608
I0321 00:10:50.538740  5826 layer_factory.hpp:77] Creating layer conv5_1
I0321 00:10:50.538755  5826 net.cpp:100] Creating Layer conv5_1
I0321 00:10:50.538763  5826 net.cpp:434] conv5_1 <- pool4
I0321 00:10:50.538771  5826 net.cpp:408] conv5_1 -> conv5_1
I0321 00:10:50.564882  5826 net.cpp:150] Setting up conv5_1
I0321 00:10:50.564916  5826 net.cpp:157] Top shape: 1 512 19 19 (184832)
I0321 00:10:50.564923  5826 net.cpp:165] Memory required for data: 216695936
I0321 00:10:50.564936  5826 layer_factory.hpp:77] Creating layer relu5_1
I0321 00:10:50.564949  5826 net.cpp:100] Creating Layer relu5_1
I0321 00:10:50.564958  5826 net.cpp:434] relu5_1 <- conv5_1
I0321 00:10:50.564967  5826 net.cpp:395] relu5_1 -> conv5_1 (in-place)
I0321 00:10:50.565208  5826 net.cpp:150] Setting up relu5_1
I0321 00:10:50.565223  5826 net.cpp:157] Top shape: 1 512 19 19 (184832)
I0321 00:10:50.565229  5826 net.cpp:165] Memory required for data: 217435264
I0321 00:10:50.565234  5826 layer_factory.hpp:77] Creating layer conv5_2
I0321 00:10:50.565254  5826 net.cpp:100] Creating Layer conv5_2
I0321 00:10:50.565263  5826 net.cpp:434] conv5_2 <- conv5_1
I0321 00:10:50.565271  5826 net.cpp:408] conv5_2 -> conv5_2
I0321 00:10:50.591506  5826 net.cpp:150] Setting up conv5_2
I0321 00:10:50.591542  5826 net.cpp:157] Top shape: 1 512 19 19 (184832)
I0321 00:10:50.591550  5826 net.cpp:165] Memory required for data: 218174592
I0321 00:10:50.591564  5826 layer_factory.hpp:77] Creating layer relu5_2
I0321 00:10:50.591580  5826 net.cpp:100] Creating Layer relu5_2
I0321 00:10:50.591589  5826 net.cpp:434] relu5_2 <- conv5_2
I0321 00:10:50.591599  5826 net.cpp:395] relu5_2 -> conv5_2 (in-place)
I0321 00:10:50.592783  5826 net.cpp:150] Setting up relu5_2
I0321 00:10:50.592800  5826 net.cpp:157] Top shape: 1 512 19 19 (184832)
I0321 00:10:50.592806  5826 net.cpp:165] Memory required for data: 218913920
I0321 00:10:50.592813  5826 layer_factory.hpp:77] Creating layer conv5_3
I0321 00:10:50.592833  5826 net.cpp:100] Creating Layer conv5_3
I0321 00:10:50.592841  5826 net.cpp:434] conv5_3 <- conv5_2
I0321 00:10:50.592851  5826 net.cpp:408] conv5_3 -> conv5_3
I0321 00:10:50.618813  5826 net.cpp:150] Setting up conv5_3
I0321 00:10:50.618845  5826 net.cpp:157] Top shape: 1 512 19 19 (184832)
I0321 00:10:50.618875  5826 net.cpp:165] Memory required for data: 219653248
I0321 00:10:50.618890  5826 layer_factory.hpp:77] Creating layer relu5_3
I0321 00:10:50.618911  5826 net.cpp:100] Creating Layer relu5_3
I0321 00:10:50.618922  5826 net.cpp:434] relu5_3 <- conv5_3
I0321 00:10:50.618932  5826 net.cpp:395] relu5_3 -> conv5_3 (in-place)
I0321 00:10:50.619225  5826 net.cpp:150] Setting up relu5_3
I0321 00:10:50.619240  5826 net.cpp:157] Top shape: 1 512 19 19 (184832)
I0321 00:10:50.619246  5826 net.cpp:165] Memory required for data: 220392576
I0321 00:10:50.619252  5826 layer_factory.hpp:77] Creating layer pool5
I0321 00:10:50.619263  5826 net.cpp:100] Creating Layer pool5
I0321 00:10:50.619271  5826 net.cpp:434] pool5 <- conv5_3
I0321 00:10:50.619280  5826 net.cpp:408] pool5 -> pool5
I0321 00:10:50.619400  5826 net.cpp:150] Setting up pool5
I0321 00:10:50.619413  5826 net.cpp:157] Top shape: 1 512 19 19 (184832)
I0321 00:10:50.619419  5826 net.cpp:165] Memory required for data: 221131904
I0321 00:10:50.619426  5826 layer_factory.hpp:77] Creating layer fc6_depthwise
I0321 00:10:50.619442  5826 net.cpp:100] Creating Layer fc6_depthwise
I0321 00:10:50.619451  5826 net.cpp:434] fc6_depthwise <- pool5
I0321 00:10:50.619460  5826 net.cpp:408] fc6_depthwise -> fc6_3x3
I0321 00:10:50.620044  5826 net.cpp:150] Setting up fc6_depthwise
I0321 00:10:50.620060  5826 net.cpp:157] Top shape: 1 512 19 19 (184832)
I0321 00:10:50.620065  5826 net.cpp:165] Memory required for data: 221871232
I0321 00:10:50.620074  5826 layer_factory.hpp:77] Creating layer fc6_3x3_relu
I0321 00:10:50.620085  5826 net.cpp:100] Creating Layer fc6_3x3_relu
I0321 00:10:50.620091  5826 net.cpp:434] fc6_3x3_relu <- fc6_3x3
I0321 00:10:50.620098  5826 net.cpp:395] fc6_3x3_relu -> fc6_3x3 (in-place)
I0321 00:10:50.620393  5826 net.cpp:150] Setting up fc6_3x3_relu
I0321 00:10:50.620409  5826 net.cpp:157] Top shape: 1 512 19 19 (184832)
I0321 00:10:50.620414  5826 net.cpp:165] Memory required for data: 222610560
I0321 00:10:50.620420  5826 layer_factory.hpp:77] Creating layer fc6_1x1
I0321 00:10:50.620434  5826 net.cpp:100] Creating Layer fc6_1x1
I0321 00:10:50.620442  5826 net.cpp:434] fc6_1x1 <- fc6_3x3
I0321 00:10:50.620453  5826 net.cpp:408] fc6_1x1 -> fc6
I0321 00:10:50.626772  5826 net.cpp:150] Setting up fc6_1x1
I0321 00:10:50.626798  5826 net.cpp:157] Top shape: 1 1024 19 19 (369664)
I0321 00:10:50.626806  5826 net.cpp:165] Memory required for data: 224089216
I0321 00:10:50.626816  5826 layer_factory.hpp:77] Creating layer relu6
I0321 00:10:50.626829  5826 net.cpp:100] Creating Layer relu6
I0321 00:10:50.626837  5826 net.cpp:434] relu6 <- fc6
I0321 00:10:50.626848  5826 net.cpp:395] relu6 -> fc6 (in-place)
I0321 00:10:50.627166  5826 net.cpp:150] Setting up relu6
I0321 00:10:50.627180  5826 net.cpp:157] Top shape: 1 1024 19 19 (369664)
I0321 00:10:50.627187  5826 net.cpp:165] Memory required for data: 225567872
I0321 00:10:50.627192  5826 layer_factory.hpp:77] Creating layer fc7
I0321 00:10:50.627209  5826 net.cpp:100] Creating Layer fc7
I0321 00:10:50.627218  5826 net.cpp:434] fc7 <- fc6
I0321 00:10:50.627228  5826 net.cpp:408] fc7 -> fc7
I0321 00:10:50.641237  5826 net.cpp:150] Setting up fc7
I0321 00:10:50.641268  5826 net.cpp:157] Top shape: 1 1024 19 19 (369664)
I0321 00:10:50.641274  5826 net.cpp:165] Memory required for data: 227046528
I0321 00:10:50.641286  5826 layer_factory.hpp:77] Creating layer relu7
I0321 00:10:50.641305  5826 net.cpp:100] Creating Layer relu7
I0321 00:10:50.641315  5826 net.cpp:434] relu7 <- fc7
I0321 00:10:50.641324  5826 net.cpp:395] relu7 -> fc7 (in-place)
I0321 00:10:50.642465  5826 net.cpp:150] Setting up relu7
I0321 00:10:50.642484  5826 net.cpp:157] Top shape: 1 1024 19 19 (369664)
I0321 00:10:50.642491  5826 net.cpp:165] Memory required for data: 228525184
I0321 00:10:50.642496  5826 layer_factory.hpp:77] Creating layer fc7_relu7_0_split
I0321 00:10:50.642505  5826 net.cpp:100] Creating Layer fc7_relu7_0_split
I0321 00:10:50.642513  5826 net.cpp:434] fc7_relu7_0_split <- fc7
I0321 00:10:50.642524  5826 net.cpp:408] fc7_relu7_0_split -> fc7_relu7_0_split_0
I0321 00:10:50.642554  5826 net.cpp:408] fc7_relu7_0_split -> fc7_relu7_0_split_1
I0321 00:10:50.642567  5826 net.cpp:408] fc7_relu7_0_split -> fc7_relu7_0_split_2
I0321 00:10:50.642578  5826 net.cpp:408] fc7_relu7_0_split -> fc7_relu7_0_split_3
I0321 00:10:50.642702  5826 net.cpp:150] Setting up fc7_relu7_0_split
I0321 00:10:50.642716  5826 net.cpp:157] Top shape: 1 1024 19 19 (369664)
I0321 00:10:50.642724  5826 net.cpp:157] Top shape: 1 1024 19 19 (369664)
I0321 00:10:50.642730  5826 net.cpp:157] Top shape: 1 1024 19 19 (369664)
I0321 00:10:50.642736  5826 net.cpp:157] Top shape: 1 1024 19 19 (369664)
I0321 00:10:50.642742  5826 net.cpp:165] Memory required for data: 234439808
I0321 00:10:50.642747  5826 layer_factory.hpp:77] Creating layer conv6_1
I0321 00:10:50.642788  5826 net.cpp:100] Creating Layer conv6_1
I0321 00:10:50.642798  5826 net.cpp:434] conv6_1 <- fc7_relu7_0_split_0
I0321 00:10:50.642810  5826 net.cpp:408] conv6_1 -> conv6_1
I0321 00:10:50.648492  5826 net.cpp:150] Setting up conv6_1
I0321 00:10:50.648521  5826 net.cpp:157] Top shape: 1 256 19 19 (92416)
I0321 00:10:50.648527  5826 net.cpp:165] Memory required for data: 234809472
I0321 00:10:50.648547  5826 layer_factory.hpp:77] Creating layer conv6_1_relu
I0321 00:10:50.648561  5826 net.cpp:100] Creating Layer conv6_1_relu
I0321 00:10:50.648571  5826 net.cpp:434] conv6_1_relu <- conv6_1
I0321 00:10:50.648581  5826 net.cpp:395] conv6_1_relu -> conv6_1 (in-place)
I0321 00:10:50.648845  5826 net.cpp:150] Setting up conv6_1_relu
I0321 00:10:50.648859  5826 net.cpp:157] Top shape: 1 256 19 19 (92416)
I0321 00:10:50.648866  5826 net.cpp:165] Memory required for data: 235179136
I0321 00:10:50.648871  5826 layer_factory.hpp:77] Creating layer conv6_2
I0321 00:10:50.648888  5826 net.cpp:100] Creating Layer conv6_2
I0321 00:10:50.648896  5826 net.cpp:434] conv6_2 <- conv6_1
I0321 00:10:50.648906  5826 net.cpp:408] conv6_2 -> conv6_2
I0321 00:10:50.664326  5826 net.cpp:150] Setting up conv6_2
I0321 00:10:50.664358  5826 net.cpp:157] Top shape: 1 512 10 10 (51200)
I0321 00:10:50.664364  5826 net.cpp:165] Memory required for data: 235383936
I0321 00:10:50.664378  5826 layer_factory.hpp:77] Creating layer conv6_2_relu
I0321 00:10:50.664391  5826 net.cpp:100] Creating Layer conv6_2_relu
I0321 00:10:50.664399  5826 net.cpp:434] conv6_2_relu <- conv6_2
I0321 00:10:50.664412  5826 net.cpp:395] conv6_2_relu -> conv6_2 (in-place)
I0321 00:10:50.664683  5826 net.cpp:150] Setting up conv6_2_relu
I0321 00:10:50.664697  5826 net.cpp:157] Top shape: 1 512 10 10 (51200)
I0321 00:10:50.664703  5826 net.cpp:165] Memory required for data: 235588736
I0321 00:10:50.664708  5826 layer_factory.hpp:77] Creating layer conv6_2_conv6_2_relu_0_split
I0321 00:10:50.664718  5826 net.cpp:100] Creating Layer conv6_2_conv6_2_relu_0_split
I0321 00:10:50.664726  5826 net.cpp:434] conv6_2_conv6_2_relu_0_split <- conv6_2
I0321 00:10:50.664734  5826 net.cpp:408] conv6_2_conv6_2_relu_0_split -> conv6_2_conv6_2_relu_0_split_0
I0321 00:10:50.664746  5826 net.cpp:408] conv6_2_conv6_2_relu_0_split -> conv6_2_conv6_2_relu_0_split_1
I0321 00:10:50.664759  5826 net.cpp:408] conv6_2_conv6_2_relu_0_split -> conv6_2_conv6_2_relu_0_split_2
I0321 00:10:50.664770  5826 net.cpp:408] conv6_2_conv6_2_relu_0_split -> conv6_2_conv6_2_relu_0_split_3
I0321 00:10:50.664894  5826 net.cpp:150] Setting up conv6_2_conv6_2_relu_0_split
I0321 00:10:50.664906  5826 net.cpp:157] Top shape: 1 512 10 10 (51200)
I0321 00:10:50.664914  5826 net.cpp:157] Top shape: 1 512 10 10 (51200)
I0321 00:10:50.664921  5826 net.cpp:157] Top shape: 1 512 10 10 (51200)
I0321 00:10:50.664927  5826 net.cpp:157] Top shape: 1 512 10 10 (51200)
I0321 00:10:50.664933  5826 net.cpp:165] Memory required for data: 236407936
I0321 00:10:50.664939  5826 layer_factory.hpp:77] Creating layer conv7_1
I0321 00:10:50.664959  5826 net.cpp:100] Creating Layer conv7_1
I0321 00:10:50.664968  5826 net.cpp:434] conv7_1 <- conv6_2_conv6_2_relu_0_split_0
I0321 00:10:50.664978  5826 net.cpp:408] conv7_1 -> conv7_1
I0321 00:10:50.667765  5826 net.cpp:150] Setting up conv7_1
I0321 00:10:50.667799  5826 net.cpp:157] Top shape: 1 128 10 10 (12800)
I0321 00:10:50.667809  5826 net.cpp:165] Memory required for data: 236459136
I0321 00:10:50.667819  5826 layer_factory.hpp:77] Creating layer conv7_1_relu
I0321 00:10:50.667829  5826 net.cpp:100] Creating Layer conv7_1_relu
I0321 00:10:50.667836  5826 net.cpp:434] conv7_1_relu <- conv7_1
I0321 00:10:50.667843  5826 net.cpp:395] conv7_1_relu -> conv7_1 (in-place)
I0321 00:10:50.668985  5826 net.cpp:150] Setting up conv7_1_relu
I0321 00:10:50.669003  5826 net.cpp:157] Top shape: 1 128 10 10 (12800)
I0321 00:10:50.669009  5826 net.cpp:165] Memory required for data: 236510336
I0321 00:10:50.669014  5826 layer_factory.hpp:77] Creating layer conv7_2
I0321 00:10:50.669029  5826 net.cpp:100] Creating Layer conv7_2
I0321 00:10:50.669039  5826 net.cpp:434] conv7_2 <- conv7_1
I0321 00:10:50.669049  5826 net.cpp:408] conv7_2 -> conv7_2
I0321 00:10:50.675019  5826 net.cpp:150] Setting up conv7_2
I0321 00:10:50.675045  5826 net.cpp:157] Top shape: 1 256 5 5 (6400)
I0321 00:10:50.675051  5826 net.cpp:165] Memory required for data: 236535936
I0321 00:10:50.675062  5826 layer_factory.hpp:77] Creating layer conv7_2_relu
I0321 00:10:50.675076  5826 net.cpp:100] Creating Layer conv7_2_relu
I0321 00:10:50.675083  5826 net.cpp:434] conv7_2_relu <- conv7_2
I0321 00:10:50.675143  5826 net.cpp:395] conv7_2_relu -> conv7_2 (in-place)
I0321 00:10:50.675431  5826 net.cpp:150] Setting up conv7_2_relu
I0321 00:10:50.675446  5826 net.cpp:157] Top shape: 1 256 5 5 (6400)
I0321 00:10:50.675451  5826 net.cpp:165] Memory required for data: 236561536
I0321 00:10:50.675457  5826 layer_factory.hpp:77] Creating layer conv7_2_conv7_2_relu_0_split
I0321 00:10:50.675467  5826 net.cpp:100] Creating Layer conv7_2_conv7_2_relu_0_split
I0321 00:10:50.675473  5826 net.cpp:434] conv7_2_conv7_2_relu_0_split <- conv7_2
I0321 00:10:50.675483  5826 net.cpp:408] conv7_2_conv7_2_relu_0_split -> conv7_2_conv7_2_relu_0_split_0
I0321 00:10:50.675495  5826 net.cpp:408] conv7_2_conv7_2_relu_0_split -> conv7_2_conv7_2_relu_0_split_1
I0321 00:10:50.675508  5826 net.cpp:408] conv7_2_conv7_2_relu_0_split -> conv7_2_conv7_2_relu_0_split_2
I0321 00:10:50.675516  5826 net.cpp:408] conv7_2_conv7_2_relu_0_split -> conv7_2_conv7_2_relu_0_split_3
I0321 00:10:50.675683  5826 net.cpp:150] Setting up conv7_2_conv7_2_relu_0_split
I0321 00:10:50.675698  5826 net.cpp:157] Top shape: 1 256 5 5 (6400)
I0321 00:10:50.675704  5826 net.cpp:157] Top shape: 1 256 5 5 (6400)
I0321 00:10:50.675709  5826 net.cpp:157] Top shape: 1 256 5 5 (6400)
I0321 00:10:50.675717  5826 net.cpp:157] Top shape: 1 256 5 5 (6400)
I0321 00:10:50.675724  5826 net.cpp:165] Memory required for data: 236663936
I0321 00:10:50.675729  5826 layer_factory.hpp:77] Creating layer conv8_1
I0321 00:10:50.675746  5826 net.cpp:100] Creating Layer conv8_1
I0321 00:10:50.675755  5826 net.cpp:434] conv8_1 <- conv7_2_conv7_2_relu_0_split_0
I0321 00:10:50.675765  5826 net.cpp:408] conv8_1 -> conv8_1
I0321 00:10:50.678292  5826 net.cpp:150] Setting up conv8_1
I0321 00:10:50.678310  5826 net.cpp:157] Top shape: 1 128 5 5 (3200)
I0321 00:10:50.678316  5826 net.cpp:165] Memory required for data: 236676736
I0321 00:10:50.678328  5826 layer_factory.hpp:77] Creating layer conv8_1_relu
I0321 00:10:50.678339  5826 net.cpp:100] Creating Layer conv8_1_relu
I0321 00:10:50.678346  5826 net.cpp:434] conv8_1_relu <- conv8_1
I0321 00:10:50.678354  5826 net.cpp:395] conv8_1_relu -> conv8_1 (in-place)
I0321 00:10:50.678653  5826 net.cpp:150] Setting up conv8_1_relu
I0321 00:10:50.678668  5826 net.cpp:157] Top shape: 1 128 5 5 (3200)
I0321 00:10:50.678673  5826 net.cpp:165] Memory required for data: 236689536
I0321 00:10:50.678679  5826 layer_factory.hpp:77] Creating layer conv8_2
I0321 00:10:50.678694  5826 net.cpp:100] Creating Layer conv8_2
I0321 00:10:50.678702  5826 net.cpp:434] conv8_2 <- conv8_1
I0321 00:10:50.678714  5826 net.cpp:408] conv8_2 -> conv8_2
I0321 00:10:50.685513  5826 net.cpp:150] Setting up conv8_2
I0321 00:10:50.685539  5826 net.cpp:157] Top shape: 1 256 3 3 (2304)
I0321 00:10:50.685566  5826 net.cpp:165] Memory required for data: 236698752
I0321 00:10:50.685578  5826 layer_factory.hpp:77] Creating layer conv8_2_relu
I0321 00:10:50.685592  5826 net.cpp:100] Creating Layer conv8_2_relu
I0321 00:10:50.685601  5826 net.cpp:434] conv8_2_relu <- conv8_2
I0321 00:10:50.685609  5826 net.cpp:395] conv8_2_relu -> conv8_2 (in-place)
I0321 00:10:50.686837  5826 net.cpp:150] Setting up conv8_2_relu
I0321 00:10:50.686856  5826 net.cpp:157] Top shape: 1 256 3 3 (2304)
I0321 00:10:50.686862  5826 net.cpp:165] Memory required for data: 236707968
I0321 00:10:50.686867  5826 layer_factory.hpp:77] Creating layer conv8_2_conv8_2_relu_0_split
I0321 00:10:50.686877  5826 net.cpp:100] Creating Layer conv8_2_conv8_2_relu_0_split
I0321 00:10:50.686884  5826 net.cpp:434] conv8_2_conv8_2_relu_0_split <- conv8_2
I0321 00:10:50.686893  5826 net.cpp:408] conv8_2_conv8_2_relu_0_split -> conv8_2_conv8_2_relu_0_split_0
I0321 00:10:50.686905  5826 net.cpp:408] conv8_2_conv8_2_relu_0_split -> conv8_2_conv8_2_relu_0_split_1
I0321 00:10:50.686915  5826 net.cpp:408] conv8_2_conv8_2_relu_0_split -> conv8_2_conv8_2_relu_0_split_2
I0321 00:10:50.686924  5826 net.cpp:408] conv8_2_conv8_2_relu_0_split -> conv8_2_conv8_2_relu_0_split_3
I0321 00:10:50.687048  5826 net.cpp:150] Setting up conv8_2_conv8_2_relu_0_split
I0321 00:10:50.687062  5826 net.cpp:157] Top shape: 1 256 3 3 (2304)
I0321 00:10:50.687067  5826 net.cpp:157] Top shape: 1 256 3 3 (2304)
I0321 00:10:50.687073  5826 net.cpp:157] Top shape: 1 256 3 3 (2304)
I0321 00:10:50.687081  5826 net.cpp:157] Top shape: 1 256 3 3 (2304)
I0321 00:10:50.687086  5826 net.cpp:165] Memory required for data: 236744832
I0321 00:10:50.687091  5826 layer_factory.hpp:77] Creating layer conv9_1
I0321 00:10:50.687109  5826 net.cpp:100] Creating Layer conv9_1
I0321 00:10:50.687119  5826 net.cpp:434] conv9_1 <- conv8_2_conv8_2_relu_0_split_0
I0321 00:10:50.687127  5826 net.cpp:408] conv9_1 -> conv9_1
I0321 00:10:50.690764  5826 net.cpp:150] Setting up conv9_1
I0321 00:10:50.690788  5826 net.cpp:157] Top shape: 1 128 3 3 (1152)
I0321 00:10:50.690793  5826 net.cpp:165] Memory required for data: 236749440
I0321 00:10:50.690804  5826 layer_factory.hpp:77] Creating layer conv9_1_relu
I0321 00:10:50.690817  5826 net.cpp:100] Creating Layer conv9_1_relu
I0321 00:10:50.690826  5826 net.cpp:434] conv9_1_relu <- conv9_1
I0321 00:10:50.690836  5826 net.cpp:395] conv9_1_relu -> conv9_1 (in-place)
I0321 00:10:50.691102  5826 net.cpp:150] Setting up conv9_1_relu
I0321 00:10:50.691115  5826 net.cpp:157] Top shape: 1 128 3 3 (1152)
I0321 00:10:50.691121  5826 net.cpp:165] Memory required for data: 236754048
I0321 00:10:50.691128  5826 layer_factory.hpp:77] Creating layer conv9_2
I0321 00:10:50.691143  5826 net.cpp:100] Creating Layer conv9_2
I0321 00:10:50.691150  5826 net.cpp:434] conv9_2 <- conv9_1
I0321 00:10:50.691160  5826 net.cpp:408] conv9_2 -> conv9_2
I0321 00:10:50.698041  5826 net.cpp:150] Setting up conv9_2
I0321 00:10:50.698067  5826 net.cpp:157] Top shape: 1 256 1 1 (256)
I0321 00:10:50.698073  5826 net.cpp:165] Memory required for data: 236755072
I0321 00:10:50.698084  5826 layer_factory.hpp:77] Creating layer conv9_2_relu
I0321 00:10:50.698096  5826 net.cpp:100] Creating Layer conv9_2_relu
I0321 00:10:50.698104  5826 net.cpp:434] conv9_2_relu <- conv9_2
I0321 00:10:50.698115  5826 net.cpp:395] conv9_2_relu -> conv9_2 (in-place)
I0321 00:10:50.698431  5826 net.cpp:150] Setting up conv9_2_relu
I0321 00:10:50.698447  5826 net.cpp:157] Top shape: 1 256 1 1 (256)
I0321 00:10:50.698453  5826 net.cpp:165] Memory required for data: 236756096
I0321 00:10:50.698458  5826 layer_factory.hpp:77] Creating layer conv9_2_conv9_2_relu_0_split
I0321 00:10:50.698467  5826 net.cpp:100] Creating Layer conv9_2_conv9_2_relu_0_split
I0321 00:10:50.698475  5826 net.cpp:434] conv9_2_conv9_2_relu_0_split <- conv9_2
I0321 00:10:50.698485  5826 net.cpp:408] conv9_2_conv9_2_relu_0_split -> conv9_2_conv9_2_relu_0_split_0
I0321 00:10:50.698498  5826 net.cpp:408] conv9_2_conv9_2_relu_0_split -> conv9_2_conv9_2_relu_0_split_1
I0321 00:10:50.698520  5826 net.cpp:408] conv9_2_conv9_2_relu_0_split -> conv9_2_conv9_2_relu_0_split_2
I0321 00:10:50.698648  5826 net.cpp:150] Setting up conv9_2_conv9_2_relu_0_split
I0321 00:10:50.698660  5826 net.cpp:157] Top shape: 1 256 1 1 (256)
I0321 00:10:50.698666  5826 net.cpp:157] Top shape: 1 256 1 1 (256)
I0321 00:10:50.698673  5826 net.cpp:157] Top shape: 1 256 1 1 (256)
I0321 00:10:50.698679  5826 net.cpp:165] Memory required for data: 236759168
I0321 00:10:50.698684  5826 layer_factory.hpp:77] Creating layer conv4_3_norm
I0321 00:10:50.698696  5826 net.cpp:100] Creating Layer conv4_3_norm
I0321 00:10:50.698704  5826 net.cpp:434] conv4_3_norm <- conv4_3_relu4_3_0_split_1
I0321 00:10:50.698714  5826 net.cpp:408] conv4_3_norm -> conv4_3_norm
I0321 00:10:50.699118  5826 net.cpp:150] Setting up conv4_3_norm
I0321 00:10:50.699134  5826 net.cpp:157] Top shape: 1 512 38 38 (739328)
I0321 00:10:50.699141  5826 net.cpp:165] Memory required for data: 239716480
I0321 00:10:50.699148  5826 layer_factory.hpp:77] Creating layer conv4_3_norm_conv4_3_norm_0_split
I0321 00:10:50.699160  5826 net.cpp:100] Creating Layer conv4_3_norm_conv4_3_norm_0_split
I0321 00:10:50.699167  5826 net.cpp:434] conv4_3_norm_conv4_3_norm_0_split <- conv4_3_norm
I0321 00:10:50.699175  5826 net.cpp:408] conv4_3_norm_conv4_3_norm_0_split -> conv4_3_norm_conv4_3_norm_0_split_0
I0321 00:10:50.699187  5826 net.cpp:408] conv4_3_norm_conv4_3_norm_0_split -> conv4_3_norm_conv4_3_norm_0_split_1
I0321 00:10:50.699196  5826 net.cpp:408] conv4_3_norm_conv4_3_norm_0_split -> conv4_3_norm_conv4_3_norm_0_split_2
I0321 00:10:50.699288  5826 net.cpp:150] Setting up conv4_3_norm_conv4_3_norm_0_split
I0321 00:10:50.699301  5826 net.cpp:157] Top shape: 1 512 38 38 (739328)
I0321 00:10:50.699308  5826 net.cpp:157] Top shape: 1 512 38 38 (739328)
I0321 00:10:50.699349  5826 net.cpp:157] Top shape: 1 512 38 38 (739328)
I0321 00:10:50.699359  5826 net.cpp:165] Memory required for data: 248588416
I0321 00:10:50.699364  5826 layer_factory.hpp:77] Creating layer conv4_3_norm_mbox_loc
I0321 00:10:50.699381  5826 net.cpp:100] Creating Layer conv4_3_norm_mbox_loc
I0321 00:10:50.699389  5826 net.cpp:434] conv4_3_norm_mbox_loc <- conv4_3_norm_conv4_3_norm_0_split_0
I0321 00:10:50.699400  5826 net.cpp:408] conv4_3_norm_mbox_loc -> conv4_3_norm_mbox_loc
I0321 00:10:50.703130  5826 net.cpp:150] Setting up conv4_3_norm_mbox_loc
I0321 00:10:50.703150  5826 net.cpp:157] Top shape: 1 16 38 38 (23104)
I0321 00:10:50.703156  5826 net.cpp:165] Memory required for data: 248680832
I0321 00:10:50.703166  5826 layer_factory.hpp:77] Creating layer conv4_3_norm_mbox_loc_perm
I0321 00:10:50.703191  5826 net.cpp:100] Creating Layer conv4_3_norm_mbox_loc_perm
I0321 00:10:50.703202  5826 net.cpp:434] conv4_3_norm_mbox_loc_perm <- conv4_3_norm_mbox_loc
I0321 00:10:50.703212  5826 net.cpp:408] conv4_3_norm_mbox_loc_perm -> conv4_3_norm_mbox_loc_perm
I0321 00:10:50.703465  5826 net.cpp:150] Setting up conv4_3_norm_mbox_loc_perm
I0321 00:10:50.703482  5826 net.cpp:157] Top shape: 1 38 38 16 (23104)
I0321 00:10:50.703490  5826 net.cpp:165] Memory required for data: 248773248
I0321 00:10:50.703496  5826 layer_factory.hpp:77] Creating layer conv4_3_norm_mbox_loc_flat
I0321 00:10:50.703506  5826 net.cpp:100] Creating Layer conv4_3_norm_mbox_loc_flat
I0321 00:10:50.703513  5826 net.cpp:434] conv4_3_norm_mbox_loc_flat <- conv4_3_norm_mbox_loc_perm
I0321 00:10:50.703522  5826 net.cpp:408] conv4_3_norm_mbox_loc_flat -> conv4_3_norm_mbox_loc_flat
I0321 00:10:50.703570  5826 net.cpp:150] Setting up conv4_3_norm_mbox_loc_flat
I0321 00:10:50.703582  5826 net.cpp:157] Top shape: 1 23104 (23104)
I0321 00:10:50.703586  5826 net.cpp:165] Memory required for data: 248865664
I0321 00:10:50.703593  5826 layer_factory.hpp:77] Creating layer conv4_3_norm_mbox_conf
I0321 00:10:50.703605  5826 net.cpp:100] Creating Layer conv4_3_norm_mbox_conf
I0321 00:10:50.703613  5826 net.cpp:434] conv4_3_norm_mbox_conf <- conv4_3_norm_conv4_3_norm_0_split_1
I0321 00:10:50.703624  5826 net.cpp:408] conv4_3_norm_mbox_conf -> conv4_3_norm_mbox_conf
I0321 00:10:50.708771  5826 net.cpp:150] Setting up conv4_3_norm_mbox_conf
I0321 00:10:50.708794  5826 net.cpp:157] Top shape: 1 44 38 38 (63536)
I0321 00:10:50.708801  5826 net.cpp:165] Memory required for data: 249119808
I0321 00:10:50.708811  5826 layer_factory.hpp:77] Creating layer conv4_3_norm_mbox_conf_perm
I0321 00:10:50.708825  5826 net.cpp:100] Creating Layer conv4_3_norm_mbox_conf_perm
I0321 00:10:50.708833  5826 net.cpp:434] conv4_3_norm_mbox_conf_perm <- conv4_3_norm_mbox_conf
I0321 00:10:50.708842  5826 net.cpp:408] conv4_3_norm_mbox_conf_perm -> conv4_3_norm_mbox_conf_perm
I0321 00:10:50.709051  5826 net.cpp:150] Setting up conv4_3_norm_mbox_conf_perm
I0321 00:10:50.709065  5826 net.cpp:157] Top shape: 1 38 38 44 (63536)
I0321 00:10:50.709070  5826 net.cpp:165] Memory required for data: 249373952
I0321 00:10:50.709075  5826 layer_factory.hpp:77] Creating layer conv4_3_norm_mbox_conf_flat
I0321 00:10:50.709086  5826 net.cpp:100] Creating Layer conv4_3_norm_mbox_conf_flat
I0321 00:10:50.709095  5826 net.cpp:434] conv4_3_norm_mbox_conf_flat <- conv4_3_norm_mbox_conf_perm
I0321 00:10:50.709103  5826 net.cpp:408] conv4_3_norm_mbox_conf_flat -> conv4_3_norm_mbox_conf_flat
I0321 00:10:50.709149  5826 net.cpp:150] Setting up conv4_3_norm_mbox_conf_flat
I0321 00:10:50.709161  5826 net.cpp:157] Top shape: 1 63536 (63536)
I0321 00:10:50.709165  5826 net.cpp:165] Memory required for data: 249628096
I0321 00:10:50.709170  5826 layer_factory.hpp:77] Creating layer conv4_3_norm_mbox_priorbox
I0321 00:10:50.709182  5826 net.cpp:100] Creating Layer conv4_3_norm_mbox_priorbox
I0321 00:10:50.709189  5826 net.cpp:434] conv4_3_norm_mbox_priorbox <- conv4_3_norm_conv4_3_norm_0_split_2
I0321 00:10:50.709199  5826 net.cpp:434] conv4_3_norm_mbox_priorbox <- data_data_0_split_1
I0321 00:10:50.709208  5826 net.cpp:408] conv4_3_norm_mbox_priorbox -> conv4_3_norm_mbox_priorbox
I0321 00:10:50.709259  5826 net.cpp:150] Setting up conv4_3_norm_mbox_priorbox
I0321 00:10:50.709270  5826 net.cpp:157] Top shape: 1 2 23104 (46208)
I0321 00:10:50.709277  5826 net.cpp:165] Memory required for data: 249812928
I0321 00:10:50.709282  5826 layer_factory.hpp:77] Creating layer fc7_mbox_loc
I0321 00:10:50.709296  5826 net.cpp:100] Creating Layer fc7_mbox_loc
I0321 00:10:50.709305  5826 net.cpp:434] fc7_mbox_loc <- fc7_relu7_0_split_1
I0321 00:10:50.709316  5826 net.cpp:408] fc7_mbox_loc -> fc7_mbox_loc
I0321 00:10:50.714216  5826 net.cpp:150] Setting up fc7_mbox_loc
I0321 00:10:50.714237  5826 net.cpp:157] Top shape: 1 24 19 19 (8664)
I0321 00:10:50.714244  5826 net.cpp:165] Memory required for data: 249847584
I0321 00:10:50.714256  5826 layer_factory.hpp:77] Creating layer fc7_mbox_loc_perm
I0321 00:10:50.714267  5826 net.cpp:100] Creating Layer fc7_mbox_loc_perm
I0321 00:10:50.714274  5826 net.cpp:434] fc7_mbox_loc_perm <- fc7_mbox_loc
I0321 00:10:50.714285  5826 net.cpp:408] fc7_mbox_loc_perm -> fc7_mbox_loc_perm
I0321 00:10:50.714510  5826 net.cpp:150] Setting up fc7_mbox_loc_perm
I0321 00:10:50.714525  5826 net.cpp:157] Top shape: 1 19 19 24 (8664)
I0321 00:10:50.714530  5826 net.cpp:165] Memory required for data: 249882240
I0321 00:10:50.714536  5826 layer_factory.hpp:77] Creating layer fc7_mbox_loc_flat
I0321 00:10:50.714546  5826 net.cpp:100] Creating Layer fc7_mbox_loc_flat
I0321 00:10:50.714553  5826 net.cpp:434] fc7_mbox_loc_flat <- fc7_mbox_loc_perm
I0321 00:10:50.714563  5826 net.cpp:408] fc7_mbox_loc_flat -> fc7_mbox_loc_flat
I0321 00:10:50.714609  5826 net.cpp:150] Setting up fc7_mbox_loc_flat
I0321 00:10:50.714622  5826 net.cpp:157] Top shape: 1 8664 (8664)
I0321 00:10:50.714627  5826 net.cpp:165] Memory required for data: 249916896
I0321 00:10:50.714632  5826 layer_factory.hpp:77] Creating layer fc7_mbox_conf
I0321 00:10:50.714646  5826 net.cpp:100] Creating Layer fc7_mbox_conf
I0321 00:10:50.714655  5826 net.cpp:434] fc7_mbox_conf <- fc7_relu7_0_split_2
I0321 00:10:50.714666  5826 net.cpp:408] fc7_mbox_conf -> fc7_mbox_conf
I0321 00:10:50.725011  5826 net.cpp:150] Setting up fc7_mbox_conf
I0321 00:10:50.725064  5826 net.cpp:157] Top shape: 1 66 19 19 (23826)
I0321 00:10:50.725071  5826 net.cpp:165] Memory required for data: 250012200
I0321 00:10:50.725083  5826 layer_factory.hpp:77] Creating layer fc7_mbox_conf_perm
I0321 00:10:50.725098  5826 net.cpp:100] Creating Layer fc7_mbox_conf_perm
I0321 00:10:50.725107  5826 net.cpp:434] fc7_mbox_conf_perm <- fc7_mbox_conf
I0321 00:10:50.725122  5826 net.cpp:408] fc7_mbox_conf_perm -> fc7_mbox_conf_perm
I0321 00:10:50.725333  5826 net.cpp:150] Setting up fc7_mbox_conf_perm
I0321 00:10:50.725347  5826 net.cpp:157] Top shape: 1 19 19 66 (23826)
I0321 00:10:50.725352  5826 net.cpp:165] Memory required for data: 250107504
I0321 00:10:50.725358  5826 layer_factory.hpp:77] Creating layer fc7_mbox_conf_flat
I0321 00:10:50.725366  5826 net.cpp:100] Creating Layer fc7_mbox_conf_flat
I0321 00:10:50.725373  5826 net.cpp:434] fc7_mbox_conf_flat <- fc7_mbox_conf_perm
I0321 00:10:50.725383  5826 net.cpp:408] fc7_mbox_conf_flat -> fc7_mbox_conf_flat
I0321 00:10:50.725471  5826 net.cpp:150] Setting up fc7_mbox_conf_flat
I0321 00:10:50.725486  5826 net.cpp:157] Top shape: 1 23826 (23826)
I0321 00:10:50.725491  5826 net.cpp:165] Memory required for data: 250202808
I0321 00:10:50.725495  5826 layer_factory.hpp:77] Creating layer fc7_mbox_priorbox
I0321 00:10:50.725507  5826 net.cpp:100] Creating Layer fc7_mbox_priorbox
I0321 00:10:50.725513  5826 net.cpp:434] fc7_mbox_priorbox <- fc7_relu7_0_split_3
I0321 00:10:50.725520  5826 net.cpp:434] fc7_mbox_priorbox <- data_data_0_split_2
I0321 00:10:50.725531  5826 net.cpp:408] fc7_mbox_priorbox -> fc7_mbox_priorbox
I0321 00:10:50.725594  5826 net.cpp:150] Setting up fc7_mbox_priorbox
I0321 00:10:50.725606  5826 net.cpp:157] Top shape: 1 2 8664 (17328)
I0321 00:10:50.725611  5826 net.cpp:165] Memory required for data: 250272120
I0321 00:10:50.725616  5826 layer_factory.hpp:77] Creating layer conv6_2_mbox_loc
I0321 00:10:50.725633  5826 net.cpp:100] Creating Layer conv6_2_mbox_loc
I0321 00:10:50.725641  5826 net.cpp:434] conv6_2_mbox_loc <- conv6_2_conv6_2_relu_0_split_1
I0321 00:10:50.725651  5826 net.cpp:408] conv6_2_mbox_loc -> conv6_2_mbox_loc
I0321 00:10:50.729709  5826 net.cpp:150] Setting up conv6_2_mbox_loc
I0321 00:10:50.729748  5826 net.cpp:157] Top shape: 1 24 10 10 (2400)
I0321 00:10:50.729758  5826 net.cpp:165] Memory required for data: 250281720
I0321 00:10:50.729768  5826 layer_factory.hpp:77] Creating layer conv6_2_mbox_loc_perm
I0321 00:10:50.729779  5826 net.cpp:100] Creating Layer conv6_2_mbox_loc_perm
I0321 00:10:50.729787  5826 net.cpp:434] conv6_2_mbox_loc_perm <- conv6_2_mbox_loc
I0321 00:10:50.729795  5826 net.cpp:408] conv6_2_mbox_loc_perm -> conv6_2_mbox_loc_perm
I0321 00:10:50.730010  5826 net.cpp:150] Setting up conv6_2_mbox_loc_perm
I0321 00:10:50.730022  5826 net.cpp:157] Top shape: 1 10 10 24 (2400)
I0321 00:10:50.730028  5826 net.cpp:165] Memory required for data: 250291320
I0321 00:10:50.730033  5826 layer_factory.hpp:77] Creating layer conv6_2_mbox_loc_flat
I0321 00:10:50.730044  5826 net.cpp:100] Creating Layer conv6_2_mbox_loc_flat
I0321 00:10:50.730051  5826 net.cpp:434] conv6_2_mbox_loc_flat <- conv6_2_mbox_loc_perm
I0321 00:10:50.730059  5826 net.cpp:408] conv6_2_mbox_loc_flat -> conv6_2_mbox_loc_flat
I0321 00:10:50.730104  5826 net.cpp:150] Setting up conv6_2_mbox_loc_flat
I0321 00:10:50.730116  5826 net.cpp:157] Top shape: 1 2400 (2400)
I0321 00:10:50.730120  5826 net.cpp:165] Memory required for data: 250300920
I0321 00:10:50.730127  5826 layer_factory.hpp:77] Creating layer conv6_2_mbox_conf
I0321 00:10:50.730140  5826 net.cpp:100] Creating Layer conv6_2_mbox_conf
I0321 00:10:50.730149  5826 net.cpp:434] conv6_2_mbox_conf <- conv6_2_conv6_2_relu_0_split_2
I0321 00:10:50.730159  5826 net.cpp:408] conv6_2_mbox_conf -> conv6_2_mbox_conf
I0321 00:10:50.737109  5826 net.cpp:150] Setting up conv6_2_mbox_conf
I0321 00:10:50.737135  5826 net.cpp:157] Top shape: 1 66 10 10 (6600)
I0321 00:10:50.737141  5826 net.cpp:165] Memory required for data: 250327320
I0321 00:10:50.737152  5826 layer_factory.hpp:77] Creating layer conv6_2_mbox_conf_perm
I0321 00:10:50.737181  5826 net.cpp:100] Creating Layer conv6_2_mbox_conf_perm
I0321 00:10:50.737191  5826 net.cpp:434] conv6_2_mbox_conf_perm <- conv6_2_mbox_conf
I0321 00:10:50.737201  5826 net.cpp:408] conv6_2_mbox_conf_perm -> conv6_2_mbox_conf_perm
I0321 00:10:50.737418  5826 net.cpp:150] Setting up conv6_2_mbox_conf_perm
I0321 00:10:50.737433  5826 net.cpp:157] Top shape: 1 10 10 66 (6600)
I0321 00:10:50.737478  5826 net.cpp:165] Memory required for data: 250353720
I0321 00:10:50.737486  5826 layer_factory.hpp:77] Creating layer conv6_2_mbox_conf_flat
I0321 00:10:50.737501  5826 net.cpp:100] Creating Layer conv6_2_mbox_conf_flat
I0321 00:10:50.737509  5826 net.cpp:434] conv6_2_mbox_conf_flat <- conv6_2_mbox_conf_perm
I0321 00:10:50.737519  5826 net.cpp:408] conv6_2_mbox_conf_flat -> conv6_2_mbox_conf_flat
I0321 00:10:50.737566  5826 net.cpp:150] Setting up conv6_2_mbox_conf_flat
I0321 00:10:50.737581  5826 net.cpp:157] Top shape: 1 6600 (6600)
I0321 00:10:50.737587  5826 net.cpp:165] Memory required for data: 250380120
I0321 00:10:50.737592  5826 layer_factory.hpp:77] Creating layer conv6_2_mbox_priorbox
I0321 00:10:50.737603  5826 net.cpp:100] Creating Layer conv6_2_mbox_priorbox
I0321 00:10:50.737610  5826 net.cpp:434] conv6_2_mbox_priorbox <- conv6_2_conv6_2_relu_0_split_3
I0321 00:10:50.737618  5826 net.cpp:434] conv6_2_mbox_priorbox <- data_data_0_split_3
I0321 00:10:50.737630  5826 net.cpp:408] conv6_2_mbox_priorbox -> conv6_2_mbox_priorbox
I0321 00:10:50.737716  5826 net.cpp:150] Setting up conv6_2_mbox_priorbox
I0321 00:10:50.737747  5826 net.cpp:157] Top shape: 1 2 2400 (4800)
I0321 00:10:50.737754  5826 net.cpp:165] Memory required for data: 250399320
I0321 00:10:50.737759  5826 layer_factory.hpp:77] Creating layer conv7_2_mbox_loc
I0321 00:10:50.737774  5826 net.cpp:100] Creating Layer conv7_2_mbox_loc
I0321 00:10:50.737782  5826 net.cpp:434] conv7_2_mbox_loc <- conv7_2_conv7_2_relu_0_split_1
I0321 00:10:50.737793  5826 net.cpp:408] conv7_2_mbox_loc -> conv7_2_mbox_loc
I0321 00:10:50.741333  5826 net.cpp:150] Setting up conv7_2_mbox_loc
I0321 00:10:50.741349  5826 net.cpp:157] Top shape: 1 24 5 5 (600)
I0321 00:10:50.741355  5826 net.cpp:165] Memory required for data: 250401720
I0321 00:10:50.741366  5826 layer_factory.hpp:77] Creating layer conv7_2_mbox_loc_perm
I0321 00:10:50.741375  5826 net.cpp:100] Creating Layer conv7_2_mbox_loc_perm
I0321 00:10:50.741382  5826 net.cpp:434] conv7_2_mbox_loc_perm <- conv7_2_mbox_loc
I0321 00:10:50.741392  5826 net.cpp:408] conv7_2_mbox_loc_perm -> conv7_2_mbox_loc_perm
I0321 00:10:50.741606  5826 net.cpp:150] Setting up conv7_2_mbox_loc_perm
I0321 00:10:50.741657  5826 net.cpp:157] Top shape: 1 5 5 24 (600)
I0321 00:10:50.741662  5826 net.cpp:165] Memory required for data: 250404120
I0321 00:10:50.741667  5826 layer_factory.hpp:77] Creating layer conv7_2_mbox_loc_flat
I0321 00:10:50.741681  5826 net.cpp:100] Creating Layer conv7_2_mbox_loc_flat
I0321 00:10:50.741688  5826 net.cpp:434] conv7_2_mbox_loc_flat <- conv7_2_mbox_loc_perm
I0321 00:10:50.741699  5826 net.cpp:408] conv7_2_mbox_loc_flat -> conv7_2_mbox_loc_flat
I0321 00:10:50.741760  5826 net.cpp:150] Setting up conv7_2_mbox_loc_flat
I0321 00:10:50.741772  5826 net.cpp:157] Top shape: 1 600 (600)
I0321 00:10:50.741777  5826 net.cpp:165] Memory required for data: 250406520
I0321 00:10:50.741782  5826 layer_factory.hpp:77] Creating layer conv7_2_mbox_conf
I0321 00:10:50.741799  5826 net.cpp:100] Creating Layer conv7_2_mbox_conf
I0321 00:10:50.741807  5826 net.cpp:434] conv7_2_mbox_conf <- conv7_2_conv7_2_relu_0_split_2
I0321 00:10:50.741822  5826 net.cpp:408] conv7_2_mbox_conf -> conv7_2_mbox_conf
I0321 00:10:50.746312  5826 net.cpp:150] Setting up conv7_2_mbox_conf
I0321 00:10:50.746333  5826 net.cpp:157] Top shape: 1 66 5 5 (1650)
I0321 00:10:50.746340  5826 net.cpp:165] Memory required for data: 250413120
I0321 00:10:50.746364  5826 layer_factory.hpp:77] Creating layer conv7_2_mbox_conf_perm
I0321 00:10:50.746378  5826 net.cpp:100] Creating Layer conv7_2_mbox_conf_perm
I0321 00:10:50.746402  5826 net.cpp:434] conv7_2_mbox_conf_perm <- conv7_2_mbox_conf
I0321 00:10:50.746417  5826 net.cpp:408] conv7_2_mbox_conf_perm -> conv7_2_mbox_conf_perm
I0321 00:10:50.746716  5826 net.cpp:150] Setting up conv7_2_mbox_conf_perm
I0321 00:10:50.746731  5826 net.cpp:157] Top shape: 1 5 5 66 (1650)
I0321 00:10:50.746737  5826 net.cpp:165] Memory required for data: 250419720
I0321 00:10:50.746742  5826 layer_factory.hpp:77] Creating layer conv7_2_mbox_conf_flat
I0321 00:10:50.746752  5826 net.cpp:100] Creating Layer conv7_2_mbox_conf_flat
I0321 00:10:50.746760  5826 net.cpp:434] conv7_2_mbox_conf_flat <- conv7_2_mbox_conf_perm
I0321 00:10:50.746770  5826 net.cpp:408] conv7_2_mbox_conf_flat -> conv7_2_mbox_conf_flat
I0321 00:10:50.746816  5826 net.cpp:150] Setting up conv7_2_mbox_conf_flat
I0321 00:10:50.746829  5826 net.cpp:157] Top shape: 1 1650 (1650)
I0321 00:10:50.746832  5826 net.cpp:165] Memory required for data: 250426320
I0321 00:10:50.746839  5826 layer_factory.hpp:77] Creating layer conv7_2_mbox_priorbox
I0321 00:10:50.746850  5826 net.cpp:100] Creating Layer conv7_2_mbox_priorbox
I0321 00:10:50.746857  5826 net.cpp:434] conv7_2_mbox_priorbox <- conv7_2_conv7_2_relu_0_split_3
I0321 00:10:50.746865  5826 net.cpp:434] conv7_2_mbox_priorbox <- data_data_0_split_4
I0321 00:10:50.746875  5826 net.cpp:408] conv7_2_mbox_priorbox -> conv7_2_mbox_priorbox
I0321 00:10:50.746965  5826 net.cpp:150] Setting up conv7_2_mbox_priorbox
I0321 00:10:50.746978  5826 net.cpp:157] Top shape: 1 2 600 (1200)
I0321 00:10:50.746982  5826 net.cpp:165] Memory required for data: 250431120
I0321 00:10:50.746987  5826 layer_factory.hpp:77] Creating layer conv8_2_mbox_loc
I0321 00:10:50.747004  5826 net.cpp:100] Creating Layer conv8_2_mbox_loc
I0321 00:10:50.747011  5826 net.cpp:434] conv8_2_mbox_loc <- conv8_2_conv8_2_relu_0_split_1
I0321 00:10:50.747021  5826 net.cpp:408] conv8_2_mbox_loc -> conv8_2_mbox_loc
I0321 00:10:50.749656  5826 net.cpp:150] Setting up conv8_2_mbox_loc
I0321 00:10:50.749675  5826 net.cpp:157] Top shape: 1 16 3 3 (144)
I0321 00:10:50.749681  5826 net.cpp:165] Memory required for data: 250431696
I0321 00:10:50.749691  5826 layer_factory.hpp:77] Creating layer conv8_2_mbox_loc_perm
I0321 00:10:50.749702  5826 net.cpp:100] Creating Layer conv8_2_mbox_loc_perm
I0321 00:10:50.749711  5826 net.cpp:434] conv8_2_mbox_loc_perm <- conv8_2_mbox_loc
I0321 00:10:50.749722  5826 net.cpp:408] conv8_2_mbox_loc_perm -> conv8_2_mbox_loc_perm
I0321 00:10:50.749872  5826 net.cpp:150] Setting up conv8_2_mbox_loc_perm
I0321 00:10:50.749883  5826 net.cpp:157] Top shape: 1 3 3 16 (144)
I0321 00:10:50.749888  5826 net.cpp:165] Memory required for data: 250432272
I0321 00:10:50.749893  5826 layer_factory.hpp:77] Creating layer conv8_2_mbox_loc_flat
I0321 00:10:50.749902  5826 net.cpp:100] Creating Layer conv8_2_mbox_loc_flat
I0321 00:10:50.749908  5826 net.cpp:434] conv8_2_mbox_loc_flat <- conv8_2_mbox_loc_perm
I0321 00:10:50.749920  5826 net.cpp:408] conv8_2_mbox_loc_flat -> conv8_2_mbox_loc_flat
I0321 00:10:50.749956  5826 net.cpp:150] Setting up conv8_2_mbox_loc_flat
I0321 00:10:50.749964  5826 net.cpp:157] Top shape: 1 144 (144)
I0321 00:10:50.749969  5826 net.cpp:165] Memory required for data: 250432848
I0321 00:10:50.749974  5826 layer_factory.hpp:77] Creating layer conv8_2_mbox_conf
I0321 00:10:50.749989  5826 net.cpp:100] Creating Layer conv8_2_mbox_conf
I0321 00:10:50.749995  5826 net.cpp:434] conv8_2_mbox_conf <- conv8_2_conv8_2_relu_0_split_2
I0321 00:10:50.750005  5826 net.cpp:408] conv8_2_mbox_conf -> conv8_2_mbox_conf
I0321 00:10:50.752441  5826 net.cpp:150] Setting up conv8_2_mbox_conf
I0321 00:10:50.752454  5826 net.cpp:157] Top shape: 1 44 3 3 (396)
I0321 00:10:50.752460  5826 net.cpp:165] Memory required for data: 250434432
I0321 00:10:50.752470  5826 layer_factory.hpp:77] Creating layer conv8_2_mbox_conf_perm
I0321 00:10:50.752480  5826 net.cpp:100] Creating Layer conv8_2_mbox_conf_perm
I0321 00:10:50.752487  5826 net.cpp:434] conv8_2_mbox_conf_perm <- conv8_2_mbox_conf
I0321 00:10:50.752497  5826 net.cpp:408] conv8_2_mbox_conf_perm -> conv8_2_mbox_conf_perm
I0321 00:10:50.752636  5826 net.cpp:150] Setting up conv8_2_mbox_conf_perm
I0321 00:10:50.752645  5826 net.cpp:157] Top shape: 1 3 3 44 (396)
I0321 00:10:50.752650  5826 net.cpp:165] Memory required for data: 250436016
I0321 00:10:50.752655  5826 layer_factory.hpp:77] Creating layer conv8_2_mbox_conf_flat
I0321 00:10:50.752663  5826 net.cpp:100] Creating Layer conv8_2_mbox_conf_flat
I0321 00:10:50.752671  5826 net.cpp:434] conv8_2_mbox_conf_flat <- conv8_2_mbox_conf_perm
I0321 00:10:50.752679  5826 net.cpp:408] conv8_2_mbox_conf_flat -> conv8_2_mbox_conf_flat
I0321 00:10:50.752715  5826 net.cpp:150] Setting up conv8_2_mbox_conf_flat
I0321 00:10:50.752724  5826 net.cpp:157] Top shape: 1 396 (396)
I0321 00:10:50.752729  5826 net.cpp:165] Memory required for data: 250437600
I0321 00:10:50.752734  5826 layer_factory.hpp:77] Creating layer conv8_2_mbox_priorbox
I0321 00:10:50.752743  5826 net.cpp:100] Creating Layer conv8_2_mbox_priorbox
I0321 00:10:50.752749  5826 net.cpp:434] conv8_2_mbox_priorbox <- conv8_2_conv8_2_relu_0_split_3
I0321 00:10:50.752758  5826 net.cpp:434] conv8_2_mbox_priorbox <- data_data_0_split_5
I0321 00:10:50.752768  5826 net.cpp:408] conv8_2_mbox_priorbox -> conv8_2_mbox_priorbox
I0321 00:10:50.752806  5826 net.cpp:150] Setting up conv8_2_mbox_priorbox
I0321 00:10:50.752815  5826 net.cpp:157] Top shape: 1 2 144 (288)
I0321 00:10:50.752820  5826 net.cpp:165] Memory required for data: 250438752
I0321 00:10:50.752825  5826 layer_factory.hpp:77] Creating layer conv9_2_mbox_loc
I0321 00:10:50.752837  5826 net.cpp:100] Creating Layer conv9_2_mbox_loc
I0321 00:10:50.752843  5826 net.cpp:434] conv9_2_mbox_loc <- conv9_2_conv9_2_relu_0_split_0
I0321 00:10:50.752853  5826 net.cpp:408] conv9_2_mbox_loc -> conv9_2_mbox_loc
I0321 00:10:50.754992  5826 net.cpp:150] Setting up conv9_2_mbox_loc
I0321 00:10:50.755005  5826 net.cpp:157] Top shape: 1 16 1 1 (16)
I0321 00:10:50.755010  5826 net.cpp:165] Memory required for data: 250438816
I0321 00:10:50.755020  5826 layer_factory.hpp:77] Creating layer conv9_2_mbox_loc_perm
I0321 00:10:50.755059  5826 net.cpp:100] Creating Layer conv9_2_mbox_loc_perm
I0321 00:10:50.755067  5826 net.cpp:434] conv9_2_mbox_loc_perm <- conv9_2_mbox_loc
I0321 00:10:50.755079  5826 net.cpp:408] conv9_2_mbox_loc_perm -> conv9_2_mbox_loc_perm
I0321 00:10:50.755201  5826 net.cpp:150] Setting up conv9_2_mbox_loc_perm
I0321 00:10:50.755210  5826 net.cpp:157] Top shape: 1 1 1 16 (16)
I0321 00:10:50.755214  5826 net.cpp:165] Memory required for data: 250438880
I0321 00:10:50.755219  5826 layer_factory.hpp:77] Creating layer conv9_2_mbox_loc_flat
I0321 00:10:50.755228  5826 net.cpp:100] Creating Layer conv9_2_mbox_loc_flat
I0321 00:10:50.755235  5826 net.cpp:434] conv9_2_mbox_loc_flat <- conv9_2_mbox_loc_perm
I0321 00:10:50.755246  5826 net.cpp:408] conv9_2_mbox_loc_flat -> conv9_2_mbox_loc_flat
I0321 00:10:50.755283  5826 net.cpp:150] Setting up conv9_2_mbox_loc_flat
I0321 00:10:50.755291  5826 net.cpp:157] Top shape: 1 16 (16)
I0321 00:10:50.755296  5826 net.cpp:165] Memory required for data: 250438944
I0321 00:10:50.755301  5826 layer_factory.hpp:77] Creating layer conv9_2_mbox_conf
I0321 00:10:50.755314  5826 net.cpp:100] Creating Layer conv9_2_mbox_conf
I0321 00:10:50.755321  5826 net.cpp:434] conv9_2_mbox_conf <- conv9_2_conv9_2_relu_0_split_1
I0321 00:10:50.755331  5826 net.cpp:408] conv9_2_mbox_conf -> conv9_2_mbox_conf
I0321 00:10:50.757854  5826 net.cpp:150] Setting up conv9_2_mbox_conf
I0321 00:10:50.757869  5826 net.cpp:157] Top shape: 1 44 1 1 (44)
I0321 00:10:50.757874  5826 net.cpp:165] Memory required for data: 250439120
I0321 00:10:50.757884  5826 layer_factory.hpp:77] Creating layer conv9_2_mbox_conf_perm
I0321 00:10:50.757894  5826 net.cpp:100] Creating Layer conv9_2_mbox_conf_perm
I0321 00:10:50.757902  5826 net.cpp:434] conv9_2_mbox_conf_perm <- conv9_2_mbox_conf
I0321 00:10:50.757911  5826 net.cpp:408] conv9_2_mbox_conf_perm -> conv9_2_mbox_conf_perm
I0321 00:10:50.758039  5826 net.cpp:150] Setting up conv9_2_mbox_conf_perm
I0321 00:10:50.758057  5826 net.cpp:157] Top shape: 1 1 1 44 (44)
I0321 00:10:50.758062  5826 net.cpp:165] Memory required for data: 250439296
I0321 00:10:50.758069  5826 layer_factory.hpp:77] Creating layer conv9_2_mbox_conf_flat
I0321 00:10:50.758076  5826 net.cpp:100] Creating Layer conv9_2_mbox_conf_flat
I0321 00:10:50.758082  5826 net.cpp:434] conv9_2_mbox_conf_flat <- conv9_2_mbox_conf_perm
I0321 00:10:50.758091  5826 net.cpp:408] conv9_2_mbox_conf_flat -> conv9_2_mbox_conf_flat
I0321 00:10:50.758131  5826 net.cpp:150] Setting up conv9_2_mbox_conf_flat
I0321 00:10:50.758138  5826 net.cpp:157] Top shape: 1 44 (44)
I0321 00:10:50.758142  5826 net.cpp:165] Memory required for data: 250439472
I0321 00:10:50.758170  5826 layer_factory.hpp:77] Creating layer conv9_2_mbox_priorbox
I0321 00:10:50.758183  5826 net.cpp:100] Creating Layer conv9_2_mbox_priorbox
I0321 00:10:50.758189  5826 net.cpp:434] conv9_2_mbox_priorbox <- conv9_2_conv9_2_relu_0_split_2
I0321 00:10:50.758196  5826 net.cpp:434] conv9_2_mbox_priorbox <- data_data_0_split_6
I0321 00:10:50.758204  5826 net.cpp:408] conv9_2_mbox_priorbox -> conv9_2_mbox_priorbox
I0321 00:10:50.758244  5826 net.cpp:150] Setting up conv9_2_mbox_priorbox
I0321 00:10:50.758251  5826 net.cpp:157] Top shape: 1 2 16 (32)
I0321 00:10:50.758255  5826 net.cpp:165] Memory required for data: 250439600
I0321 00:10:50.758260  5826 layer_factory.hpp:77] Creating layer mbox_loc
I0321 00:10:50.758273  5826 net.cpp:100] Creating Layer mbox_loc
I0321 00:10:50.758280  5826 net.cpp:434] mbox_loc <- conv4_3_norm_mbox_loc_flat
I0321 00:10:50.758287  5826 net.cpp:434] mbox_loc <- fc7_mbox_loc_flat
I0321 00:10:50.758294  5826 net.cpp:434] mbox_loc <- conv6_2_mbox_loc_flat
I0321 00:10:50.758301  5826 net.cpp:434] mbox_loc <- conv7_2_mbox_loc_flat
I0321 00:10:50.758308  5826 net.cpp:434] mbox_loc <- conv8_2_mbox_loc_flat
I0321 00:10:50.758313  5826 net.cpp:434] mbox_loc <- conv9_2_mbox_loc_flat
I0321 00:10:50.758322  5826 net.cpp:408] mbox_loc -> mbox_loc
I0321 00:10:50.758359  5826 net.cpp:150] Setting up mbox_loc
I0321 00:10:50.758368  5826 net.cpp:157] Top shape: 1 34928 (34928)
I0321 00:10:50.758371  5826 net.cpp:165] Memory required for data: 250579312
I0321 00:10:50.758376  5826 layer_factory.hpp:77] Creating layer mbox_conf
I0321 00:10:50.758407  5826 net.cpp:100] Creating Layer mbox_conf
I0321 00:10:50.758414  5826 net.cpp:434] mbox_conf <- conv4_3_norm_mbox_conf_flat
I0321 00:10:50.758421  5826 net.cpp:434] mbox_conf <- fc7_mbox_conf_flat
I0321 00:10:50.758428  5826 net.cpp:434] mbox_conf <- conv6_2_mbox_conf_flat
I0321 00:10:50.758435  5826 net.cpp:434] mbox_conf <- conv7_2_mbox_conf_flat
I0321 00:10:50.758441  5826 net.cpp:434] mbox_conf <- conv8_2_mbox_conf_flat
I0321 00:10:50.758446  5826 net.cpp:434] mbox_conf <- conv9_2_mbox_conf_flat
I0321 00:10:50.758455  5826 net.cpp:408] mbox_conf -> mbox_conf
I0321 00:10:50.758491  5826 net.cpp:150] Setting up mbox_conf
I0321 00:10:50.758498  5826 net.cpp:157] Top shape: 1 96052 (96052)
I0321 00:10:50.758502  5826 net.cpp:165] Memory required for data: 250963520
I0321 00:10:50.758507  5826 layer_factory.hpp:77] Creating layer mbox_priorbox
I0321 00:10:50.758517  5826 net.cpp:100] Creating Layer mbox_priorbox
I0321 00:10:50.758523  5826 net.cpp:434] mbox_priorbox <- conv4_3_norm_mbox_priorbox
I0321 00:10:50.758529  5826 net.cpp:434] mbox_priorbox <- fc7_mbox_priorbox
I0321 00:10:50.758535  5826 net.cpp:434] mbox_priorbox <- conv6_2_mbox_priorbox
I0321 00:10:50.758543  5826 net.cpp:434] mbox_priorbox <- conv7_2_mbox_priorbox
I0321 00:10:50.758548  5826 net.cpp:434] mbox_priorbox <- conv8_2_mbox_priorbox
I0321 00:10:50.758553  5826 net.cpp:434] mbox_priorbox <- conv9_2_mbox_priorbox
I0321 00:10:50.758561  5826 net.cpp:408] mbox_priorbox -> mbox_priorbox
I0321 00:10:50.758596  5826 net.cpp:150] Setting up mbox_priorbox
I0321 00:10:50.758605  5826 net.cpp:157] Top shape: 1 2 34928 (69856)
I0321 00:10:50.758610  5826 net.cpp:165] Memory required for data: 251242944
I0321 00:10:50.758615  5826 layer_factory.hpp:77] Creating layer mbox_conf_reshape
I0321 00:10:50.758635  5826 net.cpp:100] Creating Layer mbox_conf_reshape
I0321 00:10:50.758641  5826 net.cpp:434] mbox_conf_reshape <- mbox_conf
I0321 00:10:50.758648  5826 net.cpp:408] mbox_conf_reshape -> mbox_conf_reshape
I0321 00:10:50.758692  5826 net.cpp:150] Setting up mbox_conf_reshape
I0321 00:10:50.758702  5826 net.cpp:157] Top shape: 1 8732 11 (96052)
I0321 00:10:50.758705  5826 net.cpp:165] Memory required for data: 251627152
I0321 00:10:50.758710  5826 layer_factory.hpp:77] Creating layer mbox_conf_softmax
I0321 00:10:50.758721  5826 net.cpp:100] Creating Layer mbox_conf_softmax
I0321 00:10:50.758729  5826 net.cpp:434] mbox_conf_softmax <- mbox_conf_reshape
I0321 00:10:50.758736  5826 net.cpp:408] mbox_conf_softmax -> mbox_conf_softmax
I0321 00:10:50.759052  5826 net.cpp:150] Setting up mbox_conf_softmax
I0321 00:10:50.759066  5826 net.cpp:157] Top shape: 1 8732 11 (96052)
I0321 00:10:50.759073  5826 net.cpp:165] Memory required for data: 252011360
I0321 00:10:50.759078  5826 layer_factory.hpp:77] Creating layer mbox_conf_flatten
I0321 00:10:50.759086  5826 net.cpp:100] Creating Layer mbox_conf_flatten
I0321 00:10:50.759093  5826 net.cpp:434] mbox_conf_flatten <- mbox_conf_softmax
I0321 00:10:50.759102  5826 net.cpp:408] mbox_conf_flatten -> mbox_conf_flatten
I0321 00:10:50.759138  5826 net.cpp:150] Setting up mbox_conf_flatten
I0321 00:10:50.759146  5826 net.cpp:157] Top shape: 1 96052 (96052)
I0321 00:10:50.759150  5826 net.cpp:165] Memory required for data: 252395568
I0321 00:10:50.759156  5826 layer_factory.hpp:77] Creating layer detection_out
I0321 00:10:50.759174  5826 net.cpp:100] Creating Layer detection_out
I0321 00:10:50.759181  5826 net.cpp:434] detection_out <- mbox_loc
I0321 00:10:50.759186  5826 net.cpp:434] detection_out <- mbox_conf_flatten
I0321 00:10:50.759222  5826 net.cpp:434] detection_out <- mbox_priorbox
I0321 00:10:50.759233  5826 net.cpp:408] detection_out -> detection_out
W0321 00:10:50.759265  5826 detection_output_layer.cpp:49] Failed to create directory: /home/zs/data/VOCdevkit/results/VOC2007/SSD_300x300_0320_fc6/Main
I0321 00:10:50.759794  5826 net.cpp:150] Setting up detection_out
I0321 00:10:50.759807  5826 net.cpp:157] Top shape: 1 1 1 7 (7)
I0321 00:10:50.759812  5826 net.cpp:165] Memory required for data: 252395596
I0321 00:10:50.759817  5826 layer_factory.hpp:77] Creating layer detection_eval
I0321 00:10:50.759827  5826 net.cpp:100] Creating Layer detection_eval
I0321 00:10:50.759835  5826 net.cpp:434] detection_eval <- detection_out
I0321 00:10:50.759840  5826 net.cpp:434] detection_eval <- label
I0321 00:10:50.759850  5826 net.cpp:408] detection_eval -> detection_eval
I0321 00:10:50.759941  5826 net.cpp:150] Setting up detection_eval
I0321 00:10:50.759951  5826 net.cpp:157] Top shape: 1 1 11 5 (55)
I0321 00:10:50.759955  5826 net.cpp:165] Memory required for data: 252395816
I0321 00:10:50.759960  5826 net.cpp:228] detection_eval does not need backward computation.
I0321 00:10:50.759968  5826 net.cpp:228] detection_out does not need backward computation.
I0321 00:10:50.759974  5826 net.cpp:228] mbox_conf_flatten does not need backward computation.
I0321 00:10:50.759980  5826 net.cpp:228] mbox_conf_softmax does not need backward computation.
…
