…
      sampler {
        min_scale: 0.3
        max_scale: 1
        min_aspect_ratio: 0.5
        max_aspect_ratio: 2
      }
      sample_constraint {
        min_jaccard_overlap: 0.9
      }
      max_sample: 1
      max_trials: 50
    }
    batch_sampler {
      sampler {
        min_scale: 0.3
        max_scale: 1
        min_aspect_ratio: 0.5
        max_aspect_ratio: 2
      }
      sample_constraint {
        max_jaccard_overlap: 1
      }
      max_sample: 1
      max_trials: 50
    }
    label_map_file: "data/NWPU_VHR/labelmap_NWPU_VHR.prototxt"
  }
}
layer {
  name: "conv1_1"
  type: "Convolution"
  bottom: "data"
  top: "conv1_1"
  param {
    lr_mult: 1
    decay_mult: 1
  }
  param {
    lr_mult: 2
    decay_mult: 0
  }
  convolution_param {
    num_output: 64
    pad: 1
    kernel_size: 3
    weight_filler {
      type: "xavier"
    }
    bias_filler {
      type: "constant"
      value: 0
    }
  }
}
layer {
  name: "relu1_1"
  type: "ReLU"
  bottom: "conv1_1"
  top: "conv1_1"
}
layer {
  name: "conv1_2"
  type: "Convolution"
  bottom: "conv1_1"
  top: "conv1_2"
  param {
    lr_mult: 1
    decay_mult: 1
  }
  param {
    lr_mult: 2
    decay_mult: 0
  }
  convolution_param {
    num_output: 64
    pad: 1
    kernel_size: 3
    weight_filler {
      type: "xavier"
    }
    bias_filler {
      type: "constant"
      value: 0
    }
  }
}
layer {
  name: "relu1_2"
  type: "ReLU"
  bottom: "conv1_2"
  top: "conv1_2"
}
layer {
  name: "pool1"
  type: "Pooling"
  bottom: "conv1_2"
  top: "pool1"
  pooling_param {
    pool: MAX
    kernel_size: 2
    stride: 2
  }
}
layer {
  name: "conv2_1"
  type: "Convolution"
  bottom: "pool1"
  top: "conv2_1"
  param {
    lr_mult: 1
    decay_mult: 1
  }
  param {
    lr_mult: 2
    decay_mult: 0
  }
  convolution_param {
    num_output: 128
    pad: 1
    kernel_size: 3
    weight_filler {
      type: "xavier"
    }
    bias_filler {
      type: "constant"
      value: 0
    }
  }
}
layer {
  name: "relu2_1"
  type: "ReLU"
  bottom: "conv2_1"
  top: "conv2_1"
}
layer {
  name: "conv2_2"
  type: "Convolution"
  bottom: "conv2_1"
  top: "conv2_2"
  param {
    lr_mult: 1
    decay_mult: 1
  }
  param {
    lr_mult: 2
    decay_mult: 0
  }
  convolution_param {
    num_output: 128
    pad: 1
    kernel_size: 3
    weight_filler {
      type: "xavier"
    }
    bias_filler {
      type: "constant"
      value: 0
    }
  }
}
layer {
  name: "relu2_2"
  type: "ReLU"
  bottom: "conv2_2"
  top: "conv2_2"
}
layer {
  name: "pool2"
  type: "Pooling"
  bottom: "conv2_2"
  top: "pool2"
  pooling_param {
    pool: MAX
    kernel_size: 2
    stride: 2
  }
}
layer {
  name: "conv3_1"
  type: "Convolution"
  bottom: "pool2"
  top: "conv3_1"
  param {
    lr_mult: 1
    decay_mult: 1
  }
  param {
    lr_mult: 2
    decay_mult: 0
  }
  convolution_param {
    num_output: 256
    pad: 1
    kernel_size: 3
    weight_filler {
      type: "xavier"
    }
    bias_filler {
      type: "constant"
      value: 0
    }
  }
}
layer {
  name: "relu3_1"
  type: "ReLU"
  bottom: "conv3_1"
  top: "conv3_1"
}
layer {
  name: "conv3_2_depthwise"
  type: "DepthwiseConvolution"
  bottom: "conv3_1"
  top: "conv3_2_3x3"
  param {
    lr_mult: 1
    decay_mult: 1
  }
  param {
    lr_mult: 2
    decay_mult: 0
  }
  convolution_param {
    num_output: 256
    pad: 1
    kernel_size: 3
    group: 256
    weight_filler {
      type: "xavier"
    }
    bias_filler {
      type: "constant"
      value: 0
    }
  }
}
layer {
  name: "conv3_2_3x3_relu"
  type: "ReLU"
  bottom: "conv3_2_3x3"
  top: "conv3_2_3x3"
}
layer {
  name: "conv3_2_1x1"
  type: "Convolution"
  bottom: "conv3_2_3x3"
  top: "conv3_2"
  param {
    lr_mult: 1
    decay_mult: 1
  }
  param {
    lr_mult: 2
    decay_mult: 0
  }
  convolution_param {
    num_output: 256
    pad: 0
    kernel_size: 1
    stride: 1
    weight_filler {
      type: "xavier"
    }
    bias_filler {
      type: "constant"
      value: 0
    }
  }
}
layer {
  name: "relu3_2"
  type: "ReLU"
  bottom: "conv3_2"
  top: "conv3_2"
}
layer {
  name: "conv3_3_depthwise"
  type: "DepthwiseConvolution"
  bottom: "conv3_2"
  top: "conv3_3_3x3"
  param {
    lr_mult: 1
    decay_mult: 1
  }
  param {
    lr_mult: 2
    decay_mult: 0
  }
  convolution_param {
    num_output: 256
    pad: 1
    kernel_size: 3
    group: 256
    weight_filler {
      type: "xavier"
    }
    bias_filler {
      type: "constant"
      value: 0
    }
  }
}
layer {
  name: "conv3_3_3x3_relu"
  type: "ReLU"
  bottom: "conv3_3_3x3"
  top: "conv3_3_3x3"
}
layer {
  name: "conv3_3_1x1"
  type: "Convolution"
  bottom: "conv3_3_3x3"
  top: "conv3_3"
  param {
    lr_mult: 1
    decay_mult: 1
  }
  param {
    lr_mult: 2
    decay_mult: 0
  }
  convolution_param {
    num_output: 256
    pad: 0
    kernel_size: 1
    stride: 1
    weight_filler {
      type: "xavier"
    }
    bias_filler {
      type: "constant"
      value: 0
    }
  }
}
layer {
  name: "relu3_3"
  type: "ReLU"
  bottom: "conv3_3"
  top: "conv3_3"
}
layer {
  name: "pool3"
  type: "Pooling"
  bottom: "conv3_3"
  top: "pool3"
  pooling_param {
    pool: MAX
    kernel_size: 2
    stride: 2
  }
}
layer {
  name: "conv4_1"
  type: "Convolution"
  bottom: "pool3"
  top: "conv4_1"
  param {
    lr_mult: 1
    decay_mult: 1
  }
  param {
    lr_mult: 2
    decay_mult: 0
  }
  convolution_param {
    num_output: 512
    pad: 1
    kernel_size: 3
    weight_filler {
      type: "xavier"
    }
    bias_filler {
      type: "constant"
      value: 0
    }
  }
}
layer {
  name: "relu4_1"
  type: "ReLU"
  bottom: "conv4_1"
  top: "conv4_1"
}
layer {
  name: "conv4_2"
  type: "Convolution"
  bottom: "conv4_1"
  top: "conv4_2"
  param {
    lr_mult: 1
    decay_mult: 1
  }
  param {
    lr_mult: 2
    decay_mult: 0
  }
  convolution_param {
    num_output: 512
    pad: 1
    kernel_size: 3
    weight_filler {
      type: "xavier"
    }
    bias_filler {
      type: "constant"
      value: 0
    }
  }
}
layer {
  name: "relu4_2"
  type: "ReLU"
  bottom: "conv4_2"
  top: "conv4_2"
}
layer {
  name: "conv4_3"
  type: "Convolution"
  bottom: "conv4_2"
  top: "conv4_3"
  param {
    lr_mult: 1
    decay_mult: 1
  }
  param {
    lr_mult: 2
    decay_mult: 0
  }
  convolution_param {
    num_output: 512
    pad: 1
    kernel_size: 3
    weight_filler {
      type: "xavier"
    }
    bias_filler {
      type: "constant"
      value: 0
    }
  }
}
layer {
  name: "relu4_3"
  type: "ReLU"
  bottom: "conv4_3"
  top: "conv4_3"
}
layer {
  name: "pool4"
  type: "Pooling"
  bottom: "conv4_3"
  top: "pool4"
  pooling_param {
    pool: MAX
    kernel_size: 2
    stride: 2
  }
}
layer {
  name: "conv5_1"
  type: "Convolution"
  bottom: "pool4"
  top: "conv5_1"
  param {
    lr_mult: 1
    decay_mult: 1
  }
  param {
    lr_mult: 2
    decay_mult: 0
  }
  convolution_param {
    num_output: 512
    pad: 1
    kernel_size: 3
    weight_filler {
      type: "xavier"
    }
    bias_filler {
      type: "constant"
      value: 0
    }
    dilation: 1
  }
}
layer {
  name: "relu5_1"
  type: "ReLU"
  bottom: "conv5_1"
  top: "conv5_1"
}
layer {
  name: "conv5_2"
  type: "Convolution"
  bottom: "conv5_1"
  top: "conv5_2"
  param {
    lr_mult: 1
    decay_mult: 1
  }
  param {
    lr_mult: 2
    decay_mult: 0
  }
  convolution_param {
    num_output: 512
    pad: 1
    kernel_size: 3
    weight_filler {
      type: "xavier"
    }
    bias_filler {
      type: "constant"
      value: 0
    }
    dilation: 1
  }
}
layer {
  name: "relu5_2"
  type: "ReLU"
  bottom: "conv5_2"
  top: "conv5_2"
}
layer {
  name: "conv5_3"
  type: "Convolution"
  bottom: "conv5_2"
  top: "conv5_3"
  param {
    lr_mult: 1
    decay_mult: 1
  }
  param {
    lr_mult: 2
    decay_mult: 0
  }
  convolution_param {
    num_output: 512
    pad: 1
    kernel_size: 3
    weight_filler {
      type: "xavier"
    }
    bias_filler {
      type: "constant"
      value: 0
    }
    dilation: 1
  }
}
layer {
  name: "relu5_3"
  type: "ReLU"
  bottom: "conv5_3"
  top: "conv5_3"
}
layer {
  name: "pool5"
  type: "Pooling"
  bottom: "conv5_3"
  top: "pool5"
  pooling_param {
    pool: MAX
    kernel_size: 3
    stride: 1
    pad: 1
  }
}
layer {
  name: "fc6"
  type: "Convolution"
  bottom: "pool5"
  top: "fc6"
  param {
    lr_mult: 1
    decay_mult: 1
  }
  param {
    lr_mult: 2
    decay_mult: 0
  }
  convolution_param {
    num_output: 1024
    pad: 6
    kernel_size: 3
    weight_filler {
      type: "xavier"
    }
    bias_filler {
      type: "constant"
      value: 0
    }
    dilation: 6
  }
}
layer {
  name: "relu6"
  type: "ReLU"
  bottom: "fc6"
  top: "fc6"
}
layer {
  name: "fc7"
  type: "Convolution"
  bottom: "fc6"
  top: "fc7"
  param {
    lr_mult: 1
    decay_mult: 1
  }
  param {
    lr_mult: 2
    decay_mult: 0
  }
  convolution_param {
    num_output: 1024
    kernel_size: 1
    weight_filler {
      type: "xavier"
    }
    bias_filler {
      type: "constant"
      value: 0
    }
  }
}
layer {
  name: "relu7"
  type: "ReLU"
  bottom: "fc7"
  top: "fc7"
}
layer {
  name: "conv6_1"
  type: "Convolution"
  bottom: "fc7"
  top: "conv6_1"
  param {
    lr_mult: 1
    decay_mult: 1
  }
  param {
    lr_mult: 2
    decay_mult: 0
  }
  convolution_param {
    num_output: 256
    pad: 0
    kernel_size: 1
    stride: 1
    weight_filler {
      type: "xavier"
    }
    bias_filler {
      type: "constant"
      value: 0
    }
  }
}
layer {
  name: "conv6_1_relu"
  type: "ReLU"
  bottom: "conv6_1"
  top: "conv6_1"
}
layer {
  name: "conv6_2"
  type: "Convolution"
  bottom: "conv6_1"
  top: "conv6_2"
  param {
    lr_mult: 1
    decay_mult: 1
  }
  param {
    lr_mult: 2
    decay_mult: 0
  }
  convolution_param {
    num_output: 512
    pad: 1
    kernel_size: 3
    stride: 2
    weight_filler {
      type: "xavier"
    }
    bias_filler {
      type: "constant"
      value: 0
    }
  }
}
layer {
  name: "conv6_2_relu"
  type: "ReLU"
  bottom: "conv6_2"
  top: "conv6_2"
}
layer {
  name: "conv7_1"
  type: "Convolution"
  bottom: "conv6_2"
  top: "conv7_1"
  param {
    lr_mult: 1
    decay_mult: 1
  }
  param {
    lr_mult: 2
    decay_mult: 0
  }
  convolution_param {
    num_output: 128
    pad: 0
    kernel_size: 1
    stride: 1
    weight_filler {
      type: "xavier"
    }
    bias_filler {
      type: "constant"
      value: 0
    }
  }
}
layer {
  name: "conv7_1_relu"
  type: "ReLU"
  bottom: "conv7_1"
  top: "conv7_1"
}
layer {
  name: "conv7_2"
  type: "Convolution"
  bottom: "conv7_1"
  top: "conv7_2"
  param {
    lr_mult: 1
    decay_mult: 1
  }
  param {
    lr_mult: 2
    decay_mult: 0
  }
  convolution_param {
    num_output: 256
    pad: 1
    kernel_size: 3
    stride: 2
    weight_filler {
      type: "xavier"
    }
    bias_filler {
      type: "constant"
      value: 0
    }
  }
}
layer {
  name: "conv7_2_relu"
  type: "ReLU"
  bottom: "conv7_2"
  top: "conv7_2"
}
layer {
  name: "conv8_1"
  type: "Convolution"
  bottom: "conv7_2"
  top: "conv8_1"
  param {
    lr_mult: 1
    decay_mult: 1
  }
  param {
    lr_mult: 2
    decay_mult: 0
  }
  convolution_param {
    num_output: 128
    pad: 0
    kernel_size: 1
    stride: 1
    weight_filler {
      type: "xavier"
    }
    bias_filler {
      type: "constant"
      value: 0
    }
  }
}
layer {
  name: "conv8_1_relu"
  type: "ReLU"
  bottom: "conv8_1"
  top: "conv8_1"
}
layer {
  name: "conv8_2"
  type: "Convolution"
  bottom: "conv8_1"
  top: "conv8_2"
  param {
    lr_mult: 1
    decay_mult: 1
  }
  param {
    lr_mult: 2
    decay_mult: 0
  }
  convolution_param {
    num_output: 256
    pad: 0
    kernel_size: 3
    stride: 1
    weight_filler {
      type: "xavier"
    }
    bias_filler {
      type: "constant"
      value: 0
    }
  }
}
layer {
  name: "conv8_2_relu"
  type: "ReLU"
  bottom: "conv8_2"
  top: "conv8_2"
}
layer {
  name: "conv9_1"
  type: "Convolution"
  bottom: "conv8_2"
  top: "conv9_1"
  param {
    lr_mult: 1
    decay_mult: 1
  }
  param {
    lr_mult: 2
    decay_mult: 0
  }
  convolution_param {
    num_output: 128
    pad: 0
    kernel_size: 1
    stride: 1
    weight_filler {
      type: "xavier"
    }
    bias_filler {
      type: "constant"
      value: 0
    }
  }
}
layer {
  name: "conv9_1_relu"
  type: "ReLU"
  bottom: "conv9_1"
  top: "conv9_1"
}
layer {
  name: "conv9_2"
  type: "Convolution"
  bottom: "conv9_1"
  top: "conv9_2"
  param {
    lr_mult: 1
    decay_mult: 1
  }
  param {
    lr_mult: 2
    decay_mult: 0
  }
  convolution_param {
    num_output: 256
    pad: 0
    kernel_size: 3
    stride: 1
    weight_filler {
      type: "xavier"
    }
    bias_filler {
      type: "constant"
      value: 0
    }
  }
}
layer {
  name: "conv9_2_relu"
  type: "ReLU"
  bottom: "conv9_2"
  top: "conv9_2"
}
layer {
  name: "conv4_3_norm"
  type: "Normalize"
  bottom: "conv4_3"
  top: "conv4_3_norm"
  norm_param {
    across_spatial: false
    scale_filler {
      type: "constant"
      value: 20
    }
    channel_shared: false
  }
}
layer {
  name: "conv4_3_norm_mbox_loc"
  type: "Convolution"
  bottom: "conv4_3_norm"
  top: "conv4_3_norm_mbox_loc"
  param {
    lr_mult: 1
    decay_mult: 1
  }
  param {
    lr_mult: 2
    decay_mult: 0
  }
  convolution_param {
    num_output: 16
    pad: 1
    kernel_size: 3
    stride: 1
    weight_filler {
      type: "xavier"
    }
    bias_filler {
      type: "constant"
      value: 0
    }
  }
}
layer {
  name: "conv4_3_norm_mbox_loc_perm"
  type: "Permute"
  bottom: "conv4_3_norm_mbox_loc"
  top: "conv4_3_norm_mbox_loc_perm"
  permute_param {
    order: 0
    order: 2
    order: 3
    order: 1
  }
}
layer {
  name: "conv4_3_norm_mbox_loc_flat"
  type: "Flatten"
  bottom: "conv4_3_norm_mbox_loc_perm"
  top: "conv4_3_norm_mbox_loc_flat"
  flatten_param {
    axis: 1
  }
}
layer {
  name: "conv4_3_norm_mbox_conf"
  type: "Convolution"
  bottom: "conv4_3_norm"
  top: "conv4_3_norm_mbox_conf"
  param {
    lr_mult: 1
    decay_mult: 1
  }
  param {
    lr_mult: 2
    decay_mult: 0
  }
  convolution_param {
    num_output: 44
    pad: 1
    kernel_size: 3
    stride: 1
    weight_filler {
      type: "xavier"
    }
    bias_filler {
      type: "constant"
      value: 0
    }
  }
}
layer {
  name: "conv4_3_norm_mbox_conf_perm"
  type: "Permute"
  bottom: "conv4_3_norm_mbox_conf"
  top: "conv4_3_norm_mbox_conf_perm"
  permute_param {
    order: 0
    order: 2
    order: 3
    order: 1
  }
}
layer {
  name: "conv4_3_norm_mbox_conf_flat"
  type: "Flatten"
  bottom: "conv4_3_norm_mbox_conf_perm"
  top: "conv4_3_norm_mbox_conf_flat"
  flatten_param {
    axis: 1
  }
}
layer {
  name: "conv4_3_norm_mbox_priorbox"
  type: "PriorBox"
  bottom: "conv4_3_norm"
  bottom: "data"
  top: "conv4_3_norm_mbox_priorbox"
  prior_box_param {
    min_size: 30
    max_size: 60
    aspect_ratio: 2
    flip: true
    clip: false
    variance: 0.1
    variance: 0.1
    variance: 0.2
    variance: 0.2
    step: 8
    offset: 0.5
  }
}
layer {
  name: "fc7_mbox_loc"
  type: "Convolution"
  bottom: "fc7"
  top: "fc7_mbox_loc"
  param {
    lr_mult: 1
    decay_mult: 1
  }
  param {
    lr_mult: 2
    decay_mult: 0
  }
  convolution_param {
    num_output: 24
    pad: 1
    kernel_size: 3
    stride: 1
    weight_filler {
      type: "xavier"
    }
    bias_filler {
      type: "constant"
      value: 0
    }
  }
}
layer {
  name: "fc7_mbox_loc_perm"
  type: "Permute"
  bottom: "fc7_mbox_loc"
  top: "fc7_mbox_loc_perm"
  permute_param {
    order: 0
    order: 2
    order: 3
    order: 1
  }
}
layer {
  name: "fc7_mbox_loc_flat"
  type: "Flatten"
  bottom: "fc7_mbox_loc_perm"
  top: "fc7_mbox_loc_flat"
  flatten_param {
    axis: 1
  }
}
layer {
  name: "fc7_mbox_conf"
  type: "Convolution"
  bottom: "fc7"
  top: "fc7_mbox_conf"
  param {
    lr_mult: 1
    decay_mult: 1
  }
  param {
    lr_mult: 2
    decay_mult: 0
  }
  convolution_param {
    num_output: 66
    pad: 1
    kernel_size: 3
    stride: 1
    weight_filler {
      type: "xavier"
    }
    bias_filler {
      type: "constant"
      value: 0
    }
  }
}
layer {
  name: "fc7_mbox_conf_perm"
  type: "Permute"
  bottom: "fc7_mbox_conf"
  top: "fc7_mbox_conf_perm"
  permute_param {
    order: 0
    order: 2
    order: 3
    order: 1
  }
}
layer {
  name: "fc7_mbox_conf_flat"
  type: "Flatten"
  bottom: "fc7_mbox_conf_perm"
  top: "fc7_mbox_conf_flat"
  flatten_param {
    axis: 1
  }
}
layer {
  name: "fc7_mbox_priorbox"
  type: "PriorBox"
  bottom: "fc7"
  bottom: "data"
  top: "fc7_mbox_priorbox"
  prior_box_param {
    min_size: 60
    max_size: 111
    aspect_ratio: 2
    aspect_ratio: 3
    flip: true
    clip: false
    variance: 0.1
    variance: 0.1
    variance: 0.2
    variance: 0.2
    step: 16
    offset: 0.5
  }
}
layer {
  name: "conv6_2_mbox_loc"
  type: "Convolution"
  bottom: "conv6_2"
  top: "conv6_2_mbox_loc"
  param {
    lr_mult: 1
    decay_mult: 1
  }
  param {
    lr_mult: 2
    decay_mult: 0
  }
  convolution_param {
    num_output: 24
    pad: 1
    kernel_size: 3
    stride: 1
    weight_filler {
      type: "xavier"
    }
    bias_filler {
      type: "constant"
      value: 0
    }
  }
}
layer {
  name: "conv6_2_mbox_loc_perm"
  type: "Permute"
  bottom: "conv6_2_mbox_loc"
  top: "conv6_2_mbox_loc_perm"
  permute_param {
    order: 0
    order: 2
    order: 3
    order: 1
  }
}
layer {
  name: "conv6_2_mbox_loc_flat"
  type: "Flatten"
  bottom: "conv6_2_mbox_loc_perm"
  top: "conv6_2_mbox_loc_flat"
  flatten_param {
    axis: 1
  }
}
layer {
  name: "conv6_2_mbox_conf"
  type: "Convolution"
  bottom: "conv6_2"
  top: "conv6_2_mbox_conf"
  param {
    lr_mult: 1
    decay_mult: 1
  }
  param {
    lr_mult: 2
    decay_mult: 0
  }
  convolution_param {
    num_output: 66
    pad: 1
    kernel_size: 3
    stride: 1
    weight_filler {
      type: "xavier"
    }
    bias_filler {
      type: "constant"
      value: 0
    }
  }
}
layer {
  name: "conv6_2_mbox_conf_perm"
  type: "Permute"
  bottom: "conv6_2_mbox_conf"
  top: "conv6_2_mbox_conf_perm"
  permute_param {
    order: 0
    order: 2
    order: 3
    order: 1
  }
}
layer {
  name: "conv6_2_mbox_conf_flat"
  type: "Flatten"
  bottom: "conv6_2_mbox_conf_perm"
  top: "conv6_2_mbox_conf_flat"
  flatten_param {
    axis: 1
  }
}
layer {
  name: "conv6_2_mbox_priorbox"
  type: "PriorBox"
  bottom: "conv6_2"
  bottom: "data"
  top: "conv6_2_mbox_priorbox"
  prior_box_param {
    min_size: 111
    max_size: 162
    aspect_ratio: 2
    aspect_ratio: 3
    flip: true
    clip: false
    variance: 0.1
    variance: 0.1
    variance: 0.2
    variance: 0.2
    step: 32
    offset: 0.5
  }
}
layer {
  name: "conv7_2_mbox_loc"
  type: "Convolution"
  bottom: "conv7_2"
  top: "conv7_2_mbox_loc"
  param {
    lr_mult: 1
    decay_mult: 1
  }
  param {
    lr_mult: 2
    decay_mult: 0
  }
  convolution_param {
    num_output: 24
    pad: 1
    kernel_size: 3
    stride: 1
    weight_filler {
      type: "xavier"
    }
    bias_filler {
      type: "constant"
      value: 0
    }
  }
}
layer {
  name: "conv7_2_mbox_loc_perm"
  type: "Permute"
  bottom: "conv7_2_mbox_loc"
  top: "conv7_2_mbox_loc_perm"
  permute_param {
    order: 0
    order: 2
    order: 3
    order: 1
  }
}
layer {
  name: "conv7_2_mbox_loc_flat"
  type: "Flatten"
  bottom: "conv7_2_mbox_loc_perm"
  top: "conv7_2_mbox_loc_flat"
  flatten_param {
    axis: 1
  }
}
layer {
  name: "conv7_2_mbox_conf"
  type: "Convolution"
  bottom: "conv7_2"
  top: "conv7_2_mbox_conf"
  param {
    lr_mult: 1
    decay_mult: 1
  }
  param {
    lr_mult: 2
    decay_mult: 0
  }
  convolution_param {
    num_output: 66
    pad: 1
    kernel_size: 3
    stride: 1
    weight_filler {
      type: "xavier"
    }
    bias_filler {
      type: "constant"
      value: 0
    }
  }
}
layer {
  name: "conv7_2_mbox_conf_perm"
  type: "Permute"
  bottom: "conv7_2_mbox_conf"
  top: "conv7_2_mbox_conf_perm"
  permute_param {
    order: 0
    order: 2
    order: 3
    order: 1
  }
}
layer {
  name: "conv7_2_mbox_conf_flat"
  type: "Flatten"
  bottom: "conv7_2_mbox_conf_perm"
  top: "conv7_2_mbox_conf_flat"
  flatten_param {
    axis: 1
  }
}
layer {
  name: "conv7_2_mbox_priorbox"
  type: "PriorBox"
  bottom: "conv7_2"
  bottom: "data"
  top: "conv7_2_mbox_priorbox"
  prior_box_param {
    min_size: 162
    max_size: 213
    aspect_ratio: 2
    aspect_ratio: 3
    flip: true
    clip: false
    variance: 0.1
    variance: 0.1
    variance: 0.2
    variance: 0.2
    step: 64
    offset: 0.5
  }
}
layer {
  name: "conv8_2_mbox_loc"
  type: "Convolution"
  bottom: "conv8_2"
  top: "conv8_2_mbox_loc"
  param {
    lr_mult: 1
    decay_mult: 1
  }
  param {
    lr_mult: 2
    decay_mult: 0
  }
  convolution_param {
    num_output: 16
    pad: 1
    kernel_size: 3
    stride: 1
    weight_filler {
      type: "xavier"
    }
    bias_filler {
      type: "constant"
      value: 0
    }
  }
}
layer {
  name: "conv8_2_mbox_loc_perm"
  type: "Permute"
  bottom: "conv8_2_mbox_loc"
  top: "conv8_2_mbox_loc_perm"
  permute_param {
    order: 0
    order: 2
    order: 3
    order: 1
  }
}
layer {
  name: "conv8_2_mbox_loc_flat"
  type: "Flatten"
  bottom: "conv8_2_mbox_loc_perm"
  top: "conv8_2_mbox_loc_flat"
  flatten_param {
    axis: 1
  }
}
layer {
  name: "conv8_2_mbox_conf"
  type: "Convolution"
  bottom: "conv8_2"
  top: "conv8_2_mbox_conf"
  param {
    lr_mult: 1
    decay_mult: 1
  }
  param {
    lr_mult: 2
    decay_mult: 0
  }
  convolution_param {
    num_output: 44
    pad: 1
    kernel_size: 3
    stride: 1
    weight_filler {
      type: "xavier"
    }
    bias_filler {
      type: "constant"
      value: 0
    }
  }
}
layer {
  name: "conv8_2_mbox_conf_perm"
  type: "Permute"
  bottom: "conv8_2_mbox_conf"
  top: "conv8_2_mbox_conf_perm"
  permute_param {
    order: 0
    order: 2
    order: 3
    order: 1
  }
}
layer {
  name: "conv8_2_mbox_conf_flat"
  type: "Flatten"
  bottom: "conv8_2_mbox_conf_perm"
  top: "conv8_2_mbox_conf_flat"
  flatten_param {
    axis: 1
  }
}
layer {
  name: "conv8_2_mbox_priorbox"
  type: "PriorBox"
  bottom: "conv8_2"
  bottom: "data"
  top: "conv8_2_mbox_priorbox"
  prior_box_param {
    min_size: 213
    max_size: 264
    aspect_ratio: 2
    flip: true
    clip: false
    variance: 0.1
    variance: 0.1
    variance: 0.2
    variance: 0.2
    step: 100
    offset: 0.5
  }
}
layer {
  name: "conv9_2_mbox_loc"
  type: "Convolution"
  bottom: "conv9_2"
  top: "conv9_2_mbox_loc"
  param {
    lr_mult: 1
    decay_mult: 1
  }
  param {
    lr_mult: 2
    decay_mult: 0
  }
  convolution_param {
    num_output: 16
    pad: 1
    kernel_size: 3
    stride: 1
    weight_filler {
      type: "xavier"
    }
    bias_filler {
      type: "constant"
      value: 0
    }
  }
}
layer {
  name: "conv9_2_mbox_loc_perm"
  type: "Permute"
  bottom: "conv9_2_mbox_loc"
  top: "conv9_2_mbox_loc_perm"
  permute_param {
    order: 0
    order: 2
    order: 3
    order: 1
  }
}
layer {
  name: "conv9_2_mbox_loc_flat"
  type: "Flatten"
  bottom: "conv9_2_mbox_loc_perm"
  top: "conv9_2_mbox_loc_flat"
  flatten_param {
    axis: 1
  }
}
layer {
  name: "conv9_2_mbox_conf"
  type: "Convolution"
  bottom: "conv9_2"
  top: "conv9_2_mbox_conf"
  param {
    lr_mult: 1
    decay_mult: 1
  }
  param {
    lr_mult: 2
    decay_mult: 0
  }
  convolution_param {
    num_output: 44
    pad: 1
    kernel_size: 3
    stride: 1
    weight_filler {
      type: "xavier"
    }
    bias_filler {
      type: "constant"
      value: 0
    }
  }
}
layer {
  name: "conv9_2_mbox_conf_perm"
  type: "Permute"
  bottom: "conv9_2_mbox_conf"
  top: "conv9_2_mbox_conf_perm"
  permute_param {
    order: 0
    order: 2
    order: 3
    order: 1
  }
}
layer {
  name: "conv9_2_mbox_conf_flat"
  type: "Flatten"
  bottom: "conv9_2_mbox_conf_perm"
  top: "conv9_2_mbox_conf_flat"
  flatten_param {
    axis: 1
  }
}
layer {
  name: "conv9_2_mbox_priorbox"
  type: "PriorBox"
  bottom: "conv9_2"
  bottom: "data"
  top: "conv9_2_mbox_priorbox"
  prior_box_param {
    min_size: 264
    max_size: 315
    aspect_ratio: 2
    flip: true
    clip: false
    variance: 0.1
    variance: 0.1
    variance: 0.2
    variance: 0.2
    step: 300
    offset: 0.5
  }
}
layer {
  name: "mbox_loc"
  type: "Concat"
  bottom: "conv4_3_norm_mbox_loc_flat"
  bottom: "fc7_mbox_loc_flat"
  bottom: "conv6_2_mbox_loc_flat"
  bottom: "conv7_2_mbox_loc_flat"
  bottom: "conv8_2_mbox_loc_flat"
  bottom: "conv9_2_mbox_loc_flat"
  top: "mbox_loc"
  concat_param {
    axis: 1
  }
}
layer {
  name: "mbox_conf"
  type: "Concat"
  bottom: "conv4_3_norm_mbox_conf_flat"
  bottom: "fc7_mbox_conf_flat"
  bottom: "conv6_2_mbox_conf_flat"
  bottom: "conv7_2_mbox_conf_flat"
  bottom: "conv8_2_mbox_conf_flat"
  bottom: "conv9_2_mbox_conf_flat"
  top: "mbox_conf"
  concat_param {
    axis: 1
  }
}
layer {
  name: "mbox_priorbox"
  type: "Concat"
  bottom: "conv4_3_norm_mbox_priorbox"
  bottom: "fc7_mbox_priorbox"
  bottom: "conv6_2_mbox_priorbox"
  bottom: "conv7_2_mbox_priorbox"
  bottom: "conv8_2_mbox_priorbox"
  bottom: "conv9_2_mbox_priorbox"
  top: "mbox_priorbox"
  concat_param {
    axis: 2
  }
}
layer {
  name: "mbox_loss"
  type: "MultiBoxLoss"
  bottom: "mbox_loc"
  bottom: "mbox_conf"
  bottom: "mbox_priorbox"
  bottom: "label"
  top: "mbox_loss"
  include {
    phase: TRAIN
  }
  propagate_down: true
  propagate_down: true
  propagate_down: false
  propagate_down: false
  loss_param {
    normalization: VALID
  }
  multibox_loss_param {
    loc_loss_type: SMOOTH_L1
    conf_loss_type: SOFTMAX
    loc_weight: 1
    num_classes: 11
    share_location: true
    match_type: PER_PREDICTION
    overlap_threshold: 0.5
    use_prior_for_matching: true
    background_label_id: 0
    use_difficult_gt: true
    neg_pos_ratio: 3
    neg_overlap: 0.5
    code_type: CENTER_SIZE
    ignore_cross_boundary_bbox: false
    mining_type: MAX_NEGATIVE
  }
}
I0324 16:57:32.741675   489 layer_factory.hpp:77] Creating layer data
I0324 16:57:32.742213   489 net.cpp:100] Creating Layer data
I0324 16:57:32.742234   489 net.cpp:408] data -> data
I0324 16:57:32.742272   489 net.cpp:408] data -> label
I0324 16:57:32.750892   504 db_lmdb.cpp:35] Opened lmdb examples/NWPU_VHR/NWPU_VHR_trainval_lmdb
I0324 16:57:32.788234   489 annotated_data_layer.cpp:62] output data size: 32,3,300,300
I0324 16:57:32.844905   489 net.cpp:150] Setting up data
I0324 16:57:32.844949   489 net.cpp:157] Top shape: 32 3 300 300 (8640000)
I0324 16:57:32.844957   489 net.cpp:157] Top shape: 1 1 4 8 (32)
I0324 16:57:32.844967   489 net.cpp:165] Memory required for data: 34560128
I0324 16:57:32.844985   489 layer_factory.hpp:77] Creating layer data_data_0_split
I0324 16:57:32.845005   489 net.cpp:100] Creating Layer data_data_0_split
I0324 16:57:32.845017   489 net.cpp:434] data_data_0_split <- data
I0324 16:57:32.845038   489 net.cpp:408] data_data_0_split -> data_data_0_split_0
I0324 16:57:32.845062   489 net.cpp:408] data_data_0_split -> data_data_0_split_1
I0324 16:57:32.845075   489 net.cpp:408] data_data_0_split -> data_data_0_split_2
I0324 16:57:32.845088   489 net.cpp:408] data_data_0_split -> data_data_0_split_3
I0324 16:57:32.845100   489 net.cpp:408] data_data_0_split -> data_data_0_split_4
I0324 16:57:32.845111   489 net.cpp:408] data_data_0_split -> data_data_0_split_5
I0324 16:57:32.845121   489 net.cpp:408] data_data_0_split -> data_data_0_split_6
I0324 16:57:32.845247   489 net.cpp:150] Setting up data_data_0_split
I0324 16:57:32.845264   489 net.cpp:157] Top shape: 32 3 300 300 (8640000)
I0324 16:57:32.845273   489 net.cpp:157] Top shape: 32 3 300 300 (8640000)
I0324 16:57:32.845281   489 net.cpp:157] Top shape: 32 3 300 300 (8640000)
I0324 16:57:32.845290   489 net.cpp:157] Top shape: 32 3 300 300 (8640000)
I0324 16:57:32.845297   489 net.cpp:157] Top shape: 32 3 300 300 (8640000)
I0324 16:57:32.845306   489 net.cpp:157] Top shape: 32 3 300 300 (8640000)
I0324 16:57:32.845315   489 net.cpp:157] Top shape: 32 3 300 300 (8640000)
I0324 16:57:32.845324   489 net.cpp:165] Memory required for data: 276480128
I0324 16:57:32.845329   489 layer_factory.hpp:77] Creating layer conv1_1
I0324 16:57:32.845362   489 net.cpp:100] Creating Layer conv1_1
I0324 16:57:32.845376   489 net.cpp:434] conv1_1 <- data_data_0_split_0
I0324 16:57:32.845389   489 net.cpp:408] conv1_1 -> conv1_1
I0324 16:57:33.697003   489 net.cpp:150] Setting up conv1_1
I0324 16:57:33.697041   489 net.cpp:157] Top shape: 32 64 300 300 (184320000)
I0324 16:57:33.697048   489 net.cpp:165] Memory required for data: 1013760128
I0324 16:57:33.697075   489 layer_factory.hpp:77] Creating layer relu1_1
I0324 16:57:33.697089   489 net.cpp:100] Creating Layer relu1_1
I0324 16:57:33.697096   489 net.cpp:434] relu1_1 <- conv1_1
I0324 16:57:33.697105   489 net.cpp:395] relu1_1 -> conv1_1 (in-place)
I0324 16:57:33.697988   489 net.cpp:150] Setting up relu1_1
I0324 16:57:33.698007   489 net.cpp:157] Top shape: 32 64 300 300 (184320000)
I0324 16:57:33.698014   489 net.cpp:165] Memory required for data: 1751040128
I0324 16:57:33.698020   489 layer_factory.hpp:77] Creating layer conv1_2
I0324 16:57:33.698043   489 net.cpp:100] Creating Layer conv1_2
I0324 16:57:33.698050   489 net.cpp:434] conv1_2 <- conv1_1
I0324 16:57:33.698060   489 net.cpp:408] conv1_2 -> conv1_2
I0324 16:57:33.701059   489 net.cpp:150] Setting up conv1_2
I0324 16:57:33.701084   489 net.cpp:157] Top shape: 32 64 300 300 (184320000)
I0324 16:57:33.701090   489 net.cpp:165] Memory required for data: 2488320128
I0324 16:57:33.701105   489 layer_factory.hpp:77] Creating layer relu1_2
I0324 16:57:33.701115   489 net.cpp:100] Creating Layer relu1_2
I0324 16:57:33.701122   489 net.cpp:434] relu1_2 <- conv1_2
I0324 16:57:33.701133   489 net.cpp:395] relu1_2 -> conv1_2 (in-place)
I0324 16:57:33.701351   489 net.cpp:150] Setting up relu1_2
I0324 16:57:33.701369   489 net.cpp:157] Top shape: 32 64 300 300 (184320000)
I0324 16:57:33.701395   489 net.cpp:165] Memory required for data: 3225600128
I0324 16:57:33.701401   489 layer_factory.hpp:77] Creating layer pool1
I0324 16:57:33.701411   489 net.cpp:100] Creating Layer pool1
I0324 16:57:33.701417   489 net.cpp:434] pool1 <- conv1_2
I0324 16:57:33.701426   489 net.cpp:408] pool1 -> pool1
I0324 16:57:33.701494   489 net.cpp:150] Setting up pool1
I0324 16:57:33.701508   489 net.cpp:157] Top shape: 32 64 150 150 (46080000)
I0324 16:57:33.701514   489 net.cpp:165] Memory required for data: 3409920128
I0324 16:57:33.701519   489 layer_factory.hpp:77] Creating layer conv2_1
I0324 16:57:33.701534   489 net.cpp:100] Creating Layer conv2_1
I0324 16:57:33.701541   489 net.cpp:434] conv2_1 <- pool1
I0324 16:57:33.701550   489 net.cpp:408] conv2_1 -> conv2_1
I0324 16:57:33.704336   489 net.cpp:150] Setting up conv2_1
I0324 16:57:33.704356   489 net.cpp:157] Top shape: 32 128 150 150 (92160000)
I0324 16:57:33.704363   489 net.cpp:165] Memory required for data: 3778560128
I0324 16:57:33.704376   489 layer_factory.hpp:77] Creating layer relu2_1
I0324 16:57:33.704392   489 net.cpp:100] Creating Layer relu2_1
I0324 16:57:33.704399   489 net.cpp:434] relu2_1 <- conv2_1
I0324 16:57:33.704411   489 net.cpp:395] relu2_1 -> conv2_1 (in-place)
I0324 16:57:33.704636   489 net.cpp:150] Setting up relu2_1
I0324 16:57:33.704653   489 net.cpp:157] Top shape: 32 128 150 150 (92160000)
I0324 16:57:33.704658   489 net.cpp:165] Memory required for data: 4147200128
I0324 16:57:33.704663   489 layer_factory.hpp:77] Creating layer conv2_2
I0324 16:57:33.704679   489 net.cpp:100] Creating Layer conv2_2
I0324 16:57:33.704689   489 net.cpp:434] conv2_2 <- conv2_1
I0324 16:57:33.704697   489 net.cpp:408] conv2_2 -> conv2_2
I0324 16:57:33.715862   489 net.cpp:150] Setting up conv2_2
I0324 16:57:33.715896   489 net.cpp:157] Top shape: 32 128 150 150 (92160000)
I0324 16:57:33.715904   489 net.cpp:165] Memory required for data: 4515840128
I0324 16:57:33.715920   489 layer_factory.hpp:77] Creating layer relu2_2
I0324 16:57:33.715935   489 net.cpp:100] Creating Layer relu2_2
I0324 16:57:33.715943   489 net.cpp:434] relu2_2 <- conv2_2
I0324 16:57:33.715955   489 net.cpp:395] relu2_2 -> conv2_2 (in-place)
I0324 16:57:33.716810   489 net.cpp:150] Setting up relu2_2
I0324 16:57:33.716828   489 net.cpp:157] Top shape: 32 128 150 150 (92160000)
I0324 16:57:33.716835   489 net.cpp:165] Memory required for data: 4884480128
I0324 16:57:33.716841   489 layer_factory.hpp:77] Creating layer pool2
I0324 16:57:33.716853   489 net.cpp:100] Creating Layer pool2
I0324 16:57:33.716859   489 net.cpp:434] pool2 <- conv2_2
I0324 16:57:33.716867   489 net.cpp:408] pool2 -> pool2
I0324 16:57:33.716924   489 net.cpp:150] Setting up pool2
I0324 16:57:33.716934   489 net.cpp:157] Top shape: 32 128 75 75 (23040000)
I0324 16:57:33.716939   489 net.cpp:165] Memory required for data: 4976640128
I0324 16:57:33.716945   489 layer_factory.hpp:77] Creating layer conv3_1
I0324 16:57:33.716961   489 net.cpp:100] Creating Layer conv3_1
I0324 16:57:33.716967   489 net.cpp:434] conv3_1 <- pool2
I0324 16:57:33.716977   489 net.cpp:408] conv3_1 -> conv3_1
I0324 16:57:33.723687   489 net.cpp:150] Setting up conv3_1
I0324 16:57:33.723718   489 net.cpp:157] Top shape: 32 256 75 75 (46080000)
I0324 16:57:33.723724   489 net.cpp:165] Memory required for data: 5160960128
I0324 16:57:33.723745   489 layer_factory.hpp:77] Creating layer relu3_1
I0324 16:57:33.723757   489 net.cpp:100] Creating Layer relu3_1
I0324 16:57:33.723765   489 net.cpp:434] relu3_1 <- conv3_1
I0324 16:57:33.723776   489 net.cpp:395] relu3_1 -> conv3_1 (in-place)
I0324 16:57:33.724022   489 net.cpp:150] Setting up relu3_1
I0324 16:57:33.724038   489 net.cpp:157] Top shape: 32 256 75 75 (46080000)
I0324 16:57:33.724045   489 net.cpp:165] Memory required for data: 5345280128
I0324 16:57:33.724051   489 layer_factory.hpp:77] Creating layer conv3_2_depthwise
I0324 16:57:33.724066   489 net.cpp:100] Creating Layer conv3_2_depthwise
I0324 16:57:33.724076   489 net.cpp:434] conv3_2_depthwise <- conv3_1
I0324 16:57:33.724105   489 net.cpp:408] conv3_2_depthwise -> conv3_2_3x3
I0324 16:57:33.724440   489 net.cpp:150] Setting up conv3_2_depthwise
I0324 16:57:33.724457   489 net.cpp:157] Top shape: 32 256 75 75 (46080000)
I0324 16:57:33.724462   489 net.cpp:165] Memory required for data: 5529600128
I0324 16:57:33.724472   489 layer_factory.hpp:77] Creating layer conv3_2_3x3_relu
I0324 16:57:33.724483   489 net.cpp:100] Creating Layer conv3_2_3x3_relu
I0324 16:57:33.724493   489 net.cpp:434] conv3_2_3x3_relu <- conv3_2_3x3
I0324 16:57:33.724500   489 net.cpp:395] conv3_2_3x3_relu -> conv3_2_3x3 (in-place)
I0324 16:57:33.724736   489 net.cpp:150] Setting up conv3_2_3x3_relu
I0324 16:57:33.724750   489 net.cpp:157] Top shape: 32 256 75 75 (46080000)
I0324 16:57:33.724756   489 net.cpp:165] Memory required for data: 5713920128
I0324 16:57:33.724762   489 layer_factory.hpp:77] Creating layer conv3_2_1x1
I0324 16:57:33.724782   489 net.cpp:100] Creating Layer conv3_2_1x1
I0324 16:57:33.724792   489 net.cpp:434] conv3_2_1x1 <- conv3_2_3x3
I0324 16:57:33.724800   489 net.cpp:408] conv3_2_1x1 -> conv3_2
I0324 16:57:33.727610   489 net.cpp:150] Setting up conv3_2_1x1
I0324 16:57:33.727629   489 net.cpp:157] Top shape: 32 256 75 75 (46080000)
I0324 16:57:33.727635   489 net.cpp:165] Memory required for data: 5898240128
I0324 16:57:33.727644   489 layer_factory.hpp:77] Creating layer relu3_2
I0324 16:57:33.727654   489 net.cpp:100] Creating Layer relu3_2
I0324 16:57:33.727663   489 net.cpp:434] relu3_2 <- conv3_2
I0324 16:57:33.727669   489 net.cpp:395] relu3_2 -> conv3_2 (in-place)
I0324 16:57:33.728512   489 net.cpp:150] Setting up relu3_2
I0324 16:57:33.728528   489 net.cpp:157] Top shape: 32 256 75 75 (46080000)
I0324 16:57:33.728534   489 net.cpp:165] Memory required for data: 6082560128
I0324 16:57:33.728540   489 layer_factory.hpp:77] Creating layer conv3_3_depthwise
I0324 16:57:33.728552   489 net.cpp:100] Creating Layer conv3_3_depthwise
I0324 16:57:33.728559   489 net.cpp:434] conv3_3_depthwise <- conv3_2
I0324 16:57:33.728569   489 net.cpp:408] conv3_3_depthwise -> conv3_3_3x3
I0324 16:57:33.728873   489 net.cpp:150] Setting up conv3_3_depthwise
I0324 16:57:33.728886   489 net.cpp:157] Top shape: 32 256 75 75 (46080000)
I0324 16:57:33.728893   489 net.cpp:165] Memory required for data: 6266880128
I0324 16:57:33.728902   489 layer_factory.hpp:77] Creating layer conv3_3_3x3_relu
I0324 16:57:33.728910   489 net.cpp:100] Creating Layer conv3_3_3x3_relu
I0324 16:57:33.728915   489 net.cpp:434] conv3_3_3x3_relu <- conv3_3_3x3
I0324 16:57:33.728924   489 net.cpp:395] conv3_3_3x3_relu -> conv3_3_3x3 (in-place)
I0324 16:57:33.729154   489 net.cpp:150] Setting up conv3_3_3x3_relu
I0324 16:57:33.729168   489 net.cpp:157] Top shape: 32 256 75 75 (46080000)
I0324 16:57:33.729173   489 net.cpp:165] Memory required for data: 6451200128
I0324 16:57:33.729179   489 layer_factory.hpp:77] Creating layer conv3_3_1x1
I0324 16:57:33.729195   489 net.cpp:100] Creating Layer conv3_3_1x1
I0324 16:57:33.729200   489 net.cpp:434] conv3_3_1x1 <- conv3_3_3x3
I0324 16:57:33.729209   489 net.cpp:408] conv3_3_1x1 -> conv3_3
I0324 16:57:33.731392   489 net.cpp:150] Setting up conv3_3_1x1
I0324 16:57:33.731411   489 net.cpp:157] Top shape: 32 256 75 75 (46080000)
I0324 16:57:33.731417   489 net.cpp:165] Memory required for data: 6635520128
I0324 16:57:33.731432   489 layer_factory.hpp:77] Creating layer relu3_3
I0324 16:57:33.731441   489 net.cpp:100] Creating Layer relu3_3
I0324 16:57:33.731447   489 net.cpp:434] relu3_3 <- conv3_3
I0324 16:57:33.731456   489 net.cpp:395] relu3_3 -> conv3_3 (in-place)
I0324 16:57:33.731676   489 net.cpp:150] Setting up relu3_3
I0324 16:57:33.731690   489 net.cpp:157] Top shape: 32 256 75 75 (46080000)
I0324 16:57:33.731696   489 net.cpp:165] Memory required for data: 6819840128
I0324 16:57:33.731703   489 layer_factory.hpp:77] Creating layer pool3
I0324 16:57:33.731711   489 net.cpp:100] Creating Layer pool3
I0324 16:57:33.731717   489 net.cpp:434] pool3 <- conv3_3
I0324 16:57:33.731727   489 net.cpp:408] pool3 -> pool3
I0324 16:57:33.731794   489 net.cpp:150] Setting up pool3
I0324 16:57:33.731807   489 net.cpp:157] Top shape: 32 256 38 38 (11829248)
I0324 16:57:33.731813   489 net.cpp:165] Memory required for data: 6867157120
I0324 16:57:33.731819   489 layer_factory.hpp:77] Creating layer conv4_1
I0324 16:57:33.731832   489 net.cpp:100] Creating Layer conv4_1
I0324 16:57:33.731838   489 net.cpp:434] conv4_1 <- pool3
I0324 16:57:33.731848   489 net.cpp:408] conv4_1 -> conv4_1
I0324 16:57:33.762825   489 net.cpp:150] Setting up conv4_1
I0324 16:57:33.762857   489 net.cpp:157] Top shape: 32 512 38 38 (23658496)
I0324 16:57:33.762863   489 net.cpp:165] Memory required for data: 6961791104
I0324 16:57:33.762879   489 layer_factory.hpp:77] Creating layer relu4_1
I0324 16:57:33.762895   489 net.cpp:100] Creating Layer relu4_1
I0324 16:57:33.762903   489 net.cpp:434] relu4_1 <- conv4_1
I0324 16:57:33.762912   489 net.cpp:395] relu4_1 -> conv4_1 (in-place)
I0324 16:57:33.763149   489 net.cpp:150] Setting up relu4_1
I0324 16:57:33.763164   489 net.cpp:157] Top shape: 32 512 38 38 (23658496)
I0324 16:57:33.763170   489 net.cpp:165] Memory required for data: 7056425088
I0324 16:57:33.763175   489 layer_factory.hpp:77] Creating layer conv4_2
I0324 16:57:33.763192   489 net.cpp:100] Creating Layer conv4_2
I0324 16:57:33.785107   489 net.cpp:434] conv4_2 <- conv4_1
I0324 16:57:33.785140   489 net.cpp:408] conv4_2 -> conv4_2
I0324 16:57:33.823565   489 net.cpp:150] Setting up conv4_2
I0324 16:57:33.823601   489 net.cpp:157] Top shape: 32 512 38 38 (23658496)
I0324 16:57:33.823609   489 net.cpp:165] Memory required for data: 7151059072
I0324 16:57:33.823624   489 layer_factory.hpp:77] Creating layer relu4_2
I0324 16:57:33.823642   489 net.cpp:100] Creating Layer relu4_2
I0324 16:57:33.823649   489 net.cpp:434] relu4_2 <- conv4_2
I0324 16:57:33.823659   489 net.cpp:395] relu4_2 -> conv4_2 (in-place)
I0324 16:57:33.824543   489 net.cpp:150] Setting up relu4_2
I0324 16:57:33.824561   489 net.cpp:157] Top shape: 32 512 38 38 (23658496)
I0324 16:57:33.824566   489 net.cpp:165] Memory required for data: 7245693056
I0324 16:57:33.824573   489 layer_factory.hpp:77] Creating layer conv4_3
I0324 16:57:33.824589   489 net.cpp:100] Creating Layer conv4_3
I0324 16:57:33.824595   489 net.cpp:434] conv4_3 <- conv4_2
I0324 16:57:33.824605   489 net.cpp:408] conv4_3 -> conv4_3
I0324 16:57:33.872937   489 net.cpp:150] Setting up conv4_3
I0324 16:57:33.872972   489 net.cpp:157] Top shape: 32 512 38 38 (23658496)
I0324 16:57:33.872977   489 net.cpp:165] Memory required for data: 7340327040
I0324 16:57:33.872993   489 layer_factory.hpp:77] Creating layer relu4_3
I0324 16:57:33.873008   489 net.cpp:100] Creating Layer relu4_3
I0324 16:57:33.873018   489 net.cpp:434] relu4_3 <- conv4_3
I0324 16:57:33.873026   489 net.cpp:395] relu4_3 -> conv4_3 (in-place)
I0324 16:57:33.873280   489 net.cpp:150] Setting up relu4_3
I0324 16:57:33.873296   489 net.cpp:157] Top shape: 32 512 38 38 (23658496)
I0324 16:57:33.873301   489 net.cpp:165] Memory required for data: 7434961024
I0324 16:57:33.873306   489 layer_factory.hpp:77] Creating layer conv4_3_relu4_3_0_split
I0324 16:57:33.873317   489 net.cpp:100] Creating Layer conv4_3_relu4_3_0_split
I0324 16:57:33.873325   489 net.cpp:434] conv4_3_relu4_3_0_split <- conv4_3
I0324 16:57:33.873333   489 net.cpp:408] conv4_3_relu4_3_0_split -> conv4_3_relu4_3_0_split_0
I0324 16:57:33.873342   489 net.cpp:408] conv4_3_relu4_3_0_split -> conv4_3_relu4_3_0_split_1
I0324 16:57:33.873400   489 net.cpp:150] Setting up conv4_3_relu4_3_0_split
I0324 16:57:33.873410   489 net.cpp:157] Top shape: 32 512 38 38 (23658496)
I0324 16:57:33.873417   489 net.cpp:157] Top shape: 32 512 38 38 (23658496)
I0324 16:57:33.873422   489 net.cpp:165] Memory required for data: 7624228992
I0324 16:57:33.873428   489 layer_factory.hpp:77] Creating layer pool4
I0324 16:57:33.873440   489 net.cpp:100] Creating Layer pool4
I0324 16:57:33.873446   489 net.cpp:434] pool4 <- conv4_3_relu4_3_0_split_0
I0324 16:57:33.873455   489 net.cpp:408] pool4 -> pool4
I0324 16:57:33.873526   489 net.cpp:150] Setting up pool4
I0324 16:57:33.873538   489 net.cpp:157] Top shape: 32 512 19 19 (5914624)
I0324 16:57:33.873543   489 net.cpp:165] Memory required for data: 7647887488
I0324 16:57:33.873548   489 layer_factory.hpp:77] Creating layer conv5_1
I0324 16:57:33.873564   489 net.cpp:100] Creating Layer conv5_1
I0324 16:57:33.873571   489 net.cpp:434] conv5_1 <- pool4
I0324 16:57:33.873586   489 net.cpp:408] conv5_1 -> conv5_1
I0324 16:57:33.919970   489 net.cpp:150] Setting up conv5_1
I0324 16:57:33.920034   489 net.cpp:157] Top shape: 32 512 19 19 (5914624)
I0324 16:57:33.920054   489 net.cpp:165] Memory required for data: 7671545984
I0324 16:57:33.920081   489 layer_factory.hpp:77] Creating layer relu5_1
I0324 16:57:33.920114   489 net.cpp:100] Creating Layer relu5_1
I0324 16:57:33.920135   489 net.cpp:434] relu5_1 <- conv5_1
I0324 16:57:33.920156   489 net.cpp:395] relu5_1 -> conv5_1 (in-place)
I0324 16:57:33.920406   489 net.cpp:150] Setting up relu5_1
I0324 16:57:33.920434   489 net.cpp:157] Top shape: 32 512 19 19 (5914624)
I0324 16:57:33.920450   489 net.cpp:165] Memory required for data: 7695204480
I0324 16:57:33.920467   489 layer_factory.hpp:77] Creating layer conv5_2
I0324 16:57:33.920495   489 net.cpp:100] Creating Layer conv5_2
I0324 16:57:33.920513   489 net.cpp:434] conv5_2 <- conv5_1
I0324 16:57:33.920533   489 net.cpp:408] conv5_2 -> conv5_2
I0324 16:57:33.945502   489 net.cpp:150] Setting up conv5_2
I0324 16:57:33.945572   489 net.cpp:157] Top shape: 32 512 19 19 (5914624)
I0324 16:57:33.945591   489 net.cpp:165] Memory required for data: 7718862976
I0324 16:57:33.945619   489 layer_factory.hpp:77] Creating layer relu5_2
I0324 16:57:33.945646   489 net.cpp:100] Creating Layer relu5_2
I0324 16:57:33.945665   489 net.cpp:434] relu5_2 <- conv5_2
I0324 16:57:33.945685   489 net.cpp:395] relu5_2 -> conv5_2 (in-place)
I0324 16:57:33.946631   489 net.cpp:150] Setting up relu5_2
I0324 16:57:33.946666   489 net.cpp:157] Top shape: 32 512 19 19 (5914624)
I0324 16:57:33.946683   489 net.cpp:165] Memory required for data: 7742521472
I0324 16:57:33.946699   489 layer_factory.hpp:77] Creating layer conv5_3
I0324 16:57:33.946727   489 net.cpp:100] Creating Layer conv5_3
I0324 16:57:33.946748   489 net.cpp:434] conv5_3 <- conv5_2
I0324 16:57:33.946769   489 net.cpp:408] conv5_3 -> conv5_3
I0324 16:57:33.973227   489 net.cpp:150] Setting up conv5_3
I0324 16:57:33.973294   489 net.cpp:157] Top shape: 32 512 19 19 (5914624)
I0324 16:57:33.973315   489 net.cpp:165] Memory required for data: 7766179968
I0324 16:57:33.973341   489 layer_factory.hpp:77] Creating layer relu5_3
I0324 16:57:33.973366   489 net.cpp:100] Creating Layer relu5_3
I0324 16:57:33.973387   489 net.cpp:434] relu5_3 <- conv5_3
I0324 16:57:33.973408   489 net.cpp:395] relu5_3 -> conv5_3 (in-place)
I0324 16:57:33.973651   489 net.cpp:150] Setting up relu5_3
I0324 16:57:33.973680   489 net.cpp:157] Top shape: 32 512 19 19 (5914624)
I0324 16:57:33.973695   489 net.cpp:165] Memory required for data: 7789838464
I0324 16:57:33.973712   489 layer_factory.hpp:77] Creating layer pool5
I0324 16:57:33.973762   489 net.cpp:100] Creating Layer pool5
I0324 16:57:33.973781   489 net.cpp:434] pool5 <- conv5_3
I0324 16:57:33.973801   489 net.cpp:408] pool5 -> pool5
I0324 16:57:33.973875   489 net.cpp:150] Setting up pool5
I0324 16:57:33.973899   489 net.cpp:157] Top shape: 32 512 19 19 (5914624)
I0324 16:57:33.973915   489 net.cpp:165] Memory required for data: 7813496960
I0324 16:57:33.973930   489 layer_factory.hpp:77] Creating layer fc6
I0324 16:57:33.973958   489 net.cpp:100] Creating Layer fc6
I0324 16:57:33.973976   489 net.cpp:434] fc6 <- pool5
I0324 16:57:33.973999   489 net.cpp:408] fc6 -> fc6
I0324 16:57:34.022734   489 net.cpp:150] Setting up fc6
I0324 16:57:34.022811   489 net.cpp:157] Top shape: 32 1024 19 19 (11829248)
I0324 16:57:34.022830   489 net.cpp:165] Memory required for data: 7860813952
I0324 16:57:34.022859   489 layer_factory.hpp:77] Creating layer relu6
I0324 16:57:34.022893   489 net.cpp:100] Creating Layer relu6
I0324 16:57:34.022922   489 net.cpp:434] relu6 <- fc6
I0324 16:57:34.022943   489 net.cpp:395] relu6 -> fc6 (in-place)
I0324 16:57:34.023270   489 net.cpp:150] Setting up relu6
I0324 16:57:34.023299   489 net.cpp:157] Top shape: 32 1024 19 19 (11829248)
I0324 16:57:34.023320   489 net.cpp:165] Memory required for data: 7908130944
I0324 16:57:34.023337   489 layer_factory.hpp:77] Creating layer fc7
I0324 16:57:34.023365   489 net.cpp:100] Creating Layer fc7
I0324 16:57:34.023381   489 net.cpp:434] fc7 <- fc6
I0324 16:57:34.023403   489 net.cpp:408] fc7 -> fc7
I0324 16:57:34.035722   489 net.cpp:150] Setting up fc7
I0324 16:57:34.035791   489 net.cpp:157] Top shape: 32 1024 19 19 (11829248)
I0324 16:57:34.035812   489 net.cpp:165] Memory required for data: 7955447936
I0324 16:57:34.035850   489 layer_factory.hpp:77] Creating layer relu7
I0324 16:57:34.035876   489 net.cpp:100] Creating Layer relu7
I0324 16:57:34.035895   489 net.cpp:434] relu7 <- fc7
I0324 16:57:34.035917   489 net.cpp:395] relu7 -> fc7 (in-place)
I0324 16:57:34.036864   489 net.cpp:150] Setting up relu7
I0324 16:57:34.036900   489 net.cpp:157] Top shape: 32 1024 19 19 (11829248)
I0324 16:57:34.036917   489 net.cpp:165] Memory required for data: 8002764928
I0324 16:57:34.036933   489 layer_factory.hpp:77] Creating layer fc7_relu7_0_split
I0324 16:57:34.036954   489 net.cpp:100] Creating Layer fc7_relu7_0_split
I0324 16:57:34.036972   489 net.cpp:434] fc7_relu7_0_split <- fc7
I0324 16:57:34.036993   489 net.cpp:408] fc7_relu7_0_split -> fc7_relu7_0_split_0
I0324 16:57:34.037016   489 net.cpp:408] fc7_relu7_0_split -> fc7_relu7_0_split_1
I0324 16:57:34.037037   489 net.cpp:408] fc7_relu7_0_split -> fc7_relu7_0_split_2
I0324 16:57:34.037058   489 net.cpp:408] fc7_relu7_0_split -> fc7_relu7_0_split_3
I0324 16:57:34.037160   489 net.cpp:150] Setting up fc7_relu7_0_split
I0324 16:57:34.037184   489 net.cpp:157] Top shape: 32 1024 19 19 (11829248)
I0324 16:57:34.037202   489 net.cpp:157] Top shape: 32 1024 19 19 (11829248)
I0324 16:57:34.037220   489 net.cpp:157] Top shape: 32 1024 19 19 (11829248)
I0324 16:57:34.037236   489 net.cpp:157] Top shape: 32 1024 19 19 (11829248)
I0324 16:57:34.037251   489 net.cpp:165] Memory required for data: 8192032896
I0324 16:57:34.037268   489 layer_factory.hpp:77] Creating layer conv6_1
I0324 16:57:34.037297   489 net.cpp:100] Creating Layer conv6_1
I0324 16:57:34.037314   489 net.cpp:434] conv6_1 <- fc7_relu7_0_split_0
I0324 16:57:34.037338   489 net.cpp:408] conv6_1 -> conv6_1
I0324 16:57:34.043263   489 net.cpp:150] Setting up conv6_1
I0324 16:57:34.043330   489 net.cpp:157] Top shape: 32 256 19 19 (2957312)
I0324 16:57:34.043350   489 net.cpp:165] Memory required for data: 8203862144
I0324 16:57:34.043376   489 layer_factory.hpp:77] Creating layer conv6_1_relu
I0324 16:57:34.043403   489 net.cpp:100] Creating Layer conv6_1_relu
I0324 16:57:34.043422   489 net.cpp:434] conv6_1_relu <- conv6_1
I0324 16:57:34.043447   489 net.cpp:395] conv6_1_relu -> conv6_1 (in-place)
I0324 16:57:34.043689   489 net.cpp:150] Setting up conv6_1_relu
I0324 16:57:34.043716   489 net.cpp:157] Top shape: 32 256 19 19 (2957312)
I0324 16:57:34.043733   489 net.cpp:165] Memory required for data: 8215691392
I0324 16:57:34.043750   489 layer_factory.hpp:77] Creating layer conv6_2
I0324 16:57:34.043776   489 net.cpp:100] Creating Layer conv6_2
I0324 16:57:34.043795   489 net.cpp:434] conv6_2 <- conv6_1
I0324 16:57:34.043818   489 net.cpp:408] conv6_2 -> conv6_2
I0324 16:57:34.067093   489 net.cpp:150] Setting up conv6_2
I0324 16:57:34.068879   489 net.cpp:157] Top shape: 32 512 10 10 (1638400)
I0324 16:57:34.068904   489 net.cpp:165] Memory required for data: 8222244992
I0324 16:57:34.068933   489 layer_factory.hpp:77] Creating layer conv6_2_relu
I0324 16:57:34.068961   489 net.cpp:100] Creating Layer conv6_2_relu
I0324 16:57:34.068982   489 net.cpp:434] conv6_2_relu <- conv6_2
I0324 16:57:34.069005   489 net.cpp:395] conv6_2_relu -> conv6_2 (in-place)
I0324 16:57:34.069262   489 net.cpp:150] Setting up conv6_2_relu
I0324 16:57:34.069298   489 net.cpp:157] Top shape: 32 512 10 10 (1638400)
I0324 16:57:34.069753   489 net.cpp:165] Memory required for data: 8228798592
I0324 16:57:34.069778   489 layer_factory.hpp:77] Creating layer conv6_2_conv6_2_relu_0_split
I0324 16:57:34.069802   489 net.cpp:100] Creating Layer conv6_2_conv6_2_relu_0_split
I0324 16:57:34.069820   489 net.cpp:434] conv6_2_conv6_2_relu_0_split <- conv6_2
I0324 16:57:34.069844   489 net.cpp:408] conv6_2_conv6_2_relu_0_split -> conv6_2_conv6_2_relu_0_split_0
I0324 16:57:34.069870   489 net.cpp:408] conv6_2_conv6_2_relu_0_split -> conv6_2_conv6_2_relu_0_split_1
I0324 16:57:34.069892   489 net.cpp:408] conv6_2_conv6_2_relu_0_split -> conv6_2_conv6_2_relu_0_split_2
I0324 16:57:34.069911   489 net.cpp:408] conv6_2_conv6_2_relu_0_split -> conv6_2_conv6_2_relu_0_split_3
I0324 16:57:34.070014   489 net.cpp:150] Setting up conv6_2_conv6_2_relu_0_split
I0324 16:57:34.070044   489 net.cpp:157] Top shape: 32 512 10 10 (1638400)
I0324 16:57:34.070066   489 net.cpp:157] Top shape: 32 512 10 10 (1638400)
I0324 16:57:34.070087   489 net.cpp:157] Top shape: 32 512 10 10 (1638400)
I0324 16:57:34.070106   489 net.cpp:157] Top shape: 32 512 10 10 (1638400)
I0324 16:57:34.070124   489 net.cpp:165] Memory required for data: 8255012992
I0324 16:57:34.070142   489 layer_factory.hpp:77] Creating layer conv7_1
I0324 16:57:34.070173   489 net.cpp:100] Creating Layer conv7_1
I0324 16:57:34.070197   489 net.cpp:434] conv7_1 <- conv6_2_conv6_2_relu_0_split_0
I0324 16:57:34.070227   489 net.cpp:408] conv7_1 -> conv7_1
I0324 16:57:34.072520   489 net.cpp:150] Setting up conv7_1
I0324 16:57:34.085778   489 net.cpp:157] Top shape: 32 128 10 10 (409600)
I0324 16:57:34.085836   489 net.cpp:165] Memory required for data: 8256651392
I0324 16:57:34.085867   489 layer_factory.hpp:77] Creating layer conv7_1_relu
I0324 16:57:34.085894   489 net.cpp:100] Creating Layer conv7_1_relu
I0324 16:57:34.085913   489 net.cpp:434] conv7_1_relu <- conv7_1
I0324 16:57:34.085934   489 net.cpp:395] conv7_1_relu -> conv7_1 (in-place)
I0324 16:57:34.086275   489 net.cpp:150] Setting up conv7_1_relu
I0324 16:57:34.086302   489 net.cpp:157] Top shape: 32 128 10 10 (409600)
I0324 16:57:34.086318   489 net.cpp:165] Memory required for data: 8258289792
I0324 16:57:34.086333   489 layer_factory.hpp:77] Creating layer conv7_2
I0324 16:57:34.086362   489 net.cpp:100] Creating Layer conv7_2
I0324 16:57:34.086380   489 net.cpp:434] conv7_2 <- conv7_1
I0324 16:57:34.086400   489 net.cpp:408] conv7_2 -> conv7_2
I0324 16:57:34.091740   489 net.cpp:150] Setting up conv7_2
I0324 16:57:34.091800   489 net.cpp:157] Top shape: 32 256 5 5 (204800)
I0324 16:57:34.091820   489 net.cpp:165] Memory required for data: 8259108992
I0324 16:57:34.091847   489 layer_factory.hpp:77] Creating layer conv7_2_relu
I0324 16:57:34.091872   489 net.cpp:100] Creating Layer conv7_2_relu
I0324 16:57:34.091893   489 net.cpp:434] conv7_2_relu <- conv7_2
I0324 16:57:34.091917   489 net.cpp:395] conv7_2_relu -> conv7_2 (in-place)
I0324 16:57:34.092835   489 net.cpp:150] Setting up conv7_2_relu
I0324 16:57:34.092867   489 net.cpp:157] Top shape: 32 256 5 5 (204800)
I0324 16:57:34.092887   489 net.cpp:165] Memory required for data: 8259928192
I0324 16:57:34.092905   489 layer_factory.hpp:77] Creating layer conv7_2_conv7_2_relu_0_split
I0324 16:57:34.092929   489 net.cpp:100] Creating Layer conv7_2_conv7_2_relu_0_split
I0324 16:57:34.092948   489 net.cpp:434] conv7_2_conv7_2_relu_0_split <- conv7_2
I0324 16:57:34.092970   489 net.cpp:408] conv7_2_conv7_2_relu_0_split -> conv7_2_conv7_2_relu_0_split_0
I0324 16:57:34.092998   489 net.cpp:408] conv7_2_conv7_2_relu_0_split -> conv7_2_conv7_2_relu_0_split_1
I0324 16:57:34.093021   489 net.cpp:408] conv7_2_conv7_2_relu_0_split -> conv7_2_conv7_2_relu_0_split_2
I0324 16:57:34.093044   489 net.cpp:408] conv7_2_conv7_2_relu_0_split -> conv7_2_conv7_2_relu_0_split_3
I0324 16:57:34.093154   489 net.cpp:150] Setting up conv7_2_conv7_2_relu_0_split
I0324 16:57:34.093180   489 net.cpp:157] Top shape: 32 256 5 5 (204800)
I0324 16:57:34.093209   489 net.cpp:157] Top shape: 32 256 5 5 (204800)
I0324 16:57:34.093237   489 net.cpp:157] Top shape: 32 256 5 5 (204800)
I0324 16:57:34.093257   489 net.cpp:157] Top shape: 32 256 5 5 (204800)
I0324 16:57:34.093273   489 net.cpp:165] Memory required for data: 8263204992
I0324 16:57:34.093291   489 layer_factory.hpp:77] Creating layer conv8_1
I0324 16:57:34.093318   489 net.cpp:100] Creating Layer conv8_1
I0324 16:57:34.093340   489 net.cpp:434] conv8_1 <- conv7_2_conv7_2_relu_0_split_0
I0324 16:57:34.093363   489 net.cpp:408] conv8_1 -> conv8_1
I0324 16:57:34.095381   489 net.cpp:150] Setting up conv8_1
I0324 16:57:34.095414   489 net.cpp:157] Top shape: 32 128 5 5 (102400)
I0324 16:57:34.095434   489 net.cpp:165] Memory required for data: 8263614592
I0324 16:57:34.095458   489 layer_factory.hpp:77] Creating layer conv8_1_relu
I0324 16:57:34.095479   489 net.cpp:100] Creating Layer conv8_1_relu
I0324 16:57:34.095497   489 net.cpp:434] conv8_1_relu <- conv8_1
I0324 16:57:34.095522   489 net.cpp:395] conv8_1_relu -> conv8_1 (in-place)
I0324 16:57:34.095762   489 net.cpp:150] Setting up conv8_1_relu
I0324 16:57:34.095789   489 net.cpp:157] Top shape: 32 128 5 5 (102400)
I0324 16:57:34.095806   489 net.cpp:165] Memory required for data: 8264024192
I0324 16:57:34.095825   489 layer_factory.hpp:77] Creating layer conv8_2
I0324 16:57:34.095850   489 net.cpp:100] Creating Layer conv8_2
I0324 16:57:34.095870   489 net.cpp:434] conv8_2 <- conv8_1
I0324 16:57:34.095893   489 net.cpp:408] conv8_2 -> conv8_2
I0324 16:57:34.101748   489 net.cpp:150] Setting up conv8_2
I0324 16:57:34.101794   489 net.cpp:157] Top shape: 32 256 3 3 (73728)
I0324 16:57:34.101812   489 net.cpp:165] Memory required for data: 8264319104
I0324 16:57:34.101836   489 layer_factory.hpp:77] Creating layer conv8_2_relu
I0324 16:57:34.101861   489 net.cpp:100] Creating Layer conv8_2_relu
I0324 16:57:34.101881   489 net.cpp:434] conv8_2_relu <- conv8_2
I0324 16:57:34.101907   489 net.cpp:395] conv8_2_relu -> conv8_2 (in-place)
I0324 16:57:34.102156   489 net.cpp:150] Setting up conv8_2_relu
I0324 16:57:34.102185   489 net.cpp:157] Top shape: 32 256 3 3 (73728)
I0324 16:57:34.102203   489 net.cpp:165] Memory required for data: 8264614016
I0324 16:57:34.102221   489 layer_factory.hpp:77] Creating layer conv8_2_conv8_2_relu_0_split
I0324 16:57:34.102246   489 net.cpp:100] Creating Layer conv8_2_conv8_2_relu_0_split
I0324 16:57:34.102265   489 net.cpp:434] conv8_2_conv8_2_relu_0_split <- conv8_2
I0324 16:57:34.102288   489 net.cpp:408] conv8_2_conv8_2_relu_0_split -> conv8_2_conv8_2_relu_0_split_0
I0324 16:57:34.102311   489 net.cpp:408] conv8_2_conv8_2_relu_0_split -> conv8_2_conv8_2_relu_0_split_1
I0324 16:57:34.102334   489 net.cpp:408] conv8_2_conv8_2_relu_0_split -> conv8_2_conv8_2_relu_0_split_2
I0324 16:57:34.102358   489 net.cpp:408] conv8_2_conv8_2_relu_0_split -> conv8_2_conv8_2_relu_0_split_3
I0324 16:57:34.102464   489 net.cpp:150] Setting up conv8_2_conv8_2_relu_0_split
I0324 16:57:34.102488   489 net.cpp:157] Top shape: 32 256 3 3 (73728)
I0324 16:57:34.102507   489 net.cpp:157] Top shape: 32 256 3 3 (73728)
I0324 16:57:34.102527   489 net.cpp:157] Top shape: 32 256 3 3 (73728)
I0324 16:57:34.102547   489 net.cpp:157] Top shape: 32 256 3 3 (73728)
I0324 16:57:34.102563   489 net.cpp:165] Memory required for data: 8265793664
I0324 16:57:34.102581   489 layer_factory.hpp:77] Creating layer conv9_1
I0324 16:57:34.102607   489 net.cpp:100] Creating Layer conv9_1
I0324 16:57:34.102627   489 net.cpp:434] conv9_1 <- conv8_2_conv8_2_relu_0_split_0
I0324 16:57:34.102650   489 net.cpp:408] conv9_1 -> conv9_1
I0324 16:57:34.104646   489 net.cpp:150] Setting up conv9_1
I0324 16:57:34.104683   489 net.cpp:157] Top shape: 32 128 3 3 (36864)
I0324 16:57:34.104702   489 net.cpp:165] Memory required for data: 8265941120
I0324 16:57:34.104724   489 layer_factory.hpp:77] Creating layer conv9_1_relu
I0324 16:57:34.104745   489 net.cpp:100] Creating Layer conv9_1_relu
I0324 16:57:34.104764   489 net.cpp:434] conv9_1_relu <- conv9_1
I0324 16:57:34.104787   489 net.cpp:395] conv9_1_relu -> conv9_1 (in-place)
I0324 16:57:34.105723   489 net.cpp:150] Setting up conv9_1_relu
I0324 16:57:34.105782   489 net.cpp:157] Top shape: 32 128 3 3 (36864)
I0324 16:57:34.105803   489 net.cpp:165] Memory required for data: 8266088576
I0324 16:57:34.105820   489 layer_factory.hpp:77] Creating layer conv9_2
I0324 16:57:34.105847   489 net.cpp:100] Creating Layer conv9_2
I0324 16:57:34.105867   489 net.cpp:434] conv9_2 <- conv9_1
I0324 16:57:34.105891   489 net.cpp:408] conv9_2 -> conv9_2
I0324 16:57:34.111837   489 net.cpp:150] Setting up conv9_2
I0324 16:57:34.111899   489 net.cpp:157] Top shape: 32 256 1 1 (8192)
I0324 16:57:34.111919   489 net.cpp:165] Memory required for data: 8266121344
I0324 16:57:34.111948   489 layer_factory.hpp:77] Creating layer conv9_2_relu
I0324 16:57:34.111974   489 net.cpp:100] Creating Layer conv9_2_relu
I0324 16:57:34.111996   489 net.cpp:434] conv9_2_relu <- conv9_2
I0324 16:57:34.112020   489 net.cpp:395] conv9_2_relu -> conv9_2 (in-place)
I0324 16:57:34.112277   489 net.cpp:150] Setting up conv9_2_relu
I0324 16:57:34.112305   489 net.cpp:157] Top shape: 32 256 1 1 (8192)
I0324 16:57:34.112323   489 net.cpp:165] Memory required for data: 8266154112
I0324 16:57:34.112344   489 layer_factory.hpp:77] Creating layer conv9_2_conv9_2_relu_0_split
I0324 16:57:34.112371   489 net.cpp:100] Creating Layer conv9_2_conv9_2_relu_0_split
I0324 16:57:34.112390   489 net.cpp:434] conv9_2_conv9_2_relu_0_split <- conv9_2
I0324 16:57:34.112412   489 net.cpp:408] conv9_2_conv9_2_relu_0_split -> conv9_2_conv9_2_relu_0_split_0
I0324 16:57:34.112442   489 net.cpp:408] conv9_2_conv9_2_relu_0_split -> conv9_2_conv9_2_relu_0_split_1
I0324 16:57:34.112468   489 net.cpp:408] conv9_2_conv9_2_relu_0_split -> conv9_2_conv9_2_relu_0_split_2
I0324 16:57:34.112560   489 net.cpp:150] Setting up conv9_2_conv9_2_relu_0_split
I0324 16:57:34.112584   489 net.cpp:157] Top shape: 32 256 1 1 (8192)
I0324 16:57:34.112603   489 net.cpp:157] Top shape: 32 256 1 1 (8192)
I0324 16:57:34.112622   489 net.cpp:157] Top shape: 32 256 1 1 (8192)
I0324 16:57:34.112637   489 net.cpp:165] Memory required for data: 8266252416
I0324 16:57:34.112654   489 layer_factory.hpp:77] Creating layer conv4_3_norm
I0324 16:57:34.112677   489 net.cpp:100] Creating Layer conv4_3_norm
I0324 16:57:34.112697   489 net.cpp:434] conv4_3_norm <- conv4_3_relu4_3_0_split_1
I0324 16:57:34.112721   489 net.cpp:408] conv4_3_norm -> conv4_3_norm
I0324 16:57:34.112960   489 net.cpp:150] Setting up conv4_3_norm
I0324 16:57:34.112985   489 net.cpp:157] Top shape: 32 512 38 38 (23658496)
I0324 16:57:34.113003   489 net.cpp:165] Memory required for data: 8360886400
I0324 16:57:34.113023   489 layer_factory.hpp:77] Creating layer conv4_3_norm_conv4_3_norm_0_split
I0324 16:57:34.113054   489 net.cpp:100] Creating Layer conv4_3_norm_conv4_3_norm_0_split
I0324 16:57:34.113072   489 net.cpp:434] conv4_3_norm_conv4_3_norm_0_split <- conv4_3_norm
I0324 16:57:34.113095   489 net.cpp:408] conv4_3_norm_conv4_3_norm_0_split -> conv4_3_norm_conv4_3_norm_0_split_0
I0324 16:57:34.113117   489 net.cpp:408] conv4_3_norm_conv4_3_norm_0_split -> conv4_3_norm_conv4_3_norm_0_split_1
I0324 16:57:34.113318   489 net.cpp:408] conv4_3_norm_conv4_3_norm_0_split -> conv4_3_norm_conv4_3_norm_0_split_2
I0324 16:57:34.113404   489 net.cpp:150] Setting up conv4_3_norm_conv4_3_norm_0_split
I0324 16:57:34.113431   489 net.cpp:157] Top shape: 32 512 38 38 (23658496)
I0324 16:57:34.113451   489 net.cpp:157] Top shape: 32 512 38 38 (23658496)
I0324 16:57:34.113469   489 net.cpp:157] Top shape: 32 512 38 38 (23658496)
I0324 16:57:34.113483   489 net.cpp:165] Memory required for data: 8644788352
I0324 16:57:34.113500   489 layer_factory.hpp:77] Creating layer conv4_3_norm_mbox_loc
I0324 16:57:34.113528   489 net.cpp:100] Creating Layer conv4_3_norm_mbox_loc
I0324 16:57:34.113548   489 net.cpp:434] conv4_3_norm_mbox_loc <- conv4_3_norm_conv4_3_norm_0_split_0
I0324 16:57:34.113567   489 net.cpp:408] conv4_3_norm_mbox_loc -> conv4_3_norm_mbox_loc
I0324 16:57:34.116824   489 net.cpp:150] Setting up conv4_3_norm_mbox_loc
I0324 16:57:34.116888   489 net.cpp:157] Top shape: 32 16 38 38 (739328)
I0324 16:57:34.116917   489 net.cpp:165] Memory required for data: 8647745664
I0324 16:57:34.116945   489 layer_factory.hpp:77] Creating layer conv4_3_norm_mbox_loc_perm
I0324 16:57:34.116974   489 net.cpp:100] Creating Layer conv4_3_norm_mbox_loc_perm
I0324 16:57:34.116997   489 net.cpp:434] conv4_3_norm_mbox_loc_perm <- conv4_3_norm_mbox_loc
I0324 16:57:34.117018   489 net.cpp:408] conv4_3_norm_mbox_loc_perm -> conv4_3_norm_mbox_loc_perm
I0324 16:57:34.117184   489 net.cpp:150] Setting up conv4_3_norm_mbox_loc_perm
I0324 16:57:34.117211   489 net.cpp:157] Top shape: 32 38 38 16 (739328)
I0324 16:57:34.117228   489 net.cpp:165] Memory required for data: 8650702976
I0324 16:57:34.117245   489 layer_factory.hpp:77] Creating layer conv4_3_norm_mbox_loc_flat
I0324 16:57:34.117270   489 net.cpp:100] Creating Layer conv4_3_norm_mbox_loc_flat
I0324 16:57:34.117291   489 net.cpp:434] conv4_3_norm_mbox_loc_flat <- conv4_3_norm_mbox_loc_perm
I0324 16:57:34.117313   489 net.cpp:408] conv4_3_norm_mbox_loc_flat -> conv4_3_norm_mbox_loc_flat
I0324 16:57:34.117369   489 net.cpp:150] Setting up conv4_3_norm_mbox_loc_flat
I0324 16:57:34.117393   489 net.cpp:157] Top shape: 32 23104 (739328)
I0324 16:57:34.117410   489 net.cpp:165] Memory required for data: 8653660288
I0324 16:57:34.117427   489 layer_factory.hpp:77] Creating layer conv4_3_norm_mbox_conf
I0324 16:57:34.117455   489 net.cpp:100] Creating Layer conv4_3_norm_mbox_conf
I0324 16:57:34.117475   489 net.cpp:434] conv4_3_norm_mbox_conf <- conv4_3_norm_conv4_3_norm_0_split_1
I0324 16:57:34.117501   489 net.cpp:408] conv4_3_norm_mbox_conf -> conv4_3_norm_mbox_conf
I0324 16:57:34.121843   489 net.cpp:150] Setting up conv4_3_norm_mbox_conf
I0324 16:57:34.121902   489 net.cpp:157] Top shape: 32 44 38 38 (2033152)
I0324 16:57:34.121922   489 net.cpp:165] Memory required for data: 8661792896
I0324 16:57:34.121950   489 layer_factory.hpp:77] Creating layer conv4_3_norm_mbox_conf_perm
I0324 16:57:34.121978   489 net.cpp:100] Creating Layer conv4_3_norm_mbox_conf_perm
I0324 16:57:34.121999   489 net.cpp:434] conv4_3_norm_mbox_conf_perm <- conv4_3_norm_mbox_conf
I0324 16:57:34.122020   489 net.cpp:408] conv4_3_norm_mbox_conf_perm -> conv4_3_norm_mbox_conf_perm
I0324 16:57:34.122184   489 net.cpp:150] Setting up conv4_3_norm_mbox_conf_perm
I0324 16:57:34.122208   489 net.cpp:157] Top shape: 32 38 38 44 (2033152)
I0324 16:57:34.122225   489 net.cpp:165] Memory required for data: 8669925504
I0324 16:57:34.122243   489 layer_factory.hpp:77] Creating layer conv4_3_norm_mbox_conf_flat
I0324 16:57:34.122267   489 net.cpp:100] Creating Layer conv4_3_norm_mbox_conf_flat
I0324 16:57:34.122285   489 net.cpp:434] conv4_3_norm_mbox_conf_flat <- conv4_3_norm_mbox_conf_perm
I0324 16:57:34.122306   489 net.cpp:408] conv4_3_norm_mbox_conf_flat -> conv4_3_norm_mbox_conf_flat
I0324 16:57:34.122357   489 net.cpp:150] Setting up conv4_3_norm_mbox_conf_flat
I0324 16:57:34.122382   489 net.cpp:157] Top shape: 32 63536 (2033152)
I0324 16:57:34.122400   489 net.cpp:165] Memory required for data: 8678058112
I0324 16:57:34.122418   489 layer_factory.hpp:77] Creating layer conv4_3_norm_mbox_priorbox
I0324 16:57:34.122443   489 net.cpp:100] Creating Layer conv4_3_norm_mbox_priorbox
I0324 16:57:34.122464   489 net.cpp:434] conv4_3_norm_mbox_priorbox <- conv4_3_norm_conv4_3_norm_0_split_2
I0324 16:57:34.122485   489 net.cpp:434] conv4_3_norm_mbox_priorbox <- data_data_0_split_1
I0324 16:57:34.122510   489 net.cpp:408] conv4_3_norm_mbox_priorbox -> conv4_3_norm_mbox_priorbox
I0324 16:57:34.122571   489 net.cpp:150] Setting up conv4_3_norm_mbox_priorbox
I0324 16:57:34.122597   489 net.cpp:157] Top shape: 1 2 23104 (46208)
I0324 16:57:34.122614   489 net.cpp:165] Memory required for data: 8678242944
I0324 16:57:34.122632   489 layer_factory.hpp:77] Creating layer fc7_mbox_loc
I0324 16:57:34.122661   489 net.cpp:100] Creating Layer fc7_mbox_loc
I0324 16:57:34.122683   489 net.cpp:434] fc7_mbox_loc <- fc7_relu7_0_split_1
I0324 16:57:34.122714   489 net.cpp:408] fc7_mbox_loc -> fc7_mbox_loc
I0324 16:57:34.127118   489 net.cpp:150] Setting up fc7_mbox_loc
I0324 16:57:34.127173   489 net.cpp:157] Top shape: 32 24 19 19 (277248)
I0324 16:57:34.127194   489 net.cpp:165] Memory required for data: 8679351936
I0324 16:57:34.127221   489 layer_factory.hpp:77] Creating layer fc7_mbox_loc_perm
I0324 16:57:34.127248   489 net.cpp:100] Creating Layer fc7_mbox_loc_perm
I0324 16:57:34.127267   489 net.cpp:434] fc7_mbox_loc_perm <- fc7_mbox_loc
I0324 16:57:34.127290   489 net.cpp:408] fc7_mbox_loc_perm -> fc7_mbox_loc_perm
I0324 16:57:34.127454   489 net.cpp:150] Setting up fc7_mbox_loc_perm
I0324 16:57:34.127480   489 net.cpp:157] Top shape: 32 19 19 24 (277248)
I0324 16:57:34.127497   489 net.cpp:165] Memory required for data: 8680460928
I0324 16:57:34.127516   489 layer_factory.hpp:77] Creating layer fc7_mbox_loc_flat
I0324 16:57:34.127538   489 net.cpp:100] Creating Layer fc7_mbox_loc_flat
I0324 16:57:34.127557   489 net.cpp:434] fc7_mbox_loc_flat <- fc7_mbox_loc_perm
I0324 16:57:34.127578   489 net.cpp:408] fc7_mbox_loc_flat -> fc7_mbox_loc_flat
I0324 16:57:34.127634   489 net.cpp:150] Setting up fc7_mbox_loc_flat
I0324 16:57:34.127656   489 net.cpp:157] Top shape: 32 8664 (277248)
I0324 16:57:34.127673   489 net.cpp:165] Memory required for data: 8681569920
I0324 16:57:34.127691   489 layer_factory.hpp:77] Creating layer fc7_mbox_conf
I0324 16:57:34.127717   489 net.cpp:100] Creating Layer fc7_mbox_conf
I0324 16:57:34.127737   489 net.cpp:434] fc7_mbox_conf <- fc7_relu7_0_split_2
I0324 16:57:34.127760   489 net.cpp:408] fc7_mbox_conf -> fc7_mbox_conf
I0324 16:57:34.136485   489 net.cpp:150] Setting up fc7_mbox_conf
I0324 16:57:34.136545   489 net.cpp:157] Top shape: 32 66 19 19 (762432)
I0324 16:57:34.136571   489 net.cpp:165] Memory required for data: 8684619648
I0324 16:57:34.136601   489 layer_factory.hpp:77] Creating layer fc7_mbox_conf_perm
I0324 16:57:34.136632   489 net.cpp:100] Creating Layer fc7_mbox_conf_perm
I0324 16:57:34.136658   489 net.cpp:434] fc7_mbox_conf_perm <- fc7_mbox_conf
I0324 16:57:34.136687   489 net.cpp:408] fc7_mbox_conf_perm -> fc7_mbox_conf_perm
I0324 16:57:34.136859   489 net.cpp:150] Setting up fc7_mbox_conf_perm
I0324 16:57:34.136889   489 net.cpp:157] Top shape: 32 19 19 66 (762432)
I0324 16:57:34.136910   489 net.cpp:165] Memory required for data: 8687669376
I0324 16:57:34.136930   489 layer_factory.hpp:77] Creating layer fc7_mbox_conf_flat
I0324 16:57:34.136956   489 net.cpp:100] Creating Layer fc7_mbox_conf_flat
I0324 16:57:34.136978   489 net.cpp:434] fc7_mbox_conf_flat <- fc7_mbox_conf_perm
I0324 16:57:34.137002   489 net.cpp:408] fc7_mbox_conf_flat -> fc7_mbox_conf_flat
I0324 16:57:34.137058   489 net.cpp:150] Setting up fc7_mbox_conf_flat
I0324 16:57:34.137084   489 net.cpp:157] Top shape: 32 23826 (762432)
I0324 16:57:34.137105   489 net.cpp:165] Memory required for data: 8690719104
I0324 16:57:34.137126   489 layer_factory.hpp:77] Creating layer fc7_mbox_priorbox
I0324 16:57:34.137152   489 net.cpp:100] Creating Layer fc7_mbox_priorbox
I0324 16:57:34.137174   489 net.cpp:434] fc7_mbox_priorbox <- fc7_relu7_0_split_3
I0324 16:57:34.137197   489 net.cpp:434] fc7_mbox_priorbox <- data_data_0_split_2
I0324 16:57:34.137221   489 net.cpp:408] fc7_mbox_priorbox -> fc7_mbox_priorbox
I0324 16:57:34.137284   489 net.cpp:150] Setting up fc7_mbox_priorbox
I0324 16:57:34.137311   489 net.cpp:157] Top shape: 1 2 8664 (17328)
I0324 16:57:34.137331   489 net.cpp:165] Memory required for data: 8690788416
I0324 16:57:34.137351   489 layer_factory.hpp:77] Creating layer conv6_2_mbox_loc
I0324 16:57:34.137485   489 net.cpp:100] Creating Layer conv6_2_mbox_loc
I0324 16:57:34.137519   489 net.cpp:434] conv6_2_mbox_loc <- conv6_2_conv6_2_relu_0_split_1
I0324 16:57:34.137629   489 net.cpp:408] conv6_2_mbox_loc -> conv6_2_mbox_loc
I0324 16:57:34.141211   489 net.cpp:150] Setting up conv6_2_mbox_loc
I0324 16:57:34.141273   489 net.cpp:157] Top shape: 32 24 10 10 (76800)
I0324 16:57:34.141378   489 net.cpp:165] Memory required for data: 8691095616
I0324 16:57:34.141471   489 layer_factory.hpp:77] Creating layer conv6_2_mbox_loc_perm
I0324 16:57:34.141522   489 net.cpp:100] Creating Layer conv6_2_mbox_loc_perm
I0324 16:57:34.141609   489 net.cpp:434] conv6_2_mbox_loc_perm <- conv6_2_mbox_loc
I0324 16:57:34.141644   489 net.cpp:408] conv6_2_mbox_loc_perm -> conv6_2_mbox_loc_perm
I0324 16:57:34.141909   489 net.cpp:150] Setting up conv6_2_mbox_loc_perm
I0324 16:57:34.141947   489 net.cpp:157] Top shape: 32 10 10 24 (76800)
I0324 16:57:34.142050   489 net.cpp:165] Memory required for data: 8691402816
I0324 16:57:34.142079   489 layer_factory.hpp:77] Creating layer conv6_2_mbox_loc_flat
I0324 16:57:34.142165   489 net.cpp:100] Creating Layer conv6_2_mbox_loc_flat
I0324 16:57:34.142196   489 net.cpp:434] conv6_2_mbox_loc_flat <- conv6_2_mbox_loc_perm
I0324 16:57:34.142278   489 net.cpp:408] conv6_2_mbox_loc_flat -> conv6_2_mbox_loc_flat
I0324 16:57:34.142388   489 net.cpp:150] Setting up conv6_2_mbox_loc_flat
I0324 16:57:34.142421   489 net.cpp:157] Top shape: 32 2400 (76800)
I0324 16:57:34.142444   489 net.cpp:165] Memory required for data: 8691710016
I0324 16:57:34.142529   489 layer_factory.hpp:77] Creating layer conv6_2_mbox_conf
I0324 16:57:34.142624   489 net.cpp:100] Creating Layer conv6_2_mbox_conf
I0324 16:57:34.142654   489 net.cpp:434] conv6_2_mbox_conf <- conv6_2_conv6_2_relu_0_split_2
I0324 16:57:34.142746   489 net.cpp:408] conv6_2_mbox_conf -> conv6_2_mbox_conf
I0324 16:57:34.149035   489 net.cpp:150] Setting up conv6_2_mbox_conf
I0324 16:57:34.149114   489 net.cpp:157] Top shape: 32 66 10 10 (211200)
I0324 16:57:34.149137   489 net.cpp:165] Memory required for data: 8692554816
I0324 16:57:34.149168   489 layer_factory.hpp:77] Creating layer conv6_2_mbox_conf_perm
I0324 16:57:34.149196   489 net.cpp:100] Creating Layer conv6_2_mbox_conf_perm
I0324 16:57:34.149360   489 net.cpp:434] conv6_2_mbox_conf_perm <- conv6_2_mbox_conf
I0324 16:57:34.149399   489 net.cpp:408] conv6_2_mbox_conf_perm -> conv6_2_mbox_conf_perm
I0324 16:57:34.149746   489 net.cpp:150] Setting up conv6_2_mbox_conf_perm
I0324 16:57:34.149782   489 net.cpp:157] Top shape: 32 10 10 66 (211200)
I0324 16:57:34.149914   489 net.cpp:165] Memory required for data: 8693399616
I0324 16:57:34.149943   489 layer_factory.hpp:77] Creating layer conv6_2_mbox_conf_flat
I0324 16:57:34.150027   489 net.cpp:100] Creating Layer conv6_2_mbox_conf_flat
I0324 16:57:34.150056   489 net.cpp:434] conv6_2_mbox_conf_flat <- conv6_2_mbox_conf_perm
I0324 16:57:34.150146   489 net.cpp:408] conv6_2_mbox_conf_flat -> conv6_2_mbox_conf_flat
I0324 16:57:34.150254   489 net.cpp:150] Setting up conv6_2_mbox_conf_flat
I0324 16:57:34.150290   489 net.cpp:157] Top shape: 32 6600 (211200)
I0324 16:57:34.150367   489 net.cpp:165] Memory required for data: 8694244416
I0324 16:57:34.150396   489 layer_factory.hpp:77] Creating layer conv6_2_mbox_priorbox
I0324 16:57:34.150482   489 net.cpp:100] Creating Layer conv6_2_mbox_priorbox
I0324 16:57:34.150513   489 net.cpp:434] conv6_2_mbox_priorbox <- conv6_2_conv6_2_relu_0_split_3
I0324 16:57:34.150596   489 net.cpp:434] conv6_2_mbox_priorbox <- data_data_0_split_3
I0324 16:57:34.150633   489 net.cpp:408] conv6_2_mbox_priorbox -> conv6_2_mbox_priorbox
I0324 16:57:34.150763   489 net.cpp:150] Setting up conv6_2_mbox_priorbox
I0324 16:57:34.150796   489 net.cpp:157] Top shape: 1 2 2400 (4800)
I0324 16:57:34.150877   489 net.cpp:165] Memory required for data: 8694263616
I0324 16:57:34.150907   489 layer_factory.hpp:77] Creating layer conv7_2_mbox_loc
I0324 16:57:34.151000   489 net.cpp:100] Creating Layer conv7_2_mbox_loc
I0324 16:57:34.151031   489 net.cpp:434] conv7_2_mbox_loc <- conv7_2_conv7_2_relu_0_split_1
I0324 16:57:34.151124   489 net.cpp:408] conv7_2_mbox_loc -> conv7_2_mbox_loc
I0324 16:57:34.153553   489 net.cpp:150] Setting up conv7_2_mbox_loc
I0324 16:57:34.153594   489 net.cpp:157] Top shape: 32 24 5 5 (19200)
I0324 16:57:34.153698   489 net.cpp:165] Memory required for data: 8694340416
I0324 16:57:34.153818   489 layer_factory.hpp:77] Creating layer conv7_2_mbox_loc_perm
I0324 16:57:34.153865   489 net.cpp:100] Creating Layer conv7_2_mbox_loc_perm
I0324 16:57:34.153949   489 net.cpp:434] conv7_2_mbox_loc_perm <- conv7_2_mbox_loc
I0324 16:57:34.154050   489 net.cpp:408] conv7_2_mbox_loc_perm -> conv7_2_mbox_loc_perm
I0324 16:57:34.154271   489 net.cpp:150] Setting up conv7_2_mbox_loc_perm
I0324 16:57:34.154306   489 net.cpp:157] Top shape: 32 5 5 24 (19200)
I0324 16:57:34.154402   489 net.cpp:165] Memory required for data: 8694417216
I0324 16:57:34.154433   489 layer_factory.hpp:77] Creating layer conv7_2_mbox_loc_flat
I0324 16:57:34.154511   489 net.cpp:100] Creating Layer conv7_2_mbox_loc_flat
I0324 16:57:34.154541   489 net.cpp:434] conv7_2_mbox_loc_flat <- conv7_2_mbox_loc_perm
I0324 16:57:34.154628   489 net.cpp:408] conv7_2_mbox_loc_flat -> conv7_2_mbox_loc_flat
I0324 16:57:34.154744   489 net.cpp:150] Setting up conv7_2_mbox_loc_flat
I0324 16:57:34.154776   489 net.cpp:157] Top shape: 32 600 (19200)
I0324 16:57:34.154858   489 net.cpp:165] Memory required for data: 8694494016
I0324 16:57:34.154887   489 layer_factory.hpp:77] Creating layer conv7_2_mbox_conf
I0324 16:57:34.154975   489 net.cpp:100] Creating Layer conv7_2_mbox_conf
I0324 16:57:34.155005   489 net.cpp:434] conv7_2_mbox_conf <- conv7_2_conv7_2_relu_0_split_2
I0324 16:57:34.155086   489 net.cpp:408] conv7_2_mbox_conf -> conv7_2_mbox_conf
I0324 16:57:34.158300   489 net.cpp:150] Setting up conv7_2_mbox_conf
I0324 16:57:34.158346   489 net.cpp:157] Top shape: 32 66 5 5 (52800)
I0324 16:57:34.158424   489 net.cpp:165] Memory required for data: 8694705216
I0324 16:57:34.158520   489 layer_factory.hpp:77] Creating layer conv7_2_mbox_conf_perm
I0324 16:57:34.158556   489 net.cpp:100] Creating Layer conv7_2_mbox_conf_perm
I0324 16:57:34.158640   489 net.cpp:434] conv7_2_mbox_conf_perm <- conv7_2_mbox_conf
I0324 16:57:34.158674   489 net.cpp:408] conv7_2_mbox_conf_perm -> conv7_2_mbox_conf_perm
I0324 16:57:34.158907   489 net.cpp:150] Setting up conv7_2_mbox_conf_perm
I0324 16:57:34.158941   489 net.cpp:157] Top shape: 32 5 5 66 (52800)
I0324 16:57:34.159040   489 net.cpp:165] Memory required for data: 8694916416
I0324 16:57:34.159070   489 layer_factory.hpp:77] Creating layer conv7_2_mbox_conf_flat
I0324 16:57:34.159155   489 net.cpp:100] Creating Layer conv7_2_mbox_conf_flat
I0324 16:57:34.159186   489 net.cpp:434] conv7_2_mbox_conf_flat <- conv7_2_mbox_conf_perm
I0324 16:57:34.159276   489 net.cpp:408] conv7_2_mbox_conf_flat -> conv7_2_mbox_conf_flat
I0324 16:57:34.159389   489 net.cpp:150] Setting up conv7_2_mbox_conf_flat
I0324 16:57:34.159421   489 net.cpp:157] Top shape: 32 1650 (52800)
I0324 16:57:34.159499   489 net.cpp:165] Memory required for data: 8695127616
I0324 16:57:34.159533   489 layer_factory.hpp:77] Creating layer conv7_2_mbox_priorbox
I0324 16:57:34.159618   489 net.cpp:100] Creating Layer conv7_2_mbox_priorbox
I0324 16:57:34.159647   489 net.cpp:434] conv7_2_mbox_priorbox <- conv7_2_conv7_2_relu_0_split_3
I0324 16:57:34.159735   489 net.cpp:434] conv7_2_mbox_priorbox <- data_data_0_split_4
I0324 16:57:34.159771   489 net.cpp:408] conv7_2_mbox_priorbox -> conv7_2_mbox_priorbox
I0324 16:57:34.159899   489 net.cpp:150] Setting up conv7_2_mbox_priorbox
I0324 16:57:34.159931   489 net.cpp:157] Top shape: 1 2 600 (1200)
I0324 16:57:34.159953   489 net.cpp:165] Memory required for data: 8695132416
I0324 16:57:34.160040   489 layer_factory.hpp:77] Creating layer conv8_2_mbox_loc
I0324 16:57:34.160132   489 net.cpp:100] Creating Layer conv8_2_mbox_loc
I0324 16:57:34.160162   489 net.cpp:434] conv8_2_mbox_loc <- conv8_2_conv8_2_relu_0_split_1
I0324 16:57:34.160256   489 net.cpp:408] conv8_2_mbox_loc -> conv8_2_mbox_loc
I0324 16:57:34.162741   489 net.cpp:150] Setting up conv8_2_mbox_loc
I0324 16:57:34.162788   489 net.cpp:157] Top shape: 32 16 3 3 (4608)
I0324 16:57:34.162926   489 net.cpp:165] Memory required for data: 8695150848
I0324 16:57:34.162966   489 layer_factory.hpp:77] Creating layer conv8_2_mbox_loc_perm
I0324 16:57:34.163060   489 net.cpp:100] Creating Layer conv8_2_mbox_loc_perm
I0324 16:57:34.163105   489 net.cpp:434] conv8_2_mbox_loc_perm <- conv8_2_mbox_loc
I0324 16:57:34.163195   489 net.cpp:408] conv8_2_mbox_loc_perm -> conv8_2_mbox_loc_perm
I0324 16:57:34.163487   489 net.cpp:150] Setting up conv8_2_mbox_loc_perm
I0324 16:57:34.163524   489 net.cpp:157] Top shape: 32 3 3 16 (4608)
I0324 16:57:34.163626   489 net.cpp:165] Memory required for data: 8695169280
I0324 16:57:34.163655   489 layer_factory.hpp:77] Creating layer conv8_2_mbox_loc_flat
I0324 16:57:34.163738   489 net.cpp:100] Creating Layer conv8_2_mbox_loc_flat
I0324 16:57:34.163836   489 net.cpp:434] conv8_2_mbox_loc_flat <- conv8_2_mbox_loc_perm
I0324 16:57:34.163872   489 net.cpp:408] conv8_2_mbox_loc_flat -> conv8_2_mbox_loc_flat
I0324 16:57:34.163995   489 net.cpp:150] Setting up conv8_2_mbox_loc_flat
I0324 16:57:34.164103   489 net.cpp:157] Top shape: 32 144 (4608)
I0324 16:57:34.164188   489 net.cpp:165] Memory required for data: 8695187712
I0324 16:57:34.164218   489 layer_factory.hpp:77] Creating layer conv8_2_mbox_conf
I0324 16:57:34.164321   489 net.cpp:100] Creating Layer conv8_2_mbox_conf
I0324 16:57:34.164352   489 net.cpp:434] conv8_2_mbox_conf <- conv8_2_conv8_2_relu_0_split_2
I0324 16:57:34.164443   489 net.cpp:408] conv8_2_mbox_conf -> conv8_2_mbox_conf
I0324 16:57:34.167327   489 net.cpp:150] Setting up conv8_2_mbox_conf
I0324 16:57:34.167377   489 net.cpp:157] Top shape: 32 44 3 3 (12672)
I0324 16:57:34.167501   489 net.cpp:165] Memory required for data: 8695238400
I0324 16:57:34.167539   489 layer_factory.hpp:77] Creating layer conv8_2_mbox_conf_perm
I0324 16:57:34.167629   489 net.cpp:100] Creating Layer conv8_2_mbox_conf_perm
I0324 16:57:34.167660   489 net.cpp:434] conv8_2_mbox_conf_perm <- conv8_2_mbox_conf
I0324 16:57:34.167753   489 net.cpp:408] conv8_2_mbox_conf_perm -> conv8_2_mbox_conf_perm
I0324 16:57:34.167980   489 net.cpp:150] Setting up conv8_2_mbox_conf_perm
I0324 16:57:34.168017   489 net.cpp:157] Top shape: 32 3 3 44 (12672)
I0324 16:57:34.168115   489 net.cpp:165] Memory required for data: 8695289088
I0324 16:57:34.168144   489 layer_factory.hpp:77] Creating layer conv8_2_mbox_conf_flat
I0324 16:57:34.168226   489 net.cpp:100] Creating Layer conv8_2_mbox_conf_flat
I0324 16:57:34.168256   489 net.cpp:434] conv8_2_mbox_conf_flat <- conv8_2_mbox_conf_perm
I0324 16:57:34.168341   489 net.cpp:408] conv8_2_mbox_conf_flat -> conv8_2_mbox_conf_flat
I0324 16:57:34.168452   489 net.cpp:150] Setting up conv8_2_mbox_conf_flat
I0324 16:57:34.168483   489 net.cpp:157] Top shape: 32 396 (12672)
I0324 16:57:34.168561   489 net.cpp:165] Memory required for data: 8695339776
I0324 16:57:34.168591   489 layer_factory.hpp:77] Creating layer conv8_2_mbox_priorbox
I0324 16:57:34.168680   489 net.cpp:100] Creating Layer conv8_2_mbox_priorbox
I0324 16:57:34.168712   489 net.cpp:434] conv8_2_mbox_priorbox <- conv8_2_conv8_2_relu_0_split_3
I0324 16:57:34.168797   489 net.cpp:434] conv8_2_mbox_priorbox <- data_data_0_split_5
I0324 16:57:34.168836   489 net.cpp:408] conv8_2_mbox_priorbox -> conv8_2_mbox_priorbox
I0324 16:57:34.169008   489 net.cpp:150] Setting up conv8_2_mbox_priorbox
I0324 16:57:34.169040   489 net.cpp:157] Top shape: 1 2 144 (288)
I0324 16:57:34.169061   489 net.cpp:165] Memory required for data: 8695340928
I0324 16:57:34.169148   489 layer_factory.hpp:77] Creating layer conv9_2_mbox_loc
I0324 16:57:34.169237   489 net.cpp:100] Creating Layer conv9_2_mbox_loc
I0324 16:57:34.169268   489 net.cpp:434] conv9_2_mbox_loc <- conv9_2_conv9_2_relu_0_split_0
I0324 16:57:34.169355   489 net.cpp:408] conv9_2_mbox_loc -> conv9_2_mbox_loc
I0324 16:57:34.172302   489 net.cpp:150] Setting up conv9_2_mbox_loc
I0324 16:57:34.172343   489 net.cpp:157] Top shape: 32 16 1 1 (512)
I0324 16:57:34.172456   489 net.cpp:165] Memory required for data: 8695342976
I0324 16:57:34.172492   489 layer_factory.hpp:77] Creating layer conv9_2_mbox_loc_perm
I0324 16:57:34.172583   489 net.cpp:100] Creating Layer conv9_2_mbox_loc_perm
I0324 16:57:34.172614   489 net.cpp:434] conv9_2_mbox_loc_perm <- conv9_2_mbox_loc
I0324 16:57:34.172698   489 net.cpp:408] conv9_2_mbox_loc_perm -> conv9_2_mbox_loc_perm
I0324 16:57:34.172940   489 net.cpp:150] Setting up conv9_2_mbox_loc_perm
I0324 16:57:34.172973   489 net.cpp:157] Top shape: 32 1 1 16 (512)
I0324 16:57:34.173053   489 net.cpp:165] Memory required for data: 8695345024
I0324 16:57:34.173084   489 layer_factory.hpp:77] Creating layer conv9_2_mbox_loc_flat
I0324 16:57:34.173169   489 net.cpp:100] Creating Layer conv9_2_mbox_loc_flat
I0324 16:57:34.173199   489 net.cpp:434] conv9_2_mbox_loc_flat <- conv9_2_mbox_loc_perm
I0324 16:57:34.173290   489 net.cpp:408] conv9_2_mbox_loc_flat -> conv9_2_mbox_loc_flat
I0324 16:57:34.173403   489 net.cpp:150] Setting up conv9_2_mbox_loc_flat
I0324 16:57:34.173435   489 net.cpp:157] Top shape: 32 16 (512)
I0324 16:57:34.173506   489 net.cpp:165] Memory required for data: 8695347072
I0324 16:57:34.173534   489 layer_factory.hpp:77] Creating layer conv9_2_mbox_conf
I0324 16:57:34.173629   489 net.cpp:100] Creating Layer conv9_2_mbox_conf
I0324 16:57:34.173660   489 net.cpp:434] conv9_2_mbox_conf <- conv9_2_conv9_2_relu_0_split_1
I0324 16:57:34.173765   489 net.cpp:408] conv9_2_mbox_conf -> conv9_2_mbox_conf
I0324 16:57:34.176491   489 net.cpp:150] Setting up conv9_2_mbox_conf
I0324 16:57:34.176530   489 net.cpp:157] Top shape: 32 44 1 1 (1408)
I0324 16:57:34.176658   489 net.cpp:165] Memory required for data: 8695352704
I0324 16:57:34.176693   489 layer_factory.hpp:77] Creating layer conv9_2_mbox_conf_perm
I0324 16:57:34.176786   489 net.cpp:100] Creating Layer conv9_2_mbox_conf_perm
I0324 16:57:34.176817   489 net.cpp:434] conv9_2_mbox_conf_perm <- conv9_2_mbox_conf
I0324 16:57:34.176920   489 net.cpp:408] conv9_2_mbox_conf_perm -> conv9_2_mbox_conf_perm
I0324 16:57:34.177147   489 net.cpp:150] Setting up conv9_2_mbox_conf_perm
I0324 16:57:34.177182   489 net.cpp:157] Top shape: 32 1 1 44 (1408)
I0324 16:57:34.177202   489 net.cpp:165] Memory required for data: 8695358336
I0324 16:57:34.177222   489 layer_factory.hpp:77] Creating layer conv9_2_mbox_conf_flat
I0324 16:57:34.177333   489 net.cpp:100] Creating Layer conv9_2_mbox_conf_flat
I0324 16:57:34.177363   489 net.cpp:434] conv9_2_mbox_conf_flat <- conv9_2_mbox_conf_perm
I0324 16:57:34.177453   489 net.cpp:408] conv9_2_mbox_conf_flat -> conv9_2_mbox_conf_flat
I0324 16:57:34.177567   489 net.cpp:150] Setting up conv9_2_mbox_conf_flat
I0324 16:57:34.177598   489 net.cpp:157] Top shape: 32 44 (1408)
I0324 16:57:34.177676   489 net.cpp:165] Memory required for data: 8695363968
I0324 16:57:34.177706   489 layer_factory.hpp:77] Creating layer conv9_2_mbox_priorbox
I0324 16:57:34.177811   489 net.cpp:100] Creating Layer conv9_2_mbox_priorbox
I0324 16:57:34.177844   489 net.cpp:434] conv9_2_mbox_priorbox <- conv9_2_conv9_2_relu_0_split_2
I0324 16:57:34.177929   489 net.cpp:434] conv9_2_mbox_priorbox <- data_data_0_split_6
I0324 16:57:34.177965   489 net.cpp:408] conv9_2_mbox_priorbox -> conv9_2_mbox_priorbox
I0324 16:57:34.178087   489 net.cpp:150] Setting up conv9_2_mbox_priorbox
I0324 16:57:34.178120   489 net.cpp:157] Top shape: 1 2 16 (32)
I0324 16:57:34.178200   489 net.cpp:165] Memory required for data: 8695364096
I0324 16:57:34.178231   489 layer_factory.hpp:77] Creating layer mbox_loc
I0324 16:57:34.178315   489 net.cpp:100] Creating Layer mbox_loc
I0324 16:57:34.178347   489 net.cpp:434] mbox_loc <- conv4_3_norm_mbox_loc_flat
I0324 16:57:34.178431   489 net.cpp:434] mbox_loc <- fc7_mbox_loc_flat
I0324 16:57:34.178462   489 net.cpp:434] mbox_loc <- conv6_2_mbox_loc_flat
I0324 16:57:34.178545   489 net.cpp:434] mbox_loc <- conv7_2_mbox_loc_flat
I0324 16:57:34.178576   489 net.cpp:434] mbox_loc <- conv8_2_mbox_loc_flat
I0324 16:57:34.178656   489 net.cpp:434] mbox_loc <- conv9_2_mbox_loc_flat
I0324 16:57:34.178691   489 net.cpp:408] mbox_loc -> mbox_loc
I0324 16:57:34.178815   489 net.cpp:150] Setting up mbox_loc
I0324 16:57:34.178848   489 net.cpp:157] Top shape: 32 34928 (1117696)
I0324 16:57:34.178930   489 net.cpp:165] Memory required for data: 8699834880
I0324 16:57:34.178959   489 layer_factory.hpp:77] Creating layer mbox_conf
I0324 16:57:34.179038   489 net.cpp:100] Creating Layer mbox_conf
I0324 16:57:34.179076   489 net.cpp:434] mbox_conf <- conv4_3_norm_mbox_conf_flat
I0324 16:57:34.179160   489 net.cpp:434] mbox_conf <- fc7_mbox_conf_flat
I0324 16:57:34.179193   489 net.cpp:434] mbox_conf <- conv6_2_mbox_conf_flat
I0324 16:57:34.179276   489 net.cpp:434] mbox_conf <- conv7_2_mbox_conf_flat
I0324 16:57:34.179306   489 net.cpp:434] mbox_conf <- conv8_2_mbox_conf_flat
I0324 16:57:34.179389   489 net.cpp:434] mbox_conf <- conv9_2_mbox_conf_flat
I0324 16:57:34.179426   489 net.cpp:408] mbox_conf -> mbox_conf
I0324 16:57:34.179548   489 net.cpp:150] Setting up mbox_conf
I0324 16:57:34.179581   489 net.cpp:157] Top shape: 32 96052 (3073664)
I0324 16:57:34.179601   489 net.cpp:165] Memory required for data: 8712129536
I0324 16:57:34.179620   489 layer_factory.hpp:77] Creating layer mbox_priorbox
I0324 16:57:34.179713   489 net.cpp:100] Creating Layer mbox_priorbox
I0324 16:57:34.179742   489 net.cpp:434] mbox_priorbox <- conv4_3_norm_mbox_priorbox
I0324 16:57:34.179824   489 net.cpp:434] mbox_priorbox <- fc7_mbox_priorbox
I0324 16:57:34.179857   489 net.cpp:434] mbox_priorbox <- conv6_2_mbox_priorbox
I0324 16:57:34.179937   489 net.cpp:434] mbox_priorbox <- conv7_2_mbox_priorbox
I0324 16:57:34.179967   489 net.cpp:434] mbox_priorbox <- conv8_2_mbox_priorbox
I0324 16:57:34.180042   489 net.cpp:434] mbox_priorbox <- conv9_2_mbox_priorbox
I0324 16:57:34.180080   489 net.cpp:408] mbox_priorbox -> mbox_priorbox
I0324 16:57:34.180200   489 net.cpp:150] Setting up mbox_priorbox
I0324 16:57:34.180236   489 net.cpp:157] Top shape: 1 2 34928 (69856)
I0324 16:57:34.180313   489 net.cpp:165] Memory required for data: 8712408960
I0324 16:57:34.180343   489 layer_factory.hpp:77] Creating layer mbox_loss
I0324 16:57:34.180433   489 net.cpp:100] Creating Layer mbox_loss
I0324 16:57:34.180462   489 net.cpp:434] mbox_loss <- mbox_loc
I0324 16:57:34.180547   489 net.cpp:434] mbox_loss <- mbox_conf
I0324 16:57:34.180580   489 net.cpp:434] mbox_loss <- mbox_priorbox
…
  phase: TEST
}
layer {
  name: "data"
  type: "AnnotatedData"
  top: "data"
  top: "label"
  include {
    phase: TEST
  }
  transform_param {
    mean_value: 104
    mean_value: 117
    mean_value: 123
    resize_param {
      prob: 1
      resize_mode: WARP
      height: 300
      width: 300
      interp_mode: LINEAR
    }
  }
  data_param {
    source: "examples/NWPU_VHR/NWPU_VHR_test_lmdb"
    batch_size: 1
    backend: LMDB
  }
  annotated_data_param {
    batch_sampler {
    }
    label_map_file: "data/NWPU_VHR/labelmap_NWPU_VHR.prototxt"
  }
}
layer {
  name: "conv1_1"
  type: "Convolution"
  bottom: "data"
  top: "conv1_1"
  param {
    lr_mult: 1
    decay_mult: 1
  }
  param {
    lr_mult: 2
    decay_mult: 0
  }
  convolution_param {
    num_output: 64
    pad: 1
    kernel_size: 3
    weight_filler {
      type: "xavier"
    }
    bias_filler {
      type: "constant"
      value: 0
    }
  }
}
layer {
  name: "relu1_1"
  type: "ReLU"
  bottom: "conv1_1"
  top: "conv1_1"
}
layer {
  name: "conv1_2"
  type: "Convolution"
  bottom: "conv1_1"
  top: "conv1_2"
  param {
    lr_mult: 1
    decay_mult: 1
  }
  param {
    lr_mult: 2
    decay_mult: 0
  }
  convolution_param {
    num_output: 64
    pad: 1
    kernel_size: 3
    weight_filler {
      type: "xavier"
    }
    bias_filler {
      type: "constant"
      value: 0
    }
  }
}
layer {
  name: "relu1_2"
  type: "ReLU"
  bottom: "conv1_2"
  top: "conv1_2"
}
layer {
  name: "pool1"
  type: "Pooling"
  bottom: "conv1_2"
  top: "pool1"
  pooling_param {
    pool: MAX
    kernel_size: 2
    stride: 2
  }
}
layer {
  name: "conv2_1"
  type: "Convolution"
  bottom: "pool1"
  top: "conv2_1"
  param {
    lr_mult: 1
    decay_mult: 1
  }
  param {
    lr_mult: 2
    decay_mult: 0
  }
  convolution_param {
    num_output: 128
    pad: 1
    kernel_size: 3
    weight_filler {
      type: "xavier"
    }
    bias_filler {
      type: "constant"
      value: 0
    }
  }
}
layer {
  name: "relu2_1"
  type: "ReLU"
  bottom: "conv2_1"
  top: "conv2_1"
}
layer {
  name: "conv2_2"
  type: "Convolution"
  bottom: "conv2_1"
  top: "conv2_2"
  param {
    lr_mult: 1
    decay_mult: 1
  }
  param {
    lr_mult: 2
    decay_mult: 0
  }
  convolution_param {
    num_output: 128
    pad: 1
    kernel_size: 3
    weight_filler {
      type: "xavier"
    }
    bias_filler {
      type: "constant"
      value: 0
    }
  }
}
layer {
  name: "relu2_2"
  type: "ReLU"
  bottom: "conv2_2"
  top: "conv2_2"
}
layer {
  name: "pool2"
  type: "Pooling"
  bottom: "conv2_2"
  top: "pool2"
  pooling_param {
    pool: MAX
    kernel_size: 2
    stride: 2
  }
}
layer {
  name: "conv3_1"
  type: "Convolution"
  bottom: "pool2"
  top: "conv3_1"
  param {
    lr_mult: 1
    decay_mult: 1
  }
  param {
    lr_mult: 2
    decay_mult: 0
  }
  convolution_param {
    num_output: 256
    pad: 1
    kernel_size: 3
    weight_filler {
      type: "xavier"
    }
    bias_filler {
      type: "constant"
      value: 0
    }
  }
}
layer {
  name: "relu3_1"
  type: "ReLU"
  bottom: "conv3_1"
  top: "conv3_1"
}
layer {
  name: "conv3_2_depthwise"
  type: "DepthwiseConvolution"
  bottom: "conv3_1"
  top: "conv3_2_3x3"
  param {
    lr_mult: 1
    decay_mult: 1
  }
  param {
    lr_mult: 2
    decay_mult: 0
  }
  convolution_param {
    num_output: 256
    pad: 1
    kernel_size: 3
    group: 256
    weight_filler {
      type: "xavier"
    }
    bias_filler {
      type: "constant"
      value: 0
    }
  }
}
layer {
  name: "conv3_2_3x3_relu"
  type: "ReLU"
  bottom: "conv3_2_3x3"
  top: "conv3_2_3x3"
}
layer {
  name: "conv3_2_1x1"
  type: "Convolution"
  bottom: "conv3_2_3x3"
  top: "conv3_2"
  param {
    lr_mult: 1
    decay_mult: 1
  }
  param {
    lr_mult: 2
    decay_mult: 0
  }
  convolution_param {
    num_output: 256
    pad: 0
    kernel_size: 1
    stride: 1
    weight_filler {
      type: "xavier"
    }
    bias_filler {
      type: "constant"
      value: 0
    }
  }
}
layer {
  name: "relu3_2"
  type: "ReLU"
  bottom: "conv3_2"
  top: "conv3_2"
}
layer {
  name: "conv3_3_depthwise"
  type: "DepthwiseConvolution"
  bottom: "conv3_2"
  top: "conv3_3_3x3"
  param {
    lr_mult: 1
    decay_mult: 1
  }
  param {
    lr_mult: 2
    decay_mult: 0
  }
  convolution_param {
    num_output: 256
    pad: 1
    kernel_size: 3
    group: 256
    weight_filler {
      type: "xavier"
    }
    bias_filler {
      type: "constant"
      value: 0
    }
  }
}
layer {
  name: "conv3_3_3x3_relu"
  type: "ReLU"
  bottom: "conv3_3_3x3"
  top: "conv3_3_3x3"
}
layer {
  name: "conv3_3_1x1"
  type: "Convolution"
  bottom: "conv3_3_3x3"
  top: "conv3_3"
  param {
    lr_mult: 1
    decay_mult: 1
  }
  param {
    lr_mult: 2
    decay_mult: 0
  }
  convolution_param {
    num_output: 256
    pad: 0
    kernel_size: 1
    stride: 1
    weight_filler {
      type: "xavier"
    }
    bias_filler {
      type: "constant"
      value: 0
    }
  }
}
layer {
  name: "relu3_3"
  type: "ReLU"
  bottom: "conv3_3"
  top: "conv3_3"
}
layer {
  name: "pool3"
  type: "Pooling"
  bottom: "conv3_3"
  top: "pool3"
  pooling_param {
    pool: MAX
    kernel_size: 2
    stride: 2
  }
}
layer {
  name: "conv4_1"
  type: "Convolution"
  bottom: "pool3"
  top: "conv4_1"
  param {
    lr_mult: 1
    decay_mult: 1
  }
  param {
    lr_mult: 2
    decay_mult: 0
  }
  convolution_param {
    num_output: 512
    pad: 1
    kernel_size: 3
    weight_filler {
      type: "xavier"
    }
    bias_filler {
      type: "constant"
      value: 0
    }
  }
}
layer {
  name: "relu4_1"
  type: "ReLU"
  bottom: "conv4_1"
  top: "conv4_1"
}
layer {
  name: "conv4_2"
  type: "Convolution"
  bottom: "conv4_1"
  top: "conv4_2"
  param {
    lr_mult: 1
    decay_mult: 1
  }
  param {
    lr_mult: 2
    decay_mult: 0
  }
  convolution_param {
    num_output: 512
    pad: 1
    kernel_size: 3
    weight_filler {
      type: "xavier"
    }
    bias_filler {
      type: "constant"
      value: 0
    }
  }
}
layer {
  name: "relu4_2"
  type: "ReLU"
  bottom: "conv4_2"
  top: "conv4_2"
}
layer {
  name: "conv4_3"
  type: "Convolution"
  bottom: "conv4_2"
  top: "conv4_3"
  param {
    lr_mult: 1
    decay_mult: 1
  }
  param {
    lr_mult: 2
    decay_mult: 0
  }
  convolution_param {
    num_output: 512
    pad: 1
    kernel_size: 3
    weight_filler {
      type: "xavier"
    }
    bias_filler {
      type: "constant"
      value: 0
    }
  }
}
layer {
  name: "relu4_3"
  type: "ReLU"
  bottom: "conv4_3"
  top: "conv4_3"
}
layer {
  name: "pool4"
  type: "Pooling"
  bottom: "conv4_3"
  top: "pool4"
  pooling_param {
    pool: MAX
    kernel_size: 2
    stride: 2
  }
}
layer {
  name: "conv5_1"
  type: "Convolution"
  bottom: "pool4"
  top: "conv5_1"
  param {
    lr_mult: 1
    decay_mult: 1
  }
  param {
    lr_mult: 2
    decay_mult: 0
  }
  convolution_param {
    num_output: 512
    pad: 1
    kernel_size: 3
    weight_filler {
      type: "xavier"
    }
    bias_filler {
      type: "constant"
      value: 0
    }
    dilation: 1
  }
}
layer {
  name: "relu5_1"
  type: "ReLU"
  bottom: "conv5_1"
  top: "conv5_1"
}
layer {
  name: "conv5_2"
  type: "Convolution"
  bottom: "conv5_1"
  top: "conv5_2"
  param {
    lr_mult: 1
    decay_mult: 1
  }
  param {
    lr_mult: 2
    decay_mult: 0
  }
  convolution_param {
    num_output: 512
    pad: 1
    kernel_size: 3
    weight_filler {
      type: "xavier"
    }
    bias_filler {
      type: "constant"
      value: 0
    }
    dilation: 1
  }
}
layer {
  name: "relu5_2"
  type: "ReLU"
  bottom: "conv5_2"
  top: "conv5_2"
}
layer {
  name: "conv5_3"
  type: "Convolution"
  bottom: "conv5_2"
  top: "conv5_3"
  param {
    lr_mult: 1
    decay_mult: 1
  }
  param {
    lr_mult: 2
    decay_mult: 0
  }
  convolution_param {
    num_output: 512
    pad: 1
    kernel_size: 3
    weight_filler {
      type: "xavier"
    }
    bias_filler {
      type: "constant"
      value: 0
    }
    dilation: 1
  }
}
layer {
  name: "relu5_3"
  type: "ReLU"
  bottom: "conv5_3"
  top: "conv5_3"
}
layer {
  name: "pool5"
  type: "Pooling"
  bottom: "conv5_3"
  top: "pool5"
  pooling_param {
    pool: MAX
    kernel_size: 3
    stride: 1
    pad: 1
  }
}
layer {
  name: "fc6"
  type: "Convolution"
  bottom: "pool5"
  top: "fc6"
  param {
    lr_mult: 1
    decay_mult: 1
  }
  param {
    lr_mult: 2
    decay_mult: 0
  }
  convolution_param {
    num_output: 1024
    pad: 6
    kernel_size: 3
    weight_filler {
      type: "xavier"
    }
    bias_filler {
      type: "constant"
      value: 0
    }
    dilation: 6
  }
}
layer {
  name: "relu6"
  type: "ReLU"
  bottom: "fc6"
  top: "fc6"
}
layer {
  name: "fc7"
  type: "Convolution"
  bottom: "fc6"
  top: "fc7"
  param {
    lr_mult: 1
    decay_mult: 1
  }
  param {
    lr_mult: 2
    decay_mult: 0
  }
  convolution_param {
    num_output: 1024
    kernel_size: 1
    weight_filler {
      type: "xavier"
    }
    bias_filler {
      type: "constant"
      value: 0
    }
  }
}
layer {
  name: "relu7"
  type: "ReLU"
  bottom: "fc7"
  top: "fc7"
}
layer {
  name: "conv6_1"
  type: "Convolution"
  bottom: "fc7"
  top: "conv6_1"
  param {
    lr_mult: 1
    decay_mult: 1
  }
  param {
    lr_mult: 2
    decay_mult: 0
  }
  convolution_param {
    num_output: 256
    pad: 0
    kernel_size: 1
    stride: 1
    weight_filler {
      type: "xavier"
    }
    bias_filler {
      type: "constant"
      value: 0
    }
  }
}
layer {
  name: "conv6_1_relu"
  type: "ReLU"
  bottom: "conv6_1"
  top: "conv6_1"
}
layer {
  name: "conv6_2"
  type: "Convolution"
  bottom: "conv6_1"
  top: "conv6_2"
  param {
    lr_mult: 1
    decay_mult: 1
  }
  param {
    lr_mult: 2
    decay_mult: 0
  }
  convolution_param {
    num_output: 512
    pad: 1
    kernel_size: 3
    stride: 2
    weight_filler {
      type: "xavier"
    }
    bias_filler {
      type: "constant"
      value: 0
    }
  }
}
layer {
  name: "conv6_2_relu"
  type: "ReLU"
  bottom: "conv6_2"
  top: "conv6_2"
}
layer {
  name: "conv7_1"
  type: "Convolution"
  bottom: "conv6_2"
  top: "conv7_1"
  param {
    lr_mult: 1
    decay_mult: 1
  }
  param {
    lr_mult: 2
    decay_mult: 0
  }
  convolution_param {
    num_output: 128
    pad: 0
    kernel_size: 1
    stride: 1
    weight_filler {
      type: "xavier"
    }
    bias_filler {
      type: "constant"
      value: 0
    }
  }
}
layer {
  name: "conv7_1_relu"
  type: "ReLU"
  bottom: "conv7_1"
  top: "conv7_1"
}
layer {
  name: "conv7_2"
  type: "Convolution"
  bottom: "conv7_1"
  top: "conv7_2"
  param {
    lr_mult: 1
    decay_mult: 1
  }
  param {
    lr_mult: 2
    decay_mult: 0
  }
  convolution_param {
    num_output: 256
    pad: 1
    kernel_size: 3
    stride: 2
    weight_filler {
      type: "xavier"
    }
    bias_filler {
      type: "constant"
      value: 0
    }
  }
}
layer {
  name: "conv7_2_relu"
  type: "ReLU"
  bottom: "conv7_2"
  top: "conv7_2"
}
layer {
  name: "conv8_1"
  type: "Convolution"
  bottom: "conv7_2"
  top: "conv8_1"
  param {
    lr_mult: 1
    decay_mult: 1
  }
  param {
    lr_mult: 2
    decay_mult: 0
  }
  convolution_param {
    num_output: 128
    pad: 0
    kernel_size: 1
    stride: 1
    weight_filler {
      type: "xavier"
    }
    bias_filler {
      type: "constant"
      value: 0
    }
  }
}
layer {
  name: "conv8_1_relu"
  type: "ReLU"
  bottom: "conv8_1"
  top: "conv8_1"
}
layer {
  name: "conv8_2"
  type: "Convolution"
  bottom: "conv8_1"
  top: "conv8_2"
  param {
    lr_mult: 1
    decay_mult: 1
  }
  param {
    lr_mult: 2
    decay_mult: 0
  }
  convolution_param {
    num_output: 256
    pad: 0
    kernel_size: 3
    stride: 1
    weight_filler {
      type: "xavier"
    }
    bias_filler {
      type: "constant"
      value: 0
    }
  }
}
layer {
  name: "conv8_2_relu"
  type: "ReLU"
  bottom: "conv8_2"
  top: "conv8_2"
}
layer {
  name: "conv9_1"
  type: "Convolution"
  bottom: "conv8_2"
  top: "conv9_1"
  param {
    lr_mult: 1
    decay_mult: 1
  }
  param {
    lr_mult: 2
    decay_mult: 0
  }
  convolution_param {
    num_output: 128
    pad: 0
    kernel_size: 1
    stride: 1
    weight_filler {
      type: "xavier"
    }
    bias_filler {
      type: "constant"
      value: 0
    }
  }
}
layer {
  name: "conv9_1_relu"
  type: "ReLU"
  bottom: "conv9_1"
  top: "conv9_1"
}
layer {
  name: "conv9_2"
  type: "Convolution"
  bottom: "conv9_1"
  top: "conv9_2"
  param {
    lr_mult: 1
    decay_mult: 1
  }
  param {
    lr_mult: 2
    decay_mult: 0
  }
  convolution_param {
    num_output: 256
    pad: 0
    kernel_size: 3
    stride: 1
    weight_filler {
      type: "xavier"
    }
    bias_filler {
      type: "constant"
      value: 0
    }
  }
}
layer {
  name: "conv9_2_relu"
  type: "ReLU"
  bottom: "conv9_2"
  top: "conv9_2"
}
layer {
  name: "conv4_3_norm"
  type: "Normalize"
  bottom: "conv4_3"
  top: "conv4_3_norm"
  norm_param {
    across_spatial: false
    scale_filler {
      type: "constant"
      value: 20
    }
    channel_shared: false
  }
}
layer {
  name: "conv4_3_norm_mbox_loc"
  type: "Convolution"
  bottom: "conv4_3_norm"
  top: "conv4_3_norm_mbox_loc"
  param {
    lr_mult: 1
    decay_mult: 1
  }
  param {
    lr_mult: 2
    decay_mult: 0
  }
  convolution_param {
    num_output: 16
    pad: 1
    kernel_size: 3
    stride: 1
    weight_filler {
      type: "xavier"
    }
    bias_filler {
      type: "constant"
      value: 0
    }
  }
}
layer {
  name: "conv4_3_norm_mbox_loc_perm"
  type: "Permute"
  bottom: "conv4_3_norm_mbox_loc"
  top: "conv4_3_norm_mbox_loc_perm"
  permute_param {
    order: 0
    order: 2
    order: 3
    order: 1
  }
}
layer {
  name: "conv4_3_norm_mbox_loc_flat"
  type: "Flatten"
  bottom: "conv4_3_norm_mbox_loc_perm"
  top: "conv4_3_norm_mbox_loc_flat"
  flatten_param {
    axis: 1
  }
}
layer {
  name: "conv4_3_norm_mbox_conf"
  type: "Convolution"
  bottom: "conv4_3_norm"
  top: "conv4_3_norm_mbox_conf"
  param {
    lr_mult: 1
    decay_mult: 1
  }
  param {
    lr_mult: 2
    decay_mult: 0
  }
  convolution_param {
    num_output: 44
    pad: 1
    kernel_size: 3
    stride: 1
    weight_filler {
      type: "xavier"
    }
    bias_filler {
      type: "constant"
      value: 0
    }
  }
}
layer {
  name: "conv4_3_norm_mbox_conf_perm"
  type: "Permute"
  bottom: "conv4_3_norm_mbox_conf"
  top: "conv4_3_norm_mbox_conf_perm"
  permute_param {
    order: 0
    order: 2
    order: 3
    order: 1
  }
}
layer {
  name: "conv4_3_norm_mbox_conf_flat"
  type: "Flatten"
  bottom: "conv4_3_norm_mbox_conf_perm"
  top: "conv4_3_norm_mbox_conf_flat"
  flatten_param {
    axis: 1
  }
}
layer {
  name: "conv4_3_norm_mbox_priorbox"
  type: "PriorBox"
  bottom: "conv4_3_norm"
  bottom: "data"
  top: "conv4_3_norm_mbox_priorbox"
  prior_box_param {
    min_size: 30
    max_size: 60
    aspect_ratio: 2
    flip: true
    clip: false
    variance: 0.1
    variance: 0.1
    variance: 0.2
    variance: 0.2
    step: 8
    offset: 0.5
  }
}
layer {
  name: "fc7_mbox_loc"
  type: "Convolution"
  bottom: "fc7"
  top: "fc7_mbox_loc"
  param {
    lr_mult: 1
    decay_mult: 1
  }
  param {
    lr_mult: 2
    decay_mult: 0
  }
  convolution_param {
    num_output: 24
    pad: 1
    kernel_size: 3
    stride: 1
    weight_filler {
      type: "xavier"
    }
    bias_filler {
      type: "constant"
      value: 0
    }
  }
}
layer {
  name: "fc7_mbox_loc_perm"
  type: "Permute"
  bottom: "fc7_mbox_loc"
  top: "fc7_mbox_loc_perm"
  permute_param {
    order: 0
    order: 2
    order: 3
    order: 1
  }
}
layer {
  name: "fc7_mbox_loc_flat"
  type: "Flatten"
  bottom: "fc7_mbox_loc_perm"
  top: "fc7_mbox_loc_flat"
  flatten_param {
    axis: 1
  }
}
layer {
  name: "fc7_mbox_conf"
  type: "Convolution"
  bottom: "fc7"
  top: "fc7_mbox_conf"
  param {
    lr_mult: 1
    decay_mult: 1
  }
  param {
    lr_mult: 2
    decay_mult: 0
  }
  convolution_param {
    num_output: 66
    pad: 1
    kernel_size: 3
    stride: 1
    weight_filler {
      type: "xavier"
    }
    bias_filler {
      type: "constant"
      value: 0
    }
  }
}
layer {
  name: "fc7_mbox_conf_perm"
  type: "Permute"
  bottom: "fc7_mbox_conf"
  top: "fc7_mbox_conf_perm"
  permute_param {
    order: 0
    order: 2
    order: 3
    order: 1
  }
}
layer {
  name: "fc7_mbox_conf_flat"
  type: "Flatten"
  bottom: "fc7_mbox_conf_perm"
  top: "fc7_mbox_conf_flat"
  flatten_param {
    axis: 1
  }
}
layer {
  name: "fc7_mbox_priorbox"
  type: "PriorBox"
  bottom: "fc7"
  bottom: "data"
  top: "fc7_mbox_priorbox"
  prior_box_param {
    min_size: 60
    max_size: 111
    aspect_ratio: 2
    aspect_ratio: 3
    flip: true
    clip: false
    variance: 0.1
    variance: 0.1
    variance: 0.2
    variance: 0.2
    step: 16
    offset: 0.5
  }
}
layer {
  name: "conv6_2_mbox_loc"
  type: "Convolution"
  bottom: "conv6_2"
  top: "conv6_2_mbox_loc"
  param {
    lr_mult: 1
    decay_mult: 1
  }
  param {
    lr_mult: 2
    decay_mult: 0
  }
  convolution_param {
    num_output: 24
    pad: 1
    kernel_size: 3
    stride: 1
    weight_filler {
      type: "xavier"
    }
    bias_filler {
      type: "constant"
      value: 0
    }
  }
}
layer {
  name: "conv6_2_mbox_loc_perm"
  type: "Permute"
  bottom: "conv6_2_mbox_loc"
  top: "conv6_2_mbox_loc_perm"
  permute_param {
    order: 0
    order: 2
    order: 3
    order: 1
  }
}
layer {
  name: "conv6_2_mbox_loc_flat"
  type: "Flatten"
  bottom: "conv6_2_mbox_loc_perm"
  top: "conv6_2_mbox_loc_flat"
  flatten_param {
    axis: 1
  }
}
layer {
  name: "conv6_2_mbox_conf"
  type: "Convolution"
  bottom: "conv6_2"
  top: "conv6_2_mbox_conf"
  param {
    lr_mult: 1
    decay_mult: 1
  }
  param {
    lr_mult: 2
    decay_mult: 0
  }
  convolution_param {
    num_output: 66
    pad: 1
    kernel_size: 3
    stride: 1
    weight_filler {
      type: "xavier"
    }
    bias_filler {
      type: "constant"
      value: 0
    }
  }
}
layer {
  name: "conv6_2_mbox_conf_perm"
  type: "Permute"
  bottom: "conv6_2_mbox_conf"
  top: "conv6_2_mbox_conf_perm"
  permute_param {
    order: 0
    order: 2
    order: 3
    order: 1
  }
}
layer {
  name: "conv6_2_mbox_conf_flat"
  type: "Flatten"
  bottom: "conv6_2_mbox_conf_perm"
  top: "conv6_2_mbox_conf_flat"
  flatten_param {
    axis: 1
  }
}
layer {
  name: "conv6_2_mbox_priorbox"
  type: "PriorBox"
  bottom: "conv6_2"
  bottom: "data"
  top: "conv6_2_mbox_priorbox"
  prior_box_param {
    min_size: 111
    max_size: 162
    aspect_ratio: 2
    aspect_ratio: 3
    flip: true
    clip: false
    variance: 0.1
    variance: 0.1
    variance: 0.2
    variance: 0.2
    step: 32
    offset: 0.5
  }
}
layer {
  name: "conv7_2_mbox_loc"
  type: "Convolution"
  bottom: "conv7_2"
  top: "conv7_2_mbox_loc"
  param {
    lr_mult: 1
    decay_mult: 1
  }
  param {
    lr_mult: 2
    decay_mult: 0
  }
  convolution_param {
    num_output: 24
    pad: 1
    kernel_size: 3
    stride: 1
    weight_filler {
      type: "xavier"
    }
    bias_filler {
      type: "constant"
      value: 0
    }
  }
}
layer {
  name: "conv7_2_mbox_loc_perm"
  type: "Permute"
  bottom: "conv7_2_mbox_loc"
  top: "conv7_2_mbox_loc_perm"
  permute_param {
    order: 0
    order: 2
    order: 3
    order: 1
  }
}
layer {
  name: "conv7_2_mbox_loc_flat"
  type: "Flatten"
  bottom: "conv7_2_mbox_loc_perm"
  top: "conv7_2_mbox_loc_flat"
  flatten_param {
    axis: 1
  }
}
layer {
  name: "conv7_2_mbox_conf"
  type: "Convolution"
  bottom: "conv7_2"
  top: "conv7_2_mbox_conf"
  param {
    lr_mult: 1
    decay_mult: 1
  }
  param {
    lr_mult: 2
    decay_mult: 0
  }
  convolution_param {
    num_output: 66
    pad: 1
    kernel_size: 3
    stride: 1
    weight_filler {
      type: "xavier"
    }
    bias_filler {
      type: "constant"
      value: 0
    }
  }
}
layer {
  name: "conv7_2_mbox_conf_perm"
  type: "Permute"
  bottom: "conv7_2_mbox_conf"
  top: "conv7_2_mbox_conf_perm"
  permute_param {
    order: 0
    order: 2
    order: 3
    order: 1
  }
}
layer {
  name: "conv7_2_mbox_conf_flat"
  type: "Flatten"
  bottom: "conv7_2_mbox_conf_perm"
  top: "conv7_2_mbox_conf_flat"
  flatten_param {
    axis: 1
  }
}
layer {
  name: "conv7_2_mbox_priorbox"
  type: "PriorBox"
  bottom: "conv7_2"
  bottom: "data"
  top: "conv7_2_mbox_priorbox"
  prior_box_param {
    min_size: 162
    max_size: 213
    aspect_ratio: 2
    aspect_ratio: 3
    flip: true
    clip: false
    variance: 0.1
    variance: 0.1
    variance: 0.2
    variance: 0.2
    step: 64
    offset: 0.5
  }
}
layer {
  name: "conv8_2_mbox_loc"
  type: "Convolution"
  bottom: "conv8_2"
  top: "conv8_2_mbox_loc"
  param {
    lr_mult: 1
    decay_mult: 1
  }
  param {
    lr_mult: 2
    decay_mult: 0
  }
  convolution_param {
    num_output: 16
    pad: 1
    kernel_size: 3
    stride: 1
    weight_filler {
      type: "xavier"
    }
    bias_filler {
      type: "constant"
      value: 0
    }
  }
}
layer {
  name: "conv8_2_mbox_loc_perm"
  type: "Permute"
  bottom: "conv8_2_mbox_loc"
  top: "conv8_2_mbox_loc_perm"
  permute_param {
    order: 0
    order: 2
    order: 3
    order: 1
  }
}
layer {
  name: "conv8_2_mbox_loc_flat"
  type: "Flatten"
  bottom: "conv8_2_mbox_loc_perm"
  top: "conv8_2_mbox_loc_flat"
  flatten_param {
    axis: 1
  }
}
layer {
  name: "conv8_2_mbox_conf"
  type: "Convolution"
  bottom: "conv8_2"
  top: "conv8_2_mbox_conf"
  param {
    lr_mult: 1
    decay_mult: 1
  }
  param {
    lr_mult: 2
    decay_mult: 0
  }
  convolution_param {
    num_output: 44
    pad: 1
    kernel_size: 3
    stride: 1
    weight_filler {
      type: "xavier"
    }
    bias_filler {
      type: "constant"
      value: 0
    }
  }
}
layer {
  name: "conv8_2_mbox_conf_perm"
  type: "Permute"
  bottom: "conv8_2_mbox_conf"
  top: "conv8_2_mbox_conf_perm"
  permute_param {
    order: 0
    order: 2
    order: 3
    order: 1
  }
}
layer {
  name: "conv8_2_mbox_conf_flat"
  type: "Flatten"
  bottom: "conv8_2_mbox_conf_perm"
  top: "conv8_2_mbox_conf_flat"
  flatten_param {
    axis: 1
  }
}
layer {
  name: "conv8_2_mbox_priorbox"
  type: "PriorBox"
  bottom: "conv8_2"
  bottom: "data"
  top: "conv8_2_mbox_priorbox"
  prior_box_param {
    min_size: 213
    max_size: 264
    aspect_ratio: 2
    flip: true
    clip: false
    variance: 0.1
    variance: 0.1
    variance: 0.2
    variance: 0.2
    step: 100
    offset: 0.5
  }
}
layer {
  name: "conv9_2_mbox_loc"
  type: "Convolution"
  bottom: "conv9_2"
  top: "conv9_2_mbox_loc"
  param {
    lr_mult: 1
    decay_mult: 1
  }
  param {
    lr_mult: 2
    decay_mult: 0
  }
  convolution_param {
    num_output: 16
    pad: 1
    kernel_size: 3
    stride: 1
    weight_filler {
      type: "xavier"
    }
    bias_filler {
      type: "constant"
      value: 0
    }
  }
}
layer {
  name: "conv9_2_mbox_loc_perm"
  type: "Permute"
  bottom: "conv9_2_mbox_loc"
  top: "conv9_2_mbox_loc_perm"
  permute_param {
    order: 0
    order: 2
    order: 3
    order: 1
  }
}
layer {
  name: "conv9_2_mbox_loc_flat"
  type: "Flatten"
  bottom: "conv9_2_mbox_loc_perm"
  top: "conv9_2_mbox_loc_flat"
  flatten_param {
    axis: 1
  }
}
layer {
  name: "conv9_2_mbox_conf"
  type: "Convolution"
  bottom: "conv9_2"
  top: "conv9_2_mbox_conf"
  param {
    lr_mult: 1
    decay_mult: 1
  }
  param {
    lr_mult: 2
    decay_mult: 0
  }
  convolution_param {
    num_output: 44
    pad: 1
    kernel_size: 3
    stride: 1
    weight_filler {
      type: "xavier"
    }
    bias_filler {
      type: "constant"
      value: 0
    }
  }
}
layer {
  name: "conv9_2_mbox_conf_perm"
  type: "Permute"
  bottom: "conv9_2_mbox_conf"
  top: "conv9_2_mbox_conf_perm"
  permute_param {
    order: 0
    order: 2
    order: 3
    order: 1
  }
}
layer {
  name: "conv9_2_mbox_conf_flat"
  type: "Flatten"
  bottom: "conv9_2_mbox_conf_perm"
  top: "conv9_2_mbox_conf_flat"
  flatten_param {
    axis: 1
  }
}
layer {
  name: "conv9_2_mbox_priorbox"
  type: "PriorBox"
  bottom: "conv9_2"
  bottom: "data"
  top: "conv9_2_mbox_priorbox"
  prior_box_param {
    min_size: 264
    max_size: 315
    aspect_ratio: 2
    flip: true
    clip: false
    variance: 0.1
    variance: 0.1
    variance: 0.2
    variance: 0.2
    step: 300
    offset: 0.5
  }
}
layer {
  name: "mbox_loc"
  type: "Concat"
  bottom: "conv4_3_norm_mbox_loc_flat"
  bottom: "fc7_mbox_loc_flat"
  bottom: "conv6_2_mbox_loc_flat"
  bottom: "conv7_2_mbox_loc_flat"
  bottom: "conv8_2_mbox_loc_flat"
  bottom: "conv9_2_mbox_loc_flat"
  top: "mbox_loc"
  concat_param {
    axis: 1
  }
}
layer {
  name: "mbox_conf"
  type: "Concat"
  bottom: "conv4_3_norm_mbox_conf_flat"
  bottom: "fc7_mbox_conf_flat"
  bottom: "conv6_2_mbox_conf_flat"
  bottom: "conv7_2_mbox_conf_flat"
  bottom: "conv8_2_mbox_conf_flat"
  bottom: "conv9_2_mbox_conf_flat"
  top: "mbox_conf"
  concat_param {
    axis: 1
  }
}
layer {
  name: "mbox_priorbox"
  type: "Concat"
  bottom: "conv4_3_norm_mbox_priorbox"
  bottom: "fc7_mbox_priorbox"
  bottom: "conv6_2_mbox_priorbox"
  bottom: "conv7_2_mbox_priorbox"
  bottom: "conv8_2_mbox_priorbox"
  bottom: "conv9_2_mbox_priorbox"
  top: "mbox_priorbox"
  concat_param {
    axis: 2
  }
}
layer {
  name: "mbox_conf_reshape"
  type: "Reshape"
  bottom: "mbox_conf"
  top: "mbox_conf_reshape"
  reshape_param {
    shape {
      dim: 0
      dim: -1
      dim: 11
    }
  }
}
layer {
  name: "mbox_conf_softmax"
  type: "Softmax"
  bottom: "mbox_conf_reshape"
  top: "mbox_conf_softmax"
  softmax_param {
    axis: 2
  }
}
layer {
  name: "mbox_conf_flatten"
  type: "Flatten"
  bottom: "mbox_conf_softmax"
  top: "mbox_conf_flatten"
  flatten_param {
    axis: 1
  }
}
layer {
  name: "detection_out"
  type: "DetectionOutput"
  bottom: "mbox_loc"
  bottom: "mbox_conf_flatten"
  bottom: "mbox_priorbox"
  top: "detection_out"
  include {
    phase: TEST
  }
  detection_output_param {
    num_classes: 11
    share_location: true
    background_label_id: 0
    nms_param {
      nms_threshold: 0.45
      top_k: 400
    }
    save_output_param {
      output_directory: "/home/zs/data/VOCdevkit/results/VOC2007/SSD_300x300_0324_new_conv3/Main"
      output_name_prefix: "comp4_det_test_"
      output_format: "VOC"
      label_map_file: "data/NWPU_VHR/labelmap_NWPU_VHR.prototxt"
      name_size_file: "data/NWPU_VHR/test_name_size.txt"
      num_test_image: 123
    }
    code_type: CENTER_SIZE
    keep_top_k: 200
    confidence_threshold: 0.01
  }
}
layer {
  name: "detection_eval"
  type: "DetectionEvaluate"
  bottom: "detection_out"
  bottom: "label"
  top: "detection_eval"
  include {
    phase: TEST
  }
  detection_evaluate_param {
    num_classes: 11
    background_label_id: 0
    overlap_threshold: 0.5
    evaluate_difficult_gt: false
    name_size_file: "data/NWPU_VHR/test_name_size.txt"
  }
}
I0324 16:57:34.201931   489 layer_factory.hpp:77] Creating layer data
I0324 16:57:34.202082   489 net.cpp:100] Creating Layer data
I0324 16:57:34.202148   489 net.cpp:408] data -> data
I0324 16:57:34.202222   489 net.cpp:408] data -> label
I0324 16:57:34.226795   508 db_lmdb.cpp:35] Opened lmdb examples/NWPU_VHR/NWPU_VHR_test_lmdb
I0324 16:57:34.244933   489 annotated_data_layer.cpp:62] output data size: 1,3,300,300
I0324 16:57:34.254523   489 net.cpp:150] Setting up data
I0324 16:57:34.255995   489 net.cpp:157] Top shape: 1 3 300 300 (270000)
I0324 16:57:34.256080   489 net.cpp:157] Top shape: 1 1 4 8 (32)
I0324 16:57:34.256135   489 net.cpp:165] Memory required for data: 1080128
I0324 16:57:34.256196   489 layer_factory.hpp:77] Creating layer data_data_0_split
I0324 16:57:34.256270   489 net.cpp:100] Creating Layer data_data_0_split
I0324 16:57:34.256335   489 net.cpp:434] data_data_0_split <- data
I0324 16:57:34.256404   489 net.cpp:408] data_data_0_split -> data_data_0_split_0
I0324 16:57:34.256485   489 net.cpp:408] data_data_0_split -> data_data_0_split_1
I0324 16:57:34.256567   489 net.cpp:408] data_data_0_split -> data_data_0_split_2
I0324 16:57:34.256637   489 net.cpp:408] data_data_0_split -> data_data_0_split_3
I0324 16:57:34.256705   489 net.cpp:408] data_data_0_split -> data_data_0_split_4
I0324 16:57:34.256772   489 net.cpp:408] data_data_0_split -> data_data_0_split_5
I0324 16:57:34.256840   489 net.cpp:408] data_data_0_split -> data_data_0_split_6
I0324 16:57:34.257078   489 net.cpp:150] Setting up data_data_0_split
I0324 16:57:34.257161   489 net.cpp:157] Top shape: 1 3 300 300 (270000)
I0324 16:57:34.257186   489 net.cpp:157] Top shape: 1 3 300 300 (270000)
I0324 16:57:34.257215   489 net.cpp:157] Top shape: 1 3 300 300 (270000)
I0324 16:57:34.257242   489 net.cpp:157] Top shape: 1 3 300 300 (270000)
I0324 16:57:34.257261   489 net.cpp:157] Top shape: 1 3 300 300 (270000)
I0324 16:57:34.257277   489 net.cpp:157] Top shape: 1 3 300 300 (270000)
I0324 16:57:34.257295   489 net.cpp:157] Top shape: 1 3 300 300 (270000)
I0324 16:57:34.257310   489 net.cpp:165] Memory required for data: 8640128
I0324 16:57:34.257325   489 layer_factory.hpp:77] Creating layer conv1_1
I0324 16:57:34.257354   489 net.cpp:100] Creating Layer conv1_1
I0324 16:57:34.257374   489 net.cpp:434] conv1_1 <- data_data_0_split_0
I0324 16:57:34.257393   489 net.cpp:408] conv1_1 -> conv1_1
I0324 16:57:34.278415   489 net.cpp:150] Setting up conv1_1
I0324 16:57:34.278450   489 net.cpp:157] Top shape: 1 64 300 300 (5760000)
I0324 16:57:34.278457   489 net.cpp:165] Memory required for data: 31680128
I0324 16:57:34.278478   489 layer_factory.hpp:77] Creating layer relu1_1
I0324 16:57:34.278492   489 net.cpp:100] Creating Layer relu1_1
I0324 16:57:34.278499   489 net.cpp:434] relu1_1 <- conv1_1
I0324 16:57:34.278508   489 net.cpp:395] relu1_1 -> conv1_1 (in-place)
I0324 16:57:34.279628   489 net.cpp:150] Setting up relu1_1
I0324 16:57:34.279645   489 net.cpp:157] Top shape: 1 64 300 300 (5760000)
I0324 16:57:34.279651   489 net.cpp:165] Memory required for data: 54720128
I0324 16:57:34.279659   489 layer_factory.hpp:77] Creating layer conv1_2
I0324 16:57:34.279677   489 net.cpp:100] Creating Layer conv1_2
I0324 16:57:34.279683   489 net.cpp:434] conv1_2 <- conv1_1
I0324 16:57:34.279693   489 net.cpp:408] conv1_2 -> conv1_2
I0324 16:57:34.281898   489 net.cpp:150] Setting up conv1_2
I0324 16:57:34.281913   489 net.cpp:157] Top shape: 1 64 300 300 (5760000)
I0324 16:57:34.281919   489 net.cpp:165] Memory required for data: 77760128
I0324 16:57:34.281931   489 layer_factory.hpp:77] Creating layer relu1_2
I0324 16:57:34.281941   489 net.cpp:100] Creating Layer relu1_2
I0324 16:57:34.281947   489 net.cpp:434] relu1_2 <- conv1_2
I0324 16:57:34.281955   489 net.cpp:395] relu1_2 -> conv1_2 (in-place)
I0324 16:57:34.282176   489 net.cpp:150] Setting up relu1_2
I0324 16:57:34.282189   489 net.cpp:157] Top shape: 1 64 300 300 (5760000)
I0324 16:57:34.282194   489 net.cpp:165] Memory required for data: 100800128
I0324 16:57:34.282200   489 layer_factory.hpp:77] Creating layer pool1
I0324 16:57:34.282210   489 net.cpp:100] Creating Layer pool1
I0324 16:57:34.282217   489 net.cpp:434] pool1 <- conv1_2
I0324 16:57:34.282224   489 net.cpp:408] pool1 -> pool1
I0324 16:57:34.282284   489 net.cpp:150] Setting up pool1
I0324 16:57:34.282292   489 net.cpp:157] Top shape: 1 64 150 150 (1440000)
I0324 16:57:34.282299   489 net.cpp:165] Memory required for data: 106560128
I0324 16:57:34.282305   489 layer_factory.hpp:77] Creating layer conv2_1
I0324 16:57:34.282315   489 net.cpp:100] Creating Layer conv2_1
I0324 16:57:34.282321   489 net.cpp:434] conv2_1 <- pool1
I0324 16:57:34.282330   489 net.cpp:408] conv2_1 -> conv2_1
I0324 16:57:34.286587   489 net.cpp:150] Setting up conv2_1
I0324 16:57:34.286628   489 net.cpp:157] Top shape: 1 128 150 150 (2880000)
I0324 16:57:34.286645   489 net.cpp:165] Memory required for data: 118080128
I0324 16:57:34.286676   489 layer_factory.hpp:77] Creating layer relu2_1
I0324 16:57:34.286701   489 net.cpp:100] Creating Layer relu2_1
I0324 16:57:34.286721   489 net.cpp:434] relu2_1 <- conv2_1
I0324 16:57:34.286744   489 net.cpp:395] relu2_1 -> conv2_1 (in-place)
I0324 16:57:34.287016   489 net.cpp:150] Setting up relu2_1
I0324 16:57:34.287045   489 net.cpp:157] Top shape: 1 128 150 150 (2880000)
I0324 16:57:34.287065   489 net.cpp:165] Memory required for data: 129600128
I0324 16:57:34.287082   489 layer_factory.hpp:77] Creating layer conv2_2
I0324 16:57:34.287109   489 net.cpp:100] Creating Layer conv2_2
I0324 16:57:34.287129   489 net.cpp:434] conv2_2 <- conv2_1
I0324 16:57:34.287151   489 net.cpp:408] conv2_2 -> conv2_2
I0324 16:57:34.291988   489 net.cpp:150] Setting up conv2_2
I0324 16:57:34.292040   489 net.cpp:157] Top shape: 1 128 150 150 (2880000)
I0324 16:57:34.292070   489 net.cpp:165] Memory required for data: 141120128
I0324 16:57:34.292094   489 layer_factory.hpp:77] Creating layer relu2_2
I0324 16:57:34.292117   489 net.cpp:100] Creating Layer relu2_2
I0324 16:57:34.292137   489 net.cpp:434] relu2_2 <- conv2_2
I0324 16:57:34.292157   489 net.cpp:395] relu2_2 -> conv2_2 (in-place)
I0324 16:57:34.292408   489 net.cpp:150] Setting up relu2_2
I0324 16:57:34.292434   489 net.cpp:157] Top shape: 1 128 150 150 (2880000)
I0324 16:57:34.292454   489 net.cpp:165] Memory required for data: 152640128
I0324 16:57:34.292471   489 layer_factory.hpp:77] Creating layer pool2
I0324 16:57:34.292492   489 net.cpp:100] Creating Layer pool2
I0324 16:57:34.292510   489 net.cpp:434] pool2 <- conv2_2
I0324 16:57:34.292531   489 net.cpp:408] pool2 -> pool2
I0324 16:57:34.292610   489 net.cpp:150] Setting up pool2
I0324 16:57:34.292634   489 net.cpp:157] Top shape: 1 128 75 75 (720000)
I0324 16:57:34.292651   489 net.cpp:165] Memory required for data: 155520128
I0324 16:57:34.292670   489 layer_factory.hpp:77] Creating layer conv3_1
I0324 16:57:34.292693   489 net.cpp:100] Creating Layer conv3_1
I0324 16:57:34.292712   489 net.cpp:434] conv3_1 <- pool2
I0324 16:57:34.292733   489 net.cpp:408] conv3_1 -> conv3_1
I0324 16:57:34.305335   489 net.cpp:150] Setting up conv3_1
I0324 16:57:34.305404   489 net.cpp:157] Top shape: 1 256 75 75 (1440000)
I0324 16:57:34.305424   489 net.cpp:165] Memory required for data: 161280128
I0324 16:57:34.305459   489 layer_factory.hpp:77] Creating layer relu3_1
I0324 16:57:34.305486   489 net.cpp:100] Creating Layer relu3_1
I0324 16:57:34.305506   489 net.cpp:434] relu3_1 <- conv3_1
I0324 16:57:34.305528   489 net.cpp:395] relu3_1 -> conv3_1 (in-place)
I0324 16:57:34.307616   489 net.cpp:150] Setting up relu3_1
I0324 16:57:34.307651   489 net.cpp:157] Top shape: 1 256 75 75 (1440000)
I0324 16:57:34.307670   489 net.cpp:165] Memory required for data: 167040128
I0324 16:57:34.307688   489 layer_factory.hpp:77] Creating layer conv3_2_depthwise
I0324 16:57:34.307713   489 net.cpp:100] Creating Layer conv3_2_depthwise
I0324 16:57:34.307734   489 net.cpp:434] conv3_2_depthwise <- conv3_1
I0324 16:57:34.307755   489 net.cpp:408] conv3_2_depthwise -> conv3_2_3x3
I0324 16:57:34.309278   489 net.cpp:150] Setting up conv3_2_depthwise
I0324 16:57:34.309306   489 net.cpp:157] Top shape: 1 256 75 75 (1440000)
I0324 16:57:34.309326   489 net.cpp:165] Memory required for data: 172800128
I0324 16:57:34.309348   489 layer_factory.hpp:77] Creating layer conv3_2_3x3_relu
I0324 16:57:34.309370   489 net.cpp:100] Creating Layer conv3_2_3x3_relu
I0324 16:57:34.309388   489 net.cpp:434] conv3_2_3x3_relu <- conv3_2_3x3
I0324 16:57:34.309408   489 net.cpp:395] conv3_2_3x3_relu -> conv3_2_3x3 (in-place)
I0324 16:57:34.309659   489 net.cpp:150] Setting up conv3_2_3x3_relu
I0324 16:57:34.309685   489 net.cpp:157] Top shape: 1 256 75 75 (1440000)
I0324 16:57:34.309703   489 net.cpp:165] Memory required for data: 178560128
I0324 16:57:34.309722   489 layer_factory.hpp:77] Creating layer conv3_2_1x1
I0324 16:57:34.309777   489 net.cpp:100] Creating Layer conv3_2_1x1
I0324 16:57:34.309797   489 net.cpp:434] conv3_2_1x1 <- conv3_2_3x3
I0324 16:57:34.309820   489 net.cpp:408] conv3_2_1x1 -> conv3_2
I0324 16:57:34.313881   489 net.cpp:150] Setting up conv3_2_1x1
I0324 16:57:34.315315   489 net.cpp:157] Top shape: 1 256 75 75 (1440000)
I0324 16:57:34.315340   489 net.cpp:165] Memory required for data: 184320128
I0324 16:57:34.315368   489 layer_factory.hpp:77] Creating layer relu3_2
I0324 16:57:34.315393   489 net.cpp:100] Creating Layer relu3_2
I0324 16:57:34.315413   489 net.cpp:434] relu3_2 <- conv3_2
I0324 16:57:34.315434   489 net.cpp:395] relu3_2 -> conv3_2 (in-place)
I0324 16:57:34.315687   489 net.cpp:150] Setting up relu3_2
I0324 16:57:34.315716   489 net.cpp:157] Top shape: 1 256 75 75 (1440000)
I0324 16:57:34.315734   489 net.cpp:165] Memory required for data: 190080128
I0324 16:57:34.315752   489 layer_factory.hpp:77] Creating layer conv3_3_depthwise
I0324 16:57:34.315785   489 net.cpp:100] Creating Layer conv3_3_depthwise
I0324 16:57:34.315816   489 net.cpp:434] conv3_3_depthwise <- conv3_2
I0324 16:57:34.315840   489 net.cpp:408] conv3_3_depthwise -> conv3_3_3x3
I0324 16:57:34.316232   489 net.cpp:150] Setting up conv3_3_depthwise
I0324 16:57:34.316366   489 net.cpp:157] Top shape: 1 256 75 75 (1440000)
I0324 16:57:34.316387   489 net.cpp:165] Memory required for data: 195840128
I0324 16:57:34.316411   489 layer_factory.hpp:77] Creating layer conv3_3_3x3_relu
I0324 16:57:34.316432   489 net.cpp:100] Creating Layer conv3_3_3x3_relu
I0324 16:57:34.317420   489 net.cpp:434] conv3_3_3x3_relu <- conv3_3_3x3
I0324 16:57:34.317445   489 net.cpp:395] conv3_3_3x3_relu -> conv3_3_3x3 (in-place)
I0324 16:57:34.319257   489 net.cpp:150] Setting up conv3_3_3x3_relu
I0324 16:57:34.320600   489 net.cpp:157] Top shape: 1 256 75 75 (1440000)
I0324 16:57:34.320626   489 net.cpp:165] Memory required for data: 201600128
I0324 16:57:34.320647   489 layer_factory.hpp:77] Creating layer conv3_3_1x1
I0324 16:57:34.320673   489 net.cpp:100] Creating Layer conv3_3_1x1
I0324 16:57:34.320693   489 net.cpp:434] conv3_3_1x1 <- conv3_3_3x3
I0324 16:57:34.320716   489 net.cpp:408] conv3_3_1x1 -> conv3_3
I0324 16:57:34.327458   489 net.cpp:150] Setting up conv3_3_1x1
I0324 16:57:34.328081   489 net.cpp:157] Top shape: 1 256 75 75 (1440000)
I0324 16:57:34.328102   489 net.cpp:165] Memory required for data: 207360128
I0324 16:57:34.328133   489 layer_factory.hpp:77] Creating layer relu3_3
I0324 16:57:34.328157   489 net.cpp:100] Creating Layer relu3_3
I0324 16:57:34.328177   489 net.cpp:434] relu3_3 <- conv3_3
I0324 16:57:34.328198   489 net.cpp:395] relu3_3 -> conv3_3 (in-place)
I0324 16:57:34.328441   489 net.cpp:150] Setting up relu3_3
I0324 16:57:34.330193   489 net.cpp:157] Top shape: 1 256 75 75 (1440000)
I0324 16:57:34.330214   489 net.cpp:165] Memory required for data: 213120128
I0324 16:57:34.330231   489 layer_factory.hpp:77] Creating layer pool3
I0324 16:57:34.330252   489 net.cpp:100] Creating Layer pool3
I0324 16:57:34.330271   489 net.cpp:434] pool3 <- conv3_3
I0324 16:57:34.330291   489 net.cpp:408] pool3 -> pool3
I0324 16:57:34.330374   489 net.cpp:150] Setting up pool3
I0324 16:57:34.330396   489 net.cpp:157] Top shape: 1 256 38 38 (369664)
I0324 16:57:34.330416   489 net.cpp:165] Memory required for data: 214598784
I0324 16:57:34.330432   489 layer_factory.hpp:77] Creating layer conv4_1
I0324 16:57:34.330456   489 net.cpp:100] Creating Layer conv4_1
I0324 16:57:34.330474   489 net.cpp:434] conv4_1 <- pool3
I0324 16:57:34.330494   489 net.cpp:408] conv4_1 -> conv4_1
I0324 16:57:34.368654   489 net.cpp:150] Setting up conv4_1
I0324 16:57:34.368723   489 net.cpp:157] Top shape: 1 512 38 38 (739328)
I0324 16:57:34.368741   489 net.cpp:165] Memory required for data: 217556096
I0324 16:57:34.368769   489 layer_factory.hpp:77] Creating layer relu4_1
I0324 16:57:34.368794   489 net.cpp:100] Creating Layer relu4_1
I0324 16:57:34.368813   489 net.cpp:434] relu4_1 <- conv4_1
I0324 16:57:34.368836   489 net.cpp:395] relu4_1 -> conv4_1 (in-place)
I0324 16:57:34.369155   489 net.cpp:150] Setting up relu4_1
I0324 16:57:34.369186   489 net.cpp:157] Top shape: 1 512 38 38 (739328)
I0324 16:57:34.369204   489 net.cpp:165] Memory required for data: 220513408
I0324 16:57:34.369222   489 layer_factory.hpp:77] Creating layer conv4_2
I0324 16:57:34.369251   489 net.cpp:100] Creating Layer conv4_2
I0324 16:57:34.369297   489 net.cpp:434] conv4_2 <- conv4_1
I0324 16:57:34.369323   489 net.cpp:408] conv4_2 -> conv4_2
I0324 16:57:34.418531   489 net.cpp:150] Setting up conv4_2
I0324 16:57:34.418598   489 net.cpp:157] Top shape: 1 512 38 38 (739328)
I0324 16:57:34.418618   489 net.cpp:165] Memory required for data: 223470720
I0324 16:57:34.418646   489 layer_factory.hpp:77] Creating layer relu4_2
I0324 16:57:34.418670   489 net.cpp:100] Creating Layer relu4_2
I0324 16:57:34.418691   489 net.cpp:434] relu4_2 <- conv4_2
I0324 16:57:34.418714   489 net.cpp:395] relu4_2 -> conv4_2 (in-place)
I0324 16:57:34.420881   489 net.cpp:150] Setting up relu4_2
I0324 16:57:34.420929   489 net.cpp:157] Top shape: 1 512 38 38 (739328)
I0324 16:57:34.420949   489 net.cpp:165] Memory required for data: 226428032
I0324 16:57:34.420969   489 layer_factory.hpp:77] Creating layer conv4_3
I0324 16:57:34.420995   489 net.cpp:100] Creating Layer conv4_3
I0324 16:57:34.421015   489 net.cpp:434] conv4_3 <- conv4_2
I0324 16:57:34.421036   489 net.cpp:408] conv4_3 -> conv4_3
I0324 16:57:34.472435   489 net.cpp:150] Setting up conv4_3
I0324 16:57:34.472468   489 net.cpp:157] Top shape: 1 512 38 38 (739328)
I0324 16:57:34.472476   489 net.cpp:165] Memory required for data: 229385344
I0324 16:57:34.472491   489 layer_factory.hpp:77] Creating layer relu4_3
I0324 16:57:34.472506   489 net.cpp:100] Creating Layer relu4_3
I0324 16:57:34.472517   489 net.cpp:434] relu4_3 <- conv4_3
I0324 16:57:34.472527   489 net.cpp:395] relu4_3 -> conv4_3 (in-place)
I0324 16:57:34.472769   489 net.cpp:150] Setting up relu4_3
I0324 16:57:34.472784   489 net.cpp:157] Top shape: 1 512 38 38 (739328)
I0324 16:57:34.472790   489 net.cpp:165] Memory required for data: 232342656
I0324 16:57:34.472795   489 layer_factory.hpp:77] Creating layer conv4_3_relu4_3_0_split
I0324 16:57:34.472806   489 net.cpp:100] Creating Layer conv4_3_relu4_3_0_split
I0324 16:57:34.472815   489 net.cpp:434] conv4_3_relu4_3_0_split <- conv4_3
I0324 16:57:34.472822   489 net.cpp:408] conv4_3_relu4_3_0_split -> conv4_3_relu4_3_0_split_0
I0324 16:57:34.472834   489 net.cpp:408] conv4_3_relu4_3_0_split -> conv4_3_relu4_3_0_split_1
I0324 16:57:34.472898   489 net.cpp:150] Setting up conv4_3_relu4_3_0_split
I0324 16:57:34.472909   489 net.cpp:157] Top shape: 1 512 38 38 (739328)
I0324 16:57:34.472916   489 net.cpp:157] Top shape: 1 512 38 38 (739328)
I0324 16:57:34.472921   489 net.cpp:165] Memory required for data: 238257280
I0324 16:57:34.472929   489 layer_factory.hpp:77] Creating layer pool4
I0324 16:57:34.472939   489 net.cpp:100] Creating Layer pool4
I0324 16:57:34.472946   489 net.cpp:434] pool4 <- conv4_3_relu4_3_0_split_0
I0324 16:57:34.472954   489 net.cpp:408] pool4 -> pool4
I0324 16:57:34.473012   489 net.cpp:150] Setting up pool4
I0324 16:57:34.473024   489 net.cpp:157] Top shape: 1 512 19 19 (184832)
I0324 16:57:34.473029   489 net.cpp:165] Memory required for data: 238996608
I0324 16:57:34.473035   489 layer_factory.hpp:77] Creating layer conv5_1
I0324 16:57:34.473050   489 net.cpp:100] Creating Layer conv5_1
I0324 16:57:34.474128   489 net.cpp:434] conv5_1 <- pool4
I0324 16:57:34.474144   489 net.cpp:408] conv5_1 -> conv5_1
I0324 16:57:34.522586   489 net.cpp:150] Setting up conv5_1
I0324 16:57:34.522624   489 net.cpp:157] Top shape: 1 512 19 19 (184832)
I0324 16:57:34.522630   489 net.cpp:165] Memory required for data: 239735936
I0324 16:57:34.522646   489 layer_factory.hpp:77] Creating layer relu5_1
I0324 16:57:34.522670   489 net.cpp:100] Creating Layer relu5_1
I0324 16:57:34.522681   489 net.cpp:434] relu5_1 <- conv5_1
I0324 16:57:34.522691   489 net.cpp:395] relu5_1 -> conv5_1 (in-place)
I0324 16:57:34.522931   489 net.cpp:150] Setting up relu5_1
I0324 16:57:34.522945   489 net.cpp:157] Top shape: 1 512 19 19 (184832)
I0324 16:57:34.522953   489 net.cpp:165] Memory required for data: 240475264
I0324 16:57:34.522960   489 layer_factory.hpp:77] Creating layer conv5_2
I0324 16:57:34.524055   489 net.cpp:100] Creating Layer conv5_2
I0324 16:57:34.524065   489 net.cpp:434] conv5_2 <- conv5_1
I0324 16:57:34.524075   489 net.cpp:408] conv5_2 -> conv5_2
I0324 16:57:34.572671   489 net.cpp:150] Setting up conv5_2
I0324 16:57:34.573926   489 net.cpp:157] Top shape: 1 512 19 19 (184832)
I0324 16:57:34.573957   489 net.cpp:165] Memory required for data: 241214592
I0324 16:57:34.573989   489 layer_factory.hpp:77] Creating layer relu5_2
I0324 16:57:34.574018   489 net.cpp:100] Creating Layer relu5_2
I0324 16:57:34.574041   489 net.cpp:434] relu5_2 <- conv5_2
I0324 16:57:34.574065   489 net.cpp:395] relu5_2 -> conv5_2 (in-place)
I0324 16:57:34.574353   489 net.cpp:150] Setting up relu5_2
I0324 16:57:34.574972   489 net.cpp:157] Top shape: 1 512 19 19 (184832)
I0324 16:57:34.575008   489 net.cpp:165] Memory required for data: 241953920
I0324 16:57:34.575028   489 layer_factory.hpp:77] Creating layer conv5_3
I0324 16:57:34.575083   489 net.cpp:100] Creating Layer conv5_3
I0324 16:57:34.575106   489 net.cpp:434] conv5_3 <- conv5_2
I0324 16:57:34.575130   489 net.cpp:408] conv5_3 -> conv5_3
I0324 16:57:34.620153   489 net.cpp:150] Setting up conv5_3
I0324 16:57:34.620223   489 net.cpp:157] Top shape: 1 512 19 19 (184832)
I0324 16:57:34.620241   489 net.cpp:165] Memory required for data: 242693248
I0324 16:57:34.620271   489 layer_factory.hpp:77] Creating layer relu5_3
I0324 16:57:34.620298   489 net.cpp:100] Creating Layer relu5_3
I0324 16:57:34.620321   489 net.cpp:434] relu5_3 <- conv5_3
I0324 16:57:34.620340   489 net.cpp:395] relu5_3 -> conv5_3 (in-place)
I0324 16:57:34.621438   489 net.cpp:150] Setting up relu5_3
I0324 16:57:34.621470   489 net.cpp:157] Top shape: 1 512 19 19 (184832)
I0324 16:57:34.621490   489 net.cpp:165] Memory required for data: 243432576
I0324 16:57:34.621506   489 layer_factory.hpp:77] Creating layer pool5
I0324 16:57:34.621529   489 net.cpp:100] Creating Layer pool5
I0324 16:57:34.621549   489 net.cpp:434] pool5 <- conv5_3
I0324 16:57:34.621572   489 net.cpp:408] pool5 -> pool5
I0324 16:57:34.621671   489 net.cpp:150] Setting up pool5
I0324 16:57:34.621695   489 net.cpp:157] Top shape: 1 512 19 19 (184832)
I0324 16:57:34.621711   489 net.cpp:165] Memory required for data: 244171904
I0324 16:57:34.621750   489 layer_factory.hpp:77] Creating layer fc6
I0324 16:57:34.621781   489 net.cpp:100] Creating Layer fc6
I0324 16:57:34.621800   489 net.cpp:434] fc6 <- pool5
I0324 16:57:34.621822   489 net.cpp:408] fc6 -> fc6
I0324 16:57:34.673216   489 net.cpp:150] Setting up fc6
I0324 16:57:34.673491   489 net.cpp:157] Top shape: 1 1024 19 19 (369664)
I0324 16:57:34.673601   489 net.cpp:165] Memory required for data: 245650560
I0324 16:57:34.673748   489 layer_factory.hpp:77] Creating layer relu6
I0324 16:57:34.673858   489 net.cpp:100] Creating Layer relu6
I0324 16:57:34.673964   489 net.cpp:434] relu6 <- fc6
I0324 16:57:34.674072   489 net.cpp:395] relu6 -> fc6 (in-place)
I0324 16:57:34.674509   489 net.cpp:150] Setting up relu6
I0324 16:57:34.674671   489 net.cpp:157] Top shape: 1 1024 19 19 (369664)
I0324 16:57:34.674775   489 net.cpp:165] Memory required for data: 247129216
I0324 16:57:34.674880   489 layer_factory.hpp:77] Creating layer fc7
I0324 16:57:34.674990   489 net.cpp:100] Creating Layer fc7
I0324 16:57:34.675091   489 net.cpp:434] fc7 <- fc6
I0324 16:57:34.675221   489 net.cpp:408] fc7 -> fc7
I0324 16:57:34.689024   489 net.cpp:150] Setting up fc7
I0324 16:57:34.690620   489 net.cpp:157] Top shape: 1 1024 19 19 (369664)
I0324 16:57:34.690778   489 net.cpp:165] Memory required for data: 248607872
I0324 16:57:34.690893   489 layer_factory.hpp:77] Creating layer relu7
I0324 16:57:34.690994   489 net.cpp:100] Creating Layer relu7
I0324 16:57:34.691088   489 net.cpp:434] relu7 <- fc7
I0324 16:57:34.691191   489 net.cpp:395] relu7 -> fc7 (in-place)
I0324 16:57:34.691540   489 net.cpp:150] Setting up relu7
I0324 16:57:34.691696   489 net.cpp:157] Top shape: 1 1024 19 19 (369664)
I0324 16:57:34.691794   489 net.cpp:165] Memory required for data: 250086528
I0324 16:57:34.691890   489 layer_factory.hpp:77] Creating layer fc7_relu7_0_split
I0324 16:57:34.691990   489 net.cpp:100] Creating Layer fc7_relu7_0_split
I0324 16:57:34.692081   489 net.cpp:434] fc7_relu7_0_split <- fc7
I0324 16:57:34.692183   489 net.cpp:408] fc7_relu7_0_split -> fc7_relu7_0_split_0
I0324 16:57:34.692289   489 net.cpp:408] fc7_relu7_0_split -> fc7_relu7_0_split_1
I0324 16:57:34.692394   489 net.cpp:408] fc7_relu7_0_split -> fc7_relu7_0_split_2
I0324 16:57:34.692497   489 net.cpp:408] fc7_relu7_0_split -> fc7_relu7_0_split_3
I0324 16:57:34.692837   489 net.cpp:150] Setting up fc7_relu7_0_split
I0324 16:57:34.692953   489 net.cpp:157] Top shape: 1 1024 19 19 (369664)
I0324 16:57:34.693804   489 net.cpp:157] Top shape: 1 1024 19 19 (369664)
I0324 16:57:34.693914   489 net.cpp:157] Top shape: 1 1024 19 19 (369664)
I0324 16:57:34.694026   489 net.cpp:157] Top shape: 1 1024 19 19 (369664)
I0324 16:57:34.694121   489 net.cpp:165] Memory required for data: 256001152
I0324 16:57:34.694219   489 layer_factory.hpp:77] Creating layer conv6_1
I0324 16:57:34.694329   489 net.cpp:100] Creating Layer conv6_1
I0324 16:57:34.694422   489 net.cpp:434] conv6_1 <- fc7_relu7_0_split_0
I0324 16:57:34.694525   489 net.cpp:408] conv6_1 -> conv6_1
I0324 16:57:34.704319   489 net.cpp:150] Setting up conv6_1
I0324 16:57:34.706544   489 net.cpp:157] Top shape: 1 256 19 19 (92416)
I0324 16:57:34.706744   489 net.cpp:165] Memory required for data: 256370816
I0324 16:57:34.706862   489 layer_factory.hpp:77] Creating layer conv6_1_relu
I0324 16:57:34.706982   489 net.cpp:100] Creating Layer conv6_1_relu
I0324 16:57:34.707084   489 net.cpp:434] conv6_1_relu <- conv6_1
I0324 16:57:34.707195   489 net.cpp:395] conv6_1_relu -> conv6_1 (in-place)
I0324 16:57:34.708513   489 net.cpp:150] Setting up conv6_1_relu
I0324 16:57:34.709771   489 net.cpp:157] Top shape: 1 256 19 19 (92416)
I0324 16:57:34.710009   489 net.cpp:165] Memory required for data: 256740480
I0324 16:57:34.710113   489 layer_factory.hpp:77] Creating layer conv6_2
I0324 16:57:34.710234   489 net.cpp:100] Creating Layer conv6_2
I0324 16:57:34.710333   489 net.cpp:434] conv6_2 <- conv6_1
I0324 16:57:34.710443   489 net.cpp:408] conv6_2 -> conv6_2
I0324 16:57:34.748311   489 net.cpp:150] Setting up conv6_2
I0324 16:57:34.748344   489 net.cpp:157] Top shape: 1 512 10 10 (51200)
I0324 16:57:34.748353   489 net.cpp:165] Memory required for data: 256945280
I0324 16:57:34.748373   489 layer_factory.hpp:77] Creating layer conv6_2_relu
I0324 16:57:34.748389   489 net.cpp:100] Creating Layer conv6_2_relu
I0324 16:57:34.748400   489 net.cpp:434] conv6_2_relu <- conv6_2
I0324 16:57:34.748412   489 net.cpp:395] conv6_2_relu -> conv6_2 (in-place)
I0324 16:57:34.748682   489 net.cpp:150] Setting up conv6_2_relu
I0324 16:57:34.748699   489 net.cpp:157] Top shape: 1 512 10 10 (51200)
I0324 16:57:34.748706   489 net.cpp:165] Memory required for data: 257150080
I0324 16:57:34.748713   489 layer_factory.hpp:77] Creating layer conv6_2_conv6_2_relu_0_split
I0324 16:57:34.748723   489 net.cpp:100] Creating Layer conv6_2_conv6_2_relu_0_split
I0324 16:57:34.748730   489 net.cpp:434] conv6_2_conv6_2_relu_0_split <- conv6_2
I0324 16:57:34.748739   489 net.cpp:408] conv6_2_conv6_2_relu_0_split -> conv6_2_conv6_2_relu_0_split_0
I0324 16:57:34.748752   489 net.cpp:408] conv6_2_conv6_2_relu_0_split -> conv6_2_conv6_2_relu_0_split_1
I0324 16:57:34.748764   489 net.cpp:408] conv6_2_conv6_2_relu_0_split -> conv6_2_conv6_2_relu_0_split_2
I0324 16:57:34.748772   489 net.cpp:408] conv6_2_conv6_2_relu_0_split -> conv6_2_conv6_2_relu_0_split_3
I0324 16:57:34.748893   489 net.cpp:150] Setting up conv6_2_conv6_2_relu_0_split
I0324 16:57:34.748909   489 net.cpp:157] Top shape: 1 512 10 10 (51200)
I0324 16:57:34.748916   489 net.cpp:157] Top shape: 1 512 10 10 (51200)
I0324 16:57:34.748924   489 net.cpp:157] Top shape: 1 512 10 10 (51200)
I0324 16:57:34.748931   489 net.cpp:157] Top shape: 1 512 10 10 (51200)
I0324 16:57:34.748936   489 net.cpp:165] Memory required for data: 257969280
I0324 16:57:34.748942   489 layer_factory.hpp:77] Creating layer conv7_1
I0324 16:57:34.748960   489 net.cpp:100] Creating Layer conv7_1
I0324 16:57:34.748968   489 net.cpp:434] conv7_1 <- conv6_2_conv6_2_relu_0_split_0
I0324 16:57:34.748978   489 net.cpp:408] conv7_1 -> conv7_1
I0324 16:57:34.772166   489 net.cpp:150] Setting up conv7_1
I0324 16:57:34.772195   489 net.cpp:157] Top shape: 1 128 10 10 (12800)
I0324 16:57:34.772202   489 net.cpp:165] Memory required for data: 258020480
I0324 16:57:34.772222   489 layer_factory.hpp:77] Creating layer conv7_1_relu
I0324 16:57:34.772235   489 net.cpp:100] Creating Layer conv7_1_relu
I0324 16:57:34.772246   489 net.cpp:434] conv7_1_relu <- conv7_1
I0324 16:57:34.772264   489 net.cpp:395] conv7_1_relu -> conv7_1 (in-place)
I0324 16:57:34.772524   489 net.cpp:150] Setting up conv7_1_relu
I0324 16:57:34.772555   489 net.cpp:157] Top shape: 1 128 10 10 (12800)
I0324 16:57:34.772562   489 net.cpp:165] Memory required for data: 258071680
I0324 16:57:34.772568   489 layer_factory.hpp:77] Creating layer conv7_2
I0324 16:57:34.772585   489 net.cpp:100] Creating Layer conv7_2
I0324 16:57:34.772593   489 net.cpp:434] conv7_2 <- conv7_1
I0324 16:57:34.772604   489 net.cpp:408] conv7_2 -> conv7_2
I0324 16:57:34.778363   489 net.cpp:150] Setting up conv7_2
I0324 16:57:34.778396   489 net.cpp:157] Top shape: 1 256 5 5 (6400)
I0324 16:57:34.778404   489 net.cpp:165] Memory required for data: 258097280
I0324 16:57:34.778422   489 layer_factory.hpp:77] Creating layer conv7_2_relu
I0324 16:57:34.778434   489 net.cpp:100] Creating Layer conv7_2_relu
I0324 16:57:34.778445   489 net.cpp:434] conv7_2_relu <- conv7_2
I0324 16:57:34.778455   489 net.cpp:395] conv7_2_relu -> conv7_2 (in-place)
I0324 16:57:34.779517   489 net.cpp:150] Setting up conv7_2_relu
I0324 16:57:34.779536   489 net.cpp:157] Top shape: 1 256 5 5 (6400)
I0324 16:57:34.779546   489 net.cpp:165] Memory required for data: 258122880
I0324 16:57:34.779554   489 layer_factory.hpp:77] Creating layer conv7_2_conv7_2_relu_0_split
I0324 16:57:34.779569   489 net.cpp:100] Creating Layer conv7_2_conv7_2_relu_0_split
I0324 16:57:34.779582   489 net.cpp:434] conv7_2_conv7_2_relu_0_split <- conv7_2
I0324 16:57:34.779593   489 net.cpp:408] conv7_2_conv7_2_relu_0_split -> conv7_2_conv7_2_relu_0_split_0
I0324 16:57:34.779605   489 net.cpp:408] conv7_2_conv7_2_relu_0_split -> conv7_2_conv7_2_relu_0_split_1
I0324 16:57:34.779615   489 net.cpp:408] conv7_2_conv7_2_relu_0_split -> conv7_2_conv7_2_relu_0_split_2
I0324 16:57:34.779633   489 net.cpp:408] conv7_2_conv7_2_relu_0_split -> conv7_2_conv7_2_relu_0_split_3
I0324 16:57:34.779774   489 net.cpp:150] Setting up conv7_2_conv7_2_relu_0_split
I0324 16:57:34.779788   489 net.cpp:157] Top shape: 1 256 5 5 (6400)
I0324 16:57:34.779796   489 net.cpp:157] Top shape: 1 256 5 5 (6400)
I0324 16:57:34.779804   489 net.cpp:157] Top shape: 1 256 5 5 (6400)
I0324 16:57:34.779810   489 net.cpp:157] Top shape: 1 256 5 5 (6400)
I0324 16:57:34.779815   489 net.cpp:165] Memory required for data: 258225280
I0324 16:57:34.779821   489 layer_factory.hpp:77] Creating layer conv8_1
I0324 16:57:34.779839   489 net.cpp:100] Creating Layer conv8_1
I0324 16:57:34.779845   489 net.cpp:434] conv8_1 <- conv7_2_conv7_2_relu_0_split_0
I0324 16:57:34.779857   489 net.cpp:408] conv8_1 -> conv8_1
I0324 16:57:34.793601   489 net.cpp:150] Setting up conv8_1
I0324 16:57:34.794193   489 net.cpp:157] Top shape: 1 128 5 5 (3200)
I0324 16:57:34.794342   489 net.cpp:165] Memory required for data: 258238080
I0324 16:57:34.794452   489 layer_factory.hpp:77] Creating layer conv8_1_relu
I0324 16:57:34.794555   489 net.cpp:100] Creating Layer conv8_1_relu
I0324 16:57:34.795111   489 net.cpp:434] conv8_1_relu <- conv8_1
I0324 16:57:34.795214   489 net.cpp:395] conv8_1_relu -> conv8_1 (in-place)
I0324 16:57:34.795570   489 net.cpp:150] Setting up conv8_1_relu
I0324 16:57:34.795719   489 net.cpp:157] Top shape: 1 128 5 5 (3200)
I0324 16:57:34.795817   489 net.cpp:165] Memory required for data: 258250880
I0324 16:57:34.795912   489 layer_factory.hpp:77] Creating layer conv8_2
I0324 16:57:34.796016   489 net.cpp:100] Creating Layer conv8_2
I0324 16:57:34.796110   489 net.cpp:434] conv8_2 <- conv8_1
I0324 16:57:34.796226   489 net.cpp:408] conv8_2 -> conv8_2
I0324 16:57:34.810312   489 net.cpp:150] Setting up conv8_2
I0324 16:57:34.810384   489 net.cpp:157] Top shape: 1 256 3 3 (2304)
I0324 16:57:34.810402   489 net.cpp:165] Memory required for data: 258260096
I0324 16:57:34.810437   489 layer_factory.hpp:77] Creating layer conv8_2_relu
I0324 16:57:34.810464   489 net.cpp:100] Creating Layer conv8_2_relu
I0324 16:57:34.810484   489 net.cpp:434] conv8_2_relu <- conv8_2
I0324 16:57:34.810510   489 net.cpp:395] conv8_2_relu -> conv8_2 (in-place)
I0324 16:57:34.810822   489 net.cpp:150] Setting up conv8_2_relu
I0324 16:57:34.811765   489 net.cpp:157] Top shape: 1 256 3 3 (2304)
I0324 16:57:34.811808   489 net.cpp:165] Memory required for data: 258269312
I0324 16:57:34.812270   489 layer_factory.hpp:77] Creating layer conv8_2_conv8_2_relu_0_split
I0324 16:57:34.812301   489 net.cpp:100] Creating Layer conv8_2_conv8_2_relu_0_split
I0324 16:57:34.812322   489 net.cpp:434] conv8_2_conv8_2_relu_0_split <- conv8_2
I0324 16:57:34.812350   489 net.cpp:408] conv8_2_conv8_2_relu_0_split -> conv8_2_conv8_2_relu_0_split_0
I0324 16:57:34.812377   489 net.cpp:408] conv8_2_conv8_2_relu_0_split -> conv8_2_conv8_2_relu_0_split_1
I0324 16:57:34.812407   489 net.cpp:408] conv8_2_conv8_2_relu_0_split -> conv8_2_conv8_2_relu_0_split_2
I0324 16:57:34.812430   489 net.cpp:408] conv8_2_conv8_2_relu_0_split -> conv8_2_conv8_2_relu_0_split_3
I0324 16:57:34.812592   489 net.cpp:150] Setting up conv8_2_conv8_2_relu_0_split
I0324 16:57:34.812618   489 net.cpp:157] Top shape: 1 256 3 3 (2304)
I0324 16:57:34.812638   489 net.cpp:157] Top shape: 1 256 3 3 (2304)
I0324 16:57:34.812659   489 net.cpp:157] Top shape: 1 256 3 3 (2304)
I0324 16:57:34.812678   489 net.cpp:157] Top shape: 1 256 3 3 (2304)
I0324 16:57:34.812695   489 net.cpp:165] Memory required for data: 258306176
I0324 16:57:34.812712   489 layer_factory.hpp:77] Creating layer conv9_1
I0324 16:57:34.812743   489 net.cpp:100] Creating Layer conv9_1
I0324 16:57:34.812764   489 net.cpp:434] conv9_1 <- conv8_2_conv8_2_relu_0_split_0
I0324 16:57:34.812789   489 net.cpp:408] conv9_1 -> conv9_1
I0324 16:57:34.820669   489 net.cpp:150] Setting up conv9_1
I0324 16:57:34.822253   489 net.cpp:157] Top shape: 1 128 3 3 (1152)
I0324 16:57:34.822276   489 net.cpp:165] Memory required for data: 258310784
I0324 16:57:34.822304   489 layer_factory.hpp:77] Creating layer conv9_1_relu
I0324 16:57:34.822329   489 net.cpp:100] Creating Layer conv9_1_relu
I0324 16:57:34.822350   489 net.cpp:434] conv9_1_relu <- conv9_1
I0324 16:57:34.822374   489 net.cpp:395] conv9_1_relu -> conv9_1 (in-place)
I0324 16:57:34.822650   489 net.cpp:150] Setting up conv9_1_relu
I0324 16:57:34.822679   489 net.cpp:157] Top shape: 1 128 3 3 (1152)
I0324 16:57:34.822698   489 net.cpp:165] Memory required for data: 258315392
I0324 16:57:34.822715   489 layer_factory.hpp:77] Creating layer conv9_2
I0324 16:57:34.822742   489 net.cpp:100] Creating Layer conv9_2
I0324 16:57:34.822763   489 net.cpp:434] conv9_2 <- conv9_1
I0324 16:57:34.822788   489 net.cpp:408] conv9_2 -> conv9_2
I0324 16:57:34.837543   489 net.cpp:150] Setting up conv9_2
I0324 16:57:34.837615   489 net.cpp:157] Top shape: 1 256 1 1 (256)
I0324 16:57:34.837646   489 net.cpp:165] Memory required for data: 258316416
I0324 16:57:34.837684   489 layer_factory.hpp:77] Creating layer conv9_2_relu
I0324 16:57:34.837713   489 net.cpp:100] Creating Layer conv9_2_relu
I0324 16:57:34.837764   489 net.cpp:434] conv9_2_relu <- conv9_2
I0324 16:57:34.837792   489 net.cpp:395] conv9_2_relu -> conv9_2 (in-place)
I0324 16:57:34.838853   489 net.cpp:150] Setting up conv9_2_relu
I0324 16:57:34.841764   489 net.cpp:157] Top shape: 1 256 1 1 (256)
I0324 16:57:34.841801   489 net.cpp:165] Memory required for data: 258317440
I0324 16:57:34.841830   489 layer_factory.hpp:77] Creating layer conv9_2_conv9_2_relu_0_split
I0324 16:57:34.841863   489 net.cpp:100] Creating Layer conv9_2_conv9_2_relu_0_split
I0324 16:57:34.841887   489 net.cpp:434] conv9_2_conv9_2_relu_0_split <- conv9_2
I0324 16:57:34.841912   489 net.cpp:408] conv9_2_conv9_2_relu_0_split -> conv9_2_conv9_2_relu_0_split_0
I0324 16:57:34.841943   489 net.cpp:408] conv9_2_conv9_2_relu_0_split -> conv9_2_conv9_2_relu_0_split_1
I0324 16:57:34.841975   489 net.cpp:408] conv9_2_conv9_2_relu_0_split -> conv9_2_conv9_2_relu_0_split_2
I0324 16:57:34.842140   489 net.cpp:150] Setting up conv9_2_conv9_2_relu_0_split
I0324 16:57:34.842169   489 net.cpp:157] Top shape: 1 256 1 1 (256)
I0324 16:57:34.842195   489 net.cpp:157] Top shape: 1 256 1 1 (256)
I0324 16:57:34.842217   489 net.cpp:157] Top shape: 1 256 1 1 (256)
I0324 16:57:34.842236   489 net.cpp:165] Memory required for data: 258320512
I0324 16:57:34.842270   489 layer_factory.hpp:77] Creating layer conv4_3_norm
I0324 16:57:34.842306   489 net.cpp:100] Creating Layer conv4_3_norm
I0324 16:57:34.842329   489 net.cpp:434] conv4_3_norm <- conv4_3_relu4_3_0_split_1
I0324 16:57:34.842356   489 net.cpp:408] conv4_3_norm -> conv4_3_norm
I0324 16:57:34.842658   489 net.cpp:150] Setting up conv4_3_norm
I0324 16:57:34.842691   489 net.cpp:157] Top shape: 1 512 38 38 (739328)
I0324 16:57:34.842716   489 net.cpp:165] Memory required for data: 261277824
I0324 16:57:34.842748   489 layer_factory.hpp:77] Creating layer conv4_3_norm_conv4_3_norm_0_split
I0324 16:57:34.842782   489 net.cpp:100] Creating Layer conv4_3_norm_conv4_3_norm_0_split
I0324 16:57:34.842804   489 net.cpp:434] conv4_3_norm_conv4_3_norm_0_split <- conv4_3_norm
I0324 16:57:34.842834   489 net.cpp:408] conv4_3_norm_conv4_3_norm_0_split -> conv4_3_norm_conv4_3_norm_0_split_0
I0324 16:57:34.842864   489 net.cpp:408] conv4_3_norm_conv4_3_norm_0_split -> conv4_3_norm_conv4_3_norm_0_split_1
I0324 16:57:34.842888   489 net.cpp:408] conv4_3_norm_conv4_3_norm_0_split -> conv4_3_norm_conv4_3_norm_0_split_2
I0324 16:57:34.843000   489 net.cpp:150] Setting up conv4_3_norm_conv4_3_norm_0_split
I0324 16:57:34.843029   489 net.cpp:157] Top shape: 1 512 38 38 (739328)
I0324 16:57:34.843055   489 net.cpp:157] Top shape: 1 512 38 38 (739328)
I0324 16:57:34.843080   489 net.cpp:157] Top shape: 1 512 38 38 (739328)
I0324 16:57:34.843098   489 net.cpp:165] Memory required for data: 270149760
I0324 16:57:34.843117   489 layer_factory.hpp:77] Creating layer conv4_3_norm_mbox_loc
I0324 16:57:34.843153   489 net.cpp:100] Creating Layer conv4_3_norm_mbox_loc
I0324 16:57:34.843178   489 net.cpp:434] conv4_3_norm_mbox_loc <- conv4_3_norm_conv4_3_norm_0_split_0
I0324 16:57:34.843212   489 net.cpp:408] conv4_3_norm_mbox_loc -> conv4_3_norm_mbox_loc
I0324 16:57:34.850976   489 net.cpp:150] Setting up conv4_3_norm_mbox_loc
I0324 16:57:34.851048   489 net.cpp:157] Top shape: 1 16 38 38 (23104)
I0324 16:57:34.851071   489 net.cpp:165] Memory required for data: 270242176
I0324 16:57:34.851104   489 layer_factory.hpp:77] Creating layer conv4_3_norm_mbox_loc_perm
I0324 16:57:34.851133   489 net.cpp:100] Creating Layer conv4_3_norm_mbox_loc_perm
I0324 16:57:34.851156   489 net.cpp:434] conv4_3_norm_mbox_loc_perm <- conv4_3_norm_mbox_loc
I0324 16:57:34.851183   489 net.cpp:408] conv4_3_norm_mbox_loc_perm -> conv4_3_norm_mbox_loc_perm
I0324 16:57:34.851397   489 net.cpp:150] Setting up conv4_3_norm_mbox_loc_perm
I0324 16:57:34.851429   489 net.cpp:157] Top shape: 1 38 38 16 (23104)
I0324 16:57:34.851459   489 net.cpp:165] Memory required for data: 270334592
I0324 16:57:34.851480   489 layer_factory.hpp:77] Creating layer conv4_3_norm_mbox_loc_flat
I0324 16:57:34.851512   489 net.cpp:100] Creating Layer conv4_3_norm_mbox_loc_flat
I0324 16:57:34.851532   489 net.cpp:434] conv4_3_norm_mbox_loc_flat <- conv4_3_norm_mbox_loc_perm
I0324 16:57:34.851557   489 net.cpp:408] conv4_3_norm_mbox_loc_flat -> conv4_3_norm_mbox_loc_flat
I0324 16:57:34.851625   489 net.cpp:150] Setting up conv4_3_norm_mbox_loc_flat
I0324 16:57:34.851652   489 net.cpp:157] Top shape: 1 23104 (23104)
I0324 16:57:34.851670   489 net.cpp:165] Memory required for data: 270427008
I0324 16:57:34.851691   489 layer_factory.hpp:77] Creating layer conv4_3_norm_mbox_conf
I0324 16:57:34.851732   489 net.cpp:100] Creating Layer conv4_3_norm_mbox_conf
I0324 16:57:34.851756   489 net.cpp:434] conv4_3_norm_mbox_conf <- conv4_3_norm_conv4_3_norm_0_split_1
I0324 16:57:34.851780   489 net.cpp:408] conv4_3_norm_mbox_conf -> conv4_3_norm_mbox_conf
I0324 16:57:34.860437   489 net.cpp:150] Setting up conv4_3_norm_mbox_conf
I0324 16:57:34.860498   489 net.cpp:157] Top shape: 1 44 38 38 (63536)
I0324 16:57:34.860524   489 net.cpp:165] Memory required for data: 270681152
I0324 16:57:34.860553   489 layer_factory.hpp:77] Creating layer conv4_3_norm_mbox_conf_perm
I0324 16:57:34.860582   489 net.cpp:100] Creating Layer conv4_3_norm_mbox_conf_perm
I0324 16:57:34.860612   489 net.cpp:434] conv4_3_norm_mbox_conf_perm <- conv4_3_norm_mbox_conf
I0324 16:57:34.860647   489 net.cpp:408] conv4_3_norm_mbox_conf_perm -> conv4_3_norm_mbox_conf_perm
I0324 16:57:34.861946   489 net.cpp:150] Setting up conv4_3_norm_mbox_conf_perm
I0324 16:57:34.861986   489 net.cpp:157] Top shape: 1 38 38 44 (63536)
I0324 16:57:34.862004   489 net.cpp:165] Memory required for data: 270935296
I0324 16:57:34.862028   489 layer_factory.hpp:77] Creating layer conv4_3_norm_mbox_conf_flat
I0324 16:57:34.862051   489 net.cpp:100] Creating Layer conv4_3_norm_mbox_conf_flat
I0324 16:57:34.862073   489 net.cpp:434] conv4_3_norm_mbox_conf_flat <- conv4_3_norm_mbox_conf_perm
I0324 16:57:34.862098   489 net.cpp:408] conv4_3_norm_mbox_conf_flat -> conv4_3_norm_mbox_conf_flat
I0324 16:57:34.862165   489 net.cpp:150] Setting up conv4_3_norm_mbox_conf_flat
I0324 16:57:34.862191   489 net.cpp:157] Top shape: 1 63536 (63536)
I0324 16:57:34.862211   489 net.cpp:165] Memory required for data: 271189440
I0324 16:57:34.862231   489 layer_factory.hpp:77] Creating layer conv4_3_norm_mbox_priorbox
I0324 16:57:34.862255   489 net.cpp:100] Creating Layer conv4_3_norm_mbox_priorbox
I0324 16:57:34.862277   489 net.cpp:434] conv4_3_norm_mbox_priorbox <- conv4_3_norm_conv4_3_norm_0_split_2
I0324 16:57:34.862298   489 net.cpp:434] conv4_3_norm_mbox_priorbox <- data_data_0_split_1
I0324 16:57:34.862325   489 net.cpp:408] conv4_3_norm_mbox_priorbox -> conv4_3_norm_mbox_priorbox
I0324 16:57:34.862396   489 net.cpp:150] Setting up conv4_3_norm_mbox_priorbox
I0324 16:57:34.862421   489 net.cpp:157] Top shape: 1 2 23104 (46208)
I0324 16:57:34.862442   489 net.cpp:165] Memory required for data: 271374272
I0324 16:57:34.862459   489 layer_factory.hpp:77] Creating layer fc7_mbox_loc
I0324 16:57:34.862488   489 net.cpp:100] Creating Layer fc7_mbox_loc
I0324 16:57:34.862510   489 net.cpp:434] fc7_mbox_loc <- fc7_relu7_0_split_1
I0324 16:57:34.862534   489 net.cpp:408] fc7_mbox_loc -> fc7_mbox_loc
I0324 16:57:34.871449   489 net.cpp:150] Setting up fc7_mbox_loc
I0324 16:57:34.876443   489 net.cpp:157] Top shape: 1 24 19 19 (8664)
I0324 16:57:34.876494   489 net.cpp:165] Memory required for data: 271408928
I0324 16:57:34.876525   489 layer_factory.hpp:77] Creating layer fc7_mbox_loc_perm
I0324 16:57:34.876554   489 net.cpp:100] Creating Layer fc7_mbox_loc_perm
I0324 16:57:34.876576   489 net.cpp:434] fc7_mbox_loc_perm <- fc7_mbox_loc
I0324 16:57:34.876602   489 net.cpp:408] fc7_mbox_loc_perm -> fc7_mbox_loc_perm
I0324 16:57:34.876876   489 net.cpp:150] Setting up fc7_mbox_loc_perm
I0324 16:57:34.876904   489 net.cpp:157] Top shape: 1 19 19 24 (8664)
I0324 16:57:34.876921   489 net.cpp:165] Memory required for data: 271443584
I0324 16:57:34.876937   489 layer_factory.hpp:77] Creating layer fc7_mbox_loc_flat
I0324 16:57:34.876958   489 net.cpp:100] Creating Layer fc7_mbox_loc_flat
I0324 16:57:34.876976   489 net.cpp:434] fc7_mbox_loc_flat <- fc7_mbox_loc_perm
I0324 16:57:34.876997   489 net.cpp:408] fc7_mbox_loc_flat -> fc7_mbox_loc_flat
I0324 16:57:34.877054   489 net.cpp:150] Setting up fc7_mbox_loc_flat
I0324 16:57:34.877076   489 net.cpp:157] Top shape: 1 8664 (8664)
I0324 16:57:34.877091   489 net.cpp:165] Memory required for data: 271478240
I0324 16:57:34.877108   489 layer_factory.hpp:77] Creating layer fc7_mbox_conf
I0324 16:57:34.877136   489 net.cpp:100] Creating Layer fc7_mbox_conf
I0324 16:57:34.877154   489 net.cpp:434] fc7_mbox_conf <- fc7_relu7_0_split_2
I0324 16:57:34.877174   489 net.cpp:408] fc7_mbox_conf -> fc7_mbox_conf
I0324 16:57:34.886399   489 net.cpp:150] Setting up fc7_mbox_conf
I0324 16:57:34.905784   489 net.cpp:157] Top shape: 1 66 19 19 (23826)
I0324 16:57:34.905845   489 net.cpp:165] Memory required for data: 271573544
I0324 16:57:34.905875   489 layer_factory.hpp:77] Creating layer fc7_mbox_conf_perm
I0324 16:57:34.905905   489 net.cpp:100] Creating Layer fc7_mbox_conf_perm
I0324 16:57:34.905925   489 net.cpp:434] fc7_mbox_conf_perm <- fc7_mbox_conf
I0324 16:57:34.905951   489 net.cpp:408] fc7_mbox_conf_perm -> fc7_mbox_conf_perm
I0324 16:57:34.906241   489 net.cpp:150] Setting up fc7_mbox_conf_perm
I0324 16:57:34.906280   489 net.cpp:157] Top shape: 1 19 19 66 (23826)
I0324 16:57:34.906296   489 net.cpp:165] Memory required for data: 271668848
I0324 16:57:34.906312   489 layer_factory.hpp:77] Creating layer fc7_mbox_conf_flat
I0324 16:57:34.906332   489 net.cpp:100] Creating Layer fc7_mbox_conf_flat
I0324 16:57:34.906350   489 net.cpp:434] fc7_mbox_conf_flat <- fc7_mbox_conf_perm
I0324 16:57:34.906371   489 net.cpp:408] fc7_mbox_conf_flat -> fc7_mbox_conf_flat
I0324 16:57:34.906430   489 net.cpp:150] Setting up fc7_mbox_conf_flat
I0324 16:57:34.906450   489 net.cpp:157] Top shape: 1 23826 (23826)
I0324 16:57:34.906466   489 net.cpp:165] Memory required for data: 271764152
I0324 16:57:34.906481   489 layer_factory.hpp:77] Creating layer fc7_mbox_priorbox
I0324 16:57:34.906503   489 net.cpp:100] Creating Layer fc7_mbox_priorbox
I0324 16:57:34.906520   489 net.cpp:434] fc7_mbox_priorbox <- fc7_relu7_0_split_3
I0324 16:57:34.906539   489 net.cpp:434] fc7_mbox_priorbox <- data_data_0_split_2
I0324 16:57:34.906561   489 net.cpp:408] fc7_mbox_priorbox -> fc7_mbox_priorbox
I0324 16:57:34.906626   489 net.cpp:150] Setting up fc7_mbox_priorbox
I0324 16:57:34.906649   489 net.cpp:157] Top shape: 1 2 8664 (17328)
I0324 16:57:34.906666   489 net.cpp:165] Memory required for data: 271833464
I0324 16:57:34.906680   489 layer_factory.hpp:77] Creating layer conv6_2_mbox_loc
I0324 16:57:34.906709   489 net.cpp:100] Creating Layer conv6_2_mbox_loc
I0324 16:57:34.906728   489 net.cpp:434] conv6_2_mbox_loc <- conv6_2_conv6_2_relu_0_split_1
I0324 16:57:34.906749   489 net.cpp:408] conv6_2_mbox_loc -> conv6_2_mbox_loc
I0324 16:57:34.910604   489 net.cpp:150] Setting up conv6_2_mbox_loc
I0324 16:57:34.910652   489 net.cpp:157] Top shape: 1 24 10 10 (2400)
I0324 16:57:34.910673   489 net.cpp:165] Memory required for data: 271843064
I0324 16:57:34.910701   489 layer_factory.hpp:77] Creating layer conv6_2_mbox_loc_perm
I0324 16:57:34.910724   489 net.cpp:100] Creating Layer conv6_2_mbox_loc_perm
I0324 16:57:34.910745   489 net.cpp:434] conv6_2_mbox_loc_perm <- conv6_2_mbox_loc
I0324 16:57:34.910771   489 net.cpp:408] conv6_2_mbox_loc_perm -> conv6_2_mbox_loc_perm
I0324 16:57:34.910964   489 net.cpp:150] Setting up conv6_2_mbox_loc_perm
I0324 16:57:34.910990   489 net.cpp:157] Top shape: 1 10 10 24 (2400)
I0324 16:57:34.911008   489 net.cpp:165] Memory required for data: 271852664
I0324 16:57:34.911027   489 layer_factory.hpp:77] Creating layer conv6_2_mbox_loc_flat
I0324 16:57:34.911051   489 net.cpp:100] Creating Layer conv6_2_mbox_loc_flat
I0324 16:57:34.911072   489 net.cpp:434] conv6_2_mbox_loc_flat <- conv6_2_mbox_loc_perm
I0324 16:57:34.911094   489 net.cpp:408] conv6_2_mbox_loc_flat -> conv6_2_mbox_loc_flat
I0324 16:57:34.911154   489 net.cpp:150] Setting up conv6_2_mbox_loc_flat
I0324 16:57:34.911178   489 net.cpp:157] Top shape: 1 2400 (2400)
I0324 16:57:34.911196   489 net.cpp:165] Memory required for data: 271862264
I0324 16:57:34.911214   489 layer_factory.hpp:77] Creating layer conv6_2_mbox_conf
I0324 16:57:34.911247   489 net.cpp:100] Creating Layer conv6_2_mbox_conf
I0324 16:57:34.911271   489 net.cpp:434] conv6_2_mbox_conf <- conv6_2_conv6_2_relu_0_split_2
I0324 16:57:34.916589   489 net.cpp:408] conv6_2_mbox_conf -> conv6_2_mbox_conf
I0324 16:57:34.923352   489 net.cpp:150] Setting up conv6_2_mbox_conf
I0324 16:57:34.936569   489 net.cpp:157] Top shape: 1 66 10 10 (6600)
I0324 16:57:34.936622   489 net.cpp:165] Memory required for data: 271888664
I0324 16:57:34.936655   489 layer_factory.hpp:77] Creating layer conv6_2_mbox_conf_perm
I0324 16:57:34.936691   489 net.cpp:100] Creating Layer conv6_2_mbox_conf_perm
I0324 16:57:34.936717   489 net.cpp:434] conv6_2_mbox_conf_perm <- conv6_2_mbox_conf
I0324 16:57:34.936744   489 net.cpp:408] conv6_2_mbox_conf_perm -> conv6_2_mbox_conf_perm
I0324 16:57:34.937038   489 net.cpp:150] Setting up conv6_2_mbox_conf_perm
I0324 16:57:34.937067   489 net.cpp:157] Top shape: 1 10 10 66 (6600)
I0324 16:57:34.937088   489 net.cpp:165] Memory required for data: 271915064
I0324 16:57:34.937125   489 layer_factory.hpp:77] Creating layer conv6_2_mbox_conf_flat
I0324 16:57:34.937152   489 net.cpp:100] Creating Layer conv6_2_mbox_conf_flat
I0324 16:57:34.937175   489 net.cpp:434] conv6_2_mbox_conf_flat <- conv6_2_mbox_conf_perm
I0324 16:57:34.937199   489 net.cpp:408] conv6_2_mbox_conf_flat -> conv6_2_mbox_conf_flat
I0324 16:57:34.937265   489 net.cpp:150] Setting up conv6_2_mbox_conf_flat
I0324 16:57:34.937290   489 net.cpp:157] Top shape: 1 6600 (6600)
I0324 16:57:34.937309   489 net.cpp:165] Memory required for data: 271941464
I0324 16:57:34.937328   489 layer_factory.hpp:77] Creating layer conv6_2_mbox_priorbox
I0324 16:57:34.937355   489 net.cpp:100] Creating Layer conv6_2_mbox_priorbox
I0324 16:57:34.937376   489 net.cpp:434] conv6_2_mbox_priorbox <- conv6_2_conv6_2_relu_0_split_3
I0324 16:57:34.937398   489 net.cpp:434] conv6_2_mbox_priorbox <- data_data_0_split_3
I0324 16:57:34.937422   489 net.cpp:408] conv6_2_mbox_priorbox -> conv6_2_mbox_priorbox
I0324 16:57:34.937494   489 net.cpp:150] Setting up conv6_2_mbox_priorbox
I0324 16:57:34.937517   489 net.cpp:157] Top shape: 1 2 2400 (4800)
I0324 16:57:34.937536   489 net.cpp:165] Memory required for data: 271960664
I0324 16:57:34.937554   489 layer_factory.hpp:77] Creating layer conv7_2_mbox_loc
I0324 16:57:34.937587   489 net.cpp:100] Creating Layer conv7_2_mbox_loc
I0324 16:57:34.937608   489 net.cpp:434] conv7_2_mbox_loc <- conv7_2_conv7_2_relu_0_split_1
I0324 16:57:34.937633   489 net.cpp:408] conv7_2_mbox_loc -> conv7_2_mbox_loc
I0324 16:57:34.941249   489 net.cpp:150] Setting up conv7_2_mbox_loc
I0324 16:57:34.947188   489 net.cpp:157] Top shape: 1 24 5 5 (600)
I0324 16:57:34.947239   489 net.cpp:165] Memory required for data: 271963064
I0324 16:57:34.947290   489 layer_factory.hpp:77] Creating layer conv7_2_mbox_loc_perm
I0324 16:57:34.947322   489 net.cpp:100] Creating Layer conv7_2_mbox_loc_perm
I0324 16:57:34.947347   489 net.cpp:434] conv7_2_mbox_loc_perm <- conv7_2_mbox_loc
I0324 16:57:34.947373   489 net.cpp:408] conv7_2_mbox_loc_perm -> conv7_2_mbox_loc_perm
I0324 16:57:34.947682   489 net.cpp:150] Setting up conv7_2_mbox_loc_perm
I0324 16:57:34.954597   489 net.cpp:157] Top shape: 1 5 5 24 (600)
I0324 16:57:34.954668   489 net.cpp:165] Memory required for data: 271965464
I0324 16:57:34.954689   489 layer_factory.hpp:77] Creating layer conv7_2_mbox_loc_flat
I0324 16:57:34.954713   489 net.cpp:100] Creating Layer conv7_2_mbox_loc_flat
I0324 16:57:34.954732   489 net.cpp:434] conv7_2_mbox_loc_flat <- conv7_2_mbox_loc_perm
I0324 16:57:34.954759   489 net.cpp:408] conv7_2_mbox_loc_flat -> conv7_2_mbox_loc_flat
I0324 16:57:34.954902   489 net.cpp:150] Setting up conv7_2_mbox_loc_flat
I0324 16:57:34.954926   489 net.cpp:157] Top shape: 1 600 (600)
I0324 16:57:34.954941   489 net.cpp:165] Memory required for data: 271967864
I0324 16:57:34.954957   489 layer_factory.hpp:77] Creating layer conv7_2_mbox_conf
I0324 16:57:34.954985   489 net.cpp:100] Creating Layer conv7_2_mbox_conf
I0324 16:57:34.955003   489 net.cpp:434] conv7_2_mbox_conf <- conv7_2_conv7_2_relu_0_split_2
I0324 16:57:34.955024   489 net.cpp:408] conv7_2_mbox_conf -> conv7_2_mbox_conf
I0324 16:57:34.959429   489 net.cpp:150] Setting up conv7_2_mbox_conf
I0324 16:57:34.969771   489 net.cpp:157] Top shape: 1 66 5 5 (1650)
I0324 16:57:34.969825   489 net.cpp:165] Memory required for data: 271974464
I0324 16:57:34.969856   489 layer_factory.hpp:77] Creating layer conv7_2_mbox_conf_perm
I0324 16:57:34.969887   489 net.cpp:100] Creating Layer conv7_2_mbox_conf_perm
I0324 16:57:34.969908   489 net.cpp:434] conv7_2_mbox_conf_perm <- conv7_2_mbox_conf
I0324 16:57:34.969933   489 net.cpp:408] conv7_2_mbox_conf_perm -> conv7_2_mbox_conf_perm
I0324 16:57:34.970221   489 net.cpp:150] Setting up conv7_2_mbox_conf_perm
I0324 16:57:34.970247   489 net.cpp:157] Top shape: 1 5 5 66 (1650)
I0324 16:57:34.970261   489 net.cpp:165] Memory required for data: 271981064
I0324 16:57:34.970278   489 layer_factory.hpp:77] Creating layer conv7_2_mbox_conf_flat
I0324 16:57:34.970310   489 net.cpp:100] Creating Layer conv7_2_mbox_conf_flat
I0324 16:57:34.970340   489 net.cpp:434] conv7_2_mbox_conf_flat <- conv7_2_mbox_conf_perm
I0324 16:57:34.970358   489 net.cpp:408] conv7_2_mbox_conf_flat -> conv7_2_mbox_conf_flat
I0324 16:57:34.970418   489 net.cpp:150] Setting up conv7_2_mbox_conf_flat
I0324 16:57:34.970439   489 net.cpp:157] Top shape: 1 1650 (1650)
I0324 16:57:34.970454   489 net.cpp:165] Memory required for data: 271987664
I0324 16:57:34.970469   489 layer_factory.hpp:77] Creating layer conv7_2_mbox_priorbox
I0324 16:57:34.970491   489 net.cpp:100] Creating Layer conv7_2_mbox_priorbox
I0324 16:57:34.970508   489 net.cpp:434] conv7_2_mbox_priorbox <- conv7_2_conv7_2_relu_0_split_3
I0324 16:57:34.970527   489 net.cpp:434] conv7_2_mbox_priorbox <- data_data_0_split_4
I0324 16:57:34.970547   489 net.cpp:408] conv7_2_mbox_priorbox -> conv7_2_mbox_priorbox
I0324 16:57:34.970624   489 net.cpp:150] Setting up conv7_2_mbox_priorbox
I0324 16:57:34.970647   489 net.cpp:157] Top shape: 1 2 600 (1200)
I0324 16:57:34.970664   489 net.cpp:165] Memory required for data: 271992464
I0324 16:57:34.970679   489 layer_factory.hpp:77] Creating layer conv8_2_mbox_loc
I0324 16:57:34.970708   489 net.cpp:100] Creating Layer conv8_2_mbox_loc
I0324 16:57:34.970727   489 net.cpp:434] conv8_2_mbox_loc <- conv8_2_conv8_2_relu_0_split_1
I0324 16:57:34.970752   489 net.cpp:408] conv8_2_mbox_loc -> conv8_2_mbox_loc
I0324 16:57:34.973368   489 net.cpp:150] Setting up conv8_2_mbox_loc
I0324 16:57:34.981773   489 net.cpp:157] Top shape: 1 16 3 3 (144)
I0324 16:57:34.981829   489 net.cpp:165] Memory required for data: 271993040
I0324 16:57:34.981863   489 layer_factory.hpp:77] Creating layer conv8_2_mbox_loc_perm
I0324 16:57:34.981895   489 net.cpp:100] Creating Layer conv8_2_mbox_loc_perm
I0324 16:57:34.981920   489 net.cpp:434] conv8_2_mbox_loc_perm <- conv8_2_mbox_loc
I0324 16:57:34.981945   489 net.cpp:408] conv8_2_mbox_loc_perm -> conv8_2_mbox_loc_perm
I0324 16:57:34.982240   489 net.cpp:150] Setting up conv8_2_mbox_loc_perm
I0324 16:57:34.982266   489 net.cpp:157] Top shape: 1 3 3 16 (144)
I0324 16:57:34.982285   489 net.cpp:165] Memory required for data: 271993616
I0324 16:57:34.982302   489 layer_factory.hpp:77] Creating layer conv8_2_mbox_loc_flat
I0324 16:57:34.982329   489 net.cpp:100] Creating Layer conv8_2_mbox_loc_flat
I0324 16:57:34.982347   489 net.cpp:434] conv8_2_mbox_loc_flat <- conv8_2_mbox_loc_perm
I0324 16:57:34.982368   489 net.cpp:408] conv8_2_mbox_loc_flat -> conv8_2_mbox_loc_flat
I0324 16:57:34.982431   489 net.cpp:150] Setting up conv8_2_mbox_loc_flat
I0324 16:57:34.982455   489 net.cpp:157] Top shape: 1 144 (144)
I0324 16:57:34.982472   489 net.cpp:165] Memory required for data: 271994192
I0324 16:57:34.982489   489 layer_factory.hpp:77] Creating layer conv8_2_mbox_conf
I0324 16:57:34.982518   489 net.cpp:100] Creating Layer conv8_2_mbox_conf
I0324 16:57:34.982538   489 net.cpp:434] conv8_2_mbox_conf <- conv8_2_conv8_2_relu_0_split_2
I0324 16:57:34.982563   489 net.cpp:408] conv8_2_mbox_conf -> conv8_2_mbox_conf
I0324 16:57:34.987323   489 net.cpp:150] Setting up conv8_2_mbox_conf
I0324 16:57:34.987373   489 net.cpp:157] Top shape: 1 44 3 3 (396)
I0324 16:57:34.987393   489 net.cpp:165] Memory required for data: 271995776
I0324 16:57:34.987422   489 layer_factory.hpp:77] Creating layer conv8_2_mbox_conf_perm
I0324 16:57:34.987450   489 net.cpp:100] Creating Layer conv8_2_mbox_conf_perm
I0324 16:57:34.987470   489 net.cpp:434] conv8_2_mbox_conf_perm <- conv8_2_mbox_conf
I0324 16:57:34.987496   489 net.cpp:408] conv8_2_mbox_conf_perm -> conv8_2_mbox_conf_perm
I0324 16:57:34.987704   489 net.cpp:150] Setting up conv8_2_mbox_conf_perm
I0324 16:57:34.987727   489 net.cpp:157] Top shape: 1 3 3 44 (396)
I0324 16:57:34.987746   489 net.cpp:165] Memory required for data: 271997360
I0324 16:57:34.987762   489 layer_factory.hpp:77] Creating layer conv8_2_mbox_conf_flat
I0324 16:57:34.987782   489 net.cpp:100] Creating Layer conv8_2_mbox_conf_flat
I0324 16:57:34.987800   489 net.cpp:434] conv8_2_mbox_conf_flat <- conv8_2_mbox_conf_perm
I0324 16:57:34.987840   489 net.cpp:408] conv8_2_mbox_conf_flat -> conv8_2_mbox_conf_flat
I0324 16:57:34.987905   489 net.cpp:150] Setting up conv8_2_mbox_conf_flat
I0324 16:57:34.987928   489 net.cpp:157] Top shape: 1 396 (396)
I0324 16:57:34.987946   489 net.cpp:165] Memory required for data: 271998944
I0324 16:57:34.987963   489 layer_factory.hpp:77] Creating layer conv8_2_mbox_priorbox
I0324 16:57:34.987987   489 net.cpp:100] Creating Layer conv8_2_mbox_priorbox
I0324 16:57:34.988006   489 net.cpp:434] conv8_2_mbox_priorbox <- conv8_2_conv8_2_relu_0_split_3
I0324 16:57:34.988027   489 net.cpp:434] conv8_2_mbox_priorbox <- data_data_0_split_5
I0324 16:57:34.988051   489 net.cpp:408] conv8_2_mbox_priorbox -> conv8_2_mbox_priorbox
I0324 16:57:34.988122   489 net.cpp:150] Setting up conv8_2_mbox_priorbox
I0324 16:57:34.988147   489 net.cpp:157] Top shape: 1 2 144 (288)
I0324 16:57:34.988162   489 net.cpp:165] Memory required for data: 272000096
I0324 16:57:34.988179   489 layer_factory.hpp:77] Creating layer conv9_2_mbox_loc
I0324 16:57:34.988209   489 net.cpp:100] Creating Layer conv9_2_mbox_loc
I0324 16:57:34.988227   489 net.cpp:434] conv9_2_mbox_loc <- conv9_2_conv9_2_relu_0_split_0
I0324 16:57:34.988250   489 net.cpp:408] conv9_2_mbox_loc -> conv9_2_mbox_loc
I0324 16:57:34.993871   489 net.cpp:150] Setting up conv9_2_mbox_loc
I0324 16:57:34.993927   489 net.cpp:157] Top shape: 1 16 1 1 (16)
I0324 16:57:34.993947   489 net.cpp:165] Memory required for data: 272000160
I0324 16:57:34.993976   489 layer_factory.hpp:77] Creating layer conv9_2_mbox_loc_perm
I0324 16:57:34.994009   489 net.cpp:100] Creating Layer conv9_2_mbox_loc_perm
I0324 16:57:34.994031   489 net.cpp:434] conv9_2_mbox_loc_perm <- conv9_2_mbox_loc
I0324 16:57:34.994056   489 net.cpp:408] conv9_2_mbox_loc_perm -> conv9_2_mbox_loc_perm
I0324 16:57:34.994262   489 net.cpp:150] Setting up conv9_2_mbox_loc_perm
I0324 16:57:34.994287   489 net.cpp:157] Top shape: 1 1 1 16 (16)
I0324 16:57:34.994304   489 net.cpp:165] Memory required for data: 272000224
I0324 16:57:34.994323   489 layer_factory.hpp:77] Creating layer conv9_2_mbox_loc_flat
I0324 16:57:34.994344   489 net.cpp:100] Creating Layer conv9_2_mbox_loc_flat
I0324 16:57:34.994364   489 net.cpp:434] conv9_2_mbox_loc_flat <- conv9_2_mbox_loc_perm
I0324 16:57:34.994388   489 net.cpp:408] conv9_2_mbox_loc_flat -> conv9_2_mbox_loc_flat
I0324 16:57:34.994451   489 net.cpp:150] Setting up conv9_2_mbox_loc_flat
I0324 16:57:34.994473   489 net.cpp:157] Top shape: 1 16 (16)
I0324 16:57:34.994489   489 net.cpp:165] Memory required for data: 272000288
I0324 16:57:34.994508   489 layer_factory.hpp:77] Creating layer conv9_2_mbox_conf
I0324 16:57:34.994536   489 net.cpp:100] Creating Layer conv9_2_mbox_conf
I0324 16:57:34.994555   489 net.cpp:434] conv9_2_mbox_conf <- conv9_2_conv9_2_relu_0_split_1
I0324 16:57:34.994580   489 net.cpp:408] conv9_2_mbox_conf -> conv9_2_mbox_conf
I0324 16:57:34.998601   489 net.cpp:150] Setting up conv9_2_mbox_conf
I0324 16:57:34.998651   489 net.cpp:157] Top shape: 1 44 1 1 (44)
I0324 16:57:34.998669   489 net.cpp:165] Memory required for data: 272000464
I0324 16:57:34.998699   489 layer_factory.hpp:77] Creating layer conv9_2_mbox_conf_perm
I0324 16:57:34.998724   489 net.cpp:100] Creating Layer conv9_2_mbox_conf_perm
I0324 16:57:34.998744   489 net.cpp:434] conv9_2_mbox_conf_perm <- conv9_2_mbox_conf
I0324 16:57:34.998769   489 net.cpp:408] conv9_2_mbox_conf_perm -> conv9_2_mbox_conf_perm
I0324 16:57:34.998992   489 net.cpp:150] Setting up conv9_2_mbox_conf_perm
I0324 16:57:34.999019   489 net.cpp:157] Top shape: 1 1 1 44 (44)
I0324 16:57:34.999037   489 net.cpp:165] Memory required for data: 272000640
I0324 16:57:34.999053   489 layer_factory.hpp:77] Creating layer conv9_2_mbox_conf_flat
I0324 16:57:34.999076   489 net.cpp:100] Creating Layer conv9_2_mbox_conf_flat
I0324 16:57:34.999095   489 net.cpp:434] conv9_2_mbox_conf_flat <- conv9_2_mbox_conf_perm
I0324 16:57:34.999119   489 net.cpp:408] conv9_2_mbox_conf_flat -> conv9_2_mbox_conf_flat
I0324 16:57:34.999188   489 net.cpp:150] Setting up conv9_2_mbox_conf_flat
I0324 16:57:34.999222   489 net.cpp:157] Top shape: 1 44 (44)
I0324 16:57:34.999238   489 net.cpp:165] Memory required for data: 272000816
I0324 16:57:34.999258   489 layer_factory.hpp:77] Creating layer conv9_2_mbox_priorbox
I0324 16:57:34.999279   489 net.cpp:100] Creating Layer conv9_2_mbox_priorbox
I0324 16:57:34.999300   489 net.cpp:434] conv9_2_mbox_priorbox <- conv9_2_conv9_2_relu_0_split_2
I0324 16:57:34.999320   489 net.cpp:434] conv9_2_mbox_priorbox <- data_data_0_split_6
I0324 16:57:34.999346   489 net.cpp:408] conv9_2_mbox_priorbox -> conv9_2_mbox_priorbox
I0324 16:57:34.999413   489 net.cpp:150] Setting up conv9_2_mbox_priorbox
I0324 16:57:34.999436   489 net.cpp:157] Top shape: 1 2 16 (32)
I0324 16:57:34.999454   489 net.cpp:165] Memory required for data: 272000944
I0324 16:57:34.999470   489 layer_factory.hpp:77] Creating layer mbox_loc
I0324 16:57:34.999492   489 net.cpp:100] Creating Layer mbox_loc
I0324 16:57:34.999511   489 net.cpp:434] mbox_loc <- conv4_3_norm_mbox_loc_flat
I0324 16:57:34.999533   489 net.cpp:434] mbox_loc <- fc7_mbox_loc_flat
I0324 16:57:34.999557   489 net.cpp:434] mbox_loc <- conv6_2_mbox_loc_flat
I0324 16:57:34.999575   489 net.cpp:434] mbox_loc <- conv7_2_mbox_loc_flat
I0324 16:57:34.999594   489 net.cpp:434] mbox_loc <- conv8_2_mbox_loc_flat
I0324 16:57:34.999614   489 net.cpp:434] mbox_loc <- conv9_2_mbox_loc_flat
I0324 16:57:34.999634   489 net.cpp:408] mbox_loc -> mbox_loc
I0324 16:57:34.999699   489 net.cpp:150] Setting up mbox_loc
I0324 16:57:34.999722   489 net.cpp:157] Top shape: 1 34928 (34928)
I0324 16:57:34.999739   489 net.cpp:165] Memory required for data: 272140656
I0324 16:57:34.999758   489 layer_factory.hpp:77] Creating layer mbox_conf
I0324 16:57:34.999781   489 net.cpp:100] Creating Layer mbox_conf
I0324 16:57:34.999799   489 net.cpp:434] mbox_conf <- conv4_3_norm_mbox_conf_flat
I0324 16:57:34.999819   489 net.cpp:434] mbox_conf <- fc7_mbox_conf_flat
I0324 16:57:34.999838   489 net.cpp:434] mbox_conf <- conv6_2_mbox_conf_flat
I0324 16:57:34.999856   489 net.cpp:434] mbox_conf <- conv7_2_mbox_conf_flat
I0324 16:57:34.999876   489 net.cpp:434] mbox_conf <- conv8_2_mbox_conf_flat
I0324 16:57:34.999894   489 net.cpp:434] mbox_conf <- conv9_2_mbox_conf_flat
I0324 16:57:34.999915   489 net.cpp:408] mbox_conf -> mbox_conf
I0324 16:57:34.999974   489 net.cpp:150] Setting up mbox_conf
I0324 16:57:34.999997   489 net.cpp:157] Top shape: 1 96052 (96052)
I0324 16:57:35.000015   489 net.cpp:165] Memory required for data: 272524864
I0324 16:57:35.000030   489 layer_factory.hpp:77] Creating layer mbox_priorbox
I0324 16:57:35.000053   489 net.cpp:100] Creating Layer mbox_priorbox
I0324 16:57:35.000072   489 net.cpp:434] mbox_priorbox <- conv4_3_norm_mbox_priorbox
I0324 16:57:35.000092   489 net.cpp:434] mbox_priorbox <- fc7_mbox_priorbox
I0324 16:57:35.000110   489 net.cpp:434] mbox_priorbox <- conv6_2_mbox_priorbox
I0324 16:57:35.000129   489 net.cpp:434] mbox_priorbox <- conv7_2_mbox_priorbox
I0324 16:57:35.000149   489 net.cpp:434] mbox_priorbox <- conv8_2_mbox_priorbox
I0324 16:57:35.000169   489 net.cpp:434] mbox_priorbox <- conv9_2_mbox_priorbox
I0324 16:57:35.000190   489 net.cpp:408] mbox_priorbox -> mbox_priorbox
I0324 16:57:35.000248   489 net.cpp:150] Setting up mbox_priorbox
I0324 16:57:35.000273   489 net.cpp:157] Top shape: 1 2 34928 (69856)
I0324 16:57:35.000291   489 net.cpp:165] Memory required for data: 272804288
I0324 16:57:35.000309   489 layer_factory.hpp:77] Creating layer mbox_conf_reshape
I0324 16:57:35.000331   489 net.cpp:100] Creating Layer mbox_conf_reshape
I0324 16:57:35.000350   489 net.cpp:434] mbox_conf_reshape <- mbox_conf
I0324 16:57:35.000375   489 net.cpp:408] mbox_conf_reshape -> mbox_conf_reshape
I0324 16:57:35.000447   489 net.cpp:150] Setting up mbox_conf_reshape
I0324 16:57:35.000471   489 net.cpp:157] Top shape: 1 8732 11 (96052)
I0324 16:57:35.000488   489 net.cpp:165] Memory required for data: 273188496
I0324 16:57:35.000505   489 layer_factory.hpp:77] Creating layer mbox_conf_softmax
I0324 16:57:35.000536   489 net.cpp:100] Creating Layer mbox_conf_softmax
I0324 16:57:35.000555   489 net.cpp:434] mbox_conf_softmax <- mbox_conf_reshape
I0324 16:57:35.000579   489 net.cpp:408] mbox_conf_softmax -> mbox_conf_softmax
I0324 16:57:35.000988   489 net.cpp:150] Setting up mbox_conf_softmax
I0324 16:57:35.001018   489 net.cpp:157] Top shape: 1 8732 11 (96052)
I0324 16:57:35.001035   489 net.cpp:165] Memory required for data: 273572704
I0324 16:57:35.001052   489 layer_factory.hpp:77] Creating layer mbox_conf_flatten
I0324 16:57:35.001075   489 net.cpp:100] Creating Layer mbox_conf_flatten
I0324 16:57:35.001092   489 net.cpp:434] mbox_conf_flatten <- mbox_conf_softmax
I0324 16:57:35.001113   489 net.cpp:408] mbox_conf_flatten -> mbox_conf_flatten
I0324 16:57:35.001173   489 net.cpp:150] Setting up mbox_conf_flatten
I0324 16:57:35.001196   489 net.cpp:157] Top shape: 1 96052 (96052)
I0324 16:57:35.001212   489 net.cpp:165] Memory required for data: 273956912
I0324 16:57:35.001230   489 layer_factory.hpp:77] Creating layer detection_out
I0324 16:57:35.001258   489 net.cpp:100] Creating Layer detection_out
I0324 16:57:35.001279   489 net.cpp:434] detection_out <- mbox_loc
I0324 16:57:35.001298   489 net.cpp:434] detection_out <- mbox_conf_flatten
I0324 16:57:35.001317   489 net.cpp:434] detection_out <- mbox_priorbox
I0324 16:57:35.001339   489 net.cpp:408] detection_out -> detection_out
W0324 16:57:35.001391   489 detection_output_layer.cpp:49] Failed to create directory: /home/zs/data/VOCdevkit/results/VOC2007/SSD_300x300_0324_new_conv3/Main
I0324 16:57:35.002148   489 net.cpp:150] Setting up detection_out
I0324 16:57:35.002179   489 net.cpp:157] Top shape: 1 1 1 7 (7)
I0324 16:57:35.002197   489 net.cpp:165] Memory required for data: 273956940
I0324 16:57:35.002215   489 layer_factory.hpp:77] Creating layer detection_eval
I0324 16:57:35.002239   489 net.cpp:100] Creating Layer detection_eval
I0324 16:57:35.002259   489 net.cpp:434] detection_eval <- detection_out
I0324 16:57:35.002277   489 net.cpp:434] detection_eval <- label
I0324 16:57:35.002300   489 net.cpp:408] detection_eval -> detection_eval
I0324 16:57:35.002480   489 net.cpp:150] Setting up detection_eval
I0324 16:57:35.002506   489 net.cpp:157] Top shape: 1 1 11 5 (55)
I0324 16:57:35.002521   489 net.cpp:165] Memory required for data: 273957160
I0324 16:57:35.002540   489 net.cpp:228] detection_eval does not need backward computation.
I0324 16:57:35.002558   489 net.cpp:228] detection_out does not need backward computation.
I0324 16:57:35.002578   489 net.cpp:228] mbox_conf_flatten does not need backward computation.
I0324 16:57:35.002596   489 net.cpp:228] mbox_conf_softmax does not need backward computation.
…
