…
      sampler {
        min_scale: 0.3
        max_scale: 1
        min_aspect_ratio: 0.5
        max_aspect_ratio: 2
      }
      sample_constraint {
        min_jaccard_overlap: 0.9
      }
      max_sample: 1
      max_trials: 50
    }
    batch_sampler {
      sampler {
        min_scale: 0.3
        max_scale: 1
        min_aspect_ratio: 0.5
        max_aspect_ratio: 2
      }
      sample_constraint {
        max_jaccard_overlap: 1
      }
      max_sample: 1
      max_trials: 50
    }
    label_map_file: "data/NWPU_VHR/labelmap_NWPU_VHR.prototxt"
  }
}
layer {
  name: "conv1_1"
  type: "Convolution"
  bottom: "data"
  top: "conv1_1"
  param {
    lr_mult: 1
    decay_mult: 1
  }
  param {
    lr_mult: 2
    decay_mult: 0
  }
  convolution_param {
    num_output: 64
    pad: 1
    kernel_size: 3
    weight_filler {
      type: "xavier"
    }
    bias_filler {
      type: "constant"
      value: 0
    }
  }
}
layer {
  name: "relu1_1"
  type: "ReLU"
  bottom: "conv1_1"
  top: "conv1_1"
}
layer {
  name: "conv1_2"
  type: "Convolution"
  bottom: "conv1_1"
  top: "conv1_2"
  param {
    lr_mult: 1
    decay_mult: 1
  }
  param {
    lr_mult: 2
    decay_mult: 0
  }
  convolution_param {
    num_output: 64
    pad: 1
    kernel_size: 3
    weight_filler {
      type: "xavier"
    }
    bias_filler {
      type: "constant"
      value: 0
    }
  }
}
layer {
  name: "relu1_2"
  type: "ReLU"
  bottom: "conv1_2"
  top: "conv1_2"
}
layer {
  name: "pool1"
  type: "Pooling"
  bottom: "conv1_2"
  top: "pool1"
  pooling_param {
    pool: MAX
    kernel_size: 2
    stride: 2
  }
}
layer {
  name: "conv2_1"
  type: "Convolution"
  bottom: "pool1"
  top: "conv2_1"
  param {
    lr_mult: 1
    decay_mult: 1
  }
  param {
    lr_mult: 2
    decay_mult: 0
  }
  convolution_param {
    num_output: 128
    pad: 1
    kernel_size: 3
    weight_filler {
      type: "xavier"
    }
    bias_filler {
      type: "constant"
      value: 0
    }
  }
}
layer {
  name: "relu2_1"
  type: "ReLU"
  bottom: "conv2_1"
  top: "conv2_1"
}
layer {
  name: "conv2_2"
  type: "Convolution"
  bottom: "conv2_1"
  top: "conv2_2"
  param {
    lr_mult: 1
    decay_mult: 1
  }
  param {
    lr_mult: 2
    decay_mult: 0
  }
  convolution_param {
    num_output: 128
    pad: 1
    kernel_size: 3
    weight_filler {
      type: "xavier"
    }
    bias_filler {
      type: "constant"
      value: 0
    }
  }
}
layer {
  name: "relu2_2"
  type: "ReLU"
  bottom: "conv2_2"
  top: "conv2_2"
}
layer {
  name: "pool2"
  type: "Pooling"
  bottom: "conv2_2"
  top: "pool2"
  pooling_param {
    pool: MAX
    kernel_size: 2
    stride: 2
  }
}
layer {
  name: "conv3_1"
  type: "Convolution"
  bottom: "pool2"
  top: "conv3_1"
  param {
    lr_mult: 1
    decay_mult: 1
  }
  param {
    lr_mult: 2
    decay_mult: 0
  }
  convolution_param {
    num_output: 256
    pad: 1
    kernel_size: 3
    weight_filler {
      type: "xavier"
    }
    bias_filler {
      type: "constant"
      value: 0
    }
  }
}
layer {
  name: "relu3_1"
  type: "ReLU"
  bottom: "conv3_1"
  top: "conv3_1"
}
layer {
  name: "conv3_2"
  type: "Convolution"
  bottom: "conv3_1"
  top: "conv3_2"
  param {
    lr_mult: 1
    decay_mult: 1
  }
  param {
    lr_mult: 2
    decay_mult: 0
  }
  convolution_param {
    num_output: 256
    pad: 1
    kernel_size: 3
    weight_filler {
      type: "xavier"
    }
    bias_filler {
      type: "constant"
      value: 0
    }
  }
}
layer {
  name: "relu3_2"
  type: "ReLU"
  bottom: "conv3_2"
  top: "conv3_2"
}
layer {
  name: "conv3_3"
  type: "Convolution"
  bottom: "conv3_2"
  top: "conv3_3"
  param {
    lr_mult: 1
    decay_mult: 1
  }
  param {
    lr_mult: 2
    decay_mult: 0
  }
  convolution_param {
    num_output: 256
    pad: 1
    kernel_size: 3
    weight_filler {
      type: "xavier"
    }
    bias_filler {
      type: "constant"
      value: 0
    }
  }
}
layer {
  name: "relu3_3"
  type: "ReLU"
  bottom: "conv3_3"
  top: "conv3_3"
}
layer {
  name: "pool3"
  type: "Pooling"
  bottom: "conv3_3"
  top: "pool3"
  pooling_param {
    pool: MAX
    kernel_size: 2
    stride: 2
  }
}
layer {
  name: "conv4_1_depthwise"
  type: "DepthwiseConvolution"
  bottom: "pool3"
  top: "conv4_1_3x3"
  param {
    lr_mult: 1
    decay_mult: 1
  }
  param {
    lr_mult: 2
    decay_mult: 0
  }
  convolution_param {
    num_output: 256
    pad: 1
    kernel_size: 3
    group: 256
    weight_filler {
      type: "xavier"
    }
    bias_filler {
      type: "constant"
      value: 0
    }
  }
}
layer {
  name: "conv4_1_3x3_relu"
  type: "ReLU"
  bottom: "conv4_1_3x3"
  top: "conv4_1_3x3"
}
layer {
  name: "conv4_1_1x1"
  type: "Convolution"
  bottom: "conv4_1_3x3"
  top: "conv4_1"
  param {
    lr_mult: 1
    decay_mult: 1
  }
  param {
    lr_mult: 2
    decay_mult: 0
  }
  convolution_param {
    num_output: 512
    pad: 0
    kernel_size: 1
    stride: 1
    weight_filler {
      type: "xavier"
    }
    bias_filler {
      type: "constant"
      value: 0
    }
  }
}
layer {
  name: "relu4_1"
  type: "ReLU"
  bottom: "conv4_1"
  top: "conv4_1"
}
layer {
  name: "conv4_2_depthwise"
  type: "DepthwiseConvolution"
  bottom: "conv4_1"
  top: "conv4_2_3x3"
  param {
    lr_mult: 1
    decay_mult: 1
  }
  param {
    lr_mult: 2
    decay_mult: 0
  }
  convolution_param {
    num_output: 512
    pad: 1
    kernel_size: 3
    group: 512
    weight_filler {
      type: "xavier"
    }
    bias_filler {
      type: "constant"
      value: 0
    }
  }
}
layer {
  name: "conv4_2_3x3_relu"
  type: "ReLU"
  bottom: "conv4_2_3x3"
  top: "conv4_2_3x3"
}
layer {
  name: "conv4_2_1x1"
  type: "Convolution"
  bottom: "conv4_2_3x3"
  top: "conv4_2"
  param {
    lr_mult: 1
    decay_mult: 1
  }
  param {
    lr_mult: 2
    decay_mult: 0
  }
  convolution_param {
    num_output: 512
    pad: 0
    kernel_size: 1
    stride: 1
    weight_filler {
      type: "xavier"
    }
    bias_filler {
      type: "constant"
      value: 0
    }
  }
}
layer {
  name: "relu4_2"
  type: "ReLU"
  bottom: "conv4_2"
  top: "conv4_2"
}
layer {
  name: "conv4_3_depthwise"
  type: "DepthwiseConvolution"
  bottom: "conv4_2"
  top: "conv4_3_3x3"
  param {
    lr_mult: 1
    decay_mult: 1
  }
  param {
    lr_mult: 2
    decay_mult: 0
  }
  convolution_param {
    num_output: 512
    pad: 1
    kernel_size: 3
    group: 512
    weight_filler {
      type: "xavier"
    }
    bias_filler {
      type: "constant"
      value: 0
    }
  }
}
layer {
  name: "conv4_3_3x3_relu"
  type: "ReLU"
  bottom: "conv4_3_3x3"
  top: "conv4_3_3x3"
}
layer {
  name: "conv4_3_1x1"
  type: "Convolution"
  bottom: "conv4_3_3x3"
  top: "conv4_3"
  param {
    lr_mult: 1
    decay_mult: 1
  }
  param {
    lr_mult: 2
    decay_mult: 0
  }
  convolution_param {
    num_output: 512
    pad: 0
    kernel_size: 1
    stride: 1
    weight_filler {
      type: "xavier"
    }
    bias_filler {
      type: "constant"
      value: 0
    }
  }
}
layer {
  name: "relu4_3"
  type: "ReLU"
  bottom: "conv4_3"
  top: "conv4_3"
}
layer {
  name: "pool4"
  type: "Pooling"
  bottom: "conv4_3"
  top: "pool4"
  pooling_param {
    pool: MAX
    kernel_size: 2
    stride: 2
  }
}
layer {
  name: "conv5_1_depthwise"
  type: "DepthwiseConvolution"
  bottom: "pool4"
  top: "conv5_1_3x3"
  param {
    lr_mult: 1
    decay_mult: 1
  }
  param {
    lr_mult: 2
    decay_mult: 0
  }
  convolution_param {
    num_output: 512
    pad: 1
    kernel_size: 3
    group: 512
    weight_filler {
      type: "xavier"
    }
    bias_filler {
      type: "constant"
      value: 0
    }
    dilation: 1
  }
}
layer {
  name: "conv5_1_3x3_relu"
  type: "ReLU"
  bottom: "conv5_1_3x3"
  top: "conv5_1_3x3"
}
layer {
  name: "conv5_1_1x1"
  type: "Convolution"
  bottom: "conv5_1_3x3"
  top: "conv5_1"
  param {
    lr_mult: 1
    decay_mult: 1
  }
  param {
    lr_mult: 2
    decay_mult: 0
  }
  convolution_param {
    num_output: 512
    pad: 0
    kernel_size: 1
    stride: 1
    weight_filler {
      type: "xavier"
    }
    bias_filler {
      type: "constant"
      value: 0
    }
    dilation: 1
  }
}
layer {
  name: "relu5_1"
  type: "ReLU"
  bottom: "conv5_1"
  top: "conv5_1"
}
layer {
  name: "conv5_2_depthwise"
  type: "DepthwiseConvolution"
  bottom: "conv5_1"
  top: "conv5_2_3x3"
  param {
    lr_mult: 1
    decay_mult: 1
  }
  param {
    lr_mult: 2
    decay_mult: 0
  }
  convolution_param {
    num_output: 512
    pad: 1
    kernel_size: 3
    group: 512
    weight_filler {
      type: "xavier"
    }
    bias_filler {
      type: "constant"
      value: 0
    }
    dilation: 1
  }
}
layer {
  name: "conv5_2_3x3_relu"
  type: "ReLU"
  bottom: "conv5_2_3x3"
  top: "conv5_2_3x3"
}
layer {
  name: "conv5_2_1x1"
  type: "Convolution"
  bottom: "conv5_2_3x3"
  top: "conv5_2"
  param {
    lr_mult: 1
    decay_mult: 1
  }
  param {
    lr_mult: 2
    decay_mult: 0
  }
  convolution_param {
    num_output: 512
    pad: 0
    kernel_size: 1
    stride: 1
    weight_filler {
      type: "xavier"
    }
    bias_filler {
      type: "constant"
      value: 0
    }
    dilation: 1
  }
}
layer {
  name: "relu5_2"
  type: "ReLU"
  bottom: "conv5_2"
  top: "conv5_2"
}
layer {
  name: "conv5_3_depthwise"
  type: "DepthwiseConvolution"
  bottom: "conv5_2"
  top: "conv5_3_3x3"
  param {
    lr_mult: 1
    decay_mult: 1
  }
  param {
    lr_mult: 2
    decay_mult: 0
  }
  convolution_param {
    num_output: 512
    pad: 1
    kernel_size: 3
    group: 512
    weight_filler {
      type: "xavier"
    }
    bias_filler {
      type: "constant"
      value: 0
    }
    dilation: 1
  }
}
layer {
  name: "conv5_3_3x3_relu"
  type: "ReLU"
  bottom: "conv5_3_3x3"
  top: "conv5_3_3x3"
}
layer {
  name: "conv5_3_1x1"
  type: "Convolution"
  bottom: "conv5_3_3x3"
  top: "conv5_3"
  param {
    lr_mult: 1
    decay_mult: 1
  }
  param {
    lr_mult: 2
    decay_mult: 0
  }
  convolution_param {
    num_output: 512
    pad: 0
    kernel_size: 1
    stride: 1
    weight_filler {
      type: "xavier"
    }
    bias_filler {
      type: "constant"
      value: 0
    }
    dilation: 1
  }
}
layer {
  name: "relu5_3"
  type: "ReLU"
  bottom: "conv5_3"
  top: "conv5_3"
}
layer {
  name: "pool5"
  type: "Pooling"
  bottom: "conv5_3"
  top: "pool5"
  pooling_param {
    pool: MAX
    kernel_size: 3
    stride: 1
    pad: 1
  }
}
layer {
  name: "fc6_depthwise"
  type: "DepthwiseConvolution"
  bottom: "pool5"
  top: "fc6_3x3"
  param {
    lr_mult: 1
    decay_mult: 1
  }
  param {
    lr_mult: 2
    decay_mult: 0
  }
  convolution_param {
    num_output: 512
    pad: 6
    kernel_size: 3
    group: 512
    weight_filler {
      type: "xavier"
    }
    bias_filler {
      type: "constant"
      value: 0
    }
    dilation: 6
  }
}
layer {
  name: "fc6_3x3_relu"
  type: "ReLU"
  bottom: "fc6_3x3"
  top: "fc6_3x3"
}
layer {
  name: "fc6_1x1"
  type: "Convolution"
  bottom: "fc6_3x3"
  top: "fc6"
  param {
    lr_mult: 1
    decay_mult: 1
  }
  param {
    lr_mult: 2
    decay_mult: 0
  }
  convolution_param {
    num_output: 1024
    pad: 0
    kernel_size: 1
    stride: 1
    weight_filler {
      type: "xavier"
    }
    bias_filler {
      type: "constant"
      value: 0
    }
    dilation: 6
  }
}
layer {
  name: "relu6"
  type: "ReLU"
  bottom: "fc6"
  top: "fc6"
}
layer {
  name: "fc7"
  type: "Convolution"
  bottom: "fc6"
  top: "fc7"
  param {
    lr_mult: 1
    decay_mult: 1
  }
  param {
    lr_mult: 2
    decay_mult: 0
  }
  convolution_param {
    num_output: 1024
    kernel_size: 1
    weight_filler {
      type: "xavier"
    }
    bias_filler {
      type: "constant"
      value: 0
    }
  }
}
layer {
  name: "relu7"
  type: "ReLU"
  bottom: "fc7"
  top: "fc7"
}
layer {
  name: "conv6_1"
  type: "Convolution"
  bottom: "fc7"
  top: "conv6_1"
  param {
    lr_mult: 1
    decay_mult: 1
  }
  param {
    lr_mult: 2
    decay_mult: 0
  }
  convolution_param {
    num_output: 256
    pad: 0
    kernel_size: 1
    stride: 1
    weight_filler {
      type: "xavier"
    }
    bias_filler {
      type: "constant"
      value: 0
    }
  }
}
layer {
  name: "conv6_1_relu"
  type: "ReLU"
  bottom: "conv6_1"
  top: "conv6_1"
}
layer {
  name: "conv6_2"
  type: "Convolution"
  bottom: "conv6_1"
  top: "conv6_2"
  param {
    lr_mult: 1
    decay_mult: 1
  }
  param {
    lr_mult: 2
    decay_mult: 0
  }
  convolution_param {
    num_output: 512
    pad: 1
    kernel_size: 3
    stride: 2
    weight_filler {
      type: "xavier"
    }
    bias_filler {
      type: "constant"
      value: 0
    }
  }
}
layer {
  name: "conv6_2_relu"
  type: "ReLU"
  bottom: "conv6_2"
  top: "conv6_2"
}
layer {
  name: "conv7_1"
  type: "Convolution"
  bottom: "conv6_2"
  top: "conv7_1"
  param {
    lr_mult: 1
    decay_mult: 1
  }
  param {
    lr_mult: 2
    decay_mult: 0
  }
  convolution_param {
    num_output: 128
    pad: 0
    kernel_size: 1
    stride: 1
    weight_filler {
      type: "xavier"
    }
    bias_filler {
      type: "constant"
      value: 0
    }
  }
}
layer {
  name: "conv7_1_relu"
  type: "ReLU"
  bottom: "conv7_1"
  top: "conv7_1"
}
layer {
  name: "conv7_2"
  type: "Convolution"
  bottom: "conv7_1"
  top: "conv7_2"
  param {
    lr_mult: 1
    decay_mult: 1
  }
  param {
    lr_mult: 2
    decay_mult: 0
  }
  convolution_param {
    num_output: 256
    pad: 1
    kernel_size: 3
    stride: 2
    weight_filler {
      type: "xavier"
    }
    bias_filler {
      type: "constant"
      value: 0
    }
  }
}
layer {
  name: "conv7_2_relu"
  type: "ReLU"
  bottom: "conv7_2"
  top: "conv7_2"
}
layer {
  name: "conv8_1"
  type: "Convolution"
  bottom: "conv7_2"
  top: "conv8_1"
  param {
    lr_mult: 1
    decay_mult: 1
  }
  param {
    lr_mult: 2
    decay_mult: 0
  }
  convolution_param {
    num_output: 128
    pad: 0
    kernel_size: 1
    stride: 1
    weight_filler {
      type: "xavier"
    }
    bias_filler {
      type: "constant"
      value: 0
    }
  }
}
layer {
  name: "conv8_1_relu"
  type: "ReLU"
  bottom: "conv8_1"
  top: "conv8_1"
}
layer {
  name: "conv8_2"
  type: "Convolution"
  bottom: "conv8_1"
  top: "conv8_2"
  param {
    lr_mult: 1
    decay_mult: 1
  }
  param {
    lr_mult: 2
    decay_mult: 0
  }
  convolution_param {
    num_output: 256
    pad: 0
    kernel_size: 3
    stride: 1
    weight_filler {
      type: "xavier"
    }
    bias_filler {
      type: "constant"
      value: 0
    }
  }
}
layer {
  name: "conv8_2_relu"
  type: "ReLU"
  bottom: "conv8_2"
  top: "conv8_2"
}
layer {
  name: "conv9_1"
  type: "Convolution"
  bottom: "conv8_2"
  top: "conv9_1"
  param {
    lr_mult: 1
    decay_mult: 1
  }
  param {
    lr_mult: 2
    decay_mult: 0
  }
  convolution_param {
    num_output: 128
    pad: 0
    kernel_size: 1
    stride: 1
    weight_filler {
      type: "xavier"
    }
    bias_filler {
      type: "constant"
      value: 0
    }
  }
}
layer {
  name: "conv9_1_relu"
  type: "ReLU"
  bottom: "conv9_1"
  top: "conv9_1"
}
layer {
  name: "conv9_2"
  type: "Convolution"
  bottom: "conv9_1"
  top: "conv9_2"
  param {
    lr_mult: 1
    decay_mult: 1
  }
  param {
    lr_mult: 2
    decay_mult: 0
  }
  convolution_param {
    num_output: 256
    pad: 0
    kernel_size: 3
    stride: 1
    weight_filler {
      type: "xavier"
    }
    bias_filler {
      type: "constant"
      value: 0
    }
  }
}
layer {
  name: "conv9_2_relu"
  type: "ReLU"
  bottom: "conv9_2"
  top: "conv9_2"
}
layer {
  name: "conv4_3_norm"
  type: "Normalize"
  bottom: "conv4_3"
  top: "conv4_3_norm"
  norm_param {
    across_spatial: false
    scale_filler {
      type: "constant"
      value: 20
    }
    channel_shared: false
  }
}
layer {
  name: "conv4_3_norm_mbox_loc"
  type: "Convolution"
  bottom: "conv4_3_norm"
  top: "conv4_3_norm_mbox_loc"
  param {
    lr_mult: 1
    decay_mult: 1
  }
  param {
    lr_mult: 2
    decay_mult: 0
  }
  convolution_param {
    num_output: 16
    pad: 1
    kernel_size: 3
    stride: 1
    weight_filler {
      type: "xavier"
    }
    bias_filler {
      type: "constant"
      value: 0
    }
  }
}
layer {
  name: "conv4_3_norm_mbox_loc_perm"
  type: "Permute"
  bottom: "conv4_3_norm_mbox_loc"
  top: "conv4_3_norm_mbox_loc_perm"
  permute_param {
    order: 0
    order: 2
    order: 3
    order: 1
  }
}
layer {
  name: "conv4_3_norm_mbox_loc_flat"
  type: "Flatten"
  bottom: "conv4_3_norm_mbox_loc_perm"
  top: "conv4_3_norm_mbox_loc_flat"
  flatten_param {
    axis: 1
  }
}
layer {
  name: "conv4_3_norm_mbox_conf"
  type: "Convolution"
  bottom: "conv4_3_norm"
  top: "conv4_3_norm_mbox_conf"
  param {
    lr_mult: 1
    decay_mult: 1
  }
  param {
    lr_mult: 2
    decay_mult: 0
  }
  convolution_param {
    num_output: 44
    pad: 1
    kernel_size: 3
    stride: 1
    weight_filler {
      type: "xavier"
    }
    bias_filler {
      type: "constant"
      value: 0
    }
  }
}
layer {
  name: "conv4_3_norm_mbox_conf_perm"
  type: "Permute"
  bottom: "conv4_3_norm_mbox_conf"
  top: "conv4_3_norm_mbox_conf_perm"
  permute_param {
    order: 0
    order: 2
    order: 3
    order: 1
  }
}
layer {
  name: "conv4_3_norm_mbox_conf_flat"
  type: "Flatten"
  bottom: "conv4_3_norm_mbox_conf_perm"
  top: "conv4_3_norm_mbox_conf_flat"
  flatten_param {
    axis: 1
  }
}
layer {
  name: "conv4_3_norm_mbox_priorbox"
  type: "PriorBox"
  bottom: "conv4_3_norm"
  bottom: "data"
  top: "conv4_3_norm_mbox_priorbox"
  prior_box_param {
    min_size: 30
    max_size: 60
    aspect_ratio: 2
    flip: true
    clip: false
    variance: 0.1
    variance: 0.1
    variance: 0.2
    variance: 0.2
    step: 8
    offset: 0.5
  }
}
layer {
  name: "fc7_mbox_loc"
  type: "Convolution"
  bottom: "fc7"
  top: "fc7_mbox_loc"
  param {
    lr_mult: 1
    decay_mult: 1
  }
  param {
    lr_mult: 2
    decay_mult: 0
  }
  convolution_param {
    num_output: 24
    pad: 1
    kernel_size: 3
    stride: 1
    weight_filler {
      type: "xavier"
    }
    bias_filler {
      type: "constant"
      value: 0
    }
  }
}
layer {
  name: "fc7_mbox_loc_perm"
  type: "Permute"
  bottom: "fc7_mbox_loc"
  top: "fc7_mbox_loc_perm"
  permute_param {
    order: 0
    order: 2
    order: 3
    order: 1
  }
}
layer {
  name: "fc7_mbox_loc_flat"
  type: "Flatten"
  bottom: "fc7_mbox_loc_perm"
  top: "fc7_mbox_loc_flat"
  flatten_param {
    axis: 1
  }
}
layer {
  name: "fc7_mbox_conf"
  type: "Convolution"
  bottom: "fc7"
  top: "fc7_mbox_conf"
  param {
    lr_mult: 1
    decay_mult: 1
  }
  param {
    lr_mult: 2
    decay_mult: 0
  }
  convolution_param {
    num_output: 66
    pad: 1
    kernel_size: 3
    stride: 1
    weight_filler {
      type: "xavier"
    }
    bias_filler {
      type: "constant"
      value: 0
    }
  }
}
layer {
  name: "fc7_mbox_conf_perm"
  type: "Permute"
  bottom: "fc7_mbox_conf"
  top: "fc7_mbox_conf_perm"
  permute_param {
    order: 0
    order: 2
    order: 3
    order: 1
  }
}
layer {
  name: "fc7_mbox_conf_flat"
  type: "Flatten"
  bottom: "fc7_mbox_conf_perm"
  top: "fc7_mbox_conf_flat"
  flatten_param {
    axis: 1
  }
}
layer {
  name: "fc7_mbox_priorbox"
  type: "PriorBox"
  bottom: "fc7"
  bottom: "data"
  top: "fc7_mbox_priorbox"
  prior_box_param {
    min_size: 60
    max_size: 111
    aspect_ratio: 2
    aspect_ratio: 3
    flip: true
    clip: false
    variance: 0.1
    variance: 0.1
    variance: 0.2
    variance: 0.2
    step: 16
    offset: 0.5
  }
}
layer {
  name: "conv6_2_mbox_loc"
  type: "Convolution"
  bottom: "conv6_2"
  top: "conv6_2_mbox_loc"
  param {
    lr_mult: 1
    decay_mult: 1
  }
  param {
    lr_mult: 2
    decay_mult: 0
  }
  convolution_param {
    num_output: 24
    pad: 1
    kernel_size: 3
    stride: 1
    weight_filler {
      type: "xavier"
    }
    bias_filler {
      type: "constant"
      value: 0
    }
  }
}
layer {
  name: "conv6_2_mbox_loc_perm"
  type: "Permute"
  bottom: "conv6_2_mbox_loc"
  top: "conv6_2_mbox_loc_perm"
  permute_param {
    order: 0
    order: 2
    order: 3
    order: 1
  }
}
layer {
  name: "conv6_2_mbox_loc_flat"
  type: "Flatten"
  bottom: "conv6_2_mbox_loc_perm"
  top: "conv6_2_mbox_loc_flat"
  flatten_param {
    axis: 1
  }
}
layer {
  name: "conv6_2_mbox_conf"
  type: "Convolution"
  bottom: "conv6_2"
  top: "conv6_2_mbox_conf"
  param {
    lr_mult: 1
    decay_mult: 1
  }
  param {
    lr_mult: 2
    decay_mult: 0
  }
  convolution_param {
    num_output: 66
    pad: 1
    kernel_size: 3
    stride: 1
    weight_filler {
      type: "xavier"
    }
    bias_filler {
      type: "constant"
      value: 0
    }
  }
}
layer {
  name: "conv6_2_mbox_conf_perm"
  type: "Permute"
  bottom: "conv6_2_mbox_conf"
  top: "conv6_2_mbox_conf_perm"
  permute_param {
    order: 0
    order: 2
    order: 3
    order: 1
  }
}
layer {
  name: "conv6_2_mbox_conf_flat"
  type: "Flatten"
  bottom: "conv6_2_mbox_conf_perm"
  top: "conv6_2_mbox_conf_flat"
  flatten_param {
    axis: 1
  }
}
layer {
  name: "conv6_2_mbox_priorbox"
  type: "PriorBox"
  bottom: "conv6_2"
  bottom: "data"
  top: "conv6_2_mbox_priorbox"
  prior_box_param {
    min_size: 111
    max_size: 162
    aspect_ratio: 2
    aspect_ratio: 3
    flip: true
    clip: false
    variance: 0.1
    variance: 0.1
    variance: 0.2
    variance: 0.2
    step: 32
    offset: 0.5
  }
}
layer {
  name: "conv7_2_mbox_loc"
  type: "Convolution"
  bottom: "conv7_2"
  top: "conv7_2_mbox_loc"
  param {
    lr_mult: 1
    decay_mult: 1
  }
  param {
    lr_mult: 2
    decay_mult: 0
  }
  convolution_param {
    num_output: 24
    pad: 1
    kernel_size: 3
    stride: 1
    weight_filler {
      type: "xavier"
    }
    bias_filler {
      type: "constant"
      value: 0
    }
  }
}
layer {
  name: "conv7_2_mbox_loc_perm"
  type: "Permute"
  bottom: "conv7_2_mbox_loc"
  top: "conv7_2_mbox_loc_perm"
  permute_param {
    order: 0
    order: 2
    order: 3
    order: 1
  }
}
layer {
  name: "conv7_2_mbox_loc_flat"
  type: "Flatten"
  bottom: "conv7_2_mbox_loc_perm"
  top: "conv7_2_mbox_loc_flat"
  flatten_param {
    axis: 1
  }
}
layer {
  name: "conv7_2_mbox_conf"
  type: "Convolution"
  bottom: "conv7_2"
  top: "conv7_2_mbox_conf"
  param {
    lr_mult: 1
    decay_mult: 1
  }
  param {
    lr_mult: 2
    decay_mult: 0
  }
  convolution_param {
    num_output: 66
    pad: 1
    kernel_size: 3
    stride: 1
    weight_filler {
      type: "xavier"
    }
    bias_filler {
      type: "constant"
      value: 0
    }
  }
}
layer {
  name: "conv7_2_mbox_conf_perm"
  type: "Permute"
  bottom: "conv7_2_mbox_conf"
  top: "conv7_2_mbox_conf_perm"
  permute_param {
    order: 0
    order: 2
    order: 3
    order: 1
  }
}
layer {
  name: "conv7_2_mbox_conf_flat"
  type: "Flatten"
  bottom: "conv7_2_mbox_conf_perm"
  top: "conv7_2_mbox_conf_flat"
  flatten_param {
    axis: 1
  }
}
layer {
  name: "conv7_2_mbox_priorbox"
  type: "PriorBox"
  bottom: "conv7_2"
  bottom: "data"
  top: "conv7_2_mbox_priorbox"
  prior_box_param {
    min_size: 162
    max_size: 213
    aspect_ratio: 2
    aspect_ratio: 3
    flip: true
    clip: false
    variance: 0.1
    variance: 0.1
    variance: 0.2
    variance: 0.2
    step: 64
    offset: 0.5
  }
}
layer {
  name: "conv8_2_mbox_loc"
  type: "Convolution"
  bottom: "conv8_2"
  top: "conv8_2_mbox_loc"
  param {
    lr_mult: 1
    decay_mult: 1
  }
  param {
    lr_mult: 2
    decay_mult: 0
  }
  convolution_param {
    num_output: 16
    pad: 1
    kernel_size: 3
    stride: 1
    weight_filler {
      type: "xavier"
    }
    bias_filler {
      type: "constant"
      value: 0
    }
  }
}
layer {
  name: "conv8_2_mbox_loc_perm"
  type: "Permute"
  bottom: "conv8_2_mbox_loc"
  top: "conv8_2_mbox_loc_perm"
  permute_param {
    order: 0
    order: 2
    order: 3
    order: 1
  }
}
layer {
  name: "conv8_2_mbox_loc_flat"
  type: "Flatten"
  bottom: "conv8_2_mbox_loc_perm"
  top: "conv8_2_mbox_loc_flat"
  flatten_param {
    axis: 1
  }
}
layer {
  name: "conv8_2_mbox_conf"
  type: "Convolution"
  bottom: "conv8_2"
  top: "conv8_2_mbox_conf"
  param {
    lr_mult: 1
    decay_mult: 1
  }
  param {
    lr_mult: 2
    decay_mult: 0
  }
  convolution_param {
    num_output: 44
    pad: 1
    kernel_size: 3
    stride: 1
    weight_filler {
      type: "xavier"
    }
    bias_filler {
      type: "constant"
      value: 0
    }
  }
}
layer {
  name: "conv8_2_mbox_conf_perm"
  type: "Permute"
  bottom: "conv8_2_mbox_conf"
  top: "conv8_2_mbox_conf_perm"
  permute_param {
    order: 0
    order: 2
    order: 3
    order: 1
  }
}
layer {
  name: "conv8_2_mbox_conf_flat"
  type: "Flatten"
  bottom: "conv8_2_mbox_conf_perm"
  top: "conv8_2_mbox_conf_flat"
  flatten_param {
    axis: 1
  }
}
layer {
  name: "conv8_2_mbox_priorbox"
  type: "PriorBox"
  bottom: "conv8_2"
  bottom: "data"
  top: "conv8_2_mbox_priorbox"
  prior_box_param {
    min_size: 213
    max_size: 264
    aspect_ratio: 2
    flip: true
    clip: false
    variance: 0.1
    variance: 0.1
    variance: 0.2
    variance: 0.2
    step: 100
    offset: 0.5
  }
}
layer {
  name: "conv9_2_mbox_loc"
  type: "Convolution"
  bottom: "conv9_2"
  top: "conv9_2_mbox_loc"
  param {
    lr_mult: 1
    decay_mult: 1
  }
  param {
    lr_mult: 2
    decay_mult: 0
  }
  convolution_param {
    num_output: 16
    pad: 1
    kernel_size: 3
    stride: 1
    weight_filler {
      type: "xavier"
    }
    bias_filler {
      type: "constant"
      value: 0
    }
  }
}
layer {
  name: "conv9_2_mbox_loc_perm"
  type: "Permute"
  bottom: "conv9_2_mbox_loc"
  top: "conv9_2_mbox_loc_perm"
  permute_param {
    order: 0
    order: 2
    order: 3
    order: 1
  }
}
layer {
  name: "conv9_2_mbox_loc_flat"
  type: "Flatten"
  bottom: "conv9_2_mbox_loc_perm"
  top: "conv9_2_mbox_loc_flat"
  flatten_param {
    axis: 1
  }
}
layer {
  name: "conv9_2_mbox_conf"
  type: "Convolution"
  bottom: "conv9_2"
  top: "conv9_2_mbox_conf"
  param {
    lr_mult: 1
    decay_mult: 1
  }
  param {
    lr_mult: 2
    decay_mult: 0
  }
  convolution_param {
    num_output: 44
    pad: 1
    kernel_size: 3
    stride: 1
    weight_filler {
      type: "xavier"
    }
    bias_filler {
      type: "constant"
      value: 0
    }
  }
}
layer {
  name: "conv9_2_mbox_conf_perm"
  type: "Permute"
  bottom: "conv9_2_mbox_conf"
  top: "conv9_2_mbox_conf_perm"
  permute_param {
    order: 0
    order: 2
    order: 3
    order: 1
  }
}
layer {
  name: "conv9_2_mbox_conf_flat"
  type: "Flatten"
  bottom: "conv9_2_mbox_conf_perm"
  top: "conv9_2_mbox_conf_flat"
  flatten_param {
    axis: 1
  }
}
layer {
  name: "conv9_2_mbox_priorbox"
  type: "PriorBox"
  bottom: "conv9_2"
  bottom: "data"
  top: "conv9_2_mbox_priorbox"
  prior_box_param {
    min_size: 264
    max_size: 315
    aspect_ratio: 2
    flip: true
    clip: false
    variance: 0.1
    variance: 0.1
    variance: 0.2
    variance: 0.2
    step: 300
    offset: 0.5
  }
}
layer {
  name: "mbox_loc"
  type: "Concat"
  bottom: "conv4_3_norm_mbox_loc_flat"
  bottom: "fc7_mbox_loc_flat"
  bottom: "conv6_2_mbox_loc_flat"
  bottom: "conv7_2_mbox_loc_flat"
  bottom: "conv8_2_mbox_loc_flat"
  bottom: "conv9_2_mbox_loc_flat"
  top: "mbox_loc"
  concat_param {
    axis: 1
  }
}
layer {
  name: "mbox_conf"
  type: "Concat"
  bottom: "conv4_3_norm_mbox_conf_flat"
  bottom: "fc7_mbox_conf_flat"
  bottom: "conv6_2_mbox_conf_flat"
  bottom: "conv7_2_mbox_conf_flat"
  bottom: "conv8_2_mbox_conf_flat"
  bottom: "conv9_2_mbox_conf_flat"
  top: "mbox_conf"
  concat_param {
    axis: 1
  }
}
layer {
  name: "mbox_priorbox"
  type: "Concat"
  bottom: "conv4_3_norm_mbox_priorbox"
  bottom: "fc7_mbox_priorbox"
  bottom: "conv6_2_mbox_priorbox"
  bottom: "conv7_2_mbox_priorbox"
  bottom: "conv8_2_mbox_priorbox"
  bottom: "conv9_2_mbox_priorbox"
  top: "mbox_priorbox"
  concat_param {
    axis: 2
  }
}
layer {
  name: "mbox_loss"
  type: "MultiBoxLoss"
  bottom: "mbox_loc"
  bottom: "mbox_conf"
  bottom: "mbox_priorbox"
  bottom: "label"
  top: "mbox_loss"
  include {
    phase: TRAIN
  }
  propagate_down: true
  propagate_down: true
  propagate_down: false
  propagate_down: false
  loss_param {
    normalization: VAL
I0322 01:23:02.064376 10235 layer_factory.hpp:77] Creating layer data
I0322 01:23:02.064785 10235 net.cpp:100] Creating Layer data
I0322 01:23:02.064800 10235 net.cpp:408] data -> data
I0322 01:23:02.064827 10235 net.cpp:408] data -> label
I0322 01:23:02.066123 10249 db_lmdb.cpp:35] Opened lmdb examples/NWPU_VHR/NWPU_VHR_trainval_lmdb
I0322 01:23:02.083190 10235 annotated_data_layer.cpp:62] output data size: 32,3,300,300
I0322 01:23:02.130475 10235 net.cpp:150] Setting up data
I0322 01:23:02.130501 10235 net.cpp:157] Top shape: 32 3 300 300 (8640000)
I0322 01:23:02.130507 10235 net.cpp:157] Top shape: 1 1 4 8 (32)
I0322 01:23:02.130511 10235 net.cpp:165] Memory required for data: 34560128
I0322 01:23:02.130522 10235 layer_factory.hpp:77] Creating layer data_data_0_split
I0322 01:23:02.130535 10235 net.cpp:100] Creating Layer data_data_0_split
I0322 01:23:02.130542 10235 net.cpp:434] data_data_0_split <- data
I0322 01:23:02.130556 10235 net.cpp:408] data_data_0_split -> data_data_0_split_0
I0322 01:23:02.130568 10235 net.cpp:408] data_data_0_split -> data_data_0_split_1
I0322 01:23:02.130578 10235 net.cpp:408] data_data_0_split -> data_data_0_split_2
I0322 01:23:02.130585 10235 net.cpp:408] data_data_0_split -> data_data_0_split_3
I0322 01:23:02.130591 10235 net.cpp:408] data_data_0_split -> data_data_0_split_4
I0322 01:23:02.130597 10235 net.cpp:408] data_data_0_split -> data_data_0_split_5
I0322 01:23:02.130604 10235 net.cpp:408] data_data_0_split -> data_data_0_split_6
I0322 01:23:02.130725 10235 net.cpp:150] Setting up data_data_0_split
I0322 01:23:02.130735 10235 net.cpp:157] Top shape: 32 3 300 300 (8640000)
I0322 01:23:02.130740 10235 net.cpp:157] Top shape: 32 3 300 300 (8640000)
I0322 01:23:02.130744 10235 net.cpp:157] Top shape: 32 3 300 300 (8640000)
I0322 01:23:02.130764 10235 net.cpp:157] Top shape: 32 3 300 300 (8640000)
I0322 01:23:02.130769 10235 net.cpp:157] Top shape: 32 3 300 300 (8640000)
I0322 01:23:02.130772 10235 net.cpp:157] Top shape: 32 3 300 300 (8640000)
I0322 01:23:02.130777 10235 net.cpp:157] Top shape: 32 3 300 300 (8640000)
I0322 01:23:02.130781 10235 net.cpp:165] Memory required for data: 276480128
I0322 01:23:02.130785 10235 layer_factory.hpp:77] Creating layer conv1_1
I0322 01:23:02.130803 10235 net.cpp:100] Creating Layer conv1_1
I0322 01:23:02.130810 10235 net.cpp:434] conv1_1 <- data_data_0_split_0
I0322 01:23:02.130820 10235 net.cpp:408] conv1_1 -> conv1_1
I0322 01:23:02.593113 10235 net.cpp:150] Setting up conv1_1
I0322 01:23:02.593139 10235 net.cpp:157] Top shape: 32 64 300 300 (184320000)
I0322 01:23:02.593147 10235 net.cpp:165] Memory required for data: 1013760128
I0322 01:23:02.593164 10235 layer_factory.hpp:77] Creating layer relu1_1
I0322 01:23:02.593175 10235 net.cpp:100] Creating Layer relu1_1
I0322 01:23:02.593180 10235 net.cpp:434] relu1_1 <- conv1_1
I0322 01:23:02.593186 10235 net.cpp:395] relu1_1 -> conv1_1 (in-place)
I0322 01:23:02.593850 10235 net.cpp:150] Setting up relu1_1
I0322 01:23:02.593863 10235 net.cpp:157] Top shape: 32 64 300 300 (184320000)
I0322 01:23:02.593866 10235 net.cpp:165] Memory required for data: 1751040128
I0322 01:23:02.593871 10235 layer_factory.hpp:77] Creating layer conv1_2
I0322 01:23:02.593885 10235 net.cpp:100] Creating Layer conv1_2
I0322 01:23:02.593889 10235 net.cpp:434] conv1_2 <- conv1_1
I0322 01:23:02.593895 10235 net.cpp:408] conv1_2 -> conv1_2
I0322 01:23:02.595976 10235 net.cpp:150] Setting up conv1_2
I0322 01:23:02.596005 10235 net.cpp:157] Top shape: 32 64 300 300 (184320000)
I0322 01:23:02.596009 10235 net.cpp:165] Memory required for data: 2488320128
I0322 01:23:02.596019 10235 layer_factory.hpp:77] Creating layer relu1_2
I0322 01:23:02.596032 10235 net.cpp:100] Creating Layer relu1_2
I0322 01:23:02.596036 10235 net.cpp:434] relu1_2 <- conv1_2
I0322 01:23:02.596041 10235 net.cpp:395] relu1_2 -> conv1_2 (in-place)
I0322 01:23:02.596176 10235 net.cpp:150] Setting up relu1_2
I0322 01:23:02.596184 10235 net.cpp:157] Top shape: 32 64 300 300 (184320000)
I0322 01:23:02.596189 10235 net.cpp:165] Memory required for data: 3225600128
I0322 01:23:02.596192 10235 layer_factory.hpp:77] Creating layer pool1
I0322 01:23:02.596199 10235 net.cpp:100] Creating Layer pool1
I0322 01:23:02.596204 10235 net.cpp:434] pool1 <- conv1_2
I0322 01:23:02.596210 10235 net.cpp:408] pool1 -> pool1
I0322 01:23:02.596251 10235 net.cpp:150] Setting up pool1
I0322 01:23:02.596259 10235 net.cpp:157] Top shape: 32 64 150 150 (46080000)
I0322 01:23:02.596264 10235 net.cpp:165] Memory required for data: 3409920128
I0322 01:23:02.596269 10235 layer_factory.hpp:77] Creating layer conv2_1
I0322 01:23:02.596282 10235 net.cpp:100] Creating Layer conv2_1
I0322 01:23:02.596287 10235 net.cpp:434] conv2_1 <- pool1
I0322 01:23:02.596300 10235 net.cpp:408] conv2_1 -> conv2_1
I0322 01:23:02.598253 10235 net.cpp:150] Setting up conv2_1
I0322 01:23:02.598266 10235 net.cpp:157] Top shape: 32 128 150 150 (92160000)
I0322 01:23:02.598271 10235 net.cpp:165] Memory required for data: 3778560128
I0322 01:23:02.598284 10235 layer_factory.hpp:77] Creating layer relu2_1
I0322 01:23:02.598296 10235 net.cpp:100] Creating Layer relu2_1
I0322 01:23:02.598302 10235 net.cpp:434] relu2_1 <- conv2_1
I0322 01:23:02.598309 10235 net.cpp:395] relu2_1 -> conv2_1 (in-place)
I0322 01:23:02.598461 10235 net.cpp:150] Setting up relu2_1
I0322 01:23:02.598472 10235 net.cpp:157] Top shape: 32 128 150 150 (92160000)
I0322 01:23:02.598476 10235 net.cpp:165] Memory required for data: 4147200128
I0322 01:23:02.598482 10235 layer_factory.hpp:77] Creating layer conv2_2
I0322 01:23:02.598495 10235 net.cpp:100] Creating Layer conv2_2
I0322 01:23:02.598502 10235 net.cpp:434] conv2_2 <- conv2_1
I0322 01:23:02.598510 10235 net.cpp:408] conv2_2 -> conv2_2
I0322 01:23:02.600800 10235 net.cpp:150] Setting up conv2_2
I0322 01:23:02.600813 10235 net.cpp:157] Top shape: 32 128 150 150 (92160000)
I0322 01:23:02.600836 10235 net.cpp:165] Memory required for data: 4515840128
I0322 01:23:02.600845 10235 layer_factory.hpp:77] Creating layer relu2_2
I0322 01:23:02.600854 10235 net.cpp:100] Creating Layer relu2_2
I0322 01:23:02.600860 10235 net.cpp:434] relu2_2 <- conv2_2
I0322 01:23:02.600872 10235 net.cpp:395] relu2_2 -> conv2_2 (in-place)
I0322 01:23:02.601538 10235 net.cpp:150] Setting up relu2_2
I0322 01:23:02.601552 10235 net.cpp:157] Top shape: 32 128 150 150 (92160000)
I0322 01:23:02.601558 10235 net.cpp:165] Memory required for data: 4884480128
I0322 01:23:02.601564 10235 layer_factory.hpp:77] Creating layer pool2
I0322 01:23:02.601575 10235 net.cpp:100] Creating Layer pool2
I0322 01:23:02.601583 10235 net.cpp:434] pool2 <- conv2_2
I0322 01:23:02.601593 10235 net.cpp:408] pool2 -> pool2
I0322 01:23:02.601636 10235 net.cpp:150] Setting up pool2
I0322 01:23:02.601646 10235 net.cpp:157] Top shape: 32 128 75 75 (23040000)
I0322 01:23:02.601650 10235 net.cpp:165] Memory required for data: 4976640128
I0322 01:23:02.601658 10235 layer_factory.hpp:77] Creating layer conv3_1
I0322 01:23:02.601672 10235 net.cpp:100] Creating Layer conv3_1
I0322 01:23:02.601680 10235 net.cpp:434] conv3_1 <- pool2
I0322 01:23:02.601688 10235 net.cpp:408] conv3_1 -> conv3_1
I0322 01:23:02.606158 10235 net.cpp:150] Setting up conv3_1
I0322 01:23:02.606176 10235 net.cpp:157] Top shape: 32 256 75 75 (46080000)
I0322 01:23:02.606181 10235 net.cpp:165] Memory required for data: 5160960128
I0322 01:23:02.606194 10235 layer_factory.hpp:77] Creating layer relu3_1
I0322 01:23:02.606205 10235 net.cpp:100] Creating Layer relu3_1
I0322 01:23:02.606212 10235 net.cpp:434] relu3_1 <- conv3_1
I0322 01:23:02.606221 10235 net.cpp:395] relu3_1 -> conv3_1 (in-place)
I0322 01:23:02.606386 10235 net.cpp:150] Setting up relu3_1
I0322 01:23:02.606397 10235 net.cpp:157] Top shape: 32 256 75 75 (46080000)
I0322 01:23:02.606402 10235 net.cpp:165] Memory required for data: 5345280128
I0322 01:23:02.606407 10235 layer_factory.hpp:77] Creating layer conv3_2
I0322 01:23:02.606421 10235 net.cpp:100] Creating Layer conv3_2
I0322 01:23:02.606427 10235 net.cpp:434] conv3_2 <- conv3_1
I0322 01:23:02.606439 10235 net.cpp:408] conv3_2 -> conv3_2
I0322 01:23:02.611291 10235 net.cpp:150] Setting up conv3_2
I0322 01:23:02.611307 10235 net.cpp:157] Top shape: 32 256 75 75 (46080000)
I0322 01:23:02.611312 10235 net.cpp:165] Memory required for data: 5529600128
I0322 01:23:02.611322 10235 layer_factory.hpp:77] Creating layer relu3_2
I0322 01:23:02.611335 10235 net.cpp:100] Creating Layer relu3_2
I0322 01:23:02.611341 10235 net.cpp:434] relu3_2 <- conv3_2
I0322 01:23:02.611352 10235 net.cpp:395] relu3_2 -> conv3_2 (in-place)
I0322 01:23:02.611512 10235 net.cpp:150] Setting up relu3_2
I0322 01:23:02.611522 10235 net.cpp:157] Top shape: 32 256 75 75 (46080000)
I0322 01:23:02.611527 10235 net.cpp:165] Memory required for data: 5713920128
I0322 01:23:02.611532 10235 layer_factory.hpp:77] Creating layer conv3_3
I0322 01:23:02.611554 10235 net.cpp:100] Creating Layer conv3_3
I0322 01:23:02.611560 10235 net.cpp:434] conv3_3 <- conv3_2
I0322 01:23:02.611568 10235 net.cpp:408] conv3_3 -> conv3_3
I0322 01:23:02.616654 10235 net.cpp:150] Setting up conv3_3
I0322 01:23:02.616684 10235 net.cpp:157] Top shape: 32 256 75 75 (46080000)
I0322 01:23:02.616689 10235 net.cpp:165] Memory required for data: 5898240128
I0322 01:23:02.616698 10235 layer_factory.hpp:77] Creating layer relu3_3
I0322 01:23:02.616708 10235 net.cpp:100] Creating Layer relu3_3
I0322 01:23:02.616715 10235 net.cpp:434] relu3_3 <- conv3_3
I0322 01:23:02.616724 10235 net.cpp:395] relu3_3 -> conv3_3 (in-place)
I0322 01:23:02.617390 10235 net.cpp:150] Setting up relu3_3
I0322 01:23:02.617403 10235 net.cpp:157] Top shape: 32 256 75 75 (46080000)
I0322 01:23:02.617408 10235 net.cpp:165] Memory required for data: 6082560128
I0322 01:23:02.617413 10235 layer_factory.hpp:77] Creating layer pool3
I0322 01:23:02.617440 10235 net.cpp:100] Creating Layer pool3
I0322 01:23:02.617449 10235 net.cpp:434] pool3 <- conv3_3
I0322 01:23:02.617456 10235 net.cpp:408] pool3 -> pool3
I0322 01:23:02.617513 10235 net.cpp:150] Setting up pool3
I0322 01:23:02.617522 10235 net.cpp:157] Top shape: 32 256 38 38 (11829248)
I0322 01:23:02.617525 10235 net.cpp:165] Memory required for data: 6129877120
I0322 01:23:02.617532 10235 layer_factory.hpp:77] Creating layer conv4_1_depthwise
I0322 01:23:02.617547 10235 net.cpp:100] Creating Layer conv4_1_depthwise
I0322 01:23:02.617552 10235 net.cpp:434] conv4_1_depthwise <- pool3
I0322 01:23:02.617565 10235 net.cpp:408] conv4_1_depthwise -> conv4_1_3x3
I0322 01:23:02.617794 10235 net.cpp:150] Setting up conv4_1_depthwise
I0322 01:23:02.617805 10235 net.cpp:157] Top shape: 32 256 38 38 (11829248)
I0322 01:23:02.617810 10235 net.cpp:165] Memory required for data: 6177194112
I0322 01:23:02.617820 10235 layer_factory.hpp:77] Creating layer conv4_1_3x3_relu
I0322 01:23:02.617830 10235 net.cpp:100] Creating Layer conv4_1_3x3_relu
I0322 01:23:02.617836 10235 net.cpp:434] conv4_1_3x3_relu <- conv4_1_3x3
I0322 01:23:02.617846 10235 net.cpp:395] conv4_1_3x3_relu -> conv4_1_3x3 (in-place)
I0322 01:23:02.618003 10235 net.cpp:150] Setting up conv4_1_3x3_relu
I0322 01:23:02.618016 10235 net.cpp:157] Top shape: 32 256 38 38 (11829248)
I0322 01:23:02.618019 10235 net.cpp:165] Memory required for data: 6224511104
I0322 01:23:02.618024 10235 layer_factory.hpp:77] Creating layer conv4_1_1x1
I0322 01:23:02.618037 10235 net.cpp:100] Creating Layer conv4_1_1x1
I0322 01:23:02.618044 10235 net.cpp:434] conv4_1_1x1 <- conv4_1_3x3
I0322 01:23:02.618052 10235 net.cpp:408] conv4_1_1x1 -> conv4_1
I0322 01:23:02.620493 10235 net.cpp:150] Setting up conv4_1_1x1
I0322 01:23:02.620507 10235 net.cpp:157] Top shape: 32 512 38 38 (23658496)
I0322 01:23:02.620512 10235 net.cpp:165] Memory required for data: 6319145088
I0322 01:23:02.620539 10235 layer_factory.hpp:77] Creating layer relu4_1
I0322 01:23:02.620550 10235 net.cpp:100] Creating Layer relu4_1
I0322 01:23:02.620558 10235 net.cpp:434] relu4_1 <- conv4_1
I0322 01:23:02.620566 10235 net.cpp:395] relu4_1 -> conv4_1 (in-place)
I0322 01:23:02.620733 10235 net.cpp:150] Setting up relu4_1
I0322 01:23:02.620743 10235 net.cpp:157] Top shape: 32 512 38 38 (23658496)
I0322 01:23:02.620748 10235 net.cpp:165] Memory required for data: 6413779072
I0322 01:23:02.620754 10235 layer_factory.hpp:77] Creating layer conv4_2_depthwise
I0322 01:23:02.620765 10235 net.cpp:100] Creating Layer conv4_2_depthwise
I0322 01:23:02.620771 10235 net.cpp:434] conv4_2_depthwise <- conv4_1
I0322 01:23:02.620780 10235 net.cpp:408] conv4_2_depthwise -> conv4_2_3x3
I0322 01:23:02.621001 10235 net.cpp:150] Setting up conv4_2_depthwise
I0322 01:23:02.621011 10235 net.cpp:157] Top shape: 32 512 38 38 (23658496)
I0322 01:23:02.621014 10235 net.cpp:165] Memory required for data: 6508413056
I0322 01:23:02.621023 10235 layer_factory.hpp:77] Creating layer conv4_2_3x3_relu
I0322 01:23:02.621033 10235 net.cpp:100] Creating Layer conv4_2_3x3_relu
I0322 01:23:02.621038 10235 net.cpp:434] conv4_2_3x3_relu <- conv4_2_3x3
I0322 01:23:02.621047 10235 net.cpp:395] conv4_2_3x3_relu -> conv4_2_3x3 (in-place)
I0322 01:23:02.621208 10235 net.cpp:150] Setting up conv4_2_3x3_relu
I0322 01:23:02.621218 10235 net.cpp:157] Top shape: 32 512 38 38 (23658496)
I0322 01:23:02.621223 10235 net.cpp:165] Memory required for data: 6603047040
I0322 01:23:02.621227 10235 layer_factory.hpp:77] Creating layer conv4_2_1x1
I0322 01:23:02.621240 10235 net.cpp:100] Creating Layer conv4_2_1x1
I0322 01:23:02.621248 10235 net.cpp:434] conv4_2_1x1 <- conv4_2_3x3
I0322 01:23:02.621258 10235 net.cpp:408] conv4_2_1x1 -> conv4_2
I0322 01:23:02.624352 10235 net.cpp:150] Setting up conv4_2_1x1
I0322 01:23:02.624366 10235 net.cpp:157] Top shape: 32 512 38 38 (23658496)
I0322 01:23:02.624372 10235 net.cpp:165] Memory required for data: 6697681024
I0322 01:23:02.624380 10235 layer_factory.hpp:77] Creating layer relu4_2
I0322 01:23:02.624392 10235 net.cpp:100] Creating Layer relu4_2
I0322 01:23:02.624397 10235 net.cpp:434] relu4_2 <- conv4_2
I0322 01:23:02.624408 10235 net.cpp:395] relu4_2 -> conv4_2 (in-place)
I0322 01:23:02.625082 10235 net.cpp:150] Setting up relu4_2
I0322 01:23:02.625094 10235 net.cpp:157] Top shape: 32 512 38 38 (23658496)
I0322 01:23:02.625099 10235 net.cpp:165] Memory required for data: 6792315008
I0322 01:23:02.625105 10235 layer_factory.hpp:77] Creating layer conv4_3_depthwise
I0322 01:23:02.625133 10235 net.cpp:100] Creating Layer conv4_3_depthwise
I0322 01:23:02.625139 10235 net.cpp:434] conv4_3_depthwise <- conv4_2
I0322 01:23:02.625149 10235 net.cpp:408] conv4_3_depthwise -> conv4_3_3x3
I0322 01:23:02.625367 10235 net.cpp:150] Setting up conv4_3_depthwise
I0322 01:23:02.625376 10235 net.cpp:157] Top shape: 32 512 38 38 (23658496)
I0322 01:23:02.625381 10235 net.cpp:165] Memory required for data: 6886948992
I0322 01:23:02.625389 10235 layer_factory.hpp:77] Creating layer conv4_3_3x3_relu
I0322 01:23:02.625401 10235 net.cpp:100] Creating Layer conv4_3_3x3_relu
I0322 01:23:02.625409 10235 net.cpp:434] conv4_3_3x3_relu <- conv4_3_3x3
I0322 01:23:02.625416 10235 net.cpp:395] conv4_3_3x3_relu -> conv4_3_3x3 (in-place)
I0322 01:23:02.625576 10235 net.cpp:150] Setting up conv4_3_3x3_relu
I0322 01:23:02.625586 10235 net.cpp:157] Top shape: 32 512 38 38 (23658496)
I0322 01:23:02.625591 10235 net.cpp:165] Memory required for data: 6981582976
I0322 01:23:02.625596 10235 layer_factory.hpp:77] Creating layer conv4_3_1x1
I0322 01:23:02.625610 10235 net.cpp:100] Creating Layer conv4_3_1x1
I0322 01:23:02.625617 10235 net.cpp:434] conv4_3_1x1 <- conv4_3_3x3
I0322 01:23:02.625627 10235 net.cpp:408] conv4_3_1x1 -> conv4_3
I0322 01:23:02.627871 10235 net.cpp:150] Setting up conv4_3_1x1
I0322 01:23:02.627884 10235 net.cpp:157] Top shape: 32 512 38 38 (23658496)
I0322 01:23:02.627892 10235 net.cpp:165] Memory required for data: 7076216960
I0322 01:23:02.627900 10235 layer_factory.hpp:77] Creating layer relu4_3
I0322 01:23:02.627910 10235 net.cpp:100] Creating Layer relu4_3
I0322 01:23:02.627916 10235 net.cpp:434] relu4_3 <- conv4_3
I0322 01:23:02.627928 10235 net.cpp:395] relu4_3 -> conv4_3 (in-place)
I0322 01:23:02.628090 10235 net.cpp:150] Setting up relu4_3
I0322 01:23:02.628100 10235 net.cpp:157] Top shape: 32 512 38 38 (23658496)
I0322 01:23:02.628104 10235 net.cpp:165] Memory required for data: 7170850944
I0322 01:23:02.628110 10235 layer_factory.hpp:77] Creating layer conv4_3_relu4_3_0_split
I0322 01:23:02.628120 10235 net.cpp:100] Creating Layer conv4_3_relu4_3_0_split
I0322 01:23:02.628129 10235 net.cpp:434] conv4_3_relu4_3_0_split <- conv4_3
I0322 01:23:02.628144 10235 net.cpp:408] conv4_3_relu4_3_0_split -> conv4_3_relu4_3_0_split_0
I0322 01:23:02.628155 10235 net.cpp:408] conv4_3_relu4_3_0_split -> conv4_3_relu4_3_0_split_1
I0322 01:23:02.628197 10235 net.cpp:150] Setting up conv4_3_relu4_3_0_split
I0322 01:23:02.628206 10235 net.cpp:157] Top shape: 32 512 38 38 (23658496)
I0322 01:23:02.628212 10235 net.cpp:157] Top shape: 32 512 38 38 (23658496)
I0322 01:23:02.628217 10235 net.cpp:165] Memory required for data: 7360118912
I0322 01:23:02.628222 10235 layer_factory.hpp:77] Creating layer pool4
I0322 01:23:02.628237 10235 net.cpp:100] Creating Layer pool4
I0322 01:23:02.628244 10235 net.cpp:434] pool4 <- conv4_3_relu4_3_0_split_0
I0322 01:23:02.628252 10235 net.cpp:408] pool4 -> pool4
I0322 01:23:02.628291 10235 net.cpp:150] Setting up pool4
I0322 01:23:02.628299 10235 net.cpp:157] Top shape: 32 512 19 19 (5914624)
I0322 01:23:02.628304 10235 net.cpp:165] Memory required for data: 7383777408
I0322 01:23:02.628309 10235 layer_factory.hpp:77] Creating layer conv5_1_depthwise
I0322 01:23:02.628320 10235 net.cpp:100] Creating Layer conv5_1_depthwise
I0322 01:23:02.628329 10235 net.cpp:434] conv5_1_depthwise <- pool4
I0322 01:23:02.628337 10235 net.cpp:408] conv5_1_depthwise -> conv5_1_3x3
I0322 01:23:02.628541 10235 net.cpp:150] Setting up conv5_1_depthwise
I0322 01:23:02.628551 10235 net.cpp:157] Top shape: 32 512 19 19 (5914624)
I0322 01:23:02.628554 10235 net.cpp:165] Memory required for data: 7407435904
I0322 01:23:02.628563 10235 layer_factory.hpp:77] Creating layer conv5_1_3x3_relu
I0322 01:23:02.628573 10235 net.cpp:100] Creating Layer conv5_1_3x3_relu
I0322 01:23:02.628587 10235 net.cpp:434] conv5_1_3x3_relu <- conv5_1_3x3
I0322 01:23:02.628594 10235 net.cpp:395] conv5_1_3x3_relu -> conv5_1_3x3 (in-place)
I0322 01:23:02.629240 10235 net.cpp:150] Setting up conv5_1_3x3_relu
I0322 01:23:02.629253 10235 net.cpp:157] Top shape: 32 512 19 19 (5914624)
I0322 01:23:02.629258 10235 net.cpp:165] Memory required for data: 7431094400
I0322 01:23:02.629263 10235 layer_factory.hpp:77] Creating layer conv5_1_1x1
I0322 01:23:02.629276 10235 net.cpp:100] Creating Layer conv5_1_1x1
I0322 01:23:02.629283 10235 net.cpp:434] conv5_1_1x1 <- conv5_1_3x3
I0322 01:23:02.629293 10235 net.cpp:408] conv5_1_1x1 -> conv5_1
I0322 01:23:02.632990 10235 net.cpp:150] Setting up conv5_1_1x1
I0322 01:23:02.633015 10235 net.cpp:157] Top shape: 32 512 19 19 (5914624)
I0322 01:23:02.633021 10235 net.cpp:165] Memory required for data: 7454752896
I0322 01:23:02.633033 10235 layer_factory.hpp:77] Creating layer relu5_1
I0322 01:23:02.633044 10235 net.cpp:100] Creating Layer relu5_1
I0322 01:23:02.633052 10235 net.cpp:434] relu5_1 <- conv5_1
I0322 01:23:02.633062 10235 net.cpp:395] relu5_1 -> conv5_1 (in-place)
I0322 01:23:02.633234 10235 net.cpp:150] Setting up relu5_1
I0322 01:23:02.633244 10235 net.cpp:157] Top shape: 32 512 19 19 (5914624)
I0322 01:23:02.633249 10235 net.cpp:165] Memory required for data: 7478411392
I0322 01:23:02.633255 10235 layer_factory.hpp:77] Creating layer conv5_2_depthwise
I0322 01:23:02.633270 10235 net.cpp:100] Creating Layer conv5_2_depthwise
I0322 01:23:02.633276 10235 net.cpp:434] conv5_2_depthwise <- conv5_1
I0322 01:23:02.633286 10235 net.cpp:408] conv5_2_depthwise -> conv5_2_3x3
I0322 01:23:02.633524 10235 net.cpp:150] Setting up conv5_2_depthwise
I0322 01:23:02.633533 10235 net.cpp:157] Top shape: 32 512 19 19 (5914624)
I0322 01:23:02.633538 10235 net.cpp:165] Memory required for data: 7502069888
I0322 01:23:02.633545 10235 layer_factory.hpp:77] Creating layer conv5_2_3x3_relu
I0322 01:23:02.633556 10235 net.cpp:100] Creating Layer conv5_2_3x3_relu
I0322 01:23:02.633563 10235 net.cpp:434] conv5_2_3x3_relu <- conv5_2_3x3
I0322 01:23:02.633569 10235 net.cpp:395] conv5_2_3x3_relu -> conv5_2_3x3 (in-place)
I0322 01:23:02.633749 10235 net.cpp:150] Setting up conv5_2_3x3_relu
I0322 01:23:02.633759 10235 net.cpp:157] Top shape: 32 512 19 19 (5914624)
I0322 01:23:02.633764 10235 net.cpp:165] Memory required for data: 7525728384
I0322 01:23:02.633769 10235 layer_factory.hpp:77] Creating layer conv5_2_1x1
I0322 01:23:02.633781 10235 net.cpp:100] Creating Layer conv5_2_1x1
I0322 01:23:02.633790 10235 net.cpp:434] conv5_2_1x1 <- conv5_2_3x3
I0322 01:23:02.633800 10235 net.cpp:408] conv5_2_1x1 -> conv5_2
I0322 01:23:02.636113 10235 net.cpp:150] Setting up conv5_2_1x1
I0322 01:23:02.636126 10235 net.cpp:157] Top shape: 32 512 19 19 (5914624)
I0322 01:23:02.636132 10235 net.cpp:165] Memory required for data: 7549386880
I0322 01:23:02.636152 10235 layer_factory.hpp:77] Creating layer relu5_2
I0322 01:23:02.636160 10235 net.cpp:100] Creating Layer relu5_2
I0322 01:23:02.636166 10235 net.cpp:434] relu5_2 <- conv5_2
I0322 01:23:02.636174 10235 net.cpp:395] relu5_2 -> conv5_2 (in-place)
I0322 01:23:02.636827 10235 net.cpp:150] Setting up relu5_2
I0322 01:23:02.636839 10235 net.cpp:157] Top shape: 32 512 19 19 (5914624)
I0322 01:23:02.636844 10235 net.cpp:165] Memory required for data: 7573045376
I0322 01:23:02.636850 10235 layer_factory.hpp:77] Creating layer conv5_3_depthwise
I0322 01:23:02.636865 10235 net.cpp:100] Creating Layer conv5_3_depthwise
I0322 01:23:02.636871 10235 net.cpp:434] conv5_3_depthwise <- conv5_2
I0322 01:23:02.636881 10235 net.cpp:408] conv5_3_depthwise -> conv5_3_3x3
I0322 01:23:02.637107 10235 net.cpp:150] Setting up conv5_3_depthwise
I0322 01:23:02.637118 10235 net.cpp:157] Top shape: 32 512 19 19 (5914624)
I0322 01:23:02.637123 10235 net.cpp:165] Memory required for data: 7596703872
I0322 01:23:02.637132 10235 layer_factory.hpp:77] Creating layer conv5_3_3x3_relu
I0322 01:23:02.637143 10235 net.cpp:100] Creating Layer conv5_3_3x3_relu
I0322 01:23:02.637163 10235 net.cpp:434] conv5_3_3x3_relu <- conv5_3_3x3
I0322 01:23:02.637171 10235 net.cpp:395] conv5_3_3x3_relu -> conv5_3_3x3 (in-place)
I0322 01:23:02.637336 10235 net.cpp:150] Setting up conv5_3_3x3_relu
I0322 01:23:02.637347 10235 net.cpp:157] Top shape: 32 512 19 19 (5914624)
I0322 01:23:02.637351 10235 net.cpp:165] Memory required for data: 7620362368
I0322 01:23:02.637357 10235 layer_factory.hpp:77] Creating layer conv5_3_1x1
I0322 01:23:02.637372 10235 net.cpp:100] Creating Layer conv5_3_1x1
I0322 01:23:02.637378 10235 net.cpp:434] conv5_3_1x1 <- conv5_3_3x3
I0322 01:23:02.637388 10235 net.cpp:408] conv5_3_1x1 -> conv5_3
I0322 01:23:02.640509 10235 net.cpp:150] Setting up conv5_3_1x1
I0322 01:23:02.640524 10235 net.cpp:157] Top shape: 32 512 19 19 (5914624)
I0322 01:23:02.640530 10235 net.cpp:165] Memory required for data: 7644020864
I0322 01:23:02.640539 10235 layer_factory.hpp:77] Creating layer relu5_3
I0322 01:23:02.640550 10235 net.cpp:100] Creating Layer relu5_3
I0322 01:23:02.640556 10235 net.cpp:434] relu5_3 <- conv5_3
I0322 01:23:02.640565 10235 net.cpp:395] relu5_3 -> conv5_3 (in-place)
I0322 01:23:02.640724 10235 net.cpp:150] Setting up relu5_3
I0322 01:23:02.640734 10235 net.cpp:157] Top shape: 32 512 19 19 (5914624)
I0322 01:23:02.640739 10235 net.cpp:165] Memory required for data: 7667679360
I0322 01:23:02.640744 10235 layer_factory.hpp:77] Creating layer pool5
I0322 01:23:02.640754 10235 net.cpp:100] Creating Layer pool5
I0322 01:23:02.640761 10235 net.cpp:434] pool5 <- conv5_3
I0322 01:23:02.640771 10235 net.cpp:408] pool5 -> pool5
I0322 01:23:02.640817 10235 net.cpp:150] Setting up pool5
I0322 01:23:02.640827 10235 net.cpp:157] Top shape: 32 512 19 19 (5914624)
I0322 01:23:02.640831 10235 net.cpp:165] Memory required for data: 7691337856
I0322 01:23:02.640836 10235 layer_factory.hpp:77] Creating layer fc6_depthwise
I0322 01:23:02.640882 10235 net.cpp:100] Creating Layer fc6_depthwise
I0322 01:23:02.640890 10235 net.cpp:434] fc6_depthwise <- pool5
I0322 01:23:02.640902 10235 net.cpp:408] fc6_depthwise -> fc6_3x3
I0322 01:23:02.641122 10235 net.cpp:150] Setting up fc6_depthwise
I0322 01:23:02.641131 10235 net.cpp:157] Top shape: 32 512 19 19 (5914624)
I0322 01:23:02.641136 10235 net.cpp:165] Memory required for data: 7714996352
I0322 01:23:02.641145 10235 layer_factory.hpp:77] Creating layer fc6_3x3_relu
I0322 01:23:02.641153 10235 net.cpp:100] Creating Layer fc6_3x3_relu
I0322 01:23:02.641160 10235 net.cpp:434] fc6_3x3_relu <- fc6_3x3
I0322 01:23:02.641168 10235 net.cpp:395] fc6_3x3_relu -> fc6_3x3 (in-place)
I0322 01:23:02.641844 10235 net.cpp:150] Setting up fc6_3x3_relu
I0322 01:23:02.641855 10235 net.cpp:157] Top shape: 32 512 19 19 (5914624)
I0322 01:23:02.641861 10235 net.cpp:165] Memory required for data: 7738654848
I0322 01:23:02.641866 10235 layer_factory.hpp:77] Creating layer fc6_1x1
I0322 01:23:02.641880 10235 net.cpp:100] Creating Layer fc6_1x1
I0322 01:23:02.641888 10235 net.cpp:434] fc6_1x1 <- fc6_3x3
I0322 01:23:02.641898 10235 net.cpp:408] fc6_1x1 -> fc6
I0322 01:23:02.645102 10235 net.cpp:150] Setting up fc6_1x1
I0322 01:23:02.645115 10235 net.cpp:157] Top shape: 32 1024 19 19 (11829248)
I0322 01:23:02.645119 10235 net.cpp:165] Memory required for data: 7785971840
I0322 01:23:02.645143 10235 layer_factory.hpp:77] Creating layer relu6
I0322 01:23:02.645153 10235 net.cpp:100] Creating Layer relu6
I0322 01:23:02.645159 10235 net.cpp:434] relu6 <- fc6
I0322 01:23:02.645169 10235 net.cpp:395] relu6 -> fc6 (in-place)
I0322 01:23:02.645865 10235 net.cpp:150] Setting up relu6
I0322 01:23:02.645879 10235 net.cpp:157] Top shape: 32 1024 19 19 (11829248)
I0322 01:23:02.645882 10235 net.cpp:165] Memory required for data: 7833288832
I0322 01:23:02.645889 10235 layer_factory.hpp:77] Creating layer fc7
I0322 01:23:02.645903 10235 net.cpp:100] Creating Layer fc7
I0322 01:23:02.645910 10235 net.cpp:434] fc7 <- fc6
I0322 01:23:02.645920 10235 net.cpp:408] fc7 -> fc7
I0322 01:23:02.652981 10235 net.cpp:150] Setting up fc7
I0322 01:23:02.652997 10235 net.cpp:157] Top shape: 32 1024 19 19 (11829248)
I0322 01:23:02.653021 10235 net.cpp:165] Memory required for data: 7880605824
I0322 01:23:02.653033 10235 layer_factory.hpp:77] Creating layer relu7
I0322 01:23:02.653041 10235 net.cpp:100] Creating Layer relu7
I0322 01:23:02.653051 10235 net.cpp:434] relu7 <- fc7
I0322 01:23:02.653059 10235 net.cpp:395] relu7 -> fc7 (in-place)
I0322 01:23:02.653225 10235 net.cpp:150] Setting up relu7
I0322 01:23:02.653234 10235 net.cpp:157] Top shape: 32 1024 19 19 (11829248)
I0322 01:23:02.653239 10235 net.cpp:165] Memory required for data: 7927922816
I0322 01:23:02.653245 10235 layer_factory.hpp:77] Creating layer fc7_relu7_0_split
I0322 01:23:02.653254 10235 net.cpp:100] Creating Layer fc7_relu7_0_split
I0322 01:23:02.653260 10235 net.cpp:434] fc7_relu7_0_split <- fc7
I0322 01:23:02.653271 10235 net.cpp:408] fc7_relu7_0_split -> fc7_relu7_0_split_0
I0322 01:23:02.653282 10235 net.cpp:408] fc7_relu7_0_split -> fc7_relu7_0_split_1
I0322 01:23:02.653290 10235 net.cpp:408] fc7_relu7_0_split -> fc7_relu7_0_split_2
I0322 01:23:02.653301 10235 net.cpp:408] fc7_relu7_0_split -> fc7_relu7_0_split_3
I0322 01:23:02.653364 10235 net.cpp:150] Setting up fc7_relu7_0_split
I0322 01:23:02.653371 10235 net.cpp:157] Top shape: 32 1024 19 19 (11829248)
I0322 01:23:02.653378 10235 net.cpp:157] Top shape: 32 1024 19 19 (11829248)
I0322 01:23:02.653383 10235 net.cpp:157] Top shape: 32 1024 19 19 (11829248)
I0322 01:23:02.653390 10235 net.cpp:157] Top shape: 32 1024 19 19 (11829248)
I0322 01:23:02.653395 10235 net.cpp:165] Memory required for data: 8117190784
I0322 01:23:02.653400 10235 layer_factory.hpp:77] Creating layer conv6_1
I0322 01:23:02.653415 10235 net.cpp:100] Creating Layer conv6_1
I0322 01:23:02.653424 10235 net.cpp:434] conv6_1 <- fc7_relu7_0_split_0
I0322 01:23:02.653435 10235 net.cpp:408] conv6_1 -> conv6_1
I0322 01:23:02.655797 10235 net.cpp:150] Setting up conv6_1
I0322 01:23:02.655809 10235 net.cpp:157] Top shape: 32 256 19 19 (2957312)
I0322 01:23:02.655815 10235 net.cpp:165] Memory required for data: 8129020032
I0322 01:23:02.655824 10235 layer_factory.hpp:77] Creating layer conv6_1_relu
I0322 01:23:02.655871 10235 net.cpp:100] Creating Layer conv6_1_relu
I0322 01:23:02.655879 10235 net.cpp:434] conv6_1_relu <- conv6_1
I0322 01:23:02.655886 10235 net.cpp:395] conv6_1_relu -> conv6_1 (in-place)
I0322 01:23:02.656049 10235 net.cpp:150] Setting up conv6_1_relu
I0322 01:23:02.656057 10235 net.cpp:157] Top shape: 32 256 19 19 (2957312)
I0322 01:23:02.656062 10235 net.cpp:165] Memory required for data: 8140849280
I0322 01:23:02.656069 10235 layer_factory.hpp:77] Creating layer conv6_2
I0322 01:23:02.656082 10235 net.cpp:100] Creating Layer conv6_2
I0322 01:23:02.656088 10235 net.cpp:434] conv6_2 <- conv6_1
I0322 01:23:02.656096 10235 net.cpp:408] conv6_2 -> conv6_2
I0322 01:23:02.663929 10235 net.cpp:150] Setting up conv6_2
I0322 01:23:02.663960 10235 net.cpp:157] Top shape: 32 512 10 10 (1638400)
I0322 01:23:02.663965 10235 net.cpp:165] Memory required for data: 8147402880
I0322 01:23:02.663975 10235 layer_factory.hpp:77] Creating layer conv6_2_relu
I0322 01:23:02.664001 10235 net.cpp:100] Creating Layer conv6_2_relu
I0322 01:23:02.664010 10235 net.cpp:434] conv6_2_relu <- conv6_2
I0322 01:23:02.664017 10235 net.cpp:395] conv6_2_relu -> conv6_2 (in-place)
I0322 01:23:02.664672 10235 net.cpp:150] Setting up conv6_2_relu
I0322 01:23:02.664685 10235 net.cpp:157] Top shape: 32 512 10 10 (1638400)
I0322 01:23:02.664690 10235 net.cpp:165] Memory required for data: 8153956480
I0322 01:23:02.664695 10235 layer_factory.hpp:77] Creating layer conv6_2_conv6_2_relu_0_split
I0322 01:23:02.664716 10235 net.cpp:100] Creating Layer conv6_2_conv6_2_relu_0_split
I0322 01:23:02.664724 10235 net.cpp:434] conv6_2_conv6_2_relu_0_split <- conv6_2
I0322 01:23:02.664733 10235 net.cpp:408] conv6_2_conv6_2_relu_0_split -> conv6_2_conv6_2_relu_0_split_0
I0322 01:23:02.664746 10235 net.cpp:408] conv6_2_conv6_2_relu_0_split -> conv6_2_conv6_2_relu_0_split_1
I0322 01:23:02.664757 10235 net.cpp:408] conv6_2_conv6_2_relu_0_split -> conv6_2_conv6_2_relu_0_split_2
I0322 01:23:02.664777 10235 net.cpp:408] conv6_2_conv6_2_relu_0_split -> conv6_2_conv6_2_relu_0_split_3
I0322 01:23:02.664845 10235 net.cpp:150] Setting up conv6_2_conv6_2_relu_0_split
I0322 01:23:02.664855 10235 net.cpp:157] Top shape: 32 512 10 10 (1638400)
I0322 01:23:02.664861 10235 net.cpp:157] Top shape: 32 512 10 10 (1638400)
I0322 01:23:02.664870 10235 net.cpp:157] Top shape: 32 512 10 10 (1638400)
I0322 01:23:02.664876 10235 net.cpp:157] Top shape: 32 512 10 10 (1638400)
I0322 01:23:02.664882 10235 net.cpp:165] Memory required for data: 8180170880
I0322 01:23:02.664889 10235 layer_factory.hpp:77] Creating layer conv7_1
I0322 01:23:02.664903 10235 net.cpp:100] Creating Layer conv7_1
I0322 01:23:02.664909 10235 net.cpp:434] conv7_1 <- conv6_2_conv6_2_relu_0_split_0
I0322 01:23:02.664918 10235 net.cpp:408] conv7_1 -> conv7_1
I0322 01:23:02.666458 10235 net.cpp:150] Setting up conv7_1
I0322 01:23:02.666474 10235 net.cpp:157] Top shape: 32 128 10 10 (409600)
I0322 01:23:02.666479 10235 net.cpp:165] Memory required for data: 8181809280
I0322 01:23:02.666488 10235 layer_factory.hpp:77] Creating layer conv7_1_relu
I0322 01:23:02.666497 10235 net.cpp:100] Creating Layer conv7_1_relu
I0322 01:23:02.666503 10235 net.cpp:434] conv7_1_relu <- conv7_1
I0322 01:23:02.666517 10235 net.cpp:395] conv7_1_relu -> conv7_1 (in-place)
I0322 01:23:02.666678 10235 net.cpp:150] Setting up conv7_1_relu
I0322 01:23:02.666688 10235 net.cpp:157] Top shape: 32 128 10 10 (409600)
I0322 01:23:02.666693 10235 net.cpp:165] Memory required for data: 8183447680
I0322 01:23:02.666698 10235 layer_factory.hpp:77] Creating layer conv7_2
I0322 01:23:02.666715 10235 net.cpp:100] Creating Layer conv7_2
I0322 01:23:02.666723 10235 net.cpp:434] conv7_2 <- conv7_1
I0322 01:23:02.666731 10235 net.cpp:408] conv7_2 -> conv7_2
I0322 01:23:02.669978 10235 net.cpp:150] Setting up conv7_2
I0322 01:23:02.669994 10235 net.cpp:157] Top shape: 32 256 5 5 (204800)
I0322 01:23:02.669999 10235 net.cpp:165] Memory required for data: 8184266880
I0322 01:23:02.670009 10235 layer_factory.hpp:77] Creating layer conv7_2_relu
I0322 01:23:02.670018 10235 net.cpp:100] Creating Layer conv7_2_relu
I0322 01:23:02.670025 10235 net.cpp:434] conv7_2_relu <- conv7_2
I0322 01:23:02.670034 10235 net.cpp:395] conv7_2_relu -> conv7_2 (in-place)
I0322 01:23:02.670197 10235 net.cpp:150] Setting up conv7_2_relu
I0322 01:23:02.670205 10235 net.cpp:157] Top shape: 32 256 5 5 (204800)
I0322 01:23:02.670210 10235 net.cpp:165] Memory required for data: 8185086080
I0322 01:23:02.670217 10235 layer_factory.hpp:77] Creating layer conv7_2_conv7_2_relu_0_split
I0322 01:23:02.670226 10235 net.cpp:100] Creating Layer conv7_2_conv7_2_relu_0_split
I0322 01:23:02.670234 10235 net.cpp:434] conv7_2_conv7_2_relu_0_split <- conv7_2
I0322 01:23:02.670244 10235 net.cpp:408] conv7_2_conv7_2_relu_0_split -> conv7_2_conv7_2_relu_0_split_0
I0322 01:23:02.670255 10235 net.cpp:408] conv7_2_conv7_2_relu_0_split -> conv7_2_conv7_2_relu_0_split_1
I0322 01:23:02.670265 10235 net.cpp:408] conv7_2_conv7_2_relu_0_split -> conv7_2_conv7_2_relu_0_split_2
I0322 01:23:02.670274 10235 net.cpp:408] conv7_2_conv7_2_relu_0_split -> conv7_2_conv7_2_relu_0_split_3
I0322 01:23:02.670339 10235 net.cpp:150] Setting up conv7_2_conv7_2_relu_0_split
I0322 01:23:02.670346 10235 net.cpp:157] Top shape: 32 256 5 5 (204800)
I0322 01:23:02.670353 10235 net.cpp:157] Top shape: 32 256 5 5 (204800)
I0322 01:23:02.670359 10235 net.cpp:157] Top shape: 32 256 5 5 (204800)
I0322 01:23:02.670367 10235 net.cpp:157] Top shape: 32 256 5 5 (204800)
I0322 01:23:02.670372 10235 net.cpp:165] Memory required for data: 8188362880
I0322 01:23:02.670379 10235 layer_factory.hpp:77] Creating layer conv8_1
I0322 01:23:02.670392 10235 net.cpp:100] Creating Layer conv8_1
I0322 01:23:02.670398 10235 net.cpp:434] conv8_1 <- conv7_2_conv7_2_relu_0_split_0
I0322 01:23:02.670408 10235 net.cpp:408] conv8_1 -> conv8_1
I0322 01:23:02.671737 10235 net.cpp:150] Setting up conv8_1
I0322 01:23:02.671751 10235 net.cpp:157] Top shape: 32 128 5 5 (102400)
I0322 01:23:02.671770 10235 net.cpp:165] Memory required for data: 8188772480
I0322 01:23:02.671779 10235 layer_factory.hpp:77] Creating layer conv8_1_relu
I0322 01:23:02.671802 10235 net.cpp:100] Creating Layer conv8_1_relu
I0322 01:23:02.671808 10235 net.cpp:434] conv8_1_relu <- conv8_1
I0322 01:23:02.671815 10235 net.cpp:395] conv8_1_relu -> conv8_1 (in-place)
I0322 01:23:02.672478 10235 net.cpp:150] Setting up conv8_1_relu
I0322 01:23:02.672492 10235 net.cpp:157] Top shape: 32 128 5 5 (102400)
I0322 01:23:02.672497 10235 net.cpp:165] Memory required for data: 8189182080
I0322 01:23:02.672502 10235 layer_factory.hpp:77] Creating layer conv8_2
I0322 01:23:02.672514 10235 net.cpp:100] Creating Layer conv8_2
I0322 01:23:02.672521 10235 net.cpp:434] conv8_2 <- conv8_1
I0322 01:23:02.672533 10235 net.cpp:408] conv8_2 -> conv8_2
I0322 01:23:02.676301 10235 net.cpp:150] Setting up conv8_2
I0322 01:23:02.676314 10235 net.cpp:157] Top shape: 32 256 3 3 (73728)
I0322 01:23:02.676321 10235 net.cpp:165] Memory required for data: 8189476992
I0322 01:23:02.676331 10235 layer_factory.hpp:77] Creating layer conv8_2_relu
I0322 01:23:02.676340 10235 net.cpp:100] Creating Layer conv8_2_relu
I0322 01:23:02.676347 10235 net.cpp:434] conv8_2_relu <- conv8_2
I0322 01:23:02.676358 10235 net.cpp:395] conv8_2_relu -> conv8_2 (in-place)
I0322 01:23:02.676532 10235 net.cpp:150] Setting up conv8_2_relu
I0322 01:23:02.676542 10235 net.cpp:157] Top shape: 32 256 3 3 (73728)
I0322 01:23:02.676546 10235 net.cpp:165] Memory required for data: 8189771904
I0322 01:23:02.676553 10235 layer_factory.hpp:77] Creating layer conv8_2_conv8_2_relu_0_split
I0322 01:23:02.676561 10235 net.cpp:100] Creating Layer conv8_2_conv8_2_relu_0_split
I0322 01:23:02.676568 10235 net.cpp:434] conv8_2_conv8_2_relu_0_split <- conv8_2
I0322 01:23:02.676578 10235 net.cpp:408] conv8_2_conv8_2_relu_0_split -> conv8_2_conv8_2_relu_0_split_0
I0322 01:23:02.676589 10235 net.cpp:408] conv8_2_conv8_2_relu_0_split -> conv8_2_conv8_2_relu_0_split_1
I0322 01:23:02.676600 10235 net.cpp:408] conv8_2_conv8_2_relu_0_split -> conv8_2_conv8_2_relu_0_split_2
I0322 01:23:02.676609 10235 net.cpp:408] conv8_2_conv8_2_relu_0_split -> conv8_2_conv8_2_relu_0_split_3
I0322 01:23:02.676674 10235 net.cpp:150] Setting up conv8_2_conv8_2_relu_0_split
I0322 01:23:02.676683 10235 net.cpp:157] Top shape: 32 256 3 3 (73728)
I0322 01:23:02.676689 10235 net.cpp:157] Top shape: 32 256 3 3 (73728)
I0322 01:23:02.676694 10235 net.cpp:157] Top shape: 32 256 3 3 (73728)
I0322 01:23:02.676700 10235 net.cpp:157] Top shape: 32 256 3 3 (73728)
I0322 01:23:02.676705 10235 net.cpp:165] Memory required for data: 8190951552
I0322 01:23:02.676712 10235 layer_factory.hpp:77] Creating layer conv9_1
I0322 01:23:02.676726 10235 net.cpp:100] Creating Layer conv9_1
I0322 01:23:02.676733 10235 net.cpp:434] conv9_1 <- conv8_2_conv8_2_relu_0_split_0
I0322 01:23:02.676743 10235 net.cpp:408] conv9_1 -> conv9_1
I0322 01:23:02.678148 10235 net.cpp:150] Setting up conv9_1
I0322 01:23:02.678161 10235 net.cpp:157] Top shape: 32 128 3 3 (36864)
I0322 01:23:02.678166 10235 net.cpp:165] Memory required for data: 8191099008
I0322 01:23:02.678177 10235 layer_factory.hpp:77] Creating layer conv9_1_relu
I0322 01:23:02.678189 10235 net.cpp:100] Creating Layer conv9_1_relu
I0322 01:23:02.678195 10235 net.cpp:434] conv9_1_relu <- conv9_1
I0322 01:23:02.678205 10235 net.cpp:395] conv9_1_relu -> conv9_1 (in-place)
I0322 01:23:02.678367 10235 net.cpp:150] Setting up conv9_1_relu
I0322 01:23:02.678377 10235 net.cpp:157] Top shape: 32 128 3 3 (36864)
I0322 01:23:02.678381 10235 net.cpp:165] Memory required for data: 8191246464
I0322 01:23:02.678386 10235 layer_factory.hpp:77] Creating layer conv9_2
I0322 01:23:02.678401 10235 net.cpp:100] Creating Layer conv9_2
I0322 01:23:02.678407 10235 net.cpp:434] conv9_2 <- conv9_1
I0322 01:23:02.678417 10235 net.cpp:408] conv9_2 -> conv9_2
I0322 01:23:02.682299 10235 net.cpp:150] Setting up conv9_2
I0322 01:23:02.682314 10235 net.cpp:157] Top shape: 32 256 1 1 (8192)
I0322 01:23:02.682319 10235 net.cpp:165] Memory required for data: 8191279232
I0322 01:23:02.682341 10235 layer_factory.hpp:77] Creating layer conv9_2_relu
I0322 01:23:02.682350 10235 net.cpp:100] Creating Layer conv9_2_relu
I0322 01:23:02.682358 10235 net.cpp:434] conv9_2_relu <- conv9_2
I0322 01:23:02.682374 10235 net.cpp:395] conv9_2_relu -> conv9_2 (in-place)
I0322 01:23:02.682544 10235 net.cpp:150] Setting up conv9_2_relu
I0322 01:23:02.682554 10235 net.cpp:157] Top shape: 32 256 1 1 (8192)
I0322 01:23:02.682559 10235 net.cpp:165] Memory required for data: 8191312000
I0322 01:23:02.682564 10235 layer_factory.hpp:77] Creating layer conv9_2_conv9_2_relu_0_split
I0322 01:23:02.682575 10235 net.cpp:100] Creating Layer conv9_2_conv9_2_relu_0_split
I0322 01:23:02.682581 10235 net.cpp:434] conv9_2_conv9_2_relu_0_split <- conv9_2
I0322 01:23:02.682590 10235 net.cpp:408] conv9_2_conv9_2_relu_0_split -> conv9_2_conv9_2_relu_0_split_0
I0322 01:23:02.682601 10235 net.cpp:408] conv9_2_conv9_2_relu_0_split -> conv9_2_conv9_2_relu_0_split_1
I0322 01:23:02.682610 10235 net.cpp:408] conv9_2_conv9_2_relu_0_split -> conv9_2_conv9_2_relu_0_split_2
I0322 01:23:02.682678 10235 net.cpp:150] Setting up conv9_2_conv9_2_relu_0_split
I0322 01:23:02.682687 10235 net.cpp:157] Top shape: 32 256 1 1 (8192)
I0322 01:23:02.682693 10235 net.cpp:157] Top shape: 32 256 1 1 (8192)
I0322 01:23:02.682703 10235 net.cpp:157] Top shape: 32 256 1 1 (8192)
I0322 01:23:02.682709 10235 net.cpp:165] Memory required for data: 8191410304
I0322 01:23:02.682714 10235 layer_factory.hpp:77] Creating layer conv4_3_norm
I0322 01:23:02.682725 10235 net.cpp:100] Creating Layer conv4_3_norm
I0322 01:23:02.682734 10235 net.cpp:434] conv4_3_norm <- conv4_3_relu4_3_0_split_1
I0322 01:23:02.682744 10235 net.cpp:408] conv4_3_norm -> conv4_3_norm
I0322 01:23:02.682890 10235 net.cpp:150] Setting up conv4_3_norm
I0322 01:23:02.682898 10235 net.cpp:157] Top shape: 32 512 38 38 (23658496)
I0322 01:23:02.682904 10235 net.cpp:165] Memory required for data: 8286044288
I0322 01:23:02.682909 10235 layer_factory.hpp:77] Creating layer conv4_3_norm_conv4_3_norm_0_split
I0322 01:23:02.682924 10235 net.cpp:100] Creating Layer conv4_3_norm_conv4_3_norm_0_split
I0322 01:23:02.682931 10235 net.cpp:434] conv4_3_norm_conv4_3_norm_0_split <- conv4_3_norm
I0322 01:23:02.682940 10235 net.cpp:408] conv4_3_norm_conv4_3_norm_0_split -> conv4_3_norm_conv4_3_norm_0_split_0
I0322 01:23:02.682950 10235 net.cpp:408] conv4_3_norm_conv4_3_norm_0_split -> conv4_3_norm_conv4_3_norm_0_split_1
I0322 01:23:02.682960 10235 net.cpp:408] conv4_3_norm_conv4_3_norm_0_split -> conv4_3_norm_conv4_3_norm_0_split_2
I0322 01:23:02.683006 10235 net.cpp:150] Setting up conv4_3_norm_conv4_3_norm_0_split
I0322 01:23:02.683012 10235 net.cpp:157] Top shape: 32 512 38 38 (23658496)
I0322 01:23:02.683018 10235 net.cpp:157] Top shape: 32 512 38 38 (23658496)
I0322 01:23:02.683024 10235 net.cpp:157] Top shape: 32 512 38 38 (23658496)
I0322 01:23:02.683032 10235 net.cpp:165] Memory required for data: 8569946240
I0322 01:23:02.683037 10235 layer_factory.hpp:77] Creating layer conv4_3_norm_mbox_loc
I0322 01:23:02.683049 10235 net.cpp:100] Creating Layer conv4_3_norm_mbox_loc
I0322 01:23:02.683056 10235 net.cpp:434] conv4_3_norm_mbox_loc <- conv4_3_norm_conv4_3_norm_0_split_0
I0322 01:23:02.683066 10235 net.cpp:408] conv4_3_norm_mbox_loc -> conv4_3_norm_mbox_loc
I0322 01:23:02.685066 10235 net.cpp:150] Setting up conv4_3_norm_mbox_loc
I0322 01:23:02.685079 10235 net.cpp:157] Top shape: 32 16 38 38 (739328)
I0322 01:23:02.685084 10235 net.cpp:165] Memory required for data: 8572903552
I0322 01:23:02.685094 10235 layer_factory.hpp:77] Creating layer conv4_3_norm_mbox_loc_perm
I0322 01:23:02.685109 10235 net.cpp:100] Creating Layer conv4_3_norm_mbox_loc_perm
I0322 01:23:02.685117 10235 net.cpp:434] conv4_3_norm_mbox_loc_perm <- conv4_3_norm_mbox_loc
I0322 01:23:02.685125 10235 net.cpp:408] conv4_3_norm_mbox_loc_perm -> conv4_3_norm_mbox_loc_perm
I0322 01:23:02.685227 10235 net.cpp:150] Setting up conv4_3_norm_mbox_loc_perm
I0322 01:23:02.685235 10235 net.cpp:157] Top shape: 32 38 38 16 (739328)
I0322 01:23:02.685250 10235 net.cpp:165] Memory required for data: 8575860864
I0322 01:23:02.685256 10235 layer_factory.hpp:77] Creating layer conv4_3_norm_mbox_loc_flat
I0322 01:23:02.685267 10235 net.cpp:100] Creating Layer conv4_3_norm_mbox_loc_flat
I0322 01:23:02.685274 10235 net.cpp:434] conv4_3_norm_mbox_loc_flat <- conv4_3_norm_mbox_loc_perm
I0322 01:23:02.685281 10235 net.cpp:408] conv4_3_norm_mbox_loc_flat -> conv4_3_norm_mbox_loc_flat
I0322 01:23:02.685315 10235 net.cpp:150] Setting up conv4_3_norm_mbox_loc_flat
I0322 01:23:02.685324 10235 net.cpp:157] Top shape: 32 23104 (739328)
I0322 01:23:02.685328 10235 net.cpp:165] Memory required for data: 8578818176
I0322 01:23:02.685333 10235 layer_factory.hpp:77] Creating layer conv4_3_norm_mbox_conf
I0322 01:23:02.685351 10235 net.cpp:100] Creating Layer conv4_3_norm_mbox_conf
I0322 01:23:02.685359 10235 net.cpp:434] conv4_3_norm_mbox_conf <- conv4_3_norm_conv4_3_norm_0_split_1
I0322 01:23:02.685369 10235 net.cpp:408] conv4_3_norm_mbox_conf -> conv4_3_norm_mbox_conf
I0322 01:23:02.688014 10235 net.cpp:150] Setting up conv4_3_norm_mbox_conf
I0322 01:23:02.688030 10235 net.cpp:157] Top shape: 32 44 38 38 (2033152)
I0322 01:23:02.688035 10235 net.cpp:165] Memory required for data: 8586950784
I0322 01:23:02.688055 10235 layer_factory.hpp:77] Creating layer conv4_3_norm_mbox_conf_perm
I0322 01:23:02.688066 10235 net.cpp:100] Creating Layer conv4_3_norm_mbox_conf_perm
I0322 01:23:02.688072 10235 net.cpp:434] conv4_3_norm_mbox_conf_perm <- conv4_3_norm_mbox_conf
I0322 01:23:02.688081 10235 net.cpp:408] conv4_3_norm_mbox_conf_perm -> conv4_3_norm_mbox_conf_perm
I0322 01:23:02.688185 10235 net.cpp:150] Setting up conv4_3_norm_mbox_conf_perm
I0322 01:23:02.688194 10235 net.cpp:157] Top shape: 32 38 38 44 (2033152)
I0322 01:23:02.688199 10235 net.cpp:165] Memory required for data: 8595083392
I0322 01:23:02.688205 10235 layer_factory.hpp:77] Creating layer conv4_3_norm_mbox_conf_flat
I0322 01:23:02.688213 10235 net.cpp:100] Creating Layer conv4_3_norm_mbox_conf_flat
I0322 01:23:02.688221 10235 net.cpp:434] conv4_3_norm_mbox_conf_flat <- conv4_3_norm_mbox_conf_perm
I0322 01:23:02.688230 10235 net.cpp:408] conv4_3_norm_mbox_conf_flat -> conv4_3_norm_mbox_conf_flat
I0322 01:23:02.688263 10235 net.cpp:150] Setting up conv4_3_norm_mbox_conf_flat
I0322 01:23:02.688271 10235 net.cpp:157] Top shape: 32 63536 (2033152)
I0322 01:23:02.688275 10235 net.cpp:165] Memory required for data: 8603216000
I0322 01:23:02.688282 10235 layer_factory.hpp:77] Creating layer conv4_3_norm_mbox_priorbox
I0322 01:23:02.688292 10235 net.cpp:100] Creating Layer conv4_3_norm_mbox_priorbox
I0322 01:23:02.688297 10235 net.cpp:434] conv4_3_norm_mbox_priorbox <- conv4_3_norm_conv4_3_norm_0_split_2
I0322 01:23:02.688304 10235 net.cpp:434] conv4_3_norm_mbox_priorbox <- data_data_0_split_1
I0322 01:23:02.688316 10235 net.cpp:408] conv4_3_norm_mbox_priorbox -> conv4_3_norm_mbox_priorbox
I0322 01:23:02.688349 10235 net.cpp:150] Setting up conv4_3_norm_mbox_priorbox
I0322 01:23:02.688356 10235 net.cpp:157] Top shape: 1 2 23104 (46208)
I0322 01:23:02.688361 10235 net.cpp:165] Memory required for data: 8603400832
I0322 01:23:02.688367 10235 layer_factory.hpp:77] Creating layer fc7_mbox_loc
I0322 01:23:02.688380 10235 net.cpp:100] Creating Layer fc7_mbox_loc
I0322 01:23:02.688385 10235 net.cpp:434] fc7_mbox_loc <- fc7_relu7_0_split_1
I0322 01:23:02.688395 10235 net.cpp:408] fc7_mbox_loc -> fc7_mbox_loc
I0322 01:23:02.691148 10235 net.cpp:150] Setting up fc7_mbox_loc
I0322 01:23:02.691162 10235 net.cpp:157] Top shape: 32 24 19 19 (277248)
I0322 01:23:02.691169 10235 net.cpp:165] Memory required for data: 8604509824
I0322 01:23:02.691179 10235 layer_factory.hpp:77] Creating layer fc7_mbox_loc_perm
I0322 01:23:02.691190 10235 net.cpp:100] Creating Layer fc7_mbox_loc_perm
I0322 01:23:02.691197 10235 net.cpp:434] fc7_mbox_loc_perm <- fc7_mbox_loc
I0322 01:23:02.691207 10235 net.cpp:408] fc7_mbox_loc_perm -> fc7_mbox_loc_perm
I0322 01:23:02.691308 10235 net.cpp:150] Setting up fc7_mbox_loc_perm
I0322 01:23:02.691318 10235 net.cpp:157] Top shape: 32 19 19 24 (277248)
I0322 01:23:02.691334 10235 net.cpp:165] Memory required for data: 8605618816
I0322 01:23:02.691339 10235 layer_factory.hpp:77] Creating layer fc7_mbox_loc_flat
I0322 01:23:02.691346 10235 net.cpp:100] Creating Layer fc7_mbox_loc_flat
I0322 01:23:02.691352 10235 net.cpp:434] fc7_mbox_loc_flat <- fc7_mbox_loc_perm
I0322 01:23:02.691362 10235 net.cpp:408] fc7_mbox_loc_flat -> fc7_mbox_loc_flat
I0322 01:23:02.691390 10235 net.cpp:150] Setting up fc7_mbox_loc_flat
I0322 01:23:02.691398 10235 net.cpp:157] Top shape: 32 8664 (277248)
I0322 01:23:02.691403 10235 net.cpp:165] Memory required for data: 8606727808
I0322 01:23:02.691409 10235 layer_factory.hpp:77] Creating layer fc7_mbox_conf
I0322 01:23:02.691426 10235 net.cpp:100] Creating Layer fc7_mbox_conf
I0322 01:23:02.691433 10235 net.cpp:434] fc7_mbox_conf <- fc7_relu7_0_split_2
I0322 01:23:02.691442 10235 net.cpp:408] fc7_mbox_conf -> fc7_mbox_conf
I0322 01:23:02.696693 10235 net.cpp:150] Setting up fc7_mbox_conf
I0322 01:23:02.696713 10235 net.cpp:157] Top shape: 32 66 19 19 (762432)
I0322 01:23:02.696719 10235 net.cpp:165] Memory required for data: 8609777536
I0322 01:23:02.696730 10235 layer_factory.hpp:77] Creating layer fc7_mbox_conf_perm
I0322 01:23:02.696741 10235 net.cpp:100] Creating Layer fc7_mbox_conf_perm
I0322 01:23:02.696748 10235 net.cpp:434] fc7_mbox_conf_perm <- fc7_mbox_conf
I0322 01:23:02.696759 10235 net.cpp:408] fc7_mbox_conf_perm -> fc7_mbox_conf_perm
I0322 01:23:02.696864 10235 net.cpp:150] Setting up fc7_mbox_conf_perm
I0322 01:23:02.696874 10235 net.cpp:157] Top shape: 32 19 19 66 (762432)
I0322 01:23:02.696879 10235 net.cpp:165] Memory required for data: 8612827264
I0322 01:23:02.696883 10235 layer_factory.hpp:77] Creating layer fc7_mbox_conf_flat
I0322 01:23:02.696892 10235 net.cpp:100] Creating Layer fc7_mbox_conf_flat
I0322 01:23:02.696900 10235 net.cpp:434] fc7_mbox_conf_flat <- fc7_mbox_conf_perm
I0322 01:23:02.696908 10235 net.cpp:408] fc7_mbox_conf_flat -> fc7_mbox_conf_flat
I0322 01:23:02.696938 10235 net.cpp:150] Setting up fc7_mbox_conf_flat
I0322 01:23:02.696946 10235 net.cpp:157] Top shape: 32 23826 (762432)
I0322 01:23:02.696950 10235 net.cpp:165] Memory required for data: 8615876992
I0322 01:23:02.696955 10235 layer_factory.hpp:77] Creating layer fc7_mbox_priorbox
I0322 01:23:02.696966 10235 net.cpp:100] Creating Layer fc7_mbox_priorbox
I0322 01:23:02.696975 10235 net.cpp:434] fc7_mbox_priorbox <- fc7_relu7_0_split_3
I0322 01:23:02.696981 10235 net.cpp:434] fc7_mbox_priorbox <- data_data_0_split_2
I0322 01:23:02.696991 10235 net.cpp:408] fc7_mbox_priorbox -> fc7_mbox_priorbox
I0322 01:23:02.697026 10235 net.cpp:150] Setting up fc7_mbox_priorbox
I0322 01:23:02.697033 10235 net.cpp:157] Top shape: 1 2 8664 (17328)
I0322 01:23:02.697039 10235 net.cpp:165] Memory required for data: 8615946304
I0322 01:23:02.697044 10235 layer_factory.hpp:77] Creating layer conv6_2_mbox_loc
I0322 01:23:02.697059 10235 net.cpp:100] Creating Layer conv6_2_mbox_loc
I0322 01:23:02.697065 10235 net.cpp:434] conv6_2_mbox_loc <- conv6_2_conv6_2_relu_0_split_1
I0322 01:23:02.697075 10235 net.cpp:408] conv6_2_mbox_loc -> conv6_2_mbox_loc
I0322 01:23:02.699443 10235 net.cpp:150] Setting up conv6_2_mbox_loc
I0322 01:23:02.699457 10235 net.cpp:157] Top shape: 32 24 10 10 (76800)
I0322 01:23:02.699463 10235 net.cpp:165] Memory required for data: 8616253504
I0322 01:23:02.699472 10235 layer_factory.hpp:77] Creating layer conv6_2_mbox_loc_perm
I0322 01:23:02.699483 10235 net.cpp:100] Creating Layer conv6_2_mbox_loc_perm
I0322 01:23:02.699491 10235 net.cpp:434] conv6_2_mbox_loc_perm <- conv6_2_mbox_loc
I0322 01:23:02.699501 10235 net.cpp:408] conv6_2_mbox_loc_perm -> conv6_2_mbox_loc_perm
I0322 01:23:02.699607 10235 net.cpp:150] Setting up conv6_2_mbox_loc_perm
I0322 01:23:02.699616 10235 net.cpp:157] Top shape: 32 10 10 24 (76800)
I0322 01:23:02.699620 10235 net.cpp:165] Memory required for data: 8616560704
I0322 01:23:02.699626 10235 layer_factory.hpp:77] Creating layer conv6_2_mbox_loc_flat
I0322 01:23:02.699633 10235 net.cpp:100] Creating Layer conv6_2_mbox_loc_flat
I0322 01:23:02.699647 10235 net.cpp:434] conv6_2_mbox_loc_flat <- conv6_2_mbox_loc_perm
I0322 01:23:02.699657 10235 net.cpp:408] conv6_2_mbox_loc_flat -> conv6_2_mbox_loc_flat
I0322 01:23:02.699690 10235 net.cpp:150] Setting up conv6_2_mbox_loc_flat
I0322 01:23:02.699698 10235 net.cpp:157] Top shape: 32 2400 (76800)
I0322 01:23:02.699702 10235 net.cpp:165] Memory required for data: 8616867904
I0322 01:23:02.699707 10235 layer_factory.hpp:77] Creating layer conv6_2_mbox_conf
I0322 01:23:02.699721 10235 net.cpp:100] Creating Layer conv6_2_mbox_conf
I0322 01:23:02.699729 10235 net.cpp:434] conv6_2_mbox_conf <- conv6_2_conv6_2_relu_0_split_2
I0322 01:23:02.699738 10235 net.cpp:408] conv6_2_mbox_conf -> conv6_2_mbox_conf
I0322 01:23:02.703595 10235 net.cpp:150] Setting up conv6_2_mbox_conf
I0322 01:23:02.703610 10235 net.cpp:157] Top shape: 32 66 10 10 (211200)
I0322 01:23:02.703619 10235 net.cpp:165] Memory required for data: 8617712704
I0322 01:23:02.703629 10235 layer_factory.hpp:77] Creating layer conv6_2_mbox_conf_perm
I0322 01:23:02.703637 10235 net.cpp:100] Creating Layer conv6_2_mbox_conf_perm
I0322 01:23:02.703645 10235 net.cpp:434] conv6_2_mbox_conf_perm <- conv6_2_mbox_conf
I0322 01:23:02.703656 10235 net.cpp:408] conv6_2_mbox_conf_perm -> conv6_2_mbox_conf_perm
I0322 01:23:02.703760 10235 net.cpp:150] Setting up conv6_2_mbox_conf_perm
I0322 01:23:02.703769 10235 net.cpp:157] Top shape: 32 10 10 66 (211200)
I0322 01:23:02.703775 10235 net.cpp:165] Memory required for data: 8618557504
I0322 01:23:02.703780 10235 layer_factory.hpp:77] Creating layer conv6_2_mbox_conf_flat
I0322 01:23:02.703789 10235 net.cpp:100] Creating Layer conv6_2_mbox_conf_flat
I0322 01:23:02.703795 10235 net.cpp:434] conv6_2_mbox_conf_flat <- conv6_2_mbox_conf_perm
I0322 01:23:02.703806 10235 net.cpp:408] conv6_2_mbox_conf_flat -> conv6_2_mbox_conf_flat
I0322 01:23:02.703835 10235 net.cpp:150] Setting up conv6_2_mbox_conf_flat
I0322 01:23:02.703843 10235 net.cpp:157] Top shape: 32 6600 (211200)
I0322 01:23:02.703847 10235 net.cpp:165] Memory required for data: 8619402304
I0322 01:23:02.703853 10235 layer_factory.hpp:77] Creating layer conv6_2_mbox_priorbox
I0322 01:23:02.703863 10235 net.cpp:100] Creating Layer conv6_2_mbox_priorbox
I0322 01:23:02.703869 10235 net.cpp:434] conv6_2_mbox_priorbox <- conv6_2_conv6_2_relu_0_split_3
I0322 01:23:02.703876 10235 net.cpp:434] conv6_2_mbox_priorbox <- data_data_0_split_3
I0322 01:23:02.703886 10235 net.cpp:408] conv6_2_mbox_priorbox -> conv6_2_mbox_priorbox
I0322 01:23:02.703917 10235 net.cpp:150] Setting up conv6_2_mbox_priorbox
I0322 01:23:02.703924 10235 net.cpp:157] Top shape: 1 2 2400 (4800)
I0322 01:23:02.703928 10235 net.cpp:165] Memory required for data: 8619421504
I0322 01:23:02.703934 10235 layer_factory.hpp:77] Creating layer conv7_2_mbox_loc
I0322 01:23:02.703948 10235 net.cpp:100] Creating Layer conv7_2_mbox_loc
I0322 01:23:02.703955 10235 net.cpp:434] conv7_2_mbox_loc <- conv7_2_conv7_2_relu_0_split_1
I0322 01:23:02.703964 10235 net.cpp:408] conv7_2_mbox_loc -> conv7_2_mbox_loc
I0322 01:23:02.705587 10235 net.cpp:150] Setting up conv7_2_mbox_loc
I0322 01:23:02.705606 10235 net.cpp:157] Top shape: 32 24 5 5 (19200)
I0322 01:23:02.705626 10235 net.cpp:165] Memory required for data: 8619498304
I0322 01:23:02.705636 10235 layer_factory.hpp:77] Creating layer conv7_2_mbox_loc_perm
I0322 01:23:02.705646 10235 net.cpp:100] Creating Layer conv7_2_mbox_loc_perm
I0322 01:23:02.705651 10235 net.cpp:434] conv7_2_mbox_loc_perm <- conv7_2_mbox_loc
I0322 01:23:02.705662 10235 net.cpp:408] conv7_2_mbox_loc_perm -> conv7_2_mbox_loc_perm
I0322 01:23:02.705775 10235 net.cpp:150] Setting up conv7_2_mbox_loc_perm
I0322 01:23:02.705786 10235 net.cpp:157] Top shape: 32 5 5 24 (19200)
I0322 01:23:02.705791 10235 net.cpp:165] Memory required for data: 8619575104
I0322 01:23:02.705796 10235 layer_factory.hpp:77] Creating layer conv7_2_mbox_loc_flat
I0322 01:23:02.705804 10235 net.cpp:100] Creating Layer conv7_2_mbox_loc_flat
I0322 01:23:02.705811 10235 net.cpp:434] conv7_2_mbox_loc_flat <- conv7_2_mbox_loc_perm
I0322 01:23:02.705830 10235 net.cpp:408] conv7_2_mbox_loc_flat -> conv7_2_mbox_loc_flat
I0322 01:23:02.705862 10235 net.cpp:150] Setting up conv7_2_mbox_loc_flat
I0322 01:23:02.705868 10235 net.cpp:157] Top shape: 32 600 (19200)
I0322 01:23:02.705873 10235 net.cpp:165] Memory required for data: 8619651904
I0322 01:23:02.705878 10235 layer_factory.hpp:77] Creating layer conv7_2_mbox_conf
I0322 01:23:02.705893 10235 net.cpp:100] Creating Layer conv7_2_mbox_conf
I0322 01:23:02.705899 10235 net.cpp:434] conv7_2_mbox_conf <- conv7_2_conv7_2_relu_0_split_2
I0322 01:23:02.705909 10235 net.cpp:408] conv7_2_mbox_conf -> conv7_2_mbox_conf
I0322 01:23:02.707908 10235 net.cpp:150] Setting up conv7_2_mbox_conf
I0322 01:23:02.707921 10235 net.cpp:157] Top shape: 32 66 5 5 (52800)
I0322 01:23:02.707926 10235 net.cpp:165] Memory required for data: 8619863104
I0322 01:23:02.707952 10235 layer_factory.hpp:77] Creating layer conv7_2_mbox_conf_perm
I0322 01:23:02.707960 10235 net.cpp:100] Creating Layer conv7_2_mbox_conf_perm
I0322 01:23:02.707967 10235 net.cpp:434] conv7_2_mbox_conf_perm <- conv7_2_mbox_conf
I0322 01:23:02.707976 10235 net.cpp:408] conv7_2_mbox_conf_perm -> conv7_2_mbox_conf_perm
I0322 01:23:02.708078 10235 net.cpp:150] Setting up conv7_2_mbox_conf_perm
I0322 01:23:02.708086 10235 net.cpp:157] Top shape: 32 5 5 66 (52800)
I0322 01:23:02.708091 10235 net.cpp:165] Memory required for data: 8620074304
I0322 01:23:02.708097 10235 layer_factory.hpp:77] Creating layer conv7_2_mbox_conf_flat
I0322 01:23:02.708106 10235 net.cpp:100] Creating Layer conv7_2_mbox_conf_flat
I0322 01:23:02.708112 10235 net.cpp:434] conv7_2_mbox_conf_flat <- conv7_2_mbox_conf_perm
I0322 01:23:02.708122 10235 net.cpp:408] conv7_2_mbox_conf_flat -> conv7_2_mbox_conf_flat
I0322 01:23:02.708153 10235 net.cpp:150] Setting up conv7_2_mbox_conf_flat
I0322 01:23:02.708161 10235 net.cpp:157] Top shape: 32 1650 (52800)
I0322 01:23:02.708165 10235 net.cpp:165] Memory required for data: 8620285504
I0322 01:23:02.708169 10235 layer_factory.hpp:77] Creating layer conv7_2_mbox_priorbox
I0322 01:23:02.708178 10235 net.cpp:100] Creating Layer conv7_2_mbox_priorbox
I0322 01:23:02.708187 10235 net.cpp:434] conv7_2_mbox_priorbox <- conv7_2_conv7_2_relu_0_split_3
I0322 01:23:02.708194 10235 net.cpp:434] conv7_2_mbox_priorbox <- data_data_0_split_4
I0322 01:23:02.708204 10235 net.cpp:408] conv7_2_mbox_priorbox -> conv7_2_mbox_priorbox
I0322 01:23:02.708235 10235 net.cpp:150] Setting up conv7_2_mbox_priorbox
I0322 01:23:02.708243 10235 net.cpp:157] Top shape: 1 2 600 (1200)
I0322 01:23:02.708247 10235 net.cpp:165] Memory required for data: 8620290304
I0322 01:23:02.708253 10235 layer_factory.hpp:77] Creating layer conv8_2_mbox_loc
I0322 01:23:02.708266 10235 net.cpp:100] Creating Layer conv8_2_mbox_loc
I0322 01:23:02.708274 10235 net.cpp:434] conv8_2_mbox_loc <- conv8_2_conv8_2_relu_0_split_1
I0322 01:23:02.708286 10235 net.cpp:408] conv8_2_mbox_loc -> conv8_2_mbox_loc
I0322 01:23:02.710311 10235 net.cpp:150] Setting up conv8_2_mbox_loc
I0322 01:23:02.710325 10235 net.cpp:157] Top shape: 32 16 3 3 (4608)
I0322 01:23:02.710331 10235 net.cpp:165] Memory required for data: 8620308736
I0322 01:23:02.710340 10235 layer_factory.hpp:77] Creating layer conv8_2_mbox_loc_perm
I0322 01:23:02.710351 10235 net.cpp:100] Creating Layer conv8_2_mbox_loc_perm
I0322 01:23:02.710358 10235 net.cpp:434] conv8_2_mbox_loc_perm <- conv8_2_mbox_loc
I0322 01:23:02.710369 10235 net.cpp:408] conv8_2_mbox_loc_perm -> conv8_2_mbox_loc_perm
I0322 01:23:02.710512 10235 net.cpp:150] Setting up conv8_2_mbox_loc_perm
I0322 01:23:02.710522 10235 net.cpp:157] Top shape: 32 3 3 16 (4608)
I0322 01:23:02.710527 10235 net.cpp:165] Memory required for data: 8620327168
I0322 01:23:02.710533 10235 layer_factory.hpp:77] Creating layer conv8_2_mbox_loc_flat
I0322 01:23:02.710543 10235 net.cpp:100] Creating Layer conv8_2_mbox_loc_flat
I0322 01:23:02.710549 10235 net.cpp:434] conv8_2_mbox_loc_flat <- conv8_2_mbox_loc_perm
I0322 01:23:02.710556 10235 net.cpp:408] conv8_2_mbox_loc_flat -> conv8_2_mbox_loc_flat
I0322 01:23:02.710599 10235 net.cpp:150] Setting up conv8_2_mbox_loc_flat
I0322 01:23:02.710608 10235 net.cpp:157] Top shape: 32 144 (4608)
I0322 01:23:02.710613 10235 net.cpp:165] Memory required for data: 8620345600
I0322 01:23:02.710616 10235 layer_factory.hpp:77] Creating layer conv8_2_mbox_conf
I0322 01:23:02.710654 10235 net.cpp:100] Creating Layer conv8_2_mbox_conf
I0322 01:23:02.710661 10235 net.cpp:434] conv8_2_mbox_conf <- conv8_2_conv8_2_relu_0_split_2
I0322 01:23:02.710669 10235 net.cpp:408] conv8_2_mbox_conf -> conv8_2_mbox_conf
I0322 01:23:02.712471 10235 net.cpp:150] Setting up conv8_2_mbox_conf
I0322 01:23:02.712487 10235 net.cpp:157] Top shape: 32 44 3 3 (12672)
I0322 01:23:02.712492 10235 net.cpp:165] Memory required for data: 8620396288
I0322 01:23:02.712502 10235 layer_factory.hpp:77] Creating layer conv8_2_mbox_conf_perm
I0322 01:23:02.712510 10235 net.cpp:100] Creating Layer conv8_2_mbox_conf_perm
I0322 01:23:02.712519 10235 net.cpp:434] conv8_2_mbox_conf_perm <- conv8_2_mbox_conf
I0322 01:23:02.712529 10235 net.cpp:408] conv8_2_mbox_conf_perm -> conv8_2_mbox_conf_perm
I0322 01:23:02.712630 10235 net.cpp:150] Setting up conv8_2_mbox_conf_perm
I0322 01:23:02.712640 10235 net.cpp:157] Top shape: 32 3 3 44 (12672)
I0322 01:23:02.712644 10235 net.cpp:165] Memory required for data: 8620446976
I0322 01:23:02.712649 10235 layer_factory.hpp:77] Creating layer conv8_2_mbox_conf_flat
I0322 01:23:02.712657 10235 net.cpp:100] Creating Layer conv8_2_mbox_conf_flat
I0322 01:23:02.712663 10235 net.cpp:434] conv8_2_mbox_conf_flat <- conv8_2_mbox_conf_perm
I0322 01:23:02.712673 10235 net.cpp:408] conv8_2_mbox_conf_flat -> conv8_2_mbox_conf_flat
I0322 01:23:02.712703 10235 net.cpp:150] Setting up conv8_2_mbox_conf_flat
I0322 01:23:02.712711 10235 net.cpp:157] Top shape: 32 396 (12672)
I0322 01:23:02.712715 10235 net.cpp:165] Memory required for data: 8620497664
I0322 01:23:02.712720 10235 layer_factory.hpp:77] Creating layer conv8_2_mbox_priorbox
I0322 01:23:02.712730 10235 net.cpp:100] Creating Layer conv8_2_mbox_priorbox
I0322 01:23:02.712738 10235 net.cpp:434] conv8_2_mbox_priorbox <- conv8_2_conv8_2_relu_0_split_3
I0322 01:23:02.712743 10235 net.cpp:434] conv8_2_mbox_priorbox <- data_data_0_split_5
I0322 01:23:02.712754 10235 net.cpp:408] conv8_2_mbox_priorbox -> conv8_2_mbox_priorbox
I0322 01:23:02.712786 10235 net.cpp:150] Setting up conv8_2_mbox_priorbox
I0322 01:23:02.712793 10235 net.cpp:157] Top shape: 1 2 144 (288)
I0322 01:23:02.712797 10235 net.cpp:165] Memory required for data: 8620498816
I0322 01:23:02.712803 10235 layer_factory.hpp:77] Creating layer conv9_2_mbox_loc
I0322 01:23:02.712817 10235 net.cpp:100] Creating Layer conv9_2_mbox_loc
I0322 01:23:02.712823 10235 net.cpp:434] conv9_2_mbox_loc <- conv9_2_conv9_2_relu_0_split_0
I0322 01:23:02.712831 10235 net.cpp:408] conv9_2_mbox_loc -> conv9_2_mbox_loc
I0322 01:23:02.714244 10235 net.cpp:150] Setting up conv9_2_mbox_loc
I0322 01:23:02.714257 10235 net.cpp:157] Top shape: 32 16 1 1 (512)
I0322 01:23:02.714262 10235 net.cpp:165] Memory required for data: 8620500864
I0322 01:23:02.714272 10235 layer_factory.hpp:77] Creating layer conv9_2_mbox_loc_perm
I0322 01:23:02.714282 10235 net.cpp:100] Creating Layer conv9_2_mbox_loc_perm
I0322 01:23:02.714289 10235 net.cpp:434] conv9_2_mbox_loc_perm <- conv9_2_mbox_loc
I0322 01:23:02.714298 10235 net.cpp:408] conv9_2_mbox_loc_perm -> conv9_2_mbox_loc_perm
I0322 01:23:02.714401 10235 net.cpp:150] Setting up conv9_2_mbox_loc_perm
I0322 01:23:02.714411 10235 net.cpp:157] Top shape: 32 1 1 16 (512)
I0322 01:23:02.714414 10235 net.cpp:165] Memory required for data: 8620502912
I0322 01:23:02.714419 10235 layer_factory.hpp:77] Creating layer conv9_2_mbox_loc_flat
I0322 01:23:02.714427 10235 net.cpp:100] Creating Layer conv9_2_mbox_loc_flat
I0322 01:23:02.714434 10235 net.cpp:434] conv9_2_mbox_loc_flat <- conv9_2_mbox_loc_perm
I0322 01:23:02.714443 10235 net.cpp:408] conv9_2_mbox_loc_flat -> conv9_2_mbox_loc_flat
I0322 01:23:02.714473 10235 net.cpp:150] Setting up conv9_2_mbox_loc_flat
I0322 01:23:02.714489 10235 net.cpp:157] Top shape: 32 16 (512)
I0322 01:23:02.714495 10235 net.cpp:165] Memory required for data: 8620504960
I0322 01:23:02.714500 10235 layer_factory.hpp:77] Creating layer conv9_2_mbox_conf
I0322 01:23:02.714515 10235 net.cpp:100] Creating Layer conv9_2_mbox_conf
I0322 01:23:02.714521 10235 net.cpp:434] conv9_2_mbox_conf <- conv9_2_conv9_2_relu_0_split_1
I0322 01:23:02.714532 10235 net.cpp:408] conv9_2_mbox_conf -> conv9_2_mbox_conf
I0322 01:23:02.717046 10235 net.cpp:150] Setting up conv9_2_mbox_conf
I0322 01:23:02.717063 10235 net.cpp:157] Top shape: 32 44 1 1 (1408)
I0322 01:23:02.717068 10235 net.cpp:165] Memory required for data: 8620510592
I0322 01:23:02.717078 10235 layer_factory.hpp:77] Creating layer conv9_2_mbox_conf_perm
I0322 01:23:02.717090 10235 net.cpp:100] Creating Layer conv9_2_mbox_conf_perm
I0322 01:23:02.717099 10235 net.cpp:434] conv9_2_mbox_conf_perm <- conv9_2_mbox_conf
I0322 01:23:02.717106 10235 net.cpp:408] conv9_2_mbox_conf_perm -> conv9_2_mbox_conf_perm
I0322 01:23:02.717212 10235 net.cpp:150] Setting up conv9_2_mbox_conf_perm
I0322 01:23:02.717221 10235 net.cpp:157] Top shape: 32 1 1 44 (1408)
I0322 01:23:02.717226 10235 net.cpp:165] Memory required for data: 8620516224
I0322 01:23:02.717231 10235 layer_factory.hpp:77] Creating layer conv9_2_mbox_conf_flat
I0322 01:23:02.717245 10235 net.cpp:100] Creating Layer conv9_2_mbox_conf_flat
I0322 01:23:02.717252 10235 net.cpp:434] conv9_2_mbox_conf_flat <- conv9_2_mbox_conf_perm
I0322 01:23:02.717258 10235 net.cpp:408] conv9_2_mbox_conf_flat -> conv9_2_mbox_conf_flat
I0322 01:23:02.717288 10235 net.cpp:150] Setting up conv9_2_mbox_conf_flat
I0322 01:23:02.717296 10235 net.cpp:157] Top shape: 32 44 (1408)
I0322 01:23:02.717300 10235 net.cpp:165] Memory required for data: 8620521856
I0322 01:23:02.717305 10235 layer_factory.hpp:77] Creating layer conv9_2_mbox_priorbox
I0322 01:23:02.717315 10235 net.cpp:100] Creating Layer conv9_2_mbox_priorbox
I0322 01:23:02.717324 10235 net.cpp:434] conv9_2_mbox_priorbox <- conv9_2_conv9_2_relu_0_split_2
I0322 01:23:02.717330 10235 net.cpp:434] conv9_2_mbox_priorbox <- data_data_0_split_6
I0322 01:23:02.717339 10235 net.cpp:408] conv9_2_mbox_priorbox -> conv9_2_mbox_priorbox
I0322 01:23:02.717375 10235 net.cpp:150] Setting up conv9_2_mbox_priorbox
I0322 01:23:02.717383 10235 net.cpp:157] Top shape: 1 2 16 (32)
I0322 01:23:02.717387 10235 net.cpp:165] Memory required for data: 8620521984
I0322 01:23:02.717392 10235 layer_factory.hpp:77] Creating layer mbox_loc
I0322 01:23:02.717404 10235 net.cpp:100] Creating Layer mbox_loc
I0322 01:23:02.717412 10235 net.cpp:434] mbox_loc <- conv4_3_norm_mbox_loc_flat
I0322 01:23:02.717419 10235 net.cpp:434] mbox_loc <- fc7_mbox_loc_flat
I0322 01:23:02.717427 10235 net.cpp:434] mbox_loc <- conv6_2_mbox_loc_flat
I0322 01:23:02.717470 10235 net.cpp:434] mbox_loc <- conv7_2_mbox_loc_flat
I0322 01:23:02.717476 10235 net.cpp:434] mbox_loc <- conv8_2_mbox_loc_flat
I0322 01:23:02.717483 10235 net.cpp:434] mbox_loc <- conv9_2_mbox_loc_flat
I0322 01:23:02.717490 10235 net.cpp:408] mbox_loc -> mbox_loc
I0322 01:23:02.717530 10235 net.cpp:150] Setting up mbox_loc
I0322 01:23:02.717540 10235 net.cpp:157] Top shape: 32 34928 (1117696)
I0322 01:23:02.717543 10235 net.cpp:165] Memory required for data: 8624992768
I0322 01:23:02.717550 10235 layer_factory.hpp:77] Creating layer mbox_conf
I0322 01:23:02.717558 10235 net.cpp:100] Creating Layer mbox_conf
I0322 01:23:02.717566 10235 net.cpp:434] mbox_conf <- conv4_3_norm_mbox_conf_flat
I0322 01:23:02.717572 10235 net.cpp:434] mbox_conf <- fc7_mbox_conf_flat
I0322 01:23:02.717591 10235 net.cpp:434] mbox_conf <- conv6_2_mbox_conf_flat
I0322 01:23:02.717597 10235 net.cpp:434] mbox_conf <- conv7_2_mbox_conf_flat
I0322 01:23:02.717604 10235 net.cpp:434] mbox_conf <- conv8_2_mbox_conf_flat
I0322 01:23:02.717610 10235 net.cpp:434] mbox_conf <- conv9_2_mbox_conf_flat
I0322 01:23:02.717622 10235 net.cpp:408] mbox_conf -> mbox_conf
I0322 01:23:02.717650 10235 net.cpp:150] Setting up mbox_conf
I0322 01:23:02.717659 10235 net.cpp:157] Top shape: 32 96052 (3073664)
I0322 01:23:02.717706 10235 net.cpp:165] Memory required for data: 8637287424
I0322 01:23:02.717712 10235 layer_factory.hpp:77] Creating layer mbox_priorbox
I0322 01:23:02.717721 10235 net.cpp:100] Creating Layer mbox_priorbox
I0322 01:23:02.717751 10235 net.cpp:434] mbox_priorbox <- conv4_3_norm_mbox_priorbox
I0322 01:23:02.717761 10235 net.cpp:434] mbox_priorbox <- fc7_mbox_priorbox
I0322 01:23:02.717767 10235 net.cpp:434] mbox_priorbox <- conv6_2_mbox_priorbox
I0322 01:23:02.717773 10235 net.cpp:434] mbox_priorbox <- conv7_2_mbox_priorbox
I0322 01:23:02.717780 10235 net.cpp:434] mbox_priorbox <- conv8_2_mbox_priorbox
I0322 01:23:02.717787 10235 net.cpp:434] mbox_priorbox <- conv9_2_mbox_priorbox
I0322 01:23:02.717797 10235 net.cpp:408] mbox_priorbox -> mbox_priorbox
I0322 01:23:02.717828 10235 net.cpp:150] Setting up mbox_priorbox
I0322 01:23:02.717839 10235 net.cpp:157] Top shape: 1 2 34928 (69856)
I0322 01:23:02.717844 10235 net.cpp:165] Memory required for data: 8637566848
I0322 01:23:02.717849 10235 layer_factory.hpp:77] Creating layer mbox_loss
I0322 01:23:02.717860 10235 net.cpp:100] Creating Layer mbox_loss
I0322 01:23:02.717865 10235 net.cpp:434] mbox_loss <- mbox_loc
I0322 01:23:02.717871 10235 net.cpp:434] mbox_loss <- mbox_conf
I0322 01:23:02.717877 10235 net.cpp:434] mbox_loss <- mbox_priorbox
…
  phase: TEST
}
layer {
  name: "data"
  type: "AnnotatedData"
  top: "data"
  top: "label"
  include {
    phase: TEST
  }
  transform_param {
    mean_value: 104
    mean_value: 117
    mean_value: 123
    resize_param {
      prob: 1
      resize_mode: WARP
      height: 300
      width: 300
      interp_mode: LINEAR
    }
  }
  data_param {
    source: "examples/NWPU_VHR/NWPU_VHR_test_lmdb"
    batch_size: 1
    backend: LMDB
  }
  annotated_data_param {
    batch_sampler {
    }
    label_map_file: "data/NWPU_VHR/labelmap_NWPU_VHR.prototxt"
  }
}
layer {
  name: "conv1_1"
  type: "Convolution"
  bottom: "data"
  top: "conv1_1"
  param {
    lr_mult: 1
    decay_mult: 1
  }
  param {
    lr_mult: 2
    decay_mult: 0
  }
  convolution_param {
    num_output: 64
    pad: 1
    kernel_size: 3
    weight_filler {
      type: "xavier"
    }
    bias_filler {
      type: "constant"
      value: 0
    }
  }
}
layer {
  name: "relu1_1"
  type: "ReLU"
  bottom: "conv1_1"
  top: "conv1_1"
}
layer {
  name: "conv1_2"
  type: "Convolution"
  bottom: "conv1_1"
  top: "conv1_2"
  param {
    lr_mult: 1
    decay_mult: 1
  }
  param {
    lr_mult: 2
    decay_mult: 0
  }
  convolution_param {
    num_output: 64
    pad: 1
    kernel_size: 3
    weight_filler {
      type: "xavier"
    }
    bias_filler {
      type: "constant"
      value: 0
    }
  }
}
layer {
  name: "relu1_2"
  type: "ReLU"
  bottom: "conv1_2"
  top: "conv1_2"
}
layer {
  name: "pool1"
  type: "Pooling"
  bottom: "conv1_2"
  top: "pool1"
  pooling_param {
    pool: MAX
    kernel_size: 2
    stride: 2
  }
}
layer {
  name: "conv2_1"
  type: "Convolution"
  bottom: "pool1"
  top: "conv2_1"
  param {
    lr_mult: 1
    decay_mult: 1
  }
  param {
    lr_mult: 2
    decay_mult: 0
  }
  convolution_param {
    num_output: 128
    pad: 1
    kernel_size: 3
    weight_filler {
      type: "xavier"
    }
    bias_filler {
      type: "constant"
      value: 0
    }
  }
}
layer {
  name: "relu2_1"
  type: "ReLU"
  bottom: "conv2_1"
  top: "conv2_1"
}
layer {
  name: "conv2_2"
  type: "Convolution"
  bottom: "conv2_1"
  top: "conv2_2"
  param {
    lr_mult: 1
    decay_mult: 1
  }
  param {
    lr_mult: 2
    decay_mult: 0
  }
  convolution_param {
    num_output: 128
    pad: 1
    kernel_size: 3
    weight_filler {
      type: "xavier"
    }
    bias_filler {
      type: "constant"
      value: 0
    }
  }
}
layer {
  name: "relu2_2"
  type: "ReLU"
  bottom: "conv2_2"
  top: "conv2_2"
}
layer {
  name: "pool2"
  type: "Pooling"
  bottom: "conv2_2"
  top: "pool2"
  pooling_param {
    pool: MAX
    kernel_size: 2
    stride: 2
  }
}
layer {
  name: "conv3_1"
  type: "Convolution"
  bottom: "pool2"
  top: "conv3_1"
  param {
    lr_mult: 1
    decay_mult: 1
  }
  param {
    lr_mult: 2
    decay_mult: 0
  }
  convolution_param {
    num_output: 256
    pad: 1
    kernel_size: 3
    weight_filler {
      type: "xavier"
    }
    bias_filler {
      type: "constant"
      value: 0
    }
  }
}
layer {
  name: "relu3_1"
  type: "ReLU"
  bottom: "conv3_1"
  top: "conv3_1"
}
layer {
  name: "conv3_2"
  type: "Convolution"
  bottom: "conv3_1"
  top: "conv3_2"
  param {
    lr_mult: 1
    decay_mult: 1
  }
  param {
    lr_mult: 2
    decay_mult: 0
  }
  convolution_param {
    num_output: 256
    pad: 1
    kernel_size: 3
    weight_filler {
      type: "xavier"
    }
    bias_filler {
      type: "constant"
      value: 0
    }
  }
}
layer {
  name: "relu3_2"
  type: "ReLU"
  bottom: "conv3_2"
  top: "conv3_2"
}
layer {
  name: "conv3_3"
  type: "Convolution"
  bottom: "conv3_2"
  top: "conv3_3"
  param {
    lr_mult: 1
    decay_mult: 1
  }
  param {
    lr_mult: 2
    decay_mult: 0
  }
  convolution_param {
    num_output: 256
    pad: 1
    kernel_size: 3
    weight_filler {
      type: "xavier"
    }
    bias_filler {
      type: "constant"
      value: 0
    }
  }
}
layer {
  name: "relu3_3"
  type: "ReLU"
  bottom: "conv3_3"
  top: "conv3_3"
}
layer {
  name: "pool3"
  type: "Pooling"
  bottom: "conv3_3"
  top: "pool3"
  pooling_param {
    pool: MAX
    kernel_size: 2
    stride: 2
  }
}
layer {
  name: "conv4_1_depthwise"
  type: "DepthwiseConvolution"
  bottom: "pool3"
  top: "conv4_1_3x3"
  param {
    lr_mult: 1
    decay_mult: 1
  }
  param {
    lr_mult: 2
    decay_mult: 0
  }
  convolution_param {
    num_output: 256
    pad: 1
    kernel_size: 3
    group: 256
    weight_filler {
      type: "xavier"
    }
    bias_filler {
      type: "constant"
      value: 0
    }
  }
}
layer {
  name: "conv4_1_3x3_relu"
  type: "ReLU"
  bottom: "conv4_1_3x3"
  top: "conv4_1_3x3"
}
layer {
  name: "conv4_1_1x1"
  type: "Convolution"
  bottom: "conv4_1_3x3"
  top: "conv4_1"
  param {
    lr_mult: 1
    decay_mult: 1
  }
  param {
    lr_mult: 2
    decay_mult: 0
  }
  convolution_param {
    num_output: 512
    pad: 0
    kernel_size: 1
    stride: 1
    weight_filler {
      type: "xavier"
    }
    bias_filler {
      type: "constant"
      value: 0
    }
  }
}
layer {
  name: "relu4_1"
  type: "ReLU"
  bottom: "conv4_1"
  top: "conv4_1"
}
layer {
  name: "conv4_2_depthwise"
  type: "DepthwiseConvolution"
  bottom: "conv4_1"
  top: "conv4_2_3x3"
  param {
    lr_mult: 1
    decay_mult: 1
  }
  param {
    lr_mult: 2
    decay_mult: 0
  }
  convolution_param {
    num_output: 512
    pad: 1
    kernel_size: 3
    group: 512
    weight_filler {
      type: "xavier"
    }
    bias_filler {
      type: "constant"
      value: 0
    }
  }
}
layer {
  name: "conv4_2_3x3_relu"
  type: "ReLU"
  bottom: "conv4_2_3x3"
  top: "conv4_2_3x3"
}
layer {
  name: "conv4_2_1x1"
  type: "Convolution"
  bottom: "conv4_2_3x3"
  top: "conv4_2"
  param {
    lr_mult: 1
    decay_mult: 1
  }
  param {
    lr_mult: 2
    decay_mult: 0
  }
  convolution_param {
    num_output: 512
    pad: 0
    kernel_size: 1
    stride: 1
    weight_filler {
      type: "xavier"
    }
    bias_filler {
      type: "constant"
      value: 0
    }
  }
}
layer {
  name: "relu4_2"
  type: "ReLU"
  bottom: "conv4_2"
  top: "conv4_2"
}
layer {
  name: "conv4_3_depthwise"
  type: "DepthwiseConvolution"
  bottom: "conv4_2"
  top: "conv4_3_3x3"
  param {
    lr_mult: 1
    decay_mult: 1
  }
  param {
    lr_mult: 2
    decay_mult: 0
  }
  convolution_param {
    num_output: 512
    pad: 1
    kernel_size: 3
    group: 512
    weight_filler {
      type: "xavier"
    }
    bias_filler {
      type: "constant"
      value: 0
    }
  }
}
layer {
  name: "conv4_3_3x3_relu"
  type: "ReLU"
  bottom: "conv4_3_3x3"
  top: "conv4_3_3x3"
}
layer {
  name: "conv4_3_1x1"
  type: "Convolution"
  bottom: "conv4_3_3x3"
  top: "conv4_3"
  param {
    lr_mult: 1
    decay_mult: 1
  }
  param {
    lr_mult: 2
    decay_mult: 0
  }
  convolution_param {
    num_output: 512
    pad: 0
    kernel_size: 1
    stride: 1
    weight_filler {
      type: "xavier"
    }
    bias_filler {
      type: "constant"
      value: 0
    }
  }
}
layer {
  name: "relu4_3"
  type: "ReLU"
  bottom: "conv4_3"
  top: "conv4_3"
}
layer {
  name: "pool4"
  type: "Pooling"
  bottom: "conv4_3"
  top: "pool4"
  pooling_param {
    pool: MAX
    kernel_size: 2
    stride: 2
  }
}
layer {
  name: "conv5_1_depthwise"
  type: "DepthwiseConvolution"
  bottom: "pool4"
  top: "conv5_1_3x3"
  param {
    lr_mult: 1
    decay_mult: 1
  }
  param {
    lr_mult: 2
    decay_mult: 0
  }
  convolution_param {
    num_output: 512
    pad: 1
    kernel_size: 3
    group: 512
    weight_filler {
      type: "xavier"
    }
    bias_filler {
      type: "constant"
      value: 0
    }
    dilation: 1
  }
}
layer {
  name: "conv5_1_3x3_relu"
  type: "ReLU"
  bottom: "conv5_1_3x3"
  top: "conv5_1_3x3"
}
layer {
  name: "conv5_1_1x1"
  type: "Convolution"
  bottom: "conv5_1_3x3"
  top: "conv5_1"
  param {
    lr_mult: 1
    decay_mult: 1
  }
  param {
    lr_mult: 2
    decay_mult: 0
  }
  convolution_param {
    num_output: 512
    pad: 0
    kernel_size: 1
    stride: 1
    weight_filler {
      type: "xavier"
    }
    bias_filler {
      type: "constant"
      value: 0
    }
    dilation: 1
  }
}
layer {
  name: "relu5_1"
  type: "ReLU"
  bottom: "conv5_1"
  top: "conv5_1"
}
layer {
  name: "conv5_2_depthwise"
  type: "DepthwiseConvolution"
  bottom: "conv5_1"
  top: "conv5_2_3x3"
  param {
    lr_mult: 1
    decay_mult: 1
  }
  param {
    lr_mult: 2
    decay_mult: 0
  }
  convolution_param {
    num_output: 512
    pad: 1
    kernel_size: 3
    group: 512
    weight_filler {
      type: "xavier"
    }
    bias_filler {
      type: "constant"
      value: 0
    }
    dilation: 1
  }
}
layer {
  name: "conv5_2_3x3_relu"
  type: "ReLU"
  bottom: "conv5_2_3x3"
  top: "conv5_2_3x3"
}
layer {
  name: "conv5_2_1x1"
  type: "Convolution"
  bottom: "conv5_2_3x3"
  top: "conv5_2"
  param {
    lr_mult: 1
    decay_mult: 1
  }
  param {
    lr_mult: 2
    decay_mult: 0
  }
  convolution_param {
    num_output: 512
    pad: 0
    kernel_size: 1
    stride: 1
    weight_filler {
      type: "xavier"
    }
    bias_filler {
      type: "constant"
      value: 0
    }
    dilation: 1
  }
}
layer {
  name: "relu5_2"
  type: "ReLU"
  bottom: "conv5_2"
  top: "conv5_2"
}
layer {
  name: "conv5_3_depthwise"
  type: "DepthwiseConvolution"
  bottom: "conv5_2"
  top: "conv5_3_3x3"
  param {
    lr_mult: 1
    decay_mult: 1
  }
  param {
    lr_mult: 2
    decay_mult: 0
  }
  convolution_param {
    num_output: 512
    pad: 1
    kernel_size: 3
    group: 512
    weight_filler {
      type: "xavier"
    }
    bias_filler {
      type: "constant"
      value: 0
    }
    dilation: 1
  }
}
layer {
  name: "conv5_3_3x3_relu"
  type: "ReLU"
  bottom: "conv5_3_3x3"
  top: "conv5_3_3x3"
}
layer {
  name: "conv5_3_1x1"
  type: "Convolution"
  bottom: "conv5_3_3x3"
  top: "conv5_3"
  param {
    lr_mult: 1
    decay_mult: 1
  }
  param {
    lr_mult: 2
    decay_mult: 0
  }
  convolution_param {
    num_output: 512
    pad: 0
    kernel_size: 1
    stride: 1
    weight_filler {
      type: "xavier"
    }
    bias_filler {
      type: "constant"
      value: 0
    }
    dilation: 1
  }
}
layer {
  name: "relu5_3"
  type: "ReLU"
  bottom: "conv5_3"
  top: "conv5_3"
}
layer {
  name: "pool5"
  type: "Pooling"
  bottom: "conv5_3"
  top: "pool5"
  pooling_param {
    pool: MAX
    kernel_size: 3
    stride: 1
    pad: 1
  }
}
layer {
  name: "fc6_depthwise"
  type: "DepthwiseConvolution"
  bottom: "pool5"
  top: "fc6_3x3"
  param {
    lr_mult: 1
    decay_mult: 1
  }
  param {
    lr_mult: 2
    decay_mult: 0
  }
  convolution_param {
    num_output: 512
    pad: 6
    kernel_size: 3
    group: 512
    weight_filler {
      type: "xavier"
    }
    bias_filler {
      type: "constant"
      value: 0
    }
    dilation: 6
  }
}
layer {
  name: "fc6_3x3_relu"
  type: "ReLU"
  bottom: "fc6_3x3"
  top: "fc6_3x3"
}
layer {
  name: "fc6_1x1"
  type: "Convolution"
  bottom: "fc6_3x3"
  top: "fc6"
  param {
    lr_mult: 1
    decay_mult: 1
  }
  param {
    lr_mult: 2
    decay_mult: 0
  }
  convolution_param {
    num_output: 1024
    pad: 0
    kernel_size: 1
    stride: 1
    weight_filler {
      type: "xavier"
    }
    bias_filler {
      type: "constant"
      value: 0
    }
    dilation: 6
  }
}
layer {
  name: "relu6"
  type: "ReLU"
  bottom: "fc6"
  top: "fc6"
}
layer {
  name: "fc7"
  type: "Convolution"
  bottom: "fc6"
  top: "fc7"
  param {
    lr_mult: 1
    decay_mult: 1
  }
  param {
    lr_mult: 2
    decay_mult: 0
  }
  convolution_param {
    num_output: 1024
    kernel_size: 1
    weight_filler {
      type: "xavier"
    }
    bias_filler {
      type: "constant"
      value: 0
    }
  }
}
layer {
  name: "relu7"
  type: "ReLU"
  bottom: "fc7"
  top: "fc7"
}
layer {
  name: "conv6_1"
  type: "Convolution"
  bottom: "fc7"
  top: "conv6_1"
  param {
    lr_mult: 1
    decay_mult: 1
  }
  param {
    lr_mult: 2
    decay_mult: 0
  }
  convolution_param {
    num_output: 256
    pad: 0
    kernel_size: 1
    stride: 1
    weight_filler {
      type: "xavier"
    }
    bias_filler {
      type: "constant"
      value: 0
    }
  }
}
layer {
  name: "conv6_1_relu"
  type: "ReLU"
  bottom: "conv6_1"
  top: "conv6_1"
}
layer {
  name: "conv6_2"
  type: "Convolution"
  bottom: "conv6_1"
  top: "conv6_2"
  param {
    lr_mult: 1
    decay_mult: 1
  }
  param {
    lr_mult: 2
    decay_mult: 0
  }
  convolution_param {
    num_output: 512
    pad: 1
    kernel_size: 3
    stride: 2
    weight_filler {
      type: "xavier"
    }
    bias_filler {
      type: "constant"
      value: 0
    }
  }
}
layer {
  name: "conv6_2_relu"
  type: "ReLU"
  bottom: "conv6_2"
  top: "conv6_2"
}
layer {
  name: "conv7_1"
  type: "Convolution"
  bottom: "conv6_2"
  top: "conv7_1"
  param {
    lr_mult: 1
    decay_mult: 1
  }
  param {
    lr_mult: 2
    decay_mult: 0
  }
  convolution_param {
    num_output: 128
    pad: 0
    kernel_size: 1
    stride: 1
    weight_filler {
      type: "xavier"
    }
    bias_filler {
      type: "constant"
      value: 0
    }
  }
}
layer {
  name: "conv7_1_relu"
  type: "ReLU"
  bottom: "conv7_1"
  top: "conv7_1"
}
layer {
  name: "conv7_2"
  type: "Convolution"
  bottom: "conv7_1"
  top: "conv7_2"
  param {
    lr_mult: 1
    decay_mult: 1
  }
  param {
    lr_mult: 2
    decay_mult: 0
  }
  convolution_param {
    num_output: 256
    pad: 1
    kernel_size: 3
    stride: 2
    weight_filler {
      type: "xavier"
    }
    bias_filler {
      type: "constant"
      value: 0
    }
  }
}
layer {
  name: "conv7_2_relu"
  type: "ReLU"
  bottom: "conv7_2"
  top: "conv7_2"
}
layer {
  name: "conv8_1"
  type: "Convolution"
  bottom: "conv7_2"
  top: "conv8_1"
  param {
    lr_mult: 1
    decay_mult: 1
  }
  param {
    lr_mult: 2
    decay_mult: 0
  }
  convolution_param {
    num_output: 128
    pad: 0
    kernel_size: 1
    stride: 1
    weight_filler {
      type: "xavier"
    }
    bias_filler {
      type: "constant"
      value: 0
    }
  }
}
layer {
  name: "conv8_1_relu"
  type: "ReLU"
  bottom: "conv8_1"
  top: "conv8_1"
}
layer {
  name: "conv8_2"
  type: "Convolution"
  bottom: "conv8_1"
  top: "conv8_2"
  param {
    lr_mult: 1
    decay_mult: 1
  }
  param {
    lr_mult: 2
    decay_mult: 0
  }
  convolution_param {
    num_output: 256
    pad: 0
    kernel_size: 3
    stride: 1
    weight_filler {
      type: "xavier"
    }
    bias_filler {
      type: "constant"
      value: 0
    }
  }
}
layer {
  name: "conv8_2_relu"
  type: "ReLU"
  bottom: "conv8_2"
  top: "conv8_2"
}
layer {
  name: "conv9_1"
  type: "Convolution"
  bottom: "conv8_2"
  top: "conv9_1"
  param {
    lr_mult: 1
    decay_mult: 1
  }
  param {
    lr_mult: 2
    decay_mult: 0
  }
  convolution_param {
    num_output: 128
    pad: 0
    kernel_size: 1
    stride: 1
    weight_filler {
      type: "xavier"
    }
    bias_filler {
      type: "constant"
      value: 0
    }
  }
}
layer {
  name: "conv9_1_relu"
  type: "ReLU"
  bottom: "conv9_1"
  top: "conv9_1"
}
layer {
  name: "conv9_2"
  type: "Convolution"
  bottom: "conv9_1"
  top: "conv9_2"
  param {
    lr_mult: 1
    decay_mult: 1
  }
  param {
    lr_mult: 2
    decay_mult: 0
  }
  convolution_param {
    num_output: 256
    pad: 0
    kernel_size: 3
    stride: 1
    weight_filler {
      type: "xavier"
    }
    bias_filler {
      type: "constant"
      value: 0
    }
  }
}
layer {
  name: "conv9_2_relu"
  type: "ReLU"
  bottom: "conv9_2"
  top: "conv9_2"
}
layer {
  name: "conv4_3_norm"
  type: "Normalize"
  bottom: "conv4_3"
  top: "conv4_3_norm"
  norm_param {
    across_spatial: false
    scale_filler {
      type: "constant"
      value: 20
    }
    channel_shared: false
  }
}
layer {
  name: "conv4_3_norm_mbox_loc"
  type: "Convolution"
  bottom: "conv4_3_norm"
  top: "conv4_3_norm_mbox_loc"
  param {
    lr_mult: 1
    decay_mult: 1
  }
  param {
    lr_mult: 2
    decay_mult: 0
  }
  convolution_param {
    num_output: 16
    pad: 1
    kernel_size: 3
    stride: 1
    weight_filler {
      type: "xavier"
    }
    bias_filler {
      type: "constant"
      value: 0
    }
  }
}
layer {
  name: "conv4_3_norm_mbox_loc_perm"
  type: "Permute"
  bottom: "conv4_3_norm_mbox_loc"
  top: "conv4_3_norm_mbox_loc_perm"
  permute_param {
    order: 0
    order: 2
    order: 3
    order: 1
  }
}
layer {
  name: "conv4_3_norm_mbox_loc_flat"
  type: "Flatten"
  bottom: "conv4_3_norm_mbox_loc_perm"
  top: "conv4_3_norm_mbox_loc_flat"
  flatten_param {
    axis: 1
  }
}
layer {
  name: "conv4_3_norm_mbox_conf"
  type: "Convolution"
  bottom: "conv4_3_norm"
  top: "conv4_3_norm_mbox_conf"
  param {
    lr_mult: 1
    decay_mult: 1
  }
  param {
    lr_mult: 2
    decay_mult: 0
  }
  convolution_param {
    num_output: 44
    pad: 1
    kernel_size: 3
    stride: 1
    weight_filler {
      type: "xavier"
    }
    bias_filler {
      type: "constant"
      value: 0
    }
  }
}
layer {
  name: "conv4_3_norm_mbox_conf_perm"
  type: "Permute"
  bottom: "conv4_3_norm_mbox_conf"
  top: "conv4_3_norm_mbox_conf_perm"
  permute_param {
    order: 0
    order: 2
    order: 3
    order: 1
  }
}
layer {
  name: "conv4_3_norm_mbox_conf_flat"
  type: "Flatten"
  bottom: "conv4_3_norm_mbox_conf_perm"
  top: "conv4_3_norm_mbox_conf_flat"
  flatten_param {
    axis: 1
  }
}
layer {
  name: "conv4_3_norm_mbox_priorbox"
  type: "PriorBox"
  bottom: "conv4_3_norm"
  bottom: "data"
  top: "conv4_3_norm_mbox_priorbox"
  prior_box_param {
    min_size: 30
    max_size: 60
    aspect_ratio: 2
    flip: true
    clip: false
    variance: 0.1
    variance: 0.1
    variance: 0.2
    variance: 0.2
    step: 8
    offset: 0.5
  }
}
layer {
  name: "fc7_mbox_loc"
  type: "Convolution"
  bottom: "fc7"
  top: "fc7_mbox_loc"
  param {
    lr_mult: 1
    decay_mult: 1
  }
  param {
    lr_mult: 2
    decay_mult: 0
  }
  convolution_param {
    num_output: 24
    pad: 1
    kernel_size: 3
    stride: 1
    weight_filler {
      type: "xavier"
    }
    bias_filler {
      type: "constant"
      value: 0
    }
  }
}
layer {
  name: "fc7_mbox_loc_perm"
  type: "Permute"
  bottom: "fc7_mbox_loc"
  top: "fc7_mbox_loc_perm"
  permute_param {
    order: 0
    order: 2
    order: 3
    order: 1
  }
}
layer {
  name: "fc7_mbox_loc_flat"
  type: "Flatten"
  bottom: "fc7_mbox_loc_perm"
  top: "fc7_mbox_loc_flat"
  flatten_param {
    axis: 1
  }
}
layer {
  name: "fc7_mbox_conf"
  type: "Convolution"
  bottom: "fc7"
  top: "fc7_mbox_conf"
  param {
    lr_mult: 1
    decay_mult: 1
  }
  param {
    lr_mult: 2
    decay_mult: 0
  }
  convolution_param {
    num_output: 66
    pad: 1
    kernel_size: 3
    stride: 1
    weight_filler {
      type: "xavier"
    }
    bias_filler {
      type: "constant"
      value: 0
    }
  }
}
layer {
  name: "fc7_mbox_conf_perm"
  type: "Permute"
  bottom: "fc7_mbox_conf"
  top: "fc7_mbox_conf_perm"
  permute_param {
    order: 0
    order: 2
    order: 3
    order: 1
  }
}
layer {
  name: "fc7_mbox_conf_flat"
  type: "Flatten"
  bottom: "fc7_mbox_conf_perm"
  top: "fc7_mbox_conf_flat"
  flatten_param {
    axis: 1
  }
}
layer {
  name: "fc7_mbox_priorbox"
  type: "PriorBox"
  bottom: "fc7"
  bottom: "data"
  top: "fc7_mbox_priorbox"
  prior_box_param {
    min_size: 60
    max_size: 111
    aspect_ratio: 2
    aspect_ratio: 3
    flip: true
    clip: false
    variance: 0.1
    variance: 0.1
    variance: 0.2
    variance: 0.2
    step: 16
    offset: 0.5
  }
}
layer {
  name: "conv6_2_mbox_loc"
  type: "Convolution"
  bottom: "conv6_2"
  top: "conv6_2_mbox_loc"
  param {
    lr_mult: 1
    decay_mult: 1
  }
  param {
    lr_mult: 2
    decay_mult: 0
  }
  convolution_param {
    num_output: 24
    pad: 1
    kernel_size: 3
    stride: 1
    weight_filler {
      type: "xavier"
    }
    bias_filler {
      type: "constant"
      value: 0
    }
  }
}
layer {
  name: "conv6_2_mbox_loc_perm"
  type: "Permute"
  bottom: "conv6_2_mbox_loc"
  top: "conv6_2_mbox_loc_perm"
  permute_param {
    order: 0
    order: 2
    order: 3
    order: 1
  }
}
layer {
  name: "conv6_2_mbox_loc_flat"
  type: "Flatten"
  bottom: "conv6_2_mbox_loc_perm"
  top: "conv6_2_mbox_loc_flat"
  flatten_param {
    axis: 1
  }
}
layer {
  name: "conv6_2_mbox_conf"
  type: "Convolution"
  bottom: "conv6_2"
  top: "conv6_2_mbox_conf"
  param {
    lr_mult: 1
    decay_mult: 1
  }
  param {
    lr_mult: 2
    decay_mult: 0
  }
  convolution_param {
    num_output: 66
    pad: 1
    kernel_size: 3
    stride: 1
    weight_filler {
      type: "xavier"
    }
    bias_filler {
      type: "constant"
      value: 0
    }
  }
}
layer {
  name: "conv6_2_mbox_conf_perm"
  type: "Permute"
  bottom: "conv6_2_mbox_conf"
  top: "conv6_2_mbox_conf_perm"
  permute_param {
    order: 0
    order: 2
    order: 3
    order: 1
  }
}
layer {
  name: "conv6_2_mbox_conf_flat"
  type: "Flatten"
  bottom: "conv6_2_mbox_conf_perm"
  top: "conv6_2_mbox_conf_flat"
  flatten_param {
    axis: 1
  }
}
layer {
  name: "conv6_2_mbox_priorbox"
  type: "PriorBox"
  bottom: "conv6_2"
  bottom: "data"
  top: "conv6_2_mbox_priorbox"
  prior_box_param {
    min_size: 111
    max_size: 162
    aspect_ratio: 2
    aspect_ratio: 3
    flip: true
    clip: false
    variance: 0.1
    variance: 0.1
    variance: 0.2
    variance: 0.2
    step: 32
    offset: 0.5
  }
}
layer {
  name: "conv7_2_mbox_loc"
  type: "Convolution"
  bottom: "conv7_2"
  top: "conv7_2_mbox_loc"
  param {
    lr_mult: 1
    decay_mult: 1
  }
  param {
    lr_mult: 2
    decay_mult: 0
  }
  convolution_param {
    num_output: 24
    pad: 1
    kernel_size: 3
    stride: 1
    weight_filler {
      type: "xavier"
    }
    bias_filler {
      type: "constant"
      value: 0
    }
  }
}
layer {
  name: "conv7_2_mbox_loc_perm"
  type: "Permute"
  bottom: "conv7_2_mbox_loc"
  top: "conv7_2_mbox_loc_perm"
  permute_param {
    order: 0
    order: 2
    order: 3
    order: 1
  }
}
layer {
  name: "conv7_2_mbox_loc_flat"
  type: "Flatten"
  bottom: "conv7_2_mbox_loc_perm"
  top: "conv7_2_mbox_loc_flat"
  flatten_param {
    axis: 1
  }
}
layer {
  name: "conv7_2_mbox_conf"
  type: "Convolution"
  bottom: "conv7_2"
  top: "conv7_2_mbox_conf"
  param {
    lr_mult: 1
    decay_mult: 1
  }
  param {
    lr_mult: 2
    decay_mult: 0
  }
  convolution_param {
    num_output: 66
    pad: 1
    kernel_size: 3
    stride: 1
    weight_filler {
      type: "xavier"
    }
    bias_filler {
      type: "constant"
      value: 0
    }
  }
}
layer {
  name: "conv7_2_mbox_conf_perm"
  type: "Permute"
  bottom: "conv7_2_mbox_conf"
  top: "conv7_2_mbox_conf_perm"
  permute_param {
    order: 0
    order: 2
    order: 3
    order: 1
  }
}
layer {
  name: "conv7_2_mbox_conf_flat"
  type: "Flatten"
  bottom: "conv7_2_mbox_conf_perm"
  top: "conv7_2_mbox_conf_flat"
  flatten_param {
    axis: 1
  }
}
layer {
  name: "conv7_2_mbox_priorbox"
  type: "PriorBox"
  bottom: "conv7_2"
  bottom: "data"
  top: "conv7_2_mbox_priorbox"
  prior_box_param {
    min_size: 162
    max_size: 213
    aspect_ratio: 2
    aspect_ratio: 3
    flip: true
    clip: false
    variance: 0.1
    variance: 0.1
    variance: 0.2
    variance: 0.2
    step: 64
    offset: 0.5
  }
}
layer {
  name: "conv8_2_mbox_loc"
  type: "Convolution"
  bottom: "conv8_2"
  top: "conv8_2_mbox_loc"
  param {
    lr_mult: 1
    decay_mult: 1
  }
  param {
    lr_mult: 2
    decay_mult: 0
  }
  convolution_param {
    num_output: 16
    pad: 1
    kernel_size: 3
    stride: 1
    weight_filler {
      type: "xavier"
    }
    bias_filler {
      type: "constant"
      value: 0
    }
  }
}
layer {
  name: "conv8_2_mbox_loc_perm"
  type: "Permute"
  bottom: "conv8_2_mbox_loc"
  top: "conv8_2_mbox_loc_perm"
  permute_param {
    order: 0
    order: 2
    order: 3
    order: 1
  }
}
layer {
  name: "conv8_2_mbox_loc_flat"
  type: "Flatten"
  bottom: "conv8_2_mbox_loc_perm"
  top: "conv8_2_mbox_loc_flat"
  flatten_param {
    axis: 1
  }
}
layer {
  name: "conv8_2_mbox_conf"
  type: "Convolution"
  bottom: "conv8_2"
  top: "conv8_2_mbox_conf"
  param {
    lr_mult: 1
    decay_mult: 1
  }
  param {
    lr_mult: 2
    decay_mult: 0
  }
  convolution_param {
    num_output: 44
    pad: 1
    kernel_size: 3
    stride: 1
    weight_filler {
      type: "xavier"
    }
    bias_filler {
      type: "constant"
      value: 0
    }
  }
}
layer {
  name: "conv8_2_mbox_conf_perm"
  type: "Permute"
  bottom: "conv8_2_mbox_conf"
  top: "conv8_2_mbox_conf_perm"
  permute_param {
    order: 0
    order: 2
    order: 3
    order: 1
  }
}
layer {
  name: "conv8_2_mbox_conf_flat"
  type: "Flatten"
  bottom: "conv8_2_mbox_conf_perm"
  top: "conv8_2_mbox_conf_flat"
  flatten_param {
    axis: 1
  }
}
layer {
  name: "conv8_2_mbox_priorbox"
  type: "PriorBox"
  bottom: "conv8_2"
  bottom: "data"
  top: "conv8_2_mbox_priorbox"
  prior_box_param {
    min_size: 213
    max_size: 264
    aspect_ratio: 2
    flip: true
    clip: false
    variance: 0.1
    variance: 0.1
    variance: 0.2
    variance: 0.2
    step: 100
    offset: 0.5
  }
}
layer {
  name: "conv9_2_mbox_loc"
  type: "Convolution"
  bottom: "conv9_2"
  top: "conv9_2_mbox_loc"
  param {
    lr_mult: 1
    decay_mult: 1
  }
  param {
    lr_mult: 2
    decay_mult: 0
  }
  convolution_param {
    num_output: 16
    pad: 1
    kernel_size: 3
    stride: 1
    weight_filler {
      type: "xavier"
    }
    bias_filler {
      type: "constant"
      value: 0
    }
  }
}
layer {
  name: "conv9_2_mbox_loc_perm"
  type: "Permute"
  bottom: "conv9_2_mbox_loc"
  top: "conv9_2_mbox_loc_perm"
  permute_param {
    order: 0
    order: 2
    order: 3
    order: 1
  }
}
layer {
  name: "conv9_2_mbox_loc_flat"
  type: "Flatten"
  bottom: "conv9_2_mbox_loc_perm"
  top: "conv9_2_mbox_loc_flat"
  flatten_param {
    axis: 1
  }
}
layer {
  name: "conv9_2_mbox_conf"
  type: "Convolution"
  bottom: "conv9_2"
  top: "conv9_2_mbox_conf"
  param {
    lr_mult: 1
    decay_mult: 1
  }
  param {
    lr_mult: 2
    decay_mult: 0
  }
  convolution_param {
    num_output: 44
    pad: 1
    kernel_size: 3
    stride: 1
    weight_filler {
      type: "xavier"
    }
    bias_filler {
      type: "constant"
      value: 0
    }
  }
}
layer {
  name: "conv9_2_mbox_conf_perm"
  type: "Permute"
  bottom: "conv9_2_mbox_conf"
  top: "conv9_2_mbox_conf_perm"
  permute_param {
    order: 0
    order: 2
    order: 3
    order: 1
  }
}
layer {
  name: "conv9_2_mbox_conf_flat"
  type: "Flatten"
  bottom: "conv9_2_mbox_conf_perm"
  top: "conv9_2_mbox_conf_flat"
  flatten_param {
    axis: 1
  }
}
layer {
  name: "conv9_2_mbox_priorbox"
  type: "PriorBox"
  bottom: "conv9_2"
  bottom: "data"
  top: "conv9_2_mbox_priorbox"
  prior_box_param {
    min_size: 264
    max_size: 315
    aspect_ratio: 2
    flip: true
    clip: false
    variance: 0.1
    variance: 0.1
    variance: 0.2
    variance: 0.2
    step: 300
    offset: 0.5
  }
}
layer {
  name: "mbox_loc"
  type: "Concat"
  bottom: "conv4_3_norm_mbox_loc_flat"
  bottom: "fc7_mbox_loc_flat"
  bottom: "conv6_2_mbox_loc_flat"
  bottom: "conv7_2_mbox_loc_flat"
  bottom: "conv8_2_mbox_loc_flat"
  bottom: "conv9_2_mbox_loc_flat"
  top: "mbox_loc"
  concat_param {
    axis: 1
  }
}
layer {
  name: "mbox_conf"
  type: "Concat"
  bottom: "conv4_3_norm_mbox_conf_flat"
  bottom: "fc7_mbox_conf_flat"
  bottom: "conv6_2_mbox_conf_flat"
  bottom: "conv7_2_mbox_conf_flat"
  bottom: "conv8_2_mbox_conf_flat"
  bottom: "conv9_2_mbox_conf_flat"
  top: "mbox_conf"
  concat_param {
    axis: 1
  }
}
layer {
  name: "mbox_priorbox"
  type: "Concat"
  bottom: "conv4_3_norm_mbox_priorbox"
  bottom: "fc7_mbox_priorbox"
  bottom: "conv6_2_mbox_priorbox"
  bottom: "conv7_2_mbox_priorbox"
  bottom: "conv8_2_mbox_priorbox"
  bottom: "conv9_2_mbox_priorbox"
  top: "mbox_priorbox"
  concat_param {
    axis: 2
  }
}
layer {
  name: "mbox_conf_reshape"
  type: "Reshape"
  bottom: "mbox_conf"
  top: "mbox_conf_reshape"
  reshape_param {
    shape {
      dim: 0
      dim: -1
      dim: 11
    }
  }
}
layer {
  name: "mbox_conf_softmax"
  type: "Softmax"
  bottom: "mbox_conf_reshape"
  top: "mbox_conf_softmax"
  softmax_param {
    axis: 2
  }
}
layer {
  name: "mbox_conf_flatten"
  type: "Flatten"
  bottom: "mbox_conf_softmax"
  top: "mbox_conf_flatten"
  flatten_param {
    axis: 1
  }
}
layer {
  name: "detection_out"
  type: "DetectionOutput"
  bottom: "mbox_loc"
  bottom: "mbox_conf_flatten"
  bottom: "mbox_priorbox"
  top: "detection_out"
  include {
    phase: TEST
  }
  detection_output_param {
    num_classes: 11
    share_location: true
    background_label_id: 0
    nms_param {
      nms_threshold: 0.45
      top_k: 400
    }
    save_output_param {
      output_directory: "/home/zs/data/VOCdevkit/results/VOC2007/SSD_300x300_0322_conv4/Main"
      output_name_prefix: "comp4_det_test_"
      output_format: "VOC"
      label_map_file: "data/NWPU_VHR/labelmap_NWPU_VHR.prototxt"
      name_size_file: "data/NWPU_VHR/test_name_size.txt"
      num_test_image: 123
    }
    code_type: CENTER_SIZE
    keep_top_k: 200
    confidence_threshold: 0.01
  }
}
layer {
  name: "detection_eval"
  type: "DetectionEvaluate"
  bottom: "detection_out"
  bottom: "label"
  top: "detection_eval"
  include {
    phase: TEST
  }
  detection_evaluate_param {
    num_classes: 11
    background_label_id: 0
    overlap_threshold: 0.5
    evaluate_difficult_gt: false
    name_size_file: "data/NWPU_VHR/test_name_size.txt"
  }
}
I0322 01:23:02.721921 10235 layer_factory.hpp:77] Creating layer data
I0322 01:23:02.721976 10235 net.cpp:100] Creating Layer data
I0322 01:23:02.721982 10235 net.cpp:408] data -> data
I0322 01:23:02.721992 10235 net.cpp:408] data -> label
I0322 01:23:02.725953 10251 db_lmdb.cpp:35] Opened lmdb examples/NWPU_VHR/NWPU_VHR_test_lmdb
I0322 01:23:02.735131 10235 annotated_data_layer.cpp:62] output data size: 1,3,300,300
I0322 01:23:02.738234 10235 net.cpp:150] Setting up data
I0322 01:23:02.738253 10235 net.cpp:157] Top shape: 1 3 300 300 (270000)
I0322 01:23:02.738260 10235 net.cpp:157] Top shape: 1 1 4 8 (32)
I0322 01:23:02.738265 10235 net.cpp:165] Memory required for data: 1080128
I0322 01:23:02.738272 10235 layer_factory.hpp:77] Creating layer data_data_0_split
I0322 01:23:02.738288 10235 net.cpp:100] Creating Layer data_data_0_split
I0322 01:23:02.738296 10235 net.cpp:434] data_data_0_split <- data
I0322 01:23:02.738306 10235 net.cpp:408] data_data_0_split -> data_data_0_split_0
I0322 01:23:02.738320 10235 net.cpp:408] data_data_0_split -> data_data_0_split_1
I0322 01:23:02.738329 10235 net.cpp:408] data_data_0_split -> data_data_0_split_2
I0322 01:23:02.738339 10235 net.cpp:408] data_data_0_split -> data_data_0_split_3
I0322 01:23:02.738348 10235 net.cpp:408] data_data_0_split -> data_data_0_split_4
I0322 01:23:02.738356 10235 net.cpp:408] data_data_0_split -> data_data_0_split_5
I0322 01:23:02.738364 10235 net.cpp:408] data_data_0_split -> data_data_0_split_6
I0322 01:23:02.738525 10235 net.cpp:150] Setting up data_data_0_split
I0322 01:23:02.738534 10235 net.cpp:157] Top shape: 1 3 300 300 (270000)
I0322 01:23:02.738540 10235 net.cpp:157] Top shape: 1 3 300 300 (270000)
I0322 01:23:02.738548 10235 net.cpp:157] Top shape: 1 3 300 300 (270000)
I0322 01:23:02.738554 10235 net.cpp:157] Top shape: 1 3 300 300 (270000)
I0322 01:23:02.738559 10235 net.cpp:157] Top shape: 1 3 300 300 (270000)
I0322 01:23:02.738565 10235 net.cpp:157] Top shape: 1 3 300 300 (270000)
I0322 01:23:02.738574 10235 net.cpp:157] Top shape: 1 3 300 300 (270000)
I0322 01:23:02.738579 10235 net.cpp:165] Memory required for data: 8640128
I0322 01:23:02.738584 10235 layer_factory.hpp:77] Creating layer conv1_1
I0322 01:23:02.738600 10235 net.cpp:100] Creating Layer conv1_1
I0322 01:23:02.738606 10235 net.cpp:434] conv1_1 <- data_data_0_split_0
I0322 01:23:02.738615 10235 net.cpp:408] conv1_1 -> conv1_1
I0322 01:23:02.740672 10235 net.cpp:150] Setting up conv1_1
I0322 01:23:02.740685 10235 net.cpp:157] Top shape: 1 64 300 300 (5760000)
I0322 01:23:02.740691 10235 net.cpp:165] Memory required for data: 31680128
I0322 01:23:02.740705 10235 layer_factory.hpp:77] Creating layer relu1_1
I0322 01:23:02.740715 10235 net.cpp:100] Creating Layer relu1_1
I0322 01:23:02.740722 10235 net.cpp:434] relu1_1 <- conv1_1
I0322 01:23:02.740731 10235 net.cpp:395] relu1_1 -> conv1_1 (in-place)
I0322 01:23:02.740900 10235 net.cpp:150] Setting up relu1_1
I0322 01:23:02.740911 10235 net.cpp:157] Top shape: 1 64 300 300 (5760000)
I0322 01:23:02.740928 10235 net.cpp:165] Memory required for data: 54720128
I0322 01:23:02.740936 10235 layer_factory.hpp:77] Creating layer conv1_2
I0322 01:23:02.740947 10235 net.cpp:100] Creating Layer conv1_2
I0322 01:23:02.740954 10235 net.cpp:434] conv1_2 <- conv1_1
I0322 01:23:02.740998 10235 net.cpp:408] conv1_2 -> conv1_2
I0322 01:23:02.742581 10235 net.cpp:150] Setting up conv1_2
I0322 01:23:02.742594 10235 net.cpp:157] Top shape: 1 64 300 300 (5760000)
I0322 01:23:02.742600 10235 net.cpp:165] Memory required for data: 77760128
I0322 01:23:02.742611 10235 layer_factory.hpp:77] Creating layer relu1_2
I0322 01:23:02.742622 10235 net.cpp:100] Creating Layer relu1_2
I0322 01:23:02.742628 10235 net.cpp:434] relu1_2 <- conv1_2
I0322 01:23:02.742635 10235 net.cpp:395] relu1_2 -> conv1_2 (in-place)
I0322 01:23:02.742797 10235 net.cpp:150] Setting up relu1_2
I0322 01:23:02.742808 10235 net.cpp:157] Top shape: 1 64 300 300 (5760000)
I0322 01:23:02.742812 10235 net.cpp:165] Memory required for data: 100800128
I0322 01:23:02.742817 10235 layer_factory.hpp:77] Creating layer pool1
I0322 01:23:02.742827 10235 net.cpp:100] Creating Layer pool1
I0322 01:23:02.742833 10235 net.cpp:434] pool1 <- conv1_2
I0322 01:23:02.742841 10235 net.cpp:408] pool1 -> pool1
I0322 01:23:02.742921 10235 net.cpp:150] Setting up pool1
I0322 01:23:02.742931 10235 net.cpp:157] Top shape: 1 64 150 150 (1440000)
I0322 01:23:02.742936 10235 net.cpp:165] Memory required for data: 106560128
I0322 01:23:02.742941 10235 layer_factory.hpp:77] Creating layer conv2_1
I0322 01:23:02.742954 10235 net.cpp:100] Creating Layer conv2_1
I0322 01:23:02.742959 10235 net.cpp:434] conv2_1 <- pool1
I0322 01:23:02.742969 10235 net.cpp:408] conv2_1 -> conv2_1
I0322 01:23:02.745221 10235 net.cpp:150] Setting up conv2_1
I0322 01:23:02.745234 10235 net.cpp:157] Top shape: 1 128 150 150 (2880000)
I0322 01:23:02.745239 10235 net.cpp:165] Memory required for data: 118080128
I0322 01:23:02.745251 10235 layer_factory.hpp:77] Creating layer relu2_1
I0322 01:23:02.745262 10235 net.cpp:100] Creating Layer relu2_1
I0322 01:23:02.745267 10235 net.cpp:434] relu2_1 <- conv2_1
I0322 01:23:02.745275 10235 net.cpp:395] relu2_1 -> conv2_1 (in-place)
I0322 01:23:02.746084 10235 net.cpp:150] Setting up relu2_1
I0322 01:23:02.746098 10235 net.cpp:157] Top shape: 1 128 150 150 (2880000)
I0322 01:23:02.746104 10235 net.cpp:165] Memory required for data: 129600128
I0322 01:23:02.746109 10235 layer_factory.hpp:77] Creating layer conv2_2
I0322 01:23:02.746121 10235 net.cpp:100] Creating Layer conv2_2
I0322 01:23:02.746127 10235 net.cpp:434] conv2_2 <- conv2_1
I0322 01:23:02.746136 10235 net.cpp:408] conv2_2 -> conv2_2
I0322 01:23:02.748594 10235 net.cpp:150] Setting up conv2_2
I0322 01:23:02.748607 10235 net.cpp:157] Top shape: 1 128 150 150 (2880000)
I0322 01:23:02.748612 10235 net.cpp:165] Memory required for data: 141120128
I0322 01:23:02.748621 10235 layer_factory.hpp:77] Creating layer relu2_2
I0322 01:23:02.748631 10235 net.cpp:100] Creating Layer relu2_2
I0322 01:23:02.748677 10235 net.cpp:434] relu2_2 <- conv2_2
I0322 01:23:02.748684 10235 net.cpp:395] relu2_2 -> conv2_2 (in-place)
I0322 01:23:02.748850 10235 net.cpp:150] Setting up relu2_2
I0322 01:23:02.748860 10235 net.cpp:157] Top shape: 1 128 150 150 (2880000)
I0322 01:23:02.748867 10235 net.cpp:165] Memory required for data: 152640128
I0322 01:23:02.748872 10235 layer_factory.hpp:77] Creating layer pool2
I0322 01:23:02.748915 10235 net.cpp:100] Creating Layer pool2
I0322 01:23:02.748924 10235 net.cpp:434] pool2 <- conv2_2
I0322 01:23:02.748931 10235 net.cpp:408] pool2 -> pool2
I0322 01:23:02.748983 10235 net.cpp:150] Setting up pool2
I0322 01:23:02.748992 10235 net.cpp:157] Top shape: 1 128 75 75 (720000)
I0322 01:23:02.748996 10235 net.cpp:165] Memory required for data: 155520128
I0322 01:23:02.749002 10235 layer_factory.hpp:77] Creating layer conv3_1
I0322 01:23:02.749013 10235 net.cpp:100] Creating Layer conv3_1
I0322 01:23:02.749019 10235 net.cpp:434] conv3_1 <- pool2
I0322 01:23:02.749040 10235 net.cpp:408] conv3_1 -> conv3_1
I0322 01:23:02.752971 10235 net.cpp:150] Setting up conv3_1
I0322 01:23:02.752986 10235 net.cpp:157] Top shape: 1 256 75 75 (1440000)
I0322 01:23:02.752991 10235 net.cpp:165] Memory required for data: 161280128
I0322 01:23:02.753005 10235 layer_factory.hpp:77] Creating layer relu3_1
I0322 01:23:02.753013 10235 net.cpp:100] Creating Layer relu3_1
I0322 01:23:02.753020 10235 net.cpp:434] relu3_1 <- conv3_1
I0322 01:23:02.753026 10235 net.cpp:395] relu3_1 -> conv3_1 (in-place)
I0322 01:23:02.753196 10235 net.cpp:150] Setting up relu3_1
I0322 01:23:02.753206 10235 net.cpp:157] Top shape: 1 256 75 75 (1440000)
I0322 01:23:02.753211 10235 net.cpp:165] Memory required for data: 167040128
I0322 01:23:02.753216 10235 layer_factory.hpp:77] Creating layer conv3_2
I0322 01:23:02.753228 10235 net.cpp:100] Creating Layer conv3_2
I0322 01:23:02.753235 10235 net.cpp:434] conv3_2 <- conv3_1
I0322 01:23:02.753278 10235 net.cpp:408] conv3_2 -> conv3_2
I0322 01:23:02.758507 10235 net.cpp:150] Setting up conv3_2
I0322 01:23:02.758522 10235 net.cpp:157] Top shape: 1 256 75 75 (1440000)
I0322 01:23:02.758527 10235 net.cpp:165] Memory required for data: 172800128
I0322 01:23:02.758538 10235 layer_factory.hpp:77] Creating layer relu3_2
I0322 01:23:02.758548 10235 net.cpp:100] Creating Layer relu3_2
I0322 01:23:02.758553 10235 net.cpp:434] relu3_2 <- conv3_2
I0322 01:23:02.758561 10235 net.cpp:395] relu3_2 -> conv3_2 (in-place)
I0322 01:23:02.759429 10235 net.cpp:150] Setting up relu3_2
I0322 01:23:02.759443 10235 net.cpp:157] Top shape: 1 256 75 75 (1440000)
I0322 01:23:02.759447 10235 net.cpp:165] Memory required for data: 178560128
I0322 01:23:02.759454 10235 layer_factory.hpp:77] Creating layer conv3_3
I0322 01:23:02.759470 10235 net.cpp:100] Creating Layer conv3_3
I0322 01:23:02.759477 10235 net.cpp:434] conv3_3 <- conv3_2
I0322 01:23:02.759486 10235 net.cpp:408] conv3_3 -> conv3_3
I0322 01:23:02.764775 10235 net.cpp:150] Setting up conv3_3
I0322 01:23:02.764791 10235 net.cpp:157] Top shape: 1 256 75 75 (1440000)
I0322 01:23:02.764796 10235 net.cpp:165] Memory required for data: 184320128
I0322 01:23:02.764806 10235 layer_factory.hpp:77] Creating layer relu3_3
I0322 01:23:02.764814 10235 net.cpp:100] Creating Layer relu3_3
I0322 01:23:02.764822 10235 net.cpp:434] relu3_3 <- conv3_3
I0322 01:23:02.764828 10235 net.cpp:395] relu3_3 -> conv3_3 (in-place)
I0322 01:23:02.764999 10235 net.cpp:150] Setting up relu3_3
I0322 01:23:02.765009 10235 net.cpp:157] Top shape: 1 256 75 75 (1440000)
I0322 01:23:02.765013 10235 net.cpp:165] Memory required for data: 190080128
I0322 01:23:02.765018 10235 layer_factory.hpp:77] Creating layer pool3
I0322 01:23:02.765028 10235 net.cpp:100] Creating Layer pool3
I0322 01:23:02.765033 10235 net.cpp:434] pool3 <- conv3_3
I0322 01:23:02.765041 10235 net.cpp:408] pool3 -> pool3
I0322 01:23:02.765094 10235 net.cpp:150] Setting up pool3
I0322 01:23:02.765101 10235 net.cpp:157] Top shape: 1 256 38 38 (369664)
I0322 01:23:02.765111 10235 net.cpp:165] Memory required for data: 191558784
I0322 01:23:02.765117 10235 layer_factory.hpp:77] Creating layer conv4_1_depthwise
I0322 01:23:02.765127 10235 net.cpp:100] Creating Layer conv4_1_depthwise
I0322 01:23:02.765132 10235 net.cpp:434] conv4_1_depthwise <- pool3
I0322 01:23:02.765141 10235 net.cpp:408] conv4_1_depthwise -> conv4_1_3x3
I0322 01:23:02.765389 10235 net.cpp:150] Setting up conv4_1_depthwise
I0322 01:23:02.765398 10235 net.cpp:157] Top shape: 1 256 38 38 (369664)
I0322 01:23:02.765403 10235 net.cpp:165] Memory required for data: 193037440
I0322 01:23:02.765411 10235 layer_factory.hpp:77] Creating layer conv4_1_3x3_relu
I0322 01:23:02.765420 10235 net.cpp:100] Creating Layer conv4_1_3x3_relu
I0322 01:23:02.765425 10235 net.cpp:434] conv4_1_3x3_relu <- conv4_1_3x3
I0322 01:23:02.765431 10235 net.cpp:395] conv4_1_3x3_relu -> conv4_1_3x3 (in-place)
I0322 01:23:02.765597 10235 net.cpp:150] Setting up conv4_1_3x3_relu
I0322 01:23:02.765607 10235 net.cpp:157] Top shape: 1 256 38 38 (369664)
I0322 01:23:02.765612 10235 net.cpp:165] Memory required for data: 194516096
I0322 01:23:02.765632 10235 layer_factory.hpp:77] Creating layer conv4_1_1x1
I0322 01:23:02.765645 10235 net.cpp:100] Creating Layer conv4_1_1x1
I0322 01:23:02.765651 10235 net.cpp:434] conv4_1_1x1 <- conv4_1_3x3
I0322 01:23:02.765660 10235 net.cpp:408] conv4_1_1x1 -> conv4_1
I0322 01:23:02.767556 10235 net.cpp:150] Setting up conv4_1_1x1
I0322 01:23:02.767572 10235 net.cpp:157] Top shape: 1 512 38 38 (739328)
I0322 01:23:02.767577 10235 net.cpp:165] Memory required for data: 197473408
I0322 01:23:02.767591 10235 layer_factory.hpp:77] Creating layer relu4_1
I0322 01:23:02.767601 10235 net.cpp:100] Creating Layer relu4_1
I0322 01:23:02.767606 10235 net.cpp:434] relu4_1 <- conv4_1
I0322 01:23:02.767616 10235 net.cpp:395] relu4_1 -> conv4_1 (in-place)
I0322 01:23:02.767781 10235 net.cpp:150] Setting up relu4_1
I0322 01:23:02.767791 10235 net.cpp:157] Top shape: 1 512 38 38 (739328)
I0322 01:23:02.767796 10235 net.cpp:165] Memory required for data: 200430720
I0322 01:23:02.767802 10235 layer_factory.hpp:77] Creating layer conv4_2_depthwise
I0322 01:23:02.767812 10235 net.cpp:100] Creating Layer conv4_2_depthwise
I0322 01:23:02.767817 10235 net.cpp:434] conv4_2_depthwise <- conv4_1
I0322 01:23:02.767825 10235 net.cpp:408] conv4_2_depthwise -> conv4_2_3x3
I0322 01:23:02.768141 10235 net.cpp:150] Setting up conv4_2_depthwise
I0322 01:23:02.768152 10235 net.cpp:157] Top shape: 1 512 38 38 (739328)
I0322 01:23:02.768157 10235 net.cpp:165] Memory required for data: 203388032
I0322 01:23:02.768165 10235 layer_factory.hpp:77] Creating layer conv4_2_3x3_relu
I0322 01:23:02.768174 10235 net.cpp:100] Creating Layer conv4_2_3x3_relu
I0322 01:23:02.768180 10235 net.cpp:434] conv4_2_3x3_relu <- conv4_2_3x3
I0322 01:23:02.768187 10235 net.cpp:395] conv4_2_3x3_relu -> conv4_2_3x3 (in-place)
I0322 01:23:02.768872 10235 net.cpp:150] Setting up conv4_2_3x3_relu
I0322 01:23:02.768885 10235 net.cpp:157] Top shape: 1 512 38 38 (739328)
I0322 01:23:02.768890 10235 net.cpp:165] Memory required for data: 206345344
I0322 01:23:02.768895 10235 layer_factory.hpp:77] Creating layer conv4_2_1x1
I0322 01:23:02.768908 10235 net.cpp:100] Creating Layer conv4_2_1x1
I0322 01:23:02.768915 10235 net.cpp:434] conv4_2_1x1 <- conv4_2_3x3
I0322 01:23:02.768923 10235 net.cpp:408] conv4_2_1x1 -> conv4_2
I0322 01:23:02.772106 10235 net.cpp:150] Setting up conv4_2_1x1
I0322 01:23:02.772122 10235 net.cpp:157] Top shape: 1 512 38 38 (739328)
I0322 01:23:02.772128 10235 net.cpp:165] Memory required for data: 209302656
I0322 01:23:02.772136 10235 layer_factory.hpp:77] Creating layer relu4_2
I0322 01:23:02.772145 10235 net.cpp:100] Creating Layer relu4_2
I0322 01:23:02.772151 10235 net.cpp:434] relu4_2 <- conv4_2
I0322 01:23:02.772159 10235 net.cpp:395] relu4_2 -> conv4_2 (in-place)
I0322 01:23:02.772321 10235 net.cpp:150] Setting up relu4_2
I0322 01:23:02.772330 10235 net.cpp:157] Top shape: 1 512 38 38 (739328)
I0322 01:23:02.772336 10235 net.cpp:165] Memory required for data: 212259968
I0322 01:23:02.772341 10235 layer_factory.hpp:77] Creating layer conv4_3_depthwise
I0322 01:23:02.772351 10235 net.cpp:100] Creating Layer conv4_3_depthwise
I0322 01:23:02.772357 10235 net.cpp:434] conv4_3_depthwise <- conv4_2
I0322 01:23:02.772366 10235 net.cpp:408] conv4_3_depthwise -> conv4_3_3x3
I0322 01:23:02.772636 10235 net.cpp:150] Setting up conv4_3_depthwise
I0322 01:23:02.772645 10235 net.cpp:157] Top shape: 1 512 38 38 (739328)
I0322 01:23:02.772650 10235 net.cpp:165] Memory required for data: 215217280
I0322 01:23:02.772658 10235 layer_factory.hpp:77] Creating layer conv4_3_3x3_relu
I0322 01:23:02.772667 10235 net.cpp:100] Creating Layer conv4_3_3x3_relu
I0322 01:23:02.772671 10235 net.cpp:434] conv4_3_3x3_relu <- conv4_3_3x3
I0322 01:23:02.772678 10235 net.cpp:395] conv4_3_3x3_relu -> conv4_3_3x3 (in-place)
I0322 01:23:02.772837 10235 net.cpp:150] Setting up conv4_3_3x3_relu
I0322 01:23:02.772847 10235 net.cpp:157] Top shape: 1 512 38 38 (739328)
I0322 01:23:02.772851 10235 net.cpp:165] Memory required for data: 218174592
I0322 01:23:02.772871 10235 layer_factory.hpp:77] Creating layer conv4_3_1x1
I0322 01:23:02.772882 10235 net.cpp:100] Creating Layer conv4_3_1x1
I0322 01:23:02.772891 10235 net.cpp:434] conv4_3_1x1 <- conv4_3_3x3
I0322 01:23:02.772900 10235 net.cpp:408] conv4_3_1x1 -> conv4_3
I0322 01:23:02.775224 10235 net.cpp:150] Setting up conv4_3_1x1
I0322 01:23:02.775238 10235 net.cpp:157] Top shape: 1 512 38 38 (739328)
I0322 01:23:02.775243 10235 net.cpp:165] Memory required for data: 221131904
I0322 01:23:02.775251 10235 layer_factory.hpp:77] Creating layer relu4_3
I0322 01:23:02.775260 10235 net.cpp:100] Creating Layer relu4_3
I0322 01:23:02.775266 10235 net.cpp:434] relu4_3 <- conv4_3
I0322 01:23:02.775274 10235 net.cpp:395] relu4_3 -> conv4_3 (in-place)
I0322 01:23:02.776078 10235 net.cpp:150] Setting up relu4_3
I0322 01:23:02.776091 10235 net.cpp:157] Top shape: 1 512 38 38 (739328)
I0322 01:23:02.776098 10235 net.cpp:165] Memory required for data: 224089216
I0322 01:23:02.776103 10235 layer_factory.hpp:77] Creating layer conv4_3_relu4_3_0_split
I0322 01:23:02.776113 10235 net.cpp:100] Creating Layer conv4_3_relu4_3_0_split
I0322 01:23:02.776119 10235 net.cpp:434] conv4_3_relu4_3_0_split <- conv4_3
I0322 01:23:02.776127 10235 net.cpp:408] conv4_3_relu4_3_0_split -> conv4_3_relu4_3_0_split_0
I0322 01:23:02.776139 10235 net.cpp:408] conv4_3_relu4_3_0_split -> conv4_3_relu4_3_0_split_1
I0322 01:23:02.776190 10235 net.cpp:150] Setting up conv4_3_relu4_3_0_split
I0322 01:23:02.776197 10235 net.cpp:157] Top shape: 1 512 38 38 (739328)
I0322 01:23:02.776204 10235 net.cpp:157] Top shape: 1 512 38 38 (739328)
I0322 01:23:02.776209 10235 net.cpp:165] Memory required for data: 230003840
I0322 01:23:02.776214 10235 layer_factory.hpp:77] Creating layer pool4
I0322 01:23:02.776228 10235 net.cpp:100] Creating Layer pool4
I0322 01:23:02.776234 10235 net.cpp:434] pool4 <- conv4_3_relu4_3_0_split_0
I0322 01:23:02.776265 10235 net.cpp:408] pool4 -> pool4
I0322 01:23:02.776315 10235 net.cpp:150] Setting up pool4
I0322 01:23:02.776324 10235 net.cpp:157] Top shape: 1 512 19 19 (184832)
I0322 01:23:02.776329 10235 net.cpp:165] Memory required for data: 230743168
I0322 01:23:02.776335 10235 layer_factory.hpp:77] Creating layer conv5_1_depthwise
I0322 01:23:02.776345 10235 net.cpp:100] Creating Layer conv5_1_depthwise
I0322 01:23:02.776350 10235 net.cpp:434] conv5_1_depthwise <- pool4
I0322 01:23:02.776360 10235 net.cpp:408] conv5_1_depthwise -> conv5_1_3x3
I0322 01:23:02.776620 10235 net.cpp:150] Setting up conv5_1_depthwise
I0322 01:23:02.776629 10235 net.cpp:157] Top shape: 1 512 19 19 (184832)
I0322 01:23:02.776634 10235 net.cpp:165] Memory required for data: 231482496
I0322 01:23:02.776643 10235 layer_factory.hpp:77] Creating layer conv5_1_3x3_relu
I0322 01:23:02.776652 10235 net.cpp:100] Creating Layer conv5_1_3x3_relu
I0322 01:23:02.776659 10235 net.cpp:434] conv5_1_3x3_relu <- conv5_1_3x3
I0322 01:23:02.776666 10235 net.cpp:395] conv5_1_3x3_relu -> conv5_1_3x3 (in-place)
I0322 01:23:02.776856 10235 net.cpp:150] Setting up conv5_1_3x3_relu
I0322 01:23:02.776866 10235 net.cpp:157] Top shape: 1 512 19 19 (184832)
I0322 01:23:02.776870 10235 net.cpp:165] Memory required for data: 232221824
I0322 01:23:02.776876 10235 layer_factory.hpp:77] Creating layer conv5_1_1x1
I0322 01:23:02.776890 10235 net.cpp:100] Creating Layer conv5_1_1x1
I0322 01:23:02.776897 10235 net.cpp:434] conv5_1_1x1 <- conv5_1_3x3
I0322 01:23:02.776907 10235 net.cpp:408] conv5_1_1x1 -> conv5_1
I0322 01:23:02.780277 10235 net.cpp:150] Setting up conv5_1_1x1
I0322 01:23:02.780292 10235 net.cpp:157] Top shape: 1 512 19 19 (184832)
I0322 01:23:02.780297 10235 net.cpp:165] Memory required for data: 232961152
I0322 01:23:02.780306 10235 layer_factory.hpp:77] Creating layer relu5_1
I0322 01:23:02.780318 10235 net.cpp:100] Creating Layer relu5_1
I0322 01:23:02.780325 10235 net.cpp:434] relu5_1 <- conv5_1
I0322 01:23:02.780333 10235 net.cpp:395] relu5_1 -> conv5_1 (in-place)
I0322 01:23:02.780499 10235 net.cpp:150] Setting up relu5_1
I0322 01:23:02.780509 10235 net.cpp:157] Top shape: 1 512 19 19 (184832)
I0322 01:23:02.780527 10235 net.cpp:165] Memory required for data: 233700480
I0322 01:23:02.780534 10235 layer_factory.hpp:77] Creating layer conv5_2_depthwise
I0322 01:23:02.780548 10235 net.cpp:100] Creating Layer conv5_2_depthwise
I0322 01:23:02.780555 10235 net.cpp:434] conv5_2_depthwise <- conv5_1
I0322 01:23:02.780565 10235 net.cpp:408] conv5_2_depthwise -> conv5_2_3x3
I0322 01:23:02.780874 10235 net.cpp:150] Setting up conv5_2_depthwise
I0322 01:23:02.780884 10235 net.cpp:157] Top shape: 1 512 19 19 (184832)
I0322 01:23:02.780889 10235 net.cpp:165] Memory required for data: 234439808
I0322 01:23:02.780897 10235 layer_factory.hpp:77] Creating layer conv5_2_3x3_relu
I0322 01:23:02.780906 10235 net.cpp:100] Creating Layer conv5_2_3x3_relu
I0322 01:23:02.780942 10235 net.cpp:434] conv5_2_3x3_relu <- conv5_2_3x3
I0322 01:23:02.780951 10235 net.cpp:395] conv5_2_3x3_relu -> conv5_2_3x3 (in-place)
I0322 01:23:02.782253 10235 net.cpp:150] Setting up conv5_2_3x3_relu
I0322 01:23:02.782266 10235 net.cpp:157] Top shape: 1 512 19 19 (184832)
I0322 01:23:02.782271 10235 net.cpp:165] Memory required for data: 235179136
I0322 01:23:02.782276 10235 layer_factory.hpp:77] Creating layer conv5_2_1x1
I0322 01:23:02.782291 10235 net.cpp:100] Creating Layer conv5_2_1x1
I0322 01:23:02.782299 10235 net.cpp:434] conv5_2_1x1 <- conv5_2_3x3
I0322 01:23:02.782308 10235 net.cpp:408] conv5_2_1x1 -> conv5_2
I0322 01:23:02.784832 10235 net.cpp:150] Setting up conv5_2_1x1
I0322 01:23:02.784845 10235 net.cpp:157] Top shape: 1 512 19 19 (184832)
I0322 01:23:02.784852 10235 net.cpp:165] Memory required for data: 235918464
I0322 01:23:02.784868 10235 layer_factory.hpp:77] Creating layer relu5_2
I0322 01:23:02.784878 10235 net.cpp:100] Creating Layer relu5_2
I0322 01:23:02.784883 10235 net.cpp:434] relu5_2 <- conv5_2
I0322 01:23:02.784893 10235 net.cpp:395] relu5_2 -> conv5_2 (in-place)
I0322 01:23:02.785066 10235 net.cpp:150] Setting up relu5_2
I0322 01:23:02.785078 10235 net.cpp:157] Top shape: 1 512 19 19 (184832)
I0322 01:23:02.785081 10235 net.cpp:165] Memory required for data: 236657792
I0322 01:23:02.785087 10235 layer_factory.hpp:77] Creating layer conv5_3_depthwise
I0322 01:23:02.785099 10235 net.cpp:100] Creating Layer conv5_3_depthwise
I0322 01:23:02.785106 10235 net.cpp:434] conv5_3_depthwise <- conv5_2
I0322 01:23:02.785116 10235 net.cpp:408] conv5_3_depthwise -> conv5_3_3x3
I0322 01:23:02.785447 10235 net.cpp:150] Setting up conv5_3_depthwise
I0322 01:23:02.785459 10235 net.cpp:157] Top shape: 1 512 19 19 (184832)
I0322 01:23:02.785464 10235 net.cpp:165] Memory required for data: 237397120
I0322 01:23:02.785472 10235 layer_factory.hpp:77] Creating layer conv5_3_3x3_relu
I0322 01:23:02.785483 10235 net.cpp:100] Creating Layer conv5_3_3x3_relu
I0322 01:23:02.785490 10235 net.cpp:434] conv5_3_3x3_relu <- conv5_3_3x3
I0322 01:23:02.785497 10235 net.cpp:395] conv5_3_3x3_relu -> conv5_3_3x3 (in-place)
I0322 01:23:02.785706 10235 net.cpp:150] Setting up conv5_3_3x3_relu
I0322 01:23:02.785717 10235 net.cpp:157] Top shape: 1 512 19 19 (184832)
I0322 01:23:02.785720 10235 net.cpp:165] Memory required for data: 238136448
I0322 01:23:02.785748 10235 layer_factory.hpp:77] Creating layer conv5_3_1x1
I0322 01:23:02.785763 10235 net.cpp:100] Creating Layer conv5_3_1x1
I0322 01:23:02.785770 10235 net.cpp:434] conv5_3_1x1 <- conv5_3_3x3
I0322 01:23:02.785780 10235 net.cpp:408] conv5_3_1x1 -> conv5_3
I0322 01:23:02.789155 10235 net.cpp:150] Setting up conv5_3_1x1
I0322 01:23:02.789168 10235 net.cpp:157] Top shape: 1 512 19 19 (184832)
I0322 01:23:02.789173 10235 net.cpp:165] Memory required for data: 238875776
I0322 01:23:02.789182 10235 layer_factory.hpp:77] Creating layer relu5_3
I0322 01:23:02.789193 10235 net.cpp:100] Creating Layer relu5_3
I0322 01:23:02.789201 10235 net.cpp:434] relu5_3 <- conv5_3
I0322 01:23:02.789209 10235 net.cpp:395] relu5_3 -> conv5_3 (in-place)
I0322 01:23:02.789389 10235 net.cpp:150] Setting up relu5_3
I0322 01:23:02.789399 10235 net.cpp:157] Top shape: 1 512 19 19 (184832)
I0322 01:23:02.789404 10235 net.cpp:165] Memory required for data: 239615104
I0322 01:23:02.789422 10235 layer_factory.hpp:77] Creating layer pool5
I0322 01:23:02.789433 10235 net.cpp:100] Creating Layer pool5
I0322 01:23:02.789438 10235 net.cpp:434] pool5 <- conv5_3
I0322 01:23:02.789448 10235 net.cpp:408] pool5 -> pool5
I0322 01:23:02.789505 10235 net.cpp:150] Setting up pool5
I0322 01:23:02.789515 10235 net.cpp:157] Top shape: 1 512 19 19 (184832)
I0322 01:23:02.789518 10235 net.cpp:165] Memory required for data: 240354432
I0322 01:23:02.789523 10235 layer_factory.hpp:77] Creating layer fc6_depthwise
I0322 01:23:02.789535 10235 net.cpp:100] Creating Layer fc6_depthwise
I0322 01:23:02.789541 10235 net.cpp:434] fc6_depthwise <- pool5
I0322 01:23:02.789551 10235 net.cpp:408] fc6_depthwise -> fc6_3x3
I0322 01:23:02.789839 10235 net.cpp:150] Setting up fc6_depthwise
I0322 01:23:02.789855 10235 net.cpp:157] Top shape: 1 512 19 19 (184832)
I0322 01:23:02.789858 10235 net.cpp:165] Memory required for data: 241093760
I0322 01:23:02.789866 10235 layer_factory.hpp:77] Creating layer fc6_3x3_relu
I0322 01:23:02.789875 10235 net.cpp:100] Creating Layer fc6_3x3_relu
I0322 01:23:02.789881 10235 net.cpp:434] fc6_3x3_relu <- fc6_3x3
I0322 01:23:02.789889 10235 net.cpp:395] fc6_3x3_relu -> fc6_3x3 (in-place)
I0322 01:23:02.790627 10235 net.cpp:150] Setting up fc6_3x3_relu
I0322 01:23:02.790639 10235 net.cpp:157] Top shape: 1 512 19 19 (184832)
I0322 01:23:02.790645 10235 net.cpp:165] Memory required for data: 241833088
I0322 01:23:02.790652 10235 layer_factory.hpp:77] Creating layer fc6_1x1
I0322 01:23:02.790666 10235 net.cpp:100] Creating Layer fc6_1x1
I0322 01:23:02.790673 10235 net.cpp:434] fc6_1x1 <- fc6_3x3
I0322 01:23:02.790683 10235 net.cpp:408] fc6_1x1 -> fc6
I0322 01:23:02.794066 10235 net.cpp:150] Setting up fc6_1x1
I0322 01:23:02.794080 10235 net.cpp:157] Top shape: 1 1024 19 19 (369664)
I0322 01:23:02.794085 10235 net.cpp:165] Memory required for data: 243311744
I0322 01:23:02.794095 10235 layer_factory.hpp:77] Creating layer relu6
I0322 01:23:02.794103 10235 net.cpp:100] Creating Layer relu6
I0322 01:23:02.794109 10235 net.cpp:434] relu6 <- fc6
I0322 01:23:02.794117 10235 net.cpp:395] relu6 -> fc6 (in-place)
I0322 01:23:02.794303 10235 net.cpp:150] Setting up relu6
I0322 01:23:02.794314 10235 net.cpp:157] Top shape: 1 1024 19 19 (369664)
I0322 01:23:02.794319 10235 net.cpp:165] Memory required for data: 244790400
I0322 01:23:02.794324 10235 layer_factory.hpp:77] Creating layer fc7
I0322 01:23:02.794338 10235 net.cpp:100] Creating Layer fc7
I0322 01:23:02.794343 10235 net.cpp:434] fc7 <- fc6
I0322 01:23:02.794353 10235 net.cpp:408] fc7 -> fc7
I0322 01:23:02.801501 10235 net.cpp:150] Setting up fc7
I0322 01:23:02.801522 10235 net.cpp:157] Top shape: 1 1024 19 19 (369664)
I0322 01:23:02.801527 10235 net.cpp:165] Memory required for data: 246269056
I0322 01:23:02.801537 10235 layer_factory.hpp:77] Creating layer relu7
I0322 01:23:02.801545 10235 net.cpp:100] Creating Layer relu7
I0322 01:23:02.801554 10235 net.cpp:434] relu7 <- fc7
I0322 01:23:02.801564 10235 net.cpp:395] relu7 -> fc7 (in-place)
I0322 01:23:02.801751 10235 net.cpp:150] Setting up relu7
I0322 01:23:02.801762 10235 net.cpp:157] Top shape: 1 1024 19 19 (369664)
I0322 01:23:02.801767 10235 net.cpp:165] Memory required for data: 247747712
I0322 01:23:02.801772 10235 layer_factory.hpp:77] Creating layer fc7_relu7_0_split
I0322 01:23:02.801781 10235 net.cpp:100] Creating Layer fc7_relu7_0_split
I0322 01:23:02.801787 10235 net.cpp:434] fc7_relu7_0_split <- fc7
I0322 01:23:02.801797 10235 net.cpp:408] fc7_relu7_0_split -> fc7_relu7_0_split_0
I0322 01:23:02.801811 10235 net.cpp:408] fc7_relu7_0_split -> fc7_relu7_0_split_1
I0322 01:23:02.801821 10235 net.cpp:408] fc7_relu7_0_split -> fc7_relu7_0_split_2
I0322 01:23:02.801832 10235 net.cpp:408] fc7_relu7_0_split -> fc7_relu7_0_split_3
I0322 01:23:02.801911 10235 net.cpp:150] Setting up fc7_relu7_0_split
I0322 01:23:02.801919 10235 net.cpp:157] Top shape: 1 1024 19 19 (369664)
I0322 01:23:02.801925 10235 net.cpp:157] Top shape: 1 1024 19 19 (369664)
I0322 01:23:02.801944 10235 net.cpp:157] Top shape: 1 1024 19 19 (369664)
I0322 01:23:02.801950 10235 net.cpp:157] Top shape: 1 1024 19 19 (369664)
I0322 01:23:02.801955 10235 net.cpp:165] Memory required for data: 253662336
I0322 01:23:02.801960 10235 layer_factory.hpp:77] Creating layer conv6_1
I0322 01:23:02.801975 10235 net.cpp:100] Creating Layer conv6_1
I0322 01:23:02.801982 10235 net.cpp:434] conv6_1 <- fc7_relu7_0_split_0
I0322 01:23:02.801992 10235 net.cpp:408] conv6_1 -> conv6_1
I0322 01:23:02.804487 10235 net.cpp:150] Setting up conv6_1
I0322 01:23:02.804502 10235 net.cpp:157] Top shape: 1 256 19 19 (92416)
I0322 01:23:02.804508 10235 net.cpp:165] Memory required for data: 254032000
I0322 01:23:02.804518 10235 layer_factory.hpp:77] Creating layer conv6_1_relu
I0322 01:23:02.804529 10235 net.cpp:100] Creating Layer conv6_1_relu
I0322 01:23:02.804535 10235 net.cpp:434] conv6_1_relu <- conv6_1
I0322 01:23:02.804544 10235 net.cpp:395] conv6_1_relu -> conv6_1 (in-place)
I0322 01:23:02.805263 10235 net.cpp:150] Setting up conv6_1_relu
I0322 01:23:02.805276 10235 net.cpp:157] Top shape: 1 256 19 19 (92416)
I0322 01:23:02.805282 10235 net.cpp:165] Memory required for data: 254401664
I0322 01:23:02.805289 10235 layer_factory.hpp:77] Creating layer conv6_2
I0322 01:23:02.805303 10235 net.cpp:100] Creating Layer conv6_2
I0322 01:23:02.805310 10235 net.cpp:434] conv6_2 <- conv6_1
I0322 01:23:02.805320 10235 net.cpp:408] conv6_2 -> conv6_2
I0322 01:23:02.813691 10235 net.cpp:150] Setting up conv6_2
I0322 01:23:02.813712 10235 net.cpp:157] Top shape: 1 512 10 10 (51200)
I0322 01:23:02.813717 10235 net.cpp:165] Memory required for data: 254606464
I0322 01:23:02.813742 10235 layer_factory.hpp:77] Creating layer conv6_2_relu
I0322 01:23:02.813753 10235 net.cpp:100] Creating Layer conv6_2_relu
I0322 01:23:02.813761 10235 net.cpp:434] conv6_2_relu <- conv6_2
I0322 01:23:02.813771 10235 net.cpp:395] conv6_2_relu -> conv6_2 (in-place)
I0322 01:23:02.813964 10235 net.cpp:150] Setting up conv6_2_relu
I0322 01:23:02.813975 10235 net.cpp:157] Top shape: 1 512 10 10 (51200)
I0322 01:23:02.813979 10235 net.cpp:165] Memory required for data: 254811264
I0322 01:23:02.813985 10235 layer_factory.hpp:77] Creating layer conv6_2_conv6_2_relu_0_split
I0322 01:23:02.813997 10235 net.cpp:100] Creating Layer conv6_2_conv6_2_relu_0_split
I0322 01:23:02.814003 10235 net.cpp:434] conv6_2_conv6_2_relu_0_split <- conv6_2
I0322 01:23:02.814013 10235 net.cpp:408] conv6_2_conv6_2_relu_0_split -> conv6_2_conv6_2_relu_0_split_0
I0322 01:23:02.814023 10235 net.cpp:408] conv6_2_conv6_2_relu_0_split -> conv6_2_conv6_2_relu_0_split_1
I0322 01:23:02.814033 10235 net.cpp:408] conv6_2_conv6_2_relu_0_split -> conv6_2_conv6_2_relu_0_split_2
I0322 01:23:02.814043 10235 net.cpp:408] conv6_2_conv6_2_relu_0_split -> conv6_2_conv6_2_relu_0_split_3
I0322 01:23:02.814158 10235 net.cpp:150] Setting up conv6_2_conv6_2_relu_0_split
I0322 01:23:02.814168 10235 net.cpp:157] Top shape: 1 512 10 10 (51200)
I0322 01:23:02.814175 10235 net.cpp:157] Top shape: 1 512 10 10 (51200)
I0322 01:23:02.814182 10235 net.cpp:157] Top shape: 1 512 10 10 (51200)
I0322 01:23:02.814188 10235 net.cpp:157] Top shape: 1 512 10 10 (51200)
I0322 01:23:02.814191 10235 net.cpp:165] Memory required for data: 255630464
I0322 01:23:02.814198 10235 layer_factory.hpp:77] Creating layer conv7_1
I0322 01:23:02.814213 10235 net.cpp:100] Creating Layer conv7_1
I0322 01:23:02.814219 10235 net.cpp:434] conv7_1 <- conv6_2_conv6_2_relu_0_split_0
I0322 01:23:02.814230 10235 net.cpp:408] conv7_1 -> conv7_1
I0322 01:23:02.815860 10235 net.cpp:150] Setting up conv7_1
I0322 01:23:02.815873 10235 net.cpp:157] Top shape: 1 128 10 10 (12800)
I0322 01:23:02.815877 10235 net.cpp:165] Memory required for data: 255681664
I0322 01:23:02.815886 10235 layer_factory.hpp:77] Creating layer conv7_1_relu
I0322 01:23:02.815899 10235 net.cpp:100] Creating Layer conv7_1_relu
I0322 01:23:02.815907 10235 net.cpp:434] conv7_1_relu <- conv7_1
I0322 01:23:02.815913 10235 net.cpp:395] conv7_1_relu -> conv7_1 (in-place)
I0322 01:23:02.816087 10235 net.cpp:150] Setting up conv7_1_relu
I0322 01:23:02.816105 10235 net.cpp:157] Top shape: 1 128 10 10 (12800)
I0322 01:23:02.816112 10235 net.cpp:165] Memory required for data: 255732864
I0322 01:23:02.816117 10235 layer_factory.hpp:77] Creating layer conv7_2
I0322 01:23:02.816129 10235 net.cpp:100] Creating Layer conv7_2
I0322 01:23:02.816136 10235 net.cpp:434] conv7_2 <- conv7_1
I0322 01:23:02.816146 10235 net.cpp:408] conv7_2 -> conv7_2
I0322 01:23:02.819615 10235 net.cpp:150] Setting up conv7_2
I0322 01:23:02.819629 10235 net.cpp:157] Top shape: 1 256 5 5 (6400)
I0322 01:23:02.819635 10235 net.cpp:165] Memory required for data: 255758464
I0322 01:23:02.819644 10235 layer_factory.hpp:77] Creating layer conv7_2_relu
I0322 01:23:02.819655 10235 net.cpp:100] Creating Layer conv7_2_relu
I0322 01:23:02.819663 10235 net.cpp:434] conv7_2_relu <- conv7_2
I0322 01:23:02.819672 10235 net.cpp:395] conv7_2_relu -> conv7_2 (in-place)
I0322 01:23:02.820415 10235 net.cpp:150] Setting up conv7_2_relu
I0322 01:23:02.820426 10235 net.cpp:157] Top shape: 1 256 5 5 (6400)
I0322 01:23:02.820430 10235 net.cpp:165] Memory required for data: 255784064
I0322 01:23:02.820436 10235 layer_factory.hpp:77] Creating layer conv7_2_conv7_2_relu_0_split
I0322 01:23:02.820446 10235 net.cpp:100] Creating Layer conv7_2_conv7_2_relu_0_split
I0322 01:23:02.820453 10235 net.cpp:434] conv7_2_conv7_2_relu_0_split <- conv7_2
I0322 01:23:02.820466 10235 net.cpp:408] conv7_2_conv7_2_relu_0_split -> conv7_2_conv7_2_relu_0_split_0
I0322 01:23:02.820477 10235 net.cpp:408] conv7_2_conv7_2_relu_0_split -> conv7_2_conv7_2_relu_0_split_1
I0322 01:23:02.820489 10235 net.cpp:408] conv7_2_conv7_2_relu_0_split -> conv7_2_conv7_2_relu_0_split_2
I0322 01:23:02.820498 10235 net.cpp:408] conv7_2_conv7_2_relu_0_split -> conv7_2_conv7_2_relu_0_split_3
I0322 01:23:02.820578 10235 net.cpp:150] Setting up conv7_2_conv7_2_relu_0_split
I0322 01:23:02.820586 10235 net.cpp:157] Top shape: 1 256 5 5 (6400)
I0322 01:23:02.820592 10235 net.cpp:157] Top shape: 1 256 5 5 (6400)
I0322 01:23:02.820598 10235 net.cpp:157] Top shape: 1 256 5 5 (6400)
I0322 01:23:02.820605 10235 net.cpp:157] Top shape: 1 256 5 5 (6400)
I0322 01:23:02.820610 10235 net.cpp:165] Memory required for data: 255886464
I0322 01:23:02.820614 10235 layer_factory.hpp:77] Creating layer conv8_1
I0322 01:23:02.820628 10235 net.cpp:100] Creating Layer conv8_1
I0322 01:23:02.820636 10235 net.cpp:434] conv8_1 <- conv7_2_conv7_2_relu_0_split_0
I0322 01:23:02.820646 10235 net.cpp:408] conv8_1 -> conv8_1
I0322 01:23:02.822270 10235 net.cpp:150] Setting up conv8_1
I0322 01:23:02.822285 10235 net.cpp:157] Top shape: 1 128 5 5 (3200)
I0322 01:23:02.822290 10235 net.cpp:165] Memory required for data: 255899264
I0322 01:23:02.822299 10235 layer_factory.hpp:77] Creating layer conv8_1_relu
I0322 01:23:02.822321 10235 net.cpp:100] Creating Layer conv8_1_relu
I0322 01:23:02.822327 10235 net.cpp:434] conv8_1_relu <- conv8_1
I0322 01:23:02.822335 10235 net.cpp:395] conv8_1_relu -> conv8_1 (in-place)
I0322 01:23:02.822510 10235 net.cpp:150] Setting up conv8_1_relu
I0322 01:23:02.822520 10235 net.cpp:157] Top shape: 1 128 5 5 (3200)
I0322 01:23:02.822525 10235 net.cpp:165] Memory required for data: 255912064
I0322 01:23:02.822531 10235 layer_factory.hpp:77] Creating layer conv8_2
I0322 01:23:02.822578 10235 net.cpp:100] Creating Layer conv8_2
I0322 01:23:02.822587 10235 net.cpp:434] conv8_2 <- conv8_1
I0322 01:23:02.822597 10235 net.cpp:408] conv8_2 -> conv8_2
I0322 01:23:02.826617 10235 net.cpp:150] Setting up conv8_2
I0322 01:23:02.826637 10235 net.cpp:157] Top shape: 1 256 3 3 (2304)
I0322 01:23:02.826644 10235 net.cpp:165] Memory required for data: 255921280
I0322 01:23:02.826653 10235 layer_factory.hpp:77] Creating layer conv8_2_relu
I0322 01:23:02.826666 10235 net.cpp:100] Creating Layer conv8_2_relu
I0322 01:23:02.826673 10235 net.cpp:434] conv8_2_relu <- conv8_2
I0322 01:23:02.826683 10235 net.cpp:395] conv8_2_relu -> conv8_2 (in-place)
I0322 01:23:02.826874 10235 net.cpp:150] Setting up conv8_2_relu
I0322 01:23:02.826884 10235 net.cpp:157] Top shape: 1 256 3 3 (2304)
I0322 01:23:02.826902 10235 net.cpp:165] Memory required for data: 255930496
I0322 01:23:02.826910 10235 layer_factory.hpp:77] Creating layer conv8_2_conv8_2_relu_0_split
I0322 01:23:02.826920 10235 net.cpp:100] Creating Layer conv8_2_conv8_2_relu_0_split
I0322 01:23:02.826927 10235 net.cpp:434] conv8_2_conv8_2_relu_0_split <- conv8_2
I0322 01:23:02.826936 10235 net.cpp:408] conv8_2_conv8_2_relu_0_split -> conv8_2_conv8_2_relu_0_split_0
I0322 01:23:02.826948 10235 net.cpp:408] conv8_2_conv8_2_relu_0_split -> conv8_2_conv8_2_relu_0_split_1
I0322 01:23:02.826958 10235 net.cpp:408] conv8_2_conv8_2_relu_0_split -> conv8_2_conv8_2_relu_0_split_2
I0322 01:23:02.826967 10235 net.cpp:408] conv8_2_conv8_2_relu_0_split -> conv8_2_conv8_2_relu_0_split_3
I0322 01:23:02.827049 10235 net.cpp:150] Setting up conv8_2_conv8_2_relu_0_split
I0322 01:23:02.827057 10235 net.cpp:157] Top shape: 1 256 3 3 (2304)
I0322 01:23:02.827064 10235 net.cpp:157] Top shape: 1 256 3 3 (2304)
I0322 01:23:02.827069 10235 net.cpp:157] Top shape: 1 256 3 3 (2304)
I0322 01:23:02.827075 10235 net.cpp:157] Top shape: 1 256 3 3 (2304)
I0322 01:23:02.827080 10235 net.cpp:165] Memory required for data: 255967360
I0322 01:23:02.827085 10235 layer_factory.hpp:77] Creating layer conv9_1
I0322 01:23:02.827098 10235 net.cpp:100] Creating Layer conv9_1
I0322 01:23:02.827105 10235 net.cpp:434] conv9_1 <- conv8_2_conv8_2_relu_0_split_0
I0322 01:23:02.827116 10235 net.cpp:408] conv9_1 -> conv9_1
I0322 01:23:02.829499 10235 net.cpp:150] Setting up conv9_1
I0322 01:23:02.829514 10235 net.cpp:157] Top shape: 1 128 3 3 (1152)
I0322 01:23:02.829519 10235 net.cpp:165] Memory required for data: 255971968
I0322 01:23:02.829530 10235 layer_factory.hpp:77] Creating layer conv9_1_relu
I0322 01:23:02.829538 10235 net.cpp:100] Creating Layer conv9_1_relu
I0322 01:23:02.829545 10235 net.cpp:434] conv9_1_relu <- conv9_1
I0322 01:23:02.829555 10235 net.cpp:395] conv9_1_relu -> conv9_1 (in-place)
I0322 01:23:02.829746 10235 net.cpp:150] Setting up conv9_1_relu
I0322 01:23:02.829756 10235 net.cpp:157] Top shape: 1 128 3 3 (1152)
I0322 01:23:02.829761 10235 net.cpp:165] Memory required for data: 255976576
I0322 01:23:02.829766 10235 layer_factory.hpp:77] Creating layer conv9_2
I0322 01:23:02.829780 10235 net.cpp:100] Creating Layer conv9_2
I0322 01:23:02.829787 10235 net.cpp:434] conv9_2 <- conv9_1
I0322 01:23:02.829797 10235 net.cpp:408] conv9_2 -> conv9_2
I0322 01:23:02.833715 10235 net.cpp:150] Setting up conv9_2
I0322 01:23:02.833745 10235 net.cpp:157] Top shape: 1 256 1 1 (256)
I0322 01:23:02.833753 10235 net.cpp:165] Memory required for data: 255977600
I0322 01:23:02.833765 10235 layer_factory.hpp:77] Creating layer conv9_2_relu
I0322 01:23:02.833775 10235 net.cpp:100] Creating Layer conv9_2_relu
I0322 01:23:02.833781 10235 net.cpp:434] conv9_2_relu <- conv9_2
I0322 01:23:02.833791 10235 net.cpp:395] conv9_2_relu -> conv9_2 (in-place)
I0322 01:23:02.834517 10235 net.cpp:150] Setting up conv9_2_relu
I0322 01:23:02.834529 10235 net.cpp:157] Top shape: 1 256 1 1 (256)
I0322 01:23:02.834534 10235 net.cpp:165] Memory required for data: 255978624
I0322 01:23:02.834539 10235 layer_factory.hpp:77] Creating layer conv9_2_conv9_2_relu_0_split
I0322 01:23:02.834549 10235 net.cpp:100] Creating Layer conv9_2_conv9_2_relu_0_split
I0322 01:23:02.834556 10235 net.cpp:434] conv9_2_conv9_2_relu_0_split <- conv9_2
I0322 01:23:02.834565 10235 net.cpp:408] conv9_2_conv9_2_relu_0_split -> conv9_2_conv9_2_relu_0_split_0
I0322 01:23:02.834578 10235 net.cpp:408] conv9_2_conv9_2_relu_0_split -> conv9_2_conv9_2_relu_0_split_1
I0322 01:23:02.834587 10235 net.cpp:408] conv9_2_conv9_2_relu_0_split -> conv9_2_conv9_2_relu_0_split_2
I0322 01:23:02.834674 10235 net.cpp:150] Setting up conv9_2_conv9_2_relu_0_split
I0322 01:23:02.834682 10235 net.cpp:157] Top shape: 1 256 1 1 (256)
I0322 01:23:02.834687 10235 net.cpp:157] Top shape: 1 256 1 1 (256)
I0322 01:23:02.834697 10235 net.cpp:157] Top shape: 1 256 1 1 (256)
I0322 01:23:02.834702 10235 net.cpp:165] Memory required for data: 255981696
I0322 01:23:02.834720 10235 layer_factory.hpp:77] Creating layer conv4_3_norm
I0322 01:23:02.834730 10235 net.cpp:100] Creating Layer conv4_3_norm
I0322 01:23:02.834736 10235 net.cpp:434] conv4_3_norm <- conv4_3_relu4_3_0_split_1
I0322 01:23:02.834745 10235 net.cpp:408] conv4_3_norm -> conv4_3_norm
I0322 01:23:02.834925 10235 net.cpp:150] Setting up conv4_3_norm
I0322 01:23:02.834934 10235 net.cpp:157] Top shape: 1 512 38 38 (739328)
I0322 01:23:02.834939 10235 net.cpp:165] Memory required for data: 258939008
I0322 01:23:02.834946 10235 layer_factory.hpp:77] Creating layer conv4_3_norm_conv4_3_norm_0_split
I0322 01:23:02.834954 10235 net.cpp:100] Creating Layer conv4_3_norm_conv4_3_norm_0_split
I0322 01:23:02.834959 10235 net.cpp:434] conv4_3_norm_conv4_3_norm_0_split <- conv4_3_norm
I0322 01:23:02.834969 10235 net.cpp:408] conv4_3_norm_conv4_3_norm_0_split -> conv4_3_norm_conv4_3_norm_0_split_0
I0322 01:23:02.834978 10235 net.cpp:408] conv4_3_norm_conv4_3_norm_0_split -> conv4_3_norm_conv4_3_norm_0_split_1
I0322 01:23:02.834986 10235 net.cpp:408] conv4_3_norm_conv4_3_norm_0_split -> conv4_3_norm_conv4_3_norm_0_split_2
I0322 01:23:02.835045 10235 net.cpp:150] Setting up conv4_3_norm_conv4_3_norm_0_split
I0322 01:23:02.835053 10235 net.cpp:157] Top shape: 1 512 38 38 (739328)
I0322 01:23:02.835059 10235 net.cpp:157] Top shape: 1 512 38 38 (739328)
I0322 01:23:02.835067 10235 net.cpp:157] Top shape: 1 512 38 38 (739328)
I0322 01:23:02.835072 10235 net.cpp:165] Memory required for data: 267810944
I0322 01:23:02.835078 10235 layer_factory.hpp:77] Creating layer conv4_3_norm_mbox_loc
I0322 01:23:02.835093 10235 net.cpp:100] Creating Layer conv4_3_norm_mbox_loc
I0322 01:23:02.835098 10235 net.cpp:434] conv4_3_norm_mbox_loc <- conv4_3_norm_conv4_3_norm_0_split_0
I0322 01:23:02.835108 10235 net.cpp:408] conv4_3_norm_mbox_loc -> conv4_3_norm_mbox_loc
I0322 01:23:02.837416 10235 net.cpp:150] Setting up conv4_3_norm_mbox_loc
I0322 01:23:02.837430 10235 net.cpp:157] Top shape: 1 16 38 38 (23104)
I0322 01:23:02.837435 10235 net.cpp:165] Memory required for data: 267903360
I0322 01:23:02.837445 10235 layer_factory.hpp:77] Creating layer conv4_3_norm_mbox_loc_perm
I0322 01:23:02.837455 10235 net.cpp:100] Creating Layer conv4_3_norm_mbox_loc_perm
I0322 01:23:02.837463 10235 net.cpp:434] conv4_3_norm_mbox_loc_perm <- conv4_3_norm_mbox_loc
I0322 01:23:02.837473 10235 net.cpp:408] conv4_3_norm_mbox_loc_perm -> conv4_3_norm_mbox_loc_perm
I0322 01:23:02.837596 10235 net.cpp:150] Setting up conv4_3_norm_mbox_loc_perm
I0322 01:23:02.837604 10235 net.cpp:157] Top shape: 1 38 38 16 (23104)
I0322 01:23:02.837610 10235 net.cpp:165] Memory required for data: 267995776
I0322 01:23:02.837615 10235 layer_factory.hpp:77] Creating layer conv4_3_norm_mbox_loc_flat
I0322 01:23:02.837623 10235 net.cpp:100] Creating Layer conv4_3_norm_mbox_loc_flat
I0322 01:23:02.837632 10235 net.cpp:434] conv4_3_norm_mbox_loc_flat <- conv4_3_norm_mbox_loc_perm
I0322 01:23:02.837640 10235 net.cpp:408] conv4_3_norm_mbox_loc_flat -> conv4_3_norm_mbox_loc_flat
I0322 01:23:02.837676 10235 net.cpp:150] Setting up conv4_3_norm_mbox_loc_flat
I0322 01:23:02.837682 10235 net.cpp:157] Top shape: 1 23104 (23104)
I0322 01:23:02.837687 10235 net.cpp:165] Memory required for data: 268088192
I0322 01:23:02.837692 10235 layer_factory.hpp:77] Creating layer conv4_3_norm_mbox_conf
I0322 01:23:02.837705 10235 net.cpp:100] Creating Layer conv4_3_norm_mbox_conf
I0322 01:23:02.837711 10235 net.cpp:434] conv4_3_norm_mbox_conf <- conv4_3_norm_conv4_3_norm_0_split_1
I0322 01:23:02.837721 10235 net.cpp:408] conv4_3_norm_mbox_conf -> conv4_3_norm_mbox_conf
I0322 01:23:02.840577 10235 net.cpp:150] Setting up conv4_3_norm_mbox_conf
I0322 01:23:02.840590 10235 net.cpp:157] Top shape: 1 44 38 38 (63536)
I0322 01:23:02.840595 10235 net.cpp:165] Memory required for data: 268342336
I0322 01:23:02.840617 10235 layer_factory.hpp:77] Creating layer conv4_3_norm_mbox_conf_perm
I0322 01:23:02.840632 10235 net.cpp:100] Creating Layer conv4_3_norm_mbox_conf_perm
I0322 01:23:02.840642 10235 net.cpp:434] conv4_3_norm_mbox_conf_perm <- conv4_3_norm_mbox_conf
I0322 01:23:02.840662 10235 net.cpp:408] conv4_3_norm_mbox_conf_perm -> conv4_3_norm_mbox_conf_perm
I0322 01:23:02.840785 10235 net.cpp:150] Setting up conv4_3_norm_mbox_conf_perm
I0322 01:23:02.840795 10235 net.cpp:157] Top shape: 1 38 38 44 (63536)
I0322 01:23:02.840801 10235 net.cpp:165] Memory required for data: 268596480
I0322 01:23:02.840806 10235 layer_factory.hpp:77] Creating layer conv4_3_norm_mbox_conf_flat
I0322 01:23:02.840813 10235 net.cpp:100] Creating Layer conv4_3_norm_mbox_conf_flat
I0322 01:23:02.840819 10235 net.cpp:434] conv4_3_norm_mbox_conf_flat <- conv4_3_norm_mbox_conf_perm
I0322 01:23:02.840829 10235 net.cpp:408] conv4_3_norm_mbox_conf_flat -> conv4_3_norm_mbox_conf_flat
I0322 01:23:02.840896 10235 net.cpp:150] Setting up conv4_3_norm_mbox_conf_flat
I0322 01:23:02.840904 10235 net.cpp:157] Top shape: 1 63536 (63536)
I0322 01:23:02.840909 10235 net.cpp:165] Memory required for data: 268850624
I0322 01:23:02.840914 10235 layer_factory.hpp:77] Creating layer conv4_3_norm_mbox_priorbox
I0322 01:23:02.840929 10235 net.cpp:100] Creating Layer conv4_3_norm_mbox_priorbox
I0322 01:23:02.840934 10235 net.cpp:434] conv4_3_norm_mbox_priorbox <- conv4_3_norm_conv4_3_norm_0_split_2
I0322 01:23:02.840942 10235 net.cpp:434] conv4_3_norm_mbox_priorbox <- data_data_0_split_1
I0322 01:23:02.840952 10235 net.cpp:408] conv4_3_norm_mbox_priorbox -> conv4_3_norm_mbox_priorbox
I0322 01:23:02.840991 10235 net.cpp:150] Setting up conv4_3_norm_mbox_priorbox
I0322 01:23:02.840999 10235 net.cpp:157] Top shape: 1 2 23104 (46208)
I0322 01:23:02.841004 10235 net.cpp:165] Memory required for data: 269035456
I0322 01:23:02.841011 10235 layer_factory.hpp:77] Creating layer fc7_mbox_loc
I0322 01:23:02.841022 10235 net.cpp:100] Creating Layer fc7_mbox_loc
I0322 01:23:02.841028 10235 net.cpp:434] fc7_mbox_loc <- fc7_relu7_0_split_1
I0322 01:23:02.841037 10235 net.cpp:408] fc7_mbox_loc -> fc7_mbox_loc
I0322 01:23:02.844039 10235 net.cpp:150] Setting up fc7_mbox_loc
I0322 01:23:02.844053 10235 net.cpp:157] Top shape: 1 24 19 19 (8664)
I0322 01:23:02.844058 10235 net.cpp:165] Memory required for data: 269070112
I0322 01:23:02.844069 10235 layer_factory.hpp:77] Creating layer fc7_mbox_loc_perm
I0322 01:23:02.844080 10235 net.cpp:100] Creating Layer fc7_mbox_loc_perm
I0322 01:23:02.844089 10235 net.cpp:434] fc7_mbox_loc_perm <- fc7_mbox_loc
I0322 01:23:02.844097 10235 net.cpp:408] fc7_mbox_loc_perm -> fc7_mbox_loc_perm
I0322 01:23:02.844223 10235 net.cpp:150] Setting up fc7_mbox_loc_perm
I0322 01:23:02.844233 10235 net.cpp:157] Top shape: 1 19 19 24 (8664)
I0322 01:23:02.844238 10235 net.cpp:165] Memory required for data: 269104768
I0322 01:23:02.844244 10235 layer_factory.hpp:77] Creating layer fc7_mbox_loc_flat
I0322 01:23:02.844252 10235 net.cpp:100] Creating Layer fc7_mbox_loc_flat
I0322 01:23:02.844259 10235 net.cpp:434] fc7_mbox_loc_flat <- fc7_mbox_loc_perm
I0322 01:23:02.844269 10235 net.cpp:408] fc7_mbox_loc_flat -> fc7_mbox_loc_flat
I0322 01:23:02.844300 10235 net.cpp:150] Setting up fc7_mbox_loc_flat
I0322 01:23:02.844336 10235 net.cpp:157] Top shape: 1 8664 (8664)
I0322 01:23:02.844341 10235 net.cpp:165] Memory required for data: 269139424
I0322 01:23:02.844347 10235 layer_factory.hpp:77] Creating layer fc7_mbox_conf
I0322 01:23:02.844358 10235 net.cpp:100] Creating Layer fc7_mbox_conf
I0322 01:23:02.844367 10235 net.cpp:434] fc7_mbox_conf <- fc7_relu7_0_split_2
I0322 01:23:02.844377 10235 net.cpp:408] fc7_mbox_conf -> fc7_mbox_conf
I0322 01:23:02.849853 10235 net.cpp:150] Setting up fc7_mbox_conf
I0322 01:23:02.849879 10235 net.cpp:157] Top shape: 1 66 19 19 (23826)
I0322 01:23:02.849885 10235 net.cpp:165] Memory required for data: 269234728
I0322 01:23:02.849898 10235 layer_factory.hpp:77] Creating layer fc7_mbox_conf_perm
I0322 01:23:02.849910 10235 net.cpp:100] Creating Layer fc7_mbox_conf_perm
I0322 01:23:02.849920 10235 net.cpp:434] fc7_mbox_conf_perm <- fc7_mbox_conf
I0322 01:23:02.849931 10235 net.cpp:408] fc7_mbox_conf_perm -> fc7_mbox_conf_perm
I0322 01:23:02.850077 10235 net.cpp:150] Setting up fc7_mbox_conf_perm
I0322 01:23:02.850098 10235 net.cpp:157] Top shape: 1 19 19 66 (23826)
I0322 01:23:02.850103 10235 net.cpp:165] Memory required for data: 269330032
I0322 01:23:02.850108 10235 layer_factory.hpp:77] Creating layer fc7_mbox_conf_flat
I0322 01:23:02.850118 10235 net.cpp:100] Creating Layer fc7_mbox_conf_flat
I0322 01:23:02.850126 10235 net.cpp:434] fc7_mbox_conf_flat <- fc7_mbox_conf_perm
I0322 01:23:02.850134 10235 net.cpp:408] fc7_mbox_conf_flat -> fc7_mbox_conf_flat
I0322 01:23:02.850172 10235 net.cpp:150] Setting up fc7_mbox_conf_flat
I0322 01:23:02.850183 10235 net.cpp:157] Top shape: 1 23826 (23826)
I0322 01:23:02.850188 10235 net.cpp:165] Memory required for data: 269425336
I0322 01:23:02.850193 10235 layer_factory.hpp:77] Creating layer fc7_mbox_priorbox
I0322 01:23:02.850203 10235 net.cpp:100] Creating Layer fc7_mbox_priorbox
I0322 01:23:02.850209 10235 net.cpp:434] fc7_mbox_priorbox <- fc7_relu7_0_split_3
I0322 01:23:02.850216 10235 net.cpp:434] fc7_mbox_priorbox <- data_data_0_split_2
I0322 01:23:02.850226 10235 net.cpp:408] fc7_mbox_priorbox -> fc7_mbox_priorbox
I0322 01:23:02.850265 10235 net.cpp:150] Setting up fc7_mbox_priorbox
I0322 01:23:02.850277 10235 net.cpp:157] Top shape: 1 2 8664 (17328)
I0322 01:23:02.850282 10235 net.cpp:165] Memory required for data: 269494648
I0322 01:23:02.850287 10235 layer_factory.hpp:77] Creating layer conv6_2_mbox_loc
I0322 01:23:02.850302 10235 net.cpp:100] Creating Layer conv6_2_mbox_loc
I0322 01:23:02.850308 10235 net.cpp:434] conv6_2_mbox_loc <- conv6_2_conv6_2_relu_0_split_1
I0322 01:23:02.850317 10235 net.cpp:408] conv6_2_mbox_loc -> conv6_2_mbox_loc
I0322 01:23:02.852701 10235 net.cpp:150] Setting up conv6_2_mbox_loc
I0322 01:23:02.852715 10235 net.cpp:157] Top shape: 1 24 10 10 (2400)
I0322 01:23:02.852721 10235 net.cpp:165] Memory required for data: 269504248
I0322 01:23:02.852731 10235 layer_factory.hpp:77] Creating layer conv6_2_mbox_loc_perm
I0322 01:23:02.852741 10235 net.cpp:100] Creating Layer conv6_2_mbox_loc_perm
I0322 01:23:02.852747 10235 net.cpp:434] conv6_2_mbox_loc_perm <- conv6_2_mbox_loc
I0322 01:23:02.852759 10235 net.cpp:408] conv6_2_mbox_loc_perm -> conv6_2_mbox_loc_perm
I0322 01:23:02.852882 10235 net.cpp:150] Setting up conv6_2_mbox_loc_perm
I0322 01:23:02.852891 10235 net.cpp:157] Top shape: 1 10 10 24 (2400)
I0322 01:23:02.852896 10235 net.cpp:165] Memory required for data: 269513848
I0322 01:23:02.852902 10235 layer_factory.hpp:77] Creating layer conv6_2_mbox_loc_flat
I0322 01:23:02.852910 10235 net.cpp:100] Creating Layer conv6_2_mbox_loc_flat
I0322 01:23:02.852916 10235 net.cpp:434] conv6_2_mbox_loc_flat <- conv6_2_mbox_loc_perm
I0322 01:23:02.852926 10235 net.cpp:408] conv6_2_mbox_loc_flat -> conv6_2_mbox_loc_flat
I0322 01:23:02.852963 10235 net.cpp:150] Setting up conv6_2_mbox_loc_flat
I0322 01:23:02.852972 10235 net.cpp:157] Top shape: 1 2400 (2400)
I0322 01:23:02.852977 10235 net.cpp:165] Memory required for data: 269523448
I0322 01:23:02.852982 10235 layer_factory.hpp:77] Creating layer conv6_2_mbox_conf
I0322 01:23:02.852996 10235 net.cpp:100] Creating Layer conv6_2_mbox_conf
I0322 01:23:02.853004 10235 net.cpp:434] conv6_2_mbox_conf <- conv6_2_conv6_2_relu_0_split_2
I0322 01:23:02.853013 10235 net.cpp:408] conv6_2_mbox_conf -> conv6_2_mbox_conf
I0322 01:23:02.857606 10235 net.cpp:150] Setting up conv6_2_mbox_conf
I0322 01:23:02.857623 10235 net.cpp:157] Top shape: 1 66 10 10 (6600)
I0322 01:23:02.857628 10235 net.cpp:165] Memory required for data: 269549848
I0322 01:23:02.857638 10235 layer_factory.hpp:77] Creating layer conv6_2_mbox_conf_perm
I0322 01:23:02.857651 10235 net.cpp:100] Creating Layer conv6_2_mbox_conf_perm
I0322 01:23:02.857659 10235 net.cpp:434] conv6_2_mbox_conf_perm <- conv6_2_mbox_conf
I0322 01:23:02.857667 10235 net.cpp:408] conv6_2_mbox_conf_perm -> conv6_2_mbox_conf_perm
I0322 01:23:02.857810 10235 net.cpp:150] Setting up conv6_2_mbox_conf_perm
I0322 01:23:02.857820 10235 net.cpp:157] Top shape: 1 10 10 66 (6600)
I0322 01:23:02.857825 10235 net.cpp:165] Memory required for data: 269576248
I0322 01:23:02.857841 10235 layer_factory.hpp:77] Creating layer conv6_2_mbox_conf_flat
I0322 01:23:02.857851 10235 net.cpp:100] Creating Layer conv6_2_mbox_conf_flat
I0322 01:23:02.857859 10235 net.cpp:434] conv6_2_mbox_conf_flat <- conv6_2_mbox_conf_perm
I0322 01:23:02.857869 10235 net.cpp:408] conv6_2_mbox_conf_flat -> conv6_2_mbox_conf_flat
I0322 01:23:02.857918 10235 net.cpp:150] Setting up conv6_2_mbox_conf_flat
I0322 01:23:02.857928 10235 net.cpp:157] Top shape: 1 6600 (6600)
I0322 01:23:02.857933 10235 net.cpp:165] Memory required for data: 269602648
I0322 01:23:02.857939 10235 layer_factory.hpp:77] Creating layer conv6_2_mbox_priorbox
I0322 01:23:02.857949 10235 net.cpp:100] Creating Layer conv6_2_mbox_priorbox
I0322 01:23:02.857956 10235 net.cpp:434] conv6_2_mbox_priorbox <- conv6_2_conv6_2_relu_0_split_3
I0322 01:23:02.857964 10235 net.cpp:434] conv6_2_mbox_priorbox <- data_data_0_split_3
I0322 01:23:02.857977 10235 net.cpp:408] conv6_2_mbox_priorbox -> conv6_2_mbox_priorbox
I0322 01:23:02.858018 10235 net.cpp:150] Setting up conv6_2_mbox_priorbox
I0322 01:23:02.858026 10235 net.cpp:157] Top shape: 1 2 2400 (4800)
I0322 01:23:02.858031 10235 net.cpp:165] Memory required for data: 269621848
I0322 01:23:02.858036 10235 layer_factory.hpp:77] Creating layer conv7_2_mbox_loc
I0322 01:23:02.858049 10235 net.cpp:100] Creating Layer conv7_2_mbox_loc
I0322 01:23:02.858055 10235 net.cpp:434] conv7_2_mbox_loc <- conv7_2_conv7_2_relu_0_split_1
I0322 01:23:02.858064 10235 net.cpp:408] conv7_2_mbox_loc -> conv7_2_mbox_loc
I0322 01:23:02.860337 10235 net.cpp:150] Setting up conv7_2_mbox_loc
I0322 01:23:02.860350 10235 net.cpp:157] Top shape: 1 24 5 5 (600)
I0322 01:23:02.860355 10235 net.cpp:165] Memory required for data: 269624248
I0322 01:23:02.860364 10235 layer_factory.hpp:77] Creating layer conv7_2_mbox_loc_perm
I0322 01:23:02.860376 10235 net.cpp:100] Creating Layer conv7_2_mbox_loc_perm
I0322 01:23:02.860383 10235 net.cpp:434] conv7_2_mbox_loc_perm <- conv7_2_mbox_loc
I0322 01:23:02.860394 10235 net.cpp:408] conv7_2_mbox_loc_perm -> conv7_2_mbox_loc_perm
I0322 01:23:02.860518 10235 net.cpp:150] Setting up conv7_2_mbox_loc_perm
I0322 01:23:02.860528 10235 net.cpp:157] Top shape: 1 5 5 24 (600)
I0322 01:23:02.860532 10235 net.cpp:165] Memory required for data: 269626648
I0322 01:23:02.860538 10235 layer_factory.hpp:77] Creating layer conv7_2_mbox_loc_flat
I0322 01:23:02.860546 10235 net.cpp:100] Creating Layer conv7_2_mbox_loc_flat
I0322 01:23:02.860585 10235 net.cpp:434] conv7_2_mbox_loc_flat <- conv7_2_mbox_loc_perm
I0322 01:23:02.860594 10235 net.cpp:408] conv7_2_mbox_loc_flat -> conv7_2_mbox_loc_flat
I0322 01:23:02.860633 10235 net.cpp:150] Setting up conv7_2_mbox_loc_flat
I0322 01:23:02.860642 10235 net.cpp:157] Top shape: 1 600 (600)
I0322 01:23:02.860647 10235 net.cpp:165] Memory required for data: 269629048
I0322 01:23:02.860652 10235 layer_factory.hpp:77] Creating layer conv7_2_mbox_conf
I0322 01:23:02.860666 10235 net.cpp:100] Creating Layer conv7_2_mbox_conf
I0322 01:23:02.860673 10235 net.cpp:434] conv7_2_mbox_conf <- conv7_2_conv7_2_relu_0_split_2
I0322 01:23:02.860682 10235 net.cpp:408] conv7_2_mbox_conf -> conv7_2_mbox_conf
I0322 01:23:02.863396 10235 net.cpp:150] Setting up conv7_2_mbox_conf
I0322 01:23:02.863413 10235 net.cpp:157] Top shape: 1 66 5 5 (1650)
I0322 01:23:02.863418 10235 net.cpp:165] Memory required for data: 269635648
I0322 01:23:02.863428 10235 layer_factory.hpp:77] Creating layer conv7_2_mbox_conf_perm
I0322 01:23:02.863440 10235 net.cpp:100] Creating Layer conv7_2_mbox_conf_perm
I0322 01:23:02.863446 10235 net.cpp:434] conv7_2_mbox_conf_perm <- conv7_2_mbox_conf
I0322 01:23:02.863457 10235 net.cpp:408] conv7_2_mbox_conf_perm -> conv7_2_mbox_conf_perm
I0322 01:23:02.863584 10235 net.cpp:150] Setting up conv7_2_mbox_conf_perm
I0322 01:23:02.863593 10235 net.cpp:157] Top shape: 1 5 5 66 (1650)
I0322 01:23:02.863597 10235 net.cpp:165] Memory required for data: 269642248
I0322 01:23:02.863603 10235 layer_factory.hpp:77] Creating layer conv7_2_mbox_conf_flat
I0322 01:23:02.863615 10235 net.cpp:100] Creating Layer conv7_2_mbox_conf_flat
I0322 01:23:02.863632 10235 net.cpp:434] conv7_2_mbox_conf_flat <- conv7_2_mbox_conf_perm
I0322 01:23:02.863641 10235 net.cpp:408] conv7_2_mbox_conf_flat -> conv7_2_mbox_conf_flat
I0322 01:23:02.863679 10235 net.cpp:150] Setting up conv7_2_mbox_conf_flat
I0322 01:23:02.863687 10235 net.cpp:157] Top shape: 1 1650 (1650)
I0322 01:23:02.863692 10235 net.cpp:165] Memory required for data: 269648848
I0322 01:23:02.863698 10235 layer_factory.hpp:77] Creating layer conv7_2_mbox_priorbox
I0322 01:23:02.863710 10235 net.cpp:100] Creating Layer conv7_2_mbox_priorbox
I0322 01:23:02.863719 10235 net.cpp:434] conv7_2_mbox_priorbox <- conv7_2_conv7_2_relu_0_split_3
I0322 01:23:02.863729 10235 net.cpp:434] conv7_2_mbox_priorbox <- data_data_0_split_4
I0322 01:23:02.863739 10235 net.cpp:408] conv7_2_mbox_priorbox -> conv7_2_mbox_priorbox
I0322 01:23:02.863780 10235 net.cpp:150] Setting up conv7_2_mbox_priorbox
I0322 01:23:02.863787 10235 net.cpp:157] Top shape: 1 2 600 (1200)
I0322 01:23:02.863791 10235 net.cpp:165] Memory required for data: 269653648
I0322 01:23:02.863797 10235 layer_factory.hpp:77] Creating layer conv8_2_mbox_loc
I0322 01:23:02.863816 10235 net.cpp:100] Creating Layer conv8_2_mbox_loc
I0322 01:23:02.863821 10235 net.cpp:434] conv8_2_mbox_loc <- conv8_2_conv8_2_relu_0_split_1
I0322 01:23:02.863831 10235 net.cpp:408] conv8_2_mbox_loc -> conv8_2_mbox_loc
I0322 01:23:02.865463 10235 net.cpp:150] Setting up conv8_2_mbox_loc
I0322 01:23:02.865479 10235 net.cpp:157] Top shape: 1 16 3 3 (144)
I0322 01:23:02.865485 10235 net.cpp:165] Memory required for data: 269654224
I0322 01:23:02.865494 10235 layer_factory.hpp:77] Creating layer conv8_2_mbox_loc_perm
I0322 01:23:02.865502 10235 net.cpp:100] Creating Layer conv8_2_mbox_loc_perm
I0322 01:23:02.865510 10235 net.cpp:434] conv8_2_mbox_loc_perm <- conv8_2_mbox_loc
I0322 01:23:02.865521 10235 net.cpp:408] conv8_2_mbox_loc_perm -> conv8_2_mbox_loc_perm
I0322 01:23:02.865643 10235 net.cpp:150] Setting up conv8_2_mbox_loc_perm
I0322 01:23:02.865653 10235 net.cpp:157] Top shape: 1 3 3 16 (144)
I0322 01:23:02.865656 10235 net.cpp:165] Memory required for data: 269654800
I0322 01:23:02.865662 10235 layer_factory.hpp:77] Creating layer conv8_2_mbox_loc_flat
I0322 01:23:02.865672 10235 net.cpp:100] Creating Layer conv8_2_mbox_loc_flat
I0322 01:23:02.865679 10235 net.cpp:434] conv8_2_mbox_loc_flat <- conv8_2_mbox_loc_perm
I0322 01:23:02.865723 10235 net.cpp:408] conv8_2_mbox_loc_flat -> conv8_2_mbox_loc_flat
I0322 01:23:02.865784 10235 net.cpp:150] Setting up conv8_2_mbox_loc_flat
I0322 01:23:02.865792 10235 net.cpp:157] Top shape: 1 144 (144)
I0322 01:23:02.865797 10235 net.cpp:165] Memory required for data: 269655376
I0322 01:23:02.865803 10235 layer_factory.hpp:77] Creating layer conv8_2_mbox_conf
I0322 01:23:02.865819 10235 net.cpp:100] Creating Layer conv8_2_mbox_conf
I0322 01:23:02.865825 10235 net.cpp:434] conv8_2_mbox_conf <- conv8_2_conv8_2_relu_0_split_2
I0322 01:23:02.865835 10235 net.cpp:408] conv8_2_mbox_conf -> conv8_2_mbox_conf
I0322 01:23:02.868271 10235 net.cpp:150] Setting up conv8_2_mbox_conf
I0322 01:23:02.868285 10235 net.cpp:157] Top shape: 1 44 3 3 (396)
I0322 01:23:02.868289 10235 net.cpp:165] Memory required for data: 269656960
I0322 01:23:02.868299 10235 layer_factory.hpp:77] Creating layer conv8_2_mbox_conf_perm
I0322 01:23:02.868309 10235 net.cpp:100] Creating Layer conv8_2_mbox_conf_perm
I0322 01:23:02.868317 10235 net.cpp:434] conv8_2_mbox_conf_perm <- conv8_2_mbox_conf
I0322 01:23:02.868329 10235 net.cpp:408] conv8_2_mbox_conf_perm -> conv8_2_mbox_conf_perm
I0322 01:23:02.868453 10235 net.cpp:150] Setting up conv8_2_mbox_conf_perm
I0322 01:23:02.868461 10235 net.cpp:157] Top shape: 1 3 3 44 (396)
I0322 01:23:02.868466 10235 net.cpp:165] Memory required for data: 269658544
I0322 01:23:02.868471 10235 layer_factory.hpp:77] Creating layer conv8_2_mbox_conf_flat
I0322 01:23:02.868479 10235 net.cpp:100] Creating Layer conv8_2_mbox_conf_flat
I0322 01:23:02.868485 10235 net.cpp:434] conv8_2_mbox_conf_flat <- conv8_2_mbox_conf_perm
I0322 01:23:02.868538 10235 net.cpp:408] conv8_2_mbox_conf_flat -> conv8_2_mbox_conf_flat
I0322 01:23:02.868579 10235 net.cpp:150] Setting up conv8_2_mbox_conf_flat
I0322 01:23:02.868587 10235 net.cpp:157] Top shape: 1 396 (396)
I0322 01:23:02.868592 10235 net.cpp:165] Memory required for data: 269660128
I0322 01:23:02.868597 10235 layer_factory.hpp:77] Creating layer conv8_2_mbox_priorbox
I0322 01:23:02.868607 10235 net.cpp:100] Creating Layer conv8_2_mbox_priorbox
I0322 01:23:02.868614 10235 net.cpp:434] conv8_2_mbox_priorbox <- conv8_2_conv8_2_relu_0_split_3
I0322 01:23:02.868620 10235 net.cpp:434] conv8_2_mbox_priorbox <- data_data_0_split_5
I0322 01:23:02.868633 10235 net.cpp:408] conv8_2_mbox_priorbox -> conv8_2_mbox_priorbox
I0322 01:23:02.868671 10235 net.cpp:150] Setting up conv8_2_mbox_priorbox
I0322 01:23:02.868680 10235 net.cpp:157] Top shape: 1 2 144 (288)
I0322 01:23:02.868683 10235 net.cpp:165] Memory required for data: 269661280
I0322 01:23:02.868690 10235 layer_factory.hpp:77] Creating layer conv9_2_mbox_loc
I0322 01:23:02.868705 10235 net.cpp:100] Creating Layer conv9_2_mbox_loc
I0322 01:23:02.868710 10235 net.cpp:434] conv9_2_mbox_loc <- conv9_2_conv9_2_relu_0_split_0
I0322 01:23:02.868719 10235 net.cpp:408] conv9_2_mbox_loc -> conv9_2_mbox_loc
I0322 01:23:02.870422 10235 net.cpp:150] Setting up conv9_2_mbox_loc
I0322 01:23:02.870435 10235 net.cpp:157] Top shape: 1 16 1 1 (16)
I0322 01:23:02.870440 10235 net.cpp:165] Memory required for data: 269661344
I0322 01:23:02.870450 10235 layer_factory.hpp:77] Creating layer conv9_2_mbox_loc_perm
I0322 01:23:02.870462 10235 net.cpp:100] Creating Layer conv9_2_mbox_loc_perm
I0322 01:23:02.870471 10235 net.cpp:434] conv9_2_mbox_loc_perm <- conv9_2_mbox_loc
I0322 01:23:02.870478 10235 net.cpp:408] conv9_2_mbox_loc_perm -> conv9_2_mbox_loc_perm
I0322 01:23:02.870596 10235 net.cpp:150] Setting up conv9_2_mbox_loc_perm
I0322 01:23:02.870604 10235 net.cpp:157] Top shape: 1 1 1 16 (16)
I0322 01:23:02.870609 10235 net.cpp:165] Memory required for data: 269661408
I0322 01:23:02.870613 10235 layer_factory.hpp:77] Creating layer conv9_2_mbox_loc_flat
I0322 01:23:02.870658 10235 net.cpp:100] Creating Layer conv9_2_mbox_loc_flat
I0322 01:23:02.870666 10235 net.cpp:434] conv9_2_mbox_loc_flat <- conv9_2_mbox_loc_perm
I0322 01:23:02.870674 10235 net.cpp:408] conv9_2_mbox_loc_flat -> conv9_2_mbox_loc_flat
I0322 01:23:02.870712 10235 net.cpp:150] Setting up conv9_2_mbox_loc_flat
I0322 01:23:02.870718 10235 net.cpp:157] Top shape: 1 16 (16)
I0322 01:23:02.870723 10235 net.cpp:165] Memory required for data: 269661472
I0322 01:23:02.870728 10235 layer_factory.hpp:77] Creating layer conv9_2_mbox_conf
I0322 01:23:02.870741 10235 net.cpp:100] Creating Layer conv9_2_mbox_conf
I0322 01:23:02.870748 10235 net.cpp:434] conv9_2_mbox_conf <- conv9_2_conv9_2_relu_0_split_1
I0322 01:23:02.870757 10235 net.cpp:408] conv9_2_mbox_conf -> conv9_2_mbox_conf
I0322 01:23:02.873102 10235 net.cpp:150] Setting up conv9_2_mbox_conf
I0322 01:23:02.873116 10235 net.cpp:157] Top shape: 1 44 1 1 (44)
I0322 01:23:02.873121 10235 net.cpp:165] Memory required for data: 269661648
I0322 01:23:02.873131 10235 layer_factory.hpp:77] Creating layer conv9_2_mbox_conf_perm
I0322 01:23:02.873142 10235 net.cpp:100] Creating Layer conv9_2_mbox_conf_perm
I0322 01:23:02.873148 10235 net.cpp:434] conv9_2_mbox_conf_perm <- conv9_2_mbox_conf
I0322 01:23:02.873158 10235 net.cpp:408] conv9_2_mbox_conf_perm -> conv9_2_mbox_conf_perm
I0322 01:23:02.873286 10235 net.cpp:150] Setting up conv9_2_mbox_conf_perm
I0322 01:23:02.873296 10235 net.cpp:157] Top shape: 1 1 1 44 (44)
I0322 01:23:02.873301 10235 net.cpp:165] Memory required for data: 269661824
I0322 01:23:02.873306 10235 layer_factory.hpp:77] Creating layer conv9_2_mbox_conf_flat
I0322 01:23:02.873314 10235 net.cpp:100] Creating Layer conv9_2_mbox_conf_flat
I0322 01:23:02.873322 10235 net.cpp:434] conv9_2_mbox_conf_flat <- conv9_2_mbox_conf_perm
I0322 01:23:02.873330 10235 net.cpp:408] conv9_2_mbox_conf_flat -> conv9_2_mbox_conf_flat
I0322 01:23:02.873368 10235 net.cpp:150] Setting up conv9_2_mbox_conf_flat
I0322 01:23:02.873386 10235 net.cpp:157] Top shape: 1 44 (44)
I0322 01:23:02.873391 10235 net.cpp:165] Memory required for data: 269662000
I0322 01:23:02.873397 10235 layer_factory.hpp:77] Creating layer conv9_2_mbox_priorbox
I0322 01:23:02.873406 10235 net.cpp:100] Creating Layer conv9_2_mbox_priorbox
I0322 01:23:02.873414 10235 net.cpp:434] conv9_2_mbox_priorbox <- conv9_2_conv9_2_relu_0_split_2
I0322 01:23:02.873420 10235 net.cpp:434] conv9_2_mbox_priorbox <- data_data_0_split_6
I0322 01:23:02.873430 10235 net.cpp:408] conv9_2_mbox_priorbox -> conv9_2_mbox_priorbox
I0322 01:23:02.873471 10235 net.cpp:150] Setting up conv9_2_mbox_priorbox
I0322 01:23:02.873479 10235 net.cpp:157] Top shape: 1 2 16 (32)
I0322 01:23:02.873483 10235 net.cpp:165] Memory required for data: 269662128
I0322 01:23:02.873489 10235 layer_factory.hpp:77] Creating layer mbox_loc
I0322 01:23:02.873499 10235 net.cpp:100] Creating Layer mbox_loc
I0322 01:23:02.873507 10235 net.cpp:434] mbox_loc <- conv4_3_norm_mbox_loc_flat
I0322 01:23:02.873513 10235 net.cpp:434] mbox_loc <- fc7_mbox_loc_flat
I0322 01:23:02.873522 10235 net.cpp:434] mbox_loc <- conv6_2_mbox_loc_flat
I0322 01:23:02.873530 10235 net.cpp:434] mbox_loc <- conv7_2_mbox_loc_flat
I0322 01:23:02.873538 10235 net.cpp:434] mbox_loc <- conv8_2_mbox_loc_flat
I0322 01:23:02.873544 10235 net.cpp:434] mbox_loc <- conv9_2_mbox_loc_flat
I0322 01:23:02.873554 10235 net.cpp:408] mbox_loc -> mbox_loc
I0322 01:23:02.873591 10235 net.cpp:150] Setting up mbox_loc
I0322 01:23:02.873601 10235 net.cpp:157] Top shape: 1 34928 (34928)
I0322 01:23:02.873605 10235 net.cpp:165] Memory required for data: 269801840
I0322 01:23:02.873611 10235 layer_factory.hpp:77] Creating layer mbox_conf
I0322 01:23:02.873620 10235 net.cpp:100] Creating Layer mbox_conf
I0322 01:23:02.873626 10235 net.cpp:434] mbox_conf <- conv4_3_norm_mbox_conf_flat
I0322 01:23:02.873633 10235 net.cpp:434] mbox_conf <- fc7_mbox_conf_flat
I0322 01:23:02.873641 10235 net.cpp:434] mbox_conf <- conv6_2_mbox_conf_flat
I0322 01:23:02.873647 10235 net.cpp:434] mbox_conf <- conv7_2_mbox_conf_flat
I0322 01:23:02.873654 10235 net.cpp:434] mbox_conf <- conv8_2_mbox_conf_flat
I0322 01:23:02.873661 10235 net.cpp:434] mbox_conf <- conv9_2_mbox_conf_flat
I0322 01:23:02.873668 10235 net.cpp:408] mbox_conf -> mbox_conf
I0322 01:23:02.873705 10235 net.cpp:150] Setting up mbox_conf
I0322 01:23:02.873714 10235 net.cpp:157] Top shape: 1 96052 (96052)
I0322 01:23:02.873718 10235 net.cpp:165] Memory required for data: 270186048
I0322 01:23:02.873723 10235 layer_factory.hpp:77] Creating layer mbox_priorbox
I0322 01:23:02.873757 10235 net.cpp:100] Creating Layer mbox_priorbox
I0322 01:23:02.873764 10235 net.cpp:434] mbox_priorbox <- conv4_3_norm_mbox_priorbox
I0322 01:23:02.873771 10235 net.cpp:434] mbox_priorbox <- fc7_mbox_priorbox
I0322 01:23:02.873777 10235 net.cpp:434] mbox_priorbox <- conv6_2_mbox_priorbox
I0322 01:23:02.873785 10235 net.cpp:434] mbox_priorbox <- conv7_2_mbox_priorbox
I0322 01:23:02.873790 10235 net.cpp:434] mbox_priorbox <- conv8_2_mbox_priorbox
I0322 01:23:02.873795 10235 net.cpp:434] mbox_priorbox <- conv9_2_mbox_priorbox
I0322 01:23:02.873803 10235 net.cpp:408] mbox_priorbox -> mbox_priorbox
I0322 01:23:02.873842 10235 net.cpp:150] Setting up mbox_priorbox
I0322 01:23:02.873852 10235 net.cpp:157] Top shape: 1 2 34928 (69856)
I0322 01:23:02.873855 10235 net.cpp:165] Memory required for data: 270465472
I0322 01:23:02.873860 10235 layer_factory.hpp:77] Creating layer mbox_conf_reshape
I0322 01:23:02.873872 10235 net.cpp:100] Creating Layer mbox_conf_reshape
I0322 01:23:02.873879 10235 net.cpp:434] mbox_conf_reshape <- mbox_conf
I0322 01:23:02.873888 10235 net.cpp:408] mbox_conf_reshape -> mbox_conf_reshape
I0322 01:23:02.873932 10235 net.cpp:150] Setting up mbox_conf_reshape
I0322 01:23:02.873967 10235 net.cpp:157] Top shape: 1 8732 11 (96052)
I0322 01:23:02.873973 10235 net.cpp:165] Memory required for data: 270849680
I0322 01:23:02.873978 10235 layer_factory.hpp:77] Creating layer mbox_conf_softmax
I0322 01:23:02.873999 10235 net.cpp:100] Creating Layer mbox_conf_softmax
I0322 01:23:02.874007 10235 net.cpp:434] mbox_conf_softmax <- mbox_conf_reshape
I0322 01:23:02.874018 10235 net.cpp:408] mbox_conf_softmax -> mbox_conf_softmax
I0322 01:23:02.874269 10235 net.cpp:150] Setting up mbox_conf_softmax
I0322 01:23:02.874279 10235 net.cpp:157] Top shape: 1 8732 11 (96052)
I0322 01:23:02.874284 10235 net.cpp:165] Memory required for data: 271233888
I0322 01:23:02.874289 10235 layer_factory.hpp:77] Creating layer mbox_conf_flatten
I0322 01:23:02.874298 10235 net.cpp:100] Creating Layer mbox_conf_flatten
I0322 01:23:02.874306 10235 net.cpp:434] mbox_conf_flatten <- mbox_conf_softmax
I0322 01:23:02.874315 10235 net.cpp:408] mbox_conf_flatten -> mbox_conf_flatten
I0322 01:23:02.874356 10235 net.cpp:150] Setting up mbox_conf_flatten
I0322 01:23:02.874363 10235 net.cpp:157] Top shape: 1 96052 (96052)
I0322 01:23:02.874367 10235 net.cpp:165] Memory required for data: 271618096
I0322 01:23:02.874373 10235 layer_factory.hpp:77] Creating layer detection_out
I0322 01:23:02.874394 10235 net.cpp:100] Creating Layer detection_out
I0322 01:23:02.874400 10235 net.cpp:434] detection_out <- mbox_loc
I0322 01:23:02.874408 10235 net.cpp:434] detection_out <- mbox_conf_flatten
I0322 01:23:02.874413 10235 net.cpp:434] detection_out <- mbox_priorbox
I0322 01:23:02.874424 10235 net.cpp:408] detection_out -> detection_out
W0322 01:23:02.874459 10235 detection_output_layer.cpp:49] Failed to create directory: /home/zs/data/VOCdevkit/results/VOC2007/SSD_300x300_0322_conv4/Main
I0322 01:23:02.874838 10235 net.cpp:150] Setting up detection_out
I0322 01:23:02.874850 10235 net.cpp:157] Top shape: 1 1 1 7 (7)
I0322 01:23:02.874855 10235 net.cpp:165] Memory required for data: 271618124
I0322 01:23:02.874861 10235 layer_factory.hpp:77] Creating layer detection_eval
I0322 01:23:02.874871 10235 net.cpp:100] Creating Layer detection_eval
I0322 01:23:02.874878 10235 net.cpp:434] detection_eval <- detection_out
I0322 01:23:02.874887 10235 net.cpp:434] detection_eval <- label
I0322 01:23:02.874895 10235 net.cpp:408] detection_eval -> detection_eval
I0322 01:23:02.874989 10235 net.cpp:150] Setting up detection_eval
I0322 01:23:02.874999 10235 net.cpp:157] Top shape: 1 1 11 5 (55)
I0322 01:23:02.875005 10235 net.cpp:165] Memory required for data: 271618344
I0322 01:23:02.875010 10235 net.cpp:228] detection_eval does not need backward computation.
I0322 01:23:02.875016 10235 net.cpp:228] detection_out does not need backward computation.
I0322 01:23:02.875022 10235 net.cpp:228] mbox_conf_flatten does not need backward computation.
I0322 01:23:02.875030 10235 net.cpp:228] mbox_conf_softmax does not need backward computation.
…
