…
      sampler {
        min_scale: 0.3
        max_scale: 1
        min_aspect_ratio: 0.5
        max_aspect_ratio: 2
      }
      sample_constraint {
        min_jaccard_overlap: 0.9
      }
      max_sample: 1
      max_trials: 50
    }
    batch_sampler {
      sampler {
        min_scale: 0.3
        max_scale: 1
        min_aspect_ratio: 0.5
        max_aspect_ratio: 2
      }
      sample_constraint {
        max_jaccard_overlap: 1
      }
      max_sample: 1
      max_trials: 50
    }
    label_map_file: "data/VOC0712/labelmap_voc.prototxt"
  }
}
layer {
  name: "conv1_1"
  type: "Convolution"
  bottom: "data"
  top: "conv1_1"
  param {
    lr_mult: 1
    decay_mult: 1
  }
  param {
    lr_mult: 2
    decay_mult: 0
  }
  convolution_param {
    num_output: 64
    pad: 1
    kernel_size: 3
    weight_filler {
      type: "xavier"
    }
    bias_filler {
      type: "constant"
      value: 0
    }
  }
}
layer {
  name: "relu1_1"
  type: "ReLU"
  bottom: "conv1_1"
  top: "conv1_1"
}
layer {
  name: "conv1_2"
  type: "Convolution"
  bottom: "conv1_1"
  top: "conv1_2"
  param {
    lr_mult: 1
    decay_mult: 1
  }
  param {
    lr_mult: 2
    decay_mult: 0
  }
  convolution_param {
    num_output: 64
    pad: 1
    kernel_size: 3
    weight_filler {
      type: "xavier"
    }
    bias_filler {
      type: "constant"
      value: 0
    }
  }
}
layer {
  name: "relu1_2"
  type: "ReLU"
  bottom: "conv1_2"
  top: "conv1_2"
}
layer {
  name: "pool1"
  type: "Pooling"
  bottom: "conv1_2"
  top: "pool1"
  pooling_param {
    pool: MAX
    kernel_size: 2
    stride: 2
  }
}
layer {
  name: "conv2_1"
  type: "Convolution"
  bottom: "pool1"
  top: "conv2_1"
  param {
    lr_mult: 1
    decay_mult: 1
  }
  param {
    lr_mult: 2
    decay_mult: 0
  }
  convolution_param {
    num_output: 128
    pad: 1
    kernel_size: 3
    weight_filler {
      type: "xavier"
    }
    bias_filler {
      type: "constant"
      value: 0
    }
  }
}
layer {
  name: "relu2_1"
  type: "ReLU"
  bottom: "conv2_1"
  top: "conv2_1"
}
layer {
  name: "conv2_2"
  type: "Convolution"
  bottom: "conv2_1"
  top: "conv2_2"
  param {
    lr_mult: 1
    decay_mult: 1
  }
  param {
    lr_mult: 2
    decay_mult: 0
  }
  convolution_param {
    num_output: 128
    pad: 1
    kernel_size: 3
    weight_filler {
      type: "xavier"
    }
    bias_filler {
      type: "constant"
      value: 0
    }
  }
}
layer {
  name: "relu2_2"
  type: "ReLU"
  bottom: "conv2_2"
  top: "conv2_2"
}
layer {
  name: "pool2"
  type: "Pooling"
  bottom: "conv2_2"
  top: "pool2"
  pooling_param {
    pool: MAX
    kernel_size: 2
    stride: 2
  }
}
layer {
  name: "conv3_1"
  type: "Convolution"
  bottom: "pool2"
  top: "conv3_1"
  param {
    lr_mult: 1
    decay_mult: 1
  }
  param {
    lr_mult: 2
    decay_mult: 0
  }
  convolution_param {
    num_output: 256
    pad: 1
    kernel_size: 3
    weight_filler {
      type: "xavier"
    }
    bias_filler {
      type: "constant"
      value: 0
    }
  }
}
layer {
  name: "relu3_1"
  type: "ReLU"
  bottom: "conv3_1"
  top: "conv3_1"
}
layer {
  name: "conv3_2"
  type: "Convolution"
  bottom: "conv3_1"
  top: "conv3_2"
  param {
    lr_mult: 1
    decay_mult: 1
  }
  param {
    lr_mult: 2
    decay_mult: 0
  }
  convolution_param {
    num_output: 256
    pad: 1
    kernel_size: 3
    weight_filler {
      type: "xavier"
    }
    bias_filler {
      type: "constant"
      value: 0
    }
  }
}
layer {
  name: "relu3_2"
  type: "ReLU"
  bottom: "conv3_2"
  top: "conv3_2"
}
layer {
  name: "conv3_3"
  type: "Convolution"
  bottom: "conv3_2"
  top: "conv3_3"
  param {
    lr_mult: 1
    decay_mult: 1
  }
  param {
    lr_mult: 2
    decay_mult: 0
  }
  convolution_param {
    num_output: 256
    pad: 1
    kernel_size: 3
    weight_filler {
      type: "xavier"
    }
    bias_filler {
      type: "constant"
      value: 0
    }
  }
}
layer {
  name: "relu3_3"
  type: "ReLU"
  bottom: "conv3_3"
  top: "conv3_3"
}
layer {
  name: "pool3"
  type: "Pooling"
  bottom: "conv3_3"
  top: "pool3"
  pooling_param {
    pool: MAX
    kernel_size: 2
    stride: 2
  }
}
layer {
  name: "conv4_1"
  type: "Convolution"
  bottom: "pool3"
  top: "conv4_1"
  param {
    lr_mult: 1
    decay_mult: 1
  }
  param {
    lr_mult: 2
    decay_mult: 0
  }
  convolution_param {
    num_output: 512
    pad: 1
    kernel_size: 3
    weight_filler {
      type: "xavier"
    }
    bias_filler {
      type: "constant"
      value: 0
    }
  }
}
layer {
  name: "relu4_1"
  type: "ReLU"
  bottom: "conv4_1"
  top: "conv4_1"
}
layer {
  name: "conv4_2"
  type: "Convolution"
  bottom: "conv4_1"
  top: "conv4_2"
  param {
    lr_mult: 1
    decay_mult: 1
  }
  param {
    lr_mult: 2
    decay_mult: 0
  }
  convolution_param {
    num_output: 512
    pad: 1
    kernel_size: 3
    weight_filler {
      type: "xavier"
    }
    bias_filler {
      type: "constant"
      value: 0
    }
  }
}
layer {
  name: "relu4_2"
  type: "ReLU"
  bottom: "conv4_2"
  top: "conv4_2"
}
layer {
  name: "conv4_3"
  type: "Convolution"
  bottom: "conv4_2"
  top: "conv4_3"
  param {
    lr_mult: 1
    decay_mult: 1
  }
  param {
    lr_mult: 2
    decay_mult: 0
  }
  convolution_param {
    num_output: 512
    pad: 1
    kernel_size: 3
    weight_filler {
      type: "xavier"
    }
    bias_filler {
      type: "constant"
      value: 0
    }
  }
}
layer {
  name: "relu4_3"
  type: "ReLU"
  bottom: "conv4_3"
  top: "conv4_3"
}
layer {
  name: "pool4"
  type: "Pooling"
  bottom: "conv4_3"
  top: "pool4"
  pooling_param {
    pool: MAX
    kernel_size: 2
    stride: 2
  }
}
layer {
  name: "conv5_1"
  type: "Convolution"
  bottom: "pool4"
  top: "conv5_1"
  param {
    lr_mult: 1
    decay_mult: 1
  }
  param {
    lr_mult: 2
    decay_mult: 0
  }
  convolution_param {
    num_output: 512
    pad: 1
    kernel_size: 3
    weight_filler {
      type: "xavier"
    }
    bias_filler {
      type: "constant"
      value: 0
    }
    dilation: 1
  }
}
layer {
  name: "relu5_1"
  type: "ReLU"
  bottom: "conv5_1"
  top: "conv5_1"
}
layer {
  name: "conv5_2"
  type: "Convolution"
  bottom: "conv5_1"
  top: "conv5_2"
  param {
    lr_mult: 1
    decay_mult: 1
  }
  param {
    lr_mult: 2
    decay_mult: 0
  }
  convolution_param {
    num_output: 512
    pad: 1
    kernel_size: 3
    weight_filler {
      type: "xavier"
    }
    bias_filler {
      type: "constant"
      value: 0
    }
    dilation: 1
  }
}
layer {
  name: "relu5_2"
  type: "ReLU"
  bottom: "conv5_2"
  top: "conv5_2"
}
layer {
  name: "conv5_3"
  type: "Convolution"
  bottom: "conv5_2"
  top: "conv5_3"
  param {
    lr_mult: 1
    decay_mult: 1
  }
  param {
    lr_mult: 2
    decay_mult: 0
  }
  convolution_param {
    num_output: 512
    pad: 1
    kernel_size: 3
    weight_filler {
      type: "xavier"
    }
    bias_filler {
      type: "constant"
      value: 0
    }
    dilation: 1
  }
}
layer {
  name: "relu5_3"
  type: "ReLU"
  bottom: "conv5_3"
  top: "conv5_3"
}
layer {
  name: "pool5"
  type: "Pooling"
  bottom: "conv5_3"
  top: "pool5"
  pooling_param {
    pool: MAX
    kernel_size: 3
    stride: 1
    pad: 1
  }
}
layer {
  name: "fc6"
  type: "Convolution"
  bottom: "pool5"
  top: "fc6"
  param {
    lr_mult: 1
    decay_mult: 1
  }
  param {
    lr_mult: 2
    decay_mult: 0
  }
  convolution_param {
    num_output: 1024
    pad: 6
    kernel_size: 3
    weight_filler {
      type: "xavier"
    }
    bias_filler {
      type: "constant"
      value: 0
    }
    dilation: 6
  }
}
layer {
  name: "relu6"
  type: "ReLU"
  bottom: "fc6"
  top: "fc6"
}
layer {
  name: "fc7"
  type: "Convolution"
  bottom: "fc6"
  top: "fc7"
  param {
    lr_mult: 1
    decay_mult: 1
  }
  param {
    lr_mult: 2
    decay_mult: 0
  }
  convolution_param {
    num_output: 1024
    kernel_size: 1
    weight_filler {
      type: "xavier"
    }
    bias_filler {
      type: "constant"
      value: 0
    }
  }
}
layer {
  name: "relu7"
  type: "ReLU"
  bottom: "fc7"
  top: "fc7"
}
layer {
  name: "conv6_1"
  type: "Convolution"
  bottom: "fc7"
  top: "conv6_1"
  param {
    lr_mult: 1
    decay_mult: 1
  }
  param {
    lr_mult: 2
    decay_mult: 0
  }
  convolution_param {
    num_output: 256
    pad: 0
    kernel_size: 1
    stride: 1
    weight_filler {
      type: "xavier"
    }
    bias_filler {
      type: "constant"
      value: 0
    }
  }
}
layer {
  name: "conv6_1_relu"
  type: "ReLU"
  bottom: "conv6_1"
  top: "conv6_1"
}
layer {
  name: "conv6_2"
  type: "Convolution"
  bottom: "conv6_1"
  top: "conv6_2"
  param {
    lr_mult: 1
    decay_mult: 1
  }
  param {
    lr_mult: 2
    decay_mult: 0
  }
  convolution_param {
    num_output: 512
    pad: 1
    kernel_size: 3
    stride: 2
    weight_filler {
      type: "xavier"
    }
    bias_filler {
      type: "constant"
      value: 0
    }
  }
}
layer {
  name: "conv6_2_relu"
  type: "ReLU"
  bottom: "conv6_2"
  top: "conv6_2"
}
layer {
  name: "conv7_1"
  type: "Convolution"
  bottom: "conv6_2"
  top: "conv7_1"
  param {
    lr_mult: 1
    decay_mult: 1
  }
  param {
    lr_mult: 2
    decay_mult: 0
  }
  convolution_param {
    num_output: 128
    pad: 0
    kernel_size: 1
    stride: 1
    weight_filler {
      type: "xavier"
    }
    bias_filler {
      type: "constant"
      value: 0
    }
  }
}
layer {
  name: "conv7_1_relu"
  type: "ReLU"
  bottom: "conv7_1"
  top: "conv7_1"
}
layer {
  name: "conv7_2"
  type: "Convolution"
  bottom: "conv7_1"
  top: "conv7_2"
  param {
    lr_mult: 1
    decay_mult: 1
  }
  param {
    lr_mult: 2
    decay_mult: 0
  }
  convolution_param {
    num_output: 256
    pad: 1
    kernel_size: 3
    stride: 2
    weight_filler {
      type: "xavier"
    }
    bias_filler {
      type: "constant"
      value: 0
    }
  }
}
layer {
  name: "conv7_2_relu"
  type: "ReLU"
  bottom: "conv7_2"
  top: "conv7_2"
}
layer {
  name: "conv8_1"
  type: "Convolution"
  bottom: "conv7_2"
  top: "conv8_1"
  param {
    lr_mult: 1
    decay_mult: 1
  }
  param {
    lr_mult: 2
    decay_mult: 0
  }
  convolution_param {
    num_output: 128
    pad: 0
    kernel_size: 1
    stride: 1
    weight_filler {
      type: "xavier"
    }
    bias_filler {
      type: "constant"
      value: 0
    }
  }
}
layer {
  name: "conv8_1_relu"
  type: "ReLU"
  bottom: "conv8_1"
  top: "conv8_1"
}
layer {
  name: "conv8_2"
  type: "Convolution"
  bottom: "conv8_1"
  top: "conv8_2"
  param {
    lr_mult: 1
    decay_mult: 1
  }
  param {
    lr_mult: 2
    decay_mult: 0
  }
  convolution_param {
    num_output: 256
    pad: 0
    kernel_size: 3
    stride: 1
    weight_filler {
      type: "xavier"
    }
    bias_filler {
      type: "constant"
      value: 0
    }
  }
}
layer {
  name: "conv8_2_relu"
  type: "ReLU"
  bottom: "conv8_2"
  top: "conv8_2"
}
layer {
  name: "conv9_1"
  type: "Convolution"
  bottom: "conv8_2"
  top: "conv9_1"
  param {
    lr_mult: 1
    decay_mult: 1
  }
  param {
    lr_mult: 2
    decay_mult: 0
  }
  convolution_param {
    num_output: 128
    pad: 0
    kernel_size: 1
    stride: 1
    weight_filler {
      type: "xavier"
    }
    bias_filler {
      type: "constant"
      value: 0
    }
  }
}
layer {
  name: "conv9_1_relu"
  type: "ReLU"
  bottom: "conv9_1"
  top: "conv9_1"
}
layer {
  name: "conv9_2"
  type: "Convolution"
  bottom: "conv9_1"
  top: "conv9_2"
  param {
    lr_mult: 1
    decay_mult: 1
  }
  param {
    lr_mult: 2
    decay_mult: 0
  }
  convolution_param {
    num_output: 256
    pad: 0
    kernel_size: 3
    stride: 1
    weight_filler {
      type: "xavier"
    }
    bias_filler {
      type: "constant"
      value: 0
    }
  }
}
layer {
  name: "conv9_2_relu"
  type: "ReLU"
  bottom: "conv9_2"
  top: "conv9_2"
}
layer {
  name: "conv4_3_norm"
  type: "Normalize"
  bottom: "conv4_3"
  top: "conv4_3_norm"
  norm_param {
    across_spatial: false
    scale_filler {
      type: "constant"
      value: 20
    }
    channel_shared: false
  }
}
layer {
  name: "conv4_3_norm_mbox_loc"
  type: "Convolution"
  bottom: "conv4_3_norm"
  top: "conv4_3_norm_mbox_loc"
  param {
    lr_mult: 1
    decay_mult: 1
  }
  param {
    lr_mult: 2
    decay_mult: 0
  }
  convolution_param {
    num_output: 16
    pad: 1
    kernel_size: 3
    stride: 1
    weight_filler {
      type: "xavier"
    }
    bias_filler {
      type: "constant"
      value: 0
    }
  }
}
layer {
  name: "conv4_3_norm_mbox_loc_perm"
  type: "Permute"
  bottom: "conv4_3_norm_mbox_loc"
  top: "conv4_3_norm_mbox_loc_perm"
  permute_param {
    order: 0
    order: 2
    order: 3
    order: 1
  }
}
layer {
  name: "conv4_3_norm_mbox_loc_flat"
  type: "Flatten"
  bottom: "conv4_3_norm_mbox_loc_perm"
  top: "conv4_3_norm_mbox_loc_flat"
  flatten_param {
    axis: 1
  }
}
layer {
  name: "conv4_3_norm_mbox_conf"
  type: "Convolution"
  bottom: "conv4_3_norm"
  top: "conv4_3_norm_mbox_conf"
  param {
    lr_mult: 1
    decay_mult: 1
  }
  param {
    lr_mult: 2
    decay_mult: 0
  }
  convolution_param {
    num_output: 84
    pad: 1
    kernel_size: 3
    stride: 1
    weight_filler {
      type: "xavier"
    }
    bias_filler {
      type: "constant"
      value: 0
    }
  }
}
layer {
  name: "conv4_3_norm_mbox_conf_perm"
  type: "Permute"
  bottom: "conv4_3_norm_mbox_conf"
  top: "conv4_3_norm_mbox_conf_perm"
  permute_param {
    order: 0
    order: 2
    order: 3
    order: 1
  }
}
layer {
  name: "conv4_3_norm_mbox_conf_flat"
  type: "Flatten"
  bottom: "conv4_3_norm_mbox_conf_perm"
  top: "conv4_3_norm_mbox_conf_flat"
  flatten_param {
    axis: 1
  }
}
layer {
  name: "conv4_3_norm_mbox_priorbox"
  type: "PriorBox"
  bottom: "conv4_3_norm"
  bottom: "data"
  top: "conv4_3_norm_mbox_priorbox"
  prior_box_param {
    min_size: 30
    max_size: 60
    aspect_ratio: 2
    flip: true
    clip: false
    variance: 0.1
    variance: 0.1
    variance: 0.2
    variance: 0.2
    step: 8
    offset: 0.5
  }
}
layer {
  name: "fc7_mbox_loc"
  type: "Convolution"
  bottom: "fc7"
  top: "fc7_mbox_loc"
  param {
    lr_mult: 1
    decay_mult: 1
  }
  param {
    lr_mult: 2
    decay_mult: 0
  }
  convolution_param {
    num_output: 24
    pad: 1
    kernel_size: 3
    stride: 1
    weight_filler {
      type: "xavier"
    }
    bias_filler {
      type: "constant"
      value: 0
    }
  }
}
layer {
  name: "fc7_mbox_loc_perm"
  type: "Permute"
  bottom: "fc7_mbox_loc"
  top: "fc7_mbox_loc_perm"
  permute_param {
    order: 0
    order: 2
    order: 3
    order: 1
  }
}
layer {
  name: "fc7_mbox_loc_flat"
  type: "Flatten"
  bottom: "fc7_mbox_loc_perm"
  top: "fc7_mbox_loc_flat"
  flatten_param {
    axis: 1
  }
}
layer {
  name: "fc7_mbox_conf"
  type: "Convolution"
  bottom: "fc7"
  top: "fc7_mbox_conf"
  param {
    lr_mult: 1
    decay_mult: 1
  }
  param {
    lr_mult: 2
    decay_mult: 0
  }
  convolution_param {
    num_output: 126
    pad: 1
    kernel_size: 3
    stride: 1
    weight_filler {
      type: "xavier"
    }
    bias_filler {
      type: "constant"
      value: 0
    }
  }
}
layer {
  name: "fc7_mbox_conf_perm"
  type: "Permute"
  bottom: "fc7_mbox_conf"
  top: "fc7_mbox_conf_perm"
  permute_param {
    order: 0
    order: 2
    order: 3
    order: 1
  }
}
layer {
  name: "fc7_mbox_conf_flat"
  type: "Flatten"
  bottom: "fc7_mbox_conf_perm"
  top: "fc7_mbox_conf_flat"
  flatten_param {
    axis: 1
  }
}
layer {
  name: "fc7_mbox_priorbox"
  type: "PriorBox"
  bottom: "fc7"
  bottom: "data"
  top: "fc7_mbox_priorbox"
  prior_box_param {
    min_size: 60
    max_size: 111
    aspect_ratio: 2
    aspect_ratio: 3
    flip: true
    clip: false
    variance: 0.1
    variance: 0.1
    variance: 0.2
    variance: 0.2
    step: 16
    offset: 0.5
  }
}
layer {
  name: "conv6_2_mbox_loc"
  type: "Convolution"
  bottom: "conv6_2"
  top: "conv6_2_mbox_loc"
  param {
    lr_mult: 1
    decay_mult: 1
  }
  param {
    lr_mult: 2
    decay_mult: 0
  }
  convolution_param {
    num_output: 24
    pad: 1
    kernel_size: 3
    stride: 1
    weight_filler {
      type: "xavier"
    }
    bias_filler {
      type: "constant"
      value: 0
    }
  }
}
layer {
  name: "conv6_2_mbox_loc_perm"
  type: "Permute"
  bottom: "conv6_2_mbox_loc"
  top: "conv6_2_mbox_loc_perm"
  permute_param {
    order: 0
    order: 2
    order: 3
    order: 1
  }
}
layer {
  name: "conv6_2_mbox_loc_flat"
  type: "Flatten"
  bottom: "conv6_2_mbox_loc_perm"
  top: "conv6_2_mbox_loc_flat"
  flatten_param {
    axis: 1
  }
}
layer {
  name: "conv6_2_mbox_conf"
  type: "Convolution"
  bottom: "conv6_2"
  top: "conv6_2_mbox_conf"
  param {
    lr_mult: 1
    decay_mult: 1
  }
  param {
    lr_mult: 2
    decay_mult: 0
  }
  convolution_param {
    num_output: 126
    pad: 1
    kernel_size: 3
    stride: 1
    weight_filler {
      type: "xavier"
    }
    bias_filler {
      type: "constant"
      value: 0
    }
  }
}
layer {
  name: "conv6_2_mbox_conf_perm"
  type: "Permute"
  bottom: "conv6_2_mbox_conf"
  top: "conv6_2_mbox_conf_perm"
  permute_param {
    order: 0
    order: 2
    order: 3
    order: 1
  }
}
layer {
  name: "conv6_2_mbox_conf_flat"
  type: "Flatten"
  bottom: "conv6_2_mbox_conf_perm"
  top: "conv6_2_mbox_conf_flat"
  flatten_param {
    axis: 1
  }
}
layer {
  name: "conv6_2_mbox_priorbox"
  type: "PriorBox"
  bottom: "conv6_2"
  bottom: "data"
  top: "conv6_2_mbox_priorbox"
  prior_box_param {
    min_size: 111
    max_size: 162
    aspect_ratio: 2
    aspect_ratio: 3
    flip: true
    clip: false
    variance: 0.1
    variance: 0.1
    variance: 0.2
    variance: 0.2
    step: 32
    offset: 0.5
  }
}
layer {
  name: "conv7_2_mbox_loc"
  type: "Convolution"
  bottom: "conv7_2"
  top: "conv7_2_mbox_loc"
  param {
    lr_mult: 1
    decay_mult: 1
  }
  param {
    lr_mult: 2
    decay_mult: 0
  }
  convolution_param {
    num_output: 24
    pad: 1
    kernel_size: 3
    stride: 1
    weight_filler {
      type: "xavier"
    }
    bias_filler {
      type: "constant"
      value: 0
    }
  }
}
layer {
  name: "conv7_2_mbox_loc_perm"
  type: "Permute"
  bottom: "conv7_2_mbox_loc"
  top: "conv7_2_mbox_loc_perm"
  permute_param {
    order: 0
    order: 2
    order: 3
    order: 1
  }
}
layer {
  name: "conv7_2_mbox_loc_flat"
  type: "Flatten"
  bottom: "conv7_2_mbox_loc_perm"
  top: "conv7_2_mbox_loc_flat"
  flatten_param {
    axis: 1
  }
}
layer {
  name: "conv7_2_mbox_conf"
  type: "Convolution"
  bottom: "conv7_2"
  top: "conv7_2_mbox_conf"
  param {
    lr_mult: 1
    decay_mult: 1
  }
  param {
    lr_mult: 2
    decay_mult: 0
  }
  convolution_param {
    num_output: 126
    pad: 1
    kernel_size: 3
    stride: 1
    weight_filler {
      type: "xavier"
    }
    bias_filler {
      type: "constant"
      value: 0
    }
  }
}
layer {
  name: "conv7_2_mbox_conf_perm"
  type: "Permute"
  bottom: "conv7_2_mbox_conf"
  top: "conv7_2_mbox_conf_perm"
  permute_param {
    order: 0
    order: 2
    order: 3
    order: 1
  }
}
layer {
  name: "conv7_2_mbox_conf_flat"
  type: "Flatten"
  bottom: "conv7_2_mbox_conf_perm"
  top: "conv7_2_mbox_conf_flat"
  flatten_param {
    axis: 1
  }
}
layer {
  name: "conv7_2_mbox_priorbox"
  type: "PriorBox"
  bottom: "conv7_2"
  bottom: "data"
  top: "conv7_2_mbox_priorbox"
  prior_box_param {
    min_size: 162
    max_size: 213
    aspect_ratio: 2
    aspect_ratio: 3
    flip: true
    clip: false
    variance: 0.1
    variance: 0.1
    variance: 0.2
    variance: 0.2
    step: 64
    offset: 0.5
  }
}
layer {
  name: "conv8_2_mbox_loc"
  type: "Convolution"
  bottom: "conv8_2"
  top: "conv8_2_mbox_loc"
  param {
    lr_mult: 1
    decay_mult: 1
  }
  param {
    lr_mult: 2
    decay_mult: 0
  }
  convolution_param {
    num_output: 16
    pad: 1
    kernel_size: 3
    stride: 1
    weight_filler {
      type: "xavier"
    }
    bias_filler {
      type: "constant"
      value: 0
    }
  }
}
layer {
  name: "conv8_2_mbox_loc_perm"
  type: "Permute"
  bottom: "conv8_2_mbox_loc"
  top: "conv8_2_mbox_loc_perm"
  permute_param {
    order: 0
    order: 2
    order: 3
    order: 1
  }
}
layer {
  name: "conv8_2_mbox_loc_flat"
  type: "Flatten"
  bottom: "conv8_2_mbox_loc_perm"
  top: "conv8_2_mbox_loc_flat"
  flatten_param {
    axis: 1
  }
}
layer {
  name: "conv8_2_mbox_conf"
  type: "Convolution"
  bottom: "conv8_2"
  top: "conv8_2_mbox_conf"
  param {
    lr_mult: 1
    decay_mult: 1
  }
  param {
    lr_mult: 2
    decay_mult: 0
  }
  convolution_param {
    num_output: 84
    pad: 1
    kernel_size: 3
    stride: 1
    weight_filler {
      type: "xavier"
    }
    bias_filler {
      type: "constant"
      value: 0
    }
  }
}
layer {
  name: "conv8_2_mbox_conf_perm"
  type: "Permute"
  bottom: "conv8_2_mbox_conf"
  top: "conv8_2_mbox_conf_perm"
  permute_param {
    order: 0
    order: 2
    order: 3
    order: 1
  }
}
layer {
  name: "conv8_2_mbox_conf_flat"
  type: "Flatten"
  bottom: "conv8_2_mbox_conf_perm"
  top: "conv8_2_mbox_conf_flat"
  flatten_param {
    axis: 1
  }
}
layer {
  name: "conv8_2_mbox_priorbox"
  type: "PriorBox"
  bottom: "conv8_2"
  bottom: "data"
  top: "conv8_2_mbox_priorbox"
  prior_box_param {
    min_size: 213
    max_size: 264
    aspect_ratio: 2
    flip: true
    clip: false
    variance: 0.1
    variance: 0.1
    variance: 0.2
    variance: 0.2
    step: 100
    offset: 0.5
  }
}
layer {
  name: "conv9_2_mbox_loc"
  type: "Convolution"
  bottom: "conv9_2"
  top: "conv9_2_mbox_loc"
  param {
    lr_mult: 1
    decay_mult: 1
  }
  param {
    lr_mult: 2
    decay_mult: 0
  }
  convolution_param {
    num_output: 16
    pad: 1
    kernel_size: 3
    stride: 1
    weight_filler {
      type: "xavier"
    }
    bias_filler {
      type: "constant"
      value: 0
    }
  }
}
layer {
  name: "conv9_2_mbox_loc_perm"
  type: "Permute"
  bottom: "conv9_2_mbox_loc"
  top: "conv9_2_mbox_loc_perm"
  permute_param {
    order: 0
    order: 2
    order: 3
    order: 1
  }
}
layer {
  name: "conv9_2_mbox_loc_flat"
  type: "Flatten"
  bottom: "conv9_2_mbox_loc_perm"
  top: "conv9_2_mbox_loc_flat"
  flatten_param {
    axis: 1
  }
}
layer {
  name: "conv9_2_mbox_conf"
  type: "Convolution"
  bottom: "conv9_2"
  top: "conv9_2_mbox_conf"
  param {
    lr_mult: 1
    decay_mult: 1
  }
  param {
    lr_mult: 2
    decay_mult: 0
  }
  convolution_param {
    num_output: 84
    pad: 1
    kernel_size: 3
    stride: 1
    weight_filler {
      type: "xavier"
    }
    bias_filler {
      type: "constant"
      value: 0
    }
  }
}
layer {
  name: "conv9_2_mbox_conf_perm"
  type: "Permute"
  bottom: "conv9_2_mbox_conf"
  top: "conv9_2_mbox_conf_perm"
  permute_param {
    order: 0
    order: 2
    order: 3
    order: 1
  }
}
layer {
  name: "conv9_2_mbox_conf_flat"
  type: "Flatten"
  bottom: "conv9_2_mbox_conf_perm"
  top: "conv9_2_mbox_conf_flat"
  flatten_param {
    axis: 1
  }
}
layer {
  name: "conv9_2_mbox_priorbox"
  type: "PriorBox"
  bottom: "conv9_2"
  bottom: "data"
  top: "conv9_2_mbox_priorbox"
  prior_box_param {
    min_size: 264
    max_size: 315
    aspect_ratio: 2
    flip: true
    clip: false
    variance: 0.1
    variance: 0.1
    variance: 0.2
    variance: 0.2
    step: 300
    offset: 0.5
  }
}
layer {
  name: "mbox_loc"
  type: "Concat"
  bottom: "conv4_3_norm_mbox_loc_flat"
  bottom: "fc7_mbox_loc_flat"
  bottom: "conv6_2_mbox_loc_flat"
  bottom: "conv7_2_mbox_loc_flat"
  bottom: "conv8_2_mbox_loc_flat"
  bottom: "conv9_2_mbox_loc_flat"
  top: "mbox_loc"
  concat_param {
    axis: 1
  }
}
layer {
  name: "mbox_conf"
  type: "Concat"
  bottom: "conv4_3_norm_mbox_conf_flat"
  bottom: "fc7_mbox_conf_flat"
  bottom: "conv6_2_mbox_conf_flat"
  bottom: "conv7_2_mbox_conf_flat"
  bottom: "conv8_2_mbox_conf_flat"
  bottom: "conv9_2_mbox_conf_flat"
  top: "mbox_conf"
  concat_param {
    axis: 1
  }
}
layer {
  name: "mbox_priorbox"
  type: "Concat"
  bottom: "conv4_3_norm_mbox_priorbox"
  bottom: "fc7_mbox_priorbox"
  bottom: "conv6_2_mbox_priorbox"
  bottom: "conv7_2_mbox_priorbox"
  bottom: "conv8_2_mbox_priorbox"
  bottom: "conv9_2_mbox_priorbox"
  top: "mbox_priorbox"
  concat_param {
    axis: 2
  }
}
layer {
  name: "mbox_loss"
  type: "MultiBoxLoss"
  bottom: "mbox_loc"
  bottom: "mbox_conf"
  bottom: "mbox_priorbox"
  bottom: "label"
  top: "mbox_loss"
  include {
    phase: TRAIN
  }
  propagate_down: true
  propagate_down: true
  propagate_down: false
  propagate_down: false
  loss_param {
    normalization: VALID
  }
  multibox_loss_param {
    loc_loss_type: SMOOTH_L1
    conf_loss_type: SOFTMAX
    loc_weight: 1
    num_classes: 21
    share_location: true
    match_type: PER_PREDICTION
    overlap_threshold: 0.5
    use_prior_for_matching: true
    background_label_id: 0
    use_difficult_gt: true
    neg_pos_ratio: 3
    neg_overlap: 0.5
    code_type: CENTER_SIZE
    ignore_cross_boundary_bbox: false
    mining_type: MAX_NEGATIVE
  }
}
I0305 10:53:09.651407 25446 layer_factory.hpp:77] Creating layer data
I0305 10:53:09.651922 25446 net.cpp:100] Creating Layer data
I0305 10:53:09.651944 25446 net.cpp:408] data -> data
I0305 10:53:09.651985 25446 net.cpp:408] data -> label
I0305 10:53:09.671471 25462 db_lmdb.cpp:35] Opened lmdb examples/VOC0712/VOC0712_trainval_lmdb
I0305 10:53:09.718034 25446 annotated_data_layer.cpp:62] output data size: 1,3,300,300
I0305 10:53:09.722368 25446 net.cpp:150] Setting up data
I0305 10:53:09.722441 25446 net.cpp:157] Top shape: 1 3 300 300 (270000)
I0305 10:53:09.722467 25446 net.cpp:157] Top shape: 1 1 1 8 (8)
I0305 10:53:09.722494 25446 net.cpp:165] Memory required for data: 1080032
I0305 10:53:09.722532 25446 layer_factory.hpp:77] Creating layer data_data_0_split
I0305 10:53:09.722559 25446 net.cpp:100] Creating Layer data_data_0_split
I0305 10:53:09.722581 25446 net.cpp:434] data_data_0_split <- data
I0305 10:53:09.722611 25446 net.cpp:408] data_data_0_split -> data_data_0_split_0
I0305 10:53:09.722640 25446 net.cpp:408] data_data_0_split -> data_data_0_split_1
I0305 10:53:09.722661 25446 net.cpp:408] data_data_0_split -> data_data_0_split_2
I0305 10:53:09.722684 25446 net.cpp:408] data_data_0_split -> data_data_0_split_3
I0305 10:53:09.722707 25446 net.cpp:408] data_data_0_split -> data_data_0_split_4
I0305 10:53:09.722728 25446 net.cpp:408] data_data_0_split -> data_data_0_split_5
I0305 10:53:09.722748 25446 net.cpp:408] data_data_0_split -> data_data_0_split_6
I0305 10:53:09.722862 25446 net.cpp:150] Setting up data_data_0_split
I0305 10:53:09.722885 25446 net.cpp:157] Top shape: 1 3 300 300 (270000)
I0305 10:53:09.722903 25446 net.cpp:157] Top shape: 1 3 300 300 (270000)
I0305 10:53:09.722920 25446 net.cpp:157] Top shape: 1 3 300 300 (270000)
I0305 10:53:09.722936 25446 net.cpp:157] Top shape: 1 3 300 300 (270000)
I0305 10:53:09.722952 25446 net.cpp:157] Top shape: 1 3 300 300 (270000)
I0305 10:53:09.722967 25446 net.cpp:157] Top shape: 1 3 300 300 (270000)
I0305 10:53:09.722985 25446 net.cpp:157] Top shape: 1 3 300 300 (270000)
I0305 10:53:09.723001 25446 net.cpp:165] Memory required for data: 8640032
I0305 10:53:09.723016 25446 layer_factory.hpp:77] Creating layer conv1_1
I0305 10:53:09.723044 25446 net.cpp:100] Creating Layer conv1_1
I0305 10:53:09.723060 25446 net.cpp:434] conv1_1 <- data_data_0_split_0
I0305 10:53:09.723081 25446 net.cpp:408] conv1_1 -> conv1_1
I0305 10:53:10.204367 25446 net.cpp:150] Setting up conv1_1
I0305 10:53:10.204397 25446 net.cpp:157] Top shape: 1 64 300 300 (5760000)
I0305 10:53:10.204402 25446 net.cpp:165] Memory required for data: 31680032
I0305 10:53:10.204432 25446 layer_factory.hpp:77] Creating layer relu1_1
I0305 10:53:10.204445 25446 net.cpp:100] Creating Layer relu1_1
I0305 10:53:10.204454 25446 net.cpp:434] relu1_1 <- conv1_1
I0305 10:53:10.204463 25446 net.cpp:395] relu1_1 -> conv1_1 (in-place)
I0305 10:53:10.205116 25446 net.cpp:150] Setting up relu1_1
I0305 10:53:10.205129 25446 net.cpp:157] Top shape: 1 64 300 300 (5760000)
I0305 10:53:10.205135 25446 net.cpp:165] Memory required for data: 54720032
I0305 10:53:10.205142 25446 layer_factory.hpp:77] Creating layer conv1_2
I0305 10:53:10.205160 25446 net.cpp:100] Creating Layer conv1_2
I0305 10:53:10.205168 25446 net.cpp:434] conv1_2 <- conv1_1
I0305 10:53:10.205180 25446 net.cpp:408] conv1_2 -> conv1_2
I0305 10:53:10.207301 25446 net.cpp:150] Setting up conv1_2
I0305 10:53:10.207324 25446 net.cpp:157] Top shape: 1 64 300 300 (5760000)
I0305 10:53:10.207329 25446 net.cpp:165] Memory required for data: 77760032
I0305 10:53:10.207345 25446 layer_factory.hpp:77] Creating layer relu1_2
I0305 10:53:10.207355 25446 net.cpp:100] Creating Layer relu1_2
I0305 10:53:10.207362 25446 net.cpp:434] relu1_2 <- conv1_2
I0305 10:53:10.207370 25446 net.cpp:395] relu1_2 -> conv1_2 (in-place)
I0305 10:53:10.207520 25446 net.cpp:150] Setting up relu1_2
I0305 10:53:10.207528 25446 net.cpp:157] Top shape: 1 64 300 300 (5760000)
I0305 10:53:10.207535 25446 net.cpp:165] Memory required for data: 100800032
I0305 10:53:10.207540 25446 layer_factory.hpp:77] Creating layer pool1
I0305 10:53:10.207550 25446 net.cpp:100] Creating Layer pool1
I0305 10:53:10.207554 25446 net.cpp:434] pool1 <- conv1_2
I0305 10:53:10.207563 25446 net.cpp:408] pool1 -> pool1
I0305 10:53:10.207615 25446 net.cpp:150] Setting up pool1
I0305 10:53:10.207623 25446 net.cpp:157] Top shape: 1 64 150 150 (1440000)
I0305 10:53:10.207629 25446 net.cpp:165] Memory required for data: 106560032
I0305 10:53:10.207635 25446 layer_factory.hpp:77] Creating layer conv2_1
I0305 10:53:10.207648 25446 net.cpp:100] Creating Layer conv2_1
I0305 10:53:10.207654 25446 net.cpp:434] conv2_1 <- pool1
I0305 10:53:10.207662 25446 net.cpp:408] conv2_1 -> conv2_1
I0305 10:53:10.209566 25446 net.cpp:150] Setting up conv2_1
I0305 10:53:10.209583 25446 net.cpp:157] Top shape: 1 128 150 150 (2880000)
I0305 10:53:10.209589 25446 net.cpp:165] Memory required for data: 118080032
I0305 10:53:10.209601 25446 layer_factory.hpp:77] Creating layer relu2_1
I0305 10:53:10.209614 25446 net.cpp:100] Creating Layer relu2_1
I0305 10:53:10.209622 25446 net.cpp:434] relu2_1 <- conv2_1
I0305 10:53:10.209630 25446 net.cpp:395] relu2_1 -> conv2_1 (in-place)
I0305 10:53:10.209779 25446 net.cpp:150] Setting up relu2_1
I0305 10:53:10.209789 25446 net.cpp:157] Top shape: 1 128 150 150 (2880000)
I0305 10:53:10.209794 25446 net.cpp:165] Memory required for data: 129600032
I0305 10:53:10.209800 25446 layer_factory.hpp:77] Creating layer conv2_2
I0305 10:53:10.209811 25446 net.cpp:100] Creating Layer conv2_2
I0305 10:53:10.209817 25446 net.cpp:434] conv2_2 <- conv2_1
I0305 10:53:10.209825 25446 net.cpp:408] conv2_2 -> conv2_2
I0305 10:53:10.211984 25446 net.cpp:150] Setting up conv2_2
I0305 10:53:10.212002 25446 net.cpp:157] Top shape: 1 128 150 150 (2880000)
I0305 10:53:10.212007 25446 net.cpp:165] Memory required for data: 141120032
I0305 10:53:10.212018 25446 layer_factory.hpp:77] Creating layer relu2_2
I0305 10:53:10.212028 25446 net.cpp:100] Creating Layer relu2_2
I0305 10:53:10.212033 25446 net.cpp:434] relu2_2 <- conv2_2
I0305 10:53:10.212041 25446 net.cpp:395] relu2_2 -> conv2_2 (in-place)
I0305 10:53:10.212661 25446 net.cpp:150] Setting up relu2_2
I0305 10:53:10.212672 25446 net.cpp:157] Top shape: 1 128 150 150 (2880000)
I0305 10:53:10.212677 25446 net.cpp:165] Memory required for data: 152640032
I0305 10:53:10.212709 25446 layer_factory.hpp:77] Creating layer pool2
I0305 10:53:10.212719 25446 net.cpp:100] Creating Layer pool2
I0305 10:53:10.212725 25446 net.cpp:434] pool2 <- conv2_2
I0305 10:53:10.212733 25446 net.cpp:408] pool2 -> pool2
I0305 10:53:10.212780 25446 net.cpp:150] Setting up pool2
I0305 10:53:10.212790 25446 net.cpp:157] Top shape: 1 128 75 75 (720000)
I0305 10:53:10.212793 25446 net.cpp:165] Memory required for data: 155520032
I0305 10:53:10.212800 25446 layer_factory.hpp:77] Creating layer conv3_1
I0305 10:53:10.212813 25446 net.cpp:100] Creating Layer conv3_1
I0305 10:53:10.212819 25446 net.cpp:434] conv3_1 <- pool2
I0305 10:53:10.212827 25446 net.cpp:408] conv3_1 -> conv3_1
I0305 10:53:10.217705 25446 net.cpp:150] Setting up conv3_1
I0305 10:53:10.217736 25446 net.cpp:157] Top shape: 1 256 75 75 (1440000)
I0305 10:53:10.217741 25446 net.cpp:165] Memory required for data: 161280032
I0305 10:53:10.217762 25446 layer_factory.hpp:77] Creating layer relu3_1
I0305 10:53:10.217777 25446 net.cpp:100] Creating Layer relu3_1
I0305 10:53:10.217785 25446 net.cpp:434] relu3_1 <- conv3_1
I0305 10:53:10.217794 25446 net.cpp:395] relu3_1 -> conv3_1 (in-place)
I0305 10:53:10.218005 25446 net.cpp:150] Setting up relu3_1
I0305 10:53:10.218016 25446 net.cpp:157] Top shape: 1 256 75 75 (1440000)
I0305 10:53:10.218021 25446 net.cpp:165] Memory required for data: 167040032
I0305 10:53:10.218027 25446 layer_factory.hpp:77] Creating layer conv3_2
I0305 10:53:10.218044 25446 net.cpp:100] Creating Layer conv3_2
I0305 10:53:10.218050 25446 net.cpp:434] conv3_2 <- conv3_1
I0305 10:53:10.218058 25446 net.cpp:408] conv3_2 -> conv3_2
I0305 10:53:10.223323 25446 net.cpp:150] Setting up conv3_2
I0305 10:53:10.223354 25446 net.cpp:157] Top shape: 1 256 75 75 (1440000)
I0305 10:53:10.223359 25446 net.cpp:165] Memory required for data: 172800032
I0305 10:53:10.223376 25446 layer_factory.hpp:77] Creating layer relu3_2
I0305 10:53:10.223389 25446 net.cpp:100] Creating Layer relu3_2
I0305 10:53:10.223397 25446 net.cpp:434] relu3_2 <- conv3_2
I0305 10:53:10.223407 25446 net.cpp:395] relu3_2 -> conv3_2 (in-place)
I0305 10:53:10.223572 25446 net.cpp:150] Setting up relu3_2
I0305 10:53:10.223582 25446 net.cpp:157] Top shape: 1 256 75 75 (1440000)
I0305 10:53:10.223587 25446 net.cpp:165] Memory required for data: 178560032
I0305 10:53:10.223592 25446 layer_factory.hpp:77] Creating layer conv3_3
I0305 10:53:10.223613 25446 net.cpp:100] Creating Layer conv3_3
I0305 10:53:10.223639 25446 net.cpp:434] conv3_3 <- conv3_2
I0305 10:53:10.223652 25446 net.cpp:408] conv3_3 -> conv3_3
I0305 10:53:10.228865 25446 net.cpp:150] Setting up conv3_3
I0305 10:53:10.228895 25446 net.cpp:157] Top shape: 1 256 75 75 (1440000)
I0305 10:53:10.228900 25446 net.cpp:165] Memory required for data: 184320032
I0305 10:53:10.228915 25446 layer_factory.hpp:77] Creating layer relu3_3
I0305 10:53:10.228929 25446 net.cpp:100] Creating Layer relu3_3
I0305 10:53:10.228938 25446 net.cpp:434] relu3_3 <- conv3_3
I0305 10:53:10.228947 25446 net.cpp:395] relu3_3 -> conv3_3 (in-place)
I0305 10:53:10.229586 25446 net.cpp:150] Setting up relu3_3
I0305 10:53:10.229600 25446 net.cpp:157] Top shape: 1 256 75 75 (1440000)
I0305 10:53:10.229606 25446 net.cpp:165] Memory required for data: 190080032
I0305 10:53:10.229612 25446 layer_factory.hpp:77] Creating layer pool3
I0305 10:53:10.229622 25446 net.cpp:100] Creating Layer pool3
I0305 10:53:10.229629 25446 net.cpp:434] pool3 <- conv3_3
I0305 10:53:10.229637 25446 net.cpp:408] pool3 -> pool3
I0305 10:53:10.229691 25446 net.cpp:150] Setting up pool3
I0305 10:53:10.229699 25446 net.cpp:157] Top shape: 1 256 38 38 (369664)
I0305 10:53:10.229703 25446 net.cpp:165] Memory required for data: 191558688
I0305 10:53:10.229710 25446 layer_factory.hpp:77] Creating layer conv4_1
I0305 10:53:10.229725 25446 net.cpp:100] Creating Layer conv4_1
I0305 10:53:10.229732 25446 net.cpp:434] conv4_1 <- pool3
I0305 10:53:10.229739 25446 net.cpp:408] conv4_1 -> conv4_1
I0305 10:53:10.239075 25446 net.cpp:150] Setting up conv4_1
I0305 10:53:10.239104 25446 net.cpp:157] Top shape: 1 512 38 38 (739328)
I0305 10:53:10.239109 25446 net.cpp:165] Memory required for data: 194516000
I0305 10:53:10.239123 25446 layer_factory.hpp:77] Creating layer relu4_1
I0305 10:53:10.239137 25446 net.cpp:100] Creating Layer relu4_1
I0305 10:53:10.239145 25446 net.cpp:434] relu4_1 <- conv4_1
I0305 10:53:10.239154 25446 net.cpp:395] relu4_1 -> conv4_1 (in-place)
I0305 10:53:10.239322 25446 net.cpp:150] Setting up relu4_1
I0305 10:53:10.239333 25446 net.cpp:157] Top shape: 1 512 38 38 (739328)
I0305 10:53:10.239338 25446 net.cpp:165] Memory required for data: 197473312
I0305 10:53:10.239344 25446 layer_factory.hpp:77] Creating layer conv4_2
I0305 10:53:10.239361 25446 net.cpp:100] Creating Layer conv4_2
I0305 10:53:10.239372 25446 net.cpp:434] conv4_2 <- conv4_1
I0305 10:53:10.239382 25446 net.cpp:408] conv4_2 -> conv4_2
I0305 10:53:10.253269 25446 net.cpp:150] Setting up conv4_2
I0305 10:53:10.253301 25446 net.cpp:157] Top shape: 1 512 38 38 (739328)
I0305 10:53:10.253307 25446 net.cpp:165] Memory required for data: 200430624
I0305 10:53:10.253327 25446 layer_factory.hpp:77] Creating layer relu4_2
I0305 10:53:10.253340 25446 net.cpp:100] Creating Layer relu4_2
I0305 10:53:10.253348 25446 net.cpp:434] relu4_2 <- conv4_2
I0305 10:53:10.253362 25446 net.cpp:395] relu4_2 -> conv4_2 (in-place)
I0305 10:53:10.253530 25446 net.cpp:150] Setting up relu4_2
I0305 10:53:10.253540 25446 net.cpp:157] Top shape: 1 512 38 38 (739328)
I0305 10:53:10.253545 25446 net.cpp:165] Memory required for data: 203387936
I0305 10:53:10.253552 25446 layer_factory.hpp:77] Creating layer conv4_3
I0305 10:53:10.253567 25446 net.cpp:100] Creating Layer conv4_3
I0305 10:53:10.253574 25446 net.cpp:434] conv4_3 <- conv4_2
I0305 10:53:10.253582 25446 net.cpp:408] conv4_3 -> conv4_3
I0305 10:53:10.269085 25446 net.cpp:150] Setting up conv4_3
I0305 10:53:10.269117 25446 net.cpp:157] Top shape: 1 512 38 38 (739328)
I0305 10:53:10.269122 25446 net.cpp:165] Memory required for data: 206345248
I0305 10:53:10.269137 25446 layer_factory.hpp:77] Creating layer relu4_3
I0305 10:53:10.269151 25446 net.cpp:100] Creating Layer relu4_3
I0305 10:53:10.269160 25446 net.cpp:434] relu4_3 <- conv4_3
I0305 10:53:10.269170 25446 net.cpp:395] relu4_3 -> conv4_3 (in-place)
I0305 10:53:10.269340 25446 net.cpp:150] Setting up relu4_3
I0305 10:53:10.269349 25446 net.cpp:157] Top shape: 1 512 38 38 (739328)
I0305 10:53:10.269354 25446 net.cpp:165] Memory required for data: 209302560
I0305 10:53:10.269381 25446 layer_factory.hpp:77] Creating layer conv4_3_relu4_3_0_split
I0305 10:53:10.269390 25446 net.cpp:100] Creating Layer conv4_3_relu4_3_0_split
I0305 10:53:10.269397 25446 net.cpp:434] conv4_3_relu4_3_0_split <- conv4_3
I0305 10:53:10.269405 25446 net.cpp:408] conv4_3_relu4_3_0_split -> conv4_3_relu4_3_0_split_0
I0305 10:53:10.269414 25446 net.cpp:408] conv4_3_relu4_3_0_split -> conv4_3_relu4_3_0_split_1
I0305 10:53:10.269456 25446 net.cpp:150] Setting up conv4_3_relu4_3_0_split
I0305 10:53:10.269465 25446 net.cpp:157] Top shape: 1 512 38 38 (739328)
I0305 10:53:10.269471 25446 net.cpp:157] Top shape: 1 512 38 38 (739328)
I0305 10:53:10.269475 25446 net.cpp:165] Memory required for data: 215217184
I0305 10:53:10.269480 25446 layer_factory.hpp:77] Creating layer pool4
I0305 10:53:10.269491 25446 net.cpp:100] Creating Layer pool4
I0305 10:53:10.269496 25446 net.cpp:434] pool4 <- conv4_3_relu4_3_0_split_0
I0305 10:53:10.269505 25446 net.cpp:408] pool4 -> pool4
I0305 10:53:10.269542 25446 net.cpp:150] Setting up pool4
I0305 10:53:10.269551 25446 net.cpp:157] Top shape: 1 512 19 19 (184832)
I0305 10:53:10.269556 25446 net.cpp:165] Memory required for data: 215956512
I0305 10:53:10.269559 25446 layer_factory.hpp:77] Creating layer conv5_1
I0305 10:53:10.269575 25446 net.cpp:100] Creating Layer conv5_1
I0305 10:53:10.269582 25446 net.cpp:434] conv5_1 <- pool4
I0305 10:53:10.269589 25446 net.cpp:408] conv5_1 -> conv5_1
I0305 10:53:10.284271 25446 net.cpp:150] Setting up conv5_1
I0305 10:53:10.284301 25446 net.cpp:157] Top shape: 1 512 19 19 (184832)
I0305 10:53:10.284307 25446 net.cpp:165] Memory required for data: 216695840
I0305 10:53:10.284322 25446 layer_factory.hpp:77] Creating layer relu5_1
I0305 10:53:10.284337 25446 net.cpp:100] Creating Layer relu5_1
I0305 10:53:10.284344 25446 net.cpp:434] relu5_1 <- conv5_1
I0305 10:53:10.284355 25446 net.cpp:395] relu5_1 -> conv5_1 (in-place)
I0305 10:53:10.285071 25446 net.cpp:150] Setting up relu5_1
I0305 10:53:10.285087 25446 net.cpp:157] Top shape: 1 512 19 19 (184832)
I0305 10:53:10.285092 25446 net.cpp:165] Memory required for data: 217435168
I0305 10:53:10.285100 25446 layer_factory.hpp:77] Creating layer conv5_2
I0305 10:53:10.285122 25446 net.cpp:100] Creating Layer conv5_2
I0305 10:53:10.285130 25446 net.cpp:434] conv5_2 <- conv5_1
I0305 10:53:10.285140 25446 net.cpp:408] conv5_2 -> conv5_2
I0305 10:53:10.299795 25446 net.cpp:150] Setting up conv5_2
I0305 10:53:10.299829 25446 net.cpp:157] Top shape: 1 512 19 19 (184832)
I0305 10:53:10.299835 25446 net.cpp:165] Memory required for data: 218174496
I0305 10:53:10.299849 25446 layer_factory.hpp:77] Creating layer relu5_2
I0305 10:53:10.299863 25446 net.cpp:100] Creating Layer relu5_2
I0305 10:53:10.299871 25446 net.cpp:434] relu5_2 <- conv5_2
I0305 10:53:10.299880 25446 net.cpp:395] relu5_2 -> conv5_2 (in-place)
I0305 10:53:10.300048 25446 net.cpp:150] Setting up relu5_2
I0305 10:53:10.300060 25446 net.cpp:157] Top shape: 1 512 19 19 (184832)
I0305 10:53:10.300063 25446 net.cpp:165] Memory required for data: 218913824
I0305 10:53:10.300070 25446 layer_factory.hpp:77] Creating layer conv5_3
I0305 10:53:10.300088 25446 net.cpp:100] Creating Layer conv5_3
I0305 10:53:10.300096 25446 net.cpp:434] conv5_3 <- conv5_2
I0305 10:53:10.300106 25446 net.cpp:408] conv5_3 -> conv5_3
I0305 10:53:10.314548 25446 net.cpp:150] Setting up conv5_3
I0305 10:53:10.314579 25446 net.cpp:157] Top shape: 1 512 19 19 (184832)
I0305 10:53:10.314585 25446 net.cpp:165] Memory required for data: 219653152
I0305 10:53:10.314599 25446 layer_factory.hpp:77] Creating layer relu5_3
I0305 10:53:10.314620 25446 net.cpp:100] Creating Layer relu5_3
I0305 10:53:10.314630 25446 net.cpp:434] relu5_3 <- conv5_3
I0305 10:53:10.314640 25446 net.cpp:395] relu5_3 -> conv5_3 (in-place)
I0305 10:53:10.314833 25446 net.cpp:150] Setting up relu5_3
I0305 10:53:10.314844 25446 net.cpp:157] Top shape: 1 512 19 19 (184832)
I0305 10:53:10.314849 25446 net.cpp:165] Memory required for data: 220392480
I0305 10:53:10.314874 25446 layer_factory.hpp:77] Creating layer pool5
I0305 10:53:10.314887 25446 net.cpp:100] Creating Layer pool5
I0305 10:53:10.314893 25446 net.cpp:434] pool5 <- conv5_3
I0305 10:53:10.314899 25446 net.cpp:408] pool5 -> pool5
I0305 10:53:10.314949 25446 net.cpp:150] Setting up pool5
I0305 10:53:10.314956 25446 net.cpp:157] Top shape: 1 512 19 19 (184832)
I0305 10:53:10.314960 25446 net.cpp:165] Memory required for data: 221131808
I0305 10:53:10.314965 25446 layer_factory.hpp:77] Creating layer fc6
I0305 10:53:10.314981 25446 net.cpp:100] Creating Layer fc6
I0305 10:53:10.314988 25446 net.cpp:434] fc6 <- pool5
I0305 10:53:10.314998 25446 net.cpp:408] fc6 -> fc6
I0305 10:53:10.340144 25446 net.cpp:150] Setting up fc6
I0305 10:53:10.340180 25446 net.cpp:157] Top shape: 1 1024 19 19 (369664)
I0305 10:53:10.340185 25446 net.cpp:165] Memory required for data: 222610464
I0305 10:53:10.340198 25446 layer_factory.hpp:77] Creating layer relu6
I0305 10:53:10.340210 25446 net.cpp:100] Creating Layer relu6
I0305 10:53:10.340219 25446 net.cpp:434] relu6 <- fc6
I0305 10:53:10.340229 25446 net.cpp:395] relu6 -> fc6 (in-place)
I0305 10:53:10.341089 25446 net.cpp:150] Setting up relu6
I0305 10:53:10.341104 25446 net.cpp:157] Top shape: 1 1024 19 19 (369664)
I0305 10:53:10.341109 25446 net.cpp:165] Memory required for data: 224089120
I0305 10:53:10.341115 25446 layer_factory.hpp:77] Creating layer fc7
I0305 10:53:10.341135 25446 net.cpp:100] Creating Layer fc7
I0305 10:53:10.341140 25446 net.cpp:434] fc7 <- fc6
I0305 10:53:10.341152 25446 net.cpp:408] fc7 -> fc7
I0305 10:53:10.348258 25446 net.cpp:150] Setting up fc7
I0305 10:53:10.348287 25446 net.cpp:157] Top shape: 1 1024 19 19 (369664)
I0305 10:53:10.348292 25446 net.cpp:165] Memory required for data: 225567776
I0305 10:53:10.348306 25446 layer_factory.hpp:77] Creating layer relu7
I0305 10:53:10.348318 25446 net.cpp:100] Creating Layer relu7
I0305 10:53:10.348326 25446 net.cpp:434] relu7 <- fc7
I0305 10:53:10.348337 25446 net.cpp:395] relu7 -> fc7 (in-place)
I0305 10:53:10.348505 25446 net.cpp:150] Setting up relu7
I0305 10:53:10.348516 25446 net.cpp:157] Top shape: 1 1024 19 19 (369664)
I0305 10:53:10.348521 25446 net.cpp:165] Memory required for data: 227046432
I0305 10:53:10.348526 25446 layer_factory.hpp:77] Creating layer fc7_relu7_0_split
I0305 10:53:10.348536 25446 net.cpp:100] Creating Layer fc7_relu7_0_split
I0305 10:53:10.348541 25446 net.cpp:434] fc7_relu7_0_split <- fc7
I0305 10:53:10.348551 25446 net.cpp:408] fc7_relu7_0_split -> fc7_relu7_0_split_0
I0305 10:53:10.348562 25446 net.cpp:408] fc7_relu7_0_split -> fc7_relu7_0_split_1
I0305 10:53:10.348582 25446 net.cpp:408] fc7_relu7_0_split -> fc7_relu7_0_split_2
I0305 10:53:10.348592 25446 net.cpp:408] fc7_relu7_0_split -> fc7_relu7_0_split_3
I0305 10:53:10.348654 25446 net.cpp:150] Setting up fc7_relu7_0_split
I0305 10:53:10.348664 25446 net.cpp:157] Top shape: 1 1024 19 19 (369664)
I0305 10:53:10.348671 25446 net.cpp:157] Top shape: 1 1024 19 19 (369664)
I0305 10:53:10.348678 25446 net.cpp:157] Top shape: 1 1024 19 19 (369664)
I0305 10:53:10.348711 25446 net.cpp:157] Top shape: 1 1024 19 19 (369664)
I0305 10:53:10.348716 25446 net.cpp:165] Memory required for data: 232961056
I0305 10:53:10.348722 25446 layer_factory.hpp:77] Creating layer conv6_1
I0305 10:53:10.348739 25446 net.cpp:100] Creating Layer conv6_1
I0305 10:53:10.348747 25446 net.cpp:434] conv6_1 <- fc7_relu7_0_split_0
I0305 10:53:10.348758 25446 net.cpp:408] conv6_1 -> conv6_1
I0305 10:53:10.352394 25446 net.cpp:150] Setting up conv6_1
I0305 10:53:10.352416 25446 net.cpp:157] Top shape: 1 256 19 19 (92416)
I0305 10:53:10.352421 25446 net.cpp:165] Memory required for data: 233330720
I0305 10:53:10.352432 25446 layer_factory.hpp:77] Creating layer conv6_1_relu
I0305 10:53:10.352443 25446 net.cpp:100] Creating Layer conv6_1_relu
I0305 10:53:10.352450 25446 net.cpp:434] conv6_1_relu <- conv6_1
I0305 10:53:10.352460 25446 net.cpp:395] conv6_1_relu -> conv6_1 (in-place)
I0305 10:53:10.352632 25446 net.cpp:150] Setting up conv6_1_relu
I0305 10:53:10.352643 25446 net.cpp:157] Top shape: 1 256 19 19 (92416)
I0305 10:53:10.352666 25446 net.cpp:165] Memory required for data: 233700384
I0305 10:53:10.352674 25446 layer_factory.hpp:77] Creating layer conv6_2
I0305 10:53:10.352711 25446 net.cpp:100] Creating Layer conv6_2
I0305 10:53:10.352720 25446 net.cpp:434] conv6_2 <- conv6_1
I0305 10:53:10.352728 25446 net.cpp:408] conv6_2 -> conv6_2
I0305 10:53:10.361029 25446 net.cpp:150] Setting up conv6_2
I0305 10:53:10.361058 25446 net.cpp:157] Top shape: 1 512 10 10 (51200)
I0305 10:53:10.361064 25446 net.cpp:165] Memory required for data: 233905184
I0305 10:53:10.361088 25446 layer_factory.hpp:77] Creating layer conv6_2_relu
I0305 10:53:10.361101 25446 net.cpp:100] Creating Layer conv6_2_relu
I0305 10:53:10.361109 25446 net.cpp:434] conv6_2_relu <- conv6_2
I0305 10:53:10.361119 25446 net.cpp:395] conv6_2_relu -> conv6_2 (in-place)
I0305 10:53:10.361807 25446 net.cpp:150] Setting up conv6_2_relu
I0305 10:53:10.361820 25446 net.cpp:157] Top shape: 1 512 10 10 (51200)
I0305 10:53:10.361825 25446 net.cpp:165] Memory required for data: 234109984
I0305 10:53:10.361832 25446 layer_factory.hpp:77] Creating layer conv6_2_conv6_2_relu_0_split
I0305 10:53:10.361842 25446 net.cpp:100] Creating Layer conv6_2_conv6_2_relu_0_split
I0305 10:53:10.361848 25446 net.cpp:434] conv6_2_conv6_2_relu_0_split <- conv6_2
I0305 10:53:10.361860 25446 net.cpp:408] conv6_2_conv6_2_relu_0_split -> conv6_2_conv6_2_relu_0_split_0
I0305 10:53:10.361873 25446 net.cpp:408] conv6_2_conv6_2_relu_0_split -> conv6_2_conv6_2_relu_0_split_1
I0305 10:53:10.361882 25446 net.cpp:408] conv6_2_conv6_2_relu_0_split -> conv6_2_conv6_2_relu_0_split_2
I0305 10:53:10.361891 25446 net.cpp:408] conv6_2_conv6_2_relu_0_split -> conv6_2_conv6_2_relu_0_split_3
I0305 10:53:10.361964 25446 net.cpp:150] Setting up conv6_2_conv6_2_relu_0_split
I0305 10:53:10.361974 25446 net.cpp:157] Top shape: 1 512 10 10 (51200)
I0305 10:53:10.361979 25446 net.cpp:157] Top shape: 1 512 10 10 (51200)
I0305 10:53:10.361985 25446 net.cpp:157] Top shape: 1 512 10 10 (51200)
I0305 10:53:10.361991 25446 net.cpp:157] Top shape: 1 512 10 10 (51200)
I0305 10:53:10.361996 25446 net.cpp:165] Memory required for data: 234929184
I0305 10:53:10.362001 25446 layer_factory.hpp:77] Creating layer conv7_1
I0305 10:53:10.362022 25446 net.cpp:100] Creating Layer conv7_1
I0305 10:53:10.362030 25446 net.cpp:434] conv7_1 <- conv6_2_conv6_2_relu_0_split_0
I0305 10:53:10.362041 25446 net.cpp:408] conv7_1 -> conv7_1
I0305 10:53:10.363559 25446 net.cpp:150] Setting up conv7_1
I0305 10:53:10.363574 25446 net.cpp:157] Top shape: 1 128 10 10 (12800)
I0305 10:53:10.363579 25446 net.cpp:165] Memory required for data: 234980384
I0305 10:53:10.363590 25446 layer_factory.hpp:77] Creating layer conv7_1_relu
I0305 10:53:10.363600 25446 net.cpp:100] Creating Layer conv7_1_relu
I0305 10:53:10.363605 25446 net.cpp:434] conv7_1_relu <- conv7_1
I0305 10:53:10.363615 25446 net.cpp:395] conv7_1_relu -> conv7_1 (in-place)
I0305 10:53:10.363778 25446 net.cpp:150] Setting up conv7_1_relu
I0305 10:53:10.363788 25446 net.cpp:157] Top shape: 1 128 10 10 (12800)
I0305 10:53:10.363792 25446 net.cpp:165] Memory required for data: 235031584
I0305 10:53:10.363797 25446 layer_factory.hpp:77] Creating layer conv7_2
I0305 10:53:10.363814 25446 net.cpp:100] Creating Layer conv7_2
I0305 10:53:10.363819 25446 net.cpp:434] conv7_2 <- conv7_1
I0305 10:53:10.363833 25446 net.cpp:408] conv7_2 -> conv7_2
I0305 10:53:10.367308 25446 net.cpp:150] Setting up conv7_2
I0305 10:53:10.367341 25446 net.cpp:157] Top shape: 1 256 5 5 (6400)
I0305 10:53:10.367347 25446 net.cpp:165] Memory required for data: 235057184
I0305 10:53:10.367359 25446 layer_factory.hpp:77] Creating layer conv7_2_relu
I0305 10:53:10.367372 25446 net.cpp:100] Creating Layer conv7_2_relu
I0305 10:53:10.367379 25446 net.cpp:434] conv7_2_relu <- conv7_2
I0305 10:53:10.367396 25446 net.cpp:395] conv7_2_relu -> conv7_2 (in-place)
I0305 10:53:10.367565 25446 net.cpp:150] Setting up conv7_2_relu
I0305 10:53:10.367576 25446 net.cpp:157] Top shape: 1 256 5 5 (6400)
I0305 10:53:10.367599 25446 net.cpp:165] Memory required for data: 235082784
I0305 10:53:10.367606 25446 layer_factory.hpp:77] Creating layer conv7_2_conv7_2_relu_0_split
I0305 10:53:10.367617 25446 net.cpp:100] Creating Layer conv7_2_conv7_2_relu_0_split
I0305 10:53:10.367624 25446 net.cpp:434] conv7_2_conv7_2_relu_0_split <- conv7_2
I0305 10:53:10.367635 25446 net.cpp:408] conv7_2_conv7_2_relu_0_split -> conv7_2_conv7_2_relu_0_split_0
I0305 10:53:10.367646 25446 net.cpp:408] conv7_2_conv7_2_relu_0_split -> conv7_2_conv7_2_relu_0_split_1
I0305 10:53:10.367655 25446 net.cpp:408] conv7_2_conv7_2_relu_0_split -> conv7_2_conv7_2_relu_0_split_2
I0305 10:53:10.367663 25446 net.cpp:408] conv7_2_conv7_2_relu_0_split -> conv7_2_conv7_2_relu_0_split_3
I0305 10:53:10.367735 25446 net.cpp:150] Setting up conv7_2_conv7_2_relu_0_split
I0305 10:53:10.367743 25446 net.cpp:157] Top shape: 1 256 5 5 (6400)
I0305 10:53:10.367749 25446 net.cpp:157] Top shape: 1 256 5 5 (6400)
I0305 10:53:10.367755 25446 net.cpp:157] Top shape: 1 256 5 5 (6400)
I0305 10:53:10.367763 25446 net.cpp:157] Top shape: 1 256 5 5 (6400)
I0305 10:53:10.367767 25446 net.cpp:165] Memory required for data: 235185184
I0305 10:53:10.367774 25446 layer_factory.hpp:77] Creating layer conv8_1
I0305 10:53:10.367789 25446 net.cpp:100] Creating Layer conv8_1
I0305 10:53:10.367799 25446 net.cpp:434] conv8_1 <- conv7_2_conv7_2_relu_0_split_0
I0305 10:53:10.367810 25446 net.cpp:408] conv8_1 -> conv8_1
I0305 10:53:10.369288 25446 net.cpp:150] Setting up conv8_1
I0305 10:53:10.369341 25446 net.cpp:157] Top shape: 1 128 5 5 (3200)
I0305 10:53:10.369362 25446 net.cpp:165] Memory required for data: 235197984
I0305 10:53:10.369385 25446 layer_factory.hpp:77] Creating layer conv8_1_relu
I0305 10:53:10.369407 25446 net.cpp:100] Creating Layer conv8_1_relu
I0305 10:53:10.369424 25446 net.cpp:434] conv8_1_relu <- conv8_1
I0305 10:53:10.369446 25446 net.cpp:395] conv8_1_relu -> conv8_1 (in-place)
I0305 10:53:10.369652 25446 net.cpp:150] Setting up conv8_1_relu
I0305 10:53:10.369663 25446 net.cpp:157] Top shape: 1 128 5 5 (3200)
I0305 10:53:10.369668 25446 net.cpp:165] Memory required for data: 235210784
I0305 10:53:10.369675 25446 layer_factory.hpp:77] Creating layer conv8_2
I0305 10:53:10.369691 25446 net.cpp:100] Creating Layer conv8_2
I0305 10:53:10.369700 25446 net.cpp:434] conv8_2 <- conv8_1
I0305 10:53:10.369710 25446 net.cpp:408] conv8_2 -> conv8_2
I0305 10:53:10.374202 25446 net.cpp:150] Setting up conv8_2
I0305 10:53:10.374233 25446 net.cpp:157] Top shape: 1 256 3 3 (2304)
I0305 10:53:10.374239 25446 net.cpp:165] Memory required for data: 235220000
I0305 10:53:10.374253 25446 layer_factory.hpp:77] Creating layer conv8_2_relu
I0305 10:53:10.374269 25446 net.cpp:100] Creating Layer conv8_2_relu
I0305 10:53:10.374276 25446 net.cpp:434] conv8_2_relu <- conv8_2
I0305 10:53:10.374285 25446 net.cpp:395] conv8_2_relu -> conv8_2 (in-place)
I0305 10:53:10.375133 25446 net.cpp:150] Setting up conv8_2_relu
I0305 10:53:10.375151 25446 net.cpp:157] Top shape: 1 256 3 3 (2304)
I0305 10:53:10.375156 25446 net.cpp:165] Memory required for data: 235229216
I0305 10:53:10.375162 25446 layer_factory.hpp:77] Creating layer conv8_2_conv8_2_relu_0_split
I0305 10:53:10.375176 25446 net.cpp:100] Creating Layer conv8_2_conv8_2_relu_0_split
I0305 10:53:10.375185 25446 net.cpp:434] conv8_2_conv8_2_relu_0_split <- conv8_2
I0305 10:53:10.375195 25446 net.cpp:408] conv8_2_conv8_2_relu_0_split -> conv8_2_conv8_2_relu_0_split_0
I0305 10:53:10.375208 25446 net.cpp:408] conv8_2_conv8_2_relu_0_split -> conv8_2_conv8_2_relu_0_split_1
I0305 10:53:10.375217 25446 net.cpp:408] conv8_2_conv8_2_relu_0_split -> conv8_2_conv8_2_relu_0_split_2
I0305 10:53:10.375227 25446 net.cpp:408] conv8_2_conv8_2_relu_0_split -> conv8_2_conv8_2_relu_0_split_3
I0305 10:53:10.375311 25446 net.cpp:150] Setting up conv8_2_conv8_2_relu_0_split
I0305 10:53:10.375321 25446 net.cpp:157] Top shape: 1 256 3 3 (2304)
I0305 10:53:10.375329 25446 net.cpp:157] Top shape: 1 256 3 3 (2304)
I0305 10:53:10.375336 25446 net.cpp:157] Top shape: 1 256 3 3 (2304)
I0305 10:53:10.375357 25446 net.cpp:157] Top shape: 1 256 3 3 (2304)
I0305 10:53:10.375363 25446 net.cpp:165] Memory required for data: 235266080
I0305 10:53:10.375370 25446 layer_factory.hpp:77] Creating layer conv9_1
I0305 10:53:10.375387 25446 net.cpp:100] Creating Layer conv9_1
I0305 10:53:10.375394 25446 net.cpp:434] conv9_1 <- conv8_2_conv8_2_relu_0_split_0
I0305 10:53:10.375406 25446 net.cpp:408] conv9_1 -> conv9_1
I0305 10:53:10.376977 25446 net.cpp:150] Setting up conv9_1
I0305 10:53:10.377002 25446 net.cpp:157] Top shape: 1 128 3 3 (1152)
I0305 10:53:10.377007 25446 net.cpp:165] Memory required for data: 235270688
I0305 10:53:10.377019 25446 layer_factory.hpp:77] Creating layer conv9_1_relu
I0305 10:53:10.377032 25446 net.cpp:100] Creating Layer conv9_1_relu
I0305 10:53:10.377041 25446 net.cpp:434] conv9_1_relu <- conv9_1
I0305 10:53:10.377049 25446 net.cpp:395] conv9_1_relu -> conv9_1 (in-place)
I0305 10:53:10.377213 25446 net.cpp:150] Setting up conv9_1_relu
I0305 10:53:10.377223 25446 net.cpp:157] Top shape: 1 128 3 3 (1152)
I0305 10:53:10.377228 25446 net.cpp:165] Memory required for data: 235275296
I0305 10:53:10.377233 25446 layer_factory.hpp:77] Creating layer conv9_2
I0305 10:53:10.377250 25446 net.cpp:100] Creating Layer conv9_2
I0305 10:53:10.377256 25446 net.cpp:434] conv9_2 <- conv9_1
I0305 10:53:10.377266 25446 net.cpp:408] conv9_2 -> conv9_2
I0305 10:53:10.381420 25446 net.cpp:150] Setting up conv9_2
I0305 10:53:10.381449 25446 net.cpp:157] Top shape: 1 256 1 1 (256)
I0305 10:53:10.381454 25446 net.cpp:165] Memory required for data: 235276320
I0305 10:53:10.381469 25446 layer_factory.hpp:77] Creating layer conv9_2_relu
I0305 10:53:10.381484 25446 net.cpp:100] Creating Layer conv9_2_relu
I0305 10:53:10.381494 25446 net.cpp:434] conv9_2_relu <- conv9_2
I0305 10:53:10.381503 25446 net.cpp:395] conv9_2_relu -> conv9_2 (in-place)
I0305 10:53:10.381688 25446 net.cpp:150] Setting up conv9_2_relu
I0305 10:53:10.381697 25446 net.cpp:157] Top shape: 1 256 1 1 (256)
I0305 10:53:10.381701 25446 net.cpp:165] Memory required for data: 235277344
I0305 10:53:10.381707 25446 layer_factory.hpp:77] Creating layer conv9_2_conv9_2_relu_0_split
I0305 10:53:10.381718 25446 net.cpp:100] Creating Layer conv9_2_conv9_2_relu_0_split
I0305 10:53:10.381724 25446 net.cpp:434] conv9_2_conv9_2_relu_0_split <- conv9_2
I0305 10:53:10.381732 25446 net.cpp:408] conv9_2_conv9_2_relu_0_split -> conv9_2_conv9_2_relu_0_split_0
I0305 10:53:10.381743 25446 net.cpp:408] conv9_2_conv9_2_relu_0_split -> conv9_2_conv9_2_relu_0_split_1
I0305 10:53:10.381757 25446 net.cpp:408] conv9_2_conv9_2_relu_0_split -> conv9_2_conv9_2_relu_0_split_2
I0305 10:53:10.381819 25446 net.cpp:150] Setting up conv9_2_conv9_2_relu_0_split
I0305 10:53:10.381827 25446 net.cpp:157] Top shape: 1 256 1 1 (256)
I0305 10:53:10.381832 25446 net.cpp:157] Top shape: 1 256 1 1 (256)
I0305 10:53:10.381839 25446 net.cpp:157] Top shape: 1 256 1 1 (256)
I0305 10:53:10.381844 25446 net.cpp:165] Memory required for data: 235280416
I0305 10:53:10.381848 25446 layer_factory.hpp:77] Creating layer conv4_3_norm
I0305 10:53:10.381860 25446 net.cpp:100] Creating Layer conv4_3_norm
I0305 10:53:10.381868 25446 net.cpp:434] conv4_3_norm <- conv4_3_relu4_3_0_split_1
I0305 10:53:10.381877 25446 net.cpp:408] conv4_3_norm -> conv4_3_norm
I0305 10:53:10.382032 25446 net.cpp:150] Setting up conv4_3_norm
I0305 10:53:10.382041 25446 net.cpp:157] Top shape: 1 512 38 38 (739328)
I0305 10:53:10.382047 25446 net.cpp:165] Memory required for data: 238237728
I0305 10:53:10.382055 25446 layer_factory.hpp:77] Creating layer conv4_3_norm_conv4_3_norm_0_split
I0305 10:53:10.382063 25446 net.cpp:100] Creating Layer conv4_3_norm_conv4_3_norm_0_split
I0305 10:53:10.382068 25446 net.cpp:434] conv4_3_norm_conv4_3_norm_0_split <- conv4_3_norm
I0305 10:53:10.382078 25446 net.cpp:408] conv4_3_norm_conv4_3_norm_0_split -> conv4_3_norm_conv4_3_norm_0_split_0
I0305 10:53:10.382088 25446 net.cpp:408] conv4_3_norm_conv4_3_norm_0_split -> conv4_3_norm_conv4_3_norm_0_split_1
I0305 10:53:10.382097 25446 net.cpp:408] conv4_3_norm_conv4_3_norm_0_split -> conv4_3_norm_conv4_3_norm_0_split_2
I0305 10:53:10.382164 25446 net.cpp:150] Setting up conv4_3_norm_conv4_3_norm_0_split
I0305 10:53:10.382172 25446 net.cpp:157] Top shape: 1 512 38 38 (739328)
I0305 10:53:10.382179 25446 net.cpp:157] Top shape: 1 512 38 38 (739328)
I0305 10:53:10.382184 25446 net.cpp:157] Top shape: 1 512 38 38 (739328)
I0305 10:53:10.382189 25446 net.cpp:165] Memory required for data: 247109664
I0305 10:53:10.382195 25446 layer_factory.hpp:77] Creating layer conv4_3_norm_mbox_loc
I0305 10:53:10.382211 25446 net.cpp:100] Creating Layer conv4_3_norm_mbox_loc
I0305 10:53:10.382218 25446 net.cpp:434] conv4_3_norm_mbox_loc <- conv4_3_norm_conv4_3_norm_0_split_0
I0305 10:53:10.382230 25446 net.cpp:408] conv4_3_norm_mbox_loc -> conv4_3_norm_mbox_loc
I0305 10:53:10.384497 25446 net.cpp:150] Setting up conv4_3_norm_mbox_loc
I0305 10:53:10.384521 25446 net.cpp:157] Top shape: 1 16 38 38 (23104)
I0305 10:53:10.384526 25446 net.cpp:165] Memory required for data: 247202080
I0305 10:53:10.384538 25446 layer_factory.hpp:77] Creating layer conv4_3_norm_mbox_loc_perm
I0305 10:53:10.384553 25446 net.cpp:100] Creating Layer conv4_3_norm_mbox_loc_perm
I0305 10:53:10.384560 25446 net.cpp:434] conv4_3_norm_mbox_loc_perm <- conv4_3_norm_mbox_loc
I0305 10:53:10.384572 25446 net.cpp:408] conv4_3_norm_mbox_loc_perm -> conv4_3_norm_mbox_loc_perm
I0305 10:53:10.384706 25446 net.cpp:150] Setting up conv4_3_norm_mbox_loc_perm
I0305 10:53:10.384721 25446 net.cpp:157] Top shape: 1 38 38 16 (23104)
I0305 10:53:10.384726 25446 net.cpp:165] Memory required for data: 247294496
I0305 10:53:10.384730 25446 layer_factory.hpp:77] Creating layer conv4_3_norm_mbox_loc_flat
I0305 10:53:10.384740 25446 net.cpp:100] Creating Layer conv4_3_norm_mbox_loc_flat
I0305 10:53:10.384747 25446 net.cpp:434] conv4_3_norm_mbox_loc_flat <- conv4_3_norm_mbox_loc_perm
I0305 10:53:10.384757 25446 net.cpp:408] conv4_3_norm_mbox_loc_flat -> conv4_3_norm_mbox_loc_flat
I0305 10:53:10.384805 25446 net.cpp:150] Setting up conv4_3_norm_mbox_loc_flat
I0305 10:53:10.384815 25446 net.cpp:157] Top shape: 1 23104 (23104)
I0305 10:53:10.384821 25446 net.cpp:165] Memory required for data: 247386912
I0305 10:53:10.384826 25446 layer_factory.hpp:77] Creating layer conv4_3_norm_mbox_conf
I0305 10:53:10.384850 25446 net.cpp:100] Creating Layer conv4_3_norm_mbox_conf
I0305 10:53:10.384856 25446 net.cpp:434] conv4_3_norm_mbox_conf <- conv4_3_norm_conv4_3_norm_0_split_1
I0305 10:53:10.384866 25446 net.cpp:408] conv4_3_norm_mbox_conf -> conv4_3_norm_mbox_conf
I0305 10:53:10.389400 25446 net.cpp:150] Setting up conv4_3_norm_mbox_conf
I0305 10:53:10.389430 25446 net.cpp:157] Top shape: 1 84 38 38 (121296)
I0305 10:53:10.389436 25446 net.cpp:165] Memory required for data: 247872096
I0305 10:53:10.389449 25446 layer_factory.hpp:77] Creating layer conv4_3_norm_mbox_conf_perm
I0305 10:53:10.389463 25446 net.cpp:100] Creating Layer conv4_3_norm_mbox_conf_perm
I0305 10:53:10.389474 25446 net.cpp:434] conv4_3_norm_mbox_conf_perm <- conv4_3_norm_mbox_conf
I0305 10:53:10.389487 25446 net.cpp:408] conv4_3_norm_mbox_conf_perm -> conv4_3_norm_mbox_conf_perm
I0305 10:53:10.389621 25446 net.cpp:150] Setting up conv4_3_norm_mbox_conf_perm
I0305 10:53:10.389631 25446 net.cpp:157] Top shape: 1 38 38 84 (121296)
I0305 10:53:10.389634 25446 net.cpp:165] Memory required for data: 248357280
I0305 10:53:10.389641 25446 layer_factory.hpp:77] Creating layer conv4_3_norm_mbox_conf_flat
I0305 10:53:10.389650 25446 net.cpp:100] Creating Layer conv4_3_norm_mbox_conf_flat
I0305 10:53:10.389655 25446 net.cpp:434] conv4_3_norm_mbox_conf_flat <- conv4_3_norm_mbox_conf_perm
I0305 10:53:10.389669 25446 net.cpp:408] conv4_3_norm_mbox_conf_flat -> conv4_3_norm_mbox_conf_flat
I0305 10:53:10.389704 25446 net.cpp:150] Setting up conv4_3_norm_mbox_conf_flat
I0305 10:53:10.389713 25446 net.cpp:157] Top shape: 1 121296 (121296)
I0305 10:53:10.389717 25446 net.cpp:165] Memory required for data: 248842464
I0305 10:53:10.389722 25446 layer_factory.hpp:77] Creating layer conv4_3_norm_mbox_priorbox
I0305 10:53:10.389750 25446 net.cpp:100] Creating Layer conv4_3_norm_mbox_priorbox
I0305 10:53:10.389756 25446 net.cpp:434] conv4_3_norm_mbox_priorbox <- conv4_3_norm_conv4_3_norm_0_split_2
I0305 10:53:10.389765 25446 net.cpp:434] conv4_3_norm_mbox_priorbox <- data_data_0_split_1
I0305 10:53:10.389776 25446 net.cpp:408] conv4_3_norm_mbox_priorbox -> conv4_3_norm_mbox_priorbox
I0305 10:53:10.389816 25446 net.cpp:150] Setting up conv4_3_norm_mbox_priorbox
I0305 10:53:10.389825 25446 net.cpp:157] Top shape: 1 2 23104 (46208)
I0305 10:53:10.389829 25446 net.cpp:165] Memory required for data: 249027296
I0305 10:53:10.389834 25446 layer_factory.hpp:77] Creating layer fc7_mbox_loc
I0305 10:53:10.389852 25446 net.cpp:100] Creating Layer fc7_mbox_loc
I0305 10:53:10.389859 25446 net.cpp:434] fc7_mbox_loc <- fc7_relu7_0_split_1
I0305 10:53:10.389870 25446 net.cpp:408] fc7_mbox_loc -> fc7_mbox_loc
I0305 10:53:10.392870 25446 net.cpp:150] Setting up fc7_mbox_loc
I0305 10:53:10.392902 25446 net.cpp:157] Top shape: 1 24 19 19 (8664)
I0305 10:53:10.392908 25446 net.cpp:165] Memory required for data: 249061952
I0305 10:53:10.392921 25446 layer_factory.hpp:77] Creating layer fc7_mbox_loc_perm
I0305 10:53:10.392935 25446 net.cpp:100] Creating Layer fc7_mbox_loc_perm
I0305 10:53:10.392946 25446 net.cpp:434] fc7_mbox_loc_perm <- fc7_mbox_loc
I0305 10:53:10.392958 25446 net.cpp:408] fc7_mbox_loc_perm -> fc7_mbox_loc_perm
I0305 10:53:10.393069 25446 net.cpp:150] Setting up fc7_mbox_loc_perm
I0305 10:53:10.393077 25446 net.cpp:157] Top shape: 1 19 19 24 (8664)
I0305 10:53:10.393081 25446 net.cpp:165] Memory required for data: 249096608
I0305 10:53:10.393087 25446 layer_factory.hpp:77] Creating layer fc7_mbox_loc_flat
I0305 10:53:10.393097 25446 net.cpp:100] Creating Layer fc7_mbox_loc_flat
I0305 10:53:10.393102 25446 net.cpp:434] fc7_mbox_loc_flat <- fc7_mbox_loc_perm
I0305 10:53:10.393112 25446 net.cpp:408] fc7_mbox_loc_flat -> fc7_mbox_loc_flat
I0305 10:53:10.393146 25446 net.cpp:150] Setting up fc7_mbox_loc_flat
I0305 10:53:10.393153 25446 net.cpp:157] Top shape: 1 8664 (8664)
I0305 10:53:10.393157 25446 net.cpp:165] Memory required for data: 249131264
I0305 10:53:10.393162 25446 layer_factory.hpp:77] Creating layer fc7_mbox_conf
I0305 10:53:10.393182 25446 net.cpp:100] Creating Layer fc7_mbox_conf
I0305 10:53:10.393188 25446 net.cpp:434] fc7_mbox_conf <- fc7_relu7_0_split_2
I0305 10:53:10.393198 25446 net.cpp:408] fc7_mbox_conf -> fc7_mbox_conf
I0305 10:53:10.401830 25446 net.cpp:150] Setting up fc7_mbox_conf
I0305 10:53:10.401863 25446 net.cpp:157] Top shape: 1 126 19 19 (45486)
I0305 10:53:10.401870 25446 net.cpp:165] Memory required for data: 249313208
I0305 10:53:10.401883 25446 layer_factory.hpp:77] Creating layer fc7_mbox_conf_perm
I0305 10:53:10.401898 25446 net.cpp:100] Creating Layer fc7_mbox_conf_perm
I0305 10:53:10.401911 25446 net.cpp:434] fc7_mbox_conf_perm <- fc7_mbox_conf
I0305 10:53:10.401922 25446 net.cpp:408] fc7_mbox_conf_perm -> fc7_mbox_conf_perm
I0305 10:53:10.402037 25446 net.cpp:150] Setting up fc7_mbox_conf_perm
I0305 10:53:10.402045 25446 net.cpp:157] Top shape: 1 19 19 126 (45486)
I0305 10:53:10.402050 25446 net.cpp:165] Memory required for data: 249495152
I0305 10:53:10.402056 25446 layer_factory.hpp:77] Creating layer fc7_mbox_conf_flat
I0305 10:53:10.402065 25446 net.cpp:100] Creating Layer fc7_mbox_conf_flat
I0305 10:53:10.402070 25446 net.cpp:434] fc7_mbox_conf_flat <- fc7_mbox_conf_perm
I0305 10:53:10.402081 25446 net.cpp:408] fc7_mbox_conf_flat -> fc7_mbox_conf_flat
I0305 10:53:10.402115 25446 net.cpp:150] Setting up fc7_mbox_conf_flat
I0305 10:53:10.402122 25446 net.cpp:157] Top shape: 1 45486 (45486)
I0305 10:53:10.402127 25446 net.cpp:165] Memory required for data: 249677096
I0305 10:53:10.402132 25446 layer_factory.hpp:77] Creating layer fc7_mbox_priorbox
I0305 10:53:10.402143 25446 net.cpp:100] Creating Layer fc7_mbox_priorbox
I0305 10:53:10.402148 25446 net.cpp:434] fc7_mbox_priorbox <- fc7_relu7_0_split_3
I0305 10:53:10.402155 25446 net.cpp:434] fc7_mbox_priorbox <- data_data_0_split_2
I0305 10:53:10.402168 25446 net.cpp:408] fc7_mbox_priorbox -> fc7_mbox_priorbox
I0305 10:53:10.402221 25446 net.cpp:150] Setting up fc7_mbox_priorbox
I0305 10:53:10.402245 25446 net.cpp:157] Top shape: 1 2 8664 (17328)
I0305 10:53:10.402252 25446 net.cpp:165] Memory required for data: 249746408
I0305 10:53:10.402258 25446 layer_factory.hpp:77] Creating layer conv6_2_mbox_loc
I0305 10:53:10.402276 25446 net.cpp:100] Creating Layer conv6_2_mbox_loc
I0305 10:53:10.402285 25446 net.cpp:434] conv6_2_mbox_loc <- conv6_2_conv6_2_relu_0_split_1
I0305 10:53:10.402295 25446 net.cpp:408] conv6_2_mbox_loc -> conv6_2_mbox_loc
I0305 10:53:10.404808 25446 net.cpp:150] Setting up conv6_2_mbox_loc
I0305 10:53:10.404834 25446 net.cpp:157] Top shape: 1 24 10 10 (2400)
I0305 10:53:10.404839 25446 net.cpp:165] Memory required for data: 249756008
I0305 10:53:10.404852 25446 layer_factory.hpp:77] Creating layer conv6_2_mbox_loc_perm
I0305 10:53:10.404866 25446 net.cpp:100] Creating Layer conv6_2_mbox_loc_perm
I0305 10:53:10.404875 25446 net.cpp:434] conv6_2_mbox_loc_perm <- conv6_2_mbox_loc
I0305 10:53:10.404884 25446 net.cpp:408] conv6_2_mbox_loc_perm -> conv6_2_mbox_loc_perm
I0305 10:53:10.404997 25446 net.cpp:150] Setting up conv6_2_mbox_loc_perm
I0305 10:53:10.405009 25446 net.cpp:157] Top shape: 1 10 10 24 (2400)
I0305 10:53:10.405014 25446 net.cpp:165] Memory required for data: 249765608
I0305 10:53:10.405019 25446 layer_factory.hpp:77] Creating layer conv6_2_mbox_loc_flat
I0305 10:53:10.405027 25446 net.cpp:100] Creating Layer conv6_2_mbox_loc_flat
I0305 10:53:10.405035 25446 net.cpp:434] conv6_2_mbox_loc_flat <- conv6_2_mbox_loc_perm
I0305 10:53:10.405043 25446 net.cpp:408] conv6_2_mbox_loc_flat -> conv6_2_mbox_loc_flat
I0305 10:53:10.405073 25446 net.cpp:150] Setting up conv6_2_mbox_loc_flat
I0305 10:53:10.405081 25446 net.cpp:157] Top shape: 1 2400 (2400)
I0305 10:53:10.405086 25446 net.cpp:165] Memory required for data: 249775208
I0305 10:53:10.405091 25446 layer_factory.hpp:77] Creating layer conv6_2_mbox_conf
I0305 10:53:10.405108 25446 net.cpp:100] Creating Layer conv6_2_mbox_conf
I0305 10:53:10.405115 25446 net.cpp:434] conv6_2_mbox_conf <- conv6_2_conv6_2_relu_0_split_2
I0305 10:53:10.405130 25446 net.cpp:408] conv6_2_mbox_conf -> conv6_2_mbox_conf
I0305 10:53:10.410980 25446 net.cpp:150] Setting up conv6_2_mbox_conf
I0305 10:53:10.411010 25446 net.cpp:157] Top shape: 1 126 10 10 (12600)
I0305 10:53:10.411016 25446 net.cpp:165] Memory required for data: 249825608
I0305 10:53:10.411033 25446 layer_factory.hpp:77] Creating layer conv6_2_mbox_conf_perm
I0305 10:53:10.411051 25446 net.cpp:100] Creating Layer conv6_2_mbox_conf_perm
I0305 10:53:10.411061 25446 net.cpp:434] conv6_2_mbox_conf_perm <- conv6_2_mbox_conf
I0305 10:53:10.411073 25446 net.cpp:408] conv6_2_mbox_conf_perm -> conv6_2_mbox_conf_perm
I0305 10:53:10.411195 25446 net.cpp:150] Setting up conv6_2_mbox_conf_perm
I0305 10:53:10.411206 25446 net.cpp:157] Top shape: 1 10 10 126 (12600)
I0305 10:53:10.411211 25446 net.cpp:165] Memory required for data: 249876008
I0305 10:53:10.411216 25446 layer_factory.hpp:77] Creating layer conv6_2_mbox_conf_flat
I0305 10:53:10.411226 25446 net.cpp:100] Creating Layer conv6_2_mbox_conf_flat
I0305 10:53:10.411231 25446 net.cpp:434] conv6_2_mbox_conf_flat <- conv6_2_mbox_conf_perm
I0305 10:53:10.411238 25446 net.cpp:408] conv6_2_mbox_conf_flat -> conv6_2_mbox_conf_flat
I0305 10:53:10.411274 25446 net.cpp:150] Setting up conv6_2_mbox_conf_flat
I0305 10:53:10.411284 25446 net.cpp:157] Top shape: 1 12600 (12600)
I0305 10:53:10.411289 25446 net.cpp:165] Memory required for data: 249926408
I0305 10:53:10.411294 25446 layer_factory.hpp:77] Creating layer conv6_2_mbox_priorbox
I0305 10:53:10.411304 25446 net.cpp:100] Creating Layer conv6_2_mbox_priorbox
I0305 10:53:10.411311 25446 net.cpp:434] conv6_2_mbox_priorbox <- conv6_2_conv6_2_relu_0_split_3
I0305 10:53:10.411319 25446 net.cpp:434] conv6_2_mbox_priorbox <- data_data_0_split_3
I0305 10:53:10.411329 25446 net.cpp:408] conv6_2_mbox_priorbox -> conv6_2_mbox_priorbox
I0305 10:53:10.411403 25446 net.cpp:150] Setting up conv6_2_mbox_priorbox
I0305 10:53:10.411427 25446 net.cpp:157] Top shape: 1 2 2400 (4800)
I0305 10:53:10.411432 25446 net.cpp:165] Memory required for data: 249945608
I0305 10:53:10.411437 25446 layer_factory.hpp:77] Creating layer conv7_2_mbox_loc
I0305 10:53:10.411453 25446 net.cpp:100] Creating Layer conv7_2_mbox_loc
I0305 10:53:10.411460 25446 net.cpp:434] conv7_2_mbox_loc <- conv7_2_conv7_2_relu_0_split_1
I0305 10:53:10.411469 25446 net.cpp:408] conv7_2_mbox_loc -> conv7_2_mbox_loc
I0305 10:53:10.413775 25446 net.cpp:150] Setting up conv7_2_mbox_loc
I0305 10:53:10.413801 25446 net.cpp:157] Top shape: 1 24 5 5 (600)
I0305 10:53:10.413807 25446 net.cpp:165] Memory required for data: 249948008
I0305 10:53:10.413820 25446 layer_factory.hpp:77] Creating layer conv7_2_mbox_loc_perm
I0305 10:53:10.413833 25446 net.cpp:100] Creating Layer conv7_2_mbox_loc_perm
I0305 10:53:10.413841 25446 net.cpp:434] conv7_2_mbox_loc_perm <- conv7_2_mbox_loc
I0305 10:53:10.413853 25446 net.cpp:408] conv7_2_mbox_loc_perm -> conv7_2_mbox_loc_perm
I0305 10:53:10.413965 25446 net.cpp:150] Setting up conv7_2_mbox_loc_perm
I0305 10:53:10.413974 25446 net.cpp:157] Top shape: 1 5 5 24 (600)
I0305 10:53:10.413977 25446 net.cpp:165] Memory required for data: 249950408
I0305 10:53:10.413983 25446 layer_factory.hpp:77] Creating layer conv7_2_mbox_loc_flat
I0305 10:53:10.413995 25446 net.cpp:100] Creating Layer conv7_2_mbox_loc_flat
I0305 10:53:10.414000 25446 net.cpp:434] conv7_2_mbox_loc_flat <- conv7_2_mbox_loc_perm
I0305 10:53:10.414010 25446 net.cpp:408] conv7_2_mbox_loc_flat -> conv7_2_mbox_loc_flat
I0305 10:53:10.414042 25446 net.cpp:150] Setting up conv7_2_mbox_loc_flat
I0305 10:53:10.414067 25446 net.cpp:157] Top shape: 1 600 (600)
I0305 10:53:10.414072 25446 net.cpp:165] Memory required for data: 249952808
I0305 10:53:10.414077 25446 layer_factory.hpp:77] Creating layer conv7_2_mbox_conf
I0305 10:53:10.414098 25446 net.cpp:100] Creating Layer conv7_2_mbox_conf
I0305 10:53:10.414104 25446 net.cpp:434] conv7_2_mbox_conf <- conv7_2_conv7_2_relu_0_split_2
I0305 10:53:10.414114 25446 net.cpp:408] conv7_2_mbox_conf -> conv7_2_mbox_conf
I0305 10:53:10.418200 25446 net.cpp:150] Setting up conv7_2_mbox_conf
I0305 10:53:10.418229 25446 net.cpp:157] Top shape: 1 126 5 5 (3150)
I0305 10:53:10.418234 25446 net.cpp:165] Memory required for data: 249965408
I0305 10:53:10.418247 25446 layer_factory.hpp:77] Creating layer conv7_2_mbox_conf_perm
I0305 10:53:10.418264 25446 net.cpp:100] Creating Layer conv7_2_mbox_conf_perm
I0305 10:53:10.418275 25446 net.cpp:434] conv7_2_mbox_conf_perm <- conv7_2_mbox_conf
I0305 10:53:10.418284 25446 net.cpp:408] conv7_2_mbox_conf_perm -> conv7_2_mbox_conf_perm
I0305 10:53:10.418399 25446 net.cpp:150] Setting up conv7_2_mbox_conf_perm
I0305 10:53:10.418408 25446 net.cpp:157] Top shape: 1 5 5 126 (3150)
I0305 10:53:10.418413 25446 net.cpp:165] Memory required for data: 249978008
I0305 10:53:10.418418 25446 layer_factory.hpp:77] Creating layer conv7_2_mbox_conf_flat
I0305 10:53:10.418429 25446 net.cpp:100] Creating Layer conv7_2_mbox_conf_flat
I0305 10:53:10.418435 25446 net.cpp:434] conv7_2_mbox_conf_flat <- conv7_2_mbox_conf_perm
I0305 10:53:10.418444 25446 net.cpp:408] conv7_2_mbox_conf_flat -> conv7_2_mbox_conf_flat
I0305 10:53:10.418478 25446 net.cpp:150] Setting up conv7_2_mbox_conf_flat
I0305 10:53:10.418485 25446 net.cpp:157] Top shape: 1 3150 (3150)
I0305 10:53:10.418489 25446 net.cpp:165] Memory required for data: 249990608
I0305 10:53:10.418495 25446 layer_factory.hpp:77] Creating layer conv7_2_mbox_priorbox
I0305 10:53:10.418506 25446 net.cpp:100] Creating Layer conv7_2_mbox_priorbox
I0305 10:53:10.418512 25446 net.cpp:434] conv7_2_mbox_priorbox <- conv7_2_conv7_2_relu_0_split_3
I0305 10:53:10.418519 25446 net.cpp:434] conv7_2_mbox_priorbox <- data_data_0_split_4
I0305 10:53:10.418529 25446 net.cpp:408] conv7_2_mbox_priorbox -> conv7_2_mbox_priorbox
I0305 10:53:10.418570 25446 net.cpp:150] Setting up conv7_2_mbox_priorbox
I0305 10:53:10.418578 25446 net.cpp:157] Top shape: 1 2 600 (1200)
I0305 10:53:10.418582 25446 net.cpp:165] Memory required for data: 249995408
I0305 10:53:10.418606 25446 layer_factory.hpp:77] Creating layer conv8_2_mbox_loc
I0305 10:53:10.418624 25446 net.cpp:100] Creating Layer conv8_2_mbox_loc
I0305 10:53:10.418632 25446 net.cpp:434] conv8_2_mbox_loc <- conv8_2_conv8_2_relu_0_split_1
I0305 10:53:10.418643 25446 net.cpp:408] conv8_2_mbox_loc -> conv8_2_mbox_loc
I0305 10:53:10.420177 25446 net.cpp:150] Setting up conv8_2_mbox_loc
I0305 10:53:10.420195 25446 net.cpp:157] Top shape: 1 16 3 3 (144)
I0305 10:53:10.420200 25446 net.cpp:165] Memory required for data: 249995984
I0305 10:53:10.420223 25446 layer_factory.hpp:77] Creating layer conv8_2_mbox_loc_perm
I0305 10:53:10.420235 25446 net.cpp:100] Creating Layer conv8_2_mbox_loc_perm
I0305 10:53:10.420243 25446 net.cpp:434] conv8_2_mbox_loc_perm <- conv8_2_mbox_loc
I0305 10:53:10.420255 25446 net.cpp:408] conv8_2_mbox_loc_perm -> conv8_2_mbox_loc_perm
I0305 10:53:10.420358 25446 net.cpp:150] Setting up conv8_2_mbox_loc_perm
I0305 10:53:10.420368 25446 net.cpp:157] Top shape: 1 3 3 16 (144)
I0305 10:53:10.420373 25446 net.cpp:165] Memory required for data: 249996560
I0305 10:53:10.420378 25446 layer_factory.hpp:77] Creating layer conv8_2_mbox_loc_flat
I0305 10:53:10.420387 25446 net.cpp:100] Creating Layer conv8_2_mbox_loc_flat
I0305 10:53:10.420394 25446 net.cpp:434] conv8_2_mbox_loc_flat <- conv8_2_mbox_loc_perm
I0305 10:53:10.420401 25446 net.cpp:408] conv8_2_mbox_loc_flat -> conv8_2_mbox_loc_flat
I0305 10:53:10.420433 25446 net.cpp:150] Setting up conv8_2_mbox_loc_flat
I0305 10:53:10.420440 25446 net.cpp:157] Top shape: 1 144 (144)
I0305 10:53:10.420445 25446 net.cpp:165] Memory required for data: 249997136
I0305 10:53:10.420450 25446 layer_factory.hpp:77] Creating layer conv8_2_mbox_conf
I0305 10:53:10.420470 25446 net.cpp:100] Creating Layer conv8_2_mbox_conf
I0305 10:53:10.420478 25446 net.cpp:434] conv8_2_mbox_conf <- conv8_2_conv8_2_relu_0_split_2
I0305 10:53:10.420488 25446 net.cpp:408] conv8_2_mbox_conf -> conv8_2_mbox_conf
I0305 10:53:10.423369 25446 net.cpp:150] Setting up conv8_2_mbox_conf
I0305 10:53:10.423395 25446 net.cpp:157] Top shape: 1 84 3 3 (756)
I0305 10:53:10.423400 25446 net.cpp:165] Memory required for data: 250000160
I0305 10:53:10.423414 25446 layer_factory.hpp:77] Creating layer conv8_2_mbox_conf_perm
I0305 10:53:10.423429 25446 net.cpp:100] Creating Layer conv8_2_mbox_conf_perm
I0305 10:53:10.423436 25446 net.cpp:434] conv8_2_mbox_conf_perm <- conv8_2_mbox_conf
I0305 10:53:10.423449 25446 net.cpp:408] conv8_2_mbox_conf_perm -> conv8_2_mbox_conf_perm
I0305 10:53:10.423566 25446 net.cpp:150] Setting up conv8_2_mbox_conf_perm
I0305 10:53:10.423574 25446 net.cpp:157] Top shape: 1 3 3 84 (756)
I0305 10:53:10.423579 25446 net.cpp:165] Memory required for data: 250003184
I0305 10:53:10.423584 25446 layer_factory.hpp:77] Creating layer conv8_2_mbox_conf_flat
I0305 10:53:10.423594 25446 net.cpp:100] Creating Layer conv8_2_mbox_conf_flat
I0305 10:53:10.423600 25446 net.cpp:434] conv8_2_mbox_conf_flat <- conv8_2_mbox_conf_perm
I0305 10:53:10.423609 25446 net.cpp:408] conv8_2_mbox_conf_flat -> conv8_2_mbox_conf_flat
I0305 10:53:10.423643 25446 net.cpp:150] Setting up conv8_2_mbox_conf_flat
I0305 10:53:10.423652 25446 net.cpp:157] Top shape: 1 756 (756)
I0305 10:53:10.423656 25446 net.cpp:165] Memory required for data: 250006208
I0305 10:53:10.423661 25446 layer_factory.hpp:77] Creating layer conv8_2_mbox_priorbox
I0305 10:53:10.423671 25446 net.cpp:100] Creating Layer conv8_2_mbox_priorbox
I0305 10:53:10.423679 25446 net.cpp:434] conv8_2_mbox_priorbox <- conv8_2_conv8_2_relu_0_split_3
I0305 10:53:10.423686 25446 net.cpp:434] conv8_2_mbox_priorbox <- data_data_0_split_5
I0305 10:53:10.423697 25446 net.cpp:408] conv8_2_mbox_priorbox -> conv8_2_mbox_priorbox
I0305 10:53:10.423736 25446 net.cpp:150] Setting up conv8_2_mbox_priorbox
I0305 10:53:10.423744 25446 net.cpp:157] Top shape: 1 2 144 (288)
I0305 10:53:10.423748 25446 net.cpp:165] Memory required for data: 250007360
I0305 10:53:10.423754 25446 layer_factory.hpp:77] Creating layer conv9_2_mbox_loc
I0305 10:53:10.423787 25446 net.cpp:100] Creating Layer conv9_2_mbox_loc
I0305 10:53:10.423796 25446 net.cpp:434] conv9_2_mbox_loc <- conv9_2_conv9_2_relu_0_split_0
I0305 10:53:10.423808 25446 net.cpp:408] conv9_2_mbox_loc -> conv9_2_mbox_loc
I0305 10:53:10.425391 25446 net.cpp:150] Setting up conv9_2_mbox_loc
I0305 10:53:10.425411 25446 net.cpp:157] Top shape: 1 16 1 1 (16)
I0305 10:53:10.425417 25446 net.cpp:165] Memory required for data: 250007424
I0305 10:53:10.425428 25446 layer_factory.hpp:77] Creating layer conv9_2_mbox_loc_perm
I0305 10:53:10.425441 25446 net.cpp:100] Creating Layer conv9_2_mbox_loc_perm
I0305 10:53:10.425447 25446 net.cpp:434] conv9_2_mbox_loc_perm <- conv9_2_mbox_loc
I0305 10:53:10.425460 25446 net.cpp:408] conv9_2_mbox_loc_perm -> conv9_2_mbox_loc_perm
I0305 10:53:10.425566 25446 net.cpp:150] Setting up conv9_2_mbox_loc_perm
I0305 10:53:10.425575 25446 net.cpp:157] Top shape: 1 1 1 16 (16)
I0305 10:53:10.425578 25446 net.cpp:165] Memory required for data: 250007488
I0305 10:53:10.425585 25446 layer_factory.hpp:77] Creating layer conv9_2_mbox_loc_flat
I0305 10:53:10.425593 25446 net.cpp:100] Creating Layer conv9_2_mbox_loc_flat
I0305 10:53:10.425598 25446 net.cpp:434] conv9_2_mbox_loc_flat <- conv9_2_mbox_loc_perm
I0305 10:53:10.425608 25446 net.cpp:408] conv9_2_mbox_loc_flat -> conv9_2_mbox_loc_flat
I0305 10:53:10.425642 25446 net.cpp:150] Setting up conv9_2_mbox_loc_flat
I0305 10:53:10.425650 25446 net.cpp:157] Top shape: 1 16 (16)
I0305 10:53:10.425654 25446 net.cpp:165] Memory required for data: 250007552
I0305 10:53:10.425660 25446 layer_factory.hpp:77] Creating layer conv9_2_mbox_conf
I0305 10:53:10.425676 25446 net.cpp:100] Creating Layer conv9_2_mbox_conf
I0305 10:53:10.425683 25446 net.cpp:434] conv9_2_mbox_conf <- conv9_2_conv9_2_relu_0_split_1
I0305 10:53:10.425693 25446 net.cpp:408] conv9_2_mbox_conf -> conv9_2_mbox_conf
I0305 10:53:10.429077 25446 net.cpp:150] Setting up conv9_2_mbox_conf
I0305 10:53:10.429105 25446 net.cpp:157] Top shape: 1 84 1 1 (84)
I0305 10:53:10.429109 25446 net.cpp:165] Memory required for data: 250007888
I0305 10:53:10.429123 25446 layer_factory.hpp:77] Creating layer conv9_2_mbox_conf_perm
I0305 10:53:10.429141 25446 net.cpp:100] Creating Layer conv9_2_mbox_conf_perm
I0305 10:53:10.429150 25446 net.cpp:434] conv9_2_mbox_conf_perm <- conv9_2_mbox_conf
I0305 10:53:10.429160 25446 net.cpp:408] conv9_2_mbox_conf_perm -> conv9_2_mbox_conf_perm
I0305 10:53:10.429275 25446 net.cpp:150] Setting up conv9_2_mbox_conf_perm
I0305 10:53:10.429282 25446 net.cpp:157] Top shape: 1 1 1 84 (84)
I0305 10:53:10.429287 25446 net.cpp:165] Memory required for data: 250008224
I0305 10:53:10.429292 25446 layer_factory.hpp:77] Creating layer conv9_2_mbox_conf_flat
I0305 10:53:10.429304 25446 net.cpp:100] Creating Layer conv9_2_mbox_conf_flat
I0305 10:53:10.429311 25446 net.cpp:434] conv9_2_mbox_conf_flat <- conv9_2_mbox_conf_perm
I0305 10:53:10.429319 25446 net.cpp:408] conv9_2_mbox_conf_flat -> conv9_2_mbox_conf_flat
I0305 10:53:10.429353 25446 net.cpp:150] Setting up conv9_2_mbox_conf_flat
I0305 10:53:10.429360 25446 net.cpp:157] Top shape: 1 84 (84)
I0305 10:53:10.429365 25446 net.cpp:165] Memory required for data: 250008560
I0305 10:53:10.429371 25446 layer_factory.hpp:77] Creating layer conv9_2_mbox_priorbox
I0305 10:53:10.429381 25446 net.cpp:100] Creating Layer conv9_2_mbox_priorbox
I0305 10:53:10.429404 25446 net.cpp:434] conv9_2_mbox_priorbox <- conv9_2_conv9_2_relu_0_split_2
I0305 10:53:10.429414 25446 net.cpp:434] conv9_2_mbox_priorbox <- data_data_0_split_6
I0305 10:53:10.429422 25446 net.cpp:408] conv9_2_mbox_priorbox -> conv9_2_mbox_priorbox
I0305 10:53:10.429473 25446 net.cpp:150] Setting up conv9_2_mbox_priorbox
I0305 10:53:10.429481 25446 net.cpp:157] Top shape: 1 2 16 (32)
I0305 10:53:10.429486 25446 net.cpp:165] Memory required for data: 250008688
I0305 10:53:10.429491 25446 layer_factory.hpp:77] Creating layer mbox_loc
I0305 10:53:10.429502 25446 net.cpp:100] Creating Layer mbox_loc
I0305 10:53:10.429509 25446 net.cpp:434] mbox_loc <- conv4_3_norm_mbox_loc_flat
I0305 10:53:10.429530 25446 net.cpp:434] mbox_loc <- fc7_mbox_loc_flat
I0305 10:53:10.429539 25446 net.cpp:434] mbox_loc <- conv6_2_mbox_loc_flat
I0305 10:53:10.429546 25446 net.cpp:434] mbox_loc <- conv7_2_mbox_loc_flat
I0305 10:53:10.429553 25446 net.cpp:434] mbox_loc <- conv8_2_mbox_loc_flat
I0305 10:53:10.429558 25446 net.cpp:434] mbox_loc <- conv9_2_mbox_loc_flat
I0305 10:53:10.429567 25446 net.cpp:408] mbox_loc -> mbox_loc
I0305 10:53:10.429606 25446 net.cpp:150] Setting up mbox_loc
I0305 10:53:10.429613 25446 net.cpp:157] Top shape: 1 34928 (34928)
I0305 10:53:10.429617 25446 net.cpp:165] Memory required for data: 250148400
I0305 10:53:10.429625 25446 layer_factory.hpp:77] Creating layer mbox_conf
I0305 10:53:10.429633 25446 net.cpp:100] Creating Layer mbox_conf
I0305 10:53:10.429638 25446 net.cpp:434] mbox_conf <- conv4_3_norm_mbox_conf_flat
I0305 10:53:10.429646 25446 net.cpp:434] mbox_conf <- fc7_mbox_conf_flat
I0305 10:53:10.429652 25446 net.cpp:434] mbox_conf <- conv6_2_mbox_conf_flat
I0305 10:53:10.429658 25446 net.cpp:434] mbox_conf <- conv7_2_mbox_conf_flat
I0305 10:53:10.429664 25446 net.cpp:434] mbox_conf <- conv8_2_mbox_conf_flat
I0305 10:53:10.429670 25446 net.cpp:434] mbox_conf <- conv9_2_mbox_conf_flat
I0305 10:53:10.429679 25446 net.cpp:408] mbox_conf -> mbox_conf
I0305 10:53:10.429710 25446 net.cpp:150] Setting up mbox_conf
I0305 10:53:10.429718 25446 net.cpp:157] Top shape: 1 183372 (183372)
I0305 10:53:10.429723 25446 net.cpp:165] Memory required for data: 250881888
I0305 10:53:10.429728 25446 layer_factory.hpp:77] Creating layer mbox_priorbox
I0305 10:53:10.429738 25446 net.cpp:100] Creating Layer mbox_priorbox
I0305 10:53:10.429744 25446 net.cpp:434] mbox_priorbox <- conv4_3_norm_mbox_priorbox
I0305 10:53:10.429750 25446 net.cpp:434] mbox_priorbox <- fc7_mbox_priorbox
I0305 10:53:10.429757 25446 net.cpp:434] mbox_priorbox <- conv6_2_mbox_priorbox
I0305 10:53:10.429764 25446 net.cpp:434] mbox_priorbox <- conv7_2_mbox_priorbox
I0305 10:53:10.429769 25446 net.cpp:434] mbox_priorbox <- conv8_2_mbox_priorbox
I0305 10:53:10.429774 25446 net.cpp:434] mbox_priorbox <- conv9_2_mbox_priorbox
I0305 10:53:10.429783 25446 net.cpp:408] mbox_priorbox -> mbox_priorbox
I0305 10:53:10.429812 25446 net.cpp:150] Setting up mbox_priorbox
I0305 10:53:10.429819 25446 net.cpp:157] Top shape: 1 2 34928 (69856)
I0305 10:53:10.429824 25446 net.cpp:165] Memory required for data: 251161312
I0305 10:53:10.429831 25446 layer_factory.hpp:77] Creating layer mbox_loss
I0305 10:53:10.429847 25446 net.cpp:100] Creating Layer mbox_loss
I0305 10:53:10.429853 25446 net.cpp:434] mbox_loss <- mbox_loc
I0305 10:53:10.429858 25446 net.cpp:434] mbox_loss <- mbox_conf
I0305 10:53:10.429865 25446 net.cpp:434] mbox_loss <- mbox_priorbox
…
state {
  phase: TEST
}
layer {
  name: "data"
  type: "AnnotatedData"
  top: "data"
  top: "label"
  include {
    phase: TEST
  }
  transform_param {
    mean_value: 104
    mean_value: 117
    mean_value: 123
    resize_param {
      prob: 1
      resize_mode: WARP
      height: 300
      width: 300
      interp_mode: LINEAR
    }
  }
  data_param {
    source: "examples/VOC0712/VOC0712_test_lmdb"
    batch_size: 8
    backend: LMDB
  }
  annotated_data_param {
    batch_sampler {
    }
    label_map_file: "data/VOC0712/labelmap_voc.prototxt"
  }
}
layer {
  name: "conv1_1"
  type: "Convolution"
  bottom: "data"
  top: "conv1_1"
  param {
    lr_mult: 1
    decay_mult: 1
  }
  param {
    lr_mult: 2
    decay_mult: 0
  }
  convolution_param {
    num_output: 64
    pad: 1
    kernel_size: 3
    weight_filler {
      type: "xavier"
    }
    bias_filler {
      type: "constant"
      value: 0
    }
  }
}
layer {
  name: "relu1_1"
  type: "ReLU"
  bottom: "conv1_1"
  top: "conv1_1"
}
layer {
  name: "conv1_2"
  type: "Convolution"
  bottom: "conv1_1"
  top: "conv1_2"
  param {
    lr_mult: 1
    decay_mult: 1
  }
  param {
    lr_mult: 2
    decay_mult: 0
  }
  convolution_param {
    num_output: 64
    pad: 1
    kernel_size: 3
    weight_filler {
      type: "xavier"
    }
    bias_filler {
      type: "constant"
      value: 0
    }
  }
}
layer {
  name: "relu1_2"
  type: "ReLU"
  bottom: "conv1_2"
  top: "conv1_2"
}
layer {
  name: "pool1"
  type: "Pooling"
  bottom: "conv1_2"
  top: "pool1"
  pooling_param {
    pool: MAX
    kernel_size: 2
    stride: 2
  }
}
layer {
  name: "conv2_1"
  type: "Convolution"
  bottom: "pool1"
  top: "conv2_1"
  param {
    lr_mult: 1
    decay_mult: 1
  }
  param {
    lr_mult: 2
    decay_mult: 0
  }
  convolution_param {
    num_output: 128
    pad: 1
    kernel_size: 3
    weight_filler {
      type: "xavier"
    }
    bias_filler {
      type: "constant"
      value: 0
    }
  }
}
layer {
  name: "relu2_1"
  type: "ReLU"
  bottom: "conv2_1"
  top: "conv2_1"
}
layer {
  name: "conv2_2"
  type: "Convolution"
  bottom: "conv2_1"
  top: "conv2_2"
  param {
    lr_mult: 1
    decay_mult: 1
  }
  param {
    lr_mult: 2
    decay_mult: 0
  }
  convolution_param {
    num_output: 128
    pad: 1
    kernel_size: 3
    weight_filler {
      type: "xavier"
    }
    bias_filler {
      type: "constant"
      value: 0
    }
  }
}
layer {
  name: "relu2_2"
  type: "ReLU"
  bottom: "conv2_2"
  top: "conv2_2"
}
layer {
  name: "pool2"
  type: "Pooling"
  bottom: "conv2_2"
  top: "pool2"
  pooling_param {
    pool: MAX
    kernel_size: 2
    stride: 2
  }
}
layer {
  name: "conv3_1"
  type: "Convolution"
  bottom: "pool2"
  top: "conv3_1"
  param {
    lr_mult: 1
    decay_mult: 1
  }
  param {
    lr_mult: 2
    decay_mult: 0
  }
  convolution_param {
    num_output: 256
    pad: 1
    kernel_size: 3
    weight_filler {
      type: "xavier"
    }
    bias_filler {
      type: "constant"
      value: 0
    }
  }
}
layer {
  name: "relu3_1"
  type: "ReLU"
  bottom: "conv3_1"
  top: "conv3_1"
}
layer {
  name: "conv3_2"
  type: "Convolution"
  bottom: "conv3_1"
  top: "conv3_2"
  param {
    lr_mult: 1
    decay_mult: 1
  }
  param {
    lr_mult: 2
    decay_mult: 0
  }
  convolution_param {
    num_output: 256
    pad: 1
    kernel_size: 3
    weight_filler {
      type: "xavier"
    }
    bias_filler {
      type: "constant"
      value: 0
    }
  }
}
layer {
  name: "relu3_2"
  type: "ReLU"
  bottom: "conv3_2"
  top: "conv3_2"
}
layer {
  name: "conv3_3"
  type: "Convolution"
  bottom: "conv3_2"
  top: "conv3_3"
  param {
    lr_mult: 1
    decay_mult: 1
  }
  param {
    lr_mult: 2
    decay_mult: 0
  }
  convolution_param {
    num_output: 256
    pad: 1
    kernel_size: 3
    weight_filler {
      type: "xavier"
    }
    bias_filler {
      type: "constant"
      value: 0
    }
  }
}
layer {
  name: "relu3_3"
  type: "ReLU"
  bottom: "conv3_3"
  top: "conv3_3"
}
layer {
  name: "pool3"
  type: "Pooling"
  bottom: "conv3_3"
  top: "pool3"
  pooling_param {
    pool: MAX
    kernel_size: 2
    stride: 2
  }
}
layer {
  name: "conv4_1"
  type: "Convolution"
  bottom: "pool3"
  top: "conv4_1"
  param {
    lr_mult: 1
    decay_mult: 1
  }
  param {
    lr_mult: 2
    decay_mult: 0
  }
  convolution_param {
    num_output: 512
    pad: 1
    kernel_size: 3
    weight_filler {
      type: "xavier"
    }
    bias_filler {
      type: "constant"
      value: 0
    }
  }
}
layer {
  name: "relu4_1"
  type: "ReLU"
  bottom: "conv4_1"
  top: "conv4_1"
}
layer {
  name: "conv4_2"
  type: "Convolution"
  bottom: "conv4_1"
  top: "conv4_2"
  param {
    lr_mult: 1
    decay_mult: 1
  }
  param {
    lr_mult: 2
    decay_mult: 0
  }
  convolution_param {
    num_output: 512
    pad: 1
    kernel_size: 3
    weight_filler {
      type: "xavier"
    }
    bias_filler {
      type: "constant"
      value: 0
    }
  }
}
layer {
  name: "relu4_2"
  type: "ReLU"
  bottom: "conv4_2"
  top: "conv4_2"
}
layer {
  name: "conv4_3"
  type: "Convolution"
  bottom: "conv4_2"
  top: "conv4_3"
  param {
    lr_mult: 1
    decay_mult: 1
  }
  param {
    lr_mult: 2
    decay_mult: 0
  }
  convolution_param {
    num_output: 512
    pad: 1
    kernel_size: 3
    weight_filler {
      type: "xavier"
    }
    bias_filler {
      type: "constant"
      value: 0
    }
  }
}
layer {
  name: "relu4_3"
  type: "ReLU"
  bottom: "conv4_3"
  top: "conv4_3"
}
layer {
  name: "pool4"
  type: "Pooling"
  bottom: "conv4_3"
  top: "pool4"
  pooling_param {
    pool: MAX
    kernel_size: 2
    stride: 2
  }
}
layer {
  name: "conv5_1"
  type: "Convolution"
  bottom: "pool4"
  top: "conv5_1"
  param {
    lr_mult: 1
    decay_mult: 1
  }
  param {
    lr_mult: 2
    decay_mult: 0
  }
  convolution_param {
    num_output: 512
    pad: 1
    kernel_size: 3
    weight_filler {
      type: "xavier"
    }
    bias_filler {
      type: "constant"
      value: 0
    }
    dilation: 1
  }
}
layer {
  name: "relu5_1"
  type: "ReLU"
  bottom: "conv5_1"
  top: "conv5_1"
}
layer {
  name: "conv5_2"
  type: "Convolution"
  bottom: "conv5_1"
  top: "conv5_2"
  param {
    lr_mult: 1
    decay_mult: 1
  }
  param {
    lr_mult: 2
    decay_mult: 0
  }
  convolution_param {
    num_output: 512
    pad: 1
    kernel_size: 3
    weight_filler {
      type: "xavier"
    }
    bias_filler {
      type: "constant"
      value: 0
    }
    dilation: 1
  }
}
layer {
  name: "relu5_2"
  type: "ReLU"
  bottom: "conv5_2"
  top: "conv5_2"
}
layer {
  name: "conv5_3"
  type: "Convolution"
  bottom: "conv5_2"
  top: "conv5_3"
  param {
    lr_mult: 1
    decay_mult: 1
  }
  param {
    lr_mult: 2
    decay_mult: 0
  }
  convolution_param {
    num_output: 512
    pad: 1
    kernel_size: 3
    weight_filler {
      type: "xavier"
    }
    bias_filler {
      type: "constant"
      value: 0
    }
    dilation: 1
  }
}
layer {
  name: "relu5_3"
  type: "ReLU"
  bottom: "conv5_3"
  top: "conv5_3"
}
layer {
  name: "pool5"
  type: "Pooling"
  bottom: "conv5_3"
  top: "pool5"
  pooling_param {
    pool: MAX
    kernel_size: 3
    stride: 1
    pad: 1
  }
}
layer {
  name: "fc6"
  type: "Convolution"
  bottom: "pool5"
  top: "fc6"
  param {
    lr_mult: 1
    decay_mult: 1
  }
  param {
    lr_mult: 2
    decay_mult: 0
  }
  convolution_param {
    num_output: 1024
    pad: 6
    kernel_size: 3
    weight_filler {
      type: "xavier"
    }
    bias_filler {
      type: "constant"
      value: 0
    }
    dilation: 6
  }
}
layer {
  name: "relu6"
  type: "ReLU"
  bottom: "fc6"
  top: "fc6"
}
layer {
  name: "fc7"
  type: "Convolution"
  bottom: "fc6"
  top: "fc7"
  param {
    lr_mult: 1
    decay_mult: 1
  }
  param {
    lr_mult: 2
    decay_mult: 0
  }
  convolution_param {
    num_output: 1024
    kernel_size: 1
    weight_filler {
      type: "xavier"
    }
    bias_filler {
      type: "constant"
      value: 0
    }
  }
}
layer {
  name: "relu7"
  type: "ReLU"
  bottom: "fc7"
  top: "fc7"
}
layer {
  name: "conv6_1"
  type: "Convolution"
  bottom: "fc7"
  top: "conv6_1"
  param {
    lr_mult: 1
    decay_mult: 1
  }
  param {
    lr_mult: 2
    decay_mult: 0
  }
  convolution_param {
    num_output: 256
    pad: 0
    kernel_size: 1
    stride: 1
    weight_filler {
      type: "xavier"
    }
    bias_filler {
      type: "constant"
      value: 0
    }
  }
}
layer {
  name: "conv6_1_relu"
  type: "ReLU"
  bottom: "conv6_1"
  top: "conv6_1"
}
layer {
  name: "conv6_2"
  type: "Convolution"
  bottom: "conv6_1"
  top: "conv6_2"
  param {
    lr_mult: 1
    decay_mult: 1
  }
  param {
    lr_mult: 2
    decay_mult: 0
  }
  convolution_param {
    num_output: 512
    pad: 1
    kernel_size: 3
    stride: 2
    weight_filler {
      type: "xavier"
    }
    bias_filler {
      type: "constant"
      value: 0
    }
  }
}
layer {
  name: "conv6_2_relu"
  type: "ReLU"
  bottom: "conv6_2"
  top: "conv6_2"
}
layer {
  name: "conv7_1"
  type: "Convolution"
  bottom: "conv6_2"
  top: "conv7_1"
  param {
    lr_mult: 1
    decay_mult: 1
  }
  param {
    lr_mult: 2
    decay_mult: 0
  }
  convolution_param {
    num_output: 128
    pad: 0
    kernel_size: 1
    stride: 1
    weight_filler {
      type: "xavier"
    }
    bias_filler {
      type: "constant"
      value: 0
    }
  }
}
layer {
  name: "conv7_1_relu"
  type: "ReLU"
  bottom: "conv7_1"
  top: "conv7_1"
}
layer {
  name: "conv7_2"
  type: "Convolution"
  bottom: "conv7_1"
  top: "conv7_2"
  param {
    lr_mult: 1
    decay_mult: 1
  }
  param {
    lr_mult: 2
    decay_mult: 0
  }
  convolution_param {
    num_output: 256
    pad: 1
    kernel_size: 3
    stride: 2
    weight_filler {
      type: "xavier"
    }
    bias_filler {
      type: "constant"
      value: 0
    }
  }
}
layer {
  name: "conv7_2_relu"
  type: "ReLU"
  bottom: "conv7_2"
  top: "conv7_2"
}
layer {
  name: "conv8_1"
  type: "Convolution"
  bottom: "conv7_2"
  top: "conv8_1"
  param {
    lr_mult: 1
    decay_mult: 1
  }
  param {
    lr_mult: 2
    decay_mult: 0
  }
  convolution_param {
    num_output: 128
    pad: 0
    kernel_size: 1
    stride: 1
    weight_filler {
      type: "xavier"
    }
    bias_filler {
      type: "constant"
      value: 0
    }
  }
}
layer {
  name: "conv8_1_relu"
  type: "ReLU"
  bottom: "conv8_1"
  top: "conv8_1"
}
layer {
  name: "conv8_2"
  type: "Convolution"
  bottom: "conv8_1"
  top: "conv8_2"
  param {
    lr_mult: 1
    decay_mult: 1
  }
  param {
    lr_mult: 2
    decay_mult: 0
  }
  convolution_param {
    num_output: 256
    pad: 0
    kernel_size: 3
    stride: 1
    weight_filler {
      type: "xavier"
    }
    bias_filler {
      type: "constant"
      value: 0
    }
  }
}
layer {
  name: "conv8_2_relu"
  type: "ReLU"
  bottom: "conv8_2"
  top: "conv8_2"
}
layer {
  name: "conv9_1"
  type: "Convolution"
  bottom: "conv8_2"
  top: "conv9_1"
  param {
    lr_mult: 1
    decay_mult: 1
  }
  param {
    lr_mult: 2
    decay_mult: 0
  }
  convolution_param {
    num_output: 128
    pad: 0
    kernel_size: 1
    stride: 1
    weight_filler {
      type: "xavier"
    }
    bias_filler {
      type: "constant"
      value: 0
    }
  }
}
layer {
  name: "conv9_1_relu"
  type: "ReLU"
  bottom: "conv9_1"
  top: "conv9_1"
}
layer {
  name: "conv9_2"
  type: "Convolution"
  bottom: "conv9_1"
  top: "conv9_2"
  param {
    lr_mult: 1
    decay_mult: 1
  }
  param {
    lr_mult: 2
    decay_mult: 0
  }
  convolution_param {
    num_output: 256
    pad: 0
    kernel_size: 3
    stride: 1
    weight_filler {
      type: "xavier"
    }
    bias_filler {
      type: "constant"
      value: 0
    }
  }
}
layer {
  name: "conv9_2_relu"
  type: "ReLU"
  bottom: "conv9_2"
  top: "conv9_2"
}
layer {
  name: "conv4_3_norm"
  type: "Normalize"
  bottom: "conv4_3"
  top: "conv4_3_norm"
  norm_param {
    across_spatial: false
    scale_filler {
      type: "constant"
      value: 20
    }
    channel_shared: false
  }
}
layer {
  name: "conv4_3_norm_mbox_loc"
  type: "Convolution"
  bottom: "conv4_3_norm"
  top: "conv4_3_norm_mbox_loc"
  param {
    lr_mult: 1
    decay_mult: 1
  }
  param {
    lr_mult: 2
    decay_mult: 0
  }
  convolution_param {
    num_output: 16
    pad: 1
    kernel_size: 3
    stride: 1
    weight_filler {
      type: "xavier"
    }
    bias_filler {
      type: "constant"
      value: 0
    }
  }
}
layer {
  name: "conv4_3_norm_mbox_loc_perm"
  type: "Permute"
  bottom: "conv4_3_norm_mbox_loc"
  top: "conv4_3_norm_mbox_loc_perm"
  permute_param {
    order: 0
    order: 2
    order: 3
    order: 1
  }
}
layer {
  name: "conv4_3_norm_mbox_loc_flat"
  type: "Flatten"
  bottom: "conv4_3_norm_mbox_loc_perm"
  top: "conv4_3_norm_mbox_loc_flat"
  flatten_param {
    axis: 1
  }
}
layer {
  name: "conv4_3_norm_mbox_conf"
  type: "Convolution"
  bottom: "conv4_3_norm"
  top: "conv4_3_norm_mbox_conf"
  param {
    lr_mult: 1
    decay_mult: 1
  }
  param {
    lr_mult: 2
    decay_mult: 0
  }
  convolution_param {
    num_output: 84
    pad: 1
    kernel_size: 3
    stride: 1
    weight_filler {
      type: "xavier"
    }
    bias_filler {
      type: "constant"
      value: 0
    }
  }
}
layer {
  name: "conv4_3_norm_mbox_conf_perm"
  type: "Permute"
  bottom: "conv4_3_norm_mbox_conf"
  top: "conv4_3_norm_mbox_conf_perm"
  permute_param {
    order: 0
    order: 2
    order: 3
    order: 1
  }
}
layer {
  name: "conv4_3_norm_mbox_conf_flat"
  type: "Flatten"
  bottom: "conv4_3_norm_mbox_conf_perm"
  top: "conv4_3_norm_mbox_conf_flat"
  flatten_param {
    axis: 1
  }
}
layer {
  name: "conv4_3_norm_mbox_priorbox"
  type: "PriorBox"
  bottom: "conv4_3_norm"
  bottom: "data"
  top: "conv4_3_norm_mbox_priorbox"
  prior_box_param {
    min_size: 30
    max_size: 60
    aspect_ratio: 2
    flip: true
    clip: false
    variance: 0.1
    variance: 0.1
    variance: 0.2
    variance: 0.2
    step: 8
    offset: 0.5
  }
}
layer {
  name: "fc7_mbox_loc"
  type: "Convolution"
  bottom: "fc7"
  top: "fc7_mbox_loc"
  param {
    lr_mult: 1
    decay_mult: 1
  }
  param {
    lr_mult: 2
    decay_mult: 0
  }
  convolution_param {
    num_output: 24
    pad: 1
    kernel_size: 3
    stride: 1
    weight_filler {
      type: "xavier"
    }
    bias_filler {
      type: "constant"
      value: 0
    }
  }
}
layer {
  name: "fc7_mbox_loc_perm"
  type: "Permute"
  bottom: "fc7_mbox_loc"
  top: "fc7_mbox_loc_perm"
  permute_param {
    order: 0
    order: 2
    order: 3
    order: 1
  }
}
layer {
  name: "fc7_mbox_loc_flat"
  type: "Flatten"
  bottom: "fc7_mbox_loc_perm"
  top: "fc7_mbox_loc_flat"
  flatten_param {
    axis: 1
  }
}
layer {
  name: "fc7_mbox_conf"
  type: "Convolution"
  bottom: "fc7"
  top: "fc7_mbox_conf"
  param {
    lr_mult: 1
    decay_mult: 1
  }
  param {
    lr_mult: 2
    decay_mult: 0
  }
  convolution_param {
    num_output: 126
    pad: 1
    kernel_size: 3
    stride: 1
    weight_filler {
      type: "xavier"
    }
    bias_filler {
      type: "constant"
      value: 0
    }
  }
}
layer {
  name: "fc7_mbox_conf_perm"
  type: "Permute"
  bottom: "fc7_mbox_conf"
  top: "fc7_mbox_conf_perm"
  permute_param {
    order: 0
    order: 2
    order: 3
    order: 1
  }
}
layer {
  name: "fc7_mbox_conf_flat"
  type: "Flatten"
  bottom: "fc7_mbox_conf_perm"
  top: "fc7_mbox_conf_flat"
  flatten_param {
    axis: 1
  }
}
layer {
  name: "fc7_mbox_priorbox"
  type: "PriorBox"
  bottom: "fc7"
  bottom: "data"
  top: "fc7_mbox_priorbox"
  prior_box_param {
    min_size: 60
    max_size: 111
    aspect_ratio: 2
    aspect_ratio: 3
    flip: true
    clip: false
    variance: 0.1
    variance: 0.1
    variance: 0.2
    variance: 0.2
    step: 16
    offset: 0.5
  }
}
layer {
  name: "conv6_2_mbox_loc"
  type: "Convolution"
  bottom: "conv6_2"
  top: "conv6_2_mbox_loc"
  param {
    lr_mult: 1
    decay_mult: 1
  }
  param {
    lr_mult: 2
    decay_mult: 0
  }
  convolution_param {
    num_output: 24
    pad: 1
    kernel_size: 3
    stride: 1
    weight_filler {
      type: "xavier"
    }
    bias_filler {
      type: "constant"
      value: 0
    }
  }
}
layer {
  name: "conv6_2_mbox_loc_perm"
  type: "Permute"
  bottom: "conv6_2_mbox_loc"
  top: "conv6_2_mbox_loc_perm"
  permute_param {
    order: 0
    order: 2
    order: 3
    order: 1
  }
}
layer {
  name: "conv6_2_mbox_loc_flat"
  type: "Flatten"
  bottom: "conv6_2_mbox_loc_perm"
  top: "conv6_2_mbox_loc_flat"
  flatten_param {
    axis: 1
  }
}
layer {
  name: "conv6_2_mbox_conf"
  type: "Convolution"
  bottom: "conv6_2"
  top: "conv6_2_mbox_conf"
  param {
    lr_mult: 1
    decay_mult: 1
  }
  param {
    lr_mult: 2
    decay_mult: 0
  }
  convolution_param {
    num_output: 126
    pad: 1
    kernel_size: 3
    stride: 1
    weight_filler {
      type: "xavier"
    }
    bias_filler {
      type: "constant"
      value: 0
    }
  }
}
layer {
  name: "conv6_2_mbox_conf_perm"
  type: "Permute"
  bottom: "conv6_2_mbox_conf"
  top: "conv6_2_mbox_conf_perm"
  permute_param {
    order: 0
    order: 2
    order: 3
    order: 1
  }
}
layer {
  name: "conv6_2_mbox_conf_flat"
  type: "Flatten"
  bottom: "conv6_2_mbox_conf_perm"
  top: "conv6_2_mbox_conf_flat"
  flatten_param {
    axis: 1
  }
}
layer {
  name: "conv6_2_mbox_priorbox"
  type: "PriorBox"
  bottom: "conv6_2"
  bottom: "data"
  top: "conv6_2_mbox_priorbox"
  prior_box_param {
    min_size: 111
    max_size: 162
    aspect_ratio: 2
    aspect_ratio: 3
    flip: true
    clip: false
    variance: 0.1
    variance: 0.1
    variance: 0.2
    variance: 0.2
    step: 32
    offset: 0.5
  }
}
layer {
  name: "conv7_2_mbox_loc"
  type: "Convolution"
  bottom: "conv7_2"
  top: "conv7_2_mbox_loc"
  param {
    lr_mult: 1
    decay_mult: 1
  }
  param {
    lr_mult: 2
    decay_mult: 0
  }
  convolution_param {
    num_output: 24
    pad: 1
    kernel_size: 3
    stride: 1
    weight_filler {
      type: "xavier"
    }
    bias_filler {
      type: "constant"
      value: 0
    }
  }
}
layer {
  name: "conv7_2_mbox_loc_perm"
  type: "Permute"
  bottom: "conv7_2_mbox_loc"
  top: "conv7_2_mbox_loc_perm"
  permute_param {
    order: 0
    order: 2
    order: 3
    order: 1
  }
}
layer {
  name: "conv7_2_mbox_loc_flat"
  type: "Flatten"
  bottom: "conv7_2_mbox_loc_perm"
  top: "conv7_2_mbox_loc_flat"
  flatten_param {
    axis: 1
  }
}
layer {
  name: "conv7_2_mbox_conf"
  type: "Convolution"
  bottom: "conv7_2"
  top: "conv7_2_mbox_conf"
  param {
    lr_mult: 1
    decay_mult: 1
  }
  param {
    lr_mult: 2
    decay_mult: 0
  }
  convolution_param {
    num_output: 126
    pad: 1
    kernel_size: 3
    stride: 1
    weight_filler {
      type: "xavier"
    }
    bias_filler {
      type: "constant"
      value: 0
    }
  }
}
layer {
  name: "conv7_2_mbox_conf_perm"
  type: "Permute"
  bottom: "conv7_2_mbox_conf"
  top: "conv7_2_mbox_conf_perm"
  permute_param {
    order: 0
    order: 2
    order: 3
    order: 1
  }
}
layer {
  name: "conv7_2_mbox_conf_flat"
  type: "Flatten"
  bottom: "conv7_2_mbox_conf_perm"
  top: "conv7_2_mbox_conf_flat"
  flatten_param {
    axis: 1
  }
}
layer {
  name: "conv7_2_mbox_priorbox"
  type: "PriorBox"
  bottom: "conv7_2"
  bottom: "data"
  top: "conv7_2_mbox_priorbox"
  prior_box_param {
    min_size: 162
    max_size: 213
    aspect_ratio: 2
    aspect_ratio: 3
    flip: true
    clip: false
    variance: 0.1
    variance: 0.1
    variance: 0.2
    variance: 0.2
    step: 64
    offset: 0.5
  }
}
layer {
  name: "conv8_2_mbox_loc"
  type: "Convolution"
  bottom: "conv8_2"
  top: "conv8_2_mbox_loc"
  param {
    lr_mult: 1
    decay_mult: 1
  }
  param {
    lr_mult: 2
    decay_mult: 0
  }
  convolution_param {
    num_output: 16
    pad: 1
    kernel_size: 3
    stride: 1
    weight_filler {
      type: "xavier"
    }
    bias_filler {
      type: "constant"
      value: 0
    }
  }
}
layer {
  name: "conv8_2_mbox_loc_perm"
  type: "Permute"
  bottom: "conv8_2_mbox_loc"
  top: "conv8_2_mbox_loc_perm"
  permute_param {
    order: 0
    order: 2
    order: 3
    order: 1
  }
}
layer {
  name: "conv8_2_mbox_loc_flat"
  type: "Flatten"
  bottom: "conv8_2_mbox_loc_perm"
  top: "conv8_2_mbox_loc_flat"
  flatten_param {
    axis: 1
  }
}
layer {
  name: "conv8_2_mbox_conf"
  type: "Convolution"
  bottom: "conv8_2"
  top: "conv8_2_mbox_conf"
  param {
    lr_mult: 1
    decay_mult: 1
  }
  param {
    lr_mult: 2
    decay_mult: 0
  }
  convolution_param {
    num_output: 84
    pad: 1
    kernel_size: 3
    stride: 1
    weight_filler {
      type: "xavier"
    }
    bias_filler {
      type: "constant"
      value: 0
    }
  }
}
layer {
  name: "conv8_2_mbox_conf_perm"
  type: "Permute"
  bottom: "conv8_2_mbox_conf"
  top: "conv8_2_mbox_conf_perm"
  permute_param {
    order: 0
    order: 2
    order: 3
    order: 1
  }
}
layer {
  name: "conv8_2_mbox_conf_flat"
  type: "Flatten"
  bottom: "conv8_2_mbox_conf_perm"
  top: "conv8_2_mbox_conf_flat"
  flatten_param {
    axis: 1
  }
}
layer {
  name: "conv8_2_mbox_priorbox"
  type: "PriorBox"
  bottom: "conv8_2"
  bottom: "data"
  top: "conv8_2_mbox_priorbox"
  prior_box_param {
    min_size: 213
    max_size: 264
    aspect_ratio: 2
    flip: true
    clip: false
    variance: 0.1
    variance: 0.1
    variance: 0.2
    variance: 0.2
    step: 100
    offset: 0.5
  }
}
layer {
  name: "conv9_2_mbox_loc"
  type: "Convolution"
  bottom: "conv9_2"
  top: "conv9_2_mbox_loc"
  param {
    lr_mult: 1
    decay_mult: 1
  }
  param {
    lr_mult: 2
    decay_mult: 0
  }
  convolution_param {
    num_output: 16
    pad: 1
    kernel_size: 3
    stride: 1
    weight_filler {
      type: "xavier"
    }
    bias_filler {
      type: "constant"
      value: 0
    }
  }
}
layer {
  name: "conv9_2_mbox_loc_perm"
  type: "Permute"
  bottom: "conv9_2_mbox_loc"
  top: "conv9_2_mbox_loc_perm"
  permute_param {
    order: 0
    order: 2
    order: 3
    order: 1
  }
}
layer {
  name: "conv9_2_mbox_loc_flat"
  type: "Flatten"
  bottom: "conv9_2_mbox_loc_perm"
  top: "conv9_2_mbox_loc_flat"
  flatten_param {
    axis: 1
  }
}
layer {
  name: "conv9_2_mbox_conf"
  type: "Convolution"
  bottom: "conv9_2"
  top: "conv9_2_mbox_conf"
  param {
    lr_mult: 1
    decay_mult: 1
  }
  param {
    lr_mult: 2
    decay_mult: 0
  }
  convolution_param {
    num_output: 84
    pad: 1
    kernel_size: 3
    stride: 1
    weight_filler {
      type: "xavier"
    }
    bias_filler {
      type: "constant"
      value: 0
    }
  }
}
layer {
  name: "conv9_2_mbox_conf_perm"
  type: "Permute"
  bottom: "conv9_2_mbox_conf"
  top: "conv9_2_mbox_conf_perm"
  permute_param {
    order: 0
    order: 2
    order: 3
    order: 1
  }
}
layer {
  name: "conv9_2_mbox_conf_flat"
  type: "Flatten"
  bottom: "conv9_2_mbox_conf_perm"
  top: "conv9_2_mbox_conf_flat"
  flatten_param {
    axis: 1
  }
}
layer {
  name: "conv9_2_mbox_priorbox"
  type: "PriorBox"
  bottom: "conv9_2"
  bottom: "data"
  top: "conv9_2_mbox_priorbox"
  prior_box_param {
    min_size: 264
    max_size: 315
    aspect_ratio: 2
    flip: true
    clip: false
    variance: 0.1
    variance: 0.1
    variance: 0.2
    variance: 0.2
    step: 300
    offset: 0.5
  }
}
layer {
  name: "mbox_loc"
  type: "Concat"
  bottom: "conv4_3_norm_mbox_loc_flat"
  bottom: "fc7_mbox_loc_flat"
  bottom: "conv6_2_mbox_loc_flat"
  bottom: "conv7_2_mbox_loc_flat"
  bottom: "conv8_2_mbox_loc_flat"
  bottom: "conv9_2_mbox_loc_flat"
  top: "mbox_loc"
  concat_param {
    axis: 1
  }
}
layer {
  name: "mbox_conf"
  type: "Concat"
  bottom: "conv4_3_norm_mbox_conf_flat"
  bottom: "fc7_mbox_conf_flat"
  bottom: "conv6_2_mbox_conf_flat"
  bottom: "conv7_2_mbox_conf_flat"
  bottom: "conv8_2_mbox_conf_flat"
  bottom: "conv9_2_mbox_conf_flat"
  top: "mbox_conf"
  concat_param {
    axis: 1
  }
}
layer {
  name: "mbox_priorbox"
  type: "Concat"
  bottom: "conv4_3_norm_mbox_priorbox"
  bottom: "fc7_mbox_priorbox"
  bottom: "conv6_2_mbox_priorbox"
  bottom: "conv7_2_mbox_priorbox"
  bottom: "conv8_2_mbox_priorbox"
  bottom: "conv9_2_mbox_priorbox"
  top: "mbox_priorbox"
  concat_param {
    axis: 2
  }
}
layer {
  name: "mbox_conf_reshape"
  type: "Reshape"
  bottom: "mbox_conf"
  top: "mbox_conf_reshape"
  reshape_param {
    shape {
      dim: 0
      dim: -1
      dim: 21
    }
  }
}
layer {
  name: "mbox_conf_softmax"
  type: "Softmax"
  bottom: "mbox_conf_reshape"
  top: "mbox_conf_softmax"
  softmax_param {
    axis: 2
  }
}
layer {
  name: "mbox_conf_flatten"
  type: "Flatten"
  bottom: "mbox_conf_softmax"
  top: "mbox_conf_flatten"
  flatten_param {
    axis: 1
  }
}
layer {
  name: "detection_out"
  type: "DetectionOutput"
  bottom: "mbox_loc"
  bottom: "mbox_conf_flatten"
  bottom: "mbox_priorbox"
  top: "detection_out"
  include {
    phase: TEST
  }
  detection_output_param {
    num_classes: 21
    share_location: true
    background_label_id: 0
    nms_param {
      nms_threshold: 0.45
      top_k: 400
    }
    save_output_param {
      output_directory: "/home/zs/data/VOCdevkit/results/VOC2007/SSD_300x300_score/Main"
      output_name_prefix: "comp4_det_test_"
      output_format: "VOC"
      label_map_file: "data/VOC0712/labelmap_voc.prototxt"
      name_size_file: "data/VOC0712/test_name_size.txt"
      num_test_image: 4952
    }
    code_type: CENTER_SIZE
    keep_top_k: 200
    confidence_threshold: 0.01
  }
}
layer {
  name: "detection_eval"
  type: "DetectionEvaluate"
  bottom: "detection_out"
  bottom: "label"
  top: "detection_eval"
  include {
    phase: TEST
  }
  detection_evaluate_param {
    num_classes: 21
    background_label_id: 0
    overlap_threshold: 0.5
    evaluate_difficult_gt: false
    name_size_file: "data/VOC0712/test_name_size.txt"
  }
}
I0305 10:53:10.433773 25446 layer_factory.hpp:77] Creating layer data
I0305 10:53:10.433866 25446 net.cpp:100] Creating Layer data
I0305 10:53:10.433876 25446 net.cpp:408] data -> data
I0305 10:53:10.433893 25446 net.cpp:408] data -> label
I0305 10:53:10.458212 25465 db_lmdb.cpp:35] Opened lmdb examples/VOC0712/VOC0712_test_lmdb
I0305 10:53:10.473419 25446 annotated_data_layer.cpp:62] output data size: 8,3,300,300
I0305 10:53:10.487704 25446 net.cpp:150] Setting up data
I0305 10:53:10.487777 25446 net.cpp:157] Top shape: 8 3 300 300 (2160000)
I0305 10:53:10.487802 25446 net.cpp:157] Top shape: 1 1 2 8 (16)
I0305 10:53:10.487819 25446 net.cpp:165] Memory required for data: 8640064
I0305 10:53:10.487841 25446 layer_factory.hpp:77] Creating layer data_data_0_split
I0305 10:53:10.487871 25446 net.cpp:100] Creating Layer data_data_0_split
I0305 10:53:10.487890 25446 net.cpp:434] data_data_0_split <- data
I0305 10:53:10.487911 25446 net.cpp:408] data_data_0_split -> data_data_0_split_0
I0305 10:53:10.487938 25446 net.cpp:408] data_data_0_split -> data_data_0_split_1
I0305 10:53:10.487960 25446 net.cpp:408] data_data_0_split -> data_data_0_split_2
I0305 10:53:10.487982 25446 net.cpp:408] data_data_0_split -> data_data_0_split_3
I0305 10:53:10.488001 25446 net.cpp:408] data_data_0_split -> data_data_0_split_4
I0305 10:53:10.488021 25446 net.cpp:408] data_data_0_split -> data_data_0_split_5
I0305 10:53:10.488042 25446 net.cpp:408] data_data_0_split -> data_data_0_split_6
I0305 10:53:10.488211 25446 net.cpp:150] Setting up data_data_0_split
I0305 10:53:10.488235 25446 net.cpp:157] Top shape: 8 3 300 300 (2160000)
I0305 10:53:10.488252 25446 net.cpp:157] Top shape: 8 3 300 300 (2160000)
I0305 10:53:10.488270 25446 net.cpp:157] Top shape: 8 3 300 300 (2160000)
I0305 10:53:10.488288 25446 net.cpp:157] Top shape: 8 3 300 300 (2160000)
I0305 10:53:10.488308 25446 net.cpp:157] Top shape: 8 3 300 300 (2160000)
I0305 10:53:10.488330 25446 net.cpp:157] Top shape: 8 3 300 300 (2160000)
I0305 10:53:10.488351 25446 net.cpp:157] Top shape: 8 3 300 300 (2160000)
I0305 10:53:10.488368 25446 net.cpp:165] Memory required for data: 69120064
I0305 10:53:10.488384 25446 layer_factory.hpp:77] Creating layer conv1_1
I0305 10:53:10.488411 25446 net.cpp:100] Creating Layer conv1_1
I0305 10:53:10.488428 25446 net.cpp:434] conv1_1 <- data_data_0_split_0
I0305 10:53:10.488456 25446 net.cpp:408] conv1_1 -> conv1_1
I0305 10:53:10.490766 25446 net.cpp:150] Setting up conv1_1
I0305 10:53:10.490829 25446 net.cpp:157] Top shape: 8 64 300 300 (46080000)
I0305 10:53:10.490857 25446 net.cpp:165] Memory required for data: 253440064
I0305 10:53:10.490888 25446 layer_factory.hpp:77] Creating layer relu1_1
I0305 10:53:10.490914 25446 net.cpp:100] Creating Layer relu1_1
I0305 10:53:10.490931 25446 net.cpp:434] relu1_1 <- conv1_1
I0305 10:53:10.490952 25446 net.cpp:395] relu1_1 -> conv1_1 (in-place)
I0305 10:53:10.491192 25446 net.cpp:150] Setting up relu1_1
I0305 10:53:10.491219 25446 net.cpp:157] Top shape: 8 64 300 300 (46080000)
I0305 10:53:10.491236 25446 net.cpp:165] Memory required for data: 437760064
I0305 10:53:10.491253 25446 layer_factory.hpp:77] Creating layer conv1_2
I0305 10:53:10.491281 25446 net.cpp:100] Creating Layer conv1_2
I0305 10:53:10.491298 25446 net.cpp:434] conv1_2 <- conv1_1
I0305 10:53:10.491318 25446 net.cpp:408] conv1_2 -> conv1_2
I0305 10:53:10.493664 25446 net.cpp:150] Setting up conv1_2
I0305 10:53:10.493719 25446 net.cpp:157] Top shape: 8 64 300 300 (46080000)
I0305 10:53:10.493737 25446 net.cpp:165] Memory required for data: 622080064
I0305 10:53:10.493764 25446 layer_factory.hpp:77] Creating layer relu1_2
I0305 10:53:10.493786 25446 net.cpp:100] Creating Layer relu1_2
I0305 10:53:10.493804 25446 net.cpp:434] relu1_2 <- conv1_2
I0305 10:53:10.493824 25446 net.cpp:395] relu1_2 -> conv1_2 (in-place)
I0305 10:53:10.494058 25446 net.cpp:150] Setting up relu1_2
I0305 10:53:10.494084 25446 net.cpp:157] Top shape: 8 64 300 300 (46080000)
I0305 10:53:10.494101 25446 net.cpp:165] Memory required for data: 806400064
I0305 10:53:10.494117 25446 layer_factory.hpp:77] Creating layer pool1
I0305 10:53:10.494135 25446 net.cpp:100] Creating Layer pool1
I0305 10:53:10.494153 25446 net.cpp:434] pool1 <- conv1_2
I0305 10:53:10.494170 25446 net.cpp:408] pool1 -> pool1
I0305 10:53:10.494244 25446 net.cpp:150] Setting up pool1
I0305 10:53:10.494266 25446 net.cpp:157] Top shape: 8 64 150 150 (11520000)
I0305 10:53:10.494282 25446 net.cpp:165] Memory required for data: 852480064
I0305 10:53:10.494299 25446 layer_factory.hpp:77] Creating layer conv2_1
I0305 10:53:10.494325 25446 net.cpp:100] Creating Layer conv2_1
I0305 10:53:10.494345 25446 net.cpp:434] conv2_1 <- pool1
I0305 10:53:10.494367 25446 net.cpp:408] conv2_1 -> conv2_1
I0305 10:53:10.497602 25446 net.cpp:150] Setting up conv2_1
I0305 10:53:10.497663 25446 net.cpp:157] Top shape: 8 128 150 150 (23040000)
I0305 10:53:10.497683 25446 net.cpp:165] Memory required for data: 944640064
I0305 10:53:10.497712 25446 layer_factory.hpp:77] Creating layer relu2_1
I0305 10:53:10.497737 25446 net.cpp:100] Creating Layer relu2_1
I0305 10:53:10.497754 25446 net.cpp:434] relu2_1 <- conv2_1
I0305 10:53:10.497773 25446 net.cpp:395] relu2_1 -> conv2_1 (in-place)
I0305 10:53:10.498831 25446 net.cpp:150] Setting up relu2_1
I0305 10:53:10.498863 25446 net.cpp:157] Top shape: 8 128 150 150 (23040000)
I0305 10:53:10.498881 25446 net.cpp:165] Memory required for data: 1036800064
I0305 10:53:10.498896 25446 layer_factory.hpp:77] Creating layer conv2_2
I0305 10:53:10.498924 25446 net.cpp:100] Creating Layer conv2_2
I0305 10:53:10.498942 25446 net.cpp:434] conv2_2 <- conv2_1
I0305 10:53:10.498965 25446 net.cpp:408] conv2_2 -> conv2_2
I0305 10:53:10.502939 25446 net.cpp:150] Setting up conv2_2
I0305 10:53:10.503003 25446 net.cpp:157] Top shape: 8 128 150 150 (23040000)
I0305 10:53:10.503022 25446 net.cpp:165] Memory required for data: 1128960064
I0305 10:53:10.503047 25446 layer_factory.hpp:77] Creating layer relu2_2
I0305 10:53:10.503072 25446 net.cpp:100] Creating Layer relu2_2
I0305 10:53:10.503091 25446 net.cpp:434] relu2_2 <- conv2_2
I0305 10:53:10.503113 25446 net.cpp:395] relu2_2 -> conv2_2 (in-place)
I0305 10:53:10.503378 25446 net.cpp:150] Setting up relu2_2
I0305 10:53:10.503417 25446 net.cpp:157] Top shape: 8 128 150 150 (23040000)
I0305 10:53:10.503437 25446 net.cpp:165] Memory required for data: 1221120064
I0305 10:53:10.503453 25446 layer_factory.hpp:77] Creating layer pool2
I0305 10:53:10.503482 25446 net.cpp:100] Creating Layer pool2
I0305 10:53:10.503510 25446 net.cpp:434] pool2 <- conv2_2
I0305 10:53:10.503533 25446 net.cpp:408] pool2 -> pool2
I0305 10:53:10.503623 25446 net.cpp:150] Setting up pool2
I0305 10:53:10.503645 25446 net.cpp:157] Top shape: 8 128 75 75 (5760000)
I0305 10:53:10.503662 25446 net.cpp:165] Memory required for data: 1244160064
I0305 10:53:10.503680 25446 layer_factory.hpp:77] Creating layer conv3_1
I0305 10:53:10.503708 25446 net.cpp:100] Creating Layer conv3_1
I0305 10:53:10.503726 25446 net.cpp:434] conv3_1 <- pool2
I0305 10:53:10.503744 25446 net.cpp:408] conv3_1 -> conv3_1
I0305 10:53:10.510390 25446 net.cpp:150] Setting up conv3_1
I0305 10:53:10.510458 25446 net.cpp:157] Top shape: 8 256 75 75 (11520000)
I0305 10:53:10.510478 25446 net.cpp:165] Memory required for data: 1290240064
I0305 10:53:10.510509 25446 layer_factory.hpp:77] Creating layer relu3_1
I0305 10:53:10.510534 25446 net.cpp:100] Creating Layer relu3_1
I0305 10:53:10.510551 25446 net.cpp:434] relu3_1 <- conv3_1
I0305 10:53:10.510576 25446 net.cpp:395] relu3_1 -> conv3_1 (in-place)
I0305 10:53:10.510875 25446 net.cpp:150] Setting up relu3_1
I0305 10:53:10.510902 25446 net.cpp:157] Top shape: 8 256 75 75 (11520000)
I0305 10:53:10.510920 25446 net.cpp:165] Memory required for data: 1336320064
I0305 10:53:10.510934 25446 layer_factory.hpp:77] Creating layer conv3_2
I0305 10:53:10.510962 25446 net.cpp:100] Creating Layer conv3_2
I0305 10:53:10.510980 25446 net.cpp:434] conv3_2 <- conv3_1
I0305 10:53:10.511001 25446 net.cpp:408] conv3_2 -> conv3_2
I0305 10:53:10.520090 25446 net.cpp:150] Setting up conv3_2
I0305 10:53:10.520166 25446 net.cpp:157] Top shape: 8 256 75 75 (11520000)
I0305 10:53:10.520187 25446 net.cpp:165] Memory required for data: 1382400064
I0305 10:53:10.520215 25446 layer_factory.hpp:77] Creating layer relu3_2
I0305 10:53:10.520243 25446 net.cpp:100] Creating Layer relu3_2
I0305 10:53:10.520263 25446 net.cpp:434] relu3_2 <- conv3_2
I0305 10:53:10.520285 25446 net.cpp:395] relu3_2 -> conv3_2 (in-place)
I0305 10:53:10.520601 25446 net.cpp:150] Setting up relu3_2
I0305 10:53:10.520627 25446 net.cpp:157] Top shape: 8 256 75 75 (11520000)
I0305 10:53:10.520644 25446 net.cpp:165] Memory required for data: 1428480064
I0305 10:53:10.520665 25446 layer_factory.hpp:77] Creating layer conv3_3
I0305 10:53:10.520725 25446 net.cpp:100] Creating Layer conv3_3
I0305 10:53:10.520748 25446 net.cpp:434] conv3_3 <- conv3_2
I0305 10:53:10.520771 25446 net.cpp:408] conv3_3 -> conv3_3
I0305 10:53:10.530069 25446 net.cpp:150] Setting up conv3_3
I0305 10:53:10.530143 25446 net.cpp:157] Top shape: 8 256 75 75 (11520000)
I0305 10:53:10.530164 25446 net.cpp:165] Memory required for data: 1474560064
I0305 10:53:10.530190 25446 layer_factory.hpp:77] Creating layer relu3_3
I0305 10:53:10.530230 25446 net.cpp:100] Creating Layer relu3_3
I0305 10:53:10.530248 25446 net.cpp:434] relu3_3 <- conv3_3
I0305 10:53:10.530303 25446 net.cpp:395] relu3_3 -> conv3_3 (in-place)
I0305 10:53:10.531543 25446 net.cpp:150] Setting up relu3_3
I0305 10:53:10.531613 25446 net.cpp:157] Top shape: 8 256 75 75 (11520000)
I0305 10:53:10.531625 25446 net.cpp:165] Memory required for data: 1520640064
I0305 10:53:10.531669 25446 layer_factory.hpp:77] Creating layer pool3
I0305 10:53:10.531720 25446 net.cpp:100] Creating Layer pool3
I0305 10:53:10.531731 25446 net.cpp:434] pool3 <- conv3_3
I0305 10:53:10.531781 25446 net.cpp:408] pool3 -> pool3
I0305 10:53:10.531931 25446 net.cpp:150] Setting up pool3
I0305 10:53:10.531983 25446 net.cpp:157] Top shape: 8 256 38 38 (2957312)
I0305 10:53:10.531994 25446 net.cpp:165] Memory required for data: 1532469312
I0305 10:53:10.532037 25446 layer_factory.hpp:77] Creating layer conv4_1
I0305 10:53:10.532124 25446 net.cpp:100] Creating Layer conv4_1
I0305 10:53:10.532135 25446 net.cpp:434] conv4_1 <- pool3
I0305 10:53:10.532217 25446 net.cpp:408] conv4_1 -> conv4_1
I0305 10:53:10.546813 25446 net.cpp:150] Setting up conv4_1
I0305 10:53:10.546895 25446 net.cpp:157] Top shape: 8 512 38 38 (5914624)
I0305 10:53:10.546922 25446 net.cpp:165] Memory required for data: 1556127808
I0305 10:53:10.546963 25446 layer_factory.hpp:77] Creating layer relu4_1
I0305 10:53:10.546991 25446 net.cpp:100] Creating Layer relu4_1
I0305 10:53:10.547009 25446 net.cpp:434] relu4_1 <- conv4_1
I0305 10:53:10.547032 25446 net.cpp:395] relu4_1 -> conv4_1 (in-place)
I0305 10:53:10.547363 25446 net.cpp:150] Setting up relu4_1
I0305 10:53:10.547390 25446 net.cpp:157] Top shape: 8 512 38 38 (5914624)
I0305 10:53:10.547407 25446 net.cpp:165] Memory required for data: 1579786304
I0305 10:53:10.547425 25446 layer_factory.hpp:77] Creating layer conv4_2
I0305 10:53:10.547456 25446 net.cpp:100] Creating Layer conv4_2
I0305 10:53:10.547474 25446 net.cpp:434] conv4_2 <- conv4_1
I0305 10:53:10.547494 25446 net.cpp:408] conv4_2 -> conv4_2
I0305 10:53:10.573020 25446 net.cpp:150] Setting up conv4_2
I0305 10:53:10.573096 25446 net.cpp:157] Top shape: 8 512 38 38 (5914624)
I0305 10:53:10.573114 25446 net.cpp:165] Memory required for data: 1603444800
I0305 10:53:10.573150 25446 layer_factory.hpp:77] Creating layer relu4_2
I0305 10:53:10.573177 25446 net.cpp:100] Creating Layer relu4_2
I0305 10:53:10.573197 25446 net.cpp:434] relu4_2 <- conv4_2
I0305 10:53:10.573220 25446 net.cpp:395] relu4_2 -> conv4_2 (in-place)
I0305 10:53:10.573493 25446 net.cpp:150] Setting up relu4_2
I0305 10:53:10.573519 25446 net.cpp:157] Top shape: 8 512 38 38 (5914624)
I0305 10:53:10.573536 25446 net.cpp:165] Memory required for data: 1627103296
I0305 10:53:10.573552 25446 layer_factory.hpp:77] Creating layer conv4_3
I0305 10:53:10.573580 25446 net.cpp:100] Creating Layer conv4_3
I0305 10:53:10.573597 25446 net.cpp:434] conv4_3 <- conv4_2
I0305 10:53:10.573621 25446 net.cpp:408] conv4_3 -> conv4_3
I0305 10:53:10.599368 25446 net.cpp:150] Setting up conv4_3
I0305 10:53:10.599433 25446 net.cpp:157] Top shape: 8 512 38 38 (5914624)
I0305 10:53:10.599458 25446 net.cpp:165] Memory required for data: 1650761792
I0305 10:53:10.599483 25446 layer_factory.hpp:77] Creating layer relu4_3
I0305 10:53:10.599506 25446 net.cpp:100] Creating Layer relu4_3
I0305 10:53:10.599524 25446 net.cpp:434] relu4_3 <- conv4_3
I0305 10:53:10.599546 25446 net.cpp:395] relu4_3 -> conv4_3 (in-place)
I0305 10:53:10.600651 25446 net.cpp:150] Setting up relu4_3
I0305 10:53:10.600710 25446 net.cpp:157] Top shape: 8 512 38 38 (5914624)
I0305 10:53:10.600731 25446 net.cpp:165] Memory required for data: 1674420288
I0305 10:53:10.600749 25446 layer_factory.hpp:77] Creating layer conv4_3_relu4_3_0_split
I0305 10:53:10.600771 25446 net.cpp:100] Creating Layer conv4_3_relu4_3_0_split
I0305 10:53:10.600787 25446 net.cpp:434] conv4_3_relu4_3_0_split <- conv4_3
I0305 10:53:10.600808 25446 net.cpp:408] conv4_3_relu4_3_0_split -> conv4_3_relu4_3_0_split_0
I0305 10:53:10.600831 25446 net.cpp:408] conv4_3_relu4_3_0_split -> conv4_3_relu4_3_0_split_1
I0305 10:53:10.600925 25446 net.cpp:150] Setting up conv4_3_relu4_3_0_split
I0305 10:53:10.600957 25446 net.cpp:157] Top shape: 8 512 38 38 (5914624)
I0305 10:53:10.600975 25446 net.cpp:157] Top shape: 8 512 38 38 (5914624)
I0305 10:53:10.600991 25446 net.cpp:165] Memory required for data: 1721737280
I0305 10:53:10.601006 25446 layer_factory.hpp:77] Creating layer pool4
I0305 10:53:10.601027 25446 net.cpp:100] Creating Layer pool4
I0305 10:53:10.601043 25446 net.cpp:434] pool4 <- conv4_3_relu4_3_0_split_0
I0305 10:53:10.601063 25446 net.cpp:408] pool4 -> pool4
I0305 10:53:10.601140 25446 net.cpp:150] Setting up pool4
I0305 10:53:10.601162 25446 net.cpp:157] Top shape: 8 512 19 19 (1478656)
I0305 10:53:10.601178 25446 net.cpp:165] Memory required for data: 1727651904
I0305 10:53:10.601194 25446 layer_factory.hpp:77] Creating layer conv5_1
I0305 10:53:10.601223 25446 net.cpp:100] Creating Layer conv5_1
I0305 10:53:10.601239 25446 net.cpp:434] conv5_1 <- pool4
I0305 10:53:10.601267 25446 net.cpp:408] conv5_1 -> conv5_1
I0305 10:53:10.617607 25446 net.cpp:150] Setting up conv5_1
I0305 10:53:10.617682 25446 net.cpp:157] Top shape: 8 512 19 19 (1478656)
I0305 10:53:10.617702 25446 net.cpp:165] Memory required for data: 1733566528
I0305 10:53:10.617748 25446 layer_factory.hpp:77] Creating layer relu5_1
I0305 10:53:10.617774 25446 net.cpp:100] Creating Layer relu5_1
I0305 10:53:10.617795 25446 net.cpp:434] relu5_1 <- conv5_1
I0305 10:53:10.617816 25446 net.cpp:395] relu5_1 -> conv5_1 (in-place)
I0305 10:53:10.618080 25446 net.cpp:150] Setting up relu5_1
I0305 10:53:10.618106 25446 net.cpp:157] Top shape: 8 512 19 19 (1478656)
I0305 10:53:10.618124 25446 net.cpp:165] Memory required for data: 1739481152
I0305 10:53:10.618140 25446 layer_factory.hpp:77] Creating layer conv5_2
I0305 10:53:10.618171 25446 net.cpp:100] Creating Layer conv5_2
I0305 10:53:10.618189 25446 net.cpp:434] conv5_2 <- conv5_1
I0305 10:53:10.618211 25446 net.cpp:408] conv5_2 -> conv5_2
I0305 10:53:10.642817 25446 net.cpp:150] Setting up conv5_2
I0305 10:53:10.642846 25446 net.cpp:157] Top shape: 8 512 19 19 (1478656)
I0305 10:53:10.642853 25446 net.cpp:165] Memory required for data: 1745395776
I0305 10:53:10.642865 25446 layer_factory.hpp:77] Creating layer relu5_2
I0305 10:53:10.642879 25446 net.cpp:100] Creating Layer relu5_2
I0305 10:53:10.642887 25446 net.cpp:434] relu5_2 <- conv5_2
I0305 10:53:10.642899 25446 net.cpp:395] relu5_2 -> conv5_2 (in-place)
I0305 10:53:10.643077 25446 net.cpp:150] Setting up relu5_2
I0305 10:53:10.643087 25446 net.cpp:157] Top shape: 8 512 19 19 (1478656)
I0305 10:53:10.643091 25446 net.cpp:165] Memory required for data: 1751310400
I0305 10:53:10.643097 25446 layer_factory.hpp:77] Creating layer conv5_3
I0305 10:53:10.643126 25446 net.cpp:100] Creating Layer conv5_3
I0305 10:53:10.643132 25446 net.cpp:434] conv5_3 <- conv5_2
I0305 10:53:10.643143 25446 net.cpp:408] conv5_3 -> conv5_3
I0305 10:53:10.657948 25446 net.cpp:150] Setting up conv5_3
I0305 10:53:10.657982 25446 net.cpp:157] Top shape: 8 512 19 19 (1478656)
I0305 10:53:10.657987 25446 net.cpp:165] Memory required for data: 1757225024
I0305 10:53:10.658001 25446 layer_factory.hpp:77] Creating layer relu5_3
I0305 10:53:10.658023 25446 net.cpp:100] Creating Layer relu5_3
I0305 10:53:10.658033 25446 net.cpp:434] relu5_3 <- conv5_3
I0305 10:53:10.658042 25446 net.cpp:395] relu5_3 -> conv5_3 (in-place)
I0305 10:53:10.658880 25446 net.cpp:150] Setting up relu5_3
I0305 10:53:10.658896 25446 net.cpp:157] Top shape: 8 512 19 19 (1478656)
I0305 10:53:10.658902 25446 net.cpp:165] Memory required for data: 1763139648
I0305 10:53:10.658908 25446 layer_factory.hpp:77] Creating layer pool5
I0305 10:53:10.658921 25446 net.cpp:100] Creating Layer pool5
I0305 10:53:10.658928 25446 net.cpp:434] pool5 <- conv5_3
I0305 10:53:10.658938 25446 net.cpp:408] pool5 -> pool5
I0305 10:53:10.659013 25446 net.cpp:150] Setting up pool5
I0305 10:53:10.659021 25446 net.cpp:157] Top shape: 8 512 19 19 (1478656)
I0305 10:53:10.659068 25446 net.cpp:165] Memory required for data: 1769054272
I0305 10:53:10.659077 25446 layer_factory.hpp:77] Creating layer fc6
I0305 10:53:10.659095 25446 net.cpp:100] Creating Layer fc6
I0305 10:53:10.659102 25446 net.cpp:434] fc6 <- pool5
I0305 10:53:10.659113 25446 net.cpp:408] fc6 -> fc6
I0305 10:53:10.686012 25446 net.cpp:150] Setting up fc6
I0305 10:53:10.686100 25446 net.cpp:157] Top shape: 8 1024 19 19 (2957312)
I0305 10:53:10.686120 25446 net.cpp:165] Memory required for data: 1780883520
I0305 10:53:10.686144 25446 layer_factory.hpp:77] Creating layer relu6
I0305 10:53:10.686161 25446 net.cpp:100] Creating Layer relu6
I0305 10:53:10.686170 25446 net.cpp:434] relu6 <- fc6
I0305 10:53:10.686179 25446 net.cpp:395] relu6 -> fc6 (in-place)
I0305 10:53:10.686466 25446 net.cpp:150] Setting up relu6
I0305 10:53:10.686478 25446 net.cpp:157] Top shape: 8 1024 19 19 (2957312)
I0305 10:53:10.686484 25446 net.cpp:165] Memory required for data: 1792712768
I0305 10:53:10.686491 25446 layer_factory.hpp:77] Creating layer fc7
I0305 10:53:10.686509 25446 net.cpp:100] Creating Layer fc7
I0305 10:53:10.686529 25446 net.cpp:434] fc7 <- fc6
I0305 10:53:10.686554 25446 net.cpp:408] fc7 -> fc7
I0305 10:53:10.694540 25446 net.cpp:150] Setting up fc7
I0305 10:53:10.694571 25446 net.cpp:157] Top shape: 8 1024 19 19 (2957312)
I0305 10:53:10.694618 25446 net.cpp:165] Memory required for data: 1804542016
I0305 10:53:10.694643 25446 layer_factory.hpp:77] Creating layer relu7
I0305 10:53:10.694669 25446 net.cpp:100] Creating Layer relu7
I0305 10:53:10.694689 25446 net.cpp:434] relu7 <- fc7
I0305 10:53:10.694712 25446 net.cpp:395] relu7 -> fc7 (in-place)
I0305 10:53:10.694908 25446 net.cpp:150] Setting up relu7
I0305 10:53:10.694919 25446 net.cpp:157] Top shape: 8 1024 19 19 (2957312)
I0305 10:53:10.694924 25446 net.cpp:165] Memory required for data: 1816371264
I0305 10:53:10.694931 25446 layer_factory.hpp:77] Creating layer fc7_relu7_0_split
I0305 10:53:10.694941 25446 net.cpp:100] Creating Layer fc7_relu7_0_split
I0305 10:53:10.694947 25446 net.cpp:434] fc7_relu7_0_split <- fc7
I0305 10:53:10.694957 25446 net.cpp:408] fc7_relu7_0_split -> fc7_relu7_0_split_0
I0305 10:53:10.694968 25446 net.cpp:408] fc7_relu7_0_split -> fc7_relu7_0_split_1
I0305 10:53:10.694999 25446 net.cpp:408] fc7_relu7_0_split -> fc7_relu7_0_split_2
I0305 10:53:10.695011 25446 net.cpp:408] fc7_relu7_0_split -> fc7_relu7_0_split_3
I0305 10:53:10.695109 25446 net.cpp:150] Setting up fc7_relu7_0_split
I0305 10:53:10.695137 25446 net.cpp:157] Top shape: 8 1024 19 19 (2957312)
I0305 10:53:10.695156 25446 net.cpp:157] Top shape: 8 1024 19 19 (2957312)
I0305 10:53:10.695173 25446 net.cpp:157] Top shape: 8 1024 19 19 (2957312)
I0305 10:53:10.695190 25446 net.cpp:157] Top shape: 8 1024 19 19 (2957312)
I0305 10:53:10.695206 25446 net.cpp:165] Memory required for data: 1863688256
I0305 10:53:10.695222 25446 layer_factory.hpp:77] Creating layer conv6_1
I0305 10:53:10.695250 25446 net.cpp:100] Creating Layer conv6_1
I0305 10:53:10.695268 25446 net.cpp:434] conv6_1 <- fc7_relu7_0_split_0
I0305 10:53:10.695291 25446 net.cpp:408] conv6_1 -> conv6_1
I0305 10:53:10.699766 25446 net.cpp:150] Setting up conv6_1
I0305 10:53:10.699795 25446 net.cpp:157] Top shape: 8 256 19 19 (739328)
I0305 10:53:10.699800 25446 net.cpp:165] Memory required for data: 1866645568
I0305 10:53:10.699815 25446 layer_factory.hpp:77] Creating layer conv6_1_relu
I0305 10:53:10.699831 25446 net.cpp:100] Creating Layer conv6_1_relu
I0305 10:53:10.699839 25446 net.cpp:434] conv6_1_relu <- conv6_1
I0305 10:53:10.699848 25446 net.cpp:395] conv6_1_relu -> conv6_1 (in-place)
I0305 10:53:10.700050 25446 net.cpp:150] Setting up conv6_1_relu
I0305 10:53:10.700062 25446 net.cpp:157] Top shape: 8 256 19 19 (739328)
I0305 10:53:10.700067 25446 net.cpp:165] Memory required for data: 1869602880
I0305 10:53:10.700071 25446 layer_factory.hpp:77] Creating layer conv6_2
I0305 10:53:10.700090 25446 net.cpp:100] Creating Layer conv6_2
I0305 10:53:10.700111 25446 net.cpp:434] conv6_2 <- conv6_1
I0305 10:53:10.700134 25446 net.cpp:408] conv6_2 -> conv6_2
I0305 10:53:10.708909 25446 net.cpp:150] Setting up conv6_2
I0305 10:53:10.708941 25446 net.cpp:157] Top shape: 8 512 10 10 (409600)
I0305 10:53:10.708947 25446 net.cpp:165] Memory required for data: 1871241280
I0305 10:53:10.708968 25446 layer_factory.hpp:77] Creating layer conv6_2_relu
I0305 10:53:10.708982 25446 net.cpp:100] Creating Layer conv6_2_relu
I0305 10:53:10.708990 25446 net.cpp:434] conv6_2_relu <- conv6_2
I0305 10:53:10.709018 25446 net.cpp:395] conv6_2_relu -> conv6_2 (in-place)
I0305 10:53:10.709806 25446 net.cpp:150] Setting up conv6_2_relu
I0305 10:53:10.709821 25446 net.cpp:157] Top shape: 8 512 10 10 (409600)
I0305 10:53:10.709827 25446 net.cpp:165] Memory required for data: 1872879680
I0305 10:53:10.709833 25446 layer_factory.hpp:77] Creating layer conv6_2_conv6_2_relu_0_split
I0305 10:53:10.709843 25446 net.cpp:100] Creating Layer conv6_2_conv6_2_relu_0_split
I0305 10:53:10.709849 25446 net.cpp:434] conv6_2_conv6_2_relu_0_split <- conv6_2
I0305 10:53:10.709861 25446 net.cpp:408] conv6_2_conv6_2_relu_0_split -> conv6_2_conv6_2_relu_0_split_0
I0305 10:53:10.709888 25446 net.cpp:408] conv6_2_conv6_2_relu_0_split -> conv6_2_conv6_2_relu_0_split_1
I0305 10:53:10.709913 25446 net.cpp:408] conv6_2_conv6_2_relu_0_split -> conv6_2_conv6_2_relu_0_split_2
I0305 10:53:10.709944 25446 net.cpp:408] conv6_2_conv6_2_relu_0_split -> conv6_2_conv6_2_relu_0_split_3
I0305 10:53:10.710063 25446 net.cpp:150] Setting up conv6_2_conv6_2_relu_0_split
I0305 10:53:10.710073 25446 net.cpp:157] Top shape: 8 512 10 10 (409600)
I0305 10:53:10.710079 25446 net.cpp:157] Top shape: 8 512 10 10 (409600)
I0305 10:53:10.710085 25446 net.cpp:157] Top shape: 8 512 10 10 (409600)
I0305 10:53:10.710093 25446 net.cpp:157] Top shape: 8 512 10 10 (409600)
I0305 10:53:10.710098 25446 net.cpp:165] Memory required for data: 1879433280
I0305 10:53:10.710103 25446 layer_factory.hpp:77] Creating layer conv7_1
I0305 10:53:10.710119 25446 net.cpp:100] Creating Layer conv7_1
I0305 10:53:10.710139 25446 net.cpp:434] conv7_1 <- conv6_2_conv6_2_relu_0_split_0
I0305 10:53:10.710161 25446 net.cpp:408] conv7_1 -> conv7_1
I0305 10:53:10.711937 25446 net.cpp:150] Setting up conv7_1
I0305 10:53:10.711957 25446 net.cpp:157] Top shape: 8 128 10 10 (102400)
I0305 10:53:10.711963 25446 net.cpp:165] Memory required for data: 1879842880
I0305 10:53:10.711974 25446 layer_factory.hpp:77] Creating layer conv7_1_relu
I0305 10:53:10.711987 25446 net.cpp:100] Creating Layer conv7_1_relu
I0305 10:53:10.711993 25446 net.cpp:434] conv7_1_relu <- conv7_1
I0305 10:53:10.712002 25446 net.cpp:395] conv7_1_relu -> conv7_1 (in-place)
I0305 10:53:10.712188 25446 net.cpp:150] Setting up conv7_1_relu
I0305 10:53:10.712198 25446 net.cpp:157] Top shape: 8 128 10 10 (102400)
I0305 10:53:10.712203 25446 net.cpp:165] Memory required for data: 1880252480
I0305 10:53:10.712209 25446 layer_factory.hpp:77] Creating layer conv7_2
I0305 10:53:10.712224 25446 net.cpp:100] Creating Layer conv7_2
I0305 10:53:10.712230 25446 net.cpp:434] conv7_2 <- conv7_1
I0305 10:53:10.712240 25446 net.cpp:408] conv7_2 -> conv7_2
I0305 10:53:10.716015 25446 net.cpp:150] Setting up conv7_2
I0305 10:53:10.716043 25446 net.cpp:157] Top shape: 8 256 5 5 (51200)
I0305 10:53:10.716048 25446 net.cpp:165] Memory required for data: 1880457280
I0305 10:53:10.716061 25446 layer_factory.hpp:77] Creating layer conv7_2_relu
I0305 10:53:10.716076 25446 net.cpp:100] Creating Layer conv7_2_relu
I0305 10:53:10.716085 25446 net.cpp:434] conv7_2_relu <- conv7_2
I0305 10:53:10.716094 25446 net.cpp:395] conv7_2_relu -> conv7_2 (in-place)
I0305 10:53:10.716334 25446 net.cpp:150] Setting up conv7_2_relu
I0305 10:53:10.716365 25446 net.cpp:157] Top shape: 8 256 5 5 (51200)
I0305 10:53:10.716382 25446 net.cpp:165] Memory required for data: 1880662080
I0305 10:53:10.716398 25446 layer_factory.hpp:77] Creating layer conv7_2_conv7_2_relu_0_split
I0305 10:53:10.716418 25446 net.cpp:100] Creating Layer conv7_2_conv7_2_relu_0_split
I0305 10:53:10.716434 25446 net.cpp:434] conv7_2_conv7_2_relu_0_split <- conv7_2
I0305 10:53:10.716455 25446 net.cpp:408] conv7_2_conv7_2_relu_0_split -> conv7_2_conv7_2_relu_0_split_0
I0305 10:53:10.716480 25446 net.cpp:408] conv7_2_conv7_2_relu_0_split -> conv7_2_conv7_2_relu_0_split_1
I0305 10:53:10.716500 25446 net.cpp:408] conv7_2_conv7_2_relu_0_split -> conv7_2_conv7_2_relu_0_split_2
I0305 10:53:10.716521 25446 net.cpp:408] conv7_2_conv7_2_relu_0_split -> conv7_2_conv7_2_relu_0_split_3
I0305 10:53:10.716639 25446 net.cpp:150] Setting up conv7_2_conv7_2_relu_0_split
I0305 10:53:10.716660 25446 net.cpp:157] Top shape: 8 256 5 5 (51200)
I0305 10:53:10.716677 25446 net.cpp:157] Top shape: 8 256 5 5 (51200)
I0305 10:53:10.716719 25446 net.cpp:157] Top shape: 8 256 5 5 (51200)
I0305 10:53:10.716735 25446 net.cpp:157] Top shape: 8 256 5 5 (51200)
I0305 10:53:10.716750 25446 net.cpp:165] Memory required for data: 1881481280
I0305 10:53:10.716765 25446 layer_factory.hpp:77] Creating layer conv8_1
I0305 10:53:10.716794 25446 net.cpp:100] Creating Layer conv8_1
I0305 10:53:10.716810 25446 net.cpp:434] conv8_1 <- conv7_2_conv7_2_relu_0_split_0
I0305 10:53:10.716830 25446 net.cpp:408] conv8_1 -> conv8_1
I0305 10:53:10.719056 25446 net.cpp:150] Setting up conv8_1
I0305 10:53:10.719082 25446 net.cpp:157] Top shape: 8 128 5 5 (25600)
I0305 10:53:10.719087 25446 net.cpp:165] Memory required for data: 1881583680
I0305 10:53:10.719121 25446 layer_factory.hpp:77] Creating layer conv8_1_relu
I0305 10:53:10.719137 25446 net.cpp:100] Creating Layer conv8_1_relu
I0305 10:53:10.719146 25446 net.cpp:434] conv8_1_relu <- conv8_1
I0305 10:53:10.719154 25446 net.cpp:395] conv8_1_relu -> conv8_1 (in-place)
I0305 10:53:10.719965 25446 net.cpp:150] Setting up conv8_1_relu
I0305 10:53:10.719997 25446 net.cpp:157] Top shape: 8 128 5 5 (25600)
I0305 10:53:10.720006 25446 net.cpp:165] Memory required for data: 1881686080
I0305 10:53:10.720012 25446 layer_factory.hpp:77] Creating layer conv8_2
I0305 10:53:10.720031 25446 net.cpp:100] Creating Layer conv8_2
I0305 10:53:10.720037 25446 net.cpp:434] conv8_2 <- conv8_1
I0305 10:53:10.720054 25446 net.cpp:408] conv8_2 -> conv8_2
I0305 10:53:10.724548 25446 net.cpp:150] Setting up conv8_2
I0305 10:53:10.724576 25446 net.cpp:157] Top shape: 8 256 3 3 (18432)
I0305 10:53:10.724582 25446 net.cpp:165] Memory required for data: 1881759808
I0305 10:53:10.724596 25446 layer_factory.hpp:77] Creating layer conv8_2_relu
I0305 10:53:10.724608 25446 net.cpp:100] Creating Layer conv8_2_relu
I0305 10:53:10.724617 25446 net.cpp:434] conv8_2_relu <- conv8_2
I0305 10:53:10.724628 25446 net.cpp:395] conv8_2_relu -> conv8_2 (in-place)
I0305 10:53:10.724874 25446 net.cpp:150] Setting up conv8_2_relu
I0305 10:53:10.724886 25446 net.cpp:157] Top shape: 8 256 3 3 (18432)
I0305 10:53:10.724891 25446 net.cpp:165] Memory required for data: 1881833536
I0305 10:53:10.724896 25446 layer_factory.hpp:77] Creating layer conv8_2_conv8_2_relu_0_split
I0305 10:53:10.724907 25446 net.cpp:100] Creating Layer conv8_2_conv8_2_relu_0_split
I0305 10:53:10.724912 25446 net.cpp:434] conv8_2_conv8_2_relu_0_split <- conv8_2
I0305 10:53:10.724923 25446 net.cpp:408] conv8_2_conv8_2_relu_0_split -> conv8_2_conv8_2_relu_0_split_0
I0305 10:53:10.724934 25446 net.cpp:408] conv8_2_conv8_2_relu_0_split -> conv8_2_conv8_2_relu_0_split_1
I0305 10:53:10.724961 25446 net.cpp:408] conv8_2_conv8_2_relu_0_split -> conv8_2_conv8_2_relu_0_split_2
I0305 10:53:10.724982 25446 net.cpp:408] conv8_2_conv8_2_relu_0_split -> conv8_2_conv8_2_relu_0_split_3
I0305 10:53:10.725085 25446 net.cpp:150] Setting up conv8_2_conv8_2_relu_0_split
I0305 10:53:10.725107 25446 net.cpp:157] Top shape: 8 256 3 3 (18432)
I0305 10:53:10.725126 25446 net.cpp:157] Top shape: 8 256 3 3 (18432)
I0305 10:53:10.725142 25446 net.cpp:157] Top shape: 8 256 3 3 (18432)
I0305 10:53:10.725159 25446 net.cpp:157] Top shape: 8 256 3 3 (18432)
I0305 10:53:10.725173 25446 net.cpp:165] Memory required for data: 1882128448
I0305 10:53:10.725190 25446 layer_factory.hpp:77] Creating layer conv9_1
I0305 10:53:10.725219 25446 net.cpp:100] Creating Layer conv9_1
I0305 10:53:10.725227 25446 net.cpp:434] conv9_1 <- conv8_2_conv8_2_relu_0_split_0
I0305 10:53:10.725236 25446 net.cpp:408] conv9_1 -> conv9_1
I0305 10:53:10.727818 25446 net.cpp:150] Setting up conv9_1
I0305 10:53:10.727843 25446 net.cpp:157] Top shape: 8 128 3 3 (9216)
I0305 10:53:10.727849 25446 net.cpp:165] Memory required for data: 1882165312
I0305 10:53:10.727859 25446 layer_factory.hpp:77] Creating layer conv9_1_relu
I0305 10:53:10.727870 25446 net.cpp:100] Creating Layer conv9_1_relu
I0305 10:53:10.727877 25446 net.cpp:434] conv9_1_relu <- conv9_1
I0305 10:53:10.727885 25446 net.cpp:395] conv9_1_relu -> conv9_1 (in-place)
I0305 10:53:10.728075 25446 net.cpp:150] Setting up conv9_1_relu
I0305 10:53:10.728087 25446 net.cpp:157] Top shape: 8 128 3 3 (9216)
I0305 10:53:10.728092 25446 net.cpp:165] Memory required for data: 1882202176
I0305 10:53:10.728097 25446 layer_factory.hpp:77] Creating layer conv9_2
I0305 10:53:10.728112 25446 net.cpp:100] Creating Layer conv9_2
I0305 10:53:10.728135 25446 net.cpp:434] conv9_2 <- conv9_1
I0305 10:53:10.728159 25446 net.cpp:408] conv9_2 -> conv9_2
I0305 10:53:10.732420 25446 net.cpp:150] Setting up conv9_2
I0305 10:53:10.732451 25446 net.cpp:157] Top shape: 8 256 1 1 (2048)
I0305 10:53:10.732457 25446 net.cpp:165] Memory required for data: 1882210368
I0305 10:53:10.732470 25446 layer_factory.hpp:77] Creating layer conv9_2_relu
I0305 10:53:10.732506 25446 net.cpp:100] Creating Layer conv9_2_relu
I0305 10:53:10.732530 25446 net.cpp:434] conv9_2_relu <- conv9_2
I0305 10:53:10.732553 25446 net.cpp:395] conv9_2_relu -> conv9_2 (in-place)
I0305 10:53:10.733438 25446 net.cpp:150] Setting up conv9_2_relu
I0305 10:53:10.733453 25446 net.cpp:157] Top shape: 8 256 1 1 (2048)
I0305 10:53:10.733458 25446 net.cpp:165] Memory required for data: 1882218560
I0305 10:53:10.733465 25446 layer_factory.hpp:77] Creating layer conv9_2_conv9_2_relu_0_split
I0305 10:53:10.733477 25446 net.cpp:100] Creating Layer conv9_2_conv9_2_relu_0_split
I0305 10:53:10.733484 25446 net.cpp:434] conv9_2_conv9_2_relu_0_split <- conv9_2
I0305 10:53:10.733494 25446 net.cpp:408] conv9_2_conv9_2_relu_0_split -> conv9_2_conv9_2_relu_0_split_0
I0305 10:53:10.733505 25446 net.cpp:408] conv9_2_conv9_2_relu_0_split -> conv9_2_conv9_2_relu_0_split_1
I0305 10:53:10.733533 25446 net.cpp:408] conv9_2_conv9_2_relu_0_split -> conv9_2_conv9_2_relu_0_split_2
I0305 10:53:10.733651 25446 net.cpp:150] Setting up conv9_2_conv9_2_relu_0_split
I0305 10:53:10.733661 25446 net.cpp:157] Top shape: 8 256 1 1 (2048)
I0305 10:53:10.733669 25446 net.cpp:157] Top shape: 8 256 1 1 (2048)
I0305 10:53:10.733675 25446 net.cpp:157] Top shape: 8 256 1 1 (2048)
I0305 10:53:10.733680 25446 net.cpp:165] Memory required for data: 1882243136
I0305 10:53:10.733685 25446 layer_factory.hpp:77] Creating layer conv4_3_norm
I0305 10:53:10.733700 25446 net.cpp:100] Creating Layer conv4_3_norm
I0305 10:53:10.733717 25446 net.cpp:434] conv4_3_norm <- conv4_3_relu4_3_0_split_1
I0305 10:53:10.733737 25446 net.cpp:408] conv4_3_norm -> conv4_3_norm
I0305 10:53:10.733945 25446 net.cpp:150] Setting up conv4_3_norm
I0305 10:53:10.733958 25446 net.cpp:157] Top shape: 8 512 38 38 (5914624)
I0305 10:53:10.733961 25446 net.cpp:165] Memory required for data: 1905901632
I0305 10:53:10.733969 25446 layer_factory.hpp:77] Creating layer conv4_3_norm_conv4_3_norm_0_split
I0305 10:53:10.733978 25446 net.cpp:100] Creating Layer conv4_3_norm_conv4_3_norm_0_split
I0305 10:53:10.733983 25446 net.cpp:434] conv4_3_norm_conv4_3_norm_0_split <- conv4_3_norm
I0305 10:53:10.733994 25446 net.cpp:408] conv4_3_norm_conv4_3_norm_0_split -> conv4_3_norm_conv4_3_norm_0_split_0
I0305 10:53:10.734002 25446 net.cpp:408] conv4_3_norm_conv4_3_norm_0_split -> conv4_3_norm_conv4_3_norm_0_split_1
I0305 10:53:10.734024 25446 net.cpp:408] conv4_3_norm_conv4_3_norm_0_split -> conv4_3_norm_conv4_3_norm_0_split_2
I0305 10:53:10.734102 25446 net.cpp:150] Setting up conv4_3_norm_conv4_3_norm_0_split
I0305 10:53:10.734112 25446 net.cpp:157] Top shape: 8 512 38 38 (5914624)
I0305 10:53:10.734117 25446 net.cpp:157] Top shape: 8 512 38 38 (5914624)
I0305 10:53:10.734123 25446 net.cpp:157] Top shape: 8 512 38 38 (5914624)
I0305 10:53:10.734129 25446 net.cpp:165] Memory required for data: 1976877120
I0305 10:53:10.734134 25446 layer_factory.hpp:77] Creating layer conv4_3_norm_mbox_loc
I0305 10:53:10.734150 25446 net.cpp:100] Creating Layer conv4_3_norm_mbox_loc
I0305 10:53:10.734158 25446 net.cpp:434] conv4_3_norm_mbox_loc <- conv4_3_norm_conv4_3_norm_0_split_0
I0305 10:53:10.734169 25446 net.cpp:408] conv4_3_norm_mbox_loc -> conv4_3_norm_mbox_loc
I0305 10:53:10.736675 25446 net.cpp:150] Setting up conv4_3_norm_mbox_loc
I0305 10:53:10.736729 25446 net.cpp:157] Top shape: 8 16 38 38 (184832)
I0305 10:53:10.736735 25446 net.cpp:165] Memory required for data: 1977616448
I0305 10:53:10.736749 25446 layer_factory.hpp:77] Creating layer conv4_3_norm_mbox_loc_perm
I0305 10:53:10.736763 25446 net.cpp:100] Creating Layer conv4_3_norm_mbox_loc_perm
I0305 10:53:10.736773 25446 net.cpp:434] conv4_3_norm_mbox_loc_perm <- conv4_3_norm_mbox_loc
I0305 10:53:10.736784 25446 net.cpp:408] conv4_3_norm_mbox_loc_perm -> conv4_3_norm_mbox_loc_perm
I0305 10:53:10.736922 25446 net.cpp:150] Setting up conv4_3_norm_mbox_loc_perm
I0305 10:53:10.736930 25446 net.cpp:157] Top shape: 8 38 38 16 (184832)
I0305 10:53:10.736935 25446 net.cpp:165] Memory required for data: 1978355776
I0305 10:53:10.736940 25446 layer_factory.hpp:77] Creating layer conv4_3_norm_mbox_loc_flat
I0305 10:53:10.736969 25446 net.cpp:100] Creating Layer conv4_3_norm_mbox_loc_flat
I0305 10:53:10.736976 25446 net.cpp:434] conv4_3_norm_mbox_loc_flat <- conv4_3_norm_mbox_loc_perm
I0305 10:53:10.736984 25446 net.cpp:408] conv4_3_norm_mbox_loc_flat -> conv4_3_norm_mbox_loc_flat
I0305 10:53:10.737035 25446 net.cpp:150] Setting up conv4_3_norm_mbox_loc_flat
I0305 10:53:10.737046 25446 net.cpp:157] Top shape: 8 23104 (184832)
I0305 10:53:10.737051 25446 net.cpp:165] Memory required for data: 1979095104
I0305 10:53:10.737056 25446 layer_factory.hpp:77] Creating layer conv4_3_norm_mbox_conf
I0305 10:53:10.737082 25446 net.cpp:100] Creating Layer conv4_3_norm_mbox_conf
I0305 10:53:10.737089 25446 net.cpp:434] conv4_3_norm_mbox_conf <- conv4_3_norm_conv4_3_norm_0_split_1
I0305 10:53:10.737098 25446 net.cpp:408] conv4_3_norm_mbox_conf -> conv4_3_norm_mbox_conf
I0305 10:53:10.741885 25446 net.cpp:150] Setting up conv4_3_norm_mbox_conf
I0305 10:53:10.741916 25446 net.cpp:157] Top shape: 8 84 38 38 (970368)
I0305 10:53:10.741922 25446 net.cpp:165] Memory required for data: 1982976576
I0305 10:53:10.741936 25446 layer_factory.hpp:77] Creating layer conv4_3_norm_mbox_conf_perm
I0305 10:53:10.741950 25446 net.cpp:100] Creating Layer conv4_3_norm_mbox_conf_perm
I0305 10:53:10.741960 25446 net.cpp:434] conv4_3_norm_mbox_conf_perm <- conv4_3_norm_mbox_conf
I0305 10:53:10.741976 25446 net.cpp:408] conv4_3_norm_mbox_conf_perm -> conv4_3_norm_mbox_conf_perm
I0305 10:53:10.742110 25446 net.cpp:150] Setting up conv4_3_norm_mbox_conf_perm
I0305 10:53:10.742121 25446 net.cpp:157] Top shape: 8 38 38 84 (970368)
I0305 10:53:10.742125 25446 net.cpp:165] Memory required for data: 1986858048
I0305 10:53:10.742131 25446 layer_factory.hpp:77] Creating layer conv4_3_norm_mbox_conf_flat
I0305 10:53:10.742141 25446 net.cpp:100] Creating Layer conv4_3_norm_mbox_conf_flat
I0305 10:53:10.742146 25446 net.cpp:434] conv4_3_norm_mbox_conf_flat <- conv4_3_norm_mbox_conf_perm
I0305 10:53:10.742156 25446 net.cpp:408] conv4_3_norm_mbox_conf_flat -> conv4_3_norm_mbox_conf_flat
I0305 10:53:10.742194 25446 net.cpp:150] Setting up conv4_3_norm_mbox_conf_flat
I0305 10:53:10.742202 25446 net.cpp:157] Top shape: 8 121296 (970368)
I0305 10:53:10.742208 25446 net.cpp:165] Memory required for data: 1990739520
I0305 10:53:10.742213 25446 layer_factory.hpp:77] Creating layer conv4_3_norm_mbox_priorbox
I0305 10:53:10.742225 25446 net.cpp:100] Creating Layer conv4_3_norm_mbox_priorbox
I0305 10:53:10.742233 25446 net.cpp:434] conv4_3_norm_mbox_priorbox <- conv4_3_norm_conv4_3_norm_0_split_2
I0305 10:53:10.742240 25446 net.cpp:434] conv4_3_norm_mbox_priorbox <- data_data_0_split_1
I0305 10:53:10.742249 25446 net.cpp:408] conv4_3_norm_mbox_priorbox -> conv4_3_norm_mbox_priorbox
I0305 10:53:10.742297 25446 net.cpp:150] Setting up conv4_3_norm_mbox_priorbox
I0305 10:53:10.742305 25446 net.cpp:157] Top shape: 1 2 23104 (46208)
I0305 10:53:10.742311 25446 net.cpp:165] Memory required for data: 1990924352
I0305 10:53:10.742316 25446 layer_factory.hpp:77] Creating layer fc7_mbox_loc
I0305 10:53:10.742332 25446 net.cpp:100] Creating Layer fc7_mbox_loc
I0305 10:53:10.742339 25446 net.cpp:434] fc7_mbox_loc <- fc7_relu7_0_split_1
I0305 10:53:10.742349 25446 net.cpp:408] fc7_mbox_loc -> fc7_mbox_loc
I0305 10:53:10.745510 25446 net.cpp:150] Setting up fc7_mbox_loc
I0305 10:53:10.745539 25446 net.cpp:157] Top shape: 8 24 19 19 (69312)
I0305 10:53:10.745544 25446 net.cpp:165] Memory required for data: 1991201600
I0305 10:53:10.745558 25446 layer_factory.hpp:77] Creating layer fc7_mbox_loc_perm
I0305 10:53:10.745574 25446 net.cpp:100] Creating Layer fc7_mbox_loc_perm
I0305 10:53:10.745585 25446 net.cpp:434] fc7_mbox_loc_perm <- fc7_mbox_loc
I0305 10:53:10.745596 25446 net.cpp:408] fc7_mbox_loc_perm -> fc7_mbox_loc_perm
I0305 10:53:10.745733 25446 net.cpp:150] Setting up fc7_mbox_loc_perm
I0305 10:53:10.745743 25446 net.cpp:157] Top shape: 8 19 19 24 (69312)
I0305 10:53:10.745748 25446 net.cpp:165] Memory required for data: 1991478848
I0305 10:53:10.745772 25446 layer_factory.hpp:77] Creating layer fc7_mbox_loc_flat
I0305 10:53:10.745782 25446 net.cpp:100] Creating Layer fc7_mbox_loc_flat
I0305 10:53:10.745788 25446 net.cpp:434] fc7_mbox_loc_flat <- fc7_mbox_loc_perm
I0305 10:53:10.745797 25446 net.cpp:408] fc7_mbox_loc_flat -> fc7_mbox_loc_flat
I0305 10:53:10.745837 25446 net.cpp:150] Setting up fc7_mbox_loc_flat
I0305 10:53:10.745848 25446 net.cpp:157] Top shape: 8 8664 (69312)
I0305 10:53:10.745853 25446 net.cpp:165] Memory required for data: 1991756096
I0305 10:53:10.745859 25446 layer_factory.hpp:77] Creating layer fc7_mbox_conf
I0305 10:53:10.745875 25446 net.cpp:100] Creating Layer fc7_mbox_conf
I0305 10:53:10.745882 25446 net.cpp:434] fc7_mbox_conf <- fc7_relu7_0_split_2
I0305 10:53:10.745890 25446 net.cpp:408] fc7_mbox_conf -> fc7_mbox_conf
I0305 10:53:10.754575 25446 net.cpp:150] Setting up fc7_mbox_conf
I0305 10:53:10.754603 25446 net.cpp:157] Top shape: 8 126 19 19 (363888)
I0305 10:53:10.754608 25446 net.cpp:165] Memory required for data: 1993211648
I0305 10:53:10.754622 25446 layer_factory.hpp:77] Creating layer fc7_mbox_conf_perm
I0305 10:53:10.754638 25446 net.cpp:100] Creating Layer fc7_mbox_conf_perm
I0305 10:53:10.754647 25446 net.cpp:434] fc7_mbox_conf_perm <- fc7_mbox_conf
I0305 10:53:10.754658 25446 net.cpp:408] fc7_mbox_conf_perm -> fc7_mbox_conf_perm
I0305 10:53:10.754801 25446 net.cpp:150] Setting up fc7_mbox_conf_perm
I0305 10:53:10.754812 25446 net.cpp:157] Top shape: 8 19 19 126 (363888)
I0305 10:53:10.754817 25446 net.cpp:165] Memory required for data: 1994667200
I0305 10:53:10.754822 25446 layer_factory.hpp:77] Creating layer fc7_mbox_conf_flat
I0305 10:53:10.754830 25446 net.cpp:100] Creating Layer fc7_mbox_conf_flat
I0305 10:53:10.754837 25446 net.cpp:434] fc7_mbox_conf_flat <- fc7_mbox_conf_perm
I0305 10:53:10.754848 25446 net.cpp:408] fc7_mbox_conf_flat -> fc7_mbox_conf_flat
I0305 10:53:10.754890 25446 net.cpp:150] Setting up fc7_mbox_conf_flat
I0305 10:53:10.754899 25446 net.cpp:157] Top shape: 8 45486 (363888)
I0305 10:53:10.754904 25446 net.cpp:165] Memory required for data: 1996122752
I0305 10:53:10.754909 25446 layer_factory.hpp:77] Creating layer fc7_mbox_priorbox
I0305 10:53:10.754918 25446 net.cpp:100] Creating Layer fc7_mbox_priorbox
I0305 10:53:10.754925 25446 net.cpp:434] fc7_mbox_priorbox <- fc7_relu7_0_split_3
I0305 10:53:10.754935 25446 net.cpp:434] fc7_mbox_priorbox <- data_data_0_split_2
I0305 10:53:10.754943 25446 net.cpp:408] fc7_mbox_priorbox -> fc7_mbox_priorbox
I0305 10:53:10.754993 25446 net.cpp:150] Setting up fc7_mbox_priorbox
I0305 10:53:10.755002 25446 net.cpp:157] Top shape: 1 2 8664 (17328)
I0305 10:53:10.755007 25446 net.cpp:165] Memory required for data: 1996192064
I0305 10:53:10.755012 25446 layer_factory.hpp:77] Creating layer conv6_2_mbox_loc
I0305 10:53:10.755028 25446 net.cpp:100] Creating Layer conv6_2_mbox_loc
I0305 10:53:10.755036 25446 net.cpp:434] conv6_2_mbox_loc <- conv6_2_conv6_2_relu_0_split_1
I0305 10:53:10.755048 25446 net.cpp:408] conv6_2_mbox_loc -> conv6_2_mbox_loc
I0305 10:53:10.757879 25446 net.cpp:150] Setting up conv6_2_mbox_loc
I0305 10:53:10.757906 25446 net.cpp:157] Top shape: 8 24 10 10 (19200)
I0305 10:53:10.757911 25446 net.cpp:165] Memory required for data: 1996268864
I0305 10:53:10.757927 25446 layer_factory.hpp:77] Creating layer conv6_2_mbox_loc_perm
I0305 10:53:10.757941 25446 net.cpp:100] Creating Layer conv6_2_mbox_loc_perm
I0305 10:53:10.757951 25446 net.cpp:434] conv6_2_mbox_loc_perm <- conv6_2_mbox_loc
I0305 10:53:10.757963 25446 net.cpp:408] conv6_2_mbox_loc_perm -> conv6_2_mbox_loc_perm
I0305 10:53:10.758131 25446 net.cpp:150] Setting up conv6_2_mbox_loc_perm
I0305 10:53:10.758141 25446 net.cpp:157] Top shape: 8 10 10 24 (19200)
I0305 10:53:10.758146 25446 net.cpp:165] Memory required for data: 1996345664
I0305 10:53:10.758152 25446 layer_factory.hpp:77] Creating layer conv6_2_mbox_loc_flat
I0305 10:53:10.758163 25446 net.cpp:100] Creating Layer conv6_2_mbox_loc_flat
I0305 10:53:10.758168 25446 net.cpp:434] conv6_2_mbox_loc_flat <- conv6_2_mbox_loc_perm
I0305 10:53:10.758195 25446 net.cpp:408] conv6_2_mbox_loc_flat -> conv6_2_mbox_loc_flat
I0305 10:53:10.758239 25446 net.cpp:150] Setting up conv6_2_mbox_loc_flat
I0305 10:53:10.758249 25446 net.cpp:157] Top shape: 8 2400 (19200)
I0305 10:53:10.758253 25446 net.cpp:165] Memory required for data: 1996422464
I0305 10:53:10.758260 25446 layer_factory.hpp:77] Creating layer conv6_2_mbox_conf
I0305 10:53:10.758277 25446 net.cpp:100] Creating Layer conv6_2_mbox_conf
I0305 10:53:10.758287 25446 net.cpp:434] conv6_2_mbox_conf <- conv6_2_conv6_2_relu_0_split_2
I0305 10:53:10.758298 25446 net.cpp:408] conv6_2_mbox_conf -> conv6_2_mbox_conf
I0305 10:53:10.764096 25446 net.cpp:150] Setting up conv6_2_mbox_conf
I0305 10:53:10.764124 25446 net.cpp:157] Top shape: 8 126 10 10 (100800)
I0305 10:53:10.764130 25446 net.cpp:165] Memory required for data: 1996825664
I0305 10:53:10.764143 25446 layer_factory.hpp:77] Creating layer conv6_2_mbox_conf_perm
I0305 10:53:10.764163 25446 net.cpp:100] Creating Layer conv6_2_mbox_conf_perm
I0305 10:53:10.764171 25446 net.cpp:434] conv6_2_mbox_conf_perm <- conv6_2_mbox_conf
I0305 10:53:10.764183 25446 net.cpp:408] conv6_2_mbox_conf_perm -> conv6_2_mbox_conf_perm
I0305 10:53:10.764324 25446 net.cpp:150] Setting up conv6_2_mbox_conf_perm
I0305 10:53:10.764333 25446 net.cpp:157] Top shape: 8 10 10 126 (100800)
I0305 10:53:10.764338 25446 net.cpp:165] Memory required for data: 1997228864
I0305 10:53:10.764344 25446 layer_factory.hpp:77] Creating layer conv6_2_mbox_conf_flat
I0305 10:53:10.764355 25446 net.cpp:100] Creating Layer conv6_2_mbox_conf_flat
I0305 10:53:10.764361 25446 net.cpp:434] conv6_2_mbox_conf_flat <- conv6_2_mbox_conf_perm
I0305 10:53:10.764369 25446 net.cpp:408] conv6_2_mbox_conf_flat -> conv6_2_mbox_conf_flat
I0305 10:53:10.764410 25446 net.cpp:150] Setting up conv6_2_mbox_conf_flat
I0305 10:53:10.764417 25446 net.cpp:157] Top shape: 8 12600 (100800)
I0305 10:53:10.764422 25446 net.cpp:165] Memory required for data: 1997632064
I0305 10:53:10.764427 25446 layer_factory.hpp:77] Creating layer conv6_2_mbox_priorbox
I0305 10:53:10.764441 25446 net.cpp:100] Creating Layer conv6_2_mbox_priorbox
I0305 10:53:10.764447 25446 net.cpp:434] conv6_2_mbox_priorbox <- conv6_2_conv6_2_relu_0_split_3
I0305 10:53:10.764456 25446 net.cpp:434] conv6_2_mbox_priorbox <- data_data_0_split_3
I0305 10:53:10.764463 25446 net.cpp:408] conv6_2_mbox_priorbox -> conv6_2_mbox_priorbox
I0305 10:53:10.764510 25446 net.cpp:150] Setting up conv6_2_mbox_priorbox
I0305 10:53:10.764519 25446 net.cpp:157] Top shape: 1 2 2400 (4800)
I0305 10:53:10.764523 25446 net.cpp:165] Memory required for data: 1997651264
I0305 10:53:10.764528 25446 layer_factory.hpp:77] Creating layer conv7_2_mbox_loc
I0305 10:53:10.764546 25446 net.cpp:100] Creating Layer conv7_2_mbox_loc
I0305 10:53:10.764552 25446 net.cpp:434] conv7_2_mbox_loc <- conv7_2_conv7_2_relu_0_split_1
I0305 10:53:10.764562 25446 net.cpp:408] conv7_2_mbox_loc -> conv7_2_mbox_loc
I0305 10:53:10.766435 25446 net.cpp:150] Setting up conv7_2_mbox_loc
I0305 10:53:10.766459 25446 net.cpp:157] Top shape: 8 24 5 5 (4800)
I0305 10:53:10.766463 25446 net.cpp:165] Memory required for data: 1997670464
I0305 10:53:10.766475 25446 layer_factory.hpp:77] Creating layer conv7_2_mbox_loc_perm
I0305 10:53:10.766489 25446 net.cpp:100] Creating Layer conv7_2_mbox_loc_perm
I0305 10:53:10.766496 25446 net.cpp:434] conv7_2_mbox_loc_perm <- conv7_2_mbox_loc
I0305 10:53:10.766507 25446 net.cpp:408] conv7_2_mbox_loc_perm -> conv7_2_mbox_loc_perm
I0305 10:53:10.766655 25446 net.cpp:150] Setting up conv7_2_mbox_loc_perm
I0305 10:53:10.766664 25446 net.cpp:157] Top shape: 8 5 5 24 (4800)
I0305 10:53:10.766669 25446 net.cpp:165] Memory required for data: 1997689664
I0305 10:53:10.766675 25446 layer_factory.hpp:77] Creating layer conv7_2_mbox_loc_flat
I0305 10:53:10.766685 25446 net.cpp:100] Creating Layer conv7_2_mbox_loc_flat
I0305 10:53:10.766691 25446 net.cpp:434] conv7_2_mbox_loc_flat <- conv7_2_mbox_loc_perm
I0305 10:53:10.766700 25446 net.cpp:408] conv7_2_mbox_loc_flat -> conv7_2_mbox_loc_flat
I0305 10:53:10.766786 25446 net.cpp:150] Setting up conv7_2_mbox_loc_flat
I0305 10:53:10.766796 25446 net.cpp:157] Top shape: 8 600 (4800)
I0305 10:53:10.766800 25446 net.cpp:165] Memory required for data: 1997708864
I0305 10:53:10.766806 25446 layer_factory.hpp:77] Creating layer conv7_2_mbox_conf
I0305 10:53:10.766822 25446 net.cpp:100] Creating Layer conv7_2_mbox_conf
I0305 10:53:10.766829 25446 net.cpp:434] conv7_2_mbox_conf <- conv7_2_conv7_2_relu_0_split_2
I0305 10:53:10.766841 25446 net.cpp:408] conv7_2_mbox_conf -> conv7_2_mbox_conf
I0305 10:53:10.771359 25446 net.cpp:150] Setting up conv7_2_mbox_conf
I0305 10:53:10.771392 25446 net.cpp:157] Top shape: 8 126 5 5 (25200)
I0305 10:53:10.771399 25446 net.cpp:165] Memory required for data: 1997809664
I0305 10:53:10.771414 25446 layer_factory.hpp:77] Creating layer conv7_2_mbox_conf_perm
I0305 10:53:10.771430 25446 net.cpp:100] Creating Layer conv7_2_mbox_conf_perm
I0305 10:53:10.771438 25446 net.cpp:434] conv7_2_mbox_conf_perm <- conv7_2_mbox_conf
I0305 10:53:10.771453 25446 net.cpp:408] conv7_2_mbox_conf_perm -> conv7_2_mbox_conf_perm
I0305 10:53:10.771627 25446 net.cpp:150] Setting up conv7_2_mbox_conf_perm
I0305 10:53:10.771639 25446 net.cpp:157] Top shape: 8 5 5 126 (25200)
I0305 10:53:10.771643 25446 net.cpp:165] Memory required for data: 1997910464
I0305 10:53:10.771649 25446 layer_factory.hpp:77] Creating layer conv7_2_mbox_conf_flat
I0305 10:53:10.771658 25446 net.cpp:100] Creating Layer conv7_2_mbox_conf_flat
I0305 10:53:10.771665 25446 net.cpp:434] conv7_2_mbox_conf_flat <- conv7_2_mbox_conf_perm
I0305 10:53:10.771675 25446 net.cpp:408] conv7_2_mbox_conf_flat -> conv7_2_mbox_conf_flat
I0305 10:53:10.771719 25446 net.cpp:150] Setting up conv7_2_mbox_conf_flat
I0305 10:53:10.771729 25446 net.cpp:157] Top shape: 8 3150 (25200)
I0305 10:53:10.771734 25446 net.cpp:165] Memory required for data: 1998011264
I0305 10:53:10.771739 25446 layer_factory.hpp:77] Creating layer conv7_2_mbox_priorbox
I0305 10:53:10.771750 25446 net.cpp:100] Creating Layer conv7_2_mbox_priorbox
I0305 10:53:10.771756 25446 net.cpp:434] conv7_2_mbox_priorbox <- conv7_2_conv7_2_relu_0_split_3
I0305 10:53:10.771764 25446 net.cpp:434] conv7_2_mbox_priorbox <- data_data_0_split_4
I0305 10:53:10.771775 25446 net.cpp:408] conv7_2_mbox_priorbox -> conv7_2_mbox_priorbox
I0305 10:53:10.771826 25446 net.cpp:150] Setting up conv7_2_mbox_priorbox
I0305 10:53:10.771836 25446 net.cpp:157] Top shape: 1 2 600 (1200)
I0305 10:53:10.771840 25446 net.cpp:165] Memory required for data: 1998016064
I0305 10:53:10.771845 25446 layer_factory.hpp:77] Creating layer conv8_2_mbox_loc
I0305 10:53:10.771862 25446 net.cpp:100] Creating Layer conv8_2_mbox_loc
I0305 10:53:10.771880 25446 net.cpp:434] conv8_2_mbox_loc <- conv8_2_conv8_2_relu_0_split_1
I0305 10:53:10.771903 25446 net.cpp:408] conv8_2_mbox_loc -> conv8_2_mbox_loc
I0305 10:53:10.773761 25446 net.cpp:150] Setting up conv8_2_mbox_loc
I0305 10:53:10.773782 25446 net.cpp:157] Top shape: 8 16 3 3 (1152)
I0305 10:53:10.773787 25446 net.cpp:165] Memory required for data: 1998020672
I0305 10:53:10.773811 25446 layer_factory.hpp:77] Creating layer conv8_2_mbox_loc_perm
I0305 10:53:10.773828 25446 net.cpp:100] Creating Layer conv8_2_mbox_loc_perm
I0305 10:53:10.773851 25446 net.cpp:434] conv8_2_mbox_loc_perm <- conv8_2_mbox_loc
I0305 10:53:10.773874 25446 net.cpp:408] conv8_2_mbox_loc_perm -> conv8_2_mbox_loc_perm
I0305 10:53:10.774024 25446 net.cpp:150] Setting up conv8_2_mbox_loc_perm
I0305 10:53:10.774034 25446 net.cpp:157] Top shape: 8 3 3 16 (1152)
I0305 10:53:10.774039 25446 net.cpp:165] Memory required for data: 1998025280
I0305 10:53:10.774044 25446 layer_factory.hpp:77] Creating layer conv8_2_mbox_loc_flat
I0305 10:53:10.774055 25446 net.cpp:100] Creating Layer conv8_2_mbox_loc_flat
I0305 10:53:10.774060 25446 net.cpp:434] conv8_2_mbox_loc_flat <- conv8_2_mbox_loc_perm
I0305 10:53:10.774070 25446 net.cpp:408] conv8_2_mbox_loc_flat -> conv8_2_mbox_loc_flat
I0305 10:53:10.774113 25446 net.cpp:150] Setting up conv8_2_mbox_loc_flat
I0305 10:53:10.774123 25446 net.cpp:157] Top shape: 8 144 (1152)
I0305 10:53:10.774155 25446 net.cpp:165] Memory required for data: 1998029888
I0305 10:53:10.774173 25446 layer_factory.hpp:77] Creating layer conv8_2_mbox_conf
I0305 10:53:10.774202 25446 net.cpp:100] Creating Layer conv8_2_mbox_conf
I0305 10:53:10.774212 25446 net.cpp:434] conv8_2_mbox_conf <- conv8_2_conv8_2_relu_0_split_2
I0305 10:53:10.774221 25446 net.cpp:408] conv8_2_mbox_conf -> conv8_2_mbox_conf
I0305 10:53:10.777289 25446 net.cpp:150] Setting up conv8_2_mbox_conf
I0305 10:53:10.777317 25446 net.cpp:157] Top shape: 8 84 3 3 (6048)
I0305 10:53:10.777323 25446 net.cpp:165] Memory required for data: 1998054080
I0305 10:53:10.777336 25446 layer_factory.hpp:77] Creating layer conv8_2_mbox_conf_perm
I0305 10:53:10.777353 25446 net.cpp:100] Creating Layer conv8_2_mbox_conf_perm
I0305 10:53:10.777360 25446 net.cpp:434] conv8_2_mbox_conf_perm <- conv8_2_mbox_conf
I0305 10:53:10.777371 25446 net.cpp:408] conv8_2_mbox_conf_perm -> conv8_2_mbox_conf_perm
I0305 10:53:10.777529 25446 net.cpp:150] Setting up conv8_2_mbox_conf_perm
I0305 10:53:10.777539 25446 net.cpp:157] Top shape: 8 3 3 84 (6048)
I0305 10:53:10.777544 25446 net.cpp:165] Memory required for data: 1998078272
I0305 10:53:10.777549 25446 layer_factory.hpp:77] Creating layer conv8_2_mbox_conf_flat
I0305 10:53:10.777562 25446 net.cpp:100] Creating Layer conv8_2_mbox_conf_flat
I0305 10:53:10.777568 25446 net.cpp:434] conv8_2_mbox_conf_flat <- conv8_2_mbox_conf_perm
I0305 10:53:10.777576 25446 net.cpp:408] conv8_2_mbox_conf_flat -> conv8_2_mbox_conf_flat
I0305 10:53:10.777621 25446 net.cpp:150] Setting up conv8_2_mbox_conf_flat
I0305 10:53:10.777631 25446 net.cpp:157] Top shape: 8 756 (6048)
I0305 10:53:10.777635 25446 net.cpp:165] Memory required for data: 1998102464
I0305 10:53:10.777640 25446 layer_factory.hpp:77] Creating layer conv8_2_mbox_priorbox
I0305 10:53:10.777653 25446 net.cpp:100] Creating Layer conv8_2_mbox_priorbox
I0305 10:53:10.777660 25446 net.cpp:434] conv8_2_mbox_priorbox <- conv8_2_conv8_2_relu_0_split_3
I0305 10:53:10.777667 25446 net.cpp:434] conv8_2_mbox_priorbox <- data_data_0_split_5
I0305 10:53:10.777676 25446 net.cpp:408] conv8_2_mbox_priorbox -> conv8_2_mbox_priorbox
I0305 10:53:10.777756 25446 net.cpp:150] Setting up conv8_2_mbox_priorbox
I0305 10:53:10.777765 25446 net.cpp:157] Top shape: 1 2 144 (288)
I0305 10:53:10.777770 25446 net.cpp:165] Memory required for data: 1998103616
I0305 10:53:10.777776 25446 layer_factory.hpp:77] Creating layer conv9_2_mbox_loc
I0305 10:53:10.777792 25446 net.cpp:100] Creating Layer conv9_2_mbox_loc
I0305 10:53:10.777810 25446 net.cpp:434] conv9_2_mbox_loc <- conv9_2_conv9_2_relu_0_split_0
I0305 10:53:10.777834 25446 net.cpp:408] conv9_2_mbox_loc -> conv9_2_mbox_loc
I0305 10:53:10.780239 25446 net.cpp:150] Setting up conv9_2_mbox_loc
I0305 10:53:10.780267 25446 net.cpp:157] Top shape: 8 16 1 1 (128)
I0305 10:53:10.780272 25446 net.cpp:165] Memory required for data: 1998104128
I0305 10:53:10.780284 25446 layer_factory.hpp:77] Creating layer conv9_2_mbox_loc_perm
I0305 10:53:10.780299 25446 net.cpp:100] Creating Layer conv9_2_mbox_loc_perm
I0305 10:53:10.780309 25446 net.cpp:434] conv9_2_mbox_loc_perm <- conv9_2_mbox_loc
I0305 10:53:10.780318 25446 net.cpp:408] conv9_2_mbox_loc_perm -> conv9_2_mbox_loc_perm
I0305 10:53:10.780469 25446 net.cpp:150] Setting up conv9_2_mbox_loc_perm
I0305 10:53:10.780478 25446 net.cpp:157] Top shape: 8 1 1 16 (128)
I0305 10:53:10.780484 25446 net.cpp:165] Memory required for data: 1998104640
I0305 10:53:10.780489 25446 layer_factory.hpp:77] Creating layer conv9_2_mbox_loc_flat
I0305 10:53:10.780498 25446 net.cpp:100] Creating Layer conv9_2_mbox_loc_flat
I0305 10:53:10.780504 25446 net.cpp:434] conv9_2_mbox_loc_flat <- conv9_2_mbox_loc_perm
I0305 10:53:10.780514 25446 net.cpp:408] conv9_2_mbox_loc_flat -> conv9_2_mbox_loc_flat
I0305 10:53:10.780560 25446 net.cpp:150] Setting up conv9_2_mbox_loc_flat
I0305 10:53:10.780568 25446 net.cpp:157] Top shape: 8 16 (128)
I0305 10:53:10.780573 25446 net.cpp:165] Memory required for data: 1998105152
I0305 10:53:10.780616 25446 layer_factory.hpp:77] Creating layer conv9_2_mbox_conf
I0305 10:53:10.780645 25446 net.cpp:100] Creating Layer conv9_2_mbox_conf
I0305 10:53:10.780663 25446 net.cpp:434] conv9_2_mbox_conf <- conv9_2_conv9_2_relu_0_split_1
I0305 10:53:10.780705 25446 net.cpp:408] conv9_2_mbox_conf -> conv9_2_mbox_conf
I0305 10:53:10.783962 25446 net.cpp:150] Setting up conv9_2_mbox_conf
I0305 10:53:10.783985 25446 net.cpp:157] Top shape: 8 84 1 1 (672)
I0305 10:53:10.783990 25446 net.cpp:165] Memory required for data: 1998107840
I0305 10:53:10.784003 25446 layer_factory.hpp:77] Creating layer conv9_2_mbox_conf_perm
I0305 10:53:10.784019 25446 net.cpp:100] Creating Layer conv9_2_mbox_conf_perm
I0305 10:53:10.784029 25446 net.cpp:434] conv9_2_mbox_conf_perm <- conv9_2_mbox_conf
I0305 10:53:10.784040 25446 net.cpp:408] conv9_2_mbox_conf_perm -> conv9_2_mbox_conf_perm
I0305 10:53:10.784207 25446 net.cpp:150] Setting up conv9_2_mbox_conf_perm
I0305 10:53:10.784219 25446 net.cpp:157] Top shape: 8 1 1 84 (672)
I0305 10:53:10.784224 25446 net.cpp:165] Memory required for data: 1998110528
I0305 10:53:10.784229 25446 layer_factory.hpp:77] Creating layer conv9_2_mbox_conf_flat
I0305 10:53:10.784240 25446 net.cpp:100] Creating Layer conv9_2_mbox_conf_flat
I0305 10:53:10.784245 25446 net.cpp:434] conv9_2_mbox_conf_flat <- conv9_2_mbox_conf_perm
I0305 10:53:10.784255 25446 net.cpp:408] conv9_2_mbox_conf_flat -> conv9_2_mbox_conf_flat
I0305 10:53:10.784298 25446 net.cpp:150] Setting up conv9_2_mbox_conf_flat
I0305 10:53:10.784310 25446 net.cpp:157] Top shape: 8 84 (672)
I0305 10:53:10.784317 25446 net.cpp:165] Memory required for data: 1998113216
I0305 10:53:10.784322 25446 layer_factory.hpp:77] Creating layer conv9_2_mbox_priorbox
I0305 10:53:10.784332 25446 net.cpp:100] Creating Layer conv9_2_mbox_priorbox
I0305 10:53:10.784337 25446 net.cpp:434] conv9_2_mbox_priorbox <- conv9_2_conv9_2_relu_0_split_2
I0305 10:53:10.784345 25446 net.cpp:434] conv9_2_mbox_priorbox <- data_data_0_split_6
I0305 10:53:10.784355 25446 net.cpp:408] conv9_2_mbox_priorbox -> conv9_2_mbox_priorbox
I0305 10:53:10.784420 25446 net.cpp:150] Setting up conv9_2_mbox_priorbox
I0305 10:53:10.784430 25446 net.cpp:157] Top shape: 1 2 16 (32)
I0305 10:53:10.784435 25446 net.cpp:165] Memory required for data: 1998113344
I0305 10:53:10.784440 25446 layer_factory.hpp:77] Creating layer mbox_loc
I0305 10:53:10.784451 25446 net.cpp:100] Creating Layer mbox_loc
I0305 10:53:10.784456 25446 net.cpp:434] mbox_loc <- conv4_3_norm_mbox_loc_flat
I0305 10:53:10.784464 25446 net.cpp:434] mbox_loc <- fc7_mbox_loc_flat
I0305 10:53:10.784472 25446 net.cpp:434] mbox_loc <- conv6_2_mbox_loc_flat
I0305 10:53:10.784478 25446 net.cpp:434] mbox_loc <- conv7_2_mbox_loc_flat
I0305 10:53:10.784485 25446 net.cpp:434] mbox_loc <- conv8_2_mbox_loc_flat
I0305 10:53:10.784492 25446 net.cpp:434] mbox_loc <- conv9_2_mbox_loc_flat
I0305 10:53:10.784502 25446 net.cpp:408] mbox_loc -> mbox_loc
I0305 10:53:10.784559 25446 net.cpp:150] Setting up mbox_loc
I0305 10:53:10.784569 25446 net.cpp:157] Top shape: 8 34928 (279424)
I0305 10:53:10.784574 25446 net.cpp:165] Memory required for data: 1999231040
I0305 10:53:10.784579 25446 layer_factory.hpp:77] Creating layer mbox_conf
I0305 10:53:10.784588 25446 net.cpp:100] Creating Layer mbox_conf
I0305 10:53:10.784595 25446 net.cpp:434] mbox_conf <- conv4_3_norm_mbox_conf_flat
I0305 10:53:10.784602 25446 net.cpp:434] mbox_conf <- fc7_mbox_conf_flat
I0305 10:53:10.784610 25446 net.cpp:434] mbox_conf <- conv6_2_mbox_conf_flat
I0305 10:53:10.784615 25446 net.cpp:434] mbox_conf <- conv7_2_mbox_conf_flat
I0305 10:53:10.784621 25446 net.cpp:434] mbox_conf <- conv8_2_mbox_conf_flat
I0305 10:53:10.784628 25446 net.cpp:434] mbox_conf <- conv9_2_mbox_conf_flat
I0305 10:53:10.784636 25446 net.cpp:408] mbox_conf -> mbox_conf
I0305 10:53:10.784678 25446 net.cpp:150] Setting up mbox_conf
I0305 10:53:10.784711 25446 net.cpp:157] Top shape: 8 183372 (1466976)
I0305 10:53:10.784718 25446 net.cpp:165] Memory required for data: 2005098944
I0305 10:53:10.784723 25446 layer_factory.hpp:77] Creating layer mbox_priorbox
I0305 10:53:10.784759 25446 net.cpp:100] Creating Layer mbox_priorbox
I0305 10:53:10.784776 25446 net.cpp:434] mbox_priorbox <- conv4_3_norm_mbox_priorbox
I0305 10:53:10.784795 25446 net.cpp:434] mbox_priorbox <- fc7_mbox_priorbox
I0305 10:53:10.784813 25446 net.cpp:434] mbox_priorbox <- conv6_2_mbox_priorbox
I0305 10:53:10.784829 25446 net.cpp:434] mbox_priorbox <- conv7_2_mbox_priorbox
I0305 10:53:10.784850 25446 net.cpp:434] mbox_priorbox <- conv8_2_mbox_priorbox
I0305 10:53:10.784868 25446 net.cpp:434] mbox_priorbox <- conv9_2_mbox_priorbox
I0305 10:53:10.784886 25446 net.cpp:408] mbox_priorbox -> mbox_priorbox
I0305 10:53:10.784942 25446 net.cpp:150] Setting up mbox_priorbox
I0305 10:53:10.784952 25446 net.cpp:157] Top shape: 1 2 34928 (69856)
I0305 10:53:10.784957 25446 net.cpp:165] Memory required for data: 2005378368
I0305 10:53:10.784962 25446 layer_factory.hpp:77] Creating layer mbox_conf_reshape
I0305 10:53:10.784973 25446 net.cpp:100] Creating Layer mbox_conf_reshape
I0305 10:53:10.784978 25446 net.cpp:434] mbox_conf_reshape <- mbox_conf
I0305 10:53:10.784989 25446 net.cpp:408] mbox_conf_reshape -> mbox_conf_reshape
I0305 10:53:10.785039 25446 net.cpp:150] Setting up mbox_conf_reshape
I0305 10:53:10.785048 25446 net.cpp:157] Top shape: 8 8732 21 (1466976)
I0305 10:53:10.785053 25446 net.cpp:165] Memory required for data: 2011246272
I0305 10:53:10.785058 25446 layer_factory.hpp:77] Creating layer mbox_conf_softmax
I0305 10:53:10.785070 25446 net.cpp:100] Creating Layer mbox_conf_softmax
I0305 10:53:10.785076 25446 net.cpp:434] mbox_conf_softmax <- mbox_conf_reshape
I0305 10:53:10.785085 25446 net.cpp:408] mbox_conf_softmax -> mbox_conf_softmax
I0305 10:53:10.785405 25446 net.cpp:150] Setting up mbox_conf_softmax
I0305 10:53:10.785416 25446 net.cpp:157] Top shape: 8 8732 21 (1466976)
I0305 10:53:10.785421 25446 net.cpp:165] Memory required for data: 2017114176
I0305 10:53:10.785428 25446 layer_factory.hpp:77] Creating layer mbox_conf_flatten
I0305 10:53:10.785436 25446 net.cpp:100] Creating Layer mbox_conf_flatten
I0305 10:53:10.785442 25446 net.cpp:434] mbox_conf_flatten <- mbox_conf_softmax
I0305 10:53:10.785451 25446 net.cpp:408] mbox_conf_flatten -> mbox_conf_flatten
I0305 10:53:10.785497 25446 net.cpp:150] Setting up mbox_conf_flatten
I0305 10:53:10.785508 25446 net.cpp:157] Top shape: 8 183372 (1466976)
I0305 10:53:10.785512 25446 net.cpp:165] Memory required for data: 2022982080
I0305 10:53:10.785517 25446 layer_factory.hpp:77] Creating layer detection_out
I0305 10:53:10.785542 25446 net.cpp:100] Creating Layer detection_out
I0305 10:53:10.785564 25446 net.cpp:434] detection_out <- mbox_loc
I0305 10:53:10.785583 25446 net.cpp:434] detection_out <- mbox_conf_flatten
I0305 10:53:10.785599 25446 net.cpp:434] detection_out <- mbox_priorbox
I0305 10:53:10.785621 25446 net.cpp:408] detection_out -> detection_out
W0305 10:53:10.785672 25446 detection_output_layer.cpp:49] Failed to create directory: /home/zs/data/VOCdevkit/results/VOC2007/SSD_300x300_score/Main
I0305 10:53:10.819191 25446 net.cpp:150] Setting up detection_out
I0305 10:53:10.819262 25446 net.cpp:157] Top shape: 1 1 1 7 (7)
I0305 10:53:10.819279 25446 net.cpp:165] Memory required for data: 2022982108
I0305 10:53:10.819301 25446 layer_factory.hpp:77] Creating layer detection_eval
I0305 10:53:10.819329 25446 net.cpp:100] Creating Layer detection_eval
I0305 10:53:10.819348 25446 net.cpp:434] detection_eval <- detection_out
I0305 10:53:10.819368 25446 net.cpp:434] detection_eval <- label
I0305 10:53:10.819391 25446 net.cpp:408] detection_eval -> detection_eval
I0305 10:53:10.821521 25446 net.cpp:150] Setting up detection_eval
I0305 10:53:10.821581 25446 net.cpp:157] Top shape: 1 1 21 5 (105)
I0305 10:53:10.821599 25446 net.cpp:165] Memory required for data: 2022982528
I0305 10:53:10.821619 25446 net.cpp:228] detection_eval does not need backward computation.
I0305 10:53:10.821637 25446 net.cpp:228] detection_out does not need backward computation.
I0305 10:53:10.821666 25446 net.cpp:228] mbox_conf_flatten does not need backward computation.
I0305 10:53:10.821693 25446 net.cpp:228] mbox_conf_softmax does not need backward computation.
…
