…
      sampler {
        min_scale: 0.3
        max_scale: 1
        min_aspect_ratio: 0.5
        max_aspect_ratio: 2
      }
      sample_constraint {
        min_jaccard_overlap: 0.9
      }
      max_sample: 1
      max_trials: 50
    }
    batch_sampler {
      sampler {
        min_scale: 0.3
        max_scale: 1
        min_aspect_ratio: 0.5
        max_aspect_ratio: 2
      }
      sample_constraint {
        max_jaccard_overlap: 1
      }
      max_sample: 1
      max_trials: 50
    }
    label_map_file: "data/NWPU_VHR/labelmap_NWPU_VHR.prototxt"
  }
}
layer {
  name: "conv1_1"
  type: "Convolution"
  bottom: "data"
  top: "conv1_1"
  param {
    lr_mult: 1
    decay_mult: 1
  }
  param {
    lr_mult: 2
    decay_mult: 0
  }
  convolution_param {
    num_output: 64
    pad: 1
    kernel_size: 3
    weight_filler {
      type: "xavier"
    }
    bias_filler {
      type: "constant"
      value: 0
    }
  }
}
layer {
  name: "relu1_1"
  type: "ReLU"
  bottom: "conv1_1"
  top: "conv1_1"
}
layer {
  name: "conv1_2"
  type: "Convolution"
  bottom: "conv1_1"
  top: "conv1_2"
  param {
    lr_mult: 1
    decay_mult: 1
  }
  param {
    lr_mult: 2
    decay_mult: 0
  }
  convolution_param {
    num_output: 64
    pad: 1
    kernel_size: 3
    weight_filler {
      type: "xavier"
    }
    bias_filler {
      type: "constant"
      value: 0
    }
  }
}
layer {
  name: "relu1_2"
  type: "ReLU"
  bottom: "conv1_2"
  top: "conv1_2"
}
layer {
  name: "pool1"
  type: "Pooling"
  bottom: "conv1_2"
  top: "pool1"
  pooling_param {
    pool: MAX
    kernel_size: 2
    stride: 2
  }
}
layer {
  name: "conv2_1"
  type: "Convolution"
  bottom: "pool1"
  top: "conv2_1"
  param {
    lr_mult: 1
    decay_mult: 1
  }
  param {
    lr_mult: 2
    decay_mult: 0
  }
  convolution_param {
    num_output: 128
    pad: 1
    kernel_size: 3
    weight_filler {
      type: "xavier"
    }
    bias_filler {
      type: "constant"
      value: 0
    }
  }
}
layer {
  name: "relu2_1"
  type: "ReLU"
  bottom: "conv2_1"
  top: "conv2_1"
}
layer {
  name: "conv2_2"
  type: "Convolution"
  bottom: "conv2_1"
  top: "conv2_2"
  param {
    lr_mult: 1
    decay_mult: 1
  }
  param {
    lr_mult: 2
    decay_mult: 0
  }
  convolution_param {
    num_output: 128
    pad: 1
    kernel_size: 3
    weight_filler {
      type: "xavier"
    }
    bias_filler {
      type: "constant"
      value: 0
    }
  }
}
layer {
  name: "relu2_2"
  type: "ReLU"
  bottom: "conv2_2"
  top: "conv2_2"
}
layer {
  name: "pool2"
  type: "Pooling"
  bottom: "conv2_2"
  top: "pool2"
  pooling_param {
    pool: MAX
    kernel_size: 2
    stride: 2
  }
}
layer {
  name: "conv3_1"
  type: "Convolution"
  bottom: "pool2"
  top: "conv3_1"
  param {
    lr_mult: 1
    decay_mult: 1
  }
  param {
    lr_mult: 2
    decay_mult: 0
  }
  convolution_param {
    num_output: 256
    pad: 1
    kernel_size: 3
    weight_filler {
      type: "xavier"
    }
    bias_filler {
      type: "constant"
      value: 0
    }
  }
}
layer {
  name: "relu3_1"
  type: "ReLU"
  bottom: "conv3_1"
  top: "conv3_1"
}
layer {
  name: "conv3_2_depthwise"
  type: "DepthwiseConvolution"
  bottom: "conv3_1"
  top: "conv3_2_3x3"
  param {
    lr_mult: 1
    decay_mult: 1
  }
  param {
    lr_mult: 2
    decay_mult: 0
  }
  convolution_param {
    num_output: 256
    pad: 1
    kernel_size: 3
    group: 256
    weight_filler {
      type: "xavier"
    }
    bias_filler {
      type: "constant"
      value: 0
    }
  }
}
layer {
  name: "conv3_2_3x3_relu"
  type: "ReLU"
  bottom: "conv3_2_3x3"
  top: "conv3_2_3x3"
}
layer {
  name: "conv3_2_1x1"
  type: "Convolution"
  bottom: "conv3_2_3x3"
  top: "conv3_2"
  param {
    lr_mult: 1
    decay_mult: 1
  }
  param {
    lr_mult: 2
    decay_mult: 0
  }
  convolution_param {
    num_output: 256
    pad: 0
    kernel_size: 1
    stride: 1
    weight_filler {
      type: "xavier"
    }
    bias_filler {
      type: "constant"
      value: 0
    }
  }
}
layer {
  name: "relu3_2"
  type: "ReLU"
  bottom: "conv3_2"
  top: "conv3_2"
}
layer {
  name: "conv3_3_depthwise"
  type: "DepthwiseConvolution"
  bottom: "conv3_2"
  top: "conv3_3_3x3"
  param {
    lr_mult: 1
    decay_mult: 1
  }
  param {
    lr_mult: 2
    decay_mult: 0
  }
  convolution_param {
    num_output: 256
    pad: 1
    kernel_size: 3
    group: 256
    weight_filler {
      type: "xavier"
    }
    bias_filler {
      type: "constant"
      value: 0
    }
  }
}
layer {
  name: "conv3_3_3x3_relu"
  type: "ReLU"
  bottom: "conv3_3_3x3"
  top: "conv3_3_3x3"
}
layer {
  name: "conv3_3_1x1"
  type: "Convolution"
  bottom: "conv3_3_3x3"
  top: "conv3_3"
  param {
    lr_mult: 1
    decay_mult: 1
  }
  param {
    lr_mult: 2
    decay_mult: 0
  }
  convolution_param {
    num_output: 256
    pad: 0
    kernel_size: 1
    stride: 1
    weight_filler {
      type: "xavier"
    }
    bias_filler {
      type: "constant"
      value: 0
    }
  }
}
layer {
  name: "relu3_3"
  type: "ReLU"
  bottom: "conv3_3"
  top: "conv3_3"
}
layer {
  name: "pool3"
  type: "Pooling"
  bottom: "conv3_3"
  top: "pool3"
  pooling_param {
    pool: MAX
    kernel_size: 2
    stride: 2
  }
}
layer {
  name: "conv4_1_depthwise"
  type: "DepthwiseConvolution"
  bottom: "pool3"
  top: "conv4_1_3x3"
  param {
    lr_mult: 1
    decay_mult: 1
  }
  param {
    lr_mult: 2
    decay_mult: 0
  }
  convolution_param {
    num_output: 256
    pad: 1
    kernel_size: 3
    group: 256
    weight_filler {
      type: "xavier"
    }
    bias_filler {
      type: "constant"
      value: 0
    }
  }
}
layer {
  name: "conv4_1_3x3_relu"
  type: "ReLU"
  bottom: "conv4_1_3x3"
  top: "conv4_1_3x3"
}
layer {
  name: "conv4_1_1x1"
  type: "Convolution"
  bottom: "conv4_1_3x3"
  top: "conv4_1"
  param {
    lr_mult: 1
    decay_mult: 1
  }
  param {
    lr_mult: 2
    decay_mult: 0
  }
  convolution_param {
    num_output: 512
    pad: 0
    kernel_size: 1
    stride: 1
    weight_filler {
      type: "xavier"
    }
    bias_filler {
      type: "constant"
      value: 0
    }
  }
}
layer {
  name: "relu4_1"
  type: "ReLU"
  bottom: "conv4_1"
  top: "conv4_1"
}
layer {
  name: "conv4_2"
  type: "Convolution"
  bottom: "conv4_1"
  top: "conv4_2"
  param {
    lr_mult: 1
    decay_mult: 1
  }
  param {
    lr_mult: 2
    decay_mult: 0
  }
  convolution_param {
    num_output: 512
    pad: 1
    kernel_size: 3
    weight_filler {
      type: "xavier"
    }
    bias_filler {
      type: "constant"
      value: 0
    }
  }
}
layer {
  name: "relu4_2"
  type: "ReLU"
  bottom: "conv4_2"
  top: "conv4_2"
}
layer {
  name: "conv4_3"
  type: "Convolution"
  bottom: "conv4_2"
  top: "conv4_3"
  param {
    lr_mult: 1
    decay_mult: 1
  }
  param {
    lr_mult: 2
    decay_mult: 0
  }
  convolution_param {
    num_output: 512
    pad: 1
    kernel_size: 3
    weight_filler {
      type: "xavier"
    }
    bias_filler {
      type: "constant"
      value: 0
    }
  }
}
layer {
  name: "relu4_3"
  type: "ReLU"
  bottom: "conv4_3"
  top: "conv4_3"
}
layer {
  name: "pool4"
  type: "Pooling"
  bottom: "conv4_3"
  top: "pool4"
  pooling_param {
    pool: MAX
    kernel_size: 2
    stride: 2
  }
}
layer {
  name: "conv5_1_depthwise"
  type: "DepthwiseConvolution"
  bottom: "pool4"
  top: "conv5_1_3x3"
  param {
    lr_mult: 1
    decay_mult: 1
  }
  param {
    lr_mult: 2
    decay_mult: 0
  }
  convolution_param {
    num_output: 512
    pad: 1
    kernel_size: 3
    group: 512
    weight_filler {
      type: "xavier"
    }
    bias_filler {
      type: "constant"
      value: 0
    }
    dilation: 1
  }
}
layer {
  name: "conv5_1_3x3_relu"
  type: "ReLU"
  bottom: "conv5_1_3x3"
  top: "conv5_1_3x3"
}
layer {
  name: "conv5_1_1x1"
  type: "Convolution"
  bottom: "conv5_1_3x3"
  top: "conv5_1"
  param {
    lr_mult: 1
    decay_mult: 1
  }
  param {
    lr_mult: 2
    decay_mult: 0
  }
  convolution_param {
    num_output: 512
    pad: 0
    kernel_size: 1
    stride: 1
    weight_filler {
      type: "xavier"
    }
    bias_filler {
      type: "constant"
      value: 0
    }
    dilation: 1
  }
}
layer {
  name: "relu5_1"
  type: "ReLU"
  bottom: "conv5_1"
  top: "conv5_1"
}
layer {
  name: "conv5_2_depthwise"
  type: "DepthwiseConvolution"
  bottom: "conv5_1"
  top: "conv5_2_3x3"
  param {
    lr_mult: 1
    decay_mult: 1
  }
  param {
    lr_mult: 2
    decay_mult: 0
  }
  convolution_param {
    num_output: 512
    pad: 1
    kernel_size: 3
    group: 512
    weight_filler {
      type: "xavier"
    }
    bias_filler {
      type: "constant"
      value: 0
    }
    dilation: 1
  }
}
layer {
  name: "conv5_2_3x3_relu"
  type: "ReLU"
  bottom: "conv5_2_3x3"
  top: "conv5_2_3x3"
}
layer {
  name: "conv5_2_1x1"
  type: "Convolution"
  bottom: "conv5_2_3x3"
  top: "conv5_2"
  param {
    lr_mult: 1
    decay_mult: 1
  }
  param {
    lr_mult: 2
    decay_mult: 0
  }
  convolution_param {
    num_output: 512
    pad: 0
    kernel_size: 1
    stride: 1
    weight_filler {
      type: "xavier"
    }
    bias_filler {
      type: "constant"
      value: 0
    }
    dilation: 1
  }
}
layer {
  name: "relu5_2"
  type: "ReLU"
  bottom: "conv5_2"
  top: "conv5_2"
}
layer {
  name: "conv5_3_depthwise"
  type: "DepthwiseConvolution"
  bottom: "conv5_2"
  top: "conv5_3_3x3"
  param {
    lr_mult: 1
    decay_mult: 1
  }
  param {
    lr_mult: 2
    decay_mult: 0
  }
  convolution_param {
    num_output: 512
    pad: 1
    kernel_size: 3
    group: 512
    weight_filler {
      type: "xavier"
    }
    bias_filler {
      type: "constant"
      value: 0
    }
    dilation: 1
  }
}
layer {
  name: "conv5_3_3x3_relu"
  type: "ReLU"
  bottom: "conv5_3_3x3"
  top: "conv5_3_3x3"
}
layer {
  name: "conv5_3_1x1"
  type: "Convolution"
  bottom: "conv5_3_3x3"
  top: "conv5_3"
  param {
    lr_mult: 1
    decay_mult: 1
  }
  param {
    lr_mult: 2
    decay_mult: 0
  }
  convolution_param {
    num_output: 512
    pad: 0
    kernel_size: 1
    stride: 1
    weight_filler {
      type: "xavier"
    }
    bias_filler {
      type: "constant"
      value: 0
    }
    dilation: 1
  }
}
layer {
  name: "relu5_3"
  type: "ReLU"
  bottom: "conv5_3"
  top: "conv5_3"
}
layer {
  name: "pool5"
  type: "Pooling"
  bottom: "conv5_3"
  top: "pool5"
  pooling_param {
    pool: MAX
    kernel_size: 3
    stride: 1
    pad: 1
  }
}
layer {
  name: "fc6_depthwise"
  type: "DepthwiseConvolution"
  bottom: "pool5"
  top: "fc6_3x3"
  param {
    lr_mult: 1
    decay_mult: 1
  }
  param {
    lr_mult: 2
    decay_mult: 0
  }
  convolution_param {
    num_output: 512
    pad: 6
    kernel_size: 3
    group: 512
    weight_filler {
      type: "xavier"
    }
    bias_filler {
      type: "constant"
      value: 0
    }
    dilation: 6
  }
}
layer {
  name: "fc6_3x3_relu"
  type: "ReLU"
  bottom: "fc6_3x3"
  top: "fc6_3x3"
}
layer {
  name: "fc6_1x1"
  type: "Convolution"
  bottom: "fc6_3x3"
  top: "fc6"
  param {
    lr_mult: 1
    decay_mult: 1
  }
  param {
    lr_mult: 2
    decay_mult: 0
  }
  convolution_param {
    num_output: 1024
    pad: 0
    kernel_size: 1
    stride: 1
    weight_filler {
      type: "xavier"
    }
    bias_filler {
      type: "constant"
      value: 0
    }
    dilation: 6
  }
}
layer {
  name: "relu6"
  type: "ReLU"
  bottom: "fc6"
  top: "fc6"
}
layer {
  name: "fc7"
  type: "Convolution"
  bottom: "fc6"
  top: "fc7"
  param {
    lr_mult: 1
    decay_mult: 1
  }
  param {
    lr_mult: 2
    decay_mult: 0
  }
  convolution_param {
    num_output: 1024
    kernel_size: 1
    weight_filler {
      type: "xavier"
    }
    bias_filler {
      type: "constant"
      value: 0
    }
  }
}
layer {
  name: "relu7"
  type: "ReLU"
  bottom: "fc7"
  top: "fc7"
}
layer {
  name: "conv6_1"
  type: "Convolution"
  bottom: "fc7"
  top: "conv6_1"
  param {
    lr_mult: 1
    decay_mult: 1
  }
  param {
    lr_mult: 2
    decay_mult: 0
  }
  convolution_param {
    num_output: 256
    pad: 0
    kernel_size: 1
    stride: 1
    weight_filler {
      type: "xavier"
    }
    bias_filler {
      type: "constant"
      value: 0
    }
  }
}
layer {
  name: "conv6_1_relu"
  type: "ReLU"
  bottom: "conv6_1"
  top: "conv6_1"
}
layer {
  name: "conv6_2_depthwise"
  type: "DepthwiseConvolution"
  bottom: "conv6_1"
  top: "conv6_2_3x3"
  param {
    lr_mult: 1
    decay_mult: 1
  }
  param {
    lr_mult: 2
    decay_mult: 0
  }
  convolution_param {
    num_output: 256
    pad: 1
    kernel_size: 3
    group: 256
    stride: 2
    weight_filler {
      type: "xavier"
    }
    bias_filler {
      type: "constant"
      value: 0
    }
  }
}
layer {
  name: "conv6_2_3x3_relu"
  type: "ReLU"
  bottom: "conv6_2_3x3"
  top: "conv6_2_3x3"
}
layer {
  name: "conv6_2_1x1"
  type: "Convolution"
  bottom: "conv6_2_3x3"
  top: "conv6_2"
  param {
    lr_mult: 1
    decay_mult: 1
  }
  param {
    lr_mult: 2
    decay_mult: 0
  }
  convolution_param {
    num_output: 512
    pad: 0
    kernel_size: 1
    stride: 1
    weight_filler {
      type: "xavier"
    }
    bias_filler {
      type: "constant"
      value: 0
    }
  }
}
layer {
  name: "conv6_2_relu"
  type: "ReLU"
  bottom: "conv6_2"
  top: "conv6_2"
}
layer {
  name: "conv7_1"
  type: "Convolution"
  bottom: "conv6_2"
  top: "conv7_1"
  param {
    lr_mult: 1
    decay_mult: 1
  }
  param {
    lr_mult: 2
    decay_mult: 0
  }
  convolution_param {
    num_output: 128
    pad: 0
    kernel_size: 1
    stride: 1
    weight_filler {
      type: "xavier"
    }
    bias_filler {
      type: "constant"
      value: 0
    }
  }
}
layer {
  name: "conv7_1_relu"
  type: "ReLU"
  bottom: "conv7_1"
  top: "conv7_1"
}
layer {
  name: "conv7_2"
  type: "Convolution"
  bottom: "conv7_1"
  top: "conv7_2"
  param {
    lr_mult: 1
    decay_mult: 1
  }
  param {
    lr_mult: 2
    decay_mult: 0
  }
  convolution_param {
    num_output: 256
    pad: 1
    kernel_size: 3
    stride: 2
    weight_filler {
      type: "xavier"
    }
    bias_filler {
      type: "constant"
      value: 0
    }
  }
}
layer {
  name: "conv7_2_relu"
  type: "ReLU"
  bottom: "conv7_2"
  top: "conv7_2"
}
layer {
  name: "conv8_1"
  type: "Convolution"
  bottom: "conv7_2"
  top: "conv8_1"
  param {
    lr_mult: 1
    decay_mult: 1
  }
  param {
    lr_mult: 2
    decay_mult: 0
  }
  convolution_param {
    num_output: 128
    pad: 0
    kernel_size: 1
    stride: 1
    weight_filler {
      type: "xavier"
    }
    bias_filler {
      type: "constant"
      value: 0
    }
  }
}
layer {
  name: "conv8_1_relu"
  type: "ReLU"
  bottom: "conv8_1"
  top: "conv8_1"
}
layer {
  name: "conv8_2"
  type: "Convolution"
  bottom: "conv8_1"
  top: "conv8_2"
  param {
    lr_mult: 1
    decay_mult: 1
  }
  param {
    lr_mult: 2
    decay_mult: 0
  }
  convolution_param {
    num_output: 256
    pad: 0
    kernel_size: 3
    stride: 1
    weight_filler {
      type: "xavier"
    }
    bias_filler {
      type: "constant"
      value: 0
    }
  }
}
layer {
  name: "conv8_2_relu"
  type: "ReLU"
  bottom: "conv8_2"
  top: "conv8_2"
}
layer {
  name: "conv9_1"
  type: "Convolution"
  bottom: "conv8_2"
  top: "conv9_1"
  param {
    lr_mult: 1
    decay_mult: 1
  }
  param {
    lr_mult: 2
    decay_mult: 0
  }
  convolution_param {
    num_output: 128
    pad: 0
    kernel_size: 1
    stride: 1
    weight_filler {
      type: "xavier"
    }
    bias_filler {
      type: "constant"
      value: 0
    }
  }
}
layer {
  name: "conv9_1_relu"
  type: "ReLU"
  bottom: "conv9_1"
  top: "conv9_1"
}
layer {
  name: "conv9_2"
  type: "Convolution"
  bottom: "conv9_1"
  top: "conv9_2"
  param {
    lr_mult: 1
    decay_mult: 1
  }
  param {
    lr_mult: 2
    decay_mult: 0
  }
  convolution_param {
    num_output: 256
    pad: 0
    kernel_size: 3
    stride: 1
    weight_filler {
      type: "xavier"
    }
    bias_filler {
      type: "constant"
      value: 0
    }
  }
}
layer {
  name: "conv9_2_relu"
  type: "ReLU"
  bottom: "conv9_2"
  top: "conv9_2"
}
layer {
  name: "conv4_3_norm"
  type: "Normalize"
  bottom: "conv4_3"
  top: "conv4_3_norm"
  norm_param {
    across_spatial: false
    scale_filler {
      type: "constant"
      value: 20
    }
    channel_shared: false
  }
}
layer {
  name: "conv4_3_norm_mbox_loc"
  type: "Convolution"
  bottom: "conv4_3_norm"
  top: "conv4_3_norm_mbox_loc"
  param {
    lr_mult: 1
    decay_mult: 1
  }
  param {
    lr_mult: 2
    decay_mult: 0
  }
  convolution_param {
    num_output: 16
    pad: 1
    kernel_size: 3
    stride: 1
    weight_filler {
      type: "xavier"
    }
    bias_filler {
      type: "constant"
      value: 0
    }
  }
}
layer {
  name: "conv4_3_norm_mbox_loc_perm"
  type: "Permute"
  bottom: "conv4_3_norm_mbox_loc"
  top: "conv4_3_norm_mbox_loc_perm"
  permute_param {
    order: 0
    order: 2
    order: 3
    order: 1
  }
}
layer {
  name: "conv4_3_norm_mbox_loc_flat"
  type: "Flatten"
  bottom: "conv4_3_norm_mbox_loc_perm"
  top: "conv4_3_norm_mbox_loc_flat"
  flatten_param {
    axis: 1
  }
}
layer {
  name: "conv4_3_norm_mbox_conf"
  type: "Convolution"
  bottom: "conv4_3_norm"
  top: "conv4_3_norm_mbox_conf"
  param {
    lr_mult: 1
    decay_mult: 1
  }
  param {
    lr_mult: 2
    decay_mult: 0
  }
  convolution_param {
    num_output: 44
    pad: 1
    kernel_size: 3
    stride: 1
    weight_filler {
      type: "xavier"
    }
    bias_filler {
      type: "constant"
      value: 0
    }
  }
}
layer {
  name: "conv4_3_norm_mbox_conf_perm"
  type: "Permute"
  bottom: "conv4_3_norm_mbox_conf"
  top: "conv4_3_norm_mbox_conf_perm"
  permute_param {
    order: 0
    order: 2
    order: 3
    order: 1
  }
}
layer {
  name: "conv4_3_norm_mbox_conf_flat"
  type: "Flatten"
  bottom: "conv4_3_norm_mbox_conf_perm"
  top: "conv4_3_norm_mbox_conf_flat"
  flatten_param {
    axis: 1
  }
}
layer {
  name: "conv4_3_norm_mbox_priorbox"
  type: "PriorBox"
  bottom: "conv4_3_norm"
  bottom: "data"
  top: "conv4_3_norm_mbox_priorbox"
  prior_box_param {
    min_size: 30
    max_size: 60
    aspect_ratio: 2
    flip: true
    clip: false
    variance: 0.1
    variance: 0.1
    variance: 0.2
    variance: 0.2
    step: 8
    offset: 0.5
  }
}
layer {
  name: "fc7_mbox_loc"
  type: "Convolution"
  bottom: "fc7"
  top: "fc7_mbox_loc"
  param {
    lr_mult: 1
    decay_mult: 1
  }
  param {
    lr_mult: 2
    decay_mult: 0
  }
  convolution_param {
    num_output: 24
    pad: 1
    kernel_size: 3
    stride: 1
    weight_filler {
      type: "xavier"
    }
    bias_filler {
      type: "constant"
      value: 0
    }
  }
}
layer {
  name: "fc7_mbox_loc_perm"
  type: "Permute"
  bottom: "fc7_mbox_loc"
  top: "fc7_mbox_loc_perm"
  permute_param {
    order: 0
    order: 2
    order: 3
    order: 1
  }
}
layer {
  name: "fc7_mbox_loc_flat"
  type: "Flatten"
  bottom: "fc7_mbox_loc_perm"
  top: "fc7_mbox_loc_flat"
  flatten_param {
    axis: 1
  }
}
layer {
  name: "fc7_mbox_conf"
  type: "Convolution"
  bottom: "fc7"
  top: "fc7_mbox_conf"
  param {
    lr_mult: 1
    decay_mult: 1
  }
  param {
    lr_mult: 2
    decay_mult: 0
  }
  convolution_param {
    num_output: 66
    pad: 1
    kernel_size: 3
    stride: 1
    weight_filler {
      type: "xavier"
    }
    bias_filler {
      type: "constant"
      value: 0
    }
  }
}
layer {
  name: "fc7_mbox_conf_perm"
  type: "Permute"
  bottom: "fc7_mbox_conf"
  top: "fc7_mbox_conf_perm"
  permute_param {
    order: 0
    order: 2
    order: 3
    order: 1
  }
}
layer {
  name: "fc7_mbox_conf_flat"
  type: "Flatten"
  bottom: "fc7_mbox_conf_perm"
  top: "fc7_mbox_conf_flat"
  flatten_param {
    axis: 1
  }
}
layer {
  name: "fc7_mbox_priorbox"
  type: "PriorBox"
  bottom: "fc7"
  bottom: "data"
  top: "fc7_mbox_priorbox"
  prior_box_param {
    min_size: 60
    max_size: 111
    aspect_ratio: 2
    aspect_ratio: 3
    flip: true
    clip: false
    variance: 0.1
    variance: 0.1
    variance: 0.2
    variance: 0.2
    step: 16
    offset: 0.5
  }
}
layer {
  name: "conv6_2_mbox_loc"
  type: "Convolution"
  bottom: "conv6_2"
  top: "conv6_2_mbox_loc"
  param {
    lr_mult: 1
    decay_mult: 1
  }
  param {
    lr_mult: 2
    decay_mult: 0
  }
  convolution_param {
    num_output: 24
    pad: 1
    kernel_size: 3
    stride: 1
    weight_filler {
      type: "xavier"
    }
    bias_filler {
      type: "constant"
      value: 0
    }
  }
}
layer {
  name: "conv6_2_mbox_loc_perm"
  type: "Permute"
  bottom: "conv6_2_mbox_loc"
  top: "conv6_2_mbox_loc_perm"
  permute_param {
    order: 0
    order: 2
    order: 3
    order: 1
  }
}
layer {
  name: "conv6_2_mbox_loc_flat"
  type: "Flatten"
  bottom: "conv6_2_mbox_loc_perm"
  top: "conv6_2_mbox_loc_flat"
  flatten_param {
    axis: 1
  }
}
layer {
  name: "conv6_2_mbox_conf"
  type: "Convolution"
  bottom: "conv6_2"
  top: "conv6_2_mbox_conf"
  param {
    lr_mult: 1
    decay_mult: 1
  }
  param {
    lr_mult: 2
    decay_mult: 0
  }
  convolution_param {
    num_output: 66
    pad: 1
    kernel_size: 3
    stride: 1
    weight_filler {
      type: "xavier"
    }
    bias_filler {
      type: "constant"
      value: 0
    }
  }
}
layer {
  name: "conv6_2_mbox_conf_perm"
  type: "Permute"
  bottom: "conv6_2_mbox_conf"
  top: "conv6_2_mbox_conf_perm"
  permute_param {
    order: 0
    order: 2
    order: 3
    order: 1
  }
}
layer {
  name: "conv6_2_mbox_conf_flat"
  type: "Flatten"
  bottom: "conv6_2_mbox_conf_perm"
  top: "conv6_2_mbox_conf_flat"
  flatten_param {
    axis: 1
  }
}
layer {
  name: "conv6_2_mbox_priorbox"
  type: "PriorBox"
  bottom: "conv6_2"
  bottom: "data"
  top: "conv6_2_mbox_priorbox"
  prior_box_param {
    min_size: 111
    max_size: 162
    aspect_ratio: 2
    aspect_ratio: 3
    flip: true
    clip: false
    variance: 0.1
    variance: 0.1
    variance: 0.2
    variance: 0.2
    step: 32
    offset: 0.5
  }
}
layer {
  name: "conv7_2_mbox_loc"
  type: "Convolution"
  bottom: "conv7_2"
  top: "conv7_2_mbox_loc"
  param {
    lr_mult: 1
    decay_mult: 1
  }
  param {
    lr_mult: 2
    decay_mult: 0
  }
  convolution_param {
    num_output: 24
    pad: 1
    kernel_size: 3
    stride: 1
    weight_filler {
      type: "xavier"
    }
    bias_filler {
      type: "constant"
      value: 0
    }
  }
}
layer {
  name: "conv7_2_mbox_loc_perm"
  type: "Permute"
  bottom: "conv7_2_mbox_loc"
  top: "conv7_2_mbox_loc_perm"
  permute_param {
    order: 0
    order: 2
    order: 3
    order: 1
  }
}
layer {
  name: "conv7_2_mbox_loc_flat"
  type: "Flatten"
  bottom: "conv7_2_mbox_loc_perm"
  top: "conv7_2_mbox_loc_flat"
  flatten_param {
    axis: 1
  }
}
layer {
  name: "conv7_2_mbox_conf"
  type: "Convolution"
  bottom: "conv7_2"
  top: "conv7_2_mbox_conf"
  param {
    lr_mult: 1
    decay_mult: 1
  }
  param {
    lr_mult: 2
    decay_mult: 0
  }
  convolution_param {
    num_output: 66
    pad: 1
    kernel_size: 3
    stride: 1
    weight_filler {
      type: "xavier"
    }
    bias_filler {
      type: "constant"
      value: 0
    }
  }
}
layer {
  name: "conv7_2_mbox_conf_perm"
  type: "Permute"
  bottom: "conv7_2_mbox_conf"
  top: "conv7_2_mbox_conf_perm"
  permute_param {
    order: 0
    order: 2
    order: 3
    order: 1
  }
}
layer {
  name: "conv7_2_mbox_conf_flat"
  type: "Flatten"
  bottom: "conv7_2_mbox_conf_perm"
  top: "conv7_2_mbox_conf_flat"
  flatten_param {
    axis: 1
  }
}
layer {
  name: "conv7_2_mbox_priorbox"
  type: "PriorBox"
  bottom: "conv7_2"
  bottom: "data"
  top: "conv7_2_mbox_priorbox"
  prior_box_param {
    min_size: 162
    max_size: 213
    aspect_ratio: 2
    aspect_ratio: 3
    flip: true
    clip: false
    variance: 0.1
    variance: 0.1
    variance: 0.2
    variance: 0.2
    step: 64
    offset: 0.5
  }
}
layer {
  name: "conv8_2_mbox_loc"
  type: "Convolution"
  bottom: "conv8_2"
  top: "conv8_2_mbox_loc"
  param {
    lr_mult: 1
    decay_mult: 1
  }
  param {
    lr_mult: 2
    decay_mult: 0
  }
  convolution_param {
    num_output: 16
    pad: 1
    kernel_size: 3
    stride: 1
    weight_filler {
      type: "xavier"
    }
    bias_filler {
      type: "constant"
      value: 0
    }
  }
}
layer {
  name: "conv8_2_mbox_loc_perm"
  type: "Permute"
  bottom: "conv8_2_mbox_loc"
  top: "conv8_2_mbox_loc_perm"
  permute_param {
    order: 0
    order: 2
    order: 3
    order: 1
  }
}
layer {
  name: "conv8_2_mbox_loc_flat"
  type: "Flatten"
  bottom: "conv8_2_mbox_loc_perm"
  top: "conv8_2_mbox_loc_flat"
  flatten_param {
    axis: 1
  }
}
layer {
  name: "conv8_2_mbox_conf"
  type: "Convolution"
  bottom: "conv8_2"
  top: "conv8_2_mbox_conf"
  param {
    lr_mult: 1
    decay_mult: 1
  }
  param {
    lr_mult: 2
    decay_mult: 0
  }
  convolution_param {
    num_output: 44
    pad: 1
    kernel_size: 3
    stride: 1
    weight_filler {
      type: "xavier"
    }
    bias_filler {
      type: "constant"
      value: 0
    }
  }
}
layer {
  name: "conv8_2_mbox_conf_perm"
  type: "Permute"
  bottom: "conv8_2_mbox_conf"
  top: "conv8_2_mbox_conf_perm"
  permute_param {
    order: 0
    order: 2
    order: 3
    order: 1
  }
}
layer {
  name: "conv8_2_mbox_conf_flat"
  type: "Flatten"
  bottom: "conv8_2_mbox_conf_perm"
  top: "conv8_2_mbox_conf_flat"
  flatten_param {
    axis: 1
  }
}
layer {
  name: "conv8_2_mbox_priorbox"
  type: "PriorBox"
  bottom: "conv8_2"
  bottom: "data"
  top: "conv8_2_mbox_priorbox"
  prior_box_param {
    min_size: 213
    max_size: 264
    aspect_ratio: 2
    flip: true
    clip: false
    variance: 0.1
    variance: 0.1
    variance: 0.2
    variance: 0.2
    step: 100
    offset: 0.5
  }
}
layer {
  name: "conv9_2_mbox_loc"
  type: "Convolution"
  bottom: "conv9_2"
  top: "conv9_2_mbox_loc"
  param {
    lr_mult: 1
    decay_mult: 1
  }
  param {
    lr_mult: 2
    decay_mult: 0
  }
  convolution_param {
    num_output: 16
    pad: 1
    kernel_size: 3
    stride: 1
    weight_filler {
      type: "xavier"
    }
    bias_filler {
      type: "constant"
      value: 0
    }
  }
}
layer {
  name: "conv9_2_mbox_loc_perm"
  type: "Permute"
  bottom: "conv9_2_mbox_loc"
  top: "conv9_2_mbox_loc_perm"
  permute_param {
    order: 0
    order: 2
    order: 3
    order: 1
  }
}
layer {
  name: "conv9_2_mbox_loc_flat"
  type: "Flatten"
  bottom: "conv9_2_mbox_loc_perm"
  top: "conv9_2_mbox_loc_flat"
  flatten_param {
    axis: 1
  }
}
layer {
  name: "conv9_2_mbox_conf"
  type: "Convolution"
  bottom: "conv9_2"
  top: "conv9_2_mbox_conf"
  param {
    lr_mult: 1
    decay_mult: 1
  }
  param {
    lr_mult: 2
    decay_mult: 0
  }
  convolution_param {
    num_output: 44
    pad: 1
    kernel_size: 3
    stride: 1
    weight_filler {
      type: "xavier"
    }
    bias_filler {
      type: "constant"
      value: 0
    }
  }
}
layer {
  name: "conv9_2_mbox_conf_perm"
  type: "Permute"
  bottom: "conv9_2_mbox_conf"
  top: "conv9_2_mbox_conf_perm"
  permute_param {
    order: 0
    order: 2
    order: 3
    order: 1
  }
}
layer {
  name: "conv9_2_mbox_conf_flat"
  type: "Flatten"
  bottom: "conv9_2_mbox_conf_perm"
  top: "conv9_2_mbox_conf_flat"
  flatten_param {
    axis: 1
  }
}
layer {
  name: "conv9_2_mbox_priorbox"
  type: "PriorBox"
  bottom: "conv9_2"
  bottom: "data"
  top: "conv9_2_mbox_priorbox"
  prior_box_param {
    min_size: 264
    max_size: 315
    aspect_ratio: 2
    flip: true
    clip: false
    variance: 0.1
    variance: 0.1
    variance: 0.2
    variance: 0.2
    step: 300
    offset: 0.5
  }
}
layer {
  name: "mbox_loc"
  type: "Concat"
  bottom: "conv4_3_norm_mbox_loc_flat"
  bottom: "fc7_mbox_loc_flat"
  bottom: "conv6_2_mbox_loc_flat"
  bottom: "conv7_2_mbox_loc_flat"
  bottom: "conv8_2_mbox_loc_flat"
  bottom: "conv9_2_mbox_loc_flat"
  top: "mbox_loc"
  concat_param {
    axis: 1
  }
}
layer {
  name: "mbox_conf"
  type: "Concat"
  bottom: "conv4_3_norm_mbox_conf_flat"
  bottom: "fc7_mbox_conf_flat"
  bottom: "conv6_2_mbox_conf_flat"
  bottom: "conv7_2_mbox_conf_flat"
  bottom: "conv8_2_mbox_conf_flat"
  bottom: "conv9_2_mbox_conf_flat"
  top: "mbox_conf"
  concat_param {
    axis: 1
  }
}
layer {
  name: "mbox_priorbox"
  type: "Concat"
  bottom: "conv4_3_norm_mbox_priorbox"
  bottom: "fc7_mbox_pr
I0324 11:26:50.090394 17114 layer_factory.hpp:77] Creating layer data
I0324 11:26:50.090951 17114 net.cpp:100] Creating Layer data
I0324 11:26:50.090970 17114 net.cpp:408] data -> data
I0324 11:26:50.091008 17114 net.cpp:408] data -> label
I0324 11:26:50.118875 17128 db_lmdb.cpp:35] Opened lmdb examples/NWPU_VHR/NWPU_VHR_trainval_lmdb
I0324 11:26:50.153834 17114 annotated_data_layer.cpp:62] output data size: 32,3,300,300
I0324 11:26:50.233201 17114 net.cpp:150] Setting up data
I0324 11:26:50.233245 17114 net.cpp:157] Top shape: 32 3 300 300 (8640000)
I0324 11:26:50.233254 17114 net.cpp:157] Top shape: 1 1 4 8 (32)
I0324 11:26:50.233259 17114 net.cpp:165] Memory required for data: 34560128
I0324 11:26:50.233273 17114 layer_factory.hpp:77] Creating layer data_data_0_split
I0324 11:26:50.233294 17114 net.cpp:100] Creating Layer data_data_0_split
I0324 11:26:50.233304 17114 net.cpp:434] data_data_0_split <- data
I0324 11:26:50.233325 17114 net.cpp:408] data_data_0_split -> data_data_0_split_0
I0324 11:26:50.233342 17114 net.cpp:408] data_data_0_split -> data_data_0_split_1
I0324 11:26:50.233352 17114 net.cpp:408] data_data_0_split -> data_data_0_split_2
I0324 11:26:50.233364 17114 net.cpp:408] data_data_0_split -> data_data_0_split_3
I0324 11:26:50.233374 17114 net.cpp:408] data_data_0_split -> data_data_0_split_4
I0324 11:26:50.233384 17114 net.cpp:408] data_data_0_split -> data_data_0_split_5
I0324 11:26:50.233393 17114 net.cpp:408] data_data_0_split -> data_data_0_split_6
I0324 11:26:50.233515 17114 net.cpp:150] Setting up data_data_0_split
I0324 11:26:50.233527 17114 net.cpp:157] Top shape: 32 3 300 300 (8640000)
I0324 11:26:50.233533 17114 net.cpp:157] Top shape: 32 3 300 300 (8640000)
I0324 11:26:50.233539 17114 net.cpp:157] Top shape: 32 3 300 300 (8640000)
I0324 11:26:50.233567 17114 net.cpp:157] Top shape: 32 3 300 300 (8640000)
I0324 11:26:50.233574 17114 net.cpp:157] Top shape: 32 3 300 300 (8640000)
I0324 11:26:50.233580 17114 net.cpp:157] Top shape: 32 3 300 300 (8640000)
I0324 11:26:50.233587 17114 net.cpp:157] Top shape: 32 3 300 300 (8640000)
I0324 11:26:50.233593 17114 net.cpp:165] Memory required for data: 276480128
I0324 11:26:50.233598 17114 layer_factory.hpp:77] Creating layer conv1_1
I0324 11:26:50.233623 17114 net.cpp:100] Creating Layer conv1_1
I0324 11:26:50.233631 17114 net.cpp:434] conv1_1 <- data_data_0_split_0
I0324 11:26:50.233640 17114 net.cpp:408] conv1_1 -> conv1_1
I0324 11:26:50.997460 17114 net.cpp:150] Setting up conv1_1
I0324 11:26:50.997530 17114 net.cpp:157] Top shape: 32 64 300 300 (184320000)
I0324 11:26:50.997550 17114 net.cpp:165] Memory required for data: 1013760128
I0324 11:26:50.997586 17114 layer_factory.hpp:77] Creating layer relu1_1
I0324 11:26:50.997613 17114 net.cpp:100] Creating Layer relu1_1
I0324 11:26:50.997632 17114 net.cpp:434] relu1_1 <- conv1_1
I0324 11:26:50.997653 17114 net.cpp:395] relu1_1 -> conv1_1 (in-place)
I0324 11:26:50.998574 17114 net.cpp:150] Setting up relu1_1
I0324 11:26:50.998607 17114 net.cpp:157] Top shape: 32 64 300 300 (184320000)
I0324 11:26:50.998625 17114 net.cpp:165] Memory required for data: 1751040128
I0324 11:26:50.998642 17114 layer_factory.hpp:77] Creating layer conv1_2
I0324 11:26:50.998673 17114 net.cpp:100] Creating Layer conv1_2
I0324 11:26:50.998692 17114 net.cpp:434] conv1_2 <- conv1_1
I0324 11:26:50.998713 17114 net.cpp:408] conv1_2 -> conv1_2
I0324 11:26:51.001757 17114 net.cpp:150] Setting up conv1_2
I0324 11:26:51.001806 17114 net.cpp:157] Top shape: 32 64 300 300 (184320000)
I0324 11:26:51.001824 17114 net.cpp:165] Memory required for data: 2488320128
I0324 11:26:51.001852 17114 layer_factory.hpp:77] Creating layer relu1_2
I0324 11:26:51.001874 17114 net.cpp:100] Creating Layer relu1_2
I0324 11:26:51.001893 17114 net.cpp:434] relu1_2 <- conv1_2
I0324 11:26:51.001911 17114 net.cpp:395] relu1_2 -> conv1_2 (in-place)
I0324 11:26:51.002130 17114 net.cpp:150] Setting up relu1_2
I0324 11:26:51.002156 17114 net.cpp:157] Top shape: 32 64 300 300 (184320000)
I0324 11:26:51.002173 17114 net.cpp:165] Memory required for data: 3225600128
I0324 11:26:51.002190 17114 layer_factory.hpp:77] Creating layer pool1
I0324 11:26:51.002210 17114 net.cpp:100] Creating Layer pool1
I0324 11:26:51.002228 17114 net.cpp:434] pool1 <- conv1_2
I0324 11:26:51.002248 17114 net.cpp:408] pool1 -> pool1
I0324 11:26:51.002324 17114 net.cpp:150] Setting up pool1
I0324 11:26:51.002347 17114 net.cpp:157] Top shape: 32 64 150 150 (46080000)
I0324 11:26:51.002363 17114 net.cpp:165] Memory required for data: 3409920128
I0324 11:26:51.002380 17114 layer_factory.hpp:77] Creating layer conv2_1
I0324 11:26:51.002405 17114 net.cpp:100] Creating Layer conv2_1
I0324 11:26:51.002423 17114 net.cpp:434] conv2_1 <- pool1
I0324 11:26:51.002442 17114 net.cpp:408] conv2_1 -> conv2_1
I0324 11:26:51.005242 17114 net.cpp:150] Setting up conv2_1
I0324 11:26:51.005280 17114 net.cpp:157] Top shape: 32 128 150 150 (92160000)
I0324 11:26:51.005298 17114 net.cpp:165] Memory required for data: 3778560128
I0324 11:26:51.005324 17114 layer_factory.hpp:77] Creating layer relu2_1
I0324 11:26:51.005349 17114 net.cpp:100] Creating Layer relu2_1
I0324 11:26:51.005367 17114 net.cpp:434] relu2_1 <- conv2_1
I0324 11:26:51.005386 17114 net.cpp:395] relu2_1 -> conv2_1 (in-place)
I0324 11:26:51.005602 17114 net.cpp:150] Setting up relu2_1
I0324 11:26:51.005630 17114 net.cpp:157] Top shape: 32 128 150 150 (92160000)
I0324 11:26:51.005646 17114 net.cpp:165] Memory required for data: 4147200128
I0324 11:26:51.005663 17114 layer_factory.hpp:77] Creating layer conv2_2
I0324 11:26:51.005687 17114 net.cpp:100] Creating Layer conv2_2
I0324 11:26:51.005705 17114 net.cpp:434] conv2_2 <- conv2_1
I0324 11:26:51.005724 17114 net.cpp:408] conv2_2 -> conv2_2
I0324 11:26:51.009208 17114 net.cpp:150] Setting up conv2_2
I0324 11:26:51.009258 17114 net.cpp:157] Top shape: 32 128 150 150 (92160000)
I0324 11:26:51.009290 17114 net.cpp:165] Memory required for data: 4515840128
I0324 11:26:51.009312 17114 layer_factory.hpp:77] Creating layer relu2_2
I0324 11:26:51.009333 17114 net.cpp:100] Creating Layer relu2_2
I0324 11:26:51.009351 17114 net.cpp:434] relu2_2 <- conv2_2
I0324 11:26:51.009369 17114 net.cpp:395] relu2_2 -> conv2_2 (in-place)
I0324 11:26:51.010247 17114 net.cpp:150] Setting up relu2_2
I0324 11:26:51.010279 17114 net.cpp:157] Top shape: 32 128 150 150 (92160000)
I0324 11:26:51.010298 17114 net.cpp:165] Memory required for data: 4884480128
I0324 11:26:51.010315 17114 layer_factory.hpp:77] Creating layer pool2
I0324 11:26:51.010335 17114 net.cpp:100] Creating Layer pool2
I0324 11:26:51.010351 17114 net.cpp:434] pool2 <- conv2_2
I0324 11:26:51.010370 17114 net.cpp:408] pool2 -> pool2
I0324 11:26:51.010437 17114 net.cpp:150] Setting up pool2
I0324 11:26:51.010459 17114 net.cpp:157] Top shape: 32 128 75 75 (23040000)
I0324 11:26:51.010476 17114 net.cpp:165] Memory required for data: 4976640128
I0324 11:26:51.010491 17114 layer_factory.hpp:77] Creating layer conv3_1
I0324 11:26:51.010515 17114 net.cpp:100] Creating Layer conv3_1
I0324 11:26:51.010532 17114 net.cpp:434] conv3_1 <- pool2
I0324 11:26:51.010550 17114 net.cpp:408] conv3_1 -> conv3_1
I0324 11:26:51.017514 17114 net.cpp:150] Setting up conv3_1
I0324 11:26:51.017587 17114 net.cpp:157] Top shape: 32 256 75 75 (46080000)
I0324 11:26:51.017611 17114 net.cpp:165] Memory required for data: 5160960128
I0324 11:26:51.017647 17114 layer_factory.hpp:77] Creating layer relu3_1
I0324 11:26:51.017678 17114 net.cpp:100] Creating Layer relu3_1
I0324 11:26:51.017702 17114 net.cpp:434] relu3_1 <- conv3_1
I0324 11:26:51.017758 17114 net.cpp:395] relu3_1 -> conv3_1 (in-place)
I0324 11:26:51.018085 17114 net.cpp:150] Setting up relu3_1
I0324 11:26:51.018115 17114 net.cpp:157] Top shape: 32 256 75 75 (46080000)
I0324 11:26:51.018136 17114 net.cpp:165] Memory required for data: 5345280128
I0324 11:26:51.018155 17114 layer_factory.hpp:77] Creating layer conv3_2_depthwise
I0324 11:26:51.018185 17114 net.cpp:100] Creating Layer conv3_2_depthwise
I0324 11:26:51.018208 17114 net.cpp:434] conv3_2_depthwise <- conv3_1
I0324 11:26:51.018234 17114 net.cpp:408] conv3_2_depthwise -> conv3_2_3x3
I0324 11:26:51.018623 17114 net.cpp:150] Setting up conv3_2_depthwise
I0324 11:26:51.018652 17114 net.cpp:157] Top shape: 32 256 75 75 (46080000)
I0324 11:26:51.018672 17114 net.cpp:165] Memory required for data: 5529600128
I0324 11:26:51.018697 17114 layer_factory.hpp:77] Creating layer conv3_2_3x3_relu
I0324 11:26:51.018721 17114 net.cpp:100] Creating Layer conv3_2_3x3_relu
I0324 11:26:51.018741 17114 net.cpp:434] conv3_2_3x3_relu <- conv3_2_3x3
I0324 11:26:51.018764 17114 net.cpp:395] conv3_2_3x3_relu -> conv3_2_3x3 (in-place)
I0324 11:26:51.019050 17114 net.cpp:150] Setting up conv3_2_3x3_relu
I0324 11:26:51.019079 17114 net.cpp:157] Top shape: 32 256 75 75 (46080000)
I0324 11:26:51.019098 17114 net.cpp:165] Memory required for data: 5713920128
I0324 11:26:51.019119 17114 layer_factory.hpp:77] Creating layer conv3_2_1x1
I0324 11:26:51.019151 17114 net.cpp:100] Creating Layer conv3_2_1x1
I0324 11:26:51.019173 17114 net.cpp:434] conv3_2_1x1 <- conv3_2_3x3
I0324 11:26:51.019197 17114 net.cpp:408] conv3_2_1x1 -> conv3_2
I0324 11:26:51.022238 17114 net.cpp:150] Setting up conv3_2_1x1
I0324 11:26:51.022280 17114 net.cpp:157] Top shape: 32 256 75 75 (46080000)
I0324 11:26:51.022300 17114 net.cpp:165] Memory required for data: 5898240128
I0324 11:26:51.022322 17114 layer_factory.hpp:77] Creating layer relu3_2
I0324 11:26:51.022343 17114 net.cpp:100] Creating Layer relu3_2
I0324 11:26:51.022361 17114 net.cpp:434] relu3_2 <- conv3_2
I0324 11:26:51.022382 17114 net.cpp:395] relu3_2 -> conv3_2 (in-place)
I0324 11:26:51.023288 17114 net.cpp:150] Setting up relu3_2
I0324 11:26:51.023319 17114 net.cpp:157] Top shape: 32 256 75 75 (46080000)
I0324 11:26:51.023337 17114 net.cpp:165] Memory required for data: 6082560128
I0324 11:26:51.023353 17114 layer_factory.hpp:77] Creating layer conv3_3_depthwise
I0324 11:26:51.023396 17114 net.cpp:100] Creating Layer conv3_3_depthwise
I0324 11:26:51.023414 17114 net.cpp:434] conv3_3_depthwise <- conv3_2
I0324 11:26:51.023437 17114 net.cpp:408] conv3_3_depthwise -> conv3_3_3x3
I0324 11:26:51.023763 17114 net.cpp:150] Setting up conv3_3_depthwise
I0324 11:26:51.023789 17114 net.cpp:157] Top shape: 32 256 75 75 (46080000)
I0324 11:26:51.023805 17114 net.cpp:165] Memory required for data: 6266880128
I0324 11:26:51.023826 17114 layer_factory.hpp:77] Creating layer conv3_3_3x3_relu
I0324 11:26:51.023845 17114 net.cpp:100] Creating Layer conv3_3_3x3_relu
I0324 11:26:51.023861 17114 net.cpp:434] conv3_3_3x3_relu <- conv3_3_3x3
I0324 11:26:51.023880 17114 net.cpp:395] conv3_3_3x3_relu -> conv3_3_3x3 (in-place)
I0324 11:26:51.024130 17114 net.cpp:150] Setting up conv3_3_3x3_relu
I0324 11:26:51.024158 17114 net.cpp:157] Top shape: 32 256 75 75 (46080000)
I0324 11:26:51.024175 17114 net.cpp:165] Memory required for data: 6451200128
I0324 11:26:51.024193 17114 layer_factory.hpp:77] Creating layer conv3_3_1x1
I0324 11:26:51.024221 17114 net.cpp:100] Creating Layer conv3_3_1x1
I0324 11:26:51.024240 17114 net.cpp:434] conv3_3_1x1 <- conv3_3_3x3
I0324 11:26:51.024261 17114 net.cpp:408] conv3_3_1x1 -> conv3_3
I0324 11:26:51.026540 17114 net.cpp:150] Setting up conv3_3_1x1
I0324 11:26:51.026579 17114 net.cpp:157] Top shape: 32 256 75 75 (46080000)
I0324 11:26:51.026597 17114 net.cpp:165] Memory required for data: 6635520128
I0324 11:26:51.026625 17114 layer_factory.hpp:77] Creating layer relu3_3
I0324 11:26:51.026646 17114 net.cpp:100] Creating Layer relu3_3
I0324 11:26:51.026666 17114 net.cpp:434] relu3_3 <- conv3_3
I0324 11:26:51.026688 17114 net.cpp:395] relu3_3 -> conv3_3 (in-place)
I0324 11:26:51.026921 17114 net.cpp:150] Setting up relu3_3
I0324 11:26:51.026957 17114 net.cpp:157] Top shape: 32 256 75 75 (46080000)
I0324 11:26:51.026974 17114 net.cpp:165] Memory required for data: 6819840128
I0324 11:26:51.026989 17114 layer_factory.hpp:77] Creating layer pool3
I0324 11:26:51.027011 17114 net.cpp:100] Creating Layer pool3
I0324 11:26:51.027029 17114 net.cpp:434] pool3 <- conv3_3
I0324 11:26:51.027056 17114 net.cpp:408] pool3 -> pool3
I0324 11:26:51.027128 17114 net.cpp:150] Setting up pool3
I0324 11:26:51.027153 17114 net.cpp:157] Top shape: 32 256 38 38 (11829248)
I0324 11:26:51.027169 17114 net.cpp:165] Memory required for data: 6867157120
I0324 11:26:51.027186 17114 layer_factory.hpp:77] Creating layer conv4_1_depthwise
I0324 11:26:51.027211 17114 net.cpp:100] Creating Layer conv4_1_depthwise
I0324 11:26:51.027230 17114 net.cpp:434] conv4_1_depthwise <- pool3
I0324 11:26:51.027252 17114 net.cpp:408] conv4_1_depthwise -> conv4_1_3x3
I0324 11:26:51.027555 17114 net.cpp:150] Setting up conv4_1_depthwise
I0324 11:26:51.027580 17114 net.cpp:157] Top shape: 32 256 38 38 (11829248)
I0324 11:26:51.027597 17114 net.cpp:165] Memory required for data: 6914474112
I0324 11:26:51.027616 17114 layer_factory.hpp:77] Creating layer conv4_1_3x3_relu
I0324 11:26:51.027634 17114 net.cpp:100] Creating Layer conv4_1_3x3_relu
I0324 11:26:51.027650 17114 net.cpp:434] conv4_1_3x3_relu <- conv4_1_3x3
I0324 11:26:51.027667 17114 net.cpp:395] conv4_1_3x3_relu -> conv4_1_3x3 (in-place)
I0324 11:26:51.027901 17114 net.cpp:150] Setting up conv4_1_3x3_relu
I0324 11:26:51.027932 17114 net.cpp:157] Top shape: 32 256 38 38 (11829248)
I0324 11:26:51.027950 17114 net.cpp:165] Memory required for data: 6961791104
I0324 11:26:51.027966 17114 layer_factory.hpp:77] Creating layer conv4_1_1x1
I0324 11:26:51.027989 17114 net.cpp:100] Creating Layer conv4_1_1x1
I0324 11:26:51.028007 17114 net.cpp:434] conv4_1_1x1 <- conv4_1_3x3
I0324 11:26:51.028025 17114 net.cpp:408] conv4_1_1x1 -> conv4_1
I0324 11:26:51.032035 17114 net.cpp:150] Setting up conv4_1_1x1
I0324 11:26:51.032095 17114 net.cpp:157] Top shape: 32 512 38 38 (23658496)
I0324 11:26:51.032119 17114 net.cpp:165] Memory required for data: 7056425088
I0324 11:26:51.032140 17114 layer_factory.hpp:77] Creating layer relu4_1
I0324 11:26:51.032168 17114 net.cpp:100] Creating Layer relu4_1
I0324 11:26:51.032194 17114 net.cpp:434] relu4_1 <- conv4_1
I0324 11:26:51.032213 17114 net.cpp:395] relu4_1 -> conv4_1 (in-place)
I0324 11:26:51.033144 17114 net.cpp:150] Setting up relu4_1
I0324 11:26:51.033175 17114 net.cpp:157] Top shape: 32 512 38 38 (23658496)
I0324 11:26:51.033193 17114 net.cpp:165] Memory required for data: 7151059072
I0324 11:26:51.033210 17114 layer_factory.hpp:77] Creating layer conv4_2
I0324 11:26:51.033241 17114 net.cpp:100] Creating Layer conv4_2
I0324 11:26:51.033257 17114 net.cpp:434] conv4_2 <- conv4_1
I0324 11:26:51.033277 17114 net.cpp:408] conv4_2 -> conv4_2
I0324 11:26:51.059476 17114 net.cpp:150] Setting up conv4_2
I0324 11:26:51.059553 17114 net.cpp:157] Top shape: 32 512 38 38 (23658496)
I0324 11:26:51.059573 17114 net.cpp:165] Memory required for data: 7245693056
I0324 11:26:51.059598 17114 layer_factory.hpp:77] Creating layer relu4_2
I0324 11:26:51.059625 17114 net.cpp:100] Creating Layer relu4_2
I0324 11:26:51.059644 17114 net.cpp:434] relu4_2 <- conv4_2
I0324 11:26:51.059664 17114 net.cpp:395] relu4_2 -> conv4_2 (in-place)
I0324 11:26:51.059931 17114 net.cpp:150] Setting up relu4_2
I0324 11:26:51.059958 17114 net.cpp:157] Top shape: 32 512 38 38 (23658496)
I0324 11:26:51.059978 17114 net.cpp:165] Memory required for data: 7340327040
I0324 11:26:51.059993 17114 layer_factory.hpp:77] Creating layer conv4_3
I0324 11:26:51.060022 17114 net.cpp:100] Creating Layer conv4_3
I0324 11:26:51.060040 17114 net.cpp:434] conv4_3 <- conv4_2
I0324 11:26:51.060060 17114 net.cpp:408] conv4_3 -> conv4_3
I0324 11:26:51.086493 17114 net.cpp:150] Setting up conv4_3
I0324 11:26:51.086575 17114 net.cpp:157] Top shape: 32 512 38 38 (23658496)
I0324 11:26:51.086594 17114 net.cpp:165] Memory required for data: 7434961024
I0324 11:26:51.086618 17114 layer_factory.hpp:77] Creating layer relu4_3
I0324 11:26:51.086642 17114 net.cpp:100] Creating Layer relu4_3
I0324 11:26:51.086660 17114 net.cpp:434] relu4_3 <- conv4_3
I0324 11:26:51.086681 17114 net.cpp:395] relu4_3 -> conv4_3 (in-place)
I0324 11:26:51.086943 17114 net.cpp:150] Setting up relu4_3
I0324 11:26:51.086971 17114 net.cpp:157] Top shape: 32 512 38 38 (23658496)
I0324 11:26:51.086988 17114 net.cpp:165] Memory required for data: 7529595008
I0324 11:26:51.087005 17114 layer_factory.hpp:77] Creating layer conv4_3_relu4_3_0_split
I0324 11:26:51.087028 17114 net.cpp:100] Creating Layer conv4_3_relu4_3_0_split
I0324 11:26:51.087044 17114 net.cpp:434] conv4_3_relu4_3_0_split <- conv4_3
I0324 11:26:51.087062 17114 net.cpp:408] conv4_3_relu4_3_0_split -> conv4_3_relu4_3_0_split_0
I0324 11:26:51.087086 17114 net.cpp:408] conv4_3_relu4_3_0_split -> conv4_3_relu4_3_0_split_1
I0324 11:26:51.087157 17114 net.cpp:150] Setting up conv4_3_relu4_3_0_split
I0324 11:26:51.087179 17114 net.cpp:157] Top shape: 32 512 38 38 (23658496)
I0324 11:26:51.087198 17114 net.cpp:157] Top shape: 32 512 38 38 (23658496)
I0324 11:26:51.087213 17114 net.cpp:165] Memory required for data: 7718862976
I0324 11:26:51.087229 17114 layer_factory.hpp:77] Creating layer pool4
I0324 11:26:51.087261 17114 net.cpp:100] Creating Layer pool4
I0324 11:26:51.087280 17114 net.cpp:434] pool4 <- conv4_3_relu4_3_0_split_0
I0324 11:26:51.087298 17114 net.cpp:408] pool4 -> pool4
I0324 11:26:51.087363 17114 net.cpp:150] Setting up pool4
I0324 11:26:51.087385 17114 net.cpp:157] Top shape: 32 512 19 19 (5914624)
I0324 11:26:51.087401 17114 net.cpp:165] Memory required for data: 7742521472
I0324 11:26:51.087419 17114 layer_factory.hpp:77] Creating layer conv5_1_depthwise
I0324 11:26:51.087443 17114 net.cpp:100] Creating Layer conv5_1_depthwise
I0324 11:26:51.087461 17114 net.cpp:434] conv5_1_depthwise <- pool4
I0324 11:26:51.087483 17114 net.cpp:408] conv5_1_depthwise -> conv5_1_3x3
I0324 11:26:51.087831 17114 net.cpp:150] Setting up conv5_1_depthwise
I0324 11:26:51.087857 17114 net.cpp:157] Top shape: 32 512 19 19 (5914624)
I0324 11:26:51.087872 17114 net.cpp:165] Memory required for data: 7766179968
I0324 11:26:51.087891 17114 layer_factory.hpp:77] Creating layer conv5_1_3x3_relu
I0324 11:26:51.087934 17114 net.cpp:100] Creating Layer conv5_1_3x3_relu
I0324 11:26:51.087952 17114 net.cpp:434] conv5_1_3x3_relu <- conv5_1_3x3
I0324 11:26:51.087970 17114 net.cpp:395] conv5_1_3x3_relu -> conv5_1_3x3 (in-place)
I0324 11:26:51.089040 17114 net.cpp:150] Setting up conv5_1_3x3_relu
I0324 11:26:51.089079 17114 net.cpp:157] Top shape: 32 512 19 19 (5914624)
I0324 11:26:51.089097 17114 net.cpp:165] Memory required for data: 7789838464
I0324 11:26:51.089115 17114 layer_factory.hpp:77] Creating layer conv5_1_1x1
I0324 11:26:51.089143 17114 net.cpp:100] Creating Layer conv5_1_1x1
I0324 11:26:51.089164 17114 net.cpp:434] conv5_1_1x1 <- conv5_1_3x3
I0324 11:26:51.089186 17114 net.cpp:408] conv5_1_1x1 -> conv5_1
I0324 11:26:51.095429 17114 net.cpp:150] Setting up conv5_1_1x1
I0324 11:26:51.095505 17114 net.cpp:157] Top shape: 32 512 19 19 (5914624)
I0324 11:26:51.095525 17114 net.cpp:165] Memory required for data: 7813496960
I0324 11:26:51.095551 17114 layer_factory.hpp:77] Creating layer relu5_1
I0324 11:26:51.095576 17114 net.cpp:100] Creating Layer relu5_1
I0324 11:26:51.095593 17114 net.cpp:434] relu5_1 <- conv5_1
I0324 11:26:51.095614 17114 net.cpp:395] relu5_1 -> conv5_1 (in-place)
I0324 11:26:51.095903 17114 net.cpp:150] Setting up relu5_1
I0324 11:26:51.095932 17114 net.cpp:157] Top shape: 32 512 19 19 (5914624)
I0324 11:26:51.095947 17114 net.cpp:165] Memory required for data: 7837155456
I0324 11:26:51.095965 17114 layer_factory.hpp:77] Creating layer conv5_2_depthwise
I0324 11:26:51.095990 17114 net.cpp:100] Creating Layer conv5_2_depthwise
I0324 11:26:51.096007 17114 net.cpp:434] conv5_2_depthwise <- conv5_1
I0324 11:26:51.096030 17114 net.cpp:408] conv5_2_depthwise -> conv5_2_3x3
I0324 11:26:51.096410 17114 net.cpp:150] Setting up conv5_2_depthwise
I0324 11:26:51.096436 17114 net.cpp:157] Top shape: 32 512 19 19 (5914624)
I0324 11:26:51.096453 17114 net.cpp:165] Memory required for data: 7860813952
I0324 11:26:51.096472 17114 layer_factory.hpp:77] Creating layer conv5_2_3x3_relu
I0324 11:26:51.096493 17114 net.cpp:100] Creating Layer conv5_2_3x3_relu
I0324 11:26:51.096508 17114 net.cpp:434] conv5_2_3x3_relu <- conv5_2_3x3
I0324 11:26:51.096526 17114 net.cpp:395] conv5_2_3x3_relu -> conv5_2_3x3 (in-place)
I0324 11:26:51.096781 17114 net.cpp:150] Setting up conv5_2_3x3_relu
I0324 11:26:51.096807 17114 net.cpp:157] Top shape: 32 512 19 19 (5914624)
I0324 11:26:51.096824 17114 net.cpp:165] Memory required for data: 7884472448
I0324 11:26:51.096838 17114 layer_factory.hpp:77] Creating layer conv5_2_1x1
I0324 11:26:51.096865 17114 net.cpp:100] Creating Layer conv5_2_1x1
I0324 11:26:51.096884 17114 net.cpp:434] conv5_2_1x1 <- conv5_2_3x3
I0324 11:26:51.096904 17114 net.cpp:408] conv5_2_1x1 -> conv5_2
I0324 11:26:51.101176 17114 net.cpp:150] Setting up conv5_2_1x1
I0324 11:26:51.101251 17114 net.cpp:157] Top shape: 32 512 19 19 (5914624)
I0324 11:26:51.101270 17114 net.cpp:165] Memory required for data: 7908130944
I0324 11:26:51.101307 17114 layer_factory.hpp:77] Creating layer relu5_2
I0324 11:26:51.101335 17114 net.cpp:100] Creating Layer relu5_2
I0324 11:26:51.101352 17114 net.cpp:434] relu5_2 <- conv5_2
I0324 11:26:51.101373 17114 net.cpp:395] relu5_2 -> conv5_2 (in-place)
I0324 11:26:51.102474 17114 net.cpp:150] Setting up relu5_2
I0324 11:26:51.102517 17114 net.cpp:157] Top shape: 32 512 19 19 (5914624)
I0324 11:26:51.102535 17114 net.cpp:165] Memory required for data: 7931789440
I0324 11:26:51.102555 17114 layer_factory.hpp:77] Creating layer conv5_3_depthwise
I0324 11:26:51.102588 17114 net.cpp:100] Creating Layer conv5_3_depthwise
I0324 11:26:51.102607 17114 net.cpp:434] conv5_3_depthwise <- conv5_2
I0324 11:26:51.102632 17114 net.cpp:408] conv5_3_depthwise -> conv5_3_3x3
I0324 11:26:51.103032 17114 net.cpp:150] Setting up conv5_3_depthwise
I0324 11:26:51.103061 17114 net.cpp:157] Top shape: 32 512 19 19 (5914624)
I0324 11:26:51.103078 17114 net.cpp:165] Memory required for data: 7955447936
I0324 11:26:51.103099 17114 layer_factory.hpp:77] Creating layer conv5_3_3x3_relu
I0324 11:26:51.103130 17114 net.cpp:100] Creating Layer conv5_3_3x3_relu
I0324 11:26:51.103158 17114 net.cpp:434] conv5_3_3x3_relu <- conv5_3_3x3
I0324 11:26:51.103178 17114 net.cpp:395] conv5_3_3x3_relu -> conv5_3_3x3 (in-place)
I0324 11:26:51.103443 17114 net.cpp:150] Setting up conv5_3_3x3_relu
I0324 11:26:51.103471 17114 net.cpp:157] Top shape: 32 512 19 19 (5914624)
I0324 11:26:51.103487 17114 net.cpp:165] Memory required for data: 7979106432
I0324 11:26:51.103502 17114 layer_factory.hpp:77] Creating layer conv5_3_1x1
I0324 11:26:51.103528 17114 net.cpp:100] Creating Layer conv5_3_1x1
I0324 11:26:51.103549 17114 net.cpp:434] conv5_3_1x1 <- conv5_3_3x3
I0324 11:26:51.103570 17114 net.cpp:408] conv5_3_1x1 -> conv5_3
I0324 11:26:51.109760 17114 net.cpp:150] Setting up conv5_3_1x1
I0324 11:26:51.109833 17114 net.cpp:157] Top shape: 32 512 19 19 (5914624)
I0324 11:26:51.109851 17114 net.cpp:165] Memory required for data: 8002764928
I0324 11:26:51.109876 17114 layer_factory.hpp:77] Creating layer relu5_3
I0324 11:26:51.109900 17114 net.cpp:100] Creating Layer relu5_3
I0324 11:26:51.109920 17114 net.cpp:434] relu5_3 <- conv5_3
I0324 11:26:51.109941 17114 net.cpp:395] relu5_3 -> conv5_3 (in-place)
I0324 11:26:51.110198 17114 net.cpp:150] Setting up relu5_3
I0324 11:26:51.110225 17114 net.cpp:157] Top shape: 32 512 19 19 (5914624)
I0324 11:26:51.110242 17114 net.cpp:165] Memory required for data: 8026423424
I0324 11:26:51.110258 17114 layer_factory.hpp:77] Creating layer pool5
I0324 11:26:51.110278 17114 net.cpp:100] Creating Layer pool5
I0324 11:26:51.110296 17114 net.cpp:434] pool5 <- conv5_3
I0324 11:26:51.110317 17114 net.cpp:408] pool5 -> pool5
I0324 11:26:51.110394 17114 net.cpp:150] Setting up pool5
I0324 11:26:51.110419 17114 net.cpp:157] Top shape: 32 512 19 19 (5914624)
I0324 11:26:51.110435 17114 net.cpp:165] Memory required for data: 8050081920
I0324 11:26:51.110450 17114 layer_factory.hpp:77] Creating layer fc6_depthwise
I0324 11:26:51.110476 17114 net.cpp:100] Creating Layer fc6_depthwise
I0324 11:26:51.110493 17114 net.cpp:434] fc6_depthwise <- pool5
I0324 11:26:51.110517 17114 net.cpp:408] fc6_depthwise -> fc6_3x3
I0324 11:26:51.110865 17114 net.cpp:150] Setting up fc6_depthwise
I0324 11:26:51.110893 17114 net.cpp:157] Top shape: 32 512 19 19 (5914624)
I0324 11:26:51.110908 17114 net.cpp:165] Memory required for data: 8073740416
I0324 11:26:51.110927 17114 layer_factory.hpp:77] Creating layer fc6_3x3_relu
I0324 11:26:51.110945 17114 net.cpp:100] Creating Layer fc6_3x3_relu
I0324 11:26:51.110962 17114 net.cpp:434] fc6_3x3_relu <- fc6_3x3
I0324 11:26:51.110982 17114 net.cpp:395] fc6_3x3_relu -> fc6_3x3 (in-place)
I0324 11:26:51.112002 17114 net.cpp:150] Setting up fc6_3x3_relu
I0324 11:26:51.112040 17114 net.cpp:157] Top shape: 32 512 19 19 (5914624)
I0324 11:26:51.112061 17114 net.cpp:165] Memory required for data: 8097398912
I0324 11:26:51.112078 17114 layer_factory.hpp:77] Creating layer fc6_1x1
I0324 11:26:51.112107 17114 net.cpp:100] Creating Layer fc6_1x1
I0324 11:26:51.112124 17114 net.cpp:434] fc6_1x1 <- fc6_3x3
I0324 11:26:51.112148 17114 net.cpp:408] fc6_1x1 -> fc6
I0324 11:26:51.118377 17114 net.cpp:150] Setting up fc6_1x1
I0324 11:26:51.118454 17114 net.cpp:157] Top shape: 32 1024 19 19 (11829248)
I0324 11:26:51.118472 17114 net.cpp:165] Memory required for data: 8144715904
I0324 11:26:51.118496 17114 layer_factory.hpp:77] Creating layer relu6
I0324 11:26:51.118521 17114 net.cpp:100] Creating Layer relu6
I0324 11:26:51.118541 17114 net.cpp:434] relu6 <- fc6
I0324 11:26:51.118563 17114 net.cpp:395] relu6 -> fc6 (in-place)
I0324 11:26:51.119670 17114 net.cpp:150] Setting up relu6
I0324 11:26:51.119709 17114 net.cpp:157] Top shape: 32 1024 19 19 (11829248)
I0324 11:26:51.119727 17114 net.cpp:165] Memory required for data: 8192032896
I0324 11:26:51.119745 17114 layer_factory.hpp:77] Creating layer fc7
I0324 11:26:51.119777 17114 net.cpp:100] Creating Layer fc7
I0324 11:26:51.119796 17114 net.cpp:434] fc7 <- fc6
I0324 11:26:51.119820 17114 net.cpp:408] fc7 -> fc7
I0324 11:26:51.133074 17114 net.cpp:150] Setting up fc7
I0324 11:26:51.133154 17114 net.cpp:157] Top shape: 32 1024 19 19 (11829248)
I0324 11:26:51.133188 17114 net.cpp:165] Memory required for data: 8239349888
I0324 11:26:51.133213 17114 layer_factory.hpp:77] Creating layer relu7
I0324 11:26:51.133240 17114 net.cpp:100] Creating Layer relu7
I0324 11:26:51.133261 17114 net.cpp:434] relu7 <- fc7
I0324 11:26:51.133281 17114 net.cpp:395] relu7 -> fc7 (in-place)
I0324 11:26:51.133524 17114 net.cpp:150] Setting up relu7
I0324 11:26:51.133551 17114 net.cpp:157] Top shape: 32 1024 19 19 (11829248)
I0324 11:26:51.133569 17114 net.cpp:165] Memory required for data: 8286666880
I0324 11:26:51.133585 17114 layer_factory.hpp:77] Creating layer fc7_relu7_0_split
I0324 11:26:51.133605 17114 net.cpp:100] Creating Layer fc7_relu7_0_split
I0324 11:26:51.133625 17114 net.cpp:434] fc7_relu7_0_split <- fc7
I0324 11:26:51.133644 17114 net.cpp:408] fc7_relu7_0_split -> fc7_relu7_0_split_0
I0324 11:26:51.133666 17114 net.cpp:408] fc7_relu7_0_split -> fc7_relu7_0_split_1
I0324 11:26:51.133685 17114 net.cpp:408] fc7_relu7_0_split -> fc7_relu7_0_split_2
I0324 11:26:51.133710 17114 net.cpp:408] fc7_relu7_0_split -> fc7_relu7_0_split_3
I0324 11:26:51.133827 17114 net.cpp:150] Setting up fc7_relu7_0_split
I0324 11:26:51.133852 17114 net.cpp:157] Top shape: 32 1024 19 19 (11829248)
I0324 11:26:51.133868 17114 net.cpp:157] Top shape: 32 1024 19 19 (11829248)
I0324 11:26:51.133884 17114 net.cpp:157] Top shape: 32 1024 19 19 (11829248)
I0324 11:26:51.133903 17114 net.cpp:157] Top shape: 32 1024 19 19 (11829248)
I0324 11:26:51.133918 17114 net.cpp:165] Memory required for data: 8475934848
I0324 11:26:51.133932 17114 layer_factory.hpp:77] Creating layer conv6_1
I0324 11:26:51.133960 17114 net.cpp:100] Creating Layer conv6_1
I0324 11:26:51.133980 17114 net.cpp:434] conv6_1 <- fc7_relu7_0_split_0
I0324 11:26:51.133999 17114 net.cpp:408] conv6_1 -> conv6_1
I0324 11:26:51.138729 17114 net.cpp:150] Setting up conv6_1
I0324 11:26:51.138790 17114 net.cpp:157] Top shape: 32 256 19 19 (2957312)
I0324 11:26:51.138810 17114 net.cpp:165] Memory required for data: 8487764096
I0324 11:26:51.138835 17114 layer_factory.hpp:77] Creating layer conv6_1_relu
I0324 11:26:51.138864 17114 net.cpp:100] Creating Layer conv6_1_relu
I0324 11:26:51.138882 17114 net.cpp:434] conv6_1_relu <- conv6_1
I0324 11:26:51.138903 17114 net.cpp:395] conv6_1_relu -> conv6_1 (in-place)
I0324 11:26:51.139150 17114 net.cpp:150] Setting up conv6_1_relu
I0324 11:26:51.139178 17114 net.cpp:157] Top shape: 32 256 19 19 (2957312)
I0324 11:26:51.139194 17114 net.cpp:165] Memory required for data: 8499593344
I0324 11:26:51.139211 17114 layer_factory.hpp:77] Creating layer conv6_2_depthwise
I0324 11:26:51.139240 17114 net.cpp:100] Creating Layer conv6_2_depthwise
I0324 11:26:51.139258 17114 net.cpp:434] conv6_2_depthwise <- conv6_1
I0324 11:26:51.139278 17114 net.cpp:408] conv6_2_depthwise -> conv6_2_3x3
I0324 11:26:51.139624 17114 net.cpp:150] Setting up conv6_2_depthwise
I0324 11:26:51.139652 17114 net.cpp:157] Top shape: 32 256 10 10 (819200)
I0324 11:26:51.139667 17114 net.cpp:165] Memory required for data: 8502870144
I0324 11:26:51.139685 17114 layer_factory.hpp:77] Creating layer conv6_2_3x3_relu
I0324 11:26:51.139706 17114 net.cpp:100] Creating Layer conv6_2_3x3_relu
I0324 11:26:51.139722 17114 net.cpp:434] conv6_2_3x3_relu <- conv6_2_3x3
I0324 11:26:51.139739 17114 net.cpp:395] conv6_2_3x3_relu -> conv6_2_3x3 (in-place)
I0324 11:26:51.140751 17114 net.cpp:150] Setting up conv6_2_3x3_relu
I0324 11:26:51.140786 17114 net.cpp:157] Top shape: 32 256 10 10 (819200)
I0324 11:26:51.140803 17114 net.cpp:165] Memory required for data: 8506146944
I0324 11:26:51.140821 17114 layer_factory.hpp:77] Creating layer conv6_2_1x1
I0324 11:26:51.140848 17114 net.cpp:100] Creating Layer conv6_2_1x1
I0324 11:26:51.140867 17114 net.cpp:434] conv6_2_1x1 <- conv6_2_3x3
I0324 11:26:51.140889 17114 net.cpp:408] conv6_2_1x1 -> conv6_2
I0324 11:26:51.145265 17114 net.cpp:150] Setting up conv6_2_1x1
I0324 11:26:51.145328 17114 net.cpp:157] Top shape: 32 512 10 10 (1638400)
I0324 11:26:51.145357 17114 net.cpp:165] Memory required for data: 8512700544
I0324 11:26:51.145392 17114 layer_factory.hpp:77] Creating layer conv6_2_relu
I0324 11:26:51.145416 17114 net.cpp:100] Creating Layer conv6_2_relu
I0324 11:26:51.145434 17114 net.cpp:434] conv6_2_relu <- conv6_2
I0324 11:26:51.145457 17114 net.cpp:395] conv6_2_relu -> conv6_2 (in-place)
I0324 11:26:51.145699 17114 net.cpp:150] Setting up conv6_2_relu
I0324 11:26:51.145726 17114 net.cpp:157] Top shape: 32 512 10 10 (1638400)
I0324 11:26:51.145761 17114 net.cpp:165] Memory required for data: 8519254144
I0324 11:26:51.145778 17114 layer_factory.hpp:77] Creating layer conv6_2_conv6_2_relu_0_split
I0324 11:26:51.145800 17114 net.cpp:100] Creating Layer conv6_2_conv6_2_relu_0_split
I0324 11:26:51.145818 17114 net.cpp:434] conv6_2_conv6_2_relu_0_split <- conv6_2
I0324 11:26:51.145840 17114 net.cpp:408] conv6_2_conv6_2_relu_0_split -> conv6_2_conv6_2_relu_0_split_0
I0324 11:26:51.145864 17114 net.cpp:408] conv6_2_conv6_2_relu_0_split -> conv6_2_conv6_2_relu_0_split_1
I0324 11:26:51.145884 17114 net.cpp:408] conv6_2_conv6_2_relu_0_split -> conv6_2_conv6_2_relu_0_split_2
I0324 11:26:51.145907 17114 net.cpp:408] conv6_2_conv6_2_relu_0_split -> conv6_2_conv6_2_relu_0_split_3
I0324 11:26:51.146008 17114 net.cpp:150] Setting up conv6_2_conv6_2_relu_0_split
I0324 11:26:51.146030 17114 net.cpp:157] Top shape: 32 512 10 10 (1638400)
I0324 11:26:51.146047 17114 net.cpp:157] Top shape: 32 512 10 10 (1638400)
I0324 11:26:51.146064 17114 net.cpp:157] Top shape: 32 512 10 10 (1638400)
I0324 11:26:51.146080 17114 net.cpp:157] Top shape: 32 512 10 10 (1638400)
I0324 11:26:51.146095 17114 net.cpp:165] Memory required for data: 8545468544
I0324 11:26:51.146111 17114 layer_factory.hpp:77] Creating layer conv7_1
I0324 11:26:51.146137 17114 net.cpp:100] Creating Layer conv7_1
I0324 11:26:51.146154 17114 net.cpp:434] conv7_1 <- conv6_2_conv6_2_relu_0_split_0
I0324 11:26:51.146176 17114 net.cpp:408] conv7_1 -> conv7_1
I0324 11:26:51.148558 17114 net.cpp:150] Setting up conv7_1
I0324 11:26:51.148609 17114 net.cpp:157] Top shape: 32 128 10 10 (409600)
I0324 11:26:51.148627 17114 net.cpp:165] Memory required for data: 8547106944
I0324 11:26:51.148651 17114 layer_factory.hpp:77] Creating layer conv7_1_relu
I0324 11:26:51.148674 17114 net.cpp:100] Creating Layer conv7_1_relu
I0324 11:26:51.148692 17114 net.cpp:434] conv7_1_relu <- conv7_1
I0324 11:26:51.148715 17114 net.cpp:395] conv7_1_relu -> conv7_1 (in-place)
I0324 11:26:51.148955 17114 net.cpp:150] Setting up conv7_1_relu
I0324 11:26:51.148985 17114 net.cpp:157] Top shape: 32 128 10 10 (409600)
I0324 11:26:51.149003 17114 net.cpp:165] Memory required for data: 8548745344
I0324 11:26:51.149019 17114 layer_factory.hpp:77] Creating layer conv7_2
I0324 11:26:51.149047 17114 net.cpp:100] Creating Layer conv7_2
I0324 11:26:51.149066 17114 net.cpp:434] conv7_2 <- conv7_1
I0324 11:26:51.149087 17114 net.cpp:408] conv7_2 -> conv7_2
I0324 11:26:51.153612 17114 net.cpp:150] Setting up conv7_2
I0324 11:26:51.153681 17114 net.cpp:157] Top shape: 32 256 5 5 (204800)
I0324 11:26:51.153700 17114 net.cpp:165] Memory required for data: 8549564544
I0324 11:26:51.153724 17114 layer_factory.hpp:77] Creating layer conv7_2_relu
I0324 11:26:51.153762 17114 net.cpp:100] Creating Layer conv7_2_relu
I0324 11:26:51.153784 17114 net.cpp:434] conv7_2_relu <- conv7_2
I0324 11:26:51.153808 17114 net.cpp:395] conv7_2_relu -> conv7_2 (in-place)
I0324 11:26:51.154798 17114 net.cpp:150] Setting up conv7_2_relu
I0324 11:26:51.154834 17114 net.cpp:157] Top shape: 32 256 5 5 (204800)
I0324 11:26:51.154853 17114 net.cpp:165] Memory required for data: 8550383744
I0324 11:26:51.154870 17114 layer_factory.hpp:77] Creating layer conv7_2_conv7_2_relu_0_split
I0324 11:26:51.154906 17114 net.cpp:100] Creating Layer conv7_2_conv7_2_relu_0_split
I0324 11:26:51.154925 17114 net.cpp:434] conv7_2_conv7_2_relu_0_split <- conv7_2
I0324 11:26:51.154947 17114 net.cpp:408] conv7_2_conv7_2_relu_0_split -> conv7_2_conv7_2_relu_0_split_0
I0324 11:26:51.154970 17114 net.cpp:408] conv7_2_conv7_2_relu_0_split -> conv7_2_conv7_2_relu_0_split_1
I0324 11:26:51.155012 17114 net.cpp:408] conv7_2_conv7_2_relu_0_split -> conv7_2_conv7_2_relu_0_split_2
I0324 11:26:51.155035 17114 net.cpp:408] conv7_2_conv7_2_relu_0_split -> conv7_2_conv7_2_relu_0_split_3
I0324 11:26:51.155150 17114 net.cpp:150] Setting up conv7_2_conv7_2_relu_0_split
I0324 11:26:51.155175 17114 net.cpp:157] Top shape: 32 256 5 5 (204800)
I0324 11:26:51.155194 17114 net.cpp:157] Top shape: 32 256 5 5 (204800)
I0324 11:26:51.155210 17114 net.cpp:157] Top shape: 32 256 5 5 (204800)
I0324 11:26:51.155230 17114 net.cpp:157] Top shape: 32 256 5 5 (204800)
I0324 11:26:51.155246 17114 net.cpp:165] Memory required for data: 8553660544
I0324 11:26:51.155262 17114 layer_factory.hpp:77] Creating layer conv8_1
I0324 11:26:51.155290 17114 net.cpp:100] Creating Layer conv8_1
I0324 11:26:51.155309 17114 net.cpp:434] conv8_1 <- conv7_2_conv7_2_relu_0_split_0
I0324 11:26:51.155330 17114 net.cpp:408] conv8_1 -> conv8_1
I0324 11:26:51.157436 17114 net.cpp:150] Setting up conv8_1
I0324 11:26:51.157485 17114 net.cpp:157] Top shape: 32 128 5 5 (102400)
I0324 11:26:51.157505 17114 net.cpp:165] Memory required for data: 8554070144
I0324 11:26:51.157529 17114 layer_factory.hpp:77] Creating layer conv8_1_relu
I0324 11:26:51.157555 17114 net.cpp:100] Creating Layer conv8_1_relu
I0324 11:26:51.157574 17114 net.cpp:434] conv8_1_relu <- conv8_1
I0324 11:26:51.157596 17114 net.cpp:395] conv8_1_relu -> conv8_1 (in-place)
I0324 11:26:51.157851 17114 net.cpp:150] Setting up conv8_1_relu
I0324 11:26:51.157881 17114 net.cpp:157] Top shape: 32 128 5 5 (102400)
I0324 11:26:51.157899 17114 net.cpp:165] Memory required for data: 8554479744
I0324 11:26:51.157917 17114 layer_factory.hpp:77] Creating layer conv8_2
I0324 11:26:51.157943 17114 net.cpp:100] Creating Layer conv8_2
I0324 11:26:51.157963 17114 net.cpp:434] conv8_2 <- conv8_1
I0324 11:26:51.157985 17114 net.cpp:408] conv8_2 -> conv8_2
I0324 11:26:51.164382 17114 net.cpp:150] Setting up conv8_2
I0324 11:26:51.164449 17114 net.cpp:157] Top shape: 32 256 3 3 (73728)
I0324 11:26:51.164469 17114 net.cpp:165] Memory required for data: 8554774656
I0324 11:26:51.164492 17114 layer_factory.hpp:77] Creating layer conv8_2_relu
I0324 11:26:51.164520 17114 net.cpp:100] Creating Layer conv8_2_relu
I0324 11:26:51.164539 17114 net.cpp:434] conv8_2_relu <- conv8_2
I0324 11:26:51.164558 17114 net.cpp:395] conv8_2_relu -> conv8_2 (in-place)
I0324 11:26:51.164824 17114 net.cpp:150] Setting up conv8_2_relu
I0324 11:26:51.164851 17114 net.cpp:157] Top shape: 32 256 3 3 (73728)
I0324 11:26:51.164868 17114 net.cpp:165] Memory required for data: 8555069568
I0324 11:26:51.164885 17114 layer_factory.hpp:77] Creating layer conv8_2_conv8_2_relu_0_split
I0324 11:26:51.164906 17114 net.cpp:100] Creating Layer conv8_2_conv8_2_relu_0_split
I0324 11:26:51.164924 17114 net.cpp:434] conv8_2_conv8_2_relu_0_split <- conv8_2
I0324 11:26:51.164943 17114 net.cpp:408] conv8_2_conv8_2_relu_0_split -> conv8_2_conv8_2_relu_0_split_0
I0324 11:26:51.164965 17114 net.cpp:408] conv8_2_conv8_2_relu_0_split -> conv8_2_conv8_2_relu_0_split_1
I0324 11:26:51.164988 17114 net.cpp:408] conv8_2_conv8_2_relu_0_split -> conv8_2_conv8_2_relu_0_split_2
I0324 11:26:51.165010 17114 net.cpp:408] conv8_2_conv8_2_relu_0_split -> conv8_2_conv8_2_relu_0_split_3
I0324 11:26:51.165117 17114 net.cpp:150] Setting up conv8_2_conv8_2_relu_0_split
I0324 11:26:51.165138 17114 net.cpp:157] Top shape: 32 256 3 3 (73728)
I0324 11:26:51.165156 17114 net.cpp:157] Top shape: 32 256 3 3 (73728)
I0324 11:26:51.165174 17114 net.cpp:157] Top shape: 32 256 3 3 (73728)
I0324 11:26:51.165190 17114 net.cpp:157] Top shape: 32 256 3 3 (73728)
I0324 11:26:51.165205 17114 net.cpp:165] Memory required for data: 8556249216
I0324 11:26:51.165221 17114 layer_factory.hpp:77] Creating layer conv9_1
I0324 11:26:51.165253 17114 net.cpp:100] Creating Layer conv9_1
I0324 11:26:51.165271 17114 net.cpp:434] conv9_1 <- conv8_2_conv8_2_relu_0_split_0
I0324 11:26:51.165293 17114 net.cpp:408] conv9_1 -> conv9_1
I0324 11:26:51.167362 17114 net.cpp:150] Setting up conv9_1
I0324 11:26:51.167408 17114 net.cpp:157] Top shape: 32 128 3 3 (36864)
I0324 11:26:51.167426 17114 net.cpp:165] Memory required for data: 8556396672
I0324 11:26:51.167446 17114 layer_factory.hpp:77] Creating layer conv9_1_relu
I0324 11:26:51.167466 17114 net.cpp:100] Creating Layer conv9_1_relu
I0324 11:26:51.167488 17114 net.cpp:434] conv9_1_relu <- conv9_1
I0324 11:26:51.167507 17114 net.cpp:395] conv9_1_relu -> conv9_1 (in-place)
I0324 11:26:51.168191 17114 net.cpp:150] Setting up conv9_1_relu
I0324 11:26:51.168220 17114 net.cpp:157] Top shape: 32 128 3 3 (36864)
I0324 11:26:51.168238 17114 net.cpp:165] Memory required for data: 8556544128
I0324 11:26:51.168256 17114 layer_factory.hpp:77] Creating layer conv9_2
I0324 11:26:51.168280 17114 net.cpp:100] Creating Layer conv9_2
I0324 11:26:51.168298 17114 net.cpp:434] conv9_2 <- conv9_1
I0324 11:26:51.168323 17114 net.cpp:408] conv9_2 -> conv9_2
I0324 11:26:51.174701 17114 net.cpp:150] Setting up conv9_2
I0324 11:26:51.174790 17114 net.cpp:157] Top shape: 32 256 1 1 (8192)
I0324 11:26:51.174821 17114 net.cpp:165] Memory required for data: 8556576896
I0324 11:26:51.174847 17114 layer_factory.hpp:77] Creating layer conv9_2_relu
I0324 11:26:51.174871 17114 net.cpp:100] Creating Layer conv9_2_relu
I0324 11:26:51.174890 17114 net.cpp:434] conv9_2_relu <- conv9_2
I0324 11:26:51.174914 17114 net.cpp:395] conv9_2_relu -> conv9_2 (in-place)
I0324 11:26:51.175901 17114 net.cpp:150] Setting up conv9_2_relu
I0324 11:26:51.175936 17114 net.cpp:157] Top shape: 32 256 1 1 (8192)
I0324 11:26:51.175954 17114 net.cpp:165] Memory required for data: 8556609664
I0324 11:26:51.175971 17114 layer_factory.hpp:77] Creating layer conv9_2_conv9_2_relu_0_split
I0324 11:26:51.175992 17114 net.cpp:100] Creating Layer conv9_2_conv9_2_relu_0_split
I0324 11:26:51.176009 17114 net.cpp:434] conv9_2_conv9_2_relu_0_split <- conv9_2
I0324 11:26:51.176031 17114 net.cpp:408] conv9_2_conv9_2_relu_0_split -> conv9_2_conv9_2_relu_0_split_0
I0324 11:26:51.176055 17114 net.cpp:408] conv9_2_conv9_2_relu_0_split -> conv9_2_conv9_2_relu_0_split_1
I0324 11:26:51.176095 17114 net.cpp:408] conv9_2_conv9_2_relu_0_split -> conv9_2_conv9_2_relu_0_split_2
I0324 11:26:51.176199 17114 net.cpp:150] Setting up conv9_2_conv9_2_relu_0_split
I0324 11:26:51.176223 17114 net.cpp:157] Top shape: 32 256 1 1 (8192)
I0324 11:26:51.176240 17114 net.cpp:157] Top shape: 32 256 1 1 (8192)
I0324 11:26:51.176257 17114 net.cpp:157] Top shape: 32 256 1 1 (8192)
I0324 11:26:51.176272 17114 net.cpp:165] Memory required for data: 8556707968
I0324 11:26:51.176287 17114 layer_factory.hpp:77] Creating layer conv4_3_norm
I0324 11:26:51.176311 17114 net.cpp:100] Creating Layer conv4_3_norm
I0324 11:26:51.176329 17114 net.cpp:434] conv4_3_norm <- conv4_3_relu4_3_0_split_1
I0324 11:26:51.176352 17114 net.cpp:408] conv4_3_norm -> conv4_3_norm
I0324 11:26:51.176569 17114 net.cpp:150] Setting up conv4_3_norm
I0324 11:26:51.176594 17114 net.cpp:157] Top shape: 32 512 38 38 (23658496)
I0324 11:26:51.176611 17114 net.cpp:165] Memory required for data: 8651341952
I0324 11:26:51.176630 17114 layer_factory.hpp:77] Creating layer conv4_3_norm_conv4_3_norm_0_split
I0324 11:26:51.176651 17114 net.cpp:100] Creating Layer conv4_3_norm_conv4_3_norm_0_split
I0324 11:26:51.176668 17114 net.cpp:434] conv4_3_norm_conv4_3_norm_0_split <- conv4_3_norm
I0324 11:26:51.176689 17114 net.cpp:408] conv4_3_norm_conv4_3_norm_0_split -> conv4_3_norm_conv4_3_norm_0_split_0
I0324 11:26:51.176710 17114 net.cpp:408] conv4_3_norm_conv4_3_norm_0_split -> conv4_3_norm_conv4_3_norm_0_split_1
I0324 11:26:51.176730 17114 net.cpp:408] conv4_3_norm_conv4_3_norm_0_split -> conv4_3_norm_conv4_3_norm_0_split_2
I0324 11:26:51.176810 17114 net.cpp:150] Setting up conv4_3_norm_conv4_3_norm_0_split
I0324 11:26:51.176834 17114 net.cpp:157] Top shape: 32 512 38 38 (23658496)
I0324 11:26:51.176852 17114 net.cpp:157] Top shape: 32 512 38 38 (23658496)
I0324 11:26:51.176870 17114 net.cpp:157] Top shape: 32 512 38 38 (23658496)
I0324 11:26:51.176887 17114 net.cpp:165] Memory required for data: 8935243904
I0324 11:26:51.176921 17114 layer_factory.hpp:77] Creating layer conv4_3_norm_mbox_loc
I0324 11:26:51.176949 17114 net.cpp:100] Creating Layer conv4_3_norm_mbox_loc
I0324 11:26:51.176966 17114 net.cpp:434] conv4_3_norm_mbox_loc <- conv4_3_norm_conv4_3_norm_0_split_0
I0324 11:26:51.176988 17114 net.cpp:408] conv4_3_norm_mbox_loc -> conv4_3_norm_mbox_loc
I0324 11:26:51.180272 17114 net.cpp:150] Setting up conv4_3_norm_mbox_loc
I0324 11:26:51.180333 17114 net.cpp:157] Top shape: 32 16 38 38 (739328)
I0324 11:26:51.180352 17114 net.cpp:165] Memory required for data: 8938201216
I0324 11:26:51.180392 17114 layer_factory.hpp:77] Creating layer conv4_3_norm_mbox_loc_perm
I0324 11:26:51.180420 17114 net.cpp:100] Creating Layer conv4_3_norm_mbox_loc_perm
I0324 11:26:51.180438 17114 net.cpp:434] conv4_3_norm_mbox_loc_perm <- conv4_3_norm_mbox_loc
I0324 11:26:51.180461 17114 net.cpp:408] conv4_3_norm_mbox_loc_perm -> conv4_3_norm_mbox_loc_perm
I0324 11:26:51.180630 17114 net.cpp:150] Setting up conv4_3_norm_mbox_loc_perm
I0324 11:26:51.180655 17114 net.cpp:157] Top shape: 32 38 38 16 (739328)
I0324 11:26:51.180672 17114 net.cpp:165] Memory required for data: 8941158528
I0324 11:26:51.180689 17114 layer_factory.hpp:77] Creating layer conv4_3_norm_mbox_loc_flat
I0324 11:26:51.180712 17114 net.cpp:100] Creating Layer conv4_3_norm_mbox_loc_flat
I0324 11:26:51.180732 17114 net.cpp:434] conv4_3_norm_mbox_loc_flat <- conv4_3_norm_mbox_loc_perm
I0324 11:26:51.180753 17114 net.cpp:408] conv4_3_norm_mbox_loc_flat -> conv4_3_norm_mbox_loc_flat
I0324 11:26:51.180806 17114 net.cpp:150] Setting up conv4_3_norm_mbox_loc_flat
I0324 11:26:51.180829 17114 net.cpp:157] Top shape: 32 23104 (739328)
I0324 11:26:51.180845 17114 net.cpp:165] Memory required for data: 8944115840
I0324 11:26:51.180860 17114 layer_factory.hpp:77] Creating layer conv4_3_norm_mbox_conf
I0324 11:26:51.180887 17114 net.cpp:100] Creating Layer conv4_3_norm_mbox_conf
I0324 11:26:51.180904 17114 net.cpp:434] conv4_3_norm_mbox_conf <- conv4_3_norm_conv4_3_norm_0_split_1
I0324 11:26:51.180925 17114 net.cpp:408] conv4_3_norm_mbox_conf -> conv4_3_norm_mbox_conf
I0324 11:26:51.185362 17114 net.cpp:150] Setting up conv4_3_norm_mbox_conf
I0324 11:26:51.185431 17114 net.cpp:157] Top shape: 32 44 38 38 (2033152)
I0324 11:26:51.185448 17114 net.cpp:165] Memory required for data: 8952248448
I0324 11:26:51.185473 17114 layer_factory.hpp:77] Creating layer conv4_3_norm_mbox_conf_perm
I0324 11:26:51.185498 17114 net.cpp:100] Creating Layer conv4_3_norm_mbox_conf_perm
I0324 11:26:51.185520 17114 net.cpp:434] conv4_3_norm_mbox_conf_perm <- conv4_3_norm_mbox_conf
I0324 11:26:51.185541 17114 net.cpp:408] conv4_3_norm_mbox_conf_perm -> conv4_3_norm_mbox_conf_perm
I0324 11:26:51.185709 17114 net.cpp:150] Setting up conv4_3_norm_mbox_conf_perm
I0324 11:26:51.185760 17114 net.cpp:157] Top shape: 32 38 38 44 (2033152)
I0324 11:26:51.185777 17114 net.cpp:165] Memory required for data: 8960381056
I0324 11:26:51.185793 17114 layer_factory.hpp:77] Creating layer conv4_3_norm_mbox_conf_flat
I0324 11:26:51.185814 17114 net.cpp:100] Creating Layer conv4_3_norm_mbox_conf_flat
I0324 11:26:51.185830 17114 net.cpp:434] conv4_3_norm_mbox_conf_flat <- conv4_3_norm_mbox_conf_perm
I0324 11:26:51.185851 17114 net.cpp:408] conv4_3_norm_mbox_conf_flat -> conv4_3_norm_mbox_conf_flat
I0324 11:26:51.185904 17114 net.cpp:150] Setting up conv4_3_norm_mbox_conf_flat
I0324 11:26:51.185926 17114 net.cpp:157] Top shape: 32 63536 (2033152)
I0324 11:26:51.185941 17114 net.cpp:165] Memory required for data: 8968513664
I0324 11:26:51.185957 17114 layer_factory.hpp:77] Creating layer conv4_3_norm_mbox_priorbox
I0324 11:26:51.185977 17114 net.cpp:100] Creating Layer conv4_3_norm_mbox_priorbox
I0324 11:26:51.185994 17114 net.cpp:434] conv4_3_norm_mbox_priorbox <- conv4_3_norm_conv4_3_norm_0_split_2
I0324 11:26:51.186012 17114 net.cpp:434] conv4_3_norm_mbox_priorbox <- data_data_0_split_1
I0324 11:26:51.186034 17114 net.cpp:408] conv4_3_norm_mbox_priorbox -> conv4_3_norm_mbox_priorbox
I0324 11:26:51.186105 17114 net.cpp:150] Setting up conv4_3_norm_mbox_priorbox
I0324 11:26:51.186137 17114 net.cpp:157] Top shape: 1 2 23104 (46208)
I0324 11:26:51.186152 17114 net.cpp:165] Memory required for data: 8968698496
I0324 11:26:51.186168 17114 layer_factory.hpp:77] Creating layer fc7_mbox_loc
I0324 11:26:51.186194 17114 net.cpp:100] Creating Layer fc7_mbox_loc
I0324 11:26:51.186213 17114 net.cpp:434] fc7_mbox_loc <- fc7_relu7_0_split_1
I0324 11:26:51.186233 17114 net.cpp:408] fc7_mbox_loc -> fc7_mbox_loc
I0324 11:26:51.192019 17114 net.cpp:150] Setting up fc7_mbox_loc
I0324 11:26:51.192091 17114 net.cpp:157] Top shape: 32 24 19 19 (277248)
I0324 11:26:51.192111 17114 net.cpp:165] Memory required for data: 8969807488
I0324 11:26:51.192133 17114 layer_factory.hpp:77] Creating layer fc7_mbox_loc_perm
I0324 11:26:51.192157 17114 net.cpp:100] Creating Layer fc7_mbox_loc_perm
I0324 11:26:51.192175 17114 net.cpp:434] fc7_mbox_loc_perm <- fc7_mbox_loc
I0324 11:26:51.192198 17114 net.cpp:408] fc7_mbox_loc_perm -> fc7_mbox_loc_perm
I0324 11:26:51.192381 17114 net.cpp:150] Setting up fc7_mbox_loc_perm
I0324 11:26:51.192407 17114 net.cpp:157] Top shape: 32 19 19 24 (277248)
I0324 11:26:51.192422 17114 net.cpp:165] Memory required for data: 8970916480
I0324 11:26:51.192440 17114 layer_factory.hpp:77] Creating layer fc7_mbox_loc_flat
I0324 11:26:51.192459 17114 net.cpp:100] Creating Layer fc7_mbox_loc_flat
I0324 11:26:51.192477 17114 net.cpp:434] fc7_mbox_loc_flat <- fc7_mbox_loc_perm
I0324 11:26:51.192498 17114 net.cpp:408] fc7_mbox_loc_flat -> fc7_mbox_loc_flat
I0324 11:26:51.192553 17114 net.cpp:150] Setting up fc7_mbox_loc_flat
I0324 11:26:51.192575 17114 net.cpp:157] Top shape: 32 8664 (277248)
I0324 11:26:51.192591 17114 net.cpp:165] Memory required for data: 8972025472
I0324 11:26:51.192606 17114 layer_factory.hpp:77] Creating layer fc7_mbox_conf
I0324 11:26:51.192634 17114 net.cpp:100] Creating Layer fc7_mbox_conf
I0324 11:26:51.192652 17114 net.cpp:434] fc7_mbox_conf <- fc7_relu7_0_split_2
I0324 11:26:51.192678 17114 net.cpp:408] fc7_mbox_conf -> fc7_mbox_conf
I0324 11:26:51.201984 17114 net.cpp:150] Setting up fc7_mbox_conf
I0324 11:26:51.202057 17114 net.cpp:157] Top shape: 32 66 19 19 (762432)
I0324 11:26:51.202076 17114 net.cpp:165] Memory required for data: 8975075200
I0324 11:26:51.202101 17114 layer_factory.hpp:77] Creating layer fc7_mbox_conf_perm
I0324 11:26:51.202126 17114 net.cpp:100] Creating Layer fc7_mbox_conf_perm
I0324 11:26:51.202147 17114 net.cpp:434] fc7_mbox_conf_perm <- fc7_mbox_conf
I0324 11:26:51.202172 17114 net.cpp:408] fc7_mbox_conf_perm -> fc7_mbox_conf_perm
I0324 11:26:51.202350 17114 net.cpp:150] Setting up fc7_mbox_conf_perm
I0324 11:26:51.202375 17114 net.cpp:157] Top shape: 32 19 19 66 (762432)
I0324 11:26:51.202395 17114 net.cpp:165] Memory required for data: 8978124928
I0324 11:26:51.202411 17114 layer_factory.hpp:77] Creating layer fc7_mbox_conf_flat
I0324 11:26:51.202431 17114 net.cpp:100] Creating Layer fc7_mbox_conf_flat
I0324 11:26:51.202448 17114 net.cpp:434] fc7_mbox_conf_flat <- fc7_mbox_conf_perm
I0324 11:26:51.202469 17114 net.cpp:408] fc7_mbox_conf_flat -> fc7_mbox_conf_flat
I0324 11:26:51.202522 17114 net.cpp:150] Setting up fc7_mbox_conf_flat
I0324 11:26:51.202543 17114 net.cpp:157] Top shape: 32 23826 (762432)
I0324 11:26:51.202559 17114 net.cpp:165] Memory required for data: 8981174656
I0324 11:26:51.202575 17114 layer_factory.hpp:77] Creating layer fc7_mbox_priorbox
I0324 11:26:51.202595 17114 net.cpp:100] Creating Layer fc7_mbox_priorbox
I0324 11:26:51.202611 17114 net.cpp:434] fc7_mbox_priorbox <- fc7_relu7_0_split_3
I0324 11:26:51.202632 17114 net.cpp:434] fc7_mbox_priorbox <- data_data_0_split_2
I0324 11:26:51.202659 17114 net.cpp:408] fc7_mbox_priorbox -> fc7_mbox_priorbox
I0324 11:26:51.202723 17114 net.cpp:150] Setting up fc7_mbox_priorbox
I0324 11:26:51.202747 17114 net.cpp:157] Top shape: 1 2 8664 (17328)
I0324 11:26:51.202764 17114 net.cpp:165] Memory required for data: 8981243968
I0324 11:26:51.202783 17114 layer_factory.hpp:77] Creating layer conv6_2_mbox_loc
I0324 11:26:51.202822 17114 net.cpp:100] Creating Layer conv6_2_mbox_loc
I0324 11:26:51.202852 17114 net.cpp:434] conv6_2_mbox_loc <- conv6_2_conv6_2_relu_0_split_1
I0324 11:26:51.202872 17114 net.cpp:408] conv6_2_mbox_loc -> conv6_2_mbox_loc
I0324 11:26:51.206509 17114 net.cpp:150] Setting up conv6_2_mbox_loc
I0324 11:26:51.206575 17114 net.cpp:157] Top shape: 32 24 10 10 (76800)
I0324 11:26:51.206593 17114 net.cpp:165] Memory required for data: 8981551168
I0324 11:26:51.206617 17114 layer_factory.hpp:77] Creating layer conv6_2_mbox_loc_perm
I0324 11:26:51.206645 17114 net.cpp:100] Creating Layer conv6_2_mbox_loc_perm
I0324 11:26:51.206663 17114 net.cpp:434] conv6_2_mbox_loc_perm <- conv6_2_mbox_loc
I0324 11:26:51.206689 17114 net.cpp:408] conv6_2_mbox_loc_perm -> conv6_2_mbox_loc_perm
I0324 11:26:51.206857 17114 net.cpp:150] Setting up conv6_2_mbox_loc_perm
I0324 11:26:51.206884 17114 net.cpp:157] Top shape: 32 10 10 24 (76800)
I0324 11:26:51.206900 17114 net.cpp:165] Memory required for data: 8981858368
I0324 11:26:51.206915 17114 layer_factory.hpp:77] Creating layer conv6_2_mbox_loc_flat
I0324 11:26:51.206936 17114 net.cpp:100] Creating Layer conv6_2_mbox_loc_flat
I0324 11:26:51.206954 17114 net.cpp:434] conv6_2_mbox_loc_flat <- conv6_2_mbox_loc_perm
I0324 11:26:51.206974 17114 net.cpp:408] conv6_2_mbox_loc_flat -> conv6_2_mbox_loc_flat
I0324 11:26:51.207022 17114 net.cpp:150] Setting up conv6_2_mbox_loc_flat
I0324 11:26:51.207043 17114 net.cpp:157] Top shape: 32 2400 (76800)
I0324 11:26:51.207060 17114 net.cpp:165] Memory required for data: 8982165568
I0324 11:26:51.207078 17114 layer_factory.hpp:77] Creating layer conv6_2_mbox_conf
I0324 11:26:51.207108 17114 net.cpp:100] Creating Layer conv6_2_mbox_conf
I0324 11:26:51.207124 17114 net.cpp:434] conv6_2_mbox_conf <- conv6_2_conv6_2_relu_0_split_2
I0324 11:26:51.207151 17114 net.cpp:408] conv6_2_mbox_conf -> conv6_2_mbox_conf
I0324 11:26:51.214802 17114 net.cpp:150] Setting up conv6_2_mbox_conf
I0324 11:26:51.214874 17114 net.cpp:157] Top shape: 32 66 10 10 (211200)
I0324 11:26:51.214893 17114 net.cpp:165] Memory required for data: 8983010368
I0324 11:26:51.214921 17114 layer_factory.hpp:77] Creating layer conv6_2_mbox_conf_perm
I0324 11:26:51.214946 17114 net.cpp:100] Creating Layer conv6_2_mbox_conf_perm
I0324 11:26:51.214965 17114 net.cpp:434] conv6_2_mbox_conf_perm <- conv6_2_mbox_conf
I0324 11:26:51.214993 17114 net.cpp:408] conv6_2_mbox_conf_perm -> conv6_2_mbox_conf_perm
I0324 11:26:51.223752 17114 net.cpp:150] Setting up conv6_2_mbox_conf_perm
I0324 11:26:51.223827 17114 net.cpp:157] Top shape: 32 10 10 66 (211200)
I0324 11:26:51.223846 17114 net.cpp:165] Memory required for data: 8983855168
I0324 11:26:51.223865 17114 layer_factory.hpp:77] Creating layer conv6_2_mbox_conf_flat
I0324 11:26:51.223891 17114 net.cpp:100] Creating Layer conv6_2_mbox_conf_flat
I0324 11:26:51.223909 17114 net.cpp:434] conv6_2_mbox_conf_flat <- conv6_2_mbox_conf_perm
I0324 11:26:51.223933 17114 net.cpp:408] conv6_2_mbox_conf_flat -> conv6_2_mbox_conf_flat
I0324 11:26:51.223992 17114 net.cpp:150] Setting up conv6_2_mbox_conf_flat
I0324 11:26:51.224017 17114 net.cpp:157] Top shape: 32 6600 (211200)
I0324 11:26:51.224035 17114 net.cpp:165] Memory required for data: 8984699968
I0324 11:26:51.224050 17114 layer_factory.hpp:77] Creating layer conv6_2_mbox_priorbox
I0324 11:26:51.224072 17114 net.cpp:100] Creating Layer conv6_2_mbox_priorbox
I0324 11:26:51.224092 17114 net.cpp:434] conv6_2_mbox_priorbox <- conv6_2_conv6_2_relu_0_split_3
I0324 11:26:51.224112 17114 net.cpp:434] conv6_2_mbox_priorbox <- data_data_0_split_3
I0324 11:26:51.224135 17114 net.cpp:408] conv6_2_mbox_priorbox -> conv6_2_mbox_priorbox
I0324 11:26:51.224197 17114 net.cpp:150] Setting up conv6_2_mbox_priorbox
I0324 11:26:51.224222 17114 net.cpp:157] Top shape: 1 2 2400 (4800)
I0324 11:26:51.224238 17114 net.cpp:165] Memory required for data: 8984719168
I0324 11:26:51.224253 17114 layer_factory.hpp:77] Creating layer conv7_2_mbox_loc
I0324 11:26:51.224282 17114 net.cpp:100] Creating Layer conv7_2_mbox_loc
I0324 11:26:51.224309 17114 net.cpp:434] conv7_2_mbox_loc <- conv7_2_conv7_2_relu_0_split_1
I0324 11:26:51.224341 17114 net.cpp:408] conv7_2_mbox_loc -> conv7_2_mbox_loc
I0324 11:26:51.226873 17114 net.cpp:150] Setting up conv7_2_mbox_loc
I0324 11:26:51.226929 17114 net.cpp:157] Top shape: 32 24 5 5 (19200)
I0324 11:26:51.226949 17114 net.cpp:165] Memory required for data: 8984795968
I0324 11:26:51.226974 17114 layer_factory.hpp:77] Creating layer conv7_2_mbox_loc_perm
I0324 11:26:51.226997 17114 net.cpp:100] Creating Layer conv7_2_mbox_loc_perm
I0324 11:26:51.227015 17114 net.cpp:434] conv7_2_mbox_loc_perm <- conv7_2_mbox_loc
I0324 11:26:51.227039 17114 net.cpp:408] conv7_2_mbox_loc_perm -> conv7_2_mbox_loc_perm
I0324 11:26:51.227196 17114 net.cpp:150] Setting up conv7_2_mbox_loc_perm
I0324 11:26:51.227221 17114 net.cpp:157] Top shape: 32 5 5 24 (19200)
I0324 11:26:51.227236 17114 net.cpp:165] Memory required for data: 8984872768
I0324 11:26:51.227253 17114 layer_factory.hpp:77] Creating layer conv7_2_mbox_loc_flat
I0324 11:26:51.227272 17114 net.cpp:100] Creating Layer conv7_2_mbox_loc_flat
I0324 11:26:51.227289 17114 net.cpp:434] conv7_2_mbox_loc_flat <- conv7_2_mbox_loc_perm
I0324 11:26:51.227309 17114 net.cpp:408] conv7_2_mbox_loc_flat -> conv7_2_mbox_loc_flat
I0324 11:26:51.227361 17114 net.cpp:150] Setting up conv7_2_mbox_loc_flat
I0324 11:26:51.227382 17114 net.cpp:157] Top shape: 32 600 (19200)
I0324 11:26:51.227397 17114 net.cpp:165] Memory required for data: 8984949568
I0324 11:26:51.227413 17114 layer_factory.hpp:77] Creating layer conv7_2_mbox_conf
I0324 11:26:51.227442 17114 net.cpp:100] Creating Layer conv7_2_mbox_conf
I0324 11:26:51.227463 17114 net.cpp:434] conv7_2_mbox_conf <- conv7_2_conv7_2_relu_0_split_2
I0324 11:26:51.227486 17114 net.cpp:408] conv7_2_mbox_conf -> conv7_2_mbox_conf
I0324 11:26:51.230829 17114 net.cpp:150] Setting up conv7_2_mbox_conf
I0324 11:26:51.230899 17114 net.cpp:157] Top shape: 32 66 5 5 (52800)
I0324 11:26:51.230918 17114 net.cpp:165] Memory required for data: 8985160768
I0324 11:26:51.230940 17114 layer_factory.hpp:77] Creating layer conv7_2_mbox_conf_perm
I0324 11:26:51.230970 17114 net.cpp:100] Creating Layer conv7_2_mbox_conf_perm
I0324 11:26:51.230990 17114 net.cpp:434] conv7_2_mbox_conf_perm <- conv7_2_mbox_conf
I0324 11:26:51.231011 17114 net.cpp:408] conv7_2_mbox_conf_perm -> conv7_2_mbox_conf_perm
I0324 11:26:51.231173 17114 net.cpp:150] Setting up conv7_2_mbox_conf_perm
I0324 11:26:51.231197 17114 net.cpp:157] Top shape: 32 5 5 66 (52800)
I0324 11:26:51.231215 17114 net.cpp:165] Memory required for data: 8985371968
I0324 11:26:51.231230 17114 layer_factory.hpp:77] Creating layer conv7_2_mbox_conf_flat
I0324 11:26:51.231251 17114 net.cpp:100] Creating Layer conv7_2_mbox_conf_flat
I0324 11:26:51.231266 17114 net.cpp:434] conv7_2_mbox_conf_flat <- conv7_2_mbox_conf_perm
I0324 11:26:51.231289 17114 net.cpp:408] conv7_2_mbox_conf_flat -> conv7_2_mbox_conf_flat
I0324 11:26:51.231340 17114 net.cpp:150] Setting up conv7_2_mbox_conf_flat
I0324 11:26:51.231360 17114 net.cpp:157] Top shape: 32 1650 (52800)
I0324 11:26:51.231376 17114 net.cpp:165] Memory required for data: 8985583168
I0324 11:26:51.231395 17114 layer_factory.hpp:77] Creating layer conv7_2_mbox_priorbox
I0324 11:26:51.231415 17114 net.cpp:100] Creating Layer conv7_2_mbox_priorbox
I0324 11:26:51.231434 17114 net.cpp:434] conv7_2_mbox_priorbox <- conv7_2_conv7_2_relu_0_split_3
I0324 11:26:51.231453 17114 net.cpp:434] conv7_2_mbox_priorbox <- data_data_0_split_4
I0324 11:26:51.231477 17114 net.cpp:408] conv7_2_mbox_priorbox -> conv7_2_mbox_priorbox
I0324 11:26:51.231537 17114 net.cpp:150] Setting up conv7_2_mbox_priorbox
I0324 11:26:51.231559 17114 net.cpp:157] Top shape: 1 2 600 (1200)
I0324 11:26:51.231573 17114 net.cpp:165] Memory required for data: 8985587968
I0324 11:26:51.231590 17114 layer_factory.hpp:77] Creating layer conv8_2_mbox_loc
I0324 11:26:51.231616 17114 net.cpp:100] Creating Layer conv8_2_mbox_loc
I0324 11:26:51.231634 17114 net.cpp:434] conv8_2_mbox_loc <- conv8_2_conv8_2_relu_0_split_1
I0324 11:26:51.231653 17114 net.cpp:408] conv8_2_mbox_loc -> conv8_2_mbox_loc
I0324 11:26:51.234679 17114 net.cpp:150] Setting up conv8_2_mbox_loc
I0324 11:26:51.234741 17114 net.cpp:157] Top shape: 32 16 3 3 (4608)
I0324 11:26:51.234762 17114 net.cpp:165] Memory required for data: 8985606400
I0324 11:26:51.234792 17114 layer_factory.hpp:77] Creating layer conv8_2_mbox_loc_perm
I0324 11:26:51.234823 17114 net.cpp:100] Creating Layer conv8_2_mbox_loc_perm
I0324 11:26:51.234844 17114 net.cpp:434] conv8_2_mbox_loc_perm <- conv8_2_mbox_loc
I0324 11:26:51.234867 17114 net.cpp:408] conv8_2_mbox_loc_perm -> conv8_2_mbox_loc_perm
I0324 11:26:51.235030 17114 net.cpp:150] Setting up conv8_2_mbox_loc_perm
I0324 11:26:51.235055 17114 net.cpp:157] Top shape: 32 3 3 16 (4608)
I0324 11:26:51.235071 17114 net.cpp:165] Memory required for data: 8985624832
I0324 11:26:51.235086 17114 layer_factory.hpp:77] Creating layer conv8_2_mbox_loc_flat
I0324 11:26:51.235108 17114 net.cpp:100] Creating Layer conv8_2_mbox_loc_flat
I0324 11:26:51.235126 17114 net.cpp:434] conv8_2_mbox_loc_flat <- conv8_2_mbox_loc_perm
I0324 11:26:51.235146 17114 net.cpp:408] conv8_2_mbox_loc_flat -> conv8_2_mbox_loc_flat
I0324 11:26:51.235196 17114 net.cpp:150] Setting up conv8_2_mbox_loc_flat
I0324 11:26:51.235218 17114 net.cpp:157] Top shape: 32 144 (4608)
I0324 11:26:51.235232 17114 net.cpp:165] Memory required for data: 8985643264
I0324 11:26:51.235247 17114 layer_factory.hpp:77] Creating layer conv8_2_mbox_conf
I0324 11:26:51.235275 17114 net.cpp:100] Creating Layer conv8_2_mbox_conf
I0324 11:26:51.235291 17114 net.cpp:434] conv8_2_mbox_conf <- conv8_2_conv8_2_relu_0_split_2
I0324 11:26:51.235316 17114 net.cpp:408] conv8_2_mbox_conf -> conv8_2_mbox_conf
I0324 11:26:51.238219 17114 net.cpp:150] Setting up conv8_2_mbox_conf
I0324 11:26:51.238282 17114 net.cpp:157] Top shape: 32 44 3 3 (12672)
I0324 11:26:51.238302 17114 net.cpp:165] Memory required for data: 8985693952
I0324 11:26:51.238325 17114 layer_factory.hpp:77] Creating layer conv8_2_mbox_conf_perm
I0324 11:26:51.238348 17114 net.cpp:100] Creating Layer conv8_2_mbox_conf_perm
I0324 11:26:51.238368 17114 net.cpp:434] conv8_2_mbox_conf_perm <- conv8_2_mbox_conf
I0324 11:26:51.238391 17114 net.cpp:408] conv8_2_mbox_conf_perm -> conv8_2_mbox_conf_perm
I0324 11:26:51.238555 17114 net.cpp:150] Setting up conv8_2_mbox_conf_perm
I0324 11:26:51.238581 17114 net.cpp:157] Top shape: 32 3 3 44 (12672)
I0324 11:26:51.238597 17114 net.cpp:165] Memory required for data: 8985744640
I0324 11:26:51.238613 17114 layer_factory.hpp:77] Creating layer conv8_2_mbox_conf_flat
I0324 11:26:51.238633 17114 net.cpp:100] Creating Layer conv8_2_mbox_conf_flat
I0324 11:26:51.238651 17114 net.cpp:434] conv8_2_mbox_conf_flat <- conv8_2_mbox_conf_perm
I0324 11:26:51.238670 17114 net.cpp:408] conv8_2_mbox_conf_flat -> conv8_2_mbox_conf_flat
I0324 11:26:51.238720 17114 net.cpp:150] Setting up conv8_2_mbox_conf_flat
I0324 11:26:51.238745 17114 net.cpp:157] Top shape: 32 396 (12672)
I0324 11:26:51.238760 17114 net.cpp:165] Memory required for data: 8985795328
I0324 11:26:51.238776 17114 layer_factory.hpp:77] Creating layer conv8_2_mbox_priorbox
I0324 11:26:51.238797 17114 net.cpp:100] Creating Layer conv8_2_mbox_priorbox
I0324 11:26:51.238814 17114 net.cpp:434] conv8_2_mbox_priorbox <- conv8_2_conv8_2_relu_0_split_3
I0324 11:26:51.238833 17114 net.cpp:434] conv8_2_mbox_priorbox <- data_data_0_split_5
I0324 11:26:51.238855 17114 net.cpp:408] conv8_2_mbox_priorbox -> conv8_2_mbox_priorbox
I0324 11:26:51.238914 17114 net.cpp:150] Setting up conv8_2_mbox_priorbox
I0324 11:26:51.238937 17114 net.cpp:157] Top shape: 1 2 144 (288)
I0324 11:26:51.238952 17114 net.cpp:165] Memory required for data: 8985796480
I0324 11:26:51.238968 17114 layer_factory.hpp:77] Creating layer conv9_2_mbox_loc
I0324 11:26:51.238997 17114 net.cpp:100] Creating Layer conv9_2_mbox_loc
I0324 11:26:51.239015 17114 net.cpp:434] conv9_2_mbox_loc <- conv9_2_conv9_2_relu_0_split_0
I0324 11:26:51.239037 17114 net.cpp:408] conv9_2_mbox_loc -> conv9_2_mbox_loc
I0324 11:26:51.241268 17114 net.cpp:150] Setting up conv9_2_mbox_loc
I0324 11:26:51.241325 17114 net.cpp:157] Top shape: 32 16 1 1 (512)
I0324 11:26:51.241354 17114 net.cpp:165] Memory required for data: 8985798528
I0324 11:26:51.241377 17114 layer_factory.hpp:77] Creating layer conv9_2_mbox_loc_perm
I0324 11:26:51.241400 17114 net.cpp:100] Creating Layer conv9_2_mbox_loc_perm
I0324 11:26:51.241421 17114 net.cpp:434] conv9_2_mbox_loc_perm <- conv9_2_mbox_loc
I0324 11:26:51.241443 17114 net.cpp:408] conv9_2_mbox_loc_perm -> conv9_2_mbox_loc_perm
I0324 11:26:51.241598 17114 net.cpp:150] Setting up conv9_2_mbox_loc_perm
I0324 11:26:51.241621 17114 net.cpp:157] Top shape: 32 1 1 16 (512)
I0324 11:26:51.241636 17114 net.cpp:165] Memory required for data: 8985800576
I0324 11:26:51.241653 17114 layer_factory.hpp:77] Creating layer conv9_2_mbox_loc_flat
I0324 11:26:51.241672 17114 net.cpp:100] Creating Layer conv9_2_mbox_loc_flat
I0324 11:26:51.241688 17114 net.cpp:434] conv9_2_mbox_loc_flat <- conv9_2_mbox_loc_perm
I0324 11:26:51.241709 17114 net.cpp:408] conv9_2_mbox_loc_flat -> conv9_2_mbox_loc_flat
I0324 11:26:51.241806 17114 net.cpp:150] Setting up conv9_2_mbox_loc_flat
I0324 11:26:51.241830 17114 net.cpp:157] Top shape: 32 16 (512)
I0324 11:26:51.241847 17114 net.cpp:165] Memory required for data: 8985802624
I0324 11:26:51.241861 17114 layer_factory.hpp:77] Creating layer conv9_2_mbox_conf
I0324 11:26:51.241888 17114 net.cpp:100] Creating Layer conv9_2_mbox_conf
I0324 11:26:51.241906 17114 net.cpp:434] conv9_2_mbox_conf <- conv9_2_conv9_2_relu_0_split_1
I0324 11:26:51.241928 17114 net.cpp:408] conv9_2_mbox_conf -> conv9_2_mbox_conf
I0324 11:26:51.244741 17114 net.cpp:150] Setting up conv9_2_mbox_conf
I0324 11:26:51.244796 17114 net.cpp:157] Top shape: 32 44 1 1 (1408)
I0324 11:26:51.244815 17114 net.cpp:165] Memory required for data: 8985808256
I0324 11:26:51.244840 17114 layer_factory.hpp:77] Creating layer conv9_2_mbox_conf_perm
I0324 11:26:51.244865 17114 net.cpp:100] Creating Layer conv9_2_mbox_conf_perm
I0324 11:26:51.244884 17114 net.cpp:434] conv9_2_mbox_conf_perm <- conv9_2_mbox_conf
I0324 11:26:51.244905 17114 net.cpp:408] conv9_2_mbox_conf_perm -> conv9_2_mbox_conf_perm
I0324 11:26:51.245064 17114 net.cpp:150] Setting up conv9_2_mbox_conf_perm
I0324 11:26:51.245088 17114 net.cpp:157] Top shape: 32 1 1 44 (1408)
I0324 11:26:51.245105 17114 net.cpp:165] Memory required for data: 8985813888
I0324 11:26:51.245121 17114 layer_factory.hpp:77] Creating layer conv9_2_mbox_conf_flat
I0324 11:26:51.245139 17114 net.cpp:100] Creating Layer conv9_2_mbox_conf_flat
I0324 11:26:51.245157 17114 net.cpp:434] conv9_2_mbox_conf_flat <- conv9_2_mbox_conf_perm
I0324 11:26:51.245178 17114 net.cpp:408] conv9_2_mbox_conf_flat -> conv9_2_mbox_conf_flat
I0324 11:26:51.245230 17114 net.cpp:150] Setting up conv9_2_mbox_conf_flat
I0324 11:26:51.245251 17114 net.cpp:157] Top shape: 32 44 (1408)
I0324 11:26:51.245266 17114 net.cpp:165] Memory required for data: 8985819520
I0324 11:26:51.245283 17114 layer_factory.hpp:77] Creating layer conv9_2_mbox_priorbox
I0324 11:26:51.245306 17114 net.cpp:100] Creating Layer conv9_2_mbox_priorbox
I0324 11:26:51.245322 17114 net.cpp:434] conv9_2_mbox_priorbox <- conv9_2_conv9_2_relu_0_split_2
I0324 11:26:51.245340 17114 net.cpp:434] conv9_2_mbox_priorbox <- data_data_0_split_6
I0324 11:26:51.245362 17114 net.cpp:408] conv9_2_mbox_priorbox -> conv9_2_mbox_priorbox
I0324 11:26:51.245421 17114 net.cpp:150] Setting up conv9_2_mbox_priorbox
I0324 11:26:51.245442 17114 net.cpp:157] Top shape: 1 2 16 (32)
I0324 11:26:51.245458 17114 net.cpp:165] Memory required for data: 8985819648
I0324 11:26:51.245474 17114 layer_factory.hpp:77] Creating layer mbox_loc
I0324 11:26:51.245496 17114 net.cpp:100] Creating Layer mbox_loc
I0324 11:26:51.245514 17114 net.cpp:434] mbox_loc <- conv4_3_norm_mbox_loc_flat
I0324 11:26:51.245532 17114 net.cpp:434] mbox_loc <- fc7_mbox_loc_flat
I0324 11:26:51.245551 17114 net.cpp:434] mbox_loc <- conv6_2_mbox_loc_flat
I0324 11:26:51.245568 17114 net.cpp:434] mbox_loc <- conv7_2_mbox_loc_flat
I0324 11:26:51.245585 17114 net.cpp:434] mbox_loc <- conv8_2_mbox_loc_flat
I0324 11:26:51.245609 17114 net.cpp:434] mbox_loc <- conv9_2_mbox_loc_flat
I0324 11:26:51.245640 17114 net.cpp:408] mbox_loc -> mbox_loc
I0324 11:26:51.245700 17114 net.cpp:150] Setting up mbox_loc
I0324 11:26:51.245723 17114 net.cpp:157] Top shape: 32 34928 (1117696)
I0324 11:26:51.245766 17114 net.cpp:165] Memory required for data: 8990290432
I0324 11:26:51.245784 17114 layer_factory.hpp:77] Creating layer mbox_conf
I0324 11:26:51.245802 17114 net.cpp:100] Creating Layer mbox_conf
I0324 11:26:51.245820 17114 net.cpp:434] mbox_conf <- conv4_3_norm_mbox_conf_flat
I0324 11:26:51.245837 17114 net.cpp:434] mbox_conf <- fc7_mbox_conf_flat
I0324 11:26:51.245856 17114 net.cpp:434] mbox_conf <- conv6_2_mbox_conf_flat
I0324 11:26:51.245873 17114 net.cpp:434] mbox_conf <- conv7_2_mbox_conf_flat
I0324 11:26:51.245889 17114 net.cpp:434] mbox_conf <- conv8_2_mbox_conf_flat
I0324 11:26:51.245906 17114 net.cpp:434] mbox_conf <- conv9_2_mbox_conf_flat
I0324 11:26:51.245934 17114 net.cpp:408] mbox_conf -> mbox_conf
I0324 11:26:51.245985 17114 net.cpp:150] Setting up mbox_conf
I0324 11:26:51.246007 17114 net.cpp:157] Top shape: 32 96052 (3073664)
I0324 11:26:51.246022 17114 net.cpp:165] Memory required for data: 9002585088
I0324 11:26:51.246039 17114 layer_factory.hpp:77] Creating layer mbox_priorbox
I0324 11:26:51.246057 17114 net.cpp:100] Creating Layer mbox_priorbox
I0324 11:26:51.246074 17114 net.cpp:434] mbox_priorbox <- conv4_3_norm_mbox_priorbox
I0324 11:26:51.246091 17114 net.cpp:434] mbox_priorbox <- fc7_mbox_priorbox
I0324 11:26:51.246109 17114 net.cpp:434] mbox_priorbox <- conv6_2_mbox_priorbox
I0324 11:26:51.246126 17114 net.cpp:434] mbox_priorbox <- conv7_2_mbox_priorbox
I0324 11:26:51.246145 17114 net.cpp:434] mbox_priorbox <- conv8_2_mbox_priorbox
I0324 11:26:51.246161 17114 net.cpp:434] mbox_priorbox <- conv9_2_mbox_priorbox
I0324 11:26:51.246183 17114 net.cpp:408] mbox_priorbox -> mbox_priorbox
I0324 11:26:51.246233 17114 net.cpp:150] Setting up mbox_priorbox
I0324 11:26:51.246258 17114 net.cpp:157] Top shape: 1 2 34928 (69856)
I0324 11:26:51.246273 17114 net.cpp:165] Memory required for data: 9002864512
I0324 11:26:51.246289 17114 layer_factory.hpp:77] Creating layer mbox_loss
I0324 11:26:51.246314 17114 net.cpp:100] Creating Layer mbox_loss
I0324 11:26:51.246330 17114 net.cpp:434] mbox_loss <- mbox_loc
I0324 11:26:51.246347 17114 net.cpp:434] mbox_loss <- mbox_conf
I0324 11:26:51.246364 17114 net.cpp:434] mbox_loss <- mbox_priorbox
…
  phase: TEST
}
layer {
  name: "data"
  type: "AnnotatedData"
  top: "data"
  top: "label"
  include {
    phase: TEST
  }
  transform_param {
    mean_value: 104
    mean_value: 117
    mean_value: 123
    resize_param {
      prob: 1
      resize_mode: WARP
      height: 300
      width: 300
      interp_mode: LINEAR
    }
  }
  data_param {
    source: "examples/NWPU_VHR/NWPU_VHR_test_lmdb"
    batch_size: 1
    backend: LMDB
  }
  annotated_data_param {
    batch_sampler {
    }
    label_map_file: "data/NWPU_VHR/labelmap_NWPU_VHR.prototxt"
  }
}
layer {
  name: "conv1_1"
  type: "Convolution"
  bottom: "data"
  top: "conv1_1"
  param {
    lr_mult: 1
    decay_mult: 1
  }
  param {
    lr_mult: 2
    decay_mult: 0
  }
  convolution_param {
    num_output: 64
    pad: 1
    kernel_size: 3
    weight_filler {
      type: "xavier"
    }
    bias_filler {
      type: "constant"
      value: 0
    }
  }
}
layer {
  name: "relu1_1"
  type: "ReLU"
  bottom: "conv1_1"
  top: "conv1_1"
}
layer {
  name: "conv1_2"
  type: "Convolution"
  bottom: "conv1_1"
  top: "conv1_2"
  param {
    lr_mult: 1
    decay_mult: 1
  }
  param {
    lr_mult: 2
    decay_mult: 0
  }
  convolution_param {
    num_output: 64
    pad: 1
    kernel_size: 3
    weight_filler {
      type: "xavier"
    }
    bias_filler {
      type: "constant"
      value: 0
    }
  }
}
layer {
  name: "relu1_2"
  type: "ReLU"
  bottom: "conv1_2"
  top: "conv1_2"
}
layer {
  name: "pool1"
  type: "Pooling"
  bottom: "conv1_2"
  top: "pool1"
  pooling_param {
    pool: MAX
    kernel_size: 2
    stride: 2
  }
}
layer {
  name: "conv2_1"
  type: "Convolution"
  bottom: "pool1"
  top: "conv2_1"
  param {
    lr_mult: 1
    decay_mult: 1
  }
  param {
    lr_mult: 2
    decay_mult: 0
  }
  convolution_param {
    num_output: 128
    pad: 1
    kernel_size: 3
    weight_filler {
      type: "xavier"
    }
    bias_filler {
      type: "constant"
      value: 0
    }
  }
}
layer {
  name: "relu2_1"
  type: "ReLU"
  bottom: "conv2_1"
  top: "conv2_1"
}
layer {
  name: "conv2_2"
  type: "Convolution"
  bottom: "conv2_1"
  top: "conv2_2"
  param {
    lr_mult: 1
    decay_mult: 1
  }
  param {
    lr_mult: 2
    decay_mult: 0
  }
  convolution_param {
    num_output: 128
    pad: 1
    kernel_size: 3
    weight_filler {
      type: "xavier"
    }
    bias_filler {
      type: "constant"
      value: 0
    }
  }
}
layer {
  name: "relu2_2"
  type: "ReLU"
  bottom: "conv2_2"
  top: "conv2_2"
}
layer {
  name: "pool2"
  type: "Pooling"
  bottom: "conv2_2"
  top: "pool2"
  pooling_param {
    pool: MAX
    kernel_size: 2
    stride: 2
  }
}
layer {
  name: "conv3_1"
  type: "Convolution"
  bottom: "pool2"
  top: "conv3_1"
  param {
    lr_mult: 1
    decay_mult: 1
  }
  param {
    lr_mult: 2
    decay_mult: 0
  }
  convolution_param {
    num_output: 256
    pad: 1
    kernel_size: 3
    weight_filler {
      type: "xavier"
    }
    bias_filler {
      type: "constant"
      value: 0
    }
  }
}
layer {
  name: "relu3_1"
  type: "ReLU"
  bottom: "conv3_1"
  top: "conv3_1"
}
layer {
  name: "conv3_2_depthwise"
  type: "DepthwiseConvolution"
  bottom: "conv3_1"
  top: "conv3_2_3x3"
  param {
    lr_mult: 1
    decay_mult: 1
  }
  param {
    lr_mult: 2
    decay_mult: 0
  }
  convolution_param {
    num_output: 256
    pad: 1
    kernel_size: 3
    group: 256
    weight_filler {
      type: "xavier"
    }
    bias_filler {
      type: "constant"
      value: 0
    }
  }
}
layer {
  name: "conv3_2_3x3_relu"
  type: "ReLU"
  bottom: "conv3_2_3x3"
  top: "conv3_2_3x3"
}
layer {
  name: "conv3_2_1x1"
  type: "Convolution"
  bottom: "conv3_2_3x3"
  top: "conv3_2"
  param {
    lr_mult: 1
    decay_mult: 1
  }
  param {
    lr_mult: 2
    decay_mult: 0
  }
  convolution_param {
    num_output: 256
    pad: 0
    kernel_size: 1
    stride: 1
    weight_filler {
      type: "xavier"
    }
    bias_filler {
      type: "constant"
      value: 0
    }
  }
}
layer {
  name: "relu3_2"
  type: "ReLU"
  bottom: "conv3_2"
  top: "conv3_2"
}
layer {
  name: "conv3_3_depthwise"
  type: "DepthwiseConvolution"
  bottom: "conv3_2"
  top: "conv3_3_3x3"
  param {
    lr_mult: 1
    decay_mult: 1
  }
  param {
    lr_mult: 2
    decay_mult: 0
  }
  convolution_param {
    num_output: 256
    pad: 1
    kernel_size: 3
    group: 256
    weight_filler {
      type: "xavier"
    }
    bias_filler {
      type: "constant"
      value: 0
    }
  }
}
layer {
  name: "conv3_3_3x3_relu"
  type: "ReLU"
  bottom: "conv3_3_3x3"
  top: "conv3_3_3x3"
}
layer {
  name: "conv3_3_1x1"
  type: "Convolution"
  bottom: "conv3_3_3x3"
  top: "conv3_3"
  param {
    lr_mult: 1
    decay_mult: 1
  }
  param {
    lr_mult: 2
    decay_mult: 0
  }
  convolution_param {
    num_output: 256
    pad: 0
    kernel_size: 1
    stride: 1
    weight_filler {
      type: "xavier"
    }
    bias_filler {
      type: "constant"
      value: 0
    }
  }
}
layer {
  name: "relu3_3"
  type: "ReLU"
  bottom: "conv3_3"
  top: "conv3_3"
}
layer {
  name: "pool3"
  type: "Pooling"
  bottom: "conv3_3"
  top: "pool3"
  pooling_param {
    pool: MAX
    kernel_size: 2
    stride: 2
  }
}
layer {
  name: "conv4_1_depthwise"
  type: "DepthwiseConvolution"
  bottom: "pool3"
  top: "conv4_1_3x3"
  param {
    lr_mult: 1
    decay_mult: 1
  }
  param {
    lr_mult: 2
    decay_mult: 0
  }
  convolution_param {
    num_output: 256
    pad: 1
    kernel_size: 3
    group: 256
    weight_filler {
      type: "xavier"
    }
    bias_filler {
      type: "constant"
      value: 0
    }
  }
}
layer {
  name: "conv4_1_3x3_relu"
  type: "ReLU"
  bottom: "conv4_1_3x3"
  top: "conv4_1_3x3"
}
layer {
  name: "conv4_1_1x1"
  type: "Convolution"
  bottom: "conv4_1_3x3"
  top: "conv4_1"
  param {
    lr_mult: 1
    decay_mult: 1
  }
  param {
    lr_mult: 2
    decay_mult: 0
  }
  convolution_param {
    num_output: 512
    pad: 0
    kernel_size: 1
    stride: 1
    weight_filler {
      type: "xavier"
    }
    bias_filler {
      type: "constant"
      value: 0
    }
  }
}
layer {
  name: "relu4_1"
  type: "ReLU"
  bottom: "conv4_1"
  top: "conv4_1"
}
layer {
  name: "conv4_2"
  type: "Convolution"
  bottom: "conv4_1"
  top: "conv4_2"
  param {
    lr_mult: 1
    decay_mult: 1
  }
  param {
    lr_mult: 2
    decay_mult: 0
  }
  convolution_param {
    num_output: 512
    pad: 1
    kernel_size: 3
    weight_filler {
      type: "xavier"
    }
    bias_filler {
      type: "constant"
      value: 0
    }
  }
}
layer {
  name: "relu4_2"
  type: "ReLU"
  bottom: "conv4_2"
  top: "conv4_2"
}
layer {
  name: "conv4_3"
  type: "Convolution"
  bottom: "conv4_2"
  top: "conv4_3"
  param {
    lr_mult: 1
    decay_mult: 1
  }
  param {
    lr_mult: 2
    decay_mult: 0
  }
  convolution_param {
    num_output: 512
    pad: 1
    kernel_size: 3
    weight_filler {
      type: "xavier"
    }
    bias_filler {
      type: "constant"
      value: 0
    }
  }
}
layer {
  name: "relu4_3"
  type: "ReLU"
  bottom: "conv4_3"
  top: "conv4_3"
}
layer {
  name: "pool4"
  type: "Pooling"
  bottom: "conv4_3"
  top: "pool4"
  pooling_param {
    pool: MAX
    kernel_size: 2
    stride: 2
  }
}
layer {
  name: "conv5_1_depthwise"
  type: "DepthwiseConvolution"
  bottom: "pool4"
  top: "conv5_1_3x3"
  param {
    lr_mult: 1
    decay_mult: 1
  }
  param {
    lr_mult: 2
    decay_mult: 0
  }
  convolution_param {
    num_output: 512
    pad: 1
    kernel_size: 3
    group: 512
    weight_filler {
      type: "xavier"
    }
    bias_filler {
      type: "constant"
      value: 0
    }
    dilation: 1
  }
}
layer {
  name: "conv5_1_3x3_relu"
  type: "ReLU"
  bottom: "conv5_1_3x3"
  top: "conv5_1_3x3"
}
layer {
  name: "conv5_1_1x1"
  type: "Convolution"
  bottom: "conv5_1_3x3"
  top: "conv5_1"
  param {
    lr_mult: 1
    decay_mult: 1
  }
  param {
    lr_mult: 2
    decay_mult: 0
  }
  convolution_param {
    num_output: 512
    pad: 0
    kernel_size: 1
    stride: 1
    weight_filler {
      type: "xavier"
    }
    bias_filler {
      type: "constant"
      value: 0
    }
    dilation: 1
  }
}
layer {
  name: "relu5_1"
  type: "ReLU"
  bottom: "conv5_1"
  top: "conv5_1"
}
layer {
  name: "conv5_2_depthwise"
  type: "DepthwiseConvolution"
  bottom: "conv5_1"
  top: "conv5_2_3x3"
  param {
    lr_mult: 1
    decay_mult: 1
  }
  param {
    lr_mult: 2
    decay_mult: 0
  }
  convolution_param {
    num_output: 512
    pad: 1
    kernel_size: 3
    group: 512
    weight_filler {
      type: "xavier"
    }
    bias_filler {
      type: "constant"
      value: 0
    }
    dilation: 1
  }
}
layer {
  name: "conv5_2_3x3_relu"
  type: "ReLU"
  bottom: "conv5_2_3x3"
  top: "conv5_2_3x3"
}
layer {
  name: "conv5_2_1x1"
  type: "Convolution"
  bottom: "conv5_2_3x3"
  top: "conv5_2"
  param {
    lr_mult: 1
    decay_mult: 1
  }
  param {
    lr_mult: 2
    decay_mult: 0
  }
  convolution_param {
    num_output: 512
    pad: 0
    kernel_size: 1
    stride: 1
    weight_filler {
      type: "xavier"
    }
    bias_filler {
      type: "constant"
      value: 0
    }
    dilation: 1
  }
}
layer {
  name: "relu5_2"
  type: "ReLU"
  bottom: "conv5_2"
  top: "conv5_2"
}
layer {
  name: "conv5_3_depthwise"
  type: "DepthwiseConvolution"
  bottom: "conv5_2"
  top: "conv5_3_3x3"
  param {
    lr_mult: 1
    decay_mult: 1
  }
  param {
    lr_mult: 2
    decay_mult: 0
  }
  convolution_param {
    num_output: 512
    pad: 1
    kernel_size: 3
    group: 512
    weight_filler {
      type: "xavier"
    }
    bias_filler {
      type: "constant"
      value: 0
    }
    dilation: 1
  }
}
layer {
  name: "conv5_3_3x3_relu"
  type: "ReLU"
  bottom: "conv5_3_3x3"
  top: "conv5_3_3x3"
}
layer {
  name: "conv5_3_1x1"
  type: "Convolution"
  bottom: "conv5_3_3x3"
  top: "conv5_3"
  param {
    lr_mult: 1
    decay_mult: 1
  }
  param {
    lr_mult: 2
    decay_mult: 0
  }
  convolution_param {
    num_output: 512
    pad: 0
    kernel_size: 1
    stride: 1
    weight_filler {
      type: "xavier"
    }
    bias_filler {
      type: "constant"
      value: 0
    }
    dilation: 1
  }
}
layer {
  name: "relu5_3"
  type: "ReLU"
  bottom: "conv5_3"
  top: "conv5_3"
}
layer {
  name: "pool5"
  type: "Pooling"
  bottom: "conv5_3"
  top: "pool5"
  pooling_param {
    pool: MAX
    kernel_size: 3
    stride: 1
    pad: 1
  }
}
layer {
  name: "fc6_depthwise"
  type: "DepthwiseConvolution"
  bottom: "pool5"
  top: "fc6_3x3"
  param {
    lr_mult: 1
    decay_mult: 1
  }
  param {
    lr_mult: 2
    decay_mult: 0
  }
  convolution_param {
    num_output: 512
    pad: 6
    kernel_size: 3
    group: 512
    weight_filler {
      type: "xavier"
    }
    bias_filler {
      type: "constant"
      value: 0
    }
    dilation: 6
  }
}
layer {
  name: "fc6_3x3_relu"
  type: "ReLU"
  bottom: "fc6_3x3"
  top: "fc6_3x3"
}
layer {
  name: "fc6_1x1"
  type: "Convolution"
  bottom: "fc6_3x3"
  top: "fc6"
  param {
    lr_mult: 1
    decay_mult: 1
  }
  param {
    lr_mult: 2
    decay_mult: 0
  }
  convolution_param {
    num_output: 1024
    pad: 0
    kernel_size: 1
    stride: 1
    weight_filler {
      type: "xavier"
    }
    bias_filler {
      type: "constant"
      value: 0
    }
    dilation: 6
  }
}
layer {
  name: "relu6"
  type: "ReLU"
  bottom: "fc6"
  top: "fc6"
}
layer {
  name: "fc7"
  type: "Convolution"
  bottom: "fc6"
  top: "fc7"
  param {
    lr_mult: 1
    decay_mult: 1
  }
  param {
    lr_mult: 2
    decay_mult: 0
  }
  convolution_param {
    num_output: 1024
    kernel_size: 1
    weight_filler {
      type: "xavier"
    }
    bias_filler {
      type: "constant"
      value: 0
    }
  }
}
layer {
  name: "relu7"
  type: "ReLU"
  bottom: "fc7"
  top: "fc7"
}
layer {
  name: "conv6_1"
  type: "Convolution"
  bottom: "fc7"
  top: "conv6_1"
  param {
    lr_mult: 1
    decay_mult: 1
  }
  param {
    lr_mult: 2
    decay_mult: 0
  }
  convolution_param {
    num_output: 256
    pad: 0
    kernel_size: 1
    stride: 1
    weight_filler {
      type: "xavier"
    }
    bias_filler {
      type: "constant"
      value: 0
    }
  }
}
layer {
  name: "conv6_1_relu"
  type: "ReLU"
  bottom: "conv6_1"
  top: "conv6_1"
}
layer {
  name: "conv6_2_depthwise"
  type: "DepthwiseConvolution"
  bottom: "conv6_1"
  top: "conv6_2_3x3"
  param {
    lr_mult: 1
    decay_mult: 1
  }
  param {
    lr_mult: 2
    decay_mult: 0
  }
  convolution_param {
    num_output: 256
    pad: 1
    kernel_size: 3
    group: 256
    stride: 2
    weight_filler {
      type: "xavier"
    }
    bias_filler {
      type: "constant"
      value: 0
    }
  }
}
layer {
  name: "conv6_2_3x3_relu"
  type: "ReLU"
  bottom: "conv6_2_3x3"
  top: "conv6_2_3x3"
}
layer {
  name: "conv6_2_1x1"
  type: "Convolution"
  bottom: "conv6_2_3x3"
  top: "conv6_2"
  param {
    lr_mult: 1
    decay_mult: 1
  }
  param {
    lr_mult: 2
    decay_mult: 0
  }
  convolution_param {
    num_output: 512
    pad: 0
    kernel_size: 1
    stride: 1
    weight_filler {
      type: "xavier"
    }
    bias_filler {
      type: "constant"
      value: 0
    }
  }
}
layer {
  name: "conv6_2_relu"
  type: "ReLU"
  bottom: "conv6_2"
  top: "conv6_2"
}
layer {
  name: "conv7_1"
  type: "Convolution"
  bottom: "conv6_2"
  top: "conv7_1"
  param {
    lr_mult: 1
    decay_mult: 1
  }
  param {
    lr_mult: 2
    decay_mult: 0
  }
  convolution_param {
    num_output: 128
    pad: 0
    kernel_size: 1
    stride: 1
    weight_filler {
      type: "xavier"
    }
    bias_filler {
      type: "constant"
      value: 0
    }
  }
}
layer {
  name: "conv7_1_relu"
  type: "ReLU"
  bottom: "conv7_1"
  top: "conv7_1"
}
layer {
  name: "conv7_2"
  type: "Convolution"
  bottom: "conv7_1"
  top: "conv7_2"
  param {
    lr_mult: 1
    decay_mult: 1
  }
  param {
    lr_mult: 2
    decay_mult: 0
  }
  convolution_param {
    num_output: 256
    pad: 1
    kernel_size: 3
    stride: 2
    weight_filler {
      type: "xavier"
    }
    bias_filler {
      type: "constant"
      value: 0
    }
  }
}
layer {
  name: "conv7_2_relu"
  type: "ReLU"
  bottom: "conv7_2"
  top: "conv7_2"
}
layer {
  name: "conv8_1"
  type: "Convolution"
  bottom: "conv7_2"
  top: "conv8_1"
  param {
    lr_mult: 1
    decay_mult: 1
  }
  param {
    lr_mult: 2
    decay_mult: 0
  }
  convolution_param {
    num_output: 128
    pad: 0
    kernel_size: 1
    stride: 1
    weight_filler {
      type: "xavier"
    }
    bias_filler {
      type: "constant"
      value: 0
    }
  }
}
layer {
  name: "conv8_1_relu"
  type: "ReLU"
  bottom: "conv8_1"
  top: "conv8_1"
}
layer {
  name: "conv8_2"
  type: "Convolution"
  bottom: "conv8_1"
  top: "conv8_2"
  param {
    lr_mult: 1
    decay_mult: 1
  }
  param {
    lr_mult: 2
    decay_mult: 0
  }
  convolution_param {
    num_output: 256
    pad: 0
    kernel_size: 3
    stride: 1
    weight_filler {
      type: "xavier"
    }
    bias_filler {
      type: "constant"
      value: 0
    }
  }
}
layer {
  name: "conv8_2_relu"
  type: "ReLU"
  bottom: "conv8_2"
  top: "conv8_2"
}
layer {
  name: "conv9_1"
  type: "Convolution"
  bottom: "conv8_2"
  top: "conv9_1"
  param {
    lr_mult: 1
    decay_mult: 1
  }
  param {
    lr_mult: 2
    decay_mult: 0
  }
  convolution_param {
    num_output: 128
    pad: 0
    kernel_size: 1
    stride: 1
    weight_filler {
      type: "xavier"
    }
    bias_filler {
      type: "constant"
      value: 0
    }
  }
}
layer {
  name: "conv9_1_relu"
  type: "ReLU"
  bottom: "conv9_1"
  top: "conv9_1"
}
layer {
  name: "conv9_2"
  type: "Convolution"
  bottom: "conv9_1"
  top: "conv9_2"
  param {
    lr_mult: 1
    decay_mult: 1
  }
  param {
    lr_mult: 2
    decay_mult: 0
  }
  convolution_param {
    num_output: 256
    pad: 0
    kernel_size: 3
    stride: 1
    weight_filler {
      type: "xavier"
    }
    bias_filler {
      type: "constant"
      value: 0
    }
  }
}
layer {
  name: "conv9_2_relu"
  type: "ReLU"
  bottom: "conv9_2"
  top: "conv9_2"
}
layer {
  name: "conv4_3_norm"
  type: "Normalize"
  bottom: "conv4_3"
  top: "conv4_3_norm"
  norm_param {
    across_spatial: false
    scale_filler {
      type: "constant"
      value: 20
    }
    channel_shared: false
  }
}
layer {
  name: "conv4_3_norm_mbox_loc"
  type: "Convolution"
  bottom: "conv4_3_norm"
  top: "conv4_3_norm_mbox_loc"
  param {
    lr_mult: 1
    decay_mult: 1
  }
  param {
    lr_mult: 2
    decay_mult: 0
  }
  convolution_param {
    num_output: 16
    pad: 1
    kernel_size: 3
    stride: 1
    weight_filler {
      type: "xavier"
    }
    bias_filler {
      type: "constant"
      value: 0
    }
  }
}
layer {
  name: "conv4_3_norm_mbox_loc_perm"
  type: "Permute"
  bottom: "conv4_3_norm_mbox_loc"
  top: "conv4_3_norm_mbox_loc_perm"
  permute_param {
    order: 0
    order: 2
    order: 3
    order: 1
  }
}
layer {
  name: "conv4_3_norm_mbox_loc_flat"
  type: "Flatten"
  bottom: "conv4_3_norm_mbox_loc_perm"
  top: "conv4_3_norm_mbox_loc_flat"
  flatten_param {
    axis: 1
  }
}
layer {
  name: "conv4_3_norm_mbox_conf"
  type: "Convolution"
  bottom: "conv4_3_norm"
  top: "conv4_3_norm_mbox_conf"
  param {
    lr_mult: 1
    decay_mult: 1
  }
  param {
    lr_mult: 2
    decay_mult: 0
  }
  convolution_param {
    num_output: 44
    pad: 1
    kernel_size: 3
    stride: 1
    weight_filler {
      type: "xavier"
    }
    bias_filler {
      type: "constant"
      value: 0
    }
  }
}
layer {
  name: "conv4_3_norm_mbox_conf_perm"
  type: "Permute"
  bottom: "conv4_3_norm_mbox_conf"
  top: "conv4_3_norm_mbox_conf_perm"
  permute_param {
    order: 0
    order: 2
    order: 3
    order: 1
  }
}
layer {
  name: "conv4_3_norm_mbox_conf_flat"
  type: "Flatten"
  bottom: "conv4_3_norm_mbox_conf_perm"
  top: "conv4_3_norm_mbox_conf_flat"
  flatten_param {
    axis: 1
  }
}
layer {
  name: "conv4_3_norm_mbox_priorbox"
  type: "PriorBox"
  bottom: "conv4_3_norm"
  bottom: "data"
  top: "conv4_3_norm_mbox_priorbox"
  prior_box_param {
    min_size: 30
    max_size: 60
    aspect_ratio: 2
    flip: true
    clip: false
    variance: 0.1
    variance: 0.1
    variance: 0.2
    variance: 0.2
    step: 8
    offset: 0.5
  }
}
layer {
  name: "fc7_mbox_loc"
  type: "Convolution"
  bottom: "fc7"
  top: "fc7_mbox_loc"
  param {
    lr_mult: 1
    decay_mult: 1
  }
  param {
    lr_mult: 2
    decay_mult: 0
  }
  convolution_param {
    num_output: 24
    pad: 1
    kernel_size: 3
    stride: 1
    weight_filler {
      type: "xavier"
    }
    bias_filler {
      type: "constant"
      value: 0
    }
  }
}
layer {
  name: "fc7_mbox_loc_perm"
  type: "Permute"
  bottom: "fc7_mbox_loc"
  top: "fc7_mbox_loc_perm"
  permute_param {
    order: 0
    order: 2
    order: 3
    order: 1
  }
}
layer {
  name: "fc7_mbox_loc_flat"
  type: "Flatten"
  bottom: "fc7_mbox_loc_perm"
  top: "fc7_mbox_loc_flat"
  flatten_param {
    axis: 1
  }
}
layer {
  name: "fc7_mbox_conf"
  type: "Convolution"
  bottom: "fc7"
  top: "fc7_mbox_conf"
  param {
    lr_mult: 1
    decay_mult: 1
  }
  param {
    lr_mult: 2
    decay_mult: 0
  }
  convolution_param {
    num_output: 66
    pad: 1
    kernel_size: 3
    stride: 1
    weight_filler {
      type: "xavier"
    }
    bias_filler {
      type: "constant"
      value: 0
    }
  }
}
layer {
  name: "fc7_mbox_conf_perm"
  type: "Permute"
  bottom: "fc7_mbox_conf"
  top: "fc7_mbox_conf_perm"
  permute_param {
    order: 0
    order: 2
    order: 3
    order: 1
  }
}
layer {
  name: "fc7_mbox_conf_flat"
  type: "Flatten"
  bottom: "fc7_mbox_conf_perm"
  top: "fc7_mbox_conf_flat"
  flatten_param {
    axis: 1
  }
}
layer {
  name: "fc7_mbox_priorbox"
  type: "PriorBox"
  bottom: "fc7"
  bottom: "data"
  top: "fc7_mbox_priorbox"
  prior_box_param {
    min_size: 60
    max_size: 111
    aspect_ratio: 2
    aspect_ratio: 3
    flip: true
    clip: false
    variance: 0.1
    variance: 0.1
    variance: 0.2
    variance: 0.2
    step: 16
    offset: 0.5
  }
}
layer {
  name: "conv6_2_mbox_loc"
  type: "Convolution"
  bottom: "conv6_2"
  top: "conv6_2_mbox_loc"
  param {
    lr_mult: 1
    decay_mult: 1
  }
  param {
    lr_mult: 2
    decay_mult: 0
  }
  convolution_param {
    num_output: 24
    pad: 1
    kernel_size: 3
    stride: 1
    weight_filler {
      type: "xavier"
    }
    bias_filler {
      type: "constant"
      value: 0
    }
  }
}
layer {
  name: "conv6_2_mbox_loc_perm"
  type: "Permute"
  bottom: "conv6_2_mbox_loc"
  top: "conv6_2_mbox_loc_perm"
  permute_param {
    order: 0
    order: 2
    order: 3
    order: 1
  }
}
layer {
  name: "conv6_2_mbox_loc_flat"
  type: "Flatten"
  bottom: "conv6_2_mbox_loc_perm"
  top: "conv6_2_mbox_loc_flat"
  flatten_param {
    axis: 1
  }
}
layer {
  name: "conv6_2_mbox_conf"
  type: "Convolution"
  bottom: "conv6_2"
  top: "conv6_2_mbox_conf"
  param {
    lr_mult: 1
    decay_mult: 1
  }
  param {
    lr_mult: 2
    decay_mult: 0
  }
  convolution_param {
    num_output: 66
    pad: 1
    kernel_size: 3
    stride: 1
    weight_filler {
      type: "xavier"
    }
    bias_filler {
      type: "constant"
      value: 0
    }
  }
}
layer {
  name: "conv6_2_mbox_conf_perm"
  type: "Permute"
  bottom: "conv6_2_mbox_conf"
  top: "conv6_2_mbox_conf_perm"
  permute_param {
    order: 0
    order: 2
    order: 3
    order: 1
  }
}
layer {
  name: "conv6_2_mbox_conf_flat"
  type: "Flatten"
  bottom: "conv6_2_mbox_conf_perm"
  top: "conv6_2_mbox_conf_flat"
  flatten_param {
    axis: 1
  }
}
layer {
  name: "conv6_2_mbox_priorbox"
  type: "PriorBox"
  bottom: "conv6_2"
  bottom: "data"
  top: "conv6_2_mbox_priorbox"
  prior_box_param {
    min_size: 111
    max_size: 162
    aspect_ratio: 2
    aspect_ratio: 3
    flip: true
    clip: false
    variance: 0.1
    variance: 0.1
    variance: 0.2
    variance: 0.2
    step: 32
    offset: 0.5
  }
}
layer {
  name: "conv7_2_mbox_loc"
  type: "Convolution"
  bottom: "conv7_2"
  top: "conv7_2_mbox_loc"
  param {
    lr_mult: 1
    decay_mult: 1
  }
  param {
    lr_mult: 2
    decay_mult: 0
  }
  convolution_param {
    num_output: 24
    pad: 1
    kernel_size: 3
    stride: 1
    weight_filler {
      type: "xavier"
    }
    bias_filler {
      type: "constant"
      value: 0
    }
  }
}
layer {
  name: "conv7_2_mbox_loc_perm"
  type: "Permute"
  bottom: "conv7_2_mbox_loc"
  top: "conv7_2_mbox_loc_perm"
  permute_param {
    order: 0
    order: 2
    order: 3
    order: 1
  }
}
layer {
  name: "conv7_2_mbox_loc_flat"
  type: "Flatten"
  bottom: "conv7_2_mbox_loc_perm"
  top: "conv7_2_mbox_loc_flat"
  flatten_param {
    axis: 1
  }
}
layer {
  name: "conv7_2_mbox_conf"
  type: "Convolution"
  bottom: "conv7_2"
  top: "conv7_2_mbox_conf"
  param {
    lr_mult: 1
    decay_mult: 1
  }
  param {
    lr_mult: 2
    decay_mult: 0
  }
  convolution_param {
    num_output: 66
    pad: 1
    kernel_size: 3
    stride: 1
    weight_filler {
      type: "xavier"
    }
    bias_filler {
      type: "constant"
      value: 0
    }
  }
}
layer {
  name: "conv7_2_mbox_conf_perm"
  type: "Permute"
  bottom: "conv7_2_mbox_conf"
  top: "conv7_2_mbox_conf_perm"
  permute_param {
    order: 0
    order: 2
    order: 3
    order: 1
  }
}
layer {
  name: "conv7_2_mbox_conf_flat"
  type: "Flatten"
  bottom: "conv7_2_mbox_conf_perm"
  top: "conv7_2_mbox_conf_flat"
  flatten_param {
    axis: 1
  }
}
layer {
  name: "conv7_2_mbox_priorbox"
  type: "PriorBox"
  bottom: "conv7_2"
  bottom: "data"
  top: "conv7_2_mbox_priorbox"
  prior_box_param {
    min_size: 162
    max_size: 213
    aspect_ratio: 2
    aspect_ratio: 3
    flip: true
    clip: false
    variance: 0.1
    variance: 0.1
    variance: 0.2
    variance: 0.2
    step: 64
    offset: 0.5
  }
}
layer {
  name: "conv8_2_mbox_loc"
  type: "Convolution"
  bottom: "conv8_2"
  top: "conv8_2_mbox_loc"
  param {
    lr_mult: 1
    decay_mult: 1
  }
  param {
    lr_mult: 2
    decay_mult: 0
  }
  convolution_param {
    num_output: 16
    pad: 1
    kernel_size: 3
    stride: 1
    weight_filler {
      type: "xavier"
    }
    bias_filler {
      type: "constant"
      value: 0
    }
  }
}
layer {
  name: "conv8_2_mbox_loc_perm"
  type: "Permute"
  bottom: "conv8_2_mbox_loc"
  top: "conv8_2_mbox_loc_perm"
  permute_param {
    order: 0
    order: 2
    order: 3
    order: 1
  }
}
layer {
  name: "conv8_2_mbox_loc_flat"
  type: "Flatten"
  bottom: "conv8_2_mbox_loc_perm"
  top: "conv8_2_mbox_loc_flat"
  flatten_param {
    axis: 1
  }
}
layer {
  name: "conv8_2_mbox_conf"
  type: "Convolution"
  bottom: "conv8_2"
  top: "conv8_2_mbox_conf"
  param {
    lr_mult: 1
    decay_mult: 1
  }
  param {
    lr_mult: 2
    decay_mult: 0
  }
  convolution_param {
    num_output: 44
    pad: 1
    kernel_size: 3
    stride: 1
    weight_filler {
      type: "xavier"
    }
    bias_filler {
      type: "constant"
      value: 0
    }
  }
}
layer {
  name: "conv8_2_mbox_conf_perm"
  type: "Permute"
  bottom: "conv8_2_mbox_conf"
  top: "conv8_2_mbox_conf_perm"
  permute_param {
    order: 0
    order: 2
    order: 3
    order: 1
  }
}
layer {
  name: "conv8_2_mbox_conf_flat"
  type: "Flatten"
  bottom: "conv8_2_mbox_conf_perm"
  top: "conv8_2_mbox_conf_flat"
  flatten_param {
    axis: 1
  }
}
layer {
  name: "conv8_2_mbox_priorbox"
  type: "PriorBox"
  bottom: "conv8_2"
  bottom: "data"
  top: "conv8_2_mbox_priorbox"
  prior_box_param {
    min_size: 213
    max_size: 264
    aspect_ratio: 2
    flip: true
    clip: false
    variance: 0.1
    variance: 0.1
    variance: 0.2
    variance: 0.2
    step: 100
    offset: 0.5
  }
}
layer {
  name: "conv9_2_mbox_loc"
  type: "Convolution"
  bottom: "conv9_2"
  top: "conv9_2_mbox_loc"
  param {
    lr_mult: 1
    decay_mult: 1
  }
  param {
    lr_mult: 2
    decay_mult: 0
  }
  convolution_param {
    num_output: 16
    pad: 1
    kernel_size: 3
    stride: 1
    weight_filler {
      type: "xavier"
    }
    bias_filler {
      type: "constant"
      value: 0
    }
  }
}
layer {
  name: "conv9_2_mbox_loc_perm"
  type: "Permute"
  bottom: "conv9_2_mbox_loc"
  top: "conv9_2_mbox_loc_perm"
  permute_param {
    order: 0
    order: 2
    order: 3
    order: 1
  }
}
layer {
  name: "conv9_2_mbox_loc_flat"
  type: "Flatten"
  bottom: "conv9_2_mbox_loc_perm"
  top: "conv9_2_mbox_loc_flat"
  flatten_param {
    axis: 1
  }
}
layer {
  name: "conv9_2_mbox_conf"
  type: "Convolution"
  bottom: "conv9_2"
  top: "conv9_2_mbox_conf"
  param {
    lr_mult: 1
    decay_mult: 1
  }
  param {
    lr_mult: 2
    decay_mult: 0
  }
  convolution_param {
    num_output: 44
    pad: 1
    kernel_size: 3
    stride: 1
    weight_filler {
      type: "xavier"
    }
    bias_filler {
      type: "constant"
      value: 0
    }
  }
}
layer {
  name: "conv9_2_mbox_conf_perm"
  type: "Permute"
  bottom: "conv9_2_mbox_conf"
  top: "conv9_2_mbox_conf_perm"
  permute_param {
    order: 0
    order: 2
    order: 3
    order: 1
  }
}
layer {
  name: "conv9_2_mbox_conf_flat"
  type: "Flatten"
  bottom: "conv9_2_mbox_conf_perm"
  top: "conv9_2_mbox_conf_flat"
  flatten_param {
    axis: 1
  }
}
layer {
  name: "conv9_2_mbox_priorbox"
  type: "PriorBox"
  bottom: "conv9_2"
  bottom: "data"
  top: "conv9_2_mbox_priorbox"
  prior_box_param {
    min_size: 264
    max_size: 315
    aspect_ratio: 2
    flip: true
    clip: false
    variance: 0.1
    variance: 0.1
    variance: 0.2
    variance: 0.2
    step: 300
    offset: 0.5
  }
}
layer {
  name: "mbox_loc"
  type: "Concat"
  bottom: "conv4_3_norm_mbox_loc_flat"
  bottom: "fc7_mbox_loc_flat"
  bottom: "conv6_2_mbox_loc_flat"
  bottom: "conv7_2_mbox_loc_flat"
  bottom: "conv8_2_mbox_loc_flat"
  bottom: "conv9_2_mbox_loc_flat"
  top: "mbox_loc"
  concat_param {
    axis: 1
  }
}
layer {
  name: "mbox_conf"
  type: "Concat"
  bottom: "conv4_3_norm_mbox_conf_flat"
  bottom: "fc7_mbox_conf_flat"
  bottom: "conv6_2_mbox_conf_flat"
  bottom: "conv7_2_mbox_conf_flat"
  bottom: "conv8_2_mbox_conf_flat"
  bottom: "conv9_2_mbox_conf_flat"
  top: "mbox_conf"
  concat_param {
    axis: 1
  }
}
layer {
  name: "mbox_priorbox"
  type: "Concat"
  bottom: "conv4_3_norm_mbox_priorbox"
  bottom: "fc7_mbox_priorbox"
  bottom: "conv6_2_mbox_priorbox"
  bottom: "conv7_2_mbox_priorbox"
  bottom: "conv8_2_mbox_priorbox"
  bottom: "conv9_2_mbox_priorbox"
  top: "mbox_priorbox"
  concat_param {
    axis: 2
  }
}
layer {
  name: "mbox_conf_reshape"
  type: "Reshape"
  bottom: "mbox_conf"
  top: "mbox_conf_reshape"
  reshape_param {
    shape {
      dim: 0
      dim: -1
      dim: 11
    }
  }
}
layer {
  name: "mbox_conf_softmax"
  type: "Softmax"
  bottom: "mbox_conf_reshape"
  top: "mbox_conf_softmax"
  softmax_param {
    axis: 2
  }
}
layer {
  name: "mbox_conf_flatten"
  type: "Flatten"
  bottom: "mbox_conf_softmax"
  top: "mbox_conf_flatten"
  flatten_param {
    axis: 1
  }
}
layer {
  name: "detection_out"
  type: "DetectionOutput"
  bottom: "mbox_loc"
  bottom: "mbox_conf_flatten"
  bottom: "mbox_priorbox"
  top: "detection_out"
  include {
    phase: TEST
  }
  detection_output_param {
    num_classes: 11
    share_location: true
    background_label_id: 0
    nms_param {
      nms_threshold: 0.45
      top_k: 400
    }
    save_output_param {
      output_directory: "/home/zs/data/VOCdevkit/results/VOC2007/SSD_300x300_0324_conv3/Main"
      output_name_prefix: "comp4_det_test_"
      output_format: "VOC"
      label_map_file: "data/NWPU_VHR/labelmap_NWPU_VHR.prototxt"
      name_size_file: "data/NWPU_VHR/test_name_size.txt"
      num_test_image: 123
    }
    code_type: CENTER_SIZE
    keep_top_k: 200
    confidence_threshold: 0.01
  }
}
layer {
  name: "detection_eval"
  type: "DetectionEvaluate"
  bottom: "detection_out"
  bottom: "label"
  top: "detection_eval"
  include {
    phase: TEST
  }
  detection_evaluate_param {
    num_classes: 11
    background_label_id: 0
    overlap_threshold: 0.5
    evaluate_difficult_gt: false
    name_size_file: "data/NWPU_VHR/test_na
I0324 11:26:51.252784 17114 layer_factory.hpp:77] Creating layer data
I0324 11:26:51.252864 17114 net.cpp:100] Creating Layer data
I0324 11:26:51.252876 17114 net.cpp:408] data -> data
I0324 11:26:51.252892 17114 net.cpp:408] data -> label
I0324 11:26:51.254796 17130 db_lmdb.cpp:35] Opened lmdb examples/NWPU_VHR/NWPU_VHR_test_lmdb
I0324 11:26:51.270579 17114 annotated_data_layer.cpp:62] output data size: 1,3,300,300
I0324 11:26:51.276293 17114 net.cpp:150] Setting up data
I0324 11:26:51.276340 17114 net.cpp:157] Top shape: 1 3 300 300 (270000)
I0324 11:26:51.276348 17114 net.cpp:157] Top shape: 1 1 4 8 (32)
I0324 11:26:51.276353 17114 net.cpp:165] Memory required for data: 1080128
I0324 11:26:51.276362 17114 layer_factory.hpp:77] Creating layer data_data_0_split
I0324 11:26:51.276383 17114 net.cpp:100] Creating Layer data_data_0_split
I0324 11:26:51.276394 17114 net.cpp:434] data_data_0_split <- data
I0324 11:26:51.276407 17114 net.cpp:408] data_data_0_split -> data_data_0_split_0
I0324 11:26:51.276422 17114 net.cpp:408] data_data_0_split -> data_data_0_split_1
I0324 11:26:51.276432 17114 net.cpp:408] data_data_0_split -> data_data_0_split_2
I0324 11:26:51.276443 17114 net.cpp:408] data_data_0_split -> data_data_0_split_3
I0324 11:26:51.276470 17114 net.cpp:408] data_data_0_split -> data_data_0_split_4
I0324 11:26:51.276479 17114 net.cpp:408] data_data_0_split -> data_data_0_split_5
I0324 11:26:51.276489 17114 net.cpp:408] data_data_0_split -> data_data_0_split_6
I0324 11:26:51.276675 17114 net.cpp:150] Setting up data_data_0_split
I0324 11:26:51.276686 17114 net.cpp:157] Top shape: 1 3 300 300 (270000)
I0324 11:26:51.276693 17114 net.cpp:157] Top shape: 1 3 300 300 (270000)
I0324 11:26:51.276700 17114 net.cpp:157] Top shape: 1 3 300 300 (270000)
I0324 11:26:51.276707 17114 net.cpp:157] Top shape: 1 3 300 300 (270000)
I0324 11:26:51.276713 17114 net.cpp:157] Top shape: 1 3 300 300 (270000)
I0324 11:26:51.276720 17114 net.cpp:157] Top shape: 1 3 300 300 (270000)
I0324 11:26:51.276726 17114 net.cpp:157] Top shape: 1 3 300 300 (270000)
I0324 11:26:51.276731 17114 net.cpp:165] Memory required for data: 8640128
I0324 11:26:51.276736 17114 layer_factory.hpp:77] Creating layer conv1_1
I0324 11:26:51.276753 17114 net.cpp:100] Creating Layer conv1_1
I0324 11:26:51.276762 17114 net.cpp:434] conv1_1 <- data_data_0_split_0
I0324 11:26:51.276772 17114 net.cpp:408] conv1_1 -> conv1_1
I0324 11:26:51.279829 17114 net.cpp:150] Setting up conv1_1
I0324 11:26:51.279858 17114 net.cpp:157] Top shape: 1 64 300 300 (5760000)
I0324 11:26:51.279865 17114 net.cpp:165] Memory required for data: 31680128
I0324 11:26:51.279881 17114 layer_factory.hpp:77] Creating layer relu1_1
I0324 11:26:51.279893 17114 net.cpp:100] Creating Layer relu1_1
I0324 11:26:51.279901 17114 net.cpp:434] relu1_1 <- conv1_1
I0324 11:26:51.279908 17114 net.cpp:395] relu1_1 -> conv1_1 (in-place)
I0324 11:26:51.280191 17114 net.cpp:150] Setting up relu1_1
I0324 11:26:51.280206 17114 net.cpp:157] Top shape: 1 64 300 300 (5760000)
I0324 11:26:51.280211 17114 net.cpp:165] Memory required for data: 54720128
I0324 11:26:51.280216 17114 layer_factory.hpp:77] Creating layer conv1_2
I0324 11:26:51.280236 17114 net.cpp:100] Creating Layer conv1_2
I0324 11:26:51.280242 17114 net.cpp:434] conv1_2 <- conv1_1
I0324 11:26:51.280251 17114 net.cpp:408] conv1_2 -> conv1_2
I0324 11:26:51.282673 17114 net.cpp:150] Setting up conv1_2
I0324 11:26:51.282711 17114 net.cpp:157] Top shape: 1 64 300 300 (5760000)
I0324 11:26:51.282717 17114 net.cpp:165] Memory required for data: 77760128
I0324 11:26:51.282734 17114 layer_factory.hpp:77] Creating layer relu1_2
I0324 11:26:51.282747 17114 net.cpp:100] Creating Layer relu1_2
I0324 11:26:51.282754 17114 net.cpp:434] relu1_2 <- conv1_2
I0324 11:26:51.282763 17114 net.cpp:395] relu1_2 -> conv1_2 (in-place)
I0324 11:26:51.283833 17114 net.cpp:150] Setting up relu1_2
I0324 11:26:51.283856 17114 net.cpp:157] Top shape: 1 64 300 300 (5760000)
I0324 11:26:51.283861 17114 net.cpp:165] Memory required for data: 100800128
I0324 11:26:51.283869 17114 layer_factory.hpp:77] Creating layer pool1
I0324 11:26:51.283881 17114 net.cpp:100] Creating Layer pool1
I0324 11:26:51.283888 17114 net.cpp:434] pool1 <- conv1_2
I0324 11:26:51.283897 17114 net.cpp:408] pool1 -> pool1
I0324 11:26:51.283977 17114 net.cpp:150] Setting up pool1
I0324 11:26:51.283988 17114 net.cpp:157] Top shape: 1 64 150 150 (1440000)
I0324 11:26:51.283993 17114 net.cpp:165] Memory required for data: 106560128
I0324 11:26:51.283999 17114 layer_factory.hpp:77] Creating layer conv2_1
I0324 11:26:51.284013 17114 net.cpp:100] Creating Layer conv2_1
I0324 11:26:51.284021 17114 net.cpp:434] conv2_1 <- pool1
I0324 11:26:51.284029 17114 net.cpp:408] conv2_1 -> conv2_1
I0324 11:26:51.288700 17114 net.cpp:150] Setting up conv2_1
I0324 11:26:51.288735 17114 net.cpp:157] Top shape: 1 128 150 150 (2880000)
I0324 11:26:51.288740 17114 net.cpp:165] Memory required for data: 118080128
I0324 11:26:51.288759 17114 layer_factory.hpp:77] Creating layer relu2_1
I0324 11:26:51.288775 17114 net.cpp:100] Creating Layer relu2_1
I0324 11:26:51.288781 17114 net.cpp:434] relu2_1 <- conv2_1
I0324 11:26:51.288791 17114 net.cpp:395] relu2_1 -> conv2_1 (in-place)
I0324 11:26:51.289108 17114 net.cpp:150] Setting up relu2_1
I0324 11:26:51.289139 17114 net.cpp:157] Top shape: 1 128 150 150 (2880000)
I0324 11:26:51.289144 17114 net.cpp:165] Memory required for data: 129600128
I0324 11:26:51.289149 17114 layer_factory.hpp:77] Creating layer conv2_2
I0324 11:26:51.289163 17114 net.cpp:100] Creating Layer conv2_2
I0324 11:26:51.289170 17114 net.cpp:434] conv2_2 <- conv2_1
I0324 11:26:51.289178 17114 net.cpp:408] conv2_2 -> conv2_2
I0324 11:26:51.293413 17114 net.cpp:150] Setting up conv2_2
I0324 11:26:51.293450 17114 net.cpp:157] Top shape: 1 128 150 150 (2880000)
I0324 11:26:51.293457 17114 net.cpp:165] Memory required for data: 141120128
I0324 11:26:51.293471 17114 layer_factory.hpp:77] Creating layer relu2_2
I0324 11:26:51.293483 17114 net.cpp:100] Creating Layer relu2_2
I0324 11:26:51.293491 17114 net.cpp:434] relu2_2 <- conv2_2
I0324 11:26:51.293501 17114 net.cpp:395] relu2_2 -> conv2_2 (in-place)
I0324 11:26:51.306461 17114 net.cpp:150] Setting up relu2_2
I0324 11:26:51.306500 17114 net.cpp:157] Top shape: 1 128 150 150 (2880000)
I0324 11:26:51.306506 17114 net.cpp:165] Memory required for data: 152640128
I0324 11:26:51.306515 17114 layer_factory.hpp:77] Creating layer pool2
I0324 11:26:51.306530 17114 net.cpp:100] Creating Layer pool2
I0324 11:26:51.306537 17114 net.cpp:434] pool2 <- conv2_2
I0324 11:26:51.306548 17114 net.cpp:408] pool2 -> pool2
I0324 11:26:51.306674 17114 net.cpp:150] Setting up pool2
I0324 11:26:51.306684 17114 net.cpp:157] Top shape: 1 128 75 75 (720000)
I0324 11:26:51.306689 17114 net.cpp:165] Memory required for data: 155520128
I0324 11:26:51.306694 17114 layer_factory.hpp:77] Creating layer conv3_1
I0324 11:26:51.306710 17114 net.cpp:100] Creating Layer conv3_1
I0324 11:26:51.306716 17114 net.cpp:434] conv3_1 <- pool2
I0324 11:26:51.306725 17114 net.cpp:408] conv3_1 -> conv3_1
I0324 11:26:51.313333 17114 net.cpp:150] Setting up conv3_1
I0324 11:26:51.313364 17114 net.cpp:157] Top shape: 1 256 75 75 (1440000)
I0324 11:26:51.313369 17114 net.cpp:165] Memory required for data: 161280128
I0324 11:26:51.313386 17114 layer_factory.hpp:77] Creating layer relu3_1
I0324 11:26:51.313400 17114 net.cpp:100] Creating Layer relu3_1
I0324 11:26:51.313407 17114 net.cpp:434] relu3_1 <- conv3_1
I0324 11:26:51.313416 17114 net.cpp:395] relu3_1 -> conv3_1 (in-place)
I0324 11:26:51.314393 17114 net.cpp:150] Setting up relu3_1
I0324 11:26:51.314409 17114 net.cpp:157] Top shape: 1 256 75 75 (1440000)
I0324 11:26:51.314415 17114 net.cpp:165] Memory required for data: 167040128
I0324 11:26:51.314420 17114 layer_factory.hpp:77] Creating layer conv3_2_depthwise
I0324 11:26:51.314433 17114 net.cpp:100] Creating Layer conv3_2_depthwise
I0324 11:26:51.314440 17114 net.cpp:434] conv3_2_depthwise <- conv3_1
I0324 11:26:51.314448 17114 net.cpp:408] conv3_2_depthwise -> conv3_2_3x3
I0324 11:26:51.314831 17114 net.cpp:150] Setting up conv3_2_depthwise
I0324 11:26:51.314844 17114 net.cpp:157] Top shape: 1 256 75 75 (1440000)
I0324 11:26:51.314849 17114 net.cpp:165] Memory required for data: 172800128
I0324 11:26:51.314858 17114 layer_factory.hpp:77] Creating layer conv3_2_3x3_relu
I0324 11:26:51.314867 17114 net.cpp:100] Creating Layer conv3_2_3x3_relu
I0324 11:26:51.314872 17114 net.cpp:434] conv3_2_3x3_relu <- conv3_2_3x3
I0324 11:26:51.314878 17114 net.cpp:395] conv3_2_3x3_relu -> conv3_2_3x3 (in-place)
I0324 11:26:51.315091 17114 net.cpp:150] Setting up conv3_2_3x3_relu
I0324 11:26:51.315104 17114 net.cpp:157] Top shape: 1 256 75 75 (1440000)
I0324 11:26:51.315109 17114 net.cpp:165] Memory required for data: 178560128
I0324 11:26:51.315114 17114 layer_factory.hpp:77] Creating layer conv3_2_1x1
I0324 11:26:51.315129 17114 net.cpp:100] Creating Layer conv3_2_1x1
I0324 11:26:51.315135 17114 net.cpp:434] conv3_2_1x1 <- conv3_2_3x3
I0324 11:26:51.315143 17114 net.cpp:408] conv3_2_1x1 -> conv3_2
I0324 11:26:51.317981 17114 net.cpp:150] Setting up conv3_2_1x1
I0324 11:26:51.318027 17114 net.cpp:157] Top shape: 1 256 75 75 (1440000)
I0324 11:26:51.318032 17114 net.cpp:165] Memory required for data: 184320128
I0324 11:26:51.318049 17114 layer_factory.hpp:77] Creating layer relu3_2
I0324 11:26:51.318094 17114 net.cpp:100] Creating Layer relu3_2
I0324 11:26:51.318104 17114 net.cpp:434] relu3_2 <- conv3_2
I0324 11:26:51.318114 17114 net.cpp:395] relu3_2 -> conv3_2 (in-place)
I0324 11:26:51.318363 17114 net.cpp:150] Setting up relu3_2
I0324 11:26:51.318378 17114 net.cpp:157] Top shape: 1 256 75 75 (1440000)
I0324 11:26:51.318383 17114 net.cpp:165] Memory required for data: 190080128
I0324 11:26:51.318389 17114 layer_factory.hpp:77] Creating layer conv3_3_depthwise
I0324 11:26:51.318403 17114 net.cpp:100] Creating Layer conv3_3_depthwise
I0324 11:26:51.318408 17114 net.cpp:434] conv3_3_depthwise <- conv3_2
I0324 11:26:51.318416 17114 net.cpp:408] conv3_3_depthwise -> conv3_3_3x3
I0324 11:26:51.318812 17114 net.cpp:150] Setting up conv3_3_depthwise
I0324 11:26:51.318827 17114 net.cpp:157] Top shape: 1 256 75 75 (1440000)
I0324 11:26:51.318833 17114 net.cpp:165] Memory required for data: 195840128
I0324 11:26:51.318842 17114 layer_factory.hpp:77] Creating layer conv3_3_3x3_relu
I0324 11:26:51.318852 17114 net.cpp:100] Creating Layer conv3_3_3x3_relu
I0324 11:26:51.318859 17114 net.cpp:434] conv3_3_3x3_relu <- conv3_3_3x3
I0324 11:26:51.318867 17114 net.cpp:395] conv3_3_3x3_relu -> conv3_3_3x3 (in-place)
I0324 11:26:51.319082 17114 net.cpp:150] Setting up conv3_3_3x3_relu
I0324 11:26:51.319094 17114 net.cpp:157] Top shape: 1 256 75 75 (1440000)
I0324 11:26:51.319099 17114 net.cpp:165] Memory required for data: 201600128
I0324 11:26:51.319105 17114 layer_factory.hpp:77] Creating layer conv3_3_1x1
I0324 11:26:51.319118 17114 net.cpp:100] Creating Layer conv3_3_1x1
I0324 11:26:51.319124 17114 net.cpp:434] conv3_3_1x1 <- conv3_3_3x3
I0324 11:26:51.319133 17114 net.cpp:408] conv3_3_1x1 -> conv3_3
I0324 11:26:51.321547 17114 net.cpp:150] Setting up conv3_3_1x1
I0324 11:26:51.321564 17114 net.cpp:157] Top shape: 1 256 75 75 (1440000)
I0324 11:26:51.321570 17114 net.cpp:165] Memory required for data: 207360128
I0324 11:26:51.321583 17114 layer_factory.hpp:77] Creating layer relu3_3
I0324 11:26:51.321593 17114 net.cpp:100] Creating Layer relu3_3
I0324 11:26:51.321599 17114 net.cpp:434] relu3_3 <- conv3_3
I0324 11:26:51.321604 17114 net.cpp:395] relu3_3 -> conv3_3 (in-place)
I0324 11:26:51.322571 17114 net.cpp:150] Setting up relu3_3
I0324 11:26:51.322588 17114 net.cpp:157] Top shape: 1 256 75 75 (1440000)
I0324 11:26:51.322594 17114 net.cpp:165] Memory required for data: 213120128
I0324 11:26:51.322599 17114 layer_factory.hpp:77] Creating layer pool3
I0324 11:26:51.322608 17114 net.cpp:100] Creating Layer pool3
I0324 11:26:51.322614 17114 net.cpp:434] pool3 <- conv3_3
I0324 11:26:51.322623 17114 net.cpp:408] pool3 -> pool3
I0324 11:26:51.322685 17114 net.cpp:150] Setting up pool3
I0324 11:26:51.322693 17114 net.cpp:157] Top shape: 1 256 38 38 (369664)
I0324 11:26:51.322698 17114 net.cpp:165] Memory required for data: 214598784
I0324 11:26:51.322705 17114 layer_factory.hpp:77] Creating layer conv4_1_depthwise
I0324 11:26:51.322713 17114 net.cpp:100] Creating Layer conv4_1_depthwise
I0324 11:26:51.322718 17114 net.cpp:434] conv4_1_depthwise <- pool3
I0324 11:26:51.322726 17114 net.cpp:408] conv4_1_depthwise -> conv4_1_3x3
I0324 11:26:51.323066 17114 net.cpp:150] Setting up conv4_1_depthwise
I0324 11:26:51.323078 17114 net.cpp:157] Top shape: 1 256 38 38 (369664)
I0324 11:26:51.323083 17114 net.cpp:165] Memory required for data: 216077440
I0324 11:26:51.323092 17114 layer_factory.hpp:77] Creating layer conv4_1_3x3_relu
I0324 11:26:51.323101 17114 net.cpp:100] Creating Layer conv4_1_3x3_relu
I0324 11:26:51.323107 17114 net.cpp:434] conv4_1_3x3_relu <- conv4_1_3x3
I0324 11:26:51.323115 17114 net.cpp:395] conv4_1_3x3_relu -> conv4_1_3x3 (in-place)
I0324 11:26:51.323325 17114 net.cpp:150] Setting up conv4_1_3x3_relu
I0324 11:26:51.323339 17114 net.cpp:157] Top shape: 1 256 38 38 (369664)
I0324 11:26:51.323344 17114 net.cpp:165] Memory required for data: 217556096
I0324 11:26:51.323349 17114 layer_factory.hpp:77] Creating layer conv4_1_1x1
I0324 11:26:51.323362 17114 net.cpp:100] Creating Layer conv4_1_1x1
I0324 11:26:51.323386 17114 net.cpp:434] conv4_1_1x1 <- conv4_1_3x3
I0324 11:26:51.323395 17114 net.cpp:408] conv4_1_1x1 -> conv4_1
I0324 11:26:51.333763 17114 net.cpp:150] Setting up conv4_1_1x1
I0324 11:26:51.333799 17114 net.cpp:157] Top shape: 1 512 38 38 (739328)
I0324 11:26:51.333806 17114 net.cpp:165] Memory required for data: 220513408
I0324 11:26:51.333819 17114 layer_factory.hpp:77] Creating layer relu4_1
I0324 11:26:51.333832 17114 net.cpp:100] Creating Layer relu4_1
I0324 11:26:51.333838 17114 net.cpp:434] relu4_1 <- conv4_1
I0324 11:26:51.333848 17114 net.cpp:395] relu4_1 -> conv4_1 (in-place)
I0324 11:26:51.334079 17114 net.cpp:150] Setting up relu4_1
I0324 11:26:51.334092 17114 net.cpp:157] Top shape: 1 512 38 38 (739328)
I0324 11:26:51.334098 17114 net.cpp:165] Memory required for data: 223470720
I0324 11:26:51.334103 17114 layer_factory.hpp:77] Creating layer conv4_2
I0324 11:26:51.334117 17114 net.cpp:100] Creating Layer conv4_2
I0324 11:26:51.334122 17114 net.cpp:434] conv4_2 <- conv4_1
I0324 11:26:51.334131 17114 net.cpp:408] conv4_2 -> conv4_2
I0324 11:26:51.360841 17114 net.cpp:150] Setting up conv4_2
I0324 11:26:51.360879 17114 net.cpp:157] Top shape: 1 512 38 38 (739328)
I0324 11:26:51.360885 17114 net.cpp:165] Memory required for data: 226428032
I0324 11:26:51.360899 17114 layer_factory.hpp:77] Creating layer relu4_2
I0324 11:26:51.360913 17114 net.cpp:100] Creating Layer relu4_2
I0324 11:26:51.360919 17114 net.cpp:434] relu4_2 <- conv4_2
I0324 11:26:51.360929 17114 net.cpp:395] relu4_2 -> conv4_2 (in-place)
I0324 11:26:51.362138 17114 net.cpp:150] Setting up relu4_2
I0324 11:26:51.362170 17114 net.cpp:157] Top shape: 1 512 38 38 (739328)
I0324 11:26:51.362176 17114 net.cpp:165] Memory required for data: 229385344
I0324 11:26:51.362184 17114 layer_factory.hpp:77] Creating layer conv4_3
I0324 11:26:51.362203 17114 net.cpp:100] Creating Layer conv4_3
I0324 11:26:51.362211 17114 net.cpp:434] conv4_3 <- conv4_2
I0324 11:26:51.362221 17114 net.cpp:408] conv4_3 -> conv4_3
I0324 11:26:51.399093 17114 net.cpp:150] Setting up conv4_3
I0324 11:26:51.399145 17114 net.cpp:157] Top shape: 1 512 38 38 (739328)
I0324 11:26:51.399152 17114 net.cpp:165] Memory required for data: 232342656
I0324 11:26:51.399166 17114 layer_factory.hpp:77] Creating layer relu4_3
I0324 11:26:51.399183 17114 net.cpp:100] Creating Layer relu4_3
I0324 11:26:51.399193 17114 net.cpp:434] relu4_3 <- conv4_3
I0324 11:26:51.399204 17114 net.cpp:395] relu4_3 -> conv4_3 (in-place)
I0324 11:26:51.399487 17114 net.cpp:150] Setting up relu4_3
I0324 11:26:51.399502 17114 net.cpp:157] Top shape: 1 512 38 38 (739328)
I0324 11:26:51.399508 17114 net.cpp:165] Memory required for data: 235299968
I0324 11:26:51.399514 17114 layer_factory.hpp:77] Creating layer conv4_3_relu4_3_0_split
I0324 11:26:51.399524 17114 net.cpp:100] Creating Layer conv4_3_relu4_3_0_split
I0324 11:26:51.399530 17114 net.cpp:434] conv4_3_relu4_3_0_split <- conv4_3
I0324 11:26:51.399539 17114 net.cpp:408] conv4_3_relu4_3_0_split -> conv4_3_relu4_3_0_split_0
I0324 11:26:51.399551 17114 net.cpp:408] conv4_3_relu4_3_0_split -> conv4_3_relu4_3_0_split_1
I0324 11:26:51.399632 17114 net.cpp:150] Setting up conv4_3_relu4_3_0_split
I0324 11:26:51.399641 17114 net.cpp:157] Top shape: 1 512 38 38 (739328)
I0324 11:26:51.399647 17114 net.cpp:157] Top shape: 1 512 38 38 (739328)
I0324 11:26:51.399653 17114 net.cpp:165] Memory required for data: 241214592
I0324 11:26:51.399659 17114 layer_factory.hpp:77] Creating layer pool4
I0324 11:26:51.399677 17114 net.cpp:100] Creating Layer pool4
I0324 11:26:51.399683 17114 net.cpp:434] pool4 <- conv4_3_relu4_3_0_split_0
I0324 11:26:51.399691 17114 net.cpp:408] pool4 -> pool4
I0324 11:26:51.399747 17114 net.cpp:150] Setting up pool4
I0324 11:26:51.399755 17114 net.cpp:157] Top shape: 1 512 19 19 (184832)
I0324 11:26:51.399760 17114 net.cpp:165] Memory required for data: 241953920
I0324 11:26:51.399765 17114 layer_factory.hpp:77] Creating layer conv5_1_depthwise
I0324 11:26:51.399780 17114 net.cpp:100] Creating Layer conv5_1_depthwise
I0324 11:26:51.399814 17114 net.cpp:434] conv5_1_depthwise <- pool4
I0324 11:26:51.399835 17114 net.cpp:408] conv5_1_depthwise -> conv5_1_3x3
I0324 11:26:51.400310 17114 net.cpp:150] Setting up conv5_1_depthwise
I0324 11:26:51.400333 17114 net.cpp:157] Top shape: 1 512 19 19 (184832)
I0324 11:26:51.400338 17114 net.cpp:165] Memory required for data: 242693248
I0324 11:26:51.400352 17114 layer_factory.hpp:77] Creating layer conv5_1_3x3_relu
I0324 11:26:51.400364 17114 net.cpp:100] Creating Layer conv5_1_3x3_relu
I0324 11:26:51.400370 17114 net.cpp:434] conv5_1_3x3_relu <- conv5_1_3x3
I0324 11:26:51.400378 17114 net.cpp:395] conv5_1_3x3_relu -> conv5_1_3x3 (in-place)
I0324 11:26:51.400794 17114 net.cpp:150] Setting up conv5_1_3x3_relu
I0324 11:26:51.400816 17114 net.cpp:157] Top shape: 1 512 19 19 (184832)
I0324 11:26:51.400821 17114 net.cpp:165] Memory required for data: 243432576
I0324 11:26:51.400826 17114 layer_factory.hpp:77] Creating layer conv5_1_1x1
I0324 11:26:51.400849 17114 net.cpp:100] Creating Layer conv5_1_1x1
I0324 11:26:51.400856 17114 net.cpp:434] conv5_1_1x1 <- conv5_1_3x3
I0324 11:26:51.400868 17114 net.cpp:408] conv5_1_1x1 -> conv5_1
I0324 11:26:51.418521 17114 net.cpp:150] Setting up conv5_1_1x1
I0324 11:26:51.418561 17114 net.cpp:157] Top shape: 1 512 19 19 (184832)
I0324 11:26:51.418568 17114 net.cpp:165] Memory required for data: 244171904
I0324 11:26:51.418581 17114 layer_factory.hpp:77] Creating layer relu5_1
I0324 11:26:51.418594 17114 net.cpp:100] Creating Layer relu5_1
I0324 11:26:51.418602 17114 net.cpp:434] relu5_1 <- conv5_1
I0324 11:26:51.418614 17114 net.cpp:395] relu5_1 -> conv5_1 (in-place)
I0324 11:26:51.420393 17114 net.cpp:150] Setting up relu5_1
I0324 11:26:51.420416 17114 net.cpp:157] Top shape: 1 512 19 19 (184832)
I0324 11:26:51.420423 17114 net.cpp:165] Memory required for data: 244911232
I0324 11:26:51.420429 17114 layer_factory.hpp:77] Creating layer conv5_2_depthwise
I0324 11:26:51.420447 17114 net.cpp:100] Creating Layer conv5_2_depthwise
I0324 11:26:51.420455 17114 net.cpp:434] conv5_2_depthwise <- conv5_1
I0324 11:26:51.420466 17114 net.cpp:408] conv5_2_depthwise -> conv5_2_3x3
I0324 11:26:51.420922 17114 net.cpp:150] Setting up conv5_2_depthwise
I0324 11:26:51.420934 17114 net.cpp:157] Top shape: 1 512 19 19 (184832)
I0324 11:26:51.420939 17114 net.cpp:165] Memory required for data: 245650560
I0324 11:26:51.420949 17114 layer_factory.hpp:77] Creating layer conv5_2_3x3_relu
I0324 11:26:51.420960 17114 net.cpp:100] Creating Layer conv5_2_3x3_relu
I0324 11:26:51.420966 17114 net.cpp:434] conv5_2_3x3_relu <- conv5_2_3x3
I0324 11:26:51.420975 17114 net.cpp:395] conv5_2_3x3_relu -> conv5_2_3x3 (in-place)
I0324 11:26:51.421236 17114 net.cpp:150] Setting up conv5_2_3x3_relu
I0324 11:26:51.421252 17114 net.cpp:157] Top shape: 1 512 19 19 (184832)
I0324 11:26:51.421257 17114 net.cpp:165] Memory required for data: 246389888
I0324 11:26:51.421262 17114 layer_factory.hpp:77] Creating layer conv5_2_1x1
I0324 11:26:51.421277 17114 net.cpp:100] Creating Layer conv5_2_1x1
I0324 11:26:51.421283 17114 net.cpp:434] conv5_2_1x1 <- conv5_2_3x3
I0324 11:26:51.421293 17114 net.cpp:408] conv5_2_1x1 -> conv5_2
I0324 11:26:51.426271 17114 net.cpp:150] Setting up conv5_2_1x1
I0324 11:26:51.426307 17114 net.cpp:157] Top shape: 1 512 19 19 (184832)
I0324 11:26:51.426313 17114 net.cpp:165] Memory required for data: 247129216
I0324 11:26:51.426339 17114 layer_factory.hpp:77] Creating layer relu5_2
I0324 11:26:51.426354 17114 net.cpp:100] Creating Layer relu5_2
I0324 11:26:51.426363 17114 net.cpp:434] relu5_2 <- conv5_2
I0324 11:26:51.426374 17114 net.cpp:395] relu5_2 -> conv5_2 (in-place)
I0324 11:26:51.426612 17114 net.cpp:150] Setting up relu5_2
I0324 11:26:51.426625 17114 net.cpp:157] Top shape: 1 512 19 19 (184832)
I0324 11:26:51.426631 17114 net.cpp:165] Memory required for data: 247868544
I0324 11:26:51.426636 17114 layer_factory.hpp:77] Creating layer conv5_3_depthwise
I0324 11:26:51.426651 17114 net.cpp:100] Creating Layer conv5_3_depthwise
I0324 11:26:51.426657 17114 net.cpp:434] conv5_3_depthwise <- conv5_2
I0324 11:26:51.426687 17114 net.cpp:408] conv5_3_depthwise -> conv5_3_3x3
I0324 11:26:51.427106 17114 net.cpp:150] Setting up conv5_3_depthwise
I0324 11:26:51.427119 17114 net.cpp:157] Top shape: 1 512 19 19 (184832)
I0324 11:26:51.427124 17114 net.cpp:165] Memory required for data: 248607872
I0324 11:26:51.427132 17114 layer_factory.hpp:77] Creating layer conv5_3_3x3_relu
I0324 11:26:51.427143 17114 net.cpp:100] Creating Layer conv5_3_3x3_relu
I0324 11:26:51.427150 17114 net.cpp:434] conv5_3_3x3_relu <- conv5_3_3x3
…
I0324 11:26:51.427428 17114 net.cpp:150] Setting up conv5_3_3x3_relu
I0324 11:26:51.427440 17114 net.cpp:157] Top shape: 1 512 19 19 (184832)
I0324 11:26:51.427445 17114 net.cpp:165] Memory required for data: 249347200
I0324 11:26:51.427450 17114 layer_factory.hpp:77] Creating layer conv5_3_1x1
I0324 11:26:51.427467 17114 net.cpp:100] Creating Layer conv5_3_1x1
I0324 11:26:51.427475 17114 net.cpp:434] conv5_3_1x1 <- conv5_3_3x3
I0324 11:26:51.427484 17114 net.cpp:408] conv5_3_1x1 -> conv5_3
I0324 11:26:51.449810 17114 net.cpp:150] Setting up conv5_3_1x1
I0324 11:26:51.449860 17114 net.cpp:157] Top shape: 1 512 19 19 (184832)
I0324 11:26:51.449867 17114 net.cpp:165] Memory required for data: 250086528
I0324 11:26:51.449882 17114 layer_factory.hpp:77] Creating layer relu5_3
I0324 11:26:51.449898 17114 net.cpp:100] Creating Layer relu5_3
I0324 11:26:51.449906 17114 net.cpp:434] relu5_3 <- conv5_3
I0324 11:26:51.449919 17114 net.cpp:395] relu5_3 -> conv5_3 (in-place)
I0324 11:26:51.451141 17114 net.cpp:150] Setting up relu5_3
I0324 11:26:51.451169 17114 net.cpp:157] Top shape: 1 512 19 19 (184832)
I0324 11:26:51.451174 17114 net.cpp:165] Memory required for data: 250825856
I0324 11:26:51.451182 17114 layer_factory.hpp:77] Creating layer pool5
I0324 11:26:51.451197 17114 net.cpp:100] Creating Layer pool5
I0324 11:26:51.451207 17114 net.cpp:434] pool5 <- conv5_3
I0324 11:26:51.451217 17114 net.cpp:408] pool5 -> pool5
I0324 11:26:51.451318 17114 net.cpp:150] Setting up pool5
I0324 11:26:51.451329 17114 net.cpp:157] Top shape: 1 512 19 19 (184832)
I0324 11:26:51.451334 17114 net.cpp:165] Memory required for data: 251565184
I0324 11:26:51.451340 17114 layer_factory.hpp:77] Creating layer fc6_depthwise
I0324 11:26:51.451357 17114 net.cpp:100] Creating Layer fc6_depthwise
I0324 11:26:51.451362 17114 net.cpp:434] fc6_depthwise <- pool5
I0324 11:26:51.451372 17114 net.cpp:408] fc6_depthwise -> fc6_3x3
I0324 11:26:51.451802 17114 net.cpp:150] Setting up fc6_depthwise
I0324 11:26:51.451815 17114 net.cpp:157] Top shape: 1 512 19 19 (184832)
I0324 11:26:51.451820 17114 net.cpp:165] Memory required for data: 252304512
I0324 11:26:51.451830 17114 layer_factory.hpp:77] Creating layer fc6_3x3_relu
I0324 11:26:51.451843 17114 net.cpp:100] Creating Layer fc6_3x3_relu
I0324 11:26:51.451850 17114 net.cpp:434] fc6_3x3_relu <- fc6_3x3
I0324 11:26:51.451858 17114 net.cpp:395] fc6_3x3_relu -> fc6_3x3 (in-place)
I0324 11:26:51.452152 17114 net.cpp:150] Setting up fc6_3x3_relu
I0324 11:26:51.452167 17114 net.cpp:157] Top shape: 1 512 19 19 (184832)
I0324 11:26:51.452173 17114 net.cpp:165] Memory required for data: 253043840
I0324 11:26:51.452178 17114 layer_factory.hpp:77] Creating layer fc6_1x1
I0324 11:26:51.452193 17114 net.cpp:100] Creating Layer fc6_1x1
I0324 11:26:51.452201 17114 net.cpp:434] fc6_1x1 <- fc6_3x3
I0324 11:26:51.452212 17114 net.cpp:408] fc6_1x1 -> fc6
I0324 11:26:51.466611 17114 net.cpp:150] Setting up fc6_1x1
I0324 11:26:51.466660 17114 net.cpp:157] Top shape: 1 1024 19 19 (369664)
I0324 11:26:51.466666 17114 net.cpp:165] Memory required for data: 254522496
I0324 11:26:51.466679 17114 layer_factory.hpp:77] Creating layer relu6
I0324 11:26:51.466693 17114 net.cpp:100] Creating Layer relu6
I0324 11:26:51.466702 17114 net.cpp:434] relu6 <- fc6
I0324 11:26:51.466719 17114 net.cpp:395] relu6 -> fc6 (in-place)
I0324 11:26:51.467068 17114 net.cpp:150] Setting up relu6
I0324 11:26:51.467085 17114 net.cpp:157] Top shape: 1 1024 19 19 (369664)
I0324 11:26:51.467110 17114 net.cpp:165] Memory required for data: 256001152
I0324 11:26:51.467118 17114 layer_factory.hpp:77] Creating layer fc7
I0324 11:26:51.467134 17114 net.cpp:100] Creating Layer fc7
I0324 11:26:51.467142 17114 net.cpp:434] fc7 <- fc6
I0324 11:26:51.467154 17114 net.cpp:408] fc7 -> fc7
I0324 11:26:51.493726 17114 net.cpp:150] Setting up fc7
I0324 11:26:51.497808 17114 net.cpp:157] Top shape: 1 1024 19 19 (369664)
I0324 11:26:51.497814 17114 net.cpp:165] Memory required for data: 257479808
I0324 11:26:51.497829 17114 layer_factory.hpp:77] Creating layer relu7
I0324 11:26:51.497848 17114 net.cpp:100] Creating Layer relu7
I0324 11:26:51.497859 17114 net.cpp:434] relu7 <- fc7
I0324 11:26:51.497870 17114 net.cpp:395] relu7 -> fc7 (in-place)
I0324 11:26:51.499153 17114 net.cpp:150] Setting up relu7
I0324 11:26:51.499181 17114 net.cpp:157] Top shape: 1 1024 19 19 (369664)
I0324 11:26:51.499187 17114 net.cpp:165] Memory required for data: 258958464
I0324 11:26:51.499193 17114 layer_factory.hpp:77] Creating layer fc7_relu7_0_split
I0324 11:26:51.499204 17114 net.cpp:100] Creating Layer fc7_relu7_0_split
I0324 11:26:51.499212 17114 net.cpp:434] fc7_relu7_0_split <- fc7
I0324 11:26:51.499224 17114 net.cpp:408] fc7_relu7_0_split -> fc7_relu7_0_split_0
I0324 11:26:51.499238 17114 net.cpp:408] fc7_relu7_0_split -> fc7_relu7_0_split_1
I0324 11:26:51.499248 17114 net.cpp:408] fc7_relu7_0_split -> fc7_relu7_0_split_2
I0324 11:26:51.499258 17114 net.cpp:408] fc7_relu7_0_split -> fc7_relu7_0_split_3
I0324 11:26:51.499390 17114 net.cpp:150] Setting up fc7_relu7_0_split
I0324 11:26:51.499402 17114 net.cpp:157] Top shape: 1 1024 19 19 (369664)
I0324 11:26:51.499408 17114 net.cpp:157] Top shape: 1 1024 19 19 (369664)
I0324 11:26:51.499414 17114 net.cpp:157] Top shape: 1 1024 19 19 (369664)
I0324 11:26:51.499421 17114 net.cpp:157] Top shape: 1 1024 19 19 (369664)
I0324 11:26:51.499425 17114 net.cpp:165] Memory required for data: 264873088
I0324 11:26:51.499430 17114 layer_factory.hpp:77] Creating layer conv6_1
I0324 11:26:51.499452 17114 net.cpp:100] Creating Layer conv6_1
I0324 11:26:51.499459 17114 net.cpp:434] conv6_1 <- fc7_relu7_0_split_0
I0324 11:26:51.499467 17114 net.cpp:408] conv6_1 -> conv6_1
I0324 11:26:51.508034 17114 net.cpp:150] Setting up conv6_1
I0324 11:26:51.508070 17114 net.cpp:157] Top shape: 1 256 19 19 (92416)
I0324 11:26:51.508076 17114 net.cpp:165] Memory required for data: 265242752
I0324 11:26:51.508090 17114 layer_factory.hpp:77] Creating layer conv6_1_relu
I0324 11:26:51.508103 17114 net.cpp:100] Creating Layer conv6_1_relu
I0324 11:26:51.508113 17114 net.cpp:434] conv6_1_relu <- conv6_1
I0324 11:26:51.508126 17114 net.cpp:395] conv6_1_relu -> conv6_1 (in-place)
I0324 11:26:51.508364 17114 net.cpp:150] Setting up conv6_1_relu
I0324 11:26:51.508378 17114 net.cpp:157] Top shape: 1 256 19 19 (92416)
I0324 11:26:51.508383 17114 net.cpp:165] Memory required for data: 265612416
I0324 11:26:51.508388 17114 layer_factory.hpp:77] Creating layer conv6_2_depthwise
I0324 11:26:51.508404 17114 net.cpp:100] Creating Layer conv6_2_depthwise
I0324 11:26:51.508409 17114 net.cpp:434] conv6_2_depthwise <- conv6_1
I0324 11:26:51.508419 17114 net.cpp:408] conv6_2_depthwise -> conv6_2_3x3
I0324 11:26:51.508841 17114 net.cpp:150] Setting up conv6_2_depthwise
I0324 11:26:51.508862 17114 net.cpp:157] Top shape: 1 256 10 10 (25600)
I0324 11:26:51.508867 17114 net.cpp:165] Memory required for data: 265714816
I0324 11:26:51.508877 17114 layer_factory.hpp:77] Creating layer conv6_2_3x3_relu
I0324 11:26:51.508890 17114 net.cpp:100] Creating Layer conv6_2_3x3_relu
I0324 11:26:51.508898 17114 net.cpp:434] conv6_2_3x3_relu <- conv6_2_3x3
I0324 11:26:51.508906 17114 net.cpp:395] conv6_2_3x3_relu -> conv6_2_3x3 (in-place)
I0324 11:26:51.509321 17114 net.cpp:150] Setting up conv6_2_3x3_relu
I0324 11:26:51.509361 17114 net.cpp:157] Top shape: 1 256 10 10 (25600)
I0324 11:26:51.509366 17114 net.cpp:165] Memory required for data: 265817216
I0324 11:26:51.509373 17114 layer_factory.hpp:77] Creating layer conv6_2_1x1
I0324 11:26:51.509433 17114 net.cpp:100] Creating Layer conv6_2_1x1
I0324 11:26:51.509443 17114 net.cpp:434] conv6_2_1x1 <- conv6_2_3x3
I0324 11:26:51.509452 17114 net.cpp:408] conv6_2_1x1 -> conv6_2
I0324 11:26:51.517066 17114 net.cpp:150] Setting up conv6_2_1x1
I0324 11:26:51.517127 17114 net.cpp:157] Top shape: 1 512 10 10 (51200)
I0324 11:26:51.517136 17114 net.cpp:165] Memory required for data: 266022016
I0324 11:26:51.517154 17114 layer_factory.hpp:77] Creating layer conv6_2_relu
I0324 11:26:51.517168 17114 net.cpp:100] Creating Layer conv6_2_relu
I0324 11:26:51.517176 17114 net.cpp:434] conv6_2_relu <- conv6_2
I0324 11:26:51.517185 17114 net.cpp:395] conv6_2_relu -> conv6_2 (in-place)
I0324 11:26:51.522552 17114 net.cpp:150] Setting up conv6_2_relu
I0324 11:26:51.522590 17114 net.cpp:157] Top shape: 1 512 10 10 (51200)
I0324 11:26:51.522596 17114 net.cpp:165] Memory required for data: 266226816
I0324 11:26:51.522604 17114 layer_factory.hpp:77] Creating layer conv6_2_conv6_2_relu_0_split
I0324 11:26:51.522619 17114 net.cpp:100] Creating Layer conv6_2_conv6_2_relu_0_split
I0324 11:26:51.522626 17114 net.cpp:434] conv6_2_conv6_2_relu_0_split <- conv6_2
I0324 11:26:51.522639 17114 net.cpp:408] conv6_2_conv6_2_relu_0_split -> conv6_2_conv6_2_relu_0_split_0
I0324 11:26:51.522653 17114 net.cpp:408] conv6_2_conv6_2_relu_0_split -> conv6_2_conv6_2_relu_0_split_1
I0324 11:26:51.522662 17114 net.cpp:408] conv6_2_conv6_2_relu_0_split -> conv6_2_conv6_2_relu_0_split_2
I0324 11:26:51.522670 17114 net.cpp:408] conv6_2_conv6_2_relu_0_split -> conv6_2_conv6_2_relu_0_split_3
I0324 11:26:51.522809 17114 net.cpp:150] Setting up conv6_2_conv6_2_relu_0_split
I0324 11:26:51.522821 17114 net.cpp:157] Top shape: 1 512 10 10 (51200)
I0324 11:26:51.522827 17114 net.cpp:157] Top shape: 1 512 10 10 (51200)
I0324 11:26:51.522833 17114 net.cpp:157] Top shape: 1 512 10 10 (51200)
I0324 11:26:51.522840 17114 net.cpp:157] Top shape: 1 512 10 10 (51200)
I0324 11:26:51.522845 17114 net.cpp:165] Memory required for data: 267046016
I0324 11:26:51.522850 17114 layer_factory.hpp:77] Creating layer conv7_1
I0324 11:26:51.522867 17114 net.cpp:100] Creating Layer conv7_1
I0324 11:26:51.522873 17114 net.cpp:434] conv7_1 <- conv6_2_conv6_2_relu_0_split_0
I0324 11:26:51.522889 17114 net.cpp:408] conv7_1 -> conv7_1
I0324 11:26:51.530041 17114 net.cpp:150] Setting up conv7_1
I0324 11:26:51.530082 17114 net.cpp:157] Top shape: 1 128 10 10 (12800)
I0324 11:26:51.530091 17114 net.cpp:165] Memory required for data: 267097216
I0324 11:26:51.530113 17114 layer_factory.hpp:77] Creating layer conv7_1_relu
I0324 11:26:51.530146 17114 net.cpp:100] Creating Layer conv7_1_relu
I0324 11:26:51.530156 17114 net.cpp:434] conv7_1_relu <- conv7_1
I0324 11:26:51.530167 17114 net.cpp:395] conv7_1_relu -> conv7_1 (in-place)
I0324 11:26:51.530493 17114 net.cpp:150] Setting up conv7_1_relu
I0324 11:26:51.530508 17114 net.cpp:157] Top shape: 1 128 10 10 (12800)
I0324 11:26:51.530514 17114 net.cpp:165] Memory required for data: 267148416
I0324 11:26:51.530519 17114 layer_factory.hpp:77] Creating layer conv7_2
I0324 11:26:51.530540 17114 net.cpp:100] Creating Layer conv7_2
I0324 11:26:51.530547 17114 net.cpp:434] conv7_2 <- conv7_1
I0324 11:26:51.530556 17114 net.cpp:408] conv7_2 -> conv7_2
I0324 11:26:51.540874 17114 net.cpp:150] Setting up conv7_2
I0324 11:26:51.540915 17114 net.cpp:157] Top shape: 1 256 5 5 (6400)
I0324 11:26:51.540920 17114 net.cpp:165] Memory required for data: 267174016
I0324 11:26:51.540935 17114 layer_factory.hpp:77] Creating layer conv7_2_relu
I0324 11:26:51.540951 17114 net.cpp:100] Creating Layer conv7_2_relu
I0324 11:26:51.540961 17114 net.cpp:434] conv7_2_relu <- conv7_2
I0324 11:26:51.540971 17114 net.cpp:395] conv7_2_relu -> conv7_2 (in-place)
I0324 11:26:51.541231 17114 net.cpp:150] Setting up conv7_2_relu
I0324 11:26:51.541246 17114 net.cpp:157] Top shape: 1 256 5 5 (6400)
I0324 11:26:51.541252 17114 net.cpp:165] Memory required for data: 267199616
I0324 11:26:51.541258 17114 layer_factory.hpp:77] Creating layer conv7_2_conv7_2_relu_0_split
I0324 11:26:51.541280 17114 net.cpp:100] Creating Layer conv7_2_conv7_2_relu_0_split
I0324 11:26:51.541304 17114 net.cpp:434] conv7_2_conv7_2_relu_0_split <- conv7_2
I0324 11:26:51.541316 17114 net.cpp:408] conv7_2_conv7_2_relu_0_split -> conv7_2_conv7_2_relu_0_split_0
I0324 11:26:51.541326 17114 net.cpp:408] conv7_2_conv7_2_relu_0_split -> conv7_2_conv7_2_relu_0_split_1
I0324 11:26:51.541335 17114 net.cpp:408] conv7_2_conv7_2_relu_0_split -> conv7_2_conv7_2_relu_0_split_2
I0324 11:26:51.541343 17114 net.cpp:408] conv7_2_conv7_2_relu_0_split -> conv7_2_conv7_2_relu_0_split_3
I0324 11:26:51.541457 17114 net.cpp:150] Setting up conv7_2_conv7_2_relu_0_split
I0324 11:26:51.541467 17114 net.cpp:157] Top shape: 1 256 5 5 (6400)
I0324 11:26:51.541473 17114 net.cpp:157] Top shape: 1 256 5 5 (6400)
I0324 11:26:51.541481 17114 net.cpp:157] Top shape: 1 256 5 5 (6400)
I0324 11:26:51.541486 17114 net.cpp:157] Top shape: 1 256 5 5 (6400)
I0324 11:26:51.541491 17114 net.cpp:165] Memory required for data: 267302016
I0324 11:26:51.541496 17114 layer_factory.hpp:77] Creating layer conv8_1
I0324 11:26:51.541513 17114 net.cpp:100] Creating Layer conv8_1
I0324 11:26:51.541519 17114 net.cpp:434] conv8_1 <- conv7_2_conv7_2_relu_0_split_0
I0324 11:26:51.541529 17114 net.cpp:408] conv8_1 -> conv8_1
I0324 11:26:51.548367 17114 net.cpp:150] Setting up conv8_1
I0324 11:26:51.548413 17114 net.cpp:157] Top shape: 1 128 5 5 (3200)
I0324 11:26:51.548420 17114 net.cpp:165] Memory required for data: 267314816
I0324 11:26:51.548434 17114 layer_factory.hpp:77] Creating layer conv8_1_relu
I0324 11:26:51.548449 17114 net.cpp:100] Creating Layer conv8_1_relu
I0324 11:26:51.548457 17114 net.cpp:434] conv8_1_relu <- conv8_1
I0324 11:26:51.548471 17114 net.cpp:395] conv8_1_relu -> conv8_1 (in-place)
I0324 11:26:51.548755 17114 net.cpp:150] Setting up conv8_1_relu
I0324 11:26:51.548771 17114 net.cpp:157] Top shape: 1 128 5 5 (3200)
I0324 11:26:51.548777 17114 net.cpp:165] Memory required for data: 267327616
I0324 11:26:51.548784 17114 layer_factory.hpp:77] Creating layer conv8_2
I0324 11:26:51.548804 17114 net.cpp:100] Creating Layer conv8_2
I0324 11:26:51.548810 17114 net.cpp:434] conv8_2 <- conv8_1
I0324 11:26:51.548820 17114 net.cpp:408] conv8_2 -> conv8_2
I0324 11:26:51.564013 17114 net.cpp:150] Setting up conv8_2
I0324 11:26:51.564060 17114 net.cpp:157] Top shape: 1 256 3 3 (2304)
I0324 11:26:51.564066 17114 net.cpp:165] Memory required for data: 267336832
I0324 11:26:51.564081 17114 layer_factory.hpp:77] Creating layer conv8_2_relu
I0324 11:26:51.564096 17114 net.cpp:100] Creating Layer conv8_2_relu
I0324 11:26:51.564105 17114 net.cpp:434] conv8_2_relu <- conv8_2
I0324 11:26:51.564116 17114 net.cpp:395] conv8_2_relu -> conv8_2 (in-place)
I0324 11:26:51.565367 17114 net.cpp:150] Setting up conv8_2_relu
I0324 11:26:51.565399 17114 net.cpp:157] Top shape: 1 256 3 3 (2304)
I0324 11:26:51.565405 17114 net.cpp:165] Memory required for data: 267346048
I0324 11:26:51.565412 17114 layer_factory.hpp:77] Creating layer conv8_2_conv8_2_relu_0_split
I0324 11:26:51.565425 17114 net.cpp:100] Creating Layer conv8_2_conv8_2_relu_0_split
I0324 11:26:51.565433 17114 net.cpp:434] conv8_2_conv8_2_relu_0_split <- conv8_2
I0324 11:26:51.565445 17114 net.cpp:408] conv8_2_conv8_2_relu_0_split -> conv8_2_conv8_2_relu_0_split_0
I0324 11:26:51.565459 17114 net.cpp:408] conv8_2_conv8_2_relu_0_split -> conv8_2_conv8_2_relu_0_split_1
I0324 11:26:51.565467 17114 net.cpp:408] conv8_2_conv8_2_relu_0_split -> conv8_2_conv8_2_relu_0_split_2
I0324 11:26:51.565476 17114 net.cpp:408] conv8_2_conv8_2_relu_0_split -> conv8_2_conv8_2_relu_0_split_3
I0324 11:26:51.565634 17114 net.cpp:150] Setting up conv8_2_conv8_2_relu_0_split
I0324 11:26:51.565645 17114 net.cpp:157] Top shape: 1 256 3 3 (2304)
I0324 11:26:51.565651 17114 net.cpp:157] Top shape: 1 256 3 3 (2304)
I0324 11:26:51.565659 17114 net.cpp:157] Top shape: 1 256 3 3 (2304)
I0324 11:26:51.565665 17114 net.cpp:157] Top shape: 1 256 3 3 (2304)
I0324 11:26:51.565668 17114 net.cpp:165] Memory required for data: 267382912
I0324 11:26:51.565675 17114 layer_factory.hpp:77] Creating layer conv9_1
I0324 11:26:51.565714 17114 net.cpp:100] Creating Layer conv9_1
I0324 11:26:51.565721 17114 net.cpp:434] conv9_1 <- conv8_2_conv8_2_relu_0_split_0
I0324 11:26:51.565762 17114 net.cpp:408] conv9_1 -> conv9_1
I0324 11:26:51.568382 17114 net.cpp:150] Setting up conv9_1
I0324 11:26:51.568418 17114 net.cpp:157] Top shape: 1 128 3 3 (1152)
I0324 11:26:51.568424 17114 net.cpp:165] Memory required for data: 267387520
I0324 11:26:51.568441 17114 layer_factory.hpp:77] Creating layer conv9_1_relu
I0324 11:26:51.568461 17114 net.cpp:100] Creating Layer conv9_1_relu
I0324 11:26:51.568472 17114 net.cpp:434] conv9_1_relu <- conv9_1
I0324 11:26:51.568485 17114 net.cpp:395] conv9_1_relu -> conv9_1 (in-place)
I0324 11:26:51.568758 17114 net.cpp:150] Setting up conv9_1_relu
I0324 11:26:51.568775 17114 net.cpp:157] Top shape: 1 128 3 3 (1152)
I0324 11:26:51.568781 17114 net.cpp:165] Memory required for data: 267392128
I0324 11:26:51.568787 17114 layer_factory.hpp:77] Creating layer conv9_2
I0324 11:26:51.568805 17114 net.cpp:100] Creating Layer conv9_2
I0324 11:26:51.568814 17114 net.cpp:434] conv9_2 <- conv9_1
I0324 11:26:51.568825 17114 net.cpp:408] conv9_2 -> conv9_2
I0324 11:26:51.597335 17114 net.cpp:150] Setting up conv9_2
I0324 11:26:51.597399 17114 net.cpp:157] Top shape: 1 256 1 1 (256)
I0324 11:26:51.597405 17114 net.cpp:165] Memory required for data: 267393152
I0324 11:26:51.597425 17114 layer_factory.hpp:77] Creating layer conv9_2_relu
I0324 11:26:51.597443 17114 net.cpp:100] Creating Layer conv9_2_relu
I0324 11:26:51.597455 17114 net.cpp:434] conv9_2_relu <- conv9_2
I0324 11:26:51.597468 17114 net.cpp:395] conv9_2_relu -> conv9_2 (in-place)
I0324 11:26:51.597934 17114 net.cpp:150] Setting up conv9_2_relu
I0324 11:26:51.597960 17114 net.cpp:157] Top shape: 1 256 1 1 (256)
I0324 11:26:51.597965 17114 net.cpp:165] Memory required for data: 267394176
I0324 11:26:51.597972 17114 layer_factory.hpp:77] Creating layer conv9_2_conv9_2_relu_0_split
I0324 11:26:51.597987 17114 net.cpp:100] Creating Layer conv9_2_conv9_2_relu_0_split
I0324 11:26:51.597995 17114 net.cpp:434] conv9_2_conv9_2_relu_0_split <- conv9_2
I0324 11:26:51.598006 17114 net.cpp:408] conv9_2_conv9_2_relu_0_split -> conv9_2_conv9_2_relu_0_split_0
I0324 11:26:51.598018 17114 net.cpp:408] conv9_2_conv9_2_relu_0_split -> conv9_2_conv9_2_relu_0_split_1
I0324 11:26:51.598047 17114 net.cpp:408] conv9_2_conv9_2_relu_0_split -> conv9_2_conv9_2_relu_0_split_2
I0324 11:26:51.598184 17114 net.cpp:150] Setting up conv9_2_conv9_2_relu_0_split
I0324 11:26:51.598194 17114 net.cpp:157] Top shape: 1 256 1 1 (256)
I0324 11:26:51.598203 17114 net.cpp:157] Top shape: 1 256 1 1 (256)
I0324 11:26:51.598209 17114 net.cpp:157] Top shape: 1 256 1 1 (256)
I0324 11:26:51.598214 17114 net.cpp:165] Memory required for data: 267397248
I0324 11:26:51.598219 17114 layer_factory.hpp:77] Creating layer conv4_3_norm
I0324 11:26:51.598230 17114 net.cpp:100] Creating Layer conv4_3_norm
I0324 11:26:51.598242 17114 net.cpp:434] conv4_3_norm <- conv4_3_relu4_3_0_split_1
I0324 11:26:51.598253 17114 net.cpp:408] conv4_3_norm -> conv4_3_norm
I0324 11:26:51.598506 17114 net.cpp:150] Setting up conv4_3_norm
I0324 11:26:51.598521 17114 net.cpp:157] Top shape: 1 512 38 38 (739328)
I0324 11:26:51.598527 17114 net.cpp:165] Memory required for data: 270354560
I0324 11:26:51.598537 17114 layer_factory.hpp:77] Creating layer conv4_3_norm_conv4_3_norm_0_split
I0324 11:26:51.598548 17114 net.cpp:100] Creating Layer conv4_3_norm_conv4_3_norm_0_split
I0324 11:26:51.598554 17114 net.cpp:434] conv4_3_norm_conv4_3_norm_0_split <- conv4_3_norm
I0324 11:26:51.598563 17114 net.cpp:408] conv4_3_norm_conv4_3_norm_0_split -> conv4_3_norm_conv4_3_norm_0_split_0
I0324 11:26:51.598573 17114 net.cpp:408] conv4_3_norm_conv4_3_norm_0_split -> conv4_3_norm_conv4_3_norm_0_split_1
I0324 11:26:51.598582 17114 net.cpp:408] conv4_3_norm_conv4_3_norm_0_split -> conv4_3_norm_conv4_3_norm_0_split_2
I0324 11:26:51.598659 17114 net.cpp:150] Setting up conv4_3_norm_conv4_3_norm_0_split
I0324 11:26:51.598670 17114 net.cpp:157] Top shape: 1 512 38 38 (739328)
I0324 11:26:51.598698 17114 net.cpp:157] Top shape: 1 512 38 38 (739328)
I0324 11:26:51.598704 17114 net.cpp:157] Top shape: 1 512 38 38 (739328)
I0324 11:26:51.598709 17114 net.cpp:165] Memory required for data: 279226496
I0324 11:26:51.598716 17114 layer_factory.hpp:77] Creating layer conv4_3_norm_mbox_loc
I0324 11:26:51.598731 17114 net.cpp:100] Creating Layer conv4_3_norm_mbox_loc
I0324 11:26:51.598737 17114 net.cpp:434] conv4_3_norm_mbox_loc <- conv4_3_norm_conv4_3_norm_0_split_0
I0324 11:26:51.598747 17114 net.cpp:408] conv4_3_norm_mbox_loc -> conv4_3_norm_mbox_loc
I0324 11:26:51.602918 17114 net.cpp:150] Setting up conv4_3_norm_mbox_loc
I0324 11:26:51.602959 17114 net.cpp:157] Top shape: 1 16 38 38 (23104)
I0324 11:26:51.602964 17114 net.cpp:165] Memory required for data: 279318912
I0324 11:26:51.602994 17114 layer_factory.hpp:77] Creating layer conv4_3_norm_mbox_loc_perm
I0324 11:26:51.603015 17114 net.cpp:100] Creating Layer conv4_3_norm_mbox_loc_perm
I0324 11:26:51.603024 17114 net.cpp:434] conv4_3_norm_mbox_loc_perm <- conv4_3_norm_mbox_loc
I0324 11:26:51.603034 17114 net.cpp:408] conv4_3_norm_mbox_loc_perm -> conv4_3_norm_mbox_loc_perm
I0324 11:26:51.603255 17114 net.cpp:150] Setting up conv4_3_norm_mbox_loc_perm
I0324 11:26:51.603269 17114 net.cpp:157] Top shape: 1 38 38 16 (23104)
I0324 11:26:51.603274 17114 net.cpp:165] Memory required for data: 279411328
I0324 11:26:51.603279 17114 layer_factory.hpp:77] Creating layer conv4_3_norm_mbox_loc_flat
I0324 11:26:51.603291 17114 net.cpp:100] Creating Layer conv4_3_norm_mbox_loc_flat
I0324 11:26:51.603298 17114 net.cpp:434] conv4_3_norm_mbox_loc_flat <- conv4_3_norm_mbox_loc_perm
I0324 11:26:51.603307 17114 net.cpp:408] conv4_3_norm_mbox_loc_flat -> conv4_3_norm_mbox_loc_flat
I0324 11:26:51.603345 17114 net.cpp:150] Setting up conv4_3_norm_mbox_loc_flat
I0324 11:26:51.603355 17114 net.cpp:157] Top shape: 1 23104 (23104)
I0324 11:26:51.603360 17114 net.cpp:165] Memory required for data: 279503744
I0324 11:26:51.603366 17114 layer_factory.hpp:77] Creating layer conv4_3_norm_mbox_conf
I0324 11:26:51.603384 17114 net.cpp:100] Creating Layer conv4_3_norm_mbox_conf
I0324 11:26:51.603389 17114 net.cpp:434] conv4_3_norm_mbox_conf <- conv4_3_norm_conv4_3_norm_0_split_1
I0324 11:26:51.603399 17114 net.cpp:408] conv4_3_norm_mbox_conf -> conv4_3_norm_mbox_conf
I0324 11:26:51.608448 17114 net.cpp:150] Setting up conv4_3_norm_mbox_conf
I0324 11:26:51.608485 17114 net.cpp:157] Top shape: 1 44 38 38 (63536)
I0324 11:26:51.608491 17114 net.cpp:165] Memory required for data: 279757888
I0324 11:26:51.608505 17114 layer_factory.hpp:77] Creating layer conv4_3_norm_mbox_conf_perm
I0324 11:26:51.608520 17114 net.cpp:100] Creating Layer conv4_3_norm_mbox_conf_perm
I0324 11:26:51.608528 17114 net.cpp:434] conv4_3_norm_mbox_conf_perm <- conv4_3_norm_mbox_conf
I0324 11:26:51.608541 17114 net.cpp:408] conv4_3_norm_mbox_conf_perm -> conv4_3_norm_mbox_conf_perm
I0324 11:26:51.608737 17114 net.cpp:150] Setting up conv4_3_norm_mbox_conf_perm
I0324 11:26:51.608752 17114 net.cpp:157] Top shape: 1 38 38 44 (63536)
I0324 11:26:51.608757 17114 net.cpp:165] Memory required for data: 280012032
I0324 11:26:51.608762 17114 layer_factory.hpp:77] Creating layer conv4_3_norm_mbox_conf_flat
I0324 11:26:51.608772 17114 net.cpp:100] Creating Layer conv4_3_norm_mbox_conf_flat
I0324 11:26:51.608777 17114 net.cpp:434] conv4_3_norm_mbox_conf_flat <- conv4_3_norm_mbox_conf_perm
I0324 11:26:51.608785 17114 net.cpp:408] conv4_3_norm_mbox_conf_flat -> conv4_3_norm_mbox_conf_flat
I0324 11:26:51.608824 17114 net.cpp:150] Setting up conv4_3_norm_mbox_conf_flat
I0324 11:26:51.608835 17114 net.cpp:157] Top shape: 1 63536 (63536)
I0324 11:26:51.608840 17114 net.cpp:165] Memory required for data: 280266176
I0324 11:26:51.608845 17114 layer_factory.hpp:77] Creating layer conv4_3_norm_mbox_priorbox
I0324 11:26:51.608855 17114 net.cpp:100] Creating Layer conv4_3_norm_mbox_priorbox
I0324 11:26:51.608861 17114 net.cpp:434] conv4_3_norm_mbox_priorbox <- conv4_3_norm_conv4_3_norm_0_split_2
I0324 11:26:51.608887 17114 net.cpp:434] conv4_3_norm_mbox_priorbox <- data_data_0_split_1
I0324 11:26:51.608898 17114 net.cpp:408] conv4_3_norm_mbox_priorbox -> conv4_3_norm_mbox_priorbox
I0324 11:26:51.608950 17114 net.cpp:150] Setting up conv4_3_norm_mbox_priorbox
I0324 11:26:51.608961 17114 net.cpp:157] Top shape: 1 2 23104 (46208)
I0324 11:26:51.608966 17114 net.cpp:165] Memory required for data: 280451008
I0324 11:26:51.608971 17114 layer_factory.hpp:77] Creating layer fc7_mbox_loc
I0324 11:26:51.608988 17114 net.cpp:100] Creating Layer fc7_mbox_loc
I0324 11:26:51.608994 17114 net.cpp:434] fc7_mbox_loc <- fc7_relu7_0_split_1
I0324 11:26:51.609002 17114 net.cpp:408] fc7_mbox_loc -> fc7_mbox_loc
I0324 11:26:51.630874 17114 net.cpp:150] Setting up fc7_mbox_loc
I0324 11:26:51.630920 17114 net.cpp:157] Top shape: 1 24 19 19 (8664)
I0324 11:26:51.630926 17114 net.cpp:165] Memory required for data: 280485664
I0324 11:26:51.630941 17114 layer_factory.hpp:77] Creating layer fc7_mbox_loc_perm
I0324 11:26:51.630959 17114 net.cpp:100] Creating Layer fc7_mbox_loc_perm
I0324 11:26:51.630969 17114 net.cpp:434] fc7_mbox_loc_perm <- fc7_mbox_loc
I0324 11:26:51.630980 17114 net.cpp:408] fc7_mbox_loc_perm -> fc7_mbox_loc_perm
I0324 11:26:51.631247 17114 net.cpp:150] Setting up fc7_mbox_loc_perm
I0324 11:26:51.631260 17114 net.cpp:157] Top shape: 1 19 19 24 (8664)
I0324 11:26:51.631266 17114 net.cpp:165] Memory required for data: 280520320
I0324 11:26:51.631273 17114 layer_factory.hpp:77] Creating layer fc7_mbox_loc_flat
I0324 11:26:51.631285 17114 net.cpp:100] Creating Layer fc7_mbox_loc_flat
I0324 11:26:51.631291 17114 net.cpp:434] fc7_mbox_loc_flat <- fc7_mbox_loc_perm
I0324 11:26:51.631300 17114 net.cpp:408] fc7_mbox_loc_flat -> fc7_mbox_loc_flat
I0324 11:26:51.631345 17114 net.cpp:150] Setting up fc7_mbox_loc_flat
I0324 11:26:51.631352 17114 net.cpp:157] Top shape: 1 8664 (8664)
I0324 11:26:51.631357 17114 net.cpp:165] Memory required for data: 280554976
I0324 11:26:51.631362 17114 layer_factory.hpp:77] Creating layer fc7_mbox_conf
I0324 11:26:51.631379 17114 net.cpp:100] Creating Layer fc7_mbox_conf
I0324 11:26:51.631384 17114 net.cpp:434] fc7_mbox_conf <- fc7_relu7_0_split_2
I0324 11:26:51.631394 17114 net.cpp:408] fc7_mbox_conf -> fc7_mbox_conf
I0324 11:26:51.658550 17114 net.cpp:150] Setting up fc7_mbox_conf
I0324 11:26:51.658613 17114 net.cpp:157] Top shape: 1 66 19 19 (23826)
I0324 11:26:51.658619 17114 net.cpp:165] Memory required for data: 280650280
I0324 11:26:51.658635 17114 layer_factory.hpp:77] Creating layer fc7_mbox_conf_perm
I0324 11:26:51.658653 17114 net.cpp:100] Creating Layer fc7_mbox_conf_perm
I0324 11:26:51.658663 17114 net.cpp:434] fc7_mbox_conf_perm <- fc7_mbox_conf
I0324 11:26:51.658676 17114 net.cpp:408] fc7_mbox_conf_perm -> fc7_mbox_conf_perm
I0324 11:26:51.659019 17114 net.cpp:150] Setting up fc7_mbox_conf_perm
I0324 11:26:51.659051 17114 net.cpp:157] Top shape: 1 19 19 66 (23826)
I0324 11:26:51.659059 17114 net.cpp:165] Memory required for data: 280745584
I0324 11:26:51.659065 17114 layer_factory.hpp:77] Creating layer fc7_mbox_conf_flat
I0324 11:26:51.659080 17114 net.cpp:100] Creating Layer fc7_mbox_conf_flat
I0324 11:26:51.659088 17114 net.cpp:434] fc7_mbox_conf_flat <- fc7_mbox_conf_perm
I0324 11:26:51.659101 17114 net.cpp:408] fc7_mbox_conf_flat -> fc7_mbox_conf_flat
I0324 11:26:51.659157 17114 net.cpp:150] Setting up fc7_mbox_conf_flat
I0324 11:26:51.659164 17114 net.cpp:157] Top shape: 1 23826 (23826)
I0324 11:26:51.659169 17114 net.cpp:165] Memory required for data: 280840888
I0324 11:26:51.659174 17114 layer_factory.hpp:77] Creating layer fc7_mbox_priorbox
I0324 11:26:51.659188 17114 net.cpp:100] Creating Layer fc7_mbox_priorbox
I0324 11:26:51.659193 17114 net.cpp:434] fc7_mbox_priorbox <- fc7_relu7_0_split_3
I0324 11:26:51.659202 17114 net.cpp:434] fc7_mbox_priorbox <- data_data_0_split_2
I0324 11:26:51.659211 17114 net.cpp:408] fc7_mbox_priorbox -> fc7_mbox_priorbox
I0324 11:26:51.659265 17114 net.cpp:150] Setting up fc7_mbox_priorbox
I0324 11:26:51.659277 17114 net.cpp:157] Top shape: 1 2 8664 (17328)
I0324 11:26:51.659303 17114 net.cpp:165] Memory required for data: 280910200
I0324 11:26:51.659310 17114 layer_factory.hpp:77] Creating layer conv6_2_mbox_loc
I0324 11:26:51.659332 17114 net.cpp:100] Creating Layer conv6_2_mbox_loc
I0324 11:26:51.659337 17114 net.cpp:434] conv6_2_mbox_loc <- conv6_2_conv6_2_relu_0_split_1
I0324 11:26:51.659348 17114 net.cpp:408] conv6_2_mbox_loc -> conv6_2_mbox_loc
I0324 11:26:51.665892 17114 net.cpp:150] Setting up conv6_2_mbox_loc
I0324 11:26:51.665958 17114 net.cpp:157] Top shape: 1 24 10 10 (2400)
I0324 11:26:51.665964 17114 net.cpp:165] Memory required for data: 280919800
I0324 11:26:51.665985 17114 layer_factory.hpp:77] Creating layer conv6_2_mbox_loc_perm
I0324 11:26:51.666007 17114 net.cpp:100] Creating Layer conv6_2_mbox_loc_perm
I0324 11:26:51.666016 17114 net.cpp:434] conv6_2_mbox_loc_perm <- conv6_2_mbox_loc
I0324 11:26:51.666031 17114 net.cpp:408] conv6_2_mbox_loc_perm -> conv6_2_mbox_loc_perm
I0324 11:26:51.666368 17114 net.cpp:150] Setting up conv6_2_mbox_loc_perm
I0324 11:26:51.666394 17114 net.cpp:157] Top shape: 1 10 10 24 (2400)
I0324 11:26:51.666399 17114 net.cpp:165] Memory required for data: 280929400
I0324 11:26:51.666406 17114 layer_factory.hpp:77] Creating layer conv6_2_mbox_loc_flat
I0324 11:26:51.666424 17114 net.cpp:100] Creating Layer conv6_2_mbox_loc_flat
I0324 11:26:51.666431 17114 net.cpp:434] conv6_2_mbox_loc_flat <- conv6_2_mbox_loc_perm
I0324 11:26:51.666448 17114 net.cpp:408] conv6_2_mbox_loc_flat -> conv6_2_mbox_loc_flat
I0324 11:26:51.666503 17114 net.cpp:150] Setting up conv6_2_mbox_loc_flat
I0324 11:26:51.666514 17114 net.cpp:157] Top shape: 1 2400 (2400)
I0324 11:26:51.666520 17114 net.cpp:165] Memory required for data: 280939000
I0324 11:26:51.666525 17114 layer_factory.hpp:77] Creating layer conv6_2_mbox_conf
I0324 11:26:51.666549 17114 net.cpp:100] Creating Layer conv6_2_mbox_conf
I0324 11:26:51.666558 17114 net.cpp:434] conv6_2_mbox_conf <- conv6_2_conv6_2_relu_0_split_2
I0324 11:26:51.666568 17114 net.cpp:408] conv6_2_mbox_conf -> conv6_2_mbox_conf
I0324 11:26:51.675611 17114 net.cpp:150] Setting up conv6_2_mbox_conf
I0324 11:26:51.675668 17114 net.cpp:157] Top shape: 1 66 10 10 (6600)
I0324 11:26:51.675674 17114 net.cpp:165] Memory required for data: 280965400
I0324 11:26:51.675693 17114 layer_factory.hpp:77] Creating layer conv6_2_mbox_conf_perm
I0324 11:26:51.675710 17114 net.cpp:100] Creating Layer conv6_2_mbox_conf_perm
I0324 11:26:51.675719 17114 net.cpp:434] conv6_2_mbox_conf_perm <- conv6_2_mbox_conf
I0324 11:26:51.675734 17114 net.cpp:408] conv6_2_mbox_conf_perm -> conv6_2_mbox_conf_perm
I0324 11:26:51.676024 17114 net.cpp:150] Setting up conv6_2_mbox_conf_perm
I0324 11:26:51.676048 17114 net.cpp:157] Top shape: 1 10 10 66 (6600)
I0324 11:26:51.676054 17114 net.cpp:165] Memory required for data: 280991800
I0324 11:26:51.676060 17114 layer_factory.hpp:77] Creating layer conv6_2_mbox_conf_flat
I0324 11:26:51.676074 17114 net.cpp:100] Creating Layer conv6_2_mbox_conf_flat
I0324 11:26:51.676084 17114 net.cpp:434] conv6_2_mbox_conf_flat <- conv6_2_mbox_conf_perm
I0324 11:26:51.676097 17114 net.cpp:408] conv6_2_mbox_conf_flat -> conv6_2_mbox_conf_flat
I0324 11:26:51.676152 17114 net.cpp:150] Setting up conv6_2_mbox_conf_flat
I0324 11:26:51.676163 17114 net.cpp:157] Top shape: 1 6600 (6600)
I0324 11:26:51.676167 17114 net.cpp:165] Memory required for data: 281018200
I0324 11:26:51.676172 17114 layer_factory.hpp:77] Creating layer conv6_2_mbox_priorbox
I0324 11:26:51.676184 17114 net.cpp:100] Creating Layer conv6_2_mbox_priorbox
I0324 11:26:51.676192 17114 net.cpp:434] conv6_2_mbox_priorbox <- conv6_2_conv6_2_relu_0_split_3
I0324 11:26:51.676199 17114 net.cpp:434] conv6_2_mbox_priorbox <- data_data_0_split_3
I0324 11:26:51.676211 17114 net.cpp:408] conv6_2_mbox_priorbox -> conv6_2_mbox_priorbox
I0324 11:26:51.676268 17114 net.cpp:150] Setting up conv6_2_mbox_priorbox
I0324 11:26:51.676280 17114 net.cpp:157] Top shape: 1 2 2400 (4800)
I0324 11:26:51.676283 17114 net.cpp:165] Memory required for data: 281037400
I0324 11:26:51.676288 17114 layer_factory.hpp:77] Creating layer conv7_2_mbox_loc
I0324 11:26:51.676331 17114 net.cpp:100] Creating Layer conv7_2_mbox_loc
I0324 11:26:51.676339 17114 net.cpp:434] conv7_2_mbox_loc <- conv7_2_conv7_2_relu_0_split_1
I0324 11:26:51.676349 17114 net.cpp:408] conv7_2_mbox_loc -> conv7_2_mbox_loc
I0324 11:26:51.680975 17114 net.cpp:150] Setting up conv7_2_mbox_loc
I0324 11:26:51.681035 17114 net.cpp:157] Top shape: 1 24 5 5 (600)
I0324 11:26:51.681041 17114 net.cpp:165] Memory required for data: 281039800
I0324 11:26:51.681061 17114 layer_factory.hpp:77] Creating layer conv7_2_mbox_loc_perm
I0324 11:26:51.681083 17114 net.cpp:100] Creating Layer conv7_2_mbox_loc_perm
I0324 11:26:51.681093 17114 net.cpp:434] conv7_2_mbox_loc_perm <- conv7_2_mbox_loc
I0324 11:26:51.681108 17114 net.cpp:408] conv7_2_mbox_loc_perm -> conv7_2_mbox_loc_perm
I0324 11:26:51.681466 17114 net.cpp:150] Setting up conv7_2_mbox_loc_perm
I0324 11:26:51.681493 17114 net.cpp:157] Top shape: 1 5 5 24 (600)
I0324 11:26:51.681497 17114 net.cpp:165] Memory required for data: 281042200
I0324 11:26:51.681505 17114 layer_factory.hpp:77] Creating layer conv7_2_mbox_loc_flat
I0324 11:26:51.681519 17114 net.cpp:100] Creating Layer conv7_2_mbox_loc_flat
I0324 11:26:51.681529 17114 net.cpp:434] conv7_2_mbox_loc_flat <- conv7_2_mbox_loc_perm
I0324 11:26:51.681543 17114 net.cpp:408] conv7_2_mbox_loc_flat -> conv7_2_mbox_loc_flat
I0324 11:26:51.681605 17114 net.cpp:150] Setting up conv7_2_mbox_loc_flat
I0324 11:26:51.681614 17114 net.cpp:157] Top shape: 1 600 (600)
I0324 11:26:51.681619 17114 net.cpp:165] Memory required for data: 281044600
I0324 11:26:51.681625 17114 layer_factory.hpp:77] Creating layer conv7_2_mbox_conf
I0324 11:26:51.681650 17114 net.cpp:100] Creating Layer conv7_2_mbox_conf
I0324 11:26:51.681660 17114 net.cpp:434] conv7_2_mbox_conf <- conv7_2_conv7_2_relu_0_split_2
I0324 11:26:51.681674 17114 net.cpp:408] conv7_2_mbox_conf -> conv7_2_mbox_conf
I0324 11:26:51.687691 17114 net.cpp:150] Setting up conv7_2_mbox_conf
I0324 11:26:51.687750 17114 net.cpp:157] Top shape: 1 66 5 5 (1650)
I0324 11:26:51.687755 17114 net.cpp:165] Memory required for data: 281051200
I0324 11:26:51.687773 17114 layer_factory.hpp:77] Creating layer conv7_2_mbox_conf_perm
I0324 11:26:51.687793 17114 net.cpp:100] Creating Layer conv7_2_mbox_conf_perm
I0324 11:26:51.687803 17114 net.cpp:434] conv7_2_mbox_conf_perm <- conv7_2_mbox_conf
I0324 11:26:51.687815 17114 net.cpp:408] conv7_2_mbox_conf_perm -> conv7_2_mbox_conf_perm
I0324 11:26:51.688122 17114 net.cpp:150] Setting up conv7_2_mbox_conf_perm
I0324 11:26:51.688150 17114 net.cpp:157] Top shape: 1 5 5 66 (1650)
I0324 11:26:51.688156 17114 net.cpp:165] Memory required for data: 281057800
I0324 11:26:51.688163 17114 layer_factory.hpp:77] Creating layer conv7_2_mbox_conf_flat
I0324 11:26:51.688176 17114 net.cpp:100] Creating Layer conv7_2_mbox_conf_flat
I0324 11:26:51.688184 17114 net.cpp:434] conv7_2_mbox_conf_flat <- conv7_2_mbox_conf_perm
I0324 11:26:51.688195 17114 net.cpp:408] conv7_2_mbox_conf_flat -> conv7_2_mbox_conf_flat
I0324 11:26:51.688249 17114 net.cpp:150] Setting up conv7_2_mbox_conf_flat
I0324 11:26:51.688262 17114 net.cpp:157] Top shape: 1 1650 (1650)
I0324 11:26:51.688267 17114 net.cpp:165] Memory required for data: 281064400
I0324 11:26:51.688273 17114 layer_factory.hpp:77] Creating layer conv7_2_mbox_priorbox
I0324 11:26:51.688284 17114 net.cpp:100] Creating Layer conv7_2_mbox_priorbox
I0324 11:26:51.688292 17114 net.cpp:434] conv7_2_mbox_priorbox <- conv7_2_conv7_2_relu_0_split_3
I0324 11:26:51.688299 17114 net.cpp:434] conv7_2_mbox_priorbox <- data_data_0_split_4
I0324 11:26:51.688309 17114 net.cpp:408] conv7_2_mbox_priorbox -> conv7_2_mbox_priorbox
I0324 11:26:51.688364 17114 net.cpp:150] Setting up conv7_2_mbox_priorbox
I0324 11:26:51.688374 17114 net.cpp:157] Top shape: 1 2 600 (1200)
I0324 11:26:51.688380 17114 net.cpp:165] Memory required for data: 281069200
I0324 11:26:51.688385 17114 layer_factory.hpp:77] Creating layer conv8_2_mbox_loc
I0324 11:26:51.688403 17114 net.cpp:100] Creating Layer conv8_2_mbox_loc
I0324 11:26:51.688431 17114 net.cpp:434] conv8_2_mbox_loc <- conv8_2_conv8_2_relu_0_split_1
I0324 11:26:51.688441 17114 net.cpp:408] conv8_2_mbox_loc -> conv8_2_mbox_loc
I0324 11:26:51.691684 17114 net.cpp:150] Setting up conv8_2_mbox_loc
I0324 11:26:51.691736 17114 net.cpp:157] Top shape: 1 16 3 3 (144)
I0324 11:26:51.691742 17114 net.cpp:165] Memory required for data: 281069776
I0324 11:26:51.691761 17114 layer_factory.hpp:77] Creating layer conv8_2_mbox_loc_perm
I0324 11:26:51.691785 17114 net.cpp:100] Creating Layer conv8_2_mbox_loc_perm
I0324 11:26:51.691794 17114 net.cpp:434] conv8_2_mbox_loc_perm <- conv8_2_mbox_loc
I0324 11:26:51.691808 17114 net.cpp:408] conv8_2_mbox_loc_perm -> conv8_2_mbox_loc_perm
I0324 11:26:51.692016 17114 net.cpp:150] Setting up conv8_2_mbox_loc_perm
I0324 11:26:51.692035 17114 net.cpp:157] Top shape: 1 3 3 16 (144)
I0324 11:26:51.692040 17114 net.cpp:165] Memory required for data: 281070352
I0324 11:26:51.692046 17114 layer_factory.hpp:77] Creating layer conv8_2_mbox_loc_flat
I0324 11:26:51.692059 17114 net.cpp:100] Creating Layer conv8_2_mbox_loc_flat
I0324 11:26:51.692066 17114 net.cpp:434] conv8_2_mbox_loc_flat <- conv8_2_mbox_loc_perm
I0324 11:26:51.692077 17114 net.cpp:408] conv8_2_mbox_loc_flat -> conv8_2_mbox_loc_flat
I0324 11:26:51.692121 17114 net.cpp:150] Setting up conv8_2_mbox_loc_flat
I0324 11:26:51.692132 17114 net.cpp:157] Top shape: 1 144 (144)
I0324 11:26:51.692137 17114 net.cpp:165] Memory required for data: 281070928
I0324 11:26:51.692142 17114 layer_factory.hpp:77] Creating layer conv8_2_mbox_conf
I0324 11:26:51.692162 17114 net.cpp:100] Creating Layer conv8_2_mbox_conf
I0324 11:26:51.692168 17114 net.cpp:434] conv8_2_mbox_conf <- conv8_2_conv8_2_relu_0_split_2
I0324 11:26:51.692179 17114 net.cpp:408] conv8_2_mbox_conf -> conv8_2_mbox_conf
I0324 11:26:51.697618 17114 net.cpp:150] Setting up conv8_2_mbox_conf
I0324 11:26:51.697693 17114 net.cpp:157] Top shape: 1 44 3 3 (396)
I0324 11:26:51.697700 17114 net.cpp:165] Memory required for data: 281072512
I0324 11:26:51.697722 17114 layer_factory.hpp:77] Creating layer conv8_2_mbox_conf_perm
I0324 11:26:51.697762 17114 net.cpp:100] Creating Layer conv8_2_mbox_conf_perm
I0324 11:26:51.697774 17114 net.cpp:434] conv8_2_mbox_conf_perm <- conv8_2_mbox_conf
I0324 11:26:51.697794 17114 net.cpp:408] conv8_2_mbox_conf_perm -> conv8_2_mbox_conf_perm
I0324 11:26:51.698164 17114 net.cpp:150] Setting up conv8_2_mbox_conf_perm
I0324 11:26:51.698191 17114 net.cpp:157] Top shape: 1 3 3 44 (396)
I0324 11:26:51.698196 17114 net.cpp:165] Memory required for data: 281074096
I0324 11:26:51.698204 17114 layer_factory.hpp:77] Creating layer conv8_2_mbox_conf_flat
I0324 11:26:51.698221 17114 net.cpp:100] Creating Layer conv8_2_mbox_conf_flat
I0324 11:26:51.698230 17114 net.cpp:434] conv8_2_mbox_conf_flat <- conv8_2_mbox_conf_perm
I0324 11:26:51.698243 17114 net.cpp:408] conv8_2_mbox_conf_flat -> conv8_2_mbox_conf_flat
I0324 11:26:51.698305 17114 net.cpp:150] Setting up conv8_2_mbox_conf_flat
I0324 11:26:51.698318 17114 net.cpp:157] Top shape: 1 396 (396)
I0324 11:26:51.698321 17114 net.cpp:165] Memory required for data: 281075680
I0324 11:26:51.698328 17114 layer_factory.hpp:77] Creating layer conv8_2_mbox_priorbox
I0324 11:26:51.698343 17114 net.cpp:100] Creating Layer conv8_2_mbox_priorbox
I0324 11:26:51.698350 17114 net.cpp:434] conv8_2_mbox_priorbox <- conv8_2_conv8_2_relu_0_split_3
I0324 11:26:51.698359 17114 net.cpp:434] conv8_2_mbox_priorbox <- data_data_0_split_5
I0324 11:26:51.698370 17114 net.cpp:408] conv8_2_mbox_priorbox -> conv8_2_mbox_priorbox
I0324 11:26:51.698438 17114 net.cpp:150] Setting up conv8_2_mbox_priorbox
I0324 11:26:51.698451 17114 net.cpp:157] Top shape: 1 2 144 (288)
I0324 11:26:51.698454 17114 net.cpp:165] Memory required for data: 281076832
I0324 11:26:51.698459 17114 layer_factory.hpp:77] Creating layer conv9_2_mbox_loc
I0324 11:26:51.698485 17114 net.cpp:100] Creating Layer conv9_2_mbox_loc
I0324 11:26:51.698493 17114 net.cpp:434] conv9_2_mbox_loc <- conv9_2_conv9_2_relu_0_split_0
I0324 11:26:51.698504 17114 net.cpp:408] conv9_2_mbox_loc -> conv9_2_mbox_loc
I0324 11:26:51.702356 17114 net.cpp:150] Setting up conv9_2_mbox_loc
I0324 11:26:51.702423 17114 net.cpp:157] Top shape: 1 16 1 1 (16)
I0324 11:26:51.702430 17114 net.cpp:165] Memory required for data: 281076896
I0324 11:26:51.702447 17114 layer_factory.hpp:77] Creating layer conv9_2_mbox_loc_perm
I0324 11:26:51.702468 17114 net.cpp:100] Creating Layer conv9_2_mbox_loc_perm
I0324 11:26:51.702478 17114 net.cpp:434] conv9_2_mbox_loc_perm <- conv9_2_mbox_loc
I0324 11:26:51.702498 17114 net.cpp:408] conv9_2_mbox_loc_perm -> conv9_2_mbox_loc_perm
I0324 11:26:51.702729 17114 net.cpp:150] Setting up conv9_2_mbox_loc_perm
I0324 11:26:51.702752 17114 net.cpp:157] Top shape: 1 1 1 16 (16)
I0324 11:26:51.702757 17114 net.cpp:165] Memory required for data: 281076960
I0324 11:26:51.702764 17114 layer_factory.hpp:77] Creating layer conv9_2_mbox_loc_flat
I0324 11:26:51.702778 17114 net.cpp:100] Creating Layer conv9_2_mbox_loc_flat
I0324 11:26:51.702785 17114 net.cpp:434] conv9_2_mbox_loc_flat <- conv9_2_mbox_loc_perm
I0324 11:26:51.702797 17114 net.cpp:408] conv9_2_mbox_loc_flat -> conv9_2_mbox_loc_flat
I0324 11:26:51.702849 17114 net.cpp:150] Setting up conv9_2_mbox_loc_flat
I0324 11:26:51.702859 17114 net.cpp:157] Top shape: 1 16 (16)
I0324 11:26:51.702864 17114 net.cpp:165] Memory required for data: 281077024
I0324 11:26:51.702869 17114 layer_factory.hpp:77] Creating layer conv9_2_mbox_conf
I0324 11:26:51.702893 17114 net.cpp:100] Creating Layer conv9_2_mbox_conf
I0324 11:26:51.702898 17114 net.cpp:434] conv9_2_mbox_conf <- conv9_2_conv9_2_relu_0_split_1
I0324 11:26:51.702909 17114 net.cpp:408] conv9_2_mbox_conf -> conv9_2_mbox_conf
I0324 11:26:51.708513 17114 net.cpp:150] Setting up conv9_2_mbox_conf
I0324 11:26:51.708573 17114 net.cpp:157] Top shape: 1 44 1 1 (44)
I0324 11:26:51.708578 17114 net.cpp:165] Memory required for data: 281077200
I0324 11:26:51.708596 17114 layer_factory.hpp:77] Creating layer conv9_2_mbox_conf_perm
I0324 11:26:51.708618 17114 net.cpp:100] Creating Layer conv9_2_mbox_conf_perm
I0324 11:26:51.708632 17114 net.cpp:434] conv9_2_mbox_conf_perm <- conv9_2_mbox_conf
I0324 11:26:51.708645 17114 net.cpp:408] conv9_2_mbox_conf_perm -> conv9_2_mbox_conf_perm
I0324 11:26:51.708981 17114 net.cpp:150] Setting up conv9_2_mbox_conf_perm
I0324 11:26:51.709003 17114 net.cpp:157] Top shape: 1 1 1 44 (44)
I0324 11:26:51.709009 17114 net.cpp:165] Memory required for data: 281077376
I0324 11:26:51.709015 17114 layer_factory.hpp:77] Creating layer conv9_2_mbox_conf_flat
I0324 11:26:51.709030 17114 net.cpp:100] Creating Layer conv9_2_mbox_conf_flat
I0324 11:26:51.709038 17114 net.cpp:434] conv9_2_mbox_conf_flat <- conv9_2_mbox_conf_perm
I0324 11:26:51.709049 17114 net.cpp:408] conv9_2_mbox_conf_flat -> conv9_2_mbox_conf_flat
I0324 11:26:51.709105 17114 net.cpp:150] Setting up conv9_2_mbox_conf_flat
I0324 11:26:51.709116 17114 net.cpp:157] Top shape: 1 44 (44)
I0324 11:26:51.709122 17114 net.cpp:165] Memory required for data: 281077552
I0324 11:26:51.709128 17114 layer_factory.hpp:77] Creating layer conv9_2_mbox_priorbox
I0324 11:26:51.709142 17114 net.cpp:100] Creating Layer conv9_2_mbox_priorbox
I0324 11:26:51.709148 17114 net.cpp:434] conv9_2_mbox_priorbox <- conv9_2_conv9_2_relu_0_split_2
I0324 11:26:51.709156 17114 net.cpp:434] conv9_2_mbox_priorbox <- data_data_0_split_6
I0324 11:26:51.709167 17114 net.cpp:408] conv9_2_mbox_priorbox -> conv9_2_mbox_priorbox
I0324 11:26:51.709223 17114 net.cpp:150] Setting up conv9_2_mbox_priorbox
I0324 11:26:51.709234 17114 net.cpp:157] Top shape: 1 2 16 (32)
I0324 11:26:51.709239 17114 net.cpp:165] Memory required for data: 281077680
I0324 11:26:51.709245 17114 layer_factory.hpp:77] Creating layer mbox_loc
I0324 11:26:51.709260 17114 net.cpp:100] Creating Layer mbox_loc
I0324 11:26:51.709269 17114 net.cpp:434] mbox_loc <- conv4_3_norm_mbox_loc_flat
I0324 11:26:51.709277 17114 net.cpp:434] mbox_loc <- fc7_mbox_loc_flat
I0324 11:26:51.709285 17114 net.cpp:434] mbox_loc <- conv6_2_mbox_loc_flat
I0324 11:26:51.709291 17114 net.cpp:434] mbox_loc <- conv7_2_mbox_loc_flat
I0324 11:26:51.709321 17114 net.cpp:434] mbox_loc <- conv8_2_mbox_loc_flat
I0324 11:26:51.709329 17114 net.cpp:434] mbox_loc <- conv9_2_mbox_loc_flat
I0324 11:26:51.709337 17114 net.cpp:408] mbox_loc -> mbox_loc
I0324 11:26:51.709398 17114 net.cpp:150] Setting up mbox_loc
I0324 11:26:51.709408 17114 net.cpp:157] Top shape: 1 34928 (34928)
I0324 11:26:51.709412 17114 net.cpp:165] Memory required for data: 281217392
I0324 11:26:51.709417 17114 layer_factory.hpp:77] Creating layer mbox_conf
I0324 11:26:51.709429 17114 net.cpp:100] Creating Layer mbox_conf
I0324 11:26:51.709435 17114 net.cpp:434] mbox_conf <- conv4_3_norm_mbox_conf_flat
I0324 11:26:51.709444 17114 net.cpp:434] mbox_conf <- fc7_mbox_conf_flat
I0324 11:26:51.709450 17114 net.cpp:434] mbox_conf <- conv6_2_mbox_conf_flat
I0324 11:26:51.709456 17114 net.cpp:434] mbox_conf <- conv7_2_mbox_conf_flat
I0324 11:26:51.709462 17114 net.cpp:434] mbox_conf <- conv8_2_mbox_conf_flat
I0324 11:26:51.709468 17114 net.cpp:434] mbox_conf <- conv9_2_mbox_conf_flat
I0324 11:26:51.709476 17114 net.cpp:408] mbox_conf -> mbox_conf
I0324 11:26:51.709518 17114 net.cpp:150] Setting up mbox_conf
I0324 11:26:51.709527 17114 net.cpp:157] Top shape: 1 96052 (96052)
I0324 11:26:51.709532 17114 net.cpp:165] Memory required for data: 281601600
I0324 11:26:51.709538 17114 layer_factory.hpp:77] Creating layer mbox_priorbox
I0324 11:26:51.709547 17114 net.cpp:100] Creating Layer mbox_priorbox
I0324 11:26:51.709551 17114 net.cpp:434] mbox_priorbox <- conv4_3_norm_mbox_priorbox
I0324 11:26:51.709558 17114 net.cpp:434] mbox_priorbox <- fc7_mbox_priorbox
I0324 11:26:51.709565 17114 net.cpp:434] mbox_priorbox <- conv6_2_mbox_priorbox
I0324 11:26:51.709571 17114 net.cpp:434] mbox_priorbox <- conv7_2_mbox_priorbox
I0324 11:26:51.709576 17114 net.cpp:434] mbox_priorbox <- conv8_2_mbox_priorbox
I0324 11:26:51.709583 17114 net.cpp:434] mbox_priorbox <- conv9_2_mbox_priorbox
I0324 11:26:51.709592 17114 net.cpp:408] mbox_priorbox -> mbox_priorbox
I0324 11:26:51.709632 17114 net.cpp:150] Setting up mbox_priorbox
I0324 11:26:51.709640 17114 net.cpp:157] Top shape: 1 2 34928 (69856)
I0324 11:26:51.709645 17114 net.cpp:165] Memory required for data: 281881024
I0324 11:26:51.709650 17114 layer_factory.hpp:77] Creating layer mbox_conf_reshape
I0324 11:26:51.709662 17114 net.cpp:100] Creating Layer mbox_conf_reshape
I0324 11:26:51.709667 17114 net.cpp:434] mbox_conf_reshape <- mbox_conf
I0324 11:26:51.709677 17114 net.cpp:408] mbox_conf_reshape -> mbox_conf_reshape
I0324 11:26:51.709754 17114 net.cpp:150] Setting up mbox_conf_reshape
I0324 11:26:51.709767 17114 net.cpp:157] Top shape: 1 8732 11 (96052)
I0324 11:26:51.709772 17114 net.cpp:165] Memory required for data: 282265232
I0324 11:26:51.709779 17114 layer_factory.hpp:77] Creating layer mbox_conf_softmax
I0324 11:26:51.709790 17114 net.cpp:100] Creating Layer mbox_conf_softmax
I0324 11:26:51.709795 17114 net.cpp:434] mbox_conf_softmax <- mbox_conf_reshape
I0324 11:26:51.709803 17114 net.cpp:408] mbox_conf_softmax -> mbox_conf_softmax
I0324 11:26:51.711596 17114 net.cpp:150] Setting up mbox_conf_softmax
I0324 11:26:51.711647 17114 net.cpp:157] Top shape: 1 8732 11 (96052)
I0324 11:26:51.711653 17114 net.cpp:165] Memory required for data: 282649440
I0324 11:26:51.711661 17114 layer_factory.hpp:77] Creating layer mbox_conf_flatten
I0324 11:26:51.711678 17114 net.cpp:100] Creating Layer mbox_conf_flatten
I0324 11:26:51.711688 17114 net.cpp:434] mbox_conf_flatten <- mbox_conf_softmax
I0324 11:26:51.711702 17114 net.cpp:408] mbox_conf_flatten -> mbox_conf_flatten
I0324 11:26:51.711766 17114 net.cpp:150] Setting up mbox_conf_flatten
I0324 11:26:51.711776 17114 net.cpp:157] Top shape: 1 96052 (96052)
I0324 11:26:51.711781 17114 net.cpp:165] Memory required for data: 283033648
I0324 11:26:51.711786 17114 layer_factory.hpp:77] Creating layer detection_out
I0324 11:26:51.711810 17114 net.cpp:100] Creating Layer detection_out
I0324 11:26:51.711817 17114 net.cpp:434] detection_out <- mbox_loc
I0324 11:26:51.711824 17114 net.cpp:434] detection_out <- mbox_conf_flatten
I0324 11:26:51.711854 17114 net.cpp:434] detection_out <- mbox_priorbox
I0324 11:26:51.711868 17114 net.cpp:408] detection_out -> detection_out
W0324 11:26:51.711920 17114 detection_output_layer.cpp:49] Failed to create directory: /home/zs/data/VOCdevkit/results/VOC2007/SSD_300x300_0324_conv3/Main
I0324 11:26:51.712986 17114 net.cpp:150] Setting up detection_out
I0324 11:26:51.713040 17114 net.cpp:157] Top shape: 1 1 1 7 (7)
I0324 11:26:51.713045 17114 net.cpp:165] Memory required for data: 283033676
I0324 11:26:51.713055 17114 layer_factory.hpp:77] Creating layer detection_eval
I0324 11:26:51.713078 17114 net.cpp:100] Creating Layer detection_eval
I0324 11:26:51.713085 17114 net.cpp:434] detection_eval <- detection_out
I0324 11:26:51.713095 17114 net.cpp:434] detection_eval <- label
I0324 11:26:51.713105 17114 net.cpp:408] detection_eval -> detection_eval
I0324 11:26:51.713320 17114 net.cpp:150] Setting up detection_eval
I0324 11:26:51.713336 17114 net.cpp:157] Top shape: 1 1 11 5 (55)
I0324 11:26:51.713341 17114 net.cpp:165] Memory required for data: 283033896
I0324 11:26:51.713347 17114 net.cpp:228] detection_eval does not need backward computation.
I0324 11:26:51.713354 17114 net.cpp:228] detection_out does not need backward computation.
I0324 11:26:51.713363 17114 net.cpp:228] mbox_conf_flatten does not need backward computation.
I0324 11:26:51.713369 17114 net.cpp:228] mbox_conf_softmax does not need backward computation.
…
