…
      sampler {
        min_scale: 0.3
        max_scale: 1
        min_aspect_ratio: 0.5
        max_aspect_ratio: 2
      }
      sample_constraint {
        min_jaccard_overlap: 0.9
      }
      max_sample: 1
      max_trials: 50
    }
    batch_sampler {
      sampler {
        min_scale: 0.3
        max_scale: 1
        min_aspect_ratio: 0.5
        max_aspect_ratio: 2
      }
      sample_constraint {
        max_jaccard_overlap: 1
      }
      max_sample: 1
      max_trials: 50
    }
    label_map_file: "data/NWPU_VHR/labelmap_NWPU_VHR.prototxt"
  }
}
layer {
  name: "conv1_1"
  type: "Convolution"
  bottom: "data"
  top: "conv1_1"
  param {
    lr_mult: 1
    decay_mult: 1
  }
  param {
    lr_mult: 2
    decay_mult: 0
  }
  convolution_param {
    num_output: 64
    pad: 1
    kernel_size: 3
    weight_filler {
      type: "xavier"
    }
    bias_filler {
      type: "constant"
      value: 0
    }
  }
}
layer {
  name: "relu1_1"
  type: "ReLU"
  bottom: "conv1_1"
  top: "conv1_1"
}
layer {
  name: "conv1_2"
  type: "Convolution"
  bottom: "conv1_1"
  top: "conv1_2"
  param {
    lr_mult: 1
    decay_mult: 1
  }
  param {
    lr_mult: 2
    decay_mult: 0
  }
  convolution_param {
    num_output: 64
    pad: 1
    kernel_size: 3
    weight_filler {
      type: "xavier"
    }
    bias_filler {
      type: "constant"
      value: 0
    }
  }
}
layer {
  name: "relu1_2"
  type: "ReLU"
  bottom: "conv1_2"
  top: "conv1_2"
}
layer {
  name: "pool1"
  type: "Pooling"
  bottom: "conv1_2"
  top: "pool1"
  pooling_param {
    pool: MAX
    kernel_size: 2
    stride: 2
  }
}
layer {
  name: "conv2_1"
  type: "Convolution"
  bottom: "pool1"
  top: "conv2_1"
  param {
    lr_mult: 1
    decay_mult: 1
  }
  param {
    lr_mult: 2
    decay_mult: 0
  }
  convolution_param {
    num_output: 128
    pad: 1
    kernel_size: 3
    weight_filler {
      type: "xavier"
    }
    bias_filler {
      type: "constant"
      value: 0
    }
  }
}
layer {
  name: "relu2_1"
  type: "ReLU"
  bottom: "conv2_1"
  top: "conv2_1"
}
layer {
  name: "conv2_2"
  type: "Convolution"
  bottom: "conv2_1"
  top: "conv2_2"
  param {
    lr_mult: 1
    decay_mult: 1
  }
  param {
    lr_mult: 2
    decay_mult: 0
  }
  convolution_param {
    num_output: 128
    pad: 1
    kernel_size: 3
    weight_filler {
      type: "xavier"
    }
    bias_filler {
      type: "constant"
      value: 0
    }
  }
}
layer {
  name: "relu2_2"
  type: "ReLU"
  bottom: "conv2_2"
  top: "conv2_2"
}
layer {
  name: "pool2"
  type: "Pooling"
  bottom: "conv2_2"
  top: "pool2"
  pooling_param {
    pool: MAX
    kernel_size: 2
    stride: 2
  }
}
layer {
  name: "conv3_1"
  type: "Convolution"
  bottom: "pool2"
  top: "conv3_1"
  param {
    lr_mult: 1
    decay_mult: 1
  }
  param {
    lr_mult: 2
    decay_mult: 0
  }
  convolution_param {
    num_output: 256
    pad: 1
    kernel_size: 3
    weight_filler {
      type: "xavier"
    }
    bias_filler {
      type: "constant"
      value: 0
    }
  }
}
layer {
  name: "relu3_1"
  type: "ReLU"
  bottom: "conv3_1"
  top: "conv3_1"
}
layer {
  name: "conv3_2"
  type: "Convolution"
  bottom: "conv3_1"
  top: "conv3_2"
  param {
    lr_mult: 1
    decay_mult: 1
  }
  param {
    lr_mult: 2
    decay_mult: 0
  }
  convolution_param {
    num_output: 256
    pad: 1
    kernel_size: 3
    weight_filler {
      type: "xavier"
    }
    bias_filler {
      type: "constant"
      value: 0
    }
  }
}
layer {
  name: "relu3_2"
  type: "ReLU"
  bottom: "conv3_2"
  top: "conv3_2"
}
layer {
  name: "conv3_3"
  type: "Convolution"
  bottom: "conv3_2"
  top: "conv3_3"
  param {
    lr_mult: 1
    decay_mult: 1
  }
  param {
    lr_mult: 2
    decay_mult: 0
  }
  convolution_param {
    num_output: 256
    pad: 1
    kernel_size: 3
    weight_filler {
      type: "xavier"
    }
    bias_filler {
      type: "constant"
      value: 0
    }
  }
}
layer {
  name: "relu3_3"
  type: "ReLU"
  bottom: "conv3_3"
  top: "conv3_3"
}
layer {
  name: "pool3"
  type: "Pooling"
  bottom: "conv3_3"
  top: "pool3"
  pooling_param {
    pool: MAX
    kernel_size: 2
    stride: 2
  }
}
layer {
  name: "conv4_1_depthwise"
  type: "DepthwiseConvolution"
  bottom: "pool3"
  top: "conv4_1_3x3"
  param {
    lr_mult: 1
    decay_mult: 1
  }
  param {
    lr_mult: 2
    decay_mult: 0
  }
  convolution_param {
    num_output: 256
    pad: 1
    kernel_size: 3
    group: 256
    weight_filler {
      type: "xavier"
    }
    bias_filler {
      type: "constant"
      value: 0
    }
  }
}
layer {
  name: "conv4_1_3x3_relu"
  type: "ReLU"
  bottom: "conv4_1_3x3"
  top: "conv4_1_3x3"
}
layer {
  name: "conv4_1_1x1"
  type: "Convolution"
  bottom: "conv4_1_3x3"
  top: "conv4_1"
  param {
    lr_mult: 1
    decay_mult: 1
  }
  param {
    lr_mult: 2
    decay_mult: 0
  }
  convolution_param {
    num_output: 512
    pad: 0
    kernel_size: 1
    stride: 1
    weight_filler {
      type: "xavier"
    }
    bias_filler {
      type: "constant"
      value: 0
    }
  }
}
layer {
  name: "relu4_1"
  type: "ReLU"
  bottom: "conv4_1"
  top: "conv4_1"
}
layer {
  name: "conv4_2"
  type: "Convolution"
  bottom: "conv4_1"
  top: "conv4_2"
  param {
    lr_mult: 1
    decay_mult: 1
  }
  param {
    lr_mult: 2
    decay_mult: 0
  }
  convolution_param {
    num_output: 512
    pad: 1
    kernel_size: 3
    weight_filler {
      type: "xavier"
    }
    bias_filler {
      type: "constant"
      value: 0
    }
  }
}
layer {
  name: "relu4_2"
  type: "ReLU"
  bottom: "conv4_2"
  top: "conv4_2"
}
layer {
  name: "conv4_3"
  type: "Convolution"
  bottom: "conv4_2"
  top: "conv4_3"
  param {
    lr_mult: 1
    decay_mult: 1
  }
  param {
    lr_mult: 2
    decay_mult: 0
  }
  convolution_param {
    num_output: 512
    pad: 1
    kernel_size: 3
    weight_filler {
      type: "xavier"
    }
    bias_filler {
      type: "constant"
      value: 0
    }
  }
}
layer {
  name: "relu4_3"
  type: "ReLU"
  bottom: "conv4_3"
  top: "conv4_3"
}
layer {
  name: "pool4"
  type: "Pooling"
  bottom: "conv4_3"
  top: "pool4"
  pooling_param {
    pool: MAX
    kernel_size: 2
    stride: 2
  }
}
layer {
  name: "conv5_1_depthwise"
  type: "DepthwiseConvolution"
  bottom: "pool4"
  top: "conv5_1_3x3"
  param {
    lr_mult: 1
    decay_mult: 1
  }
  param {
    lr_mult: 2
    decay_mult: 0
  }
  convolution_param {
    num_output: 512
    pad: 1
    kernel_size: 3
    group: 512
    weight_filler {
      type: "xavier"
    }
    bias_filler {
      type: "constant"
      value: 0
    }
    dilation: 1
  }
}
layer {
  name: "conv5_1_3x3_relu"
  type: "ReLU"
  bottom: "conv5_1_3x3"
  top: "conv5_1_3x3"
}
layer {
  name: "conv5_1_1x1"
  type: "Convolution"
  bottom: "conv5_1_3x3"
  top: "conv5_1"
  param {
    lr_mult: 1
    decay_mult: 1
  }
  param {
    lr_mult: 2
    decay_mult: 0
  }
  convolution_param {
    num_output: 512
    pad: 0
    kernel_size: 1
    stride: 1
    weight_filler {
      type: "xavier"
    }
    bias_filler {
      type: "constant"
      value: 0
    }
    dilation: 1
  }
}
layer {
  name: "relu5_1"
  type: "ReLU"
  bottom: "conv5_1"
  top: "conv5_1"
}
layer {
  name: "conv5_2_depthwise"
  type: "DepthwiseConvolution"
  bottom: "conv5_1"
  top: "conv5_2_3x3"
  param {
    lr_mult: 1
    decay_mult: 1
  }
  param {
    lr_mult: 2
    decay_mult: 0
  }
  convolution_param {
    num_output: 512
    pad: 1
    kernel_size: 3
    group: 512
    weight_filler {
      type: "xavier"
    }
    bias_filler {
      type: "constant"
      value: 0
    }
    dilation: 1
  }
}
layer {
  name: "conv5_2_3x3_relu"
  type: "ReLU"
  bottom: "conv5_2_3x3"
  top: "conv5_2_3x3"
}
layer {
  name: "conv5_2_1x1"
  type: "Convolution"
  bottom: "conv5_2_3x3"
  top: "conv5_2"
  param {
    lr_mult: 1
    decay_mult: 1
  }
  param {
    lr_mult: 2
    decay_mult: 0
  }
  convolution_param {
    num_output: 512
    pad: 0
    kernel_size: 1
    stride: 1
    weight_filler {
      type: "xavier"
    }
    bias_filler {
      type: "constant"
      value: 0
    }
    dilation: 1
  }
}
layer {
  name: "relu5_2"
  type: "ReLU"
  bottom: "conv5_2"
  top: "conv5_2"
}
layer {
  name: "conv5_3_depthwise"
  type: "DepthwiseConvolution"
  bottom: "conv5_2"
  top: "conv5_3_3x3"
  param {
    lr_mult: 1
    decay_mult: 1
  }
  param {
    lr_mult: 2
    decay_mult: 0
  }
  convolution_param {
    num_output: 512
    pad: 1
    kernel_size: 3
    group: 512
    weight_filler {
      type: "xavier"
    }
    bias_filler {
      type: "constant"
      value: 0
    }
    dilation: 1
  }
}
layer {
  name: "conv5_3_3x3_relu"
  type: "ReLU"
  bottom: "conv5_3_3x3"
  top: "conv5_3_3x3"
}
layer {
  name: "conv5_3_1x1"
  type: "Convolution"
  bottom: "conv5_3_3x3"
  top: "conv5_3"
  param {
    lr_mult: 1
    decay_mult: 1
  }
  param {
    lr_mult: 2
    decay_mult: 0
  }
  convolution_param {
    num_output: 512
    pad: 0
    kernel_size: 1
    stride: 1
    weight_filler {
      type: "xavier"
    }
    bias_filler {
      type: "constant"
      value: 0
    }
    dilation: 1
  }
}
layer {
  name: "relu5_3"
  type: "ReLU"
  bottom: "conv5_3"
  top: "conv5_3"
}
layer {
  name: "pool5"
  type: "Pooling"
  bottom: "conv5_3"
  top: "pool5"
  pooling_param {
    pool: MAX
    kernel_size: 3
    stride: 1
    pad: 1
  }
}
layer {
  name: "fc6_depthwise"
  type: "DepthwiseConvolution"
  bottom: "pool5"
  top: "fc6_3x3"
  param {
    lr_mult: 1
    decay_mult: 1
  }
  param {
    lr_mult: 2
    decay_mult: 0
  }
  convolution_param {
    num_output: 512
    pad: 6
    kernel_size: 3
    group: 512
    weight_filler {
      type: "xavier"
    }
    bias_filler {
      type: "constant"
      value: 0
    }
    dilation: 6
  }
}
layer {
  name: "fc6_3x3_relu"
  type: "ReLU"
  bottom: "fc6_3x3"
  top: "fc6_3x3"
}
layer {
  name: "fc6_1x1"
  type: "Convolution"
  bottom: "fc6_3x3"
  top: "fc6"
  param {
    lr_mult: 1
    decay_mult: 1
  }
  param {
    lr_mult: 2
    decay_mult: 0
  }
  convolution_param {
    num_output: 1024
    pad: 0
    kernel_size: 1
    stride: 1
    weight_filler {
      type: "xavier"
    }
    bias_filler {
      type: "constant"
      value: 0
    }
    dilation: 6
  }
}
layer {
  name: "relu6"
  type: "ReLU"
  bottom: "fc6"
  top: "fc6"
}
layer {
  name: "fc7"
  type: "Convolution"
  bottom: "fc6"
  top: "fc7"
  param {
    lr_mult: 1
    decay_mult: 1
  }
  param {
    lr_mult: 2
    decay_mult: 0
  }
  convolution_param {
    num_output: 1024
    kernel_size: 1
    weight_filler {
      type: "xavier"
    }
    bias_filler {
      type: "constant"
      value: 0
    }
  }
}
layer {
  name: "relu7"
  type: "ReLU"
  bottom: "fc7"
  top: "fc7"
}
layer {
  name: "conv6_1"
  type: "Convolution"
  bottom: "fc7"
  top: "conv6_1"
  param {
    lr_mult: 1
    decay_mult: 1
  }
  param {
    lr_mult: 2
    decay_mult: 0
  }
  convolution_param {
    num_output: 256
    pad: 0
    kernel_size: 1
    stride: 1
    weight_filler {
      type: "xavier"
    }
    bias_filler {
      type: "constant"
      value: 0
    }
  }
}
layer {
  name: "conv6_1_relu"
  type: "ReLU"
  bottom: "conv6_1"
  top: "conv6_1"
}
layer {
  name: "conv6_2_depthwise"
  type: "DepthwiseConvolution"
  bottom: "conv6_1"
  top: "conv6_2_3x3"
  param {
    lr_mult: 1
    decay_mult: 1
  }
  param {
    lr_mult: 2
    decay_mult: 0
  }
  convolution_param {
    num_output: 256
    pad: 1
    kernel_size: 3
    group: 256
    stride: 2
    weight_filler {
      type: "xavier"
    }
    bias_filler {
      type: "constant"
      value: 0
    }
  }
}
layer {
  name: "conv6_2_3x3_relu"
  type: "ReLU"
  bottom: "conv6_2_3x3"
  top: "conv6_2_3x3"
}
layer {
  name: "conv6_2_1x1"
  type: "Convolution"
  bottom: "conv6_2_3x3"
  top: "conv6_2"
  param {
    lr_mult: 1
    decay_mult: 1
  }
  param {
    lr_mult: 2
    decay_mult: 0
  }
  convolution_param {
    num_output: 512
    pad: 0
    kernel_size: 1
    stride: 1
    weight_filler {
      type: "xavier"
    }
    bias_filler {
      type: "constant"
      value: 0
    }
  }
}
layer {
  name: "conv6_2_relu"
  type: "ReLU"
  bottom: "conv6_2"
  top: "conv6_2"
}
layer {
  name: "conv7_1"
  type: "Convolution"
  bottom: "conv6_2"
  top: "conv7_1"
  param {
    lr_mult: 1
    decay_mult: 1
  }
  param {
    lr_mult: 2
    decay_mult: 0
  }
  convolution_param {
    num_output: 128
    pad: 0
    kernel_size: 1
    stride: 1
    weight_filler {
      type: "xavier"
    }
    bias_filler {
      type: "constant"
      value: 0
    }
  }
}
layer {
  name: "conv7_1_relu"
  type: "ReLU"
  bottom: "conv7_1"
  top: "conv7_1"
}
layer {
  name: "conv7_2"
  type: "Convolution"
  bottom: "conv7_1"
  top: "conv7_2"
  param {
    lr_mult: 1
    decay_mult: 1
  }
  param {
    lr_mult: 2
    decay_mult: 0
  }
  convolution_param {
    num_output: 256
    pad: 1
    kernel_size: 3
    stride: 2
    weight_filler {
      type: "xavier"
    }
    bias_filler {
      type: "constant"
      value: 0
    }
  }
}
layer {
  name: "conv7_2_relu"
  type: "ReLU"
  bottom: "conv7_2"
  top: "conv7_2"
}
layer {
  name: "conv8_1"
  type: "Convolution"
  bottom: "conv7_2"
  top: "conv8_1"
  param {
    lr_mult: 1
    decay_mult: 1
  }
  param {
    lr_mult: 2
    decay_mult: 0
  }
  convolution_param {
    num_output: 128
    pad: 0
    kernel_size: 1
    stride: 1
    weight_filler {
      type: "xavier"
    }
    bias_filler {
      type: "constant"
      value: 0
    }
  }
}
layer {
  name: "conv8_1_relu"
  type: "ReLU"
  bottom: "conv8_1"
  top: "conv8_1"
}
layer {
  name: "conv8_2"
  type: "Convolution"
  bottom: "conv8_1"
  top: "conv8_2"
  param {
    lr_mult: 1
    decay_mult: 1
  }
  param {
    lr_mult: 2
    decay_mult: 0
  }
  convolution_param {
    num_output: 256
    pad: 0
    kernel_size: 3
    stride: 1
    weight_filler {
      type: "xavier"
    }
    bias_filler {
      type: "constant"
      value: 0
    }
  }
}
layer {
  name: "conv8_2_relu"
  type: "ReLU"
  bottom: "conv8_2"
  top: "conv8_2"
}
layer {
  name: "conv9_1"
  type: "Convolution"
  bottom: "conv8_2"
  top: "conv9_1"
  param {
    lr_mult: 1
    decay_mult: 1
  }
  param {
    lr_mult: 2
    decay_mult: 0
  }
  convolution_param {
    num_output: 128
    pad: 0
    kernel_size: 1
    stride: 1
    weight_filler {
      type: "xavier"
    }
    bias_filler {
      type: "constant"
      value: 0
    }
  }
}
layer {
  name: "conv9_1_relu"
  type: "ReLU"
  bottom: "conv9_1"
  top: "conv9_1"
}
layer {
  name: "conv9_2"
  type: "Convolution"
  bottom: "conv9_1"
  top: "conv9_2"
  param {
    lr_mult: 1
    decay_mult: 1
  }
  param {
    lr_mult: 2
    decay_mult: 0
  }
  convolution_param {
    num_output: 256
    pad: 0
    kernel_size: 3
    stride: 1
    weight_filler {
      type: "xavier"
    }
    bias_filler {
      type: "constant"
      value: 0
    }
  }
}
layer {
  name: "conv9_2_relu"
  type: "ReLU"
  bottom: "conv9_2"
  top: "conv9_2"
}
layer {
  name: "conv4_3_norm"
  type: "Normalize"
  bottom: "conv4_3"
  top: "conv4_3_norm"
  norm_param {
    across_spatial: false
    scale_filler {
      type: "constant"
      value: 20
    }
    channel_shared: false
  }
}
layer {
  name: "conv4_3_norm_mbox_loc"
  type: "Convolution"
  bottom: "conv4_3_norm"
  top: "conv4_3_norm_mbox_loc"
  param {
    lr_mult: 1
    decay_mult: 1
  }
  param {
    lr_mult: 2
    decay_mult: 0
  }
  convolution_param {
    num_output: 16
    pad: 1
    kernel_size: 3
    stride: 1
    weight_filler {
      type: "xavier"
    }
    bias_filler {
      type: "constant"
      value: 0
    }
  }
}
layer {
  name: "conv4_3_norm_mbox_loc_perm"
  type: "Permute"
  bottom: "conv4_3_norm_mbox_loc"
  top: "conv4_3_norm_mbox_loc_perm"
  permute_param {
    order: 0
    order: 2
    order: 3
    order: 1
  }
}
layer {
  name: "conv4_3_norm_mbox_loc_flat"
  type: "Flatten"
  bottom: "conv4_3_norm_mbox_loc_perm"
  top: "conv4_3_norm_mbox_loc_flat"
  flatten_param {
    axis: 1
  }
}
layer {
  name: "conv4_3_norm_mbox_conf"
  type: "Convolution"
  bottom: "conv4_3_norm"
  top: "conv4_3_norm_mbox_conf"
  param {
    lr_mult: 1
    decay_mult: 1
  }
  param {
    lr_mult: 2
    decay_mult: 0
  }
  convolution_param {
    num_output: 44
    pad: 1
    kernel_size: 3
    stride: 1
    weight_filler {
      type: "xavier"
    }
    bias_filler {
      type: "constant"
      value: 0
    }
  }
}
layer {
  name: "conv4_3_norm_mbox_conf_perm"
  type: "Permute"
  bottom: "conv4_3_norm_mbox_conf"
  top: "conv4_3_norm_mbox_conf_perm"
  permute_param {
    order: 0
    order: 2
    order: 3
    order: 1
  }
}
layer {
  name: "conv4_3_norm_mbox_conf_flat"
  type: "Flatten"
  bottom: "conv4_3_norm_mbox_conf_perm"
  top: "conv4_3_norm_mbox_conf_flat"
  flatten_param {
    axis: 1
  }
}
layer {
  name: "conv4_3_norm_mbox_priorbox"
  type: "PriorBox"
  bottom: "conv4_3_norm"
  bottom: "data"
  top: "conv4_3_norm_mbox_priorbox"
  prior_box_param {
    min_size: 30
    max_size: 60
    aspect_ratio: 2
    flip: true
    clip: false
    variance: 0.1
    variance: 0.1
    variance: 0.2
    variance: 0.2
    step: 8
    offset: 0.5
  }
}
layer {
  name: "fc7_mbox_loc"
  type: "Convolution"
  bottom: "fc7"
  top: "fc7_mbox_loc"
  param {
    lr_mult: 1
    decay_mult: 1
  }
  param {
    lr_mult: 2
    decay_mult: 0
  }
  convolution_param {
    num_output: 24
    pad: 1
    kernel_size: 3
    stride: 1
    weight_filler {
      type: "xavier"
    }
    bias_filler {
      type: "constant"
      value: 0
    }
  }
}
layer {
  name: "fc7_mbox_loc_perm"
  type: "Permute"
  bottom: "fc7_mbox_loc"
  top: "fc7_mbox_loc_perm"
  permute_param {
    order: 0
    order: 2
    order: 3
    order: 1
  }
}
layer {
  name: "fc7_mbox_loc_flat"
  type: "Flatten"
  bottom: "fc7_mbox_loc_perm"
  top: "fc7_mbox_loc_flat"
  flatten_param {
    axis: 1
  }
}
layer {
  name: "fc7_mbox_conf"
  type: "Convolution"
  bottom: "fc7"
  top: "fc7_mbox_conf"
  param {
    lr_mult: 1
    decay_mult: 1
  }
  param {
    lr_mult: 2
    decay_mult: 0
  }
  convolution_param {
    num_output: 66
    pad: 1
    kernel_size: 3
    stride: 1
    weight_filler {
      type: "xavier"
    }
    bias_filler {
      type: "constant"
      value: 0
    }
  }
}
layer {
  name: "fc7_mbox_conf_perm"
  type: "Permute"
  bottom: "fc7_mbox_conf"
  top: "fc7_mbox_conf_perm"
  permute_param {
    order: 0
    order: 2
    order: 3
    order: 1
  }
}
layer {
  name: "fc7_mbox_conf_flat"
  type: "Flatten"
  bottom: "fc7_mbox_conf_perm"
  top: "fc7_mbox_conf_flat"
  flatten_param {
    axis: 1
  }
}
layer {
  name: "fc7_mbox_priorbox"
  type: "PriorBox"
  bottom: "fc7"
  bottom: "data"
  top: "fc7_mbox_priorbox"
  prior_box_param {
    min_size: 60
    max_size: 111
    aspect_ratio: 2
    aspect_ratio: 3
    flip: true
    clip: false
    variance: 0.1
    variance: 0.1
    variance: 0.2
    variance: 0.2
    step: 16
    offset: 0.5
  }
}
layer {
  name: "conv6_2_mbox_loc"
  type: "Convolution"
  bottom: "conv6_2"
  top: "conv6_2_mbox_loc"
  param {
    lr_mult: 1
    decay_mult: 1
  }
  param {
    lr_mult: 2
    decay_mult: 0
  }
  convolution_param {
    num_output: 24
    pad: 1
    kernel_size: 3
    stride: 1
    weight_filler {
      type: "xavier"
    }
    bias_filler {
      type: "constant"
      value: 0
    }
  }
}
layer {
  name: "conv6_2_mbox_loc_perm"
  type: "Permute"
  bottom: "conv6_2_mbox_loc"
  top: "conv6_2_mbox_loc_perm"
  permute_param {
    order: 0
    order: 2
    order: 3
    order: 1
  }
}
layer {
  name: "conv6_2_mbox_loc_flat"
  type: "Flatten"
  bottom: "conv6_2_mbox_loc_perm"
  top: "conv6_2_mbox_loc_flat"
  flatten_param {
    axis: 1
  }
}
layer {
  name: "conv6_2_mbox_conf"
  type: "Convolution"
  bottom: "conv6_2"
  top: "conv6_2_mbox_conf"
  param {
    lr_mult: 1
    decay_mult: 1
  }
  param {
    lr_mult: 2
    decay_mult: 0
  }
  convolution_param {
    num_output: 66
    pad: 1
    kernel_size: 3
    stride: 1
    weight_filler {
      type: "xavier"
    }
    bias_filler {
      type: "constant"
      value: 0
    }
  }
}
layer {
  name: "conv6_2_mbox_conf_perm"
  type: "Permute"
  bottom: "conv6_2_mbox_conf"
  top: "conv6_2_mbox_conf_perm"
  permute_param {
    order: 0
    order: 2
    order: 3
    order: 1
  }
}
layer {
  name: "conv6_2_mbox_conf_flat"
  type: "Flatten"
  bottom: "conv6_2_mbox_conf_perm"
  top: "conv6_2_mbox_conf_flat"
  flatten_param {
    axis: 1
  }
}
layer {
  name: "conv6_2_mbox_priorbox"
  type: "PriorBox"
  bottom: "conv6_2"
  bottom: "data"
  top: "conv6_2_mbox_priorbox"
  prior_box_param {
    min_size: 111
    max_size: 162
    aspect_ratio: 2
    aspect_ratio: 3
    flip: true
    clip: false
    variance: 0.1
    variance: 0.1
    variance: 0.2
    variance: 0.2
    step: 32
    offset: 0.5
  }
}
layer {
  name: "conv7_2_mbox_loc"
  type: "Convolution"
  bottom: "conv7_2"
  top: "conv7_2_mbox_loc"
  param {
    lr_mult: 1
    decay_mult: 1
  }
  param {
    lr_mult: 2
    decay_mult: 0
  }
  convolution_param {
    num_output: 24
    pad: 1
    kernel_size: 3
    stride: 1
    weight_filler {
      type: "xavier"
    }
    bias_filler {
      type: "constant"
      value: 0
    }
  }
}
layer {
  name: "conv7_2_mbox_loc_perm"
  type: "Permute"
  bottom: "conv7_2_mbox_loc"
  top: "conv7_2_mbox_loc_perm"
  permute_param {
    order: 0
    order: 2
    order: 3
    order: 1
  }
}
layer {
  name: "conv7_2_mbox_loc_flat"
  type: "Flatten"
  bottom: "conv7_2_mbox_loc_perm"
  top: "conv7_2_mbox_loc_flat"
  flatten_param {
    axis: 1
  }
}
layer {
  name: "conv7_2_mbox_conf"
  type: "Convolution"
  bottom: "conv7_2"
  top: "conv7_2_mbox_conf"
  param {
    lr_mult: 1
    decay_mult: 1
  }
  param {
    lr_mult: 2
    decay_mult: 0
  }
  convolution_param {
    num_output: 66
    pad: 1
    kernel_size: 3
    stride: 1
    weight_filler {
      type: "xavier"
    }
    bias_filler {
      type: "constant"
      value: 0
    }
  }
}
layer {
  name: "conv7_2_mbox_conf_perm"
  type: "Permute"
  bottom: "conv7_2_mbox_conf"
  top: "conv7_2_mbox_conf_perm"
  permute_param {
    order: 0
    order: 2
    order: 3
    order: 1
  }
}
layer {
  name: "conv7_2_mbox_conf_flat"
  type: "Flatten"
  bottom: "conv7_2_mbox_conf_perm"
  top: "conv7_2_mbox_conf_flat"
  flatten_param {
    axis: 1
  }
}
layer {
  name: "conv7_2_mbox_priorbox"
  type: "PriorBox"
  bottom: "conv7_2"
  bottom: "data"
  top: "conv7_2_mbox_priorbox"
  prior_box_param {
    min_size: 162
    max_size: 213
    aspect_ratio: 2
    aspect_ratio: 3
    flip: true
    clip: false
    variance: 0.1
    variance: 0.1
    variance: 0.2
    variance: 0.2
    step: 64
    offset: 0.5
  }
}
layer {
  name: "conv8_2_mbox_loc"
  type: "Convolution"
  bottom: "conv8_2"
  top: "conv8_2_mbox_loc"
  param {
    lr_mult: 1
    decay_mult: 1
  }
  param {
    lr_mult: 2
    decay_mult: 0
  }
  convolution_param {
    num_output: 16
    pad: 1
    kernel_size: 3
    stride: 1
    weight_filler {
      type: "xavier"
    }
    bias_filler {
      type: "constant"
      value: 0
    }
  }
}
layer {
  name: "conv8_2_mbox_loc_perm"
  type: "Permute"
  bottom: "conv8_2_mbox_loc"
  top: "conv8_2_mbox_loc_perm"
  permute_param {
    order: 0
    order: 2
    order: 3
    order: 1
  }
}
layer {
  name: "conv8_2_mbox_loc_flat"
  type: "Flatten"
  bottom: "conv8_2_mbox_loc_perm"
  top: "conv8_2_mbox_loc_flat"
  flatten_param {
    axis: 1
  }
}
layer {
  name: "conv8_2_mbox_conf"
  type: "Convolution"
  bottom: "conv8_2"
  top: "conv8_2_mbox_conf"
  param {
    lr_mult: 1
    decay_mult: 1
  }
  param {
    lr_mult: 2
    decay_mult: 0
  }
  convolution_param {
    num_output: 44
    pad: 1
    kernel_size: 3
    stride: 1
    weight_filler {
      type: "xavier"
    }
    bias_filler {
      type: "constant"
      value: 0
    }
  }
}
layer {
  name: "conv8_2_mbox_conf_perm"
  type: "Permute"
  bottom: "conv8_2_mbox_conf"
  top: "conv8_2_mbox_conf_perm"
  permute_param {
    order: 0
    order: 2
    order: 3
    order: 1
  }
}
layer {
  name: "conv8_2_mbox_conf_flat"
  type: "Flatten"
  bottom: "conv8_2_mbox_conf_perm"
  top: "conv8_2_mbox_conf_flat"
  flatten_param {
    axis: 1
  }
}
layer {
  name: "conv8_2_mbox_priorbox"
  type: "PriorBox"
  bottom: "conv8_2"
  bottom: "data"
  top: "conv8_2_mbox_priorbox"
  prior_box_param {
    min_size: 213
    max_size: 264
    aspect_ratio: 2
    flip: true
    clip: false
    variance: 0.1
    variance: 0.1
    variance: 0.2
    variance: 0.2
    step: 100
    offset: 0.5
  }
}
layer {
  name: "conv9_2_mbox_loc"
  type: "Convolution"
  bottom: "conv9_2"
  top: "conv9_2_mbox_loc"
  param {
    lr_mult: 1
    decay_mult: 1
  }
  param {
    lr_mult: 2
    decay_mult: 0
  }
  convolution_param {
    num_output: 16
    pad: 1
    kernel_size: 3
    stride: 1
    weight_filler {
      type: "xavier"
    }
    bias_filler {
      type: "constant"
      value: 0
    }
  }
}
layer {
  name: "conv9_2_mbox_loc_perm"
  type: "Permute"
  bottom: "conv9_2_mbox_loc"
  top: "conv9_2_mbox_loc_perm"
  permute_param {
    order: 0
    order: 2
    order: 3
    order: 1
  }
}
layer {
  name: "conv9_2_mbox_loc_flat"
  type: "Flatten"
  bottom: "conv9_2_mbox_loc_perm"
  top: "conv9_2_mbox_loc_flat"
  flatten_param {
    axis: 1
  }
}
layer {
  name: "conv9_2_mbox_conf"
  type: "Convolution"
  bottom: "conv9_2"
  top: "conv9_2_mbox_conf"
  param {
    lr_mult: 1
    decay_mult: 1
  }
  param {
    lr_mult: 2
    decay_mult: 0
  }
  convolution_param {
    num_output: 44
    pad: 1
    kernel_size: 3
    stride: 1
    weight_filler {
      type: "xavier"
    }
    bias_filler {
      type: "constant"
      value: 0
    }
  }
}
layer {
  name: "conv9_2_mbox_conf_perm"
  type: "Permute"
  bottom: "conv9_2_mbox_conf"
  top: "conv9_2_mbox_conf_perm"
  permute_param {
    order: 0
    order: 2
    order: 3
    order: 1
  }
}
layer {
  name: "conv9_2_mbox_conf_flat"
  type: "Flatten"
  bottom: "conv9_2_mbox_conf_perm"
  top: "conv9_2_mbox_conf_flat"
  flatten_param {
    axis: 1
  }
}
layer {
  name: "conv9_2_mbox_priorbox"
  type: "PriorBox"
  bottom: "conv9_2"
  bottom: "data"
  top: "conv9_2_mbox_priorbox"
  prior_box_param {
    min_size: 264
    max_size: 315
    aspect_ratio: 2
    flip: true
    clip: false
    variance: 0.1
    variance: 0.1
    variance: 0.2
    variance: 0.2
    step: 300
    offset: 0.5
  }
}
layer {
  name: "mbox_loc"
  type: "Concat"
  bottom: "conv4_3_norm_mbox_loc_flat"
  bottom: "fc7_mbox_loc_flat"
  bottom: "conv6_2_mbox_loc_flat"
  bottom: "conv7_2_mbox_loc_flat"
  bottom: "conv8_2_mbox_loc_flat"
  bottom: "conv9_2_mbox_loc_flat"
  top: "mbox_loc"
  concat_param {
    axis: 1
  }
}
layer {
  name: "mbox_conf"
  type: "Concat"
  bottom: "conv4_3_norm_mbox_conf_flat"
  bottom: "fc7_mbox_conf_flat"
  bottom: "conv6_2_mbox_conf_flat"
  bottom: "conv7_2_mbox_conf_flat"
  bottom: "conv8_2_mbox_conf_flat"
  bottom: "conv9_2_mbox_conf_flat"
  top: "mbox_conf"
  concat_param {
    axis: 1
  }
}
layer {
  name: "mbox_priorbox"
  type: "Concat"
  bottom: "conv4_3_norm_mbox_priorbox"
  bottom: "fc7_mbox_priorbox"
  bottom: "conv6_2_mbox_priorbox"
  bottom: "conv7_2_mbox_priorbox"
  bottom: "conv8_2_mbox_priorbox"
  bottom: "conv9_2_mbox_priorbox"
  top: "mbox_priorbox"
  concat_param {
    axis: 2
  }
}
layer {
  name: "mbox_loss"
  type: "MultiBoxLoss"
  bottom: "mbox_loc"
  bottom: "mbox_conf"
  bottom: "mbox_priorbox"
  bottom: "label"
  top: "mbox_loss"
  include {
    phase: TRAIN
  }
  propagate_down: true
  propagate_down: true
  propagate_down: false
  propagate_down: false
  loss_param {
    normalization: VALID
  }
  multibox_loss_param {
    loc_loss_type: SMOOTH_L1
    conf_loss_type: SOFTMAX
    loc_weight: 1
    num_classes: 11
    share_location: true
    match_type: PER_PREDICTION
    overlap_threshold: 0.5
    use_prior_for_matching: true
    background_label_id: 0
    use_difficult_gt: true
    neg_pos_ratio: 3
    neg_overlap: 0.5
    code_type: CENTER_SIZE
    ignore_cross_boundary_bbox: false
    mining_type: MAX_NEGATIVE
  }
}
I0401 11:05:52.300665  1909 layer_factory.hpp:77] Creating layer data
I0401 11:05:52.301275  1909 net.cpp:100] Creating Layer data
I0401 11:05:52.301363  1909 net.cpp:408] data -> data
I0401 11:05:52.301468  1909 net.cpp:408] data -> label
I0401 11:05:52.318828  1924 db_lmdb.cpp:35] Opened lmdb examples/NWPU_VHR/NWPU_VHR_test_lmdb
I0401 11:05:52.360016  1909 annotated_data_layer.cpp:62] output data size: 1,3,300,300
I0401 11:05:52.387171  1909 net.cpp:150] Setting up data
I0401 11:05:52.387255  1909 net.cpp:157] Top shape: 1 3 300 300 (270000)
I0401 11:05:52.387289  1909 net.cpp:157] Top shape: 1 1 4 8 (32)
I0401 11:05:52.387312  1909 net.cpp:165] Memory required for data: 1080128
I0401 11:05:52.387346  1909 layer_factory.hpp:77] Creating layer data_data_0_split
I0401 11:05:52.387382  1909 net.cpp:100] Creating Layer data_data_0_split
I0401 11:05:52.387413  1909 net.cpp:434] data_data_0_split <- data
I0401 11:05:52.387454  1909 net.cpp:408] data_data_0_split -> data_data_0_split_0
I0401 11:05:52.387493  1909 net.cpp:408] data_data_0_split -> data_data_0_split_1
I0401 11:05:52.387531  1909 net.cpp:408] data_data_0_split -> data_data_0_split_2
I0401 11:05:52.387568  1909 net.cpp:408] data_data_0_split -> data_data_0_split_3
I0401 11:05:52.387604  1909 net.cpp:408] data_data_0_split -> data_data_0_split_4
I0401 11:05:52.387639  1909 net.cpp:408] data_data_0_split -> data_data_0_split_5
I0401 11:05:52.387676  1909 net.cpp:408] data_data_0_split -> data_data_0_split_6
I0401 11:05:52.387830  1909 net.cpp:150] Setting up data_data_0_split
I0401 11:05:52.387866  1909 net.cpp:157] Top shape: 1 3 300 300 (270000)
I0401 11:05:52.387893  1909 net.cpp:157] Top shape: 1 3 300 300 (270000)
I0401 11:05:52.387923  1909 net.cpp:157] Top shape: 1 3 300 300 (270000)
I0401 11:05:52.387959  1909 net.cpp:157] Top shape: 1 3 300 300 (270000)
I0401 11:05:52.388000  1909 net.cpp:157] Top shape: 1 3 300 300 (270000)
I0401 11:05:52.388027  1909 net.cpp:157] Top shape: 1 3 300 300 (270000)
I0401 11:05:52.388056  1909 net.cpp:157] Top shape: 1 3 300 300 (270000)
I0401 11:05:52.388082  1909 net.cpp:165] Memory required for data: 8640128
I0401 11:05:52.388108  1909 layer_factory.hpp:77] Creating layer conv1_1
I0401 11:05:52.388152  1909 net.cpp:100] Creating Layer conv1_1
I0401 11:05:52.388182  1909 net.cpp:434] conv1_1 <- data_data_0_split_0
I0401 11:05:52.388219  1909 net.cpp:408] conv1_1 -> conv1_1
I0401 11:05:53.641832  1909 net.cpp:150] Setting up conv1_1
I0401 11:05:53.665776  1909 net.cpp:157] Top shape: 1 64 300 300 (5760000)
I0401 11:05:53.665827  1909 net.cpp:165] Memory required for data: 31680128
I0401 11:05:53.665891  1909 layer_factory.hpp:77] Creating layer relu1_1
I0401 11:05:53.665926  1909 net.cpp:100] Creating Layer relu1_1
I0401 11:05:53.665951  1909 net.cpp:434] relu1_1 <- conv1_1
I0401 11:05:53.665978  1909 net.cpp:395] relu1_1 -> conv1_1 (in-place)
I0401 11:05:53.667042  1909 net.cpp:150] Setting up relu1_1
I0401 11:05:53.667078  1909 net.cpp:157] Top shape: 1 64 300 300 (5760000)
I0401 11:05:53.667101  1909 net.cpp:165] Memory required for data: 54720128
I0401 11:05:53.667124  1909 layer_factory.hpp:77] Creating layer conv1_2
I0401 11:05:53.667160  1909 net.cpp:100] Creating Layer conv1_2
I0401 11:05:53.667184  1909 net.cpp:434] conv1_2 <- conv1_1
I0401 11:05:53.667210  1909 net.cpp:408] conv1_2 -> conv1_2
I0401 11:05:53.670497  1909 net.cpp:150] Setting up conv1_2
I0401 11:05:53.670547  1909 net.cpp:157] Top shape: 1 64 300 300 (5760000)
I0401 11:05:53.670572  1909 net.cpp:165] Memory required for data: 77760128
I0401 11:05:53.670605  1909 layer_factory.hpp:77] Creating layer relu1_2
I0401 11:05:53.670634  1909 net.cpp:100] Creating Layer relu1_2
I0401 11:05:53.670658  1909 net.cpp:434] relu1_2 <- conv1_2
I0401 11:05:53.670683  1909 net.cpp:395] relu1_2 -> conv1_2 (in-place)
I0401 11:05:53.670928  1909 net.cpp:150] Setting up relu1_2
I0401 11:05:53.670960  1909 net.cpp:157] Top shape: 1 64 300 300 (5760000)
I0401 11:05:53.670984  1909 net.cpp:165] Memory required for data: 100800128
I0401 11:05:53.671005  1909 layer_factory.hpp:77] Creating layer pool1
I0401 11:05:53.671031  1909 net.cpp:100] Creating Layer pool1
I0401 11:05:53.671054  1909 net.cpp:434] pool1 <- conv1_2
I0401 11:05:53.671080  1909 net.cpp:408] pool1 -> pool1
I0401 11:05:53.671170  1909 net.cpp:150] Setting up pool1
I0401 11:05:53.671200  1909 net.cpp:157] Top shape: 1 64 150 150 (1440000)
I0401 11:05:53.671221  1909 net.cpp:165] Memory required for data: 106560128
I0401 11:05:53.671243  1909 layer_factory.hpp:77] Creating layer conv2_1
I0401 11:05:53.671274  1909 net.cpp:100] Creating Layer conv2_1
I0401 11:05:53.671298  1909 net.cpp:434] conv2_1 <- pool1
I0401 11:05:53.671322  1909 net.cpp:408] conv2_1 -> conv2_1
I0401 11:05:53.674311  1909 net.cpp:150] Setting up conv2_1
I0401 11:05:53.674355  1909 net.cpp:157] Top shape: 1 128 150 150 (2880000)
I0401 11:05:53.674378  1909 net.cpp:165] Memory required for data: 118080128
I0401 11:05:53.674412  1909 layer_factory.hpp:77] Creating layer relu2_1
I0401 11:05:53.674443  1909 net.cpp:100] Creating Layer relu2_1
I0401 11:05:53.674465  1909 net.cpp:434] relu2_1 <- conv2_1
I0401 11:05:53.674490  1909 net.cpp:395] relu2_1 -> conv2_1 (in-place)
I0401 11:05:53.674742  1909 net.cpp:150] Setting up relu2_1
I0401 11:05:53.674775  1909 net.cpp:157] Top shape: 1 128 150 150 (2880000)
I0401 11:05:53.674798  1909 net.cpp:165] Memory required for data: 129600128
I0401 11:05:53.674819  1909 layer_factory.hpp:77] Creating layer conv2_2
I0401 11:05:53.674849  1909 net.cpp:100] Creating Layer conv2_2
I0401 11:05:53.674875  1909 net.cpp:434] conv2_2 <- conv2_1
I0401 11:05:53.674901  1909 net.cpp:408] conv2_2 -> conv2_2
I0401 11:05:53.678505  1909 net.cpp:150] Setting up conv2_2
I0401 11:05:53.690872  1909 net.cpp:157] Top shape: 1 128 150 150 (2880000)
I0401 11:05:53.690908  1909 net.cpp:165] Memory required for data: 141120128
I0401 11:05:53.690964  1909 layer_factory.hpp:77] Creating layer relu2_2
I0401 11:05:53.690994  1909 net.cpp:100] Creating Layer relu2_2
I0401 11:05:53.691016  1909 net.cpp:434] relu2_2 <- conv2_2
I0401 11:05:53.691042  1909 net.cpp:395] relu2_2 -> conv2_2 (in-place)
I0401 11:05:53.691960  1909 net.cpp:150] Setting up relu2_2
I0401 11:05:53.701761  1909 net.cpp:157] Top shape: 1 128 150 150 (2880000)
I0401 11:05:53.701792  1909 net.cpp:165] Memory required for data: 152640128
I0401 11:05:53.701817  1909 layer_factory.hpp:77] Creating layer pool2
I0401 11:05:53.701844  1909 net.cpp:100] Creating Layer pool2
I0401 11:05:53.701866  1909 net.cpp:434] pool2 <- conv2_2
I0401 11:05:53.701892  1909 net.cpp:408] pool2 -> pool2
I0401 11:05:53.701974  1909 net.cpp:150] Setting up pool2
I0401 11:05:53.702004  1909 net.cpp:157] Top shape: 1 128 75 75 (720000)
I0401 11:05:53.702025  1909 net.cpp:165] Memory required for data: 155520128
I0401 11:05:53.702046  1909 layer_factory.hpp:77] Creating layer conv3_1
I0401 11:05:53.702077  1909 net.cpp:100] Creating Layer conv3_1
I0401 11:05:53.702100  1909 net.cpp:434] conv3_1 <- pool2
I0401 11:05:53.702126  1909 net.cpp:408] conv3_1 -> conv3_1
I0401 11:05:53.709036  1909 net.cpp:150] Setting up conv3_1
I0401 11:05:53.709085  1909 net.cpp:157] Top shape: 1 256 75 75 (1440000)
I0401 11:05:53.709110  1909 net.cpp:165] Memory required for data: 161280128
I0401 11:05:53.709144  1909 layer_factory.hpp:77] Creating layer relu3_1
I0401 11:05:53.709172  1909 net.cpp:100] Creating Layer relu3_1
I0401 11:05:53.709195  1909 net.cpp:434] relu3_1 <- conv3_1
I0401 11:05:53.709220  1909 net.cpp:395] relu3_1 -> conv3_1 (in-place)
I0401 11:05:53.709480  1909 net.cpp:150] Setting up relu3_1
I0401 11:05:53.709512  1909 net.cpp:157] Top shape: 1 256 75 75 (1440000)
I0401 11:05:53.709537  1909 net.cpp:165] Memory required for data: 167040128
I0401 11:05:53.709558  1909 layer_factory.hpp:77] Creating layer conv3_2
I0401 11:05:53.709587  1909 net.cpp:100] Creating Layer conv3_2
I0401 11:05:53.709610  1909 net.cpp:434] conv3_2 <- conv3_1
I0401 11:05:53.709637  1909 net.cpp:408] conv3_2 -> conv3_2
I0401 11:05:53.718015  1909 net.cpp:150] Setting up conv3_2
I0401 11:05:53.725186  1909 net.cpp:157] Top shape: 1 256 75 75 (1440000)
I0401 11:05:53.725229  1909 net.cpp:165] Memory required for data: 172800128
I0401 11:05:53.725263  1909 layer_factory.hpp:77] Creating layer relu3_2
I0401 11:05:53.725294  1909 net.cpp:100] Creating Layer relu3_2
I0401 11:05:53.725322  1909 net.cpp:434] relu3_2 <- conv3_2
I0401 11:05:53.725348  1909 net.cpp:395] relu3_2 -> conv3_2 (in-place)
I0401 11:05:53.725677  1909 net.cpp:150] Setting up relu3_2
I0401 11:05:53.726056  1909 net.cpp:157] Top shape: 1 256 75 75 (1440000)
I0401 11:05:53.726090  1909 net.cpp:165] Memory required for data: 178560128
I0401 11:05:53.726116  1909 layer_factory.hpp:77] Creating layer conv3_3
I0401 11:05:53.726248  1909 net.cpp:100] Creating Layer conv3_3
I0401 11:05:53.726280  1909 net.cpp:434] conv3_3 <- conv3_2
I0401 11:05:53.726312  1909 net.cpp:408] conv3_3 -> conv3_3
I0401 11:05:53.743505  1909 net.cpp:150] Setting up conv3_3
I0401 11:05:53.743556  1909 net.cpp:157] Top shape: 1 256 75 75 (1440000)
I0401 11:05:53.744468  1909 net.cpp:165] Memory required for data: 184320128
I0401 11:05:53.744509  1909 layer_factory.hpp:77] Creating layer relu3_3
I0401 11:05:53.744540  1909 net.cpp:100] Creating Layer relu3_3
I0401 11:05:53.744565  1909 net.cpp:434] relu3_3 <- conv3_3
I0401 11:05:53.744590  1909 net.cpp:395] relu3_3 -> conv3_3 (in-place)
I0401 11:05:53.746636  1909 net.cpp:150] Setting up relu3_3
I0401 11:05:53.746676  1909 net.cpp:157] Top shape: 1 256 75 75 (1440000)
I0401 11:05:53.746702  1909 net.cpp:165] Memory required for data: 190080128
I0401 11:05:53.746722  1909 layer_factory.hpp:77] Creating layer pool3
I0401 11:05:53.746749  1909 net.cpp:100] Creating Layer pool3
I0401 11:05:53.746774  1909 net.cpp:434] pool3 <- conv3_3
I0401 11:05:53.746805  1909 net.cpp:408] pool3 -> pool3
I0401 11:05:53.746887  1909 net.cpp:150] Setting up pool3
I0401 11:05:53.746930  1909 net.cpp:157] Top shape: 1 256 38 38 (369664)
I0401 11:05:53.746970  1909 net.cpp:165] Memory required for data: 191558784
I0401 11:05:53.746999  1909 layer_factory.hpp:77] Creating layer conv4_1_depthwise
I0401 11:05:53.747028  1909 net.cpp:100] Creating Layer conv4_1_depthwise
I0401 11:05:53.747054  1909 net.cpp:434] conv4_1_depthwise <- pool3
I0401 11:05:53.747088  1909 net.cpp:408] conv4_1_depthwise -> conv4_1_3x3
I0401 11:05:53.747469  1909 net.cpp:150] Setting up conv4_1_depthwise
I0401 11:05:53.747505  1909 net.cpp:157] Top shape: 1 256 38 38 (369664)
I0401 11:05:53.747531  1909 net.cpp:165] Memory required for data: 193037440
I0401 11:05:53.747555  1909 layer_factory.hpp:77] Creating layer conv4_1_3x3_relu
I0401 11:05:53.747579  1909 net.cpp:100] Creating Layer conv4_1_3x3_relu
I0401 11:05:53.747599  1909 net.cpp:434] conv4_1_3x3_relu <- conv4_1_3x3
I0401 11:05:53.747623  1909 net.cpp:395] conv4_1_3x3_relu -> conv4_1_3x3 (in-place)
I0401 11:05:53.747908  1909 net.cpp:150] Setting up conv4_1_3x3_relu
I0401 11:05:53.748710  1909 net.cpp:157] Top shape: 1 256 38 38 (369664)
I0401 11:05:53.748742  1909 net.cpp:165] Memory required for data: 194516096
I0401 11:05:53.748769  1909 layer_factory.hpp:77] Creating layer conv4_1_1x1
I0401 11:05:53.748800  1909 net.cpp:100] Creating Layer conv4_1_1x1
I0401 11:05:53.748826  1909 net.cpp:434] conv4_1_1x1 <- conv4_1_3x3
I0401 11:05:53.748858  1909 net.cpp:408] conv4_1_1x1 -> conv4_1
I0401 11:05:53.757184  1909 net.cpp:150] Setting up conv4_1_1x1
I0401 11:05:53.757234  1909 net.cpp:157] Top shape: 1 512 38 38 (739328)
I0401 11:05:53.757261  1909 net.cpp:165] Memory required for data: 197473408
I0401 11:05:53.757293  1909 layer_factory.hpp:77] Creating layer relu4_1
I0401 11:05:53.757324  1909 net.cpp:100] Creating Layer relu4_1
I0401 11:05:53.757345  1909 net.cpp:434] relu4_1 <- conv4_1
I0401 11:05:53.757369  1909 net.cpp:395] relu4_1 -> conv4_1 (in-place)
I0401 11:05:53.757648  1909 net.cpp:150] Setting up relu4_1
I0401 11:05:53.757685  1909 net.cpp:157] Top shape: 1 512 38 38 (739328)
I0401 11:05:53.757710  1909 net.cpp:165] Memory required for data: 200430720
I0401 11:05:53.757752  1909 layer_factory.hpp:77] Creating layer conv4_2
I0401 11:05:53.757783  1909 net.cpp:100] Creating Layer conv4_2
I0401 11:05:53.757804  1909 net.cpp:434] conv4_2 <- conv4_1
I0401 11:05:53.757830  1909 net.cpp:408] conv4_2 -> conv4_2
I0401 11:05:53.810863  1909 net.cpp:150] Setting up conv4_2
I0401 11:05:53.810897  1909 net.cpp:157] Top shape: 1 512 38 38 (739328)
I0401 11:05:53.811030  1909 net.cpp:165] Memory required for data: 203388032
I0401 11:05:53.811200  1909 layer_factory.hpp:77] Creating layer relu4_2
I0401 11:05:53.811273  1909 net.cpp:100] Creating Layer relu4_2
I0401 11:05:53.811290  1909 net.cpp:434] relu4_2 <- conv4_2
I0401 11:05:53.811425  1909 net.cpp:395] relu4_2 -> conv4_2 (in-place)
I0401 11:05:53.811847  1909 net.cpp:150] Setting up relu4_2
I0401 11:05:53.811867  1909 net.cpp:157] Top shape: 1 512 38 38 (739328)
I0401 11:05:53.811939  1909 net.cpp:165] Memory required for data: 206345344
I0401 11:05:53.811993  1909 layer_factory.hpp:77] Creating layer conv4_3
I0401 11:05:53.812144  1909 net.cpp:100] Creating Layer conv4_3
I0401 11:05:53.812160  1909 net.cpp:434] conv4_3 <- conv4_2
I0401 11:05:53.812294  1909 net.cpp:408] conv4_3 -> conv4_3
I0401 11:05:53.875161  1909 net.cpp:150] Setting up conv4_3
I0401 11:05:53.875196  1909 net.cpp:157] Top shape: 1 512 38 38 (739328)
I0401 11:05:53.875205  1909 net.cpp:165] Memory required for data: 209302656
I0401 11:05:53.875226  1909 layer_factory.hpp:77] Creating layer relu4_3
I0401 11:05:53.875242  1909 net.cpp:100] Creating Layer relu4_3
I0401 11:05:53.875252  1909 net.cpp:434] relu4_3 <- conv4_3
I0401 11:05:53.875262  1909 net.cpp:395] relu4_3 -> conv4_3 (in-place)
I0401 11:05:53.876240  1909 net.cpp:150] Setting up relu4_3
I0401 11:05:53.876258  1909 net.cpp:157] Top shape: 1 512 38 38 (739328)
I0401 11:05:53.876268  1909 net.cpp:165] Memory required for data: 212259968
I0401 11:05:53.876278  1909 layer_factory.hpp:77] Creating layer conv4_3_relu4_3_0_split
I0401 11:05:53.876309  1909 net.cpp:100] Creating Layer conv4_3_relu4_3_0_split
I0401 11:05:53.876317  1909 net.cpp:434] conv4_3_relu4_3_0_split <- conv4_3
I0401 11:05:53.876327  1909 net.cpp:408] conv4_3_relu4_3_0_split -> conv4_3_relu4_3_0_split_0
I0401 11:05:53.876339  1909 net.cpp:408] conv4_3_relu4_3_0_split -> conv4_3_relu4_3_0_split_1
I0401 11:05:53.876405  1909 net.cpp:150] Setting up conv4_3_relu4_3_0_split
I0401 11:05:53.876418  1909 net.cpp:157] Top shape: 1 512 38 38 (739328)
I0401 11:05:53.876426  1909 net.cpp:157] Top shape: 1 512 38 38 (739328)
I0401 11:05:53.876432  1909 net.cpp:165] Memory required for data: 218174592
I0401 11:05:53.876438  1909 layer_factory.hpp:77] Creating layer pool4
I0401 11:05:53.876451  1909 net.cpp:100] Creating Layer pool4
I0401 11:05:53.876464  1909 net.cpp:434] pool4 <- conv4_3_relu4_3_0_split_0
I0401 11:05:53.876477  1909 net.cpp:408] pool4 -> pool4
I0401 11:05:53.876540  1909 net.cpp:150] Setting up pool4
I0401 11:05:53.876557  1909 net.cpp:157] Top shape: 1 512 19 19 (184832)
I0401 11:05:53.876564  1909 net.cpp:165] Memory required for data: 218913920
I0401 11:05:53.876570  1909 layer_factory.hpp:77] Creating layer conv5_1_depthwise
I0401 11:05:53.876585  1909 net.cpp:100] Creating Layer conv5_1_depthwise
I0401 11:05:53.876591  1909 net.cpp:434] conv5_1_depthwise <- pool4
I0401 11:05:53.876602  1909 net.cpp:408] conv5_1_depthwise -> conv5_1_3x3
I0401 11:05:53.877043  1909 net.cpp:150] Setting up conv5_1_depthwise
I0401 11:05:53.877063  1909 net.cpp:157] Top shape: 1 512 19 19 (184832)
I0401 11:05:53.877074  1909 net.cpp:165] Memory required for data: 219653248
I0401 11:05:53.877086  1909 layer_factory.hpp:77] Creating layer conv5_1_3x3_relu
I0401 11:05:53.877096  1909 net.cpp:100] Creating Layer conv5_1_3x3_relu
I0401 11:05:53.877146  1909 net.cpp:434] conv5_1_3x3_relu <- conv5_1_3x3
I0401 11:05:53.877157  1909 net.cpp:395] conv5_1_3x3_relu -> conv5_1_3x3 (in-place)
I0401 11:05:53.877450  1909 net.cpp:150] Setting up conv5_1_3x3_relu
I0401 11:05:53.877470  1909 net.cpp:157] Top shape: 1 512 19 19 (184832)
I0401 11:05:53.877481  1909 net.cpp:165] Memory required for data: 220392576
I0401 11:05:53.877490  1909 layer_factory.hpp:77] Creating layer conv5_1_1x1
I0401 11:05:53.877508  1909 net.cpp:100] Creating Layer conv5_1_1x1
I0401 11:05:53.877517  1909 net.cpp:434] conv5_1_1x1 <- conv5_1_3x3
I0401 11:05:53.877528  1909 net.cpp:408] conv5_1_1x1 -> conv5_1
I0401 11:05:53.883460  1909 net.cpp:150] Setting up conv5_1_1x1
I0401 11:05:53.883481  1909 net.cpp:157] Top shape: 1 512 19 19 (184832)
I0401 11:05:53.883492  1909 net.cpp:165] Memory required for data: 221131904
I0401 11:05:53.883505  1909 layer_factory.hpp:77] Creating layer relu5_1
I0401 11:05:53.883523  1909 net.cpp:100] Creating Layer relu5_1
I0401 11:05:53.883532  1909 net.cpp:434] relu5_1 <- conv5_1
I0401 11:05:53.883540  1909 net.cpp:395] relu5_1 -> conv5_1 (in-place)
I0401 11:05:53.883797  1909 net.cpp:150] Setting up relu5_1
I0401 11:05:53.883816  1909 net.cpp:157] Top shape: 1 512 19 19 (184832)
I0401 11:05:53.883826  1909 net.cpp:165] Memory required for data: 221871232
I0401 11:05:53.883836  1909 layer_factory.hpp:77] Creating layer conv5_2_depthwise
I0401 11:05:53.883850  1909 net.cpp:100] Creating Layer conv5_2_depthwise
I0401 11:05:53.883857  1909 net.cpp:434] conv5_2_depthwise <- conv5_1
I0401 11:05:53.883870  1909 net.cpp:408] conv5_2_depthwise -> conv5_2_3x3
I0401 11:05:53.884266  1909 net.cpp:150] Setting up conv5_2_depthwise
I0401 11:05:53.884285  1909 net.cpp:157] Top shape: 1 512 19 19 (184832)
I0401 11:05:53.884295  1909 net.cpp:165] Memory required for data: 222610560
I0401 11:05:53.884310  1909 layer_factory.hpp:77] Creating layer conv5_2_3x3_relu
I0401 11:05:53.884320  1909 net.cpp:100] Creating Layer conv5_2_3x3_relu
I0401 11:05:53.884326  1909 net.cpp:434] conv5_2_3x3_relu <- conv5_2_3x3
I0401 11:05:53.884371  1909 net.cpp:395] conv5_2_3x3_relu -> conv5_2_3x3 (in-place)
I0401 11:05:53.885417  1909 net.cpp:150] Setting up conv5_2_3x3_relu
I0401 11:05:53.885459  1909 net.cpp:157] Top shape: 1 512 19 19 (184832)
I0401 11:05:53.885483  1909 net.cpp:165] Memory required for data: 223349888
I0401 11:05:53.885493  1909 layer_factory.hpp:77] Creating layer conv5_2_1x1
I0401 11:05:53.885509  1909 net.cpp:100] Creating Layer conv5_2_1x1
I0401 11:05:53.885519  1909 net.cpp:434] conv5_2_1x1 <- conv5_2_3x3
I0401 11:05:53.885529  1909 net.cpp:408] conv5_2_1x1 -> conv5_2
I0401 11:05:53.889609  1909 net.cpp:150] Setting up conv5_2_1x1
I0401 11:05:53.889629  1909 net.cpp:157] Top shape: 1 512 19 19 (184832)
I0401 11:05:53.889642  1909 net.cpp:165] Memory required for data: 224089216
I0401 11:05:53.889655  1909 layer_factory.hpp:77] Creating layer relu5_2
I0401 11:05:53.889665  1909 net.cpp:100] Creating Layer relu5_2
I0401 11:05:53.889672  1909 net.cpp:434] relu5_2 <- conv5_2
I0401 11:05:53.889683  1909 net.cpp:395] relu5_2 -> conv5_2 (in-place)
I0401 11:05:53.890005  1909 net.cpp:150] Setting up relu5_2
I0401 11:05:53.890024  1909 net.cpp:157] Top shape: 1 512 19 19 (184832)
I0401 11:05:53.890036  1909 net.cpp:165] Memory required for data: 224828544
I0401 11:05:53.890045  1909 layer_factory.hpp:77] Creating layer conv5_3_depthwise
I0401 11:05:53.890059  1909 net.cpp:100] Creating Layer conv5_3_depthwise
I0401 11:05:53.890066  1909 net.cpp:434] conv5_3_depthwise <- conv5_2
I0401 11:05:53.890077  1909 net.cpp:408] conv5_3_depthwise -> conv5_3_3x3
I0401 11:05:53.905964  1909 net.cpp:150] Setting up conv5_3_depthwise
I0401 11:05:53.905987  1909 net.cpp:157] Top shape: 1 512 19 19 (184832)
I0401 11:05:53.905995  1909 net.cpp:165] Memory required for data: 225567872
I0401 11:05:53.906009  1909 layer_factory.hpp:77] Creating layer conv5_3_3x3_relu
I0401 11:05:53.906021  1909 net.cpp:100] Creating Layer conv5_3_3x3_relu
I0401 11:05:53.906028  1909 net.cpp:434] conv5_3_3x3_relu <- conv5_3_3x3
I0401 11:05:53.906035  1909 net.cpp:395] conv5_3_3x3_relu -> conv5_3_3x3 (in-place)
I0401 11:05:53.906342  1909 net.cpp:150] Setting up conv5_3_3x3_relu
I0401 11:05:53.906360  1909 net.cpp:157] Top shape: 1 512 19 19 (184832)
I0401 11:05:53.906370  1909 net.cpp:165] Memory required for data: 226307200
I0401 11:05:53.906379  1909 layer_factory.hpp:77] Creating layer conv5_3_1x1
I0401 11:05:53.906395  1909 net.cpp:100] Creating Layer conv5_3_1x1
I0401 11:05:53.906404  1909 net.cpp:434] conv5_3_1x1 <- conv5_3_3x3
I0401 11:05:53.906415  1909 net.cpp:408] conv5_3_1x1 -> conv5_3
I0401 11:05:53.911684  1909 net.cpp:150] Setting up conv5_3_1x1
I0401 11:05:53.911706  1909 net.cpp:157] Top shape: 1 512 19 19 (184832)
I0401 11:05:53.911718  1909 net.cpp:165] Memory required for data: 227046528
I0401 11:05:53.911741  1909 layer_factory.hpp:77] Creating layer relu5_3
I0401 11:05:53.911751  1909 net.cpp:100] Creating Layer relu5_3
I0401 11:05:53.911758  1909 net.cpp:434] relu5_3 <- conv5_3
I0401 11:05:53.911769  1909 net.cpp:395] relu5_3 -> conv5_3 (in-place)
I0401 11:05:53.912704  1909 net.cpp:150] Setting up relu5_3
I0401 11:05:53.912724  1909 net.cpp:157] Top shape: 1 512 19 19 (184832)
I0401 11:05:53.912734  1909 net.cpp:165] Memory required for data: 227785856
I0401 11:05:53.912744  1909 layer_factory.hpp:77] Creating layer pool5
I0401 11:05:53.912757  1909 net.cpp:100] Creating Layer pool5
I0401 11:05:53.912765  1909 net.cpp:434] pool5 <- conv5_3
I0401 11:05:53.912773  1909 net.cpp:408] pool5 -> pool5
I0401 11:05:53.912853  1909 net.cpp:150] Setting up pool5
I0401 11:05:53.912869  1909 net.cpp:157] Top shape: 1 512 19 19 (184832)
I0401 11:05:53.912876  1909 net.cpp:165] Memory required for data: 228525184
I0401 11:05:53.912883  1909 layer_factory.hpp:77] Creating layer fc6_depthwise
I0401 11:05:53.912896  1909 net.cpp:100] Creating Layer fc6_depthwise
I0401 11:05:53.912909  1909 net.cpp:434] fc6_depthwise <- pool5
I0401 11:05:53.912925  1909 net.cpp:408] fc6_depthwise -> fc6_3x3
I0401 11:05:53.913318  1909 net.cpp:150] Setting up fc6_depthwise
I0401 11:05:53.913338  1909 net.cpp:157] Top shape: 1 512 19 19 (184832)
I0401 11:05:53.913349  1909 net.cpp:165] Memory required for data: 229264512
I0401 11:05:53.913362  1909 layer_factory.hpp:77] Creating layer fc6_3x3_relu
I0401 11:05:53.913385  1909 net.cpp:100] Creating Layer fc6_3x3_relu
I0401 11:05:53.913394  1909 net.cpp:434] fc6_3x3_relu <- fc6_3x3
I0401 11:05:53.913403  1909 net.cpp:395] fc6_3x3_relu -> fc6_3x3 (in-place)
I0401 11:05:53.913661  1909 net.cpp:150] Setting up fc6_3x3_relu
I0401 11:05:53.913679  1909 net.cpp:157] Top shape: 1 512 19 19 (184832)
I0401 11:05:53.913691  1909 net.cpp:165] Memory required for data: 230003840
I0401 11:05:53.913699  1909 layer_factory.hpp:77] Creating layer fc6_1x1
I0401 11:05:53.913715  1909 net.cpp:100] Creating Layer fc6_1x1
I0401 11:05:53.913722  1909 net.cpp:434] fc6_1x1 <- fc6_3x3
I0401 11:05:53.913761  1909 net.cpp:408] fc6_1x1 -> fc6
I0401 11:05:53.919528  1909 net.cpp:150] Setting up fc6_1x1
I0401 11:05:53.919548  1909 net.cpp:157] Top shape: 1 1024 19 19 (369664)
I0401 11:05:53.919559  1909 net.cpp:165] Memory required for data: 231482496
I0401 11:05:53.919572  1909 layer_factory.hpp:77] Creating layer relu6
I0401 11:05:53.919581  1909 net.cpp:100] Creating Layer relu6
I0401 11:05:53.919587  1909 net.cpp:434] relu6 <- fc6
I0401 11:05:53.919598  1909 net.cpp:395] relu6 -> fc6 (in-place)
I0401 11:05:53.919863  1909 net.cpp:150] Setting up relu6
I0401 11:05:53.919883  1909 net.cpp:157] Top shape: 1 1024 19 19 (369664)
I0401 11:05:53.919893  1909 net.cpp:165] Memory required for data: 232961152
I0401 11:05:53.919901  1909 layer_factory.hpp:77] Creating layer fc7
I0401 11:05:53.919919  1909 net.cpp:100] Creating Layer fc7
I0401 11:05:53.919925  1909 net.cpp:434] fc7 <- fc6
I0401 11:05:53.919936  1909 net.cpp:408] fc7 -> fc7
I0401 11:05:53.949102  1909 net.cpp:150] Setting up fc7
I0401 11:05:53.949137  1909 net.cpp:157] Top shape: 1 1024 19 19 (369664)
I0401 11:05:53.949143  1909 net.cpp:165] Memory required for data: 234439808
I0401 11:05:53.949163  1909 layer_factory.hpp:77] Creating layer relu7
I0401 11:05:53.949177  1909 net.cpp:100] Creating Layer relu7
I0401 11:05:53.949188  1909 net.cpp:434] relu7 <- fc7
I0401 11:05:53.949198  1909 net.cpp:395] relu7 -> fc7 (in-place)
I0401 11:05:53.949445  1909 net.cpp:150] Setting up relu7
I0401 11:05:53.949463  1909 net.cpp:157] Top shape: 1 1024 19 19 (369664)
I0401 11:05:53.949471  1909 net.cpp:165] Memory required for data: 235918464
I0401 11:05:53.949477  1909 layer_factory.hpp:77] Creating layer fc7_relu7_0_split
I0401 11:05:53.949487  1909 net.cpp:100] Creating Layer fc7_relu7_0_split
I0401 11:05:53.949493  1909 net.cpp:434] fc7_relu7_0_split <- fc7
I0401 11:05:53.949513  1909 net.cpp:408] fc7_relu7_0_split -> fc7_relu7_0_split_0
I0401 11:05:53.949529  1909 net.cpp:408] fc7_relu7_0_split -> fc7_relu7_0_split_1
I0401 11:05:53.949539  1909 net.cpp:408] fc7_relu7_0_split -> fc7_relu7_0_split_2
I0401 11:05:53.949550  1909 net.cpp:408] fc7_relu7_0_split -> fc7_relu7_0_split_3
I0401 11:05:53.949651  1909 net.cpp:150] Setting up fc7_relu7_0_split
I0401 11:05:53.949669  1909 net.cpp:157] Top shape: 1 1024 19 19 (369664)
I0401 11:05:53.949678  1909 net.cpp:157] Top shape: 1 1024 19 19 (369664)
I0401 11:05:53.949685  1909 net.cpp:157] Top shape: 1 1024 19 19 (369664)
I0401 11:05:53.949693  1909 net.cpp:157] Top shape: 1 1024 19 19 (369664)
I0401 11:05:53.949699  1909 net.cpp:165] Memory required for data: 241833088
I0401 11:05:53.949705  1909 layer_factory.hpp:77] Creating layer conv6_1
I0401 11:05:53.949724  1909 net.cpp:100] Creating Layer conv6_1
I0401 11:05:53.949762  1909 net.cpp:434] conv6_1 <- fc7_relu7_0_split_0
I0401 11:05:53.949776  1909 net.cpp:408] conv6_1 -> conv6_1
I0401 11:05:53.965946  1909 net.cpp:150] Setting up conv6_1
I0401 11:05:53.965968  1909 net.cpp:157] Top shape: 1 256 19 19 (92416)
I0401 11:05:53.965981  1909 net.cpp:165] Memory required for data: 242202752
I0401 11:05:53.965996  1909 layer_factory.hpp:77] Creating layer conv6_1_relu
I0401 11:05:53.966006  1909 net.cpp:100] Creating Layer conv6_1_relu
I0401 11:05:53.966012  1909 net.cpp:434] conv6_1_relu <- conv6_1
I0401 11:05:53.966024  1909 net.cpp:395] conv6_1_relu -> conv6_1 (in-place)
I0401 11:05:53.967005  1909 net.cpp:150] Setting up conv6_1_relu
I0401 11:05:53.967041  1909 net.cpp:157] Top shape: 1 256 19 19 (92416)
I0401 11:05:53.967052  1909 net.cpp:165] Memory required for data: 242572416
I0401 11:05:53.967061  1909 layer_factory.hpp:77] Creating layer conv6_2_depthwise
I0401 11:05:53.967075  1909 net.cpp:100] Creating Layer conv6_2_depthwise
I0401 11:05:53.967083  1909 net.cpp:434] conv6_2_depthwise <- conv6_1
I0401 11:05:53.967094  1909 net.cpp:408] conv6_2_depthwise -> conv6_2_3x3
I0401 11:05:53.967571  1909 net.cpp:150] Setting up conv6_2_depthwise
I0401 11:05:53.967589  1909 net.cpp:157] Top shape: 1 256 10 10 (25600)
I0401 11:05:53.967599  1909 net.cpp:165] Memory required for data: 242674816
I0401 11:05:53.967612  1909 layer_factory.hpp:77] Creating layer conv6_2_3x3_relu
I0401 11:05:53.967627  1909 net.cpp:100] Creating Layer conv6_2_3x3_relu
I0401 11:05:53.967633  1909 net.cpp:434] conv6_2_3x3_relu <- conv6_2_3x3
I0401 11:05:53.967641  1909 net.cpp:395] conv6_2_3x3_relu -> conv6_2_3x3 (in-place)
I0401 11:05:53.967957  1909 net.cpp:150] Setting up conv6_2_3x3_relu
I0401 11:05:53.967977  1909 net.cpp:157] Top shape: 1 256 10 10 (25600)
I0401 11:05:53.967986  1909 net.cpp:165] Memory required for data: 242777216
I0401 11:05:53.967994  1909 layer_factory.hpp:77] Creating layer conv6_2_1x1
I0401 11:05:53.968013  1909 net.cpp:100] Creating Layer conv6_2_1x1
I0401 11:05:53.968020  1909 net.cpp:434] conv6_2_1x1 <- conv6_2_3x3
I0401 11:05:53.968030  1909 net.cpp:408] conv6_2_1x1 -> conv6_2
I0401 11:05:53.971119  1909 net.cpp:150] Setting up conv6_2_1x1
I0401 11:05:53.971141  1909 net.cpp:157] Top shape: 1 512 10 10 (51200)
I0401 11:05:53.971153  1909 net.cpp:165] Memory required for data: 242982016
I0401 11:05:53.971166  1909 layer_factory.hpp:77] Creating layer conv6_2_relu
I0401 11:05:53.971175  1909 net.cpp:100] Creating Layer conv6_2_relu
I0401 11:05:53.971181  1909 net.cpp:434] conv6_2_relu <- conv6_2
I0401 11:05:53.971190  1909 net.cpp:395] conv6_2_relu -> conv6_2 (in-place)
I0401 11:05:53.971441  1909 net.cpp:150] Setting up conv6_2_relu
I0401 11:05:53.971458  1909 net.cpp:157] Top shape: 1 512 10 10 (51200)
I0401 11:05:53.971469  1909 net.cpp:165] Memory required for data: 243186816
I0401 11:05:53.971478  1909 layer_factory.hpp:77] Creating layer conv6_2_conv6_2_relu_0_split
I0401 11:05:53.971491  1909 net.cpp:100] Creating Layer conv6_2_conv6_2_relu_0_split
I0401 11:05:53.971498  1909 net.cpp:434] conv6_2_conv6_2_relu_0_split <- conv6_2
I0401 11:05:53.971506  1909 net.cpp:408] conv6_2_conv6_2_relu_0_split -> conv6_2_conv6_2_relu_0_split_0
I0401 11:05:53.971520  1909 net.cpp:408] conv6_2_conv6_2_relu_0_split -> conv6_2_conv6_2_relu_0_split_1
I0401 11:05:53.971531  1909 net.cpp:408] conv6_2_conv6_2_relu_0_split -> conv6_2_conv6_2_relu_0_split_2
I0401 11:05:53.971539  1909 net.cpp:408] conv6_2_conv6_2_relu_0_split -> conv6_2_conv6_2_relu_0_split_3
I0401 11:05:53.971681  1909 net.cpp:150] Setting up conv6_2_conv6_2_relu_0_split
I0401 11:05:53.971700  1909 net.cpp:157] Top shape: 1 512 10 10 (51200)
I0401 11:05:53.971709  1909 net.cpp:157] Top shape: 1 512 10 10 (51200)
I0401 11:05:53.971716  1909 net.cpp:157] Top shape: 1 512 10 10 (51200)
I0401 11:05:53.971722  1909 net.cpp:157] Top shape: 1 512 10 10 (51200)
I0401 11:05:53.971729  1909 net.cpp:165] Memory required for data: 244006016
I0401 11:05:53.971735  1909 layer_factory.hpp:77] Creating layer conv7_1
I0401 11:05:53.971751  1909 net.cpp:100] Creating Layer conv7_1
I0401 11:05:53.971766  1909 net.cpp:434] conv7_1 <- conv6_2_conv6_2_relu_0_split_0
I0401 11:05:53.971781  1909 net.cpp:408] conv7_1 -> conv7_1
I0401 11:05:53.974380  1909 net.cpp:150] Setting up conv7_1
I0401 11:05:53.974400  1909 net.cpp:157] Top shape: 1 128 10 10 (12800)
I0401 11:05:53.974406  1909 net.cpp:165] Memory required for data: 244057216
I0401 11:05:53.974423  1909 layer_factory.hpp:77] Creating layer conv7_1_relu
I0401 11:05:53.974433  1909 net.cpp:100] Creating Layer conv7_1_relu
I0401 11:05:53.974440  1909 net.cpp:434] conv7_1_relu <- conv7_1
I0401 11:05:53.974450  1909 net.cpp:395] conv7_1_relu -> conv7_1 (in-place)
I0401 11:05:53.975492  1909 net.cpp:150] Setting up conv7_1_relu
I0401 11:05:53.975514  1909 net.cpp:157] Top shape: 1 128 10 10 (12800)
I0401 11:05:53.975522  1909 net.cpp:165] Memory required for data: 244108416
I0401 11:05:53.975530  1909 layer_factory.hpp:77] Creating layer conv7_2
I0401 11:05:53.975549  1909 net.cpp:100] Creating Layer conv7_2
I0401 11:05:53.975558  1909 net.cpp:434] conv7_2 <- conv7_1
I0401 11:05:53.975567  1909 net.cpp:408] conv7_2 -> conv7_2
I0401 11:05:53.981099  1909 net.cpp:150] Setting up conv7_2
I0401 11:05:53.981122  1909 net.cpp:157] Top shape: 1 256 5 5 (6400)
I0401 11:05:53.981134  1909 net.cpp:165] Memory required for data: 244134016
I0401 11:05:53.981148  1909 layer_factory.hpp:77] Creating layer conv7_2_relu
I0401 11:05:53.981158  1909 net.cpp:100] Creating Layer conv7_2_relu
I0401 11:05:53.981164  1909 net.cpp:434] conv7_2_relu <- conv7_2
I0401 11:05:53.981173  1909 net.cpp:395] conv7_2_relu -> conv7_2 (in-place)
I0401 11:05:53.981427  1909 net.cpp:150] Setting up conv7_2_relu
I0401 11:05:53.981446  1909 net.cpp:157] Top shape: 1 256 5 5 (6400)
I0401 11:05:53.981457  1909 net.cpp:165] Memory required for data: 244159616
I0401 11:05:53.981467  1909 layer_factory.hpp:77] Creating layer conv7_2_conv7_2_relu_0_split
I0401 11:05:53.981479  1909 net.cpp:100] Creating Layer conv7_2_conv7_2_relu_0_split
I0401 11:05:53.981485  1909 net.cpp:434] conv7_2_conv7_2_relu_0_split <- conv7_2
I0401 11:05:53.981498  1909 net.cpp:408] conv7_2_conv7_2_relu_0_split -> conv7_2_conv7_2_relu_0_split_0
I0401 11:05:53.981509  1909 net.cpp:408] conv7_2_conv7_2_relu_0_split -> conv7_2_conv7_2_relu_0_split_1
I0401 11:05:53.981518  1909 net.cpp:408] conv7_2_conv7_2_relu_0_split -> conv7_2_conv7_2_relu_0_split_2
I0401 11:05:53.981528  1909 net.cpp:408] conv7_2_conv7_2_relu_0_split -> conv7_2_conv7_2_relu_0_split_3
I0401 11:05:53.981636  1909 net.cpp:150] Setting up conv7_2_conv7_2_relu_0_split
I0401 11:05:53.981652  1909 net.cpp:157] Top shape: 1 256 5 5 (6400)
I0401 11:05:53.981660  1909 net.cpp:157] Top shape: 1 256 5 5 (6400)
I0401 11:05:53.981667  1909 net.cpp:157] Top shape: 1 256 5 5 (6400)
I0401 11:05:53.981675  1909 net.cpp:157] Top shape: 1 256 5 5 (6400)
I0401 11:05:53.981680  1909 net.cpp:165] Memory required for data: 244262016
I0401 11:05:53.981686  1909 layer_factory.hpp:77] Creating layer conv8_1
I0401 11:05:53.981701  1909 net.cpp:100] Creating Layer conv8_1
I0401 11:05:53.981715  1909 net.cpp:434] conv8_1 <- conv7_2_conv7_2_relu_0_split_0
I0401 11:05:53.997768  1909 net.cpp:408] conv8_1 -> conv8_1
I0401 11:05:54.000130  1909 net.cpp:150] Setting up conv8_1
I0401 11:05:54.000154  1909 net.cpp:157] Top shape: 1 128 5 5 (3200)
I0401 11:05:54.000166  1909 net.cpp:165] Memory required for data: 244274816
I0401 11:05:54.000180  1909 layer_factory.hpp:77] Creating layer conv8_1_relu
I0401 11:05:54.000190  1909 net.cpp:100] Creating Layer conv8_1_relu
I0401 11:05:54.000196  1909 net.cpp:434] conv8_1_relu <- conv8_1
I0401 11:05:54.000208  1909 net.cpp:395] conv8_1_relu -> conv8_1 (in-place)
I0401 11:05:54.000474  1909 net.cpp:150] Setting up conv8_1_relu
I0401 11:05:54.000492  1909 net.cpp:157] Top shape: 1 128 5 5 (3200)
I0401 11:05:54.000499  1909 net.cpp:165] Memory required for data: 244287616
I0401 11:05:54.000506  1909 layer_factory.hpp:77] Creating layer conv8_2
I0401 11:05:54.000528  1909 net.cpp:100] Creating Layer conv8_2
I0401 11:05:54.000541  1909 net.cpp:434] conv8_2 <- conv8_1
I0401 11:05:54.000555  1909 net.cpp:408] conv8_2 -> conv8_2
I0401 11:05:54.006790  1909 net.cpp:150] Setting up conv8_2
I0401 11:05:54.006814  1909 net.cpp:157] Top shape: 1 256 3 3 (2304)
I0401 11:05:54.006825  1909 net.cpp:165] Memory required for data: 244296832
I0401 11:05:54.006839  1909 layer_factory.hpp:77] Creating layer conv8_2_relu
I0401 11:05:54.006861  1909 net.cpp:100] Creating Layer conv8_2_relu
I0401 11:05:54.006870  1909 net.cpp:434] conv8_2_relu <- conv8_2
I0401 11:05:54.006878  1909 net.cpp:395] conv8_2_relu -> conv8_2 (in-place)
I0401 11:05:54.007870  1909 net.cpp:150] Setting up conv8_2_relu
I0401 11:05:54.007951  1909 net.cpp:157] Top shape: 1 256 3 3 (2304)
I0401 11:05:54.007963  1909 net.cpp:165] Memory required for data: 244306048
I0401 11:05:54.007972  1909 layer_factory.hpp:77] Creating layer conv8_2_conv8_2_relu_0_split
I0401 11:05:54.007982  1909 net.cpp:100] Creating Layer conv8_2_conv8_2_relu_0_split
I0401 11:05:54.007989  1909 net.cpp:434] conv8_2_conv8_2_relu_0_split <- conv8_2
I0401 11:05:54.008002  1909 net.cpp:408] conv8_2_conv8_2_relu_0_split -> conv8_2_conv8_2_relu_0_split_0
I0401 11:05:54.008020  1909 net.cpp:408] conv8_2_conv8_2_relu_0_split -> conv8_2_conv8_2_relu_0_split_1
I0401 11:05:54.008035  1909 net.cpp:408] conv8_2_conv8_2_relu_0_split -> conv8_2_conv8_2_relu_0_split_2
I0401 11:05:54.008049  1909 net.cpp:408] conv8_2_conv8_2_relu_0_split -> conv8_2_conv8_2_relu_0_split_3
I0401 11:05:54.008188  1909 net.cpp:150] Setting up conv8_2_conv8_2_relu_0_split
I0401 11:05:54.008206  1909 net.cpp:157] Top shape: 1 256 3 3 (2304)
I0401 11:05:54.008215  1909 net.cpp:157] Top shape: 1 256 3 3 (2304)
I0401 11:05:54.008224  1909 net.cpp:157] Top shape: 1 256 3 3 (2304)
I0401 11:05:54.008230  1909 net.cpp:157] Top shape: 1 256 3 3 (2304)
I0401 11:05:54.008235  1909 net.cpp:165] Memory required for data: 244342912
I0401 11:05:54.008241  1909 layer_factory.hpp:77] Creating layer conv9_1
I0401 11:05:54.008260  1909 net.cpp:100] Creating Layer conv9_1
I0401 11:05:54.008273  1909 net.cpp:434] conv9_1 <- conv8_2_conv8_2_relu_0_split_0
I0401 11:05:54.008289  1909 net.cpp:408] conv9_1 -> conv9_1
I0401 11:05:54.010587  1909 net.cpp:150] Setting up conv9_1
I0401 11:05:54.010608  1909 net.cpp:157] Top shape: 1 128 3 3 (1152)
I0401 11:05:54.010619  1909 net.cpp:165] Memory required for data: 244347520
I0401 11:05:54.010633  1909 layer_factory.hpp:77] Creating layer conv9_1_relu
I0401 11:05:54.010643  1909 net.cpp:100] Creating Layer conv9_1_relu
I0401 11:05:54.010649  1909 net.cpp:434] conv9_1_relu <- conv9_1
I0401 11:05:54.010660  1909 net.cpp:395] conv9_1_relu -> conv9_1 (in-place)
I0401 11:05:54.010915  1909 net.cpp:150] Setting up conv9_1_relu
I0401 11:05:54.010934  1909 net.cpp:157] Top shape: 1 128 3 3 (1152)
I0401 11:05:54.010946  1909 net.cpp:165] Memory required for data: 244352128
I0401 11:05:54.010955  1909 layer_factory.hpp:77] Creating layer conv9_2
I0401 11:05:54.010972  1909 net.cpp:100] Creating Layer conv9_2
I0401 11:05:54.010978  1909 net.cpp:434] conv9_2 <- conv9_1
I0401 11:05:54.010993  1909 net.cpp:408] conv9_2 -> conv9_2
I0401 11:05:54.033174  1909 net.cpp:150] Setting up conv9_2
I0401 11:05:54.033198  1909 net.cpp:157] Top shape: 1 256 1 1 (256)
I0401 11:05:54.033205  1909 net.cpp:165] Memory required for data: 244353152
I0401 11:05:54.033222  1909 layer_factory.hpp:77] Creating layer conv9_2_relu
I0401 11:05:54.033236  1909 net.cpp:100] Creating Layer conv9_2_relu
I0401 11:05:54.033246  1909 net.cpp:434] conv9_2_relu <- conv9_2
I0401 11:05:54.033255  1909 net.cpp:395] conv9_2_relu -> conv9_2 (in-place)
I0401 11:05:54.033526  1909 net.cpp:150] Setting up conv9_2_relu
I0401 11:05:54.033543  1909 net.cpp:157] Top shape: 1 256 1 1 (256)
I0401 11:05:54.033553  1909 net.cpp:165] Memory required for data: 244354176
I0401 11:05:54.033561  1909 layer_factory.hpp:77] Creating layer conv9_2_conv9_2_relu_0_split
I0401 11:05:54.033576  1909 net.cpp:100] Creating Layer conv9_2_conv9_2_relu_0_split
I0401 11:05:54.033583  1909 net.cpp:434] conv9_2_conv9_2_relu_0_split <- conv9_2
I0401 11:05:54.033593  1909 net.cpp:408] conv9_2_conv9_2_relu_0_split -> conv9_2_conv9_2_relu_0_split_0
I0401 11:05:54.033605  1909 net.cpp:408] conv9_2_conv9_2_relu_0_split -> conv9_2_conv9_2_relu_0_split_1
I0401 11:05:54.033617  1909 net.cpp:408] conv9_2_conv9_2_relu_0_split -> conv9_2_conv9_2_relu_0_split_2
I0401 11:05:54.033704  1909 net.cpp:150] Setting up conv9_2_conv9_2_relu_0_split
I0401 11:05:54.033722  1909 net.cpp:157] Top shape: 1 256 1 1 (256)
I0401 11:05:54.033752  1909 net.cpp:157] Top shape: 1 256 1 1 (256)
I0401 11:05:54.033759  1909 net.cpp:157] Top shape: 1 256 1 1 (256)
I0401 11:05:54.033764  1909 net.cpp:165] Memory required for data: 244357248
I0401 11:05:54.033784  1909 layer_factory.hpp:77] Creating layer conv4_3_norm
I0401 11:05:54.033799  1909 net.cpp:100] Creating Layer conv4_3_norm
I0401 11:05:54.033807  1909 net.cpp:434] conv4_3_norm <- conv4_3_relu4_3_0_split_1
I0401 11:05:54.033818  1909 net.cpp:408] conv4_3_norm -> conv4_3_norm
I0401 11:05:54.034075  1909 net.cpp:150] Setting up conv4_3_norm
I0401 11:05:54.034094  1909 net.cpp:157] Top shape: 1 512 38 38 (739328)
I0401 11:05:54.034101  1909 net.cpp:165] Memory required for data: 247314560
I0401 11:05:54.034111  1909 layer_factory.hpp:77] Creating layer conv4_3_norm_conv4_3_norm_0_split
I0401 11:05:54.034168  1909 net.cpp:100] Creating Layer conv4_3_norm_conv4_3_norm_0_split
I0401 11:05:54.034178  1909 net.cpp:434] conv4_3_norm_conv4_3_norm_0_split <- conv4_3_norm
I0401 11:05:54.034188  1909 net.cpp:408] conv4_3_norm_conv4_3_norm_0_split -> conv4_3_norm_conv4_3_norm_0_split_0
I0401 11:05:54.034199  1909 net.cpp:408] conv4_3_norm_conv4_3_norm_0_split -> conv4_3_norm_conv4_3_norm_0_split_1
I0401 11:05:54.034217  1909 net.cpp:408] conv4_3_norm_conv4_3_norm_0_split -> conv4_3_norm_conv4_3_norm_0_split_2
I0401 11:05:54.034301  1909 net.cpp:150] Setting up conv4_3_norm_conv4_3_norm_0_split
I0401 11:05:54.034319  1909 net.cpp:157] Top shape: 1 512 38 38 (739328)
I0401 11:05:54.034327  1909 net.cpp:157] Top shape: 1 512 38 38 (739328)
I0401 11:05:54.034334  1909 net.cpp:157] Top shape: 1 512 38 38 (739328)
I0401 11:05:54.034339  1909 net.cpp:165] Memory required for data: 256186496
I0401 11:05:54.034346  1909 layer_factory.hpp:77] Creating layer conv4_3_norm_mbox_loc
I0401 11:05:54.034409  1909 net.cpp:100] Creating Layer conv4_3_norm_mbox_loc
I0401 11:05:54.034418  1909 net.cpp:434] conv4_3_norm_mbox_loc <- conv4_3_norm_conv4_3_norm_0_split_0
I0401 11:05:54.034431  1909 net.cpp:408] conv4_3_norm_mbox_loc -> conv4_3_norm_mbox_loc
I0401 11:05:54.037765  1909 net.cpp:150] Setting up conv4_3_norm_mbox_loc
I0401 11:05:54.037786  1909 net.cpp:157] Top shape: 1 16 38 38 (23104)
I0401 11:05:54.037796  1909 net.cpp:165] Memory required for data: 256278912
I0401 11:05:54.037809  1909 layer_factory.hpp:77] Creating layer conv4_3_norm_mbox_loc_perm
I0401 11:05:54.037824  1909 net.cpp:100] Creating Layer conv4_3_norm_mbox_loc_perm
I0401 11:05:54.037832  1909 net.cpp:434] conv4_3_norm_mbox_loc_perm <- conv4_3_norm_mbox_loc
I0401 11:05:54.037840  1909 net.cpp:408] conv4_3_norm_mbox_loc_perm -> conv4_3_norm_mbox_loc_perm
I0401 11:05:54.038014  1909 net.cpp:150] Setting up conv4_3_norm_mbox_loc_perm
I0401 11:05:54.038033  1909 net.cpp:157] Top shape: 1 38 38 16 (23104)
I0401 11:05:54.038039  1909 net.cpp:165] Memory required for data: 256371328
I0401 11:05:54.038046  1909 layer_factory.hpp:77] Creating layer conv4_3_norm_mbox_loc_flat
I0401 11:05:54.038094  1909 net.cpp:100] Creating Layer conv4_3_norm_mbox_loc_flat
I0401 11:05:54.038110  1909 net.cpp:434] conv4_3_norm_mbox_loc_flat <- conv4_3_norm_mbox_loc_perm
I0401 11:05:54.038122  1909 net.cpp:408] conv4_3_norm_mbox_loc_flat -> conv4_3_norm_mbox_loc_flat
I0401 11:05:54.038174  1909 net.cpp:150] Setting up conv4_3_norm_mbox_loc_flat
I0401 11:05:54.038189  1909 net.cpp:157] Top shape: 1 23104 (23104)
I0401 11:05:54.038195  1909 net.cpp:165] Memory required for data: 256463744
I0401 11:05:54.038202  1909 layer_factory.hpp:77] Creating layer conv4_3_norm_mbox_conf
I0401 11:05:54.038218  1909 net.cpp:100] Creating Layer conv4_3_norm_mbox_conf
I0401 11:05:54.038233  1909 net.cpp:434] conv4_3_norm_mbox_conf <- conv4_3_norm_conv4_3_norm_0_split_1
I0401 11:05:54.038250  1909 net.cpp:408] conv4_3_norm_mbox_conf -> conv4_3_norm_mbox_conf
I0401 11:05:54.042706  1909 net.cpp:150] Setting up conv4_3_norm_mbox_conf
I0401 11:05:54.042726  1909 net.cpp:157] Top shape: 1 44 38 38 (63536)
I0401 11:05:54.042735  1909 net.cpp:165] Memory required for data: 256717888
I0401 11:05:54.042750  1909 layer_factory.hpp:77] Creating layer conv4_3_norm_mbox_conf_perm
I0401 11:05:54.042763  1909 net.cpp:100] Creating Layer conv4_3_norm_mbox_conf_perm
I0401 11:05:54.042783  1909 net.cpp:434] conv4_3_norm_mbox_conf_perm <- conv4_3_norm_mbox_conf
I0401 11:05:54.042794  1909 net.cpp:408] conv4_3_norm_mbox_conf_perm -> conv4_3_norm_mbox_conf_perm
I0401 11:05:54.043016  1909 net.cpp:150] Setting up conv4_3_norm_mbox_conf_perm
I0401 11:05:54.043035  1909 net.cpp:157] Top shape: 1 38 38 44 (63536)
I0401 11:05:54.043045  1909 net.cpp:165] Memory required for data: 256972032
I0401 11:05:54.043053  1909 layer_factory.hpp:77] Creating layer conv4_3_norm_mbox_conf_flat
I0401 11:05:54.043066  1909 net.cpp:100] Creating Layer conv4_3_norm_mbox_conf_flat
I0401 11:05:54.043073  1909 net.cpp:434] conv4_3_norm_mbox_conf_flat <- conv4_3_norm_mbox_conf_perm
I0401 11:05:54.043082  1909 net.cpp:408] conv4_3_norm_mbox_conf_flat -> conv4_3_norm_mbox_conf_flat
I0401 11:05:54.043162  1909 net.cpp:150] Setting up conv4_3_norm_mbox_conf_flat
I0401 11:05:54.043179  1909 net.cpp:157] Top shape: 1 63536 (63536)
I0401 11:05:54.043184  1909 net.cpp:165] Memory required for data: 257226176
I0401 11:05:54.043190  1909 layer_factory.hpp:77] Creating layer conv4_3_norm_mbox_priorbox
I0401 11:05:54.043203  1909 net.cpp:100] Creating Layer conv4_3_norm_mbox_priorbox
I0401 11:05:54.043217  1909 net.cpp:434] conv4_3_norm_mbox_priorbox <- conv4_3_norm_conv4_3_norm_0_split_2
I0401 11:05:54.043228  1909 net.cpp:434] conv4_3_norm_mbox_priorbox <- data_data_0_split_1
I0401 11:05:54.043239  1909 net.cpp:408] conv4_3_norm_mbox_priorbox -> conv4_3_norm_mbox_priorbox
I0401 11:05:54.043284  1909 net.cpp:150] Setting up conv4_3_norm_mbox_priorbox
I0401 11:05:54.043303  1909 net.cpp:157] Top shape: 1 2 23104 (46208)
I0401 11:05:54.043310  1909 net.cpp:165] Memory required for data: 257411008
I0401 11:05:54.043316  1909 layer_factory.hpp:77] Creating layer fc7_mbox_loc
I0401 11:05:54.043331  1909 net.cpp:100] Creating Layer fc7_mbox_loc
I0401 11:05:54.043340  1909 net.cpp:434] fc7_mbox_loc <- fc7_relu7_0_split_1
I0401 11:05:54.043396  1909 net.cpp:408] fc7_mbox_loc -> fc7_mbox_loc
I0401 11:05:54.063997  1909 net.cpp:150] Setting up fc7_mbox_loc
I0401 11:05:54.064020  1909 net.cpp:157] Top shape: 1 24 19 19 (8664)
I0401 11:05:54.064033  1909 net.cpp:165] Memory required for data: 257445664
I0401 11:05:54.064060  1909 layer_factory.hpp:77] Creating layer fc7_mbox_loc_perm
I0401 11:05:54.064074  1909 net.cpp:100] Creating Layer fc7_mbox_loc_perm
I0401 11:05:54.064081  1909 net.cpp:434] fc7_mbox_loc_perm <- fc7_mbox_loc
I0401 11:05:54.064091  1909 net.cpp:408] fc7_mbox_loc_perm -> fc7_mbox_loc_perm
I0401 11:05:54.064313  1909 net.cpp:150] Setting up fc7_mbox_loc_perm
I0401 11:05:54.064332  1909 net.cpp:157] Top shape: 1 19 19 24 (8664)
I0401 11:05:54.064342  1909 net.cpp:165] Memory required for data: 257480320
I0401 11:05:54.064352  1909 layer_factory.hpp:77] Creating layer fc7_mbox_loc_flat
I0401 11:05:54.064364  1909 net.cpp:100] Creating Layer fc7_mbox_loc_flat
I0401 11:05:54.064371  1909 net.cpp:434] fc7_mbox_loc_flat <- fc7_mbox_loc_perm
I0401 11:05:54.064380  1909 net.cpp:408] fc7_mbox_loc_flat -> fc7_mbox_loc_flat
I0401 11:05:54.064427  1909 net.cpp:150] Setting up fc7_mbox_loc_flat
I0401 11:05:54.064442  1909 net.cpp:157] Top shape: 1 8664 (8664)
I0401 11:05:54.064448  1909 net.cpp:165] Memory required for data: 257514976
I0401 11:05:54.064455  1909 layer_factory.hpp:77] Creating layer fc7_mbox_conf
I0401 11:05:54.064510  1909 net.cpp:100] Creating Layer fc7_mbox_conf
I0401 11:05:54.064524  1909 net.cpp:434] fc7_mbox_conf <- fc7_relu7_0_split_2
I0401 11:05:54.064538  1909 net.cpp:408] fc7_mbox_conf -> fc7_mbox_conf
I0401 11:05:54.073583  1909 net.cpp:150] Setting up fc7_mbox_conf
I0401 11:05:54.073608  1909 net.cpp:157] Top shape: 1 66 19 19 (23826)
I0401 11:05:54.073614  1909 net.cpp:165] Memory required for data: 257610280
I0401 11:05:54.073632  1909 layer_factory.hpp:77] Creating layer fc7_mbox_conf_perm
I0401 11:05:54.073647  1909 net.cpp:100] Creating Layer fc7_mbox_conf_perm
I0401 11:05:54.073655  1909 net.cpp:434] fc7_mbox_conf_perm <- fc7_mbox_conf
I0401 11:05:54.073664  1909 net.cpp:408] fc7_mbox_conf_perm -> fc7_mbox_conf_perm
I0401 11:05:54.073884  1909 net.cpp:150] Setting up fc7_mbox_conf_perm
I0401 11:05:54.073904  1909 net.cpp:157] Top shape: 1 19 19 66 (23826)
I0401 11:05:54.073910  1909 net.cpp:165] Memory required for data: 257705584
I0401 11:05:54.073916  1909 layer_factory.hpp:77] Creating layer fc7_mbox_conf_flat
I0401 11:05:54.073972  1909 net.cpp:100] Creating Layer fc7_mbox_conf_flat
I0401 11:05:54.073983  1909 net.cpp:434] fc7_mbox_conf_flat <- fc7_mbox_conf_perm
I0401 11:05:54.073993  1909 net.cpp:408] fc7_mbox_conf_flat -> fc7_mbox_conf_flat
I0401 11:05:54.074041  1909 net.cpp:150] Setting up fc7_mbox_conf_flat
I0401 11:05:54.074056  1909 net.cpp:157] Top shape: 1 23826 (23826)
I0401 11:05:54.074061  1909 net.cpp:165] Memory required for data: 257800888
I0401 11:05:54.074069  1909 layer_factory.hpp:77] Creating layer fc7_mbox_priorbox
I0401 11:05:54.074082  1909 net.cpp:100] Creating Layer fc7_mbox_priorbox
I0401 11:05:54.074090  1909 net.cpp:434] fc7_mbox_priorbox <- fc7_relu7_0_split_3
I0401 11:05:54.074098  1909 net.cpp:434] fc7_mbox_priorbox <- data_data_0_split_2
I0401 11:05:54.074108  1909 net.cpp:408] fc7_mbox_priorbox -> fc7_mbox_priorbox
I0401 11:05:54.074159  1909 net.cpp:150] Setting up fc7_mbox_priorbox
I0401 11:05:54.074172  1909 net.cpp:157] Top shape: 1 2 8664 (17328)
I0401 11:05:54.074178  1909 net.cpp:165] Memory required for data: 257870200
I0401 11:05:54.074185  1909 layer_factory.hpp:77] Creating layer conv6_2_mbox_loc
I0401 11:05:54.074203  1909 net.cpp:100] Creating Layer conv6_2_mbox_loc
I0401 11:05:54.074251  1909 net.cpp:434] conv6_2_mbox_loc <- conv6_2_conv6_2_relu_0_split_1
I0401 11:05:54.074267  1909 net.cpp:408] conv6_2_mbox_loc -> conv6_2_mbox_loc
I0401 11:05:54.077873  1909 net.cpp:150] Setting up conv6_2_mbox_loc
I0401 11:05:54.077898  1909 net.cpp:157] Top shape: 1 24 10 10 (2400)
I0401 11:05:54.077910  1909 net.cpp:165] Memory required for data: 257879800
I0401 11:05:54.077922  1909 layer_factory.hpp:77] Creating layer conv6_2_mbox_loc_perm
I0401 11:05:54.077934  1909 net.cpp:100] Creating Layer conv6_2_mbox_loc_perm
I0401 11:05:54.077940  1909 net.cpp:434] conv6_2_mbox_loc_perm <- conv6_2_mbox_loc
I0401 11:05:54.077952  1909 net.cpp:408] conv6_2_mbox_loc_perm -> conv6_2_mbox_loc_perm
I0401 11:05:54.078173  1909 net.cpp:150] Setting up conv6_2_mbox_loc_perm
I0401 11:05:54.078196  1909 net.cpp:157] Top shape: 1 10 10 24 (2400)
I0401 11:05:54.078207  1909 net.cpp:165] Memory required for data: 257889400
I0401 11:05:54.078214  1909 layer_factory.hpp:77] Creating layer conv6_2_mbox_loc_flat
I0401 11:05:54.078223  1909 net.cpp:100] Creating Layer conv6_2_mbox_loc_flat
I0401 11:05:54.078231  1909 net.cpp:434] conv6_2_mbox_loc_flat <- conv6_2_mbox_loc_perm
I0401 11:05:54.078243  1909 net.cpp:408] conv6_2_mbox_loc_flat -> conv6_2_mbox_loc_flat
I0401 11:05:54.078337  1909 net.cpp:150] Setting up conv6_2_mbox_loc_flat
I0401 11:05:54.078353  1909 net.cpp:157] Top shape: 1 2400 (2400)
I0401 11:05:54.078361  1909 net.cpp:165] Memory required for data: 257899000
I0401 11:05:54.078366  1909 layer_factory.hpp:77] Creating layer conv6_2_mbox_conf
I0401 11:05:54.078387  1909 net.cpp:100] Creating Layer conv6_2_mbox_conf
I0401 11:05:54.078400  1909 net.cpp:434] conv6_2_mbox_conf <- conv6_2_conv6_2_relu_0_split_2
I0401 11:05:54.078418  1909 net.cpp:408] conv6_2_mbox_conf -> conv6_2_mbox_conf
I0401 11:05:54.100812  1909 net.cpp:150] Setting up conv6_2_mbox_conf
I0401 11:05:54.100838  1909 net.cpp:157] Top shape: 1 66 10 10 (6600)
I0401 11:05:54.100847  1909 net.cpp:165] Memory required for data: 257925400
I0401 11:05:54.100863  1909 layer_factory.hpp:77] Creating layer conv6_2_mbox_conf_perm
I0401 11:05:54.100878  1909 net.cpp:100] Creating Layer conv6_2_mbox_conf_perm
I0401 11:05:54.100885  1909 net.cpp:434] conv6_2_mbox_conf_perm <- conv6_2_mbox_conf
I0401 11:05:54.100895  1909 net.cpp:408] conv6_2_mbox_conf_perm -> conv6_2_mbox_conf_perm
I0401 11:05:54.101114  1909 net.cpp:150] Setting up conv6_2_mbox_conf_perm
I0401 11:05:54.101133  1909 net.cpp:157] Top shape: 1 10 10 66 (6600)
I0401 11:05:54.101161  1909 net.cpp:165] Memory required for data: 257951800
I0401 11:05:54.101171  1909 layer_factory.hpp:77] Creating layer conv6_2_mbox_conf_flat
I0401 11:05:54.101181  1909 net.cpp:100] Creating Layer conv6_2_mbox_conf_flat
I0401 11:05:54.101188  1909 net.cpp:434] conv6_2_mbox_conf_flat <- conv6_2_mbox_conf_perm
I0401 11:05:54.101199  1909 net.cpp:408] conv6_2_mbox_conf_flat -> conv6_2_mbox_conf_flat
I0401 11:05:54.101248  1909 net.cpp:150] Setting up conv6_2_mbox_conf_flat
I0401 11:05:54.101263  1909 net.cpp:157] Top shape: 1 6600 (6600)
I0401 11:05:54.101269  1909 net.cpp:165] Memory required for data: 257978200
I0401 11:05:54.101275  1909 layer_factory.hpp:77] Creating layer conv6_2_mbox_priorbox
I0401 11:05:54.101285  1909 net.cpp:100] Creating Layer conv6_2_mbox_priorbox
I0401 11:05:54.101294  1909 net.cpp:434] conv6_2_mbox_priorbox <- conv6_2_conv6_2_relu_0_split_3
I0401 11:05:54.101302  1909 net.cpp:434] conv6_2_mbox_priorbox <- data_data_0_split_3
I0401 11:05:54.101313  1909 net.cpp:408] conv6_2_mbox_priorbox -> conv6_2_mbox_priorbox
I0401 11:05:54.101364  1909 net.cpp:150] Setting up conv6_2_mbox_priorbox
I0401 11:05:54.101382  1909 net.cpp:157] Top shape: 1 2 2400 (4800)
I0401 11:05:54.101387  1909 net.cpp:165] Memory required for data: 257997400
I0401 11:05:54.101393  1909 layer_factory.hpp:77] Creating layer conv7_2_mbox_loc
I0401 11:05:54.101409  1909 net.cpp:100] Creating Layer conv7_2_mbox_loc
I0401 11:05:54.101418  1909 net.cpp:434] conv7_2_mbox_loc <- conv7_2_conv7_2_relu_0_split_1
I0401 11:05:54.101428  1909 net.cpp:408] conv7_2_mbox_loc -> conv7_2_mbox_loc
I0401 11:05:54.104662  1909 net.cpp:150] Setting up conv7_2_mbox_loc
I0401 11:05:54.104681  1909 net.cpp:157] Top shape: 1 24 5 5 (600)
I0401 11:05:54.104692  1909 net.cpp:165] Memory required for data: 257999800
I0401 11:05:54.104707  1909 layer_factory.hpp:77] Creating layer conv7_2_mbox_loc_perm
I0401 11:05:54.104719  1909 net.cpp:100] Creating Layer conv7_2_mbox_loc_perm
I0401 11:05:54.104727  1909 net.cpp:434] conv7_2_mbox_loc_perm <- conv7_2_mbox_loc
I0401 11:05:54.104737  1909 net.cpp:408] conv7_2_mbox_loc_perm -> conv7_2_mbox_loc_perm
I0401 11:05:54.104957  1909 net.cpp:150] Setting up conv7_2_mbox_loc_perm
I0401 11:05:54.104974  1909 net.cpp:157] Top shape: 1 5 5 24 (600)
I0401 11:05:54.104984  1909 net.cpp:165] Memory required for data: 258002200
I0401 11:05:54.104995  1909 layer_factory.hpp:77] Creating layer conv7_2_mbox_loc_flat
I0401 11:05:54.105006  1909 net.cpp:100] Creating Layer conv7_2_mbox_loc_flat
I0401 11:05:54.105013  1909 net.cpp:434] conv7_2_mbox_loc_flat <- conv7_2_mbox_loc_perm
I0401 11:05:54.105022  1909 net.cpp:408] conv7_2_mbox_loc_flat -> conv7_2_mbox_loc_flat
I0401 11:05:54.105068  1909 net.cpp:150] Setting up conv7_2_mbox_loc_flat
I0401 11:05:54.105084  1909 net.cpp:157] Top shape: 1 600 (600)
I0401 11:05:54.105090  1909 net.cpp:165] Memory required for data: 258004600
I0401 11:05:54.105129  1909 layer_factory.hpp:77] Creating layer conv7_2_mbox_conf
I0401 11:05:54.105152  1909 net.cpp:100] Creating Layer conv7_2_mbox_conf
I0401 11:05:54.105166  1909 net.cpp:434] conv7_2_mbox_conf <- conv7_2_conv7_2_relu_0_split_2
I0401 11:05:54.105182  1909 net.cpp:408] conv7_2_mbox_conf -> conv7_2_mbox_conf
I0401 11:05:54.109232  1909 net.cpp:150] Setting up conv7_2_mbox_conf
I0401 11:05:54.109251  1909 net.cpp:157] Top shape: 1 66 5 5 (1650)
I0401 11:05:54.109261  1909 net.cpp:165] Memory required for data: 258011200
I0401 11:05:54.109274  1909 layer_factory.hpp:77] Creating layer conv7_2_mbox_conf_perm
I0401 11:05:54.109289  1909 net.cpp:100] Creating Layer conv7_2_mbox_conf_perm
I0401 11:05:54.109297  1909 net.cpp:434] conv7_2_mbox_conf_perm <- conv7_2_mbox_conf
I0401 11:05:54.109308  1909 net.cpp:408] conv7_2_mbox_conf_perm -> conv7_2_mbox_conf_perm
I0401 11:05:54.109534  1909 net.cpp:150] Setting up conv7_2_mbox_conf_perm
I0401 11:05:54.109550  1909 net.cpp:157] Top shape: 1 5 5 66 (1650)
I0401 11:05:54.109561  1909 net.cpp:165] Memory required for data: 258017800
I0401 11:05:54.109570  1909 layer_factory.hpp:77] Creating layer conv7_2_mbox_conf_flat
I0401 11:05:54.109594  1909 net.cpp:100] Creating Layer conv7_2_mbox_conf_flat
I0401 11:05:54.109603  1909 net.cpp:434] conv7_2_mbox_conf_flat <- conv7_2_mbox_conf_perm
I0401 11:05:54.109616  1909 net.cpp:408] conv7_2_mbox_conf_flat -> conv7_2_mbox_conf_flat
I0401 11:05:54.109658  1909 net.cpp:150] Setting up conv7_2_mbox_conf_flat
I0401 11:05:54.109721  1909 net.cpp:157] Top shape: 1 1650 (1650)
I0401 11:05:54.109751  1909 net.cpp:165] Memory required for data: 258024400
I0401 11:05:54.109762  1909 layer_factory.hpp:77] Creating layer conv7_2_mbox_priorbox
I0401 11:05:54.109776  1909 net.cpp:100] Creating Layer conv7_2_mbox_priorbox
I0401 11:05:54.109783  1909 net.cpp:434] conv7_2_mbox_priorbox <- conv7_2_conv7_2_relu_0_split_3
I0401 11:05:54.109791  1909 net.cpp:434] conv7_2_mbox_priorbox <- data_data_0_split_4
I0401 11:05:54.109803  1909 net.cpp:408] conv7_2_mbox_priorbox -> conv7_2_mbox_priorbox
I0401 11:05:54.109849  1909 net.cpp:150] Setting up conv7_2_mbox_priorbox
I0401 11:05:54.109864  1909 net.cpp:157] Top shape: 1 2 600 (1200)
I0401 11:05:54.109870  1909 net.cpp:165] Memory required for data: 258029200
I0401 11:05:54.109876  1909 layer_factory.hpp:77] Creating layer conv8_2_mbox_loc
I0401 11:05:54.109894  1909 net.cpp:100] Creating Layer conv8_2_mbox_loc
I0401 11:05:54.109900  1909 net.cpp:434] conv8_2_mbox_loc <- conv8_2_conv8_2_relu_0_split_1
I0401 11:05:54.109911  1909 net.cpp:408] conv8_2_mbox_loc -> conv8_2_mbox_loc
I0401 11:05:54.112330  1909 net.cpp:150] Setting up conv8_2_mbox_loc
I0401 11:05:54.112349  1909 net.cpp:157] Top shape: 1 16 3 3 (144)
I0401 11:05:54.112357  1909 net.cpp:165] Memory required for data: 258029776
I0401 11:05:54.112371  1909 layer_factory.hpp:77] Creating layer conv8_2_mbox_loc_perm
I0401 11:05:54.112385  1909 net.cpp:100] Creating Layer conv8_2_mbox_loc_perm
I0401 11:05:54.112392  1909 net.cpp:434] conv8_2_mbox_loc_perm <- conv8_2_mbox_loc
I0401 11:05:54.112404  1909 net.cpp:408] conv8_2_mbox_loc_perm -> conv8_2_mbox_loc_perm
I0401 11:05:54.112622  1909 net.cpp:150] Setting up conv8_2_mbox_loc_perm
I0401 11:05:54.112639  1909 net.cpp:157] Top shape: 1 3 3 16 (144)
I0401 11:05:54.112648  1909 net.cpp:165] Memory required for data: 258030352
I0401 11:05:54.112658  1909 layer_factory.hpp:77] Creating layer conv8_2_mbox_loc_flat
I0401 11:05:54.112669  1909 net.cpp:100] Creating Layer conv8_2_mbox_loc_flat
I0401 11:05:54.112677  1909 net.cpp:434] conv8_2_mbox_loc_flat <- conv8_2_mbox_loc_perm
I0401 11:05:54.112687  1909 net.cpp:408] conv8_2_mbox_loc_flat -> conv8_2_mbox_loc_flat
I0401 11:05:54.112767  1909 net.cpp:150] Setting up conv8_2_mbox_loc_flat
I0401 11:05:54.112783  1909 net.cpp:157] Top shape: 1 144 (144)
I0401 11:05:54.112790  1909 net.cpp:165] Memory required for data: 258030928
I0401 11:05:54.112797  1909 layer_factory.hpp:77] Creating layer conv8_2_mbox_conf
I0401 11:05:54.112815  1909 net.cpp:100] Creating Layer conv8_2_mbox_conf
I0401 11:05:54.112828  1909 net.cpp:434] conv8_2_mbox_conf <- conv8_2_conv8_2_relu_0_split_2
I0401 11:05:54.112843  1909 net.cpp:408] conv8_2_mbox_conf -> conv8_2_mbox_conf
I0401 11:05:54.133304  1909 net.cpp:150] Setting up conv8_2_mbox_conf
I0401 11:05:54.133332  1909 net.cpp:157] Top shape: 1 44 3 3 (396)
I0401 11:05:54.133338  1909 net.cpp:165] Memory required for data: 258032512
I0401 11:05:54.133358  1909 layer_factory.hpp:77] Creating layer conv8_2_mbox_conf_perm
I0401 11:05:54.133371  1909 net.cpp:100] Creating Layer conv8_2_mbox_conf_perm
I0401 11:05:54.133379  1909 net.cpp:434] conv8_2_mbox_conf_perm <- conv8_2_mbox_conf
I0401 11:05:54.133394  1909 net.cpp:408] conv8_2_mbox_conf_perm -> conv8_2_mbox_conf_perm
I0401 11:05:54.133628  1909 net.cpp:150] Setting up conv8_2_mbox_conf_perm
I0401 11:05:54.133646  1909 net.cpp:157] Top shape: 1 3 3 44 (396)
I0401 11:05:54.133651  1909 net.cpp:165] Memory required for data: 258034096
I0401 11:05:54.133657  1909 layer_factory.hpp:77] Creating layer conv8_2_mbox_conf_flat
I0401 11:05:54.133668  1909 net.cpp:100] Creating Layer conv8_2_mbox_conf_flat
I0401 11:05:54.133697  1909 net.cpp:434] conv8_2_mbox_conf_flat <- conv8_2_mbox_conf_perm
I0401 11:05:54.133713  1909 net.cpp:408] conv8_2_mbox_conf_flat -> conv8_2_mbox_conf_flat
I0401 11:05:54.133772  1909 net.cpp:150] Setting up conv8_2_mbox_conf_flat
I0401 11:05:54.133790  1909 net.cpp:157] Top shape: 1 396 (396)
I0401 11:05:54.133798  1909 net.cpp:165] Memory required for data: 258035680
I0401 11:05:54.133805  1909 layer_factory.hpp:77] Creating layer conv8_2_mbox_priorbox
I0401 11:05:54.133816  1909 net.cpp:100] Creating Layer conv8_2_mbox_priorbox
I0401 11:05:54.133822  1909 net.cpp:434] conv8_2_mbox_priorbox <- conv8_2_conv8_2_relu_0_split_3
I0401 11:05:54.133872  1909 net.cpp:434] conv8_2_mbox_priorbox <- data_data_0_split_5
I0401 11:05:54.133890  1909 net.cpp:408] conv8_2_mbox_priorbox -> conv8_2_mbox_priorbox
I0401 11:05:54.133942  1909 net.cpp:150] Setting up conv8_2_mbox_priorbox
I0401 11:05:54.133958  1909 net.cpp:157] Top shape: 1 2 144 (288)
I0401 11:05:54.133965  1909 net.cpp:165] Memory required for data: 258036832
I0401 11:05:54.133970  1909 layer_factory.hpp:77] Creating layer conv9_2_mbox_loc
I0401 11:05:54.133986  1909 net.cpp:100] Creating Layer conv9_2_mbox_loc
I0401 11:05:54.133996  1909 net.cpp:434] conv9_2_mbox_loc <- conv9_2_conv9_2_relu_0_split_0
I0401 11:05:54.134007  1909 net.cpp:408] conv9_2_mbox_loc -> conv9_2_mbox_loc
I0401 11:05:54.136384  1909 net.cpp:150] Setting up conv9_2_mbox_loc
I0401 11:05:54.136402  1909 net.cpp:157] Top shape: 1 16 1 1 (16)
I0401 11:05:54.136413  1909 net.cpp:165] Memory required for data: 258036896
I0401 11:05:54.136426  1909 layer_factory.hpp:77] Creating layer conv9_2_mbox_loc_perm
I0401 11:05:54.136437  1909 net.cpp:100] Creating Layer conv9_2_mbox_loc_perm
I0401 11:05:54.136443  1909 net.cpp:434] conv9_2_mbox_loc_perm <- conv9_2_mbox_loc
I0401 11:05:54.136456  1909 net.cpp:408] conv9_2_mbox_loc_perm -> conv9_2_mbox_loc_perm
I0401 11:05:54.136680  1909 net.cpp:150] Setting up conv9_2_mbox_loc_perm
I0401 11:05:54.136698  1909 net.cpp:157] Top shape: 1 1 1 16 (16)
I0401 11:05:54.136706  1909 net.cpp:165] Memory required for data: 258036960
I0401 11:05:54.136715  1909 layer_factory.hpp:77] Creating layer conv9_2_mbox_loc_flat
I0401 11:05:54.136725  1909 net.cpp:100] Creating Layer conv9_2_mbox_loc_flat
I0401 11:05:54.136732  1909 net.cpp:434] conv9_2_mbox_loc_flat <- conv9_2_mbox_loc_perm
I0401 11:05:54.136744  1909 net.cpp:408] conv9_2_mbox_loc_flat -> conv9_2_mbox_loc_flat
I0401 11:05:54.136824  1909 net.cpp:150] Setting up conv9_2_mbox_loc_flat
I0401 11:05:54.136839  1909 net.cpp:157] Top shape: 1 16 (16)
I0401 11:05:54.136845  1909 net.cpp:165] Memory required for data: 258037024
I0401 11:05:54.136852  1909 layer_factory.hpp:77] Creating layer conv9_2_mbox_conf
I0401 11:05:54.136868  1909 net.cpp:100] Creating Layer conv9_2_mbox_conf
I0401 11:05:54.136884  1909 net.cpp:434] conv9_2_mbox_conf <- conv9_2_conv9_2_relu_0_split_1
I0401 11:05:54.136900  1909 net.cpp:408] conv9_2_mbox_conf -> conv9_2_mbox_conf
I0401 11:05:54.140599  1909 net.cpp:150] Setting up conv9_2_mbox_conf
I0401 11:05:54.140619  1909 net.cpp:157] Top shape: 1 44 1 1 (44)
I0401 11:05:54.140628  1909 net.cpp:165] Memory required for data: 258037200
I0401 11:05:54.140642  1909 layer_factory.hpp:77] Creating layer conv9_2_mbox_conf_perm
I0401 11:05:54.140655  1909 net.cpp:100] Creating Layer conv9_2_mbox_conf_perm
I0401 11:05:54.140663  1909 net.cpp:434] conv9_2_mbox_conf_perm <- conv9_2_mbox_conf
I0401 11:05:54.140673  1909 net.cpp:408] conv9_2_mbox_conf_perm -> conv9_2_mbox_conf_perm
I0401 11:05:54.140862  1909 net.cpp:150] Setting up conv9_2_mbox_conf_perm
I0401 11:05:54.140879  1909 net.cpp:157] Top shape: 1 1 1 44 (44)
I0401 11:05:54.140890  1909 net.cpp:165] Memory required for data: 258037376
I0401 11:05:54.140899  1909 layer_factory.hpp:77] Creating layer conv9_2_mbox_conf_flat
I0401 11:05:54.140908  1909 net.cpp:100] Creating Layer conv9_2_mbox_conf_flat
I0401 11:05:54.140959  1909 net.cpp:434] conv9_2_mbox_conf_flat <- conv9_2_mbox_conf_perm
I0401 11:05:54.140976  1909 net.cpp:408] conv9_2_mbox_conf_flat -> conv9_2_mbox_conf_flat
I0401 11:05:54.141034  1909 net.cpp:150] Setting up conv9_2_mbox_conf_flat
I0401 11:05:54.141049  1909 net.cpp:157] Top shape: 1 44 (44)
I0401 11:05:54.141055  1909 net.cpp:165] Memory required for data: 258037552
I0401 11:05:54.141062  1909 layer_factory.hpp:77] Creating layer conv9_2_mbox_priorbox
I0401 11:05:54.141074  1909 net.cpp:100] Creating Layer conv9_2_mbox_priorbox
I0401 11:05:54.141082  1909 net.cpp:434] conv9_2_mbox_priorbox <- conv9_2_conv9_2_relu_0_split_2
I0401 11:05:54.141089  1909 net.cpp:434] conv9_2_mbox_priorbox <- data_data_0_split_6
I0401 11:05:54.141099  1909 net.cpp:408] conv9_2_mbox_priorbox -> conv9_2_mbox_priorbox
I0401 11:05:54.141180  1909 net.cpp:150] Setting up conv9_2_mbox_priorbox
I0401 11:05:54.141196  1909 net.cpp:157] Top shape: 1 2 16 (32)
I0401 11:05:54.141202  1909 net.cpp:165] Memory required for data: 258037680
I0401 11:05:54.141209  1909 layer_factory.hpp:77] Creating layer mbox_loc
I0401 11:05:54.141223  1909 net.cpp:100] Creating Layer mbox_loc
I0401 11:05:54.141237  1909 net.cpp:434] mbox_loc <- conv4_3_norm_mbox_loc_flat
I0401 11:05:54.141248  1909 net.cpp:434] mbox_loc <- fc7_mbox_loc_flat
I0401 11:05:54.141258  1909 net.cpp:434] mbox_loc <- conv6_2_mbox_loc_flat
I0401 11:05:54.141264  1909 net.cpp:434] mbox_loc <- conv7_2_mbox_loc_flat
I0401 11:05:54.141270  1909 net.cpp:434] mbox_loc <- conv8_2_mbox_loc_flat
I0401 11:05:54.141276  1909 net.cpp:434] mbox_loc <- conv9_2_mbox_loc_flat
I0401 11:05:54.141288  1909 net.cpp:408] mbox_loc -> mbox_loc
I0401 11:05:54.141338  1909 net.cpp:150] Setting up mbox_loc
I0401 11:05:54.141355  1909 net.cpp:157] Top shape: 1 34928 (34928)
I0401 11:05:54.141360  1909 net.cpp:165] Memory required for data: 258177392
I0401 11:05:54.141366  1909 layer_factory.hpp:77] Creating layer mbox_conf
I0401 11:05:54.141412  1909 net.cpp:100] Creating Layer mbox_conf
I0401 11:05:54.141420  1909 net.cpp:434] mbox_conf <- conv4_3_norm_mbox_conf_flat
I0401 11:05:54.141427  1909 net.cpp:434] mbox_conf <- fc7_mbox_conf_flat
I0401 11:05:54.141435  1909 net.cpp:434] mbox_conf <- conv6_2_mbox_conf_flat
I0401 11:05:54.141443  1909 net.cpp:434] mbox_conf <- conv7_2_mbox_conf_flat
I0401 11:05:54.141448  1909 net.cpp:434] mbox_conf <- conv8_2_mbox_conf_flat
I0401 11:05:54.141454  1909 net.cpp:434] mbox_conf <- conv9_2_mbox_conf_flat
I0401 11:05:54.141469  1909 net.cpp:408] mbox_conf -> mbox_conf
I0401 11:05:54.141513  1909 net.cpp:150] Setting up mbox_conf
I0401 11:05:54.141528  1909 net.cpp:157] Top shape: 1 96052 (96052)
I0401 11:05:54.141535  1909 net.cpp:165] Memory required for data: 258561600
I0401 11:05:54.141541  1909 layer_factory.hpp:77] Creating layer mbox_priorbox
I0401 11:05:54.141551  1909 net.cpp:100] Creating Layer mbox_priorbox
I0401 11:05:54.141557  1909 net.cpp:434] mbox_priorbox <- conv4_3_norm_mbox_priorbox
I0401 11:05:54.141566  1909 net.cpp:434] mbox_priorbox <- fc7_mbox_priorbox
I0401 11:05:54.141573  1909 net.cpp:434] mbox_priorbox <- conv6_2_mbox_priorbox
I0401 11:05:54.141579  1909 net.cpp:434] mbox_priorbox <- conv7_2_mbox_priorbox
I0401 11:05:54.141585  1909 net.cpp:434] mbox_priorbox <- conv8_2_mbox_priorbox
I0401 11:05:54.141592  1909 net.cpp:434] mbox_priorbox <- conv9_2_mbox_priorbox
I0401 11:05:54.141603  1909 net.cpp:408] mbox_priorbox -> mbox_priorbox
I0401 11:05:54.141647  1909 net.cpp:150] Setting up mbox_priorbox
I0401 11:05:54.141700  1909 net.cpp:157] Top shape: 1 2 34928 (69856)
I0401 11:05:54.141707  1909 net.cpp:165] Memory required for data: 258841024
I0401 11:05:54.141714  1909 layer_factory.hpp:77] Creating layer mbox_loss
I0401 11:05:54.141757  1909 net.cpp:100] Creating Layer mbox_loss
I0401 11:05:54.141770  1909 net.cpp:434] mbox_loss <- mbox_loc
I0401 11:05:54.141778  1909 net.cpp:434] mbox_loss <- mbox_conf
I0401 11:05:54.141786  1909 net.cpp:434] mbox_loss <- mbox_priorbox
…
  phase: TEST
}
layer {
  name: "data"
  type: "AnnotatedData"
  top: "data"
  top: "label"
  include {
    phase: TEST
  }
  transform_param {
    mean_value: 104
    mean_value: 117
    mean_value: 123
    resize_param {
      prob: 1
      resize_mode: WARP
      height: 300
      width: 300
      interp_mode: LINEAR
    }
  }
  data_param {
    source: "examples/NWPU_VHR/NWPU_VHR_trainval_lmdb"
    batch_size: 1
    backend: LMDB
  }
  annotated_data_param {
    batch_sampler {
    }
    label_map_file: "data/NWPU_VHR/labelmap_NWPU_VHR.prototxt"
  }
}
layer {
  name: "conv1_1"
  type: "Convolution"
  bottom: "data"
  top: "conv1_1"
  param {
    lr_mult: 1
    decay_mult: 1
  }
  param {
    lr_mult: 2
    decay_mult: 0
  }
  convolution_param {
    num_output: 64
    pad: 1
    kernel_size: 3
    weight_filler {
      type: "xavier"
    }
    bias_filler {
      type: "constant"
      value: 0
    }
  }
}
layer {
  name: "relu1_1"
  type: "ReLU"
  bottom: "conv1_1"
  top: "conv1_1"
}
layer {
  name: "conv1_2"
  type: "Convolution"
  bottom: "conv1_1"
  top: "conv1_2"
  param {
    lr_mult: 1
    decay_mult: 1
  }
  param {
    lr_mult: 2
    decay_mult: 0
  }
  convolution_param {
    num_output: 64
    pad: 1
    kernel_size: 3
    weight_filler {
      type: "xavier"
    }
    bias_filler {
      type: "constant"
      value: 0
    }
  }
}
layer {
  name: "relu1_2"
  type: "ReLU"
  bottom: "conv1_2"
  top: "conv1_2"
}
layer {
  name: "pool1"
  type: "Pooling"
  bottom: "conv1_2"
  top: "pool1"
  pooling_param {
    pool: MAX
    kernel_size: 2
    stride: 2
  }
}
layer {
  name: "conv2_1"
  type: "Convolution"
  bottom: "pool1"
  top: "conv2_1"
  param {
    lr_mult: 1
    decay_mult: 1
  }
  param {
    lr_mult: 2
    decay_mult: 0
  }
  convolution_param {
    num_output: 128
    pad: 1
    kernel_size: 3
    weight_filler {
      type: "xavier"
    }
    bias_filler {
      type: "constant"
      value: 0
    }
  }
}
layer {
  name: "relu2_1"
  type: "ReLU"
  bottom: "conv2_1"
  top: "conv2_1"
}
layer {
  name: "conv2_2"
  type: "Convolution"
  bottom: "conv2_1"
  top: "conv2_2"
  param {
    lr_mult: 1
    decay_mult: 1
  }
  param {
    lr_mult: 2
    decay_mult: 0
  }
  convolution_param {
    num_output: 128
    pad: 1
    kernel_size: 3
    weight_filler {
      type: "xavier"
    }
    bias_filler {
      type: "constant"
      value: 0
    }
  }
}
layer {
  name: "relu2_2"
  type: "ReLU"
  bottom: "conv2_2"
  top: "conv2_2"
}
layer {
  name: "pool2"
  type: "Pooling"
  bottom: "conv2_2"
  top: "pool2"
  pooling_param {
    pool: MAX
    kernel_size: 2
    stride: 2
  }
}
layer {
  name: "conv3_1"
  type: "Convolution"
  bottom: "pool2"
  top: "conv3_1"
  param {
    lr_mult: 1
    decay_mult: 1
  }
  param {
    lr_mult: 2
    decay_mult: 0
  }
  convolution_param {
    num_output: 256
    pad: 1
    kernel_size: 3
    weight_filler {
      type: "xavier"
    }
    bias_filler {
      type: "constant"
      value: 0
    }
  }
}
layer {
  name: "relu3_1"
  type: "ReLU"
  bottom: "conv3_1"
  top: "conv3_1"
}
layer {
  name: "conv3_2"
  type: "Convolution"
  bottom: "conv3_1"
  top: "conv3_2"
  param {
    lr_mult: 1
    decay_mult: 1
  }
  param {
    lr_mult: 2
    decay_mult: 0
  }
  convolution_param {
    num_output: 256
    pad: 1
    kernel_size: 3
    weight_filler {
      type: "xavier"
    }
    bias_filler {
      type: "constant"
      value: 0
    }
  }
}
layer {
  name: "relu3_2"
  type: "ReLU"
  bottom: "conv3_2"
  top: "conv3_2"
}
layer {
  name: "conv3_3"
  type: "Convolution"
  bottom: "conv3_2"
  top: "conv3_3"
  param {
    lr_mult: 1
    decay_mult: 1
  }
  param {
    lr_mult: 2
    decay_mult: 0
  }
  convolution_param {
    num_output: 256
    pad: 1
    kernel_size: 3
    weight_filler {
      type: "xavier"
    }
    bias_filler {
      type: "constant"
      value: 0
    }
  }
}
layer {
  name: "relu3_3"
  type: "ReLU"
  bottom: "conv3_3"
  top: "conv3_3"
}
layer {
  name: "pool3"
  type: "Pooling"
  bottom: "conv3_3"
  top: "pool3"
  pooling_param {
    pool: MAX
    kernel_size: 2
    stride: 2
  }
}
layer {
  name: "conv4_1_depthwise"
  type: "DepthwiseConvolution"
  bottom: "pool3"
  top: "conv4_1_3x3"
  param {
    lr_mult: 1
    decay_mult: 1
  }
  param {
    lr_mult: 2
    decay_mult: 0
  }
  convolution_param {
    num_output: 256
    pad: 1
    kernel_size: 3
    group: 256
    weight_filler {
      type: "xavier"
    }
    bias_filler {
      type: "constant"
      value: 0
    }
  }
}
layer {
  name: "conv4_1_3x3_relu"
  type: "ReLU"
  bottom: "conv4_1_3x3"
  top: "conv4_1_3x3"
}
layer {
  name: "conv4_1_1x1"
  type: "Convolution"
  bottom: "conv4_1_3x3"
  top: "conv4_1"
  param {
    lr_mult: 1
    decay_mult: 1
  }
  param {
    lr_mult: 2
    decay_mult: 0
  }
  convolution_param {
    num_output: 512
    pad: 0
    kernel_size: 1
    stride: 1
    weight_filler {
      type: "xavier"
    }
    bias_filler {
      type: "constant"
      value: 0
    }
  }
}
layer {
  name: "relu4_1"
  type: "ReLU"
  bottom: "conv4_1"
  top: "conv4_1"
}
layer {
  name: "conv4_2"
  type: "Convolution"
  bottom: "conv4_1"
  top: "conv4_2"
  param {
    lr_mult: 1
    decay_mult: 1
  }
  param {
    lr_mult: 2
    decay_mult: 0
  }
  convolution_param {
    num_output: 512
    pad: 1
    kernel_size: 3
    weight_filler {
      type: "xavier"
    }
    bias_filler {
      type: "constant"
      value: 0
    }
  }
}
layer {
  name: "relu4_2"
  type: "ReLU"
  bottom: "conv4_2"
  top: "conv4_2"
}
layer {
  name: "conv4_3"
  type: "Convolution"
  bottom: "conv4_2"
  top: "conv4_3"
  param {
    lr_mult: 1
    decay_mult: 1
  }
  param {
    lr_mult: 2
    decay_mult: 0
  }
  convolution_param {
    num_output: 512
    pad: 1
    kernel_size: 3
    weight_filler {
      type: "xavier"
    }
    bias_filler {
      type: "constant"
      value: 0
    }
  }
}
layer {
  name: "relu4_3"
  type: "ReLU"
  bottom: "conv4_3"
  top: "conv4_3"
}
layer {
  name: "pool4"
  type: "Pooling"
  bottom: "conv4_3"
  top: "pool4"
  pooling_param {
    pool: MAX
    kernel_size: 2
    stride: 2
  }
}
layer {
  name: "conv5_1_depthwise"
  type: "DepthwiseConvolution"
  bottom: "pool4"
  top: "conv5_1_3x3"
  param {
    lr_mult: 1
    decay_mult: 1
  }
  param {
    lr_mult: 2
    decay_mult: 0
  }
  convolution_param {
    num_output: 512
    pad: 1
    kernel_size: 3
    group: 512
    weight_filler {
      type: "xavier"
    }
    bias_filler {
      type: "constant"
      value: 0
    }
    dilation: 1
  }
}
layer {
  name: "conv5_1_3x3_relu"
  type: "ReLU"
  bottom: "conv5_1_3x3"
  top: "conv5_1_3x3"
}
layer {
  name: "conv5_1_1x1"
  type: "Convolution"
  bottom: "conv5_1_3x3"
  top: "conv5_1"
  param {
    lr_mult: 1
    decay_mult: 1
  }
  param {
    lr_mult: 2
    decay_mult: 0
  }
  convolution_param {
    num_output: 512
    pad: 0
    kernel_size: 1
    stride: 1
    weight_filler {
      type: "xavier"
    }
    bias_filler {
      type: "constant"
      value: 0
    }
    dilation: 1
  }
}
layer {
  name: "relu5_1"
  type: "ReLU"
  bottom: "conv5_1"
  top: "conv5_1"
}
layer {
  name: "conv5_2_depthwise"
  type: "DepthwiseConvolution"
  bottom: "conv5_1"
  top: "conv5_2_3x3"
  param {
    lr_mult: 1
    decay_mult: 1
  }
  param {
    lr_mult: 2
    decay_mult: 0
  }
  convolution_param {
    num_output: 512
    pad: 1
    kernel_size: 3
    group: 512
    weight_filler {
      type: "xavier"
    }
    bias_filler {
      type: "constant"
      value: 0
    }
    dilation: 1
  }
}
layer {
  name: "conv5_2_3x3_relu"
  type: "ReLU"
  bottom: "conv5_2_3x3"
  top: "conv5_2_3x3"
}
layer {
  name: "conv5_2_1x1"
  type: "Convolution"
  bottom: "conv5_2_3x3"
  top: "conv5_2"
  param {
    lr_mult: 1
    decay_mult: 1
  }
  param {
    lr_mult: 2
    decay_mult: 0
  }
  convolution_param {
    num_output: 512
    pad: 0
    kernel_size: 1
    stride: 1
    weight_filler {
      type: "xavier"
    }
    bias_filler {
      type: "constant"
      value: 0
    }
    dilation: 1
  }
}
layer {
  name: "relu5_2"
  type: "ReLU"
  bottom: "conv5_2"
  top: "conv5_2"
}
layer {
  name: "conv5_3_depthwise"
  type: "DepthwiseConvolution"
  bottom: "conv5_2"
  top: "conv5_3_3x3"
  param {
    lr_mult: 1
    decay_mult: 1
  }
  param {
    lr_mult: 2
    decay_mult: 0
  }
  convolution_param {
    num_output: 512
    pad: 1
    kernel_size: 3
    group: 512
    weight_filler {
      type: "xavier"
    }
    bias_filler {
      type: "constant"
      value: 0
    }
    dilation: 1
  }
}
layer {
  name: "conv5_3_3x3_relu"
  type: "ReLU"
  bottom: "conv5_3_3x3"
  top: "conv5_3_3x3"
}
layer {
  name: "conv5_3_1x1"
  type: "Convolution"
  bottom: "conv5_3_3x3"
  top: "conv5_3"
  param {
    lr_mult: 1
    decay_mult: 1
  }
  param {
    lr_mult: 2
    decay_mult: 0
  }
  convolution_param {
    num_output: 512
    pad: 0
    kernel_size: 1
    stride: 1
    weight_filler {
      type: "xavier"
    }
    bias_filler {
      type: "constant"
      value: 0
    }
    dilation: 1
  }
}
layer {
  name: "relu5_3"
  type: "ReLU"
  bottom: "conv5_3"
  top: "conv5_3"
}
layer {
  name: "pool5"
  type: "Pooling"
  bottom: "conv5_3"
  top: "pool5"
  pooling_param {
    pool: MAX
    kernel_size: 3
    stride: 1
    pad: 1
  }
}
layer {
  name: "fc6_depthwise"
  type: "DepthwiseConvolution"
  bottom: "pool5"
  top: "fc6_3x3"
  param {
    lr_mult: 1
    decay_mult: 1
  }
  param {
    lr_mult: 2
    decay_mult: 0
  }
  convolution_param {
    num_output: 512
    pad: 6
    kernel_size: 3
    group: 512
    weight_filler {
      type: "xavier"
    }
    bias_filler {
      type: "constant"
      value: 0
    }
    dilation: 6
  }
}
layer {
  name: "fc6_3x3_relu"
  type: "ReLU"
  bottom: "fc6_3x3"
  top: "fc6_3x3"
}
layer {
  name: "fc6_1x1"
  type: "Convolution"
  bottom: "fc6_3x3"
  top: "fc6"
  param {
    lr_mult: 1
    decay_mult: 1
  }
  param {
    lr_mult: 2
    decay_mult: 0
  }
  convolution_param {
    num_output: 1024
    pad: 0
    kernel_size: 1
    stride: 1
    weight_filler {
      type: "xavier"
    }
    bias_filler {
      type: "constant"
      value: 0
    }
    dilation: 6
  }
}
layer {
  name: "relu6"
  type: "ReLU"
  bottom: "fc6"
  top: "fc6"
}
layer {
  name: "fc7"
  type: "Convolution"
  bottom: "fc6"
  top: "fc7"
  param {
    lr_mult: 1
    decay_mult: 1
  }
  param {
    lr_mult: 2
    decay_mult: 0
  }
  convolution_param {
    num_output: 1024
    kernel_size: 1
    weight_filler {
      type: "xavier"
    }
    bias_filler {
      type: "constant"
      value: 0
    }
  }
}
layer {
  name: "relu7"
  type: "ReLU"
  bottom: "fc7"
  top: "fc7"
}
layer {
  name: "conv6_1"
  type: "Convolution"
  bottom: "fc7"
  top: "conv6_1"
  param {
    lr_mult: 1
    decay_mult: 1
  }
  param {
    lr_mult: 2
    decay_mult: 0
  }
  convolution_param {
    num_output: 256
    pad: 0
    kernel_size: 1
    stride: 1
    weight_filler {
      type: "xavier"
    }
    bias_filler {
      type: "constant"
      value: 0
    }
  }
}
layer {
  name: "conv6_1_relu"
  type: "ReLU"
  bottom: "conv6_1"
  top: "conv6_1"
}
layer {
  name: "conv6_2_depthwise"
  type: "DepthwiseConvolution"
  bottom: "conv6_1"
  top: "conv6_2_3x3"
  param {
    lr_mult: 1
    decay_mult: 1
  }
  param {
    lr_mult: 2
    decay_mult: 0
  }
  convolution_param {
    num_output: 256
    pad: 1
    kernel_size: 3
    group: 256
    stride: 2
    weight_filler {
      type: "xavier"
    }
    bias_filler {
      type: "constant"
      value: 0
    }
  }
}
layer {
  name: "conv6_2_3x3_relu"
  type: "ReLU"
  bottom: "conv6_2_3x3"
  top: "conv6_2_3x3"
}
layer {
  name: "conv6_2_1x1"
  type: "Convolution"
  bottom: "conv6_2_3x3"
  top: "conv6_2"
  param {
    lr_mult: 1
    decay_mult: 1
  }
  param {
    lr_mult: 2
    decay_mult: 0
  }
  convolution_param {
    num_output: 512
    pad: 0
    kernel_size: 1
    stride: 1
    weight_filler {
      type: "xavier"
    }
    bias_filler {
      type: "constant"
      value: 0
    }
  }
}
layer {
  name: "conv6_2_relu"
  type: "ReLU"
  bottom: "conv6_2"
  top: "conv6_2"
}
layer {
  name: "conv7_1"
  type: "Convolution"
  bottom: "conv6_2"
  top: "conv7_1"
  param {
    lr_mult: 1
    decay_mult: 1
  }
  param {
    lr_mult: 2
    decay_mult: 0
  }
  convolution_param {
    num_output: 128
    pad: 0
    kernel_size: 1
    stride: 1
    weight_filler {
      type: "xavier"
    }
    bias_filler {
      type: "constant"
      value: 0
    }
  }
}
layer {
  name: "conv7_1_relu"
  type: "ReLU"
  bottom: "conv7_1"
  top: "conv7_1"
}
layer {
  name: "conv7_2"
  type: "Convolution"
  bottom: "conv7_1"
  top: "conv7_2"
  param {
    lr_mult: 1
    decay_mult: 1
  }
  param {
    lr_mult: 2
    decay_mult: 0
  }
  convolution_param {
    num_output: 256
    pad: 1
    kernel_size: 3
    stride: 2
    weight_filler {
      type: "xavier"
    }
    bias_filler {
      type: "constant"
      value: 0
    }
  }
}
layer {
  name: "conv7_2_relu"
  type: "ReLU"
  bottom: "conv7_2"
  top: "conv7_2"
}
layer {
  name: "conv8_1"
  type: "Convolution"
  bottom: "conv7_2"
  top: "conv8_1"
  param {
    lr_mult: 1
    decay_mult: 1
  }
  param {
    lr_mult: 2
    decay_mult: 0
  }
  convolution_param {
    num_output: 128
    pad: 0
    kernel_size: 1
    stride: 1
    weight_filler {
      type: "xavier"
    }
    bias_filler {
      type: "constant"
      value: 0
    }
  }
}
layer {
  name: "conv8_1_relu"
  type: "ReLU"
  bottom: "conv8_1"
  top: "conv8_1"
}
layer {
  name: "conv8_2"
  type: "Convolution"
  bottom: "conv8_1"
  top: "conv8_2"
  param {
    lr_mult: 1
    decay_mult: 1
  }
  param {
    lr_mult: 2
    decay_mult: 0
  }
  convolution_param {
    num_output: 256
    pad: 0
    kernel_size: 3
    stride: 1
    weight_filler {
      type: "xavier"
    }
    bias_filler {
      type: "constant"
      value: 0
    }
  }
}
layer {
  name: "conv8_2_relu"
  type: "ReLU"
  bottom: "conv8_2"
  top: "conv8_2"
}
layer {
  name: "conv9_1"
  type: "Convolution"
  bottom: "conv8_2"
  top: "conv9_1"
  param {
    lr_mult: 1
    decay_mult: 1
  }
  param {
    lr_mult: 2
    decay_mult: 0
  }
  convolution_param {
    num_output: 128
    pad: 0
    kernel_size: 1
    stride: 1
    weight_filler {
      type: "xavier"
    }
    bias_filler {
      type: "constant"
      value: 0
    }
  }
}
layer {
  name: "conv9_1_relu"
  type: "ReLU"
  bottom: "conv9_1"
  top: "conv9_1"
}
layer {
  name: "conv9_2"
  type: "Convolution"
  bottom: "conv9_1"
  top: "conv9_2"
  param {
    lr_mult: 1
    decay_mult: 1
  }
  param {
    lr_mult: 2
    decay_mult: 0
  }
  convolution_param {
    num_output: 256
    pad: 0
    kernel_size: 3
    stride: 1
    weight_filler {
      type: "xavier"
    }
    bias_filler {
      type: "constant"
      value: 0
    }
  }
}
layer {
  name: "conv9_2_relu"
  type: "ReLU"
  bottom: "conv9_2"
  top: "conv9_2"
}
layer {
  name: "conv4_3_norm"
  type: "Normalize"
  bottom: "conv4_3"
  top: "conv4_3_norm"
  norm_param {
    across_spatial: false
    scale_filler {
      type: "constant"
      value: 20
    }
    channel_shared: false
  }
}
layer {
  name: "conv4_3_norm_mbox_loc"
  type: "Convolution"
  bottom: "conv4_3_norm"
  top: "conv4_3_norm_mbox_loc"
  param {
    lr_mult: 1
    decay_mult: 1
  }
  param {
    lr_mult: 2
    decay_mult: 0
  }
  convolution_param {
    num_output: 16
    pad: 1
    kernel_size: 3
    stride: 1
    weight_filler {
      type: "xavier"
    }
    bias_filler {
      type: "constant"
      value: 0
    }
  }
}
layer {
  name: "conv4_3_norm_mbox_loc_perm"
  type: "Permute"
  bottom: "conv4_3_norm_mbox_loc"
  top: "conv4_3_norm_mbox_loc_perm"
  permute_param {
    order: 0
    order: 2
    order: 3
    order: 1
  }
}
layer {
  name: "conv4_3_norm_mbox_loc_flat"
  type: "Flatten"
  bottom: "conv4_3_norm_mbox_loc_perm"
  top: "conv4_3_norm_mbox_loc_flat"
  flatten_param {
    axis: 1
  }
}
layer {
  name: "conv4_3_norm_mbox_conf"
  type: "Convolution"
  bottom: "conv4_3_norm"
  top: "conv4_3_norm_mbox_conf"
  param {
    lr_mult: 1
    decay_mult: 1
  }
  param {
    lr_mult: 2
    decay_mult: 0
  }
  convolution_param {
    num_output: 44
    pad: 1
    kernel_size: 3
    stride: 1
    weight_filler {
      type: "xavier"
    }
    bias_filler {
      type: "constant"
      value: 0
    }
  }
}
layer {
  name: "conv4_3_norm_mbox_conf_perm"
  type: "Permute"
  bottom: "conv4_3_norm_mbox_conf"
  top: "conv4_3_norm_mbox_conf_perm"
  permute_param {
    order: 0
    order: 2
    order: 3
    order: 1
  }
}
layer {
  name: "conv4_3_norm_mbox_conf_flat"
  type: "Flatten"
  bottom: "conv4_3_norm_mbox_conf_perm"
  top: "conv4_3_norm_mbox_conf_flat"
  flatten_param {
    axis: 1
  }
}
layer {
  name: "conv4_3_norm_mbox_priorbox"
  type: "PriorBox"
  bottom: "conv4_3_norm"
  bottom: "data"
  top: "conv4_3_norm_mbox_priorbox"
  prior_box_param {
    min_size: 30
    max_size: 60
    aspect_ratio: 2
    flip: true
    clip: false
    variance: 0.1
    variance: 0.1
    variance: 0.2
    variance: 0.2
    step: 8
    offset: 0.5
  }
}
layer {
  name: "fc7_mbox_loc"
  type: "Convolution"
  bottom: "fc7"
  top: "fc7_mbox_loc"
  param {
    lr_mult: 1
    decay_mult: 1
  }
  param {
    lr_mult: 2
    decay_mult: 0
  }
  convolution_param {
    num_output: 24
    pad: 1
    kernel_size: 3
    stride: 1
    weight_filler {
      type: "xavier"
    }
    bias_filler {
      type: "constant"
      value: 0
    }
  }
}
layer {
  name: "fc7_mbox_loc_perm"
  type: "Permute"
  bottom: "fc7_mbox_loc"
  top: "fc7_mbox_loc_perm"
  permute_param {
    order: 0
    order: 2
    order: 3
    order: 1
  }
}
layer {
  name: "fc7_mbox_loc_flat"
  type: "Flatten"
  bottom: "fc7_mbox_loc_perm"
  top: "fc7_mbox_loc_flat"
  flatten_param {
    axis: 1
  }
}
layer {
  name: "fc7_mbox_conf"
  type: "Convolution"
  bottom: "fc7"
  top: "fc7_mbox_conf"
  param {
    lr_mult: 1
    decay_mult: 1
  }
  param {
    lr_mult: 2
    decay_mult: 0
  }
  convolution_param {
    num_output: 66
    pad: 1
    kernel_size: 3
    stride: 1
    weight_filler {
      type: "xavier"
    }
    bias_filler {
      type: "constant"
      value: 0
    }
  }
}
layer {
  name: "fc7_mbox_conf_perm"
  type: "Permute"
  bottom: "fc7_mbox_conf"
  top: "fc7_mbox_conf_perm"
  permute_param {
    order: 0
    order: 2
    order: 3
    order: 1
  }
}
layer {
  name: "fc7_mbox_conf_flat"
  type: "Flatten"
  bottom: "fc7_mbox_conf_perm"
  top: "fc7_mbox_conf_flat"
  flatten_param {
    axis: 1
  }
}
layer {
  name: "fc7_mbox_priorbox"
  type: "PriorBox"
  bottom: "fc7"
  bottom: "data"
  top: "fc7_mbox_priorbox"
  prior_box_param {
    min_size: 60
    max_size: 111
    aspect_ratio: 2
    aspect_ratio: 3
    flip: true
    clip: false
    variance: 0.1
    variance: 0.1
    variance: 0.2
    variance: 0.2
    step: 16
    offset: 0.5
  }
}
layer {
  name: "conv6_2_mbox_loc"
  type: "Convolution"
  bottom: "conv6_2"
  top: "conv6_2_mbox_loc"
  param {
    lr_mult: 1
    decay_mult: 1
  }
  param {
    lr_mult: 2
    decay_mult: 0
  }
  convolution_param {
    num_output: 24
    pad: 1
    kernel_size: 3
    stride: 1
    weight_filler {
      type: "xavier"
    }
    bias_filler {
      type: "constant"
      value: 0
    }
  }
}
layer {
  name: "conv6_2_mbox_loc_perm"
  type: "Permute"
  bottom: "conv6_2_mbox_loc"
  top: "conv6_2_mbox_loc_perm"
  permute_param {
    order: 0
    order: 2
    order: 3
    order: 1
  }
}
layer {
  name: "conv6_2_mbox_loc_flat"
  type: "Flatten"
  bottom: "conv6_2_mbox_loc_perm"
  top: "conv6_2_mbox_loc_flat"
  flatten_param {
    axis: 1
  }
}
layer {
  name: "conv6_2_mbox_conf"
  type: "Convolution"
  bottom: "conv6_2"
  top: "conv6_2_mbox_conf"
  param {
    lr_mult: 1
    decay_mult: 1
  }
  param {
    lr_mult: 2
    decay_mult: 0
  }
  convolution_param {
    num_output: 66
    pad: 1
    kernel_size: 3
    stride: 1
    weight_filler {
      type: "xavier"
    }
    bias_filler {
      type: "constant"
      value: 0
    }
  }
}
layer {
  name: "conv6_2_mbox_conf_perm"
  type: "Permute"
  bottom: "conv6_2_mbox_conf"
  top: "conv6_2_mbox_conf_perm"
  permute_param {
    order: 0
    order: 2
    order: 3
    order: 1
  }
}
layer {
  name: "conv6_2_mbox_conf_flat"
  type: "Flatten"
  bottom: "conv6_2_mbox_conf_perm"
  top: "conv6_2_mbox_conf_flat"
  flatten_param {
    axis: 1
  }
}
layer {
  name: "conv6_2_mbox_priorbox"
  type: "PriorBox"
  bottom: "conv6_2"
  bottom: "data"
  top: "conv6_2_mbox_priorbox"
  prior_box_param {
    min_size: 111
    max_size: 162
    aspect_ratio: 2
    aspect_ratio: 3
    flip: true
    clip: false
    variance: 0.1
    variance: 0.1
    variance: 0.2
    variance: 0.2
    step: 32
    offset: 0.5
  }
}
layer {
  name: "conv7_2_mbox_loc"
  type: "Convolution"
  bottom: "conv7_2"
  top: "conv7_2_mbox_loc"
  param {
    lr_mult: 1
    decay_mult: 1
  }
  param {
    lr_mult: 2
    decay_mult: 0
  }
  convolution_param {
    num_output: 24
    pad: 1
    kernel_size: 3
    stride: 1
    weight_filler {
      type: "xavier"
    }
    bias_filler {
      type: "constant"
      value: 0
    }
  }
}
layer {
  name: "conv7_2_mbox_loc_perm"
  type: "Permute"
  bottom: "conv7_2_mbox_loc"
  top: "conv7_2_mbox_loc_perm"
  permute_param {
    order: 0
    order: 2
    order: 3
    order: 1
  }
}
layer {
  name: "conv7_2_mbox_loc_flat"
  type: "Flatten"
  bottom: "conv7_2_mbox_loc_perm"
  top: "conv7_2_mbox_loc_flat"
  flatten_param {
    axis: 1
  }
}
layer {
  name: "conv7_2_mbox_conf"
  type: "Convolution"
  bottom: "conv7_2"
  top: "conv7_2_mbox_conf"
  param {
    lr_mult: 1
    decay_mult: 1
  }
  param {
    lr_mult: 2
    decay_mult: 0
  }
  convolution_param {
    num_output: 66
    pad: 1
    kernel_size: 3
    stride: 1
    weight_filler {
      type: "xavier"
    }
    bias_filler {
      type: "constant"
      value: 0
    }
  }
}
layer {
  name: "conv7_2_mbox_conf_perm"
  type: "Permute"
  bottom: "conv7_2_mbox_conf"
  top: "conv7_2_mbox_conf_perm"
  permute_param {
    order: 0
    order: 2
    order: 3
    order: 1
  }
}
layer {
  name: "conv7_2_mbox_conf_flat"
  type: "Flatten"
  bottom: "conv7_2_mbox_conf_perm"
  top: "conv7_2_mbox_conf_flat"
  flatten_param {
    axis: 1
  }
}
layer {
  name: "conv7_2_mbox_priorbox"
  type: "PriorBox"
  bottom: "conv7_2"
  bottom: "data"
  top: "conv7_2_mbox_priorbox"
  prior_box_param {
    min_size: 162
    max_size: 213
    aspect_ratio: 2
    aspect_ratio: 3
    flip: true
    clip: false
    variance: 0.1
    variance: 0.1
    variance: 0.2
    variance: 0.2
    step: 64
    offset: 0.5
  }
}
layer {
  name: "conv8_2_mbox_loc"
  type: "Convolution"
  bottom: "conv8_2"
  top: "conv8_2_mbox_loc"
  param {
    lr_mult: 1
    decay_mult: 1
  }
  param {
    lr_mult: 2
    decay_mult: 0
  }
  convolution_param {
    num_output: 16
    pad: 1
    kernel_size: 3
    stride: 1
    weight_filler {
      type: "xavier"
    }
    bias_filler {
      type: "constant"
      value: 0
    }
  }
}
layer {
  name: "conv8_2_mbox_loc_perm"
  type: "Permute"
  bottom: "conv8_2_mbox_loc"
  top: "conv8_2_mbox_loc_perm"
  permute_param {
    order: 0
    order: 2
    order: 3
    order: 1
  }
}
layer {
  name: "conv8_2_mbox_loc_flat"
  type: "Flatten"
  bottom: "conv8_2_mbox_loc_perm"
  top: "conv8_2_mbox_loc_flat"
  flatten_param {
    axis: 1
  }
}
layer {
  name: "conv8_2_mbox_conf"
  type: "Convolution"
  bottom: "conv8_2"
  top: "conv8_2_mbox_conf"
  param {
    lr_mult: 1
    decay_mult: 1
  }
  param {
    lr_mult: 2
    decay_mult: 0
  }
  convolution_param {
    num_output: 44
    pad: 1
    kernel_size: 3
    stride: 1
    weight_filler {
      type: "xavier"
    }
    bias_filler {
      type: "constant"
      value: 0
    }
  }
}
layer {
  name: "conv8_2_mbox_conf_perm"
  type: "Permute"
  bottom: "conv8_2_mbox_conf"
  top: "conv8_2_mbox_conf_perm"
  permute_param {
    order: 0
    order: 2
    order: 3
    order: 1
  }
}
layer {
  name: "conv8_2_mbox_conf_flat"
  type: "Flatten"
  bottom: "conv8_2_mbox_conf_perm"
  top: "conv8_2_mbox_conf_flat"
  flatten_param {
    axis: 1
  }
}
layer {
  name: "conv8_2_mbox_priorbox"
  type: "PriorBox"
  bottom: "conv8_2"
  bottom: "data"
  top: "conv8_2_mbox_priorbox"
  prior_box_param {
    min_size: 213
    max_size: 264
    aspect_ratio: 2
    flip: true
    clip: false
    variance: 0.1
    variance: 0.1
    variance: 0.2
    variance: 0.2
    step: 100
    offset: 0.5
  }
}
layer {
  name: "conv9_2_mbox_loc"
  type: "Convolution"
  bottom: "conv9_2"
  top: "conv9_2_mbox_loc"
  param {
    lr_mult: 1
    decay_mult: 1
  }
  param {
    lr_mult: 2
    decay_mult: 0
  }
  convolution_param {
    num_output: 16
    pad: 1
    kernel_size: 3
    stride: 1
    weight_filler {
      type: "xavier"
    }
    bias_filler {
      type: "constant"
      value: 0
    }
  }
}
layer {
  name: "conv9_2_mbox_loc_perm"
  type: "Permute"
  bottom: "conv9_2_mbox_loc"
  top: "conv9_2_mbox_loc_perm"
  permute_param {
    order: 0
    order: 2
    order: 3
    order: 1
  }
}
layer {
  name: "conv9_2_mbox_loc_flat"
  type: "Flatten"
  bottom: "conv9_2_mbox_loc_perm"
  top: "conv9_2_mbox_loc_flat"
  flatten_param {
    axis: 1
  }
}
layer {
  name: "conv9_2_mbox_conf"
  type: "Convolution"
  bottom: "conv9_2"
  top: "conv9_2_mbox_conf"
  param {
    lr_mult: 1
    decay_mult: 1
  }
  param {
    lr_mult: 2
    decay_mult: 0
  }
  convolution_param {
    num_output: 44
    pad: 1
    kernel_size: 3
    stride: 1
    weight_filler {
      type: "xavier"
    }
    bias_filler {
      type: "constant"
      value: 0
    }
  }
}
layer {
  name: "conv9_2_mbox_conf_perm"
  type: "Permute"
  bottom: "conv9_2_mbox_conf"
  top: "conv9_2_mbox_conf_perm"
  permute_param {
    order: 0
    order: 2
    order: 3
    order: 1
  }
}
layer {
  name: "conv9_2_mbox_conf_flat"
  type: "Flatten"
  bottom: "conv9_2_mbox_conf_perm"
  top: "conv9_2_mbox_conf_flat"
  flatten_param {
    axis: 1
  }
}
layer {
  name: "conv9_2_mbox_priorbox"
  type: "PriorBox"
  bottom: "conv9_2"
  bottom: "data"
  top: "conv9_2_mbox_priorbox"
  prior_box_param {
    min_size: 264
    max_size: 315
    aspect_ratio: 2
    flip: true
    clip: false
    variance: 0.1
    variance: 0.1
    variance: 0.2
    variance: 0.2
    step: 300
    offset: 0.5
  }
}
layer {
  name: "mbox_loc"
  type: "Concat"
  bottom: "conv4_3_norm_mbox_loc_flat"
  bottom: "fc7_mbox_loc_flat"
  bottom: "conv6_2_mbox_loc_flat"
  bottom: "conv7_2_mbox_loc_flat"
  bottom: "conv8_2_mbox_loc_flat"
  bottom: "conv9_2_mbox_loc_flat"
  top: "mbox_loc"
  concat_param {
    axis: 1
  }
}
layer {
  name: "mbox_conf"
  type: "Concat"
  bottom: "conv4_3_norm_mbox_conf_flat"
  bottom: "fc7_mbox_conf_flat"
  bottom: "conv6_2_mbox_conf_flat"
  bottom: "conv7_2_mbox_conf_flat"
  bottom: "conv8_2_mbox_conf_flat"
  bottom: "conv9_2_mbox_conf_flat"
  top: "mbox_conf"
  concat_param {
    axis: 1
  }
}
layer {
  name: "mbox_priorbox"
  type: "Concat"
  bottom: "conv4_3_norm_mbox_priorbox"
  bottom: "fc7_mbox_priorbox"
  bottom: "conv6_2_mbox_priorbox"
  bottom: "conv7_2_mbox_priorbox"
  bottom: "conv8_2_mbox_priorbox"
  bottom: "conv9_2_mbox_priorbox"
  top: "mbox_priorbox"
  concat_param {
    axis: 2
  }
}
layer {
  name: "mbox_conf_reshape"
  type: "Reshape"
  bottom: "mbox_conf"
  top: "mbox_conf_reshape"
  reshape_param {
    shape {
      dim: 0
      dim: -1
      dim: 11
    }
  }
}
layer {
  name: "mbox_conf_softmax"
  type: "Softmax"
  bottom: "mbox_conf_reshape"
  top: "mbox_conf_softmax"
  softmax_param {
    axis: 2
  }
}
layer {
  name: "mbox_conf_flatten"
  type: "Flatten"
  bottom: "mbox_conf_softmax"
  top: "mbox_conf_flatten"
  flatten_param {
    axis: 1
  }
}
layer {
  name: "detection_out"
  type: "DetectionOutput"
  bottom: "mbox_loc"
  bottom: "mbox_conf_flatten"
  bottom: "mbox_priorbox"
  top: "detection_out"
  include {
    phase: TEST
  }
  detection_output_param {
    num_classes: 11
    share_location: true
    background_label_id: 0
    nms_param {
      nms_threshold: 0.45
      top_k: 400
    }
    save_output_param {
      output_directory: "/home/zs/data/VOCdevkit/results/VOC2007/SSD_300x300_0323_conv6/Main"
      output_name_prefix: "comp4_det_test_"
      output_format: "VOC"
      label_map_file: "data/NWPU_VHR/labelmap_NWPU_VHR.prototxt"
      name_size_file: "data/NWPU_VHR/test_name_size.txt"
      num_test_image: 123
    }
    code_type: CENTER_SIZE
    keep_top_k: 200
    confidence_threshold: 0.01
  }
}
layer {
  name: "detection_eval"
  type: "DetectionEvaluate"
  bottom: "detection_out"
  bottom: "label"
  top: "detection_eval"
  include {
    phase: TEST
  }
  detection_evaluate_param {
    num_classes: 11
    background_label_id: 0
    overlap_threshold: 0.5
    evaluate_difficult_gt: false
    name_size_file: "data/NWPU_VHR/test_name_size.txt"
  }
}
I0401 11:05:54.163424  1909 layer_factory.hpp:77] Creating layer data
I0401 11:05:54.163502  1909 net.cpp:100] Creating Layer data
I0401 11:05:54.163514  1909 net.cpp:408] data -> data
I0401 11:05:54.163529  1909 net.cpp:408] data -> label
I0401 11:05:54.190906  1927 db_lmdb.cpp:35] Opened lmdb examples/NWPU_VHR/NWPU_VHR_trainval_lmdb
I0401 11:05:54.203440  1909 annotated_data_layer.cpp:62] output data size: 1,3,300,300
I0401 11:05:54.225383  1909 net.cpp:150] Setting up data
I0401 11:05:54.225419  1909 net.cpp:157] Top shape: 1 3 300 300 (270000)
I0401 11:05:54.225430  1909 net.cpp:157] Top shape: 1 1 4 8 (32)
I0401 11:05:54.225437  1909 net.cpp:165] Memory required for data: 1080128
I0401 11:05:54.225446  1909 layer_factory.hpp:77] Creating layer data_data_0_split
I0401 11:05:54.225466  1909 net.cpp:100] Creating Layer data_data_0_split
I0401 11:05:54.225472  1909 net.cpp:434] data_data_0_split <- data
I0401 11:05:54.225482  1909 net.cpp:408] data_data_0_split -> data_data_0_split_0
I0401 11:05:54.225497  1909 net.cpp:408] data_data_0_split -> data_data_0_split_1
I0401 11:05:54.225505  1909 net.cpp:408] data_data_0_split -> data_data_0_split_2
I0401 11:05:54.225538  1909 net.cpp:408] data_data_0_split -> data_data_0_split_3
I0401 11:05:54.225548  1909 net.cpp:408] data_data_0_split -> data_data_0_split_4
I0401 11:05:54.225558  1909 net.cpp:408] data_data_0_split -> data_data_0_split_5
I0401 11:05:54.225567  1909 net.cpp:408] data_data_0_split -> data_data_0_split_6
I0401 11:05:54.225795  1909 net.cpp:150] Setting up data_data_0_split
I0401 11:05:54.225813  1909 net.cpp:157] Top shape: 1 3 300 300 (270000)
I0401 11:05:54.225821  1909 net.cpp:157] Top shape: 1 3 300 300 (270000)
I0401 11:05:54.225831  1909 net.cpp:157] Top shape: 1 3 300 300 (270000)
I0401 11:05:54.225837  1909 net.cpp:157] Top shape: 1 3 300 300 (270000)
I0401 11:05:54.225844  1909 net.cpp:157] Top shape: 1 3 300 300 (270000)
I0401 11:05:54.225852  1909 net.cpp:157] Top shape: 1 3 300 300 (270000)
I0401 11:05:54.225859  1909 net.cpp:157] Top shape: 1 3 300 300 (270000)
I0401 11:05:54.225864  1909 net.cpp:165] Memory required for data: 8640128
I0401 11:05:54.225872  1909 layer_factory.hpp:77] Creating layer conv1_1
I0401 11:05:54.225915  1909 net.cpp:100] Creating Layer conv1_1
I0401 11:05:54.225931  1909 net.cpp:434] conv1_1 <- data_data_0_split_0
I0401 11:05:54.225942  1909 net.cpp:408] conv1_1 -> conv1_1
I0401 11:05:54.228808  1909 net.cpp:150] Setting up conv1_1
I0401 11:05:54.228828  1909 net.cpp:157] Top shape: 1 64 300 300 (5760000)
I0401 11:05:54.228840  1909 net.cpp:165] Memory required for data: 31680128
I0401 11:05:54.228860  1909 layer_factory.hpp:77] Creating layer relu1_1
I0401 11:05:54.228870  1909 net.cpp:100] Creating Layer relu1_1
I0401 11:05:54.228878  1909 net.cpp:434] relu1_1 <- conv1_1
I0401 11:05:54.228885  1909 net.cpp:395] relu1_1 -> conv1_1 (in-place)
I0401 11:05:54.230007  1909 net.cpp:150] Setting up relu1_1
I0401 11:05:54.230027  1909 net.cpp:157] Top shape: 1 64 300 300 (5760000)
I0401 11:05:54.230037  1909 net.cpp:165] Memory required for data: 54720128
I0401 11:05:54.230047  1909 layer_factory.hpp:77] Creating layer conv1_2
I0401 11:05:54.230062  1909 net.cpp:100] Creating Layer conv1_2
I0401 11:05:54.230069  1909 net.cpp:434] conv1_2 <- conv1_1
I0401 11:05:54.230078  1909 net.cpp:408] conv1_2 -> conv1_2
I0401 11:05:54.232482  1909 net.cpp:150] Setting up conv1_2
I0401 11:05:54.232502  1909 net.cpp:157] Top shape: 1 64 300 300 (5760000)
I0401 11:05:54.232513  1909 net.cpp:165] Memory required for data: 77760128
I0401 11:05:54.232528  1909 layer_factory.hpp:77] Creating layer relu1_2
I0401 11:05:54.232539  1909 net.cpp:100] Creating Layer relu1_2
I0401 11:05:54.232545  1909 net.cpp:434] relu1_2 <- conv1_2
I0401 11:05:54.232553  1909 net.cpp:395] relu1_2 -> conv1_2 (in-place)
I0401 11:05:54.232838  1909 net.cpp:150] Setting up relu1_2
I0401 11:05:54.232858  1909 net.cpp:157] Top shape: 1 64 300 300 (5760000)
I0401 11:05:54.232869  1909 net.cpp:165] Memory required for data: 100800128
I0401 11:05:54.232877  1909 layer_factory.hpp:77] Creating layer pool1
I0401 11:05:54.232888  1909 net.cpp:100] Creating Layer pool1
I0401 11:05:54.232895  1909 net.cpp:434] pool1 <- conv1_2
I0401 11:05:54.232903  1909 net.cpp:408] pool1 -> pool1
I0401 11:05:54.233014  1909 net.cpp:150] Setting up pool1
I0401 11:05:54.233032  1909 net.cpp:157] Top shape: 1 64 150 150 (1440000)
I0401 11:05:54.233041  1909 net.cpp:165] Memory required for data: 106560128
I0401 11:05:54.233047  1909 layer_factory.hpp:77] Creating layer conv2_1
I0401 11:05:54.233059  1909 net.cpp:100] Creating Layer conv2_1
I0401 11:05:54.233072  1909 net.cpp:434] conv2_1 <- pool1
I0401 11:05:54.233088  1909 net.cpp:408] conv2_1 -> conv2_1
I0401 11:05:54.236495  1909 net.cpp:150] Setting up conv2_1
I0401 11:05:54.236515  1909 net.cpp:157] Top shape: 1 128 150 150 (2880000)
I0401 11:05:54.236524  1909 net.cpp:165] Memory required for data: 118080128
I0401 11:05:54.236541  1909 layer_factory.hpp:77] Creating layer relu2_1
I0401 11:05:54.236552  1909 net.cpp:100] Creating Layer relu2_1
I0401 11:05:54.236559  1909 net.cpp:434] relu2_1 <- conv2_1
I0401 11:05:54.236567  1909 net.cpp:395] relu2_1 -> conv2_1 (in-place)
I0401 11:05:54.236874  1909 net.cpp:150] Setting up relu2_1
I0401 11:05:54.236893  1909 net.cpp:157] Top shape: 1 128 150 150 (2880000)
I0401 11:05:54.236904  1909 net.cpp:165] Memory required for data: 129600128
I0401 11:05:54.236912  1909 layer_factory.hpp:77] Creating layer conv2_2
I0401 11:05:54.236963  1909 net.cpp:100] Creating Layer conv2_2
I0401 11:05:54.236976  1909 net.cpp:434] conv2_2 <- conv2_1
I0401 11:05:54.236991  1909 net.cpp:408] conv2_2 -> conv2_2
I0401 11:05:54.257864  1909 net.cpp:150] Setting up conv2_2
I0401 11:05:54.257894  1909 net.cpp:157] Top shape: 1 128 150 150 (2880000)
I0401 11:05:54.257899  1909 net.cpp:165] Memory required for data: 141120128
I0401 11:05:54.257918  1909 layer_factory.hpp:77] Creating layer relu2_2
I0401 11:05:54.257931  1909 net.cpp:100] Creating Layer relu2_2
I0401 11:05:54.257939  1909 net.cpp:434] relu2_2 <- conv2_2
I0401 11:05:54.257948  1909 net.cpp:395] relu2_2 -> conv2_2 (in-place)
I0401 11:05:54.258944  1909 net.cpp:150] Setting up relu2_2
I0401 11:05:54.258962  1909 net.cpp:157] Top shape: 1 128 150 150 (2880000)
I0401 11:05:54.258975  1909 net.cpp:165] Memory required for data: 152640128
I0401 11:05:54.258983  1909 layer_factory.hpp:77] Creating layer pool2
I0401 11:05:54.258994  1909 net.cpp:100] Creating Layer pool2
I0401 11:05:54.259001  1909 net.cpp:434] pool2 <- conv2_2
I0401 11:05:54.259011  1909 net.cpp:408] pool2 -> pool2
I0401 11:05:54.259088  1909 net.cpp:150] Setting up pool2
I0401 11:05:54.259101  1909 net.cpp:157] Top shape: 1 128 75 75 (720000)
I0401 11:05:54.259106  1909 net.cpp:165] Memory required for data: 155520128
I0401 11:05:54.259114  1909 layer_factory.hpp:77] Creating layer conv3_1
I0401 11:05:54.259127  1909 net.cpp:100] Creating Layer conv3_1
I0401 11:05:54.259135  1909 net.cpp:434] conv3_1 <- pool2
I0401 11:05:54.259145  1909 net.cpp:408] conv3_1 -> conv3_1
I0401 11:05:54.265453  1909 net.cpp:150] Setting up conv3_1
I0401 11:05:54.265476  1909 net.cpp:157] Top shape: 1 256 75 75 (1440000)
I0401 11:05:54.265487  1909 net.cpp:165] Memory required for data: 161280128
I0401 11:05:54.265506  1909 layer_factory.hpp:77] Creating layer relu3_1
I0401 11:05:54.265517  1909 net.cpp:100] Creating Layer relu3_1
I0401 11:05:54.265523  1909 net.cpp:434] relu3_1 <- conv3_1
I0401 11:05:54.265532  1909 net.cpp:395] relu3_1 -> conv3_1 (in-place)
I0401 11:05:54.265857  1909 net.cpp:150] Setting up relu3_1
I0401 11:05:54.265902  1909 net.cpp:157] Top shape: 1 256 75 75 (1440000)
I0401 11:05:54.265913  1909 net.cpp:165] Memory required for data: 167040128
I0401 11:05:54.265920  1909 layer_factory.hpp:77] Creating layer conv3_2
I0401 11:05:54.265934  1909 net.cpp:100] Creating Layer conv3_2
I0401 11:05:54.265942  1909 net.cpp:434] conv3_2 <- conv3_1
I0401 11:05:54.265952  1909 net.cpp:408] conv3_2 -> conv3_2
I0401 11:05:54.299130  1909 net.cpp:150] Setting up conv3_2
I0401 11:05:54.299165  1909 net.cpp:157] Top shape: 1 256 75 75 (1440000)
I0401 11:05:54.299176  1909 net.cpp:165] Memory required for data: 172800128
I0401 11:05:54.299194  1909 layer_factory.hpp:77] Creating layer relu3_2
I0401 11:05:54.299207  1909 net.cpp:100] Creating Layer relu3_2
I0401 11:05:54.299214  1909 net.cpp:434] relu3_2 <- conv3_2
I0401 11:05:54.299224  1909 net.cpp:395] relu3_2 -> conv3_2 (in-place)
I0401 11:05:54.299484  1909 net.cpp:150] Setting up relu3_2
I0401 11:05:54.299502  1909 net.cpp:157] Top shape: 1 256 75 75 (1440000)
I0401 11:05:54.299510  1909 net.cpp:165] Memory required for data: 178560128
I0401 11:05:54.299515  1909 layer_factory.hpp:77] Creating layer conv3_3
I0401 11:05:54.299540  1909 net.cpp:100] Creating Layer conv3_3
I0401 11:05:54.299549  1909 net.cpp:434] conv3_3 <- conv3_2
I0401 11:05:54.299558  1909 net.cpp:408] conv3_3 -> conv3_3
I0401 11:05:54.335974  1909 net.cpp:150] Setting up conv3_3
I0401 11:05:54.336007  1909 net.cpp:157] Top shape: 1 256 75 75 (1440000)
I0401 11:05:54.336014  1909 net.cpp:165] Memory required for data: 184320128
I0401 11:05:54.336035  1909 layer_factory.hpp:77] Creating layer relu3_3
I0401 11:05:54.336050  1909 net.cpp:100] Creating Layer relu3_3
I0401 11:05:54.336083  1909 net.cpp:434] relu3_3 <- conv3_3
I0401 11:05:54.336093  1909 net.cpp:395] relu3_3 -> conv3_3 (in-place)
I0401 11:05:54.337102  1909 net.cpp:150] Setting up relu3_3
I0401 11:05:54.337123  1909 net.cpp:157] Top shape: 1 256 75 75 (1440000)
I0401 11:05:54.337133  1909 net.cpp:165] Memory required for data: 190080128
I0401 11:05:54.337142  1909 layer_factory.hpp:77] Creating layer pool3
I0401 11:05:54.337153  1909 net.cpp:100] Creating Layer pool3
I0401 11:05:54.337160  1909 net.cpp:434] pool3 <- conv3_3
I0401 11:05:54.337169  1909 net.cpp:408] pool3 -> pool3
I0401 11:05:54.337246  1909 net.cpp:150] Setting up pool3
I0401 11:05:54.337263  1909 net.cpp:157] Top shape: 1 256 38 38 (369664)
I0401 11:05:54.337270  1909 net.cpp:165] Memory required for data: 191558784
I0401 11:05:54.337277  1909 layer_factory.hpp:77] Creating layer conv4_1_depthwise
I0401 11:05:54.337291  1909 net.cpp:100] Creating Layer conv4_1_depthwise
I0401 11:05:54.337302  1909 net.cpp:434] conv4_1_depthwise <- pool3
I0401 11:05:54.337317  1909 net.cpp:408] conv4_1_depthwise -> conv4_1_3x3
I0401 11:05:54.337818  1909 net.cpp:150] Setting up conv4_1_depthwise
I0401 11:05:54.337838  1909 net.cpp:157] Top shape: 1 256 38 38 (369664)
I0401 11:05:54.337885  1909 net.cpp:165] Memory required for data: 193037440
I0401 11:05:54.337900  1909 layer_factory.hpp:77] Creating layer conv4_1_3x3_relu
I0401 11:05:54.337910  1909 net.cpp:100] Creating Layer conv4_1_3x3_relu
I0401 11:05:54.337918  1909 net.cpp:434] conv4_1_3x3_relu <- conv4_1_3x3
I0401 11:05:54.337925  1909 net.cpp:395] conv4_1_3x3_relu -> conv4_1_3x3 (in-place)
I0401 11:05:54.338215  1909 net.cpp:150] Setting up conv4_1_3x3_relu
I0401 11:05:54.338234  1909 net.cpp:157] Top shape: 1 256 38 38 (369664)
I0401 11:05:54.338244  1909 net.cpp:165] Memory required for data: 194516096
I0401 11:05:54.338253  1909 layer_factory.hpp:77] Creating layer conv4_1_1x1
I0401 11:05:54.338268  1909 net.cpp:100] Creating Layer conv4_1_1x1
I0401 11:05:54.338274  1909 net.cpp:434] conv4_1_1x1 <- conv4_1_3x3
I0401 11:05:54.338284  1909 net.cpp:408] conv4_1_1x1 -> conv4_1
I0401 11:05:54.341425  1909 net.cpp:150] Setting up conv4_1_1x1
I0401 11:05:54.341446  1909 net.cpp:157] Top shape: 1 512 38 38 (739328)
I0401 11:05:54.341456  1909 net.cpp:165] Memory required for data: 197473408
I0401 11:05:54.341475  1909 layer_factory.hpp:77] Creating layer relu4_1
I0401 11:05:54.341485  1909 net.cpp:100] Creating Layer relu4_1
I0401 11:05:54.341491  1909 net.cpp:434] relu4_1 <- conv4_1
I0401 11:05:54.341500  1909 net.cpp:395] relu4_1 -> conv4_1 (in-place)
I0401 11:05:54.353848  1909 net.cpp:150] Setting up relu4_1
I0401 11:05:54.353871  1909 net.cpp:157] Top shape: 1 512 38 38 (739328)
I0401 11:05:54.353883  1909 net.cpp:165] Memory required for data: 200430720
I0401 11:05:54.353891  1909 layer_factory.hpp:77] Creating layer conv4_2
I0401 11:05:54.353907  1909 net.cpp:100] Creating Layer conv4_2
I0401 11:05:54.353914  1909 net.cpp:434] conv4_2 <- conv4_1
I0401 11:05:54.353925  1909 net.cpp:408] conv4_2 -> conv4_2
I0401 11:05:54.395668  1909 net.cpp:150] Setting up conv4_2
I0401 11:05:54.409771  1909 net.cpp:157] Top shape: 1 512 38 38 (739328)
I0401 11:05:54.409811  1909 net.cpp:165] Memory required for data: 203388032
I0401 11:05:54.409847  1909 layer_factory.hpp:77] Creating layer relu4_2
I0401 11:05:54.409876  1909 net.cpp:100] Creating Layer relu4_2
I0401 11:05:54.409899  1909 net.cpp:434] relu4_2 <- conv4_2
I0401 11:05:54.409924  1909 net.cpp:395] relu4_2 -> conv4_2 (in-place)
I0401 11:05:54.410199  1909 net.cpp:150] Setting up relu4_2
I0401 11:05:54.410236  1909 net.cpp:157] Top shape: 1 512 38 38 (739328)
I0401 11:05:54.410261  1909 net.cpp:165] Memory required for data: 206345344
I0401 11:05:54.410281  1909 layer_factory.hpp:77] Creating layer conv4_3
I0401 11:05:54.410315  1909 net.cpp:100] Creating Layer conv4_3
I0401 11:05:54.410339  1909 net.cpp:434] conv4_3 <- conv4_2
I0401 11:05:54.410370  1909 net.cpp:408] conv4_3 -> conv4_3
I0401 11:05:54.455924  1909 net.cpp:150] Setting up conv4_3
I0401 11:05:54.456161  1909 net.cpp:157] Top shape: 1 512 38 38 (739328)
I0401 11:05:54.456274  1909 net.cpp:165] Memory required for data: 209302656
I0401 11:05:54.456357  1909 layer_factory.hpp:77] Creating layer relu4_3
I0401 11:05:54.456434  1909 net.cpp:100] Creating Layer relu4_3
I0401 11:05:54.456503  1909 net.cpp:434] relu4_3 <- conv4_3
I0401 11:05:54.456609  1909 net.cpp:395] relu4_3 -> conv4_3 (in-place)
I0401 11:05:54.457778  1909 net.cpp:150] Setting up relu4_3
I0401 11:05:54.457909  1909 net.cpp:157] Top shape: 1 512 38 38 (739328)
I0401 11:05:54.457983  1909 net.cpp:165] Memory required for data: 212259968
I0401 11:05:54.458052  1909 layer_factory.hpp:77] Creating layer conv4_3_relu4_3_0_split
I0401 11:05:54.458132  1909 net.cpp:100] Creating Layer conv4_3_relu4_3_0_split
I0401 11:05:54.458199  1909 net.cpp:434] conv4_3_relu4_3_0_split <- conv4_3
I0401 11:05:54.458273  1909 net.cpp:408] conv4_3_relu4_3_0_split -> conv4_3_relu4_3_0_split_0
I0401 11:05:54.458355  1909 net.cpp:408] conv4_3_relu4_3_0_split -> conv4_3_relu4_3_0_split_1
I0401 11:05:54.458487  1909 net.cpp:150] Setting up conv4_3_relu4_3_0_split
I0401 11:05:54.458555  1909 net.cpp:157] Top shape: 1 512 38 38 (739328)
I0401 11:05:54.458623  1909 net.cpp:157] Top shape: 1 512 38 38 (739328)
I0401 11:05:54.458684  1909 net.cpp:165] Memory required for data: 218174592
I0401 11:05:54.458750  1909 layer_factory.hpp:77] Creating layer pool4
I0401 11:05:54.458855  1909 net.cpp:100] Creating Layer pool4
I0401 11:05:54.458923  1909 net.cpp:434] pool4 <- conv4_3_relu4_3_0_split_0
I0401 11:05:54.458992  1909 net.cpp:408] pool4 -> pool4
I0401 11:05:54.459169  1909 net.cpp:150] Setting up pool4
I0401 11:05:54.459242  1909 net.cpp:157] Top shape: 1 512 19 19 (184832)
I0401 11:05:54.459350  1909 net.cpp:165] Memory required for data: 218913920
I0401 11:05:54.459420  1909 layer_factory.hpp:77] Creating layer conv5_1_depthwise
I0401 11:05:54.459502  1909 net.cpp:100] Creating Layer conv5_1_depthwise
I0401 11:05:54.459607  1909 net.cpp:434] conv5_1_depthwise <- pool4
I0401 11:05:54.459687  1909 net.cpp:408] conv5_1_depthwise -> conv5_1_3x3
I0401 11:05:54.460289  1909 net.cpp:150] Setting up conv5_1_depthwise
I0401 11:05:54.460409  1909 net.cpp:157] Top shape: 1 512 19 19 (184832)
I0401 11:05:54.460506  1909 net.cpp:165] Memory required for data: 219653248
I0401 11:05:54.460582  1909 layer_factory.hpp:77] Creating layer conv5_1_3x3_relu
I0401 11:05:54.460685  1909 net.cpp:100] Creating Layer conv5_1_3x3_relu
I0401 11:05:54.460752  1909 net.cpp:434] conv5_1_3x3_relu <- conv5_1_3x3
I0401 11:05:54.460855  1909 net.cpp:395] conv5_1_3x3_relu -> conv5_1_3x3 (in-place)
I0401 11:05:54.461194  1909 net.cpp:150] Setting up conv5_1_3x3_relu
I0401 11:05:54.473759  1909 net.cpp:157] Top shape: 1 512 19 19 (184832)
I0401 11:05:54.473881  1909 net.cpp:165] Memory required for data: 220392576
I0401 11:05:54.473982  1909 layer_factory.hpp:77] Creating layer conv5_1_1x1
I0401 11:05:54.474069  1909 net.cpp:100] Creating Layer conv5_1_1x1
I0401 11:05:54.474140  1909 net.cpp:434] conv5_1_1x1 <- conv5_1_3x3
I0401 11:05:54.474217  1909 net.cpp:408] conv5_1_1x1 -> conv5_1
I0401 11:05:54.479729  1909 net.cpp:150] Setting up conv5_1_1x1
I0401 11:05:54.479882  1909 net.cpp:157] Top shape: 1 512 19 19 (184832)
I0401 11:05:54.479987  1909 net.cpp:165] Memory required for data: 221131904
I0401 11:05:54.480106  1909 layer_factory.hpp:77] Creating layer relu5_1
I0401 11:05:54.480198  1909 net.cpp:100] Creating Layer relu5_1
I0401 11:05:54.480270  1909 net.cpp:434] relu5_1 <- conv5_1
I0401 11:05:54.480345  1909 net.cpp:395] relu5_1 -> conv5_1 (in-place)
I0401 11:05:54.480696  1909 net.cpp:150] Setting up relu5_1
I0401 11:05:54.480809  1909 net.cpp:157] Top shape: 1 512 19 19 (184832)
I0401 11:05:54.480877  1909 net.cpp:165] Memory required for data: 221871232
I0401 11:05:54.480952  1909 layer_factory.hpp:77] Creating layer conv5_2_depthwise
I0401 11:05:54.481036  1909 net.cpp:100] Creating Layer conv5_2_depthwise
I0401 11:05:54.481114  1909 net.cpp:434] conv5_2_depthwise <- conv5_1
I0401 11:05:54.481207  1909 net.cpp:408] conv5_2_depthwise -> conv5_2_3x3
I0401 11:05:54.481832  1909 net.cpp:150] Setting up conv5_2_depthwise
I0401 11:05:54.481943  1909 net.cpp:157] Top shape: 1 512 19 19 (184832)
I0401 11:05:54.482009  1909 net.cpp:165] Memory required for data: 222610560
I0401 11:05:54.482087  1909 layer_factory.hpp:77] Creating layer conv5_2_3x3_relu
I0401 11:05:54.482158  1909 net.cpp:100] Creating Layer conv5_2_3x3_relu
I0401 11:05:54.482228  1909 net.cpp:434] conv5_2_3x3_relu <- conv5_2_3x3
I0401 11:05:54.482300  1909 net.cpp:395] conv5_2_3x3_relu -> conv5_2_3x3 (in-place)
I0401 11:05:54.483511  1909 net.cpp:150] Setting up conv5_2_3x3_relu
I0401 11:05:54.483638  1909 net.cpp:157] Top shape: 1 512 19 19 (184832)
I0401 11:05:54.483703  1909 net.cpp:165] Memory required for data: 223349888
I0401 11:05:54.483770  1909 layer_factory.hpp:77] Creating layer conv5_2_1x1
I0401 11:05:54.483850  1909 net.cpp:100] Creating Layer conv5_2_1x1
I0401 11:05:54.483916  1909 net.cpp:434] conv5_2_1x1 <- conv5_2_3x3
I0401 11:05:54.484091  1909 net.cpp:408] conv5_2_1x1 -> conv5_2
I0401 11:05:54.499003  1909 net.cpp:150] Setting up conv5_2_1x1
I0401 11:05:54.499027  1909 net.cpp:157] Top shape: 1 512 19 19 (184832)
I0401 11:05:54.499033  1909 net.cpp:165] Memory required for data: 224089216
I0401 11:05:54.499045  1909 layer_factory.hpp:77] Creating layer relu5_2
I0401 11:05:54.499054  1909 net.cpp:100] Creating Layer relu5_2
I0401 11:05:54.499063  1909 net.cpp:434] relu5_2 <- conv5_2
I0401 11:05:54.499073  1909 net.cpp:395] relu5_2 -> conv5_2 (in-place)
I0401 11:05:54.499315  1909 net.cpp:150] Setting up relu5_2
I0401 11:05:54.499326  1909 net.cpp:157] Top shape: 1 512 19 19 (184832)
I0401 11:05:54.499333  1909 net.cpp:165] Memory required for data: 224828544
I0401 11:05:54.499339  1909 layer_factory.hpp:77] Creating layer conv5_3_depthwise
I0401 11:05:54.499352  1909 net.cpp:100] Creating Layer conv5_3_depthwise
I0401 11:05:54.499358  1909 net.cpp:434] conv5_3_depthwise <- conv5_2
I0401 11:05:54.499370  1909 net.cpp:408] conv5_3_depthwise -> conv5_3_3x3
I0401 11:05:54.499774  1909 net.cpp:150] Setting up conv5_3_depthwise
I0401 11:05:54.499786  1909 net.cpp:157] Top shape: 1 512 19 19 (184832)
I0401 11:05:54.499791  1909 net.cpp:165] Memory required for data: 225567872
I0401 11:05:54.499802  1909 layer_factory.hpp:77] Creating layer conv5_3_3x3_relu
I0401 11:05:54.499812  1909 net.cpp:100] Creating Layer conv5_3_3x3_relu
I0401 11:05:54.499819  1909 net.cpp:434] conv5_3_3x3_relu <- conv5_3_3x3
I0401 11:05:54.499826  1909 net.cpp:395] conv5_3_3x3_relu -> conv5_3_3x3 (in-place)
I0401 11:05:54.500064  1909 net.cpp:150] Setting up conv5_3_3x3_relu
I0401 11:05:54.500075  1909 net.cpp:157] Top shape: 1 512 19 19 (184832)
I0401 11:05:54.500082  1909 net.cpp:165] Memory required for data: 226307200
I0401 11:05:54.500087  1909 layer_factory.hpp:77] Creating layer conv5_3_1x1
I0401 11:05:54.500102  1909 net.cpp:100] Creating Layer conv5_3_1x1
I0401 11:05:54.500109  1909 net.cpp:434] conv5_3_1x1 <- conv5_3_3x3
I0401 11:05:54.500118  1909 net.cpp:408] conv5_3_1x1 -> conv5_3
I0401 11:05:54.505857  1909 net.cpp:150] Setting up conv5_3_1x1
I0401 11:05:54.505957  1909 net.cpp:157] Top shape: 1 512 19 19 (184832)
I0401 11:05:54.506029  1909 net.cpp:165] Memory required for data: 227046528
I0401 11:05:54.506119  1909 layer_factory.hpp:77] Creating layer relu5_3
I0401 11:05:54.506235  1909 net.cpp:100] Creating Layer relu5_3
I0401 11:05:54.506306  1909 net.cpp:434] relu5_3 <- conv5_3
I0401 11:05:54.506381  1909 net.cpp:395] relu5_3 -> conv5_3 (in-place)
I0401 11:05:54.507588  1909 net.cpp:150] Setting up relu5_3
I0401 11:05:54.507679  1909 net.cpp:157] Top shape: 1 512 19 19 (184832)
I0401 11:05:54.507748  1909 net.cpp:165] Memory required for data: 227785856
I0401 11:05:54.507853  1909 layer_factory.hpp:77] Creating layer pool5
I0401 11:05:54.507931  1909 net.cpp:100] Creating Layer pool5
I0401 11:05:54.508002  1909 net.cpp:434] pool5 <- conv5_3
I0401 11:05:54.508076  1909 net.cpp:408] pool5 -> pool5
I0401 11:05:54.508242  1909 net.cpp:150] Setting up pool5
I0401 11:05:54.508327  1909 net.cpp:157] Top shape: 1 512 19 19 (184832)
I0401 11:05:54.508394  1909 net.cpp:165] Memory required for data: 228525184
I0401 11:05:54.508466  1909 layer_factory.hpp:77] Creating layer fc6_depthwise
I0401 11:05:54.508548  1909 net.cpp:100] Creating Layer fc6_depthwise
I0401 11:05:54.508616  1909 net.cpp:434] fc6_depthwise <- pool5
I0401 11:05:54.508694  1909 net.cpp:408] fc6_depthwise -> fc6_3x3
I0401 11:05:54.509191  1909 net.cpp:150] Setting up fc6_depthwise
I0401 11:05:54.509268  1909 net.cpp:157] Top shape: 1 512 19 19 (184832)
I0401 11:05:54.509332  1909 net.cpp:165] Memory required for data: 229264512
I0401 11:05:54.509404  1909 layer_factory.hpp:77] Creating layer fc6_3x3_relu
I0401 11:05:54.509479  1909 net.cpp:100] Creating Layer fc6_3x3_relu
I0401 11:05:54.509547  1909 net.cpp:434] fc6_3x3_relu <- fc6_3x3
I0401 11:05:54.509619  1909 net.cpp:395] fc6_3x3_relu -> fc6_3x3 (in-place)
I0401 11:05:54.511598  1909 net.cpp:150] Setting up fc6_3x3_relu
I0401 11:05:54.511679  1909 net.cpp:157] Top shape: 1 512 19 19 (184832)
I0401 11:05:54.511744  1909 net.cpp:165] Memory required for data: 230003840
I0401 11:05:54.511848  1909 layer_factory.hpp:77] Creating layer fc6_1x1
I0401 11:05:54.511926  1909 net.cpp:100] Creating Layer fc6_1x1
I0401 11:05:54.511994  1909 net.cpp:434] fc6_1x1 <- fc6_3x3
I0401 11:05:54.512071  1909 net.cpp:408] fc6_1x1 -> fc6
I0401 11:05:54.534260  1909 net.cpp:150] Setting up fc6_1x1
I0401 11:05:54.534441  1909 net.cpp:157] Top shape: 1 1024 19 19 (369664)
I0401 11:05:54.534554  1909 net.cpp:165] Memory required for data: 231482496
I0401 11:05:54.534632  1909 layer_factory.hpp:77] Creating layer relu6
I0401 11:05:54.534706  1909 net.cpp:100] Creating Layer relu6
I0401 11:05:54.534813  1909 net.cpp:434] relu6 <- fc6
I0401 11:05:54.534925  1909 net.cpp:395] relu6 -> fc6 (in-place)
I0401 11:05:54.535326  1909 net.cpp:150] Setting up relu6
I0401 11:05:54.535477  1909 net.cpp:157] Top shape: 1 1024 19 19 (369664)
I0401 11:05:54.535547  1909 net.cpp:165] Memory required for data: 232961152
I0401 11:05:54.535655  1909 layer_factory.hpp:77] Creating layer fc7
I0401 11:05:54.535738  1909 net.cpp:100] Creating Layer fc7
I0401 11:05:54.535809  1909 net.cpp:434] fc7 <- fc6
I0401 11:05:54.535926  1909 net.cpp:408] fc7 -> fc7
I0401 11:05:54.548982  1909 net.cpp:150] Setting up fc7
I0401 11:05:54.561774  1909 net.cpp:157] Top shape: 1 1024 19 19 (369664)
I0401 11:05:54.561915  1909 net.cpp:165] Memory required for data: 234439808
I0401 11:05:54.562048  1909 layer_factory.hpp:77] Creating layer relu7
I0401 11:05:54.562135  1909 net.cpp:100] Creating Layer relu7
I0401 11:05:54.562248  1909 net.cpp:434] relu7 <- fc7
I0401 11:05:54.562326  1909 net.cpp:395] relu7 -> fc7 (in-place)
I0401 11:05:54.562773  1909 net.cpp:150] Setting up relu7
I0401 11:05:54.562913  1909 net.cpp:157] Top shape: 1 1024 19 19 (369664)
I0401 11:05:54.563016  1909 net.cpp:165] Memory required for data: 235918464
I0401 11:05:54.563088  1909 layer_factory.hpp:77] Creating layer fc7_relu7_0_split
I0401 11:05:54.563168  1909 net.cpp:100] Creating Layer fc7_relu7_0_split
I0401 11:05:54.563272  1909 net.cpp:434] fc7_relu7_0_split <- fc7
I0401 11:05:54.563347  1909 net.cpp:408] fc7_relu7_0_split -> fc7_relu7_0_split_0
I0401 11:05:54.563465  1909 net.cpp:408] fc7_relu7_0_split -> fc7_relu7_0_split_1
I0401 11:05:54.563545  1909 net.cpp:408] fc7_relu7_0_split -> fc7_relu7_0_split_2
I0401 11:05:54.563622  1909 net.cpp:408] fc7_relu7_0_split -> fc7_relu7_0_split_3
I0401 11:05:54.563866  1909 net.cpp:150] Setting up fc7_relu7_0_split
I0401 11:05:54.563951  1909 net.cpp:157] Top shape: 1 1024 19 19 (369664)
I0401 11:05:54.564021  1909 net.cpp:157] Top shape: 1 1024 19 19 (369664)
I0401 11:05:54.564092  1909 net.cpp:157] Top shape: 1 1024 19 19 (369664)
I0401 11:05:54.564162  1909 net.cpp:157] Top shape: 1 1024 19 19 (369664)
I0401 11:05:54.564229  1909 net.cpp:165] Memory required for data: 241833088
I0401 11:05:54.564298  1909 layer_factory.hpp:77] Creating layer conv6_1
I0401 11:05:54.564397  1909 net.cpp:100] Creating Layer conv6_1
I0401 11:05:54.564477  1909 net.cpp:434] conv6_1 <- fc7_relu7_0_split_0
I0401 11:05:54.564554  1909 net.cpp:408] conv6_1 -> conv6_1
I0401 11:05:54.569093  1909 net.cpp:150] Setting up conv6_1
I0401 11:05:54.569224  1909 net.cpp:157] Top shape: 1 256 19 19 (92416)
I0401 11:05:54.569336  1909 net.cpp:165] Memory required for data: 242202752
I0401 11:05:54.569411  1909 layer_factory.hpp:77] Creating layer conv6_1_relu
I0401 11:05:54.569481  1909 net.cpp:100] Creating Layer conv6_1_relu
I0401 11:05:54.569597  1909 net.cpp:434] conv6_1_relu <- conv6_1
I0401 11:05:54.569670  1909 net.cpp:395] conv6_1_relu -> conv6_1 (in-place)
I0401 11:05:54.570853  1909 net.cpp:150] Setting up conv6_1_relu
I0401 11:05:54.570976  1909 net.cpp:157] Top shape: 1 256 19 19 (92416)
I0401 11:05:54.571041  1909 net.cpp:165] Memory required for data: 242572416
I0401 11:05:54.571106  1909 layer_factory.hpp:77] Creating layer conv6_2_depthwise
I0401 11:05:54.571182  1909 net.cpp:100] Creating Layer conv6_2_depthwise
I0401 11:05:54.571249  1909 net.cpp:434] conv6_2_depthwise <- conv6_1
I0401 11:05:54.571324  1909 net.cpp:408] conv6_2_depthwise -> conv6_2_3x3
I0401 11:05:54.571869  1909 net.cpp:150] Setting up conv6_2_depthwise
I0401 11:05:54.571974  1909 net.cpp:157] Top shape: 1 256 10 10 (25600)
I0401 11:05:54.572074  1909 net.cpp:165] Memory required for data: 242674816
I0401 11:05:54.572149  1909 layer_factory.hpp:77] Creating layer conv6_2_3x3_relu
I0401 11:05:54.572222  1909 net.cpp:100] Creating Layer conv6_2_3x3_relu
I0401 11:05:54.572288  1909 net.cpp:434] conv6_2_3x3_relu <- conv6_2_3x3
I0401 11:05:54.572392  1909 net.cpp:395] conv6_2_3x3_relu -> conv6_2_3x3 (in-place)
I0401 11:05:54.572731  1909 net.cpp:150] Setting up conv6_2_3x3_relu
I0401 11:05:54.572834  1909 net.cpp:157] Top shape: 1 256 10 10 (25600)
I0401 11:05:54.572898  1909 net.cpp:165] Memory required for data: 242777216
I0401 11:05:54.572964  1909 layer_factory.hpp:77] Creating layer conv6_2_1x1
I0401 11:05:54.573077  1909 net.cpp:100] Creating Layer conv6_2_1x1
I0401 11:05:54.573143  1909 net.cpp:434] conv6_2_1x1 <- conv6_2_3x3
I0401 11:05:54.573213  1909 net.cpp:408] conv6_2_1x1 -> conv6_2
I0401 11:05:54.577631  1909 net.cpp:150] Setting up conv6_2_1x1
I0401 11:05:54.577780  1909 net.cpp:157] Top shape: 1 512 10 10 (51200)
I0401 11:05:54.577884  1909 net.cpp:165] Memory required for data: 242982016
I0401 11:05:54.577956  1909 layer_factory.hpp:77] Creating layer conv6_2_relu
I0401 11:05:54.579061  1909 net.cpp:100] Creating Layer conv6_2_relu
I0401 11:05:54.579146  1909 net.cpp:434] conv6_2_relu <- conv6_2
I0401 11:05:54.579221  1909 net.cpp:395] conv6_2_relu -> conv6_2 (in-place)
I0401 11:05:54.579593  1909 net.cpp:150] Setting up conv6_2_relu
I0401 11:05:54.579735  1909 net.cpp:157] Top shape: 1 512 10 10 (51200)
I0401 11:05:54.579829  1909 net.cpp:165] Memory required for data: 243186816
I0401 11:05:54.579897  1909 layer_factory.hpp:77] Creating layer conv6_2_conv6_2_relu_0_split
I0401 11:05:54.580003  1909 net.cpp:100] Creating Layer conv6_2_conv6_2_relu_0_split
I0401 11:05:54.580070  1909 net.cpp:434] conv6_2_conv6_2_relu_0_split <- conv6_2
I0401 11:05:54.580153  1909 net.cpp:408] conv6_2_conv6_2_relu_0_split -> conv6_2_conv6_2_relu_0_split_0
I0401 11:05:54.580274  1909 net.cpp:408] conv6_2_conv6_2_relu_0_split -> conv6_2_conv6_2_relu_0_split_1
I0401 11:05:54.580346  1909 net.cpp:408] conv6_2_conv6_2_relu_0_split -> conv6_2_conv6_2_relu_0_split_2
I0401 11:05:54.580420  1909 net.cpp:408] conv6_2_conv6_2_relu_0_split -> conv6_2_conv6_2_relu_0_split_3
I0401 11:05:54.580623  1909 net.cpp:150] Setting up conv6_2_conv6_2_relu_0_split
I0401 11:05:54.580694  1909 net.cpp:157] Top shape: 1 512 10 10 (51200)
I0401 11:05:54.580761  1909 net.cpp:157] Top shape: 1 512 10 10 (51200)
I0401 11:05:54.580826  1909 net.cpp:157] Top shape: 1 512 10 10 (51200)
I0401 11:05:54.580893  1909 net.cpp:157] Top shape: 1 512 10 10 (51200)
I0401 11:05:54.580953  1909 net.cpp:165] Memory required for data: 244006016
I0401 11:05:54.581024  1909 layer_factory.hpp:77] Creating layer conv7_1
I0401 11:05:54.581110  1909 net.cpp:100] Creating Layer conv7_1
I0401 11:05:54.581176  1909 net.cpp:434] conv7_1 <- conv6_2_conv6_2_relu_0_split_0
I0401 11:05:54.581259  1909 net.cpp:408] conv7_1 -> conv7_1
I0401 11:05:54.586400  1909 net.cpp:150] Setting up conv7_1
I0401 11:05:54.587569  1909 net.cpp:157] Top shape: 1 128 10 10 (12800)
I0401 11:05:54.587736  1909 net.cpp:165] Memory required for data: 244057216
I0401 11:05:54.587813  1909 layer_factory.hpp:77] Creating layer conv7_1_relu
I0401 11:05:54.587934  1909 net.cpp:100] Creating Layer conv7_1_relu
I0401 11:05:54.588003  1909 net.cpp:434] conv7_1_relu <- conv7_1
I0401 11:05:54.588078  1909 net.cpp:395] conv7_1_relu -> conv7_1 (in-place)
I0401 11:05:54.590396  1909 net.cpp:150] Setting up conv7_1_relu
I0401 11:05:54.590530  1909 net.cpp:157] Top shape: 1 128 10 10 (12800)
I0401 11:05:54.590639  1909 net.cpp:165] Memory required for data: 244108416
I0401 11:05:54.590711  1909 layer_factory.hpp:77] Creating layer conv7_2
I0401 11:05:54.590837  1909 net.cpp:100] Creating Layer conv7_2
I0401 11:05:54.590907  1909 net.cpp:434] conv7_2 <- conv7_1
I0401 11:05:54.591022  1909 net.cpp:408] conv7_2 -> conv7_2
I0401 11:05:54.602252  1909 net.cpp:150] Setting up conv7_2
I0401 11:05:54.603472  1909 net.cpp:157] Top shape: 1 256 5 5 (6400)
I0401 11:05:54.603591  1909 net.cpp:165] Memory required for data: 244134016
I0401 11:05:54.603669  1909 layer_factory.hpp:77] Creating layer conv7_2_relu
I0401 11:05:54.603742  1909 net.cpp:100] Creating Layer conv7_2_relu
I0401 11:05:54.603809  1909 net.cpp:434] conv7_2_relu <- conv7_2
I0401 11:05:54.603883  1909 net.cpp:395] conv7_2_relu -> conv7_2 (in-place)
I0401 11:05:54.604185  1909 net.cpp:150] Setting up conv7_2_relu
I0401 11:05:54.604293  1909 net.cpp:157] Top shape: 1 256 5 5 (6400)
I0401 11:05:54.604357  1909 net.cpp:165] Memory required for data: 244159616
I0401 11:05:54.604425  1909 layer_factory.hpp:77] Creating layer conv7_2_conv7_2_relu_0_split
I0401 11:05:54.604544  1909 net.cpp:100] Creating Layer conv7_2_conv7_2_relu_0_split
I0401 11:05:54.604612  1909 net.cpp:434] conv7_2_conv7_2_relu_0_split <- conv7_2
I0401 11:05:54.604691  1909 net.cpp:408] conv7_2_conv7_2_relu_0_split -> conv7_2_conv7_2_relu_0_split_0
I0401 11:05:54.604768  1909 net.cpp:408] conv7_2_conv7_2_relu_0_split -> conv7_2_conv7_2_relu_0_split_1
I0401 11:05:54.604876  1909 net.cpp:408] conv7_2_conv7_2_relu_0_split -> conv7_2_conv7_2_relu_0_split_2
I0401 11:05:54.604952  1909 net.cpp:408] conv7_2_conv7_2_relu_0_split -> conv7_2_conv7_2_relu_0_split_3
I0401 11:05:54.605165  1909 net.cpp:150] Setting up conv7_2_conv7_2_relu_0_split
I0401 11:05:54.605602  1909 net.cpp:157] Top shape: 1 256 5 5 (6400)
I0401 11:05:54.605684  1909 net.cpp:157] Top shape: 1 256 5 5 (6400)
I0401 11:05:54.605773  1909 net.cpp:157] Top shape: 1 256 5 5 (6400)
I0401 11:05:54.605875  1909 net.cpp:157] Top shape: 1 256 5 5 (6400)
I0401 11:05:54.605937  1909 net.cpp:165] Memory required for data: 244262016
I0401 11:05:54.606004  1909 layer_factory.hpp:77] Creating layer conv8_1
I0401 11:05:54.606119  1909 net.cpp:100] Creating Layer conv8_1
I0401 11:05:54.606186  1909 net.cpp:434] conv8_1 <- conv7_2_conv7_2_relu_0_split_0
I0401 11:05:54.606259  1909 net.cpp:408] conv8_1 -> conv8_1
I0401 11:05:54.611968  1909 net.cpp:150] Setting up conv8_1
I0401 11:05:54.612102  1909 net.cpp:157] Top shape: 1 128 5 5 (3200)
I0401 11:05:54.612176  1909 net.cpp:165] Memory required for data: 244274816
I0401 11:05:54.612254  1909 layer_factory.hpp:77] Creating layer conv8_1_relu
I0401 11:05:54.612330  1909 net.cpp:100] Creating Layer conv8_1_relu
I0401 11:05:54.612403  1909 net.cpp:434] conv8_1_relu <- conv8_1
I0401 11:05:54.612478  1909 net.cpp:395] conv8_1_relu -> conv8_1 (in-place)
I0401 11:05:54.612824  1909 net.cpp:150] Setting up conv8_1_relu
I0401 11:05:54.612938  1909 net.cpp:157] Top shape: 1 128 5 5 (3200)
I0401 11:05:54.613016  1909 net.cpp:165] Memory required for data: 244287616
I0401 11:05:54.613085  1909 layer_factory.hpp:77] Creating layer conv8_2
I0401 11:05:54.613173  1909 net.cpp:100] Creating Layer conv8_2
I0401 11:05:54.613253  1909 net.cpp:434] conv8_2 <- conv8_1
I0401 11:05:54.613330  1909 net.cpp:408] conv8_2 -> conv8_2
I0401 11:05:54.626310  1909 net.cpp:150] Setting up conv8_2
I0401 11:05:54.626835  1909 net.cpp:157] Top shape: 1 256 3 3 (2304)
I0401 11:05:54.626924  1909 net.cpp:165] Memory required for data: 244296832
I0401 11:05:54.627007  1909 layer_factory.hpp:77] Creating layer conv8_2_relu
I0401 11:05:54.627095  1909 net.cpp:100] Creating Layer conv8_2_relu
I0401 11:05:54.627163  1909 net.cpp:434] conv8_2_relu <- conv8_2
I0401 11:05:54.627235  1909 net.cpp:395] conv8_2_relu -> conv8_2 (in-place)
I0401 11:05:54.629442  1909 net.cpp:150] Setting up conv8_2_relu
I0401 11:05:54.629568  1909 net.cpp:157] Top shape: 1 256 3 3 (2304)
I0401 11:05:54.629664  1909 net.cpp:165] Memory required for data: 244306048
I0401 11:05:54.629756  1909 layer_factory.hpp:77] Creating layer conv8_2_conv8_2_relu_0_split
I0401 11:05:54.629863  1909 net.cpp:100] Creating Layer conv8_2_conv8_2_relu_0_split
I0401 11:05:54.629930  1909 net.cpp:434] conv8_2_conv8_2_relu_0_split <- conv8_2
I0401 11:05:54.630048  1909 net.cpp:408] conv8_2_conv8_2_relu_0_split -> conv8_2_conv8_2_relu_0_split_0
I0401 11:05:54.631083  1909 net.cpp:408] conv8_2_conv8_2_relu_0_split -> conv8_2_conv8_2_relu_0_split_1
I0401 11:05:54.631175  1909 net.cpp:408] conv8_2_conv8_2_relu_0_split -> conv8_2_conv8_2_relu_0_split_2
I0401 11:05:54.631253  1909 net.cpp:408] conv8_2_conv8_2_relu_0_split -> conv8_2_conv8_2_relu_0_split_3
I0401 11:05:54.631472  1909 net.cpp:150] Setting up conv8_2_conv8_2_relu_0_split
I0401 11:05:54.631609  1909 net.cpp:157] Top shape: 1 256 3 3 (2304)
I0401 11:05:54.631676  1909 net.cpp:157] Top shape: 1 256 3 3 (2304)
I0401 11:05:54.631742  1909 net.cpp:157] Top shape: 1 256 3 3 (2304)
I0401 11:05:54.631841  1909 net.cpp:157] Top shape: 1 256 3 3 (2304)
I0401 11:05:54.631907  1909 net.cpp:165] Memory required for data: 244342912
I0401 11:05:54.631974  1909 layer_factory.hpp:77] Creating layer conv9_1
I0401 11:05:54.632074  1909 net.cpp:100] Creating Layer conv9_1
I0401 11:05:54.632150  1909 net.cpp:434] conv9_1 <- conv8_2_conv8_2_relu_0_split_0
I0401 11:05:54.632227  1909 net.cpp:408] conv9_1 -> conv9_1
I0401 11:05:54.639144  1909 net.cpp:150] Setting up conv9_1
I0401 11:05:54.639271  1909 net.cpp:157] Top shape: 1 128 3 3 (1152)
I0401 11:05:54.639340  1909 net.cpp:165] Memory required for data: 244347520
I0401 11:05:54.639420  1909 layer_factory.hpp:77] Creating layer conv9_1_relu
I0401 11:05:54.639493  1909 net.cpp:100] Creating Layer conv9_1_relu
I0401 11:05:54.639565  1909 net.cpp:434] conv9_1_relu <- conv9_1
I0401 11:05:54.639647  1909 net.cpp:395] conv9_1_relu -> conv9_1 (in-place)
I0401 11:05:54.641077  1909 net.cpp:150] Setting up conv9_1_relu
I0401 11:05:54.641196  1909 net.cpp:157] Top shape: 1 128 3 3 (1152)
I0401 11:05:54.641263  1909 net.cpp:165] Memory required for data: 244352128
I0401 11:05:54.641335  1909 layer_factory.hpp:77] Creating layer conv9_2
I0401 11:05:54.641417  1909 net.cpp:100] Creating Layer conv9_2
I0401 11:05:54.641489  1909 net.cpp:434] conv9_2 <- conv9_1
I0401 11:05:54.641568  1909 net.cpp:408] conv9_2 -> conv9_2
I0401 11:05:54.654870  1909 net.cpp:150] Setting up conv9_2
I0401 11:05:54.655017  1909 net.cpp:157] Top shape: 1 256 1 1 (256)
I0401 11:05:54.655127  1909 net.cpp:165] Memory required for data: 244353152
I0401 11:05:54.655205  1909 layer_factory.hpp:77] Creating layer conv9_2_relu
I0401 11:05:54.655278  1909 net.cpp:100] Creating Layer conv9_2_relu
I0401 11:05:54.655383  1909 net.cpp:434] conv9_2_relu <- conv9_2
I0401 11:05:54.655460  1909 net.cpp:395] conv9_2_relu -> conv9_2 (in-place)
I0401 11:05:54.655820  1909 net.cpp:150] Setting up conv9_2_relu
I0401 11:05:54.655972  1909 net.cpp:157] Top shape: 1 256 1 1 (256)
I0401 11:05:54.656034  1909 net.cpp:165] Memory required for data: 244354176
I0401 11:05:54.656102  1909 layer_factory.hpp:77] Creating layer conv9_2_conv9_2_relu_0_split
I0401 11:05:54.656208  1909 net.cpp:100] Creating Layer conv9_2_conv9_2_relu_0_split
I0401 11:05:54.656291  1909 net.cpp:434] conv9_2_conv9_2_relu_0_split <- conv9_2
I0401 11:05:54.656399  1909 net.cpp:408] conv9_2_conv9_2_relu_0_split -> conv9_2_conv9_2_relu_0_split_0
I0401 11:05:54.656477  1909 net.cpp:408] conv9_2_conv9_2_relu_0_split -> conv9_2_conv9_2_relu_0_split_1
I0401 11:05:54.656584  1909 net.cpp:408] conv9_2_conv9_2_relu_0_split -> conv9_2_conv9_2_relu_0_split_2
I0401 11:05:54.656741  1909 net.cpp:150] Setting up conv9_2_conv9_2_relu_0_split
I0401 11:05:54.656898  1909 net.cpp:157] Top shape: 1 256 1 1 (256)
I0401 11:05:54.657956  1909 net.cpp:157] Top shape: 1 256 1 1 (256)
I0401 11:05:54.658041  1909 net.cpp:157] Top shape: 1 256 1 1 (256)
I0401 11:05:54.658104  1909 net.cpp:165] Memory required for data: 244357248
I0401 11:05:54.658205  1909 layer_factory.hpp:77] Creating layer conv4_3_norm
I0401 11:05:54.658280  1909 net.cpp:100] Creating Layer conv4_3_norm
I0401 11:05:54.658347  1909 net.cpp:434] conv4_3_norm <- conv4_3_relu4_3_0_split_1
I0401 11:05:54.658453  1909 net.cpp:408] conv4_3_norm -> conv4_3_norm
I0401 11:05:54.658846  1909 net.cpp:150] Setting up conv4_3_norm
I0401 11:05:54.658970  1909 net.cpp:157] Top shape: 1 512 38 38 (739328)
I0401 11:05:54.659046  1909 net.cpp:165] Memory required for data: 247314560
I0401 11:05:54.659150  1909 layer_factory.hpp:77] Creating layer conv4_3_norm_conv4_3_norm_0_split
I0401 11:05:54.659222  1909 net.cpp:100] Creating Layer conv4_3_norm_conv4_3_norm_0_split
I0401 11:05:54.659288  1909 net.cpp:434] conv4_3_norm_conv4_3_norm_0_split <- conv4_3_norm
I0401 11:05:54.659361  1909 net.cpp:408] conv4_3_norm_conv4_3_norm_0_split -> conv4_3_norm_conv4_3_norm_0_split_0
I0401 11:05:54.659485  1909 net.cpp:408] conv4_3_norm_conv4_3_norm_0_split -> conv4_3_norm_conv4_3_norm_0_split_1
I0401 11:05:54.659557  1909 net.cpp:408] conv4_3_norm_conv4_3_norm_0_split -> conv4_3_norm_conv4_3_norm_0_split_2
I0401 11:05:54.659740  1909 net.cpp:150] Setting up conv4_3_norm_conv4_3_norm_0_split
I0401 11:05:54.659833  1909 net.cpp:157] Top shape: 1 512 38 38 (739328)
I0401 11:05:54.659900  1909 net.cpp:157] Top shape: 1 512 38 38 (739328)
I0401 11:05:54.659965  1909 net.cpp:157] Top shape: 1 512 38 38 (739328)
I0401 11:05:54.660073  1909 net.cpp:165] Memory required for data: 256186496
I0401 11:05:54.660138  1909 layer_factory.hpp:77] Creating layer conv4_3_norm_mbox_loc
I0401 11:05:54.660218  1909 net.cpp:100] Creating Layer conv4_3_norm_mbox_loc
I0401 11:05:54.661134  1909 net.cpp:434] conv4_3_norm_mbox_loc <- conv4_3_norm_conv4_3_norm_0_split_0
I0401 11:05:54.661227  1909 net.cpp:408] conv4_3_norm_mbox_loc -> conv4_3_norm_mbox_loc
I0401 11:05:54.668237  1909 net.cpp:150] Setting up conv4_3_norm_mbox_loc
I0401 11:05:54.668401  1909 net.cpp:157] Top shape: 1 16 38 38 (23104)
I0401 11:05:54.668478  1909 net.cpp:165] Memory required for data: 256278912
I0401 11:05:54.668558  1909 layer_factory.hpp:77] Creating layer conv4_3_norm_mbox_loc_perm
I0401 11:05:54.668650  1909 net.cpp:100] Creating Layer conv4_3_norm_mbox_loc_perm
I0401 11:05:54.668720  1909 net.cpp:434] conv4_3_norm_mbox_loc_perm <- conv4_3_norm_mbox_loc
I0401 11:05:54.668797  1909 net.cpp:408] conv4_3_norm_mbox_loc_perm -> conv4_3_norm_mbox_loc_perm
I0401 11:05:54.669205  1909 net.cpp:150] Setting up conv4_3_norm_mbox_loc_perm
I0401 11:05:54.669754  1909 net.cpp:157] Top shape: 1 38 38 16 (23104)
I0401 11:05:54.669879  1909 net.cpp:165] Memory required for data: 256371328
I0401 11:05:54.669987  1909 layer_factory.hpp:77] Creating layer conv4_3_norm_mbox_loc_flat
I0401 11:05:54.670068  1909 net.cpp:100] Creating Layer conv4_3_norm_mbox_loc_flat
I0401 11:05:54.670178  1909 net.cpp:434] conv4_3_norm_mbox_loc_flat <- conv4_3_norm_mbox_loc_perm
I0401 11:05:54.670774  1909 net.cpp:408] conv4_3_norm_mbox_loc_flat -> conv4_3_norm_mbox_loc_flat
I0401 11:05:54.670940  1909 net.cpp:150] Setting up conv4_3_norm_mbox_loc_flat
I0401 11:05:54.671020  1909 net.cpp:157] Top shape: 1 23104 (23104)
I0401 11:05:54.671090  1909 net.cpp:165] Memory required for data: 256463744
I0401 11:05:54.671205  1909 layer_factory.hpp:77] Creating layer conv4_3_norm_mbox_conf
I0401 11:05:54.671301  1909 net.cpp:100] Creating Layer conv4_3_norm_mbox_conf
I0401 11:05:54.671372  1909 net.cpp:434] conv4_3_norm_mbox_conf <- conv4_3_norm_conv4_3_norm_0_split_1
I0401 11:05:54.671490  1909 net.cpp:408] conv4_3_norm_mbox_conf -> conv4_3_norm_mbox_conf
I0401 11:05:54.681201  1909 net.cpp:150] Setting up conv4_3_norm_mbox_conf
I0401 11:05:54.682430  1909 net.cpp:157] Top shape: 1 44 38 38 (63536)
I0401 11:05:54.682554  1909 net.cpp:165] Memory required for data: 256717888
I0401 11:05:54.682668  1909 layer_factory.hpp:77] Creating layer conv4_3_norm_mbox_conf_perm
I0401 11:05:54.683491  1909 net.cpp:100] Creating Layer conv4_3_norm_mbox_conf_perm
I0401 11:05:54.683580  1909 net.cpp:434] conv4_3_norm_mbox_conf_perm <- conv4_3_norm_mbox_conf
I0401 11:05:54.683668  1909 net.cpp:408] conv4_3_norm_mbox_conf_perm -> conv4_3_norm_mbox_conf_perm
I0401 11:05:54.683928  1909 net.cpp:150] Setting up conv4_3_norm_mbox_conf_perm
I0401 11:05:54.684038  1909 net.cpp:157] Top shape: 1 38 38 44 (63536)
I0401 11:05:54.684171  1909 net.cpp:165] Memory required for data: 256972032
I0401 11:05:54.684275  1909 layer_factory.hpp:77] Creating layer conv4_3_norm_mbox_conf_flat
I0401 11:05:54.684350  1909 net.cpp:100] Creating Layer conv4_3_norm_mbox_conf_flat
I0401 11:05:54.684556  1909 net.cpp:434] conv4_3_norm_mbox_conf_flat <- conv4_3_norm_mbox_conf_perm
I0401 11:05:54.684664  1909 net.cpp:408] conv4_3_norm_mbox_conf_flat -> conv4_3_norm_mbox_conf_flat
I0401 11:05:54.684782  1909 net.cpp:150] Setting up conv4_3_norm_mbox_conf_flat
I0401 11:05:54.684852  1909 net.cpp:157] Top shape: 1 63536 (63536)
I0401 11:05:54.684957  1909 net.cpp:165] Memory required for data: 257226176
I0401 11:05:54.685024  1909 layer_factory.hpp:77] Creating layer conv4_3_norm_mbox_priorbox
I0401 11:05:54.685134  1909 net.cpp:100] Creating Layer conv4_3_norm_mbox_priorbox
I0401 11:05:54.685202  1909 net.cpp:434] conv4_3_norm_mbox_priorbox <- conv4_3_norm_conv4_3_norm_0_split_2
I0401 11:05:54.685274  1909 net.cpp:434] conv4_3_norm_mbox_priorbox <- data_data_0_split_1
I0401 11:05:54.685385  1909 net.cpp:408] conv4_3_norm_mbox_priorbox -> conv4_3_norm_mbox_priorbox
I0401 11:05:54.685508  1909 net.cpp:150] Setting up conv4_3_norm_mbox_priorbox
I0401 11:05:54.686686  1909 net.cpp:157] Top shape: 1 2 23104 (46208)
I0401 11:05:54.686772  1909 net.cpp:165] Memory required for data: 257411008
I0401 11:05:54.686843  1909 layer_factory.hpp:77] Creating layer fc7_mbox_loc
I0401 11:05:54.686960  1909 net.cpp:100] Creating Layer fc7_mbox_loc
I0401 11:05:54.687033  1909 net.cpp:434] fc7_mbox_loc <- fc7_relu7_0_split_1
I0401 11:05:54.687141  1909 net.cpp:408] fc7_mbox_loc -> fc7_mbox_loc
I0401 11:05:54.698289  1909 net.cpp:150] Setting up fc7_mbox_loc
I0401 11:05:54.698312  1909 net.cpp:157] Top shape: 1 24 19 19 (8664)
I0401 11:05:54.698318  1909 net.cpp:165] Memory required for data: 257445664
I0401 11:05:54.698348  1909 layer_factory.hpp:77] Creating layer fc7_mbox_loc_perm
I0401 11:05:54.698364  1909 net.cpp:100] Creating Layer fc7_mbox_loc_perm
I0401 11:05:54.698371  1909 net.cpp:434] fc7_mbox_loc_perm <- fc7_mbox_loc
I0401 11:05:54.698382  1909 net.cpp:408] fc7_mbox_loc_perm -> fc7_mbox_loc_perm
I0401 11:05:54.698602  1909 net.cpp:150] Setting up fc7_mbox_loc_perm
I0401 11:05:54.698622  1909 net.cpp:157] Top shape: 1 19 19 24 (8664)
I0401 11:05:54.698634  1909 net.cpp:165] Memory required for data: 257480320
I0401 11:05:54.698642  1909 layer_factory.hpp:77] Creating layer fc7_mbox_loc_flat
I0401 11:05:54.698652  1909 net.cpp:100] Creating Layer fc7_mbox_loc_flat
I0401 11:05:54.698658  1909 net.cpp:434] fc7_mbox_loc_flat <- fc7_mbox_loc_perm
I0401 11:05:54.698670  1909 net.cpp:408] fc7_mbox_loc_flat -> fc7_mbox_loc_flat
I0401 11:05:54.698721  1909 net.cpp:150] Setting up fc7_mbox_loc_flat
I0401 11:05:54.698737  1909 net.cpp:157] Top shape: 1 8664 (8664)
I0401 11:05:54.698743  1909 net.cpp:165] Memory required for data: 257514976
I0401 11:05:54.698750  1909 layer_factory.hpp:77] Creating layer fc7_mbox_conf
I0401 11:05:54.698765  1909 net.cpp:100] Creating Layer fc7_mbox_conf
I0401 11:05:54.698789  1909 net.cpp:434] fc7_mbox_conf <- fc7_relu7_0_split_2
I0401 11:05:54.698801  1909 net.cpp:408] fc7_mbox_conf -> fc7_mbox_conf
I0401 11:05:54.708086  1909 net.cpp:150] Setting up fc7_mbox_conf
I0401 11:05:54.708112  1909 net.cpp:157] Top shape: 1 66 19 19 (23826)
I0401 11:05:54.708124  1909 net.cpp:165] Memory required for data: 257610280
I0401 11:05:54.708137  1909 layer_factory.hpp:77] Creating layer fc7_mbox_conf_perm
I0401 11:05:54.708149  1909 net.cpp:100] Creating Layer fc7_mbox_conf_perm
I0401 11:05:54.708156  1909 net.cpp:434] fc7_mbox_conf_perm <- fc7_mbox_conf
I0401 11:05:54.708168  1909 net.cpp:408] fc7_mbox_conf_perm -> fc7_mbox_conf_perm
I0401 11:05:54.708391  1909 net.cpp:150] Setting up fc7_mbox_conf_perm
I0401 11:05:54.708412  1909 net.cpp:157] Top shape: 1 19 19 66 (23826)
I0401 11:05:54.708420  1909 net.cpp:165] Memory required for data: 257705584
I0401 11:05:54.708425  1909 layer_factory.hpp:77] Creating layer fc7_mbox_conf_flat
I0401 11:05:54.708436  1909 net.cpp:100] Creating Layer fc7_mbox_conf_flat
I0401 11:05:54.708442  1909 net.cpp:434] fc7_mbox_conf_flat <- fc7_mbox_conf_perm
I0401 11:05:54.708461  1909 net.cpp:408] fc7_mbox_conf_flat -> fc7_mbox_conf_flat
I0401 11:05:54.708508  1909 net.cpp:150] Setting up fc7_mbox_conf_flat
I0401 11:05:54.708518  1909 net.cpp:157] Top shape: 1 23826 (23826)
I0401 11:05:54.708524  1909 net.cpp:165] Memory required for data: 257800888
I0401 11:05:54.708530  1909 layer_factory.hpp:77] Creating layer fc7_mbox_priorbox
I0401 11:05:54.708544  1909 net.cpp:100] Creating Layer fc7_mbox_priorbox
I0401 11:05:54.708555  1909 net.cpp:434] fc7_mbox_priorbox <- fc7_relu7_0_split_3
I0401 11:05:54.708567  1909 net.cpp:434] fc7_mbox_priorbox <- data_data_0_split_2
I0401 11:05:54.708581  1909 net.cpp:408] fc7_mbox_priorbox -> fc7_mbox_priorbox
I0401 11:05:54.708628  1909 net.cpp:150] Setting up fc7_mbox_priorbox
I0401 11:05:54.708639  1909 net.cpp:157] Top shape: 1 2 8664 (17328)
I0401 11:05:54.708645  1909 net.cpp:165] Memory required for data: 257870200
I0401 11:05:54.708652  1909 layer_factory.hpp:77] Creating layer conv6_2_mbox_loc
I0401 11:05:54.708667  1909 net.cpp:100] Creating Layer conv6_2_mbox_loc
I0401 11:05:54.708674  1909 net.cpp:434] conv6_2_mbox_loc <- conv6_2_conv6_2_relu_0_split_1
I0401 11:05:54.708685  1909 net.cpp:408] conv6_2_mbox_loc -> conv6_2_mbox_loc
I0401 11:05:54.712580  1909 net.cpp:150] Setting up conv6_2_mbox_loc
I0401 11:05:54.712633  1909 net.cpp:157] Top shape: 1 24 10 10 (2400)
I0401 11:05:54.712661  1909 net.cpp:165] Memory required for data: 257879800
I0401 11:05:54.712700  1909 layer_factory.hpp:77] Creating layer conv6_2_mbox_loc_perm
I0401 11:05:54.712738  1909 net.cpp:100] Creating Layer conv6_2_mbox_loc_perm
I0401 11:05:54.712774  1909 net.cpp:434] conv6_2_mbox_loc_perm <- conv6_2_mbox_loc
I0401 11:05:54.712815  1909 net.cpp:408] conv6_2_mbox_loc_perm -> conv6_2_mbox_loc_perm
I0401 11:05:54.713073  1909 net.cpp:150] Setting up conv6_2_mbox_loc_perm
I0401 11:05:54.713119  1909 net.cpp:157] Top shape: 1 10 10 24 (2400)
I0401 11:05:54.713151  1909 net.cpp:165] Memory required for data: 257889400
I0401 11:05:54.713177  1909 layer_factory.hpp:77] Creating layer conv6_2_mbox_loc_flat
I0401 11:05:54.713205  1909 net.cpp:100] Creating Layer conv6_2_mbox_loc_flat
I0401 11:05:54.713238  1909 net.cpp:434] conv6_2_mbox_loc_flat <- conv6_2_mbox_loc_perm
I0401 11:05:54.713279  1909 net.cpp:408] conv6_2_mbox_loc_flat -> conv6_2_mbox_loc_flat
I0401 11:05:54.713357  1909 net.cpp:150] Setting up conv6_2_mbox_loc_flat
I0401 11:05:54.713398  1909 net.cpp:157] Top shape: 1 2400 (2400)
I0401 11:05:54.713430  1909 net.cpp:165] Memory required for data: 257899000
I0401 11:05:54.713464  1909 layer_factory.hpp:77] Creating layer conv6_2_mbox_conf
I0401 11:05:54.713510  1909 net.cpp:100] Creating Layer conv6_2_mbox_conf
I0401 11:05:54.713546  1909 net.cpp:434] conv6_2_mbox_conf <- conv6_2_conv6_2_relu_0_split_2
I0401 11:05:54.713590  1909 net.cpp:408] conv6_2_mbox_conf -> conv6_2_mbox_conf
I0401 11:05:54.720278  1909 net.cpp:150] Setting up conv6_2_mbox_conf
I0401 11:05:54.720330  1909 net.cpp:157] Top shape: 1 66 10 10 (6600)
I0401 11:05:54.720358  1909 net.cpp:165] Memory required for data: 257925400
I0401 11:05:54.720388  1909 layer_factory.hpp:77] Creating layer conv6_2_mbox_conf_perm
I0401 11:05:54.720418  1909 net.cpp:100] Creating Layer conv6_2_mbox_conf_perm
I0401 11:05:54.720451  1909 net.cpp:434] conv6_2_mbox_conf_perm <- conv6_2_mbox_conf
I0401 11:05:54.720494  1909 net.cpp:408] conv6_2_mbox_conf_perm -> conv6_2_mbox_conf_perm
I0401 11:05:54.720748  1909 net.cpp:150] Setting up conv6_2_mbox_conf_perm
I0401 11:05:54.720785  1909 net.cpp:157] Top shape: 1 10 10 66 (6600)
I0401 11:05:54.720815  1909 net.cpp:165] Memory required for data: 257951800
I0401 11:05:54.720842  1909 layer_factory.hpp:77] Creating layer conv6_2_mbox_conf_flat
I0401 11:05:54.720870  1909 net.cpp:100] Creating Layer conv6_2_mbox_conf_flat
I0401 11:05:54.720901  1909 net.cpp:434] conv6_2_mbox_conf_flat <- conv6_2_mbox_conf_perm
I0401 11:05:54.720944  1909 net.cpp:408] conv6_2_mbox_conf_flat -> conv6_2_mbox_conf_flat
I0401 11:05:54.721030  1909 net.cpp:150] Setting up conv6_2_mbox_conf_flat
I0401 11:05:54.721069  1909 net.cpp:157] Top shape: 1 6600 (6600)
I0401 11:05:54.721103  1909 net.cpp:165] Memory required for data: 257978200
I0401 11:05:54.721137  1909 layer_factory.hpp:77] Creating layer conv6_2_mbox_priorbox
I0401 11:05:54.721173  1909 net.cpp:100] Creating Layer conv6_2_mbox_priorbox
I0401 11:05:54.721204  1909 net.cpp:434] conv6_2_mbox_priorbox <- conv6_2_conv6_2_relu_0_split_3
I0401 11:05:54.721236  1909 net.cpp:434] conv6_2_mbox_priorbox <- data_data_0_split_3
I0401 11:05:54.721273  1909 net.cpp:408] conv6_2_mbox_priorbox -> conv6_2_mbox_priorbox
I0401 11:05:54.721361  1909 net.cpp:150] Setting up conv6_2_mbox_priorbox
I0401 11:05:54.721401  1909 net.cpp:157] Top shape: 1 2 2400 (4800)
I0401 11:05:54.721433  1909 net.cpp:165] Memory required for data: 257997400
I0401 11:05:54.721462  1909 layer_factory.hpp:77] Creating layer conv7_2_mbox_loc
I0401 11:05:54.721498  1909 net.cpp:100] Creating Layer conv7_2_mbox_loc
I0401 11:05:54.721530  1909 net.cpp:434] conv7_2_mbox_loc <- conv7_2_conv7_2_relu_0_split_1
I0401 11:05:54.721573  1909 net.cpp:408] conv7_2_mbox_loc -> conv7_2_mbox_loc
I0401 11:05:54.725896  1909 net.cpp:150] Setting up conv7_2_mbox_loc
I0401 11:05:54.725942  1909 net.cpp:157] Top shape: 1 24 5 5 (600)
I0401 11:05:54.725970  1909 net.cpp:165] Memory required for data: 257999800
I0401 11:05:54.725998  1909 layer_factory.hpp:77] Creating layer conv7_2_mbox_loc_perm
I0401 11:05:54.726037  1909 net.cpp:100] Creating Layer conv7_2_mbox_loc_perm
I0401 11:05:54.726073  1909 net.cpp:434] conv7_2_mbox_loc_perm <- conv7_2_mbox_loc
I0401 11:05:54.726110  1909 net.cpp:408] conv7_2_mbox_loc_perm -> conv7_2_mbox_loc_perm
I0401 11:05:54.726361  1909 net.cpp:150] Setting up conv7_2_mbox_loc_perm
I0401 11:05:54.726403  1909 net.cpp:157] Top shape: 1 5 5 24 (600)
I0401 11:05:54.726438  1909 net.cpp:165] Memory required for data: 258002200
I0401 11:05:54.726464  1909 layer_factory.hpp:77] Creating layer conv7_2_mbox_loc_flat
I0401 11:05:54.726501  1909 net.cpp:100] Creating Layer conv7_2_mbox_loc_flat
I0401 11:05:54.726537  1909 net.cpp:434] conv7_2_mbox_loc_flat <- conv7_2_mbox_loc_perm
I0401 11:05:54.726575  1909 net.cpp:408] conv7_2_mbox_loc_flat -> conv7_2_mbox_loc_flat
I0401 11:05:54.726644  1909 net.cpp:150] Setting up conv7_2_mbox_loc_flat
I0401 11:05:54.726686  1909 net.cpp:157] Top shape: 1 600 (600)
I0401 11:05:54.726719  1909 net.cpp:165] Memory required for data: 258004600
I0401 11:05:54.726747  1909 layer_factory.hpp:77] Creating layer conv7_2_mbox_conf
I0401 11:05:54.726783  1909 net.cpp:100] Creating Layer conv7_2_mbox_conf
I0401 11:05:54.726807  1909 net.cpp:434] conv7_2_mbox_conf <- conv7_2_conv7_2_relu_0_split_2
I0401 11:05:54.726843  1909 net.cpp:408] conv7_2_mbox_conf -> conv7_2_mbox_conf
I0401 11:05:54.731360  1909 net.cpp:150] Setting up conv7_2_mbox_conf
I0401 11:05:54.731415  1909 net.cpp:157] Top shape: 1 66 5 5 (1650)
I0401 11:05:54.731458  1909 net.cpp:165] Memory required for data: 258011200
I0401 11:05:54.731490  1909 layer_factory.hpp:77] Creating layer conv7_2_mbox_conf_perm
I0401 11:05:54.731529  1909 net.cpp:100] Creating Layer conv7_2_mbox_conf_perm
I0401 11:05:54.731570  1909 net.cpp:434] conv7_2_mbox_conf_perm <- conv7_2_mbox_conf
I0401 11:05:54.731604  1909 net.cpp:408] conv7_2_mbox_conf_perm -> conv7_2_mbox_conf_perm
I0401 11:05:54.731848  1909 net.cpp:150] Setting up conv7_2_mbox_conf_perm
I0401 11:05:54.731889  1909 net.cpp:157] Top shape: 1 5 5 66 (1650)
I0401 11:05:54.731922  1909 net.cpp:165] Memory required for data: 258017800
I0401 11:05:54.731950  1909 layer_factory.hpp:77] Creating layer conv7_2_mbox_conf_flat
I0401 11:05:54.731976  1909 net.cpp:100] Creating Layer conv7_2_mbox_conf_flat
I0401 11:05:54.732002  1909 net.cpp:434] conv7_2_mbox_conf_flat <- conv7_2_mbox_conf_perm
I0401 11:05:54.732040  1909 net.cpp:408] conv7_2_mbox_conf_flat -> conv7_2_mbox_conf_flat
I0401 11:05:54.732120  1909 net.cpp:150] Setting up conv7_2_mbox_conf_flat
I0401 11:05:54.732165  1909 net.cpp:157] Top shape: 1 1650 (1650)
I0401 11:05:54.732192  1909 net.cpp:165] Memory required for data: 258024400
I0401 11:05:54.732214  1909 layer_factory.hpp:77] Creating layer conv7_2_mbox_priorbox
I0401 11:05:54.732241  1909 net.cpp:100] Creating Layer conv7_2_mbox_priorbox
I0401 11:05:54.732272  1909 net.cpp:434] conv7_2_mbox_priorbox <- conv7_2_conv7_2_relu_0_split_3
I0401 11:05:54.732303  1909 net.cpp:434] conv7_2_mbox_priorbox <- data_data_0_split_4
I0401 11:05:54.732342  1909 net.cpp:408] conv7_2_mbox_priorbox -> conv7_2_mbox_priorbox
I0401 11:05:54.732427  1909 net.cpp:150] Setting up conv7_2_mbox_priorbox
I0401 11:05:54.732466  1909 net.cpp:157] Top shape: 1 2 600 (1200)
I0401 11:05:54.732501  1909 net.cpp:165] Memory required for data: 258029200
I0401 11:05:54.732534  1909 layer_factory.hpp:77] Creating layer conv8_2_mbox_loc
I0401 11:05:54.732580  1909 net.cpp:100] Creating Layer conv8_2_mbox_loc
I0401 11:05:54.732610  1909 net.cpp:434] conv8_2_mbox_loc <- conv8_2_conv8_2_relu_0_split_1
I0401 11:05:54.732640  1909 net.cpp:408] conv8_2_mbox_loc -> conv8_2_mbox_loc
I0401 11:05:54.735199  1909 net.cpp:150] Setting up conv8_2_mbox_loc
I0401 11:05:54.735245  1909 net.cpp:157] Top shape: 1 16 3 3 (144)
I0401 11:05:54.735272  1909 net.cpp:165] Memory required for data: 258029776
I0401 11:05:54.735302  1909 layer_factory.hpp:77] Creating layer conv8_2_mbox_loc_perm
I0401 11:05:54.735333  1909 net.cpp:100] Creating Layer conv8_2_mbox_loc_perm
I0401 11:05:54.735366  1909 net.cpp:434] conv8_2_mbox_loc_perm <- conv8_2_mbox_loc
I0401 11:05:54.735412  1909 net.cpp:408] conv8_2_mbox_loc_perm -> conv8_2_mbox_loc_perm
I0401 11:05:54.735657  1909 net.cpp:150] Setting up conv8_2_mbox_loc_perm
I0401 11:05:54.735698  1909 net.cpp:157] Top shape: 1 3 3 16 (144)
I0401 11:05:54.735731  1909 net.cpp:165] Memory required for data: 258030352
I0401 11:05:54.735765  1909 layer_factory.hpp:77] Creating layer conv8_2_mbox_loc_flat
I0401 11:05:54.735805  1909 net.cpp:100] Creating Layer conv8_2_mbox_loc_flat
I0401 11:05:54.735841  1909 net.cpp:434] conv8_2_mbox_loc_flat <- conv8_2_mbox_loc_perm
I0401 11:05:54.735878  1909 net.cpp:408] conv8_2_mbox_loc_flat -> conv8_2_mbox_loc_flat
I0401 11:05:54.735950  1909 net.cpp:150] Setting up conv8_2_mbox_loc_flat
I0401 11:05:54.735990  1909 net.cpp:157] Top shape: 1 144 (144)
I0401 11:05:54.736021  1909 net.cpp:165] Memory required for data: 258030928
I0401 11:05:54.736060  1909 layer_factory.hpp:77] Creating layer conv8_2_mbox_conf
I0401 11:05:54.736097  1909 net.cpp:100] Creating Layer conv8_2_mbox_conf
I0401 11:05:54.736131  1909 net.cpp:434] conv8_2_mbox_conf <- conv8_2_conv8_2_relu_0_split_2
I0401 11:05:54.736176  1909 net.cpp:408] conv8_2_mbox_conf -> conv8_2_mbox_conf
I0401 11:05:54.740037  1909 net.cpp:150] Setting up conv8_2_mbox_conf
I0401 11:05:54.740083  1909 net.cpp:157] Top shape: 1 44 3 3 (396)
I0401 11:05:54.740110  1909 net.cpp:165] Memory required for data: 258032512
I0401 11:05:54.740144  1909 layer_factory.hpp:77] Creating layer conv8_2_mbox_conf_perm
I0401 11:05:54.740191  1909 net.cpp:100] Creating Layer conv8_2_mbox_conf_perm
I0401 11:05:54.740226  1909 net.cpp:434] conv8_2_mbox_conf_perm <- conv8_2_mbox_conf
I0401 11:05:54.740267  1909 net.cpp:408] conv8_2_mbox_conf_perm -> conv8_2_mbox_conf_perm
I0401 11:05:54.740523  1909 net.cpp:150] Setting up conv8_2_mbox_conf_perm
I0401 11:05:54.740564  1909 net.cpp:157] Top shape: 1 3 3 44 (396)
I0401 11:05:54.740597  1909 net.cpp:165] Memory required for data: 258034096
I0401 11:05:54.740633  1909 layer_factory.hpp:77] Creating layer conv8_2_mbox_conf_flat
I0401 11:05:54.740672  1909 net.cpp:100] Creating Layer conv8_2_mbox_conf_flat
I0401 11:05:54.740707  1909 net.cpp:434] conv8_2_mbox_conf_flat <- conv8_2_mbox_conf_perm
I0401 11:05:54.740741  1909 net.cpp:408] conv8_2_mbox_conf_flat -> conv8_2_mbox_conf_flat
I0401 11:05:54.740814  1909 net.cpp:150] Setting up conv8_2_mbox_conf_flat
I0401 11:05:54.740851  1909 net.cpp:157] Top shape: 1 396 (396)
I0401 11:05:54.740883  1909 net.cpp:165] Memory required for data: 258035680
I0401 11:05:54.740912  1909 layer_factory.hpp:77] Creating layer conv8_2_mbox_priorbox
I0401 11:05:54.740942  1909 net.cpp:100] Creating Layer conv8_2_mbox_priorbox
I0401 11:05:54.740967  1909 net.cpp:434] conv8_2_mbox_priorbox <- conv8_2_conv8_2_relu_0_split_3
I0401 11:05:54.740993  1909 net.cpp:434] conv8_2_mbox_priorbox <- data_data_0_split_5
I0401 11:05:54.741029  1909 net.cpp:408] conv8_2_mbox_priorbox -> conv8_2_mbox_priorbox
I0401 11:05:54.741117  1909 net.cpp:150] Setting up conv8_2_mbox_priorbox
I0401 11:05:54.741189  1909 net.cpp:157] Top shape: 1 2 144 (288)
I0401 11:05:54.741257  1909 net.cpp:165] Memory required for data: 258036832
I0401 11:05:54.741328  1909 layer_factory.hpp:77] Creating layer conv9_2_mbox_loc
I0401 11:05:54.741412  1909 net.cpp:100] Creating Layer conv9_2_mbox_loc
I0401 11:05:54.741480  1909 net.cpp:434] conv9_2_mbox_loc <- conv9_2_conv9_2_relu_0_split_0
I0401 11:05:54.741564  1909 net.cpp:408] conv9_2_mbox_loc -> conv9_2_mbox_loc
I0401 11:05:54.744164  1909 net.cpp:150] Setting up conv9_2_mbox_loc
I0401 11:05:54.744297  1909 net.cpp:157] Top shape: 1 16 1 1 (16)
I0401 11:05:54.744369  1909 net.cpp:165] Memory required for data: 258036896
I0401 11:05:54.744446  1909 layer_factory.hpp:77] Creating layer conv9_2_mbox_loc_perm
I0401 11:05:54.744523  1909 net.cpp:100] Creating Layer conv9_2_mbox_loc_perm
I0401 11:05:54.744593  1909 net.cpp:434] conv9_2_mbox_loc_perm <- conv9_2_mbox_loc
I0401 11:05:54.744678  1909 net.cpp:408] conv9_2_mbox_loc_perm -> conv9_2_mbox_loc_perm
I0401 11:05:54.744973  1909 net.cpp:150] Setting up conv9_2_mbox_loc_perm
I0401 11:05:54.745080  1909 net.cpp:157] Top shape: 1 1 1 16 (16)
I0401 11:05:54.745162  1909 net.cpp:165] Memory required for data: 258036960
I0401 11:05:54.745232  1909 layer_factory.hpp:77] Creating layer conv9_2_mbox_loc_flat
I0401 11:05:54.745308  1909 net.cpp:100] Creating Layer conv9_2_mbox_loc_flat
I0401 11:05:54.745378  1909 net.cpp:434] conv9_2_mbox_loc_flat <- conv9_2_mbox_loc_perm
I0401 11:05:54.745453  1909 net.cpp:408] conv9_2_mbox_loc_flat -> conv9_2_mbox_loc_flat
I0401 11:05:54.745573  1909 net.cpp:150] Setting up conv9_2_mbox_loc_flat
I0401 11:05:54.745645  1909 net.cpp:157] Top shape: 1 16 (16)
I0401 11:05:54.745713  1909 net.cpp:165] Memory required for data: 258037024
I0401 11:05:54.745805  1909 layer_factory.hpp:77] Creating layer conv9_2_mbox_conf
I0401 11:05:54.745887  1909 net.cpp:100] Creating Layer conv9_2_mbox_conf
I0401 11:05:54.745956  1909 net.cpp:434] conv9_2_mbox_conf <- conv9_2_conv9_2_relu_0_split_1
I0401 11:05:54.746035  1909 net.cpp:408] conv9_2_mbox_conf -> conv9_2_mbox_conf
I0401 11:05:54.749929  1909 net.cpp:150] Setting up conv9_2_mbox_conf
I0401 11:05:54.750061  1909 net.cpp:157] Top shape: 1 44 1 1 (44)
I0401 11:05:54.750133  1909 net.cpp:165] Memory required for data: 258037200
I0401 11:05:54.750210  1909 layer_factory.hpp:77] Creating layer conv9_2_mbox_conf_perm
I0401 11:05:54.750288  1909 net.cpp:100] Creating Layer conv9_2_mbox_conf_perm
I0401 11:05:54.750372  1909 net.cpp:434] conv9_2_mbox_conf_perm <- conv9_2_mbox_conf
I0401 11:05:54.750454  1909 net.cpp:408] conv9_2_mbox_conf_perm -> conv9_2_mbox_conf_perm
I0401 11:05:54.750751  1909 net.cpp:150] Setting up conv9_2_mbox_conf_perm
I0401 11:05:54.750874  1909 net.cpp:157] Top shape: 1 1 1 44 (44)
I0401 11:05:54.750942  1909 net.cpp:165] Memory required for data: 258037376
I0401 11:05:54.751011  1909 layer_factory.hpp:77] Creating layer conv9_2_mbox_conf_flat
I0401 11:05:54.751088  1909 net.cpp:100] Creating Layer conv9_2_mbox_conf_flat
I0401 11:05:54.751159  1909 net.cpp:434] conv9_2_mbox_conf_flat <- conv9_2_mbox_conf_perm
I0401 11:05:54.751237  1909 net.cpp:408] conv9_2_mbox_conf_flat -> conv9_2_mbox_conf_flat
I0401 11:05:54.751365  1909 net.cpp:150] Setting up conv9_2_mbox_conf_flat
I0401 11:05:54.751440  1909 net.cpp:157] Top shape: 1 44 (44)
I0401 11:05:54.751516  1909 net.cpp:165] Memory required for data: 258037552
I0401 11:05:54.751586  1909 layer_factory.hpp:77] Creating layer conv9_2_mbox_priorbox
I0401 11:05:54.751663  1909 net.cpp:100] Creating Layer conv9_2_mbox_priorbox
I0401 11:05:54.751731  1909 net.cpp:434] conv9_2_mbox_priorbox <- conv9_2_conv9_2_relu_0_split_2
I0401 11:05:54.751806  1909 net.cpp:434] conv9_2_mbox_priorbox <- data_data_0_split_6
I0401 11:05:54.751883  1909 net.cpp:408] conv9_2_mbox_priorbox -> conv9_2_mbox_priorbox
I0401 11:05:54.752002  1909 net.cpp:150] Setting up conv9_2_mbox_priorbox
I0401 11:05:54.752074  1909 net.cpp:157] Top shape: 1 2 16 (32)
I0401 11:05:54.752146  1909 net.cpp:165] Memory required for data: 258037680
I0401 11:05:54.752213  1909 layer_factory.hpp:77] Creating layer mbox_loc
I0401 11:05:54.752290  1909 net.cpp:100] Creating Layer mbox_loc
I0401 11:05:54.752359  1909 net.cpp:434] mbox_loc <- conv4_3_norm_mbox_loc_flat
I0401 11:05:54.752437  1909 net.cpp:434] mbox_loc <- fc7_mbox_loc_flat
I0401 11:05:54.752508  1909 net.cpp:434] mbox_loc <- conv6_2_mbox_loc_flat
I0401 11:05:54.752580  1909 net.cpp:434] mbox_loc <- conv7_2_mbox_loc_flat
I0401 11:05:54.752650  1909 net.cpp:434] mbox_loc <- conv8_2_mbox_loc_flat
I0401 11:05:54.752724  1909 net.cpp:434] mbox_loc <- conv9_2_mbox_loc_flat
I0401 11:05:54.752800  1909 net.cpp:408] mbox_loc -> mbox_loc
I0401 11:05:54.752918  1909 net.cpp:150] Setting up mbox_loc
I0401 11:05:54.752992  1909 net.cpp:157] Top shape: 1 34928 (34928)
I0401 11:05:54.753062  1909 net.cpp:165] Memory required for data: 258177392
I0401 11:05:54.753129  1909 layer_factory.hpp:77] Creating layer mbox_conf
I0401 11:05:54.753216  1909 net.cpp:100] Creating Layer mbox_conf
I0401 11:05:54.753285  1909 net.cpp:434] mbox_conf <- conv4_3_norm_mbox_conf_flat
I0401 11:05:54.753371  1909 net.cpp:434] mbox_conf <- fc7_mbox_conf_flat
I0401 11:05:54.753443  1909 net.cpp:434] mbox_conf <- conv6_2_mbox_conf_flat
I0401 11:05:54.753513  1909 net.cpp:434] mbox_conf <- conv7_2_mbox_conf_flat
I0401 11:05:54.753585  1909 net.cpp:434] mbox_conf <- conv8_2_mbox_conf_flat
I0401 11:05:54.753656  1909 net.cpp:434] mbox_conf <- conv9_2_mbox_conf_flat
I0401 11:05:54.753751  1909 net.cpp:408] mbox_conf -> mbox_conf
I0401 11:05:54.753865  1909 net.cpp:150] Setting up mbox_conf
I0401 11:05:54.753937  1909 net.cpp:157] Top shape: 1 96052 (96052)
I0401 11:05:54.754006  1909 net.cpp:165] Memory required for data: 258561600
I0401 11:05:54.754076  1909 layer_factory.hpp:77] Creating layer mbox_priorbox
I0401 11:05:54.754148  1909 net.cpp:100] Creating Layer mbox_priorbox
I0401 11:05:54.754222  1909 net.cpp:434] mbox_priorbox <- conv4_3_norm_mbox_priorbox
I0401 11:05:54.754295  1909 net.cpp:434] mbox_priorbox <- fc7_mbox_priorbox
I0401 11:05:54.754367  1909 net.cpp:434] mbox_priorbox <- conv6_2_mbox_priorbox
I0401 11:05:54.754439  1909 net.cpp:434] mbox_priorbox <- conv7_2_mbox_priorbox
I0401 11:05:54.754510  1909 net.cpp:434] mbox_priorbox <- conv8_2_mbox_priorbox
I0401 11:05:54.754580  1909 net.cpp:434] mbox_priorbox <- conv9_2_mbox_priorbox
I0401 11:05:54.754655  1909 net.cpp:408] mbox_priorbox -> mbox_priorbox
I0401 11:05:54.754781  1909 net.cpp:150] Setting up mbox_priorbox
I0401 11:05:54.754865  1909 net.cpp:157] Top shape: 1 2 34928 (69856)
I0401 11:05:54.754936  1909 net.cpp:165] Memory required for data: 258841024
I0401 11:05:54.755007  1909 layer_factory.hpp:77] Creating layer mbox_conf_reshape
I0401 11:05:54.755087  1909 net.cpp:100] Creating Layer mbox_conf_reshape
I0401 11:05:54.755156  1909 net.cpp:434] mbox_conf_reshape <- mbox_conf
I0401 11:05:54.755234  1909 net.cpp:408] mbox_conf_reshape -> mbox_conf_reshape
I0401 11:05:54.755362  1909 net.cpp:150] Setting up mbox_conf_reshape
I0401 11:05:54.755437  1909 net.cpp:157] Top shape: 1 8732 11 (96052)
I0401 11:05:54.755506  1909 net.cpp:165] Memory required for data: 259225232
I0401 11:05:54.755576  1909 layer_factory.hpp:77] Creating layer mbox_conf_softmax
I0401 11:05:54.755650  1909 net.cpp:100] Creating Layer mbox_conf_softmax
I0401 11:05:54.755717  1909 net.cpp:434] mbox_conf_softmax <- mbox_conf_reshape
I0401 11:05:54.755791  1909 net.cpp:408] mbox_conf_softmax -> mbox_conf_softmax
I0401 11:05:54.756270  1909 net.cpp:150] Setting up mbox_conf_softmax
I0401 11:05:54.756342  1909 net.cpp:157] Top shape: 1 8732 11 (96052)
I0401 11:05:54.756403  1909 net.cpp:165] Memory required for data: 259609440
I0401 11:05:54.756467  1909 layer_factory.hpp:77] Creating layer mbox_conf_flatten
I0401 11:05:54.756537  1909 net.cpp:100] Creating Layer mbox_conf_flatten
I0401 11:05:54.756602  1909 net.cpp:434] mbox_conf_flatten <- mbox_conf_softmax
I0401 11:05:54.756675  1909 net.cpp:408] mbox_conf_flatten -> mbox_conf_flatten
I0401 11:05:54.756788  1909 net.cpp:150] Setting up mbox_conf_flatten
I0401 11:05:54.756855  1909 net.cpp:157] Top shape: 1 96052 (96052)
I0401 11:05:54.756920  1909 net.cpp:165] Memory required for data: 259993648
I0401 11:05:54.756989  1909 layer_factory.hpp:77] Creating layer detection_out
I0401 11:05:54.757074  1909 net.cpp:100] Creating Layer detection_out
I0401 11:05:54.757148  1909 net.cpp:434] detection_out <- mbox_loc
I0401 11:05:54.757221  1909 net.cpp:434] detection_out <- mbox_conf_flatten
I0401 11:05:54.757292  1909 net.cpp:434] detection_out <- mbox_priorbox
I0401 11:05:54.757371  1909 net.cpp:408] detection_out -> detection_out
W0401 11:05:54.757475  1909 detection_output_layer.cpp:49] Failed to create directory: /home/zs/data/VOCdevkit/results/VOC2007/SSD_300x300_0323_conv6/Main
I0401 11:05:54.758225  1909 net.cpp:150] Setting up detection_out
I0401 11:05:54.758342  1909 net.cpp:157] Top shape: 1 1 1 7 (7)
I0401 11:05:54.758409  1909 net.cpp:165] Memory required for data: 259993676
I0401 11:05:54.758482  1909 layer_factory.hpp:77] Creating layer detection_eval
I0401 11:05:54.758558  1909 net.cpp:100] Creating Layer detection_eval
I0401 11:05:54.758630  1909 net.cpp:434] detection_eval <- detection_out
I0401 11:05:54.758702  1909 net.cpp:434] detection_eval <- label
I0401 11:05:54.758778  1909 net.cpp:408] detection_eval -> detection_eval
I0401 11:05:54.759027  1909 net.cpp:150] Setting up detection_eval
I0401 11:05:54.759132  1909 net.cpp:157] Top shape: 1 1 11 5 (55)
I0401 11:05:54.759199  1909 net.cpp:165] Memory required for data: 259993896
I0401 11:05:54.759270  1909 net.cpp:228] detection_eval does not need backward computation.
I0401 11:05:54.759351  1909 net.cpp:228] detection_out does not need backward computation.
I0401 11:05:54.759421  1909 net.cpp:228] mbox_conf_flatten does not need backward computation.
I0401 11:05:54.759492  1909 net.cpp:228] mbox_conf_softmax does not need backward computation.
…
