…
      sampler {
        min_scale: 0.3
        max_scale: 1
        min_aspect_ratio: 0.5
        max_aspect_ratio: 2
      }
      sample_constraint {
        min_jaccard_overlap: 0.9
      }
      max_sample: 1
      max_trials: 50
    }
    batch_sampler {
      sampler {
        min_scale: 0.3
        max_scale: 1
        min_aspect_ratio: 0.5
        max_aspect_ratio: 2
      }
      sample_constraint {
        max_jaccard_overlap: 1
      }
      max_sample: 1
      max_trials: 50
    }
    label_map_file: "data/NWPU_VHR/labelmap_NWPU_VHR.prototxt"
  }
}
layer {
  name: "conv1_1"
  type: "Convolution"
  bottom: "data"
  top: "conv1_1"
  param {
    lr_mult: 1
    decay_mult: 1
  }
  param {
    lr_mult: 2
    decay_mult: 0
  }
  convolution_param {
    num_output: 64
    pad: 1
    kernel_size: 3
    weight_filler {
      type: "xavier"
    }
    bias_filler {
      type: "constant"
      value: 0
    }
  }
}
layer {
  name: "relu1_1"
  type: "ReLU"
  bottom: "conv1_1"
  top: "conv1_1"
}
layer {
  name: "conv1_2"
  type: "Convolution"
  bottom: "conv1_1"
  top: "conv1_2"
  param {
    lr_mult: 1
    decay_mult: 1
  }
  param {
    lr_mult: 2
    decay_mult: 0
  }
  convolution_param {
    num_output: 64
    pad: 1
    kernel_size: 3
    weight_filler {
      type: "xavier"
    }
    bias_filler {
      type: "constant"
      value: 0
    }
  }
}
layer {
  name: "relu1_2"
  type: "ReLU"
  bottom: "conv1_2"
  top: "conv1_2"
}
layer {
  name: "pool1"
  type: "Pooling"
  bottom: "conv1_2"
  top: "pool1"
  pooling_param {
    pool: MAX
    kernel_size: 2
    stride: 2
  }
}
layer {
  name: "conv2_1"
  type: "Convolution"
  bottom: "pool1"
  top: "conv2_1"
  param {
    lr_mult: 1
    decay_mult: 1
  }
  param {
    lr_mult: 2
    decay_mult: 0
  }
  convolution_param {
    num_output: 128
    pad: 1
    kernel_size: 3
    weight_filler {
      type: "xavier"
    }
    bias_filler {
      type: "constant"
      value: 0
    }
  }
}
layer {
  name: "relu2_1"
  type: "ReLU"
  bottom: "conv2_1"
  top: "conv2_1"
}
layer {
  name: "conv2_2"
  type: "Convolution"
  bottom: "conv2_1"
  top: "conv2_2"
  param {
    lr_mult: 1
    decay_mult: 1
  }
  param {
    lr_mult: 2
    decay_mult: 0
  }
  convolution_param {
    num_output: 128
    pad: 1
    kernel_size: 3
    weight_filler {
      type: "xavier"
    }
    bias_filler {
      type: "constant"
      value: 0
    }
  }
}
layer {
  name: "relu2_2"
  type: "ReLU"
  bottom: "conv2_2"
  top: "conv2_2"
}
layer {
  name: "pool2"
  type: "Pooling"
  bottom: "conv2_2"
  top: "pool2"
  pooling_param {
    pool: MAX
    kernel_size: 2
    stride: 2
  }
}
layer {
  name: "conv3_1"
  type: "Convolution"
  bottom: "pool2"
  top: "conv3_1"
  param {
    lr_mult: 1
    decay_mult: 1
  }
  param {
    lr_mult: 2
    decay_mult: 0
  }
  convolution_param {
    num_output: 256
    pad: 1
    kernel_size: 3
    weight_filler {
      type: "xavier"
    }
    bias_filler {
      type: "constant"
      value: 0
    }
  }
}
layer {
  name: "relu3_1"
  type: "ReLU"
  bottom: "conv3_1"
  top: "conv3_1"
}
layer {
  name: "conv3_2"
  type: "Convolution"
  bottom: "conv3_1"
  top: "conv3_2"
  param {
    lr_mult: 1
    decay_mult: 1
  }
  param {
    lr_mult: 2
    decay_mult: 0
  }
  convolution_param {
    num_output: 256
    pad: 1
    kernel_size: 3
    weight_filler {
      type: "xavier"
    }
    bias_filler {
      type: "constant"
      value: 0
    }
  }
}
layer {
  name: "relu3_2"
  type: "ReLU"
  bottom: "conv3_2"
  top: "conv3_2"
}
layer {
  name: "conv3_3"
  type: "Convolution"
  bottom: "conv3_2"
  top: "conv3_3"
  param {
    lr_mult: 1
    decay_mult: 1
  }
  param {
    lr_mult: 2
    decay_mult: 0
  }
  convolution_param {
    num_output: 256
    pad: 1
    kernel_size: 3
    weight_filler {
      type: "xavier"
    }
    bias_filler {
      type: "constant"
      value: 0
    }
  }
}
layer {
  name: "relu3_3"
  type: "ReLU"
  bottom: "conv3_3"
  top: "conv3_3"
}
layer {
  name: "pool3"
  type: "Pooling"
  bottom: "conv3_3"
  top: "pool3"
  pooling_param {
    pool: MAX
    kernel_size: 2
    stride: 2
  }
}
layer {
  name: "conv4_1_depthwise"
  type: "DepthwiseConvolution"
  bottom: "pool3"
  top: "conv4_1_3x3"
  param {
    lr_mult: 1
    decay_mult: 1
  }
  param {
    lr_mult: 2
    decay_mult: 0
  }
  convolution_param {
    num_output: 256
    pad: 1
    kernel_size: 3
    group: 256
    weight_filler {
      type: "xavier"
    }
    bias_filler {
      type: "constant"
      value: 0
    }
  }
}
layer {
  name: "conv4_1_3x3_relu"
  type: "ReLU"
  bottom: "conv4_1_3x3"
  top: "conv4_1_3x3"
}
layer {
  name: "conv4_1_1x1"
  type: "Convolution"
  bottom: "conv4_1_3x3"
  top: "conv4_1"
  param {
    lr_mult: 1
    decay_mult: 1
  }
  param {
    lr_mult: 2
    decay_mult: 0
  }
  convolution_param {
    num_output: 512
    pad: 0
    kernel_size: 1
    stride: 1
    weight_filler {
      type: "xavier"
    }
    bias_filler {
      type: "constant"
      value: 0
    }
  }
}
layer {
  name: "relu4_1"
  type: "ReLU"
  bottom: "conv4_1"
  top: "conv4_1"
}
layer {
  name: "conv4_2_depthwise"
  type: "DepthwiseConvolution"
  bottom: "conv4_1"
  top: "conv4_2_3x3"
  param {
    lr_mult: 1
    decay_mult: 1
  }
  param {
    lr_mult: 2
    decay_mult: 0
  }
  convolution_param {
    num_output: 512
    pad: 1
    kernel_size: 3
    group: 512
    weight_filler {
      type: "xavier"
    }
    bias_filler {
      type: "constant"
      value: 0
    }
  }
}
layer {
  name: "conv4_2_3x3_relu"
  type: "ReLU"
  bottom: "conv4_2_3x3"
  top: "conv4_2_3x3"
}
layer {
  name: "conv4_2_1x1"
  type: "Convolution"
  bottom: "conv4_2_3x3"
  top: "conv4_2"
  param {
    lr_mult: 1
    decay_mult: 1
  }
  param {
    lr_mult: 2
    decay_mult: 0
  }
  convolution_param {
    num_output: 512
    pad: 0
    kernel_size: 1
    stride: 1
    weight_filler {
      type: "xavier"
    }
    bias_filler {
      type: "constant"
      value: 0
    }
  }
}
layer {
  name: "relu4_2"
  type: "ReLU"
  bottom: "conv4_2"
  top: "conv4_2"
}
layer {
  name: "conv4_3"
  type: "Convolution"
  bottom: "conv4_2"
  top: "conv4_3"
  param {
    lr_mult: 1
    decay_mult: 1
  }
  param {
    lr_mult: 2
    decay_mult: 0
  }
  convolution_param {
    num_output: 512
    pad: 1
    kernel_size: 3
    weight_filler {
      type: "xavier"
    }
    bias_filler {
      type: "constant"
      value: 0
    }
  }
}
layer {
  name: "relu4_3"
  type: "ReLU"
  bottom: "conv4_3"
  top: "conv4_3"
}
layer {
  name: "pool4"
  type: "Pooling"
  bottom: "conv4_3"
  top: "pool4"
  pooling_param {
    pool: MAX
    kernel_size: 2
    stride: 2
  }
}
layer {
  name: "conv5_1_depthwise"
  type: "DepthwiseConvolution"
  bottom: "pool4"
  top: "conv5_1_3x3"
  param {
    lr_mult: 1
    decay_mult: 1
  }
  param {
    lr_mult: 2
    decay_mult: 0
  }
  convolution_param {
    num_output: 512
    pad: 1
    kernel_size: 3
    group: 512
    weight_filler {
      type: "xavier"
    }
    bias_filler {
      type: "constant"
      value: 0
    }
    dilation: 1
  }
}
layer {
  name: "conv5_1_3x3_relu"
  type: "ReLU"
  bottom: "conv5_1_3x3"
  top: "conv5_1_3x3"
}
layer {
  name: "conv5_1_1x1"
  type: "Convolution"
  bottom: "conv5_1_3x3"
  top: "conv5_1"
  param {
    lr_mult: 1
    decay_mult: 1
  }
  param {
    lr_mult: 2
    decay_mult: 0
  }
  convolution_param {
    num_output: 512
    pad: 0
    kernel_size: 1
    stride: 1
    weight_filler {
      type: "xavier"
    }
    bias_filler {
      type: "constant"
      value: 0
    }
    dilation: 1
  }
}
layer {
  name: "relu5_1"
  type: "ReLU"
  bottom: "conv5_1"
  top: "conv5_1"
}
layer {
  name: "conv5_2_depthwise"
  type: "DepthwiseConvolution"
  bottom: "conv5_1"
  top: "conv5_2_3x3"
  param {
    lr_mult: 1
    decay_mult: 1
  }
  param {
    lr_mult: 2
    decay_mult: 0
  }
  convolution_param {
    num_output: 512
    pad: 1
    kernel_size: 3
    group: 512
    weight_filler {
      type: "xavier"
    }
    bias_filler {
      type: "constant"
      value: 0
    }
    dilation: 1
  }
}
layer {
  name: "conv5_2_3x3_relu"
  type: "ReLU"
  bottom: "conv5_2_3x3"
  top: "conv5_2_3x3"
}
layer {
  name: "conv5_2_1x1"
  type: "Convolution"
  bottom: "conv5_2_3x3"
  top: "conv5_2"
  param {
    lr_mult: 1
    decay_mult: 1
  }
  param {
    lr_mult: 2
    decay_mult: 0
  }
  convolution_param {
    num_output: 512
    pad: 0
    kernel_size: 1
    stride: 1
    weight_filler {
      type: "xavier"
    }
    bias_filler {
      type: "constant"
      value: 0
    }
    dilation: 1
  }
}
layer {
  name: "relu5_2"
  type: "ReLU"
  bottom: "conv5_2"
  top: "conv5_2"
}
layer {
  name: "conv5_3_depthwise"
  type: "DepthwiseConvolution"
  bottom: "conv5_2"
  top: "conv5_3_3x3"
  param {
    lr_mult: 1
    decay_mult: 1
  }
  param {
    lr_mult: 2
    decay_mult: 0
  }
  convolution_param {
    num_output: 512
    pad: 1
    kernel_size: 3
    group: 512
    weight_filler {
      type: "xavier"
    }
    bias_filler {
      type: "constant"
      value: 0
    }
    dilation: 1
  }
}
layer {
  name: "conv5_3_3x3_relu"
  type: "ReLU"
  bottom: "conv5_3_3x3"
  top: "conv5_3_3x3"
}
layer {
  name: "conv5_3_1x1"
  type: "Convolution"
  bottom: "conv5_3_3x3"
  top: "conv5_3"
  param {
    lr_mult: 1
    decay_mult: 1
  }
  param {
    lr_mult: 2
    decay_mult: 0
  }
  convolution_param {
    num_output: 512
    pad: 0
    kernel_size: 1
    stride: 1
    weight_filler {
      type: "xavier"
    }
    bias_filler {
      type: "constant"
      value: 0
    }
    dilation: 1
  }
}
layer {
  name: "relu5_3"
  type: "ReLU"
  bottom: "conv5_3"
  top: "conv5_3"
}
layer {
  name: "pool5"
  type: "Pooling"
  bottom: "conv5_3"
  top: "pool5"
  pooling_param {
    pool: MAX
    kernel_size: 3
    stride: 1
    pad: 1
  }
}
layer {
  name: "fc6_depthwise"
  type: "DepthwiseConvolution"
  bottom: "pool5"
  top: "fc6_3x3"
  param {
    lr_mult: 1
    decay_mult: 1
  }
  param {
    lr_mult: 2
    decay_mult: 0
  }
  convolution_param {
    num_output: 512
    pad: 6
    kernel_size: 3
    group: 512
    weight_filler {
      type: "xavier"
    }
    bias_filler {
      type: "constant"
      value: 0
    }
    dilation: 6
  }
}
layer {
  name: "fc6_3x3_relu"
  type: "ReLU"
  bottom: "fc6_3x3"
  top: "fc6_3x3"
}
layer {
  name: "fc6_1x1"
  type: "Convolution"
  bottom: "fc6_3x3"
  top: "fc6"
  param {
    lr_mult: 1
    decay_mult: 1
  }
  param {
    lr_mult: 2
    decay_mult: 0
  }
  convolution_param {
    num_output: 1024
    pad: 0
    kernel_size: 1
    stride: 1
    weight_filler {
      type: "xavier"
    }
    bias_filler {
      type: "constant"
      value: 0
    }
    dilation: 6
  }
}
layer {
  name: "relu6"
  type: "ReLU"
  bottom: "fc6"
  top: "fc6"
}
layer {
  name: "fc7"
  type: "Convolution"
  bottom: "fc6"
  top: "fc7"
  param {
    lr_mult: 1
    decay_mult: 1
  }
  param {
    lr_mult: 2
    decay_mult: 0
  }
  convolution_param {
    num_output: 1024
    kernel_size: 1
    weight_filler {
      type: "xavier"
    }
    bias_filler {
      type: "constant"
      value: 0
    }
  }
}
layer {
  name: "relu7"
  type: "ReLU"
  bottom: "fc7"
  top: "fc7"
}
layer {
  name: "conv6_1"
  type: "Convolution"
  bottom: "fc7"
  top: "conv6_1"
  param {
    lr_mult: 1
    decay_mult: 1
  }
  param {
    lr_mult: 2
    decay_mult: 0
  }
  convolution_param {
    num_output: 256
    pad: 0
    kernel_size: 1
    stride: 1
    weight_filler {
      type: "xavier"
    }
    bias_filler {
      type: "constant"
      value: 0
    }
  }
}
layer {
  name: "conv6_1_relu"
  type: "ReLU"
  bottom: "conv6_1"
  top: "conv6_1"
}
layer {
  name: "conv6_2_depthwise"
  type: "DepthwiseConvolution"
  bottom: "conv6_1"
  top: "conv6_2_3x3"
  param {
    lr_mult: 1
    decay_mult: 1
  }
  param {
    lr_mult: 2
    decay_mult: 0
  }
  convolution_param {
    num_output: 256
    pad: 1
    kernel_size: 3
    group: 256
    stride: 2
    weight_filler {
      type: "xavier"
    }
    bias_filler {
      type: "constant"
      value: 0
    }
  }
}
layer {
  name: "conv6_2_3x3_relu"
  type: "ReLU"
  bottom: "conv6_2_3x3"
  top: "conv6_2_3x3"
}
layer {
  name: "conv6_2_1x1"
  type: "Convolution"
  bottom: "conv6_2_3x3"
  top: "conv6_2"
  param {
    lr_mult: 1
    decay_mult: 1
  }
  param {
    lr_mult: 2
    decay_mult: 0
  }
  convolution_param {
    num_output: 512
    pad: 0
    kernel_size: 1
    stride: 1
    weight_filler {
      type: "xavier"
    }
    bias_filler {
      type: "constant"
      value: 0
    }
  }
}
layer {
  name: "conv6_2_relu"
  type: "ReLU"
  bottom: "conv6_2"
  top: "conv6_2"
}
layer {
  name: "conv7_1"
  type: "Convolution"
  bottom: "conv6_2"
  top: "conv7_1"
  param {
    lr_mult: 1
    decay_mult: 1
  }
  param {
    lr_mult: 2
    decay_mult: 0
  }
  convolution_param {
    num_output: 128
    pad: 0
    kernel_size: 1
    stride: 1
    weight_filler {
      type: "xavier"
    }
    bias_filler {
      type: "constant"
      value: 0
    }
  }
}
layer {
  name: "conv7_1_relu"
  type: "ReLU"
  bottom: "conv7_1"
  top: "conv7_1"
}
layer {
  name: "conv7_2"
  type: "Convolution"
  bottom: "conv7_1"
  top: "conv7_2"
  param {
    lr_mult: 1
    decay_mult: 1
  }
  param {
    lr_mult: 2
    decay_mult: 0
  }
  convolution_param {
    num_output: 256
    pad: 1
    kernel_size: 3
    stride: 2
    weight_filler {
      type: "xavier"
    }
    bias_filler {
      type: "constant"
      value: 0
    }
  }
}
layer {
  name: "conv7_2_relu"
  type: "ReLU"
  bottom: "conv7_2"
  top: "conv7_2"
}
layer {
  name: "conv8_1"
  type: "Convolution"
  bottom: "conv7_2"
  top: "conv8_1"
  param {
    lr_mult: 1
    decay_mult: 1
  }
  param {
    lr_mult: 2
    decay_mult: 0
  }
  convolution_param {
    num_output: 128
    pad: 0
    kernel_size: 1
    stride: 1
    weight_filler {
      type: "xavier"
    }
    bias_filler {
      type: "constant"
      value: 0
    }
  }
}
layer {
  name: "conv8_1_relu"
  type: "ReLU"
  bottom: "conv8_1"
  top: "conv8_1"
}
layer {
  name: "conv8_2"
  type: "Convolution"
  bottom: "conv8_1"
  top: "conv8_2"
  param {
    lr_mult: 1
    decay_mult: 1
  }
  param {
    lr_mult: 2
    decay_mult: 0
  }
  convolution_param {
    num_output: 256
    pad: 0
    kernel_size: 3
    stride: 1
    weight_filler {
      type: "xavier"
    }
    bias_filler {
      type: "constant"
      value: 0
    }
  }
}
layer {
  name: "conv8_2_relu"
  type: "ReLU"
  bottom: "conv8_2"
  top: "conv8_2"
}
layer {
  name: "conv9_1"
  type: "Convolution"
  bottom: "conv8_2"
  top: "conv9_1"
  param {
    lr_mult: 1
    decay_mult: 1
  }
  param {
    lr_mult: 2
    decay_mult: 0
  }
  convolution_param {
    num_output: 128
    pad: 0
    kernel_size: 1
    stride: 1
    weight_filler {
      type: "xavier"
    }
    bias_filler {
      type: "constant"
      value: 0
    }
  }
}
layer {
  name: "conv9_1_relu"
  type: "ReLU"
  bottom: "conv9_1"
  top: "conv9_1"
}
layer {
  name: "conv9_2"
  type: "Convolution"
  bottom: "conv9_1"
  top: "conv9_2"
  param {
    lr_mult: 1
    decay_mult: 1
  }
  param {
    lr_mult: 2
    decay_mult: 0
  }
  convolution_param {
    num_output: 256
    pad: 0
    kernel_size: 3
    stride: 1
    weight_filler {
      type: "xavier"
    }
    bias_filler {
      type: "constant"
      value: 0
    }
  }
}
layer {
  name: "conv9_2_relu"
  type: "ReLU"
  bottom: "conv9_2"
  top: "conv9_2"
}
layer {
  name: "conv4_3_norm"
  type: "Normalize"
  bottom: "conv4_3"
  top: "conv4_3_norm"
  norm_param {
    across_spatial: false
    scale_filler {
      type: "constant"
      value: 20
    }
    channel_shared: false
  }
}
layer {
  name: "conv4_3_norm_mbox_loc"
  type: "Convolution"
  bottom: "conv4_3_norm"
  top: "conv4_3_norm_mbox_loc"
  param {
    lr_mult: 1
    decay_mult: 1
  }
  param {
    lr_mult: 2
    decay_mult: 0
  }
  convolution_param {
    num_output: 16
    pad: 1
    kernel_size: 3
    stride: 1
    weight_filler {
      type: "xavier"
    }
    bias_filler {
      type: "constant"
      value: 0
    }
  }
}
layer {
  name: "conv4_3_norm_mbox_loc_perm"
  type: "Permute"
  bottom: "conv4_3_norm_mbox_loc"
  top: "conv4_3_norm_mbox_loc_perm"
  permute_param {
    order: 0
    order: 2
    order: 3
    order: 1
  }
}
layer {
  name: "conv4_3_norm_mbox_loc_flat"
  type: "Flatten"
  bottom: "conv4_3_norm_mbox_loc_perm"
  top: "conv4_3_norm_mbox_loc_flat"
  flatten_param {
    axis: 1
  }
}
layer {
  name: "conv4_3_norm_mbox_conf"
  type: "Convolution"
  bottom: "conv4_3_norm"
  top: "conv4_3_norm_mbox_conf"
  param {
    lr_mult: 1
    decay_mult: 1
  }
  param {
    lr_mult: 2
    decay_mult: 0
  }
  convolution_param {
    num_output: 44
    pad: 1
    kernel_size: 3
    stride: 1
    weight_filler {
      type: "xavier"
    }
    bias_filler {
      type: "constant"
      value: 0
    }
  }
}
layer {
  name: "conv4_3_norm_mbox_conf_perm"
  type: "Permute"
  bottom: "conv4_3_norm_mbox_conf"
  top: "conv4_3_norm_mbox_conf_perm"
  permute_param {
    order: 0
    order: 2
    order: 3
    order: 1
  }
}
layer {
  name: "conv4_3_norm_mbox_conf_flat"
  type: "Flatten"
  bottom: "conv4_3_norm_mbox_conf_perm"
  top: "conv4_3_norm_mbox_conf_flat"
  flatten_param {
    axis: 1
  }
}
layer {
  name: "conv4_3_norm_mbox_priorbox"
  type: "PriorBox"
  bottom: "conv4_3_norm"
  bottom: "data"
  top: "conv4_3_norm_mbox_priorbox"
  prior_box_param {
    min_size: 30
    max_size: 60
    aspect_ratio: 2
    flip: true
    clip: false
    variance: 0.1
    variance: 0.1
    variance: 0.2
    variance: 0.2
    step: 8
    offset: 0.5
  }
}
layer {
  name: "fc7_mbox_loc"
  type: "Convolution"
  bottom: "fc7"
  top: "fc7_mbox_loc"
  param {
    lr_mult: 1
    decay_mult: 1
  }
  param {
    lr_mult: 2
    decay_mult: 0
  }
  convolution_param {
    num_output: 24
    pad: 1
    kernel_size: 3
    stride: 1
    weight_filler {
      type: "xavier"
    }
    bias_filler {
      type: "constant"
      value: 0
    }
  }
}
layer {
  name: "fc7_mbox_loc_perm"
  type: "Permute"
  bottom: "fc7_mbox_loc"
  top: "fc7_mbox_loc_perm"
  permute_param {
    order: 0
    order: 2
    order: 3
    order: 1
  }
}
layer {
  name: "fc7_mbox_loc_flat"
  type: "Flatten"
  bottom: "fc7_mbox_loc_perm"
  top: "fc7_mbox_loc_flat"
  flatten_param {
    axis: 1
  }
}
layer {
  name: "fc7_mbox_conf"
  type: "Convolution"
  bottom: "fc7"
  top: "fc7_mbox_conf"
  param {
    lr_mult: 1
    decay_mult: 1
  }
  param {
    lr_mult: 2
    decay_mult: 0
  }
  convolution_param {
    num_output: 66
    pad: 1
    kernel_size: 3
    stride: 1
    weight_filler {
      type: "xavier"
    }
    bias_filler {
      type: "constant"
      value: 0
    }
  }
}
layer {
  name: "fc7_mbox_conf_perm"
  type: "Permute"
  bottom: "fc7_mbox_conf"
  top: "fc7_mbox_conf_perm"
  permute_param {
    order: 0
    order: 2
    order: 3
    order: 1
  }
}
layer {
  name: "fc7_mbox_conf_flat"
  type: "Flatten"
  bottom: "fc7_mbox_conf_perm"
  top: "fc7_mbox_conf_flat"
  flatten_param {
    axis: 1
  }
}
layer {
  name: "fc7_mbox_priorbox"
  type: "PriorBox"
  bottom: "fc7"
  bottom: "data"
  top: "fc7_mbox_priorbox"
  prior_box_param {
    min_size: 60
    max_size: 111
    aspect_ratio: 2
    aspect_ratio: 3
    flip: true
    clip: false
    variance: 0.1
    variance: 0.1
    variance: 0.2
    variance: 0.2
    step: 16
    offset: 0.5
  }
}
layer {
  name: "conv6_2_mbox_loc"
  type: "Convolution"
  bottom: "conv6_2"
  top: "conv6_2_mbox_loc"
  param {
    lr_mult: 1
    decay_mult: 1
  }
  param {
    lr_mult: 2
    decay_mult: 0
  }
  convolution_param {
    num_output: 24
    pad: 1
    kernel_size: 3
    stride: 1
    weight_filler {
      type: "xavier"
    }
    bias_filler {
      type: "constant"
      value: 0
    }
  }
}
layer {
  name: "conv6_2_mbox_loc_perm"
  type: "Permute"
  bottom: "conv6_2_mbox_loc"
  top: "conv6_2_mbox_loc_perm"
  permute_param {
    order: 0
    order: 2
    order: 3
    order: 1
  }
}
layer {
  name: "conv6_2_mbox_loc_flat"
  type: "Flatten"
  bottom: "conv6_2_mbox_loc_perm"
  top: "conv6_2_mbox_loc_flat"
  flatten_param {
    axis: 1
  }
}
layer {
  name: "conv6_2_mbox_conf"
  type: "Convolution"
  bottom: "conv6_2"
  top: "conv6_2_mbox_conf"
  param {
    lr_mult: 1
    decay_mult: 1
  }
  param {
    lr_mult: 2
    decay_mult: 0
  }
  convolution_param {
    num_output: 66
    pad: 1
    kernel_size: 3
    stride: 1
    weight_filler {
      type: "xavier"
    }
    bias_filler {
      type: "constant"
      value: 0
    }
  }
}
layer {
  name: "conv6_2_mbox_conf_perm"
  type: "Permute"
  bottom: "conv6_2_mbox_conf"
  top: "conv6_2_mbox_conf_perm"
  permute_param {
    order: 0
    order: 2
    order: 3
    order: 1
  }
}
layer {
  name: "conv6_2_mbox_conf_flat"
  type: "Flatten"
  bottom: "conv6_2_mbox_conf_perm"
  top: "conv6_2_mbox_conf_flat"
  flatten_param {
    axis: 1
  }
}
layer {
  name: "conv6_2_mbox_priorbox"
  type: "PriorBox"
  bottom: "conv6_2"
  bottom: "data"
  top: "conv6_2_mbox_priorbox"
  prior_box_param {
    min_size: 111
    max_size: 162
    aspect_ratio: 2
    aspect_ratio: 3
    flip: true
    clip: false
    variance: 0.1
    variance: 0.1
    variance: 0.2
    variance: 0.2
    step: 32
    offset: 0.5
  }
}
layer {
  name: "conv7_2_mbox_loc"
  type: "Convolution"
  bottom: "conv7_2"
  top: "conv7_2_mbox_loc"
  param {
    lr_mult: 1
    decay_mult: 1
  }
  param {
    lr_mult: 2
    decay_mult: 0
  }
  convolution_param {
    num_output: 24
    pad: 1
    kernel_size: 3
    stride: 1
    weight_filler {
      type: "xavier"
    }
    bias_filler {
      type: "constant"
      value: 0
    }
  }
}
layer {
  name: "conv7_2_mbox_loc_perm"
  type: "Permute"
  bottom: "conv7_2_mbox_loc"
  top: "conv7_2_mbox_loc_perm"
  permute_param {
    order: 0
    order: 2
    order: 3
    order: 1
  }
}
layer {
  name: "conv7_2_mbox_loc_flat"
  type: "Flatten"
  bottom: "conv7_2_mbox_loc_perm"
  top: "conv7_2_mbox_loc_flat"
  flatten_param {
    axis: 1
  }
}
layer {
  name: "conv7_2_mbox_conf"
  type: "Convolution"
  bottom: "conv7_2"
  top: "conv7_2_mbox_conf"
  param {
    lr_mult: 1
    decay_mult: 1
  }
  param {
    lr_mult: 2
    decay_mult: 0
  }
  convolution_param {
    num_output: 66
    pad: 1
    kernel_size: 3
    stride: 1
    weight_filler {
      type: "xavier"
    }
    bias_filler {
      type: "constant"
      value: 0
    }
  }
}
layer {
  name: "conv7_2_mbox_conf_perm"
  type: "Permute"
  bottom: "conv7_2_mbox_conf"
  top: "conv7_2_mbox_conf_perm"
  permute_param {
    order: 0
    order: 2
    order: 3
    order: 1
  }
}
layer {
  name: "conv7_2_mbox_conf_flat"
  type: "Flatten"
  bottom: "conv7_2_mbox_conf_perm"
  top: "conv7_2_mbox_conf_flat"
  flatten_param {
    axis: 1
  }
}
layer {
  name: "conv7_2_mbox_priorbox"
  type: "PriorBox"
  bottom: "conv7_2"
  bottom: "data"
  top: "conv7_2_mbox_priorbox"
  prior_box_param {
    min_size: 162
    max_size: 213
    aspect_ratio: 2
    aspect_ratio: 3
    flip: true
    clip: false
    variance: 0.1
    variance: 0.1
    variance: 0.2
    variance: 0.2
    step: 64
    offset: 0.5
  }
}
layer {
  name: "conv8_2_mbox_loc"
  type: "Convolution"
  bottom: "conv8_2"
  top: "conv8_2_mbox_loc"
  param {
    lr_mult: 1
    decay_mult: 1
  }
  param {
    lr_mult: 2
    decay_mult: 0
  }
  convolution_param {
    num_output: 16
    pad: 1
    kernel_size: 3
    stride: 1
    weight_filler {
      type: "xavier"
    }
    bias_filler {
      type: "constant"
      value: 0
    }
  }
}
layer {
  name: "conv8_2_mbox_loc_perm"
  type: "Permute"
  bottom: "conv8_2_mbox_loc"
  top: "conv8_2_mbox_loc_perm"
  permute_param {
    order: 0
    order: 2
    order: 3
    order: 1
  }
}
layer {
  name: "conv8_2_mbox_loc_flat"
  type: "Flatten"
  bottom: "conv8_2_mbox_loc_perm"
  top: "conv8_2_mbox_loc_flat"
  flatten_param {
    axis: 1
  }
}
layer {
  name: "conv8_2_mbox_conf"
  type: "Convolution"
  bottom: "conv8_2"
  top: "conv8_2_mbox_conf"
  param {
    lr_mult: 1
    decay_mult: 1
  }
  param {
    lr_mult: 2
    decay_mult: 0
  }
  convolution_param {
    num_output: 44
    pad: 1
    kernel_size: 3
    stride: 1
    weight_filler {
      type: "xavier"
    }
    bias_filler {
      type: "constant"
      value: 0
    }
  }
}
layer {
  name: "conv8_2_mbox_conf_perm"
  type: "Permute"
  bottom: "conv8_2_mbox_conf"
  top: "conv8_2_mbox_conf_perm"
  permute_param {
    order: 0
    order: 2
    order: 3
    order: 1
  }
}
layer {
  name: "conv8_2_mbox_conf_flat"
  type: "Flatten"
  bottom: "conv8_2_mbox_conf_perm"
  top: "conv8_2_mbox_conf_flat"
  flatten_param {
    axis: 1
  }
}
layer {
  name: "conv8_2_mbox_priorbox"
  type: "PriorBox"
  bottom: "conv8_2"
  bottom: "data"
  top: "conv8_2_mbox_priorbox"
  prior_box_param {
    min_size: 213
    max_size: 264
    aspect_ratio: 2
    flip: true
    clip: false
    variance: 0.1
    variance: 0.1
    variance: 0.2
    variance: 0.2
    step: 100
    offset: 0.5
  }
}
layer {
  name: "conv9_2_mbox_loc"
  type: "Convolution"
  bottom: "conv9_2"
  top: "conv9_2_mbox_loc"
  param {
    lr_mult: 1
    decay_mult: 1
  }
  param {
    lr_mult: 2
    decay_mult: 0
  }
  convolution_param {
    num_output: 16
    pad: 1
    kernel_size: 3
    stride: 1
    weight_filler {
      type: "xavier"
    }
    bias_filler {
      type: "constant"
      value: 0
    }
  }
}
layer {
  name: "conv9_2_mbox_loc_perm"
  type: "Permute"
  bottom: "conv9_2_mbox_loc"
  top: "conv9_2_mbox_loc_perm"
  permute_param {
    order: 0
    order: 2
    order: 3
    order: 1
  }
}
layer {
  name: "conv9_2_mbox_loc_flat"
  type: "Flatten"
  bottom: "conv9_2_mbox_loc_perm"
  top: "conv9_2_mbox_loc_flat"
  flatten_param {
    axis: 1
  }
}
layer {
  name: "conv9_2_mbox_conf"
  type: "Convolution"
  bottom: "conv9_2"
  top: "conv9_2_mbox_conf"
  param {
    lr_mult: 1
    decay_mult: 1
  }
  param {
    lr_mult: 2
    decay_mult: 0
  }
  convolution_param {
    num_output: 44
    pad: 1
    kernel_size: 3
    stride: 1
    weight_filler {
      type: "xavier"
    }
    bias_filler {
      type: "constant"
      value: 0
    }
  }
}
layer {
  name: "conv9_2_mbox_conf_perm"
  type: "Permute"
  bottom: "conv9_2_mbox_conf"
  top: "conv9_2_mbox_conf_perm"
  permute_param {
    order: 0
    order: 2
    order: 3
    order: 1
  }
}
layer {
  name: "conv9_2_mbox_conf_flat"
  type: "Flatten"
  bottom: "conv9_2_mbox_conf_perm"
  top: "conv9_2_mbox_conf_flat"
  flatten_param {
    axis: 1
  }
}
layer {
  name: "conv9_2_mbox_priorbox"
  type: "PriorBox"
  bottom: "conv9_2"
  bottom: "data"
  top: "conv9_2_mbox_priorbox"
  prior_box_param {
    min_size: 264
    max_size: 315
    aspect_ratio: 2
    flip: true
    clip: false
    variance: 0.1
    variance: 0.1
    variance: 0.2
    variance: 0.2
    step: 300
    offset: 0.5
  }
}
layer {
  name: "mbox_loc"
  type: "Concat"
  bottom: "conv4_3_norm_mbox_loc_flat"
  bottom: "fc7_mbox_loc_flat"
  bottom: "conv6_2_mbox_loc_flat"
  bottom: "conv7_2_mbox_loc_flat"
  bottom: "conv8_2_mbox_loc_flat"
  bottom: "conv9_2_mbox_loc_flat"
  top: "mbox_loc"
  concat_param {
    axis: 1
  }
}
layer {
  name: "mbox_conf"
  type: "Concat"
  bottom: "conv4_3_norm_mbox_conf_flat"
  bottom: "fc7_mbox_conf_flat"
  bottom: "conv6_2_mbox_conf_flat"
  bottom: "conv7_2_mbox_conf_flat"
  bottom: "conv8_2_mbox_conf_flat"
  bottom: "conv9_2_mbox_conf_flat"
  top: "mbox_conf"
  concat_param {
    axis: 1
  }
}
layer {
  name: "mbox_priorbox"
  type: "Concat"
  bottom: "conv4_3_norm_mbox_priorbox"
  bottom: "fc7_mbox_priorbox"
  bottom: "conv6_2_mbox_priorbox"
  bottom: "conv7_2_mbox_priorbox"
  bottom: "conv8_2_mbox_priorbox"
  bottom: "conv9_2_mbox_priorbox"
  top: "mbox_priorbox"
  concat_param {
    axis: 2
  }
}
layer {
  name: "mbox_loss"
  type: "MultiBoxLoss"
  bottom: "mbox_loc"
  bottom: "mbox_conf"
  bottom: "mbox_priorbox"
  bottom: "label"
  top: "mbox_loss"
  include {
    phase: TRAIN
  }
  propagate_down: true
  propagate_down: true
  propagate_down: false
  propagate_down: false
  loss_param {
    normalization: V
I0325 10:03:54.404595 17951 layer_factory.hpp:77] Creating layer data
I0325 10:03:54.405393 17951 net.cpp:100] Creating Layer data
I0325 10:03:54.405571 17951 net.cpp:408] data -> data
I0325 10:03:54.405719 17951 net.cpp:408] data -> label
I0325 10:03:54.437886 17966 db_lmdb.cpp:35] Opened lmdb examples/NWPU_VHR/NWPU_VHR_trainval_lmdb
I0325 10:03:54.486963 17951 annotated_data_layer.cpp:62] output data size: 32,3,300,300
I0325 10:03:54.587361 17951 net.cpp:150] Setting up data
I0325 10:03:54.596635 17951 net.cpp:157] Top shape: 32 3 300 300 (8640000)
I0325 10:03:54.596665 17951 net.cpp:157] Top shape: 1 1 4 8 (32)
I0325 10:03:54.596670 17951 net.cpp:165] Memory required for data: 34560128
I0325 10:03:54.596685 17951 layer_factory.hpp:77] Creating layer data_data_0_split
I0325 10:03:54.596704 17951 net.cpp:100] Creating Layer data_data_0_split
I0325 10:03:54.596715 17951 net.cpp:434] data_data_0_split <- data
I0325 10:03:54.596735 17951 net.cpp:408] data_data_0_split -> data_data_0_split_0
I0325 10:03:54.596752 17951 net.cpp:408] data_data_0_split -> data_data_0_split_1
I0325 10:03:54.596765 17951 net.cpp:408] data_data_0_split -> data_data_0_split_2
I0325 10:03:54.596779 17951 net.cpp:408] data_data_0_split -> data_data_0_split_3
I0325 10:03:54.596788 17951 net.cpp:408] data_data_0_split -> data_data_0_split_4
I0325 10:03:54.596798 17951 net.cpp:408] data_data_0_split -> data_data_0_split_5
I0325 10:03:54.596804 17951 net.cpp:408] data_data_0_split -> data_data_0_split_6
I0325 10:03:54.596951 17951 net.cpp:150] Setting up data_data_0_split
I0325 10:03:54.596971 17951 net.cpp:157] Top shape: 32 3 300 300 (8640000)
I0325 10:03:54.596982 17951 net.cpp:157] Top shape: 32 3 300 300 (8640000)
I0325 10:03:54.596990 17951 net.cpp:157] Top shape: 32 3 300 300 (8640000)
I0325 10:03:54.597020 17951 net.cpp:157] Top shape: 32 3 300 300 (8640000)
I0325 10:03:54.597028 17951 net.cpp:157] Top shape: 32 3 300 300 (8640000)
I0325 10:03:54.597035 17951 net.cpp:157] Top shape: 32 3 300 300 (8640000)
I0325 10:03:54.597041 17951 net.cpp:157] Top shape: 32 3 300 300 (8640000)
I0325 10:03:54.597045 17951 net.cpp:165] Memory required for data: 276480128
I0325 10:03:54.597050 17951 layer_factory.hpp:77] Creating layer conv1_1
I0325 10:03:54.597069 17951 net.cpp:100] Creating Layer conv1_1
I0325 10:03:54.597076 17951 net.cpp:434] conv1_1 <- data_data_0_split_0
I0325 10:03:54.597087 17951 net.cpp:408] conv1_1 -> conv1_1
I0325 10:03:55.440932 17951 net.cpp:150] Setting up conv1_1
I0325 10:03:55.441005 17951 net.cpp:157] Top shape: 32 64 300 300 (184320000)
I0325 10:03:55.441026 17951 net.cpp:165] Memory required for data: 1013760128
I0325 10:03:55.441072 17951 layer_factory.hpp:77] Creating layer relu1_1
I0325 10:03:55.441100 17951 net.cpp:100] Creating Layer relu1_1
I0325 10:03:55.441121 17951 net.cpp:434] relu1_1 <- conv1_1
I0325 10:03:55.441143 17951 net.cpp:395] relu1_1 -> conv1_1 (in-place)
I0325 10:03:55.442083 17951 net.cpp:150] Setting up relu1_1
I0325 10:03:55.442123 17951 net.cpp:157] Top shape: 32 64 300 300 (184320000)
I0325 10:03:55.442142 17951 net.cpp:165] Memory required for data: 1751040128
I0325 10:03:55.442160 17951 layer_factory.hpp:77] Creating layer conv1_2
I0325 10:03:55.442195 17951 net.cpp:100] Creating Layer conv1_2
I0325 10:03:55.442216 17951 net.cpp:434] conv1_2 <- conv1_1
I0325 10:03:55.442239 17951 net.cpp:408] conv1_2 -> conv1_2
I0325 10:03:55.445659 17951 net.cpp:150] Setting up conv1_2
I0325 10:03:55.445770 17951 net.cpp:157] Top shape: 32 64 300 300 (184320000)
I0325 10:03:55.445792 17951 net.cpp:165] Memory required for data: 2488320128
I0325 10:03:55.445827 17951 layer_factory.hpp:77] Creating layer relu1_2
I0325 10:03:55.445854 17951 net.cpp:100] Creating Layer relu1_2
I0325 10:03:55.445875 17951 net.cpp:434] relu1_2 <- conv1_2
I0325 10:03:55.445899 17951 net.cpp:395] relu1_2 -> conv1_2 (in-place)
I0325 10:03:55.446121 17951 net.cpp:150] Setting up relu1_2
I0325 10:03:55.446147 17951 net.cpp:157] Top shape: 32 64 300 300 (184320000)
I0325 10:03:55.446166 17951 net.cpp:165] Memory required for data: 3225600128
I0325 10:03:55.446185 17951 layer_factory.hpp:77] Creating layer pool1
I0325 10:03:55.446211 17951 net.cpp:100] Creating Layer pool1
I0325 10:03:55.446229 17951 net.cpp:434] pool1 <- conv1_2
I0325 10:03:55.446249 17951 net.cpp:408] pool1 -> pool1
I0325 10:03:55.446331 17951 net.cpp:150] Setting up pool1
I0325 10:03:55.446353 17951 net.cpp:157] Top shape: 32 64 150 150 (46080000)
I0325 10:03:55.446370 17951 net.cpp:165] Memory required for data: 3409920128
I0325 10:03:55.446388 17951 layer_factory.hpp:77] Creating layer conv2_1
I0325 10:03:55.446414 17951 net.cpp:100] Creating Layer conv2_1
I0325 10:03:55.446434 17951 net.cpp:434] conv2_1 <- pool1
I0325 10:03:55.446454 17951 net.cpp:408] conv2_1 -> conv2_1
I0325 10:03:55.449570 17951 net.cpp:150] Setting up conv2_1
I0325 10:03:55.449725 17951 net.cpp:157] Top shape: 32 128 150 150 (92160000)
I0325 10:03:55.449774 17951 net.cpp:165] Memory required for data: 3778560128
I0325 10:03:55.449823 17951 layer_factory.hpp:77] Creating layer relu2_1
I0325 10:03:55.449865 17951 net.cpp:100] Creating Layer relu2_1
I0325 10:03:55.449890 17951 net.cpp:434] relu2_1 <- conv2_1
I0325 10:03:55.449918 17951 net.cpp:395] relu2_1 -> conv2_1 (in-place)
I0325 10:03:55.450412 17951 net.cpp:150] Setting up relu2_1
I0325 10:03:55.450469 17951 net.cpp:157] Top shape: 32 128 150 150 (92160000)
I0325 10:03:55.450487 17951 net.cpp:165] Memory required for data: 4147200128
I0325 10:03:55.450505 17951 layer_factory.hpp:77] Creating layer conv2_2
I0325 10:03:55.450536 17951 net.cpp:100] Creating Layer conv2_2
I0325 10:03:55.450558 17951 net.cpp:434] conv2_2 <- conv2_1
I0325 10:03:55.450585 17951 net.cpp:408] conv2_2 -> conv2_2
I0325 10:03:55.454217 17951 net.cpp:150] Setting up conv2_2
I0325 10:03:55.454303 17951 net.cpp:157] Top shape: 32 128 150 150 (92160000)
I0325 10:03:55.454335 17951 net.cpp:165] Memory required for data: 4515840128
I0325 10:03:55.454365 17951 layer_factory.hpp:77] Creating layer relu2_2
I0325 10:03:55.454394 17951 net.cpp:100] Creating Layer relu2_2
I0325 10:03:55.454416 17951 net.cpp:434] relu2_2 <- conv2_2
I0325 10:03:55.454439 17951 net.cpp:395] relu2_2 -> conv2_2 (in-place)
I0325 10:03:55.455360 17951 net.cpp:150] Setting up relu2_2
I0325 10:03:55.455397 17951 net.cpp:157] Top shape: 32 128 150 150 (92160000)
I0325 10:03:55.455416 17951 net.cpp:165] Memory required for data: 4884480128
I0325 10:03:55.455435 17951 layer_factory.hpp:77] Creating layer pool2
I0325 10:03:55.455458 17951 net.cpp:100] Creating Layer pool2
I0325 10:03:55.455479 17951 net.cpp:434] pool2 <- conv2_2
I0325 10:03:55.455502 17951 net.cpp:408] pool2 -> pool2
I0325 10:03:55.455586 17951 net.cpp:150] Setting up pool2
I0325 10:03:55.455610 17951 net.cpp:157] Top shape: 32 128 75 75 (23040000)
I0325 10:03:55.455626 17951 net.cpp:165] Memory required for data: 4976640128
I0325 10:03:55.455642 17951 layer_factory.hpp:77] Creating layer conv3_1
I0325 10:03:55.455670 17951 net.cpp:100] Creating Layer conv3_1
I0325 10:03:55.455693 17951 net.cpp:434] conv3_1 <- pool2
I0325 10:03:55.455713 17951 net.cpp:408] conv3_1 -> conv3_1
I0325 10:03:55.463814 17951 net.cpp:150] Setting up conv3_1
I0325 10:03:55.463907 17951 net.cpp:157] Top shape: 32 256 75 75 (46080000)
I0325 10:03:55.463927 17951 net.cpp:165] Memory required for data: 5160960128
I0325 10:03:55.463963 17951 layer_factory.hpp:77] Creating layer relu3_1
I0325 10:03:55.463991 17951 net.cpp:100] Creating Layer relu3_1
I0325 10:03:55.464012 17951 net.cpp:434] relu3_1 <- conv3_1
I0325 10:03:55.464040 17951 net.cpp:395] relu3_1 -> conv3_1 (in-place)
I0325 10:03:55.464360 17951 net.cpp:150] Setting up relu3_1
I0325 10:03:55.464386 17951 net.cpp:157] Top shape: 32 256 75 75 (46080000)
I0325 10:03:55.464404 17951 net.cpp:165] Memory required for data: 5345280128
I0325 10:03:55.464421 17951 layer_factory.hpp:77] Creating layer conv3_2
I0325 10:03:55.464448 17951 net.cpp:100] Creating Layer conv3_2
I0325 10:03:55.464469 17951 net.cpp:434] conv3_2 <- conv3_1
I0325 10:03:55.464493 17951 net.cpp:408] conv3_2 -> conv3_2
I0325 10:03:55.472713 17951 net.cpp:150] Setting up conv3_2
I0325 10:03:55.472832 17951 net.cpp:157] Top shape: 32 256 75 75 (46080000)
I0325 10:03:55.472862 17951 net.cpp:165] Memory required for data: 5529600128
I0325 10:03:55.472906 17951 layer_factory.hpp:77] Creating layer relu3_2
I0325 10:03:55.472946 17951 net.cpp:100] Creating Layer relu3_2
I0325 10:03:55.472975 17951 net.cpp:434] relu3_2 <- conv3_2
I0325 10:03:55.473007 17951 net.cpp:395] relu3_2 -> conv3_2 (in-place)
I0325 10:03:55.473544 17951 net.cpp:150] Setting up relu3_2
I0325 10:03:55.473608 17951 net.cpp:157] Top shape: 32 256 75 75 (46080000)
I0325 10:03:55.473631 17951 net.cpp:165] Memory required for data: 5713920128
I0325 10:03:55.473656 17951 layer_factory.hpp:77] Creating layer conv3_3
I0325 10:03:55.473712 17951 net.cpp:100] Creating Layer conv3_3
I0325 10:03:55.473771 17951 net.cpp:434] conv3_3 <- conv3_2
I0325 10:03:55.473806 17951 net.cpp:408] conv3_3 -> conv3_3
I0325 10:03:55.482497 17951 net.cpp:150] Setting up conv3_3
I0325 10:03:55.482568 17951 net.cpp:157] Top shape: 32 256 75 75 (46080000)
I0325 10:03:55.482585 17951 net.cpp:165] Memory required for data: 5898240128
I0325 10:03:55.482604 17951 layer_factory.hpp:77] Creating layer relu3_3
I0325 10:03:55.482620 17951 net.cpp:100] Creating Layer relu3_3
I0325 10:03:55.482630 17951 net.cpp:434] relu3_3 <- conv3_3
I0325 10:03:55.482638 17951 net.cpp:395] relu3_3 -> conv3_3 (in-place)
I0325 10:03:55.484110 17951 net.cpp:150] Setting up relu3_3
I0325 10:03:55.484200 17951 net.cpp:157] Top shape: 32 256 75 75 (46080000)
I0325 10:03:55.484207 17951 net.cpp:165] Memory required for data: 6082560128
I0325 10:03:55.484220 17951 layer_factory.hpp:77] Creating layer pool3
I0325 10:03:55.484246 17951 net.cpp:100] Creating Layer pool3
I0325 10:03:55.484258 17951 net.cpp:434] pool3 <- conv3_3
I0325 10:03:55.484305 17951 net.cpp:408] pool3 -> pool3
I0325 10:03:55.484442 17951 net.cpp:150] Setting up pool3
I0325 10:03:55.484457 17951 net.cpp:157] Top shape: 32 256 38 38 (11829248)
I0325 10:03:55.484463 17951 net.cpp:165] Memory required for data: 6129877120
I0325 10:03:55.484469 17951 layer_factory.hpp:77] Creating layer conv4_1_depthwise
I0325 10:03:55.484484 17951 net.cpp:100] Creating Layer conv4_1_depthwise
I0325 10:03:55.484494 17951 net.cpp:434] conv4_1_depthwise <- pool3
I0325 10:03:55.484504 17951 net.cpp:408] conv4_1_depthwise -> conv4_1_3x3
I0325 10:03:55.484829 17951 net.cpp:150] Setting up conv4_1_depthwise
I0325 10:03:55.484843 17951 net.cpp:157] Top shape: 32 256 38 38 (11829248)
I0325 10:03:55.484848 17951 net.cpp:165] Memory required for data: 6177194112
I0325 10:03:55.484861 17951 layer_factory.hpp:77] Creating layer conv4_1_3x3_relu
I0325 10:03:55.484872 17951 net.cpp:100] Creating Layer conv4_1_3x3_relu
I0325 10:03:55.484880 17951 net.cpp:434] conv4_1_3x3_relu <- conv4_1_3x3
I0325 10:03:55.484889 17951 net.cpp:395] conv4_1_3x3_relu -> conv4_1_3x3 (in-place)
I0325 10:03:55.485157 17951 net.cpp:150] Setting up conv4_1_3x3_relu
I0325 10:03:55.485172 17951 net.cpp:157] Top shape: 32 256 38 38 (11829248)
I0325 10:03:55.485177 17951 net.cpp:165] Memory required for data: 6224511104
I0325 10:03:55.485182 17951 layer_factory.hpp:77] Creating layer conv4_1_1x1
I0325 10:03:55.485194 17951 net.cpp:100] Creating Layer conv4_1_1x1
I0325 10:03:55.485203 17951 net.cpp:434] conv4_1_1x1 <- conv4_1_3x3
I0325 10:03:55.485213 17951 net.cpp:408] conv4_1_1x1 -> conv4_1
I0325 10:03:55.489161 17951 net.cpp:150] Setting up conv4_1_1x1
I0325 10:03:55.489193 17951 net.cpp:157] Top shape: 32 512 38 38 (23658496)
I0325 10:03:55.489202 17951 net.cpp:165] Memory required for data: 6319145088
I0325 10:03:55.489223 17951 layer_factory.hpp:77] Creating layer relu4_1
I0325 10:03:55.489233 17951 net.cpp:100] Creating Layer relu4_1
I0325 10:03:55.489241 17951 net.cpp:434] relu4_1 <- conv4_1
I0325 10:03:55.489249 17951 net.cpp:395] relu4_1 -> conv4_1 (in-place)
I0325 10:03:55.489444 17951 net.cpp:150] Setting up relu4_1
I0325 10:03:55.489457 17951 net.cpp:157] Top shape: 32 512 38 38 (23658496)
I0325 10:03:55.489462 17951 net.cpp:165] Memory required for data: 6413779072
I0325 10:03:55.489470 17951 layer_factory.hpp:77] Creating layer conv4_2_depthwise
I0325 10:03:55.489485 17951 net.cpp:100] Creating Layer conv4_2_depthwise
I0325 10:03:55.489491 17951 net.cpp:434] conv4_2_depthwise <- conv4_1
I0325 10:03:55.489500 17951 net.cpp:408] conv4_2_depthwise -> conv4_2_3x3
I0325 10:03:55.489861 17951 net.cpp:150] Setting up conv4_2_depthwise
I0325 10:03:55.489876 17951 net.cpp:157] Top shape: 32 512 38 38 (23658496)
I0325 10:03:55.489881 17951 net.cpp:165] Memory required for data: 6508413056
I0325 10:03:55.489889 17951 layer_factory.hpp:77] Creating layer conv4_2_3x3_relu
I0325 10:03:55.489900 17951 net.cpp:100] Creating Layer conv4_2_3x3_relu
I0325 10:03:55.489908 17951 net.cpp:434] conv4_2_3x3_relu <- conv4_2_3x3
I0325 10:03:55.489915 17951 net.cpp:395] conv4_2_3x3_relu -> conv4_2_3x3 (in-place)
I0325 10:03:55.490125 17951 net.cpp:150] Setting up conv4_2_3x3_relu
I0325 10:03:55.490140 17951 net.cpp:157] Top shape: 32 512 38 38 (23658496)
I0325 10:03:55.490145 17951 net.cpp:165] Memory required for data: 6603047040
I0325 10:03:55.490151 17951 layer_factory.hpp:77] Creating layer conv4_2_1x1
I0325 10:03:55.490164 17951 net.cpp:100] Creating Layer conv4_2_1x1
I0325 10:03:55.490172 17951 net.cpp:434] conv4_2_1x1 <- conv4_2_3x3
I0325 10:03:55.490180 17951 net.cpp:408] conv4_2_1x1 -> conv4_2
I0325 10:03:55.495595 17951 net.cpp:150] Setting up conv4_2_1x1
I0325 10:03:55.495638 17951 net.cpp:157] Top shape: 32 512 38 38 (23658496)
I0325 10:03:55.495645 17951 net.cpp:165] Memory required for data: 6697681024
I0325 10:03:55.495662 17951 layer_factory.hpp:77] Creating layer relu4_2
I0325 10:03:55.495676 17951 net.cpp:100] Creating Layer relu4_2
I0325 10:03:55.495687 17951 net.cpp:434] relu4_2 <- conv4_2
I0325 10:03:55.495700 17951 net.cpp:395] relu4_2 -> conv4_2 (in-place)
I0325 10:03:55.496737 17951 net.cpp:150] Setting up relu4_2
I0325 10:03:55.496757 17951 net.cpp:157] Top shape: 32 512 38 38 (23658496)
I0325 10:03:55.496762 17951 net.cpp:165] Memory required for data: 6792315008
I0325 10:03:55.496769 17951 layer_factory.hpp:77] Creating layer conv4_3
I0325 10:03:55.496786 17951 net.cpp:100] Creating Layer conv4_3
I0325 10:03:55.496796 17951 net.cpp:434] conv4_3 <- conv4_2
I0325 10:03:55.496806 17951 net.cpp:408] conv4_3 -> conv4_3
I0325 10:03:55.520092 17951 net.cpp:150] Setting up conv4_3
I0325 10:03:55.520129 17951 net.cpp:157] Top shape: 32 512 38 38 (23658496)
I0325 10:03:55.520136 17951 net.cpp:165] Memory required for data: 6886948992
I0325 10:03:55.520153 17951 layer_factory.hpp:77] Creating layer relu4_3
I0325 10:03:55.520167 17951 net.cpp:100] Creating Layer relu4_3
I0325 10:03:55.520175 17951 net.cpp:434] relu4_3 <- conv4_3
I0325 10:03:55.520181 17951 net.cpp:395] relu4_3 -> conv4_3 (in-place)
I0325 10:03:55.520406 17951 net.cpp:150] Setting up relu4_3
I0325 10:03:55.520421 17951 net.cpp:157] Top shape: 32 512 38 38 (23658496)
I0325 10:03:55.520426 17951 net.cpp:165] Memory required for data: 6981582976
I0325 10:03:55.520431 17951 layer_factory.hpp:77] Creating layer conv4_3_relu4_3_0_split
I0325 10:03:55.520440 17951 net.cpp:100] Creating Layer conv4_3_relu4_3_0_split
I0325 10:03:55.520447 17951 net.cpp:434] conv4_3_relu4_3_0_split <- conv4_3
I0325 10:03:55.520455 17951 net.cpp:408] conv4_3_relu4_3_0_split -> conv4_3_relu4_3_0_split_0
I0325 10:03:55.520465 17951 net.cpp:408] conv4_3_relu4_3_0_split -> conv4_3_relu4_3_0_split_1
I0325 10:03:55.520519 17951 net.cpp:150] Setting up conv4_3_relu4_3_0_split
I0325 10:03:55.520531 17951 net.cpp:157] Top shape: 32 512 38 38 (23658496)
I0325 10:03:55.520539 17951 net.cpp:157] Top shape: 32 512 38 38 (23658496)
I0325 10:03:55.520545 17951 net.cpp:165] Memory required for data: 7170850944
I0325 10:03:55.520550 17951 layer_factory.hpp:77] Creating layer pool4
I0325 10:03:55.520561 17951 net.cpp:100] Creating Layer pool4
I0325 10:03:55.520567 17951 net.cpp:434] pool4 <- conv4_3_relu4_3_0_split_0
I0325 10:03:55.520575 17951 net.cpp:408] pool4 -> pool4
I0325 10:03:55.520620 17951 net.cpp:150] Setting up pool4
I0325 10:03:55.520632 17951 net.cpp:157] Top shape: 32 512 19 19 (5914624)
I0325 10:03:55.520637 17951 net.cpp:165] Memory required for data: 7194509440
I0325 10:03:55.520642 17951 layer_factory.hpp:77] Creating layer conv5_1_depthwise
I0325 10:03:55.520654 17951 net.cpp:100] Creating Layer conv5_1_depthwise
I0325 10:03:55.520663 17951 net.cpp:434] conv5_1_depthwise <- pool4
I0325 10:03:55.520673 17951 net.cpp:408] conv5_1_depthwise -> conv5_1_3x3
I0325 10:03:55.520994 17951 net.cpp:150] Setting up conv5_1_depthwise
I0325 10:03:55.521008 17951 net.cpp:157] Top shape: 32 512 19 19 (5914624)
I0325 10:03:55.521015 17951 net.cpp:165] Memory required for data: 7218167936
I0325 10:03:55.521025 17951 layer_factory.hpp:77] Creating layer conv5_1_3x3_relu
I0325 10:03:55.521041 17951 net.cpp:100] Creating Layer conv5_1_3x3_relu
I0325 10:03:55.521049 17951 net.cpp:434] conv5_1_3x3_relu <- conv5_1_3x3
I0325 10:03:55.521059 17951 net.cpp:395] conv5_1_3x3_relu -> conv5_1_3x3 (in-place)
I0325 10:03:55.521270 17951 net.cpp:150] Setting up conv5_1_3x3_relu
I0325 10:03:55.521284 17951 net.cpp:157] Top shape: 32 512 19 19 (5914624)
I0325 10:03:55.521291 17951 net.cpp:165] Memory required for data: 7241826432
I0325 10:03:55.521297 17951 layer_factory.hpp:77] Creating layer conv5_1_1x1
I0325 10:03:55.521309 17951 net.cpp:100] Creating Layer conv5_1_1x1
I0325 10:03:55.521317 17951 net.cpp:434] conv5_1_1x1 <- conv5_1_3x3
I0325 10:03:55.521325 17951 net.cpp:408] conv5_1_1x1 -> conv5_1
I0325 10:03:55.525926 17951 net.cpp:150] Setting up conv5_1_1x1
I0325 10:03:55.525960 17951 net.cpp:157] Top shape: 32 512 19 19 (5914624)
I0325 10:03:55.525967 17951 net.cpp:165] Memory required for data: 7265484928
I0325 10:03:55.525984 17951 layer_factory.hpp:77] Creating layer relu5_1
I0325 10:03:55.525997 17951 net.cpp:100] Creating Layer relu5_1
I0325 10:03:55.526029 17951 net.cpp:434] relu5_1 <- conv5_1
I0325 10:03:55.526041 17951 net.cpp:395] relu5_1 -> conv5_1 (in-place)
I0325 10:03:55.527353 17951 net.cpp:150] Setting up relu5_1
I0325 10:03:55.527420 17951 net.cpp:157] Top shape: 32 512 19 19 (5914624)
I0325 10:03:55.527427 17951 net.cpp:165] Memory required for data: 7289143424
I0325 10:03:55.527438 17951 layer_factory.hpp:77] Creating layer conv5_2_depthwise
I0325 10:03:55.527467 17951 net.cpp:100] Creating Layer conv5_2_depthwise
I0325 10:03:55.527478 17951 net.cpp:434] conv5_2_depthwise <- conv5_1
I0325 10:03:55.527494 17951 net.cpp:408] conv5_2_depthwise -> conv5_2_3x3
I0325 10:03:55.528038 17951 net.cpp:150] Setting up conv5_2_depthwise
I0325 10:03:55.528071 17951 net.cpp:157] Top shape: 32 512 19 19 (5914624)
I0325 10:03:55.528079 17951 net.cpp:165] Memory required for data: 7312801920
I0325 10:03:55.528101 17951 layer_factory.hpp:77] Creating layer conv5_2_3x3_relu
I0325 10:03:55.528117 17951 net.cpp:100] Creating Layer conv5_2_3x3_relu
I0325 10:03:55.528128 17951 net.cpp:434] conv5_2_3x3_relu <- conv5_2_3x3
I0325 10:03:55.528139 17951 net.cpp:395] conv5_2_3x3_relu -> conv5_2_3x3 (in-place)
I0325 10:03:55.528414 17951 net.cpp:150] Setting up conv5_2_3x3_relu
I0325 10:03:55.528427 17951 net.cpp:157] Top shape: 32 512 19 19 (5914624)
I0325 10:03:55.528434 17951 net.cpp:165] Memory required for data: 7336460416
I0325 10:03:55.528439 17951 layer_factory.hpp:77] Creating layer conv5_2_1x1
I0325 10:03:55.528453 17951 net.cpp:100] Creating Layer conv5_2_1x1
I0325 10:03:55.528461 17951 net.cpp:434] conv5_2_1x1 <- conv5_2_3x3
I0325 10:03:55.528470 17951 net.cpp:408] conv5_2_1x1 -> conv5_2
I0325 10:03:55.531734 17951 net.cpp:150] Setting up conv5_2_1x1
I0325 10:03:55.531765 17951 net.cpp:157] Top shape: 32 512 19 19 (5914624)
I0325 10:03:55.531771 17951 net.cpp:165] Memory required for data: 7360118912
I0325 10:03:55.531785 17951 layer_factory.hpp:77] Creating layer relu5_2
I0325 10:03:55.531801 17951 net.cpp:100] Creating Layer relu5_2
I0325 10:03:55.531810 17951 net.cpp:434] relu5_2 <- conv5_2
I0325 10:03:55.531819 17951 net.cpp:395] relu5_2 -> conv5_2 (in-place)
I0325 10:03:55.532032 17951 net.cpp:150] Setting up relu5_2
I0325 10:03:55.532045 17951 net.cpp:157] Top shape: 32 512 19 19 (5914624)
I0325 10:03:55.532050 17951 net.cpp:165] Memory required for data: 7383777408
I0325 10:03:55.532055 17951 layer_factory.hpp:77] Creating layer conv5_3_depthwise
I0325 10:03:55.532065 17951 net.cpp:100] Creating Layer conv5_3_depthwise
I0325 10:03:55.532073 17951 net.cpp:434] conv5_3_depthwise <- conv5_2
I0325 10:03:55.532079 17951 net.cpp:408] conv5_3_depthwise -> conv5_3_3x3
I0325 10:03:55.532394 17951 net.cpp:150] Setting up conv5_3_depthwise
I0325 10:03:55.532408 17951 net.cpp:157] Top shape: 32 512 19 19 (5914624)
I0325 10:03:55.532415 17951 net.cpp:165] Memory required for data: 7407435904
I0325 10:03:55.532430 17951 layer_factory.hpp:77] Creating layer conv5_3_3x3_relu
I0325 10:03:55.532439 17951 net.cpp:100] Creating Layer conv5_3_3x3_relu
I0325 10:03:55.532445 17951 net.cpp:434] conv5_3_3x3_relu <- conv5_3_3x3
I0325 10:03:55.532455 17951 net.cpp:395] conv5_3_3x3_relu -> conv5_3_3x3 (in-place)
I0325 10:03:55.533401 17951 net.cpp:150] Setting up conv5_3_3x3_relu
I0325 10:03:55.533416 17951 net.cpp:157] Top shape: 32 512 19 19 (5914624)
I0325 10:03:55.533421 17951 net.cpp:165] Memory required for data: 7431094400
I0325 10:03:55.533427 17951 layer_factory.hpp:77] Creating layer conv5_3_1x1
I0325 10:03:55.533437 17951 net.cpp:100] Creating Layer conv5_3_1x1
I0325 10:03:55.533443 17951 net.cpp:434] conv5_3_1x1 <- conv5_3_3x3
I0325 10:03:55.533450 17951 net.cpp:408] conv5_3_1x1 -> conv5_3
I0325 10:03:55.537356 17951 net.cpp:150] Setting up conv5_3_1x1
I0325 10:03:55.537391 17951 net.cpp:157] Top shape: 32 512 19 19 (5914624)
I0325 10:03:55.537398 17951 net.cpp:165] Memory required for data: 7454752896
I0325 10:03:55.537413 17951 layer_factory.hpp:77] Creating layer relu5_3
I0325 10:03:55.537428 17951 net.cpp:100] Creating Layer relu5_3
I0325 10:03:55.537436 17951 net.cpp:434] relu5_3 <- conv5_3
I0325 10:03:55.537464 17951 net.cpp:395] relu5_3 -> conv5_3 (in-place)
I0325 10:03:55.537688 17951 net.cpp:150] Setting up relu5_3
I0325 10:03:55.537701 17951 net.cpp:157] Top shape: 32 512 19 19 (5914624)
I0325 10:03:55.537708 17951 net.cpp:165] Memory required for data: 7478411392
I0325 10:03:55.537714 17951 layer_factory.hpp:77] Creating layer pool5
I0325 10:03:55.537725 17951 net.cpp:100] Creating Layer pool5
I0325 10:03:55.537755 17951 net.cpp:434] pool5 <- conv5_3
I0325 10:03:55.537762 17951 net.cpp:408] pool5 -> pool5
I0325 10:03:55.537816 17951 net.cpp:150] Setting up pool5
I0325 10:03:55.537850 17951 net.cpp:157] Top shape: 32 512 19 19 (5914624)
I0325 10:03:55.537876 17951 net.cpp:165] Memory required for data: 7502069888
I0325 10:03:55.537906 17951 layer_factory.hpp:77] Creating layer fc6_depthwise
I0325 10:03:55.537938 17951 net.cpp:100] Creating Layer fc6_depthwise
I0325 10:03:55.537966 17951 net.cpp:434] fc6_depthwise <- pool5
I0325 10:03:55.538133 17951 net.cpp:408] fc6_depthwise -> fc6_3x3
I0325 10:03:55.538501 17951 net.cpp:150] Setting up fc6_depthwise
I0325 10:03:55.538532 17951 net.cpp:157] Top shape: 32 512 19 19 (5914624)
I0325 10:03:55.538614 17951 net.cpp:165] Memory required for data: 7525728384
I0325 10:03:55.538651 17951 layer_factory.hpp:77] Creating layer fc6_3x3_relu
I0325 10:03:55.538746 17951 net.cpp:100] Creating Layer fc6_3x3_relu
I0325 10:03:55.538779 17951 net.cpp:434] fc6_3x3_relu <- fc6_3x3
I0325 10:03:55.538863 17951 net.cpp:395] fc6_3x3_relu -> fc6_3x3 (in-place)
I0325 10:03:55.539170 17951 net.cpp:150] Setting up fc6_3x3_relu
I0325 10:03:55.539206 17951 net.cpp:157] Top shape: 32 512 19 19 (5914624)
I0325 10:03:55.539413 17951 net.cpp:165] Memory required for data: 7549386880
I0325 10:03:55.539443 17951 layer_factory.hpp:77] Creating layer fc6_1x1
I0325 10:03:55.539543 17951 net.cpp:100] Creating Layer fc6_1x1
I0325 10:03:55.539575 17951 net.cpp:434] fc6_1x1 <- fc6_3x3
I0325 10:03:55.539667 17951 net.cpp:408] fc6_1x1 -> fc6
I0325 10:03:55.543449 17951 net.cpp:150] Setting up fc6_1x1
I0325 10:03:55.543535 17951 net.cpp:157] Top shape: 32 1024 19 19 (11829248)
I0325 10:03:55.543746 17951 net.cpp:165] Memory required for data: 7596703872
I0325 10:03:55.543787 17951 layer_factory.hpp:77] Creating layer relu6
I0325 10:03:55.543869 17951 net.cpp:100] Creating Layer relu6
I0325 10:03:55.543951 17951 net.cpp:434] relu6 <- fc6
I0325 10:03:55.544045 17951 net.cpp:395] relu6 -> fc6 (in-place)
I0325 10:03:55.545174 17951 net.cpp:150] Setting up relu6
I0325 10:03:55.545213 17951 net.cpp:157] Top shape: 32 1024 19 19 (11829248)
I0325 10:03:55.545338 17951 net.cpp:165] Memory required for data: 7644020864
I0325 10:03:55.545369 17951 layer_factory.hpp:77] Creating layer fc7
I0325 10:03:55.545490 17951 net.cpp:100] Creating Layer fc7
I0325 10:03:55.545521 17951 net.cpp:434] fc7 <- fc6
I0325 10:03:55.545614 17951 net.cpp:408] fc7 -> fc7
I0325 10:03:55.558209 17951 net.cpp:150] Setting up fc7
I0325 10:03:55.558285 17951 net.cpp:157] Top shape: 32 1024 19 19 (11829248)
I0325 10:03:55.558456 17951 net.cpp:165] Memory required for data: 7691337856
I0325 10:03:55.558533 17951 layer_factory.hpp:77] Creating layer relu7
I0325 10:03:55.558615 17951 net.cpp:100] Creating Layer relu7
I0325 10:03:55.558686 17951 net.cpp:434] relu7 <- fc7
I0325 10:03:55.558750 17951 net.cpp:395] relu7 -> fc7 (in-place)
I0325 10:03:55.559748 17951 net.cpp:150] Setting up relu7
I0325 10:03:55.559834 17951 net.cpp:157] Top shape: 32 1024 19 19 (11829248)
I0325 10:03:55.559895 17951 net.cpp:165] Memory required for data: 7738654848
I0325 10:03:55.559955 17951 layer_factory.hpp:77] Creating layer fc7_relu7_0_split
I0325 10:03:55.560026 17951 net.cpp:100] Creating Layer fc7_relu7_0_split
I0325 10:03:55.560091 17951 net.cpp:434] fc7_relu7_0_split <- fc7
I0325 10:03:55.560154 17951 net.cpp:408] fc7_relu7_0_split -> fc7_relu7_0_split_0
I0325 10:03:55.560225 17951 net.cpp:408] fc7_relu7_0_split -> fc7_relu7_0_split_1
I0325 10:03:55.560297 17951 net.cpp:408] fc7_relu7_0_split -> fc7_relu7_0_split_2
I0325 10:03:55.560376 17951 net.cpp:408] fc7_relu7_0_split -> fc7_relu7_0_split_3
I0325 10:03:55.560534 17951 net.cpp:150] Setting up fc7_relu7_0_split
I0325 10:03:55.560617 17951 net.cpp:157] Top shape: 32 1024 19 19 (11829248)
I0325 10:03:55.560683 17951 net.cpp:157] Top shape: 32 1024 19 19 (11829248)
I0325 10:03:55.560750 17951 net.cpp:157] Top shape: 32 1024 19 19 (11829248)
I0325 10:03:55.560814 17951 net.cpp:157] Top shape: 32 1024 19 19 (11829248)
I0325 10:03:55.560874 17951 net.cpp:165] Memory required for data: 7927922816
I0325 10:03:55.560935 17951 layer_factory.hpp:77] Creating layer conv6_1
I0325 10:03:55.561009 17951 net.cpp:100] Creating Layer conv6_1
I0325 10:03:55.561071 17951 net.cpp:434] conv6_1 <- fc7_relu7_0_split_0
I0325 10:03:55.561141 17951 net.cpp:408] conv6_1 -> conv6_1
I0325 10:03:55.566486 17951 net.cpp:150] Setting up conv6_1
I0325 10:03:55.566629 17951 net.cpp:157] Top shape: 32 256 19 19 (2957312)
I0325 10:03:55.566690 17951 net.cpp:165] Memory required for data: 7939752064
I0325 10:03:55.566764 17951 layer_factory.hpp:77] Creating layer conv6_1_relu
I0325 10:03:55.566833 17951 net.cpp:100] Creating Layer conv6_1_relu
I0325 10:03:55.566896 17951 net.cpp:434] conv6_1_relu <- conv6_1
I0325 10:03:55.566964 17951 net.cpp:395] conv6_1_relu -> conv6_1 (in-place)
I0325 10:03:55.567255 17951 net.cpp:150] Setting up conv6_1_relu
I0325 10:03:55.567337 17951 net.cpp:157] Top shape: 32 256 19 19 (2957312)
I0325 10:03:55.567399 17951 net.cpp:165] Memory required for data: 7951581312
I0325 10:03:55.567463 17951 layer_factory.hpp:77] Creating layer conv6_2_depthwise
I0325 10:03:55.567536 17951 net.cpp:100] Creating Layer conv6_2_depthwise
I0325 10:03:55.567600 17951 net.cpp:434] conv6_2_depthwise <- conv6_1
I0325 10:03:55.567667 17951 net.cpp:408] conv6_2_depthwise -> conv6_2_3x3
I0325 10:03:55.568055 17951 net.cpp:150] Setting up conv6_2_depthwise
I0325 10:03:55.568145 17951 net.cpp:157] Top shape: 32 256 10 10 (819200)
I0325 10:03:55.568205 17951 net.cpp:165] Memory required for data: 7954858112
I0325 10:03:55.568271 17951 layer_factory.hpp:77] Creating layer conv6_2_3x3_relu
I0325 10:03:55.568338 17951 net.cpp:100] Creating Layer conv6_2_3x3_relu
I0325 10:03:55.568399 17951 net.cpp:434] conv6_2_3x3_relu <- conv6_2_3x3
I0325 10:03:55.568466 17951 net.cpp:395] conv6_2_3x3_relu -> conv6_2_3x3 (in-place)
I0325 10:03:55.568753 17951 net.cpp:150] Setting up conv6_2_3x3_relu
I0325 10:03:55.568841 17951 net.cpp:157] Top shape: 32 256 10 10 (819200)
I0325 10:03:55.568902 17951 net.cpp:165] Memory required for data: 7958134912
I0325 10:03:55.568962 17951 layer_factory.hpp:77] Creating layer conv6_2_1x1
I0325 10:03:55.569033 17951 net.cpp:100] Creating Layer conv6_2_1x1
I0325 10:03:55.569094 17951 net.cpp:434] conv6_2_1x1 <- conv6_2_3x3
I0325 10:03:55.569164 17951 net.cpp:408] conv6_2_1x1 -> conv6_2
I0325 10:03:55.572255 17951 net.cpp:150] Setting up conv6_2_1x1
I0325 10:03:55.572398 17951 net.cpp:157] Top shape: 32 512 10 10 (1638400)
I0325 10:03:55.572460 17951 net.cpp:165] Memory required for data: 7964688512
I0325 10:03:55.572533 17951 layer_factory.hpp:77] Creating layer conv6_2_relu
I0325 10:03:55.572602 17951 net.cpp:100] Creating Layer conv6_2_relu
I0325 10:03:55.572666 17951 net.cpp:434] conv6_2_relu <- conv6_2
I0325 10:03:55.572731 17951 net.cpp:395] conv6_2_relu -> conv6_2 (in-place)
I0325 10:03:55.573806 17951 net.cpp:150] Setting up conv6_2_relu
I0325 10:03:55.573892 17951 net.cpp:157] Top shape: 32 512 10 10 (1638400)
I0325 10:03:55.573954 17951 net.cpp:165] Memory required for data: 7971242112
I0325 10:03:55.574015 17951 layer_factory.hpp:77] Creating layer conv6_2_conv6_2_relu_0_split
I0325 10:03:55.574087 17951 net.cpp:100] Creating Layer conv6_2_conv6_2_relu_0_split
I0325 10:03:55.574153 17951 net.cpp:434] conv6_2_conv6_2_relu_0_split <- conv6_2
I0325 10:03:55.574223 17951 net.cpp:408] conv6_2_conv6_2_relu_0_split -> conv6_2_conv6_2_relu_0_split_0
I0325 10:03:55.574297 17951 net.cpp:408] conv6_2_conv6_2_relu_0_split -> conv6_2_conv6_2_relu_0_split_1
I0325 10:03:55.574378 17951 net.cpp:408] conv6_2_conv6_2_relu_0_split -> conv6_2_conv6_2_relu_0_split_2
I0325 10:03:55.574465 17951 net.cpp:408] conv6_2_conv6_2_relu_0_split -> conv6_2_conv6_2_relu_0_split_3
I0325 10:03:55.574622 17951 net.cpp:150] Setting up conv6_2_conv6_2_relu_0_split
I0325 10:03:55.574710 17951 net.cpp:157] Top shape: 32 512 10 10 (1638400)
I0325 10:03:55.574776 17951 net.cpp:157] Top shape: 32 512 10 10 (1638400)
I0325 10:03:55.574843 17951 net.cpp:157] Top shape: 32 512 10 10 (1638400)
I0325 10:03:55.574908 17951 net.cpp:157] Top shape: 32 512 10 10 (1638400)
I0325 10:03:55.574966 17951 net.cpp:165] Memory required for data: 7997456512
I0325 10:03:55.575027 17951 layer_factory.hpp:77] Creating layer conv7_1
I0325 10:03:55.575101 17951 net.cpp:100] Creating Layer conv7_1
I0325 10:03:55.575166 17951 net.cpp:434] conv7_1 <- conv6_2_conv6_2_relu_0_split_0
I0325 10:03:55.575237 17951 net.cpp:408] conv7_1 -> conv7_1
I0325 10:03:55.577580 17951 net.cpp:150] Setting up conv7_1
I0325 10:03:55.577669 17951 net.cpp:157] Top shape: 32 128 10 10 (409600)
I0325 10:03:55.577754 17951 net.cpp:165] Memory required for data: 7999094912
I0325 10:03:55.577826 17951 layer_factory.hpp:77] Creating layer conv7_1_relu
I0325 10:03:55.577889 17951 net.cpp:100] Creating Layer conv7_1_relu
I0325 10:03:55.577951 17951 net.cpp:434] conv7_1_relu <- conv7_1
I0325 10:03:55.578018 17951 net.cpp:395] conv7_1_relu -> conv7_1 (in-place)
I0325 10:03:55.578299 17951 net.cpp:150] Setting up conv7_1_relu
I0325 10:03:55.578387 17951 net.cpp:157] Top shape: 32 128 10 10 (409600)
I0325 10:03:55.578447 17951 net.cpp:165] Memory required for data: 8000733312
I0325 10:03:55.578507 17951 layer_factory.hpp:77] Creating layer conv7_2
I0325 10:03:55.578578 17951 net.cpp:100] Creating Layer conv7_2
I0325 10:03:55.578639 17951 net.cpp:434] conv7_2 <- conv7_1
I0325 10:03:55.578708 17951 net.cpp:408] conv7_2 -> conv7_2
I0325 10:03:55.584374 17951 net.cpp:150] Setting up conv7_2
I0325 10:03:55.584499 17951 net.cpp:157] Top shape: 32 256 5 5 (204800)
I0325 10:03:55.584560 17951 net.cpp:165] Memory required for data: 8001552512
I0325 10:03:55.584631 17951 layer_factory.hpp:77] Creating layer conv7_2_relu
I0325 10:03:55.584698 17951 net.cpp:100] Creating Layer conv7_2_relu
I0325 10:03:55.584761 17951 net.cpp:434] conv7_2_relu <- conv7_2
I0325 10:03:55.584830 17951 net.cpp:395] conv7_2_relu -> conv7_2 (in-place)
I0325 10:03:55.585111 17951 net.cpp:150] Setting up conv7_2_relu
I0325 10:03:55.585199 17951 net.cpp:157] Top shape: 32 256 5 5 (204800)
I0325 10:03:55.585259 17951 net.cpp:165] Memory required for data: 8002371712
I0325 10:03:55.585320 17951 layer_factory.hpp:77] Creating layer conv7_2_conv7_2_relu_0_split
I0325 10:03:55.585391 17951 net.cpp:100] Creating Layer conv7_2_conv7_2_relu_0_split
I0325 10:03:55.585453 17951 net.cpp:434] conv7_2_conv7_2_relu_0_split <- conv7_2
I0325 10:03:55.585525 17951 net.cpp:408] conv7_2_conv7_2_relu_0_split -> conv7_2_conv7_2_relu_0_split_0
I0325 10:03:55.585599 17951 net.cpp:408] conv7_2_conv7_2_relu_0_split -> conv7_2_conv7_2_relu_0_split_1
I0325 10:03:55.585674 17951 net.cpp:408] conv7_2_conv7_2_relu_0_split -> conv7_2_conv7_2_relu_0_split_2
I0325 10:03:55.585769 17951 net.cpp:408] conv7_2_conv7_2_relu_0_split -> conv7_2_conv7_2_relu_0_split_3
I0325 10:03:55.585924 17951 net.cpp:150] Setting up conv7_2_conv7_2_relu_0_split
I0325 10:03:55.585991 17951 net.cpp:157] Top shape: 32 256 5 5 (204800)
I0325 10:03:55.586055 17951 net.cpp:157] Top shape: 32 256 5 5 (204800)
I0325 10:03:55.586118 17951 net.cpp:157] Top shape: 32 256 5 5 (204800)
I0325 10:03:55.586180 17951 net.cpp:157] Top shape: 32 256 5 5 (204800)
I0325 10:03:55.586243 17951 net.cpp:165] Memory required for data: 8005648512
I0325 10:03:55.586305 17951 layer_factory.hpp:77] Creating layer conv8_1
I0325 10:03:55.586376 17951 net.cpp:100] Creating Layer conv8_1
I0325 10:03:55.586437 17951 net.cpp:434] conv8_1 <- conv7_2_conv7_2_relu_0_split_0
I0325 10:03:55.586508 17951 net.cpp:408] conv8_1 -> conv8_1
I0325 10:03:55.588547 17951 net.cpp:150] Setting up conv8_1
I0325 10:03:55.588642 17951 net.cpp:157] Top shape: 32 128 5 5 (102400)
I0325 10:03:55.588726 17951 net.cpp:165] Memory required for data: 8006058112
I0325 10:03:55.588793 17951 layer_factory.hpp:77] Creating layer conv8_1_relu
I0325 10:03:55.588872 17951 net.cpp:100] Creating Layer conv8_1_relu
I0325 10:03:55.588933 17951 net.cpp:434] conv8_1_relu <- conv8_1
I0325 10:03:55.588996 17951 net.cpp:395] conv8_1_relu -> conv8_1 (in-place)
I0325 10:03:55.589988 17951 net.cpp:150] Setting up conv8_1_relu
I0325 10:03:55.590078 17951 net.cpp:157] Top shape: 32 128 5 5 (102400)
I0325 10:03:55.590142 17951 net.cpp:165] Memory required for data: 8006467712
I0325 10:03:55.590205 17951 layer_factory.hpp:77] Creating layer conv8_2
I0325 10:03:55.590274 17951 net.cpp:100] Creating Layer conv8_2
I0325 10:03:55.590337 17951 net.cpp:434] conv8_2 <- conv8_1
I0325 10:03:55.590404 17951 net.cpp:408] conv8_2 -> conv8_2
I0325 10:03:55.596562 17951 net.cpp:150] Setting up conv8_2
I0325 10:03:55.596699 17951 net.cpp:157] Top shape: 32 256 3 3 (73728)
I0325 10:03:55.596761 17951 net.cpp:165] Memory required for data: 8006762624
I0325 10:03:55.596832 17951 layer_factory.hpp:77] Creating layer conv8_2_relu
I0325 10:03:55.596900 17951 net.cpp:100] Creating Layer conv8_2_relu
I0325 10:03:55.596966 17951 net.cpp:434] conv8_2_relu <- conv8_2
I0325 10:03:55.597034 17951 net.cpp:395] conv8_2_relu -> conv8_2 (in-place)
I0325 10:03:55.597324 17951 net.cpp:150] Setting up conv8_2_relu
I0325 10:03:55.597410 17951 net.cpp:157] Top shape: 32 256 3 3 (73728)
I0325 10:03:55.597470 17951 net.cpp:165] Memory required for data: 8007057536
I0325 10:03:55.597532 17951 layer_factory.hpp:77] Creating layer conv8_2_conv8_2_relu_0_split
I0325 10:03:55.597599 17951 net.cpp:100] Creating Layer conv8_2_conv8_2_relu_0_split
I0325 10:03:55.597664 17951 net.cpp:434] conv8_2_conv8_2_relu_0_split <- conv8_2
I0325 10:03:55.597757 17951 net.cpp:408] conv8_2_conv8_2_relu_0_split -> conv8_2_conv8_2_relu_0_split_0
I0325 10:03:55.597836 17951 net.cpp:408] conv8_2_conv8_2_relu_0_split -> conv8_2_conv8_2_relu_0_split_1
I0325 10:03:55.597908 17951 net.cpp:408] conv8_2_conv8_2_relu_0_split -> conv8_2_conv8_2_relu_0_split_2
I0325 10:03:55.597981 17951 net.cpp:408] conv8_2_conv8_2_relu_0_split -> conv8_2_conv8_2_relu_0_split_3
I0325 10:03:55.598152 17951 net.cpp:150] Setting up conv8_2_conv8_2_relu_0_split
I0325 10:03:55.598237 17951 net.cpp:157] Top shape: 32 256 3 3 (73728)
I0325 10:03:55.598301 17951 net.cpp:157] Top shape: 32 256 3 3 (73728)
I0325 10:03:55.598366 17951 net.cpp:157] Top shape: 32 256 3 3 (73728)
I0325 10:03:55.598431 17951 net.cpp:157] Top shape: 32 256 3 3 (73728)
I0325 10:03:55.598490 17951 net.cpp:165] Memory required for data: 8008237184
I0325 10:03:55.598551 17951 layer_factory.hpp:77] Creating layer conv9_1
I0325 10:03:55.598626 17951 net.cpp:100] Creating Layer conv9_1
I0325 10:03:55.598688 17951 net.cpp:434] conv9_1 <- conv8_2_conv8_2_relu_0_split_0
I0325 10:03:55.598760 17951 net.cpp:408] conv9_1 -> conv9_1
I0325 10:03:55.600816 17951 net.cpp:150] Setting up conv9_1
I0325 10:03:55.600905 17951 net.cpp:157] Top shape: 32 128 3 3 (36864)
I0325 10:03:55.600966 17951 net.cpp:165] Memory required for data: 8008384640
I0325 10:03:55.601034 17951 layer_factory.hpp:77] Creating layer conv9_1_relu
I0325 10:03:55.601097 17951 net.cpp:100] Creating Layer conv9_1_relu
I0325 10:03:55.601158 17951 net.cpp:434] conv9_1_relu <- conv9_1
I0325 10:03:55.601225 17951 net.cpp:395] conv9_1_relu -> conv9_1 (in-place)
I0325 10:03:55.601588 17951 net.cpp:150] Setting up conv9_1_relu
I0325 10:03:55.601672 17951 net.cpp:157] Top shape: 32 128 3 3 (36864)
I0325 10:03:55.601760 17951 net.cpp:165] Memory required for data: 8008532096
I0325 10:03:55.606420 17951 layer_factory.hpp:77] Creating layer conv9_2
I0325 10:03:55.606520 17951 net.cpp:100] Creating Layer conv9_2
I0325 10:03:55.606585 17951 net.cpp:434] conv9_2 <- conv9_1
I0325 10:03:55.606654 17951 net.cpp:408] conv9_2 -> conv9_2
I0325 10:03:55.613324 17951 net.cpp:150] Setting up conv9_2
I0325 10:03:55.616101 17951 net.cpp:157] Top shape: 32 256 1 1 (8192)
I0325 10:03:55.616201 17951 net.cpp:165] Memory required for data: 8008564864
I0325 10:03:55.616232 17951 layer_factory.hpp:77] Creating layer conv9_2_relu
I0325 10:03:55.616246 17951 net.cpp:100] Creating Layer conv9_2_relu
I0325 10:03:55.616257 17951 net.cpp:434] conv9_2_relu <- conv9_2
I0325 10:03:55.616269 17951 net.cpp:395] conv9_2_relu -> conv9_2 (in-place)
I0325 10:03:55.616466 17951 net.cpp:150] Setting up conv9_2_relu
I0325 10:03:55.616477 17951 net.cpp:157] Top shape: 32 256 1 1 (8192)
I0325 10:03:55.616484 17951 net.cpp:165] Memory required for data: 8008597632
I0325 10:03:55.616490 17951 layer_factory.hpp:77] Creating layer conv9_2_conv9_2_relu_0_split
I0325 10:03:55.616500 17951 net.cpp:100] Creating Layer conv9_2_conv9_2_relu_0_split
I0325 10:03:55.616508 17951 net.cpp:434] conv9_2_conv9_2_relu_0_split <- conv9_2
I0325 10:03:55.616520 17951 net.cpp:408] conv9_2_conv9_2_relu_0_split -> conv9_2_conv9_2_relu_0_split_0
I0325 10:03:55.616531 17951 net.cpp:408] conv9_2_conv9_2_relu_0_split -> conv9_2_conv9_2_relu_0_split_1
I0325 10:03:55.616541 17951 net.cpp:408] conv9_2_conv9_2_relu_0_split -> conv9_2_conv9_2_relu_0_split_2
I0325 10:03:55.616616 17951 net.cpp:150] Setting up conv9_2_conv9_2_relu_0_split
I0325 10:03:55.616626 17951 net.cpp:157] Top shape: 32 256 1 1 (8192)
I0325 10:03:55.616632 17951 net.cpp:157] Top shape: 32 256 1 1 (8192)
I0325 10:03:55.616641 17951 net.cpp:157] Top shape: 32 256 1 1 (8192)
I0325 10:03:55.616645 17951 net.cpp:165] Memory required for data: 8008695936
I0325 10:03:55.616654 17951 layer_factory.hpp:77] Creating layer conv4_3_norm
I0325 10:03:55.616668 17951 net.cpp:100] Creating Layer conv4_3_norm
I0325 10:03:55.616675 17951 net.cpp:434] conv4_3_norm <- conv4_3_relu4_3_0_split_1
I0325 10:03:55.616684 17951 net.cpp:408] conv4_3_norm -> conv4_3_norm
I0325 10:03:55.616827 17951 net.cpp:150] Setting up conv4_3_norm
I0325 10:03:55.616837 17951 net.cpp:157] Top shape: 32 512 38 38 (23658496)
I0325 10:03:55.616843 17951 net.cpp:165] Memory required for data: 8103329920
I0325 10:03:55.616852 17951 layer_factory.hpp:77] Creating layer conv4_3_norm_conv4_3_norm_0_split
I0325 10:03:55.616863 17951 net.cpp:100] Creating Layer conv4_3_norm_conv4_3_norm_0_split
I0325 10:03:55.616871 17951 net.cpp:434] conv4_3_norm_conv4_3_norm_0_split <- conv4_3_norm
I0325 10:03:55.616880 17951 net.cpp:408] conv4_3_norm_conv4_3_norm_0_split -> conv4_3_norm_conv4_3_norm_0_split_0
I0325 10:03:55.616891 17951 net.cpp:408] conv4_3_norm_conv4_3_norm_0_split -> conv4_3_norm_conv4_3_norm_0_split_1
I0325 10:03:55.616904 17951 net.cpp:408] conv4_3_norm_conv4_3_norm_0_split -> conv4_3_norm_conv4_3_norm_0_split_2
I0325 10:03:55.616951 17951 net.cpp:150] Setting up conv4_3_norm_conv4_3_norm_0_split
I0325 10:03:55.616960 17951 net.cpp:157] Top shape: 32 512 38 38 (23658496)
I0325 10:03:55.616966 17951 net.cpp:157] Top shape: 32 512 38 38 (23658496)
I0325 10:03:55.616976 17951 net.cpp:157] Top shape: 32 512 38 38 (23658496)
I0325 10:03:55.616981 17951 net.cpp:165] Memory required for data: 8387231872
I0325 10:03:55.616988 17951 layer_factory.hpp:77] Creating layer conv4_3_norm_mbox_loc
I0325 10:03:55.617002 17951 net.cpp:100] Creating Layer conv4_3_norm_mbox_loc
I0325 10:03:55.617009 17951 net.cpp:434] conv4_3_norm_mbox_loc <- conv4_3_norm_conv4_3_norm_0_split_0
I0325 10:03:55.617020 17951 net.cpp:408] conv4_3_norm_mbox_loc -> conv4_3_norm_mbox_loc
I0325 10:03:55.619341 17951 net.cpp:150] Setting up conv4_3_norm_mbox_loc
I0325 10:03:55.619488 17951 net.cpp:157] Top shape: 32 16 38 38 (739328)
I0325 10:03:55.619513 17951 net.cpp:165] Memory required for data: 8390189184
I0325 10:03:55.619545 17951 layer_factory.hpp:77] Creating layer conv4_3_norm_mbox_loc_perm
I0325 10:03:55.619946 17951 net.cpp:100] Creating Layer conv4_3_norm_mbox_loc_perm
I0325 10:03:55.620041 17951 net.cpp:434] conv4_3_norm_mbox_loc_perm <- conv4_3_norm_mbox_loc
I0325 10:03:55.620080 17951 net.cpp:408] conv4_3_norm_mbox_loc_perm -> conv4_3_norm_mbox_loc_perm
I0325 10:03:55.620419 17951 net.cpp:150] Setting up conv4_3_norm_mbox_loc_perm
I0325 10:03:55.620561 17951 net.cpp:157] Top shape: 32 38 38 16 (739328)
I0325 10:03:55.620640 17951 net.cpp:165] Memory required for data: 8393146496
I0325 10:03:55.620755 17951 layer_factory.hpp:77] Creating layer conv4_3_norm_mbox_loc_flat
I0325 10:03:55.620934 17951 net.cpp:100] Creating Layer conv4_3_norm_mbox_loc_flat
I0325 10:03:55.620983 17951 net.cpp:434] conv4_3_norm_mbox_loc_flat <- conv4_3_norm_mbox_loc_perm
I0325 10:03:55.621146 17951 net.cpp:408] conv4_3_norm_mbox_loc_flat -> conv4_3_norm_mbox_loc_flat
I0325 10:03:55.621405 17951 net.cpp:150] Setting up conv4_3_norm_mbox_loc_flat
I0325 10:03:55.621520 17951 net.cpp:157] Top shape: 32 23104 (739328)
I0325 10:03:55.621559 17951 net.cpp:165] Memory required for data: 8396103808
I0325 10:03:55.621664 17951 layer_factory.hpp:77] Creating layer conv4_3_norm_mbox_conf
I0325 10:03:55.621867 17951 net.cpp:100] Creating Layer conv4_3_norm_mbox_conf
I0325 10:03:55.621915 17951 net.cpp:434] conv4_3_norm_mbox_conf <- conv4_3_norm_conv4_3_norm_0_split_1
I0325 10:03:55.622010 17951 net.cpp:408] conv4_3_norm_mbox_conf -> conv4_3_norm_mbox_conf
I0325 10:03:55.626878 17951 net.cpp:150] Setting up conv4_3_norm_mbox_conf
I0325 10:03:55.627151 17951 net.cpp:157] Top shape: 32 44 38 38 (2033152)
I0325 10:03:55.627267 17951 net.cpp:165] Memory required for data: 8404236416
I0325 10:03:55.627399 17951 layer_factory.hpp:77] Creating layer conv4_3_norm_mbox_conf_perm
I0325 10:03:55.627521 17951 net.cpp:100] Creating Layer conv4_3_norm_mbox_conf_perm
I0325 10:03:55.627626 17951 net.cpp:434] conv4_3_norm_mbox_conf_perm <- conv4_3_norm_mbox_conf
I0325 10:03:55.627740 17951 net.cpp:408] conv4_3_norm_mbox_conf_perm -> conv4_3_norm_mbox_conf_perm
I0325 10:03:55.628046 17951 net.cpp:150] Setting up conv4_3_norm_mbox_conf_perm
I0325 10:03:55.628208 17951 net.cpp:157] Top shape: 32 38 38 44 (2033152)
I0325 10:03:55.628310 17951 net.cpp:165] Memory required for data: 8412369024
I0325 10:03:55.628418 17951 layer_factory.hpp:77] Creating layer conv4_3_norm_mbox_conf_flat
I0325 10:03:55.628530 17951 net.cpp:100] Creating Layer conv4_3_norm_mbox_conf_flat
I0325 10:03:55.628635 17951 net.cpp:434] conv4_3_norm_mbox_conf_flat <- conv4_3_norm_mbox_conf_perm
I0325 10:03:55.628751 17951 net.cpp:408] conv4_3_norm_mbox_conf_flat -> conv4_3_norm_mbox_conf_flat
I0325 10:03:55.628903 17951 net.cpp:150] Setting up conv4_3_norm_mbox_conf_flat
I0325 10:03:55.629009 17951 net.cpp:157] Top shape: 32 63536 (2033152)
I0325 10:03:55.629108 17951 net.cpp:165] Memory required for data: 8420501632
I0325 10:03:55.629209 17951 layer_factory.hpp:77] Creating layer conv4_3_norm_mbox_priorbox
I0325 10:03:55.629323 17951 net.cpp:100] Creating Layer conv4_3_norm_mbox_priorbox
I0325 10:03:55.629423 17951 net.cpp:434] conv4_3_norm_mbox_priorbox <- conv4_3_norm_conv4_3_norm_0_split_2
I0325 10:03:55.629536 17951 net.cpp:434] conv4_3_norm_mbox_priorbox <- data_data_0_split_1
I0325 10:03:55.629678 17951 net.cpp:408] conv4_3_norm_mbox_priorbox -> conv4_3_norm_mbox_priorbox
I0325 10:03:55.629865 17951 net.cpp:150] Setting up conv4_3_norm_mbox_priorbox
I0325 10:03:55.629976 17951 net.cpp:157] Top shape: 1 2 23104 (46208)
I0325 10:03:55.630077 17951 net.cpp:165] Memory required for data: 8420686464
I0325 10:03:55.630182 17951 layer_factory.hpp:77] Creating layer fc7_mbox_loc
I0325 10:03:55.630300 17951 net.cpp:100] Creating Layer fc7_mbox_loc
I0325 10:03:55.630398 17951 net.cpp:434] fc7_mbox_loc <- fc7_relu7_0_split_1
I0325 10:03:55.630509 17951 net.cpp:408] fc7_mbox_loc -> fc7_mbox_loc
I0325 10:03:55.635403 17951 net.cpp:150] Setting up fc7_mbox_loc
I0325 10:03:55.635717 17951 net.cpp:157] Top shape: 32 24 19 19 (277248)
I0325 10:03:55.635824 17951 net.cpp:165] Memory required for data: 8421795456
I0325 10:03:55.635949 17951 layer_factory.hpp:77] Creating layer fc7_mbox_loc_perm
I0325 10:03:55.636062 17951 net.cpp:100] Creating Layer fc7_mbox_loc_perm
I0325 10:03:55.636168 17951 net.cpp:434] fc7_mbox_loc_perm <- fc7_mbox_loc
I0325 10:03:55.636281 17951 net.cpp:408] fc7_mbox_loc_perm -> fc7_mbox_loc_perm
I0325 10:03:55.636579 17951 net.cpp:150] Setting up fc7_mbox_loc_perm
I0325 10:03:55.636746 17951 net.cpp:157] Top shape: 32 19 19 24 (277248)
I0325 10:03:55.636879 17951 net.cpp:165] Memory required for data: 8422904448
I0325 10:03:55.636983 17951 layer_factory.hpp:77] Creating layer fc7_mbox_loc_flat
I0325 10:03:55.637099 17951 net.cpp:100] Creating Layer fc7_mbox_loc_flat
I0325 10:03:55.637202 17951 net.cpp:434] fc7_mbox_loc_flat <- fc7_mbox_loc_perm
I0325 10:03:55.637312 17951 net.cpp:408] fc7_mbox_loc_flat -> fc7_mbox_loc_flat
I0325 10:03:55.637476 17951 net.cpp:150] Setting up fc7_mbox_loc_flat
I0325 10:03:55.637588 17951 net.cpp:157] Top shape: 32 8664 (277248)
I0325 10:03:55.637688 17951 net.cpp:165] Memory required for data: 8424013440
I0325 10:03:55.637816 17951 layer_factory.hpp:77] Creating layer fc7_mbox_conf
I0325 10:03:55.637938 17951 net.cpp:100] Creating Layer fc7_mbox_conf
I0325 10:03:55.638128 17951 net.cpp:434] fc7_mbox_conf <- fc7_relu7_0_split_2
I0325 10:03:55.638236 17951 net.cpp:408] fc7_mbox_conf -> fc7_mbox_conf
I0325 10:03:55.647547 17951 net.cpp:150] Setting up fc7_mbox_conf
I0325 10:03:55.647841 17951 net.cpp:157] Top shape: 32 66 19 19 (762432)
I0325 10:03:55.647953 17951 net.cpp:165] Memory required for data: 8427063168
I0325 10:03:55.648068 17951 layer_factory.hpp:77] Creating layer fc7_mbox_conf_perm
I0325 10:03:55.648177 17951 net.cpp:100] Creating Layer fc7_mbox_conf_perm
I0325 10:03:55.648283 17951 net.cpp:434] fc7_mbox_conf_perm <- fc7_mbox_conf
I0325 10:03:55.648393 17951 net.cpp:408] fc7_mbox_conf_perm -> fc7_mbox_conf_perm
I0325 10:03:55.648671 17951 net.cpp:150] Setting up fc7_mbox_conf_perm
I0325 10:03:55.648795 17951 net.cpp:157] Top shape: 32 19 19 66 (762432)
I0325 10:03:55.648900 17951 net.cpp:165] Memory required for data: 8430112896
I0325 10:03:55.648999 17951 layer_factory.hpp:77] Creating layer fc7_mbox_conf_flat
I0325 10:03:55.649103 17951 net.cpp:100] Creating Layer fc7_mbox_conf_flat
I0325 10:03:55.649200 17951 net.cpp:434] fc7_mbox_conf_flat <- fc7_mbox_conf_perm
I0325 10:03:55.649305 17951 net.cpp:408] fc7_mbox_conf_flat -> fc7_mbox_conf_flat
I0325 10:03:55.649443 17951 net.cpp:150] Setting up fc7_mbox_conf_flat
I0325 10:03:55.649544 17951 net.cpp:157] Top shape: 32 23826 (762432)
I0325 10:03:55.649644 17951 net.cpp:165] Memory required for data: 8433162624
I0325 10:03:55.649766 17951 layer_factory.hpp:77] Creating layer fc7_mbox_priorbox
I0325 10:03:55.649876 17951 net.cpp:100] Creating Layer fc7_mbox_priorbox
I0325 10:03:55.649976 17951 net.cpp:434] fc7_mbox_priorbox <- fc7_relu7_0_split_3
I0325 10:03:55.650077 17951 net.cpp:434] fc7_mbox_priorbox <- data_data_0_split_2
I0325 10:03:55.650184 17951 net.cpp:408] fc7_mbox_priorbox -> fc7_mbox_priorbox
I0325 10:03:55.650328 17951 net.cpp:150] Setting up fc7_mbox_priorbox
I0325 10:03:55.650427 17951 net.cpp:157] Top shape: 1 2 8664 (17328)
I0325 10:03:55.650529 17951 net.cpp:165] Memory required for data: 8433231936
I0325 10:03:55.650626 17951 layer_factory.hpp:77] Creating layer conv6_2_mbox_loc
I0325 10:03:55.650748 17951 net.cpp:100] Creating Layer conv6_2_mbox_loc
I0325 10:03:55.650846 17951 net.cpp:434] conv6_2_mbox_loc <- conv6_2_conv6_2_relu_0_split_1
I0325 10:03:55.650952 17951 net.cpp:408] conv6_2_mbox_loc -> conv6_2_mbox_loc
I0325 10:03:55.654677 17951 net.cpp:150] Setting up conv6_2_mbox_loc
I0325 10:03:55.654939 17951 net.cpp:157] Top shape: 32 24 10 10 (76800)
I0325 10:03:55.655048 17951 net.cpp:165] Memory required for data: 8433539136
I0325 10:03:55.655162 17951 layer_factory.hpp:77] Creating layer conv6_2_mbox_loc_perm
I0325 10:03:55.655270 17951 net.cpp:100] Creating Layer conv6_2_mbox_loc_perm
I0325 10:03:55.655376 17951 net.cpp:434] conv6_2_mbox_loc_perm <- conv6_2_mbox_loc
I0325 10:03:55.655488 17951 net.cpp:408] conv6_2_mbox_loc_perm -> conv6_2_mbox_loc_perm
I0325 10:03:55.655764 17951 net.cpp:150] Setting up conv6_2_mbox_loc_perm
I0325 10:03:55.655918 17951 net.cpp:157] Top shape: 32 10 10 24 (76800)
I0325 10:03:55.656018 17951 net.cpp:165] Memory required for data: 8433846336
I0325 10:03:55.656123 17951 layer_factory.hpp:77] Creating layer conv6_2_mbox_loc_flat
I0325 10:03:55.656239 17951 net.cpp:100] Creating Layer conv6_2_mbox_loc_flat
I0325 10:03:55.656353 17951 net.cpp:434] conv6_2_mbox_loc_flat <- conv6_2_mbox_loc_perm
I0325 10:03:55.656461 17951 net.cpp:408] conv6_2_mbox_loc_flat -> conv6_2_mbox_loc_flat
I0325 10:03:55.656610 17951 net.cpp:150] Setting up conv6_2_mbox_loc_flat
I0325 10:03:55.656715 17951 net.cpp:157] Top shape: 32 2400 (76800)
I0325 10:03:55.656808 17951 net.cpp:165] Memory required for data: 8434153536
I0325 10:03:55.656906 17951 layer_factory.hpp:77] Creating layer conv6_2_mbox_conf
I0325 10:03:55.657018 17951 net.cpp:100] Creating Layer conv6_2_mbox_conf
I0325 10:03:55.657117 17951 net.cpp:434] conv6_2_mbox_conf <- conv6_2_conv6_2_relu_0_split_2
I0325 10:03:55.657227 17951 net.cpp:408] conv6_2_mbox_conf -> conv6_2_mbox_conf
I0325 10:03:55.664105 17951 net.cpp:150] Setting up conv6_2_mbox_conf
I0325 10:03:55.664173 17951 net.cpp:157] Top shape: 32 66 10 10 (211200)
I0325 10:03:55.664191 17951 net.cpp:165] Memory required for data: 8434998336
I0325 10:03:55.664337 17951 layer_factory.hpp:77] Creating layer conv6_2_mbox_conf_perm
I0325 10:03:55.664374 17951 net.cpp:100] Creating Layer conv6_2_mbox_conf_perm
I0325 10:03:55.664459 17951 net.cpp:434] conv6_2_mbox_conf_perm <- conv6_2_mbox_conf
I0325 10:03:55.664491 17951 net.cpp:408] conv6_2_mbox_conf_perm -> conv6_2_mbox_conf_perm
I0325 10:03:55.664732 17951 net.cpp:150] Setting up conv6_2_mbox_conf_perm
I0325 10:03:55.664763 17951 net.cpp:157] Top shape: 32 10 10 66 (211200)
I0325 10:03:55.664783 17951 net.cpp:165] Memory required for data: 8435843136
I0325 10:03:55.664870 17951 layer_factory.hpp:77] Creating layer conv6_2_mbox_conf_flat
I0325 10:03:55.664950 17951 net.cpp:100] Creating Layer conv6_2_mbox_conf_flat
I0325 10:03:55.664978 17951 net.cpp:434] conv6_2_mbox_conf_flat <- conv6_2_mbox_conf_perm
I0325 10:03:55.665060 17951 net.cpp:408] conv6_2_mbox_conf_flat -> conv6_2_mbox_conf_flat
I0325 10:03:55.665169 17951 net.cpp:150] Setting up conv6_2_mbox_conf_flat
I0325 10:03:55.665200 17951 net.cpp:157] Top shape: 32 6600 (211200)
I0325 10:03:55.665217 17951 net.cpp:165] Memory required for data: 8436687936
I0325 10:03:55.665297 17951 layer_factory.hpp:77] Creating layer conv6_2_mbox_priorbox
I0325 10:03:55.665381 17951 net.cpp:100] Creating Layer conv6_2_mbox_priorbox
I0325 10:03:55.665410 17951 net.cpp:434] conv6_2_mbox_priorbox <- conv6_2_conv6_2_relu_0_split_3
I0325 10:03:55.665429 17951 net.cpp:434] conv6_2_mbox_priorbox <- data_data_0_split_3
I0325 10:03:55.665514 17951 net.cpp:408] conv6_2_mbox_priorbox -> conv6_2_mbox_priorbox
I0325 10:03:55.665640 17951 net.cpp:150] Setting up conv6_2_mbox_priorbox
I0325 10:03:55.665668 17951 net.cpp:157] Top shape: 1 2 2400 (4800)
I0325 10:03:55.665684 17951 net.cpp:165] Memory required for data: 8436707136
I0325 10:03:55.665796 17951 layer_factory.hpp:77] Creating layer conv7_2_mbox_loc
I0325 10:03:55.665885 17951 net.cpp:100] Creating Layer conv7_2_mbox_loc
I0325 10:03:55.665912 17951 net.cpp:434] conv7_2_mbox_loc <- conv7_2_conv7_2_relu_0_split_1
I0325 10:03:55.665935 17951 net.cpp:408] conv7_2_mbox_loc -> conv7_2_mbox_loc
I0325 10:03:55.668541 17951 net.cpp:150] Setting up conv7_2_mbox_loc
I0325 10:03:55.668598 17951 net.cpp:157] Top shape: 32 24 5 5 (19200)
I0325 10:03:55.668618 17951 net.cpp:165] Memory required for data: 8436783936
I0325 10:03:55.668738 17951 layer_factory.hpp:77] Creating layer conv7_2_mbox_loc_perm
I0325 10:03:55.668774 17951 net.cpp:100] Creating Layer conv7_2_mbox_loc_perm
I0325 10:03:55.668851 17951 net.cpp:434] conv7_2_mbox_loc_perm <- conv7_2_mbox_loc
I0325 10:03:55.668886 17951 net.cpp:408] conv7_2_mbox_loc_perm -> conv7_2_mbox_loc_perm
I0325 10:03:55.669112 17951 net.cpp:150] Setting up conv7_2_mbox_loc_perm
I0325 10:03:55.669147 17951 net.cpp:157] Top shape: 32 5 5 24 (19200)
I0325 10:03:55.669165 17951 net.cpp:165] Memory required for data: 8436860736
I0325 10:03:55.669250 17951 layer_factory.hpp:77] Creating layer conv7_2_mbox_loc_flat
I0325 10:03:55.669334 17951 net.cpp:100] Creating Layer conv7_2_mbox_loc_flat
I0325 10:03:55.669373 17951 net.cpp:434] conv7_2_mbox_loc_flat <- conv7_2_mbox_loc_perm
I0325 10:03:55.669451 17951 net.cpp:408] conv7_2_mbox_loc_flat -> conv7_2_mbox_loc_flat
I0325 10:03:55.669564 17951 net.cpp:150] Setting up conv7_2_mbox_loc_flat
I0325 10:03:55.669593 17951 net.cpp:157] Top shape: 32 600 (19200)
I0325 10:03:55.669610 17951 net.cpp:165] Memory required for data: 8436937536
I0325 10:03:55.669682 17951 layer_factory.hpp:77] Creating layer conv7_2_mbox_conf
I0325 10:03:55.669807 17951 net.cpp:100] Creating Layer conv7_2_mbox_conf
I0325 10:03:55.669836 17951 net.cpp:434] conv7_2_mbox_conf <- conv7_2_conv7_2_relu_0_split_2
I0325 10:03:55.669914 17951 net.cpp:408] conv7_2_mbox_conf -> conv7_2_mbox_conf
I0325 10:03:55.673283 17951 net.cpp:150] Setting up conv7_2_mbox_conf
I0325 10:03:55.673347 17951 net.cpp:157] Top shape: 32 66 5 5 (52800)
I0325 10:03:55.673365 17951 net.cpp:165] Memory required for data: 8437148736
I0325 10:03:55.673501 17951 layer_factory.hpp:77] Creating layer conv7_2_mbox_conf_perm
I0325 10:03:55.673533 17951 net.cpp:100] Creating Layer conv7_2_mbox_conf_perm
I0325 10:03:55.673614 17951 net.cpp:434] conv7_2_mbox_conf_perm <- conv7_2_mbox_conf
I0325 10:03:55.673959 17951 net.cpp:408] conv7_2_mbox_conf_perm -> conv7_2_mbox_conf_perm
I0325 10:03:55.674201 17951 net.cpp:150] Setting up conv7_2_mbox_conf_perm
I0325 10:03:55.674235 17951 net.cpp:157] Top shape: 32 5 5 66 (52800)
I0325 10:03:55.674314 17951 net.cpp:165] Memory required for data: 8437359936
I0325 10:03:55.674341 17951 layer_factory.hpp:77] Creating layer conv7_2_mbox_conf_flat
I0325 10:03:55.674365 17951 net.cpp:100] Creating Layer conv7_2_mbox_conf_flat
I0325 10:03:55.674458 17951 net.cpp:434] conv7_2_mbox_conf_flat <- conv7_2_mbox_conf_perm
I0325 10:03:55.674541 17951 net.cpp:408] conv7_2_mbox_conf_flat -> conv7_2_mbox_conf_flat
I0325 10:03:55.674649 17951 net.cpp:150] Setting up conv7_2_mbox_conf_flat
I0325 10:03:55.674679 17951 net.cpp:157] Top shape: 32 1650 (52800)
I0325 10:03:55.674696 17951 net.cpp:165] Memory required for data: 8437571136
I0325 10:03:55.674775 17951 layer_factory.hpp:77] Creating layer conv7_2_mbox_priorbox
I0325 10:03:55.674860 17951 net.cpp:100] Creating Layer conv7_2_mbox_priorbox
I0325 10:03:55.674888 17951 net.cpp:434] conv7_2_mbox_priorbox <- conv7_2_conv7_2_relu_0_split_3
I0325 10:03:55.674909 17951 net.cpp:434] conv7_2_mbox_priorbox <- data_data_0_split_4
I0325 10:03:55.675000 17951 net.cpp:408] conv7_2_mbox_priorbox -> conv7_2_mbox_priorbox
I0325 10:03:55.675127 17951 net.cpp:150] Setting up conv7_2_mbox_priorbox
I0325 10:03:55.675155 17951 net.cpp:157] Top shape: 1 2 600 (1200)
I0325 10:03:55.675173 17951 net.cpp:165] Memory required for data: 8437575936
I0325 10:03:55.675249 17951 layer_factory.hpp:77] Creating layer conv8_2_mbox_loc
I0325 10:03:55.675339 17951 net.cpp:100] Creating Layer conv8_2_mbox_loc
I0325 10:03:55.675369 17951 net.cpp:434] conv8_2_mbox_loc <- conv8_2_conv8_2_relu_0_split_1
I0325 10:03:55.675451 17951 net.cpp:408] conv8_2_mbox_loc -> conv8_2_mbox_loc
I0325 10:03:55.678789 17951 net.cpp:150] Setting up conv8_2_mbox_loc
I0325 10:03:55.678863 17951 net.cpp:157] Top shape: 32 16 3 3 (4608)
I0325 10:03:55.678884 17951 net.cpp:165] Memory required for data: 8437594368
I0325 10:03:55.679030 17951 layer_factory.hpp:77] Creating layer conv8_2_mbox_loc_perm
I0325 10:03:55.679070 17951 net.cpp:100] Creating Layer conv8_2_mbox_loc_perm
I0325 10:03:55.679153 17951 net.cpp:434] conv8_2_mbox_loc_perm <- conv8_2_mbox_loc
I0325 10:03:55.679188 17951 net.cpp:408] conv8_2_mbox_loc_perm -> conv8_2_mbox_loc_perm
I0325 10:03:55.679425 17951 net.cpp:150] Setting up conv8_2_mbox_loc_perm
I0325 10:03:55.679457 17951 net.cpp:157] Top shape: 32 3 3 16 (4608)
I0325 10:03:55.679476 17951 net.cpp:165] Memory required for data: 8437612800
I0325 10:03:55.679558 17951 layer_factory.hpp:77] Creating layer conv8_2_mbox_loc_flat
I0325 10:03:55.679647 17951 net.cpp:100] Creating Layer conv8_2_mbox_loc_flat
I0325 10:03:55.679674 17951 net.cpp:434] conv8_2_mbox_loc_flat <- conv8_2_mbox_loc_perm
I0325 10:03:55.679765 17951 net.cpp:408] conv8_2_mbox_loc_flat -> conv8_2_mbox_loc_flat
I0325 10:03:55.679889 17951 net.cpp:150] Setting up conv8_2_mbox_loc_flat
I0325 10:03:55.679919 17951 net.cpp:157] Top shape: 32 144 (4608)
I0325 10:03:55.679934 17951 net.cpp:165] Memory required for data: 8437631232
I0325 10:03:55.680016 17951 layer_factory.hpp:77] Creating layer conv8_2_mbox_conf
I0325 10:03:55.680109 17951 net.cpp:100] Creating Layer conv8_2_mbox_conf
I0325 10:03:55.680136 17951 net.cpp:434] conv8_2_mbox_conf <- conv8_2_conv8_2_relu_0_split_2
I0325 10:03:55.680220 17951 net.cpp:408] conv8_2_mbox_conf -> conv8_2_mbox_conf
I0325 10:03:55.683305 17951 net.cpp:150] Setting up conv8_2_mbox_conf
I0325 10:03:55.683378 17951 net.cpp:157] Top shape: 32 44 3 3 (12672)
I0325 10:03:55.683403 17951 net.cpp:165] Memory required for data: 8437681920
I0325 10:03:55.683547 17951 layer_factory.hpp:77] Creating layer conv8_2_mbox_conf_perm
I0325 10:03:55.683581 17951 net.cpp:100] Creating Layer conv8_2_mbox_conf_perm
I0325 10:03:55.683668 17951 net.cpp:434] conv8_2_mbox_conf_perm <- conv8_2_mbox_conf
I0325 10:03:55.683707 17951 net.cpp:408] conv8_2_mbox_conf_perm -> conv8_2_mbox_conf_perm
I0325 10:03:55.683950 17951 net.cpp:150] Setting up conv8_2_mbox_conf_perm
I0325 10:03:55.683980 17951 net.cpp:157] Top shape: 32 3 3 44 (12672)
I0325 10:03:55.683998 17951 net.cpp:165] Memory required for data: 8437732608
I0325 10:03:55.684082 17951 layer_factory.hpp:77] Creating layer conv8_2_mbox_conf_flat
I0325 10:03:55.684166 17951 net.cpp:100] Creating Layer conv8_2_mbox_conf_flat
I0325 10:03:55.684195 17951 net.cpp:434] conv8_2_mbox_conf_flat <- conv8_2_mbox_conf_perm
I0325 10:03:55.684284 17951 net.cpp:408] conv8_2_mbox_conf_flat -> conv8_2_mbox_conf_flat
I0325 10:03:55.684396 17951 net.cpp:150] Setting up conv8_2_mbox_conf_flat
I0325 10:03:55.684424 17951 net.cpp:157] Top shape: 32 396 (12672)
I0325 10:03:55.684442 17951 net.cpp:165] Memory required for data: 8437783296
I0325 10:03:55.684523 17951 layer_factory.hpp:77] Creating layer conv8_2_mbox_priorbox
I0325 10:03:55.684609 17951 net.cpp:100] Creating Layer conv8_2_mbox_priorbox
I0325 10:03:55.684638 17951 net.cpp:434] conv8_2_mbox_priorbox <- conv8_2_conv8_2_relu_0_split_3
I0325 10:03:55.684657 17951 net.cpp:434] conv8_2_mbox_priorbox <- data_data_0_split_5
I0325 10:03:55.684753 17951 net.cpp:408] conv8_2_mbox_priorbox -> conv8_2_mbox_priorbox
I0325 10:03:55.684870 17951 net.cpp:150] Setting up conv8_2_mbox_priorbox
I0325 10:03:55.684898 17951 net.cpp:157] Top shape: 1 2 144 (288)
I0325 10:03:55.684916 17951 net.cpp:165] Memory required for data: 8437784448
I0325 10:03:55.684998 17951 layer_factory.hpp:77] Creating layer conv9_2_mbox_loc
I0325 10:03:55.685097 17951 net.cpp:100] Creating Layer conv9_2_mbox_loc
I0325 10:03:55.685125 17951 net.cpp:434] conv9_2_mbox_loc <- conv9_2_conv9_2_relu_0_split_0
I0325 10:03:55.685209 17951 net.cpp:408] conv9_2_mbox_loc -> conv9_2_mbox_loc
I0325 10:03:55.687729 17951 net.cpp:150] Setting up conv9_2_mbox_loc
I0325 10:03:55.687795 17951 net.cpp:157] Top shape: 32 16 1 1 (512)
I0325 10:03:55.687815 17951 net.cpp:165] Memory required for data: 8437786496
I0325 10:03:55.687958 17951 layer_factory.hpp:77] Creating layer conv9_2_mbox_loc_perm
I0325 10:03:55.687999 17951 net.cpp:100] Creating Layer conv9_2_mbox_loc_perm
I0325 10:03:55.688081 17951 net.cpp:434] conv9_2_mbox_loc_perm <- conv9_2_mbox_loc
I0325 10:03:55.688117 17951 net.cpp:408] conv9_2_mbox_loc_perm -> conv9_2_mbox_loc_perm
I0325 10:03:55.688354 17951 net.cpp:150] Setting up conv9_2_mbox_loc_perm
I0325 10:03:55.688383 17951 net.cpp:157] Top shape: 32 1 1 16 (512)
I0325 10:03:55.688400 17951 net.cpp:165] Memory required for data: 8437788544
I0325 10:03:55.688482 17951 layer_factory.hpp:77] Creating layer conv9_2_mbox_loc_flat
I0325 10:03:55.688518 17951 net.cpp:100] Creating Layer conv9_2_mbox_loc_flat
I0325 10:03:55.688592 17951 net.cpp:434] conv9_2_mbox_loc_flat <- conv9_2_mbox_loc_perm
I0325 10:03:55.688628 17951 net.cpp:408] conv9_2_mbox_loc_flat -> conv9_2_mbox_loc_flat
I0325 10:03:55.688752 17951 net.cpp:150] Setting up conv9_2_mbox_loc_flat
I0325 10:03:55.688791 17951 net.cpp:157] Top shape: 32 16 (512)
I0325 10:03:55.688809 17951 net.cpp:165] Memory required for data: 8437790592
I0325 10:03:55.688885 17951 layer_factory.hpp:77] Creating layer conv9_2_mbox_conf
I0325 10:03:55.688982 17951 net.cpp:100] Creating Layer conv9_2_mbox_conf
I0325 10:03:55.689009 17951 net.cpp:434] conv9_2_mbox_conf <- conv9_2_conv9_2_relu_0_split_1
I0325 10:03:55.689090 17951 net.cpp:408] conv9_2_mbox_conf -> conv9_2_mbox_conf
I0325 10:03:55.692191 17951 net.cpp:150] Setting up conv9_2_mbox_conf
I0325 10:03:55.692265 17951 net.cpp:157] Top shape: 32 44 1 1 (1408)
I0325 10:03:55.692283 17951 net.cpp:165] Memory required for data: 8437796224
I0325 10:03:55.692471 17951 layer_factory.hpp:77] Creating layer conv9_2_mbox_conf_perm
I0325 10:03:55.692508 17951 net.cpp:100] Creating Layer conv9_2_mbox_conf_perm
I0325 10:03:55.692592 17951 net.cpp:434] conv9_2_mbox_conf_perm <- conv9_2_mbox_conf
I0325 10:03:55.692636 17951 net.cpp:408] conv9_2_mbox_conf_perm -> conv9_2_mbox_conf_perm
I0325 10:03:55.692905 17951 net.cpp:150] Setting up conv9_2_mbox_conf_perm
I0325 10:03:55.692937 17951 net.cpp:157] Top shape: 32 1 1 44 (1408)
I0325 10:03:55.692955 17951 net.cpp:165] Memory required for data: 8437801856
I0325 10:03:55.693042 17951 layer_factory.hpp:77] Creating layer conv9_2_mbox_conf_flat
I0325 10:03:55.693125 17951 net.cpp:100] Creating Layer conv9_2_mbox_conf_flat
I0325 10:03:55.693154 17951 net.cpp:434] conv9_2_mbox_conf_flat <- conv9_2_mbox_conf_perm
I0325 10:03:55.693238 17951 net.cpp:408] conv9_2_mbox_conf_flat -> conv9_2_mbox_conf_flat
I0325 10:03:55.693351 17951 net.cpp:150] Setting up conv9_2_mbox_conf_flat
I0325 10:03:55.693380 17951 net.cpp:157] Top shape: 32 44 (1408)
I0325 10:03:55.693398 17951 net.cpp:165] Memory required for data: 8437807488
I0325 10:03:55.693480 17951 layer_factory.hpp:77] Creating layer conv9_2_mbox_priorbox
I0325 10:03:55.693560 17951 net.cpp:100] Creating Layer conv9_2_mbox_priorbox
I0325 10:03:55.693588 17951 net.cpp:434] conv9_2_mbox_priorbox <- conv9_2_conv9_2_relu_0_split_2
I0325 10:03:55.693608 17951 net.cpp:434] conv9_2_mbox_priorbox <- data_data_0_split_6
I0325 10:03:55.693698 17951 net.cpp:408] conv9_2_mbox_priorbox -> conv9_2_mbox_priorbox
I0325 10:03:55.693853 17951 net.cpp:150] Setting up conv9_2_mbox_priorbox
I0325 10:03:55.693884 17951 net.cpp:157] Top shape: 1 2 16 (32)
I0325 10:03:55.693902 17951 net.cpp:165] Memory required for data: 8437807616
I0325 10:03:55.693981 17951 layer_factory.hpp:77] Creating layer mbox_loc
I0325 10:03:55.694066 17951 net.cpp:100] Creating Layer mbox_loc
I0325 10:03:55.694095 17951 net.cpp:434] mbox_loc <- conv4_3_norm_mbox_loc_flat
I0325 10:03:55.694170 17951 net.cpp:434] mbox_loc <- fc7_mbox_loc_flat
I0325 10:03:55.694200 17951 net.cpp:434] mbox_loc <- conv6_2_mbox_loc_flat
I0325 10:03:55.694278 17951 net.cpp:434] mbox_loc <- conv7_2_mbox_loc_flat
I0325 10:03:55.694308 17951 net.cpp:434] mbox_loc <- conv8_2_mbox_loc_flat
I0325 10:03:55.694326 17951 net.cpp:434] mbox_loc <- conv9_2_mbox_loc_flat
I0325 10:03:55.694413 17951 net.cpp:408] mbox_loc -> mbox_loc
I0325 10:03:55.694538 17951 net.cpp:150] Setting up mbox_loc
I0325 10:03:55.694569 17951 net.cpp:157] Top shape: 32 34928 (1117696)
I0325 10:03:55.694586 17951 net.cpp:165] Memory required for data: 8442278400
I0325 10:03:55.694674 17951 layer_factory.hpp:77] Creating layer mbox_conf
I0325 10:03:55.694697 17951 net.cpp:100] Creating Layer mbox_conf
I0325 10:03:55.694716 17951 net.cpp:434] mbox_conf <- conv4_3_norm_mbox_conf_flat
I0325 10:03:55.694736 17951 net.cpp:434] mbox_conf <- fc7_mbox_conf_flat
I0325 10:03:55.694757 17951 net.cpp:434] mbox_conf <- conv6_2_mbox_conf_flat
I0325 10:03:55.694778 17951 net.cpp:434] mbox_conf <- conv7_2_mbox_conf_flat
I0325 10:03:55.694905 17951 net.cpp:434] mbox_conf <- conv8_2_mbox_conf_flat
I0325 10:03:55.694933 17951 net.cpp:434] mbox_conf <- conv9_2_mbox_conf_flat
I0325 10:03:55.694955 17951 net.cpp:408] mbox_conf -> mbox_conf
I0325 10:03:55.695013 17951 net.cpp:150] Setting up mbox_conf
I0325 10:03:55.695088 17951 net.cpp:157] Top shape: 32 96052 (3073664)
I0325 10:03:55.695196 17951 net.cpp:165] Memory required for data: 8454573056
I0325 10:03:55.695217 17951 layer_factory.hpp:77] Creating layer mbox_priorbox
I0325 10:03:55.695307 17951 net.cpp:100] Creating Layer mbox_priorbox
I0325 10:03:55.695374 17951 net.cpp:434] mbox_priorbox <- conv4_3_norm_mbox_priorbox
I0325 10:03:55.695451 17951 net.cpp:434] mbox_priorbox <- fc7_mbox_priorbox
I0325 10:03:55.695478 17951 net.cpp:434] mbox_priorbox <- conv6_2_mbox_priorbox
I0325 10:03:55.695497 17951 net.cpp:434] mbox_priorbox <- conv7_2_mbox_priorbox
I0325 10:03:55.695577 17951 net.cpp:434] mbox_priorbox <- conv8_2_mbox_priorbox
I0325 10:03:55.695652 17951 net.cpp:434] mbox_priorbox <- conv9_2_mbox_priorbox
I0325 10:03:55.695680 17951 net.cpp:408] mbox_priorbox -> mbox_priorbox
I0325 10:03:55.695797 17951 net.cpp:150] Setting up mbox_priorbox
I0325 10:03:55.695828 17951 net.cpp:157] Top shape: 1 2 34928 (69856)
I0325 10:03:55.695905 17951 net.cpp:165] Memory required for data: 8454852480
I0325 10:03:55.695931 17951 layer_factory.hpp:77] Creating layer mbox_loss
I0325 10:03:55.696029 17951 net.cpp:100] Creating Layer mbox_loss
I0325 10:03:55.696058 17951 net.cpp:434] mbox_loss <- mbox_loc
I0325 10:03:55.696076 17951 net.cpp:434] mbox_loss <- mbox_conf
I0325 10:03:55.696161 17951 net.cpp:434] mbox_loss <- mbox_priorbox
…
  phase: TEST
}
layer {
  name: "data"
  type: "AnnotatedData"
  top: "data"
  top: "label"
  include {
    phase: TEST
  }
  transform_param {
    mean_value: 104
    mean_value: 117
    mean_value: 123
    resize_param {
      prob: 1
      resize_mode: WARP
      height: 300
      width: 300
      interp_mode: LINEAR
    }
  }
  data_param {
    source: "examples/NWPU_VHR/NWPU_VHR_test_lmdb"
    batch_size: 1
    backend: LMDB
  }
  annotated_data_param {
    batch_sampler {
    }
    label_map_file: "data/NWPU_VHR/labelmap_NWPU_VHR.prototxt"
  }
}
layer {
  name: "conv1_1"
  type: "Convolution"
  bottom: "data"
  top: "conv1_1"
  param {
    lr_mult: 1
    decay_mult: 1
  }
  param {
    lr_mult: 2
    decay_mult: 0
  }
  convolution_param {
    num_output: 64
    pad: 1
    kernel_size: 3
    weight_filler {
      type: "xavier"
    }
    bias_filler {
      type: "constant"
      value: 0
    }
  }
}
layer {
  name: "relu1_1"
  type: "ReLU"
  bottom: "conv1_1"
  top: "conv1_1"
}
layer {
  name: "conv1_2"
  type: "Convolution"
  bottom: "conv1_1"
  top: "conv1_2"
  param {
    lr_mult: 1
    decay_mult: 1
  }
  param {
    lr_mult: 2
    decay_mult: 0
  }
  convolution_param {
    num_output: 64
    pad: 1
    kernel_size: 3
    weight_filler {
      type: "xavier"
    }
    bias_filler {
      type: "constant"
      value: 0
    }
  }
}
layer {
  name: "relu1_2"
  type: "ReLU"
  bottom: "conv1_2"
  top: "conv1_2"
}
layer {
  name: "pool1"
  type: "Pooling"
  bottom: "conv1_2"
  top: "pool1"
  pooling_param {
    pool: MAX
    kernel_size: 2
    stride: 2
  }
}
layer {
  name: "conv2_1"
  type: "Convolution"
  bottom: "pool1"
  top: "conv2_1"
  param {
    lr_mult: 1
    decay_mult: 1
  }
  param {
    lr_mult: 2
    decay_mult: 0
  }
  convolution_param {
    num_output: 128
    pad: 1
    kernel_size: 3
    weight_filler {
      type: "xavier"
    }
    bias_filler {
      type: "constant"
      value: 0
    }
  }
}
layer {
  name: "relu2_1"
  type: "ReLU"
  bottom: "conv2_1"
  top: "conv2_1"
}
layer {
  name: "conv2_2"
  type: "Convolution"
  bottom: "conv2_1"
  top: "conv2_2"
  param {
    lr_mult: 1
    decay_mult: 1
  }
  param {
    lr_mult: 2
    decay_mult: 0
  }
  convolution_param {
    num_output: 128
    pad: 1
    kernel_size: 3
    weight_filler {
      type: "xavier"
    }
    bias_filler {
      type: "constant"
      value: 0
    }
  }
}
layer {
  name: "relu2_2"
  type: "ReLU"
  bottom: "conv2_2"
  top: "conv2_2"
}
layer {
  name: "pool2"
  type: "Pooling"
  bottom: "conv2_2"
  top: "pool2"
  pooling_param {
    pool: MAX
    kernel_size: 2
    stride: 2
  }
}
layer {
  name: "conv3_1"
  type: "Convolution"
  bottom: "pool2"
  top: "conv3_1"
  param {
    lr_mult: 1
    decay_mult: 1
  }
  param {
    lr_mult: 2
    decay_mult: 0
  }
  convolution_param {
    num_output: 256
    pad: 1
    kernel_size: 3
    weight_filler {
      type: "xavier"
    }
    bias_filler {
      type: "constant"
      value: 0
    }
  }
}
layer {
  name: "relu3_1"
  type: "ReLU"
  bottom: "conv3_1"
  top: "conv3_1"
}
layer {
  name: "conv3_2"
  type: "Convolution"
  bottom: "conv3_1"
  top: "conv3_2"
  param {
    lr_mult: 1
    decay_mult: 1
  }
  param {
    lr_mult: 2
    decay_mult: 0
  }
  convolution_param {
    num_output: 256
    pad: 1
    kernel_size: 3
    weight_filler {
      type: "xavier"
    }
    bias_filler {
      type: "constant"
      value: 0
    }
  }
}
layer {
  name: "relu3_2"
  type: "ReLU"
  bottom: "conv3_2"
  top: "conv3_2"
}
layer {
  name: "conv3_3"
  type: "Convolution"
  bottom: "conv3_2"
  top: "conv3_3"
  param {
    lr_mult: 1
    decay_mult: 1
  }
  param {
    lr_mult: 2
    decay_mult: 0
  }
  convolution_param {
    num_output: 256
    pad: 1
    kernel_size: 3
    weight_filler {
      type: "xavier"
    }
    bias_filler {
      type: "constant"
      value: 0
    }
  }
}
layer {
  name: "relu3_3"
  type: "ReLU"
  bottom: "conv3_3"
  top: "conv3_3"
}
layer {
  name: "pool3"
  type: "Pooling"
  bottom: "conv3_3"
  top: "pool3"
  pooling_param {
    pool: MAX
    kernel_size: 2
    stride: 2
  }
}
layer {
  name: "conv4_1_depthwise"
  type: "DepthwiseConvolution"
  bottom: "pool3"
  top: "conv4_1_3x3"
  param {
    lr_mult: 1
    decay_mult: 1
  }
  param {
    lr_mult: 2
    decay_mult: 0
  }
  convolution_param {
    num_output: 256
    pad: 1
    kernel_size: 3
    group: 256
    weight_filler {
      type: "xavier"
    }
    bias_filler {
      type: "constant"
      value: 0
    }
  }
}
layer {
  name: "conv4_1_3x3_relu"
  type: "ReLU"
  bottom: "conv4_1_3x3"
  top: "conv4_1_3x3"
}
layer {
  name: "conv4_1_1x1"
  type: "Convolution"
  bottom: "conv4_1_3x3"
  top: "conv4_1"
  param {
    lr_mult: 1
    decay_mult: 1
  }
  param {
    lr_mult: 2
    decay_mult: 0
  }
  convolution_param {
    num_output: 512
    pad: 0
    kernel_size: 1
    stride: 1
    weight_filler {
      type: "xavier"
    }
    bias_filler {
      type: "constant"
      value: 0
    }
  }
}
layer {
  name: "relu4_1"
  type: "ReLU"
  bottom: "conv4_1"
  top: "conv4_1"
}
layer {
  name: "conv4_2_depthwise"
  type: "DepthwiseConvolution"
  bottom: "conv4_1"
  top: "conv4_2_3x3"
  param {
    lr_mult: 1
    decay_mult: 1
  }
  param {
    lr_mult: 2
    decay_mult: 0
  }
  convolution_param {
    num_output: 512
    pad: 1
    kernel_size: 3
    group: 512
    weight_filler {
      type: "xavier"
    }
    bias_filler {
      type: "constant"
      value: 0
    }
  }
}
layer {
  name: "conv4_2_3x3_relu"
  type: "ReLU"
  bottom: "conv4_2_3x3"
  top: "conv4_2_3x3"
}
layer {
  name: "conv4_2_1x1"
  type: "Convolution"
  bottom: "conv4_2_3x3"
  top: "conv4_2"
  param {
    lr_mult: 1
    decay_mult: 1
  }
  param {
    lr_mult: 2
    decay_mult: 0
  }
  convolution_param {
    num_output: 512
    pad: 0
    kernel_size: 1
    stride: 1
    weight_filler {
      type: "xavier"
    }
    bias_filler {
      type: "constant"
      value: 0
    }
  }
}
layer {
  name: "relu4_2"
  type: "ReLU"
  bottom: "conv4_2"
  top: "conv4_2"
}
layer {
  name: "conv4_3"
  type: "Convolution"
  bottom: "conv4_2"
  top: "conv4_3"
  param {
    lr_mult: 1
    decay_mult: 1
  }
  param {
    lr_mult: 2
    decay_mult: 0
  }
  convolution_param {
    num_output: 512
    pad: 1
    kernel_size: 3
    weight_filler {
      type: "xavier"
    }
    bias_filler {
      type: "constant"
      value: 0
    }
  }
}
layer {
  name: "relu4_3"
  type: "ReLU"
  bottom: "conv4_3"
  top: "conv4_3"
}
layer {
  name: "pool4"
  type: "Pooling"
  bottom: "conv4_3"
  top: "pool4"
  pooling_param {
    pool: MAX
    kernel_size: 2
    stride: 2
  }
}
layer {
  name: "conv5_1_depthwise"
  type: "DepthwiseConvolution"
  bottom: "pool4"
  top: "conv5_1_3x3"
  param {
    lr_mult: 1
    decay_mult: 1
  }
  param {
    lr_mult: 2
    decay_mult: 0
  }
  convolution_param {
    num_output: 512
    pad: 1
    kernel_size: 3
    group: 512
    weight_filler {
      type: "xavier"
    }
    bias_filler {
      type: "constant"
      value: 0
    }
    dilation: 1
  }
}
layer {
  name: "conv5_1_3x3_relu"
  type: "ReLU"
  bottom: "conv5_1_3x3"
  top: "conv5_1_3x3"
}
layer {
  name: "conv5_1_1x1"
  type: "Convolution"
  bottom: "conv5_1_3x3"
  top: "conv5_1"
  param {
    lr_mult: 1
    decay_mult: 1
  }
  param {
    lr_mult: 2
    decay_mult: 0
  }
  convolution_param {
    num_output: 512
    pad: 0
    kernel_size: 1
    stride: 1
    weight_filler {
      type: "xavier"
    }
    bias_filler {
      type: "constant"
      value: 0
    }
    dilation: 1
  }
}
layer {
  name: "relu5_1"
  type: "ReLU"
  bottom: "conv5_1"
  top: "conv5_1"
}
layer {
  name: "conv5_2_depthwise"
  type: "DepthwiseConvolution"
  bottom: "conv5_1"
  top: "conv5_2_3x3"
  param {
    lr_mult: 1
    decay_mult: 1
  }
  param {
    lr_mult: 2
    decay_mult: 0
  }
  convolution_param {
    num_output: 512
    pad: 1
    kernel_size: 3
    group: 512
    weight_filler {
      type: "xavier"
    }
    bias_filler {
      type: "constant"
      value: 0
    }
    dilation: 1
  }
}
layer {
  name: "conv5_2_3x3_relu"
  type: "ReLU"
  bottom: "conv5_2_3x3"
  top: "conv5_2_3x3"
}
layer {
  name: "conv5_2_1x1"
  type: "Convolution"
  bottom: "conv5_2_3x3"
  top: "conv5_2"
  param {
    lr_mult: 1
    decay_mult: 1
  }
  param {
    lr_mult: 2
    decay_mult: 0
  }
  convolution_param {
    num_output: 512
    pad: 0
    kernel_size: 1
    stride: 1
    weight_filler {
      type: "xavier"
    }
    bias_filler {
      type: "constant"
      value: 0
    }
    dilation: 1
  }
}
layer {
  name: "relu5_2"
  type: "ReLU"
  bottom: "conv5_2"
  top: "conv5_2"
}
layer {
  name: "conv5_3_depthwise"
  type: "DepthwiseConvolution"
  bottom: "conv5_2"
  top: "conv5_3_3x3"
  param {
    lr_mult: 1
    decay_mult: 1
  }
  param {
    lr_mult: 2
    decay_mult: 0
  }
  convolution_param {
    num_output: 512
    pad: 1
    kernel_size: 3
    group: 512
    weight_filler {
      type: "xavier"
    }
    bias_filler {
      type: "constant"
      value: 0
    }
    dilation: 1
  }
}
layer {
  name: "conv5_3_3x3_relu"
  type: "ReLU"
  bottom: "conv5_3_3x3"
  top: "conv5_3_3x3"
}
layer {
  name: "conv5_3_1x1"
  type: "Convolution"
  bottom: "conv5_3_3x3"
  top: "conv5_3"
  param {
    lr_mult: 1
    decay_mult: 1
  }
  param {
    lr_mult: 2
    decay_mult: 0
  }
  convolution_param {
    num_output: 512
    pad: 0
    kernel_size: 1
    stride: 1
    weight_filler {
      type: "xavier"
    }
    bias_filler {
      type: "constant"
      value: 0
    }
    dilation: 1
  }
}
layer {
  name: "relu5_3"
  type: "ReLU"
  bottom: "conv5_3"
  top: "conv5_3"
}
layer {
  name: "pool5"
  type: "Pooling"
  bottom: "conv5_3"
  top: "pool5"
  pooling_param {
    pool: MAX
    kernel_size: 3
    stride: 1
    pad: 1
  }
}
layer {
  name: "fc6_depthwise"
  type: "DepthwiseConvolution"
  bottom: "pool5"
  top: "fc6_3x3"
  param {
    lr_mult: 1
    decay_mult: 1
  }
  param {
    lr_mult: 2
    decay_mult: 0
  }
  convolution_param {
    num_output: 512
    pad: 6
    kernel_size: 3
    group: 512
    weight_filler {
      type: "xavier"
    }
    bias_filler {
      type: "constant"
      value: 0
    }
    dilation: 6
  }
}
layer {
  name: "fc6_3x3_relu"
  type: "ReLU"
  bottom: "fc6_3x3"
  top: "fc6_3x3"
}
layer {
  name: "fc6_1x1"
  type: "Convolution"
  bottom: "fc6_3x3"
  top: "fc6"
  param {
    lr_mult: 1
    decay_mult: 1
  }
  param {
    lr_mult: 2
    decay_mult: 0
  }
  convolution_param {
    num_output: 1024
    pad: 0
    kernel_size: 1
    stride: 1
    weight_filler {
      type: "xavier"
    }
    bias_filler {
      type: "constant"
      value: 0
    }
    dilation: 6
  }
}
layer {
  name: "relu6"
  type: "ReLU"
  bottom: "fc6"
  top: "fc6"
}
layer {
  name: "fc7"
  type: "Convolution"
  bottom: "fc6"
  top: "fc7"
  param {
    lr_mult: 1
    decay_mult: 1
  }
  param {
    lr_mult: 2
    decay_mult: 0
  }
  convolution_param {
    num_output: 1024
    kernel_size: 1
    weight_filler {
      type: "xavier"
    }
    bias_filler {
      type: "constant"
      value: 0
    }
  }
}
layer {
  name: "relu7"
  type: "ReLU"
  bottom: "fc7"
  top: "fc7"
}
layer {
  name: "conv6_1"
  type: "Convolution"
  bottom: "fc7"
  top: "conv6_1"
  param {
    lr_mult: 1
    decay_mult: 1
  }
  param {
    lr_mult: 2
    decay_mult: 0
  }
  convolution_param {
    num_output: 256
    pad: 0
    kernel_size: 1
    stride: 1
    weight_filler {
      type: "xavier"
    }
    bias_filler {
      type: "constant"
      value: 0
    }
  }
}
layer {
  name: "conv6_1_relu"
  type: "ReLU"
  bottom: "conv6_1"
  top: "conv6_1"
}
layer {
  name: "conv6_2_depthwise"
  type: "DepthwiseConvolution"
  bottom: "conv6_1"
  top: "conv6_2_3x3"
  param {
    lr_mult: 1
    decay_mult: 1
  }
  param {
    lr_mult: 2
    decay_mult: 0
  }
  convolution_param {
    num_output: 256
    pad: 1
    kernel_size: 3
    group: 256
    stride: 2
    weight_filler {
      type: "xavier"
    }
    bias_filler {
      type: "constant"
      value: 0
    }
  }
}
layer {
  name: "conv6_2_3x3_relu"
  type: "ReLU"
  bottom: "conv6_2_3x3"
  top: "conv6_2_3x3"
}
layer {
  name: "conv6_2_1x1"
  type: "Convolution"
  bottom: "conv6_2_3x3"
  top: "conv6_2"
  param {
    lr_mult: 1
    decay_mult: 1
  }
  param {
    lr_mult: 2
    decay_mult: 0
  }
  convolution_param {
    num_output: 512
    pad: 0
    kernel_size: 1
    stride: 1
    weight_filler {
      type: "xavier"
    }
    bias_filler {
      type: "constant"
      value: 0
    }
  }
}
layer {
  name: "conv6_2_relu"
  type: "ReLU"
  bottom: "conv6_2"
  top: "conv6_2"
}
layer {
  name: "conv7_1"
  type: "Convolution"
  bottom: "conv6_2"
  top: "conv7_1"
  param {
    lr_mult: 1
    decay_mult: 1
  }
  param {
    lr_mult: 2
    decay_mult: 0
  }
  convolution_param {
    num_output: 128
    pad: 0
    kernel_size: 1
    stride: 1
    weight_filler {
      type: "xavier"
    }
    bias_filler {
      type: "constant"
      value: 0
    }
  }
}
layer {
  name: "conv7_1_relu"
  type: "ReLU"
  bottom: "conv7_1"
  top: "conv7_1"
}
layer {
  name: "conv7_2"
  type: "Convolution"
  bottom: "conv7_1"
  top: "conv7_2"
  param {
    lr_mult: 1
    decay_mult: 1
  }
  param {
    lr_mult: 2
    decay_mult: 0
  }
  convolution_param {
    num_output: 256
    pad: 1
    kernel_size: 3
    stride: 2
    weight_filler {
      type: "xavier"
    }
    bias_filler {
      type: "constant"
      value: 0
    }
  }
}
layer {
  name: "conv7_2_relu"
  type: "ReLU"
  bottom: "conv7_2"
  top: "conv7_2"
}
layer {
  name: "conv8_1"
  type: "Convolution"
  bottom: "conv7_2"
  top: "conv8_1"
  param {
    lr_mult: 1
    decay_mult: 1
  }
  param {
    lr_mult: 2
    decay_mult: 0
  }
  convolution_param {
    num_output: 128
    pad: 0
    kernel_size: 1
    stride: 1
    weight_filler {
      type: "xavier"
    }
    bias_filler {
      type: "constant"
      value: 0
    }
  }
}
layer {
  name: "conv8_1_relu"
  type: "ReLU"
  bottom: "conv8_1"
  top: "conv8_1"
}
layer {
  name: "conv8_2"
  type: "Convolution"
  bottom: "conv8_1"
  top: "conv8_2"
  param {
    lr_mult: 1
    decay_mult: 1
  }
  param {
    lr_mult: 2
    decay_mult: 0
  }
  convolution_param {
    num_output: 256
    pad: 0
    kernel_size: 3
    stride: 1
    weight_filler {
      type: "xavier"
    }
    bias_filler {
      type: "constant"
      value: 0
    }
  }
}
layer {
  name: "conv8_2_relu"
  type: "ReLU"
  bottom: "conv8_2"
  top: "conv8_2"
}
layer {
  name: "conv9_1"
  type: "Convolution"
  bottom: "conv8_2"
  top: "conv9_1"
  param {
    lr_mult: 1
    decay_mult: 1
  }
  param {
    lr_mult: 2
    decay_mult: 0
  }
  convolution_param {
    num_output: 128
    pad: 0
    kernel_size: 1
    stride: 1
    weight_filler {
      type: "xavier"
    }
    bias_filler {
      type: "constant"
      value: 0
    }
  }
}
layer {
  name: "conv9_1_relu"
  type: "ReLU"
  bottom: "conv9_1"
  top: "conv9_1"
}
layer {
  name: "conv9_2"
  type: "Convolution"
  bottom: "conv9_1"
  top: "conv9_2"
  param {
    lr_mult: 1
    decay_mult: 1
  }
  param {
    lr_mult: 2
    decay_mult: 0
  }
  convolution_param {
    num_output: 256
    pad: 0
    kernel_size: 3
    stride: 1
    weight_filler {
      type: "xavier"
    }
    bias_filler {
      type: "constant"
      value: 0
    }
  }
}
layer {
  name: "conv9_2_relu"
  type: "ReLU"
  bottom: "conv9_2"
  top: "conv9_2"
}
layer {
  name: "conv4_3_norm"
  type: "Normalize"
  bottom: "conv4_3"
  top: "conv4_3_norm"
  norm_param {
    across_spatial: false
    scale_filler {
      type: "constant"
      value: 20
    }
    channel_shared: false
  }
}
layer {
  name: "conv4_3_norm_mbox_loc"
  type: "Convolution"
  bottom: "conv4_3_norm"
  top: "conv4_3_norm_mbox_loc"
  param {
    lr_mult: 1
    decay_mult: 1
  }
  param {
    lr_mult: 2
    decay_mult: 0
  }
  convolution_param {
    num_output: 16
    pad: 1
    kernel_size: 3
    stride: 1
    weight_filler {
      type: "xavier"
    }
    bias_filler {
      type: "constant"
      value: 0
    }
  }
}
layer {
  name: "conv4_3_norm_mbox_loc_perm"
  type: "Permute"
  bottom: "conv4_3_norm_mbox_loc"
  top: "conv4_3_norm_mbox_loc_perm"
  permute_param {
    order: 0
    order: 2
    order: 3
    order: 1
  }
}
layer {
  name: "conv4_3_norm_mbox_loc_flat"
  type: "Flatten"
  bottom: "conv4_3_norm_mbox_loc_perm"
  top: "conv4_3_norm_mbox_loc_flat"
  flatten_param {
    axis: 1
  }
}
layer {
  name: "conv4_3_norm_mbox_conf"
  type: "Convolution"
  bottom: "conv4_3_norm"
  top: "conv4_3_norm_mbox_conf"
  param {
    lr_mult: 1
    decay_mult: 1
  }
  param {
    lr_mult: 2
    decay_mult: 0
  }
  convolution_param {
    num_output: 44
    pad: 1
    kernel_size: 3
    stride: 1
    weight_filler {
      type: "xavier"
    }
    bias_filler {
      type: "constant"
      value: 0
    }
  }
}
layer {
  name: "conv4_3_norm_mbox_conf_perm"
  type: "Permute"
  bottom: "conv4_3_norm_mbox_conf"
  top: "conv4_3_norm_mbox_conf_perm"
  permute_param {
    order: 0
    order: 2
    order: 3
    order: 1
  }
}
layer {
  name: "conv4_3_norm_mbox_conf_flat"
  type: "Flatten"
  bottom: "conv4_3_norm_mbox_conf_perm"
  top: "conv4_3_norm_mbox_conf_flat"
  flatten_param {
    axis: 1
  }
}
layer {
  name: "conv4_3_norm_mbox_priorbox"
  type: "PriorBox"
  bottom: "conv4_3_norm"
  bottom: "data"
  top: "conv4_3_norm_mbox_priorbox"
  prior_box_param {
    min_size: 30
    max_size: 60
    aspect_ratio: 2
    flip: true
    clip: false
    variance: 0.1
    variance: 0.1
    variance: 0.2
    variance: 0.2
    step: 8
    offset: 0.5
  }
}
layer {
  name: "fc7_mbox_loc"
  type: "Convolution"
  bottom: "fc7"
  top: "fc7_mbox_loc"
  param {
    lr_mult: 1
    decay_mult: 1
  }
  param {
    lr_mult: 2
    decay_mult: 0
  }
  convolution_param {
    num_output: 24
    pad: 1
    kernel_size: 3
    stride: 1
    weight_filler {
      type: "xavier"
    }
    bias_filler {
      type: "constant"
      value: 0
    }
  }
}
layer {
  name: "fc7_mbox_loc_perm"
  type: "Permute"
  bottom: "fc7_mbox_loc"
  top: "fc7_mbox_loc_perm"
  permute_param {
    order: 0
    order: 2
    order: 3
    order: 1
  }
}
layer {
  name: "fc7_mbox_loc_flat"
  type: "Flatten"
  bottom: "fc7_mbox_loc_perm"
  top: "fc7_mbox_loc_flat"
  flatten_param {
    axis: 1
  }
}
layer {
  name: "fc7_mbox_conf"
  type: "Convolution"
  bottom: "fc7"
  top: "fc7_mbox_conf"
  param {
    lr_mult: 1
    decay_mult: 1
  }
  param {
    lr_mult: 2
    decay_mult: 0
  }
  convolution_param {
    num_output: 66
    pad: 1
    kernel_size: 3
    stride: 1
    weight_filler {
      type: "xavier"
    }
    bias_filler {
      type: "constant"
      value: 0
    }
  }
}
layer {
  name: "fc7_mbox_conf_perm"
  type: "Permute"
  bottom: "fc7_mbox_conf"
  top: "fc7_mbox_conf_perm"
  permute_param {
    order: 0
    order: 2
    order: 3
    order: 1
  }
}
layer {
  name: "fc7_mbox_conf_flat"
  type: "Flatten"
  bottom: "fc7_mbox_conf_perm"
  top: "fc7_mbox_conf_flat"
  flatten_param {
    axis: 1
  }
}
layer {
  name: "fc7_mbox_priorbox"
  type: "PriorBox"
  bottom: "fc7"
  bottom: "data"
  top: "fc7_mbox_priorbox"
  prior_box_param {
    min_size: 60
    max_size: 111
    aspect_ratio: 2
    aspect_ratio: 3
    flip: true
    clip: false
    variance: 0.1
    variance: 0.1
    variance: 0.2
    variance: 0.2
    step: 16
    offset: 0.5
  }
}
layer {
  name: "conv6_2_mbox_loc"
  type: "Convolution"
  bottom: "conv6_2"
  top: "conv6_2_mbox_loc"
  param {
    lr_mult: 1
    decay_mult: 1
  }
  param {
    lr_mult: 2
    decay_mult: 0
  }
  convolution_param {
    num_output: 24
    pad: 1
    kernel_size: 3
    stride: 1
    weight_filler {
      type: "xavier"
    }
    bias_filler {
      type: "constant"
      value: 0
    }
  }
}
layer {
  name: "conv6_2_mbox_loc_perm"
  type: "Permute"
  bottom: "conv6_2_mbox_loc"
  top: "conv6_2_mbox_loc_perm"
  permute_param {
    order: 0
    order: 2
    order: 3
    order: 1
  }
}
layer {
  name: "conv6_2_mbox_loc_flat"
  type: "Flatten"
  bottom: "conv6_2_mbox_loc_perm"
  top: "conv6_2_mbox_loc_flat"
  flatten_param {
    axis: 1
  }
}
layer {
  name: "conv6_2_mbox_conf"
  type: "Convolution"
  bottom: "conv6_2"
  top: "conv6_2_mbox_conf"
  param {
    lr_mult: 1
    decay_mult: 1
  }
  param {
    lr_mult: 2
    decay_mult: 0
  }
  convolution_param {
    num_output: 66
    pad: 1
    kernel_size: 3
    stride: 1
    weight_filler {
      type: "xavier"
    }
    bias_filler {
      type: "constant"
      value: 0
    }
  }
}
layer {
  name: "conv6_2_mbox_conf_perm"
  type: "Permute"
  bottom: "conv6_2_mbox_conf"
  top: "conv6_2_mbox_conf_perm"
  permute_param {
    order: 0
    order: 2
    order: 3
    order: 1
  }
}
layer {
  name: "conv6_2_mbox_conf_flat"
  type: "Flatten"
  bottom: "conv6_2_mbox_conf_perm"
  top: "conv6_2_mbox_conf_flat"
  flatten_param {
    axis: 1
  }
}
layer {
  name: "conv6_2_mbox_priorbox"
  type: "PriorBox"
  bottom: "conv6_2"
  bottom: "data"
  top: "conv6_2_mbox_priorbox"
  prior_box_param {
    min_size: 111
    max_size: 162
    aspect_ratio: 2
    aspect_ratio: 3
    flip: true
    clip: false
    variance: 0.1
    variance: 0.1
    variance: 0.2
    variance: 0.2
    step: 32
    offset: 0.5
  }
}
layer {
  name: "conv7_2_mbox_loc"
  type: "Convolution"
  bottom: "conv7_2"
  top: "conv7_2_mbox_loc"
  param {
    lr_mult: 1
    decay_mult: 1
  }
  param {
    lr_mult: 2
    decay_mult: 0
  }
  convolution_param {
    num_output: 24
    pad: 1
    kernel_size: 3
    stride: 1
    weight_filler {
      type: "xavier"
    }
    bias_filler {
      type: "constant"
      value: 0
    }
  }
}
layer {
  name: "conv7_2_mbox_loc_perm"
  type: "Permute"
  bottom: "conv7_2_mbox_loc"
  top: "conv7_2_mbox_loc_perm"
  permute_param {
    order: 0
    order: 2
    order: 3
    order: 1
  }
}
layer {
  name: "conv7_2_mbox_loc_flat"
  type: "Flatten"
  bottom: "conv7_2_mbox_loc_perm"
  top: "conv7_2_mbox_loc_flat"
  flatten_param {
    axis: 1
  }
}
layer {
  name: "conv7_2_mbox_conf"
  type: "Convolution"
  bottom: "conv7_2"
  top: "conv7_2_mbox_conf"
  param {
    lr_mult: 1
    decay_mult: 1
  }
  param {
    lr_mult: 2
    decay_mult: 0
  }
  convolution_param {
    num_output: 66
    pad: 1
    kernel_size: 3
    stride: 1
    weight_filler {
      type: "xavier"
    }
    bias_filler {
      type: "constant"
      value: 0
    }
  }
}
layer {
  name: "conv7_2_mbox_conf_perm"
  type: "Permute"
  bottom: "conv7_2_mbox_conf"
  top: "conv7_2_mbox_conf_perm"
  permute_param {
    order: 0
    order: 2
    order: 3
    order: 1
  }
}
layer {
  name: "conv7_2_mbox_conf_flat"
  type: "Flatten"
  bottom: "conv7_2_mbox_conf_perm"
  top: "conv7_2_mbox_conf_flat"
  flatten_param {
    axis: 1
  }
}
layer {
  name: "conv7_2_mbox_priorbox"
  type: "PriorBox"
  bottom: "conv7_2"
  bottom: "data"
  top: "conv7_2_mbox_priorbox"
  prior_box_param {
    min_size: 162
    max_size: 213
    aspect_ratio: 2
    aspect_ratio: 3
    flip: true
    clip: false
    variance: 0.1
    variance: 0.1
    variance: 0.2
    variance: 0.2
    step: 64
    offset: 0.5
  }
}
layer {
  name: "conv8_2_mbox_loc"
  type: "Convolution"
  bottom: "conv8_2"
  top: "conv8_2_mbox_loc"
  param {
    lr_mult: 1
    decay_mult: 1
  }
  param {
    lr_mult: 2
    decay_mult: 0
  }
  convolution_param {
    num_output: 16
    pad: 1
    kernel_size: 3
    stride: 1
    weight_filler {
      type: "xavier"
    }
    bias_filler {
      type: "constant"
      value: 0
    }
  }
}
layer {
  name: "conv8_2_mbox_loc_perm"
  type: "Permute"
  bottom: "conv8_2_mbox_loc"
  top: "conv8_2_mbox_loc_perm"
  permute_param {
    order: 0
    order: 2
    order: 3
    order: 1
  }
}
layer {
  name: "conv8_2_mbox_loc_flat"
  type: "Flatten"
  bottom: "conv8_2_mbox_loc_perm"
  top: "conv8_2_mbox_loc_flat"
  flatten_param {
    axis: 1
  }
}
layer {
  name: "conv8_2_mbox_conf"
  type: "Convolution"
  bottom: "conv8_2"
  top: "conv8_2_mbox_conf"
  param {
    lr_mult: 1
    decay_mult: 1
  }
  param {
    lr_mult: 2
    decay_mult: 0
  }
  convolution_param {
    num_output: 44
    pad: 1
    kernel_size: 3
    stride: 1
    weight_filler {
      type: "xavier"
    }
    bias_filler {
      type: "constant"
      value: 0
    }
  }
}
layer {
  name: "conv8_2_mbox_conf_perm"
  type: "Permute"
  bottom: "conv8_2_mbox_conf"
  top: "conv8_2_mbox_conf_perm"
  permute_param {
    order: 0
    order: 2
    order: 3
    order: 1
  }
}
layer {
  name: "conv8_2_mbox_conf_flat"
  type: "Flatten"
  bottom: "conv8_2_mbox_conf_perm"
  top: "conv8_2_mbox_conf_flat"
  flatten_param {
    axis: 1
  }
}
layer {
  name: "conv8_2_mbox_priorbox"
  type: "PriorBox"
  bottom: "conv8_2"
  bottom: "data"
  top: "conv8_2_mbox_priorbox"
  prior_box_param {
    min_size: 213
    max_size: 264
    aspect_ratio: 2
    flip: true
    clip: false
    variance: 0.1
    variance: 0.1
    variance: 0.2
    variance: 0.2
    step: 100
    offset: 0.5
  }
}
layer {
  name: "conv9_2_mbox_loc"
  type: "Convolution"
  bottom: "conv9_2"
  top: "conv9_2_mbox_loc"
  param {
    lr_mult: 1
    decay_mult: 1
  }
  param {
    lr_mult: 2
    decay_mult: 0
  }
  convolution_param {
    num_output: 16
    pad: 1
    kernel_size: 3
    stride: 1
    weight_filler {
      type: "xavier"
    }
    bias_filler {
      type: "constant"
      value: 0
    }
  }
}
layer {
  name: "conv9_2_mbox_loc_perm"
  type: "Permute"
  bottom: "conv9_2_mbox_loc"
  top: "conv9_2_mbox_loc_perm"
  permute_param {
    order: 0
    order: 2
    order: 3
    order: 1
  }
}
layer {
  name: "conv9_2_mbox_loc_flat"
  type: "Flatten"
  bottom: "conv9_2_mbox_loc_perm"
  top: "conv9_2_mbox_loc_flat"
  flatten_param {
    axis: 1
  }
}
layer {
  name: "conv9_2_mbox_conf"
  type: "Convolution"
  bottom: "conv9_2"
  top: "conv9_2_mbox_conf"
  param {
    lr_mult: 1
    decay_mult: 1
  }
  param {
    lr_mult: 2
    decay_mult: 0
  }
  convolution_param {
    num_output: 44
    pad: 1
    kernel_size: 3
    stride: 1
    weight_filler {
      type: "xavier"
    }
    bias_filler {
      type: "constant"
      value: 0
    }
  }
}
layer {
  name: "conv9_2_mbox_conf_perm"
  type: "Permute"
  bottom: "conv9_2_mbox_conf"
  top: "conv9_2_mbox_conf_perm"
  permute_param {
    order: 0
    order: 2
    order: 3
    order: 1
  }
}
layer {
  name: "conv9_2_mbox_conf_flat"
  type: "Flatten"
  bottom: "conv9_2_mbox_conf_perm"
  top: "conv9_2_mbox_conf_flat"
  flatten_param {
    axis: 1
  }
}
layer {
  name: "conv9_2_mbox_priorbox"
  type: "PriorBox"
  bottom: "conv9_2"
  bottom: "data"
  top: "conv9_2_mbox_priorbox"
  prior_box_param {
    min_size: 264
    max_size: 315
    aspect_ratio: 2
    flip: true
    clip: false
    variance: 0.1
    variance: 0.1
    variance: 0.2
    variance: 0.2
    step: 300
    offset: 0.5
  }
}
layer {
  name: "mbox_loc"
  type: "Concat"
  bottom: "conv4_3_norm_mbox_loc_flat"
  bottom: "fc7_mbox_loc_flat"
  bottom: "conv6_2_mbox_loc_flat"
  bottom: "conv7_2_mbox_loc_flat"
  bottom: "conv8_2_mbox_loc_flat"
  bottom: "conv9_2_mbox_loc_flat"
  top: "mbox_loc"
  concat_param {
    axis: 1
  }
}
layer {
  name: "mbox_conf"
  type: "Concat"
  bottom: "conv4_3_norm_mbox_conf_flat"
  bottom: "fc7_mbox_conf_flat"
  bottom: "conv6_2_mbox_conf_flat"
  bottom: "conv7_2_mbox_conf_flat"
  bottom: "conv8_2_mbox_conf_flat"
  bottom: "conv9_2_mbox_conf_flat"
  top: "mbox_conf"
  concat_param {
    axis: 1
  }
}
layer {
  name: "mbox_priorbox"
  type: "Concat"
  bottom: "conv4_3_norm_mbox_priorbox"
  bottom: "fc7_mbox_priorbox"
  bottom: "conv6_2_mbox_priorbox"
  bottom: "conv7_2_mbox_priorbox"
  bottom: "conv8_2_mbox_priorbox"
  bottom: "conv9_2_mbox_priorbox"
  top: "mbox_priorbox"
  concat_param {
    axis: 2
  }
}
layer {
  name: "mbox_conf_reshape"
  type: "Reshape"
  bottom: "mbox_conf"
  top: "mbox_conf_reshape"
  reshape_param {
    shape {
      dim: 0
      dim: -1
      dim: 11
    }
  }
}
layer {
  name: "mbox_conf_softmax"
  type: "Softmax"
  bottom: "mbox_conf_reshape"
  top: "mbox_conf_softmax"
  softmax_param {
    axis: 2
  }
}
layer {
  name: "mbox_conf_flatten"
  type: "Flatten"
  bottom: "mbox_conf_softmax"
  top: "mbox_conf_flatten"
  flatten_param {
    axis: 1
  }
}
layer {
  name: "detection_out"
  type: "DetectionOutput"
  bottom: "mbox_loc"
  bottom: "mbox_conf_flatten"
  bottom: "mbox_priorbox"
  top: "detection_out"
  include {
    phase: TEST
  }
  detection_output_param {
    num_classes: 11
    share_location: true
    background_label_id: 0
    nms_param {
      nms_threshold: 0.45
      top_k: 400
    }
    save_output_param {
      output_directory: "/home/zs/data/VOCdevkit/results/VOC2007/SSD_300x300_0325_conv4_2/Main"
      output_name_prefix: "comp4_det_test_"
      output_format: "VOC"
      label_map_file: "data/NWPU_VHR/labelmap_NWPU_VHR.prototxt"
      name_size_file: "data/NWPU_VHR/test_name_size.txt"
      num_test_image: 123
    }
    code_type: CENTER_SIZE
    keep_top_k: 200
    confidence_threshold: 0.01
  }
}
layer {
  name: "detection_eval"
  type: "DetectionEvaluate"
  bottom: "detection_out"
  bottom: "label"
  top: "detection_eval"
  include {
    phase: TEST
  }
  detection_evaluate_param {
    num_classes: 11
    background_label_id: 0
    overlap_threshold: 0.5
    evaluate_difficult_gt: false
    name_size_file: "data/NWPU_VHR/test_name_size.txt"
  }
}
I0325 10:03:55.707204 17951 layer_factory.hpp:77] Creating layer data
I0325 10:03:55.707295 17951 net.cpp:100] Creating Layer data
I0325 10:03:55.707309 17951 net.cpp:408] data -> data
I0325 10:03:55.707326 17951 net.cpp:408] data -> label
I0325 10:03:55.723986 17969 db_lmdb.cpp:35] Opened lmdb examples/NWPU_VHR/NWPU_VHR_test_lmdb
I0325 10:03:55.767099 17951 annotated_data_layer.cpp:62] output data size: 1,3,300,300
I0325 10:03:55.782758 17951 net.cpp:150] Setting up data
I0325 10:03:55.782793 17951 net.cpp:157] Top shape: 1 3 300 300 (270000)
I0325 10:03:55.782801 17951 net.cpp:157] Top shape: 1 1 4 8 (32)
I0325 10:03:55.782805 17951 net.cpp:165] Memory required for data: 1080128
I0325 10:03:55.782814 17951 layer_factory.hpp:77] Creating layer data_data_0_split
I0325 10:03:55.782832 17951 net.cpp:100] Creating Layer data_data_0_split
I0325 10:03:55.782841 17951 net.cpp:434] data_data_0_split <- data
I0325 10:03:55.782852 17951 net.cpp:408] data_data_0_split -> data_data_0_split_0
I0325 10:03:55.782869 17951 net.cpp:408] data_data_0_split -> data_data_0_split_1
I0325 10:03:55.782881 17951 net.cpp:408] data_data_0_split -> data_data_0_split_2
I0325 10:03:55.782894 17951 net.cpp:408] data_data_0_split -> data_data_0_split_3
I0325 10:03:55.782904 17951 net.cpp:408] data_data_0_split -> data_data_0_split_4
I0325 10:03:55.782913 17951 net.cpp:408] data_data_0_split -> data_data_0_split_5
I0325 10:03:55.782924 17951 net.cpp:408] data_data_0_split -> data_data_0_split_6
I0325 10:03:55.783069 17951 net.cpp:150] Setting up data_data_0_split
I0325 10:03:55.783082 17951 net.cpp:157] Top shape: 1 3 300 300 (270000)
I0325 10:03:55.783089 17951 net.cpp:157] Top shape: 1 3 300 300 (270000)
I0325 10:03:55.783097 17951 net.cpp:157] Top shape: 1 3 300 300 (270000)
I0325 10:03:55.783104 17951 net.cpp:157] Top shape: 1 3 300 300 (270000)
I0325 10:03:55.783111 17951 net.cpp:157] Top shape: 1 3 300 300 (270000)
I0325 10:03:55.783118 17951 net.cpp:157] Top shape: 1 3 300 300 (270000)
I0325 10:03:55.783126 17951 net.cpp:157] Top shape: 1 3 300 300 (270000)
I0325 10:03:55.783131 17951 net.cpp:165] Memory required for data: 8640128
I0325 10:03:55.783138 17951 layer_factory.hpp:77] Creating layer conv1_1
I0325 10:03:55.783159 17951 net.cpp:100] Creating Layer conv1_1
I0325 10:03:55.783171 17951 net.cpp:434] conv1_1 <- data_data_0_split_0
I0325 10:03:55.783181 17951 net.cpp:408] conv1_1 -> conv1_1
I0325 10:03:55.792569 17951 net.cpp:150] Setting up conv1_1
I0325 10:03:55.792600 17951 net.cpp:157] Top shape: 1 64 300 300 (5760000)
I0325 10:03:55.792606 17951 net.cpp:165] Memory required for data: 31680128
I0325 10:03:55.792626 17951 layer_factory.hpp:77] Creating layer relu1_1
I0325 10:03:55.792640 17951 net.cpp:100] Creating Layer relu1_1
I0325 10:03:55.792649 17951 net.cpp:434] relu1_1 <- conv1_1
I0325 10:03:55.792659 17951 net.cpp:395] relu1_1 -> conv1_1 (in-place)
I0325 10:03:55.797897 17951 net.cpp:150] Setting up relu1_1
I0325 10:03:55.797945 17951 net.cpp:157] Top shape: 1 64 300 300 (5760000)
I0325 10:03:55.798009 17951 net.cpp:165] Memory required for data: 54720128
I0325 10:03:55.798018 17951 layer_factory.hpp:77] Creating layer conv1_2
I0325 10:03:55.798039 17951 net.cpp:100] Creating Layer conv1_2
I0325 10:03:55.798048 17951 net.cpp:434] conv1_2 <- conv1_1
I0325 10:03:55.798058 17951 net.cpp:408] conv1_2 -> conv1_2
I0325 10:03:55.800400 17951 net.cpp:150] Setting up conv1_2
I0325 10:03:55.800421 17951 net.cpp:157] Top shape: 1 64 300 300 (5760000)
I0325 10:03:55.805783 17951 net.cpp:165] Memory required for data: 77760128
I0325 10:03:55.805810 17951 layer_factory.hpp:77] Creating layer relu1_2
I0325 10:03:55.805830 17951 net.cpp:100] Creating Layer relu1_2
I0325 10:03:55.805840 17951 net.cpp:434] relu1_2 <- conv1_2
I0325 10:03:55.805850 17951 net.cpp:395] relu1_2 -> conv1_2 (in-place)
I0325 10:03:55.806151 17951 net.cpp:150] Setting up relu1_2
I0325 10:03:55.806171 17951 net.cpp:157] Top shape: 1 64 300 300 (5760000)
I0325 10:03:55.806182 17951 net.cpp:165] Memory required for data: 100800128
I0325 10:03:55.806192 17951 layer_factory.hpp:77] Creating layer pool1
I0325 10:03:55.806203 17951 net.cpp:100] Creating Layer pool1
I0325 10:03:55.806212 17951 net.cpp:434] pool1 <- conv1_2
I0325 10:03:55.806221 17951 net.cpp:408] pool1 -> pool1
I0325 10:03:55.806311 17951 net.cpp:150] Setting up pool1
I0325 10:03:55.806329 17951 net.cpp:157] Top shape: 1 64 150 150 (1440000)
I0325 10:03:55.806341 17951 net.cpp:165] Memory required for data: 106560128
I0325 10:03:55.806352 17951 layer_factory.hpp:77] Creating layer conv2_1
I0325 10:03:55.806368 17951 net.cpp:100] Creating Layer conv2_1
I0325 10:03:55.806376 17951 net.cpp:434] conv2_1 <- pool1
I0325 10:03:55.806387 17951 net.cpp:408] conv2_1 -> conv2_1
I0325 10:03:55.809612 17951 net.cpp:150] Setting up conv2_1
I0325 10:03:55.809631 17951 net.cpp:157] Top shape: 1 128 150 150 (2880000)
I0325 10:03:55.809636 17951 net.cpp:165] Memory required for data: 118080128
I0325 10:03:55.809662 17951 layer_factory.hpp:77] Creating layer relu2_1
I0325 10:03:55.809677 17951 net.cpp:100] Creating Layer relu2_1
I0325 10:03:55.809686 17951 net.cpp:434] relu2_1 <- conv2_1
I0325 10:03:55.809695 17951 net.cpp:395] relu2_1 -> conv2_1 (in-place)
I0325 10:03:55.822937 17951 net.cpp:150] Setting up relu2_1
I0325 10:03:55.822975 17951 net.cpp:157] Top shape: 1 128 150 150 (2880000)
I0325 10:03:55.822981 17951 net.cpp:165] Memory required for data: 129600128
I0325 10:03:55.822993 17951 layer_factory.hpp:77] Creating layer conv2_2
I0325 10:03:55.823016 17951 net.cpp:100] Creating Layer conv2_2
I0325 10:03:55.823029 17951 net.cpp:434] conv2_2 <- conv2_1
I0325 10:03:55.823041 17951 net.cpp:408] conv2_2 -> conv2_2
I0325 10:03:55.834360 17951 net.cpp:150] Setting up conv2_2
I0325 10:03:55.834398 17951 net.cpp:157] Top shape: 1 128 150 150 (2880000)
I0325 10:03:55.834405 17951 net.cpp:165] Memory required for data: 141120128
I0325 10:03:55.834426 17951 layer_factory.hpp:77] Creating layer relu2_2
I0325 10:03:55.834444 17951 net.cpp:100] Creating Layer relu2_2
I0325 10:03:55.834455 17951 net.cpp:434] relu2_2 <- conv2_2
I0325 10:03:55.834466 17951 net.cpp:395] relu2_2 -> conv2_2 (in-place)
I0325 10:03:55.834707 17951 net.cpp:150] Setting up relu2_2
I0325 10:03:55.834722 17951 net.cpp:157] Top shape: 1 128 150 150 (2880000)
I0325 10:03:55.834728 17951 net.cpp:165] Memory required for data: 152640128
I0325 10:03:55.834743 17951 layer_factory.hpp:77] Creating layer pool2
I0325 10:03:55.834756 17951 net.cpp:100] Creating Layer pool2
I0325 10:03:55.834764 17951 net.cpp:434] pool2 <- conv2_2
I0325 10:03:55.834774 17951 net.cpp:408] pool2 -> pool2
I0325 10:03:55.834846 17951 net.cpp:150] Setting up pool2
I0325 10:03:55.834859 17951 net.cpp:157] Top shape: 1 128 75 75 (720000)
I0325 10:03:55.834864 17951 net.cpp:165] Memory required for data: 155520128
I0325 10:03:55.834870 17951 layer_factory.hpp:77] Creating layer conv3_1
I0325 10:03:55.834885 17951 net.cpp:100] Creating Layer conv3_1
I0325 10:03:55.834894 17951 net.cpp:434] conv3_1 <- pool2
I0325 10:03:55.834928 17951 net.cpp:408] conv3_1 -> conv3_1
I0325 10:03:55.849406 17951 net.cpp:150] Setting up conv3_1
I0325 10:03:55.849442 17951 net.cpp:157] Top shape: 1 256 75 75 (1440000)
I0325 10:03:55.849448 17951 net.cpp:165] Memory required for data: 161280128
I0325 10:03:55.849473 17951 layer_factory.hpp:77] Creating layer relu3_1
I0325 10:03:55.849493 17951 net.cpp:100] Creating Layer relu3_1
I0325 10:03:55.849503 17951 net.cpp:434] relu3_1 <- conv3_1
I0325 10:03:55.849514 17951 net.cpp:395] relu3_1 -> conv3_1 (in-place)
I0325 10:03:55.873842 17951 net.cpp:150] Setting up relu3_1
I0325 10:03:55.873881 17951 net.cpp:157] Top shape: 1 256 75 75 (1440000)
I0325 10:03:55.873888 17951 net.cpp:165] Memory required for data: 167040128
I0325 10:03:55.873898 17951 layer_factory.hpp:77] Creating layer conv3_2
I0325 10:03:55.873921 17951 net.cpp:100] Creating Layer conv3_2
I0325 10:03:55.873934 17951 net.cpp:434] conv3_2 <- conv3_1
I0325 10:03:55.873946 17951 net.cpp:408] conv3_2 -> conv3_2
I0325 10:03:55.883036 17951 net.cpp:150] Setting up conv3_2
I0325 10:03:55.883072 17951 net.cpp:157] Top shape: 1 256 75 75 (1440000)
I0325 10:03:55.883080 17951 net.cpp:165] Memory required for data: 172800128
I0325 10:03:55.883100 17951 layer_factory.hpp:77] Creating layer relu3_2
I0325 10:03:55.883116 17951 net.cpp:100] Creating Layer relu3_2
I0325 10:03:55.883126 17951 net.cpp:434] relu3_2 <- conv3_2
I0325 10:03:55.883136 17951 net.cpp:395] relu3_2 -> conv3_2 (in-place)
I0325 10:03:55.884094 17951 net.cpp:150] Setting up relu3_2
I0325 10:03:55.884112 17951 net.cpp:157] Top shape: 1 256 75 75 (1440000)
I0325 10:03:55.884124 17951 net.cpp:165] Memory required for data: 178560128
I0325 10:03:55.884136 17951 layer_factory.hpp:77] Creating layer conv3_3
I0325 10:03:55.884162 17951 net.cpp:100] Creating Layer conv3_3
I0325 10:03:55.884176 17951 net.cpp:434] conv3_3 <- conv3_2
I0325 10:03:55.884193 17951 net.cpp:408] conv3_3 -> conv3_3
I0325 10:03:55.915494 17951 net.cpp:150] Setting up conv3_3
I0325 10:03:55.915526 17951 net.cpp:157] Top shape: 1 256 75 75 (1440000)
I0325 10:03:55.915534 17951 net.cpp:165] Memory required for data: 184320128
I0325 10:03:55.915552 17951 layer_factory.hpp:77] Creating layer relu3_3
I0325 10:03:55.915570 17951 net.cpp:100] Creating Layer relu3_3
I0325 10:03:55.915580 17951 net.cpp:434] relu3_3 <- conv3_3
I0325 10:03:55.915588 17951 net.cpp:395] relu3_3 -> conv3_3 (in-place)
I0325 10:03:55.915836 17951 net.cpp:150] Setting up relu3_3
I0325 10:03:55.915854 17951 net.cpp:157] Top shape: 1 256 75 75 (1440000)
I0325 10:03:55.915860 17951 net.cpp:165] Memory required for data: 190080128
I0325 10:03:55.915866 17951 layer_factory.hpp:77] Creating layer pool3
I0325 10:03:55.915884 17951 net.cpp:100] Creating Layer pool3
I0325 10:03:55.915894 17951 net.cpp:434] pool3 <- conv3_3
I0325 10:03:55.915904 17951 net.cpp:408] pool3 -> pool3
I0325 10:03:55.915982 17951 net.cpp:150] Setting up pool3
I0325 10:03:55.915999 17951 net.cpp:157] Top shape: 1 256 38 38 (369664)
I0325 10:03:55.916007 17951 net.cpp:165] Memory required for data: 191558784
I0325 10:03:55.916013 17951 layer_factory.hpp:77] Creating layer conv4_1_depthwise
I0325 10:03:55.916029 17951 net.cpp:100] Creating Layer conv4_1_depthwise
I0325 10:03:55.916041 17951 net.cpp:434] conv4_1_depthwise <- pool3
I0325 10:03:55.916060 17951 net.cpp:408] conv4_1_depthwise -> conv4_1_3x3
I0325 10:03:55.916448 17951 net.cpp:150] Setting up conv4_1_depthwise
I0325 10:03:55.916461 17951 net.cpp:157] Top shape: 1 256 38 38 (369664)
I0325 10:03:55.916466 17951 net.cpp:165] Memory required for data: 193037440
I0325 10:03:55.916483 17951 layer_factory.hpp:77] Creating layer conv4_1_3x3_relu
I0325 10:03:55.916496 17951 net.cpp:100] Creating Layer conv4_1_3x3_relu
I0325 10:03:55.916503 17951 net.cpp:434] conv4_1_3x3_relu <- conv4_1_3x3
I0325 10:03:55.916512 17951 net.cpp:395] conv4_1_3x3_relu -> conv4_1_3x3 (in-place)
I0325 10:03:55.916766 17951 net.cpp:150] Setting up conv4_1_3x3_relu
I0325 10:03:55.916779 17951 net.cpp:157] Top shape: 1 256 38 38 (369664)
I0325 10:03:55.916785 17951 net.cpp:165] Memory required for data: 194516096
I0325 10:03:55.916812 17951 layer_factory.hpp:77] Creating layer conv4_1_1x1
I0325 10:03:55.916831 17951 net.cpp:100] Creating Layer conv4_1_1x1
I0325 10:03:55.916839 17951 net.cpp:434] conv4_1_1x1 <- conv4_1_3x3
I0325 10:03:55.916852 17951 net.cpp:408] conv4_1_1x1 -> conv4_1
I0325 10:03:55.918802 17951 net.cpp:150] Setting up conv4_1_1x1
I0325 10:03:55.918818 17951 net.cpp:157] Top shape: 1 512 38 38 (739328)
I0325 10:03:55.918823 17951 net.cpp:165] Memory required for data: 197473408
I0325 10:03:55.918838 17951 layer_factory.hpp:77] Creating layer relu4_1
I0325 10:03:55.918848 17951 net.cpp:100] Creating Layer relu4_1
I0325 10:03:55.918855 17951 net.cpp:434] relu4_1 <- conv4_1
I0325 10:03:55.918864 17951 net.cpp:395] relu4_1 -> conv4_1 (in-place)
I0325 10:03:55.919114 17951 net.cpp:150] Setting up relu4_1
I0325 10:03:55.919127 17951 net.cpp:157] Top shape: 1 512 38 38 (739328)
I0325 10:03:55.919132 17951 net.cpp:165] Memory required for data: 200430720
I0325 10:03:55.919138 17951 layer_factory.hpp:77] Creating layer conv4_2_depthwise
I0325 10:03:55.919155 17951 net.cpp:100] Creating Layer conv4_2_depthwise
I0325 10:03:55.919167 17951 net.cpp:434] conv4_2_depthwise <- conv4_1
I0325 10:03:55.919178 17951 net.cpp:408] conv4_2_depthwise -> conv4_2_3x3
I0325 10:03:55.919636 17951 net.cpp:150] Setting up conv4_2_depthwise
I0325 10:03:55.919657 17951 net.cpp:157] Top shape: 1 512 38 38 (739328)
I0325 10:03:55.919662 17951 net.cpp:165] Memory required for data: 203388032
I0325 10:03:55.919682 17951 layer_factory.hpp:77] Creating layer conv4_2_3x3_relu
I0325 10:03:55.919694 17951 net.cpp:100] Creating Layer conv4_2_3x3_relu
I0325 10:03:55.919703 17951 net.cpp:434] conv4_2_3x3_relu <- conv4_2_3x3
I0325 10:03:55.919710 17951 net.cpp:395] conv4_2_3x3_relu -> conv4_2_3x3 (in-place)
I0325 10:03:55.921015 17951 net.cpp:150] Setting up conv4_2_3x3_relu
I0325 10:03:55.921067 17951 net.cpp:157] Top shape: 1 512 38 38 (739328)
I0325 10:03:55.921074 17951 net.cpp:165] Memory required for data: 206345344
I0325 10:03:55.921087 17951 layer_factory.hpp:77] Creating layer conv4_2_1x1
I0325 10:03:55.921118 17951 net.cpp:100] Creating Layer conv4_2_1x1
I0325 10:03:55.921128 17951 net.cpp:434] conv4_2_1x1 <- conv4_2_3x3
I0325 10:03:55.921141 17951 net.cpp:408] conv4_2_1x1 -> conv4_2
I0325 10:03:55.928509 17951 net.cpp:150] Setting up conv4_2_1x1
I0325 10:03:55.928570 17951 net.cpp:157] Top shape: 1 512 38 38 (739328)
I0325 10:03:55.928575 17951 net.cpp:165] Memory required for data: 209302656
I0325 10:03:55.928599 17951 layer_factory.hpp:77] Creating layer relu4_2
I0325 10:03:55.928619 17951 net.cpp:100] Creating Layer relu4_2
I0325 10:03:55.928629 17951 net.cpp:434] relu4_2 <- conv4_2
I0325 10:03:55.928639 17951 net.cpp:395] relu4_2 -> conv4_2 (in-place)
I0325 10:03:55.928946 17951 net.cpp:150] Setting up relu4_2
I0325 10:03:55.928966 17951 net.cpp:157] Top shape: 1 512 38 38 (739328)
I0325 10:03:55.928978 17951 net.cpp:165] Memory required for data: 212259968
I0325 10:03:55.928989 17951 layer_factory.hpp:77] Creating layer conv4_3
I0325 10:03:55.929011 17951 net.cpp:100] Creating Layer conv4_3
I0325 10:03:55.929020 17951 net.cpp:434] conv4_3 <- conv4_2
I0325 10:03:55.929031 17951 net.cpp:408] conv4_3 -> conv4_3
I0325 10:03:55.950984 17951 net.cpp:150] Setting up conv4_3
I0325 10:03:55.951026 17951 net.cpp:157] Top shape: 1 512 38 38 (739328)
I0325 10:03:55.951032 17951 net.cpp:165] Memory required for data: 215217280
I0325 10:03:55.951054 17951 layer_factory.hpp:77] Creating layer relu4_3
I0325 10:03:55.951072 17951 net.cpp:100] Creating Layer relu4_3
I0325 10:03:55.951082 17951 net.cpp:434] relu4_3 <- conv4_3
I0325 10:03:55.951092 17951 net.cpp:395] relu4_3 -> conv4_3 (in-place)
I0325 10:03:55.951342 17951 net.cpp:150] Setting up relu4_3
I0325 10:03:55.951360 17951 net.cpp:157] Top shape: 1 512 38 38 (739328)
I0325 10:03:55.951372 17951 net.cpp:165] Memory required for data: 218174592
I0325 10:03:55.951383 17951 layer_factory.hpp:77] Creating layer conv4_3_relu4_3_0_split
I0325 10:03:55.951416 17951 net.cpp:100] Creating Layer conv4_3_relu4_3_0_split
I0325 10:03:55.951423 17951 net.cpp:434] conv4_3_relu4_3_0_split <- conv4_3
I0325 10:03:55.951432 17951 net.cpp:408] conv4_3_relu4_3_0_split -> conv4_3_relu4_3_0_split_0
I0325 10:03:55.951445 17951 net.cpp:408] conv4_3_relu4_3_0_split -> conv4_3_relu4_3_0_split_1
I0325 10:03:55.951522 17951 net.cpp:150] Setting up conv4_3_relu4_3_0_split
I0325 10:03:55.951541 17951 net.cpp:157] Top shape: 1 512 38 38 (739328)
I0325 10:03:55.951551 17951 net.cpp:157] Top shape: 1 512 38 38 (739328)
I0325 10:03:55.951556 17951 net.cpp:165] Memory required for data: 224089216
I0325 10:03:55.951565 17951 layer_factory.hpp:77] Creating layer pool4
I0325 10:03:55.951575 17951 net.cpp:100] Creating Layer pool4
I0325 10:03:55.951583 17951 net.cpp:434] pool4 <- conv4_3_relu4_3_0_split_0
I0325 10:03:55.951591 17951 net.cpp:408] pool4 -> pool4
I0325 10:03:55.951658 17951 net.cpp:150] Setting up pool4
I0325 10:03:55.951674 17951 net.cpp:157] Top shape: 1 512 19 19 (184832)
I0325 10:03:55.951680 17951 net.cpp:165] Memory required for data: 224828544
I0325 10:03:55.951686 17951 layer_factory.hpp:77] Creating layer conv5_1_depthwise
I0325 10:03:55.951702 17951 net.cpp:100] Creating Layer conv5_1_depthwise
I0325 10:03:55.951716 17951 net.cpp:434] conv5_1_depthwise <- pool4
I0325 10:03:55.951735 17951 net.cpp:408] conv5_1_depthwise -> conv5_1_3x3
I0325 10:03:55.952216 17951 net.cpp:150] Setting up conv5_1_depthwise
I0325 10:03:55.952235 17951 net.cpp:157] Top shape: 1 512 19 19 (184832)
I0325 10:03:55.952247 17951 net.cpp:165] Memory required for data: 225567872
I0325 10:03:55.952265 17951 layer_factory.hpp:77] Creating layer conv5_1_3x3_relu
I0325 10:03:55.952281 17951 net.cpp:100] Creating Layer conv5_1_3x3_relu
I0325 10:03:55.952291 17951 net.cpp:434] conv5_1_3x3_relu <- conv5_1_3x3
I0325 10:03:55.952302 17951 net.cpp:395] conv5_1_3x3_relu -> conv5_1_3x3 (in-place)
I0325 10:03:55.953513 17951 net.cpp:150] Setting up conv5_1_3x3_relu
I0325 10:03:55.953544 17951 net.cpp:157] Top shape: 1 512 19 19 (184832)
I0325 10:03:55.953558 17951 net.cpp:165] Memory required for data: 226307200
I0325 10:03:55.953568 17951 layer_factory.hpp:77] Creating layer conv5_1_1x1
I0325 10:03:55.953585 17951 net.cpp:100] Creating Layer conv5_1_1x1
I0325 10:03:55.953598 17951 net.cpp:434] conv5_1_1x1 <- conv5_1_3x3
I0325 10:03:55.953615 17951 net.cpp:408] conv5_1_1x1 -> conv5_1
I0325 10:03:55.974282 17951 net.cpp:150] Setting up conv5_1_1x1
I0325 10:03:55.974326 17951 net.cpp:157] Top shape: 1 512 19 19 (184832)
I0325 10:03:55.974333 17951 net.cpp:165] Memory required for data: 227046528
I0325 10:03:55.974354 17951 layer_factory.hpp:77] Creating layer relu5_1
I0325 10:03:55.974376 17951 net.cpp:100] Creating Layer relu5_1
I0325 10:03:55.974386 17951 net.cpp:434] relu5_1 <- conv5_1
I0325 10:03:55.974398 17951 net.cpp:395] relu5_1 -> conv5_1 (in-place)
I0325 10:03:55.974692 17951 net.cpp:150] Setting up relu5_1
I0325 10:03:55.974711 17951 net.cpp:157] Top shape: 1 512 19 19 (184832)
I0325 10:03:55.974723 17951 net.cpp:165] Memory required for data: 227785856
I0325 10:03:55.974735 17951 layer_factory.hpp:77] Creating layer conv5_2_depthwise
I0325 10:03:55.974756 17951 net.cpp:100] Creating Layer conv5_2_depthwise
I0325 10:03:55.974766 17951 net.cpp:434] conv5_2_depthwise <- conv5_1
I0325 10:03:55.974778 17951 net.cpp:408] conv5_2_depthwise -> conv5_2_3x3
I0325 10:03:55.975262 17951 net.cpp:150] Setting up conv5_2_depthwise
I0325 10:03:55.975281 17951 net.cpp:157] Top shape: 1 512 19 19 (184832)
I0325 10:03:55.975294 17951 net.cpp:165] Memory required for data: 228525184
I0325 10:03:55.975311 17951 layer_factory.hpp:77] Creating layer conv5_2_3x3_relu
I0325 10:03:55.975327 17951 net.cpp:100] Creating Layer conv5_2_3x3_relu
I0325 10:03:55.975340 17951 net.cpp:434] conv5_2_3x3_relu <- conv5_2_3x3
I0325 10:03:55.975350 17951 net.cpp:395] conv5_2_3x3_relu -> conv5_2_3x3 (in-place)
I0325 10:03:55.975634 17951 net.cpp:150] Setting up conv5_2_3x3_relu
I0325 10:03:55.975652 17951 net.cpp:157] Top shape: 1 512 19 19 (184832)
I0325 10:03:55.975687 17951 net.cpp:165] Memory required for data: 229264512
I0325 10:03:55.975697 17951 layer_factory.hpp:77] Creating layer conv5_2_1x1
I0325 10:03:55.975723 17951 net.cpp:100] Creating Layer conv5_2_1x1
I0325 10:03:55.975736 17951 net.cpp:434] conv5_2_1x1 <- conv5_2_3x3
I0325 10:03:55.975754 17951 net.cpp:408] conv5_2_1x1 -> conv5_2
I0325 10:03:55.982304 17951 net.cpp:150] Setting up conv5_2_1x1
I0325 10:03:55.982345 17951 net.cpp:157] Top shape: 1 512 19 19 (184832)
I0325 10:03:55.982352 17951 net.cpp:165] Memory required for data: 230003840
I0325 10:03:55.982372 17951 layer_factory.hpp:77] Creating layer relu5_2
I0325 10:03:55.982393 17951 net.cpp:100] Creating Layer relu5_2
I0325 10:03:55.982403 17951 net.cpp:434] relu5_2 <- conv5_2
I0325 10:03:55.982415 17951 net.cpp:395] relu5_2 -> conv5_2 (in-place)
I0325 10:03:55.983590 17951 net.cpp:150] Setting up relu5_2
I0325 10:03:55.983619 17951 net.cpp:157] Top shape: 1 512 19 19 (184832)
I0325 10:03:55.983628 17951 net.cpp:165] Memory required for data: 230743168
I0325 10:03:55.983640 17951 layer_factory.hpp:77] Creating layer conv5_3_depthwise
I0325 10:03:55.983662 17951 net.cpp:100] Creating Layer conv5_3_depthwise
I0325 10:03:55.983672 17951 net.cpp:434] conv5_3_depthwise <- conv5_2
I0325 10:03:55.983688 17951 net.cpp:408] conv5_3_depthwise -> conv5_3_3x3
I0325 10:03:55.984237 17951 net.cpp:150] Setting up conv5_3_depthwise
I0325 10:03:55.984256 17951 net.cpp:157] Top shape: 1 512 19 19 (184832)
I0325 10:03:55.984264 17951 net.cpp:165] Memory required for data: 231482496
I0325 10:03:55.984293 17951 layer_factory.hpp:77] Creating layer conv5_3_3x3_relu
I0325 10:03:55.984311 17951 net.cpp:100] Creating Layer conv5_3_3x3_relu
I0325 10:03:55.984324 17951 net.cpp:434] conv5_3_3x3_relu <- conv5_3_3x3
I0325 10:03:55.984338 17951 net.cpp:395] conv5_3_3x3_relu -> conv5_3_3x3 (in-place)
I0325 10:03:55.984632 17951 net.cpp:150] Setting up conv5_3_3x3_relu
I0325 10:03:55.984649 17951 net.cpp:157] Top shape: 1 512 19 19 (184832)
I0325 10:03:55.984663 17951 net.cpp:165] Memory required for data: 232221824
I0325 10:03:55.984673 17951 layer_factory.hpp:77] Creating layer conv5_3_1x1
I0325 10:03:55.984689 17951 net.cpp:100] Creating Layer conv5_3_1x1
I0325 10:03:55.984704 17951 net.cpp:434] conv5_3_1x1 <- conv5_3_3x3
I0325 10:03:55.984721 17951 net.cpp:408] conv5_3_1x1 -> conv5_3
I0325 10:03:55.996758 17951 net.cpp:150] Setting up conv5_3_1x1
I0325 10:03:55.996799 17951 net.cpp:157] Top shape: 1 512 19 19 (184832)
I0325 10:03:55.996805 17951 net.cpp:165] Memory required for data: 232961152
I0325 10:03:55.997040 17951 layer_factory.hpp:77] Creating layer relu5_3
I0325 10:03:55.997062 17951 net.cpp:100] Creating Layer relu5_3
I0325 10:03:55.997073 17951 net.cpp:434] relu5_3 <- conv5_3
I0325 10:03:55.997083 17951 net.cpp:395] relu5_3 -> conv5_3 (in-place)
I0325 10:03:55.997429 17951 net.cpp:150] Setting up relu5_3
I0325 10:03:55.997447 17951 net.cpp:157] Top shape: 1 512 19 19 (184832)
I0325 10:03:55.997454 17951 net.cpp:165] Memory required for data: 233700480
I0325 10:03:55.997460 17951 layer_factory.hpp:77] Creating layer pool5
I0325 10:03:55.997473 17951 net.cpp:100] Creating Layer pool5
I0325 10:03:55.997480 17951 net.cpp:434] pool5 <- conv5_3
I0325 10:03:55.997491 17951 net.cpp:408] pool5 -> pool5
I0325 10:03:55.997666 17951 net.cpp:150] Setting up pool5
I0325 10:03:55.997684 17951 net.cpp:157] Top shape: 1 512 19 19 (184832)
I0325 10:03:55.997692 17951 net.cpp:165] Memory required for data: 234439808
I0325 10:03:55.997700 17951 layer_factory.hpp:77] Creating layer fc6_depthwise
I0325 10:03:55.997715 17951 net.cpp:100] Creating Layer fc6_depthwise
I0325 10:03:56.013798 17951 net.cpp:434] fc6_depthwise <- pool5
I0325 10:03:56.013844 17951 net.cpp:408] fc6_depthwise -> fc6_3x3
I0325 10:03:56.014376 17951 net.cpp:150] Setting up fc6_depthwise
I0325 10:03:56.014400 17951 net.cpp:157] Top shape: 1 512 19 19 (184832)
I0325 10:03:56.014407 17951 net.cpp:165] Memory required for data: 235179136
I0325 10:03:56.014578 17951 layer_factory.hpp:77] Creating layer fc6_3x3_relu
I0325 10:03:56.014683 17951 net.cpp:100] Creating Layer fc6_3x3_relu
I0325 10:03:56.014693 17951 net.cpp:434] fc6_3x3_relu <- fc6_3x3
I0325 10:03:56.014703 17951 net.cpp:395] fc6_3x3_relu -> fc6_3x3 (in-place)
I0325 10:03:56.015089 17951 net.cpp:150] Setting up fc6_3x3_relu
I0325 10:03:56.015106 17951 net.cpp:157] Top shape: 1 512 19 19 (184832)
I0325 10:03:56.015112 17951 net.cpp:165] Memory required for data: 235918464
I0325 10:03:56.015120 17951 layer_factory.hpp:77] Creating layer fc6_1x1
I0325 10:03:56.015138 17951 net.cpp:100] Creating Layer fc6_1x1
I0325 10:03:56.015146 17951 net.cpp:434] fc6_1x1 <- fc6_3x3
I0325 10:03:56.015265 17951 net.cpp:408] fc6_1x1 -> fc6
I0325 10:03:56.021900 17951 net.cpp:150] Setting up fc6_1x1
I0325 10:03:56.021941 17951 net.cpp:157] Top shape: 1 1024 19 19 (369664)
I0325 10:03:56.021958 17951 net.cpp:165] Memory required for data: 237397120
I0325 10:03:56.021977 17951 layer_factory.hpp:77] Creating layer relu6
I0325 10:03:56.021996 17951 net.cpp:100] Creating Layer relu6
I0325 10:03:56.022181 17951 net.cpp:434] relu6 <- fc6
I0325 10:03:56.022207 17951 net.cpp:395] relu6 -> fc6 (in-place)
I0325 10:03:56.023533 17951 net.cpp:150] Setting up relu6
I0325 10:03:56.023555 17951 net.cpp:157] Top shape: 1 1024 19 19 (369664)
I0325 10:03:56.023569 17951 net.cpp:165] Memory required for data: 238875776
I0325 10:03:56.023579 17951 layer_factory.hpp:77] Creating layer fc7
I0325 10:03:56.023685 17951 net.cpp:100] Creating Layer fc7
I0325 10:03:56.023699 17951 net.cpp:434] fc7 <- fc6
I0325 10:03:56.023790 17951 net.cpp:408] fc7 -> fc7
I0325 10:03:56.037050 17951 net.cpp:150] Setting up fc7
I0325 10:03:56.037087 17951 net.cpp:157] Top shape: 1 1024 19 19 (369664)
I0325 10:03:56.049787 17951 net.cpp:165] Memory required for data: 240354432
I0325 10:03:56.049837 17951 layer_factory.hpp:77] Creating layer relu7
I0325 10:03:56.050024 17951 net.cpp:100] Creating Layer relu7
I0325 10:03:56.050038 17951 net.cpp:434] relu7 <- fc7
I0325 10:03:56.050057 17951 net.cpp:395] relu7 -> fc7 (in-place)
I0325 10:03:56.050513 17951 net.cpp:150] Setting up relu7
I0325 10:03:56.050536 17951 net.cpp:157] Top shape: 1 1024 19 19 (369664)
I0325 10:03:56.050544 17951 net.cpp:165] Memory required for data: 241833088
I0325 10:03:56.050554 17951 layer_factory.hpp:77] Creating layer fc7_relu7_0_split
I0325 10:03:56.050652 17951 net.cpp:100] Creating Layer fc7_relu7_0_split
I0325 10:03:56.050662 17951 net.cpp:434] fc7_relu7_0_split <- fc7
I0325 10:03:56.050750 17951 net.cpp:408] fc7_relu7_0_split -> fc7_relu7_0_split_0
I0325 10:03:56.050776 17951 net.cpp:408] fc7_relu7_0_split -> fc7_relu7_0_split_1
I0325 10:03:56.050787 17951 net.cpp:408] fc7_relu7_0_split -> fc7_relu7_0_split_2
I0325 10:03:56.050884 17951 net.cpp:408] fc7_relu7_0_split -> fc7_relu7_0_split_3
I0325 10:03:56.051084 17951 net.cpp:150] Setting up fc7_relu7_0_split
I0325 10:03:56.051103 17951 net.cpp:157] Top shape: 1 1024 19 19 (369664)
I0325 10:03:56.051120 17951 net.cpp:157] Top shape: 1 1024 19 19 (369664)
I0325 10:03:56.051132 17951 net.cpp:157] Top shape: 1 1024 19 19 (369664)
I0325 10:03:56.051231 17951 net.cpp:157] Top shape: 1 1024 19 19 (369664)
I0325 10:03:56.051241 17951 net.cpp:165] Memory required for data: 247747712
I0325 10:03:56.051250 17951 layer_factory.hpp:77] Creating layer conv6_1
I0325 10:03:56.051344 17951 net.cpp:100] Creating Layer conv6_1
I0325 10:03:56.051355 17951 net.cpp:434] conv6_1 <- fc7_relu7_0_split_0
I0325 10:03:56.051445 17951 net.cpp:408] conv6_1 -> conv6_1
I0325 10:03:56.058974 17951 net.cpp:150] Setting up conv6_1
I0325 10:03:56.073778 17951 net.cpp:157] Top shape: 1 256 19 19 (92416)
I0325 10:03:56.073844 17951 net.cpp:165] Memory required for data: 248117376
I0325 10:03:56.073894 17951 layer_factory.hpp:77] Creating layer conv6_1_relu
I0325 10:03:56.073935 17951 net.cpp:100] Creating Layer conv6_1_relu
I0325 10:03:56.073964 17951 net.cpp:434] conv6_1_relu <- conv6_1
I0325 10:03:56.073992 17951 net.cpp:395] conv6_1_relu -> conv6_1 (in-place)
I0325 10:03:56.074381 17951 net.cpp:150] Setting up conv6_1_relu
I0325 10:03:56.074425 17951 net.cpp:157] Top shape: 1 256 19 19 (92416)
I0325 10:03:56.074476 17951 net.cpp:165] Memory required for data: 248487040
I0325 10:03:56.074517 17951 layer_factory.hpp:77] Creating layer conv6_2_depthwise
I0325 10:03:56.074568 17951 net.cpp:100] Creating Layer conv6_2_depthwise
I0325 10:03:56.074609 17951 net.cpp:434] conv6_2_depthwise <- conv6_1
I0325 10:03:56.074661 17951 net.cpp:408] conv6_2_depthwise -> conv6_2_3x3
I0325 10:03:56.075178 17951 net.cpp:150] Setting up conv6_2_depthwise
I0325 10:03:56.075218 17951 net.cpp:157] Top shape: 1 256 10 10 (25600)
I0325 10:03:56.075253 17951 net.cpp:165] Memory required for data: 248589440
I0325 10:03:56.075290 17951 layer_factory.hpp:77] Creating layer conv6_2_3x3_relu
I0325 10:03:56.075332 17951 net.cpp:100] Creating Layer conv6_2_3x3_relu
I0325 10:03:56.075376 17951 net.cpp:434] conv6_2_3x3_relu <- conv6_2_3x3
I0325 10:03:56.075418 17951 net.cpp:395] conv6_2_3x3_relu -> conv6_2_3x3 (in-place)
I0325 10:03:56.076691 17951 net.cpp:150] Setting up conv6_2_3x3_relu
I0325 10:03:56.076745 17951 net.cpp:157] Top shape: 1 256 10 10 (25600)
I0325 10:03:56.076784 17951 net.cpp:165] Memory required for data: 248691840
I0325 10:03:56.076815 17951 layer_factory.hpp:77] Creating layer conv6_2_1x1
I0325 10:03:56.076861 17951 net.cpp:100] Creating Layer conv6_2_1x1
I0325 10:03:56.076889 17951 net.cpp:434] conv6_2_1x1 <- conv6_2_3x3
I0325 10:03:56.076943 17951 net.cpp:408] conv6_2_1x1 -> conv6_2
I0325 10:03:56.080255 17951 net.cpp:150] Setting up conv6_2_1x1
I0325 10:03:56.080330 17951 net.cpp:157] Top shape: 1 512 10 10 (51200)
I0325 10:03:56.080363 17951 net.cpp:165] Memory required for data: 248896640
I0325 10:03:56.080406 17951 layer_factory.hpp:77] Creating layer conv6_2_relu
I0325 10:03:56.080440 17951 net.cpp:100] Creating Layer conv6_2_relu
I0325 10:03:56.080471 17951 net.cpp:434] conv6_2_relu <- conv6_2
I0325 10:03:56.080508 17951 net.cpp:395] conv6_2_relu -> conv6_2 (in-place)
I0325 10:03:56.080797 17951 net.cpp:150] Setting up conv6_2_relu
I0325 10:03:56.080834 17951 net.cpp:157] Top shape: 1 512 10 10 (51200)
I0325 10:03:56.080869 17951 net.cpp:165] Memory required for data: 249101440
I0325 10:03:56.080900 17951 layer_factory.hpp:77] Creating layer conv6_2_conv6_2_relu_0_split
I0325 10:03:56.080947 17951 net.cpp:100] Creating Layer conv6_2_conv6_2_relu_0_split
I0325 10:03:56.080976 17951 net.cpp:434] conv6_2_conv6_2_relu_0_split <- conv6_2
I0325 10:03:56.081015 17951 net.cpp:408] conv6_2_conv6_2_relu_0_split -> conv6_2_conv6_2_relu_0_split_0
I0325 10:03:56.081058 17951 net.cpp:408] conv6_2_conv6_2_relu_0_split -> conv6_2_conv6_2_relu_0_split_1
I0325 10:03:56.081104 17951 net.cpp:408] conv6_2_conv6_2_relu_0_split -> conv6_2_conv6_2_relu_0_split_2
I0325 10:03:56.081151 17951 net.cpp:408] conv6_2_conv6_2_relu_0_split -> conv6_2_conv6_2_relu_0_split_3
I0325 10:03:56.081312 17951 net.cpp:150] Setting up conv6_2_conv6_2_relu_0_split
I0325 10:03:56.081351 17951 net.cpp:157] Top shape: 1 512 10 10 (51200)
I0325 10:03:56.081390 17951 net.cpp:157] Top shape: 1 512 10 10 (51200)
I0325 10:03:56.081423 17951 net.cpp:157] Top shape: 1 512 10 10 (51200)
I0325 10:03:56.081461 17951 net.cpp:157] Top shape: 1 512 10 10 (51200)
I0325 10:03:56.081490 17951 net.cpp:165] Memory required for data: 249920640
I0325 10:03:56.081524 17951 layer_factory.hpp:77] Creating layer conv7_1
I0325 10:03:56.081575 17951 net.cpp:100] Creating Layer conv7_1
I0325 10:03:56.081609 17951 net.cpp:434] conv7_1 <- conv6_2_conv6_2_relu_0_split_0
I0325 10:03:56.081660 17951 net.cpp:408] conv7_1 -> conv7_1
I0325 10:03:56.084372 17951 net.cpp:150] Setting up conv7_1
I0325 10:03:56.084436 17951 net.cpp:157] Top shape: 1 128 10 10 (12800)
I0325 10:03:56.084475 17951 net.cpp:165] Memory required for data: 249971840
I0325 10:03:56.084512 17951 layer_factory.hpp:77] Creating layer conv7_1_relu
I0325 10:03:56.084550 17951 net.cpp:100] Creating Layer conv7_1_relu
I0325 10:03:56.084590 17951 net.cpp:434] conv7_1_relu <- conv7_1
I0325 10:03:56.084635 17951 net.cpp:395] conv7_1_relu -> conv7_1 (in-place)
I0325 10:03:56.084939 17951 net.cpp:150] Setting up conv7_1_relu
I0325 10:03:56.084986 17951 net.cpp:157] Top shape: 1 128 10 10 (12800)
I0325 10:03:56.085022 17951 net.cpp:165] Memory required for data: 250023040
I0325 10:03:56.085062 17951 layer_factory.hpp:77] Creating layer conv7_2
I0325 10:03:56.085119 17951 net.cpp:100] Creating Layer conv7_2
I0325 10:03:56.085153 17951 net.cpp:434] conv7_2 <- conv7_1
I0325 10:03:56.085206 17951 net.cpp:408] conv7_2 -> conv7_2
I0325 10:03:56.091253 17951 net.cpp:150] Setting up conv7_2
I0325 10:03:56.101622 17951 net.cpp:157] Top shape: 1 256 5 5 (6400)
I0325 10:03:56.101697 17951 net.cpp:165] Memory required for data: 250048640
I0325 10:03:56.105818 17951 layer_factory.hpp:77] Creating layer conv7_2_relu
I0325 10:03:56.106089 17951 net.cpp:100] Creating Layer conv7_2_relu
I0325 10:03:56.106204 17951 net.cpp:434] conv7_2_relu <- conv7_2
I0325 10:03:56.106325 17951 net.cpp:395] conv7_2_relu -> conv7_2 (in-place)
I0325 10:03:56.107700 17951 net.cpp:150] Setting up conv7_2_relu
I0325 10:03:56.107893 17951 net.cpp:157] Top shape: 1 256 5 5 (6400)
I0325 10:03:56.107992 17951 net.cpp:165] Memory required for data: 250074240
I0325 10:03:56.108098 17951 layer_factory.hpp:77] Creating layer conv7_2_conv7_2_relu_0_split
I0325 10:03:56.108206 17951 net.cpp:100] Creating Layer conv7_2_conv7_2_relu_0_split
I0325 10:03:56.108306 17951 net.cpp:434] conv7_2_conv7_2_relu_0_split <- conv7_2
I0325 10:03:56.108422 17951 net.cpp:408] conv7_2_conv7_2_relu_0_split -> conv7_2_conv7_2_relu_0_split_0
I0325 10:03:56.108537 17951 net.cpp:408] conv7_2_conv7_2_relu_0_split -> conv7_2_conv7_2_relu_0_split_1
I0325 10:03:56.108647 17951 net.cpp:408] conv7_2_conv7_2_relu_0_split -> conv7_2_conv7_2_relu_0_split_2
I0325 10:03:56.108762 17951 net.cpp:408] conv7_2_conv7_2_relu_0_split -> conv7_2_conv7_2_relu_0_split_3
I0325 10:03:56.109021 17951 net.cpp:150] Setting up conv7_2_conv7_2_relu_0_split
I0325 10:03:56.109175 17951 net.cpp:157] Top shape: 1 256 5 5 (6400)
I0325 10:03:56.109275 17951 net.cpp:157] Top shape: 1 256 5 5 (6400)
I0325 10:03:56.109372 17951 net.cpp:157] Top shape: 1 256 5 5 (6400)
I0325 10:03:56.109469 17951 net.cpp:157] Top shape: 1 256 5 5 (6400)
I0325 10:03:56.109563 17951 net.cpp:165] Memory required for data: 250176640
I0325 10:03:56.109661 17951 layer_factory.hpp:77] Creating layer conv8_1
I0325 10:03:56.109797 17951 net.cpp:100] Creating Layer conv8_1
I0325 10:03:56.109895 17951 net.cpp:434] conv8_1 <- conv7_2_conv7_2_relu_0_split_0
I0325 10:03:56.110005 17951 net.cpp:408] conv8_1 -> conv8_1
I0325 10:03:56.112587 17951 net.cpp:150] Setting up conv8_1
I0325 10:03:56.115990 17951 net.cpp:157] Top shape: 1 128 5 5 (3200)
I0325 10:03:56.116237 17951 net.cpp:165] Memory required for data: 250189440
I0325 10:03:56.116355 17951 layer_factory.hpp:77] Creating layer conv8_1_relu
I0325 10:03:56.116498 17951 net.cpp:100] Creating Layer conv8_1_relu
I0325 10:03:56.116601 17951 net.cpp:434] conv8_1_relu <- conv8_1
I0325 10:03:56.116708 17951 net.cpp:395] conv8_1_relu -> conv8_1 (in-place)
I0325 10:03:56.117177 17951 net.cpp:150] Setting up conv8_1_relu
I0325 10:03:56.117336 17951 net.cpp:157] Top shape: 1 128 5 5 (3200)
I0325 10:03:56.117434 17951 net.cpp:165] Memory required for data: 250202240
I0325 10:03:56.117537 17951 layer_factory.hpp:77] Creating layer conv8_2
I0325 10:03:56.117651 17951 net.cpp:100] Creating Layer conv8_2
I0325 10:03:56.117772 17951 net.cpp:434] conv8_2 <- conv8_1
I0325 10:03:56.117882 17951 net.cpp:408] conv8_2 -> conv8_2
I0325 10:03:56.124855 17951 net.cpp:150] Setting up conv8_2
I0325 10:03:56.131013 17951 net.cpp:157] Top shape: 1 256 3 3 (2304)
I0325 10:03:56.131312 17951 net.cpp:165] Memory required for data: 250211456
I0325 10:03:56.131430 17951 layer_factory.hpp:77] Creating layer conv8_2_relu
I0325 10:03:56.131537 17951 net.cpp:100] Creating Layer conv8_2_relu
I0325 10:03:56.131645 17951 net.cpp:434] conv8_2_relu <- conv8_2
I0325 10:03:56.131752 17951 net.cpp:395] conv8_2_relu -> conv8_2 (in-place)
I0325 10:03:56.132246 17951 net.cpp:150] Setting up conv8_2_relu
I0325 10:03:56.145787 17951 net.cpp:157] Top shape: 1 256 3 3 (2304)
I0325 10:03:56.146123 17951 net.cpp:165] Memory required for data: 250220672
I0325 10:03:56.146231 17951 layer_factory.hpp:77] Creating layer conv8_2_conv8_2_relu_0_split
I0325 10:03:56.146355 17951 net.cpp:100] Creating Layer conv8_2_conv8_2_relu_0_split
I0325 10:03:56.146474 17951 net.cpp:434] conv8_2_conv8_2_relu_0_split <- conv8_2
I0325 10:03:56.146587 17951 net.cpp:408] conv8_2_conv8_2_relu_0_split -> conv8_2_conv8_2_relu_0_split_0
I0325 10:03:56.146703 17951 net.cpp:408] conv8_2_conv8_2_relu_0_split -> conv8_2_conv8_2_relu_0_split_1
I0325 10:03:56.146812 17951 net.cpp:408] conv8_2_conv8_2_relu_0_split -> conv8_2_conv8_2_relu_0_split_2
I0325 10:03:56.146920 17951 net.cpp:408] conv8_2_conv8_2_relu_0_split -> conv8_2_conv8_2_relu_0_split_3
I0325 10:03:56.147737 17951 net.cpp:150] Setting up conv8_2_conv8_2_relu_0_split
I0325 10:03:56.147855 17951 net.cpp:157] Top shape: 1 256 3 3 (2304)
I0325 10:03:56.147963 17951 net.cpp:157] Top shape: 1 256 3 3 (2304)
I0325 10:03:56.148064 17951 net.cpp:157] Top shape: 1 256 3 3 (2304)
I0325 10:03:56.148161 17951 net.cpp:157] Top shape: 1 256 3 3 (2304)
I0325 10:03:56.148255 17951 net.cpp:165] Memory required for data: 250257536
I0325 10:03:56.148356 17951 layer_factory.hpp:77] Creating layer conv9_1
I0325 10:03:56.148470 17951 net.cpp:100] Creating Layer conv9_1
I0325 10:03:56.148569 17951 net.cpp:434] conv9_1 <- conv8_2_conv8_2_relu_0_split_0
I0325 10:03:56.148680 17951 net.cpp:408] conv9_1 -> conv9_1
I0325 10:03:56.152559 17951 net.cpp:150] Setting up conv9_1
I0325 10:03:56.152851 17951 net.cpp:157] Top shape: 1 128 3 3 (1152)
I0325 10:03:56.152957 17951 net.cpp:165] Memory required for data: 250262144
I0325 10:03:56.153074 17951 layer_factory.hpp:77] Creating layer conv9_1_relu
I0325 10:03:56.153185 17951 net.cpp:100] Creating Layer conv9_1_relu
I0325 10:03:56.153282 17951 net.cpp:434] conv9_1_relu <- conv9_1
I0325 10:03:56.153398 17951 net.cpp:395] conv9_1_relu -> conv9_1 (in-place)
I0325 10:03:56.153787 17951 net.cpp:150] Setting up conv9_1_relu
I0325 10:03:56.153945 17951 net.cpp:157] Top shape: 1 128 3 3 (1152)
I0325 10:03:56.154044 17951 net.cpp:165] Memory required for data: 250266752
I0325 10:03:56.154147 17951 layer_factory.hpp:77] Creating layer conv9_2
I0325 10:03:56.154263 17951 net.cpp:100] Creating Layer conv9_2
I0325 10:03:56.154361 17951 net.cpp:434] conv9_2 <- conv9_1
I0325 10:03:56.154469 17951 net.cpp:408] conv9_2 -> conv9_2
I0325 10:03:56.161545 17951 net.cpp:150] Setting up conv9_2
I0325 10:03:56.161866 17951 net.cpp:157] Top shape: 1 256 1 1 (256)
I0325 10:03:56.161972 17951 net.cpp:165] Memory required for data: 250267776
I0325 10:03:56.162082 17951 layer_factory.hpp:77] Creating layer conv9_2_relu
I0325 10:03:56.162192 17951 net.cpp:100] Creating Layer conv9_2_relu
I0325 10:03:56.162302 17951 net.cpp:434] conv9_2_relu <- conv9_2
I0325 10:03:56.162412 17951 net.cpp:395] conv9_2_relu -> conv9_2 (in-place)
I0325 10:03:56.163763 17951 net.cpp:150] Setting up conv9_2_relu
I0325 10:03:56.163967 17951 net.cpp:157] Top shape: 1 256 1 1 (256)
I0325 10:03:56.164067 17951 net.cpp:165] Memory required for data: 250268800
I0325 10:03:56.164172 17951 layer_factory.hpp:77] Creating layer conv9_2_conv9_2_relu_0_split
I0325 10:03:56.164284 17951 net.cpp:100] Creating Layer conv9_2_conv9_2_relu_0_split
I0325 10:03:56.164387 17951 net.cpp:434] conv9_2_conv9_2_relu_0_split <- conv9_2
I0325 10:03:56.164497 17951 net.cpp:408] conv9_2_conv9_2_relu_0_split -> conv9_2_conv9_2_relu_0_split_0
I0325 10:03:56.164621 17951 net.cpp:408] conv9_2_conv9_2_relu_0_split -> conv9_2_conv9_2_relu_0_split_1
I0325 10:03:56.164731 17951 net.cpp:408] conv9_2_conv9_2_relu_0_split -> conv9_2_conv9_2_relu_0_split_2
I0325 10:03:56.164988 17951 net.cpp:150] Setting up conv9_2_conv9_2_relu_0_split
I0325 10:03:56.165112 17951 net.cpp:157] Top shape: 1 256 1 1 (256)
I0325 10:03:56.165215 17951 net.cpp:157] Top shape: 1 256 1 1 (256)
I0325 10:03:56.165320 17951 net.cpp:157] Top shape: 1 256 1 1 (256)
I0325 10:03:56.165417 17951 net.cpp:165] Memory required for data: 250271872
I0325 10:03:56.165539 17951 layer_factory.hpp:77] Creating layer conv4_3_norm
I0325 10:03:56.165653 17951 net.cpp:100] Creating Layer conv4_3_norm
I0325 10:03:56.165772 17951 net.cpp:434] conv4_3_norm <- conv4_3_relu4_3_0_split_1
I0325 10:03:56.165881 17951 net.cpp:408] conv4_3_norm -> conv4_3_norm
I0325 10:03:56.166263 17951 net.cpp:150] Setting up conv4_3_norm
I0325 10:03:56.166422 17951 net.cpp:157] Top shape: 1 512 38 38 (739328)
I0325 10:03:56.166527 17951 net.cpp:165] Memory required for data: 253229184
I0325 10:03:56.166640 17951 layer_factory.hpp:77] Creating layer conv4_3_norm_conv4_3_norm_0_split
I0325 10:03:56.166751 17951 net.cpp:100] Creating Layer conv4_3_norm_conv4_3_norm_0_split
I0325 10:03:56.166853 17951 net.cpp:434] conv4_3_norm_conv4_3_norm_0_split <- conv4_3_norm
I0325 10:03:56.166960 17951 net.cpp:408] conv4_3_norm_conv4_3_norm_0_split -> conv4_3_norm_conv4_3_norm_0_split_0
I0325 10:03:56.167079 17951 net.cpp:408] conv4_3_norm_conv4_3_norm_0_split -> conv4_3_norm_conv4_3_norm_0_split_1
I0325 10:03:56.167196 17951 net.cpp:408] conv4_3_norm_conv4_3_norm_0_split -> conv4_3_norm_conv4_3_norm_0_split_2
I0325 10:03:56.167397 17951 net.cpp:150] Setting up conv4_3_norm_conv4_3_norm_0_split
I0325 10:03:56.167516 17951 net.cpp:157] Top shape: 1 512 38 38 (739328)
I0325 10:03:56.167619 17951 net.cpp:157] Top shape: 1 512 38 38 (739328)
I0325 10:03:56.167718 17951 net.cpp:157] Top shape: 1 512 38 38 (739328)
I0325 10:03:56.167812 17951 net.cpp:165] Memory required for data: 262101120
I0325 10:03:56.167918 17951 layer_factory.hpp:77] Creating layer conv4_3_norm_mbox_loc
I0325 10:03:56.168033 17951 net.cpp:100] Creating Layer conv4_3_norm_mbox_loc
I0325 10:03:56.168133 17951 net.cpp:434] conv4_3_norm_mbox_loc <- conv4_3_norm_conv4_3_norm_0_split_0
I0325 10:03:56.168247 17951 net.cpp:408] conv4_3_norm_mbox_loc -> conv4_3_norm_mbox_loc
I0325 10:03:56.172099 17951 net.cpp:150] Setting up conv4_3_norm_mbox_loc
I0325 10:03:56.172386 17951 net.cpp:157] Top shape: 1 16 38 38 (23104)
I0325 10:03:56.172494 17951 net.cpp:165] Memory required for data: 262193536
I0325 10:03:56.172607 17951 layer_factory.hpp:77] Creating layer conv4_3_norm_mbox_loc_perm
I0325 10:03:56.172724 17951 net.cpp:100] Creating Layer conv4_3_norm_mbox_loc_perm
I0325 10:03:56.172827 17951 net.cpp:434] conv4_3_norm_mbox_loc_perm <- conv4_3_norm_mbox_loc
I0325 10:03:56.172943 17951 net.cpp:408] conv4_3_norm_mbox_loc_perm -> conv4_3_norm_mbox_loc_perm
I0325 10:03:56.173271 17951 net.cpp:150] Setting up conv4_3_norm_mbox_loc_perm
I0325 10:03:56.173434 17951 net.cpp:157] Top shape: 1 38 38 16 (23104)
I0325 10:03:56.173540 17951 net.cpp:165] Memory required for data: 262285952
I0325 10:03:56.173647 17951 layer_factory.hpp:77] Creating layer conv4_3_norm_mbox_loc_flat
I0325 10:03:56.173779 17951 net.cpp:100] Creating Layer conv4_3_norm_mbox_loc_flat
I0325 10:03:56.173882 17951 net.cpp:434] conv4_3_norm_mbox_loc_flat <- conv4_3_norm_mbox_loc_perm
I0325 10:03:56.173991 17951 net.cpp:408] conv4_3_norm_mbox_loc_flat -> conv4_3_norm_mbox_loc_flat
I0325 10:03:56.174140 17951 net.cpp:150] Setting up conv4_3_norm_mbox_loc_flat
I0325 10:03:56.174243 17951 net.cpp:157] Top shape: 1 23104 (23104)
I0325 10:03:56.174340 17951 net.cpp:165] Memory required for data: 262378368
I0325 10:03:56.174441 17951 layer_factory.hpp:77] Creating layer conv4_3_norm_mbox_conf
I0325 10:03:56.174559 17951 net.cpp:100] Creating Layer conv4_3_norm_mbox_conf
I0325 10:03:56.174659 17951 net.cpp:434] conv4_3_norm_mbox_conf <- conv4_3_norm_conv4_3_norm_0_split_1
I0325 10:03:56.174769 17951 net.cpp:408] conv4_3_norm_mbox_conf -> conv4_3_norm_mbox_conf
I0325 10:03:56.179999 17951 net.cpp:150] Setting up conv4_3_norm_mbox_conf
I0325 10:03:56.180269 17951 net.cpp:157] Top shape: 1 44 38 38 (63536)
I0325 10:03:56.180374 17951 net.cpp:165] Memory required for data: 262632512
I0325 10:03:56.180510 17951 layer_factory.hpp:77] Creating layer conv4_3_norm_mbox_conf_perm
I0325 10:03:56.180624 17951 net.cpp:100] Creating Layer conv4_3_norm_mbox_conf_perm
I0325 10:03:56.180740 17951 net.cpp:434] conv4_3_norm_mbox_conf_perm <- conv4_3_norm_mbox_conf
I0325 10:03:56.180873 17951 net.cpp:408] conv4_3_norm_mbox_conf_perm -> conv4_3_norm_mbox_conf_perm
I0325 10:03:56.181210 17951 net.cpp:150] Setting up conv4_3_norm_mbox_conf_perm
I0325 10:03:56.181370 17951 net.cpp:157] Top shape: 1 38 38 44 (63536)
I0325 10:03:56.181478 17951 net.cpp:165] Memory required for data: 262886656
I0325 10:03:56.181583 17951 layer_factory.hpp:77] Creating layer conv4_3_norm_mbox_conf_flat
I0325 10:03:56.181699 17951 net.cpp:100] Creating Layer conv4_3_norm_mbox_conf_flat
I0325 10:03:56.181829 17951 net.cpp:434] conv4_3_norm_mbox_conf_flat <- conv4_3_norm_mbox_conf_perm
I0325 10:03:56.181947 17951 net.cpp:408] conv4_3_norm_mbox_conf_flat -> conv4_3_norm_mbox_conf_flat
I0325 10:03:56.182106 17951 net.cpp:150] Setting up conv4_3_norm_mbox_conf_flat
I0325 10:03:56.182215 17951 net.cpp:157] Top shape: 1 63536 (63536)
I0325 10:03:56.182317 17951 net.cpp:165] Memory required for data: 263140800
I0325 10:03:56.182420 17951 layer_factory.hpp:77] Creating layer conv4_3_norm_mbox_priorbox
I0325 10:03:56.182535 17951 net.cpp:100] Creating Layer conv4_3_norm_mbox_priorbox
I0325 10:03:56.182638 17951 net.cpp:434] conv4_3_norm_mbox_priorbox <- conv4_3_norm_conv4_3_norm_0_split_2
I0325 10:03:56.182754 17951 net.cpp:434] conv4_3_norm_mbox_priorbox <- data_data_0_split_1
I0325 10:03:56.182775 17951 net.cpp:408] conv4_3_norm_mbox_priorbox -> conv4_3_norm_mbox_priorbox
I0325 10:03:56.183004 17951 net.cpp:150] Setting up conv4_3_norm_mbox_priorbox
I0325 10:03:56.183102 17951 net.cpp:157] Top shape: 1 2 23104 (46208)
I0325 10:03:56.183197 17951 net.cpp:165] Memory required for data: 263325632
I0325 10:03:56.183292 17951 layer_factory.hpp:77] Creating layer fc7_mbox_loc
I0325 10:03:56.183400 17951 net.cpp:100] Creating Layer fc7_mbox_loc
I0325 10:03:56.183495 17951 net.cpp:434] fc7_mbox_loc <- fc7_relu7_0_split_1
I0325 10:03:56.183596 17951 net.cpp:408] fc7_mbox_loc -> fc7_mbox_loc
I0325 10:03:56.188971 17951 net.cpp:150] Setting up fc7_mbox_loc
I0325 10:03:56.189208 17951 net.cpp:157] Top shape: 1 24 19 19 (8664)
I0325 10:03:56.189312 17951 net.cpp:165] Memory required for data: 263360288
I0325 10:03:56.189420 17951 layer_factory.hpp:77] Creating layer fc7_mbox_loc_perm
I0325 10:03:56.189523 17951 net.cpp:100] Creating Layer fc7_mbox_loc_perm
I0325 10:03:56.189620 17951 net.cpp:434] fc7_mbox_loc_perm <- fc7_mbox_loc
I0325 10:03:56.189752 17951 net.cpp:408] fc7_mbox_loc_perm -> fc7_mbox_loc_perm
I0325 10:03:56.190083 17951 net.cpp:150] Setting up fc7_mbox_loc_perm
I0325 10:03:56.190184 17951 net.cpp:157] Top shape: 1 19 19 24 (8664)
I0325 10:03:56.190279 17951 net.cpp:165] Memory required for data: 263394944
I0325 10:03:56.190377 17951 layer_factory.hpp:77] Creating layer fc7_mbox_loc_flat
I0325 10:03:56.190479 17951 net.cpp:100] Creating Layer fc7_mbox_loc_flat
I0325 10:03:56.190570 17951 net.cpp:434] fc7_mbox_loc_flat <- fc7_mbox_loc_perm
I0325 10:03:56.190673 17951 net.cpp:408] fc7_mbox_loc_flat -> fc7_mbox_loc_flat
I0325 10:03:56.190815 17951 net.cpp:150] Setting up fc7_mbox_loc_flat
I0325 10:03:56.190917 17951 net.cpp:157] Top shape: 1 8664 (8664)
I0325 10:03:56.191009 17951 net.cpp:165] Memory required for data: 263429600
I0325 10:03:56.191107 17951 layer_factory.hpp:77] Creating layer fc7_mbox_conf
I0325 10:03:56.191213 17951 net.cpp:100] Creating Layer fc7_mbox_conf
I0325 10:03:56.191310 17951 net.cpp:434] fc7_mbox_conf <- fc7_relu7_0_split_2
I0325 10:03:56.191413 17951 net.cpp:408] fc7_mbox_conf -> fc7_mbox_conf
I0325 10:03:56.201454 17951 net.cpp:150] Setting up fc7_mbox_conf
I0325 10:03:56.201715 17951 net.cpp:157] Top shape: 1 66 19 19 (23826)
I0325 10:03:56.201835 17951 net.cpp:165] Memory required for data: 263524904
I0325 10:03:56.201948 17951 layer_factory.hpp:77] Creating layer fc7_mbox_conf_perm
I0325 10:03:56.202054 17951 net.cpp:100] Creating Layer fc7_mbox_conf_perm
I0325 10:03:56.202167 17951 net.cpp:434] fc7_mbox_conf_perm <- fc7_mbox_conf
I0325 10:03:56.202275 17951 net.cpp:408] fc7_mbox_conf_perm -> fc7_mbox_conf_perm
I0325 10:03:56.202618 17951 net.cpp:150] Setting up fc7_mbox_conf_perm
I0325 10:03:56.202744 17951 net.cpp:157] Top shape: 1 19 19 66 (23826)
I0325 10:03:56.202836 17951 net.cpp:165] Memory required for data: 263620208
I0325 10:03:56.202932 17951 layer_factory.hpp:77] Creating layer fc7_mbox_conf_flat
I0325 10:03:56.203032 17951 net.cpp:100] Creating Layer fc7_mbox_conf_flat
I0325 10:03:56.203125 17951 net.cpp:434] fc7_mbox_conf_flat <- fc7_mbox_conf_perm
I0325 10:03:56.203227 17951 net.cpp:408] fc7_mbox_conf_flat -> fc7_mbox_conf_flat
I0325 10:03:56.203372 17951 net.cpp:150] Setting up fc7_mbox_conf_flat
I0325 10:03:56.203466 17951 net.cpp:157] Top shape: 1 23826 (23826)
I0325 10:03:56.203555 17951 net.cpp:165] Memory required for data: 263715512
I0325 10:03:56.203649 17951 layer_factory.hpp:77] Creating layer fc7_mbox_priorbox
I0325 10:03:56.203754 17951 net.cpp:100] Creating Layer fc7_mbox_priorbox
I0325 10:03:56.203846 17951 net.cpp:434] fc7_mbox_priorbox <- fc7_relu7_0_split_3
I0325 10:03:56.203944 17951 net.cpp:434] fc7_mbox_priorbox <- data_data_0_split_2
I0325 10:03:56.204048 17951 net.cpp:408] fc7_mbox_priorbox -> fc7_mbox_priorbox
I0325 10:03:56.204207 17951 net.cpp:150] Setting up fc7_mbox_priorbox
I0325 10:03:56.204305 17951 net.cpp:157] Top shape: 1 2 8664 (17328)
I0325 10:03:56.204402 17951 net.cpp:165] Memory required for data: 263784824
I0325 10:03:56.204496 17951 layer_factory.hpp:77] Creating layer conv6_2_mbox_loc
I0325 10:03:56.204604 17951 net.cpp:100] Creating Layer conv6_2_mbox_loc
I0325 10:03:56.204697 17951 net.cpp:434] conv6_2_mbox_loc <- conv6_2_conv6_2_relu_0_split_1
I0325 10:03:56.204799 17951 net.cpp:408] conv6_2_mbox_loc -> conv6_2_mbox_loc
I0325 10:03:56.208511 17951 net.cpp:150] Setting up conv6_2_mbox_loc
I0325 10:03:56.208539 17951 net.cpp:157] Top shape: 1 24 10 10 (2400)
I0325 10:03:56.208545 17951 net.cpp:165] Memory required for data: 263794424
I0325 10:03:56.208732 17951 layer_factory.hpp:77] Creating layer conv6_2_mbox_loc_perm
I0325 10:03:56.208750 17951 net.cpp:100] Creating Layer conv6_2_mbox_loc_perm
I0325 10:03:56.208832 17951 net.cpp:434] conv6_2_mbox_loc_perm <- conv6_2_mbox_loc
I0325 10:03:56.208977 17951 net.cpp:408] conv6_2_mbox_loc_perm -> conv6_2_mbox_loc_perm
I0325 10:03:56.209187 17951 net.cpp:150] Setting up conv6_2_mbox_loc_perm
I0325 10:03:56.209203 17951 net.cpp:157] Top shape: 1 10 10 24 (2400)
I0325 10:03:56.209286 17951 net.cpp:165] Memory required for data: 263804024
I0325 10:03:56.209296 17951 layer_factory.hpp:77] Creating layer conv6_2_mbox_loc_flat
I0325 10:03:56.209384 17951 net.cpp:100] Creating Layer conv6_2_mbox_loc_flat
I0325 10:03:56.209396 17951 net.cpp:434] conv6_2_mbox_loc_flat <- conv6_2_mbox_loc_perm
I0325 10:03:56.209486 17951 net.cpp:408] conv6_2_mbox_loc_flat -> conv6_2_mbox_loc_flat
I0325 10:03:56.209596 17951 net.cpp:150] Setting up conv6_2_mbox_loc_flat
I0325 10:03:56.209609 17951 net.cpp:157] Top shape: 1 2400 (2400)
I0325 10:03:56.209614 17951 net.cpp:165] Memory required for data: 263813624
I0325 10:03:56.209699 17951 layer_factory.hpp:77] Creating layer conv6_2_mbox_conf
I0325 10:03:56.209867 17951 net.cpp:100] Creating Layer conv6_2_mbox_conf
I0325 10:03:56.209878 17951 net.cpp:434] conv6_2_mbox_conf <- conv6_2_conv6_2_relu_0_split_2
I0325 10:03:56.209972 17951 net.cpp:408] conv6_2_mbox_conf -> conv6_2_mbox_conf
I0325 10:03:56.214718 17951 net.cpp:150] Setting up conv6_2_mbox_conf
I0325 10:03:56.214741 17951 net.cpp:157] Top shape: 1 66 10 10 (6600)
I0325 10:03:56.214746 17951 net.cpp:165] Memory required for data: 263840024
I0325 10:03:56.214804 17951 layer_factory.hpp:77] Creating layer conv6_2_mbox_conf_perm
I0325 10:03:56.214854 17951 net.cpp:100] Creating Layer conv6_2_mbox_conf_perm
I0325 10:03:56.214881 17951 net.cpp:434] conv6_2_mbox_conf_perm <- conv6_2_mbox_conf
I0325 10:03:56.214910 17951 net.cpp:408] conv6_2_mbox_conf_perm -> conv6_2_mbox_conf_perm
I0325 10:03:56.215103 17951 net.cpp:150] Setting up conv6_2_mbox_conf_perm
I0325 10:03:56.215118 17951 net.cpp:157] Top shape: 1 10 10 66 (6600)
I0325 10:03:56.215135 17951 net.cpp:165] Memory required for data: 263866424
I0325 10:03:56.215168 17951 layer_factory.hpp:77] Creating layer conv6_2_mbox_conf_flat
I0325 10:03:56.215188 17951 net.cpp:100] Creating Layer conv6_2_mbox_conf_flat
I0325 10:03:56.215198 17951 net.cpp:434] conv6_2_mbox_conf_flat <- conv6_2_mbox_conf_perm
I0325 10:03:56.215214 17951 net.cpp:408] conv6_2_mbox_conf_flat -> conv6_2_mbox_conf_flat
I0325 10:03:56.215282 17951 net.cpp:150] Setting up conv6_2_mbox_conf_flat
I0325 10:03:56.215297 17951 net.cpp:157] Top shape: 1 6600 (6600)
I0325 10:03:56.215308 17951 net.cpp:165] Memory required for data: 263892824
I0325 10:03:56.215317 17951 layer_factory.hpp:77] Creating layer conv6_2_mbox_priorbox
I0325 10:03:56.215327 17951 net.cpp:100] Creating Layer conv6_2_mbox_priorbox
I0325 10:03:56.215333 17951 net.cpp:434] conv6_2_mbox_priorbox <- conv6_2_conv6_2_relu_0_split_3
I0325 10:03:56.215346 17951 net.cpp:434] conv6_2_mbox_priorbox <- data_data_0_split_3
I0325 10:03:56.215355 17951 net.cpp:408] conv6_2_mbox_priorbox -> conv6_2_mbox_priorbox
I0325 10:03:56.215430 17951 net.cpp:150] Setting up conv6_2_mbox_priorbox
I0325 10:03:56.215445 17951 net.cpp:157] Top shape: 1 2 2400 (4800)
I0325 10:03:56.215452 17951 net.cpp:165] Memory required for data: 263912024
I0325 10:03:56.215458 17951 layer_factory.hpp:77] Creating layer conv7_2_mbox_loc
I0325 10:03:56.215476 17951 net.cpp:100] Creating Layer conv7_2_mbox_loc
I0325 10:03:56.215482 17951 net.cpp:434] conv7_2_mbox_loc <- conv7_2_conv7_2_relu_0_split_1
I0325 10:03:56.215494 17951 net.cpp:408] conv7_2_mbox_loc -> conv7_2_mbox_loc
I0325 10:03:56.217834 17951 net.cpp:150] Setting up conv7_2_mbox_loc
I0325 10:03:56.217849 17951 net.cpp:157] Top shape: 1 24 5 5 (600)
I0325 10:03:56.217854 17951 net.cpp:165] Memory required for data: 263914424
I0325 10:03:56.217881 17951 layer_factory.hpp:77] Creating layer conv7_2_mbox_loc_perm
I0325 10:03:56.217897 17951 net.cpp:100] Creating Layer conv7_2_mbox_loc_perm
I0325 10:03:56.217914 17951 net.cpp:434] conv7_2_mbox_loc_perm <- conv7_2_mbox_loc
I0325 10:03:56.217936 17951 net.cpp:408] conv7_2_mbox_loc_perm -> conv7_2_mbox_loc_perm
I0325 10:03:56.218155 17951 net.cpp:150] Setting up conv7_2_mbox_loc_perm
I0325 10:03:56.218168 17951 net.cpp:157] Top shape: 1 5 5 24 (600)
I0325 10:03:56.218179 17951 net.cpp:165] Memory required for data: 263916824
I0325 10:03:56.218194 17951 layer_factory.hpp:77] Creating layer conv7_2_mbox_loc_flat
I0325 10:03:56.218209 17951 net.cpp:100] Creating Layer conv7_2_mbox_loc_flat
I0325 10:03:56.218221 17951 net.cpp:434] conv7_2_mbox_loc_flat <- conv7_2_mbox_loc_perm
I0325 10:03:56.218245 17951 net.cpp:408] conv7_2_mbox_loc_flat -> conv7_2_mbox_loc_flat
I0325 10:03:56.218307 17951 net.cpp:150] Setting up conv7_2_mbox_loc_flat
I0325 10:03:56.218323 17951 net.cpp:157] Top shape: 1 600 (600)
I0325 10:03:56.218328 17951 net.cpp:165] Memory required for data: 263919224
I0325 10:03:56.218334 17951 layer_factory.hpp:77] Creating layer conv7_2_mbox_conf
I0325 10:03:56.218353 17951 net.cpp:100] Creating Layer conv7_2_mbox_conf
I0325 10:03:56.218371 17951 net.cpp:434] conv7_2_mbox_conf <- conv7_2_conv7_2_relu_0_split_2
I0325 10:03:56.218395 17951 net.cpp:408] conv7_2_mbox_conf -> conv7_2_mbox_conf
I0325 10:03:56.221061 17951 net.cpp:150] Setting up conv7_2_mbox_conf
I0325 10:03:56.221076 17951 net.cpp:157] Top shape: 1 66 5 5 (1650)
I0325 10:03:56.221082 17951 net.cpp:165] Memory required for data: 263925824
I0325 10:03:56.221094 17951 layer_factory.hpp:77] Creating layer conv7_2_mbox_conf_perm
I0325 10:03:56.221104 17951 net.cpp:100] Creating Layer conv7_2_mbox_conf_perm
I0325 10:03:56.221112 17951 net.cpp:434] conv7_2_mbox_conf_perm <- conv7_2_mbox_conf
I0325 10:03:56.221127 17951 net.cpp:408] conv7_2_mbox_conf_perm -> conv7_2_mbox_conf_perm
I0325 10:03:56.221318 17951 net.cpp:150] Setting up conv7_2_mbox_conf_perm
I0325 10:03:56.221330 17951 net.cpp:157] Top shape: 1 5 5 66 (1650)
I0325 10:03:56.221335 17951 net.cpp:165] Memory required for data: 263932424
I0325 10:03:56.221343 17951 layer_factory.hpp:77] Creating layer conv7_2_mbox_conf_flat
I0325 10:03:56.221374 17951 net.cpp:100] Creating Layer conv7_2_mbox_conf_flat
I0325 10:03:56.221385 17951 net.cpp:434] conv7_2_mbox_conf_flat <- conv7_2_mbox_conf_perm
I0325 10:03:56.221396 17951 net.cpp:408] conv7_2_mbox_conf_flat -> conv7_2_mbox_conf_flat
I0325 10:03:56.221447 17951 net.cpp:150] Setting up conv7_2_mbox_conf_flat
I0325 10:03:56.221462 17951 net.cpp:157] Top shape: 1 1650 (1650)
I0325 10:03:56.221468 17951 net.cpp:165] Memory required for data: 263939024
I0325 10:03:56.221474 17951 layer_factory.hpp:77] Creating layer conv7_2_mbox_priorbox
I0325 10:03:56.221488 17951 net.cpp:100] Creating Layer conv7_2_mbox_priorbox
I0325 10:03:56.221503 17951 net.cpp:434] conv7_2_mbox_priorbox <- conv7_2_conv7_2_relu_0_split_3
I0325 10:03:56.221524 17951 net.cpp:434] conv7_2_mbox_priorbox <- data_data_0_split_4
I0325 10:03:56.221539 17951 net.cpp:408] conv7_2_mbox_priorbox -> conv7_2_mbox_priorbox
I0325 10:03:56.221601 17951 net.cpp:150] Setting up conv7_2_mbox_priorbox
I0325 10:03:56.221611 17951 net.cpp:157] Top shape: 1 2 600 (1200)
I0325 10:03:56.221618 17951 net.cpp:165] Memory required for data: 263943824
I0325 10:03:56.221627 17951 layer_factory.hpp:77] Creating layer conv8_2_mbox_loc
I0325 10:03:56.221648 17951 net.cpp:100] Creating Layer conv8_2_mbox_loc
I0325 10:03:56.221662 17951 net.cpp:434] conv8_2_mbox_loc <- conv8_2_conv8_2_relu_0_split_1
I0325 10:03:56.221679 17951 net.cpp:408] conv8_2_mbox_loc -> conv8_2_mbox_loc
I0325 10:03:56.223337 17951 net.cpp:150] Setting up conv8_2_mbox_loc
I0325 10:03:56.223353 17951 net.cpp:157] Top shape: 1 16 3 3 (144)
I0325 10:03:56.223358 17951 net.cpp:165] Memory required for data: 263944400
I0325 10:03:56.223371 17951 layer_factory.hpp:77] Creating layer conv8_2_mbox_loc_perm
I0325 10:03:56.223381 17951 net.cpp:100] Creating Layer conv8_2_mbox_loc_perm
I0325 10:03:56.223387 17951 net.cpp:434] conv8_2_mbox_loc_perm <- conv8_2_mbox_loc
I0325 10:03:56.223399 17951 net.cpp:408] conv8_2_mbox_loc_perm -> conv8_2_mbox_loc_perm
I0325 10:03:56.223577 17951 net.cpp:150] Setting up conv8_2_mbox_loc_perm
I0325 10:03:56.223592 17951 net.cpp:157] Top shape: 1 3 3 16 (144)
I0325 10:03:56.223598 17951 net.cpp:165] Memory required for data: 263944976
I0325 10:03:56.223603 17951 layer_factory.hpp:77] Creating layer conv8_2_mbox_loc_flat
I0325 10:03:56.223613 17951 net.cpp:100] Creating Layer conv8_2_mbox_loc_flat
I0325 10:03:56.223619 17951 net.cpp:434] conv8_2_mbox_loc_flat <- conv8_2_mbox_loc_perm
I0325 10:03:56.223632 17951 net.cpp:408] conv8_2_mbox_loc_flat -> conv8_2_mbox_loc_flat
I0325 10:03:56.223685 17951 net.cpp:150] Setting up conv8_2_mbox_loc_flat
I0325 10:03:56.223701 17951 net.cpp:157] Top shape: 1 144 (144)
I0325 10:03:56.223706 17951 net.cpp:165] Memory required for data: 263945552
I0325 10:03:56.223714 17951 layer_factory.hpp:77] Creating layer conv8_2_mbox_conf
I0325 10:03:56.223731 17951 net.cpp:100] Creating Layer conv8_2_mbox_conf
I0325 10:03:56.223743 17951 net.cpp:434] conv8_2_mbox_conf <- conv8_2_conv8_2_relu_0_split_2
I0325 10:03:56.223762 17951 net.cpp:408] conv8_2_mbox_conf -> conv8_2_mbox_conf
I0325 10:03:56.226275 17951 net.cpp:150] Setting up conv8_2_mbox_conf
I0325 10:03:56.226291 17951 net.cpp:157] Top shape: 1 44 3 3 (396)
I0325 10:03:56.226296 17951 net.cpp:165] Memory required for data: 263947136
I0325 10:03:56.226308 17951 layer_factory.hpp:77] Creating layer conv8_2_mbox_conf_perm
I0325 10:03:56.226321 17951 net.cpp:100] Creating Layer conv8_2_mbox_conf_perm
I0325 10:03:56.226328 17951 net.cpp:434] conv8_2_mbox_conf_perm <- conv8_2_mbox_conf
I0325 10:03:56.226337 17951 net.cpp:408] conv8_2_mbox_conf_perm -> conv8_2_mbox_conf_perm
I0325 10:03:56.226516 17951 net.cpp:150] Setting up conv8_2_mbox_conf_perm
I0325 10:03:56.226529 17951 net.cpp:157] Top shape: 1 3 3 44 (396)
I0325 10:03:56.226534 17951 net.cpp:165] Memory required for data: 263948720
I0325 10:03:56.226541 17951 layer_factory.hpp:77] Creating layer conv8_2_mbox_conf_flat
I0325 10:03:56.226550 17951 net.cpp:100] Creating Layer conv8_2_mbox_conf_flat
I0325 10:03:56.226557 17951 net.cpp:434] conv8_2_mbox_conf_flat <- conv8_2_mbox_conf_perm
I0325 10:03:56.226583 17951 net.cpp:408] conv8_2_mbox_conf_flat -> conv8_2_mbox_conf_flat
I0325 10:03:56.226639 17951 net.cpp:150] Setting up conv8_2_mbox_conf_flat
I0325 10:03:56.226656 17951 net.cpp:157] Top shape: 1 396 (396)
I0325 10:03:56.226665 17951 net.cpp:165] Memory required for data: 263950304
I0325 10:03:56.226671 17951 layer_factory.hpp:77] Creating layer conv8_2_mbox_priorbox
I0325 10:03:56.226682 17951 net.cpp:100] Creating Layer conv8_2_mbox_priorbox
I0325 10:03:56.226689 17951 net.cpp:434] conv8_2_mbox_priorbox <- conv8_2_conv8_2_relu_0_split_3
I0325 10:03:56.226698 17951 net.cpp:434] conv8_2_mbox_priorbox <- data_data_0_split_5
I0325 10:03:56.226711 17951 net.cpp:408] conv8_2_mbox_priorbox -> conv8_2_mbox_priorbox
I0325 10:03:56.226775 17951 net.cpp:150] Setting up conv8_2_mbox_priorbox
I0325 10:03:56.226790 17951 net.cpp:157] Top shape: 1 2 144 (288)
I0325 10:03:56.226797 17951 net.cpp:165] Memory required for data: 263951456
I0325 10:03:56.226804 17951 layer_factory.hpp:77] Creating layer conv9_2_mbox_loc
I0325 10:03:56.226819 17951 net.cpp:100] Creating Layer conv9_2_mbox_loc
I0325 10:03:56.226832 17951 net.cpp:434] conv9_2_mbox_loc <- conv9_2_conv9_2_relu_0_split_0
I0325 10:03:56.226848 17951 net.cpp:408] conv9_2_mbox_loc -> conv9_2_mbox_loc
I0325 10:03:56.228472 17951 net.cpp:150] Setting up conv9_2_mbox_loc
I0325 10:03:56.228487 17951 net.cpp:157] Top shape: 1 16 1 1 (16)
I0325 10:03:56.228492 17951 net.cpp:165] Memory required for data: 263951520
I0325 10:03:56.228503 17951 layer_factory.hpp:77] Creating layer conv9_2_mbox_loc_perm
I0325 10:03:56.228515 17951 net.cpp:100] Creating Layer conv9_2_mbox_loc_perm
I0325 10:03:56.228523 17951 net.cpp:434] conv9_2_mbox_loc_perm <- conv9_2_mbox_loc
I0325 10:03:56.228530 17951 net.cpp:408] conv9_2_mbox_loc_perm -> conv9_2_mbox_loc_perm
I0325 10:03:56.228703 17951 net.cpp:150] Setting up conv9_2_mbox_loc_perm
I0325 10:03:56.228715 17951 net.cpp:157] Top shape: 1 1 1 16 (16)
I0325 10:03:56.228720 17951 net.cpp:165] Memory required for data: 263951584
I0325 10:03:56.228727 17951 layer_factory.hpp:77] Creating layer conv9_2_mbox_loc_flat
I0325 10:03:56.228740 17951 net.cpp:100] Creating Layer conv9_2_mbox_loc_flat
I0325 10:03:56.228746 17951 net.cpp:434] conv9_2_mbox_loc_flat <- conv9_2_mbox_loc_perm
I0325 10:03:56.228755 17951 net.cpp:408] conv9_2_mbox_loc_flat -> conv9_2_mbox_loc_flat
I0325 10:03:56.228803 17951 net.cpp:150] Setting up conv9_2_mbox_loc_flat
I0325 10:03:56.229749 17951 net.cpp:157] Top shape: 1 16 (16)
I0325 10:03:56.229774 17951 net.cpp:165] Memory required for data: 263951648
I0325 10:03:56.229784 17951 layer_factory.hpp:77] Creating layer conv9_2_mbox_conf
I0325 10:03:56.229821 17951 net.cpp:100] Creating Layer conv9_2_mbox_conf
I0325 10:03:56.229837 17951 net.cpp:434] conv9_2_mbox_conf <- conv9_2_conv9_2_relu_0_split_1
I0325 10:03:56.229853 17951 net.cpp:408] conv9_2_mbox_conf -> conv9_2_mbox_conf
I0325 10:03:56.234284 17951 net.cpp:150] Setting up conv9_2_mbox_conf
I0325 10:03:56.234313 17951 net.cpp:157] Top shape: 1 44 1 1 (44)
I0325 10:03:56.234319 17951 net.cpp:165] Memory required for data: 263951824
I0325 10:03:56.234334 17951 layer_factory.hpp:77] Creating layer conv9_2_mbox_conf_perm
I0325 10:03:56.234349 17951 net.cpp:100] Creating Layer conv9_2_mbox_conf_perm
I0325 10:03:56.234359 17951 net.cpp:434] conv9_2_mbox_conf_perm <- conv9_2_mbox_conf
I0325 10:03:56.234377 17951 net.cpp:408] conv9_2_mbox_conf_perm -> conv9_2_mbox_conf_perm
I0325 10:03:56.234587 17951 net.cpp:150] Setting up conv9_2_mbox_conf_perm
I0325 10:03:56.234606 17951 net.cpp:157] Top shape: 1 1 1 44 (44)
I0325 10:03:56.234611 17951 net.cpp:165] Memory required for data: 263952000
I0325 10:03:56.234618 17951 layer_factory.hpp:77] Creating layer conv9_2_mbox_conf_flat
I0325 10:03:56.234632 17951 net.cpp:100] Creating Layer conv9_2_mbox_conf_flat
I0325 10:03:56.234644 17951 net.cpp:434] conv9_2_mbox_conf_flat <- conv9_2_mbox_conf_perm
I0325 10:03:56.234659 17951 net.cpp:408] conv9_2_mbox_conf_flat -> conv9_2_mbox_conf_flat
I0325 10:03:56.234730 17951 net.cpp:150] Setting up conv9_2_mbox_conf_flat
I0325 10:03:56.234745 17951 net.cpp:157] Top shape: 1 44 (44)
I0325 10:03:56.234750 17951 net.cpp:165] Memory required for data: 263952176
I0325 10:03:56.234755 17951 layer_factory.hpp:77] Creating layer conv9_2_mbox_priorbox
I0325 10:03:56.234771 17951 net.cpp:100] Creating Layer conv9_2_mbox_priorbox
I0325 10:03:56.234777 17951 net.cpp:434] conv9_2_mbox_priorbox <- conv9_2_conv9_2_relu_0_split_2
I0325 10:03:56.234786 17951 net.cpp:434] conv9_2_mbox_priorbox <- data_data_0_split_6
I0325 10:03:56.234796 17951 net.cpp:408] conv9_2_mbox_priorbox -> conv9_2_mbox_priorbox
I0325 10:03:56.234848 17951 net.cpp:150] Setting up conv9_2_mbox_priorbox
I0325 10:03:56.234864 17951 net.cpp:157] Top shape: 1 2 16 (32)
I0325 10:03:56.234871 17951 net.cpp:165] Memory required for data: 263952304
I0325 10:03:56.234879 17951 layer_factory.hpp:77] Creating layer mbox_loc
I0325 10:03:56.234892 17951 net.cpp:100] Creating Layer mbox_loc
I0325 10:03:56.234900 17951 net.cpp:434] mbox_loc <- conv4_3_norm_mbox_loc_flat
I0325 10:03:56.234908 17951 net.cpp:434] mbox_loc <- fc7_mbox_loc_flat
I0325 10:03:56.234916 17951 net.cpp:434] mbox_loc <- conv6_2_mbox_loc_flat
I0325 10:03:56.234925 17951 net.cpp:434] mbox_loc <- conv7_2_mbox_loc_flat
I0325 10:03:56.234931 17951 net.cpp:434] mbox_loc <- conv8_2_mbox_loc_flat
I0325 10:03:56.234937 17951 net.cpp:434] mbox_loc <- conv9_2_mbox_loc_flat
I0325 10:03:56.234948 17951 net.cpp:408] mbox_loc -> mbox_loc
I0325 10:03:56.235002 17951 net.cpp:150] Setting up mbox_loc
I0325 10:03:56.235018 17951 net.cpp:157] Top shape: 1 34928 (34928)
I0325 10:03:56.235024 17951 net.cpp:165] Memory required for data: 264092016
I0325 10:03:56.235029 17951 layer_factory.hpp:77] Creating layer mbox_conf
I0325 10:03:56.235040 17951 net.cpp:100] Creating Layer mbox_conf
I0325 10:03:56.235047 17951 net.cpp:434] mbox_conf <- conv4_3_norm_mbox_conf_flat
I0325 10:03:56.235055 17951 net.cpp:434] mbox_conf <- fc7_mbox_conf_flat
I0325 10:03:56.235062 17951 net.cpp:434] mbox_conf <- conv6_2_mbox_conf_flat
I0325 10:03:56.235070 17951 net.cpp:434] mbox_conf <- conv7_2_mbox_conf_flat
I0325 10:03:56.235077 17951 net.cpp:434] mbox_conf <- conv8_2_mbox_conf_flat
I0325 10:03:56.235083 17951 net.cpp:434] mbox_conf <- conv9_2_mbox_conf_flat
I0325 10:03:56.235092 17951 net.cpp:408] mbox_conf -> mbox_conf
I0325 10:03:56.235146 17951 net.cpp:150] Setting up mbox_conf
I0325 10:03:56.235158 17951 net.cpp:157] Top shape: 1 96052 (96052)
I0325 10:03:56.235163 17951 net.cpp:165] Memory required for data: 264476224
I0325 10:03:56.235169 17951 layer_factory.hpp:77] Creating layer mbox_priorbox
I0325 10:03:56.235179 17951 net.cpp:100] Creating Layer mbox_priorbox
I0325 10:03:56.235185 17951 net.cpp:434] mbox_priorbox <- conv4_3_norm_mbox_priorbox
I0325 10:03:56.235193 17951 net.cpp:434] mbox_priorbox <- fc7_mbox_priorbox
I0325 10:03:56.235199 17951 net.cpp:434] mbox_priorbox <- conv6_2_mbox_priorbox
I0325 10:03:56.235206 17951 net.cpp:434] mbox_priorbox <- conv7_2_mbox_priorbox
I0325 10:03:56.235213 17951 net.cpp:434] mbox_priorbox <- conv8_2_mbox_priorbox
I0325 10:03:56.235219 17951 net.cpp:434] mbox_priorbox <- conv9_2_mbox_priorbox
I0325 10:03:56.235226 17951 net.cpp:408] mbox_priorbox -> mbox_priorbox
I0325 10:03:56.235266 17951 net.cpp:150] Setting up mbox_priorbox
I0325 10:03:56.235276 17951 net.cpp:157] Top shape: 1 2 34928 (69856)
I0325 10:03:56.235281 17951 net.cpp:165] Memory required for data: 264755648
I0325 10:03:56.235287 17951 layer_factory.hpp:77] Creating layer mbox_conf_reshape
I0325 10:03:56.235299 17951 net.cpp:100] Creating Layer mbox_conf_reshape
I0325 10:03:56.235304 17951 net.cpp:434] mbox_conf_reshape <- mbox_conf
I0325 10:03:56.235313 17951 net.cpp:408] mbox_conf_reshape -> mbox_conf_reshape
I0325 10:03:56.235358 17951 net.cpp:150] Setting up mbox_conf_reshape
I0325 10:03:56.235368 17951 net.cpp:157] Top shape: 1 8732 11 (96052)
I0325 10:03:56.235374 17951 net.cpp:165] Memory required for data: 265139856
I0325 10:03:56.235380 17951 layer_factory.hpp:77] Creating layer mbox_conf_softmax
I0325 10:03:56.235402 17951 net.cpp:100] Creating Layer mbox_conf_softmax
I0325 10:03:56.235411 17951 net.cpp:434] mbox_conf_softmax <- mbox_conf_reshape
I0325 10:03:56.235421 17951 net.cpp:408] mbox_conf_softmax -> mbox_conf_softmax
I0325 10:03:56.235873 17951 net.cpp:150] Setting up mbox_conf_softmax
I0325 10:03:56.235893 17951 net.cpp:157] Top shape: 1 8732 11 (96052)
I0325 10:03:56.235903 17951 net.cpp:165] Memory required for data: 265524064
I0325 10:03:56.235908 17951 layer_factory.hpp:77] Creating layer mbox_conf_flatten
I0325 10:03:56.235918 17951 net.cpp:100] Creating Layer mbox_conf_flatten
I0325 10:03:56.235924 17951 net.cpp:434] mbox_conf_flatten <- mbox_conf_softmax
I0325 10:03:56.235936 17951 net.cpp:408] mbox_conf_flatten -> mbox_conf_flatten
I0325 10:03:56.235994 17951 net.cpp:150] Setting up mbox_conf_flatten
I0325 10:03:56.236009 17951 net.cpp:157] Top shape: 1 96052 (96052)
I0325 10:03:56.236016 17951 net.cpp:165] Memory required for data: 265908272
I0325 10:03:56.236021 17951 layer_factory.hpp:77] Creating layer detection_out
I0325 10:03:56.236043 17951 net.cpp:100] Creating Layer detection_out
I0325 10:03:56.236050 17951 net.cpp:434] detection_out <- mbox_loc
I0325 10:03:56.236058 17951 net.cpp:434] detection_out <- mbox_conf_flatten
I0325 10:03:56.236065 17951 net.cpp:434] detection_out <- mbox_priorbox
I0325 10:03:56.236078 17951 net.cpp:408] detection_out -> detection_out
I0325 10:03:56.274828 17951 net.cpp:150] Setting up detection_out
I0325 10:03:56.274873 17951 net.cpp:157] Top shape: 1 1 1 7 (7)
I0325 10:03:56.274881 17951 net.cpp:165] Memory required for data: 265908300
I0325 10:03:56.274889 17951 layer_factory.hpp:77] Creating layer detection_eval
I0325 10:03:56.274906 17951 net.cpp:100] Creating Layer detection_eval
I0325 10:03:56.274915 17951 net.cpp:434] detection_eval <- detection_out
I0325 10:03:56.274926 17951 net.cpp:434] detection_eval <- label
I0325 10:03:56.274935 17951 net.cpp:408] detection_eval -> detection_eval
I0325 10:03:56.275152 17951 net.cpp:150] Setting up detection_eval
I0325 10:03:56.275166 17951 net.cpp:157] Top shape: 1 1 11 5 (55)
I0325 10:03:56.275172 17951 net.cpp:165] Memory required for data: 265908520
I0325 10:03:56.275178 17951 net.cpp:228] detection_eval does not need backward computation.
I0325 10:03:56.275185 17951 net.cpp:228] detection_out does not need backward computation.
I0325 10:03:56.275193 17951 net.cpp:228] mbox_conf_flatten does not need backward computation.
I0325 10:03:56.275200 17951 net.cpp:228] mbox_conf_softmax does not need backward computation.
…
