…
      sampler {
        min_scale: 0.3
        max_scale: 1
        min_aspect_ratio: 0.5
        max_aspect_ratio: 2
      }
      sample_constraint {
        min_jaccard_overlap: 0.9
      }
      max_sample: 1
      max_trials: 50
    }
    batch_sampler {
      sampler {
        min_scale: 0.3
        max_scale: 1
        min_aspect_ratio: 0.5
        max_aspect_ratio: 2
      }
      sample_constraint {
        max_jaccard_overlap: 1
      }
      max_sample: 1
      max_trials: 50
    }
    label_map_file: "data/NWPU_VHR/labelmap_NWPU_VHR.prototxt"
  }
}
layer {
  name: "conv1_1"
  type: "Convolution"
  bottom: "data"
  top: "conv1_1"
  param {
    lr_mult: 1
    decay_mult: 1
  }
  param {
    lr_mult: 2
    decay_mult: 0
  }
  convolution_param {
    num_output: 64
    pad: 1
    kernel_size: 3
    weight_filler {
      type: "xavier"
    }
    bias_filler {
      type: "constant"
      value: 0
    }
  }
}
layer {
  name: "relu1_1"
  type: "ReLU"
  bottom: "conv1_1"
  top: "conv1_1"
}
layer {
  name: "conv1_2"
  type: "Convolution"
  bottom: "conv1_1"
  top: "conv1_2"
  param {
    lr_mult: 1
    decay_mult: 1
  }
  param {
    lr_mult: 2
    decay_mult: 0
  }
  convolution_param {
    num_output: 64
    pad: 1
    kernel_size: 3
    weight_filler {
      type: "xavier"
    }
    bias_filler {
      type: "constant"
      value: 0
    }
  }
}
layer {
  name: "relu1_2"
  type: "ReLU"
  bottom: "conv1_2"
  top: "conv1_2"
}
layer {
  name: "pool1"
  type: "Pooling"
  bottom: "conv1_2"
  top: "pool1"
  pooling_param {
    pool: MAX
    kernel_size: 2
    stride: 2
  }
}
layer {
  name: "conv2_1"
  type: "Convolution"
  bottom: "pool1"
  top: "conv2_1"
  param {
    lr_mult: 1
    decay_mult: 1
  }
  param {
    lr_mult: 2
    decay_mult: 0
  }
  convolution_param {
    num_output: 128
    pad: 1
    kernel_size: 3
    weight_filler {
      type: "xavier"
    }
    bias_filler {
      type: "constant"
      value: 0
    }
  }
}
layer {
  name: "relu2_1"
  type: "ReLU"
  bottom: "conv2_1"
  top: "conv2_1"
}
layer {
  name: "conv2_2"
  type: "Convolution"
  bottom: "conv2_1"
  top: "conv2_2"
  param {
    lr_mult: 1
    decay_mult: 1
  }
  param {
    lr_mult: 2
    decay_mult: 0
  }
  convolution_param {
    num_output: 128
    pad: 1
    kernel_size: 3
    weight_filler {
      type: "xavier"
    }
    bias_filler {
      type: "constant"
      value: 0
    }
  }
}
layer {
  name: "relu2_2"
  type: "ReLU"
  bottom: "conv2_2"
  top: "conv2_2"
}
layer {
  name: "pool2"
  type: "Pooling"
  bottom: "conv2_2"
  top: "pool2"
  pooling_param {
    pool: MAX
    kernel_size: 2
    stride: 2
  }
}
layer {
  name: "conv3_1"
  type: "Convolution"
  bottom: "pool2"
  top: "conv3_1"
  param {
    lr_mult: 1
    decay_mult: 1
  }
  param {
    lr_mult: 2
    decay_mult: 0
  }
  convolution_param {
    num_output: 256
    pad: 1
    kernel_size: 3
    weight_filler {
      type: "xavier"
    }
    bias_filler {
      type: "constant"
      value: 0
    }
  }
}
layer {
  name: "relu3_1"
  type: "ReLU"
  bottom: "conv3_1"
  top: "conv3_1"
}
layer {
  name: "conv3_2"
  type: "Convolution"
  bottom: "conv3_1"
  top: "conv3_2"
  param {
    lr_mult: 1
    decay_mult: 1
  }
  param {
    lr_mult: 2
    decay_mult: 0
  }
  convolution_param {
    num_output: 256
    pad: 1
    kernel_size: 3
    weight_filler {
      type: "xavier"
    }
    bias_filler {
      type: "constant"
      value: 0
    }
  }
}
layer {
  name: "relu3_2"
  type: "ReLU"
  bottom: "conv3_2"
  top: "conv3_2"
}
layer {
  name: "conv3_3"
  type: "Convolution"
  bottom: "conv3_2"
  top: "conv3_3"
  param {
    lr_mult: 1
    decay_mult: 1
  }
  param {
    lr_mult: 2
    decay_mult: 0
  }
  convolution_param {
    num_output: 256
    pad: 1
    kernel_size: 3
    weight_filler {
      type: "xavier"
    }
    bias_filler {
      type: "constant"
      value: 0
    }
  }
}
layer {
  name: "relu3_3"
  type: "ReLU"
  bottom: "conv3_3"
  top: "conv3_3"
}
layer {
  name: "pool3"
  type: "Pooling"
  bottom: "conv3_3"
  top: "pool3"
  pooling_param {
    pool: MAX
    kernel_size: 2
    stride: 2
  }
}
layer {
  name: "conv4_1_depthwise"
  type: "DepthwiseConvolution"
  bottom: "pool3"
  top: "conv4_1_3x3"
  param {
    lr_mult: 1
    decay_mult: 1
  }
  param {
    lr_mult: 2
    decay_mult: 0
  }
  convolution_param {
    num_output: 256
    pad: 1
    kernel_size: 3
    group: 256
    weight_filler {
      type: "xavier"
    }
    bias_filler {
      type: "constant"
      value: 0
    }
  }
}
layer {
  name: "conv4_1_3x3_relu"
  type: "ReLU"
  bottom: "conv4_1_3x3"
  top: "conv4_1_3x3"
}
layer {
  name: "conv4_1_1x1"
  type: "Convolution"
  bottom: "conv4_1_3x3"
  top: "conv4_1"
  param {
    lr_mult: 1
    decay_mult: 1
  }
  param {
    lr_mult: 2
    decay_mult: 0
  }
  convolution_param {
    num_output: 512
    pad: 0
    kernel_size: 1
    stride: 1
    weight_filler {
      type: "xavier"
    }
    bias_filler {
      type: "constant"
      value: 0
    }
  }
}
layer {
  name: "relu4_1"
  type: "ReLU"
  bottom: "conv4_1"
  top: "conv4_1"
}
layer {
  name: "conv4_2_depthwise"
  type: "DepthwiseConvolution"
  bottom: "conv4_1"
  top: "conv4_2_3x3"
  param {
    lr_mult: 1
    decay_mult: 1
  }
  param {
    lr_mult: 2
    decay_mult: 0
  }
  convolution_param {
    num_output: 512
    pad: 1
    kernel_size: 3
    group: 512
    weight_filler {
      type: "xavier"
    }
    bias_filler {
      type: "constant"
      value: 0
    }
  }
}
layer {
  name: "conv4_2_3x3_relu"
  type: "ReLU"
  bottom: "conv4_2_3x3"
  top: "conv4_2_3x3"
}
layer {
  name: "conv4_2_1x1"
  type: "Convolution"
  bottom: "conv4_2_3x3"
  top: "conv4_2"
  param {
    lr_mult: 1
    decay_mult: 1
  }
  param {
    lr_mult: 2
    decay_mult: 0
  }
  convolution_param {
    num_output: 512
    pad: 0
    kernel_size: 1
    stride: 1
    weight_filler {
      type: "xavier"
    }
    bias_filler {
      type: "constant"
      value: 0
    }
  }
}
layer {
  name: "relu4_2"
  type: "ReLU"
  bottom: "conv4_2"
  top: "conv4_2"
}
layer {
  name: "conv4_3"
  type: "Convolution"
  bottom: "conv4_2"
  top: "conv4_3"
  param {
    lr_mult: 1
    decay_mult: 1
  }
  param {
    lr_mult: 2
    decay_mult: 0
  }
  convolution_param {
    num_output: 512
    pad: 1
    kernel_size: 3
    weight_filler {
      type: "xavier"
    }
    bias_filler {
      type: "constant"
      value: 0
    }
  }
}
layer {
  name: "relu4_3"
  type: "ReLU"
  bottom: "conv4_3"
  top: "conv4_3"
}
layer {
  name: "pool4"
  type: "Pooling"
  bottom: "conv4_3"
  top: "pool4"
  pooling_param {
    pool: MAX
    kernel_size: 2
    stride: 2
  }
}
layer {
  name: "conv5_1_depthwise"
  type: "DepthwiseConvolution"
  bottom: "pool4"
  top: "conv5_1_3x3"
  param {
    lr_mult: 1
    decay_mult: 1
  }
  param {
    lr_mult: 2
    decay_mult: 0
  }
  convolution_param {
    num_output: 512
    pad: 1
    kernel_size: 3
    group: 512
    weight_filler {
      type: "xavier"
    }
    bias_filler {
      type: "constant"
      value: 0
    }
    dilation: 1
  }
}
layer {
  name: "conv5_1_3x3_relu"
  type: "ReLU"
  bottom: "conv5_1_3x3"
  top: "conv5_1_3x3"
}
layer {
  name: "conv5_1_1x1"
  type: "Convolution"
  bottom: "conv5_1_3x3"
  top: "conv5_1"
  param {
    lr_mult: 1
    decay_mult: 1
  }
  param {
    lr_mult: 2
    decay_mult: 0
  }
  convolution_param {
    num_output: 512
    pad: 0
    kernel_size: 1
    stride: 1
    weight_filler {
      type: "xavier"
    }
    bias_filler {
      type: "constant"
      value: 0
    }
    dilation: 1
  }
}
layer {
  name: "relu5_1"
  type: "ReLU"
  bottom: "conv5_1"
  top: "conv5_1"
}
layer {
  name: "conv5_2_depthwise"
  type: "DepthwiseConvolution"
  bottom: "conv5_1"
  top: "conv5_2_3x3"
  param {
    lr_mult: 1
    decay_mult: 1
  }
  param {
    lr_mult: 2
    decay_mult: 0
  }
  convolution_param {
    num_output: 512
    pad: 1
    kernel_size: 3
    group: 512
    weight_filler {
      type: "xavier"
    }
    bias_filler {
      type: "constant"
      value: 0
    }
    dilation: 1
  }
}
layer {
  name: "conv5_2_3x3_relu"
  type: "ReLU"
  bottom: "conv5_2_3x3"
  top: "conv5_2_3x3"
}
layer {
  name: "conv5_2_1x1"
  type: "Convolution"
  bottom: "conv5_2_3x3"
  top: "conv5_2"
  param {
    lr_mult: 1
    decay_mult: 1
  }
  param {
    lr_mult: 2
    decay_mult: 0
  }
  convolution_param {
    num_output: 512
    pad: 0
    kernel_size: 1
    stride: 1
    weight_filler {
      type: "xavier"
    }
    bias_filler {
      type: "constant"
      value: 0
    }
    dilation: 1
  }
}
layer {
  name: "relu5_2"
  type: "ReLU"
  bottom: "conv5_2"
  top: "conv5_2"
}
layer {
  name: "conv5_3_depthwise"
  type: "DepthwiseConvolution"
  bottom: "conv5_2"
  top: "conv5_3_3x3"
  param {
    lr_mult: 1
    decay_mult: 1
  }
  param {
    lr_mult: 2
    decay_mult: 0
  }
  convolution_param {
    num_output: 512
    pad: 1
    kernel_size: 3
    group: 512
    weight_filler {
      type: "xavier"
    }
    bias_filler {
      type: "constant"
      value: 0
    }
    dilation: 1
  }
}
layer {
  name: "conv5_3_3x3_relu"
  type: "ReLU"
  bottom: "conv5_3_3x3"
  top: "conv5_3_3x3"
}
layer {
  name: "conv5_3_1x1"
  type: "Convolution"
  bottom: "conv5_3_3x3"
  top: "conv5_3"
  param {
    lr_mult: 1
    decay_mult: 1
  }
  param {
    lr_mult: 2
    decay_mult: 0
  }
  convolution_param {
    num_output: 512
    pad: 0
    kernel_size: 1
    stride: 1
    weight_filler {
      type: "xavier"
    }
    bias_filler {
      type: "constant"
      value: 0
    }
    dilation: 1
  }
}
layer {
  name: "relu5_3"
  type: "ReLU"
  bottom: "conv5_3"
  top: "conv5_3"
}
layer {
  name: "pool5"
  type: "Pooling"
  bottom: "conv5_3"
  top: "pool5"
  pooling_param {
    pool: MAX
    kernel_size: 3
    stride: 1
    pad: 1
  }
}
layer {
  name: "fc6_depthwise"
  type: "DepthwiseConvolution"
  bottom: "pool5"
  top: "fc6_3x3"
  param {
    lr_mult: 1
    decay_mult: 1
  }
  param {
    lr_mult: 2
    decay_mult: 0
  }
  convolution_param {
    num_output: 512
    pad: 6
    kernel_size: 3
    group: 512
    weight_filler {
      type: "xavier"
    }
    bias_filler {
      type: "constant"
      value: 0
    }
    dilation: 6
  }
}
layer {
  name: "fc6_3x3_relu"
  type: "ReLU"
  bottom: "fc6_3x3"
  top: "fc6_3x3"
}
layer {
  name: "fc6_1x1"
  type: "Convolution"
  bottom: "fc6_3x3"
  top: "fc6"
  param {
    lr_mult: 1
    decay_mult: 1
  }
  param {
    lr_mult: 2
    decay_mult: 0
  }
  convolution_param {
    num_output: 1024
    pad: 0
    kernel_size: 1
    stride: 1
    weight_filler {
      type: "xavier"
    }
    bias_filler {
      type: "constant"
      value: 0
    }
    dilation: 6
  }
}
layer {
  name: "relu6"
  type: "ReLU"
  bottom: "fc6"
  top: "fc6"
}
layer {
  name: "fc7"
  type: "Convolution"
  bottom: "fc6"
  top: "fc7"
  param {
    lr_mult: 1
    decay_mult: 1
  }
  param {
    lr_mult: 2
    decay_mult: 0
  }
  convolution_param {
    num_output: 1024
    kernel_size: 1
    weight_filler {
      type: "xavier"
    }
    bias_filler {
      type: "constant"
      value: 0
    }
  }
}
layer {
  name: "relu7"
  type: "ReLU"
  bottom: "fc7"
  top: "fc7"
}
layer {
  name: "conv6_1"
  type: "Convolution"
  bottom: "fc7"
  top: "conv6_1"
  param {
    lr_mult: 1
    decay_mult: 1
  }
  param {
    lr_mult: 2
    decay_mult: 0
  }
  convolution_param {
    num_output: 256
    pad: 0
    kernel_size: 1
    stride: 1
    weight_filler {
      type: "xavier"
    }
    bias_filler {
      type: "constant"
      value: 0
    }
  }
}
layer {
  name: "conv6_1_relu"
  type: "ReLU"
  bottom: "conv6_1"
  top: "conv6_1"
}
layer {
  name: "conv6_2_depthwise"
  type: "DepthwiseConvolution"
  bottom: "conv6_1"
  top: "conv6_2_3x3"
  param {
    lr_mult: 1
    decay_mult: 1
  }
  param {
    lr_mult: 2
    decay_mult: 0
  }
  convolution_param {
    num_output: 256
    pad: 1
    kernel_size: 3
    group: 256
    stride: 2
    weight_filler {
      type: "xavier"
    }
    bias_filler {
      type: "constant"
      value: 0
    }
  }
}
layer {
  name: "conv6_2_3x3_relu"
  type: "ReLU"
  bottom: "conv6_2_3x3"
  top: "conv6_2_3x3"
}
layer {
  name: "conv6_2_1x1"
  type: "Convolution"
  bottom: "conv6_2_3x3"
  top: "conv6_2"
  param {
    lr_mult: 1
    decay_mult: 1
  }
  param {
    lr_mult: 2
    decay_mult: 0
  }
  convolution_param {
    num_output: 512
    pad: 0
    kernel_size: 1
    stride: 1
    weight_filler {
      type: "xavier"
    }
    bias_filler {
      type: "constant"
      value: 0
    }
  }
}
layer {
  name: "conv6_2_relu"
  type: "ReLU"
  bottom: "conv6_2"
  top: "conv6_2"
}
layer {
  name: "conv7_1"
  type: "Convolution"
  bottom: "conv6_2"
  top: "conv7_1"
  param {
    lr_mult: 1
    decay_mult: 1
  }
  param {
    lr_mult: 2
    decay_mult: 0
  }
  convolution_param {
    num_output: 128
    pad: 0
    kernel_size: 1
    stride: 1
    weight_filler {
      type: "xavier"
    }
    bias_filler {
      type: "constant"
      value: 0
    }
  }
}
layer {
  name: "conv7_1_relu"
  type: "ReLU"
  bottom: "conv7_1"
  top: "conv7_1"
}
layer {
  name: "conv7_2"
  type: "Convolution"
  bottom: "conv7_1"
  top: "conv7_2"
  param {
    lr_mult: 1
    decay_mult: 1
  }
  param {
    lr_mult: 2
    decay_mult: 0
  }
  convolution_param {
    num_output: 256
    pad: 1
    kernel_size: 3
    stride: 2
    weight_filler {
      type: "xavier"
    }
    bias_filler {
      type: "constant"
      value: 0
    }
  }
}
layer {
  name: "conv7_2_relu"
  type: "ReLU"
  bottom: "conv7_2"
  top: "conv7_2"
}
layer {
  name: "conv8_1"
  type: "Convolution"
  bottom: "conv7_2"
  top: "conv8_1"
  param {
    lr_mult: 1
    decay_mult: 1
  }
  param {
    lr_mult: 2
    decay_mult: 0
  }
  convolution_param {
    num_output: 128
    pad: 0
    kernel_size: 1
    stride: 1
    weight_filler {
      type: "xavier"
    }
    bias_filler {
      type: "constant"
      value: 0
    }
  }
}
layer {
  name: "conv8_1_relu"
  type: "ReLU"
  bottom: "conv8_1"
  top: "conv8_1"
}
layer {
  name: "conv8_2"
  type: "Convolution"
  bottom: "conv8_1"
  top: "conv8_2"
  param {
    lr_mult: 1
    decay_mult: 1
  }
  param {
    lr_mult: 2
    decay_mult: 0
  }
  convolution_param {
    num_output: 256
    pad: 0
    kernel_size: 3
    stride: 1
    weight_filler {
      type: "xavier"
    }
    bias_filler {
      type: "constant"
      value: 0
    }
  }
}
layer {
  name: "conv8_2_relu"
  type: "ReLU"
  bottom: "conv8_2"
  top: "conv8_2"
}
layer {
  name: "conv9_1"
  type: "Convolution"
  bottom: "conv8_2"
  top: "conv9_1"
  param {
    lr_mult: 1
    decay_mult: 1
  }
  param {
    lr_mult: 2
    decay_mult: 0
  }
  convolution_param {
    num_output: 128
    pad: 0
    kernel_size: 1
    stride: 1
    weight_filler {
      type: "xavier"
    }
    bias_filler {
      type: "constant"
      value: 0
    }
  }
}
layer {
  name: "conv9_1_relu"
  type: "ReLU"
  bottom: "conv9_1"
  top: "conv9_1"
}
layer {
  name: "conv9_2"
  type: "Convolution"
  bottom: "conv9_1"
  top: "conv9_2"
  param {
    lr_mult: 1
    decay_mult: 1
  }
  param {
    lr_mult: 2
    decay_mult: 0
  }
  convolution_param {
    num_output: 256
    pad: 0
    kernel_size: 3
    stride: 1
    weight_filler {
      type: "xavier"
    }
    bias_filler {
      type: "constant"
      value: 0
    }
  }
}
layer {
  name: "conv9_2_relu"
  type: "ReLU"
  bottom: "conv9_2"
  top: "conv9_2"
}
layer {
  name: "conv4_3_norm"
  type: "Normalize"
  bottom: "conv4_3"
  top: "conv4_3_norm"
  norm_param {
    across_spatial: false
    scale_filler {
      type: "constant"
      value: 20
    }
    channel_shared: false
  }
}
layer {
  name: "conv4_3_norm_mbox_loc"
  type: "Convolution"
  bottom: "conv4_3_norm"
  top: "conv4_3_norm_mbox_loc"
  param {
    lr_mult: 1
    decay_mult: 1
  }
  param {
    lr_mult: 2
    decay_mult: 0
  }
  convolution_param {
    num_output: 16
    pad: 1
    kernel_size: 3
    stride: 1
    weight_filler {
      type: "xavier"
    }
    bias_filler {
      type: "constant"
      value: 0
    }
  }
}
layer {
  name: "conv4_3_norm_mbox_loc_perm"
  type: "Permute"
  bottom: "conv4_3_norm_mbox_loc"
  top: "conv4_3_norm_mbox_loc_perm"
  permute_param {
    order: 0
    order: 2
    order: 3
    order: 1
  }
}
layer {
  name: "conv4_3_norm_mbox_loc_flat"
  type: "Flatten"
  bottom: "conv4_3_norm_mbox_loc_perm"
  top: "conv4_3_norm_mbox_loc_flat"
  flatten_param {
    axis: 1
  }
}
layer {
  name: "conv4_3_norm_mbox_conf"
  type: "Convolution"
  bottom: "conv4_3_norm"
  top: "conv4_3_norm_mbox_conf"
  param {
    lr_mult: 1
    decay_mult: 1
  }
  param {
    lr_mult: 2
    decay_mult: 0
  }
  convolution_param {
    num_output: 44
    pad: 1
    kernel_size: 3
    stride: 1
    weight_filler {
      type: "xavier"
    }
    bias_filler {
      type: "constant"
      value: 0
    }
  }
}
layer {
  name: "conv4_3_norm_mbox_conf_perm"
  type: "Permute"
  bottom: "conv4_3_norm_mbox_conf"
  top: "conv4_3_norm_mbox_conf_perm"
  permute_param {
    order: 0
    order: 2
    order: 3
    order: 1
  }
}
layer {
  name: "conv4_3_norm_mbox_conf_flat"
  type: "Flatten"
  bottom: "conv4_3_norm_mbox_conf_perm"
  top: "conv4_3_norm_mbox_conf_flat"
  flatten_param {
    axis: 1
  }
}
layer {
  name: "conv4_3_norm_mbox_priorbox"
  type: "PriorBox"
  bottom: "conv4_3_norm"
  bottom: "data"
  top: "conv4_3_norm_mbox_priorbox"
  prior_box_param {
    min_size: 30
    max_size: 60
    aspect_ratio: 2
    flip: true
    clip: false
    variance: 0.1
    variance: 0.1
    variance: 0.2
    variance: 0.2
    step: 8
    offset: 0.5
  }
}
layer {
  name: "fc7_mbox_loc"
  type: "Convolution"
  bottom: "fc7"
  top: "fc7_mbox_loc"
  param {
    lr_mult: 1
    decay_mult: 1
  }
  param {
    lr_mult: 2
    decay_mult: 0
  }
  convolution_param {
    num_output: 24
    pad: 1
    kernel_size: 3
    stride: 1
    weight_filler {
      type: "xavier"
    }
    bias_filler {
      type: "constant"
      value: 0
    }
  }
}
layer {
  name: "fc7_mbox_loc_perm"
  type: "Permute"
  bottom: "fc7_mbox_loc"
  top: "fc7_mbox_loc_perm"
  permute_param {
    order: 0
    order: 2
    order: 3
    order: 1
  }
}
layer {
  name: "fc7_mbox_loc_flat"
  type: "Flatten"
  bottom: "fc7_mbox_loc_perm"
  top: "fc7_mbox_loc_flat"
  flatten_param {
    axis: 1
  }
}
layer {
  name: "fc7_mbox_conf"
  type: "Convolution"
  bottom: "fc7"
  top: "fc7_mbox_conf"
  param {
    lr_mult: 1
    decay_mult: 1
  }
  param {
    lr_mult: 2
    decay_mult: 0
  }
  convolution_param {
    num_output: 66
    pad: 1
    kernel_size: 3
    stride: 1
    weight_filler {
      type: "xavier"
    }
    bias_filler {
      type: "constant"
      value: 0
    }
  }
}
layer {
  name: "fc7_mbox_conf_perm"
  type: "Permute"
  bottom: "fc7_mbox_conf"
  top: "fc7_mbox_conf_perm"
  permute_param {
    order: 0
    order: 2
    order: 3
    order: 1
  }
}
layer {
  name: "fc7_mbox_conf_flat"
  type: "Flatten"
  bottom: "fc7_mbox_conf_perm"
  top: "fc7_mbox_conf_flat"
  flatten_param {
    axis: 1
  }
}
layer {
  name: "fc7_mbox_priorbox"
  type: "PriorBox"
  bottom: "fc7"
  bottom: "data"
  top: "fc7_mbox_priorbox"
  prior_box_param {
    min_size: 60
    max_size: 111
    aspect_ratio: 2
    aspect_ratio: 3
    flip: true
    clip: false
    variance: 0.1
    variance: 0.1
    variance: 0.2
    variance: 0.2
    step: 16
    offset: 0.5
  }
}
layer {
  name: "conv6_2_mbox_loc"
  type: "Convolution"
  bottom: "conv6_2"
  top: "conv6_2_mbox_loc"
  param {
    lr_mult: 1
    decay_mult: 1
  }
  param {
    lr_mult: 2
    decay_mult: 0
  }
  convolution_param {
    num_output: 24
    pad: 1
    kernel_size: 3
    stride: 1
    weight_filler {
      type: "xavier"
    }
    bias_filler {
      type: "constant"
      value: 0
    }
  }
}
layer {
  name: "conv6_2_mbox_loc_perm"
  type: "Permute"
  bottom: "conv6_2_mbox_loc"
  top: "conv6_2_mbox_loc_perm"
  permute_param {
    order: 0
    order: 2
    order: 3
    order: 1
  }
}
layer {
  name: "conv6_2_mbox_loc_flat"
  type: "Flatten"
  bottom: "conv6_2_mbox_loc_perm"
  top: "conv6_2_mbox_loc_flat"
  flatten_param {
    axis: 1
  }
}
layer {
  name: "conv6_2_mbox_conf"
  type: "Convolution"
  bottom: "conv6_2"
  top: "conv6_2_mbox_conf"
  param {
    lr_mult: 1
    decay_mult: 1
  }
  param {
    lr_mult: 2
    decay_mult: 0
  }
  convolution_param {
    num_output: 66
    pad: 1
    kernel_size: 3
    stride: 1
    weight_filler {
      type: "xavier"
    }
    bias_filler {
      type: "constant"
      value: 0
    }
  }
}
layer {
  name: "conv6_2_mbox_conf_perm"
  type: "Permute"
  bottom: "conv6_2_mbox_conf"
  top: "conv6_2_mbox_conf_perm"
  permute_param {
    order: 0
    order: 2
    order: 3
    order: 1
  }
}
layer {
  name: "conv6_2_mbox_conf_flat"
  type: "Flatten"
  bottom: "conv6_2_mbox_conf_perm"
  top: "conv6_2_mbox_conf_flat"
  flatten_param {
    axis: 1
  }
}
layer {
  name: "conv6_2_mbox_priorbox"
  type: "PriorBox"
  bottom: "conv6_2"
  bottom: "data"
  top: "conv6_2_mbox_priorbox"
  prior_box_param {
    min_size: 111
    max_size: 162
    aspect_ratio: 2
    aspect_ratio: 3
    flip: true
    clip: false
    variance: 0.1
    variance: 0.1
    variance: 0.2
    variance: 0.2
    step: 32
    offset: 0.5
  }
}
layer {
  name: "conv7_2_mbox_loc"
  type: "Convolution"
  bottom: "conv7_2"
  top: "conv7_2_mbox_loc"
  param {
    lr_mult: 1
    decay_mult: 1
  }
  param {
    lr_mult: 2
    decay_mult: 0
  }
  convolution_param {
    num_output: 24
    pad: 1
    kernel_size: 3
    stride: 1
    weight_filler {
      type: "xavier"
    }
    bias_filler {
      type: "constant"
      value: 0
    }
  }
}
layer {
  name: "conv7_2_mbox_loc_perm"
  type: "Permute"
  bottom: "conv7_2_mbox_loc"
  top: "conv7_2_mbox_loc_perm"
  permute_param {
    order: 0
    order: 2
    order: 3
    order: 1
  }
}
layer {
  name: "conv7_2_mbox_loc_flat"
  type: "Flatten"
  bottom: "conv7_2_mbox_loc_perm"
  top: "conv7_2_mbox_loc_flat"
  flatten_param {
    axis: 1
  }
}
layer {
  name: "conv7_2_mbox_conf"
  type: "Convolution"
  bottom: "conv7_2"
  top: "conv7_2_mbox_conf"
  param {
    lr_mult: 1
    decay_mult: 1
  }
  param {
    lr_mult: 2
    decay_mult: 0
  }
  convolution_param {
    num_output: 66
    pad: 1
    kernel_size: 3
    stride: 1
    weight_filler {
      type: "xavier"
    }
    bias_filler {
      type: "constant"
      value: 0
    }
  }
}
layer {
  name: "conv7_2_mbox_conf_perm"
  type: "Permute"
  bottom: "conv7_2_mbox_conf"
  top: "conv7_2_mbox_conf_perm"
  permute_param {
    order: 0
    order: 2
    order: 3
    order: 1
  }
}
layer {
  name: "conv7_2_mbox_conf_flat"
  type: "Flatten"
  bottom: "conv7_2_mbox_conf_perm"
  top: "conv7_2_mbox_conf_flat"
  flatten_param {
    axis: 1
  }
}
layer {
  name: "conv7_2_mbox_priorbox"
  type: "PriorBox"
  bottom: "conv7_2"
  bottom: "data"
  top: "conv7_2_mbox_priorbox"
  prior_box_param {
    min_size: 162
    max_size: 213
    aspect_ratio: 2
    aspect_ratio: 3
    flip: true
    clip: false
    variance: 0.1
    variance: 0.1
    variance: 0.2
    variance: 0.2
    step: 64
    offset: 0.5
  }
}
layer {
  name: "conv8_2_mbox_loc"
  type: "Convolution"
  bottom: "conv8_2"
  top: "conv8_2_mbox_loc"
  param {
    lr_mult: 1
    decay_mult: 1
  }
  param {
    lr_mult: 2
    decay_mult: 0
  }
  convolution_param {
    num_output: 16
    pad: 1
    kernel_size: 3
    stride: 1
    weight_filler {
      type: "xavier"
    }
    bias_filler {
      type: "constant"
      value: 0
    }
  }
}
layer {
  name: "conv8_2_mbox_loc_perm"
  type: "Permute"
  bottom: "conv8_2_mbox_loc"
  top: "conv8_2_mbox_loc_perm"
  permute_param {
    order: 0
    order: 2
    order: 3
    order: 1
  }
}
layer {
  name: "conv8_2_mbox_loc_flat"
  type: "Flatten"
  bottom: "conv8_2_mbox_loc_perm"
  top: "conv8_2_mbox_loc_flat"
  flatten_param {
    axis: 1
  }
}
layer {
  name: "conv8_2_mbox_conf"
  type: "Convolution"
  bottom: "conv8_2"
  top: "conv8_2_mbox_conf"
  param {
    lr_mult: 1
    decay_mult: 1
  }
  param {
    lr_mult: 2
    decay_mult: 0
  }
  convolution_param {
    num_output: 44
    pad: 1
    kernel_size: 3
    stride: 1
    weight_filler {
      type: "xavier"
    }
    bias_filler {
      type: "constant"
      value: 0
    }
  }
}
layer {
  name: "conv8_2_mbox_conf_perm"
  type: "Permute"
  bottom: "conv8_2_mbox_conf"
  top: "conv8_2_mbox_conf_perm"
  permute_param {
    order: 0
    order: 2
    order: 3
    order: 1
  }
}
layer {
  name: "conv8_2_mbox_conf_flat"
  type: "Flatten"
  bottom: "conv8_2_mbox_conf_perm"
  top: "conv8_2_mbox_conf_flat"
  flatten_param {
    axis: 1
  }
}
layer {
  name: "conv8_2_mbox_priorbox"
  type: "PriorBox"
  bottom: "conv8_2"
  bottom: "data"
  top: "conv8_2_mbox_priorbox"
  prior_box_param {
    min_size: 213
    max_size: 264
    aspect_ratio: 2
    flip: true
    clip: false
    variance: 0.1
    variance: 0.1
    variance: 0.2
    variance: 0.2
    step: 100
    offset: 0.5
  }
}
layer {
  name: "conv9_2_mbox_loc"
  type: "Convolution"
  bottom: "conv9_2"
  top: "conv9_2_mbox_loc"
  param {
    lr_mult: 1
    decay_mult: 1
  }
  param {
    lr_mult: 2
    decay_mult: 0
  }
  convolution_param {
    num_output: 16
    pad: 1
    kernel_size: 3
    stride: 1
    weight_filler {
      type: "xavier"
    }
    bias_filler {
      type: "constant"
      value: 0
    }
  }
}
layer {
  name: "conv9_2_mbox_loc_perm"
  type: "Permute"
  bottom: "conv9_2_mbox_loc"
  top: "conv9_2_mbox_loc_perm"
  permute_param {
    order: 0
    order: 2
    order: 3
    order: 1
  }
}
layer {
  name: "conv9_2_mbox_loc_flat"
  type: "Flatten"
  bottom: "conv9_2_mbox_loc_perm"
  top: "conv9_2_mbox_loc_flat"
  flatten_param {
    axis: 1
  }
}
layer {
  name: "conv9_2_mbox_conf"
  type: "Convolution"
  bottom: "conv9_2"
  top: "conv9_2_mbox_conf"
  param {
    lr_mult: 1
    decay_mult: 1
  }
  param {
    lr_mult: 2
    decay_mult: 0
  }
  convolution_param {
    num_output: 44
    pad: 1
    kernel_size: 3
    stride: 1
    weight_filler {
      type: "xavier"
    }
    bias_filler {
      type: "constant"
      value: 0
    }
  }
}
layer {
  name: "conv9_2_mbox_conf_perm"
  type: "Permute"
  bottom: "conv9_2_mbox_conf"
  top: "conv9_2_mbox_conf_perm"
  permute_param {
    order: 0
    order: 2
    order: 3
    order: 1
  }
}
layer {
  name: "conv9_2_mbox_conf_flat"
  type: "Flatten"
  bottom: "conv9_2_mbox_conf_perm"
  top: "conv9_2_mbox_conf_flat"
  flatten_param {
    axis: 1
  }
}
layer {
  name: "conv9_2_mbox_priorbox"
  type: "PriorBox"
  bottom: "conv9_2"
  bottom: "data"
  top: "conv9_2_mbox_priorbox"
  prior_box_param {
    min_size: 264
    max_size: 315
    aspect_ratio: 2
    flip: true
    clip: false
    variance: 0.1
    variance: 0.1
    variance: 0.2
    variance: 0.2
    step: 300
    offset: 0.5
  }
}
layer {
  name: "mbox_loc"
  type: "Concat"
  bottom: "conv4_3_norm_mbox_loc_flat"
  bottom: "fc7_mbox_loc_flat"
  bottom: "conv6_2_mbox_loc_flat"
  bottom: "conv7_2_mbox_loc_flat"
  bottom: "conv8_2_mbox_loc_flat"
  bottom: "conv9_2_mbox_loc_flat"
  top: "mbox_loc"
  concat_param {
    axis: 1
  }
}
layer {
  name: "mbox_conf"
  type: "Concat"
  bottom: "conv4_3_norm_mbox_conf_flat"
  bottom: "fc7_mbox_conf_flat"
  bottom: "conv6_2_mbox_conf_flat"
  bottom: "conv7_2_mbox_conf_flat"
  bottom: "conv8_2_mbox_conf_flat"
  bottom: "conv9_2_mbox_conf_flat"
  top: "mbox_conf"
  concat_param {
    axis: 1
  }
}
layer {
  name: "mbox_priorbox"
  type: "Concat"
  bottom: "conv4_3_norm_mbox_priorbox"
  bottom: "fc7_mbox_priorbox"
  bottom: "conv6_2_mbox_priorbox"
  bottom: "conv7_2_mbox_priorbox"
  bottom: "conv8_2_mbox_priorbox"
  bottom: "conv9_2_mbox_priorbox"
  top: "mbox_priorbox"
  concat_param {
    axis: 2
  }
}
layer {
  name: "mbox_loss"
  type: "MultiBoxLoss"
  bottom: "mbox_loc"
  bottom: "mbox_conf"
  bottom: "mbox_priorbox"
  bottom: "label"
  top: "mbox_loss"
  include {
    phase: TRAIN
  }
  propagate_down: true
  propagate_down: true
  propagate_down: false
  propagate_down: false
  loss_param {
    normalization: V
I0324 23:59:12.852538 20044 layer_factory.hpp:77] Creating layer data
I0324 23:59:12.853199 20044 net.cpp:100] Creating Layer data
I0324 23:59:12.853332 20044 net.cpp:408] data -> data
I0324 23:59:12.853458 20044 net.cpp:408] data -> label
I0324 23:59:12.855202 20059 db_lmdb.cpp:35] Opened lmdb examples/NWPU_VHR/NWPU_VHR_trainval_lmdb
I0324 23:59:12.878881 20044 annotated_data_layer.cpp:62] output data size: 32,3,300,300
I0324 23:59:12.932539 20044 net.cpp:150] Setting up data
I0324 23:59:12.932584 20044 net.cpp:157] Top shape: 32 3 300 300 (8640000)
I0324 23:59:12.932890 20044 net.cpp:157] Top shape: 1 1 4 8 (32)
I0324 23:59:12.932904 20044 net.cpp:165] Memory required for data: 34560128
I0324 23:59:12.933075 20044 layer_factory.hpp:77] Creating layer data_data_0_split
I0324 23:59:12.933187 20044 net.cpp:100] Creating Layer data_data_0_split
I0324 23:59:12.933205 20044 net.cpp:434] data_data_0_split <- data
I0324 23:59:12.933377 20044 net.cpp:408] data_data_0_split -> data_data_0_split_0
I0324 23:59:12.933475 20044 net.cpp:408] data_data_0_split -> data_data_0_split_1
I0324 23:59:12.933565 20044 net.cpp:408] data_data_0_split -> data_data_0_split_2
I0324 23:59:12.933661 20044 net.cpp:408] data_data_0_split -> data_data_0_split_3
I0324 23:59:12.933769 20044 net.cpp:408] data_data_0_split -> data_data_0_split_4
I0324 23:59:12.933864 20044 net.cpp:408] data_data_0_split -> data_data_0_split_5
I0324 23:59:12.933954 20044 net.cpp:408] data_data_0_split -> data_data_0_split_6
I0324 23:59:12.934187 20044 net.cpp:150] Setting up data_data_0_split
I0324 23:59:12.934280 20044 net.cpp:157] Top shape: 32 3 300 300 (8640000)
I0324 23:59:12.934296 20044 net.cpp:157] Top shape: 32 3 300 300 (8640000)
I0324 23:59:12.934556 20044 net.cpp:157] Top shape: 32 3 300 300 (8640000)
I0324 23:59:12.934590 20044 net.cpp:157] Top shape: 32 3 300 300 (8640000)
I0324 23:59:12.934782 20044 net.cpp:157] Top shape: 32 3 300 300 (8640000)
I0324 23:59:12.934799 20044 net.cpp:157] Top shape: 32 3 300 300 (8640000)
I0324 23:59:12.934962 20044 net.cpp:157] Top shape: 32 3 300 300 (8640000)
I0324 23:59:12.934978 20044 net.cpp:165] Memory required for data: 276480128
I0324 23:59:12.935163 20044 layer_factory.hpp:77] Creating layer conv1_1
I0324 23:59:12.935319 20044 net.cpp:100] Creating Layer conv1_1
I0324 23:59:12.935335 20044 net.cpp:434] conv1_1 <- data_data_0_split_0
I0324 23:59:12.935534 20044 net.cpp:408] conv1_1 -> conv1_1
I0324 23:59:13.682334 20044 net.cpp:150] Setting up conv1_1
I0324 23:59:13.682395 20044 net.cpp:157] Top shape: 32 64 300 300 (184320000)
I0324 23:59:13.682406 20044 net.cpp:165] Memory required for data: 1013760128
I0324 23:59:13.682440 20044 layer_factory.hpp:77] Creating layer relu1_1
I0324 23:59:13.682458 20044 net.cpp:100] Creating Layer relu1_1
I0324 23:59:13.682466 20044 net.cpp:434] relu1_1 <- conv1_1
I0324 23:59:13.682476 20044 net.cpp:395] relu1_1 -> conv1_1 (in-place)
I0324 23:59:13.683511 20044 net.cpp:150] Setting up relu1_1
I0324 23:59:13.683570 20044 net.cpp:157] Top shape: 32 64 300 300 (184320000)
I0324 23:59:13.683681 20044 net.cpp:165] Memory required for data: 1751040128
I0324 23:59:13.683780 20044 layer_factory.hpp:77] Creating layer conv1_2
I0324 23:59:13.683862 20044 net.cpp:100] Creating Layer conv1_2
I0324 23:59:13.683889 20044 net.cpp:434] conv1_2 <- conv1_1
I0324 23:59:13.683917 20044 net.cpp:408] conv1_2 -> conv1_2
I0324 23:59:13.687469 20044 net.cpp:150] Setting up conv1_2
I0324 23:59:13.687548 20044 net.cpp:157] Top shape: 32 64 300 300 (184320000)
I0324 23:59:13.687573 20044 net.cpp:165] Memory required for data: 2488320128
I0324 23:59:13.687614 20044 layer_factory.hpp:77] Creating layer relu1_2
I0324 23:59:13.687649 20044 net.cpp:100] Creating Layer relu1_2
I0324 23:59:13.687674 20044 net.cpp:434] relu1_2 <- conv1_2
I0324 23:59:13.687721 20044 net.cpp:395] relu1_2 -> conv1_2 (in-place)
I0324 23:59:13.687985 20044 net.cpp:150] Setting up relu1_2
I0324 23:59:13.688019 20044 net.cpp:157] Top shape: 32 64 300 300 (184320000)
I0324 23:59:13.688040 20044 net.cpp:165] Memory required for data: 3225600128
I0324 23:59:13.688071 20044 layer_factory.hpp:77] Creating layer pool1
I0324 23:59:13.688097 20044 net.cpp:100] Creating Layer pool1
I0324 23:59:13.688118 20044 net.cpp:434] pool1 <- conv1_2
I0324 23:59:13.688143 20044 net.cpp:408] pool1 -> pool1
I0324 23:59:13.688236 20044 net.cpp:150] Setting up pool1
I0324 23:59:13.688263 20044 net.cpp:157] Top shape: 32 64 150 150 (46080000)
I0324 23:59:13.688283 20044 net.cpp:165] Memory required for data: 3409920128
I0324 23:59:13.688304 20044 layer_factory.hpp:77] Creating layer conv2_1
I0324 23:59:13.688338 20044 net.cpp:100] Creating Layer conv2_1
I0324 23:59:13.688364 20044 net.cpp:434] conv2_1 <- pool1
I0324 23:59:13.688387 20044 net.cpp:408] conv2_1 -> conv2_1
I0324 23:59:13.692973 20044 net.cpp:150] Setting up conv2_1
I0324 23:59:13.693025 20044 net.cpp:157] Top shape: 32 128 150 150 (92160000)
I0324 23:59:13.693032 20044 net.cpp:165] Memory required for data: 3778560128
I0324 23:59:13.693055 20044 layer_factory.hpp:77] Creating layer relu2_1
I0324 23:59:13.693076 20044 net.cpp:100] Creating Layer relu2_1
I0324 23:59:13.693084 20044 net.cpp:434] relu2_1 <- conv2_1
I0324 23:59:13.693094 20044 net.cpp:395] relu2_1 -> conv2_1 (in-place)
I0324 23:59:13.693351 20044 net.cpp:150] Setting up relu2_1
I0324 23:59:13.693368 20044 net.cpp:157] Top shape: 32 128 150 150 (92160000)
I0324 23:59:13.693374 20044 net.cpp:165] Memory required for data: 4147200128
I0324 23:59:13.693380 20044 layer_factory.hpp:77] Creating layer conv2_2
I0324 23:59:13.693397 20044 net.cpp:100] Creating Layer conv2_2
I0324 23:59:13.693404 20044 net.cpp:434] conv2_2 <- conv2_1
I0324 23:59:13.693413 20044 net.cpp:408] conv2_2 -> conv2_2
I0324 23:59:13.697538 20044 net.cpp:150] Setting up conv2_2
I0324 23:59:13.697582 20044 net.cpp:157] Top shape: 32 128 150 150 (92160000)
I0324 23:59:13.697623 20044 net.cpp:165] Memory required for data: 4515840128
I0324 23:59:13.697641 20044 layer_factory.hpp:77] Creating layer relu2_2
I0324 23:59:13.697655 20044 net.cpp:100] Creating Layer relu2_2
I0324 23:59:13.697662 20044 net.cpp:434] relu2_2 <- conv2_2
I0324 23:59:13.697674 20044 net.cpp:395] relu2_2 -> conv2_2 (in-place)
I0324 23:59:13.698721 20044 net.cpp:150] Setting up relu2_2
I0324 23:59:13.698760 20044 net.cpp:157] Top shape: 32 128 150 150 (92160000)
I0324 23:59:13.698766 20044 net.cpp:165] Memory required for data: 4884480128
I0324 23:59:13.698774 20044 layer_factory.hpp:77] Creating layer pool2
I0324 23:59:13.698788 20044 net.cpp:100] Creating Layer pool2
I0324 23:59:13.698796 20044 net.cpp:434] pool2 <- conv2_2
I0324 23:59:13.698806 20044 net.cpp:408] pool2 -> pool2
I0324 23:59:13.698882 20044 net.cpp:150] Setting up pool2
I0324 23:59:13.698894 20044 net.cpp:157] Top shape: 32 128 75 75 (23040000)
I0324 23:59:13.698899 20044 net.cpp:165] Memory required for data: 4976640128
I0324 23:59:13.698904 20044 layer_factory.hpp:77] Creating layer conv3_1
I0324 23:59:13.698917 20044 net.cpp:100] Creating Layer conv3_1
I0324 23:59:13.698922 20044 net.cpp:434] conv3_1 <- pool2
I0324 23:59:13.698927 20044 net.cpp:408] conv3_1 -> conv3_1
I0324 23:59:13.709969 20044 net.cpp:150] Setting up conv3_1
I0324 23:59:13.710007 20044 net.cpp:157] Top shape: 32 256 75 75 (46080000)
I0324 23:59:13.710085 20044 net.cpp:165] Memory required for data: 5160960128
I0324 23:59:13.710111 20044 layer_factory.hpp:77] Creating layer relu3_1
I0324 23:59:13.710147 20044 net.cpp:100] Creating Layer relu3_1
I0324 23:59:13.710173 20044 net.cpp:434] relu3_1 <- conv3_1
I0324 23:59:13.710198 20044 net.cpp:395] relu3_1 -> conv3_1 (in-place)
I0324 23:59:13.710497 20044 net.cpp:150] Setting up relu3_1
I0324 23:59:13.710515 20044 net.cpp:157] Top shape: 32 256 75 75 (46080000)
I0324 23:59:13.710525 20044 net.cpp:165] Memory required for data: 5345280128
I0324 23:59:13.710532 20044 layer_factory.hpp:77] Creating layer conv3_2
I0324 23:59:13.710551 20044 net.cpp:100] Creating Layer conv3_2
I0324 23:59:13.710577 20044 net.cpp:434] conv3_2 <- conv3_1
I0324 23:59:13.710604 20044 net.cpp:408] conv3_2 -> conv3_2
I0324 23:59:13.719254 20044 net.cpp:150] Setting up conv3_2
I0324 23:59:13.719291 20044 net.cpp:157] Top shape: 32 256 75 75 (46080000)
I0324 23:59:13.719298 20044 net.cpp:165] Memory required for data: 5529600128
I0324 23:59:13.719318 20044 layer_factory.hpp:77] Creating layer relu3_2
I0324 23:59:13.719334 20044 net.cpp:100] Creating Layer relu3_2
I0324 23:59:13.719344 20044 net.cpp:434] relu3_2 <- conv3_2
I0324 23:59:13.719355 20044 net.cpp:395] relu3_2 -> conv3_2 (in-place)
I0324 23:59:13.719595 20044 net.cpp:150] Setting up relu3_2
I0324 23:59:13.719612 20044 net.cpp:157] Top shape: 32 256 75 75 (46080000)
I0324 23:59:13.719619 20044 net.cpp:165] Memory required for data: 5713920128
I0324 23:59:13.719625 20044 layer_factory.hpp:77] Creating layer conv3_3
I0324 23:59:13.719648 20044 net.cpp:100] Creating Layer conv3_3
I0324 23:59:13.719681 20044 net.cpp:434] conv3_3 <- conv3_2
I0324 23:59:13.719712 20044 net.cpp:408] conv3_3 -> conv3_3
I0324 23:59:13.727481 20044 net.cpp:150] Setting up conv3_3
I0324 23:59:13.727555 20044 net.cpp:157] Top shape: 32 256 75 75 (46080000)
I0324 23:59:13.727573 20044 net.cpp:165] Memory required for data: 5898240128
I0324 23:59:13.727596 20044 layer_factory.hpp:77] Creating layer relu3_3
I0324 23:59:13.727613 20044 net.cpp:100] Creating Layer relu3_3
I0324 23:59:13.727622 20044 net.cpp:434] relu3_3 <- conv3_3
I0324 23:59:13.727632 20044 net.cpp:395] relu3_3 -> conv3_3 (in-place)
I0324 23:59:13.728619 20044 net.cpp:150] Setting up relu3_3
I0324 23:59:13.728670 20044 net.cpp:157] Top shape: 32 256 75 75 (46080000)
I0324 23:59:13.728694 20044 net.cpp:165] Memory required for data: 6082560128
I0324 23:59:13.728714 20044 layer_factory.hpp:77] Creating layer pool3
I0324 23:59:13.728755 20044 net.cpp:100] Creating Layer pool3
I0324 23:59:13.728796 20044 net.cpp:434] pool3 <- conv3_3
I0324 23:59:13.728842 20044 net.cpp:408] pool3 -> pool3
I0324 23:59:13.728955 20044 net.cpp:150] Setting up pool3
I0324 23:59:13.728991 20044 net.cpp:157] Top shape: 32 256 38 38 (11829248)
I0324 23:59:13.729022 20044 net.cpp:165] Memory required for data: 6129877120
I0324 23:59:13.729053 20044 layer_factory.hpp:77] Creating layer conv4_1_depthwise
I0324 23:59:13.729091 20044 net.cpp:100] Creating Layer conv4_1_depthwise
I0324 23:59:13.729120 20044 net.cpp:434] conv4_1_depthwise <- pool3
I0324 23:59:13.729158 20044 net.cpp:408] conv4_1_depthwise -> conv4_1_3x3
I0324 23:59:13.729517 20044 net.cpp:150] Setting up conv4_1_depthwise
I0324 23:59:13.729640 20044 net.cpp:157] Top shape: 32 256 38 38 (11829248)
I0324 23:59:13.729760 20044 net.cpp:165] Memory required for data: 6177194112
I0324 23:59:13.729873 20044 layer_factory.hpp:77] Creating layer conv4_1_3x3_relu
I0324 23:59:13.729974 20044 net.cpp:100] Creating Layer conv4_1_3x3_relu
I0324 23:59:13.730072 20044 net.cpp:434] conv4_1_3x3_relu <- conv4_1_3x3
I0324 23:59:13.730212 20044 net.cpp:395] conv4_1_3x3_relu -> conv4_1_3x3 (in-place)
I0324 23:59:13.730585 20044 net.cpp:150] Setting up conv4_1_3x3_relu
I0324 23:59:13.730686 20044 net.cpp:157] Top shape: 32 256 38 38 (11829248)
I0324 23:59:13.730778 20044 net.cpp:165] Memory required for data: 6224511104
I0324 23:59:13.730877 20044 layer_factory.hpp:77] Creating layer conv4_1_1x1
I0324 23:59:13.730993 20044 net.cpp:100] Creating Layer conv4_1_1x1
I0324 23:59:13.731089 20044 net.cpp:434] conv4_1_1x1 <- conv4_1_3x3
I0324 23:59:13.731686 20044 net.cpp:408] conv4_1_1x1 -> conv4_1
I0324 23:59:13.737131 20044 net.cpp:150] Setting up conv4_1_1x1
I0324 23:59:13.737406 20044 net.cpp:157] Top shape: 32 512 38 38 (23658496)
I0324 23:59:13.737517 20044 net.cpp:165] Memory required for data: 6319145088
I0324 23:59:13.737632 20044 layer_factory.hpp:77] Creating layer relu4_1
I0324 23:59:13.737777 20044 net.cpp:100] Creating Layer relu4_1
I0324 23:59:13.737877 20044 net.cpp:434] relu4_1 <- conv4_1
I0324 23:59:13.737979 20044 net.cpp:395] relu4_1 -> conv4_1 (in-place)
I0324 23:59:13.738350 20044 net.cpp:150] Setting up relu4_1
I0324 23:59:13.738499 20044 net.cpp:157] Top shape: 32 512 38 38 (23658496)
I0324 23:59:13.738509 20044 net.cpp:165] Memory required for data: 6413779072
I0324 23:59:13.738517 20044 layer_factory.hpp:77] Creating layer conv4_2_depthwise
I0324 23:59:13.738636 20044 net.cpp:100] Creating Layer conv4_2_depthwise
I0324 23:59:13.738667 20044 net.cpp:434] conv4_2_depthwise <- conv4_1
I0324 23:59:13.738698 20044 net.cpp:408] conv4_2_depthwise -> conv4_2_3x3
I0324 23:59:13.739030 20044 net.cpp:150] Setting up conv4_2_depthwise
I0324 23:59:13.739044 20044 net.cpp:157] Top shape: 32 512 38 38 (23658496)
I0324 23:59:13.739148 20044 net.cpp:165] Memory required for data: 6508413056
I0324 23:59:13.739183 20044 layer_factory.hpp:77] Creating layer conv4_2_3x3_relu
I0324 23:59:13.739214 20044 net.cpp:100] Creating Layer conv4_2_3x3_relu
I0324 23:59:13.739249 20044 net.cpp:434] conv4_2_3x3_relu <- conv4_2_3x3
I0324 23:59:13.739317 20044 net.cpp:395] conv4_2_3x3_relu -> conv4_2_3x3 (in-place)
I0324 23:59:13.739526 20044 net.cpp:150] Setting up conv4_2_3x3_relu
I0324 23:59:13.739540 20044 net.cpp:157] Top shape: 32 512 38 38 (23658496)
I0324 23:59:13.739547 20044 net.cpp:165] Memory required for data: 6603047040
I0324 23:59:13.739553 20044 layer_factory.hpp:77] Creating layer conv4_2_1x1
I0324 23:59:13.739567 20044 net.cpp:100] Creating Layer conv4_2_1x1
I0324 23:59:13.739574 20044 net.cpp:434] conv4_2_1x1 <- conv4_2_3x3
I0324 23:59:13.739583 20044 net.cpp:408] conv4_2_1x1 -> conv4_2
I0324 23:59:13.743705 20044 net.cpp:150] Setting up conv4_2_1x1
I0324 23:59:13.744010 20044 net.cpp:157] Top shape: 32 512 38 38 (23658496)
I0324 23:59:13.744110 20044 net.cpp:165] Memory required for data: 6697681024
I0324 23:59:13.744225 20044 layer_factory.hpp:77] Creating layer relu4_2
I0324 23:59:13.744331 20044 net.cpp:100] Creating Layer relu4_2
I0324 23:59:13.744426 20044 net.cpp:434] relu4_2 <- conv4_2
I0324 23:59:13.744541 20044 net.cpp:395] relu4_2 -> conv4_2 (in-place)
I0324 23:59:13.745689 20044 net.cpp:150] Setting up relu4_2
I0324 23:59:13.745927 20044 net.cpp:157] Top shape: 32 512 38 38 (23658496)
I0324 23:59:13.746026 20044 net.cpp:165] Memory required for data: 6792315008
I0324 23:59:13.746136 20044 layer_factory.hpp:77] Creating layer conv4_3
I0324 23:59:13.746253 20044 net.cpp:100] Creating Layer conv4_3
I0324 23:59:13.746351 20044 net.cpp:434] conv4_3 <- conv4_2
I0324 23:59:13.746453 20044 net.cpp:408] conv4_3 -> conv4_3
I0324 23:59:13.772377 20044 net.cpp:150] Setting up conv4_3
I0324 23:59:13.772648 20044 net.cpp:157] Top shape: 32 512 38 38 (23658496)
I0324 23:59:13.772711 20044 net.cpp:165] Memory required for data: 6886948992
I0324 23:59:13.772791 20044 layer_factory.hpp:77] Creating layer relu4_3
I0324 23:59:13.772868 20044 net.cpp:100] Creating Layer relu4_3
I0324 23:59:13.772935 20044 net.cpp:434] relu4_3 <- conv4_3
I0324 23:59:13.773005 20044 net.cpp:395] relu4_3 -> conv4_3 (in-place)
I0324 23:59:13.773327 20044 net.cpp:150] Setting up relu4_3
I0324 23:59:13.773483 20044 net.cpp:157] Top shape: 32 512 38 38 (23658496)
I0324 23:59:13.773584 20044 net.cpp:165] Memory required for data: 6981582976
I0324 23:59:13.773684 20044 layer_factory.hpp:77] Creating layer conv4_3_relu4_3_0_split
I0324 23:59:13.773821 20044 net.cpp:100] Creating Layer conv4_3_relu4_3_0_split
I0324 23:59:13.773924 20044 net.cpp:434] conv4_3_relu4_3_0_split <- conv4_3
I0324 23:59:13.774039 20044 net.cpp:408] conv4_3_relu4_3_0_split -> conv4_3_relu4_3_0_split_0
I0324 23:59:13.774157 20044 net.cpp:408] conv4_3_relu4_3_0_split -> conv4_3_relu4_3_0_split_1
I0324 23:59:13.774344 20044 net.cpp:150] Setting up conv4_3_relu4_3_0_split
I0324 23:59:13.774451 20044 net.cpp:157] Top shape: 32 512 38 38 (23658496)
I0324 23:59:13.774554 20044 net.cpp:157] Top shape: 32 512 38 38 (23658496)
I0324 23:59:13.774653 20044 net.cpp:165] Memory required for data: 7170850944
I0324 23:59:13.774755 20044 layer_factory.hpp:77] Creating layer pool4
I0324 23:59:13.774860 20044 net.cpp:100] Creating Layer pool4
I0324 23:59:13.774962 20044 net.cpp:434] pool4 <- conv4_3_relu4_3_0_split_0
I0324 23:59:13.775069 20044 net.cpp:408] pool4 -> pool4
I0324 23:59:13.775269 20044 net.cpp:150] Setting up pool4
I0324 23:59:13.775372 20044 net.cpp:157] Top shape: 32 512 19 19 (5914624)
I0324 23:59:13.775473 20044 net.cpp:165] Memory required for data: 7194509440
I0324 23:59:13.775575 20044 layer_factory.hpp:77] Creating layer conv5_1_depthwise
I0324 23:59:13.775686 20044 net.cpp:100] Creating Layer conv5_1_depthwise
I0324 23:59:13.775782 20044 net.cpp:434] conv5_1_depthwise <- pool4
I0324 23:59:13.775889 20044 net.cpp:408] conv5_1_depthwise -> conv5_1_3x3
I0324 23:59:13.776345 20044 net.cpp:150] Setting up conv5_1_depthwise
I0324 23:59:13.776501 20044 net.cpp:157] Top shape: 32 512 19 19 (5914624)
I0324 23:59:13.776599 20044 net.cpp:165] Memory required for data: 7218167936
I0324 23:59:13.776715 20044 layer_factory.hpp:77] Creating layer conv5_1_3x3_relu
I0324 23:59:13.776827 20044 net.cpp:100] Creating Layer conv5_1_3x3_relu
I0324 23:59:13.776929 20044 net.cpp:434] conv5_1_3x3_relu <- conv5_1_3x3
I0324 23:59:13.777029 20044 net.cpp:395] conv5_1_3x3_relu -> conv5_1_3x3 (in-place)
I0324 23:59:13.777765 20044 net.cpp:150] Setting up conv5_1_3x3_relu
I0324 23:59:13.777928 20044 net.cpp:157] Top shape: 32 512 19 19 (5914624)
I0324 23:59:13.778023 20044 net.cpp:165] Memory required for data: 7241826432
I0324 23:59:13.778129 20044 layer_factory.hpp:77] Creating layer conv5_1_1x1
I0324 23:59:13.778245 20044 net.cpp:100] Creating Layer conv5_1_1x1
I0324 23:59:13.778342 20044 net.cpp:434] conv5_1_1x1 <- conv5_1_3x3
I0324 23:59:13.778446 20044 net.cpp:408] conv5_1_1x1 -> conv5_1
I0324 23:59:13.783689 20044 net.cpp:150] Setting up conv5_1_1x1
I0324 23:59:13.783952 20044 net.cpp:157] Top shape: 32 512 19 19 (5914624)
I0324 23:59:13.784054 20044 net.cpp:165] Memory required for data: 7265484928
I0324 23:59:13.784166 20044 layer_factory.hpp:77] Creating layer relu5_1
I0324 23:59:13.784243 20044 net.cpp:100] Creating Layer relu5_1
I0324 23:59:13.784353 20044 net.cpp:434] relu5_1 <- conv5_1
I0324 23:59:13.784456 20044 net.cpp:395] relu5_1 -> conv5_1 (in-place)
I0324 23:59:13.785607 20044 net.cpp:150] Setting up relu5_1
I0324 23:59:13.785841 20044 net.cpp:157] Top shape: 32 512 19 19 (5914624)
I0324 23:59:13.785940 20044 net.cpp:165] Memory required for data: 7289143424
I0324 23:59:13.786044 20044 layer_factory.hpp:77] Creating layer conv5_2_depthwise
I0324 23:59:13.786098 20044 net.cpp:100] Creating Layer conv5_2_depthwise
I0324 23:59:13.786195 20044 net.cpp:434] conv5_2_depthwise <- conv5_1
I0324 23:59:13.786300 20044 net.cpp:408] conv5_2_depthwise -> conv5_2_3x3
I0324 23:59:13.786778 20044 net.cpp:150] Setting up conv5_2_depthwise
I0324 23:59:13.786936 20044 net.cpp:157] Top shape: 32 512 19 19 (5914624)
I0324 23:59:13.787034 20044 net.cpp:165] Memory required for data: 7312801920
I0324 23:59:13.787153 20044 layer_factory.hpp:77] Creating layer conv5_2_3x3_relu
I0324 23:59:13.787252 20044 net.cpp:100] Creating Layer conv5_2_3x3_relu
I0324 23:59:13.787351 20044 net.cpp:434] conv5_2_3x3_relu <- conv5_2_3x3
I0324 23:59:13.787451 20044 net.cpp:395] conv5_2_3x3_relu -> conv5_2_3x3 (in-place)
I0324 23:59:13.787832 20044 net.cpp:150] Setting up conv5_2_3x3_relu
I0324 23:59:13.787986 20044 net.cpp:157] Top shape: 32 512 19 19 (5914624)
I0324 23:59:13.788089 20044 net.cpp:165] Memory required for data: 7336460416
I0324 23:59:13.788188 20044 layer_factory.hpp:77] Creating layer conv5_2_1x1
I0324 23:59:13.788293 20044 net.cpp:100] Creating Layer conv5_2_1x1
I0324 23:59:13.788380 20044 net.cpp:434] conv5_2_1x1 <- conv5_2_3x3
I0324 23:59:13.788398 20044 net.cpp:408] conv5_2_1x1 -> conv5_2
I0324 23:59:13.794315 20044 net.cpp:150] Setting up conv5_2_1x1
I0324 23:59:13.794450 20044 net.cpp:157] Top shape: 32 512 19 19 (5914624)
I0324 23:59:13.794505 20044 net.cpp:165] Memory required for data: 7360118912
I0324 23:59:13.794554 20044 layer_factory.hpp:77] Creating layer relu5_2
I0324 23:59:13.794572 20044 net.cpp:100] Creating Layer relu5_2
I0324 23:59:13.794610 20044 net.cpp:434] relu5_2 <- conv5_2
I0324 23:59:13.794654 20044 net.cpp:395] relu5_2 -> conv5_2 (in-place)
I0324 23:59:13.794862 20044 net.cpp:150] Setting up relu5_2
I0324 23:59:13.794922 20044 net.cpp:157] Top shape: 32 512 19 19 (5914624)
I0324 23:59:13.794978 20044 net.cpp:165] Memory required for data: 7383777408
I0324 23:59:13.794988 20044 layer_factory.hpp:77] Creating layer conv5_3_depthwise
I0324 23:59:13.795051 20044 net.cpp:100] Creating Layer conv5_3_depthwise
I0324 23:59:13.795063 20044 net.cpp:434] conv5_3_depthwise <- conv5_2
I0324 23:59:13.795105 20044 net.cpp:408] conv5_3_depthwise -> conv5_3_3x3
I0324 23:59:13.795426 20044 net.cpp:150] Setting up conv5_3_depthwise
I0324 23:59:13.795440 20044 net.cpp:157] Top shape: 32 512 19 19 (5914624)
I0324 23:59:13.795447 20044 net.cpp:165] Memory required for data: 7407435904
I0324 23:59:13.795529 20044 layer_factory.hpp:77] Creating layer conv5_3_3x3_relu
I0324 23:59:13.795542 20044 net.cpp:100] Creating Layer conv5_3_3x3_relu
I0324 23:59:13.795549 20044 net.cpp:434] conv5_3_3x3_relu <- conv5_3_3x3
I0324 23:59:13.795598 20044 net.cpp:395] conv5_3_3x3_relu -> conv5_3_3x3 (in-place)
I0324 23:59:13.796536 20044 net.cpp:150] Setting up conv5_3_3x3_relu
I0324 23:59:13.796607 20044 net.cpp:157] Top shape: 32 512 19 19 (5914624)
I0324 23:59:13.796663 20044 net.cpp:165] Memory required for data: 7431094400
I0324 23:59:13.796676 20044 layer_factory.hpp:77] Creating layer conv5_3_1x1
I0324 23:59:13.796726 20044 net.cpp:100] Creating Layer conv5_3_1x1
I0324 23:59:13.796737 20044 net.cpp:434] conv5_3_1x1 <- conv5_3_3x3
I0324 23:59:13.796788 20044 net.cpp:408] conv5_3_1x1 -> conv5_3
I0324 23:59:13.801100 20044 net.cpp:150] Setting up conv5_3_1x1
I0324 23:59:13.801255 20044 net.cpp:157] Top shape: 32 512 19 19 (5914624)
I0324 23:59:13.801314 20044 net.cpp:165] Memory required for data: 7454752896
I0324 23:59:13.801384 20044 layer_factory.hpp:77] Creating layer relu5_3
I0324 23:59:13.801450 20044 net.cpp:100] Creating Layer relu5_3
I0324 23:59:13.801525 20044 net.cpp:434] relu5_3 <- conv5_3
I0324 23:59:13.801602 20044 net.cpp:395] relu5_3 -> conv5_3 (in-place)
I0324 23:59:13.802002 20044 net.cpp:150] Setting up relu5_3
I0324 23:59:13.802073 20044 net.cpp:157] Top shape: 32 512 19 19 (5914624)
I0324 23:59:13.802134 20044 net.cpp:165] Memory required for data: 7478411392
I0324 23:59:13.802196 20044 layer_factory.hpp:77] Creating layer pool5
I0324 23:59:13.802263 20044 net.cpp:100] Creating Layer pool5
I0324 23:59:13.802325 20044 net.cpp:434] pool5 <- conv5_3
I0324 23:59:13.802389 20044 net.cpp:408] pool5 -> pool5
I0324 23:59:13.802547 20044 net.cpp:150] Setting up pool5
I0324 23:59:13.802609 20044 net.cpp:157] Top shape: 32 512 19 19 (5914624)
I0324 23:59:13.802670 20044 net.cpp:165] Memory required for data: 7502069888
I0324 23:59:13.802732 20044 layer_factory.hpp:77] Creating layer fc6_depthwise
I0324 23:59:13.802803 20044 net.cpp:100] Creating Layer fc6_depthwise
I0324 23:59:13.802865 20044 net.cpp:434] fc6_depthwise <- pool5
I0324 23:59:13.802929 20044 net.cpp:408] fc6_depthwise -> fc6_3x3
I0324 23:59:13.803352 20044 net.cpp:150] Setting up fc6_depthwise
I0324 23:59:13.803416 20044 net.cpp:157] Top shape: 32 512 19 19 (5914624)
I0324 23:59:13.803443 20044 net.cpp:165] Memory required for data: 7525728384
I0324 23:59:13.803472 20044 layer_factory.hpp:77] Creating layer fc6_3x3_relu
I0324 23:59:13.803504 20044 net.cpp:100] Creating Layer fc6_3x3_relu
I0324 23:59:13.803529 20044 net.cpp:434] fc6_3x3_relu <- fc6_3x3
I0324 23:59:13.803551 20044 net.cpp:395] fc6_3x3_relu -> fc6_3x3 (in-place)
I0324 23:59:13.803836 20044 net.cpp:150] Setting up fc6_3x3_relu
I0324 23:59:13.803853 20044 net.cpp:157] Top shape: 32 512 19 19 (5914624)
I0324 23:59:13.803859 20044 net.cpp:165] Memory required for data: 7549386880
I0324 23:59:13.803865 20044 layer_factory.hpp:77] Creating layer fc6_1x1
I0324 23:59:13.803885 20044 net.cpp:100] Creating Layer fc6_1x1
I0324 23:59:13.803892 20044 net.cpp:434] fc6_1x1 <- fc6_3x3
I0324 23:59:13.803901 20044 net.cpp:408] fc6_1x1 -> fc6
I0324 23:59:13.809588 20044 net.cpp:150] Setting up fc6_1x1
I0324 23:59:13.809829 20044 net.cpp:157] Top shape: 32 1024 19 19 (11829248)
I0324 23:59:13.809873 20044 net.cpp:165] Memory required for data: 7596703872
I0324 23:59:13.809927 20044 layer_factory.hpp:77] Creating layer relu6
I0324 23:59:13.809957 20044 net.cpp:100] Creating Layer relu6
I0324 23:59:13.809979 20044 net.cpp:434] relu6 <- fc6
I0324 23:59:13.810003 20044 net.cpp:395] relu6 -> fc6 (in-place)
I0324 23:59:13.811199 20044 net.cpp:150] Setting up relu6
I0324 23:59:13.811251 20044 net.cpp:157] Top shape: 32 1024 19 19 (11829248)
I0324 23:59:13.811273 20044 net.cpp:165] Memory required for data: 7644020864
I0324 23:59:13.811303 20044 layer_factory.hpp:77] Creating layer fc7
I0324 23:59:13.811336 20044 net.cpp:100] Creating Layer fc7
I0324 23:59:13.811362 20044 net.cpp:434] fc7 <- fc6
I0324 23:59:13.811388 20044 net.cpp:408] fc7 -> fc7
I0324 23:59:13.824092 20044 net.cpp:150] Setting up fc7
I0324 23:59:13.824177 20044 net.cpp:157] Top shape: 32 1024 19 19 (11829248)
I0324 23:59:13.824200 20044 net.cpp:165] Memory required for data: 7691337856
I0324 23:59:13.824239 20044 layer_factory.hpp:77] Creating layer relu7
I0324 23:59:13.824270 20044 net.cpp:100] Creating Layer relu7
I0324 23:59:13.824290 20044 net.cpp:434] relu7 <- fc7
I0324 23:59:13.824312 20044 net.cpp:395] relu7 -> fc7 (in-place)
I0324 23:59:13.825302 20044 net.cpp:150] Setting up relu7
I0324 23:59:13.825346 20044 net.cpp:157] Top shape: 32 1024 19 19 (11829248)
I0324 23:59:13.825364 20044 net.cpp:165] Memory required for data: 7738654848
I0324 23:59:13.825390 20044 layer_factory.hpp:77] Creating layer fc7_relu7_0_split
I0324 23:59:13.825423 20044 net.cpp:100] Creating Layer fc7_relu7_0_split
I0324 23:59:13.825444 20044 net.cpp:434] fc7_relu7_0_split <- fc7
I0324 23:59:13.825471 20044 net.cpp:408] fc7_relu7_0_split -> fc7_relu7_0_split_0
I0324 23:59:13.825502 20044 net.cpp:408] fc7_relu7_0_split -> fc7_relu7_0_split_1
I0324 23:59:13.825537 20044 net.cpp:408] fc7_relu7_0_split -> fc7_relu7_0_split_2
I0324 23:59:13.825575 20044 net.cpp:408] fc7_relu7_0_split -> fc7_relu7_0_split_3
I0324 23:59:13.825724 20044 net.cpp:150] Setting up fc7_relu7_0_split
I0324 23:59:13.825774 20044 net.cpp:157] Top shape: 32 1024 19 19 (11829248)
I0324 23:59:13.825795 20044 net.cpp:157] Top shape: 32 1024 19 19 (11829248)
I0324 23:59:13.825814 20044 net.cpp:157] Top shape: 32 1024 19 19 (11829248)
I0324 23:59:13.825835 20044 net.cpp:157] Top shape: 32 1024 19 19 (11829248)
I0324 23:59:13.825862 20044 net.cpp:165] Memory required for data: 7927922816
I0324 23:59:13.825886 20044 layer_factory.hpp:77] Creating layer conv6_1
I0324 23:59:13.825929 20044 net.cpp:100] Creating Layer conv6_1
I0324 23:59:13.825958 20044 net.cpp:434] conv6_1 <- fc7_relu7_0_split_0
I0324 23:59:13.825985 20044 net.cpp:408] conv6_1 -> conv6_1
I0324 23:59:13.831406 20044 net.cpp:150] Setting up conv6_1
I0324 23:59:13.831478 20044 net.cpp:157] Top shape: 32 256 19 19 (2957312)
I0324 23:59:13.831498 20044 net.cpp:165] Memory required for data: 7939752064
I0324 23:59:13.831531 20044 layer_factory.hpp:77] Creating layer conv6_1_relu
I0324 23:59:13.831564 20044 net.cpp:100] Creating Layer conv6_1_relu
I0324 23:59:13.831586 20044 net.cpp:434] conv6_1_relu <- conv6_1
I0324 23:59:13.831607 20044 net.cpp:395] conv6_1_relu -> conv6_1 (in-place)
I0324 23:59:13.831854 20044 net.cpp:150] Setting up conv6_1_relu
I0324 23:59:13.831884 20044 net.cpp:157] Top shape: 32 256 19 19 (2957312)
I0324 23:59:13.831902 20044 net.cpp:165] Memory required for data: 7951581312
I0324 23:59:13.831928 20044 layer_factory.hpp:77] Creating layer conv6_2_depthwise
I0324 23:59:13.831961 20044 net.cpp:100] Creating Layer conv6_2_depthwise
I0324 23:59:13.831984 20044 net.cpp:434] conv6_2_depthwise <- conv6_1
I0324 23:59:13.832008 20044 net.cpp:408] conv6_2_depthwise -> conv6_2_3x3
I0324 23:59:13.832535 20044 net.cpp:150] Setting up conv6_2_depthwise
I0324 23:59:13.832567 20044 net.cpp:157] Top shape: 32 256 10 10 (819200)
I0324 23:59:13.832585 20044 net.cpp:165] Memory required for data: 7954858112
I0324 23:59:13.832625 20044 layer_factory.hpp:77] Creating layer conv6_2_3x3_relu
I0324 23:59:13.832653 20044 net.cpp:100] Creating Layer conv6_2_3x3_relu
I0324 23:59:13.832674 20044 net.cpp:434] conv6_2_3x3_relu <- conv6_2_3x3
I0324 23:59:13.832697 20044 net.cpp:395] conv6_2_3x3_relu -> conv6_2_3x3 (in-place)
I0324 23:59:13.832949 20044 net.cpp:150] Setting up conv6_2_3x3_relu
I0324 23:59:13.832965 20044 net.cpp:157] Top shape: 32 256 10 10 (819200)
I0324 23:59:13.832970 20044 net.cpp:165] Memory required for data: 7958134912
I0324 23:59:13.832978 20044 layer_factory.hpp:77] Creating layer conv6_2_1x1
I0324 23:59:13.832991 20044 net.cpp:100] Creating Layer conv6_2_1x1
I0324 23:59:13.832998 20044 net.cpp:434] conv6_2_1x1 <- conv6_2_3x3
I0324 23:59:13.833007 20044 net.cpp:408] conv6_2_1x1 -> conv6_2
I0324 23:59:13.836299 20044 net.cpp:150] Setting up conv6_2_1x1
I0324 23:59:13.836493 20044 net.cpp:157] Top shape: 32 512 10 10 (1638400)
I0324 23:59:13.836527 20044 net.cpp:165] Memory required for data: 7964688512
I0324 23:59:13.836581 20044 layer_factory.hpp:77] Creating layer conv6_2_relu
I0324 23:59:13.836621 20044 net.cpp:100] Creating Layer conv6_2_relu
I0324 23:59:13.836642 20044 net.cpp:434] conv6_2_relu <- conv6_2
I0324 23:59:13.836663 20044 net.cpp:395] conv6_2_relu -> conv6_2 (in-place)
I0324 23:59:13.838193 20044 net.cpp:150] Setting up conv6_2_relu
I0324 23:59:13.838275 20044 net.cpp:157] Top shape: 32 512 10 10 (1638400)
I0324 23:59:13.838294 20044 net.cpp:165] Memory required for data: 7971242112
I0324 23:59:13.838315 20044 layer_factory.hpp:77] Creating layer conv6_2_conv6_2_relu_0_split
I0324 23:59:13.838342 20044 net.cpp:100] Creating Layer conv6_2_conv6_2_relu_0_split
I0324 23:59:13.838364 20044 net.cpp:434] conv6_2_conv6_2_relu_0_split <- conv6_2
I0324 23:59:13.838378 20044 net.cpp:408] conv6_2_conv6_2_relu_0_split -> conv6_2_conv6_2_relu_0_split_0
I0324 23:59:13.838392 20044 net.cpp:408] conv6_2_conv6_2_relu_0_split -> conv6_2_conv6_2_relu_0_split_1
I0324 23:59:13.838402 20044 net.cpp:408] conv6_2_conv6_2_relu_0_split -> conv6_2_conv6_2_relu_0_split_2
I0324 23:59:13.838423 20044 net.cpp:408] conv6_2_conv6_2_relu_0_split -> conv6_2_conv6_2_relu_0_split_3
I0324 23:59:13.838513 20044 net.cpp:150] Setting up conv6_2_conv6_2_relu_0_split
I0324 23:59:13.838523 20044 net.cpp:157] Top shape: 32 512 10 10 (1638400)
I0324 23:59:13.838531 20044 net.cpp:157] Top shape: 32 512 10 10 (1638400)
I0324 23:59:13.838539 20044 net.cpp:157] Top shape: 32 512 10 10 (1638400)
I0324 23:59:13.838546 20044 net.cpp:157] Top shape: 32 512 10 10 (1638400)
I0324 23:59:13.838551 20044 net.cpp:165] Memory required for data: 7997456512
I0324 23:59:13.838557 20044 layer_factory.hpp:77] Creating layer conv7_1
I0324 23:59:13.838574 20044 net.cpp:100] Creating Layer conv7_1
I0324 23:59:13.838580 20044 net.cpp:434] conv7_1 <- conv6_2_conv6_2_relu_0_split_0
I0324 23:59:13.838589 20044 net.cpp:408] conv7_1 -> conv7_1
I0324 23:59:13.840530 20044 net.cpp:150] Setting up conv7_1
I0324 23:59:13.840586 20044 net.cpp:157] Top shape: 32 128 10 10 (409600)
I0324 23:59:13.840605 20044 net.cpp:165] Memory required for data: 7999094912
I0324 23:59:13.840632 20044 layer_factory.hpp:77] Creating layer conv7_1_relu
I0324 23:59:13.840656 20044 net.cpp:100] Creating Layer conv7_1_relu
I0324 23:59:13.840677 20044 net.cpp:434] conv7_1_relu <- conv7_1
I0324 23:59:13.840699 20044 net.cpp:395] conv7_1_relu -> conv7_1 (in-place)
I0324 23:59:13.840894 20044 net.cpp:150] Setting up conv7_1_relu
I0324 23:59:13.840907 20044 net.cpp:157] Top shape: 32 128 10 10 (409600)
I0324 23:59:13.840914 20044 net.cpp:165] Memory required for data: 8000733312
I0324 23:59:13.840919 20044 layer_factory.hpp:77] Creating layer conv7_2
I0324 23:59:13.840935 20044 net.cpp:100] Creating Layer conv7_2
I0324 23:59:13.840942 20044 net.cpp:434] conv7_2 <- conv7_1
I0324 23:59:13.840952 20044 net.cpp:408] conv7_2 -> conv7_2
I0324 23:59:13.845127 20044 net.cpp:150] Setting up conv7_2
I0324 23:59:13.845158 20044 net.cpp:157] Top shape: 32 256 5 5 (204800)
I0324 23:59:13.845165 20044 net.cpp:165] Memory required for data: 8001552512
I0324 23:59:13.845181 20044 layer_factory.hpp:77] Creating layer conv7_2_relu
I0324 23:59:13.845193 20044 net.cpp:100] Creating Layer conv7_2_relu
I0324 23:59:13.845203 20044 net.cpp:434] conv7_2_relu <- conv7_2
I0324 23:59:13.845213 20044 net.cpp:395] conv7_2_relu -> conv7_2 (in-place)
I0324 23:59:13.845382 20044 net.cpp:150] Setting up conv7_2_relu
I0324 23:59:13.845412 20044 net.cpp:157] Top shape: 32 256 5 5 (204800)
I0324 23:59:13.845512 20044 net.cpp:165] Memory required for data: 8002371712
I0324 23:59:13.845520 20044 layer_factory.hpp:77] Creating layer conv7_2_conv7_2_relu_0_split
I0324 23:59:13.845530 20044 net.cpp:100] Creating Layer conv7_2_conv7_2_relu_0_split
I0324 23:59:13.845537 20044 net.cpp:434] conv7_2_conv7_2_relu_0_split <- conv7_2
I0324 23:59:13.845546 20044 net.cpp:408] conv7_2_conv7_2_relu_0_split -> conv7_2_conv7_2_relu_0_split_0
I0324 23:59:13.845559 20044 net.cpp:408] conv7_2_conv7_2_relu_0_split -> conv7_2_conv7_2_relu_0_split_1
I0324 23:59:13.845571 20044 net.cpp:408] conv7_2_conv7_2_relu_0_split -> conv7_2_conv7_2_relu_0_split_2
I0324 23:59:13.845580 20044 net.cpp:408] conv7_2_conv7_2_relu_0_split -> conv7_2_conv7_2_relu_0_split_3
I0324 23:59:13.845654 20044 net.cpp:150] Setting up conv7_2_conv7_2_relu_0_split
I0324 23:59:13.845664 20044 net.cpp:157] Top shape: 32 256 5 5 (204800)
I0324 23:59:13.845672 20044 net.cpp:157] Top shape: 32 256 5 5 (204800)
I0324 23:59:13.845679 20044 net.cpp:157] Top shape: 32 256 5 5 (204800)
I0324 23:59:13.845686 20044 net.cpp:157] Top shape: 32 256 5 5 (204800)
I0324 23:59:13.845692 20044 net.cpp:165] Memory required for data: 8005648512
I0324 23:59:13.845698 20044 layer_factory.hpp:77] Creating layer conv8_1
I0324 23:59:13.845715 20044 net.cpp:100] Creating Layer conv8_1
I0324 23:59:13.845721 20044 net.cpp:434] conv8_1 <- conv7_2_conv7_2_relu_0_split_0
I0324 23:59:13.845752 20044 net.cpp:408] conv8_1 -> conv8_1
I0324 23:59:13.847187 20044 net.cpp:150] Setting up conv8_1
I0324 23:59:13.847204 20044 net.cpp:157] Top shape: 32 128 5 5 (102400)
I0324 23:59:13.847225 20044 net.cpp:165] Memory required for data: 8006058112
I0324 23:59:13.847240 20044 layer_factory.hpp:77] Creating layer conv8_1_relu
I0324 23:59:13.847260 20044 net.cpp:100] Creating Layer conv8_1_relu
I0324 23:59:13.847267 20044 net.cpp:434] conv8_1_relu <- conv8_1
I0324 23:59:13.847275 20044 net.cpp:395] conv8_1_relu -> conv8_1 (in-place)
I0324 23:59:13.847999 20044 net.cpp:150] Setting up conv8_1_relu
I0324 23:59:13.848014 20044 net.cpp:157] Top shape: 32 128 5 5 (102400)
I0324 23:59:13.848021 20044 net.cpp:165] Memory required for data: 8006467712
I0324 23:59:13.848027 20044 layer_factory.hpp:77] Creating layer conv8_2
I0324 23:59:13.848042 20044 net.cpp:100] Creating Layer conv8_2
I0324 23:59:13.848049 20044 net.cpp:434] conv8_2 <- conv8_1
I0324 23:59:13.848058 20044 net.cpp:408] conv8_2 -> conv8_2
I0324 23:59:13.854143 20044 net.cpp:150] Setting up conv8_2
I0324 23:59:13.854218 20044 net.cpp:157] Top shape: 32 256 3 3 (73728)
I0324 23:59:13.854241 20044 net.cpp:165] Memory required for data: 8006762624
I0324 23:59:13.854260 20044 layer_factory.hpp:77] Creating layer conv8_2_relu
I0324 23:59:13.854275 20044 net.cpp:100] Creating Layer conv8_2_relu
I0324 23:59:13.854285 20044 net.cpp:434] conv8_2_relu <- conv8_2
I0324 23:59:13.854296 20044 net.cpp:395] conv8_2_relu -> conv8_2 (in-place)
I0324 23:59:13.854976 20044 net.cpp:150] Setting up conv8_2_relu
I0324 23:59:13.855018 20044 net.cpp:157] Top shape: 32 256 3 3 (73728)
I0324 23:59:13.855038 20044 net.cpp:165] Memory required for data: 8007057536
I0324 23:59:13.855051 20044 layer_factory.hpp:77] Creating layer conv8_2_conv8_2_relu_0_split
I0324 23:59:13.855063 20044 net.cpp:100] Creating Layer conv8_2_conv8_2_relu_0_split
I0324 23:59:13.855072 20044 net.cpp:434] conv8_2_conv8_2_relu_0_split <- conv8_2
I0324 23:59:13.855082 20044 net.cpp:408] conv8_2_conv8_2_relu_0_split -> conv8_2_conv8_2_relu_0_split_0
I0324 23:59:13.855096 20044 net.cpp:408] conv8_2_conv8_2_relu_0_split -> conv8_2_conv8_2_relu_0_split_1
I0324 23:59:13.855108 20044 net.cpp:408] conv8_2_conv8_2_relu_0_split -> conv8_2_conv8_2_relu_0_split_2
I0324 23:59:13.855118 20044 net.cpp:408] conv8_2_conv8_2_relu_0_split -> conv8_2_conv8_2_relu_0_split_3
I0324 23:59:13.855209 20044 net.cpp:150] Setting up conv8_2_conv8_2_relu_0_split
I0324 23:59:13.855219 20044 net.cpp:157] Top shape: 32 256 3 3 (73728)
I0324 23:59:13.855226 20044 net.cpp:157] Top shape: 32 256 3 3 (73728)
I0324 23:59:13.855233 20044 net.cpp:157] Top shape: 32 256 3 3 (73728)
I0324 23:59:13.855240 20044 net.cpp:157] Top shape: 32 256 3 3 (73728)
I0324 23:59:13.855247 20044 net.cpp:165] Memory required for data: 8008237184
I0324 23:59:13.855252 20044 layer_factory.hpp:77] Creating layer conv9_1
I0324 23:59:13.855268 20044 net.cpp:100] Creating Layer conv9_1
I0324 23:59:13.855274 20044 net.cpp:434] conv9_1 <- conv8_2_conv8_2_relu_0_split_0
I0324 23:59:13.855284 20044 net.cpp:408] conv9_1 -> conv9_1
I0324 23:59:13.857875 20044 net.cpp:150] Setting up conv9_1
I0324 23:59:13.858039 20044 net.cpp:157] Top shape: 32 128 3 3 (36864)
I0324 23:59:13.858063 20044 net.cpp:165] Memory required for data: 8008384640
I0324 23:59:13.858094 20044 layer_factory.hpp:77] Creating layer conv9_1_relu
I0324 23:59:13.858126 20044 net.cpp:100] Creating Layer conv9_1_relu
I0324 23:59:13.858150 20044 net.cpp:434] conv9_1_relu <- conv9_1
I0324 23:59:13.858171 20044 net.cpp:395] conv9_1_relu -> conv9_1 (in-place)
I0324 23:59:13.858541 20044 net.cpp:150] Setting up conv9_1_relu
I0324 23:59:13.858577 20044 net.cpp:157] Top shape: 32 128 3 3 (36864)
I0324 23:59:13.858584 20044 net.cpp:165] Memory required for data: 8008532096
I0324 23:59:13.858592 20044 layer_factory.hpp:77] Creating layer conv9_2
I0324 23:59:13.858608 20044 net.cpp:100] Creating Layer conv9_2
I0324 23:59:13.858615 20044 net.cpp:434] conv9_2 <- conv9_1
I0324 23:59:13.858626 20044 net.cpp:408] conv9_2 -> conv9_2
I0324 23:59:13.864742 20044 net.cpp:150] Setting up conv9_2
I0324 23:59:13.864815 20044 net.cpp:157] Top shape: 32 256 1 1 (8192)
I0324 23:59:13.864848 20044 net.cpp:165] Memory required for data: 8008564864
I0324 23:59:13.864889 20044 layer_factory.hpp:77] Creating layer conv9_2_relu
I0324 23:59:13.864915 20044 net.cpp:100] Creating Layer conv9_2_relu
I0324 23:59:13.864935 20044 net.cpp:434] conv9_2_relu <- conv9_2
I0324 23:59:13.864964 20044 net.cpp:395] conv9_2_relu -> conv9_2 (in-place)
I0324 23:59:13.865195 20044 net.cpp:150] Setting up conv9_2_relu
I0324 23:59:13.865222 20044 net.cpp:157] Top shape: 32 256 1 1 (8192)
I0324 23:59:13.865240 20044 net.cpp:165] Memory required for data: 8008597632
I0324 23:59:13.865257 20044 layer_factory.hpp:77] Creating layer conv9_2_conv9_2_relu_0_split
I0324 23:59:13.865279 20044 net.cpp:100] Creating Layer conv9_2_conv9_2_relu_0_split
I0324 23:59:13.865299 20044 net.cpp:434] conv9_2_conv9_2_relu_0_split <- conv9_2
I0324 23:59:13.865322 20044 net.cpp:408] conv9_2_conv9_2_relu_0_split -> conv9_2_conv9_2_relu_0_split_0
I0324 23:59:13.865345 20044 net.cpp:408] conv9_2_conv9_2_relu_0_split -> conv9_2_conv9_2_relu_0_split_1
I0324 23:59:13.865367 20044 net.cpp:408] conv9_2_conv9_2_relu_0_split -> conv9_2_conv9_2_relu_0_split_2
I0324 23:59:13.865473 20044 net.cpp:150] Setting up conv9_2_conv9_2_relu_0_split
I0324 23:59:13.865496 20044 net.cpp:157] Top shape: 32 256 1 1 (8192)
I0324 23:59:13.865514 20044 net.cpp:157] Top shape: 32 256 1 1 (8192)
I0324 23:59:13.865521 20044 net.cpp:157] Top shape: 32 256 1 1 (8192)
I0324 23:59:13.865526 20044 net.cpp:165] Memory required for data: 8008695936
I0324 23:59:13.865533 20044 layer_factory.hpp:77] Creating layer conv4_3_norm
I0324 23:59:13.865543 20044 net.cpp:100] Creating Layer conv4_3_norm
I0324 23:59:13.865550 20044 net.cpp:434] conv4_3_norm <- conv4_3_relu4_3_0_split_1
I0324 23:59:13.865559 20044 net.cpp:408] conv4_3_norm -> conv4_3_norm
I0324 23:59:13.865715 20044 net.cpp:150] Setting up conv4_3_norm
I0324 23:59:13.865752 20044 net.cpp:157] Top shape: 32 512 38 38 (23658496)
I0324 23:59:13.865761 20044 net.cpp:165] Memory required for data: 8103329920
I0324 23:59:13.865785 20044 layer_factory.hpp:77] Creating layer conv4_3_norm_conv4_3_norm_0_split
I0324 23:59:13.865808 20044 net.cpp:100] Creating Layer conv4_3_norm_conv4_3_norm_0_split
I0324 23:59:13.865824 20044 net.cpp:434] conv4_3_norm_conv4_3_norm_0_split <- conv4_3_norm
I0324 23:59:13.865844 20044 net.cpp:408] conv4_3_norm_conv4_3_norm_0_split -> conv4_3_norm_conv4_3_norm_0_split_0
I0324 23:59:13.865866 20044 net.cpp:408] conv4_3_norm_conv4_3_norm_0_split -> conv4_3_norm_conv4_3_norm_0_split_1
I0324 23:59:13.865890 20044 net.cpp:408] conv4_3_norm_conv4_3_norm_0_split -> conv4_3_norm_conv4_3_norm_0_split_2
I0324 23:59:13.865968 20044 net.cpp:150] Setting up conv4_3_norm_conv4_3_norm_0_split
I0324 23:59:13.865991 20044 net.cpp:157] Top shape: 32 512 38 38 (23658496)
I0324 23:59:13.866009 20044 net.cpp:157] Top shape: 32 512 38 38 (23658496)
I0324 23:59:13.866029 20044 net.cpp:157] Top shape: 32 512 38 38 (23658496)
I0324 23:59:13.866046 20044 net.cpp:165] Memory required for data: 8387231872
I0324 23:59:13.866065 20044 layer_factory.hpp:77] Creating layer conv4_3_norm_mbox_loc
I0324 23:59:13.866094 20044 net.cpp:100] Creating Layer conv4_3_norm_mbox_loc
I0324 23:59:13.866102 20044 net.cpp:434] conv4_3_norm_mbox_loc <- conv4_3_norm_conv4_3_norm_0_split_0
I0324 23:59:13.866111 20044 net.cpp:408] conv4_3_norm_mbox_loc -> conv4_3_norm_mbox_loc
I0324 23:59:13.869202 20044 net.cpp:150] Setting up conv4_3_norm_mbox_loc
I0324 23:59:13.869338 20044 net.cpp:157] Top shape: 32 16 38 38 (739328)
I0324 23:59:13.869371 20044 net.cpp:165] Memory required for data: 8390189184
I0324 23:59:13.869421 20044 layer_factory.hpp:77] Creating layer conv4_3_norm_mbox_loc_perm
I0324 23:59:13.869464 20044 net.cpp:100] Creating Layer conv4_3_norm_mbox_loc_perm
I0324 23:59:13.869495 20044 net.cpp:434] conv4_3_norm_mbox_loc_perm <- conv4_3_norm_mbox_loc
I0324 23:59:13.869529 20044 net.cpp:408] conv4_3_norm_mbox_loc_perm -> conv4_3_norm_mbox_loc_perm
I0324 23:59:13.869947 20044 net.cpp:150] Setting up conv4_3_norm_mbox_loc_perm
I0324 23:59:13.870028 20044 net.cpp:157] Top shape: 32 38 38 16 (739328)
I0324 23:59:13.870076 20044 net.cpp:165] Memory required for data: 8393146496
I0324 23:59:13.870102 20044 layer_factory.hpp:77] Creating layer conv4_3_norm_mbox_loc_flat
I0324 23:59:13.870137 20044 net.cpp:100] Creating Layer conv4_3_norm_mbox_loc_flat
I0324 23:59:13.870163 20044 net.cpp:434] conv4_3_norm_mbox_loc_flat <- conv4_3_norm_mbox_loc_perm
I0324 23:59:13.870194 20044 net.cpp:408] conv4_3_norm_mbox_loc_flat -> conv4_3_norm_mbox_loc_flat
I0324 23:59:13.870326 20044 net.cpp:150] Setting up conv4_3_norm_mbox_loc_flat
I0324 23:59:13.870360 20044 net.cpp:157] Top shape: 32 23104 (739328)
I0324 23:59:13.870383 20044 net.cpp:165] Memory required for data: 8396103808
I0324 23:59:13.870404 20044 layer_factory.hpp:77] Creating layer conv4_3_norm_mbox_conf
I0324 23:59:13.870448 20044 net.cpp:100] Creating Layer conv4_3_norm_mbox_conf
I0324 23:59:13.870474 20044 net.cpp:434] conv4_3_norm_mbox_conf <- conv4_3_norm_conv4_3_norm_0_split_1
I0324 23:59:13.870502 20044 net.cpp:408] conv4_3_norm_mbox_conf -> conv4_3_norm_mbox_conf
I0324 23:59:13.874827 20044 net.cpp:150] Setting up conv4_3_norm_mbox_conf
I0324 23:59:13.874899 20044 net.cpp:157] Top shape: 32 44 38 38 (2033152)
I0324 23:59:13.874924 20044 net.cpp:165] Memory required for data: 8404236416
I0324 23:59:13.874963 20044 layer_factory.hpp:77] Creating layer conv4_3_norm_mbox_conf_perm
I0324 23:59:13.874991 20044 net.cpp:100] Creating Layer conv4_3_norm_mbox_conf_perm
I0324 23:59:13.875002 20044 net.cpp:434] conv4_3_norm_mbox_conf_perm <- conv4_3_norm_mbox_conf
I0324 23:59:13.875013 20044 net.cpp:408] conv4_3_norm_mbox_conf_perm -> conv4_3_norm_mbox_conf_perm
I0324 23:59:13.875131 20044 net.cpp:150] Setting up conv4_3_norm_mbox_conf_perm
I0324 23:59:13.875144 20044 net.cpp:157] Top shape: 32 38 38 44 (2033152)
I0324 23:59:13.875151 20044 net.cpp:165] Memory required for data: 8412369024
I0324 23:59:13.875159 20044 layer_factory.hpp:77] Creating layer conv4_3_norm_mbox_conf_flat
I0324 23:59:13.875169 20044 net.cpp:100] Creating Layer conv4_3_norm_mbox_conf_flat
I0324 23:59:13.875177 20044 net.cpp:434] conv4_3_norm_mbox_conf_flat <- conv4_3_norm_mbox_conf_perm
I0324 23:59:13.875185 20044 net.cpp:408] conv4_3_norm_mbox_conf_flat -> conv4_3_norm_mbox_conf_flat
I0324 23:59:13.875221 20044 net.cpp:150] Setting up conv4_3_norm_mbox_conf_flat
I0324 23:59:13.875244 20044 net.cpp:157] Top shape: 32 63536 (2033152)
I0324 23:59:13.875262 20044 net.cpp:165] Memory required for data: 8420501632
I0324 23:59:13.875279 20044 layer_factory.hpp:77] Creating layer conv4_3_norm_mbox_priorbox
I0324 23:59:13.875301 20044 net.cpp:100] Creating Layer conv4_3_norm_mbox_priorbox
I0324 23:59:13.875320 20044 net.cpp:434] conv4_3_norm_mbox_priorbox <- conv4_3_norm_conv4_3_norm_0_split_2
I0324 23:59:13.875342 20044 net.cpp:434] conv4_3_norm_mbox_priorbox <- data_data_0_split_1
I0324 23:59:13.875365 20044 net.cpp:408] conv4_3_norm_mbox_priorbox -> conv4_3_norm_mbox_priorbox
I0324 23:59:13.875434 20044 net.cpp:150] Setting up conv4_3_norm_mbox_priorbox
I0324 23:59:13.875457 20044 net.cpp:157] Top shape: 1 2 23104 (46208)
I0324 23:59:13.875473 20044 net.cpp:165] Memory required for data: 8420686464
I0324 23:59:13.875492 20044 layer_factory.hpp:77] Creating layer fc7_mbox_loc
I0324 23:59:13.875521 20044 net.cpp:100] Creating Layer fc7_mbox_loc
I0324 23:59:13.875541 20044 net.cpp:434] fc7_mbox_loc <- fc7_relu7_0_split_1
I0324 23:59:13.875561 20044 net.cpp:408] fc7_mbox_loc -> fc7_mbox_loc
I0324 23:59:13.879146 20044 net.cpp:150] Setting up fc7_mbox_loc
I0324 23:59:13.879209 20044 net.cpp:157] Top shape: 32 24 19 19 (277248)
I0324 23:59:13.879228 20044 net.cpp:165] Memory required for data: 8421795456
I0324 23:59:13.879256 20044 layer_factory.hpp:77] Creating layer fc7_mbox_loc_perm
I0324 23:59:13.879283 20044 net.cpp:100] Creating Layer fc7_mbox_loc_perm
I0324 23:59:13.879307 20044 net.cpp:434] fc7_mbox_loc_perm <- fc7_mbox_loc
I0324 23:59:13.879330 20044 net.cpp:408] fc7_mbox_loc_perm -> fc7_mbox_loc_perm
I0324 23:59:13.879498 20044 net.cpp:150] Setting up fc7_mbox_loc_perm
I0324 23:59:13.879539 20044 net.cpp:157] Top shape: 32 19 19 24 (277248)
I0324 23:59:13.879570 20044 net.cpp:165] Memory required for data: 8422904448
I0324 23:59:13.879588 20044 layer_factory.hpp:77] Creating layer fc7_mbox_loc_flat
I0324 23:59:13.879611 20044 net.cpp:100] Creating Layer fc7_mbox_loc_flat
I0324 23:59:13.879631 20044 net.cpp:434] fc7_mbox_loc_flat <- fc7_mbox_loc_perm
I0324 23:59:13.879650 20044 net.cpp:408] fc7_mbox_loc_flat -> fc7_mbox_loc_flat
I0324 23:59:13.879703 20044 net.cpp:150] Setting up fc7_mbox_loc_flat
I0324 23:59:13.879727 20044 net.cpp:157] Top shape: 32 8664 (277248)
I0324 23:59:13.879746 20044 net.cpp:165] Memory required for data: 8424013440
I0324 23:59:13.879763 20044 layer_factory.hpp:77] Creating layer fc7_mbox_conf
I0324 23:59:13.879789 20044 net.cpp:100] Creating Layer fc7_mbox_conf
I0324 23:59:13.879808 20044 net.cpp:434] fc7_mbox_conf <- fc7_relu7_0_split_2
I0324 23:59:13.879830 20044 net.cpp:408] fc7_mbox_conf -> fc7_mbox_conf
I0324 23:59:13.888530 20044 net.cpp:150] Setting up fc7_mbox_conf
I0324 23:59:13.888603 20044 net.cpp:157] Top shape: 32 66 19 19 (762432)
I0324 23:59:13.888624 20044 net.cpp:165] Memory required for data: 8427063168
I0324 23:59:13.888653 20044 layer_factory.hpp:77] Creating layer fc7_mbox_conf_perm
I0324 23:59:13.888680 20044 net.cpp:100] Creating Layer fc7_mbox_conf_perm
I0324 23:59:13.888701 20044 net.cpp:434] fc7_mbox_conf_perm <- fc7_mbox_conf
I0324 23:59:13.888726 20044 net.cpp:408] fc7_mbox_conf_perm -> fc7_mbox_conf_perm
I0324 23:59:13.888923 20044 net.cpp:150] Setting up fc7_mbox_conf_perm
I0324 23:59:13.888947 20044 net.cpp:157] Top shape: 32 19 19 66 (762432)
I0324 23:59:13.888964 20044 net.cpp:165] Memory required for data: 8430112896
I0324 23:59:13.888980 20044 layer_factory.hpp:77] Creating layer fc7_mbox_conf_flat
I0324 23:59:13.889004 20044 net.cpp:100] Creating Layer fc7_mbox_conf_flat
I0324 23:59:13.889024 20044 net.cpp:434] fc7_mbox_conf_flat <- fc7_mbox_conf_perm
I0324 23:59:13.889044 20044 net.cpp:408] fc7_mbox_conf_flat -> fc7_mbox_conf_flat
I0324 23:59:13.889093 20044 net.cpp:150] Setting up fc7_mbox_conf_flat
I0324 23:59:13.889106 20044 net.cpp:157] Top shape: 32 23826 (762432)
I0324 23:59:13.889111 20044 net.cpp:165] Memory required for data: 8433162624
I0324 23:59:13.889117 20044 layer_factory.hpp:77] Creating layer fc7_mbox_priorbox
I0324 23:59:13.889127 20044 net.cpp:100] Creating Layer fc7_mbox_priorbox
I0324 23:59:13.889137 20044 net.cpp:434] fc7_mbox_priorbox <- fc7_relu7_0_split_3
I0324 23:59:13.889143 20044 net.cpp:434] fc7_mbox_priorbox <- data_data_0_split_2
I0324 23:59:13.889153 20044 net.cpp:408] fc7_mbox_priorbox -> fc7_mbox_priorbox
I0324 23:59:13.889223 20044 net.cpp:150] Setting up fc7_mbox_priorbox
I0324 23:59:13.889248 20044 net.cpp:157] Top shape: 1 2 8664 (17328)
I0324 23:59:13.889266 20044 net.cpp:165] Memory required for data: 8433231936
I0324 23:59:13.889283 20044 layer_factory.hpp:77] Creating layer conv6_2_mbox_loc
I0324 23:59:13.889312 20044 net.cpp:100] Creating Layer conv6_2_mbox_loc
I0324 23:59:13.889333 20044 net.cpp:434] conv6_2_mbox_loc <- conv6_2_conv6_2_relu_0_split_1
I0324 23:59:13.889354 20044 net.cpp:408] conv6_2_mbox_loc -> conv6_2_mbox_loc
I0324 23:59:13.893174 20044 net.cpp:150] Setting up conv6_2_mbox_loc
I0324 23:59:13.893249 20044 net.cpp:157] Top shape: 32 24 10 10 (76800)
I0324 23:59:13.893270 20044 net.cpp:165] Memory required for data: 8433539136
I0324 23:59:13.893302 20044 layer_factory.hpp:77] Creating layer conv6_2_mbox_loc_perm
I0324 23:59:13.893329 20044 net.cpp:100] Creating Layer conv6_2_mbox_loc_perm
I0324 23:59:13.893349 20044 net.cpp:434] conv6_2_mbox_loc_perm <- conv6_2_mbox_loc
I0324 23:59:13.893373 20044 net.cpp:408] conv6_2_mbox_loc_perm -> conv6_2_mbox_loc_perm
I0324 23:59:13.893551 20044 net.cpp:150] Setting up conv6_2_mbox_loc_perm
I0324 23:59:13.893576 20044 net.cpp:157] Top shape: 32 10 10 24 (76800)
I0324 23:59:13.893594 20044 net.cpp:165] Memory required for data: 8433846336
I0324 23:59:13.893610 20044 layer_factory.hpp:77] Creating layer conv6_2_mbox_loc_flat
I0324 23:59:13.893642 20044 net.cpp:100] Creating Layer conv6_2_mbox_loc_flat
I0324 23:59:13.893672 20044 net.cpp:434] conv6_2_mbox_loc_flat <- conv6_2_mbox_loc_perm
I0324 23:59:13.893693 20044 net.cpp:408] conv6_2_mbox_loc_flat -> conv6_2_mbox_loc_flat
I0324 23:59:13.893771 20044 net.cpp:150] Setting up conv6_2_mbox_loc_flat
I0324 23:59:13.893796 20044 net.cpp:157] Top shape: 32 2400 (76800)
I0324 23:59:13.893818 20044 net.cpp:165] Memory required for data: 8434153536
I0324 23:59:13.893838 20044 layer_factory.hpp:77] Creating layer conv6_2_mbox_conf
I0324 23:59:13.893864 20044 net.cpp:100] Creating Layer conv6_2_mbox_conf
I0324 23:59:13.893883 20044 net.cpp:434] conv6_2_mbox_conf <- conv6_2_conv6_2_relu_0_split_2
I0324 23:59:13.893904 20044 net.cpp:408] conv6_2_mbox_conf -> conv6_2_mbox_conf
I0324 23:59:13.899947 20044 net.cpp:150] Setting up conv6_2_mbox_conf
I0324 23:59:13.900020 20044 net.cpp:157] Top shape: 32 66 10 10 (211200)
I0324 23:59:13.900040 20044 net.cpp:165] Memory required for data: 8434998336
I0324 23:59:13.900072 20044 layer_factory.hpp:77] Creating layer conv6_2_mbox_conf_perm
I0324 23:59:13.900099 20044 net.cpp:100] Creating Layer conv6_2_mbox_conf_perm
I0324 23:59:13.900121 20044 net.cpp:434] conv6_2_mbox_conf_perm <- conv6_2_mbox_conf
I0324 23:59:13.900156 20044 net.cpp:408] conv6_2_mbox_conf_perm -> conv6_2_mbox_conf_perm
I0324 23:59:13.900293 20044 net.cpp:150] Setting up conv6_2_mbox_conf_perm
I0324 23:59:13.900319 20044 net.cpp:157] Top shape: 32 10 10 66 (211200)
I0324 23:59:13.900337 20044 net.cpp:165] Memory required for data: 8435843136
I0324 23:59:13.900354 20044 layer_factory.hpp:77] Creating layer conv6_2_mbox_conf_flat
I0324 23:59:13.900377 20044 net.cpp:100] Creating Layer conv6_2_mbox_conf_flat
I0324 23:59:13.900398 20044 net.cpp:434] conv6_2_mbox_conf_flat <- conv6_2_mbox_conf_perm
I0324 23:59:13.900419 20044 net.cpp:408] conv6_2_mbox_conf_flat -> conv6_2_mbox_conf_flat
I0324 23:59:13.900470 20044 net.cpp:150] Setting up conv6_2_mbox_conf_flat
I0324 23:59:13.900493 20044 net.cpp:157] Top shape: 32 6600 (211200)
I0324 23:59:13.900511 20044 net.cpp:165] Memory required for data: 8436687936
I0324 23:59:13.900529 20044 layer_factory.hpp:77] Creating layer conv6_2_mbox_priorbox
I0324 23:59:13.900552 20044 net.cpp:100] Creating Layer conv6_2_mbox_priorbox
I0324 23:59:13.900568 20044 net.cpp:434] conv6_2_mbox_priorbox <- conv6_2_conv6_2_relu_0_split_3
I0324 23:59:13.900576 20044 net.cpp:434] conv6_2_mbox_priorbox <- data_data_0_split_3
I0324 23:59:13.900588 20044 net.cpp:408] conv6_2_mbox_priorbox -> conv6_2_mbox_priorbox
I0324 23:59:13.900630 20044 net.cpp:150] Setting up conv6_2_mbox_priorbox
I0324 23:59:13.900640 20044 net.cpp:157] Top shape: 1 2 2400 (4800)
I0324 23:59:13.900645 20044 net.cpp:165] Memory required for data: 8436707136
I0324 23:59:13.900652 20044 layer_factory.hpp:77] Creating layer conv7_2_mbox_loc
I0324 23:59:13.900667 20044 net.cpp:100] Creating Layer conv7_2_mbox_loc
I0324 23:59:13.900673 20044 net.cpp:434] conv7_2_mbox_loc <- conv7_2_conv7_2_relu_0_split_1
I0324 23:59:13.900682 20044 net.cpp:408] conv7_2_mbox_loc -> conv7_2_mbox_loc
I0324 23:59:13.902983 20044 net.cpp:150] Setting up conv7_2_mbox_loc
I0324 23:59:13.903009 20044 net.cpp:157] Top shape: 32 24 5 5 (19200)
I0324 23:59:13.903017 20044 net.cpp:165] Memory required for data: 8436783936
I0324 23:59:13.903030 20044 layer_factory.hpp:77] Creating layer conv7_2_mbox_loc_perm
I0324 23:59:13.903046 20044 net.cpp:100] Creating Layer conv7_2_mbox_loc_perm
I0324 23:59:13.903055 20044 net.cpp:434] conv7_2_mbox_loc_perm <- conv7_2_mbox_loc
I0324 23:59:13.903065 20044 net.cpp:408] conv7_2_mbox_loc_perm -> conv7_2_mbox_loc_perm
I0324 23:59:13.903177 20044 net.cpp:150] Setting up conv7_2_mbox_loc_perm
I0324 23:59:13.903187 20044 net.cpp:157] Top shape: 32 5 5 24 (19200)
I0324 23:59:13.903192 20044 net.cpp:165] Memory required for data: 8436860736
I0324 23:59:13.903198 20044 layer_factory.hpp:77] Creating layer conv7_2_mbox_loc_flat
I0324 23:59:13.903209 20044 net.cpp:100] Creating Layer conv7_2_mbox_loc_flat
I0324 23:59:13.903218 20044 net.cpp:434] conv7_2_mbox_loc_flat <- conv7_2_mbox_loc_perm
I0324 23:59:13.903239 20044 net.cpp:408] conv7_2_mbox_loc_flat -> conv7_2_mbox_loc_flat
I0324 23:59:13.903273 20044 net.cpp:150] Setting up conv7_2_mbox_loc_flat
I0324 23:59:13.903282 20044 net.cpp:157] Top shape: 32 600 (19200)
I0324 23:59:13.903288 20044 net.cpp:165] Memory required for data: 8436937536
I0324 23:59:13.903293 20044 layer_factory.hpp:77] Creating layer conv7_2_mbox_conf
I0324 23:59:13.903312 20044 net.cpp:100] Creating Layer conv7_2_mbox_conf
I0324 23:59:13.903318 20044 net.cpp:434] conv7_2_mbox_conf <- conv7_2_conv7_2_relu_0_split_2
I0324 23:59:13.903329 20044 net.cpp:408] conv7_2_mbox_conf -> conv7_2_mbox_conf
I0324 23:59:13.905387 20044 net.cpp:150] Setting up conv7_2_mbox_conf
I0324 23:59:13.905407 20044 net.cpp:157] Top shape: 32 66 5 5 (52800)
I0324 23:59:13.905413 20044 net.cpp:165] Memory required for data: 8437148736
I0324 23:59:13.905426 20044 layer_factory.hpp:77] Creating layer conv7_2_mbox_conf_perm
I0324 23:59:13.905438 20044 net.cpp:100] Creating Layer conv7_2_mbox_conf_perm
I0324 23:59:13.905445 20044 net.cpp:434] conv7_2_mbox_conf_perm <- conv7_2_mbox_conf
I0324 23:59:13.905457 20044 net.cpp:408] conv7_2_mbox_conf_perm -> conv7_2_mbox_conf_perm
I0324 23:59:13.905561 20044 net.cpp:150] Setting up conv7_2_mbox_conf_perm
I0324 23:59:13.905572 20044 net.cpp:157] Top shape: 32 5 5 66 (52800)
I0324 23:59:13.905578 20044 net.cpp:165] Memory required for data: 8437359936
I0324 23:59:13.905584 20044 layer_factory.hpp:77] Creating layer conv7_2_mbox_conf_flat
I0324 23:59:13.905594 20044 net.cpp:100] Creating Layer conv7_2_mbox_conf_flat
I0324 23:59:13.905601 20044 net.cpp:434] conv7_2_mbox_conf_flat <- conv7_2_mbox_conf_perm
I0324 23:59:13.905611 20044 net.cpp:408] conv7_2_mbox_conf_flat -> conv7_2_mbox_conf_flat
I0324 23:59:13.905642 20044 net.cpp:150] Setting up conv7_2_mbox_conf_flat
I0324 23:59:13.905649 20044 net.cpp:157] Top shape: 32 1650 (52800)
I0324 23:59:13.905654 20044 net.cpp:165] Memory required for data: 8437571136
I0324 23:59:13.905659 20044 layer_factory.hpp:77] Creating layer conv7_2_mbox_priorbox
I0324 23:59:13.905673 20044 net.cpp:100] Creating Layer conv7_2_mbox_priorbox
I0324 23:59:13.905679 20044 net.cpp:434] conv7_2_mbox_priorbox <- conv7_2_conv7_2_relu_0_split_3
I0324 23:59:13.905686 20044 net.cpp:434] conv7_2_mbox_priorbox <- data_data_0_split_4
I0324 23:59:13.905697 20044 net.cpp:408] conv7_2_mbox_priorbox -> conv7_2_mbox_priorbox
I0324 23:59:13.905755 20044 net.cpp:150] Setting up conv7_2_mbox_priorbox
I0324 23:59:13.905789 20044 net.cpp:157] Top shape: 1 2 600 (1200)
I0324 23:59:13.905812 20044 net.cpp:165] Memory required for data: 8437575936
I0324 23:59:13.905829 20044 layer_factory.hpp:77] Creating layer conv8_2_mbox_loc
I0324 23:59:13.905858 20044 net.cpp:100] Creating Layer conv8_2_mbox_loc
I0324 23:59:13.905879 20044 net.cpp:434] conv8_2_mbox_loc <- conv8_2_conv8_2_relu_0_split_1
I0324 23:59:13.905902 20044 net.cpp:408] conv8_2_mbox_loc -> conv8_2_mbox_loc
I0324 23:59:13.908140 20044 net.cpp:150] Setting up conv8_2_mbox_loc
I0324 23:59:13.908164 20044 net.cpp:157] Top shape: 32 16 3 3 (4608)
I0324 23:59:13.908169 20044 net.cpp:165] Memory required for data: 8437594368
I0324 23:59:13.908180 20044 layer_factory.hpp:77] Creating layer conv8_2_mbox_loc_perm
I0324 23:59:13.908193 20044 net.cpp:100] Creating Layer conv8_2_mbox_loc_perm
I0324 23:59:13.908200 20044 net.cpp:434] conv8_2_mbox_loc_perm <- conv8_2_mbox_loc
I0324 23:59:13.908207 20044 net.cpp:408] conv8_2_mbox_loc_perm -> conv8_2_mbox_loc_perm
I0324 23:59:13.908571 20044 net.cpp:150] Setting up conv8_2_mbox_loc_perm
I0324 23:59:13.908607 20044 net.cpp:157] Top shape: 32 3 3 16 (4608)
I0324 23:59:13.908623 20044 net.cpp:165] Memory required for data: 8437612800
I0324 23:59:13.908648 20044 layer_factory.hpp:77] Creating layer conv8_2_mbox_loc_flat
I0324 23:59:13.908676 20044 net.cpp:100] Creating Layer conv8_2_mbox_loc_flat
I0324 23:59:13.908697 20044 net.cpp:434] conv8_2_mbox_loc_flat <- conv8_2_mbox_loc_perm
I0324 23:59:13.908740 20044 net.cpp:408] conv8_2_mbox_loc_flat -> conv8_2_mbox_loc_flat
I0324 23:59:13.908819 20044 net.cpp:150] Setting up conv8_2_mbox_loc_flat
I0324 23:59:13.908849 20044 net.cpp:157] Top shape: 32 144 (4608)
I0324 23:59:13.908866 20044 net.cpp:165] Memory required for data: 8437631232
I0324 23:59:13.908890 20044 layer_factory.hpp:77] Creating layer conv8_2_mbox_conf
I0324 23:59:13.908928 20044 net.cpp:100] Creating Layer conv8_2_mbox_conf
I0324 23:59:13.908951 20044 net.cpp:434] conv8_2_mbox_conf <- conv8_2_conv8_2_relu_0_split_2
I0324 23:59:13.908982 20044 net.cpp:408] conv8_2_mbox_conf -> conv8_2_mbox_conf
I0324 23:59:13.911852 20044 net.cpp:150] Setting up conv8_2_mbox_conf
I0324 23:59:13.911900 20044 net.cpp:157] Top shape: 32 44 3 3 (12672)
I0324 23:59:13.911918 20044 net.cpp:165] Memory required for data: 8437681920
I0324 23:59:13.911953 20044 layer_factory.hpp:77] Creating layer conv8_2_mbox_conf_perm
I0324 23:59:13.911985 20044 net.cpp:100] Creating Layer conv8_2_mbox_conf_perm
I0324 23:59:13.912008 20044 net.cpp:434] conv8_2_mbox_conf_perm <- conv8_2_mbox_conf
I0324 23:59:13.912030 20044 net.cpp:408] conv8_2_mbox_conf_perm -> conv8_2_mbox_conf_perm
I0324 23:59:13.912217 20044 net.cpp:150] Setting up conv8_2_mbox_conf_perm
I0324 23:59:13.912246 20044 net.cpp:157] Top shape: 32 3 3 44 (12672)
I0324 23:59:13.912263 20044 net.cpp:165] Memory required for data: 8437732608
I0324 23:59:13.912288 20044 layer_factory.hpp:77] Creating layer conv8_2_mbox_conf_flat
I0324 23:59:13.912319 20044 net.cpp:100] Creating Layer conv8_2_mbox_conf_flat
I0324 23:59:13.912339 20044 net.cpp:434] conv8_2_mbox_conf_flat <- conv8_2_mbox_conf_perm
I0324 23:59:13.912369 20044 net.cpp:408] conv8_2_mbox_conf_flat -> conv8_2_mbox_conf_flat
I0324 23:59:13.912434 20044 net.cpp:150] Setting up conv8_2_mbox_conf_flat
I0324 23:59:13.912459 20044 net.cpp:157] Top shape: 32 396 (12672)
I0324 23:59:13.912477 20044 net.cpp:165] Memory required for data: 8437783296
I0324 23:59:13.912493 20044 layer_factory.hpp:77] Creating layer conv8_2_mbox_priorbox
I0324 23:59:13.912518 20044 net.cpp:100] Creating Layer conv8_2_mbox_priorbox
I0324 23:59:13.912539 20044 net.cpp:434] conv8_2_mbox_priorbox <- conv8_2_conv8_2_relu_0_split_3
I0324 23:59:13.912559 20044 net.cpp:434] conv8_2_mbox_priorbox <- data_data_0_split_5
I0324 23:59:13.912585 20044 net.cpp:408] conv8_2_mbox_priorbox -> conv8_2_mbox_priorbox
I0324 23:59:13.912652 20044 net.cpp:150] Setting up conv8_2_mbox_priorbox
I0324 23:59:13.912683 20044 net.cpp:157] Top shape: 1 2 144 (288)
I0324 23:59:13.912698 20044 net.cpp:165] Memory required for data: 8437784448
I0324 23:59:13.912724 20044 layer_factory.hpp:77] Creating layer conv9_2_mbox_loc
I0324 23:59:13.912761 20044 net.cpp:100] Creating Layer conv9_2_mbox_loc
I0324 23:59:13.912788 20044 net.cpp:434] conv9_2_mbox_loc <- conv9_2_conv9_2_relu_0_split_0
I0324 23:59:13.912824 20044 net.cpp:408] conv9_2_mbox_loc -> conv9_2_mbox_loc
I0324 23:59:13.915072 20044 net.cpp:150] Setting up conv9_2_mbox_loc
I0324 23:59:13.915107 20044 net.cpp:157] Top shape: 32 16 1 1 (512)
I0324 23:59:13.915123 20044 net.cpp:165] Memory required for data: 8437786496
I0324 23:59:13.915153 20044 layer_factory.hpp:77] Creating layer conv9_2_mbox_loc_perm
I0324 23:59:13.915186 20044 net.cpp:100] Creating Layer conv9_2_mbox_loc_perm
I0324 23:59:13.915210 20044 net.cpp:434] conv9_2_mbox_loc_perm <- conv9_2_mbox_loc
I0324 23:59:13.915246 20044 net.cpp:408] conv9_2_mbox_loc_perm -> conv9_2_mbox_loc_perm
I0324 23:59:13.915419 20044 net.cpp:150] Setting up conv9_2_mbox_loc_perm
I0324 23:59:13.915447 20044 net.cpp:157] Top shape: 32 1 1 16 (512)
I0324 23:59:13.915463 20044 net.cpp:165] Memory required for data: 8437788544
I0324 23:59:13.915482 20044 layer_factory.hpp:77] Creating layer conv9_2_mbox_loc_flat
I0324 23:59:13.915518 20044 net.cpp:100] Creating Layer conv9_2_mbox_loc_flat
I0324 23:59:13.915547 20044 net.cpp:434] conv9_2_mbox_loc_flat <- conv9_2_mbox_loc_perm
I0324 23:59:13.915577 20044 net.cpp:408] conv9_2_mbox_loc_flat -> conv9_2_mbox_loc_flat
I0324 23:59:13.915654 20044 net.cpp:150] Setting up conv9_2_mbox_loc_flat
I0324 23:59:13.915693 20044 net.cpp:157] Top shape: 32 16 (512)
I0324 23:59:13.915711 20044 net.cpp:165] Memory required for data: 8437790592
I0324 23:59:13.915735 20044 layer_factory.hpp:77] Creating layer conv9_2_mbox_conf
I0324 23:59:13.915772 20044 net.cpp:100] Creating Layer conv9_2_mbox_conf
I0324 23:59:13.915794 20044 net.cpp:434] conv9_2_mbox_conf <- conv9_2_conv9_2_relu_0_split_1
I0324 23:59:13.915822 20044 net.cpp:408] conv9_2_mbox_conf -> conv9_2_mbox_conf
I0324 23:59:13.918606 20044 net.cpp:150] Setting up conv9_2_mbox_conf
I0324 23:59:13.918648 20044 net.cpp:157] Top shape: 32 44 1 1 (1408)
I0324 23:59:13.918671 20044 net.cpp:165] Memory required for data: 8437796224
I0324 23:59:13.918704 20044 layer_factory.hpp:77] Creating layer conv9_2_mbox_conf_perm
I0324 23:59:13.918730 20044 net.cpp:100] Creating Layer conv9_2_mbox_conf_perm
I0324 23:59:13.918751 20044 net.cpp:434] conv9_2_mbox_conf_perm <- conv9_2_mbox_conf
I0324 23:59:13.918788 20044 net.cpp:408] conv9_2_mbox_conf_perm -> conv9_2_mbox_conf_perm
I0324 23:59:13.918963 20044 net.cpp:150] Setting up conv9_2_mbox_conf_perm
I0324 23:59:13.918993 20044 net.cpp:157] Top shape: 32 1 1 44 (1408)
I0324 23:59:13.919009 20044 net.cpp:165] Memory required for data: 8437801856
I0324 23:59:13.919030 20044 layer_factory.hpp:77] Creating layer conv9_2_mbox_conf_flat
I0324 23:59:13.919062 20044 net.cpp:100] Creating Layer conv9_2_mbox_conf_flat
I0324 23:59:13.919090 20044 net.cpp:434] conv9_2_mbox_conf_flat <- conv9_2_mbox_conf_perm
I0324 23:59:13.919121 20044 net.cpp:408] conv9_2_mbox_conf_flat -> conv9_2_mbox_conf_flat
I0324 23:59:13.919190 20044 net.cpp:150] Setting up conv9_2_mbox_conf_flat
I0324 23:59:13.919220 20044 net.cpp:157] Top shape: 32 44 (1408)
I0324 23:59:13.919237 20044 net.cpp:165] Memory required for data: 8437807488
I0324 23:59:13.919262 20044 layer_factory.hpp:77] Creating layer conv9_2_mbox_priorbox
I0324 23:59:13.919293 20044 net.cpp:100] Creating Layer conv9_2_mbox_priorbox
I0324 23:59:13.919317 20044 net.cpp:434] conv9_2_mbox_priorbox <- conv9_2_conv9_2_relu_0_split_2
I0324 23:59:13.919337 20044 net.cpp:434] conv9_2_mbox_priorbox <- data_data_0_split_6
I0324 23:59:13.919371 20044 net.cpp:408] conv9_2_mbox_priorbox -> conv9_2_mbox_priorbox
I0324 23:59:13.919440 20044 net.cpp:150] Setting up conv9_2_mbox_priorbox
I0324 23:59:13.919471 20044 net.cpp:157] Top shape: 1 2 16 (32)
I0324 23:59:13.919488 20044 net.cpp:165] Memory required for data: 8437807616
I0324 23:59:13.919513 20044 layer_factory.hpp:77] Creating layer mbox_loc
I0324 23:59:13.919544 20044 net.cpp:100] Creating Layer mbox_loc
I0324 23:59:13.919567 20044 net.cpp:434] mbox_loc <- conv4_3_norm_mbox_loc_flat
I0324 23:59:13.919589 20044 net.cpp:434] mbox_loc <- fc7_mbox_loc_flat
I0324 23:59:13.919620 20044 net.cpp:434] mbox_loc <- conv6_2_mbox_loc_flat
I0324 23:59:13.919646 20044 net.cpp:434] mbox_loc <- conv7_2_mbox_loc_flat
I0324 23:59:13.919667 20044 net.cpp:434] mbox_loc <- conv8_2_mbox_loc_flat
I0324 23:59:13.919695 20044 net.cpp:434] mbox_loc <- conv9_2_mbox_loc_flat
I0324 23:59:13.919725 20044 net.cpp:408] mbox_loc -> mbox_loc
I0324 23:59:13.919796 20044 net.cpp:150] Setting up mbox_loc
I0324 23:59:13.919827 20044 net.cpp:157] Top shape: 32 34928 (1117696)
I0324 23:59:13.919844 20044 net.cpp:165] Memory required for data: 8442278400
I0324 23:59:13.919873 20044 layer_factory.hpp:77] Creating layer mbox_conf
I0324 23:59:13.919899 20044 net.cpp:100] Creating Layer mbox_conf
I0324 23:59:13.919922 20044 net.cpp:434] mbox_conf <- conv4_3_norm_mbox_conf_flat
I0324 23:59:13.919942 20044 net.cpp:434] mbox_conf <- fc7_mbox_conf_flat
I0324 23:59:13.919970 20044 net.cpp:434] mbox_conf <- conv6_2_mbox_conf_flat
I0324 23:59:13.919996 20044 net.cpp:434] mbox_conf <- conv7_2_mbox_conf_flat
I0324 23:59:13.920017 20044 net.cpp:434] mbox_conf <- conv8_2_mbox_conf_flat
I0324 23:59:13.920037 20044 net.cpp:434] mbox_conf <- conv9_2_mbox_conf_flat
I0324 23:59:13.920068 20044 net.cpp:408] mbox_conf -> mbox_conf
I0324 23:59:13.920132 20044 net.cpp:150] Setting up mbox_conf
I0324 23:59:13.920171 20044 net.cpp:157] Top shape: 32 96052 (3073664)
I0324 23:59:13.920207 20044 net.cpp:165] Memory required for data: 8454573056
I0324 23:59:13.920228 20044 layer_factory.hpp:77] Creating layer mbox_priorbox
I0324 23:59:13.920262 20044 net.cpp:100] Creating Layer mbox_priorbox
I0324 23:59:13.920287 20044 net.cpp:434] mbox_priorbox <- conv4_3_norm_mbox_priorbox
I0324 23:59:13.920310 20044 net.cpp:434] mbox_priorbox <- fc7_mbox_priorbox
I0324 23:59:13.920339 20044 net.cpp:434] mbox_priorbox <- conv6_2_mbox_priorbox
I0324 23:59:13.920363 20044 net.cpp:434] mbox_priorbox <- conv7_2_mbox_priorbox
I0324 23:59:13.920383 20044 net.cpp:434] mbox_priorbox <- conv8_2_mbox_priorbox
I0324 23:59:13.920413 20044 net.cpp:434] mbox_priorbox <- conv9_2_mbox_priorbox
I0324 23:59:13.920440 20044 net.cpp:408] mbox_priorbox -> mbox_priorbox
I0324 23:59:13.920501 20044 net.cpp:150] Setting up mbox_priorbox
I0324 23:59:13.920531 20044 net.cpp:157] Top shape: 1 2 34928 (69856)
I0324 23:59:13.920548 20044 net.cpp:165] Memory required for data: 8454852480
I0324 23:59:13.920573 20044 layer_factory.hpp:77] Creating layer mbox_loss
I0324 23:59:13.920608 20044 net.cpp:100] Creating Layer mbox_loss
I0324 23:59:13.920630 20044 net.cpp:434] mbox_loss <- mbox_loc
I0324 23:59:13.920650 20044 net.cpp:434] mbox_loss <- mbox_conf
I0324 23:59:13.920753 20044 net.cpp:434] mbox_loss <- mbox_priorbox
…
  phase: TEST
}
layer {
  name: "data"
  type: "AnnotatedData"
  top: "data"
  top: "label"
  include {
    phase: TEST
  }
  transform_param {
    mean_value: 104
    mean_value: 117
    mean_value: 123
    resize_param {
      prob: 1
      resize_mode: WARP
      height: 300
      width: 300
      interp_mode: LINEAR
    }
  }
  data_param {
    source: "examples/NWPU_VHR/NWPU_VHR_test_lmdb"
    batch_size: 1
    backend: LMDB
  }
  annotated_data_param {
    batch_sampler {
    }
    label_map_file: "data/NWPU_VHR/labelmap_NWPU_VHR.prototxt"
  }
}
layer {
  name: "conv1_1"
  type: "Convolution"
  bottom: "data"
  top: "conv1_1"
  param {
    lr_mult: 1
    decay_mult: 1
  }
  param {
    lr_mult: 2
    decay_mult: 0
  }
  convolution_param {
    num_output: 64
    pad: 1
    kernel_size: 3
    weight_filler {
      type: "xavier"
    }
    bias_filler {
      type: "constant"
      value: 0
    }
  }
}
layer {
  name: "relu1_1"
  type: "ReLU"
  bottom: "conv1_1"
  top: "conv1_1"
}
layer {
  name: "conv1_2"
  type: "Convolution"
  bottom: "conv1_1"
  top: "conv1_2"
  param {
    lr_mult: 1
    decay_mult: 1
  }
  param {
    lr_mult: 2
    decay_mult: 0
  }
  convolution_param {
    num_output: 64
    pad: 1
    kernel_size: 3
    weight_filler {
      type: "xavier"
    }
    bias_filler {
      type: "constant"
      value: 0
    }
  }
}
layer {
  name: "relu1_2"
  type: "ReLU"
  bottom: "conv1_2"
  top: "conv1_2"
}
layer {
  name: "pool1"
  type: "Pooling"
  bottom: "conv1_2"
  top: "pool1"
  pooling_param {
    pool: MAX
    kernel_size: 2
    stride: 2
  }
}
layer {
  name: "conv2_1"
  type: "Convolution"
  bottom: "pool1"
  top: "conv2_1"
  param {
    lr_mult: 1
    decay_mult: 1
  }
  param {
    lr_mult: 2
    decay_mult: 0
  }
  convolution_param {
    num_output: 128
    pad: 1
    kernel_size: 3
    weight_filler {
      type: "xavier"
    }
    bias_filler {
      type: "constant"
      value: 0
    }
  }
}
layer {
  name: "relu2_1"
  type: "ReLU"
  bottom: "conv2_1"
  top: "conv2_1"
}
layer {
  name: "conv2_2"
  type: "Convolution"
  bottom: "conv2_1"
  top: "conv2_2"
  param {
    lr_mult: 1
    decay_mult: 1
  }
  param {
    lr_mult: 2
    decay_mult: 0
  }
  convolution_param {
    num_output: 128
    pad: 1
    kernel_size: 3
    weight_filler {
      type: "xavier"
    }
    bias_filler {
      type: "constant"
      value: 0
    }
  }
}
layer {
  name: "relu2_2"
  type: "ReLU"
  bottom: "conv2_2"
  top: "conv2_2"
}
layer {
  name: "pool2"
  type: "Pooling"
  bottom: "conv2_2"
  top: "pool2"
  pooling_param {
    pool: MAX
    kernel_size: 2
    stride: 2
  }
}
layer {
  name: "conv3_1"
  type: "Convolution"
  bottom: "pool2"
  top: "conv3_1"
  param {
    lr_mult: 1
    decay_mult: 1
  }
  param {
    lr_mult: 2
    decay_mult: 0
  }
  convolution_param {
    num_output: 256
    pad: 1
    kernel_size: 3
    weight_filler {
      type: "xavier"
    }
    bias_filler {
      type: "constant"
      value: 0
    }
  }
}
layer {
  name: "relu3_1"
  type: "ReLU"
  bottom: "conv3_1"
  top: "conv3_1"
}
layer {
  name: "conv3_2"
  type: "Convolution"
  bottom: "conv3_1"
  top: "conv3_2"
  param {
    lr_mult: 1
    decay_mult: 1
  }
  param {
    lr_mult: 2
    decay_mult: 0
  }
  convolution_param {
    num_output: 256
    pad: 1
    kernel_size: 3
    weight_filler {
      type: "xavier"
    }
    bias_filler {
      type: "constant"
      value: 0
    }
  }
}
layer {
  name: "relu3_2"
  type: "ReLU"
  bottom: "conv3_2"
  top: "conv3_2"
}
layer {
  name: "conv3_3"
  type: "Convolution"
  bottom: "conv3_2"
  top: "conv3_3"
  param {
    lr_mult: 1
    decay_mult: 1
  }
  param {
    lr_mult: 2
    decay_mult: 0
  }
  convolution_param {
    num_output: 256
    pad: 1
    kernel_size: 3
    weight_filler {
      type: "xavier"
    }
    bias_filler {
      type: "constant"
      value: 0
    }
  }
}
layer {
  name: "relu3_3"
  type: "ReLU"
  bottom: "conv3_3"
  top: "conv3_3"
}
layer {
  name: "pool3"
  type: "Pooling"
  bottom: "conv3_3"
  top: "pool3"
  pooling_param {
    pool: MAX
    kernel_size: 2
    stride: 2
  }
}
layer {
  name: "conv4_1_depthwise"
  type: "DepthwiseConvolution"
  bottom: "pool3"
  top: "conv4_1_3x3"
  param {
    lr_mult: 1
    decay_mult: 1
  }
  param {
    lr_mult: 2
    decay_mult: 0
  }
  convolution_param {
    num_output: 256
    pad: 1
    kernel_size: 3
    group: 256
    weight_filler {
      type: "xavier"
    }
    bias_filler {
      type: "constant"
      value: 0
    }
  }
}
layer {
  name: "conv4_1_3x3_relu"
  type: "ReLU"
  bottom: "conv4_1_3x3"
  top: "conv4_1_3x3"
}
layer {
  name: "conv4_1_1x1"
  type: "Convolution"
  bottom: "conv4_1_3x3"
  top: "conv4_1"
  param {
    lr_mult: 1
    decay_mult: 1
  }
  param {
    lr_mult: 2
    decay_mult: 0
  }
  convolution_param {
    num_output: 512
    pad: 0
    kernel_size: 1
    stride: 1
    weight_filler {
      type: "xavier"
    }
    bias_filler {
      type: "constant"
      value: 0
    }
  }
}
layer {
  name: "relu4_1"
  type: "ReLU"
  bottom: "conv4_1"
  top: "conv4_1"
}
layer {
  name: "conv4_2_depthwise"
  type: "DepthwiseConvolution"
  bottom: "conv4_1"
  top: "conv4_2_3x3"
  param {
    lr_mult: 1
    decay_mult: 1
  }
  param {
    lr_mult: 2
    decay_mult: 0
  }
  convolution_param {
    num_output: 512
    pad: 1
    kernel_size: 3
    group: 512
    weight_filler {
      type: "xavier"
    }
    bias_filler {
      type: "constant"
      value: 0
    }
  }
}
layer {
  name: "conv4_2_3x3_relu"
  type: "ReLU"
  bottom: "conv4_2_3x3"
  top: "conv4_2_3x3"
}
layer {
  name: "conv4_2_1x1"
  type: "Convolution"
  bottom: "conv4_2_3x3"
  top: "conv4_2"
  param {
    lr_mult: 1
    decay_mult: 1
  }
  param {
    lr_mult: 2
    decay_mult: 0
  }
  convolution_param {
    num_output: 512
    pad: 0
    kernel_size: 1
    stride: 1
    weight_filler {
      type: "xavier"
    }
    bias_filler {
      type: "constant"
      value: 0
    }
  }
}
layer {
  name: "relu4_2"
  type: "ReLU"
  bottom: "conv4_2"
  top: "conv4_2"
}
layer {
  name: "conv4_3"
  type: "Convolution"
  bottom: "conv4_2"
  top: "conv4_3"
  param {
    lr_mult: 1
    decay_mult: 1
  }
  param {
    lr_mult: 2
    decay_mult: 0
  }
  convolution_param {
    num_output: 512
    pad: 1
    kernel_size: 3
    weight_filler {
      type: "xavier"
    }
    bias_filler {
      type: "constant"
      value: 0
    }
  }
}
layer {
  name: "relu4_3"
  type: "ReLU"
  bottom: "conv4_3"
  top: "conv4_3"
}
layer {
  name: "pool4"
  type: "Pooling"
  bottom: "conv4_3"
  top: "pool4"
  pooling_param {
    pool: MAX
    kernel_size: 2
    stride: 2
  }
}
layer {
  name: "conv5_1_depthwise"
  type: "DepthwiseConvolution"
  bottom: "pool4"
  top: "conv5_1_3x3"
  param {
    lr_mult: 1
    decay_mult: 1
  }
  param {
    lr_mult: 2
    decay_mult: 0
  }
  convolution_param {
    num_output: 512
    pad: 1
    kernel_size: 3
    group: 512
    weight_filler {
      type: "xavier"
    }
    bias_filler {
      type: "constant"
      value: 0
    }
    dilation: 1
  }
}
layer {
  name: "conv5_1_3x3_relu"
  type: "ReLU"
  bottom: "conv5_1_3x3"
  top: "conv5_1_3x3"
}
layer {
  name: "conv5_1_1x1"
  type: "Convolution"
  bottom: "conv5_1_3x3"
  top: "conv5_1"
  param {
    lr_mult: 1
    decay_mult: 1
  }
  param {
    lr_mult: 2
    decay_mult: 0
  }
  convolution_param {
    num_output: 512
    pad: 0
    kernel_size: 1
    stride: 1
    weight_filler {
      type: "xavier"
    }
    bias_filler {
      type: "constant"
      value: 0
    }
    dilation: 1
  }
}
layer {
  name: "relu5_1"
  type: "ReLU"
  bottom: "conv5_1"
  top: "conv5_1"
}
layer {
  name: "conv5_2_depthwise"
  type: "DepthwiseConvolution"
  bottom: "conv5_1"
  top: "conv5_2_3x3"
  param {
    lr_mult: 1
    decay_mult: 1
  }
  param {
    lr_mult: 2
    decay_mult: 0
  }
  convolution_param {
    num_output: 512
    pad: 1
    kernel_size: 3
    group: 512
    weight_filler {
      type: "xavier"
    }
    bias_filler {
      type: "constant"
      value: 0
    }
    dilation: 1
  }
}
layer {
  name: "conv5_2_3x3_relu"
  type: "ReLU"
  bottom: "conv5_2_3x3"
  top: "conv5_2_3x3"
}
layer {
  name: "conv5_2_1x1"
  type: "Convolution"
  bottom: "conv5_2_3x3"
  top: "conv5_2"
  param {
    lr_mult: 1
    decay_mult: 1
  }
  param {
    lr_mult: 2
    decay_mult: 0
  }
  convolution_param {
    num_output: 512
    pad: 0
    kernel_size: 1
    stride: 1
    weight_filler {
      type: "xavier"
    }
    bias_filler {
      type: "constant"
      value: 0
    }
    dilation: 1
  }
}
layer {
  name: "relu5_2"
  type: "ReLU"
  bottom: "conv5_2"
  top: "conv5_2"
}
layer {
  name: "conv5_3_depthwise"
  type: "DepthwiseConvolution"
  bottom: "conv5_2"
  top: "conv5_3_3x3"
  param {
    lr_mult: 1
    decay_mult: 1
  }
  param {
    lr_mult: 2
    decay_mult: 0
  }
  convolution_param {
    num_output: 512
    pad: 1
    kernel_size: 3
    group: 512
    weight_filler {
      type: "xavier"
    }
    bias_filler {
      type: "constant"
      value: 0
    }
    dilation: 1
  }
}
layer {
  name: "conv5_3_3x3_relu"
  type: "ReLU"
  bottom: "conv5_3_3x3"
  top: "conv5_3_3x3"
}
layer {
  name: "conv5_3_1x1"
  type: "Convolution"
  bottom: "conv5_3_3x3"
  top: "conv5_3"
  param {
    lr_mult: 1
    decay_mult: 1
  }
  param {
    lr_mult: 2
    decay_mult: 0
  }
  convolution_param {
    num_output: 512
    pad: 0
    kernel_size: 1
    stride: 1
    weight_filler {
      type: "xavier"
    }
    bias_filler {
      type: "constant"
      value: 0
    }
    dilation: 1
  }
}
layer {
  name: "relu5_3"
  type: "ReLU"
  bottom: "conv5_3"
  top: "conv5_3"
}
layer {
  name: "pool5"
  type: "Pooling"
  bottom: "conv5_3"
  top: "pool5"
  pooling_param {
    pool: MAX
    kernel_size: 3
    stride: 1
    pad: 1
  }
}
layer {
  name: "fc6_depthwise"
  type: "DepthwiseConvolution"
  bottom: "pool5"
  top: "fc6_3x3"
  param {
    lr_mult: 1
    decay_mult: 1
  }
  param {
    lr_mult: 2
    decay_mult: 0
  }
  convolution_param {
    num_output: 512
    pad: 6
    kernel_size: 3
    group: 512
    weight_filler {
      type: "xavier"
    }
    bias_filler {
      type: "constant"
      value: 0
    }
    dilation: 6
  }
}
layer {
  name: "fc6_3x3_relu"
  type: "ReLU"
  bottom: "fc6_3x3"
  top: "fc6_3x3"
}
layer {
  name: "fc6_1x1"
  type: "Convolution"
  bottom: "fc6_3x3"
  top: "fc6"
  param {
    lr_mult: 1
    decay_mult: 1
  }
  param {
    lr_mult: 2
    decay_mult: 0
  }
  convolution_param {
    num_output: 1024
    pad: 0
    kernel_size: 1
    stride: 1
    weight_filler {
      type: "xavier"
    }
    bias_filler {
      type: "constant"
      value: 0
    }
    dilation: 6
  }
}
layer {
  name: "relu6"
  type: "ReLU"
  bottom: "fc6"
  top: "fc6"
}
layer {
  name: "fc7"
  type: "Convolution"
  bottom: "fc6"
  top: "fc7"
  param {
    lr_mult: 1
    decay_mult: 1
  }
  param {
    lr_mult: 2
    decay_mult: 0
  }
  convolution_param {
    num_output: 1024
    kernel_size: 1
    weight_filler {
      type: "xavier"
    }
    bias_filler {
      type: "constant"
      value: 0
    }
  }
}
layer {
  name: "relu7"
  type: "ReLU"
  bottom: "fc7"
  top: "fc7"
}
layer {
  name: "conv6_1"
  type: "Convolution"
  bottom: "fc7"
  top: "conv6_1"
  param {
    lr_mult: 1
    decay_mult: 1
  }
  param {
    lr_mult: 2
    decay_mult: 0
  }
  convolution_param {
    num_output: 256
    pad: 0
    kernel_size: 1
    stride: 1
    weight_filler {
      type: "xavier"
    }
    bias_filler {
      type: "constant"
      value: 0
    }
  }
}
layer {
  name: "conv6_1_relu"
  type: "ReLU"
  bottom: "conv6_1"
  top: "conv6_1"
}
layer {
  name: "conv6_2_depthwise"
  type: "DepthwiseConvolution"
  bottom: "conv6_1"
  top: "conv6_2_3x3"
  param {
    lr_mult: 1
    decay_mult: 1
  }
  param {
    lr_mult: 2
    decay_mult: 0
  }
  convolution_param {
    num_output: 256
    pad: 1
    kernel_size: 3
    group: 256
    stride: 2
    weight_filler {
      type: "xavier"
    }
    bias_filler {
      type: "constant"
      value: 0
    }
  }
}
layer {
  name: "conv6_2_3x3_relu"
  type: "ReLU"
  bottom: "conv6_2_3x3"
  top: "conv6_2_3x3"
}
layer {
  name: "conv6_2_1x1"
  type: "Convolution"
  bottom: "conv6_2_3x3"
  top: "conv6_2"
  param {
    lr_mult: 1
    decay_mult: 1
  }
  param {
    lr_mult: 2
    decay_mult: 0
  }
  convolution_param {
    num_output: 512
    pad: 0
    kernel_size: 1
    stride: 1
    weight_filler {
      type: "xavier"
    }
    bias_filler {
      type: "constant"
      value: 0
    }
  }
}
layer {
  name: "conv6_2_relu"
  type: "ReLU"
  bottom: "conv6_2"
  top: "conv6_2"
}
layer {
  name: "conv7_1"
  type: "Convolution"
  bottom: "conv6_2"
  top: "conv7_1"
  param {
    lr_mult: 1
    decay_mult: 1
  }
  param {
    lr_mult: 2
    decay_mult: 0
  }
  convolution_param {
    num_output: 128
    pad: 0
    kernel_size: 1
    stride: 1
    weight_filler {
      type: "xavier"
    }
    bias_filler {
      type: "constant"
      value: 0
    }
  }
}
layer {
  name: "conv7_1_relu"
  type: "ReLU"
  bottom: "conv7_1"
  top: "conv7_1"
}
layer {
  name: "conv7_2"
  type: "Convolution"
  bottom: "conv7_1"
  top: "conv7_2"
  param {
    lr_mult: 1
    decay_mult: 1
  }
  param {
    lr_mult: 2
    decay_mult: 0
  }
  convolution_param {
    num_output: 256
    pad: 1
    kernel_size: 3
    stride: 2
    weight_filler {
      type: "xavier"
    }
    bias_filler {
      type: "constant"
      value: 0
    }
  }
}
layer {
  name: "conv7_2_relu"
  type: "ReLU"
  bottom: "conv7_2"
  top: "conv7_2"
}
layer {
  name: "conv8_1"
  type: "Convolution"
  bottom: "conv7_2"
  top: "conv8_1"
  param {
    lr_mult: 1
    decay_mult: 1
  }
  param {
    lr_mult: 2
    decay_mult: 0
  }
  convolution_param {
    num_output: 128
    pad: 0
    kernel_size: 1
    stride: 1
    weight_filler {
      type: "xavier"
    }
    bias_filler {
      type: "constant"
      value: 0
    }
  }
}
layer {
  name: "conv8_1_relu"
  type: "ReLU"
  bottom: "conv8_1"
  top: "conv8_1"
}
layer {
  name: "conv8_2"
  type: "Convolution"
  bottom: "conv8_1"
  top: "conv8_2"
  param {
    lr_mult: 1
    decay_mult: 1
  }
  param {
    lr_mult: 2
    decay_mult: 0
  }
  convolution_param {
    num_output: 256
    pad: 0
    kernel_size: 3
    stride: 1
    weight_filler {
      type: "xavier"
    }
    bias_filler {
      type: "constant"
      value: 0
    }
  }
}
layer {
  name: "conv8_2_relu"
  type: "ReLU"
  bottom: "conv8_2"
  top: "conv8_2"
}
layer {
  name: "conv9_1"
  type: "Convolution"
  bottom: "conv8_2"
  top: "conv9_1"
  param {
    lr_mult: 1
    decay_mult: 1
  }
  param {
    lr_mult: 2
    decay_mult: 0
  }
  convolution_param {
    num_output: 128
    pad: 0
    kernel_size: 1
    stride: 1
    weight_filler {
      type: "xavier"
    }
    bias_filler {
      type: "constant"
      value: 0
    }
  }
}
layer {
  name: "conv9_1_relu"
  type: "ReLU"
  bottom: "conv9_1"
  top: "conv9_1"
}
layer {
  name: "conv9_2"
  type: "Convolution"
  bottom: "conv9_1"
  top: "conv9_2"
  param {
    lr_mult: 1
    decay_mult: 1
  }
  param {
    lr_mult: 2
    decay_mult: 0
  }
  convolution_param {
    num_output: 256
    pad: 0
    kernel_size: 3
    stride: 1
    weight_filler {
      type: "xavier"
    }
    bias_filler {
      type: "constant"
      value: 0
    }
  }
}
layer {
  name: "conv9_2_relu"
  type: "ReLU"
  bottom: "conv9_2"
  top: "conv9_2"
}
layer {
  name: "conv4_3_norm"
  type: "Normalize"
  bottom: "conv4_3"
  top: "conv4_3_norm"
  norm_param {
    across_spatial: false
    scale_filler {
      type: "constant"
      value: 20
    }
    channel_shared: false
  }
}
layer {
  name: "conv4_3_norm_mbox_loc"
  type: "Convolution"
  bottom: "conv4_3_norm"
  top: "conv4_3_norm_mbox_loc"
  param {
    lr_mult: 1
    decay_mult: 1
  }
  param {
    lr_mult: 2
    decay_mult: 0
  }
  convolution_param {
    num_output: 16
    pad: 1
    kernel_size: 3
    stride: 1
    weight_filler {
      type: "xavier"
    }
    bias_filler {
      type: "constant"
      value: 0
    }
  }
}
layer {
  name: "conv4_3_norm_mbox_loc_perm"
  type: "Permute"
  bottom: "conv4_3_norm_mbox_loc"
  top: "conv4_3_norm_mbox_loc_perm"
  permute_param {
    order: 0
    order: 2
    order: 3
    order: 1
  }
}
layer {
  name: "conv4_3_norm_mbox_loc_flat"
  type: "Flatten"
  bottom: "conv4_3_norm_mbox_loc_perm"
  top: "conv4_3_norm_mbox_loc_flat"
  flatten_param {
    axis: 1
  }
}
layer {
  name: "conv4_3_norm_mbox_conf"
  type: "Convolution"
  bottom: "conv4_3_norm"
  top: "conv4_3_norm_mbox_conf"
  param {
    lr_mult: 1
    decay_mult: 1
  }
  param {
    lr_mult: 2
    decay_mult: 0
  }
  convolution_param {
    num_output: 44
    pad: 1
    kernel_size: 3
    stride: 1
    weight_filler {
      type: "xavier"
    }
    bias_filler {
      type: "constant"
      value: 0
    }
  }
}
layer {
  name: "conv4_3_norm_mbox_conf_perm"
  type: "Permute"
  bottom: "conv4_3_norm_mbox_conf"
  top: "conv4_3_norm_mbox_conf_perm"
  permute_param {
    order: 0
    order: 2
    order: 3
    order: 1
  }
}
layer {
  name: "conv4_3_norm_mbox_conf_flat"
  type: "Flatten"
  bottom: "conv4_3_norm_mbox_conf_perm"
  top: "conv4_3_norm_mbox_conf_flat"
  flatten_param {
    axis: 1
  }
}
layer {
  name: "conv4_3_norm_mbox_priorbox"
  type: "PriorBox"
  bottom: "conv4_3_norm"
  bottom: "data"
  top: "conv4_3_norm_mbox_priorbox"
  prior_box_param {
    min_size: 30
    max_size: 60
    aspect_ratio: 2
    flip: true
    clip: false
    variance: 0.1
    variance: 0.1
    variance: 0.2
    variance: 0.2
    step: 8
    offset: 0.5
  }
}
layer {
  name: "fc7_mbox_loc"
  type: "Convolution"
  bottom: "fc7"
  top: "fc7_mbox_loc"
  param {
    lr_mult: 1
    decay_mult: 1
  }
  param {
    lr_mult: 2
    decay_mult: 0
  }
  convolution_param {
    num_output: 24
    pad: 1
    kernel_size: 3
    stride: 1
    weight_filler {
      type: "xavier"
    }
    bias_filler {
      type: "constant"
      value: 0
    }
  }
}
layer {
  name: "fc7_mbox_loc_perm"
  type: "Permute"
  bottom: "fc7_mbox_loc"
  top: "fc7_mbox_loc_perm"
  permute_param {
    order: 0
    order: 2
    order: 3
    order: 1
  }
}
layer {
  name: "fc7_mbox_loc_flat"
  type: "Flatten"
  bottom: "fc7_mbox_loc_perm"
  top: "fc7_mbox_loc_flat"
  flatten_param {
    axis: 1
  }
}
layer {
  name: "fc7_mbox_conf"
  type: "Convolution"
  bottom: "fc7"
  top: "fc7_mbox_conf"
  param {
    lr_mult: 1
    decay_mult: 1
  }
  param {
    lr_mult: 2
    decay_mult: 0
  }
  convolution_param {
    num_output: 66
    pad: 1
    kernel_size: 3
    stride: 1
    weight_filler {
      type: "xavier"
    }
    bias_filler {
      type: "constant"
      value: 0
    }
  }
}
layer {
  name: "fc7_mbox_conf_perm"
  type: "Permute"
  bottom: "fc7_mbox_conf"
  top: "fc7_mbox_conf_perm"
  permute_param {
    order: 0
    order: 2
    order: 3
    order: 1
  }
}
layer {
  name: "fc7_mbox_conf_flat"
  type: "Flatten"
  bottom: "fc7_mbox_conf_perm"
  top: "fc7_mbox_conf_flat"
  flatten_param {
    axis: 1
  }
}
layer {
  name: "fc7_mbox_priorbox"
  type: "PriorBox"
  bottom: "fc7"
  bottom: "data"
  top: "fc7_mbox_priorbox"
  prior_box_param {
    min_size: 60
    max_size: 111
    aspect_ratio: 2
    aspect_ratio: 3
    flip: true
    clip: false
    variance: 0.1
    variance: 0.1
    variance: 0.2
    variance: 0.2
    step: 16
    offset: 0.5
  }
}
layer {
  name: "conv6_2_mbox_loc"
  type: "Convolution"
  bottom: "conv6_2"
  top: "conv6_2_mbox_loc"
  param {
    lr_mult: 1
    decay_mult: 1
  }
  param {
    lr_mult: 2
    decay_mult: 0
  }
  convolution_param {
    num_output: 24
    pad: 1
    kernel_size: 3
    stride: 1
    weight_filler {
      type: "xavier"
    }
    bias_filler {
      type: "constant"
      value: 0
    }
  }
}
layer {
  name: "conv6_2_mbox_loc_perm"
  type: "Permute"
  bottom: "conv6_2_mbox_loc"
  top: "conv6_2_mbox_loc_perm"
  permute_param {
    order: 0
    order: 2
    order: 3
    order: 1
  }
}
layer {
  name: "conv6_2_mbox_loc_flat"
  type: "Flatten"
  bottom: "conv6_2_mbox_loc_perm"
  top: "conv6_2_mbox_loc_flat"
  flatten_param {
    axis: 1
  }
}
layer {
  name: "conv6_2_mbox_conf"
  type: "Convolution"
  bottom: "conv6_2"
  top: "conv6_2_mbox_conf"
  param {
    lr_mult: 1
    decay_mult: 1
  }
  param {
    lr_mult: 2
    decay_mult: 0
  }
  convolution_param {
    num_output: 66
    pad: 1
    kernel_size: 3
    stride: 1
    weight_filler {
      type: "xavier"
    }
    bias_filler {
      type: "constant"
      value: 0
    }
  }
}
layer {
  name: "conv6_2_mbox_conf_perm"
  type: "Permute"
  bottom: "conv6_2_mbox_conf"
  top: "conv6_2_mbox_conf_perm"
  permute_param {
    order: 0
    order: 2
    order: 3
    order: 1
  }
}
layer {
  name: "conv6_2_mbox_conf_flat"
  type: "Flatten"
  bottom: "conv6_2_mbox_conf_perm"
  top: "conv6_2_mbox_conf_flat"
  flatten_param {
    axis: 1
  }
}
layer {
  name: "conv6_2_mbox_priorbox"
  type: "PriorBox"
  bottom: "conv6_2"
  bottom: "data"
  top: "conv6_2_mbox_priorbox"
  prior_box_param {
    min_size: 111
    max_size: 162
    aspect_ratio: 2
    aspect_ratio: 3
    flip: true
    clip: false
    variance: 0.1
    variance: 0.1
    variance: 0.2
    variance: 0.2
    step: 32
    offset: 0.5
  }
}
layer {
  name: "conv7_2_mbox_loc"
  type: "Convolution"
  bottom: "conv7_2"
  top: "conv7_2_mbox_loc"
  param {
    lr_mult: 1
    decay_mult: 1
  }
  param {
    lr_mult: 2
    decay_mult: 0
  }
  convolution_param {
    num_output: 24
    pad: 1
    kernel_size: 3
    stride: 1
    weight_filler {
      type: "xavier"
    }
    bias_filler {
      type: "constant"
      value: 0
    }
  }
}
layer {
  name: "conv7_2_mbox_loc_perm"
  type: "Permute"
  bottom: "conv7_2_mbox_loc"
  top: "conv7_2_mbox_loc_perm"
  permute_param {
    order: 0
    order: 2
    order: 3
    order: 1
  }
}
layer {
  name: "conv7_2_mbox_loc_flat"
  type: "Flatten"
  bottom: "conv7_2_mbox_loc_perm"
  top: "conv7_2_mbox_loc_flat"
  flatten_param {
    axis: 1
  }
}
layer {
  name: "conv7_2_mbox_conf"
  type: "Convolution"
  bottom: "conv7_2"
  top: "conv7_2_mbox_conf"
  param {
    lr_mult: 1
    decay_mult: 1
  }
  param {
    lr_mult: 2
    decay_mult: 0
  }
  convolution_param {
    num_output: 66
    pad: 1
    kernel_size: 3
    stride: 1
    weight_filler {
      type: "xavier"
    }
    bias_filler {
      type: "constant"
      value: 0
    }
  }
}
layer {
  name: "conv7_2_mbox_conf_perm"
  type: "Permute"
  bottom: "conv7_2_mbox_conf"
  top: "conv7_2_mbox_conf_perm"
  permute_param {
    order: 0
    order: 2
    order: 3
    order: 1
  }
}
layer {
  name: "conv7_2_mbox_conf_flat"
  type: "Flatten"
  bottom: "conv7_2_mbox_conf_perm"
  top: "conv7_2_mbox_conf_flat"
  flatten_param {
    axis: 1
  }
}
layer {
  name: "conv7_2_mbox_priorbox"
  type: "PriorBox"
  bottom: "conv7_2"
  bottom: "data"
  top: "conv7_2_mbox_priorbox"
  prior_box_param {
    min_size: 162
    max_size: 213
    aspect_ratio: 2
    aspect_ratio: 3
    flip: true
    clip: false
    variance: 0.1
    variance: 0.1
    variance: 0.2
    variance: 0.2
    step: 64
    offset: 0.5
  }
}
layer {
  name: "conv8_2_mbox_loc"
  type: "Convolution"
  bottom: "conv8_2"
  top: "conv8_2_mbox_loc"
  param {
    lr_mult: 1
    decay_mult: 1
  }
  param {
    lr_mult: 2
    decay_mult: 0
  }
  convolution_param {
    num_output: 16
    pad: 1
    kernel_size: 3
    stride: 1
    weight_filler {
      type: "xavier"
    }
    bias_filler {
      type: "constant"
      value: 0
    }
  }
}
layer {
  name: "conv8_2_mbox_loc_perm"
  type: "Permute"
  bottom: "conv8_2_mbox_loc"
  top: "conv8_2_mbox_loc_perm"
  permute_param {
    order: 0
    order: 2
    order: 3
    order: 1
  }
}
layer {
  name: "conv8_2_mbox_loc_flat"
  type: "Flatten"
  bottom: "conv8_2_mbox_loc_perm"
  top: "conv8_2_mbox_loc_flat"
  flatten_param {
    axis: 1
  }
}
layer {
  name: "conv8_2_mbox_conf"
  type: "Convolution"
  bottom: "conv8_2"
  top: "conv8_2_mbox_conf"
  param {
    lr_mult: 1
    decay_mult: 1
  }
  param {
    lr_mult: 2
    decay_mult: 0
  }
  convolution_param {
    num_output: 44
    pad: 1
    kernel_size: 3
    stride: 1
    weight_filler {
      type: "xavier"
    }
    bias_filler {
      type: "constant"
      value: 0
    }
  }
}
layer {
  name: "conv8_2_mbox_conf_perm"
  type: "Permute"
  bottom: "conv8_2_mbox_conf"
  top: "conv8_2_mbox_conf_perm"
  permute_param {
    order: 0
    order: 2
    order: 3
    order: 1
  }
}
layer {
  name: "conv8_2_mbox_conf_flat"
  type: "Flatten"
  bottom: "conv8_2_mbox_conf_perm"
  top: "conv8_2_mbox_conf_flat"
  flatten_param {
    axis: 1
  }
}
layer {
  name: "conv8_2_mbox_priorbox"
  type: "PriorBox"
  bottom: "conv8_2"
  bottom: "data"
  top: "conv8_2_mbox_priorbox"
  prior_box_param {
    min_size: 213
    max_size: 264
    aspect_ratio: 2
    flip: true
    clip: false
    variance: 0.1
    variance: 0.1
    variance: 0.2
    variance: 0.2
    step: 100
    offset: 0.5
  }
}
layer {
  name: "conv9_2_mbox_loc"
  type: "Convolution"
  bottom: "conv9_2"
  top: "conv9_2_mbox_loc"
  param {
    lr_mult: 1
    decay_mult: 1
  }
  param {
    lr_mult: 2
    decay_mult: 0
  }
  convolution_param {
    num_output: 16
    pad: 1
    kernel_size: 3
    stride: 1
    weight_filler {
      type: "xavier"
    }
    bias_filler {
      type: "constant"
      value: 0
    }
  }
}
layer {
  name: "conv9_2_mbox_loc_perm"
  type: "Permute"
  bottom: "conv9_2_mbox_loc"
  top: "conv9_2_mbox_loc_perm"
  permute_param {
    order: 0
    order: 2
    order: 3
    order: 1
  }
}
layer {
  name: "conv9_2_mbox_loc_flat"
  type: "Flatten"
  bottom: "conv9_2_mbox_loc_perm"
  top: "conv9_2_mbox_loc_flat"
  flatten_param {
    axis: 1
  }
}
layer {
  name: "conv9_2_mbox_conf"
  type: "Convolution"
  bottom: "conv9_2"
  top: "conv9_2_mbox_conf"
  param {
    lr_mult: 1
    decay_mult: 1
  }
  param {
    lr_mult: 2
    decay_mult: 0
  }
  convolution_param {
    num_output: 44
    pad: 1
    kernel_size: 3
    stride: 1
    weight_filler {
      type: "xavier"
    }
    bias_filler {
      type: "constant"
      value: 0
    }
  }
}
layer {
  name: "conv9_2_mbox_conf_perm"
  type: "Permute"
  bottom: "conv9_2_mbox_conf"
  top: "conv9_2_mbox_conf_perm"
  permute_param {
    order: 0
    order: 2
    order: 3
    order: 1
  }
}
layer {
  name: "conv9_2_mbox_conf_flat"
  type: "Flatten"
  bottom: "conv9_2_mbox_conf_perm"
  top: "conv9_2_mbox_conf_flat"
  flatten_param {
    axis: 1
  }
}
layer {
  name: "conv9_2_mbox_priorbox"
  type: "PriorBox"
  bottom: "conv9_2"
  bottom: "data"
  top: "conv9_2_mbox_priorbox"
  prior_box_param {
    min_size: 264
    max_size: 315
    aspect_ratio: 2
    flip: true
    clip: false
    variance: 0.1
    variance: 0.1
    variance: 0.2
    variance: 0.2
    step: 300
    offset: 0.5
  }
}
layer {
  name: "mbox_loc"
  type: "Concat"
  bottom: "conv4_3_norm_mbox_loc_flat"
  bottom: "fc7_mbox_loc_flat"
  bottom: "conv6_2_mbox_loc_flat"
  bottom: "conv7_2_mbox_loc_flat"
  bottom: "conv8_2_mbox_loc_flat"
  bottom: "conv9_2_mbox_loc_flat"
  top: "mbox_loc"
  concat_param {
    axis: 1
  }
}
layer {
  name: "mbox_conf"
  type: "Concat"
  bottom: "conv4_3_norm_mbox_conf_flat"
  bottom: "fc7_mbox_conf_flat"
  bottom: "conv6_2_mbox_conf_flat"
  bottom: "conv7_2_mbox_conf_flat"
  bottom: "conv8_2_mbox_conf_flat"
  bottom: "conv9_2_mbox_conf_flat"
  top: "mbox_conf"
  concat_param {
    axis: 1
  }
}
layer {
  name: "mbox_priorbox"
  type: "Concat"
  bottom: "conv4_3_norm_mbox_priorbox"
  bottom: "fc7_mbox_priorbox"
  bottom: "conv6_2_mbox_priorbox"
  bottom: "conv7_2_mbox_priorbox"
  bottom: "conv8_2_mbox_priorbox"
  bottom: "conv9_2_mbox_priorbox"
  top: "mbox_priorbox"
  concat_param {
    axis: 2
  }
}
layer {
  name: "mbox_conf_reshape"
  type: "Reshape"
  bottom: "mbox_conf"
  top: "mbox_conf_reshape"
  reshape_param {
    shape {
      dim: 0
      dim: -1
      dim: 11
    }
  }
}
layer {
  name: "mbox_conf_softmax"
  type: "Softmax"
  bottom: "mbox_conf_reshape"
  top: "mbox_conf_softmax"
  softmax_param {
    axis: 2
  }
}
layer {
  name: "mbox_conf_flatten"
  type: "Flatten"
  bottom: "mbox_conf_softmax"
  top: "mbox_conf_flatten"
  flatten_param {
    axis: 1
  }
}
layer {
  name: "detection_out"
  type: "DetectionOutput"
  bottom: "mbox_loc"
  bottom: "mbox_conf_flatten"
  bottom: "mbox_priorbox"
  top: "detection_out"
  include {
    phase: TEST
  }
  detection_output_param {
    num_classes: 11
    share_location: true
    background_label_id: 0
    nms_param {
      nms_threshold: 0.45
      top_k: 400
    }
    save_output_param {
      output_directory: "/home/zs/data/VOCdevkit/results/VOC2007/SSD_300x300_0324_conv4_2/Main"
      output_name_prefix: "comp4_det_test_"
      output_format: "VOC"
      label_map_file: "data/NWPU_VHR/labelmap_NWPU_VHR.prototxt"
      name_size_file: "data/NWPU_VHR/test_name_size.txt"
      num_test_image: 123
    }
    code_type: CENTER_SIZE
    keep_top_k: 200
    confidence_threshold: 0.01
  }
}
layer {
  name: "detection_eval"
  type: "DetectionEvaluate"
  bottom: "detection_out"
  bottom: "label"
  top: "detection_eval"
  include {
    phase: TEST
  }
  detection_evaluate_param {
    num_classes: 11
    background_label_id: 0
    overlap_threshold: 0.5
    evaluate_difficult_gt: false
    name_size_file: "data/NWPU_VHR/test_name_size.txt"
  }
}
I0324 23:59:13.933368 20044 layer_factory.hpp:77] Creating layer data
I0324 23:59:13.933475 20044 net.cpp:100] Creating Layer data
I0324 23:59:13.933506 20044 net.cpp:408] data -> data
I0324 23:59:13.933538 20044 net.cpp:408] data -> label
I0324 23:59:13.950613 20061 db_lmdb.cpp:35] Opened lmdb examples/NWPU_VHR/NWPU_VHR_test_lmdb
I0324 23:59:13.969632 20044 annotated_data_layer.cpp:62] output data size: 1,3,300,300
I0324 23:59:13.975589 20044 net.cpp:150] Setting up data
I0324 23:59:13.975755 20044 net.cpp:157] Top shape: 1 3 300 300 (270000)
I0324 23:59:13.975818 20044 net.cpp:157] Top shape: 1 1 4 8 (32)
I0324 23:59:13.975881 20044 net.cpp:165] Memory required for data: 1080128
I0324 23:59:13.975952 20044 layer_factory.hpp:77] Creating layer data_data_0_split
I0324 23:59:13.976035 20044 net.cpp:100] Creating Layer data_data_0_split
I0324 23:59:13.976105 20044 net.cpp:434] data_data_0_split <- data
I0324 23:59:13.976177 20044 net.cpp:408] data_data_0_split -> data_data_0_split_0
I0324 23:59:13.976258 20044 net.cpp:408] data_data_0_split -> data_data_0_split_1
I0324 23:59:13.976332 20044 net.cpp:408] data_data_0_split -> data_data_0_split_2
I0324 23:59:13.976408 20044 net.cpp:408] data_data_0_split -> data_data_0_split_3
I0324 23:59:13.976483 20044 net.cpp:408] data_data_0_split -> data_data_0_split_4
I0324 23:59:13.976560 20044 net.cpp:408] data_data_0_split -> data_data_0_split_5
I0324 23:59:13.976639 20044 net.cpp:408] data_data_0_split -> data_data_0_split_6
I0324 23:59:13.976904 20044 net.cpp:150] Setting up data_data_0_split
I0324 23:59:13.976995 20044 net.cpp:157] Top shape: 1 3 300 300 (270000)
I0324 23:59:13.977061 20044 net.cpp:157] Top shape: 1 3 300 300 (270000)
I0324 23:59:13.977133 20044 net.cpp:157] Top shape: 1 3 300 300 (270000)
I0324 23:59:13.977205 20044 net.cpp:157] Top shape: 1 3 300 300 (270000)
I0324 23:59:13.977272 20044 net.cpp:157] Top shape: 1 3 300 300 (270000)
I0324 23:59:13.977340 20044 net.cpp:157] Top shape: 1 3 300 300 (270000)
I0324 23:59:13.977413 20044 net.cpp:157] Top shape: 1 3 300 300 (270000)
I0324 23:59:13.977478 20044 net.cpp:165] Memory required for data: 8640128
I0324 23:59:13.977545 20044 layer_factory.hpp:77] Creating layer conv1_1
I0324 23:59:13.977624 20044 net.cpp:100] Creating Layer conv1_1
I0324 23:59:13.977691 20044 net.cpp:434] conv1_1 <- data_data_0_split_0
I0324 23:59:13.977790 20044 net.cpp:408] conv1_1 -> conv1_1
I0324 23:59:13.981267 20044 net.cpp:150] Setting up conv1_1
I0324 23:59:13.981422 20044 net.cpp:157] Top shape: 1 64 300 300 (5760000)
I0324 23:59:13.981482 20044 net.cpp:165] Memory required for data: 31680128
I0324 23:59:13.981565 20044 layer_factory.hpp:77] Creating layer relu1_1
I0324 23:59:13.981640 20044 net.cpp:100] Creating Layer relu1_1
I0324 23:59:13.981707 20044 net.cpp:434] relu1_1 <- conv1_1
I0324 23:59:13.982038 20044 net.cpp:395] relu1_1 -> conv1_1 (in-place)
I0324 23:59:13.982441 20044 net.cpp:150] Setting up relu1_1
I0324 23:59:13.982547 20044 net.cpp:157] Top shape: 1 64 300 300 (5760000)
I0324 23:59:13.982612 20044 net.cpp:165] Memory required for data: 54720128
I0324 23:59:13.982682 20044 layer_factory.hpp:77] Creating layer conv1_2
I0324 23:59:13.982764 20044 net.cpp:100] Creating Layer conv1_2
I0324 23:59:13.982830 20044 net.cpp:434] conv1_2 <- conv1_1
I0324 23:59:13.982903 20044 net.cpp:408] conv1_2 -> conv1_2
I0324 23:59:13.985458 20044 net.cpp:150] Setting up conv1_2
I0324 23:59:13.985607 20044 net.cpp:157] Top shape: 1 64 300 300 (5760000)
I0324 23:59:13.985672 20044 net.cpp:165] Memory required for data: 77760128
I0324 23:59:13.985776 20044 layer_factory.hpp:77] Creating layer relu1_2
I0324 23:59:13.985853 20044 net.cpp:100] Creating Layer relu1_2
I0324 23:59:13.985918 20044 net.cpp:434] relu1_2 <- conv1_2
I0324 23:59:13.985987 20044 net.cpp:395] relu1_2 -> conv1_2 (in-place)
I0324 23:59:13.986285 20044 net.cpp:150] Setting up relu1_2
I0324 23:59:13.986376 20044 net.cpp:157] Top shape: 1 64 300 300 (5760000)
I0324 23:59:13.986443 20044 net.cpp:165] Memory required for data: 100800128
I0324 23:59:13.986510 20044 layer_factory.hpp:77] Creating layer pool1
I0324 23:59:13.986578 20044 net.cpp:100] Creating Layer pool1
I0324 23:59:13.986642 20044 net.cpp:434] pool1 <- conv1_2
I0324 23:59:13.986711 20044 net.cpp:408] pool1 -> pool1
I0324 23:59:13.986855 20044 net.cpp:150] Setting up pool1
I0324 23:59:13.986949 20044 net.cpp:157] Top shape: 1 64 150 150 (1440000)
I0324 23:59:13.987015 20044 net.cpp:165] Memory required for data: 106560128
I0324 23:59:13.987080 20044 layer_factory.hpp:77] Creating layer conv2_1
I0324 23:59:13.987155 20044 net.cpp:100] Creating Layer conv2_1
I0324 23:59:13.987221 20044 net.cpp:434] conv2_1 <- pool1
I0324 23:59:13.987293 20044 net.cpp:408] conv2_1 -> conv2_1
I0324 23:59:13.990757 20044 net.cpp:150] Setting up conv2_1
I0324 23:59:13.990901 20044 net.cpp:157] Top shape: 1 128 150 150 (2880000)
I0324 23:59:13.990960 20044 net.cpp:165] Memory required for data: 118080128
I0324 23:59:13.991041 20044 layer_factory.hpp:77] Creating layer relu2_1
I0324 23:59:13.991116 20044 net.cpp:100] Creating Layer relu2_1
I0324 23:59:13.991181 20044 net.cpp:434] relu2_1 <- conv2_1
I0324 23:59:13.991271 20044 net.cpp:395] relu2_1 -> conv2_1 (in-place)
I0324 23:59:13.992389 20044 net.cpp:150] Setting up relu2_1
I0324 23:59:13.992488 20044 net.cpp:157] Top shape: 1 128 150 150 (2880000)
I0324 23:59:13.992566 20044 net.cpp:165] Memory required for data: 129600128
I0324 23:59:13.992635 20044 layer_factory.hpp:77] Creating layer conv2_2
I0324 23:59:13.992715 20044 net.cpp:100] Creating Layer conv2_2
I0324 23:59:13.992780 20044 net.cpp:434] conv2_2 <- conv2_1
I0324 23:59:13.992851 20044 net.cpp:408] conv2_2 -> conv2_2
I0324 23:59:13.996984 20044 net.cpp:150] Setting up conv2_2
I0324 23:59:13.997143 20044 net.cpp:157] Top shape: 1 128 150 150 (2880000)
I0324 23:59:13.997202 20044 net.cpp:165] Memory required for data: 141120128
I0324 23:59:13.997279 20044 layer_factory.hpp:77] Creating layer relu2_2
I0324 23:59:13.997354 20044 net.cpp:100] Creating Layer relu2_2
I0324 23:59:13.997423 20044 net.cpp:434] relu2_2 <- conv2_2
I0324 23:59:13.997493 20044 net.cpp:395] relu2_2 -> conv2_2 (in-place)
I0324 23:59:13.997850 20044 net.cpp:150] Setting up relu2_2
I0324 23:59:13.997942 20044 net.cpp:157] Top shape: 1 128 150 150 (2880000)
I0324 23:59:13.998008 20044 net.cpp:165] Memory required for data: 152640128
I0324 23:59:13.998075 20044 layer_factory.hpp:77] Creating layer pool2
I0324 23:59:13.998145 20044 net.cpp:100] Creating Layer pool2
I0324 23:59:13.998214 20044 net.cpp:434] pool2 <- conv2_2
I0324 23:59:13.998282 20044 net.cpp:408] pool2 -> pool2
I0324 23:59:13.998437 20044 net.cpp:150] Setting up pool2
I0324 23:59:13.998523 20044 net.cpp:157] Top shape: 1 128 75 75 (720000)
I0324 23:59:13.998585 20044 net.cpp:165] Memory required for data: 155520128
I0324 23:59:13.998652 20044 layer_factory.hpp:77] Creating layer conv3_1
I0324 23:59:13.998729 20044 net.cpp:100] Creating Layer conv3_1
I0324 23:59:13.998805 20044 net.cpp:434] conv3_1 <- pool2
I0324 23:59:13.998886 20044 net.cpp:408] conv3_1 -> conv3_1
I0324 23:59:14.005586 20044 net.cpp:150] Setting up conv3_1
I0324 23:59:14.005766 20044 net.cpp:157] Top shape: 1 256 75 75 (1440000)
I0324 23:59:14.005836 20044 net.cpp:165] Memory required for data: 161280128
I0324 23:59:14.005920 20044 layer_factory.hpp:77] Creating layer relu3_1
I0324 23:59:14.005995 20044 net.cpp:100] Creating Layer relu3_1
I0324 23:59:14.006060 20044 net.cpp:434] relu3_1 <- conv3_1
I0324 23:59:14.006129 20044 net.cpp:395] relu3_1 -> conv3_1 (in-place)
I0324 23:59:14.006466 20044 net.cpp:150] Setting up relu3_1
I0324 23:59:14.006556 20044 net.cpp:157] Top shape: 1 256 75 75 (1440000)
I0324 23:59:14.006619 20044 net.cpp:165] Memory required for data: 167040128
I0324 23:59:14.006685 20044 layer_factory.hpp:77] Creating layer conv3_2
I0324 23:59:14.006762 20044 net.cpp:100] Creating Layer conv3_2
I0324 23:59:14.006829 20044 net.cpp:434] conv3_2 <- conv3_1
I0324 23:59:14.006899 20044 net.cpp:408] conv3_2 -> conv3_2
I0324 23:59:14.015388 20044 net.cpp:150] Setting up conv3_2
I0324 23:59:14.015416 20044 net.cpp:157] Top shape: 1 256 75 75 (1440000)
I0324 23:59:14.015421 20044 net.cpp:165] Memory required for data: 172800128
I0324 23:59:14.015434 20044 layer_factory.hpp:77] Creating layer relu3_2
I0324 23:59:14.015444 20044 net.cpp:100] Creating Layer relu3_2
I0324 23:59:14.015450 20044 net.cpp:434] relu3_2 <- conv3_2
I0324 23:59:14.015457 20044 net.cpp:395] relu3_2 -> conv3_2 (in-place)
I0324 23:59:14.016198 20044 net.cpp:150] Setting up relu3_2
I0324 23:59:14.016212 20044 net.cpp:157] Top shape: 1 256 75 75 (1440000)
I0324 23:59:14.016216 20044 net.cpp:165] Memory required for data: 178560128
I0324 23:59:14.016222 20044 layer_factory.hpp:77] Creating layer conv3_3
I0324 23:59:14.016235 20044 net.cpp:100] Creating Layer conv3_3
I0324 23:59:14.016240 20044 net.cpp:434] conv3_3 <- conv3_2
I0324 23:59:14.016247 20044 net.cpp:408] conv3_3 -> conv3_3
I0324 23:59:14.021823 20044 net.cpp:150] Setting up conv3_3
I0324 23:59:14.021853 20044 net.cpp:157] Top shape: 1 256 75 75 (1440000)
I0324 23:59:14.021860 20044 net.cpp:165] Memory required for data: 184320128
I0324 23:59:14.021879 20044 layer_factory.hpp:77] Creating layer relu3_3
I0324 23:59:14.021894 20044 net.cpp:100] Creating Layer relu3_3
I0324 23:59:14.021905 20044 net.cpp:434] relu3_3 <- conv3_3
I0324 23:59:14.021914 20044 net.cpp:395] relu3_3 -> conv3_3 (in-place)
I0324 23:59:14.022150 20044 net.cpp:150] Setting up relu3_3
I0324 23:59:14.022166 20044 net.cpp:157] Top shape: 1 256 75 75 (1440000)
I0324 23:59:14.022171 20044 net.cpp:165] Memory required for data: 190080128
I0324 23:59:14.022177 20044 layer_factory.hpp:77] Creating layer pool3
I0324 23:59:14.022187 20044 net.cpp:100] Creating Layer pool3
I0324 23:59:14.022195 20044 net.cpp:434] pool3 <- conv3_3
I0324 23:59:14.022205 20044 net.cpp:408] pool3 -> pool3
I0324 23:59:14.022264 20044 net.cpp:150] Setting up pool3
I0324 23:59:14.022274 20044 net.cpp:157] Top shape: 1 256 38 38 (369664)
I0324 23:59:14.022279 20044 net.cpp:165] Memory required for data: 191558784
I0324 23:59:14.022285 20044 layer_factory.hpp:77] Creating layer conv4_1_depthwise
I0324 23:59:14.022300 20044 net.cpp:100] Creating Layer conv4_1_depthwise
I0324 23:59:14.022327 20044 net.cpp:434] conv4_1_depthwise <- pool3
I0324 23:59:14.022352 20044 net.cpp:408] conv4_1_depthwise -> conv4_1_3x3
I0324 23:59:14.022668 20044 net.cpp:150] Setting up conv4_1_depthwise
I0324 23:59:14.022681 20044 net.cpp:157] Top shape: 1 256 38 38 (369664)
I0324 23:59:14.022686 20044 net.cpp:165] Memory required for data: 193037440
I0324 23:59:14.022697 20044 layer_factory.hpp:77] Creating layer conv4_1_3x3_relu
I0324 23:59:14.022706 20044 net.cpp:100] Creating Layer conv4_1_3x3_relu
I0324 23:59:14.022713 20044 net.cpp:434] conv4_1_3x3_relu <- conv4_1_3x3
I0324 23:59:14.022722 20044 net.cpp:395] conv4_1_3x3_relu -> conv4_1_3x3 (in-place)
I0324 23:59:14.022953 20044 net.cpp:150] Setting up conv4_1_3x3_relu
I0324 23:59:14.022967 20044 net.cpp:157] Top shape: 1 256 38 38 (369664)
I0324 23:59:14.022974 20044 net.cpp:165] Memory required for data: 194516096
I0324 23:59:14.022995 20044 layer_factory.hpp:77] Creating layer conv4_1_1x1
I0324 23:59:14.023010 20044 net.cpp:100] Creating Layer conv4_1_1x1
I0324 23:59:14.023043 20044 net.cpp:434] conv4_1_1x1 <- conv4_1_3x3
I0324 23:59:14.023072 20044 net.cpp:408] conv4_1_1x1 -> conv4_1
I0324 23:59:14.025005 20044 net.cpp:150] Setting up conv4_1_1x1
I0324 23:59:14.025023 20044 net.cpp:157] Top shape: 1 512 38 38 (739328)
I0324 23:59:14.025029 20044 net.cpp:165] Memory required for data: 197473408
I0324 23:59:14.025046 20044 layer_factory.hpp:77] Creating layer relu4_1
I0324 23:59:14.025056 20044 net.cpp:100] Creating Layer relu4_1
I0324 23:59:14.025081 20044 net.cpp:434] relu4_1 <- conv4_1
I0324 23:59:14.025105 20044 net.cpp:395] relu4_1 -> conv4_1 (in-place)
I0324 23:59:14.025374 20044 net.cpp:150] Setting up relu4_1
I0324 23:59:14.025406 20044 net.cpp:157] Top shape: 1 512 38 38 (739328)
I0324 23:59:14.025425 20044 net.cpp:165] Memory required for data: 200430720
I0324 23:59:14.025452 20044 layer_factory.hpp:77] Creating layer conv4_2_depthwise
I0324 23:59:14.025481 20044 net.cpp:100] Creating Layer conv4_2_depthwise
I0324 23:59:14.025503 20044 net.cpp:434] conv4_2_depthwise <- conv4_1
I0324 23:59:14.025527 20044 net.cpp:408] conv4_2_depthwise -> conv4_2_3x3
I0324 23:59:14.026051 20044 net.cpp:150] Setting up conv4_2_depthwise
I0324 23:59:14.026088 20044 net.cpp:157] Top shape: 1 512 38 38 (739328)
I0324 23:59:14.026108 20044 net.cpp:165] Memory required for data: 203388032
I0324 23:59:14.026140 20044 layer_factory.hpp:77] Creating layer conv4_2_3x3_relu
I0324 23:59:14.026168 20044 net.cpp:100] Creating Layer conv4_2_3x3_relu
I0324 23:59:14.026191 20044 net.cpp:434] conv4_2_3x3_relu <- conv4_2_3x3
I0324 23:59:14.026213 20044 net.cpp:395] conv4_2_3x3_relu -> conv4_2_3x3 (in-place)
I0324 23:59:14.027313 20044 net.cpp:150] Setting up conv4_2_3x3_relu
I0324 23:59:14.027354 20044 net.cpp:157] Top shape: 1 512 38 38 (739328)
I0324 23:59:14.027374 20044 net.cpp:165] Memory required for data: 206345344
I0324 23:59:14.027398 20044 layer_factory.hpp:77] Creating layer conv4_2_1x1
I0324 23:59:14.027433 20044 net.cpp:100] Creating Layer conv4_2_1x1
I0324 23:59:14.027456 20044 net.cpp:434] conv4_2_1x1 <- conv4_2_3x3
I0324 23:59:14.027479 20044 net.cpp:408] conv4_2_1x1 -> conv4_2
I0324 23:59:14.033221 20044 net.cpp:150] Setting up conv4_2_1x1
I0324 23:59:14.033299 20044 net.cpp:157] Top shape: 1 512 38 38 (739328)
I0324 23:59:14.033324 20044 net.cpp:165] Memory required for data: 209302656
I0324 23:59:14.033357 20044 layer_factory.hpp:77] Creating layer relu4_2
I0324 23:59:14.033386 20044 net.cpp:100] Creating Layer relu4_2
I0324 23:59:14.033411 20044 net.cpp:434] relu4_2 <- conv4_2
I0324 23:59:14.033437 20044 net.cpp:395] relu4_2 -> conv4_2 (in-place)
I0324 23:59:14.033759 20044 net.cpp:150] Setting up relu4_2
I0324 23:59:14.033792 20044 net.cpp:157] Top shape: 1 512 38 38 (739328)
I0324 23:59:14.033813 20044 net.cpp:165] Memory required for data: 212259968
I0324 23:59:14.033835 20044 layer_factory.hpp:77] Creating layer conv4_3
I0324 23:59:14.033866 20044 net.cpp:100] Creating Layer conv4_3
I0324 23:59:14.033888 20044 net.cpp:434] conv4_3 <- conv4_2
I0324 23:59:14.033915 20044 net.cpp:408] conv4_3 -> conv4_3
I0324 23:59:14.052114 20044 net.cpp:150] Setting up conv4_3
I0324 23:59:14.052268 20044 net.cpp:157] Top shape: 1 512 38 38 (739328)
I0324 23:59:14.052332 20044 net.cpp:165] Memory required for data: 215217280
I0324 23:59:14.052412 20044 layer_factory.hpp:77] Creating layer relu4_3
I0324 23:59:14.052484 20044 net.cpp:100] Creating Layer relu4_3
I0324 23:59:14.052551 20044 net.cpp:434] relu4_3 <- conv4_3
I0324 23:59:14.052619 20044 net.cpp:395] relu4_3 -> conv4_3 (in-place)
I0324 23:59:14.052925 20044 net.cpp:150] Setting up relu4_3
I0324 23:59:14.053016 20044 net.cpp:157] Top shape: 1 512 38 38 (739328)
I0324 23:59:14.053079 20044 net.cpp:165] Memory required for data: 218174592
I0324 23:59:14.053146 20044 layer_factory.hpp:77] Creating layer conv4_3_relu4_3_0_split
I0324 23:59:14.053236 20044 net.cpp:100] Creating Layer conv4_3_relu4_3_0_split
I0324 23:59:14.053303 20044 net.cpp:434] conv4_3_relu4_3_0_split <- conv4_3
I0324 23:59:14.053373 20044 net.cpp:408] conv4_3_relu4_3_0_split -> conv4_3_relu4_3_0_split_0
I0324 23:59:14.053448 20044 net.cpp:408] conv4_3_relu4_3_0_split -> conv4_3_relu4_3_0_split_1
I0324 23:59:14.053583 20044 net.cpp:150] Setting up conv4_3_relu4_3_0_split
I0324 23:59:14.053655 20044 net.cpp:157] Top shape: 1 512 38 38 (739328)
I0324 23:59:14.053725 20044 net.cpp:157] Top shape: 1 512 38 38 (739328)
I0324 23:59:14.053807 20044 net.cpp:165] Memory required for data: 224089216
I0324 23:59:14.053874 20044 layer_factory.hpp:77] Creating layer pool4
I0324 23:59:14.053942 20044 net.cpp:100] Creating Layer pool4
I0324 23:59:14.054008 20044 net.cpp:434] pool4 <- conv4_3_relu4_3_0_split_0
I0324 23:59:14.054077 20044 net.cpp:408] pool4 -> pool4
I0324 23:59:14.054204 20044 net.cpp:150] Setting up pool4
I0324 23:59:14.054276 20044 net.cpp:157] Top shape: 1 512 19 19 (184832)
I0324 23:59:14.054337 20044 net.cpp:165] Memory required for data: 224828544
I0324 23:59:14.054401 20044 layer_factory.hpp:77] Creating layer conv5_1_depthwise
I0324 23:59:14.054471 20044 net.cpp:100] Creating Layer conv5_1_depthwise
I0324 23:59:14.054531 20044 net.cpp:434] conv5_1_depthwise <- pool4
I0324 23:59:14.054594 20044 net.cpp:408] conv5_1_depthwise -> conv5_1_3x3
I0324 23:59:14.055035 20044 net.cpp:150] Setting up conv5_1_depthwise
I0324 23:59:14.055124 20044 net.cpp:157] Top shape: 1 512 19 19 (184832)
I0324 23:59:14.055183 20044 net.cpp:165] Memory required for data: 225567872
I0324 23:59:14.055249 20044 layer_factory.hpp:77] Creating layer conv5_1_3x3_relu
I0324 23:59:14.055317 20044 net.cpp:100] Creating Layer conv5_1_3x3_relu
I0324 23:59:14.055378 20044 net.cpp:434] conv5_1_3x3_relu <- conv5_1_3x3
I0324 23:59:14.055440 20044 net.cpp:395] conv5_1_3x3_relu -> conv5_1_3x3 (in-place)
I0324 23:59:14.056617 20044 net.cpp:150] Setting up conv5_1_3x3_relu
I0324 23:59:14.056702 20044 net.cpp:157] Top shape: 1 512 19 19 (184832)
I0324 23:59:14.056759 20044 net.cpp:165] Memory required for data: 226307200
I0324 23:59:14.056819 20044 layer_factory.hpp:77] Creating layer conv5_1_1x1
I0324 23:59:14.056890 20044 net.cpp:100] Creating Layer conv5_1_1x1
I0324 23:59:14.056948 20044 net.cpp:434] conv5_1_1x1 <- conv5_1_3x3
I0324 23:59:14.057013 20044 net.cpp:408] conv5_1_1x1 -> conv5_1
I0324 23:59:14.061401 20044 net.cpp:150] Setting up conv5_1_1x1
I0324 23:59:14.061522 20044 net.cpp:157] Top shape: 1 512 19 19 (184832)
I0324 23:59:14.061581 20044 net.cpp:165] Memory required for data: 227046528
I0324 23:59:14.061651 20044 layer_factory.hpp:77] Creating layer relu5_1
I0324 23:59:14.061714 20044 net.cpp:100] Creating Layer relu5_1
I0324 23:59:14.061795 20044 net.cpp:434] relu5_1 <- conv5_1
I0324 23:59:14.061866 20044 net.cpp:395] relu5_1 -> conv5_1 (in-place)
I0324 23:59:14.062180 20044 net.cpp:150] Setting up relu5_1
I0324 23:59:14.062259 20044 net.cpp:157] Top shape: 1 512 19 19 (184832)
I0324 23:59:14.062317 20044 net.cpp:165] Memory required for data: 227785856
I0324 23:59:14.062376 20044 layer_factory.hpp:77] Creating layer conv5_2_depthwise
I0324 23:59:14.062448 20044 net.cpp:100] Creating Layer conv5_2_depthwise
I0324 23:59:14.062508 20044 net.cpp:434] conv5_2_depthwise <- conv5_1
I0324 23:59:14.062572 20044 net.cpp:408] conv5_2_depthwise -> conv5_2_3x3
I0324 23:59:14.063035 20044 net.cpp:150] Setting up conv5_2_depthwise
I0324 23:59:14.063117 20044 net.cpp:157] Top shape: 1 512 19 19 (184832)
I0324 23:59:14.063174 20044 net.cpp:165] Memory required for data: 228525184
I0324 23:59:14.063239 20044 layer_factory.hpp:77] Creating layer conv5_2_3x3_relu
I0324 23:59:14.063302 20044 net.cpp:100] Creating Layer conv5_2_3x3_relu
I0324 23:59:14.063364 20044 net.cpp:434] conv5_2_3x3_relu <- conv5_2_3x3
I0324 23:59:14.063434 20044 net.cpp:395] conv5_2_3x3_relu -> conv5_2_3x3 (in-place)
I0324 23:59:14.063731 20044 net.cpp:150] Setting up conv5_2_3x3_relu
I0324 23:59:14.063812 20044 net.cpp:157] Top shape: 1 512 19 19 (184832)
I0324 23:59:14.063901 20044 net.cpp:165] Memory required for data: 229264512
I0324 23:59:14.063961 20044 layer_factory.hpp:77] Creating layer conv5_2_1x1
I0324 23:59:14.064033 20044 net.cpp:100] Creating Layer conv5_2_1x1
I0324 23:59:14.064091 20044 net.cpp:434] conv5_2_1x1 <- conv5_2_3x3
I0324 23:59:14.064160 20044 net.cpp:408] conv5_2_1x1 -> conv5_2
I0324 23:59:14.085888 20044 net.cpp:150] Setting up conv5_2_1x1
I0324 23:59:14.086040 20044 net.cpp:157] Top shape: 1 512 19 19 (184832)
I0324 23:59:14.086100 20044 net.cpp:165] Memory required for data: 230003840
I0324 23:59:14.086177 20044 layer_factory.hpp:77] Creating layer relu5_2
I0324 23:59:14.086249 20044 net.cpp:100] Creating Layer relu5_2
I0324 23:59:14.086316 20044 net.cpp:434] relu5_2 <- conv5_2
I0324 23:59:14.086390 20044 net.cpp:395] relu5_2 -> conv5_2 (in-place)
I0324 23:59:14.087559 20044 net.cpp:150] Setting up relu5_2
I0324 23:59:14.087579 20044 net.cpp:157] Top shape: 1 512 19 19 (184832)
I0324 23:59:14.087585 20044 net.cpp:165] Memory required for data: 230743168
I0324 23:59:14.087592 20044 layer_factory.hpp:77] Creating layer conv5_3_depthwise
I0324 23:59:14.087608 20044 net.cpp:100] Creating Layer conv5_3_depthwise
I0324 23:59:14.087615 20044 net.cpp:434] conv5_3_depthwise <- conv5_2
I0324 23:59:14.087623 20044 net.cpp:408] conv5_3_depthwise -> conv5_3_3x3
I0324 23:59:14.088063 20044 net.cpp:150] Setting up conv5_3_depthwise
I0324 23:59:14.088078 20044 net.cpp:157] Top shape: 1 512 19 19 (184832)
I0324 23:59:14.088083 20044 net.cpp:165] Memory required for data: 231482496
I0324 23:59:14.088101 20044 layer_factory.hpp:77] Creating layer conv5_3_3x3_relu
I0324 23:59:14.088110 20044 net.cpp:100] Creating Layer conv5_3_3x3_relu
I0324 23:59:14.088117 20044 net.cpp:434] conv5_3_3x3_relu <- conv5_3_3x3
I0324 23:59:14.088124 20044 net.cpp:395] conv5_3_3x3_relu -> conv5_3_3x3 (in-place)
I0324 23:59:14.088356 20044 net.cpp:150] Setting up conv5_3_3x3_relu
I0324 23:59:14.088367 20044 net.cpp:157] Top shape: 1 512 19 19 (184832)
I0324 23:59:14.088373 20044 net.cpp:165] Memory required for data: 232221824
I0324 23:59:14.088379 20044 layer_factory.hpp:77] Creating layer conv5_3_1x1
I0324 23:59:14.088395 20044 net.cpp:100] Creating Layer conv5_3_1x1
I0324 23:59:14.088402 20044 net.cpp:434] conv5_3_1x1 <- conv5_3_3x3
I0324 23:59:14.088410 20044 net.cpp:408] conv5_3_1x1 -> conv5_3
I0324 23:59:14.093173 20044 net.cpp:150] Setting up conv5_3_1x1
I0324 23:59:14.093281 20044 net.cpp:157] Top shape: 1 512 19 19 (184832)
I0324 23:59:14.093340 20044 net.cpp:165] Memory required for data: 232961152
I0324 23:59:14.093418 20044 layer_factory.hpp:77] Creating layer relu5_3
I0324 23:59:14.093493 20044 net.cpp:100] Creating Layer relu5_3
I0324 23:59:14.093562 20044 net.cpp:434] relu5_3 <- conv5_3
I0324 23:59:14.093634 20044 net.cpp:395] relu5_3 -> conv5_3 (in-place)
I0324 23:59:14.093971 20044 net.cpp:150] Setting up relu5_3
I0324 23:59:14.094045 20044 net.cpp:157] Top shape: 1 512 19 19 (184832)
I0324 23:59:14.094110 20044 net.cpp:165] Memory required for data: 233700480
I0324 23:59:14.094177 20044 layer_factory.hpp:77] Creating layer pool5
I0324 23:59:14.094246 20044 net.cpp:100] Creating Layer pool5
I0324 23:59:14.094319 20044 net.cpp:434] pool5 <- conv5_3
I0324 23:59:14.094388 20044 net.cpp:408] pool5 -> pool5
I0324 23:59:14.094521 20044 net.cpp:150] Setting up pool5
I0324 23:59:14.094591 20044 net.cpp:157] Top shape: 1 512 19 19 (184832)
I0324 23:59:14.094655 20044 net.cpp:165] Memory required for data: 234439808
I0324 23:59:14.094722 20044 layer_factory.hpp:77] Creating layer fc6_depthwise
I0324 23:59:14.094801 20044 net.cpp:100] Creating Layer fc6_depthwise
I0324 23:59:14.094871 20044 net.cpp:434] fc6_depthwise <- pool5
I0324 23:59:14.094945 20044 net.cpp:408] fc6_depthwise -> fc6_3x3
I0324 23:59:14.095388 20044 net.cpp:150] Setting up fc6_depthwise
I0324 23:59:14.095425 20044 net.cpp:157] Top shape: 1 512 19 19 (184832)
I0324 23:59:14.095445 20044 net.cpp:165] Memory required for data: 235179136
I0324 23:59:14.095476 20044 layer_factory.hpp:77] Creating layer fc6_3x3_relu
I0324 23:59:14.095525 20044 net.cpp:100] Creating Layer fc6_3x3_relu
I0324 23:59:14.095556 20044 net.cpp:434] fc6_3x3_relu <- fc6_3x3
I0324 23:59:14.095588 20044 net.cpp:395] fc6_3x3_relu -> fc6_3x3 (in-place)
I0324 23:59:14.095858 20044 net.cpp:150] Setting up fc6_3x3_relu
I0324 23:59:14.095891 20044 net.cpp:157] Top shape: 1 512 19 19 (184832)
I0324 23:59:14.095914 20044 net.cpp:165] Memory required for data: 235918464
I0324 23:59:14.095949 20044 layer_factory.hpp:77] Creating layer fc6_1x1
I0324 23:59:14.095985 20044 net.cpp:100] Creating Layer fc6_1x1
I0324 23:59:14.096071 20044 net.cpp:434] fc6_1x1 <- fc6_3x3
I0324 23:59:14.096103 20044 net.cpp:408] fc6_1x1 -> fc6
I0324 23:59:14.102249 20044 net.cpp:150] Setting up fc6_1x1
I0324 23:59:14.121773 20044 net.cpp:157] Top shape: 1 1024 19 19 (369664)
I0324 23:59:14.121830 20044 net.cpp:165] Memory required for data: 237397120
I0324 23:59:14.121858 20044 layer_factory.hpp:77] Creating layer relu6
I0324 23:59:14.121889 20044 net.cpp:100] Creating Layer relu6
I0324 23:59:14.121918 20044 net.cpp:434] relu6 <- fc6
I0324 23:59:14.121943 20044 net.cpp:395] relu6 -> fc6 (in-place)
I0324 23:59:14.123211 20044 net.cpp:150] Setting up relu6
I0324 23:59:14.123250 20044 net.cpp:157] Top shape: 1 1024 19 19 (369664)
I0324 23:59:14.123270 20044 net.cpp:165] Memory required for data: 238875776
I0324 23:59:14.123296 20044 layer_factory.hpp:77] Creating layer fc7
I0324 23:59:14.123330 20044 net.cpp:100] Creating Layer fc7
I0324 23:59:14.123353 20044 net.cpp:434] fc7 <- fc6
I0324 23:59:14.123378 20044 net.cpp:408] fc7 -> fc7
I0324 23:59:14.136718 20044 net.cpp:150] Setting up fc7
I0324 23:59:14.136786 20044 net.cpp:157] Top shape: 1 1024 19 19 (369664)
I0324 23:59:14.136806 20044 net.cpp:165] Memory required for data: 240354432
I0324 23:59:14.136832 20044 layer_factory.hpp:77] Creating layer relu7
I0324 23:59:14.136867 20044 net.cpp:100] Creating Layer relu7
I0324 23:59:14.136889 20044 net.cpp:434] relu7 <- fc7
I0324 23:59:14.136912 20044 net.cpp:395] relu7 -> fc7 (in-place)
I0324 23:59:14.137182 20044 net.cpp:150] Setting up relu7
I0324 23:59:14.137210 20044 net.cpp:157] Top shape: 1 1024 19 19 (369664)
I0324 23:59:14.137226 20044 net.cpp:165] Memory required for data: 241833088
I0324 23:59:14.137251 20044 layer_factory.hpp:77] Creating layer fc7_relu7_0_split
I0324 23:59:14.137284 20044 net.cpp:100] Creating Layer fc7_relu7_0_split
I0324 23:59:14.137305 20044 net.cpp:434] fc7_relu7_0_split <- fc7
I0324 23:59:14.137329 20044 net.cpp:408] fc7_relu7_0_split -> fc7_relu7_0_split_0
I0324 23:59:14.137364 20044 net.cpp:408] fc7_relu7_0_split -> fc7_relu7_0_split_1
I0324 23:59:14.137393 20044 net.cpp:408] fc7_relu7_0_split -> fc7_relu7_0_split_2
I0324 23:59:14.137420 20044 net.cpp:408] fc7_relu7_0_split -> fc7_relu7_0_split_3
I0324 23:59:14.137559 20044 net.cpp:150] Setting up fc7_relu7_0_split
I0324 23:59:14.139402 20044 net.cpp:157] Top shape: 1 1024 19 19 (369664)
I0324 23:59:14.139430 20044 net.cpp:157] Top shape: 1 1024 19 19 (369664)
I0324 23:59:14.139447 20044 net.cpp:157] Top shape: 1 1024 19 19 (369664)
I0324 23:59:14.139473 20044 net.cpp:157] Top shape: 1 1024 19 19 (369664)
I0324 23:59:14.139498 20044 net.cpp:165] Memory required for data: 247747712
I0324 23:59:14.139519 20044 layer_factory.hpp:77] Creating layer conv6_1
I0324 23:59:14.139551 20044 net.cpp:100] Creating Layer conv6_1
I0324 23:59:14.139580 20044 net.cpp:434] conv6_1 <- fc7_relu7_0_split_0
I0324 23:59:14.139616 20044 net.cpp:408] conv6_1 -> conv6_1
I0324 23:59:14.145227 20044 net.cpp:150] Setting up conv6_1
I0324 23:59:14.157780 20044 net.cpp:157] Top shape: 1 256 19 19 (92416)
I0324 23:59:14.157836 20044 net.cpp:165] Memory required for data: 248117376
I0324 23:59:14.157876 20044 layer_factory.hpp:77] Creating layer conv6_1_relu
I0324 23:59:14.157910 20044 net.cpp:100] Creating Layer conv6_1_relu
I0324 23:59:14.157938 20044 net.cpp:434] conv6_1_relu <- conv6_1
I0324 23:59:14.157970 20044 net.cpp:395] conv6_1_relu -> conv6_1 (in-place)
I0324 23:59:14.158360 20044 net.cpp:150] Setting up conv6_1_relu
I0324 23:59:14.158397 20044 net.cpp:157] Top shape: 1 256 19 19 (92416)
I0324 23:59:14.158432 20044 net.cpp:165] Memory required for data: 248487040
I0324 23:59:14.158457 20044 layer_factory.hpp:77] Creating layer conv6_2_depthwise
I0324 23:59:14.158488 20044 net.cpp:100] Creating Layer conv6_2_depthwise
I0324 23:59:14.158509 20044 net.cpp:434] conv6_2_depthwise <- conv6_1
I0324 23:59:14.158535 20044 net.cpp:408] conv6_2_depthwise -> conv6_2_3x3
I0324 23:59:14.159025 20044 net.cpp:150] Setting up conv6_2_depthwise
I0324 23:59:14.159060 20044 net.cpp:157] Top shape: 1 256 10 10 (25600)
I0324 23:59:14.159080 20044 net.cpp:165] Memory required for data: 248589440
I0324 23:59:14.159114 20044 layer_factory.hpp:77] Creating layer conv6_2_3x3_relu
I0324 23:59:14.159143 20044 net.cpp:100] Creating Layer conv6_2_3x3_relu
I0324 23:59:14.159163 20044 net.cpp:434] conv6_2_3x3_relu <- conv6_2_3x3
I0324 23:59:14.159184 20044 net.cpp:395] conv6_2_3x3_relu -> conv6_2_3x3 (in-place)
I0324 23:59:14.160346 20044 net.cpp:150] Setting up conv6_2_3x3_relu
I0324 23:59:14.160385 20044 net.cpp:157] Top shape: 1 256 10 10 (25600)
I0324 23:59:14.160403 20044 net.cpp:165] Memory required for data: 248691840
I0324 23:59:14.160429 20044 layer_factory.hpp:77] Creating layer conv6_2_1x1
I0324 23:59:14.160461 20044 net.cpp:100] Creating Layer conv6_2_1x1
I0324 23:59:14.160485 20044 net.cpp:434] conv6_2_1x1 <- conv6_2_3x3
I0324 23:59:14.160516 20044 net.cpp:408] conv6_2_1x1 -> conv6_2
I0324 23:59:14.163740 20044 net.cpp:150] Setting up conv6_2_1x1
I0324 23:59:14.163782 20044 net.cpp:157] Top shape: 1 512 10 10 (51200)
I0324 23:59:14.163800 20044 net.cpp:165] Memory required for data: 248896640
I0324 23:59:14.163836 20044 layer_factory.hpp:77] Creating layer conv6_2_relu
I0324 23:59:14.163864 20044 net.cpp:100] Creating Layer conv6_2_relu
I0324 23:59:14.163887 20044 net.cpp:434] conv6_2_relu <- conv6_2
I0324 23:59:14.163910 20044 net.cpp:395] conv6_2_relu -> conv6_2 (in-place)
I0324 23:59:14.164186 20044 net.cpp:150] Setting up conv6_2_relu
I0324 23:59:14.164217 20044 net.cpp:157] Top shape: 1 512 10 10 (51200)
I0324 23:59:14.164234 20044 net.cpp:165] Memory required for data: 249101440
I0324 23:59:14.164259 20044 layer_factory.hpp:77] Creating layer conv6_2_conv6_2_relu_0_split
I0324 23:59:14.164288 20044 net.cpp:100] Creating Layer conv6_2_conv6_2_relu_0_split
I0324 23:59:14.164310 20044 net.cpp:434] conv6_2_conv6_2_relu_0_split <- conv6_2
I0324 23:59:14.164335 20044 net.cpp:408] conv6_2_conv6_2_relu_0_split -> conv6_2_conv6_2_relu_0_split_0
I0324 23:59:14.164371 20044 net.cpp:408] conv6_2_conv6_2_relu_0_split -> conv6_2_conv6_2_relu_0_split_1
I0324 23:59:14.164402 20044 net.cpp:408] conv6_2_conv6_2_relu_0_split -> conv6_2_conv6_2_relu_0_split_2
I0324 23:59:14.164427 20044 net.cpp:408] conv6_2_conv6_2_relu_0_split -> conv6_2_conv6_2_relu_0_split_3
I0324 23:59:14.164558 20044 net.cpp:150] Setting up conv6_2_conv6_2_relu_0_split
I0324 23:59:14.164589 20044 net.cpp:157] Top shape: 1 512 10 10 (51200)
I0324 23:59:14.164608 20044 net.cpp:157] Top shape: 1 512 10 10 (51200)
I0324 23:59:14.164635 20044 net.cpp:157] Top shape: 1 512 10 10 (51200)
I0324 23:59:14.164660 20044 net.cpp:157] Top shape: 1 512 10 10 (51200)
I0324 23:59:14.164680 20044 net.cpp:165] Memory required for data: 249920640
I0324 23:59:14.164700 20044 layer_factory.hpp:77] Creating layer conv7_1
I0324 23:59:14.164741 20044 net.cpp:100] Creating Layer conv7_1
I0324 23:59:14.164772 20044 net.cpp:434] conv7_1 <- conv6_2_conv6_2_relu_0_split_0
I0324 23:59:14.164800 20044 net.cpp:408] conv7_1 -> conv7_1
I0324 23:59:14.167403 20044 net.cpp:150] Setting up conv7_1
I0324 23:59:14.172439 20044 net.cpp:157] Top shape: 1 128 10 10 (12800)
I0324 23:59:14.172487 20044 net.cpp:165] Memory required for data: 249971840
I0324 23:59:14.172515 20044 layer_factory.hpp:77] Creating layer conv7_1_relu
I0324 23:59:14.172547 20044 net.cpp:100] Creating Layer conv7_1_relu
I0324 23:59:14.172574 20044 net.cpp:434] conv7_1_relu <- conv7_1
I0324 23:59:14.172596 20044 net.cpp:395] conv7_1_relu -> conv7_1 (in-place)
I0324 23:59:14.172971 20044 net.cpp:150] Setting up conv7_1_relu
I0324 23:59:14.173013 20044 net.cpp:157] Top shape: 1 128 10 10 (12800)
I0324 23:59:14.173033 20044 net.cpp:165] Memory required for data: 250023040
I0324 23:59:14.173061 20044 layer_factory.hpp:77] Creating layer conv7_2
I0324 23:59:14.173100 20044 net.cpp:100] Creating Layer conv7_2
I0324 23:59:14.173123 20044 net.cpp:434] conv7_2 <- conv7_1
I0324 23:59:14.173148 20044 net.cpp:408] conv7_2 -> conv7_2
I0324 23:59:14.179162 20044 net.cpp:150] Setting up conv7_2
I0324 23:59:14.182143 20044 net.cpp:157] Top shape: 1 256 5 5 (6400)
I0324 23:59:14.182188 20044 net.cpp:165] Memory required for data: 250048640
I0324 23:59:14.182217 20044 layer_factory.hpp:77] Creating layer conv7_2_relu
I0324 23:59:14.182255 20044 net.cpp:100] Creating Layer conv7_2_relu
I0324 23:59:14.182281 20044 net.cpp:434] conv7_2_relu <- conv7_2
I0324 23:59:14.182307 20044 net.cpp:395] conv7_2_relu -> conv7_2 (in-place)
I0324 23:59:14.183504 20044 net.cpp:150] Setting up conv7_2_relu
I0324 23:59:14.183652 20044 net.cpp:157] Top shape: 1 256 5 5 (6400)
I0324 23:59:14.183677 20044 net.cpp:165] Memory required for data: 250074240
I0324 23:59:14.183761 20044 layer_factory.hpp:77] Creating layer conv7_2_conv7_2_relu_0_split
I0324 23:59:14.183799 20044 net.cpp:100] Creating Layer conv7_2_conv7_2_relu_0_split
I0324 23:59:14.183873 20044 net.cpp:434] conv7_2_conv7_2_relu_0_split <- conv7_2
I0324 23:59:14.183908 20044 net.cpp:408] conv7_2_conv7_2_relu_0_split -> conv7_2_conv7_2_relu_0_split_0
I0324 23:59:14.184016 20044 net.cpp:408] conv7_2_conv7_2_relu_0_split -> conv7_2_conv7_2_relu_0_split_1
I0324 23:59:14.184053 20044 net.cpp:408] conv7_2_conv7_2_relu_0_split -> conv7_2_conv7_2_relu_0_split_2
I0324 23:59:14.184118 20044 net.cpp:408] conv7_2_conv7_2_relu_0_split -> conv7_2_conv7_2_relu_0_split_3
I0324 23:59:14.184245 20044 net.cpp:150] Setting up conv7_2_conv7_2_relu_0_split
I0324 23:59:14.184260 20044 net.cpp:157] Top shape: 1 256 5 5 (6400)
I0324 23:59:14.184269 20044 net.cpp:157] Top shape: 1 256 5 5 (6400)
I0324 23:59:14.184279 20044 net.cpp:157] Top shape: 1 256 5 5 (6400)
I0324 23:59:14.184286 20044 net.cpp:157] Top shape: 1 256 5 5 (6400)
I0324 23:59:14.184295 20044 net.cpp:165] Memory required for data: 250176640
I0324 23:59:14.184304 20044 layer_factory.hpp:77] Creating layer conv8_1
I0324 23:59:14.184332 20044 net.cpp:100] Creating Layer conv8_1
I0324 23:59:14.184340 20044 net.cpp:434] conv8_1 <- conv7_2_conv7_2_relu_0_split_0
I0324 23:59:14.184350 20044 net.cpp:408] conv8_1 -> conv8_1
I0324 23:59:14.186173 20044 net.cpp:150] Setting up conv8_1
I0324 23:59:14.186209 20044 net.cpp:157] Top shape: 1 128 5 5 (3200)
I0324 23:59:14.186226 20044 net.cpp:165] Memory required for data: 250189440
I0324 23:59:14.186250 20044 layer_factory.hpp:77] Creating layer conv8_1_relu
I0324 23:59:14.186286 20044 net.cpp:100] Creating Layer conv8_1_relu
I0324 23:59:14.186305 20044 net.cpp:434] conv8_1_relu <- conv8_1
I0324 23:59:14.186322 20044 net.cpp:395] conv8_1_relu -> conv8_1 (in-place)
I0324 23:59:14.186590 20044 net.cpp:150] Setting up conv8_1_relu
I0324 23:59:14.186615 20044 net.cpp:157] Top shape: 1 128 5 5 (3200)
I0324 23:59:14.186632 20044 net.cpp:165] Memory required for data: 250202240
I0324 23:59:14.186650 20044 layer_factory.hpp:77] Creating layer conv8_2
I0324 23:59:14.186678 20044 net.cpp:100] Creating Layer conv8_2
I0324 23:59:14.186695 20044 net.cpp:434] conv8_2 <- conv8_1
I0324 23:59:14.186717 20044 net.cpp:408] conv8_2 -> conv8_2
I0324 23:59:14.193466 20044 net.cpp:150] Setting up conv8_2
I0324 23:59:14.193624 20044 net.cpp:157] Top shape: 1 256 3 3 (2304)
I0324 23:59:14.193650 20044 net.cpp:165] Memory required for data: 250211456
I0324 23:59:14.193687 20044 layer_factory.hpp:77] Creating layer conv8_2_relu
I0324 23:59:14.193719 20044 net.cpp:100] Creating Layer conv8_2_relu
I0324 23:59:14.193763 20044 net.cpp:434] conv8_2_relu <- conv8_2
I0324 23:59:14.193795 20044 net.cpp:395] conv8_2_relu -> conv8_2 (in-place)
I0324 23:59:14.194361 20044 net.cpp:150] Setting up conv8_2_relu
I0324 23:59:14.194424 20044 net.cpp:157] Top shape: 1 256 3 3 (2304)
I0324 23:59:14.194460 20044 net.cpp:165] Memory required for data: 250220672
I0324 23:59:14.194480 20044 layer_factory.hpp:77] Creating layer conv8_2_conv8_2_relu_0_split
I0324 23:59:14.194504 20044 net.cpp:100] Creating Layer conv8_2_conv8_2_relu_0_split
I0324 23:59:14.194525 20044 net.cpp:434] conv8_2_conv8_2_relu_0_split <- conv8_2
I0324 23:59:14.194551 20044 net.cpp:408] conv8_2_conv8_2_relu_0_split -> conv8_2_conv8_2_relu_0_split_0
I0324 23:59:14.194581 20044 net.cpp:408] conv8_2_conv8_2_relu_0_split -> conv8_2_conv8_2_relu_0_split_1
I0324 23:59:14.194607 20044 net.cpp:408] conv8_2_conv8_2_relu_0_split -> conv8_2_conv8_2_relu_0_split_2
I0324 23:59:14.194630 20044 net.cpp:408] conv8_2_conv8_2_relu_0_split -> conv8_2_conv8_2_relu_0_split_3
I0324 23:59:14.194859 20044 net.cpp:150] Setting up conv8_2_conv8_2_relu_0_split
I0324 23:59:14.194887 20044 net.cpp:157] Top shape: 1 256 3 3 (2304)
I0324 23:59:14.194908 20044 net.cpp:157] Top shape: 1 256 3 3 (2304)
I0324 23:59:14.194927 20044 net.cpp:157] Top shape: 1 256 3 3 (2304)
I0324 23:59:14.194947 20044 net.cpp:157] Top shape: 1 256 3 3 (2304)
I0324 23:59:14.194964 20044 net.cpp:165] Memory required for data: 250257536
I0324 23:59:14.194981 20044 layer_factory.hpp:77] Creating layer conv9_1
I0324 23:59:14.195014 20044 net.cpp:100] Creating Layer conv9_1
I0324 23:59:14.195036 20044 net.cpp:434] conv9_1 <- conv8_2_conv8_2_relu_0_split_0
I0324 23:59:14.195063 20044 net.cpp:408] conv9_1 -> conv9_1
I0324 23:59:14.201418 20044 net.cpp:150] Setting up conv9_1
I0324 23:59:14.201517 20044 net.cpp:157] Top shape: 1 128 3 3 (1152)
I0324 23:59:14.201536 20044 net.cpp:165] Memory required for data: 250262144
I0324 23:59:14.201565 20044 layer_factory.hpp:77] Creating layer conv9_1_relu
I0324 23:59:14.201597 20044 net.cpp:100] Creating Layer conv9_1_relu
I0324 23:59:14.201618 20044 net.cpp:434] conv9_1_relu <- conv9_1
I0324 23:59:14.201642 20044 net.cpp:395] conv9_1_relu -> conv9_1 (in-place)
I0324 23:59:14.202023 20044 net.cpp:150] Setting up conv9_1_relu
I0324 23:59:14.202064 20044 net.cpp:157] Top shape: 1 128 3 3 (1152)
I0324 23:59:14.202081 20044 net.cpp:165] Memory required for data: 250266752
I0324 23:59:14.202100 20044 layer_factory.hpp:77] Creating layer conv9_2
I0324 23:59:14.202139 20044 net.cpp:100] Creating Layer conv9_2
I0324 23:59:14.202160 20044 net.cpp:434] conv9_2 <- conv9_1
I0324 23:59:14.202183 20044 net.cpp:408] conv9_2 -> conv9_2
I0324 23:59:14.209581 20044 net.cpp:150] Setting up conv9_2
I0324 23:59:14.209651 20044 net.cpp:157] Top shape: 1 256 1 1 (256)
I0324 23:59:14.209669 20044 net.cpp:165] Memory required for data: 250267776
I0324 23:59:14.209697 20044 layer_factory.hpp:77] Creating layer conv9_2_relu
I0324 23:59:14.209724 20044 net.cpp:100] Creating Layer conv9_2_relu
I0324 23:59:14.209775 20044 net.cpp:434] conv9_2_relu <- conv9_2
I0324 23:59:14.209801 20044 net.cpp:395] conv9_2_relu -> conv9_2 (in-place)
I0324 23:59:14.211015 20044 net.cpp:150] Setting up conv9_2_relu
I0324 23:59:14.211055 20044 net.cpp:157] Top shape: 1 256 1 1 (256)
I0324 23:59:14.211071 20044 net.cpp:165] Memory required for data: 250268800
I0324 23:59:14.211094 20044 layer_factory.hpp:77] Creating layer conv9_2_conv9_2_relu_0_split
I0324 23:59:14.211122 20044 net.cpp:100] Creating Layer conv9_2_conv9_2_relu_0_split
I0324 23:59:14.211143 20044 net.cpp:434] conv9_2_conv9_2_relu_0_split <- conv9_2
I0324 23:59:14.211166 20044 net.cpp:408] conv9_2_conv9_2_relu_0_split -> conv9_2_conv9_2_relu_0_split_0
I0324 23:59:14.211194 20044 net.cpp:408] conv9_2_conv9_2_relu_0_split -> conv9_2_conv9_2_relu_0_split_1
I0324 23:59:14.211215 20044 net.cpp:408] conv9_2_conv9_2_relu_0_split -> conv9_2_conv9_2_relu_0_split_2
I0324 23:59:14.211364 20044 net.cpp:150] Setting up conv9_2_conv9_2_relu_0_split
I0324 23:59:14.211388 20044 net.cpp:157] Top shape: 1 256 1 1 (256)
I0324 23:59:14.211406 20044 net.cpp:157] Top shape: 1 256 1 1 (256)
I0324 23:59:14.211427 20044 net.cpp:157] Top shape: 1 256 1 1 (256)
I0324 23:59:14.211447 20044 net.cpp:165] Memory required for data: 250271872
I0324 23:59:14.211480 20044 layer_factory.hpp:77] Creating layer conv4_3_norm
I0324 23:59:14.211503 20044 net.cpp:100] Creating Layer conv4_3_norm
I0324 23:59:14.211519 20044 net.cpp:434] conv4_3_norm <- conv4_3_relu4_3_0_split_1
I0324 23:59:14.211541 20044 net.cpp:408] conv4_3_norm -> conv4_3_norm
I0324 23:59:14.211812 20044 net.cpp:150] Setting up conv4_3_norm
I0324 23:59:14.211840 20044 net.cpp:157] Top shape: 1 512 38 38 (739328)
I0324 23:59:14.211856 20044 net.cpp:165] Memory required for data: 253229184
I0324 23:59:14.211879 20044 layer_factory.hpp:77] Creating layer conv4_3_norm_conv4_3_norm_0_split
I0324 23:59:14.211901 20044 net.cpp:100] Creating Layer conv4_3_norm_conv4_3_norm_0_split
I0324 23:59:14.211918 20044 net.cpp:434] conv4_3_norm_conv4_3_norm_0_split <- conv4_3_norm
I0324 23:59:14.211938 20044 net.cpp:408] conv4_3_norm_conv4_3_norm_0_split -> conv4_3_norm_conv4_3_norm_0_split_0
I0324 23:59:14.211961 20044 net.cpp:408] conv4_3_norm_conv4_3_norm_0_split -> conv4_3_norm_conv4_3_norm_0_split_1
I0324 23:59:14.211980 20044 net.cpp:408] conv4_3_norm_conv4_3_norm_0_split -> conv4_3_norm_conv4_3_norm_0_split_2
I0324 23:59:14.212074 20044 net.cpp:150] Setting up conv4_3_norm_conv4_3_norm_0_split
I0324 23:59:14.212097 20044 net.cpp:157] Top shape: 1 512 38 38 (739328)
I0324 23:59:14.212117 20044 net.cpp:157] Top shape: 1 512 38 38 (739328)
I0324 23:59:14.212136 20044 net.cpp:157] Top shape: 1 512 38 38 (739328)
I0324 23:59:14.212150 20044 net.cpp:165] Memory required for data: 262101120
I0324 23:59:14.212167 20044 layer_factory.hpp:77] Creating layer conv4_3_norm_mbox_loc
I0324 23:59:14.212196 20044 net.cpp:100] Creating Layer conv4_3_norm_mbox_loc
I0324 23:59:14.212213 20044 net.cpp:434] conv4_3_norm_mbox_loc <- conv4_3_norm_conv4_3_norm_0_split_0
I0324 23:59:14.212234 20044 net.cpp:408] conv4_3_norm_mbox_loc -> conv4_3_norm_mbox_loc
I0324 23:59:14.216260 20044 net.cpp:150] Setting up conv4_3_norm_mbox_loc
I0324 23:59:14.216434 20044 net.cpp:157] Top shape: 1 16 38 38 (23104)
I0324 23:59:14.216497 20044 net.cpp:165] Memory required for data: 262193536
I0324 23:59:14.216572 20044 layer_factory.hpp:77] Creating layer conv4_3_norm_mbox_loc_perm
I0324 23:59:14.216648 20044 net.cpp:100] Creating Layer conv4_3_norm_mbox_loc_perm
I0324 23:59:14.216715 20044 net.cpp:434] conv4_3_norm_mbox_loc_perm <- conv4_3_norm_mbox_loc
I0324 23:59:14.216785 20044 net.cpp:408] conv4_3_norm_mbox_loc_perm -> conv4_3_norm_mbox_loc_perm
I0324 23:59:14.217075 20044 net.cpp:150] Setting up conv4_3_norm_mbox_loc_perm
I0324 23:59:14.217167 20044 net.cpp:157] Top shape: 1 38 38 16 (23104)
I0324 23:59:14.217231 20044 net.cpp:165] Memory required for data: 262285952
I0324 23:59:14.217293 20044 layer_factory.hpp:77] Creating layer conv4_3_norm_mbox_loc_flat
I0324 23:59:14.217362 20044 net.cpp:100] Creating Layer conv4_3_norm_mbox_loc_flat
I0324 23:59:14.217427 20044 net.cpp:434] conv4_3_norm_mbox_loc_flat <- conv4_3_norm_mbox_loc_perm
I0324 23:59:14.217504 20044 net.cpp:408] conv4_3_norm_mbox_loc_flat -> conv4_3_norm_mbox_loc_flat
I0324 23:59:14.217623 20044 net.cpp:150] Setting up conv4_3_norm_mbox_loc_flat
I0324 23:59:14.217689 20044 net.cpp:157] Top shape: 1 23104 (23104)
I0324 23:59:14.217769 20044 net.cpp:165] Memory required for data: 262378368
I0324 23:59:14.217835 20044 layer_factory.hpp:77] Creating layer conv4_3_norm_mbox_conf
I0324 23:59:14.217914 20044 net.cpp:100] Creating Layer conv4_3_norm_mbox_conf
I0324 23:59:14.217978 20044 net.cpp:434] conv4_3_norm_mbox_conf <- conv4_3_norm_conv4_3_norm_0_split_1
I0324 23:59:14.218053 20044 net.cpp:408] conv4_3_norm_mbox_conf -> conv4_3_norm_mbox_conf
I0324 23:59:14.223363 20044 net.cpp:150] Setting up conv4_3_norm_mbox_conf
I0324 23:59:14.223520 20044 net.cpp:157] Top shape: 1 44 38 38 (63536)
I0324 23:59:14.223583 20044 net.cpp:165] Memory required for data: 262632512
I0324 23:59:14.223678 20044 layer_factory.hpp:77] Creating layer conv4_3_norm_mbox_conf_perm
I0324 23:59:14.223755 20044 net.cpp:100] Creating Layer conv4_3_norm_mbox_conf_perm
I0324 23:59:14.223834 20044 net.cpp:434] conv4_3_norm_mbox_conf_perm <- conv4_3_norm_mbox_conf
I0324 23:59:14.223923 20044 net.cpp:408] conv4_3_norm_mbox_conf_perm -> conv4_3_norm_mbox_conf_perm
I0324 23:59:14.224207 20044 net.cpp:150] Setting up conv4_3_norm_mbox_conf_perm
I0324 23:59:14.224298 20044 net.cpp:157] Top shape: 1 38 38 44 (63536)
I0324 23:59:14.224359 20044 net.cpp:165] Memory required for data: 262886656
I0324 23:59:14.224419 20044 layer_factory.hpp:77] Creating layer conv4_3_norm_mbox_conf_flat
I0324 23:59:14.224488 20044 net.cpp:100] Creating Layer conv4_3_norm_mbox_conf_flat
I0324 23:59:14.224552 20044 net.cpp:434] conv4_3_norm_mbox_conf_flat <- conv4_3_norm_mbox_conf_perm
I0324 23:59:14.224624 20044 net.cpp:408] conv4_3_norm_mbox_conf_flat -> conv4_3_norm_mbox_conf_flat
I0324 23:59:14.224740 20044 net.cpp:150] Setting up conv4_3_norm_mbox_conf_flat
I0324 23:59:14.224817 20044 net.cpp:157] Top shape: 1 63536 (63536)
I0324 23:59:14.224876 20044 net.cpp:165] Memory required for data: 263140800
I0324 23:59:14.224938 20044 layer_factory.hpp:77] Creating layer conv4_3_norm_mbox_priorbox
I0324 23:59:14.225008 20044 net.cpp:100] Creating Layer conv4_3_norm_mbox_priorbox
I0324 23:59:14.225070 20044 net.cpp:434] conv4_3_norm_mbox_priorbox <- conv4_3_norm_conv4_3_norm_0_split_2
I0324 23:59:14.225139 20044 net.cpp:434] conv4_3_norm_mbox_priorbox <- data_data_0_split_1
I0324 23:59:14.225229 20044 net.cpp:408] conv4_3_norm_mbox_priorbox -> conv4_3_norm_mbox_priorbox
I0324 23:59:14.225349 20044 net.cpp:150] Setting up conv4_3_norm_mbox_priorbox
I0324 23:59:14.225419 20044 net.cpp:157] Top shape: 1 2 23104 (46208)
I0324 23:59:14.225478 20044 net.cpp:165] Memory required for data: 263325632
I0324 23:59:14.225540 20044 layer_factory.hpp:77] Creating layer fc7_mbox_loc
I0324 23:59:14.225617 20044 net.cpp:100] Creating Layer fc7_mbox_loc
I0324 23:59:14.225678 20044 net.cpp:434] fc7_mbox_loc <- fc7_relu7_0_split_1
I0324 23:59:14.225775 20044 net.cpp:408] fc7_mbox_loc -> fc7_mbox_loc
I0324 23:59:14.231067 20044 net.cpp:150] Setting up fc7_mbox_loc
I0324 23:59:14.231225 20044 net.cpp:157] Top shape: 1 24 19 19 (8664)
I0324 23:59:14.231286 20044 net.cpp:165] Memory required for data: 263360288
I0324 23:59:14.231359 20044 layer_factory.hpp:77] Creating layer fc7_mbox_loc_perm
I0324 23:59:14.231429 20044 net.cpp:100] Creating Layer fc7_mbox_loc_perm
I0324 23:59:14.231493 20044 net.cpp:434] fc7_mbox_loc_perm <- fc7_mbox_loc
I0324 23:59:14.231564 20044 net.cpp:408] fc7_mbox_loc_perm -> fc7_mbox_loc_perm
I0324 23:59:14.231860 20044 net.cpp:150] Setting up fc7_mbox_loc_perm
I0324 23:59:14.231952 20044 net.cpp:157] Top shape: 1 19 19 24 (8664)
I0324 23:59:14.232013 20044 net.cpp:165] Memory required for data: 263394944
I0324 23:59:14.232074 20044 layer_factory.hpp:77] Creating layer fc7_mbox_loc_flat
I0324 23:59:14.232141 20044 net.cpp:100] Creating Layer fc7_mbox_loc_flat
I0324 23:59:14.232203 20044 net.cpp:434] fc7_mbox_loc_flat <- fc7_mbox_loc_perm
I0324 23:59:14.232273 20044 net.cpp:408] fc7_mbox_loc_flat -> fc7_mbox_loc_flat
I0324 23:59:14.232388 20044 net.cpp:150] Setting up fc7_mbox_loc_flat
I0324 23:59:14.232453 20044 net.cpp:157] Top shape: 1 8664 (8664)
I0324 23:59:14.232511 20044 net.cpp:165] Memory required for data: 263429600
I0324 23:59:14.232573 20044 layer_factory.hpp:77] Creating layer fc7_mbox_conf
I0324 23:59:14.232648 20044 net.cpp:100] Creating Layer fc7_mbox_conf
I0324 23:59:14.232710 20044 net.cpp:434] fc7_mbox_conf <- fc7_relu7_0_split_2
I0324 23:59:14.232779 20044 net.cpp:408] fc7_mbox_conf -> fc7_mbox_conf
I0324 23:59:14.242805 20044 net.cpp:150] Setting up fc7_mbox_conf
I0324 23:59:14.242966 20044 net.cpp:157] Top shape: 1 66 19 19 (23826)
I0324 23:59:14.243028 20044 net.cpp:165] Memory required for data: 263524904
I0324 23:59:14.243103 20044 layer_factory.hpp:77] Creating layer fc7_mbox_conf_perm
I0324 23:59:14.243173 20044 net.cpp:100] Creating Layer fc7_mbox_conf_perm
I0324 23:59:14.243237 20044 net.cpp:434] fc7_mbox_conf_perm <- fc7_mbox_conf
I0324 23:59:14.243311 20044 net.cpp:408] fc7_mbox_conf_perm -> fc7_mbox_conf_perm
I0324 23:59:14.243605 20044 net.cpp:150] Setting up fc7_mbox_conf_perm
I0324 23:59:14.243705 20044 net.cpp:157] Top shape: 1 19 19 66 (23826)
I0324 23:59:14.243764 20044 net.cpp:165] Memory required for data: 263620208
I0324 23:59:14.243826 20044 layer_factory.hpp:77] Creating layer fc7_mbox_conf_flat
I0324 23:59:14.243893 20044 net.cpp:100] Creating Layer fc7_mbox_conf_flat
I0324 23:59:14.243955 20044 net.cpp:434] fc7_mbox_conf_flat <- fc7_mbox_conf_perm
I0324 23:59:14.244024 20044 net.cpp:408] fc7_mbox_conf_flat -> fc7_mbox_conf_flat
I0324 23:59:14.244137 20044 net.cpp:150] Setting up fc7_mbox_conf_flat
I0324 23:59:14.244202 20044 net.cpp:157] Top shape: 1 23826 (23826)
I0324 23:59:14.244261 20044 net.cpp:165] Memory required for data: 263715512
I0324 23:59:14.244321 20044 layer_factory.hpp:77] Creating layer fc7_mbox_priorbox
I0324 23:59:14.244393 20044 net.cpp:100] Creating Layer fc7_mbox_priorbox
I0324 23:59:14.244457 20044 net.cpp:434] fc7_mbox_priorbox <- fc7_relu7_0_split_3
I0324 23:59:14.244521 20044 net.cpp:434] fc7_mbox_priorbox <- data_data_0_split_2
I0324 23:59:14.244592 20044 net.cpp:408] fc7_mbox_priorbox -> fc7_mbox_priorbox
I0324 23:59:14.244716 20044 net.cpp:150] Setting up fc7_mbox_priorbox
I0324 23:59:14.244783 20044 net.cpp:157] Top shape: 1 2 8664 (17328)
I0324 23:59:14.244843 20044 net.cpp:165] Memory required for data: 263784824
I0324 23:59:14.244902 20044 layer_factory.hpp:77] Creating layer conv6_2_mbox_loc
I0324 23:59:14.244980 20044 net.cpp:100] Creating Layer conv6_2_mbox_loc
I0324 23:59:14.245043 20044 net.cpp:434] conv6_2_mbox_loc <- conv6_2_conv6_2_relu_0_split_1
I0324 23:59:14.245113 20044 net.cpp:408] conv6_2_mbox_loc -> conv6_2_mbox_loc
I0324 23:59:14.249321 20044 net.cpp:150] Setting up conv6_2_mbox_loc
I0324 23:59:14.249486 20044 net.cpp:157] Top shape: 1 24 10 10 (2400)
I0324 23:59:14.249550 20044 net.cpp:165] Memory required for data: 263794424
I0324 23:59:14.249625 20044 layer_factory.hpp:77] Creating layer conv6_2_mbox_loc_perm
I0324 23:59:14.249696 20044 net.cpp:100] Creating Layer conv6_2_mbox_loc_perm
I0324 23:59:14.249785 20044 net.cpp:434] conv6_2_mbox_loc_perm <- conv6_2_mbox_loc
I0324 23:59:14.249860 20044 net.cpp:408] conv6_2_mbox_loc_perm -> conv6_2_mbox_loc_perm
I0324 23:59:14.250138 20044 net.cpp:150] Setting up conv6_2_mbox_loc_perm
I0324 23:59:14.250223 20044 net.cpp:157] Top shape: 1 10 10 24 (2400)
I0324 23:59:14.250284 20044 net.cpp:165] Memory required for data: 263804024
I0324 23:59:14.250346 20044 layer_factory.hpp:77] Creating layer conv6_2_mbox_loc_flat
I0324 23:59:14.250414 20044 net.cpp:100] Creating Layer conv6_2_mbox_loc_flat
I0324 23:59:14.250476 20044 net.cpp:434] conv6_2_mbox_loc_flat <- conv6_2_mbox_loc_perm
I0324 23:59:14.250546 20044 net.cpp:408] conv6_2_mbox_loc_flat -> conv6_2_mbox_loc_flat
I0324 23:59:14.250658 20044 net.cpp:150] Setting up conv6_2_mbox_loc_flat
I0324 23:59:14.250725 20044 net.cpp:157] Top shape: 1 2400 (2400)
I0324 23:59:14.250783 20044 net.cpp:165] Memory required for data: 263813624
I0324 23:59:14.250845 20044 layer_factory.hpp:77] Creating layer conv6_2_mbox_conf
I0324 23:59:14.250921 20044 net.cpp:100] Creating Layer conv6_2_mbox_conf
I0324 23:59:14.250985 20044 net.cpp:434] conv6_2_mbox_conf <- conv6_2_conv6_2_relu_0_split_2
I0324 23:59:14.251060 20044 net.cpp:408] conv6_2_mbox_conf -> conv6_2_mbox_conf
I0324 23:59:14.259357 20044 net.cpp:150] Setting up conv6_2_mbox_conf
I0324 23:59:14.259519 20044 net.cpp:157] Top shape: 1 66 10 10 (6600)
I0324 23:59:14.259586 20044 net.cpp:165] Memory required for data: 263840024
I0324 23:59:14.259666 20044 layer_factory.hpp:77] Creating layer conv6_2_mbox_conf_perm
I0324 23:59:14.259740 20044 net.cpp:100] Creating Layer conv6_2_mbox_conf_perm
I0324 23:59:14.259809 20044 net.cpp:434] conv6_2_mbox_conf_perm <- conv6_2_mbox_conf
I0324 23:59:14.259892 20044 net.cpp:408] conv6_2_mbox_conf_perm -> conv6_2_mbox_conf_perm
I0324 23:59:14.260205 20044 net.cpp:150] Setting up conv6_2_mbox_conf_perm
I0324 23:59:14.260295 20044 net.cpp:157] Top shape: 1 10 10 66 (6600)
I0324 23:59:14.260368 20044 net.cpp:165] Memory required for data: 263866424
I0324 23:59:14.260447 20044 layer_factory.hpp:77] Creating layer conv6_2_mbox_conf_flat
I0324 23:59:14.260519 20044 net.cpp:100] Creating Layer conv6_2_mbox_conf_flat
I0324 23:59:14.260584 20044 net.cpp:434] conv6_2_mbox_conf_flat <- conv6_2_mbox_conf_perm
I0324 23:59:14.260658 20044 net.cpp:408] conv6_2_mbox_conf_flat -> conv6_2_mbox_conf_flat
I0324 23:59:14.260782 20044 net.cpp:150] Setting up conv6_2_mbox_conf_flat
I0324 23:59:14.260850 20044 net.cpp:157] Top shape: 1 6600 (6600)
I0324 23:59:14.260915 20044 net.cpp:165] Memory required for data: 263892824
I0324 23:59:14.260978 20044 layer_factory.hpp:77] Creating layer conv6_2_mbox_priorbox
I0324 23:59:14.261049 20044 net.cpp:100] Creating Layer conv6_2_mbox_priorbox
I0324 23:59:14.261139 20044 net.cpp:434] conv6_2_mbox_priorbox <- conv6_2_conv6_2_relu_0_split_3
I0324 23:59:14.261212 20044 net.cpp:434] conv6_2_mbox_priorbox <- data_data_0_split_3
I0324 23:59:14.261283 20044 net.cpp:408] conv6_2_mbox_priorbox -> conv6_2_mbox_priorbox
I0324 23:59:14.261415 20044 net.cpp:150] Setting up conv6_2_mbox_priorbox
I0324 23:59:14.261482 20044 net.cpp:157] Top shape: 1 2 2400 (4800)
I0324 23:59:14.261543 20044 net.cpp:165] Memory required for data: 263912024
I0324 23:59:14.261606 20044 layer_factory.hpp:77] Creating layer conv7_2_mbox_loc
I0324 23:59:14.261685 20044 net.cpp:100] Creating Layer conv7_2_mbox_loc
I0324 23:59:14.261771 20044 net.cpp:434] conv7_2_mbox_loc <- conv7_2_conv7_2_relu_0_split_1
I0324 23:59:14.261852 20044 net.cpp:408] conv7_2_mbox_loc -> conv7_2_mbox_loc
I0324 23:59:14.279397 20044 net.cpp:150] Setting up conv7_2_mbox_loc
I0324 23:59:14.282461 20044 net.cpp:157] Top shape: 1 24 5 5 (600)
I0324 23:59:14.282510 20044 net.cpp:165] Memory required for data: 263914424
I0324 23:59:14.282542 20044 layer_factory.hpp:77] Creating layer conv7_2_mbox_loc_perm
I0324 23:59:14.282583 20044 net.cpp:100] Creating Layer conv7_2_mbox_loc_perm
I0324 23:59:14.282605 20044 net.cpp:434] conv7_2_mbox_loc_perm <- conv7_2_mbox_loc
I0324 23:59:14.282629 20044 net.cpp:408] conv7_2_mbox_loc_perm -> conv7_2_mbox_loc_perm
I0324 23:59:14.282907 20044 net.cpp:150] Setting up conv7_2_mbox_loc_perm
I0324 23:59:14.282932 20044 net.cpp:157] Top shape: 1 5 5 24 (600)
I0324 23:59:14.282948 20044 net.cpp:165] Memory required for data: 263916824
I0324 23:59:14.282963 20044 layer_factory.hpp:77] Creating layer conv7_2_mbox_loc_flat
I0324 23:59:14.282987 20044 net.cpp:100] Creating Layer conv7_2_mbox_loc_flat
I0324 23:59:14.283004 20044 net.cpp:434] conv7_2_mbox_loc_flat <- conv7_2_mbox_loc_perm
I0324 23:59:14.283025 20044 net.cpp:408] conv7_2_mbox_loc_flat -> conv7_2_mbox_loc_flat
I0324 23:59:14.283084 20044 net.cpp:150] Setting up conv7_2_mbox_loc_flat
I0324 23:59:14.283107 20044 net.cpp:157] Top shape: 1 600 (600)
I0324 23:59:14.283123 20044 net.cpp:165] Memory required for data: 263919224
I0324 23:59:14.283138 20044 layer_factory.hpp:77] Creating layer conv7_2_mbox_conf
I0324 23:59:14.283167 20044 net.cpp:100] Creating Layer conv7_2_mbox_conf
I0324 23:59:14.283186 20044 net.cpp:434] conv7_2_mbox_conf <- conv7_2_conv7_2_relu_0_split_2
I0324 23:59:14.283207 20044 net.cpp:408] conv7_2_mbox_conf -> conv7_2_mbox_conf
I0324 23:59:14.287698 20044 net.cpp:150] Setting up conv7_2_mbox_conf
I0324 23:59:14.301772 20044 net.cpp:157] Top shape: 1 66 5 5 (1650)
I0324 23:59:14.301831 20044 net.cpp:165] Memory required for data: 263925824
I0324 23:59:14.301863 20044 layer_factory.hpp:77] Creating layer conv7_2_mbox_conf_perm
I0324 23:59:14.301898 20044 net.cpp:100] Creating Layer conv7_2_mbox_conf_perm
I0324 23:59:14.301920 20044 net.cpp:434] conv7_2_mbox_conf_perm <- conv7_2_mbox_conf
I0324 23:59:14.301946 20044 net.cpp:408] conv7_2_mbox_conf_perm -> conv7_2_mbox_conf_perm
I0324 23:59:14.302237 20044 net.cpp:150] Setting up conv7_2_mbox_conf_perm
I0324 23:59:14.302266 20044 net.cpp:157] Top shape: 1 5 5 66 (1650)
I0324 23:59:14.302284 20044 net.cpp:165] Memory required for data: 263932424
I0324 23:59:14.302304 20044 layer_factory.hpp:77] Creating layer conv7_2_mbox_conf_flat
I0324 23:59:14.302346 20044 net.cpp:100] Creating Layer conv7_2_mbox_conf_flat
I0324 23:59:14.302366 20044 net.cpp:434] conv7_2_mbox_conf_flat <- conv7_2_mbox_conf_perm
I0324 23:59:14.302387 20044 net.cpp:408] conv7_2_mbox_conf_flat -> conv7_2_mbox_conf_flat
I0324 23:59:14.302448 20044 net.cpp:150] Setting up conv7_2_mbox_conf_flat
I0324 23:59:14.302472 20044 net.cpp:157] Top shape: 1 1650 (1650)
I0324 23:59:14.302490 20044 net.cpp:165] Memory required for data: 263939024
I0324 23:59:14.302506 20044 layer_factory.hpp:77] Creating layer conv7_2_mbox_priorbox
I0324 23:59:14.302531 20044 net.cpp:100] Creating Layer conv7_2_mbox_priorbox
I0324 23:59:14.302549 20044 net.cpp:434] conv7_2_mbox_priorbox <- conv7_2_conv7_2_relu_0_split_3
I0324 23:59:14.302569 20044 net.cpp:434] conv7_2_mbox_priorbox <- data_data_0_split_4
I0324 23:59:14.302592 20044 net.cpp:408] conv7_2_mbox_priorbox -> conv7_2_mbox_priorbox
I0324 23:59:14.302664 20044 net.cpp:150] Setting up conv7_2_mbox_priorbox
I0324 23:59:14.302686 20044 net.cpp:157] Top shape: 1 2 600 (1200)
I0324 23:59:14.302703 20044 net.cpp:165] Memory required for data: 263943824
I0324 23:59:14.302719 20044 layer_factory.hpp:77] Creating layer conv8_2_mbox_loc
I0324 23:59:14.302748 20044 net.cpp:100] Creating Layer conv8_2_mbox_loc
I0324 23:59:14.302767 20044 net.cpp:434] conv8_2_mbox_loc <- conv8_2_conv8_2_relu_0_split_1
I0324 23:59:14.302788 20044 net.cpp:408] conv8_2_mbox_loc -> conv8_2_mbox_loc
I0324 23:59:14.305420 20044 net.cpp:150] Setting up conv8_2_mbox_loc
I0324 23:59:14.305482 20044 net.cpp:157] Top shape: 1 16 3 3 (144)
I0324 23:59:14.305501 20044 net.cpp:165] Memory required for data: 263944400
I0324 23:59:14.305528 20044 layer_factory.hpp:77] Creating layer conv8_2_mbox_loc_perm
I0324 23:59:14.305559 20044 net.cpp:100] Creating Layer conv8_2_mbox_loc_perm
I0324 23:59:14.305580 20044 net.cpp:434] conv8_2_mbox_loc_perm <- conv8_2_mbox_loc
I0324 23:59:14.305603 20044 net.cpp:408] conv8_2_mbox_loc_perm -> conv8_2_mbox_loc_perm
I0324 23:59:14.305826 20044 net.cpp:150] Setting up conv8_2_mbox_loc_perm
I0324 23:59:14.305853 20044 net.cpp:157] Top shape: 1 3 3 16 (144)
I0324 23:59:14.305871 20044 net.cpp:165] Memory required for data: 263944976
I0324 23:59:14.305886 20044 layer_factory.hpp:77] Creating layer conv8_2_mbox_loc_flat
I0324 23:59:14.305908 20044 net.cpp:100] Creating Layer conv8_2_mbox_loc_flat
I0324 23:59:14.305932 20044 net.cpp:434] conv8_2_mbox_loc_flat <- conv8_2_mbox_loc_perm
I0324 23:59:14.305955 20044 net.cpp:408] conv8_2_mbox_loc_flat -> conv8_2_mbox_loc_flat
I0324 23:59:14.306013 20044 net.cpp:150] Setting up conv8_2_mbox_loc_flat
I0324 23:59:14.306040 20044 net.cpp:157] Top shape: 1 144 (144)
I0324 23:59:14.306053 20044 net.cpp:165] Memory required for data: 263945552
I0324 23:59:14.306069 20044 layer_factory.hpp:77] Creating layer conv8_2_mbox_conf
I0324 23:59:14.306097 20044 net.cpp:100] Creating Layer conv8_2_mbox_conf
I0324 23:59:14.306115 20044 net.cpp:434] conv8_2_mbox_conf <- conv8_2_conv8_2_relu_0_split_2
I0324 23:59:14.306136 20044 net.cpp:408] conv8_2_mbox_conf -> conv8_2_mbox_conf
I0324 23:59:14.310058 20044 net.cpp:150] Setting up conv8_2_mbox_conf
I0324 23:59:14.310125 20044 net.cpp:157] Top shape: 1 44 3 3 (396)
I0324 23:59:14.310143 20044 net.cpp:165] Memory required for data: 263947136
I0324 23:59:14.310171 20044 layer_factory.hpp:77] Creating layer conv8_2_mbox_conf_perm
I0324 23:59:14.310199 20044 net.cpp:100] Creating Layer conv8_2_mbox_conf_perm
I0324 23:59:14.310217 20044 net.cpp:434] conv8_2_mbox_conf_perm <- conv8_2_mbox_conf
I0324 23:59:14.310241 20044 net.cpp:408] conv8_2_mbox_conf_perm -> conv8_2_mbox_conf_perm
I0324 23:59:14.310454 20044 net.cpp:150] Setting up conv8_2_mbox_conf_perm
I0324 23:59:14.310479 20044 net.cpp:157] Top shape: 1 3 3 44 (396)
I0324 23:59:14.310495 20044 net.cpp:165] Memory required for data: 263948720
I0324 23:59:14.310510 20044 layer_factory.hpp:77] Creating layer conv8_2_mbox_conf_flat
I0324 23:59:14.310530 20044 net.cpp:100] Creating Layer conv8_2_mbox_conf_flat
I0324 23:59:14.310556 20044 net.cpp:434] conv8_2_mbox_conf_flat <- conv8_2_mbox_conf_perm
I0324 23:59:14.310588 20044 net.cpp:408] conv8_2_mbox_conf_flat -> conv8_2_mbox_conf_flat
I0324 23:59:14.310648 20044 net.cpp:150] Setting up conv8_2_mbox_conf_flat
I0324 23:59:14.310670 20044 net.cpp:157] Top shape: 1 396 (396)
I0324 23:59:14.310686 20044 net.cpp:165] Memory required for data: 263950304
I0324 23:59:14.310703 20044 layer_factory.hpp:77] Creating layer conv8_2_mbox_priorbox
I0324 23:59:14.310724 20044 net.cpp:100] Creating Layer conv8_2_mbox_priorbox
I0324 23:59:14.310741 20044 net.cpp:434] conv8_2_mbox_priorbox <- conv8_2_conv8_2_relu_0_split_3
I0324 23:59:14.310760 20044 net.cpp:434] conv8_2_mbox_priorbox <- data_data_0_split_5
I0324 23:59:14.310782 20044 net.cpp:408] conv8_2_mbox_priorbox -> conv8_2_mbox_priorbox
I0324 23:59:14.310851 20044 net.cpp:150] Setting up conv8_2_mbox_priorbox
I0324 23:59:14.310874 20044 net.cpp:157] Top shape: 1 2 144 (288)
I0324 23:59:14.310890 20044 net.cpp:165] Memory required for data: 263951456
I0324 23:59:14.310905 20044 layer_factory.hpp:77] Creating layer conv9_2_mbox_loc
I0324 23:59:14.310933 20044 net.cpp:100] Creating Layer conv9_2_mbox_loc
I0324 23:59:14.310951 20044 net.cpp:434] conv9_2_mbox_loc <- conv9_2_conv9_2_relu_0_split_0
I0324 23:59:14.310979 20044 net.cpp:408] conv9_2_mbox_loc -> conv9_2_mbox_loc
I0324 23:59:14.313475 20044 net.cpp:150] Setting up conv9_2_mbox_loc
I0324 23:59:14.323660 20044 net.cpp:157] Top shape: 1 16 1 1 (16)
I0324 23:59:14.323716 20044 net.cpp:165] Memory required for data: 263951520
I0324 23:59:14.323750 20044 layer_factory.hpp:77] Creating layer conv9_2_mbox_loc_perm
I0324 23:59:14.323779 20044 net.cpp:100] Creating Layer conv9_2_mbox_loc_perm
I0324 23:59:14.323799 20044 net.cpp:434] conv9_2_mbox_loc_perm <- conv9_2_mbox_loc
I0324 23:59:14.323822 20044 net.cpp:408] conv9_2_mbox_loc_perm -> conv9_2_mbox_loc_perm
I0324 23:59:14.324113 20044 net.cpp:150] Setting up conv9_2_mbox_loc_perm
I0324 23:59:14.324138 20044 net.cpp:157] Top shape: 1 1 1 16 (16)
I0324 23:59:14.324154 20044 net.cpp:165] Memory required for data: 263951584
I0324 23:59:14.324169 20044 layer_factory.hpp:77] Creating layer conv9_2_mbox_loc_flat
I0324 23:59:14.324193 20044 net.cpp:100] Creating Layer conv9_2_mbox_loc_flat
I0324 23:59:14.324210 20044 net.cpp:434] conv9_2_mbox_loc_flat <- conv9_2_mbox_loc_perm
I0324 23:59:14.324228 20044 net.cpp:408] conv9_2_mbox_loc_flat -> conv9_2_mbox_loc_flat
I0324 23:59:14.324288 20044 net.cpp:150] Setting up conv9_2_mbox_loc_flat
I0324 23:59:14.324311 20044 net.cpp:157] Top shape: 1 16 (16)
I0324 23:59:14.324326 20044 net.cpp:165] Memory required for data: 263951648
I0324 23:59:14.324342 20044 layer_factory.hpp:77] Creating layer conv9_2_mbox_conf
I0324 23:59:14.324369 20044 net.cpp:100] Creating Layer conv9_2_mbox_conf
I0324 23:59:14.324388 20044 net.cpp:434] conv9_2_mbox_conf <- conv9_2_conv9_2_relu_0_split_1
I0324 23:59:14.324410 20044 net.cpp:408] conv9_2_mbox_conf -> conv9_2_mbox_conf
I0324 23:59:14.328420 20044 net.cpp:150] Setting up conv9_2_mbox_conf
I0324 23:59:14.328485 20044 net.cpp:157] Top shape: 1 44 1 1 (44)
I0324 23:59:14.328505 20044 net.cpp:165] Memory required for data: 263951824
I0324 23:59:14.328533 20044 layer_factory.hpp:77] Creating layer conv9_2_mbox_conf_perm
I0324 23:59:14.328562 20044 net.cpp:100] Creating Layer conv9_2_mbox_conf_perm
I0324 23:59:14.328583 20044 net.cpp:434] conv9_2_mbox_conf_perm <- conv9_2_mbox_conf
I0324 23:59:14.328603 20044 net.cpp:408] conv9_2_mbox_conf_perm -> conv9_2_mbox_conf_perm
I0324 23:59:14.328816 20044 net.cpp:150] Setting up conv9_2_mbox_conf_perm
I0324 23:59:14.328841 20044 net.cpp:157] Top shape: 1 1 1 44 (44)
I0324 23:59:14.328857 20044 net.cpp:165] Memory required for data: 263952000
I0324 23:59:14.328874 20044 layer_factory.hpp:77] Creating layer conv9_2_mbox_conf_flat
I0324 23:59:14.328896 20044 net.cpp:100] Creating Layer conv9_2_mbox_conf_flat
I0324 23:59:14.328913 20044 net.cpp:434] conv9_2_mbox_conf_flat <- conv9_2_mbox_conf_perm
I0324 23:59:14.328933 20044 net.cpp:408] conv9_2_mbox_conf_flat -> conv9_2_mbox_conf_flat
I0324 23:59:14.329011 20044 net.cpp:150] Setting up conv9_2_mbox_conf_flat
I0324 23:59:14.329035 20044 net.cpp:157] Top shape: 1 44 (44)
I0324 23:59:14.329049 20044 net.cpp:165] Memory required for data: 263952176
I0324 23:59:14.329063 20044 layer_factory.hpp:77] Creating layer conv9_2_mbox_priorbox
I0324 23:59:14.329087 20044 net.cpp:100] Creating Layer conv9_2_mbox_priorbox
I0324 23:59:14.329105 20044 net.cpp:434] conv9_2_mbox_priorbox <- conv9_2_conv9_2_relu_0_split_2
I0324 23:59:14.329123 20044 net.cpp:434] conv9_2_mbox_priorbox <- data_data_0_split_6
I0324 23:59:14.329145 20044 net.cpp:408] conv9_2_mbox_priorbox -> conv9_2_mbox_priorbox
I0324 23:59:14.329216 20044 net.cpp:150] Setting up conv9_2_mbox_priorbox
I0324 23:59:14.329239 20044 net.cpp:157] Top shape: 1 2 16 (32)
I0324 23:59:14.329254 20044 net.cpp:165] Memory required for data: 263952304
I0324 23:59:14.329270 20044 layer_factory.hpp:77] Creating layer mbox_loc
I0324 23:59:14.329293 20044 net.cpp:100] Creating Layer mbox_loc
I0324 23:59:14.329313 20044 net.cpp:434] mbox_loc <- conv4_3_norm_mbox_loc_flat
I0324 23:59:14.329329 20044 net.cpp:434] mbox_loc <- fc7_mbox_loc_flat
I0324 23:59:14.329347 20044 net.cpp:434] mbox_loc <- conv6_2_mbox_loc_flat
I0324 23:59:14.329365 20044 net.cpp:434] mbox_loc <- conv7_2_mbox_loc_flat
I0324 23:59:14.329381 20044 net.cpp:434] mbox_loc <- conv8_2_mbox_loc_flat
I0324 23:59:14.329397 20044 net.cpp:434] mbox_loc <- conv9_2_mbox_loc_flat
I0324 23:59:14.329416 20044 net.cpp:408] mbox_loc -> mbox_loc
I0324 23:59:14.329480 20044 net.cpp:150] Setting up mbox_loc
I0324 23:59:14.329502 20044 net.cpp:157] Top shape: 1 34928 (34928)
I0324 23:59:14.329517 20044 net.cpp:165] Memory required for data: 264092016
I0324 23:59:14.329532 20044 layer_factory.hpp:77] Creating layer mbox_conf
I0324 23:59:14.329555 20044 net.cpp:100] Creating Layer mbox_conf
I0324 23:59:14.329572 20044 net.cpp:434] mbox_conf <- conv4_3_norm_mbox_conf_flat
I0324 23:59:14.329591 20044 net.cpp:434] mbox_conf <- fc7_mbox_conf_flat
I0324 23:59:14.329607 20044 net.cpp:434] mbox_conf <- conv6_2_mbox_conf_flat
I0324 23:59:14.329623 20044 net.cpp:434] mbox_conf <- conv7_2_mbox_conf_flat
I0324 23:59:14.329639 20044 net.cpp:434] mbox_conf <- conv8_2_mbox_conf_flat
I0324 23:59:14.329655 20044 net.cpp:434] mbox_conf <- conv9_2_mbox_conf_flat
I0324 23:59:14.329674 20044 net.cpp:408] mbox_conf -> mbox_conf
I0324 23:59:14.329756 20044 net.cpp:150] Setting up mbox_conf
I0324 23:59:14.329782 20044 net.cpp:157] Top shape: 1 96052 (96052)
I0324 23:59:14.329797 20044 net.cpp:165] Memory required for data: 264476224
I0324 23:59:14.329811 20044 layer_factory.hpp:77] Creating layer mbox_priorbox
I0324 23:59:14.329831 20044 net.cpp:100] Creating Layer mbox_priorbox
I0324 23:59:14.329849 20044 net.cpp:434] mbox_priorbox <- conv4_3_norm_mbox_priorbox
I0324 23:59:14.329865 20044 net.cpp:434] mbox_priorbox <- fc7_mbox_priorbox
I0324 23:59:14.329882 20044 net.cpp:434] mbox_priorbox <- conv6_2_mbox_priorbox
I0324 23:59:14.329900 20044 net.cpp:434] mbox_priorbox <- conv7_2_mbox_priorbox
I0324 23:59:14.329916 20044 net.cpp:434] mbox_priorbox <- conv8_2_mbox_priorbox
I0324 23:59:14.329931 20044 net.cpp:434] mbox_priorbox <- conv9_2_mbox_priorbox
I0324 23:59:14.329952 20044 net.cpp:408] mbox_priorbox -> mbox_priorbox
I0324 23:59:14.330014 20044 net.cpp:150] Setting up mbox_priorbox
I0324 23:59:14.330039 20044 net.cpp:157] Top shape: 1 2 34928 (69856)
I0324 23:59:14.330054 20044 net.cpp:165] Memory required for data: 264755648
I0324 23:59:14.330070 20044 layer_factory.hpp:77] Creating layer mbox_conf_reshape
I0324 23:59:14.330091 20044 net.cpp:100] Creating Layer mbox_conf_reshape
I0324 23:59:14.330108 20044 net.cpp:434] mbox_conf_reshape <- mbox_conf
I0324 23:59:14.330129 20044 net.cpp:408] mbox_conf_reshape -> mbox_conf_reshape
I0324 23:59:14.330196 20044 net.cpp:150] Setting up mbox_conf_reshape
I0324 23:59:14.330224 20044 net.cpp:157] Top shape: 1 8732 11 (96052)
I0324 23:59:14.330241 20044 net.cpp:165] Memory required for data: 265139856
I0324 23:59:14.330265 20044 layer_factory.hpp:77] Creating layer mbox_conf_softmax
I0324 23:59:14.330293 20044 net.cpp:100] Creating Layer mbox_conf_softmax
I0324 23:59:14.330312 20044 net.cpp:434] mbox_conf_softmax <- mbox_conf_reshape
I0324 23:59:14.330330 20044 net.cpp:408] mbox_conf_softmax -> mbox_conf_softmax
I0324 23:59:14.330747 20044 net.cpp:150] Setting up mbox_conf_softmax
I0324 23:59:14.330776 20044 net.cpp:157] Top shape: 1 8732 11 (96052)
I0324 23:59:14.330796 20044 net.cpp:165] Memory required for data: 265524064
I0324 23:59:14.330813 20044 layer_factory.hpp:77] Creating layer mbox_conf_flatten
I0324 23:59:14.330832 20044 net.cpp:100] Creating Layer mbox_conf_flatten
I0324 23:59:14.330849 20044 net.cpp:434] mbox_conf_flatten <- mbox_conf_softmax
I0324 23:59:14.330871 20044 net.cpp:408] mbox_conf_flatten -> mbox_conf_flatten
I0324 23:59:14.330931 20044 net.cpp:150] Setting up mbox_conf_flatten
I0324 23:59:14.330953 20044 net.cpp:157] Top shape: 1 96052 (96052)
I0324 23:59:14.330968 20044 net.cpp:165] Memory required for data: 265908272
I0324 23:59:14.330986 20044 layer_factory.hpp:77] Creating layer detection_out
I0324 23:59:14.331019 20044 net.cpp:100] Creating Layer detection_out
I0324 23:59:14.331037 20044 net.cpp:434] detection_out <- mbox_loc
I0324 23:59:14.331054 20044 net.cpp:434] detection_out <- mbox_conf_flatten
I0324 23:59:14.331073 20044 net.cpp:434] detection_out <- mbox_priorbox
I0324 23:59:14.331092 20044 net.cpp:408] detection_out -> detection_out
W0324 23:59:14.331143 20044 detection_output_layer.cpp:49] Failed to create directory: /home/zs/data/VOCdevkit/results/VOC2007/SSD_300x300_0324_conv4_2/Main
I0324 23:59:14.331929 20044 net.cpp:150] Setting up detection_out
I0324 23:59:14.331960 20044 net.cpp:157] Top shape: 1 1 1 7 (7)
I0324 23:59:14.331977 20044 net.cpp:165] Memory required for data: 265908300
I0324 23:59:14.331993 20044 layer_factory.hpp:77] Creating layer detection_eval
I0324 23:59:14.332015 20044 net.cpp:100] Creating Layer detection_eval
I0324 23:59:14.332032 20044 net.cpp:434] detection_eval <- detection_out
I0324 23:59:14.332049 20044 net.cpp:434] detection_eval <- label
I0324 23:59:14.332068 20044 net.cpp:408] detection_eval -> detection_eval
I0324 23:59:14.332259 20044 net.cpp:150] Setting up detection_eval
I0324 23:59:14.332286 20044 net.cpp:157] Top shape: 1 1 11 5 (55)
I0324 23:59:14.332304 20044 net.cpp:165] Memory required for data: 265908520
I0324 23:59:14.332319 20044 net.cpp:228] detection_eval does not need backward computation.
I0324 23:59:14.332336 20044 net.cpp:228] detection_out does not need backward computation.
I0324 23:59:14.332355 20044 net.cpp:228] mbox_conf_flatten does not need backward computation.
I0324 23:59:14.332370 20044 net.cpp:228] mbox_conf_softmax does not need backward computation.
…
