…
      sampler {
        min_scale: 0.3
        max_scale: 1
        min_aspect_ratio: 0.5
        max_aspect_ratio: 2
      }
      sample_constraint {
        min_jaccard_overlap: 0.9
      }
      max_sample: 1
      max_trials: 50
    }
    batch_sampler {
      sampler {
        min_scale: 0.3
        max_scale: 1
        min_aspect_ratio: 0.5
        max_aspect_ratio: 2
      }
      sample_constraint {
        max_jaccard_overlap: 1
      }
      max_sample: 1
      max_trials: 50
    }
    label_map_file: "data/NWPU_VHR/labelmap_NWPU_VHR.prototxt"
  }
}
layer {
  name: "conv1_1"
  type: "Convolution"
  bottom: "data"
  top: "conv1_1"
  param {
    lr_mult: 1
    decay_mult: 1
  }
  param {
    lr_mult: 2
    decay_mult: 0
  }
  convolution_param {
    num_output: 64
    pad: 1
    kernel_size: 3
    weight_filler {
      type: "xavier"
    }
    bias_filler {
      type: "constant"
      value: 0
    }
  }
}
layer {
  name: "relu1_1"
  type: "ReLU"
  bottom: "conv1_1"
  top: "conv1_1"
}
layer {
  name: "conv1_2"
  type: "Convolution"
  bottom: "conv1_1"
  top: "conv1_2"
  param {
    lr_mult: 1
    decay_mult: 1
  }
  param {
    lr_mult: 2
    decay_mult: 0
  }
  convolution_param {
    num_output: 64
    pad: 1
    kernel_size: 3
    weight_filler {
      type: "xavier"
    }
    bias_filler {
      type: "constant"
      value: 0
    }
  }
}
layer {
  name: "relu1_2"
  type: "ReLU"
  bottom: "conv1_2"
  top: "conv1_2"
}
layer {
  name: "pool1"
  type: "Pooling"
  bottom: "conv1_2"
  top: "pool1"
  pooling_param {
    pool: MAX
    kernel_size: 2
    stride: 2
  }
}
layer {
  name: "conv2_1"
  type: "Convolution"
  bottom: "pool1"
  top: "conv2_1"
  param {
    lr_mult: 1
    decay_mult: 1
  }
  param {
    lr_mult: 2
    decay_mult: 0
  }
  convolution_param {
    num_output: 128
    pad: 1
    kernel_size: 3
    weight_filler {
      type: "xavier"
    }
    bias_filler {
      type: "constant"
      value: 0
    }
  }
}
layer {
  name: "relu2_1"
  type: "ReLU"
  bottom: "conv2_1"
  top: "conv2_1"
}
layer {
  name: "conv2_2"
  type: "Convolution"
  bottom: "conv2_1"
  top: "conv2_2"
  param {
    lr_mult: 1
    decay_mult: 1
  }
  param {
    lr_mult: 2
    decay_mult: 0
  }
  convolution_param {
    num_output: 128
    pad: 1
    kernel_size: 3
    weight_filler {
      type: "xavier"
    }
    bias_filler {
      type: "constant"
      value: 0
    }
  }
}
layer {
  name: "relu2_2"
  type: "ReLU"
  bottom: "conv2_2"
  top: "conv2_2"
}
layer {
  name: "pool2"
  type: "Pooling"
  bottom: "conv2_2"
  top: "pool2"
  pooling_param {
    pool: MAX
    kernel_size: 2
    stride: 2
  }
}
layer {
  name: "conv3_1"
  type: "Convolution"
  bottom: "pool2"
  top: "conv3_1"
  param {
    lr_mult: 1
    decay_mult: 1
  }
  param {
    lr_mult: 2
    decay_mult: 0
  }
  convolution_param {
    num_output: 256
    pad: 1
    kernel_size: 3
    weight_filler {
      type: "xavier"
    }
    bias_filler {
      type: "constant"
      value: 0
    }
  }
}
layer {
  name: "relu3_1"
  type: "ReLU"
  bottom: "conv3_1"
  top: "conv3_1"
}
layer {
  name: "conv3_2"
  type: "Convolution"
  bottom: "conv3_1"
  top: "conv3_2"
  param {
    lr_mult: 1
    decay_mult: 1
  }
  param {
    lr_mult: 2
    decay_mult: 0
  }
  convolution_param {
    num_output: 256
    pad: 1
    kernel_size: 3
    weight_filler {
      type: "xavier"
    }
    bias_filler {
      type: "constant"
      value: 0
    }
  }
}
layer {
  name: "relu3_2"
  type: "ReLU"
  bottom: "conv3_2"
  top: "conv3_2"
}
layer {
  name: "conv3_3"
  type: "Convolution"
  bottom: "conv3_2"
  top: "conv3_3"
  param {
    lr_mult: 1
    decay_mult: 1
  }
  param {
    lr_mult: 2
    decay_mult: 0
  }
  convolution_param {
    num_output: 256
    pad: 1
    kernel_size: 3
    weight_filler {
      type: "xavier"
    }
    bias_filler {
      type: "constant"
      value: 0
    }
  }
}
layer {
  name: "relu3_3"
  type: "ReLU"
  bottom: "conv3_3"
  top: "conv3_3"
}
layer {
  name: "pool3"
  type: "Pooling"
  bottom: "conv3_3"
  top: "pool3"
  pooling_param {
    pool: MAX
    kernel_size: 2
    stride: 2
  }
}
layer {
  name: "conv4_1"
  type: "Convolution"
  bottom: "pool3"
  top: "conv4_1"
  param {
    lr_mult: 1
    decay_mult: 1
  }
  param {
    lr_mult: 2
    decay_mult: 0
  }
  convolution_param {
    num_output: 512
    pad: 1
    kernel_size: 3
    weight_filler {
      type: "xavier"
    }
    bias_filler {
      type: "constant"
      value: 0
    }
  }
}
layer {
  name: "relu4_1"
  type: "ReLU"
  bottom: "conv4_1"
  top: "conv4_1"
}
layer {
  name: "conv4_2"
  type: "Convolution"
  bottom: "conv4_1"
  top: "conv4_2"
  param {
    lr_mult: 1
    decay_mult: 1
  }
  param {
    lr_mult: 2
    decay_mult: 0
  }
  convolution_param {
    num_output: 512
    pad: 1
    kernel_size: 3
    weight_filler {
      type: "xavier"
    }
    bias_filler {
      type: "constant"
      value: 0
    }
  }
}
layer {
  name: "relu4_2"
  type: "ReLU"
  bottom: "conv4_2"
  top: "conv4_2"
}
layer {
  name: "conv4_3"
  type: "Convolution"
  bottom: "conv4_2"
  top: "conv4_3"
  param {
    lr_mult: 1
    decay_mult: 1
  }
  param {
    lr_mult: 2
    decay_mult: 0
  }
  convolution_param {
    num_output: 512
    pad: 1
    kernel_size: 3
    weight_filler {
      type: "xavier"
    }
    bias_filler {
      type: "constant"
      value: 0
    }
  }
}
layer {
  name: "relu4_3"
  type: "ReLU"
  bottom: "conv4_3"
  top: "conv4_3"
}
layer {
  name: "pool4"
  type: "Pooling"
  bottom: "conv4_3"
  top: "pool4"
  pooling_param {
    pool: MAX
    kernel_size: 2
    stride: 2
  }
}
layer {
  name: "conv5_1"
  type: "Convolution"
  bottom: "pool4"
  top: "conv5_1"
  param {
    lr_mult: 1
    decay_mult: 1
  }
  param {
    lr_mult: 2
    decay_mult: 0
  }
  convolution_param {
    num_output: 512
    pad: 1
    kernel_size: 3
    weight_filler {
      type: "xavier"
    }
    bias_filler {
      type: "constant"
      value: 0
    }
    dilation: 1
  }
}
layer {
  name: "relu5_1"
  type: "ReLU"
  bottom: "conv5_1"
  top: "conv5_1"
}
layer {
  name: "conv5_2"
  type: "Convolution"
  bottom: "conv5_1"
  top: "conv5_2"
  param {
    lr_mult: 1
    decay_mult: 1
  }
  param {
    lr_mult: 2
    decay_mult: 0
  }
  convolution_param {
    num_output: 512
    pad: 1
    kernel_size: 3
    weight_filler {
      type: "xavier"
    }
    bias_filler {
      type: "constant"
      value: 0
    }
    dilation: 1
  }
}
layer {
  name: "relu5_2"
  type: "ReLU"
  bottom: "conv5_2"
  top: "conv5_2"
}
layer {
  name: "conv5_3"
  type: "Convolution"
  bottom: "conv5_2"
  top: "conv5_3"
  param {
    lr_mult: 1
    decay_mult: 1
  }
  param {
    lr_mult: 2
    decay_mult: 0
  }
  convolution_param {
    num_output: 512
    pad: 1
    kernel_size: 3
    weight_filler {
      type: "xavier"
    }
    bias_filler {
      type: "constant"
      value: 0
    }
    dilation: 1
  }
}
layer {
  name: "relu5_3"
  type: "ReLU"
  bottom: "conv5_3"
  top: "conv5_3"
}
layer {
  name: "pool5"
  type: "Pooling"
  bottom: "conv5_3"
  top: "pool5"
  pooling_param {
    pool: MAX
    kernel_size: 3
    stride: 1
    pad: 1
  }
}
layer {
  name: "fc6"
  type: "Convolution"
  bottom: "pool5"
  top: "fc6"
  param {
    lr_mult: 1
    decay_mult: 1
  }
  param {
    lr_mult: 2
    decay_mult: 0
  }
  convolution_param {
    num_output: 1024
    pad: 6
    kernel_size: 3
    weight_filler {
      type: "xavier"
    }
    bias_filler {
      type: "constant"
      value: 0
    }
    dilation: 6
  }
}
layer {
  name: "relu6"
  type: "ReLU"
  bottom: "fc6"
  top: "fc6"
}
layer {
  name: "fc7"
  type: "Convolution"
  bottom: "fc6"
  top: "fc7"
  param {
    lr_mult: 1
    decay_mult: 1
  }
  param {
    lr_mult: 2
    decay_mult: 0
  }
  convolution_param {
    num_output: 1024
    kernel_size: 1
    weight_filler {
      type: "xavier"
    }
    bias_filler {
      type: "constant"
      value: 0
    }
  }
}
layer {
  name: "relu7"
  type: "ReLU"
  bottom: "fc7"
  top: "fc7"
}
layer {
  name: "conv6_1"
  type: "Convolution"
  bottom: "fc7"
  top: "conv6_1"
  param {
    lr_mult: 1
    decay_mult: 1
  }
  param {
    lr_mult: 2
    decay_mult: 0
  }
  convolution_param {
    num_output: 256
    pad: 0
    kernel_size: 1
    stride: 1
    weight_filler {
      type: "xavier"
    }
    bias_filler {
      type: "constant"
      value: 0
    }
  }
}
layer {
  name: "conv6_1_relu"
  type: "ReLU"
  bottom: "conv6_1"
  top: "conv6_1"
}
layer {
  name: "conv6_2"
  type: "Convolution"
  bottom: "conv6_1"
  top: "conv6_2"
  param {
    lr_mult: 1
    decay_mult: 1
  }
  param {
    lr_mult: 2
    decay_mult: 0
  }
  convolution_param {
    num_output: 512
    pad: 1
    kernel_size: 3
    stride: 2
    weight_filler {
      type: "xavier"
    }
    bias_filler {
      type: "constant"
      value: 0
    }
  }
}
layer {
  name: "conv6_2_relu"
  type: "ReLU"
  bottom: "conv6_2"
  top: "conv6_2"
}
layer {
  name: "conv7_1"
  type: "Convolution"
  bottom: "conv6_2"
  top: "conv7_1"
  param {
    lr_mult: 1
    decay_mult: 1
  }
  param {
    lr_mult: 2
    decay_mult: 0
  }
  convolution_param {
    num_output: 128
    pad: 0
    kernel_size: 1
    stride: 1
    weight_filler {
      type: "xavier"
    }
    bias_filler {
      type: "constant"
      value: 0
    }
  }
}
layer {
  name: "conv7_1_relu"
  type: "ReLU"
  bottom: "conv7_1"
  top: "conv7_1"
}
layer {
  name: "conv7_2"
  type: "Convolution"
  bottom: "conv7_1"
  top: "conv7_2"
  param {
    lr_mult: 1
    decay_mult: 1
  }
  param {
    lr_mult: 2
    decay_mult: 0
  }
  convolution_param {
    num_output: 256
    pad: 1
    kernel_size: 3
    stride: 2
    weight_filler {
      type: "xavier"
    }
    bias_filler {
      type: "constant"
      value: 0
    }
  }
}
layer {
  name: "conv7_2_relu"
  type: "ReLU"
  bottom: "conv7_2"
  top: "conv7_2"
}
layer {
  name: "conv8_1"
  type: "Convolution"
  bottom: "conv7_2"
  top: "conv8_1"
  param {
    lr_mult: 1
    decay_mult: 1
  }
  param {
    lr_mult: 2
    decay_mult: 0
  }
  convolution_param {
    num_output: 128
    pad: 0
    kernel_size: 1
    stride: 1
    weight_filler {
      type: "xavier"
    }
    bias_filler {
      type: "constant"
      value: 0
    }
  }
}
layer {
  name: "conv8_1_relu"
  type: "ReLU"
  bottom: "conv8_1"
  top: "conv8_1"
}
layer {
  name: "conv8_2"
  type: "Convolution"
  bottom: "conv8_1"
  top: "conv8_2"
  param {
    lr_mult: 1
    decay_mult: 1
  }
  param {
    lr_mult: 2
    decay_mult: 0
  }
  convolution_param {
    num_output: 256
    pad: 0
    kernel_size: 3
    stride: 1
    weight_filler {
      type: "xavier"
    }
    bias_filler {
      type: "constant"
      value: 0
    }
  }
}
layer {
  name: "conv8_2_relu"
  type: "ReLU"
  bottom: "conv8_2"
  top: "conv8_2"
}
layer {
  name: "conv9_1"
  type: "Convolution"
  bottom: "conv8_2"
  top: "conv9_1"
  param {
    lr_mult: 1
    decay_mult: 1
  }
  param {
    lr_mult: 2
    decay_mult: 0
  }
  convolution_param {
    num_output: 128
    pad: 0
    kernel_size: 1
    stride: 1
    weight_filler {
      type: "xavier"
    }
    bias_filler {
      type: "constant"
      value: 0
    }
  }
}
layer {
  name: "conv9_1_relu"
  type: "ReLU"
  bottom: "conv9_1"
  top: "conv9_1"
}
layer {
  name: "conv9_2"
  type: "Convolution"
  bottom: "conv9_1"
  top: "conv9_2"
  param {
    lr_mult: 1
    decay_mult: 1
  }
  param {
    lr_mult: 2
    decay_mult: 0
  }
  convolution_param {
    num_output: 256
    pad: 0
    kernel_size: 3
    stride: 1
    weight_filler {
      type: "xavier"
    }
    bias_filler {
      type: "constant"
      value: 0
    }
  }
}
layer {
  name: "conv9_2_relu"
  type: "ReLU"
  bottom: "conv9_2"
  top: "conv9_2"
}
layer {
  name: "conv4_3_norm"
  type: "Normalize"
  bottom: "conv4_3"
  top: "conv4_3_norm"
  norm_param {
    across_spatial: false
    scale_filler {
      type: "constant"
      value: 20
    }
    channel_shared: false
  }
}
layer {
  name: "conv4_3_norm_mbox_loc"
  type: "Convolution"
  bottom: "conv4_3_norm"
  top: "conv4_3_norm_mbox_loc"
  param {
    lr_mult: 1
    decay_mult: 1
  }
  param {
    lr_mult: 2
    decay_mult: 0
  }
  convolution_param {
    num_output: 16
    pad: 1
    kernel_size: 3
    stride: 1
    weight_filler {
      type: "xavier"
    }
    bias_filler {
      type: "constant"
      value: 0
    }
  }
}
layer {
  name: "conv4_3_norm_mbox_loc_perm"
  type: "Permute"
  bottom: "conv4_3_norm_mbox_loc"
  top: "conv4_3_norm_mbox_loc_perm"
  permute_param {
    order: 0
    order: 2
    order: 3
    order: 1
  }
}
layer {
  name: "conv4_3_norm_mbox_loc_flat"
  type: "Flatten"
  bottom: "conv4_3_norm_mbox_loc_perm"
  top: "conv4_3_norm_mbox_loc_flat"
  flatten_param {
    axis: 1
  }
}
layer {
  name: "conv4_3_norm_mbox_conf"
  type: "Convolution"
  bottom: "conv4_3_norm"
  top: "conv4_3_norm_mbox_conf"
  param {
    lr_mult: 1
    decay_mult: 1
  }
  param {
    lr_mult: 2
    decay_mult: 0
  }
  convolution_param {
    num_output: 44
    pad: 1
    kernel_size: 3
    stride: 1
    weight_filler {
      type: "xavier"
    }
    bias_filler {
      type: "constant"
      value: 0
    }
  }
}
layer {
  name: "conv4_3_norm_mbox_conf_perm"
  type: "Permute"
  bottom: "conv4_3_norm_mbox_conf"
  top: "conv4_3_norm_mbox_conf_perm"
  permute_param {
    order: 0
    order: 2
    order: 3
    order: 1
  }
}
layer {
  name: "conv4_3_norm_mbox_conf_flat"
  type: "Flatten"
  bottom: "conv4_3_norm_mbox_conf_perm"
  top: "conv4_3_norm_mbox_conf_flat"
  flatten_param {
    axis: 1
  }
}
layer {
  name: "conv4_3_norm_mbox_priorbox"
  type: "PriorBox"
  bottom: "conv4_3_norm"
  bottom: "data"
  top: "conv4_3_norm_mbox_priorbox"
  prior_box_param {
    min_size: 30
    max_size: 60
    aspect_ratio: 2
    flip: true
    clip: false
    variance: 0.1
    variance: 0.1
    variance: 0.2
    variance: 0.2
    step: 8
    offset: 0.5
  }
}
layer {
  name: "fc7_mbox_loc"
  type: "Convolution"
  bottom: "fc7"
  top: "fc7_mbox_loc"
  param {
    lr_mult: 1
    decay_mult: 1
  }
  param {
    lr_mult: 2
    decay_mult: 0
  }
  convolution_param {
    num_output: 24
    pad: 1
    kernel_size: 3
    stride: 1
    weight_filler {
      type: "xavier"
    }
    bias_filler {
      type: "constant"
      value: 0
    }
  }
}
layer {
  name: "fc7_mbox_loc_perm"
  type: "Permute"
  bottom: "fc7_mbox_loc"
  top: "fc7_mbox_loc_perm"
  permute_param {
    order: 0
    order: 2
    order: 3
    order: 1
  }
}
layer {
  name: "fc7_mbox_loc_flat"
  type: "Flatten"
  bottom: "fc7_mbox_loc_perm"
  top: "fc7_mbox_loc_flat"
  flatten_param {
    axis: 1
  }
}
layer {
  name: "fc7_mbox_conf"
  type: "Convolution"
  bottom: "fc7"
  top: "fc7_mbox_conf"
  param {
    lr_mult: 1
    decay_mult: 1
  }
  param {
    lr_mult: 2
    decay_mult: 0
  }
  convolution_param {
    num_output: 66
    pad: 1
    kernel_size: 3
    stride: 1
    weight_filler {
      type: "xavier"
    }
    bias_filler {
      type: "constant"
      value: 0
    }
  }
}
layer {
  name: "fc7_mbox_conf_perm"
  type: "Permute"
  bottom: "fc7_mbox_conf"
  top: "fc7_mbox_conf_perm"
  permute_param {
    order: 0
    order: 2
    order: 3
    order: 1
  }
}
layer {
  name: "fc7_mbox_conf_flat"
  type: "Flatten"
  bottom: "fc7_mbox_conf_perm"
  top: "fc7_mbox_conf_flat"
  flatten_param {
    axis: 1
  }
}
layer {
  name: "fc7_mbox_priorbox"
  type: "PriorBox"
  bottom: "fc7"
  bottom: "data"
  top: "fc7_mbox_priorbox"
  prior_box_param {
    min_size: 60
    max_size: 111
    aspect_ratio: 2
    aspect_ratio: 3
    flip: true
    clip: false
    variance: 0.1
    variance: 0.1
    variance: 0.2
    variance: 0.2
    step: 16
    offset: 0.5
  }
}
layer {
  name: "conv6_2_mbox_loc"
  type: "Convolution"
  bottom: "conv6_2"
  top: "conv6_2_mbox_loc"
  param {
    lr_mult: 1
    decay_mult: 1
  }
  param {
    lr_mult: 2
    decay_mult: 0
  }
  convolution_param {
    num_output: 24
    pad: 1
    kernel_size: 3
    stride: 1
    weight_filler {
      type: "xavier"
    }
    bias_filler {
      type: "constant"
      value: 0
    }
  }
}
layer {
  name: "conv6_2_mbox_loc_perm"
  type: "Permute"
  bottom: "conv6_2_mbox_loc"
  top: "conv6_2_mbox_loc_perm"
  permute_param {
    order: 0
    order: 2
    order: 3
    order: 1
  }
}
layer {
  name: "conv6_2_mbox_loc_flat"
  type: "Flatten"
  bottom: "conv6_2_mbox_loc_perm"
  top: "conv6_2_mbox_loc_flat"
  flatten_param {
    axis: 1
  }
}
layer {
  name: "conv6_2_mbox_conf"
  type: "Convolution"
  bottom: "conv6_2"
  top: "conv6_2_mbox_conf"
  param {
    lr_mult: 1
    decay_mult: 1
  }
  param {
    lr_mult: 2
    decay_mult: 0
  }
  convolution_param {
    num_output: 66
    pad: 1
    kernel_size: 3
    stride: 1
    weight_filler {
      type: "xavier"
    }
    bias_filler {
      type: "constant"
      value: 0
    }
  }
}
layer {
  name: "conv6_2_mbox_conf_perm"
  type: "Permute"
  bottom: "conv6_2_mbox_conf"
  top: "conv6_2_mbox_conf_perm"
  permute_param {
    order: 0
    order: 2
    order: 3
    order: 1
  }
}
layer {
  name: "conv6_2_mbox_conf_flat"
  type: "Flatten"
  bottom: "conv6_2_mbox_conf_perm"
  top: "conv6_2_mbox_conf_flat"
  flatten_param {
    axis: 1
  }
}
layer {
  name: "conv6_2_mbox_priorbox"
  type: "PriorBox"
  bottom: "conv6_2"
  bottom: "data"
  top: "conv6_2_mbox_priorbox"
  prior_box_param {
    min_size: 111
    max_size: 162
    aspect_ratio: 2
    aspect_ratio: 3
    flip: true
    clip: false
    variance: 0.1
    variance: 0.1
    variance: 0.2
    variance: 0.2
    step: 32
    offset: 0.5
  }
}
layer {
  name: "conv7_2_mbox_loc"
  type: "Convolution"
  bottom: "conv7_2"
  top: "conv7_2_mbox_loc"
  param {
    lr_mult: 1
    decay_mult: 1
  }
  param {
    lr_mult: 2
    decay_mult: 0
  }
  convolution_param {
    num_output: 24
    pad: 1
    kernel_size: 3
    stride: 1
    weight_filler {
      type: "xavier"
    }
    bias_filler {
      type: "constant"
      value: 0
    }
  }
}
layer {
  name: "conv7_2_mbox_loc_perm"
  type: "Permute"
  bottom: "conv7_2_mbox_loc"
  top: "conv7_2_mbox_loc_perm"
  permute_param {
    order: 0
    order: 2
    order: 3
    order: 1
  }
}
layer {
  name: "conv7_2_mbox_loc_flat"
  type: "Flatten"
  bottom: "conv7_2_mbox_loc_perm"
  top: "conv7_2_mbox_loc_flat"
  flatten_param {
    axis: 1
  }
}
layer {
  name: "conv7_2_mbox_conf"
  type: "Convolution"
  bottom: "conv7_2"
  top: "conv7_2_mbox_conf"
  param {
    lr_mult: 1
    decay_mult: 1
  }
  param {
    lr_mult: 2
    decay_mult: 0
  }
  convolution_param {
    num_output: 66
    pad: 1
    kernel_size: 3
    stride: 1
    weight_filler {
      type: "xavier"
    }
    bias_filler {
      type: "constant"
      value: 0
    }
  }
}
layer {
  name: "conv7_2_mbox_conf_perm"
  type: "Permute"
  bottom: "conv7_2_mbox_conf"
  top: "conv7_2_mbox_conf_perm"
  permute_param {
    order: 0
    order: 2
    order: 3
    order: 1
  }
}
layer {
  name: "conv7_2_mbox_conf_flat"
  type: "Flatten"
  bottom: "conv7_2_mbox_conf_perm"
  top: "conv7_2_mbox_conf_flat"
  flatten_param {
    axis: 1
  }
}
layer {
  name: "conv7_2_mbox_priorbox"
  type: "PriorBox"
  bottom: "conv7_2"
  bottom: "data"
  top: "conv7_2_mbox_priorbox"
  prior_box_param {
    min_size: 162
    max_size: 213
    aspect_ratio: 2
    aspect_ratio: 3
    flip: true
    clip: false
    variance: 0.1
    variance: 0.1
    variance: 0.2
    variance: 0.2
    step: 64
    offset: 0.5
  }
}
layer {
  name: "conv8_2_mbox_loc"
  type: "Convolution"
  bottom: "conv8_2"
  top: "conv8_2_mbox_loc"
  param {
    lr_mult: 1
    decay_mult: 1
  }
  param {
    lr_mult: 2
    decay_mult: 0
  }
  convolution_param {
    num_output: 16
    pad: 1
    kernel_size: 3
    stride: 1
    weight_filler {
      type: "xavier"
    }
    bias_filler {
      type: "constant"
      value: 0
    }
  }
}
layer {
  name: "conv8_2_mbox_loc_perm"
  type: "Permute"
  bottom: "conv8_2_mbox_loc"
  top: "conv8_2_mbox_loc_perm"
  permute_param {
    order: 0
    order: 2
    order: 3
    order: 1
  }
}
layer {
  name: "conv8_2_mbox_loc_flat"
  type: "Flatten"
  bottom: "conv8_2_mbox_loc_perm"
  top: "conv8_2_mbox_loc_flat"
  flatten_param {
    axis: 1
  }
}
layer {
  name: "conv8_2_mbox_conf"
  type: "Convolution"
  bottom: "conv8_2"
  top: "conv8_2_mbox_conf"
  param {
    lr_mult: 1
    decay_mult: 1
  }
  param {
    lr_mult: 2
    decay_mult: 0
  }
  convolution_param {
    num_output: 44
    pad: 1
    kernel_size: 3
    stride: 1
    weight_filler {
      type: "xavier"
    }
    bias_filler {
      type: "constant"
      value: 0
    }
  }
}
layer {
  name: "conv8_2_mbox_conf_perm"
  type: "Permute"
  bottom: "conv8_2_mbox_conf"
  top: "conv8_2_mbox_conf_perm"
  permute_param {
    order: 0
    order: 2
    order: 3
    order: 1
  }
}
layer {
  name: "conv8_2_mbox_conf_flat"
  type: "Flatten"
  bottom: "conv8_2_mbox_conf_perm"
  top: "conv8_2_mbox_conf_flat"
  flatten_param {
    axis: 1
  }
}
layer {
  name: "conv8_2_mbox_priorbox"
  type: "PriorBox"
  bottom: "conv8_2"
  bottom: "data"
  top: "conv8_2_mbox_priorbox"
  prior_box_param {
    min_size: 213
    max_size: 264
    aspect_ratio: 2
    flip: true
    clip: false
    variance: 0.1
    variance: 0.1
    variance: 0.2
    variance: 0.2
    step: 100
    offset: 0.5
  }
}
layer {
  name: "conv9_2_mbox_loc"
  type: "Convolution"
  bottom: "conv9_2"
  top: "conv9_2_mbox_loc"
  param {
    lr_mult: 1
    decay_mult: 1
  }
  param {
    lr_mult: 2
    decay_mult: 0
  }
  convolution_param {
    num_output: 16
    pad: 1
    kernel_size: 3
    stride: 1
    weight_filler {
      type: "xavier"
    }
    bias_filler {
      type: "constant"
      value: 0
    }
  }
}
layer {
  name: "conv9_2_mbox_loc_perm"
  type: "Permute"
  bottom: "conv9_2_mbox_loc"
  top: "conv9_2_mbox_loc_perm"
  permute_param {
    order: 0
    order: 2
    order: 3
    order: 1
  }
}
layer {
  name: "conv9_2_mbox_loc_flat"
  type: "Flatten"
  bottom: "conv9_2_mbox_loc_perm"
  top: "conv9_2_mbox_loc_flat"
  flatten_param {
    axis: 1
  }
}
layer {
  name: "conv9_2_mbox_conf"
  type: "Convolution"
  bottom: "conv9_2"
  top: "conv9_2_mbox_conf"
  param {
    lr_mult: 1
    decay_mult: 1
  }
  param {
    lr_mult: 2
    decay_mult: 0
  }
  convolution_param {
    num_output: 44
    pad: 1
    kernel_size: 3
    stride: 1
    weight_filler {
      type: "xavier"
    }
    bias_filler {
      type: "constant"
      value: 0
    }
  }
}
layer {
  name: "conv9_2_mbox_conf_perm"
  type: "Permute"
  bottom: "conv9_2_mbox_conf"
  top: "conv9_2_mbox_conf_perm"
  permute_param {
    order: 0
    order: 2
    order: 3
    order: 1
  }
}
layer {
  name: "conv9_2_mbox_conf_flat"
  type: "Flatten"
  bottom: "conv9_2_mbox_conf_perm"
  top: "conv9_2_mbox_conf_flat"
  flatten_param {
    axis: 1
  }
}
layer {
  name: "conv9_2_mbox_priorbox"
  type: "PriorBox"
  bottom: "conv9_2"
  bottom: "data"
  top: "conv9_2_mbox_priorbox"
  prior_box_param {
    min_size: 264
    max_size: 315
    aspect_ratio: 2
    flip: true
    clip: false
    variance: 0.1
    variance: 0.1
    variance: 0.2
    variance: 0.2
    step: 300
    offset: 0.5
  }
}
layer {
  name: "mbox_loc"
  type: "Concat"
  bottom: "conv4_3_norm_mbox_loc_flat"
  bottom: "fc7_mbox_loc_flat"
  bottom: "conv6_2_mbox_loc_flat"
  bottom: "conv7_2_mbox_loc_flat"
  bottom: "conv8_2_mbox_loc_flat"
  bottom: "conv9_2_mbox_loc_flat"
  top: "mbox_loc"
  concat_param {
    axis: 1
  }
}
layer {
  name: "mbox_conf"
  type: "Concat"
  bottom: "conv4_3_norm_mbox_conf_flat"
  bottom: "fc7_mbox_conf_flat"
  bottom: "conv6_2_mbox_conf_flat"
  bottom: "conv7_2_mbox_conf_flat"
  bottom: "conv8_2_mbox_conf_flat"
  bottom: "conv9_2_mbox_conf_flat"
  top: "mbox_conf"
  concat_param {
    axis: 1
  }
}
layer {
  name: "mbox_priorbox"
  type: "Concat"
  bottom: "conv4_3_norm_mbox_priorbox"
  bottom: "fc7_mbox_priorbox"
  bottom: "conv6_2_mbox_priorbox"
  bottom: "conv7_2_mbox_priorbox"
  bottom: "conv8_2_mbox_priorbox"
  bottom: "conv9_2_mbox_priorbox"
  top: "mbox_priorbox"
  concat_param {
    axis: 2
  }
}
layer {
  name: "mbox_loss"
  type: "MultiBoxLoss"
  bottom: "mbox_loc"
  bottom: "mbox_conf"
  bottom: "mbox_priorbox"
  bottom: "label"
  top: "mbox_loss"
  include {
    phase: TRAIN
  }
  propagate_down: true
  propagate_down: true
  propagate_down: false
  propagate_down: false
  loss_param {
    normalization: VALID
  }
  multibox_loss_param {
    loc_loss_type: SMOOTH_L1
    conf_loss_type: SOFTMAX
    loc_weight: 1
    num_classes: 11
    share_location: true
    match_type: PER_PREDICTION
    overlap_threshold: 0.5
    use_prior_for_matching: true
    background_label_id: 0
    use_difficult_gt: true
    neg_pos_ratio: 3
    neg_overlap: 0.5
    code_type: CENTER_SIZE
    ignore_cross_boundary_bbox: false
    mining_type: MAX_NEGATIVE
  }
}
I0615 17:00:59.149920 17572 layer_factory.hpp:77] Creating layer data
I0615 17:00:59.150342 17572 net.cpp:100] Creating Layer data
I0615 17:00:59.150380 17572 net.cpp:408] data -> data
I0615 17:00:59.150447 17572 net.cpp:408] data -> label
I0615 17:00:59.152235 17577 db_lmdb.cpp:35] Opened lmdb examples/NWPU_VHR/NWPU_VHR_trainval_lmdb
I0615 17:00:59.197136 17572 annotated_data_layer.cpp:62] output data size: 32,3,300,300
I0615 17:00:59.260565 17572 net.cpp:150] Setting up data
I0615 17:00:59.260612 17572 net.cpp:157] Top shape: 32 3 300 300 (8640000)
I0615 17:00:59.260622 17572 net.cpp:157] Top shape: 1 1 4 8 (32)
I0615 17:00:59.260627 17572 net.cpp:165] Memory required for data: 34560128
I0615 17:00:59.260648 17572 layer_factory.hpp:77] Creating layer data_data_0_split
I0615 17:00:59.260673 17572 net.cpp:100] Creating Layer data_data_0_split
I0615 17:00:59.260689 17572 net.cpp:434] data_data_0_split <- data
I0615 17:00:59.260720 17572 net.cpp:408] data_data_0_split -> data_data_0_split_0
I0615 17:00:59.260776 17572 net.cpp:408] data_data_0_split -> data_data_0_split_1
I0615 17:00:59.260794 17572 net.cpp:408] data_data_0_split -> data_data_0_split_2
I0615 17:00:59.260812 17572 net.cpp:408] data_data_0_split -> data_data_0_split_3
I0615 17:00:59.260829 17572 net.cpp:408] data_data_0_split -> data_data_0_split_4
I0615 17:00:59.260843 17572 net.cpp:408] data_data_0_split -> data_data_0_split_5
I0615 17:00:59.260856 17572 net.cpp:408] data_data_0_split -> data_data_0_split_6
I0615 17:00:59.261021 17572 net.cpp:150] Setting up data_data_0_split
I0615 17:00:59.261035 17572 net.cpp:157] Top shape: 32 3 300 300 (8640000)
I0615 17:00:59.261042 17572 net.cpp:157] Top shape: 32 3 300 300 (8640000)
I0615 17:00:59.261054 17572 net.cpp:157] Top shape: 32 3 300 300 (8640000)
I0615 17:00:59.261067 17572 net.cpp:157] Top shape: 32 3 300 300 (8640000)
I0615 17:00:59.261080 17572 net.cpp:157] Top shape: 32 3 300 300 (8640000)
I0615 17:00:59.261090 17572 net.cpp:157] Top shape: 32 3 300 300 (8640000)
I0615 17:00:59.261101 17572 net.cpp:157] Top shape: 32 3 300 300 (8640000)
I0615 17:00:59.261113 17572 net.cpp:165] Memory required for data: 276480128
I0615 17:00:59.261122 17572 layer_factory.hpp:77] Creating layer conv1_1
I0615 17:00:59.261157 17572 net.cpp:100] Creating Layer conv1_1
I0615 17:00:59.261171 17572 net.cpp:434] conv1_1 <- data_data_0_split_0
I0615 17:00:59.261193 17572 net.cpp:408] conv1_1 -> conv1_1
I0615 17:00:59.975081 17572 net.cpp:150] Setting up conv1_1
I0615 17:00:59.975119 17572 net.cpp:157] Top shape: 32 64 300 300 (184320000)
I0615 17:00:59.975123 17572 net.cpp:165] Memory required for data: 1013760128
I0615 17:00:59.975145 17572 layer_factory.hpp:77] Creating layer relu1_1
I0615 17:00:59.975157 17572 net.cpp:100] Creating Layer relu1_1
I0615 17:00:59.975162 17572 net.cpp:434] relu1_1 <- conv1_1
I0615 17:00:59.975170 17572 net.cpp:395] relu1_1 -> conv1_1 (in-place)
I0615 17:00:59.975260 17572 net.cpp:150] Setting up relu1_1
I0615 17:00:59.975272 17572 net.cpp:157] Top shape: 32 64 300 300 (184320000)
I0615 17:00:59.975276 17572 net.cpp:165] Memory required for data: 1751040128
I0615 17:00:59.975282 17572 layer_factory.hpp:77] Creating layer conv1_2
I0615 17:00:59.975301 17572 net.cpp:100] Creating Layer conv1_2
I0615 17:00:59.975309 17572 net.cpp:434] conv1_2 <- conv1_1
I0615 17:00:59.975317 17572 net.cpp:408] conv1_2 -> conv1_2
I0615 17:00:59.976181 17572 net.cpp:150] Setting up conv1_2
I0615 17:00:59.976199 17572 net.cpp:157] Top shape: 32 64 300 300 (184320000)
I0615 17:00:59.976203 17572 net.cpp:165] Memory required for data: 2488320128
I0615 17:00:59.976213 17572 layer_factory.hpp:77] Creating layer relu1_2
I0615 17:00:59.976220 17572 net.cpp:100] Creating Layer relu1_2
I0615 17:00:59.976227 17572 net.cpp:434] relu1_2 <- conv1_2
I0615 17:00:59.976233 17572 net.cpp:395] relu1_2 -> conv1_2 (in-place)
I0615 17:00:59.976418 17572 net.cpp:150] Setting up relu1_2
I0615 17:00:59.976429 17572 net.cpp:157] Top shape: 32 64 300 300 (184320000)
I0615 17:00:59.976434 17572 net.cpp:165] Memory required for data: 3225600128
I0615 17:00:59.976439 17572 layer_factory.hpp:77] Creating layer pool1
I0615 17:00:59.976450 17572 net.cpp:100] Creating Layer pool1
I0615 17:00:59.976462 17572 net.cpp:434] pool1 <- conv1_2
I0615 17:00:59.976475 17572 net.cpp:408] pool1 -> pool1
I0615 17:00:59.976531 17572 net.cpp:150] Setting up pool1
I0615 17:00:59.976541 17572 net.cpp:157] Top shape: 32 64 150 150 (46080000)
I0615 17:00:59.976544 17572 net.cpp:165] Memory required for data: 3409920128
I0615 17:00:59.976548 17572 layer_factory.hpp:77] Creating layer conv2_1
I0615 17:00:59.976563 17572 net.cpp:100] Creating Layer conv2_1
I0615 17:00:59.976570 17572 net.cpp:434] conv2_1 <- pool1
I0615 17:00:59.976579 17572 net.cpp:408] conv2_1 -> conv2_1
I0615 17:00:59.977553 17572 net.cpp:150] Setting up conv2_1
I0615 17:00:59.977574 17572 net.cpp:157] Top shape: 32 128 150 150 (92160000)
I0615 17:00:59.977578 17572 net.cpp:165] Memory required for data: 3778560128
I0615 17:00:59.977591 17572 layer_factory.hpp:77] Creating layer relu2_1
I0615 17:00:59.977630 17572 net.cpp:100] Creating Layer relu2_1
I0615 17:00:59.977640 17572 net.cpp:434] relu2_1 <- conv2_1
I0615 17:00:59.977649 17572 net.cpp:395] relu2_1 -> conv2_1 (in-place)
I0615 17:00:59.977736 17572 net.cpp:150] Setting up relu2_1
I0615 17:00:59.977747 17572 net.cpp:157] Top shape: 32 128 150 150 (92160000)
I0615 17:00:59.977752 17572 net.cpp:165] Memory required for data: 4147200128
I0615 17:00:59.977756 17572 layer_factory.hpp:77] Creating layer conv2_2
I0615 17:00:59.977771 17572 net.cpp:100] Creating Layer conv2_2
I0615 17:00:59.977779 17572 net.cpp:434] conv2_2 <- conv2_1
I0615 17:00:59.977789 17572 net.cpp:408] conv2_2 -> conv2_2
I0615 17:00:59.980276 17572 net.cpp:150] Setting up conv2_2
I0615 17:00:59.980312 17572 net.cpp:157] Top shape: 32 128 150 150 (92160000)
I0615 17:00:59.980317 17572 net.cpp:165] Memory required for data: 4515840128
I0615 17:00:59.980330 17572 layer_factory.hpp:77] Creating layer relu2_2
I0615 17:00:59.980345 17572 net.cpp:100] Creating Layer relu2_2
I0615 17:00:59.980355 17572 net.cpp:434] relu2_2 <- conv2_2
I0615 17:00:59.980365 17572 net.cpp:395] relu2_2 -> conv2_2 (in-place)
I0615 17:00:59.980572 17572 net.cpp:150] Setting up relu2_2
I0615 17:00:59.980585 17572 net.cpp:157] Top shape: 32 128 150 150 (92160000)
I0615 17:00:59.980589 17572 net.cpp:165] Memory required for data: 4884480128
I0615 17:00:59.980597 17572 layer_factory.hpp:77] Creating layer pool2
I0615 17:00:59.980608 17572 net.cpp:100] Creating Layer pool2
I0615 17:00:59.980615 17572 net.cpp:434] pool2 <- conv2_2
I0615 17:00:59.980626 17572 net.cpp:408] pool2 -> pool2
I0615 17:00:59.980680 17572 net.cpp:150] Setting up pool2
I0615 17:00:59.980691 17572 net.cpp:157] Top shape: 32 128 75 75 (23040000)
I0615 17:00:59.980697 17572 net.cpp:165] Memory required for data: 4976640128
I0615 17:00:59.980703 17572 layer_factory.hpp:77] Creating layer conv3_1
I0615 17:00:59.980720 17572 net.cpp:100] Creating Layer conv3_1
I0615 17:00:59.980728 17572 net.cpp:434] conv3_1 <- pool2
I0615 17:00:59.980738 17572 net.cpp:408] conv3_1 -> conv3_1
I0615 17:00:59.983537 17572 net.cpp:150] Setting up conv3_1
I0615 17:00:59.983577 17572 net.cpp:157] Top shape: 32 256 75 75 (46080000)
I0615 17:00:59.983580 17572 net.cpp:165] Memory required for data: 5160960128
I0615 17:00:59.983598 17572 layer_factory.hpp:77] Creating layer relu3_1
I0615 17:00:59.983613 17572 net.cpp:100] Creating Layer relu3_1
I0615 17:00:59.983623 17572 net.cpp:434] relu3_1 <- conv3_1
I0615 17:00:59.983633 17572 net.cpp:395] relu3_1 -> conv3_1 (in-place)
I0615 17:00:59.983716 17572 net.cpp:150] Setting up relu3_1
I0615 17:00:59.983729 17572 net.cpp:157] Top shape: 32 256 75 75 (46080000)
I0615 17:00:59.983737 17572 net.cpp:165] Memory required for data: 5345280128
I0615 17:00:59.983743 17572 layer_factory.hpp:77] Creating layer conv3_2
I0615 17:00:59.983758 17572 net.cpp:100] Creating Layer conv3_2
I0615 17:00:59.983767 17572 net.cpp:434] conv3_2 <- conv3_1
I0615 17:00:59.983777 17572 net.cpp:408] conv3_2 -> conv3_2
I0615 17:00:59.987963 17572 net.cpp:150] Setting up conv3_2
I0615 17:00:59.987996 17572 net.cpp:157] Top shape: 32 256 75 75 (46080000)
I0615 17:00:59.988000 17572 net.cpp:165] Memory required for data: 5529600128
I0615 17:00:59.988013 17572 layer_factory.hpp:77] Creating layer relu3_2
I0615 17:00:59.988027 17572 net.cpp:100] Creating Layer relu3_2
I0615 17:00:59.988037 17572 net.cpp:434] relu3_2 <- conv3_2
I0615 17:00:59.988047 17572 net.cpp:395] relu3_2 -> conv3_2 (in-place)
I0615 17:00:59.988253 17572 net.cpp:150] Setting up relu3_2
I0615 17:00:59.988267 17572 net.cpp:157] Top shape: 32 256 75 75 (46080000)
I0615 17:00:59.988271 17572 net.cpp:165] Memory required for data: 5713920128
I0615 17:00:59.988276 17572 layer_factory.hpp:77] Creating layer conv3_3
I0615 17:00:59.988296 17572 net.cpp:100] Creating Layer conv3_3
I0615 17:00:59.988303 17572 net.cpp:434] conv3_3 <- conv3_2
I0615 17:00:59.988312 17572 net.cpp:408] conv3_3 -> conv3_3
I0615 17:00:59.993530 17572 net.cpp:150] Setting up conv3_3
I0615 17:00:59.993589 17572 net.cpp:157] Top shape: 32 256 75 75 (46080000)
I0615 17:00:59.993595 17572 net.cpp:165] Memory required for data: 5898240128
I0615 17:00:59.993609 17572 layer_factory.hpp:77] Creating layer relu3_3
I0615 17:00:59.993621 17572 net.cpp:100] Creating Layer relu3_3
I0615 17:00:59.993628 17572 net.cpp:434] relu3_3 <- conv3_3
I0615 17:00:59.993634 17572 net.cpp:395] relu3_3 -> conv3_3 (in-place)
I0615 17:00:59.993841 17572 net.cpp:150] Setting up relu3_3
I0615 17:00:59.993854 17572 net.cpp:157] Top shape: 32 256 75 75 (46080000)
I0615 17:00:59.993860 17572 net.cpp:165] Memory required for data: 6082560128
I0615 17:00:59.993865 17572 layer_factory.hpp:77] Creating layer pool3
I0615 17:00:59.993875 17572 net.cpp:100] Creating Layer pool3
I0615 17:00:59.993883 17572 net.cpp:434] pool3 <- conv3_3
I0615 17:00:59.993892 17572 net.cpp:408] pool3 -> pool3
I0615 17:00:59.993947 17572 net.cpp:150] Setting up pool3
I0615 17:00:59.993958 17572 net.cpp:157] Top shape: 32 256 38 38 (11829248)
I0615 17:00:59.993966 17572 net.cpp:165] Memory required for data: 6129877120
I0615 17:00:59.993974 17572 layer_factory.hpp:77] Creating layer conv4_1
I0615 17:00:59.993993 17572 net.cpp:100] Creating Layer conv4_1
I0615 17:00:59.994000 17572 net.cpp:434] conv4_1 <- pool3
I0615 17:00:59.994009 17572 net.cpp:408] conv4_1 -> conv4_1
I0615 17:01:00.001371 17572 net.cpp:150] Setting up conv4_1
I0615 17:01:00.001405 17572 net.cpp:157] Top shape: 32 512 38 38 (23658496)
I0615 17:01:00.001408 17572 net.cpp:165] Memory required for data: 6224511104
I0615 17:01:00.001421 17572 layer_factory.hpp:77] Creating layer relu4_1
I0615 17:01:00.001435 17572 net.cpp:100] Creating Layer relu4_1
I0615 17:01:00.001444 17572 net.cpp:434] relu4_1 <- conv4_1
I0615 17:01:00.001454 17572 net.cpp:395] relu4_1 -> conv4_1 (in-place)
I0615 17:01:00.001538 17572 net.cpp:150] Setting up relu4_1
I0615 17:01:00.001550 17572 net.cpp:157] Top shape: 32 512 38 38 (23658496)
I0615 17:01:00.001555 17572 net.cpp:165] Memory required for data: 6319145088
I0615 17:01:00.001561 17572 layer_factory.hpp:77] Creating layer conv4_2
I0615 17:01:00.001579 17572 net.cpp:100] Creating Layer conv4_2
I0615 17:01:00.001587 17572 net.cpp:434] conv4_2 <- conv4_1
I0615 17:01:00.001597 17572 net.cpp:408] conv4_2 -> conv4_2
I0615 17:01:00.015305 17572 net.cpp:150] Setting up conv4_2
I0615 17:01:00.015341 17572 net.cpp:157] Top shape: 32 512 38 38 (23658496)
I0615 17:01:00.015347 17572 net.cpp:165] Memory required for data: 6413779072
I0615 17:01:00.015364 17572 layer_factory.hpp:77] Creating layer relu4_2
I0615 17:01:00.015374 17572 net.cpp:100] Creating Layer relu4_2
I0615 17:01:00.015381 17572 net.cpp:434] relu4_2 <- conv4_2
I0615 17:01:00.015391 17572 net.cpp:395] relu4_2 -> conv4_2 (in-place)
I0615 17:01:00.015617 17572 net.cpp:150] Setting up relu4_2
I0615 17:01:00.015630 17572 net.cpp:157] Top shape: 32 512 38 38 (23658496)
I0615 17:01:00.015635 17572 net.cpp:165] Memory required for data: 6508413056
I0615 17:01:00.015643 17572 layer_factory.hpp:77] Creating layer conv4_3
I0615 17:01:00.015662 17572 net.cpp:100] Creating Layer conv4_3
I0615 17:01:00.015671 17572 net.cpp:434] conv4_3 <- conv4_2
I0615 17:01:00.015681 17572 net.cpp:408] conv4_3 -> conv4_3
I0615 17:01:00.030542 17572 net.cpp:150] Setting up conv4_3
I0615 17:01:00.030580 17572 net.cpp:157] Top shape: 32 512 38 38 (23658496)
I0615 17:01:00.030584 17572 net.cpp:165] Memory required for data: 6603047040
I0615 17:01:00.030596 17572 layer_factory.hpp:77] Creating layer relu4_3
I0615 17:01:00.030609 17572 net.cpp:100] Creating Layer relu4_3
I0615 17:01:00.030616 17572 net.cpp:434] relu4_3 <- conv4_3
I0615 17:01:00.030623 17572 net.cpp:395] relu4_3 -> conv4_3 (in-place)
I0615 17:01:00.030736 17572 net.cpp:150] Setting up relu4_3
I0615 17:01:00.030750 17572 net.cpp:157] Top shape: 32 512 38 38 (23658496)
I0615 17:01:00.030756 17572 net.cpp:165] Memory required for data: 6697681024
I0615 17:01:00.030763 17572 layer_factory.hpp:77] Creating layer conv4_3_relu4_3_0_split
I0615 17:01:00.030776 17572 net.cpp:100] Creating Layer conv4_3_relu4_3_0_split
I0615 17:01:00.030803 17572 net.cpp:434] conv4_3_relu4_3_0_split <- conv4_3
I0615 17:01:00.030812 17572 net.cpp:408] conv4_3_relu4_3_0_split -> conv4_3_relu4_3_0_split_0
I0615 17:01:00.030824 17572 net.cpp:408] conv4_3_relu4_3_0_split -> conv4_3_relu4_3_0_split_1
I0615 17:01:00.030876 17572 net.cpp:150] Setting up conv4_3_relu4_3_0_split
I0615 17:01:00.030889 17572 net.cpp:157] Top shape: 32 512 38 38 (23658496)
I0615 17:01:00.030898 17572 net.cpp:157] Top shape: 32 512 38 38 (23658496)
I0615 17:01:00.030903 17572 net.cpp:165] Memory required for data: 6886948992
I0615 17:01:00.030910 17572 layer_factory.hpp:77] Creating layer pool4
I0615 17:01:00.030921 17572 net.cpp:100] Creating Layer pool4
I0615 17:01:00.030930 17572 net.cpp:434] pool4 <- conv4_3_relu4_3_0_split_0
I0615 17:01:00.030937 17572 net.cpp:408] pool4 -> pool4
I0615 17:01:00.030983 17572 net.cpp:150] Setting up pool4
I0615 17:01:00.030994 17572 net.cpp:157] Top shape: 32 512 19 19 (5914624)
I0615 17:01:00.031002 17572 net.cpp:165] Memory required for data: 6910607488
I0615 17:01:00.031008 17572 layer_factory.hpp:77] Creating layer conv5_1
I0615 17:01:00.031026 17572 net.cpp:100] Creating Layer conv5_1
I0615 17:01:00.031035 17572 net.cpp:434] conv5_1 <- pool4
I0615 17:01:00.031046 17572 net.cpp:408] conv5_1 -> conv5_1
I0615 17:01:00.044698 17572 net.cpp:150] Setting up conv5_1
I0615 17:01:00.044735 17572 net.cpp:157] Top shape: 32 512 19 19 (5914624)
I0615 17:01:00.044741 17572 net.cpp:165] Memory required for data: 6934265984
I0615 17:01:00.044754 17572 layer_factory.hpp:77] Creating layer relu5_1
I0615 17:01:00.044765 17572 net.cpp:100] Creating Layer relu5_1
I0615 17:01:00.044772 17572 net.cpp:434] relu5_1 <- conv5_1
I0615 17:01:00.044780 17572 net.cpp:395] relu5_1 -> conv5_1 (in-place)
I0615 17:01:00.045017 17572 net.cpp:150] Setting up relu5_1
I0615 17:01:00.045029 17572 net.cpp:157] Top shape: 32 512 19 19 (5914624)
I0615 17:01:00.045033 17572 net.cpp:165] Memory required for data: 6957924480
I0615 17:01:00.045040 17572 layer_factory.hpp:77] Creating layer conv5_2
I0615 17:01:00.045059 17572 net.cpp:100] Creating Layer conv5_2
I0615 17:01:00.045068 17572 net.cpp:434] conv5_2 <- conv5_1
I0615 17:01:00.045081 17572 net.cpp:408] conv5_2 -> conv5_2
I0615 17:01:00.058813 17572 net.cpp:150] Setting up conv5_2
I0615 17:01:00.058846 17572 net.cpp:157] Top shape: 32 512 19 19 (5914624)
I0615 17:01:00.058851 17572 net.cpp:165] Memory required for data: 6981582976
I0615 17:01:00.058862 17572 layer_factory.hpp:77] Creating layer relu5_2
I0615 17:01:00.058876 17572 net.cpp:100] Creating Layer relu5_2
I0615 17:01:00.058883 17572 net.cpp:434] relu5_2 <- conv5_2
I0615 17:01:00.058898 17572 net.cpp:395] relu5_2 -> conv5_2 (in-place)
I0615 17:01:00.059003 17572 net.cpp:150] Setting up relu5_2
I0615 17:01:00.059016 17572 net.cpp:157] Top shape: 32 512 19 19 (5914624)
I0615 17:01:00.059021 17572 net.cpp:165] Memory required for data: 7005241472
I0615 17:01:00.059029 17572 layer_factory.hpp:77] Creating layer conv5_3
I0615 17:01:00.059044 17572 net.cpp:100] Creating Layer conv5_3
I0615 17:01:00.059053 17572 net.cpp:434] conv5_3 <- conv5_2
I0615 17:01:00.059064 17572 net.cpp:408] conv5_3 -> conv5_3
I0615 17:01:00.072827 17572 net.cpp:150] Setting up conv5_3
I0615 17:01:00.072863 17572 net.cpp:157] Top shape: 32 512 19 19 (5914624)
I0615 17:01:00.072868 17572 net.cpp:165] Memory required for data: 7028899968
I0615 17:01:00.072878 17572 layer_factory.hpp:77] Creating layer relu5_3
I0615 17:01:00.072902 17572 net.cpp:100] Creating Layer relu5_3
I0615 17:01:00.072908 17572 net.cpp:434] relu5_3 <- conv5_3
I0615 17:01:00.072916 17572 net.cpp:395] relu5_3 -> conv5_3 (in-place)
I0615 17:01:00.074371 17572 net.cpp:150] Setting up relu5_3
I0615 17:01:00.074404 17572 net.cpp:157] Top shape: 32 512 19 19 (5914624)
I0615 17:01:00.074409 17572 net.cpp:165] Memory required for data: 7052558464
I0615 17:01:00.074416 17572 layer_factory.hpp:77] Creating layer pool5
I0615 17:01:00.074430 17572 net.cpp:100] Creating Layer pool5
I0615 17:01:00.074436 17572 net.cpp:434] pool5 <- conv5_3
I0615 17:01:00.074477 17572 net.cpp:408] pool5 -> pool5
I0615 17:01:00.074554 17572 net.cpp:150] Setting up pool5
I0615 17:01:00.074565 17572 net.cpp:157] Top shape: 32 512 19 19 (5914624)
I0615 17:01:00.074573 17572 net.cpp:165] Memory required for data: 7076216960
I0615 17:01:00.074579 17572 layer_factory.hpp:77] Creating layer fc6
I0615 17:01:00.074597 17572 net.cpp:100] Creating Layer fc6
I0615 17:01:00.074604 17572 net.cpp:434] fc6 <- pool5
I0615 17:01:00.074615 17572 net.cpp:408] fc6 -> fc6
I0615 17:01:00.100523 17572 net.cpp:150] Setting up fc6
I0615 17:01:00.100558 17572 net.cpp:157] Top shape: 32 1024 19 19 (11829248)
I0615 17:01:00.100561 17572 net.cpp:165] Memory required for data: 7123533952
I0615 17:01:00.100571 17572 layer_factory.hpp:77] Creating layer relu6
I0615 17:01:00.100582 17572 net.cpp:100] Creating Layer relu6
I0615 17:01:00.100589 17572 net.cpp:434] relu6 <- fc6
I0615 17:01:00.100598 17572 net.cpp:395] relu6 -> fc6 (in-place)
I0615 17:01:00.100756 17572 net.cpp:150] Setting up relu6
I0615 17:01:00.100771 17572 net.cpp:157] Top shape: 32 1024 19 19 (11829248)
I0615 17:01:00.100778 17572 net.cpp:165] Memory required for data: 7170850944
I0615 17:01:00.100785 17572 layer_factory.hpp:77] Creating layer fc7
I0615 17:01:00.100805 17572 net.cpp:100] Creating Layer fc7
I0615 17:01:00.100814 17572 net.cpp:434] fc7 <- fc6
I0615 17:01:00.100826 17572 net.cpp:408] fc7 -> fc7
I0615 17:01:00.107429 17572 net.cpp:150] Setting up fc7
I0615 17:01:00.107466 17572 net.cpp:157] Top shape: 32 1024 19 19 (11829248)
I0615 17:01:00.107470 17572 net.cpp:165] Memory required for data: 7218167936
I0615 17:01:00.107482 17572 layer_factory.hpp:77] Creating layer relu7
I0615 17:01:00.107496 17572 net.cpp:100] Creating Layer relu7
I0615 17:01:00.107504 17572 net.cpp:434] relu7 <- fc7
I0615 17:01:00.107515 17572 net.cpp:395] relu7 -> fc7 (in-place)
I0615 17:01:00.107744 17572 net.cpp:150] Setting up relu7
I0615 17:01:00.107761 17572 net.cpp:157] Top shape: 32 1024 19 19 (11829248)
I0615 17:01:00.107765 17572 net.cpp:165] Memory required for data: 7265484928
I0615 17:01:00.107771 17572 layer_factory.hpp:77] Creating layer fc7_relu7_0_split
I0615 17:01:00.107787 17572 net.cpp:100] Creating Layer fc7_relu7_0_split
I0615 17:01:00.107795 17572 net.cpp:434] fc7_relu7_0_split <- fc7
I0615 17:01:00.107807 17572 net.cpp:408] fc7_relu7_0_split -> fc7_relu7_0_split_0
I0615 17:01:00.107821 17572 net.cpp:408] fc7_relu7_0_split -> fc7_relu7_0_split_1
I0615 17:01:00.107842 17572 net.cpp:408] fc7_relu7_0_split -> fc7_relu7_0_split_2
I0615 17:01:00.107854 17572 net.cpp:408] fc7_relu7_0_split -> fc7_relu7_0_split_3
I0615 17:01:00.107928 17572 net.cpp:150] Setting up fc7_relu7_0_split
I0615 17:01:00.107935 17572 net.cpp:157] Top shape: 32 1024 19 19 (11829248)
I0615 17:01:00.107941 17572 net.cpp:157] Top shape: 32 1024 19 19 (11829248)
I0615 17:01:00.107949 17572 net.cpp:157] Top shape: 32 1024 19 19 (11829248)
I0615 17:01:00.107955 17572 net.cpp:157] Top shape: 32 1024 19 19 (11829248)
I0615 17:01:00.107962 17572 net.cpp:165] Memory required for data: 7454752896
I0615 17:01:00.107969 17572 layer_factory.hpp:77] Creating layer conv6_1
I0615 17:01:00.107990 17572 net.cpp:100] Creating Layer conv6_1
I0615 17:01:00.108000 17572 net.cpp:434] conv6_1 <- fc7_relu7_0_split_0
I0615 17:01:00.108013 17572 net.cpp:408] conv6_1 -> conv6_1
I0615 17:01:00.110736 17572 net.cpp:150] Setting up conv6_1
I0615 17:01:00.110776 17572 net.cpp:157] Top shape: 32 256 19 19 (2957312)
I0615 17:01:00.110780 17572 net.cpp:165] Memory required for data: 7466582144
I0615 17:01:00.110793 17572 layer_factory.hpp:77] Creating layer conv6_1_relu
I0615 17:01:00.110810 17572 net.cpp:100] Creating Layer conv6_1_relu
I0615 17:01:00.110818 17572 net.cpp:434] conv6_1_relu <- conv6_1
I0615 17:01:00.110831 17572 net.cpp:395] conv6_1_relu -> conv6_1 (in-place)
I0615 17:01:00.111053 17572 net.cpp:150] Setting up conv6_1_relu
I0615 17:01:00.111068 17572 net.cpp:157] Top shape: 32 256 19 19 (2957312)
I0615 17:01:00.111071 17572 net.cpp:165] Memory required for data: 7478411392
I0615 17:01:00.111107 17572 layer_factory.hpp:77] Creating layer conv6_2
I0615 17:01:00.111140 17572 net.cpp:100] Creating Layer conv6_2
I0615 17:01:00.111151 17572 net.cpp:434] conv6_2 <- conv6_1
I0615 17:01:00.111161 17572 net.cpp:408] conv6_2 -> conv6_2
I0615 17:01:00.118552 17572 net.cpp:150] Setting up conv6_2
I0615 17:01:00.118592 17572 net.cpp:157] Top shape: 32 512 10 10 (1638400)
I0615 17:01:00.118597 17572 net.cpp:165] Memory required for data: 7484964992
I0615 17:01:00.118619 17572 layer_factory.hpp:77] Creating layer conv6_2_relu
I0615 17:01:00.118634 17572 net.cpp:100] Creating Layer conv6_2_relu
I0615 17:01:00.118643 17572 net.cpp:434] conv6_2_relu <- conv6_2
I0615 17:01:00.118659 17572 net.cpp:395] conv6_2_relu -> conv6_2 (in-place)
I0615 17:01:00.120129 17572 net.cpp:150] Setting up conv6_2_relu
I0615 17:01:00.120167 17572 net.cpp:157] Top shape: 32 512 10 10 (1638400)
I0615 17:01:00.120170 17572 net.cpp:165] Memory required for data: 7491518592
I0615 17:01:00.120178 17572 layer_factory.hpp:77] Creating layer conv6_2_conv6_2_relu_0_split
I0615 17:01:00.120195 17572 net.cpp:100] Creating Layer conv6_2_conv6_2_relu_0_split
I0615 17:01:00.120204 17572 net.cpp:434] conv6_2_conv6_2_relu_0_split <- conv6_2
I0615 17:01:00.120219 17572 net.cpp:408] conv6_2_conv6_2_relu_0_split -> conv6_2_conv6_2_relu_0_split_0
I0615 17:01:00.120234 17572 net.cpp:408] conv6_2_conv6_2_relu_0_split -> conv6_2_conv6_2_relu_0_split_1
I0615 17:01:00.120245 17572 net.cpp:408] conv6_2_conv6_2_relu_0_split -> conv6_2_conv6_2_relu_0_split_2
I0615 17:01:00.120255 17572 net.cpp:408] conv6_2_conv6_2_relu_0_split -> conv6_2_conv6_2_relu_0_split_3
I0615 17:01:00.120342 17572 net.cpp:150] Setting up conv6_2_conv6_2_relu_0_split
I0615 17:01:00.120357 17572 net.cpp:157] Top shape: 32 512 10 10 (1638400)
I0615 17:01:00.120365 17572 net.cpp:157] Top shape: 32 512 10 10 (1638400)
I0615 17:01:00.120374 17572 net.cpp:157] Top shape: 32 512 10 10 (1638400)
I0615 17:01:00.120383 17572 net.cpp:157] Top shape: 32 512 10 10 (1638400)
I0615 17:01:00.120390 17572 net.cpp:165] Memory required for data: 7517732992
I0615 17:01:00.120396 17572 layer_factory.hpp:77] Creating layer conv7_1
I0615 17:01:00.120417 17572 net.cpp:100] Creating Layer conv7_1
I0615 17:01:00.120426 17572 net.cpp:434] conv7_1 <- conv6_2_conv6_2_relu_0_split_0
I0615 17:01:00.120440 17572 net.cpp:408] conv7_1 -> conv7_1
I0615 17:01:00.121373 17572 net.cpp:150] Setting up conv7_1
I0615 17:01:00.121397 17572 net.cpp:157] Top shape: 32 128 10 10 (409600)
I0615 17:01:00.121402 17572 net.cpp:165] Memory required for data: 7519371392
I0615 17:01:00.121414 17572 layer_factory.hpp:77] Creating layer conv7_1_relu
I0615 17:01:00.121429 17572 net.cpp:100] Creating Layer conv7_1_relu
I0615 17:01:00.121438 17572 net.cpp:434] conv7_1_relu <- conv7_1
I0615 17:01:00.121448 17572 net.cpp:395] conv7_1_relu -> conv7_1 (in-place)
I0615 17:01:00.121699 17572 net.cpp:150] Setting up conv7_1_relu
I0615 17:01:00.121713 17572 net.cpp:157] Top shape: 32 128 10 10 (409600)
I0615 17:01:00.121717 17572 net.cpp:165] Memory required for data: 7521009792
I0615 17:01:00.121723 17572 layer_factory.hpp:77] Creating layer conv7_2
I0615 17:01:00.121742 17572 net.cpp:100] Creating Layer conv7_2
I0615 17:01:00.121752 17572 net.cpp:434] conv7_2 <- conv7_1
I0615 17:01:00.121764 17572 net.cpp:408] conv7_2 -> conv7_2
I0615 17:01:00.124595 17572 net.cpp:150] Setting up conv7_2
I0615 17:01:00.124634 17572 net.cpp:157] Top shape: 32 256 5 5 (204800)
I0615 17:01:00.124637 17572 net.cpp:165] Memory required for data: 7521828992
I0615 17:01:00.124650 17572 layer_factory.hpp:77] Creating layer conv7_2_relu
I0615 17:01:00.124665 17572 net.cpp:100] Creating Layer conv7_2_relu
I0615 17:01:00.124675 17572 net.cpp:434] conv7_2_relu <- conv7_2
I0615 17:01:00.124686 17572 net.cpp:395] conv7_2_relu -> conv7_2 (in-place)
I0615 17:01:00.124791 17572 net.cpp:150] Setting up conv7_2_relu
I0615 17:01:00.124804 17572 net.cpp:157] Top shape: 32 256 5 5 (204800)
I0615 17:01:00.124812 17572 net.cpp:165] Memory required for data: 7522648192
I0615 17:01:00.124819 17572 layer_factory.hpp:77] Creating layer conv7_2_conv7_2_relu_0_split
I0615 17:01:00.124855 17572 net.cpp:100] Creating Layer conv7_2_conv7_2_relu_0_split
I0615 17:01:00.124862 17572 net.cpp:434] conv7_2_conv7_2_relu_0_split <- conv7_2
I0615 17:01:00.124876 17572 net.cpp:408] conv7_2_conv7_2_relu_0_split -> conv7_2_conv7_2_relu_0_split_0
I0615 17:01:00.124889 17572 net.cpp:408] conv7_2_conv7_2_relu_0_split -> conv7_2_conv7_2_relu_0_split_1
I0615 17:01:00.124902 17572 net.cpp:408] conv7_2_conv7_2_relu_0_split -> conv7_2_conv7_2_relu_0_split_2
I0615 17:01:00.124912 17572 net.cpp:408] conv7_2_conv7_2_relu_0_split -> conv7_2_conv7_2_relu_0_split_3
I0615 17:01:00.124984 17572 net.cpp:150] Setting up conv7_2_conv7_2_relu_0_split
I0615 17:01:00.124991 17572 net.cpp:157] Top shape: 32 256 5 5 (204800)
I0615 17:01:00.124996 17572 net.cpp:157] Top shape: 32 256 5 5 (204800)
I0615 17:01:00.125005 17572 net.cpp:157] Top shape: 32 256 5 5 (204800)
I0615 17:01:00.125012 17572 net.cpp:157] Top shape: 32 256 5 5 (204800)
I0615 17:01:00.125018 17572 net.cpp:165] Memory required for data: 7525924992
I0615 17:01:00.125026 17572 layer_factory.hpp:77] Creating layer conv8_1
I0615 17:01:00.125044 17572 net.cpp:100] Creating Layer conv8_1
I0615 17:01:00.125053 17572 net.cpp:434] conv8_1 <- conv7_2_conv7_2_relu_0_split_0
I0615 17:01:00.125066 17572 net.cpp:408] conv8_1 -> conv8_1
I0615 17:01:00.125864 17572 net.cpp:150] Setting up conv8_1
I0615 17:01:00.125883 17572 net.cpp:157] Top shape: 32 128 5 5 (102400)
I0615 17:01:00.125888 17572 net.cpp:165] Memory required for data: 7526334592
I0615 17:01:00.125898 17572 layer_factory.hpp:77] Creating layer conv8_1_relu
I0615 17:01:00.125910 17572 net.cpp:100] Creating Layer conv8_1_relu
I0615 17:01:00.125917 17572 net.cpp:434] conv8_1_relu <- conv8_1
I0615 17:01:00.125926 17572 net.cpp:395] conv8_1_relu -> conv8_1 (in-place)
I0615 17:01:00.126139 17572 net.cpp:150] Setting up conv8_1_relu
I0615 17:01:00.126152 17572 net.cpp:157] Top shape: 32 128 5 5 (102400)
I0615 17:01:00.126157 17572 net.cpp:165] Memory required for data: 7526744192
I0615 17:01:00.126164 17572 layer_factory.hpp:77] Creating layer conv8_2
I0615 17:01:00.126183 17572 net.cpp:100] Creating Layer conv8_2
I0615 17:01:00.126190 17572 net.cpp:434] conv8_2 <- conv8_1
I0615 17:01:00.126204 17572 net.cpp:408] conv8_2 -> conv8_2
I0615 17:01:00.130425 17572 net.cpp:150] Setting up conv8_2
I0615 17:01:00.130465 17572 net.cpp:157] Top shape: 32 256 3 3 (73728)
I0615 17:01:00.130470 17572 net.cpp:165] Memory required for data: 7527039104
I0615 17:01:00.130482 17572 layer_factory.hpp:77] Creating layer conv8_2_relu
I0615 17:01:00.130501 17572 net.cpp:100] Creating Layer conv8_2_relu
I0615 17:01:00.130511 17572 net.cpp:434] conv8_2_relu <- conv8_2
I0615 17:01:00.130519 17572 net.cpp:395] conv8_2_relu -> conv8_2 (in-place)
I0615 17:01:00.130620 17572 net.cpp:150] Setting up conv8_2_relu
I0615 17:01:00.130635 17572 net.cpp:157] Top shape: 32 256 3 3 (73728)
I0615 17:01:00.130640 17572 net.cpp:165] Memory required for data: 7527334016
I0615 17:01:00.130646 17572 layer_factory.hpp:77] Creating layer conv8_2_conv8_2_relu_0_split
I0615 17:01:00.130661 17572 net.cpp:100] Creating Layer conv8_2_conv8_2_relu_0_split
I0615 17:01:00.130669 17572 net.cpp:434] conv8_2_conv8_2_relu_0_split <- conv8_2
I0615 17:01:00.130678 17572 net.cpp:408] conv8_2_conv8_2_relu_0_split -> conv8_2_conv8_2_relu_0_split_0
I0615 17:01:00.130692 17572 net.cpp:408] conv8_2_conv8_2_relu_0_split -> conv8_2_conv8_2_relu_0_split_1
I0615 17:01:00.130707 17572 net.cpp:408] conv8_2_conv8_2_relu_0_split -> conv8_2_conv8_2_relu_0_split_2
I0615 17:01:00.130717 17572 net.cpp:408] conv8_2_conv8_2_relu_0_split -> conv8_2_conv8_2_relu_0_split_3
I0615 17:01:00.130793 17572 net.cpp:150] Setting up conv8_2_conv8_2_relu_0_split
I0615 17:01:00.130801 17572 net.cpp:157] Top shape: 32 256 3 3 (73728)
I0615 17:01:00.130806 17572 net.cpp:157] Top shape: 32 256 3 3 (73728)
I0615 17:01:00.130815 17572 net.cpp:157] Top shape: 32 256 3 3 (73728)
I0615 17:01:00.130821 17572 net.cpp:157] Top shape: 32 256 3 3 (73728)
I0615 17:01:00.130849 17572 net.cpp:165] Memory required for data: 7528513664
I0615 17:01:00.130858 17572 layer_factory.hpp:77] Creating layer conv9_1
I0615 17:01:00.130880 17572 net.cpp:100] Creating Layer conv9_1
I0615 17:01:00.130889 17572 net.cpp:434] conv9_1 <- conv8_2_conv8_2_relu_0_split_0
I0615 17:01:00.130900 17572 net.cpp:408] conv9_1 -> conv9_1
I0615 17:01:00.131719 17572 net.cpp:150] Setting up conv9_1
I0615 17:01:00.131742 17572 net.cpp:157] Top shape: 32 128 3 3 (36864)
I0615 17:01:00.131747 17572 net.cpp:165] Memory required for data: 7528661120
I0615 17:01:00.131757 17572 layer_factory.hpp:77] Creating layer conv9_1_relu
I0615 17:01:00.131768 17572 net.cpp:100] Creating Layer conv9_1_relu
I0615 17:01:00.131778 17572 net.cpp:434] conv9_1_relu <- conv9_1
I0615 17:01:00.131791 17572 net.cpp:395] conv9_1_relu -> conv9_1 (in-place)
I0615 17:01:00.132017 17572 net.cpp:150] Setting up conv9_1_relu
I0615 17:01:00.132030 17572 net.cpp:157] Top shape: 32 128 3 3 (36864)
I0615 17:01:00.132035 17572 net.cpp:165] Memory required for data: 7528808576
I0615 17:01:00.132040 17572 layer_factory.hpp:77] Creating layer conv9_2
I0615 17:01:00.132061 17572 net.cpp:100] Creating Layer conv9_2
I0615 17:01:00.132072 17572 net.cpp:434] conv9_2 <- conv9_1
I0615 17:01:00.132084 17572 net.cpp:408] conv9_2 -> conv9_2
I0615 17:01:00.134971 17572 net.cpp:150] Setting up conv9_2
I0615 17:01:00.135008 17572 net.cpp:157] Top shape: 32 256 1 1 (8192)
I0615 17:01:00.135012 17572 net.cpp:165] Memory required for data: 7528841344
I0615 17:01:00.135025 17572 layer_factory.hpp:77] Creating layer conv9_2_relu
I0615 17:01:00.135037 17572 net.cpp:100] Creating Layer conv9_2_relu
I0615 17:01:00.135046 17572 net.cpp:434] conv9_2_relu <- conv9_2
I0615 17:01:00.135061 17572 net.cpp:395] conv9_2_relu -> conv9_2 (in-place)
I0615 17:01:00.135160 17572 net.cpp:150] Setting up conv9_2_relu
I0615 17:01:00.135172 17572 net.cpp:157] Top shape: 32 256 1 1 (8192)
I0615 17:01:00.135179 17572 net.cpp:165] Memory required for data: 7528874112
I0615 17:01:00.135183 17572 layer_factory.hpp:77] Creating layer conv9_2_conv9_2_relu_0_split
I0615 17:01:00.135200 17572 net.cpp:100] Creating Layer conv9_2_conv9_2_relu_0_split
I0615 17:01:00.135206 17572 net.cpp:434] conv9_2_conv9_2_relu_0_split <- conv9_2
I0615 17:01:00.135215 17572 net.cpp:408] conv9_2_conv9_2_relu_0_split -> conv9_2_conv9_2_relu_0_split_0
I0615 17:01:00.135226 17572 net.cpp:408] conv9_2_conv9_2_relu_0_split -> conv9_2_conv9_2_relu_0_split_1
I0615 17:01:00.135238 17572 net.cpp:408] conv9_2_conv9_2_relu_0_split -> conv9_2_conv9_2_relu_0_split_2
I0615 17:01:00.135298 17572 net.cpp:150] Setting up conv9_2_conv9_2_relu_0_split
I0615 17:01:00.135310 17572 net.cpp:157] Top shape: 32 256 1 1 (8192)
I0615 17:01:00.135318 17572 net.cpp:157] Top shape: 32 256 1 1 (8192)
I0615 17:01:00.135327 17572 net.cpp:157] Top shape: 32 256 1 1 (8192)
I0615 17:01:00.135335 17572 net.cpp:165] Memory required for data: 7528972416
I0615 17:01:00.135341 17572 layer_factory.hpp:77] Creating layer conv4_3_norm
I0615 17:01:00.135356 17572 net.cpp:100] Creating Layer conv4_3_norm
I0615 17:01:00.135367 17572 net.cpp:434] conv4_3_norm <- conv4_3_relu4_3_0_split_1
I0615 17:01:00.135378 17572 net.cpp:408] conv4_3_norm -> conv4_3_norm
I0615 17:01:00.135507 17572 net.cpp:150] Setting up conv4_3_norm
I0615 17:01:00.135515 17572 net.cpp:157] Top shape: 32 512 38 38 (23658496)
I0615 17:01:00.135520 17572 net.cpp:165] Memory required for data: 7623606400
I0615 17:01:00.135527 17572 layer_factory.hpp:77] Creating layer conv4_3_norm_conv4_3_norm_0_split
I0615 17:01:00.135538 17572 net.cpp:100] Creating Layer conv4_3_norm_conv4_3_norm_0_split
I0615 17:01:00.135546 17572 net.cpp:434] conv4_3_norm_conv4_3_norm_0_split <- conv4_3_norm
I0615 17:01:00.135557 17572 net.cpp:408] conv4_3_norm_conv4_3_norm_0_split -> conv4_3_norm_conv4_3_norm_0_split_0
I0615 17:01:00.135568 17572 net.cpp:408] conv4_3_norm_conv4_3_norm_0_split -> conv4_3_norm_conv4_3_norm_0_split_1
I0615 17:01:00.135579 17572 net.cpp:408] conv4_3_norm_conv4_3_norm_0_split -> conv4_3_norm_conv4_3_norm_0_split_2
I0615 17:01:00.135655 17572 net.cpp:150] Setting up conv4_3_norm_conv4_3_norm_0_split
I0615 17:01:00.135666 17572 net.cpp:157] Top shape: 32 512 38 38 (23658496)
I0615 17:01:00.135671 17572 net.cpp:157] Top shape: 32 512 38 38 (23658496)
I0615 17:01:00.135679 17572 net.cpp:157] Top shape: 32 512 38 38 (23658496)
I0615 17:01:00.135684 17572 net.cpp:165] Memory required for data: 7907508352
I0615 17:01:00.135692 17572 layer_factory.hpp:77] Creating layer conv4_3_norm_mbox_loc
I0615 17:01:00.135710 17572 net.cpp:100] Creating Layer conv4_3_norm_mbox_loc
I0615 17:01:00.135720 17572 net.cpp:434] conv4_3_norm_mbox_loc <- conv4_3_norm_conv4_3_norm_0_split_0
I0615 17:01:00.135730 17572 net.cpp:408] conv4_3_norm_mbox_loc -> conv4_3_norm_mbox_loc
I0615 17:01:00.138106 17572 net.cpp:150] Setting up conv4_3_norm_mbox_loc
I0615 17:01:00.138139 17572 net.cpp:157] Top shape: 32 16 38 38 (739328)
I0615 17:01:00.138144 17572 net.cpp:165] Memory required for data: 7910465664
I0615 17:01:00.138156 17572 layer_factory.hpp:77] Creating layer conv4_3_norm_mbox_loc_perm
I0615 17:01:00.138173 17572 net.cpp:100] Creating Layer conv4_3_norm_mbox_loc_perm
I0615 17:01:00.138183 17572 net.cpp:434] conv4_3_norm_mbox_loc_perm <- conv4_3_norm_mbox_loc
I0615 17:01:00.138198 17572 net.cpp:408] conv4_3_norm_mbox_loc_perm -> conv4_3_norm_mbox_loc_perm
I0615 17:01:00.138314 17572 net.cpp:150] Setting up conv4_3_norm_mbox_loc_perm
I0615 17:01:00.138326 17572 net.cpp:157] Top shape: 32 38 38 16 (739328)
I0615 17:01:00.138334 17572 net.cpp:165] Memory required for data: 7913422976
I0615 17:01:00.138340 17572 layer_factory.hpp:77] Creating layer conv4_3_norm_mbox_loc_flat
I0615 17:01:00.138355 17572 net.cpp:100] Creating Layer conv4_3_norm_mbox_loc_flat
I0615 17:01:00.138362 17572 net.cpp:434] conv4_3_norm_mbox_loc_flat <- conv4_3_norm_mbox_loc_perm
I0615 17:01:00.138375 17572 net.cpp:408] conv4_3_norm_mbox_loc_flat -> conv4_3_norm_mbox_loc_flat
I0615 17:01:00.138425 17572 net.cpp:150] Setting up conv4_3_norm_mbox_loc_flat
I0615 17:01:00.138437 17572 net.cpp:157] Top shape: 32 23104 (739328)
I0615 17:01:00.138445 17572 net.cpp:165] Memory required for data: 7916380288
I0615 17:01:00.138453 17572 layer_factory.hpp:77] Creating layer conv4_3_norm_mbox_conf
I0615 17:01:00.138484 17572 net.cpp:100] Creating Layer conv4_3_norm_mbox_conf
I0615 17:01:00.138491 17572 net.cpp:434] conv4_3_norm_mbox_conf <- conv4_3_norm_conv4_3_norm_0_split_1
I0615 17:01:00.138504 17572 net.cpp:408] conv4_3_norm_mbox_conf -> conv4_3_norm_mbox_conf
I0615 17:01:00.140331 17572 net.cpp:150] Setting up conv4_3_norm_mbox_conf
I0615 17:01:00.140362 17572 net.cpp:157] Top shape: 32 44 38 38 (2033152)
I0615 17:01:00.140367 17572 net.cpp:165] Memory required for data: 7924512896
I0615 17:01:00.140381 17572 layer_factory.hpp:77] Creating layer conv4_3_norm_mbox_conf_perm
I0615 17:01:00.140398 17572 net.cpp:100] Creating Layer conv4_3_norm_mbox_conf_perm
I0615 17:01:00.140408 17572 net.cpp:434] conv4_3_norm_mbox_conf_perm <- conv4_3_norm_mbox_conf
I0615 17:01:00.140420 17572 net.cpp:408] conv4_3_norm_mbox_conf_perm -> conv4_3_norm_mbox_conf_perm
I0615 17:01:00.140533 17572 net.cpp:150] Setting up conv4_3_norm_mbox_conf_perm
I0615 17:01:00.140544 17572 net.cpp:157] Top shape: 32 38 38 44 (2033152)
I0615 17:01:00.140552 17572 net.cpp:165] Memory required for data: 7932645504
I0615 17:01:00.140558 17572 layer_factory.hpp:77] Creating layer conv4_3_norm_mbox_conf_flat
I0615 17:01:00.140570 17572 net.cpp:100] Creating Layer conv4_3_norm_mbox_conf_flat
I0615 17:01:00.140578 17572 net.cpp:434] conv4_3_norm_mbox_conf_flat <- conv4_3_norm_mbox_conf_perm
I0615 17:01:00.140589 17572 net.cpp:408] conv4_3_norm_mbox_conf_flat -> conv4_3_norm_mbox_conf_flat
I0615 17:01:00.140624 17572 net.cpp:150] Setting up conv4_3_norm_mbox_conf_flat
I0615 17:01:00.140635 17572 net.cpp:157] Top shape: 32 63536 (2033152)
I0615 17:01:00.140641 17572 net.cpp:165] Memory required for data: 7940778112
I0615 17:01:00.140647 17572 layer_factory.hpp:77] Creating layer conv4_3_norm_mbox_priorbox
I0615 17:01:00.140689 17572 net.cpp:100] Creating Layer conv4_3_norm_mbox_priorbox
I0615 17:01:00.140700 17572 net.cpp:434] conv4_3_norm_mbox_priorbox <- conv4_3_norm_conv4_3_norm_0_split_2
I0615 17:01:00.140710 17572 net.cpp:434] conv4_3_norm_mbox_priorbox <- data_data_0_split_1
I0615 17:01:00.140725 17572 net.cpp:408] conv4_3_norm_mbox_priorbox -> conv4_3_norm_mbox_priorbox
I0615 17:01:00.140770 17572 net.cpp:150] Setting up conv4_3_norm_mbox_priorbox
I0615 17:01:00.140782 17572 net.cpp:157] Top shape: 1 2 23104 (46208)
I0615 17:01:00.140790 17572 net.cpp:165] Memory required for data: 7940962944
I0615 17:01:00.140796 17572 layer_factory.hpp:77] Creating layer fc7_mbox_loc
I0615 17:01:00.140815 17572 net.cpp:100] Creating Layer fc7_mbox_loc
I0615 17:01:00.140826 17572 net.cpp:434] fc7_mbox_loc <- fc7_relu7_0_split_1
I0615 17:01:00.140839 17572 net.cpp:408] fc7_mbox_loc -> fc7_mbox_loc
I0615 17:01:00.142729 17572 net.cpp:150] Setting up fc7_mbox_loc
I0615 17:01:00.142765 17572 net.cpp:157] Top shape: 32 24 19 19 (277248)
I0615 17:01:00.142771 17572 net.cpp:165] Memory required for data: 7942071936
I0615 17:01:00.142782 17572 layer_factory.hpp:77] Creating layer fc7_mbox_loc_perm
I0615 17:01:00.142799 17572 net.cpp:100] Creating Layer fc7_mbox_loc_perm
I0615 17:01:00.142809 17572 net.cpp:434] fc7_mbox_loc_perm <- fc7_mbox_loc
I0615 17:01:00.142822 17572 net.cpp:408] fc7_mbox_loc_perm -> fc7_mbox_loc_perm
I0615 17:01:00.142931 17572 net.cpp:150] Setting up fc7_mbox_loc_perm
I0615 17:01:00.142944 17572 net.cpp:157] Top shape: 32 19 19 24 (277248)
I0615 17:01:00.142951 17572 net.cpp:165] Memory required for data: 7943180928
I0615 17:01:00.142957 17572 layer_factory.hpp:77] Creating layer fc7_mbox_loc_flat
I0615 17:01:00.142968 17572 net.cpp:100] Creating Layer fc7_mbox_loc_flat
I0615 17:01:00.142976 17572 net.cpp:434] fc7_mbox_loc_flat <- fc7_mbox_loc_perm
I0615 17:01:00.142988 17572 net.cpp:408] fc7_mbox_loc_flat -> fc7_mbox_loc_flat
I0615 17:01:00.143021 17572 net.cpp:150] Setting up fc7_mbox_loc_flat
I0615 17:01:00.143031 17572 net.cpp:157] Top shape: 32 8664 (277248)
I0615 17:01:00.143040 17572 net.cpp:165] Memory required for data: 7944289920
I0615 17:01:00.143046 17572 layer_factory.hpp:77] Creating layer fc7_mbox_conf
I0615 17:01:00.143066 17572 net.cpp:100] Creating Layer fc7_mbox_conf
I0615 17:01:00.143074 17572 net.cpp:434] fc7_mbox_conf <- fc7_relu7_0_split_2
I0615 17:01:00.143086 17572 net.cpp:408] fc7_mbox_conf -> fc7_mbox_conf
I0615 17:01:00.147511 17572 net.cpp:150] Setting up fc7_mbox_conf
I0615 17:01:00.147548 17572 net.cpp:157] Top shape: 32 66 19 19 (762432)
I0615 17:01:00.147552 17572 net.cpp:165] Memory required for data: 7947339648
I0615 17:01:00.147565 17572 layer_factory.hpp:77] Creating layer fc7_mbox_conf_perm
I0615 17:01:00.147583 17572 net.cpp:100] Creating Layer fc7_mbox_conf_perm
I0615 17:01:00.147593 17572 net.cpp:434] fc7_mbox_conf_perm <- fc7_mbox_conf
I0615 17:01:00.147608 17572 net.cpp:408] fc7_mbox_conf_perm -> fc7_mbox_conf_perm
I0615 17:01:00.147716 17572 net.cpp:150] Setting up fc7_mbox_conf_perm
I0615 17:01:00.147728 17572 net.cpp:157] Top shape: 32 19 19 66 (762432)
I0615 17:01:00.147735 17572 net.cpp:165] Memory required for data: 7950389376
I0615 17:01:00.147742 17572 layer_factory.hpp:77] Creating layer fc7_mbox_conf_flat
I0615 17:01:00.147753 17572 net.cpp:100] Creating Layer fc7_mbox_conf_flat
I0615 17:01:00.147761 17572 net.cpp:434] fc7_mbox_conf_flat <- fc7_mbox_conf_perm
I0615 17:01:00.147770 17572 net.cpp:408] fc7_mbox_conf_flat -> fc7_mbox_conf_flat
I0615 17:01:00.147805 17572 net.cpp:150] Setting up fc7_mbox_conf_flat
I0615 17:01:00.147816 17572 net.cpp:157] Top shape: 32 23826 (762432)
I0615 17:01:00.147823 17572 net.cpp:165] Memory required for data: 7953439104
I0615 17:01:00.147831 17572 layer_factory.hpp:77] Creating layer fc7_mbox_priorbox
I0615 17:01:00.147845 17572 net.cpp:100] Creating Layer fc7_mbox_priorbox
I0615 17:01:00.147855 17572 net.cpp:434] fc7_mbox_priorbox <- fc7_relu7_0_split_3
I0615 17:01:00.147871 17572 net.cpp:434] fc7_mbox_priorbox <- data_data_0_split_2
I0615 17:01:00.147904 17572 net.cpp:408] fc7_mbox_priorbox -> fc7_mbox_priorbox
I0615 17:01:00.147953 17572 net.cpp:150] Setting up fc7_mbox_priorbox
I0615 17:01:00.147964 17572 net.cpp:157] Top shape: 1 2 8664 (17328)
I0615 17:01:00.147972 17572 net.cpp:165] Memory required for data: 7953508416
I0615 17:01:00.147979 17572 layer_factory.hpp:77] Creating layer conv6_2_mbox_loc
I0615 17:01:00.147996 17572 net.cpp:100] Creating Layer conv6_2_mbox_loc
I0615 17:01:00.148005 17572 net.cpp:434] conv6_2_mbox_loc <- conv6_2_conv6_2_relu_0_split_1
I0615 17:01:00.148020 17572 net.cpp:408] conv6_2_mbox_loc -> conv6_2_mbox_loc
I0615 17:01:00.150759 17572 net.cpp:150] Setting up conv6_2_mbox_loc
I0615 17:01:00.150800 17572 net.cpp:157] Top shape: 32 24 10 10 (76800)
I0615 17:01:00.150804 17572 net.cpp:165] Memory required for data: 7953815616
I0615 17:01:00.150820 17572 layer_factory.hpp:77] Creating layer conv6_2_mbox_loc_perm
I0615 17:01:00.150837 17572 net.cpp:100] Creating Layer conv6_2_mbox_loc_perm
I0615 17:01:00.150847 17572 net.cpp:434] conv6_2_mbox_loc_perm <- conv6_2_mbox_loc
I0615 17:01:00.150861 17572 net.cpp:408] conv6_2_mbox_loc_perm -> conv6_2_mbox_loc_perm
I0615 17:01:00.150987 17572 net.cpp:150] Setting up conv6_2_mbox_loc_perm
I0615 17:01:00.151000 17572 net.cpp:157] Top shape: 32 10 10 24 (76800)
I0615 17:01:00.151007 17572 net.cpp:165] Memory required for data: 7954122816
I0615 17:01:00.151015 17572 layer_factory.hpp:77] Creating layer conv6_2_mbox_loc_flat
I0615 17:01:00.151028 17572 net.cpp:100] Creating Layer conv6_2_mbox_loc_flat
I0615 17:01:00.151037 17572 net.cpp:434] conv6_2_mbox_loc_flat <- conv6_2_mbox_loc_perm
I0615 17:01:00.151047 17572 net.cpp:408] conv6_2_mbox_loc_flat -> conv6_2_mbox_loc_flat
I0615 17:01:00.151078 17572 net.cpp:150] Setting up conv6_2_mbox_loc_flat
I0615 17:01:00.151088 17572 net.cpp:157] Top shape: 32 2400 (76800)
I0615 17:01:00.151096 17572 net.cpp:165] Memory required for data: 7954430016
I0615 17:01:00.151101 17572 layer_factory.hpp:77] Creating layer conv6_2_mbox_conf
I0615 17:01:00.151123 17572 net.cpp:100] Creating Layer conv6_2_mbox_conf
I0615 17:01:00.151132 17572 net.cpp:434] conv6_2_mbox_conf <- conv6_2_conv6_2_relu_0_split_2
I0615 17:01:00.151146 17572 net.cpp:408] conv6_2_mbox_conf -> conv6_2_mbox_conf
I0615 17:01:00.154078 17572 net.cpp:150] Setting up conv6_2_mbox_conf
I0615 17:01:00.154119 17572 net.cpp:157] Top shape: 32 66 10 10 (211200)
I0615 17:01:00.154124 17572 net.cpp:165] Memory required for data: 7955274816
I0615 17:01:00.154139 17572 layer_factory.hpp:77] Creating layer conv6_2_mbox_conf_perm
I0615 17:01:00.154160 17572 net.cpp:100] Creating Layer conv6_2_mbox_conf_perm
I0615 17:01:00.154170 17572 net.cpp:434] conv6_2_mbox_conf_perm <- conv6_2_mbox_conf
I0615 17:01:00.154183 17572 net.cpp:408] conv6_2_mbox_conf_perm -> conv6_2_mbox_conf_perm
I0615 17:01:00.154296 17572 net.cpp:150] Setting up conv6_2_mbox_conf_perm
I0615 17:01:00.154307 17572 net.cpp:157] Top shape: 32 10 10 66 (211200)
I0615 17:01:00.154314 17572 net.cpp:165] Memory required for data: 7956119616
I0615 17:01:00.154320 17572 layer_factory.hpp:77] Creating layer conv6_2_mbox_conf_flat
I0615 17:01:00.154335 17572 net.cpp:100] Creating Layer conv6_2_mbox_conf_flat
I0615 17:01:00.154340 17572 net.cpp:434] conv6_2_mbox_conf_flat <- conv6_2_mbox_conf_perm
I0615 17:01:00.154352 17572 net.cpp:408] conv6_2_mbox_conf_flat -> conv6_2_mbox_conf_flat
I0615 17:01:00.154383 17572 net.cpp:150] Setting up conv6_2_mbox_conf_flat
I0615 17:01:00.154394 17572 net.cpp:157] Top shape: 32 6600 (211200)
I0615 17:01:00.154402 17572 net.cpp:165] Memory required for data: 7956964416
I0615 17:01:00.154408 17572 layer_factory.hpp:77] Creating layer conv6_2_mbox_priorbox
I0615 17:01:00.154422 17572 net.cpp:100] Creating Layer conv6_2_mbox_priorbox
I0615 17:01:00.154430 17572 net.cpp:434] conv6_2_mbox_priorbox <- conv6_2_conv6_2_relu_0_split_3
I0615 17:01:00.154440 17572 net.cpp:434] conv6_2_mbox_priorbox <- data_data_0_split_3
I0615 17:01:00.154464 17572 net.cpp:408] conv6_2_mbox_priorbox -> conv6_2_mbox_priorbox
I0615 17:01:00.154529 17572 net.cpp:150] Setting up conv6_2_mbox_priorbox
I0615 17:01:00.154541 17572 net.cpp:157] Top shape: 1 2 2400 (4800)
I0615 17:01:00.154547 17572 net.cpp:165] Memory required for data: 7956983616
I0615 17:01:00.154554 17572 layer_factory.hpp:77] Creating layer conv7_2_mbox_loc
I0615 17:01:00.154577 17572 net.cpp:100] Creating Layer conv7_2_mbox_loc
I0615 17:01:00.154587 17572 net.cpp:434] conv7_2_mbox_loc <- conv7_2_conv7_2_relu_0_split_1
I0615 17:01:00.154597 17572 net.cpp:408] conv7_2_mbox_loc -> conv7_2_mbox_loc
I0615 17:01:00.155532 17572 net.cpp:150] Setting up conv7_2_mbox_loc
I0615 17:01:00.155553 17572 net.cpp:157] Top shape: 32 24 5 5 (19200)
I0615 17:01:00.155558 17572 net.cpp:165] Memory required for data: 7957060416
I0615 17:01:00.155568 17572 layer_factory.hpp:77] Creating layer conv7_2_mbox_loc_perm
I0615 17:01:00.155580 17572 net.cpp:100] Creating Layer conv7_2_mbox_loc_perm
I0615 17:01:00.155588 17572 net.cpp:434] conv7_2_mbox_loc_perm <- conv7_2_mbox_loc
I0615 17:01:00.155601 17572 net.cpp:408] conv7_2_mbox_loc_perm -> conv7_2_mbox_loc_perm
I0615 17:01:00.155709 17572 net.cpp:150] Setting up conv7_2_mbox_loc_perm
I0615 17:01:00.155719 17572 net.cpp:157] Top shape: 32 5 5 24 (19200)
I0615 17:01:00.155722 17572 net.cpp:165] Memory required for data: 7957137216
I0615 17:01:00.155730 17572 layer_factory.hpp:77] Creating layer conv7_2_mbox_loc_flat
I0615 17:01:00.155741 17572 net.cpp:100] Creating Layer conv7_2_mbox_loc_flat
I0615 17:01:00.155750 17572 net.cpp:434] conv7_2_mbox_loc_flat <- conv7_2_mbox_loc_perm
I0615 17:01:00.155757 17572 net.cpp:408] conv7_2_mbox_loc_flat -> conv7_2_mbox_loc_flat
I0615 17:01:00.155791 17572 net.cpp:150] Setting up conv7_2_mbox_loc_flat
I0615 17:01:00.155800 17572 net.cpp:157] Top shape: 32 600 (19200)
I0615 17:01:00.155807 17572 net.cpp:165] Memory required for data: 7957214016
I0615 17:01:00.155813 17572 layer_factory.hpp:77] Creating layer conv7_2_mbox_conf
I0615 17:01:00.155831 17572 net.cpp:100] Creating Layer conv7_2_mbox_conf
I0615 17:01:00.155843 17572 net.cpp:434] conv7_2_mbox_conf <- conv7_2_conv7_2_relu_0_split_2
I0615 17:01:00.155853 17572 net.cpp:408] conv7_2_mbox_conf -> conv7_2_mbox_conf
I0615 17:01:00.157240 17572 net.cpp:150] Setting up conv7_2_mbox_conf
I0615 17:01:00.157284 17572 net.cpp:157] Top shape: 32 66 5 5 (52800)
I0615 17:01:00.157289 17572 net.cpp:165] Memory required for data: 7957425216
I0615 17:01:00.157300 17572 layer_factory.hpp:77] Creating layer conv7_2_mbox_conf_perm
I0615 17:01:00.157316 17572 net.cpp:100] Creating Layer conv7_2_mbox_conf_perm
I0615 17:01:00.157326 17572 net.cpp:434] conv7_2_mbox_conf_perm <- conv7_2_mbox_conf
I0615 17:01:00.157337 17572 net.cpp:408] conv7_2_mbox_conf_perm -> conv7_2_mbox_conf_perm
I0615 17:01:00.157445 17572 net.cpp:150] Setting up conv7_2_mbox_conf_perm
I0615 17:01:00.157457 17572 net.cpp:157] Top shape: 32 5 5 66 (52800)
I0615 17:01:00.157465 17572 net.cpp:165] Memory required for data: 7957636416
I0615 17:01:00.157471 17572 layer_factory.hpp:77] Creating layer conv7_2_mbox_conf_flat
I0615 17:01:00.157481 17572 net.cpp:100] Creating Layer conv7_2_mbox_conf_flat
I0615 17:01:00.157490 17572 net.cpp:434] conv7_2_mbox_conf_flat <- conv7_2_mbox_conf_perm
I0615 17:01:00.157503 17572 net.cpp:408] conv7_2_mbox_conf_flat -> conv7_2_mbox_conf_flat
I0615 17:01:00.157533 17572 net.cpp:150] Setting up conv7_2_mbox_conf_flat
I0615 17:01:00.157547 17572 net.cpp:157] Top shape: 32 1650 (52800)
I0615 17:01:00.157557 17572 net.cpp:165] Memory required for data: 7957847616
I0615 17:01:00.157567 17572 layer_factory.hpp:77] Creating layer conv7_2_mbox_priorbox
I0615 17:01:00.157579 17572 net.cpp:100] Creating Layer conv7_2_mbox_priorbox
I0615 17:01:00.157588 17572 net.cpp:434] conv7_2_mbox_priorbox <- conv7_2_conv7_2_relu_0_split_3
I0615 17:01:00.157598 17572 net.cpp:434] conv7_2_mbox_priorbox <- data_data_0_split_4
I0615 17:01:00.157613 17572 net.cpp:408] conv7_2_mbox_priorbox -> conv7_2_mbox_priorbox
I0615 17:01:00.157650 17572 net.cpp:150] Setting up conv7_2_mbox_priorbox
I0615 17:01:00.157660 17572 net.cpp:157] Top shape: 1 2 600 (1200)
I0615 17:01:00.157689 17572 net.cpp:165] Memory required for data: 7957852416
I0615 17:01:00.157697 17572 layer_factory.hpp:77] Creating layer conv8_2_mbox_loc
I0615 17:01:00.157716 17572 net.cpp:100] Creating Layer conv8_2_mbox_loc
I0615 17:01:00.157724 17572 net.cpp:434] conv8_2_mbox_loc <- conv8_2_conv8_2_relu_0_split_1
I0615 17:01:00.157740 17572 net.cpp:408] conv8_2_mbox_loc -> conv8_2_mbox_loc
I0615 17:01:00.158605 17572 net.cpp:150] Setting up conv8_2_mbox_loc
I0615 17:01:00.158624 17572 net.cpp:157] Top shape: 32 16 3 3 (4608)
I0615 17:01:00.158628 17572 net.cpp:165] Memory required for data: 7957870848
I0615 17:01:00.158651 17572 layer_factory.hpp:77] Creating layer conv8_2_mbox_loc_perm
I0615 17:01:00.158666 17572 net.cpp:100] Creating Layer conv8_2_mbox_loc_perm
I0615 17:01:00.158675 17572 net.cpp:434] conv8_2_mbox_loc_perm <- conv8_2_mbox_loc
I0615 17:01:00.158686 17572 net.cpp:408] conv8_2_mbox_loc_perm -> conv8_2_mbox_loc_perm
I0615 17:01:00.158798 17572 net.cpp:150] Setting up conv8_2_mbox_loc_perm
I0615 17:01:00.158808 17572 net.cpp:157] Top shape: 32 3 3 16 (4608)
I0615 17:01:00.158812 17572 net.cpp:165] Memory required for data: 7957889280
I0615 17:01:00.158818 17572 layer_factory.hpp:77] Creating layer conv8_2_mbox_loc_flat
I0615 17:01:00.158828 17572 net.cpp:100] Creating Layer conv8_2_mbox_loc_flat
I0615 17:01:00.158836 17572 net.cpp:434] conv8_2_mbox_loc_flat <- conv8_2_mbox_loc_perm
I0615 17:01:00.158849 17572 net.cpp:408] conv8_2_mbox_loc_flat -> conv8_2_mbox_loc_flat
I0615 17:01:00.158882 17572 net.cpp:150] Setting up conv8_2_mbox_loc_flat
I0615 17:01:00.158892 17572 net.cpp:157] Top shape: 32 144 (4608)
I0615 17:01:00.158900 17572 net.cpp:165] Memory required for data: 7957907712
I0615 17:01:00.158906 17572 layer_factory.hpp:77] Creating layer conv8_2_mbox_conf
I0615 17:01:00.158923 17572 net.cpp:100] Creating Layer conv8_2_mbox_conf
I0615 17:01:00.158932 17572 net.cpp:434] conv8_2_mbox_conf <- conv8_2_conv8_2_relu_0_split_2
I0615 17:01:00.158946 17572 net.cpp:408] conv8_2_mbox_conf -> conv8_2_mbox_conf
I0615 17:01:00.161532 17572 net.cpp:150] Setting up conv8_2_mbox_conf
I0615 17:01:00.161568 17572 net.cpp:157] Top shape: 32 44 3 3 (12672)
I0615 17:01:00.161572 17572 net.cpp:165] Memory required for data: 7957958400
I0615 17:01:00.161588 17572 layer_factory.hpp:77] Creating layer conv8_2_mbox_conf_perm
I0615 17:01:00.161605 17572 net.cpp:100] Creating Layer conv8_2_mbox_conf_perm
I0615 17:01:00.161615 17572 net.cpp:434] conv8_2_mbox_conf_perm <- conv8_2_mbox_conf
I0615 17:01:00.161630 17572 net.cpp:408] conv8_2_mbox_conf_perm -> conv8_2_mbox_conf_perm
I0615 17:01:00.161741 17572 net.cpp:150] Setting up conv8_2_mbox_conf_perm
I0615 17:01:00.161754 17572 net.cpp:157] Top shape: 32 3 3 44 (12672)
I0615 17:01:00.161761 17572 net.cpp:165] Memory required for data: 7958009088
I0615 17:01:00.161767 17572 layer_factory.hpp:77] Creating layer conv8_2_mbox_conf_flat
I0615 17:01:00.161782 17572 net.cpp:100] Creating Layer conv8_2_mbox_conf_flat
I0615 17:01:00.161789 17572 net.cpp:434] conv8_2_mbox_conf_flat <- conv8_2_mbox_conf_perm
I0615 17:01:00.161799 17572 net.cpp:408] conv8_2_mbox_conf_flat -> conv8_2_mbox_conf_flat
I0615 17:01:00.161828 17572 net.cpp:150] Setting up conv8_2_mbox_conf_flat
I0615 17:01:00.161839 17572 net.cpp:157] Top shape: 32 396 (12672)
I0615 17:01:00.161846 17572 net.cpp:165] Memory required for data: 7958059776
I0615 17:01:00.161852 17572 layer_factory.hpp:77] Creating layer conv8_2_mbox_priorbox
I0615 17:01:00.161867 17572 net.cpp:100] Creating Layer conv8_2_mbox_priorbox
I0615 17:01:00.161878 17572 net.cpp:434] conv8_2_mbox_priorbox <- conv8_2_conv8_2_relu_0_split_3
I0615 17:01:00.161886 17572 net.cpp:434] conv8_2_mbox_priorbox <- data_data_0_split_5
I0615 17:01:00.161900 17572 net.cpp:408] conv8_2_mbox_priorbox -> conv8_2_mbox_priorbox
I0615 17:01:00.161937 17572 net.cpp:150] Setting up conv8_2_mbox_priorbox
I0615 17:01:00.161948 17572 net.cpp:157] Top shape: 1 2 144 (288)
I0615 17:01:00.161954 17572 net.cpp:165] Memory required for data: 7958060928
I0615 17:01:00.161988 17572 layer_factory.hpp:77] Creating layer conv9_2_mbox_loc
I0615 17:01:00.162012 17572 net.cpp:100] Creating Layer conv9_2_mbox_loc
I0615 17:01:00.162022 17572 net.cpp:434] conv9_2_mbox_loc <- conv9_2_conv9_2_relu_0_split_0
I0615 17:01:00.162034 17572 net.cpp:408] conv9_2_mbox_loc -> conv9_2_mbox_loc
I0615 17:01:00.163070 17572 net.cpp:150] Setting up conv9_2_mbox_loc
I0615 17:01:00.163103 17572 net.cpp:157] Top shape: 32 16 1 1 (512)
I0615 17:01:00.163108 17572 net.cpp:165] Memory required for data: 7958062976
I0615 17:01:00.163120 17572 layer_factory.hpp:77] Creating layer conv9_2_mbox_loc_perm
I0615 17:01:00.163131 17572 net.cpp:100] Creating Layer conv9_2_mbox_loc_perm
I0615 17:01:00.163141 17572 net.cpp:434] conv9_2_mbox_loc_perm <- conv9_2_mbox_loc
I0615 17:01:00.163157 17572 net.cpp:408] conv9_2_mbox_loc_perm -> conv9_2_mbox_loc_perm
I0615 17:01:00.163280 17572 net.cpp:150] Setting up conv9_2_mbox_loc_perm
I0615 17:01:00.163291 17572 net.cpp:157] Top shape: 32 1 1 16 (512)
I0615 17:01:00.163297 17572 net.cpp:165] Memory required for data: 7958065024
I0615 17:01:00.163306 17572 layer_factory.hpp:77] Creating layer conv9_2_mbox_loc_flat
I0615 17:01:00.163318 17572 net.cpp:100] Creating Layer conv9_2_mbox_loc_flat
I0615 17:01:00.163326 17572 net.cpp:434] conv9_2_mbox_loc_flat <- conv9_2_mbox_loc_perm
I0615 17:01:00.163338 17572 net.cpp:408] conv9_2_mbox_loc_flat -> conv9_2_mbox_loc_flat
I0615 17:01:00.163370 17572 net.cpp:150] Setting up conv9_2_mbox_loc_flat
I0615 17:01:00.163381 17572 net.cpp:157] Top shape: 32 16 (512)
I0615 17:01:00.163388 17572 net.cpp:165] Memory required for data: 7958067072
I0615 17:01:00.163396 17572 layer_factory.hpp:77] Creating layer conv9_2_mbox_conf
I0615 17:01:00.163416 17572 net.cpp:100] Creating Layer conv9_2_mbox_conf
I0615 17:01:00.163425 17572 net.cpp:434] conv9_2_mbox_conf <- conv9_2_conv9_2_relu_0_split_1
I0615 17:01:00.163435 17572 net.cpp:408] conv9_2_mbox_conf -> conv9_2_mbox_conf
I0615 17:01:00.164690 17572 net.cpp:150] Setting up conv9_2_mbox_conf
I0615 17:01:00.164722 17572 net.cpp:157] Top shape: 32 44 1 1 (1408)
I0615 17:01:00.164726 17572 net.cpp:165] Memory required for data: 7958072704
I0615 17:01:00.164741 17572 layer_factory.hpp:77] Creating layer conv9_2_mbox_conf_perm
I0615 17:01:00.164757 17572 net.cpp:100] Creating Layer conv9_2_mbox_conf_perm
I0615 17:01:00.164767 17572 net.cpp:434] conv9_2_mbox_conf_perm <- conv9_2_mbox_conf
I0615 17:01:00.164779 17572 net.cpp:408] conv9_2_mbox_conf_perm -> conv9_2_mbox_conf_perm
I0615 17:01:00.164885 17572 net.cpp:150] Setting up conv9_2_mbox_conf_perm
I0615 17:01:00.164897 17572 net.cpp:157] Top shape: 32 1 1 44 (1408)
I0615 17:01:00.164904 17572 net.cpp:165] Memory required for data: 7958078336
I0615 17:01:00.164911 17572 layer_factory.hpp:77] Creating layer conv9_2_mbox_conf_flat
I0615 17:01:00.164922 17572 net.cpp:100] Creating Layer conv9_2_mbox_conf_flat
I0615 17:01:00.164930 17572 net.cpp:434] conv9_2_mbox_conf_flat <- conv9_2_mbox_conf_perm
I0615 17:01:00.164944 17572 net.cpp:408] conv9_2_mbox_conf_flat -> conv9_2_mbox_conf_flat
I0615 17:01:00.164975 17572 net.cpp:150] Setting up conv9_2_mbox_conf_flat
I0615 17:01:00.164985 17572 net.cpp:157] Top shape: 32 44 (1408)
I0615 17:01:00.164992 17572 net.cpp:165] Memory required for data: 7958083968
I0615 17:01:00.164999 17572 layer_factory.hpp:77] Creating layer conv9_2_mbox_priorbox
I0615 17:01:00.165012 17572 net.cpp:100] Creating Layer conv9_2_mbox_priorbox
I0615 17:01:00.165024 17572 net.cpp:434] conv9_2_mbox_priorbox <- conv9_2_conv9_2_relu_0_split_2
I0615 17:01:00.165031 17572 net.cpp:434] conv9_2_mbox_priorbox <- data_data_0_split_6
I0615 17:01:00.165046 17572 net.cpp:408] conv9_2_mbox_priorbox -> conv9_2_mbox_priorbox
I0615 17:01:00.165084 17572 net.cpp:150] Setting up conv9_2_mbox_priorbox
I0615 17:01:00.165094 17572 net.cpp:157] Top shape: 1 2 16 (32)
I0615 17:01:00.165102 17572 net.cpp:165] Memory required for data: 7958084096
I0615 17:01:00.165108 17572 layer_factory.hpp:77] Creating layer mbox_loc
I0615 17:01:00.165122 17572 net.cpp:100] Creating Layer mbox_loc
I0615 17:01:00.165155 17572 net.cpp:434] mbox_loc <- conv4_3_norm_mbox_loc_flat
I0615 17:01:00.165165 17572 net.cpp:434] mbox_loc <- fc7_mbox_loc_flat
I0615 17:01:00.165176 17572 net.cpp:434] mbox_loc <- conv6_2_mbox_loc_flat
I0615 17:01:00.165186 17572 net.cpp:434] mbox_loc <- conv7_2_mbox_loc_flat
I0615 17:01:00.165195 17572 net.cpp:434] mbox_loc <- conv8_2_mbox_loc_flat
I0615 17:01:00.165205 17572 net.cpp:434] mbox_loc <- conv9_2_mbox_loc_flat
I0615 17:01:00.165218 17572 net.cpp:408] mbox_loc -> mbox_loc
I0615 17:01:00.165277 17572 net.cpp:150] Setting up mbox_loc
I0615 17:01:00.165289 17572 net.cpp:157] Top shape: 32 34928 (1117696)
I0615 17:01:00.165297 17572 net.cpp:165] Memory required for data: 7962554880
I0615 17:01:00.165304 17572 layer_factory.hpp:77] Creating layer mbox_conf
I0615 17:01:00.165318 17572 net.cpp:100] Creating Layer mbox_conf
I0615 17:01:00.165328 17572 net.cpp:434] mbox_conf <- conv4_3_norm_mbox_conf_flat
I0615 17:01:00.165336 17572 net.cpp:434] mbox_conf <- fc7_mbox_conf_flat
I0615 17:01:00.165346 17572 net.cpp:434] mbox_conf <- conv6_2_mbox_conf_flat
I0615 17:01:00.165355 17572 net.cpp:434] mbox_conf <- conv7_2_mbox_conf_flat
I0615 17:01:00.165364 17572 net.cpp:434] mbox_conf <- conv8_2_mbox_conf_flat
I0615 17:01:00.165370 17572 net.cpp:434] mbox_conf <- conv9_2_mbox_conf_flat
I0615 17:01:00.165380 17572 net.cpp:408] mbox_conf -> mbox_conf
I0615 17:01:00.165411 17572 net.cpp:150] Setting up mbox_conf
I0615 17:01:00.165421 17572 net.cpp:157] Top shape: 32 96052 (3073664)
I0615 17:01:00.165428 17572 net.cpp:165] Memory required for data: 7974849536
I0615 17:01:00.165436 17572 layer_factory.hpp:77] Creating layer mbox_priorbox
I0615 17:01:00.165446 17572 net.cpp:100] Creating Layer mbox_priorbox
I0615 17:01:00.165453 17572 net.cpp:434] mbox_priorbox <- conv4_3_norm_mbox_priorbox
I0615 17:01:00.165460 17572 net.cpp:434] mbox_priorbox <- fc7_mbox_priorbox
I0615 17:01:00.165469 17572 net.cpp:434] mbox_priorbox <- conv6_2_mbox_priorbox
I0615 17:01:00.165477 17572 net.cpp:434] mbox_priorbox <- conv7_2_mbox_priorbox
I0615 17:01:00.165483 17572 net.cpp:434] mbox_priorbox <- conv8_2_mbox_priorbox
I0615 17:01:00.165491 17572 net.cpp:434] mbox_priorbox <- conv9_2_mbox_priorbox
I0615 17:01:00.165504 17572 net.cpp:408] mbox_priorbox -> mbox_priorbox
I0615 17:01:00.165535 17572 net.cpp:150] Setting up mbox_priorbox
I0615 17:01:00.165545 17572 net.cpp:157] Top shape: 1 2 34928 (69856)
I0615 17:01:00.165552 17572 net.cpp:165] Memory required for data: 7975128960
I0615 17:01:00.165558 17572 layer_factory.hpp:77] Creating layer mbox_loss
I0615 17:01:00.165575 17572 net.cpp:100] Creating Layer mbox_loss
I0615 17:01:00.165585 17572 net.cpp:434] mbox_loss <- mbox_loc
I0615 17:01:00.165596 17572 net.cpp:434] mbox_loss <- mbox_conf
I0615 17:01:00.165606 17572 net.cpp:434] mbox_loss <- mbox_priorbox
…
  phase: TEST
}
layer {
  name: "data"
  type: "AnnotatedData"
  top: "data"
  top: "label"
  include {
    phase: TEST
  }
  transform_param {
    mean_value: 104
    mean_value: 117
    mean_value: 123
    resize_param {
      prob: 1
      resize_mode: WARP
      height: 300
      width: 300
      interp_mode: LINEAR
    }
  }
  data_param {
    source: "examples/NWPU_VHR/NWPU_VHR_test_lmdb"
    batch_size: 1
    backend: LMDB
  }
  annotated_data_param {
    batch_sampler {
    }
    label_map_file: "data/NWPU_VHR/labelmap_NWPU_VHR.prototxt"
  }
}
layer {
  name: "conv1_1"
  type: "Convolution"
  bottom: "data"
  top: "conv1_1"
  param {
    lr_mult: 1
    decay_mult: 1
  }
  param {
    lr_mult: 2
    decay_mult: 0
  }
  convolution_param {
    num_output: 64
    pad: 1
    kernel_size: 3
    weight_filler {
      type: "xavier"
    }
    bias_filler {
      type: "constant"
      value: 0
    }
  }
}
layer {
  name: "relu1_1"
  type: "ReLU"
  bottom: "conv1_1"
  top: "conv1_1"
}
layer {
  name: "conv1_2"
  type: "Convolution"
  bottom: "conv1_1"
  top: "conv1_2"
  param {
    lr_mult: 1
    decay_mult: 1
  }
  param {
    lr_mult: 2
    decay_mult: 0
  }
  convolution_param {
    num_output: 64
    pad: 1
    kernel_size: 3
    weight_filler {
      type: "xavier"
    }
    bias_filler {
      type: "constant"
      value: 0
    }
  }
}
layer {
  name: "relu1_2"
  type: "ReLU"
  bottom: "conv1_2"
  top: "conv1_2"
}
layer {
  name: "pool1"
  type: "Pooling"
  bottom: "conv1_2"
  top: "pool1"
  pooling_param {
    pool: MAX
    kernel_size: 2
    stride: 2
  }
}
layer {
  name: "conv2_1"
  type: "Convolution"
  bottom: "pool1"
  top: "conv2_1"
  param {
    lr_mult: 1
    decay_mult: 1
  }
  param {
    lr_mult: 2
    decay_mult: 0
  }
  convolution_param {
    num_output: 128
    pad: 1
    kernel_size: 3
    weight_filler {
      type: "xavier"
    }
    bias_filler {
      type: "constant"
      value: 0
    }
  }
}
layer {
  name: "relu2_1"
  type: "ReLU"
  bottom: "conv2_1"
  top: "conv2_1"
}
layer {
  name: "conv2_2"
  type: "Convolution"
  bottom: "conv2_1"
  top: "conv2_2"
  param {
    lr_mult: 1
    decay_mult: 1
  }
  param {
    lr_mult: 2
    decay_mult: 0
  }
  convolution_param {
    num_output: 128
    pad: 1
    kernel_size: 3
    weight_filler {
      type: "xavier"
    }
    bias_filler {
      type: "constant"
      value: 0
    }
  }
}
layer {
  name: "relu2_2"
  type: "ReLU"
  bottom: "conv2_2"
  top: "conv2_2"
}
layer {
  name: "pool2"
  type: "Pooling"
  bottom: "conv2_2"
  top: "pool2"
  pooling_param {
    pool: MAX
    kernel_size: 2
    stride: 2
  }
}
layer {
  name: "conv3_1"
  type: "Convolution"
  bottom: "pool2"
  top: "conv3_1"
  param {
    lr_mult: 1
    decay_mult: 1
  }
  param {
    lr_mult: 2
    decay_mult: 0
  }
  convolution_param {
    num_output: 256
    pad: 1
    kernel_size: 3
    weight_filler {
      type: "xavier"
    }
    bias_filler {
      type: "constant"
      value: 0
    }
  }
}
layer {
  name: "relu3_1"
  type: "ReLU"
  bottom: "conv3_1"
  top: "conv3_1"
}
layer {
  name: "conv3_2"
  type: "Convolution"
  bottom: "conv3_1"
  top: "conv3_2"
  param {
    lr_mult: 1
    decay_mult: 1
  }
  param {
    lr_mult: 2
    decay_mult: 0
  }
  convolution_param {
    num_output: 256
    pad: 1
    kernel_size: 3
    weight_filler {
      type: "xavier"
    }
    bias_filler {
      type: "constant"
      value: 0
    }
  }
}
layer {
  name: "relu3_2"
  type: "ReLU"
  bottom: "conv3_2"
  top: "conv3_2"
}
layer {
  name: "conv3_3"
  type: "Convolution"
  bottom: "conv3_2"
  top: "conv3_3"
  param {
    lr_mult: 1
    decay_mult: 1
  }
  param {
    lr_mult: 2
    decay_mult: 0
  }
  convolution_param {
    num_output: 256
    pad: 1
    kernel_size: 3
    weight_filler {
      type: "xavier"
    }
    bias_filler {
      type: "constant"
      value: 0
    }
  }
}
layer {
  name: "relu3_3"
  type: "ReLU"
  bottom: "conv3_3"
  top: "conv3_3"
}
layer {
  name: "pool3"
  type: "Pooling"
  bottom: "conv3_3"
  top: "pool3"
  pooling_param {
    pool: MAX
    kernel_size: 2
    stride: 2
  }
}
layer {
  name: "conv4_1"
  type: "Convolution"
  bottom: "pool3"
  top: "conv4_1"
  param {
    lr_mult: 1
    decay_mult: 1
  }
  param {
    lr_mult: 2
    decay_mult: 0
  }
  convolution_param {
    num_output: 512
    pad: 1
    kernel_size: 3
    weight_filler {
      type: "xavier"
    }
    bias_filler {
      type: "constant"
      value: 0
    }
  }
}
layer {
  name: "relu4_1"
  type: "ReLU"
  bottom: "conv4_1"
  top: "conv4_1"
}
layer {
  name: "conv4_2"
  type: "Convolution"
  bottom: "conv4_1"
  top: "conv4_2"
  param {
    lr_mult: 1
    decay_mult: 1
  }
  param {
    lr_mult: 2
    decay_mult: 0
  }
  convolution_param {
    num_output: 512
    pad: 1
    kernel_size: 3
    weight_filler {
      type: "xavier"
    }
    bias_filler {
      type: "constant"
      value: 0
    }
  }
}
layer {
  name: "relu4_2"
  type: "ReLU"
  bottom: "conv4_2"
  top: "conv4_2"
}
layer {
  name: "conv4_3"
  type: "Convolution"
  bottom: "conv4_2"
  top: "conv4_3"
  param {
    lr_mult: 1
    decay_mult: 1
  }
  param {
    lr_mult: 2
    decay_mult: 0
  }
  convolution_param {
    num_output: 512
    pad: 1
    kernel_size: 3
    weight_filler {
      type: "xavier"
    }
    bias_filler {
      type: "constant"
      value: 0
    }
  }
}
layer {
  name: "relu4_3"
  type: "ReLU"
  bottom: "conv4_3"
  top: "conv4_3"
}
layer {
  name: "pool4"
  type: "Pooling"
  bottom: "conv4_3"
  top: "pool4"
  pooling_param {
    pool: MAX
    kernel_size: 2
    stride: 2
  }
}
layer {
  name: "conv5_1"
  type: "Convolution"
  bottom: "pool4"
  top: "conv5_1"
  param {
    lr_mult: 1
    decay_mult: 1
  }
  param {
    lr_mult: 2
    decay_mult: 0
  }
  convolution_param {
    num_output: 512
    pad: 1
    kernel_size: 3
    weight_filler {
      type: "xavier"
    }
    bias_filler {
      type: "constant"
      value: 0
    }
    dilation: 1
  }
}
layer {
  name: "relu5_1"
  type: "ReLU"
  bottom: "conv5_1"
  top: "conv5_1"
}
layer {
  name: "conv5_2"
  type: "Convolution"
  bottom: "conv5_1"
  top: "conv5_2"
  param {
    lr_mult: 1
    decay_mult: 1
  }
  param {
    lr_mult: 2
    decay_mult: 0
  }
  convolution_param {
    num_output: 512
    pad: 1
    kernel_size: 3
    weight_filler {
      type: "xavier"
    }
    bias_filler {
      type: "constant"
      value: 0
    }
    dilation: 1
  }
}
layer {
  name: "relu5_2"
  type: "ReLU"
  bottom: "conv5_2"
  top: "conv5_2"
}
layer {
  name: "conv5_3"
  type: "Convolution"
  bottom: "conv5_2"
  top: "conv5_3"
  param {
    lr_mult: 1
    decay_mult: 1
  }
  param {
    lr_mult: 2
    decay_mult: 0
  }
  convolution_param {
    num_output: 512
    pad: 1
    kernel_size: 3
    weight_filler {
      type: "xavier"
    }
    bias_filler {
      type: "constant"
      value: 0
    }
    dilation: 1
  }
}
layer {
  name: "relu5_3"
  type: "ReLU"
  bottom: "conv5_3"
  top: "conv5_3"
}
layer {
  name: "pool5"
  type: "Pooling"
  bottom: "conv5_3"
  top: "pool5"
  pooling_param {
    pool: MAX
    kernel_size: 3
    stride: 1
    pad: 1
  }
}
layer {
  name: "fc6"
  type: "Convolution"
  bottom: "pool5"
  top: "fc6"
  param {
    lr_mult: 1
    decay_mult: 1
  }
  param {
    lr_mult: 2
    decay_mult: 0
  }
  convolution_param {
    num_output: 1024
    pad: 6
    kernel_size: 3
    weight_filler {
      type: "xavier"
    }
    bias_filler {
      type: "constant"
      value: 0
    }
    dilation: 6
  }
}
layer {
  name: "relu6"
  type: "ReLU"
  bottom: "fc6"
  top: "fc6"
}
layer {
  name: "fc7"
  type: "Convolution"
  bottom: "fc6"
  top: "fc7"
  param {
    lr_mult: 1
    decay_mult: 1
  }
  param {
    lr_mult: 2
    decay_mult: 0
  }
  convolution_param {
    num_output: 1024
    kernel_size: 1
    weight_filler {
      type: "xavier"
    }
    bias_filler {
      type: "constant"
      value: 0
    }
  }
}
layer {
  name: "relu7"
  type: "ReLU"
  bottom: "fc7"
  top: "fc7"
}
layer {
  name: "conv6_1"
  type: "Convolution"
  bottom: "fc7"
  top: "conv6_1"
  param {
    lr_mult: 1
    decay_mult: 1
  }
  param {
    lr_mult: 2
    decay_mult: 0
  }
  convolution_param {
    num_output: 256
    pad: 0
    kernel_size: 1
    stride: 1
    weight_filler {
      type: "xavier"
    }
    bias_filler {
      type: "constant"
      value: 0
    }
  }
}
layer {
  name: "conv6_1_relu"
  type: "ReLU"
  bottom: "conv6_1"
  top: "conv6_1"
}
layer {
  name: "conv6_2"
  type: "Convolution"
  bottom: "conv6_1"
  top: "conv6_2"
  param {
    lr_mult: 1
    decay_mult: 1
  }
  param {
    lr_mult: 2
    decay_mult: 0
  }
  convolution_param {
    num_output: 512
    pad: 1
    kernel_size: 3
    stride: 2
    weight_filler {
      type: "xavier"
    }
    bias_filler {
      type: "constant"
      value: 0
    }
  }
}
layer {
  name: "conv6_2_relu"
  type: "ReLU"
  bottom: "conv6_2"
  top: "conv6_2"
}
layer {
  name: "conv7_1"
  type: "Convolution"
  bottom: "conv6_2"
  top: "conv7_1"
  param {
    lr_mult: 1
    decay_mult: 1
  }
  param {
    lr_mult: 2
    decay_mult: 0
  }
  convolution_param {
    num_output: 128
    pad: 0
    kernel_size: 1
    stride: 1
    weight_filler {
      type: "xavier"
    }
    bias_filler {
      type: "constant"
      value: 0
    }
  }
}
layer {
  name: "conv7_1_relu"
  type: "ReLU"
  bottom: "conv7_1"
  top: "conv7_1"
}
layer {
  name: "conv7_2"
  type: "Convolution"
  bottom: "conv7_1"
  top: "conv7_2"
  param {
    lr_mult: 1
    decay_mult: 1
  }
  param {
    lr_mult: 2
    decay_mult: 0
  }
  convolution_param {
    num_output: 256
    pad: 1
    kernel_size: 3
    stride: 2
    weight_filler {
      type: "xavier"
    }
    bias_filler {
      type: "constant"
      value: 0
    }
  }
}
layer {
  name: "conv7_2_relu"
  type: "ReLU"
  bottom: "conv7_2"
  top: "conv7_2"
}
layer {
  name: "conv8_1"
  type: "Convolution"
  bottom: "conv7_2"
  top: "conv8_1"
  param {
    lr_mult: 1
    decay_mult: 1
  }
  param {
    lr_mult: 2
    decay_mult: 0
  }
  convolution_param {
    num_output: 128
    pad: 0
    kernel_size: 1
    stride: 1
    weight_filler {
      type: "xavier"
    }
    bias_filler {
      type: "constant"
      value: 0
    }
  }
}
layer {
  name: "conv8_1_relu"
  type: "ReLU"
  bottom: "conv8_1"
  top: "conv8_1"
}
layer {
  name: "conv8_2"
  type: "Convolution"
  bottom: "conv8_1"
  top: "conv8_2"
  param {
    lr_mult: 1
    decay_mult: 1
  }
  param {
    lr_mult: 2
    decay_mult: 0
  }
  convolution_param {
    num_output: 256
    pad: 0
    kernel_size: 3
    stride: 1
    weight_filler {
      type: "xavier"
    }
    bias_filler {
      type: "constant"
      value: 0
    }
  }
}
layer {
  name: "conv8_2_relu"
  type: "ReLU"
  bottom: "conv8_2"
  top: "conv8_2"
}
layer {
  name: "conv9_1"
  type: "Convolution"
  bottom: "conv8_2"
  top: "conv9_1"
  param {
    lr_mult: 1
    decay_mult: 1
  }
  param {
    lr_mult: 2
    decay_mult: 0
  }
  convolution_param {
    num_output: 128
    pad: 0
    kernel_size: 1
    stride: 1
    weight_filler {
      type: "xavier"
    }
    bias_filler {
      type: "constant"
      value: 0
    }
  }
}
layer {
  name: "conv9_1_relu"
  type: "ReLU"
  bottom: "conv9_1"
  top: "conv9_1"
}
layer {
  name: "conv9_2"
  type: "Convolution"
  bottom: "conv9_1"
  top: "conv9_2"
  param {
    lr_mult: 1
    decay_mult: 1
  }
  param {
    lr_mult: 2
    decay_mult: 0
  }
  convolution_param {
    num_output: 256
    pad: 0
    kernel_size: 3
    stride: 1
    weight_filler {
      type: "xavier"
    }
    bias_filler {
      type: "constant"
      value: 0
    }
  }
}
layer {
  name: "conv9_2_relu"
  type: "ReLU"
  bottom: "conv9_2"
  top: "conv9_2"
}
layer {
  name: "conv4_3_norm"
  type: "Normalize"
  bottom: "conv4_3"
  top: "conv4_3_norm"
  norm_param {
    across_spatial: false
    scale_filler {
      type: "constant"
      value: 20
    }
    channel_shared: false
  }
}
layer {
  name: "conv4_3_norm_mbox_loc"
  type: "Convolution"
  bottom: "conv4_3_norm"
  top: "conv4_3_norm_mbox_loc"
  param {
    lr_mult: 1
    decay_mult: 1
  }
  param {
    lr_mult: 2
    decay_mult: 0
  }
  convolution_param {
    num_output: 16
    pad: 1
    kernel_size: 3
    stride: 1
    weight_filler {
      type: "xavier"
    }
    bias_filler {
      type: "constant"
      value: 0
    }
  }
}
layer {
  name: "conv4_3_norm_mbox_loc_perm"
  type: "Permute"
  bottom: "conv4_3_norm_mbox_loc"
  top: "conv4_3_norm_mbox_loc_perm"
  permute_param {
    order: 0
    order: 2
    order: 3
    order: 1
  }
}
layer {
  name: "conv4_3_norm_mbox_loc_flat"
  type: "Flatten"
  bottom: "conv4_3_norm_mbox_loc_perm"
  top: "conv4_3_norm_mbox_loc_flat"
  flatten_param {
    axis: 1
  }
}
layer {
  name: "conv4_3_norm_mbox_conf"
  type: "Convolution"
  bottom: "conv4_3_norm"
  top: "conv4_3_norm_mbox_conf"
  param {
    lr_mult: 1
    decay_mult: 1
  }
  param {
    lr_mult: 2
    decay_mult: 0
  }
  convolution_param {
    num_output: 44
    pad: 1
    kernel_size: 3
    stride: 1
    weight_filler {
      type: "xavier"
    }
    bias_filler {
      type: "constant"
      value: 0
    }
  }
}
layer {
  name: "conv4_3_norm_mbox_conf_perm"
  type: "Permute"
  bottom: "conv4_3_norm_mbox_conf"
  top: "conv4_3_norm_mbox_conf_perm"
  permute_param {
    order: 0
    order: 2
    order: 3
    order: 1
  }
}
layer {
  name: "conv4_3_norm_mbox_conf_flat"
  type: "Flatten"
  bottom: "conv4_3_norm_mbox_conf_perm"
  top: "conv4_3_norm_mbox_conf_flat"
  flatten_param {
    axis: 1
  }
}
layer {
  name: "conv4_3_norm_mbox_priorbox"
  type: "PriorBox"
  bottom: "conv4_3_norm"
  bottom: "data"
  top: "conv4_3_norm_mbox_priorbox"
  prior_box_param {
    min_size: 30
    max_size: 60
    aspect_ratio: 2
    flip: true
    clip: false
    variance: 0.1
    variance: 0.1
    variance: 0.2
    variance: 0.2
    step: 8
    offset: 0.5
  }
}
layer {
  name: "fc7_mbox_loc"
  type: "Convolution"
  bottom: "fc7"
  top: "fc7_mbox_loc"
  param {
    lr_mult: 1
    decay_mult: 1
  }
  param {
    lr_mult: 2
    decay_mult: 0
  }
  convolution_param {
    num_output: 24
    pad: 1
    kernel_size: 3
    stride: 1
    weight_filler {
      type: "xavier"
    }
    bias_filler {
      type: "constant"
      value: 0
    }
  }
}
layer {
  name: "fc7_mbox_loc_perm"
  type: "Permute"
  bottom: "fc7_mbox_loc"
  top: "fc7_mbox_loc_perm"
  permute_param {
    order: 0
    order: 2
    order: 3
    order: 1
  }
}
layer {
  name: "fc7_mbox_loc_flat"
  type: "Flatten"
  bottom: "fc7_mbox_loc_perm"
  top: "fc7_mbox_loc_flat"
  flatten_param {
    axis: 1
  }
}
layer {
  name: "fc7_mbox_conf"
  type: "Convolution"
  bottom: "fc7"
  top: "fc7_mbox_conf"
  param {
    lr_mult: 1
    decay_mult: 1
  }
  param {
    lr_mult: 2
    decay_mult: 0
  }
  convolution_param {
    num_output: 66
    pad: 1
    kernel_size: 3
    stride: 1
    weight_filler {
      type: "xavier"
    }
    bias_filler {
      type: "constant"
      value: 0
    }
  }
}
layer {
  name: "fc7_mbox_conf_perm"
  type: "Permute"
  bottom: "fc7_mbox_conf"
  top: "fc7_mbox_conf_perm"
  permute_param {
    order: 0
    order: 2
    order: 3
    order: 1
  }
}
layer {
  name: "fc7_mbox_conf_flat"
  type: "Flatten"
  bottom: "fc7_mbox_conf_perm"
  top: "fc7_mbox_conf_flat"
  flatten_param {
    axis: 1
  }
}
layer {
  name: "fc7_mbox_priorbox"
  type: "PriorBox"
  bottom: "fc7"
  bottom: "data"
  top: "fc7_mbox_priorbox"
  prior_box_param {
    min_size: 60
    max_size: 111
    aspect_ratio: 2
    aspect_ratio: 3
    flip: true
    clip: false
    variance: 0.1
    variance: 0.1
    variance: 0.2
    variance: 0.2
    step: 16
    offset: 0.5
  }
}
layer {
  name: "conv6_2_mbox_loc"
  type: "Convolution"
  bottom: "conv6_2"
  top: "conv6_2_mbox_loc"
  param {
    lr_mult: 1
    decay_mult: 1
  }
  param {
    lr_mult: 2
    decay_mult: 0
  }
  convolution_param {
    num_output: 24
    pad: 1
    kernel_size: 3
    stride: 1
    weight_filler {
      type: "xavier"
    }
    bias_filler {
      type: "constant"
      value: 0
    }
  }
}
layer {
  name: "conv6_2_mbox_loc_perm"
  type: "Permute"
  bottom: "conv6_2_mbox_loc"
  top: "conv6_2_mbox_loc_perm"
  permute_param {
    order: 0
    order: 2
    order: 3
    order: 1
  }
}
layer {
  name: "conv6_2_mbox_loc_flat"
  type: "Flatten"
  bottom: "conv6_2_mbox_loc_perm"
  top: "conv6_2_mbox_loc_flat"
  flatten_param {
    axis: 1
  }
}
layer {
  name: "conv6_2_mbox_conf"
  type: "Convolution"
  bottom: "conv6_2"
  top: "conv6_2_mbox_conf"
  param {
    lr_mult: 1
    decay_mult: 1
  }
  param {
    lr_mult: 2
    decay_mult: 0
  }
  convolution_param {
    num_output: 66
    pad: 1
    kernel_size: 3
    stride: 1
    weight_filler {
      type: "xavier"
    }
    bias_filler {
      type: "constant"
      value: 0
    }
  }
}
layer {
  name: "conv6_2_mbox_conf_perm"
  type: "Permute"
  bottom: "conv6_2_mbox_conf"
  top: "conv6_2_mbox_conf_perm"
  permute_param {
    order: 0
    order: 2
    order: 3
    order: 1
  }
}
layer {
  name: "conv6_2_mbox_conf_flat"
  type: "Flatten"
  bottom: "conv6_2_mbox_conf_perm"
  top: "conv6_2_mbox_conf_flat"
  flatten_param {
    axis: 1
  }
}
layer {
  name: "conv6_2_mbox_priorbox"
  type: "PriorBox"
  bottom: "conv6_2"
  bottom: "data"
  top: "conv6_2_mbox_priorbox"
  prior_box_param {
    min_size: 111
    max_size: 162
    aspect_ratio: 2
    aspect_ratio: 3
    flip: true
    clip: false
    variance: 0.1
    variance: 0.1
    variance: 0.2
    variance: 0.2
    step: 32
    offset: 0.5
  }
}
layer {
  name: "conv7_2_mbox_loc"
  type: "Convolution"
  bottom: "conv7_2"
  top: "conv7_2_mbox_loc"
  param {
    lr_mult: 1
    decay_mult: 1
  }
  param {
    lr_mult: 2
    decay_mult: 0
  }
  convolution_param {
    num_output: 24
    pad: 1
    kernel_size: 3
    stride: 1
    weight_filler {
      type: "xavier"
    }
    bias_filler {
      type: "constant"
      value: 0
    }
  }
}
layer {
  name: "conv7_2_mbox_loc_perm"
  type: "Permute"
  bottom: "conv7_2_mbox_loc"
  top: "conv7_2_mbox_loc_perm"
  permute_param {
    order: 0
    order: 2
    order: 3
    order: 1
  }
}
layer {
  name: "conv7_2_mbox_loc_flat"
  type: "Flatten"
  bottom: "conv7_2_mbox_loc_perm"
  top: "conv7_2_mbox_loc_flat"
  flatten_param {
    axis: 1
  }
}
layer {
  name: "conv7_2_mbox_conf"
  type: "Convolution"
  bottom: "conv7_2"
  top: "conv7_2_mbox_conf"
  param {
    lr_mult: 1
    decay_mult: 1
  }
  param {
    lr_mult: 2
    decay_mult: 0
  }
  convolution_param {
    num_output: 66
    pad: 1
    kernel_size: 3
    stride: 1
    weight_filler {
      type: "xavier"
    }
    bias_filler {
      type: "constant"
      value: 0
    }
  }
}
layer {
  name: "conv7_2_mbox_conf_perm"
  type: "Permute"
  bottom: "conv7_2_mbox_conf"
  top: "conv7_2_mbox_conf_perm"
  permute_param {
    order: 0
    order: 2
    order: 3
    order: 1
  }
}
layer {
  name: "conv7_2_mbox_conf_flat"
  type: "Flatten"
  bottom: "conv7_2_mbox_conf_perm"
  top: "conv7_2_mbox_conf_flat"
  flatten_param {
    axis: 1
  }
}
layer {
  name: "conv7_2_mbox_priorbox"
  type: "PriorBox"
  bottom: "conv7_2"
  bottom: "data"
  top: "conv7_2_mbox_priorbox"
  prior_box_param {
    min_size: 162
    max_size: 213
    aspect_ratio: 2
    aspect_ratio: 3
    flip: true
    clip: false
    variance: 0.1
    variance: 0.1
    variance: 0.2
    variance: 0.2
    step: 64
    offset: 0.5
  }
}
layer {
  name: "conv8_2_mbox_loc"
  type: "Convolution"
  bottom: "conv8_2"
  top: "conv8_2_mbox_loc"
  param {
    lr_mult: 1
    decay_mult: 1
  }
  param {
    lr_mult: 2
    decay_mult: 0
  }
  convolution_param {
    num_output: 16
    pad: 1
    kernel_size: 3
    stride: 1
    weight_filler {
      type: "xavier"
    }
    bias_filler {
      type: "constant"
      value: 0
    }
  }
}
layer {
  name: "conv8_2_mbox_loc_perm"
  type: "Permute"
  bottom: "conv8_2_mbox_loc"
  top: "conv8_2_mbox_loc_perm"
  permute_param {
    order: 0
    order: 2
    order: 3
    order: 1
  }
}
layer {
  name: "conv8_2_mbox_loc_flat"
  type: "Flatten"
  bottom: "conv8_2_mbox_loc_perm"
  top: "conv8_2_mbox_loc_flat"
  flatten_param {
    axis: 1
  }
}
layer {
  name: "conv8_2_mbox_conf"
  type: "Convolution"
  bottom: "conv8_2"
  top: "conv8_2_mbox_conf"
  param {
    lr_mult: 1
    decay_mult: 1
  }
  param {
    lr_mult: 2
    decay_mult: 0
  }
  convolution_param {
    num_output: 44
    pad: 1
    kernel_size: 3
    stride: 1
    weight_filler {
      type: "xavier"
    }
    bias_filler {
      type: "constant"
      value: 0
    }
  }
}
layer {
  name: "conv8_2_mbox_conf_perm"
  type: "Permute"
  bottom: "conv8_2_mbox_conf"
  top: "conv8_2_mbox_conf_perm"
  permute_param {
    order: 0
    order: 2
    order: 3
    order: 1
  }
}
layer {
  name: "conv8_2_mbox_conf_flat"
  type: "Flatten"
  bottom: "conv8_2_mbox_conf_perm"
  top: "conv8_2_mbox_conf_flat"
  flatten_param {
    axis: 1
  }
}
layer {
  name: "conv8_2_mbox_priorbox"
  type: "PriorBox"
  bottom: "conv8_2"
  bottom: "data"
  top: "conv8_2_mbox_priorbox"
  prior_box_param {
    min_size: 213
    max_size: 264
    aspect_ratio: 2
    flip: true
    clip: false
    variance: 0.1
    variance: 0.1
    variance: 0.2
    variance: 0.2
    step: 100
    offset: 0.5
  }
}
layer {
  name: "conv9_2_mbox_loc"
  type: "Convolution"
  bottom: "conv9_2"
  top: "conv9_2_mbox_loc"
  param {
    lr_mult: 1
    decay_mult: 1
  }
  param {
    lr_mult: 2
    decay_mult: 0
  }
  convolution_param {
    num_output: 16
    pad: 1
    kernel_size: 3
    stride: 1
    weight_filler {
      type: "xavier"
    }
    bias_filler {
      type: "constant"
      value: 0
    }
  }
}
layer {
  name: "conv9_2_mbox_loc_perm"
  type: "Permute"
  bottom: "conv9_2_mbox_loc"
  top: "conv9_2_mbox_loc_perm"
  permute_param {
    order: 0
    order: 2
    order: 3
    order: 1
  }
}
layer {
  name: "conv9_2_mbox_loc_flat"
  type: "Flatten"
  bottom: "conv9_2_mbox_loc_perm"
  top: "conv9_2_mbox_loc_flat"
  flatten_param {
    axis: 1
  }
}
layer {
  name: "conv9_2_mbox_conf"
  type: "Convolution"
  bottom: "conv9_2"
  top: "conv9_2_mbox_conf"
  param {
    lr_mult: 1
    decay_mult: 1
  }
  param {
    lr_mult: 2
    decay_mult: 0
  }
  convolution_param {
    num_output: 44
    pad: 1
    kernel_size: 3
    stride: 1
    weight_filler {
      type: "xavier"
    }
    bias_filler {
      type: "constant"
      value: 0
    }
  }
}
layer {
  name: "conv9_2_mbox_conf_perm"
  type: "Permute"
  bottom: "conv9_2_mbox_conf"
  top: "conv9_2_mbox_conf_perm"
  permute_param {
    order: 0
    order: 2
    order: 3
    order: 1
  }
}
layer {
  name: "conv9_2_mbox_conf_flat"
  type: "Flatten"
  bottom: "conv9_2_mbox_conf_perm"
  top: "conv9_2_mbox_conf_flat"
  flatten_param {
    axis: 1
  }
}
layer {
  name: "conv9_2_mbox_priorbox"
  type: "PriorBox"
  bottom: "conv9_2"
  bottom: "data"
  top: "conv9_2_mbox_priorbox"
  prior_box_param {
    min_size: 264
    max_size: 315
    aspect_ratio: 2
    flip: true
    clip: false
    variance: 0.1
    variance: 0.1
    variance: 0.2
    variance: 0.2
    step: 300
    offset: 0.5
  }
}
layer {
  name: "mbox_loc"
  type: "Concat"
  bottom: "conv4_3_norm_mbox_loc_flat"
  bottom: "fc7_mbox_loc_flat"
  bottom: "conv6_2_mbox_loc_flat"
  bottom: "conv7_2_mbox_loc_flat"
  bottom: "conv8_2_mbox_loc_flat"
  bottom: "conv9_2_mbox_loc_flat"
  top: "mbox_loc"
  concat_param {
    axis: 1
  }
}
layer {
  name: "mbox_conf"
  type: "Concat"
  bottom: "conv4_3_norm_mbox_conf_flat"
  bottom: "fc7_mbox_conf_flat"
  bottom: "conv6_2_mbox_conf_flat"
  bottom: "conv7_2_mbox_conf_flat"
  bottom: "conv8_2_mbox_conf_flat"
  bottom: "conv9_2_mbox_conf_flat"
  top: "mbox_conf"
  concat_param {
    axis: 1
  }
}
layer {
  name: "mbox_priorbox"
  type: "Concat"
  bottom: "conv4_3_norm_mbox_priorbox"
  bottom: "fc7_mbox_priorbox"
  bottom: "conv6_2_mbox_priorbox"
  bottom: "conv7_2_mbox_priorbox"
  bottom: "conv8_2_mbox_priorbox"
  bottom: "conv9_2_mbox_priorbox"
  top: "mbox_priorbox"
  concat_param {
    axis: 2
  }
}
layer {
  name: "mbox_conf_reshape"
  type: "Reshape"
  bottom: "mbox_conf"
  top: "mbox_conf_reshape"
  reshape_param {
    shape {
      dim: 0
      dim: -1
      dim: 11
    }
  }
}
layer {
  name: "mbox_conf_softmax"
  type: "Softmax"
  bottom: "mbox_conf_reshape"
  top: "mbox_conf_softmax"
  softmax_param {
    axis: 2
  }
}
layer {
  name: "mbox_conf_flatten"
  type: "Flatten"
  bottom: "mbox_conf_softmax"
  top: "mbox_conf_flatten"
  flatten_param {
    axis: 1
  }
}
layer {
  name: "detection_out"
  type: "DetectionOutput"
  bottom: "mbox_loc"
  bottom: "mbox_conf_flatten"
  bottom: "mbox_priorbox"
  top: "detection_out"
  include {
    phase: TEST
  }
  detection_output_param {
    num_classes: 11
    share_location: true
    background_label_id: 0
    nms_param {
      nms_threshold: 0.45
      top_k: 400
    }
    save_output_param {
      output_directory: "/home/zs/data/VOCdevkit/results/VOC2007/SSD_300x300_0319_ini/Main"
      output_name_prefix: "comp4_det_test_"
      output_format: "VOC"
      label_map_file: "data/NWPU_VHR/labelmap_NWPU_VHR.prototxt"
      name_size_file: "data/NWPU_VHR/test_name_size.txt"
      num_test_image: 123
    }
    code_type: CENTER_SIZE
    keep_top_k: 200
    confidence_threshold: 0.01
  }
}
layer {
  name: "detection_eval"
  type: "DetectionEvaluate"
  bottom: "detection_out"
  bottom: "label"
  top: "detection_eval"
  include {
    phase: TEST
  }
  detection_evaluate_param {
    num_classes: 11
    background_label_id: 0
    overlap_threshold: 0.5
    evaluate_difficult_gt: false
    name_size_file: "data/NWPU_VHR/test_name_size.txt"
  }
}
I0615 17:01:00.168954 17572 layer_factory.hpp:77] Creating layer data
I0615 17:01:00.169046 17572 net.cpp:100] Creating Layer data
I0615 17:01:00.169059 17572 net.cpp:408] data -> data
I0615 17:01:00.169080 17572 net.cpp:408] data -> label
I0615 17:01:00.169900 17579 db_lmdb.cpp:35] Opened lmdb examples/NWPU_VHR/NWPU_VHR_test_lmdb
I0615 17:01:00.179332 17572 annotated_data_layer.cpp:62] output data size: 1,3,300,300
I0615 17:01:00.182814 17572 net.cpp:150] Setting up data
I0615 17:01:00.182852 17572 net.cpp:157] Top shape: 1 3 300 300 (270000)
I0615 17:01:00.182859 17572 net.cpp:157] Top shape: 1 1 4 8 (32)
I0615 17:01:00.182865 17572 net.cpp:165] Memory required for data: 1080128
I0615 17:01:00.182875 17572 layer_factory.hpp:77] Creating layer data_data_0_split
I0615 17:01:00.182896 17572 net.cpp:100] Creating Layer data_data_0_split
I0615 17:01:00.182906 17572 net.cpp:434] data_data_0_split <- data
I0615 17:01:00.182919 17572 net.cpp:408] data_data_0_split -> data_data_0_split_0
I0615 17:01:00.182935 17572 net.cpp:408] data_data_0_split -> data_data_0_split_1
I0615 17:01:00.182946 17572 net.cpp:408] data_data_0_split -> data_data_0_split_2
I0615 17:01:00.182956 17572 net.cpp:408] data_data_0_split -> data_data_0_split_3
I0615 17:01:00.182966 17572 net.cpp:408] data_data_0_split -> data_data_0_split_4
I0615 17:01:00.182976 17572 net.cpp:408] data_data_0_split -> data_data_0_split_5
I0615 17:01:00.182984 17572 net.cpp:408] data_data_0_split -> data_data_0_split_6
I0615 17:01:00.183079 17572 net.cpp:150] Setting up data_data_0_split
I0615 17:01:00.183089 17572 net.cpp:157] Top shape: 1 3 300 300 (270000)
I0615 17:01:00.183094 17572 net.cpp:157] Top shape: 1 3 300 300 (270000)
I0615 17:01:00.183102 17572 net.cpp:157] Top shape: 1 3 300 300 (270000)
I0615 17:01:00.183109 17572 net.cpp:157] Top shape: 1 3 300 300 (270000)
I0615 17:01:00.183115 17572 net.cpp:157] Top shape: 1 3 300 300 (270000)
I0615 17:01:00.183122 17572 net.cpp:157] Top shape: 1 3 300 300 (270000)
I0615 17:01:00.183130 17572 net.cpp:157] Top shape: 1 3 300 300 (270000)
I0615 17:01:00.183135 17572 net.cpp:165] Memory required for data: 8640128
I0615 17:01:00.183141 17572 layer_factory.hpp:77] Creating layer conv1_1
I0615 17:01:00.183159 17572 net.cpp:100] Creating Layer conv1_1
I0615 17:01:00.183167 17572 net.cpp:434] conv1_1 <- data_data_0_split_0
I0615 17:01:00.183210 17572 net.cpp:408] conv1_1 -> conv1_1
I0615 17:01:00.184039 17572 net.cpp:150] Setting up conv1_1
I0615 17:01:00.184060 17572 net.cpp:157] Top shape: 1 64 300 300 (5760000)
I0615 17:01:00.184067 17572 net.cpp:165] Memory required for data: 31680128
I0615 17:01:00.184083 17572 layer_factory.hpp:77] Creating layer relu1_1
I0615 17:01:00.184095 17572 net.cpp:100] Creating Layer relu1_1
I0615 17:01:00.184103 17572 net.cpp:434] relu1_1 <- conv1_1
I0615 17:01:00.184113 17572 net.cpp:395] relu1_1 -> conv1_1 (in-place)
I0615 17:01:00.185528 17572 net.cpp:150] Setting up relu1_1
I0615 17:01:00.185559 17572 net.cpp:157] Top shape: 1 64 300 300 (5760000)
I0615 17:01:00.185565 17572 net.cpp:165] Memory required for data: 54720128
I0615 17:01:00.185573 17572 layer_factory.hpp:77] Creating layer conv1_2
I0615 17:01:00.185600 17572 net.cpp:100] Creating Layer conv1_2
I0615 17:01:00.185607 17572 net.cpp:434] conv1_2 <- conv1_1
I0615 17:01:00.185621 17572 net.cpp:408] conv1_2 -> conv1_2
I0615 17:01:00.186525 17572 net.cpp:150] Setting up conv1_2
I0615 17:01:00.186551 17572 net.cpp:157] Top shape: 1 64 300 300 (5760000)
I0615 17:01:00.186558 17572 net.cpp:165] Memory required for data: 77760128
I0615 17:01:00.186574 17572 layer_factory.hpp:77] Creating layer relu1_2
I0615 17:01:00.186587 17572 net.cpp:100] Creating Layer relu1_2
I0615 17:01:00.186594 17572 net.cpp:434] relu1_2 <- conv1_2
I0615 17:01:00.186605 17572 net.cpp:395] relu1_2 -> conv1_2 (in-place)
I0615 17:01:00.186673 17572 net.cpp:150] Setting up relu1_2
I0615 17:01:00.186684 17572 net.cpp:157] Top shape: 1 64 300 300 (5760000)
I0615 17:01:00.186689 17572 net.cpp:165] Memory required for data: 100800128
I0615 17:01:00.186695 17572 layer_factory.hpp:77] Creating layer pool1
I0615 17:01:00.186705 17572 net.cpp:100] Creating Layer pool1
I0615 17:01:00.186712 17572 net.cpp:434] pool1 <- conv1_2
I0615 17:01:00.186720 17572 net.cpp:408] pool1 -> pool1
I0615 17:01:00.186764 17572 net.cpp:150] Setting up pool1
I0615 17:01:00.186772 17572 net.cpp:157] Top shape: 1 64 150 150 (1440000)
I0615 17:01:00.186779 17572 net.cpp:165] Memory required for data: 106560128
I0615 17:01:00.186784 17572 layer_factory.hpp:77] Creating layer conv2_1
I0615 17:01:00.186800 17572 net.cpp:100] Creating Layer conv2_1
I0615 17:01:00.186806 17572 net.cpp:434] conv2_1 <- pool1
I0615 17:01:00.186816 17572 net.cpp:408] conv2_1 -> conv2_1
I0615 17:01:00.187855 17572 net.cpp:150] Setting up conv2_1
I0615 17:01:00.187880 17572 net.cpp:157] Top shape: 1 128 150 150 (2880000)
I0615 17:01:00.187885 17572 net.cpp:165] Memory required for data: 118080128
I0615 17:01:00.187902 17572 layer_factory.hpp:77] Creating layer relu2_1
I0615 17:01:00.187916 17572 net.cpp:100] Creating Layer relu2_1
I0615 17:01:00.187923 17572 net.cpp:434] relu2_1 <- conv2_1
I0615 17:01:00.187933 17572 net.cpp:395] relu2_1 -> conv2_1 (in-place)
I0615 17:01:00.188156 17572 net.cpp:150] Setting up relu2_1
I0615 17:01:00.188170 17572 net.cpp:157] Top shape: 1 128 150 150 (2880000)
I0615 17:01:00.188175 17572 net.cpp:165] Memory required for data: 129600128
I0615 17:01:00.188181 17572 layer_factory.hpp:77] Creating layer conv2_2
I0615 17:01:00.188199 17572 net.cpp:100] Creating Layer conv2_2
I0615 17:01:00.188206 17572 net.cpp:434] conv2_2 <- conv2_1
I0615 17:01:00.188216 17572 net.cpp:408] conv2_2 -> conv2_2
I0615 17:01:00.189580 17572 net.cpp:150] Setting up conv2_2
I0615 17:01:00.189611 17572 net.cpp:157] Top shape: 1 128 150 150 (2880000)
I0615 17:01:00.189616 17572 net.cpp:165] Memory required for data: 141120128
I0615 17:01:00.189630 17572 layer_factory.hpp:77] Creating layer relu2_2
I0615 17:01:00.189642 17572 net.cpp:100] Creating Layer relu2_2
I0615 17:01:00.189651 17572 net.cpp:434] relu2_2 <- conv2_2
I0615 17:01:00.189661 17572 net.cpp:395] relu2_2 -> conv2_2 (in-place)
I0615 17:01:00.189848 17572 net.cpp:150] Setting up relu2_2
I0615 17:01:00.189862 17572 net.cpp:157] Top shape: 1 128 150 150 (2880000)
I0615 17:01:00.189868 17572 net.cpp:165] Memory required for data: 152640128
I0615 17:01:00.189901 17572 layer_factory.hpp:77] Creating layer pool2
I0615 17:01:00.189913 17572 net.cpp:100] Creating Layer pool2
I0615 17:01:00.189919 17572 net.cpp:434] pool2 <- conv2_2
I0615 17:01:00.189929 17572 net.cpp:408] pool2 -> pool2
I0615 17:01:00.189977 17572 net.cpp:150] Setting up pool2
I0615 17:01:00.189986 17572 net.cpp:157] Top shape: 1 128 75 75 (720000)
I0615 17:01:00.189991 17572 net.cpp:165] Memory required for data: 155520128
I0615 17:01:00.190001 17572 layer_factory.hpp:77] Creating layer conv3_1
I0615 17:01:00.190016 17572 net.cpp:100] Creating Layer conv3_1
I0615 17:01:00.190022 17572 net.cpp:434] conv3_1 <- pool2
I0615 17:01:00.190032 17572 net.cpp:408] conv3_1 -> conv3_1
I0615 17:01:00.194335 17572 net.cpp:150] Setting up conv3_1
I0615 17:01:00.194366 17572 net.cpp:157] Top shape: 1 256 75 75 (1440000)
I0615 17:01:00.194371 17572 net.cpp:165] Memory required for data: 161280128
I0615 17:01:00.194391 17572 layer_factory.hpp:77] Creating layer relu3_1
I0615 17:01:00.194406 17572 net.cpp:100] Creating Layer relu3_1
I0615 17:01:00.194413 17572 net.cpp:434] relu3_1 <- conv3_1
I0615 17:01:00.194423 17572 net.cpp:395] relu3_1 -> conv3_1 (in-place)
I0615 17:01:00.194501 17572 net.cpp:150] Setting up relu3_1
I0615 17:01:00.194514 17572 net.cpp:157] Top shape: 1 256 75 75 (1440000)
I0615 17:01:00.194519 17572 net.cpp:165] Memory required for data: 167040128
I0615 17:01:00.194525 17572 layer_factory.hpp:77] Creating layer conv3_2
I0615 17:01:00.194540 17572 net.cpp:100] Creating Layer conv3_2
I0615 17:01:00.194550 17572 net.cpp:434] conv3_2 <- conv3_1
I0615 17:01:00.194559 17572 net.cpp:408] conv3_2 -> conv3_2
I0615 17:01:00.198822 17572 net.cpp:150] Setting up conv3_2
I0615 17:01:00.198859 17572 net.cpp:157] Top shape: 1 256 75 75 (1440000)
I0615 17:01:00.198865 17572 net.cpp:165] Memory required for data: 172800128
I0615 17:01:00.198879 17572 layer_factory.hpp:77] Creating layer relu3_2
I0615 17:01:00.198891 17572 net.cpp:100] Creating Layer relu3_2
I0615 17:01:00.198899 17572 net.cpp:434] relu3_2 <- conv3_2
I0615 17:01:00.198909 17572 net.cpp:395] relu3_2 -> conv3_2 (in-place)
I0615 17:01:00.199106 17572 net.cpp:150] Setting up relu3_2
I0615 17:01:00.199120 17572 net.cpp:157] Top shape: 1 256 75 75 (1440000)
I0615 17:01:00.199126 17572 net.cpp:165] Memory required for data: 178560128
I0615 17:01:00.199132 17572 layer_factory.hpp:77] Creating layer conv3_3
I0615 17:01:00.199153 17572 net.cpp:100] Creating Layer conv3_3
I0615 17:01:00.199160 17572 net.cpp:434] conv3_3 <- conv3_2
I0615 17:01:00.199170 17572 net.cpp:408] conv3_3 -> conv3_3
I0615 17:01:00.203563 17572 net.cpp:150] Setting up conv3_3
I0615 17:01:00.203603 17572 net.cpp:157] Top shape: 1 256 75 75 (1440000)
I0615 17:01:00.203608 17572 net.cpp:165] Memory required for data: 184320128
I0615 17:01:00.203624 17572 layer_factory.hpp:77] Creating layer relu3_3
I0615 17:01:00.203639 17572 net.cpp:100] Creating Layer relu3_3
I0615 17:01:00.203647 17572 net.cpp:434] relu3_3 <- conv3_3
I0615 17:01:00.203656 17572 net.cpp:395] relu3_3 -> conv3_3 (in-place)
I0615 17:01:00.203744 17572 net.cpp:150] Setting up relu3_3
I0615 17:01:00.203756 17572 net.cpp:157] Top shape: 1 256 75 75 (1440000)
I0615 17:01:00.203761 17572 net.cpp:165] Memory required for data: 190080128
I0615 17:01:00.203768 17572 layer_factory.hpp:77] Creating layer pool3
I0615 17:01:00.203778 17572 net.cpp:100] Creating Layer pool3
I0615 17:01:00.203784 17572 net.cpp:434] pool3 <- conv3_3
I0615 17:01:00.203794 17572 net.cpp:408] pool3 -> pool3
I0615 17:01:00.203845 17572 net.cpp:150] Setting up pool3
I0615 17:01:00.203855 17572 net.cpp:157] Top shape: 1 256 38 38 (369664)
I0615 17:01:00.203860 17572 net.cpp:165] Memory required for data: 191558784
I0615 17:01:00.203866 17572 layer_factory.hpp:77] Creating layer conv4_1
I0615 17:01:00.203882 17572 net.cpp:100] Creating Layer conv4_1
I0615 17:01:00.203888 17572 net.cpp:434] conv4_1 <- pool3
I0615 17:01:00.203899 17572 net.cpp:408] conv4_1 -> conv4_1
I0615 17:01:00.212796 17572 net.cpp:150] Setting up conv4_1
I0615 17:01:00.212834 17572 net.cpp:157] Top shape: 1 512 38 38 (739328)
I0615 17:01:00.212873 17572 net.cpp:165] Memory required for data: 194516096
I0615 17:01:00.212893 17572 layer_factory.hpp:77] Creating layer relu4_1
I0615 17:01:00.212908 17572 net.cpp:100] Creating Layer relu4_1
I0615 17:01:00.212918 17572 net.cpp:434] relu4_1 <- conv4_1
I0615 17:01:00.212929 17572 net.cpp:395] relu4_1 -> conv4_1 (in-place)
I0615 17:01:00.213145 17572 net.cpp:150] Setting up relu4_1
I0615 17:01:00.213160 17572 net.cpp:157] Top shape: 1 512 38 38 (739328)
I0615 17:01:00.213165 17572 net.cpp:165] Memory required for data: 197473408
I0615 17:01:00.213172 17572 layer_factory.hpp:77] Creating layer conv4_2
I0615 17:01:00.213192 17572 net.cpp:100] Creating Layer conv4_2
I0615 17:01:00.213199 17572 net.cpp:434] conv4_2 <- conv4_1
I0615 17:01:00.213209 17572 net.cpp:408] conv4_2 -> conv4_2
I0615 17:01:00.226933 17572 net.cpp:150] Setting up conv4_2
I0615 17:01:00.226975 17572 net.cpp:157] Top shape: 1 512 38 38 (739328)
I0615 17:01:00.226980 17572 net.cpp:165] Memory required for data: 200430720
I0615 17:01:00.227000 17572 layer_factory.hpp:77] Creating layer relu4_2
I0615 17:01:00.227015 17572 net.cpp:100] Creating Layer relu4_2
I0615 17:01:00.227023 17572 net.cpp:434] relu4_2 <- conv4_2
I0615 17:01:00.227033 17572 net.cpp:395] relu4_2 -> conv4_2 (in-place)
I0615 17:01:00.227118 17572 net.cpp:150] Setting up relu4_2
I0615 17:01:00.227128 17572 net.cpp:157] Top shape: 1 512 38 38 (739328)
I0615 17:01:00.227134 17572 net.cpp:165] Memory required for data: 203388032
I0615 17:01:00.227140 17572 layer_factory.hpp:77] Creating layer conv4_3
I0615 17:01:00.227157 17572 net.cpp:100] Creating Layer conv4_3
I0615 17:01:00.227164 17572 net.cpp:434] conv4_3 <- conv4_2
I0615 17:01:00.227175 17572 net.cpp:408] conv4_3 -> conv4_3
I0615 17:01:00.240945 17572 net.cpp:150] Setting up conv4_3
I0615 17:01:00.240990 17572 net.cpp:157] Top shape: 1 512 38 38 (739328)
I0615 17:01:00.240995 17572 net.cpp:165] Memory required for data: 206345344
I0615 17:01:00.241010 17572 layer_factory.hpp:77] Creating layer relu4_3
I0615 17:01:00.241027 17572 net.cpp:100] Creating Layer relu4_3
I0615 17:01:00.241034 17572 net.cpp:434] relu4_3 <- conv4_3
I0615 17:01:00.241044 17572 net.cpp:395] relu4_3 -> conv4_3 (in-place)
I0615 17:01:00.241320 17572 net.cpp:150] Setting up relu4_3
I0615 17:01:00.241333 17572 net.cpp:157] Top shape: 1 512 38 38 (739328)
I0615 17:01:00.241338 17572 net.cpp:165] Memory required for data: 209302656
I0615 17:01:00.241344 17572 layer_factory.hpp:77] Creating layer conv4_3_relu4_3_0_split
I0615 17:01:00.241369 17572 net.cpp:100] Creating Layer conv4_3_relu4_3_0_split
I0615 17:01:00.241376 17572 net.cpp:434] conv4_3_relu4_3_0_split <- conv4_3
I0615 17:01:00.241387 17572 net.cpp:408] conv4_3_relu4_3_0_split -> conv4_3_relu4_3_0_split_0
I0615 17:01:00.241400 17572 net.cpp:408] conv4_3_relu4_3_0_split -> conv4_3_relu4_3_0_split_1
I0615 17:01:00.241448 17572 net.cpp:150] Setting up conv4_3_relu4_3_0_split
I0615 17:01:00.241462 17572 net.cpp:157] Top shape: 1 512 38 38 (739328)
I0615 17:01:00.241469 17572 net.cpp:157] Top shape: 1 512 38 38 (739328)
I0615 17:01:00.241474 17572 net.cpp:165] Memory required for data: 215217280
I0615 17:01:00.241482 17572 layer_factory.hpp:77] Creating layer pool4
I0615 17:01:00.241492 17572 net.cpp:100] Creating Layer pool4
I0615 17:01:00.241498 17572 net.cpp:434] pool4 <- conv4_3_relu4_3_0_split_0
I0615 17:01:00.241508 17572 net.cpp:408] pool4 -> pool4
I0615 17:01:00.241547 17572 net.cpp:150] Setting up pool4
I0615 17:01:00.241556 17572 net.cpp:157] Top shape: 1 512 19 19 (184832)
I0615 17:01:00.241560 17572 net.cpp:165] Memory required for data: 215956608
I0615 17:01:00.241566 17572 layer_factory.hpp:77] Creating layer conv5_1
I0615 17:01:00.241585 17572 net.cpp:100] Creating Layer conv5_1
I0615 17:01:00.241593 17572 net.cpp:434] conv5_1 <- pool4
I0615 17:01:00.241605 17572 net.cpp:408] conv5_1 -> conv5_1
I0615 17:01:00.256520 17572 net.cpp:150] Setting up conv5_1
I0615 17:01:00.256561 17572 net.cpp:157] Top shape: 1 512 19 19 (184832)
I0615 17:01:00.256597 17572 net.cpp:165] Memory required for data: 216695936
I0615 17:01:00.256613 17572 layer_factory.hpp:77] Creating layer relu5_1
I0615 17:01:00.256628 17572 net.cpp:100] Creating Layer relu5_1
I0615 17:01:00.256637 17572 net.cpp:434] relu5_1 <- conv5_1
I0615 17:01:00.256650 17572 net.cpp:395] relu5_1 -> conv5_1 (in-place)
I0615 17:01:00.256745 17572 net.cpp:150] Setting up relu5_1
I0615 17:01:00.256757 17572 net.cpp:157] Top shape: 1 512 19 19 (184832)
I0615 17:01:00.256762 17572 net.cpp:165] Memory required for data: 217435264
I0615 17:01:00.256768 17572 layer_factory.hpp:77] Creating layer conv5_2
I0615 17:01:00.256785 17572 net.cpp:100] Creating Layer conv5_2
I0615 17:01:00.256793 17572 net.cpp:434] conv5_2 <- conv5_1
I0615 17:01:00.256806 17572 net.cpp:408] conv5_2 -> conv5_2
I0615 17:01:00.270227 17572 net.cpp:150] Setting up conv5_2
I0615 17:01:00.270262 17572 net.cpp:157] Top shape: 1 512 19 19 (184832)
I0615 17:01:00.270268 17572 net.cpp:165] Memory required for data: 218174592
I0615 17:01:00.270282 17572 layer_factory.hpp:77] Creating layer relu5_2
I0615 17:01:00.270296 17572 net.cpp:100] Creating Layer relu5_2
I0615 17:01:00.270303 17572 net.cpp:434] relu5_2 <- conv5_2
I0615 17:01:00.270315 17572 net.cpp:395] relu5_2 -> conv5_2 (in-place)
I0615 17:01:00.270519 17572 net.cpp:150] Setting up relu5_2
I0615 17:01:00.270534 17572 net.cpp:157] Top shape: 1 512 19 19 (184832)
I0615 17:01:00.270539 17572 net.cpp:165] Memory required for data: 218913920
I0615 17:01:00.270545 17572 layer_factory.hpp:77] Creating layer conv5_3
I0615 17:01:00.270565 17572 net.cpp:100] Creating Layer conv5_3
I0615 17:01:00.270572 17572 net.cpp:434] conv5_3 <- conv5_2
I0615 17:01:00.270586 17572 net.cpp:408] conv5_3 -> conv5_3
I0615 17:01:00.284034 17572 net.cpp:150] Setting up conv5_3
I0615 17:01:00.284073 17572 net.cpp:157] Top shape: 1 512 19 19 (184832)
I0615 17:01:00.284080 17572 net.cpp:165] Memory required for data: 219653248
I0615 17:01:00.284094 17572 layer_factory.hpp:77] Creating layer relu5_3
I0615 17:01:00.284117 17572 net.cpp:100] Creating Layer relu5_3
I0615 17:01:00.284126 17572 net.cpp:434] relu5_3 <- conv5_3
I0615 17:01:00.284137 17572 net.cpp:395] relu5_3 -> conv5_3 (in-place)
I0615 17:01:00.284392 17572 net.cpp:150] Setting up relu5_3
I0615 17:01:00.284409 17572 net.cpp:157] Top shape: 1 512 19 19 (184832)
I0615 17:01:00.284415 17572 net.cpp:165] Memory required for data: 220392576
I0615 17:01:00.284421 17572 layer_factory.hpp:77] Creating layer pool5
I0615 17:01:00.284435 17572 net.cpp:100] Creating Layer pool5
I0615 17:01:00.284440 17572 net.cpp:434] pool5 <- conv5_3
I0615 17:01:00.284452 17572 net.cpp:408] pool5 -> pool5
I0615 17:01:00.284508 17572 net.cpp:150] Setting up pool5
I0615 17:01:00.284520 17572 net.cpp:157] Top shape: 1 512 19 19 (184832)
I0615 17:01:00.284525 17572 net.cpp:165] Memory required for data: 221131904
I0615 17:01:00.284533 17572 layer_factory.hpp:77] Creating layer fc6
I0615 17:01:00.284549 17572 net.cpp:100] Creating Layer fc6
I0615 17:01:00.284556 17572 net.cpp:434] fc6 <- pool5
I0615 17:01:00.284577 17572 net.cpp:408] fc6 -> fc6
I0615 17:01:00.309674 17572 net.cpp:150] Setting up fc6
I0615 17:01:00.309710 17572 net.cpp:157] Top shape: 1 1024 19 19 (369664)
I0615 17:01:00.309715 17572 net.cpp:165] Memory required for data: 222610560
I0615 17:01:00.309727 17572 layer_factory.hpp:77] Creating layer relu6
I0615 17:01:00.309741 17572 net.cpp:100] Creating Layer relu6
I0615 17:01:00.309749 17572 net.cpp:434] relu6 <- fc6
I0615 17:01:00.309758 17572 net.cpp:395] relu6 -> fc6 (in-place)
I0615 17:01:00.310117 17572 net.cpp:150] Setting up relu6
I0615 17:01:00.310132 17572 net.cpp:157] Top shape: 1 1024 19 19 (369664)
I0615 17:01:00.310137 17572 net.cpp:165] Memory required for data: 224089216
I0615 17:01:00.310143 17572 layer_factory.hpp:77] Creating layer fc7
I0615 17:01:00.310160 17572 net.cpp:100] Creating Layer fc7
I0615 17:01:00.310178 17572 net.cpp:434] fc7 <- fc6
I0615 17:01:00.310190 17572 net.cpp:408] fc7 -> fc7
I0615 17:01:00.316735 17572 net.cpp:150] Setting up fc7
I0615 17:01:00.316804 17572 net.cpp:157] Top shape: 1 1024 19 19 (369664)
I0615 17:01:00.316812 17572 net.cpp:165] Memory required for data: 225567872
I0615 17:01:00.316824 17572 layer_factory.hpp:77] Creating layer relu7
I0615 17:01:00.316840 17572 net.cpp:100] Creating Layer relu7
I0615 17:01:00.316849 17572 net.cpp:434] relu7 <- fc7
I0615 17:01:00.316861 17572 net.cpp:395] relu7 -> fc7 (in-place)
I0615 17:01:00.318498 17572 net.cpp:150] Setting up relu7
I0615 17:01:00.318526 17572 net.cpp:157] Top shape: 1 1024 19 19 (369664)
I0615 17:01:00.318531 17572 net.cpp:165] Memory required for data: 227046528
I0615 17:01:00.318539 17572 layer_factory.hpp:77] Creating layer fc7_relu7_0_split
I0615 17:01:00.318555 17572 net.cpp:100] Creating Layer fc7_relu7_0_split
I0615 17:01:00.318562 17572 net.cpp:434] fc7_relu7_0_split <- fc7
I0615 17:01:00.318574 17572 net.cpp:408] fc7_relu7_0_split -> fc7_relu7_0_split_0
I0615 17:01:00.318591 17572 net.cpp:408] fc7_relu7_0_split -> fc7_relu7_0_split_1
I0615 17:01:00.318609 17572 net.cpp:408] fc7_relu7_0_split -> fc7_relu7_0_split_2
I0615 17:01:00.318619 17572 net.cpp:408] fc7_relu7_0_split -> fc7_relu7_0_split_3
I0615 17:01:00.318698 17572 net.cpp:150] Setting up fc7_relu7_0_split
I0615 17:01:00.318709 17572 net.cpp:157] Top shape: 1 1024 19 19 (369664)
I0615 17:01:00.318715 17572 net.cpp:157] Top shape: 1 1024 19 19 (369664)
I0615 17:01:00.318722 17572 net.cpp:157] Top shape: 1 1024 19 19 (369664)
I0615 17:01:00.318728 17572 net.cpp:157] Top shape: 1 1024 19 19 (369664)
I0615 17:01:00.318734 17572 net.cpp:165] Memory required for data: 232961152
I0615 17:01:00.318740 17572 layer_factory.hpp:77] Creating layer conv6_1
I0615 17:01:00.318761 17572 net.cpp:100] Creating Layer conv6_1
I0615 17:01:00.318768 17572 net.cpp:434] conv6_1 <- fc7_relu7_0_split_0
I0615 17:01:00.318783 17572 net.cpp:408] conv6_1 -> conv6_1
I0615 17:01:00.321436 17572 net.cpp:150] Setting up conv6_1
I0615 17:01:00.321475 17572 net.cpp:157] Top shape: 1 256 19 19 (92416)
I0615 17:01:00.321480 17572 net.cpp:165] Memory required for data: 233330816
I0615 17:01:00.321496 17572 layer_factory.hpp:77] Creating layer conv6_1_relu
I0615 17:01:00.321509 17572 net.cpp:100] Creating Layer conv6_1_relu
I0615 17:01:00.321518 17572 net.cpp:434] conv6_1_relu <- conv6_1
I0615 17:01:00.321528 17572 net.cpp:395] conv6_1_relu -> conv6_1 (in-place)
I0615 17:01:00.321617 17572 net.cpp:150] Setting up conv6_1_relu
I0615 17:01:00.321630 17572 net.cpp:157] Top shape: 1 256 19 19 (92416)
I0615 17:01:00.321635 17572 net.cpp:165] Memory required for data: 233700480
I0615 17:01:00.321640 17572 layer_factory.hpp:77] Creating layer conv6_2
I0615 17:01:00.321661 17572 net.cpp:100] Creating Layer conv6_2
I0615 17:01:00.321669 17572 net.cpp:434] conv6_2 <- conv6_1
I0615 17:01:00.321679 17572 net.cpp:408] conv6_2 -> conv6_2
I0615 17:01:00.329051 17572 net.cpp:150] Setting up conv6_2
I0615 17:01:00.329082 17572 net.cpp:157] Top shape: 1 512 10 10 (51200)
I0615 17:01:00.329087 17572 net.cpp:165] Memory required for data: 233905280
I0615 17:01:00.329111 17572 layer_factory.hpp:77] Creating layer conv6_2_relu
I0615 17:01:00.329124 17572 net.cpp:100] Creating Layer conv6_2_relu
I0615 17:01:00.329133 17572 net.cpp:434] conv6_2_relu <- conv6_2
I0615 17:01:00.329144 17572 net.cpp:395] conv6_2_relu -> conv6_2 (in-place)
I0615 17:01:00.329352 17572 net.cpp:150] Setting up conv6_2_relu
I0615 17:01:00.329365 17572 net.cpp:157] Top shape: 1 512 10 10 (51200)
I0615 17:01:00.329371 17572 net.cpp:165] Memory required for data: 234110080
I0615 17:01:00.329377 17572 layer_factory.hpp:77] Creating layer conv6_2_conv6_2_relu_0_split
I0615 17:01:00.329389 17572 net.cpp:100] Creating Layer conv6_2_conv6_2_relu_0_split
I0615 17:01:00.329396 17572 net.cpp:434] conv6_2_conv6_2_relu_0_split <- conv6_2
I0615 17:01:00.329409 17572 net.cpp:408] conv6_2_conv6_2_relu_0_split -> conv6_2_conv6_2_relu_0_split_0
I0615 17:01:00.329425 17572 net.cpp:408] conv6_2_conv6_2_relu_0_split -> conv6_2_conv6_2_relu_0_split_1
I0615 17:01:00.329435 17572 net.cpp:408] conv6_2_conv6_2_relu_0_split -> conv6_2_conv6_2_relu_0_split_2
I0615 17:01:00.329465 17572 net.cpp:408] conv6_2_conv6_2_relu_0_split -> conv6_2_conv6_2_relu_0_split_3
I0615 17:01:00.329532 17572 net.cpp:150] Setting up conv6_2_conv6_2_relu_0_split
I0615 17:01:00.329543 17572 net.cpp:157] Top shape: 1 512 10 10 (51200)
I0615 17:01:00.329550 17572 net.cpp:157] Top shape: 1 512 10 10 (51200)
I0615 17:01:00.329556 17572 net.cpp:157] Top shape: 1 512 10 10 (51200)
I0615 17:01:00.329564 17572 net.cpp:157] Top shape: 1 512 10 10 (51200)
I0615 17:01:00.329569 17572 net.cpp:165] Memory required for data: 234929280
I0615 17:01:00.329576 17572 layer_factory.hpp:77] Creating layer conv7_1
I0615 17:01:00.329596 17572 net.cpp:100] Creating Layer conv7_1
I0615 17:01:00.329602 17572 net.cpp:434] conv7_1 <- conv6_2_conv6_2_relu_0_split_0
I0615 17:01:00.329614 17572 net.cpp:408] conv7_1 -> conv7_1
I0615 17:01:00.330557 17572 net.cpp:150] Setting up conv7_1
I0615 17:01:00.330577 17572 net.cpp:157] Top shape: 1 128 10 10 (12800)
I0615 17:01:00.330583 17572 net.cpp:165] Memory required for data: 234980480
I0615 17:01:00.330595 17572 layer_factory.hpp:77] Creating layer conv7_1_relu
I0615 17:01:00.330607 17572 net.cpp:100] Creating Layer conv7_1_relu
I0615 17:01:00.330613 17572 net.cpp:434] conv7_1_relu <- conv7_1
I0615 17:01:00.330627 17572 net.cpp:395] conv7_1_relu -> conv7_1 (in-place)
I0615 17:01:00.330711 17572 net.cpp:150] Setting up conv7_1_relu
I0615 17:01:00.330721 17572 net.cpp:157] Top shape: 1 128 10 10 (12800)
I0615 17:01:00.330725 17572 net.cpp:165] Memory required for data: 235031680
I0615 17:01:00.330732 17572 layer_factory.hpp:77] Creating layer conv7_2
I0615 17:01:00.330746 17572 net.cpp:100] Creating Layer conv7_2
I0615 17:01:00.330752 17572 net.cpp:434] conv7_2 <- conv7_1
I0615 17:01:00.330765 17572 net.cpp:408] conv7_2 -> conv7_2
I0615 17:01:00.335135 17572 net.cpp:150] Setting up conv7_2
I0615 17:01:00.335173 17572 net.cpp:157] Top shape: 1 256 5 5 (6400)
I0615 17:01:00.335180 17572 net.cpp:165] Memory required for data: 235057280
I0615 17:01:00.335194 17572 layer_factory.hpp:77] Creating layer conv7_2_relu
I0615 17:01:00.335209 17572 net.cpp:100] Creating Layer conv7_2_relu
I0615 17:01:00.335217 17572 net.cpp:434] conv7_2_relu <- conv7_2
I0615 17:01:00.335227 17572 net.cpp:395] conv7_2_relu -> conv7_2 (in-place)
I0615 17:01:00.335546 17572 net.cpp:150] Setting up conv7_2_relu
I0615 17:01:00.335559 17572 net.cpp:157] Top shape: 1 256 5 5 (6400)
I0615 17:01:00.335564 17572 net.cpp:165] Memory required for data: 235082880
I0615 17:01:00.335570 17572 layer_factory.hpp:77] Creating layer conv7_2_conv7_2_relu_0_split
I0615 17:01:00.335580 17572 net.cpp:100] Creating Layer conv7_2_conv7_2_relu_0_split
I0615 17:01:00.335588 17572 net.cpp:434] conv7_2_conv7_2_relu_0_split <- conv7_2
I0615 17:01:00.335602 17572 net.cpp:408] conv7_2_conv7_2_relu_0_split -> conv7_2_conv7_2_relu_0_split_0
I0615 17:01:00.335614 17572 net.cpp:408] conv7_2_conv7_2_relu_0_split -> conv7_2_conv7_2_relu_0_split_1
I0615 17:01:00.335626 17572 net.cpp:408] conv7_2_conv7_2_relu_0_split -> conv7_2_conv7_2_relu_0_split_2
I0615 17:01:00.335638 17572 net.cpp:408] conv7_2_conv7_2_relu_0_split -> conv7_2_conv7_2_relu_0_split_3
I0615 17:01:00.335705 17572 net.cpp:150] Setting up conv7_2_conv7_2_relu_0_split
I0615 17:01:00.335714 17572 net.cpp:157] Top shape: 1 256 5 5 (6400)
I0615 17:01:00.335721 17572 net.cpp:157] Top shape: 1 256 5 5 (6400)
I0615 17:01:00.335728 17572 net.cpp:157] Top shape: 1 256 5 5 (6400)
I0615 17:01:00.335734 17572 net.cpp:157] Top shape: 1 256 5 5 (6400)
I0615 17:01:00.335741 17572 net.cpp:165] Memory required for data: 235185280
I0615 17:01:00.335747 17572 layer_factory.hpp:77] Creating layer conv8_1
I0615 17:01:00.335765 17572 net.cpp:100] Creating Layer conv8_1
I0615 17:01:00.335772 17572 net.cpp:434] conv8_1 <- conv7_2_conv7_2_relu_0_split_0
I0615 17:01:00.335783 17572 net.cpp:408] conv8_1 -> conv8_1
I0615 17:01:00.336576 17572 net.cpp:150] Setting up conv8_1
I0615 17:01:00.336601 17572 net.cpp:157] Top shape: 1 128 5 5 (3200)
I0615 17:01:00.336606 17572 net.cpp:165] Memory required for data: 235198080
I0615 17:01:00.336648 17572 layer_factory.hpp:77] Creating layer conv8_1_relu
I0615 17:01:00.336660 17572 net.cpp:100] Creating Layer conv8_1_relu
I0615 17:01:00.336668 17572 net.cpp:434] conv8_1_relu <- conv8_1
I0615 17:01:00.336678 17572 net.cpp:395] conv8_1_relu -> conv8_1 (in-place)
I0615 17:01:00.336762 17572 net.cpp:150] Setting up conv8_1_relu
I0615 17:01:00.336772 17572 net.cpp:157] Top shape: 1 128 5 5 (3200)
I0615 17:01:00.336778 17572 net.cpp:165] Memory required for data: 235210880
I0615 17:01:00.336784 17572 layer_factory.hpp:77] Creating layer conv8_2
I0615 17:01:00.336802 17572 net.cpp:100] Creating Layer conv8_2
I0615 17:01:00.336809 17572 net.cpp:434] conv8_2 <- conv8_1
I0615 17:01:00.336819 17572 net.cpp:408] conv8_2 -> conv8_2
I0615 17:01:00.339650 17572 net.cpp:150] Setting up conv8_2
I0615 17:01:00.339687 17572 net.cpp:157] Top shape: 1 256 3 3 (2304)
I0615 17:01:00.339694 17572 net.cpp:165] Memory required for data: 235220096
I0615 17:01:00.339709 17572 layer_factory.hpp:77] Creating layer conv8_2_relu
I0615 17:01:00.339723 17572 net.cpp:100] Creating Layer conv8_2_relu
I0615 17:01:00.339732 17572 net.cpp:434] conv8_2_relu <- conv8_2
I0615 17:01:00.339741 17572 net.cpp:395] conv8_2_relu -> conv8_2 (in-place)
I0615 17:01:00.339933 17572 net.cpp:150] Setting up conv8_2_relu
I0615 17:01:00.339947 17572 net.cpp:157] Top shape: 1 256 3 3 (2304)
I0615 17:01:00.339952 17572 net.cpp:165] Memory required for data: 235229312
I0615 17:01:00.339959 17572 layer_factory.hpp:77] Creating layer conv8_2_conv8_2_relu_0_split
I0615 17:01:00.339973 17572 net.cpp:100] Creating Layer conv8_2_conv8_2_relu_0_split
I0615 17:01:00.339980 17572 net.cpp:434] conv8_2_conv8_2_relu_0_split <- conv8_2
I0615 17:01:00.339989 17572 net.cpp:408] conv8_2_conv8_2_relu_0_split -> conv8_2_conv8_2_relu_0_split_0
I0615 17:01:00.340004 17572 net.cpp:408] conv8_2_conv8_2_relu_0_split -> conv8_2_conv8_2_relu_0_split_1
I0615 17:01:00.340015 17572 net.cpp:408] conv8_2_conv8_2_relu_0_split -> conv8_2_conv8_2_relu_0_split_2
I0615 17:01:00.340024 17572 net.cpp:408] conv8_2_conv8_2_relu_0_split -> conv8_2_conv8_2_relu_0_split_3
I0615 17:01:00.340088 17572 net.cpp:150] Setting up conv8_2_conv8_2_relu_0_split
I0615 17:01:00.340096 17572 net.cpp:157] Top shape: 1 256 3 3 (2304)
I0615 17:01:00.340103 17572 net.cpp:157] Top shape: 1 256 3 3 (2304)
I0615 17:01:00.340109 17572 net.cpp:157] Top shape: 1 256 3 3 (2304)
I0615 17:01:00.340116 17572 net.cpp:157] Top shape: 1 256 3 3 (2304)
I0615 17:01:00.340121 17572 net.cpp:165] Memory required for data: 235266176
I0615 17:01:00.340128 17572 layer_factory.hpp:77] Creating layer conv9_1
I0615 17:01:00.340148 17572 net.cpp:100] Creating Layer conv9_1
I0615 17:01:00.340154 17572 net.cpp:434] conv9_1 <- conv8_2_conv8_2_relu_0_split_0
I0615 17:01:00.340163 17572 net.cpp:408] conv9_1 -> conv9_1
I0615 17:01:00.342816 17572 net.cpp:150] Setting up conv9_1
I0615 17:01:00.342850 17572 net.cpp:157] Top shape: 1 128 3 3 (1152)
I0615 17:01:00.342856 17572 net.cpp:165] Memory required for data: 235270784
I0615 17:01:00.342870 17572 layer_factory.hpp:77] Creating layer conv9_1_relu
I0615 17:01:00.342887 17572 net.cpp:100] Creating Layer conv9_1_relu
I0615 17:01:00.342897 17572 net.cpp:434] conv9_1_relu <- conv9_1
I0615 17:01:00.342907 17572 net.cpp:395] conv9_1_relu -> conv9_1 (in-place)
I0615 17:01:00.343217 17572 net.cpp:150] Setting up conv9_1_relu
I0615 17:01:00.343235 17572 net.cpp:157] Top shape: 1 128 3 3 (1152)
I0615 17:01:00.343240 17572 net.cpp:165] Memory required for data: 235275392
I0615 17:01:00.343246 17572 layer_factory.hpp:77] Creating layer conv9_2
I0615 17:01:00.343268 17572 net.cpp:100] Creating Layer conv9_2
I0615 17:01:00.343278 17572 net.cpp:434] conv9_2 <- conv9_1
I0615 17:01:00.343291 17572 net.cpp:408] conv9_2 -> conv9_2
I0615 17:01:00.346241 17572 net.cpp:150] Setting up conv9_2
I0615 17:01:00.346280 17572 net.cpp:157] Top shape: 1 256 1 1 (256)
I0615 17:01:00.346287 17572 net.cpp:165] Memory required for data: 235276416
I0615 17:01:00.346302 17572 layer_factory.hpp:77] Creating layer conv9_2_relu
I0615 17:01:00.346354 17572 net.cpp:100] Creating Layer conv9_2_relu
I0615 17:01:00.346365 17572 net.cpp:434] conv9_2_relu <- conv9_2
I0615 17:01:00.346379 17572 net.cpp:395] conv9_2_relu -> conv9_2 (in-place)
I0615 17:01:00.346467 17572 net.cpp:150] Setting up conv9_2_relu
I0615 17:01:00.346477 17572 net.cpp:157] Top shape: 1 256 1 1 (256)
I0615 17:01:00.346482 17572 net.cpp:165] Memory required for data: 235277440
I0615 17:01:00.346489 17572 layer_factory.hpp:77] Creating layer conv9_2_conv9_2_relu_0_split
I0615 17:01:00.346498 17572 net.cpp:100] Creating Layer conv9_2_conv9_2_relu_0_split
I0615 17:01:00.346504 17572 net.cpp:434] conv9_2_conv9_2_relu_0_split <- conv9_2
I0615 17:01:00.346516 17572 net.cpp:408] conv9_2_conv9_2_relu_0_split -> conv9_2_conv9_2_relu_0_split_0
I0615 17:01:00.346529 17572 net.cpp:408] conv9_2_conv9_2_relu_0_split -> conv9_2_conv9_2_relu_0_split_1
I0615 17:01:00.346539 17572 net.cpp:408] conv9_2_conv9_2_relu_0_split -> conv9_2_conv9_2_relu_0_split_2
I0615 17:01:00.346591 17572 net.cpp:150] Setting up conv9_2_conv9_2_relu_0_split
I0615 17:01:00.346599 17572 net.cpp:157] Top shape: 1 256 1 1 (256)
I0615 17:01:00.346606 17572 net.cpp:157] Top shape: 1 256 1 1 (256)
I0615 17:01:00.346613 17572 net.cpp:157] Top shape: 1 256 1 1 (256)
I0615 17:01:00.346618 17572 net.cpp:165] Memory required for data: 235280512
I0615 17:01:00.346623 17572 layer_factory.hpp:77] Creating layer conv4_3_norm
I0615 17:01:00.346647 17572 net.cpp:100] Creating Layer conv4_3_norm
I0615 17:01:00.346653 17572 net.cpp:434] conv4_3_norm <- conv4_3_relu4_3_0_split_1
I0615 17:01:00.346662 17572 net.cpp:408] conv4_3_norm -> conv4_3_norm
I0615 17:01:00.346778 17572 net.cpp:150] Setting up conv4_3_norm
I0615 17:01:00.346788 17572 net.cpp:157] Top shape: 1 512 38 38 (739328)
I0615 17:01:00.346792 17572 net.cpp:165] Memory required for data: 238237824
I0615 17:01:00.346801 17572 layer_factory.hpp:77] Creating layer conv4_3_norm_conv4_3_norm_0_split
I0615 17:01:00.346810 17572 net.cpp:100] Creating Layer conv4_3_norm_conv4_3_norm_0_split
I0615 17:01:00.346817 17572 net.cpp:434] conv4_3_norm_conv4_3_norm_0_split <- conv4_3_norm
I0615 17:01:00.346827 17572 net.cpp:408] conv4_3_norm_conv4_3_norm_0_split -> conv4_3_norm_conv4_3_norm_0_split_0
I0615 17:01:00.346837 17572 net.cpp:408] conv4_3_norm_conv4_3_norm_0_split -> conv4_3_norm_conv4_3_norm_0_split_1
I0615 17:01:00.346846 17572 net.cpp:408] conv4_3_norm_conv4_3_norm_0_split -> conv4_3_norm_conv4_3_norm_0_split_2
I0615 17:01:00.346890 17572 net.cpp:150] Setting up conv4_3_norm_conv4_3_norm_0_split
I0615 17:01:00.346899 17572 net.cpp:157] Top shape: 1 512 38 38 (739328)
I0615 17:01:00.346904 17572 net.cpp:157] Top shape: 1 512 38 38 (739328)
I0615 17:01:00.346911 17572 net.cpp:157] Top shape: 1 512 38 38 (739328)
I0615 17:01:00.346917 17572 net.cpp:165] Memory required for data: 247109760
I0615 17:01:00.346923 17572 layer_factory.hpp:77] Creating layer conv4_3_norm_mbox_loc
I0615 17:01:00.346940 17572 net.cpp:100] Creating Layer conv4_3_norm_mbox_loc
I0615 17:01:00.346948 17572 net.cpp:434] conv4_3_norm_mbox_loc <- conv4_3_norm_conv4_3_norm_0_split_0
I0615 17:01:00.346958 17572 net.cpp:408] conv4_3_norm_mbox_loc -> conv4_3_norm_mbox_loc
I0615 17:01:00.348103 17572 net.cpp:150] Setting up conv4_3_norm_mbox_loc
I0615 17:01:00.348130 17572 net.cpp:157] Top shape: 1 16 38 38 (23104)
I0615 17:01:00.348136 17572 net.cpp:165] Memory required for data: 247202176
I0615 17:01:00.348150 17572 layer_factory.hpp:77] Creating layer conv4_3_norm_mbox_loc_perm
I0615 17:01:00.348161 17572 net.cpp:100] Creating Layer conv4_3_norm_mbox_loc_perm
I0615 17:01:00.348170 17572 net.cpp:434] conv4_3_norm_mbox_loc_perm <- conv4_3_norm_mbox_loc
I0615 17:01:00.348181 17572 net.cpp:408] conv4_3_norm_mbox_loc_perm -> conv4_3_norm_mbox_loc_perm
I0615 17:01:00.348275 17572 net.cpp:150] Setting up conv4_3_norm_mbox_loc_perm
I0615 17:01:00.348284 17572 net.cpp:157] Top shape: 1 38 38 16 (23104)
I0615 17:01:00.348289 17572 net.cpp:165] Memory required for data: 247294592
I0615 17:01:00.348294 17572 layer_factory.hpp:77] Creating layer conv4_3_norm_mbox_loc_flat
I0615 17:01:00.348330 17572 net.cpp:100] Creating Layer conv4_3_norm_mbox_loc_flat
I0615 17:01:00.348336 17572 net.cpp:434] conv4_3_norm_mbox_loc_flat <- conv4_3_norm_mbox_loc_perm
I0615 17:01:00.348345 17572 net.cpp:408] conv4_3_norm_mbox_loc_flat -> conv4_3_norm_mbox_loc_flat
I0615 17:01:00.348389 17572 net.cpp:150] Setting up conv4_3_norm_mbox_loc_flat
I0615 17:01:00.348399 17572 net.cpp:157] Top shape: 1 23104 (23104)
I0615 17:01:00.348403 17572 net.cpp:165] Memory required for data: 247387008
I0615 17:01:00.348409 17572 layer_factory.hpp:77] Creating layer conv4_3_norm_mbox_conf
I0615 17:01:00.348435 17572 net.cpp:100] Creating Layer conv4_3_norm_mbox_conf
I0615 17:01:00.348443 17572 net.cpp:434] conv4_3_norm_mbox_conf <- conv4_3_norm_conv4_3_norm_0_split_1
I0615 17:01:00.348451 17572 net.cpp:408] conv4_3_norm_mbox_conf -> conv4_3_norm_mbox_conf
I0615 17:01:00.350215 17572 net.cpp:150] Setting up conv4_3_norm_mbox_conf
I0615 17:01:00.350250 17572 net.cpp:157] Top shape: 1 44 38 38 (63536)
I0615 17:01:00.350257 17572 net.cpp:165] Memory required for data: 247641152
I0615 17:01:00.350271 17572 layer_factory.hpp:77] Creating layer conv4_3_norm_mbox_conf_perm
I0615 17:01:00.350286 17572 net.cpp:100] Creating Layer conv4_3_norm_mbox_conf_perm
I0615 17:01:00.350296 17572 net.cpp:434] conv4_3_norm_mbox_conf_perm <- conv4_3_norm_mbox_conf
I0615 17:01:00.350309 17572 net.cpp:408] conv4_3_norm_mbox_conf_perm -> conv4_3_norm_mbox_conf_perm
I0615 17:01:00.350402 17572 net.cpp:150] Setting up conv4_3_norm_mbox_conf_perm
I0615 17:01:00.350411 17572 net.cpp:157] Top shape: 1 38 38 44 (63536)
I0615 17:01:00.350416 17572 net.cpp:165] Memory required for data: 247895296
I0615 17:01:00.350422 17572 layer_factory.hpp:77] Creating layer conv4_3_norm_mbox_conf_flat
I0615 17:01:00.350435 17572 net.cpp:100] Creating Layer conv4_3_norm_mbox_conf_flat
I0615 17:01:00.350440 17572 net.cpp:434] conv4_3_norm_mbox_conf_flat <- conv4_3_norm_mbox_conf_perm
I0615 17:01:00.350448 17572 net.cpp:408] conv4_3_norm_mbox_conf_flat -> conv4_3_norm_mbox_conf_flat
I0615 17:01:00.350477 17572 net.cpp:150] Setting up conv4_3_norm_mbox_conf_flat
I0615 17:01:00.350486 17572 net.cpp:157] Top shape: 1 63536 (63536)
I0615 17:01:00.350493 17572 net.cpp:165] Memory required for data: 248149440
I0615 17:01:00.350499 17572 layer_factory.hpp:77] Creating layer conv4_3_norm_mbox_priorbox
I0615 17:01:00.350513 17572 net.cpp:100] Creating Layer conv4_3_norm_mbox_priorbox
I0615 17:01:00.350520 17572 net.cpp:434] conv4_3_norm_mbox_priorbox <- conv4_3_norm_conv4_3_norm_0_split_2
I0615 17:01:00.350528 17572 net.cpp:434] conv4_3_norm_mbox_priorbox <- data_data_0_split_1
I0615 17:01:00.350539 17572 net.cpp:408] conv4_3_norm_mbox_priorbox -> conv4_3_norm_mbox_priorbox
I0615 17:01:00.350575 17572 net.cpp:150] Setting up conv4_3_norm_mbox_priorbox
I0615 17:01:00.350584 17572 net.cpp:157] Top shape: 1 2 23104 (46208)
I0615 17:01:00.350589 17572 net.cpp:165] Memory required for data: 248334272
I0615 17:01:00.350594 17572 layer_factory.hpp:77] Creating layer fc7_mbox_loc
I0615 17:01:00.350615 17572 net.cpp:100] Creating Layer fc7_mbox_loc
I0615 17:01:00.350622 17572 net.cpp:434] fc7_mbox_loc <- fc7_relu7_0_split_1
I0615 17:01:00.350630 17572 net.cpp:408] fc7_mbox_loc -> fc7_mbox_loc
I0615 17:01:00.354072 17572 net.cpp:150] Setting up fc7_mbox_loc
I0615 17:01:00.354113 17572 net.cpp:157] Top shape: 1 24 19 19 (8664)
I0615 17:01:00.354120 17572 net.cpp:165] Memory required for data: 248368928
I0615 17:01:00.354135 17572 layer_factory.hpp:77] Creating layer fc7_mbox_loc_perm
I0615 17:01:00.354151 17572 net.cpp:100] Creating Layer fc7_mbox_loc_perm
I0615 17:01:00.354163 17572 net.cpp:434] fc7_mbox_loc_perm <- fc7_mbox_loc
I0615 17:01:00.354177 17572 net.cpp:408] fc7_mbox_loc_perm -> fc7_mbox_loc_perm
I0615 17:01:00.354326 17572 net.cpp:150] Setting up fc7_mbox_loc_perm
I0615 17:01:00.354336 17572 net.cpp:157] Top shape: 1 19 19 24 (8664)
I0615 17:01:00.354341 17572 net.cpp:165] Memory required for data: 248403584
I0615 17:01:00.354372 17572 layer_factory.hpp:77] Creating layer fc7_mbox_loc_flat
I0615 17:01:00.354383 17572 net.cpp:100] Creating Layer fc7_mbox_loc_flat
I0615 17:01:00.354389 17572 net.cpp:434] fc7_mbox_loc_flat <- fc7_mbox_loc_perm
I0615 17:01:00.354401 17572 net.cpp:408] fc7_mbox_loc_flat -> fc7_mbox_loc_flat
I0615 17:01:00.354429 17572 net.cpp:150] Setting up fc7_mbox_loc_flat
I0615 17:01:00.354439 17572 net.cpp:157] Top shape: 1 8664 (8664)
I0615 17:01:00.354442 17572 net.cpp:165] Memory required for data: 248438240
I0615 17:01:00.354449 17572 layer_factory.hpp:77] Creating layer fc7_mbox_conf
I0615 17:01:00.354475 17572 net.cpp:100] Creating Layer fc7_mbox_conf
I0615 17:01:00.354482 17572 net.cpp:434] fc7_mbox_conf <- fc7_relu7_0_split_2
I0615 17:01:00.354492 17572 net.cpp:408] fc7_mbox_conf -> fc7_mbox_conf
I0615 17:01:00.358853 17572 net.cpp:150] Setting up fc7_mbox_conf
I0615 17:01:00.358891 17572 net.cpp:157] Top shape: 1 66 19 19 (23826)
I0615 17:01:00.358896 17572 net.cpp:165] Memory required for data: 248533544
I0615 17:01:00.358911 17572 layer_factory.hpp:77] Creating layer fc7_mbox_conf_perm
I0615 17:01:00.358927 17572 net.cpp:100] Creating Layer fc7_mbox_conf_perm
I0615 17:01:00.358935 17572 net.cpp:434] fc7_mbox_conf_perm <- fc7_mbox_conf
I0615 17:01:00.358950 17572 net.cpp:408] fc7_mbox_conf_perm -> fc7_mbox_conf_perm
I0615 17:01:00.359052 17572 net.cpp:150] Setting up fc7_mbox_conf_perm
I0615 17:01:00.359062 17572 net.cpp:157] Top shape: 1 19 19 66 (23826)
I0615 17:01:00.359067 17572 net.cpp:165] Memory required for data: 248628848
I0615 17:01:00.359072 17572 layer_factory.hpp:77] Creating layer fc7_mbox_conf_flat
I0615 17:01:00.359083 17572 net.cpp:100] Creating Layer fc7_mbox_conf_flat
I0615 17:01:00.359091 17572 net.cpp:434] fc7_mbox_conf_flat <- fc7_mbox_conf_perm
I0615 17:01:00.359099 17572 net.cpp:408] fc7_mbox_conf_flat -> fc7_mbox_conf_flat
I0615 17:01:00.359124 17572 net.cpp:150] Setting up fc7_mbox_conf_flat
I0615 17:01:00.359131 17572 net.cpp:157] Top shape: 1 23826 (23826)
I0615 17:01:00.359138 17572 net.cpp:165] Memory required for data: 248724152
I0615 17:01:00.359143 17572 layer_factory.hpp:77] Creating layer fc7_mbox_priorbox
I0615 17:01:00.359154 17572 net.cpp:100] Creating Layer fc7_mbox_priorbox
I0615 17:01:00.359163 17572 net.cpp:434] fc7_mbox_priorbox <- fc7_relu7_0_split_3
I0615 17:01:00.359171 17572 net.cpp:434] fc7_mbox_priorbox <- data_data_0_split_2
I0615 17:01:00.359184 17572 net.cpp:408] fc7_mbox_priorbox -> fc7_mbox_priorbox
I0615 17:01:00.359216 17572 net.cpp:150] Setting up fc7_mbox_priorbox
I0615 17:01:00.359225 17572 net.cpp:157] Top shape: 1 2 8664 (17328)
I0615 17:01:00.359230 17572 net.cpp:165] Memory required for data: 248793464
I0615 17:01:00.359236 17572 layer_factory.hpp:77] Creating layer conv6_2_mbox_loc
I0615 17:01:00.359253 17572 net.cpp:100] Creating Layer conv6_2_mbox_loc
I0615 17:01:00.359261 17572 net.cpp:434] conv6_2_mbox_loc <- conv6_2_conv6_2_relu_0_split_1
I0615 17:01:00.359272 17572 net.cpp:408] conv6_2_mbox_loc -> conv6_2_mbox_loc
I0615 17:01:00.360532 17572 net.cpp:150] Setting up conv6_2_mbox_loc
I0615 17:01:00.360558 17572 net.cpp:157] Top shape: 1 24 10 10 (2400)
I0615 17:01:00.360563 17572 net.cpp:165] Memory required for data: 248803064
I0615 17:01:00.360576 17572 layer_factory.hpp:77] Creating layer conv6_2_mbox_loc_perm
I0615 17:01:00.360589 17572 net.cpp:100] Creating Layer conv6_2_mbox_loc_perm
I0615 17:01:00.360597 17572 net.cpp:434] conv6_2_mbox_loc_perm <- conv6_2_mbox_loc
I0615 17:01:00.360610 17572 net.cpp:408] conv6_2_mbox_loc_perm -> conv6_2_mbox_loc_perm
I0615 17:01:00.360699 17572 net.cpp:150] Setting up conv6_2_mbox_loc_perm
I0615 17:01:00.360708 17572 net.cpp:157] Top shape: 1 10 10 24 (2400)
I0615 17:01:00.360713 17572 net.cpp:165] Memory required for data: 248812664
I0615 17:01:00.360719 17572 layer_factory.hpp:77] Creating layer conv6_2_mbox_loc_flat
I0615 17:01:00.360731 17572 net.cpp:100] Creating Layer conv6_2_mbox_loc_flat
I0615 17:01:00.360738 17572 net.cpp:434] conv6_2_mbox_loc_flat <- conv6_2_mbox_loc_perm
I0615 17:01:00.360746 17572 net.cpp:408] conv6_2_mbox_loc_flat -> conv6_2_mbox_loc_flat
I0615 17:01:00.360792 17572 net.cpp:150] Setting up conv6_2_mbox_loc_flat
I0615 17:01:00.360801 17572 net.cpp:157] Top shape: 1 2400 (2400)
I0615 17:01:00.360806 17572 net.cpp:165] Memory required for data: 248822264
I0615 17:01:00.360812 17572 layer_factory.hpp:77] Creating layer conv6_2_mbox_conf
I0615 17:01:00.360829 17572 net.cpp:100] Creating Layer conv6_2_mbox_conf
I0615 17:01:00.360837 17572 net.cpp:434] conv6_2_mbox_conf <- conv6_2_conv6_2_relu_0_split_2
I0615 17:01:00.360848 17572 net.cpp:408] conv6_2_mbox_conf -> conv6_2_mbox_conf
I0615 17:01:00.363755 17572 net.cpp:150] Setting up conv6_2_mbox_conf
I0615 17:01:00.363798 17572 net.cpp:157] Top shape: 1 66 10 10 (6600)
I0615 17:01:00.363804 17572 net.cpp:165] Memory required for data: 248848664
I0615 17:01:00.363819 17572 layer_factory.hpp:77] Creating layer conv6_2_mbox_conf_perm
I0615 17:01:00.363837 17572 net.cpp:100] Creating Layer conv6_2_mbox_conf_perm
I0615 17:01:00.363845 17572 net.cpp:434] conv6_2_mbox_conf_perm <- conv6_2_mbox_conf
I0615 17:01:00.363858 17572 net.cpp:408] conv6_2_mbox_conf_perm -> conv6_2_mbox_conf_perm
I0615 17:01:00.363951 17572 net.cpp:150] Setting up conv6_2_mbox_conf_perm
I0615 17:01:00.363960 17572 net.cpp:157] Top shape: 1 10 10 66 (6600)
I0615 17:01:00.363965 17572 net.cpp:165] Memory required for data: 248875064
I0615 17:01:00.363971 17572 layer_factory.hpp:77] Creating layer conv6_2_mbox_conf_flat
I0615 17:01:00.363982 17572 net.cpp:100] Creating Layer conv6_2_mbox_conf_flat
I0615 17:01:00.363991 17572 net.cpp:434] conv6_2_mbox_conf_flat <- conv6_2_mbox_conf_perm
I0615 17:01:00.363997 17572 net.cpp:408] conv6_2_mbox_conf_flat -> conv6_2_mbox_conf_flat
I0615 17:01:00.364027 17572 net.cpp:150] Setting up conv6_2_mbox_conf_flat
I0615 17:01:00.364035 17572 net.cpp:157] Top shape: 1 6600 (6600)
I0615 17:01:00.364040 17572 net.cpp:165] Memory required for data: 248901464
I0615 17:01:00.364045 17572 layer_factory.hpp:77] Creating layer conv6_2_mbox_priorbox
I0615 17:01:00.364059 17572 net.cpp:100] Creating Layer conv6_2_mbox_priorbox
I0615 17:01:00.364066 17572 net.cpp:434] conv6_2_mbox_priorbox <- conv6_2_conv6_2_relu_0_split_3
I0615 17:01:00.364073 17572 net.cpp:434] conv6_2_mbox_priorbox <- data_data_0_split_3
I0615 17:01:00.364082 17572 net.cpp:408] conv6_2_mbox_priorbox -> conv6_2_mbox_priorbox
I0615 17:01:00.364120 17572 net.cpp:150] Setting up conv6_2_mbox_priorbox
I0615 17:01:00.364130 17572 net.cpp:157] Top shape: 1 2 2400 (4800)
I0615 17:01:00.364137 17572 net.cpp:165] Memory required for data: 248920664
I0615 17:01:00.364142 17572 layer_factory.hpp:77] Creating layer conv7_2_mbox_loc
I0615 17:01:00.364161 17572 net.cpp:100] Creating Layer conv7_2_mbox_loc
I0615 17:01:00.364167 17572 net.cpp:434] conv7_2_mbox_loc <- conv7_2_conv7_2_relu_0_split_1
I0615 17:01:00.364178 17572 net.cpp:408] conv7_2_mbox_loc -> conv7_2_mbox_loc
I0615 17:01:00.366794 17572 net.cpp:150] Setting up conv7_2_mbox_loc
I0615 17:01:00.366833 17572 net.cpp:157] Top shape: 1 24 5 5 (600)
I0615 17:01:00.366838 17572 net.cpp:165] Memory required for data: 248923064
I0615 17:01:00.366852 17572 layer_factory.hpp:77] Creating layer conv7_2_mbox_loc_perm
I0615 17:01:00.366868 17572 net.cpp:100] Creating Layer conv7_2_mbox_loc_perm
I0615 17:01:00.366879 17572 net.cpp:434] conv7_2_mbox_loc_perm <- conv7_2_mbox_loc
I0615 17:01:00.366890 17572 net.cpp:408] conv7_2_mbox_loc_perm -> conv7_2_mbox_loc_perm
I0615 17:01:00.366982 17572 net.cpp:150] Setting up conv7_2_mbox_loc_perm
I0615 17:01:00.366991 17572 net.cpp:157] Top shape: 1 5 5 24 (600)
I0615 17:01:00.366997 17572 net.cpp:165] Memory required for data: 248925464
I0615 17:01:00.367002 17572 layer_factory.hpp:77] Creating layer conv7_2_mbox_loc_flat
I0615 17:01:00.367013 17572 net.cpp:100] Creating Layer conv7_2_mbox_loc_flat
I0615 17:01:00.367022 17572 net.cpp:434] conv7_2_mbox_loc_flat <- conv7_2_mbox_loc_perm
I0615 17:01:00.367031 17572 net.cpp:408] conv7_2_mbox_loc_flat -> conv7_2_mbox_loc_flat
I0615 17:01:00.367061 17572 net.cpp:150] Setting up conv7_2_mbox_loc_flat
I0615 17:01:00.367084 17572 net.cpp:157] Top shape: 1 600 (600)
I0615 17:01:00.367089 17572 net.cpp:165] Memory required for data: 248927864
I0615 17:01:00.367095 17572 layer_factory.hpp:77] Creating layer conv7_2_mbox_conf
I0615 17:01:00.367113 17572 net.cpp:100] Creating Layer conv7_2_mbox_conf
I0615 17:01:00.367125 17572 net.cpp:434] conv7_2_mbox_conf <- conv7_2_conv7_2_relu_0_split_2
I0615 17:01:00.367136 17572 net.cpp:408] conv7_2_mbox_conf -> conv7_2_mbox_conf
I0615 17:01:00.368525 17572 net.cpp:150] Setting up conv7_2_mbox_conf
I0615 17:01:00.368554 17572 net.cpp:157] Top shape: 1 66 5 5 (1650)
I0615 17:01:00.368561 17572 net.cpp:165] Memory required for data: 248934464
I0615 17:01:00.368572 17572 layer_factory.hpp:77] Creating layer conv7_2_mbox_conf_perm
I0615 17:01:00.368588 17572 net.cpp:100] Creating Layer conv7_2_mbox_conf_perm
I0615 17:01:00.368599 17572 net.cpp:434] conv7_2_mbox_conf_perm <- conv7_2_mbox_conf
I0615 17:01:00.368609 17572 net.cpp:408] conv7_2_mbox_conf_perm -> conv7_2_mbox_conf_perm
I0615 17:01:00.368700 17572 net.cpp:150] Setting up conv7_2_mbox_conf_perm
I0615 17:01:00.368711 17572 net.cpp:157] Top shape: 1 5 5 66 (1650)
I0615 17:01:00.368716 17572 net.cpp:165] Memory required for data: 248941064
I0615 17:01:00.368721 17572 layer_factory.hpp:77] Creating layer conv7_2_mbox_conf_flat
I0615 17:01:00.368733 17572 net.cpp:100] Creating Layer conv7_2_mbox_conf_flat
I0615 17:01:00.368742 17572 net.cpp:434] conv7_2_mbox_conf_flat <- conv7_2_mbox_conf_perm
I0615 17:01:00.368752 17572 net.cpp:408] conv7_2_mbox_conf_flat -> conv7_2_mbox_conf_flat
I0615 17:01:00.368778 17572 net.cpp:150] Setting up conv7_2_mbox_conf_flat
I0615 17:01:00.368788 17572 net.cpp:157] Top shape: 1 1650 (1650)
I0615 17:01:00.368795 17572 net.cpp:165] Memory required for data: 248947664
I0615 17:01:00.368803 17572 layer_factory.hpp:77] Creating layer conv7_2_mbox_priorbox
I0615 17:01:00.368813 17572 net.cpp:100] Creating Layer conv7_2_mbox_priorbox
I0615 17:01:00.368826 17572 net.cpp:434] conv7_2_mbox_priorbox <- conv7_2_conv7_2_relu_0_split_3
I0615 17:01:00.368835 17572 net.cpp:434] conv7_2_mbox_priorbox <- data_data_0_split_4
I0615 17:01:00.368846 17572 net.cpp:408] conv7_2_mbox_priorbox -> conv7_2_mbox_priorbox
I0615 17:01:00.368880 17572 net.cpp:150] Setting up conv7_2_mbox_priorbox
I0615 17:01:00.368888 17572 net.cpp:157] Top shape: 1 2 600 (1200)
I0615 17:01:00.368894 17572 net.cpp:165] Memory required for data: 248952464
I0615 17:01:00.368901 17572 layer_factory.hpp:77] Creating layer conv8_2_mbox_loc
I0615 17:01:00.368918 17572 net.cpp:100] Creating Layer conv8_2_mbox_loc
I0615 17:01:00.368927 17572 net.cpp:434] conv8_2_mbox_loc <- conv8_2_conv8_2_relu_0_split_1
I0615 17:01:00.368937 17572 net.cpp:408] conv8_2_mbox_loc -> conv8_2_mbox_loc
I0615 17:01:00.369755 17572 net.cpp:150] Setting up conv8_2_mbox_loc
I0615 17:01:00.369776 17572 net.cpp:157] Top shape: 1 16 3 3 (144)
I0615 17:01:00.369781 17572 net.cpp:165] Memory required for data: 248953040
I0615 17:01:00.369805 17572 layer_factory.hpp:77] Creating layer conv8_2_mbox_loc_perm
I0615 17:01:00.369818 17572 net.cpp:100] Creating Layer conv8_2_mbox_loc_perm
I0615 17:01:00.369827 17572 net.cpp:434] conv8_2_mbox_loc_perm <- conv8_2_mbox_loc
I0615 17:01:00.369837 17572 net.cpp:408] conv8_2_mbox_loc_perm -> conv8_2_mbox_loc_perm
I0615 17:01:00.369926 17572 net.cpp:150] Setting up conv8_2_mbox_loc_perm
I0615 17:01:00.369935 17572 net.cpp:157] Top shape: 1 3 3 16 (144)
I0615 17:01:00.369940 17572 net.cpp:165] Memory required for data: 248953616
I0615 17:01:00.369946 17572 layer_factory.hpp:77] Creating layer conv8_2_mbox_loc_flat
I0615 17:01:00.369956 17572 net.cpp:100] Creating Layer conv8_2_mbox_loc_flat
I0615 17:01:00.369962 17572 net.cpp:434] conv8_2_mbox_loc_flat <- conv8_2_mbox_loc_perm
I0615 17:01:00.369976 17572 net.cpp:408] conv8_2_mbox_loc_flat -> conv8_2_mbox_loc_flat
I0615 17:01:00.370004 17572 net.cpp:150] Setting up conv8_2_mbox_loc_flat
I0615 17:01:00.370013 17572 net.cpp:157] Top shape: 1 144 (144)
I0615 17:01:00.370018 17572 net.cpp:165] Memory required for data: 248954192
I0615 17:01:00.370044 17572 layer_factory.hpp:77] Creating layer conv8_2_mbox_conf
I0615 17:01:00.370062 17572 net.cpp:100] Creating Layer conv8_2_mbox_conf
I0615 17:01:00.370069 17572 net.cpp:434] conv8_2_mbox_conf <- conv8_2_conv8_2_relu_0_split_2
I0615 17:01:00.370079 17572 net.cpp:408] conv8_2_mbox_conf -> conv8_2_mbox_conf
I0615 17:01:00.371297 17572 net.cpp:150] Setting up conv8_2_mbox_conf
I0615 17:01:00.371327 17572 net.cpp:157] Top shape: 1 44 3 3 (396)
I0615 17:01:00.371332 17572 net.cpp:165] Memory required for data: 248955776
I0615 17:01:00.371345 17572 layer_factory.hpp:77] Creating layer conv8_2_mbox_conf_perm
I0615 17:01:00.371359 17572 net.cpp:100] Creating Layer conv8_2_mbox_conf_perm
I0615 17:01:00.371374 17572 net.cpp:434] conv8_2_mbox_conf_perm <- conv8_2_mbox_conf
I0615 17:01:00.371388 17572 net.cpp:408] conv8_2_mbox_conf_perm -> conv8_2_mbox_conf_perm
I0615 17:01:00.371477 17572 net.cpp:150] Setting up conv8_2_mbox_conf_perm
I0615 17:01:00.371485 17572 net.cpp:157] Top shape: 1 3 3 44 (396)
I0615 17:01:00.371490 17572 net.cpp:165] Memory required for data: 248957360
I0615 17:01:00.371496 17572 layer_factory.hpp:77] Creating layer conv8_2_mbox_conf_flat
I0615 17:01:00.371508 17572 net.cpp:100] Creating Layer conv8_2_mbox_conf_flat
I0615 17:01:00.371515 17572 net.cpp:434] conv8_2_mbox_conf_flat <- conv8_2_mbox_conf_perm
I0615 17:01:00.371523 17572 net.cpp:408] conv8_2_mbox_conf_flat -> conv8_2_mbox_conf_flat
I0615 17:01:00.371553 17572 net.cpp:150] Setting up conv8_2_mbox_conf_flat
I0615 17:01:00.371562 17572 net.cpp:157] Top shape: 1 396 (396)
I0615 17:01:00.371567 17572 net.cpp:165] Memory required for data: 248958944
I0615 17:01:00.371572 17572 layer_factory.hpp:77] Creating layer conv8_2_mbox_priorbox
I0615 17:01:00.371587 17572 net.cpp:100] Creating Layer conv8_2_mbox_priorbox
I0615 17:01:00.371601 17572 net.cpp:434] conv8_2_mbox_priorbox <- conv8_2_conv8_2_relu_0_split_3
I0615 17:01:00.371609 17572 net.cpp:434] conv8_2_mbox_priorbox <- data_data_0_split_5
I0615 17:01:00.371618 17572 net.cpp:408] conv8_2_mbox_priorbox -> conv8_2_mbox_priorbox
I0615 17:01:00.371651 17572 net.cpp:150] Setting up conv8_2_mbox_priorbox
I0615 17:01:00.371659 17572 net.cpp:157] Top shape: 1 2 144 (288)
I0615 17:01:00.371663 17572 net.cpp:165] Memory required for data: 248960096
I0615 17:01:00.371668 17572 layer_factory.hpp:77] Creating layer conv9_2_mbox_loc
I0615 17:01:00.371687 17572 net.cpp:100] Creating Layer conv9_2_mbox_loc
I0615 17:01:00.371695 17572 net.cpp:434] conv9_2_mbox_loc <- conv9_2_conv9_2_relu_0_split_0
I0615 17:01:00.371707 17572 net.cpp:408] conv9_2_mbox_loc -> conv9_2_mbox_loc
I0615 17:01:00.374182 17572 net.cpp:150] Setting up conv9_2_mbox_loc
I0615 17:01:00.374222 17572 net.cpp:157] Top shape: 1 16 1 1 (16)
I0615 17:01:00.374228 17572 net.cpp:165] Memory required for data: 248960160
I0615 17:01:00.374243 17572 layer_factory.hpp:77] Creating layer conv9_2_mbox_loc_perm
I0615 17:01:00.374260 17572 net.cpp:100] Creating Layer conv9_2_mbox_loc_perm
I0615 17:01:00.374271 17572 net.cpp:434] conv9_2_mbox_loc_perm <- conv9_2_mbox_loc
I0615 17:01:00.374284 17572 net.cpp:408] conv9_2_mbox_loc_perm -> conv9_2_mbox_loc_perm
I0615 17:01:00.374378 17572 net.cpp:150] Setting up conv9_2_mbox_loc_perm
I0615 17:01:00.374387 17572 net.cpp:157] Top shape: 1 1 1 16 (16)
I0615 17:01:00.374393 17572 net.cpp:165] Memory required for data: 248960224
I0615 17:01:00.374398 17572 layer_factory.hpp:77] Creating layer conv9_2_mbox_loc_flat
I0615 17:01:00.374409 17572 net.cpp:100] Creating Layer conv9_2_mbox_loc_flat
I0615 17:01:00.374418 17572 net.cpp:434] conv9_2_mbox_loc_flat <- conv9_2_mbox_loc_perm
I0615 17:01:00.374428 17572 net.cpp:408] conv9_2_mbox_loc_flat -> conv9_2_mbox_loc_flat
I0615 17:01:00.374456 17572 net.cpp:150] Setting up conv9_2_mbox_loc_flat
I0615 17:01:00.374464 17572 net.cpp:157] Top shape: 1 16 (16)
I0615 17:01:00.374469 17572 net.cpp:165] Memory required for data: 248960288
I0615 17:01:00.374476 17572 layer_factory.hpp:77] Creating layer conv9_2_mbox_conf
I0615 17:01:00.374513 17572 net.cpp:100] Creating Layer conv9_2_mbox_conf
I0615 17:01:00.374521 17572 net.cpp:434] conv9_2_mbox_conf <- conv9_2_conv9_2_relu_0_split_1
I0615 17:01:00.374532 17572 net.cpp:408] conv9_2_mbox_conf -> conv9_2_mbox_conf
I0615 17:01:00.375867 17572 net.cpp:150] Setting up conv9_2_mbox_conf
I0615 17:01:00.375901 17572 net.cpp:157] Top shape: 1 44 1 1 (44)
I0615 17:01:00.375907 17572 net.cpp:165] Memory required for data: 248960464
I0615 17:01:00.375921 17572 layer_factory.hpp:77] Creating layer conv9_2_mbox_conf_perm
I0615 17:01:00.375937 17572 net.cpp:100] Creating Layer conv9_2_mbox_conf_perm
I0615 17:01:00.375947 17572 net.cpp:434] conv9_2_mbox_conf_perm <- conv9_2_mbox_conf
I0615 17:01:00.375959 17572 net.cpp:408] conv9_2_mbox_conf_perm -> conv9_2_mbox_conf_perm
I0615 17:01:00.376051 17572 net.cpp:150] Setting up conv9_2_mbox_conf_perm
I0615 17:01:00.376060 17572 net.cpp:157] Top shape: 1 1 1 44 (44)
I0615 17:01:00.376065 17572 net.cpp:165] Memory required for data: 248960640
I0615 17:01:00.376071 17572 layer_factory.hpp:77] Creating layer conv9_2_mbox_conf_flat
I0615 17:01:00.376080 17572 net.cpp:100] Creating Layer conv9_2_mbox_conf_flat
I0615 17:01:00.376088 17572 net.cpp:434] conv9_2_mbox_conf_flat <- conv9_2_mbox_conf_perm
I0615 17:01:00.376098 17572 net.cpp:408] conv9_2_mbox_conf_flat -> conv9_2_mbox_conf_flat
I0615 17:01:00.376125 17572 net.cpp:150] Setting up conv9_2_mbox_conf_flat
I0615 17:01:00.376132 17572 net.cpp:157] Top shape: 1 44 (44)
I0615 17:01:00.376138 17572 net.cpp:165] Memory required for data: 248960816
I0615 17:01:00.376143 17572 layer_factory.hpp:77] Creating layer conv9_2_mbox_priorbox
I0615 17:01:00.376157 17572 net.cpp:100] Creating Layer conv9_2_mbox_priorbox
I0615 17:01:00.376163 17572 net.cpp:434] conv9_2_mbox_priorbox <- conv9_2_conv9_2_relu_0_split_2
I0615 17:01:00.376170 17572 net.cpp:434] conv9_2_mbox_priorbox <- data_data_0_split_6
I0615 17:01:00.376180 17572 net.cpp:408] conv9_2_mbox_priorbox -> conv9_2_mbox_priorbox
I0615 17:01:00.376217 17572 net.cpp:150] Setting up conv9_2_mbox_priorbox
I0615 17:01:00.376224 17572 net.cpp:157] Top shape: 1 2 16 (32)
I0615 17:01:00.376230 17572 net.cpp:165] Memory required for data: 248960944
I0615 17:01:00.376236 17572 layer_factory.hpp:77] Creating layer mbox_loc
I0615 17:01:00.376247 17572 net.cpp:100] Creating Layer mbox_loc
I0615 17:01:00.376255 17572 net.cpp:434] mbox_loc <- conv4_3_norm_mbox_loc_flat
I0615 17:01:00.376263 17572 net.cpp:434] mbox_loc <- fc7_mbox_loc_flat
I0615 17:01:00.376271 17572 net.cpp:434] mbox_loc <- conv6_2_mbox_loc_flat
I0615 17:01:00.376281 17572 net.cpp:434] mbox_loc <- conv7_2_mbox_loc_flat
I0615 17:01:00.376291 17572 net.cpp:434] mbox_loc <- conv8_2_mbox_loc_flat
I0615 17:01:00.376298 17572 net.cpp:434] mbox_loc <- conv9_2_mbox_loc_flat
I0615 17:01:00.376309 17572 net.cpp:408] mbox_loc -> mbox_loc
I0615 17:01:00.376339 17572 net.cpp:150] Setting up mbox_loc
I0615 17:01:00.376346 17572 net.cpp:157] Top shape: 1 34928 (34928)
I0615 17:01:00.376353 17572 net.cpp:165] Memory required for data: 249100656
I0615 17:01:00.376358 17572 layer_factory.hpp:77] Creating layer mbox_conf
I0615 17:01:00.376369 17572 net.cpp:100] Creating Layer mbox_conf
I0615 17:01:00.376377 17572 net.cpp:434] mbox_conf <- conv4_3_norm_mbox_conf_flat
I0615 17:01:00.376385 17572 net.cpp:434] mbox_conf <- fc7_mbox_conf_flat
I0615 17:01:00.376392 17572 net.cpp:434] mbox_conf <- conv6_2_mbox_conf_flat
I0615 17:01:00.376399 17572 net.cpp:434] mbox_conf <- conv7_2_mbox_conf_flat
I0615 17:01:00.376405 17572 net.cpp:434] mbox_conf <- conv8_2_mbox_conf_flat
I0615 17:01:00.376413 17572 net.cpp:434] mbox_conf <- conv9_2_mbox_conf_flat
I0615 17:01:00.376421 17572 net.cpp:408] mbox_conf -> mbox_conf
I0615 17:01:00.376446 17572 net.cpp:150] Setting up mbox_conf
I0615 17:01:00.376454 17572 net.cpp:157] Top shape: 1 96052 (96052)
I0615 17:01:00.376459 17572 net.cpp:165] Memory required for data: 249484864
I0615 17:01:00.376464 17572 layer_factory.hpp:77] Creating layer mbox_priorbox
I0615 17:01:00.376473 17572 net.cpp:100] Creating Layer mbox_priorbox
I0615 17:01:00.376499 17572 net.cpp:434] mbox_priorbox <- conv4_3_norm_mbox_priorbox
I0615 17:01:00.376514 17572 net.cpp:434] mbox_priorbox <- fc7_mbox_priorbox
I0615 17:01:00.376521 17572 net.cpp:434] mbox_priorbox <- conv6_2_mbox_priorbox
I0615 17:01:00.376528 17572 net.cpp:434] mbox_priorbox <- conv7_2_mbox_priorbox
I0615 17:01:00.376536 17572 net.cpp:434] mbox_priorbox <- conv8_2_mbox_priorbox
I0615 17:01:00.376549 17572 net.cpp:434] mbox_priorbox <- conv9_2_mbox_priorbox
I0615 17:01:00.376556 17572 net.cpp:408] mbox_priorbox -> mbox_priorbox
I0615 17:01:00.376583 17572 net.cpp:150] Setting up mbox_priorbox
I0615 17:01:00.376591 17572 net.cpp:157] Top shape: 1 2 34928 (69856)
I0615 17:01:00.376597 17572 net.cpp:165] Memory required for data: 249764288
I0615 17:01:00.376605 17572 layer_factory.hpp:77] Creating layer mbox_conf_reshape
I0615 17:01:00.376616 17572 net.cpp:100] Creating Layer mbox_conf_reshape
I0615 17:01:00.376621 17572 net.cpp:434] mbox_conf_reshape <- mbox_conf
I0615 17:01:00.376632 17572 net.cpp:408] mbox_conf_reshape -> mbox_conf_reshape
I0615 17:01:00.376669 17572 net.cpp:150] Setting up mbox_conf_reshape
I0615 17:01:00.376677 17572 net.cpp:157] Top shape: 1 8732 11 (96052)
I0615 17:01:00.376682 17572 net.cpp:165] Memory required for data: 250148496
I0615 17:01:00.376688 17572 layer_factory.hpp:77] Creating layer mbox_conf_softmax
I0615 17:01:00.376699 17572 net.cpp:100] Creating Layer mbox_conf_softmax
I0615 17:01:00.376706 17572 net.cpp:434] mbox_conf_softmax <- mbox_conf_reshape
I0615 17:01:00.376714 17572 net.cpp:408] mbox_conf_softmax -> mbox_conf_softmax
I0615 17:01:00.377043 17572 net.cpp:150] Setting up mbox_conf_softmax
I0615 17:01:00.377056 17572 net.cpp:157] Top shape: 1 8732 11 (96052)
I0615 17:01:00.377061 17572 net.cpp:165] Memory required for data: 250532704
I0615 17:01:00.377068 17572 layer_factory.hpp:77] Creating layer mbox_conf_flatten
I0615 17:01:00.377080 17572 net.cpp:100] Creating Layer mbox_conf_flatten
I0615 17:01:00.377087 17572 net.cpp:434] mbox_conf_flatten <- mbox_conf_softmax
I0615 17:01:00.377097 17572 net.cpp:408] mbox_conf_flatten -> mbox_conf_flatten
I0615 17:01:00.377123 17572 net.cpp:150] Setting up mbox_conf_flatten
I0615 17:01:00.377132 17572 net.cpp:157] Top shape: 1 96052 (96052)
I0615 17:01:00.377137 17572 net.cpp:165] Memory required for data: 250916912
I0615 17:01:00.377142 17572 layer_factory.hpp:77] Creating layer detection_out
I0615 17:01:00.377162 17572 net.cpp:100] Creating Layer detection_out
I0615 17:01:00.377168 17572 net.cpp:434] detection_out <- mbox_loc
I0615 17:01:00.377176 17572 net.cpp:434] detection_out <- mbox_conf_flatten
I0615 17:01:00.377183 17572 net.cpp:434] detection_out <- mbox_priorbox
I0615 17:01:00.377192 17572 net.cpp:408] detection_out -> detection_out
W0615 17:01:00.389029 17572 detection_output_layer.cpp:49] Failed to create directory: /home/zs/data/VOCdevkit/results/VOC2007/SSD_300x300_0319_ini/Main
I0615 17:01:00.407284 17572 net.cpp:150] Setting up detection_out
I0615 17:01:00.407335 17572 net.cpp:157] Top shape: 1 1 1 7 (7)
I0615 17:01:00.407341 17572 net.cpp:165] Memory required for data: 250916940
I0615 17:01:00.407351 17572 layer_factory.hpp:77] Creating layer detection_eval
I0615 17:01:00.407369 17572 net.cpp:100] Creating Layer detection_eval
I0615 17:01:00.407380 17572 net.cpp:434] detection_eval <- detection_out
I0615 17:01:00.407392 17572 net.cpp:434] detection_eval <- label
I0615 17:01:00.407404 17572 net.cpp:408] detection_eval -> detection_eval
I0615 17:01:00.407516 17572 net.cpp:150] Setting up detection_eval
I0615 17:01:00.407524 17572 net.cpp:157] Top shape: 1 1 11 5 (55)
I0615 17:01:00.407529 17572 net.cpp:165] Memory required for data: 250917160
I0615 17:01:00.407536 17572 net.cpp:228] detection_eval does not need backward computation.
I0615 17:01:00.407542 17572 net.cpp:228] detection_out does not need backward computation.
I0615 17:01:00.407549 17572 net.cpp:228] mbox_conf_flatten does not need backward computation.
I0615 17:01:00.407557 17572 net.cpp:228] mbox_conf_softmax does not need backward computation.
…
