…
      sampler {
        min_scale: 0.3
        max_scale: 1
        min_aspect_ratio: 0.5
        max_aspect_ratio: 2
      }
      sample_constraint {
        min_jaccard_overlap: 0.9
      }
      max_sample: 1
      max_trials: 50
    }
    batch_sampler {
      sampler {
        min_scale: 0.3
        max_scale: 1
        min_aspect_ratio: 0.5
        max_aspect_ratio: 2
      }
      sample_constraint {
        max_jaccard_overlap: 1
      }
      max_sample: 1
      max_trials: 50
    }
    label_map_file: "data/NWPU_VHR/labelmap_NWPU_VHR.prototxt"
  }
}
layer {
  name: "conv1_1"
  type: "Convolution"
  bottom: "data"
  top: "conv1_1"
  param {
    lr_mult: 1
    decay_mult: 1
  }
  param {
    lr_mult: 2
    decay_mult: 0
  }
  convolution_param {
    num_output: 64
    pad: 1
    kernel_size: 3
    weight_filler {
      type: "xavier"
    }
    bias_filler {
      type: "constant"
      value: 0
    }
  }
}
layer {
  name: "relu1_1"
  type: "ReLU"
  bottom: "conv1_1"
  top: "conv1_1"
}
layer {
  name: "conv1_2"
  type: "Convolution"
  bottom: "conv1_1"
  top: "conv1_2"
  param {
    lr_mult: 1
    decay_mult: 1
  }
  param {
    lr_mult: 2
    decay_mult: 0
  }
  convolution_param {
    num_output: 64
    pad: 1
    kernel_size: 3
    weight_filler {
      type: "xavier"
    }
    bias_filler {
      type: "constant"
      value: 0
    }
  }
}
layer {
  name: "relu1_2"
  type: "ReLU"
  bottom: "conv1_2"
  top: "conv1_2"
}
layer {
  name: "pool1"
  type: "Pooling"
  bottom: "conv1_2"
  top: "pool1"
  pooling_param {
    pool: MAX
    kernel_size: 2
    stride: 2
  }
}
layer {
  name: "conv2_1"
  type: "Convolution"
  bottom: "pool1"
  top: "conv2_1"
  param {
    lr_mult: 1
    decay_mult: 1
  }
  param {
    lr_mult: 2
    decay_mult: 0
  }
  convolution_param {
    num_output: 128
    pad: 1
    kernel_size: 3
    weight_filler {
      type: "xavier"
    }
    bias_filler {
      type: "constant"
      value: 0
    }
  }
}
layer {
  name: "relu2_1"
  type: "ReLU"
  bottom: "conv2_1"
  top: "conv2_1"
}
layer {
  name: "conv2_2"
  type: "Convolution"
  bottom: "conv2_1"
  top: "conv2_2"
  param {
    lr_mult: 1
    decay_mult: 1
  }
  param {
    lr_mult: 2
    decay_mult: 0
  }
  convolution_param {
    num_output: 128
    pad: 1
    kernel_size: 3
    weight_filler {
      type: "xavier"
    }
    bias_filler {
      type: "constant"
      value: 0
    }
  }
}
layer {
  name: "relu2_2"
  type: "ReLU"
  bottom: "conv2_2"
  top: "conv2_2"
}
layer {
  name: "pool2"
  type: "Pooling"
  bottom: "conv2_2"
  top: "pool2"
  pooling_param {
    pool: MAX
    kernel_size: 2
    stride: 2
  }
}
layer {
  name: "conv3_1"
  type: "Convolution"
  bottom: "pool2"
  top: "conv3_1"
  param {
    lr_mult: 1
    decay_mult: 1
  }
  param {
    lr_mult: 2
    decay_mult: 0
  }
  convolution_param {
    num_output: 256
    pad: 1
    kernel_size: 3
    weight_filler {
      type: "xavier"
    }
    bias_filler {
      type: "constant"
      value: 0
    }
  }
}
layer {
  name: "relu3_1"
  type: "ReLU"
  bottom: "conv3_1"
  top: "conv3_1"
}
layer {
  name: "conv3_2"
  type: "Convolution"
  bottom: "conv3_1"
  top: "conv3_2"
  param {
    lr_mult: 1
    decay_mult: 1
  }
  param {
    lr_mult: 2
    decay_mult: 0
  }
  convolution_param {
    num_output: 256
    pad: 1
    kernel_size: 3
    weight_filler {
      type: "xavier"
    }
    bias_filler {
      type: "constant"
      value: 0
    }
  }
}
layer {
  name: "relu3_2"
  type: "ReLU"
  bottom: "conv3_2"
  top: "conv3_2"
}
layer {
  name: "conv3_3"
  type: "Convolution"
  bottom: "conv3_2"
  top: "conv3_3"
  param {
    lr_mult: 1
    decay_mult: 1
  }
  param {
    lr_mult: 2
    decay_mult: 0
  }
  convolution_param {
    num_output: 256
    pad: 1
    kernel_size: 3
    weight_filler {
      type: "xavier"
    }
    bias_filler {
      type: "constant"
      value: 0
    }
  }
}
layer {
  name: "relu3_3"
  type: "ReLU"
  bottom: "conv3_3"
  top: "conv3_3"
}
layer {
  name: "pool3"
  type: "Pooling"
  bottom: "conv3_3"
  top: "pool3"
  pooling_param {
    pool: MAX
    kernel_size: 2
    stride: 2
  }
}
layer {
  name: "conv4_1"
  type: "Convolution"
  bottom: "pool3"
  top: "conv4_1"
  param {
    lr_mult: 1
    decay_mult: 1
  }
  param {
    lr_mult: 2
    decay_mult: 0
  }
  convolution_param {
    num_output: 512
    pad: 1
    kernel_size: 3
    weight_filler {
      type: "xavier"
    }
    bias_filler {
      type: "constant"
      value: 0
    }
  }
}
layer {
  name: "relu4_1"
  type: "ReLU"
  bottom: "conv4_1"
  top: "conv4_1"
}
layer {
  name: "conv4_2"
  type: "Convolution"
  bottom: "conv4_1"
  top: "conv4_2"
  param {
    lr_mult: 1
    decay_mult: 1
  }
  param {
    lr_mult: 2
    decay_mult: 0
  }
  convolution_param {
    num_output: 512
    pad: 1
    kernel_size: 3
    weight_filler {
      type: "xavier"
    }
    bias_filler {
      type: "constant"
      value: 0
    }
  }
}
layer {
  name: "relu4_2"
  type: "ReLU"
  bottom: "conv4_2"
  top: "conv4_2"
}
layer {
  name: "conv4_3"
  type: "Convolution"
  bottom: "conv4_2"
  top: "conv4_3"
  param {
    lr_mult: 1
    decay_mult: 1
  }
  param {
    lr_mult: 2
    decay_mult: 0
  }
  convolution_param {
    num_output: 512
    pad: 1
    kernel_size: 3
    weight_filler {
      type: "xavier"
    }
    bias_filler {
      type: "constant"
      value: 0
    }
  }
}
layer {
  name: "relu4_3"
  type: "ReLU"
  bottom: "conv4_3"
  top: "conv4_3"
}
layer {
  name: "pool4"
  type: "Pooling"
  bottom: "conv4_3"
  top: "pool4"
  pooling_param {
    pool: MAX
    kernel_size: 2
    stride: 2
  }
}
layer {
  name: "conv5_1"
  type: "Convolution"
  bottom: "pool4"
  top: "conv5_1"
  param {
    lr_mult: 1
    decay_mult: 1
  }
  param {
    lr_mult: 2
    decay_mult: 0
  }
  convolution_param {
    num_output: 512
    pad: 1
    kernel_size: 3
    weight_filler {
      type: "xavier"
    }
    bias_filler {
      type: "constant"
      value: 0
    }
    dilation: 1
  }
}
layer {
  name: "relu5_1"
  type: "ReLU"
  bottom: "conv5_1"
  top: "conv5_1"
}
layer {
  name: "conv5_2"
  type: "Convolution"
  bottom: "conv5_1"
  top: "conv5_2"
  param {
    lr_mult: 1
    decay_mult: 1
  }
  param {
    lr_mult: 2
    decay_mult: 0
  }
  convolution_param {
    num_output: 512
    pad: 1
    kernel_size: 3
    weight_filler {
      type: "xavier"
    }
    bias_filler {
      type: "constant"
      value: 0
    }
    dilation: 1
  }
}
layer {
  name: "relu5_2"
  type: "ReLU"
  bottom: "conv5_2"
  top: "conv5_2"
}
layer {
  name: "conv5_3"
  type: "Convolution"
  bottom: "conv5_2"
  top: "conv5_3"
  param {
    lr_mult: 1
    decay_mult: 1
  }
  param {
    lr_mult: 2
    decay_mult: 0
  }
  convolution_param {
    num_output: 512
    pad: 1
    kernel_size: 3
    weight_filler {
      type: "xavier"
    }
    bias_filler {
      type: "constant"
      value: 0
    }
    dilation: 1
  }
}
layer {
  name: "relu5_3"
  type: "ReLU"
  bottom: "conv5_3"
  top: "conv5_3"
}
layer {
  name: "pool5"
  type: "Pooling"
  bottom: "conv5_3"
  top: "pool5"
  pooling_param {
    pool: MAX
    kernel_size: 3
    stride: 1
    pad: 1
  }
}
layer {
  name: "fc6"
  type: "Convolution"
  bottom: "pool5"
  top: "fc6"
  param {
    lr_mult: 1
    decay_mult: 1
  }
  param {
    lr_mult: 2
    decay_mult: 0
  }
  convolution_param {
    num_output: 1024
    pad: 6
    kernel_size: 3
    weight_filler {
      type: "xavier"
    }
    bias_filler {
      type: "constant"
      value: 0
    }
    dilation: 6
  }
}
layer {
  name: "relu6"
  type: "ReLU"
  bottom: "fc6"
  top: "fc6"
}
layer {
  name: "fc7"
  type: "Convolution"
  bottom: "fc6"
  top: "fc7"
  param {
    lr_mult: 1
    decay_mult: 1
  }
  param {
    lr_mult: 2
    decay_mult: 0
  }
  convolution_param {
    num_output: 1024
    kernel_size: 1
    weight_filler {
      type: "xavier"
    }
    bias_filler {
      type: "constant"
      value: 0
    }
  }
}
layer {
  name: "relu7"
  type: "ReLU"
  bottom: "fc7"
  top: "fc7"
}
layer {
  name: "conv6_1"
  type: "Convolution"
  bottom: "fc7"
  top: "conv6_1"
  param {
    lr_mult: 1
    decay_mult: 1
  }
  param {
    lr_mult: 2
    decay_mult: 0
  }
  convolution_param {
    num_output: 256
    pad: 0
    kernel_size: 1
    stride: 1
    weight_filler {
      type: "xavier"
    }
    bias_filler {
      type: "constant"
      value: 0
    }
  }
}
layer {
  name: "conv6_1_relu"
  type: "ReLU"
  bottom: "conv6_1"
  top: "conv6_1"
}
layer {
  name: "conv6_2"
  type: "Convolution"
  bottom: "conv6_1"
  top: "conv6_2"
  param {
    lr_mult: 1
    decay_mult: 1
  }
  param {
    lr_mult: 2
    decay_mult: 0
  }
  convolution_param {
    num_output: 512
    pad: 1
    kernel_size: 3
    stride: 2
    weight_filler {
      type: "xavier"
    }
    bias_filler {
      type: "constant"
      value: 0
    }
  }
}
layer {
  name: "conv6_2_relu"
  type: "ReLU"
  bottom: "conv6_2"
  top: "conv6_2"
}
layer {
  name: "conv7_1"
  type: "Convolution"
  bottom: "conv6_2"
  top: "conv7_1"
  param {
    lr_mult: 1
    decay_mult: 1
  }
  param {
    lr_mult: 2
    decay_mult: 0
  }
  convolution_param {
    num_output: 128
    pad: 0
    kernel_size: 1
    stride: 1
    weight_filler {
      type: "xavier"
    }
    bias_filler {
      type: "constant"
      value: 0
    }
  }
}
layer {
  name: "conv7_1_relu"
  type: "ReLU"
  bottom: "conv7_1"
  top: "conv7_1"
}
layer {
  name: "conv7_2"
  type: "Convolution"
  bottom: "conv7_1"
  top: "conv7_2"
  param {
    lr_mult: 1
    decay_mult: 1
  }
  param {
    lr_mult: 2
    decay_mult: 0
  }
  convolution_param {
    num_output: 256
    pad: 1
    kernel_size: 3
    stride: 2
    weight_filler {
      type: "xavier"
    }
    bias_filler {
      type: "constant"
      value: 0
    }
  }
}
layer {
  name: "conv7_2_relu"
  type: "ReLU"
  bottom: "conv7_2"
  top: "conv7_2"
}
layer {
  name: "conv8_1"
  type: "Convolution"
  bottom: "conv7_2"
  top: "conv8_1"
  param {
    lr_mult: 1
    decay_mult: 1
  }
  param {
    lr_mult: 2
    decay_mult: 0
  }
  convolution_param {
    num_output: 128
    pad: 0
    kernel_size: 1
    stride: 1
    weight_filler {
      type: "xavier"
    }
    bias_filler {
      type: "constant"
      value: 0
    }
  }
}
layer {
  name: "conv8_1_relu"
  type: "ReLU"
  bottom: "conv8_1"
  top: "conv8_1"
}
layer {
  name: "conv8_2"
  type: "Convolution"
  bottom: "conv8_1"
  top: "conv8_2"
  param {
    lr_mult: 1
    decay_mult: 1
  }
  param {
    lr_mult: 2
    decay_mult: 0
  }
  convolution_param {
    num_output: 256
    pad: 0
    kernel_size: 3
    stride: 1
    weight_filler {
      type: "xavier"
    }
    bias_filler {
      type: "constant"
      value: 0
    }
  }
}
layer {
  name: "conv8_2_relu"
  type: "ReLU"
  bottom: "conv8_2"
  top: "conv8_2"
}
layer {
  name: "conv9_1"
  type: "Convolution"
  bottom: "conv8_2"
  top: "conv9_1"
  param {
    lr_mult: 1
    decay_mult: 1
  }
  param {
    lr_mult: 2
    decay_mult: 0
  }
  convolution_param {
    num_output: 128
    pad: 0
    kernel_size: 1
    stride: 1
    weight_filler {
      type: "xavier"
    }
    bias_filler {
      type: "constant"
      value: 0
    }
  }
}
layer {
  name: "conv9_1_relu"
  type: "ReLU"
  bottom: "conv9_1"
  top: "conv9_1"
}
layer {
  name: "conv9_2"
  type: "Convolution"
  bottom: "conv9_1"
  top: "conv9_2"
  param {
    lr_mult: 1
    decay_mult: 1
  }
  param {
    lr_mult: 2
    decay_mult: 0
  }
  convolution_param {
    num_output: 256
    pad: 0
    kernel_size: 3
    stride: 1
    weight_filler {
      type: "xavier"
    }
    bias_filler {
      type: "constant"
      value: 0
    }
  }
}
layer {
  name: "conv9_2_relu"
  type: "ReLU"
  bottom: "conv9_2"
  top: "conv9_2"
}
layer {
  name: "conv4_3_norm"
  type: "Normalize"
  bottom: "conv4_3"
  top: "conv4_3_norm"
  norm_param {
    across_spatial: false
    scale_filler {
      type: "constant"
      value: 20
    }
    channel_shared: false
  }
}
layer {
  name: "conv4_3_norm_mbox_loc"
  type: "Convolution"
  bottom: "conv4_3_norm"
  top: "conv4_3_norm_mbox_loc"
  param {
    lr_mult: 1
    decay_mult: 1
  }
  param {
    lr_mult: 2
    decay_mult: 0
  }
  convolution_param {
    num_output: 16
    pad: 1
    kernel_size: 3
    stride: 1
    weight_filler {
      type: "xavier"
    }
    bias_filler {
      type: "constant"
      value: 0
    }
  }
}
layer {
  name: "conv4_3_norm_mbox_loc_perm"
  type: "Permute"
  bottom: "conv4_3_norm_mbox_loc"
  top: "conv4_3_norm_mbox_loc_perm"
  permute_param {
    order: 0
    order: 2
    order: 3
    order: 1
  }
}
layer {
  name: "conv4_3_norm_mbox_loc_flat"
  type: "Flatten"
  bottom: "conv4_3_norm_mbox_loc_perm"
  top: "conv4_3_norm_mbox_loc_flat"
  flatten_param {
    axis: 1
  }
}
layer {
  name: "conv4_3_norm_mbox_conf"
  type: "Convolution"
  bottom: "conv4_3_norm"
  top: "conv4_3_norm_mbox_conf"
  param {
    lr_mult: 1
    decay_mult: 1
  }
  param {
    lr_mult: 2
    decay_mult: 0
  }
  convolution_param {
    num_output: 44
    pad: 1
    kernel_size: 3
    stride: 1
    weight_filler {
      type: "xavier"
    }
    bias_filler {
      type: "constant"
      value: 0
    }
  }
}
layer {
  name: "conv4_3_norm_mbox_conf_perm"
  type: "Permute"
  bottom: "conv4_3_norm_mbox_conf"
  top: "conv4_3_norm_mbox_conf_perm"
  permute_param {
    order: 0
    order: 2
    order: 3
    order: 1
  }
}
layer {
  name: "conv4_3_norm_mbox_conf_flat"
  type: "Flatten"
  bottom: "conv4_3_norm_mbox_conf_perm"
  top: "conv4_3_norm_mbox_conf_flat"
  flatten_param {
    axis: 1
  }
}
layer {
  name: "conv4_3_norm_mbox_priorbox"
  type: "PriorBox"
  bottom: "conv4_3_norm"
  bottom: "data"
  top: "conv4_3_norm_mbox_priorbox"
  prior_box_param {
    min_size: 30
    max_size: 60
    aspect_ratio: 2
    flip: true
    clip: false
    variance: 0.1
    variance: 0.1
    variance: 0.2
    variance: 0.2
    step: 8
    offset: 0.5
  }
}
layer {
  name: "fc7_mbox_loc"
  type: "Convolution"
  bottom: "fc7"
  top: "fc7_mbox_loc"
  param {
    lr_mult: 1
    decay_mult: 1
  }
  param {
    lr_mult: 2
    decay_mult: 0
  }
  convolution_param {
    num_output: 24
    pad: 1
    kernel_size: 3
    stride: 1
    weight_filler {
      type: "xavier"
    }
    bias_filler {
      type: "constant"
      value: 0
    }
  }
}
layer {
  name: "fc7_mbox_loc_perm"
  type: "Permute"
  bottom: "fc7_mbox_loc"
  top: "fc7_mbox_loc_perm"
  permute_param {
    order: 0
    order: 2
    order: 3
    order: 1
  }
}
layer {
  name: "fc7_mbox_loc_flat"
  type: "Flatten"
  bottom: "fc7_mbox_loc_perm"
  top: "fc7_mbox_loc_flat"
  flatten_param {
    axis: 1
  }
}
layer {
  name: "fc7_mbox_conf"
  type: "Convolution"
  bottom: "fc7"
  top: "fc7_mbox_conf"
  param {
    lr_mult: 1
    decay_mult: 1
  }
  param {
    lr_mult: 2
    decay_mult: 0
  }
  convolution_param {
    num_output: 66
    pad: 1
    kernel_size: 3
    stride: 1
    weight_filler {
      type: "xavier"
    }
    bias_filler {
      type: "constant"
      value: 0
    }
  }
}
layer {
  name: "fc7_mbox_conf_perm"
  type: "Permute"
  bottom: "fc7_mbox_conf"
  top: "fc7_mbox_conf_perm"
  permute_param {
    order: 0
    order: 2
    order: 3
    order: 1
  }
}
layer {
  name: "fc7_mbox_conf_flat"
  type: "Flatten"
  bottom: "fc7_mbox_conf_perm"
  top: "fc7_mbox_conf_flat"
  flatten_param {
    axis: 1
  }
}
layer {
  name: "fc7_mbox_priorbox"
  type: "PriorBox"
  bottom: "fc7"
  bottom: "data"
  top: "fc7_mbox_priorbox"
  prior_box_param {
    min_size: 60
    max_size: 111
    aspect_ratio: 2
    aspect_ratio: 3
    flip: true
    clip: false
    variance: 0.1
    variance: 0.1
    variance: 0.2
    variance: 0.2
    step: 16
    offset: 0.5
  }
}
layer {
  name: "conv6_2_mbox_loc"
  type: "Convolution"
  bottom: "conv6_2"
  top: "conv6_2_mbox_loc"
  param {
    lr_mult: 1
    decay_mult: 1
  }
  param {
    lr_mult: 2
    decay_mult: 0
  }
  convolution_param {
    num_output: 24
    pad: 1
    kernel_size: 3
    stride: 1
    weight_filler {
      type: "xavier"
    }
    bias_filler {
      type: "constant"
      value: 0
    }
  }
}
layer {
  name: "conv6_2_mbox_loc_perm"
  type: "Permute"
  bottom: "conv6_2_mbox_loc"
  top: "conv6_2_mbox_loc_perm"
  permute_param {
    order: 0
    order: 2
    order: 3
    order: 1
  }
}
layer {
  name: "conv6_2_mbox_loc_flat"
  type: "Flatten"
  bottom: "conv6_2_mbox_loc_perm"
  top: "conv6_2_mbox_loc_flat"
  flatten_param {
    axis: 1
  }
}
layer {
  name: "conv6_2_mbox_conf"
  type: "Convolution"
  bottom: "conv6_2"
  top: "conv6_2_mbox_conf"
  param {
    lr_mult: 1
    decay_mult: 1
  }
  param {
    lr_mult: 2
    decay_mult: 0
  }
  convolution_param {
    num_output: 66
    pad: 1
    kernel_size: 3
    stride: 1
    weight_filler {
      type: "xavier"
    }
    bias_filler {
      type: "constant"
      value: 0
    }
  }
}
layer {
  name: "conv6_2_mbox_conf_perm"
  type: "Permute"
  bottom: "conv6_2_mbox_conf"
  top: "conv6_2_mbox_conf_perm"
  permute_param {
    order: 0
    order: 2
    order: 3
    order: 1
  }
}
layer {
  name: "conv6_2_mbox_conf_flat"
  type: "Flatten"
  bottom: "conv6_2_mbox_conf_perm"
  top: "conv6_2_mbox_conf_flat"
  flatten_param {
    axis: 1
  }
}
layer {
  name: "conv6_2_mbox_priorbox"
  type: "PriorBox"
  bottom: "conv6_2"
  bottom: "data"
  top: "conv6_2_mbox_priorbox"
  prior_box_param {
    min_size: 111
    max_size: 162
    aspect_ratio: 2
    aspect_ratio: 3
    flip: true
    clip: false
    variance: 0.1
    variance: 0.1
    variance: 0.2
    variance: 0.2
    step: 32
    offset: 0.5
  }
}
layer {
  name: "conv7_2_mbox_loc"
  type: "Convolution"
  bottom: "conv7_2"
  top: "conv7_2_mbox_loc"
  param {
    lr_mult: 1
    decay_mult: 1
  }
  param {
    lr_mult: 2
    decay_mult: 0
  }
  convolution_param {
    num_output: 24
    pad: 1
    kernel_size: 3
    stride: 1
    weight_filler {
      type: "xavier"
    }
    bias_filler {
      type: "constant"
      value: 0
    }
  }
}
layer {
  name: "conv7_2_mbox_loc_perm"
  type: "Permute"
  bottom: "conv7_2_mbox_loc"
  top: "conv7_2_mbox_loc_perm"
  permute_param {
    order: 0
    order: 2
    order: 3
    order: 1
  }
}
layer {
  name: "conv7_2_mbox_loc_flat"
  type: "Flatten"
  bottom: "conv7_2_mbox_loc_perm"
  top: "conv7_2_mbox_loc_flat"
  flatten_param {
    axis: 1
  }
}
layer {
  name: "conv7_2_mbox_conf"
  type: "Convolution"
  bottom: "conv7_2"
  top: "conv7_2_mbox_conf"
  param {
    lr_mult: 1
    decay_mult: 1
  }
  param {
    lr_mult: 2
    decay_mult: 0
  }
  convolution_param {
    num_output: 66
    pad: 1
    kernel_size: 3
    stride: 1
    weight_filler {
      type: "xavier"
    }
    bias_filler {
      type: "constant"
      value: 0
    }
  }
}
layer {
  name: "conv7_2_mbox_conf_perm"
  type: "Permute"
  bottom: "conv7_2_mbox_conf"
  top: "conv7_2_mbox_conf_perm"
  permute_param {
    order: 0
    order: 2
    order: 3
    order: 1
  }
}
layer {
  name: "conv7_2_mbox_conf_flat"
  type: "Flatten"
  bottom: "conv7_2_mbox_conf_perm"
  top: "conv7_2_mbox_conf_flat"
  flatten_param {
    axis: 1
  }
}
layer {
  name: "conv7_2_mbox_priorbox"
  type: "PriorBox"
  bottom: "conv7_2"
  bottom: "data"
  top: "conv7_2_mbox_priorbox"
  prior_box_param {
    min_size: 162
    max_size: 213
    aspect_ratio: 2
    aspect_ratio: 3
    flip: true
    clip: false
    variance: 0.1
    variance: 0.1
    variance: 0.2
    variance: 0.2
    step: 64
    offset: 0.5
  }
}
layer {
  name: "conv8_2_mbox_loc"
  type: "Convolution"
  bottom: "conv8_2"
  top: "conv8_2_mbox_loc"
  param {
    lr_mult: 1
    decay_mult: 1
  }
  param {
    lr_mult: 2
    decay_mult: 0
  }
  convolution_param {
    num_output: 16
    pad: 1
    kernel_size: 3
    stride: 1
    weight_filler {
      type: "xavier"
    }
    bias_filler {
      type: "constant"
      value: 0
    }
  }
}
layer {
  name: "conv8_2_mbox_loc_perm"
  type: "Permute"
  bottom: "conv8_2_mbox_loc"
  top: "conv8_2_mbox_loc_perm"
  permute_param {
    order: 0
    order: 2
    order: 3
    order: 1
  }
}
layer {
  name: "conv8_2_mbox_loc_flat"
  type: "Flatten"
  bottom: "conv8_2_mbox_loc_perm"
  top: "conv8_2_mbox_loc_flat"
  flatten_param {
    axis: 1
  }
}
layer {
  name: "conv8_2_mbox_conf"
  type: "Convolution"
  bottom: "conv8_2"
  top: "conv8_2_mbox_conf"
  param {
    lr_mult: 1
    decay_mult: 1
  }
  param {
    lr_mult: 2
    decay_mult: 0
  }
  convolution_param {
    num_output: 44
    pad: 1
    kernel_size: 3
    stride: 1
    weight_filler {
      type: "xavier"
    }
    bias_filler {
      type: "constant"
      value: 0
    }
  }
}
layer {
  name: "conv8_2_mbox_conf_perm"
  type: "Permute"
  bottom: "conv8_2_mbox_conf"
  top: "conv8_2_mbox_conf_perm"
  permute_param {
    order: 0
    order: 2
    order: 3
    order: 1
  }
}
layer {
  name: "conv8_2_mbox_conf_flat"
  type: "Flatten"
  bottom: "conv8_2_mbox_conf_perm"
  top: "conv8_2_mbox_conf_flat"
  flatten_param {
    axis: 1
  }
}
layer {
  name: "conv8_2_mbox_priorbox"
  type: "PriorBox"
  bottom: "conv8_2"
  bottom: "data"
  top: "conv8_2_mbox_priorbox"
  prior_box_param {
    min_size: 213
    max_size: 264
    aspect_ratio: 2
    flip: true
    clip: false
    variance: 0.1
    variance: 0.1
    variance: 0.2
    variance: 0.2
    step: 100
    offset: 0.5
  }
}
layer {
  name: "conv9_2_mbox_loc"
  type: "Convolution"
  bottom: "conv9_2"
  top: "conv9_2_mbox_loc"
  param {
    lr_mult: 1
    decay_mult: 1
  }
  param {
    lr_mult: 2
    decay_mult: 0
  }
  convolution_param {
    num_output: 16
    pad: 1
    kernel_size: 3
    stride: 1
    weight_filler {
      type: "xavier"
    }
    bias_filler {
      type: "constant"
      value: 0
    }
  }
}
layer {
  name: "conv9_2_mbox_loc_perm"
  type: "Permute"
  bottom: "conv9_2_mbox_loc"
  top: "conv9_2_mbox_loc_perm"
  permute_param {
    order: 0
    order: 2
    order: 3
    order: 1
  }
}
layer {
  name: "conv9_2_mbox_loc_flat"
  type: "Flatten"
  bottom: "conv9_2_mbox_loc_perm"
  top: "conv9_2_mbox_loc_flat"
  flatten_param {
    axis: 1
  }
}
layer {
  name: "conv9_2_mbox_conf"
  type: "Convolution"
  bottom: "conv9_2"
  top: "conv9_2_mbox_conf"
  param {
    lr_mult: 1
    decay_mult: 1
  }
  param {
    lr_mult: 2
    decay_mult: 0
  }
  convolution_param {
    num_output: 44
    pad: 1
    kernel_size: 3
    stride: 1
    weight_filler {
      type: "xavier"
    }
    bias_filler {
      type: "constant"
      value: 0
    }
  }
}
layer {
  name: "conv9_2_mbox_conf_perm"
  type: "Permute"
  bottom: "conv9_2_mbox_conf"
  top: "conv9_2_mbox_conf_perm"
  permute_param {
    order: 0
    order: 2
    order: 3
    order: 1
  }
}
layer {
  name: "conv9_2_mbox_conf_flat"
  type: "Flatten"
  bottom: "conv9_2_mbox_conf_perm"
  top: "conv9_2_mbox_conf_flat"
  flatten_param {
    axis: 1
  }
}
layer {
  name: "conv9_2_mbox_priorbox"
  type: "PriorBox"
  bottom: "conv9_2"
  bottom: "data"
  top: "conv9_2_mbox_priorbox"
  prior_box_param {
    min_size: 264
    max_size: 315
    aspect_ratio: 2
    flip: true
    clip: false
    variance: 0.1
    variance: 0.1
    variance: 0.2
    variance: 0.2
    step: 300
    offset: 0.5
  }
}
layer {
  name: "mbox_loc"
  type: "Concat"
  bottom: "conv4_3_norm_mbox_loc_flat"
  bottom: "fc7_mbox_loc_flat"
  bottom: "conv6_2_mbox_loc_flat"
  bottom: "conv7_2_mbox_loc_flat"
  bottom: "conv8_2_mbox_loc_flat"
  bottom: "conv9_2_mbox_loc_flat"
  top: "mbox_loc"
  concat_param {
    axis: 1
  }
}
layer {
  name: "mbox_conf"
  type: "Concat"
  bottom: "conv4_3_norm_mbox_conf_flat"
  bottom: "fc7_mbox_conf_flat"
  bottom: "conv6_2_mbox_conf_flat"
  bottom: "conv7_2_mbox_conf_flat"
  bottom: "conv8_2_mbox_conf_flat"
  bottom: "conv9_2_mbox_conf_flat"
  top: "mbox_conf"
  concat_param {
    axis: 1
  }
}
layer {
  name: "mbox_priorbox"
  type: "Concat"
  bottom: "conv4_3_norm_mbox_priorbox"
  bottom: "fc7_mbox_priorbox"
  bottom: "conv6_2_mbox_priorbox"
  bottom: "conv7_2_mbox_priorbox"
  bottom: "conv8_2_mbox_priorbox"
  bottom: "conv9_2_mbox_priorbox"
  top: "mbox_priorbox"
  concat_param {
    axis: 2
  }
}
layer {
  name: "mbox_loss"
  type: "MultiBoxLoss"
  bottom: "mbox_loc"
  bottom: "mbox_conf"
  bottom: "mbox_priorbox"
  bottom: "label"
  top: "mbox_loss"
  include {
    phase: TRAIN
  }
  propagate_down: true
  propagate_down: true
  propagate_down: false
  propagate_down: false
  loss_param {
    normalization: VALID
  }
  multibox_loss_param {
    loc_loss_type: SMOOTH_L1
    conf_loss_type: SOFTMAX
    loc_weight: 1
    num_classes: 11
    share_location: true
    match_type: PER_PREDICTION
    overlap_threshold: 0.5
    use_prior_for_matching: true
    background_label_id: 0
    use_difficult_gt: true
    neg_pos_ratio: 3
    neg_overlap: 0.5
    code_type: CENTER_SIZE
    ignore_cross_boundary_bbox: false
    mining_type: MAX_NEGATIVE
  }
}
I0320 12:03:25.976070 29410 layer_factory.hpp:77] Creating layer data
I0320 12:03:25.976471 29410 net.cpp:100] Creating Layer data
I0320 12:03:25.976496 29410 net.cpp:408] data -> data
I0320 12:03:25.976526 29410 net.cpp:408] data -> label
I0320 12:03:25.978286 29424 db_lmdb.cpp:35] Opened lmdb examples/NWPU_VHR/NWPU_VHR_trainval_lmdb
I0320 12:03:25.995113 29410 annotated_data_layer.cpp:62] output data size: 32,3,300,300
I0320 12:03:26.042258 29410 net.cpp:150] Setting up data
I0320 12:03:26.042284 29410 net.cpp:157] Top shape: 32 3 300 300 (8640000)
I0320 12:03:26.042289 29410 net.cpp:157] Top shape: 1 1 4 8 (32)
I0320 12:03:26.042294 29410 net.cpp:165] Memory required for data: 34560128
I0320 12:03:26.042304 29410 layer_factory.hpp:77] Creating layer data_data_0_split
I0320 12:03:26.042318 29410 net.cpp:100] Creating Layer data_data_0_split
I0320 12:03:26.042328 29410 net.cpp:434] data_data_0_split <- data
I0320 12:03:26.042343 29410 net.cpp:408] data_data_0_split -> data_data_0_split_0
I0320 12:03:26.042369 29410 net.cpp:408] data_data_0_split -> data_data_0_split_1
I0320 12:03:26.042378 29410 net.cpp:408] data_data_0_split -> data_data_0_split_2
I0320 12:03:26.042392 29410 net.cpp:408] data_data_0_split -> data_data_0_split_3
I0320 12:03:26.042398 29410 net.cpp:408] data_data_0_split -> data_data_0_split_4
I0320 12:03:26.042404 29410 net.cpp:408] data_data_0_split -> data_data_0_split_5
I0320 12:03:26.042410 29410 net.cpp:408] data_data_0_split -> data_data_0_split_6
I0320 12:03:26.042508 29410 net.cpp:150] Setting up data_data_0_split
I0320 12:03:26.042517 29410 net.cpp:157] Top shape: 32 3 300 300 (8640000)
I0320 12:03:26.042524 29410 net.cpp:157] Top shape: 32 3 300 300 (8640000)
I0320 12:03:26.042529 29410 net.cpp:157] Top shape: 32 3 300 300 (8640000)
I0320 12:03:26.042534 29410 net.cpp:157] Top shape: 32 3 300 300 (8640000)
I0320 12:03:26.042539 29410 net.cpp:157] Top shape: 32 3 300 300 (8640000)
I0320 12:03:26.042543 29410 net.cpp:157] Top shape: 32 3 300 300 (8640000)
I0320 12:03:26.042549 29410 net.cpp:157] Top shape: 32 3 300 300 (8640000)
I0320 12:03:26.042553 29410 net.cpp:165] Memory required for data: 276480128
I0320 12:03:26.042558 29410 layer_factory.hpp:77] Creating layer conv1_1
I0320 12:03:26.042577 29410 net.cpp:100] Creating Layer conv1_1
I0320 12:03:26.042582 29410 net.cpp:434] conv1_1 <- data_data_0_split_0
I0320 12:03:26.042590 29410 net.cpp:408] conv1_1 -> conv1_1
I0320 12:03:26.503685 29410 net.cpp:150] Setting up conv1_1
I0320 12:03:26.503710 29410 net.cpp:157] Top shape: 32 64 300 300 (184320000)
I0320 12:03:26.503715 29410 net.cpp:165] Memory required for data: 1013760128
I0320 12:03:26.503734 29410 layer_factory.hpp:77] Creating layer relu1_1
I0320 12:03:26.503746 29410 net.cpp:100] Creating Layer relu1_1
I0320 12:03:26.503753 29410 net.cpp:434] relu1_1 <- conv1_1
I0320 12:03:26.503760 29410 net.cpp:395] relu1_1 -> conv1_1 (in-place)
I0320 12:03:26.504375 29410 net.cpp:150] Setting up relu1_1
I0320 12:03:26.504387 29410 net.cpp:157] Top shape: 32 64 300 300 (184320000)
I0320 12:03:26.504392 29410 net.cpp:165] Memory required for data: 1751040128
I0320 12:03:26.504396 29410 layer_factory.hpp:77] Creating layer conv1_2
I0320 12:03:26.504411 29410 net.cpp:100] Creating Layer conv1_2
I0320 12:03:26.504416 29410 net.cpp:434] conv1_2 <- conv1_1
I0320 12:03:26.504422 29410 net.cpp:408] conv1_2 -> conv1_2
I0320 12:03:26.506506 29410 net.cpp:150] Setting up conv1_2
I0320 12:03:26.506520 29410 net.cpp:157] Top shape: 32 64 300 300 (184320000)
I0320 12:03:26.506525 29410 net.cpp:165] Memory required for data: 2488320128
I0320 12:03:26.506534 29410 layer_factory.hpp:77] Creating layer relu1_2
I0320 12:03:26.506541 29410 net.cpp:100] Creating Layer relu1_2
I0320 12:03:26.506546 29410 net.cpp:434] relu1_2 <- conv1_2
I0320 12:03:26.506552 29410 net.cpp:395] relu1_2 -> conv1_2 (in-place)
I0320 12:03:26.506690 29410 net.cpp:150] Setting up relu1_2
I0320 12:03:26.506697 29410 net.cpp:157] Top shape: 32 64 300 300 (184320000)
I0320 12:03:26.506701 29410 net.cpp:165] Memory required for data: 3225600128
I0320 12:03:26.506705 29410 layer_factory.hpp:77] Creating layer pool1
I0320 12:03:26.506712 29410 net.cpp:100] Creating Layer pool1
I0320 12:03:26.506716 29410 net.cpp:434] pool1 <- conv1_2
I0320 12:03:26.506724 29410 net.cpp:408] pool1 -> pool1
I0320 12:03:26.506765 29410 net.cpp:150] Setting up pool1
I0320 12:03:26.506772 29410 net.cpp:157] Top shape: 32 64 150 150 (46080000)
I0320 12:03:26.506777 29410 net.cpp:165] Memory required for data: 3409920128
I0320 12:03:26.506781 29410 layer_factory.hpp:77] Creating layer conv2_1
I0320 12:03:26.506790 29410 net.cpp:100] Creating Layer conv2_1
I0320 12:03:26.506795 29410 net.cpp:434] conv2_1 <- pool1
I0320 12:03:26.506801 29410 net.cpp:408] conv2_1 -> conv2_1
I0320 12:03:26.508618 29410 net.cpp:150] Setting up conv2_1
I0320 12:03:26.508631 29410 net.cpp:157] Top shape: 32 128 150 150 (92160000)
I0320 12:03:26.508635 29410 net.cpp:165] Memory required for data: 3778560128
I0320 12:03:26.508646 29410 layer_factory.hpp:77] Creating layer relu2_1
I0320 12:03:26.508666 29410 net.cpp:100] Creating Layer relu2_1
I0320 12:03:26.508672 29410 net.cpp:434] relu2_1 <- conv2_1
I0320 12:03:26.508677 29410 net.cpp:395] relu2_1 -> conv2_1 (in-place)
I0320 12:03:26.508823 29410 net.cpp:150] Setting up relu2_1
I0320 12:03:26.508833 29410 net.cpp:157] Top shape: 32 128 150 150 (92160000)
I0320 12:03:26.508836 29410 net.cpp:165] Memory required for data: 4147200128
I0320 12:03:26.508841 29410 layer_factory.hpp:77] Creating layer conv2_2
I0320 12:03:26.508850 29410 net.cpp:100] Creating Layer conv2_2
I0320 12:03:26.508857 29410 net.cpp:434] conv2_2 <- conv2_1
I0320 12:03:26.508863 29410 net.cpp:408] conv2_2 -> conv2_2
I0320 12:03:26.511006 29410 net.cpp:150] Setting up conv2_2
I0320 12:03:26.511019 29410 net.cpp:157] Top shape: 32 128 150 150 (92160000)
I0320 12:03:26.511023 29410 net.cpp:165] Memory required for data: 4515840128
I0320 12:03:26.511030 29410 layer_factory.hpp:77] Creating layer relu2_2
I0320 12:03:26.511036 29410 net.cpp:100] Creating Layer relu2_2
I0320 12:03:26.511040 29410 net.cpp:434] relu2_2 <- conv2_2
I0320 12:03:26.511046 29410 net.cpp:395] relu2_2 -> conv2_2 (in-place)
I0320 12:03:26.511653 29410 net.cpp:150] Setting up relu2_2
I0320 12:03:26.511664 29410 net.cpp:157] Top shape: 32 128 150 150 (92160000)
I0320 12:03:26.511668 29410 net.cpp:165] Memory required for data: 4884480128
I0320 12:03:26.511673 29410 layer_factory.hpp:77] Creating layer pool2
I0320 12:03:26.511680 29410 net.cpp:100] Creating Layer pool2
I0320 12:03:26.511687 29410 net.cpp:434] pool2 <- conv2_2
I0320 12:03:26.511693 29410 net.cpp:408] pool2 -> pool2
I0320 12:03:26.511729 29410 net.cpp:150] Setting up pool2
I0320 12:03:26.511736 29410 net.cpp:157] Top shape: 32 128 75 75 (23040000)
I0320 12:03:26.511740 29410 net.cpp:165] Memory required for data: 4976640128
I0320 12:03:26.511744 29410 layer_factory.hpp:77] Creating layer conv3_1
I0320 12:03:26.511755 29410 net.cpp:100] Creating Layer conv3_1
I0320 12:03:26.511761 29410 net.cpp:434] conv3_1 <- pool2
I0320 12:03:26.511766 29410 net.cpp:408] conv3_1 -> conv3_1
I0320 12:03:26.515980 29410 net.cpp:150] Setting up conv3_1
I0320 12:03:26.515995 29410 net.cpp:157] Top shape: 32 256 75 75 (46080000)
I0320 12:03:26.516000 29410 net.cpp:165] Memory required for data: 5160960128
I0320 12:03:26.516010 29410 layer_factory.hpp:77] Creating layer relu3_1
I0320 12:03:26.516016 29410 net.cpp:100] Creating Layer relu3_1
I0320 12:03:26.516023 29410 net.cpp:434] relu3_1 <- conv3_1
I0320 12:03:26.516028 29410 net.cpp:395] relu3_1 -> conv3_1 (in-place)
I0320 12:03:26.516181 29410 net.cpp:150] Setting up relu3_1
I0320 12:03:26.516191 29410 net.cpp:157] Top shape: 32 256 75 75 (46080000)
I0320 12:03:26.516194 29410 net.cpp:165] Memory required for data: 5345280128
I0320 12:03:26.516197 29410 layer_factory.hpp:77] Creating layer conv3_2
I0320 12:03:26.516206 29410 net.cpp:100] Creating Layer conv3_2
I0320 12:03:26.516213 29410 net.cpp:434] conv3_2 <- conv3_1
I0320 12:03:26.516219 29410 net.cpp:408] conv3_2 -> conv3_2
I0320 12:03:26.521143 29410 net.cpp:150] Setting up conv3_2
I0320 12:03:26.521157 29410 net.cpp:157] Top shape: 32 256 75 75 (46080000)
I0320 12:03:26.521174 29410 net.cpp:165] Memory required for data: 5529600128
I0320 12:03:26.521181 29410 layer_factory.hpp:77] Creating layer relu3_2
I0320 12:03:26.521188 29410 net.cpp:100] Creating Layer relu3_2
I0320 12:03:26.521191 29410 net.cpp:434] relu3_2 <- conv3_2
I0320 12:03:26.521196 29410 net.cpp:395] relu3_2 -> conv3_2 (in-place)
I0320 12:03:26.521347 29410 net.cpp:150] Setting up relu3_2
I0320 12:03:26.521355 29410 net.cpp:157] Top shape: 32 256 75 75 (46080000)
I0320 12:03:26.521358 29410 net.cpp:165] Memory required for data: 5713920128
I0320 12:03:26.521363 29410 layer_factory.hpp:77] Creating layer conv3_3
I0320 12:03:26.521373 29410 net.cpp:100] Creating Layer conv3_3
I0320 12:03:26.521378 29410 net.cpp:434] conv3_3 <- conv3_2
I0320 12:03:26.521386 29410 net.cpp:408] conv3_3 -> conv3_3
I0320 12:03:26.526264 29410 net.cpp:150] Setting up conv3_3
I0320 12:03:26.526278 29410 net.cpp:157] Top shape: 32 256 75 75 (46080000)
I0320 12:03:26.526312 29410 net.cpp:165] Memory required for data: 5898240128
I0320 12:03:26.526319 29410 layer_factory.hpp:77] Creating layer relu3_3
I0320 12:03:26.526325 29410 net.cpp:100] Creating Layer relu3_3
I0320 12:03:26.526331 29410 net.cpp:434] relu3_3 <- conv3_3
I0320 12:03:26.526336 29410 net.cpp:395] relu3_3 -> conv3_3 (in-place)
I0320 12:03:26.526959 29410 net.cpp:150] Setting up relu3_3
I0320 12:03:26.526970 29410 net.cpp:157] Top shape: 32 256 75 75 (46080000)
I0320 12:03:26.526975 29410 net.cpp:165] Memory required for data: 6082560128
I0320 12:03:26.526979 29410 layer_factory.hpp:77] Creating layer pool3
I0320 12:03:26.526986 29410 net.cpp:100] Creating Layer pool3
I0320 12:03:26.526993 29410 net.cpp:434] pool3 <- conv3_3
I0320 12:03:26.526999 29410 net.cpp:408] pool3 -> pool3
I0320 12:03:26.527037 29410 net.cpp:150] Setting up pool3
I0320 12:03:26.527045 29410 net.cpp:157] Top shape: 32 256 38 38 (11829248)
I0320 12:03:26.527048 29410 net.cpp:165] Memory required for data: 6129877120
I0320 12:03:26.527053 29410 layer_factory.hpp:77] Creating layer conv4_1
I0320 12:03:26.527062 29410 net.cpp:100] Creating Layer conv4_1
I0320 12:03:26.527068 29410 net.cpp:434] conv4_1 <- pool3
I0320 12:03:26.527074 29410 net.cpp:408] conv4_1 -> conv4_1
I0320 12:03:26.535671 29410 net.cpp:150] Setting up conv4_1
I0320 12:03:26.535691 29410 net.cpp:157] Top shape: 32 512 38 38 (23658496)
I0320 12:03:26.535696 29410 net.cpp:165] Memory required for data: 6224511104
I0320 12:03:26.535703 29410 layer_factory.hpp:77] Creating layer relu4_1
I0320 12:03:26.535719 29410 net.cpp:100] Creating Layer relu4_1
I0320 12:03:26.535724 29410 net.cpp:434] relu4_1 <- conv4_1
I0320 12:03:26.535730 29410 net.cpp:395] relu4_1 -> conv4_1 (in-place)
I0320 12:03:26.535884 29410 net.cpp:150] Setting up relu4_1
I0320 12:03:26.535894 29410 net.cpp:157] Top shape: 32 512 38 38 (23658496)
I0320 12:03:26.535897 29410 net.cpp:165] Memory required for data: 6319145088
I0320 12:03:26.535902 29410 layer_factory.hpp:77] Creating layer conv4_2
I0320 12:03:26.535912 29410 net.cpp:100] Creating Layer conv4_2
I0320 12:03:26.535919 29410 net.cpp:434] conv4_2 <- conv4_1
I0320 12:03:26.535925 29410 net.cpp:408] conv4_2 -> conv4_2
I0320 12:03:26.549679 29410 net.cpp:150] Setting up conv4_2
I0320 12:03:26.549703 29410 net.cpp:157] Top shape: 32 512 38 38 (23658496)
I0320 12:03:26.549708 29410 net.cpp:165] Memory required for data: 6413779072
I0320 12:03:26.549722 29410 layer_factory.hpp:77] Creating layer relu4_2
I0320 12:03:26.549744 29410 net.cpp:100] Creating Layer relu4_2
I0320 12:03:26.549751 29410 net.cpp:434] relu4_2 <- conv4_2
I0320 12:03:26.549758 29410 net.cpp:395] relu4_2 -> conv4_2 (in-place)
I0320 12:03:26.549911 29410 net.cpp:150] Setting up relu4_2
I0320 12:03:26.549919 29410 net.cpp:157] Top shape: 32 512 38 38 (23658496)
I0320 12:03:26.549923 29410 net.cpp:165] Memory required for data: 6508413056
I0320 12:03:26.549927 29410 layer_factory.hpp:77] Creating layer conv4_3
I0320 12:03:26.549938 29410 net.cpp:100] Creating Layer conv4_3
I0320 12:03:26.549943 29410 net.cpp:434] conv4_3 <- conv4_2
I0320 12:03:26.549949 29410 net.cpp:408] conv4_3 -> conv4_3
I0320 12:03:26.563679 29410 net.cpp:150] Setting up conv4_3
I0320 12:03:26.563704 29410 net.cpp:157] Top shape: 32 512 38 38 (23658496)
I0320 12:03:26.563707 29410 net.cpp:165] Memory required for data: 6603047040
I0320 12:03:26.563719 29410 layer_factory.hpp:77] Creating layer relu4_3
I0320 12:03:26.563730 29410 net.cpp:100] Creating Layer relu4_3
I0320 12:03:26.563736 29410 net.cpp:434] relu4_3 <- conv4_3
I0320 12:03:26.563743 29410 net.cpp:395] relu4_3 -> conv4_3 (in-place)
I0320 12:03:26.563894 29410 net.cpp:150] Setting up relu4_3
I0320 12:03:26.563904 29410 net.cpp:157] Top shape: 32 512 38 38 (23658496)
I0320 12:03:26.563907 29410 net.cpp:165] Memory required for data: 6697681024
I0320 12:03:26.563911 29410 layer_factory.hpp:77] Creating layer conv4_3_relu4_3_0_split
I0320 12:03:26.563920 29410 net.cpp:100] Creating Layer conv4_3_relu4_3_0_split
I0320 12:03:26.563941 29410 net.cpp:434] conv4_3_relu4_3_0_split <- conv4_3
I0320 12:03:26.563947 29410 net.cpp:408] conv4_3_relu4_3_0_split -> conv4_3_relu4_3_0_split_0
I0320 12:03:26.563954 29410 net.cpp:408] conv4_3_relu4_3_0_split -> conv4_3_relu4_3_0_split_1
I0320 12:03:26.563989 29410 net.cpp:150] Setting up conv4_3_relu4_3_0_split
I0320 12:03:26.563997 29410 net.cpp:157] Top shape: 32 512 38 38 (23658496)
I0320 12:03:26.564002 29410 net.cpp:157] Top shape: 32 512 38 38 (23658496)
I0320 12:03:26.564005 29410 net.cpp:165] Memory required for data: 6886948992
I0320 12:03:26.564010 29410 layer_factory.hpp:77] Creating layer pool4
I0320 12:03:26.564018 29410 net.cpp:100] Creating Layer pool4
I0320 12:03:26.564023 29410 net.cpp:434] pool4 <- conv4_3_relu4_3_0_split_0
I0320 12:03:26.564029 29410 net.cpp:408] pool4 -> pool4
I0320 12:03:26.564060 29410 net.cpp:150] Setting up pool4
I0320 12:03:26.564069 29410 net.cpp:157] Top shape: 32 512 19 19 (5914624)
I0320 12:03:26.564071 29410 net.cpp:165] Memory required for data: 6910607488
I0320 12:03:26.564075 29410 layer_factory.hpp:77] Creating layer conv5_1
I0320 12:03:26.564086 29410 net.cpp:100] Creating Layer conv5_1
I0320 12:03:26.564092 29410 net.cpp:434] conv5_1 <- pool4
I0320 12:03:26.564098 29410 net.cpp:408] conv5_1 -> conv5_1
I0320 12:03:26.578693 29410 net.cpp:150] Setting up conv5_1
I0320 12:03:26.578716 29410 net.cpp:157] Top shape: 32 512 19 19 (5914624)
I0320 12:03:26.578719 29410 net.cpp:165] Memory required for data: 6934265984
I0320 12:03:26.578729 29410 layer_factory.hpp:77] Creating layer relu5_1
I0320 12:03:26.578738 29410 net.cpp:100] Creating Layer relu5_1
I0320 12:03:26.578743 29410 net.cpp:434] relu5_1 <- conv5_1
I0320 12:03:26.578750 29410 net.cpp:395] relu5_1 -> conv5_1 (in-place)
I0320 12:03:26.579401 29410 net.cpp:150] Setting up relu5_1
I0320 12:03:26.579413 29410 net.cpp:157] Top shape: 32 512 19 19 (5914624)
I0320 12:03:26.579434 29410 net.cpp:165] Memory required for data: 6957924480
I0320 12:03:26.579439 29410 layer_factory.hpp:77] Creating layer conv5_2
I0320 12:03:26.579450 29410 net.cpp:100] Creating Layer conv5_2
I0320 12:03:26.579457 29410 net.cpp:434] conv5_2 <- conv5_1
I0320 12:03:26.579463 29410 net.cpp:408] conv5_2 -> conv5_2
I0320 12:03:26.593434 29410 net.cpp:150] Setting up conv5_2
I0320 12:03:26.593458 29410 net.cpp:157] Top shape: 32 512 19 19 (5914624)
I0320 12:03:26.593462 29410 net.cpp:165] Memory required for data: 6981582976
I0320 12:03:26.593472 29410 layer_factory.hpp:77] Creating layer relu5_2
I0320 12:03:26.593482 29410 net.cpp:100] Creating Layer relu5_2
I0320 12:03:26.593487 29410 net.cpp:434] relu5_2 <- conv5_2
I0320 12:03:26.593494 29410 net.cpp:395] relu5_2 -> conv5_2 (in-place)
I0320 12:03:26.593637 29410 net.cpp:150] Setting up relu5_2
I0320 12:03:26.593647 29410 net.cpp:157] Top shape: 32 512 19 19 (5914624)
I0320 12:03:26.593650 29410 net.cpp:165] Memory required for data: 7005241472
I0320 12:03:26.593654 29410 layer_factory.hpp:77] Creating layer conv5_3
I0320 12:03:26.593668 29410 net.cpp:100] Creating Layer conv5_3
I0320 12:03:26.593675 29410 net.cpp:434] conv5_3 <- conv5_2
I0320 12:03:26.593680 29410 net.cpp:408] conv5_3 -> conv5_3
I0320 12:03:26.607539 29410 net.cpp:150] Setting up conv5_3
I0320 12:03:26.607560 29410 net.cpp:157] Top shape: 32 512 19 19 (5914624)
I0320 12:03:26.607565 29410 net.cpp:165] Memory required for data: 7028899968
I0320 12:03:26.607574 29410 layer_factory.hpp:77] Creating layer relu5_3
I0320 12:03:26.607587 29410 net.cpp:100] Creating Layer relu5_3
I0320 12:03:26.607594 29410 net.cpp:434] relu5_3 <- conv5_3
I0320 12:03:26.607602 29410 net.cpp:395] relu5_3 -> conv5_3 (in-place)
I0320 12:03:26.607758 29410 net.cpp:150] Setting up relu5_3
I0320 12:03:26.607767 29410 net.cpp:157] Top shape: 32 512 19 19 (5914624)
I0320 12:03:26.607771 29410 net.cpp:165] Memory required for data: 7052558464
I0320 12:03:26.607776 29410 layer_factory.hpp:77] Creating layer pool5
I0320 12:03:26.607784 29410 net.cpp:100] Creating Layer pool5
I0320 12:03:26.607789 29410 net.cpp:434] pool5 <- conv5_3
I0320 12:03:26.607815 29410 net.cpp:408] pool5 -> pool5
I0320 12:03:26.607856 29410 net.cpp:150] Setting up pool5
I0320 12:03:26.607863 29410 net.cpp:157] Top shape: 32 512 19 19 (5914624)
I0320 12:03:26.607867 29410 net.cpp:165] Memory required for data: 7076216960
I0320 12:03:26.607872 29410 layer_factory.hpp:77] Creating layer fc6
I0320 12:03:26.607882 29410 net.cpp:100] Creating Layer fc6
I0320 12:03:26.607888 29410 net.cpp:434] fc6 <- pool5
I0320 12:03:26.607894 29410 net.cpp:408] fc6 -> fc6
I0320 12:03:26.632978 29410 net.cpp:150] Setting up fc6
I0320 12:03:26.633006 29410 net.cpp:157] Top shape: 32 1024 19 19 (11829248)
I0320 12:03:26.633010 29410 net.cpp:165] Memory required for data: 7123533952
I0320 12:03:26.633019 29410 layer_factory.hpp:77] Creating layer relu6
I0320 12:03:26.633029 29410 net.cpp:100] Creating Layer relu6
I0320 12:03:26.633035 29410 net.cpp:434] relu6 <- fc6
I0320 12:03:26.633042 29410 net.cpp:395] relu6 -> fc6 (in-place)
I0320 12:03:26.633877 29410 net.cpp:150] Setting up relu6
I0320 12:03:26.633888 29410 net.cpp:157] Top shape: 32 1024 19 19 (11829248)
I0320 12:03:26.633893 29410 net.cpp:165] Memory required for data: 7170850944
I0320 12:03:26.633898 29410 layer_factory.hpp:77] Creating layer fc7
I0320 12:03:26.633909 29410 net.cpp:100] Creating Layer fc7
I0320 12:03:26.633914 29410 net.cpp:434] fc7 <- fc6
I0320 12:03:26.633921 29410 net.cpp:408] fc7 -> fc7
I0320 12:03:26.641021 29410 net.cpp:150] Setting up fc7
I0320 12:03:26.641039 29410 net.cpp:157] Top shape: 32 1024 19 19 (11829248)
I0320 12:03:26.641042 29410 net.cpp:165] Memory required for data: 7218167936
I0320 12:03:26.641052 29410 layer_factory.hpp:77] Creating layer relu7
I0320 12:03:26.641060 29410 net.cpp:100] Creating Layer relu7
I0320 12:03:26.641067 29410 net.cpp:434] relu7 <- fc7
I0320 12:03:26.641072 29410 net.cpp:395] relu7 -> fc7 (in-place)
I0320 12:03:26.641221 29410 net.cpp:150] Setting up relu7
I0320 12:03:26.641229 29410 net.cpp:157] Top shape: 32 1024 19 19 (11829248)
I0320 12:03:26.641232 29410 net.cpp:165] Memory required for data: 7265484928
I0320 12:03:26.641237 29410 layer_factory.hpp:77] Creating layer fc7_relu7_0_split
I0320 12:03:26.641245 29410 net.cpp:100] Creating Layer fc7_relu7_0_split
I0320 12:03:26.641252 29410 net.cpp:434] fc7_relu7_0_split <- fc7
I0320 12:03:26.641257 29410 net.cpp:408] fc7_relu7_0_split -> fc7_relu7_0_split_0
I0320 12:03:26.641264 29410 net.cpp:408] fc7_relu7_0_split -> fc7_relu7_0_split_1
I0320 12:03:26.641278 29410 net.cpp:408] fc7_relu7_0_split -> fc7_relu7_0_split_2
I0320 12:03:26.641285 29410 net.cpp:408] fc7_relu7_0_split -> fc7_relu7_0_split_3
I0320 12:03:26.641337 29410 net.cpp:150] Setting up fc7_relu7_0_split
I0320 12:03:26.641345 29410 net.cpp:157] Top shape: 32 1024 19 19 (11829248)
I0320 12:03:26.641350 29410 net.cpp:157] Top shape: 32 1024 19 19 (11829248)
I0320 12:03:26.641355 29410 net.cpp:157] Top shape: 32 1024 19 19 (11829248)
I0320 12:03:26.641360 29410 net.cpp:157] Top shape: 32 1024 19 19 (11829248)
I0320 12:03:26.641364 29410 net.cpp:165] Memory required for data: 7454752896
I0320 12:03:26.641369 29410 layer_factory.hpp:77] Creating layer conv6_1
I0320 12:03:26.641381 29410 net.cpp:100] Creating Layer conv6_1
I0320 12:03:26.641386 29410 net.cpp:434] conv6_1 <- fc7_relu7_0_split_0
I0320 12:03:26.641393 29410 net.cpp:408] conv6_1 -> conv6_1
I0320 12:03:26.644912 29410 net.cpp:150] Setting up conv6_1
I0320 12:03:26.644943 29410 net.cpp:157] Top shape: 32 256 19 19 (2957312)
I0320 12:03:26.644948 29410 net.cpp:165] Memory required for data: 7466582144
I0320 12:03:26.644955 29410 layer_factory.hpp:77] Creating layer conv6_1_relu
I0320 12:03:26.644963 29410 net.cpp:100] Creating Layer conv6_1_relu
I0320 12:03:26.644968 29410 net.cpp:434] conv6_1_relu <- conv6_1
I0320 12:03:26.644973 29410 net.cpp:395] conv6_1_relu -> conv6_1 (in-place)
I0320 12:03:26.645119 29410 net.cpp:150] Setting up conv6_1_relu
I0320 12:03:26.645129 29410 net.cpp:157] Top shape: 32 256 19 19 (2957312)
I0320 12:03:26.645133 29410 net.cpp:165] Memory required for data: 7478411392
I0320 12:03:26.645138 29410 layer_factory.hpp:77] Creating layer conv6_2
I0320 12:03:26.645161 29410 net.cpp:100] Creating Layer conv6_2
I0320 12:03:26.645167 29410 net.cpp:434] conv6_2 <- conv6_1
I0320 12:03:26.645174 29410 net.cpp:408] conv6_2 -> conv6_2
I0320 12:03:26.652696 29410 net.cpp:150] Setting up conv6_2
I0320 12:03:26.652714 29410 net.cpp:157] Top shape: 32 512 10 10 (1638400)
I0320 12:03:26.652719 29410 net.cpp:165] Memory required for data: 7484964992
I0320 12:03:26.652730 29410 layer_factory.hpp:77] Creating layer conv6_2_relu
I0320 12:03:26.652740 29410 net.cpp:100] Creating Layer conv6_2_relu
I0320 12:03:26.652745 29410 net.cpp:434] conv6_2_relu <- conv6_2
I0320 12:03:26.652752 29410 net.cpp:395] conv6_2_relu -> conv6_2 (in-place)
I0320 12:03:26.653396 29410 net.cpp:150] Setting up conv6_2_relu
I0320 12:03:26.653409 29410 net.cpp:157] Top shape: 32 512 10 10 (1638400)
I0320 12:03:26.653411 29410 net.cpp:165] Memory required for data: 7491518592
I0320 12:03:26.653416 29410 layer_factory.hpp:77] Creating layer conv6_2_conv6_2_relu_0_split
I0320 12:03:26.653424 29410 net.cpp:100] Creating Layer conv6_2_conv6_2_relu_0_split
I0320 12:03:26.653427 29410 net.cpp:434] conv6_2_conv6_2_relu_0_split <- conv6_2
I0320 12:03:26.653434 29410 net.cpp:408] conv6_2_conv6_2_relu_0_split -> conv6_2_conv6_2_relu_0_split_0
I0320 12:03:26.653442 29410 net.cpp:408] conv6_2_conv6_2_relu_0_split -> conv6_2_conv6_2_relu_0_split_1
I0320 12:03:26.653450 29410 net.cpp:408] conv6_2_conv6_2_relu_0_split -> conv6_2_conv6_2_relu_0_split_2
I0320 12:03:26.653455 29410 net.cpp:408] conv6_2_conv6_2_relu_0_split -> conv6_2_conv6_2_relu_0_split_3
I0320 12:03:26.653514 29410 net.cpp:150] Setting up conv6_2_conv6_2_relu_0_split
I0320 12:03:26.653522 29410 net.cpp:157] Top shape: 32 512 10 10 (1638400)
I0320 12:03:26.653527 29410 net.cpp:157] Top shape: 32 512 10 10 (1638400)
I0320 12:03:26.653532 29410 net.cpp:157] Top shape: 32 512 10 10 (1638400)
I0320 12:03:26.653537 29410 net.cpp:157] Top shape: 32 512 10 10 (1638400)
I0320 12:03:26.653540 29410 net.cpp:165] Memory required for data: 7517732992
I0320 12:03:26.653544 29410 layer_factory.hpp:77] Creating layer conv7_1
I0320 12:03:26.653555 29410 net.cpp:100] Creating Layer conv7_1
I0320 12:03:26.653561 29410 net.cpp:434] conv7_1 <- conv6_2_conv6_2_relu_0_split_0
I0320 12:03:26.653568 29410 net.cpp:408] conv7_1 -> conv7_1
I0320 12:03:26.655014 29410 net.cpp:150] Setting up conv7_1
I0320 12:03:26.655027 29410 net.cpp:157] Top shape: 32 128 10 10 (409600)
I0320 12:03:26.655031 29410 net.cpp:165] Memory required for data: 7519371392
I0320 12:03:26.655040 29410 layer_factory.hpp:77] Creating layer conv7_1_relu
I0320 12:03:26.655047 29410 net.cpp:100] Creating Layer conv7_1_relu
I0320 12:03:26.655051 29410 net.cpp:434] conv7_1_relu <- conv7_1
I0320 12:03:26.655057 29410 net.cpp:395] conv7_1_relu -> conv7_1 (in-place)
I0320 12:03:26.655200 29410 net.cpp:150] Setting up conv7_1_relu
I0320 12:03:26.655208 29410 net.cpp:157] Top shape: 32 128 10 10 (409600)
I0320 12:03:26.655211 29410 net.cpp:165] Memory required for data: 7521009792
I0320 12:03:26.655216 29410 layer_factory.hpp:77] Creating layer conv7_2
I0320 12:03:26.655225 29410 net.cpp:100] Creating Layer conv7_2
I0320 12:03:26.655230 29410 net.cpp:434] conv7_2 <- conv7_1
I0320 12:03:26.655236 29410 net.cpp:408] conv7_2 -> conv7_2
I0320 12:03:26.658352 29410 net.cpp:150] Setting up conv7_2
I0320 12:03:26.658382 29410 net.cpp:157] Top shape: 32 256 5 5 (204800)
I0320 12:03:26.658386 29410 net.cpp:165] Memory required for data: 7521828992
I0320 12:03:26.658392 29410 layer_factory.hpp:77] Creating layer conv7_2_relu
I0320 12:03:26.658398 29410 net.cpp:100] Creating Layer conv7_2_relu
I0320 12:03:26.658403 29410 net.cpp:434] conv7_2_relu <- conv7_2
I0320 12:03:26.658408 29410 net.cpp:395] conv7_2_relu -> conv7_2 (in-place)
I0320 12:03:26.658550 29410 net.cpp:150] Setting up conv7_2_relu
I0320 12:03:26.658558 29410 net.cpp:157] Top shape: 32 256 5 5 (204800)
I0320 12:03:26.658562 29410 net.cpp:165] Memory required for data: 7522648192
I0320 12:03:26.658566 29410 layer_factory.hpp:77] Creating layer conv7_2_conv7_2_relu_0_split
I0320 12:03:26.658586 29410 net.cpp:100] Creating Layer conv7_2_conv7_2_relu_0_split
I0320 12:03:26.658591 29410 net.cpp:434] conv7_2_conv7_2_relu_0_split <- conv7_2
I0320 12:03:26.658597 29410 net.cpp:408] conv7_2_conv7_2_relu_0_split -> conv7_2_conv7_2_relu_0_split_0
I0320 12:03:26.658604 29410 net.cpp:408] conv7_2_conv7_2_relu_0_split -> conv7_2_conv7_2_relu_0_split_1
I0320 12:03:26.658612 29410 net.cpp:408] conv7_2_conv7_2_relu_0_split -> conv7_2_conv7_2_relu_0_split_2
I0320 12:03:26.658617 29410 net.cpp:408] conv7_2_conv7_2_relu_0_split -> conv7_2_conv7_2_relu_0_split_3
I0320 12:03:26.658671 29410 net.cpp:150] Setting up conv7_2_conv7_2_relu_0_split
I0320 12:03:26.658679 29410 net.cpp:157] Top shape: 32 256 5 5 (204800)
I0320 12:03:26.658684 29410 net.cpp:157] Top shape: 32 256 5 5 (204800)
I0320 12:03:26.658689 29410 net.cpp:157] Top shape: 32 256 5 5 (204800)
I0320 12:03:26.658694 29410 net.cpp:157] Top shape: 32 256 5 5 (204800)
I0320 12:03:26.658697 29410 net.cpp:165] Memory required for data: 7525924992
I0320 12:03:26.658701 29410 layer_factory.hpp:77] Creating layer conv8_1
I0320 12:03:26.658710 29410 net.cpp:100] Creating Layer conv8_1
I0320 12:03:26.658716 29410 net.cpp:434] conv8_1 <- conv7_2_conv7_2_relu_0_split_0
I0320 12:03:26.658722 29410 net.cpp:408] conv8_1 -> conv8_1
I0320 12:03:26.660004 29410 net.cpp:150] Setting up conv8_1
I0320 12:03:26.660017 29410 net.cpp:157] Top shape: 32 128 5 5 (102400)
I0320 12:03:26.660022 29410 net.cpp:165] Memory required for data: 7526334592
I0320 12:03:26.660029 29410 layer_factory.hpp:77] Creating layer conv8_1_relu
I0320 12:03:26.660037 29410 net.cpp:100] Creating Layer conv8_1_relu
I0320 12:03:26.660042 29410 net.cpp:434] conv8_1_relu <- conv8_1
I0320 12:03:26.660048 29410 net.cpp:395] conv8_1_relu -> conv8_1 (in-place)
I0320 12:03:26.660236 29410 net.cpp:150] Setting up conv8_1_relu
I0320 12:03:26.660250 29410 net.cpp:157] Top shape: 32 128 5 5 (102400)
I0320 12:03:26.660257 29410 net.cpp:165] Memory required for data: 7526744192
I0320 12:03:26.660264 29410 layer_factory.hpp:77] Creating layer conv8_2
I0320 12:03:26.660275 29410 net.cpp:100] Creating Layer conv8_2
I0320 12:03:26.660284 29410 net.cpp:434] conv8_2 <- conv8_1
I0320 12:03:26.660295 29410 net.cpp:408] conv8_2 -> conv8_2
I0320 12:03:26.664525 29410 net.cpp:150] Setting up conv8_2
I0320 12:03:26.664538 29410 net.cpp:157] Top shape: 32 256 3 3 (73728)
I0320 12:03:26.664542 29410 net.cpp:165] Memory required for data: 7527039104
I0320 12:03:26.664549 29410 layer_factory.hpp:77] Creating layer conv8_2_relu
I0320 12:03:26.664556 29410 net.cpp:100] Creating Layer conv8_2_relu
I0320 12:03:26.664561 29410 net.cpp:434] conv8_2_relu <- conv8_2
I0320 12:03:26.664566 29410 net.cpp:395] conv8_2_relu -> conv8_2 (in-place)
I0320 12:03:26.665218 29410 net.cpp:150] Setting up conv8_2_relu
I0320 12:03:26.665231 29410 net.cpp:157] Top shape: 32 256 3 3 (73728)
I0320 12:03:26.665235 29410 net.cpp:165] Memory required for data: 7527334016
I0320 12:03:26.665241 29410 layer_factory.hpp:77] Creating layer conv8_2_conv8_2_relu_0_split
I0320 12:03:26.665247 29410 net.cpp:100] Creating Layer conv8_2_conv8_2_relu_0_split
I0320 12:03:26.665252 29410 net.cpp:434] conv8_2_conv8_2_relu_0_split <- conv8_2
I0320 12:03:26.665259 29410 net.cpp:408] conv8_2_conv8_2_relu_0_split -> conv8_2_conv8_2_relu_0_split_0
I0320 12:03:26.665266 29410 net.cpp:408] conv8_2_conv8_2_relu_0_split -> conv8_2_conv8_2_relu_0_split_1
I0320 12:03:26.665272 29410 net.cpp:408] conv8_2_conv8_2_relu_0_split -> conv8_2_conv8_2_relu_0_split_2
I0320 12:03:26.665278 29410 net.cpp:408] conv8_2_conv8_2_relu_0_split -> conv8_2_conv8_2_relu_0_split_3
I0320 12:03:26.665335 29410 net.cpp:150] Setting up conv8_2_conv8_2_relu_0_split
I0320 12:03:26.665344 29410 net.cpp:157] Top shape: 32 256 3 3 (73728)
I0320 12:03:26.665351 29410 net.cpp:157] Top shape: 32 256 3 3 (73728)
I0320 12:03:26.665359 29410 net.cpp:157] Top shape: 32 256 3 3 (73728)
I0320 12:03:26.665365 29410 net.cpp:157] Top shape: 32 256 3 3 (73728)
I0320 12:03:26.665382 29410 net.cpp:165] Memory required for data: 7528513664
I0320 12:03:26.665388 29410 layer_factory.hpp:77] Creating layer conv9_1
I0320 12:03:26.665403 29410 net.cpp:100] Creating Layer conv9_1
I0320 12:03:26.665410 29410 net.cpp:434] conv9_1 <- conv8_2_conv8_2_relu_0_split_0
I0320 12:03:26.665418 29410 net.cpp:408] conv9_1 -> conv9_1
I0320 12:03:26.666769 29410 net.cpp:150] Setting up conv9_1
I0320 12:03:26.666782 29410 net.cpp:157] Top shape: 32 128 3 3 (36864)
I0320 12:03:26.666787 29410 net.cpp:165] Memory required for data: 7528661120
I0320 12:03:26.666812 29410 layer_factory.hpp:77] Creating layer conv9_1_relu
I0320 12:03:26.666822 29410 net.cpp:100] Creating Layer conv9_1_relu
I0320 12:03:26.666829 29410 net.cpp:434] conv9_1_relu <- conv9_1
I0320 12:03:26.666836 29410 net.cpp:395] conv9_1_relu -> conv9_1 (in-place)
I0320 12:03:26.666985 29410 net.cpp:150] Setting up conv9_1_relu
I0320 12:03:26.666995 29410 net.cpp:157] Top shape: 32 128 3 3 (36864)
I0320 12:03:26.667001 29410 net.cpp:165] Memory required for data: 7528808576
I0320 12:03:26.667006 29410 layer_factory.hpp:77] Creating layer conv9_2
I0320 12:03:26.667018 29410 net.cpp:100] Creating Layer conv9_2
I0320 12:03:26.667024 29410 net.cpp:434] conv9_2 <- conv9_1
I0320 12:03:26.667033 29410 net.cpp:408] conv9_2 -> conv9_2
I0320 12:03:26.670760 29410 net.cpp:150] Setting up conv9_2
I0320 12:03:26.670776 29410 net.cpp:157] Top shape: 32 256 1 1 (8192)
I0320 12:03:26.670781 29410 net.cpp:165] Memory required for data: 7528841344
I0320 12:03:26.670792 29410 layer_factory.hpp:77] Creating layer conv9_2_relu
I0320 12:03:26.670804 29410 net.cpp:100] Creating Layer conv9_2_relu
I0320 12:03:26.670810 29410 net.cpp:434] conv9_2_relu <- conv9_2
I0320 12:03:26.670819 29410 net.cpp:395] conv9_2_relu -> conv9_2 (in-place)
I0320 12:03:26.670974 29410 net.cpp:150] Setting up conv9_2_relu
I0320 12:03:26.670984 29410 net.cpp:157] Top shape: 32 256 1 1 (8192)
I0320 12:03:26.670989 29410 net.cpp:165] Memory required for data: 7528874112
I0320 12:03:26.670994 29410 layer_factory.hpp:77] Creating layer conv9_2_conv9_2_relu_0_split
I0320 12:03:26.671005 29410 net.cpp:100] Creating Layer conv9_2_conv9_2_relu_0_split
I0320 12:03:26.671011 29410 net.cpp:434] conv9_2_conv9_2_relu_0_split <- conv9_2
I0320 12:03:26.671020 29410 net.cpp:408] conv9_2_conv9_2_relu_0_split -> conv9_2_conv9_2_relu_0_split_0
I0320 12:03:26.671034 29410 net.cpp:408] conv9_2_conv9_2_relu_0_split -> conv9_2_conv9_2_relu_0_split_1
I0320 12:03:26.671046 29410 net.cpp:408] conv9_2_conv9_2_relu_0_split -> conv9_2_conv9_2_relu_0_split_2
I0320 12:03:26.671099 29410 net.cpp:150] Setting up conv9_2_conv9_2_relu_0_split
I0320 12:03:26.671108 29410 net.cpp:157] Top shape: 32 256 1 1 (8192)
I0320 12:03:26.671113 29410 net.cpp:157] Top shape: 32 256 1 1 (8192)
I0320 12:03:26.671123 29410 net.cpp:157] Top shape: 32 256 1 1 (8192)
I0320 12:03:26.671128 29410 net.cpp:165] Memory required for data: 7528972416
I0320 12:03:26.671133 29410 layer_factory.hpp:77] Creating layer conv4_3_norm
I0320 12:03:26.671145 29410 net.cpp:100] Creating Layer conv4_3_norm
I0320 12:03:26.671152 29410 net.cpp:434] conv4_3_norm <- conv4_3_relu4_3_0_split_1
I0320 12:03:26.671159 29410 net.cpp:408] conv4_3_norm -> conv4_3_norm
I0320 12:03:26.671304 29410 net.cpp:150] Setting up conv4_3_norm
I0320 12:03:26.671314 29410 net.cpp:157] Top shape: 32 512 38 38 (23658496)
I0320 12:03:26.671319 29410 net.cpp:165] Memory required for data: 7623606400
I0320 12:03:26.671325 29410 layer_factory.hpp:77] Creating layer conv4_3_norm_conv4_3_norm_0_split
I0320 12:03:26.671334 29410 net.cpp:100] Creating Layer conv4_3_norm_conv4_3_norm_0_split
I0320 12:03:26.671340 29410 net.cpp:434] conv4_3_norm_conv4_3_norm_0_split <- conv4_3_norm
I0320 12:03:26.671350 29410 net.cpp:408] conv4_3_norm_conv4_3_norm_0_split -> conv4_3_norm_conv4_3_norm_0_split_0
I0320 12:03:26.671360 29410 net.cpp:408] conv4_3_norm_conv4_3_norm_0_split -> conv4_3_norm_conv4_3_norm_0_split_1
I0320 12:03:26.671370 29410 net.cpp:408] conv4_3_norm_conv4_3_norm_0_split -> conv4_3_norm_conv4_3_norm_0_split_2
I0320 12:03:26.671428 29410 net.cpp:150] Setting up conv4_3_norm_conv4_3_norm_0_split
I0320 12:03:26.671437 29410 net.cpp:157] Top shape: 32 512 38 38 (23658496)
I0320 12:03:26.671443 29410 net.cpp:157] Top shape: 32 512 38 38 (23658496)
I0320 12:03:26.671449 29410 net.cpp:157] Top shape: 32 512 38 38 (23658496)
I0320 12:03:26.671455 29410 net.cpp:165] Memory required for data: 7907508352
I0320 12:03:26.671463 29410 layer_factory.hpp:77] Creating layer conv4_3_norm_mbox_loc
I0320 12:03:26.671475 29410 net.cpp:100] Creating Layer conv4_3_norm_mbox_loc
I0320 12:03:26.671480 29410 net.cpp:434] conv4_3_norm_mbox_loc <- conv4_3_norm_conv4_3_norm_0_split_0
I0320 12:03:26.671489 29410 net.cpp:408] conv4_3_norm_mbox_loc -> conv4_3_norm_mbox_loc
I0320 12:03:26.673481 29410 net.cpp:150] Setting up conv4_3_norm_mbox_loc
I0320 12:03:26.673494 29410 net.cpp:157] Top shape: 32 16 38 38 (739328)
I0320 12:03:26.673499 29410 net.cpp:165] Memory required for data: 7910465664
I0320 12:03:26.673509 29410 layer_factory.hpp:77] Creating layer conv4_3_norm_mbox_loc_perm
I0320 12:03:26.673522 29410 net.cpp:100] Creating Layer conv4_3_norm_mbox_loc_perm
I0320 12:03:26.673529 29410 net.cpp:434] conv4_3_norm_mbox_loc_perm <- conv4_3_norm_mbox_loc
I0320 12:03:26.673538 29410 net.cpp:408] conv4_3_norm_mbox_loc_perm -> conv4_3_norm_mbox_loc_perm
I0320 12:03:26.673636 29410 net.cpp:150] Setting up conv4_3_norm_mbox_loc_perm
I0320 12:03:26.673646 29410 net.cpp:157] Top shape: 32 38 38 16 (739328)
I0320 12:03:26.673651 29410 net.cpp:165] Memory required for data: 7913422976
I0320 12:03:26.673657 29410 layer_factory.hpp:77] Creating layer conv4_3_norm_mbox_loc_flat
I0320 12:03:26.673666 29410 net.cpp:100] Creating Layer conv4_3_norm_mbox_loc_flat
I0320 12:03:26.673674 29410 net.cpp:434] conv4_3_norm_mbox_loc_flat <- conv4_3_norm_mbox_loc_perm
I0320 12:03:26.673681 29410 net.cpp:408] conv4_3_norm_mbox_loc_flat -> conv4_3_norm_mbox_loc_flat
I0320 12:03:26.673722 29410 net.cpp:150] Setting up conv4_3_norm_mbox_loc_flat
I0320 12:03:26.673754 29410 net.cpp:157] Top shape: 32 23104 (739328)
I0320 12:03:26.673764 29410 net.cpp:165] Memory required for data: 7916380288
I0320 12:03:26.673774 29410 layer_factory.hpp:77] Creating layer conv4_3_norm_mbox_conf
I0320 12:03:26.673796 29410 net.cpp:100] Creating Layer conv4_3_norm_mbox_conf
I0320 12:03:26.673804 29410 net.cpp:434] conv4_3_norm_mbox_conf <- conv4_3_norm_conv4_3_norm_0_split_1
I0320 12:03:26.673813 29410 net.cpp:408] conv4_3_norm_mbox_conf -> conv4_3_norm_mbox_conf
I0320 12:03:26.676353 29410 net.cpp:150] Setting up conv4_3_norm_mbox_conf
I0320 12:03:26.676367 29410 net.cpp:157] Top shape: 32 44 38 38 (2033152)
I0320 12:03:26.676371 29410 net.cpp:165] Memory required for data: 7924512896
I0320 12:03:26.676383 29410 layer_factory.hpp:77] Creating layer conv4_3_norm_mbox_conf_perm
I0320 12:03:26.676393 29410 net.cpp:100] Creating Layer conv4_3_norm_mbox_conf_perm
I0320 12:03:26.676400 29410 net.cpp:434] conv4_3_norm_mbox_conf_perm <- conv4_3_norm_mbox_conf
I0320 12:03:26.676409 29410 net.cpp:408] conv4_3_norm_mbox_conf_perm -> conv4_3_norm_mbox_conf_perm
I0320 12:03:26.676504 29410 net.cpp:150] Setting up conv4_3_norm_mbox_conf_perm
I0320 12:03:26.676513 29410 net.cpp:157] Top shape: 32 38 38 44 (2033152)
I0320 12:03:26.676517 29410 net.cpp:165] Memory required for data: 7932645504
I0320 12:03:26.676523 29410 layer_factory.hpp:77] Creating layer conv4_3_norm_mbox_conf_flat
I0320 12:03:26.676533 29410 net.cpp:100] Creating Layer conv4_3_norm_mbox_conf_flat
I0320 12:03:26.676540 29410 net.cpp:434] conv4_3_norm_mbox_conf_flat <- conv4_3_norm_mbox_conf_perm
I0320 12:03:26.676548 29410 net.cpp:408] conv4_3_norm_mbox_conf_flat -> conv4_3_norm_mbox_conf_flat
I0320 12:03:26.676578 29410 net.cpp:150] Setting up conv4_3_norm_mbox_conf_flat
I0320 12:03:26.676585 29410 net.cpp:157] Top shape: 32 63536 (2033152)
I0320 12:03:26.676590 29410 net.cpp:165] Memory required for data: 7940778112
I0320 12:03:26.676595 29410 layer_factory.hpp:77] Creating layer conv4_3_norm_mbox_priorbox
I0320 12:03:26.676607 29410 net.cpp:100] Creating Layer conv4_3_norm_mbox_priorbox
I0320 12:03:26.676622 29410 net.cpp:434] conv4_3_norm_mbox_priorbox <- conv4_3_norm_conv4_3_norm_0_split_2
I0320 12:03:26.676630 29410 net.cpp:434] conv4_3_norm_mbox_priorbox <- data_data_0_split_1
I0320 12:03:26.676640 29410 net.cpp:408] conv4_3_norm_mbox_priorbox -> conv4_3_norm_mbox_priorbox
I0320 12:03:26.676673 29410 net.cpp:150] Setting up conv4_3_norm_mbox_priorbox
I0320 12:03:26.676681 29410 net.cpp:157] Top shape: 1 2 23104 (46208)
I0320 12:03:26.676687 29410 net.cpp:165] Memory required for data: 7940962944
I0320 12:03:26.676692 29410 layer_factory.hpp:77] Creating layer fc7_mbox_loc
I0320 12:03:26.676705 29410 net.cpp:100] Creating Layer fc7_mbox_loc
I0320 12:03:26.676713 29410 net.cpp:434] fc7_mbox_loc <- fc7_relu7_0_split_1
I0320 12:03:26.676723 29410 net.cpp:408] fc7_mbox_loc -> fc7_mbox_loc
I0320 12:03:26.679379 29410 net.cpp:150] Setting up fc7_mbox_loc
I0320 12:03:26.679392 29410 net.cpp:157] Top shape: 32 24 19 19 (277248)
I0320 12:03:26.679399 29410 net.cpp:165] Memory required for data: 7942071936
I0320 12:03:26.679409 29410 layer_factory.hpp:77] Creating layer fc7_mbox_loc_perm
I0320 12:03:26.679419 29410 net.cpp:100] Creating Layer fc7_mbox_loc_perm
I0320 12:03:26.679427 29410 net.cpp:434] fc7_mbox_loc_perm <- fc7_mbox_loc
I0320 12:03:26.679435 29410 net.cpp:408] fc7_mbox_loc_perm -> fc7_mbox_loc_perm
I0320 12:03:26.679534 29410 net.cpp:150] Setting up fc7_mbox_loc_perm
I0320 12:03:26.679543 29410 net.cpp:157] Top shape: 32 19 19 24 (277248)
I0320 12:03:26.679548 29410 net.cpp:165] Memory required for data: 7943180928
I0320 12:03:26.679553 29410 layer_factory.hpp:77] Creating layer fc7_mbox_loc_flat
I0320 12:03:26.679563 29410 net.cpp:100] Creating Layer fc7_mbox_loc_flat
I0320 12:03:26.679569 29410 net.cpp:434] fc7_mbox_loc_flat <- fc7_mbox_loc_perm
I0320 12:03:26.679577 29410 net.cpp:408] fc7_mbox_loc_flat -> fc7_mbox_loc_flat
I0320 12:03:26.679606 29410 net.cpp:150] Setting up fc7_mbox_loc_flat
I0320 12:03:26.679615 29410 net.cpp:157] Top shape: 32 8664 (277248)
I0320 12:03:26.679620 29410 net.cpp:165] Memory required for data: 7944289920
I0320 12:03:26.679625 29410 layer_factory.hpp:77] Creating layer fc7_mbox_conf
I0320 12:03:26.679638 29410 net.cpp:100] Creating Layer fc7_mbox_conf
I0320 12:03:26.679646 29410 net.cpp:434] fc7_mbox_conf <- fc7_relu7_0_split_2
I0320 12:03:26.679654 29410 net.cpp:408] fc7_mbox_conf -> fc7_mbox_conf
I0320 12:03:26.684731 29410 net.cpp:150] Setting up fc7_mbox_conf
I0320 12:03:26.684746 29410 net.cpp:157] Top shape: 32 66 19 19 (762432)
I0320 12:03:26.684752 29410 net.cpp:165] Memory required for data: 7947339648
I0320 12:03:26.684762 29410 layer_factory.hpp:77] Creating layer fc7_mbox_conf_perm
I0320 12:03:26.684773 29410 net.cpp:100] Creating Layer fc7_mbox_conf_perm
I0320 12:03:26.684782 29410 net.cpp:434] fc7_mbox_conf_perm <- fc7_mbox_conf
I0320 12:03:26.684790 29410 net.cpp:408] fc7_mbox_conf_perm -> fc7_mbox_conf_perm
I0320 12:03:26.684887 29410 net.cpp:150] Setting up fc7_mbox_conf_perm
I0320 12:03:26.684896 29410 net.cpp:157] Top shape: 32 19 19 66 (762432)
I0320 12:03:26.684901 29410 net.cpp:165] Memory required for data: 7950389376
I0320 12:03:26.684907 29410 layer_factory.hpp:77] Creating layer fc7_mbox_conf_flat
I0320 12:03:26.684916 29410 net.cpp:100] Creating Layer fc7_mbox_conf_flat
I0320 12:03:26.684923 29410 net.cpp:434] fc7_mbox_conf_flat <- fc7_mbox_conf_perm
I0320 12:03:26.684932 29410 net.cpp:408] fc7_mbox_conf_flat -> fc7_mbox_conf_flat
I0320 12:03:26.684963 29410 net.cpp:150] Setting up fc7_mbox_conf_flat
I0320 12:03:26.684972 29410 net.cpp:157] Top shape: 32 23826 (762432)
I0320 12:03:26.684976 29410 net.cpp:165] Memory required for data: 7953439104
I0320 12:03:26.684983 29410 layer_factory.hpp:77] Creating layer fc7_mbox_priorbox
I0320 12:03:26.684991 29410 net.cpp:100] Creating Layer fc7_mbox_priorbox
I0320 12:03:26.684998 29410 net.cpp:434] fc7_mbox_priorbox <- fc7_relu7_0_split_3
I0320 12:03:26.685004 29410 net.cpp:434] fc7_mbox_priorbox <- data_data_0_split_2
I0320 12:03:26.685015 29410 net.cpp:408] fc7_mbox_priorbox -> fc7_mbox_priorbox
I0320 12:03:26.685056 29410 net.cpp:150] Setting up fc7_mbox_priorbox
I0320 12:03:26.685065 29410 net.cpp:157] Top shape: 1 2 8664 (17328)
I0320 12:03:26.685070 29410 net.cpp:165] Memory required for data: 7953508416
I0320 12:03:26.685076 29410 layer_factory.hpp:77] Creating layer conv6_2_mbox_loc
I0320 12:03:26.685089 29410 net.cpp:100] Creating Layer conv6_2_mbox_loc
I0320 12:03:26.685096 29410 net.cpp:434] conv6_2_mbox_loc <- conv6_2_conv6_2_relu_0_split_1
I0320 12:03:26.685106 29410 net.cpp:408] conv6_2_mbox_loc -> conv6_2_mbox_loc
I0320 12:03:26.687290 29410 net.cpp:150] Setting up conv6_2_mbox_loc
I0320 12:03:26.687304 29410 net.cpp:157] Top shape: 32 24 10 10 (76800)
I0320 12:03:26.687309 29410 net.cpp:165] Memory required for data: 7953815616
I0320 12:03:26.687320 29410 layer_factory.hpp:77] Creating layer conv6_2_mbox_loc_perm
I0320 12:03:26.687332 29410 net.cpp:100] Creating Layer conv6_2_mbox_loc_perm
I0320 12:03:26.687337 29410 net.cpp:434] conv6_2_mbox_loc_perm <- conv6_2_mbox_loc
I0320 12:03:26.687348 29410 net.cpp:408] conv6_2_mbox_loc_perm -> conv6_2_mbox_loc_perm
I0320 12:03:26.687448 29410 net.cpp:150] Setting up conv6_2_mbox_loc_perm
I0320 12:03:26.687456 29410 net.cpp:157] Top shape: 32 10 10 24 (76800)
I0320 12:03:26.687461 29410 net.cpp:165] Memory required for data: 7954122816
I0320 12:03:26.687466 29410 layer_factory.hpp:77] Creating layer conv6_2_mbox_loc_flat
I0320 12:03:26.687474 29410 net.cpp:100] Creating Layer conv6_2_mbox_loc_flat
I0320 12:03:26.687484 29410 net.cpp:434] conv6_2_mbox_loc_flat <- conv6_2_mbox_loc_perm
I0320 12:03:26.687491 29410 net.cpp:408] conv6_2_mbox_loc_flat -> conv6_2_mbox_loc_flat
I0320 12:03:26.687520 29410 net.cpp:150] Setting up conv6_2_mbox_loc_flat
I0320 12:03:26.687527 29410 net.cpp:157] Top shape: 32 2400 (76800)
I0320 12:03:26.687532 29410 net.cpp:165] Memory required for data: 7954430016
I0320 12:03:26.687539 29410 layer_factory.hpp:77] Creating layer conv6_2_mbox_conf
I0320 12:03:26.687553 29410 net.cpp:100] Creating Layer conv6_2_mbox_conf
I0320 12:03:26.687559 29410 net.cpp:434] conv6_2_mbox_conf <- conv6_2_conv6_2_relu_0_split_2
I0320 12:03:26.687568 29410 net.cpp:408] conv6_2_mbox_conf -> conv6_2_mbox_conf
I0320 12:03:26.691321 29410 net.cpp:150] Setting up conv6_2_mbox_conf
I0320 12:03:26.691336 29410 net.cpp:157] Top shape: 32 66 10 10 (211200)
I0320 12:03:26.691341 29410 net.cpp:165] Memory required for data: 7955274816
I0320 12:03:26.691352 29410 layer_factory.hpp:77] Creating layer conv6_2_mbox_conf_perm
I0320 12:03:26.691365 29410 net.cpp:100] Creating Layer conv6_2_mbox_conf_perm
I0320 12:03:26.691372 29410 net.cpp:434] conv6_2_mbox_conf_perm <- conv6_2_mbox_conf
I0320 12:03:26.691380 29410 net.cpp:408] conv6_2_mbox_conf_perm -> conv6_2_mbox_conf_perm
I0320 12:03:26.691479 29410 net.cpp:150] Setting up conv6_2_mbox_conf_perm
I0320 12:03:26.691490 29410 net.cpp:157] Top shape: 32 10 10 66 (211200)
I0320 12:03:26.691494 29410 net.cpp:165] Memory required for data: 7956119616
I0320 12:03:26.691499 29410 layer_factory.hpp:77] Creating layer conv6_2_mbox_conf_flat
I0320 12:03:26.691509 29410 net.cpp:100] Creating Layer conv6_2_mbox_conf_flat
I0320 12:03:26.691516 29410 net.cpp:434] conv6_2_mbox_conf_flat <- conv6_2_mbox_conf_perm
I0320 12:03:26.691524 29410 net.cpp:408] conv6_2_mbox_conf_flat -> conv6_2_mbox_conf_flat
I0320 12:03:26.691555 29410 net.cpp:150] Setting up conv6_2_mbox_conf_flat
I0320 12:03:26.691563 29410 net.cpp:157] Top shape: 32 6600 (211200)
I0320 12:03:26.691568 29410 net.cpp:165] Memory required for data: 7956964416
I0320 12:03:26.691573 29410 layer_factory.hpp:77] Creating layer conv6_2_mbox_priorbox
I0320 12:03:26.691583 29410 net.cpp:100] Creating Layer conv6_2_mbox_priorbox
I0320 12:03:26.691591 29410 net.cpp:434] conv6_2_mbox_priorbox <- conv6_2_conv6_2_relu_0_split_3
I0320 12:03:26.691599 29410 net.cpp:434] conv6_2_mbox_priorbox <- data_data_0_split_3
I0320 12:03:26.691608 29410 net.cpp:408] conv6_2_mbox_priorbox -> conv6_2_mbox_priorbox
I0320 12:03:26.691642 29410 net.cpp:150] Setting up conv6_2_mbox_priorbox
I0320 12:03:26.691661 29410 net.cpp:157] Top shape: 1 2 2400 (4800)
I0320 12:03:26.691668 29410 net.cpp:165] Memory required for data: 7956983616
I0320 12:03:26.691673 29410 layer_factory.hpp:77] Creating layer conv7_2_mbox_loc
I0320 12:03:26.691685 29410 net.cpp:100] Creating Layer conv7_2_mbox_loc
I0320 12:03:26.691692 29410 net.cpp:434] conv7_2_mbox_loc <- conv7_2_conv7_2_relu_0_split_1
I0320 12:03:26.691700 29410 net.cpp:408] conv7_2_mbox_loc -> conv7_2_mbox_loc
I0320 12:03:26.693140 29410 net.cpp:150] Setting up conv7_2_mbox_loc
I0320 12:03:26.693153 29410 net.cpp:157] Top shape: 32 24 5 5 (19200)
I0320 12:03:26.693159 29410 net.cpp:165] Memory required for data: 7957060416
I0320 12:03:26.693168 29410 layer_factory.hpp:77] Creating layer conv7_2_mbox_loc_perm
I0320 12:03:26.693178 29410 net.cpp:100] Creating Layer conv7_2_mbox_loc_perm
I0320 12:03:26.693186 29410 net.cpp:434] conv7_2_mbox_loc_perm <- conv7_2_mbox_loc
I0320 12:03:26.693195 29410 net.cpp:408] conv7_2_mbox_loc_perm -> conv7_2_mbox_loc_perm
I0320 12:03:26.693290 29410 net.cpp:150] Setting up conv7_2_mbox_loc_perm
I0320 12:03:26.693300 29410 net.cpp:157] Top shape: 32 5 5 24 (19200)
I0320 12:03:26.693305 29410 net.cpp:165] Memory required for data: 7957137216
I0320 12:03:26.693310 29410 layer_factory.hpp:77] Creating layer conv7_2_mbox_loc_flat
I0320 12:03:26.693318 29410 net.cpp:100] Creating Layer conv7_2_mbox_loc_flat
I0320 12:03:26.693326 29410 net.cpp:434] conv7_2_mbox_loc_flat <- conv7_2_mbox_loc_perm
I0320 12:03:26.693333 29410 net.cpp:408] conv7_2_mbox_loc_flat -> conv7_2_mbox_loc_flat
I0320 12:03:26.693363 29410 net.cpp:150] Setting up conv7_2_mbox_loc_flat
I0320 12:03:26.693372 29410 net.cpp:157] Top shape: 32 600 (19200)
I0320 12:03:26.693377 29410 net.cpp:165] Memory required for data: 7957214016
I0320 12:03:26.693382 29410 layer_factory.hpp:77] Creating layer conv7_2_mbox_conf
I0320 12:03:26.693397 29410 net.cpp:100] Creating Layer conv7_2_mbox_conf
I0320 12:03:26.693403 29410 net.cpp:434] conv7_2_mbox_conf <- conv7_2_conv7_2_relu_0_split_2
I0320 12:03:26.693411 29410 net.cpp:408] conv7_2_mbox_conf -> conv7_2_mbox_conf
I0320 12:03:26.695255 29410 net.cpp:150] Setting up conv7_2_mbox_conf
I0320 12:03:26.695271 29410 net.cpp:157] Top shape: 32 66 5 5 (52800)
I0320 12:03:26.695276 29410 net.cpp:165] Memory required for data: 7957425216
I0320 12:03:26.695286 29410 layer_factory.hpp:77] Creating layer conv7_2_mbox_conf_perm
I0320 12:03:26.695297 29410 net.cpp:100] Creating Layer conv7_2_mbox_conf_perm
I0320 12:03:26.695305 29410 net.cpp:434] conv7_2_mbox_conf_perm <- conv7_2_mbox_conf
I0320 12:03:26.695314 29410 net.cpp:408] conv7_2_mbox_conf_perm -> conv7_2_mbox_conf_perm
I0320 12:03:26.695408 29410 net.cpp:150] Setting up conv7_2_mbox_conf_perm
I0320 12:03:26.695416 29410 net.cpp:157] Top shape: 32 5 5 66 (52800)
I0320 12:03:26.695422 29410 net.cpp:165] Memory required for data: 7957636416
I0320 12:03:26.695428 29410 layer_factory.hpp:77] Creating layer conv7_2_mbox_conf_flat
I0320 12:03:26.695436 29410 net.cpp:100] Creating Layer conv7_2_mbox_conf_flat
I0320 12:03:26.695442 29410 net.cpp:434] conv7_2_mbox_conf_flat <- conv7_2_mbox_conf_perm
I0320 12:03:26.695451 29410 net.cpp:408] conv7_2_mbox_conf_flat -> conv7_2_mbox_conf_flat
I0320 12:03:26.695480 29410 net.cpp:150] Setting up conv7_2_mbox_conf_flat
I0320 12:03:26.695488 29410 net.cpp:157] Top shape: 32 1650 (52800)
I0320 12:03:26.695493 29410 net.cpp:165] Memory required for data: 7957847616
I0320 12:03:26.695499 29410 layer_factory.hpp:77] Creating layer conv7_2_mbox_priorbox
I0320 12:03:26.695509 29410 net.cpp:100] Creating Layer conv7_2_mbox_priorbox
I0320 12:03:26.695516 29410 net.cpp:434] conv7_2_mbox_priorbox <- conv7_2_conv7_2_relu_0_split_3
I0320 12:03:26.695523 29410 net.cpp:434] conv7_2_mbox_priorbox <- data_data_0_split_4
I0320 12:03:26.695533 29410 net.cpp:408] conv7_2_mbox_priorbox -> conv7_2_mbox_priorbox
I0320 12:03:26.695564 29410 net.cpp:150] Setting up conv7_2_mbox_priorbox
I0320 12:03:26.695572 29410 net.cpp:157] Top shape: 1 2 600 (1200)
I0320 12:03:26.695587 29410 net.cpp:165] Memory required for data: 7957852416
I0320 12:03:26.695595 29410 layer_factory.hpp:77] Creating layer conv8_2_mbox_loc
I0320 12:03:26.695607 29410 net.cpp:100] Creating Layer conv8_2_mbox_loc
I0320 12:03:26.695614 29410 net.cpp:434] conv8_2_mbox_loc <- conv8_2_conv8_2_relu_0_split_1
I0320 12:03:26.695624 29410 net.cpp:408] conv8_2_mbox_loc -> conv8_2_mbox_loc
I0320 12:03:26.696971 29410 net.cpp:150] Setting up conv8_2_mbox_loc
I0320 12:03:26.696985 29410 net.cpp:157] Top shape: 32 16 3 3 (4608)
I0320 12:03:26.696990 29410 net.cpp:165] Memory required for data: 7957870848
I0320 12:03:26.697006 29410 layer_factory.hpp:77] Creating layer conv8_2_mbox_loc_perm
I0320 12:03:26.697016 29410 net.cpp:100] Creating Layer conv8_2_mbox_loc_perm
I0320 12:03:26.697024 29410 net.cpp:434] conv8_2_mbox_loc_perm <- conv8_2_mbox_loc
I0320 12:03:26.697033 29410 net.cpp:408] conv8_2_mbox_loc_perm -> conv8_2_mbox_loc_perm
I0320 12:03:26.697134 29410 net.cpp:150] Setting up conv8_2_mbox_loc_perm
I0320 12:03:26.697142 29410 net.cpp:157] Top shape: 32 3 3 16 (4608)
I0320 12:03:26.697147 29410 net.cpp:165] Memory required for data: 7957889280
I0320 12:03:26.697154 29410 layer_factory.hpp:77] Creating layer conv8_2_mbox_loc_flat
I0320 12:03:26.697161 29410 net.cpp:100] Creating Layer conv8_2_mbox_loc_flat
I0320 12:03:26.697168 29410 net.cpp:434] conv8_2_mbox_loc_flat <- conv8_2_mbox_loc_perm
I0320 12:03:26.697176 29410 net.cpp:408] conv8_2_mbox_loc_flat -> conv8_2_mbox_loc_flat
I0320 12:03:26.697207 29410 net.cpp:150] Setting up conv8_2_mbox_loc_flat
I0320 12:03:26.697216 29410 net.cpp:157] Top shape: 32 144 (4608)
I0320 12:03:26.697222 29410 net.cpp:165] Memory required for data: 7957907712
I0320 12:03:26.697227 29410 layer_factory.hpp:77] Creating layer conv8_2_mbox_conf
I0320 12:03:26.697239 29410 net.cpp:100] Creating Layer conv8_2_mbox_conf
I0320 12:03:26.697248 29410 net.cpp:434] conv8_2_mbox_conf <- conv8_2_conv8_2_relu_0_split_2
I0320 12:03:26.697257 29410 net.cpp:408] conv8_2_mbox_conf -> conv8_2_mbox_conf
I0320 12:03:26.698894 29410 net.cpp:150] Setting up conv8_2_mbox_conf
I0320 12:03:26.698907 29410 net.cpp:157] Top shape: 32 44 3 3 (12672)
I0320 12:03:26.698912 29410 net.cpp:165] Memory required for data: 7957958400
I0320 12:03:26.698923 29410 layer_factory.hpp:77] Creating layer conv8_2_mbox_conf_perm
I0320 12:03:26.698933 29410 net.cpp:100] Creating Layer conv8_2_mbox_conf_perm
I0320 12:03:26.698940 29410 net.cpp:434] conv8_2_mbox_conf_perm <- conv8_2_mbox_conf
I0320 12:03:26.698948 29410 net.cpp:408] conv8_2_mbox_conf_perm -> conv8_2_mbox_conf_perm
I0320 12:03:26.699043 29410 net.cpp:150] Setting up conv8_2_mbox_conf_perm
I0320 12:03:26.699051 29410 net.cpp:157] Top shape: 32 3 3 44 (12672)
I0320 12:03:26.699055 29410 net.cpp:165] Memory required for data: 7958009088
I0320 12:03:26.699061 29410 layer_factory.hpp:77] Creating layer conv8_2_mbox_conf_flat
I0320 12:03:26.699072 29410 net.cpp:100] Creating Layer conv8_2_mbox_conf_flat
I0320 12:03:26.699079 29410 net.cpp:434] conv8_2_mbox_conf_flat <- conv8_2_mbox_conf_perm
I0320 12:03:26.699088 29410 net.cpp:408] conv8_2_mbox_conf_flat -> conv8_2_mbox_conf_flat
I0320 12:03:26.699116 29410 net.cpp:150] Setting up conv8_2_mbox_conf_flat
I0320 12:03:26.699124 29410 net.cpp:157] Top shape: 32 396 (12672)
I0320 12:03:26.699128 29410 net.cpp:165] Memory required for data: 7958059776
I0320 12:03:26.699133 29410 layer_factory.hpp:77] Creating layer conv8_2_mbox_priorbox
I0320 12:03:26.699141 29410 net.cpp:100] Creating Layer conv8_2_mbox_priorbox
I0320 12:03:26.699149 29410 net.cpp:434] conv8_2_mbox_priorbox <- conv8_2_conv8_2_relu_0_split_3
I0320 12:03:26.699156 29410 net.cpp:434] conv8_2_mbox_priorbox <- data_data_0_split_5
I0320 12:03:26.699165 29410 net.cpp:408] conv8_2_mbox_priorbox -> conv8_2_mbox_priorbox
I0320 12:03:26.699196 29410 net.cpp:150] Setting up conv8_2_mbox_priorbox
I0320 12:03:26.699204 29410 net.cpp:157] Top shape: 1 2 144 (288)
I0320 12:03:26.699209 29410 net.cpp:165] Memory required for data: 7958060928
I0320 12:03:26.699214 29410 layer_factory.hpp:77] Creating layer conv9_2_mbox_loc
I0320 12:03:26.699234 29410 net.cpp:100] Creating Layer conv9_2_mbox_loc
I0320 12:03:26.699244 29410 net.cpp:434] conv9_2_mbox_loc <- conv9_2_conv9_2_relu_0_split_0
I0320 12:03:26.699252 29410 net.cpp:408] conv9_2_mbox_loc -> conv9_2_mbox_loc
I0320 12:03:26.700599 29410 net.cpp:150] Setting up conv9_2_mbox_loc
I0320 12:03:26.700613 29410 net.cpp:157] Top shape: 32 16 1 1 (512)
I0320 12:03:26.700618 29410 net.cpp:165] Memory required for data: 7958062976
I0320 12:03:26.700628 29410 layer_factory.hpp:77] Creating layer conv9_2_mbox_loc_perm
I0320 12:03:26.700637 29410 net.cpp:100] Creating Layer conv9_2_mbox_loc_perm
I0320 12:03:26.700644 29410 net.cpp:434] conv9_2_mbox_loc_perm <- conv9_2_mbox_loc
I0320 12:03:26.700654 29410 net.cpp:408] conv9_2_mbox_loc_perm -> conv9_2_mbox_loc_perm
I0320 12:03:26.700752 29410 net.cpp:150] Setting up conv9_2_mbox_loc_perm
I0320 12:03:26.700759 29410 net.cpp:157] Top shape: 32 1 1 16 (512)
I0320 12:03:26.700764 29410 net.cpp:165] Memory required for data: 7958065024
I0320 12:03:26.700772 29410 layer_factory.hpp:77] Creating layer conv9_2_mbox_loc_flat
I0320 12:03:26.700779 29410 net.cpp:100] Creating Layer conv9_2_mbox_loc_flat
I0320 12:03:26.700788 29410 net.cpp:434] conv9_2_mbox_loc_flat <- conv9_2_mbox_loc_perm
I0320 12:03:26.700795 29410 net.cpp:408] conv9_2_mbox_loc_flat -> conv9_2_mbox_loc_flat
I0320 12:03:26.700827 29410 net.cpp:150] Setting up conv9_2_mbox_loc_flat
I0320 12:03:26.700836 29410 net.cpp:157] Top shape: 32 16 (512)
I0320 12:03:26.700840 29410 net.cpp:165] Memory required for data: 7958067072
I0320 12:03:26.700846 29410 layer_factory.hpp:77] Creating layer conv9_2_mbox_conf
I0320 12:03:26.700860 29410 net.cpp:100] Creating Layer conv9_2_mbox_conf
I0320 12:03:26.700866 29410 net.cpp:434] conv9_2_mbox_conf <- conv9_2_conv9_2_relu_0_split_1
I0320 12:03:26.700875 29410 net.cpp:408] conv9_2_mbox_conf -> conv9_2_mbox_conf
I0320 12:03:26.703017 29410 net.cpp:150] Setting up conv9_2_mbox_conf
I0320 12:03:26.703032 29410 net.cpp:157] Top shape: 32 44 1 1 (1408)
I0320 12:03:26.703037 29410 net.cpp:165] Memory required for data: 7958072704
I0320 12:03:26.703047 29410 layer_factory.hpp:77] Creating layer conv9_2_mbox_conf_perm
I0320 12:03:26.703056 29410 net.cpp:100] Creating Layer conv9_2_mbox_conf_perm
I0320 12:03:26.703064 29410 net.cpp:434] conv9_2_mbox_conf_perm <- conv9_2_mbox_conf
I0320 12:03:26.703073 29410 net.cpp:408] conv9_2_mbox_conf_perm -> conv9_2_mbox_conf_perm
I0320 12:03:26.703169 29410 net.cpp:150] Setting up conv9_2_mbox_conf_perm
I0320 12:03:26.703177 29410 net.cpp:157] Top shape: 32 1 1 44 (1408)
I0320 12:03:26.703183 29410 net.cpp:165] Memory required for data: 7958078336
I0320 12:03:26.703189 29410 layer_factory.hpp:77] Creating layer conv9_2_mbox_conf_flat
I0320 12:03:26.703197 29410 net.cpp:100] Creating Layer conv9_2_mbox_conf_flat
I0320 12:03:26.703204 29410 net.cpp:434] conv9_2_mbox_conf_flat <- conv9_2_mbox_conf_perm
I0320 12:03:26.703214 29410 net.cpp:408] conv9_2_mbox_conf_flat -> conv9_2_mbox_conf_flat
I0320 12:03:26.703243 29410 net.cpp:150] Setting up conv9_2_mbox_conf_flat
I0320 12:03:26.703250 29410 net.cpp:157] Top shape: 32 44 (1408)
I0320 12:03:26.703255 29410 net.cpp:165] Memory required for data: 7958083968
I0320 12:03:26.703261 29410 layer_factory.hpp:77] Creating layer conv9_2_mbox_priorbox
I0320 12:03:26.703270 29410 net.cpp:100] Creating Layer conv9_2_mbox_priorbox
I0320 12:03:26.703277 29410 net.cpp:434] conv9_2_mbox_priorbox <- conv9_2_conv9_2_relu_0_split_2
I0320 12:03:26.703284 29410 net.cpp:434] conv9_2_mbox_priorbox <- data_data_0_split_6
I0320 12:03:26.703294 29410 net.cpp:408] conv9_2_mbox_priorbox -> conv9_2_mbox_priorbox
I0320 12:03:26.703325 29410 net.cpp:150] Setting up conv9_2_mbox_priorbox
I0320 12:03:26.703332 29410 net.cpp:157] Top shape: 1 2 16 (32)
I0320 12:03:26.703337 29410 net.cpp:165] Memory required for data: 7958084096
I0320 12:03:26.703343 29410 layer_factory.hpp:77] Creating layer mbox_loc
I0320 12:03:26.703352 29410 net.cpp:100] Creating Layer mbox_loc
I0320 12:03:26.703367 29410 net.cpp:434] mbox_loc <- conv4_3_norm_mbox_loc_flat
I0320 12:03:26.703375 29410 net.cpp:434] mbox_loc <- fc7_mbox_loc_flat
I0320 12:03:26.703383 29410 net.cpp:434] mbox_loc <- conv6_2_mbox_loc_flat
I0320 12:03:26.703389 29410 net.cpp:434] mbox_loc <- conv7_2_mbox_loc_flat
I0320 12:03:26.703397 29410 net.cpp:434] mbox_loc <- conv8_2_mbox_loc_flat
I0320 12:03:26.703402 29410 net.cpp:434] mbox_loc <- conv9_2_mbox_loc_flat
I0320 12:03:26.703410 29410 net.cpp:408] mbox_loc -> mbox_loc
I0320 12:03:26.703444 29410 net.cpp:150] Setting up mbox_loc
I0320 12:03:26.703452 29410 net.cpp:157] Top shape: 32 34928 (1117696)
I0320 12:03:26.703457 29410 net.cpp:165] Memory required for data: 7962554880
I0320 12:03:26.703464 29410 layer_factory.hpp:77] Creating layer mbox_conf
I0320 12:03:26.703471 29410 net.cpp:100] Creating Layer mbox_conf
I0320 12:03:26.703478 29410 net.cpp:434] mbox_conf <- conv4_3_norm_mbox_conf_flat
I0320 12:03:26.703485 29410 net.cpp:434] mbox_conf <- fc7_mbox_conf_flat
I0320 12:03:26.703492 29410 net.cpp:434] mbox_conf <- conv6_2_mbox_conf_flat
I0320 12:03:26.703498 29410 net.cpp:434] mbox_conf <- conv7_2_mbox_conf_flat
I0320 12:03:26.703505 29410 net.cpp:434] mbox_conf <- conv8_2_mbox_conf_flat
I0320 12:03:26.703512 29410 net.cpp:434] mbox_conf <- conv9_2_mbox_conf_flat
I0320 12:03:26.703522 29410 net.cpp:408] mbox_conf -> mbox_conf
I0320 12:03:26.703552 29410 net.cpp:150] Setting up mbox_conf
I0320 12:03:26.703560 29410 net.cpp:157] Top shape: 32 96052 (3073664)
I0320 12:03:26.703565 29410 net.cpp:165] Memory required for data: 7974849536
I0320 12:03:26.703572 29410 layer_factory.hpp:77] Creating layer mbox_priorbox
I0320 12:03:26.703579 29410 net.cpp:100] Creating Layer mbox_priorbox
I0320 12:03:26.703588 29410 net.cpp:434] mbox_priorbox <- conv4_3_norm_mbox_priorbox
I0320 12:03:26.703595 29410 net.cpp:434] mbox_priorbox <- fc7_mbox_priorbox
I0320 12:03:26.703603 29410 net.cpp:434] mbox_priorbox <- conv6_2_mbox_priorbox
I0320 12:03:26.703608 29410 net.cpp:434] mbox_priorbox <- conv7_2_mbox_priorbox
I0320 12:03:26.703613 29410 net.cpp:434] mbox_priorbox <- conv8_2_mbox_priorbox
I0320 12:03:26.703619 29410 net.cpp:434] mbox_priorbox <- conv9_2_mbox_priorbox
I0320 12:03:26.703629 29410 net.cpp:408] mbox_priorbox -> mbox_priorbox
I0320 12:03:26.703656 29410 net.cpp:150] Setting up mbox_priorbox
I0320 12:03:26.703665 29410 net.cpp:157] Top shape: 1 2 34928 (69856)
I0320 12:03:26.703668 29410 net.cpp:165] Memory required for data: 7975128960
I0320 12:03:26.703675 29410 layer_factory.hpp:77] Creating layer mbox_loss
I0320 12:03:26.703688 29410 net.cpp:100] Creating Layer mbox_loss
I0320 12:03:26.703696 29410 net.cpp:434] mbox_loss <- mbox_loc
I0320 12:03:26.703701 29410 net.cpp:434] mbox_loss <- mbox_conf
I0320 12:03:26.703708 29410 net.cpp:434] mbox_loss <- mbox_priorbox
…
  phase: TEST
}
layer {
  name: "data"
  type: "AnnotatedData"
  top: "data"
  top: "label"
  include {
    phase: TEST
  }
  transform_param {
    mean_value: 104
    mean_value: 117
    mean_value: 123
    resize_param {
      prob: 1
      resize_mode: WARP
      height: 300
      width: 300
      interp_mode: LINEAR
    }
  }
  data_param {
    source: "examples/NWPU_VHR/NWPU_VHR_test_lmdb"
    batch_size: 1
    backend: LMDB
  }
  annotated_data_param {
    batch_sampler {
    }
    label_map_file: "data/NWPU_VHR/labelmap_NWPU_VHR.prototxt"
  }
}
layer {
  name: "conv1_1"
  type: "Convolution"
  bottom: "data"
  top: "conv1_1"
  param {
    lr_mult: 1
    decay_mult: 1
  }
  param {
    lr_mult: 2
    decay_mult: 0
  }
  convolution_param {
    num_output: 64
    pad: 1
    kernel_size: 3
    weight_filler {
      type: "xavier"
    }
    bias_filler {
      type: "constant"
      value: 0
    }
  }
}
layer {
  name: "relu1_1"
  type: "ReLU"
  bottom: "conv1_1"
  top: "conv1_1"
}
layer {
  name: "conv1_2"
  type: "Convolution"
  bottom: "conv1_1"
  top: "conv1_2"
  param {
    lr_mult: 1
    decay_mult: 1
  }
  param {
    lr_mult: 2
    decay_mult: 0
  }
  convolution_param {
    num_output: 64
    pad: 1
    kernel_size: 3
    weight_filler {
      type: "xavier"
    }
    bias_filler {
      type: "constant"
      value: 0
    }
  }
}
layer {
  name: "relu1_2"
  type: "ReLU"
  bottom: "conv1_2"
  top: "conv1_2"
}
layer {
  name: "pool1"
  type: "Pooling"
  bottom: "conv1_2"
  top: "pool1"
  pooling_param {
    pool: MAX
    kernel_size: 2
    stride: 2
  }
}
layer {
  name: "conv2_1"
  type: "Convolution"
  bottom: "pool1"
  top: "conv2_1"
  param {
    lr_mult: 1
    decay_mult: 1
  }
  param {
    lr_mult: 2
    decay_mult: 0
  }
  convolution_param {
    num_output: 128
    pad: 1
    kernel_size: 3
    weight_filler {
      type: "xavier"
    }
    bias_filler {
      type: "constant"
      value: 0
    }
  }
}
layer {
  name: "relu2_1"
  type: "ReLU"
  bottom: "conv2_1"
  top: "conv2_1"
}
layer {
  name: "conv2_2"
  type: "Convolution"
  bottom: "conv2_1"
  top: "conv2_2"
  param {
    lr_mult: 1
    decay_mult: 1
  }
  param {
    lr_mult: 2
    decay_mult: 0
  }
  convolution_param {
    num_output: 128
    pad: 1
    kernel_size: 3
    weight_filler {
      type: "xavier"
    }
    bias_filler {
      type: "constant"
      value: 0
    }
  }
}
layer {
  name: "relu2_2"
  type: "ReLU"
  bottom: "conv2_2"
  top: "conv2_2"
}
layer {
  name: "pool2"
  type: "Pooling"
  bottom: "conv2_2"
  top: "pool2"
  pooling_param {
    pool: MAX
    kernel_size: 2
    stride: 2
  }
}
layer {
  name: "conv3_1"
  type: "Convolution"
  bottom: "pool2"
  top: "conv3_1"
  param {
    lr_mult: 1
    decay_mult: 1
  }
  param {
    lr_mult: 2
    decay_mult: 0
  }
  convolution_param {
    num_output: 256
    pad: 1
    kernel_size: 3
    weight_filler {
      type: "xavier"
    }
    bias_filler {
      type: "constant"
      value: 0
    }
  }
}
layer {
  name: "relu3_1"
  type: "ReLU"
  bottom: "conv3_1"
  top: "conv3_1"
}
layer {
  name: "conv3_2"
  type: "Convolution"
  bottom: "conv3_1"
  top: "conv3_2"
  param {
    lr_mult: 1
    decay_mult: 1
  }
  param {
    lr_mult: 2
    decay_mult: 0
  }
  convolution_param {
    num_output: 256
    pad: 1
    kernel_size: 3
    weight_filler {
      type: "xavier"
    }
    bias_filler {
      type: "constant"
      value: 0
    }
  }
}
layer {
  name: "relu3_2"
  type: "ReLU"
  bottom: "conv3_2"
  top: "conv3_2"
}
layer {
  name: "conv3_3"
  type: "Convolution"
  bottom: "conv3_2"
  top: "conv3_3"
  param {
    lr_mult: 1
    decay_mult: 1
  }
  param {
    lr_mult: 2
    decay_mult: 0
  }
  convolution_param {
    num_output: 256
    pad: 1
    kernel_size: 3
    weight_filler {
      type: "xavier"
    }
    bias_filler {
      type: "constant"
      value: 0
    }
  }
}
layer {
  name: "relu3_3"
  type: "ReLU"
  bottom: "conv3_3"
  top: "conv3_3"
}
layer {
  name: "pool3"
  type: "Pooling"
  bottom: "conv3_3"
  top: "pool3"
  pooling_param {
    pool: MAX
    kernel_size: 2
    stride: 2
  }
}
layer {
  name: "conv4_1"
  type: "Convolution"
  bottom: "pool3"
  top: "conv4_1"
  param {
    lr_mult: 1
    decay_mult: 1
  }
  param {
    lr_mult: 2
    decay_mult: 0
  }
  convolution_param {
    num_output: 512
    pad: 1
    kernel_size: 3
    weight_filler {
      type: "xavier"
    }
    bias_filler {
      type: "constant"
      value: 0
    }
  }
}
layer {
  name: "relu4_1"
  type: "ReLU"
  bottom: "conv4_1"
  top: "conv4_1"
}
layer {
  name: "conv4_2"
  type: "Convolution"
  bottom: "conv4_1"
  top: "conv4_2"
  param {
    lr_mult: 1
    decay_mult: 1
  }
  param {
    lr_mult: 2
    decay_mult: 0
  }
  convolution_param {
    num_output: 512
    pad: 1
    kernel_size: 3
    weight_filler {
      type: "xavier"
    }
    bias_filler {
      type: "constant"
      value: 0
    }
  }
}
layer {
  name: "relu4_2"
  type: "ReLU"
  bottom: "conv4_2"
  top: "conv4_2"
}
layer {
  name: "conv4_3"
  type: "Convolution"
  bottom: "conv4_2"
  top: "conv4_3"
  param {
    lr_mult: 1
    decay_mult: 1
  }
  param {
    lr_mult: 2
    decay_mult: 0
  }
  convolution_param {
    num_output: 512
    pad: 1
    kernel_size: 3
    weight_filler {
      type: "xavier"
    }
    bias_filler {
      type: "constant"
      value: 0
    }
  }
}
layer {
  name: "relu4_3"
  type: "ReLU"
  bottom: "conv4_3"
  top: "conv4_3"
}
layer {
  name: "pool4"
  type: "Pooling"
  bottom: "conv4_3"
  top: "pool4"
  pooling_param {
    pool: MAX
    kernel_size: 2
    stride: 2
  }
}
layer {
  name: "conv5_1"
  type: "Convolution"
  bottom: "pool4"
  top: "conv5_1"
  param {
    lr_mult: 1
    decay_mult: 1
  }
  param {
    lr_mult: 2
    decay_mult: 0
  }
  convolution_param {
    num_output: 512
    pad: 1
    kernel_size: 3
    weight_filler {
      type: "xavier"
    }
    bias_filler {
      type: "constant"
      value: 0
    }
    dilation: 1
  }
}
layer {
  name: "relu5_1"
  type: "ReLU"
  bottom: "conv5_1"
  top: "conv5_1"
}
layer {
  name: "conv5_2"
  type: "Convolution"
  bottom: "conv5_1"
  top: "conv5_2"
  param {
    lr_mult: 1
    decay_mult: 1
  }
  param {
    lr_mult: 2
    decay_mult: 0
  }
  convolution_param {
    num_output: 512
    pad: 1
    kernel_size: 3
    weight_filler {
      type: "xavier"
    }
    bias_filler {
      type: "constant"
      value: 0
    }
    dilation: 1
  }
}
layer {
  name: "relu5_2"
  type: "ReLU"
  bottom: "conv5_2"
  top: "conv5_2"
}
layer {
  name: "conv5_3"
  type: "Convolution"
  bottom: "conv5_2"
  top: "conv5_3"
  param {
    lr_mult: 1
    decay_mult: 1
  }
  param {
    lr_mult: 2
    decay_mult: 0
  }
  convolution_param {
    num_output: 512
    pad: 1
    kernel_size: 3
    weight_filler {
      type: "xavier"
    }
    bias_filler {
      type: "constant"
      value: 0
    }
    dilation: 1
  }
}
layer {
  name: "relu5_3"
  type: "ReLU"
  bottom: "conv5_3"
  top: "conv5_3"
}
layer {
  name: "pool5"
  type: "Pooling"
  bottom: "conv5_3"
  top: "pool5"
  pooling_param {
    pool: MAX
    kernel_size: 3
    stride: 1
    pad: 1
  }
}
layer {
  name: "fc6"
  type: "Convolution"
  bottom: "pool5"
  top: "fc6"
  param {
    lr_mult: 1
    decay_mult: 1
  }
  param {
    lr_mult: 2
    decay_mult: 0
  }
  convolution_param {
    num_output: 1024
    pad: 6
    kernel_size: 3
    weight_filler {
      type: "xavier"
    }
    bias_filler {
      type: "constant"
      value: 0
    }
    dilation: 6
  }
}
layer {
  name: "relu6"
  type: "ReLU"
  bottom: "fc6"
  top: "fc6"
}
layer {
  name: "fc7"
  type: "Convolution"
  bottom: "fc6"
  top: "fc7"
  param {
    lr_mult: 1
    decay_mult: 1
  }
  param {
    lr_mult: 2
    decay_mult: 0
  }
  convolution_param {
    num_output: 1024
    kernel_size: 1
    weight_filler {
      type: "xavier"
    }
    bias_filler {
      type: "constant"
      value: 0
    }
  }
}
layer {
  name: "relu7"
  type: "ReLU"
  bottom: "fc7"
  top: "fc7"
}
layer {
  name: "conv6_1"
  type: "Convolution"
  bottom: "fc7"
  top: "conv6_1"
  param {
    lr_mult: 1
    decay_mult: 1
  }
  param {
    lr_mult: 2
    decay_mult: 0
  }
  convolution_param {
    num_output: 256
    pad: 0
    kernel_size: 1
    stride: 1
    weight_filler {
      type: "xavier"
    }
    bias_filler {
      type: "constant"
      value: 0
    }
  }
}
layer {
  name: "conv6_1_relu"
  type: "ReLU"
  bottom: "conv6_1"
  top: "conv6_1"
}
layer {
  name: "conv6_2"
  type: "Convolution"
  bottom: "conv6_1"
  top: "conv6_2"
  param {
    lr_mult: 1
    decay_mult: 1
  }
  param {
    lr_mult: 2
    decay_mult: 0
  }
  convolution_param {
    num_output: 512
    pad: 1
    kernel_size: 3
    stride: 2
    weight_filler {
      type: "xavier"
    }
    bias_filler {
      type: "constant"
      value: 0
    }
  }
}
layer {
  name: "conv6_2_relu"
  type: "ReLU"
  bottom: "conv6_2"
  top: "conv6_2"
}
layer {
  name: "conv7_1"
  type: "Convolution"
  bottom: "conv6_2"
  top: "conv7_1"
  param {
    lr_mult: 1
    decay_mult: 1
  }
  param {
    lr_mult: 2
    decay_mult: 0
  }
  convolution_param {
    num_output: 128
    pad: 0
    kernel_size: 1
    stride: 1
    weight_filler {
      type: "xavier"
    }
    bias_filler {
      type: "constant"
      value: 0
    }
  }
}
layer {
  name: "conv7_1_relu"
  type: "ReLU"
  bottom: "conv7_1"
  top: "conv7_1"
}
layer {
  name: "conv7_2"
  type: "Convolution"
  bottom: "conv7_1"
  top: "conv7_2"
  param {
    lr_mult: 1
    decay_mult: 1
  }
  param {
    lr_mult: 2
    decay_mult: 0
  }
  convolution_param {
    num_output: 256
    pad: 1
    kernel_size: 3
    stride: 2
    weight_filler {
      type: "xavier"
    }
    bias_filler {
      type: "constant"
      value: 0
    }
  }
}
layer {
  name: "conv7_2_relu"
  type: "ReLU"
  bottom: "conv7_2"
  top: "conv7_2"
}
layer {
  name: "conv8_1"
  type: "Convolution"
  bottom: "conv7_2"
  top: "conv8_1"
  param {
    lr_mult: 1
    decay_mult: 1
  }
  param {
    lr_mult: 2
    decay_mult: 0
  }
  convolution_param {
    num_output: 128
    pad: 0
    kernel_size: 1
    stride: 1
    weight_filler {
      type: "xavier"
    }
    bias_filler {
      type: "constant"
      value: 0
    }
  }
}
layer {
  name: "conv8_1_relu"
  type: "ReLU"
  bottom: "conv8_1"
  top: "conv8_1"
}
layer {
  name: "conv8_2"
  type: "Convolution"
  bottom: "conv8_1"
  top: "conv8_2"
  param {
    lr_mult: 1
    decay_mult: 1
  }
  param {
    lr_mult: 2
    decay_mult: 0
  }
  convolution_param {
    num_output: 256
    pad: 0
    kernel_size: 3
    stride: 1
    weight_filler {
      type: "xavier"
    }
    bias_filler {
      type: "constant"
      value: 0
    }
  }
}
layer {
  name: "conv8_2_relu"
  type: "ReLU"
  bottom: "conv8_2"
  top: "conv8_2"
}
layer {
  name: "conv9_1"
  type: "Convolution"
  bottom: "conv8_2"
  top: "conv9_1"
  param {
    lr_mult: 1
    decay_mult: 1
  }
  param {
    lr_mult: 2
    decay_mult: 0
  }
  convolution_param {
    num_output: 128
    pad: 0
    kernel_size: 1
    stride: 1
    weight_filler {
      type: "xavier"
    }
    bias_filler {
      type: "constant"
      value: 0
    }
  }
}
layer {
  name: "conv9_1_relu"
  type: "ReLU"
  bottom: "conv9_1"
  top: "conv9_1"
}
layer {
  name: "conv9_2"
  type: "Convolution"
  bottom: "conv9_1"
  top: "conv9_2"
  param {
    lr_mult: 1
    decay_mult: 1
  }
  param {
    lr_mult: 2
    decay_mult: 0
  }
  convolution_param {
    num_output: 256
    pad: 0
    kernel_size: 3
    stride: 1
    weight_filler {
      type: "xavier"
    }
    bias_filler {
      type: "constant"
      value: 0
    }
  }
}
layer {
  name: "conv9_2_relu"
  type: "ReLU"
  bottom: "conv9_2"
  top: "conv9_2"
}
layer {
  name: "conv4_3_norm"
  type: "Normalize"
  bottom: "conv4_3"
  top: "conv4_3_norm"
  norm_param {
    across_spatial: false
    scale_filler {
      type: "constant"
      value: 20
    }
    channel_shared: false
  }
}
layer {
  name: "conv4_3_norm_mbox_loc"
  type: "Convolution"
  bottom: "conv4_3_norm"
  top: "conv4_3_norm_mbox_loc"
  param {
    lr_mult: 1
    decay_mult: 1
  }
  param {
    lr_mult: 2
    decay_mult: 0
  }
  convolution_param {
    num_output: 16
    pad: 1
    kernel_size: 3
    stride: 1
    weight_filler {
      type: "xavier"
    }
    bias_filler {
      type: "constant"
      value: 0
    }
  }
}
layer {
  name: "conv4_3_norm_mbox_loc_perm"
  type: "Permute"
  bottom: "conv4_3_norm_mbox_loc"
  top: "conv4_3_norm_mbox_loc_perm"
  permute_param {
    order: 0
    order: 2
    order: 3
    order: 1
  }
}
layer {
  name: "conv4_3_norm_mbox_loc_flat"
  type: "Flatten"
  bottom: "conv4_3_norm_mbox_loc_perm"
  top: "conv4_3_norm_mbox_loc_flat"
  flatten_param {
    axis: 1
  }
}
layer {
  name: "conv4_3_norm_mbox_conf"
  type: "Convolution"
  bottom: "conv4_3_norm"
  top: "conv4_3_norm_mbox_conf"
  param {
    lr_mult: 1
    decay_mult: 1
  }
  param {
    lr_mult: 2
    decay_mult: 0
  }
  convolution_param {
    num_output: 44
    pad: 1
    kernel_size: 3
    stride: 1
    weight_filler {
      type: "xavier"
    }
    bias_filler {
      type: "constant"
      value: 0
    }
  }
}
layer {
  name: "conv4_3_norm_mbox_conf_perm"
  type: "Permute"
  bottom: "conv4_3_norm_mbox_conf"
  top: "conv4_3_norm_mbox_conf_perm"
  permute_param {
    order: 0
    order: 2
    order: 3
    order: 1
  }
}
layer {
  name: "conv4_3_norm_mbox_conf_flat"
  type: "Flatten"
  bottom: "conv4_3_norm_mbox_conf_perm"
  top: "conv4_3_norm_mbox_conf_flat"
  flatten_param {
    axis: 1
  }
}
layer {
  name: "conv4_3_norm_mbox_priorbox"
  type: "PriorBox"
  bottom: "conv4_3_norm"
  bottom: "data"
  top: "conv4_3_norm_mbox_priorbox"
  prior_box_param {
    min_size: 30
    max_size: 60
    aspect_ratio: 2
    flip: true
    clip: false
    variance: 0.1
    variance: 0.1
    variance: 0.2
    variance: 0.2
    step: 8
    offset: 0.5
  }
}
layer {
  name: "fc7_mbox_loc"
  type: "Convolution"
  bottom: "fc7"
  top: "fc7_mbox_loc"
  param {
    lr_mult: 1
    decay_mult: 1
  }
  param {
    lr_mult: 2
    decay_mult: 0
  }
  convolution_param {
    num_output: 24
    pad: 1
    kernel_size: 3
    stride: 1
    weight_filler {
      type: "xavier"
    }
    bias_filler {
      type: "constant"
      value: 0
    }
  }
}
layer {
  name: "fc7_mbox_loc_perm"
  type: "Permute"
  bottom: "fc7_mbox_loc"
  top: "fc7_mbox_loc_perm"
  permute_param {
    order: 0
    order: 2
    order: 3
    order: 1
  }
}
layer {
  name: "fc7_mbox_loc_flat"
  type: "Flatten"
  bottom: "fc7_mbox_loc_perm"
  top: "fc7_mbox_loc_flat"
  flatten_param {
    axis: 1
  }
}
layer {
  name: "fc7_mbox_conf"
  type: "Convolution"
  bottom: "fc7"
  top: "fc7_mbox_conf"
  param {
    lr_mult: 1
    decay_mult: 1
  }
  param {
    lr_mult: 2
    decay_mult: 0
  }
  convolution_param {
    num_output: 66
    pad: 1
    kernel_size: 3
    stride: 1
    weight_filler {
      type: "xavier"
    }
    bias_filler {
      type: "constant"
      value: 0
    }
  }
}
layer {
  name: "fc7_mbox_conf_perm"
  type: "Permute"
  bottom: "fc7_mbox_conf"
  top: "fc7_mbox_conf_perm"
  permute_param {
    order: 0
    order: 2
    order: 3
    order: 1
  }
}
layer {
  name: "fc7_mbox_conf_flat"
  type: "Flatten"
  bottom: "fc7_mbox_conf_perm"
  top: "fc7_mbox_conf_flat"
  flatten_param {
    axis: 1
  }
}
layer {
  name: "fc7_mbox_priorbox"
  type: "PriorBox"
  bottom: "fc7"
  bottom: "data"
  top: "fc7_mbox_priorbox"
  prior_box_param {
    min_size: 60
    max_size: 111
    aspect_ratio: 2
    aspect_ratio: 3
    flip: true
    clip: false
    variance: 0.1
    variance: 0.1
    variance: 0.2
    variance: 0.2
    step: 16
    offset: 0.5
  }
}
layer {
  name: "conv6_2_mbox_loc"
  type: "Convolution"
  bottom: "conv6_2"
  top: "conv6_2_mbox_loc"
  param {
    lr_mult: 1
    decay_mult: 1
  }
  param {
    lr_mult: 2
    decay_mult: 0
  }
  convolution_param {
    num_output: 24
    pad: 1
    kernel_size: 3
    stride: 1
    weight_filler {
      type: "xavier"
    }
    bias_filler {
      type: "constant"
      value: 0
    }
  }
}
layer {
  name: "conv6_2_mbox_loc_perm"
  type: "Permute"
  bottom: "conv6_2_mbox_loc"
  top: "conv6_2_mbox_loc_perm"
  permute_param {
    order: 0
    order: 2
    order: 3
    order: 1
  }
}
layer {
  name: "conv6_2_mbox_loc_flat"
  type: "Flatten"
  bottom: "conv6_2_mbox_loc_perm"
  top: "conv6_2_mbox_loc_flat"
  flatten_param {
    axis: 1
  }
}
layer {
  name: "conv6_2_mbox_conf"
  type: "Convolution"
  bottom: "conv6_2"
  top: "conv6_2_mbox_conf"
  param {
    lr_mult: 1
    decay_mult: 1
  }
  param {
    lr_mult: 2
    decay_mult: 0
  }
  convolution_param {
    num_output: 66
    pad: 1
    kernel_size: 3
    stride: 1
    weight_filler {
      type: "xavier"
    }
    bias_filler {
      type: "constant"
      value: 0
    }
  }
}
layer {
  name: "conv6_2_mbox_conf_perm"
  type: "Permute"
  bottom: "conv6_2_mbox_conf"
  top: "conv6_2_mbox_conf_perm"
  permute_param {
    order: 0
    order: 2
    order: 3
    order: 1
  }
}
layer {
  name: "conv6_2_mbox_conf_flat"
  type: "Flatten"
  bottom: "conv6_2_mbox_conf_perm"
  top: "conv6_2_mbox_conf_flat"
  flatten_param {
    axis: 1
  }
}
layer {
  name: "conv6_2_mbox_priorbox"
  type: "PriorBox"
  bottom: "conv6_2"
  bottom: "data"
  top: "conv6_2_mbox_priorbox"
  prior_box_param {
    min_size: 111
    max_size: 162
    aspect_ratio: 2
    aspect_ratio: 3
    flip: true
    clip: false
    variance: 0.1
    variance: 0.1
    variance: 0.2
    variance: 0.2
    step: 32
    offset: 0.5
  }
}
layer {
  name: "conv7_2_mbox_loc"
  type: "Convolution"
  bottom: "conv7_2"
  top: "conv7_2_mbox_loc"
  param {
    lr_mult: 1
    decay_mult: 1
  }
  param {
    lr_mult: 2
    decay_mult: 0
  }
  convolution_param {
    num_output: 24
    pad: 1
    kernel_size: 3
    stride: 1
    weight_filler {
      type: "xavier"
    }
    bias_filler {
      type: "constant"
      value: 0
    }
  }
}
layer {
  name: "conv7_2_mbox_loc_perm"
  type: "Permute"
  bottom: "conv7_2_mbox_loc"
  top: "conv7_2_mbox_loc_perm"
  permute_param {
    order: 0
    order: 2
    order: 3
    order: 1
  }
}
layer {
  name: "conv7_2_mbox_loc_flat"
  type: "Flatten"
  bottom: "conv7_2_mbox_loc_perm"
  top: "conv7_2_mbox_loc_flat"
  flatten_param {
    axis: 1
  }
}
layer {
  name: "conv7_2_mbox_conf"
  type: "Convolution"
  bottom: "conv7_2"
  top: "conv7_2_mbox_conf"
  param {
    lr_mult: 1
    decay_mult: 1
  }
  param {
    lr_mult: 2
    decay_mult: 0
  }
  convolution_param {
    num_output: 66
    pad: 1
    kernel_size: 3
    stride: 1
    weight_filler {
      type: "xavier"
    }
    bias_filler {
      type: "constant"
      value: 0
    }
  }
}
layer {
  name: "conv7_2_mbox_conf_perm"
  type: "Permute"
  bottom: "conv7_2_mbox_conf"
  top: "conv7_2_mbox_conf_perm"
  permute_param {
    order: 0
    order: 2
    order: 3
    order: 1
  }
}
layer {
  name: "conv7_2_mbox_conf_flat"
  type: "Flatten"
  bottom: "conv7_2_mbox_conf_perm"
  top: "conv7_2_mbox_conf_flat"
  flatten_param {
    axis: 1
  }
}
layer {
  name: "conv7_2_mbox_priorbox"
  type: "PriorBox"
  bottom: "conv7_2"
  bottom: "data"
  top: "conv7_2_mbox_priorbox"
  prior_box_param {
    min_size: 162
    max_size: 213
    aspect_ratio: 2
    aspect_ratio: 3
    flip: true
    clip: false
    variance: 0.1
    variance: 0.1
    variance: 0.2
    variance: 0.2
    step: 64
    offset: 0.5
  }
}
layer {
  name: "conv8_2_mbox_loc"
  type: "Convolution"
  bottom: "conv8_2"
  top: "conv8_2_mbox_loc"
  param {
    lr_mult: 1
    decay_mult: 1
  }
  param {
    lr_mult: 2
    decay_mult: 0
  }
  convolution_param {
    num_output: 16
    pad: 1
    kernel_size: 3
    stride: 1
    weight_filler {
      type: "xavier"
    }
    bias_filler {
      type: "constant"
      value: 0
    }
  }
}
layer {
  name: "conv8_2_mbox_loc_perm"
  type: "Permute"
  bottom: "conv8_2_mbox_loc"
  top: "conv8_2_mbox_loc_perm"
  permute_param {
    order: 0
    order: 2
    order: 3
    order: 1
  }
}
layer {
  name: "conv8_2_mbox_loc_flat"
  type: "Flatten"
  bottom: "conv8_2_mbox_loc_perm"
  top: "conv8_2_mbox_loc_flat"
  flatten_param {
    axis: 1
  }
}
layer {
  name: "conv8_2_mbox_conf"
  type: "Convolution"
  bottom: "conv8_2"
  top: "conv8_2_mbox_conf"
  param {
    lr_mult: 1
    decay_mult: 1
  }
  param {
    lr_mult: 2
    decay_mult: 0
  }
  convolution_param {
    num_output: 44
    pad: 1
    kernel_size: 3
    stride: 1
    weight_filler {
      type: "xavier"
    }
    bias_filler {
      type: "constant"
      value: 0
    }
  }
}
layer {
  name: "conv8_2_mbox_conf_perm"
  type: "Permute"
  bottom: "conv8_2_mbox_conf"
  top: "conv8_2_mbox_conf_perm"
  permute_param {
    order: 0
    order: 2
    order: 3
    order: 1
  }
}
layer {
  name: "conv8_2_mbox_conf_flat"
  type: "Flatten"
  bottom: "conv8_2_mbox_conf_perm"
  top: "conv8_2_mbox_conf_flat"
  flatten_param {
    axis: 1
  }
}
layer {
  name: "conv8_2_mbox_priorbox"
  type: "PriorBox"
  bottom: "conv8_2"
  bottom: "data"
  top: "conv8_2_mbox_priorbox"
  prior_box_param {
    min_size: 213
    max_size: 264
    aspect_ratio: 2
    flip: true
    clip: false
    variance: 0.1
    variance: 0.1
    variance: 0.2
    variance: 0.2
    step: 100
    offset: 0.5
  }
}
layer {
  name: "conv9_2_mbox_loc"
  type: "Convolution"
  bottom: "conv9_2"
  top: "conv9_2_mbox_loc"
  param {
    lr_mult: 1
    decay_mult: 1
  }
  param {
    lr_mult: 2
    decay_mult: 0
  }
  convolution_param {
    num_output: 16
    pad: 1
    kernel_size: 3
    stride: 1
    weight_filler {
      type: "xavier"
    }
    bias_filler {
      type: "constant"
      value: 0
    }
  }
}
layer {
  name: "conv9_2_mbox_loc_perm"
  type: "Permute"
  bottom: "conv9_2_mbox_loc"
  top: "conv9_2_mbox_loc_perm"
  permute_param {
    order: 0
    order: 2
    order: 3
    order: 1
  }
}
layer {
  name: "conv9_2_mbox_loc_flat"
  type: "Flatten"
  bottom: "conv9_2_mbox_loc_perm"
  top: "conv9_2_mbox_loc_flat"
  flatten_param {
    axis: 1
  }
}
layer {
  name: "conv9_2_mbox_conf"
  type: "Convolution"
  bottom: "conv9_2"
  top: "conv9_2_mbox_conf"
  param {
    lr_mult: 1
    decay_mult: 1
  }
  param {
    lr_mult: 2
    decay_mult: 0
  }
  convolution_param {
    num_output: 44
    pad: 1
    kernel_size: 3
    stride: 1
    weight_filler {
      type: "xavier"
    }
    bias_filler {
      type: "constant"
      value: 0
    }
  }
}
layer {
  name: "conv9_2_mbox_conf_perm"
  type: "Permute"
  bottom: "conv9_2_mbox_conf"
  top: "conv9_2_mbox_conf_perm"
  permute_param {
    order: 0
    order: 2
    order: 3
    order: 1
  }
}
layer {
  name: "conv9_2_mbox_conf_flat"
  type: "Flatten"
  bottom: "conv9_2_mbox_conf_perm"
  top: "conv9_2_mbox_conf_flat"
  flatten_param {
    axis: 1
  }
}
layer {
  name: "conv9_2_mbox_priorbox"
  type: "PriorBox"
  bottom: "conv9_2"
  bottom: "data"
  top: "conv9_2_mbox_priorbox"
  prior_box_param {
    min_size: 264
    max_size: 315
    aspect_ratio: 2
    flip: true
    clip: false
    variance: 0.1
    variance: 0.1
    variance: 0.2
    variance: 0.2
    step: 300
    offset: 0.5
  }
}
layer {
  name: "mbox_loc"
  type: "Concat"
  bottom: "conv4_3_norm_mbox_loc_flat"
  bottom: "fc7_mbox_loc_flat"
  bottom: "conv6_2_mbox_loc_flat"
  bottom: "conv7_2_mbox_loc_flat"
  bottom: "conv8_2_mbox_loc_flat"
  bottom: "conv9_2_mbox_loc_flat"
  top: "mbox_loc"
  concat_param {
    axis: 1
  }
}
layer {
  name: "mbox_conf"
  type: "Concat"
  bottom: "conv4_3_norm_mbox_conf_flat"
  bottom: "fc7_mbox_conf_flat"
  bottom: "conv6_2_mbox_conf_flat"
  bottom: "conv7_2_mbox_conf_flat"
  bottom: "conv8_2_mbox_conf_flat"
  bottom: "conv9_2_mbox_conf_flat"
  top: "mbox_conf"
  concat_param {
    axis: 1
  }
}
layer {
  name: "mbox_priorbox"
  type: "Concat"
  bottom: "conv4_3_norm_mbox_priorbox"
  bottom: "fc7_mbox_priorbox"
  bottom: "conv6_2_mbox_priorbox"
  bottom: "conv7_2_mbox_priorbox"
  bottom: "conv8_2_mbox_priorbox"
  bottom: "conv9_2_mbox_priorbox"
  top: "mbox_priorbox"
  concat_param {
    axis: 2
  }
}
layer {
  name: "mbox_conf_reshape"
  type: "Reshape"
  bottom: "mbox_conf"
  top: "mbox_conf_reshape"
  reshape_param {
    shape {
      dim: 0
      dim: -1
      dim: 11
    }
  }
}
layer {
  name: "mbox_conf_softmax"
  type: "Softmax"
  bottom: "mbox_conf_reshape"
  top: "mbox_conf_softmax"
  softmax_param {
    axis: 2
  }
}
layer {
  name: "mbox_conf_flatten"
  type: "Flatten"
  bottom: "mbox_conf_softmax"
  top: "mbox_conf_flatten"
  flatten_param {
    axis: 1
  }
}
layer {
  name: "detection_out"
  type: "DetectionOutput"
  bottom: "mbox_loc"
  bottom: "mbox_conf_flatten"
  bottom: "mbox_priorbox"
  top: "detection_out"
  include {
    phase: TEST
  }
  detection_output_param {
    num_classes: 11
    share_location: true
    background_label_id: 0
    nms_param {
      nms_threshold: 0.45
      top_k: 400
    }
    save_output_param {
      output_directory: "/home/zs/data/VOCdevkit/results/VOC2007/SSD_300x300_0319_ini/Main"
      output_name_prefix: "comp4_det_test_"
      output_format: "VOC"
      label_map_file: "data/NWPU_VHR/labelmap_NWPU_VHR.prototxt"
      name_size_file: "data/NWPU_VHR/test_name_size.txt"
      num_test_image: 123
    }
    code_type: CENTER_SIZE
    keep_top_k: 200
    confidence_threshold: 0.01
  }
}
layer {
  name: "detection_eval"
  type: "DetectionEvaluate"
  bottom: "detection_out"
  bottom: "label"
  top: "detection_eval"
  include {
    phase: TEST
  }
  detection_evaluate_param {
    num_classes: 11
    background_label_id: 0
    overlap_threshold: 0.5
    evaluate_difficult_gt: false
    name_size_file: "data/NWPU_VHR/test_name_size.txt"
  }
}
I0320 12:03:26.707319 29410 layer_factory.hpp:77] Creating layer data
I0320 12:03:26.707387 29410 net.cpp:100] Creating Layer data
I0320 12:03:26.707398 29410 net.cpp:408] data -> data
I0320 12:03:26.707412 29410 net.cpp:408] data -> label
I0320 12:03:26.708242 29426 db_lmdb.cpp:35] Opened lmdb examples/NWPU_VHR/NWPU_VHR_test_lmdb
I0320 12:03:26.716903 29410 annotated_data_layer.cpp:62] output data size: 1,3,300,300
I0320 12:03:26.720407 29410 net.cpp:150] Setting up data
I0320 12:03:26.720424 29410 net.cpp:157] Top shape: 1 3 300 300 (270000)
I0320 12:03:26.720429 29410 net.cpp:157] Top shape: 1 1 4 8 (32)
I0320 12:03:26.720432 29410 net.cpp:165] Memory required for data: 1080128
I0320 12:03:26.720438 29410 layer_factory.hpp:77] Creating layer data_data_0_split
I0320 12:03:26.720451 29410 net.cpp:100] Creating Layer data_data_0_split
I0320 12:03:26.720455 29410 net.cpp:434] data_data_0_split <- data
I0320 12:03:26.720463 29410 net.cpp:408] data_data_0_split -> data_data_0_split_0
I0320 12:03:26.720472 29410 net.cpp:408] data_data_0_split -> data_data_0_split_1
I0320 12:03:26.720479 29410 net.cpp:408] data_data_0_split -> data_data_0_split_2
I0320 12:03:26.720484 29410 net.cpp:408] data_data_0_split -> data_data_0_split_3
I0320 12:03:26.720490 29410 net.cpp:408] data_data_0_split -> data_data_0_split_4
I0320 12:03:26.720496 29410 net.cpp:408] data_data_0_split -> data_data_0_split_5
I0320 12:03:26.720501 29410 net.cpp:408] data_data_0_split -> data_data_0_split_6
I0320 12:03:26.720639 29410 net.cpp:150] Setting up data_data_0_split
I0320 12:03:26.720646 29410 net.cpp:157] Top shape: 1 3 300 300 (270000)
I0320 12:03:26.720651 29410 net.cpp:157] Top shape: 1 3 300 300 (270000)
I0320 12:03:26.720655 29410 net.cpp:157] Top shape: 1 3 300 300 (270000)
I0320 12:03:26.720659 29410 net.cpp:157] Top shape: 1 3 300 300 (270000)
I0320 12:03:26.720664 29410 net.cpp:157] Top shape: 1 3 300 300 (270000)
I0320 12:03:26.720667 29410 net.cpp:157] Top shape: 1 3 300 300 (270000)
I0320 12:03:26.720672 29410 net.cpp:157] Top shape: 1 3 300 300 (270000)
I0320 12:03:26.720675 29410 net.cpp:165] Memory required for data: 8640128
I0320 12:03:26.720679 29410 layer_factory.hpp:77] Creating layer conv1_1
I0320 12:03:26.720691 29410 net.cpp:100] Creating Layer conv1_1
I0320 12:03:26.720695 29410 net.cpp:434] conv1_1 <- data_data_0_split_0
I0320 12:03:26.720718 29410 net.cpp:408] conv1_1 -> conv1_1
I0320 12:03:26.722679 29410 net.cpp:150] Setting up conv1_1
I0320 12:03:26.722690 29410 net.cpp:157] Top shape: 1 64 300 300 (5760000)
I0320 12:03:26.722695 29410 net.cpp:165] Memory required for data: 31680128
I0320 12:03:26.722705 29410 layer_factory.hpp:77] Creating layer relu1_1
I0320 12:03:26.722712 29410 net.cpp:100] Creating Layer relu1_1
I0320 12:03:26.722715 29410 net.cpp:434] relu1_1 <- conv1_1
I0320 12:03:26.722721 29410 net.cpp:395] relu1_1 -> conv1_1 (in-place)
I0320 12:03:26.722877 29410 net.cpp:150] Setting up relu1_1
I0320 12:03:26.722885 29410 net.cpp:157] Top shape: 1 64 300 300 (5760000)
I0320 12:03:26.722888 29410 net.cpp:165] Memory required for data: 54720128
I0320 12:03:26.722893 29410 layer_factory.hpp:77] Creating layer conv1_2
I0320 12:03:26.722901 29410 net.cpp:100] Creating Layer conv1_2
I0320 12:03:26.722905 29410 net.cpp:434] conv1_2 <- conv1_1
I0320 12:03:26.722911 29410 net.cpp:408] conv1_2 -> conv1_2
I0320 12:03:26.724344 29410 net.cpp:150] Setting up conv1_2
I0320 12:03:26.724354 29410 net.cpp:157] Top shape: 1 64 300 300 (5760000)
I0320 12:03:26.724359 29410 net.cpp:165] Memory required for data: 77760128
I0320 12:03:26.724366 29410 layer_factory.hpp:77] Creating layer relu1_2
I0320 12:03:26.724373 29410 net.cpp:100] Creating Layer relu1_2
I0320 12:03:26.724377 29410 net.cpp:434] relu1_2 <- conv1_2
I0320 12:03:26.724382 29410 net.cpp:395] relu1_2 -> conv1_2 (in-place)
I0320 12:03:26.724530 29410 net.cpp:150] Setting up relu1_2
I0320 12:03:26.724539 29410 net.cpp:157] Top shape: 1 64 300 300 (5760000)
I0320 12:03:26.724541 29410 net.cpp:165] Memory required for data: 100800128
I0320 12:03:26.724545 29410 layer_factory.hpp:77] Creating layer pool1
I0320 12:03:26.724551 29410 net.cpp:100] Creating Layer pool1
I0320 12:03:26.724555 29410 net.cpp:434] pool1 <- conv1_2
I0320 12:03:26.724560 29410 net.cpp:408] pool1 -> pool1
I0320 12:03:26.724602 29410 net.cpp:150] Setting up pool1
I0320 12:03:26.724608 29410 net.cpp:157] Top shape: 1 64 150 150 (1440000)
I0320 12:03:26.724612 29410 net.cpp:165] Memory required for data: 106560128
I0320 12:03:26.724617 29410 layer_factory.hpp:77] Creating layer conv2_1
I0320 12:03:26.724623 29410 net.cpp:100] Creating Layer conv2_1
I0320 12:03:26.724627 29410 net.cpp:434] conv2_1 <- pool1
I0320 12:03:26.724633 29410 net.cpp:408] conv2_1 -> conv2_1
I0320 12:03:26.726676 29410 net.cpp:150] Setting up conv2_1
I0320 12:03:26.726686 29410 net.cpp:157] Top shape: 1 128 150 150 (2880000)
I0320 12:03:26.726691 29410 net.cpp:165] Memory required for data: 118080128
I0320 12:03:26.726699 29410 layer_factory.hpp:77] Creating layer relu2_1
I0320 12:03:26.726706 29410 net.cpp:100] Creating Layer relu2_1
I0320 12:03:26.726709 29410 net.cpp:434] relu2_1 <- conv2_1
I0320 12:03:26.726714 29410 net.cpp:395] relu2_1 -> conv2_1 (in-place)
I0320 12:03:26.727383 29410 net.cpp:150] Setting up relu2_1
I0320 12:03:26.727393 29410 net.cpp:157] Top shape: 1 128 150 150 (2880000)
I0320 12:03:26.727396 29410 net.cpp:165] Memory required for data: 129600128
I0320 12:03:26.727401 29410 layer_factory.hpp:77] Creating layer conv2_2
I0320 12:03:26.727409 29410 net.cpp:100] Creating Layer conv2_2
I0320 12:03:26.727413 29410 net.cpp:434] conv2_2 <- conv2_1
I0320 12:03:26.727419 29410 net.cpp:408] conv2_2 -> conv2_2
I0320 12:03:26.729787 29410 net.cpp:150] Setting up conv2_2
I0320 12:03:26.729799 29410 net.cpp:157] Top shape: 1 128 150 150 (2880000)
I0320 12:03:26.729802 29410 net.cpp:165] Memory required for data: 141120128
I0320 12:03:26.729809 29410 layer_factory.hpp:77] Creating layer relu2_2
I0320 12:03:26.729815 29410 net.cpp:100] Creating Layer relu2_2
I0320 12:03:26.729820 29410 net.cpp:434] relu2_2 <- conv2_2
I0320 12:03:26.729823 29410 net.cpp:395] relu2_2 -> conv2_2 (in-place)
I0320 12:03:26.729981 29410 net.cpp:150] Setting up relu2_2
I0320 12:03:26.729990 29410 net.cpp:157] Top shape: 1 128 150 150 (2880000)
I0320 12:03:26.729993 29410 net.cpp:165] Memory required for data: 152640128
I0320 12:03:26.730012 29410 layer_factory.hpp:77] Creating layer pool2
I0320 12:03:26.730020 29410 net.cpp:100] Creating Layer pool2
I0320 12:03:26.730023 29410 net.cpp:434] pool2 <- conv2_2
I0320 12:03:26.730029 29410 net.cpp:408] pool2 -> pool2
I0320 12:03:26.730072 29410 net.cpp:150] Setting up pool2
I0320 12:03:26.730078 29410 net.cpp:157] Top shape: 1 128 75 75 (720000)
I0320 12:03:26.730082 29410 net.cpp:165] Memory required for data: 155520128
I0320 12:03:26.730087 29410 layer_factory.hpp:77] Creating layer conv3_1
I0320 12:03:26.730094 29410 net.cpp:100] Creating Layer conv3_1
I0320 12:03:26.730098 29410 net.cpp:434] conv3_1 <- pool2
I0320 12:03:26.730103 29410 net.cpp:408] conv3_1 -> conv3_1
I0320 12:03:26.733898 29410 net.cpp:150] Setting up conv3_1
I0320 12:03:26.733911 29410 net.cpp:157] Top shape: 1 256 75 75 (1440000)
I0320 12:03:26.733916 29410 net.cpp:165] Memory required for data: 161280128
I0320 12:03:26.733925 29410 layer_factory.hpp:77] Creating layer relu3_1
I0320 12:03:26.733932 29410 net.cpp:100] Creating Layer relu3_1
I0320 12:03:26.733937 29410 net.cpp:434] relu3_1 <- conv3_1
I0320 12:03:26.733942 29410 net.cpp:395] relu3_1 -> conv3_1 (in-place)
I0320 12:03:26.734107 29410 net.cpp:150] Setting up relu3_1
I0320 12:03:26.734114 29410 net.cpp:157] Top shape: 1 256 75 75 (1440000)
I0320 12:03:26.734117 29410 net.cpp:165] Memory required for data: 167040128
I0320 12:03:26.734122 29410 layer_factory.hpp:77] Creating layer conv3_2
I0320 12:03:26.734130 29410 net.cpp:100] Creating Layer conv3_2
I0320 12:03:26.734134 29410 net.cpp:434] conv3_2 <- conv3_1
I0320 12:03:26.734140 29410 net.cpp:408] conv3_2 -> conv3_2
I0320 12:03:26.739262 29410 net.cpp:150] Setting up conv3_2
I0320 12:03:26.739275 29410 net.cpp:157] Top shape: 1 256 75 75 (1440000)
I0320 12:03:26.739280 29410 net.cpp:165] Memory required for data: 172800128
I0320 12:03:26.739287 29410 layer_factory.hpp:77] Creating layer relu3_2
I0320 12:03:26.739293 29410 net.cpp:100] Creating Layer relu3_2
I0320 12:03:26.739298 29410 net.cpp:434] relu3_2 <- conv3_2
I0320 12:03:26.739305 29410 net.cpp:395] relu3_2 -> conv3_2 (in-place)
I0320 12:03:26.739464 29410 net.cpp:150] Setting up relu3_2
I0320 12:03:26.739471 29410 net.cpp:157] Top shape: 1 256 75 75 (1440000)
I0320 12:03:26.739475 29410 net.cpp:165] Memory required for data: 178560128
I0320 12:03:26.739480 29410 layer_factory.hpp:77] Creating layer conv3_3
I0320 12:03:26.739490 29410 net.cpp:100] Creating Layer conv3_3
I0320 12:03:26.739495 29410 net.cpp:434] conv3_3 <- conv3_2
I0320 12:03:26.739500 29410 net.cpp:408] conv3_3 -> conv3_3
I0320 12:03:26.744737 29410 net.cpp:150] Setting up conv3_3
I0320 12:03:26.744753 29410 net.cpp:157] Top shape: 1 256 75 75 (1440000)
I0320 12:03:26.744756 29410 net.cpp:165] Memory required for data: 184320128
I0320 12:03:26.744765 29410 layer_factory.hpp:77] Creating layer relu3_3
I0320 12:03:26.744772 29410 net.cpp:100] Creating Layer relu3_3
I0320 12:03:26.744777 29410 net.cpp:434] relu3_3 <- conv3_3
I0320 12:03:26.744783 29410 net.cpp:395] relu3_3 -> conv3_3 (in-place)
I0320 12:03:26.745465 29410 net.cpp:150] Setting up relu3_3
I0320 12:03:26.745476 29410 net.cpp:157] Top shape: 1 256 75 75 (1440000)
I0320 12:03:26.745478 29410 net.cpp:165] Memory required for data: 190080128
I0320 12:03:26.745482 29410 layer_factory.hpp:77] Creating layer pool3
I0320 12:03:26.745489 29410 net.cpp:100] Creating Layer pool3
I0320 12:03:26.745493 29410 net.cpp:434] pool3 <- conv3_3
I0320 12:03:26.745499 29410 net.cpp:408] pool3 -> pool3
I0320 12:03:26.745544 29410 net.cpp:150] Setting up pool3
I0320 12:03:26.745550 29410 net.cpp:157] Top shape: 1 256 38 38 (369664)
I0320 12:03:26.745554 29410 net.cpp:165] Memory required for data: 191558784
I0320 12:03:26.745558 29410 layer_factory.hpp:77] Creating layer conv4_1
I0320 12:03:26.745568 29410 net.cpp:100] Creating Layer conv4_1
I0320 12:03:26.745571 29410 net.cpp:434] conv4_1 <- pool3
I0320 12:03:26.745577 29410 net.cpp:408] conv4_1 -> conv4_1
I0320 12:03:26.753840 29410 net.cpp:150] Setting up conv4_1
I0320 12:03:26.753856 29410 net.cpp:157] Top shape: 1 512 38 38 (739328)
I0320 12:03:26.753878 29410 net.cpp:165] Memory required for data: 194516096
I0320 12:03:26.753887 29410 layer_factory.hpp:77] Creating layer relu4_1
I0320 12:03:26.753895 29410 net.cpp:100] Creating Layer relu4_1
I0320 12:03:26.753901 29410 net.cpp:434] relu4_1 <- conv4_1
I0320 12:03:26.753906 29410 net.cpp:395] relu4_1 -> conv4_1 (in-place)
I0320 12:03:26.754066 29410 net.cpp:150] Setting up relu4_1
I0320 12:03:26.754073 29410 net.cpp:157] Top shape: 1 512 38 38 (739328)
I0320 12:03:26.754076 29410 net.cpp:165] Memory required for data: 197473408
I0320 12:03:26.754081 29410 layer_factory.hpp:77] Creating layer conv4_2
I0320 12:03:26.754091 29410 net.cpp:100] Creating Layer conv4_2
I0320 12:03:26.754094 29410 net.cpp:434] conv4_2 <- conv4_1
I0320 12:03:26.754099 29410 net.cpp:408] conv4_2 -> conv4_2
I0320 12:03:26.768292 29410 net.cpp:150] Setting up conv4_2
I0320 12:03:26.768313 29410 net.cpp:157] Top shape: 1 512 38 38 (739328)
I0320 12:03:26.768318 29410 net.cpp:165] Memory required for data: 200430720
I0320 12:03:26.768332 29410 layer_factory.hpp:77] Creating layer relu4_2
I0320 12:03:26.768340 29410 net.cpp:100] Creating Layer relu4_2
I0320 12:03:26.768347 29410 net.cpp:434] relu4_2 <- conv4_2
I0320 12:03:26.768352 29410 net.cpp:395] relu4_2 -> conv4_2 (in-place)
I0320 12:03:26.768510 29410 net.cpp:150] Setting up relu4_2
I0320 12:03:26.768518 29410 net.cpp:157] Top shape: 1 512 38 38 (739328)
I0320 12:03:26.768522 29410 net.cpp:165] Memory required for data: 203388032
I0320 12:03:26.768525 29410 layer_factory.hpp:77] Creating layer conv4_3
I0320 12:03:26.768534 29410 net.cpp:100] Creating Layer conv4_3
I0320 12:03:26.768538 29410 net.cpp:434] conv4_3 <- conv4_2
I0320 12:03:26.768545 29410 net.cpp:408] conv4_3 -> conv4_3
I0320 12:03:26.783007 29410 net.cpp:150] Setting up conv4_3
I0320 12:03:26.783030 29410 net.cpp:157] Top shape: 1 512 38 38 (739328)
I0320 12:03:26.783035 29410 net.cpp:165] Memory required for data: 206345344
I0320 12:03:26.783046 29410 layer_factory.hpp:77] Creating layer relu4_3
I0320 12:03:26.783057 29410 net.cpp:100] Creating Layer relu4_3
I0320 12:03:26.783066 29410 net.cpp:434] relu4_3 <- conv4_3
I0320 12:03:26.783074 29410 net.cpp:395] relu4_3 -> conv4_3 (in-place)
I0320 12:03:26.783792 29410 net.cpp:150] Setting up relu4_3
I0320 12:03:26.783804 29410 net.cpp:157] Top shape: 1 512 38 38 (739328)
I0320 12:03:26.783809 29410 net.cpp:165] Memory required for data: 209302656
I0320 12:03:26.783815 29410 layer_factory.hpp:77] Creating layer conv4_3_relu4_3_0_split
I0320 12:03:26.783825 29410 net.cpp:100] Creating Layer conv4_3_relu4_3_0_split
I0320 12:03:26.783830 29410 net.cpp:434] conv4_3_relu4_3_0_split <- conv4_3
I0320 12:03:26.783839 29410 net.cpp:408] conv4_3_relu4_3_0_split -> conv4_3_relu4_3_0_split_0
I0320 12:03:26.783849 29410 net.cpp:408] conv4_3_relu4_3_0_split -> conv4_3_relu4_3_0_split_1
I0320 12:03:26.783898 29410 net.cpp:150] Setting up conv4_3_relu4_3_0_split
I0320 12:03:26.783907 29410 net.cpp:157] Top shape: 1 512 38 38 (739328)
I0320 12:03:26.783915 29410 net.cpp:157] Top shape: 1 512 38 38 (739328)
I0320 12:03:26.783919 29410 net.cpp:165] Memory required for data: 215217280
I0320 12:03:26.783924 29410 layer_factory.hpp:77] Creating layer pool4
I0320 12:03:26.783933 29410 net.cpp:100] Creating Layer pool4
I0320 12:03:26.783939 29410 net.cpp:434] pool4 <- conv4_3_relu4_3_0_split_0
I0320 12:03:26.783946 29410 net.cpp:408] pool4 -> pool4
I0320 12:03:26.783993 29410 net.cpp:150] Setting up pool4
I0320 12:03:26.784001 29410 net.cpp:157] Top shape: 1 512 19 19 (184832)
I0320 12:03:26.784005 29410 net.cpp:165] Memory required for data: 215956608
I0320 12:03:26.784011 29410 layer_factory.hpp:77] Creating layer conv5_1
I0320 12:03:26.784024 29410 net.cpp:100] Creating Layer conv5_1
I0320 12:03:26.784031 29410 net.cpp:434] conv5_1 <- pool4
I0320 12:03:26.784040 29410 net.cpp:408] conv5_1 -> conv5_1
I0320 12:03:26.798233 29410 net.cpp:150] Setting up conv5_1
I0320 12:03:26.798257 29410 net.cpp:157] Top shape: 1 512 19 19 (184832)
I0320 12:03:26.798264 29410 net.cpp:165] Memory required for data: 216695936
I0320 12:03:26.798300 29410 layer_factory.hpp:77] Creating layer relu5_1
I0320 12:03:26.798315 29410 net.cpp:100] Creating Layer relu5_1
I0320 12:03:26.798324 29410 net.cpp:434] relu5_1 <- conv5_1
I0320 12:03:26.798336 29410 net.cpp:395] relu5_1 -> conv5_1 (in-place)
I0320 12:03:26.798499 29410 net.cpp:150] Setting up relu5_1
I0320 12:03:26.798511 29410 net.cpp:157] Top shape: 1 512 19 19 (184832)
I0320 12:03:26.798516 29410 net.cpp:165] Memory required for data: 217435264
I0320 12:03:26.798521 29410 layer_factory.hpp:77] Creating layer conv5_2
I0320 12:03:26.798535 29410 net.cpp:100] Creating Layer conv5_2
I0320 12:03:26.798542 29410 net.cpp:434] conv5_2 <- conv5_1
I0320 12:03:26.798552 29410 net.cpp:408] conv5_2 -> conv5_2
I0320 12:03:26.812922 29410 net.cpp:150] Setting up conv5_2
I0320 12:03:26.812945 29410 net.cpp:157] Top shape: 1 512 19 19 (184832)
I0320 12:03:26.812952 29410 net.cpp:165] Memory required for data: 218174592
I0320 12:03:26.812963 29410 layer_factory.hpp:77] Creating layer relu5_2
I0320 12:03:26.812974 29410 net.cpp:100] Creating Layer relu5_2
I0320 12:03:26.812983 29410 net.cpp:434] relu5_2 <- conv5_2
I0320 12:03:26.812994 29410 net.cpp:395] relu5_2 -> conv5_2 (in-place)
I0320 12:03:26.813174 29410 net.cpp:150] Setting up relu5_2
I0320 12:03:26.813185 29410 net.cpp:157] Top shape: 1 512 19 19 (184832)
I0320 12:03:26.813189 29410 net.cpp:165] Memory required for data: 218913920
I0320 12:03:26.813195 29410 layer_factory.hpp:77] Creating layer conv5_3
I0320 12:03:26.813212 29410 net.cpp:100] Creating Layer conv5_3
I0320 12:03:26.813220 29410 net.cpp:434] conv5_3 <- conv5_2
I0320 12:03:26.813228 29410 net.cpp:408] conv5_3 -> conv5_3
I0320 12:03:26.827601 29410 net.cpp:150] Setting up conv5_3
I0320 12:03:26.827626 29410 net.cpp:157] Top shape: 1 512 19 19 (184832)
I0320 12:03:26.827631 29410 net.cpp:165] Memory required for data: 219653248
I0320 12:03:26.827643 29410 layer_factory.hpp:77] Creating layer relu5_3
I0320 12:03:26.827664 29410 net.cpp:100] Creating Layer relu5_3
I0320 12:03:26.827673 29410 net.cpp:434] relu5_3 <- conv5_3
I0320 12:03:26.827682 29410 net.cpp:395] relu5_3 -> conv5_3 (in-place)
I0320 12:03:26.828423 29410 net.cpp:150] Setting up relu5_3
I0320 12:03:26.828436 29410 net.cpp:157] Top shape: 1 512 19 19 (184832)
I0320 12:03:26.828442 29410 net.cpp:165] Memory required for data: 220392576
I0320 12:03:26.828449 29410 layer_factory.hpp:77] Creating layer pool5
I0320 12:03:26.828459 29410 net.cpp:100] Creating Layer pool5
I0320 12:03:26.828464 29410 net.cpp:434] pool5 <- conv5_3
I0320 12:03:26.828474 29410 net.cpp:408] pool5 -> pool5
I0320 12:03:26.828531 29410 net.cpp:150] Setting up pool5
I0320 12:03:26.828539 29410 net.cpp:157] Top shape: 1 512 19 19 (184832)
I0320 12:03:26.828546 29410 net.cpp:165] Memory required for data: 221131904
I0320 12:03:26.828552 29410 layer_factory.hpp:77] Creating layer fc6
I0320 12:03:26.828567 29410 net.cpp:100] Creating Layer fc6
I0320 12:03:26.828572 29410 net.cpp:434] fc6 <- pool5
I0320 12:03:26.828583 29410 net.cpp:408] fc6 -> fc6
I0320 12:03:26.853404 29410 net.cpp:150] Setting up fc6
I0320 12:03:26.853432 29410 net.cpp:157] Top shape: 1 1024 19 19 (369664)
I0320 12:03:26.853437 29410 net.cpp:165] Memory required for data: 222610560
I0320 12:03:26.853448 29410 layer_factory.hpp:77] Creating layer relu6
I0320 12:03:26.853461 29410 net.cpp:100] Creating Layer relu6
I0320 12:03:26.853468 29410 net.cpp:434] relu6 <- fc6
I0320 12:03:26.853482 29410 net.cpp:395] relu6 -> fc6 (in-place)
I0320 12:03:26.853751 29410 net.cpp:150] Setting up relu6
I0320 12:03:26.853763 29410 net.cpp:157] Top shape: 1 1024 19 19 (369664)
I0320 12:03:26.853767 29410 net.cpp:165] Memory required for data: 224089216
I0320 12:03:26.853773 29410 layer_factory.hpp:77] Creating layer fc7
I0320 12:03:26.853796 29410 net.cpp:100] Creating Layer fc7
I0320 12:03:26.853801 29410 net.cpp:434] fc7 <- fc6
I0320 12:03:26.853811 29410 net.cpp:408] fc7 -> fc7
I0320 12:03:26.861203 29410 net.cpp:150] Setting up fc7
I0320 12:03:26.861225 29410 net.cpp:157] Top shape: 1 1024 19 19 (369664)
I0320 12:03:26.861254 29410 net.cpp:165] Memory required for data: 225567872
I0320 12:03:26.861268 29410 layer_factory.hpp:77] Creating layer relu7
I0320 12:03:26.861281 29410 net.cpp:100] Creating Layer relu7
I0320 12:03:26.861290 29410 net.cpp:434] relu7 <- fc7
I0320 12:03:26.861300 29410 net.cpp:395] relu7 -> fc7 (in-place)
I0320 12:03:26.861474 29410 net.cpp:150] Setting up relu7
I0320 12:03:26.861483 29410 net.cpp:157] Top shape: 1 1024 19 19 (369664)
I0320 12:03:26.861488 29410 net.cpp:165] Memory required for data: 227046528
I0320 12:03:26.861495 29410 layer_factory.hpp:77] Creating layer fc7_relu7_0_split
I0320 12:03:26.861505 29410 net.cpp:100] Creating Layer fc7_relu7_0_split
I0320 12:03:26.861512 29410 net.cpp:434] fc7_relu7_0_split <- fc7
I0320 12:03:26.861521 29410 net.cpp:408] fc7_relu7_0_split -> fc7_relu7_0_split_0
I0320 12:03:26.861533 29410 net.cpp:408] fc7_relu7_0_split -> fc7_relu7_0_split_1
I0320 12:03:26.861552 29410 net.cpp:408] fc7_relu7_0_split -> fc7_relu7_0_split_2
I0320 12:03:26.861560 29410 net.cpp:408] fc7_relu7_0_split -> fc7_relu7_0_split_3
I0320 12:03:26.861634 29410 net.cpp:150] Setting up fc7_relu7_0_split
I0320 12:03:26.861644 29410 net.cpp:157] Top shape: 1 1024 19 19 (369664)
I0320 12:03:26.861650 29410 net.cpp:157] Top shape: 1 1024 19 19 (369664)
I0320 12:03:26.861656 29410 net.cpp:157] Top shape: 1 1024 19 19 (369664)
I0320 12:03:26.861662 29410 net.cpp:157] Top shape: 1 1024 19 19 (369664)
I0320 12:03:26.861668 29410 net.cpp:165] Memory required for data: 232961152
I0320 12:03:26.861675 29410 layer_factory.hpp:77] Creating layer conv6_1
I0320 12:03:26.861690 29410 net.cpp:100] Creating Layer conv6_1
I0320 12:03:26.861696 29410 net.cpp:434] conv6_1 <- fc7_relu7_0_split_0
I0320 12:03:26.861707 29410 net.cpp:408] conv6_1 -> conv6_1
I0320 12:03:26.865537 29410 net.cpp:150] Setting up conv6_1
I0320 12:03:26.865552 29410 net.cpp:157] Top shape: 1 256 19 19 (92416)
I0320 12:03:26.865556 29410 net.cpp:165] Memory required for data: 233330816
I0320 12:03:26.865567 29410 layer_factory.hpp:77] Creating layer conv6_1_relu
I0320 12:03:26.865581 29410 net.cpp:100] Creating Layer conv6_1_relu
I0320 12:03:26.865587 29410 net.cpp:434] conv6_1_relu <- conv6_1
I0320 12:03:26.865595 29410 net.cpp:395] conv6_1_relu -> conv6_1 (in-place)
I0320 12:03:26.865788 29410 net.cpp:150] Setting up conv6_1_relu
I0320 12:03:26.865798 29410 net.cpp:157] Top shape: 1 256 19 19 (92416)
I0320 12:03:26.865803 29410 net.cpp:165] Memory required for data: 233700480
I0320 12:03:26.865808 29410 layer_factory.hpp:77] Creating layer conv6_2
I0320 12:03:26.865823 29410 net.cpp:100] Creating Layer conv6_2
I0320 12:03:26.865829 29410 net.cpp:434] conv6_2 <- conv6_1
I0320 12:03:26.865839 29410 net.cpp:408] conv6_2 -> conv6_2
I0320 12:03:26.874339 29410 net.cpp:150] Setting up conv6_2
I0320 12:03:26.874362 29410 net.cpp:157] Top shape: 1 512 10 10 (51200)
I0320 12:03:26.874367 29410 net.cpp:165] Memory required for data: 233905280
I0320 12:03:26.874387 29410 layer_factory.hpp:77] Creating layer conv6_2_relu
I0320 12:03:26.874400 29410 net.cpp:100] Creating Layer conv6_2_relu
I0320 12:03:26.874409 29410 net.cpp:434] conv6_2_relu <- conv6_2
I0320 12:03:26.874419 29410 net.cpp:395] conv6_2_relu -> conv6_2 (in-place)
I0320 12:03:26.875149 29410 net.cpp:150] Setting up conv6_2_relu
I0320 12:03:26.875164 29410 net.cpp:157] Top shape: 1 512 10 10 (51200)
I0320 12:03:26.875169 29410 net.cpp:165] Memory required for data: 234110080
I0320 12:03:26.875174 29410 layer_factory.hpp:77] Creating layer conv6_2_conv6_2_relu_0_split
I0320 12:03:26.875185 29410 net.cpp:100] Creating Layer conv6_2_conv6_2_relu_0_split
I0320 12:03:26.875191 29410 net.cpp:434] conv6_2_conv6_2_relu_0_split <- conv6_2
I0320 12:03:26.875202 29410 net.cpp:408] conv6_2_conv6_2_relu_0_split -> conv6_2_conv6_2_relu_0_split_0
I0320 12:03:26.875214 29410 net.cpp:408] conv6_2_conv6_2_relu_0_split -> conv6_2_conv6_2_relu_0_split_1
I0320 12:03:26.875223 29410 net.cpp:408] conv6_2_conv6_2_relu_0_split -> conv6_2_conv6_2_relu_0_split_2
I0320 12:03:26.875246 29410 net.cpp:408] conv6_2_conv6_2_relu_0_split -> conv6_2_conv6_2_relu_0_split_3
I0320 12:03:26.875330 29410 net.cpp:150] Setting up conv6_2_conv6_2_relu_0_split
I0320 12:03:26.875339 29410 net.cpp:157] Top shape: 1 512 10 10 (51200)
I0320 12:03:26.875344 29410 net.cpp:157] Top shape: 1 512 10 10 (51200)
I0320 12:03:26.875350 29410 net.cpp:157] Top shape: 1 512 10 10 (51200)
I0320 12:03:26.875358 29410 net.cpp:157] Top shape: 1 512 10 10 (51200)
I0320 12:03:26.875365 29410 net.cpp:165] Memory required for data: 234929280
I0320 12:03:26.875370 29410 layer_factory.hpp:77] Creating layer conv7_1
I0320 12:03:26.875385 29410 net.cpp:100] Creating Layer conv7_1
I0320 12:03:26.875391 29410 net.cpp:434] conv7_1 <- conv6_2_conv6_2_relu_0_split_0
I0320 12:03:26.875403 29410 net.cpp:408] conv7_1 -> conv7_1
I0320 12:03:26.877049 29410 net.cpp:150] Setting up conv7_1
I0320 12:03:26.877063 29410 net.cpp:157] Top shape: 1 128 10 10 (12800)
I0320 12:03:26.877068 29410 net.cpp:165] Memory required for data: 234980480
I0320 12:03:26.877077 29410 layer_factory.hpp:77] Creating layer conv7_1_relu
I0320 12:03:26.877086 29410 net.cpp:100] Creating Layer conv7_1_relu
I0320 12:03:26.877091 29410 net.cpp:434] conv7_1_relu <- conv7_1
I0320 12:03:26.877102 29410 net.cpp:395] conv7_1_relu -> conv7_1 (in-place)
I0320 12:03:26.877271 29410 net.cpp:150] Setting up conv7_1_relu
I0320 12:03:26.877281 29410 net.cpp:157] Top shape: 1 128 10 10 (12800)
I0320 12:03:26.877285 29410 net.cpp:165] Memory required for data: 235031680
I0320 12:03:26.877291 29410 layer_factory.hpp:77] Creating layer conv7_2
I0320 12:03:26.877305 29410 net.cpp:100] Creating Layer conv7_2
I0320 12:03:26.877310 29410 net.cpp:434] conv7_2 <- conv7_1
I0320 12:03:26.877321 29410 net.cpp:408] conv7_2 -> conv7_2
I0320 12:03:26.880753 29410 net.cpp:150] Setting up conv7_2
I0320 12:03:26.880769 29410 net.cpp:157] Top shape: 1 256 5 5 (6400)
I0320 12:03:26.880774 29410 net.cpp:165] Memory required for data: 235057280
I0320 12:03:26.880784 29410 layer_factory.hpp:77] Creating layer conv7_2_relu
I0320 12:03:26.880794 29410 net.cpp:100] Creating Layer conv7_2_relu
I0320 12:03:26.880800 29410 net.cpp:434] conv7_2_relu <- conv7_2
I0320 12:03:26.880810 29410 net.cpp:395] conv7_2_relu -> conv7_2 (in-place)
I0320 12:03:26.880985 29410 net.cpp:150] Setting up conv7_2_relu
I0320 12:03:26.880997 29410 net.cpp:157] Top shape: 1 256 5 5 (6400)
I0320 12:03:26.881001 29410 net.cpp:165] Memory required for data: 235082880
I0320 12:03:26.881007 29410 layer_factory.hpp:77] Creating layer conv7_2_conv7_2_relu_0_split
I0320 12:03:26.881016 29410 net.cpp:100] Creating Layer conv7_2_conv7_2_relu_0_split
I0320 12:03:26.881023 29410 net.cpp:434] conv7_2_conv7_2_relu_0_split <- conv7_2
I0320 12:03:26.881032 29410 net.cpp:408] conv7_2_conv7_2_relu_0_split -> conv7_2_conv7_2_relu_0_split_0
I0320 12:03:26.881043 29410 net.cpp:408] conv7_2_conv7_2_relu_0_split -> conv7_2_conv7_2_relu_0_split_1
I0320 12:03:26.881052 29410 net.cpp:408] conv7_2_conv7_2_relu_0_split -> conv7_2_conv7_2_relu_0_split_2
I0320 12:03:26.881063 29410 net.cpp:408] conv7_2_conv7_2_relu_0_split -> conv7_2_conv7_2_relu_0_split_3
I0320 12:03:26.881145 29410 net.cpp:150] Setting up conv7_2_conv7_2_relu_0_split
I0320 12:03:26.881155 29410 net.cpp:157] Top shape: 1 256 5 5 (6400)
I0320 12:03:26.881160 29410 net.cpp:157] Top shape: 1 256 5 5 (6400)
I0320 12:03:26.881167 29410 net.cpp:157] Top shape: 1 256 5 5 (6400)
I0320 12:03:26.881173 29410 net.cpp:157] Top shape: 1 256 5 5 (6400)
I0320 12:03:26.881180 29410 net.cpp:165] Memory required for data: 235185280
I0320 12:03:26.881184 29410 layer_factory.hpp:77] Creating layer conv8_1
I0320 12:03:26.881197 29410 net.cpp:100] Creating Layer conv8_1
I0320 12:03:26.881204 29410 net.cpp:434] conv8_1 <- conv7_2_conv7_2_relu_0_split_0
I0320 12:03:26.881214 29410 net.cpp:408] conv8_1 -> conv8_1
I0320 12:03:26.882714 29410 net.cpp:150] Setting up conv8_1
I0320 12:03:26.882728 29410 net.cpp:157] Top shape: 1 128 5 5 (3200)
I0320 12:03:26.882733 29410 net.cpp:165] Memory required for data: 235198080
I0320 12:03:26.882756 29410 layer_factory.hpp:77] Creating layer conv8_1_relu
I0320 12:03:26.882766 29410 net.cpp:100] Creating Layer conv8_1_relu
I0320 12:03:26.882773 29410 net.cpp:434] conv8_1_relu <- conv8_1
I0320 12:03:26.882784 29410 net.cpp:395] conv8_1_relu -> conv8_1 (in-place)
I0320 12:03:26.883519 29410 net.cpp:150] Setting up conv8_1_relu
I0320 12:03:26.883533 29410 net.cpp:157] Top shape: 1 128 5 5 (3200)
I0320 12:03:26.883538 29410 net.cpp:165] Memory required for data: 235210880
I0320 12:03:26.883544 29410 layer_factory.hpp:77] Creating layer conv8_2
I0320 12:03:26.883558 29410 net.cpp:100] Creating Layer conv8_2
I0320 12:03:26.883564 29410 net.cpp:434] conv8_2 <- conv8_1
I0320 12:03:26.883576 29410 net.cpp:408] conv8_2 -> conv8_2
I0320 12:03:26.887524 29410 net.cpp:150] Setting up conv8_2
I0320 12:03:26.887539 29410 net.cpp:157] Top shape: 1 256 3 3 (2304)
I0320 12:03:26.887544 29410 net.cpp:165] Memory required for data: 235220096
I0320 12:03:26.887554 29410 layer_factory.hpp:77] Creating layer conv8_2_relu
I0320 12:03:26.887565 29410 net.cpp:100] Creating Layer conv8_2_relu
I0320 12:03:26.887573 29410 net.cpp:434] conv8_2_relu <- conv8_2
I0320 12:03:26.887583 29410 net.cpp:395] conv8_2_relu -> conv8_2 (in-place)
I0320 12:03:26.887763 29410 net.cpp:150] Setting up conv8_2_relu
I0320 12:03:26.887774 29410 net.cpp:157] Top shape: 1 256 3 3 (2304)
I0320 12:03:26.887779 29410 net.cpp:165] Memory required for data: 235229312
I0320 12:03:26.887784 29410 layer_factory.hpp:77] Creating layer conv8_2_conv8_2_relu_0_split
I0320 12:03:26.887794 29410 net.cpp:100] Creating Layer conv8_2_conv8_2_relu_0_split
I0320 12:03:26.887801 29410 net.cpp:434] conv8_2_conv8_2_relu_0_split <- conv8_2
I0320 12:03:26.887811 29410 net.cpp:408] conv8_2_conv8_2_relu_0_split -> conv8_2_conv8_2_relu_0_split_0
I0320 12:03:26.887823 29410 net.cpp:408] conv8_2_conv8_2_relu_0_split -> conv8_2_conv8_2_relu_0_split_1
I0320 12:03:26.887833 29410 net.cpp:408] conv8_2_conv8_2_relu_0_split -> conv8_2_conv8_2_relu_0_split_2
I0320 12:03:26.887845 29410 net.cpp:408] conv8_2_conv8_2_relu_0_split -> conv8_2_conv8_2_relu_0_split_3
I0320 12:03:26.887925 29410 net.cpp:150] Setting up conv8_2_conv8_2_relu_0_split
I0320 12:03:26.887933 29410 net.cpp:157] Top shape: 1 256 3 3 (2304)
I0320 12:03:26.887940 29410 net.cpp:157] Top shape: 1 256 3 3 (2304)
I0320 12:03:26.887946 29410 net.cpp:157] Top shape: 1 256 3 3 (2304)
I0320 12:03:26.887953 29410 net.cpp:157] Top shape: 1 256 3 3 (2304)
I0320 12:03:26.887959 29410 net.cpp:165] Memory required for data: 235266176
I0320 12:03:26.887964 29410 layer_factory.hpp:77] Creating layer conv9_1
I0320 12:03:26.887977 29410 net.cpp:100] Creating Layer conv9_1
I0320 12:03:26.887984 29410 net.cpp:434] conv9_1 <- conv8_2_conv8_2_relu_0_split_0
I0320 12:03:26.887995 29410 net.cpp:408] conv9_1 -> conv9_1
I0320 12:03:26.890547 29410 net.cpp:150] Setting up conv9_1
I0320 12:03:26.890563 29410 net.cpp:157] Top shape: 1 128 3 3 (1152)
I0320 12:03:26.890568 29410 net.cpp:165] Memory required for data: 235270784
I0320 12:03:26.890578 29410 layer_factory.hpp:77] Creating layer conv9_1_relu
I0320 12:03:26.890590 29410 net.cpp:100] Creating Layer conv9_1_relu
I0320 12:03:26.890599 29410 net.cpp:434] conv9_1_relu <- conv9_1
I0320 12:03:26.890611 29410 net.cpp:395] conv9_1_relu -> conv9_1 (in-place)
I0320 12:03:26.890787 29410 net.cpp:150] Setting up conv9_1_relu
I0320 12:03:26.890799 29410 net.cpp:157] Top shape: 1 128 3 3 (1152)
I0320 12:03:26.890805 29410 net.cpp:165] Memory required for data: 235275392
I0320 12:03:26.890811 29410 layer_factory.hpp:77] Creating layer conv9_2
I0320 12:03:26.890825 29410 net.cpp:100] Creating Layer conv9_2
I0320 12:03:26.890830 29410 net.cpp:434] conv9_2 <- conv9_1
I0320 12:03:26.890839 29410 net.cpp:408] conv9_2 -> conv9_2
I0320 12:03:26.894934 29410 net.cpp:150] Setting up conv9_2
I0320 12:03:26.894949 29410 net.cpp:157] Top shape: 1 256 1 1 (256)
I0320 12:03:26.894954 29410 net.cpp:165] Memory required for data: 235276416
I0320 12:03:26.894974 29410 layer_factory.hpp:77] Creating layer conv9_2_relu
I0320 12:03:26.894996 29410 net.cpp:100] Creating Layer conv9_2_relu
I0320 12:03:26.895004 29410 net.cpp:434] conv9_2_relu <- conv9_2
I0320 12:03:26.895015 29410 net.cpp:395] conv9_2_relu -> conv9_2 (in-place)
I0320 12:03:26.895763 29410 net.cpp:150] Setting up conv9_2_relu
I0320 12:03:26.895774 29410 net.cpp:157] Top shape: 1 256 1 1 (256)
I0320 12:03:26.895779 29410 net.cpp:165] Memory required for data: 235277440
I0320 12:03:26.895787 29410 layer_factory.hpp:77] Creating layer conv9_2_conv9_2_relu_0_split
I0320 12:03:26.895797 29410 net.cpp:100] Creating Layer conv9_2_conv9_2_relu_0_split
I0320 12:03:26.895804 29410 net.cpp:434] conv9_2_conv9_2_relu_0_split <- conv9_2
I0320 12:03:26.895814 29410 net.cpp:408] conv9_2_conv9_2_relu_0_split -> conv9_2_conv9_2_relu_0_split_0
I0320 12:03:26.895826 29410 net.cpp:408] conv9_2_conv9_2_relu_0_split -> conv9_2_conv9_2_relu_0_split_1
I0320 12:03:26.895835 29410 net.cpp:408] conv9_2_conv9_2_relu_0_split -> conv9_2_conv9_2_relu_0_split_2
I0320 12:03:26.895905 29410 net.cpp:150] Setting up conv9_2_conv9_2_relu_0_split
I0320 12:03:26.895915 29410 net.cpp:157] Top shape: 1 256 1 1 (256)
I0320 12:03:26.895922 29410 net.cpp:157] Top shape: 1 256 1 1 (256)
I0320 12:03:26.895928 29410 net.cpp:157] Top shape: 1 256 1 1 (256)
I0320 12:03:26.895933 29410 net.cpp:165] Memory required for data: 235280512
I0320 12:03:26.895939 29410 layer_factory.hpp:77] Creating layer conv4_3_norm
I0320 12:03:26.895951 29410 net.cpp:100] Creating Layer conv4_3_norm
I0320 12:03:26.895959 29410 net.cpp:434] conv4_3_norm <- conv4_3_relu4_3_0_split_1
I0320 12:03:26.895968 29410 net.cpp:408] conv4_3_norm -> conv4_3_norm
I0320 12:03:26.896145 29410 net.cpp:150] Setting up conv4_3_norm
I0320 12:03:26.896155 29410 net.cpp:157] Top shape: 1 512 38 38 (739328)
I0320 12:03:26.896160 29410 net.cpp:165] Memory required for data: 238237824
I0320 12:03:26.896167 29410 layer_factory.hpp:77] Creating layer conv4_3_norm_conv4_3_norm_0_split
I0320 12:03:26.896176 29410 net.cpp:100] Creating Layer conv4_3_norm_conv4_3_norm_0_split
I0320 12:03:26.896184 29410 net.cpp:434] conv4_3_norm_conv4_3_norm_0_split <- conv4_3_norm
I0320 12:03:26.896193 29410 net.cpp:408] conv4_3_norm_conv4_3_norm_0_split -> conv4_3_norm_conv4_3_norm_0_split_0
I0320 12:03:26.896203 29410 net.cpp:408] conv4_3_norm_conv4_3_norm_0_split -> conv4_3_norm_conv4_3_norm_0_split_1
I0320 12:03:26.896211 29410 net.cpp:408] conv4_3_norm_conv4_3_norm_0_split -> conv4_3_norm_conv4_3_norm_0_split_2
I0320 12:03:26.896271 29410 net.cpp:150] Setting up conv4_3_norm_conv4_3_norm_0_split
I0320 12:03:26.896281 29410 net.cpp:157] Top shape: 1 512 38 38 (739328)
I0320 12:03:26.896286 29410 net.cpp:157] Top shape: 1 512 38 38 (739328)
I0320 12:03:26.896292 29410 net.cpp:157] Top shape: 1 512 38 38 (739328)
I0320 12:03:26.896298 29410 net.cpp:165] Memory required for data: 247109760
I0320 12:03:26.896303 29410 layer_factory.hpp:77] Creating layer conv4_3_norm_mbox_loc
I0320 12:03:26.896317 29410 net.cpp:100] Creating Layer conv4_3_norm_mbox_loc
I0320 12:03:26.896323 29410 net.cpp:434] conv4_3_norm_mbox_loc <- conv4_3_norm_conv4_3_norm_0_split_0
I0320 12:03:26.896333 29410 net.cpp:408] conv4_3_norm_mbox_loc -> conv4_3_norm_mbox_loc
I0320 12:03:26.898599 29410 net.cpp:150] Setting up conv4_3_norm_mbox_loc
I0320 12:03:26.898612 29410 net.cpp:157] Top shape: 1 16 38 38 (23104)
I0320 12:03:26.898617 29410 net.cpp:165] Memory required for data: 247202176
I0320 12:03:26.898627 29410 layer_factory.hpp:77] Creating layer conv4_3_norm_mbox_loc_perm
I0320 12:03:26.898640 29410 net.cpp:100] Creating Layer conv4_3_norm_mbox_loc_perm
I0320 12:03:26.898648 29410 net.cpp:434] conv4_3_norm_mbox_loc_perm <- conv4_3_norm_mbox_loc
I0320 12:03:26.898658 29410 net.cpp:408] conv4_3_norm_mbox_loc_perm -> conv4_3_norm_mbox_loc_perm
I0320 12:03:26.898782 29410 net.cpp:150] Setting up conv4_3_norm_mbox_loc_perm
I0320 12:03:26.898792 29410 net.cpp:157] Top shape: 1 38 38 16 (23104)
I0320 12:03:26.898797 29410 net.cpp:165] Memory required for data: 247294592
I0320 12:03:26.898805 29410 layer_factory.hpp:77] Creating layer conv4_3_norm_mbox_loc_flat
I0320 12:03:26.898823 29410 net.cpp:100] Creating Layer conv4_3_norm_mbox_loc_flat
I0320 12:03:26.898830 29410 net.cpp:434] conv4_3_norm_mbox_loc_flat <- conv4_3_norm_mbox_loc_perm
I0320 12:03:26.898840 29410 net.cpp:408] conv4_3_norm_mbox_loc_flat -> conv4_3_norm_mbox_loc_flat
I0320 12:03:26.898887 29410 net.cpp:150] Setting up conv4_3_norm_mbox_loc_flat
I0320 12:03:26.898896 29410 net.cpp:157] Top shape: 1 23104 (23104)
I0320 12:03:26.898901 29410 net.cpp:165] Memory required for data: 247387008
I0320 12:03:26.898907 29410 layer_factory.hpp:77] Creating layer conv4_3_norm_mbox_conf
I0320 12:03:26.898926 29410 net.cpp:100] Creating Layer conv4_3_norm_mbox_conf
I0320 12:03:26.898932 29410 net.cpp:434] conv4_3_norm_mbox_conf <- conv4_3_norm_conv4_3_norm_0_split_1
I0320 12:03:26.898941 29410 net.cpp:408] conv4_3_norm_mbox_conf -> conv4_3_norm_mbox_conf
I0320 12:03:26.901795 29410 net.cpp:150] Setting up conv4_3_norm_mbox_conf
I0320 12:03:26.901810 29410 net.cpp:157] Top shape: 1 44 38 38 (63536)
I0320 12:03:26.901818 29410 net.cpp:165] Memory required for data: 247641152
I0320 12:03:26.901827 29410 layer_factory.hpp:77] Creating layer conv4_3_norm_mbox_conf_perm
I0320 12:03:26.901836 29410 net.cpp:100] Creating Layer conv4_3_norm_mbox_conf_perm
I0320 12:03:26.901844 29410 net.cpp:434] conv4_3_norm_mbox_conf_perm <- conv4_3_norm_mbox_conf
I0320 12:03:26.901855 29410 net.cpp:408] conv4_3_norm_mbox_conf_perm -> conv4_3_norm_mbox_conf_perm
I0320 12:03:26.901988 29410 net.cpp:150] Setting up conv4_3_norm_mbox_conf_perm
I0320 12:03:26.901998 29410 net.cpp:157] Top shape: 1 38 38 44 (63536)
I0320 12:03:26.902002 29410 net.cpp:165] Memory required for data: 247895296
I0320 12:03:26.902010 29410 layer_factory.hpp:77] Creating layer conv4_3_norm_mbox_conf_flat
I0320 12:03:26.902019 29410 net.cpp:100] Creating Layer conv4_3_norm_mbox_conf_flat
I0320 12:03:26.902026 29410 net.cpp:434] conv4_3_norm_mbox_conf_flat <- conv4_3_norm_mbox_conf_perm
I0320 12:03:26.902035 29410 net.cpp:408] conv4_3_norm_mbox_conf_flat -> conv4_3_norm_mbox_conf_flat
I0320 12:03:26.902072 29410 net.cpp:150] Setting up conv4_3_norm_mbox_conf_flat
I0320 12:03:26.902079 29410 net.cpp:157] Top shape: 1 63536 (63536)
I0320 12:03:26.902084 29410 net.cpp:165] Memory required for data: 248149440
I0320 12:03:26.902091 29410 layer_factory.hpp:77] Creating layer conv4_3_norm_mbox_priorbox
I0320 12:03:26.902101 29410 net.cpp:100] Creating Layer conv4_3_norm_mbox_priorbox
I0320 12:03:26.902109 29410 net.cpp:434] conv4_3_norm_mbox_priorbox <- conv4_3_norm_conv4_3_norm_0_split_2
I0320 12:03:26.902117 29410 net.cpp:434] conv4_3_norm_mbox_priorbox <- data_data_0_split_1
I0320 12:03:26.902127 29410 net.cpp:408] conv4_3_norm_mbox_priorbox -> conv4_3_norm_mbox_priorbox
I0320 12:03:26.902165 29410 net.cpp:150] Setting up conv4_3_norm_mbox_priorbox
I0320 12:03:26.902173 29410 net.cpp:157] Top shape: 1 2 23104 (46208)
I0320 12:03:26.902179 29410 net.cpp:165] Memory required for data: 248334272
I0320 12:03:26.902184 29410 layer_factory.hpp:77] Creating layer fc7_mbox_loc
I0320 12:03:26.902196 29410 net.cpp:100] Creating Layer fc7_mbox_loc
I0320 12:03:26.902202 29410 net.cpp:434] fc7_mbox_loc <- fc7_relu7_0_split_1
I0320 12:03:26.902210 29410 net.cpp:408] fc7_mbox_loc -> fc7_mbox_loc
I0320 12:03:26.905128 29410 net.cpp:150] Setting up fc7_mbox_loc
I0320 12:03:26.905143 29410 net.cpp:157] Top shape: 1 24 19 19 (8664)
I0320 12:03:26.905148 29410 net.cpp:165] Memory required for data: 248368928
I0320 12:03:26.905158 29410 layer_factory.hpp:77] Creating layer fc7_mbox_loc_perm
I0320 12:03:26.905170 29410 net.cpp:100] Creating Layer fc7_mbox_loc_perm
I0320 12:03:26.905177 29410 net.cpp:434] fc7_mbox_loc_perm <- fc7_mbox_loc
I0320 12:03:26.905185 29410 net.cpp:408] fc7_mbox_loc_perm -> fc7_mbox_loc_perm
I0320 12:03:26.905308 29410 net.cpp:150] Setting up fc7_mbox_loc_perm
I0320 12:03:26.905316 29410 net.cpp:157] Top shape: 1 19 19 24 (8664)
I0320 12:03:26.905321 29410 net.cpp:165] Memory required for data: 248403584
I0320 12:03:26.905328 29410 layer_factory.hpp:77] Creating layer fc7_mbox_loc_flat
I0320 12:03:26.905344 29410 net.cpp:100] Creating Layer fc7_mbox_loc_flat
I0320 12:03:26.905352 29410 net.cpp:434] fc7_mbox_loc_flat <- fc7_mbox_loc_perm
I0320 12:03:26.905361 29410 net.cpp:408] fc7_mbox_loc_flat -> fc7_mbox_loc_flat
I0320 12:03:26.905395 29410 net.cpp:150] Setting up fc7_mbox_loc_flat
I0320 12:03:26.905402 29410 net.cpp:157] Top shape: 1 8664 (8664)
I0320 12:03:26.905407 29410 net.cpp:165] Memory required for data: 248438240
I0320 12:03:26.905413 29410 layer_factory.hpp:77] Creating layer fc7_mbox_conf
I0320 12:03:26.905427 29410 net.cpp:100] Creating Layer fc7_mbox_conf
I0320 12:03:26.905436 29410 net.cpp:434] fc7_mbox_conf <- fc7_relu7_0_split_2
I0320 12:03:26.905444 29410 net.cpp:408] fc7_mbox_conf -> fc7_mbox_conf
I0320 12:03:26.910918 29410 net.cpp:150] Setting up fc7_mbox_conf
I0320 12:03:26.910934 29410 net.cpp:157] Top shape: 1 66 19 19 (23826)
I0320 12:03:26.910939 29410 net.cpp:165] Memory required for data: 248533544
I0320 12:03:26.910948 29410 layer_factory.hpp:77] Creating layer fc7_mbox_conf_perm
I0320 12:03:26.910960 29410 net.cpp:100] Creating Layer fc7_mbox_conf_perm
I0320 12:03:26.910967 29410 net.cpp:434] fc7_mbox_conf_perm <- fc7_mbox_conf
I0320 12:03:26.910979 29410 net.cpp:408] fc7_mbox_conf_perm -> fc7_mbox_conf_perm
I0320 12:03:26.911105 29410 net.cpp:150] Setting up fc7_mbox_conf_perm
I0320 12:03:26.911116 29410 net.cpp:157] Top shape: 1 19 19 66 (23826)
I0320 12:03:26.911121 29410 net.cpp:165] Memory required for data: 248628848
I0320 12:03:26.911126 29410 layer_factory.hpp:77] Creating layer fc7_mbox_conf_flat
I0320 12:03:26.911136 29410 net.cpp:100] Creating Layer fc7_mbox_conf_flat
I0320 12:03:26.911144 29410 net.cpp:434] fc7_mbox_conf_flat <- fc7_mbox_conf_perm
I0320 12:03:26.911152 29410 net.cpp:408] fc7_mbox_conf_flat -> fc7_mbox_conf_flat
I0320 12:03:26.911187 29410 net.cpp:150] Setting up fc7_mbox_conf_flat
I0320 12:03:26.911195 29410 net.cpp:157] Top shape: 1 23826 (23826)
I0320 12:03:26.911201 29410 net.cpp:165] Memory required for data: 248724152
I0320 12:03:26.911206 29410 layer_factory.hpp:77] Creating layer fc7_mbox_priorbox
I0320 12:03:26.911218 29410 net.cpp:100] Creating Layer fc7_mbox_priorbox
I0320 12:03:26.911226 29410 net.cpp:434] fc7_mbox_priorbox <- fc7_relu7_0_split_3
I0320 12:03:26.911233 29410 net.cpp:434] fc7_mbox_priorbox <- data_data_0_split_2
I0320 12:03:26.911243 29410 net.cpp:408] fc7_mbox_priorbox -> fc7_mbox_priorbox
I0320 12:03:26.911283 29410 net.cpp:150] Setting up fc7_mbox_priorbox
I0320 12:03:26.911291 29410 net.cpp:157] Top shape: 1 2 8664 (17328)
I0320 12:03:26.911298 29410 net.cpp:165] Memory required for data: 248793464
I0320 12:03:26.911303 29410 layer_factory.hpp:77] Creating layer conv6_2_mbox_loc
I0320 12:03:26.911316 29410 net.cpp:100] Creating Layer conv6_2_mbox_loc
I0320 12:03:26.911322 29410 net.cpp:434] conv6_2_mbox_loc <- conv6_2_conv6_2_relu_0_split_1
I0320 12:03:26.911334 29410 net.cpp:408] conv6_2_mbox_loc -> conv6_2_mbox_loc
I0320 12:03:26.913795 29410 net.cpp:150] Setting up conv6_2_mbox_loc
I0320 12:03:26.913810 29410 net.cpp:157] Top shape: 1 24 10 10 (2400)
I0320 12:03:26.913815 29410 net.cpp:165] Memory required for data: 248803064
I0320 12:03:26.913826 29410 layer_factory.hpp:77] Creating layer conv6_2_mbox_loc_perm
I0320 12:03:26.913836 29410 net.cpp:100] Creating Layer conv6_2_mbox_loc_perm
I0320 12:03:26.913842 29410 net.cpp:434] conv6_2_mbox_loc_perm <- conv6_2_mbox_loc
I0320 12:03:26.913852 29410 net.cpp:408] conv6_2_mbox_loc_perm -> conv6_2_mbox_loc_perm
I0320 12:03:26.913978 29410 net.cpp:150] Setting up conv6_2_mbox_loc_perm
I0320 12:03:26.913987 29410 net.cpp:157] Top shape: 1 10 10 24 (2400)
I0320 12:03:26.913992 29410 net.cpp:165] Memory required for data: 248812664
I0320 12:03:26.913998 29410 layer_factory.hpp:77] Creating layer conv6_2_mbox_loc_flat
I0320 12:03:26.914007 29410 net.cpp:100] Creating Layer conv6_2_mbox_loc_flat
I0320 12:03:26.914014 29410 net.cpp:434] conv6_2_mbox_loc_flat <- conv6_2_mbox_loc_perm
I0320 12:03:26.914023 29410 net.cpp:408] conv6_2_mbox_loc_flat -> conv6_2_mbox_loc_flat
I0320 12:03:26.914067 29410 net.cpp:150] Setting up conv6_2_mbox_loc_flat
I0320 12:03:26.914078 29410 net.cpp:157] Top shape: 1 2400 (2400)
I0320 12:03:26.914085 29410 net.cpp:165] Memory required for data: 248822264
I0320 12:03:26.914090 29410 layer_factory.hpp:77] Creating layer conv6_2_mbox_conf
I0320 12:03:26.914103 29410 net.cpp:100] Creating Layer conv6_2_mbox_conf
I0320 12:03:26.914110 29410 net.cpp:434] conv6_2_mbox_conf <- conv6_2_conv6_2_relu_0_split_2
I0320 12:03:26.914120 29410 net.cpp:408] conv6_2_mbox_conf -> conv6_2_mbox_conf
I0320 12:03:26.918215 29410 net.cpp:150] Setting up conv6_2_mbox_conf
I0320 12:03:26.918228 29410 net.cpp:157] Top shape: 1 66 10 10 (6600)
I0320 12:03:26.918244 29410 net.cpp:165] Memory required for data: 248848664
I0320 12:03:26.918254 29410 layer_factory.hpp:77] Creating layer conv6_2_mbox_conf_perm
I0320 12:03:26.918269 29410 net.cpp:100] Creating Layer conv6_2_mbox_conf_perm
I0320 12:03:26.918277 29410 net.cpp:434] conv6_2_mbox_conf_perm <- conv6_2_mbox_conf
I0320 12:03:26.918287 29410 net.cpp:408] conv6_2_mbox_conf_perm -> conv6_2_mbox_conf_perm
I0320 12:03:26.918411 29410 net.cpp:150] Setting up conv6_2_mbox_conf_perm
I0320 12:03:26.918419 29410 net.cpp:157] Top shape: 1 10 10 66 (6600)
I0320 12:03:26.918424 29410 net.cpp:165] Memory required for data: 248875064
I0320 12:03:26.918431 29410 layer_factory.hpp:77] Creating layer conv6_2_mbox_conf_flat
I0320 12:03:26.918439 29410 net.cpp:100] Creating Layer conv6_2_mbox_conf_flat
I0320 12:03:26.918447 29410 net.cpp:434] conv6_2_mbox_conf_flat <- conv6_2_mbox_conf_perm
I0320 12:03:26.918455 29410 net.cpp:408] conv6_2_mbox_conf_flat -> conv6_2_mbox_conf_flat
I0320 12:03:26.918493 29410 net.cpp:150] Setting up conv6_2_mbox_conf_flat
I0320 12:03:26.918501 29410 net.cpp:157] Top shape: 1 6600 (6600)
I0320 12:03:26.918505 29410 net.cpp:165] Memory required for data: 248901464
I0320 12:03:26.918510 29410 layer_factory.hpp:77] Creating layer conv6_2_mbox_priorbox
I0320 12:03:26.918520 29410 net.cpp:100] Creating Layer conv6_2_mbox_priorbox
I0320 12:03:26.918527 29410 net.cpp:434] conv6_2_mbox_priorbox <- conv6_2_conv6_2_relu_0_split_3
I0320 12:03:26.918537 29410 net.cpp:434] conv6_2_mbox_priorbox <- data_data_0_split_3
I0320 12:03:26.918545 29410 net.cpp:408] conv6_2_mbox_priorbox -> conv6_2_mbox_priorbox
I0320 12:03:26.918586 29410 net.cpp:150] Setting up conv6_2_mbox_priorbox
I0320 12:03:26.918593 29410 net.cpp:157] Top shape: 1 2 2400 (4800)
I0320 12:03:26.918597 29410 net.cpp:165] Memory required for data: 248920664
I0320 12:03:26.918603 29410 layer_factory.hpp:77] Creating layer conv7_2_mbox_loc
I0320 12:03:26.918618 29410 net.cpp:100] Creating Layer conv7_2_mbox_loc
I0320 12:03:26.918625 29410 net.cpp:434] conv7_2_mbox_loc <- conv7_2_conv7_2_relu_0_split_1
I0320 12:03:26.918635 29410 net.cpp:408] conv7_2_mbox_loc -> conv7_2_mbox_loc
I0320 12:03:26.920845 29410 net.cpp:150] Setting up conv7_2_mbox_loc
I0320 12:03:26.920859 29410 net.cpp:157] Top shape: 1 24 5 5 (600)
I0320 12:03:26.920864 29410 net.cpp:165] Memory required for data: 248923064
I0320 12:03:26.920873 29410 layer_factory.hpp:77] Creating layer conv7_2_mbox_loc_perm
I0320 12:03:26.920886 29410 net.cpp:100] Creating Layer conv7_2_mbox_loc_perm
I0320 12:03:26.920893 29410 net.cpp:434] conv7_2_mbox_loc_perm <- conv7_2_mbox_loc
I0320 12:03:26.920902 29410 net.cpp:408] conv7_2_mbox_loc_perm -> conv7_2_mbox_loc_perm
I0320 12:03:26.921028 29410 net.cpp:150] Setting up conv7_2_mbox_loc_perm
I0320 12:03:26.921036 29410 net.cpp:157] Top shape: 1 5 5 24 (600)
I0320 12:03:26.921042 29410 net.cpp:165] Memory required for data: 248925464
I0320 12:03:26.921048 29410 layer_factory.hpp:77] Creating layer conv7_2_mbox_loc_flat
I0320 12:03:26.921058 29410 net.cpp:100] Creating Layer conv7_2_mbox_loc_flat
I0320 12:03:26.921066 29410 net.cpp:434] conv7_2_mbox_loc_flat <- conv7_2_mbox_loc_perm
I0320 12:03:26.921073 29410 net.cpp:408] conv7_2_mbox_loc_flat -> conv7_2_mbox_loc_flat
I0320 12:03:26.921113 29410 net.cpp:150] Setting up conv7_2_mbox_loc_flat
I0320 12:03:26.921128 29410 net.cpp:157] Top shape: 1 600 (600)
I0320 12:03:26.921133 29410 net.cpp:165] Memory required for data: 248927864
I0320 12:03:26.921139 29410 layer_factory.hpp:77] Creating layer conv7_2_mbox_conf
I0320 12:03:26.921154 29410 net.cpp:100] Creating Layer conv7_2_mbox_conf
I0320 12:03:26.921160 29410 net.cpp:434] conv7_2_mbox_conf <- conv7_2_conv7_2_relu_0_split_2
I0320 12:03:26.921173 29410 net.cpp:408] conv7_2_mbox_conf -> conv7_2_mbox_conf
I0320 12:03:26.923884 29410 net.cpp:150] Setting up conv7_2_mbox_conf
I0320 12:03:26.923897 29410 net.cpp:157] Top shape: 1 66 5 5 (1650)
I0320 12:03:26.923902 29410 net.cpp:165] Memory required for data: 248934464
I0320 12:03:26.923912 29410 layer_factory.hpp:77] Creating layer conv7_2_mbox_conf_perm
I0320 12:03:26.923924 29410 net.cpp:100] Creating Layer conv7_2_mbox_conf_perm
I0320 12:03:26.923931 29410 net.cpp:434] conv7_2_mbox_conf_perm <- conv7_2_mbox_conf
I0320 12:03:26.923943 29410 net.cpp:408] conv7_2_mbox_conf_perm -> conv7_2_mbox_conf_perm
I0320 12:03:26.924070 29410 net.cpp:150] Setting up conv7_2_mbox_conf_perm
I0320 12:03:26.924080 29410 net.cpp:157] Top shape: 1 5 5 66 (1650)
I0320 12:03:26.924084 29410 net.cpp:165] Memory required for data: 248941064
I0320 12:03:26.924090 29410 layer_factory.hpp:77] Creating layer conv7_2_mbox_conf_flat
I0320 12:03:26.924098 29410 net.cpp:100] Creating Layer conv7_2_mbox_conf_flat
I0320 12:03:26.924106 29410 net.cpp:434] conv7_2_mbox_conf_flat <- conv7_2_mbox_conf_perm
I0320 12:03:26.924116 29410 net.cpp:408] conv7_2_mbox_conf_flat -> conv7_2_mbox_conf_flat
I0320 12:03:26.924152 29410 net.cpp:150] Setting up conv7_2_mbox_conf_flat
I0320 12:03:26.924160 29410 net.cpp:157] Top shape: 1 1650 (1650)
I0320 12:03:26.924165 29410 net.cpp:165] Memory required for data: 248947664
I0320 12:03:26.924170 29410 layer_factory.hpp:77] Creating layer conv7_2_mbox_priorbox
I0320 12:03:26.924182 29410 net.cpp:100] Creating Layer conv7_2_mbox_priorbox
I0320 12:03:26.924188 29410 net.cpp:434] conv7_2_mbox_priorbox <- conv7_2_conv7_2_relu_0_split_3
I0320 12:03:26.924196 29410 net.cpp:434] conv7_2_mbox_priorbox <- data_data_0_split_4
I0320 12:03:26.924206 29410 net.cpp:408] conv7_2_mbox_priorbox -> conv7_2_mbox_priorbox
I0320 12:03:26.924243 29410 net.cpp:150] Setting up conv7_2_mbox_priorbox
I0320 12:03:26.924250 29410 net.cpp:157] Top shape: 1 2 600 (1200)
I0320 12:03:26.924255 29410 net.cpp:165] Memory required for data: 248952464
I0320 12:03:26.924260 29410 layer_factory.hpp:77] Creating layer conv8_2_mbox_loc
I0320 12:03:26.924273 29410 net.cpp:100] Creating Layer conv8_2_mbox_loc
I0320 12:03:26.924279 29410 net.cpp:434] conv8_2_mbox_loc <- conv8_2_conv8_2_relu_0_split_1
I0320 12:03:26.924290 29410 net.cpp:408] conv8_2_mbox_loc -> conv8_2_mbox_loc
I0320 12:03:26.925899 29410 net.cpp:150] Setting up conv8_2_mbox_loc
I0320 12:03:26.925910 29410 net.cpp:157] Top shape: 1 16 3 3 (144)
I0320 12:03:26.925915 29410 net.cpp:165] Memory required for data: 248953040
I0320 12:03:26.925937 29410 layer_factory.hpp:77] Creating layer conv8_2_mbox_loc_perm
I0320 12:03:26.925946 29410 net.cpp:100] Creating Layer conv8_2_mbox_loc_perm
I0320 12:03:26.925952 29410 net.cpp:434] conv8_2_mbox_loc_perm <- conv8_2_mbox_loc
I0320 12:03:26.925964 29410 net.cpp:408] conv8_2_mbox_loc_perm -> conv8_2_mbox_loc_perm
I0320 12:03:26.926089 29410 net.cpp:150] Setting up conv8_2_mbox_loc_perm
I0320 12:03:26.926097 29410 net.cpp:157] Top shape: 1 3 3 16 (144)
I0320 12:03:26.926102 29410 net.cpp:165] Memory required for data: 248953616
I0320 12:03:26.926108 29410 layer_factory.hpp:77] Creating layer conv8_2_mbox_loc_flat
I0320 12:03:26.926120 29410 net.cpp:100] Creating Layer conv8_2_mbox_loc_flat
I0320 12:03:26.926127 29410 net.cpp:434] conv8_2_mbox_loc_flat <- conv8_2_mbox_loc_perm
I0320 12:03:26.926136 29410 net.cpp:408] conv8_2_mbox_loc_flat -> conv8_2_mbox_loc_flat
I0320 12:03:26.926170 29410 net.cpp:150] Setting up conv8_2_mbox_loc_flat
I0320 12:03:26.926178 29410 net.cpp:157] Top shape: 1 144 (144)
I0320 12:03:26.926183 29410 net.cpp:165] Memory required for data: 248954192
I0320 12:03:26.926198 29410 layer_factory.hpp:77] Creating layer conv8_2_mbox_conf
I0320 12:03:26.926211 29410 net.cpp:100] Creating Layer conv8_2_mbox_conf
I0320 12:03:26.926220 29410 net.cpp:434] conv8_2_mbox_conf <- conv8_2_conv8_2_relu_0_split_2
I0320 12:03:26.926230 29410 net.cpp:408] conv8_2_mbox_conf -> conv8_2_mbox_conf
I0320 12:03:26.928623 29410 net.cpp:150] Setting up conv8_2_mbox_conf
I0320 12:03:26.928637 29410 net.cpp:157] Top shape: 1 44 3 3 (396)
I0320 12:03:26.928643 29410 net.cpp:165] Memory required for data: 248955776
I0320 12:03:26.928653 29410 layer_factory.hpp:77] Creating layer conv8_2_mbox_conf_perm
I0320 12:03:26.928663 29410 net.cpp:100] Creating Layer conv8_2_mbox_conf_perm
I0320 12:03:26.928669 29410 net.cpp:434] conv8_2_mbox_conf_perm <- conv8_2_mbox_conf
I0320 12:03:26.928680 29410 net.cpp:408] conv8_2_mbox_conf_perm -> conv8_2_mbox_conf_perm
I0320 12:03:26.928812 29410 net.cpp:150] Setting up conv8_2_mbox_conf_perm
I0320 12:03:26.928822 29410 net.cpp:157] Top shape: 1 3 3 44 (396)
I0320 12:03:26.928825 29410 net.cpp:165] Memory required for data: 248957360
I0320 12:03:26.928831 29410 layer_factory.hpp:77] Creating layer conv8_2_mbox_conf_flat
I0320 12:03:26.928841 29410 net.cpp:100] Creating Layer conv8_2_mbox_conf_flat
I0320 12:03:26.928848 29410 net.cpp:434] conv8_2_mbox_conf_flat <- conv8_2_mbox_conf_perm
I0320 12:03:26.928856 29410 net.cpp:408] conv8_2_mbox_conf_flat -> conv8_2_mbox_conf_flat
I0320 12:03:26.928894 29410 net.cpp:150] Setting up conv8_2_mbox_conf_flat
I0320 12:03:26.928901 29410 net.cpp:157] Top shape: 1 396 (396)
I0320 12:03:26.928905 29410 net.cpp:165] Memory required for data: 248958944
I0320 12:03:26.928910 29410 layer_factory.hpp:77] Creating layer conv8_2_mbox_priorbox
I0320 12:03:26.928922 29410 net.cpp:100] Creating Layer conv8_2_mbox_priorbox
I0320 12:03:26.928928 29410 net.cpp:434] conv8_2_mbox_priorbox <- conv8_2_conv8_2_relu_0_split_3
I0320 12:03:26.928936 29410 net.cpp:434] conv8_2_mbox_priorbox <- data_data_0_split_5
I0320 12:03:26.928946 29410 net.cpp:408] conv8_2_mbox_priorbox -> conv8_2_mbox_priorbox
I0320 12:03:26.928985 29410 net.cpp:150] Setting up conv8_2_mbox_priorbox
I0320 12:03:26.928993 29410 net.cpp:157] Top shape: 1 2 144 (288)
I0320 12:03:26.928997 29410 net.cpp:165] Memory required for data: 248960096
I0320 12:03:26.929003 29410 layer_factory.hpp:77] Creating layer conv9_2_mbox_loc
I0320 12:03:26.929021 29410 net.cpp:100] Creating Layer conv9_2_mbox_loc
I0320 12:03:26.929028 29410 net.cpp:434] conv9_2_mbox_loc <- conv9_2_conv9_2_relu_0_split_0
I0320 12:03:26.929039 29410 net.cpp:408] conv9_2_mbox_loc -> conv9_2_mbox_loc
I0320 12:03:26.931177 29410 net.cpp:150] Setting up conv9_2_mbox_loc
I0320 12:03:26.931190 29410 net.cpp:157] Top shape: 1 16 1 1 (16)
I0320 12:03:26.931195 29410 net.cpp:165] Memory required for data: 248960160
I0320 12:03:26.931205 29410 layer_factory.hpp:77] Creating layer conv9_2_mbox_loc_perm
I0320 12:03:26.931216 29410 net.cpp:100] Creating Layer conv9_2_mbox_loc_perm
I0320 12:03:26.931224 29410 net.cpp:434] conv9_2_mbox_loc_perm <- conv9_2_mbox_loc
I0320 12:03:26.931233 29410 net.cpp:408] conv9_2_mbox_loc_perm -> conv9_2_mbox_loc_perm
I0320 12:03:26.931354 29410 net.cpp:150] Setting up conv9_2_mbox_loc_perm
I0320 12:03:26.931365 29410 net.cpp:157] Top shape: 1 1 1 16 (16)
I0320 12:03:26.931371 29410 net.cpp:165] Memory required for data: 248960224
I0320 12:03:26.931376 29410 layer_factory.hpp:77] Creating layer conv9_2_mbox_loc_flat
I0320 12:03:26.931385 29410 net.cpp:100] Creating Layer conv9_2_mbox_loc_flat
I0320 12:03:26.931392 29410 net.cpp:434] conv9_2_mbox_loc_flat <- conv9_2_mbox_loc_perm
I0320 12:03:26.931401 29410 net.cpp:408] conv9_2_mbox_loc_flat -> conv9_2_mbox_loc_flat
I0320 12:03:26.931439 29410 net.cpp:150] Setting up conv9_2_mbox_loc_flat
I0320 12:03:26.931447 29410 net.cpp:157] Top shape: 1 16 (16)
I0320 12:03:26.931452 29410 net.cpp:165] Memory required for data: 248960288
I0320 12:03:26.931458 29410 layer_factory.hpp:77] Creating layer conv9_2_mbox_conf
I0320 12:03:26.931473 29410 net.cpp:100] Creating Layer conv9_2_mbox_conf
I0320 12:03:26.931488 29410 net.cpp:434] conv9_2_mbox_conf <- conv9_2_conv9_2_relu_0_split_1
I0320 12:03:26.931497 29410 net.cpp:408] conv9_2_mbox_conf -> conv9_2_mbox_conf
I0320 12:03:26.933917 29410 net.cpp:150] Setting up conv9_2_mbox_conf
I0320 12:03:26.933928 29410 net.cpp:157] Top shape: 1 44 1 1 (44)
I0320 12:03:26.933933 29410 net.cpp:165] Memory required for data: 248960464
I0320 12:03:26.933943 29410 layer_factory.hpp:77] Creating layer conv9_2_mbox_conf_perm
I0320 12:03:26.933954 29410 net.cpp:100] Creating Layer conv9_2_mbox_conf_perm
I0320 12:03:26.933960 29410 net.cpp:434] conv9_2_mbox_conf_perm <- conv9_2_mbox_conf
I0320 12:03:26.933971 29410 net.cpp:408] conv9_2_mbox_conf_perm -> conv9_2_mbox_conf_perm
I0320 12:03:26.934103 29410 net.cpp:150] Setting up conv9_2_mbox_conf_perm
I0320 12:03:26.934113 29410 net.cpp:157] Top shape: 1 1 1 44 (44)
I0320 12:03:26.934116 29410 net.cpp:165] Memory required for data: 248960640
I0320 12:03:26.934123 29410 layer_factory.hpp:77] Creating layer conv9_2_mbox_conf_flat
I0320 12:03:26.934129 29410 net.cpp:100] Creating Layer conv9_2_mbox_conf_flat
I0320 12:03:26.934137 29410 net.cpp:434] conv9_2_mbox_conf_flat <- conv9_2_mbox_conf_perm
I0320 12:03:26.934146 29410 net.cpp:408] conv9_2_mbox_conf_flat -> conv9_2_mbox_conf_flat
I0320 12:03:26.934185 29410 net.cpp:150] Setting up conv9_2_mbox_conf_flat
I0320 12:03:26.934192 29410 net.cpp:157] Top shape: 1 44 (44)
I0320 12:03:26.934197 29410 net.cpp:165] Memory required for data: 248960816
I0320 12:03:26.934203 29410 layer_factory.hpp:77] Creating layer conv9_2_mbox_priorbox
I0320 12:03:26.934213 29410 net.cpp:100] Creating Layer conv9_2_mbox_priorbox
I0320 12:03:26.934219 29410 net.cpp:434] conv9_2_mbox_priorbox <- conv9_2_conv9_2_relu_0_split_2
I0320 12:03:26.934226 29410 net.cpp:434] conv9_2_mbox_priorbox <- data_data_0_split_6
I0320 12:03:26.934237 29410 net.cpp:408] conv9_2_mbox_priorbox -> conv9_2_mbox_priorbox
I0320 12:03:26.934275 29410 net.cpp:150] Setting up conv9_2_mbox_priorbox
I0320 12:03:26.934283 29410 net.cpp:157] Top shape: 1 2 16 (32)
I0320 12:03:26.934288 29410 net.cpp:165] Memory required for data: 248960944
I0320 12:03:26.934294 29410 layer_factory.hpp:77] Creating layer mbox_loc
I0320 12:03:26.934305 29410 net.cpp:100] Creating Layer mbox_loc
I0320 12:03:26.934312 29410 net.cpp:434] mbox_loc <- conv4_3_norm_mbox_loc_flat
I0320 12:03:26.934320 29410 net.cpp:434] mbox_loc <- fc7_mbox_loc_flat
I0320 12:03:26.934330 29410 net.cpp:434] mbox_loc <- conv6_2_mbox_loc_flat
I0320 12:03:26.934337 29410 net.cpp:434] mbox_loc <- conv7_2_mbox_loc_flat
I0320 12:03:26.934343 29410 net.cpp:434] mbox_loc <- conv8_2_mbox_loc_flat
I0320 12:03:26.934351 29410 net.cpp:434] mbox_loc <- conv9_2_mbox_loc_flat
I0320 12:03:26.934358 29410 net.cpp:408] mbox_loc -> mbox_loc
I0320 12:03:26.934397 29410 net.cpp:150] Setting up mbox_loc
I0320 12:03:26.934406 29410 net.cpp:157] Top shape: 1 34928 (34928)
I0320 12:03:26.934411 29410 net.cpp:165] Memory required for data: 249100656
I0320 12:03:26.934417 29410 layer_factory.hpp:77] Creating layer mbox_conf
I0320 12:03:26.934424 29410 net.cpp:100] Creating Layer mbox_conf
I0320 12:03:26.934430 29410 net.cpp:434] mbox_conf <- conv4_3_norm_mbox_conf_flat
I0320 12:03:26.934438 29410 net.cpp:434] mbox_conf <- fc7_mbox_conf_flat
I0320 12:03:26.934444 29410 net.cpp:434] mbox_conf <- conv6_2_mbox_conf_flat
I0320 12:03:26.934453 29410 net.cpp:434] mbox_conf <- conv7_2_mbox_conf_flat
I0320 12:03:26.934460 29410 net.cpp:434] mbox_conf <- conv8_2_mbox_conf_flat
I0320 12:03:26.934470 29410 net.cpp:434] mbox_conf <- conv9_2_mbox_conf_flat
I0320 12:03:26.934478 29410 net.cpp:408] mbox_conf -> mbox_conf
I0320 12:03:26.934509 29410 net.cpp:150] Setting up mbox_conf
I0320 12:03:26.934517 29410 net.cpp:157] Top shape: 1 96052 (96052)
I0320 12:03:26.934522 29410 net.cpp:165] Memory required for data: 249484864
I0320 12:03:26.934527 29410 layer_factory.hpp:77] Creating layer mbox_priorbox
I0320 12:03:26.934538 29410 net.cpp:100] Creating Layer mbox_priorbox
I0320 12:03:26.934552 29410 net.cpp:434] mbox_priorbox <- conv4_3_norm_mbox_priorbox
I0320 12:03:26.934561 29410 net.cpp:434] mbox_priorbox <- fc7_mbox_priorbox
I0320 12:03:26.934566 29410 net.cpp:434] mbox_priorbox <- conv6_2_mbox_priorbox
I0320 12:03:26.934571 29410 net.cpp:434] mbox_priorbox <- conv7_2_mbox_priorbox
I0320 12:03:26.934578 29410 net.cpp:434] mbox_priorbox <- conv8_2_mbox_priorbox
I0320 12:03:26.934589 29410 net.cpp:434] mbox_priorbox <- conv9_2_mbox_priorbox
I0320 12:03:26.934597 29410 net.cpp:408] mbox_priorbox -> mbox_priorbox
I0320 12:03:26.934633 29410 net.cpp:150] Setting up mbox_priorbox
I0320 12:03:26.934640 29410 net.cpp:157] Top shape: 1 2 34928 (69856)
I0320 12:03:26.934646 29410 net.cpp:165] Memory required for data: 249764288
I0320 12:03:26.934651 29410 layer_factory.hpp:77] Creating layer mbox_conf_reshape
I0320 12:03:26.934661 29410 net.cpp:100] Creating Layer mbox_conf_reshape
I0320 12:03:26.934669 29410 net.cpp:434] mbox_conf_reshape <- mbox_conf
I0320 12:03:26.934679 29410 net.cpp:408] mbox_conf_reshape -> mbox_conf_reshape
I0320 12:03:26.934721 29410 net.cpp:150] Setting up mbox_conf_reshape
I0320 12:03:26.934732 29410 net.cpp:157] Top shape: 1 8732 11 (96052)
I0320 12:03:26.934738 29410 net.cpp:165] Memory required for data: 250148496
I0320 12:03:26.934746 29410 layer_factory.hpp:77] Creating layer mbox_conf_softmax
I0320 12:03:26.934756 29410 net.cpp:100] Creating Layer mbox_conf_softmax
I0320 12:03:26.934762 29410 net.cpp:434] mbox_conf_softmax <- mbox_conf_reshape
I0320 12:03:26.934772 29410 net.cpp:408] mbox_conf_softmax -> mbox_conf_softmax
I0320 12:03:26.935029 29410 net.cpp:150] Setting up mbox_conf_softmax
I0320 12:03:26.935039 29410 net.cpp:157] Top shape: 1 8732 11 (96052)
I0320 12:03:26.935043 29410 net.cpp:165] Memory required for data: 250532704
I0320 12:03:26.935050 29410 layer_factory.hpp:77] Creating layer mbox_conf_flatten
I0320 12:03:26.935062 29410 net.cpp:100] Creating Layer mbox_conf_flatten
I0320 12:03:26.935070 29410 net.cpp:434] mbox_conf_flatten <- mbox_conf_softmax
I0320 12:03:26.935078 29410 net.cpp:408] mbox_conf_flatten -> mbox_conf_flatten
I0320 12:03:26.935115 29410 net.cpp:150] Setting up mbox_conf_flatten
I0320 12:03:26.935124 29410 net.cpp:157] Top shape: 1 96052 (96052)
I0320 12:03:26.935128 29410 net.cpp:165] Memory required for data: 250916912
I0320 12:03:26.935134 29410 layer_factory.hpp:77] Creating layer detection_out
I0320 12:03:26.935151 29410 net.cpp:100] Creating Layer detection_out
I0320 12:03:26.935158 29410 net.cpp:434] detection_out <- mbox_loc
I0320 12:03:26.935164 29410 net.cpp:434] detection_out <- mbox_conf_flatten
I0320 12:03:26.935170 29410 net.cpp:434] detection_out <- mbox_priorbox
I0320 12:03:26.935181 29410 net.cpp:408] detection_out -> detection_out
W0320 12:03:26.935214 29410 detection_output_layer.cpp:49] Failed to create directory: /home/zs/data/VOCdevkit/results/VOC2007/SSD_300x300_0319_ini/Main
I0320 12:03:26.935663 29410 net.cpp:150] Setting up detection_out
I0320 12:03:26.935674 29410 net.cpp:157] Top shape: 1 1 1 7 (7)
I0320 12:03:26.935679 29410 net.cpp:165] Memory required for data: 250916940
I0320 12:03:26.935686 29410 layer_factory.hpp:77] Creating layer detection_eval
I0320 12:03:26.935696 29410 net.cpp:100] Creating Layer detection_eval
I0320 12:03:26.935703 29410 net.cpp:434] detection_eval <- detection_out
I0320 12:03:26.935709 29410 net.cpp:434] detection_eval <- label
I0320 12:03:26.935719 29410 net.cpp:408] detection_eval -> detection_eval
I0320 12:03:26.935806 29410 net.cpp:150] Setting up detection_eval
I0320 12:03:26.935815 29410 net.cpp:157] Top shape: 1 1 11 5 (55)
I0320 12:03:26.935820 29410 net.cpp:165] Memory required for data: 250917160
I0320 12:03:26.935827 29410 net.cpp:228] detection_eval does not need backward computation.
I0320 12:03:26.935833 29410 net.cpp:228] detection_out does not need backward computation.
I0320 12:03:26.935839 29410 net.cpp:228] mbox_conf_flatten does not need backward computation.
I0320 12:03:26.935845 29410 net.cpp:228] mbox_conf_softmax does not need backward computation.
…
