…
      sampler {
        min_scale: 0.3
        max_scale: 1
        min_aspect_ratio: 0.5
        max_aspect_ratio: 2
      }
      sample_constraint {
        min_jaccard_overlap: 0.9
      }
      max_sample: 1
      max_trials: 50
    }
    batch_sampler {
      sampler {
        min_scale: 0.3
        max_scale: 1
        min_aspect_ratio: 0.5
        max_aspect_ratio: 2
      }
      sample_constraint {
        max_jaccard_overlap: 1
      }
      max_sample: 1
      max_trials: 50
    }
    label_map_file: "data/NWPU_VHR/labelmap_NWPU_VHR.prototxt"
  }
}
layer {
  name: "conv1_1"
  type: "Convolution"
  bottom: "data"
  top: "conv1_1"
  param {
    lr_mult: 1
    decay_mult: 1
  }
  param {
    lr_mult: 2
    decay_mult: 0
  }
  convolution_param {
    num_output: 64
    pad: 1
    kernel_size: 3
    weight_filler {
      type: "xavier"
    }
    bias_filler {
      type: "constant"
      value: 0
    }
  }
}
layer {
  name: "relu1_1"
  type: "ReLU"
  bottom: "conv1_1"
  top: "conv1_1"
}
layer {
  name: "conv1_2"
  type: "Convolution"
  bottom: "conv1_1"
  top: "conv1_2"
  param {
    lr_mult: 1
    decay_mult: 1
  }
  param {
    lr_mult: 2
    decay_mult: 0
  }
  convolution_param {
    num_output: 64
    pad: 1
    kernel_size: 3
    weight_filler {
      type: "xavier"
    }
    bias_filler {
      type: "constant"
      value: 0
    }
  }
}
layer {
  name: "relu1_2"
  type: "ReLU"
  bottom: "conv1_2"
  top: "conv1_2"
}
layer {
  name: "pool1"
  type: "Pooling"
  bottom: "conv1_2"
  top: "pool1"
  pooling_param {
    pool: MAX
    kernel_size: 2
    stride: 2
  }
}
layer {
  name: "conv2_1"
  type: "Convolution"
  bottom: "pool1"
  top: "conv2_1"
  param {
    lr_mult: 1
    decay_mult: 1
  }
  param {
    lr_mult: 2
    decay_mult: 0
  }
  convolution_param {
    num_output: 128
    pad: 1
    kernel_size: 3
    weight_filler {
      type: "xavier"
    }
    bias_filler {
      type: "constant"
      value: 0
    }
  }
}
layer {
  name: "relu2_1"
  type: "ReLU"
  bottom: "conv2_1"
  top: "conv2_1"
}
layer {
  name: "conv2_2"
  type: "Convolution"
  bottom: "conv2_1"
  top: "conv2_2"
  param {
    lr_mult: 1
    decay_mult: 1
  }
  param {
    lr_mult: 2
    decay_mult: 0
  }
  convolution_param {
    num_output: 128
    pad: 1
    kernel_size: 3
    weight_filler {
      type: "xavier"
    }
    bias_filler {
      type: "constant"
      value: 0
    }
  }
}
layer {
  name: "relu2_2"
  type: "ReLU"
  bottom: "conv2_2"
  top: "conv2_2"
}
layer {
  name: "pool2"
  type: "Pooling"
  bottom: "conv2_2"
  top: "pool2"
  pooling_param {
    pool: MAX
    kernel_size: 2
    stride: 2
  }
}
layer {
  name: "conv3_1"
  type: "Convolution"
  bottom: "pool2"
  top: "conv3_1"
  param {
    lr_mult: 1
    decay_mult: 1
  }
  param {
    lr_mult: 2
    decay_mult: 0
  }
  convolution_param {
    num_output: 256
    pad: 1
    kernel_size: 3
    weight_filler {
      type: "xavier"
    }
    bias_filler {
      type: "constant"
      value: 0
    }
  }
}
layer {
  name: "relu3_1"
  type: "ReLU"
  bottom: "conv3_1"
  top: "conv3_1"
}
layer {
  name: "conv3_2"
  type: "Convolution"
  bottom: "conv3_1"
  top: "conv3_2"
  param {
    lr_mult: 1
    decay_mult: 1
  }
  param {
    lr_mult: 2
    decay_mult: 0
  }
  convolution_param {
    num_output: 256
    pad: 1
    kernel_size: 3
    weight_filler {
      type: "xavier"
    }
    bias_filler {
      type: "constant"
      value: 0
    }
  }
}
layer {
  name: "relu3_2"
  type: "ReLU"
  bottom: "conv3_2"
  top: "conv3_2"
}
layer {
  name: "conv3_3"
  type: "Convolution"
  bottom: "conv3_2"
  top: "conv3_3"
  param {
    lr_mult: 1
    decay_mult: 1
  }
  param {
    lr_mult: 2
    decay_mult: 0
  }
  convolution_param {
    num_output: 256
    pad: 1
    kernel_size: 3
    weight_filler {
      type: "xavier"
    }
    bias_filler {
      type: "constant"
      value: 0
    }
  }
}
layer {
  name: "relu3_3"
  type: "ReLU"
  bottom: "conv3_3"
  top: "conv3_3"
}
layer {
  name: "pool3"
  type: "Pooling"
  bottom: "conv3_3"
  top: "pool3"
  pooling_param {
    pool: MAX
    kernel_size: 2
    stride: 2
  }
}
layer {
  name: "conv4_1"
  type: "Convolution"
  bottom: "pool3"
  top: "conv4_1"
  param {
    lr_mult: 1
    decay_mult: 1
  }
  param {
    lr_mult: 2
    decay_mult: 0
  }
  convolution_param {
    num_output: 512
    pad: 1
    kernel_size: 3
    weight_filler {
      type: "xavier"
    }
    bias_filler {
      type: "constant"
      value: 0
    }
  }
}
layer {
  name: "relu4_1"
  type: "ReLU"
  bottom: "conv4_1"
  top: "conv4_1"
}
layer {
  name: "conv4_2"
  type: "Convolution"
  bottom: "conv4_1"
  top: "conv4_2"
  param {
    lr_mult: 1
    decay_mult: 1
  }
  param {
    lr_mult: 2
    decay_mult: 0
  }
  convolution_param {
    num_output: 512
    pad: 1
    kernel_size: 3
    weight_filler {
      type: "xavier"
    }
    bias_filler {
      type: "constant"
      value: 0
    }
  }
}
layer {
  name: "relu4_2"
  type: "ReLU"
  bottom: "conv4_2"
  top: "conv4_2"
}
layer {
  name: "conv4_3"
  type: "Convolution"
  bottom: "conv4_2"
  top: "conv4_3"
  param {
    lr_mult: 1
    decay_mult: 1
  }
  param {
    lr_mult: 2
    decay_mult: 0
  }
  convolution_param {
    num_output: 512
    pad: 1
    kernel_size: 3
    weight_filler {
      type: "xavier"
    }
    bias_filler {
      type: "constant"
      value: 0
    }
  }
}
layer {
  name: "relu4_3"
  type: "ReLU"
  bottom: "conv4_3"
  top: "conv4_3"
}
layer {
  name: "pool4"
  type: "Pooling"
  bottom: "conv4_3"
  top: "pool4"
  pooling_param {
    pool: MAX
    kernel_size: 2
    stride: 2
  }
}
layer {
  name: "conv5_1"
  type: "Convolution"
  bottom: "pool4"
  top: "conv5_1"
  param {
    lr_mult: 1
    decay_mult: 1
  }
  param {
    lr_mult: 2
    decay_mult: 0
  }
  convolution_param {
    num_output: 512
    pad: 1
    kernel_size: 3
    weight_filler {
      type: "xavier"
    }
    bias_filler {
      type: "constant"
      value: 0
    }
    dilation: 1
  }
}
layer {
  name: "relu5_1"
  type: "ReLU"
  bottom: "conv5_1"
  top: "conv5_1"
}
layer {
  name: "conv5_2"
  type: "Convolution"
  bottom: "conv5_1"
  top: "conv5_2"
  param {
    lr_mult: 1
    decay_mult: 1
  }
  param {
    lr_mult: 2
    decay_mult: 0
  }
  convolution_param {
    num_output: 512
    pad: 1
    kernel_size: 3
    weight_filler {
      type: "xavier"
    }
    bias_filler {
      type: "constant"
      value: 0
    }
    dilation: 1
  }
}
layer {
  name: "relu5_2"
  type: "ReLU"
  bottom: "conv5_2"
  top: "conv5_2"
}
layer {
  name: "conv5_3"
  type: "Convolution"
  bottom: "conv5_2"
  top: "conv5_3"
  param {
    lr_mult: 1
    decay_mult: 1
  }
  param {
    lr_mult: 2
    decay_mult: 0
  }
  convolution_param {
    num_output: 512
    pad: 1
    kernel_size: 3
    weight_filler {
      type: "xavier"
    }
    bias_filler {
      type: "constant"
      value: 0
    }
    dilation: 1
  }
}
layer {
  name: "relu5_3"
  type: "ReLU"
  bottom: "conv5_3"
  top: "conv5_3"
}
layer {
  name: "pool5"
  type: "Pooling"
  bottom: "conv5_3"
  top: "pool5"
  pooling_param {
    pool: MAX
    kernel_size: 3
    stride: 1
    pad: 1
  }
}
layer {
  name: "fc6"
  type: "Convolution"
  bottom: "pool5"
  top: "fc6"
  param {
    lr_mult: 1
    decay_mult: 1
  }
  param {
    lr_mult: 2
    decay_mult: 0
  }
  convolution_param {
    num_output: 1024
    pad: 6
    kernel_size: 3
    weight_filler {
      type: "xavier"
    }
    bias_filler {
      type: "constant"
      value: 0
    }
    dilation: 6
  }
}
layer {
  name: "relu6"
  type: "ReLU"
  bottom: "fc6"
  top: "fc6"
}
layer {
  name: "fc7"
  type: "Convolution"
  bottom: "fc6"
  top: "fc7"
  param {
    lr_mult: 1
    decay_mult: 1
  }
  param {
    lr_mult: 2
    decay_mult: 0
  }
  convolution_param {
    num_output: 1024
    kernel_size: 1
    weight_filler {
      type: "xavier"
    }
    bias_filler {
      type: "constant"
      value: 0
    }
  }
}
layer {
  name: "relu7"
  type: "ReLU"
  bottom: "fc7"
  top: "fc7"
}
layer {
  name: "conv6_1"
  type: "Convolution"
  bottom: "fc7"
  top: "conv6_1"
  param {
    lr_mult: 1
    decay_mult: 1
  }
  param {
    lr_mult: 2
    decay_mult: 0
  }
  convolution_param {
    num_output: 256
    pad: 0
    kernel_size: 1
    stride: 1
    weight_filler {
      type: "xavier"
    }
    bias_filler {
      type: "constant"
      value: 0
    }
  }
}
layer {
  name: "conv6_1_relu"
  type: "ReLU"
  bottom: "conv6_1"
  top: "conv6_1"
}
layer {
  name: "conv6_2"
  type: "Convolution"
  bottom: "conv6_1"
  top: "conv6_2"
  param {
    lr_mult: 1
    decay_mult: 1
  }
  param {
    lr_mult: 2
    decay_mult: 0
  }
  convolution_param {
    num_output: 512
    pad: 1
    kernel_size: 3
    stride: 2
    weight_filler {
      type: "xavier"
    }
    bias_filler {
      type: "constant"
      value: 0
    }
  }
}
layer {
  name: "conv6_2_relu"
  type: "ReLU"
  bottom: "conv6_2"
  top: "conv6_2"
}
layer {
  name: "conv7_1"
  type: "Convolution"
  bottom: "conv6_2"
  top: "conv7_1"
  param {
    lr_mult: 1
    decay_mult: 1
  }
  param {
    lr_mult: 2
    decay_mult: 0
  }
  convolution_param {
    num_output: 128
    pad: 0
    kernel_size: 1
    stride: 1
    weight_filler {
      type: "xavier"
    }
    bias_filler {
      type: "constant"
      value: 0
    }
  }
}
layer {
  name: "conv7_1_relu"
  type: "ReLU"
  bottom: "conv7_1"
  top: "conv7_1"
}
layer {
  name: "conv7_2"
  type: "Convolution"
  bottom: "conv7_1"
  top: "conv7_2"
  param {
    lr_mult: 1
    decay_mult: 1
  }
  param {
    lr_mult: 2
    decay_mult: 0
  }
  convolution_param {
    num_output: 256
    pad: 1
    kernel_size: 3
    stride: 2
    weight_filler {
      type: "xavier"
    }
    bias_filler {
      type: "constant"
      value: 0
    }
  }
}
layer {
  name: "conv7_2_relu"
  type: "ReLU"
  bottom: "conv7_2"
  top: "conv7_2"
}
layer {
  name: "conv8_1"
  type: "Convolution"
  bottom: "conv7_2"
  top: "conv8_1"
  param {
    lr_mult: 1
    decay_mult: 1
  }
  param {
    lr_mult: 2
    decay_mult: 0
  }
  convolution_param {
    num_output: 128
    pad: 0
    kernel_size: 1
    stride: 1
    weight_filler {
      type: "xavier"
    }
    bias_filler {
      type: "constant"
      value: 0
    }
  }
}
layer {
  name: "conv8_1_relu"
  type: "ReLU"
  bottom: "conv8_1"
  top: "conv8_1"
}
layer {
  name: "conv8_2"
  type: "Convolution"
  bottom: "conv8_1"
  top: "conv8_2"
  param {
    lr_mult: 1
    decay_mult: 1
  }
  param {
    lr_mult: 2
    decay_mult: 0
  }
  convolution_param {
    num_output: 256
    pad: 0
    kernel_size: 3
    stride: 1
    weight_filler {
      type: "xavier"
    }
    bias_filler {
      type: "constant"
      value: 0
    }
  }
}
layer {
  name: "conv8_2_relu"
  type: "ReLU"
  bottom: "conv8_2"
  top: "conv8_2"
}
layer {
  name: "conv9_1"
  type: "Convolution"
  bottom: "conv8_2"
  top: "conv9_1"
  param {
    lr_mult: 1
    decay_mult: 1
  }
  param {
    lr_mult: 2
    decay_mult: 0
  }
  convolution_param {
    num_output: 128
    pad: 0
    kernel_size: 1
    stride: 1
    weight_filler {
      type: "xavier"
    }
    bias_filler {
      type: "constant"
      value: 0
    }
  }
}
layer {
  name: "conv9_1_relu"
  type: "ReLU"
  bottom: "conv9_1"
  top: "conv9_1"
}
layer {
  name: "conv9_2"
  type: "Convolution"
  bottom: "conv9_1"
  top: "conv9_2"
  param {
    lr_mult: 1
    decay_mult: 1
  }
  param {
    lr_mult: 2
    decay_mult: 0
  }
  convolution_param {
    num_output: 256
    pad: 0
    kernel_size: 3
    stride: 1
    weight_filler {
      type: "xavier"
    }
    bias_filler {
      type: "constant"
      value: 0
    }
  }
}
layer {
  name: "conv9_2_relu"
  type: "ReLU"
  bottom: "conv9_2"
  top: "conv9_2"
}
layer {
  name: "conv4_3_norm"
  type: "Normalize"
  bottom: "conv4_3"
  top: "conv4_3_norm"
  norm_param {
    across_spatial: false
    scale_filler {
      type: "constant"
      value: 20
    }
    channel_shared: false
  }
}
layer {
  name: "conv4_3_norm_mbox_loc"
  type: "Convolution"
  bottom: "conv4_3_norm"
  top: "conv4_3_norm_mbox_loc"
  param {
    lr_mult: 1
    decay_mult: 1
  }
  param {
    lr_mult: 2
    decay_mult: 0
  }
  convolution_param {
    num_output: 16
    pad: 1
    kernel_size: 3
    stride: 1
    weight_filler {
      type: "xavier"
    }
    bias_filler {
      type: "constant"
      value: 0
    }
  }
}
layer {
  name: "conv4_3_norm_mbox_loc_perm"
  type: "Permute"
  bottom: "conv4_3_norm_mbox_loc"
  top: "conv4_3_norm_mbox_loc_perm"
  permute_param {
    order: 0
    order: 2
    order: 3
    order: 1
  }
}
layer {
  name: "conv4_3_norm_mbox_loc_flat"
  type: "Flatten"
  bottom: "conv4_3_norm_mbox_loc_perm"
  top: "conv4_3_norm_mbox_loc_flat"
  flatten_param {
    axis: 1
  }
}
layer {
  name: "conv4_3_norm_mbox_conf"
  type: "Convolution"
  bottom: "conv4_3_norm"
  top: "conv4_3_norm_mbox_conf"
  param {
    lr_mult: 1
    decay_mult: 1
  }
  param {
    lr_mult: 2
    decay_mult: 0
  }
  convolution_param {
    num_output: 44
    pad: 1
    kernel_size: 3
    stride: 1
    weight_filler {
      type: "xavier"
    }
    bias_filler {
      type: "constant"
      value: 0
    }
  }
}
layer {
  name: "conv4_3_norm_mbox_conf_perm"
  type: "Permute"
  bottom: "conv4_3_norm_mbox_conf"
  top: "conv4_3_norm_mbox_conf_perm"
  permute_param {
    order: 0
    order: 2
    order: 3
    order: 1
  }
}
layer {
  name: "conv4_3_norm_mbox_conf_flat"
  type: "Flatten"
  bottom: "conv4_3_norm_mbox_conf_perm"
  top: "conv4_3_norm_mbox_conf_flat"
  flatten_param {
    axis: 1
  }
}
layer {
  name: "conv4_3_norm_mbox_priorbox"
  type: "PriorBox"
  bottom: "conv4_3_norm"
  bottom: "data"
  top: "conv4_3_norm_mbox_priorbox"
  prior_box_param {
    min_size: 30
    max_size: 60
    aspect_ratio: 2
    flip: true
    clip: false
    variance: 0.1
    variance: 0.1
    variance: 0.2
    variance: 0.2
    step: 8
    offset: 0.5
  }
}
layer {
  name: "fc7_mbox_loc"
  type: "Convolution"
  bottom: "fc7"
  top: "fc7_mbox_loc"
  param {
    lr_mult: 1
    decay_mult: 1
  }
  param {
    lr_mult: 2
    decay_mult: 0
  }
  convolution_param {
    num_output: 24
    pad: 1
    kernel_size: 3
    stride: 1
    weight_filler {
      type: "xavier"
    }
    bias_filler {
      type: "constant"
      value: 0
    }
  }
}
layer {
  name: "fc7_mbox_loc_perm"
  type: "Permute"
  bottom: "fc7_mbox_loc"
  top: "fc7_mbox_loc_perm"
  permute_param {
    order: 0
    order: 2
    order: 3
    order: 1
  }
}
layer {
  name: "fc7_mbox_loc_flat"
  type: "Flatten"
  bottom: "fc7_mbox_loc_perm"
  top: "fc7_mbox_loc_flat"
  flatten_param {
    axis: 1
  }
}
layer {
  name: "fc7_mbox_conf"
  type: "Convolution"
  bottom: "fc7"
  top: "fc7_mbox_conf"
  param {
    lr_mult: 1
    decay_mult: 1
  }
  param {
    lr_mult: 2
    decay_mult: 0
  }
  convolution_param {
    num_output: 66
    pad: 1
    kernel_size: 3
    stride: 1
    weight_filler {
      type: "xavier"
    }
    bias_filler {
      type: "constant"
      value: 0
    }
  }
}
layer {
  name: "fc7_mbox_conf_perm"
  type: "Permute"
  bottom: "fc7_mbox_conf"
  top: "fc7_mbox_conf_perm"
  permute_param {
    order: 0
    order: 2
    order: 3
    order: 1
  }
}
layer {
  name: "fc7_mbox_conf_flat"
  type: "Flatten"
  bottom: "fc7_mbox_conf_perm"
  top: "fc7_mbox_conf_flat"
  flatten_param {
    axis: 1
  }
}
layer {
  name: "fc7_mbox_priorbox"
  type: "PriorBox"
  bottom: "fc7"
  bottom: "data"
  top: "fc7_mbox_priorbox"
  prior_box_param {
    min_size: 60
    max_size: 111
    aspect_ratio: 2
    aspect_ratio: 3
    flip: true
    clip: false
    variance: 0.1
    variance: 0.1
    variance: 0.2
    variance: 0.2
    step: 16
    offset: 0.5
  }
}
layer {
  name: "conv6_2_mbox_loc"
  type: "Convolution"
  bottom: "conv6_2"
  top: "conv6_2_mbox_loc"
  param {
    lr_mult: 1
    decay_mult: 1
  }
  param {
    lr_mult: 2
    decay_mult: 0
  }
  convolution_param {
    num_output: 24
    pad: 1
    kernel_size: 3
    stride: 1
    weight_filler {
      type: "xavier"
    }
    bias_filler {
      type: "constant"
      value: 0
    }
  }
}
layer {
  name: "conv6_2_mbox_loc_perm"
  type: "Permute"
  bottom: "conv6_2_mbox_loc"
  top: "conv6_2_mbox_loc_perm"
  permute_param {
    order: 0
    order: 2
    order: 3
    order: 1
  }
}
layer {
  name: "conv6_2_mbox_loc_flat"
  type: "Flatten"
  bottom: "conv6_2_mbox_loc_perm"
  top: "conv6_2_mbox_loc_flat"
  flatten_param {
    axis: 1
  }
}
layer {
  name: "conv6_2_mbox_conf"
  type: "Convolution"
  bottom: "conv6_2"
  top: "conv6_2_mbox_conf"
  param {
    lr_mult: 1
    decay_mult: 1
  }
  param {
    lr_mult: 2
    decay_mult: 0
  }
  convolution_param {
    num_output: 66
    pad: 1
    kernel_size: 3
    stride: 1
    weight_filler {
      type: "xavier"
    }
    bias_filler {
      type: "constant"
      value: 0
    }
  }
}
layer {
  name: "conv6_2_mbox_conf_perm"
  type: "Permute"
  bottom: "conv6_2_mbox_conf"
  top: "conv6_2_mbox_conf_perm"
  permute_param {
    order: 0
    order: 2
    order: 3
    order: 1
  }
}
layer {
  name: "conv6_2_mbox_conf_flat"
  type: "Flatten"
  bottom: "conv6_2_mbox_conf_perm"
  top: "conv6_2_mbox_conf_flat"
  flatten_param {
    axis: 1
  }
}
layer {
  name: "conv6_2_mbox_priorbox"
  type: "PriorBox"
  bottom: "conv6_2"
  bottom: "data"
  top: "conv6_2_mbox_priorbox"
  prior_box_param {
    min_size: 111
    max_size: 162
    aspect_ratio: 2
    aspect_ratio: 3
    flip: true
    clip: false
    variance: 0.1
    variance: 0.1
    variance: 0.2
    variance: 0.2
    step: 32
    offset: 0.5
  }
}
layer {
  name: "conv7_2_mbox_loc"
  type: "Convolution"
  bottom: "conv7_2"
  top: "conv7_2_mbox_loc"
  param {
    lr_mult: 1
    decay_mult: 1
  }
  param {
    lr_mult: 2
    decay_mult: 0
  }
  convolution_param {
    num_output: 24
    pad: 1
    kernel_size: 3
    stride: 1
    weight_filler {
      type: "xavier"
    }
    bias_filler {
      type: "constant"
      value: 0
    }
  }
}
layer {
  name: "conv7_2_mbox_loc_perm"
  type: "Permute"
  bottom: "conv7_2_mbox_loc"
  top: "conv7_2_mbox_loc_perm"
  permute_param {
    order: 0
    order: 2
    order: 3
    order: 1
  }
}
layer {
  name: "conv7_2_mbox_loc_flat"
  type: "Flatten"
  bottom: "conv7_2_mbox_loc_perm"
  top: "conv7_2_mbox_loc_flat"
  flatten_param {
    axis: 1
  }
}
layer {
  name: "conv7_2_mbox_conf"
  type: "Convolution"
  bottom: "conv7_2"
  top: "conv7_2_mbox_conf"
  param {
    lr_mult: 1
    decay_mult: 1
  }
  param {
    lr_mult: 2
    decay_mult: 0
  }
  convolution_param {
    num_output: 66
    pad: 1
    kernel_size: 3
    stride: 1
    weight_filler {
      type: "xavier"
    }
    bias_filler {
      type: "constant"
      value: 0
    }
  }
}
layer {
  name: "conv7_2_mbox_conf_perm"
  type: "Permute"
  bottom: "conv7_2_mbox_conf"
  top: "conv7_2_mbox_conf_perm"
  permute_param {
    order: 0
    order: 2
    order: 3
    order: 1
  }
}
layer {
  name: "conv7_2_mbox_conf_flat"
  type: "Flatten"
  bottom: "conv7_2_mbox_conf_perm"
  top: "conv7_2_mbox_conf_flat"
  flatten_param {
    axis: 1
  }
}
layer {
  name: "conv7_2_mbox_priorbox"
  type: "PriorBox"
  bottom: "conv7_2"
  bottom: "data"
  top: "conv7_2_mbox_priorbox"
  prior_box_param {
    min_size: 162
    max_size: 213
    aspect_ratio: 2
    aspect_ratio: 3
    flip: true
    clip: false
    variance: 0.1
    variance: 0.1
    variance: 0.2
    variance: 0.2
    step: 64
    offset: 0.5
  }
}
layer {
  name: "conv8_2_mbox_loc"
  type: "Convolution"
  bottom: "conv8_2"
  top: "conv8_2_mbox_loc"
  param {
    lr_mult: 1
    decay_mult: 1
  }
  param {
    lr_mult: 2
    decay_mult: 0
  }
  convolution_param {
    num_output: 16
    pad: 1
    kernel_size: 3
    stride: 1
    weight_filler {
      type: "xavier"
    }
    bias_filler {
      type: "constant"
      value: 0
    }
  }
}
layer {
  name: "conv8_2_mbox_loc_perm"
  type: "Permute"
  bottom: "conv8_2_mbox_loc"
  top: "conv8_2_mbox_loc_perm"
  permute_param {
    order: 0
    order: 2
    order: 3
    order: 1
  }
}
layer {
  name: "conv8_2_mbox_loc_flat"
  type: "Flatten"
  bottom: "conv8_2_mbox_loc_perm"
  top: "conv8_2_mbox_loc_flat"
  flatten_param {
    axis: 1
  }
}
layer {
  name: "conv8_2_mbox_conf"
  type: "Convolution"
  bottom: "conv8_2"
  top: "conv8_2_mbox_conf"
  param {
    lr_mult: 1
    decay_mult: 1
  }
  param {
    lr_mult: 2
    decay_mult: 0
  }
  convolution_param {
    num_output: 44
    pad: 1
    kernel_size: 3
    stride: 1
    weight_filler {
      type: "xavier"
    }
    bias_filler {
      type: "constant"
      value: 0
    }
  }
}
layer {
  name: "conv8_2_mbox_conf_perm"
  type: "Permute"
  bottom: "conv8_2_mbox_conf"
  top: "conv8_2_mbox_conf_perm"
  permute_param {
    order: 0
    order: 2
    order: 3
    order: 1
  }
}
layer {
  name: "conv8_2_mbox_conf_flat"
  type: "Flatten"
  bottom: "conv8_2_mbox_conf_perm"
  top: "conv8_2_mbox_conf_flat"
  flatten_param {
    axis: 1
  }
}
layer {
  name: "conv8_2_mbox_priorbox"
  type: "PriorBox"
  bottom: "conv8_2"
  bottom: "data"
  top: "conv8_2_mbox_priorbox"
  prior_box_param {
    min_size: 213
    max_size: 264
    aspect_ratio: 2
    flip: true
    clip: false
    variance: 0.1
    variance: 0.1
    variance: 0.2
    variance: 0.2
    step: 100
    offset: 0.5
  }
}
layer {
  name: "conv9_2_mbox_loc"
  type: "Convolution"
  bottom: "conv9_2"
  top: "conv9_2_mbox_loc"
  param {
    lr_mult: 1
    decay_mult: 1
  }
  param {
    lr_mult: 2
    decay_mult: 0
  }
  convolution_param {
    num_output: 16
    pad: 1
    kernel_size: 3
    stride: 1
    weight_filler {
      type: "xavier"
    }
    bias_filler {
      type: "constant"
      value: 0
    }
  }
}
layer {
  name: "conv9_2_mbox_loc_perm"
  type: "Permute"
  bottom: "conv9_2_mbox_loc"
  top: "conv9_2_mbox_loc_perm"
  permute_param {
    order: 0
    order: 2
    order: 3
    order: 1
  }
}
layer {
  name: "conv9_2_mbox_loc_flat"
  type: "Flatten"
  bottom: "conv9_2_mbox_loc_perm"
  top: "conv9_2_mbox_loc_flat"
  flatten_param {
    axis: 1
  }
}
layer {
  name: "conv9_2_mbox_conf"
  type: "Convolution"
  bottom: "conv9_2"
  top: "conv9_2_mbox_conf"
  param {
    lr_mult: 1
    decay_mult: 1
  }
  param {
    lr_mult: 2
    decay_mult: 0
  }
  convolution_param {
    num_output: 44
    pad: 1
    kernel_size: 3
    stride: 1
    weight_filler {
      type: "xavier"
    }
    bias_filler {
      type: "constant"
      value: 0
    }
  }
}
layer {
  name: "conv9_2_mbox_conf_perm"
  type: "Permute"
  bottom: "conv9_2_mbox_conf"
  top: "conv9_2_mbox_conf_perm"
  permute_param {
    order: 0
    order: 2
    order: 3
    order: 1
  }
}
layer {
  name: "conv9_2_mbox_conf_flat"
  type: "Flatten"
  bottom: "conv9_2_mbox_conf_perm"
  top: "conv9_2_mbox_conf_flat"
  flatten_param {
    axis: 1
  }
}
layer {
  name: "conv9_2_mbox_priorbox"
  type: "PriorBox"
  bottom: "conv9_2"
  bottom: "data"
  top: "conv9_2_mbox_priorbox"
  prior_box_param {
    min_size: 264
    max_size: 315
    aspect_ratio: 2
    flip: true
    clip: false
    variance: 0.1
    variance: 0.1
    variance: 0.2
    variance: 0.2
    step: 300
    offset: 0.5
  }
}
layer {
  name: "mbox_loc"
  type: "Concat"
  bottom: "conv4_3_norm_mbox_loc_flat"
  bottom: "fc7_mbox_loc_flat"
  bottom: "conv6_2_mbox_loc_flat"
  bottom: "conv7_2_mbox_loc_flat"
  bottom: "conv8_2_mbox_loc_flat"
  bottom: "conv9_2_mbox_loc_flat"
  top: "mbox_loc"
  concat_param {
    axis: 1
  }
}
layer {
  name: "mbox_conf"
  type: "Concat"
  bottom: "conv4_3_norm_mbox_conf_flat"
  bottom: "fc7_mbox_conf_flat"
  bottom: "conv6_2_mbox_conf_flat"
  bottom: "conv7_2_mbox_conf_flat"
  bottom: "conv8_2_mbox_conf_flat"
  bottom: "conv9_2_mbox_conf_flat"
  top: "mbox_conf"
  concat_param {
    axis: 1
  }
}
layer {
  name: "mbox_priorbox"
  type: "Concat"
  bottom: "conv4_3_norm_mbox_priorbox"
  bottom: "fc7_mbox_priorbox"
  bottom: "conv6_2_mbox_priorbox"
  bottom: "conv7_2_mbox_priorbox"
  bottom: "conv8_2_mbox_priorbox"
  bottom: "conv9_2_mbox_priorbox"
  top: "mbox_priorbox"
  concat_param {
    axis: 2
  }
}
layer {
  name: "mbox_loss"
  type: "MultiBoxLoss"
  bottom: "mbox_loc"
  bottom: "mbox_conf"
  bottom: "mbox_priorbox"
  bottom: "label"
  top: "mbox_loss"
  include {
    phase: TRAIN
  }
  propagate_down: true
  propagate_down: true
  propagate_down: false
  propagate_down: false
  loss_param {
    normalization: VALID
  }
  multibox_loss_param {
    loc_loss_type: SMOOTH_L1
    conf_loss_type: SOFTMAX
    loc_weight: 1
    num_classes: 11
    share_location: true
    match_type: PER_PREDICTION
    overlap_threshold: 0.5
    use_prior_for_matching: true
    background_label_id: 0
    use_difficult_gt: true
    neg_pos_ratio: 3
    neg_overlap: 0.5
    code_type: CENTER_SIZE
    ignore_cross_boundary_bbox: false
    mining_type: MAX_NEGATIVE
  }
}
I0305 10:55:16.567275 25537 layer_factory.hpp:77] Creating layer data
I0305 10:55:16.567800 25537 net.cpp:100] Creating Layer data
I0305 10:55:16.567819 25537 net.cpp:408] data -> data
I0305 10:55:16.567858 25537 net.cpp:408] data -> label
I0305 10:55:16.570953 25551 db_lmdb.cpp:35] Opened lmdb examples/NWPU_VHR/NWPU_VHR_trainval_lmdb
I0305 10:55:16.589603 25537 annotated_data_layer.cpp:62] output data size: 1,3,300,300
I0305 10:55:16.594533 25537 net.cpp:150] Setting up data
I0305 10:55:16.594606 25537 net.cpp:157] Top shape: 1 3 300 300 (270000)
I0305 10:55:16.594632 25537 net.cpp:157] Top shape: 1 1 4 8 (32)
I0305 10:55:16.594650 25537 net.cpp:165] Memory required for data: 1080128
I0305 10:55:16.594676 25537 layer_factory.hpp:77] Creating layer data_data_0_split
I0305 10:55:16.594709 25537 net.cpp:100] Creating Layer data_data_0_split
I0305 10:55:16.594733 25537 net.cpp:434] data_data_0_split <- data
I0305 10:55:16.594768 25537 net.cpp:408] data_data_0_split -> data_data_0_split_0
I0305 10:55:16.594821 25537 net.cpp:408] data_data_0_split -> data_data_0_split_1
I0305 10:55:16.594849 25537 net.cpp:408] data_data_0_split -> data_data_0_split_2
I0305 10:55:16.594873 25537 net.cpp:408] data_data_0_split -> data_data_0_split_3
I0305 10:55:16.594892 25537 net.cpp:408] data_data_0_split -> data_data_0_split_4
I0305 10:55:16.594911 25537 net.cpp:408] data_data_0_split -> data_data_0_split_5
I0305 10:55:16.594930 25537 net.cpp:408] data_data_0_split -> data_data_0_split_6
I0305 10:55:16.595062 25537 net.cpp:150] Setting up data_data_0_split
I0305 10:55:16.595090 25537 net.cpp:157] Top shape: 1 3 300 300 (270000)
I0305 10:55:16.595109 25537 net.cpp:157] Top shape: 1 3 300 300 (270000)
I0305 10:55:16.595129 25537 net.cpp:157] Top shape: 1 3 300 300 (270000)
I0305 10:55:16.595149 25537 net.cpp:157] Top shape: 1 3 300 300 (270000)
I0305 10:55:16.595168 25537 net.cpp:157] Top shape: 1 3 300 300 (270000)
I0305 10:55:16.595185 25537 net.cpp:157] Top shape: 1 3 300 300 (270000)
I0305 10:55:16.595201 25537 net.cpp:157] Top shape: 1 3 300 300 (270000)
I0305 10:55:16.595216 25537 net.cpp:165] Memory required for data: 8640128
I0305 10:55:16.595230 25537 layer_factory.hpp:77] Creating layer conv1_1
I0305 10:55:16.595261 25537 net.cpp:100] Creating Layer conv1_1
I0305 10:55:16.595278 25537 net.cpp:434] conv1_1 <- data_data_0_split_0
I0305 10:55:16.595296 25537 net.cpp:408] conv1_1 -> conv1_1
I0305 10:55:17.186420 25537 net.cpp:150] Setting up conv1_1
I0305 10:55:17.186460 25537 net.cpp:157] Top shape: 1 64 300 300 (5760000)
I0305 10:55:17.186467 25537 net.cpp:165] Memory required for data: 31680128
I0305 10:55:17.186501 25537 layer_factory.hpp:77] Creating layer relu1_1
I0305 10:55:17.186517 25537 net.cpp:100] Creating Layer relu1_1
I0305 10:55:17.186525 25537 net.cpp:434] relu1_1 <- conv1_1
I0305 10:55:17.186535 25537 net.cpp:395] relu1_1 -> conv1_1 (in-place)
I0305 10:55:17.187495 25537 net.cpp:150] Setting up relu1_1
I0305 10:55:17.187515 25537 net.cpp:157] Top shape: 1 64 300 300 (5760000)
I0305 10:55:17.187522 25537 net.cpp:165] Memory required for data: 54720128
I0305 10:55:17.187530 25537 layer_factory.hpp:77] Creating layer conv1_2
I0305 10:55:17.187552 25537 net.cpp:100] Creating Layer conv1_2
I0305 10:55:17.187561 25537 net.cpp:434] conv1_2 <- conv1_1
I0305 10:55:17.187572 25537 net.cpp:408] conv1_2 -> conv1_2
I0305 10:55:17.190960 25537 net.cpp:150] Setting up conv1_2
I0305 10:55:17.190996 25537 net.cpp:157] Top shape: 1 64 300 300 (5760000)
I0305 10:55:17.191004 25537 net.cpp:165] Memory required for data: 77760128
I0305 10:55:17.191025 25537 layer_factory.hpp:77] Creating layer relu1_2
I0305 10:55:17.191038 25537 net.cpp:100] Creating Layer relu1_2
I0305 10:55:17.191047 25537 net.cpp:434] relu1_2 <- conv1_2
I0305 10:55:17.191057 25537 net.cpp:395] relu1_2 -> conv1_2 (in-place)
I0305 10:55:17.191273 25537 net.cpp:150] Setting up relu1_2
I0305 10:55:17.191287 25537 net.cpp:157] Top shape: 1 64 300 300 (5760000)
I0305 10:55:17.191294 25537 net.cpp:165] Memory required for data: 100800128
I0305 10:55:17.191299 25537 layer_factory.hpp:77] Creating layer pool1
I0305 10:55:17.191309 25537 net.cpp:100] Creating Layer pool1
I0305 10:55:17.191315 25537 net.cpp:434] pool1 <- conv1_2
I0305 10:55:17.191324 25537 net.cpp:408] pool1 -> pool1
I0305 10:55:17.191395 25537 net.cpp:150] Setting up pool1
I0305 10:55:17.191406 25537 net.cpp:157] Top shape: 1 64 150 150 (1440000)
I0305 10:55:17.191412 25537 net.cpp:165] Memory required for data: 106560128
I0305 10:55:17.191418 25537 layer_factory.hpp:77] Creating layer conv2_1
I0305 10:55:17.191432 25537 net.cpp:100] Creating Layer conv2_1
I0305 10:55:17.191439 25537 net.cpp:434] conv2_1 <- pool1
I0305 10:55:17.191448 25537 net.cpp:408] conv2_1 -> conv2_1
I0305 10:55:17.194654 25537 net.cpp:150] Setting up conv2_1
I0305 10:55:17.194703 25537 net.cpp:157] Top shape: 1 128 150 150 (2880000)
I0305 10:55:17.194710 25537 net.cpp:165] Memory required for data: 118080128
I0305 10:55:17.194730 25537 layer_factory.hpp:77] Creating layer relu2_1
I0305 10:55:17.194752 25537 net.cpp:100] Creating Layer relu2_1
I0305 10:55:17.194782 25537 net.cpp:434] relu2_1 <- conv2_1
I0305 10:55:17.194797 25537 net.cpp:395] relu2_1 -> conv2_1 (in-place)
I0305 10:55:17.195045 25537 net.cpp:150] Setting up relu2_1
I0305 10:55:17.195061 25537 net.cpp:157] Top shape: 1 128 150 150 (2880000)
I0305 10:55:17.195067 25537 net.cpp:165] Memory required for data: 129600128
I0305 10:55:17.195073 25537 layer_factory.hpp:77] Creating layer conv2_2
I0305 10:55:17.195091 25537 net.cpp:100] Creating Layer conv2_2
I0305 10:55:17.195122 25537 net.cpp:434] conv2_2 <- conv2_1
I0305 10:55:17.195148 25537 net.cpp:408] conv2_2 -> conv2_2
I0305 10:55:17.199132 25537 net.cpp:150] Setting up conv2_2
I0305 10:55:17.199204 25537 net.cpp:157] Top shape: 1 128 150 150 (2880000)
I0305 10:55:17.199226 25537 net.cpp:165] Memory required for data: 141120128
I0305 10:55:17.199255 25537 layer_factory.hpp:77] Creating layer relu2_2
I0305 10:55:17.199280 25537 net.cpp:100] Creating Layer relu2_2
I0305 10:55:17.199302 25537 net.cpp:434] relu2_2 <- conv2_2
I0305 10:55:17.199327 25537 net.cpp:395] relu2_2 -> conv2_2 (in-place)
I0305 10:55:17.200323 25537 net.cpp:150] Setting up relu2_2
I0305 10:55:17.200363 25537 net.cpp:157] Top shape: 1 128 150 150 (2880000)
I0305 10:55:17.200384 25537 net.cpp:165] Memory required for data: 152640128
I0305 10:55:17.200405 25537 layer_factory.hpp:77] Creating layer pool2
I0305 10:55:17.200431 25537 net.cpp:100] Creating Layer pool2
I0305 10:55:17.200453 25537 net.cpp:434] pool2 <- conv2_2
I0305 10:55:17.200475 25537 net.cpp:408] pool2 -> pool2
I0305 10:55:17.200574 25537 net.cpp:150] Setting up pool2
I0305 10:55:17.200600 25537 net.cpp:157] Top shape: 1 128 75 75 (720000)
I0305 10:55:17.200619 25537 net.cpp:165] Memory required for data: 155520128
I0305 10:55:17.200639 25537 layer_factory.hpp:77] Creating layer conv3_1
I0305 10:55:17.200671 25537 net.cpp:100] Creating Layer conv3_1
I0305 10:55:17.200716 25537 net.cpp:434] conv3_1 <- pool2
I0305 10:55:17.200742 25537 net.cpp:408] conv3_1 -> conv3_1
I0305 10:55:17.208114 25537 net.cpp:150] Setting up conv3_1
I0305 10:55:17.208189 25537 net.cpp:157] Top shape: 1 256 75 75 (1440000)
I0305 10:55:17.208214 25537 net.cpp:165] Memory required for data: 161280128
I0305 10:55:17.208254 25537 layer_factory.hpp:77] Creating layer relu3_1
I0305 10:55:17.208284 25537 net.cpp:100] Creating Layer relu3_1
I0305 10:55:17.208308 25537 net.cpp:434] relu3_1 <- conv3_1
I0305 10:55:17.208336 25537 net.cpp:395] relu3_1 -> conv3_1 (in-place)
I0305 10:55:17.208703 25537 net.cpp:150] Setting up relu3_1
I0305 10:55:17.208735 25537 net.cpp:157] Top shape: 1 256 75 75 (1440000)
I0305 10:55:17.208756 25537 net.cpp:165] Memory required for data: 167040128
I0305 10:55:17.208775 25537 layer_factory.hpp:77] Creating layer conv3_2
I0305 10:55:17.208807 25537 net.cpp:100] Creating Layer conv3_2
I0305 10:55:17.208827 25537 net.cpp:434] conv3_2 <- conv3_1
I0305 10:55:17.208851 25537 net.cpp:408] conv3_2 -> conv3_2
I0305 10:55:17.225387 25537 net.cpp:150] Setting up conv3_2
I0305 10:55:17.225428 25537 net.cpp:157] Top shape: 1 256 75 75 (1440000)
I0305 10:55:17.225435 25537 net.cpp:165] Memory required for data: 172800128
I0305 10:55:17.225453 25537 layer_factory.hpp:77] Creating layer relu3_2
I0305 10:55:17.225468 25537 net.cpp:100] Creating Layer relu3_2
I0305 10:55:17.225476 25537 net.cpp:434] relu3_2 <- conv3_2
I0305 10:55:17.225486 25537 net.cpp:395] relu3_2 -> conv3_2 (in-place)
I0305 10:55:17.225760 25537 net.cpp:150] Setting up relu3_2
I0305 10:55:17.225776 25537 net.cpp:157] Top shape: 1 256 75 75 (1440000)
I0305 10:55:17.225782 25537 net.cpp:165] Memory required for data: 178560128
I0305 10:55:17.225788 25537 layer_factory.hpp:77] Creating layer conv3_3
I0305 10:55:17.225812 25537 net.cpp:100] Creating Layer conv3_3
I0305 10:55:17.225821 25537 net.cpp:434] conv3_3 <- conv3_2
I0305 10:55:17.225832 25537 net.cpp:408] conv3_3 -> conv3_3
I0305 10:55:17.234555 25537 net.cpp:150] Setting up conv3_3
I0305 10:55:17.234591 25537 net.cpp:157] Top shape: 1 256 75 75 (1440000)
I0305 10:55:17.234597 25537 net.cpp:165] Memory required for data: 184320128
I0305 10:55:17.234637 25537 layer_factory.hpp:77] Creating layer relu3_3
I0305 10:55:17.234654 25537 net.cpp:100] Creating Layer relu3_3
I0305 10:55:17.234664 25537 net.cpp:434] relu3_3 <- conv3_3
I0305 10:55:17.234676 25537 net.cpp:395] relu3_3 -> conv3_3 (in-place)
I0305 10:55:17.235594 25537 net.cpp:150] Setting up relu3_3
I0305 10:55:17.235610 25537 net.cpp:157] Top shape: 1 256 75 75 (1440000)
I0305 10:55:17.235617 25537 net.cpp:165] Memory required for data: 190080128
I0305 10:55:17.235623 25537 layer_factory.hpp:77] Creating layer pool3
I0305 10:55:17.235635 25537 net.cpp:100] Creating Layer pool3
I0305 10:55:17.235642 25537 net.cpp:434] pool3 <- conv3_3
I0305 10:55:17.235652 25537 net.cpp:408] pool3 -> pool3
I0305 10:55:17.235723 25537 net.cpp:150] Setting up pool3
I0305 10:55:17.235734 25537 net.cpp:157] Top shape: 1 256 38 38 (369664)
I0305 10:55:17.235739 25537 net.cpp:165] Memory required for data: 191558784
I0305 10:55:17.235745 25537 layer_factory.hpp:77] Creating layer conv4_1
I0305 10:55:17.235762 25537 net.cpp:100] Creating Layer conv4_1
I0305 10:55:17.235771 25537 net.cpp:434] conv4_1 <- pool3
I0305 10:55:17.235782 25537 net.cpp:408] conv4_1 -> conv4_1
I0305 10:55:17.251845 25537 net.cpp:150] Setting up conv4_1
I0305 10:55:17.251883 25537 net.cpp:157] Top shape: 1 512 38 38 (739328)
I0305 10:55:17.251889 25537 net.cpp:165] Memory required for data: 194516096
I0305 10:55:17.251905 25537 layer_factory.hpp:77] Creating layer relu4_1
I0305 10:55:17.251919 25537 net.cpp:100] Creating Layer relu4_1
I0305 10:55:17.251929 25537 net.cpp:434] relu4_1 <- conv4_1
I0305 10:55:17.251940 25537 net.cpp:395] relu4_1 -> conv4_1 (in-place)
I0305 10:55:17.252214 25537 net.cpp:150] Setting up relu4_1
I0305 10:55:17.252230 25537 net.cpp:157] Top shape: 1 512 38 38 (739328)
I0305 10:55:17.252236 25537 net.cpp:165] Memory required for data: 197473408
I0305 10:55:17.252243 25537 layer_factory.hpp:77] Creating layer conv4_2
I0305 10:55:17.252261 25537 net.cpp:100] Creating Layer conv4_2
I0305 10:55:17.252272 25537 net.cpp:434] conv4_2 <- conv4_1
I0305 10:55:17.252283 25537 net.cpp:408] conv4_2 -> conv4_2
I0305 10:55:17.277707 25537 net.cpp:150] Setting up conv4_2
I0305 10:55:17.277741 25537 net.cpp:157] Top shape: 1 512 38 38 (739328)
I0305 10:55:17.277750 25537 net.cpp:165] Memory required for data: 200430720
I0305 10:55:17.277771 25537 layer_factory.hpp:77] Creating layer relu4_2
I0305 10:55:17.277786 25537 net.cpp:100] Creating Layer relu4_2
I0305 10:55:17.277793 25537 net.cpp:434] relu4_2 <- conv4_2
I0305 10:55:17.277806 25537 net.cpp:395] relu4_2 -> conv4_2 (in-place)
I0305 10:55:17.278093 25537 net.cpp:150] Setting up relu4_2
I0305 10:55:17.278122 25537 net.cpp:157] Top shape: 1 512 38 38 (739328)
I0305 10:55:17.278142 25537 net.cpp:165] Memory required for data: 203388032
I0305 10:55:17.278163 25537 layer_factory.hpp:77] Creating layer conv4_3
I0305 10:55:17.278194 25537 net.cpp:100] Creating Layer conv4_3
I0305 10:55:17.278215 25537 net.cpp:434] conv4_3 <- conv4_2
I0305 10:55:17.278242 25537 net.cpp:408] conv4_3 -> conv4_3
I0305 10:55:17.303126 25537 net.cpp:150] Setting up conv4_3
I0305 10:55:17.303207 25537 net.cpp:157] Top shape: 1 512 38 38 (739328)
I0305 10:55:17.303231 25537 net.cpp:165] Memory required for data: 206345344
I0305 10:55:17.303261 25537 layer_factory.hpp:77] Creating layer relu4_3
I0305 10:55:17.303289 25537 net.cpp:100] Creating Layer relu4_3
I0305 10:55:17.303311 25537 net.cpp:434] relu4_3 <- conv4_3
I0305 10:55:17.303339 25537 net.cpp:395] relu4_3 -> conv4_3 (in-place)
I0305 10:55:17.303613 25537 net.cpp:150] Setting up relu4_3
I0305 10:55:17.303643 25537 net.cpp:157] Top shape: 1 512 38 38 (739328)
I0305 10:55:17.303663 25537 net.cpp:165] Memory required for data: 209302656
I0305 10:55:17.303683 25537 layer_factory.hpp:77] Creating layer conv4_3_relu4_3_0_split
I0305 10:55:17.303707 25537 net.cpp:100] Creating Layer conv4_3_relu4_3_0_split
I0305 10:55:17.303730 25537 net.cpp:434] conv4_3_relu4_3_0_split <- conv4_3
I0305 10:55:17.303763 25537 net.cpp:408] conv4_3_relu4_3_0_split -> conv4_3_relu4_3_0_split_0
I0305 10:55:17.303802 25537 net.cpp:408] conv4_3_relu4_3_0_split -> conv4_3_relu4_3_0_split_1
I0305 10:55:17.303882 25537 net.cpp:150] Setting up conv4_3_relu4_3_0_split
I0305 10:55:17.303907 25537 net.cpp:157] Top shape: 1 512 38 38 (739328)
I0305 10:55:17.303928 25537 net.cpp:157] Top shape: 1 512 38 38 (739328)
I0305 10:55:17.303947 25537 net.cpp:165] Memory required for data: 215217280
I0305 10:55:17.303966 25537 layer_factory.hpp:77] Creating layer pool4
I0305 10:55:17.303992 25537 net.cpp:100] Creating Layer pool4
I0305 10:55:17.304013 25537 net.cpp:434] pool4 <- conv4_3_relu4_3_0_split_0
I0305 10:55:17.304038 25537 net.cpp:408] pool4 -> pool4
I0305 10:55:17.304109 25537 net.cpp:150] Setting up pool4
I0305 10:55:17.304136 25537 net.cpp:157] Top shape: 1 512 19 19 (184832)
I0305 10:55:17.304154 25537 net.cpp:165] Memory required for data: 215956608
I0305 10:55:17.304173 25537 layer_factory.hpp:77] Creating layer conv5_1
I0305 10:55:17.304208 25537 net.cpp:100] Creating Layer conv5_1
I0305 10:55:17.304229 25537 net.cpp:434] conv5_1 <- pool4
I0305 10:55:17.304252 25537 net.cpp:408] conv5_1 -> conv5_1
I0305 10:55:17.330060 25537 net.cpp:150] Setting up conv5_1
I0305 10:55:17.330134 25537 net.cpp:157] Top shape: 1 512 19 19 (184832)
I0305 10:55:17.330157 25537 net.cpp:165] Memory required for data: 216695936
I0305 10:55:17.330188 25537 layer_factory.hpp:77] Creating layer relu5_1
I0305 10:55:17.330219 25537 net.cpp:100] Creating Layer relu5_1
I0305 10:55:17.330245 25537 net.cpp:434] relu5_1 <- conv5_1
I0305 10:55:17.330271 25537 net.cpp:395] relu5_1 -> conv5_1 (in-place)
I0305 10:55:17.331274 25537 net.cpp:150] Setting up relu5_1
I0305 10:55:17.331310 25537 net.cpp:157] Top shape: 1 512 19 19 (184832)
I0305 10:55:17.331331 25537 net.cpp:165] Memory required for data: 217435264
I0305 10:55:17.331353 25537 layer_factory.hpp:77] Creating layer conv5_2
I0305 10:55:17.331393 25537 net.cpp:100] Creating Layer conv5_2
I0305 10:55:17.331414 25537 net.cpp:434] conv5_2 <- conv5_1
I0305 10:55:17.331442 25537 net.cpp:408] conv5_2 -> conv5_2
I0305 10:55:17.356441 25537 net.cpp:150] Setting up conv5_2
I0305 10:55:17.356523 25537 net.cpp:157] Top shape: 1 512 19 19 (184832)
I0305 10:55:17.356547 25537 net.cpp:165] Memory required for data: 218174592
I0305 10:55:17.356578 25537 layer_factory.hpp:77] Creating layer relu5_2
I0305 10:55:17.356609 25537 net.cpp:100] Creating Layer relu5_2
I0305 10:55:17.356632 25537 net.cpp:434] relu5_2 <- conv5_2
I0305 10:55:17.356660 25537 net.cpp:395] relu5_2 -> conv5_2 (in-place)
I0305 10:55:17.356957 25537 net.cpp:150] Setting up relu5_2
I0305 10:55:17.356993 25537 net.cpp:157] Top shape: 1 512 19 19 (184832)
I0305 10:55:17.357014 25537 net.cpp:165] Memory required for data: 218913920
I0305 10:55:17.357036 25537 layer_factory.hpp:77] Creating layer conv5_3
I0305 10:55:17.357071 25537 net.cpp:100] Creating Layer conv5_3
I0305 10:55:17.357095 25537 net.cpp:434] conv5_3 <- conv5_2
I0305 10:55:17.357122 25537 net.cpp:408] conv5_3 -> conv5_3
I0305 10:55:17.382203 25537 net.cpp:150] Setting up conv5_3
I0305 10:55:17.382289 25537 net.cpp:157] Top shape: 1 512 19 19 (184832)
I0305 10:55:17.382315 25537 net.cpp:165] Memory required for data: 219653248
I0305 10:55:17.382346 25537 layer_factory.hpp:77] Creating layer relu5_3
I0305 10:55:17.382392 25537 net.cpp:100] Creating Layer relu5_3
I0305 10:55:17.382421 25537 net.cpp:434] relu5_3 <- conv5_3
I0305 10:55:17.382449 25537 net.cpp:395] relu5_3 -> conv5_3 (in-place)
I0305 10:55:17.382741 25537 net.cpp:150] Setting up relu5_3
I0305 10:55:17.382778 25537 net.cpp:157] Top shape: 1 512 19 19 (184832)
I0305 10:55:17.382802 25537 net.cpp:165] Memory required for data: 220392576
I0305 10:55:17.382827 25537 layer_factory.hpp:77] Creating layer pool5
I0305 10:55:17.382853 25537 net.cpp:100] Creating Layer pool5
I0305 10:55:17.382879 25537 net.cpp:434] pool5 <- conv5_3
I0305 10:55:17.382907 25537 net.cpp:408] pool5 -> pool5
I0305 10:55:17.382994 25537 net.cpp:150] Setting up pool5
I0305 10:55:17.383036 25537 net.cpp:157] Top shape: 1 512 19 19 (184832)
I0305 10:55:17.383072 25537 net.cpp:165] Memory required for data: 221131904
I0305 10:55:17.383096 25537 layer_factory.hpp:77] Creating layer fc6
I0305 10:55:17.383136 25537 net.cpp:100] Creating Layer fc6
I0305 10:55:17.383162 25537 net.cpp:434] fc6 <- pool5
I0305 10:55:17.383190 25537 net.cpp:408] fc6 -> fc6
I0305 10:55:17.428854 25537 net.cpp:150] Setting up fc6
I0305 10:55:17.428942 25537 net.cpp:157] Top shape: 1 1024 19 19 (369664)
I0305 10:55:17.428967 25537 net.cpp:165] Memory required for data: 222610560
I0305 10:55:17.429020 25537 layer_factory.hpp:77] Creating layer relu6
I0305 10:55:17.429069 25537 net.cpp:100] Creating Layer relu6
I0305 10:55:17.429095 25537 net.cpp:434] relu6 <- fc6
I0305 10:55:17.429121 25537 net.cpp:395] relu6 -> fc6 (in-place)
I0305 10:55:17.430323 25537 net.cpp:150] Setting up relu6
I0305 10:55:17.430361 25537 net.cpp:157] Top shape: 1 1024 19 19 (369664)
I0305 10:55:17.430383 25537 net.cpp:165] Memory required for data: 224089216
I0305 10:55:17.430403 25537 layer_factory.hpp:77] Creating layer fc7
I0305 10:55:17.430456 25537 net.cpp:100] Creating Layer fc7
I0305 10:55:17.430480 25537 net.cpp:434] fc7 <- fc6
I0305 10:55:17.430507 25537 net.cpp:408] fc7 -> fc7
I0305 10:55:17.443320 25537 net.cpp:150] Setting up fc7
I0305 10:55:17.443397 25537 net.cpp:157] Top shape: 1 1024 19 19 (369664)
I0305 10:55:17.443420 25537 net.cpp:165] Memory required for data: 225567872
I0305 10:55:17.443452 25537 layer_factory.hpp:77] Creating layer relu7
I0305 10:55:17.443480 25537 net.cpp:100] Creating Layer relu7
I0305 10:55:17.443506 25537 net.cpp:434] relu7 <- fc7
I0305 10:55:17.443531 25537 net.cpp:395] relu7 -> fc7 (in-place)
I0305 10:55:17.443815 25537 net.cpp:150] Setting up relu7
I0305 10:55:17.443846 25537 net.cpp:157] Top shape: 1 1024 19 19 (369664)
I0305 10:55:17.443866 25537 net.cpp:165] Memory required for data: 227046528
I0305 10:55:17.443884 25537 layer_factory.hpp:77] Creating layer fc7_relu7_0_split
I0305 10:55:17.443910 25537 net.cpp:100] Creating Layer fc7_relu7_0_split
I0305 10:55:17.443930 25537 net.cpp:434] fc7_relu7_0_split <- fc7
I0305 10:55:17.443951 25537 net.cpp:408] fc7_relu7_0_split -> fc7_relu7_0_split_0
I0305 10:55:17.443979 25537 net.cpp:408] fc7_relu7_0_split -> fc7_relu7_0_split_1
I0305 10:55:17.444012 25537 net.cpp:408] fc7_relu7_0_split -> fc7_relu7_0_split_2
I0305 10:55:17.444037 25537 net.cpp:408] fc7_relu7_0_split -> fc7_relu7_0_split_3
I0305 10:55:17.444147 25537 net.cpp:150] Setting up fc7_relu7_0_split
I0305 10:55:17.444172 25537 net.cpp:157] Top shape: 1 1024 19 19 (369664)
I0305 10:55:17.444195 25537 net.cpp:157] Top shape: 1 1024 19 19 (369664)
I0305 10:55:17.444216 25537 net.cpp:157] Top shape: 1 1024 19 19 (369664)
I0305 10:55:17.444260 25537 net.cpp:157] Top shape: 1 1024 19 19 (369664)
I0305 10:55:17.444279 25537 net.cpp:165] Memory required for data: 232961152
I0305 10:55:17.444298 25537 layer_factory.hpp:77] Creating layer conv6_1
I0305 10:55:17.444329 25537 net.cpp:100] Creating Layer conv6_1
I0305 10:55:17.444348 25537 net.cpp:434] conv6_1 <- fc7_relu7_0_split_0
I0305 10:55:17.444371 25537 net.cpp:408] conv6_1 -> conv6_1
I0305 10:55:17.451020 25537 net.cpp:150] Setting up conv6_1
I0305 10:55:17.451099 25537 net.cpp:157] Top shape: 1 256 19 19 (92416)
I0305 10:55:17.451122 25537 net.cpp:165] Memory required for data: 233330816
I0305 10:55:17.451150 25537 layer_factory.hpp:77] Creating layer conv6_1_relu
I0305 10:55:17.451179 25537 net.cpp:100] Creating Layer conv6_1_relu
I0305 10:55:17.451198 25537 net.cpp:434] conv6_1_relu <- conv6_1
I0305 10:55:17.451221 25537 net.cpp:395] conv6_1_relu -> conv6_1 (in-place)
I0305 10:55:17.451499 25537 net.cpp:150] Setting up conv6_1_relu
I0305 10:55:17.451529 25537 net.cpp:157] Top shape: 1 256 19 19 (92416)
I0305 10:55:17.451548 25537 net.cpp:165] Memory required for data: 233700480
I0305 10:55:17.451566 25537 layer_factory.hpp:77] Creating layer conv6_2
I0305 10:55:17.451598 25537 net.cpp:100] Creating Layer conv6_2
I0305 10:55:17.451619 25537 net.cpp:434] conv6_2 <- conv6_1
I0305 10:55:17.451664 25537 net.cpp:408] conv6_2 -> conv6_2
I0305 10:55:17.466830 25537 net.cpp:150] Setting up conv6_2
I0305 10:55:17.466902 25537 net.cpp:157] Top shape: 1 512 10 10 (51200)
I0305 10:55:17.466925 25537 net.cpp:165] Memory required for data: 233905280
I0305 10:55:17.466969 25537 layer_factory.hpp:77] Creating layer conv6_2_relu
I0305 10:55:17.467000 25537 net.cpp:100] Creating Layer conv6_2_relu
I0305 10:55:17.467023 25537 net.cpp:434] conv6_2_relu <- conv6_2
I0305 10:55:17.467048 25537 net.cpp:395] conv6_2_relu -> conv6_2 (in-place)
I0305 10:55:17.468147 25537 net.cpp:150] Setting up conv6_2_relu
I0305 10:55:17.468181 25537 net.cpp:157] Top shape: 1 512 10 10 (51200)
I0305 10:55:17.468202 25537 net.cpp:165] Memory required for data: 234110080
I0305 10:55:17.468225 25537 layer_factory.hpp:77] Creating layer conv6_2_conv6_2_relu_0_split
I0305 10:55:17.468250 25537 net.cpp:100] Creating Layer conv6_2_conv6_2_relu_0_split
I0305 10:55:17.468271 25537 net.cpp:434] conv6_2_conv6_2_relu_0_split <- conv6_2
I0305 10:55:17.468297 25537 net.cpp:408] conv6_2_conv6_2_relu_0_split -> conv6_2_conv6_2_relu_0_split_0
I0305 10:55:17.468329 25537 net.cpp:408] conv6_2_conv6_2_relu_0_split -> conv6_2_conv6_2_relu_0_split_1
I0305 10:55:17.468355 25537 net.cpp:408] conv6_2_conv6_2_relu_0_split -> conv6_2_conv6_2_relu_0_split_2
I0305 10:55:17.468384 25537 net.cpp:408] conv6_2_conv6_2_relu_0_split -> conv6_2_conv6_2_relu_0_split_3
I0305 10:55:17.468523 25537 net.cpp:150] Setting up conv6_2_conv6_2_relu_0_split
I0305 10:55:17.468549 25537 net.cpp:157] Top shape: 1 512 10 10 (51200)
I0305 10:55:17.468569 25537 net.cpp:157] Top shape: 1 512 10 10 (51200)
I0305 10:55:17.468590 25537 net.cpp:157] Top shape: 1 512 10 10 (51200)
I0305 10:55:17.468610 25537 net.cpp:157] Top shape: 1 512 10 10 (51200)
I0305 10:55:17.468628 25537 net.cpp:165] Memory required for data: 234929280
I0305 10:55:17.468647 25537 layer_factory.hpp:77] Creating layer conv7_1
I0305 10:55:17.468679 25537 net.cpp:100] Creating Layer conv7_1
I0305 10:55:17.468727 25537 net.cpp:434] conv7_1 <- conv6_2_conv6_2_relu_0_split_0
I0305 10:55:17.468756 25537 net.cpp:408] conv7_1 -> conv7_1
I0305 10:55:17.471441 25537 net.cpp:150] Setting up conv7_1
I0305 10:55:17.471505 25537 net.cpp:157] Top shape: 1 128 10 10 (12800)
I0305 10:55:17.471527 25537 net.cpp:165] Memory required for data: 234980480
I0305 10:55:17.471557 25537 layer_factory.hpp:77] Creating layer conv7_1_relu
I0305 10:55:17.471585 25537 net.cpp:100] Creating Layer conv7_1_relu
I0305 10:55:17.471606 25537 net.cpp:434] conv7_1_relu <- conv7_1
I0305 10:55:17.471633 25537 net.cpp:395] conv7_1_relu -> conv7_1 (in-place)
I0305 10:55:17.471899 25537 net.cpp:150] Setting up conv7_1_relu
I0305 10:55:17.471926 25537 net.cpp:157] Top shape: 1 128 10 10 (12800)
I0305 10:55:17.471946 25537 net.cpp:165] Memory required for data: 235031680
I0305 10:55:17.471964 25537 layer_factory.hpp:77] Creating layer conv7_2
I0305 10:55:17.471997 25537 net.cpp:100] Creating Layer conv7_2
I0305 10:55:17.472018 25537 net.cpp:434] conv7_2 <- conv7_1
I0305 10:55:17.472043 25537 net.cpp:408] conv7_2 -> conv7_2
I0305 10:55:17.478016 25537 net.cpp:150] Setting up conv7_2
I0305 10:55:17.478088 25537 net.cpp:157] Top shape: 1 256 5 5 (6400)
I0305 10:55:17.478109 25537 net.cpp:165] Memory required for data: 235057280
I0305 10:55:17.478137 25537 layer_factory.hpp:77] Creating layer conv7_2_relu
I0305 10:55:17.478168 25537 net.cpp:100] Creating Layer conv7_2_relu
I0305 10:55:17.478193 25537 net.cpp:434] conv7_2_relu <- conv7_2
I0305 10:55:17.478217 25537 net.cpp:395] conv7_2_relu -> conv7_2 (in-place)
I0305 10:55:17.478480 25537 net.cpp:150] Setting up conv7_2_relu
I0305 10:55:17.478507 25537 net.cpp:157] Top shape: 1 256 5 5 (6400)
I0305 10:55:17.478547 25537 net.cpp:165] Memory required for data: 235082880
I0305 10:55:17.478569 25537 layer_factory.hpp:77] Creating layer conv7_2_conv7_2_relu_0_split
I0305 10:55:17.478596 25537 net.cpp:100] Creating Layer conv7_2_conv7_2_relu_0_split
I0305 10:55:17.478617 25537 net.cpp:434] conv7_2_conv7_2_relu_0_split <- conv7_2
I0305 10:55:17.478663 25537 net.cpp:408] conv7_2_conv7_2_relu_0_split -> conv7_2_conv7_2_relu_0_split_0
I0305 10:55:17.478694 25537 net.cpp:408] conv7_2_conv7_2_relu_0_split -> conv7_2_conv7_2_relu_0_split_1
I0305 10:55:17.478720 25537 net.cpp:408] conv7_2_conv7_2_relu_0_split -> conv7_2_conv7_2_relu_0_split_2
I0305 10:55:17.478746 25537 net.cpp:408] conv7_2_conv7_2_relu_0_split -> conv7_2_conv7_2_relu_0_split_3
I0305 10:55:17.478859 25537 net.cpp:150] Setting up conv7_2_conv7_2_relu_0_split
I0305 10:55:17.478888 25537 net.cpp:157] Top shape: 1 256 5 5 (6400)
I0305 10:55:17.478909 25537 net.cpp:157] Top shape: 1 256 5 5 (6400)
I0305 10:55:17.478929 25537 net.cpp:157] Top shape: 1 256 5 5 (6400)
I0305 10:55:17.478950 25537 net.cpp:157] Top shape: 1 256 5 5 (6400)
I0305 10:55:17.478969 25537 net.cpp:165] Memory required for data: 235185280
I0305 10:55:17.478988 25537 layer_factory.hpp:77] Creating layer conv8_1
I0305 10:55:17.479019 25537 net.cpp:100] Creating Layer conv8_1
I0305 10:55:17.479041 25537 net.cpp:434] conv8_1 <- conv7_2_conv7_2_relu_0_split_0
I0305 10:55:17.479068 25537 net.cpp:408] conv8_1 -> conv8_1
I0305 10:55:17.481431 25537 net.cpp:150] Setting up conv8_1
I0305 10:55:17.481492 25537 net.cpp:157] Top shape: 1 128 5 5 (3200)
I0305 10:55:17.481514 25537 net.cpp:165] Memory required for data: 235198080
I0305 10:55:17.481541 25537 layer_factory.hpp:77] Creating layer conv8_1_relu
I0305 10:55:17.481571 25537 net.cpp:100] Creating Layer conv8_1_relu
I0305 10:55:17.481595 25537 net.cpp:434] conv8_1_relu <- conv8_1
I0305 10:55:17.481619 25537 net.cpp:395] conv8_1_relu -> conv8_1 (in-place)
I0305 10:55:17.481906 25537 net.cpp:150] Setting up conv8_1_relu
I0305 10:55:17.481933 25537 net.cpp:157] Top shape: 1 128 5 5 (3200)
I0305 10:55:17.481953 25537 net.cpp:165] Memory required for data: 235210880
I0305 10:55:17.481974 25537 layer_factory.hpp:77] Creating layer conv8_2
I0305 10:55:17.482008 25537 net.cpp:100] Creating Layer conv8_2
I0305 10:55:17.482029 25537 net.cpp:434] conv8_2 <- conv8_1
I0305 10:55:17.482053 25537 net.cpp:408] conv8_2 -> conv8_2
I0305 10:55:17.488632 25537 net.cpp:150] Setting up conv8_2
I0305 10:55:17.488724 25537 net.cpp:157] Top shape: 1 256 3 3 (2304)
I0305 10:55:17.488749 25537 net.cpp:165] Memory required for data: 235220096
I0305 10:55:17.488777 25537 layer_factory.hpp:77] Creating layer conv8_2_relu
I0305 10:55:17.488809 25537 net.cpp:100] Creating Layer conv8_2_relu
I0305 10:55:17.488833 25537 net.cpp:434] conv8_2_relu <- conv8_2
I0305 10:55:17.488858 25537 net.cpp:395] conv8_2_relu -> conv8_2 (in-place)
I0305 10:55:17.489912 25537 net.cpp:150] Setting up conv8_2_relu
I0305 10:55:17.489948 25537 net.cpp:157] Top shape: 1 256 3 3 (2304)
I0305 10:55:17.489969 25537 net.cpp:165] Memory required for data: 235229312
I0305 10:55:17.489989 25537 layer_factory.hpp:77] Creating layer conv8_2_conv8_2_relu_0_split
I0305 10:55:17.490011 25537 net.cpp:100] Creating Layer conv8_2_conv8_2_relu_0_split
I0305 10:55:17.490033 25537 net.cpp:434] conv8_2_conv8_2_relu_0_split <- conv8_2
I0305 10:55:17.490058 25537 net.cpp:408] conv8_2_conv8_2_relu_0_split -> conv8_2_conv8_2_relu_0_split_0
I0305 10:55:17.490087 25537 net.cpp:408] conv8_2_conv8_2_relu_0_split -> conv8_2_conv8_2_relu_0_split_1
I0305 10:55:17.490114 25537 net.cpp:408] conv8_2_conv8_2_relu_0_split -> conv8_2_conv8_2_relu_0_split_2
I0305 10:55:17.490141 25537 net.cpp:408] conv8_2_conv8_2_relu_0_split -> conv8_2_conv8_2_relu_0_split_3
I0305 10:55:17.490283 25537 net.cpp:150] Setting up conv8_2_conv8_2_relu_0_split
I0305 10:55:17.490308 25537 net.cpp:157] Top shape: 1 256 3 3 (2304)
I0305 10:55:17.490329 25537 net.cpp:157] Top shape: 1 256 3 3 (2304)
I0305 10:55:17.490350 25537 net.cpp:157] Top shape: 1 256 3 3 (2304)
I0305 10:55:17.490370 25537 net.cpp:157] Top shape: 1 256 3 3 (2304)
I0305 10:55:17.490387 25537 net.cpp:165] Memory required for data: 235266176
I0305 10:55:17.490406 25537 layer_factory.hpp:77] Creating layer conv9_1
I0305 10:55:17.490439 25537 net.cpp:100] Creating Layer conv9_1
I0305 10:55:17.490469 25537 net.cpp:434] conv9_1 <- conv8_2_conv8_2_relu_0_split_0
I0305 10:55:17.490507 25537 net.cpp:408] conv9_1 -> conv9_1
I0305 10:55:17.492907 25537 net.cpp:150] Setting up conv9_1
I0305 10:55:17.492972 25537 net.cpp:157] Top shape: 1 128 3 3 (1152)
I0305 10:55:17.492993 25537 net.cpp:165] Memory required for data: 235270784
I0305 10:55:17.493022 25537 layer_factory.hpp:77] Creating layer conv9_1_relu
I0305 10:55:17.493050 25537 net.cpp:100] Creating Layer conv9_1_relu
I0305 10:55:17.493073 25537 net.cpp:434] conv9_1_relu <- conv9_1
I0305 10:55:17.493099 25537 net.cpp:395] conv9_1_relu -> conv9_1 (in-place)
I0305 10:55:17.493371 25537 net.cpp:150] Setting up conv9_1_relu
I0305 10:55:17.493398 25537 net.cpp:157] Top shape: 1 128 3 3 (1152)
I0305 10:55:17.493418 25537 net.cpp:165] Memory required for data: 235275392
I0305 10:55:17.493438 25537 layer_factory.hpp:77] Creating layer conv9_2
I0305 10:55:17.493468 25537 net.cpp:100] Creating Layer conv9_2
I0305 10:55:17.493490 25537 net.cpp:434] conv9_2 <- conv9_1
I0305 10:55:17.493518 25537 net.cpp:408] conv9_2 -> conv9_2
I0305 10:55:17.500191 25537 net.cpp:150] Setting up conv9_2
I0305 10:55:17.500262 25537 net.cpp:157] Top shape: 1 256 1 1 (256)
I0305 10:55:17.500283 25537 net.cpp:165] Memory required for data: 235276416
I0305 10:55:17.500313 25537 layer_factory.hpp:77] Creating layer conv9_2_relu
I0305 10:55:17.500340 25537 net.cpp:100] Creating Layer conv9_2_relu
I0305 10:55:17.500362 25537 net.cpp:434] conv9_2_relu <- conv9_2
I0305 10:55:17.500389 25537 net.cpp:395] conv9_2_relu -> conv9_2 (in-place)
I0305 10:55:17.500721 25537 net.cpp:150] Setting up conv9_2_relu
I0305 10:55:17.500751 25537 net.cpp:157] Top shape: 1 256 1 1 (256)
I0305 10:55:17.500771 25537 net.cpp:165] Memory required for data: 235277440
I0305 10:55:17.500790 25537 layer_factory.hpp:77] Creating layer conv9_2_conv9_2_relu_0_split
I0305 10:55:17.500814 25537 net.cpp:100] Creating Layer conv9_2_conv9_2_relu_0_split
I0305 10:55:17.500834 25537 net.cpp:434] conv9_2_conv9_2_relu_0_split <- conv9_2
I0305 10:55:17.500862 25537 net.cpp:408] conv9_2_conv9_2_relu_0_split -> conv9_2_conv9_2_relu_0_split_0
I0305 10:55:17.500890 25537 net.cpp:408] conv9_2_conv9_2_relu_0_split -> conv9_2_conv9_2_relu_0_split_1
I0305 10:55:17.500916 25537 net.cpp:408] conv9_2_conv9_2_relu_0_split -> conv9_2_conv9_2_relu_0_split_2
I0305 10:55:17.501034 25537 net.cpp:150] Setting up conv9_2_conv9_2_relu_0_split
I0305 10:55:17.501058 25537 net.cpp:157] Top shape: 1 256 1 1 (256)
I0305 10:55:17.501080 25537 net.cpp:157] Top shape: 1 256 1 1 (256)
I0305 10:55:17.501099 25537 net.cpp:157] Top shape: 1 256 1 1 (256)
I0305 10:55:17.501118 25537 net.cpp:165] Memory required for data: 235280512
I0305 10:55:17.501137 25537 layer_factory.hpp:77] Creating layer conv4_3_norm
I0305 10:55:17.501166 25537 net.cpp:100] Creating Layer conv4_3_norm
I0305 10:55:17.501188 25537 net.cpp:434] conv4_3_norm <- conv4_3_relu4_3_0_split_1
I0305 10:55:17.501211 25537 net.cpp:408] conv4_3_norm -> conv4_3_norm
I0305 10:55:17.501479 25537 net.cpp:150] Setting up conv4_3_norm
I0305 10:55:17.501505 25537 net.cpp:157] Top shape: 1 512 38 38 (739328)
I0305 10:55:17.501525 25537 net.cpp:165] Memory required for data: 238237824
I0305 10:55:17.501554 25537 layer_factory.hpp:77] Creating layer conv4_3_norm_conv4_3_norm_0_split
I0305 10:55:17.501577 25537 net.cpp:100] Creating Layer conv4_3_norm_conv4_3_norm_0_split
I0305 10:55:17.501598 25537 net.cpp:434] conv4_3_norm_conv4_3_norm_0_split <- conv4_3_norm
I0305 10:55:17.501621 25537 net.cpp:408] conv4_3_norm_conv4_3_norm_0_split -> conv4_3_norm_conv4_3_norm_0_split_0
I0305 10:55:17.501648 25537 net.cpp:408] conv4_3_norm_conv4_3_norm_0_split -> conv4_3_norm_conv4_3_norm_0_split_1
I0305 10:55:17.501673 25537 net.cpp:408] conv4_3_norm_conv4_3_norm_0_split -> conv4_3_norm_conv4_3_norm_0_split_2
I0305 10:55:17.501766 25537 net.cpp:150] Setting up conv4_3_norm_conv4_3_norm_0_split
I0305 10:55:17.501792 25537 net.cpp:157] Top shape: 1 512 38 38 (739328)
I0305 10:55:17.501813 25537 net.cpp:157] Top shape: 1 512 38 38 (739328)
I0305 10:55:17.501844 25537 net.cpp:157] Top shape: 1 512 38 38 (739328)
I0305 10:55:17.501873 25537 net.cpp:165] Memory required for data: 247109760
I0305 10:55:17.501893 25537 layer_factory.hpp:77] Creating layer conv4_3_norm_mbox_loc
I0305 10:55:17.501924 25537 net.cpp:100] Creating Layer conv4_3_norm_mbox_loc
I0305 10:55:17.501945 25537 net.cpp:434] conv4_3_norm_mbox_loc <- conv4_3_norm_conv4_3_norm_0_split_0
I0305 10:55:17.501971 25537 net.cpp:408] conv4_3_norm_mbox_loc -> conv4_3_norm_mbox_loc
I0305 10:55:17.505532 25537 net.cpp:150] Setting up conv4_3_norm_mbox_loc
I0305 10:55:17.505604 25537 net.cpp:157] Top shape: 1 16 38 38 (23104)
I0305 10:55:17.505625 25537 net.cpp:165] Memory required for data: 247202176
I0305 10:55:17.505654 25537 layer_factory.hpp:77] Creating layer conv4_3_norm_mbox_loc_perm
I0305 10:55:17.505684 25537 net.cpp:100] Creating Layer conv4_3_norm_mbox_loc_perm
I0305 10:55:17.505707 25537 net.cpp:434] conv4_3_norm_mbox_loc_perm <- conv4_3_norm_mbox_loc
I0305 10:55:17.505735 25537 net.cpp:408] conv4_3_norm_mbox_loc_perm -> conv4_3_norm_mbox_loc_perm
I0305 10:55:17.505934 25537 net.cpp:150] Setting up conv4_3_norm_mbox_loc_perm
I0305 10:55:17.505961 25537 net.cpp:157] Top shape: 1 38 38 16 (23104)
I0305 10:55:17.505981 25537 net.cpp:165] Memory required for data: 247294592
I0305 10:55:17.506000 25537 layer_factory.hpp:77] Creating layer conv4_3_norm_mbox_loc_flat
I0305 10:55:17.506023 25537 net.cpp:100] Creating Layer conv4_3_norm_mbox_loc_flat
I0305 10:55:17.506045 25537 net.cpp:434] conv4_3_norm_mbox_loc_flat <- conv4_3_norm_mbox_loc_perm
I0305 10:55:17.506072 25537 net.cpp:408] conv4_3_norm_mbox_loc_flat -> conv4_3_norm_mbox_loc_flat
I0305 10:55:17.506151 25537 net.cpp:150] Setting up conv4_3_norm_mbox_loc_flat
I0305 10:55:17.506177 25537 net.cpp:157] Top shape: 1 23104 (23104)
I0305 10:55:17.506198 25537 net.cpp:165] Memory required for data: 247387008
I0305 10:55:17.506217 25537 layer_factory.hpp:77] Creating layer conv4_3_norm_mbox_conf
I0305 10:55:17.506260 25537 net.cpp:100] Creating Layer conv4_3_norm_mbox_conf
I0305 10:55:17.506283 25537 net.cpp:434] conv4_3_norm_mbox_conf <- conv4_3_norm_conv4_3_norm_0_split_1
I0305 10:55:17.506307 25537 net.cpp:408] conv4_3_norm_mbox_conf -> conv4_3_norm_mbox_conf
I0305 10:55:17.510939 25537 net.cpp:150] Setting up conv4_3_norm_mbox_conf
I0305 10:55:17.511011 25537 net.cpp:157] Top shape: 1 44 38 38 (63536)
I0305 10:55:17.511032 25537 net.cpp:165] Memory required for data: 247641152
I0305 10:55:17.511063 25537 layer_factory.hpp:77] Creating layer conv4_3_norm_mbox_conf_perm
I0305 10:55:17.511096 25537 net.cpp:100] Creating Layer conv4_3_norm_mbox_conf_perm
I0305 10:55:17.511119 25537 net.cpp:434] conv4_3_norm_mbox_conf_perm <- conv4_3_norm_mbox_conf
I0305 10:55:17.511145 25537 net.cpp:408] conv4_3_norm_mbox_conf_perm -> conv4_3_norm_mbox_conf_perm
I0305 10:55:17.511343 25537 net.cpp:150] Setting up conv4_3_norm_mbox_conf_perm
I0305 10:55:17.511371 25537 net.cpp:157] Top shape: 1 38 38 44 (63536)
I0305 10:55:17.511391 25537 net.cpp:165] Memory required for data: 247895296
I0305 10:55:17.511411 25537 layer_factory.hpp:77] Creating layer conv4_3_norm_mbox_conf_flat
I0305 10:55:17.511440 25537 net.cpp:100] Creating Layer conv4_3_norm_mbox_conf_flat
I0305 10:55:17.511461 25537 net.cpp:434] conv4_3_norm_mbox_conf_flat <- conv4_3_norm_mbox_conf_perm
I0305 10:55:17.511483 25537 net.cpp:408] conv4_3_norm_mbox_conf_flat -> conv4_3_norm_mbox_conf_flat
I0305 10:55:17.511543 25537 net.cpp:150] Setting up conv4_3_norm_mbox_conf_flat
I0305 10:55:17.511567 25537 net.cpp:157] Top shape: 1 63536 (63536)
I0305 10:55:17.511587 25537 net.cpp:165] Memory required for data: 248149440
I0305 10:55:17.511606 25537 layer_factory.hpp:77] Creating layer conv4_3_norm_mbox_priorbox
I0305 10:55:17.511633 25537 net.cpp:100] Creating Layer conv4_3_norm_mbox_priorbox
I0305 10:55:17.511656 25537 net.cpp:434] conv4_3_norm_mbox_priorbox <- conv4_3_norm_conv4_3_norm_0_split_2
I0305 10:55:17.511678 25537 net.cpp:434] conv4_3_norm_mbox_priorbox <- data_data_0_split_1
I0305 10:55:17.511710 25537 net.cpp:408] conv4_3_norm_mbox_priorbox -> conv4_3_norm_mbox_priorbox
I0305 10:55:17.511793 25537 net.cpp:150] Setting up conv4_3_norm_mbox_priorbox
I0305 10:55:17.511821 25537 net.cpp:157] Top shape: 1 2 23104 (46208)
I0305 10:55:17.511840 25537 net.cpp:165] Memory required for data: 248334272
I0305 10:55:17.511859 25537 layer_factory.hpp:77] Creating layer fc7_mbox_loc
I0305 10:55:17.511889 25537 net.cpp:100] Creating Layer fc7_mbox_loc
I0305 10:55:17.511912 25537 net.cpp:434] fc7_mbox_loc <- fc7_relu7_0_split_1
I0305 10:55:17.511939 25537 net.cpp:408] fc7_mbox_loc -> fc7_mbox_loc
I0305 10:55:17.516800 25537 net.cpp:150] Setting up fc7_mbox_loc
I0305 10:55:17.516868 25537 net.cpp:157] Top shape: 1 24 19 19 (8664)
I0305 10:55:17.516891 25537 net.cpp:165] Memory required for data: 248368928
I0305 10:55:17.516922 25537 layer_factory.hpp:77] Creating layer fc7_mbox_loc_perm
I0305 10:55:17.516952 25537 net.cpp:100] Creating Layer fc7_mbox_loc_perm
I0305 10:55:17.516975 25537 net.cpp:434] fc7_mbox_loc_perm <- fc7_mbox_loc
I0305 10:55:17.517004 25537 net.cpp:408] fc7_mbox_loc_perm -> fc7_mbox_loc_perm
I0305 10:55:17.517199 25537 net.cpp:150] Setting up fc7_mbox_loc_perm
I0305 10:55:17.517223 25537 net.cpp:157] Top shape: 1 19 19 24 (8664)
I0305 10:55:17.517242 25537 net.cpp:165] Memory required for data: 248403584
I0305 10:55:17.517262 25537 layer_factory.hpp:77] Creating layer fc7_mbox_loc_flat
I0305 10:55:17.517287 25537 net.cpp:100] Creating Layer fc7_mbox_loc_flat
I0305 10:55:17.517305 25537 net.cpp:434] fc7_mbox_loc_flat <- fc7_mbox_loc_perm
I0305 10:55:17.517330 25537 net.cpp:408] fc7_mbox_loc_flat -> fc7_mbox_loc_flat
I0305 10:55:17.517391 25537 net.cpp:150] Setting up fc7_mbox_loc_flat
I0305 10:55:17.517415 25537 net.cpp:157] Top shape: 1 8664 (8664)
I0305 10:55:17.517439 25537 net.cpp:165] Memory required for data: 248438240
I0305 10:55:17.517457 25537 layer_factory.hpp:77] Creating layer fc7_mbox_conf
I0305 10:55:17.517490 25537 net.cpp:100] Creating Layer fc7_mbox_conf
I0305 10:55:17.517511 25537 net.cpp:434] fc7_mbox_conf <- fc7_relu7_0_split_2
I0305 10:55:17.517539 25537 net.cpp:408] fc7_mbox_conf -> fc7_mbox_conf
I0305 10:55:17.526885 25537 net.cpp:150] Setting up fc7_mbox_conf
I0305 10:55:17.526954 25537 net.cpp:157] Top shape: 1 66 19 19 (23826)
I0305 10:55:17.526976 25537 net.cpp:165] Memory required for data: 248533544
I0305 10:55:17.527005 25537 layer_factory.hpp:77] Creating layer fc7_mbox_conf_perm
I0305 10:55:17.527034 25537 net.cpp:100] Creating Layer fc7_mbox_conf_perm
I0305 10:55:17.527061 25537 net.cpp:434] fc7_mbox_conf_perm <- fc7_mbox_conf
I0305 10:55:17.527087 25537 net.cpp:408] fc7_mbox_conf_perm -> fc7_mbox_conf_perm
I0305 10:55:17.527289 25537 net.cpp:150] Setting up fc7_mbox_conf_perm
I0305 10:55:17.527318 25537 net.cpp:157] Top shape: 1 19 19 66 (23826)
I0305 10:55:17.527338 25537 net.cpp:165] Memory required for data: 248628848
I0305 10:55:17.527356 25537 layer_factory.hpp:77] Creating layer fc7_mbox_conf_flat
I0305 10:55:17.527379 25537 net.cpp:100] Creating Layer fc7_mbox_conf_flat
I0305 10:55:17.527400 25537 net.cpp:434] fc7_mbox_conf_flat <- fc7_mbox_conf_perm
I0305 10:55:17.527426 25537 net.cpp:408] fc7_mbox_conf_flat -> fc7_mbox_conf_flat
I0305 10:55:17.527485 25537 net.cpp:150] Setting up fc7_mbox_conf_flat
I0305 10:55:17.527509 25537 net.cpp:157] Top shape: 1 23826 (23826)
I0305 10:55:17.527528 25537 net.cpp:165] Memory required for data: 248724152
I0305 10:55:17.527547 25537 layer_factory.hpp:77] Creating layer fc7_mbox_priorbox
I0305 10:55:17.527571 25537 net.cpp:100] Creating Layer fc7_mbox_priorbox
I0305 10:55:17.527591 25537 net.cpp:434] fc7_mbox_priorbox <- fc7_relu7_0_split_3
I0305 10:55:17.527613 25537 net.cpp:434] fc7_mbox_priorbox <- data_data_0_split_2
I0305 10:55:17.527639 25537 net.cpp:408] fc7_mbox_priorbox -> fc7_mbox_priorbox
I0305 10:55:17.527706 25537 net.cpp:150] Setting up fc7_mbox_priorbox
I0305 10:55:17.527730 25537 net.cpp:157] Top shape: 1 2 8664 (17328)
I0305 10:55:17.527750 25537 net.cpp:165] Memory required for data: 248793464
I0305 10:55:17.527777 25537 layer_factory.hpp:77] Creating layer conv6_2_mbox_loc
I0305 10:55:17.527822 25537 net.cpp:100] Creating Layer conv6_2_mbox_loc
I0305 10:55:17.527844 25537 net.cpp:434] conv6_2_mbox_loc <- conv6_2_conv6_2_relu_0_split_1
I0305 10:55:17.527868 25537 net.cpp:408] conv6_2_mbox_loc -> conv6_2_mbox_loc
I0305 10:55:17.531810 25537 net.cpp:150] Setting up conv6_2_mbox_loc
I0305 10:55:17.531884 25537 net.cpp:157] Top shape: 1 24 10 10 (2400)
I0305 10:55:17.531906 25537 net.cpp:165] Memory required for data: 248803064
I0305 10:55:17.531935 25537 layer_factory.hpp:77] Creating layer conv6_2_mbox_loc_perm
I0305 10:55:17.531966 25537 net.cpp:100] Creating Layer conv6_2_mbox_loc_perm
I0305 10:55:17.531988 25537 net.cpp:434] conv6_2_mbox_loc_perm <- conv6_2_mbox_loc
I0305 10:55:17.532012 25537 net.cpp:408] conv6_2_mbox_loc_perm -> conv6_2_mbox_loc_perm
I0305 10:55:17.532238 25537 net.cpp:150] Setting up conv6_2_mbox_loc_perm
I0305 10:55:17.532268 25537 net.cpp:157] Top shape: 1 10 10 24 (2400)
I0305 10:55:17.532285 25537 net.cpp:165] Memory required for data: 248812664
I0305 10:55:17.532302 25537 layer_factory.hpp:77] Creating layer conv6_2_mbox_loc_flat
I0305 10:55:17.532326 25537 net.cpp:100] Creating Layer conv6_2_mbox_loc_flat
I0305 10:55:17.532346 25537 net.cpp:434] conv6_2_mbox_loc_flat <- conv6_2_mbox_loc_perm
I0305 10:55:17.532372 25537 net.cpp:408] conv6_2_mbox_loc_flat -> conv6_2_mbox_loc_flat
I0305 10:55:17.532435 25537 net.cpp:150] Setting up conv6_2_mbox_loc_flat
I0305 10:55:17.532459 25537 net.cpp:157] Top shape: 1 2400 (2400)
I0305 10:55:17.532479 25537 net.cpp:165] Memory required for data: 248822264
I0305 10:55:17.532496 25537 layer_factory.hpp:77] Creating layer conv6_2_mbox_conf
I0305 10:55:17.532527 25537 net.cpp:100] Creating Layer conv6_2_mbox_conf
I0305 10:55:17.532549 25537 net.cpp:434] conv6_2_mbox_conf <- conv6_2_conv6_2_relu_0_split_2
I0305 10:55:17.532577 25537 net.cpp:408] conv6_2_mbox_conf -> conv6_2_mbox_conf
I0305 10:55:17.539409 25537 net.cpp:150] Setting up conv6_2_mbox_conf
I0305 10:55:17.539486 25537 net.cpp:157] Top shape: 1 66 10 10 (6600)
I0305 10:55:17.539511 25537 net.cpp:165] Memory required for data: 248848664
I0305 10:55:17.539542 25537 layer_factory.hpp:77] Creating layer conv6_2_mbox_conf_perm
I0305 10:55:17.539573 25537 net.cpp:100] Creating Layer conv6_2_mbox_conf_perm
I0305 10:55:17.539599 25537 net.cpp:434] conv6_2_mbox_conf_perm <- conv6_2_mbox_conf
I0305 10:55:17.539628 25537 net.cpp:408] conv6_2_mbox_conf_perm -> conv6_2_mbox_conf_perm
I0305 10:55:17.539841 25537 net.cpp:150] Setting up conv6_2_mbox_conf_perm
I0305 10:55:17.539868 25537 net.cpp:157] Top shape: 1 10 10 66 (6600)
I0305 10:55:17.539889 25537 net.cpp:165] Memory required for data: 248875064
I0305 10:55:17.539908 25537 layer_factory.hpp:77] Creating layer conv6_2_mbox_conf_flat
I0305 10:55:17.539934 25537 net.cpp:100] Creating Layer conv6_2_mbox_conf_flat
I0305 10:55:17.539955 25537 net.cpp:434] conv6_2_mbox_conf_flat <- conv6_2_mbox_conf_perm
I0305 10:55:17.539981 25537 net.cpp:408] conv6_2_mbox_conf_flat -> conv6_2_mbox_conf_flat
I0305 10:55:17.540040 25537 net.cpp:150] Setting up conv6_2_mbox_conf_flat
I0305 10:55:17.540069 25537 net.cpp:157] Top shape: 1 6600 (6600)
I0305 10:55:17.540089 25537 net.cpp:165] Memory required for data: 248901464
I0305 10:55:17.540110 25537 layer_factory.hpp:77] Creating layer conv6_2_mbox_priorbox
I0305 10:55:17.540133 25537 net.cpp:100] Creating Layer conv6_2_mbox_priorbox
I0305 10:55:17.540155 25537 net.cpp:434] conv6_2_mbox_priorbox <- conv6_2_conv6_2_relu_0_split_3
I0305 10:55:17.540179 25537 net.cpp:434] conv6_2_mbox_priorbox <- data_data_0_split_3
I0305 10:55:17.540205 25537 net.cpp:408] conv6_2_mbox_priorbox -> conv6_2_mbox_priorbox
I0305 10:55:17.540275 25537 net.cpp:150] Setting up conv6_2_mbox_priorbox
I0305 10:55:17.540299 25537 net.cpp:157] Top shape: 1 2 2400 (4800)
I0305 10:55:17.540316 25537 net.cpp:165] Memory required for data: 248920664
I0305 10:55:17.540334 25537 layer_factory.hpp:77] Creating layer conv7_2_mbox_loc
I0305 10:55:17.540364 25537 net.cpp:100] Creating Layer conv7_2_mbox_loc
I0305 10:55:17.540395 25537 net.cpp:434] conv7_2_mbox_loc <- conv7_2_conv7_2_relu_0_split_1
I0305 10:55:17.540428 25537 net.cpp:408] conv7_2_mbox_loc -> conv7_2_mbox_loc
I0305 10:55:17.543855 25537 net.cpp:150] Setting up conv7_2_mbox_loc
I0305 10:55:17.543921 25537 net.cpp:157] Top shape: 1 24 5 5 (600)
I0305 10:55:17.543942 25537 net.cpp:165] Memory required for data: 248923064
I0305 10:55:17.543969 25537 layer_factory.hpp:77] Creating layer conv7_2_mbox_loc_perm
I0305 10:55:17.543998 25537 net.cpp:100] Creating Layer conv7_2_mbox_loc_perm
I0305 10:55:17.544018 25537 net.cpp:434] conv7_2_mbox_loc_perm <- conv7_2_mbox_loc
I0305 10:55:17.544049 25537 net.cpp:408] conv7_2_mbox_loc_perm -> conv7_2_mbox_loc_perm
I0305 10:55:17.544239 25537 net.cpp:150] Setting up conv7_2_mbox_loc_perm
I0305 10:55:17.544265 25537 net.cpp:157] Top shape: 1 5 5 24 (600)
I0305 10:55:17.544286 25537 net.cpp:165] Memory required for data: 248925464
I0305 10:55:17.544306 25537 layer_factory.hpp:77] Creating layer conv7_2_mbox_loc_flat
I0305 10:55:17.544328 25537 net.cpp:100] Creating Layer conv7_2_mbox_loc_flat
I0305 10:55:17.544349 25537 net.cpp:434] conv7_2_mbox_loc_flat <- conv7_2_mbox_loc_perm
I0305 10:55:17.544375 25537 net.cpp:408] conv7_2_mbox_loc_flat -> conv7_2_mbox_loc_flat
I0305 10:55:17.544437 25537 net.cpp:150] Setting up conv7_2_mbox_loc_flat
I0305 10:55:17.544463 25537 net.cpp:157] Top shape: 1 600 (600)
I0305 10:55:17.544482 25537 net.cpp:165] Memory required for data: 248927864
I0305 10:55:17.544502 25537 layer_factory.hpp:77] Creating layer conv7_2_mbox_conf
I0305 10:55:17.544535 25537 net.cpp:100] Creating Layer conv7_2_mbox_conf
I0305 10:55:17.544559 25537 net.cpp:434] conv7_2_mbox_conf <- conv7_2_conv7_2_relu_0_split_2
I0305 10:55:17.544585 25537 net.cpp:408] conv7_2_mbox_conf -> conv7_2_mbox_conf
I0305 10:55:17.548825 25537 net.cpp:150] Setting up conv7_2_mbox_conf
I0305 10:55:17.548892 25537 net.cpp:157] Top shape: 1 66 5 5 (1650)
I0305 10:55:17.548912 25537 net.cpp:165] Memory required for data: 248934464
I0305 10:55:17.548939 25537 layer_factory.hpp:77] Creating layer conv7_2_mbox_conf_perm
I0305 10:55:17.548969 25537 net.cpp:100] Creating Layer conv7_2_mbox_conf_perm
I0305 10:55:17.548991 25537 net.cpp:434] conv7_2_mbox_conf_perm <- conv7_2_mbox_conf
I0305 10:55:17.549016 25537 net.cpp:408] conv7_2_mbox_conf_perm -> conv7_2_mbox_conf_perm
I0305 10:55:17.549209 25537 net.cpp:150] Setting up conv7_2_mbox_conf_perm
I0305 10:55:17.549234 25537 net.cpp:157] Top shape: 1 5 5 66 (1650)
I0305 10:55:17.549252 25537 net.cpp:165] Memory required for data: 248941064
I0305 10:55:17.549270 25537 layer_factory.hpp:77] Creating layer conv7_2_mbox_conf_flat
I0305 10:55:17.549291 25537 net.cpp:100] Creating Layer conv7_2_mbox_conf_flat
I0305 10:55:17.549310 25537 net.cpp:434] conv7_2_mbox_conf_flat <- conv7_2_mbox_conf_perm
I0305 10:55:17.549335 25537 net.cpp:408] conv7_2_mbox_conf_flat -> conv7_2_mbox_conf_flat
I0305 10:55:17.549393 25537 net.cpp:150] Setting up conv7_2_mbox_conf_flat
I0305 10:55:17.549417 25537 net.cpp:157] Top shape: 1 1650 (1650)
I0305 10:55:17.549433 25537 net.cpp:165] Memory required for data: 248947664
I0305 10:55:17.549451 25537 layer_factory.hpp:77] Creating layer conv7_2_mbox_priorbox
I0305 10:55:17.549481 25537 net.cpp:100] Creating Layer conv7_2_mbox_priorbox
I0305 10:55:17.549500 25537 net.cpp:434] conv7_2_mbox_priorbox <- conv7_2_conv7_2_relu_0_split_3
I0305 10:55:17.549520 25537 net.cpp:434] conv7_2_mbox_priorbox <- data_data_0_split_4
I0305 10:55:17.549543 25537 net.cpp:408] conv7_2_mbox_priorbox -> conv7_2_mbox_priorbox
I0305 10:55:17.549608 25537 net.cpp:150] Setting up conv7_2_mbox_priorbox
I0305 10:55:17.549631 25537 net.cpp:157] Top shape: 1 2 600 (1200)
I0305 10:55:17.549649 25537 net.cpp:165] Memory required for data: 248952464
I0305 10:55:17.549666 25537 layer_factory.hpp:77] Creating layer conv8_2_mbox_loc
I0305 10:55:17.549696 25537 net.cpp:100] Creating Layer conv8_2_mbox_loc
I0305 10:55:17.549716 25537 net.cpp:434] conv8_2_mbox_loc <- conv8_2_conv8_2_relu_0_split_1
I0305 10:55:17.549751 25537 net.cpp:408] conv8_2_mbox_loc -> conv8_2_mbox_loc
I0305 10:55:17.552139 25537 net.cpp:150] Setting up conv8_2_mbox_loc
I0305 10:55:17.552193 25537 net.cpp:157] Top shape: 1 16 3 3 (144)
I0305 10:55:17.552214 25537 net.cpp:165] Memory required for data: 248953040
I0305 10:55:17.552256 25537 layer_factory.hpp:77] Creating layer conv8_2_mbox_loc_perm
I0305 10:55:17.552286 25537 net.cpp:100] Creating Layer conv8_2_mbox_loc_perm
I0305 10:55:17.552309 25537 net.cpp:434] conv8_2_mbox_loc_perm <- conv8_2_mbox_loc
I0305 10:55:17.552337 25537 net.cpp:408] conv8_2_mbox_loc_perm -> conv8_2_mbox_loc_perm
I0305 10:55:17.552537 25537 net.cpp:150] Setting up conv8_2_mbox_loc_perm
I0305 10:55:17.552565 25537 net.cpp:157] Top shape: 1 3 3 16 (144)
I0305 10:55:17.552587 25537 net.cpp:165] Memory required for data: 248953616
I0305 10:55:17.552605 25537 layer_factory.hpp:77] Creating layer conv8_2_mbox_loc_flat
I0305 10:55:17.552633 25537 net.cpp:100] Creating Layer conv8_2_mbox_loc_flat
I0305 10:55:17.552654 25537 net.cpp:434] conv8_2_mbox_loc_flat <- conv8_2_mbox_loc_perm
I0305 10:55:17.552680 25537 net.cpp:408] conv8_2_mbox_loc_flat -> conv8_2_mbox_loc_flat
I0305 10:55:17.552757 25537 net.cpp:150] Setting up conv8_2_mbox_loc_flat
I0305 10:55:17.552783 25537 net.cpp:157] Top shape: 1 144 (144)
I0305 10:55:17.552803 25537 net.cpp:165] Memory required for data: 248954192
I0305 10:55:17.552822 25537 layer_factory.hpp:77] Creating layer conv8_2_mbox_conf
I0305 10:55:17.552855 25537 net.cpp:100] Creating Layer conv8_2_mbox_conf
I0305 10:55:17.552876 25537 net.cpp:434] conv8_2_mbox_conf <- conv8_2_conv8_2_relu_0_split_2
I0305 10:55:17.552903 25537 net.cpp:408] conv8_2_mbox_conf -> conv8_2_mbox_conf
I0305 10:55:17.556618 25537 net.cpp:150] Setting up conv8_2_mbox_conf
I0305 10:55:17.556679 25537 net.cpp:157] Top shape: 1 44 3 3 (396)
I0305 10:55:17.556728 25537 net.cpp:165] Memory required for data: 248955776
I0305 10:55:17.556756 25537 layer_factory.hpp:77] Creating layer conv8_2_mbox_conf_perm
I0305 10:55:17.556787 25537 net.cpp:100] Creating Layer conv8_2_mbox_conf_perm
I0305 10:55:17.556807 25537 net.cpp:434] conv8_2_mbox_conf_perm <- conv8_2_mbox_conf
I0305 10:55:17.556831 25537 net.cpp:408] conv8_2_mbox_conf_perm -> conv8_2_mbox_conf_perm
I0305 10:55:17.557026 25537 net.cpp:150] Setting up conv8_2_mbox_conf_perm
I0305 10:55:17.557054 25537 net.cpp:157] Top shape: 1 3 3 44 (396)
I0305 10:55:17.557075 25537 net.cpp:165] Memory required for data: 248957360
I0305 10:55:17.557092 25537 layer_factory.hpp:77] Creating layer conv8_2_mbox_conf_flat
I0305 10:55:17.557118 25537 net.cpp:100] Creating Layer conv8_2_mbox_conf_flat
I0305 10:55:17.557139 25537 net.cpp:434] conv8_2_mbox_conf_flat <- conv8_2_mbox_conf_perm
I0305 10:55:17.557163 25537 net.cpp:408] conv8_2_mbox_conf_flat -> conv8_2_mbox_conf_flat
I0305 10:55:17.557222 25537 net.cpp:150] Setting up conv8_2_mbox_conf_flat
I0305 10:55:17.557248 25537 net.cpp:157] Top shape: 1 396 (396)
I0305 10:55:17.557266 25537 net.cpp:165] Memory required for data: 248958944
I0305 10:55:17.557286 25537 layer_factory.hpp:77] Creating layer conv8_2_mbox_priorbox
I0305 10:55:17.557313 25537 net.cpp:100] Creating Layer conv8_2_mbox_priorbox
I0305 10:55:17.557334 25537 net.cpp:434] conv8_2_mbox_priorbox <- conv8_2_conv8_2_relu_0_split_3
I0305 10:55:17.557358 25537 net.cpp:434] conv8_2_mbox_priorbox <- data_data_0_split_5
I0305 10:55:17.557380 25537 net.cpp:408] conv8_2_mbox_priorbox -> conv8_2_mbox_priorbox
I0305 10:55:17.557447 25537 net.cpp:150] Setting up conv8_2_mbox_priorbox
I0305 10:55:17.557473 25537 net.cpp:157] Top shape: 1 2 144 (288)
I0305 10:55:17.557492 25537 net.cpp:165] Memory required for data: 248960096
I0305 10:55:17.557512 25537 layer_factory.hpp:77] Creating layer conv9_2_mbox_loc
I0305 10:55:17.557554 25537 net.cpp:100] Creating Layer conv9_2_mbox_loc
I0305 10:55:17.557579 25537 net.cpp:434] conv9_2_mbox_loc <- conv9_2_conv9_2_relu_0_split_0
I0305 10:55:17.557605 25537 net.cpp:408] conv9_2_mbox_loc -> conv9_2_mbox_loc
I0305 10:55:17.560007 25537 net.cpp:150] Setting up conv9_2_mbox_loc
I0305 10:55:17.560062 25537 net.cpp:157] Top shape: 1 16 1 1 (16)
I0305 10:55:17.560101 25537 net.cpp:165] Memory required for data: 248960160
I0305 10:55:17.560127 25537 layer_factory.hpp:77] Creating layer conv9_2_mbox_loc_perm
I0305 10:55:17.560155 25537 net.cpp:100] Creating Layer conv9_2_mbox_loc_perm
I0305 10:55:17.560178 25537 net.cpp:434] conv9_2_mbox_loc_perm <- conv9_2_mbox_loc
I0305 10:55:17.560202 25537 net.cpp:408] conv9_2_mbox_loc_perm -> conv9_2_mbox_loc_perm
I0305 10:55:17.560390 25537 net.cpp:150] Setting up conv9_2_mbox_loc_perm
I0305 10:55:17.560415 25537 net.cpp:157] Top shape: 1 1 1 16 (16)
I0305 10:55:17.560436 25537 net.cpp:165] Memory required for data: 248960224
I0305 10:55:17.560454 25537 layer_factory.hpp:77] Creating layer conv9_2_mbox_loc_flat
I0305 10:55:17.560480 25537 net.cpp:100] Creating Layer conv9_2_mbox_loc_flat
I0305 10:55:17.560501 25537 net.cpp:434] conv9_2_mbox_loc_flat <- conv9_2_mbox_loc_perm
I0305 10:55:17.560523 25537 net.cpp:408] conv9_2_mbox_loc_flat -> conv9_2_mbox_loc_flat
I0305 10:55:17.560582 25537 net.cpp:150] Setting up conv9_2_mbox_loc_flat
I0305 10:55:17.560606 25537 net.cpp:157] Top shape: 1 16 (16)
I0305 10:55:17.560624 25537 net.cpp:165] Memory required for data: 248960288
I0305 10:55:17.560643 25537 layer_factory.hpp:77] Creating layer conv9_2_mbox_conf
I0305 10:55:17.560674 25537 net.cpp:100] Creating Layer conv9_2_mbox_conf
I0305 10:55:17.560719 25537 net.cpp:434] conv9_2_mbox_conf <- conv9_2_conv9_2_relu_0_split_1
I0305 10:55:17.560746 25537 net.cpp:408] conv9_2_mbox_conf -> conv9_2_mbox_conf
I0305 10:55:17.565199 25537 net.cpp:150] Setting up conv9_2_mbox_conf
I0305 10:55:17.565259 25537 net.cpp:157] Top shape: 1 44 1 1 (44)
I0305 10:55:17.565280 25537 net.cpp:165] Memory required for data: 248960464
I0305 10:55:17.565309 25537 layer_factory.hpp:77] Creating layer conv9_2_mbox_conf_perm
I0305 10:55:17.565340 25537 net.cpp:100] Creating Layer conv9_2_mbox_conf_perm
I0305 10:55:17.565363 25537 net.cpp:434] conv9_2_mbox_conf_perm <- conv9_2_mbox_conf
I0305 10:55:17.565389 25537 net.cpp:408] conv9_2_mbox_conf_perm -> conv9_2_mbox_conf_perm
I0305 10:55:17.565582 25537 net.cpp:150] Setting up conv9_2_mbox_conf_perm
I0305 10:55:17.565608 25537 net.cpp:157] Top shape: 1 1 1 44 (44)
I0305 10:55:17.565627 25537 net.cpp:165] Memory required for data: 248960640
I0305 10:55:17.565646 25537 layer_factory.hpp:77] Creating layer conv9_2_mbox_conf_flat
I0305 10:55:17.565672 25537 net.cpp:100] Creating Layer conv9_2_mbox_conf_flat
I0305 10:55:17.565693 25537 net.cpp:434] conv9_2_mbox_conf_flat <- conv9_2_mbox_conf_perm
I0305 10:55:17.565717 25537 net.cpp:408] conv9_2_mbox_conf_flat -> conv9_2_mbox_conf_flat
I0305 10:55:17.565775 25537 net.cpp:150] Setting up conv9_2_mbox_conf_flat
I0305 10:55:17.565799 25537 net.cpp:157] Top shape: 1 44 (44)
I0305 10:55:17.565819 25537 net.cpp:165] Memory required for data: 248960816
I0305 10:55:17.565838 25537 layer_factory.hpp:77] Creating layer conv9_2_mbox_priorbox
I0305 10:55:17.565863 25537 net.cpp:100] Creating Layer conv9_2_mbox_priorbox
I0305 10:55:17.565884 25537 net.cpp:434] conv9_2_mbox_priorbox <- conv9_2_conv9_2_relu_0_split_2
I0305 10:55:17.565906 25537 net.cpp:434] conv9_2_mbox_priorbox <- data_data_0_split_6
I0305 10:55:17.565929 25537 net.cpp:408] conv9_2_mbox_priorbox -> conv9_2_mbox_priorbox
I0305 10:55:17.565995 25537 net.cpp:150] Setting up conv9_2_mbox_priorbox
I0305 10:55:17.566020 25537 net.cpp:157] Top shape: 1 2 16 (32)
I0305 10:55:17.566038 25537 net.cpp:165] Memory required for data: 248960944
I0305 10:55:17.566057 25537 layer_factory.hpp:77] Creating layer mbox_loc
I0305 10:55:17.566083 25537 net.cpp:100] Creating Layer mbox_loc
I0305 10:55:17.566105 25537 net.cpp:434] mbox_loc <- conv4_3_norm_mbox_loc_flat
I0305 10:55:17.566126 25537 net.cpp:434] mbox_loc <- fc7_mbox_loc_flat
I0305 10:55:17.566148 25537 net.cpp:434] mbox_loc <- conv6_2_mbox_loc_flat
I0305 10:55:17.566169 25537 net.cpp:434] mbox_loc <- conv7_2_mbox_loc_flat
I0305 10:55:17.566190 25537 net.cpp:434] mbox_loc <- conv8_2_mbox_loc_flat
I0305 10:55:17.566218 25537 net.cpp:434] mbox_loc <- conv9_2_mbox_loc_flat
I0305 10:55:17.566254 25537 net.cpp:408] mbox_loc -> mbox_loc
I0305 10:55:17.566320 25537 net.cpp:150] Setting up mbox_loc
I0305 10:55:17.566345 25537 net.cpp:157] Top shape: 1 34928 (34928)
I0305 10:55:17.566365 25537 net.cpp:165] Memory required for data: 249100656
I0305 10:55:17.566383 25537 layer_factory.hpp:77] Creating layer mbox_conf
I0305 10:55:17.566406 25537 net.cpp:100] Creating Layer mbox_conf
I0305 10:55:17.566426 25537 net.cpp:434] mbox_conf <- conv4_3_norm_mbox_conf_flat
I0305 10:55:17.566448 25537 net.cpp:434] mbox_conf <- fc7_mbox_conf_flat
I0305 10:55:17.566469 25537 net.cpp:434] mbox_conf <- conv6_2_mbox_conf_flat
I0305 10:55:17.566489 25537 net.cpp:434] mbox_conf <- conv7_2_mbox_conf_flat
I0305 10:55:17.566509 25537 net.cpp:434] mbox_conf <- conv8_2_mbox_conf_flat
I0305 10:55:17.566529 25537 net.cpp:434] mbox_conf <- conv9_2_mbox_conf_flat
I0305 10:55:17.566558 25537 net.cpp:408] mbox_conf -> mbox_conf
I0305 10:55:17.566614 25537 net.cpp:150] Setting up mbox_conf
I0305 10:55:17.566637 25537 net.cpp:157] Top shape: 1 96052 (96052)
I0305 10:55:17.566653 25537 net.cpp:165] Memory required for data: 249484864
I0305 10:55:17.566671 25537 layer_factory.hpp:77] Creating layer mbox_priorbox
I0305 10:55:17.566692 25537 net.cpp:100] Creating Layer mbox_priorbox
I0305 10:55:17.566710 25537 net.cpp:434] mbox_priorbox <- conv4_3_norm_mbox_priorbox
I0305 10:55:17.566730 25537 net.cpp:434] mbox_priorbox <- fc7_mbox_priorbox
I0305 10:55:17.566748 25537 net.cpp:434] mbox_priorbox <- conv6_2_mbox_priorbox
I0305 10:55:17.566767 25537 net.cpp:434] mbox_priorbox <- conv7_2_mbox_priorbox
I0305 10:55:17.566785 25537 net.cpp:434] mbox_priorbox <- conv8_2_mbox_priorbox
I0305 10:55:17.566803 25537 net.cpp:434] mbox_priorbox <- conv9_2_mbox_priorbox
I0305 10:55:17.566828 25537 net.cpp:408] mbox_priorbox -> mbox_priorbox
I0305 10:55:17.566881 25537 net.cpp:150] Setting up mbox_priorbox
I0305 10:55:17.566910 25537 net.cpp:157] Top shape: 1 2 34928 (69856)
I0305 10:55:17.566927 25537 net.cpp:165] Memory required for data: 249764288
I0305 10:55:17.566947 25537 layer_factory.hpp:77] Creating layer mbox_loss
I0305 10:55:17.566975 25537 net.cpp:100] Creating Layer mbox_loss
I0305 10:55:17.567003 25537 net.cpp:434] mbox_loss <- mbox_loc
I0305 10:55:17.567023 25537 net.cpp:434] mbox_loss <- mbox_conf
I0305 10:55:17.567045 25537 net.cpp:434] mbox_loss <- mbox_priorbox
…
  phase: TEST
}
layer {
  name: "data"
  type: "AnnotatedData"
  top: "data"
  top: "label"
  include {
    phase: TEST
  }
  transform_param {
    mean_value: 104
    mean_value: 117
    mean_value: 123
    resize_param {
      prob: 1
      resize_mode: WARP
      height: 300
      width: 300
      interp_mode: LINEAR
    }
  }
  data_param {
    source: "examples/NWPU_VHR/NWPU_VHR_test_lmdb"
    batch_size: 8
    backend: LMDB
  }
  annotated_data_param {
    batch_sampler {
    }
    label_map_file: "data/NWPU_VHR/labelmap_NWPU_VHR.prototxt"
  }
}
layer {
  name: "conv1_1"
  type: "Convolution"
  bottom: "data"
  top: "conv1_1"
  param {
    lr_mult: 1
    decay_mult: 1
  }
  param {
    lr_mult: 2
    decay_mult: 0
  }
  convolution_param {
    num_output: 64
    pad: 1
    kernel_size: 3
    weight_filler {
      type: "xavier"
    }
    bias_filler {
      type: "constant"
      value: 0
    }
  }
}
layer {
  name: "relu1_1"
  type: "ReLU"
  bottom: "conv1_1"
  top: "conv1_1"
}
layer {
  name: "conv1_2"
  type: "Convolution"
  bottom: "conv1_1"
  top: "conv1_2"
  param {
    lr_mult: 1
    decay_mult: 1
  }
  param {
    lr_mult: 2
    decay_mult: 0
  }
  convolution_param {
    num_output: 64
    pad: 1
    kernel_size: 3
    weight_filler {
      type: "xavier"
    }
    bias_filler {
      type: "constant"
      value: 0
    }
  }
}
layer {
  name: "relu1_2"
  type: "ReLU"
  bottom: "conv1_2"
  top: "conv1_2"
}
layer {
  name: "pool1"
  type: "Pooling"
  bottom: "conv1_2"
  top: "pool1"
  pooling_param {
    pool: MAX
    kernel_size: 2
    stride: 2
  }
}
layer {
  name: "conv2_1"
  type: "Convolution"
  bottom: "pool1"
  top: "conv2_1"
  param {
    lr_mult: 1
    decay_mult: 1
  }
  param {
    lr_mult: 2
    decay_mult: 0
  }
  convolution_param {
    num_output: 128
    pad: 1
    kernel_size: 3
    weight_filler {
      type: "xavier"
    }
    bias_filler {
      type: "constant"
      value: 0
    }
  }
}
layer {
  name: "relu2_1"
  type: "ReLU"
  bottom: "conv2_1"
  top: "conv2_1"
}
layer {
  name: "conv2_2"
  type: "Convolution"
  bottom: "conv2_1"
  top: "conv2_2"
  param {
    lr_mult: 1
    decay_mult: 1
  }
  param {
    lr_mult: 2
    decay_mult: 0
  }
  convolution_param {
    num_output: 128
    pad: 1
    kernel_size: 3
    weight_filler {
      type: "xavier"
    }
    bias_filler {
      type: "constant"
      value: 0
    }
  }
}
layer {
  name: "relu2_2"
  type: "ReLU"
  bottom: "conv2_2"
  top: "conv2_2"
}
layer {
  name: "pool2"
  type: "Pooling"
  bottom: "conv2_2"
  top: "pool2"
  pooling_param {
    pool: MAX
    kernel_size: 2
    stride: 2
  }
}
layer {
  name: "conv3_1"
  type: "Convolution"
  bottom: "pool2"
  top: "conv3_1"
  param {
    lr_mult: 1
    decay_mult: 1
  }
  param {
    lr_mult: 2
    decay_mult: 0
  }
  convolution_param {
    num_output: 256
    pad: 1
    kernel_size: 3
    weight_filler {
      type: "xavier"
    }
    bias_filler {
      type: "constant"
      value: 0
    }
  }
}
layer {
  name: "relu3_1"
  type: "ReLU"
  bottom: "conv3_1"
  top: "conv3_1"
}
layer {
  name: "conv3_2"
  type: "Convolution"
  bottom: "conv3_1"
  top: "conv3_2"
  param {
    lr_mult: 1
    decay_mult: 1
  }
  param {
    lr_mult: 2
    decay_mult: 0
  }
  convolution_param {
    num_output: 256
    pad: 1
    kernel_size: 3
    weight_filler {
      type: "xavier"
    }
    bias_filler {
      type: "constant"
      value: 0
    }
  }
}
layer {
  name: "relu3_2"
  type: "ReLU"
  bottom: "conv3_2"
  top: "conv3_2"
}
layer {
  name: "conv3_3"
  type: "Convolution"
  bottom: "conv3_2"
  top: "conv3_3"
  param {
    lr_mult: 1
    decay_mult: 1
  }
  param {
    lr_mult: 2
    decay_mult: 0
  }
  convolution_param {
    num_output: 256
    pad: 1
    kernel_size: 3
    weight_filler {
      type: "xavier"
    }
    bias_filler {
      type: "constant"
      value: 0
    }
  }
}
layer {
  name: "relu3_3"
  type: "ReLU"
  bottom: "conv3_3"
  top: "conv3_3"
}
layer {
  name: "pool3"
  type: "Pooling"
  bottom: "conv3_3"
  top: "pool3"
  pooling_param {
    pool: MAX
    kernel_size: 2
    stride: 2
  }
}
layer {
  name: "conv4_1"
  type: "Convolution"
  bottom: "pool3"
  top: "conv4_1"
  param {
    lr_mult: 1
    decay_mult: 1
  }
  param {
    lr_mult: 2
    decay_mult: 0
  }
  convolution_param {
    num_output: 512
    pad: 1
    kernel_size: 3
    weight_filler {
      type: "xavier"
    }
    bias_filler {
      type: "constant"
      value: 0
    }
  }
}
layer {
  name: "relu4_1"
  type: "ReLU"
  bottom: "conv4_1"
  top: "conv4_1"
}
layer {
  name: "conv4_2"
  type: "Convolution"
  bottom: "conv4_1"
  top: "conv4_2"
  param {
    lr_mult: 1
    decay_mult: 1
  }
  param {
    lr_mult: 2
    decay_mult: 0
  }
  convolution_param {
    num_output: 512
    pad: 1
    kernel_size: 3
    weight_filler {
      type: "xavier"
    }
    bias_filler {
      type: "constant"
      value: 0
    }
  }
}
layer {
  name: "relu4_2"
  type: "ReLU"
  bottom: "conv4_2"
  top: "conv4_2"
}
layer {
  name: "conv4_3"
  type: "Convolution"
  bottom: "conv4_2"
  top: "conv4_3"
  param {
    lr_mult: 1
    decay_mult: 1
  }
  param {
    lr_mult: 2
    decay_mult: 0
  }
  convolution_param {
    num_output: 512
    pad: 1
    kernel_size: 3
    weight_filler {
      type: "xavier"
    }
    bias_filler {
      type: "constant"
      value: 0
    }
  }
}
layer {
  name: "relu4_3"
  type: "ReLU"
  bottom: "conv4_3"
  top: "conv4_3"
}
layer {
  name: "pool4"
  type: "Pooling"
  bottom: "conv4_3"
  top: "pool4"
  pooling_param {
    pool: MAX
    kernel_size: 2
    stride: 2
  }
}
layer {
  name: "conv5_1"
  type: "Convolution"
  bottom: "pool4"
  top: "conv5_1"
  param {
    lr_mult: 1
    decay_mult: 1
  }
  param {
    lr_mult: 2
    decay_mult: 0
  }
  convolution_param {
    num_output: 512
    pad: 1
    kernel_size: 3
    weight_filler {
      type: "xavier"
    }
    bias_filler {
      type: "constant"
      value: 0
    }
    dilation: 1
  }
}
layer {
  name: "relu5_1"
  type: "ReLU"
  bottom: "conv5_1"
  top: "conv5_1"
}
layer {
  name: "conv5_2"
  type: "Convolution"
  bottom: "conv5_1"
  top: "conv5_2"
  param {
    lr_mult: 1
    decay_mult: 1
  }
  param {
    lr_mult: 2
    decay_mult: 0
  }
  convolution_param {
    num_output: 512
    pad: 1
    kernel_size: 3
    weight_filler {
      type: "xavier"
    }
    bias_filler {
      type: "constant"
      value: 0
    }
    dilation: 1
  }
}
layer {
  name: "relu5_2"
  type: "ReLU"
  bottom: "conv5_2"
  top: "conv5_2"
}
layer {
  name: "conv5_3"
  type: "Convolution"
  bottom: "conv5_2"
  top: "conv5_3"
  param {
    lr_mult: 1
    decay_mult: 1
  }
  param {
    lr_mult: 2
    decay_mult: 0
  }
  convolution_param {
    num_output: 512
    pad: 1
    kernel_size: 3
    weight_filler {
      type: "xavier"
    }
    bias_filler {
      type: "constant"
      value: 0
    }
    dilation: 1
  }
}
layer {
  name: "relu5_3"
  type: "ReLU"
  bottom: "conv5_3"
  top: "conv5_3"
}
layer {
  name: "pool5"
  type: "Pooling"
  bottom: "conv5_3"
  top: "pool5"
  pooling_param {
    pool: MAX
    kernel_size: 3
    stride: 1
    pad: 1
  }
}
layer {
  name: "fc6"
  type: "Convolution"
  bottom: "pool5"
  top: "fc6"
  param {
    lr_mult: 1
    decay_mult: 1
  }
  param {
    lr_mult: 2
    decay_mult: 0
  }
  convolution_param {
    num_output: 1024
    pad: 6
    kernel_size: 3
    weight_filler {
      type: "xavier"
    }
    bias_filler {
      type: "constant"
      value: 0
    }
    dilation: 6
  }
}
layer {
  name: "relu6"
  type: "ReLU"
  bottom: "fc6"
  top: "fc6"
}
layer {
  name: "fc7"
  type: "Convolution"
  bottom: "fc6"
  top: "fc7"
  param {
    lr_mult: 1
    decay_mult: 1
  }
  param {
    lr_mult: 2
    decay_mult: 0
  }
  convolution_param {
    num_output: 1024
    kernel_size: 1
    weight_filler {
      type: "xavier"
    }
    bias_filler {
      type: "constant"
      value: 0
    }
  }
}
layer {
  name: "relu7"
  type: "ReLU"
  bottom: "fc7"
  top: "fc7"
}
layer {
  name: "conv6_1"
  type: "Convolution"
  bottom: "fc7"
  top: "conv6_1"
  param {
    lr_mult: 1
    decay_mult: 1
  }
  param {
    lr_mult: 2
    decay_mult: 0
  }
  convolution_param {
    num_output: 256
    pad: 0
    kernel_size: 1
    stride: 1
    weight_filler {
      type: "xavier"
    }
    bias_filler {
      type: "constant"
      value: 0
    }
  }
}
layer {
  name: "conv6_1_relu"
  type: "ReLU"
  bottom: "conv6_1"
  top: "conv6_1"
}
layer {
  name: "conv6_2"
  type: "Convolution"
  bottom: "conv6_1"
  top: "conv6_2"
  param {
    lr_mult: 1
    decay_mult: 1
  }
  param {
    lr_mult: 2
    decay_mult: 0
  }
  convolution_param {
    num_output: 512
    pad: 1
    kernel_size: 3
    stride: 2
    weight_filler {
      type: "xavier"
    }
    bias_filler {
      type: "constant"
      value: 0
    }
  }
}
layer {
  name: "conv6_2_relu"
  type: "ReLU"
  bottom: "conv6_2"
  top: "conv6_2"
}
layer {
  name: "conv7_1"
  type: "Convolution"
  bottom: "conv6_2"
  top: "conv7_1"
  param {
    lr_mult: 1
    decay_mult: 1
  }
  param {
    lr_mult: 2
    decay_mult: 0
  }
  convolution_param {
    num_output: 128
    pad: 0
    kernel_size: 1
    stride: 1
    weight_filler {
      type: "xavier"
    }
    bias_filler {
      type: "constant"
      value: 0
    }
  }
}
layer {
  name: "conv7_1_relu"
  type: "ReLU"
  bottom: "conv7_1"
  top: "conv7_1"
}
layer {
  name: "conv7_2"
  type: "Convolution"
  bottom: "conv7_1"
  top: "conv7_2"
  param {
    lr_mult: 1
    decay_mult: 1
  }
  param {
    lr_mult: 2
    decay_mult: 0
  }
  convolution_param {
    num_output: 256
    pad: 1
    kernel_size: 3
    stride: 2
    weight_filler {
      type: "xavier"
    }
    bias_filler {
      type: "constant"
      value: 0
    }
  }
}
layer {
  name: "conv7_2_relu"
  type: "ReLU"
  bottom: "conv7_2"
  top: "conv7_2"
}
layer {
  name: "conv8_1"
  type: "Convolution"
  bottom: "conv7_2"
  top: "conv8_1"
  param {
    lr_mult: 1
    decay_mult: 1
  }
  param {
    lr_mult: 2
    decay_mult: 0
  }
  convolution_param {
    num_output: 128
    pad: 0
    kernel_size: 1
    stride: 1
    weight_filler {
      type: "xavier"
    }
    bias_filler {
      type: "constant"
      value: 0
    }
  }
}
layer {
  name: "conv8_1_relu"
  type: "ReLU"
  bottom: "conv8_1"
  top: "conv8_1"
}
layer {
  name: "conv8_2"
  type: "Convolution"
  bottom: "conv8_1"
  top: "conv8_2"
  param {
    lr_mult: 1
    decay_mult: 1
  }
  param {
    lr_mult: 2
    decay_mult: 0
  }
  convolution_param {
    num_output: 256
    pad: 0
    kernel_size: 3
    stride: 1
    weight_filler {
      type: "xavier"
    }
    bias_filler {
      type: "constant"
      value: 0
    }
  }
}
layer {
  name: "conv8_2_relu"
  type: "ReLU"
  bottom: "conv8_2"
  top: "conv8_2"
}
layer {
  name: "conv9_1"
  type: "Convolution"
  bottom: "conv8_2"
  top: "conv9_1"
  param {
    lr_mult: 1
    decay_mult: 1
  }
  param {
    lr_mult: 2
    decay_mult: 0
  }
  convolution_param {
    num_output: 128
    pad: 0
    kernel_size: 1
    stride: 1
    weight_filler {
      type: "xavier"
    }
    bias_filler {
      type: "constant"
      value: 0
    }
  }
}
layer {
  name: "conv9_1_relu"
  type: "ReLU"
  bottom: "conv9_1"
  top: "conv9_1"
}
layer {
  name: "conv9_2"
  type: "Convolution"
  bottom: "conv9_1"
  top: "conv9_2"
  param {
    lr_mult: 1
    decay_mult: 1
  }
  param {
    lr_mult: 2
    decay_mult: 0
  }
  convolution_param {
    num_output: 256
    pad: 0
    kernel_size: 3
    stride: 1
    weight_filler {
      type: "xavier"
    }
    bias_filler {
      type: "constant"
      value: 0
    }
  }
}
layer {
  name: "conv9_2_relu"
  type: "ReLU"
  bottom: "conv9_2"
  top: "conv9_2"
}
layer {
  name: "conv4_3_norm"
  type: "Normalize"
  bottom: "conv4_3"
  top: "conv4_3_norm"
  norm_param {
    across_spatial: false
    scale_filler {
      type: "constant"
      value: 20
    }
    channel_shared: false
  }
}
layer {
  name: "conv4_3_norm_mbox_loc"
  type: "Convolution"
  bottom: "conv4_3_norm"
  top: "conv4_3_norm_mbox_loc"
  param {
    lr_mult: 1
    decay_mult: 1
  }
  param {
    lr_mult: 2
    decay_mult: 0
  }
  convolution_param {
    num_output: 16
    pad: 1
    kernel_size: 3
    stride: 1
    weight_filler {
      type: "xavier"
    }
    bias_filler {
      type: "constant"
      value: 0
    }
  }
}
layer {
  name: "conv4_3_norm_mbox_loc_perm"
  type: "Permute"
  bottom: "conv4_3_norm_mbox_loc"
  top: "conv4_3_norm_mbox_loc_perm"
  permute_param {
    order: 0
    order: 2
    order: 3
    order: 1
  }
}
layer {
  name: "conv4_3_norm_mbox_loc_flat"
  type: "Flatten"
  bottom: "conv4_3_norm_mbox_loc_perm"
  top: "conv4_3_norm_mbox_loc_flat"
  flatten_param {
    axis: 1
  }
}
layer {
  name: "conv4_3_norm_mbox_conf"
  type: "Convolution"
  bottom: "conv4_3_norm"
  top: "conv4_3_norm_mbox_conf"
  param {
    lr_mult: 1
    decay_mult: 1
  }
  param {
    lr_mult: 2
    decay_mult: 0
  }
  convolution_param {
    num_output: 44
    pad: 1
    kernel_size: 3
    stride: 1
    weight_filler {
      type: "xavier"
    }
    bias_filler {
      type: "constant"
      value: 0
    }
  }
}
layer {
  name: "conv4_3_norm_mbox_conf_perm"
  type: "Permute"
  bottom: "conv4_3_norm_mbox_conf"
  top: "conv4_3_norm_mbox_conf_perm"
  permute_param {
    order: 0
    order: 2
    order: 3
    order: 1
  }
}
layer {
  name: "conv4_3_norm_mbox_conf_flat"
  type: "Flatten"
  bottom: "conv4_3_norm_mbox_conf_perm"
  top: "conv4_3_norm_mbox_conf_flat"
  flatten_param {
    axis: 1
  }
}
layer {
  name: "conv4_3_norm_mbox_priorbox"
  type: "PriorBox"
  bottom: "conv4_3_norm"
  bottom: "data"
  top: "conv4_3_norm_mbox_priorbox"
  prior_box_param {
    min_size: 30
    max_size: 60
    aspect_ratio: 2
    flip: true
    clip: false
    variance: 0.1
    variance: 0.1
    variance: 0.2
    variance: 0.2
    step: 8
    offset: 0.5
  }
}
layer {
  name: "fc7_mbox_loc"
  type: "Convolution"
  bottom: "fc7"
  top: "fc7_mbox_loc"
  param {
    lr_mult: 1
    decay_mult: 1
  }
  param {
    lr_mult: 2
    decay_mult: 0
  }
  convolution_param {
    num_output: 24
    pad: 1
    kernel_size: 3
    stride: 1
    weight_filler {
      type: "xavier"
    }
    bias_filler {
      type: "constant"
      value: 0
    }
  }
}
layer {
  name: "fc7_mbox_loc_perm"
  type: "Permute"
  bottom: "fc7_mbox_loc"
  top: "fc7_mbox_loc_perm"
  permute_param {
    order: 0
    order: 2
    order: 3
    order: 1
  }
}
layer {
  name: "fc7_mbox_loc_flat"
  type: "Flatten"
  bottom: "fc7_mbox_loc_perm"
  top: "fc7_mbox_loc_flat"
  flatten_param {
    axis: 1
  }
}
layer {
  name: "fc7_mbox_conf"
  type: "Convolution"
  bottom: "fc7"
  top: "fc7_mbox_conf"
  param {
    lr_mult: 1
    decay_mult: 1
  }
  param {
    lr_mult: 2
    decay_mult: 0
  }
  convolution_param {
    num_output: 66
    pad: 1
    kernel_size: 3
    stride: 1
    weight_filler {
      type: "xavier"
    }
    bias_filler {
      type: "constant"
      value: 0
    }
  }
}
layer {
  name: "fc7_mbox_conf_perm"
  type: "Permute"
  bottom: "fc7_mbox_conf"
  top: "fc7_mbox_conf_perm"
  permute_param {
    order: 0
    order: 2
    order: 3
    order: 1
  }
}
layer {
  name: "fc7_mbox_conf_flat"
  type: "Flatten"
  bottom: "fc7_mbox_conf_perm"
  top: "fc7_mbox_conf_flat"
  flatten_param {
    axis: 1
  }
}
layer {
  name: "fc7_mbox_priorbox"
  type: "PriorBox"
  bottom: "fc7"
  bottom: "data"
  top: "fc7_mbox_priorbox"
  prior_box_param {
    min_size: 60
    max_size: 111
    aspect_ratio: 2
    aspect_ratio: 3
    flip: true
    clip: false
    variance: 0.1
    variance: 0.1
    variance: 0.2
    variance: 0.2
    step: 16
    offset: 0.5
  }
}
layer {
  name: "conv6_2_mbox_loc"
  type: "Convolution"
  bottom: "conv6_2"
  top: "conv6_2_mbox_loc"
  param {
    lr_mult: 1
    decay_mult: 1
  }
  param {
    lr_mult: 2
    decay_mult: 0
  }
  convolution_param {
    num_output: 24
    pad: 1
    kernel_size: 3
    stride: 1
    weight_filler {
      type: "xavier"
    }
    bias_filler {
      type: "constant"
      value: 0
    }
  }
}
layer {
  name: "conv6_2_mbox_loc_perm"
  type: "Permute"
  bottom: "conv6_2_mbox_loc"
  top: "conv6_2_mbox_loc_perm"
  permute_param {
    order: 0
    order: 2
    order: 3
    order: 1
  }
}
layer {
  name: "conv6_2_mbox_loc_flat"
  type: "Flatten"
  bottom: "conv6_2_mbox_loc_perm"
  top: "conv6_2_mbox_loc_flat"
  flatten_param {
    axis: 1
  }
}
layer {
  name: "conv6_2_mbox_conf"
  type: "Convolution"
  bottom: "conv6_2"
  top: "conv6_2_mbox_conf"
  param {
    lr_mult: 1
    decay_mult: 1
  }
  param {
    lr_mult: 2
    decay_mult: 0
  }
  convolution_param {
    num_output: 66
    pad: 1
    kernel_size: 3
    stride: 1
    weight_filler {
      type: "xavier"
    }
    bias_filler {
      type: "constant"
      value: 0
    }
  }
}
layer {
  name: "conv6_2_mbox_conf_perm"
  type: "Permute"
  bottom: "conv6_2_mbox_conf"
  top: "conv6_2_mbox_conf_perm"
  permute_param {
    order: 0
    order: 2
    order: 3
    order: 1
  }
}
layer {
  name: "conv6_2_mbox_conf_flat"
  type: "Flatten"
  bottom: "conv6_2_mbox_conf_perm"
  top: "conv6_2_mbox_conf_flat"
  flatten_param {
    axis: 1
  }
}
layer {
  name: "conv6_2_mbox_priorbox"
  type: "PriorBox"
  bottom: "conv6_2"
  bottom: "data"
  top: "conv6_2_mbox_priorbox"
  prior_box_param {
    min_size: 111
    max_size: 162
    aspect_ratio: 2
    aspect_ratio: 3
    flip: true
    clip: false
    variance: 0.1
    variance: 0.1
    variance: 0.2
    variance: 0.2
    step: 32
    offset: 0.5
  }
}
layer {
  name: "conv7_2_mbox_loc"
  type: "Convolution"
  bottom: "conv7_2"
  top: "conv7_2_mbox_loc"
  param {
    lr_mult: 1
    decay_mult: 1
  }
  param {
    lr_mult: 2
    decay_mult: 0
  }
  convolution_param {
    num_output: 24
    pad: 1
    kernel_size: 3
    stride: 1
    weight_filler {
      type: "xavier"
    }
    bias_filler {
      type: "constant"
      value: 0
    }
  }
}
layer {
  name: "conv7_2_mbox_loc_perm"
  type: "Permute"
  bottom: "conv7_2_mbox_loc"
  top: "conv7_2_mbox_loc_perm"
  permute_param {
    order: 0
    order: 2
    order: 3
    order: 1
  }
}
layer {
  name: "conv7_2_mbox_loc_flat"
  type: "Flatten"
  bottom: "conv7_2_mbox_loc_perm"
  top: "conv7_2_mbox_loc_flat"
  flatten_param {
    axis: 1
  }
}
layer {
  name: "conv7_2_mbox_conf"
  type: "Convolution"
  bottom: "conv7_2"
  top: "conv7_2_mbox_conf"
  param {
    lr_mult: 1
    decay_mult: 1
  }
  param {
    lr_mult: 2
    decay_mult: 0
  }
  convolution_param {
    num_output: 66
    pad: 1
    kernel_size: 3
    stride: 1
    weight_filler {
      type: "xavier"
    }
    bias_filler {
      type: "constant"
      value: 0
    }
  }
}
layer {
  name: "conv7_2_mbox_conf_perm"
  type: "Permute"
  bottom: "conv7_2_mbox_conf"
  top: "conv7_2_mbox_conf_perm"
  permute_param {
    order: 0
    order: 2
    order: 3
    order: 1
  }
}
layer {
  name: "conv7_2_mbox_conf_flat"
  type: "Flatten"
  bottom: "conv7_2_mbox_conf_perm"
  top: "conv7_2_mbox_conf_flat"
  flatten_param {
    axis: 1
  }
}
layer {
  name: "conv7_2_mbox_priorbox"
  type: "PriorBox"
  bottom: "conv7_2"
  bottom: "data"
  top: "conv7_2_mbox_priorbox"
  prior_box_param {
    min_size: 162
    max_size: 213
    aspect_ratio: 2
    aspect_ratio: 3
    flip: true
    clip: false
    variance: 0.1
    variance: 0.1
    variance: 0.2
    variance: 0.2
    step: 64
    offset: 0.5
  }
}
layer {
  name: "conv8_2_mbox_loc"
  type: "Convolution"
  bottom: "conv8_2"
  top: "conv8_2_mbox_loc"
  param {
    lr_mult: 1
    decay_mult: 1
  }
  param {
    lr_mult: 2
    decay_mult: 0
  }
  convolution_param {
    num_output: 16
    pad: 1
    kernel_size: 3
    stride: 1
    weight_filler {
      type: "xavier"
    }
    bias_filler {
      type: "constant"
      value: 0
    }
  }
}
layer {
  name: "conv8_2_mbox_loc_perm"
  type: "Permute"
  bottom: "conv8_2_mbox_loc"
  top: "conv8_2_mbox_loc_perm"
  permute_param {
    order: 0
    order: 2
    order: 3
    order: 1
  }
}
layer {
  name: "conv8_2_mbox_loc_flat"
  type: "Flatten"
  bottom: "conv8_2_mbox_loc_perm"
  top: "conv8_2_mbox_loc_flat"
  flatten_param {
    axis: 1
  }
}
layer {
  name: "conv8_2_mbox_conf"
  type: "Convolution"
  bottom: "conv8_2"
  top: "conv8_2_mbox_conf"
  param {
    lr_mult: 1
    decay_mult: 1
  }
  param {
    lr_mult: 2
    decay_mult: 0
  }
  convolution_param {
    num_output: 44
    pad: 1
    kernel_size: 3
    stride: 1
    weight_filler {
      type: "xavier"
    }
    bias_filler {
      type: "constant"
      value: 0
    }
  }
}
layer {
  name: "conv8_2_mbox_conf_perm"
  type: "Permute"
  bottom: "conv8_2_mbox_conf"
  top: "conv8_2_mbox_conf_perm"
  permute_param {
    order: 0
    order: 2
    order: 3
    order: 1
  }
}
layer {
  name: "conv8_2_mbox_conf_flat"
  type: "Flatten"
  bottom: "conv8_2_mbox_conf_perm"
  top: "conv8_2_mbox_conf_flat"
  flatten_param {
    axis: 1
  }
}
layer {
  name: "conv8_2_mbox_priorbox"
  type: "PriorBox"
  bottom: "conv8_2"
  bottom: "data"
  top: "conv8_2_mbox_priorbox"
  prior_box_param {
    min_size: 213
    max_size: 264
    aspect_ratio: 2
    flip: true
    clip: false
    variance: 0.1
    variance: 0.1
    variance: 0.2
    variance: 0.2
    step: 100
    offset: 0.5
  }
}
layer {
  name: "conv9_2_mbox_loc"
  type: "Convolution"
  bottom: "conv9_2"
  top: "conv9_2_mbox_loc"
  param {
    lr_mult: 1
    decay_mult: 1
  }
  param {
    lr_mult: 2
    decay_mult: 0
  }
  convolution_param {
    num_output: 16
    pad: 1
    kernel_size: 3
    stride: 1
    weight_filler {
      type: "xavier"
    }
    bias_filler {
      type: "constant"
      value: 0
    }
  }
}
layer {
  name: "conv9_2_mbox_loc_perm"
  type: "Permute"
  bottom: "conv9_2_mbox_loc"
  top: "conv9_2_mbox_loc_perm"
  permute_param {
    order: 0
    order: 2
    order: 3
    order: 1
  }
}
layer {
  name: "conv9_2_mbox_loc_flat"
  type: "Flatten"
  bottom: "conv9_2_mbox_loc_perm"
  top: "conv9_2_mbox_loc_flat"
  flatten_param {
    axis: 1
  }
}
layer {
  name: "conv9_2_mbox_conf"
  type: "Convolution"
  bottom: "conv9_2"
  top: "conv9_2_mbox_conf"
  param {
    lr_mult: 1
    decay_mult: 1
  }
  param {
    lr_mult: 2
    decay_mult: 0
  }
  convolution_param {
    num_output: 44
    pad: 1
    kernel_size: 3
    stride: 1
    weight_filler {
      type: "xavier"
    }
    bias_filler {
      type: "constant"
      value: 0
    }
  }
}
layer {
  name: "conv9_2_mbox_conf_perm"
  type: "Permute"
  bottom: "conv9_2_mbox_conf"
  top: "conv9_2_mbox_conf_perm"
  permute_param {
    order: 0
    order: 2
    order: 3
    order: 1
  }
}
layer {
  name: "conv9_2_mbox_conf_flat"
  type: "Flatten"
  bottom: "conv9_2_mbox_conf_perm"
  top: "conv9_2_mbox_conf_flat"
  flatten_param {
    axis: 1
  }
}
layer {
  name: "conv9_2_mbox_priorbox"
  type: "PriorBox"
  bottom: "conv9_2"
  bottom: "data"
  top: "conv9_2_mbox_priorbox"
  prior_box_param {
    min_size: 264
    max_size: 315
    aspect_ratio: 2
    flip: true
    clip: false
    variance: 0.1
    variance: 0.1
    variance: 0.2
    variance: 0.2
    step: 300
    offset: 0.5
  }
}
layer {
  name: "mbox_loc"
  type: "Concat"
  bottom: "conv4_3_norm_mbox_loc_flat"
  bottom: "fc7_mbox_loc_flat"
  bottom: "conv6_2_mbox_loc_flat"
  bottom: "conv7_2_mbox_loc_flat"
  bottom: "conv8_2_mbox_loc_flat"
  bottom: "conv9_2_mbox_loc_flat"
  top: "mbox_loc"
  concat_param {
    axis: 1
  }
}
layer {
  name: "mbox_conf"
  type: "Concat"
  bottom: "conv4_3_norm_mbox_conf_flat"
  bottom: "fc7_mbox_conf_flat"
  bottom: "conv6_2_mbox_conf_flat"
  bottom: "conv7_2_mbox_conf_flat"
  bottom: "conv8_2_mbox_conf_flat"
  bottom: "conv9_2_mbox_conf_flat"
  top: "mbox_conf"
  concat_param {
    axis: 1
  }
}
layer {
  name: "mbox_priorbox"
  type: "Concat"
  bottom: "conv4_3_norm_mbox_priorbox"
  bottom: "fc7_mbox_priorbox"
  bottom: "conv6_2_mbox_priorbox"
  bottom: "conv7_2_mbox_priorbox"
  bottom: "conv8_2_mbox_priorbox"
  bottom: "conv9_2_mbox_priorbox"
  top: "mbox_priorbox"
  concat_param {
    axis: 2
  }
}
layer {
  name: "mbox_conf_reshape"
  type: "Reshape"
  bottom: "mbox_conf"
  top: "mbox_conf_reshape"
  reshape_param {
    shape {
      dim: 0
      dim: -1
      dim: 11
    }
  }
}
layer {
  name: "mbox_conf_softmax"
  type: "Softmax"
  bottom: "mbox_conf_reshape"
  top: "mbox_conf_softmax"
  softmax_param {
    axis: 2
  }
}
layer {
  name: "mbox_conf_flatten"
  type: "Flatten"
  bottom: "mbox_conf_softmax"
  top: "mbox_conf_flatten"
  flatten_param {
    axis: 1
  }
}
layer {
  name: "detection_out"
  type: "DetectionOutput"
  bottom: "mbox_loc"
  bottom: "mbox_conf_flatten"
  bottom: "mbox_priorbox"
  top: "detection_out"
  include {
    phase: TEST
  }
  detection_output_param {
    num_classes: 11
    share_location: true
    background_label_id: 0
    nms_param {
      nms_threshold: 0.45
      top_k: 400
    }
    save_output_param {
      output_directory: "/home/zs/data/VOCdevkit/results/NWPU_VHR/SSD_300x300_score/Main"
      output_name_prefix: "comp4_det_test_"
      output_format: "VOC"
      label_map_file: "data/NWPU_VHR/labelmap_NWPU_VHR.prototxt"
      name_size_file: "data/NWPU_VHR/test_name_size.txt"
      num_test_image: 123
    }
    code_type: CENTER_SIZE
    keep_top_k: 200
    confidence_threshold: 0.01
  }
}
layer {
  name: "detection_eval"
  type: "DetectionEvaluate"
  bottom: "detection_out"
  bottom: "label"
  top: "detection_eval"
  include {
    phase: TEST
  }
  detection_evaluate_param {
    num_classes: 11
    background_label_id: 0
    overlap_threshold: 0.5
    evaluate_difficult_gt: false
    name_size_file: "data/NWPU_VHR/test_name_size.txt"
  }
}
I0305 10:55:17.577519 25537 layer_factory.hpp:77] Creating layer data
I0305 10:55:17.577644 25537 net.cpp:100] Creating Layer data
I0305 10:55:17.577663 25537 net.cpp:408] data -> data
I0305 10:55:17.577685 25537 net.cpp:408] data -> label
I0305 10:55:17.578822 25553 db_lmdb.cpp:35] Opened lmdb examples/NWPU_VHR/NWPU_VHR_test_lmdb
I0305 10:55:17.595047 25537 annotated_data_layer.cpp:62] output data size: 8,3,300,300
I0305 10:55:17.613945 25537 net.cpp:150] Setting up data
I0305 10:55:17.614018 25537 net.cpp:157] Top shape: 8 3 300 300 (2160000)
I0305 10:55:17.614043 25537 net.cpp:157] Top shape: 1 1 4 8 (32)
I0305 10:55:17.614063 25537 net.cpp:165] Memory required for data: 8640128
I0305 10:55:17.614085 25537 layer_factory.hpp:77] Creating layer data_data_0_split
I0305 10:55:17.614118 25537 net.cpp:100] Creating Layer data_data_0_split
I0305 10:55:17.614140 25537 net.cpp:434] data_data_0_split <- data
I0305 10:55:17.614166 25537 net.cpp:408] data_data_0_split -> data_data_0_split_0
I0305 10:55:17.614197 25537 net.cpp:408] data_data_0_split -> data_data_0_split_1
I0305 10:55:17.614224 25537 net.cpp:408] data_data_0_split -> data_data_0_split_2
I0305 10:55:17.614272 25537 net.cpp:408] data_data_0_split -> data_data_0_split_3
I0305 10:55:17.614297 25537 net.cpp:408] data_data_0_split -> data_data_0_split_4
I0305 10:55:17.614323 25537 net.cpp:408] data_data_0_split -> data_data_0_split_5
I0305 10:55:17.614348 25537 net.cpp:408] data_data_0_split -> data_data_0_split_6
I0305 10:55:17.614696 25537 net.cpp:150] Setting up data_data_0_split
I0305 10:55:17.614722 25537 net.cpp:157] Top shape: 8 3 300 300 (2160000)
I0305 10:55:17.614744 25537 net.cpp:157] Top shape: 8 3 300 300 (2160000)
I0305 10:55:17.614766 25537 net.cpp:157] Top shape: 8 3 300 300 (2160000)
I0305 10:55:17.614787 25537 net.cpp:157] Top shape: 8 3 300 300 (2160000)
I0305 10:55:17.614807 25537 net.cpp:157] Top shape: 8 3 300 300 (2160000)
I0305 10:55:17.614828 25537 net.cpp:157] Top shape: 8 3 300 300 (2160000)
I0305 10:55:17.614850 25537 net.cpp:157] Top shape: 8 3 300 300 (2160000)
I0305 10:55:17.614871 25537 net.cpp:165] Memory required for data: 69120128
I0305 10:55:17.614889 25537 layer_factory.hpp:77] Creating layer conv1_1
I0305 10:55:17.614943 25537 net.cpp:100] Creating Layer conv1_1
I0305 10:55:17.614966 25537 net.cpp:434] conv1_1 <- data_data_0_split_0
I0305 10:55:17.614989 25537 net.cpp:408] conv1_1 -> conv1_1
I0305 10:55:17.617630 25537 net.cpp:150] Setting up conv1_1
I0305 10:55:17.617699 25537 net.cpp:157] Top shape: 8 64 300 300 (46080000)
I0305 10:55:17.617722 25537 net.cpp:165] Memory required for data: 253440128
I0305 10:55:17.617758 25537 layer_factory.hpp:77] Creating layer relu1_1
I0305 10:55:17.617797 25537 net.cpp:100] Creating Layer relu1_1
I0305 10:55:17.617831 25537 net.cpp:434] relu1_1 <- conv1_1
I0305 10:55:17.617869 25537 net.cpp:395] relu1_1 -> conv1_1 (in-place)
I0305 10:55:17.618147 25537 net.cpp:150] Setting up relu1_1
I0305 10:55:17.618176 25537 net.cpp:157] Top shape: 8 64 300 300 (46080000)
I0305 10:55:17.618196 25537 net.cpp:165] Memory required for data: 437760128
I0305 10:55:17.618217 25537 layer_factory.hpp:77] Creating layer conv1_2
I0305 10:55:17.618250 25537 net.cpp:100] Creating Layer conv1_2
I0305 10:55:17.618273 25537 net.cpp:434] conv1_2 <- conv1_1
I0305 10:55:17.618296 25537 net.cpp:408] conv1_2 -> conv1_2
I0305 10:55:17.620841 25537 net.cpp:150] Setting up conv1_2
I0305 10:55:17.620906 25537 net.cpp:157] Top shape: 8 64 300 300 (46080000)
I0305 10:55:17.620929 25537 net.cpp:165] Memory required for data: 622080128
I0305 10:55:17.620962 25537 layer_factory.hpp:77] Creating layer relu1_2
I0305 10:55:17.620991 25537 net.cpp:100] Creating Layer relu1_2
I0305 10:55:17.621013 25537 net.cpp:434] relu1_2 <- conv1_2
I0305 10:55:17.621037 25537 net.cpp:395] relu1_2 -> conv1_2 (in-place)
I0305 10:55:17.621314 25537 net.cpp:150] Setting up relu1_2
I0305 10:55:17.621342 25537 net.cpp:157] Top shape: 8 64 300 300 (46080000)
I0305 10:55:17.621362 25537 net.cpp:165] Memory required for data: 806400128
I0305 10:55:17.621381 25537 layer_factory.hpp:77] Creating layer pool1
I0305 10:55:17.621404 25537 net.cpp:100] Creating Layer pool1
I0305 10:55:17.621425 25537 net.cpp:434] pool1 <- conv1_2
I0305 10:55:17.621448 25537 net.cpp:408] pool1 -> pool1
I0305 10:55:17.621536 25537 net.cpp:150] Setting up pool1
I0305 10:55:17.621560 25537 net.cpp:157] Top shape: 8 64 150 150 (11520000)
I0305 10:55:17.621580 25537 net.cpp:165] Memory required for data: 852480128
I0305 10:55:17.621599 25537 layer_factory.hpp:77] Creating layer conv2_1
I0305 10:55:17.621628 25537 net.cpp:100] Creating Layer conv2_1
I0305 10:55:17.621647 25537 net.cpp:434] conv2_1 <- pool1
I0305 10:55:17.621672 25537 net.cpp:408] conv2_1 -> conv2_1
I0305 10:55:17.624491 25537 net.cpp:150] Setting up conv2_1
I0305 10:55:17.624554 25537 net.cpp:157] Top shape: 8 128 150 150 (23040000)
I0305 10:55:17.624575 25537 net.cpp:165] Memory required for data: 944640128
I0305 10:55:17.624609 25537 layer_factory.hpp:77] Creating layer relu2_1
I0305 10:55:17.624640 25537 net.cpp:100] Creating Layer relu2_1
I0305 10:55:17.624662 25537 net.cpp:434] relu2_1 <- conv2_1
I0305 10:55:17.624702 25537 net.cpp:395] relu2_1 -> conv2_1 (in-place)
I0305 10:55:17.625829 25537 net.cpp:150] Setting up relu2_1
I0305 10:55:17.625865 25537 net.cpp:157] Top shape: 8 128 150 150 (23040000)
I0305 10:55:17.625885 25537 net.cpp:165] Memory required for data: 1036800128
I0305 10:55:17.625905 25537 layer_factory.hpp:77] Creating layer conv2_2
I0305 10:55:17.625936 25537 net.cpp:100] Creating Layer conv2_2
I0305 10:55:17.625958 25537 net.cpp:434] conv2_2 <- conv2_1
I0305 10:55:17.625982 25537 net.cpp:408] conv2_2 -> conv2_2
I0305 10:55:17.630213 25537 net.cpp:150] Setting up conv2_2
I0305 10:55:17.630281 25537 net.cpp:157] Top shape: 8 128 150 150 (23040000)
I0305 10:55:17.630302 25537 net.cpp:165] Memory required for data: 1128960128
I0305 10:55:17.630333 25537 layer_factory.hpp:77] Creating layer relu2_2
I0305 10:55:17.630362 25537 net.cpp:100] Creating Layer relu2_2
I0305 10:55:17.630384 25537 net.cpp:434] relu2_2 <- conv2_2
I0305 10:55:17.630409 25537 net.cpp:395] relu2_2 -> conv2_2 (in-place)
I0305 10:55:17.630697 25537 net.cpp:150] Setting up relu2_2
I0305 10:55:17.630725 25537 net.cpp:157] Top shape: 8 128 150 150 (23040000)
I0305 10:55:17.630746 25537 net.cpp:165] Memory required for data: 1221120128
I0305 10:55:17.630765 25537 layer_factory.hpp:77] Creating layer pool2
I0305 10:55:17.630789 25537 net.cpp:100] Creating Layer pool2
I0305 10:55:17.630810 25537 net.cpp:434] pool2 <- conv2_2
I0305 10:55:17.630832 25537 net.cpp:408] pool2 -> pool2
I0305 10:55:17.630929 25537 net.cpp:150] Setting up pool2
I0305 10:55:17.630955 25537 net.cpp:157] Top shape: 8 128 75 75 (5760000)
I0305 10:55:17.630986 25537 net.cpp:165] Memory required for data: 1244160128
I0305 10:55:17.631018 25537 layer_factory.hpp:77] Creating layer conv3_1
I0305 10:55:17.631048 25537 net.cpp:100] Creating Layer conv3_1
I0305 10:55:17.631069 25537 net.cpp:434] conv3_1 <- pool2
I0305 10:55:17.631093 25537 net.cpp:408] conv3_1 -> conv3_1
I0305 10:55:17.637946 25537 net.cpp:150] Setting up conv3_1
I0305 10:55:17.638017 25537 net.cpp:157] Top shape: 8 256 75 75 (11520000)
I0305 10:55:17.638041 25537 net.cpp:165] Memory required for data: 1290240128
I0305 10:55:17.638078 25537 layer_factory.hpp:77] Creating layer relu3_1
I0305 10:55:17.638109 25537 net.cpp:100] Creating Layer relu3_1
I0305 10:55:17.638131 25537 net.cpp:434] relu3_1 <- conv3_1
I0305 10:55:17.638155 25537 net.cpp:395] relu3_1 -> conv3_1 (in-place)
I0305 10:55:17.638454 25537 net.cpp:150] Setting up relu3_1
I0305 10:55:17.638484 25537 net.cpp:157] Top shape: 8 256 75 75 (11520000)
I0305 10:55:17.638504 25537 net.cpp:165] Memory required for data: 1336320128
I0305 10:55:17.638522 25537 layer_factory.hpp:77] Creating layer conv3_2
I0305 10:55:17.638552 25537 net.cpp:100] Creating Layer conv3_2
I0305 10:55:17.638574 25537 net.cpp:434] conv3_2 <- conv3_1
I0305 10:55:17.638609 25537 net.cpp:408] conv3_2 -> conv3_2
I0305 10:55:17.648669 25537 net.cpp:150] Setting up conv3_2
I0305 10:55:17.648826 25537 net.cpp:157] Top shape: 8 256 75 75 (11520000)
I0305 10:55:17.648885 25537 net.cpp:165] Memory required for data: 1382400128
I0305 10:55:17.648952 25537 layer_factory.hpp:77] Creating layer relu3_2
I0305 10:55:17.649015 25537 net.cpp:100] Creating Layer relu3_2
I0305 10:55:17.649071 25537 net.cpp:434] relu3_2 <- conv3_2
I0305 10:55:17.649130 25537 net.cpp:395] relu3_2 -> conv3_2 (in-place)
I0305 10:55:17.649526 25537 net.cpp:150] Setting up relu3_2
I0305 10:55:17.649593 25537 net.cpp:157] Top shape: 8 256 75 75 (11520000)
I0305 10:55:17.649649 25537 net.cpp:165] Memory required for data: 1428480128
I0305 10:55:17.649705 25537 layer_factory.hpp:77] Creating layer conv3_3
I0305 10:55:17.649773 25537 net.cpp:100] Creating Layer conv3_3
I0305 10:55:17.649830 25537 net.cpp:434] conv3_3 <- conv3_2
I0305 10:55:17.649889 25537 net.cpp:408] conv3_3 -> conv3_3
I0305 10:55:17.664875 25537 net.cpp:150] Setting up conv3_3
I0305 10:55:17.665069 25537 net.cpp:157] Top shape: 8 256 75 75 (11520000)
I0305 10:55:17.665128 25537 net.cpp:165] Memory required for data: 1474560128
I0305 10:55:17.665195 25537 layer_factory.hpp:77] Creating layer relu3_3
I0305 10:55:17.665261 25537 net.cpp:100] Creating Layer relu3_3
I0305 10:55:17.665321 25537 net.cpp:434] relu3_3 <- conv3_3
I0305 10:55:17.665385 25537 net.cpp:395] relu3_3 -> conv3_3 (in-place)
I0305 10:55:17.666721 25537 net.cpp:150] Setting up relu3_3
I0305 10:55:17.666849 25537 net.cpp:157] Top shape: 8 256 75 75 (11520000)
I0305 10:55:17.666919 25537 net.cpp:165] Memory required for data: 1520640128
I0305 10:55:17.666980 25537 layer_factory.hpp:77] Creating layer pool3
I0305 10:55:17.667043 25537 net.cpp:100] Creating Layer pool3
I0305 10:55:17.667104 25537 net.cpp:434] pool3 <- conv3_3
I0305 10:55:17.667166 25537 net.cpp:408] pool3 -> pool3
I0305 10:55:17.667331 25537 net.cpp:150] Setting up pool3
I0305 10:55:17.667428 25537 net.cpp:157] Top shape: 8 256 38 38 (2957312)
I0305 10:55:17.667482 25537 net.cpp:165] Memory required for data: 1532469376
I0305 10:55:17.667534 25537 layer_factory.hpp:77] Creating layer conv4_1
I0305 10:55:17.667596 25537 net.cpp:100] Creating Layer conv4_1
I0305 10:55:17.667649 25537 net.cpp:434] conv4_1 <- pool3
I0305 10:55:17.667707 25537 net.cpp:408] conv4_1 -> conv4_1
I0305 10:55:17.694707 25537 net.cpp:150] Setting up conv4_1
I0305 10:55:17.694778 25537 net.cpp:157] Top shape: 8 512 38 38 (5914624)
I0305 10:55:17.694802 25537 net.cpp:165] Memory required for data: 1556127872
I0305 10:55:17.694833 25537 layer_factory.hpp:77] Creating layer relu4_1
I0305 10:55:17.694860 25537 net.cpp:100] Creating Layer relu4_1
I0305 10:55:17.694885 25537 net.cpp:434] relu4_1 <- conv4_1
I0305 10:55:17.694907 25537 net.cpp:395] relu4_1 -> conv4_1 (in-place)
I0305 10:55:17.695196 25537 net.cpp:150] Setting up relu4_1
I0305 10:55:17.695236 25537 net.cpp:157] Top shape: 8 512 38 38 (5914624)
I0305 10:55:17.695256 25537 net.cpp:165] Memory required for data: 1579786368
I0305 10:55:17.695276 25537 layer_factory.hpp:77] Creating layer conv4_2
I0305 10:55:17.695308 25537 net.cpp:100] Creating Layer conv4_2
I0305 10:55:17.695329 25537 net.cpp:434] conv4_2 <- conv4_1
I0305 10:55:17.695353 25537 net.cpp:408] conv4_2 -> conv4_2
I0305 10:55:17.721932 25537 net.cpp:150] Setting up conv4_2
I0305 10:55:17.722010 25537 net.cpp:157] Top shape: 8 512 38 38 (5914624)
I0305 10:55:17.722033 25537 net.cpp:165] Memory required for data: 1603444864
I0305 10:55:17.722069 25537 layer_factory.hpp:77] Creating layer relu4_2
I0305 10:55:17.722098 25537 net.cpp:100] Creating Layer relu4_2
I0305 10:55:17.722123 25537 net.cpp:434] relu4_2 <- conv4_2
I0305 10:55:17.722147 25537 net.cpp:395] relu4_2 -> conv4_2 (in-place)
I0305 10:55:17.722450 25537 net.cpp:150] Setting up relu4_2
I0305 10:55:17.722481 25537 net.cpp:157] Top shape: 8 512 38 38 (5914624)
I0305 10:55:17.722501 25537 net.cpp:165] Memory required for data: 1627103360
I0305 10:55:17.722522 25537 layer_factory.hpp:77] Creating layer conv4_3
I0305 10:55:17.722554 25537 net.cpp:100] Creating Layer conv4_3
I0305 10:55:17.722578 25537 net.cpp:434] conv4_3 <- conv4_2
I0305 10:55:17.722604 25537 net.cpp:408] conv4_3 -> conv4_3
I0305 10:55:17.748414 25537 net.cpp:150] Setting up conv4_3
I0305 10:55:17.748489 25537 net.cpp:157] Top shape: 8 512 38 38 (5914624)
I0305 10:55:17.748512 25537 net.cpp:165] Memory required for data: 1650761856
I0305 10:55:17.748543 25537 layer_factory.hpp:77] Creating layer relu4_3
I0305 10:55:17.748571 25537 net.cpp:100] Creating Layer relu4_3
I0305 10:55:17.748592 25537 net.cpp:434] relu4_3 <- conv4_3
I0305 10:55:17.748617 25537 net.cpp:395] relu4_3 -> conv4_3 (in-place)
I0305 10:55:17.749877 25537 net.cpp:150] Setting up relu4_3
I0305 10:55:17.749918 25537 net.cpp:157] Top shape: 8 512 38 38 (5914624)
I0305 10:55:17.749940 25537 net.cpp:165] Memory required for data: 1674420352
I0305 10:55:17.749972 25537 layer_factory.hpp:77] Creating layer conv4_3_relu4_3_0_split
I0305 10:55:17.750000 25537 net.cpp:100] Creating Layer conv4_3_relu4_3_0_split
I0305 10:55:17.750021 25537 net.cpp:434] conv4_3_relu4_3_0_split <- conv4_3
I0305 10:55:17.750046 25537 net.cpp:408] conv4_3_relu4_3_0_split -> conv4_3_relu4_3_0_split_0
I0305 10:55:17.750073 25537 net.cpp:408] conv4_3_relu4_3_0_split -> conv4_3_relu4_3_0_split_1
I0305 10:55:17.750180 25537 net.cpp:150] Setting up conv4_3_relu4_3_0_split
I0305 10:55:17.750205 25537 net.cpp:157] Top shape: 8 512 38 38 (5914624)
I0305 10:55:17.750228 25537 net.cpp:157] Top shape: 8 512 38 38 (5914624)
I0305 10:55:17.750247 25537 net.cpp:165] Memory required for data: 1721737344
I0305 10:55:17.750268 25537 layer_factory.hpp:77] Creating layer pool4
I0305 10:55:17.750293 25537 net.cpp:100] Creating Layer pool4
I0305 10:55:17.750313 25537 net.cpp:434] pool4 <- conv4_3_relu4_3_0_split_0
I0305 10:55:17.750334 25537 net.cpp:408] pool4 -> pool4
I0305 10:55:17.750419 25537 net.cpp:150] Setting up pool4
I0305 10:55:17.750445 25537 net.cpp:157] Top shape: 8 512 19 19 (1478656)
I0305 10:55:17.750464 25537 net.cpp:165] Memory required for data: 1727651968
I0305 10:55:17.750483 25537 layer_factory.hpp:77] Creating layer conv5_1
I0305 10:55:17.750514 25537 net.cpp:100] Creating Layer conv5_1
I0305 10:55:17.750535 25537 net.cpp:434] conv5_1 <- pool4
I0305 10:55:17.750560 25537 net.cpp:408] conv5_1 -> conv5_1
I0305 10:55:17.776720 25537 net.cpp:150] Setting up conv5_1
I0305 10:55:17.776794 25537 net.cpp:157] Top shape: 8 512 19 19 (1478656)
I0305 10:55:17.776818 25537 net.cpp:165] Memory required for data: 1733566592
I0305 10:55:17.776846 25537 layer_factory.hpp:77] Creating layer relu5_1
I0305 10:55:17.776875 25537 net.cpp:100] Creating Layer relu5_1
I0305 10:55:17.776901 25537 net.cpp:434] relu5_1 <- conv5_1
I0305 10:55:17.776924 25537 net.cpp:395] relu5_1 -> conv5_1 (in-place)
I0305 10:55:17.777202 25537 net.cpp:150] Setting up relu5_1
I0305 10:55:17.777247 25537 net.cpp:157] Top shape: 8 512 19 19 (1478656)
I0305 10:55:17.777268 25537 net.cpp:165] Memory required for data: 1739481216
I0305 10:55:17.777289 25537 layer_factory.hpp:77] Creating layer conv5_2
I0305 10:55:17.777320 25537 net.cpp:100] Creating Layer conv5_2
I0305 10:55:17.777343 25537 net.cpp:434] conv5_2 <- conv5_1
I0305 10:55:17.777367 25537 net.cpp:408] conv5_2 -> conv5_2
I0305 10:55:17.803882 25537 net.cpp:150] Setting up conv5_2
I0305 10:55:17.803961 25537 net.cpp:157] Top shape: 8 512 19 19 (1478656)
I0305 10:55:17.803983 25537 net.cpp:165] Memory required for data: 1745395840
I0305 10:55:17.804014 25537 layer_factory.hpp:77] Creating layer relu5_2
I0305 10:55:17.804042 25537 net.cpp:100] Creating Layer relu5_2
I0305 10:55:17.804066 25537 net.cpp:434] relu5_2 <- conv5_2
I0305 10:55:17.804092 25537 net.cpp:395] relu5_2 -> conv5_2 (in-place)
I0305 10:55:17.804391 25537 net.cpp:150] Setting up relu5_2
I0305 10:55:17.804420 25537 net.cpp:157] Top shape: 8 512 19 19 (1478656)
I0305 10:55:17.804440 25537 net.cpp:165] Memory required for data: 1751310464
I0305 10:55:17.804460 25537 layer_factory.hpp:77] Creating layer conv5_3
I0305 10:55:17.804493 25537 net.cpp:100] Creating Layer conv5_3
I0305 10:55:17.804514 25537 net.cpp:434] conv5_3 <- conv5_2
I0305 10:55:17.804541 25537 net.cpp:408] conv5_3 -> conv5_3
I0305 10:55:17.834149 25537 net.cpp:150] Setting up conv5_3
I0305 10:55:17.834328 25537 net.cpp:157] Top shape: 8 512 19 19 (1478656)
I0305 10:55:17.834386 25537 net.cpp:165] Memory required for data: 1757225088
I0305 10:55:17.834450 25537 layer_factory.hpp:77] Creating layer relu5_3
I0305 10:55:17.834523 25537 net.cpp:100] Creating Layer relu5_3
I0305 10:55:17.834583 25537 net.cpp:434] relu5_3 <- conv5_3
I0305 10:55:17.834641 25537 net.cpp:395] relu5_3 -> conv5_3 (in-place)
I0305 10:55:17.835868 25537 net.cpp:150] Setting up relu5_3
I0305 10:55:17.835976 25537 net.cpp:157] Top shape: 8 512 19 19 (1478656)
I0305 10:55:17.836033 25537 net.cpp:165] Memory required for data: 1763139712
I0305 10:55:17.836088 25537 layer_factory.hpp:77] Creating layer pool5
I0305 10:55:17.836150 25537 net.cpp:100] Creating Layer pool5
I0305 10:55:17.836206 25537 net.cpp:434] pool5 <- conv5_3
I0305 10:55:17.836266 25537 net.cpp:408] pool5 -> pool5
I0305 10:55:17.836418 25537 net.cpp:150] Setting up pool5
I0305 10:55:17.836480 25537 net.cpp:157] Top shape: 8 512 19 19 (1478656)
I0305 10:55:17.836534 25537 net.cpp:165] Memory required for data: 1769054336
I0305 10:55:17.836588 25537 layer_factory.hpp:77] Creating layer fc6
I0305 10:55:17.836657 25537 net.cpp:100] Creating Layer fc6
I0305 10:55:17.836735 25537 net.cpp:434] fc6 <- pool5
I0305 10:55:17.836799 25537 net.cpp:408] fc6 -> fc6
I0305 10:55:17.888811 25537 net.cpp:150] Setting up fc6
I0305 10:55:17.889000 25537 net.cpp:157] Top shape: 8 1024 19 19 (2957312)
I0305 10:55:17.889061 25537 net.cpp:165] Memory required for data: 1780883584
I0305 10:55:17.889127 25537 layer_factory.hpp:77] Creating layer relu6
I0305 10:55:17.889191 25537 net.cpp:100] Creating Layer relu6
I0305 10:55:17.889250 25537 net.cpp:434] relu6 <- fc6
I0305 10:55:17.889309 25537 net.cpp:395] relu6 -> fc6 (in-place)
I0305 10:55:17.889722 25537 net.cpp:150] Setting up relu6
I0305 10:55:17.889822 25537 net.cpp:157] Top shape: 8 1024 19 19 (2957312)
I0305 10:55:17.889883 25537 net.cpp:165] Memory required for data: 1792712832
I0305 10:55:17.889937 25537 layer_factory.hpp:77] Creating layer fc7
I0305 10:55:17.890007 25537 net.cpp:100] Creating Layer fc7
I0305 10:55:17.890064 25537 net.cpp:434] fc7 <- fc6
I0305 10:55:17.890130 25537 net.cpp:408] fc7 -> fc7
I0305 10:55:17.908054 25537 net.cpp:150] Setting up fc7
I0305 10:55:17.908241 25537 net.cpp:157] Top shape: 8 1024 19 19 (2957312)
I0305 10:55:17.908303 25537 net.cpp:165] Memory required for data: 1804542080
I0305 10:55:17.908373 25537 layer_factory.hpp:77] Creating layer relu7
I0305 10:55:17.908438 25537 net.cpp:100] Creating Layer relu7
I0305 10:55:17.908499 25537 net.cpp:434] relu7 <- fc7
I0305 10:55:17.908576 25537 net.cpp:395] relu7 -> fc7 (in-place)
I0305 10:55:17.908947 25537 net.cpp:150] Setting up relu7
I0305 10:55:17.909049 25537 net.cpp:157] Top shape: 8 1024 19 19 (2957312)
I0305 10:55:17.909102 25537 net.cpp:165] Memory required for data: 1816371328
I0305 10:55:17.909155 25537 layer_factory.hpp:77] Creating layer fc7_relu7_0_split
I0305 10:55:17.909214 25537 net.cpp:100] Creating Layer fc7_relu7_0_split
I0305 10:55:17.909267 25537 net.cpp:434] fc7_relu7_0_split <- fc7
I0305 10:55:17.909325 25537 net.cpp:408] fc7_relu7_0_split -> fc7_relu7_0_split_0
I0305 10:55:17.909385 25537 net.cpp:408] fc7_relu7_0_split -> fc7_relu7_0_split_1
I0305 10:55:17.909453 25537 net.cpp:408] fc7_relu7_0_split -> fc7_relu7_0_split_2
I0305 10:55:17.909513 25537 net.cpp:408] fc7_relu7_0_split -> fc7_relu7_0_split_3
I0305 10:55:17.909700 25537 net.cpp:150] Setting up fc7_relu7_0_split
I0305 10:55:17.909763 25537 net.cpp:157] Top shape: 8 1024 19 19 (2957312)
I0305 10:55:17.909819 25537 net.cpp:157] Top shape: 8 1024 19 19 (2957312)
I0305 10:55:17.909873 25537 net.cpp:157] Top shape: 8 1024 19 19 (2957312)
I0305 10:55:17.909926 25537 net.cpp:157] Top shape: 8 1024 19 19 (2957312)
I0305 10:55:17.909978 25537 net.cpp:165] Memory required for data: 1863688320
I0305 10:55:17.910029 25537 layer_factory.hpp:77] Creating layer conv6_1
I0305 10:55:17.910095 25537 net.cpp:100] Creating Layer conv6_1
I0305 10:55:17.910149 25537 net.cpp:434] conv6_1 <- fc7_relu7_0_split_0
I0305 10:55:17.910207 25537 net.cpp:408] conv6_1 -> conv6_1
I0305 10:55:17.924639 25537 net.cpp:150] Setting up conv6_1
I0305 10:55:17.924737 25537 net.cpp:157] Top shape: 8 256 19 19 (739328)
I0305 10:55:17.924760 25537 net.cpp:165] Memory required for data: 1866645632
I0305 10:55:17.924793 25537 layer_factory.hpp:77] Creating layer conv6_1_relu
I0305 10:55:17.924820 25537 net.cpp:100] Creating Layer conv6_1_relu
I0305 10:55:17.924844 25537 net.cpp:434] conv6_1_relu <- conv6_1
I0305 10:55:17.924872 25537 net.cpp:395] conv6_1_relu -> conv6_1 (in-place)
I0305 10:55:17.925163 25537 net.cpp:150] Setting up conv6_1_relu
I0305 10:55:17.925192 25537 net.cpp:157] Top shape: 8 256 19 19 (739328)
I0305 10:55:17.925212 25537 net.cpp:165] Memory required for data: 1869602944
I0305 10:55:17.925231 25537 layer_factory.hpp:77] Creating layer conv6_2
I0305 10:55:17.925264 25537 net.cpp:100] Creating Layer conv6_2
I0305 10:55:17.925285 25537 net.cpp:434] conv6_2 <- conv6_1
I0305 10:55:17.925312 25537 net.cpp:408] conv6_2 -> conv6_2
I0305 10:55:17.940392 25537 net.cpp:150] Setting up conv6_2
I0305 10:55:17.940462 25537 net.cpp:157] Top shape: 8 512 10 10 (409600)
I0305 10:55:17.940485 25537 net.cpp:165] Memory required for data: 1871241344
I0305 10:55:17.940524 25537 layer_factory.hpp:77] Creating layer conv6_2_relu
I0305 10:55:17.940555 25537 net.cpp:100] Creating Layer conv6_2_relu
I0305 10:55:17.940579 25537 net.cpp:434] conv6_2_relu <- conv6_2
I0305 10:55:17.940603 25537 net.cpp:395] conv6_2_relu -> conv6_2 (in-place)
I0305 10:55:17.941826 25537 net.cpp:150] Setting up conv6_2_relu
I0305 10:55:17.941866 25537 net.cpp:157] Top shape: 8 512 10 10 (409600)
I0305 10:55:17.941889 25537 net.cpp:165] Memory required for data: 1872879744
I0305 10:55:17.941910 25537 layer_factory.hpp:77] Creating layer conv6_2_conv6_2_relu_0_split
I0305 10:55:17.941937 25537 net.cpp:100] Creating Layer conv6_2_conv6_2_relu_0_split
I0305 10:55:17.941959 25537 net.cpp:434] conv6_2_conv6_2_relu_0_split <- conv6_2
I0305 10:55:17.941984 25537 net.cpp:408] conv6_2_conv6_2_relu_0_split -> conv6_2_conv6_2_relu_0_split_0
I0305 10:55:17.942015 25537 net.cpp:408] conv6_2_conv6_2_relu_0_split -> conv6_2_conv6_2_relu_0_split_1
I0305 10:55:17.942042 25537 net.cpp:408] conv6_2_conv6_2_relu_0_split -> conv6_2_conv6_2_relu_0_split_2
I0305 10:55:17.942067 25537 net.cpp:408] conv6_2_conv6_2_relu_0_split -> conv6_2_conv6_2_relu_0_split_3
I0305 10:55:17.942246 25537 net.cpp:150] Setting up conv6_2_conv6_2_relu_0_split
I0305 10:55:17.942272 25537 net.cpp:157] Top shape: 8 512 10 10 (409600)
I0305 10:55:17.942293 25537 net.cpp:157] Top shape: 8 512 10 10 (409600)
I0305 10:55:17.942330 25537 net.cpp:157] Top shape: 8 512 10 10 (409600)
I0305 10:55:17.942363 25537 net.cpp:157] Top shape: 8 512 10 10 (409600)
I0305 10:55:17.942382 25537 net.cpp:165] Memory required for data: 1879433344
I0305 10:55:17.942402 25537 layer_factory.hpp:77] Creating layer conv7_1
I0305 10:55:17.942435 25537 net.cpp:100] Creating Layer conv7_1
I0305 10:55:17.942457 25537 net.cpp:434] conv7_1 <- conv6_2_conv6_2_relu_0_split_0
I0305 10:55:17.942481 25537 net.cpp:408] conv7_1 -> conv7_1
I0305 10:55:17.945430 25537 net.cpp:150] Setting up conv7_1
I0305 10:55:17.945497 25537 net.cpp:157] Top shape: 8 128 10 10 (102400)
I0305 10:55:17.945520 25537 net.cpp:165] Memory required for data: 1879842944
I0305 10:55:17.945549 25537 layer_factory.hpp:77] Creating layer conv7_1_relu
I0305 10:55:17.945577 25537 net.cpp:100] Creating Layer conv7_1_relu
I0305 10:55:17.945600 25537 net.cpp:434] conv7_1_relu <- conv7_1
I0305 10:55:17.945627 25537 net.cpp:395] conv7_1_relu -> conv7_1 (in-place)
I0305 10:55:17.945914 25537 net.cpp:150] Setting up conv7_1_relu
I0305 10:55:17.945946 25537 net.cpp:157] Top shape: 8 128 10 10 (102400)
I0305 10:55:17.945968 25537 net.cpp:165] Memory required for data: 1880252544
I0305 10:55:17.945989 25537 layer_factory.hpp:77] Creating layer conv7_2
I0305 10:55:17.946022 25537 net.cpp:100] Creating Layer conv7_2
I0305 10:55:17.946044 25537 net.cpp:434] conv7_2 <- conv7_1
I0305 10:55:17.946069 25537 net.cpp:408] conv7_2 -> conv7_2
I0305 10:55:17.952244 25537 net.cpp:150] Setting up conv7_2
I0305 10:55:17.952311 25537 net.cpp:157] Top shape: 8 256 5 5 (51200)
I0305 10:55:17.952332 25537 net.cpp:165] Memory required for data: 1880457344
I0305 10:55:17.952358 25537 layer_factory.hpp:77] Creating layer conv7_2_relu
I0305 10:55:17.952388 25537 net.cpp:100] Creating Layer conv7_2_relu
I0305 10:55:17.952410 25537 net.cpp:434] conv7_2_relu <- conv7_2
I0305 10:55:17.952437 25537 net.cpp:395] conv7_2_relu -> conv7_2 (in-place)
I0305 10:55:17.952739 25537 net.cpp:150] Setting up conv7_2_relu
I0305 10:55:17.952771 25537 net.cpp:157] Top shape: 8 256 5 5 (51200)
I0305 10:55:17.952790 25537 net.cpp:165] Memory required for data: 1880662144
I0305 10:55:17.952807 25537 layer_factory.hpp:77] Creating layer conv7_2_conv7_2_relu_0_split
I0305 10:55:17.952827 25537 net.cpp:100] Creating Layer conv7_2_conv7_2_relu_0_split
I0305 10:55:17.952844 25537 net.cpp:434] conv7_2_conv7_2_relu_0_split <- conv7_2
I0305 10:55:17.952865 25537 net.cpp:408] conv7_2_conv7_2_relu_0_split -> conv7_2_conv7_2_relu_0_split_0
I0305 10:55:17.952886 25537 net.cpp:408] conv7_2_conv7_2_relu_0_split -> conv7_2_conv7_2_relu_0_split_1
I0305 10:55:17.952908 25537 net.cpp:408] conv7_2_conv7_2_relu_0_split -> conv7_2_conv7_2_relu_0_split_2
I0305 10:55:17.952926 25537 net.cpp:408] conv7_2_conv7_2_relu_0_split -> conv7_2_conv7_2_relu_0_split_3
I0305 10:55:17.953068 25537 net.cpp:150] Setting up conv7_2_conv7_2_relu_0_split
I0305 10:55:17.953091 25537 net.cpp:157] Top shape: 8 256 5 5 (51200)
I0305 10:55:17.953109 25537 net.cpp:157] Top shape: 8 256 5 5 (51200)
I0305 10:55:17.953125 25537 net.cpp:157] Top shape: 8 256 5 5 (51200)
I0305 10:55:17.953141 25537 net.cpp:157] Top shape: 8 256 5 5 (51200)
I0305 10:55:17.953156 25537 net.cpp:165] Memory required for data: 1881481344
I0305 10:55:17.953172 25537 layer_factory.hpp:77] Creating layer conv8_1
I0305 10:55:17.953203 25537 net.cpp:100] Creating Layer conv8_1
I0305 10:55:17.953223 25537 net.cpp:434] conv8_1 <- conv7_2_conv7_2_relu_0_split_0
I0305 10:55:17.953248 25537 net.cpp:408] conv8_1 -> conv8_1
I0305 10:55:17.955770 25537 net.cpp:150] Setting up conv8_1
I0305 10:55:17.955816 25537 net.cpp:157] Top shape: 8 128 5 5 (25600)
I0305 10:55:17.955834 25537 net.cpp:165] Memory required for data: 1881583744
I0305 10:55:17.955858 25537 layer_factory.hpp:77] Creating layer conv8_1_relu
I0305 10:55:17.955881 25537 net.cpp:100] Creating Layer conv8_1_relu
I0305 10:55:17.955901 25537 net.cpp:434] conv8_1_relu <- conv8_1
I0305 10:55:17.955924 25537 net.cpp:395] conv8_1_relu -> conv8_1 (in-place)
I0305 10:55:17.957118 25537 net.cpp:150] Setting up conv8_1_relu
I0305 10:55:17.957170 25537 net.cpp:157] Top shape: 8 128 5 5 (25600)
I0305 10:55:17.957190 25537 net.cpp:165] Memory required for data: 1881686144
I0305 10:55:17.957209 25537 layer_factory.hpp:77] Creating layer conv8_2
I0305 10:55:17.957242 25537 net.cpp:100] Creating Layer conv8_2
I0305 10:55:17.957263 25537 net.cpp:434] conv8_2 <- conv8_1
I0305 10:55:17.957291 25537 net.cpp:408] conv8_2 -> conv8_2
I0305 10:55:17.964272 25537 net.cpp:150] Setting up conv8_2
I0305 10:55:17.964354 25537 net.cpp:157] Top shape: 8 256 3 3 (18432)
I0305 10:55:17.964375 25537 net.cpp:165] Memory required for data: 1881759872
I0305 10:55:17.964406 25537 layer_factory.hpp:77] Creating layer conv8_2_relu
I0305 10:55:17.964435 25537 net.cpp:100] Creating Layer conv8_2_relu
I0305 10:55:17.964457 25537 net.cpp:434] conv8_2_relu <- conv8_2
I0305 10:55:17.964479 25537 net.cpp:395] conv8_2_relu -> conv8_2 (in-place)
I0305 10:55:17.964808 25537 net.cpp:150] Setting up conv8_2_relu
I0305 10:55:17.964839 25537 net.cpp:157] Top shape: 8 256 3 3 (18432)
I0305 10:55:17.964859 25537 net.cpp:165] Memory required for data: 1881833600
I0305 10:55:17.964877 25537 layer_factory.hpp:77] Creating layer conv8_2_conv8_2_relu_0_split
I0305 10:55:17.964901 25537 net.cpp:100] Creating Layer conv8_2_conv8_2_relu_0_split
I0305 10:55:17.964921 25537 net.cpp:434] conv8_2_conv8_2_relu_0_split <- conv8_2
I0305 10:55:17.964944 25537 net.cpp:408] conv8_2_conv8_2_relu_0_split -> conv8_2_conv8_2_relu_0_split_0
I0305 10:55:17.964972 25537 net.cpp:408] conv8_2_conv8_2_relu_0_split -> conv8_2_conv8_2_relu_0_split_1
I0305 10:55:17.964999 25537 net.cpp:408] conv8_2_conv8_2_relu_0_split -> conv8_2_conv8_2_relu_0_split_2
I0305 10:55:17.965023 25537 net.cpp:408] conv8_2_conv8_2_relu_0_split -> conv8_2_conv8_2_relu_0_split_3
I0305 10:55:17.965183 25537 net.cpp:150] Setting up conv8_2_conv8_2_relu_0_split
I0305 10:55:17.965257 25537 net.cpp:157] Top shape: 8 256 3 3 (18432)
I0305 10:55:17.965317 25537 net.cpp:157] Top shape: 8 256 3 3 (18432)
I0305 10:55:17.965373 25537 net.cpp:157] Top shape: 8 256 3 3 (18432)
I0305 10:55:17.965427 25537 net.cpp:157] Top shape: 8 256 3 3 (18432)
I0305 10:55:17.965481 25537 net.cpp:165] Memory required for data: 1882128512
I0305 10:55:17.965535 25537 layer_factory.hpp:77] Creating layer conv9_1
I0305 10:55:17.965603 25537 net.cpp:100] Creating Layer conv9_1
I0305 10:55:17.965659 25537 net.cpp:434] conv9_1 <- conv8_2_conv8_2_relu_0_split_0
I0305 10:55:17.965721 25537 net.cpp:408] conv9_1 -> conv9_1
I0305 10:55:17.969832 25537 net.cpp:150] Setting up conv9_1
I0305 10:55:17.970001 25537 net.cpp:157] Top shape: 8 128 3 3 (9216)
I0305 10:55:17.970058 25537 net.cpp:165] Memory required for data: 1882165376
I0305 10:55:17.970121 25537 layer_factory.hpp:77] Creating layer conv9_1_relu
I0305 10:55:17.970190 25537 net.cpp:100] Creating Layer conv9_1_relu
I0305 10:55:17.970247 25537 net.cpp:434] conv9_1_relu <- conv9_1
I0305 10:55:17.970305 25537 net.cpp:395] conv9_1_relu -> conv9_1 (in-place)
I0305 10:55:17.970629 25537 net.cpp:150] Setting up conv9_1_relu
I0305 10:55:17.970726 25537 net.cpp:157] Top shape: 8 128 3 3 (9216)
I0305 10:55:17.970780 25537 net.cpp:165] Memory required for data: 1882202240
I0305 10:55:17.970834 25537 layer_factory.hpp:77] Creating layer conv9_2
I0305 10:55:17.970901 25537 net.cpp:100] Creating Layer conv9_2
I0305 10:55:17.970958 25537 net.cpp:434] conv9_2 <- conv9_1
I0305 10:55:17.971017 25537 net.cpp:408] conv9_2 -> conv9_2
I0305 10:55:17.977993 25537 net.cpp:150] Setting up conv9_2
I0305 10:55:17.978152 25537 net.cpp:157] Top shape: 8 256 1 1 (2048)
I0305 10:55:17.978204 25537 net.cpp:165] Memory required for data: 1882210432
I0305 10:55:17.978262 25537 layer_factory.hpp:77] Creating layer conv9_2_relu
I0305 10:55:17.978319 25537 net.cpp:100] Creating Layer conv9_2_relu
I0305 10:55:17.978377 25537 net.cpp:434] conv9_2_relu <- conv9_2
I0305 10:55:17.978440 25537 net.cpp:395] conv9_2_relu -> conv9_2 (in-place)
I0305 10:55:17.979605 25537 net.cpp:150] Setting up conv9_2_relu
I0305 10:55:17.979719 25537 net.cpp:157] Top shape: 8 256 1 1 (2048)
I0305 10:55:17.979785 25537 net.cpp:165] Memory required for data: 1882218624
I0305 10:55:17.979841 25537 layer_factory.hpp:77] Creating layer conv9_2_conv9_2_relu_0_split
I0305 10:55:17.979898 25537 net.cpp:100] Creating Layer conv9_2_conv9_2_relu_0_split
I0305 10:55:17.979954 25537 net.cpp:434] conv9_2_conv9_2_relu_0_split <- conv9_2
I0305 10:55:17.980015 25537 net.cpp:408] conv9_2_conv9_2_relu_0_split -> conv9_2_conv9_2_relu_0_split_0
I0305 10:55:17.980078 25537 net.cpp:408] conv9_2_conv9_2_relu_0_split -> conv9_2_conv9_2_relu_0_split_1
I0305 10:55:17.980140 25537 net.cpp:408] conv9_2_conv9_2_relu_0_split -> conv9_2_conv9_2_relu_0_split_2
I0305 10:55:17.980302 25537 net.cpp:150] Setting up conv9_2_conv9_2_relu_0_split
I0305 10:55:17.980362 25537 net.cpp:157] Top shape: 8 256 1 1 (2048)
I0305 10:55:17.980419 25537 net.cpp:157] Top shape: 8 256 1 1 (2048)
I0305 10:55:17.980473 25537 net.cpp:157] Top shape: 8 256 1 1 (2048)
I0305 10:55:17.980525 25537 net.cpp:165] Memory required for data: 1882243200
I0305 10:55:17.980578 25537 layer_factory.hpp:77] Creating layer conv4_3_norm
I0305 10:55:17.980640 25537 net.cpp:100] Creating Layer conv4_3_norm
I0305 10:55:17.980717 25537 net.cpp:434] conv4_3_norm <- conv4_3_relu4_3_0_split_1
I0305 10:55:17.980779 25537 net.cpp:408] conv4_3_norm -> conv4_3_norm
I0305 10:55:17.981146 25537 net.cpp:150] Setting up conv4_3_norm
I0305 10:55:17.981240 25537 net.cpp:157] Top shape: 8 512 38 38 (5914624)
I0305 10:55:17.981293 25537 net.cpp:165] Memory required for data: 1905901696
I0305 10:55:17.981351 25537 layer_factory.hpp:77] Creating layer conv4_3_norm_conv4_3_norm_0_split
I0305 10:55:17.981408 25537 net.cpp:100] Creating Layer conv4_3_norm_conv4_3_norm_0_split
I0305 10:55:17.981464 25537 net.cpp:434] conv4_3_norm_conv4_3_norm_0_split <- conv4_3_norm
I0305 10:55:17.981521 25537 net.cpp:408] conv4_3_norm_conv4_3_norm_0_split -> conv4_3_norm_conv4_3_norm_0_split_0
I0305 10:55:17.981582 25537 net.cpp:408] conv4_3_norm_conv4_3_norm_0_split -> conv4_3_norm_conv4_3_norm_0_split_1
I0305 10:55:17.981645 25537 net.cpp:408] conv4_3_norm_conv4_3_norm_0_split -> conv4_3_norm_conv4_3_norm_0_split_2
I0305 10:55:17.981797 25537 net.cpp:150] Setting up conv4_3_norm_conv4_3_norm_0_split
I0305 10:55:17.981858 25537 net.cpp:157] Top shape: 8 512 38 38 (5914624)
I0305 10:55:17.981912 25537 net.cpp:157] Top shape: 8 512 38 38 (5914624)
I0305 10:55:17.981967 25537 net.cpp:157] Top shape: 8 512 38 38 (5914624)
I0305 10:55:17.982020 25537 net.cpp:165] Memory required for data: 1976877184
I0305 10:55:17.982072 25537 layer_factory.hpp:77] Creating layer conv4_3_norm_mbox_loc
I0305 10:55:17.982136 25537 net.cpp:100] Creating Layer conv4_3_norm_mbox_loc
I0305 10:55:17.982190 25537 net.cpp:434] conv4_3_norm_mbox_loc <- conv4_3_norm_conv4_3_norm_0_split_0
I0305 10:55:17.982254 25537 net.cpp:408] conv4_3_norm_mbox_loc -> conv4_3_norm_mbox_loc
I0305 10:55:17.990836 25537 net.cpp:150] Setting up conv4_3_norm_mbox_loc
I0305 10:55:17.993571 25537 net.cpp:157] Top shape: 8 16 38 38 (184832)
I0305 10:55:17.993651 25537 net.cpp:165] Memory required for data: 1977616512
I0305 10:55:17.993723 25537 layer_factory.hpp:77] Creating layer conv4_3_norm_mbox_loc_perm
I0305 10:55:17.993790 25537 net.cpp:100] Creating Layer conv4_3_norm_mbox_loc_perm
I0305 10:55:17.993850 25537 net.cpp:434] conv4_3_norm_mbox_loc_perm <- conv4_3_norm_mbox_loc
I0305 10:55:17.993919 25537 net.cpp:408] conv4_3_norm_mbox_loc_perm -> conv4_3_norm_mbox_loc_perm
I0305 10:55:17.994261 25537 net.cpp:150] Setting up conv4_3_norm_mbox_loc_perm
I0305 10:55:17.994333 25537 net.cpp:157] Top shape: 8 38 38 16 (184832)
I0305 10:55:17.994388 25537 net.cpp:165] Memory required for data: 1978355840
I0305 10:55:17.994443 25537 layer_factory.hpp:77] Creating layer conv4_3_norm_mbox_loc_flat
I0305 10:55:17.994504 25537 net.cpp:100] Creating Layer conv4_3_norm_mbox_loc_flat
I0305 10:55:17.994560 25537 net.cpp:434] conv4_3_norm_mbox_loc_flat <- conv4_3_norm_mbox_loc_perm
I0305 10:55:17.994623 25537 net.cpp:408] conv4_3_norm_mbox_loc_flat -> conv4_3_norm_mbox_loc_flat
I0305 10:55:17.994765 25537 net.cpp:150] Setting up conv4_3_norm_mbox_loc_flat
I0305 10:55:17.994829 25537 net.cpp:157] Top shape: 8 23104 (184832)
I0305 10:55:17.994882 25537 net.cpp:165] Memory required for data: 1979095168
I0305 10:55:17.994936 25537 layer_factory.hpp:77] Creating layer conv4_3_norm_mbox_conf
I0305 10:55:17.995010 25537 net.cpp:100] Creating Layer conv4_3_norm_mbox_conf
I0305 10:55:17.995066 25537 net.cpp:434] conv4_3_norm_mbox_conf <- conv4_3_norm_conv4_3_norm_0_split_1
I0305 10:55:17.995127 25537 net.cpp:408] conv4_3_norm_mbox_conf -> conv4_3_norm_mbox_conf
I0305 10:55:18.000191 25537 net.cpp:150] Setting up conv4_3_norm_mbox_conf
I0305 10:55:18.000360 25537 net.cpp:157] Top shape: 8 44 38 38 (508288)
I0305 10:55:18.000418 25537 net.cpp:165] Memory required for data: 1981128320
I0305 10:55:18.000480 25537 layer_factory.hpp:77] Creating layer conv4_3_norm_mbox_conf_perm
I0305 10:55:18.000541 25537 net.cpp:100] Creating Layer conv4_3_norm_mbox_conf_perm
I0305 10:55:18.000597 25537 net.cpp:434] conv4_3_norm_mbox_conf_perm <- conv4_3_norm_mbox_conf
I0305 10:55:18.000663 25537 net.cpp:408] conv4_3_norm_mbox_conf_perm -> conv4_3_norm_mbox_conf_perm
I0305 10:55:18.000963 25537 net.cpp:150] Setting up conv4_3_norm_mbox_conf_perm
I0305 10:55:18.001060 25537 net.cpp:157] Top shape: 8 38 38 44 (508288)
I0305 10:55:18.001116 25537 net.cpp:165] Memory required for data: 1983161472
I0305 10:55:18.001174 25537 layer_factory.hpp:77] Creating layer conv4_3_norm_mbox_conf_flat
I0305 10:55:18.001235 25537 net.cpp:100] Creating Layer conv4_3_norm_mbox_conf_flat
I0305 10:55:18.001292 25537 net.cpp:434] conv4_3_norm_mbox_conf_flat <- conv4_3_norm_mbox_conf_perm
I0305 10:55:18.001360 25537 net.cpp:408] conv4_3_norm_mbox_conf_flat -> conv4_3_norm_mbox_conf_flat
I0305 10:55:18.001469 25537 net.cpp:150] Setting up conv4_3_norm_mbox_conf_flat
I0305 10:55:18.001533 25537 net.cpp:157] Top shape: 8 63536 (508288)
I0305 10:55:18.001588 25537 net.cpp:165] Memory required for data: 1985194624
I0305 10:55:18.001644 25537 layer_factory.hpp:77] Creating layer conv4_3_norm_mbox_priorbox
I0305 10:55:18.001708 25537 net.cpp:100] Creating Layer conv4_3_norm_mbox_priorbox
I0305 10:55:18.001765 25537 net.cpp:434] conv4_3_norm_mbox_priorbox <- conv4_3_norm_conv4_3_norm_0_split_2
I0305 10:55:18.001824 25537 net.cpp:434] conv4_3_norm_mbox_priorbox <- data_data_0_split_1
I0305 10:55:18.001891 25537 net.cpp:408] conv4_3_norm_mbox_priorbox -> conv4_3_norm_mbox_priorbox
I0305 10:55:18.002007 25537 net.cpp:150] Setting up conv4_3_norm_mbox_priorbox
I0305 10:55:18.002065 25537 net.cpp:157] Top shape: 1 2 23104 (46208)
I0305 10:55:18.002117 25537 net.cpp:165] Memory required for data: 1985379456
I0305 10:55:18.002169 25537 layer_factory.hpp:77] Creating layer fc7_mbox_loc
I0305 10:55:18.002234 25537 net.cpp:100] Creating Layer fc7_mbox_loc
I0305 10:55:18.002290 25537 net.cpp:434] fc7_mbox_loc <- fc7_relu7_0_split_1
I0305 10:55:18.002348 25537 net.cpp:408] fc7_mbox_loc -> fc7_mbox_loc
I0305 10:55:18.007688 25537 net.cpp:150] Setting up fc7_mbox_loc
I0305 10:55:18.007865 25537 net.cpp:157] Top shape: 8 24 19 19 (69312)
I0305 10:55:18.007922 25537 net.cpp:165] Memory required for data: 1985656704
I0305 10:55:18.007987 25537 layer_factory.hpp:77] Creating layer fc7_mbox_loc_perm
I0305 10:55:18.008057 25537 net.cpp:100] Creating Layer fc7_mbox_loc_perm
I0305 10:55:18.008119 25537 net.cpp:434] fc7_mbox_loc_perm <- fc7_mbox_loc
I0305 10:55:18.008186 25537 net.cpp:408] fc7_mbox_loc_perm -> fc7_mbox_loc_perm
I0305 10:55:18.008488 25537 net.cpp:150] Setting up fc7_mbox_loc_perm
I0305 10:55:18.008586 25537 net.cpp:157] Top shape: 8 19 19 24 (69312)
I0305 10:55:18.008646 25537 net.cpp:165] Memory required for data: 1985933952
I0305 10:55:18.008728 25537 layer_factory.hpp:77] Creating layer fc7_mbox_loc_flat
I0305 10:55:18.008790 25537 net.cpp:100] Creating Layer fc7_mbox_loc_flat
I0305 10:55:18.008848 25537 net.cpp:434] fc7_mbox_loc_flat <- fc7_mbox_loc_perm
I0305 10:55:18.008908 25537 net.cpp:408] fc7_mbox_loc_flat -> fc7_mbox_loc_flat
I0305 10:55:18.009034 25537 net.cpp:150] Setting up fc7_mbox_loc_flat
I0305 10:55:18.009093 25537 net.cpp:157] Top shape: 8 8664 (69312)
I0305 10:55:18.009145 25537 net.cpp:165] Memory required for data: 1986211200
I0305 10:55:18.009198 25537 layer_factory.hpp:77] Creating layer fc7_mbox_conf
I0305 10:55:18.009265 25537 net.cpp:100] Creating Layer fc7_mbox_conf
I0305 10:55:18.009320 25537 net.cpp:434] fc7_mbox_conf <- fc7_relu7_0_split_2
I0305 10:55:18.009375 25537 net.cpp:408] fc7_mbox_conf -> fc7_mbox_conf
I0305 10:55:18.019328 25537 net.cpp:150] Setting up fc7_mbox_conf
I0305 10:55:18.019402 25537 net.cpp:157] Top shape: 8 66 19 19 (190608)
I0305 10:55:18.019423 25537 net.cpp:165] Memory required for data: 1986973632
I0305 10:55:18.019450 25537 layer_factory.hpp:77] Creating layer fc7_mbox_conf_perm
I0305 10:55:18.019479 25537 net.cpp:100] Creating Layer fc7_mbox_conf_perm
I0305 10:55:18.019501 25537 net.cpp:434] fc7_mbox_conf_perm <- fc7_mbox_conf
I0305 10:55:18.019528 25537 net.cpp:408] fc7_mbox_conf_perm -> fc7_mbox_conf_perm
I0305 10:55:18.019790 25537 net.cpp:150] Setting up fc7_mbox_conf_perm
I0305 10:55:18.019819 25537 net.cpp:157] Top shape: 8 19 19 66 (190608)
I0305 10:55:18.019839 25537 net.cpp:165] Memory required for data: 1987736064
I0305 10:55:18.019857 25537 layer_factory.hpp:77] Creating layer fc7_mbox_conf_flat
I0305 10:55:18.019881 25537 net.cpp:100] Creating Layer fc7_mbox_conf_flat
I0305 10:55:18.019901 25537 net.cpp:434] fc7_mbox_conf_flat <- fc7_mbox_conf_perm
I0305 10:55:18.019928 25537 net.cpp:408] fc7_mbox_conf_flat -> fc7_mbox_conf_flat
I0305 10:55:18.020001 25537 net.cpp:150] Setting up fc7_mbox_conf_flat
I0305 10:55:18.020027 25537 net.cpp:157] Top shape: 8 23826 (190608)
I0305 10:55:18.020048 25537 net.cpp:165] Memory required for data: 1988498496
I0305 10:55:18.020066 25537 layer_factory.hpp:77] Creating layer fc7_mbox_priorbox
I0305 10:55:18.020089 25537 net.cpp:100] Creating Layer fc7_mbox_priorbox
I0305 10:55:18.020110 25537 net.cpp:434] fc7_mbox_priorbox <- fc7_relu7_0_split_3
I0305 10:55:18.020133 25537 net.cpp:434] fc7_mbox_priorbox <- data_data_0_split_2
I0305 10:55:18.020159 25537 net.cpp:408] fc7_mbox_priorbox -> fc7_mbox_priorbox
I0305 10:55:18.020246 25537 net.cpp:150] Setting up fc7_mbox_priorbox
I0305 10:55:18.020273 25537 net.cpp:157] Top shape: 1 2 8664 (17328)
I0305 10:55:18.020293 25537 net.cpp:165] Memory required for data: 1988567808
I0305 10:55:18.020311 25537 layer_factory.hpp:77] Creating layer conv6_2_mbox_loc
I0305 10:55:18.020344 25537 net.cpp:100] Creating Layer conv6_2_mbox_loc
I0305 10:55:18.020365 25537 net.cpp:434] conv6_2_mbox_loc <- conv6_2_conv6_2_relu_0_split_1
I0305 10:55:18.020390 25537 net.cpp:408] conv6_2_mbox_loc -> conv6_2_mbox_loc
I0305 10:55:18.024614 25537 net.cpp:150] Setting up conv6_2_mbox_loc
I0305 10:55:18.024698 25537 net.cpp:157] Top shape: 8 24 10 10 (19200)
I0305 10:55:18.024724 25537 net.cpp:165] Memory required for data: 1988644608
I0305 10:55:18.024754 25537 layer_factory.hpp:77] Creating layer conv6_2_mbox_loc_perm
I0305 10:55:18.024783 25537 net.cpp:100] Creating Layer conv6_2_mbox_loc_perm
I0305 10:55:18.024806 25537 net.cpp:434] conv6_2_mbox_loc_perm <- conv6_2_mbox_loc
I0305 10:55:18.024833 25537 net.cpp:408] conv6_2_mbox_loc_perm -> conv6_2_mbox_loc_perm
I0305 10:55:18.025079 25537 net.cpp:150] Setting up conv6_2_mbox_loc_perm
I0305 10:55:18.025106 25537 net.cpp:157] Top shape: 8 10 10 24 (19200)
I0305 10:55:18.025125 25537 net.cpp:165] Memory required for data: 1988721408
I0305 10:55:18.025144 25537 layer_factory.hpp:77] Creating layer conv6_2_mbox_loc_flat
I0305 10:55:18.025169 25537 net.cpp:100] Creating Layer conv6_2_mbox_loc_flat
I0305 10:55:18.025189 25537 net.cpp:434] conv6_2_mbox_loc_flat <- conv6_2_mbox_loc_perm
I0305 10:55:18.025214 25537 net.cpp:408] conv6_2_mbox_loc_flat -> conv6_2_mbox_loc_flat
I0305 10:55:18.025277 25537 net.cpp:150] Setting up conv6_2_mbox_loc_flat
I0305 10:55:18.025303 25537 net.cpp:157] Top shape: 8 2400 (19200)
I0305 10:55:18.025322 25537 net.cpp:165] Memory required for data: 1988798208
I0305 10:55:18.025360 25537 layer_factory.hpp:77] Creating layer conv6_2_mbox_conf
I0305 10:55:18.025394 25537 net.cpp:100] Creating Layer conv6_2_mbox_conf
I0305 10:55:18.025418 25537 net.cpp:434] conv6_2_mbox_conf <- conv6_2_conv6_2_relu_0_split_2
I0305 10:55:18.025444 25537 net.cpp:408] conv6_2_mbox_conf -> conv6_2_mbox_conf
I0305 10:55:18.032711 25537 net.cpp:150] Setting up conv6_2_mbox_conf
I0305 10:55:18.032779 25537 net.cpp:157] Top shape: 8 66 10 10 (52800)
I0305 10:55:18.032801 25537 net.cpp:165] Memory required for data: 1989009408
I0305 10:55:18.032831 25537 layer_factory.hpp:77] Creating layer conv6_2_mbox_conf_perm
I0305 10:55:18.032865 25537 net.cpp:100] Creating Layer conv6_2_mbox_conf_perm
I0305 10:55:18.032888 25537 net.cpp:434] conv6_2_mbox_conf_perm <- conv6_2_mbox_conf
I0305 10:55:18.032914 25537 net.cpp:408] conv6_2_mbox_conf_perm -> conv6_2_mbox_conf_perm
I0305 10:55:18.033171 25537 net.cpp:150] Setting up conv6_2_mbox_conf_perm
I0305 10:55:18.033197 25537 net.cpp:157] Top shape: 8 10 10 66 (52800)
I0305 10:55:18.033216 25537 net.cpp:165] Memory required for data: 1989220608
I0305 10:55:18.033237 25537 layer_factory.hpp:77] Creating layer conv6_2_mbox_conf_flat
I0305 10:55:18.033263 25537 net.cpp:100] Creating Layer conv6_2_mbox_conf_flat
I0305 10:55:18.033283 25537 net.cpp:434] conv6_2_mbox_conf_flat <- conv6_2_mbox_conf_perm
I0305 10:55:18.033305 25537 net.cpp:408] conv6_2_mbox_conf_flat -> conv6_2_mbox_conf_flat
I0305 10:55:18.033373 25537 net.cpp:150] Setting up conv6_2_mbox_conf_flat
I0305 10:55:18.033397 25537 net.cpp:157] Top shape: 8 6600 (52800)
I0305 10:55:18.033416 25537 net.cpp:165] Memory required for data: 1989431808
I0305 10:55:18.033435 25537 layer_factory.hpp:77] Creating layer conv6_2_mbox_priorbox
I0305 10:55:18.033463 25537 net.cpp:100] Creating Layer conv6_2_mbox_priorbox
I0305 10:55:18.033485 25537 net.cpp:434] conv6_2_mbox_priorbox <- conv6_2_conv6_2_relu_0_split_3
I0305 10:55:18.033507 25537 net.cpp:434] conv6_2_mbox_priorbox <- data_data_0_split_3
I0305 10:55:18.033530 25537 net.cpp:408] conv6_2_mbox_priorbox -> conv6_2_mbox_priorbox
I0305 10:55:18.033607 25537 net.cpp:150] Setting up conv6_2_mbox_priorbox
I0305 10:55:18.033630 25537 net.cpp:157] Top shape: 1 2 2400 (4800)
I0305 10:55:18.033648 25537 net.cpp:165] Memory required for data: 1989451008
I0305 10:55:18.033668 25537 layer_factory.hpp:77] Creating layer conv7_2_mbox_loc
I0305 10:55:18.033699 25537 net.cpp:100] Creating Layer conv7_2_mbox_loc
I0305 10:55:18.033721 25537 net.cpp:434] conv7_2_mbox_loc <- conv7_2_conv7_2_relu_0_split_1
I0305 10:55:18.033746 25537 net.cpp:408] conv7_2_mbox_loc -> conv7_2_mbox_loc
I0305 10:55:18.036737 25537 net.cpp:150] Setting up conv7_2_mbox_loc
I0305 10:55:18.036801 25537 net.cpp:157] Top shape: 8 24 5 5 (4800)
I0305 10:55:18.036823 25537 net.cpp:165] Memory required for data: 1989470208
I0305 10:55:18.036849 25537 layer_factory.hpp:77] Creating layer conv7_2_mbox_loc_perm
I0305 10:55:18.036880 25537 net.cpp:100] Creating Layer conv7_2_mbox_loc_perm
I0305 10:55:18.036903 25537 net.cpp:434] conv7_2_mbox_loc_perm <- conv7_2_mbox_loc
I0305 10:55:18.036928 25537 net.cpp:408] conv7_2_mbox_loc_perm -> conv7_2_mbox_loc_perm
I0305 10:55:18.037168 25537 net.cpp:150] Setting up conv7_2_mbox_loc_perm
I0305 10:55:18.037194 25537 net.cpp:157] Top shape: 8 5 5 24 (4800)
I0305 10:55:18.037214 25537 net.cpp:165] Memory required for data: 1989489408
I0305 10:55:18.037231 25537 layer_factory.hpp:77] Creating layer conv7_2_mbox_loc_flat
I0305 10:55:18.037256 25537 net.cpp:100] Creating Layer conv7_2_mbox_loc_flat
I0305 10:55:18.037277 25537 net.cpp:434] conv7_2_mbox_loc_flat <- conv7_2_mbox_loc_perm
I0305 10:55:18.037300 25537 net.cpp:408] conv7_2_mbox_loc_flat -> conv7_2_mbox_loc_flat
I0305 10:55:18.037366 25537 net.cpp:150] Setting up conv7_2_mbox_loc_flat
I0305 10:55:18.037391 25537 net.cpp:157] Top shape: 8 600 (4800)
I0305 10:55:18.037410 25537 net.cpp:165] Memory required for data: 1989508608
I0305 10:55:18.037428 25537 layer_factory.hpp:77] Creating layer conv7_2_mbox_conf
I0305 10:55:18.037469 25537 net.cpp:100] Creating Layer conv7_2_mbox_conf
I0305 10:55:18.037501 25537 net.cpp:434] conv7_2_mbox_conf <- conv7_2_conv7_2_relu_0_split_2
I0305 10:55:18.037530 25537 net.cpp:408] conv7_2_mbox_conf -> conv7_2_mbox_conf
I0305 10:55:18.042245 25537 net.cpp:150] Setting up conv7_2_mbox_conf
I0305 10:55:18.042315 25537 net.cpp:157] Top shape: 8 66 5 5 (13200)
I0305 10:55:18.042336 25537 net.cpp:165] Memory required for data: 1989561408
I0305 10:55:18.042366 25537 layer_factory.hpp:77] Creating layer conv7_2_mbox_conf_perm
I0305 10:55:18.042397 25537 net.cpp:100] Creating Layer conv7_2_mbox_conf_perm
I0305 10:55:18.042420 25537 net.cpp:434] conv7_2_mbox_conf_perm <- conv7_2_mbox_conf
I0305 10:55:18.042448 25537 net.cpp:408] conv7_2_mbox_conf_perm -> conv7_2_mbox_conf_perm
I0305 10:55:18.042714 25537 net.cpp:150] Setting up conv7_2_mbox_conf_perm
I0305 10:55:18.042742 25537 net.cpp:157] Top shape: 8 5 5 66 (13200)
I0305 10:55:18.042760 25537 net.cpp:165] Memory required for data: 1989614208
I0305 10:55:18.042779 25537 layer_factory.hpp:77] Creating layer conv7_2_mbox_conf_flat
I0305 10:55:18.042802 25537 net.cpp:100] Creating Layer conv7_2_mbox_conf_flat
I0305 10:55:18.042824 25537 net.cpp:434] conv7_2_mbox_conf_flat <- conv7_2_mbox_conf_perm
I0305 10:55:18.042848 25537 net.cpp:408] conv7_2_mbox_conf_flat -> conv7_2_mbox_conf_flat
I0305 10:55:18.042913 25537 net.cpp:150] Setting up conv7_2_mbox_conf_flat
I0305 10:55:18.042938 25537 net.cpp:157] Top shape: 8 1650 (13200)
I0305 10:55:18.042958 25537 net.cpp:165] Memory required for data: 1989667008
I0305 10:55:18.042984 25537 layer_factory.hpp:77] Creating layer conv7_2_mbox_priorbox
I0305 10:55:18.043010 25537 net.cpp:100] Creating Layer conv7_2_mbox_priorbox
I0305 10:55:18.043031 25537 net.cpp:434] conv7_2_mbox_priorbox <- conv7_2_conv7_2_relu_0_split_3
I0305 10:55:18.043056 25537 net.cpp:434] conv7_2_mbox_priorbox <- data_data_0_split_4
I0305 10:55:18.043081 25537 net.cpp:408] conv7_2_mbox_priorbox -> conv7_2_mbox_priorbox
I0305 10:55:18.043157 25537 net.cpp:150] Setting up conv7_2_mbox_priorbox
I0305 10:55:18.043181 25537 net.cpp:157] Top shape: 1 2 600 (1200)
I0305 10:55:18.043200 25537 net.cpp:165] Memory required for data: 1989671808
I0305 10:55:18.043218 25537 layer_factory.hpp:77] Creating layer conv8_2_mbox_loc
I0305 10:55:18.043252 25537 net.cpp:100] Creating Layer conv8_2_mbox_loc
I0305 10:55:18.043273 25537 net.cpp:434] conv8_2_mbox_loc <- conv8_2_conv8_2_relu_0_split_1
I0305 10:55:18.043301 25537 net.cpp:408] conv8_2_mbox_loc -> conv8_2_mbox_loc
I0305 10:55:18.046188 25537 net.cpp:150] Setting up conv8_2_mbox_loc
I0305 10:55:18.046252 25537 net.cpp:157] Top shape: 8 16 3 3 (1152)
I0305 10:55:18.046273 25537 net.cpp:165] Memory required for data: 1989676416
I0305 10:55:18.046317 25537 layer_factory.hpp:77] Creating layer conv8_2_mbox_loc_perm
I0305 10:55:18.046349 25537 net.cpp:100] Creating Layer conv8_2_mbox_loc_perm
I0305 10:55:18.046371 25537 net.cpp:434] conv8_2_mbox_loc_perm <- conv8_2_mbox_loc
I0305 10:55:18.046398 25537 net.cpp:408] conv8_2_mbox_loc_perm -> conv8_2_mbox_loc_perm
I0305 10:55:18.046634 25537 net.cpp:150] Setting up conv8_2_mbox_loc_perm
I0305 10:55:18.046660 25537 net.cpp:157] Top shape: 8 3 3 16 (1152)
I0305 10:55:18.046679 25537 net.cpp:165] Memory required for data: 1989681024
I0305 10:55:18.046697 25537 layer_factory.hpp:77] Creating layer conv8_2_mbox_loc_flat
I0305 10:55:18.046723 25537 net.cpp:100] Creating Layer conv8_2_mbox_loc_flat
I0305 10:55:18.046744 25537 net.cpp:434] conv8_2_mbox_loc_flat <- conv8_2_mbox_loc_perm
I0305 10:55:18.046766 25537 net.cpp:408] conv8_2_mbox_loc_flat -> conv8_2_mbox_loc_flat
I0305 10:55:18.046831 25537 net.cpp:150] Setting up conv8_2_mbox_loc_flat
I0305 10:55:18.046857 25537 net.cpp:157] Top shape: 8 144 (1152)
I0305 10:55:18.046875 25537 net.cpp:165] Memory required for data: 1989685632
I0305 10:55:18.046895 25537 layer_factory.hpp:77] Creating layer conv8_2_mbox_conf
I0305 10:55:18.046924 25537 net.cpp:100] Creating Layer conv8_2_mbox_conf
I0305 10:55:18.046957 25537 net.cpp:434] conv8_2_mbox_conf <- conv8_2_conv8_2_relu_0_split_2
I0305 10:55:18.046994 25537 net.cpp:408] conv8_2_mbox_conf -> conv8_2_mbox_conf
I0305 10:55:18.051154 25537 net.cpp:150] Setting up conv8_2_mbox_conf
I0305 10:55:18.051223 25537 net.cpp:157] Top shape: 8 44 3 3 (3168)
I0305 10:55:18.051246 25537 net.cpp:165] Memory required for data: 1989698304
I0305 10:55:18.051278 25537 layer_factory.hpp:77] Creating layer conv8_2_mbox_conf_perm
I0305 10:55:18.051308 25537 net.cpp:100] Creating Layer conv8_2_mbox_conf_perm
I0305 10:55:18.051333 25537 net.cpp:434] conv8_2_mbox_conf_perm <- conv8_2_mbox_conf
I0305 10:55:18.051362 25537 net.cpp:408] conv8_2_mbox_conf_perm -> conv8_2_mbox_conf_perm
I0305 10:55:18.051615 25537 net.cpp:150] Setting up conv8_2_mbox_conf_perm
I0305 10:55:18.051641 25537 net.cpp:157] Top shape: 8 3 3 44 (3168)
I0305 10:55:18.051661 25537 net.cpp:165] Memory required for data: 1989710976
I0305 10:55:18.051681 25537 layer_factory.hpp:77] Creating layer conv8_2_mbox_conf_flat
I0305 10:55:18.051705 25537 net.cpp:100] Creating Layer conv8_2_mbox_conf_flat
I0305 10:55:18.051726 25537 net.cpp:434] conv8_2_mbox_conf_flat <- conv8_2_mbox_conf_perm
I0305 10:55:18.051753 25537 net.cpp:408] conv8_2_mbox_conf_flat -> conv8_2_mbox_conf_flat
I0305 10:55:18.051817 25537 net.cpp:150] Setting up conv8_2_mbox_conf_flat
I0305 10:55:18.051842 25537 net.cpp:157] Top shape: 8 396 (3168)
I0305 10:55:18.051861 25537 net.cpp:165] Memory required for data: 1989723648
I0305 10:55:18.051880 25537 layer_factory.hpp:77] Creating layer conv8_2_mbox_priorbox
I0305 10:55:18.051908 25537 net.cpp:100] Creating Layer conv8_2_mbox_priorbox
I0305 10:55:18.051930 25537 net.cpp:434] conv8_2_mbox_priorbox <- conv8_2_conv8_2_relu_0_split_3
I0305 10:55:18.051951 25537 net.cpp:434] conv8_2_mbox_priorbox <- data_data_0_split_5
I0305 10:55:18.051980 25537 net.cpp:408] conv8_2_mbox_priorbox -> conv8_2_mbox_priorbox
I0305 10:55:18.052054 25537 net.cpp:150] Setting up conv8_2_mbox_priorbox
I0305 10:55:18.052079 25537 net.cpp:157] Top shape: 1 2 144 (288)
I0305 10:55:18.052098 25537 net.cpp:165] Memory required for data: 1989724800
I0305 10:55:18.052115 25537 layer_factory.hpp:77] Creating layer conv9_2_mbox_loc
I0305 10:55:18.052155 25537 net.cpp:100] Creating Layer conv9_2_mbox_loc
I0305 10:55:18.052176 25537 net.cpp:434] conv9_2_mbox_loc <- conv9_2_conv9_2_relu_0_split_0
I0305 10:55:18.052199 25537 net.cpp:408] conv9_2_mbox_loc -> conv9_2_mbox_loc
I0305 10:55:18.055862 25537 net.cpp:150] Setting up conv9_2_mbox_loc
I0305 10:55:18.055927 25537 net.cpp:157] Top shape: 8 16 1 1 (128)
I0305 10:55:18.055948 25537 net.cpp:165] Memory required for data: 1989725312
I0305 10:55:18.055977 25537 layer_factory.hpp:77] Creating layer conv9_2_mbox_loc_perm
I0305 10:55:18.056010 25537 net.cpp:100] Creating Layer conv9_2_mbox_loc_perm
I0305 10:55:18.056033 25537 net.cpp:434] conv9_2_mbox_loc_perm <- conv9_2_mbox_loc
I0305 10:55:18.056061 25537 net.cpp:408] conv9_2_mbox_loc_perm -> conv9_2_mbox_loc_perm
I0305 10:55:18.056299 25537 net.cpp:150] Setting up conv9_2_mbox_loc_perm
I0305 10:55:18.056324 25537 net.cpp:157] Top shape: 8 1 1 16 (128)
I0305 10:55:18.056344 25537 net.cpp:165] Memory required for data: 1989725824
I0305 10:55:18.056363 25537 layer_factory.hpp:77] Creating layer conv9_2_mbox_loc_flat
I0305 10:55:18.056388 25537 net.cpp:100] Creating Layer conv9_2_mbox_loc_flat
I0305 10:55:18.056408 25537 net.cpp:434] conv9_2_mbox_loc_flat <- conv9_2_mbox_loc_perm
I0305 10:55:18.056432 25537 net.cpp:408] conv9_2_mbox_loc_flat -> conv9_2_mbox_loc_flat
I0305 10:55:18.056497 25537 net.cpp:150] Setting up conv9_2_mbox_loc_flat
I0305 10:55:18.056521 25537 net.cpp:157] Top shape: 8 16 (128)
I0305 10:55:18.056540 25537 net.cpp:165] Memory required for data: 1989726336
I0305 10:55:18.056560 25537 layer_factory.hpp:77] Creating layer conv9_2_mbox_conf
I0305 10:55:18.056592 25537 net.cpp:100] Creating Layer conv9_2_mbox_conf
I0305 10:55:18.056613 25537 net.cpp:434] conv9_2_mbox_conf <- conv9_2_conv9_2_relu_0_split_1
I0305 10:55:18.056638 25537 net.cpp:408] conv9_2_mbox_conf -> conv9_2_mbox_conf
I0305 10:55:18.060768 25537 net.cpp:150] Setting up conv9_2_mbox_conf
I0305 10:55:18.060880 25537 net.cpp:157] Top shape: 8 44 1 1 (352)
I0305 10:55:18.060938 25537 net.cpp:165] Memory required for data: 1989727744
I0305 10:55:18.061002 25537 layer_factory.hpp:77] Creating layer conv9_2_mbox_conf_perm
I0305 10:55:18.061067 25537 net.cpp:100] Creating Layer conv9_2_mbox_conf_perm
I0305 10:55:18.061125 25537 net.cpp:434] conv9_2_mbox_conf_perm <- conv9_2_mbox_conf
I0305 10:55:18.061188 25537 net.cpp:408] conv9_2_mbox_conf_perm -> conv9_2_mbox_conf_perm
I0305 10:55:18.061481 25537 net.cpp:150] Setting up conv9_2_mbox_conf_perm
I0305 10:55:18.061550 25537 net.cpp:157] Top shape: 8 1 1 44 (352)
I0305 10:55:18.061610 25537 net.cpp:165] Memory required for data: 1989729152
I0305 10:55:18.061668 25537 layer_factory.hpp:77] Creating layer conv9_2_mbox_conf_flat
I0305 10:55:18.061733 25537 net.cpp:100] Creating Layer conv9_2_mbox_conf_flat
I0305 10:55:18.061791 25537 net.cpp:434] conv9_2_mbox_conf_flat <- conv9_2_mbox_conf_perm
I0305 10:55:18.061852 25537 net.cpp:408] conv9_2_mbox_conf_flat -> conv9_2_mbox_conf_flat
I0305 10:55:18.061957 25537 net.cpp:150] Setting up conv9_2_mbox_conf_flat
I0305 10:55:18.062021 25537 net.cpp:157] Top shape: 8 44 (352)
I0305 10:55:18.062078 25537 net.cpp:165] Memory required for data: 1989730560
I0305 10:55:18.062134 25537 layer_factory.hpp:77] Creating layer conv9_2_mbox_priorbox
I0305 10:55:18.062196 25537 net.cpp:100] Creating Layer conv9_2_mbox_priorbox
I0305 10:55:18.062252 25537 net.cpp:434] conv9_2_mbox_priorbox <- conv9_2_conv9_2_relu_0_split_2
I0305 10:55:18.062309 25537 net.cpp:434] conv9_2_mbox_priorbox <- data_data_0_split_6
I0305 10:55:18.062371 25537 net.cpp:408] conv9_2_mbox_priorbox -> conv9_2_mbox_priorbox
I0305 10:55:18.062485 25537 net.cpp:150] Setting up conv9_2_mbox_priorbox
I0305 10:55:18.062544 25537 net.cpp:157] Top shape: 1 2 16 (32)
I0305 10:55:18.062598 25537 net.cpp:165] Memory required for data: 1989730688
I0305 10:55:18.062650 25537 layer_factory.hpp:77] Creating layer mbox_loc
I0305 10:55:18.062711 25537 net.cpp:100] Creating Layer mbox_loc
I0305 10:55:18.062769 25537 net.cpp:434] mbox_loc <- conv4_3_norm_mbox_loc_flat
I0305 10:55:18.062829 25537 net.cpp:434] mbox_loc <- fc7_mbox_loc_flat
I0305 10:55:18.062887 25537 net.cpp:434] mbox_loc <- conv6_2_mbox_loc_flat
I0305 10:55:18.062945 25537 net.cpp:434] mbox_loc <- conv7_2_mbox_loc_flat
I0305 10:55:18.063000 25537 net.cpp:434] mbox_loc <- conv8_2_mbox_loc_flat
I0305 10:55:18.063060 25537 net.cpp:434] mbox_loc <- conv9_2_mbox_loc_flat
I0305 10:55:18.063123 25537 net.cpp:408] mbox_loc -> mbox_loc
I0305 10:55:18.063235 25537 net.cpp:150] Setting up mbox_loc
I0305 10:55:18.063294 25537 net.cpp:157] Top shape: 8 34928 (279424)
I0305 10:55:18.063349 25537 net.cpp:165] Memory required for data: 1990848384
I0305 10:55:18.063401 25537 layer_factory.hpp:77] Creating layer mbox_conf
I0305 10:55:18.063458 25537 net.cpp:100] Creating Layer mbox_conf
I0305 10:55:18.063513 25537 net.cpp:434] mbox_conf <- conv4_3_norm_mbox_conf_flat
I0305 10:55:18.063570 25537 net.cpp:434] mbox_conf <- fc7_mbox_conf_flat
I0305 10:55:18.063625 25537 net.cpp:434] mbox_conf <- conv6_2_mbox_conf_flat
I0305 10:55:18.063681 25537 net.cpp:434] mbox_conf <- conv7_2_mbox_conf_flat
I0305 10:55:18.063737 25537 net.cpp:434] mbox_conf <- conv8_2_mbox_conf_flat
I0305 10:55:18.063792 25537 net.cpp:434] mbox_conf <- conv9_2_mbox_conf_flat
I0305 10:55:18.063850 25537 net.cpp:408] mbox_conf -> mbox_conf
I0305 10:55:18.063953 25537 net.cpp:150] Setting up mbox_conf
I0305 10:55:18.064018 25537 net.cpp:157] Top shape: 8 96052 (768416)
I0305 10:55:18.064074 25537 net.cpp:165] Memory required for data: 1993922048
I0305 10:55:18.064127 25537 layer_factory.hpp:77] Creating layer mbox_priorbox
I0305 10:55:18.064193 25537 net.cpp:100] Creating Layer mbox_priorbox
I0305 10:55:18.064247 25537 net.cpp:434] mbox_priorbox <- conv4_3_norm_mbox_priorbox
I0305 10:55:18.064304 25537 net.cpp:434] mbox_priorbox <- fc7_mbox_priorbox
I0305 10:55:18.064373 25537 net.cpp:434] mbox_priorbox <- conv6_2_mbox_priorbox
I0305 10:55:18.064441 25537 net.cpp:434] mbox_priorbox <- conv7_2_mbox_priorbox
I0305 10:55:18.064497 25537 net.cpp:434] mbox_priorbox <- conv8_2_mbox_priorbox
I0305 10:55:18.064553 25537 net.cpp:434] mbox_priorbox <- conv9_2_mbox_priorbox
I0305 10:55:18.064610 25537 net.cpp:408] mbox_priorbox -> mbox_priorbox
I0305 10:55:18.064738 25537 net.cpp:150] Setting up mbox_priorbox
I0305 10:55:18.064801 25537 net.cpp:157] Top shape: 1 2 34928 (69856)
I0305 10:55:18.064857 25537 net.cpp:165] Memory required for data: 1994201472
I0305 10:55:18.064909 25537 layer_factory.hpp:77] Creating layer mbox_conf_reshape
I0305 10:55:18.064970 25537 net.cpp:100] Creating Layer mbox_conf_reshape
I0305 10:55:18.065023 25537 net.cpp:434] mbox_conf_reshape <- mbox_conf
I0305 10:55:18.065085 25537 net.cpp:408] mbox_conf_reshape -> mbox_conf_reshape
I0305 10:55:18.065202 25537 net.cpp:150] Setting up mbox_conf_reshape
I0305 10:55:18.065263 25537 net.cpp:157] Top shape: 8 8732 11 (768416)
I0305 10:55:18.065316 25537 net.cpp:165] Memory required for data: 1997275136
I0305 10:55:18.065371 25537 layer_factory.hpp:77] Creating layer mbox_conf_softmax
I0305 10:55:18.065428 25537 net.cpp:100] Creating Layer mbox_conf_softmax
I0305 10:55:18.065482 25537 net.cpp:434] mbox_conf_softmax <- mbox_conf_reshape
I0305 10:55:18.065542 25537 net.cpp:408] mbox_conf_softmax -> mbox_conf_softmax
I0305 10:55:18.066090 25537 net.cpp:150] Setting up mbox_conf_softmax
I0305 10:55:18.066159 25537 net.cpp:157] Top shape: 8 8732 11 (768416)
I0305 10:55:18.066213 25537 net.cpp:165] Memory required for data: 2000348800
I0305 10:55:18.066267 25537 layer_factory.hpp:77] Creating layer mbox_conf_flatten
I0305 10:55:18.066329 25537 net.cpp:100] Creating Layer mbox_conf_flatten
I0305 10:55:18.066385 25537 net.cpp:434] mbox_conf_flatten <- mbox_conf_softmax
I0305 10:55:18.066442 25537 net.cpp:408] mbox_conf_flatten -> mbox_conf_flatten
I0305 10:55:18.066545 25537 net.cpp:150] Setting up mbox_conf_flatten
I0305 10:55:18.066607 25537 net.cpp:157] Top shape: 8 96052 (768416)
I0305 10:55:18.066661 25537 net.cpp:165] Memory required for data: 2003422464
I0305 10:55:18.066715 25537 layer_factory.hpp:77] Creating layer detection_out
I0305 10:55:18.066792 25537 net.cpp:100] Creating Layer detection_out
I0305 10:55:18.066850 25537 net.cpp:434] detection_out <- mbox_loc
I0305 10:55:18.066905 25537 net.cpp:434] detection_out <- mbox_conf_flatten
I0305 10:55:18.066962 25537 net.cpp:434] detection_out <- mbox_priorbox
I0305 10:55:18.067023 25537 net.cpp:408] detection_out -> detection_out
W0305 10:55:18.067119 25537 detection_output_layer.cpp:49] Failed to create directory: /home/zs/data/VOCdevkit/results/NWPU_VHR/SSD_300x300_score/Main
I0305 10:55:18.067883 25537 net.cpp:150] Setting up detection_out
I0305 10:55:18.067955 25537 net.cpp:157] Top shape: 1 1 1 7 (7)
I0305 10:55:18.068011 25537 net.cpp:165] Memory required for data: 2003422492
I0305 10:55:18.068068 25537 layer_factory.hpp:77] Creating layer detection_eval
I0305 10:55:18.068128 25537 net.cpp:100] Creating Layer detection_eval
I0305 10:55:18.068183 25537 net.cpp:434] detection_eval <- detection_out
I0305 10:55:18.068239 25537 net.cpp:434] detection_eval <- label
I0305 10:55:18.068298 25537 net.cpp:408] detection_eval -> detection_eval
I0305 10:55:18.068506 25537 net.cpp:150] Setting up detection_eval
I0305 10:55:18.068576 25537 net.cpp:157] Top shape: 1 1 11 5 (55)
I0305 10:55:18.068629 25537 net.cpp:165] Memory required for data: 2003422712
I0305 10:55:18.068704 25537 net.cpp:228] detection_eval does not need backward computation.
I0305 10:55:18.068763 25537 net.cpp:228] detection_out does not need backward computation.
I0305 10:55:18.068819 25537 net.cpp:228] mbox_conf_flatten does not need backward computation.
I0305 10:55:18.068872 25537 net.cpp:228] mbox_conf_softmax does not need backward computation.
…
