…
      sampler {
        min_scale: 0.3
        max_scale: 1
        min_aspect_ratio: 0.5
        max_aspect_ratio: 2
      }
      sample_constraint {
        min_jaccard_overlap: 0.9
      }
      max_sample: 1
      max_trials: 50
    }
    batch_sampler {
      sampler {
        min_scale: 0.3
        max_scale: 1
        min_aspect_ratio: 0.5
        max_aspect_ratio: 2
      }
      sample_constraint {
        max_jaccard_overlap: 1
      }
      max_sample: 1
      max_trials: 50
    }
    label_map_file: "data/NWPU_VHR/labelmap_NWPU_VHR.prototxt"
  }
}
layer {
  name: "conv1_1"
  type: "Convolution"
  bottom: "data"
  top: "conv1_1"
  param {
    lr_mult: 1
    decay_mult: 1
  }
  param {
    lr_mult: 2
    decay_mult: 0
  }
  convolution_param {
    num_output: 64
    pad: 1
    kernel_size: 3
    weight_filler {
      type: "xavier"
    }
    bias_filler {
      type: "constant"
      value: 0
    }
  }
}
layer {
  name: "relu1_1"
  type: "ReLU"
  bottom: "conv1_1"
  top: "conv1_1"
}
layer {
  name: "conv1_2"
  type: "Convolution"
  bottom: "conv1_1"
  top: "conv1_2"
  param {
    lr_mult: 1
    decay_mult: 1
  }
  param {
    lr_mult: 2
    decay_mult: 0
  }
  convolution_param {
    num_output: 64
    pad: 1
    kernel_size: 3
    weight_filler {
      type: "xavier"
    }
    bias_filler {
      type: "constant"
      value: 0
    }
  }
}
layer {
  name: "relu1_2"
  type: "ReLU"
  bottom: "conv1_2"
  top: "conv1_2"
}
layer {
  name: "pool1"
  type: "Pooling"
  bottom: "conv1_2"
  top: "pool1"
  pooling_param {
    pool: MAX
    kernel_size: 2
    stride: 2
  }
}
layer {
  name: "conv2_1"
  type: "Convolution"
  bottom: "pool1"
  top: "conv2_1"
  param {
    lr_mult: 1
    decay_mult: 1
  }
  param {
    lr_mult: 2
    decay_mult: 0
  }
  convolution_param {
    num_output: 128
    pad: 1
    kernel_size: 3
    weight_filler {
      type: "xavier"
    }
    bias_filler {
      type: "constant"
      value: 0
    }
  }
}
layer {
  name: "relu2_1"
  type: "ReLU"
  bottom: "conv2_1"
  top: "conv2_1"
}
layer {
  name: "conv2_2"
  type: "Convolution"
  bottom: "conv2_1"
  top: "conv2_2"
  param {
    lr_mult: 1
    decay_mult: 1
  }
  param {
    lr_mult: 2
    decay_mult: 0
  }
  convolution_param {
    num_output: 128
    pad: 1
    kernel_size: 3
    weight_filler {
      type: "xavier"
    }
    bias_filler {
      type: "constant"
      value: 0
    }
  }
}
layer {
  name: "relu2_2"
  type: "ReLU"
  bottom: "conv2_2"
  top: "conv2_2"
}
layer {
  name: "pool2"
  type: "Pooling"
  bottom: "conv2_2"
  top: "pool2"
  pooling_param {
    pool: MAX
    kernel_size: 2
    stride: 2
  }
}
layer {
  name: "conv3_1"
  type: "Convolution"
  bottom: "pool2"
  top: "conv3_1"
  param {
    lr_mult: 1
    decay_mult: 1
  }
  param {
    lr_mult: 2
    decay_mult: 0
  }
  convolution_param {
    num_output: 256
    pad: 1
    kernel_size: 3
    weight_filler {
      type: "xavier"
    }
    bias_filler {
      type: "constant"
      value: 0
    }
  }
}
layer {
  name: "relu3_1"
  type: "ReLU"
  bottom: "conv3_1"
  top: "conv3_1"
}
layer {
  name: "conv3_2"
  type: "Convolution"
  bottom: "conv3_1"
  top: "conv3_2"
  param {
    lr_mult: 1
    decay_mult: 1
  }
  param {
    lr_mult: 2
    decay_mult: 0
  }
  convolution_param {
    num_output: 256
    pad: 1
    kernel_size: 3
    weight_filler {
      type: "xavier"
    }
    bias_filler {
      type: "constant"
      value: 0
    }
  }
}
layer {
  name: "relu3_2"
  type: "ReLU"
  bottom: "conv3_2"
  top: "conv3_2"
}
layer {
  name: "conv3_3"
  type: "Convolution"
  bottom: "conv3_2"
  top: "conv3_3"
  param {
    lr_mult: 1
    decay_mult: 1
  }
  param {
    lr_mult: 2
    decay_mult: 0
  }
  convolution_param {
    num_output: 256
    pad: 1
    kernel_size: 3
    weight_filler {
      type: "xavier"
    }
    bias_filler {
      type: "constant"
      value: 0
    }
  }
}
layer {
  name: "relu3_3"
  type: "ReLU"
  bottom: "conv3_3"
  top: "conv3_3"
}
layer {
  name: "pool3"
  type: "Pooling"
  bottom: "conv3_3"
  top: "pool3"
  pooling_param {
    pool: MAX
    kernel_size: 2
    stride: 2
  }
}
layer {
  name: "conv4_1_depthwise"
  type: "DepthwiseConvolution"
  bottom: "pool3"
  top: "conv4_1_3x3"
  param {
    lr_mult: 1
    decay_mult: 1
  }
  param {
    lr_mult: 2
    decay_mult: 0
  }
  convolution_param {
    num_output: 256
    pad: 1
    kernel_size: 3
    group: 256
    weight_filler {
      type: "xavier"
    }
    bias_filler {
      type: "constant"
      value: 0
    }
  }
}
layer {
  name: "conv4_1_3x3_relu"
  type: "ReLU"
  bottom: "conv4_1_3x3"
  top: "conv4_1_3x3"
}
layer {
  name: "conv4_1_1x1"
  type: "Convolution"
  bottom: "conv4_1_3x3"
  top: "conv4_1"
  param {
    lr_mult: 1
    decay_mult: 1
  }
  param {
    lr_mult: 2
    decay_mult: 0
  }
  convolution_param {
    num_output: 512
    pad: 0
    kernel_size: 1
    stride: 1
    weight_filler {
      type: "xavier"
    }
    bias_filler {
      type: "constant"
      value: 0
    }
  }
}
layer {
  name: "relu4_1"
  type: "ReLU"
  bottom: "conv4_1"
  top: "conv4_1"
}
layer {
  name: "conv4_2"
  type: "Convolution"
  bottom: "conv4_1"
  top: "conv4_2"
  param {
    lr_mult: 1
    decay_mult: 1
  }
  param {
    lr_mult: 2
    decay_mult: 0
  }
  convolution_param {
    num_output: 512
    pad: 1
    kernel_size: 3
    weight_filler {
      type: "xavier"
    }
    bias_filler {
      type: "constant"
      value: 0
    }
  }
}
layer {
  name: "relu4_2"
  type: "ReLU"
  bottom: "conv4_2"
  top: "conv4_2"
}
layer {
  name: "conv4_3"
  type: "Convolution"
  bottom: "conv4_2"
  top: "conv4_3"
  param {
    lr_mult: 1
    decay_mult: 1
  }
  param {
    lr_mult: 2
    decay_mult: 0
  }
  convolution_param {
    num_output: 512
    pad: 1
    kernel_size: 3
    weight_filler {
      type: "xavier"
    }
    bias_filler {
      type: "constant"
      value: 0
    }
  }
}
layer {
  name: "relu4_3"
  type: "ReLU"
  bottom: "conv4_3"
  top: "conv4_3"
}
layer {
  name: "pool4"
  type: "Pooling"
  bottom: "conv4_3"
  top: "pool4"
  pooling_param {
    pool: MAX
    kernel_size: 2
    stride: 2
  }
}
layer {
  name: "conv5_1_depthwise"
  type: "DepthwiseConvolution"
  bottom: "pool4"
  top: "conv5_1_3x3"
  param {
    lr_mult: 1
    decay_mult: 1
  }
  param {
    lr_mult: 2
    decay_mult: 0
  }
  convolution_param {
    num_output: 512
    pad: 1
    kernel_size: 3
    group: 512
    weight_filler {
      type: "xavier"
    }
    bias_filler {
      type: "constant"
      value: 0
    }
    dilation: 1
  }
}
layer {
  name: "conv5_1_3x3_relu"
  type: "ReLU"
  bottom: "conv5_1_3x3"
  top: "conv5_1_3x3"
}
layer {
  name: "conv5_1_1x1"
  type: "Convolution"
  bottom: "conv5_1_3x3"
  top: "conv5_1"
  param {
    lr_mult: 1
    decay_mult: 1
  }
  param {
    lr_mult: 2
    decay_mult: 0
  }
  convolution_param {
    num_output: 512
    pad: 0
    kernel_size: 1
    stride: 1
    weight_filler {
      type: "xavier"
    }
    bias_filler {
      type: "constant"
      value: 0
    }
    dilation: 1
  }
}
layer {
  name: "relu5_1"
  type: "ReLU"
  bottom: "conv5_1"
  top: "conv5_1"
}
layer {
  name: "conv5_2_depthwise"
  type: "DepthwiseConvolution"
  bottom: "conv5_1"
  top: "conv5_2_3x3"
  param {
    lr_mult: 1
    decay_mult: 1
  }
  param {
    lr_mult: 2
    decay_mult: 0
  }
  convolution_param {
    num_output: 512
    pad: 1
    kernel_size: 3
    group: 512
    weight_filler {
      type: "xavier"
    }
    bias_filler {
      type: "constant"
      value: 0
    }
    dilation: 1
  }
}
layer {
  name: "conv5_2_3x3_relu"
  type: "ReLU"
  bottom: "conv5_2_3x3"
  top: "conv5_2_3x3"
}
layer {
  name: "conv5_2_1x1"
  type: "Convolution"
  bottom: "conv5_2_3x3"
  top: "conv5_2"
  param {
    lr_mult: 1
    decay_mult: 1
  }
  param {
    lr_mult: 2
    decay_mult: 0
  }
  convolution_param {
    num_output: 512
    pad: 0
    kernel_size: 1
    stride: 1
    weight_filler {
      type: "xavier"
    }
    bias_filler {
      type: "constant"
      value: 0
    }
    dilation: 1
  }
}
layer {
  name: "relu5_2"
  type: "ReLU"
  bottom: "conv5_2"
  top: "conv5_2"
}
layer {
  name: "conv5_3_depthwise"
  type: "DepthwiseConvolution"
  bottom: "conv5_2"
  top: "conv5_3_3x3"
  param {
    lr_mult: 1
    decay_mult: 1
  }
  param {
    lr_mult: 2
    decay_mult: 0
  }
  convolution_param {
    num_output: 512
    pad: 1
    kernel_size: 3
    group: 512
    weight_filler {
      type: "xavier"
    }
    bias_filler {
      type: "constant"
      value: 0
    }
    dilation: 1
  }
}
layer {
  name: "conv5_3_3x3_relu"
  type: "ReLU"
  bottom: "conv5_3_3x3"
  top: "conv5_3_3x3"
}
layer {
  name: "conv5_3_1x1"
  type: "Convolution"
  bottom: "conv5_3_3x3"
  top: "conv5_3"
  param {
    lr_mult: 1
    decay_mult: 1
  }
  param {
    lr_mult: 2
    decay_mult: 0
  }
  convolution_param {
    num_output: 512
    pad: 0
    kernel_size: 1
    stride: 1
    weight_filler {
      type: "xavier"
    }
    bias_filler {
      type: "constant"
      value: 0
    }
    dilation: 1
  }
}
layer {
  name: "relu5_3"
  type: "ReLU"
  bottom: "conv5_3"
  top: "conv5_3"
}
layer {
  name: "pool5"
  type: "Pooling"
  bottom: "conv5_3"
  top: "pool5"
  pooling_param {
    pool: MAX
    kernel_size: 3
    stride: 1
    pad: 1
  }
}
layer {
  name: "fc6_depthwise"
  type: "DepthwiseConvolution"
  bottom: "pool5"
  top: "fc6_3x3"
  param {
    lr_mult: 1
    decay_mult: 1
  }
  param {
    lr_mult: 2
    decay_mult: 0
  }
  convolution_param {
    num_output: 512
    pad: 6
    kernel_size: 3
    group: 512
    weight_filler {
      type: "xavier"
    }
    bias_filler {
      type: "constant"
      value: 0
    }
    dilation: 6
  }
}
layer {
  name: "fc6_3x3_relu"
  type: "ReLU"
  bottom: "fc6_3x3"
  top: "fc6_3x3"
}
layer {
  name: "fc6_1x1"
  type: "Convolution"
  bottom: "fc6_3x3"
  top: "fc6"
  param {
    lr_mult: 1
    decay_mult: 1
  }
  param {
    lr_mult: 2
    decay_mult: 0
  }
  convolution_param {
    num_output: 1024
    pad: 0
    kernel_size: 1
    stride: 1
    weight_filler {
      type: "xavier"
    }
    bias_filler {
      type: "constant"
      value: 0
    }
    dilation: 6
  }
}
layer {
  name: "relu6"
  type: "ReLU"
  bottom: "fc6"
  top: "fc6"
}
layer {
  name: "fc7"
  type: "Convolution"
  bottom: "fc6"
  top: "fc7"
  param {
    lr_mult: 1
    decay_mult: 1
  }
  param {
    lr_mult: 2
    decay_mult: 0
  }
  convolution_param {
    num_output: 1024
    kernel_size: 1
    weight_filler {
      type: "xavier"
    }
    bias_filler {
      type: "constant"
      value: 0
    }
  }
}
layer {
  name: "relu7"
  type: "ReLU"
  bottom: "fc7"
  top: "fc7"
}
layer {
  name: "conv6_1"
  type: "Convolution"
  bottom: "fc7"
  top: "conv6_1"
  param {
    lr_mult: 1
    decay_mult: 1
  }
  param {
    lr_mult: 2
    decay_mult: 0
  }
  convolution_param {
    num_output: 256
    pad: 0
    kernel_size: 1
    stride: 1
    weight_filler {
      type: "xavier"
    }
    bias_filler {
      type: "constant"
      value: 0
    }
  }
}
layer {
  name: "conv6_1_relu"
  type: "ReLU"
  bottom: "conv6_1"
  top: "conv6_1"
}
layer {
  name: "conv6_2"
  type: "Convolution"
  bottom: "conv6_1"
  top: "conv6_2"
  param {
    lr_mult: 1
    decay_mult: 1
  }
  param {
    lr_mult: 2
    decay_mult: 0
  }
  convolution_param {
    num_output: 512
    pad: 1
    kernel_size: 3
    stride: 2
    weight_filler {
      type: "xavier"
    }
    bias_filler {
      type: "constant"
      value: 0
    }
  }
}
layer {
  name: "conv6_2_relu"
  type: "ReLU"
  bottom: "conv6_2"
  top: "conv6_2"
}
layer {
  name: "conv7_1"
  type: "Convolution"
  bottom: "conv6_2"
  top: "conv7_1"
  param {
    lr_mult: 1
    decay_mult: 1
  }
  param {
    lr_mult: 2
    decay_mult: 0
  }
  convolution_param {
    num_output: 128
    pad: 0
    kernel_size: 1
    stride: 1
    weight_filler {
      type: "xavier"
    }
    bias_filler {
      type: "constant"
      value: 0
    }
  }
}
layer {
  name: "conv7_1_relu"
  type: "ReLU"
  bottom: "conv7_1"
  top: "conv7_1"
}
layer {
  name: "conv7_2"
  type: "Convolution"
  bottom: "conv7_1"
  top: "conv7_2"
  param {
    lr_mult: 1
    decay_mult: 1
  }
  param {
    lr_mult: 2
    decay_mult: 0
  }
  convolution_param {
    num_output: 256
    pad: 1
    kernel_size: 3
    stride: 2
    weight_filler {
      type: "xavier"
    }
    bias_filler {
      type: "constant"
      value: 0
    }
  }
}
layer {
  name: "conv7_2_relu"
  type: "ReLU"
  bottom: "conv7_2"
  top: "conv7_2"
}
layer {
  name: "conv8_1"
  type: "Convolution"
  bottom: "conv7_2"
  top: "conv8_1"
  param {
    lr_mult: 1
    decay_mult: 1
  }
  param {
    lr_mult: 2
    decay_mult: 0
  }
  convolution_param {
    num_output: 128
    pad: 0
    kernel_size: 1
    stride: 1
    weight_filler {
      type: "xavier"
    }
    bias_filler {
      type: "constant"
      value: 0
    }
  }
}
layer {
  name: "conv8_1_relu"
  type: "ReLU"
  bottom: "conv8_1"
  top: "conv8_1"
}
layer {
  name: "conv8_2"
  type: "Convolution"
  bottom: "conv8_1"
  top: "conv8_2"
  param {
    lr_mult: 1
    decay_mult: 1
  }
  param {
    lr_mult: 2
    decay_mult: 0
  }
  convolution_param {
    num_output: 256
    pad: 0
    kernel_size: 3
    stride: 1
    weight_filler {
      type: "xavier"
    }
    bias_filler {
      type: "constant"
      value: 0
    }
  }
}
layer {
  name: "conv8_2_relu"
  type: "ReLU"
  bottom: "conv8_2"
  top: "conv8_2"
}
layer {
  name: "conv9_1"
  type: "Convolution"
  bottom: "conv8_2"
  top: "conv9_1"
  param {
    lr_mult: 1
    decay_mult: 1
  }
  param {
    lr_mult: 2
    decay_mult: 0
  }
  convolution_param {
    num_output: 128
    pad: 0
    kernel_size: 1
    stride: 1
    weight_filler {
      type: "xavier"
    }
    bias_filler {
      type: "constant"
      value: 0
    }
  }
}
layer {
  name: "conv9_1_relu"
  type: "ReLU"
  bottom: "conv9_1"
  top: "conv9_1"
}
layer {
  name: "conv9_2"
  type: "Convolution"
  bottom: "conv9_1"
  top: "conv9_2"
  param {
    lr_mult: 1
    decay_mult: 1
  }
  param {
    lr_mult: 2
    decay_mult: 0
  }
  convolution_param {
    num_output: 256
    pad: 0
    kernel_size: 3
    stride: 1
    weight_filler {
      type: "xavier"
    }
    bias_filler {
      type: "constant"
      value: 0
    }
  }
}
layer {
  name: "conv9_2_relu"
  type: "ReLU"
  bottom: "conv9_2"
  top: "conv9_2"
}
layer {
  name: "conv4_3_norm"
  type: "Normalize"
  bottom: "conv4_3"
  top: "conv4_3_norm"
  norm_param {
    across_spatial: false
    scale_filler {
      type: "constant"
      value: 20
    }
    channel_shared: false
  }
}
layer {
  name: "conv4_3_norm_mbox_loc"
  type: "Convolution"
  bottom: "conv4_3_norm"
  top: "conv4_3_norm_mbox_loc"
  param {
    lr_mult: 1
    decay_mult: 1
  }
  param {
    lr_mult: 2
    decay_mult: 0
  }
  convolution_param {
    num_output: 16
    pad: 1
    kernel_size: 3
    stride: 1
    weight_filler {
      type: "xavier"
    }
    bias_filler {
      type: "constant"
      value: 0
    }
  }
}
layer {
  name: "conv4_3_norm_mbox_loc_perm"
  type: "Permute"
  bottom: "conv4_3_norm_mbox_loc"
  top: "conv4_3_norm_mbox_loc_perm"
  permute_param {
    order: 0
    order: 2
    order: 3
    order: 1
  }
}
layer {
  name: "conv4_3_norm_mbox_loc_flat"
  type: "Flatten"
  bottom: "conv4_3_norm_mbox_loc_perm"
  top: "conv4_3_norm_mbox_loc_flat"
  flatten_param {
    axis: 1
  }
}
layer {
  name: "conv4_3_norm_mbox_conf"
  type: "Convolution"
  bottom: "conv4_3_norm"
  top: "conv4_3_norm_mbox_conf"
  param {
    lr_mult: 1
    decay_mult: 1
  }
  param {
    lr_mult: 2
    decay_mult: 0
  }
  convolution_param {
    num_output: 44
    pad: 1
    kernel_size: 3
    stride: 1
    weight_filler {
      type: "xavier"
    }
    bias_filler {
      type: "constant"
      value: 0
    }
  }
}
layer {
  name: "conv4_3_norm_mbox_conf_perm"
  type: "Permute"
  bottom: "conv4_3_norm_mbox_conf"
  top: "conv4_3_norm_mbox_conf_perm"
  permute_param {
    order: 0
    order: 2
    order: 3
    order: 1
  }
}
layer {
  name: "conv4_3_norm_mbox_conf_flat"
  type: "Flatten"
  bottom: "conv4_3_norm_mbox_conf_perm"
  top: "conv4_3_norm_mbox_conf_flat"
  flatten_param {
    axis: 1
  }
}
layer {
  name: "conv4_3_norm_mbox_priorbox"
  type: "PriorBox"
  bottom: "conv4_3_norm"
  bottom: "data"
  top: "conv4_3_norm_mbox_priorbox"
  prior_box_param {
    min_size: 30
    max_size: 60
    aspect_ratio: 2
    flip: true
    clip: false
    variance: 0.1
    variance: 0.1
    variance: 0.2
    variance: 0.2
    step: 8
    offset: 0.5
  }
}
layer {
  name: "fc7_mbox_loc"
  type: "Convolution"
  bottom: "fc7"
  top: "fc7_mbox_loc"
  param {
    lr_mult: 1
    decay_mult: 1
  }
  param {
    lr_mult: 2
    decay_mult: 0
  }
  convolution_param {
    num_output: 24
    pad: 1
    kernel_size: 3
    stride: 1
    weight_filler {
      type: "xavier"
    }
    bias_filler {
      type: "constant"
      value: 0
    }
  }
}
layer {
  name: "fc7_mbox_loc_perm"
  type: "Permute"
  bottom: "fc7_mbox_loc"
  top: "fc7_mbox_loc_perm"
  permute_param {
    order: 0
    order: 2
    order: 3
    order: 1
  }
}
layer {
  name: "fc7_mbox_loc_flat"
  type: "Flatten"
  bottom: "fc7_mbox_loc_perm"
  top: "fc7_mbox_loc_flat"
  flatten_param {
    axis: 1
  }
}
layer {
  name: "fc7_mbox_conf"
  type: "Convolution"
  bottom: "fc7"
  top: "fc7_mbox_conf"
  param {
    lr_mult: 1
    decay_mult: 1
  }
  param {
    lr_mult: 2
    decay_mult: 0
  }
  convolution_param {
    num_output: 66
    pad: 1
    kernel_size: 3
    stride: 1
    weight_filler {
      type: "xavier"
    }
    bias_filler {
      type: "constant"
      value: 0
    }
  }
}
layer {
  name: "fc7_mbox_conf_perm"
  type: "Permute"
  bottom: "fc7_mbox_conf"
  top: "fc7_mbox_conf_perm"
  permute_param {
    order: 0
    order: 2
    order: 3
    order: 1
  }
}
layer {
  name: "fc7_mbox_conf_flat"
  type: "Flatten"
  bottom: "fc7_mbox_conf_perm"
  top: "fc7_mbox_conf_flat"
  flatten_param {
    axis: 1
  }
}
layer {
  name: "fc7_mbox_priorbox"
  type: "PriorBox"
  bottom: "fc7"
  bottom: "data"
  top: "fc7_mbox_priorbox"
  prior_box_param {
    min_size: 60
    max_size: 111
    aspect_ratio: 2
    aspect_ratio: 3
    flip: true
    clip: false
    variance: 0.1
    variance: 0.1
    variance: 0.2
    variance: 0.2
    step: 16
    offset: 0.5
  }
}
layer {
  name: "conv6_2_mbox_loc"
  type: "Convolution"
  bottom: "conv6_2"
  top: "conv6_2_mbox_loc"
  param {
    lr_mult: 1
    decay_mult: 1
  }
  param {
    lr_mult: 2
    decay_mult: 0
  }
  convolution_param {
    num_output: 24
    pad: 1
    kernel_size: 3
    stride: 1
    weight_filler {
      type: "xavier"
    }
    bias_filler {
      type: "constant"
      value: 0
    }
  }
}
layer {
  name: "conv6_2_mbox_loc_perm"
  type: "Permute"
  bottom: "conv6_2_mbox_loc"
  top: "conv6_2_mbox_loc_perm"
  permute_param {
    order: 0
    order: 2
    order: 3
    order: 1
  }
}
layer {
  name: "conv6_2_mbox_loc_flat"
  type: "Flatten"
  bottom: "conv6_2_mbox_loc_perm"
  top: "conv6_2_mbox_loc_flat"
  flatten_param {
    axis: 1
  }
}
layer {
  name: "conv6_2_mbox_conf"
  type: "Convolution"
  bottom: "conv6_2"
  top: "conv6_2_mbox_conf"
  param {
    lr_mult: 1
    decay_mult: 1
  }
  param {
    lr_mult: 2
    decay_mult: 0
  }
  convolution_param {
    num_output: 66
    pad: 1
    kernel_size: 3
    stride: 1
    weight_filler {
      type: "xavier"
    }
    bias_filler {
      type: "constant"
      value: 0
    }
  }
}
layer {
  name: "conv6_2_mbox_conf_perm"
  type: "Permute"
  bottom: "conv6_2_mbox_conf"
  top: "conv6_2_mbox_conf_perm"
  permute_param {
    order: 0
    order: 2
    order: 3
    order: 1
  }
}
layer {
  name: "conv6_2_mbox_conf_flat"
  type: "Flatten"
  bottom: "conv6_2_mbox_conf_perm"
  top: "conv6_2_mbox_conf_flat"
  flatten_param {
    axis: 1
  }
}
layer {
  name: "conv6_2_mbox_priorbox"
  type: "PriorBox"
  bottom: "conv6_2"
  bottom: "data"
  top: "conv6_2_mbox_priorbox"
  prior_box_param {
    min_size: 111
    max_size: 162
    aspect_ratio: 2
    aspect_ratio: 3
    flip: true
    clip: false
    variance: 0.1
    variance: 0.1
    variance: 0.2
    variance: 0.2
    step: 32
    offset: 0.5
  }
}
layer {
  name: "conv7_2_mbox_loc"
  type: "Convolution"
  bottom: "conv7_2"
  top: "conv7_2_mbox_loc"
  param {
    lr_mult: 1
    decay_mult: 1
  }
  param {
    lr_mult: 2
    decay_mult: 0
  }
  convolution_param {
    num_output: 24
    pad: 1
    kernel_size: 3
    stride: 1
    weight_filler {
      type: "xavier"
    }
    bias_filler {
      type: "constant"
      value: 0
    }
  }
}
layer {
  name: "conv7_2_mbox_loc_perm"
  type: "Permute"
  bottom: "conv7_2_mbox_loc"
  top: "conv7_2_mbox_loc_perm"
  permute_param {
    order: 0
    order: 2
    order: 3
    order: 1
  }
}
layer {
  name: "conv7_2_mbox_loc_flat"
  type: "Flatten"
  bottom: "conv7_2_mbox_loc_perm"
  top: "conv7_2_mbox_loc_flat"
  flatten_param {
    axis: 1
  }
}
layer {
  name: "conv7_2_mbox_conf"
  type: "Convolution"
  bottom: "conv7_2"
  top: "conv7_2_mbox_conf"
  param {
    lr_mult: 1
    decay_mult: 1
  }
  param {
    lr_mult: 2
    decay_mult: 0
  }
  convolution_param {
    num_output: 66
    pad: 1
    kernel_size: 3
    stride: 1
    weight_filler {
      type: "xavier"
    }
    bias_filler {
      type: "constant"
      value: 0
    }
  }
}
layer {
  name: "conv7_2_mbox_conf_perm"
  type: "Permute"
  bottom: "conv7_2_mbox_conf"
  top: "conv7_2_mbox_conf_perm"
  permute_param {
    order: 0
    order: 2
    order: 3
    order: 1
  }
}
layer {
  name: "conv7_2_mbox_conf_flat"
  type: "Flatten"
  bottom: "conv7_2_mbox_conf_perm"
  top: "conv7_2_mbox_conf_flat"
  flatten_param {
    axis: 1
  }
}
layer {
  name: "conv7_2_mbox_priorbox"
  type: "PriorBox"
  bottom: "conv7_2"
  bottom: "data"
  top: "conv7_2_mbox_priorbox"
  prior_box_param {
    min_size: 162
    max_size: 213
    aspect_ratio: 2
    aspect_ratio: 3
    flip: true
    clip: false
    variance: 0.1
    variance: 0.1
    variance: 0.2
    variance: 0.2
    step: 64
    offset: 0.5
  }
}
layer {
  name: "conv8_2_mbox_loc"
  type: "Convolution"
  bottom: "conv8_2"
  top: "conv8_2_mbox_loc"
  param {
    lr_mult: 1
    decay_mult: 1
  }
  param {
    lr_mult: 2
    decay_mult: 0
  }
  convolution_param {
    num_output: 16
    pad: 1
    kernel_size: 3
    stride: 1
    weight_filler {
      type: "xavier"
    }
    bias_filler {
      type: "constant"
      value: 0
    }
  }
}
layer {
  name: "conv8_2_mbox_loc_perm"
  type: "Permute"
  bottom: "conv8_2_mbox_loc"
  top: "conv8_2_mbox_loc_perm"
  permute_param {
    order: 0
    order: 2
    order: 3
    order: 1
  }
}
layer {
  name: "conv8_2_mbox_loc_flat"
  type: "Flatten"
  bottom: "conv8_2_mbox_loc_perm"
  top: "conv8_2_mbox_loc_flat"
  flatten_param {
    axis: 1
  }
}
layer {
  name: "conv8_2_mbox_conf"
  type: "Convolution"
  bottom: "conv8_2"
  top: "conv8_2_mbox_conf"
  param {
    lr_mult: 1
    decay_mult: 1
  }
  param {
    lr_mult: 2
    decay_mult: 0
  }
  convolution_param {
    num_output: 44
    pad: 1
    kernel_size: 3
    stride: 1
    weight_filler {
      type: "xavier"
    }
    bias_filler {
      type: "constant"
      value: 0
    }
  }
}
layer {
  name: "conv8_2_mbox_conf_perm"
  type: "Permute"
  bottom: "conv8_2_mbox_conf"
  top: "conv8_2_mbox_conf_perm"
  permute_param {
    order: 0
    order: 2
    order: 3
    order: 1
  }
}
layer {
  name: "conv8_2_mbox_conf_flat"
  type: "Flatten"
  bottom: "conv8_2_mbox_conf_perm"
  top: "conv8_2_mbox_conf_flat"
  flatten_param {
    axis: 1
  }
}
layer {
  name: "conv8_2_mbox_priorbox"
  type: "PriorBox"
  bottom: "conv8_2"
  bottom: "data"
  top: "conv8_2_mbox_priorbox"
  prior_box_param {
    min_size: 213
    max_size: 264
    aspect_ratio: 2
    flip: true
    clip: false
    variance: 0.1
    variance: 0.1
    variance: 0.2
    variance: 0.2
    step: 100
    offset: 0.5
  }
}
layer {
  name: "conv9_2_mbox_loc"
  type: "Convolution"
  bottom: "conv9_2"
  top: "conv9_2_mbox_loc"
  param {
    lr_mult: 1
    decay_mult: 1
  }
  param {
    lr_mult: 2
    decay_mult: 0
  }
  convolution_param {
    num_output: 16
    pad: 1
    kernel_size: 3
    stride: 1
    weight_filler {
      type: "xavier"
    }
    bias_filler {
      type: "constant"
      value: 0
    }
  }
}
layer {
  name: "conv9_2_mbox_loc_perm"
  type: "Permute"
  bottom: "conv9_2_mbox_loc"
  top: "conv9_2_mbox_loc_perm"
  permute_param {
    order: 0
    order: 2
    order: 3
    order: 1
  }
}
layer {
  name: "conv9_2_mbox_loc_flat"
  type: "Flatten"
  bottom: "conv9_2_mbox_loc_perm"
  top: "conv9_2_mbox_loc_flat"
  flatten_param {
    axis: 1
  }
}
layer {
  name: "conv9_2_mbox_conf"
  type: "Convolution"
  bottom: "conv9_2"
  top: "conv9_2_mbox_conf"
  param {
    lr_mult: 1
    decay_mult: 1
  }
  param {
    lr_mult: 2
    decay_mult: 0
  }
  convolution_param {
    num_output: 44
    pad: 1
    kernel_size: 3
    stride: 1
    weight_filler {
      type: "xavier"
    }
    bias_filler {
      type: "constant"
      value: 0
    }
  }
}
layer {
  name: "conv9_2_mbox_conf_perm"
  type: "Permute"
  bottom: "conv9_2_mbox_conf"
  top: "conv9_2_mbox_conf_perm"
  permute_param {
    order: 0
    order: 2
    order: 3
    order: 1
  }
}
layer {
  name: "conv9_2_mbox_conf_flat"
  type: "Flatten"
  bottom: "conv9_2_mbox_conf_perm"
  top: "conv9_2_mbox_conf_flat"
  flatten_param {
    axis: 1
  }
}
layer {
  name: "conv9_2_mbox_priorbox"
  type: "PriorBox"
  bottom: "conv9_2"
  bottom: "data"
  top: "conv9_2_mbox_priorbox"
  prior_box_param {
    min_size: 264
    max_size: 315
    aspect_ratio: 2
    flip: true
    clip: false
    variance: 0.1
    variance: 0.1
    variance: 0.2
    variance: 0.2
    step: 300
    offset: 0.5
  }
}
layer {
  name: "mbox_loc"
  type: "Concat"
  bottom: "conv4_3_norm_mbox_loc_flat"
  bottom: "fc7_mbox_loc_flat"
  bottom: "conv6_2_mbox_loc_flat"
  bottom: "conv7_2_mbox_loc_flat"
  bottom: "conv8_2_mbox_loc_flat"
  bottom: "conv9_2_mbox_loc_flat"
  top: "mbox_loc"
  concat_param {
    axis: 1
  }
}
layer {
  name: "mbox_conf"
  type: "Concat"
  bottom: "conv4_3_norm_mbox_conf_flat"
  bottom: "fc7_mbox_conf_flat"
  bottom: "conv6_2_mbox_conf_flat"
  bottom: "conv7_2_mbox_conf_flat"
  bottom: "conv8_2_mbox_conf_flat"
  bottom: "conv9_2_mbox_conf_flat"
  top: "mbox_conf"
  concat_param {
    axis: 1
  }
}
layer {
  name: "mbox_priorbox"
  type: "Concat"
  bottom: "conv4_3_norm_mbox_priorbox"
  bottom: "fc7_mbox_priorbox"
  bottom: "conv6_2_mbox_priorbox"
  bottom: "conv7_2_mbox_priorbox"
  bottom: "conv8_2_mbox_priorbox"
  bottom: "conv9_2_mbox_priorbox"
  top: "mbox_priorbox"
  concat_param {
    axis: 2
  }
}
layer {
  name: "mbox_loss"
  type: "MultiBoxLoss"
  bottom: "mbox_loc"
  bottom: "mbox_conf"
  bottom: "mbox_priorbox"
  bottom: "label"
  top: "mbox_loss"
  include {
    phase: TRAIN
  }
  propagate_down: true
  propagate_down: true
  propagate_down: false
  propagate_down: false
  loss_param {
    normalization: VALID
  }
  multibox_loss_param {
    loc_loss_type: SMOOTH_L1
    conf_loss_type: SOFTMAX
    loc_weight: 1
    num_classes: 11
    share_location: true
    match_type: PER_PREDICTION
    overlap_threshold: 0.5
    use_prior_for_matching: true
    background_label_id: 0
    use_difficult_gt: true
    neg_pos_ratio: 3
    neg_overlap: 0.5
    code_type: CENTER_SIZE
    ignore_cross_boundary_bbox: false
    mining_type: MAX_NEGATIVE
  }
}
I0322 22:59:40.349941 15620 layer_factory.hpp:77] Creating layer data
I0322 22:59:40.350498 15620 net.cpp:100] Creating Layer data
I0322 22:59:40.350520 15620 net.cpp:408] data -> data
I0322 22:59:40.350558 15620 net.cpp:408] data -> label
I0322 22:59:40.351598 15634 db_lmdb.cpp:35] Opened lmdb examples/NWPU_VHR/NWPU_VHR_trainval_lmdb
I0322 22:59:40.369796 15620 annotated_data_layer.cpp:62] output data size: 32,3,300,300
I0322 22:59:40.417006 15620 net.cpp:150] Setting up data
I0322 22:59:40.417034 15620 net.cpp:157] Top shape: 32 3 300 300 (8640000)
I0322 22:59:40.417040 15620 net.cpp:157] Top shape: 1 1 4 8 (32)
I0322 22:59:40.417044 15620 net.cpp:165] Memory required for data: 34560128
I0322 22:59:40.417057 15620 layer_factory.hpp:77] Creating layer data_data_0_split
I0322 22:59:40.417083 15620 net.cpp:100] Creating Layer data_data_0_split
I0322 22:59:40.417091 15620 net.cpp:434] data_data_0_split <- data
I0322 22:59:40.417114 15620 net.cpp:408] data_data_0_split -> data_data_0_split_0
I0322 22:59:40.417132 15620 net.cpp:408] data_data_0_split -> data_data_0_split_1
I0322 22:59:40.417147 15620 net.cpp:408] data_data_0_split -> data_data_0_split_2
I0322 22:59:40.417160 15620 net.cpp:408] data_data_0_split -> data_data_0_split_3
I0322 22:59:40.417168 15620 net.cpp:408] data_data_0_split -> data_data_0_split_4
I0322 22:59:40.417179 15620 net.cpp:408] data_data_0_split -> data_data_0_split_5
I0322 22:59:40.417187 15620 net.cpp:408] data_data_0_split -> data_data_0_split_6
I0322 22:59:40.417338 15620 net.cpp:150] Setting up data_data_0_split
I0322 22:59:40.417348 15620 net.cpp:157] Top shape: 32 3 300 300 (8640000)
I0322 22:59:40.417352 15620 net.cpp:157] Top shape: 32 3 300 300 (8640000)
I0322 22:59:40.417357 15620 net.cpp:157] Top shape: 32 3 300 300 (8640000)
I0322 22:59:40.417362 15620 net.cpp:157] Top shape: 32 3 300 300 (8640000)
I0322 22:59:40.417367 15620 net.cpp:157] Top shape: 32 3 300 300 (8640000)
I0322 22:59:40.417376 15620 net.cpp:157] Top shape: 32 3 300 300 (8640000)
I0322 22:59:40.417382 15620 net.cpp:157] Top shape: 32 3 300 300 (8640000)
I0322 22:59:40.417387 15620 net.cpp:165] Memory required for data: 276480128
I0322 22:59:40.417393 15620 layer_factory.hpp:77] Creating layer conv1_1
I0322 22:59:40.417418 15620 net.cpp:100] Creating Layer conv1_1
I0322 22:59:40.417426 15620 net.cpp:434] conv1_1 <- data_data_0_split_0
I0322 22:59:40.417438 15620 net.cpp:408] conv1_1 -> conv1_1
I0322 22:59:40.880240 15620 net.cpp:150] Setting up conv1_1
I0322 22:59:40.880268 15620 net.cpp:157] Top shape: 32 64 300 300 (184320000)
I0322 22:59:40.880272 15620 net.cpp:165] Memory required for data: 1013760128
I0322 22:59:40.880296 15620 layer_factory.hpp:77] Creating layer relu1_1
I0322 22:59:40.880311 15620 net.cpp:100] Creating Layer relu1_1
I0322 22:59:40.880318 15620 net.cpp:434] relu1_1 <- conv1_1
I0322 22:59:40.880326 15620 net.cpp:395] relu1_1 -> conv1_1 (in-place)
I0322 22:59:40.880986 15620 net.cpp:150] Setting up relu1_1
I0322 22:59:40.881000 15620 net.cpp:157] Top shape: 32 64 300 300 (184320000)
I0322 22:59:40.881003 15620 net.cpp:165] Memory required for data: 1751040128
I0322 22:59:40.881008 15620 layer_factory.hpp:77] Creating layer conv1_2
I0322 22:59:40.881027 15620 net.cpp:100] Creating Layer conv1_2
I0322 22:59:40.881036 15620 net.cpp:434] conv1_2 <- conv1_1
I0322 22:59:40.881043 15620 net.cpp:408] conv1_2 -> conv1_2
I0322 22:59:40.883294 15620 net.cpp:150] Setting up conv1_2
I0322 22:59:40.883311 15620 net.cpp:157] Top shape: 32 64 300 300 (184320000)
I0322 22:59:40.883314 15620 net.cpp:165] Memory required for data: 2488320128
I0322 22:59:40.883325 15620 layer_factory.hpp:77] Creating layer relu1_2
I0322 22:59:40.883337 15620 net.cpp:100] Creating Layer relu1_2
I0322 22:59:40.883342 15620 net.cpp:434] relu1_2 <- conv1_2
I0322 22:59:40.883349 15620 net.cpp:395] relu1_2 -> conv1_2 (in-place)
I0322 22:59:40.883507 15620 net.cpp:150] Setting up relu1_2
I0322 22:59:40.883517 15620 net.cpp:157] Top shape: 32 64 300 300 (184320000)
I0322 22:59:40.883520 15620 net.cpp:165] Memory required for data: 3225600128
I0322 22:59:40.883524 15620 layer_factory.hpp:77] Creating layer pool1
I0322 22:59:40.883533 15620 net.cpp:100] Creating Layer pool1
I0322 22:59:40.883540 15620 net.cpp:434] pool1 <- conv1_2
I0322 22:59:40.883550 15620 net.cpp:408] pool1 -> pool1
I0322 22:59:40.883605 15620 net.cpp:150] Setting up pool1
I0322 22:59:40.883613 15620 net.cpp:157] Top shape: 32 64 150 150 (46080000)
I0322 22:59:40.883616 15620 net.cpp:165] Memory required for data: 3409920128
I0322 22:59:40.883622 15620 layer_factory.hpp:77] Creating layer conv2_1
I0322 22:59:40.883639 15620 net.cpp:100] Creating Layer conv2_1
I0322 22:59:40.883646 15620 net.cpp:434] conv2_1 <- pool1
I0322 22:59:40.883652 15620 net.cpp:408] conv2_1 -> conv2_1
I0322 22:59:40.885608 15620 net.cpp:150] Setting up conv2_1
I0322 22:59:40.885622 15620 net.cpp:157] Top shape: 32 128 150 150 (92160000)
I0322 22:59:40.885625 15620 net.cpp:165] Memory required for data: 3778560128
I0322 22:59:40.885637 15620 layer_factory.hpp:77] Creating layer relu2_1
I0322 22:59:40.885649 15620 net.cpp:100] Creating Layer relu2_1
I0322 22:59:40.885654 15620 net.cpp:434] relu2_1 <- conv2_1
I0322 22:59:40.885665 15620 net.cpp:395] relu2_1 -> conv2_1 (in-place)
I0322 22:59:40.885861 15620 net.cpp:150] Setting up relu2_1
I0322 22:59:40.885872 15620 net.cpp:157] Top shape: 32 128 150 150 (92160000)
I0322 22:59:40.885876 15620 net.cpp:165] Memory required for data: 4147200128
I0322 22:59:40.885882 15620 layer_factory.hpp:77] Creating layer conv2_2
I0322 22:59:40.885897 15620 net.cpp:100] Creating Layer conv2_2
I0322 22:59:40.885905 15620 net.cpp:434] conv2_2 <- conv2_1
I0322 22:59:40.885912 15620 net.cpp:408] conv2_2 -> conv2_2
I0322 22:59:40.888209 15620 net.cpp:150] Setting up conv2_2
I0322 22:59:40.888222 15620 net.cpp:157] Top shape: 32 128 150 150 (92160000)
I0322 22:59:40.888227 15620 net.cpp:165] Memory required for data: 4515840128
I0322 22:59:40.888236 15620 layer_factory.hpp:77] Creating layer relu2_2
I0322 22:59:40.888247 15620 net.cpp:100] Creating Layer relu2_2
I0322 22:59:40.888252 15620 net.cpp:434] relu2_2 <- conv2_2
I0322 22:59:40.888259 15620 net.cpp:395] relu2_2 -> conv2_2 (in-place)
I0322 22:59:40.888916 15620 net.cpp:150] Setting up relu2_2
I0322 22:59:40.888928 15620 net.cpp:157] Top shape: 32 128 150 150 (92160000)
I0322 22:59:40.888932 15620 net.cpp:165] Memory required for data: 4884480128
I0322 22:59:40.888938 15620 layer_factory.hpp:77] Creating layer pool2
I0322 22:59:40.888964 15620 net.cpp:100] Creating Layer pool2
I0322 22:59:40.888970 15620 net.cpp:434] pool2 <- conv2_2
I0322 22:59:40.888976 15620 net.cpp:408] pool2 -> pool2
I0322 22:59:40.889025 15620 net.cpp:150] Setting up pool2
I0322 22:59:40.889034 15620 net.cpp:157] Top shape: 32 128 75 75 (23040000)
I0322 22:59:40.889037 15620 net.cpp:165] Memory required for data: 4976640128
I0322 22:59:40.889042 15620 layer_factory.hpp:77] Creating layer conv3_1
I0322 22:59:40.889058 15620 net.cpp:100] Creating Layer conv3_1
I0322 22:59:40.889065 15620 net.cpp:434] conv3_1 <- pool2
I0322 22:59:40.889072 15620 net.cpp:408] conv3_1 -> conv3_1
I0322 22:59:40.893609 15620 net.cpp:150] Setting up conv3_1
I0322 22:59:40.893626 15620 net.cpp:157] Top shape: 32 256 75 75 (46080000)
I0322 22:59:40.893630 15620 net.cpp:165] Memory required for data: 5160960128
I0322 22:59:40.893641 15620 layer_factory.hpp:77] Creating layer relu3_1
I0322 22:59:40.893651 15620 net.cpp:100] Creating Layer relu3_1
I0322 22:59:40.893661 15620 net.cpp:434] relu3_1 <- conv3_1
I0322 22:59:40.893667 15620 net.cpp:395] relu3_1 -> conv3_1 (in-place)
I0322 22:59:40.893867 15620 net.cpp:150] Setting up relu3_1
I0322 22:59:40.893877 15620 net.cpp:157] Top shape: 32 256 75 75 (46080000)
I0322 22:59:40.893882 15620 net.cpp:165] Memory required for data: 5345280128
I0322 22:59:40.893887 15620 layer_factory.hpp:77] Creating layer conv3_2
I0322 22:59:40.893901 15620 net.cpp:100] Creating Layer conv3_2
I0322 22:59:40.893908 15620 net.cpp:434] conv3_2 <- conv3_1
I0322 22:59:40.893916 15620 net.cpp:408] conv3_2 -> conv3_2
I0322 22:59:40.898988 15620 net.cpp:150] Setting up conv3_2
I0322 22:59:40.899004 15620 net.cpp:157] Top shape: 32 256 75 75 (46080000)
I0322 22:59:40.899008 15620 net.cpp:165] Memory required for data: 5529600128
I0322 22:59:40.899017 15620 layer_factory.hpp:77] Creating layer relu3_2
I0322 22:59:40.899026 15620 net.cpp:100] Creating Layer relu3_2
I0322 22:59:40.899031 15620 net.cpp:434] relu3_2 <- conv3_2
I0322 22:59:40.899037 15620 net.cpp:395] relu3_2 -> conv3_2 (in-place)
I0322 22:59:40.899209 15620 net.cpp:150] Setting up relu3_2
I0322 22:59:40.899220 15620 net.cpp:157] Top shape: 32 256 75 75 (46080000)
I0322 22:59:40.899224 15620 net.cpp:165] Memory required for data: 5713920128
I0322 22:59:40.899228 15620 layer_factory.hpp:77] Creating layer conv3_3
I0322 22:59:40.899245 15620 net.cpp:100] Creating Layer conv3_3
I0322 22:59:40.899252 15620 net.cpp:434] conv3_3 <- conv3_2
I0322 22:59:40.899258 15620 net.cpp:408] conv3_3 -> conv3_3
I0322 22:59:40.904410 15620 net.cpp:150] Setting up conv3_3
I0322 22:59:40.904428 15620 net.cpp:157] Top shape: 32 256 75 75 (46080000)
I0322 22:59:40.904433 15620 net.cpp:165] Memory required for data: 5898240128
I0322 22:59:40.904440 15620 layer_factory.hpp:77] Creating layer relu3_3
I0322 22:59:40.904446 15620 net.cpp:100] Creating Layer relu3_3
I0322 22:59:40.904451 15620 net.cpp:434] relu3_3 <- conv3_3
I0322 22:59:40.904459 15620 net.cpp:395] relu3_3 -> conv3_3 (in-place)
I0322 22:59:40.905117 15620 net.cpp:150] Setting up relu3_3
I0322 22:59:40.905128 15620 net.cpp:157] Top shape: 32 256 75 75 (46080000)
I0322 22:59:40.905133 15620 net.cpp:165] Memory required for data: 6082560128
I0322 22:59:40.905153 15620 layer_factory.hpp:77] Creating layer pool3
I0322 22:59:40.905181 15620 net.cpp:100] Creating Layer pool3
I0322 22:59:40.905189 15620 net.cpp:434] pool3 <- conv3_3
I0322 22:59:40.905200 15620 net.cpp:408] pool3 -> pool3
I0322 22:59:40.905249 15620 net.cpp:150] Setting up pool3
I0322 22:59:40.905258 15620 net.cpp:157] Top shape: 32 256 38 38 (11829248)
I0322 22:59:40.905262 15620 net.cpp:165] Memory required for data: 6129877120
I0322 22:59:40.905267 15620 layer_factory.hpp:77] Creating layer conv4_1_depthwise
I0322 22:59:40.905303 15620 net.cpp:100] Creating Layer conv4_1_depthwise
I0322 22:59:40.905308 15620 net.cpp:434] conv4_1_depthwise <- pool3
I0322 22:59:40.905315 15620 net.cpp:408] conv4_1_depthwise -> conv4_1_3x3
I0322 22:59:40.905516 15620 net.cpp:150] Setting up conv4_1_depthwise
I0322 22:59:40.905537 15620 net.cpp:157] Top shape: 32 256 38 38 (11829248)
I0322 22:59:40.905541 15620 net.cpp:165] Memory required for data: 6177194112
I0322 22:59:40.905548 15620 layer_factory.hpp:77] Creating layer conv4_1_3x3_relu
I0322 22:59:40.905557 15620 net.cpp:100] Creating Layer conv4_1_3x3_relu
I0322 22:59:40.905561 15620 net.cpp:434] conv4_1_3x3_relu <- conv4_1_3x3
I0322 22:59:40.905566 15620 net.cpp:395] conv4_1_3x3_relu -> conv4_1_3x3 (in-place)
I0322 22:59:40.905746 15620 net.cpp:150] Setting up conv4_1_3x3_relu
I0322 22:59:40.905758 15620 net.cpp:157] Top shape: 32 256 38 38 (11829248)
I0322 22:59:40.905762 15620 net.cpp:165] Memory required for data: 6224511104
I0322 22:59:40.905766 15620 layer_factory.hpp:77] Creating layer conv4_1_1x1
I0322 22:59:40.905778 15620 net.cpp:100] Creating Layer conv4_1_1x1
I0322 22:59:40.905797 15620 net.cpp:434] conv4_1_1x1 <- conv4_1_3x3
I0322 22:59:40.905804 15620 net.cpp:408] conv4_1_1x1 -> conv4_1
I0322 22:59:40.908407 15620 net.cpp:150] Setting up conv4_1_1x1
I0322 22:59:40.908428 15620 net.cpp:157] Top shape: 32 512 38 38 (23658496)
I0322 22:59:40.908435 15620 net.cpp:165] Memory required for data: 6319145088
I0322 22:59:40.908462 15620 layer_factory.hpp:77] Creating layer relu4_1
I0322 22:59:40.908471 15620 net.cpp:100] Creating Layer relu4_1
I0322 22:59:40.908476 15620 net.cpp:434] relu4_1 <- conv4_1
I0322 22:59:40.908488 15620 net.cpp:395] relu4_1 -> conv4_1 (in-place)
I0322 22:59:40.908665 15620 net.cpp:150] Setting up relu4_1
I0322 22:59:40.908674 15620 net.cpp:157] Top shape: 32 512 38 38 (23658496)
I0322 22:59:40.908679 15620 net.cpp:165] Memory required for data: 6413779072
I0322 22:59:40.908684 15620 layer_factory.hpp:77] Creating layer conv4_2
I0322 22:59:40.908699 15620 net.cpp:100] Creating Layer conv4_2
I0322 22:59:40.908704 15620 net.cpp:434] conv4_2 <- conv4_1
I0322 22:59:40.908711 15620 net.cpp:408] conv4_2 -> conv4_2
I0322 22:59:40.923321 15620 net.cpp:150] Setting up conv4_2
I0322 22:59:40.923346 15620 net.cpp:157] Top shape: 32 512 38 38 (23658496)
I0322 22:59:40.923350 15620 net.cpp:165] Memory required for data: 6508413056
I0322 22:59:40.923359 15620 layer_factory.hpp:77] Creating layer relu4_2
I0322 22:59:40.923369 15620 net.cpp:100] Creating Layer relu4_2
I0322 22:59:40.923374 15620 net.cpp:434] relu4_2 <- conv4_2
I0322 22:59:40.923382 15620 net.cpp:395] relu4_2 -> conv4_2 (in-place)
I0322 22:59:40.923560 15620 net.cpp:150] Setting up relu4_2
I0322 22:59:40.923571 15620 net.cpp:157] Top shape: 32 512 38 38 (23658496)
I0322 22:59:40.923574 15620 net.cpp:165] Memory required for data: 6603047040
I0322 22:59:40.923579 15620 layer_factory.hpp:77] Creating layer conv4_3
I0322 22:59:40.923597 15620 net.cpp:100] Creating Layer conv4_3
I0322 22:59:40.923604 15620 net.cpp:434] conv4_3 <- conv4_2
I0322 22:59:40.923614 15620 net.cpp:408] conv4_3 -> conv4_3
I0322 22:59:40.938151 15620 net.cpp:150] Setting up conv4_3
I0322 22:59:40.938176 15620 net.cpp:157] Top shape: 32 512 38 38 (23658496)
I0322 22:59:40.938180 15620 net.cpp:165] Memory required for data: 6697681024
I0322 22:59:40.938191 15620 layer_factory.hpp:77] Creating layer relu4_3
I0322 22:59:40.938203 15620 net.cpp:100] Creating Layer relu4_3
I0322 22:59:40.938211 15620 net.cpp:434] relu4_3 <- conv4_3
I0322 22:59:40.938222 15620 net.cpp:395] relu4_3 -> conv4_3 (in-place)
I0322 22:59:40.938904 15620 net.cpp:150] Setting up relu4_3
I0322 22:59:40.938915 15620 net.cpp:157] Top shape: 32 512 38 38 (23658496)
I0322 22:59:40.938918 15620 net.cpp:165] Memory required for data: 6792315008
I0322 22:59:40.938925 15620 layer_factory.hpp:77] Creating layer conv4_3_relu4_3_0_split
I0322 22:59:40.938951 15620 net.cpp:100] Creating Layer conv4_3_relu4_3_0_split
I0322 22:59:40.938958 15620 net.cpp:434] conv4_3_relu4_3_0_split <- conv4_3
I0322 22:59:40.938966 15620 net.cpp:408] conv4_3_relu4_3_0_split -> conv4_3_relu4_3_0_split_0
I0322 22:59:40.938977 15620 net.cpp:408] conv4_3_relu4_3_0_split -> conv4_3_relu4_3_0_split_1
I0322 22:59:40.939020 15620 net.cpp:150] Setting up conv4_3_relu4_3_0_split
I0322 22:59:40.939043 15620 net.cpp:157] Top shape: 32 512 38 38 (23658496)
I0322 22:59:40.939047 15620 net.cpp:157] Top shape: 32 512 38 38 (23658496)
I0322 22:59:40.939052 15620 net.cpp:165] Memory required for data: 6981582976
I0322 22:59:40.939059 15620 layer_factory.hpp:77] Creating layer pool4
I0322 22:59:40.939069 15620 net.cpp:100] Creating Layer pool4
I0322 22:59:40.939077 15620 net.cpp:434] pool4 <- conv4_3_relu4_3_0_split_0
I0322 22:59:40.939086 15620 net.cpp:408] pool4 -> pool4
I0322 22:59:40.939129 15620 net.cpp:150] Setting up pool4
I0322 22:59:40.939137 15620 net.cpp:157] Top shape: 32 512 19 19 (5914624)
I0322 22:59:40.939141 15620 net.cpp:165] Memory required for data: 7005241472
I0322 22:59:40.939151 15620 layer_factory.hpp:77] Creating layer conv5_1_depthwise
I0322 22:59:40.939160 15620 net.cpp:100] Creating Layer conv5_1_depthwise
I0322 22:59:40.939167 15620 net.cpp:434] conv5_1_depthwise <- pool4
I0322 22:59:40.939177 15620 net.cpp:408] conv5_1_depthwise -> conv5_1_3x3
I0322 22:59:40.939402 15620 net.cpp:150] Setting up conv5_1_depthwise
I0322 22:59:40.939411 15620 net.cpp:157] Top shape: 32 512 19 19 (5914624)
I0322 22:59:40.939416 15620 net.cpp:165] Memory required for data: 7028899968
I0322 22:59:40.939422 15620 layer_factory.hpp:77] Creating layer conv5_1_3x3_relu
I0322 22:59:40.939429 15620 net.cpp:100] Creating Layer conv5_1_3x3_relu
I0322 22:59:40.939433 15620 net.cpp:434] conv5_1_3x3_relu <- conv5_1_3x3
I0322 22:59:40.939440 15620 net.cpp:395] conv5_1_3x3_relu -> conv5_1_3x3 (in-place)
I0322 22:59:40.939599 15620 net.cpp:150] Setting up conv5_1_3x3_relu
I0322 22:59:40.939608 15620 net.cpp:157] Top shape: 32 512 19 19 (5914624)
I0322 22:59:40.939611 15620 net.cpp:165] Memory required for data: 7052558464
I0322 22:59:40.939616 15620 layer_factory.hpp:77] Creating layer conv5_1_1x1
I0322 22:59:40.939630 15620 net.cpp:100] Creating Layer conv5_1_1x1
I0322 22:59:40.939636 15620 net.cpp:434] conv5_1_1x1 <- conv5_1_3x3
I0322 22:59:40.939644 15620 net.cpp:408] conv5_1_1x1 -> conv5_1
I0322 22:59:40.943231 15620 net.cpp:150] Setting up conv5_1_1x1
I0322 22:59:40.943244 15620 net.cpp:157] Top shape: 32 512 19 19 (5914624)
I0322 22:59:40.943248 15620 net.cpp:165] Memory required for data: 7076216960
I0322 22:59:40.943258 15620 layer_factory.hpp:77] Creating layer relu5_1
I0322 22:59:40.943289 15620 net.cpp:100] Creating Layer relu5_1
I0322 22:59:40.943296 15620 net.cpp:434] relu5_1 <- conv5_1
I0322 22:59:40.943305 15620 net.cpp:395] relu5_1 -> conv5_1 (in-place)
I0322 22:59:40.943464 15620 net.cpp:150] Setting up relu5_1
I0322 22:59:40.943475 15620 net.cpp:157] Top shape: 32 512 19 19 (5914624)
I0322 22:59:40.943478 15620 net.cpp:165] Memory required for data: 7099875456
I0322 22:59:40.943482 15620 layer_factory.hpp:77] Creating layer conv5_2_depthwise
I0322 22:59:40.943490 15620 net.cpp:100] Creating Layer conv5_2_depthwise
I0322 22:59:40.943496 15620 net.cpp:434] conv5_2_depthwise <- conv5_1
I0322 22:59:40.943503 15620 net.cpp:408] conv5_2_depthwise -> conv5_2_3x3
I0322 22:59:40.943723 15620 net.cpp:150] Setting up conv5_2_depthwise
I0322 22:59:40.943732 15620 net.cpp:157] Top shape: 32 512 19 19 (5914624)
I0322 22:59:40.943735 15620 net.cpp:165] Memory required for data: 7123533952
I0322 22:59:40.943742 15620 layer_factory.hpp:77] Creating layer conv5_2_3x3_relu
I0322 22:59:40.943747 15620 net.cpp:100] Creating Layer conv5_2_3x3_relu
I0322 22:59:40.943753 15620 net.cpp:434] conv5_2_3x3_relu <- conv5_2_3x3
I0322 22:59:40.943759 15620 net.cpp:395] conv5_2_3x3_relu -> conv5_2_3x3 (in-place)
I0322 22:59:40.944432 15620 net.cpp:150] Setting up conv5_2_3x3_relu
I0322 22:59:40.944444 15620 net.cpp:157] Top shape: 32 512 19 19 (5914624)
I0322 22:59:40.944447 15620 net.cpp:165] Memory required for data: 7147192448
I0322 22:59:40.944453 15620 layer_factory.hpp:77] Creating layer conv5_2_1x1
I0322 22:59:40.944465 15620 net.cpp:100] Creating Layer conv5_2_1x1
I0322 22:59:40.944473 15620 net.cpp:434] conv5_2_1x1 <- conv5_2_3x3
I0322 22:59:40.944484 15620 net.cpp:408] conv5_2_1x1 -> conv5_2
I0322 22:59:40.946807 15620 net.cpp:150] Setting up conv5_2_1x1
I0322 22:59:40.946831 15620 net.cpp:157] Top shape: 32 512 19 19 (5914624)
I0322 22:59:40.946837 15620 net.cpp:165] Memory required for data: 7170850944
I0322 22:59:40.946846 15620 layer_factory.hpp:77] Creating layer relu5_2
I0322 22:59:40.946857 15620 net.cpp:100] Creating Layer relu5_2
I0322 22:59:40.946861 15620 net.cpp:434] relu5_2 <- conv5_2
I0322 22:59:40.946868 15620 net.cpp:395] relu5_2 -> conv5_2 (in-place)
I0322 22:59:40.947024 15620 net.cpp:150] Setting up relu5_2
I0322 22:59:40.947033 15620 net.cpp:157] Top shape: 32 512 19 19 (5914624)
I0322 22:59:40.947037 15620 net.cpp:165] Memory required for data: 7194509440
I0322 22:59:40.947041 15620 layer_factory.hpp:77] Creating layer conv5_3_depthwise
I0322 22:59:40.947051 15620 net.cpp:100] Creating Layer conv5_3_depthwise
I0322 22:59:40.947057 15620 net.cpp:434] conv5_3_depthwise <- conv5_2
I0322 22:59:40.947062 15620 net.cpp:408] conv5_3_depthwise -> conv5_3_3x3
I0322 22:59:40.947283 15620 net.cpp:150] Setting up conv5_3_depthwise
I0322 22:59:40.947291 15620 net.cpp:157] Top shape: 32 512 19 19 (5914624)
I0322 22:59:40.947295 15620 net.cpp:165] Memory required for data: 7218167936
I0322 22:59:40.947300 15620 layer_factory.hpp:77] Creating layer conv5_3_3x3_relu
I0322 22:59:40.947307 15620 net.cpp:100] Creating Layer conv5_3_3x3_relu
I0322 22:59:40.947314 15620 net.cpp:434] conv5_3_3x3_relu <- conv5_3_3x3
I0322 22:59:40.947319 15620 net.cpp:395] conv5_3_3x3_relu -> conv5_3_3x3 (in-place)
I0322 22:59:40.947477 15620 net.cpp:150] Setting up conv5_3_3x3_relu
I0322 22:59:40.947487 15620 net.cpp:157] Top shape: 32 512 19 19 (5914624)
I0322 22:59:40.947490 15620 net.cpp:165] Memory required for data: 7241826432
I0322 22:59:40.947494 15620 layer_factory.hpp:77] Creating layer conv5_3_1x1
I0322 22:59:40.947504 15620 net.cpp:100] Creating Layer conv5_3_1x1
I0322 22:59:40.947510 15620 net.cpp:434] conv5_3_1x1 <- conv5_3_3x3
I0322 22:59:40.947516 15620 net.cpp:408] conv5_3_1x1 -> conv5_3
I0322 22:59:40.950608 15620 net.cpp:150] Setting up conv5_3_1x1
I0322 22:59:40.950621 15620 net.cpp:157] Top shape: 32 512 19 19 (5914624)
I0322 22:59:40.950625 15620 net.cpp:165] Memory required for data: 7265484928
I0322 22:59:40.950654 15620 layer_factory.hpp:77] Creating layer relu5_3
I0322 22:59:40.950661 15620 net.cpp:100] Creating Layer relu5_3
I0322 22:59:40.950667 15620 net.cpp:434] relu5_3 <- conv5_3
I0322 22:59:40.950675 15620 net.cpp:395] relu5_3 -> conv5_3 (in-place)
I0322 22:59:40.951336 15620 net.cpp:150] Setting up relu5_3
I0322 22:59:40.951349 15620 net.cpp:157] Top shape: 32 512 19 19 (5914624)
I0322 22:59:40.951351 15620 net.cpp:165] Memory required for data: 7289143424
I0322 22:59:40.951357 15620 layer_factory.hpp:77] Creating layer pool5
I0322 22:59:40.951364 15620 net.cpp:100] Creating Layer pool5
I0322 22:59:40.951372 15620 net.cpp:434] pool5 <- conv5_3
I0322 22:59:40.951381 15620 net.cpp:408] pool5 -> pool5
I0322 22:59:40.951428 15620 net.cpp:150] Setting up pool5
I0322 22:59:40.951438 15620 net.cpp:157] Top shape: 32 512 19 19 (5914624)
I0322 22:59:40.951442 15620 net.cpp:165] Memory required for data: 7312801920
I0322 22:59:40.951445 15620 layer_factory.hpp:77] Creating layer fc6_depthwise
I0322 22:59:40.951457 15620 net.cpp:100] Creating Layer fc6_depthwise
I0322 22:59:40.951463 15620 net.cpp:434] fc6_depthwise <- pool5
I0322 22:59:40.951470 15620 net.cpp:408] fc6_depthwise -> fc6_3x3
I0322 22:59:40.951687 15620 net.cpp:150] Setting up fc6_depthwise
I0322 22:59:40.951695 15620 net.cpp:157] Top shape: 32 512 19 19 (5914624)
I0322 22:59:40.951699 15620 net.cpp:165] Memory required for data: 7336460416
I0322 22:59:40.951706 15620 layer_factory.hpp:77] Creating layer fc6_3x3_relu
I0322 22:59:40.951720 15620 net.cpp:100] Creating Layer fc6_3x3_relu
I0322 22:59:40.951727 15620 net.cpp:434] fc6_3x3_relu <- fc6_3x3
I0322 22:59:40.951735 15620 net.cpp:395] fc6_3x3_relu -> fc6_3x3 (in-place)
I0322 22:59:40.951898 15620 net.cpp:150] Setting up fc6_3x3_relu
I0322 22:59:40.951907 15620 net.cpp:157] Top shape: 32 512 19 19 (5914624)
I0322 22:59:40.951925 15620 net.cpp:165] Memory required for data: 7360118912
I0322 22:59:40.951930 15620 layer_factory.hpp:77] Creating layer fc6_1x1
I0322 22:59:40.951943 15620 net.cpp:100] Creating Layer fc6_1x1
I0322 22:59:40.951951 15620 net.cpp:434] fc6_1x1 <- fc6_3x3
I0322 22:59:40.951959 15620 net.cpp:408] fc6_1x1 -> fc6
I0322 22:59:40.955212 15620 net.cpp:150] Setting up fc6_1x1
I0322 22:59:40.955226 15620 net.cpp:157] Top shape: 32 1024 19 19 (11829248)
I0322 22:59:40.955230 15620 net.cpp:165] Memory required for data: 7407435904
I0322 22:59:40.955238 15620 layer_factory.hpp:77] Creating layer relu6
I0322 22:59:40.955247 15620 net.cpp:100] Creating Layer relu6
I0322 22:59:40.955255 15620 net.cpp:434] relu6 <- fc6
I0322 22:59:40.955260 15620 net.cpp:395] relu6 -> fc6 (in-place)
I0322 22:59:40.955437 15620 net.cpp:150] Setting up relu6
I0322 22:59:40.955464 15620 net.cpp:157] Top shape: 32 1024 19 19 (11829248)
I0322 22:59:40.955468 15620 net.cpp:165] Memory required for data: 7454752896
I0322 22:59:40.955473 15620 layer_factory.hpp:77] Creating layer fc7
I0322 22:59:40.955488 15620 net.cpp:100] Creating Layer fc7
I0322 22:59:40.955493 15620 net.cpp:434] fc7 <- fc6
I0322 22:59:40.955499 15620 net.cpp:408] fc7 -> fc7
I0322 22:59:40.962914 15620 net.cpp:150] Setting up fc7
I0322 22:59:40.962934 15620 net.cpp:157] Top shape: 32 1024 19 19 (11829248)
I0322 22:59:40.962937 15620 net.cpp:165] Memory required for data: 7502069888
I0322 22:59:40.962944 15620 layer_factory.hpp:77] Creating layer relu7
I0322 22:59:40.962952 15620 net.cpp:100] Creating Layer relu7
I0322 22:59:40.962957 15620 net.cpp:434] relu7 <- fc7
I0322 22:59:40.962962 15620 net.cpp:395] relu7 -> fc7 (in-place)
I0322 22:59:40.963114 15620 net.cpp:150] Setting up relu7
I0322 22:59:40.963124 15620 net.cpp:157] Top shape: 32 1024 19 19 (11829248)
I0322 22:59:40.963129 15620 net.cpp:165] Memory required for data: 7549386880
I0322 22:59:40.963132 15620 layer_factory.hpp:77] Creating layer fc7_relu7_0_split
I0322 22:59:40.963143 15620 net.cpp:100] Creating Layer fc7_relu7_0_split
I0322 22:59:40.963150 15620 net.cpp:434] fc7_relu7_0_split <- fc7
I0322 22:59:40.963161 15620 net.cpp:408] fc7_relu7_0_split -> fc7_relu7_0_split_0
I0322 22:59:40.963171 15620 net.cpp:408] fc7_relu7_0_split -> fc7_relu7_0_split_1
I0322 22:59:40.963181 15620 net.cpp:408] fc7_relu7_0_split -> fc7_relu7_0_split_2
I0322 22:59:40.963189 15620 net.cpp:408] fc7_relu7_0_split -> fc7_relu7_0_split_3
I0322 22:59:40.963254 15620 net.cpp:150] Setting up fc7_relu7_0_split
I0322 22:59:40.963268 15620 net.cpp:157] Top shape: 32 1024 19 19 (11829248)
I0322 22:59:40.963274 15620 net.cpp:157] Top shape: 32 1024 19 19 (11829248)
I0322 22:59:40.963284 15620 net.cpp:157] Top shape: 32 1024 19 19 (11829248)
I0322 22:59:40.963289 15620 net.cpp:157] Top shape: 32 1024 19 19 (11829248)
I0322 22:59:40.963294 15620 net.cpp:165] Memory required for data: 7738654848
I0322 22:59:40.963299 15620 layer_factory.hpp:77] Creating layer conv6_1
I0322 22:59:40.963312 15620 net.cpp:100] Creating Layer conv6_1
I0322 22:59:40.963320 15620 net.cpp:434] conv6_1 <- fc7_relu7_0_split_0
I0322 22:59:40.963326 15620 net.cpp:408] conv6_1 -> conv6_1
I0322 22:59:40.965618 15620 net.cpp:150] Setting up conv6_1
I0322 22:59:40.965631 15620 net.cpp:157] Top shape: 32 256 19 19 (2957312)
I0322 22:59:40.965636 15620 net.cpp:165] Memory required for data: 7750484096
I0322 22:59:40.965646 15620 layer_factory.hpp:77] Creating layer conv6_1_relu
I0322 22:59:40.965656 15620 net.cpp:100] Creating Layer conv6_1_relu
I0322 22:59:40.965663 15620 net.cpp:434] conv6_1_relu <- conv6_1
I0322 22:59:40.965670 15620 net.cpp:395] conv6_1_relu -> conv6_1 (in-place)
I0322 22:59:40.966377 15620 net.cpp:150] Setting up conv6_1_relu
I0322 22:59:40.966389 15620 net.cpp:157] Top shape: 32 256 19 19 (2957312)
I0322 22:59:40.966393 15620 net.cpp:165] Memory required for data: 7762313344
I0322 22:59:40.966399 15620 layer_factory.hpp:77] Creating layer conv6_2
I0322 22:59:40.966429 15620 net.cpp:100] Creating Layer conv6_2
I0322 22:59:40.966436 15620 net.cpp:434] conv6_2 <- conv6_1
I0322 22:59:40.966457 15620 net.cpp:408] conv6_2 -> conv6_2
I0322 22:59:40.974155 15620 net.cpp:150] Setting up conv6_2
I0322 22:59:40.974175 15620 net.cpp:157] Top shape: 32 512 10 10 (1638400)
I0322 22:59:40.974179 15620 net.cpp:165] Memory required for data: 7768866944
I0322 22:59:40.974202 15620 layer_factory.hpp:77] Creating layer conv6_2_relu
I0322 22:59:40.974212 15620 net.cpp:100] Creating Layer conv6_2_relu
I0322 22:59:40.974220 15620 net.cpp:434] conv6_2_relu <- conv6_2
I0322 22:59:40.974228 15620 net.cpp:395] conv6_2_relu -> conv6_2 (in-place)
I0322 22:59:40.974390 15620 net.cpp:150] Setting up conv6_2_relu
I0322 22:59:40.974400 15620 net.cpp:157] Top shape: 32 512 10 10 (1638400)
I0322 22:59:40.974402 15620 net.cpp:165] Memory required for data: 7775420544
I0322 22:59:40.974408 15620 layer_factory.hpp:77] Creating layer conv6_2_conv6_2_relu_0_split
I0322 22:59:40.974417 15620 net.cpp:100] Creating Layer conv6_2_conv6_2_relu_0_split
I0322 22:59:40.974426 15620 net.cpp:434] conv6_2_conv6_2_relu_0_split <- conv6_2
I0322 22:59:40.974432 15620 net.cpp:408] conv6_2_conv6_2_relu_0_split -> conv6_2_conv6_2_relu_0_split_0
I0322 22:59:40.974442 15620 net.cpp:408] conv6_2_conv6_2_relu_0_split -> conv6_2_conv6_2_relu_0_split_1
I0322 22:59:40.974450 15620 net.cpp:408] conv6_2_conv6_2_relu_0_split -> conv6_2_conv6_2_relu_0_split_2
I0322 22:59:40.974457 15620 net.cpp:408] conv6_2_conv6_2_relu_0_split -> conv6_2_conv6_2_relu_0_split_3
I0322 22:59:40.974519 15620 net.cpp:150] Setting up conv6_2_conv6_2_relu_0_split
I0322 22:59:40.974527 15620 net.cpp:157] Top shape: 32 512 10 10 (1638400)
I0322 22:59:40.974531 15620 net.cpp:157] Top shape: 32 512 10 10 (1638400)
I0322 22:59:40.974536 15620 net.cpp:157] Top shape: 32 512 10 10 (1638400)
I0322 22:59:40.974544 15620 net.cpp:157] Top shape: 32 512 10 10 (1638400)
I0322 22:59:40.974548 15620 net.cpp:165] Memory required for data: 7801634944
I0322 22:59:40.974552 15620 layer_factory.hpp:77] Creating layer conv7_1
I0322 22:59:40.974568 15620 net.cpp:100] Creating Layer conv7_1
I0322 22:59:40.974575 15620 net.cpp:434] conv7_1 <- conv6_2_conv6_2_relu_0_split_0
I0322 22:59:40.974581 15620 net.cpp:408] conv7_1 -> conv7_1
I0322 22:59:40.976066 15620 net.cpp:150] Setting up conv7_1
I0322 22:59:40.976083 15620 net.cpp:157] Top shape: 32 128 10 10 (409600)
I0322 22:59:40.976088 15620 net.cpp:165] Memory required for data: 7803273344
I0322 22:59:40.976096 15620 layer_factory.hpp:77] Creating layer conv7_1_relu
I0322 22:59:40.976106 15620 net.cpp:100] Creating Layer conv7_1_relu
I0322 22:59:40.976111 15620 net.cpp:434] conv7_1_relu <- conv7_1
I0322 22:59:40.976117 15620 net.cpp:395] conv7_1_relu -> conv7_1 (in-place)
I0322 22:59:40.976270 15620 net.cpp:150] Setting up conv7_1_relu
I0322 22:59:40.976279 15620 net.cpp:157] Top shape: 32 128 10 10 (409600)
I0322 22:59:40.976285 15620 net.cpp:165] Memory required for data: 7804911744
I0322 22:59:40.976290 15620 layer_factory.hpp:77] Creating layer conv7_2
I0322 22:59:40.976305 15620 net.cpp:100] Creating Layer conv7_2
I0322 22:59:40.976311 15620 net.cpp:434] conv7_2 <- conv7_1
I0322 22:59:40.976320 15620 net.cpp:408] conv7_2 -> conv7_2
I0322 22:59:40.979581 15620 net.cpp:150] Setting up conv7_2
I0322 22:59:40.979595 15620 net.cpp:157] Top shape: 32 256 5 5 (204800)
I0322 22:59:40.979599 15620 net.cpp:165] Memory required for data: 7805730944
I0322 22:59:40.979621 15620 layer_factory.hpp:77] Creating layer conv7_2_relu
I0322 22:59:40.979629 15620 net.cpp:100] Creating Layer conv7_2_relu
I0322 22:59:40.979634 15620 net.cpp:434] conv7_2_relu <- conv7_2
I0322 22:59:40.979643 15620 net.cpp:395] conv7_2_relu -> conv7_2 (in-place)
I0322 22:59:40.980330 15620 net.cpp:150] Setting up conv7_2_relu
I0322 22:59:40.980343 15620 net.cpp:157] Top shape: 32 256 5 5 (204800)
I0322 22:59:40.980347 15620 net.cpp:165] Memory required for data: 7806550144
I0322 22:59:40.980352 15620 layer_factory.hpp:77] Creating layer conv7_2_conv7_2_relu_0_split
I0322 22:59:40.980361 15620 net.cpp:100] Creating Layer conv7_2_conv7_2_relu_0_split
I0322 22:59:40.980367 15620 net.cpp:434] conv7_2_conv7_2_relu_0_split <- conv7_2
I0322 22:59:40.980392 15620 net.cpp:408] conv7_2_conv7_2_relu_0_split -> conv7_2_conv7_2_relu_0_split_0
I0322 22:59:40.980401 15620 net.cpp:408] conv7_2_conv7_2_relu_0_split -> conv7_2_conv7_2_relu_0_split_1
I0322 22:59:40.980408 15620 net.cpp:408] conv7_2_conv7_2_relu_0_split -> conv7_2_conv7_2_relu_0_split_2
I0322 22:59:40.980415 15620 net.cpp:408] conv7_2_conv7_2_relu_0_split -> conv7_2_conv7_2_relu_0_split_3
I0322 22:59:40.980476 15620 net.cpp:150] Setting up conv7_2_conv7_2_relu_0_split
I0322 22:59:40.980484 15620 net.cpp:157] Top shape: 32 256 5 5 (204800)
I0322 22:59:40.980489 15620 net.cpp:157] Top shape: 32 256 5 5 (204800)
I0322 22:59:40.980492 15620 net.cpp:157] Top shape: 32 256 5 5 (204800)
I0322 22:59:40.980499 15620 net.cpp:157] Top shape: 32 256 5 5 (204800)
I0322 22:59:40.980504 15620 net.cpp:165] Memory required for data: 7809826944
I0322 22:59:40.980513 15620 layer_factory.hpp:77] Creating layer conv8_1
I0322 22:59:40.980525 15620 net.cpp:100] Creating Layer conv8_1
I0322 22:59:40.980530 15620 net.cpp:434] conv8_1 <- conv7_2_conv7_2_relu_0_split_0
I0322 22:59:40.980538 15620 net.cpp:408] conv8_1 -> conv8_1
I0322 22:59:40.981899 15620 net.cpp:150] Setting up conv8_1
I0322 22:59:40.981911 15620 net.cpp:157] Top shape: 32 128 5 5 (102400)
I0322 22:59:40.981915 15620 net.cpp:165] Memory required for data: 7810236544
I0322 22:59:40.981922 15620 layer_factory.hpp:77] Creating layer conv8_1_relu
I0322 22:59:40.981933 15620 net.cpp:100] Creating Layer conv8_1_relu
I0322 22:59:40.981938 15620 net.cpp:434] conv8_1_relu <- conv8_1
I0322 22:59:40.981945 15620 net.cpp:395] conv8_1_relu -> conv8_1 (in-place)
I0322 22:59:40.982101 15620 net.cpp:150] Setting up conv8_1_relu
I0322 22:59:40.982111 15620 net.cpp:157] Top shape: 32 128 5 5 (102400)
I0322 22:59:40.982115 15620 net.cpp:165] Memory required for data: 7810646144
I0322 22:59:40.982120 15620 layer_factory.hpp:77] Creating layer conv8_2
I0322 22:59:40.982134 15620 net.cpp:100] Creating Layer conv8_2
I0322 22:59:40.982143 15620 net.cpp:434] conv8_2 <- conv8_1
I0322 22:59:40.982151 15620 net.cpp:408] conv8_2 -> conv8_2
I0322 22:59:40.985883 15620 net.cpp:150] Setting up conv8_2
I0322 22:59:40.985898 15620 net.cpp:157] Top shape: 32 256 3 3 (73728)
I0322 22:59:40.985903 15620 net.cpp:165] Memory required for data: 7810941056
I0322 22:59:40.985913 15620 layer_factory.hpp:77] Creating layer conv8_2_relu
I0322 22:59:40.985922 15620 net.cpp:100] Creating Layer conv8_2_relu
I0322 22:59:40.985927 15620 net.cpp:434] conv8_2_relu <- conv8_2
I0322 22:59:40.985935 15620 net.cpp:395] conv8_2_relu -> conv8_2 (in-place)
I0322 22:59:40.986106 15620 net.cpp:150] Setting up conv8_2_relu
I0322 22:59:40.986119 15620 net.cpp:157] Top shape: 32 256 3 3 (73728)
I0322 22:59:40.986122 15620 net.cpp:165] Memory required for data: 7811235968
I0322 22:59:40.986127 15620 layer_factory.hpp:77] Creating layer conv8_2_conv8_2_relu_0_split
I0322 22:59:40.986136 15620 net.cpp:100] Creating Layer conv8_2_conv8_2_relu_0_split
I0322 22:59:40.986142 15620 net.cpp:434] conv8_2_conv8_2_relu_0_split <- conv8_2
I0322 22:59:40.986153 15620 net.cpp:408] conv8_2_conv8_2_relu_0_split -> conv8_2_conv8_2_relu_0_split_0
I0322 22:59:40.986160 15620 net.cpp:408] conv8_2_conv8_2_relu_0_split -> conv8_2_conv8_2_relu_0_split_1
I0322 22:59:40.986171 15620 net.cpp:408] conv8_2_conv8_2_relu_0_split -> conv8_2_conv8_2_relu_0_split_2
I0322 22:59:40.986177 15620 net.cpp:408] conv8_2_conv8_2_relu_0_split -> conv8_2_conv8_2_relu_0_split_3
I0322 22:59:40.986250 15620 net.cpp:150] Setting up conv8_2_conv8_2_relu_0_split
I0322 22:59:40.986259 15620 net.cpp:157] Top shape: 32 256 3 3 (73728)
I0322 22:59:40.986264 15620 net.cpp:157] Top shape: 32 256 3 3 (73728)
I0322 22:59:40.986270 15620 net.cpp:157] Top shape: 32 256 3 3 (73728)
I0322 22:59:40.986277 15620 net.cpp:157] Top shape: 32 256 3 3 (73728)
I0322 22:59:40.986282 15620 net.cpp:165] Memory required for data: 7812415616
I0322 22:59:40.986289 15620 layer_factory.hpp:77] Creating layer conv9_1
I0322 22:59:40.986310 15620 net.cpp:100] Creating Layer conv9_1
I0322 22:59:40.986326 15620 net.cpp:434] conv9_1 <- conv8_2_conv8_2_relu_0_split_0
I0322 22:59:40.986335 15620 net.cpp:408] conv9_1 -> conv9_1
I0322 22:59:40.987687 15620 net.cpp:150] Setting up conv9_1
I0322 22:59:40.987700 15620 net.cpp:157] Top shape: 32 128 3 3 (36864)
I0322 22:59:40.987704 15620 net.cpp:165] Memory required for data: 7812563072
I0322 22:59:40.987712 15620 layer_factory.hpp:77] Creating layer conv9_1_relu
I0322 22:59:40.987725 15620 net.cpp:100] Creating Layer conv9_1_relu
I0322 22:59:40.987731 15620 net.cpp:434] conv9_1_relu <- conv9_1
I0322 22:59:40.987737 15620 net.cpp:395] conv9_1_relu -> conv9_1 (in-place)
I0322 22:59:40.988391 15620 net.cpp:150] Setting up conv9_1_relu
I0322 22:59:40.988404 15620 net.cpp:157] Top shape: 32 128 3 3 (36864)
I0322 22:59:40.988406 15620 net.cpp:165] Memory required for data: 7812710528
I0322 22:59:40.988411 15620 layer_factory.hpp:77] Creating layer conv9_2
I0322 22:59:40.988426 15620 net.cpp:100] Creating Layer conv9_2
I0322 22:59:40.988432 15620 net.cpp:434] conv9_2 <- conv9_1
I0322 22:59:40.988440 15620 net.cpp:408] conv9_2 -> conv9_2
I0322 22:59:40.992170 15620 net.cpp:150] Setting up conv9_2
I0322 22:59:40.992184 15620 net.cpp:157] Top shape: 32 256 1 1 (8192)
I0322 22:59:40.992188 15620 net.cpp:165] Memory required for data: 7812743296
I0322 22:59:40.992195 15620 layer_factory.hpp:77] Creating layer conv9_2_relu
I0322 22:59:40.992206 15620 net.cpp:100] Creating Layer conv9_2_relu
I0322 22:59:40.992214 15620 net.cpp:434] conv9_2_relu <- conv9_2
I0322 22:59:40.992220 15620 net.cpp:395] conv9_2_relu -> conv9_2 (in-place)
I0322 22:59:40.992384 15620 net.cpp:150] Setting up conv9_2_relu
I0322 22:59:40.992393 15620 net.cpp:157] Top shape: 32 256 1 1 (8192)
I0322 22:59:40.992398 15620 net.cpp:165] Memory required for data: 7812776064
I0322 22:59:40.992403 15620 layer_factory.hpp:77] Creating layer conv9_2_conv9_2_relu_0_split
I0322 22:59:40.992410 15620 net.cpp:100] Creating Layer conv9_2_conv9_2_relu_0_split
I0322 22:59:40.992414 15620 net.cpp:434] conv9_2_conv9_2_relu_0_split <- conv9_2
I0322 22:59:40.992420 15620 net.cpp:408] conv9_2_conv9_2_relu_0_split -> conv9_2_conv9_2_relu_0_split_0
I0322 22:59:40.992427 15620 net.cpp:408] conv9_2_conv9_2_relu_0_split -> conv9_2_conv9_2_relu_0_split_1
I0322 22:59:40.992434 15620 net.cpp:408] conv9_2_conv9_2_relu_0_split -> conv9_2_conv9_2_relu_0_split_2
I0322 22:59:40.992486 15620 net.cpp:150] Setting up conv9_2_conv9_2_relu_0_split
I0322 22:59:40.992496 15620 net.cpp:157] Top shape: 32 256 1 1 (8192)
I0322 22:59:40.992499 15620 net.cpp:157] Top shape: 32 256 1 1 (8192)
I0322 22:59:40.992503 15620 net.cpp:157] Top shape: 32 256 1 1 (8192)
I0322 22:59:40.992506 15620 net.cpp:165] Memory required for data: 7812874368
I0322 22:59:40.992511 15620 layer_factory.hpp:77] Creating layer conv4_3_norm
I0322 22:59:40.992521 15620 net.cpp:100] Creating Layer conv4_3_norm
I0322 22:59:40.992524 15620 net.cpp:434] conv4_3_norm <- conv4_3_relu4_3_0_split_1
I0322 22:59:40.992530 15620 net.cpp:408] conv4_3_norm -> conv4_3_norm
I0322 22:59:40.992683 15620 net.cpp:150] Setting up conv4_3_norm
I0322 22:59:40.992691 15620 net.cpp:157] Top shape: 32 512 38 38 (23658496)
I0322 22:59:40.992694 15620 net.cpp:165] Memory required for data: 7907508352
I0322 22:59:40.992700 15620 layer_factory.hpp:77] Creating layer conv4_3_norm_conv4_3_norm_0_split
I0322 22:59:40.992712 15620 net.cpp:100] Creating Layer conv4_3_norm_conv4_3_norm_0_split
I0322 22:59:40.992719 15620 net.cpp:434] conv4_3_norm_conv4_3_norm_0_split <- conv4_3_norm
I0322 22:59:40.992727 15620 net.cpp:408] conv4_3_norm_conv4_3_norm_0_split -> conv4_3_norm_conv4_3_norm_0_split_0
I0322 22:59:40.992745 15620 net.cpp:408] conv4_3_norm_conv4_3_norm_0_split -> conv4_3_norm_conv4_3_norm_0_split_1
I0322 22:59:40.992753 15620 net.cpp:408] conv4_3_norm_conv4_3_norm_0_split -> conv4_3_norm_conv4_3_norm_0_split_2
I0322 22:59:40.992795 15620 net.cpp:150] Setting up conv4_3_norm_conv4_3_norm_0_split
I0322 22:59:40.992802 15620 net.cpp:157] Top shape: 32 512 38 38 (23658496)
I0322 22:59:40.992820 15620 net.cpp:157] Top shape: 32 512 38 38 (23658496)
I0322 22:59:40.992825 15620 net.cpp:157] Top shape: 32 512 38 38 (23658496)
I0322 22:59:40.992830 15620 net.cpp:165] Memory required for data: 8191410304
I0322 22:59:40.992833 15620 layer_factory.hpp:77] Creating layer conv4_3_norm_mbox_loc
I0322 22:59:40.992846 15620 net.cpp:100] Creating Layer conv4_3_norm_mbox_loc
I0322 22:59:40.992853 15620 net.cpp:434] conv4_3_norm_mbox_loc <- conv4_3_norm_conv4_3_norm_0_split_0
I0322 22:59:40.992861 15620 net.cpp:408] conv4_3_norm_mbox_loc -> conv4_3_norm_mbox_loc
I0322 22:59:40.994894 15620 net.cpp:150] Setting up conv4_3_norm_mbox_loc
I0322 22:59:40.994906 15620 net.cpp:157] Top shape: 32 16 38 38 (739328)
I0322 22:59:40.994911 15620 net.cpp:165] Memory required for data: 8194367616
I0322 22:59:40.994920 15620 layer_factory.hpp:77] Creating layer conv4_3_norm_mbox_loc_perm
I0322 22:59:40.994946 15620 net.cpp:100] Creating Layer conv4_3_norm_mbox_loc_perm
I0322 22:59:40.994951 15620 net.cpp:434] conv4_3_norm_mbox_loc_perm <- conv4_3_norm_mbox_loc
I0322 22:59:40.994963 15620 net.cpp:408] conv4_3_norm_mbox_loc_perm -> conv4_3_norm_mbox_loc_perm
I0322 22:59:40.995070 15620 net.cpp:150] Setting up conv4_3_norm_mbox_loc_perm
I0322 22:59:40.995079 15620 net.cpp:157] Top shape: 32 38 38 16 (739328)
I0322 22:59:40.995084 15620 net.cpp:165] Memory required for data: 8197324928
I0322 22:59:40.995088 15620 layer_factory.hpp:77] Creating layer conv4_3_norm_mbox_loc_flat
I0322 22:59:40.995100 15620 net.cpp:100] Creating Layer conv4_3_norm_mbox_loc_flat
I0322 22:59:40.995105 15620 net.cpp:434] conv4_3_norm_mbox_loc_flat <- conv4_3_norm_mbox_loc_perm
I0322 22:59:40.995115 15620 net.cpp:408] conv4_3_norm_mbox_loc_flat -> conv4_3_norm_mbox_loc_flat
I0322 22:59:40.995143 15620 net.cpp:150] Setting up conv4_3_norm_mbox_loc_flat
I0322 22:59:40.995152 15620 net.cpp:157] Top shape: 32 23104 (739328)
I0322 22:59:40.995155 15620 net.cpp:165] Memory required for data: 8200282240
I0322 22:59:40.995162 15620 layer_factory.hpp:77] Creating layer conv4_3_norm_mbox_conf
I0322 22:59:40.995177 15620 net.cpp:100] Creating Layer conv4_3_norm_mbox_conf
I0322 22:59:40.995182 15620 net.cpp:434] conv4_3_norm_mbox_conf <- conv4_3_norm_conv4_3_norm_0_split_1
I0322 22:59:40.995191 15620 net.cpp:408] conv4_3_norm_mbox_conf -> conv4_3_norm_mbox_conf
I0322 22:59:40.997807 15620 net.cpp:150] Setting up conv4_3_norm_mbox_conf
I0322 22:59:40.997828 15620 net.cpp:157] Top shape: 32 44 38 38 (2033152)
I0322 22:59:40.997834 15620 net.cpp:165] Memory required for data: 8208414848
I0322 22:59:40.997843 15620 layer_factory.hpp:77] Creating layer conv4_3_norm_mbox_conf_perm
I0322 22:59:40.997849 15620 net.cpp:100] Creating Layer conv4_3_norm_mbox_conf_perm
I0322 22:59:40.997855 15620 net.cpp:434] conv4_3_norm_mbox_conf_perm <- conv4_3_norm_mbox_conf
I0322 22:59:40.997862 15620 net.cpp:408] conv4_3_norm_mbox_conf_perm -> conv4_3_norm_mbox_conf_perm
I0322 22:59:40.997965 15620 net.cpp:150] Setting up conv4_3_norm_mbox_conf_perm
I0322 22:59:40.997974 15620 net.cpp:157] Top shape: 32 38 38 44 (2033152)
I0322 22:59:40.997979 15620 net.cpp:165] Memory required for data: 8216547456
I0322 22:59:40.997985 15620 layer_factory.hpp:77] Creating layer conv4_3_norm_mbox_conf_flat
I0322 22:59:40.997993 15620 net.cpp:100] Creating Layer conv4_3_norm_mbox_conf_flat
I0322 22:59:40.998000 15620 net.cpp:434] conv4_3_norm_mbox_conf_flat <- conv4_3_norm_mbox_conf_perm
I0322 22:59:40.998008 15620 net.cpp:408] conv4_3_norm_mbox_conf_flat -> conv4_3_norm_mbox_conf_flat
I0322 22:59:40.998035 15620 net.cpp:150] Setting up conv4_3_norm_mbox_conf_flat
I0322 22:59:40.998044 15620 net.cpp:157] Top shape: 32 63536 (2033152)
I0322 22:59:40.998047 15620 net.cpp:165] Memory required for data: 8224680064
I0322 22:59:40.998052 15620 layer_factory.hpp:77] Creating layer conv4_3_norm_mbox_priorbox
I0322 22:59:40.998064 15620 net.cpp:100] Creating Layer conv4_3_norm_mbox_priorbox
I0322 22:59:40.998071 15620 net.cpp:434] conv4_3_norm_mbox_priorbox <- conv4_3_norm_conv4_3_norm_0_split_2
I0322 22:59:40.998087 15620 net.cpp:434] conv4_3_norm_mbox_priorbox <- data_data_0_split_1
I0322 22:59:40.998097 15620 net.cpp:408] conv4_3_norm_mbox_priorbox -> conv4_3_norm_mbox_priorbox
I0322 22:59:40.998131 15620 net.cpp:150] Setting up conv4_3_norm_mbox_priorbox
I0322 22:59:40.998139 15620 net.cpp:157] Top shape: 1 2 23104 (46208)
I0322 22:59:40.998143 15620 net.cpp:165] Memory required for data: 8224864896
I0322 22:59:40.998149 15620 layer_factory.hpp:77] Creating layer fc7_mbox_loc
I0322 22:59:40.998162 15620 net.cpp:100] Creating Layer fc7_mbox_loc
I0322 22:59:40.998167 15620 net.cpp:434] fc7_mbox_loc <- fc7_relu7_0_split_1
I0322 22:59:40.998175 15620 net.cpp:408] fc7_mbox_loc -> fc7_mbox_loc
I0322 22:59:41.000809 15620 net.cpp:150] Setting up fc7_mbox_loc
I0322 22:59:41.000821 15620 net.cpp:157] Top shape: 32 24 19 19 (277248)
I0322 22:59:41.000825 15620 net.cpp:165] Memory required for data: 8225973888
I0322 22:59:41.000834 15620 layer_factory.hpp:77] Creating layer fc7_mbox_loc_perm
I0322 22:59:41.000845 15620 net.cpp:100] Creating Layer fc7_mbox_loc_perm
I0322 22:59:41.000852 15620 net.cpp:434] fc7_mbox_loc_perm <- fc7_mbox_loc
I0322 22:59:41.000860 15620 net.cpp:408] fc7_mbox_loc_perm -> fc7_mbox_loc_perm
I0322 22:59:41.000964 15620 net.cpp:150] Setting up fc7_mbox_loc_perm
I0322 22:59:41.000972 15620 net.cpp:157] Top shape: 32 19 19 24 (277248)
I0322 22:59:41.000977 15620 net.cpp:165] Memory required for data: 8227082880
I0322 22:59:41.000982 15620 layer_factory.hpp:77] Creating layer fc7_mbox_loc_flat
I0322 22:59:41.000993 15620 net.cpp:100] Creating Layer fc7_mbox_loc_flat
I0322 22:59:41.000998 15620 net.cpp:434] fc7_mbox_loc_flat <- fc7_mbox_loc_perm
I0322 22:59:41.001003 15620 net.cpp:408] fc7_mbox_loc_flat -> fc7_mbox_loc_flat
I0322 22:59:41.001029 15620 net.cpp:150] Setting up fc7_mbox_loc_flat
I0322 22:59:41.001036 15620 net.cpp:157] Top shape: 32 8664 (277248)
I0322 22:59:41.001041 15620 net.cpp:165] Memory required for data: 8228191872
I0322 22:59:41.001049 15620 layer_factory.hpp:77] Creating layer fc7_mbox_conf
I0322 22:59:41.001060 15620 net.cpp:100] Creating Layer fc7_mbox_conf
I0322 22:59:41.001067 15620 net.cpp:434] fc7_mbox_conf <- fc7_relu7_0_split_2
I0322 22:59:41.001077 15620 net.cpp:408] fc7_mbox_conf -> fc7_mbox_conf
I0322 22:59:41.006358 15620 net.cpp:150] Setting up fc7_mbox_conf
I0322 22:59:41.006376 15620 net.cpp:157] Top shape: 32 66 19 19 (762432)
I0322 22:59:41.006381 15620 net.cpp:165] Memory required for data: 8231241600
I0322 22:59:41.006415 15620 layer_factory.hpp:77] Creating layer fc7_mbox_conf_perm
I0322 22:59:41.006425 15620 net.cpp:100] Creating Layer fc7_mbox_conf_perm
I0322 22:59:41.006431 15620 net.cpp:434] fc7_mbox_conf_perm <- fc7_mbox_conf
I0322 22:59:41.006441 15620 net.cpp:408] fc7_mbox_conf_perm -> fc7_mbox_conf_perm
I0322 22:59:41.006551 15620 net.cpp:150] Setting up fc7_mbox_conf_perm
I0322 22:59:41.006557 15620 net.cpp:157] Top shape: 32 19 19 66 (762432)
I0322 22:59:41.006561 15620 net.cpp:165] Memory required for data: 8234291328
I0322 22:59:41.006566 15620 layer_factory.hpp:77] Creating layer fc7_mbox_conf_flat
I0322 22:59:41.006575 15620 net.cpp:100] Creating Layer fc7_mbox_conf_flat
I0322 22:59:41.006582 15620 net.cpp:434] fc7_mbox_conf_flat <- fc7_mbox_conf_perm
I0322 22:59:41.006588 15620 net.cpp:408] fc7_mbox_conf_flat -> fc7_mbox_conf_flat
I0322 22:59:41.006618 15620 net.cpp:150] Setting up fc7_mbox_conf_flat
I0322 22:59:41.006624 15620 net.cpp:157] Top shape: 32 23826 (762432)
I0322 22:59:41.006628 15620 net.cpp:165] Memory required for data: 8237341056
I0322 22:59:41.006633 15620 layer_factory.hpp:77] Creating layer fc7_mbox_priorbox
I0322 22:59:41.006644 15620 net.cpp:100] Creating Layer fc7_mbox_priorbox
I0322 22:59:41.006652 15620 net.cpp:434] fc7_mbox_priorbox <- fc7_relu7_0_split_3
I0322 22:59:41.006657 15620 net.cpp:434] fc7_mbox_priorbox <- data_data_0_split_2
I0322 22:59:41.006662 15620 net.cpp:408] fc7_mbox_priorbox -> fc7_mbox_priorbox
I0322 22:59:41.006690 15620 net.cpp:150] Setting up fc7_mbox_priorbox
I0322 22:59:41.006698 15620 net.cpp:157] Top shape: 1 2 8664 (17328)
I0322 22:59:41.006714 15620 net.cpp:165] Memory required for data: 8237410368
I0322 22:59:41.006721 15620 layer_factory.hpp:77] Creating layer conv6_2_mbox_loc
I0322 22:59:41.006736 15620 net.cpp:100] Creating Layer conv6_2_mbox_loc
I0322 22:59:41.006743 15620 net.cpp:434] conv6_2_mbox_loc <- conv6_2_conv6_2_relu_0_split_1
I0322 22:59:41.006750 15620 net.cpp:408] conv6_2_mbox_loc -> conv6_2_mbox_loc
I0322 22:59:41.009006 15620 net.cpp:150] Setting up conv6_2_mbox_loc
I0322 22:59:41.009018 15620 net.cpp:157] Top shape: 32 24 10 10 (76800)
I0322 22:59:41.009022 15620 net.cpp:165] Memory required for data: 8237717568
I0322 22:59:41.009029 15620 layer_factory.hpp:77] Creating layer conv6_2_mbox_loc_perm
I0322 22:59:41.009038 15620 net.cpp:100] Creating Layer conv6_2_mbox_loc_perm
I0322 22:59:41.009044 15620 net.cpp:434] conv6_2_mbox_loc_perm <- conv6_2_mbox_loc
I0322 22:59:41.009052 15620 net.cpp:408] conv6_2_mbox_loc_perm -> conv6_2_mbox_loc_perm
I0322 22:59:41.009155 15620 net.cpp:150] Setting up conv6_2_mbox_loc_perm
I0322 22:59:41.009161 15620 net.cpp:157] Top shape: 32 10 10 24 (76800)
I0322 22:59:41.009165 15620 net.cpp:165] Memory required for data: 8238024768
I0322 22:59:41.009169 15620 layer_factory.hpp:77] Creating layer conv6_2_mbox_loc_flat
I0322 22:59:41.009176 15620 net.cpp:100] Creating Layer conv6_2_mbox_loc_flat
I0322 22:59:41.009183 15620 net.cpp:434] conv6_2_mbox_loc_flat <- conv6_2_mbox_loc_perm
I0322 22:59:41.009191 15620 net.cpp:408] conv6_2_mbox_loc_flat -> conv6_2_mbox_loc_flat
I0322 22:59:41.009222 15620 net.cpp:150] Setting up conv6_2_mbox_loc_flat
I0322 22:59:41.009228 15620 net.cpp:157] Top shape: 32 2400 (76800)
I0322 22:59:41.009232 15620 net.cpp:165] Memory required for data: 8238331968
I0322 22:59:41.009235 15620 layer_factory.hpp:77] Creating layer conv6_2_mbox_conf
I0322 22:59:41.009248 15620 net.cpp:100] Creating Layer conv6_2_mbox_conf
I0322 22:59:41.009254 15620 net.cpp:434] conv6_2_mbox_conf <- conv6_2_conv6_2_relu_0_split_2
I0322 22:59:41.009263 15620 net.cpp:408] conv6_2_mbox_conf -> conv6_2_mbox_conf
I0322 22:59:41.013039 15620 net.cpp:150] Setting up conv6_2_mbox_conf
I0322 22:59:41.013056 15620 net.cpp:157] Top shape: 32 66 10 10 (211200)
I0322 22:59:41.013059 15620 net.cpp:165] Memory required for data: 8239176768
I0322 22:59:41.013080 15620 layer_factory.hpp:77] Creating layer conv6_2_mbox_conf_perm
I0322 22:59:41.013088 15620 net.cpp:100] Creating Layer conv6_2_mbox_conf_perm
I0322 22:59:41.013094 15620 net.cpp:434] conv6_2_mbox_conf_perm <- conv6_2_mbox_conf
I0322 22:59:41.013103 15620 net.cpp:408] conv6_2_mbox_conf_perm -> conv6_2_mbox_conf_perm
I0322 22:59:41.013207 15620 net.cpp:150] Setting up conv6_2_mbox_conf_perm
I0322 22:59:41.013218 15620 net.cpp:157] Top shape: 32 10 10 66 (211200)
I0322 22:59:41.013223 15620 net.cpp:165] Memory required for data: 8240021568
I0322 22:59:41.013227 15620 layer_factory.hpp:77] Creating layer conv6_2_mbox_conf_flat
I0322 22:59:41.013236 15620 net.cpp:100] Creating Layer conv6_2_mbox_conf_flat
I0322 22:59:41.013242 15620 net.cpp:434] conv6_2_mbox_conf_flat <- conv6_2_mbox_conf_perm
I0322 22:59:41.013248 15620 net.cpp:408] conv6_2_mbox_conf_flat -> conv6_2_mbox_conf_flat
I0322 22:59:41.013273 15620 net.cpp:150] Setting up conv6_2_mbox_conf_flat
I0322 22:59:41.013280 15620 net.cpp:157] Top shape: 32 6600 (211200)
I0322 22:59:41.013283 15620 net.cpp:165] Memory required for data: 8240866368
I0322 22:59:41.013288 15620 layer_factory.hpp:77] Creating layer conv6_2_mbox_priorbox
I0322 22:59:41.013295 15620 net.cpp:100] Creating Layer conv6_2_mbox_priorbox
I0322 22:59:41.013300 15620 net.cpp:434] conv6_2_mbox_priorbox <- conv6_2_conv6_2_relu_0_split_3
I0322 22:59:41.013306 15620 net.cpp:434] conv6_2_mbox_priorbox <- data_data_0_split_3
I0322 22:59:41.013316 15620 net.cpp:408] conv6_2_mbox_priorbox -> conv6_2_mbox_priorbox
I0322 22:59:41.013343 15620 net.cpp:150] Setting up conv6_2_mbox_priorbox
I0322 22:59:41.013350 15620 net.cpp:157] Top shape: 1 2 2400 (4800)
I0322 22:59:41.013353 15620 net.cpp:165] Memory required for data: 8240885568
I0322 22:59:41.013370 15620 layer_factory.hpp:77] Creating layer conv7_2_mbox_loc
I0322 22:59:41.013382 15620 net.cpp:100] Creating Layer conv7_2_mbox_loc
I0322 22:59:41.013388 15620 net.cpp:434] conv7_2_mbox_loc <- conv7_2_conv7_2_relu_0_split_1
I0322 22:59:41.013394 15620 net.cpp:408] conv7_2_mbox_loc -> conv7_2_mbox_loc
I0322 22:59:41.014919 15620 net.cpp:150] Setting up conv7_2_mbox_loc
I0322 22:59:41.014931 15620 net.cpp:157] Top shape: 32 24 5 5 (19200)
I0322 22:59:41.014935 15620 net.cpp:165] Memory required for data: 8240962368
I0322 22:59:41.014945 15620 layer_factory.hpp:77] Creating layer conv7_2_mbox_loc_perm
I0322 22:59:41.014955 15620 net.cpp:100] Creating Layer conv7_2_mbox_loc_perm
I0322 22:59:41.014958 15620 net.cpp:434] conv7_2_mbox_loc_perm <- conv7_2_mbox_loc
I0322 22:59:41.014967 15620 net.cpp:408] conv7_2_mbox_loc_perm -> conv7_2_mbox_loc_perm
I0322 22:59:41.015065 15620 net.cpp:150] Setting up conv7_2_mbox_loc_perm
I0322 22:59:41.015074 15620 net.cpp:157] Top shape: 32 5 5 24 (19200)
I0322 22:59:41.015077 15620 net.cpp:165] Memory required for data: 8241039168
I0322 22:59:41.015082 15620 layer_factory.hpp:77] Creating layer conv7_2_mbox_loc_flat
I0322 22:59:41.015092 15620 net.cpp:100] Creating Layer conv7_2_mbox_loc_flat
I0322 22:59:41.015099 15620 net.cpp:434] conv7_2_mbox_loc_flat <- conv7_2_mbox_loc_perm
I0322 22:59:41.015107 15620 net.cpp:408] conv7_2_mbox_loc_flat -> conv7_2_mbox_loc_flat
I0322 22:59:41.015137 15620 net.cpp:150] Setting up conv7_2_mbox_loc_flat
I0322 22:59:41.015143 15620 net.cpp:157] Top shape: 32 600 (19200)
I0322 22:59:41.015147 15620 net.cpp:165] Memory required for data: 8241115968
I0322 22:59:41.015151 15620 layer_factory.hpp:77] Creating layer conv7_2_mbox_conf
I0322 22:59:41.015162 15620 net.cpp:100] Creating Layer conv7_2_mbox_conf
I0322 22:59:41.015169 15620 net.cpp:434] conv7_2_mbox_conf <- conv7_2_conv7_2_relu_0_split_2
I0322 22:59:41.015180 15620 net.cpp:408] conv7_2_mbox_conf -> conv7_2_mbox_conf
I0322 22:59:41.017076 15620 net.cpp:150] Setting up conv7_2_mbox_conf
I0322 22:59:41.017089 15620 net.cpp:157] Top shape: 32 66 5 5 (52800)
I0322 22:59:41.017093 15620 net.cpp:165] Memory required for data: 8241327168
I0322 22:59:41.017102 15620 layer_factory.hpp:77] Creating layer conv7_2_mbox_conf_perm
I0322 22:59:41.017110 15620 net.cpp:100] Creating Layer conv7_2_mbox_conf_perm
I0322 22:59:41.017119 15620 net.cpp:434] conv7_2_mbox_conf_perm <- conv7_2_mbox_conf
I0322 22:59:41.017127 15620 net.cpp:408] conv7_2_mbox_conf_perm -> conv7_2_mbox_conf_perm
I0322 22:59:41.017225 15620 net.cpp:150] Setting up conv7_2_mbox_conf_perm
I0322 22:59:41.017233 15620 net.cpp:157] Top shape: 32 5 5 66 (52800)
I0322 22:59:41.017236 15620 net.cpp:165] Memory required for data: 8241538368
I0322 22:59:41.017241 15620 layer_factory.hpp:77] Creating layer conv7_2_mbox_conf_flat
I0322 22:59:41.017249 15620 net.cpp:100] Creating Layer conv7_2_mbox_conf_flat
I0322 22:59:41.017257 15620 net.cpp:434] conv7_2_mbox_conf_flat <- conv7_2_mbox_conf_perm
I0322 22:59:41.017263 15620 net.cpp:408] conv7_2_mbox_conf_flat -> conv7_2_mbox_conf_flat
I0322 22:59:41.017290 15620 net.cpp:150] Setting up conv7_2_mbox_conf_flat
I0322 22:59:41.017299 15620 net.cpp:157] Top shape: 32 1650 (52800)
I0322 22:59:41.017303 15620 net.cpp:165] Memory required for data: 8241749568
I0322 22:59:41.017307 15620 layer_factory.hpp:77] Creating layer conv7_2_mbox_priorbox
I0322 22:59:41.017318 15620 net.cpp:100] Creating Layer conv7_2_mbox_priorbox
I0322 22:59:41.017325 15620 net.cpp:434] conv7_2_mbox_priorbox <- conv7_2_conv7_2_relu_0_split_3
I0322 22:59:41.017331 15620 net.cpp:434] conv7_2_mbox_priorbox <- data_data_0_split_4
I0322 22:59:41.017340 15620 net.cpp:408] conv7_2_mbox_priorbox -> conv7_2_mbox_priorbox
I0322 22:59:41.017371 15620 net.cpp:150] Setting up conv7_2_mbox_priorbox
I0322 22:59:41.017379 15620 net.cpp:157] Top shape: 1 2 600 (1200)
I0322 22:59:41.017382 15620 net.cpp:165] Memory required for data: 8241754368
I0322 22:59:41.017387 15620 layer_factory.hpp:77] Creating layer conv8_2_mbox_loc
I0322 22:59:41.017412 15620 net.cpp:100] Creating Layer conv8_2_mbox_loc
I0322 22:59:41.017421 15620 net.cpp:434] conv8_2_mbox_loc <- conv8_2_conv8_2_relu_0_split_1
I0322 22:59:41.017428 15620 net.cpp:408] conv8_2_mbox_loc -> conv8_2_mbox_loc
I0322 22:59:41.018867 15620 net.cpp:150] Setting up conv8_2_mbox_loc
I0322 22:59:41.018880 15620 net.cpp:157] Top shape: 32 16 3 3 (4608)
I0322 22:59:41.018885 15620 net.cpp:165] Memory required for data: 8241772800
I0322 22:59:41.018894 15620 layer_factory.hpp:77] Creating layer conv8_2_mbox_loc_perm
I0322 22:59:41.018904 15620 net.cpp:100] Creating Layer conv8_2_mbox_loc_perm
I0322 22:59:41.018909 15620 net.cpp:434] conv8_2_mbox_loc_perm <- conv8_2_mbox_loc
I0322 22:59:41.018920 15620 net.cpp:408] conv8_2_mbox_loc_perm -> conv8_2_mbox_loc_perm
I0322 22:59:41.019016 15620 net.cpp:150] Setting up conv8_2_mbox_loc_perm
I0322 22:59:41.019024 15620 net.cpp:157] Top shape: 32 3 3 16 (4608)
I0322 22:59:41.019027 15620 net.cpp:165] Memory required for data: 8241791232
I0322 22:59:41.019032 15620 layer_factory.hpp:77] Creating layer conv8_2_mbox_loc_flat
I0322 22:59:41.019040 15620 net.cpp:100] Creating Layer conv8_2_mbox_loc_flat
I0322 22:59:41.019048 15620 net.cpp:434] conv8_2_mbox_loc_flat <- conv8_2_mbox_loc_perm
I0322 22:59:41.019055 15620 net.cpp:408] conv8_2_mbox_loc_flat -> conv8_2_mbox_loc_flat
I0322 22:59:41.019081 15620 net.cpp:150] Setting up conv8_2_mbox_loc_flat
I0322 22:59:41.019088 15620 net.cpp:157] Top shape: 32 144 (4608)
I0322 22:59:41.019093 15620 net.cpp:165] Memory required for data: 8241809664
I0322 22:59:41.019096 15620 layer_factory.hpp:77] Creating layer conv8_2_mbox_conf
I0322 22:59:41.019110 15620 net.cpp:100] Creating Layer conv8_2_mbox_conf
I0322 22:59:41.019117 15620 net.cpp:434] conv8_2_mbox_conf <- conv8_2_conv8_2_relu_0_split_2
I0322 22:59:41.019124 15620 net.cpp:408] conv8_2_mbox_conf -> conv8_2_mbox_conf
I0322 22:59:41.021318 15620 net.cpp:150] Setting up conv8_2_mbox_conf
I0322 22:59:41.021332 15620 net.cpp:157] Top shape: 32 44 3 3 (12672)
I0322 22:59:41.021337 15620 net.cpp:165] Memory required for data: 8241860352
I0322 22:59:41.021347 15620 layer_factory.hpp:77] Creating layer conv8_2_mbox_conf_perm
I0322 22:59:41.021371 15620 net.cpp:100] Creating Layer conv8_2_mbox_conf_perm
I0322 22:59:41.021379 15620 net.cpp:434] conv8_2_mbox_conf_perm <- conv8_2_mbox_conf
I0322 22:59:41.021390 15620 net.cpp:408] conv8_2_mbox_conf_perm -> conv8_2_mbox_conf_perm
I0322 22:59:41.021500 15620 net.cpp:150] Setting up conv8_2_mbox_conf_perm
I0322 22:59:41.021507 15620 net.cpp:157] Top shape: 32 3 3 44 (12672)
I0322 22:59:41.021512 15620 net.cpp:165] Memory required for data: 8241911040
I0322 22:59:41.021522 15620 layer_factory.hpp:77] Creating layer conv8_2_mbox_conf_flat
I0322 22:59:41.021530 15620 net.cpp:100] Creating Layer conv8_2_mbox_conf_flat
I0322 22:59:41.021538 15620 net.cpp:434] conv8_2_mbox_conf_flat <- conv8_2_mbox_conf_perm
I0322 22:59:41.021545 15620 net.cpp:408] conv8_2_mbox_conf_flat -> conv8_2_mbox_conf_flat
I0322 22:59:41.021575 15620 net.cpp:150] Setting up conv8_2_mbox_conf_flat
I0322 22:59:41.021582 15620 net.cpp:157] Top shape: 32 396 (12672)
I0322 22:59:41.021585 15620 net.cpp:165] Memory required for data: 8241961728
I0322 22:59:41.021591 15620 layer_factory.hpp:77] Creating layer conv8_2_mbox_priorbox
I0322 22:59:41.021600 15620 net.cpp:100] Creating Layer conv8_2_mbox_priorbox
I0322 22:59:41.021610 15620 net.cpp:434] conv8_2_mbox_priorbox <- conv8_2_conv8_2_relu_0_split_3
I0322 22:59:41.021621 15620 net.cpp:434] conv8_2_mbox_priorbox <- data_data_0_split_5
I0322 22:59:41.021636 15620 net.cpp:408] conv8_2_mbox_priorbox -> conv8_2_mbox_priorbox
I0322 22:59:41.021665 15620 net.cpp:150] Setting up conv8_2_mbox_priorbox
I0322 22:59:41.021672 15620 net.cpp:157] Top shape: 1 2 144 (288)
I0322 22:59:41.021675 15620 net.cpp:165] Memory required for data: 8241962880
I0322 22:59:41.021682 15620 layer_factory.hpp:77] Creating layer conv9_2_mbox_loc
I0322 22:59:41.021693 15620 net.cpp:100] Creating Layer conv9_2_mbox_loc
I0322 22:59:41.021699 15620 net.cpp:434] conv9_2_mbox_loc <- conv9_2_conv9_2_relu_0_split_0
I0322 22:59:41.021715 15620 net.cpp:408] conv9_2_mbox_loc -> conv9_2_mbox_loc
I0322 22:59:41.023144 15620 net.cpp:150] Setting up conv9_2_mbox_loc
I0322 22:59:41.023155 15620 net.cpp:157] Top shape: 32 16 1 1 (512)
I0322 22:59:41.023159 15620 net.cpp:165] Memory required for data: 8241964928
I0322 22:59:41.023169 15620 layer_factory.hpp:77] Creating layer conv9_2_mbox_loc_perm
I0322 22:59:41.023180 15620 net.cpp:100] Creating Layer conv9_2_mbox_loc_perm
I0322 22:59:41.023187 15620 net.cpp:434] conv9_2_mbox_loc_perm <- conv9_2_mbox_loc
I0322 22:59:41.023195 15620 net.cpp:408] conv9_2_mbox_loc_perm -> conv9_2_mbox_loc_perm
I0322 22:59:41.023299 15620 net.cpp:150] Setting up conv9_2_mbox_loc_perm
I0322 22:59:41.023308 15620 net.cpp:157] Top shape: 32 1 1 16 (512)
I0322 22:59:41.023311 15620 net.cpp:165] Memory required for data: 8241966976
I0322 22:59:41.023316 15620 layer_factory.hpp:77] Creating layer conv9_2_mbox_loc_flat
I0322 22:59:41.023326 15620 net.cpp:100] Creating Layer conv9_2_mbox_loc_flat
I0322 22:59:41.023334 15620 net.cpp:434] conv9_2_mbox_loc_flat <- conv9_2_mbox_loc_perm
I0322 22:59:41.023344 15620 net.cpp:408] conv9_2_mbox_loc_flat -> conv9_2_mbox_loc_flat
I0322 22:59:41.023373 15620 net.cpp:150] Setting up conv9_2_mbox_loc_flat
I0322 22:59:41.023380 15620 net.cpp:157] Top shape: 32 16 (512)
I0322 22:59:41.023385 15620 net.cpp:165] Memory required for data: 8241969024
I0322 22:59:41.023388 15620 layer_factory.hpp:77] Creating layer conv9_2_mbox_conf
I0322 22:59:41.023401 15620 net.cpp:100] Creating Layer conv9_2_mbox_conf
I0322 22:59:41.023406 15620 net.cpp:434] conv9_2_mbox_conf <- conv9_2_conv9_2_relu_0_split_1
I0322 22:59:41.023413 15620 net.cpp:408] conv9_2_mbox_conf -> conv9_2_mbox_conf
I0322 22:59:41.025943 15620 net.cpp:150] Setting up conv9_2_mbox_conf
I0322 22:59:41.025957 15620 net.cpp:157] Top shape: 32 44 1 1 (1408)
I0322 22:59:41.025961 15620 net.cpp:165] Memory required for data: 8241974656
I0322 22:59:41.025969 15620 layer_factory.hpp:77] Creating layer conv9_2_mbox_conf_perm
I0322 22:59:41.025976 15620 net.cpp:100] Creating Layer conv9_2_mbox_conf_perm
I0322 22:59:41.025981 15620 net.cpp:434] conv9_2_mbox_conf_perm <- conv9_2_mbox_conf
I0322 22:59:41.025990 15620 net.cpp:408] conv9_2_mbox_conf_perm -> conv9_2_mbox_conf_perm
I0322 22:59:41.026085 15620 net.cpp:150] Setting up conv9_2_mbox_conf_perm
I0322 22:59:41.026093 15620 net.cpp:157] Top shape: 32 1 1 44 (1408)
I0322 22:59:41.026096 15620 net.cpp:165] Memory required for data: 8241980288
I0322 22:59:41.026100 15620 layer_factory.hpp:77] Creating layer conv9_2_mbox_conf_flat
I0322 22:59:41.026106 15620 net.cpp:100] Creating Layer conv9_2_mbox_conf_flat
I0322 22:59:41.026110 15620 net.cpp:434] conv9_2_mbox_conf_flat <- conv9_2_mbox_conf_perm
I0322 22:59:41.026116 15620 net.cpp:408] conv9_2_mbox_conf_flat -> conv9_2_mbox_conf_flat
I0322 22:59:41.026141 15620 net.cpp:150] Setting up conv9_2_mbox_conf_flat
I0322 22:59:41.026149 15620 net.cpp:157] Top shape: 32 44 (1408)
I0322 22:59:41.026151 15620 net.cpp:165] Memory required for data: 8241985920
I0322 22:59:41.026155 15620 layer_factory.hpp:77] Creating layer conv9_2_mbox_priorbox
I0322 22:59:41.026165 15620 net.cpp:100] Creating Layer conv9_2_mbox_priorbox
I0322 22:59:41.026173 15620 net.cpp:434] conv9_2_mbox_priorbox <- conv9_2_conv9_2_relu_0_split_2
I0322 22:59:41.026180 15620 net.cpp:434] conv9_2_mbox_priorbox <- data_data_0_split_6
I0322 22:59:41.026190 15620 net.cpp:408] conv9_2_mbox_priorbox -> conv9_2_mbox_priorbox
I0322 22:59:41.026221 15620 net.cpp:150] Setting up conv9_2_mbox_priorbox
I0322 22:59:41.026228 15620 net.cpp:157] Top shape: 1 2 16 (32)
I0322 22:59:41.026232 15620 net.cpp:165] Memory required for data: 8241986048
I0322 22:59:41.026237 15620 layer_factory.hpp:77] Creating layer mbox_loc
I0322 22:59:41.026247 15620 net.cpp:100] Creating Layer mbox_loc
I0322 22:59:41.026253 15620 net.cpp:434] mbox_loc <- conv4_3_norm_mbox_loc_flat
I0322 22:59:41.026262 15620 net.cpp:434] mbox_loc <- fc7_mbox_loc_flat
I0322 22:59:41.026286 15620 net.cpp:434] mbox_loc <- conv6_2_mbox_loc_flat
I0322 22:59:41.026293 15620 net.cpp:434] mbox_loc <- conv7_2_mbox_loc_flat
I0322 22:59:41.026298 15620 net.cpp:434] mbox_loc <- conv8_2_mbox_loc_flat
I0322 22:59:41.026304 15620 net.cpp:434] mbox_loc <- conv9_2_mbox_loc_flat
I0322 22:59:41.026314 15620 net.cpp:408] mbox_loc -> mbox_loc
I0322 22:59:41.026347 15620 net.cpp:150] Setting up mbox_loc
I0322 22:59:41.026356 15620 net.cpp:157] Top shape: 32 34928 (1117696)
I0322 22:59:41.026360 15620 net.cpp:165] Memory required for data: 8246456832
I0322 22:59:41.026365 15620 layer_factory.hpp:77] Creating layer mbox_conf
I0322 22:59:41.026374 15620 net.cpp:100] Creating Layer mbox_conf
I0322 22:59:41.026381 15620 net.cpp:434] mbox_conf <- conv4_3_norm_mbox_conf_flat
I0322 22:59:41.026386 15620 net.cpp:434] mbox_conf <- fc7_mbox_conf_flat
I0322 22:59:41.026392 15620 net.cpp:434] mbox_conf <- conv6_2_mbox_conf_flat
I0322 22:59:41.026401 15620 net.cpp:434] mbox_conf <- conv7_2_mbox_conf_flat
I0322 22:59:41.026407 15620 net.cpp:434] mbox_conf <- conv8_2_mbox_conf_flat
I0322 22:59:41.026413 15620 net.cpp:434] mbox_conf <- conv9_2_mbox_conf_flat
I0322 22:59:41.026419 15620 net.cpp:408] mbox_conf -> mbox_conf
I0322 22:59:41.026448 15620 net.cpp:150] Setting up mbox_conf
I0322 22:59:41.026456 15620 net.cpp:157] Top shape: 32 96052 (3073664)
I0322 22:59:41.026460 15620 net.cpp:165] Memory required for data: 8258751488
I0322 22:59:41.026465 15620 layer_factory.hpp:77] Creating layer mbox_priorbox
I0322 22:59:41.026476 15620 net.cpp:100] Creating Layer mbox_priorbox
I0322 22:59:41.026489 15620 net.cpp:434] mbox_priorbox <- conv4_3_norm_mbox_priorbox
I0322 22:59:41.026497 15620 net.cpp:434] mbox_priorbox <- fc7_mbox_priorbox
I0322 22:59:41.026509 15620 net.cpp:434] mbox_priorbox <- conv6_2_mbox_priorbox
I0322 22:59:41.026513 15620 net.cpp:434] mbox_priorbox <- conv7_2_mbox_priorbox
I0322 22:59:41.026518 15620 net.cpp:434] mbox_priorbox <- conv8_2_mbox_priorbox
I0322 22:59:41.026522 15620 net.cpp:434] mbox_priorbox <- conv9_2_mbox_priorbox
I0322 22:59:41.026528 15620 net.cpp:408] mbox_priorbox -> mbox_priorbox
I0322 22:59:41.026556 15620 net.cpp:150] Setting up mbox_priorbox
I0322 22:59:41.026563 15620 net.cpp:157] Top shape: 1 2 34928 (69856)
I0322 22:59:41.026567 15620 net.cpp:165] Memory required for data: 8259030912
I0322 22:59:41.026571 15620 layer_factory.hpp:77] Creating layer mbox_loss
I0322 22:59:41.026582 15620 net.cpp:100] Creating Layer mbox_loss
I0322 22:59:41.026589 15620 net.cpp:434] mbox_loss <- mbox_loc
I0322 22:59:41.026595 15620 net.cpp:434] mbox_loss <- mbox_conf
I0322 22:59:41.026600 15620 net.cpp:434] mbox_loss <- mbox_priorbox
…
  phase: TEST
}
layer {
  name: "data"
  type: "AnnotatedData"
  top: "data"
  top: "label"
  include {
    phase: TEST
  }
  transform_param {
    mean_value: 104
    mean_value: 117
    mean_value: 123
    resize_param {
      prob: 1
      resize_mode: WARP
      height: 300
      width: 300
      interp_mode: LINEAR
    }
  }
  data_param {
    source: "examples/NWPU_VHR/NWPU_VHR_test_lmdb"
    batch_size: 1
    backend: LMDB
  }
  annotated_data_param {
    batch_sampler {
    }
    label_map_file: "data/NWPU_VHR/labelmap_NWPU_VHR.prototxt"
  }
}
layer {
  name: "conv1_1"
  type: "Convolution"
  bottom: "data"
  top: "conv1_1"
  param {
    lr_mult: 1
    decay_mult: 1
  }
  param {
    lr_mult: 2
    decay_mult: 0
  }
  convolution_param {
    num_output: 64
    pad: 1
    kernel_size: 3
    weight_filler {
      type: "xavier"
    }
    bias_filler {
      type: "constant"
      value: 0
    }
  }
}
layer {
  name: "relu1_1"
  type: "ReLU"
  bottom: "conv1_1"
  top: "conv1_1"
}
layer {
  name: "conv1_2"
  type: "Convolution"
  bottom: "conv1_1"
  top: "conv1_2"
  param {
    lr_mult: 1
    decay_mult: 1
  }
  param {
    lr_mult: 2
    decay_mult: 0
  }
  convolution_param {
    num_output: 64
    pad: 1
    kernel_size: 3
    weight_filler {
      type: "xavier"
    }
    bias_filler {
      type: "constant"
      value: 0
    }
  }
}
layer {
  name: "relu1_2"
  type: "ReLU"
  bottom: "conv1_2"
  top: "conv1_2"
}
layer {
  name: "pool1"
  type: "Pooling"
  bottom: "conv1_2"
  top: "pool1"
  pooling_param {
    pool: MAX
    kernel_size: 2
    stride: 2
  }
}
layer {
  name: "conv2_1"
  type: "Convolution"
  bottom: "pool1"
  top: "conv2_1"
  param {
    lr_mult: 1
    decay_mult: 1
  }
  param {
    lr_mult: 2
    decay_mult: 0
  }
  convolution_param {
    num_output: 128
    pad: 1
    kernel_size: 3
    weight_filler {
      type: "xavier"
    }
    bias_filler {
      type: "constant"
      value: 0
    }
  }
}
layer {
  name: "relu2_1"
  type: "ReLU"
  bottom: "conv2_1"
  top: "conv2_1"
}
layer {
  name: "conv2_2"
  type: "Convolution"
  bottom: "conv2_1"
  top: "conv2_2"
  param {
    lr_mult: 1
    decay_mult: 1
  }
  param {
    lr_mult: 2
    decay_mult: 0
  }
  convolution_param {
    num_output: 128
    pad: 1
    kernel_size: 3
    weight_filler {
      type: "xavier"
    }
    bias_filler {
      type: "constant"
      value: 0
    }
  }
}
layer {
  name: "relu2_2"
  type: "ReLU"
  bottom: "conv2_2"
  top: "conv2_2"
}
layer {
  name: "pool2"
  type: "Pooling"
  bottom: "conv2_2"
  top: "pool2"
  pooling_param {
    pool: MAX
    kernel_size: 2
    stride: 2
  }
}
layer {
  name: "conv3_1"
  type: "Convolution"
  bottom: "pool2"
  top: "conv3_1"
  param {
    lr_mult: 1
    decay_mult: 1
  }
  param {
    lr_mult: 2
    decay_mult: 0
  }
  convolution_param {
    num_output: 256
    pad: 1
    kernel_size: 3
    weight_filler {
      type: "xavier"
    }
    bias_filler {
      type: "constant"
      value: 0
    }
  }
}
layer {
  name: "relu3_1"
  type: "ReLU"
  bottom: "conv3_1"
  top: "conv3_1"
}
layer {
  name: "conv3_2"
  type: "Convolution"
  bottom: "conv3_1"
  top: "conv3_2"
  param {
    lr_mult: 1
    decay_mult: 1
  }
  param {
    lr_mult: 2
    decay_mult: 0
  }
  convolution_param {
    num_output: 256
    pad: 1
    kernel_size: 3
    weight_filler {
      type: "xavier"
    }
    bias_filler {
      type: "constant"
      value: 0
    }
  }
}
layer {
  name: "relu3_2"
  type: "ReLU"
  bottom: "conv3_2"
  top: "conv3_2"
}
layer {
  name: "conv3_3"
  type: "Convolution"
  bottom: "conv3_2"
  top: "conv3_3"
  param {
    lr_mult: 1
    decay_mult: 1
  }
  param {
    lr_mult: 2
    decay_mult: 0
  }
  convolution_param {
    num_output: 256
    pad: 1
    kernel_size: 3
    weight_filler {
      type: "xavier"
    }
    bias_filler {
      type: "constant"
      value: 0
    }
  }
}
layer {
  name: "relu3_3"
  type: "ReLU"
  bottom: "conv3_3"
  top: "conv3_3"
}
layer {
  name: "pool3"
  type: "Pooling"
  bottom: "conv3_3"
  top: "pool3"
  pooling_param {
    pool: MAX
    kernel_size: 2
    stride: 2
  }
}
layer {
  name: "conv4_1_depthwise"
  type: "DepthwiseConvolution"
  bottom: "pool3"
  top: "conv4_1_3x3"
  param {
    lr_mult: 1
    decay_mult: 1
  }
  param {
    lr_mult: 2
    decay_mult: 0
  }
  convolution_param {
    num_output: 256
    pad: 1
    kernel_size: 3
    group: 256
    weight_filler {
      type: "xavier"
    }
    bias_filler {
      type: "constant"
      value: 0
    }
  }
}
layer {
  name: "conv4_1_3x3_relu"
  type: "ReLU"
  bottom: "conv4_1_3x3"
  top: "conv4_1_3x3"
}
layer {
  name: "conv4_1_1x1"
  type: "Convolution"
  bottom: "conv4_1_3x3"
  top: "conv4_1"
  param {
    lr_mult: 1
    decay_mult: 1
  }
  param {
    lr_mult: 2
    decay_mult: 0
  }
  convolution_param {
    num_output: 512
    pad: 0
    kernel_size: 1
    stride: 1
    weight_filler {
      type: "xavier"
    }
    bias_filler {
      type: "constant"
      value: 0
    }
  }
}
layer {
  name: "relu4_1"
  type: "ReLU"
  bottom: "conv4_1"
  top: "conv4_1"
}
layer {
  name: "conv4_2"
  type: "Convolution"
  bottom: "conv4_1"
  top: "conv4_2"
  param {
    lr_mult: 1
    decay_mult: 1
  }
  param {
    lr_mult: 2
    decay_mult: 0
  }
  convolution_param {
    num_output: 512
    pad: 1
    kernel_size: 3
    weight_filler {
      type: "xavier"
    }
    bias_filler {
      type: "constant"
      value: 0
    }
  }
}
layer {
  name: "relu4_2"
  type: "ReLU"
  bottom: "conv4_2"
  top: "conv4_2"
}
layer {
  name: "conv4_3"
  type: "Convolution"
  bottom: "conv4_2"
  top: "conv4_3"
  param {
    lr_mult: 1
    decay_mult: 1
  }
  param {
    lr_mult: 2
    decay_mult: 0
  }
  convolution_param {
    num_output: 512
    pad: 1
    kernel_size: 3
    weight_filler {
      type: "xavier"
    }
    bias_filler {
      type: "constant"
      value: 0
    }
  }
}
layer {
  name: "relu4_3"
  type: "ReLU"
  bottom: "conv4_3"
  top: "conv4_3"
}
layer {
  name: "pool4"
  type: "Pooling"
  bottom: "conv4_3"
  top: "pool4"
  pooling_param {
    pool: MAX
    kernel_size: 2
    stride: 2
  }
}
layer {
  name: "conv5_1_depthwise"
  type: "DepthwiseConvolution"
  bottom: "pool4"
  top: "conv5_1_3x3"
  param {
    lr_mult: 1
    decay_mult: 1
  }
  param {
    lr_mult: 2
    decay_mult: 0
  }
  convolution_param {
    num_output: 512
    pad: 1
    kernel_size: 3
    group: 512
    weight_filler {
      type: "xavier"
    }
    bias_filler {
      type: "constant"
      value: 0
    }
    dilation: 1
  }
}
layer {
  name: "conv5_1_3x3_relu"
  type: "ReLU"
  bottom: "conv5_1_3x3"
  top: "conv5_1_3x3"
}
layer {
  name: "conv5_1_1x1"
  type: "Convolution"
  bottom: "conv5_1_3x3"
  top: "conv5_1"
  param {
    lr_mult: 1
    decay_mult: 1
  }
  param {
    lr_mult: 2
    decay_mult: 0
  }
  convolution_param {
    num_output: 512
    pad: 0
    kernel_size: 1
    stride: 1
    weight_filler {
      type: "xavier"
    }
    bias_filler {
      type: "constant"
      value: 0
    }
    dilation: 1
  }
}
layer {
  name: "relu5_1"
  type: "ReLU"
  bottom: "conv5_1"
  top: "conv5_1"
}
layer {
  name: "conv5_2_depthwise"
  type: "DepthwiseConvolution"
  bottom: "conv5_1"
  top: "conv5_2_3x3"
  param {
    lr_mult: 1
    decay_mult: 1
  }
  param {
    lr_mult: 2
    decay_mult: 0
  }
  convolution_param {
    num_output: 512
    pad: 1
    kernel_size: 3
    group: 512
    weight_filler {
      type: "xavier"
    }
    bias_filler {
      type: "constant"
      value: 0
    }
    dilation: 1
  }
}
layer {
  name: "conv5_2_3x3_relu"
  type: "ReLU"
  bottom: "conv5_2_3x3"
  top: "conv5_2_3x3"
}
layer {
  name: "conv5_2_1x1"
  type: "Convolution"
  bottom: "conv5_2_3x3"
  top: "conv5_2"
  param {
    lr_mult: 1
    decay_mult: 1
  }
  param {
    lr_mult: 2
    decay_mult: 0
  }
  convolution_param {
    num_output: 512
    pad: 0
    kernel_size: 1
    stride: 1
    weight_filler {
      type: "xavier"
    }
    bias_filler {
      type: "constant"
      value: 0
    }
    dilation: 1
  }
}
layer {
  name: "relu5_2"
  type: "ReLU"
  bottom: "conv5_2"
  top: "conv5_2"
}
layer {
  name: "conv5_3_depthwise"
  type: "DepthwiseConvolution"
  bottom: "conv5_2"
  top: "conv5_3_3x3"
  param {
    lr_mult: 1
    decay_mult: 1
  }
  param {
    lr_mult: 2
    decay_mult: 0
  }
  convolution_param {
    num_output: 512
    pad: 1
    kernel_size: 3
    group: 512
    weight_filler {
      type: "xavier"
    }
    bias_filler {
      type: "constant"
      value: 0
    }
    dilation: 1
  }
}
layer {
  name: "conv5_3_3x3_relu"
  type: "ReLU"
  bottom: "conv5_3_3x3"
  top: "conv5_3_3x3"
}
layer {
  name: "conv5_3_1x1"
  type: "Convolution"
  bottom: "conv5_3_3x3"
  top: "conv5_3"
  param {
    lr_mult: 1
    decay_mult: 1
  }
  param {
    lr_mult: 2
    decay_mult: 0
  }
  convolution_param {
    num_output: 512
    pad: 0
    kernel_size: 1
    stride: 1
    weight_filler {
      type: "xavier"
    }
    bias_filler {
      type: "constant"
      value: 0
    }
    dilation: 1
  }
}
layer {
  name: "relu5_3"
  type: "ReLU"
  bottom: "conv5_3"
  top: "conv5_3"
}
layer {
  name: "pool5"
  type: "Pooling"
  bottom: "conv5_3"
  top: "pool5"
  pooling_param {
    pool: MAX
    kernel_size: 3
    stride: 1
    pad: 1
  }
}
layer {
  name: "fc6_depthwise"
  type: "DepthwiseConvolution"
  bottom: "pool5"
  top: "fc6_3x3"
  param {
    lr_mult: 1
    decay_mult: 1
  }
  param {
    lr_mult: 2
    decay_mult: 0
  }
  convolution_param {
    num_output: 512
    pad: 6
    kernel_size: 3
    group: 512
    weight_filler {
      type: "xavier"
    }
    bias_filler {
      type: "constant"
      value: 0
    }
    dilation: 6
  }
}
layer {
  name: "fc6_3x3_relu"
  type: "ReLU"
  bottom: "fc6_3x3"
  top: "fc6_3x3"
}
layer {
  name: "fc6_1x1"
  type: "Convolution"
  bottom: "fc6_3x3"
  top: "fc6"
  param {
    lr_mult: 1
    decay_mult: 1
  }
  param {
    lr_mult: 2
    decay_mult: 0
  }
  convolution_param {
    num_output: 1024
    pad: 0
    kernel_size: 1
    stride: 1
    weight_filler {
      type: "xavier"
    }
    bias_filler {
      type: "constant"
      value: 0
    }
    dilation: 6
  }
}
layer {
  name: "relu6"
  type: "ReLU"
  bottom: "fc6"
  top: "fc6"
}
layer {
  name: "fc7"
  type: "Convolution"
  bottom: "fc6"
  top: "fc7"
  param {
    lr_mult: 1
    decay_mult: 1
  }
  param {
    lr_mult: 2
    decay_mult: 0
  }
  convolution_param {
    num_output: 1024
    kernel_size: 1
    weight_filler {
      type: "xavier"
    }
    bias_filler {
      type: "constant"
      value: 0
    }
  }
}
layer {
  name: "relu7"
  type: "ReLU"
  bottom: "fc7"
  top: "fc7"
}
layer {
  name: "conv6_1"
  type: "Convolution"
  bottom: "fc7"
  top: "conv6_1"
  param {
    lr_mult: 1
    decay_mult: 1
  }
  param {
    lr_mult: 2
    decay_mult: 0
  }
  convolution_param {
    num_output: 256
    pad: 0
    kernel_size: 1
    stride: 1
    weight_filler {
      type: "xavier"
    }
    bias_filler {
      type: "constant"
      value: 0
    }
  }
}
layer {
  name: "conv6_1_relu"
  type: "ReLU"
  bottom: "conv6_1"
  top: "conv6_1"
}
layer {
  name: "conv6_2"
  type: "Convolution"
  bottom: "conv6_1"
  top: "conv6_2"
  param {
    lr_mult: 1
    decay_mult: 1
  }
  param {
    lr_mult: 2
    decay_mult: 0
  }
  convolution_param {
    num_output: 512
    pad: 1
    kernel_size: 3
    stride: 2
    weight_filler {
      type: "xavier"
    }
    bias_filler {
      type: "constant"
      value: 0
    }
  }
}
layer {
  name: "conv6_2_relu"
  type: "ReLU"
  bottom: "conv6_2"
  top: "conv6_2"
}
layer {
  name: "conv7_1"
  type: "Convolution"
  bottom: "conv6_2"
  top: "conv7_1"
  param {
    lr_mult: 1
    decay_mult: 1
  }
  param {
    lr_mult: 2
    decay_mult: 0
  }
  convolution_param {
    num_output: 128
    pad: 0
    kernel_size: 1
    stride: 1
    weight_filler {
      type: "xavier"
    }
    bias_filler {
      type: "constant"
      value: 0
    }
  }
}
layer {
  name: "conv7_1_relu"
  type: "ReLU"
  bottom: "conv7_1"
  top: "conv7_1"
}
layer {
  name: "conv7_2"
  type: "Convolution"
  bottom: "conv7_1"
  top: "conv7_2"
  param {
    lr_mult: 1
    decay_mult: 1
  }
  param {
    lr_mult: 2
    decay_mult: 0
  }
  convolution_param {
    num_output: 256
    pad: 1
    kernel_size: 3
    stride: 2
    weight_filler {
      type: "xavier"
    }
    bias_filler {
      type: "constant"
      value: 0
    }
  }
}
layer {
  name: "conv7_2_relu"
  type: "ReLU"
  bottom: "conv7_2"
  top: "conv7_2"
}
layer {
  name: "conv8_1"
  type: "Convolution"
  bottom: "conv7_2"
  top: "conv8_1"
  param {
    lr_mult: 1
    decay_mult: 1
  }
  param {
    lr_mult: 2
    decay_mult: 0
  }
  convolution_param {
    num_output: 128
    pad: 0
    kernel_size: 1
    stride: 1
    weight_filler {
      type: "xavier"
    }
    bias_filler {
      type: "constant"
      value: 0
    }
  }
}
layer {
  name: "conv8_1_relu"
  type: "ReLU"
  bottom: "conv8_1"
  top: "conv8_1"
}
layer {
  name: "conv8_2"
  type: "Convolution"
  bottom: "conv8_1"
  top: "conv8_2"
  param {
    lr_mult: 1
    decay_mult: 1
  }
  param {
    lr_mult: 2
    decay_mult: 0
  }
  convolution_param {
    num_output: 256
    pad: 0
    kernel_size: 3
    stride: 1
    weight_filler {
      type: "xavier"
    }
    bias_filler {
      type: "constant"
      value: 0
    }
  }
}
layer {
  name: "conv8_2_relu"
  type: "ReLU"
  bottom: "conv8_2"
  top: "conv8_2"
}
layer {
  name: "conv9_1"
  type: "Convolution"
  bottom: "conv8_2"
  top: "conv9_1"
  param {
    lr_mult: 1
    decay_mult: 1
  }
  param {
    lr_mult: 2
    decay_mult: 0
  }
  convolution_param {
    num_output: 128
    pad: 0
    kernel_size: 1
    stride: 1
    weight_filler {
      type: "xavier"
    }
    bias_filler {
      type: "constant"
      value: 0
    }
  }
}
layer {
  name: "conv9_1_relu"
  type: "ReLU"
  bottom: "conv9_1"
  top: "conv9_1"
}
layer {
  name: "conv9_2"
  type: "Convolution"
  bottom: "conv9_1"
  top: "conv9_2"
  param {
    lr_mult: 1
    decay_mult: 1
  }
  param {
    lr_mult: 2
    decay_mult: 0
  }
  convolution_param {
    num_output: 256
    pad: 0
    kernel_size: 3
    stride: 1
    weight_filler {
      type: "xavier"
    }
    bias_filler {
      type: "constant"
      value: 0
    }
  }
}
layer {
  name: "conv9_2_relu"
  type: "ReLU"
  bottom: "conv9_2"
  top: "conv9_2"
}
layer {
  name: "conv4_3_norm"
  type: "Normalize"
  bottom: "conv4_3"
  top: "conv4_3_norm"
  norm_param {
    across_spatial: false
    scale_filler {
      type: "constant"
      value: 20
    }
    channel_shared: false
  }
}
layer {
  name: "conv4_3_norm_mbox_loc"
  type: "Convolution"
  bottom: "conv4_3_norm"
  top: "conv4_3_norm_mbox_loc"
  param {
    lr_mult: 1
    decay_mult: 1
  }
  param {
    lr_mult: 2
    decay_mult: 0
  }
  convolution_param {
    num_output: 16
    pad: 1
    kernel_size: 3
    stride: 1
    weight_filler {
      type: "xavier"
    }
    bias_filler {
      type: "constant"
      value: 0
    }
  }
}
layer {
  name: "conv4_3_norm_mbox_loc_perm"
  type: "Permute"
  bottom: "conv4_3_norm_mbox_loc"
  top: "conv4_3_norm_mbox_loc_perm"
  permute_param {
    order: 0
    order: 2
    order: 3
    order: 1
  }
}
layer {
  name: "conv4_3_norm_mbox_loc_flat"
  type: "Flatten"
  bottom: "conv4_3_norm_mbox_loc_perm"
  top: "conv4_3_norm_mbox_loc_flat"
  flatten_param {
    axis: 1
  }
}
layer {
  name: "conv4_3_norm_mbox_conf"
  type: "Convolution"
  bottom: "conv4_3_norm"
  top: "conv4_3_norm_mbox_conf"
  param {
    lr_mult: 1
    decay_mult: 1
  }
  param {
    lr_mult: 2
    decay_mult: 0
  }
  convolution_param {
    num_output: 44
    pad: 1
    kernel_size: 3
    stride: 1
    weight_filler {
      type: "xavier"
    }
    bias_filler {
      type: "constant"
      value: 0
    }
  }
}
layer {
  name: "conv4_3_norm_mbox_conf_perm"
  type: "Permute"
  bottom: "conv4_3_norm_mbox_conf"
  top: "conv4_3_norm_mbox_conf_perm"
  permute_param {
    order: 0
    order: 2
    order: 3
    order: 1
  }
}
layer {
  name: "conv4_3_norm_mbox_conf_flat"
  type: "Flatten"
  bottom: "conv4_3_norm_mbox_conf_perm"
  top: "conv4_3_norm_mbox_conf_flat"
  flatten_param {
    axis: 1
  }
}
layer {
  name: "conv4_3_norm_mbox_priorbox"
  type: "PriorBox"
  bottom: "conv4_3_norm"
  bottom: "data"
  top: "conv4_3_norm_mbox_priorbox"
  prior_box_param {
    min_size: 30
    max_size: 60
    aspect_ratio: 2
    flip: true
    clip: false
    variance: 0.1
    variance: 0.1
    variance: 0.2
    variance: 0.2
    step: 8
    offset: 0.5
  }
}
layer {
  name: "fc7_mbox_loc"
  type: "Convolution"
  bottom: "fc7"
  top: "fc7_mbox_loc"
  param {
    lr_mult: 1
    decay_mult: 1
  }
  param {
    lr_mult: 2
    decay_mult: 0
  }
  convolution_param {
    num_output: 24
    pad: 1
    kernel_size: 3
    stride: 1
    weight_filler {
      type: "xavier"
    }
    bias_filler {
      type: "constant"
      value: 0
    }
  }
}
layer {
  name: "fc7_mbox_loc_perm"
  type: "Permute"
  bottom: "fc7_mbox_loc"
  top: "fc7_mbox_loc_perm"
  permute_param {
    order: 0
    order: 2
    order: 3
    order: 1
  }
}
layer {
  name: "fc7_mbox_loc_flat"
  type: "Flatten"
  bottom: "fc7_mbox_loc_perm"
  top: "fc7_mbox_loc_flat"
  flatten_param {
    axis: 1
  }
}
layer {
  name: "fc7_mbox_conf"
  type: "Convolution"
  bottom: "fc7"
  top: "fc7_mbox_conf"
  param {
    lr_mult: 1
    decay_mult: 1
  }
  param {
    lr_mult: 2
    decay_mult: 0
  }
  convolution_param {
    num_output: 66
    pad: 1
    kernel_size: 3
    stride: 1
    weight_filler {
      type: "xavier"
    }
    bias_filler {
      type: "constant"
      value: 0
    }
  }
}
layer {
  name: "fc7_mbox_conf_perm"
  type: "Permute"
  bottom: "fc7_mbox_conf"
  top: "fc7_mbox_conf_perm"
  permute_param {
    order: 0
    order: 2
    order: 3
    order: 1
  }
}
layer {
  name: "fc7_mbox_conf_flat"
  type: "Flatten"
  bottom: "fc7_mbox_conf_perm"
  top: "fc7_mbox_conf_flat"
  flatten_param {
    axis: 1
  }
}
layer {
  name: "fc7_mbox_priorbox"
  type: "PriorBox"
  bottom: "fc7"
  bottom: "data"
  top: "fc7_mbox_priorbox"
  prior_box_param {
    min_size: 60
    max_size: 111
    aspect_ratio: 2
    aspect_ratio: 3
    flip: true
    clip: false
    variance: 0.1
    variance: 0.1
    variance: 0.2
    variance: 0.2
    step: 16
    offset: 0.5
  }
}
layer {
  name: "conv6_2_mbox_loc"
  type: "Convolution"
  bottom: "conv6_2"
  top: "conv6_2_mbox_loc"
  param {
    lr_mult: 1
    decay_mult: 1
  }
  param {
    lr_mult: 2
    decay_mult: 0
  }
  convolution_param {
    num_output: 24
    pad: 1
    kernel_size: 3
    stride: 1
    weight_filler {
      type: "xavier"
    }
    bias_filler {
      type: "constant"
      value: 0
    }
  }
}
layer {
  name: "conv6_2_mbox_loc_perm"
  type: "Permute"
  bottom: "conv6_2_mbox_loc"
  top: "conv6_2_mbox_loc_perm"
  permute_param {
    order: 0
    order: 2
    order: 3
    order: 1
  }
}
layer {
  name: "conv6_2_mbox_loc_flat"
  type: "Flatten"
  bottom: "conv6_2_mbox_loc_perm"
  top: "conv6_2_mbox_loc_flat"
  flatten_param {
    axis: 1
  }
}
layer {
  name: "conv6_2_mbox_conf"
  type: "Convolution"
  bottom: "conv6_2"
  top: "conv6_2_mbox_conf"
  param {
    lr_mult: 1
    decay_mult: 1
  }
  param {
    lr_mult: 2
    decay_mult: 0
  }
  convolution_param {
    num_output: 66
    pad: 1
    kernel_size: 3
    stride: 1
    weight_filler {
      type: "xavier"
    }
    bias_filler {
      type: "constant"
      value: 0
    }
  }
}
layer {
  name: "conv6_2_mbox_conf_perm"
  type: "Permute"
  bottom: "conv6_2_mbox_conf"
  top: "conv6_2_mbox_conf_perm"
  permute_param {
    order: 0
    order: 2
    order: 3
    order: 1
  }
}
layer {
  name: "conv6_2_mbox_conf_flat"
  type: "Flatten"
  bottom: "conv6_2_mbox_conf_perm"
  top: "conv6_2_mbox_conf_flat"
  flatten_param {
    axis: 1
  }
}
layer {
  name: "conv6_2_mbox_priorbox"
  type: "PriorBox"
  bottom: "conv6_2"
  bottom: "data"
  top: "conv6_2_mbox_priorbox"
  prior_box_param {
    min_size: 111
    max_size: 162
    aspect_ratio: 2
    aspect_ratio: 3
    flip: true
    clip: false
    variance: 0.1
    variance: 0.1
    variance: 0.2
    variance: 0.2
    step: 32
    offset: 0.5
  }
}
layer {
  name: "conv7_2_mbox_loc"
  type: "Convolution"
  bottom: "conv7_2"
  top: "conv7_2_mbox_loc"
  param {
    lr_mult: 1
    decay_mult: 1
  }
  param {
    lr_mult: 2
    decay_mult: 0
  }
  convolution_param {
    num_output: 24
    pad: 1
    kernel_size: 3
    stride: 1
    weight_filler {
      type: "xavier"
    }
    bias_filler {
      type: "constant"
      value: 0
    }
  }
}
layer {
  name: "conv7_2_mbox_loc_perm"
  type: "Permute"
  bottom: "conv7_2_mbox_loc"
  top: "conv7_2_mbox_loc_perm"
  permute_param {
    order: 0
    order: 2
    order: 3
    order: 1
  }
}
layer {
  name: "conv7_2_mbox_loc_flat"
  type: "Flatten"
  bottom: "conv7_2_mbox_loc_perm"
  top: "conv7_2_mbox_loc_flat"
  flatten_param {
    axis: 1
  }
}
layer {
  name: "conv7_2_mbox_conf"
  type: "Convolution"
  bottom: "conv7_2"
  top: "conv7_2_mbox_conf"
  param {
    lr_mult: 1
    decay_mult: 1
  }
  param {
    lr_mult: 2
    decay_mult: 0
  }
  convolution_param {
    num_output: 66
    pad: 1
    kernel_size: 3
    stride: 1
    weight_filler {
      type: "xavier"
    }
    bias_filler {
      type: "constant"
      value: 0
    }
  }
}
layer {
  name: "conv7_2_mbox_conf_perm"
  type: "Permute"
  bottom: "conv7_2_mbox_conf"
  top: "conv7_2_mbox_conf_perm"
  permute_param {
    order: 0
    order: 2
    order: 3
    order: 1
  }
}
layer {
  name: "conv7_2_mbox_conf_flat"
  type: "Flatten"
  bottom: "conv7_2_mbox_conf_perm"
  top: "conv7_2_mbox_conf_flat"
  flatten_param {
    axis: 1
  }
}
layer {
  name: "conv7_2_mbox_priorbox"
  type: "PriorBox"
  bottom: "conv7_2"
  bottom: "data"
  top: "conv7_2_mbox_priorbox"
  prior_box_param {
    min_size: 162
    max_size: 213
    aspect_ratio: 2
    aspect_ratio: 3
    flip: true
    clip: false
    variance: 0.1
    variance: 0.1
    variance: 0.2
    variance: 0.2
    step: 64
    offset: 0.5
  }
}
layer {
  name: "conv8_2_mbox_loc"
  type: "Convolution"
  bottom: "conv8_2"
  top: "conv8_2_mbox_loc"
  param {
    lr_mult: 1
    decay_mult: 1
  }
  param {
    lr_mult: 2
    decay_mult: 0
  }
  convolution_param {
    num_output: 16
    pad: 1
    kernel_size: 3
    stride: 1
    weight_filler {
      type: "xavier"
    }
    bias_filler {
      type: "constant"
      value: 0
    }
  }
}
layer {
  name: "conv8_2_mbox_loc_perm"
  type: "Permute"
  bottom: "conv8_2_mbox_loc"
  top: "conv8_2_mbox_loc_perm"
  permute_param {
    order: 0
    order: 2
    order: 3
    order: 1
  }
}
layer {
  name: "conv8_2_mbox_loc_flat"
  type: "Flatten"
  bottom: "conv8_2_mbox_loc_perm"
  top: "conv8_2_mbox_loc_flat"
  flatten_param {
    axis: 1
  }
}
layer {
  name: "conv8_2_mbox_conf"
  type: "Convolution"
  bottom: "conv8_2"
  top: "conv8_2_mbox_conf"
  param {
    lr_mult: 1
    decay_mult: 1
  }
  param {
    lr_mult: 2
    decay_mult: 0
  }
  convolution_param {
    num_output: 44
    pad: 1
    kernel_size: 3
    stride: 1
    weight_filler {
      type: "xavier"
    }
    bias_filler {
      type: "constant"
      value: 0
    }
  }
}
layer {
  name: "conv8_2_mbox_conf_perm"
  type: "Permute"
  bottom: "conv8_2_mbox_conf"
  top: "conv8_2_mbox_conf_perm"
  permute_param {
    order: 0
    order: 2
    order: 3
    order: 1
  }
}
layer {
  name: "conv8_2_mbox_conf_flat"
  type: "Flatten"
  bottom: "conv8_2_mbox_conf_perm"
  top: "conv8_2_mbox_conf_flat"
  flatten_param {
    axis: 1
  }
}
layer {
  name: "conv8_2_mbox_priorbox"
  type: "PriorBox"
  bottom: "conv8_2"
  bottom: "data"
  top: "conv8_2_mbox_priorbox"
  prior_box_param {
    min_size: 213
    max_size: 264
    aspect_ratio: 2
    flip: true
    clip: false
    variance: 0.1
    variance: 0.1
    variance: 0.2
    variance: 0.2
    step: 100
    offset: 0.5
  }
}
layer {
  name: "conv9_2_mbox_loc"
  type: "Convolution"
  bottom: "conv9_2"
  top: "conv9_2_mbox_loc"
  param {
    lr_mult: 1
    decay_mult: 1
  }
  param {
    lr_mult: 2
    decay_mult: 0
  }
  convolution_param {
    num_output: 16
    pad: 1
    kernel_size: 3
    stride: 1
    weight_filler {
      type: "xavier"
    }
    bias_filler {
      type: "constant"
      value: 0
    }
  }
}
layer {
  name: "conv9_2_mbox_loc_perm"
  type: "Permute"
  bottom: "conv9_2_mbox_loc"
  top: "conv9_2_mbox_loc_perm"
  permute_param {
    order: 0
    order: 2
    order: 3
    order: 1
  }
}
layer {
  name: "conv9_2_mbox_loc_flat"
  type: "Flatten"
  bottom: "conv9_2_mbox_loc_perm"
  top: "conv9_2_mbox_loc_flat"
  flatten_param {
    axis: 1
  }
}
layer {
  name: "conv9_2_mbox_conf"
  type: "Convolution"
  bottom: "conv9_2"
  top: "conv9_2_mbox_conf"
  param {
    lr_mult: 1
    decay_mult: 1
  }
  param {
    lr_mult: 2
    decay_mult: 0
  }
  convolution_param {
    num_output: 44
    pad: 1
    kernel_size: 3
    stride: 1
    weight_filler {
      type: "xavier"
    }
    bias_filler {
      type: "constant"
      value: 0
    }
  }
}
layer {
  name: "conv9_2_mbox_conf_perm"
  type: "Permute"
  bottom: "conv9_2_mbox_conf"
  top: "conv9_2_mbox_conf_perm"
  permute_param {
    order: 0
    order: 2
    order: 3
    order: 1
  }
}
layer {
  name: "conv9_2_mbox_conf_flat"
  type: "Flatten"
  bottom: "conv9_2_mbox_conf_perm"
  top: "conv9_2_mbox_conf_flat"
  flatten_param {
    axis: 1
  }
}
layer {
  name: "conv9_2_mbox_priorbox"
  type: "PriorBox"
  bottom: "conv9_2"
  bottom: "data"
  top: "conv9_2_mbox_priorbox"
  prior_box_param {
    min_size: 264
    max_size: 315
    aspect_ratio: 2
    flip: true
    clip: false
    variance: 0.1
    variance: 0.1
    variance: 0.2
    variance: 0.2
    step: 300
    offset: 0.5
  }
}
layer {
  name: "mbox_loc"
  type: "Concat"
  bottom: "conv4_3_norm_mbox_loc_flat"
  bottom: "fc7_mbox_loc_flat"
  bottom: "conv6_2_mbox_loc_flat"
  bottom: "conv7_2_mbox_loc_flat"
  bottom: "conv8_2_mbox_loc_flat"
  bottom: "conv9_2_mbox_loc_flat"
  top: "mbox_loc"
  concat_param {
    axis: 1
  }
}
layer {
  name: "mbox_conf"
  type: "Concat"
  bottom: "conv4_3_norm_mbox_conf_flat"
  bottom: "fc7_mbox_conf_flat"
  bottom: "conv6_2_mbox_conf_flat"
  bottom: "conv7_2_mbox_conf_flat"
  bottom: "conv8_2_mbox_conf_flat"
  bottom: "conv9_2_mbox_conf_flat"
  top: "mbox_conf"
  concat_param {
    axis: 1
  }
}
layer {
  name: "mbox_priorbox"
  type: "Concat"
  bottom: "conv4_3_norm_mbox_priorbox"
  bottom: "fc7_mbox_priorbox"
  bottom: "conv6_2_mbox_priorbox"
  bottom: "conv7_2_mbox_priorbox"
  bottom: "conv8_2_mbox_priorbox"
  bottom: "conv9_2_mbox_priorbox"
  top: "mbox_priorbox"
  concat_param {
    axis: 2
  }
}
layer {
  name: "mbox_conf_reshape"
  type: "Reshape"
  bottom: "mbox_conf"
  top: "mbox_conf_reshape"
  reshape_param {
    shape {
      dim: 0
      dim: -1
      dim: 11
    }
  }
}
layer {
  name: "mbox_conf_softmax"
  type: "Softmax"
  bottom: "mbox_conf_reshape"
  top: "mbox_conf_softmax"
  softmax_param {
    axis: 2
  }
}
layer {
  name: "mbox_conf_flatten"
  type: "Flatten"
  bottom: "mbox_conf_softmax"
  top: "mbox_conf_flatten"
  flatten_param {
    axis: 1
  }
}
layer {
  name: "detection_out"
  type: "DetectionOutput"
  bottom: "mbox_loc"
  bottom: "mbox_conf_flatten"
  bottom: "mbox_priorbox"
  top: "detection_out"
  include {
    phase: TEST
  }
  detection_output_param {
    num_classes: 11
    share_location: true
    background_label_id: 0
    nms_param {
      nms_threshold: 0.45
      top_k: 400
    }
    save_output_param {
      output_directory: "/home/zs/data/VOCdevkit/results/VOC2007/SSD_300x300_0322_conv4_1/Main"
      output_name_prefix: "comp4_det_test_"
      output_format: "VOC"
      label_map_file: "data/NWPU_VHR/labelmap_NWPU_VHR.prototxt"
      name_size_file: "data/NWPU_VHR/test_name_size.txt"
      num_test_image: 123
    }
    code_type: CENTER_SIZE
    keep_top_k: 200
    confidence_threshold: 0.01
  }
}
layer {
  name: "detection_eval"
  type: "DetectionEvaluate"
  bottom: "detection_out"
  bottom: "label"
  top: "detection_eval"
  include {
    phase: TEST
  }
  detection_evaluate_param {
    num_classes: 11
    background_label_id: 0
    overlap_threshold: 0.5
    evaluate_difficult_gt: false
    name_size_file: "data/NWPU_VHR/test_name_size.txt"
  }
}
I0322 22:59:41.029906 15620 layer_factory.hpp:77] Creating layer data
I0322 22:59:41.029974 15620 net.cpp:100] Creating Layer data
I0322 22:59:41.029985 15620 net.cpp:408] data -> data
I0322 22:59:41.029999 15620 net.cpp:408] data -> label
I0322 22:59:41.031227 15636 db_lmdb.cpp:35] Opened lmdb examples/NWPU_VHR/NWPU_VHR_test_lmdb
I0322 22:59:41.040336 15620 annotated_data_layer.cpp:62] output data size: 1,3,300,300
I0322 22:59:41.043306 15620 net.cpp:150] Setting up data
I0322 22:59:41.043323 15620 net.cpp:157] Top shape: 1 3 300 300 (270000)
I0322 22:59:41.043329 15620 net.cpp:157] Top shape: 1 1 4 8 (32)
I0322 22:59:41.043334 15620 net.cpp:165] Memory required for data: 1080128
I0322 22:59:41.043340 15620 layer_factory.hpp:77] Creating layer data_data_0_split
I0322 22:59:41.043359 15620 net.cpp:100] Creating Layer data_data_0_split
I0322 22:59:41.043365 15620 net.cpp:434] data_data_0_split <- data
I0322 22:59:41.043373 15620 net.cpp:408] data_data_0_split -> data_data_0_split_0
I0322 22:59:41.043387 15620 net.cpp:408] data_data_0_split -> data_data_0_split_1
I0322 22:59:41.043397 15620 net.cpp:408] data_data_0_split -> data_data_0_split_2
I0322 22:59:41.043403 15620 net.cpp:408] data_data_0_split -> data_data_0_split_3
I0322 22:59:41.043409 15620 net.cpp:408] data_data_0_split -> data_data_0_split_4
I0322 22:59:41.043416 15620 net.cpp:408] data_data_0_split -> data_data_0_split_5
I0322 22:59:41.043426 15620 net.cpp:408] data_data_0_split -> data_data_0_split_6
I0322 22:59:41.043565 15620 net.cpp:150] Setting up data_data_0_split
I0322 22:59:41.043572 15620 net.cpp:157] Top shape: 1 3 300 300 (270000)
I0322 22:59:41.043576 15620 net.cpp:157] Top shape: 1 3 300 300 (270000)
I0322 22:59:41.043583 15620 net.cpp:157] Top shape: 1 3 300 300 (270000)
I0322 22:59:41.043589 15620 net.cpp:157] Top shape: 1 3 300 300 (270000)
I0322 22:59:41.043594 15620 net.cpp:157] Top shape: 1 3 300 300 (270000)
I0322 22:59:41.043598 15620 net.cpp:157] Top shape: 1 3 300 300 (270000)
I0322 22:59:41.043603 15620 net.cpp:157] Top shape: 1 3 300 300 (270000)
I0322 22:59:41.043607 15620 net.cpp:165] Memory required for data: 8640128
I0322 22:59:41.043612 15620 layer_factory.hpp:77] Creating layer conv1_1
I0322 22:59:41.043622 15620 net.cpp:100] Creating Layer conv1_1
I0322 22:59:41.043627 15620 net.cpp:434] conv1_1 <- data_data_0_split_0
I0322 22:59:41.043633 15620 net.cpp:408] conv1_1 -> conv1_1
I0322 22:59:41.045584 15620 net.cpp:150] Setting up conv1_1
I0322 22:59:41.045598 15620 net.cpp:157] Top shape: 1 64 300 300 (5760000)
I0322 22:59:41.045601 15620 net.cpp:165] Memory required for data: 31680128
I0322 22:59:41.045616 15620 layer_factory.hpp:77] Creating layer relu1_1
I0322 22:59:41.045626 15620 net.cpp:100] Creating Layer relu1_1
I0322 22:59:41.045630 15620 net.cpp:434] relu1_1 <- conv1_1
I0322 22:59:41.045637 15620 net.cpp:395] relu1_1 -> conv1_1 (in-place)
I0322 22:59:41.045840 15620 net.cpp:150] Setting up relu1_1
I0322 22:59:41.045850 15620 net.cpp:157] Top shape: 1 64 300 300 (5760000)
I0322 22:59:41.045871 15620 net.cpp:165] Memory required for data: 54720128
I0322 22:59:41.045876 15620 layer_factory.hpp:77] Creating layer conv1_2
I0322 22:59:41.045888 15620 net.cpp:100] Creating Layer conv1_2
I0322 22:59:41.045897 15620 net.cpp:434] conv1_2 <- conv1_1
I0322 22:59:41.045904 15620 net.cpp:408] conv1_2 -> conv1_2
I0322 22:59:41.047338 15620 net.cpp:150] Setting up conv1_2
I0322 22:59:41.047349 15620 net.cpp:157] Top shape: 1 64 300 300 (5760000)
I0322 22:59:41.047353 15620 net.cpp:165] Memory required for data: 77760128
I0322 22:59:41.047361 15620 layer_factory.hpp:77] Creating layer relu1_2
I0322 22:59:41.047369 15620 net.cpp:100] Creating Layer relu1_2
I0322 22:59:41.047374 15620 net.cpp:434] relu1_2 <- conv1_2
I0322 22:59:41.047379 15620 net.cpp:395] relu1_2 -> conv1_2 (in-place)
I0322 22:59:41.048101 15620 net.cpp:150] Setting up relu1_2
I0322 22:59:41.048115 15620 net.cpp:157] Top shape: 1 64 300 300 (5760000)
I0322 22:59:41.048118 15620 net.cpp:165] Memory required for data: 100800128
I0322 22:59:41.048123 15620 layer_factory.hpp:77] Creating layer pool1
I0322 22:59:41.048131 15620 net.cpp:100] Creating Layer pool1
I0322 22:59:41.048137 15620 net.cpp:434] pool1 <- conv1_2
I0322 22:59:41.048147 15620 net.cpp:408] pool1 -> pool1
I0322 22:59:41.048193 15620 net.cpp:150] Setting up pool1
I0322 22:59:41.048202 15620 net.cpp:157] Top shape: 1 64 150 150 (1440000)
I0322 22:59:41.048208 15620 net.cpp:165] Memory required for data: 106560128
I0322 22:59:41.048213 15620 layer_factory.hpp:77] Creating layer conv2_1
I0322 22:59:41.048224 15620 net.cpp:100] Creating Layer conv2_1
I0322 22:59:41.048233 15620 net.cpp:434] conv2_1 <- pool1
I0322 22:59:41.048241 15620 net.cpp:408] conv2_1 -> conv2_1
I0322 22:59:41.050302 15620 net.cpp:150] Setting up conv2_1
I0322 22:59:41.050313 15620 net.cpp:157] Top shape: 1 128 150 150 (2880000)
I0322 22:59:41.050318 15620 net.cpp:165] Memory required for data: 118080128
I0322 22:59:41.050329 15620 layer_factory.hpp:77] Creating layer relu2_1
I0322 22:59:41.050340 15620 net.cpp:100] Creating Layer relu2_1
I0322 22:59:41.050345 15620 net.cpp:434] relu2_1 <- conv2_1
I0322 22:59:41.050351 15620 net.cpp:395] relu2_1 -> conv2_1 (in-place)
I0322 22:59:41.050519 15620 net.cpp:150] Setting up relu2_1
I0322 22:59:41.050529 15620 net.cpp:157] Top shape: 1 128 150 150 (2880000)
I0322 22:59:41.050532 15620 net.cpp:165] Memory required for data: 129600128
I0322 22:59:41.050537 15620 layer_factory.hpp:77] Creating layer conv2_2
I0322 22:59:41.050549 15620 net.cpp:100] Creating Layer conv2_2
I0322 22:59:41.050555 15620 net.cpp:434] conv2_2 <- conv2_1
I0322 22:59:41.050561 15620 net.cpp:408] conv2_2 -> conv2_2
I0322 22:59:41.052906 15620 net.cpp:150] Setting up conv2_2
I0322 22:59:41.052918 15620 net.cpp:157] Top shape: 1 128 150 150 (2880000)
I0322 22:59:41.052922 15620 net.cpp:165] Memory required for data: 141120128
I0322 22:59:41.052930 15620 layer_factory.hpp:77] Creating layer relu2_2
I0322 22:59:41.052939 15620 net.cpp:100] Creating Layer relu2_2
I0322 22:59:41.052945 15620 net.cpp:434] relu2_2 <- conv2_2
I0322 22:59:41.052951 15620 net.cpp:395] relu2_2 -> conv2_2 (in-place)
I0322 22:59:41.053120 15620 net.cpp:150] Setting up relu2_2
I0322 22:59:41.053130 15620 net.cpp:157] Top shape: 1 128 150 150 (2880000)
I0322 22:59:41.053134 15620 net.cpp:165] Memory required for data: 152640128
I0322 22:59:41.053138 15620 layer_factory.hpp:77] Creating layer pool2
I0322 22:59:41.053145 15620 net.cpp:100] Creating Layer pool2
I0322 22:59:41.053153 15620 net.cpp:434] pool2 <- conv2_2
I0322 22:59:41.053159 15620 net.cpp:408] pool2 -> pool2
I0322 22:59:41.053205 15620 net.cpp:150] Setting up pool2
I0322 22:59:41.053212 15620 net.cpp:157] Top shape: 1 128 75 75 (720000)
I0322 22:59:41.053216 15620 net.cpp:165] Memory required for data: 155520128
I0322 22:59:41.053220 15620 layer_factory.hpp:77] Creating layer conv3_1
I0322 22:59:41.053231 15620 net.cpp:100] Creating Layer conv3_1
I0322 22:59:41.053237 15620 net.cpp:434] conv3_1 <- pool2
I0322 22:59:41.053243 15620 net.cpp:408] conv3_1 -> conv3_1
I0322 22:59:41.057044 15620 net.cpp:150] Setting up conv3_1
I0322 22:59:41.057060 15620 net.cpp:157] Top shape: 1 256 75 75 (1440000)
I0322 22:59:41.057065 15620 net.cpp:165] Memory required for data: 161280128
I0322 22:59:41.057077 15620 layer_factory.hpp:77] Creating layer relu3_1
I0322 22:59:41.057087 15620 net.cpp:100] Creating Layer relu3_1
I0322 22:59:41.057096 15620 net.cpp:434] relu3_1 <- conv3_1
I0322 22:59:41.057101 15620 net.cpp:395] relu3_1 -> conv3_1 (in-place)
I0322 22:59:41.057804 15620 net.cpp:150] Setting up relu3_1
I0322 22:59:41.057817 15620 net.cpp:157] Top shape: 1 256 75 75 (1440000)
I0322 22:59:41.057821 15620 net.cpp:165] Memory required for data: 167040128
I0322 22:59:41.057826 15620 layer_factory.hpp:77] Creating layer conv3_2
I0322 22:59:41.057838 15620 net.cpp:100] Creating Layer conv3_2
I0322 22:59:41.057845 15620 net.cpp:434] conv3_2 <- conv3_1
I0322 22:59:41.057852 15620 net.cpp:408] conv3_2 -> conv3_2
I0322 22:59:41.063226 15620 net.cpp:150] Setting up conv3_2
I0322 22:59:41.063243 15620 net.cpp:157] Top shape: 1 256 75 75 (1440000)
I0322 22:59:41.063248 15620 net.cpp:165] Memory required for data: 172800128
I0322 22:59:41.063256 15620 layer_factory.hpp:77] Creating layer relu3_2
I0322 22:59:41.063262 15620 net.cpp:100] Creating Layer relu3_2
I0322 22:59:41.063267 15620 net.cpp:434] relu3_2 <- conv3_2
I0322 22:59:41.063274 15620 net.cpp:395] relu3_2 -> conv3_2 (in-place)
I0322 22:59:41.063452 15620 net.cpp:150] Setting up relu3_2
I0322 22:59:41.063462 15620 net.cpp:157] Top shape: 1 256 75 75 (1440000)
I0322 22:59:41.063465 15620 net.cpp:165] Memory required for data: 178560128
I0322 22:59:41.063469 15620 layer_factory.hpp:77] Creating layer conv3_3
I0322 22:59:41.063480 15620 net.cpp:100] Creating Layer conv3_3
I0322 22:59:41.063484 15620 net.cpp:434] conv3_3 <- conv3_2
I0322 22:59:41.063491 15620 net.cpp:408] conv3_3 -> conv3_3
I0322 22:59:41.068708 15620 net.cpp:150] Setting up conv3_3
I0322 22:59:41.068729 15620 net.cpp:157] Top shape: 1 256 75 75 (1440000)
I0322 22:59:41.068733 15620 net.cpp:165] Memory required for data: 184320128
I0322 22:59:41.068742 15620 layer_factory.hpp:77] Creating layer relu3_3
I0322 22:59:41.068751 15620 net.cpp:100] Creating Layer relu3_3
I0322 22:59:41.068756 15620 net.cpp:434] relu3_3 <- conv3_3
I0322 22:59:41.068764 15620 net.cpp:395] relu3_3 -> conv3_3 (in-place)
I0322 22:59:41.068944 15620 net.cpp:150] Setting up relu3_3
I0322 22:59:41.068958 15620 net.cpp:157] Top shape: 1 256 75 75 (1440000)
I0322 22:59:41.068964 15620 net.cpp:165] Memory required for data: 190080128
I0322 22:59:41.068969 15620 layer_factory.hpp:77] Creating layer pool3
I0322 22:59:41.068976 15620 net.cpp:100] Creating Layer pool3
I0322 22:59:41.068982 15620 net.cpp:434] pool3 <- conv3_3
I0322 22:59:41.068989 15620 net.cpp:408] pool3 -> pool3
I0322 22:59:41.069034 15620 net.cpp:150] Setting up pool3
I0322 22:59:41.069043 15620 net.cpp:157] Top shape: 1 256 38 38 (369664)
I0322 22:59:41.069049 15620 net.cpp:165] Memory required for data: 191558784
I0322 22:59:41.069054 15620 layer_factory.hpp:77] Creating layer conv4_1_depthwise
I0322 22:59:41.069064 15620 net.cpp:100] Creating Layer conv4_1_depthwise
I0322 22:59:41.069070 15620 net.cpp:434] conv4_1_depthwise <- pool3
I0322 22:59:41.069082 15620 net.cpp:408] conv4_1_depthwise -> conv4_1_3x3
I0322 22:59:41.069380 15620 net.cpp:150] Setting up conv4_1_depthwise
I0322 22:59:41.069389 15620 net.cpp:157] Top shape: 1 256 38 38 (369664)
I0322 22:59:41.069393 15620 net.cpp:165] Memory required for data: 193037440
I0322 22:59:41.069401 15620 layer_factory.hpp:77] Creating layer conv4_1_3x3_relu
I0322 22:59:41.069406 15620 net.cpp:100] Creating Layer conv4_1_3x3_relu
I0322 22:59:41.069411 15620 net.cpp:434] conv4_1_3x3_relu <- conv4_1_3x3
I0322 22:59:41.069414 15620 net.cpp:395] conv4_1_3x3_relu -> conv4_1_3x3 (in-place)
I0322 22:59:41.070152 15620 net.cpp:150] Setting up conv4_1_3x3_relu
I0322 22:59:41.070163 15620 net.cpp:157] Top shape: 1 256 38 38 (369664)
I0322 22:59:41.070168 15620 net.cpp:165] Memory required for data: 194516096
I0322 22:59:41.070188 15620 layer_factory.hpp:77] Creating layer conv4_1_1x1
I0322 22:59:41.070197 15620 net.cpp:100] Creating Layer conv4_1_1x1
I0322 22:59:41.070201 15620 net.cpp:434] conv4_1_1x1 <- conv4_1_3x3
I0322 22:59:41.070207 15620 net.cpp:408] conv4_1_1x1 -> conv4_1
I0322 22:59:41.072031 15620 net.cpp:150] Setting up conv4_1_1x1
I0322 22:59:41.072046 15620 net.cpp:157] Top shape: 1 512 38 38 (739328)
I0322 22:59:41.072049 15620 net.cpp:165] Memory required for data: 197473408
I0322 22:59:41.072059 15620 layer_factory.hpp:77] Creating layer relu4_1
I0322 22:59:41.072067 15620 net.cpp:100] Creating Layer relu4_1
I0322 22:59:41.072072 15620 net.cpp:434] relu4_1 <- conv4_1
I0322 22:59:41.072077 15620 net.cpp:395] relu4_1 -> conv4_1 (in-place)
I0322 22:59:41.072253 15620 net.cpp:150] Setting up relu4_1
I0322 22:59:41.072263 15620 net.cpp:157] Top shape: 1 512 38 38 (739328)
I0322 22:59:41.072268 15620 net.cpp:165] Memory required for data: 200430720
I0322 22:59:41.072271 15620 layer_factory.hpp:77] Creating layer conv4_2
I0322 22:59:41.072279 15620 net.cpp:100] Creating Layer conv4_2
I0322 22:59:41.072283 15620 net.cpp:434] conv4_2 <- conv4_1
I0322 22:59:41.072290 15620 net.cpp:408] conv4_2 -> conv4_2
I0322 22:59:41.086325 15620 net.cpp:150] Setting up conv4_2
I0322 22:59:41.086349 15620 net.cpp:157] Top shape: 1 512 38 38 (739328)
I0322 22:59:41.086354 15620 net.cpp:165] Memory required for data: 203388032
I0322 22:59:41.086364 15620 layer_factory.hpp:77] Creating layer relu4_2
I0322 22:59:41.086372 15620 net.cpp:100] Creating Layer relu4_2
I0322 22:59:41.086378 15620 net.cpp:434] relu4_2 <- conv4_2
I0322 22:59:41.086385 15620 net.cpp:395] relu4_2 -> conv4_2 (in-place)
I0322 22:59:41.086565 15620 net.cpp:150] Setting up relu4_2
I0322 22:59:41.086578 15620 net.cpp:157] Top shape: 1 512 38 38 (739328)
I0322 22:59:41.086585 15620 net.cpp:165] Memory required for data: 206345344
I0322 22:59:41.086589 15620 layer_factory.hpp:77] Creating layer conv4_3
I0322 22:59:41.086603 15620 net.cpp:100] Creating Layer conv4_3
I0322 22:59:41.086609 15620 net.cpp:434] conv4_3 <- conv4_2
I0322 22:59:41.086617 15620 net.cpp:408] conv4_3 -> conv4_3
I0322 22:59:41.100720 15620 net.cpp:150] Setting up conv4_3
I0322 22:59:41.100745 15620 net.cpp:157] Top shape: 1 512 38 38 (739328)
I0322 22:59:41.100749 15620 net.cpp:165] Memory required for data: 209302656
I0322 22:59:41.100759 15620 layer_factory.hpp:77] Creating layer relu4_3
I0322 22:59:41.100767 15620 net.cpp:100] Creating Layer relu4_3
I0322 22:59:41.100775 15620 net.cpp:434] relu4_3 <- conv4_3
I0322 22:59:41.100780 15620 net.cpp:395] relu4_3 -> conv4_3 (in-place)
I0322 22:59:41.100970 15620 net.cpp:150] Setting up relu4_3
I0322 22:59:41.100981 15620 net.cpp:157] Top shape: 1 512 38 38 (739328)
I0322 22:59:41.100986 15620 net.cpp:165] Memory required for data: 212259968
I0322 22:59:41.100991 15620 layer_factory.hpp:77] Creating layer conv4_3_relu4_3_0_split
I0322 22:59:41.100996 15620 net.cpp:100] Creating Layer conv4_3_relu4_3_0_split
I0322 22:59:41.101001 15620 net.cpp:434] conv4_3_relu4_3_0_split <- conv4_3
I0322 22:59:41.101007 15620 net.cpp:408] conv4_3_relu4_3_0_split -> conv4_3_relu4_3_0_split_0
I0322 22:59:41.101014 15620 net.cpp:408] conv4_3_relu4_3_0_split -> conv4_3_relu4_3_0_split_1
I0322 22:59:41.101058 15620 net.cpp:150] Setting up conv4_3_relu4_3_0_split
I0322 22:59:41.101068 15620 net.cpp:157] Top shape: 1 512 38 38 (739328)
I0322 22:59:41.101074 15620 net.cpp:157] Top shape: 1 512 38 38 (739328)
I0322 22:59:41.101079 15620 net.cpp:165] Memory required for data: 218174592
I0322 22:59:41.101084 15620 layer_factory.hpp:77] Creating layer pool4
I0322 22:59:41.101094 15620 net.cpp:100] Creating Layer pool4
I0322 22:59:41.101100 15620 net.cpp:434] pool4 <- conv4_3_relu4_3_0_split_0
I0322 22:59:41.101107 15620 net.cpp:408] pool4 -> pool4
I0322 22:59:41.101166 15620 net.cpp:150] Setting up pool4
I0322 22:59:41.101177 15620 net.cpp:157] Top shape: 1 512 19 19 (184832)
I0322 22:59:41.101183 15620 net.cpp:165] Memory required for data: 218913920
I0322 22:59:41.101189 15620 layer_factory.hpp:77] Creating layer conv5_1_depthwise
I0322 22:59:41.101222 15620 net.cpp:100] Creating Layer conv5_1_depthwise
I0322 22:59:41.101229 15620 net.cpp:434] conv5_1_depthwise <- pool4
I0322 22:59:41.101238 15620 net.cpp:408] conv5_1_depthwise -> conv5_1_3x3
I0322 22:59:41.101541 15620 net.cpp:150] Setting up conv5_1_depthwise
I0322 22:59:41.101549 15620 net.cpp:157] Top shape: 1 512 19 19 (184832)
I0322 22:59:41.101553 15620 net.cpp:165] Memory required for data: 219653248
I0322 22:59:41.101559 15620 layer_factory.hpp:77] Creating layer conv5_1_3x3_relu
I0322 22:59:41.101565 15620 net.cpp:100] Creating Layer conv5_1_3x3_relu
I0322 22:59:41.101569 15620 net.cpp:434] conv5_1_3x3_relu <- conv5_1_3x3
I0322 22:59:41.101574 15620 net.cpp:395] conv5_1_3x3_relu -> conv5_1_3x3 (in-place)
I0322 22:59:41.102326 15620 net.cpp:150] Setting up conv5_1_3x3_relu
I0322 22:59:41.102339 15620 net.cpp:157] Top shape: 1 512 19 19 (184832)
I0322 22:59:41.102342 15620 net.cpp:165] Memory required for data: 220392576
I0322 22:59:41.102346 15620 layer_factory.hpp:77] Creating layer conv5_1_1x1
I0322 22:59:41.102356 15620 net.cpp:100] Creating Layer conv5_1_1x1
I0322 22:59:41.102360 15620 net.cpp:434] conv5_1_1x1 <- conv5_1_3x3
I0322 22:59:41.102366 15620 net.cpp:408] conv5_1_1x1 -> conv5_1
I0322 22:59:41.105690 15620 net.cpp:150] Setting up conv5_1_1x1
I0322 22:59:41.105705 15620 net.cpp:157] Top shape: 1 512 19 19 (184832)
I0322 22:59:41.105708 15620 net.cpp:165] Memory required for data: 221131904
I0322 22:59:41.105716 15620 layer_factory.hpp:77] Creating layer relu5_1
I0322 22:59:41.105746 15620 net.cpp:100] Creating Layer relu5_1
I0322 22:59:41.105753 15620 net.cpp:434] relu5_1 <- conv5_1
I0322 22:59:41.105765 15620 net.cpp:395] relu5_1 -> conv5_1 (in-place)
I0322 22:59:41.105976 15620 net.cpp:150] Setting up relu5_1
I0322 22:59:41.105989 15620 net.cpp:157] Top shape: 1 512 19 19 (184832)
I0322 22:59:41.105993 15620 net.cpp:165] Memory required for data: 221871232
I0322 22:59:41.105998 15620 layer_factory.hpp:77] Creating layer conv5_2_depthwise
I0322 22:59:41.106006 15620 net.cpp:100] Creating Layer conv5_2_depthwise
I0322 22:59:41.106010 15620 net.cpp:434] conv5_2_depthwise <- conv5_1
I0322 22:59:41.106019 15620 net.cpp:408] conv5_2_depthwise -> conv5_2_3x3
I0322 22:59:41.106321 15620 net.cpp:150] Setting up conv5_2_depthwise
I0322 22:59:41.106330 15620 net.cpp:157] Top shape: 1 512 19 19 (184832)
I0322 22:59:41.106334 15620 net.cpp:165] Memory required for data: 222610560
I0322 22:59:41.106340 15620 layer_factory.hpp:77] Creating layer conv5_2_3x3_relu
I0322 22:59:41.106346 15620 net.cpp:100] Creating Layer conv5_2_3x3_relu
I0322 22:59:41.106350 15620 net.cpp:434] conv5_2_3x3_relu <- conv5_2_3x3
I0322 22:59:41.106357 15620 net.cpp:395] conv5_2_3x3_relu -> conv5_2_3x3 (in-place)
I0322 22:59:41.106551 15620 net.cpp:150] Setting up conv5_2_3x3_relu
I0322 22:59:41.106561 15620 net.cpp:157] Top shape: 1 512 19 19 (184832)
I0322 22:59:41.106564 15620 net.cpp:165] Memory required for data: 223349888
I0322 22:59:41.106570 15620 layer_factory.hpp:77] Creating layer conv5_2_1x1
I0322 22:59:41.106580 15620 net.cpp:100] Creating Layer conv5_2_1x1
I0322 22:59:41.106586 15620 net.cpp:434] conv5_2_1x1 <- conv5_2_3x3
I0322 22:59:41.106593 15620 net.cpp:408] conv5_2_1x1 -> conv5_2
I0322 22:59:41.109019 15620 net.cpp:150] Setting up conv5_2_1x1
I0322 22:59:41.109032 15620 net.cpp:157] Top shape: 1 512 19 19 (184832)
I0322 22:59:41.109036 15620 net.cpp:165] Memory required for data: 224089216
I0322 22:59:41.109043 15620 layer_factory.hpp:77] Creating layer relu5_2
I0322 22:59:41.109050 15620 net.cpp:100] Creating Layer relu5_2
I0322 22:59:41.109055 15620 net.cpp:434] relu5_2 <- conv5_2
I0322 22:59:41.109061 15620 net.cpp:395] relu5_2 -> conv5_2 (in-place)
I0322 22:59:41.110328 15620 net.cpp:150] Setting up relu5_2
I0322 22:59:41.110340 15620 net.cpp:157] Top shape: 1 512 19 19 (184832)
I0322 22:59:41.110345 15620 net.cpp:165] Memory required for data: 224828544
I0322 22:59:41.110349 15620 layer_factory.hpp:77] Creating layer conv5_3_depthwise
I0322 22:59:41.110358 15620 net.cpp:100] Creating Layer conv5_3_depthwise
I0322 22:59:41.110375 15620 net.cpp:434] conv5_3_depthwise <- conv5_2
I0322 22:59:41.110383 15620 net.cpp:408] conv5_3_depthwise -> conv5_3_3x3
I0322 22:59:41.110708 15620 net.cpp:150] Setting up conv5_3_depthwise
I0322 22:59:41.110718 15620 net.cpp:157] Top shape: 1 512 19 19 (184832)
I0322 22:59:41.110723 15620 net.cpp:165] Memory required for data: 225567872
I0322 22:59:41.110729 15620 layer_factory.hpp:77] Creating layer conv5_3_3x3_relu
I0322 22:59:41.110735 15620 net.cpp:100] Creating Layer conv5_3_3x3_relu
I0322 22:59:41.110739 15620 net.cpp:434] conv5_3_3x3_relu <- conv5_3_3x3
I0322 22:59:41.110745 15620 net.cpp:395] conv5_3_3x3_relu -> conv5_3_3x3 (in-place)
I0322 22:59:41.110944 15620 net.cpp:150] Setting up conv5_3_3x3_relu
I0322 22:59:41.110954 15620 net.cpp:157] Top shape: 1 512 19 19 (184832)
I0322 22:59:41.110957 15620 net.cpp:165] Memory required for data: 226307200
I0322 22:59:41.110962 15620 layer_factory.hpp:77] Creating layer conv5_3_1x1
I0322 22:59:41.110975 15620 net.cpp:100] Creating Layer conv5_3_1x1
I0322 22:59:41.110980 15620 net.cpp:434] conv5_3_1x1 <- conv5_3_3x3
I0322 22:59:41.110985 15620 net.cpp:408] conv5_3_1x1 -> conv5_3
I0322 22:59:41.114361 15620 net.cpp:150] Setting up conv5_3_1x1
I0322 22:59:41.114377 15620 net.cpp:157] Top shape: 1 512 19 19 (184832)
I0322 22:59:41.114380 15620 net.cpp:165] Memory required for data: 227046528
I0322 22:59:41.114393 15620 layer_factory.hpp:77] Creating layer relu5_3
I0322 22:59:41.114401 15620 net.cpp:100] Creating Layer relu5_3
I0322 22:59:41.114406 15620 net.cpp:434] relu5_3 <- conv5_3
I0322 22:59:41.114413 15620 net.cpp:395] relu5_3 -> conv5_3 (in-place)
I0322 22:59:41.114614 15620 net.cpp:150] Setting up relu5_3
I0322 22:59:41.114624 15620 net.cpp:157] Top shape: 1 512 19 19 (184832)
I0322 22:59:41.114627 15620 net.cpp:165] Memory required for data: 227785856
I0322 22:59:41.114632 15620 layer_factory.hpp:77] Creating layer pool5
I0322 22:59:41.114639 15620 net.cpp:100] Creating Layer pool5
I0322 22:59:41.114643 15620 net.cpp:434] pool5 <- conv5_3
I0322 22:59:41.114650 15620 net.cpp:408] pool5 -> pool5
I0322 22:59:41.114706 15620 net.cpp:150] Setting up pool5
I0322 22:59:41.114717 15620 net.cpp:157] Top shape: 1 512 19 19 (184832)
I0322 22:59:41.114722 15620 net.cpp:165] Memory required for data: 228525184
I0322 22:59:41.114727 15620 layer_factory.hpp:77] Creating layer fc6_depthwise
I0322 22:59:41.114738 15620 net.cpp:100] Creating Layer fc6_depthwise
I0322 22:59:41.114744 15620 net.cpp:434] fc6_depthwise <- pool5
I0322 22:59:41.114754 15620 net.cpp:408] fc6_depthwise -> fc6_3x3
I0322 22:59:41.115065 15620 net.cpp:150] Setting up fc6_depthwise
I0322 22:59:41.115074 15620 net.cpp:157] Top shape: 1 512 19 19 (184832)
I0322 22:59:41.115078 15620 net.cpp:165] Memory required for data: 229264512
I0322 22:59:41.115083 15620 layer_factory.hpp:77] Creating layer fc6_3x3_relu
I0322 22:59:41.115090 15620 net.cpp:100] Creating Layer fc6_3x3_relu
I0322 22:59:41.115094 15620 net.cpp:434] fc6_3x3_relu <- fc6_3x3
I0322 22:59:41.115099 15620 net.cpp:395] fc6_3x3_relu -> fc6_3x3 (in-place)
I0322 22:59:41.115842 15620 net.cpp:150] Setting up fc6_3x3_relu
I0322 22:59:41.115855 15620 net.cpp:157] Top shape: 1 512 19 19 (184832)
I0322 22:59:41.115859 15620 net.cpp:165] Memory required for data: 230003840
I0322 22:59:41.115864 15620 layer_factory.hpp:77] Creating layer fc6_1x1
I0322 22:59:41.115875 15620 net.cpp:100] Creating Layer fc6_1x1
I0322 22:59:41.115880 15620 net.cpp:434] fc6_1x1 <- fc6_3x3
I0322 22:59:41.115885 15620 net.cpp:408] fc6_1x1 -> fc6
I0322 22:59:41.119145 15620 net.cpp:150] Setting up fc6_1x1
I0322 22:59:41.119158 15620 net.cpp:157] Top shape: 1 1024 19 19 (369664)
I0322 22:59:41.119163 15620 net.cpp:165] Memory required for data: 231482496
I0322 22:59:41.119169 15620 layer_factory.hpp:77] Creating layer relu6
I0322 22:59:41.119176 15620 net.cpp:100] Creating Layer relu6
I0322 22:59:41.119180 15620 net.cpp:434] relu6 <- fc6
I0322 22:59:41.119187 15620 net.cpp:395] relu6 -> fc6 (in-place)
I0322 22:59:41.119415 15620 net.cpp:150] Setting up relu6
I0322 22:59:41.119426 15620 net.cpp:157] Top shape: 1 1024 19 19 (369664)
I0322 22:59:41.119428 15620 net.cpp:165] Memory required for data: 232961152
I0322 22:59:41.119433 15620 layer_factory.hpp:77] Creating layer fc7
I0322 22:59:41.119444 15620 net.cpp:100] Creating Layer fc7
I0322 22:59:41.119448 15620 net.cpp:434] fc7 <- fc6
I0322 22:59:41.119454 15620 net.cpp:408] fc7 -> fc7
I0322 22:59:41.126682 15620 net.cpp:150] Setting up fc7
I0322 22:59:41.126706 15620 net.cpp:157] Top shape: 1 1024 19 19 (369664)
I0322 22:59:41.126710 15620 net.cpp:165] Memory required for data: 234439808
I0322 22:59:41.126719 15620 layer_factory.hpp:77] Creating layer relu7
I0322 22:59:41.126729 15620 net.cpp:100] Creating Layer relu7
I0322 22:59:41.126734 15620 net.cpp:434] relu7 <- fc7
I0322 22:59:41.126740 15620 net.cpp:395] relu7 -> fc7 (in-place)
I0322 22:59:41.126930 15620 net.cpp:150] Setting up relu7
I0322 22:59:41.126943 15620 net.cpp:157] Top shape: 1 1024 19 19 (369664)
I0322 22:59:41.126948 15620 net.cpp:165] Memory required for data: 235918464
I0322 22:59:41.126953 15620 layer_factory.hpp:77] Creating layer fc7_relu7_0_split
I0322 22:59:41.126965 15620 net.cpp:100] Creating Layer fc7_relu7_0_split
I0322 22:59:41.126972 15620 net.cpp:434] fc7_relu7_0_split <- fc7
I0322 22:59:41.126979 15620 net.cpp:408] fc7_relu7_0_split -> fc7_relu7_0_split_0
I0322 22:59:41.126987 15620 net.cpp:408] fc7_relu7_0_split -> fc7_relu7_0_split_1
I0322 22:59:41.126993 15620 net.cpp:408] fc7_relu7_0_split -> fc7_relu7_0_split_2
I0322 22:59:41.126999 15620 net.cpp:408] fc7_relu7_0_split -> fc7_relu7_0_split_3
I0322 22:59:41.127091 15620 net.cpp:150] Setting up fc7_relu7_0_split
I0322 22:59:41.127104 15620 net.cpp:157] Top shape: 1 1024 19 19 (369664)
I0322 22:59:41.127110 15620 net.cpp:157] Top shape: 1 1024 19 19 (369664)
I0322 22:59:41.127116 15620 net.cpp:157] Top shape: 1 1024 19 19 (369664)
I0322 22:59:41.127122 15620 net.cpp:157] Top shape: 1 1024 19 19 (369664)
I0322 22:59:41.127126 15620 net.cpp:165] Memory required for data: 241833088
I0322 22:59:41.127131 15620 layer_factory.hpp:77] Creating layer conv6_1
I0322 22:59:41.127147 15620 net.cpp:100] Creating Layer conv6_1
I0322 22:59:41.127154 15620 net.cpp:434] conv6_1 <- fc7_relu7_0_split_0
I0322 22:59:41.127162 15620 net.cpp:408] conv6_1 -> conv6_1
I0322 22:59:41.129667 15620 net.cpp:150] Setting up conv6_1
I0322 22:59:41.129683 15620 net.cpp:157] Top shape: 1 256 19 19 (92416)
I0322 22:59:41.129686 15620 net.cpp:165] Memory required for data: 242202752
I0322 22:59:41.129693 15620 layer_factory.hpp:77] Creating layer conv6_1_relu
I0322 22:59:41.129699 15620 net.cpp:100] Creating Layer conv6_1_relu
I0322 22:59:41.129704 15620 net.cpp:434] conv6_1_relu <- conv6_1
I0322 22:59:41.129709 15620 net.cpp:395] conv6_1_relu -> conv6_1 (in-place)
I0322 22:59:41.129928 15620 net.cpp:150] Setting up conv6_1_relu
I0322 22:59:41.129940 15620 net.cpp:157] Top shape: 1 256 19 19 (92416)
I0322 22:59:41.129943 15620 net.cpp:165] Memory required for data: 242572416
I0322 22:59:41.129947 15620 layer_factory.hpp:77] Creating layer conv6_2
I0322 22:59:41.129957 15620 net.cpp:100] Creating Layer conv6_2
I0322 22:59:41.129962 15620 net.cpp:434] conv6_2 <- conv6_1
I0322 22:59:41.129971 15620 net.cpp:408] conv6_2 -> conv6_2
I0322 22:59:41.138329 15620 net.cpp:150] Setting up conv6_2
I0322 22:59:41.138350 15620 net.cpp:157] Top shape: 1 512 10 10 (51200)
I0322 22:59:41.138355 15620 net.cpp:165] Memory required for data: 242777216
I0322 22:59:41.138365 15620 layer_factory.hpp:77] Creating layer conv6_2_relu
I0322 22:59:41.138373 15620 net.cpp:100] Creating Layer conv6_2_relu
I0322 22:59:41.138378 15620 net.cpp:434] conv6_2_relu <- conv6_2
I0322 22:59:41.138386 15620 net.cpp:395] conv6_2_relu -> conv6_2 (in-place)
I0322 22:59:41.139147 15620 net.cpp:150] Setting up conv6_2_relu
I0322 22:59:41.139161 15620 net.cpp:157] Top shape: 1 512 10 10 (51200)
I0322 22:59:41.139165 15620 net.cpp:165] Memory required for data: 242982016
I0322 22:59:41.139170 15620 layer_factory.hpp:77] Creating layer conv6_2_conv6_2_relu_0_split
I0322 22:59:41.139191 15620 net.cpp:100] Creating Layer conv6_2_conv6_2_relu_0_split
I0322 22:59:41.139199 15620 net.cpp:434] conv6_2_conv6_2_relu_0_split <- conv6_2
I0322 22:59:41.139206 15620 net.cpp:408] conv6_2_conv6_2_relu_0_split -> conv6_2_conv6_2_relu_0_split_0
I0322 22:59:41.139214 15620 net.cpp:408] conv6_2_conv6_2_relu_0_split -> conv6_2_conv6_2_relu_0_split_1
I0322 22:59:41.139221 15620 net.cpp:408] conv6_2_conv6_2_relu_0_split -> conv6_2_conv6_2_relu_0_split_2
I0322 22:59:41.139227 15620 net.cpp:408] conv6_2_conv6_2_relu_0_split -> conv6_2_conv6_2_relu_0_split_3
I0322 22:59:41.139345 15620 net.cpp:150] Setting up conv6_2_conv6_2_relu_0_split
I0322 22:59:41.139356 15620 net.cpp:157] Top shape: 1 512 10 10 (51200)
I0322 22:59:41.139361 15620 net.cpp:157] Top shape: 1 512 10 10 (51200)
I0322 22:59:41.139366 15620 net.cpp:157] Top shape: 1 512 10 10 (51200)
I0322 22:59:41.139370 15620 net.cpp:157] Top shape: 1 512 10 10 (51200)
I0322 22:59:41.139374 15620 net.cpp:165] Memory required for data: 243801216
I0322 22:59:41.139379 15620 layer_factory.hpp:77] Creating layer conv7_1
I0322 22:59:41.139389 15620 net.cpp:100] Creating Layer conv7_1
I0322 22:59:41.139394 15620 net.cpp:434] conv7_1 <- conv6_2_conv6_2_relu_0_split_0
I0322 22:59:41.139402 15620 net.cpp:408] conv7_1 -> conv7_1
I0322 22:59:41.141072 15620 net.cpp:150] Setting up conv7_1
I0322 22:59:41.141085 15620 net.cpp:157] Top shape: 1 128 10 10 (12800)
I0322 22:59:41.141089 15620 net.cpp:165] Memory required for data: 243852416
I0322 22:59:41.141096 15620 layer_factory.hpp:77] Creating layer conv7_1_relu
I0322 22:59:41.141103 15620 net.cpp:100] Creating Layer conv7_1_relu
I0322 22:59:41.141109 15620 net.cpp:434] conv7_1_relu <- conv7_1
I0322 22:59:41.141115 15620 net.cpp:395] conv7_1_relu -> conv7_1 (in-place)
I0322 22:59:41.141311 15620 net.cpp:150] Setting up conv7_1_relu
I0322 22:59:41.141322 15620 net.cpp:157] Top shape: 1 128 10 10 (12800)
I0322 22:59:41.141326 15620 net.cpp:165] Memory required for data: 243903616
I0322 22:59:41.141330 15620 layer_factory.hpp:77] Creating layer conv7_2
I0322 22:59:41.141343 15620 net.cpp:100] Creating Layer conv7_2
I0322 22:59:41.141350 15620 net.cpp:434] conv7_2 <- conv7_1
I0322 22:59:41.141360 15620 net.cpp:408] conv7_2 -> conv7_2
I0322 22:59:41.144762 15620 net.cpp:150] Setting up conv7_2
I0322 22:59:41.144775 15620 net.cpp:157] Top shape: 1 256 5 5 (6400)
I0322 22:59:41.144780 15620 net.cpp:165] Memory required for data: 243929216
I0322 22:59:41.144788 15620 layer_factory.hpp:77] Creating layer conv7_2_relu
I0322 22:59:41.144794 15620 net.cpp:100] Creating Layer conv7_2_relu
I0322 22:59:41.144798 15620 net.cpp:434] conv7_2_relu <- conv7_2
I0322 22:59:41.144806 15620 net.cpp:395] conv7_2_relu -> conv7_2 (in-place)
I0322 22:59:41.145007 15620 net.cpp:150] Setting up conv7_2_relu
I0322 22:59:41.145018 15620 net.cpp:157] Top shape: 1 256 5 5 (6400)
I0322 22:59:41.145022 15620 net.cpp:165] Memory required for data: 243954816
I0322 22:59:41.145027 15620 layer_factory.hpp:77] Creating layer conv7_2_conv7_2_relu_0_split
I0322 22:59:41.145035 15620 net.cpp:100] Creating Layer conv7_2_conv7_2_relu_0_split
I0322 22:59:41.145040 15620 net.cpp:434] conv7_2_conv7_2_relu_0_split <- conv7_2
I0322 22:59:41.145047 15620 net.cpp:408] conv7_2_conv7_2_relu_0_split -> conv7_2_conv7_2_relu_0_split_0
I0322 22:59:41.145057 15620 net.cpp:408] conv7_2_conv7_2_relu_0_split -> conv7_2_conv7_2_relu_0_split_1
I0322 22:59:41.145063 15620 net.cpp:408] conv7_2_conv7_2_relu_0_split -> conv7_2_conv7_2_relu_0_split_2
I0322 22:59:41.145071 15620 net.cpp:408] conv7_2_conv7_2_relu_0_split -> conv7_2_conv7_2_relu_0_split_3
I0322 22:59:41.145169 15620 net.cpp:150] Setting up conv7_2_conv7_2_relu_0_split
I0322 22:59:41.145182 15620 net.cpp:157] Top shape: 1 256 5 5 (6400)
I0322 22:59:41.145192 15620 net.cpp:157] Top shape: 1 256 5 5 (6400)
I0322 22:59:41.145198 15620 net.cpp:157] Top shape: 1 256 5 5 (6400)
I0322 22:59:41.145205 15620 net.cpp:157] Top shape: 1 256 5 5 (6400)
I0322 22:59:41.145211 15620 net.cpp:165] Memory required for data: 244057216
I0322 22:59:41.145231 15620 layer_factory.hpp:77] Creating layer conv8_1
I0322 22:59:41.145244 15620 net.cpp:100] Creating Layer conv8_1
I0322 22:59:41.145252 15620 net.cpp:434] conv8_1 <- conv7_2_conv7_2_relu_0_split_0
I0322 22:59:41.145262 15620 net.cpp:408] conv8_1 -> conv8_1
I0322 22:59:41.146847 15620 net.cpp:150] Setting up conv8_1
I0322 22:59:41.146858 15620 net.cpp:157] Top shape: 1 128 5 5 (3200)
I0322 22:59:41.146862 15620 net.cpp:165] Memory required for data: 244070016
I0322 22:59:41.146869 15620 layer_factory.hpp:77] Creating layer conv8_1_relu
I0322 22:59:41.146876 15620 net.cpp:100] Creating Layer conv8_1_relu
I0322 22:59:41.146880 15620 net.cpp:434] conv8_1_relu <- conv8_1
I0322 22:59:41.146888 15620 net.cpp:395] conv8_1_relu -> conv8_1 (in-place)
I0322 22:59:41.147644 15620 net.cpp:150] Setting up conv8_1_relu
I0322 22:59:41.147656 15620 net.cpp:157] Top shape: 1 128 5 5 (3200)
I0322 22:59:41.147660 15620 net.cpp:165] Memory required for data: 244082816
I0322 22:59:41.147665 15620 layer_factory.hpp:77] Creating layer conv8_2
I0322 22:59:41.147676 15620 net.cpp:100] Creating Layer conv8_2
I0322 22:59:41.147681 15620 net.cpp:434] conv8_2 <- conv8_1
I0322 22:59:41.147689 15620 net.cpp:408] conv8_2 -> conv8_2
I0322 22:59:41.151659 15620 net.cpp:150] Setting up conv8_2
I0322 22:59:41.151672 15620 net.cpp:157] Top shape: 1 256 3 3 (2304)
I0322 22:59:41.151676 15620 net.cpp:165] Memory required for data: 244092032
I0322 22:59:41.151684 15620 layer_factory.hpp:77] Creating layer conv8_2_relu
I0322 22:59:41.151690 15620 net.cpp:100] Creating Layer conv8_2_relu
I0322 22:59:41.151695 15620 net.cpp:434] conv8_2_relu <- conv8_2
I0322 22:59:41.151702 15620 net.cpp:395] conv8_2_relu -> conv8_2 (in-place)
I0322 22:59:41.151901 15620 net.cpp:150] Setting up conv8_2_relu
I0322 22:59:41.151912 15620 net.cpp:157] Top shape: 1 256 3 3 (2304)
I0322 22:59:41.151916 15620 net.cpp:165] Memory required for data: 244101248
I0322 22:59:41.151921 15620 layer_factory.hpp:77] Creating layer conv8_2_conv8_2_relu_0_split
I0322 22:59:41.151927 15620 net.cpp:100] Creating Layer conv8_2_conv8_2_relu_0_split
I0322 22:59:41.151932 15620 net.cpp:434] conv8_2_conv8_2_relu_0_split <- conv8_2
I0322 22:59:41.151940 15620 net.cpp:408] conv8_2_conv8_2_relu_0_split -> conv8_2_conv8_2_relu_0_split_0
I0322 22:59:41.151949 15620 net.cpp:408] conv8_2_conv8_2_relu_0_split -> conv8_2_conv8_2_relu_0_split_1
I0322 22:59:41.151955 15620 net.cpp:408] conv8_2_conv8_2_relu_0_split -> conv8_2_conv8_2_relu_0_split_2
I0322 22:59:41.151965 15620 net.cpp:408] conv8_2_conv8_2_relu_0_split -> conv8_2_conv8_2_relu_0_split_3
I0322 22:59:41.152074 15620 net.cpp:150] Setting up conv8_2_conv8_2_relu_0_split
I0322 22:59:41.152086 15620 net.cpp:157] Top shape: 1 256 3 3 (2304)
I0322 22:59:41.152091 15620 net.cpp:157] Top shape: 1 256 3 3 (2304)
I0322 22:59:41.152097 15620 net.cpp:157] Top shape: 1 256 3 3 (2304)
I0322 22:59:41.152106 15620 net.cpp:157] Top shape: 1 256 3 3 (2304)
I0322 22:59:41.152112 15620 net.cpp:165] Memory required for data: 244138112
I0322 22:59:41.152117 15620 layer_factory.hpp:77] Creating layer conv9_1
I0322 22:59:41.152142 15620 net.cpp:100] Creating Layer conv9_1
I0322 22:59:41.152150 15620 net.cpp:434] conv9_1 <- conv8_2_conv8_2_relu_0_split_0
I0322 22:59:41.152160 15620 net.cpp:408] conv9_1 -> conv9_1
I0322 22:59:41.154556 15620 net.cpp:150] Setting up conv9_1
I0322 22:59:41.154569 15620 net.cpp:157] Top shape: 1 128 3 3 (1152)
I0322 22:59:41.154575 15620 net.cpp:165] Memory required for data: 244142720
I0322 22:59:41.154585 15620 layer_factory.hpp:77] Creating layer conv9_1_relu
I0322 22:59:41.154597 15620 net.cpp:100] Creating Layer conv9_1_relu
I0322 22:59:41.154603 15620 net.cpp:434] conv9_1_relu <- conv9_1
I0322 22:59:41.154609 15620 net.cpp:395] conv9_1_relu -> conv9_1 (in-place)
I0322 22:59:41.154809 15620 net.cpp:150] Setting up conv9_1_relu
I0322 22:59:41.154819 15620 net.cpp:157] Top shape: 1 128 3 3 (1152)
I0322 22:59:41.154824 15620 net.cpp:165] Memory required for data: 244147328
I0322 22:59:41.154831 15620 layer_factory.hpp:77] Creating layer conv9_2
I0322 22:59:41.154857 15620 net.cpp:100] Creating Layer conv9_2
I0322 22:59:41.154865 15620 net.cpp:434] conv9_2 <- conv9_1
I0322 22:59:41.154873 15620 net.cpp:408] conv9_2 -> conv9_2
I0322 22:59:41.158861 15620 net.cpp:150] Setting up conv9_2
I0322 22:59:41.158875 15620 net.cpp:157] Top shape: 1 256 1 1 (256)
I0322 22:59:41.158879 15620 net.cpp:165] Memory required for data: 244148352
I0322 22:59:41.158887 15620 layer_factory.hpp:77] Creating layer conv9_2_relu
I0322 22:59:41.158895 15620 net.cpp:100] Creating Layer conv9_2_relu
I0322 22:59:41.158901 15620 net.cpp:434] conv9_2_relu <- conv9_2
I0322 22:59:41.158910 15620 net.cpp:395] conv9_2_relu -> conv9_2 (in-place)
I0322 22:59:41.159684 15620 net.cpp:150] Setting up conv9_2_relu
I0322 22:59:41.159696 15620 net.cpp:157] Top shape: 1 256 1 1 (256)
I0322 22:59:41.159699 15620 net.cpp:165] Memory required for data: 244149376
I0322 22:59:41.159704 15620 layer_factory.hpp:77] Creating layer conv9_2_conv9_2_relu_0_split
I0322 22:59:41.159711 15620 net.cpp:100] Creating Layer conv9_2_conv9_2_relu_0_split
I0322 22:59:41.159720 15620 net.cpp:434] conv9_2_conv9_2_relu_0_split <- conv9_2
I0322 22:59:41.159730 15620 net.cpp:408] conv9_2_conv9_2_relu_0_split -> conv9_2_conv9_2_relu_0_split_0
I0322 22:59:41.159741 15620 net.cpp:408] conv9_2_conv9_2_relu_0_split -> conv9_2_conv9_2_relu_0_split_1
I0322 22:59:41.159751 15620 net.cpp:408] conv9_2_conv9_2_relu_0_split -> conv9_2_conv9_2_relu_0_split_2
I0322 22:59:41.159824 15620 net.cpp:150] Setting up conv9_2_conv9_2_relu_0_split
I0322 22:59:41.159832 15620 net.cpp:157] Top shape: 1 256 1 1 (256)
I0322 22:59:41.159835 15620 net.cpp:157] Top shape: 1 256 1 1 (256)
I0322 22:59:41.159839 15620 net.cpp:157] Top shape: 1 256 1 1 (256)
I0322 22:59:41.159845 15620 net.cpp:165] Memory required for data: 244152448
I0322 22:59:41.159850 15620 layer_factory.hpp:77] Creating layer conv4_3_norm
I0322 22:59:41.159862 15620 net.cpp:100] Creating Layer conv4_3_norm
I0322 22:59:41.159870 15620 net.cpp:434] conv4_3_norm <- conv4_3_relu4_3_0_split_1
I0322 22:59:41.159879 15620 net.cpp:408] conv4_3_norm -> conv4_3_norm
I0322 22:59:41.160109 15620 net.cpp:150] Setting up conv4_3_norm
I0322 22:59:41.160118 15620 net.cpp:157] Top shape: 1 512 38 38 (739328)
I0322 22:59:41.160122 15620 net.cpp:165] Memory required for data: 247109760
I0322 22:59:41.160130 15620 layer_factory.hpp:77] Creating layer conv4_3_norm_conv4_3_norm_0_split
I0322 22:59:41.160137 15620 net.cpp:100] Creating Layer conv4_3_norm_conv4_3_norm_0_split
I0322 22:59:41.160143 15620 net.cpp:434] conv4_3_norm_conv4_3_norm_0_split <- conv4_3_norm
I0322 22:59:41.160148 15620 net.cpp:408] conv4_3_norm_conv4_3_norm_0_split -> conv4_3_norm_conv4_3_norm_0_split_0
I0322 22:59:41.160166 15620 net.cpp:408] conv4_3_norm_conv4_3_norm_0_split -> conv4_3_norm_conv4_3_norm_0_split_1
I0322 22:59:41.160172 15620 net.cpp:408] conv4_3_norm_conv4_3_norm_0_split -> conv4_3_norm_conv4_3_norm_0_split_2
I0322 22:59:41.160243 15620 net.cpp:150] Setting up conv4_3_norm_conv4_3_norm_0_split
I0322 22:59:41.160254 15620 net.cpp:157] Top shape: 1 512 38 38 (739328)
I0322 22:59:41.160262 15620 net.cpp:157] Top shape: 1 512 38 38 (739328)
I0322 22:59:41.160270 15620 net.cpp:157] Top shape: 1 512 38 38 (739328)
I0322 22:59:41.160275 15620 net.cpp:165] Memory required for data: 255981696
I0322 22:59:41.160281 15620 layer_factory.hpp:77] Creating layer conv4_3_norm_mbox_loc
I0322 22:59:41.160298 15620 net.cpp:100] Creating Layer conv4_3_norm_mbox_loc
I0322 22:59:41.160305 15620 net.cpp:434] conv4_3_norm_mbox_loc <- conv4_3_norm_conv4_3_norm_0_split_0
I0322 22:59:41.160315 15620 net.cpp:408] conv4_3_norm_mbox_loc -> conv4_3_norm_mbox_loc
I0322 22:59:41.162583 15620 net.cpp:150] Setting up conv4_3_norm_mbox_loc
I0322 22:59:41.162598 15620 net.cpp:157] Top shape: 1 16 38 38 (23104)
I0322 22:59:41.162602 15620 net.cpp:165] Memory required for data: 256074112
I0322 22:59:41.162609 15620 layer_factory.hpp:77] Creating layer conv4_3_norm_mbox_loc_perm
I0322 22:59:41.162617 15620 net.cpp:100] Creating Layer conv4_3_norm_mbox_loc_perm
I0322 22:59:41.162633 15620 net.cpp:434] conv4_3_norm_mbox_loc_perm <- conv4_3_norm_mbox_loc
I0322 22:59:41.162642 15620 net.cpp:408] conv4_3_norm_mbox_loc_perm -> conv4_3_norm_mbox_loc_perm
I0322 22:59:41.162802 15620 net.cpp:150] Setting up conv4_3_norm_mbox_loc_perm
I0322 22:59:41.162811 15620 net.cpp:157] Top shape: 1 38 38 16 (23104)
I0322 22:59:41.162816 15620 net.cpp:165] Memory required for data: 256166528
I0322 22:59:41.162819 15620 layer_factory.hpp:77] Creating layer conv4_3_norm_mbox_loc_flat
I0322 22:59:41.162827 15620 net.cpp:100] Creating Layer conv4_3_norm_mbox_loc_flat
I0322 22:59:41.162830 15620 net.cpp:434] conv4_3_norm_mbox_loc_flat <- conv4_3_norm_mbox_loc_perm
I0322 22:59:41.162837 15620 net.cpp:408] conv4_3_norm_mbox_loc_flat -> conv4_3_norm_mbox_loc_flat
I0322 22:59:41.162874 15620 net.cpp:150] Setting up conv4_3_norm_mbox_loc_flat
I0322 22:59:41.162883 15620 net.cpp:157] Top shape: 1 23104 (23104)
I0322 22:59:41.162887 15620 net.cpp:165] Memory required for data: 256258944
I0322 22:59:41.162894 15620 layer_factory.hpp:77] Creating layer conv4_3_norm_mbox_conf
I0322 22:59:41.162906 15620 net.cpp:100] Creating Layer conv4_3_norm_mbox_conf
I0322 22:59:41.162914 15620 net.cpp:434] conv4_3_norm_mbox_conf <- conv4_3_norm_conv4_3_norm_0_split_1
I0322 22:59:41.162928 15620 net.cpp:408] conv4_3_norm_mbox_conf -> conv4_3_norm_mbox_conf
I0322 22:59:41.165755 15620 net.cpp:150] Setting up conv4_3_norm_mbox_conf
I0322 22:59:41.165766 15620 net.cpp:157] Top shape: 1 44 38 38 (63536)
I0322 22:59:41.165771 15620 net.cpp:165] Memory required for data: 256513088
I0322 22:59:41.165777 15620 layer_factory.hpp:77] Creating layer conv4_3_norm_mbox_conf_perm
I0322 22:59:41.165786 15620 net.cpp:100] Creating Layer conv4_3_norm_mbox_conf_perm
I0322 22:59:41.165791 15620 net.cpp:434] conv4_3_norm_mbox_conf_perm <- conv4_3_norm_mbox_conf
I0322 22:59:41.165797 15620 net.cpp:408] conv4_3_norm_mbox_conf_perm -> conv4_3_norm_mbox_conf_perm
I0322 22:59:41.165964 15620 net.cpp:150] Setting up conv4_3_norm_mbox_conf_perm
I0322 22:59:41.165976 15620 net.cpp:157] Top shape: 1 38 38 44 (63536)
I0322 22:59:41.165979 15620 net.cpp:165] Memory required for data: 256767232
I0322 22:59:41.165983 15620 layer_factory.hpp:77] Creating layer conv4_3_norm_mbox_conf_flat
I0322 22:59:41.165990 15620 net.cpp:100] Creating Layer conv4_3_norm_mbox_conf_flat
I0322 22:59:41.165997 15620 net.cpp:434] conv4_3_norm_mbox_conf_flat <- conv4_3_norm_mbox_conf_perm
I0322 22:59:41.166003 15620 net.cpp:408] conv4_3_norm_mbox_conf_flat -> conv4_3_norm_mbox_conf_flat
I0322 22:59:41.166033 15620 net.cpp:150] Setting up conv4_3_norm_mbox_conf_flat
I0322 22:59:41.166040 15620 net.cpp:157] Top shape: 1 63536 (63536)
I0322 22:59:41.166045 15620 net.cpp:165] Memory required for data: 257021376
I0322 22:59:41.166049 15620 layer_factory.hpp:77] Creating layer conv4_3_norm_mbox_priorbox
I0322 22:59:41.166062 15620 net.cpp:100] Creating Layer conv4_3_norm_mbox_priorbox
I0322 22:59:41.166069 15620 net.cpp:434] conv4_3_norm_mbox_priorbox <- conv4_3_norm_conv4_3_norm_0_split_2
I0322 22:59:41.166079 15620 net.cpp:434] conv4_3_norm_mbox_priorbox <- data_data_0_split_1
I0322 22:59:41.166090 15620 net.cpp:408] conv4_3_norm_mbox_priorbox -> conv4_3_norm_mbox_priorbox
I0322 22:59:41.166131 15620 net.cpp:150] Setting up conv4_3_norm_mbox_priorbox
I0322 22:59:41.166141 15620 net.cpp:157] Top shape: 1 2 23104 (46208)
I0322 22:59:41.166146 15620 net.cpp:165] Memory required for data: 257206208
I0322 22:59:41.166149 15620 layer_factory.hpp:77] Creating layer fc7_mbox_loc
I0322 22:59:41.166159 15620 net.cpp:100] Creating Layer fc7_mbox_loc
I0322 22:59:41.166167 15620 net.cpp:434] fc7_mbox_loc <- fc7_relu7_0_split_1
I0322 22:59:41.166180 15620 net.cpp:408] fc7_mbox_loc -> fc7_mbox_loc
I0322 22:59:41.169078 15620 net.cpp:150] Setting up fc7_mbox_loc
I0322 22:59:41.169092 15620 net.cpp:157] Top shape: 1 24 19 19 (8664)
I0322 22:59:41.169096 15620 net.cpp:165] Memory required for data: 257240864
I0322 22:59:41.169104 15620 layer_factory.hpp:77] Creating layer fc7_mbox_loc_perm
I0322 22:59:41.169124 15620 net.cpp:100] Creating Layer fc7_mbox_loc_perm
I0322 22:59:41.169131 15620 net.cpp:434] fc7_mbox_loc_perm <- fc7_mbox_loc
I0322 22:59:41.169140 15620 net.cpp:408] fc7_mbox_loc_perm -> fc7_mbox_loc_perm
I0322 22:59:41.169323 15620 net.cpp:150] Setting up fc7_mbox_loc_perm
I0322 22:59:41.169334 15620 net.cpp:157] Top shape: 1 19 19 24 (8664)
I0322 22:59:41.169337 15620 net.cpp:165] Memory required for data: 257275520
I0322 22:59:41.169342 15620 layer_factory.hpp:77] Creating layer fc7_mbox_loc_flat
I0322 22:59:41.169349 15620 net.cpp:100] Creating Layer fc7_mbox_loc_flat
I0322 22:59:41.169354 15620 net.cpp:434] fc7_mbox_loc_flat <- fc7_mbox_loc_perm
I0322 22:59:41.169363 15620 net.cpp:408] fc7_mbox_loc_flat -> fc7_mbox_loc_flat
I0322 22:59:41.169390 15620 net.cpp:150] Setting up fc7_mbox_loc_flat
I0322 22:59:41.169399 15620 net.cpp:157] Top shape: 1 8664 (8664)
I0322 22:59:41.169402 15620 net.cpp:165] Memory required for data: 257310176
I0322 22:59:41.169409 15620 layer_factory.hpp:77] Creating layer fc7_mbox_conf
I0322 22:59:41.169423 15620 net.cpp:100] Creating Layer fc7_mbox_conf
I0322 22:59:41.169431 15620 net.cpp:434] fc7_mbox_conf <- fc7_relu7_0_split_2
I0322 22:59:41.169440 15620 net.cpp:408] fc7_mbox_conf -> fc7_mbox_conf
I0322 22:59:41.174938 15620 net.cpp:150] Setting up fc7_mbox_conf
I0322 22:59:41.174957 15620 net.cpp:157] Top shape: 1 66 19 19 (23826)
I0322 22:59:41.174962 15620 net.cpp:165] Memory required for data: 257405480
I0322 22:59:41.174980 15620 layer_factory.hpp:77] Creating layer fc7_mbox_conf_perm
I0322 22:59:41.174989 15620 net.cpp:100] Creating Layer fc7_mbox_conf_perm
I0322 22:59:41.174996 15620 net.cpp:434] fc7_mbox_conf_perm <- fc7_mbox_conf
I0322 22:59:41.175004 15620 net.cpp:408] fc7_mbox_conf_perm -> fc7_mbox_conf_perm
I0322 22:59:41.175165 15620 net.cpp:150] Setting up fc7_mbox_conf_perm
I0322 22:59:41.175175 15620 net.cpp:157] Top shape: 1 19 19 66 (23826)
I0322 22:59:41.175179 15620 net.cpp:165] Memory required for data: 257500784
I0322 22:59:41.175184 15620 layer_factory.hpp:77] Creating layer fc7_mbox_conf_flat
I0322 22:59:41.175190 15620 net.cpp:100] Creating Layer fc7_mbox_conf_flat
I0322 22:59:41.175196 15620 net.cpp:434] fc7_mbox_conf_flat <- fc7_mbox_conf_perm
I0322 22:59:41.175202 15620 net.cpp:408] fc7_mbox_conf_flat -> fc7_mbox_conf_flat
I0322 22:59:41.175240 15620 net.cpp:150] Setting up fc7_mbox_conf_flat
I0322 22:59:41.175251 15620 net.cpp:157] Top shape: 1 23826 (23826)
I0322 22:59:41.175254 15620 net.cpp:165] Memory required for data: 257596088
I0322 22:59:41.175261 15620 layer_factory.hpp:77] Creating layer fc7_mbox_priorbox
I0322 22:59:41.175276 15620 net.cpp:100] Creating Layer fc7_mbox_priorbox
I0322 22:59:41.175283 15620 net.cpp:434] fc7_mbox_priorbox <- fc7_relu7_0_split_3
I0322 22:59:41.175290 15620 net.cpp:434] fc7_mbox_priorbox <- data_data_0_split_2
I0322 22:59:41.175298 15620 net.cpp:408] fc7_mbox_priorbox -> fc7_mbox_priorbox
I0322 22:59:41.175343 15620 net.cpp:150] Setting up fc7_mbox_priorbox
I0322 22:59:41.175354 15620 net.cpp:157] Top shape: 1 2 8664 (17328)
I0322 22:59:41.175359 15620 net.cpp:165] Memory required for data: 257665400
I0322 22:59:41.175364 15620 layer_factory.hpp:77] Creating layer conv6_2_mbox_loc
I0322 22:59:41.175379 15620 net.cpp:100] Creating Layer conv6_2_mbox_loc
I0322 22:59:41.175387 15620 net.cpp:434] conv6_2_mbox_loc <- conv6_2_conv6_2_relu_0_split_1
I0322 22:59:41.175396 15620 net.cpp:408] conv6_2_mbox_loc -> conv6_2_mbox_loc
I0322 22:59:41.177839 15620 net.cpp:150] Setting up conv6_2_mbox_loc
I0322 22:59:41.177852 15620 net.cpp:157] Top shape: 1 24 10 10 (2400)
I0322 22:59:41.177857 15620 net.cpp:165] Memory required for data: 257675000
I0322 22:59:41.177870 15620 layer_factory.hpp:77] Creating layer conv6_2_mbox_loc_perm
I0322 22:59:41.177881 15620 net.cpp:100] Creating Layer conv6_2_mbox_loc_perm
I0322 22:59:41.177889 15620 net.cpp:434] conv6_2_mbox_loc_perm <- conv6_2_mbox_loc
I0322 22:59:41.177898 15620 net.cpp:408] conv6_2_mbox_loc_perm -> conv6_2_mbox_loc_perm
I0322 22:59:41.178078 15620 net.cpp:150] Setting up conv6_2_mbox_loc_perm
I0322 22:59:41.178088 15620 net.cpp:157] Top shape: 1 10 10 24 (2400)
I0322 22:59:41.178094 15620 net.cpp:165] Memory required for data: 257684600
I0322 22:59:41.178099 15620 layer_factory.hpp:77] Creating layer conv6_2_mbox_loc_flat
I0322 22:59:41.178107 15620 net.cpp:100] Creating Layer conv6_2_mbox_loc_flat
I0322 22:59:41.178112 15620 net.cpp:434] conv6_2_mbox_loc_flat <- conv6_2_mbox_loc_perm
I0322 22:59:41.178117 15620 net.cpp:408] conv6_2_mbox_loc_flat -> conv6_2_mbox_loc_flat
I0322 22:59:41.178149 15620 net.cpp:150] Setting up conv6_2_mbox_loc_flat
I0322 22:59:41.178159 15620 net.cpp:157] Top shape: 1 2400 (2400)
I0322 22:59:41.178165 15620 net.cpp:165] Memory required for data: 257694200
I0322 22:59:41.178171 15620 layer_factory.hpp:77] Creating layer conv6_2_mbox_conf
I0322 22:59:41.178187 15620 net.cpp:100] Creating Layer conv6_2_mbox_conf
I0322 22:59:41.178194 15620 net.cpp:434] conv6_2_mbox_conf <- conv6_2_conv6_2_relu_0_split_2
I0322 22:59:41.178201 15620 net.cpp:408] conv6_2_mbox_conf -> conv6_2_mbox_conf
I0322 22:59:41.182318 15620 net.cpp:150] Setting up conv6_2_mbox_conf
I0322 22:59:41.182332 15620 net.cpp:157] Top shape: 1 66 10 10 (6600)
I0322 22:59:41.182335 15620 net.cpp:165] Memory required for data: 257720600
I0322 22:59:41.182343 15620 layer_factory.hpp:77] Creating layer conv6_2_mbox_conf_perm
I0322 22:59:41.182349 15620 net.cpp:100] Creating Layer conv6_2_mbox_conf_perm
I0322 22:59:41.182354 15620 net.cpp:434] conv6_2_mbox_conf_perm <- conv6_2_mbox_conf
I0322 22:59:41.182363 15620 net.cpp:408] conv6_2_mbox_conf_perm -> conv6_2_mbox_conf_perm
I0322 22:59:41.182503 15620 net.cpp:150] Setting up conv6_2_mbox_conf_perm
I0322 22:59:41.182515 15620 net.cpp:157] Top shape: 1 10 10 66 (6600)
I0322 22:59:41.182523 15620 net.cpp:165] Memory required for data: 257747000
I0322 22:59:41.182530 15620 layer_factory.hpp:77] Creating layer conv6_2_mbox_conf_flat
I0322 22:59:41.182538 15620 net.cpp:100] Creating Layer conv6_2_mbox_conf_flat
I0322 22:59:41.182545 15620 net.cpp:434] conv6_2_mbox_conf_flat <- conv6_2_mbox_conf_perm
I0322 22:59:41.182556 15620 net.cpp:408] conv6_2_mbox_conf_flat -> conv6_2_mbox_conf_flat
I0322 22:59:41.182600 15620 net.cpp:150] Setting up conv6_2_mbox_conf_flat
I0322 22:59:41.182610 15620 net.cpp:157] Top shape: 1 6600 (6600)
I0322 22:59:41.182616 15620 net.cpp:165] Memory required for data: 257773400
I0322 22:59:41.182621 15620 layer_factory.hpp:77] Creating layer conv6_2_mbox_priorbox
I0322 22:59:41.182631 15620 net.cpp:100] Creating Layer conv6_2_mbox_priorbox
I0322 22:59:41.182638 15620 net.cpp:434] conv6_2_mbox_priorbox <- conv6_2_conv6_2_relu_0_split_3
I0322 22:59:41.182646 15620 net.cpp:434] conv6_2_mbox_priorbox <- data_data_0_split_3
I0322 22:59:41.182658 15620 net.cpp:408] conv6_2_mbox_priorbox -> conv6_2_mbox_priorbox
I0322 22:59:41.182705 15620 net.cpp:150] Setting up conv6_2_mbox_priorbox
I0322 22:59:41.182715 15620 net.cpp:157] Top shape: 1 2 2400 (4800)
I0322 22:59:41.182723 15620 net.cpp:165] Memory required for data: 257792600
I0322 22:59:41.182727 15620 layer_factory.hpp:77] Creating layer conv7_2_mbox_loc
I0322 22:59:41.182739 15620 net.cpp:100] Creating Layer conv7_2_mbox_loc
I0322 22:59:41.182745 15620 net.cpp:434] conv7_2_mbox_loc <- conv7_2_conv7_2_relu_0_split_1
I0322 22:59:41.182757 15620 net.cpp:408] conv7_2_mbox_loc -> conv7_2_mbox_loc
I0322 22:59:41.185508 15620 net.cpp:150] Setting up conv7_2_mbox_loc
I0322 22:59:41.185520 15620 net.cpp:157] Top shape: 1 24 5 5 (600)
I0322 22:59:41.185524 15620 net.cpp:165] Memory required for data: 257795000
I0322 22:59:41.185533 15620 layer_factory.hpp:77] Creating layer conv7_2_mbox_loc_perm
I0322 22:59:41.185541 15620 net.cpp:100] Creating Layer conv7_2_mbox_loc_perm
I0322 22:59:41.185547 15620 net.cpp:434] conv7_2_mbox_loc_perm <- conv7_2_mbox_loc
I0322 22:59:41.185554 15620 net.cpp:408] conv7_2_mbox_loc_perm -> conv7_2_mbox_loc_perm
I0322 22:59:41.185719 15620 net.cpp:150] Setting up conv7_2_mbox_loc_perm
I0322 22:59:41.185741 15620 net.cpp:157] Top shape: 1 5 5 24 (600)
I0322 22:59:41.185756 15620 net.cpp:165] Memory required for data: 257797400
I0322 22:59:41.185761 15620 layer_factory.hpp:77] Creating layer conv7_2_mbox_loc_flat
I0322 22:59:41.185768 15620 net.cpp:100] Creating Layer conv7_2_mbox_loc_flat
I0322 22:59:41.185772 15620 net.cpp:434] conv7_2_mbox_loc_flat <- conv7_2_mbox_loc_perm
I0322 22:59:41.185780 15620 net.cpp:408] conv7_2_mbox_loc_flat -> conv7_2_mbox_loc_flat
I0322 22:59:41.185811 15620 net.cpp:150] Setting up conv7_2_mbox_loc_flat
I0322 22:59:41.185819 15620 net.cpp:157] Top shape: 1 600 (600)
I0322 22:59:41.185822 15620 net.cpp:165] Memory required for data: 257799800
I0322 22:59:41.185827 15620 layer_factory.hpp:77] Creating layer conv7_2_mbox_conf
I0322 22:59:41.185839 15620 net.cpp:100] Creating Layer conv7_2_mbox_conf
I0322 22:59:41.185845 15620 net.cpp:434] conv7_2_mbox_conf <- conv7_2_conv7_2_relu_0_split_2
I0322 22:59:41.185853 15620 net.cpp:408] conv7_2_mbox_conf -> conv7_2_mbox_conf
I0322 22:59:41.188398 15620 net.cpp:150] Setting up conv7_2_mbox_conf
I0322 22:59:41.188410 15620 net.cpp:157] Top shape: 1 66 5 5 (1650)
I0322 22:59:41.188416 15620 net.cpp:165] Memory required for data: 257806400
I0322 22:59:41.188422 15620 layer_factory.hpp:77] Creating layer conv7_2_mbox_conf_perm
I0322 22:59:41.188431 15620 net.cpp:100] Creating Layer conv7_2_mbox_conf_perm
I0322 22:59:41.188436 15620 net.cpp:434] conv7_2_mbox_conf_perm <- conv7_2_mbox_conf
I0322 22:59:41.188442 15620 net.cpp:408] conv7_2_mbox_conf_perm -> conv7_2_mbox_conf_perm
I0322 22:59:41.188560 15620 net.cpp:150] Setting up conv7_2_mbox_conf_perm
I0322 22:59:41.188566 15620 net.cpp:157] Top shape: 1 5 5 66 (1650)
I0322 22:59:41.188570 15620 net.cpp:165] Memory required for data: 257813000
I0322 22:59:41.188575 15620 layer_factory.hpp:77] Creating layer conv7_2_mbox_conf_flat
I0322 22:59:41.188581 15620 net.cpp:100] Creating Layer conv7_2_mbox_conf_flat
I0322 22:59:41.188587 15620 net.cpp:434] conv7_2_mbox_conf_flat <- conv7_2_mbox_conf_perm
I0322 22:59:41.188592 15620 net.cpp:408] conv7_2_mbox_conf_flat -> conv7_2_mbox_conf_flat
I0322 22:59:41.188621 15620 net.cpp:150] Setting up conv7_2_mbox_conf_flat
I0322 22:59:41.188627 15620 net.cpp:157] Top shape: 1 1650 (1650)
I0322 22:59:41.188632 15620 net.cpp:165] Memory required for data: 257819600
I0322 22:59:41.188635 15620 layer_factory.hpp:77] Creating layer conv7_2_mbox_priorbox
I0322 22:59:41.188643 15620 net.cpp:100] Creating Layer conv7_2_mbox_priorbox
I0322 22:59:41.188647 15620 net.cpp:434] conv7_2_mbox_priorbox <- conv7_2_conv7_2_relu_0_split_3
I0322 22:59:41.188652 15620 net.cpp:434] conv7_2_mbox_priorbox <- data_data_0_split_4
I0322 22:59:41.188658 15620 net.cpp:408] conv7_2_mbox_priorbox -> conv7_2_mbox_priorbox
I0322 22:59:41.188690 15620 net.cpp:150] Setting up conv7_2_mbox_priorbox
I0322 22:59:41.188696 15620 net.cpp:157] Top shape: 1 2 600 (1200)
I0322 22:59:41.188700 15620 net.cpp:165] Memory required for data: 257824400
I0322 22:59:41.188704 15620 layer_factory.hpp:77] Creating layer conv8_2_mbox_loc
I0322 22:59:41.188714 15620 net.cpp:100] Creating Layer conv8_2_mbox_loc
I0322 22:59:41.188720 15620 net.cpp:434] conv8_2_mbox_loc <- conv8_2_conv8_2_relu_0_split_1
I0322 22:59:41.188727 15620 net.cpp:408] conv8_2_mbox_loc -> conv8_2_mbox_loc
I0322 22:59:41.190266 15620 net.cpp:150] Setting up conv8_2_mbox_loc
I0322 22:59:41.190279 15620 net.cpp:157] Top shape: 1 16 3 3 (144)
I0322 22:59:41.190284 15620 net.cpp:165] Memory required for data: 257824976
I0322 22:59:41.190289 15620 layer_factory.hpp:77] Creating layer conv8_2_mbox_loc_perm
I0322 22:59:41.190297 15620 net.cpp:100] Creating Layer conv8_2_mbox_loc_perm
I0322 22:59:41.190302 15620 net.cpp:434] conv8_2_mbox_loc_perm <- conv8_2_mbox_loc
I0322 22:59:41.190310 15620 net.cpp:408] conv8_2_mbox_loc_perm -> conv8_2_mbox_loc_perm
I0322 22:59:41.190424 15620 net.cpp:150] Setting up conv8_2_mbox_loc_perm
I0322 22:59:41.190433 15620 net.cpp:157] Top shape: 1 3 3 16 (144)
I0322 22:59:41.190436 15620 net.cpp:165] Memory required for data: 257825552
I0322 22:59:41.190449 15620 layer_factory.hpp:77] Creating layer conv8_2_mbox_loc_flat
I0322 22:59:41.190455 15620 net.cpp:100] Creating Layer conv8_2_mbox_loc_flat
I0322 22:59:41.190459 15620 net.cpp:434] conv8_2_mbox_loc_flat <- conv8_2_mbox_loc_perm
I0322 22:59:41.190466 15620 net.cpp:408] conv8_2_mbox_loc_flat -> conv8_2_mbox_loc_flat
I0322 22:59:41.190495 15620 net.cpp:150] Setting up conv8_2_mbox_loc_flat
I0322 22:59:41.190503 15620 net.cpp:157] Top shape: 1 144 (144)
I0322 22:59:41.190506 15620 net.cpp:165] Memory required for data: 257826128
I0322 22:59:41.190511 15620 layer_factory.hpp:77] Creating layer conv8_2_mbox_conf
I0322 22:59:41.190521 15620 net.cpp:100] Creating Layer conv8_2_mbox_conf
I0322 22:59:41.190526 15620 net.cpp:434] conv8_2_mbox_conf <- conv8_2_conv8_2_relu_0_split_2
I0322 22:59:41.190531 15620 net.cpp:408] conv8_2_mbox_conf -> conv8_2_mbox_conf
I0322 22:59:41.192836 15620 net.cpp:150] Setting up conv8_2_mbox_conf
I0322 22:59:41.192849 15620 net.cpp:157] Top shape: 1 44 3 3 (396)
I0322 22:59:41.192853 15620 net.cpp:165] Memory required for data: 257827712
I0322 22:59:41.192859 15620 layer_factory.hpp:77] Creating layer conv8_2_mbox_conf_perm
I0322 22:59:41.192867 15620 net.cpp:100] Creating Layer conv8_2_mbox_conf_perm
I0322 22:59:41.192872 15620 net.cpp:434] conv8_2_mbox_conf_perm <- conv8_2_mbox_conf
I0322 22:59:41.192879 15620 net.cpp:408] conv8_2_mbox_conf_perm -> conv8_2_mbox_conf_perm
I0322 22:59:41.192997 15620 net.cpp:150] Setting up conv8_2_mbox_conf_perm
I0322 22:59:41.193006 15620 net.cpp:157] Top shape: 1 3 3 44 (396)
I0322 22:59:41.193008 15620 net.cpp:165] Memory required for data: 257829296
I0322 22:59:41.193012 15620 layer_factory.hpp:77] Creating layer conv8_2_mbox_conf_flat
I0322 22:59:41.193019 15620 net.cpp:100] Creating Layer conv8_2_mbox_conf_flat
I0322 22:59:41.193024 15620 net.cpp:434] conv8_2_mbox_conf_flat <- conv8_2_mbox_conf_perm
I0322 22:59:41.193030 15620 net.cpp:408] conv8_2_mbox_conf_flat -> conv8_2_mbox_conf_flat
I0322 22:59:41.193058 15620 net.cpp:150] Setting up conv8_2_mbox_conf_flat
I0322 22:59:41.193064 15620 net.cpp:157] Top shape: 1 396 (396)
I0322 22:59:41.193068 15620 net.cpp:165] Memory required for data: 257830880
I0322 22:59:41.193071 15620 layer_factory.hpp:77] Creating layer conv8_2_mbox_priorbox
I0322 22:59:41.193079 15620 net.cpp:100] Creating Layer conv8_2_mbox_priorbox
I0322 22:59:41.193084 15620 net.cpp:434] conv8_2_mbox_priorbox <- conv8_2_conv8_2_relu_0_split_3
I0322 22:59:41.193089 15620 net.cpp:434] conv8_2_mbox_priorbox <- data_data_0_split_5
I0322 22:59:41.193095 15620 net.cpp:408] conv8_2_mbox_priorbox -> conv8_2_mbox_priorbox
I0322 22:59:41.193123 15620 net.cpp:150] Setting up conv8_2_mbox_priorbox
I0322 22:59:41.193130 15620 net.cpp:157] Top shape: 1 2 144 (288)
I0322 22:59:41.193135 15620 net.cpp:165] Memory required for data: 257832032
I0322 22:59:41.193137 15620 layer_factory.hpp:77] Creating layer conv9_2_mbox_loc
I0322 22:59:41.193148 15620 net.cpp:100] Creating Layer conv9_2_mbox_loc
I0322 22:59:41.193153 15620 net.cpp:434] conv9_2_mbox_loc <- conv9_2_conv9_2_relu_0_split_0
I0322 22:59:41.193161 15620 net.cpp:408] conv9_2_mbox_loc -> conv9_2_mbox_loc
I0322 22:59:41.194708 15620 net.cpp:150] Setting up conv9_2_mbox_loc
I0322 22:59:41.194720 15620 net.cpp:157] Top shape: 1 16 1 1 (16)
I0322 22:59:41.194725 15620 net.cpp:165] Memory required for data: 257832096
I0322 22:59:41.194731 15620 layer_factory.hpp:77] Creating layer conv9_2_mbox_loc_perm
I0322 22:59:41.194739 15620 net.cpp:100] Creating Layer conv9_2_mbox_loc_perm
I0322 22:59:41.194746 15620 net.cpp:434] conv9_2_mbox_loc_perm <- conv9_2_mbox_loc
I0322 22:59:41.194752 15620 net.cpp:408] conv9_2_mbox_loc_perm -> conv9_2_mbox_loc_perm
I0322 22:59:41.194865 15620 net.cpp:150] Setting up conv9_2_mbox_loc_perm
I0322 22:59:41.194872 15620 net.cpp:157] Top shape: 1 1 1 16 (16)
I0322 22:59:41.194876 15620 net.cpp:165] Memory required for data: 257832160
I0322 22:59:41.194881 15620 layer_factory.hpp:77] Creating layer conv9_2_mbox_loc_flat
I0322 22:59:41.194890 15620 net.cpp:100] Creating Layer conv9_2_mbox_loc_flat
I0322 22:59:41.194905 15620 net.cpp:434] conv9_2_mbox_loc_flat <- conv9_2_mbox_loc_perm
I0322 22:59:41.194911 15620 net.cpp:408] conv9_2_mbox_loc_flat -> conv9_2_mbox_loc_flat
I0322 22:59:41.194941 15620 net.cpp:150] Setting up conv9_2_mbox_loc_flat
I0322 22:59:41.194947 15620 net.cpp:157] Top shape: 1 16 (16)
I0322 22:59:41.194950 15620 net.cpp:165] Memory required for data: 257832224
I0322 22:59:41.194954 15620 layer_factory.hpp:77] Creating layer conv9_2_mbox_conf
I0322 22:59:41.194965 15620 net.cpp:100] Creating Layer conv9_2_mbox_conf
I0322 22:59:41.194970 15620 net.cpp:434] conv9_2_mbox_conf <- conv9_2_conv9_2_relu_0_split_1
I0322 22:59:41.194980 15620 net.cpp:408] conv9_2_mbox_conf -> conv9_2_mbox_conf
I0322 22:59:41.197327 15620 net.cpp:150] Setting up conv9_2_mbox_conf
I0322 22:59:41.197338 15620 net.cpp:157] Top shape: 1 44 1 1 (44)
I0322 22:59:41.197343 15620 net.cpp:165] Memory required for data: 257832400
I0322 22:59:41.197350 15620 layer_factory.hpp:77] Creating layer conv9_2_mbox_conf_perm
I0322 22:59:41.197358 15620 net.cpp:100] Creating Layer conv9_2_mbox_conf_perm
I0322 22:59:41.197365 15620 net.cpp:434] conv9_2_mbox_conf_perm <- conv9_2_mbox_conf
I0322 22:59:41.197371 15620 net.cpp:408] conv9_2_mbox_conf_perm -> conv9_2_mbox_conf_perm
I0322 22:59:41.197490 15620 net.cpp:150] Setting up conv9_2_mbox_conf_perm
I0322 22:59:41.197497 15620 net.cpp:157] Top shape: 1 1 1 44 (44)
I0322 22:59:41.197500 15620 net.cpp:165] Memory required for data: 257832576
I0322 22:59:41.197505 15620 layer_factory.hpp:77] Creating layer conv9_2_mbox_conf_flat
I0322 22:59:41.197513 15620 net.cpp:100] Creating Layer conv9_2_mbox_conf_flat
I0322 22:59:41.197520 15620 net.cpp:434] conv9_2_mbox_conf_flat <- conv9_2_mbox_conf_perm
I0322 22:59:41.197525 15620 net.cpp:408] conv9_2_mbox_conf_flat -> conv9_2_mbox_conf_flat
I0322 22:59:41.197553 15620 net.cpp:150] Setting up conv9_2_mbox_conf_flat
I0322 22:59:41.197559 15620 net.cpp:157] Top shape: 1 44 (44)
I0322 22:59:41.197563 15620 net.cpp:165] Memory required for data: 257832752
I0322 22:59:41.197567 15620 layer_factory.hpp:77] Creating layer conv9_2_mbox_priorbox
I0322 22:59:41.197576 15620 net.cpp:100] Creating Layer conv9_2_mbox_priorbox
I0322 22:59:41.197580 15620 net.cpp:434] conv9_2_mbox_priorbox <- conv9_2_conv9_2_relu_0_split_2
I0322 22:59:41.197585 15620 net.cpp:434] conv9_2_mbox_priorbox <- data_data_0_split_6
I0322 22:59:41.197592 15620 net.cpp:408] conv9_2_mbox_priorbox -> conv9_2_mbox_priorbox
I0322 22:59:41.197623 15620 net.cpp:150] Setting up conv9_2_mbox_priorbox
I0322 22:59:41.197629 15620 net.cpp:157] Top shape: 1 2 16 (32)
I0322 22:59:41.197633 15620 net.cpp:165] Memory required for data: 257832880
I0322 22:59:41.197636 15620 layer_factory.hpp:77] Creating layer mbox_loc
I0322 22:59:41.197645 15620 net.cpp:100] Creating Layer mbox_loc
I0322 22:59:41.197651 15620 net.cpp:434] mbox_loc <- conv4_3_norm_mbox_loc_flat
I0322 22:59:41.197657 15620 net.cpp:434] mbox_loc <- fc7_mbox_loc_flat
I0322 22:59:41.197661 15620 net.cpp:434] mbox_loc <- conv6_2_mbox_loc_flat
I0322 22:59:41.197666 15620 net.cpp:434] mbox_loc <- conv7_2_mbox_loc_flat
I0322 22:59:41.197672 15620 net.cpp:434] mbox_loc <- conv8_2_mbox_loc_flat
I0322 22:59:41.197676 15620 net.cpp:434] mbox_loc <- conv9_2_mbox_loc_flat
I0322 22:59:41.197682 15620 net.cpp:408] mbox_loc -> mbox_loc
I0322 22:59:41.197713 15620 net.cpp:150] Setting up mbox_loc
I0322 22:59:41.197719 15620 net.cpp:157] Top shape: 1 34928 (34928)
I0322 22:59:41.197723 15620 net.cpp:165] Memory required for data: 257972592
I0322 22:59:41.197749 15620 layer_factory.hpp:77] Creating layer mbox_conf
I0322 22:59:41.197758 15620 net.cpp:100] Creating Layer mbox_conf
I0322 22:59:41.197764 15620 net.cpp:434] mbox_conf <- conv4_3_norm_mbox_conf_flat
I0322 22:59:41.197770 15620 net.cpp:434] mbox_conf <- fc7_mbox_conf_flat
I0322 22:59:41.197775 15620 net.cpp:434] mbox_conf <- conv6_2_mbox_conf_flat
I0322 22:59:41.197782 15620 net.cpp:434] mbox_conf <- conv7_2_mbox_conf_flat
I0322 22:59:41.197784 15620 net.cpp:434] mbox_conf <- conv8_2_mbox_conf_flat
I0322 22:59:41.197798 15620 net.cpp:434] mbox_conf <- conv9_2_mbox_conf_flat
I0322 22:59:41.197805 15620 net.cpp:408] mbox_conf -> mbox_conf
I0322 22:59:41.197835 15620 net.cpp:150] Setting up mbox_conf
I0322 22:59:41.197842 15620 net.cpp:157] Top shape: 1 96052 (96052)
I0322 22:59:41.197845 15620 net.cpp:165] Memory required for data: 258356800
I0322 22:59:41.197849 15620 layer_factory.hpp:77] Creating layer mbox_priorbox
I0322 22:59:41.197855 15620 net.cpp:100] Creating Layer mbox_priorbox
I0322 22:59:41.197860 15620 net.cpp:434] mbox_priorbox <- conv4_3_norm_mbox_priorbox
I0322 22:59:41.197866 15620 net.cpp:434] mbox_priorbox <- fc7_mbox_priorbox
I0322 22:59:41.197870 15620 net.cpp:434] mbox_priorbox <- conv6_2_mbox_priorbox
I0322 22:59:41.197881 15620 net.cpp:434] mbox_priorbox <- conv7_2_mbox_priorbox
I0322 22:59:41.197885 15620 net.cpp:434] mbox_priorbox <- conv8_2_mbox_priorbox
I0322 22:59:41.197890 15620 net.cpp:434] mbox_priorbox <- conv9_2_mbox_priorbox
I0322 22:59:41.197897 15620 net.cpp:408] mbox_priorbox -> mbox_priorbox
I0322 22:59:41.197926 15620 net.cpp:150] Setting up mbox_priorbox
I0322 22:59:41.197933 15620 net.cpp:157] Top shape: 1 2 34928 (69856)
I0322 22:59:41.197937 15620 net.cpp:165] Memory required for data: 258636224
I0322 22:59:41.197940 15620 layer_factory.hpp:77] Creating layer mbox_conf_reshape
I0322 22:59:41.197948 15620 net.cpp:100] Creating Layer mbox_conf_reshape
I0322 22:59:41.197953 15620 net.cpp:434] mbox_conf_reshape <- mbox_conf
I0322 22:59:41.197958 15620 net.cpp:408] mbox_conf_reshape -> mbox_conf_reshape
I0322 22:59:41.197993 15620 net.cpp:150] Setting up mbox_conf_reshape
I0322 22:59:41.198001 15620 net.cpp:157] Top shape: 1 8732 11 (96052)
I0322 22:59:41.198005 15620 net.cpp:165] Memory required for data: 259020432
I0322 22:59:41.198009 15620 layer_factory.hpp:77] Creating layer mbox_conf_softmax
I0322 22:59:41.198019 15620 net.cpp:100] Creating Layer mbox_conf_softmax
I0322 22:59:41.198024 15620 net.cpp:434] mbox_conf_softmax <- mbox_conf_reshape
I0322 22:59:41.198029 15620 net.cpp:408] mbox_conf_softmax -> mbox_conf_softmax
I0322 22:59:41.198273 15620 net.cpp:150] Setting up mbox_conf_softmax
I0322 22:59:41.198284 15620 net.cpp:157] Top shape: 1 8732 11 (96052)
I0322 22:59:41.198289 15620 net.cpp:165] Memory required for data: 259404640
I0322 22:59:41.198293 15620 layer_factory.hpp:77] Creating layer mbox_conf_flatten
I0322 22:59:41.198300 15620 net.cpp:100] Creating Layer mbox_conf_flatten
I0322 22:59:41.198304 15620 net.cpp:434] mbox_conf_flatten <- mbox_conf_softmax
I0322 22:59:41.198312 15620 net.cpp:408] mbox_conf_flatten -> mbox_conf_flatten
I0322 22:59:41.198341 15620 net.cpp:150] Setting up mbox_conf_flatten
I0322 22:59:41.198348 15620 net.cpp:157] Top shape: 1 96052 (96052)
I0322 22:59:41.198351 15620 net.cpp:165] Memory required for data: 259788848
I0322 22:59:41.198356 15620 layer_factory.hpp:77] Creating layer detection_out
I0322 22:59:41.198370 15620 net.cpp:100] Creating Layer detection_out
I0322 22:59:41.198375 15620 net.cpp:434] detection_out <- mbox_loc
I0322 22:59:41.198381 15620 net.cpp:434] detection_out <- mbox_conf_flatten
I0322 22:59:41.198387 15620 net.cpp:434] detection_out <- mbox_priorbox
I0322 22:59:41.198397 15620 net.cpp:408] detection_out -> detection_out
W0322 22:59:41.198423 15620 detection_output_layer.cpp:49] Failed to create directory: /home/zs/data/VOCdevkit/results/VOC2007/SSD_300x300_0322_conv4_1/Main
I0322 22:59:41.198884 15620 net.cpp:150] Setting up detection_out
I0322 22:59:41.198895 15620 net.cpp:157] Top shape: 1 1 1 7 (7)
I0322 22:59:41.198899 15620 net.cpp:165] Memory required for data: 259788876
I0322 22:59:41.198904 15620 layer_factory.hpp:77] Creating layer detection_eval
I0322 22:59:41.198912 15620 net.cpp:100] Creating Layer detection_eval
I0322 22:59:41.198920 15620 net.cpp:434] detection_eval <- detection_out
I0322 22:59:41.198925 15620 net.cpp:434] detection_eval <- label
I0322 22:59:41.198931 15620 net.cpp:408] detection_eval -> detection_eval
I0322 22:59:41.199012 15620 net.cpp:150] Setting up detection_eval
I0322 22:59:41.199028 15620 net.cpp:157] Top shape: 1 1 11 5 (55)
I0322 22:59:41.199031 15620 net.cpp:165] Memory required for data: 259789096
I0322 22:59:41.199035 15620 net.cpp:228] detection_eval does not need backward computation.
I0322 22:59:41.199040 15620 net.cpp:228] detection_out does not need backward computation.
I0322 22:59:41.199048 15620 net.cpp:228] mbox_conf_flatten does not need backward computation.
I0322 22:59:41.199051 15620 net.cpp:228] mbox_conf_softmax does not need backward computation.
…
