…
      sampler {
        min_scale: 0.3
        max_scale: 1
        min_aspect_ratio: 0.5
        max_aspect_ratio: 2
      }
      sample_constraint {
        min_jaccard_overlap: 0.9
      }
      max_sample: 1
      max_trials: 50
    }
    batch_sampler {
      sampler {
        min_scale: 0.3
        max_scale: 1
        min_aspect_ratio: 0.5
        max_aspect_ratio: 2
      }
      sample_constraint {
        max_jaccard_overlap: 1
      }
      max_sample: 1
      max_trials: 50
    }
    label_map_file: "data/NWPU_VHR/labelmap_NWPU_VHR.prototxt"
  }
}
layer {
  name: "conv1_1"
  type: "Convolution"
  bottom: "data"
  top: "conv1_1"
  param {
    lr_mult: 1
    decay_mult: 1
  }
  param {
    lr_mult: 2
    decay_mult: 0
  }
  convolution_param {
    num_output: 64
    pad: 1
    kernel_size: 3
    weight_filler {
      type: "xavier"
    }
    bias_filler {
      type: "constant"
      value: 0
    }
  }
}
layer {
  name: "relu1_1"
  type: "ReLU"
  bottom: "conv1_1"
  top: "conv1_1"
}
layer {
  name: "conv1_2"
  type: "Convolution"
  bottom: "conv1_1"
  top: "conv1_2"
  param {
    lr_mult: 1
    decay_mult: 1
  }
  param {
    lr_mult: 2
    decay_mult: 0
  }
  convolution_param {
    num_output: 64
    pad: 1
    kernel_size: 3
    weight_filler {
      type: "xavier"
    }
    bias_filler {
      type: "constant"
      value: 0
    }
  }
}
layer {
  name: "relu1_2"
  type: "ReLU"
  bottom: "conv1_2"
  top: "conv1_2"
}
layer {
  name: "pool1"
  type: "Pooling"
  bottom: "conv1_2"
  top: "pool1"
  pooling_param {
    pool: MAX
    kernel_size: 2
    stride: 2
  }
}
layer {
  name: "conv2_1"
  type: "Convolution"
  bottom: "pool1"
  top: "conv2_1"
  param {
    lr_mult: 1
    decay_mult: 1
  }
  param {
    lr_mult: 2
    decay_mult: 0
  }
  convolution_param {
    num_output: 128
    pad: 1
    kernel_size: 3
    weight_filler {
      type: "xavier"
    }
    bias_filler {
      type: "constant"
      value: 0
    }
  }
}
layer {
  name: "relu2_1"
  type: "ReLU"
  bottom: "conv2_1"
  top: "conv2_1"
}
layer {
  name: "conv2_2"
  type: "Convolution"
  bottom: "conv2_1"
  top: "conv2_2"
  param {
    lr_mult: 1
    decay_mult: 1
  }
  param {
    lr_mult: 2
    decay_mult: 0
  }
  convolution_param {
    num_output: 128
    pad: 1
    kernel_size: 3
    weight_filler {
      type: "xavier"
    }
    bias_filler {
      type: "constant"
      value: 0
    }
  }
}
layer {
  name: "relu2_2"
  type: "ReLU"
  bottom: "conv2_2"
  top: "conv2_2"
}
layer {
  name: "pool2"
  type: "Pooling"
  bottom: "conv2_2"
  top: "pool2"
  pooling_param {
    pool: MAX
    kernel_size: 2
    stride: 2
  }
}
layer {
  name: "conv3_1"
  type: "Convolution"
  bottom: "pool2"
  top: "conv3_1"
  param {
    lr_mult: 1
    decay_mult: 1
  }
  param {
    lr_mult: 2
    decay_mult: 0
  }
  convolution_param {
    num_output: 256
    pad: 1
    kernel_size: 3
    weight_filler {
      type: "xavier"
    }
    bias_filler {
      type: "constant"
      value: 0
    }
  }
}
layer {
  name: "relu3_1"
  type: "ReLU"
  bottom: "conv3_1"
  top: "conv3_1"
}
layer {
  name: "conv3_2"
  type: "Convolution"
  bottom: "conv3_1"
  top: "conv3_2"
  param {
    lr_mult: 1
    decay_mult: 1
  }
  param {
    lr_mult: 2
    decay_mult: 0
  }
  convolution_param {
    num_output: 256
    pad: 1
    kernel_size: 3
    weight_filler {
      type: "xavier"
    }
    bias_filler {
      type: "constant"
      value: 0
    }
  }
}
layer {
  name: "relu3_2"
  type: "ReLU"
  bottom: "conv3_2"
  top: "conv3_2"
}
layer {
  name: "conv3_3"
  type: "Convolution"
  bottom: "conv3_2"
  top: "conv3_3"
  param {
    lr_mult: 1
    decay_mult: 1
  }
  param {
    lr_mult: 2
    decay_mult: 0
  }
  convolution_param {
    num_output: 256
    pad: 1
    kernel_size: 3
    weight_filler {
      type: "xavier"
    }
    bias_filler {
      type: "constant"
      value: 0
    }
  }
}
layer {
  name: "relu3_3"
  type: "ReLU"
  bottom: "conv3_3"
  top: "conv3_3"
}
layer {
  name: "pool3"
  type: "Pooling"
  bottom: "conv3_3"
  top: "pool3"
  pooling_param {
    pool: MAX
    kernel_size: 2
    stride: 2
  }
}
layer {
  name: "conv4_1"
  type: "Convolution"
  bottom: "pool3"
  top: "conv4_1"
  param {
    lr_mult: 1
    decay_mult: 1
  }
  param {
    lr_mult: 2
    decay_mult: 0
  }
  convolution_param {
    num_output: 512
    pad: 1
    kernel_size: 3
    weight_filler {
      type: "xavier"
    }
    bias_filler {
      type: "constant"
      value: 0
    }
  }
}
layer {
  name: "relu4_1"
  type: "ReLU"
  bottom: "conv4_1"
  top: "conv4_1"
}
layer {
  name: "conv4_2"
  type: "Convolution"
  bottom: "conv4_1"
  top: "conv4_2"
  param {
    lr_mult: 1
    decay_mult: 1
  }
  param {
    lr_mult: 2
    decay_mult: 0
  }
  convolution_param {
    num_output: 512
    pad: 1
    kernel_size: 3
    weight_filler {
      type: "xavier"
    }
    bias_filler {
      type: "constant"
      value: 0
    }
  }
}
layer {
  name: "relu4_2"
  type: "ReLU"
  bottom: "conv4_2"
  top: "conv4_2"
}
layer {
  name: "conv4_3"
  type: "Convolution"
  bottom: "conv4_2"
  top: "conv4_3"
  param {
    lr_mult: 1
    decay_mult: 1
  }
  param {
    lr_mult: 2
    decay_mult: 0
  }
  convolution_param {
    num_output: 512
    pad: 1
    kernel_size: 3
    weight_filler {
      type: "xavier"
    }
    bias_filler {
      type: "constant"
      value: 0
    }
  }
}
layer {
  name: "relu4_3"
  type: "ReLU"
  bottom: "conv4_3"
  top: "conv4_3"
}
layer {
  name: "pool4"
  type: "Pooling"
  bottom: "conv4_3"
  top: "pool4"
  pooling_param {
    pool: MAX
    kernel_size: 2
    stride: 2
  }
}
layer {
  name: "conv5_1"
  type: "Convolution"
  bottom: "pool4"
  top: "conv5_1"
  param {
    lr_mult: 1
    decay_mult: 1
  }
  param {
    lr_mult: 2
    decay_mult: 0
  }
  convolution_param {
    num_output: 512
    pad: 1
    kernel_size: 3
    weight_filler {
      type: "xavier"
    }
    bias_filler {
      type: "constant"
      value: 0
    }
    dilation: 1
  }
}
layer {
  name: "relu5_1"
  type: "ReLU"
  bottom: "conv5_1"
  top: "conv5_1"
}
layer {
  name: "conv5_2"
  type: "Convolution"
  bottom: "conv5_1"
  top: "conv5_2"
  param {
    lr_mult: 1
    decay_mult: 1
  }
  param {
    lr_mult: 2
    decay_mult: 0
  }
  convolution_param {
    num_output: 512
    pad: 1
    kernel_size: 3
    weight_filler {
      type: "xavier"
    }
    bias_filler {
      type: "constant"
      value: 0
    }
    dilation: 1
  }
}
layer {
  name: "relu5_2"
  type: "ReLU"
  bottom: "conv5_2"
  top: "conv5_2"
}
layer {
  name: "conv5_3"
  type: "Convolution"
  bottom: "conv5_2"
  top: "conv5_3"
  param {
    lr_mult: 1
    decay_mult: 1
  }
  param {
    lr_mult: 2
    decay_mult: 0
  }
  convolution_param {
    num_output: 512
    pad: 1
    kernel_size: 3
    weight_filler {
      type: "xavier"
    }
    bias_filler {
      type: "constant"
      value: 0
    }
    dilation: 1
  }
}
layer {
  name: "relu5_3"
  type: "ReLU"
  bottom: "conv5_3"
  top: "conv5_3"
}
layer {
  name: "pool5"
  type: "Pooling"
  bottom: "conv5_3"
  top: "pool5"
  pooling_param {
    pool: MAX
    kernel_size: 3
    stride: 1
    pad: 1
  }
}
layer {
  name: "fc6"
  type: "Convolution"
  bottom: "pool5"
  top: "fc6"
  param {
    lr_mult: 1
    decay_mult: 1
  }
  param {
    lr_mult: 2
    decay_mult: 0
  }
  convolution_param {
    num_output: 1024
    pad: 6
    kernel_size: 3
    weight_filler {
      type: "xavier"
    }
    bias_filler {
      type: "constant"
      value: 0
    }
    dilation: 6
  }
}
layer {
  name: "relu6"
  type: "ReLU"
  bottom: "fc6"
  top: "fc6"
}
layer {
  name: "fc7"
  type: "Convolution"
  bottom: "fc6"
  top: "fc7"
  param {
    lr_mult: 1
    decay_mult: 1
  }
  param {
    lr_mult: 2
    decay_mult: 0
  }
  convolution_param {
    num_output: 1024
    kernel_size: 1
    weight_filler {
      type: "xavier"
    }
    bias_filler {
      type: "constant"
      value: 0
    }
  }
}
layer {
  name: "relu7"
  type: "ReLU"
  bottom: "fc7"
  top: "fc7"
}
layer {
  name: "conv6_1"
  type: "Convolution"
  bottom: "fc7"
  top: "conv6_1"
  param {
    lr_mult: 1
    decay_mult: 1
  }
  param {
    lr_mult: 2
    decay_mult: 0
  }
  convolution_param {
    num_output: 256
    pad: 0
    kernel_size: 1
    stride: 1
    weight_filler {
      type: "xavier"
    }
    bias_filler {
      type: "constant"
      value: 0
    }
  }
}
layer {
  name: "conv6_1_relu"
  type: "ReLU"
  bottom: "conv6_1"
  top: "conv6_1"
}
layer {
  name: "conv6_2"
  type: "Convolution"
  bottom: "conv6_1"
  top: "conv6_2"
  param {
    lr_mult: 1
    decay_mult: 1
  }
  param {
    lr_mult: 2
    decay_mult: 0
  }
  convolution_param {
    num_output: 512
    pad: 1
    kernel_size: 3
    stride: 2
    weight_filler {
      type: "xavier"
    }
    bias_filler {
      type: "constant"
      value: 0
    }
  }
}
layer {
  name: "conv6_2_relu"
  type: "ReLU"
  bottom: "conv6_2"
  top: "conv6_2"
}
layer {
  name: "conv7_1"
  type: "Convolution"
  bottom: "conv6_2"
  top: "conv7_1"
  param {
    lr_mult: 1
    decay_mult: 1
  }
  param {
    lr_mult: 2
    decay_mult: 0
  }
  convolution_param {
    num_output: 128
    pad: 0
    kernel_size: 1
    stride: 1
    weight_filler {
      type: "xavier"
    }
    bias_filler {
      type: "constant"
      value: 0
    }
  }
}
layer {
  name: "conv7_1_relu"
  type: "ReLU"
  bottom: "conv7_1"
  top: "conv7_1"
}
layer {
  name: "conv7_2"
  type: "Convolution"
  bottom: "conv7_1"
  top: "conv7_2"
  param {
    lr_mult: 1
    decay_mult: 1
  }
  param {
    lr_mult: 2
    decay_mult: 0
  }
  convolution_param {
    num_output: 256
    pad: 1
    kernel_size: 3
    stride: 2
    weight_filler {
      type: "xavier"
    }
    bias_filler {
      type: "constant"
      value: 0
    }
  }
}
layer {
  name: "conv7_2_relu"
  type: "ReLU"
  bottom: "conv7_2"
  top: "conv7_2"
}
layer {
  name: "conv8_1"
  type: "Convolution"
  bottom: "conv7_2"
  top: "conv8_1"
  param {
    lr_mult: 1
    decay_mult: 1
  }
  param {
    lr_mult: 2
    decay_mult: 0
  }
  convolution_param {
    num_output: 128
    pad: 0
    kernel_size: 1
    stride: 1
    weight_filler {
      type: "xavier"
    }
    bias_filler {
      type: "constant"
      value: 0
    }
  }
}
layer {
  name: "conv8_1_relu"
  type: "ReLU"
  bottom: "conv8_1"
  top: "conv8_1"
}
layer {
  name: "conv8_2"
  type: "Convolution"
  bottom: "conv8_1"
  top: "conv8_2"
  param {
    lr_mult: 1
    decay_mult: 1
  }
  param {
    lr_mult: 2
    decay_mult: 0
  }
  convolution_param {
    num_output: 256
    pad: 0
    kernel_size: 3
    stride: 1
    weight_filler {
      type: "xavier"
    }
    bias_filler {
      type: "constant"
      value: 0
    }
  }
}
layer {
  name: "conv8_2_relu"
  type: "ReLU"
  bottom: "conv8_2"
  top: "conv8_2"
}
layer {
  name: "conv9_1"
  type: "Convolution"
  bottom: "conv8_2"
  top: "conv9_1"
  param {
    lr_mult: 1
    decay_mult: 1
  }
  param {
    lr_mult: 2
    decay_mult: 0
  }
  convolution_param {
    num_output: 128
    pad: 0
    kernel_size: 1
    stride: 1
    weight_filler {
      type: "xavier"
    }
    bias_filler {
      type: "constant"
      value: 0
    }
  }
}
layer {
  name: "conv9_1_relu"
  type: "ReLU"
  bottom: "conv9_1"
  top: "conv9_1"
}
layer {
  name: "conv9_2"
  type: "Convolution"
  bottom: "conv9_1"
  top: "conv9_2"
  param {
    lr_mult: 1
    decay_mult: 1
  }
  param {
    lr_mult: 2
    decay_mult: 0
  }
  convolution_param {
    num_output: 256
    pad: 0
    kernel_size: 3
    stride: 1
    weight_filler {
      type: "xavier"
    }
    bias_filler {
      type: "constant"
      value: 0
    }
  }
}
layer {
  name: "conv9_2_relu"
  type: "ReLU"
  bottom: "conv9_2"
  top: "conv9_2"
}
layer {
  name: "conv4_3_norm"
  type: "Normalize"
  bottom: "conv4_3"
  top: "conv4_3_norm"
  norm_param {
    across_spatial: false
    scale_filler {
      type: "constant"
      value: 20
    }
    channel_shared: false
  }
}
layer {
  name: "conv4_3_norm_mbox_loc"
  type: "Convolution"
  bottom: "conv4_3_norm"
  top: "conv4_3_norm_mbox_loc"
  param {
    lr_mult: 1
    decay_mult: 1
  }
  param {
    lr_mult: 2
    decay_mult: 0
  }
  convolution_param {
    num_output: 16
    pad: 1
    kernel_size: 3
    stride: 1
    weight_filler {
      type: "xavier"
    }
    bias_filler {
      type: "constant"
      value: 0
    }
  }
}
layer {
  name: "conv4_3_norm_mbox_loc_perm"
  type: "Permute"
  bottom: "conv4_3_norm_mbox_loc"
  top: "conv4_3_norm_mbox_loc_perm"
  permute_param {
    order: 0
    order: 2
    order: 3
    order: 1
  }
}
layer {
  name: "conv4_3_norm_mbox_loc_flat"
  type: "Flatten"
  bottom: "conv4_3_norm_mbox_loc_perm"
  top: "conv4_3_norm_mbox_loc_flat"
  flatten_param {
    axis: 1
  }
}
layer {
  name: "conv4_3_norm_mbox_conf"
  type: "Convolution"
  bottom: "conv4_3_norm"
  top: "conv4_3_norm_mbox_conf"
  param {
    lr_mult: 1
    decay_mult: 1
  }
  param {
    lr_mult: 2
    decay_mult: 0
  }
  convolution_param {
    num_output: 44
    pad: 1
    kernel_size: 3
    stride: 1
    weight_filler {
      type: "xavier"
    }
    bias_filler {
      type: "constant"
      value: 0
    }
  }
}
layer {
  name: "conv4_3_norm_mbox_conf_perm"
  type: "Permute"
  bottom: "conv4_3_norm_mbox_conf"
  top: "conv4_3_norm_mbox_conf_perm"
  permute_param {
    order: 0
    order: 2
    order: 3
    order: 1
  }
}
layer {
  name: "conv4_3_norm_mbox_conf_flat"
  type: "Flatten"
  bottom: "conv4_3_norm_mbox_conf_perm"
  top: "conv4_3_norm_mbox_conf_flat"
  flatten_param {
    axis: 1
  }
}
layer {
  name: "conv4_3_norm_mbox_priorbox"
  type: "PriorBox"
  bottom: "conv4_3_norm"
  bottom: "data"
  top: "conv4_3_norm_mbox_priorbox"
  prior_box_param {
    min_size: 30
    max_size: 60
    aspect_ratio: 2
    flip: true
    clip: false
    variance: 0.1
    variance: 0.1
    variance: 0.2
    variance: 0.2
    step: 8
    offset: 0.5
  }
}
layer {
  name: "fc7_mbox_loc"
  type: "Convolution"
  bottom: "fc7"
  top: "fc7_mbox_loc"
  param {
    lr_mult: 1
    decay_mult: 1
  }
  param {
    lr_mult: 2
    decay_mult: 0
  }
  convolution_param {
    num_output: 24
    pad: 1
    kernel_size: 3
    stride: 1
    weight_filler {
      type: "xavier"
    }
    bias_filler {
      type: "constant"
      value: 0
    }
  }
}
layer {
  name: "fc7_mbox_loc_perm"
  type: "Permute"
  bottom: "fc7_mbox_loc"
  top: "fc7_mbox_loc_perm"
  permute_param {
    order: 0
    order: 2
    order: 3
    order: 1
  }
}
layer {
  name: "fc7_mbox_loc_flat"
  type: "Flatten"
  bottom: "fc7_mbox_loc_perm"
  top: "fc7_mbox_loc_flat"
  flatten_param {
    axis: 1
  }
}
layer {
  name: "fc7_mbox_conf"
  type: "Convolution"
  bottom: "fc7"
  top: "fc7_mbox_conf"
  param {
    lr_mult: 1
    decay_mult: 1
  }
  param {
    lr_mult: 2
    decay_mult: 0
  }
  convolution_param {
    num_output: 66
    pad: 1
    kernel_size: 3
    stride: 1
    weight_filler {
      type: "xavier"
    }
    bias_filler {
      type: "constant"
      value: 0
    }
  }
}
layer {
  name: "fc7_mbox_conf_perm"
  type: "Permute"
  bottom: "fc7_mbox_conf"
  top: "fc7_mbox_conf_perm"
  permute_param {
    order: 0
    order: 2
    order: 3
    order: 1
  }
}
layer {
  name: "fc7_mbox_conf_flat"
  type: "Flatten"
  bottom: "fc7_mbox_conf_perm"
  top: "fc7_mbox_conf_flat"
  flatten_param {
    axis: 1
  }
}
layer {
  name: "fc7_mbox_priorbox"
  type: "PriorBox"
  bottom: "fc7"
  bottom: "data"
  top: "fc7_mbox_priorbox"
  prior_box_param {
    min_size: 60
    max_size: 111
    aspect_ratio: 2
    aspect_ratio: 3
    flip: true
    clip: false
    variance: 0.1
    variance: 0.1
    variance: 0.2
    variance: 0.2
    step: 16
    offset: 0.5
  }
}
layer {
  name: "conv6_2_mbox_loc"
  type: "Convolution"
  bottom: "conv6_2"
  top: "conv6_2_mbox_loc"
  param {
    lr_mult: 1
    decay_mult: 1
  }
  param {
    lr_mult: 2
    decay_mult: 0
  }
  convolution_param {
    num_output: 24
    pad: 1
    kernel_size: 3
    stride: 1
    weight_filler {
      type: "xavier"
    }
    bias_filler {
      type: "constant"
      value: 0
    }
  }
}
layer {
  name: "conv6_2_mbox_loc_perm"
  type: "Permute"
  bottom: "conv6_2_mbox_loc"
  top: "conv6_2_mbox_loc_perm"
  permute_param {
    order: 0
    order: 2
    order: 3
    order: 1
  }
}
layer {
  name: "conv6_2_mbox_loc_flat"
  type: "Flatten"
  bottom: "conv6_2_mbox_loc_perm"
  top: "conv6_2_mbox_loc_flat"
  flatten_param {
    axis: 1
  }
}
layer {
  name: "conv6_2_mbox_conf"
  type: "Convolution"
  bottom: "conv6_2"
  top: "conv6_2_mbox_conf"
  param {
    lr_mult: 1
    decay_mult: 1
  }
  param {
    lr_mult: 2
    decay_mult: 0
  }
  convolution_param {
    num_output: 66
    pad: 1
    kernel_size: 3
    stride: 1
    weight_filler {
      type: "xavier"
    }
    bias_filler {
      type: "constant"
      value: 0
    }
  }
}
layer {
  name: "conv6_2_mbox_conf_perm"
  type: "Permute"
  bottom: "conv6_2_mbox_conf"
  top: "conv6_2_mbox_conf_perm"
  permute_param {
    order: 0
    order: 2
    order: 3
    order: 1
  }
}
layer {
  name: "conv6_2_mbox_conf_flat"
  type: "Flatten"
  bottom: "conv6_2_mbox_conf_perm"
  top: "conv6_2_mbox_conf_flat"
  flatten_param {
    axis: 1
  }
}
layer {
  name: "conv6_2_mbox_priorbox"
  type: "PriorBox"
  bottom: "conv6_2"
  bottom: "data"
  top: "conv6_2_mbox_priorbox"
  prior_box_param {
    min_size: 111
    max_size: 162
    aspect_ratio: 2
    aspect_ratio: 3
    flip: true
    clip: false
    variance: 0.1
    variance: 0.1
    variance: 0.2
    variance: 0.2
    step: 32
    offset: 0.5
  }
}
layer {
  name: "conv7_2_mbox_loc"
  type: "Convolution"
  bottom: "conv7_2"
  top: "conv7_2_mbox_loc"
  param {
    lr_mult: 1
    decay_mult: 1
  }
  param {
    lr_mult: 2
    decay_mult: 0
  }
  convolution_param {
    num_output: 24
    pad: 1
    kernel_size: 3
    stride: 1
    weight_filler {
      type: "xavier"
    }
    bias_filler {
      type: "constant"
      value: 0
    }
  }
}
layer {
  name: "conv7_2_mbox_loc_perm"
  type: "Permute"
  bottom: "conv7_2_mbox_loc"
  top: "conv7_2_mbox_loc_perm"
  permute_param {
    order: 0
    order: 2
    order: 3
    order: 1
  }
}
layer {
  name: "conv7_2_mbox_loc_flat"
  type: "Flatten"
  bottom: "conv7_2_mbox_loc_perm"
  top: "conv7_2_mbox_loc_flat"
  flatten_param {
    axis: 1
  }
}
layer {
  name: "conv7_2_mbox_conf"
  type: "Convolution"
  bottom: "conv7_2"
  top: "conv7_2_mbox_conf"
  param {
    lr_mult: 1
    decay_mult: 1
  }
  param {
    lr_mult: 2
    decay_mult: 0
  }
  convolution_param {
    num_output: 66
    pad: 1
    kernel_size: 3
    stride: 1
    weight_filler {
      type: "xavier"
    }
    bias_filler {
      type: "constant"
      value: 0
    }
  }
}
layer {
  name: "conv7_2_mbox_conf_perm"
  type: "Permute"
  bottom: "conv7_2_mbox_conf"
  top: "conv7_2_mbox_conf_perm"
  permute_param {
    order: 0
    order: 2
    order: 3
    order: 1
  }
}
layer {
  name: "conv7_2_mbox_conf_flat"
  type: "Flatten"
  bottom: "conv7_2_mbox_conf_perm"
  top: "conv7_2_mbox_conf_flat"
  flatten_param {
    axis: 1
  }
}
layer {
  name: "conv7_2_mbox_priorbox"
  type: "PriorBox"
  bottom: "conv7_2"
  bottom: "data"
  top: "conv7_2_mbox_priorbox"
  prior_box_param {
    min_size: 162
    max_size: 213
    aspect_ratio: 2
    aspect_ratio: 3
    flip: true
    clip: false
    variance: 0.1
    variance: 0.1
    variance: 0.2
    variance: 0.2
    step: 64
    offset: 0.5
  }
}
layer {
  name: "conv8_2_mbox_loc"
  type: "Convolution"
  bottom: "conv8_2"
  top: "conv8_2_mbox_loc"
  param {
    lr_mult: 1
    decay_mult: 1
  }
  param {
    lr_mult: 2
    decay_mult: 0
  }
  convolution_param {
    num_output: 16
    pad: 1
    kernel_size: 3
    stride: 1
    weight_filler {
      type: "xavier"
    }
    bias_filler {
      type: "constant"
      value: 0
    }
  }
}
layer {
  name: "conv8_2_mbox_loc_perm"
  type: "Permute"
  bottom: "conv8_2_mbox_loc"
  top: "conv8_2_mbox_loc_perm"
  permute_param {
    order: 0
    order: 2
    order: 3
    order: 1
  }
}
layer {
  name: "conv8_2_mbox_loc_flat"
  type: "Flatten"
  bottom: "conv8_2_mbox_loc_perm"
  top: "conv8_2_mbox_loc_flat"
  flatten_param {
    axis: 1
  }
}
layer {
  name: "conv8_2_mbox_conf"
  type: "Convolution"
  bottom: "conv8_2"
  top: "conv8_2_mbox_conf"
  param {
    lr_mult: 1
    decay_mult: 1
  }
  param {
    lr_mult: 2
    decay_mult: 0
  }
  convolution_param {
    num_output: 44
    pad: 1
    kernel_size: 3
    stride: 1
    weight_filler {
      type: "xavier"
    }
    bias_filler {
      type: "constant"
      value: 0
    }
  }
}
layer {
  name: "conv8_2_mbox_conf_perm"
  type: "Permute"
  bottom: "conv8_2_mbox_conf"
  top: "conv8_2_mbox_conf_perm"
  permute_param {
    order: 0
    order: 2
    order: 3
    order: 1
  }
}
layer {
  name: "conv8_2_mbox_conf_flat"
  type: "Flatten"
  bottom: "conv8_2_mbox_conf_perm"
  top: "conv8_2_mbox_conf_flat"
  flatten_param {
    axis: 1
  }
}
layer {
  name: "conv8_2_mbox_priorbox"
  type: "PriorBox"
  bottom: "conv8_2"
  bottom: "data"
  top: "conv8_2_mbox_priorbox"
  prior_box_param {
    min_size: 213
    max_size: 264
    aspect_ratio: 2
    flip: true
    clip: false
    variance: 0.1
    variance: 0.1
    variance: 0.2
    variance: 0.2
    step: 100
    offset: 0.5
  }
}
layer {
  name: "conv9_2_mbox_loc"
  type: "Convolution"
  bottom: "conv9_2"
  top: "conv9_2_mbox_loc"
  param {
    lr_mult: 1
    decay_mult: 1
  }
  param {
    lr_mult: 2
    decay_mult: 0
  }
  convolution_param {
    num_output: 16
    pad: 1
    kernel_size: 3
    stride: 1
    weight_filler {
      type: "xavier"
    }
    bias_filler {
      type: "constant"
      value: 0
    }
  }
}
layer {
  name: "conv9_2_mbox_loc_perm"
  type: "Permute"
  bottom: "conv9_2_mbox_loc"
  top: "conv9_2_mbox_loc_perm"
  permute_param {
    order: 0
    order: 2
    order: 3
    order: 1
  }
}
layer {
  name: "conv9_2_mbox_loc_flat"
  type: "Flatten"
  bottom: "conv9_2_mbox_loc_perm"
  top: "conv9_2_mbox_loc_flat"
  flatten_param {
    axis: 1
  }
}
layer {
  name: "conv9_2_mbox_conf"
  type: "Convolution"
  bottom: "conv9_2"
  top: "conv9_2_mbox_conf"
  param {
    lr_mult: 1
    decay_mult: 1
  }
  param {
    lr_mult: 2
    decay_mult: 0
  }
  convolution_param {
    num_output: 44
    pad: 1
    kernel_size: 3
    stride: 1
    weight_filler {
      type: "xavier"
    }
    bias_filler {
      type: "constant"
      value: 0
    }
  }
}
layer {
  name: "conv9_2_mbox_conf_perm"
  type: "Permute"
  bottom: "conv9_2_mbox_conf"
  top: "conv9_2_mbox_conf_perm"
  permute_param {
    order: 0
    order: 2
    order: 3
    order: 1
  }
}
layer {
  name: "conv9_2_mbox_conf_flat"
  type: "Flatten"
  bottom: "conv9_2_mbox_conf_perm"
  top: "conv9_2_mbox_conf_flat"
  flatten_param {
    axis: 1
  }
}
layer {
  name: "conv9_2_mbox_priorbox"
  type: "PriorBox"
  bottom: "conv9_2"
  bottom: "data"
  top: "conv9_2_mbox_priorbox"
  prior_box_param {
    min_size: 264
    max_size: 315
    aspect_ratio: 2
    flip: true
    clip: false
    variance: 0.1
    variance: 0.1
    variance: 0.2
    variance: 0.2
    step: 300
    offset: 0.5
  }
}
layer {
  name: "mbox_loc"
  type: "Concat"
  bottom: "conv4_3_norm_mbox_loc_flat"
  bottom: "fc7_mbox_loc_flat"
  bottom: "conv6_2_mbox_loc_flat"
  bottom: "conv7_2_mbox_loc_flat"
  bottom: "conv8_2_mbox_loc_flat"
  bottom: "conv9_2_mbox_loc_flat"
  top: "mbox_loc"
  concat_param {
    axis: 1
  }
}
layer {
  name: "mbox_conf"
  type: "Concat"
  bottom: "conv4_3_norm_mbox_conf_flat"
  bottom: "fc7_mbox_conf_flat"
  bottom: "conv6_2_mbox_conf_flat"
  bottom: "conv7_2_mbox_conf_flat"
  bottom: "conv8_2_mbox_conf_flat"
  bottom: "conv9_2_mbox_conf_flat"
  top: "mbox_conf"
  concat_param {
    axis: 1
  }
}
layer {
  name: "mbox_priorbox"
  type: "Concat"
  bottom: "conv4_3_norm_mbox_priorbox"
  bottom: "fc7_mbox_priorbox"
  bottom: "conv6_2_mbox_priorbox"
  bottom: "conv7_2_mbox_priorbox"
  bottom: "conv8_2_mbox_priorbox"
  bottom: "conv9_2_mbox_priorbox"
  top: "mbox_priorbox"
  concat_param {
    axis: 2
  }
}
layer {
  name: "mbox_loss"
  type: "MultiBoxLoss"
  bottom: "mbox_loc"
  bottom: "mbox_conf"
  bottom: "mbox_priorbox"
  bottom: "label"
  top: "mbox_loss"
  include {
    phase: TRAIN
  }
  propagate_down: true
  propagate_down: true
  propagate_down: false
  propagate_down: false
  loss_param {
    normalization: VALID
  }
  multibox_loss_param {
    loc_loss_type: SMOOTH_L1
    conf_loss_type: SOFTMAX
    loc_weight: 1
    num_classes: 11
    share_location: true
    match_type: PER_PREDICTION
    overlap_threshold: 0.5
    use_prior_for_matching: true
    background_label_id: 0
    use_difficult_gt: true
    neg_pos_ratio: 3
    neg_overlap: 0.5
    code_type: CENTER_SIZE
    ignore_cross_boundary_bbox: false
    mining_type: MAX_NEGATIVE
  }
}
I0615 17:02:13.971469 17583 layer_factory.hpp:77] Creating layer data
I0615 17:02:13.972054 17583 net.cpp:100] Creating Layer data
I0615 17:02:13.972076 17583 net.cpp:408] data -> data
I0615 17:02:13.972121 17583 net.cpp:408] data -> label
I0615 17:02:13.973281 17588 db_lmdb.cpp:35] Opened lmdb examples/NWPU_VHR/NWPU_VHR_trainval_lmdb
I0615 17:02:13.995671 17583 annotated_data_layer.cpp:62] output data size: 32,3,300,300
I0615 17:02:14.038117 17583 net.cpp:150] Setting up data
I0615 17:02:14.038152 17583 net.cpp:157] Top shape: 32 3 300 300 (8640000)
I0615 17:02:14.038158 17583 net.cpp:157] Top shape: 1 1 4 8 (32)
I0615 17:02:14.038161 17583 net.cpp:165] Memory required for data: 34560128
I0615 17:02:14.038173 17583 layer_factory.hpp:77] Creating layer data_data_0_split
I0615 17:02:14.038187 17583 net.cpp:100] Creating Layer data_data_0_split
I0615 17:02:14.038195 17583 net.cpp:434] data_data_0_split <- data
I0615 17:02:14.038233 17583 net.cpp:408] data_data_0_split -> data_data_0_split_0
I0615 17:02:14.038244 17583 net.cpp:408] data_data_0_split -> data_data_0_split_1
I0615 17:02:14.038251 17583 net.cpp:408] data_data_0_split -> data_data_0_split_2
I0615 17:02:14.038260 17583 net.cpp:408] data_data_0_split -> data_data_0_split_3
I0615 17:02:14.038265 17583 net.cpp:408] data_data_0_split -> data_data_0_split_4
I0615 17:02:14.038271 17583 net.cpp:408] data_data_0_split -> data_data_0_split_5
I0615 17:02:14.038276 17583 net.cpp:408] data_data_0_split -> data_data_0_split_6
I0615 17:02:14.038383 17583 net.cpp:150] Setting up data_data_0_split
I0615 17:02:14.038390 17583 net.cpp:157] Top shape: 32 3 300 300 (8640000)
I0615 17:02:14.038394 17583 net.cpp:157] Top shape: 32 3 300 300 (8640000)
I0615 17:02:14.038398 17583 net.cpp:157] Top shape: 32 3 300 300 (8640000)
I0615 17:02:14.038403 17583 net.cpp:157] Top shape: 32 3 300 300 (8640000)
I0615 17:02:14.038408 17583 net.cpp:157] Top shape: 32 3 300 300 (8640000)
I0615 17:02:14.038411 17583 net.cpp:157] Top shape: 32 3 300 300 (8640000)
I0615 17:02:14.038415 17583 net.cpp:157] Top shape: 32 3 300 300 (8640000)
I0615 17:02:14.038419 17583 net.cpp:165] Memory required for data: 276480128
I0615 17:02:14.038422 17583 layer_factory.hpp:77] Creating layer conv1_1
I0615 17:02:14.038440 17583 net.cpp:100] Creating Layer conv1_1
I0615 17:02:14.038444 17583 net.cpp:434] conv1_1 <- data_data_0_split_0
I0615 17:02:14.038451 17583 net.cpp:408] conv1_1 -> conv1_1
I0615 17:02:14.688045 17583 net.cpp:150] Setting up conv1_1
I0615 17:02:14.688081 17583 net.cpp:157] Top shape: 32 64 300 300 (184320000)
I0615 17:02:14.688084 17583 net.cpp:165] Memory required for data: 1013760128
I0615 17:02:14.688103 17583 layer_factory.hpp:77] Creating layer relu1_1
I0615 17:02:14.688114 17583 net.cpp:100] Creating Layer relu1_1
I0615 17:02:14.688120 17583 net.cpp:434] relu1_1 <- conv1_1
I0615 17:02:14.688127 17583 net.cpp:395] relu1_1 -> conv1_1 (in-place)
I0615 17:02:14.688191 17583 net.cpp:150] Setting up relu1_1
I0615 17:02:14.688197 17583 net.cpp:157] Top shape: 32 64 300 300 (184320000)
I0615 17:02:14.688201 17583 net.cpp:165] Memory required for data: 1751040128
I0615 17:02:14.688205 17583 layer_factory.hpp:77] Creating layer conv1_2
I0615 17:02:14.688218 17583 net.cpp:100] Creating Layer conv1_2
I0615 17:02:14.688222 17583 net.cpp:434] conv1_2 <- conv1_1
I0615 17:02:14.688228 17583 net.cpp:408] conv1_2 -> conv1_2
I0615 17:02:14.689018 17583 net.cpp:150] Setting up conv1_2
I0615 17:02:14.689033 17583 net.cpp:157] Top shape: 32 64 300 300 (184320000)
I0615 17:02:14.689036 17583 net.cpp:165] Memory required for data: 2488320128
I0615 17:02:14.689044 17583 layer_factory.hpp:77] Creating layer relu1_2
I0615 17:02:14.689050 17583 net.cpp:100] Creating Layer relu1_2
I0615 17:02:14.689055 17583 net.cpp:434] relu1_2 <- conv1_2
I0615 17:02:14.689061 17583 net.cpp:395] relu1_2 -> conv1_2 (in-place)
I0615 17:02:14.689210 17583 net.cpp:150] Setting up relu1_2
I0615 17:02:14.689221 17583 net.cpp:157] Top shape: 32 64 300 300 (184320000)
I0615 17:02:14.689226 17583 net.cpp:165] Memory required for data: 3225600128
I0615 17:02:14.689230 17583 layer_factory.hpp:77] Creating layer pool1
I0615 17:02:14.689237 17583 net.cpp:100] Creating Layer pool1
I0615 17:02:14.689241 17583 net.cpp:434] pool1 <- conv1_2
I0615 17:02:14.689247 17583 net.cpp:408] pool1 -> pool1
I0615 17:02:14.689303 17583 net.cpp:150] Setting up pool1
I0615 17:02:14.689309 17583 net.cpp:157] Top shape: 32 64 150 150 (46080000)
I0615 17:02:14.689312 17583 net.cpp:165] Memory required for data: 3409920128
I0615 17:02:14.689316 17583 layer_factory.hpp:77] Creating layer conv2_1
I0615 17:02:14.689325 17583 net.cpp:100] Creating Layer conv2_1
I0615 17:02:14.689328 17583 net.cpp:434] conv2_1 <- pool1
I0615 17:02:14.689334 17583 net.cpp:408] conv2_1 -> conv2_1
I0615 17:02:14.690224 17583 net.cpp:150] Setting up conv2_1
I0615 17:02:14.690239 17583 net.cpp:157] Top shape: 32 128 150 150 (92160000)
I0615 17:02:14.690243 17583 net.cpp:165] Memory required for data: 3778560128
I0615 17:02:14.690274 17583 layer_factory.hpp:77] Creating layer relu2_1
I0615 17:02:14.690284 17583 net.cpp:100] Creating Layer relu2_1
I0615 17:02:14.690287 17583 net.cpp:434] relu2_1 <- conv2_1
I0615 17:02:14.690292 17583 net.cpp:395] relu2_1 -> conv2_1 (in-place)
I0615 17:02:14.690351 17583 net.cpp:150] Setting up relu2_1
I0615 17:02:14.690357 17583 net.cpp:157] Top shape: 32 128 150 150 (92160000)
I0615 17:02:14.690361 17583 net.cpp:165] Memory required for data: 4147200128
I0615 17:02:14.690364 17583 layer_factory.hpp:77] Creating layer conv2_2
I0615 17:02:14.690373 17583 net.cpp:100] Creating Layer conv2_2
I0615 17:02:14.690378 17583 net.cpp:434] conv2_2 <- conv2_1
I0615 17:02:14.690383 17583 net.cpp:408] conv2_2 -> conv2_2
I0615 17:02:14.692638 17583 net.cpp:150] Setting up conv2_2
I0615 17:02:14.692669 17583 net.cpp:157] Top shape: 32 128 150 150 (92160000)
I0615 17:02:14.692674 17583 net.cpp:165] Memory required for data: 4515840128
I0615 17:02:14.692684 17583 layer_factory.hpp:77] Creating layer relu2_2
I0615 17:02:14.692695 17583 net.cpp:100] Creating Layer relu2_2
I0615 17:02:14.692700 17583 net.cpp:434] relu2_2 <- conv2_2
I0615 17:02:14.692708 17583 net.cpp:395] relu2_2 -> conv2_2 (in-place)
I0615 17:02:14.692873 17583 net.cpp:150] Setting up relu2_2
I0615 17:02:14.692883 17583 net.cpp:157] Top shape: 32 128 150 150 (92160000)
I0615 17:02:14.692888 17583 net.cpp:165] Memory required for data: 4884480128
I0615 17:02:14.692893 17583 layer_factory.hpp:77] Creating layer pool2
I0615 17:02:14.692899 17583 net.cpp:100] Creating Layer pool2
I0615 17:02:14.692903 17583 net.cpp:434] pool2 <- conv2_2
I0615 17:02:14.692909 17583 net.cpp:408] pool2 -> pool2
I0615 17:02:14.692946 17583 net.cpp:150] Setting up pool2
I0615 17:02:14.692953 17583 net.cpp:157] Top shape: 32 128 75 75 (23040000)
I0615 17:02:14.692957 17583 net.cpp:165] Memory required for data: 4976640128
I0615 17:02:14.692962 17583 layer_factory.hpp:77] Creating layer conv3_1
I0615 17:02:14.692975 17583 net.cpp:100] Creating Layer conv3_1
I0615 17:02:14.692979 17583 net.cpp:434] conv3_1 <- pool2
I0615 17:02:14.692984 17583 net.cpp:408] conv3_1 -> conv3_1
I0615 17:02:14.695462 17583 net.cpp:150] Setting up conv3_1
I0615 17:02:14.695480 17583 net.cpp:157] Top shape: 32 256 75 75 (46080000)
I0615 17:02:14.695484 17583 net.cpp:165] Memory required for data: 5160960128
I0615 17:02:14.695495 17583 layer_factory.hpp:77] Creating layer relu3_1
I0615 17:02:14.695503 17583 net.cpp:100] Creating Layer relu3_1
I0615 17:02:14.695508 17583 net.cpp:434] relu3_1 <- conv3_1
I0615 17:02:14.695513 17583 net.cpp:395] relu3_1 -> conv3_1 (in-place)
I0615 17:02:14.695581 17583 net.cpp:150] Setting up relu3_1
I0615 17:02:14.695597 17583 net.cpp:157] Top shape: 32 256 75 75 (46080000)
I0615 17:02:14.695601 17583 net.cpp:165] Memory required for data: 5345280128
I0615 17:02:14.695605 17583 layer_factory.hpp:77] Creating layer conv3_2
I0615 17:02:14.695614 17583 net.cpp:100] Creating Layer conv3_2
I0615 17:02:14.695617 17583 net.cpp:434] conv3_2 <- conv3_1
I0615 17:02:14.695626 17583 net.cpp:408] conv3_2 -> conv3_2
I0615 17:02:14.699365 17583 net.cpp:150] Setting up conv3_2
I0615 17:02:14.699389 17583 net.cpp:157] Top shape: 32 256 75 75 (46080000)
I0615 17:02:14.699393 17583 net.cpp:165] Memory required for data: 5529600128
I0615 17:02:14.699401 17583 layer_factory.hpp:77] Creating layer relu3_2
I0615 17:02:14.699407 17583 net.cpp:100] Creating Layer relu3_2
I0615 17:02:14.699414 17583 net.cpp:434] relu3_2 <- conv3_2
I0615 17:02:14.699419 17583 net.cpp:395] relu3_2 -> conv3_2 (in-place)
I0615 17:02:14.699586 17583 net.cpp:150] Setting up relu3_2
I0615 17:02:14.699597 17583 net.cpp:157] Top shape: 32 256 75 75 (46080000)
I0615 17:02:14.699601 17583 net.cpp:165] Memory required for data: 5713920128
I0615 17:02:14.699605 17583 layer_factory.hpp:77] Creating layer conv3_3
I0615 17:02:14.699620 17583 net.cpp:100] Creating Layer conv3_3
I0615 17:02:14.699625 17583 net.cpp:434] conv3_3 <- conv3_2
I0615 17:02:14.699630 17583 net.cpp:408] conv3_3 -> conv3_3
I0615 17:02:14.704306 17583 net.cpp:150] Setting up conv3_3
I0615 17:02:14.704357 17583 net.cpp:157] Top shape: 32 256 75 75 (46080000)
I0615 17:02:14.704361 17583 net.cpp:165] Memory required for data: 5898240128
I0615 17:02:14.704371 17583 layer_factory.hpp:77] Creating layer relu3_3
I0615 17:02:14.704380 17583 net.cpp:100] Creating Layer relu3_3
I0615 17:02:14.704386 17583 net.cpp:434] relu3_3 <- conv3_3
I0615 17:02:14.704393 17583 net.cpp:395] relu3_3 -> conv3_3 (in-place)
I0615 17:02:14.704571 17583 net.cpp:150] Setting up relu3_3
I0615 17:02:14.704581 17583 net.cpp:157] Top shape: 32 256 75 75 (46080000)
I0615 17:02:14.704586 17583 net.cpp:165] Memory required for data: 6082560128
I0615 17:02:14.704589 17583 layer_factory.hpp:77] Creating layer pool3
I0615 17:02:14.704597 17583 net.cpp:100] Creating Layer pool3
I0615 17:02:14.704602 17583 net.cpp:434] pool3 <- conv3_3
I0615 17:02:14.704608 17583 net.cpp:408] pool3 -> pool3
I0615 17:02:14.704643 17583 net.cpp:150] Setting up pool3
I0615 17:02:14.704651 17583 net.cpp:157] Top shape: 32 256 38 38 (11829248)
I0615 17:02:14.704654 17583 net.cpp:165] Memory required for data: 6129877120
I0615 17:02:14.704659 17583 layer_factory.hpp:77] Creating layer conv4_1
I0615 17:02:14.704669 17583 net.cpp:100] Creating Layer conv4_1
I0615 17:02:14.704674 17583 net.cpp:434] conv4_1 <- pool3
I0615 17:02:14.704679 17583 net.cpp:408] conv4_1 -> conv4_1
I0615 17:02:14.711555 17583 net.cpp:150] Setting up conv4_1
I0615 17:02:14.711591 17583 net.cpp:157] Top shape: 32 512 38 38 (23658496)
I0615 17:02:14.711594 17583 net.cpp:165] Memory required for data: 6224511104
I0615 17:02:14.711603 17583 layer_factory.hpp:77] Creating layer relu4_1
I0615 17:02:14.711613 17583 net.cpp:100] Creating Layer relu4_1
I0615 17:02:14.711619 17583 net.cpp:434] relu4_1 <- conv4_1
I0615 17:02:14.711627 17583 net.cpp:395] relu4_1 -> conv4_1 (in-place)
I0615 17:02:14.711695 17583 net.cpp:150] Setting up relu4_1
I0615 17:02:14.711711 17583 net.cpp:157] Top shape: 32 512 38 38 (23658496)
I0615 17:02:14.711714 17583 net.cpp:165] Memory required for data: 6319145088
I0615 17:02:14.711719 17583 layer_factory.hpp:77] Creating layer conv4_2
I0615 17:02:14.711730 17583 net.cpp:100] Creating Layer conv4_2
I0615 17:02:14.711735 17583 net.cpp:434] conv4_2 <- conv4_1
I0615 17:02:14.711740 17583 net.cpp:408] conv4_2 -> conv4_2
I0615 17:02:14.724900 17583 net.cpp:150] Setting up conv4_2
I0615 17:02:14.724932 17583 net.cpp:157] Top shape: 32 512 38 38 (23658496)
I0615 17:02:14.724937 17583 net.cpp:165] Memory required for data: 6413779072
I0615 17:02:14.724957 17583 layer_factory.hpp:77] Creating layer relu4_2
I0615 17:02:14.724968 17583 net.cpp:100] Creating Layer relu4_2
I0615 17:02:14.724973 17583 net.cpp:434] relu4_2 <- conv4_2
I0615 17:02:14.724980 17583 net.cpp:395] relu4_2 -> conv4_2 (in-place)
I0615 17:02:14.725167 17583 net.cpp:150] Setting up relu4_2
I0615 17:02:14.725178 17583 net.cpp:157] Top shape: 32 512 38 38 (23658496)
I0615 17:02:14.725183 17583 net.cpp:165] Memory required for data: 6508413056
I0615 17:02:14.725186 17583 layer_factory.hpp:77] Creating layer conv4_3
I0615 17:02:14.725198 17583 net.cpp:100] Creating Layer conv4_3
I0615 17:02:14.725203 17583 net.cpp:434] conv4_3 <- conv4_2
I0615 17:02:14.725209 17583 net.cpp:408] conv4_3 -> conv4_3
I0615 17:02:14.739339 17583 net.cpp:150] Setting up conv4_3
I0615 17:02:14.739372 17583 net.cpp:157] Top shape: 32 512 38 38 (23658496)
I0615 17:02:14.739377 17583 net.cpp:165] Memory required for data: 6603047040
I0615 17:02:14.739387 17583 layer_factory.hpp:77] Creating layer relu4_3
I0615 17:02:14.739398 17583 net.cpp:100] Creating Layer relu4_3
I0615 17:02:14.739403 17583 net.cpp:434] relu4_3 <- conv4_3
I0615 17:02:14.739413 17583 net.cpp:395] relu4_3 -> conv4_3 (in-place)
I0615 17:02:14.739488 17583 net.cpp:150] Setting up relu4_3
I0615 17:02:14.739497 17583 net.cpp:157] Top shape: 32 512 38 38 (23658496)
I0615 17:02:14.739500 17583 net.cpp:165] Memory required for data: 6697681024
I0615 17:02:14.739504 17583 layer_factory.hpp:77] Creating layer conv4_3_relu4_3_0_split
I0615 17:02:14.739531 17583 net.cpp:100] Creating Layer conv4_3_relu4_3_0_split
I0615 17:02:14.739536 17583 net.cpp:434] conv4_3_relu4_3_0_split <- conv4_3
I0615 17:02:14.739542 17583 net.cpp:408] conv4_3_relu4_3_0_split -> conv4_3_relu4_3_0_split_0
I0615 17:02:14.739548 17583 net.cpp:408] conv4_3_relu4_3_0_split -> conv4_3_relu4_3_0_split_1
I0615 17:02:14.739578 17583 net.cpp:150] Setting up conv4_3_relu4_3_0_split
I0615 17:02:14.739585 17583 net.cpp:157] Top shape: 32 512 38 38 (23658496)
I0615 17:02:14.739589 17583 net.cpp:157] Top shape: 32 512 38 38 (23658496)
I0615 17:02:14.739593 17583 net.cpp:165] Memory required for data: 6886948992
I0615 17:02:14.739596 17583 layer_factory.hpp:77] Creating layer pool4
I0615 17:02:14.739603 17583 net.cpp:100] Creating Layer pool4
I0615 17:02:14.739607 17583 net.cpp:434] pool4 <- conv4_3_relu4_3_0_split_0
I0615 17:02:14.739612 17583 net.cpp:408] pool4 -> pool4
I0615 17:02:14.739639 17583 net.cpp:150] Setting up pool4
I0615 17:02:14.739650 17583 net.cpp:157] Top shape: 32 512 19 19 (5914624)
I0615 17:02:14.739653 17583 net.cpp:165] Memory required for data: 6910607488
I0615 17:02:14.739657 17583 layer_factory.hpp:77] Creating layer conv5_1
I0615 17:02:14.739668 17583 net.cpp:100] Creating Layer conv5_1
I0615 17:02:14.739672 17583 net.cpp:434] conv5_1 <- pool4
I0615 17:02:14.739677 17583 net.cpp:408] conv5_1 -> conv5_1
I0615 17:02:14.753000 17583 net.cpp:150] Setting up conv5_1
I0615 17:02:14.753034 17583 net.cpp:157] Top shape: 32 512 19 19 (5914624)
I0615 17:02:14.753039 17583 net.cpp:165] Memory required for data: 6934265984
I0615 17:02:14.753048 17583 layer_factory.hpp:77] Creating layer relu5_1
I0615 17:02:14.753057 17583 net.cpp:100] Creating Layer relu5_1
I0615 17:02:14.753063 17583 net.cpp:434] relu5_1 <- conv5_1
I0615 17:02:14.753072 17583 net.cpp:395] relu5_1 -> conv5_1 (in-place)
I0615 17:02:14.753264 17583 net.cpp:150] Setting up relu5_1
I0615 17:02:14.753275 17583 net.cpp:157] Top shape: 32 512 19 19 (5914624)
I0615 17:02:14.753279 17583 net.cpp:165] Memory required for data: 6957924480
I0615 17:02:14.753284 17583 layer_factory.hpp:77] Creating layer conv5_2
I0615 17:02:14.753298 17583 net.cpp:100] Creating Layer conv5_2
I0615 17:02:14.753302 17583 net.cpp:434] conv5_2 <- conv5_1
I0615 17:02:14.753311 17583 net.cpp:408] conv5_2 -> conv5_2
I0615 17:02:14.766532 17583 net.cpp:150] Setting up conv5_2
I0615 17:02:14.766569 17583 net.cpp:157] Top shape: 32 512 19 19 (5914624)
I0615 17:02:14.766573 17583 net.cpp:165] Memory required for data: 6981582976
I0615 17:02:14.766583 17583 layer_factory.hpp:77] Creating layer relu5_2
I0615 17:02:14.766595 17583 net.cpp:100] Creating Layer relu5_2
I0615 17:02:14.766602 17583 net.cpp:434] relu5_2 <- conv5_2
I0615 17:02:14.766608 17583 net.cpp:395] relu5_2 -> conv5_2 (in-place)
I0615 17:02:14.766682 17583 net.cpp:150] Setting up relu5_2
I0615 17:02:14.766692 17583 net.cpp:157] Top shape: 32 512 19 19 (5914624)
I0615 17:02:14.766695 17583 net.cpp:165] Memory required for data: 7005241472
I0615 17:02:14.766700 17583 layer_factory.hpp:77] Creating layer conv5_3
I0615 17:02:14.766711 17583 net.cpp:100] Creating Layer conv5_3
I0615 17:02:14.766716 17583 net.cpp:434] conv5_3 <- conv5_2
I0615 17:02:14.766721 17583 net.cpp:408] conv5_3 -> conv5_3
I0615 17:02:14.779856 17583 net.cpp:150] Setting up conv5_3
I0615 17:02:14.779886 17583 net.cpp:157] Top shape: 32 512 19 19 (5914624)
I0615 17:02:14.779891 17583 net.cpp:165] Memory required for data: 7028899968
I0615 17:02:14.779899 17583 layer_factory.hpp:77] Creating layer relu5_3
I0615 17:02:14.779914 17583 net.cpp:100] Creating Layer relu5_3
I0615 17:02:14.779922 17583 net.cpp:434] relu5_3 <- conv5_3
I0615 17:02:14.779928 17583 net.cpp:395] relu5_3 -> conv5_3 (in-place)
I0615 17:02:14.781132 17583 net.cpp:150] Setting up relu5_3
I0615 17:02:14.781147 17583 net.cpp:157] Top shape: 32 512 19 19 (5914624)
I0615 17:02:14.781152 17583 net.cpp:165] Memory required for data: 7052558464
I0615 17:02:14.781157 17583 layer_factory.hpp:77] Creating layer pool5
I0615 17:02:14.781164 17583 net.cpp:100] Creating Layer pool5
I0615 17:02:14.781185 17583 net.cpp:434] pool5 <- conv5_3
I0615 17:02:14.781191 17583 net.cpp:408] pool5 -> pool5
I0615 17:02:14.781234 17583 net.cpp:150] Setting up pool5
I0615 17:02:14.781240 17583 net.cpp:157] Top shape: 32 512 19 19 (5914624)
I0615 17:02:14.781244 17583 net.cpp:165] Memory required for data: 7076216960
I0615 17:02:14.781247 17583 layer_factory.hpp:77] Creating layer fc6
I0615 17:02:14.781280 17583 net.cpp:100] Creating Layer fc6
I0615 17:02:14.781283 17583 net.cpp:434] fc6 <- pool5
I0615 17:02:14.781288 17583 net.cpp:408] fc6 -> fc6
I0615 17:02:14.806077 17583 net.cpp:150] Setting up fc6
I0615 17:02:14.806111 17583 net.cpp:157] Top shape: 32 1024 19 19 (11829248)
I0615 17:02:14.806114 17583 net.cpp:165] Memory required for data: 7123533952
I0615 17:02:14.806123 17583 layer_factory.hpp:77] Creating layer relu6
I0615 17:02:14.806133 17583 net.cpp:100] Creating Layer relu6
I0615 17:02:14.806138 17583 net.cpp:434] relu6 <- fc6
I0615 17:02:14.806145 17583 net.cpp:395] relu6 -> fc6 (in-place)
I0615 17:02:14.806255 17583 net.cpp:150] Setting up relu6
I0615 17:02:14.806264 17583 net.cpp:157] Top shape: 32 1024 19 19 (11829248)
I0615 17:02:14.806268 17583 net.cpp:165] Memory required for data: 7170850944
I0615 17:02:14.806272 17583 layer_factory.hpp:77] Creating layer fc7
I0615 17:02:14.806283 17583 net.cpp:100] Creating Layer fc7
I0615 17:02:14.806288 17583 net.cpp:434] fc7 <- fc6
I0615 17:02:14.806294 17583 net.cpp:408] fc7 -> fc7
I0615 17:02:14.812548 17583 net.cpp:150] Setting up fc7
I0615 17:02:14.812582 17583 net.cpp:157] Top shape: 32 1024 19 19 (11829248)
I0615 17:02:14.812587 17583 net.cpp:165] Memory required for data: 7218167936
I0615 17:02:14.812597 17583 layer_factory.hpp:77] Creating layer relu7
I0615 17:02:14.812608 17583 net.cpp:100] Creating Layer relu7
I0615 17:02:14.812613 17583 net.cpp:434] relu7 <- fc7
I0615 17:02:14.812623 17583 net.cpp:395] relu7 -> fc7 (in-place)
I0615 17:02:14.812799 17583 net.cpp:150] Setting up relu7
I0615 17:02:14.812810 17583 net.cpp:157] Top shape: 32 1024 19 19 (11829248)
I0615 17:02:14.812814 17583 net.cpp:165] Memory required for data: 7265484928
I0615 17:02:14.812817 17583 layer_factory.hpp:77] Creating layer fc7_relu7_0_split
I0615 17:02:14.812826 17583 net.cpp:100] Creating Layer fc7_relu7_0_split
I0615 17:02:14.812830 17583 net.cpp:434] fc7_relu7_0_split <- fc7
I0615 17:02:14.812836 17583 net.cpp:408] fc7_relu7_0_split -> fc7_relu7_0_split_0
I0615 17:02:14.812845 17583 net.cpp:408] fc7_relu7_0_split -> fc7_relu7_0_split_1
I0615 17:02:14.812857 17583 net.cpp:408] fc7_relu7_0_split -> fc7_relu7_0_split_2
I0615 17:02:14.812871 17583 net.cpp:408] fc7_relu7_0_split -> fc7_relu7_0_split_3
I0615 17:02:14.812923 17583 net.cpp:150] Setting up fc7_relu7_0_split
I0615 17:02:14.812929 17583 net.cpp:157] Top shape: 32 1024 19 19 (11829248)
I0615 17:02:14.812935 17583 net.cpp:157] Top shape: 32 1024 19 19 (11829248)
I0615 17:02:14.812939 17583 net.cpp:157] Top shape: 32 1024 19 19 (11829248)
I0615 17:02:14.812943 17583 net.cpp:157] Top shape: 32 1024 19 19 (11829248)
I0615 17:02:14.812947 17583 net.cpp:165] Memory required for data: 7454752896
I0615 17:02:14.812950 17583 layer_factory.hpp:77] Creating layer conv6_1
I0615 17:02:14.812963 17583 net.cpp:100] Creating Layer conv6_1
I0615 17:02:14.812966 17583 net.cpp:434] conv6_1 <- fc7_relu7_0_split_0
I0615 17:02:14.812973 17583 net.cpp:408] conv6_1 -> conv6_1
I0615 17:02:14.815407 17583 net.cpp:150] Setting up conv6_1
I0615 17:02:14.815439 17583 net.cpp:157] Top shape: 32 256 19 19 (2957312)
I0615 17:02:14.815443 17583 net.cpp:165] Memory required for data: 7466582144
I0615 17:02:14.815451 17583 layer_factory.hpp:77] Creating layer conv6_1_relu
I0615 17:02:14.815465 17583 net.cpp:100] Creating Layer conv6_1_relu
I0615 17:02:14.815471 17583 net.cpp:434] conv6_1_relu <- conv6_1
I0615 17:02:14.815479 17583 net.cpp:395] conv6_1_relu -> conv6_1 (in-place)
I0615 17:02:14.815644 17583 net.cpp:150] Setting up conv6_1_relu
I0615 17:02:14.815656 17583 net.cpp:157] Top shape: 32 256 19 19 (2957312)
I0615 17:02:14.815659 17583 net.cpp:165] Memory required for data: 7478411392
I0615 17:02:14.815683 17583 layer_factory.hpp:77] Creating layer conv6_2
I0615 17:02:14.815701 17583 net.cpp:100] Creating Layer conv6_2
I0615 17:02:14.815706 17583 net.cpp:434] conv6_2 <- conv6_1
I0615 17:02:14.815712 17583 net.cpp:408] conv6_2 -> conv6_2
I0615 17:02:14.822729 17583 net.cpp:150] Setting up conv6_2
I0615 17:02:14.822762 17583 net.cpp:157] Top shape: 32 512 10 10 (1638400)
I0615 17:02:14.822767 17583 net.cpp:165] Memory required for data: 7484964992
I0615 17:02:14.822783 17583 layer_factory.hpp:77] Creating layer conv6_2_relu
I0615 17:02:14.822794 17583 net.cpp:100] Creating Layer conv6_2_relu
I0615 17:02:14.822800 17583 net.cpp:434] conv6_2_relu <- conv6_2
I0615 17:02:14.822808 17583 net.cpp:395] conv6_2_relu -> conv6_2 (in-place)
I0615 17:02:14.824111 17583 net.cpp:150] Setting up conv6_2_relu
I0615 17:02:14.824138 17583 net.cpp:157] Top shape: 32 512 10 10 (1638400)
I0615 17:02:14.824142 17583 net.cpp:165] Memory required for data: 7491518592
I0615 17:02:14.824149 17583 layer_factory.hpp:77] Creating layer conv6_2_conv6_2_relu_0_split
I0615 17:02:14.824159 17583 net.cpp:100] Creating Layer conv6_2_conv6_2_relu_0_split
I0615 17:02:14.824172 17583 net.cpp:434] conv6_2_conv6_2_relu_0_split <- conv6_2
I0615 17:02:14.824180 17583 net.cpp:408] conv6_2_conv6_2_relu_0_split -> conv6_2_conv6_2_relu_0_split_0
I0615 17:02:14.824194 17583 net.cpp:408] conv6_2_conv6_2_relu_0_split -> conv6_2_conv6_2_relu_0_split_1
I0615 17:02:14.824200 17583 net.cpp:408] conv6_2_conv6_2_relu_0_split -> conv6_2_conv6_2_relu_0_split_2
I0615 17:02:14.824205 17583 net.cpp:408] conv6_2_conv6_2_relu_0_split -> conv6_2_conv6_2_relu_0_split_3
I0615 17:02:14.824267 17583 net.cpp:150] Setting up conv6_2_conv6_2_relu_0_split
I0615 17:02:14.824275 17583 net.cpp:157] Top shape: 32 512 10 10 (1638400)
I0615 17:02:14.824280 17583 net.cpp:157] Top shape: 32 512 10 10 (1638400)
I0615 17:02:14.824283 17583 net.cpp:157] Top shape: 32 512 10 10 (1638400)
I0615 17:02:14.824287 17583 net.cpp:157] Top shape: 32 512 10 10 (1638400)
I0615 17:02:14.824291 17583 net.cpp:165] Memory required for data: 7517732992
I0615 17:02:14.824295 17583 layer_factory.hpp:77] Creating layer conv7_1
I0615 17:02:14.824306 17583 net.cpp:100] Creating Layer conv7_1
I0615 17:02:14.824311 17583 net.cpp:434] conv7_1 <- conv6_2_conv6_2_relu_0_split_0
I0615 17:02:14.824318 17583 net.cpp:408] conv7_1 -> conv7_1
I0615 17:02:14.825121 17583 net.cpp:150] Setting up conv7_1
I0615 17:02:14.825136 17583 net.cpp:157] Top shape: 32 128 10 10 (409600)
I0615 17:02:14.825140 17583 net.cpp:165] Memory required for data: 7519371392
I0615 17:02:14.825148 17583 layer_factory.hpp:77] Creating layer conv7_1_relu
I0615 17:02:14.825155 17583 net.cpp:100] Creating Layer conv7_1_relu
I0615 17:02:14.825160 17583 net.cpp:434] conv7_1_relu <- conv7_1
I0615 17:02:14.825166 17583 net.cpp:395] conv7_1_relu -> conv7_1 (in-place)
I0615 17:02:14.825367 17583 net.cpp:150] Setting up conv7_1_relu
I0615 17:02:14.825381 17583 net.cpp:157] Top shape: 32 128 10 10 (409600)
I0615 17:02:14.825385 17583 net.cpp:165] Memory required for data: 7521009792
I0615 17:02:14.825389 17583 layer_factory.hpp:77] Creating layer conv7_2
I0615 17:02:14.825400 17583 net.cpp:100] Creating Layer conv7_2
I0615 17:02:14.825405 17583 net.cpp:434] conv7_2 <- conv7_1
I0615 17:02:14.825412 17583 net.cpp:408] conv7_2 -> conv7_2
I0615 17:02:14.827992 17583 net.cpp:150] Setting up conv7_2
I0615 17:02:14.828025 17583 net.cpp:157] Top shape: 32 256 5 5 (204800)
I0615 17:02:14.828029 17583 net.cpp:165] Memory required for data: 7521828992
I0615 17:02:14.828038 17583 layer_factory.hpp:77] Creating layer conv7_2_relu
I0615 17:02:14.828056 17583 net.cpp:100] Creating Layer conv7_2_relu
I0615 17:02:14.828063 17583 net.cpp:434] conv7_2_relu <- conv7_2
I0615 17:02:14.828069 17583 net.cpp:395] conv7_2_relu -> conv7_2 (in-place)
I0615 17:02:14.828143 17583 net.cpp:150] Setting up conv7_2_relu
I0615 17:02:14.828153 17583 net.cpp:157] Top shape: 32 256 5 5 (204800)
I0615 17:02:14.828157 17583 net.cpp:165] Memory required for data: 7522648192
I0615 17:02:14.828179 17583 layer_factory.hpp:77] Creating layer conv7_2_conv7_2_relu_0_split
I0615 17:02:14.828186 17583 net.cpp:100] Creating Layer conv7_2_conv7_2_relu_0_split
I0615 17:02:14.828191 17583 net.cpp:434] conv7_2_conv7_2_relu_0_split <- conv7_2
I0615 17:02:14.828198 17583 net.cpp:408] conv7_2_conv7_2_relu_0_split -> conv7_2_conv7_2_relu_0_split_0
I0615 17:02:14.828205 17583 net.cpp:408] conv7_2_conv7_2_relu_0_split -> conv7_2_conv7_2_relu_0_split_1
I0615 17:02:14.828212 17583 net.cpp:408] conv7_2_conv7_2_relu_0_split -> conv7_2_conv7_2_relu_0_split_2
I0615 17:02:14.828217 17583 net.cpp:408] conv7_2_conv7_2_relu_0_split -> conv7_2_conv7_2_relu_0_split_3
I0615 17:02:14.828263 17583 net.cpp:150] Setting up conv7_2_conv7_2_relu_0_split
I0615 17:02:14.828270 17583 net.cpp:157] Top shape: 32 256 5 5 (204800)
I0615 17:02:14.828274 17583 net.cpp:157] Top shape: 32 256 5 5 (204800)
I0615 17:02:14.828279 17583 net.cpp:157] Top shape: 32 256 5 5 (204800)
I0615 17:02:14.828284 17583 net.cpp:157] Top shape: 32 256 5 5 (204800)
I0615 17:02:14.828286 17583 net.cpp:165] Memory required for data: 7525924992
I0615 17:02:14.828289 17583 layer_factory.hpp:77] Creating layer conv8_1
I0615 17:02:14.828303 17583 net.cpp:100] Creating Layer conv8_1
I0615 17:02:14.828307 17583 net.cpp:434] conv8_1 <- conv7_2_conv7_2_relu_0_split_0
I0615 17:02:14.828313 17583 net.cpp:408] conv8_1 -> conv8_1
I0615 17:02:14.829026 17583 net.cpp:150] Setting up conv8_1
I0615 17:02:14.829039 17583 net.cpp:157] Top shape: 32 128 5 5 (102400)
I0615 17:02:14.829044 17583 net.cpp:165] Memory required for data: 7526334592
I0615 17:02:14.829051 17583 layer_factory.hpp:77] Creating layer conv8_1_relu
I0615 17:02:14.829057 17583 net.cpp:100] Creating Layer conv8_1_relu
I0615 17:02:14.829061 17583 net.cpp:434] conv8_1_relu <- conv8_1
I0615 17:02:14.829069 17583 net.cpp:395] conv8_1_relu -> conv8_1 (in-place)
I0615 17:02:14.829242 17583 net.cpp:150] Setting up conv8_1_relu
I0615 17:02:14.829268 17583 net.cpp:157] Top shape: 32 128 5 5 (102400)
I0615 17:02:14.829273 17583 net.cpp:165] Memory required for data: 7526744192
I0615 17:02:14.829277 17583 layer_factory.hpp:77] Creating layer conv8_2
I0615 17:02:14.829290 17583 net.cpp:100] Creating Layer conv8_2
I0615 17:02:14.829294 17583 net.cpp:434] conv8_2 <- conv8_1
I0615 17:02:14.829300 17583 net.cpp:408] conv8_2 -> conv8_2
I0615 17:02:14.832935 17583 net.cpp:150] Setting up conv8_2
I0615 17:02:14.832960 17583 net.cpp:157] Top shape: 32 256 3 3 (73728)
I0615 17:02:14.832964 17583 net.cpp:165] Memory required for data: 7527039104
I0615 17:02:14.832973 17583 layer_factory.hpp:77] Creating layer conv8_2_relu
I0615 17:02:14.832983 17583 net.cpp:100] Creating Layer conv8_2_relu
I0615 17:02:14.832988 17583 net.cpp:434] conv8_2_relu <- conv8_2
I0615 17:02:14.832998 17583 net.cpp:395] conv8_2_relu -> conv8_2 (in-place)
I0615 17:02:14.833065 17583 net.cpp:150] Setting up conv8_2_relu
I0615 17:02:14.833073 17583 net.cpp:157] Top shape: 32 256 3 3 (73728)
I0615 17:02:14.833076 17583 net.cpp:165] Memory required for data: 7527334016
I0615 17:02:14.833081 17583 layer_factory.hpp:77] Creating layer conv8_2_conv8_2_relu_0_split
I0615 17:02:14.833089 17583 net.cpp:100] Creating Layer conv8_2_conv8_2_relu_0_split
I0615 17:02:14.833094 17583 net.cpp:434] conv8_2_conv8_2_relu_0_split <- conv8_2
I0615 17:02:14.833099 17583 net.cpp:408] conv8_2_conv8_2_relu_0_split -> conv8_2_conv8_2_relu_0_split_0
I0615 17:02:14.833106 17583 net.cpp:408] conv8_2_conv8_2_relu_0_split -> conv8_2_conv8_2_relu_0_split_1
I0615 17:02:14.833112 17583 net.cpp:408] conv8_2_conv8_2_relu_0_split -> conv8_2_conv8_2_relu_0_split_2
I0615 17:02:14.833119 17583 net.cpp:408] conv8_2_conv8_2_relu_0_split -> conv8_2_conv8_2_relu_0_split_3
I0615 17:02:14.833165 17583 net.cpp:150] Setting up conv8_2_conv8_2_relu_0_split
I0615 17:02:14.833173 17583 net.cpp:157] Top shape: 32 256 3 3 (73728)
I0615 17:02:14.833176 17583 net.cpp:157] Top shape: 32 256 3 3 (73728)
I0615 17:02:14.833180 17583 net.cpp:157] Top shape: 32 256 3 3 (73728)
I0615 17:02:14.833200 17583 net.cpp:157] Top shape: 32 256 3 3 (73728)
I0615 17:02:14.833205 17583 net.cpp:165] Memory required for data: 7528513664
I0615 17:02:14.833209 17583 layer_factory.hpp:77] Creating layer conv9_1
I0615 17:02:14.833221 17583 net.cpp:100] Creating Layer conv9_1
I0615 17:02:14.833225 17583 net.cpp:434] conv9_1 <- conv8_2_conv8_2_relu_0_split_0
I0615 17:02:14.833232 17583 net.cpp:408] conv9_1 -> conv9_1
I0615 17:02:14.833932 17583 net.cpp:150] Setting up conv9_1
I0615 17:02:14.833945 17583 net.cpp:157] Top shape: 32 128 3 3 (36864)
I0615 17:02:14.833950 17583 net.cpp:165] Memory required for data: 7528661120
I0615 17:02:14.833956 17583 layer_factory.hpp:77] Creating layer conv9_1_relu
I0615 17:02:14.833963 17583 net.cpp:100] Creating Layer conv9_1_relu
I0615 17:02:14.833968 17583 net.cpp:434] conv9_1_relu <- conv9_1
I0615 17:02:14.833973 17583 net.cpp:395] conv9_1_relu -> conv9_1 (in-place)
I0615 17:02:14.834142 17583 net.cpp:150] Setting up conv9_1_relu
I0615 17:02:14.834152 17583 net.cpp:157] Top shape: 32 128 3 3 (36864)
I0615 17:02:14.834157 17583 net.cpp:165] Memory required for data: 7528808576
I0615 17:02:14.834161 17583 layer_factory.hpp:77] Creating layer conv9_2
I0615 17:02:14.834172 17583 net.cpp:100] Creating Layer conv9_2
I0615 17:02:14.834175 17583 net.cpp:434] conv9_2 <- conv9_1
I0615 17:02:14.834182 17583 net.cpp:408] conv9_2 -> conv9_2
I0615 17:02:14.836835 17583 net.cpp:150] Setting up conv9_2
I0615 17:02:14.836864 17583 net.cpp:157] Top shape: 32 256 1 1 (8192)
I0615 17:02:14.836869 17583 net.cpp:165] Memory required for data: 7528841344
I0615 17:02:14.836877 17583 layer_factory.hpp:77] Creating layer conv9_2_relu
I0615 17:02:14.836889 17583 net.cpp:100] Creating Layer conv9_2_relu
I0615 17:02:14.836896 17583 net.cpp:434] conv9_2_relu <- conv9_2
I0615 17:02:14.836902 17583 net.cpp:395] conv9_2_relu -> conv9_2 (in-place)
I0615 17:02:14.836973 17583 net.cpp:150] Setting up conv9_2_relu
I0615 17:02:14.836982 17583 net.cpp:157] Top shape: 32 256 1 1 (8192)
I0615 17:02:14.836985 17583 net.cpp:165] Memory required for data: 7528874112
I0615 17:02:14.836989 17583 layer_factory.hpp:77] Creating layer conv9_2_conv9_2_relu_0_split
I0615 17:02:14.836998 17583 net.cpp:100] Creating Layer conv9_2_conv9_2_relu_0_split
I0615 17:02:14.837002 17583 net.cpp:434] conv9_2_conv9_2_relu_0_split <- conv9_2
I0615 17:02:14.837007 17583 net.cpp:408] conv9_2_conv9_2_relu_0_split -> conv9_2_conv9_2_relu_0_split_0
I0615 17:02:14.837014 17583 net.cpp:408] conv9_2_conv9_2_relu_0_split -> conv9_2_conv9_2_relu_0_split_1
I0615 17:02:14.837020 17583 net.cpp:408] conv9_2_conv9_2_relu_0_split -> conv9_2_conv9_2_relu_0_split_2
I0615 17:02:14.837057 17583 net.cpp:150] Setting up conv9_2_conv9_2_relu_0_split
I0615 17:02:14.837064 17583 net.cpp:157] Top shape: 32 256 1 1 (8192)
I0615 17:02:14.837067 17583 net.cpp:157] Top shape: 32 256 1 1 (8192)
I0615 17:02:14.837071 17583 net.cpp:157] Top shape: 32 256 1 1 (8192)
I0615 17:02:14.837075 17583 net.cpp:165] Memory required for data: 7528972416
I0615 17:02:14.837078 17583 layer_factory.hpp:77] Creating layer conv4_3_norm
I0615 17:02:14.837087 17583 net.cpp:100] Creating Layer conv4_3_norm
I0615 17:02:14.837092 17583 net.cpp:434] conv4_3_norm <- conv4_3_relu4_3_0_split_1
I0615 17:02:14.837100 17583 net.cpp:408] conv4_3_norm -> conv4_3_norm
I0615 17:02:14.837198 17583 net.cpp:150] Setting up conv4_3_norm
I0615 17:02:14.837205 17583 net.cpp:157] Top shape: 32 512 38 38 (23658496)
I0615 17:02:14.837209 17583 net.cpp:165] Memory required for data: 7623606400
I0615 17:02:14.837214 17583 layer_factory.hpp:77] Creating layer conv4_3_norm_conv4_3_norm_0_split
I0615 17:02:14.837220 17583 net.cpp:100] Creating Layer conv4_3_norm_conv4_3_norm_0_split
I0615 17:02:14.837224 17583 net.cpp:434] conv4_3_norm_conv4_3_norm_0_split <- conv4_3_norm
I0615 17:02:14.837230 17583 net.cpp:408] conv4_3_norm_conv4_3_norm_0_split -> conv4_3_norm_conv4_3_norm_0_split_0
I0615 17:02:14.837236 17583 net.cpp:408] conv4_3_norm_conv4_3_norm_0_split -> conv4_3_norm_conv4_3_norm_0_split_1
I0615 17:02:14.837241 17583 net.cpp:408] conv4_3_norm_conv4_3_norm_0_split -> conv4_3_norm_conv4_3_norm_0_split_2
I0615 17:02:14.837309 17583 net.cpp:150] Setting up conv4_3_norm_conv4_3_norm_0_split
I0615 17:02:14.837316 17583 net.cpp:157] Top shape: 32 512 38 38 (23658496)
I0615 17:02:14.837328 17583 net.cpp:157] Top shape: 32 512 38 38 (23658496)
I0615 17:02:14.837332 17583 net.cpp:157] Top shape: 32 512 38 38 (23658496)
I0615 17:02:14.837335 17583 net.cpp:165] Memory required for data: 7907508352
I0615 17:02:14.837339 17583 layer_factory.hpp:77] Creating layer conv4_3_norm_mbox_loc
I0615 17:02:14.837350 17583 net.cpp:100] Creating Layer conv4_3_norm_mbox_loc
I0615 17:02:14.837354 17583 net.cpp:434] conv4_3_norm_mbox_loc <- conv4_3_norm_conv4_3_norm_0_split_0
I0615 17:02:14.837360 17583 net.cpp:408] conv4_3_norm_mbox_loc -> conv4_3_norm_mbox_loc
I0615 17:02:14.839550 17583 net.cpp:150] Setting up conv4_3_norm_mbox_loc
I0615 17:02:14.839581 17583 net.cpp:157] Top shape: 32 16 38 38 (739328)
I0615 17:02:14.839584 17583 net.cpp:165] Memory required for data: 7910465664
I0615 17:02:14.839596 17583 layer_factory.hpp:77] Creating layer conv4_3_norm_mbox_loc_perm
I0615 17:02:14.839609 17583 net.cpp:100] Creating Layer conv4_3_norm_mbox_loc_perm
I0615 17:02:14.839617 17583 net.cpp:434] conv4_3_norm_mbox_loc_perm <- conv4_3_norm_mbox_loc
I0615 17:02:14.839624 17583 net.cpp:408] conv4_3_norm_mbox_loc_perm -> conv4_3_norm_mbox_loc_perm
I0615 17:02:14.839710 17583 net.cpp:150] Setting up conv4_3_norm_mbox_loc_perm
I0615 17:02:14.839718 17583 net.cpp:157] Top shape: 32 38 38 16 (739328)
I0615 17:02:14.839722 17583 net.cpp:165] Memory required for data: 7913422976
I0615 17:02:14.839726 17583 layer_factory.hpp:77] Creating layer conv4_3_norm_mbox_loc_flat
I0615 17:02:14.839733 17583 net.cpp:100] Creating Layer conv4_3_norm_mbox_loc_flat
I0615 17:02:14.839737 17583 net.cpp:434] conv4_3_norm_mbox_loc_flat <- conv4_3_norm_mbox_loc_perm
I0615 17:02:14.839743 17583 net.cpp:408] conv4_3_norm_mbox_loc_flat -> conv4_3_norm_mbox_loc_flat
I0615 17:02:14.839774 17583 net.cpp:150] Setting up conv4_3_norm_mbox_loc_flat
I0615 17:02:14.839781 17583 net.cpp:157] Top shape: 32 23104 (739328)
I0615 17:02:14.839784 17583 net.cpp:165] Memory required for data: 7916380288
I0615 17:02:14.839788 17583 layer_factory.hpp:77] Creating layer conv4_3_norm_mbox_conf
I0615 17:02:14.839807 17583 net.cpp:100] Creating Layer conv4_3_norm_mbox_conf
I0615 17:02:14.839812 17583 net.cpp:434] conv4_3_norm_mbox_conf <- conv4_3_norm_conv4_3_norm_0_split_1
I0615 17:02:14.839818 17583 net.cpp:408] conv4_3_norm_mbox_conf -> conv4_3_norm_mbox_conf
I0615 17:02:14.841435 17583 net.cpp:150] Setting up conv4_3_norm_mbox_conf
I0615 17:02:14.841460 17583 net.cpp:157] Top shape: 32 44 38 38 (2033152)
I0615 17:02:14.841464 17583 net.cpp:165] Memory required for data: 7924512896
I0615 17:02:14.841475 17583 layer_factory.hpp:77] Creating layer conv4_3_norm_mbox_conf_perm
I0615 17:02:14.841485 17583 net.cpp:100] Creating Layer conv4_3_norm_mbox_conf_perm
I0615 17:02:14.841490 17583 net.cpp:434] conv4_3_norm_mbox_conf_perm <- conv4_3_norm_mbox_conf
I0615 17:02:14.841497 17583 net.cpp:408] conv4_3_norm_mbox_conf_perm -> conv4_3_norm_mbox_conf_perm
I0615 17:02:14.841574 17583 net.cpp:150] Setting up conv4_3_norm_mbox_conf_perm
I0615 17:02:14.841583 17583 net.cpp:157] Top shape: 32 38 38 44 (2033152)
I0615 17:02:14.841586 17583 net.cpp:165] Memory required for data: 7932645504
I0615 17:02:14.841590 17583 layer_factory.hpp:77] Creating layer conv4_3_norm_mbox_conf_flat
I0615 17:02:14.841598 17583 net.cpp:100] Creating Layer conv4_3_norm_mbox_conf_flat
I0615 17:02:14.841601 17583 net.cpp:434] conv4_3_norm_mbox_conf_flat <- conv4_3_norm_mbox_conf_perm
I0615 17:02:14.841606 17583 net.cpp:408] conv4_3_norm_mbox_conf_flat -> conv4_3_norm_mbox_conf_flat
I0615 17:02:14.841625 17583 net.cpp:150] Setting up conv4_3_norm_mbox_conf_flat
I0615 17:02:14.841632 17583 net.cpp:157] Top shape: 32 63536 (2033152)
I0615 17:02:14.841635 17583 net.cpp:165] Memory required for data: 7940778112
I0615 17:02:14.841639 17583 layer_factory.hpp:77] Creating layer conv4_3_norm_mbox_priorbox
I0615 17:02:14.841665 17583 net.cpp:100] Creating Layer conv4_3_norm_mbox_priorbox
I0615 17:02:14.841670 17583 net.cpp:434] conv4_3_norm_mbox_priorbox <- conv4_3_norm_conv4_3_norm_0_split_2
I0615 17:02:14.841676 17583 net.cpp:434] conv4_3_norm_mbox_priorbox <- data_data_0_split_1
I0615 17:02:14.841683 17583 net.cpp:408] conv4_3_norm_mbox_priorbox -> conv4_3_norm_mbox_priorbox
I0615 17:02:14.841708 17583 net.cpp:150] Setting up conv4_3_norm_mbox_priorbox
I0615 17:02:14.841718 17583 net.cpp:157] Top shape: 1 2 23104 (46208)
I0615 17:02:14.841722 17583 net.cpp:165] Memory required for data: 7940962944
I0615 17:02:14.841725 17583 layer_factory.hpp:77] Creating layer fc7_mbox_loc
I0615 17:02:14.841737 17583 net.cpp:100] Creating Layer fc7_mbox_loc
I0615 17:02:14.841742 17583 net.cpp:434] fc7_mbox_loc <- fc7_relu7_0_split_1
I0615 17:02:14.841747 17583 net.cpp:408] fc7_mbox_loc -> fc7_mbox_loc
I0615 17:02:14.843400 17583 net.cpp:150] Setting up fc7_mbox_loc
I0615 17:02:14.843425 17583 net.cpp:157] Top shape: 32 24 19 19 (277248)
I0615 17:02:14.843428 17583 net.cpp:165] Memory required for data: 7942071936
I0615 17:02:14.843437 17583 layer_factory.hpp:77] Creating layer fc7_mbox_loc_perm
I0615 17:02:14.843447 17583 net.cpp:100] Creating Layer fc7_mbox_loc_perm
I0615 17:02:14.843453 17583 net.cpp:434] fc7_mbox_loc_perm <- fc7_mbox_loc
I0615 17:02:14.843461 17583 net.cpp:408] fc7_mbox_loc_perm -> fc7_mbox_loc_perm
I0615 17:02:14.843535 17583 net.cpp:150] Setting up fc7_mbox_loc_perm
I0615 17:02:14.843544 17583 net.cpp:157] Top shape: 32 19 19 24 (277248)
I0615 17:02:14.843546 17583 net.cpp:165] Memory required for data: 7943180928
I0615 17:02:14.843550 17583 layer_factory.hpp:77] Creating layer fc7_mbox_loc_flat
I0615 17:02:14.843559 17583 net.cpp:100] Creating Layer fc7_mbox_loc_flat
I0615 17:02:14.843564 17583 net.cpp:434] fc7_mbox_loc_flat <- fc7_mbox_loc_perm
I0615 17:02:14.843569 17583 net.cpp:408] fc7_mbox_loc_flat -> fc7_mbox_loc_flat
I0615 17:02:14.843587 17583 net.cpp:150] Setting up fc7_mbox_loc_flat
I0615 17:02:14.843592 17583 net.cpp:157] Top shape: 32 8664 (277248)
I0615 17:02:14.843595 17583 net.cpp:165] Memory required for data: 7944289920
I0615 17:02:14.843600 17583 layer_factory.hpp:77] Creating layer fc7_mbox_conf
I0615 17:02:14.843611 17583 net.cpp:100] Creating Layer fc7_mbox_conf
I0615 17:02:14.843616 17583 net.cpp:434] fc7_mbox_conf <- fc7_relu7_0_split_2
I0615 17:02:14.843621 17583 net.cpp:408] fc7_mbox_conf -> fc7_mbox_conf
I0615 17:02:14.847752 17583 net.cpp:150] Setting up fc7_mbox_conf
I0615 17:02:14.847785 17583 net.cpp:157] Top shape: 32 66 19 19 (762432)
I0615 17:02:14.847790 17583 net.cpp:165] Memory required for data: 7947339648
I0615 17:02:14.847798 17583 layer_factory.hpp:77] Creating layer fc7_mbox_conf_perm
I0615 17:02:14.847810 17583 net.cpp:100] Creating Layer fc7_mbox_conf_perm
I0615 17:02:14.847817 17583 net.cpp:434] fc7_mbox_conf_perm <- fc7_mbox_conf
I0615 17:02:14.847824 17583 net.cpp:408] fc7_mbox_conf_perm -> fc7_mbox_conf_perm
I0615 17:02:14.847908 17583 net.cpp:150] Setting up fc7_mbox_conf_perm
I0615 17:02:14.847915 17583 net.cpp:157] Top shape: 32 19 19 66 (762432)
I0615 17:02:14.847919 17583 net.cpp:165] Memory required for data: 7950389376
I0615 17:02:14.847923 17583 layer_factory.hpp:77] Creating layer fc7_mbox_conf_flat
I0615 17:02:14.847930 17583 net.cpp:100] Creating Layer fc7_mbox_conf_flat
I0615 17:02:14.847934 17583 net.cpp:434] fc7_mbox_conf_flat <- fc7_mbox_conf_perm
I0615 17:02:14.847942 17583 net.cpp:408] fc7_mbox_conf_flat -> fc7_mbox_conf_flat
I0615 17:02:14.847960 17583 net.cpp:150] Setting up fc7_mbox_conf_flat
I0615 17:02:14.847965 17583 net.cpp:157] Top shape: 32 23826 (762432)
I0615 17:02:14.847968 17583 net.cpp:165] Memory required for data: 7953439104
I0615 17:02:14.847972 17583 layer_factory.hpp:77] Creating layer fc7_mbox_priorbox
I0615 17:02:14.847983 17583 net.cpp:100] Creating Layer fc7_mbox_priorbox
I0615 17:02:14.847987 17583 net.cpp:434] fc7_mbox_priorbox <- fc7_relu7_0_split_3
I0615 17:02:14.847993 17583 net.cpp:434] fc7_mbox_priorbox <- data_data_0_split_2
I0615 17:02:14.848018 17583 net.cpp:408] fc7_mbox_priorbox -> fc7_mbox_priorbox
I0615 17:02:14.848043 17583 net.cpp:150] Setting up fc7_mbox_priorbox
I0615 17:02:14.848048 17583 net.cpp:157] Top shape: 1 2 8664 (17328)
I0615 17:02:14.848052 17583 net.cpp:165] Memory required for data: 7953508416
I0615 17:02:14.848055 17583 layer_factory.hpp:77] Creating layer conv6_2_mbox_loc
I0615 17:02:14.848068 17583 net.cpp:100] Creating Layer conv6_2_mbox_loc
I0615 17:02:14.848073 17583 net.cpp:434] conv6_2_mbox_loc <- conv6_2_conv6_2_relu_0_split_1
I0615 17:02:14.848079 17583 net.cpp:408] conv6_2_mbox_loc -> conv6_2_mbox_loc
I0615 17:02:14.850487 17583 net.cpp:150] Setting up conv6_2_mbox_loc
I0615 17:02:14.850517 17583 net.cpp:157] Top shape: 32 24 10 10 (76800)
I0615 17:02:14.850520 17583 net.cpp:165] Memory required for data: 7953815616
I0615 17:02:14.850531 17583 layer_factory.hpp:77] Creating layer conv6_2_mbox_loc_perm
I0615 17:02:14.850544 17583 net.cpp:100] Creating Layer conv6_2_mbox_loc_perm
I0615 17:02:14.850553 17583 net.cpp:434] conv6_2_mbox_loc_perm <- conv6_2_mbox_loc
I0615 17:02:14.850559 17583 net.cpp:408] conv6_2_mbox_loc_perm -> conv6_2_mbox_loc_perm
I0615 17:02:14.850648 17583 net.cpp:150] Setting up conv6_2_mbox_loc_perm
I0615 17:02:14.850657 17583 net.cpp:157] Top shape: 32 10 10 24 (76800)
I0615 17:02:14.850661 17583 net.cpp:165] Memory required for data: 7954122816
I0615 17:02:14.850664 17583 layer_factory.hpp:77] Creating layer conv6_2_mbox_loc_flat
I0615 17:02:14.850672 17583 net.cpp:100] Creating Layer conv6_2_mbox_loc_flat
I0615 17:02:14.850675 17583 net.cpp:434] conv6_2_mbox_loc_flat <- conv6_2_mbox_loc_perm
I0615 17:02:14.850682 17583 net.cpp:408] conv6_2_mbox_loc_flat -> conv6_2_mbox_loc_flat
I0615 17:02:14.850701 17583 net.cpp:150] Setting up conv6_2_mbox_loc_flat
I0615 17:02:14.850713 17583 net.cpp:157] Top shape: 32 2400 (76800)
I0615 17:02:14.850716 17583 net.cpp:165] Memory required for data: 7954430016
I0615 17:02:14.850720 17583 layer_factory.hpp:77] Creating layer conv6_2_mbox_conf
I0615 17:02:14.850733 17583 net.cpp:100] Creating Layer conv6_2_mbox_conf
I0615 17:02:14.850736 17583 net.cpp:434] conv6_2_mbox_conf <- conv6_2_conv6_2_relu_0_split_2
I0615 17:02:14.850744 17583 net.cpp:408] conv6_2_mbox_conf -> conv6_2_mbox_conf
I0615 17:02:14.853400 17583 net.cpp:150] Setting up conv6_2_mbox_conf
I0615 17:02:14.853433 17583 net.cpp:157] Top shape: 32 66 10 10 (211200)
I0615 17:02:14.853440 17583 net.cpp:165] Memory required for data: 7955274816
I0615 17:02:14.853454 17583 layer_factory.hpp:77] Creating layer conv6_2_mbox_conf_perm
I0615 17:02:14.853469 17583 net.cpp:100] Creating Layer conv6_2_mbox_conf_perm
I0615 17:02:14.853477 17583 net.cpp:434] conv6_2_mbox_conf_perm <- conv6_2_mbox_conf
I0615 17:02:14.853487 17583 net.cpp:408] conv6_2_mbox_conf_perm -> conv6_2_mbox_conf_perm
I0615 17:02:14.853571 17583 net.cpp:150] Setting up conv6_2_mbox_conf_perm
I0615 17:02:14.853579 17583 net.cpp:157] Top shape: 32 10 10 66 (211200)
I0615 17:02:14.853582 17583 net.cpp:165] Memory required for data: 7956119616
I0615 17:02:14.853586 17583 layer_factory.hpp:77] Creating layer conv6_2_mbox_conf_flat
I0615 17:02:14.853595 17583 net.cpp:100] Creating Layer conv6_2_mbox_conf_flat
I0615 17:02:14.853600 17583 net.cpp:434] conv6_2_mbox_conf_flat <- conv6_2_mbox_conf_perm
I0615 17:02:14.853605 17583 net.cpp:408] conv6_2_mbox_conf_flat -> conv6_2_mbox_conf_flat
I0615 17:02:14.853623 17583 net.cpp:150] Setting up conv6_2_mbox_conf_flat
I0615 17:02:14.853629 17583 net.cpp:157] Top shape: 32 6600 (211200)
I0615 17:02:14.853632 17583 net.cpp:165] Memory required for data: 7956964416
I0615 17:02:14.853636 17583 layer_factory.hpp:77] Creating layer conv6_2_mbox_priorbox
I0615 17:02:14.853644 17583 net.cpp:100] Creating Layer conv6_2_mbox_priorbox
I0615 17:02:14.853649 17583 net.cpp:434] conv6_2_mbox_priorbox <- conv6_2_conv6_2_relu_0_split_3
I0615 17:02:14.853654 17583 net.cpp:434] conv6_2_mbox_priorbox <- data_data_0_split_3
I0615 17:02:14.853659 17583 net.cpp:408] conv6_2_mbox_priorbox -> conv6_2_mbox_priorbox
I0615 17:02:14.853701 17583 net.cpp:150] Setting up conv6_2_mbox_priorbox
I0615 17:02:14.853709 17583 net.cpp:157] Top shape: 1 2 2400 (4800)
I0615 17:02:14.853713 17583 net.cpp:165] Memory required for data: 7956983616
I0615 17:02:14.853716 17583 layer_factory.hpp:77] Creating layer conv7_2_mbox_loc
I0615 17:02:14.853729 17583 net.cpp:100] Creating Layer conv7_2_mbox_loc
I0615 17:02:14.853734 17583 net.cpp:434] conv7_2_mbox_loc <- conv7_2_conv7_2_relu_0_split_1
I0615 17:02:14.853740 17583 net.cpp:408] conv7_2_mbox_loc -> conv7_2_mbox_loc
I0615 17:02:14.854543 17583 net.cpp:150] Setting up conv7_2_mbox_loc
I0615 17:02:14.854557 17583 net.cpp:157] Top shape: 32 24 5 5 (19200)
I0615 17:02:14.854560 17583 net.cpp:165] Memory required for data: 7957060416
I0615 17:02:14.854566 17583 layer_factory.hpp:77] Creating layer conv7_2_mbox_loc_perm
I0615 17:02:14.854574 17583 net.cpp:100] Creating Layer conv7_2_mbox_loc_perm
I0615 17:02:14.854578 17583 net.cpp:434] conv7_2_mbox_loc_perm <- conv7_2_mbox_loc
I0615 17:02:14.854584 17583 net.cpp:408] conv7_2_mbox_loc_perm -> conv7_2_mbox_loc_perm
I0615 17:02:14.854655 17583 net.cpp:150] Setting up conv7_2_mbox_loc_perm
I0615 17:02:14.854662 17583 net.cpp:157] Top shape: 32 5 5 24 (19200)
I0615 17:02:14.854665 17583 net.cpp:165] Memory required for data: 7957137216
I0615 17:02:14.854671 17583 layer_factory.hpp:77] Creating layer conv7_2_mbox_loc_flat
I0615 17:02:14.854676 17583 net.cpp:100] Creating Layer conv7_2_mbox_loc_flat
I0615 17:02:14.854679 17583 net.cpp:434] conv7_2_mbox_loc_flat <- conv7_2_mbox_loc_perm
I0615 17:02:14.854686 17583 net.cpp:408] conv7_2_mbox_loc_flat -> conv7_2_mbox_loc_flat
I0615 17:02:14.854703 17583 net.cpp:150] Setting up conv7_2_mbox_loc_flat
I0615 17:02:14.854708 17583 net.cpp:157] Top shape: 32 600 (19200)
I0615 17:02:14.854712 17583 net.cpp:165] Memory required for data: 7957214016
I0615 17:02:14.854714 17583 layer_factory.hpp:77] Creating layer conv7_2_mbox_conf
I0615 17:02:14.854724 17583 net.cpp:100] Creating Layer conv7_2_mbox_conf
I0615 17:02:14.854728 17583 net.cpp:434] conv7_2_mbox_conf <- conv7_2_conv7_2_relu_0_split_2
I0615 17:02:14.854735 17583 net.cpp:408] conv7_2_mbox_conf -> conv7_2_mbox_conf
I0615 17:02:14.855932 17583 net.cpp:150] Setting up conv7_2_mbox_conf
I0615 17:02:14.855944 17583 net.cpp:157] Top shape: 32 66 5 5 (52800)
I0615 17:02:14.855948 17583 net.cpp:165] Memory required for data: 7957425216
I0615 17:02:14.855954 17583 layer_factory.hpp:77] Creating layer conv7_2_mbox_conf_perm
I0615 17:02:14.855962 17583 net.cpp:100] Creating Layer conv7_2_mbox_conf_perm
I0615 17:02:14.855967 17583 net.cpp:434] conv7_2_mbox_conf_perm <- conv7_2_mbox_conf
I0615 17:02:14.855974 17583 net.cpp:408] conv7_2_mbox_conf_perm -> conv7_2_mbox_conf_perm
I0615 17:02:14.856045 17583 net.cpp:150] Setting up conv7_2_mbox_conf_perm
I0615 17:02:14.856052 17583 net.cpp:157] Top shape: 32 5 5 66 (52800)
I0615 17:02:14.856056 17583 net.cpp:165] Memory required for data: 7957636416
I0615 17:02:14.856060 17583 layer_factory.hpp:77] Creating layer conv7_2_mbox_conf_flat
I0615 17:02:14.856067 17583 net.cpp:100] Creating Layer conv7_2_mbox_conf_flat
I0615 17:02:14.856071 17583 net.cpp:434] conv7_2_mbox_conf_flat <- conv7_2_mbox_conf_perm
I0615 17:02:14.856076 17583 net.cpp:408] conv7_2_mbox_conf_flat -> conv7_2_mbox_conf_flat
I0615 17:02:14.856094 17583 net.cpp:150] Setting up conv7_2_mbox_conf_flat
I0615 17:02:14.856098 17583 net.cpp:157] Top shape: 32 1650 (52800)
I0615 17:02:14.856101 17583 net.cpp:165] Memory required for data: 7957847616
I0615 17:02:14.856106 17583 layer_factory.hpp:77] Creating layer conv7_2_mbox_priorbox
I0615 17:02:14.856113 17583 net.cpp:100] Creating Layer conv7_2_mbox_priorbox
I0615 17:02:14.856117 17583 net.cpp:434] conv7_2_mbox_priorbox <- conv7_2_conv7_2_relu_0_split_3
I0615 17:02:14.856122 17583 net.cpp:434] conv7_2_mbox_priorbox <- data_data_0_split_4
I0615 17:02:14.856128 17583 net.cpp:408] conv7_2_mbox_priorbox -> conv7_2_mbox_priorbox
I0615 17:02:14.856148 17583 net.cpp:150] Setting up conv7_2_mbox_priorbox
I0615 17:02:14.856163 17583 net.cpp:157] Top shape: 1 2 600 (1200)
I0615 17:02:14.856166 17583 net.cpp:165] Memory required for data: 7957852416
I0615 17:02:14.856170 17583 layer_factory.hpp:77] Creating layer conv8_2_mbox_loc
I0615 17:02:14.856179 17583 net.cpp:100] Creating Layer conv8_2_mbox_loc
I0615 17:02:14.856184 17583 net.cpp:434] conv8_2_mbox_loc <- conv8_2_conv8_2_relu_0_split_1
I0615 17:02:14.856190 17583 net.cpp:408] conv8_2_mbox_loc -> conv8_2_mbox_loc
I0615 17:02:14.856921 17583 net.cpp:150] Setting up conv8_2_mbox_loc
I0615 17:02:14.856933 17583 net.cpp:157] Top shape: 32 16 3 3 (4608)
I0615 17:02:14.856937 17583 net.cpp:165] Memory required for data: 7957870848
I0615 17:02:14.856951 17583 layer_factory.hpp:77] Creating layer conv8_2_mbox_loc_perm
I0615 17:02:14.856961 17583 net.cpp:100] Creating Layer conv8_2_mbox_loc_perm
I0615 17:02:14.856964 17583 net.cpp:434] conv8_2_mbox_loc_perm <- conv8_2_mbox_loc
I0615 17:02:14.856971 17583 net.cpp:408] conv8_2_mbox_loc_perm -> conv8_2_mbox_loc_perm
I0615 17:02:14.857039 17583 net.cpp:150] Setting up conv8_2_mbox_loc_perm
I0615 17:02:14.857048 17583 net.cpp:157] Top shape: 32 3 3 16 (4608)
I0615 17:02:14.857050 17583 net.cpp:165] Memory required for data: 7957889280
I0615 17:02:14.857054 17583 layer_factory.hpp:77] Creating layer conv8_2_mbox_loc_flat
I0615 17:02:14.857061 17583 net.cpp:100] Creating Layer conv8_2_mbox_loc_flat
I0615 17:02:14.857066 17583 net.cpp:434] conv8_2_mbox_loc_flat <- conv8_2_mbox_loc_perm
I0615 17:02:14.857071 17583 net.cpp:408] conv8_2_mbox_loc_flat -> conv8_2_mbox_loc_flat
I0615 17:02:14.857089 17583 net.cpp:150] Setting up conv8_2_mbox_loc_flat
I0615 17:02:14.857093 17583 net.cpp:157] Top shape: 32 144 (4608)
I0615 17:02:14.857097 17583 net.cpp:165] Memory required for data: 7957907712
I0615 17:02:14.857100 17583 layer_factory.hpp:77] Creating layer conv8_2_mbox_conf
I0615 17:02:14.857110 17583 net.cpp:100] Creating Layer conv8_2_mbox_conf
I0615 17:02:14.857113 17583 net.cpp:434] conv8_2_mbox_conf <- conv8_2_conv8_2_relu_0_split_2
I0615 17:02:14.857120 17583 net.cpp:408] conv8_2_mbox_conf -> conv8_2_mbox_conf
I0615 17:02:14.859257 17583 net.cpp:150] Setting up conv8_2_mbox_conf
I0615 17:02:14.859280 17583 net.cpp:157] Top shape: 32 44 3 3 (12672)
I0615 17:02:14.859284 17583 net.cpp:165] Memory required for data: 7957958400
I0615 17:02:14.859293 17583 layer_factory.hpp:77] Creating layer conv8_2_mbox_conf_perm
I0615 17:02:14.859302 17583 net.cpp:100] Creating Layer conv8_2_mbox_conf_perm
I0615 17:02:14.859308 17583 net.cpp:434] conv8_2_mbox_conf_perm <- conv8_2_mbox_conf
I0615 17:02:14.859314 17583 net.cpp:408] conv8_2_mbox_conf_perm -> conv8_2_mbox_conf_perm
I0615 17:02:14.859390 17583 net.cpp:150] Setting up conv8_2_mbox_conf_perm
I0615 17:02:14.859398 17583 net.cpp:157] Top shape: 32 3 3 44 (12672)
I0615 17:02:14.859401 17583 net.cpp:165] Memory required for data: 7958009088
I0615 17:02:14.859405 17583 layer_factory.hpp:77] Creating layer conv8_2_mbox_conf_flat
I0615 17:02:14.859413 17583 net.cpp:100] Creating Layer conv8_2_mbox_conf_flat
I0615 17:02:14.859417 17583 net.cpp:434] conv8_2_mbox_conf_flat <- conv8_2_mbox_conf_perm
I0615 17:02:14.859422 17583 net.cpp:408] conv8_2_mbox_conf_flat -> conv8_2_mbox_conf_flat
I0615 17:02:14.859441 17583 net.cpp:150] Setting up conv8_2_mbox_conf_flat
I0615 17:02:14.859447 17583 net.cpp:157] Top shape: 32 396 (12672)
I0615 17:02:14.859450 17583 net.cpp:165] Memory required for data: 7958059776
I0615 17:02:14.859454 17583 layer_factory.hpp:77] Creating layer conv8_2_mbox_priorbox
I0615 17:02:14.859462 17583 net.cpp:100] Creating Layer conv8_2_mbox_priorbox
I0615 17:02:14.859467 17583 net.cpp:434] conv8_2_mbox_priorbox <- conv8_2_conv8_2_relu_0_split_3
I0615 17:02:14.859472 17583 net.cpp:434] conv8_2_mbox_priorbox <- data_data_0_split_5
I0615 17:02:14.859477 17583 net.cpp:408] conv8_2_mbox_priorbox -> conv8_2_mbox_priorbox
I0615 17:02:14.859498 17583 net.cpp:150] Setting up conv8_2_mbox_priorbox
I0615 17:02:14.859503 17583 net.cpp:157] Top shape: 1 2 144 (288)
I0615 17:02:14.859506 17583 net.cpp:165] Memory required for data: 7958060928
I0615 17:02:14.859525 17583 layer_factory.hpp:77] Creating layer conv9_2_mbox_loc
I0615 17:02:14.859535 17583 net.cpp:100] Creating Layer conv9_2_mbox_loc
I0615 17:02:14.859540 17583 net.cpp:434] conv9_2_mbox_loc <- conv9_2_conv9_2_relu_0_split_0
I0615 17:02:14.859547 17583 net.cpp:408] conv9_2_mbox_loc -> conv9_2_mbox_loc
I0615 17:02:14.860359 17583 net.cpp:150] Setting up conv9_2_mbox_loc
I0615 17:02:14.860371 17583 net.cpp:157] Top shape: 32 16 1 1 (512)
I0615 17:02:14.860376 17583 net.cpp:165] Memory required for data: 7958062976
I0615 17:02:14.860383 17583 layer_factory.hpp:77] Creating layer conv9_2_mbox_loc_perm
I0615 17:02:14.860388 17583 net.cpp:100] Creating Layer conv9_2_mbox_loc_perm
I0615 17:02:14.860392 17583 net.cpp:434] conv9_2_mbox_loc_perm <- conv9_2_mbox_loc
I0615 17:02:14.860400 17583 net.cpp:408] conv9_2_mbox_loc_perm -> conv9_2_mbox_loc_perm
I0615 17:02:14.860479 17583 net.cpp:150] Setting up conv9_2_mbox_loc_perm
I0615 17:02:14.860486 17583 net.cpp:157] Top shape: 32 1 1 16 (512)
I0615 17:02:14.860489 17583 net.cpp:165] Memory required for data: 7958065024
I0615 17:02:14.860494 17583 layer_factory.hpp:77] Creating layer conv9_2_mbox_loc_flat
I0615 17:02:14.860500 17583 net.cpp:100] Creating Layer conv9_2_mbox_loc_flat
I0615 17:02:14.860504 17583 net.cpp:434] conv9_2_mbox_loc_flat <- conv9_2_mbox_loc_perm
I0615 17:02:14.860509 17583 net.cpp:408] conv9_2_mbox_loc_flat -> conv9_2_mbox_loc_flat
I0615 17:02:14.860528 17583 net.cpp:150] Setting up conv9_2_mbox_loc_flat
I0615 17:02:14.860533 17583 net.cpp:157] Top shape: 32 16 (512)
I0615 17:02:14.860536 17583 net.cpp:165] Memory required for data: 7958067072
I0615 17:02:14.860539 17583 layer_factory.hpp:77] Creating layer conv9_2_mbox_conf
I0615 17:02:14.860550 17583 net.cpp:100] Creating Layer conv9_2_mbox_conf
I0615 17:02:14.860555 17583 net.cpp:434] conv9_2_mbox_conf <- conv9_2_conv9_2_relu_0_split_1
I0615 17:02:14.860561 17583 net.cpp:408] conv9_2_mbox_conf -> conv9_2_mbox_conf
I0615 17:02:14.861596 17583 net.cpp:150] Setting up conv9_2_mbox_conf
I0615 17:02:14.861610 17583 net.cpp:157] Top shape: 32 44 1 1 (1408)
I0615 17:02:14.861613 17583 net.cpp:165] Memory required for data: 7958072704
I0615 17:02:14.861620 17583 layer_factory.hpp:77] Creating layer conv9_2_mbox_conf_perm
I0615 17:02:14.861626 17583 net.cpp:100] Creating Layer conv9_2_mbox_conf_perm
I0615 17:02:14.861632 17583 net.cpp:434] conv9_2_mbox_conf_perm <- conv9_2_mbox_conf
I0615 17:02:14.861639 17583 net.cpp:408] conv9_2_mbox_conf_perm -> conv9_2_mbox_conf_perm
I0615 17:02:14.861711 17583 net.cpp:150] Setting up conv9_2_mbox_conf_perm
I0615 17:02:14.861717 17583 net.cpp:157] Top shape: 32 1 1 44 (1408)
I0615 17:02:14.861721 17583 net.cpp:165] Memory required for data: 7958078336
I0615 17:02:14.861726 17583 layer_factory.hpp:77] Creating layer conv9_2_mbox_conf_flat
I0615 17:02:14.861732 17583 net.cpp:100] Creating Layer conv9_2_mbox_conf_flat
I0615 17:02:14.861737 17583 net.cpp:434] conv9_2_mbox_conf_flat <- conv9_2_mbox_conf_perm
I0615 17:02:14.861742 17583 net.cpp:408] conv9_2_mbox_conf_flat -> conv9_2_mbox_conf_flat
I0615 17:02:14.861759 17583 net.cpp:150] Setting up conv9_2_mbox_conf_flat
I0615 17:02:14.861763 17583 net.cpp:157] Top shape: 32 44 (1408)
I0615 17:02:14.861768 17583 net.cpp:165] Memory required for data: 7958083968
I0615 17:02:14.861771 17583 layer_factory.hpp:77] Creating layer conv9_2_mbox_priorbox
I0615 17:02:14.861779 17583 net.cpp:100] Creating Layer conv9_2_mbox_priorbox
I0615 17:02:14.861783 17583 net.cpp:434] conv9_2_mbox_priorbox <- conv9_2_conv9_2_relu_0_split_2
I0615 17:02:14.861788 17583 net.cpp:434] conv9_2_mbox_priorbox <- data_data_0_split_6
I0615 17:02:14.861795 17583 net.cpp:408] conv9_2_mbox_priorbox -> conv9_2_mbox_priorbox
I0615 17:02:14.861814 17583 net.cpp:150] Setting up conv9_2_mbox_priorbox
I0615 17:02:14.861819 17583 net.cpp:157] Top shape: 1 2 16 (32)
I0615 17:02:14.861821 17583 net.cpp:165] Memory required for data: 7958084096
I0615 17:02:14.861825 17583 layer_factory.hpp:77] Creating layer mbox_loc
I0615 17:02:14.861845 17583 net.cpp:100] Creating Layer mbox_loc
I0615 17:02:14.861850 17583 net.cpp:434] mbox_loc <- conv4_3_norm_mbox_loc_flat
I0615 17:02:14.861855 17583 net.cpp:434] mbox_loc <- fc7_mbox_loc_flat
I0615 17:02:14.861861 17583 net.cpp:434] mbox_loc <- conv6_2_mbox_loc_flat
I0615 17:02:14.861865 17583 net.cpp:434] mbox_loc <- conv7_2_mbox_loc_flat
I0615 17:02:14.861871 17583 net.cpp:434] mbox_loc <- conv8_2_mbox_loc_flat
I0615 17:02:14.861874 17583 net.cpp:434] mbox_loc <- conv9_2_mbox_loc_flat
I0615 17:02:14.861881 17583 net.cpp:408] mbox_loc -> mbox_loc
I0615 17:02:14.861904 17583 net.cpp:150] Setting up mbox_loc
I0615 17:02:14.861910 17583 net.cpp:157] Top shape: 32 34928 (1117696)
I0615 17:02:14.861913 17583 net.cpp:165] Memory required for data: 7962554880
I0615 17:02:14.861917 17583 layer_factory.hpp:77] Creating layer mbox_conf
I0615 17:02:14.861922 17583 net.cpp:100] Creating Layer mbox_conf
I0615 17:02:14.861927 17583 net.cpp:434] mbox_conf <- conv4_3_norm_mbox_conf_flat
I0615 17:02:14.861932 17583 net.cpp:434] mbox_conf <- fc7_mbox_conf_flat
I0615 17:02:14.861937 17583 net.cpp:434] mbox_conf <- conv6_2_mbox_conf_flat
I0615 17:02:14.861940 17583 net.cpp:434] mbox_conf <- conv7_2_mbox_conf_flat
I0615 17:02:14.861944 17583 net.cpp:434] mbox_conf <- conv8_2_mbox_conf_flat
I0615 17:02:14.861948 17583 net.cpp:434] mbox_conf <- conv9_2_mbox_conf_flat
I0615 17:02:14.861955 17583 net.cpp:408] mbox_conf -> mbox_conf
I0615 17:02:14.861972 17583 net.cpp:150] Setting up mbox_conf
I0615 17:02:14.861976 17583 net.cpp:157] Top shape: 32 96052 (3073664)
I0615 17:02:14.861979 17583 net.cpp:165] Memory required for data: 7974849536
I0615 17:02:14.861984 17583 layer_factory.hpp:77] Creating layer mbox_priorbox
I0615 17:02:14.861989 17583 net.cpp:100] Creating Layer mbox_priorbox
I0615 17:02:14.861992 17583 net.cpp:434] mbox_priorbox <- conv4_3_norm_mbox_priorbox
I0615 17:02:14.861997 17583 net.cpp:434] mbox_priorbox <- fc7_mbox_priorbox
I0615 17:02:14.862001 17583 net.cpp:434] mbox_priorbox <- conv6_2_mbox_priorbox
I0615 17:02:14.862005 17583 net.cpp:434] mbox_priorbox <- conv7_2_mbox_priorbox
I0615 17:02:14.862010 17583 net.cpp:434] mbox_priorbox <- conv8_2_mbox_priorbox
I0615 17:02:14.862013 17583 net.cpp:434] mbox_priorbox <- conv9_2_mbox_priorbox
I0615 17:02:14.862020 17583 net.cpp:408] mbox_priorbox -> mbox_priorbox
I0615 17:02:14.862035 17583 net.cpp:150] Setting up mbox_priorbox
I0615 17:02:14.862040 17583 net.cpp:157] Top shape: 1 2 34928 (69856)
I0615 17:02:14.862043 17583 net.cpp:165] Memory required for data: 7975128960
I0615 17:02:14.862047 17583 layer_factory.hpp:77] Creating layer mbox_loss
I0615 17:02:14.862056 17583 net.cpp:100] Creating Layer mbox_loss
I0615 17:02:14.862059 17583 net.cpp:434] mbox_loss <- mbox_loc
I0615 17:02:14.862063 17583 net.cpp:434] mbox_loss <- mbox_conf
I0615 17:02:14.862068 17583 net.cpp:434] mbox_loss <- mbox_priorbox
…
  phase: TEST
}
layer {
  name: "data"
  type: "AnnotatedData"
  top: "data"
  top: "label"
  include {
    phase: TEST
  }
  transform_param {
    mean_value: 104
    mean_value: 117
    mean_value: 123
    resize_param {
      prob: 1
      resize_mode: WARP
      height: 300
      width: 300
      interp_mode: LINEAR
    }
  }
  data_param {
    source: "examples/NWPU_VHR/NWPU_VHR_test_lmdb"
    batch_size: 1
    backend: LMDB
  }
  annotated_data_param {
    batch_sampler {
    }
    label_map_file: "data/NWPU_VHR/labelmap_NWPU_VHR.prototxt"
  }
}
layer {
  name: "conv1_1"
  type: "Convolution"
  bottom: "data"
  top: "conv1_1"
  param {
    lr_mult: 1
    decay_mult: 1
  }
  param {
    lr_mult: 2
    decay_mult: 0
  }
  convolution_param {
    num_output: 64
    pad: 1
    kernel_size: 3
    weight_filler {
      type: "xavier"
    }
    bias_filler {
      type: "constant"
      value: 0
    }
  }
}
layer {
  name: "relu1_1"
  type: "ReLU"
  bottom: "conv1_1"
  top: "conv1_1"
}
layer {
  name: "conv1_2"
  type: "Convolution"
  bottom: "conv1_1"
  top: "conv1_2"
  param {
    lr_mult: 1
    decay_mult: 1
  }
  param {
    lr_mult: 2
    decay_mult: 0
  }
  convolution_param {
    num_output: 64
    pad: 1
    kernel_size: 3
    weight_filler {
      type: "xavier"
    }
    bias_filler {
      type: "constant"
      value: 0
    }
  }
}
layer {
  name: "relu1_2"
  type: "ReLU"
  bottom: "conv1_2"
  top: "conv1_2"
}
layer {
  name: "pool1"
  type: "Pooling"
  bottom: "conv1_2"
  top: "pool1"
  pooling_param {
    pool: MAX
    kernel_size: 2
    stride: 2
  }
}
layer {
  name: "conv2_1"
  type: "Convolution"
  bottom: "pool1"
  top: "conv2_1"
  param {
    lr_mult: 1
    decay_mult: 1
  }
  param {
    lr_mult: 2
    decay_mult: 0
  }
  convolution_param {
    num_output: 128
    pad: 1
    kernel_size: 3
    weight_filler {
      type: "xavier"
    }
    bias_filler {
      type: "constant"
      value: 0
    }
  }
}
layer {
  name: "relu2_1"
  type: "ReLU"
  bottom: "conv2_1"
  top: "conv2_1"
}
layer {
  name: "conv2_2"
  type: "Convolution"
  bottom: "conv2_1"
  top: "conv2_2"
  param {
    lr_mult: 1
    decay_mult: 1
  }
  param {
    lr_mult: 2
    decay_mult: 0
  }
  convolution_param {
    num_output: 128
    pad: 1
    kernel_size: 3
    weight_filler {
      type: "xavier"
    }
    bias_filler {
      type: "constant"
      value: 0
    }
  }
}
layer {
  name: "relu2_2"
  type: "ReLU"
  bottom: "conv2_2"
  top: "conv2_2"
}
layer {
  name: "pool2"
  type: "Pooling"
  bottom: "conv2_2"
  top: "pool2"
  pooling_param {
    pool: MAX
    kernel_size: 2
    stride: 2
  }
}
layer {
  name: "conv3_1"
  type: "Convolution"
  bottom: "pool2"
  top: "conv3_1"
  param {
    lr_mult: 1
    decay_mult: 1
  }
  param {
    lr_mult: 2
    decay_mult: 0
  }
  convolution_param {
    num_output: 256
    pad: 1
    kernel_size: 3
    weight_filler {
      type: "xavier"
    }
    bias_filler {
      type: "constant"
      value: 0
    }
  }
}
layer {
  name: "relu3_1"
  type: "ReLU"
  bottom: "conv3_1"
  top: "conv3_1"
}
layer {
  name: "conv3_2"
  type: "Convolution"
  bottom: "conv3_1"
  top: "conv3_2"
  param {
    lr_mult: 1
    decay_mult: 1
  }
  param {
    lr_mult: 2
    decay_mult: 0
  }
  convolution_param {
    num_output: 256
    pad: 1
    kernel_size: 3
    weight_filler {
      type: "xavier"
    }
    bias_filler {
      type: "constant"
      value: 0
    }
  }
}
layer {
  name: "relu3_2"
  type: "ReLU"
  bottom: "conv3_2"
  top: "conv3_2"
}
layer {
  name: "conv3_3"
  type: "Convolution"
  bottom: "conv3_2"
  top: "conv3_3"
  param {
    lr_mult: 1
    decay_mult: 1
  }
  param {
    lr_mult: 2
    decay_mult: 0
  }
  convolution_param {
    num_output: 256
    pad: 1
    kernel_size: 3
    weight_filler {
      type: "xavier"
    }
    bias_filler {
      type: "constant"
      value: 0
    }
  }
}
layer {
  name: "relu3_3"
  type: "ReLU"
  bottom: "conv3_3"
  top: "conv3_3"
}
layer {
  name: "pool3"
  type: "Pooling"
  bottom: "conv3_3"
  top: "pool3"
  pooling_param {
    pool: MAX
    kernel_size: 2
    stride: 2
  }
}
layer {
  name: "conv4_1"
  type: "Convolution"
  bottom: "pool3"
  top: "conv4_1"
  param {
    lr_mult: 1
    decay_mult: 1
  }
  param {
    lr_mult: 2
    decay_mult: 0
  }
  convolution_param {
    num_output: 512
    pad: 1
    kernel_size: 3
    weight_filler {
      type: "xavier"
    }
    bias_filler {
      type: "constant"
      value: 0
    }
  }
}
layer {
  name: "relu4_1"
  type: "ReLU"
  bottom: "conv4_1"
  top: "conv4_1"
}
layer {
  name: "conv4_2"
  type: "Convolution"
  bottom: "conv4_1"
  top: "conv4_2"
  param {
    lr_mult: 1
    decay_mult: 1
  }
  param {
    lr_mult: 2
    decay_mult: 0
  }
  convolution_param {
    num_output: 512
    pad: 1
    kernel_size: 3
    weight_filler {
      type: "xavier"
    }
    bias_filler {
      type: "constant"
      value: 0
    }
  }
}
layer {
  name: "relu4_2"
  type: "ReLU"
  bottom: "conv4_2"
  top: "conv4_2"
}
layer {
  name: "conv4_3"
  type: "Convolution"
  bottom: "conv4_2"
  top: "conv4_3"
  param {
    lr_mult: 1
    decay_mult: 1
  }
  param {
    lr_mult: 2
    decay_mult: 0
  }
  convolution_param {
    num_output: 512
    pad: 1
    kernel_size: 3
    weight_filler {
      type: "xavier"
    }
    bias_filler {
      type: "constant"
      value: 0
    }
  }
}
layer {
  name: "relu4_3"
  type: "ReLU"
  bottom: "conv4_3"
  top: "conv4_3"
}
layer {
  name: "pool4"
  type: "Pooling"
  bottom: "conv4_3"
  top: "pool4"
  pooling_param {
    pool: MAX
    kernel_size: 2
    stride: 2
  }
}
layer {
  name: "conv5_1"
  type: "Convolution"
  bottom: "pool4"
  top: "conv5_1"
  param {
    lr_mult: 1
    decay_mult: 1
  }
  param {
    lr_mult: 2
    decay_mult: 0
  }
  convolution_param {
    num_output: 512
    pad: 1
    kernel_size: 3
    weight_filler {
      type: "xavier"
    }
    bias_filler {
      type: "constant"
      value: 0
    }
    dilation: 1
  }
}
layer {
  name: "relu5_1"
  type: "ReLU"
  bottom: "conv5_1"
  top: "conv5_1"
}
layer {
  name: "conv5_2"
  type: "Convolution"
  bottom: "conv5_1"
  top: "conv5_2"
  param {
    lr_mult: 1
    decay_mult: 1
  }
  param {
    lr_mult: 2
    decay_mult: 0
  }
  convolution_param {
    num_output: 512
    pad: 1
    kernel_size: 3
    weight_filler {
      type: "xavier"
    }
    bias_filler {
      type: "constant"
      value: 0
    }
    dilation: 1
  }
}
layer {
  name: "relu5_2"
  type: "ReLU"
  bottom: "conv5_2"
  top: "conv5_2"
}
layer {
  name: "conv5_3"
  type: "Convolution"
  bottom: "conv5_2"
  top: "conv5_3"
  param {
    lr_mult: 1
    decay_mult: 1
  }
  param {
    lr_mult: 2
    decay_mult: 0
  }
  convolution_param {
    num_output: 512
    pad: 1
    kernel_size: 3
    weight_filler {
      type: "xavier"
    }
    bias_filler {
      type: "constant"
      value: 0
    }
    dilation: 1
  }
}
layer {
  name: "relu5_3"
  type: "ReLU"
  bottom: "conv5_3"
  top: "conv5_3"
}
layer {
  name: "pool5"
  type: "Pooling"
  bottom: "conv5_3"
  top: "pool5"
  pooling_param {
    pool: MAX
    kernel_size: 3
    stride: 1
    pad: 1
  }
}
layer {
  name: "fc6"
  type: "Convolution"
  bottom: "pool5"
  top: "fc6"
  param {
    lr_mult: 1
    decay_mult: 1
  }
  param {
    lr_mult: 2
    decay_mult: 0
  }
  convolution_param {
    num_output: 1024
    pad: 6
    kernel_size: 3
    weight_filler {
      type: "xavier"
    }
    bias_filler {
      type: "constant"
      value: 0
    }
    dilation: 6
  }
}
layer {
  name: "relu6"
  type: "ReLU"
  bottom: "fc6"
  top: "fc6"
}
layer {
  name: "fc7"
  type: "Convolution"
  bottom: "fc6"
  top: "fc7"
  param {
    lr_mult: 1
    decay_mult: 1
  }
  param {
    lr_mult: 2
    decay_mult: 0
  }
  convolution_param {
    num_output: 1024
    kernel_size: 1
    weight_filler {
      type: "xavier"
    }
    bias_filler {
      type: "constant"
      value: 0
    }
  }
}
layer {
  name: "relu7"
  type: "ReLU"
  bottom: "fc7"
  top: "fc7"
}
layer {
  name: "conv6_1"
  type: "Convolution"
  bottom: "fc7"
  top: "conv6_1"
  param {
    lr_mult: 1
    decay_mult: 1
  }
  param {
    lr_mult: 2
    decay_mult: 0
  }
  convolution_param {
    num_output: 256
    pad: 0
    kernel_size: 1
    stride: 1
    weight_filler {
      type: "xavier"
    }
    bias_filler {
      type: "constant"
      value: 0
    }
  }
}
layer {
  name: "conv6_1_relu"
  type: "ReLU"
  bottom: "conv6_1"
  top: "conv6_1"
}
layer {
  name: "conv6_2"
  type: "Convolution"
  bottom: "conv6_1"
  top: "conv6_2"
  param {
    lr_mult: 1
    decay_mult: 1
  }
  param {
    lr_mult: 2
    decay_mult: 0
  }
  convolution_param {
    num_output: 512
    pad: 1
    kernel_size: 3
    stride: 2
    weight_filler {
      type: "xavier"
    }
    bias_filler {
      type: "constant"
      value: 0
    }
  }
}
layer {
  name: "conv6_2_relu"
  type: "ReLU"
  bottom: "conv6_2"
  top: "conv6_2"
}
layer {
  name: "conv7_1"
  type: "Convolution"
  bottom: "conv6_2"
  top: "conv7_1"
  param {
    lr_mult: 1
    decay_mult: 1
  }
  param {
    lr_mult: 2
    decay_mult: 0
  }
  convolution_param {
    num_output: 128
    pad: 0
    kernel_size: 1
    stride: 1
    weight_filler {
      type: "xavier"
    }
    bias_filler {
      type: "constant"
      value: 0
    }
  }
}
layer {
  name: "conv7_1_relu"
  type: "ReLU"
  bottom: "conv7_1"
  top: "conv7_1"
}
layer {
  name: "conv7_2"
  type: "Convolution"
  bottom: "conv7_1"
  top: "conv7_2"
  param {
    lr_mult: 1
    decay_mult: 1
  }
  param {
    lr_mult: 2
    decay_mult: 0
  }
  convolution_param {
    num_output: 256
    pad: 1
    kernel_size: 3
    stride: 2
    weight_filler {
      type: "xavier"
    }
    bias_filler {
      type: "constant"
      value: 0
    }
  }
}
layer {
  name: "conv7_2_relu"
  type: "ReLU"
  bottom: "conv7_2"
  top: "conv7_2"
}
layer {
  name: "conv8_1"
  type: "Convolution"
  bottom: "conv7_2"
  top: "conv8_1"
  param {
    lr_mult: 1
    decay_mult: 1
  }
  param {
    lr_mult: 2
    decay_mult: 0
  }
  convolution_param {
    num_output: 128
    pad: 0
    kernel_size: 1
    stride: 1
    weight_filler {
      type: "xavier"
    }
    bias_filler {
      type: "constant"
      value: 0
    }
  }
}
layer {
  name: "conv8_1_relu"
  type: "ReLU"
  bottom: "conv8_1"
  top: "conv8_1"
}
layer {
  name: "conv8_2"
  type: "Convolution"
  bottom: "conv8_1"
  top: "conv8_2"
  param {
    lr_mult: 1
    decay_mult: 1
  }
  param {
    lr_mult: 2
    decay_mult: 0
  }
  convolution_param {
    num_output: 256
    pad: 0
    kernel_size: 3
    stride: 1
    weight_filler {
      type: "xavier"
    }
    bias_filler {
      type: "constant"
      value: 0
    }
  }
}
layer {
  name: "conv8_2_relu"
  type: "ReLU"
  bottom: "conv8_2"
  top: "conv8_2"
}
layer {
  name: "conv9_1"
  type: "Convolution"
  bottom: "conv8_2"
  top: "conv9_1"
  param {
    lr_mult: 1
    decay_mult: 1
  }
  param {
    lr_mult: 2
    decay_mult: 0
  }
  convolution_param {
    num_output: 128
    pad: 0
    kernel_size: 1
    stride: 1
    weight_filler {
      type: "xavier"
    }
    bias_filler {
      type: "constant"
      value: 0
    }
  }
}
layer {
  name: "conv9_1_relu"
  type: "ReLU"
  bottom: "conv9_1"
  top: "conv9_1"
}
layer {
  name: "conv9_2"
  type: "Convolution"
  bottom: "conv9_1"
  top: "conv9_2"
  param {
    lr_mult: 1
    decay_mult: 1
  }
  param {
    lr_mult: 2
    decay_mult: 0
  }
  convolution_param {
    num_output: 256
    pad: 0
    kernel_size: 3
    stride: 1
    weight_filler {
      type: "xavier"
    }
    bias_filler {
      type: "constant"
      value: 0
    }
  }
}
layer {
  name: "conv9_2_relu"
  type: "ReLU"
  bottom: "conv9_2"
  top: "conv9_2"
}
layer {
  name: "conv4_3_norm"
  type: "Normalize"
  bottom: "conv4_3"
  top: "conv4_3_norm"
  norm_param {
    across_spatial: false
    scale_filler {
      type: "constant"
      value: 20
    }
    channel_shared: false
  }
}
layer {
  name: "conv4_3_norm_mbox_loc"
  type: "Convolution"
  bottom: "conv4_3_norm"
  top: "conv4_3_norm_mbox_loc"
  param {
    lr_mult: 1
    decay_mult: 1
  }
  param {
    lr_mult: 2
    decay_mult: 0
  }
  convolution_param {
    num_output: 16
    pad: 1
    kernel_size: 3
    stride: 1
    weight_filler {
      type: "xavier"
    }
    bias_filler {
      type: "constant"
      value: 0
    }
  }
}
layer {
  name: "conv4_3_norm_mbox_loc_perm"
  type: "Permute"
  bottom: "conv4_3_norm_mbox_loc"
  top: "conv4_3_norm_mbox_loc_perm"
  permute_param {
    order: 0
    order: 2
    order: 3
    order: 1
  }
}
layer {
  name: "conv4_3_norm_mbox_loc_flat"
  type: "Flatten"
  bottom: "conv4_3_norm_mbox_loc_perm"
  top: "conv4_3_norm_mbox_loc_flat"
  flatten_param {
    axis: 1
  }
}
layer {
  name: "conv4_3_norm_mbox_conf"
  type: "Convolution"
  bottom: "conv4_3_norm"
  top: "conv4_3_norm_mbox_conf"
  param {
    lr_mult: 1
    decay_mult: 1
  }
  param {
    lr_mult: 2
    decay_mult: 0
  }
  convolution_param {
    num_output: 44
    pad: 1
    kernel_size: 3
    stride: 1
    weight_filler {
      type: "xavier"
    }
    bias_filler {
      type: "constant"
      value: 0
    }
  }
}
layer {
  name: "conv4_3_norm_mbox_conf_perm"
  type: "Permute"
  bottom: "conv4_3_norm_mbox_conf"
  top: "conv4_3_norm_mbox_conf_perm"
  permute_param {
    order: 0
    order: 2
    order: 3
    order: 1
  }
}
layer {
  name: "conv4_3_norm_mbox_conf_flat"
  type: "Flatten"
  bottom: "conv4_3_norm_mbox_conf_perm"
  top: "conv4_3_norm_mbox_conf_flat"
  flatten_param {
    axis: 1
  }
}
layer {
  name: "conv4_3_norm_mbox_priorbox"
  type: "PriorBox"
  bottom: "conv4_3_norm"
  bottom: "data"
  top: "conv4_3_norm_mbox_priorbox"
  prior_box_param {
    min_size: 30
    max_size: 60
    aspect_ratio: 2
    flip: true
    clip: false
    variance: 0.1
    variance: 0.1
    variance: 0.2
    variance: 0.2
    step: 8
    offset: 0.5
  }
}
layer {
  name: "fc7_mbox_loc"
  type: "Convolution"
  bottom: "fc7"
  top: "fc7_mbox_loc"
  param {
    lr_mult: 1
    decay_mult: 1
  }
  param {
    lr_mult: 2
    decay_mult: 0
  }
  convolution_param {
    num_output: 24
    pad: 1
    kernel_size: 3
    stride: 1
    weight_filler {
      type: "xavier"
    }
    bias_filler {
      type: "constant"
      value: 0
    }
  }
}
layer {
  name: "fc7_mbox_loc_perm"
  type: "Permute"
  bottom: "fc7_mbox_loc"
  top: "fc7_mbox_loc_perm"
  permute_param {
    order: 0
    order: 2
    order: 3
    order: 1
  }
}
layer {
  name: "fc7_mbox_loc_flat"
  type: "Flatten"
  bottom: "fc7_mbox_loc_perm"
  top: "fc7_mbox_loc_flat"
  flatten_param {
    axis: 1
  }
}
layer {
  name: "fc7_mbox_conf"
  type: "Convolution"
  bottom: "fc7"
  top: "fc7_mbox_conf"
  param {
    lr_mult: 1
    decay_mult: 1
  }
  param {
    lr_mult: 2
    decay_mult: 0
  }
  convolution_param {
    num_output: 66
    pad: 1
    kernel_size: 3
    stride: 1
    weight_filler {
      type: "xavier"
    }
    bias_filler {
      type: "constant"
      value: 0
    }
  }
}
layer {
  name: "fc7_mbox_conf_perm"
  type: "Permute"
  bottom: "fc7_mbox_conf"
  top: "fc7_mbox_conf_perm"
  permute_param {
    order: 0
    order: 2
    order: 3
    order: 1
  }
}
layer {
  name: "fc7_mbox_conf_flat"
  type: "Flatten"
  bottom: "fc7_mbox_conf_perm"
  top: "fc7_mbox_conf_flat"
  flatten_param {
    axis: 1
  }
}
layer {
  name: "fc7_mbox_priorbox"
  type: "PriorBox"
  bottom: "fc7"
  bottom: "data"
  top: "fc7_mbox_priorbox"
  prior_box_param {
    min_size: 60
    max_size: 111
    aspect_ratio: 2
    aspect_ratio: 3
    flip: true
    clip: false
    variance: 0.1
    variance: 0.1
    variance: 0.2
    variance: 0.2
    step: 16
    offset: 0.5
  }
}
layer {
  name: "conv6_2_mbox_loc"
  type: "Convolution"
  bottom: "conv6_2"
  top: "conv6_2_mbox_loc"
  param {
    lr_mult: 1
    decay_mult: 1
  }
  param {
    lr_mult: 2
    decay_mult: 0
  }
  convolution_param {
    num_output: 24
    pad: 1
    kernel_size: 3
    stride: 1
    weight_filler {
      type: "xavier"
    }
    bias_filler {
      type: "constant"
      value: 0
    }
  }
}
layer {
  name: "conv6_2_mbox_loc_perm"
  type: "Permute"
  bottom: "conv6_2_mbox_loc"
  top: "conv6_2_mbox_loc_perm"
  permute_param {
    order: 0
    order: 2
    order: 3
    order: 1
  }
}
layer {
  name: "conv6_2_mbox_loc_flat"
  type: "Flatten"
  bottom: "conv6_2_mbox_loc_perm"
  top: "conv6_2_mbox_loc_flat"
  flatten_param {
    axis: 1
  }
}
layer {
  name: "conv6_2_mbox_conf"
  type: "Convolution"
  bottom: "conv6_2"
  top: "conv6_2_mbox_conf"
  param {
    lr_mult: 1
    decay_mult: 1
  }
  param {
    lr_mult: 2
    decay_mult: 0
  }
  convolution_param {
    num_output: 66
    pad: 1
    kernel_size: 3
    stride: 1
    weight_filler {
      type: "xavier"
    }
    bias_filler {
      type: "constant"
      value: 0
    }
  }
}
layer {
  name: "conv6_2_mbox_conf_perm"
  type: "Permute"
  bottom: "conv6_2_mbox_conf"
  top: "conv6_2_mbox_conf_perm"
  permute_param {
    order: 0
    order: 2
    order: 3
    order: 1
  }
}
layer {
  name: "conv6_2_mbox_conf_flat"
  type: "Flatten"
  bottom: "conv6_2_mbox_conf_perm"
  top: "conv6_2_mbox_conf_flat"
  flatten_param {
    axis: 1
  }
}
layer {
  name: "conv6_2_mbox_priorbox"
  type: "PriorBox"
  bottom: "conv6_2"
  bottom: "data"
  top: "conv6_2_mbox_priorbox"
  prior_box_param {
    min_size: 111
    max_size: 162
    aspect_ratio: 2
    aspect_ratio: 3
    flip: true
    clip: false
    variance: 0.1
    variance: 0.1
    variance: 0.2
    variance: 0.2
    step: 32
    offset: 0.5
  }
}
layer {
  name: "conv7_2_mbox_loc"
  type: "Convolution"
  bottom: "conv7_2"
  top: "conv7_2_mbox_loc"
  param {
    lr_mult: 1
    decay_mult: 1
  }
  param {
    lr_mult: 2
    decay_mult: 0
  }
  convolution_param {
    num_output: 24
    pad: 1
    kernel_size: 3
    stride: 1
    weight_filler {
      type: "xavier"
    }
    bias_filler {
      type: "constant"
      value: 0
    }
  }
}
layer {
  name: "conv7_2_mbox_loc_perm"
  type: "Permute"
  bottom: "conv7_2_mbox_loc"
  top: "conv7_2_mbox_loc_perm"
  permute_param {
    order: 0
    order: 2
    order: 3
    order: 1
  }
}
layer {
  name: "conv7_2_mbox_loc_flat"
  type: "Flatten"
  bottom: "conv7_2_mbox_loc_perm"
  top: "conv7_2_mbox_loc_flat"
  flatten_param {
    axis: 1
  }
}
layer {
  name: "conv7_2_mbox_conf"
  type: "Convolution"
  bottom: "conv7_2"
  top: "conv7_2_mbox_conf"
  param {
    lr_mult: 1
    decay_mult: 1
  }
  param {
    lr_mult: 2
    decay_mult: 0
  }
  convolution_param {
    num_output: 66
    pad: 1
    kernel_size: 3
    stride: 1
    weight_filler {
      type: "xavier"
    }
    bias_filler {
      type: "constant"
      value: 0
    }
  }
}
layer {
  name: "conv7_2_mbox_conf_perm"
  type: "Permute"
  bottom: "conv7_2_mbox_conf"
  top: "conv7_2_mbox_conf_perm"
  permute_param {
    order: 0
    order: 2
    order: 3
    order: 1
  }
}
layer {
  name: "conv7_2_mbox_conf_flat"
  type: "Flatten"
  bottom: "conv7_2_mbox_conf_perm"
  top: "conv7_2_mbox_conf_flat"
  flatten_param {
    axis: 1
  }
}
layer {
  name: "conv7_2_mbox_priorbox"
  type: "PriorBox"
  bottom: "conv7_2"
  bottom: "data"
  top: "conv7_2_mbox_priorbox"
  prior_box_param {
    min_size: 162
    max_size: 213
    aspect_ratio: 2
    aspect_ratio: 3
    flip: true
    clip: false
    variance: 0.1
    variance: 0.1
    variance: 0.2
    variance: 0.2
    step: 64
    offset: 0.5
  }
}
layer {
  name: "conv8_2_mbox_loc"
  type: "Convolution"
  bottom: "conv8_2"
  top: "conv8_2_mbox_loc"
  param {
    lr_mult: 1
    decay_mult: 1
  }
  param {
    lr_mult: 2
    decay_mult: 0
  }
  convolution_param {
    num_output: 16
    pad: 1
    kernel_size: 3
    stride: 1
    weight_filler {
      type: "xavier"
    }
    bias_filler {
      type: "constant"
      value: 0
    }
  }
}
layer {
  name: "conv8_2_mbox_loc_perm"
  type: "Permute"
  bottom: "conv8_2_mbox_loc"
  top: "conv8_2_mbox_loc_perm"
  permute_param {
    order: 0
    order: 2
    order: 3
    order: 1
  }
}
layer {
  name: "conv8_2_mbox_loc_flat"
  type: "Flatten"
  bottom: "conv8_2_mbox_loc_perm"
  top: "conv8_2_mbox_loc_flat"
  flatten_param {
    axis: 1
  }
}
layer {
  name: "conv8_2_mbox_conf"
  type: "Convolution"
  bottom: "conv8_2"
  top: "conv8_2_mbox_conf"
  param {
    lr_mult: 1
    decay_mult: 1
  }
  param {
    lr_mult: 2
    decay_mult: 0
  }
  convolution_param {
    num_output: 44
    pad: 1
    kernel_size: 3
    stride: 1
    weight_filler {
      type: "xavier"
    }
    bias_filler {
      type: "constant"
      value: 0
    }
  }
}
layer {
  name: "conv8_2_mbox_conf_perm"
  type: "Permute"
  bottom: "conv8_2_mbox_conf"
  top: "conv8_2_mbox_conf_perm"
  permute_param {
    order: 0
    order: 2
    order: 3
    order: 1
  }
}
layer {
  name: "conv8_2_mbox_conf_flat"
  type: "Flatten"
  bottom: "conv8_2_mbox_conf_perm"
  top: "conv8_2_mbox_conf_flat"
  flatten_param {
    axis: 1
  }
}
layer {
  name: "conv8_2_mbox_priorbox"
  type: "PriorBox"
  bottom: "conv8_2"
  bottom: "data"
  top: "conv8_2_mbox_priorbox"
  prior_box_param {
    min_size: 213
    max_size: 264
    aspect_ratio: 2
    flip: true
    clip: false
    variance: 0.1
    variance: 0.1
    variance: 0.2
    variance: 0.2
    step: 100
    offset: 0.5
  }
}
layer {
  name: "conv9_2_mbox_loc"
  type: "Convolution"
  bottom: "conv9_2"
  top: "conv9_2_mbox_loc"
  param {
    lr_mult: 1
    decay_mult: 1
  }
  param {
    lr_mult: 2
    decay_mult: 0
  }
  convolution_param {
    num_output: 16
    pad: 1
    kernel_size: 3
    stride: 1
    weight_filler {
      type: "xavier"
    }
    bias_filler {
      type: "constant"
      value: 0
    }
  }
}
layer {
  name: "conv9_2_mbox_loc_perm"
  type: "Permute"
  bottom: "conv9_2_mbox_loc"
  top: "conv9_2_mbox_loc_perm"
  permute_param {
    order: 0
    order: 2
    order: 3
    order: 1
  }
}
layer {
  name: "conv9_2_mbox_loc_flat"
  type: "Flatten"
  bottom: "conv9_2_mbox_loc_perm"
  top: "conv9_2_mbox_loc_flat"
  flatten_param {
    axis: 1
  }
}
layer {
  name: "conv9_2_mbox_conf"
  type: "Convolution"
  bottom: "conv9_2"
  top: "conv9_2_mbox_conf"
  param {
    lr_mult: 1
    decay_mult: 1
  }
  param {
    lr_mult: 2
    decay_mult: 0
  }
  convolution_param {
    num_output: 44
    pad: 1
    kernel_size: 3
    stride: 1
    weight_filler {
      type: "xavier"
    }
    bias_filler {
      type: "constant"
      value: 0
    }
  }
}
layer {
  name: "conv9_2_mbox_conf_perm"
  type: "Permute"
  bottom: "conv9_2_mbox_conf"
  top: "conv9_2_mbox_conf_perm"
  permute_param {
    order: 0
    order: 2
    order: 3
    order: 1
  }
}
layer {
  name: "conv9_2_mbox_conf_flat"
  type: "Flatten"
  bottom: "conv9_2_mbox_conf_perm"
  top: "conv9_2_mbox_conf_flat"
  flatten_param {
    axis: 1
  }
}
layer {
  name: "conv9_2_mbox_priorbox"
  type: "PriorBox"
  bottom: "conv9_2"
  bottom: "data"
  top: "conv9_2_mbox_priorbox"
  prior_box_param {
    min_size: 264
    max_size: 315
    aspect_ratio: 2
    flip: true
    clip: false
    variance: 0.1
    variance: 0.1
    variance: 0.2
    variance: 0.2
    step: 300
    offset: 0.5
  }
}
layer {
  name: "mbox_loc"
  type: "Concat"
  bottom: "conv4_3_norm_mbox_loc_flat"
  bottom: "fc7_mbox_loc_flat"
  bottom: "conv6_2_mbox_loc_flat"
  bottom: "conv7_2_mbox_loc_flat"
  bottom: "conv8_2_mbox_loc_flat"
  bottom: "conv9_2_mbox_loc_flat"
  top: "mbox_loc"
  concat_param {
    axis: 1
  }
}
layer {
  name: "mbox_conf"
  type: "Concat"
  bottom: "conv4_3_norm_mbox_conf_flat"
  bottom: "fc7_mbox_conf_flat"
  bottom: "conv6_2_mbox_conf_flat"
  bottom: "conv7_2_mbox_conf_flat"
  bottom: "conv8_2_mbox_conf_flat"
  bottom: "conv9_2_mbox_conf_flat"
  top: "mbox_conf"
  concat_param {
    axis: 1
  }
}
layer {
  name: "mbox_priorbox"
  type: "Concat"
  bottom: "conv4_3_norm_mbox_priorbox"
  bottom: "fc7_mbox_priorbox"
  bottom: "conv6_2_mbox_priorbox"
  bottom: "conv7_2_mbox_priorbox"
  bottom: "conv8_2_mbox_priorbox"
  bottom: "conv9_2_mbox_priorbox"
  top: "mbox_priorbox"
  concat_param {
    axis: 2
  }
}
layer {
  name: "test_loss"
  type: "MultiBoxLoss"
  bottom: "mbox_loc"
  bottom: "mbox_conf"
  bottom: "mbox_priorbox"
  bottom: "label"
  top: "test_loss"
  include {
    phase: TEST
  }
  propagate_down: true
  propagate_down: true
  propagate_down: false
  propagate_down: false
  loss_param {
    normalization: VALID
  }
  multibox_loss_param {
    loc_loss_type: SMOOTH_L1
    conf_loss_type: SOFTMAX
    loc_weight: 1
    num_classes: 11
    share_location: true
    match_type: PER_PREDICTION
    overlap_threshold: 0.5
    use_prior_for_matching: true
    background_label_id: 0
    use_difficult_gt: true
    neg_pos_ratio: 3
    neg_overlap: 0.5
    code_type: CENTER_SIZE
    ignore_cross_boundary_bbox: false
    mining_type: MAX_NEGATIVE
  }
}
layer {
  name: "silence"
  type: "Silence"
  bottom: "test_loss"
}
layer {
  name: "mbox_conf_reshape"
  type: "Reshape"
  bottom: "mbox_conf"
  top: "mbox_conf_reshape"
  reshape_param {
    shape {
      dim: 0
      dim: -1
      dim: 11
    }
  }
}
layer {
  name: "mbox_conf_softmax"
  type: "Softmax"
  bottom: "mbox_conf_reshape"
  top: "mbox_conf_softmax"
  softmax_param {
    axis: 2
  }
}
layer {
  name: "mbox_conf_flatten"
  type: "Flatten"
  bottom: "mbox_conf_softmax"
  top: "mbox_conf_flatten"
  flatten_param {
    axis: 1
  }
}
layer {
  name: "detection_out"
  type: "DetectionOutput"
  bottom: "mbox_loc"
  bottom: "mbox_conf_flatten"
  bottom: "mbox_priorbox"
  bottom: "label"
  top: "detection_out"
  include {
    phase: TEST
  }
  detection_output_param {
    num_classes: 11
    share_location: true
    background_label_id: 0
    nms_param {
      nms_threshold: 0.45
      top_k: 400
    }
    save_output_param {
      output_directory: "/home/zs/data/VOCdevkit/results/VOC2007/10_SSD_300x300_ini_test_loss/Main"
      output_name_prefix: "comp4_det_test_"
      output_format: "VOC"
      label_map_file: "data/NWPU_VHR/labelmap_NWPU_VHR.prototxt"
      name_size_file: "data/NWPU_VHR/test_name_size.txt"
      num_test_image: 123
    }
    code_type: CENTER_SIZE
    keep_top_k: 200
    confidence_threshold: 0.01
  }
}
layer {
  name: "detection_eval"
  type: "DetectionEvaluate"
  bottom: "detection_out"
  bottom: "label"
  top: "detection_eval"
  include {
    phase: TEST
  }
  detection_evaluate_param {
    num_classes: 11
    background_label_id: 0
    overlap_threshold: 0.5
    evaluate_difficult_gt: false
    name_size_file: "data/NWPU_VHR/test_name_size.txt"
  }
}
I0615 17:02:14.864609 17583 layer_factory.hpp:77] Creating layer data
I0615 17:02:14.864666 17583 net.cpp:100] Creating Layer data
I0615 17:02:14.864675 17583 net.cpp:408] data -> data
I0615 17:02:14.864683 17583 net.cpp:408] data -> label
I0615 17:02:14.865775 17592 db_lmdb.cpp:35] Opened lmdb examples/NWPU_VHR/NWPU_VHR_test_lmdb
I0615 17:02:14.874855 17583 annotated_data_layer.cpp:62] output data size: 1,3,300,300
I0615 17:02:14.877727 17583 net.cpp:150] Setting up data
I0615 17:02:14.877754 17583 net.cpp:157] Top shape: 1 3 300 300 (270000)
I0615 17:02:14.877759 17583 net.cpp:157] Top shape: 1 1 4 8 (32)
I0615 17:02:14.877763 17583 net.cpp:165] Memory required for data: 1080128
I0615 17:02:14.877769 17583 layer_factory.hpp:77] Creating layer data_data_0_split
I0615 17:02:14.877785 17583 net.cpp:100] Creating Layer data_data_0_split
I0615 17:02:14.877790 17583 net.cpp:434] data_data_0_split <- data
I0615 17:02:14.877799 17583 net.cpp:408] data_data_0_split -> data_data_0_split_0
I0615 17:02:14.877808 17583 net.cpp:408] data_data_0_split -> data_data_0_split_1
I0615 17:02:14.877815 17583 net.cpp:408] data_data_0_split -> data_data_0_split_2
I0615 17:02:14.877821 17583 net.cpp:408] data_data_0_split -> data_data_0_split_3
I0615 17:02:14.877826 17583 net.cpp:408] data_data_0_split -> data_data_0_split_4
I0615 17:02:14.877832 17583 net.cpp:408] data_data_0_split -> data_data_0_split_5
I0615 17:02:14.877859 17583 net.cpp:408] data_data_0_split -> data_data_0_split_6
I0615 17:02:14.877954 17583 net.cpp:150] Setting up data_data_0_split
I0615 17:02:14.877960 17583 net.cpp:157] Top shape: 1 3 300 300 (270000)
I0615 17:02:14.877964 17583 net.cpp:157] Top shape: 1 3 300 300 (270000)
I0615 17:02:14.877969 17583 net.cpp:157] Top shape: 1 3 300 300 (270000)
I0615 17:02:14.877974 17583 net.cpp:157] Top shape: 1 3 300 300 (270000)
I0615 17:02:14.877977 17583 net.cpp:157] Top shape: 1 3 300 300 (270000)
I0615 17:02:14.877981 17583 net.cpp:157] Top shape: 1 3 300 300 (270000)
I0615 17:02:14.877985 17583 net.cpp:157] Top shape: 1 3 300 300 (270000)
I0615 17:02:14.877990 17583 net.cpp:165] Memory required for data: 8640128
I0615 17:02:14.877992 17583 layer_factory.hpp:77] Creating layer label_data_1_split
I0615 17:02:14.877998 17583 net.cpp:100] Creating Layer label_data_1_split
I0615 17:02:14.878003 17583 net.cpp:434] label_data_1_split <- label
I0615 17:02:14.878008 17583 net.cpp:408] label_data_1_split -> label_data_1_split_0
I0615 17:02:14.878013 17583 net.cpp:408] label_data_1_split -> label_data_1_split_1
I0615 17:02:14.878019 17583 net.cpp:408] label_data_1_split -> label_data_1_split_2
I0615 17:02:14.878051 17583 net.cpp:150] Setting up label_data_1_split
I0615 17:02:14.878057 17583 net.cpp:157] Top shape: 1 1 4 8 (32)
I0615 17:02:14.878059 17583 net.cpp:157] Top shape: 1 1 4 8 (32)
I0615 17:02:14.878063 17583 net.cpp:157] Top shape: 1 1 4 8 (32)
I0615 17:02:14.878067 17583 net.cpp:165] Memory required for data: 8640512
I0615 17:02:14.878070 17583 layer_factory.hpp:77] Creating layer conv1_1
I0615 17:02:14.878082 17583 net.cpp:100] Creating Layer conv1_1
I0615 17:02:14.878084 17583 net.cpp:434] conv1_1 <- data_data_0_split_0
I0615 17:02:14.878090 17583 net.cpp:408] conv1_1 -> conv1_1
I0615 17:02:14.878875 17583 net.cpp:150] Setting up conv1_1
I0615 17:02:14.878887 17583 net.cpp:157] Top shape: 1 64 300 300 (5760000)
I0615 17:02:14.878890 17583 net.cpp:165] Memory required for data: 31680512
I0615 17:02:14.878901 17583 layer_factory.hpp:77] Creating layer relu1_1
I0615 17:02:14.878909 17583 net.cpp:100] Creating Layer relu1_1
I0615 17:02:14.878912 17583 net.cpp:434] relu1_1 <- conv1_1
I0615 17:02:14.878918 17583 net.cpp:395] relu1_1 -> conv1_1 (in-place)
I0615 17:02:14.880167 17583 net.cpp:150] Setting up relu1_1
I0615 17:02:14.880182 17583 net.cpp:157] Top shape: 1 64 300 300 (5760000)
I0615 17:02:14.880185 17583 net.cpp:165] Memory required for data: 54720512
I0615 17:02:14.880190 17583 layer_factory.hpp:77] Creating layer conv1_2
I0615 17:02:14.880203 17583 net.cpp:100] Creating Layer conv1_2
I0615 17:02:14.880208 17583 net.cpp:434] conv1_2 <- conv1_1
I0615 17:02:14.880215 17583 net.cpp:408] conv1_2 -> conv1_2
I0615 17:02:14.881017 17583 net.cpp:150] Setting up conv1_2
I0615 17:02:14.881029 17583 net.cpp:157] Top shape: 1 64 300 300 (5760000)
I0615 17:02:14.881032 17583 net.cpp:165] Memory required for data: 77760512
I0615 17:02:14.881042 17583 layer_factory.hpp:77] Creating layer relu1_2
I0615 17:02:14.881048 17583 net.cpp:100] Creating Layer relu1_2
I0615 17:02:14.881053 17583 net.cpp:434] relu1_2 <- conv1_2
I0615 17:02:14.881058 17583 net.cpp:395] relu1_2 -> conv1_2 (in-place)
I0615 17:02:14.881115 17583 net.cpp:150] Setting up relu1_2
I0615 17:02:14.881122 17583 net.cpp:157] Top shape: 1 64 300 300 (5760000)
I0615 17:02:14.881126 17583 net.cpp:165] Memory required for data: 100800512
I0615 17:02:14.881130 17583 layer_factory.hpp:77] Creating layer pool1
I0615 17:02:14.881136 17583 net.cpp:100] Creating Layer pool1
I0615 17:02:14.881140 17583 net.cpp:434] pool1 <- conv1_2
I0615 17:02:14.881146 17583 net.cpp:408] pool1 -> pool1
I0615 17:02:14.881178 17583 net.cpp:150] Setting up pool1
I0615 17:02:14.881183 17583 net.cpp:157] Top shape: 1 64 150 150 (1440000)
I0615 17:02:14.881186 17583 net.cpp:165] Memory required for data: 106560512
I0615 17:02:14.881191 17583 layer_factory.hpp:77] Creating layer conv2_1
I0615 17:02:14.881201 17583 net.cpp:100] Creating Layer conv2_1
I0615 17:02:14.881224 17583 net.cpp:434] conv2_1 <- pool1
I0615 17:02:14.881232 17583 net.cpp:408] conv2_1 -> conv2_1
I0615 17:02:14.882221 17583 net.cpp:150] Setting up conv2_1
I0615 17:02:14.882233 17583 net.cpp:157] Top shape: 1 128 150 150 (2880000)
I0615 17:02:14.882237 17583 net.cpp:165] Memory required for data: 118080512
I0615 17:02:14.882246 17583 layer_factory.hpp:77] Creating layer relu2_1
I0615 17:02:14.882252 17583 net.cpp:100] Creating Layer relu2_1
I0615 17:02:14.882256 17583 net.cpp:434] relu2_1 <- conv2_1
I0615 17:02:14.882262 17583 net.cpp:395] relu2_1 -> conv2_1 (in-place)
I0615 17:02:14.882444 17583 net.cpp:150] Setting up relu2_1
I0615 17:02:14.882455 17583 net.cpp:157] Top shape: 1 128 150 150 (2880000)
I0615 17:02:14.882458 17583 net.cpp:165] Memory required for data: 129600512
I0615 17:02:14.882462 17583 layer_factory.hpp:77] Creating layer conv2_2
I0615 17:02:14.882472 17583 net.cpp:100] Creating Layer conv2_2
I0615 17:02:14.882477 17583 net.cpp:434] conv2_2 <- conv2_1
I0615 17:02:14.882481 17583 net.cpp:408] conv2_2 -> conv2_2
I0615 17:02:14.883633 17583 net.cpp:150] Setting up conv2_2
I0615 17:02:14.883646 17583 net.cpp:157] Top shape: 1 128 150 150 (2880000)
I0615 17:02:14.883649 17583 net.cpp:165] Memory required for data: 141120512
I0615 17:02:14.883656 17583 layer_factory.hpp:77] Creating layer relu2_2
I0615 17:02:14.883662 17583 net.cpp:100] Creating Layer relu2_2
I0615 17:02:14.883666 17583 net.cpp:434] relu2_2 <- conv2_2
I0615 17:02:14.883671 17583 net.cpp:395] relu2_2 -> conv2_2 (in-place)
I0615 17:02:14.883831 17583 net.cpp:150] Setting up relu2_2
I0615 17:02:14.883841 17583 net.cpp:157] Top shape: 1 128 150 150 (2880000)
I0615 17:02:14.883843 17583 net.cpp:165] Memory required for data: 152640512
I0615 17:02:14.883848 17583 layer_factory.hpp:77] Creating layer pool2
I0615 17:02:14.883855 17583 net.cpp:100] Creating Layer pool2
I0615 17:02:14.883859 17583 net.cpp:434] pool2 <- conv2_2
I0615 17:02:14.883864 17583 net.cpp:408] pool2 -> pool2
I0615 17:02:14.883898 17583 net.cpp:150] Setting up pool2
I0615 17:02:14.883903 17583 net.cpp:157] Top shape: 1 128 75 75 (720000)
I0615 17:02:14.883906 17583 net.cpp:165] Memory required for data: 155520512
I0615 17:02:14.883909 17583 layer_factory.hpp:77] Creating layer conv3_1
I0615 17:02:14.883918 17583 net.cpp:100] Creating Layer conv3_1
I0615 17:02:14.883920 17583 net.cpp:434] conv3_1 <- pool2
I0615 17:02:14.883926 17583 net.cpp:408] conv3_1 -> conv3_1
I0615 17:02:14.887586 17583 net.cpp:150] Setting up conv3_1
I0615 17:02:14.887612 17583 net.cpp:157] Top shape: 1 256 75 75 (1440000)
I0615 17:02:14.887616 17583 net.cpp:165] Memory required for data: 161280512
I0615 17:02:14.887629 17583 layer_factory.hpp:77] Creating layer relu3_1
I0615 17:02:14.887639 17583 net.cpp:100] Creating Layer relu3_1
I0615 17:02:14.887645 17583 net.cpp:434] relu3_1 <- conv3_1
I0615 17:02:14.887651 17583 net.cpp:395] relu3_1 -> conv3_1 (in-place)
I0615 17:02:14.887712 17583 net.cpp:150] Setting up relu3_1
I0615 17:02:14.887719 17583 net.cpp:157] Top shape: 1 256 75 75 (1440000)
I0615 17:02:14.887723 17583 net.cpp:165] Memory required for data: 167040512
I0615 17:02:14.887727 17583 layer_factory.hpp:77] Creating layer conv3_2
I0615 17:02:14.887737 17583 net.cpp:100] Creating Layer conv3_2
I0615 17:02:14.887742 17583 net.cpp:434] conv3_2 <- conv3_1
I0615 17:02:14.887748 17583 net.cpp:408] conv3_2 -> conv3_2
I0615 17:02:14.891641 17583 net.cpp:150] Setting up conv3_2
I0615 17:02:14.891667 17583 net.cpp:157] Top shape: 1 256 75 75 (1440000)
I0615 17:02:14.891671 17583 net.cpp:165] Memory required for data: 172800512
I0615 17:02:14.891681 17583 layer_factory.hpp:77] Creating layer relu3_2
I0615 17:02:14.891692 17583 net.cpp:100] Creating Layer relu3_2
I0615 17:02:14.891698 17583 net.cpp:434] relu3_2 <- conv3_2
I0615 17:02:14.891705 17583 net.cpp:395] relu3_2 -> conv3_2 (in-place)
I0615 17:02:14.891865 17583 net.cpp:150] Setting up relu3_2
I0615 17:02:14.891875 17583 net.cpp:157] Top shape: 1 256 75 75 (1440000)
I0615 17:02:14.891878 17583 net.cpp:165] Memory required for data: 178560512
I0615 17:02:14.891907 17583 layer_factory.hpp:77] Creating layer conv3_3
I0615 17:02:14.891919 17583 net.cpp:100] Creating Layer conv3_3
I0615 17:02:14.891923 17583 net.cpp:434] conv3_3 <- conv3_2
I0615 17:02:14.891929 17583 net.cpp:408] conv3_3 -> conv3_3
I0615 17:02:14.895910 17583 net.cpp:150] Setting up conv3_3
I0615 17:02:14.895939 17583 net.cpp:157] Top shape: 1 256 75 75 (1440000)
I0615 17:02:14.895943 17583 net.cpp:165] Memory required for data: 184320512
I0615 17:02:14.895953 17583 layer_factory.hpp:77] Creating layer relu3_3
I0615 17:02:14.895963 17583 net.cpp:100] Creating Layer relu3_3
I0615 17:02:14.895970 17583 net.cpp:434] relu3_3 <- conv3_3
I0615 17:02:14.895977 17583 net.cpp:395] relu3_3 -> conv3_3 (in-place)
I0615 17:02:14.896041 17583 net.cpp:150] Setting up relu3_3
I0615 17:02:14.896049 17583 net.cpp:157] Top shape: 1 256 75 75 (1440000)
I0615 17:02:14.896052 17583 net.cpp:165] Memory required for data: 190080512
I0615 17:02:14.896055 17583 layer_factory.hpp:77] Creating layer pool3
I0615 17:02:14.896062 17583 net.cpp:100] Creating Layer pool3
I0615 17:02:14.896066 17583 net.cpp:434] pool3 <- conv3_3
I0615 17:02:14.896072 17583 net.cpp:408] pool3 -> pool3
I0615 17:02:14.896106 17583 net.cpp:150] Setting up pool3
I0615 17:02:14.896111 17583 net.cpp:157] Top shape: 1 256 38 38 (369664)
I0615 17:02:14.896114 17583 net.cpp:165] Memory required for data: 191559168
I0615 17:02:14.896118 17583 layer_factory.hpp:77] Creating layer conv4_1
I0615 17:02:14.896128 17583 net.cpp:100] Creating Layer conv4_1
I0615 17:02:14.896132 17583 net.cpp:434] conv4_1 <- pool3
I0615 17:02:14.896137 17583 net.cpp:408] conv4_1 -> conv4_1
I0615 17:02:14.904639 17583 net.cpp:150] Setting up conv4_1
I0615 17:02:14.904670 17583 net.cpp:157] Top shape: 1 512 38 38 (739328)
I0615 17:02:14.904673 17583 net.cpp:165] Memory required for data: 194516480
I0615 17:02:14.904685 17583 layer_factory.hpp:77] Creating layer relu4_1
I0615 17:02:14.904695 17583 net.cpp:100] Creating Layer relu4_1
I0615 17:02:14.904700 17583 net.cpp:434] relu4_1 <- conv4_1
I0615 17:02:14.904707 17583 net.cpp:395] relu4_1 -> conv4_1 (in-place)
I0615 17:02:14.904883 17583 net.cpp:150] Setting up relu4_1
I0615 17:02:14.904894 17583 net.cpp:157] Top shape: 1 512 38 38 (739328)
I0615 17:02:14.904897 17583 net.cpp:165] Memory required for data: 197473792
I0615 17:02:14.904901 17583 layer_factory.hpp:77] Creating layer conv4_2
I0615 17:02:14.904912 17583 net.cpp:100] Creating Layer conv4_2
I0615 17:02:14.904917 17583 net.cpp:434] conv4_2 <- conv4_1
I0615 17:02:14.904923 17583 net.cpp:408] conv4_2 -> conv4_2
I0615 17:02:14.918275 17583 net.cpp:150] Setting up conv4_2
I0615 17:02:14.918303 17583 net.cpp:157] Top shape: 1 512 38 38 (739328)
I0615 17:02:14.918308 17583 net.cpp:165] Memory required for data: 200431104
I0615 17:02:14.918319 17583 layer_factory.hpp:77] Creating layer relu4_2
I0615 17:02:14.918329 17583 net.cpp:100] Creating Layer relu4_2
I0615 17:02:14.918334 17583 net.cpp:434] relu4_2 <- conv4_2
I0615 17:02:14.918341 17583 net.cpp:395] relu4_2 -> conv4_2 (in-place)
I0615 17:02:14.918406 17583 net.cpp:150] Setting up relu4_2
I0615 17:02:14.918417 17583 net.cpp:157] Top shape: 1 512 38 38 (739328)
I0615 17:02:14.918421 17583 net.cpp:165] Memory required for data: 203388416
I0615 17:02:14.918424 17583 layer_factory.hpp:77] Creating layer conv4_3
I0615 17:02:14.918434 17583 net.cpp:100] Creating Layer conv4_3
I0615 17:02:14.918438 17583 net.cpp:434] conv4_3 <- conv4_2
I0615 17:02:14.918444 17583 net.cpp:408] conv4_3 -> conv4_3
I0615 17:02:14.931900 17583 net.cpp:150] Setting up conv4_3
I0615 17:02:14.931932 17583 net.cpp:157] Top shape: 1 512 38 38 (739328)
I0615 17:02:14.931937 17583 net.cpp:165] Memory required for data: 206345728
I0615 17:02:14.931946 17583 layer_factory.hpp:77] Creating layer relu4_3
I0615 17:02:14.931958 17583 net.cpp:100] Creating Layer relu4_3
I0615 17:02:14.931963 17583 net.cpp:434] relu4_3 <- conv4_3
I0615 17:02:14.931970 17583 net.cpp:395] relu4_3 -> conv4_3 (in-place)
I0615 17:02:14.932204 17583 net.cpp:150] Setting up relu4_3
I0615 17:02:14.932230 17583 net.cpp:157] Top shape: 1 512 38 38 (739328)
I0615 17:02:14.932235 17583 net.cpp:165] Memory required for data: 209303040
I0615 17:02:14.932238 17583 layer_factory.hpp:77] Creating layer conv4_3_relu4_3_0_split
I0615 17:02:14.932246 17583 net.cpp:100] Creating Layer conv4_3_relu4_3_0_split
I0615 17:02:14.932251 17583 net.cpp:434] conv4_3_relu4_3_0_split <- conv4_3
I0615 17:02:14.932257 17583 net.cpp:408] conv4_3_relu4_3_0_split -> conv4_3_relu4_3_0_split_0
I0615 17:02:14.932265 17583 net.cpp:408] conv4_3_relu4_3_0_split -> conv4_3_relu4_3_0_split_1
I0615 17:02:14.932301 17583 net.cpp:150] Setting up conv4_3_relu4_3_0_split
I0615 17:02:14.932307 17583 net.cpp:157] Top shape: 1 512 38 38 (739328)
I0615 17:02:14.932310 17583 net.cpp:157] Top shape: 1 512 38 38 (739328)
I0615 17:02:14.932313 17583 net.cpp:165] Memory required for data: 215217664
I0615 17:02:14.932317 17583 layer_factory.hpp:77] Creating layer pool4
I0615 17:02:14.932327 17583 net.cpp:100] Creating Layer pool4
I0615 17:02:14.932332 17583 net.cpp:434] pool4 <- conv4_3_relu4_3_0_split_0
I0615 17:02:14.932337 17583 net.cpp:408] pool4 -> pool4
I0615 17:02:14.932368 17583 net.cpp:150] Setting up pool4
I0615 17:02:14.932377 17583 net.cpp:157] Top shape: 1 512 19 19 (184832)
I0615 17:02:14.932381 17583 net.cpp:165] Memory required for data: 215956992
I0615 17:02:14.932384 17583 layer_factory.hpp:77] Creating layer conv5_1
I0615 17:02:14.932395 17583 net.cpp:100] Creating Layer conv5_1
I0615 17:02:14.932399 17583 net.cpp:434] conv5_1 <- pool4
I0615 17:02:14.932407 17583 net.cpp:408] conv5_1 -> conv5_1
I0615 17:02:14.946828 17583 net.cpp:150] Setting up conv5_1
I0615 17:02:14.946861 17583 net.cpp:157] Top shape: 1 512 19 19 (184832)
I0615 17:02:14.946866 17583 net.cpp:165] Memory required for data: 216696320
I0615 17:02:14.946875 17583 layer_factory.hpp:77] Creating layer relu5_1
I0615 17:02:14.946884 17583 net.cpp:100] Creating Layer relu5_1
I0615 17:02:14.946890 17583 net.cpp:434] relu5_1 <- conv5_1
I0615 17:02:14.946900 17583 net.cpp:395] relu5_1 -> conv5_1 (in-place)
I0615 17:02:14.946977 17583 net.cpp:150] Setting up relu5_1
I0615 17:02:14.946987 17583 net.cpp:157] Top shape: 1 512 19 19 (184832)
I0615 17:02:14.946990 17583 net.cpp:165] Memory required for data: 217435648
I0615 17:02:14.946995 17583 layer_factory.hpp:77] Creating layer conv5_2
I0615 17:02:14.947007 17583 net.cpp:100] Creating Layer conv5_2
I0615 17:02:14.947011 17583 net.cpp:434] conv5_2 <- conv5_1
I0615 17:02:14.947016 17583 net.cpp:408] conv5_2 -> conv5_2
I0615 17:02:14.960353 17583 net.cpp:150] Setting up conv5_2
I0615 17:02:14.960387 17583 net.cpp:157] Top shape: 1 512 19 19 (184832)
I0615 17:02:14.960392 17583 net.cpp:165] Memory required for data: 218174976
I0615 17:02:14.960402 17583 layer_factory.hpp:77] Creating layer relu5_2
I0615 17:02:14.960412 17583 net.cpp:100] Creating Layer relu5_2
I0615 17:02:14.960417 17583 net.cpp:434] relu5_2 <- conv5_2
I0615 17:02:14.960424 17583 net.cpp:395] relu5_2 -> conv5_2 (in-place)
I0615 17:02:14.960604 17583 net.cpp:150] Setting up relu5_2
I0615 17:02:14.960618 17583 net.cpp:157] Top shape: 1 512 19 19 (184832)
I0615 17:02:14.960621 17583 net.cpp:165] Memory required for data: 218914304
I0615 17:02:14.960625 17583 layer_factory.hpp:77] Creating layer conv5_3
I0615 17:02:14.960644 17583 net.cpp:100] Creating Layer conv5_3
I0615 17:02:14.960647 17583 net.cpp:434] conv5_3 <- conv5_2
I0615 17:02:14.960654 17583 net.cpp:408] conv5_3 -> conv5_3
I0615 17:02:14.973798 17583 net.cpp:150] Setting up conv5_3
I0615 17:02:14.973829 17583 net.cpp:157] Top shape: 1 512 19 19 (184832)
I0615 17:02:14.973834 17583 net.cpp:165] Memory required for data: 219653632
I0615 17:02:14.973843 17583 layer_factory.hpp:77] Creating layer relu5_3
I0615 17:02:14.973852 17583 net.cpp:100] Creating Layer relu5_3
I0615 17:02:14.973858 17583 net.cpp:434] relu5_3 <- conv5_3
I0615 17:02:14.973866 17583 net.cpp:395] relu5_3 -> conv5_3 (in-place)
I0615 17:02:14.974061 17583 net.cpp:150] Setting up relu5_3
I0615 17:02:14.974076 17583 net.cpp:157] Top shape: 1 512 19 19 (184832)
I0615 17:02:14.974097 17583 net.cpp:165] Memory required for data: 220392960
I0615 17:02:14.974102 17583 layer_factory.hpp:77] Creating layer pool5
I0615 17:02:14.974108 17583 net.cpp:100] Creating Layer pool5
I0615 17:02:14.974112 17583 net.cpp:434] pool5 <- conv5_3
I0615 17:02:14.974119 17583 net.cpp:408] pool5 -> pool5
I0615 17:02:14.974159 17583 net.cpp:150] Setting up pool5
I0615 17:02:14.974167 17583 net.cpp:157] Top shape: 1 512 19 19 (184832)
I0615 17:02:14.974170 17583 net.cpp:165] Memory required for data: 221132288
I0615 17:02:14.974174 17583 layer_factory.hpp:77] Creating layer fc6
I0615 17:02:14.974190 17583 net.cpp:100] Creating Layer fc6
I0615 17:02:14.974195 17583 net.cpp:434] fc6 <- pool5
I0615 17:02:14.974201 17583 net.cpp:408] fc6 -> fc6
I0615 17:02:14.999292 17583 net.cpp:150] Setting up fc6
I0615 17:02:14.999328 17583 net.cpp:157] Top shape: 1 1024 19 19 (369664)
I0615 17:02:14.999332 17583 net.cpp:165] Memory required for data: 222610944
I0615 17:02:14.999342 17583 layer_factory.hpp:77] Creating layer relu6
I0615 17:02:14.999352 17583 net.cpp:100] Creating Layer relu6
I0615 17:02:14.999359 17583 net.cpp:434] relu6 <- fc6
I0615 17:02:14.999366 17583 net.cpp:395] relu6 -> fc6 (in-place)
I0615 17:02:14.999703 17583 net.cpp:150] Setting up relu6
I0615 17:02:14.999717 17583 net.cpp:157] Top shape: 1 1024 19 19 (369664)
I0615 17:02:14.999722 17583 net.cpp:165] Memory required for data: 224089600
I0615 17:02:14.999727 17583 layer_factory.hpp:77] Creating layer fc7
I0615 17:02:14.999738 17583 net.cpp:100] Creating Layer fc7
I0615 17:02:14.999742 17583 net.cpp:434] fc7 <- fc6
I0615 17:02:14.999750 17583 net.cpp:408] fc7 -> fc7
I0615 17:02:15.006125 17583 net.cpp:150] Setting up fc7
I0615 17:02:15.006158 17583 net.cpp:157] Top shape: 1 1024 19 19 (369664)
I0615 17:02:15.006163 17583 net.cpp:165] Memory required for data: 225568256
I0615 17:02:15.006173 17583 layer_factory.hpp:77] Creating layer relu7
I0615 17:02:15.006183 17583 net.cpp:100] Creating Layer relu7
I0615 17:02:15.006188 17583 net.cpp:434] relu7 <- fc7
I0615 17:02:15.006197 17583 net.cpp:395] relu7 -> fc7 (in-place)
I0615 17:02:15.007694 17583 net.cpp:150] Setting up relu7
I0615 17:02:15.007722 17583 net.cpp:157] Top shape: 1 1024 19 19 (369664)
I0615 17:02:15.007726 17583 net.cpp:165] Memory required for data: 227046912
I0615 17:02:15.007732 17583 layer_factory.hpp:77] Creating layer fc7_relu7_0_split
I0615 17:02:15.007743 17583 net.cpp:100] Creating Layer fc7_relu7_0_split
I0615 17:02:15.007750 17583 net.cpp:434] fc7_relu7_0_split <- fc7
I0615 17:02:15.007761 17583 net.cpp:408] fc7_relu7_0_split -> fc7_relu7_0_split_0
I0615 17:02:15.007771 17583 net.cpp:408] fc7_relu7_0_split -> fc7_relu7_0_split_1
I0615 17:02:15.007777 17583 net.cpp:408] fc7_relu7_0_split -> fc7_relu7_0_split_2
I0615 17:02:15.007783 17583 net.cpp:408] fc7_relu7_0_split -> fc7_relu7_0_split_3
I0615 17:02:15.007853 17583 net.cpp:150] Setting up fc7_relu7_0_split
I0615 17:02:15.007863 17583 net.cpp:157] Top shape: 1 1024 19 19 (369664)
I0615 17:02:15.007867 17583 net.cpp:157] Top shape: 1 1024 19 19 (369664)
I0615 17:02:15.007871 17583 net.cpp:157] Top shape: 1 1024 19 19 (369664)
I0615 17:02:15.007874 17583 net.cpp:157] Top shape: 1 1024 19 19 (369664)
I0615 17:02:15.007879 17583 net.cpp:165] Memory required for data: 232961536
I0615 17:02:15.007882 17583 layer_factory.hpp:77] Creating layer conv6_1
I0615 17:02:15.007894 17583 net.cpp:100] Creating Layer conv6_1
I0615 17:02:15.007899 17583 net.cpp:434] conv6_1 <- fc7_relu7_0_split_0
I0615 17:02:15.007906 17583 net.cpp:408] conv6_1 -> conv6_1
I0615 17:02:15.010438 17583 net.cpp:150] Setting up conv6_1
I0615 17:02:15.010470 17583 net.cpp:157] Top shape: 1 256 19 19 (92416)
I0615 17:02:15.010475 17583 net.cpp:165] Memory required for data: 233331200
I0615 17:02:15.010483 17583 layer_factory.hpp:77] Creating layer conv6_1_relu
I0615 17:02:15.010495 17583 net.cpp:100] Creating Layer conv6_1_relu
I0615 17:02:15.010501 17583 net.cpp:434] conv6_1_relu <- conv6_1
I0615 17:02:15.010507 17583 net.cpp:395] conv6_1_relu -> conv6_1 (in-place)
I0615 17:02:15.010601 17583 net.cpp:150] Setting up conv6_1_relu
I0615 17:02:15.010610 17583 net.cpp:157] Top shape: 1 256 19 19 (92416)
I0615 17:02:15.010614 17583 net.cpp:165] Memory required for data: 233700864
I0615 17:02:15.010618 17583 layer_factory.hpp:77] Creating layer conv6_2
I0615 17:02:15.010630 17583 net.cpp:100] Creating Layer conv6_2
I0615 17:02:15.010635 17583 net.cpp:434] conv6_2 <- conv6_1
I0615 17:02:15.010641 17583 net.cpp:408] conv6_2 -> conv6_2
I0615 17:02:15.017817 17583 net.cpp:150] Setting up conv6_2
I0615 17:02:15.017848 17583 net.cpp:157] Top shape: 1 512 10 10 (51200)
I0615 17:02:15.017853 17583 net.cpp:165] Memory required for data: 233905664
I0615 17:02:15.017868 17583 layer_factory.hpp:77] Creating layer conv6_2_relu
I0615 17:02:15.017879 17583 net.cpp:100] Creating Layer conv6_2_relu
I0615 17:02:15.017884 17583 net.cpp:434] conv6_2_relu <- conv6_2
I0615 17:02:15.017891 17583 net.cpp:395] conv6_2_relu -> conv6_2 (in-place)
I0615 17:02:15.018061 17583 net.cpp:150] Setting up conv6_2_relu
I0615 17:02:15.018072 17583 net.cpp:157] Top shape: 1 512 10 10 (51200)
I0615 17:02:15.018075 17583 net.cpp:165] Memory required for data: 234110464
I0615 17:02:15.018080 17583 layer_factory.hpp:77] Creating layer conv6_2_conv6_2_relu_0_split
I0615 17:02:15.018088 17583 net.cpp:100] Creating Layer conv6_2_conv6_2_relu_0_split
I0615 17:02:15.018092 17583 net.cpp:434] conv6_2_conv6_2_relu_0_split <- conv6_2
I0615 17:02:15.018100 17583 net.cpp:408] conv6_2_conv6_2_relu_0_split -> conv6_2_conv6_2_relu_0_split_0
I0615 17:02:15.018108 17583 net.cpp:408] conv6_2_conv6_2_relu_0_split -> conv6_2_conv6_2_relu_0_split_1
I0615 17:02:15.018116 17583 net.cpp:408] conv6_2_conv6_2_relu_0_split -> conv6_2_conv6_2_relu_0_split_2
I0615 17:02:15.018121 17583 net.cpp:408] conv6_2_conv6_2_relu_0_split -> conv6_2_conv6_2_relu_0_split_3
I0615 17:02:15.018172 17583 net.cpp:150] Setting up conv6_2_conv6_2_relu_0_split
I0615 17:02:15.018179 17583 net.cpp:157] Top shape: 1 512 10 10 (51200)
I0615 17:02:15.018183 17583 net.cpp:157] Top shape: 1 512 10 10 (51200)
I0615 17:02:15.018187 17583 net.cpp:157] Top shape: 1 512 10 10 (51200)
I0615 17:02:15.018191 17583 net.cpp:157] Top shape: 1 512 10 10 (51200)
I0615 17:02:15.018195 17583 net.cpp:165] Memory required for data: 234929664
I0615 17:02:15.018198 17583 layer_factory.hpp:77] Creating layer conv7_1
I0615 17:02:15.018210 17583 net.cpp:100] Creating Layer conv7_1
I0615 17:02:15.018214 17583 net.cpp:434] conv7_1 <- conv6_2_conv6_2_relu_0_split_0
I0615 17:02:15.018220 17583 net.cpp:408] conv7_1 -> conv7_1
I0615 17:02:15.019088 17583 net.cpp:150] Setting up conv7_1
I0615 17:02:15.019102 17583 net.cpp:157] Top shape: 1 128 10 10 (12800)
I0615 17:02:15.019106 17583 net.cpp:165] Memory required for data: 234980864
I0615 17:02:15.019114 17583 layer_factory.hpp:77] Creating layer conv7_1_relu
I0615 17:02:15.019119 17583 net.cpp:100] Creating Layer conv7_1_relu
I0615 17:02:15.019124 17583 net.cpp:434] conv7_1_relu <- conv7_1
I0615 17:02:15.019127 17583 net.cpp:395] conv7_1_relu -> conv7_1 (in-place)
I0615 17:02:15.019196 17583 net.cpp:150] Setting up conv7_1_relu
I0615 17:02:15.019204 17583 net.cpp:157] Top shape: 1 128 10 10 (12800)
I0615 17:02:15.019207 17583 net.cpp:165] Memory required for data: 235032064
I0615 17:02:15.019212 17583 layer_factory.hpp:77] Creating layer conv7_2
I0615 17:02:15.019222 17583 net.cpp:100] Creating Layer conv7_2
I0615 17:02:15.019227 17583 net.cpp:434] conv7_2 <- conv7_1
I0615 17:02:15.019232 17583 net.cpp:408] conv7_2 -> conv7_2
I0615 17:02:15.022924 17583 net.cpp:150] Setting up conv7_2
I0615 17:02:15.022950 17583 net.cpp:157] Top shape: 1 256 5 5 (6400)
I0615 17:02:15.022954 17583 net.cpp:165] Memory required for data: 235057664
I0615 17:02:15.022964 17583 layer_factory.hpp:77] Creating layer conv7_2_relu
I0615 17:02:15.022974 17583 net.cpp:100] Creating Layer conv7_2_relu
I0615 17:02:15.022981 17583 net.cpp:434] conv7_2_relu <- conv7_2
I0615 17:02:15.022987 17583 net.cpp:395] conv7_2_relu -> conv7_2 (in-place)
I0615 17:02:15.023249 17583 net.cpp:150] Setting up conv7_2_relu
I0615 17:02:15.023275 17583 net.cpp:157] Top shape: 1 256 5 5 (6400)
I0615 17:02:15.023280 17583 net.cpp:165] Memory required for data: 235083264
I0615 17:02:15.023284 17583 layer_factory.hpp:77] Creating layer conv7_2_conv7_2_relu_0_split
I0615 17:02:15.023293 17583 net.cpp:100] Creating Layer conv7_2_conv7_2_relu_0_split
I0615 17:02:15.023296 17583 net.cpp:434] conv7_2_conv7_2_relu_0_split <- conv7_2
I0615 17:02:15.023303 17583 net.cpp:408] conv7_2_conv7_2_relu_0_split -> conv7_2_conv7_2_relu_0_split_0
I0615 17:02:15.023311 17583 net.cpp:408] conv7_2_conv7_2_relu_0_split -> conv7_2_conv7_2_relu_0_split_1
I0615 17:02:15.023317 17583 net.cpp:408] conv7_2_conv7_2_relu_0_split -> conv7_2_conv7_2_relu_0_split_2
I0615 17:02:15.023324 17583 net.cpp:408] conv7_2_conv7_2_relu_0_split -> conv7_2_conv7_2_relu_0_split_3
I0615 17:02:15.023378 17583 net.cpp:150] Setting up conv7_2_conv7_2_relu_0_split
I0615 17:02:15.023386 17583 net.cpp:157] Top shape: 1 256 5 5 (6400)
I0615 17:02:15.023391 17583 net.cpp:157] Top shape: 1 256 5 5 (6400)
I0615 17:02:15.023394 17583 net.cpp:157] Top shape: 1 256 5 5 (6400)
I0615 17:02:15.023398 17583 net.cpp:157] Top shape: 1 256 5 5 (6400)
I0615 17:02:15.023402 17583 net.cpp:165] Memory required for data: 235185664
I0615 17:02:15.023406 17583 layer_factory.hpp:77] Creating layer conv8_1
I0615 17:02:15.023417 17583 net.cpp:100] Creating Layer conv8_1
I0615 17:02:15.023423 17583 net.cpp:434] conv8_1 <- conv7_2_conv7_2_relu_0_split_0
I0615 17:02:15.023432 17583 net.cpp:408] conv8_1 -> conv8_1
I0615 17:02:15.024153 17583 net.cpp:150] Setting up conv8_1
I0615 17:02:15.024165 17583 net.cpp:157] Top shape: 1 128 5 5 (3200)
I0615 17:02:15.024169 17583 net.cpp:165] Memory required for data: 235198464
I0615 17:02:15.024176 17583 layer_factory.hpp:77] Creating layer conv8_1_relu
I0615 17:02:15.024184 17583 net.cpp:100] Creating Layer conv8_1_relu
I0615 17:02:15.024188 17583 net.cpp:434] conv8_1_relu <- conv8_1
I0615 17:02:15.024195 17583 net.cpp:395] conv8_1_relu -> conv8_1 (in-place)
I0615 17:02:15.024264 17583 net.cpp:150] Setting up conv8_1_relu
I0615 17:02:15.024271 17583 net.cpp:157] Top shape: 1 128 5 5 (3200)
I0615 17:02:15.024276 17583 net.cpp:165] Memory required for data: 235211264
I0615 17:02:15.024281 17583 layer_factory.hpp:77] Creating layer conv8_2
I0615 17:02:15.024288 17583 net.cpp:100] Creating Layer conv8_2
I0615 17:02:15.024293 17583 net.cpp:434] conv8_2 <- conv8_1
I0615 17:02:15.024299 17583 net.cpp:408] conv8_2 -> conv8_2
I0615 17:02:15.026854 17583 net.cpp:150] Setting up conv8_2
I0615 17:02:15.026875 17583 net.cpp:157] Top shape: 1 256 3 3 (2304)
I0615 17:02:15.026880 17583 net.cpp:165] Memory required for data: 235220480
I0615 17:02:15.026887 17583 layer_factory.hpp:77] Creating layer conv8_2_relu
I0615 17:02:15.026897 17583 net.cpp:100] Creating Layer conv8_2_relu
I0615 17:02:15.026902 17583 net.cpp:434] conv8_2_relu <- conv8_2
I0615 17:02:15.026908 17583 net.cpp:395] conv8_2_relu -> conv8_2 (in-place)
I0615 17:02:15.027077 17583 net.cpp:150] Setting up conv8_2_relu
I0615 17:02:15.027091 17583 net.cpp:157] Top shape: 1 256 3 3 (2304)
I0615 17:02:15.027096 17583 net.cpp:165] Memory required for data: 235229696
I0615 17:02:15.027101 17583 layer_factory.hpp:77] Creating layer conv8_2_conv8_2_relu_0_split
I0615 17:02:15.027109 17583 net.cpp:100] Creating Layer conv8_2_conv8_2_relu_0_split
I0615 17:02:15.027115 17583 net.cpp:434] conv8_2_conv8_2_relu_0_split <- conv8_2
I0615 17:02:15.027120 17583 net.cpp:408] conv8_2_conv8_2_relu_0_split -> conv8_2_conv8_2_relu_0_split_0
I0615 17:02:15.027132 17583 net.cpp:408] conv8_2_conv8_2_relu_0_split -> conv8_2_conv8_2_relu_0_split_1
I0615 17:02:15.027137 17583 net.cpp:408] conv8_2_conv8_2_relu_0_split -> conv8_2_conv8_2_relu_0_split_2
I0615 17:02:15.027143 17583 net.cpp:408] conv8_2_conv8_2_relu_0_split -> conv8_2_conv8_2_relu_0_split_3
I0615 17:02:15.027196 17583 net.cpp:150] Setting up conv8_2_conv8_2_relu_0_split
I0615 17:02:15.027204 17583 net.cpp:157] Top shape: 1 256 3 3 (2304)
I0615 17:02:15.027207 17583 net.cpp:157] Top shape: 1 256 3 3 (2304)
I0615 17:02:15.027230 17583 net.cpp:157] Top shape: 1 256 3 3 (2304)
I0615 17:02:15.027233 17583 net.cpp:157] Top shape: 1 256 3 3 (2304)
I0615 17:02:15.027237 17583 net.cpp:165] Memory required for data: 235266560
I0615 17:02:15.027240 17583 layer_factory.hpp:77] Creating layer conv9_1
I0615 17:02:15.027253 17583 net.cpp:100] Creating Layer conv9_1
I0615 17:02:15.027257 17583 net.cpp:434] conv9_1 <- conv8_2_conv8_2_relu_0_split_0
I0615 17:02:15.027263 17583 net.cpp:408] conv9_1 -> conv9_1
I0615 17:02:15.029650 17583 net.cpp:150] Setting up conv9_1
I0615 17:02:15.029680 17583 net.cpp:157] Top shape: 1 128 3 3 (1152)
I0615 17:02:15.029685 17583 net.cpp:165] Memory required for data: 235271168
I0615 17:02:15.029695 17583 layer_factory.hpp:77] Creating layer conv9_1_relu
I0615 17:02:15.029706 17583 net.cpp:100] Creating Layer conv9_1_relu
I0615 17:02:15.029713 17583 net.cpp:434] conv9_1_relu <- conv9_1
I0615 17:02:15.029721 17583 net.cpp:395] conv9_1_relu -> conv9_1 (in-place)
I0615 17:02:15.029932 17583 net.cpp:150] Setting up conv9_1_relu
I0615 17:02:15.029942 17583 net.cpp:157] Top shape: 1 128 3 3 (1152)
I0615 17:02:15.029947 17583 net.cpp:165] Memory required for data: 235275776
I0615 17:02:15.029950 17583 layer_factory.hpp:77] Creating layer conv9_2
I0615 17:02:15.029965 17583 net.cpp:100] Creating Layer conv9_2
I0615 17:02:15.029969 17583 net.cpp:434] conv9_2 <- conv9_1
I0615 17:02:15.029975 17583 net.cpp:408] conv9_2 -> conv9_2
I0615 17:02:15.032627 17583 net.cpp:150] Setting up conv9_2
I0615 17:02:15.032655 17583 net.cpp:157] Top shape: 1 256 1 1 (256)
I0615 17:02:15.032660 17583 net.cpp:165] Memory required for data: 235276800
I0615 17:02:15.032671 17583 layer_factory.hpp:77] Creating layer conv9_2_relu
I0615 17:02:15.032680 17583 net.cpp:100] Creating Layer conv9_2_relu
I0615 17:02:15.032687 17583 net.cpp:434] conv9_2_relu <- conv9_2
I0615 17:02:15.032693 17583 net.cpp:395] conv9_2_relu -> conv9_2 (in-place)
I0615 17:02:15.032763 17583 net.cpp:150] Setting up conv9_2_relu
I0615 17:02:15.032771 17583 net.cpp:157] Top shape: 1 256 1 1 (256)
I0615 17:02:15.032774 17583 net.cpp:165] Memory required for data: 235277824
I0615 17:02:15.032778 17583 layer_factory.hpp:77] Creating layer conv9_2_conv9_2_relu_0_split
I0615 17:02:15.032785 17583 net.cpp:100] Creating Layer conv9_2_conv9_2_relu_0_split
I0615 17:02:15.032790 17583 net.cpp:434] conv9_2_conv9_2_relu_0_split <- conv9_2
I0615 17:02:15.032796 17583 net.cpp:408] conv9_2_conv9_2_relu_0_split -> conv9_2_conv9_2_relu_0_split_0
I0615 17:02:15.032802 17583 net.cpp:408] conv9_2_conv9_2_relu_0_split -> conv9_2_conv9_2_relu_0_split_1
I0615 17:02:15.032812 17583 net.cpp:408] conv9_2_conv9_2_relu_0_split -> conv9_2_conv9_2_relu_0_split_2
I0615 17:02:15.032857 17583 net.cpp:150] Setting up conv9_2_conv9_2_relu_0_split
I0615 17:02:15.032863 17583 net.cpp:157] Top shape: 1 256 1 1 (256)
I0615 17:02:15.032868 17583 net.cpp:157] Top shape: 1 256 1 1 (256)
I0615 17:02:15.032872 17583 net.cpp:157] Top shape: 1 256 1 1 (256)
I0615 17:02:15.032876 17583 net.cpp:165] Memory required for data: 235280896
I0615 17:02:15.032879 17583 layer_factory.hpp:77] Creating layer conv4_3_norm
I0615 17:02:15.032888 17583 net.cpp:100] Creating Layer conv4_3_norm
I0615 17:02:15.032893 17583 net.cpp:434] conv4_3_norm <- conv4_3_relu4_3_0_split_1
I0615 17:02:15.032898 17583 net.cpp:408] conv4_3_norm -> conv4_3_norm
I0615 17:02:15.033004 17583 net.cpp:150] Setting up conv4_3_norm
I0615 17:02:15.033011 17583 net.cpp:157] Top shape: 1 512 38 38 (739328)
I0615 17:02:15.033015 17583 net.cpp:165] Memory required for data: 238238208
I0615 17:02:15.033020 17583 layer_factory.hpp:77] Creating layer conv4_3_norm_conv4_3_norm_0_split
I0615 17:02:15.033027 17583 net.cpp:100] Creating Layer conv4_3_norm_conv4_3_norm_0_split
I0615 17:02:15.033031 17583 net.cpp:434] conv4_3_norm_conv4_3_norm_0_split <- conv4_3_norm
I0615 17:02:15.033036 17583 net.cpp:408] conv4_3_norm_conv4_3_norm_0_split -> conv4_3_norm_conv4_3_norm_0_split_0
I0615 17:02:15.033042 17583 net.cpp:408] conv4_3_norm_conv4_3_norm_0_split -> conv4_3_norm_conv4_3_norm_0_split_1
I0615 17:02:15.033066 17583 net.cpp:408] conv4_3_norm_conv4_3_norm_0_split -> conv4_3_norm_conv4_3_norm_0_split_2
I0615 17:02:15.033109 17583 net.cpp:150] Setting up conv4_3_norm_conv4_3_norm_0_split
I0615 17:02:15.033118 17583 net.cpp:157] Top shape: 1 512 38 38 (739328)
I0615 17:02:15.033121 17583 net.cpp:157] Top shape: 1 512 38 38 (739328)
I0615 17:02:15.033128 17583 net.cpp:157] Top shape: 1 512 38 38 (739328)
I0615 17:02:15.033130 17583 net.cpp:165] Memory required for data: 247110144
I0615 17:02:15.033134 17583 layer_factory.hpp:77] Creating layer conv4_3_norm_mbox_loc
I0615 17:02:15.033146 17583 net.cpp:100] Creating Layer conv4_3_norm_mbox_loc
I0615 17:02:15.033150 17583 net.cpp:434] conv4_3_norm_mbox_loc <- conv4_3_norm_conv4_3_norm_0_split_0
I0615 17:02:15.033156 17583 net.cpp:408] conv4_3_norm_mbox_loc -> conv4_3_norm_mbox_loc
I0615 17:02:15.034186 17583 net.cpp:150] Setting up conv4_3_norm_mbox_loc
I0615 17:02:15.034204 17583 net.cpp:157] Top shape: 1 16 38 38 (23104)
I0615 17:02:15.034209 17583 net.cpp:165] Memory required for data: 247202560
I0615 17:02:15.034215 17583 layer_factory.hpp:77] Creating layer conv4_3_norm_mbox_loc_perm
I0615 17:02:15.034225 17583 net.cpp:100] Creating Layer conv4_3_norm_mbox_loc_perm
I0615 17:02:15.034230 17583 net.cpp:434] conv4_3_norm_mbox_loc_perm <- conv4_3_norm_mbox_loc
I0615 17:02:15.034235 17583 net.cpp:408] conv4_3_norm_mbox_loc_perm -> conv4_3_norm_mbox_loc_perm
I0615 17:02:15.034317 17583 net.cpp:150] Setting up conv4_3_norm_mbox_loc_perm
I0615 17:02:15.034325 17583 net.cpp:157] Top shape: 1 38 38 16 (23104)
I0615 17:02:15.034329 17583 net.cpp:165] Memory required for data: 247294976
I0615 17:02:15.034332 17583 layer_factory.hpp:77] Creating layer conv4_3_norm_mbox_loc_flat
I0615 17:02:15.034348 17583 net.cpp:100] Creating Layer conv4_3_norm_mbox_loc_flat
I0615 17:02:15.034353 17583 net.cpp:434] conv4_3_norm_mbox_loc_flat <- conv4_3_norm_mbox_loc_perm
I0615 17:02:15.034358 17583 net.cpp:408] conv4_3_norm_mbox_loc_flat -> conv4_3_norm_mbox_loc_flat
I0615 17:02:15.034377 17583 net.cpp:150] Setting up conv4_3_norm_mbox_loc_flat
I0615 17:02:15.034385 17583 net.cpp:157] Top shape: 1 23104 (23104)
I0615 17:02:15.034389 17583 net.cpp:165] Memory required for data: 247387392
I0615 17:02:15.034392 17583 layer_factory.hpp:77] Creating layer conv4_3_norm_mbox_conf
I0615 17:02:15.034404 17583 net.cpp:100] Creating Layer conv4_3_norm_mbox_conf
I0615 17:02:15.034409 17583 net.cpp:434] conv4_3_norm_mbox_conf <- conv4_3_norm_conv4_3_norm_0_split_1
I0615 17:02:15.034415 17583 net.cpp:408] conv4_3_norm_mbox_conf -> conv4_3_norm_mbox_conf
I0615 17:02:15.036006 17583 net.cpp:150] Setting up conv4_3_norm_mbox_conf
I0615 17:02:15.036027 17583 net.cpp:157] Top shape: 1 44 38 38 (63536)
I0615 17:02:15.036031 17583 net.cpp:165] Memory required for data: 247641536
I0615 17:02:15.036041 17583 layer_factory.hpp:77] Creating layer conv4_3_norm_mbox_conf_perm
I0615 17:02:15.036051 17583 net.cpp:100] Creating Layer conv4_3_norm_mbox_conf_perm
I0615 17:02:15.036054 17583 net.cpp:434] conv4_3_norm_mbox_conf_perm <- conv4_3_norm_mbox_conf
I0615 17:02:15.036062 17583 net.cpp:408] conv4_3_norm_mbox_conf_perm -> conv4_3_norm_mbox_conf_perm
I0615 17:02:15.036141 17583 net.cpp:150] Setting up conv4_3_norm_mbox_conf_perm
I0615 17:02:15.036149 17583 net.cpp:157] Top shape: 1 38 38 44 (63536)
I0615 17:02:15.036151 17583 net.cpp:165] Memory required for data: 247895680
I0615 17:02:15.036155 17583 layer_factory.hpp:77] Creating layer conv4_3_norm_mbox_conf_flat
I0615 17:02:15.036164 17583 net.cpp:100] Creating Layer conv4_3_norm_mbox_conf_flat
I0615 17:02:15.036167 17583 net.cpp:434] conv4_3_norm_mbox_conf_flat <- conv4_3_norm_mbox_conf_perm
I0615 17:02:15.036172 17583 net.cpp:408] conv4_3_norm_mbox_conf_flat -> conv4_3_norm_mbox_conf_flat
I0615 17:02:15.036191 17583 net.cpp:150] Setting up conv4_3_norm_mbox_conf_flat
I0615 17:02:15.036197 17583 net.cpp:157] Top shape: 1 63536 (63536)
I0615 17:02:15.036201 17583 net.cpp:165] Memory required for data: 248149824
I0615 17:02:15.036223 17583 layer_factory.hpp:77] Creating layer conv4_3_norm_mbox_priorbox
I0615 17:02:15.036232 17583 net.cpp:100] Creating Layer conv4_3_norm_mbox_priorbox
I0615 17:02:15.036237 17583 net.cpp:434] conv4_3_norm_mbox_priorbox <- conv4_3_norm_conv4_3_norm_0_split_2
I0615 17:02:15.036242 17583 net.cpp:434] conv4_3_norm_mbox_priorbox <- data_data_0_split_1
I0615 17:02:15.036249 17583 net.cpp:408] conv4_3_norm_mbox_priorbox -> conv4_3_norm_mbox_priorbox
I0615 17:02:15.036275 17583 net.cpp:150] Setting up conv4_3_norm_mbox_priorbox
I0615 17:02:15.036283 17583 net.cpp:157] Top shape: 1 2 23104 (46208)
I0615 17:02:15.036285 17583 net.cpp:165] Memory required for data: 248334656
I0615 17:02:15.036288 17583 layer_factory.hpp:77] Creating layer fc7_mbox_loc
I0615 17:02:15.036299 17583 net.cpp:100] Creating Layer fc7_mbox_loc
I0615 17:02:15.036304 17583 net.cpp:434] fc7_mbox_loc <- fc7_relu7_0_split_1
I0615 17:02:15.036311 17583 net.cpp:408] fc7_mbox_loc -> fc7_mbox_loc
I0615 17:02:15.039500 17583 net.cpp:150] Setting up fc7_mbox_loc
I0615 17:02:15.039525 17583 net.cpp:157] Top shape: 1 24 19 19 (8664)
I0615 17:02:15.039530 17583 net.cpp:165] Memory required for data: 248369312
I0615 17:02:15.039538 17583 layer_factory.hpp:77] Creating layer fc7_mbox_loc_perm
I0615 17:02:15.039548 17583 net.cpp:100] Creating Layer fc7_mbox_loc_perm
I0615 17:02:15.039556 17583 net.cpp:434] fc7_mbox_loc_perm <- fc7_mbox_loc
I0615 17:02:15.039564 17583 net.cpp:408] fc7_mbox_loc_perm -> fc7_mbox_loc_perm
I0615 17:02:15.039649 17583 net.cpp:150] Setting up fc7_mbox_loc_perm
I0615 17:02:15.039657 17583 net.cpp:157] Top shape: 1 19 19 24 (8664)
I0615 17:02:15.039661 17583 net.cpp:165] Memory required for data: 248403968
I0615 17:02:15.039665 17583 layer_factory.hpp:77] Creating layer fc7_mbox_loc_flat
I0615 17:02:15.039675 17583 net.cpp:100] Creating Layer fc7_mbox_loc_flat
I0615 17:02:15.039680 17583 net.cpp:434] fc7_mbox_loc_flat <- fc7_mbox_loc_perm
I0615 17:02:15.039685 17583 net.cpp:408] fc7_mbox_loc_flat -> fc7_mbox_loc_flat
I0615 17:02:15.039705 17583 net.cpp:150] Setting up fc7_mbox_loc_flat
I0615 17:02:15.039713 17583 net.cpp:157] Top shape: 1 8664 (8664)
I0615 17:02:15.039716 17583 net.cpp:165] Memory required for data: 248438624
I0615 17:02:15.039721 17583 layer_factory.hpp:77] Creating layer fc7_mbox_conf
I0615 17:02:15.039736 17583 net.cpp:100] Creating Layer fc7_mbox_conf
I0615 17:02:15.039741 17583 net.cpp:434] fc7_mbox_conf <- fc7_relu7_0_split_2
I0615 17:02:15.039746 17583 net.cpp:408] fc7_mbox_conf -> fc7_mbox_conf
I0615 17:02:15.043812 17583 net.cpp:150] Setting up fc7_mbox_conf
I0615 17:02:15.043841 17583 net.cpp:157] Top shape: 1 66 19 19 (23826)
I0615 17:02:15.043846 17583 net.cpp:165] Memory required for data: 248533928
I0615 17:02:15.043856 17583 layer_factory.hpp:77] Creating layer fc7_mbox_conf_perm
I0615 17:02:15.043866 17583 net.cpp:100] Creating Layer fc7_mbox_conf_perm
I0615 17:02:15.043872 17583 net.cpp:434] fc7_mbox_conf_perm <- fc7_mbox_conf
I0615 17:02:15.043881 17583 net.cpp:408] fc7_mbox_conf_perm -> fc7_mbox_conf_perm
I0615 17:02:15.043970 17583 net.cpp:150] Setting up fc7_mbox_conf_perm
I0615 17:02:15.043977 17583 net.cpp:157] Top shape: 1 19 19 66 (23826)
I0615 17:02:15.043982 17583 net.cpp:165] Memory required for data: 248629232
I0615 17:02:15.043985 17583 layer_factory.hpp:77] Creating layer fc7_mbox_conf_flat
I0615 17:02:15.043993 17583 net.cpp:100] Creating Layer fc7_mbox_conf_flat
I0615 17:02:15.043998 17583 net.cpp:434] fc7_mbox_conf_flat <- fc7_mbox_conf_perm
I0615 17:02:15.044004 17583 net.cpp:408] fc7_mbox_conf_flat -> fc7_mbox_conf_flat
I0615 17:02:15.044023 17583 net.cpp:150] Setting up fc7_mbox_conf_flat
I0615 17:02:15.044029 17583 net.cpp:157] Top shape: 1 23826 (23826)
I0615 17:02:15.044032 17583 net.cpp:165] Memory required for data: 248724536
I0615 17:02:15.044036 17583 layer_factory.hpp:77] Creating layer fc7_mbox_priorbox
I0615 17:02:15.044044 17583 net.cpp:100] Creating Layer fc7_mbox_priorbox
I0615 17:02:15.044049 17583 net.cpp:434] fc7_mbox_priorbox <- fc7_relu7_0_split_3
I0615 17:02:15.044075 17583 net.cpp:434] fc7_mbox_priorbox <- data_data_0_split_2
I0615 17:02:15.044082 17583 net.cpp:408] fc7_mbox_priorbox -> fc7_mbox_priorbox
I0615 17:02:15.044108 17583 net.cpp:150] Setting up fc7_mbox_priorbox
I0615 17:02:15.044114 17583 net.cpp:157] Top shape: 1 2 8664 (17328)
I0615 17:02:15.044118 17583 net.cpp:165] Memory required for data: 248793848
I0615 17:02:15.044122 17583 layer_factory.hpp:77] Creating layer conv6_2_mbox_loc
I0615 17:02:15.044137 17583 net.cpp:100] Creating Layer conv6_2_mbox_loc
I0615 17:02:15.044140 17583 net.cpp:434] conv6_2_mbox_loc <- conv6_2_conv6_2_relu_0_split_1
I0615 17:02:15.044147 17583 net.cpp:408] conv6_2_mbox_loc -> conv6_2_mbox_loc
I0615 17:02:15.045331 17583 net.cpp:150] Setting up conv6_2_mbox_loc
I0615 17:02:15.045346 17583 net.cpp:157] Top shape: 1 24 10 10 (2400)
I0615 17:02:15.045351 17583 net.cpp:165] Memory required for data: 248803448
I0615 17:02:15.045357 17583 layer_factory.hpp:77] Creating layer conv6_2_mbox_loc_perm
I0615 17:02:15.045367 17583 net.cpp:100] Creating Layer conv6_2_mbox_loc_perm
I0615 17:02:15.045372 17583 net.cpp:434] conv6_2_mbox_loc_perm <- conv6_2_mbox_loc
I0615 17:02:15.045377 17583 net.cpp:408] conv6_2_mbox_loc_perm -> conv6_2_mbox_loc_perm
I0615 17:02:15.045462 17583 net.cpp:150] Setting up conv6_2_mbox_loc_perm
I0615 17:02:15.045470 17583 net.cpp:157] Top shape: 1 10 10 24 (2400)
I0615 17:02:15.045473 17583 net.cpp:165] Memory required for data: 248813048
I0615 17:02:15.045477 17583 layer_factory.hpp:77] Creating layer conv6_2_mbox_loc_flat
I0615 17:02:15.045485 17583 net.cpp:100] Creating Layer conv6_2_mbox_loc_flat
I0615 17:02:15.045490 17583 net.cpp:434] conv6_2_mbox_loc_flat <- conv6_2_mbox_loc_perm
I0615 17:02:15.045495 17583 net.cpp:408] conv6_2_mbox_loc_flat -> conv6_2_mbox_loc_flat
I0615 17:02:15.045513 17583 net.cpp:150] Setting up conv6_2_mbox_loc_flat
I0615 17:02:15.045517 17583 net.cpp:157] Top shape: 1 2400 (2400)
I0615 17:02:15.045521 17583 net.cpp:165] Memory required for data: 248822648
I0615 17:02:15.045526 17583 layer_factory.hpp:77] Creating layer conv6_2_mbox_conf
I0615 17:02:15.045536 17583 net.cpp:100] Creating Layer conv6_2_mbox_conf
I0615 17:02:15.045542 17583 net.cpp:434] conv6_2_mbox_conf <- conv6_2_conv6_2_relu_0_split_2
I0615 17:02:15.045547 17583 net.cpp:408] conv6_2_mbox_conf -> conv6_2_mbox_conf
I0615 17:02:15.048183 17583 net.cpp:150] Setting up conv6_2_mbox_conf
I0615 17:02:15.048207 17583 net.cpp:157] Top shape: 1 66 10 10 (6600)
I0615 17:02:15.048211 17583 net.cpp:165] Memory required for data: 248849048
I0615 17:02:15.048221 17583 layer_factory.hpp:77] Creating layer conv6_2_mbox_conf_perm
I0615 17:02:15.048233 17583 net.cpp:100] Creating Layer conv6_2_mbox_conf_perm
I0615 17:02:15.048238 17583 net.cpp:434] conv6_2_mbox_conf_perm <- conv6_2_mbox_conf
I0615 17:02:15.048245 17583 net.cpp:408] conv6_2_mbox_conf_perm -> conv6_2_mbox_conf_perm
I0615 17:02:15.048323 17583 net.cpp:150] Setting up conv6_2_mbox_conf_perm
I0615 17:02:15.048331 17583 net.cpp:157] Top shape: 1 10 10 66 (6600)
I0615 17:02:15.048334 17583 net.cpp:165] Memory required for data: 248875448
I0615 17:02:15.048338 17583 layer_factory.hpp:77] Creating layer conv6_2_mbox_conf_flat
I0615 17:02:15.048346 17583 net.cpp:100] Creating Layer conv6_2_mbox_conf_flat
I0615 17:02:15.048349 17583 net.cpp:434] conv6_2_mbox_conf_flat <- conv6_2_mbox_conf_perm
I0615 17:02:15.048354 17583 net.cpp:408] conv6_2_mbox_conf_flat -> conv6_2_mbox_conf_flat
I0615 17:02:15.048373 17583 net.cpp:150] Setting up conv6_2_mbox_conf_flat
I0615 17:02:15.048379 17583 net.cpp:157] Top shape: 1 6600 (6600)
I0615 17:02:15.048382 17583 net.cpp:165] Memory required for data: 248901848
I0615 17:02:15.048386 17583 layer_factory.hpp:77] Creating layer conv6_2_mbox_priorbox
I0615 17:02:15.048394 17583 net.cpp:100] Creating Layer conv6_2_mbox_priorbox
I0615 17:02:15.048399 17583 net.cpp:434] conv6_2_mbox_priorbox <- conv6_2_conv6_2_relu_0_split_3
I0615 17:02:15.048404 17583 net.cpp:434] conv6_2_mbox_priorbox <- data_data_0_split_3
I0615 17:02:15.048410 17583 net.cpp:408] conv6_2_mbox_priorbox -> conv6_2_mbox_priorbox
I0615 17:02:15.048454 17583 net.cpp:150] Setting up conv6_2_mbox_priorbox
I0615 17:02:15.048461 17583 net.cpp:157] Top shape: 1 2 2400 (4800)
I0615 17:02:15.048465 17583 net.cpp:165] Memory required for data: 248921048
I0615 17:02:15.048470 17583 layer_factory.hpp:77] Creating layer conv7_2_mbox_loc
I0615 17:02:15.048480 17583 net.cpp:100] Creating Layer conv7_2_mbox_loc
I0615 17:02:15.048485 17583 net.cpp:434] conv7_2_mbox_loc <- conv7_2_conv7_2_relu_0_split_1
I0615 17:02:15.048491 17583 net.cpp:408] conv7_2_mbox_loc -> conv7_2_mbox_loc
I0615 17:02:15.050810 17583 net.cpp:150] Setting up conv7_2_mbox_loc
I0615 17:02:15.050833 17583 net.cpp:157] Top shape: 1 24 5 5 (600)
I0615 17:02:15.050838 17583 net.cpp:165] Memory required for data: 248923448
I0615 17:02:15.050848 17583 layer_factory.hpp:77] Creating layer conv7_2_mbox_loc_perm
I0615 17:02:15.050858 17583 net.cpp:100] Creating Layer conv7_2_mbox_loc_perm
I0615 17:02:15.050864 17583 net.cpp:434] conv7_2_mbox_loc_perm <- conv7_2_mbox_loc
I0615 17:02:15.050873 17583 net.cpp:408] conv7_2_mbox_loc_perm -> conv7_2_mbox_loc_perm
I0615 17:02:15.050952 17583 net.cpp:150] Setting up conv7_2_mbox_loc_perm
I0615 17:02:15.050959 17583 net.cpp:157] Top shape: 1 5 5 24 (600)
I0615 17:02:15.050963 17583 net.cpp:165] Memory required for data: 248925848
I0615 17:02:15.050967 17583 layer_factory.hpp:77] Creating layer conv7_2_mbox_loc_flat
I0615 17:02:15.050976 17583 net.cpp:100] Creating Layer conv7_2_mbox_loc_flat
I0615 17:02:15.050982 17583 net.cpp:434] conv7_2_mbox_loc_flat <- conv7_2_mbox_loc_perm
I0615 17:02:15.050988 17583 net.cpp:408] conv7_2_mbox_loc_flat -> conv7_2_mbox_loc_flat
I0615 17:02:15.051008 17583 net.cpp:150] Setting up conv7_2_mbox_loc_flat
I0615 17:02:15.051013 17583 net.cpp:157] Top shape: 1 600 (600)
I0615 17:02:15.051017 17583 net.cpp:165] Memory required for data: 248928248
I0615 17:02:15.051020 17583 layer_factory.hpp:77] Creating layer conv7_2_mbox_conf
I0615 17:02:15.051031 17583 net.cpp:100] Creating Layer conv7_2_mbox_conf
I0615 17:02:15.051035 17583 net.cpp:434] conv7_2_mbox_conf <- conv7_2_conv7_2_relu_0_split_2
I0615 17:02:15.051043 17583 net.cpp:408] conv7_2_mbox_conf -> conv7_2_mbox_conf
I0615 17:02:15.052269 17583 net.cpp:150] Setting up conv7_2_mbox_conf
I0615 17:02:15.052284 17583 net.cpp:157] Top shape: 1 66 5 5 (1650)
I0615 17:02:15.052289 17583 net.cpp:165] Memory required for data: 248934848
I0615 17:02:15.052295 17583 layer_factory.hpp:77] Creating layer conv7_2_mbox_conf_perm
I0615 17:02:15.052304 17583 net.cpp:100] Creating Layer conv7_2_mbox_conf_perm
I0615 17:02:15.052309 17583 net.cpp:434] conv7_2_mbox_conf_perm <- conv7_2_mbox_conf
I0615 17:02:15.052314 17583 net.cpp:408] conv7_2_mbox_conf_perm -> conv7_2_mbox_conf_perm
I0615 17:02:15.052393 17583 net.cpp:150] Setting up conv7_2_mbox_conf_perm
I0615 17:02:15.052400 17583 net.cpp:157] Top shape: 1 5 5 66 (1650)
I0615 17:02:15.052404 17583 net.cpp:165] Memory required for data: 248941448
I0615 17:02:15.052408 17583 layer_factory.hpp:77] Creating layer conv7_2_mbox_conf_flat
I0615 17:02:15.052414 17583 net.cpp:100] Creating Layer conv7_2_mbox_conf_flat
I0615 17:02:15.052418 17583 net.cpp:434] conv7_2_mbox_conf_flat <- conv7_2_mbox_conf_perm
I0615 17:02:15.052425 17583 net.cpp:408] conv7_2_mbox_conf_flat -> conv7_2_mbox_conf_flat
I0615 17:02:15.052443 17583 net.cpp:150] Setting up conv7_2_mbox_conf_flat
I0615 17:02:15.052450 17583 net.cpp:157] Top shape: 1 1650 (1650)
I0615 17:02:15.052454 17583 net.cpp:165] Memory required for data: 248948048
I0615 17:02:15.052459 17583 layer_factory.hpp:77] Creating layer conv7_2_mbox_priorbox
I0615 17:02:15.052464 17583 net.cpp:100] Creating Layer conv7_2_mbox_priorbox
I0615 17:02:15.052469 17583 net.cpp:434] conv7_2_mbox_priorbox <- conv7_2_conv7_2_relu_0_split_3
I0615 17:02:15.052474 17583 net.cpp:434] conv7_2_mbox_priorbox <- data_data_0_split_4
I0615 17:02:15.052484 17583 net.cpp:408] conv7_2_mbox_priorbox -> conv7_2_mbox_priorbox
I0615 17:02:15.052505 17583 net.cpp:150] Setting up conv7_2_mbox_priorbox
I0615 17:02:15.052528 17583 net.cpp:157] Top shape: 1 2 600 (1200)
I0615 17:02:15.052532 17583 net.cpp:165] Memory required for data: 248952848
I0615 17:02:15.052537 17583 layer_factory.hpp:77] Creating layer conv8_2_mbox_loc
I0615 17:02:15.052547 17583 net.cpp:100] Creating Layer conv8_2_mbox_loc
I0615 17:02:15.052551 17583 net.cpp:434] conv8_2_mbox_loc <- conv8_2_conv8_2_relu_0_split_1
I0615 17:02:15.052557 17583 net.cpp:408] conv8_2_mbox_loc -> conv8_2_mbox_loc
I0615 17:02:15.053318 17583 net.cpp:150] Setting up conv8_2_mbox_loc
I0615 17:02:15.053331 17583 net.cpp:157] Top shape: 1 16 3 3 (144)
I0615 17:02:15.053334 17583 net.cpp:165] Memory required for data: 248953424
I0615 17:02:15.053349 17583 layer_factory.hpp:77] Creating layer conv8_2_mbox_loc_perm
I0615 17:02:15.053359 17583 net.cpp:100] Creating Layer conv8_2_mbox_loc_perm
I0615 17:02:15.053364 17583 net.cpp:434] conv8_2_mbox_loc_perm <- conv8_2_mbox_loc
I0615 17:02:15.053369 17583 net.cpp:408] conv8_2_mbox_loc_perm -> conv8_2_mbox_loc_perm
I0615 17:02:15.053453 17583 net.cpp:150] Setting up conv8_2_mbox_loc_perm
I0615 17:02:15.053460 17583 net.cpp:157] Top shape: 1 3 3 16 (144)
I0615 17:02:15.053464 17583 net.cpp:165] Memory required for data: 248954000
I0615 17:02:15.053467 17583 layer_factory.hpp:77] Creating layer conv8_2_mbox_loc_flat
I0615 17:02:15.053473 17583 net.cpp:100] Creating Layer conv8_2_mbox_loc_flat
I0615 17:02:15.053478 17583 net.cpp:434] conv8_2_mbox_loc_flat <- conv8_2_mbox_loc_perm
I0615 17:02:15.053486 17583 net.cpp:408] conv8_2_mbox_loc_flat -> conv8_2_mbox_loc_flat
I0615 17:02:15.053506 17583 net.cpp:150] Setting up conv8_2_mbox_loc_flat
I0615 17:02:15.053512 17583 net.cpp:157] Top shape: 1 144 (144)
I0615 17:02:15.053517 17583 net.cpp:165] Memory required for data: 248954576
I0615 17:02:15.053524 17583 layer_factory.hpp:77] Creating layer conv8_2_mbox_conf
I0615 17:02:15.053534 17583 net.cpp:100] Creating Layer conv8_2_mbox_conf
I0615 17:02:15.053537 17583 net.cpp:434] conv8_2_mbox_conf <- conv8_2_conv8_2_relu_0_split_2
I0615 17:02:15.053544 17583 net.cpp:408] conv8_2_mbox_conf -> conv8_2_mbox_conf
I0615 17:02:15.054687 17583 net.cpp:150] Setting up conv8_2_mbox_conf
I0615 17:02:15.054708 17583 net.cpp:157] Top shape: 1 44 3 3 (396)
I0615 17:02:15.054713 17583 net.cpp:165] Memory required for data: 248956160
I0615 17:02:15.054721 17583 layer_factory.hpp:77] Creating layer conv8_2_mbox_conf_perm
I0615 17:02:15.054730 17583 net.cpp:100] Creating Layer conv8_2_mbox_conf_perm
I0615 17:02:15.054735 17583 net.cpp:434] conv8_2_mbox_conf_perm <- conv8_2_mbox_conf
I0615 17:02:15.054744 17583 net.cpp:408] conv8_2_mbox_conf_perm -> conv8_2_mbox_conf_perm
I0615 17:02:15.054824 17583 net.cpp:150] Setting up conv8_2_mbox_conf_perm
I0615 17:02:15.054831 17583 net.cpp:157] Top shape: 1 3 3 44 (396)
I0615 17:02:15.054834 17583 net.cpp:165] Memory required for data: 248957744
I0615 17:02:15.054837 17583 layer_factory.hpp:77] Creating layer conv8_2_mbox_conf_flat
I0615 17:02:15.054847 17583 net.cpp:100] Creating Layer conv8_2_mbox_conf_flat
I0615 17:02:15.054850 17583 net.cpp:434] conv8_2_mbox_conf_flat <- conv8_2_mbox_conf_perm
I0615 17:02:15.054855 17583 net.cpp:408] conv8_2_mbox_conf_flat -> conv8_2_mbox_conf_flat
I0615 17:02:15.054873 17583 net.cpp:150] Setting up conv8_2_mbox_conf_flat
I0615 17:02:15.054878 17583 net.cpp:157] Top shape: 1 396 (396)
I0615 17:02:15.054883 17583 net.cpp:165] Memory required for data: 248959328
I0615 17:02:15.054885 17583 layer_factory.hpp:77] Creating layer conv8_2_mbox_priorbox
I0615 17:02:15.054894 17583 net.cpp:100] Creating Layer conv8_2_mbox_priorbox
I0615 17:02:15.054898 17583 net.cpp:434] conv8_2_mbox_priorbox <- conv8_2_conv8_2_relu_0_split_3
I0615 17:02:15.054903 17583 net.cpp:434] conv8_2_mbox_priorbox <- data_data_0_split_5
I0615 17:02:15.054909 17583 net.cpp:408] conv8_2_mbox_priorbox -> conv8_2_mbox_priorbox
I0615 17:02:15.054932 17583 net.cpp:150] Setting up conv8_2_mbox_priorbox
I0615 17:02:15.054939 17583 net.cpp:157] Top shape: 1 2 144 (288)
I0615 17:02:15.054944 17583 net.cpp:165] Memory required for data: 248960480
I0615 17:02:15.054963 17583 layer_factory.hpp:77] Creating layer conv9_2_mbox_loc
I0615 17:02:15.054975 17583 net.cpp:100] Creating Layer conv9_2_mbox_loc
I0615 17:02:15.054980 17583 net.cpp:434] conv9_2_mbox_loc <- conv9_2_conv9_2_relu_0_split_0
I0615 17:02:15.054987 17583 net.cpp:408] conv9_2_mbox_loc -> conv9_2_mbox_loc
I0615 17:02:15.057299 17583 net.cpp:150] Setting up conv9_2_mbox_loc
I0615 17:02:15.057327 17583 net.cpp:157] Top shape: 1 16 1 1 (16)
I0615 17:02:15.057332 17583 net.cpp:165] Memory required for data: 248960544
I0615 17:02:15.057343 17583 layer_factory.hpp:77] Creating layer conv9_2_mbox_loc_perm
I0615 17:02:15.057355 17583 net.cpp:100] Creating Layer conv9_2_mbox_loc_perm
I0615 17:02:15.057363 17583 net.cpp:434] conv9_2_mbox_loc_perm <- conv9_2_mbox_loc
I0615 17:02:15.057370 17583 net.cpp:408] conv9_2_mbox_loc_perm -> conv9_2_mbox_loc_perm
I0615 17:02:15.057454 17583 net.cpp:150] Setting up conv9_2_mbox_loc_perm
I0615 17:02:15.057461 17583 net.cpp:157] Top shape: 1 1 1 16 (16)
I0615 17:02:15.057466 17583 net.cpp:165] Memory required for data: 248960608
I0615 17:02:15.057469 17583 layer_factory.hpp:77] Creating layer conv9_2_mbox_loc_flat
I0615 17:02:15.057476 17583 net.cpp:100] Creating Layer conv9_2_mbox_loc_flat
I0615 17:02:15.057480 17583 net.cpp:434] conv9_2_mbox_loc_flat <- conv9_2_mbox_loc_perm
I0615 17:02:15.057487 17583 net.cpp:408] conv9_2_mbox_loc_flat -> conv9_2_mbox_loc_flat
I0615 17:02:15.057507 17583 net.cpp:150] Setting up conv9_2_mbox_loc_flat
I0615 17:02:15.057513 17583 net.cpp:157] Top shape: 1 16 (16)
I0615 17:02:15.057516 17583 net.cpp:165] Memory required for data: 248960672
I0615 17:02:15.057520 17583 layer_factory.hpp:77] Creating layer conv9_2_mbox_conf
I0615 17:02:15.057533 17583 net.cpp:100] Creating Layer conv9_2_mbox_conf
I0615 17:02:15.057538 17583 net.cpp:434] conv9_2_mbox_conf <- conv9_2_conv9_2_relu_0_split_1
I0615 17:02:15.057543 17583 net.cpp:408] conv9_2_mbox_conf -> conv9_2_mbox_conf
I0615 17:02:15.058794 17583 net.cpp:150] Setting up conv9_2_mbox_conf
I0615 17:02:15.058820 17583 net.cpp:157] Top shape: 1 44 1 1 (44)
I0615 17:02:15.058825 17583 net.cpp:165] Memory required for data: 248960848
I0615 17:02:15.058835 17583 layer_factory.hpp:77] Creating layer conv9_2_mbox_conf_perm
I0615 17:02:15.058845 17583 net.cpp:100] Creating Layer conv9_2_mbox_conf_perm
I0615 17:02:15.058852 17583 net.cpp:434] conv9_2_mbox_conf_perm <- conv9_2_mbox_conf
I0615 17:02:15.058859 17583 net.cpp:408] conv9_2_mbox_conf_perm -> conv9_2_mbox_conf_perm
I0615 17:02:15.058944 17583 net.cpp:150] Setting up conv9_2_mbox_conf_perm
I0615 17:02:15.058954 17583 net.cpp:157] Top shape: 1 1 1 44 (44)
I0615 17:02:15.058957 17583 net.cpp:165] Memory required for data: 248961024
I0615 17:02:15.058960 17583 layer_factory.hpp:77] Creating layer conv9_2_mbox_conf_flat
I0615 17:02:15.058967 17583 net.cpp:100] Creating Layer conv9_2_mbox_conf_flat
I0615 17:02:15.058971 17583 net.cpp:434] conv9_2_mbox_conf_flat <- conv9_2_mbox_conf_perm
I0615 17:02:15.058979 17583 net.cpp:408] conv9_2_mbox_conf_flat -> conv9_2_mbox_conf_flat
I0615 17:02:15.059000 17583 net.cpp:150] Setting up conv9_2_mbox_conf_flat
I0615 17:02:15.059005 17583 net.cpp:157] Top shape: 1 44 (44)
I0615 17:02:15.059010 17583 net.cpp:165] Memory required for data: 248961200
I0615 17:02:15.059013 17583 layer_factory.hpp:77] Creating layer conv9_2_mbox_priorbox
I0615 17:02:15.059020 17583 net.cpp:100] Creating Layer conv9_2_mbox_priorbox
I0615 17:02:15.059024 17583 net.cpp:434] conv9_2_mbox_priorbox <- conv9_2_conv9_2_relu_0_split_2
I0615 17:02:15.059029 17583 net.cpp:434] conv9_2_mbox_priorbox <- data_data_0_split_6
I0615 17:02:15.059036 17583 net.cpp:408] conv9_2_mbox_priorbox -> conv9_2_mbox_priorbox
I0615 17:02:15.059063 17583 net.cpp:150] Setting up conv9_2_mbox_priorbox
I0615 17:02:15.059069 17583 net.cpp:157] Top shape: 1 2 16 (32)
I0615 17:02:15.059072 17583 net.cpp:165] Memory required for data: 248961328
I0615 17:02:15.059077 17583 layer_factory.hpp:77] Creating layer mbox_loc
I0615 17:02:15.059084 17583 net.cpp:100] Creating Layer mbox_loc
I0615 17:02:15.059109 17583 net.cpp:434] mbox_loc <- conv4_3_norm_mbox_loc_flat
I0615 17:02:15.059114 17583 net.cpp:434] mbox_loc <- fc7_mbox_loc_flat
I0615 17:02:15.059120 17583 net.cpp:434] mbox_loc <- conv6_2_mbox_loc_flat
I0615 17:02:15.059124 17583 net.cpp:434] mbox_loc <- conv7_2_mbox_loc_flat
I0615 17:02:15.059129 17583 net.cpp:434] mbox_loc <- conv8_2_mbox_loc_flat
I0615 17:02:15.059134 17583 net.cpp:434] mbox_loc <- conv9_2_mbox_loc_flat
I0615 17:02:15.059141 17583 net.cpp:408] mbox_loc -> mbox_loc
I0615 17:02:15.059165 17583 net.cpp:150] Setting up mbox_loc
I0615 17:02:15.059170 17583 net.cpp:157] Top shape: 1 34928 (34928)
I0615 17:02:15.059175 17583 net.cpp:165] Memory required for data: 249101040
I0615 17:02:15.059178 17583 layer_factory.hpp:77] Creating layer mbox_loc_mbox_loc_0_split
I0615 17:02:15.059186 17583 net.cpp:100] Creating Layer mbox_loc_mbox_loc_0_split
I0615 17:02:15.059190 17583 net.cpp:434] mbox_loc_mbox_loc_0_split <- mbox_loc
I0615 17:02:15.059195 17583 net.cpp:408] mbox_loc_mbox_loc_0_split -> mbox_loc_mbox_loc_0_split_0
I0615 17:02:15.059202 17583 net.cpp:408] mbox_loc_mbox_loc_0_split -> mbox_loc_mbox_loc_0_split_1
I0615 17:02:15.059231 17583 net.cpp:150] Setting up mbox_loc_mbox_loc_0_split
I0615 17:02:15.059237 17583 net.cpp:157] Top shape: 1 34928 (34928)
I0615 17:02:15.059240 17583 net.cpp:157] Top shape: 1 34928 (34928)
I0615 17:02:15.059245 17583 net.cpp:165] Memory required for data: 249380464
I0615 17:02:15.059248 17583 layer_factory.hpp:77] Creating layer mbox_conf
I0615 17:02:15.059254 17583 net.cpp:100] Creating Layer mbox_conf
I0615 17:02:15.059258 17583 net.cpp:434] mbox_conf <- conv4_3_norm_mbox_conf_flat
I0615 17:02:15.059264 17583 net.cpp:434] mbox_conf <- fc7_mbox_conf_flat
I0615 17:02:15.059268 17583 net.cpp:434] mbox_conf <- conv6_2_mbox_conf_flat
I0615 17:02:15.059273 17583 net.cpp:434] mbox_conf <- conv7_2_mbox_conf_flat
I0615 17:02:15.059278 17583 net.cpp:434] mbox_conf <- conv8_2_mbox_conf_flat
I0615 17:02:15.059281 17583 net.cpp:434] mbox_conf <- conv9_2_mbox_conf_flat
I0615 17:02:15.059286 17583 net.cpp:408] mbox_conf -> mbox_conf
I0615 17:02:15.059304 17583 net.cpp:150] Setting up mbox_conf
I0615 17:02:15.059309 17583 net.cpp:157] Top shape: 1 96052 (96052)
I0615 17:02:15.059314 17583 net.cpp:165] Memory required for data: 249764672
I0615 17:02:15.059316 17583 layer_factory.hpp:77] Creating layer mbox_conf_mbox_conf_0_split
I0615 17:02:15.059321 17583 net.cpp:100] Creating Layer mbox_conf_mbox_conf_0_split
I0615 17:02:15.059326 17583 net.cpp:434] mbox_conf_mbox_conf_0_split <- mbox_conf
I0615 17:02:15.059331 17583 net.cpp:408] mbox_conf_mbox_conf_0_split -> mbox_conf_mbox_conf_0_split_0
I0615 17:02:15.059337 17583 net.cpp:408] mbox_conf_mbox_conf_0_split -> mbox_conf_mbox_conf_0_split_1
I0615 17:02:15.059361 17583 net.cpp:150] Setting up mbox_conf_mbox_conf_0_split
I0615 17:02:15.059367 17583 net.cpp:157] Top shape: 1 96052 (96052)
I0615 17:02:15.059372 17583 net.cpp:157] Top shape: 1 96052 (96052)
I0615 17:02:15.059376 17583 net.cpp:165] Memory required for data: 250533088
I0615 17:02:15.059379 17583 layer_factory.hpp:77] Creating layer mbox_priorbox
I0615 17:02:15.059384 17583 net.cpp:100] Creating Layer mbox_priorbox
I0615 17:02:15.059388 17583 net.cpp:434] mbox_priorbox <- conv4_3_norm_mbox_priorbox
I0615 17:02:15.059393 17583 net.cpp:434] mbox_priorbox <- fc7_mbox_priorbox
I0615 17:02:15.059397 17583 net.cpp:434] mbox_priorbox <- conv6_2_mbox_priorbox
I0615 17:02:15.059401 17583 net.cpp:434] mbox_priorbox <- conv7_2_mbox_priorbox
I0615 17:02:15.059406 17583 net.cpp:434] mbox_priorbox <- conv8_2_mbox_priorbox
I0615 17:02:15.059410 17583 net.cpp:434] mbox_priorbox <- conv9_2_mbox_priorbox
I0615 17:02:15.059417 17583 net.cpp:408] mbox_priorbox -> mbox_priorbox
I0615 17:02:15.059432 17583 net.cpp:150] Setting up mbox_priorbox
I0615 17:02:15.059438 17583 net.cpp:157] Top shape: 1 2 34928 (69856)
I0615 17:02:15.059442 17583 net.cpp:165] Memory required for data: 250812512
I0615 17:02:15.059444 17583 layer_factory.hpp:77] Creating layer mbox_priorbox_mbox_priorbox_0_split
I0615 17:02:15.059456 17583 net.cpp:100] Creating Layer mbox_priorbox_mbox_priorbox_0_split
I0615 17:02:15.059461 17583 net.cpp:434] mbox_priorbox_mbox_priorbox_0_split <- mbox_priorbox
I0615 17:02:15.059466 17583 net.cpp:408] mbox_priorbox_mbox_priorbox_0_split -> mbox_priorbox_mbox_priorbox_0_split_0
I0615 17:02:15.059473 17583 net.cpp:408] mbox_priorbox_mbox_priorbox_0_split -> mbox_priorbox_mbox_priorbox_0_split_1
I0615 17:02:15.059499 17583 net.cpp:150] Setting up mbox_priorbox_mbox_priorbox_0_split
I0615 17:02:15.059505 17583 net.cpp:157] Top shape: 1 2 34928 (69856)
I0615 17:02:15.059510 17583 net.cpp:157] Top shape: 1 2 34928 (69856)
I0615 17:02:15.059514 17583 net.cpp:165] Memory required for data: 251371360
I0615 17:02:15.059516 17583 layer_factory.hpp:77] Creating layer test_loss
I0615 17:02:15.059527 17583 net.cpp:100] Creating Layer test_loss
I0615 17:02:15.059531 17583 net.cpp:434] test_loss <- mbox_loc_mbox_loc_0_split_0
I0615 17:02:15.059536 17583 net.cpp:434] test_loss <- mbox_conf_mbox_conf_0_split_0
…
I0615 17:02:15.060005 17583 net.cpp:434] silence <- test_loss
I0615 17:02:15.060011 17583 net.cpp:150] Setting up silence
I0615 17:02:15.060014 17583 net.cpp:165] Memory required for data: 251371364
I0615 17:02:15.060017 17583 layer_factory.hpp:77] Creating layer mbox_conf_reshape
I0615 17:02:15.060026 17583 net.cpp:100] Creating Layer mbox_conf_reshape
I0615 17:02:15.060030 17583 net.cpp:434] mbox_conf_reshape <- mbox_conf_mbox_conf_0_split_1
I0615 17:02:15.060037 17583 net.cpp:408] mbox_conf_reshape -> mbox_conf_reshape
I0615 17:02:15.060066 17583 net.cpp:150] Setting up mbox_conf_reshape
I0615 17:02:15.060073 17583 net.cpp:157] Top shape: 1 8732 11 (96052)
I0615 17:02:15.060077 17583 net.cpp:165] Memory required for data: 251755572
I0615 17:02:15.060081 17583 layer_factory.hpp:77] Creating layer mbox_conf_softmax
I0615 17:02:15.060087 17583 net.cpp:100] Creating Layer mbox_conf_softmax
I0615 17:02:15.060091 17583 net.cpp:434] mbox_conf_softmax <- mbox_conf_reshape
I0615 17:02:15.060097 17583 net.cpp:408] mbox_conf_softmax -> mbox_conf_softmax
I0615 17:02:15.060204 17583 net.cpp:150] Setting up mbox_conf_softmax
I0615 17:02:15.060211 17583 net.cpp:157] Top shape: 1 8732 11 (96052)
I0615 17:02:15.060214 17583 net.cpp:165] Memory required for data: 252139780
I0615 17:02:15.060220 17583 layer_factory.hpp:77] Creating layer mbox_conf_flatten
I0615 17:02:15.060225 17583 net.cpp:100] Creating Layer mbox_conf_flatten
I0615 17:02:15.060230 17583 net.cpp:434] mbox_conf_flatten <- mbox_conf_softmax
I0615 17:02:15.060236 17583 net.cpp:408] mbox_conf_flatten -> mbox_conf_flatten
I0615 17:02:15.060254 17583 net.cpp:150] Setting up mbox_conf_flatten
I0615 17:02:15.060261 17583 net.cpp:157] Top shape: 1 96052 (96052)
I0615 17:02:15.060264 17583 net.cpp:165] Memory required for data: 252523988
I0615 17:02:15.060268 17583 layer_factory.hpp:77] Creating layer detection_out
I0615 17:02:15.060282 17583 net.cpp:100] Creating Layer detection_out
I0615 17:02:15.060286 17583 net.cpp:434] detection_out <- mbox_loc_mbox_loc_0_split_1
I0615 17:02:15.060290 17583 net.cpp:434] detection_out <- mbox_conf_flatten
I0615 17:02:15.060294 17583 net.cpp:434] detection_out <- mbox_priorbox_mbox_priorbox_0_split_1
I0615 17:02:15.060310 17583 net.cpp:434] detection_out <- label_data_1_split_1
I0615 17:02:15.060318 17583 net.cpp:408] detection_out -> detection_out
W0615 17:02:15.060349 17583 detection_output_layer.cpp:49] Failed to create directory: /home/zs/data/VOCdevkit/results/VOC2007/10_SSD_300x300_ini_test_loss/Main
I0615 17:02:15.060717 17583 net.cpp:150] Setting up detection_out
I0615 17:02:15.060729 17583 net.cpp:157] Top shape: 1 1 1 7 (7)
I0615 17:02:15.060732 17583 net.cpp:165] Memory required for data: 252524016
I0615 17:02:15.060736 17583 layer_factory.hpp:77] Creating layer detection_eval
I0615 17:02:15.060745 17583 net.cpp:100] Creating Layer detection_eval
I0615 17:02:15.060750 17583 net.cpp:434] detection_eval <- detection_out
I0615 17:02:15.060753 17583 net.cpp:434] detection_eval <- label_data_1_split_2
I0615 17:02:15.060760 17583 net.cpp:408] detection_eval -> detection_eval
I0615 17:02:15.060828 17583 net.cpp:150] Setting up detection_eval
I0615 17:02:15.060837 17583 net.cpp:157] Top shape: 1 1 11 5 (55)
I0615 17:02:15.060840 17583 net.cpp:165] Memory required for data: 252524236
I0615 17:02:15.060844 17583 net.cpp:228] detection_eval does not need backward computation.
I0615 17:02:15.060849 17583 net.cpp:228] detection_out does not need backward computation.
I0615 17:02:15.060855 17583 net.cpp:228] mbox_conf_flatten does not need backward computation.
I0615 17:02:15.060858 17583 net.cpp:228] mbox_conf_softmax does not need backward computation.
…
