…
      sampler {
        min_scale: 0.3
        max_scale: 1
        min_aspect_ratio: 0.5
        max_aspect_ratio: 2
      }
      sample_constraint {
        min_jaccard_overlap: 0.9
      }
      max_sample: 1
      max_trials: 50
    }
    batch_sampler {
      sampler {
        min_scale: 0.3
        max_scale: 1
        min_aspect_ratio: 0.5
        max_aspect_ratio: 2
      }
      sample_constraint {
        max_jaccard_overlap: 1
      }
      max_sample: 1
      max_trials: 50
    }
    label_map_file: "data/NWPU_VHR/labelmap_NWPU_VHR.prototxt"
  }
}
layer {
  name: "conv1_1"
  type: "Convolution"
  bottom: "data"
  top: "conv1_1"
  param {
    lr_mult: 1
    decay_mult: 1
  }
  param {
    lr_mult: 2
    decay_mult: 0
  }
  convolution_param {
    num_output: 64
    pad: 1
    kernel_size: 3
    weight_filler {
      type: "xavier"
    }
    bias_filler {
      type: "constant"
      value: 0
    }
  }
}
layer {
  name: "relu1_1"
  type: "ReLU"
  bottom: "conv1_1"
  top: "conv1_1"
}
layer {
  name: "conv1_2"
  type: "Convolution"
  bottom: "conv1_1"
  top: "conv1_2"
  param {
    lr_mult: 1
    decay_mult: 1
  }
  param {
    lr_mult: 2
    decay_mult: 0
  }
  convolution_param {
    num_output: 64
    pad: 1
    kernel_size: 3
    weight_filler {
      type: "xavier"
    }
    bias_filler {
      type: "constant"
      value: 0
    }
  }
}
layer {
  name: "relu1_2"
  type: "ReLU"
  bottom: "conv1_2"
  top: "conv1_2"
}
layer {
  name: "pool1"
  type: "Pooling"
  bottom: "conv1_2"
  top: "pool1"
  pooling_param {
    pool: MAX
    kernel_size: 2
    stride: 2
  }
}
layer {
  name: "conv2_1"
  type: "Convolution"
  bottom: "pool1"
  top: "conv2_1"
  param {
    lr_mult: 1
    decay_mult: 1
  }
  param {
    lr_mult: 2
    decay_mult: 0
  }
  convolution_param {
    num_output: 128
    pad: 1
    kernel_size: 3
    weight_filler {
      type: "xavier"
    }
    bias_filler {
      type: "constant"
      value: 0
    }
  }
}
layer {
  name: "relu2_1"
  type: "ReLU"
  bottom: "conv2_1"
  top: "conv2_1"
}
layer {
  name: "conv2_2"
  type: "Convolution"
  bottom: "conv2_1"
  top: "conv2_2"
  param {
    lr_mult: 1
    decay_mult: 1
  }
  param {
    lr_mult: 2
    decay_mult: 0
  }
  convolution_param {
    num_output: 128
    pad: 1
    kernel_size: 3
    weight_filler {
      type: "xavier"
    }
    bias_filler {
      type: "constant"
      value: 0
    }
  }
}
layer {
  name: "relu2_2"
  type: "ReLU"
  bottom: "conv2_2"
  top: "conv2_2"
}
layer {
  name: "pool2"
  type: "Pooling"
  bottom: "conv2_2"
  top: "pool2"
  pooling_param {
    pool: MAX
    kernel_size: 2
    stride: 2
  }
}
layer {
  name: "conv3_1"
  type: "Convolution"
  bottom: "pool2"
  top: "conv3_1"
  param {
    lr_mult: 1
    decay_mult: 1
  }
  param {
    lr_mult: 2
    decay_mult: 0
  }
  convolution_param {
    num_output: 256
    pad: 1
    kernel_size: 3
    weight_filler {
      type: "xavier"
    }
    bias_filler {
      type: "constant"
      value: 0
    }
  }
}
layer {
  name: "relu3_1"
  type: "ReLU"
  bottom: "conv3_1"
  top: "conv3_1"
}
layer {
  name: "conv3_2"
  type: "Convolution"
  bottom: "conv3_1"
  top: "conv3_2"
  param {
    lr_mult: 1
    decay_mult: 1
  }
  param {
    lr_mult: 2
    decay_mult: 0
  }
  convolution_param {
    num_output: 256
    pad: 1
    kernel_size: 3
    weight_filler {
      type: "xavier"
    }
    bias_filler {
      type: "constant"
      value: 0
    }
  }
}
layer {
  name: "relu3_2"
  type: "ReLU"
  bottom: "conv3_2"
  top: "conv3_2"
}
layer {
  name: "conv3_3"
  type: "Convolution"
  bottom: "conv3_2"
  top: "conv3_3"
  param {
    lr_mult: 1
    decay_mult: 1
  }
  param {
    lr_mult: 2
    decay_mult: 0
  }
  convolution_param {
    num_output: 256
    pad: 1
    kernel_size: 3
    weight_filler {
      type: "xavier"
    }
    bias_filler {
      type: "constant"
      value: 0
    }
  }
}
layer {
  name: "relu3_3"
  type: "ReLU"
  bottom: "conv3_3"
  top: "conv3_3"
}
layer {
  name: "pool3"
  type: "Pooling"
  bottom: "conv3_3"
  top: "pool3"
  pooling_param {
    pool: MAX
    kernel_size: 2
    stride: 2
  }
}
layer {
  name: "conv4_1"
  type: "Convolution"
  bottom: "pool3"
  top: "conv4_1"
  param {
    lr_mult: 1
    decay_mult: 1
  }
  param {
    lr_mult: 2
    decay_mult: 0
  }
  convolution_param {
    num_output: 512
    pad: 1
    kernel_size: 3
    weight_filler {
      type: "xavier"
    }
    bias_filler {
      type: "constant"
      value: 0
    }
  }
}
layer {
  name: "relu4_1"
  type: "ReLU"
  bottom: "conv4_1"
  top: "conv4_1"
}
layer {
  name: "conv4_2"
  type: "Convolution"
  bottom: "conv4_1"
  top: "conv4_2"
  param {
    lr_mult: 1
    decay_mult: 1
  }
  param {
    lr_mult: 2
    decay_mult: 0
  }
  convolution_param {
    num_output: 512
    pad: 1
    kernel_size: 3
    weight_filler {
      type: "xavier"
    }
    bias_filler {
      type: "constant"
      value: 0
    }
  }
}
layer {
  name: "relu4_2"
  type: "ReLU"
  bottom: "conv4_2"
  top: "conv4_2"
}
layer {
  name: "conv4_3"
  type: "Convolution"
  bottom: "conv4_2"
  top: "conv4_3"
  param {
    lr_mult: 1
    decay_mult: 1
  }
  param {
    lr_mult: 2
    decay_mult: 0
  }
  convolution_param {
    num_output: 512
    pad: 1
    kernel_size: 3
    weight_filler {
      type: "xavier"
    }
    bias_filler {
      type: "constant"
      value: 0
    }
  }
}
layer {
  name: "relu4_3"
  type: "ReLU"
  bottom: "conv4_3"
  top: "conv4_3"
}
layer {
  name: "pool4"
  type: "Pooling"
  bottom: "conv4_3"
  top: "pool4"
  pooling_param {
    pool: MAX
    kernel_size: 2
    stride: 2
  }
}
layer {
  name: "conv5_1_depthwise"
  type: "DepthwiseConvolution"
  bottom: "pool4"
  top: "conv5_1_3x3"
  param {
    lr_mult: 1
    decay_mult: 1
  }
  param {
    lr_mult: 2
    decay_mult: 0
  }
  convolution_param {
    num_output: 512
    pad: 1
    kernel_size: 3
    group: 512
    weight_filler {
      type: "xavier"
    }
    bias_filler {
      type: "constant"
      value: 0
    }
    dilation: 1
  }
}
layer {
  name: "conv5_1_3x3_relu"
  type: "ReLU"
  bottom: "conv5_1_3x3"
  top: "conv5_1_3x3"
}
layer {
  name: "conv5_1_1x1"
  type: "Convolution"
  bottom: "conv5_1_3x3"
  top: "conv5_1"
  param {
    lr_mult: 1
    decay_mult: 1
  }
  param {
    lr_mult: 2
    decay_mult: 0
  }
  convolution_param {
    num_output: 512
    pad: 0
    kernel_size: 1
    stride: 1
    weight_filler {
      type: "xavier"
    }
    bias_filler {
      type: "constant"
      value: 0
    }
    dilation: 1
  }
}
layer {
  name: "relu5_1"
  type: "ReLU"
  bottom: "conv5_1"
  top: "conv5_1"
}
layer {
  name: "conv5_2_depthwise"
  type: "DepthwiseConvolution"
  bottom: "conv5_1"
  top: "conv5_2_3x3"
  param {
    lr_mult: 1
    decay_mult: 1
  }
  param {
    lr_mult: 2
    decay_mult: 0
  }
  convolution_param {
    num_output: 512
    pad: 1
    kernel_size: 3
    group: 512
    weight_filler {
      type: "xavier"
    }
    bias_filler {
      type: "constant"
      value: 0
    }
    dilation: 1
  }
}
layer {
  name: "conv5_2_3x3_relu"
  type: "ReLU"
  bottom: "conv5_2_3x3"
  top: "conv5_2_3x3"
}
layer {
  name: "conv5_2_1x1"
  type: "Convolution"
  bottom: "conv5_2_3x3"
  top: "conv5_2"
  param {
    lr_mult: 1
    decay_mult: 1
  }
  param {
    lr_mult: 2
    decay_mult: 0
  }
  convolution_param {
    num_output: 512
    pad: 0
    kernel_size: 1
    stride: 1
    weight_filler {
      type: "xavier"
    }
    bias_filler {
      type: "constant"
      value: 0
    }
    dilation: 1
  }
}
layer {
  name: "relu5_2"
  type: "ReLU"
  bottom: "conv5_2"
  top: "conv5_2"
}
layer {
  name: "conv5_3_depthwise"
  type: "DepthwiseConvolution"
  bottom: "conv5_2"
  top: "conv5_3_3x3"
  param {
    lr_mult: 1
    decay_mult: 1
  }
  param {
    lr_mult: 2
    decay_mult: 0
  }
  convolution_param {
    num_output: 512
    pad: 1
    kernel_size: 3
    group: 512
    weight_filler {
      type: "xavier"
    }
    bias_filler {
      type: "constant"
      value: 0
    }
    dilation: 1
  }
}
layer {
  name: "conv5_3_3x3_relu"
  type: "ReLU"
  bottom: "conv5_3_3x3"
  top: "conv5_3_3x3"
}
layer {
  name: "conv5_3_1x1"
  type: "Convolution"
  bottom: "conv5_3_3x3"
  top: "conv5_3"
  param {
    lr_mult: 1
    decay_mult: 1
  }
  param {
    lr_mult: 2
    decay_mult: 0
  }
  convolution_param {
    num_output: 512
    pad: 0
    kernel_size: 1
    stride: 1
    weight_filler {
      type: "xavier"
    }
    bias_filler {
      type: "constant"
      value: 0
    }
    dilation: 1
  }
}
layer {
  name: "relu5_3"
  type: "ReLU"
  bottom: "conv5_3"
  top: "conv5_3"
}
layer {
  name: "pool5"
  type: "Pooling"
  bottom: "conv5_3"
  top: "pool5"
  pooling_param {
    pool: MAX
    kernel_size: 3
    stride: 1
    pad: 1
  }
}
layer {
  name: "fc6_depthwise"
  type: "DepthwiseConvolution"
  bottom: "pool5"
  top: "fc6_3x3"
  param {
    lr_mult: 1
    decay_mult: 1
  }
  param {
    lr_mult: 2
    decay_mult: 0
  }
  convolution_param {
    num_output: 512
    pad: 6
    kernel_size: 3
    group: 512
    weight_filler {
      type: "xavier"
    }
    bias_filler {
      type: "constant"
      value: 0
    }
    dilation: 6
  }
}
layer {
  name: "fc6_3x3_relu"
  type: "ReLU"
  bottom: "fc6_3x3"
  top: "fc6_3x3"
}
layer {
  name: "fc6_1x1"
  type: "Convolution"
  bottom: "fc6_3x3"
  top: "fc6"
  param {
    lr_mult: 1
    decay_mult: 1
  }
  param {
    lr_mult: 2
    decay_mult: 0
  }
  convolution_param {
    num_output: 1024
    pad: 0
    kernel_size: 1
    stride: 1
    weight_filler {
      type: "xavier"
    }
    bias_filler {
      type: "constant"
      value: 0
    }
    dilation: 6
  }
}
layer {
  name: "relu6"
  type: "ReLU"
  bottom: "fc6"
  top: "fc6"
}
layer {
  name: "fc7"
  type: "Convolution"
  bottom: "fc6"
  top: "fc7"
  param {
    lr_mult: 1
    decay_mult: 1
  }
  param {
    lr_mult: 2
    decay_mult: 0
  }
  convolution_param {
    num_output: 1024
    kernel_size: 1
    weight_filler {
      type: "xavier"
    }
    bias_filler {
      type: "constant"
      value: 0
    }
  }
}
layer {
  name: "relu7"
  type: "ReLU"
  bottom: "fc7"
  top: "fc7"
}
layer {
  name: "conv6_1"
  type: "Convolution"
  bottom: "fc7"
  top: "conv6_1"
  param {
    lr_mult: 1
    decay_mult: 1
  }
  param {
    lr_mult: 2
    decay_mult: 0
  }
  convolution_param {
    num_output: 256
    pad: 0
    kernel_size: 1
    stride: 1
    weight_filler {
      type: "xavier"
    }
    bias_filler {
      type: "constant"
      value: 0
    }
  }
}
layer {
  name: "conv6_1_relu"
  type: "ReLU"
  bottom: "conv6_1"
  top: "conv6_1"
}
layer {
  name: "conv6_2"
  type: "Convolution"
  bottom: "conv6_1"
  top: "conv6_2"
  param {
    lr_mult: 1
    decay_mult: 1
  }
  param {
    lr_mult: 2
    decay_mult: 0
  }
  convolution_param {
    num_output: 512
    pad: 1
    kernel_size: 3
    stride: 2
    weight_filler {
      type: "xavier"
    }
    bias_filler {
      type: "constant"
      value: 0
    }
  }
}
layer {
  name: "conv6_2_relu"
  type: "ReLU"
  bottom: "conv6_2"
  top: "conv6_2"
}
layer {
  name: "conv7_1"
  type: "Convolution"
  bottom: "conv6_2"
  top: "conv7_1"
  param {
    lr_mult: 1
    decay_mult: 1
  }
  param {
    lr_mult: 2
    decay_mult: 0
  }
  convolution_param {
    num_output: 128
    pad: 0
    kernel_size: 1
    stride: 1
    weight_filler {
      type: "xavier"
    }
    bias_filler {
      type: "constant"
      value: 0
    }
  }
}
layer {
  name: "conv7_1_relu"
  type: "ReLU"
  bottom: "conv7_1"
  top: "conv7_1"
}
layer {
  name: "conv7_2"
  type: "Convolution"
  bottom: "conv7_1"
  top: "conv7_2"
  param {
    lr_mult: 1
    decay_mult: 1
  }
  param {
    lr_mult: 2
    decay_mult: 0
  }
  convolution_param {
    num_output: 256
    pad: 1
    kernel_size: 3
    stride: 2
    weight_filler {
      type: "xavier"
    }
    bias_filler {
      type: "constant"
      value: 0
    }
  }
}
layer {
  name: "conv7_2_relu"
  type: "ReLU"
  bottom: "conv7_2"
  top: "conv7_2"
}
layer {
  name: "conv8_1"
  type: "Convolution"
  bottom: "conv7_2"
  top: "conv8_1"
  param {
    lr_mult: 1
    decay_mult: 1
  }
  param {
    lr_mult: 2
    decay_mult: 0
  }
  convolution_param {
    num_output: 128
    pad: 0
    kernel_size: 1
    stride: 1
    weight_filler {
      type: "xavier"
    }
    bias_filler {
      type: "constant"
      value: 0
    }
  }
}
layer {
  name: "conv8_1_relu"
  type: "ReLU"
  bottom: "conv8_1"
  top: "conv8_1"
}
layer {
  name: "conv8_2"
  type: "Convolution"
  bottom: "conv8_1"
  top: "conv8_2"
  param {
    lr_mult: 1
    decay_mult: 1
  }
  param {
    lr_mult: 2
    decay_mult: 0
  }
  convolution_param {
    num_output: 256
    pad: 0
    kernel_size: 3
    stride: 1
    weight_filler {
      type: "xavier"
    }
    bias_filler {
      type: "constant"
      value: 0
    }
  }
}
layer {
  name: "conv8_2_relu"
  type: "ReLU"
  bottom: "conv8_2"
  top: "conv8_2"
}
layer {
  name: "conv9_1"
  type: "Convolution"
  bottom: "conv8_2"
  top: "conv9_1"
  param {
    lr_mult: 1
    decay_mult: 1
  }
  param {
    lr_mult: 2
    decay_mult: 0
  }
  convolution_param {
    num_output: 128
    pad: 0
    kernel_size: 1
    stride: 1
    weight_filler {
      type: "xavier"
    }
    bias_filler {
      type: "constant"
      value: 0
    }
  }
}
layer {
  name: "conv9_1_relu"
  type: "ReLU"
  bottom: "conv9_1"
  top: "conv9_1"
}
layer {
  name: "conv9_2"
  type: "Convolution"
  bottom: "conv9_1"
  top: "conv9_2"
  param {
    lr_mult: 1
    decay_mult: 1
  }
  param {
    lr_mult: 2
    decay_mult: 0
  }
  convolution_param {
    num_output: 256
    pad: 0
    kernel_size: 3
    stride: 1
    weight_filler {
      type: "xavier"
    }
    bias_filler {
      type: "constant"
      value: 0
    }
  }
}
layer {
  name: "conv9_2_relu"
  type: "ReLU"
  bottom: "conv9_2"
  top: "conv9_2"
}
layer {
  name: "conv4_3_norm"
  type: "Normalize"
  bottom: "conv4_3"
  top: "conv4_3_norm"
  norm_param {
    across_spatial: false
    scale_filler {
      type: "constant"
      value: 20
    }
    channel_shared: false
  }
}
layer {
  name: "conv4_3_norm_mbox_loc"
  type: "Convolution"
  bottom: "conv4_3_norm"
  top: "conv4_3_norm_mbox_loc"
  param {
    lr_mult: 1
    decay_mult: 1
  }
  param {
    lr_mult: 2
    decay_mult: 0
  }
  convolution_param {
    num_output: 16
    pad: 1
    kernel_size: 3
    stride: 1
    weight_filler {
      type: "xavier"
    }
    bias_filler {
      type: "constant"
      value: 0
    }
  }
}
layer {
  name: "conv4_3_norm_mbox_loc_perm"
  type: "Permute"
  bottom: "conv4_3_norm_mbox_loc"
  top: "conv4_3_norm_mbox_loc_perm"
  permute_param {
    order: 0
    order: 2
    order: 3
    order: 1
  }
}
layer {
  name: "conv4_3_norm_mbox_loc_flat"
  type: "Flatten"
  bottom: "conv4_3_norm_mbox_loc_perm"
  top: "conv4_3_norm_mbox_loc_flat"
  flatten_param {
    axis: 1
  }
}
layer {
  name: "conv4_3_norm_mbox_conf"
  type: "Convolution"
  bottom: "conv4_3_norm"
  top: "conv4_3_norm_mbox_conf"
  param {
    lr_mult: 1
    decay_mult: 1
  }
  param {
    lr_mult: 2
    decay_mult: 0
  }
  convolution_param {
    num_output: 44
    pad: 1
    kernel_size: 3
    stride: 1
    weight_filler {
      type: "xavier"
    }
    bias_filler {
      type: "constant"
      value: 0
    }
  }
}
layer {
  name: "conv4_3_norm_mbox_conf_perm"
  type: "Permute"
  bottom: "conv4_3_norm_mbox_conf"
  top: "conv4_3_norm_mbox_conf_perm"
  permute_param {
    order: 0
    order: 2
    order: 3
    order: 1
  }
}
layer {
  name: "conv4_3_norm_mbox_conf_flat"
  type: "Flatten"
  bottom: "conv4_3_norm_mbox_conf_perm"
  top: "conv4_3_norm_mbox_conf_flat"
  flatten_param {
    axis: 1
  }
}
layer {
  name: "conv4_3_norm_mbox_priorbox"
  type: "PriorBox"
  bottom: "conv4_3_norm"
  bottom: "data"
  top: "conv4_3_norm_mbox_priorbox"
  prior_box_param {
    min_size: 30
    max_size: 60
    aspect_ratio: 2
    flip: true
    clip: false
    variance: 0.1
    variance: 0.1
    variance: 0.2
    variance: 0.2
    step: 8
    offset: 0.5
  }
}
layer {
  name: "fc7_mbox_loc"
  type: "Convolution"
  bottom: "fc7"
  top: "fc7_mbox_loc"
  param {
    lr_mult: 1
    decay_mult: 1
  }
  param {
    lr_mult: 2
    decay_mult: 0
  }
  convolution_param {
    num_output: 24
    pad: 1
    kernel_size: 3
    stride: 1
    weight_filler {
      type: "xavier"
    }
    bias_filler {
      type: "constant"
      value: 0
    }
  }
}
layer {
  name: "fc7_mbox_loc_perm"
  type: "Permute"
  bottom: "fc7_mbox_loc"
  top: "fc7_mbox_loc_perm"
  permute_param {
    order: 0
    order: 2
    order: 3
    order: 1
  }
}
layer {
  name: "fc7_mbox_loc_flat"
  type: "Flatten"
  bottom: "fc7_mbox_loc_perm"
  top: "fc7_mbox_loc_flat"
  flatten_param {
    axis: 1
  }
}
layer {
  name: "fc7_mbox_conf"
  type: "Convolution"
  bottom: "fc7"
  top: "fc7_mbox_conf"
  param {
    lr_mult: 1
    decay_mult: 1
  }
  param {
    lr_mult: 2
    decay_mult: 0
  }
  convolution_param {
    num_output: 66
    pad: 1
    kernel_size: 3
    stride: 1
    weight_filler {
      type: "xavier"
    }
    bias_filler {
      type: "constant"
      value: 0
    }
  }
}
layer {
  name: "fc7_mbox_conf_perm"
  type: "Permute"
  bottom: "fc7_mbox_conf"
  top: "fc7_mbox_conf_perm"
  permute_param {
    order: 0
    order: 2
    order: 3
    order: 1
  }
}
layer {
  name: "fc7_mbox_conf_flat"
  type: "Flatten"
  bottom: "fc7_mbox_conf_perm"
  top: "fc7_mbox_conf_flat"
  flatten_param {
    axis: 1
  }
}
layer {
  name: "fc7_mbox_priorbox"
  type: "PriorBox"
  bottom: "fc7"
  bottom: "data"
  top: "fc7_mbox_priorbox"
  prior_box_param {
    min_size: 60
    max_size: 111
    aspect_ratio: 2
    aspect_ratio: 3
    flip: true
    clip: false
    variance: 0.1
    variance: 0.1
    variance: 0.2
    variance: 0.2
    step: 16
    offset: 0.5
  }
}
layer {
  name: "conv6_2_mbox_loc"
  type: "Convolution"
  bottom: "conv6_2"
  top: "conv6_2_mbox_loc"
  param {
    lr_mult: 1
    decay_mult: 1
  }
  param {
    lr_mult: 2
    decay_mult: 0
  }
  convolution_param {
    num_output: 24
    pad: 1
    kernel_size: 3
    stride: 1
    weight_filler {
      type: "xavier"
    }
    bias_filler {
      type: "constant"
      value: 0
    }
  }
}
layer {
  name: "conv6_2_mbox_loc_perm"
  type: "Permute"
  bottom: "conv6_2_mbox_loc"
  top: "conv6_2_mbox_loc_perm"
  permute_param {
    order: 0
    order: 2
    order: 3
    order: 1
  }
}
layer {
  name: "conv6_2_mbox_loc_flat"
  type: "Flatten"
  bottom: "conv6_2_mbox_loc_perm"
  top: "conv6_2_mbox_loc_flat"
  flatten_param {
    axis: 1
  }
}
layer {
  name: "conv6_2_mbox_conf"
  type: "Convolution"
  bottom: "conv6_2"
  top: "conv6_2_mbox_conf"
  param {
    lr_mult: 1
    decay_mult: 1
  }
  param {
    lr_mult: 2
    decay_mult: 0
  }
  convolution_param {
    num_output: 66
    pad: 1
    kernel_size: 3
    stride: 1
    weight_filler {
      type: "xavier"
    }
    bias_filler {
      type: "constant"
      value: 0
    }
  }
}
layer {
  name: "conv6_2_mbox_conf_perm"
  type: "Permute"
  bottom: "conv6_2_mbox_conf"
  top: "conv6_2_mbox_conf_perm"
  permute_param {
    order: 0
    order: 2
    order: 3
    order: 1
  }
}
layer {
  name: "conv6_2_mbox_conf_flat"
  type: "Flatten"
  bottom: "conv6_2_mbox_conf_perm"
  top: "conv6_2_mbox_conf_flat"
  flatten_param {
    axis: 1
  }
}
layer {
  name: "conv6_2_mbox_priorbox"
  type: "PriorBox"
  bottom: "conv6_2"
  bottom: "data"
  top: "conv6_2_mbox_priorbox"
  prior_box_param {
    min_size: 111
    max_size: 162
    aspect_ratio: 2
    aspect_ratio: 3
    flip: true
    clip: false
    variance: 0.1
    variance: 0.1
    variance: 0.2
    variance: 0.2
    step: 32
    offset: 0.5
  }
}
layer {
  name: "conv7_2_mbox_loc"
  type: "Convolution"
  bottom: "conv7_2"
  top: "conv7_2_mbox_loc"
  param {
    lr_mult: 1
    decay_mult: 1
  }
  param {
    lr_mult: 2
    decay_mult: 0
  }
  convolution_param {
    num_output: 24
    pad: 1
    kernel_size: 3
    stride: 1
    weight_filler {
      type: "xavier"
    }
    bias_filler {
      type: "constant"
      value: 0
    }
  }
}
layer {
  name: "conv7_2_mbox_loc_perm"
  type: "Permute"
  bottom: "conv7_2_mbox_loc"
  top: "conv7_2_mbox_loc_perm"
  permute_param {
    order: 0
    order: 2
    order: 3
    order: 1
  }
}
layer {
  name: "conv7_2_mbox_loc_flat"
  type: "Flatten"
  bottom: "conv7_2_mbox_loc_perm"
  top: "conv7_2_mbox_loc_flat"
  flatten_param {
    axis: 1
  }
}
layer {
  name: "conv7_2_mbox_conf"
  type: "Convolution"
  bottom: "conv7_2"
  top: "conv7_2_mbox_conf"
  param {
    lr_mult: 1
    decay_mult: 1
  }
  param {
    lr_mult: 2
    decay_mult: 0
  }
  convolution_param {
    num_output: 66
    pad: 1
    kernel_size: 3
    stride: 1
    weight_filler {
      type: "xavier"
    }
    bias_filler {
      type: "constant"
      value: 0
    }
  }
}
layer {
  name: "conv7_2_mbox_conf_perm"
  type: "Permute"
  bottom: "conv7_2_mbox_conf"
  top: "conv7_2_mbox_conf_perm"
  permute_param {
    order: 0
    order: 2
    order: 3
    order: 1
  }
}
layer {
  name: "conv7_2_mbox_conf_flat"
  type: "Flatten"
  bottom: "conv7_2_mbox_conf_perm"
  top: "conv7_2_mbox_conf_flat"
  flatten_param {
    axis: 1
  }
}
layer {
  name: "conv7_2_mbox_priorbox"
  type: "PriorBox"
  bottom: "conv7_2"
  bottom: "data"
  top: "conv7_2_mbox_priorbox"
  prior_box_param {
    min_size: 162
    max_size: 213
    aspect_ratio: 2
    aspect_ratio: 3
    flip: true
    clip: false
    variance: 0.1
    variance: 0.1
    variance: 0.2
    variance: 0.2
    step: 64
    offset: 0.5
  }
}
layer {
  name: "conv8_2_mbox_loc"
  type: "Convolution"
  bottom: "conv8_2"
  top: "conv8_2_mbox_loc"
  param {
    lr_mult: 1
    decay_mult: 1
  }
  param {
    lr_mult: 2
    decay_mult: 0
  }
  convolution_param {
    num_output: 16
    pad: 1
    kernel_size: 3
    stride: 1
    weight_filler {
      type: "xavier"
    }
    bias_filler {
      type: "constant"
      value: 0
    }
  }
}
layer {
  name: "conv8_2_mbox_loc_perm"
  type: "Permute"
  bottom: "conv8_2_mbox_loc"
  top: "conv8_2_mbox_loc_perm"
  permute_param {
    order: 0
    order: 2
    order: 3
    order: 1
  }
}
layer {
  name: "conv8_2_mbox_loc_flat"
  type: "Flatten"
  bottom: "conv8_2_mbox_loc_perm"
  top: "conv8_2_mbox_loc_flat"
  flatten_param {
    axis: 1
  }
}
layer {
  name: "conv8_2_mbox_conf"
  type: "Convolution"
  bottom: "conv8_2"
  top: "conv8_2_mbox_conf"
  param {
    lr_mult: 1
    decay_mult: 1
  }
  param {
    lr_mult: 2
    decay_mult: 0
  }
  convolution_param {
    num_output: 44
    pad: 1
    kernel_size: 3
    stride: 1
    weight_filler {
      type: "xavier"
    }
    bias_filler {
      type: "constant"
      value: 0
    }
  }
}
layer {
  name: "conv8_2_mbox_conf_perm"
  type: "Permute"
  bottom: "conv8_2_mbox_conf"
  top: "conv8_2_mbox_conf_perm"
  permute_param {
    order: 0
    order: 2
    order: 3
    order: 1
  }
}
layer {
  name: "conv8_2_mbox_conf_flat"
  type: "Flatten"
  bottom: "conv8_2_mbox_conf_perm"
  top: "conv8_2_mbox_conf_flat"
  flatten_param {
    axis: 1
  }
}
layer {
  name: "conv8_2_mbox_priorbox"
  type: "PriorBox"
  bottom: "conv8_2"
  bottom: "data"
  top: "conv8_2_mbox_priorbox"
  prior_box_param {
    min_size: 213
    max_size: 264
    aspect_ratio: 2
    flip: true
    clip: false
    variance: 0.1
    variance: 0.1
    variance: 0.2
    variance: 0.2
    step: 100
    offset: 0.5
  }
}
layer {
  name: "conv9_2_mbox_loc"
  type: "Convolution"
  bottom: "conv9_2"
  top: "conv9_2_mbox_loc"
  param {
    lr_mult: 1
    decay_mult: 1
  }
  param {
    lr_mult: 2
    decay_mult: 0
  }
  convolution_param {
    num_output: 16
    pad: 1
    kernel_size: 3
    stride: 1
    weight_filler {
      type: "xavier"
    }
    bias_filler {
      type: "constant"
      value: 0
    }
  }
}
layer {
  name: "conv9_2_mbox_loc_perm"
  type: "Permute"
  bottom: "conv9_2_mbox_loc"
  top: "conv9_2_mbox_loc_perm"
  permute_param {
    order: 0
    order: 2
    order: 3
    order: 1
  }
}
layer {
  name: "conv9_2_mbox_loc_flat"
  type: "Flatten"
  bottom: "conv9_2_mbox_loc_perm"
  top: "conv9_2_mbox_loc_flat"
  flatten_param {
    axis: 1
  }
}
layer {
  name: "conv9_2_mbox_conf"
  type: "Convolution"
  bottom: "conv9_2"
  top: "conv9_2_mbox_conf"
  param {
    lr_mult: 1
    decay_mult: 1
  }
  param {
    lr_mult: 2
    decay_mult: 0
  }
  convolution_param {
    num_output: 44
    pad: 1
    kernel_size: 3
    stride: 1
    weight_filler {
      type: "xavier"
    }
    bias_filler {
      type: "constant"
      value: 0
    }
  }
}
layer {
  name: "conv9_2_mbox_conf_perm"
  type: "Permute"
  bottom: "conv9_2_mbox_conf"
  top: "conv9_2_mbox_conf_perm"
  permute_param {
    order: 0
    order: 2
    order: 3
    order: 1
  }
}
layer {
  name: "conv9_2_mbox_conf_flat"
  type: "Flatten"
  bottom: "conv9_2_mbox_conf_perm"
  top: "conv9_2_mbox_conf_flat"
  flatten_param {
    axis: 1
  }
}
layer {
  name: "conv9_2_mbox_priorbox"
  type: "PriorBox"
  bottom: "conv9_2"
  bottom: "data"
  top: "conv9_2_mbox_priorbox"
  prior_box_param {
    min_size: 264
    max_size: 315
    aspect_ratio: 2
    flip: true
    clip: false
    variance: 0.1
    variance: 0.1
    variance: 0.2
    variance: 0.2
    step: 300
    offset: 0.5
  }
}
layer {
  name: "mbox_loc"
  type: "Concat"
  bottom: "conv4_3_norm_mbox_loc_flat"
  bottom: "fc7_mbox_loc_flat"
  bottom: "conv6_2_mbox_loc_flat"
  bottom: "conv7_2_mbox_loc_flat"
  bottom: "conv8_2_mbox_loc_flat"
  bottom: "conv9_2_mbox_loc_flat"
  top: "mbox_loc"
  concat_param {
    axis: 1
  }
}
layer {
  name: "mbox_conf"
  type: "Concat"
  bottom: "conv4_3_norm_mbox_conf_flat"
  bottom: "fc7_mbox_conf_flat"
  bottom: "conv6_2_mbox_conf_flat"
  bottom: "conv7_2_mbox_conf_flat"
  bottom: "conv8_2_mbox_conf_flat"
  bottom: "conv9_2_mbox_conf_flat"
  top: "mbox_conf"
  concat_param {
    axis: 1
  }
}
layer {
  name: "mbox_priorbox"
  type: "Concat"
  bottom: "conv4_3_norm_mbox_priorbox"
  bottom: "fc7_mbox_priorbox"
  bottom: "conv6_2_mbox_priorbox"
  bottom: "conv7_2_mbox_priorbox"
  bottom: "conv8_2_mbox_priorbox"
  bottom: "conv9_2_mbox_priorbox"
  top: "mbox_priorbox"
  concat_param {
    axis: 2
  }
}
layer {
  name: "mbox_loss"
  type: "MultiBoxLoss"
  bottom: "mbox_loc"
  bottom: "mbox_conf"
  bottom: "mbox_priorbox"
  bottom: "label"
  top: "mbox_loss"
  include {
    phase: TRAIN
  }
  propagate_down: true
  propagate_down: true
  propagate_down: false
  propagate_down: false
  loss_param {
    normalization: VALID
  }
  multibox_loss_param {
    loc_loss_type: SMOOTH_L1
    conf_loss_type: SOFTMAX
    loc_weight: 1
    num_classes: 11
    share_location: true
    match_type: PER_PREDICTION
    overlap_threshold: 0.5
    use_prior_for_matching: true
    background_label_id: 0
    use_difficult_gt: true
    neg_pos_ratio: 3
    neg_overlap: 0.5
    code_type: CENTER_SIZE
    ignore_cross_boundary_bbox: false
    mining_type: MAX_NEGATIVE
  }
}
I0321 15:15:57.097201 32543 layer_factory.hpp:77] Creating layer data
I0321 15:15:57.097599 32543 net.cpp:100] Creating Layer data
I0321 15:15:57.097612 32543 net.cpp:408] data -> data
I0321 15:15:57.097645 32543 net.cpp:408] data -> label
I0321 15:15:57.099232 32558 db_lmdb.cpp:35] Opened lmdb examples/NWPU_VHR/NWPU_VHR_trainval_lmdb
I0321 15:15:57.116688 32543 annotated_data_layer.cpp:62] output data size: 32,3,300,300
I0321 15:15:57.163775 32543 net.cpp:150] Setting up data
I0321 15:15:57.163803 32543 net.cpp:157] Top shape: 32 3 300 300 (8640000)
I0321 15:15:57.163810 32543 net.cpp:157] Top shape: 1 1 4 8 (32)
I0321 15:15:57.163815 32543 net.cpp:165] Memory required for data: 34560128
I0321 15:15:57.163826 32543 layer_factory.hpp:77] Creating layer data_data_0_split
I0321 15:15:57.163841 32543 net.cpp:100] Creating Layer data_data_0_split
I0321 15:15:57.163849 32543 net.cpp:434] data_data_0_split <- data
I0321 15:15:57.163863 32543 net.cpp:408] data_data_0_split -> data_data_0_split_0
I0321 15:15:57.163877 32543 net.cpp:408] data_data_0_split -> data_data_0_split_1
I0321 15:15:57.163885 32543 net.cpp:408] data_data_0_split -> data_data_0_split_2
I0321 15:15:57.163892 32543 net.cpp:408] data_data_0_split -> data_data_0_split_3
I0321 15:15:57.163899 32543 net.cpp:408] data_data_0_split -> data_data_0_split_4
I0321 15:15:57.163905 32543 net.cpp:408] data_data_0_split -> data_data_0_split_5
I0321 15:15:57.163914 32543 net.cpp:408] data_data_0_split -> data_data_0_split_6
I0321 15:15:57.164052 32543 net.cpp:150] Setting up data_data_0_split
I0321 15:15:57.164065 32543 net.cpp:157] Top shape: 32 3 300 300 (8640000)
I0321 15:15:57.164072 32543 net.cpp:157] Top shape: 32 3 300 300 (8640000)
I0321 15:15:57.164081 32543 net.cpp:157] Top shape: 32 3 300 300 (8640000)
I0321 15:15:57.164090 32543 net.cpp:157] Top shape: 32 3 300 300 (8640000)
I0321 15:15:57.164096 32543 net.cpp:157] Top shape: 32 3 300 300 (8640000)
I0321 15:15:57.164104 32543 net.cpp:157] Top shape: 32 3 300 300 (8640000)
I0321 15:15:57.164110 32543 net.cpp:157] Top shape: 32 3 300 300 (8640000)
I0321 15:15:57.164119 32543 net.cpp:165] Memory required for data: 276480128
I0321 15:15:57.164124 32543 layer_factory.hpp:77] Creating layer conv1_1
I0321 15:15:57.164150 32543 net.cpp:100] Creating Layer conv1_1
I0321 15:15:57.164158 32543 net.cpp:434] conv1_1 <- data_data_0_split_0
I0321 15:15:57.164171 32543 net.cpp:408] conv1_1 -> conv1_1
I0321 15:15:57.625454 32543 net.cpp:150] Setting up conv1_1
I0321 15:15:57.625496 32543 net.cpp:157] Top shape: 32 64 300 300 (184320000)
I0321 15:15:57.625501 32543 net.cpp:165] Memory required for data: 1013760128
I0321 15:15:57.625519 32543 layer_factory.hpp:77] Creating layer relu1_1
I0321 15:15:57.625530 32543 net.cpp:100] Creating Layer relu1_1
I0321 15:15:57.625535 32543 net.cpp:434] relu1_1 <- conv1_1
I0321 15:15:57.625541 32543 net.cpp:395] relu1_1 -> conv1_1 (in-place)
I0321 15:15:57.626194 32543 net.cpp:150] Setting up relu1_1
I0321 15:15:57.626207 32543 net.cpp:157] Top shape: 32 64 300 300 (184320000)
I0321 15:15:57.626211 32543 net.cpp:165] Memory required for data: 1751040128
I0321 15:15:57.626215 32543 layer_factory.hpp:77] Creating layer conv1_2
I0321 15:15:57.626229 32543 net.cpp:100] Creating Layer conv1_2
I0321 15:15:57.626233 32543 net.cpp:434] conv1_2 <- conv1_1
I0321 15:15:57.626240 32543 net.cpp:408] conv1_2 -> conv1_2
I0321 15:15:57.628358 32543 net.cpp:150] Setting up conv1_2
I0321 15:15:57.628373 32543 net.cpp:157] Top shape: 32 64 300 300 (184320000)
I0321 15:15:57.628378 32543 net.cpp:165] Memory required for data: 2488320128
I0321 15:15:57.628387 32543 layer_factory.hpp:77] Creating layer relu1_2
I0321 15:15:57.628394 32543 net.cpp:100] Creating Layer relu1_2
I0321 15:15:57.628401 32543 net.cpp:434] relu1_2 <- conv1_2
I0321 15:15:57.628406 32543 net.cpp:395] relu1_2 -> conv1_2 (in-place)
I0321 15:15:57.628543 32543 net.cpp:150] Setting up relu1_2
I0321 15:15:57.628553 32543 net.cpp:157] Top shape: 32 64 300 300 (184320000)
I0321 15:15:57.628558 32543 net.cpp:165] Memory required for data: 3225600128
I0321 15:15:57.628562 32543 layer_factory.hpp:77] Creating layer pool1
I0321 15:15:57.628569 32543 net.cpp:100] Creating Layer pool1
I0321 15:15:57.628573 32543 net.cpp:434] pool1 <- conv1_2
I0321 15:15:57.628579 32543 net.cpp:408] pool1 -> pool1
I0321 15:15:57.628621 32543 net.cpp:150] Setting up pool1
I0321 15:15:57.628628 32543 net.cpp:157] Top shape: 32 64 150 150 (46080000)
I0321 15:15:57.628630 32543 net.cpp:165] Memory required for data: 3409920128
I0321 15:15:57.628634 32543 layer_factory.hpp:77] Creating layer conv2_1
I0321 15:15:57.628643 32543 net.cpp:100] Creating Layer conv2_1
I0321 15:15:57.628648 32543 net.cpp:434] conv2_1 <- pool1
I0321 15:15:57.628652 32543 net.cpp:408] conv2_1 -> conv2_1
I0321 15:15:57.630511 32543 net.cpp:150] Setting up conv2_1
I0321 15:15:57.630523 32543 net.cpp:157] Top shape: 32 128 150 150 (92160000)
I0321 15:15:57.630527 32543 net.cpp:165] Memory required for data: 3778560128
I0321 15:15:57.630535 32543 layer_factory.hpp:77] Creating layer relu2_1
I0321 15:15:57.630544 32543 net.cpp:100] Creating Layer relu2_1
I0321 15:15:57.630548 32543 net.cpp:434] relu2_1 <- conv2_1
I0321 15:15:57.630553 32543 net.cpp:395] relu2_1 -> conv2_1 (in-place)
I0321 15:15:57.630697 32543 net.cpp:150] Setting up relu2_1
I0321 15:15:57.630707 32543 net.cpp:157] Top shape: 32 128 150 150 (92160000)
I0321 15:15:57.630710 32543 net.cpp:165] Memory required for data: 4147200128
I0321 15:15:57.630713 32543 layer_factory.hpp:77] Creating layer conv2_2
I0321 15:15:57.630722 32543 net.cpp:100] Creating Layer conv2_2
I0321 15:15:57.630726 32543 net.cpp:434] conv2_2 <- conv2_1
I0321 15:15:57.630731 32543 net.cpp:408] conv2_2 -> conv2_2
I0321 15:15:57.632884 32543 net.cpp:150] Setting up conv2_2
I0321 15:15:57.632895 32543 net.cpp:157] Top shape: 32 128 150 150 (92160000)
I0321 15:15:57.632900 32543 net.cpp:165] Memory required for data: 4515840128
I0321 15:15:57.632906 32543 layer_factory.hpp:77] Creating layer relu2_2
I0321 15:15:57.632912 32543 net.cpp:100] Creating Layer relu2_2
I0321 15:15:57.632917 32543 net.cpp:434] relu2_2 <- conv2_2
I0321 15:15:57.632923 32543 net.cpp:395] relu2_2 -> conv2_2 (in-place)
I0321 15:15:57.633530 32543 net.cpp:150] Setting up relu2_2
I0321 15:15:57.633543 32543 net.cpp:157] Top shape: 32 128 150 150 (92160000)
I0321 15:15:57.633546 32543 net.cpp:165] Memory required for data: 4884480128
I0321 15:15:57.633551 32543 layer_factory.hpp:77] Creating layer pool2
I0321 15:15:57.633558 32543 net.cpp:100] Creating Layer pool2
I0321 15:15:57.633563 32543 net.cpp:434] pool2 <- conv2_2
I0321 15:15:57.633569 32543 net.cpp:408] pool2 -> pool2
I0321 15:15:57.633603 32543 net.cpp:150] Setting up pool2
I0321 15:15:57.633610 32543 net.cpp:157] Top shape: 32 128 75 75 (23040000)
I0321 15:15:57.633615 32543 net.cpp:165] Memory required for data: 4976640128
I0321 15:15:57.633617 32543 layer_factory.hpp:77] Creating layer conv3_1
I0321 15:15:57.633627 32543 net.cpp:100] Creating Layer conv3_1
I0321 15:15:57.633642 32543 net.cpp:434] conv3_1 <- pool2
I0321 15:15:57.633648 32543 net.cpp:408] conv3_1 -> conv3_1
I0321 15:15:57.637934 32543 net.cpp:150] Setting up conv3_1
I0321 15:15:57.637953 32543 net.cpp:157] Top shape: 32 256 75 75 (46080000)
I0321 15:15:57.637956 32543 net.cpp:165] Memory required for data: 5160960128
I0321 15:15:57.637967 32543 layer_factory.hpp:77] Creating layer relu3_1
I0321 15:15:57.637975 32543 net.cpp:100] Creating Layer relu3_1
I0321 15:15:57.637980 32543 net.cpp:434] relu3_1 <- conv3_1
I0321 15:15:57.637986 32543 net.cpp:395] relu3_1 -> conv3_1 (in-place)
I0321 15:15:57.638145 32543 net.cpp:150] Setting up relu3_1
I0321 15:15:57.638155 32543 net.cpp:157] Top shape: 32 256 75 75 (46080000)
I0321 15:15:57.638160 32543 net.cpp:165] Memory required for data: 5345280128
I0321 15:15:57.638164 32543 layer_factory.hpp:77] Creating layer conv3_2
I0321 15:15:57.638173 32543 net.cpp:100] Creating Layer conv3_2
I0321 15:15:57.638177 32543 net.cpp:434] conv3_2 <- conv3_1
I0321 15:15:57.638185 32543 net.cpp:408] conv3_2 -> conv3_2
I0321 15:15:57.643007 32543 net.cpp:150] Setting up conv3_2
I0321 15:15:57.643020 32543 net.cpp:157] Top shape: 32 256 75 75 (46080000)
I0321 15:15:57.643024 32543 net.cpp:165] Memory required for data: 5529600128
I0321 15:15:57.643033 32543 layer_factory.hpp:77] Creating layer relu3_2
I0321 15:15:57.643038 32543 net.cpp:100] Creating Layer relu3_2
I0321 15:15:57.643043 32543 net.cpp:434] relu3_2 <- conv3_2
I0321 15:15:57.643049 32543 net.cpp:395] relu3_2 -> conv3_2 (in-place)
I0321 15:15:57.643198 32543 net.cpp:150] Setting up relu3_2
I0321 15:15:57.643206 32543 net.cpp:157] Top shape: 32 256 75 75 (46080000)
I0321 15:15:57.643210 32543 net.cpp:165] Memory required for data: 5713920128
I0321 15:15:57.643213 32543 layer_factory.hpp:77] Creating layer conv3_3
I0321 15:15:57.643225 32543 net.cpp:100] Creating Layer conv3_3
I0321 15:15:57.643229 32543 net.cpp:434] conv3_3 <- conv3_2
I0321 15:15:57.643235 32543 net.cpp:408] conv3_3 -> conv3_3
I0321 15:15:57.648066 32543 net.cpp:150] Setting up conv3_3
I0321 15:15:57.648102 32543 net.cpp:157] Top shape: 32 256 75 75 (46080000)
I0321 15:15:57.648106 32543 net.cpp:165] Memory required for data: 5898240128
I0321 15:15:57.648114 32543 layer_factory.hpp:77] Creating layer relu3_3
I0321 15:15:57.648123 32543 net.cpp:100] Creating Layer relu3_3
I0321 15:15:57.648128 32543 net.cpp:434] relu3_3 <- conv3_3
I0321 15:15:57.648133 32543 net.cpp:395] relu3_3 -> conv3_3 (in-place)
I0321 15:15:57.648783 32543 net.cpp:150] Setting up relu3_3
I0321 15:15:57.648795 32543 net.cpp:157] Top shape: 32 256 75 75 (46080000)
I0321 15:15:57.648800 32543 net.cpp:165] Memory required for data: 6082560128
I0321 15:15:57.648804 32543 layer_factory.hpp:77] Creating layer pool3
I0321 15:15:57.648811 32543 net.cpp:100] Creating Layer pool3
I0321 15:15:57.648815 32543 net.cpp:434] pool3 <- conv3_3
I0321 15:15:57.648823 32543 net.cpp:408] pool3 -> pool3
I0321 15:15:57.648862 32543 net.cpp:150] Setting up pool3
I0321 15:15:57.648869 32543 net.cpp:157] Top shape: 32 256 38 38 (11829248)
I0321 15:15:57.648871 32543 net.cpp:165] Memory required for data: 6129877120
I0321 15:15:57.648875 32543 layer_factory.hpp:77] Creating layer conv4_1
I0321 15:15:57.648885 32543 net.cpp:100] Creating Layer conv4_1
I0321 15:15:57.648888 32543 net.cpp:434] conv4_1 <- pool3
I0321 15:15:57.648893 32543 net.cpp:408] conv4_1 -> conv4_1
I0321 15:15:57.657677 32543 net.cpp:150] Setting up conv4_1
I0321 15:15:57.657711 32543 net.cpp:157] Top shape: 32 512 38 38 (23658496)
I0321 15:15:57.657716 32543 net.cpp:165] Memory required for data: 6224511104
I0321 15:15:57.657724 32543 layer_factory.hpp:77] Creating layer relu4_1
I0321 15:15:57.657747 32543 net.cpp:100] Creating Layer relu4_1
I0321 15:15:57.657752 32543 net.cpp:434] relu4_1 <- conv4_1
I0321 15:15:57.657757 32543 net.cpp:395] relu4_1 -> conv4_1 (in-place)
I0321 15:15:57.657912 32543 net.cpp:150] Setting up relu4_1
I0321 15:15:57.657922 32543 net.cpp:157] Top shape: 32 512 38 38 (23658496)
I0321 15:15:57.657939 32543 net.cpp:165] Memory required for data: 6319145088
I0321 15:15:57.657944 32543 layer_factory.hpp:77] Creating layer conv4_2
I0321 15:15:57.657954 32543 net.cpp:100] Creating Layer conv4_2
I0321 15:15:57.657959 32543 net.cpp:434] conv4_2 <- conv4_1
I0321 15:15:57.657964 32543 net.cpp:408] conv4_2 -> conv4_2
I0321 15:15:57.671809 32543 net.cpp:150] Setting up conv4_2
I0321 15:15:57.671847 32543 net.cpp:157] Top shape: 32 512 38 38 (23658496)
I0321 15:15:57.671852 32543 net.cpp:165] Memory required for data: 6413779072
I0321 15:15:57.671865 32543 layer_factory.hpp:77] Creating layer relu4_2
I0321 15:15:57.671875 32543 net.cpp:100] Creating Layer relu4_2
I0321 15:15:57.671880 32543 net.cpp:434] relu4_2 <- conv4_2
I0321 15:15:57.671887 32543 net.cpp:395] relu4_2 -> conv4_2 (in-place)
I0321 15:15:57.672035 32543 net.cpp:150] Setting up relu4_2
I0321 15:15:57.672044 32543 net.cpp:157] Top shape: 32 512 38 38 (23658496)
I0321 15:15:57.672049 32543 net.cpp:165] Memory required for data: 6508413056
I0321 15:15:57.672053 32543 layer_factory.hpp:77] Creating layer conv4_3
I0321 15:15:57.672063 32543 net.cpp:100] Creating Layer conv4_3
I0321 15:15:57.672067 32543 net.cpp:434] conv4_3 <- conv4_2
I0321 15:15:57.672073 32543 net.cpp:408] conv4_3 -> conv4_3
I0321 15:15:57.686072 32543 net.cpp:150] Setting up conv4_3
I0321 15:15:57.686111 32543 net.cpp:157] Top shape: 32 512 38 38 (23658496)
I0321 15:15:57.686115 32543 net.cpp:165] Memory required for data: 6603047040
I0321 15:15:57.686125 32543 layer_factory.hpp:77] Creating layer relu4_3
I0321 15:15:57.686134 32543 net.cpp:100] Creating Layer relu4_3
I0321 15:15:57.686139 32543 net.cpp:434] relu4_3 <- conv4_3
I0321 15:15:57.686146 32543 net.cpp:395] relu4_3 -> conv4_3 (in-place)
I0321 15:15:57.686309 32543 net.cpp:150] Setting up relu4_3
I0321 15:15:57.686319 32543 net.cpp:157] Top shape: 32 512 38 38 (23658496)
I0321 15:15:57.686324 32543 net.cpp:165] Memory required for data: 6697681024
I0321 15:15:57.686328 32543 layer_factory.hpp:77] Creating layer conv4_3_relu4_3_0_split
I0321 15:15:57.686336 32543 net.cpp:100] Creating Layer conv4_3_relu4_3_0_split
I0321 15:15:57.686339 32543 net.cpp:434] conv4_3_relu4_3_0_split <- conv4_3
I0321 15:15:57.686345 32543 net.cpp:408] conv4_3_relu4_3_0_split -> conv4_3_relu4_3_0_split_0
I0321 15:15:57.686352 32543 net.cpp:408] conv4_3_relu4_3_0_split -> conv4_3_relu4_3_0_split_1
I0321 15:15:57.686385 32543 net.cpp:150] Setting up conv4_3_relu4_3_0_split
I0321 15:15:57.686393 32543 net.cpp:157] Top shape: 32 512 38 38 (23658496)
I0321 15:15:57.686398 32543 net.cpp:157] Top shape: 32 512 38 38 (23658496)
I0321 15:15:57.686401 32543 net.cpp:165] Memory required for data: 6886948992
I0321 15:15:57.686404 32543 layer_factory.hpp:77] Creating layer pool4
I0321 15:15:57.686414 32543 net.cpp:100] Creating Layer pool4
I0321 15:15:57.686416 32543 net.cpp:434] pool4 <- conv4_3_relu4_3_0_split_0
I0321 15:15:57.686422 32543 net.cpp:408] pool4 -> pool4
I0321 15:15:57.686452 32543 net.cpp:150] Setting up pool4
I0321 15:15:57.686460 32543 net.cpp:157] Top shape: 32 512 19 19 (5914624)
I0321 15:15:57.686465 32543 net.cpp:165] Memory required for data: 6910607488
I0321 15:15:57.686467 32543 layer_factory.hpp:77] Creating layer conv5_1_depthwise
I0321 15:15:57.686476 32543 net.cpp:100] Creating Layer conv5_1_depthwise
I0321 15:15:57.686481 32543 net.cpp:434] conv5_1_depthwise <- pool4
I0321 15:15:57.686486 32543 net.cpp:408] conv5_1_depthwise -> conv5_1_3x3
I0321 15:15:57.686691 32543 net.cpp:150] Setting up conv5_1_depthwise
I0321 15:15:57.686698 32543 net.cpp:157] Top shape: 32 512 19 19 (5914624)
I0321 15:15:57.686702 32543 net.cpp:165] Memory required for data: 6934265984
I0321 15:15:57.686708 32543 layer_factory.hpp:77] Creating layer conv5_1_3x3_relu
I0321 15:15:57.686714 32543 net.cpp:100] Creating Layer conv5_1_3x3_relu
I0321 15:15:57.686719 32543 net.cpp:434] conv5_1_3x3_relu <- conv5_1_3x3
I0321 15:15:57.686724 32543 net.cpp:395] conv5_1_3x3_relu -> conv5_1_3x3 (in-place)
I0321 15:15:57.687405 32543 net.cpp:150] Setting up conv5_1_3x3_relu
I0321 15:15:57.687430 32543 net.cpp:157] Top shape: 32 512 19 19 (5914624)
I0321 15:15:57.687434 32543 net.cpp:165] Memory required for data: 6957924480
I0321 15:15:57.687439 32543 layer_factory.hpp:77] Creating layer conv5_1_1x1
I0321 15:15:57.687448 32543 net.cpp:100] Creating Layer conv5_1_1x1
I0321 15:15:57.687453 32543 net.cpp:434] conv5_1_1x1 <- conv5_1_3x3
I0321 15:15:57.687458 32543 net.cpp:408] conv5_1_1x1 -> conv5_1
I0321 15:15:57.691057 32543 net.cpp:150] Setting up conv5_1_1x1
I0321 15:15:57.691087 32543 net.cpp:157] Top shape: 32 512 19 19 (5914624)
I0321 15:15:57.691090 32543 net.cpp:165] Memory required for data: 6981582976
I0321 15:15:57.691097 32543 layer_factory.hpp:77] Creating layer relu5_1
I0321 15:15:57.691104 32543 net.cpp:100] Creating Layer relu5_1
I0321 15:15:57.691108 32543 net.cpp:434] relu5_1 <- conv5_1
I0321 15:15:57.691115 32543 net.cpp:395] relu5_1 -> conv5_1 (in-place)
I0321 15:15:57.691278 32543 net.cpp:150] Setting up relu5_1
I0321 15:15:57.691288 32543 net.cpp:157] Top shape: 32 512 19 19 (5914624)
I0321 15:15:57.691293 32543 net.cpp:165] Memory required for data: 7005241472
I0321 15:15:57.691296 32543 layer_factory.hpp:77] Creating layer conv5_2_depthwise
I0321 15:15:57.691304 32543 net.cpp:100] Creating Layer conv5_2_depthwise
I0321 15:15:57.691310 32543 net.cpp:434] conv5_2_depthwise <- conv5_1
I0321 15:15:57.691318 32543 net.cpp:408] conv5_2_depthwise -> conv5_2_3x3
I0321 15:15:57.691534 32543 net.cpp:150] Setting up conv5_2_depthwise
I0321 15:15:57.691541 32543 net.cpp:157] Top shape: 32 512 19 19 (5914624)
I0321 15:15:57.691545 32543 net.cpp:165] Memory required for data: 7028899968
I0321 15:15:57.691550 32543 layer_factory.hpp:77] Creating layer conv5_2_3x3_relu
I0321 15:15:57.691561 32543 net.cpp:100] Creating Layer conv5_2_3x3_relu
I0321 15:15:57.691565 32543 net.cpp:434] conv5_2_3x3_relu <- conv5_2_3x3
I0321 15:15:57.691571 32543 net.cpp:395] conv5_2_3x3_relu -> conv5_2_3x3 (in-place)
I0321 15:15:57.691728 32543 net.cpp:150] Setting up conv5_2_3x3_relu
I0321 15:15:57.691736 32543 net.cpp:157] Top shape: 32 512 19 19 (5914624)
I0321 15:15:57.691740 32543 net.cpp:165] Memory required for data: 7052558464
I0321 15:15:57.691745 32543 layer_factory.hpp:77] Creating layer conv5_2_1x1
I0321 15:15:57.691753 32543 net.cpp:100] Creating Layer conv5_2_1x1
I0321 15:15:57.691757 32543 net.cpp:434] conv5_2_1x1 <- conv5_2_3x3
I0321 15:15:57.691764 32543 net.cpp:408] conv5_2_1x1 -> conv5_2
I0321 15:15:57.694036 32543 net.cpp:150] Setting up conv5_2_1x1
I0321 15:15:57.694049 32543 net.cpp:157] Top shape: 32 512 19 19 (5914624)
I0321 15:15:57.694052 32543 net.cpp:165] Memory required for data: 7076216960
I0321 15:15:57.694059 32543 layer_factory.hpp:77] Creating layer relu5_2
I0321 15:15:57.694067 32543 net.cpp:100] Creating Layer relu5_2
I0321 15:15:57.694070 32543 net.cpp:434] relu5_2 <- conv5_2
I0321 15:15:57.694075 32543 net.cpp:395] relu5_2 -> conv5_2 (in-place)
I0321 15:15:57.694736 32543 net.cpp:150] Setting up relu5_2
I0321 15:15:57.694748 32543 net.cpp:157] Top shape: 32 512 19 19 (5914624)
I0321 15:15:57.694767 32543 net.cpp:165] Memory required for data: 7099875456
I0321 15:15:57.694772 32543 layer_factory.hpp:77] Creating layer conv5_3_depthwise
I0321 15:15:57.694780 32543 net.cpp:100] Creating Layer conv5_3_depthwise
I0321 15:15:57.694785 32543 net.cpp:434] conv5_3_depthwise <- conv5_2
I0321 15:15:57.694792 32543 net.cpp:408] conv5_3_depthwise -> conv5_3_3x3
I0321 15:15:57.695013 32543 net.cpp:150] Setting up conv5_3_depthwise
I0321 15:15:57.695021 32543 net.cpp:157] Top shape: 32 512 19 19 (5914624)
I0321 15:15:57.695025 32543 net.cpp:165] Memory required for data: 7123533952
I0321 15:15:57.695030 32543 layer_factory.hpp:77] Creating layer conv5_3_3x3_relu
I0321 15:15:57.695036 32543 net.cpp:100] Creating Layer conv5_3_3x3_relu
I0321 15:15:57.695040 32543 net.cpp:434] conv5_3_3x3_relu <- conv5_3_3x3
I0321 15:15:57.695047 32543 net.cpp:395] conv5_3_3x3_relu -> conv5_3_3x3 (in-place)
I0321 15:15:57.695201 32543 net.cpp:150] Setting up conv5_3_3x3_relu
I0321 15:15:57.695210 32543 net.cpp:157] Top shape: 32 512 19 19 (5914624)
I0321 15:15:57.695224 32543 net.cpp:165] Memory required for data: 7147192448
I0321 15:15:57.695228 32543 layer_factory.hpp:77] Creating layer conv5_3_1x1
I0321 15:15:57.695238 32543 net.cpp:100] Creating Layer conv5_3_1x1
I0321 15:15:57.695242 32543 net.cpp:434] conv5_3_1x1 <- conv5_3_3x3
I0321 15:15:57.695248 32543 net.cpp:408] conv5_3_1x1 -> conv5_3
I0321 15:15:57.698307 32543 net.cpp:150] Setting up conv5_3_1x1
I0321 15:15:57.698320 32543 net.cpp:157] Top shape: 32 512 19 19 (5914624)
I0321 15:15:57.698324 32543 net.cpp:165] Memory required for data: 7170850944
I0321 15:15:57.698331 32543 layer_factory.hpp:77] Creating layer relu5_3
I0321 15:15:57.698338 32543 net.cpp:100] Creating Layer relu5_3
I0321 15:15:57.698343 32543 net.cpp:434] relu5_3 <- conv5_3
I0321 15:15:57.698348 32543 net.cpp:395] relu5_3 -> conv5_3 (in-place)
I0321 15:15:57.698499 32543 net.cpp:150] Setting up relu5_3
I0321 15:15:57.698509 32543 net.cpp:157] Top shape: 32 512 19 19 (5914624)
I0321 15:15:57.698513 32543 net.cpp:165] Memory required for data: 7194509440
I0321 15:15:57.698518 32543 layer_factory.hpp:77] Creating layer pool5
I0321 15:15:57.698525 32543 net.cpp:100] Creating Layer pool5
I0321 15:15:57.698529 32543 net.cpp:434] pool5 <- conv5_3
I0321 15:15:57.698535 32543 net.cpp:408] pool5 -> pool5
I0321 15:15:57.698575 32543 net.cpp:150] Setting up pool5
I0321 15:15:57.698581 32543 net.cpp:157] Top shape: 32 512 19 19 (5914624)
I0321 15:15:57.698585 32543 net.cpp:165] Memory required for data: 7218167936
I0321 15:15:57.698590 32543 layer_factory.hpp:77] Creating layer fc6_depthwise
I0321 15:15:57.698596 32543 net.cpp:100] Creating Layer fc6_depthwise
I0321 15:15:57.698601 32543 net.cpp:434] fc6_depthwise <- pool5
I0321 15:15:57.698608 32543 net.cpp:408] fc6_depthwise -> fc6_3x3
I0321 15:15:57.698822 32543 net.cpp:150] Setting up fc6_depthwise
I0321 15:15:57.698835 32543 net.cpp:157] Top shape: 32 512 19 19 (5914624)
I0321 15:15:57.698839 32543 net.cpp:165] Memory required for data: 7241826432
I0321 15:15:57.698849 32543 layer_factory.hpp:77] Creating layer fc6_3x3_relu
I0321 15:15:57.698854 32543 net.cpp:100] Creating Layer fc6_3x3_relu
I0321 15:15:57.698858 32543 net.cpp:434] fc6_3x3_relu <- fc6_3x3
I0321 15:15:57.698864 32543 net.cpp:395] fc6_3x3_relu -> fc6_3x3 (in-place)
I0321 15:15:57.699517 32543 net.cpp:150] Setting up fc6_3x3_relu
I0321 15:15:57.699530 32543 net.cpp:157] Top shape: 32 512 19 19 (5914624)
I0321 15:15:57.699534 32543 net.cpp:165] Memory required for data: 7265484928
I0321 15:15:57.699538 32543 layer_factory.hpp:77] Creating layer fc6_1x1
I0321 15:15:57.699550 32543 net.cpp:100] Creating Layer fc6_1x1
I0321 15:15:57.699555 32543 net.cpp:434] fc6_1x1 <- fc6_3x3
I0321 15:15:57.699561 32543 net.cpp:408] fc6_1x1 -> fc6
I0321 15:15:57.702666 32543 net.cpp:150] Setting up fc6_1x1
I0321 15:15:57.702679 32543 net.cpp:157] Top shape: 32 1024 19 19 (11829248)
I0321 15:15:57.702683 32543 net.cpp:165] Memory required for data: 7312801920
I0321 15:15:57.702689 32543 layer_factory.hpp:77] Creating layer relu6
I0321 15:15:57.702697 32543 net.cpp:100] Creating Layer relu6
I0321 15:15:57.702702 32543 net.cpp:434] relu6 <- fc6
I0321 15:15:57.702706 32543 net.cpp:395] relu6 -> fc6 (in-place)
I0321 15:15:57.702874 32543 net.cpp:150] Setting up relu6
I0321 15:15:57.702884 32543 net.cpp:157] Top shape: 32 1024 19 19 (11829248)
I0321 15:15:57.702888 32543 net.cpp:165] Memory required for data: 7360118912
I0321 15:15:57.702893 32543 layer_factory.hpp:77] Creating layer fc7
I0321 15:15:57.702903 32543 net.cpp:100] Creating Layer fc7
I0321 15:15:57.702906 32543 net.cpp:434] fc7 <- fc6
I0321 15:15:57.702914 32543 net.cpp:408] fc7 -> fc7
I0321 15:15:57.710440 32543 net.cpp:150] Setting up fc7
I0321 15:15:57.710476 32543 net.cpp:157] Top shape: 32 1024 19 19 (11829248)
I0321 15:15:57.710480 32543 net.cpp:165] Memory required for data: 7407435904
I0321 15:15:57.710489 32543 layer_factory.hpp:77] Creating layer relu7
I0321 15:15:57.710497 32543 net.cpp:100] Creating Layer relu7
I0321 15:15:57.710502 32543 net.cpp:434] relu7 <- fc7
I0321 15:15:57.710525 32543 net.cpp:395] relu7 -> fc7 (in-place)
I0321 15:15:57.710692 32543 net.cpp:150] Setting up relu7
I0321 15:15:57.710701 32543 net.cpp:157] Top shape: 32 1024 19 19 (11829248)
I0321 15:15:57.710705 32543 net.cpp:165] Memory required for data: 7454752896
I0321 15:15:57.710710 32543 layer_factory.hpp:77] Creating layer fc7_relu7_0_split
I0321 15:15:57.710721 32543 net.cpp:100] Creating Layer fc7_relu7_0_split
I0321 15:15:57.710726 32543 net.cpp:434] fc7_relu7_0_split <- fc7
I0321 15:15:57.710731 32543 net.cpp:408] fc7_relu7_0_split -> fc7_relu7_0_split_0
I0321 15:15:57.710738 32543 net.cpp:408] fc7_relu7_0_split -> fc7_relu7_0_split_1
I0321 15:15:57.710745 32543 net.cpp:408] fc7_relu7_0_split -> fc7_relu7_0_split_2
I0321 15:15:57.710750 32543 net.cpp:408] fc7_relu7_0_split -> fc7_relu7_0_split_3
I0321 15:15:57.710808 32543 net.cpp:150] Setting up fc7_relu7_0_split
I0321 15:15:57.710819 32543 net.cpp:157] Top shape: 32 1024 19 19 (11829248)
I0321 15:15:57.710825 32543 net.cpp:157] Top shape: 32 1024 19 19 (11829248)
I0321 15:15:57.710831 32543 net.cpp:157] Top shape: 32 1024 19 19 (11829248)
I0321 15:15:57.710836 32543 net.cpp:157] Top shape: 32 1024 19 19 (11829248)
I0321 15:15:57.710841 32543 net.cpp:165] Memory required for data: 7644020864
I0321 15:15:57.710847 32543 layer_factory.hpp:77] Creating layer conv6_1
I0321 15:15:57.710861 32543 net.cpp:100] Creating Layer conv6_1
I0321 15:15:57.710868 32543 net.cpp:434] conv6_1 <- fc7_relu7_0_split_0
I0321 15:15:57.710880 32543 net.cpp:408] conv6_1 -> conv6_1
I0321 15:15:57.713204 32543 net.cpp:150] Setting up conv6_1
I0321 15:15:57.713218 32543 net.cpp:157] Top shape: 32 256 19 19 (2957312)
I0321 15:15:57.713222 32543 net.cpp:165] Memory required for data: 7655850112
I0321 15:15:57.713232 32543 layer_factory.hpp:77] Creating layer conv6_1_relu
I0321 15:15:57.713243 32543 net.cpp:100] Creating Layer conv6_1_relu
I0321 15:15:57.713251 32543 net.cpp:434] conv6_1_relu <- conv6_1
I0321 15:15:57.713258 32543 net.cpp:395] conv6_1_relu -> conv6_1 (in-place)
I0321 15:15:57.713418 32543 net.cpp:150] Setting up conv6_1_relu
I0321 15:15:57.713429 32543 net.cpp:157] Top shape: 32 256 19 19 (2957312)
I0321 15:15:57.713434 32543 net.cpp:165] Memory required for data: 7667679360
I0321 15:15:57.713439 32543 layer_factory.hpp:77] Creating layer conv6_2
I0321 15:15:57.713454 32543 net.cpp:100] Creating Layer conv6_2
I0321 15:15:57.713460 32543 net.cpp:434] conv6_2 <- conv6_1
I0321 15:15:57.713469 32543 net.cpp:408] conv6_2 -> conv6_2
I0321 15:15:57.721163 32543 net.cpp:150] Setting up conv6_2
I0321 15:15:57.721186 32543 net.cpp:157] Top shape: 32 512 10 10 (1638400)
I0321 15:15:57.721191 32543 net.cpp:165] Memory required for data: 7674232960
I0321 15:15:57.721218 32543 layer_factory.hpp:77] Creating layer conv6_2_relu
I0321 15:15:57.721230 32543 net.cpp:100] Creating Layer conv6_2_relu
I0321 15:15:57.721237 32543 net.cpp:434] conv6_2_relu <- conv6_2
I0321 15:15:57.721247 32543 net.cpp:395] conv6_2_relu -> conv6_2 (in-place)
I0321 15:15:57.721940 32543 net.cpp:150] Setting up conv6_2_relu
I0321 15:15:57.721952 32543 net.cpp:157] Top shape: 32 512 10 10 (1638400)
I0321 15:15:57.721959 32543 net.cpp:165] Memory required for data: 7680786560
I0321 15:15:57.721966 32543 layer_factory.hpp:77] Creating layer conv6_2_conv6_2_relu_0_split
I0321 15:15:57.721977 32543 net.cpp:100] Creating Layer conv6_2_conv6_2_relu_0_split
I0321 15:15:57.721984 32543 net.cpp:434] conv6_2_conv6_2_relu_0_split <- conv6_2
I0321 15:15:57.721992 32543 net.cpp:408] conv6_2_conv6_2_relu_0_split -> conv6_2_conv6_2_relu_0_split_0
I0321 15:15:57.722007 32543 net.cpp:408] conv6_2_conv6_2_relu_0_split -> conv6_2_conv6_2_relu_0_split_1
I0321 15:15:57.722021 32543 net.cpp:408] conv6_2_conv6_2_relu_0_split -> conv6_2_conv6_2_relu_0_split_2
I0321 15:15:57.722036 32543 net.cpp:408] conv6_2_conv6_2_relu_0_split -> conv6_2_conv6_2_relu_0_split_3
I0321 15:15:57.722107 32543 net.cpp:150] Setting up conv6_2_conv6_2_relu_0_split
I0321 15:15:57.722116 32543 net.cpp:157] Top shape: 32 512 10 10 (1638400)
I0321 15:15:57.722137 32543 net.cpp:157] Top shape: 32 512 10 10 (1638400)
I0321 15:15:57.722146 32543 net.cpp:157] Top shape: 32 512 10 10 (1638400)
I0321 15:15:57.722151 32543 net.cpp:157] Top shape: 32 512 10 10 (1638400)
I0321 15:15:57.722160 32543 net.cpp:165] Memory required for data: 7707000960
I0321 15:15:57.722165 32543 layer_factory.hpp:77] Creating layer conv7_1
I0321 15:15:57.722182 32543 net.cpp:100] Creating Layer conv7_1
I0321 15:15:57.722188 32543 net.cpp:434] conv7_1 <- conv6_2_conv6_2_relu_0_split_0
I0321 15:15:57.722198 32543 net.cpp:408] conv7_1 -> conv7_1
I0321 15:15:57.723677 32543 net.cpp:150] Setting up conv7_1
I0321 15:15:57.723690 32543 net.cpp:157] Top shape: 32 128 10 10 (409600)
I0321 15:15:57.723695 32543 net.cpp:165] Memory required for data: 7708639360
I0321 15:15:57.723706 32543 layer_factory.hpp:77] Creating layer conv7_1_relu
I0321 15:15:57.723714 32543 net.cpp:100] Creating Layer conv7_1_relu
I0321 15:15:57.723721 32543 net.cpp:434] conv7_1_relu <- conv7_1
I0321 15:15:57.723731 32543 net.cpp:395] conv7_1_relu -> conv7_1 (in-place)
I0321 15:15:57.723893 32543 net.cpp:150] Setting up conv7_1_relu
I0321 15:15:57.723904 32543 net.cpp:157] Top shape: 32 128 10 10 (409600)
I0321 15:15:57.723908 32543 net.cpp:165] Memory required for data: 7710277760
I0321 15:15:57.723913 32543 layer_factory.hpp:77] Creating layer conv7_2
I0321 15:15:57.723928 32543 net.cpp:100] Creating Layer conv7_2
I0321 15:15:57.723937 32543 net.cpp:434] conv7_2 <- conv7_1
I0321 15:15:57.723945 32543 net.cpp:408] conv7_2 -> conv7_2
I0321 15:15:57.727192 32543 net.cpp:150] Setting up conv7_2
I0321 15:15:57.727206 32543 net.cpp:157] Top shape: 32 256 5 5 (204800)
I0321 15:15:57.727211 32543 net.cpp:165] Memory required for data: 7711096960
I0321 15:15:57.727221 32543 layer_factory.hpp:77] Creating layer conv7_2_relu
I0321 15:15:57.727228 32543 net.cpp:100] Creating Layer conv7_2_relu
I0321 15:15:57.727236 32543 net.cpp:434] conv7_2_relu <- conv7_2
I0321 15:15:57.727247 32543 net.cpp:395] conv7_2_relu -> conv7_2 (in-place)
I0321 15:15:57.727411 32543 net.cpp:150] Setting up conv7_2_relu
I0321 15:15:57.727422 32543 net.cpp:157] Top shape: 32 256 5 5 (204800)
I0321 15:15:57.727427 32543 net.cpp:165] Memory required for data: 7711916160
I0321 15:15:57.727433 32543 layer_factory.hpp:77] Creating layer conv7_2_conv7_2_relu_0_split
I0321 15:15:57.727442 32543 net.cpp:100] Creating Layer conv7_2_conv7_2_relu_0_split
I0321 15:15:57.727450 32543 net.cpp:434] conv7_2_conv7_2_relu_0_split <- conv7_2
I0321 15:15:57.727460 32543 net.cpp:408] conv7_2_conv7_2_relu_0_split -> conv7_2_conv7_2_relu_0_split_0
I0321 15:15:57.727470 32543 net.cpp:408] conv7_2_conv7_2_relu_0_split -> conv7_2_conv7_2_relu_0_split_1
I0321 15:15:57.727479 32543 net.cpp:408] conv7_2_conv7_2_relu_0_split -> conv7_2_conv7_2_relu_0_split_2
I0321 15:15:57.727489 32543 net.cpp:408] conv7_2_conv7_2_relu_0_split -> conv7_2_conv7_2_relu_0_split_3
I0321 15:15:57.727553 32543 net.cpp:150] Setting up conv7_2_conv7_2_relu_0_split
I0321 15:15:57.727561 32543 net.cpp:157] Top shape: 32 256 5 5 (204800)
I0321 15:15:57.727566 32543 net.cpp:157] Top shape: 32 256 5 5 (204800)
I0321 15:15:57.727573 32543 net.cpp:157] Top shape: 32 256 5 5 (204800)
I0321 15:15:57.727581 32543 net.cpp:157] Top shape: 32 256 5 5 (204800)
I0321 15:15:57.727586 32543 net.cpp:165] Memory required for data: 7715192960
I0321 15:15:57.727591 32543 layer_factory.hpp:77] Creating layer conv8_1
I0321 15:15:57.727604 32543 net.cpp:100] Creating Layer conv8_1
I0321 15:15:57.727613 32543 net.cpp:434] conv8_1 <- conv7_2_conv7_2_relu_0_split_0
I0321 15:15:57.727624 32543 net.cpp:408] conv8_1 -> conv8_1
I0321 15:15:57.728989 32543 net.cpp:150] Setting up conv8_1
I0321 15:15:57.729002 32543 net.cpp:157] Top shape: 32 128 5 5 (102400)
I0321 15:15:57.729007 32543 net.cpp:165] Memory required for data: 7715602560
I0321 15:15:57.729017 32543 layer_factory.hpp:77] Creating layer conv8_1_relu
I0321 15:15:57.729039 32543 net.cpp:100] Creating Layer conv8_1_relu
I0321 15:15:57.729046 32543 net.cpp:434] conv8_1_relu <- conv8_1
I0321 15:15:57.729075 32543 net.cpp:395] conv8_1_relu -> conv8_1 (in-place)
I0321 15:15:57.729768 32543 net.cpp:150] Setting up conv8_1_relu
I0321 15:15:57.729781 32543 net.cpp:157] Top shape: 32 128 5 5 (102400)
I0321 15:15:57.729785 32543 net.cpp:165] Memory required for data: 7716012160
I0321 15:15:57.729792 32543 layer_factory.hpp:77] Creating layer conv8_2
I0321 15:15:57.729821 32543 net.cpp:100] Creating Layer conv8_2
I0321 15:15:57.729828 32543 net.cpp:434] conv8_2 <- conv8_1
I0321 15:15:57.729837 32543 net.cpp:408] conv8_2 -> conv8_2
I0321 15:15:57.733594 32543 net.cpp:150] Setting up conv8_2
I0321 15:15:57.733608 32543 net.cpp:157] Top shape: 32 256 3 3 (73728)
I0321 15:15:57.733613 32543 net.cpp:165] Memory required for data: 7716307072
I0321 15:15:57.733623 32543 layer_factory.hpp:77] Creating layer conv8_2_relu
I0321 15:15:57.733631 32543 net.cpp:100] Creating Layer conv8_2_relu
I0321 15:15:57.733639 32543 net.cpp:434] conv8_2_relu <- conv8_2
I0321 15:15:57.733649 32543 net.cpp:395] conv8_2_relu -> conv8_2 (in-place)
I0321 15:15:57.733830 32543 net.cpp:150] Setting up conv8_2_relu
I0321 15:15:57.733842 32543 net.cpp:157] Top shape: 32 256 3 3 (73728)
I0321 15:15:57.733847 32543 net.cpp:165] Memory required for data: 7716601984
I0321 15:15:57.733852 32543 layer_factory.hpp:77] Creating layer conv8_2_conv8_2_relu_0_split
I0321 15:15:57.733862 32543 net.cpp:100] Creating Layer conv8_2_conv8_2_relu_0_split
I0321 15:15:57.733870 32543 net.cpp:434] conv8_2_conv8_2_relu_0_split <- conv8_2
I0321 15:15:57.733878 32543 net.cpp:408] conv8_2_conv8_2_relu_0_split -> conv8_2_conv8_2_relu_0_split_0
I0321 15:15:57.733888 32543 net.cpp:408] conv8_2_conv8_2_relu_0_split -> conv8_2_conv8_2_relu_0_split_1
I0321 15:15:57.733898 32543 net.cpp:408] conv8_2_conv8_2_relu_0_split -> conv8_2_conv8_2_relu_0_split_2
I0321 15:15:57.733906 32543 net.cpp:408] conv8_2_conv8_2_relu_0_split -> conv8_2_conv8_2_relu_0_split_3
I0321 15:15:57.733976 32543 net.cpp:150] Setting up conv8_2_conv8_2_relu_0_split
I0321 15:15:57.733984 32543 net.cpp:157] Top shape: 32 256 3 3 (73728)
I0321 15:15:57.733989 32543 net.cpp:157] Top shape: 32 256 3 3 (73728)
I0321 15:15:57.733996 32543 net.cpp:157] Top shape: 32 256 3 3 (73728)
I0321 15:15:57.734004 32543 net.cpp:157] Top shape: 32 256 3 3 (73728)
I0321 15:15:57.734009 32543 net.cpp:165] Memory required for data: 7717781632
I0321 15:15:57.734017 32543 layer_factory.hpp:77] Creating layer conv9_1
I0321 15:15:57.734040 32543 net.cpp:100] Creating Layer conv9_1
I0321 15:15:57.734046 32543 net.cpp:434] conv9_1 <- conv8_2_conv8_2_relu_0_split_0
I0321 15:15:57.734056 32543 net.cpp:408] conv9_1 -> conv9_1
I0321 15:15:57.735397 32543 net.cpp:150] Setting up conv9_1
I0321 15:15:57.735411 32543 net.cpp:157] Top shape: 32 128 3 3 (36864)
I0321 15:15:57.735416 32543 net.cpp:165] Memory required for data: 7717929088
I0321 15:15:57.735425 32543 layer_factory.hpp:77] Creating layer conv9_1_relu
I0321 15:15:57.735435 32543 net.cpp:100] Creating Layer conv9_1_relu
I0321 15:15:57.735442 32543 net.cpp:434] conv9_1_relu <- conv9_1
I0321 15:15:57.735451 32543 net.cpp:395] conv9_1_relu -> conv9_1 (in-place)
I0321 15:15:57.735615 32543 net.cpp:150] Setting up conv9_1_relu
I0321 15:15:57.735625 32543 net.cpp:157] Top shape: 32 128 3 3 (36864)
I0321 15:15:57.735630 32543 net.cpp:165] Memory required for data: 7718076544
I0321 15:15:57.735635 32543 layer_factory.hpp:77] Creating layer conv9_2
I0321 15:15:57.735656 32543 net.cpp:100] Creating Layer conv9_2
I0321 15:15:57.735662 32543 net.cpp:434] conv9_2 <- conv9_1
I0321 15:15:57.735671 32543 net.cpp:408] conv9_2 -> conv9_2
I0321 15:15:57.739367 32543 net.cpp:150] Setting up conv9_2
I0321 15:15:57.739392 32543 net.cpp:157] Top shape: 32 256 1 1 (8192)
I0321 15:15:57.739396 32543 net.cpp:165] Memory required for data: 7718109312
I0321 15:15:57.739406 32543 layer_factory.hpp:77] Creating layer conv9_2_relu
I0321 15:15:57.739418 32543 net.cpp:100] Creating Layer conv9_2_relu
I0321 15:15:57.739424 32543 net.cpp:434] conv9_2_relu <- conv9_2
I0321 15:15:57.739431 32543 net.cpp:395] conv9_2_relu -> conv9_2 (in-place)
I0321 15:15:57.740149 32543 net.cpp:150] Setting up conv9_2_relu
I0321 15:15:57.740162 32543 net.cpp:157] Top shape: 32 256 1 1 (8192)
I0321 15:15:57.740167 32543 net.cpp:165] Memory required for data: 7718142080
I0321 15:15:57.740173 32543 layer_factory.hpp:77] Creating layer conv9_2_conv9_2_relu_0_split
I0321 15:15:57.740182 32543 net.cpp:100] Creating Layer conv9_2_conv9_2_relu_0_split
I0321 15:15:57.740190 32543 net.cpp:434] conv9_2_conv9_2_relu_0_split <- conv9_2
I0321 15:15:57.740200 32543 net.cpp:408] conv9_2_conv9_2_relu_0_split -> conv9_2_conv9_2_relu_0_split_0
I0321 15:15:57.740211 32543 net.cpp:408] conv9_2_conv9_2_relu_0_split -> conv9_2_conv9_2_relu_0_split_1
I0321 15:15:57.740221 32543 net.cpp:408] conv9_2_conv9_2_relu_0_split -> conv9_2_conv9_2_relu_0_split_2
I0321 15:15:57.740279 32543 net.cpp:150] Setting up conv9_2_conv9_2_relu_0_split
I0321 15:15:57.740288 32543 net.cpp:157] Top shape: 32 256 1 1 (8192)
I0321 15:15:57.740293 32543 net.cpp:157] Top shape: 32 256 1 1 (8192)
I0321 15:15:57.740300 32543 net.cpp:157] Top shape: 32 256 1 1 (8192)
I0321 15:15:57.740304 32543 net.cpp:165] Memory required for data: 7718240384
I0321 15:15:57.740310 32543 layer_factory.hpp:77] Creating layer conv4_3_norm
I0321 15:15:57.740322 32543 net.cpp:100] Creating Layer conv4_3_norm
I0321 15:15:57.740330 32543 net.cpp:434] conv4_3_norm <- conv4_3_relu4_3_0_split_1
I0321 15:15:57.740339 32543 net.cpp:408] conv4_3_norm -> conv4_3_norm
I0321 15:15:57.740490 32543 net.cpp:150] Setting up conv4_3_norm
I0321 15:15:57.740499 32543 net.cpp:157] Top shape: 32 512 38 38 (23658496)
I0321 15:15:57.740504 32543 net.cpp:165] Memory required for data: 7812874368
I0321 15:15:57.740511 32543 layer_factory.hpp:77] Creating layer conv4_3_norm_conv4_3_norm_0_split
I0321 15:15:57.740521 32543 net.cpp:100] Creating Layer conv4_3_norm_conv4_3_norm_0_split
I0321 15:15:57.740527 32543 net.cpp:434] conv4_3_norm_conv4_3_norm_0_split <- conv4_3_norm
I0321 15:15:57.740536 32543 net.cpp:408] conv4_3_norm_conv4_3_norm_0_split -> conv4_3_norm_conv4_3_norm_0_split_0
I0321 15:15:57.740550 32543 net.cpp:408] conv4_3_norm_conv4_3_norm_0_split -> conv4_3_norm_conv4_3_norm_0_split_1
I0321 15:15:57.740571 32543 net.cpp:408] conv4_3_norm_conv4_3_norm_0_split -> conv4_3_norm_conv4_3_norm_0_split_2
I0321 15:15:57.740620 32543 net.cpp:150] Setting up conv4_3_norm_conv4_3_norm_0_split
I0321 15:15:57.740629 32543 net.cpp:157] Top shape: 32 512 38 38 (23658496)
I0321 15:15:57.740638 32543 net.cpp:157] Top shape: 32 512 38 38 (23658496)
I0321 15:15:57.740643 32543 net.cpp:157] Top shape: 32 512 38 38 (23658496)
I0321 15:15:57.740648 32543 net.cpp:165] Memory required for data: 8096776320
I0321 15:15:57.740653 32543 layer_factory.hpp:77] Creating layer conv4_3_norm_mbox_loc
I0321 15:15:57.740665 32543 net.cpp:100] Creating Layer conv4_3_norm_mbox_loc
I0321 15:15:57.740671 32543 net.cpp:434] conv4_3_norm_mbox_loc <- conv4_3_norm_conv4_3_norm_0_split_0
I0321 15:15:57.740681 32543 net.cpp:408] conv4_3_norm_mbox_loc -> conv4_3_norm_mbox_loc
I0321 15:15:57.742751 32543 net.cpp:150] Setting up conv4_3_norm_mbox_loc
I0321 15:15:57.742766 32543 net.cpp:157] Top shape: 32 16 38 38 (739328)
I0321 15:15:57.742771 32543 net.cpp:165] Memory required for data: 8099733632
I0321 15:15:57.742795 32543 layer_factory.hpp:77] Creating layer conv4_3_norm_mbox_loc_perm
I0321 15:15:57.742807 32543 net.cpp:100] Creating Layer conv4_3_norm_mbox_loc_perm
I0321 15:15:57.742816 32543 net.cpp:434] conv4_3_norm_mbox_loc_perm <- conv4_3_norm_mbox_loc
I0321 15:15:57.742826 32543 net.cpp:408] conv4_3_norm_mbox_loc_perm -> conv4_3_norm_mbox_loc_perm
I0321 15:15:57.742936 32543 net.cpp:150] Setting up conv4_3_norm_mbox_loc_perm
I0321 15:15:57.742947 32543 net.cpp:157] Top shape: 32 38 38 16 (739328)
I0321 15:15:57.742952 32543 net.cpp:165] Memory required for data: 8102690944
I0321 15:15:57.742957 32543 layer_factory.hpp:77] Creating layer conv4_3_norm_mbox_loc_flat
I0321 15:15:57.742967 32543 net.cpp:100] Creating Layer conv4_3_norm_mbox_loc_flat
I0321 15:15:57.742975 32543 net.cpp:434] conv4_3_norm_mbox_loc_flat <- conv4_3_norm_mbox_loc_perm
I0321 15:15:57.742995 32543 net.cpp:408] conv4_3_norm_mbox_loc_flat -> conv4_3_norm_mbox_loc_flat
I0321 15:15:57.743028 32543 net.cpp:150] Setting up conv4_3_norm_mbox_loc_flat
I0321 15:15:57.743036 32543 net.cpp:157] Top shape: 32 23104 (739328)
I0321 15:15:57.743041 32543 net.cpp:165] Memory required for data: 8105648256
I0321 15:15:57.743046 32543 layer_factory.hpp:77] Creating layer conv4_3_norm_mbox_conf
I0321 15:15:57.743062 32543 net.cpp:100] Creating Layer conv4_3_norm_mbox_conf
I0321 15:15:57.743069 32543 net.cpp:434] conv4_3_norm_mbox_conf <- conv4_3_norm_conv4_3_norm_0_split_1
I0321 15:15:57.743080 32543 net.cpp:408] conv4_3_norm_mbox_conf -> conv4_3_norm_mbox_conf
I0321 15:15:57.745699 32543 net.cpp:150] Setting up conv4_3_norm_mbox_conf
I0321 15:15:57.745713 32543 net.cpp:157] Top shape: 32 44 38 38 (2033152)
I0321 15:15:57.745718 32543 net.cpp:165] Memory required for data: 8113780864
I0321 15:15:57.745744 32543 layer_factory.hpp:77] Creating layer conv4_3_norm_mbox_conf_perm
I0321 15:15:57.745754 32543 net.cpp:100] Creating Layer conv4_3_norm_mbox_conf_perm
I0321 15:15:57.745762 32543 net.cpp:434] conv4_3_norm_mbox_conf_perm <- conv4_3_norm_mbox_conf
I0321 15:15:57.745774 32543 net.cpp:408] conv4_3_norm_mbox_conf_perm -> conv4_3_norm_mbox_conf_perm
I0321 15:15:57.745884 32543 net.cpp:150] Setting up conv4_3_norm_mbox_conf_perm
I0321 15:15:57.745893 32543 net.cpp:157] Top shape: 32 38 38 44 (2033152)
I0321 15:15:57.745898 32543 net.cpp:165] Memory required for data: 8121913472
I0321 15:15:57.745903 32543 layer_factory.hpp:77] Creating layer conv4_3_norm_mbox_conf_flat
I0321 15:15:57.745911 32543 net.cpp:100] Creating Layer conv4_3_norm_mbox_conf_flat
I0321 15:15:57.745919 32543 net.cpp:434] conv4_3_norm_mbox_conf_flat <- conv4_3_norm_mbox_conf_perm
I0321 15:15:57.745929 32543 net.cpp:408] conv4_3_norm_mbox_conf_flat -> conv4_3_norm_mbox_conf_flat
I0321 15:15:57.745961 32543 net.cpp:150] Setting up conv4_3_norm_mbox_conf_flat
I0321 15:15:57.745970 32543 net.cpp:157] Top shape: 32 63536 (2033152)
I0321 15:15:57.745975 32543 net.cpp:165] Memory required for data: 8130046080
I0321 15:15:57.745980 32543 layer_factory.hpp:77] Creating layer conv4_3_norm_mbox_priorbox
I0321 15:15:57.745990 32543 net.cpp:100] Creating Layer conv4_3_norm_mbox_priorbox
I0321 15:15:57.745998 32543 net.cpp:434] conv4_3_norm_mbox_priorbox <- conv4_3_norm_conv4_3_norm_0_split_2
I0321 15:15:57.746011 32543 net.cpp:434] conv4_3_norm_mbox_priorbox <- data_data_0_split_1
I0321 15:15:57.746023 32543 net.cpp:408] conv4_3_norm_mbox_priorbox -> conv4_3_norm_mbox_priorbox
I0321 15:15:57.746060 32543 net.cpp:150] Setting up conv4_3_norm_mbox_priorbox
I0321 15:15:57.746069 32543 net.cpp:157] Top shape: 1 2 23104 (46208)
I0321 15:15:57.746073 32543 net.cpp:165] Memory required for data: 8130230912
I0321 15:15:57.746078 32543 layer_factory.hpp:77] Creating layer fc7_mbox_loc
I0321 15:15:57.746093 32543 net.cpp:100] Creating Layer fc7_mbox_loc
I0321 15:15:57.746104 32543 net.cpp:434] fc7_mbox_loc <- fc7_relu7_0_split_1
I0321 15:15:57.746112 32543 net.cpp:408] fc7_mbox_loc -> fc7_mbox_loc
I0321 15:15:57.748767 32543 net.cpp:150] Setting up fc7_mbox_loc
I0321 15:15:57.748781 32543 net.cpp:157] Top shape: 32 24 19 19 (277248)
I0321 15:15:57.748786 32543 net.cpp:165] Memory required for data: 8131339904
I0321 15:15:57.748795 32543 layer_factory.hpp:77] Creating layer fc7_mbox_loc_perm
I0321 15:15:57.748806 32543 net.cpp:100] Creating Layer fc7_mbox_loc_perm
I0321 15:15:57.748814 32543 net.cpp:434] fc7_mbox_loc_perm <- fc7_mbox_loc
I0321 15:15:57.748823 32543 net.cpp:408] fc7_mbox_loc_perm -> fc7_mbox_loc_perm
I0321 15:15:57.748926 32543 net.cpp:150] Setting up fc7_mbox_loc_perm
I0321 15:15:57.748935 32543 net.cpp:157] Top shape: 32 19 19 24 (277248)
I0321 15:15:57.748941 32543 net.cpp:165] Memory required for data: 8132448896
I0321 15:15:57.748950 32543 layer_factory.hpp:77] Creating layer fc7_mbox_loc_flat
I0321 15:15:57.748960 32543 net.cpp:100] Creating Layer fc7_mbox_loc_flat
I0321 15:15:57.748975 32543 net.cpp:434] fc7_mbox_loc_flat <- fc7_mbox_loc_perm
I0321 15:15:57.748982 32543 net.cpp:408] fc7_mbox_loc_flat -> fc7_mbox_loc_flat
I0321 15:15:57.749014 32543 net.cpp:150] Setting up fc7_mbox_loc_flat
I0321 15:15:57.749022 32543 net.cpp:157] Top shape: 32 8664 (277248)
I0321 15:15:57.749027 32543 net.cpp:165] Memory required for data: 8133557888
I0321 15:15:57.749032 32543 layer_factory.hpp:77] Creating layer fc7_mbox_conf
I0321 15:15:57.749047 32543 net.cpp:100] Creating Layer fc7_mbox_conf
I0321 15:15:57.749054 32543 net.cpp:434] fc7_mbox_conf <- fc7_relu7_0_split_2
I0321 15:15:57.749063 32543 net.cpp:408] fc7_mbox_conf -> fc7_mbox_conf
I0321 15:15:57.754292 32543 net.cpp:150] Setting up fc7_mbox_conf
I0321 15:15:57.754308 32543 net.cpp:157] Top shape: 32 66 19 19 (762432)
I0321 15:15:57.754313 32543 net.cpp:165] Memory required for data: 8136607616
I0321 15:15:57.754323 32543 layer_factory.hpp:77] Creating layer fc7_mbox_conf_perm
I0321 15:15:57.754335 32543 net.cpp:100] Creating Layer fc7_mbox_conf_perm
I0321 15:15:57.754343 32543 net.cpp:434] fc7_mbox_conf_perm <- fc7_mbox_conf
I0321 15:15:57.754354 32543 net.cpp:408] fc7_mbox_conf_perm -> fc7_mbox_conf_perm
I0321 15:15:57.754458 32543 net.cpp:150] Setting up fc7_mbox_conf_perm
I0321 15:15:57.754468 32543 net.cpp:157] Top shape: 32 19 19 66 (762432)
I0321 15:15:57.754474 32543 net.cpp:165] Memory required for data: 8139657344
I0321 15:15:57.754479 32543 layer_factory.hpp:77] Creating layer fc7_mbox_conf_flat
I0321 15:15:57.754487 32543 net.cpp:100] Creating Layer fc7_mbox_conf_flat
I0321 15:15:57.754494 32543 net.cpp:434] fc7_mbox_conf_flat <- fc7_mbox_conf_perm
I0321 15:15:57.754504 32543 net.cpp:408] fc7_mbox_conf_flat -> fc7_mbox_conf_flat
I0321 15:15:57.754539 32543 net.cpp:150] Setting up fc7_mbox_conf_flat
I0321 15:15:57.754546 32543 net.cpp:157] Top shape: 32 23826 (762432)
I0321 15:15:57.754550 32543 net.cpp:165] Memory required for data: 8142707072
I0321 15:15:57.754555 32543 layer_factory.hpp:77] Creating layer fc7_mbox_priorbox
I0321 15:15:57.754568 32543 net.cpp:100] Creating Layer fc7_mbox_priorbox
I0321 15:15:57.754575 32543 net.cpp:434] fc7_mbox_priorbox <- fc7_relu7_0_split_3
I0321 15:15:57.754582 32543 net.cpp:434] fc7_mbox_priorbox <- data_data_0_split_2
I0321 15:15:57.754595 32543 net.cpp:408] fc7_mbox_priorbox -> fc7_mbox_priorbox
I0321 15:15:57.754629 32543 net.cpp:150] Setting up fc7_mbox_priorbox
I0321 15:15:57.754637 32543 net.cpp:157] Top shape: 1 2 8664 (17328)
I0321 15:15:57.754642 32543 net.cpp:165] Memory required for data: 8142776384
I0321 15:15:57.754648 32543 layer_factory.hpp:77] Creating layer conv6_2_mbox_loc
I0321 15:15:57.754663 32543 net.cpp:100] Creating Layer conv6_2_mbox_loc
I0321 15:15:57.754670 32543 net.cpp:434] conv6_2_mbox_loc <- conv6_2_conv6_2_relu_0_split_1
I0321 15:15:57.754679 32543 net.cpp:408] conv6_2_mbox_loc -> conv6_2_mbox_loc
I0321 15:15:57.756898 32543 net.cpp:150] Setting up conv6_2_mbox_loc
I0321 15:15:57.756913 32543 net.cpp:157] Top shape: 32 24 10 10 (76800)
I0321 15:15:57.756918 32543 net.cpp:165] Memory required for data: 8143083584
I0321 15:15:57.756939 32543 layer_factory.hpp:77] Creating layer conv6_2_mbox_loc_perm
I0321 15:15:57.756950 32543 net.cpp:100] Creating Layer conv6_2_mbox_loc_perm
I0321 15:15:57.756958 32543 net.cpp:434] conv6_2_mbox_loc_perm <- conv6_2_mbox_loc
I0321 15:15:57.756965 32543 net.cpp:408] conv6_2_mbox_loc_perm -> conv6_2_mbox_loc_perm
I0321 15:15:57.757072 32543 net.cpp:150] Setting up conv6_2_mbox_loc_perm
I0321 15:15:57.757081 32543 net.cpp:157] Top shape: 32 10 10 24 (76800)
I0321 15:15:57.757086 32543 net.cpp:165] Memory required for data: 8143390784
I0321 15:15:57.757091 32543 layer_factory.hpp:77] Creating layer conv6_2_mbox_loc_flat
I0321 15:15:57.757104 32543 net.cpp:100] Creating Layer conv6_2_mbox_loc_flat
I0321 15:15:57.757112 32543 net.cpp:434] conv6_2_mbox_loc_flat <- conv6_2_mbox_loc_perm
I0321 15:15:57.757120 32543 net.cpp:408] conv6_2_mbox_loc_flat -> conv6_2_mbox_loc_flat
I0321 15:15:57.757153 32543 net.cpp:150] Setting up conv6_2_mbox_loc_flat
I0321 15:15:57.757169 32543 net.cpp:157] Top shape: 32 2400 (76800)
I0321 15:15:57.757174 32543 net.cpp:165] Memory required for data: 8143697984
I0321 15:15:57.757179 32543 layer_factory.hpp:77] Creating layer conv6_2_mbox_conf
I0321 15:15:57.757194 32543 net.cpp:100] Creating Layer conv6_2_mbox_conf
I0321 15:15:57.757201 32543 net.cpp:434] conv6_2_mbox_conf <- conv6_2_conv6_2_relu_0_split_2
I0321 15:15:57.757210 32543 net.cpp:408] conv6_2_mbox_conf -> conv6_2_mbox_conf
I0321 15:15:57.761139 32543 net.cpp:150] Setting up conv6_2_mbox_conf
I0321 15:15:57.761158 32543 net.cpp:157] Top shape: 32 66 10 10 (211200)
I0321 15:15:57.761163 32543 net.cpp:165] Memory required for data: 8144542784
I0321 15:15:57.761173 32543 layer_factory.hpp:77] Creating layer conv6_2_mbox_conf_perm
I0321 15:15:57.761198 32543 net.cpp:100] Creating Layer conv6_2_mbox_conf_perm
I0321 15:15:57.761206 32543 net.cpp:434] conv6_2_mbox_conf_perm <- conv6_2_mbox_conf
I0321 15:15:57.761216 32543 net.cpp:408] conv6_2_mbox_conf_perm -> conv6_2_mbox_conf_perm
I0321 15:15:57.761322 32543 net.cpp:150] Setting up conv6_2_mbox_conf_perm
I0321 15:15:57.761333 32543 net.cpp:157] Top shape: 32 10 10 66 (211200)
I0321 15:15:57.761338 32543 net.cpp:165] Memory required for data: 8145387584
I0321 15:15:57.761343 32543 layer_factory.hpp:77] Creating layer conv6_2_mbox_conf_flat
I0321 15:15:57.761353 32543 net.cpp:100] Creating Layer conv6_2_mbox_conf_flat
I0321 15:15:57.761359 32543 net.cpp:434] conv6_2_mbox_conf_flat <- conv6_2_mbox_conf_perm
I0321 15:15:57.761368 32543 net.cpp:408] conv6_2_mbox_conf_flat -> conv6_2_mbox_conf_flat
I0321 15:15:57.761397 32543 net.cpp:150] Setting up conv6_2_mbox_conf_flat
I0321 15:15:57.761405 32543 net.cpp:157] Top shape: 32 6600 (211200)
I0321 15:15:57.761409 32543 net.cpp:165] Memory required for data: 8146232384
I0321 15:15:57.761415 32543 layer_factory.hpp:77] Creating layer conv6_2_mbox_priorbox
I0321 15:15:57.761426 32543 net.cpp:100] Creating Layer conv6_2_mbox_priorbox
I0321 15:15:57.761435 32543 net.cpp:434] conv6_2_mbox_priorbox <- conv6_2_conv6_2_relu_0_split_3
I0321 15:15:57.761441 32543 net.cpp:434] conv6_2_mbox_priorbox <- data_data_0_split_3
I0321 15:15:57.761452 32543 net.cpp:408] conv6_2_mbox_priorbox -> conv6_2_mbox_priorbox
I0321 15:15:57.761487 32543 net.cpp:150] Setting up conv6_2_mbox_priorbox
I0321 15:15:57.761495 32543 net.cpp:157] Top shape: 1 2 2400 (4800)
I0321 15:15:57.761499 32543 net.cpp:165] Memory required for data: 8146251584
I0321 15:15:57.761504 32543 layer_factory.hpp:77] Creating layer conv7_2_mbox_loc
I0321 15:15:57.761520 32543 net.cpp:100] Creating Layer conv7_2_mbox_loc
I0321 15:15:57.761528 32543 net.cpp:434] conv7_2_mbox_loc <- conv7_2_conv7_2_relu_0_split_1
I0321 15:15:57.761536 32543 net.cpp:408] conv7_2_mbox_loc -> conv7_2_mbox_loc
I0321 15:15:57.763048 32543 net.cpp:150] Setting up conv7_2_mbox_loc
I0321 15:15:57.763062 32543 net.cpp:157] Top shape: 32 24 5 5 (19200)
I0321 15:15:57.763068 32543 net.cpp:165] Memory required for data: 8146328384
I0321 15:15:57.763077 32543 layer_factory.hpp:77] Creating layer conv7_2_mbox_loc_perm
I0321 15:15:57.763087 32543 net.cpp:100] Creating Layer conv7_2_mbox_loc_perm
I0321 15:15:57.763092 32543 net.cpp:434] conv7_2_mbox_loc_perm <- conv7_2_mbox_loc
I0321 15:15:57.763103 32543 net.cpp:408] conv7_2_mbox_loc_perm -> conv7_2_mbox_loc_perm
I0321 15:15:57.763204 32543 net.cpp:150] Setting up conv7_2_mbox_loc_perm
I0321 15:15:57.763212 32543 net.cpp:157] Top shape: 32 5 5 24 (19200)
I0321 15:15:57.763217 32543 net.cpp:165] Memory required for data: 8146405184
I0321 15:15:57.763222 32543 layer_factory.hpp:77] Creating layer conv7_2_mbox_loc_flat
I0321 15:15:57.763231 32543 net.cpp:100] Creating Layer conv7_2_mbox_loc_flat
I0321 15:15:57.763238 32543 net.cpp:434] conv7_2_mbox_loc_flat <- conv7_2_mbox_loc_perm
I0321 15:15:57.763250 32543 net.cpp:408] conv7_2_mbox_loc_flat -> conv7_2_mbox_loc_flat
I0321 15:15:57.763283 32543 net.cpp:150] Setting up conv7_2_mbox_loc_flat
I0321 15:15:57.763293 32543 net.cpp:157] Top shape: 32 600 (19200)
I0321 15:15:57.763309 32543 net.cpp:165] Memory required for data: 8146481984
I0321 15:15:57.763314 32543 layer_factory.hpp:77] Creating layer conv7_2_mbox_conf
I0321 15:15:57.763330 32543 net.cpp:100] Creating Layer conv7_2_mbox_conf
I0321 15:15:57.763337 32543 net.cpp:434] conv7_2_mbox_conf <- conv7_2_conv7_2_relu_0_split_2
I0321 15:15:57.763347 32543 net.cpp:408] conv7_2_mbox_conf -> conv7_2_mbox_conf
I0321 15:15:57.765209 32543 net.cpp:150] Setting up conv7_2_mbox_conf
I0321 15:15:57.765223 32543 net.cpp:157] Top shape: 32 66 5 5 (52800)
I0321 15:15:57.765228 32543 net.cpp:165] Memory required for data: 8146693184
I0321 15:15:57.765236 32543 layer_factory.hpp:77] Creating layer conv7_2_mbox_conf_perm
I0321 15:15:57.765249 32543 net.cpp:100] Creating Layer conv7_2_mbox_conf_perm
I0321 15:15:57.765256 32543 net.cpp:434] conv7_2_mbox_conf_perm <- conv7_2_mbox_conf
I0321 15:15:57.765265 32543 net.cpp:408] conv7_2_mbox_conf_perm -> conv7_2_mbox_conf_perm
I0321 15:15:57.765363 32543 net.cpp:150] Setting up conv7_2_mbox_conf_perm
I0321 15:15:57.765372 32543 net.cpp:157] Top shape: 32 5 5 66 (52800)
I0321 15:15:57.765377 32543 net.cpp:165] Memory required for data: 8146904384
I0321 15:15:57.765381 32543 layer_factory.hpp:77] Creating layer conv7_2_mbox_conf_flat
I0321 15:15:57.765391 32543 net.cpp:100] Creating Layer conv7_2_mbox_conf_flat
I0321 15:15:57.765398 32543 net.cpp:434] conv7_2_mbox_conf_flat <- conv7_2_mbox_conf_perm
I0321 15:15:57.765406 32543 net.cpp:408] conv7_2_mbox_conf_flat -> conv7_2_mbox_conf_flat
I0321 15:15:57.765436 32543 net.cpp:150] Setting up conv7_2_mbox_conf_flat
I0321 15:15:57.765445 32543 net.cpp:157] Top shape: 32 1650 (52800)
I0321 15:15:57.765450 32543 net.cpp:165] Memory required for data: 8147115584
I0321 15:15:57.765455 32543 layer_factory.hpp:77] Creating layer conv7_2_mbox_priorbox
I0321 15:15:57.765466 32543 net.cpp:100] Creating Layer conv7_2_mbox_priorbox
I0321 15:15:57.765472 32543 net.cpp:434] conv7_2_mbox_priorbox <- conv7_2_conv7_2_relu_0_split_3
I0321 15:15:57.765480 32543 net.cpp:434] conv7_2_mbox_priorbox <- data_data_0_split_4
I0321 15:15:57.765488 32543 net.cpp:408] conv7_2_mbox_priorbox -> conv7_2_mbox_priorbox
I0321 15:15:57.765523 32543 net.cpp:150] Setting up conv7_2_mbox_priorbox
I0321 15:15:57.765532 32543 net.cpp:157] Top shape: 1 2 600 (1200)
I0321 15:15:57.765535 32543 net.cpp:165] Memory required for data: 8147120384
I0321 15:15:57.765542 32543 layer_factory.hpp:77] Creating layer conv8_2_mbox_loc
I0321 15:15:57.765554 32543 net.cpp:100] Creating Layer conv8_2_mbox_loc
I0321 15:15:57.765560 32543 net.cpp:434] conv8_2_mbox_loc <- conv8_2_conv8_2_relu_0_split_1
I0321 15:15:57.765573 32543 net.cpp:408] conv8_2_mbox_loc -> conv8_2_mbox_loc
I0321 15:15:57.766986 32543 net.cpp:150] Setting up conv8_2_mbox_loc
I0321 15:15:57.767000 32543 net.cpp:157] Top shape: 32 16 3 3 (4608)
I0321 15:15:57.767005 32543 net.cpp:165] Memory required for data: 8147138816
I0321 15:15:57.767014 32543 layer_factory.hpp:77] Creating layer conv8_2_mbox_loc_perm
I0321 15:15:57.767026 32543 net.cpp:100] Creating Layer conv8_2_mbox_loc_perm
I0321 15:15:57.767033 32543 net.cpp:434] conv8_2_mbox_loc_perm <- conv8_2_mbox_loc
I0321 15:15:57.767043 32543 net.cpp:408] conv8_2_mbox_loc_perm -> conv8_2_mbox_loc_perm
I0321 15:15:57.767141 32543 net.cpp:150] Setting up conv8_2_mbox_loc_perm
I0321 15:15:57.767153 32543 net.cpp:157] Top shape: 32 3 3 16 (4608)
I0321 15:15:57.767158 32543 net.cpp:165] Memory required for data: 8147157248
I0321 15:15:57.767163 32543 layer_factory.hpp:77] Creating layer conv8_2_mbox_loc_flat
I0321 15:15:57.767171 32543 net.cpp:100] Creating Layer conv8_2_mbox_loc_flat
I0321 15:15:57.767181 32543 net.cpp:434] conv8_2_mbox_loc_flat <- conv8_2_mbox_loc_perm
I0321 15:15:57.767189 32543 net.cpp:408] conv8_2_mbox_loc_flat -> conv8_2_mbox_loc_flat
I0321 15:15:57.767220 32543 net.cpp:150] Setting up conv8_2_mbox_loc_flat
I0321 15:15:57.767230 32543 net.cpp:157] Top shape: 32 144 (4608)
I0321 15:15:57.767235 32543 net.cpp:165] Memory required for data: 8147175680
I0321 15:15:57.767240 32543 layer_factory.hpp:77] Creating layer conv8_2_mbox_conf
I0321 15:15:57.767263 32543 net.cpp:100] Creating Layer conv8_2_mbox_conf
I0321 15:15:57.767271 32543 net.cpp:434] conv8_2_mbox_conf <- conv8_2_conv8_2_relu_0_split_2
I0321 15:15:57.767282 32543 net.cpp:408] conv8_2_mbox_conf -> conv8_2_mbox_conf
I0321 15:15:57.768949 32543 net.cpp:150] Setting up conv8_2_mbox_conf
I0321 15:15:57.768962 32543 net.cpp:157] Top shape: 32 44 3 3 (12672)
I0321 15:15:57.768967 32543 net.cpp:165] Memory required for data: 8147226368
I0321 15:15:57.768976 32543 layer_factory.hpp:77] Creating layer conv8_2_mbox_conf_perm
I0321 15:15:57.768987 32543 net.cpp:100] Creating Layer conv8_2_mbox_conf_perm
I0321 15:15:57.768996 32543 net.cpp:434] conv8_2_mbox_conf_perm <- conv8_2_mbox_conf
I0321 15:15:57.769006 32543 net.cpp:408] conv8_2_mbox_conf_perm -> conv8_2_mbox_conf_perm
I0321 15:15:57.769105 32543 net.cpp:150] Setting up conv8_2_mbox_conf_perm
I0321 15:15:57.769115 32543 net.cpp:157] Top shape: 32 3 3 44 (12672)
I0321 15:15:57.769119 32543 net.cpp:165] Memory required for data: 8147277056
I0321 15:15:57.769124 32543 layer_factory.hpp:77] Creating layer conv8_2_mbox_conf_flat
I0321 15:15:57.769132 32543 net.cpp:100] Creating Layer conv8_2_mbox_conf_flat
I0321 15:15:57.769140 32543 net.cpp:434] conv8_2_mbox_conf_flat <- conv8_2_mbox_conf_perm
I0321 15:15:57.769150 32543 net.cpp:408] conv8_2_mbox_conf_flat -> conv8_2_mbox_conf_flat
I0321 15:15:57.769179 32543 net.cpp:150] Setting up conv8_2_mbox_conf_flat
I0321 15:15:57.769199 32543 net.cpp:157] Top shape: 32 396 (12672)
I0321 15:15:57.769203 32543 net.cpp:165] Memory required for data: 8147327744
I0321 15:15:57.769208 32543 layer_factory.hpp:77] Creating layer conv8_2_mbox_priorbox
I0321 15:15:57.769217 32543 net.cpp:100] Creating Layer conv8_2_mbox_priorbox
I0321 15:15:57.769224 32543 net.cpp:434] conv8_2_mbox_priorbox <- conv8_2_conv8_2_relu_0_split_3
I0321 15:15:57.769232 32543 net.cpp:434] conv8_2_mbox_priorbox <- data_data_0_split_5
I0321 15:15:57.769242 32543 net.cpp:408] conv8_2_mbox_priorbox -> conv8_2_mbox_priorbox
I0321 15:15:57.769275 32543 net.cpp:150] Setting up conv8_2_mbox_priorbox
I0321 15:15:57.769285 32543 net.cpp:157] Top shape: 1 2 144 (288)
I0321 15:15:57.769289 32543 net.cpp:165] Memory required for data: 8147328896
I0321 15:15:57.769294 32543 layer_factory.hpp:77] Creating layer conv9_2_mbox_loc
I0321 15:15:57.769309 32543 net.cpp:100] Creating Layer conv9_2_mbox_loc
I0321 15:15:57.769316 32543 net.cpp:434] conv9_2_mbox_loc <- conv9_2_conv9_2_relu_0_split_0
I0321 15:15:57.769325 32543 net.cpp:408] conv9_2_mbox_loc -> conv9_2_mbox_loc
I0321 15:15:57.771276 32543 net.cpp:150] Setting up conv9_2_mbox_loc
I0321 15:15:57.771291 32543 net.cpp:157] Top shape: 32 16 1 1 (512)
I0321 15:15:57.771296 32543 net.cpp:165] Memory required for data: 8147330944
I0321 15:15:57.771306 32543 layer_factory.hpp:77] Creating layer conv9_2_mbox_loc_perm
I0321 15:15:57.771313 32543 net.cpp:100] Creating Layer conv9_2_mbox_loc_perm
I0321 15:15:57.771322 32543 net.cpp:434] conv9_2_mbox_loc_perm <- conv9_2_mbox_loc
I0321 15:15:57.771332 32543 net.cpp:408] conv9_2_mbox_loc_perm -> conv9_2_mbox_loc_perm
I0321 15:15:57.771435 32543 net.cpp:150] Setting up conv9_2_mbox_loc_perm
I0321 15:15:57.771442 32543 net.cpp:157] Top shape: 32 1 1 16 (512)
I0321 15:15:57.771446 32543 net.cpp:165] Memory required for data: 8147332992
I0321 15:15:57.771453 32543 layer_factory.hpp:77] Creating layer conv9_2_mbox_loc_flat
I0321 15:15:57.771461 32543 net.cpp:100] Creating Layer conv9_2_mbox_loc_flat
I0321 15:15:57.771468 32543 net.cpp:434] conv9_2_mbox_loc_flat <- conv9_2_mbox_loc_perm
I0321 15:15:57.771478 32543 net.cpp:408] conv9_2_mbox_loc_flat -> conv9_2_mbox_loc_flat
I0321 15:15:57.771512 32543 net.cpp:150] Setting up conv9_2_mbox_loc_flat
I0321 15:15:57.771520 32543 net.cpp:157] Top shape: 32 16 (512)
I0321 15:15:57.771524 32543 net.cpp:165] Memory required for data: 8147335040
I0321 15:15:57.771529 32543 layer_factory.hpp:77] Creating layer conv9_2_mbox_conf
I0321 15:15:57.771548 32543 net.cpp:100] Creating Layer conv9_2_mbox_conf
I0321 15:15:57.771562 32543 net.cpp:434] conv9_2_mbox_conf <- conv9_2_conv9_2_relu_0_split_1
I0321 15:15:57.771574 32543 net.cpp:408] conv9_2_mbox_conf -> conv9_2_mbox_conf
I0321 15:15:57.773254 32543 net.cpp:150] Setting up conv9_2_mbox_conf
I0321 15:15:57.773268 32543 net.cpp:157] Top shape: 32 44 1 1 (1408)
I0321 15:15:57.773273 32543 net.cpp:165] Memory required for data: 8147340672
I0321 15:15:57.773283 32543 layer_factory.hpp:77] Creating layer conv9_2_mbox_conf_perm
I0321 15:15:57.773293 32543 net.cpp:100] Creating Layer conv9_2_mbox_conf_perm
I0321 15:15:57.773301 32543 net.cpp:434] conv9_2_mbox_conf_perm <- conv9_2_mbox_conf
I0321 15:15:57.773311 32543 net.cpp:408] conv9_2_mbox_conf_perm -> conv9_2_mbox_conf_perm
I0321 15:15:57.773411 32543 net.cpp:150] Setting up conv9_2_mbox_conf_perm
I0321 15:15:57.773420 32543 net.cpp:157] Top shape: 32 1 1 44 (1408)
I0321 15:15:57.773427 32543 net.cpp:165] Memory required for data: 8147346304
I0321 15:15:57.773432 32543 layer_factory.hpp:77] Creating layer conv9_2_mbox_conf_flat
I0321 15:15:57.773439 32543 net.cpp:100] Creating Layer conv9_2_mbox_conf_flat
I0321 15:15:57.773449 32543 net.cpp:434] conv9_2_mbox_conf_flat <- conv9_2_mbox_conf_perm
I0321 15:15:57.773458 32543 net.cpp:408] conv9_2_mbox_conf_flat -> conv9_2_mbox_conf_flat
I0321 15:15:57.773488 32543 net.cpp:150] Setting up conv9_2_mbox_conf_flat
I0321 15:15:57.773496 32543 net.cpp:157] Top shape: 32 44 (1408)
I0321 15:15:57.773500 32543 net.cpp:165] Memory required for data: 8147351936
I0321 15:15:57.773506 32543 layer_factory.hpp:77] Creating layer conv9_2_mbox_priorbox
I0321 15:15:57.773515 32543 net.cpp:100] Creating Layer conv9_2_mbox_priorbox
I0321 15:15:57.773522 32543 net.cpp:434] conv9_2_mbox_priorbox <- conv9_2_conv9_2_relu_0_split_2
I0321 15:15:57.773528 32543 net.cpp:434] conv9_2_mbox_priorbox <- data_data_0_split_6
I0321 15:15:57.773540 32543 net.cpp:408] conv9_2_mbox_priorbox -> conv9_2_mbox_priorbox
I0321 15:15:57.773571 32543 net.cpp:150] Setting up conv9_2_mbox_priorbox
I0321 15:15:57.773581 32543 net.cpp:157] Top shape: 1 2 16 (32)
I0321 15:15:57.773584 32543 net.cpp:165] Memory required for data: 8147352064
I0321 15:15:57.773591 32543 layer_factory.hpp:77] Creating layer mbox_loc
I0321 15:15:57.773600 32543 net.cpp:100] Creating Layer mbox_loc
I0321 15:15:57.773607 32543 net.cpp:434] mbox_loc <- conv4_3_norm_mbox_loc_flat
I0321 15:15:57.773615 32543 net.cpp:434] mbox_loc <- fc7_mbox_loc_flat
I0321 15:15:57.773624 32543 net.cpp:434] mbox_loc <- conv6_2_mbox_loc_flat
I0321 15:15:57.773630 32543 net.cpp:434] mbox_loc <- conv7_2_mbox_loc_flat
I0321 15:15:57.773636 32543 net.cpp:434] mbox_loc <- conv8_2_mbox_loc_flat
I0321 15:15:57.773643 32543 net.cpp:434] mbox_loc <- conv9_2_mbox_loc_flat
I0321 15:15:57.773651 32543 net.cpp:408] mbox_loc -> mbox_loc
I0321 15:15:57.773687 32543 net.cpp:150] Setting up mbox_loc
I0321 15:15:57.773696 32543 net.cpp:157] Top shape: 32 34928 (1117696)
I0321 15:15:57.773701 32543 net.cpp:165] Memory required for data: 8151822848
I0321 15:15:57.773707 32543 layer_factory.hpp:77] Creating layer mbox_conf
I0321 15:15:57.773716 32543 net.cpp:100] Creating Layer mbox_conf
I0321 15:15:57.773723 32543 net.cpp:434] mbox_conf <- conv4_3_norm_mbox_conf_flat
I0321 15:15:57.773756 32543 net.cpp:434] mbox_conf <- fc7_mbox_conf_flat
I0321 15:15:57.773764 32543 net.cpp:434] mbox_conf <- conv6_2_mbox_conf_flat
I0321 15:15:57.773771 32543 net.cpp:434] mbox_conf <- conv7_2_mbox_conf_flat
I0321 15:15:57.773777 32543 net.cpp:434] mbox_conf <- conv8_2_mbox_conf_flat
I0321 15:15:57.773782 32543 net.cpp:434] mbox_conf <- conv9_2_mbox_conf_flat
I0321 15:15:57.773790 32543 net.cpp:408] mbox_conf -> mbox_conf
I0321 15:15:57.773823 32543 net.cpp:150] Setting up mbox_conf
I0321 15:15:57.773831 32543 net.cpp:157] Top shape: 32 96052 (3073664)
I0321 15:15:57.773836 32543 net.cpp:165] Memory required for data: 8164117504
I0321 15:15:57.773842 32543 layer_factory.hpp:77] Creating layer mbox_priorbox
I0321 15:15:57.773850 32543 net.cpp:100] Creating Layer mbox_priorbox
I0321 15:15:57.773857 32543 net.cpp:434] mbox_priorbox <- conv4_3_norm_mbox_priorbox
I0321 15:15:57.773874 32543 net.cpp:434] mbox_priorbox <- fc7_mbox_priorbox
I0321 15:15:57.773882 32543 net.cpp:434] mbox_priorbox <- conv6_2_mbox_priorbox
I0321 15:15:57.773888 32543 net.cpp:434] mbox_priorbox <- conv7_2_mbox_priorbox
I0321 15:15:57.773895 32543 net.cpp:434] mbox_priorbox <- conv8_2_mbox_priorbox
I0321 15:15:57.773900 32543 net.cpp:434] mbox_priorbox <- conv9_2_mbox_priorbox
I0321 15:15:57.773912 32543 net.cpp:408] mbox_priorbox -> mbox_priorbox
I0321 15:15:57.773943 32543 net.cpp:150] Setting up mbox_priorbox
I0321 15:15:57.773952 32543 net.cpp:157] Top shape: 1 2 34928 (69856)
I0321 15:15:57.773955 32543 net.cpp:165] Memory required for data: 8164396928
I0321 15:15:57.773962 32543 layer_factory.hpp:77] Creating layer mbox_loss
I0321 15:15:57.773977 32543 net.cpp:100] Creating Layer mbox_loss
I0321 15:15:57.773983 32543 net.cpp:434] mbox_loss <- mbox_loc
I0321 15:15:57.773988 32543 net.cpp:434] mbox_loss <- mbox_conf
I0321 15:15:57.773994 32543 net.cpp:434] mbox_loss <- mbox_priorbox
…
  phase: TEST
}
layer {
  name: "data"
  type: "AnnotatedData"
  top: "data"
  top: "label"
  include {
    phase: TEST
  }
  transform_param {
    mean_value: 104
    mean_value: 117
    mean_value: 123
    resize_param {
      prob: 1
      resize_mode: WARP
      height: 300
      width: 300
      interp_mode: LINEAR
    }
  }
  data_param {
    source: "examples/NWPU_VHR/NWPU_VHR_test_lmdb"
    batch_size: 1
    backend: LMDB
  }
  annotated_data_param {
    batch_sampler {
    }
    label_map_file: "data/NWPU_VHR/labelmap_NWPU_VHR.prototxt"
  }
}
layer {
  name: "conv1_1"
  type: "Convolution"
  bottom: "data"
  top: "conv1_1"
  param {
    lr_mult: 1
    decay_mult: 1
  }
  param {
    lr_mult: 2
    decay_mult: 0
  }
  convolution_param {
    num_output: 64
    pad: 1
    kernel_size: 3
    weight_filler {
      type: "xavier"
    }
    bias_filler {
      type: "constant"
      value: 0
    }
  }
}
layer {
  name: "relu1_1"
  type: "ReLU"
  bottom: "conv1_1"
  top: "conv1_1"
}
layer {
  name: "conv1_2"
  type: "Convolution"
  bottom: "conv1_1"
  top: "conv1_2"
  param {
    lr_mult: 1
    decay_mult: 1
  }
  param {
    lr_mult: 2
    decay_mult: 0
  }
  convolution_param {
    num_output: 64
    pad: 1
    kernel_size: 3
    weight_filler {
      type: "xavier"
    }
    bias_filler {
      type: "constant"
      value: 0
    }
  }
}
layer {
  name: "relu1_2"
  type: "ReLU"
  bottom: "conv1_2"
  top: "conv1_2"
}
layer {
  name: "pool1"
  type: "Pooling"
  bottom: "conv1_2"
  top: "pool1"
  pooling_param {
    pool: MAX
    kernel_size: 2
    stride: 2
  }
}
layer {
  name: "conv2_1"
  type: "Convolution"
  bottom: "pool1"
  top: "conv2_1"
  param {
    lr_mult: 1
    decay_mult: 1
  }
  param {
    lr_mult: 2
    decay_mult: 0
  }
  convolution_param {
    num_output: 128
    pad: 1
    kernel_size: 3
    weight_filler {
      type: "xavier"
    }
    bias_filler {
      type: "constant"
      value: 0
    }
  }
}
layer {
  name: "relu2_1"
  type: "ReLU"
  bottom: "conv2_1"
  top: "conv2_1"
}
layer {
  name: "conv2_2"
  type: "Convolution"
  bottom: "conv2_1"
  top: "conv2_2"
  param {
    lr_mult: 1
    decay_mult: 1
  }
  param {
    lr_mult: 2
    decay_mult: 0
  }
  convolution_param {
    num_output: 128
    pad: 1
    kernel_size: 3
    weight_filler {
      type: "xavier"
    }
    bias_filler {
      type: "constant"
      value: 0
    }
  }
}
layer {
  name: "relu2_2"
  type: "ReLU"
  bottom: "conv2_2"
  top: "conv2_2"
}
layer {
  name: "pool2"
  type: "Pooling"
  bottom: "conv2_2"
  top: "pool2"
  pooling_param {
    pool: MAX
    kernel_size: 2
    stride: 2
  }
}
layer {
  name: "conv3_1"
  type: "Convolution"
  bottom: "pool2"
  top: "conv3_1"
  param {
    lr_mult: 1
    decay_mult: 1
  }
  param {
    lr_mult: 2
    decay_mult: 0
  }
  convolution_param {
    num_output: 256
    pad: 1
    kernel_size: 3
    weight_filler {
      type: "xavier"
    }
    bias_filler {
      type: "constant"
      value: 0
    }
  }
}
layer {
  name: "relu3_1"
  type: "ReLU"
  bottom: "conv3_1"
  top: "conv3_1"
}
layer {
  name: "conv3_2"
  type: "Convolution"
  bottom: "conv3_1"
  top: "conv3_2"
  param {
    lr_mult: 1
    decay_mult: 1
  }
  param {
    lr_mult: 2
    decay_mult: 0
  }
  convolution_param {
    num_output: 256
    pad: 1
    kernel_size: 3
    weight_filler {
      type: "xavier"
    }
    bias_filler {
      type: "constant"
      value: 0
    }
  }
}
layer {
  name: "relu3_2"
  type: "ReLU"
  bottom: "conv3_2"
  top: "conv3_2"
}
layer {
  name: "conv3_3"
  type: "Convolution"
  bottom: "conv3_2"
  top: "conv3_3"
  param {
    lr_mult: 1
    decay_mult: 1
  }
  param {
    lr_mult: 2
    decay_mult: 0
  }
  convolution_param {
    num_output: 256
    pad: 1
    kernel_size: 3
    weight_filler {
      type: "xavier"
    }
    bias_filler {
      type: "constant"
      value: 0
    }
  }
}
layer {
  name: "relu3_3"
  type: "ReLU"
  bottom: "conv3_3"
  top: "conv3_3"
}
layer {
  name: "pool3"
  type: "Pooling"
  bottom: "conv3_3"
  top: "pool3"
  pooling_param {
    pool: MAX
    kernel_size: 2
    stride: 2
  }
}
layer {
  name: "conv4_1"
  type: "Convolution"
  bottom: "pool3"
  top: "conv4_1"
  param {
    lr_mult: 1
    decay_mult: 1
  }
  param {
    lr_mult: 2
    decay_mult: 0
  }
  convolution_param {
    num_output: 512
    pad: 1
    kernel_size: 3
    weight_filler {
      type: "xavier"
    }
    bias_filler {
      type: "constant"
      value: 0
    }
  }
}
layer {
  name: "relu4_1"
  type: "ReLU"
  bottom: "conv4_1"
  top: "conv4_1"
}
layer {
  name: "conv4_2"
  type: "Convolution"
  bottom: "conv4_1"
  top: "conv4_2"
  param {
    lr_mult: 1
    decay_mult: 1
  }
  param {
    lr_mult: 2
    decay_mult: 0
  }
  convolution_param {
    num_output: 512
    pad: 1
    kernel_size: 3
    weight_filler {
      type: "xavier"
    }
    bias_filler {
      type: "constant"
      value: 0
    }
  }
}
layer {
  name: "relu4_2"
  type: "ReLU"
  bottom: "conv4_2"
  top: "conv4_2"
}
layer {
  name: "conv4_3"
  type: "Convolution"
  bottom: "conv4_2"
  top: "conv4_3"
  param {
    lr_mult: 1
    decay_mult: 1
  }
  param {
    lr_mult: 2
    decay_mult: 0
  }
  convolution_param {
    num_output: 512
    pad: 1
    kernel_size: 3
    weight_filler {
      type: "xavier"
    }
    bias_filler {
      type: "constant"
      value: 0
    }
  }
}
layer {
  name: "relu4_3"
  type: "ReLU"
  bottom: "conv4_3"
  top: "conv4_3"
}
layer {
  name: "pool4"
  type: "Pooling"
  bottom: "conv4_3"
  top: "pool4"
  pooling_param {
    pool: MAX
    kernel_size: 2
    stride: 2
  }
}
layer {
  name: "conv5_1_depthwise"
  type: "DepthwiseConvolution"
  bottom: "pool4"
  top: "conv5_1_3x3"
  param {
    lr_mult: 1
    decay_mult: 1
  }
  param {
    lr_mult: 2
    decay_mult: 0
  }
  convolution_param {
    num_output: 512
    pad: 1
    kernel_size: 3
    group: 512
    weight_filler {
      type: "xavier"
    }
    bias_filler {
      type: "constant"
      value: 0
    }
    dilation: 1
  }
}
layer {
  name: "conv5_1_3x3_relu"
  type: "ReLU"
  bottom: "conv5_1_3x3"
  top: "conv5_1_3x3"
}
layer {
  name: "conv5_1_1x1"
  type: "Convolution"
  bottom: "conv5_1_3x3"
  top: "conv5_1"
  param {
    lr_mult: 1
    decay_mult: 1
  }
  param {
    lr_mult: 2
    decay_mult: 0
  }
  convolution_param {
    num_output: 512
    pad: 0
    kernel_size: 1
    stride: 1
    weight_filler {
      type: "xavier"
    }
    bias_filler {
      type: "constant"
      value: 0
    }
    dilation: 1
  }
}
layer {
  name: "relu5_1"
  type: "ReLU"
  bottom: "conv5_1"
  top: "conv5_1"
}
layer {
  name: "conv5_2_depthwise"
  type: "DepthwiseConvolution"
  bottom: "conv5_1"
  top: "conv5_2_3x3"
  param {
    lr_mult: 1
    decay_mult: 1
  }
  param {
    lr_mult: 2
    decay_mult: 0
  }
  convolution_param {
    num_output: 512
    pad: 1
    kernel_size: 3
    group: 512
    weight_filler {
      type: "xavier"
    }
    bias_filler {
      type: "constant"
      value: 0
    }
    dilation: 1
  }
}
layer {
  name: "conv5_2_3x3_relu"
  type: "ReLU"
  bottom: "conv5_2_3x3"
  top: "conv5_2_3x3"
}
layer {
  name: "conv5_2_1x1"
  type: "Convolution"
  bottom: "conv5_2_3x3"
  top: "conv5_2"
  param {
    lr_mult: 1
    decay_mult: 1
  }
  param {
    lr_mult: 2
    decay_mult: 0
  }
  convolution_param {
    num_output: 512
    pad: 0
    kernel_size: 1
    stride: 1
    weight_filler {
      type: "xavier"
    }
    bias_filler {
      type: "constant"
      value: 0
    }
    dilation: 1
  }
}
layer {
  name: "relu5_2"
  type: "ReLU"
  bottom: "conv5_2"
  top: "conv5_2"
}
layer {
  name: "conv5_3_depthwise"
  type: "DepthwiseConvolution"
  bottom: "conv5_2"
  top: "conv5_3_3x3"
  param {
    lr_mult: 1
    decay_mult: 1
  }
  param {
    lr_mult: 2
    decay_mult: 0
  }
  convolution_param {
    num_output: 512
    pad: 1
    kernel_size: 3
    group: 512
    weight_filler {
      type: "xavier"
    }
    bias_filler {
      type: "constant"
      value: 0
    }
    dilation: 1
  }
}
layer {
  name: "conv5_3_3x3_relu"
  type: "ReLU"
  bottom: "conv5_3_3x3"
  top: "conv5_3_3x3"
}
layer {
  name: "conv5_3_1x1"
  type: "Convolution"
  bottom: "conv5_3_3x3"
  top: "conv5_3"
  param {
    lr_mult: 1
    decay_mult: 1
  }
  param {
    lr_mult: 2
    decay_mult: 0
  }
  convolution_param {
    num_output: 512
    pad: 0
    kernel_size: 1
    stride: 1
    weight_filler {
      type: "xavier"
    }
    bias_filler {
      type: "constant"
      value: 0
    }
    dilation: 1
  }
}
layer {
  name: "relu5_3"
  type: "ReLU"
  bottom: "conv5_3"
  top: "conv5_3"
}
layer {
  name: "pool5"
  type: "Pooling"
  bottom: "conv5_3"
  top: "pool5"
  pooling_param {
    pool: MAX
    kernel_size: 3
    stride: 1
    pad: 1
  }
}
layer {
  name: "fc6_depthwise"
  type: "DepthwiseConvolution"
  bottom: "pool5"
  top: "fc6_3x3"
  param {
    lr_mult: 1
    decay_mult: 1
  }
  param {
    lr_mult: 2
    decay_mult: 0
  }
  convolution_param {
    num_output: 512
    pad: 6
    kernel_size: 3
    group: 512
    weight_filler {
      type: "xavier"
    }
    bias_filler {
      type: "constant"
      value: 0
    }
    dilation: 6
  }
}
layer {
  name: "fc6_3x3_relu"
  type: "ReLU"
  bottom: "fc6_3x3"
  top: "fc6_3x3"
}
layer {
  name: "fc6_1x1"
  type: "Convolution"
  bottom: "fc6_3x3"
  top: "fc6"
  param {
    lr_mult: 1
    decay_mult: 1
  }
  param {
    lr_mult: 2
    decay_mult: 0
  }
  convolution_param {
    num_output: 1024
    pad: 0
    kernel_size: 1
    stride: 1
    weight_filler {
      type: "xavier"
    }
    bias_filler {
      type: "constant"
      value: 0
    }
    dilation: 6
  }
}
layer {
  name: "relu6"
  type: "ReLU"
  bottom: "fc6"
  top: "fc6"
}
layer {
  name: "fc7"
  type: "Convolution"
  bottom: "fc6"
  top: "fc7"
  param {
    lr_mult: 1
    decay_mult: 1
  }
  param {
    lr_mult: 2
    decay_mult: 0
  }
  convolution_param {
    num_output: 1024
    kernel_size: 1
    weight_filler {
      type: "xavier"
    }
    bias_filler {
      type: "constant"
      value: 0
    }
  }
}
layer {
  name: "relu7"
  type: "ReLU"
  bottom: "fc7"
  top: "fc7"
}
layer {
  name: "conv6_1"
  type: "Convolution"
  bottom: "fc7"
  top: "conv6_1"
  param {
    lr_mult: 1
    decay_mult: 1
  }
  param {
    lr_mult: 2
    decay_mult: 0
  }
  convolution_param {
    num_output: 256
    pad: 0
    kernel_size: 1
    stride: 1
    weight_filler {
      type: "xavier"
    }
    bias_filler {
      type: "constant"
      value: 0
    }
  }
}
layer {
  name: "conv6_1_relu"
  type: "ReLU"
  bottom: "conv6_1"
  top: "conv6_1"
}
layer {
  name: "conv6_2"
  type: "Convolution"
  bottom: "conv6_1"
  top: "conv6_2"
  param {
    lr_mult: 1
    decay_mult: 1
  }
  param {
    lr_mult: 2
    decay_mult: 0
  }
  convolution_param {
    num_output: 512
    pad: 1
    kernel_size: 3
    stride: 2
    weight_filler {
      type: "xavier"
    }
    bias_filler {
      type: "constant"
      value: 0
    }
  }
}
layer {
  name: "conv6_2_relu"
  type: "ReLU"
  bottom: "conv6_2"
  top: "conv6_2"
}
layer {
  name: "conv7_1"
  type: "Convolution"
  bottom: "conv6_2"
  top: "conv7_1"
  param {
    lr_mult: 1
    decay_mult: 1
  }
  param {
    lr_mult: 2
    decay_mult: 0
  }
  convolution_param {
    num_output: 128
    pad: 0
    kernel_size: 1
    stride: 1
    weight_filler {
      type: "xavier"
    }
    bias_filler {
      type: "constant"
      value: 0
    }
  }
}
layer {
  name: "conv7_1_relu"
  type: "ReLU"
  bottom: "conv7_1"
  top: "conv7_1"
}
layer {
  name: "conv7_2"
  type: "Convolution"
  bottom: "conv7_1"
  top: "conv7_2"
  param {
    lr_mult: 1
    decay_mult: 1
  }
  param {
    lr_mult: 2
    decay_mult: 0
  }
  convolution_param {
    num_output: 256
    pad: 1
    kernel_size: 3
    stride: 2
    weight_filler {
      type: "xavier"
    }
    bias_filler {
      type: "constant"
      value: 0
    }
  }
}
layer {
  name: "conv7_2_relu"
  type: "ReLU"
  bottom: "conv7_2"
  top: "conv7_2"
}
layer {
  name: "conv8_1"
  type: "Convolution"
  bottom: "conv7_2"
  top: "conv8_1"
  param {
    lr_mult: 1
    decay_mult: 1
  }
  param {
    lr_mult: 2
    decay_mult: 0
  }
  convolution_param {
    num_output: 128
    pad: 0
    kernel_size: 1
    stride: 1
    weight_filler {
      type: "xavier"
    }
    bias_filler {
      type: "constant"
      value: 0
    }
  }
}
layer {
  name: "conv8_1_relu"
  type: "ReLU"
  bottom: "conv8_1"
  top: "conv8_1"
}
layer {
  name: "conv8_2"
  type: "Convolution"
  bottom: "conv8_1"
  top: "conv8_2"
  param {
    lr_mult: 1
    decay_mult: 1
  }
  param {
    lr_mult: 2
    decay_mult: 0
  }
  convolution_param {
    num_output: 256
    pad: 0
    kernel_size: 3
    stride: 1
    weight_filler {
      type: "xavier"
    }
    bias_filler {
      type: "constant"
      value: 0
    }
  }
}
layer {
  name: "conv8_2_relu"
  type: "ReLU"
  bottom: "conv8_2"
  top: "conv8_2"
}
layer {
  name: "conv9_1"
  type: "Convolution"
  bottom: "conv8_2"
  top: "conv9_1"
  param {
    lr_mult: 1
    decay_mult: 1
  }
  param {
    lr_mult: 2
    decay_mult: 0
  }
  convolution_param {
    num_output: 128
    pad: 0
    kernel_size: 1
    stride: 1
    weight_filler {
      type: "xavier"
    }
    bias_filler {
      type: "constant"
      value: 0
    }
  }
}
layer {
  name: "conv9_1_relu"
  type: "ReLU"
  bottom: "conv9_1"
  top: "conv9_1"
}
layer {
  name: "conv9_2"
  type: "Convolution"
  bottom: "conv9_1"
  top: "conv9_2"
  param {
    lr_mult: 1
    decay_mult: 1
  }
  param {
    lr_mult: 2
    decay_mult: 0
  }
  convolution_param {
    num_output: 256
    pad: 0
    kernel_size: 3
    stride: 1
    weight_filler {
      type: "xavier"
    }
    bias_filler {
      type: "constant"
      value: 0
    }
  }
}
layer {
  name: "conv9_2_relu"
  type: "ReLU"
  bottom: "conv9_2"
  top: "conv9_2"
}
layer {
  name: "conv4_3_norm"
  type: "Normalize"
  bottom: "conv4_3"
  top: "conv4_3_norm"
  norm_param {
    across_spatial: false
    scale_filler {
      type: "constant"
      value: 20
    }
    channel_shared: false
  }
}
layer {
  name: "conv4_3_norm_mbox_loc"
  type: "Convolution"
  bottom: "conv4_3_norm"
  top: "conv4_3_norm_mbox_loc"
  param {
    lr_mult: 1
    decay_mult: 1
  }
  param {
    lr_mult: 2
    decay_mult: 0
  }
  convolution_param {
    num_output: 16
    pad: 1
    kernel_size: 3
    stride: 1
    weight_filler {
      type: "xavier"
    }
    bias_filler {
      type: "constant"
      value: 0
    }
  }
}
layer {
  name: "conv4_3_norm_mbox_loc_perm"
  type: "Permute"
  bottom: "conv4_3_norm_mbox_loc"
  top: "conv4_3_norm_mbox_loc_perm"
  permute_param {
    order: 0
    order: 2
    order: 3
    order: 1
  }
}
layer {
  name: "conv4_3_norm_mbox_loc_flat"
  type: "Flatten"
  bottom: "conv4_3_norm_mbox_loc_perm"
  top: "conv4_3_norm_mbox_loc_flat"
  flatten_param {
    axis: 1
  }
}
layer {
  name: "conv4_3_norm_mbox_conf"
  type: "Convolution"
  bottom: "conv4_3_norm"
  top: "conv4_3_norm_mbox_conf"
  param {
    lr_mult: 1
    decay_mult: 1
  }
  param {
    lr_mult: 2
    decay_mult: 0
  }
  convolution_param {
    num_output: 44
    pad: 1
    kernel_size: 3
    stride: 1
    weight_filler {
      type: "xavier"
    }
    bias_filler {
      type: "constant"
      value: 0
    }
  }
}
layer {
  name: "conv4_3_norm_mbox_conf_perm"
  type: "Permute"
  bottom: "conv4_3_norm_mbox_conf"
  top: "conv4_3_norm_mbox_conf_perm"
  permute_param {
    order: 0
    order: 2
    order: 3
    order: 1
  }
}
layer {
  name: "conv4_3_norm_mbox_conf_flat"
  type: "Flatten"
  bottom: "conv4_3_norm_mbox_conf_perm"
  top: "conv4_3_norm_mbox_conf_flat"
  flatten_param {
    axis: 1
  }
}
layer {
  name: "conv4_3_norm_mbox_priorbox"
  type: "PriorBox"
  bottom: "conv4_3_norm"
  bottom: "data"
  top: "conv4_3_norm_mbox_priorbox"
  prior_box_param {
    min_size: 30
    max_size: 60
    aspect_ratio: 2
    flip: true
    clip: false
    variance: 0.1
    variance: 0.1
    variance: 0.2
    variance: 0.2
    step: 8
    offset: 0.5
  }
}
layer {
  name: "fc7_mbox_loc"
  type: "Convolution"
  bottom: "fc7"
  top: "fc7_mbox_loc"
  param {
    lr_mult: 1
    decay_mult: 1
  }
  param {
    lr_mult: 2
    decay_mult: 0
  }
  convolution_param {
    num_output: 24
    pad: 1
    kernel_size: 3
    stride: 1
    weight_filler {
      type: "xavier"
    }
    bias_filler {
      type: "constant"
      value: 0
    }
  }
}
layer {
  name: "fc7_mbox_loc_perm"
  type: "Permute"
  bottom: "fc7_mbox_loc"
  top: "fc7_mbox_loc_perm"
  permute_param {
    order: 0
    order: 2
    order: 3
    order: 1
  }
}
layer {
  name: "fc7_mbox_loc_flat"
  type: "Flatten"
  bottom: "fc7_mbox_loc_perm"
  top: "fc7_mbox_loc_flat"
  flatten_param {
    axis: 1
  }
}
layer {
  name: "fc7_mbox_conf"
  type: "Convolution"
  bottom: "fc7"
  top: "fc7_mbox_conf"
  param {
    lr_mult: 1
    decay_mult: 1
  }
  param {
    lr_mult: 2
    decay_mult: 0
  }
  convolution_param {
    num_output: 66
    pad: 1
    kernel_size: 3
    stride: 1
    weight_filler {
      type: "xavier"
    }
    bias_filler {
      type: "constant"
      value: 0
    }
  }
}
layer {
  name: "fc7_mbox_conf_perm"
  type: "Permute"
  bottom: "fc7_mbox_conf"
  top: "fc7_mbox_conf_perm"
  permute_param {
    order: 0
    order: 2
    order: 3
    order: 1
  }
}
layer {
  name: "fc7_mbox_conf_flat"
  type: "Flatten"
  bottom: "fc7_mbox_conf_perm"
  top: "fc7_mbox_conf_flat"
  flatten_param {
    axis: 1
  }
}
layer {
  name: "fc7_mbox_priorbox"
  type: "PriorBox"
  bottom: "fc7"
  bottom: "data"
  top: "fc7_mbox_priorbox"
  prior_box_param {
    min_size: 60
    max_size: 111
    aspect_ratio: 2
    aspect_ratio: 3
    flip: true
    clip: false
    variance: 0.1
    variance: 0.1
    variance: 0.2
    variance: 0.2
    step: 16
    offset: 0.5
  }
}
layer {
  name: "conv6_2_mbox_loc"
  type: "Convolution"
  bottom: "conv6_2"
  top: "conv6_2_mbox_loc"
  param {
    lr_mult: 1
    decay_mult: 1
  }
  param {
    lr_mult: 2
    decay_mult: 0
  }
  convolution_param {
    num_output: 24
    pad: 1
    kernel_size: 3
    stride: 1
    weight_filler {
      type: "xavier"
    }
    bias_filler {
      type: "constant"
      value: 0
    }
  }
}
layer {
  name: "conv6_2_mbox_loc_perm"
  type: "Permute"
  bottom: "conv6_2_mbox_loc"
  top: "conv6_2_mbox_loc_perm"
  permute_param {
    order: 0
    order: 2
    order: 3
    order: 1
  }
}
layer {
  name: "conv6_2_mbox_loc_flat"
  type: "Flatten"
  bottom: "conv6_2_mbox_loc_perm"
  top: "conv6_2_mbox_loc_flat"
  flatten_param {
    axis: 1
  }
}
layer {
  name: "conv6_2_mbox_conf"
  type: "Convolution"
  bottom: "conv6_2"
  top: "conv6_2_mbox_conf"
  param {
    lr_mult: 1
    decay_mult: 1
  }
  param {
    lr_mult: 2
    decay_mult: 0
  }
  convolution_param {
    num_output: 66
    pad: 1
    kernel_size: 3
    stride: 1
    weight_filler {
      type: "xavier"
    }
    bias_filler {
      type: "constant"
      value: 0
    }
  }
}
layer {
  name: "conv6_2_mbox_conf_perm"
  type: "Permute"
  bottom: "conv6_2_mbox_conf"
  top: "conv6_2_mbox_conf_perm"
  permute_param {
    order: 0
    order: 2
    order: 3
    order: 1
  }
}
layer {
  name: "conv6_2_mbox_conf_flat"
  type: "Flatten"
  bottom: "conv6_2_mbox_conf_perm"
  top: "conv6_2_mbox_conf_flat"
  flatten_param {
    axis: 1
  }
}
layer {
  name: "conv6_2_mbox_priorbox"
  type: "PriorBox"
  bottom: "conv6_2"
  bottom: "data"
  top: "conv6_2_mbox_priorbox"
  prior_box_param {
    min_size: 111
    max_size: 162
    aspect_ratio: 2
    aspect_ratio: 3
    flip: true
    clip: false
    variance: 0.1
    variance: 0.1
    variance: 0.2
    variance: 0.2
    step: 32
    offset: 0.5
  }
}
layer {
  name: "conv7_2_mbox_loc"
  type: "Convolution"
  bottom: "conv7_2"
  top: "conv7_2_mbox_loc"
  param {
    lr_mult: 1
    decay_mult: 1
  }
  param {
    lr_mult: 2
    decay_mult: 0
  }
  convolution_param {
    num_output: 24
    pad: 1
    kernel_size: 3
    stride: 1
    weight_filler {
      type: "xavier"
    }
    bias_filler {
      type: "constant"
      value: 0
    }
  }
}
layer {
  name: "conv7_2_mbox_loc_perm"
  type: "Permute"
  bottom: "conv7_2_mbox_loc"
  top: "conv7_2_mbox_loc_perm"
  permute_param {
    order: 0
    order: 2
    order: 3
    order: 1
  }
}
layer {
  name: "conv7_2_mbox_loc_flat"
  type: "Flatten"
  bottom: "conv7_2_mbox_loc_perm"
  top: "conv7_2_mbox_loc_flat"
  flatten_param {
    axis: 1
  }
}
layer {
  name: "conv7_2_mbox_conf"
  type: "Convolution"
  bottom: "conv7_2"
  top: "conv7_2_mbox_conf"
  param {
    lr_mult: 1
    decay_mult: 1
  }
  param {
    lr_mult: 2
    decay_mult: 0
  }
  convolution_param {
    num_output: 66
    pad: 1
    kernel_size: 3
    stride: 1
    weight_filler {
      type: "xavier"
    }
    bias_filler {
      type: "constant"
      value: 0
    }
  }
}
layer {
  name: "conv7_2_mbox_conf_perm"
  type: "Permute"
  bottom: "conv7_2_mbox_conf"
  top: "conv7_2_mbox_conf_perm"
  permute_param {
    order: 0
    order: 2
    order: 3
    order: 1
  }
}
layer {
  name: "conv7_2_mbox_conf_flat"
  type: "Flatten"
  bottom: "conv7_2_mbox_conf_perm"
  top: "conv7_2_mbox_conf_flat"
  flatten_param {
    axis: 1
  }
}
layer {
  name: "conv7_2_mbox_priorbox"
  type: "PriorBox"
  bottom: "conv7_2"
  bottom: "data"
  top: "conv7_2_mbox_priorbox"
  prior_box_param {
    min_size: 162
    max_size: 213
    aspect_ratio: 2
    aspect_ratio: 3
    flip: true
    clip: false
    variance: 0.1
    variance: 0.1
    variance: 0.2
    variance: 0.2
    step: 64
    offset: 0.5
  }
}
layer {
  name: "conv8_2_mbox_loc"
  type: "Convolution"
  bottom: "conv8_2"
  top: "conv8_2_mbox_loc"
  param {
    lr_mult: 1
    decay_mult: 1
  }
  param {
    lr_mult: 2
    decay_mult: 0
  }
  convolution_param {
    num_output: 16
    pad: 1
    kernel_size: 3
    stride: 1
    weight_filler {
      type: "xavier"
    }
    bias_filler {
      type: "constant"
      value: 0
    }
  }
}
layer {
  name: "conv8_2_mbox_loc_perm"
  type: "Permute"
  bottom: "conv8_2_mbox_loc"
  top: "conv8_2_mbox_loc_perm"
  permute_param {
    order: 0
    order: 2
    order: 3
    order: 1
  }
}
layer {
  name: "conv8_2_mbox_loc_flat"
  type: "Flatten"
  bottom: "conv8_2_mbox_loc_perm"
  top: "conv8_2_mbox_loc_flat"
  flatten_param {
    axis: 1
  }
}
layer {
  name: "conv8_2_mbox_conf"
  type: "Convolution"
  bottom: "conv8_2"
  top: "conv8_2_mbox_conf"
  param {
    lr_mult: 1
    decay_mult: 1
  }
  param {
    lr_mult: 2
    decay_mult: 0
  }
  convolution_param {
    num_output: 44
    pad: 1
    kernel_size: 3
    stride: 1
    weight_filler {
      type: "xavier"
    }
    bias_filler {
      type: "constant"
      value: 0
    }
  }
}
layer {
  name: "conv8_2_mbox_conf_perm"
  type: "Permute"
  bottom: "conv8_2_mbox_conf"
  top: "conv8_2_mbox_conf_perm"
  permute_param {
    order: 0
    order: 2
    order: 3
    order: 1
  }
}
layer {
  name: "conv8_2_mbox_conf_flat"
  type: "Flatten"
  bottom: "conv8_2_mbox_conf_perm"
  top: "conv8_2_mbox_conf_flat"
  flatten_param {
    axis: 1
  }
}
layer {
  name: "conv8_2_mbox_priorbox"
  type: "PriorBox"
  bottom: "conv8_2"
  bottom: "data"
  top: "conv8_2_mbox_priorbox"
  prior_box_param {
    min_size: 213
    max_size: 264
    aspect_ratio: 2
    flip: true
    clip: false
    variance: 0.1
    variance: 0.1
    variance: 0.2
    variance: 0.2
    step: 100
    offset: 0.5
  }
}
layer {
  name: "conv9_2_mbox_loc"
  type: "Convolution"
  bottom: "conv9_2"
  top: "conv9_2_mbox_loc"
  param {
    lr_mult: 1
    decay_mult: 1
  }
  param {
    lr_mult: 2
    decay_mult: 0
  }
  convolution_param {
    num_output: 16
    pad: 1
    kernel_size: 3
    stride: 1
    weight_filler {
      type: "xavier"
    }
    bias_filler {
      type: "constant"
      value: 0
    }
  }
}
layer {
  name: "conv9_2_mbox_loc_perm"
  type: "Permute"
  bottom: "conv9_2_mbox_loc"
  top: "conv9_2_mbox_loc_perm"
  permute_param {
    order: 0
    order: 2
    order: 3
    order: 1
  }
}
layer {
  name: "conv9_2_mbox_loc_flat"
  type: "Flatten"
  bottom: "conv9_2_mbox_loc_perm"
  top: "conv9_2_mbox_loc_flat"
  flatten_param {
    axis: 1
  }
}
layer {
  name: "conv9_2_mbox_conf"
  type: "Convolution"
  bottom: "conv9_2"
  top: "conv9_2_mbox_conf"
  param {
    lr_mult: 1
    decay_mult: 1
  }
  param {
    lr_mult: 2
    decay_mult: 0
  }
  convolution_param {
    num_output: 44
    pad: 1
    kernel_size: 3
    stride: 1
    weight_filler {
      type: "xavier"
    }
    bias_filler {
      type: "constant"
      value: 0
    }
  }
}
layer {
  name: "conv9_2_mbox_conf_perm"
  type: "Permute"
  bottom: "conv9_2_mbox_conf"
  top: "conv9_2_mbox_conf_perm"
  permute_param {
    order: 0
    order: 2
    order: 3
    order: 1
  }
}
layer {
  name: "conv9_2_mbox_conf_flat"
  type: "Flatten"
  bottom: "conv9_2_mbox_conf_perm"
  top: "conv9_2_mbox_conf_flat"
  flatten_param {
    axis: 1
  }
}
layer {
  name: "conv9_2_mbox_priorbox"
  type: "PriorBox"
  bottom: "conv9_2"
  bottom: "data"
  top: "conv9_2_mbox_priorbox"
  prior_box_param {
    min_size: 264
    max_size: 315
    aspect_ratio: 2
    flip: true
    clip: false
    variance: 0.1
    variance: 0.1
    variance: 0.2
    variance: 0.2
    step: 300
    offset: 0.5
  }
}
layer {
  name: "mbox_loc"
  type: "Concat"
  bottom: "conv4_3_norm_mbox_loc_flat"
  bottom: "fc7_mbox_loc_flat"
  bottom: "conv6_2_mbox_loc_flat"
  bottom: "conv7_2_mbox_loc_flat"
  bottom: "conv8_2_mbox_loc_flat"
  bottom: "conv9_2_mbox_loc_flat"
  top: "mbox_loc"
  concat_param {
    axis: 1
  }
}
layer {
  name: "mbox_conf"
  type: "Concat"
  bottom: "conv4_3_norm_mbox_conf_flat"
  bottom: "fc7_mbox_conf_flat"
  bottom: "conv6_2_mbox_conf_flat"
  bottom: "conv7_2_mbox_conf_flat"
  bottom: "conv8_2_mbox_conf_flat"
  bottom: "conv9_2_mbox_conf_flat"
  top: "mbox_conf"
  concat_param {
    axis: 1
  }
}
layer {
  name: "mbox_priorbox"
  type: "Concat"
  bottom: "conv4_3_norm_mbox_priorbox"
  bottom: "fc7_mbox_priorbox"
  bottom: "conv6_2_mbox_priorbox"
  bottom: "conv7_2_mbox_priorbox"
  bottom: "conv8_2_mbox_priorbox"
  bottom: "conv9_2_mbox_priorbox"
  top: "mbox_priorbox"
  concat_param {
    axis: 2
  }
}
layer {
  name: "mbox_conf_reshape"
  type: "Reshape"
  bottom: "mbox_conf"
  top: "mbox_conf_reshape"
  reshape_param {
    shape {
      dim: 0
      dim: -1
      dim: 11
    }
  }
}
layer {
  name: "mbox_conf_softmax"
  type: "Softmax"
  bottom: "mbox_conf_reshape"
  top: "mbox_conf_softmax"
  softmax_param {
    axis: 2
  }
}
layer {
  name: "mbox_conf_flatten"
  type: "Flatten"
  bottom: "mbox_conf_softmax"
  top: "mbox_conf_flatten"
  flatten_param {
    axis: 1
  }
}
layer {
  name: "detection_out"
  type: "DetectionOutput"
  bottom: "mbox_loc"
  bottom: "mbox_conf_flatten"
  bottom: "mbox_priorbox"
  top: "detection_out"
  include {
    phase: TEST
  }
  detection_output_param {
    num_classes: 11
    share_location: true
    background_label_id: 0
    nms_param {
      nms_threshold: 0.45
      top_k: 400
    }
    save_output_param {
      output_directory: "/home/zs/data/VOCdevkit/results/VOC2007/SSD_300x300_0321_conv5/Main"
      output_name_prefix: "comp4_det_test_"
      output_format: "VOC"
      label_map_file: "data/NWPU_VHR/labelmap_NWPU_VHR.prototxt"
      name_size_file: "data/NWPU_VHR/test_name_size.txt"
      num_test_image: 123
    }
    code_type: CENTER_SIZE
    keep_top_k: 200
    confidence_threshold: 0.01
  }
}
layer {
  name: "detection_eval"
  type: "DetectionEvaluate"
  bottom: "detection_out"
  bottom: "label"
  top: "detection_eval"
  include {
    phase: TEST
  }
  detection_evaluate_param {
    num_classes: 11
    background_label_id: 0
    overlap_threshold: 0.5
    evaluate_difficult_gt: false
    name_size_file: "data/NWPU_VHR/test_name_size.txt"
  }
}
I0321 15:15:57.777262 32543 layer_factory.hpp:77] Creating layer data
I0321 15:15:57.777330 32543 net.cpp:100] Creating Layer data
I0321 15:15:57.777340 32543 net.cpp:408] data -> data
I0321 15:15:57.777354 32543 net.cpp:408] data -> label
I0321 15:15:57.779347 32560 db_lmdb.cpp:35] Opened lmdb examples/NWPU_VHR/NWPU_VHR_test_lmdb
I0321 15:15:57.788408 32543 annotated_data_layer.cpp:62] output data size: 1,3,300,300
I0321 15:15:57.792068 32543 net.cpp:150] Setting up data
I0321 15:15:57.792102 32543 net.cpp:157] Top shape: 1 3 300 300 (270000)
I0321 15:15:57.792109 32543 net.cpp:157] Top shape: 1 1 4 8 (32)
I0321 15:15:57.792114 32543 net.cpp:165] Memory required for data: 1080128
I0321 15:15:57.792121 32543 layer_factory.hpp:77] Creating layer data_data_0_split
I0321 15:15:57.792140 32543 net.cpp:100] Creating Layer data_data_0_split
I0321 15:15:57.792147 32543 net.cpp:434] data_data_0_split <- data
I0321 15:15:57.792157 32543 net.cpp:408] data_data_0_split -> data_data_0_split_0
I0321 15:15:57.792172 32543 net.cpp:408] data_data_0_split -> data_data_0_split_1
I0321 15:15:57.792182 32543 net.cpp:408] data_data_0_split -> data_data_0_split_2
I0321 15:15:57.792191 32543 net.cpp:408] data_data_0_split -> data_data_0_split_3
I0321 15:15:57.792199 32543 net.cpp:408] data_data_0_split -> data_data_0_split_4
I0321 15:15:57.792227 32543 net.cpp:408] data_data_0_split -> data_data_0_split_5
I0321 15:15:57.792237 32543 net.cpp:408] data_data_0_split -> data_data_0_split_6
I0321 15:15:57.792376 32543 net.cpp:150] Setting up data_data_0_split
I0321 15:15:57.792383 32543 net.cpp:157] Top shape: 1 3 300 300 (270000)
I0321 15:15:57.792388 32543 net.cpp:157] Top shape: 1 3 300 300 (270000)
I0321 15:15:57.792395 32543 net.cpp:157] Top shape: 1 3 300 300 (270000)
I0321 15:15:57.792402 32543 net.cpp:157] Top shape: 1 3 300 300 (270000)
I0321 15:15:57.792409 32543 net.cpp:157] Top shape: 1 3 300 300 (270000)
I0321 15:15:57.792415 32543 net.cpp:157] Top shape: 1 3 300 300 (270000)
I0321 15:15:57.792423 32543 net.cpp:157] Top shape: 1 3 300 300 (270000)
I0321 15:15:57.792428 32543 net.cpp:165] Memory required for data: 8640128
I0321 15:15:57.792434 32543 layer_factory.hpp:77] Creating layer conv1_1
I0321 15:15:57.792451 32543 net.cpp:100] Creating Layer conv1_1
I0321 15:15:57.792457 32543 net.cpp:434] conv1_1 <- data_data_0_split_0
I0321 15:15:57.792466 32543 net.cpp:408] conv1_1 -> conv1_1
I0321 15:15:57.794418 32543 net.cpp:150] Setting up conv1_1
I0321 15:15:57.794432 32543 net.cpp:157] Top shape: 1 64 300 300 (5760000)
I0321 15:15:57.794437 32543 net.cpp:165] Memory required for data: 31680128
I0321 15:15:57.794451 32543 layer_factory.hpp:77] Creating layer relu1_1
I0321 15:15:57.794461 32543 net.cpp:100] Creating Layer relu1_1
I0321 15:15:57.794468 32543 net.cpp:434] relu1_1 <- conv1_1
I0321 15:15:57.794476 32543 net.cpp:395] relu1_1 -> conv1_1 (in-place)
I0321 15:15:57.794641 32543 net.cpp:150] Setting up relu1_1
I0321 15:15:57.794651 32543 net.cpp:157] Top shape: 1 64 300 300 (5760000)
I0321 15:15:57.794656 32543 net.cpp:165] Memory required for data: 54720128
I0321 15:15:57.794661 32543 layer_factory.hpp:77] Creating layer conv1_2
I0321 15:15:57.794674 32543 net.cpp:100] Creating Layer conv1_2
I0321 15:15:57.794682 32543 net.cpp:434] conv1_2 <- conv1_1
I0321 15:15:57.794689 32543 net.cpp:408] conv1_2 -> conv1_2
I0321 15:15:57.796116 32543 net.cpp:150] Setting up conv1_2
I0321 15:15:57.796129 32543 net.cpp:157] Top shape: 1 64 300 300 (5760000)
I0321 15:15:57.796134 32543 net.cpp:165] Memory required for data: 77760128
I0321 15:15:57.796145 32543 layer_factory.hpp:77] Creating layer relu1_2
I0321 15:15:57.796155 32543 net.cpp:100] Creating Layer relu1_2
I0321 15:15:57.796162 32543 net.cpp:434] relu1_2 <- conv1_2
I0321 15:15:57.796169 32543 net.cpp:395] relu1_2 -> conv1_2 (in-place)
I0321 15:15:57.796324 32543 net.cpp:150] Setting up relu1_2
I0321 15:15:57.796335 32543 net.cpp:157] Top shape: 1 64 300 300 (5760000)
I0321 15:15:57.796339 32543 net.cpp:165] Memory required for data: 100800128
I0321 15:15:57.796344 32543 layer_factory.hpp:77] Creating layer pool1
I0321 15:15:57.796353 32543 net.cpp:100] Creating Layer pool1
I0321 15:15:57.796361 32543 net.cpp:434] pool1 <- conv1_2
I0321 15:15:57.796368 32543 net.cpp:408] pool1 -> pool1
I0321 15:15:57.796418 32543 net.cpp:150] Setting up pool1
I0321 15:15:57.796427 32543 net.cpp:157] Top shape: 1 64 150 150 (1440000)
I0321 15:15:57.796432 32543 net.cpp:165] Memory required for data: 106560128
I0321 15:15:57.796437 32543 layer_factory.hpp:77] Creating layer conv2_1
I0321 15:15:57.796448 32543 net.cpp:100] Creating Layer conv2_1
I0321 15:15:57.796454 32543 net.cpp:434] conv2_1 <- pool1
I0321 15:15:57.796463 32543 net.cpp:408] conv2_1 -> conv2_1
I0321 15:15:57.798513 32543 net.cpp:150] Setting up conv2_1
I0321 15:15:57.798527 32543 net.cpp:157] Top shape: 1 128 150 150 (2880000)
I0321 15:15:57.798532 32543 net.cpp:165] Memory required for data: 118080128
I0321 15:15:57.798544 32543 layer_factory.hpp:77] Creating layer relu2_1
I0321 15:15:57.798555 32543 net.cpp:100] Creating Layer relu2_1
I0321 15:15:57.798563 32543 net.cpp:434] relu2_1 <- conv2_1
I0321 15:15:57.798569 32543 net.cpp:395] relu2_1 -> conv2_1 (in-place)
I0321 15:15:57.799242 32543 net.cpp:150] Setting up relu2_1
I0321 15:15:57.799254 32543 net.cpp:157] Top shape: 1 128 150 150 (2880000)
I0321 15:15:57.799273 32543 net.cpp:165] Memory required for data: 129600128
I0321 15:15:57.799279 32543 layer_factory.hpp:77] Creating layer conv2_2
I0321 15:15:57.799293 32543 net.cpp:100] Creating Layer conv2_2
I0321 15:15:57.799300 32543 net.cpp:434] conv2_2 <- conv2_1
I0321 15:15:57.799309 32543 net.cpp:408] conv2_2 -> conv2_2
I0321 15:15:57.801666 32543 net.cpp:150] Setting up conv2_2
I0321 15:15:57.801678 32543 net.cpp:157] Top shape: 1 128 150 150 (2880000)
I0321 15:15:57.801683 32543 net.cpp:165] Memory required for data: 141120128
I0321 15:15:57.801692 32543 layer_factory.hpp:77] Creating layer relu2_2
I0321 15:15:57.801700 32543 net.cpp:100] Creating Layer relu2_2
I0321 15:15:57.801712 32543 net.cpp:434] relu2_2 <- conv2_2
I0321 15:15:57.801717 32543 net.cpp:395] relu2_2 -> conv2_2 (in-place)
I0321 15:15:57.801903 32543 net.cpp:150] Setting up relu2_2
I0321 15:15:57.801913 32543 net.cpp:157] Top shape: 1 128 150 150 (2880000)
I0321 15:15:57.801918 32543 net.cpp:165] Memory required for data: 152640128
I0321 15:15:57.801924 32543 layer_factory.hpp:77] Creating layer pool2
I0321 15:15:57.801932 32543 net.cpp:100] Creating Layer pool2
I0321 15:15:57.801939 32543 net.cpp:434] pool2 <- conv2_2
I0321 15:15:57.801949 32543 net.cpp:408] pool2 -> pool2
I0321 15:15:57.801998 32543 net.cpp:150] Setting up pool2
I0321 15:15:57.802007 32543 net.cpp:157] Top shape: 1 128 75 75 (720000)
I0321 15:15:57.802011 32543 net.cpp:165] Memory required for data: 155520128
I0321 15:15:57.802017 32543 layer_factory.hpp:77] Creating layer conv3_1
I0321 15:15:57.802028 32543 net.cpp:100] Creating Layer conv3_1
I0321 15:15:57.802036 32543 net.cpp:434] conv3_1 <- pool2
I0321 15:15:57.802042 32543 net.cpp:408] conv3_1 -> conv3_1
I0321 15:15:57.805781 32543 net.cpp:150] Setting up conv3_1
I0321 15:15:57.805796 32543 net.cpp:157] Top shape: 1 256 75 75 (1440000)
I0321 15:15:57.805800 32543 net.cpp:165] Memory required for data: 161280128
I0321 15:15:57.805814 32543 layer_factory.hpp:77] Creating layer relu3_1
I0321 15:15:57.805830 32543 net.cpp:100] Creating Layer relu3_1
I0321 15:15:57.805835 32543 net.cpp:434] relu3_1 <- conv3_1
I0321 15:15:57.805843 32543 net.cpp:395] relu3_1 -> conv3_1 (in-place)
I0321 15:15:57.806010 32543 net.cpp:150] Setting up relu3_1
I0321 15:15:57.806021 32543 net.cpp:157] Top shape: 1 256 75 75 (1440000)
I0321 15:15:57.806025 32543 net.cpp:165] Memory required for data: 167040128
I0321 15:15:57.806030 32543 layer_factory.hpp:77] Creating layer conv3_2
I0321 15:15:57.806042 32543 net.cpp:100] Creating Layer conv3_2
I0321 15:15:57.806049 32543 net.cpp:434] conv3_2 <- conv3_1
I0321 15:15:57.806057 32543 net.cpp:408] conv3_2 -> conv3_2
I0321 15:15:57.811055 32543 net.cpp:150] Setting up conv3_2
I0321 15:15:57.811071 32543 net.cpp:157] Top shape: 1 256 75 75 (1440000)
I0321 15:15:57.811077 32543 net.cpp:165] Memory required for data: 172800128
I0321 15:15:57.811086 32543 layer_factory.hpp:77] Creating layer relu3_2
I0321 15:15:57.811094 32543 net.cpp:100] Creating Layer relu3_2
I0321 15:15:57.811101 32543 net.cpp:434] relu3_2 <- conv3_2
I0321 15:15:57.811110 32543 net.cpp:395] relu3_2 -> conv3_2 (in-place)
I0321 15:15:57.811794 32543 net.cpp:150] Setting up relu3_2
I0321 15:15:57.811806 32543 net.cpp:157] Top shape: 1 256 75 75 (1440000)
I0321 15:15:57.811811 32543 net.cpp:165] Memory required for data: 178560128
I0321 15:15:57.811817 32543 layer_factory.hpp:77] Creating layer conv3_3
I0321 15:15:57.811832 32543 net.cpp:100] Creating Layer conv3_3
I0321 15:15:57.811839 32543 net.cpp:434] conv3_3 <- conv3_2
I0321 15:15:57.811848 32543 net.cpp:408] conv3_3 -> conv3_3
I0321 15:15:57.816926 32543 net.cpp:150] Setting up conv3_3
I0321 15:15:57.816941 32543 net.cpp:157] Top shape: 1 256 75 75 (1440000)
I0321 15:15:57.816946 32543 net.cpp:165] Memory required for data: 184320128
I0321 15:15:57.816956 32543 layer_factory.hpp:77] Creating layer relu3_3
I0321 15:15:57.816965 32543 net.cpp:100] Creating Layer relu3_3
I0321 15:15:57.816972 32543 net.cpp:434] relu3_3 <- conv3_3
I0321 15:15:57.816982 32543 net.cpp:395] relu3_3 -> conv3_3 (in-place)
I0321 15:15:57.817159 32543 net.cpp:150] Setting up relu3_3
I0321 15:15:57.817170 32543 net.cpp:157] Top shape: 1 256 75 75 (1440000)
I0321 15:15:57.817175 32543 net.cpp:165] Memory required for data: 190080128
I0321 15:15:57.817180 32543 layer_factory.hpp:77] Creating layer pool3
I0321 15:15:57.817190 32543 net.cpp:100] Creating Layer pool3
I0321 15:15:57.817198 32543 net.cpp:434] pool3 <- conv3_3
I0321 15:15:57.817205 32543 net.cpp:408] pool3 -> pool3
I0321 15:15:57.817256 32543 net.cpp:150] Setting up pool3
I0321 15:15:57.817265 32543 net.cpp:157] Top shape: 1 256 38 38 (369664)
I0321 15:15:57.817270 32543 net.cpp:165] Memory required for data: 191558784
I0321 15:15:57.817275 32543 layer_factory.hpp:77] Creating layer conv4_1
I0321 15:15:57.817286 32543 net.cpp:100] Creating Layer conv4_1
I0321 15:15:57.817293 32543 net.cpp:434] conv4_1 <- pool3
I0321 15:15:57.817303 32543 net.cpp:408] conv4_1 -> conv4_1
I0321 15:15:57.825440 32543 net.cpp:150] Setting up conv4_1
I0321 15:15:57.825462 32543 net.cpp:157] Top shape: 1 512 38 38 (739328)
I0321 15:15:57.825467 32543 net.cpp:165] Memory required for data: 194516096
I0321 15:15:57.825479 32543 layer_factory.hpp:77] Creating layer relu4_1
I0321 15:15:57.825489 32543 net.cpp:100] Creating Layer relu4_1
I0321 15:15:57.825495 32543 net.cpp:434] relu4_1 <- conv4_1
I0321 15:15:57.825506 32543 net.cpp:395] relu4_1 -> conv4_1 (in-place)
I0321 15:15:57.825681 32543 net.cpp:150] Setting up relu4_1
I0321 15:15:57.825692 32543 net.cpp:157] Top shape: 1 512 38 38 (739328)
I0321 15:15:57.825696 32543 net.cpp:165] Memory required for data: 197473408
I0321 15:15:57.825701 32543 layer_factory.hpp:77] Creating layer conv4_2
I0321 15:15:57.825716 32543 net.cpp:100] Creating Layer conv4_2
I0321 15:15:57.825722 32543 net.cpp:434] conv4_2 <- conv4_1
I0321 15:15:57.825752 32543 net.cpp:408] conv4_2 -> conv4_2
I0321 15:15:57.839534 32543 net.cpp:150] Setting up conv4_2
I0321 15:15:57.839561 32543 net.cpp:157] Top shape: 1 512 38 38 (739328)
I0321 15:15:57.839566 32543 net.cpp:165] Memory required for data: 200430720
I0321 15:15:57.839584 32543 layer_factory.hpp:77] Creating layer relu4_2
I0321 15:15:57.839596 32543 net.cpp:100] Creating Layer relu4_2
I0321 15:15:57.839604 32543 net.cpp:434] relu4_2 <- conv4_2
I0321 15:15:57.839615 32543 net.cpp:395] relu4_2 -> conv4_2 (in-place)
I0321 15:15:57.840324 32543 net.cpp:150] Setting up relu4_2
I0321 15:15:57.840337 32543 net.cpp:157] Top shape: 1 512 38 38 (739328)
I0321 15:15:57.840342 32543 net.cpp:165] Memory required for data: 203388032
I0321 15:15:57.840348 32543 layer_factory.hpp:77] Creating layer conv4_3
I0321 15:15:57.840361 32543 net.cpp:100] Creating Layer conv4_3
I0321 15:15:57.840368 32543 net.cpp:434] conv4_3 <- conv4_2
I0321 15:15:57.840378 32543 net.cpp:408] conv4_3 -> conv4_3
I0321 15:15:57.854087 32543 net.cpp:150] Setting up conv4_3
I0321 15:15:57.854112 32543 net.cpp:157] Top shape: 1 512 38 38 (739328)
I0321 15:15:57.854117 32543 net.cpp:165] Memory required for data: 206345344
I0321 15:15:57.854130 32543 layer_factory.hpp:77] Creating layer relu4_3
I0321 15:15:57.854140 32543 net.cpp:100] Creating Layer relu4_3
I0321 15:15:57.854147 32543 net.cpp:434] relu4_3 <- conv4_3
I0321 15:15:57.854156 32543 net.cpp:395] relu4_3 -> conv4_3 (in-place)
I0321 15:15:57.854328 32543 net.cpp:150] Setting up relu4_3
I0321 15:15:57.854338 32543 net.cpp:157] Top shape: 1 512 38 38 (739328)
I0321 15:15:57.854343 32543 net.cpp:165] Memory required for data: 209302656
I0321 15:15:57.854348 32543 layer_factory.hpp:77] Creating layer conv4_3_relu4_3_0_split
I0321 15:15:57.854357 32543 net.cpp:100] Creating Layer conv4_3_relu4_3_0_split
I0321 15:15:57.854364 32543 net.cpp:434] conv4_3_relu4_3_0_split <- conv4_3
I0321 15:15:57.854372 32543 net.cpp:408] conv4_3_relu4_3_0_split -> conv4_3_relu4_3_0_split_0
I0321 15:15:57.854382 32543 net.cpp:408] conv4_3_relu4_3_0_split -> conv4_3_relu4_3_0_split_1
I0321 15:15:57.854432 32543 net.cpp:150] Setting up conv4_3_relu4_3_0_split
I0321 15:15:57.854440 32543 net.cpp:157] Top shape: 1 512 38 38 (739328)
I0321 15:15:57.854462 32543 net.cpp:157] Top shape: 1 512 38 38 (739328)
I0321 15:15:57.854467 32543 net.cpp:165] Memory required for data: 215217280
I0321 15:15:57.854475 32543 layer_factory.hpp:77] Creating layer pool4
I0321 15:15:57.854482 32543 net.cpp:100] Creating Layer pool4
I0321 15:15:57.854490 32543 net.cpp:434] pool4 <- conv4_3_relu4_3_0_split_0
I0321 15:15:57.854496 32543 net.cpp:408] pool4 -> pool4
I0321 15:15:57.854542 32543 net.cpp:150] Setting up pool4
I0321 15:15:57.854550 32543 net.cpp:157] Top shape: 1 512 19 19 (184832)
I0321 15:15:57.854554 32543 net.cpp:165] Memory required for data: 215956608
I0321 15:15:57.854559 32543 layer_factory.hpp:77] Creating layer conv5_1_depthwise
I0321 15:15:57.854573 32543 net.cpp:100] Creating Layer conv5_1_depthwise
I0321 15:15:57.854579 32543 net.cpp:434] conv5_1_depthwise <- pool4
I0321 15:15:57.854588 32543 net.cpp:408] conv5_1_depthwise -> conv5_1_3x3
I0321 15:15:57.854852 32543 net.cpp:150] Setting up conv5_1_depthwise
I0321 15:15:57.854862 32543 net.cpp:157] Top shape: 1 512 19 19 (184832)
I0321 15:15:57.854867 32543 net.cpp:165] Memory required for data: 216695936
I0321 15:15:57.854876 32543 layer_factory.hpp:77] Creating layer conv5_1_3x3_relu
I0321 15:15:57.854882 32543 net.cpp:100] Creating Layer conv5_1_3x3_relu
I0321 15:15:57.854889 32543 net.cpp:434] conv5_1_3x3_relu <- conv5_1_3x3
I0321 15:15:57.854895 32543 net.cpp:395] conv5_1_3x3_relu -> conv5_1_3x3 (in-place)
I0321 15:15:57.855059 32543 net.cpp:150] Setting up conv5_1_3x3_relu
I0321 15:15:57.855069 32543 net.cpp:157] Top shape: 1 512 19 19 (184832)
I0321 15:15:57.855074 32543 net.cpp:165] Memory required for data: 217435264
I0321 15:15:57.855079 32543 layer_factory.hpp:77] Creating layer conv5_1_1x1
I0321 15:15:57.855093 32543 net.cpp:100] Creating Layer conv5_1_1x1
I0321 15:15:57.855100 32543 net.cpp:434] conv5_1_1x1 <- conv5_1_3x3
I0321 15:15:57.855109 32543 net.cpp:408] conv5_1_1x1 -> conv5_1
I0321 15:15:57.858242 32543 net.cpp:150] Setting up conv5_1_1x1
I0321 15:15:57.858258 32543 net.cpp:157] Top shape: 1 512 19 19 (184832)
I0321 15:15:57.858263 32543 net.cpp:165] Memory required for data: 218174592
I0321 15:15:57.858273 32543 layer_factory.hpp:77] Creating layer relu5_1
I0321 15:15:57.858284 32543 net.cpp:100] Creating Layer relu5_1
I0321 15:15:57.858292 32543 net.cpp:434] relu5_1 <- conv5_1
I0321 15:15:57.858300 32543 net.cpp:395] relu5_1 -> conv5_1 (in-place)
I0321 15:15:57.858472 32543 net.cpp:150] Setting up relu5_1
I0321 15:15:57.858482 32543 net.cpp:157] Top shape: 1 512 19 19 (184832)
I0321 15:15:57.858487 32543 net.cpp:165] Memory required for data: 218913920
I0321 15:15:57.858492 32543 layer_factory.hpp:77] Creating layer conv5_2_depthwise
I0321 15:15:57.858505 32543 net.cpp:100] Creating Layer conv5_2_depthwise
I0321 15:15:57.858510 32543 net.cpp:434] conv5_2_depthwise <- conv5_1
I0321 15:15:57.858520 32543 net.cpp:408] conv5_2_depthwise -> conv5_2_3x3
I0321 15:15:57.858793 32543 net.cpp:150] Setting up conv5_2_depthwise
I0321 15:15:57.858804 32543 net.cpp:157] Top shape: 1 512 19 19 (184832)
I0321 15:15:57.858808 32543 net.cpp:165] Memory required for data: 219653248
I0321 15:15:57.858816 32543 layer_factory.hpp:77] Creating layer conv5_2_3x3_relu
I0321 15:15:57.858832 32543 net.cpp:100] Creating Layer conv5_2_3x3_relu
I0321 15:15:57.858839 32543 net.cpp:434] conv5_2_3x3_relu <- conv5_2_3x3
I0321 15:15:57.858845 32543 net.cpp:395] conv5_2_3x3_relu -> conv5_2_3x3 (in-place)
I0321 15:15:57.859560 32543 net.cpp:150] Setting up conv5_2_3x3_relu
I0321 15:15:57.859572 32543 net.cpp:157] Top shape: 1 512 19 19 (184832)
I0321 15:15:57.859577 32543 net.cpp:165] Memory required for data: 220392576
I0321 15:15:57.859583 32543 layer_factory.hpp:77] Creating layer conv5_2_1x1
I0321 15:15:57.859598 32543 net.cpp:100] Creating Layer conv5_2_1x1
I0321 15:15:57.859606 32543 net.cpp:434] conv5_2_1x1 <- conv5_2_3x3
I0321 15:15:57.859614 32543 net.cpp:408] conv5_2_1x1 -> conv5_2
I0321 15:15:57.862009 32543 net.cpp:150] Setting up conv5_2_1x1
I0321 15:15:57.862021 32543 net.cpp:157] Top shape: 1 512 19 19 (184832)
I0321 15:15:57.862040 32543 net.cpp:165] Memory required for data: 221131904
I0321 15:15:57.862053 32543 layer_factory.hpp:77] Creating layer relu5_2
I0321 15:15:57.862062 32543 net.cpp:100] Creating Layer relu5_2
I0321 15:15:57.862068 32543 net.cpp:434] relu5_2 <- conv5_2
I0321 15:15:57.862076 32543 net.cpp:395] relu5_2 -> conv5_2 (in-place)
I0321 15:15:57.862251 32543 net.cpp:150] Setting up relu5_2
I0321 15:15:57.862260 32543 net.cpp:157] Top shape: 1 512 19 19 (184832)
I0321 15:15:57.862264 32543 net.cpp:165] Memory required for data: 221871232
I0321 15:15:57.862269 32543 layer_factory.hpp:77] Creating layer conv5_3_depthwise
I0321 15:15:57.862283 32543 net.cpp:100] Creating Layer conv5_3_depthwise
I0321 15:15:57.862289 32543 net.cpp:434] conv5_3_depthwise <- conv5_2
I0321 15:15:57.862298 32543 net.cpp:408] conv5_3_depthwise -> conv5_3_3x3
I0321 15:15:57.862565 32543 net.cpp:150] Setting up conv5_3_depthwise
I0321 15:15:57.862574 32543 net.cpp:157] Top shape: 1 512 19 19 (184832)
I0321 15:15:57.862579 32543 net.cpp:165] Memory required for data: 222610560
I0321 15:15:57.862587 32543 layer_factory.hpp:77] Creating layer conv5_3_3x3_relu
I0321 15:15:57.862596 32543 net.cpp:100] Creating Layer conv5_3_3x3_relu
I0321 15:15:57.862602 32543 net.cpp:434] conv5_3_3x3_relu <- conv5_3_3x3
I0321 15:15:57.862609 32543 net.cpp:395] conv5_3_3x3_relu -> conv5_3_3x3 (in-place)
I0321 15:15:57.862783 32543 net.cpp:150] Setting up conv5_3_3x3_relu
I0321 15:15:57.862792 32543 net.cpp:157] Top shape: 1 512 19 19 (184832)
I0321 15:15:57.862797 32543 net.cpp:165] Memory required for data: 223349888
I0321 15:15:57.862803 32543 layer_factory.hpp:77] Creating layer conv5_3_1x1
I0321 15:15:57.862816 32543 net.cpp:100] Creating Layer conv5_3_1x1
I0321 15:15:57.862823 32543 net.cpp:434] conv5_3_1x1 <- conv5_3_3x3
I0321 15:15:57.862834 32543 net.cpp:408] conv5_3_1x1 -> conv5_3
I0321 15:15:57.866521 32543 net.cpp:150] Setting up conv5_3_1x1
I0321 15:15:57.866536 32543 net.cpp:157] Top shape: 1 512 19 19 (184832)
I0321 15:15:57.866541 32543 net.cpp:165] Memory required for data: 224089216
I0321 15:15:57.866550 32543 layer_factory.hpp:77] Creating layer relu5_3
I0321 15:15:57.866560 32543 net.cpp:100] Creating Layer relu5_3
I0321 15:15:57.866567 32543 net.cpp:434] relu5_3 <- conv5_3
I0321 15:15:57.866575 32543 net.cpp:395] relu5_3 -> conv5_3 (in-place)
I0321 15:15:57.867291 32543 net.cpp:150] Setting up relu5_3
I0321 15:15:57.867305 32543 net.cpp:157] Top shape: 1 512 19 19 (184832)
I0321 15:15:57.867310 32543 net.cpp:165] Memory required for data: 224828544
I0321 15:15:57.867314 32543 layer_factory.hpp:77] Creating layer pool5
I0321 15:15:57.867328 32543 net.cpp:100] Creating Layer pool5
I0321 15:15:57.867336 32543 net.cpp:434] pool5 <- conv5_3
I0321 15:15:57.867343 32543 net.cpp:408] pool5 -> pool5
I0321 15:15:57.867398 32543 net.cpp:150] Setting up pool5
I0321 15:15:57.867408 32543 net.cpp:157] Top shape: 1 512 19 19 (184832)
I0321 15:15:57.867413 32543 net.cpp:165] Memory required for data: 225567872
I0321 15:15:57.867416 32543 layer_factory.hpp:77] Creating layer fc6_depthwise
I0321 15:15:57.867429 32543 net.cpp:100] Creating Layer fc6_depthwise
I0321 15:15:57.867436 32543 net.cpp:434] fc6_depthwise <- pool5
I0321 15:15:57.867446 32543 net.cpp:408] fc6_depthwise -> fc6_3x3
I0321 15:15:57.867717 32543 net.cpp:150] Setting up fc6_depthwise
I0321 15:15:57.867727 32543 net.cpp:157] Top shape: 1 512 19 19 (184832)
I0321 15:15:57.867733 32543 net.cpp:165] Memory required for data: 226307200
I0321 15:15:57.867748 32543 layer_factory.hpp:77] Creating layer fc6_3x3_relu
I0321 15:15:57.867756 32543 net.cpp:100] Creating Layer fc6_3x3_relu
I0321 15:15:57.867761 32543 net.cpp:434] fc6_3x3_relu <- fc6_3x3
I0321 15:15:57.867769 32543 net.cpp:395] fc6_3x3_relu -> fc6_3x3 (in-place)
I0321 15:15:57.867938 32543 net.cpp:150] Setting up fc6_3x3_relu
I0321 15:15:57.867949 32543 net.cpp:157] Top shape: 1 512 19 19 (184832)
I0321 15:15:57.867952 32543 net.cpp:165] Memory required for data: 227046528
I0321 15:15:57.867959 32543 layer_factory.hpp:77] Creating layer fc6_1x1
I0321 15:15:57.867982 32543 net.cpp:100] Creating Layer fc6_1x1
I0321 15:15:57.867990 32543 net.cpp:434] fc6_1x1 <- fc6_3x3
I0321 15:15:57.868000 32543 net.cpp:408] fc6_1x1 -> fc6
I0321 15:15:57.871161 32543 net.cpp:150] Setting up fc6_1x1
I0321 15:15:57.871176 32543 net.cpp:157] Top shape: 1 1024 19 19 (369664)
I0321 15:15:57.871181 32543 net.cpp:165] Memory required for data: 228525184
I0321 15:15:57.871188 32543 layer_factory.hpp:77] Creating layer relu6
I0321 15:15:57.871197 32543 net.cpp:100] Creating Layer relu6
I0321 15:15:57.871207 32543 net.cpp:434] relu6 <- fc6
I0321 15:15:57.871217 32543 net.cpp:395] relu6 -> fc6 (in-place)
I0321 15:15:57.871402 32543 net.cpp:150] Setting up relu6
I0321 15:15:57.871412 32543 net.cpp:157] Top shape: 1 1024 19 19 (369664)
I0321 15:15:57.871417 32543 net.cpp:165] Memory required for data: 230003840
I0321 15:15:57.871423 32543 layer_factory.hpp:77] Creating layer fc7
I0321 15:15:57.871434 32543 net.cpp:100] Creating Layer fc7
I0321 15:15:57.871441 32543 net.cpp:434] fc7 <- fc6
I0321 15:15:57.871451 32543 net.cpp:408] fc7 -> fc7
I0321 15:15:57.878448 32543 net.cpp:150] Setting up fc7
I0321 15:15:57.878468 32543 net.cpp:157] Top shape: 1 1024 19 19 (369664)
I0321 15:15:57.878473 32543 net.cpp:165] Memory required for data: 231482496
I0321 15:15:57.878484 32543 layer_factory.hpp:77] Creating layer relu7
I0321 15:15:57.878495 32543 net.cpp:100] Creating Layer relu7
I0321 15:15:57.878504 32543 net.cpp:434] relu7 <- fc7
I0321 15:15:57.878516 32543 net.cpp:395] relu7 -> fc7 (in-place)
I0321 15:15:57.879245 32543 net.cpp:150] Setting up relu7
I0321 15:15:57.879258 32543 net.cpp:157] Top shape: 1 1024 19 19 (369664)
I0321 15:15:57.879262 32543 net.cpp:165] Memory required for data: 232961152
I0321 15:15:57.879269 32543 layer_factory.hpp:77] Creating layer fc7_relu7_0_split
I0321 15:15:57.879278 32543 net.cpp:100] Creating Layer fc7_relu7_0_split
I0321 15:15:57.879283 32543 net.cpp:434] fc7_relu7_0_split <- fc7
I0321 15:15:57.879294 32543 net.cpp:408] fc7_relu7_0_split -> fc7_relu7_0_split_0
I0321 15:15:57.879307 32543 net.cpp:408] fc7_relu7_0_split -> fc7_relu7_0_split_1
I0321 15:15:57.879317 32543 net.cpp:408] fc7_relu7_0_split -> fc7_relu7_0_split_2
I0321 15:15:57.879325 32543 net.cpp:408] fc7_relu7_0_split -> fc7_relu7_0_split_3
I0321 15:15:57.879405 32543 net.cpp:150] Setting up fc7_relu7_0_split
I0321 15:15:57.879413 32543 net.cpp:157] Top shape: 1 1024 19 19 (369664)
I0321 15:15:57.879418 32543 net.cpp:157] Top shape: 1 1024 19 19 (369664)
I0321 15:15:57.879425 32543 net.cpp:157] Top shape: 1 1024 19 19 (369664)
I0321 15:15:57.879431 32543 net.cpp:157] Top shape: 1 1024 19 19 (369664)
I0321 15:15:57.879436 32543 net.cpp:165] Memory required for data: 238875776
I0321 15:15:57.879443 32543 layer_factory.hpp:77] Creating layer conv6_1
I0321 15:15:57.879457 32543 net.cpp:100] Creating Layer conv6_1
I0321 15:15:57.879463 32543 net.cpp:434] conv6_1 <- fc7_relu7_0_split_0
I0321 15:15:57.879474 32543 net.cpp:408] conv6_1 -> conv6_1
I0321 15:15:57.881922 32543 net.cpp:150] Setting up conv6_1
I0321 15:15:57.881934 32543 net.cpp:157] Top shape: 1 256 19 19 (92416)
I0321 15:15:57.881939 32543 net.cpp:165] Memory required for data: 239245440
I0321 15:15:57.881949 32543 layer_factory.hpp:77] Creating layer conv6_1_relu
I0321 15:15:57.881958 32543 net.cpp:100] Creating Layer conv6_1_relu
I0321 15:15:57.881965 32543 net.cpp:434] conv6_1_relu <- conv6_1
I0321 15:15:57.881974 32543 net.cpp:395] conv6_1_relu -> conv6_1 (in-place)
I0321 15:15:57.882148 32543 net.cpp:150] Setting up conv6_1_relu
I0321 15:15:57.882160 32543 net.cpp:157] Top shape: 1 256 19 19 (92416)
I0321 15:15:57.882165 32543 net.cpp:165] Memory required for data: 239615104
I0321 15:15:57.882170 32543 layer_factory.hpp:77] Creating layer conv6_2
I0321 15:15:57.882185 32543 net.cpp:100] Creating Layer conv6_2
I0321 15:15:57.882192 32543 net.cpp:434] conv6_2 <- conv6_1
I0321 15:15:57.882201 32543 net.cpp:408] conv6_2 -> conv6_2
I0321 15:15:57.890398 32543 net.cpp:150] Setting up conv6_2
I0321 15:15:57.890436 32543 net.cpp:157] Top shape: 1 512 10 10 (51200)
I0321 15:15:57.890441 32543 net.cpp:165] Memory required for data: 239819904
I0321 15:15:57.890452 32543 layer_factory.hpp:77] Creating layer conv6_2_relu
I0321 15:15:57.890461 32543 net.cpp:100] Creating Layer conv6_2_relu
I0321 15:15:57.890470 32543 net.cpp:434] conv6_2_relu <- conv6_2
I0321 15:15:57.890480 32543 net.cpp:395] conv6_2_relu -> conv6_2 (in-place)
I0321 15:15:57.890666 32543 net.cpp:150] Setting up conv6_2_relu
I0321 15:15:57.890677 32543 net.cpp:157] Top shape: 1 512 10 10 (51200)
I0321 15:15:57.890682 32543 net.cpp:165] Memory required for data: 240024704
I0321 15:15:57.890687 32543 layer_factory.hpp:77] Creating layer conv6_2_conv6_2_relu_0_split
I0321 15:15:57.890697 32543 net.cpp:100] Creating Layer conv6_2_conv6_2_relu_0_split
I0321 15:15:57.890703 32543 net.cpp:434] conv6_2_conv6_2_relu_0_split <- conv6_2
I0321 15:15:57.890713 32543 net.cpp:408] conv6_2_conv6_2_relu_0_split -> conv6_2_conv6_2_relu_0_split_0
I0321 15:15:57.890724 32543 net.cpp:408] conv6_2_conv6_2_relu_0_split -> conv6_2_conv6_2_relu_0_split_1
I0321 15:15:57.890733 32543 net.cpp:408] conv6_2_conv6_2_relu_0_split -> conv6_2_conv6_2_relu_0_split_2
I0321 15:15:57.890743 32543 net.cpp:408] conv6_2_conv6_2_relu_0_split -> conv6_2_conv6_2_relu_0_split_3
I0321 15:15:57.890827 32543 net.cpp:150] Setting up conv6_2_conv6_2_relu_0_split
I0321 15:15:57.890836 32543 net.cpp:157] Top shape: 1 512 10 10 (51200)
I0321 15:15:57.890841 32543 net.cpp:157] Top shape: 1 512 10 10 (51200)
I0321 15:15:57.890847 32543 net.cpp:157] Top shape: 1 512 10 10 (51200)
I0321 15:15:57.890856 32543 net.cpp:157] Top shape: 1 512 10 10 (51200)
I0321 15:15:57.890861 32543 net.cpp:165] Memory required for data: 240843904
I0321 15:15:57.890866 32543 layer_factory.hpp:77] Creating layer conv7_1
I0321 15:15:57.890882 32543 net.cpp:100] Creating Layer conv7_1
I0321 15:15:57.890888 32543 net.cpp:434] conv7_1 <- conv6_2_conv6_2_relu_0_split_0
I0321 15:15:57.890897 32543 net.cpp:408] conv7_1 -> conv7_1
I0321 15:15:57.892531 32543 net.cpp:150] Setting up conv7_1
I0321 15:15:57.892546 32543 net.cpp:157] Top shape: 1 128 10 10 (12800)
I0321 15:15:57.892552 32543 net.cpp:165] Memory required for data: 240895104
I0321 15:15:57.892561 32543 layer_factory.hpp:77] Creating layer conv7_1_relu
I0321 15:15:57.892570 32543 net.cpp:100] Creating Layer conv7_1_relu
I0321 15:15:57.892578 32543 net.cpp:434] conv7_1_relu <- conv7_1
I0321 15:15:57.892587 32543 net.cpp:395] conv7_1_relu -> conv7_1 (in-place)
I0321 15:15:57.892758 32543 net.cpp:150] Setting up conv7_1_relu
I0321 15:15:57.892768 32543 net.cpp:157] Top shape: 1 128 10 10 (12800)
I0321 15:15:57.892772 32543 net.cpp:165] Memory required for data: 240946304
I0321 15:15:57.892779 32543 layer_factory.hpp:77] Creating layer conv7_2
I0321 15:15:57.892792 32543 net.cpp:100] Creating Layer conv7_2
I0321 15:15:57.892798 32543 net.cpp:434] conv7_2 <- conv7_1
I0321 15:15:57.892809 32543 net.cpp:408] conv7_2 -> conv7_2
I0321 15:15:57.896234 32543 net.cpp:150] Setting up conv7_2
I0321 15:15:57.896250 32543 net.cpp:157] Top shape: 1 256 5 5 (6400)
I0321 15:15:57.896255 32543 net.cpp:165] Memory required for data: 240971904
I0321 15:15:57.896262 32543 layer_factory.hpp:77] Creating layer conv7_2_relu
I0321 15:15:57.896275 32543 net.cpp:100] Creating Layer conv7_2_relu
I0321 15:15:57.896282 32543 net.cpp:434] conv7_2_relu <- conv7_2
I0321 15:15:57.896291 32543 net.cpp:395] conv7_2_relu -> conv7_2 (in-place)
I0321 15:15:57.897018 32543 net.cpp:150] Setting up conv7_2_relu
I0321 15:15:57.897032 32543 net.cpp:157] Top shape: 1 256 5 5 (6400)
I0321 15:15:57.897037 32543 net.cpp:165] Memory required for data: 240997504
I0321 15:15:57.897042 32543 layer_factory.hpp:77] Creating layer conv7_2_conv7_2_relu_0_split
I0321 15:15:57.897050 32543 net.cpp:100] Creating Layer conv7_2_conv7_2_relu_0_split
I0321 15:15:57.897059 32543 net.cpp:434] conv7_2_conv7_2_relu_0_split <- conv7_2
I0321 15:15:57.897069 32543 net.cpp:408] conv7_2_conv7_2_relu_0_split -> conv7_2_conv7_2_relu_0_split_0
I0321 15:15:57.897092 32543 net.cpp:408] conv7_2_conv7_2_relu_0_split -> conv7_2_conv7_2_relu_0_split_1
I0321 15:15:57.897104 32543 net.cpp:408] conv7_2_conv7_2_relu_0_split -> conv7_2_conv7_2_relu_0_split_2
I0321 15:15:57.897114 32543 net.cpp:408] conv7_2_conv7_2_relu_0_split -> conv7_2_conv7_2_relu_0_split_3
I0321 15:15:57.897203 32543 net.cpp:150] Setting up conv7_2_conv7_2_relu_0_split
I0321 15:15:57.897212 32543 net.cpp:157] Top shape: 1 256 5 5 (6400)
I0321 15:15:57.897218 32543 net.cpp:157] Top shape: 1 256 5 5 (6400)
I0321 15:15:57.897224 32543 net.cpp:157] Top shape: 1 256 5 5 (6400)
I0321 15:15:57.897230 32543 net.cpp:157] Top shape: 1 256 5 5 (6400)
I0321 15:15:57.897236 32543 net.cpp:165] Memory required for data: 241099904
I0321 15:15:57.897241 32543 layer_factory.hpp:77] Creating layer conv8_1
I0321 15:15:57.897256 32543 net.cpp:100] Creating Layer conv8_1
I0321 15:15:57.897262 32543 net.cpp:434] conv8_1 <- conv7_2_conv7_2_relu_0_split_0
I0321 15:15:57.897272 32543 net.cpp:408] conv8_1 -> conv8_1
I0321 15:15:57.898819 32543 net.cpp:150] Setting up conv8_1
I0321 15:15:57.898833 32543 net.cpp:157] Top shape: 1 128 5 5 (3200)
I0321 15:15:57.898838 32543 net.cpp:165] Memory required for data: 241112704
I0321 15:15:57.898847 32543 layer_factory.hpp:77] Creating layer conv8_1_relu
I0321 15:15:57.898856 32543 net.cpp:100] Creating Layer conv8_1_relu
I0321 15:15:57.898864 32543 net.cpp:434] conv8_1_relu <- conv8_1
I0321 15:15:57.898870 32543 net.cpp:395] conv8_1_relu -> conv8_1 (in-place)
I0321 15:15:57.899039 32543 net.cpp:150] Setting up conv8_1_relu
I0321 15:15:57.899049 32543 net.cpp:157] Top shape: 1 128 5 5 (3200)
I0321 15:15:57.899055 32543 net.cpp:165] Memory required for data: 241125504
I0321 15:15:57.899060 32543 layer_factory.hpp:77] Creating layer conv8_2
I0321 15:15:57.899073 32543 net.cpp:100] Creating Layer conv8_2
I0321 15:15:57.899080 32543 net.cpp:434] conv8_2 <- conv8_1
I0321 15:15:57.899091 32543 net.cpp:408] conv8_2 -> conv8_2
I0321 15:15:57.902989 32543 net.cpp:150] Setting up conv8_2
I0321 15:15:57.903004 32543 net.cpp:157] Top shape: 1 256 3 3 (2304)
I0321 15:15:57.903009 32543 net.cpp:165] Memory required for data: 241134720
I0321 15:15:57.903019 32543 layer_factory.hpp:77] Creating layer conv8_2_relu
I0321 15:15:57.903028 32543 net.cpp:100] Creating Layer conv8_2_relu
I0321 15:15:57.903038 32543 net.cpp:434] conv8_2_relu <- conv8_2
I0321 15:15:57.903046 32543 net.cpp:395] conv8_2_relu -> conv8_2 (in-place)
I0321 15:15:57.903228 32543 net.cpp:150] Setting up conv8_2_relu
I0321 15:15:57.903239 32543 net.cpp:157] Top shape: 1 256 3 3 (2304)
I0321 15:15:57.903242 32543 net.cpp:165] Memory required for data: 241143936
I0321 15:15:57.903247 32543 layer_factory.hpp:77] Creating layer conv8_2_conv8_2_relu_0_split
I0321 15:15:57.903256 32543 net.cpp:100] Creating Layer conv8_2_conv8_2_relu_0_split
I0321 15:15:57.903264 32543 net.cpp:434] conv8_2_conv8_2_relu_0_split <- conv8_2
I0321 15:15:57.903272 32543 net.cpp:408] conv8_2_conv8_2_relu_0_split -> conv8_2_conv8_2_relu_0_split_0
I0321 15:15:57.903283 32543 net.cpp:408] conv8_2_conv8_2_relu_0_split -> conv8_2_conv8_2_relu_0_split_1
I0321 15:15:57.903295 32543 net.cpp:408] conv8_2_conv8_2_relu_0_split -> conv8_2_conv8_2_relu_0_split_2
I0321 15:15:57.903303 32543 net.cpp:408] conv8_2_conv8_2_relu_0_split -> conv8_2_conv8_2_relu_0_split_3
I0321 15:15:57.903384 32543 net.cpp:150] Setting up conv8_2_conv8_2_relu_0_split
I0321 15:15:57.903393 32543 net.cpp:157] Top shape: 1 256 3 3 (2304)
I0321 15:15:57.903398 32543 net.cpp:157] Top shape: 1 256 3 3 (2304)
I0321 15:15:57.903404 32543 net.cpp:157] Top shape: 1 256 3 3 (2304)
I0321 15:15:57.903410 32543 net.cpp:157] Top shape: 1 256 3 3 (2304)
I0321 15:15:57.903415 32543 net.cpp:165] Memory required for data: 241180800
I0321 15:15:57.903421 32543 layer_factory.hpp:77] Creating layer conv9_1
I0321 15:15:57.903435 32543 net.cpp:100] Creating Layer conv9_1
I0321 15:15:57.903442 32543 net.cpp:434] conv9_1 <- conv8_2_conv8_2_relu_0_split_0
I0321 15:15:57.903450 32543 net.cpp:408] conv9_1 -> conv9_1
I0321 15:15:57.905843 32543 net.cpp:150] Setting up conv9_1
I0321 15:15:57.905869 32543 net.cpp:157] Top shape: 1 128 3 3 (1152)
I0321 15:15:57.905875 32543 net.cpp:165] Memory required for data: 241185408
I0321 15:15:57.905885 32543 layer_factory.hpp:77] Creating layer conv9_1_relu
I0321 15:15:57.905899 32543 net.cpp:100] Creating Layer conv9_1_relu
I0321 15:15:57.905906 32543 net.cpp:434] conv9_1_relu <- conv9_1
I0321 15:15:57.905913 32543 net.cpp:395] conv9_1_relu -> conv9_1 (in-place)
I0321 15:15:57.906652 32543 net.cpp:150] Setting up conv9_1_relu
I0321 15:15:57.906666 32543 net.cpp:157] Top shape: 1 128 3 3 (1152)
I0321 15:15:57.906671 32543 net.cpp:165] Memory required for data: 241190016
I0321 15:15:57.906675 32543 layer_factory.hpp:77] Creating layer conv9_2
I0321 15:15:57.906699 32543 net.cpp:100] Creating Layer conv9_2
I0321 15:15:57.906707 32543 net.cpp:434] conv9_2 <- conv9_1
I0321 15:15:57.906715 32543 net.cpp:408] conv9_2 -> conv9_2
I0321 15:15:57.910605 32543 net.cpp:150] Setting up conv9_2
I0321 15:15:57.910620 32543 net.cpp:157] Top shape: 1 256 1 1 (256)
I0321 15:15:57.910625 32543 net.cpp:165] Memory required for data: 241191040
I0321 15:15:57.910635 32543 layer_factory.hpp:77] Creating layer conv9_2_relu
I0321 15:15:57.910643 32543 net.cpp:100] Creating Layer conv9_2_relu
I0321 15:15:57.910653 32543 net.cpp:434] conv9_2_relu <- conv9_2
I0321 15:15:57.910665 32543 net.cpp:395] conv9_2_relu -> conv9_2 (in-place)
I0321 15:15:57.910847 32543 net.cpp:150] Setting up conv9_2_relu
I0321 15:15:57.910856 32543 net.cpp:157] Top shape: 1 256 1 1 (256)
I0321 15:15:57.910861 32543 net.cpp:165] Memory required for data: 241192064
I0321 15:15:57.910866 32543 layer_factory.hpp:77] Creating layer conv9_2_conv9_2_relu_0_split
I0321 15:15:57.910874 32543 net.cpp:100] Creating Layer conv9_2_conv9_2_relu_0_split
I0321 15:15:57.910881 32543 net.cpp:434] conv9_2_conv9_2_relu_0_split <- conv9_2
I0321 15:15:57.910892 32543 net.cpp:408] conv9_2_conv9_2_relu_0_split -> conv9_2_conv9_2_relu_0_split_0
I0321 15:15:57.910902 32543 net.cpp:408] conv9_2_conv9_2_relu_0_split -> conv9_2_conv9_2_relu_0_split_1
I0321 15:15:57.910912 32543 net.cpp:408] conv9_2_conv9_2_relu_0_split -> conv9_2_conv9_2_relu_0_split_2
I0321 15:15:57.910982 32543 net.cpp:150] Setting up conv9_2_conv9_2_relu_0_split
I0321 15:15:57.910990 32543 net.cpp:157] Top shape: 1 256 1 1 (256)
I0321 15:15:57.910996 32543 net.cpp:157] Top shape: 1 256 1 1 (256)
I0321 15:15:57.911001 32543 net.cpp:157] Top shape: 1 256 1 1 (256)
I0321 15:15:57.911006 32543 net.cpp:165] Memory required for data: 241195136
I0321 15:15:57.911011 32543 layer_factory.hpp:77] Creating layer conv4_3_norm
I0321 15:15:57.911023 32543 net.cpp:100] Creating Layer conv4_3_norm
I0321 15:15:57.911031 32543 net.cpp:434] conv4_3_norm <- conv4_3_relu4_3_0_split_1
I0321 15:15:57.911042 32543 net.cpp:408] conv4_3_norm -> conv4_3_norm
I0321 15:15:57.911224 32543 net.cpp:150] Setting up conv4_3_norm
I0321 15:15:57.911233 32543 net.cpp:157] Top shape: 1 512 38 38 (739328)
I0321 15:15:57.911238 32543 net.cpp:165] Memory required for data: 244152448
I0321 15:15:57.911245 32543 layer_factory.hpp:77] Creating layer conv4_3_norm_conv4_3_norm_0_split
I0321 15:15:57.911257 32543 net.cpp:100] Creating Layer conv4_3_norm_conv4_3_norm_0_split
I0321 15:15:57.911264 32543 net.cpp:434] conv4_3_norm_conv4_3_norm_0_split <- conv4_3_norm
I0321 15:15:57.911271 32543 net.cpp:408] conv4_3_norm_conv4_3_norm_0_split -> conv4_3_norm_conv4_3_norm_0_split_0
I0321 15:15:57.911279 32543 net.cpp:408] conv4_3_norm_conv4_3_norm_0_split -> conv4_3_norm_conv4_3_norm_0_split_1
I0321 15:15:57.911300 32543 net.cpp:408] conv4_3_norm_conv4_3_norm_0_split -> conv4_3_norm_conv4_3_norm_0_split_2
I0321 15:15:57.911360 32543 net.cpp:150] Setting up conv4_3_norm_conv4_3_norm_0_split
I0321 15:15:57.911367 32543 net.cpp:157] Top shape: 1 512 38 38 (739328)
I0321 15:15:57.911373 32543 net.cpp:157] Top shape: 1 512 38 38 (739328)
I0321 15:15:57.911381 32543 net.cpp:157] Top shape: 1 512 38 38 (739328)
I0321 15:15:57.911386 32543 net.cpp:165] Memory required for data: 253024384
I0321 15:15:57.911401 32543 layer_factory.hpp:77] Creating layer conv4_3_norm_mbox_loc
I0321 15:15:57.911417 32543 net.cpp:100] Creating Layer conv4_3_norm_mbox_loc
I0321 15:15:57.911422 32543 net.cpp:434] conv4_3_norm_mbox_loc <- conv4_3_norm_conv4_3_norm_0_split_0
I0321 15:15:57.911433 32543 net.cpp:408] conv4_3_norm_mbox_loc -> conv4_3_norm_mbox_loc
I0321 15:15:57.913641 32543 net.cpp:150] Setting up conv4_3_norm_mbox_loc
I0321 15:15:57.913655 32543 net.cpp:157] Top shape: 1 16 38 38 (23104)
I0321 15:15:57.913659 32543 net.cpp:165] Memory required for data: 253116800
I0321 15:15:57.913668 32543 layer_factory.hpp:77] Creating layer conv4_3_norm_mbox_loc_perm
I0321 15:15:57.913684 32543 net.cpp:100] Creating Layer conv4_3_norm_mbox_loc_perm
I0321 15:15:57.913691 32543 net.cpp:434] conv4_3_norm_mbox_loc_perm <- conv4_3_norm_mbox_loc
I0321 15:15:57.913698 32543 net.cpp:408] conv4_3_norm_mbox_loc_perm -> conv4_3_norm_mbox_loc_perm
I0321 15:15:57.913832 32543 net.cpp:150] Setting up conv4_3_norm_mbox_loc_perm
I0321 15:15:57.913842 32543 net.cpp:157] Top shape: 1 38 38 16 (23104)
I0321 15:15:57.913846 32543 net.cpp:165] Memory required for data: 253209216
I0321 15:15:57.913851 32543 layer_factory.hpp:77] Creating layer conv4_3_norm_mbox_loc_flat
I0321 15:15:57.913862 32543 net.cpp:100] Creating Layer conv4_3_norm_mbox_loc_flat
I0321 15:15:57.913868 32543 net.cpp:434] conv4_3_norm_mbox_loc_flat <- conv4_3_norm_mbox_loc_perm
I0321 15:15:57.913875 32543 net.cpp:408] conv4_3_norm_mbox_loc_flat -> conv4_3_norm_mbox_loc_flat
I0321 15:15:57.913910 32543 net.cpp:150] Setting up conv4_3_norm_mbox_loc_flat
I0321 15:15:57.913918 32543 net.cpp:157] Top shape: 1 23104 (23104)
I0321 15:15:57.913923 32543 net.cpp:165] Memory required for data: 253301632
I0321 15:15:57.913928 32543 layer_factory.hpp:77] Creating layer conv4_3_norm_mbox_conf
I0321 15:15:57.913940 32543 net.cpp:100] Creating Layer conv4_3_norm_mbox_conf
I0321 15:15:57.913944 32543 net.cpp:434] conv4_3_norm_mbox_conf <- conv4_3_norm_conv4_3_norm_0_split_1
I0321 15:15:57.913952 32543 net.cpp:408] conv4_3_norm_mbox_conf -> conv4_3_norm_mbox_conf
I0321 15:15:57.916729 32543 net.cpp:150] Setting up conv4_3_norm_mbox_conf
I0321 15:15:57.916743 32543 net.cpp:157] Top shape: 1 44 38 38 (63536)
I0321 15:15:57.916746 32543 net.cpp:165] Memory required for data: 253555776
I0321 15:15:57.916754 32543 layer_factory.hpp:77] Creating layer conv4_3_norm_mbox_conf_perm
I0321 15:15:57.916760 32543 net.cpp:100] Creating Layer conv4_3_norm_mbox_conf_perm
I0321 15:15:57.916765 32543 net.cpp:434] conv4_3_norm_mbox_conf_perm <- conv4_3_norm_mbox_conf
I0321 15:15:57.916771 32543 net.cpp:408] conv4_3_norm_mbox_conf_perm -> conv4_3_norm_mbox_conf_perm
I0321 15:15:57.916887 32543 net.cpp:150] Setting up conv4_3_norm_mbox_conf_perm
I0321 15:15:57.916894 32543 net.cpp:157] Top shape: 1 38 38 44 (63536)
I0321 15:15:57.916898 32543 net.cpp:165] Memory required for data: 253809920
I0321 15:15:57.916901 32543 layer_factory.hpp:77] Creating layer conv4_3_norm_mbox_conf_flat
I0321 15:15:57.916909 32543 net.cpp:100] Creating Layer conv4_3_norm_mbox_conf_flat
I0321 15:15:57.916913 32543 net.cpp:434] conv4_3_norm_mbox_conf_flat <- conv4_3_norm_mbox_conf_perm
I0321 15:15:57.916918 32543 net.cpp:408] conv4_3_norm_mbox_conf_flat -> conv4_3_norm_mbox_conf_flat
I0321 15:15:57.916946 32543 net.cpp:150] Setting up conv4_3_norm_mbox_conf_flat
I0321 15:15:57.916952 32543 net.cpp:157] Top shape: 1 63536 (63536)
I0321 15:15:57.916955 32543 net.cpp:165] Memory required for data: 254064064
I0321 15:15:57.916959 32543 layer_factory.hpp:77] Creating layer conv4_3_norm_mbox_priorbox
I0321 15:15:57.916970 32543 net.cpp:100] Creating Layer conv4_3_norm_mbox_priorbox
I0321 15:15:57.916973 32543 net.cpp:434] conv4_3_norm_mbox_priorbox <- conv4_3_norm_conv4_3_norm_0_split_2
I0321 15:15:57.916978 32543 net.cpp:434] conv4_3_norm_mbox_priorbox <- data_data_0_split_1
I0321 15:15:57.916985 32543 net.cpp:408] conv4_3_norm_mbox_priorbox -> conv4_3_norm_mbox_priorbox
I0321 15:15:57.917016 32543 net.cpp:150] Setting up conv4_3_norm_mbox_priorbox
I0321 15:15:57.917032 32543 net.cpp:157] Top shape: 1 2 23104 (46208)
I0321 15:15:57.917035 32543 net.cpp:165] Memory required for data: 254248896
I0321 15:15:57.917038 32543 layer_factory.hpp:77] Creating layer fc7_mbox_loc
I0321 15:15:57.917049 32543 net.cpp:100] Creating Layer fc7_mbox_loc
I0321 15:15:57.917054 32543 net.cpp:434] fc7_mbox_loc <- fc7_relu7_0_split_1
I0321 15:15:57.917059 32543 net.cpp:408] fc7_mbox_loc -> fc7_mbox_loc
I0321 15:15:57.919909 32543 net.cpp:150] Setting up fc7_mbox_loc
I0321 15:15:57.919920 32543 net.cpp:157] Top shape: 1 24 19 19 (8664)
I0321 15:15:57.919924 32543 net.cpp:165] Memory required for data: 254283552
I0321 15:15:57.919930 32543 layer_factory.hpp:77] Creating layer fc7_mbox_loc_perm
I0321 15:15:57.919936 32543 net.cpp:100] Creating Layer fc7_mbox_loc_perm
I0321 15:15:57.919941 32543 net.cpp:434] fc7_mbox_loc_perm <- fc7_mbox_loc
I0321 15:15:57.919948 32543 net.cpp:408] fc7_mbox_loc_perm -> fc7_mbox_loc_perm
I0321 15:15:57.920063 32543 net.cpp:150] Setting up fc7_mbox_loc_perm
I0321 15:15:57.920069 32543 net.cpp:157] Top shape: 1 19 19 24 (8664)
I0321 15:15:57.920073 32543 net.cpp:165] Memory required for data: 254318208
I0321 15:15:57.920078 32543 layer_factory.hpp:77] Creating layer fc7_mbox_loc_flat
I0321 15:15:57.920083 32543 net.cpp:100] Creating Layer fc7_mbox_loc_flat
I0321 15:15:57.920086 32543 net.cpp:434] fc7_mbox_loc_flat <- fc7_mbox_loc_perm
I0321 15:15:57.920094 32543 net.cpp:408] fc7_mbox_loc_flat -> fc7_mbox_loc_flat
I0321 15:15:57.920120 32543 net.cpp:150] Setting up fc7_mbox_loc_flat
I0321 15:15:57.920125 32543 net.cpp:157] Top shape: 1 8664 (8664)
I0321 15:15:57.920128 32543 net.cpp:165] Memory required for data: 254352864
I0321 15:15:57.920131 32543 layer_factory.hpp:77] Creating layer fc7_mbox_conf
I0321 15:15:57.920140 32543 net.cpp:100] Creating Layer fc7_mbox_conf
I0321 15:15:57.920145 32543 net.cpp:434] fc7_mbox_conf <- fc7_relu7_0_split_2
I0321 15:15:57.920151 32543 net.cpp:408] fc7_mbox_conf -> fc7_mbox_conf
I0321 15:15:57.925423 32543 net.cpp:150] Setting up fc7_mbox_conf
I0321 15:15:57.925436 32543 net.cpp:157] Top shape: 1 66 19 19 (23826)
I0321 15:15:57.925441 32543 net.cpp:165] Memory required for data: 254448168
I0321 15:15:57.925446 32543 layer_factory.hpp:77] Creating layer fc7_mbox_conf_perm
I0321 15:15:57.925456 32543 net.cpp:100] Creating Layer fc7_mbox_conf_perm
I0321 15:15:57.925460 32543 net.cpp:434] fc7_mbox_conf_perm <- fc7_mbox_conf
I0321 15:15:57.925467 32543 net.cpp:408] fc7_mbox_conf_perm -> fc7_mbox_conf_perm
I0321 15:15:57.925585 32543 net.cpp:150] Setting up fc7_mbox_conf_perm
I0321 15:15:57.925592 32543 net.cpp:157] Top shape: 1 19 19 66 (23826)
I0321 15:15:57.925595 32543 net.cpp:165] Memory required for data: 254543472
I0321 15:15:57.925599 32543 layer_factory.hpp:77] Creating layer fc7_mbox_conf_flat
I0321 15:15:57.925606 32543 net.cpp:100] Creating Layer fc7_mbox_conf_flat
I0321 15:15:57.925611 32543 net.cpp:434] fc7_mbox_conf_flat <- fc7_mbox_conf_perm
I0321 15:15:57.925616 32543 net.cpp:408] fc7_mbox_conf_flat -> fc7_mbox_conf_flat
I0321 15:15:57.925642 32543 net.cpp:150] Setting up fc7_mbox_conf_flat
I0321 15:15:57.925648 32543 net.cpp:157] Top shape: 1 23826 (23826)
I0321 15:15:57.925652 32543 net.cpp:165] Memory required for data: 254638776
I0321 15:15:57.925655 32543 layer_factory.hpp:77] Creating layer fc7_mbox_priorbox
I0321 15:15:57.925663 32543 net.cpp:100] Creating Layer fc7_mbox_priorbox
I0321 15:15:57.925668 32543 net.cpp:434] fc7_mbox_priorbox <- fc7_relu7_0_split_3
I0321 15:15:57.925673 32543 net.cpp:434] fc7_mbox_priorbox <- data_data_0_split_2
I0321 15:15:57.925678 32543 net.cpp:408] fc7_mbox_priorbox -> fc7_mbox_priorbox
I0321 15:15:57.925709 32543 net.cpp:150] Setting up fc7_mbox_priorbox
I0321 15:15:57.925714 32543 net.cpp:157] Top shape: 1 2 8664 (17328)
I0321 15:15:57.925719 32543 net.cpp:165] Memory required for data: 254708088
I0321 15:15:57.925721 32543 layer_factory.hpp:77] Creating layer conv6_2_mbox_loc
I0321 15:15:57.925741 32543 net.cpp:100] Creating Layer conv6_2_mbox_loc
I0321 15:15:57.925747 32543 net.cpp:434] conv6_2_mbox_loc <- conv6_2_conv6_2_relu_0_split_1
I0321 15:15:57.925770 32543 net.cpp:408] conv6_2_mbox_loc -> conv6_2_mbox_loc
I0321 15:15:57.928133 32543 net.cpp:150] Setting up conv6_2_mbox_loc
I0321 15:15:57.928143 32543 net.cpp:157] Top shape: 1 24 10 10 (2400)
I0321 15:15:57.928148 32543 net.cpp:165] Memory required for data: 254717688
I0321 15:15:57.928164 32543 layer_factory.hpp:77] Creating layer conv6_2_mbox_loc_perm
I0321 15:15:57.928170 32543 net.cpp:100] Creating Layer conv6_2_mbox_loc_perm
I0321 15:15:57.928175 32543 net.cpp:434] conv6_2_mbox_loc_perm <- conv6_2_mbox_loc
I0321 15:15:57.928180 32543 net.cpp:408] conv6_2_mbox_loc_perm -> conv6_2_mbox_loc_perm
I0321 15:15:57.928299 32543 net.cpp:150] Setting up conv6_2_mbox_loc_perm
I0321 15:15:57.928306 32543 net.cpp:157] Top shape: 1 10 10 24 (2400)
I0321 15:15:57.928309 32543 net.cpp:165] Memory required for data: 254727288
I0321 15:15:57.928313 32543 layer_factory.hpp:77] Creating layer conv6_2_mbox_loc_flat
I0321 15:15:57.928319 32543 net.cpp:100] Creating Layer conv6_2_mbox_loc_flat
I0321 15:15:57.928323 32543 net.cpp:434] conv6_2_mbox_loc_flat <- conv6_2_mbox_loc_perm
I0321 15:15:57.928329 32543 net.cpp:408] conv6_2_mbox_loc_flat -> conv6_2_mbox_loc_flat
I0321 15:15:57.928354 32543 net.cpp:150] Setting up conv6_2_mbox_loc_flat
I0321 15:15:57.928360 32543 net.cpp:157] Top shape: 1 2400 (2400)
I0321 15:15:57.928364 32543 net.cpp:165] Memory required for data: 254736888
I0321 15:15:57.928366 32543 layer_factory.hpp:77] Creating layer conv6_2_mbox_conf
I0321 15:15:57.928377 32543 net.cpp:100] Creating Layer conv6_2_mbox_conf
I0321 15:15:57.928382 32543 net.cpp:434] conv6_2_mbox_conf <- conv6_2_conv6_2_relu_0_split_2
I0321 15:15:57.928390 32543 net.cpp:408] conv6_2_mbox_conf -> conv6_2_mbox_conf
I0321 15:15:57.932319 32543 net.cpp:150] Setting up conv6_2_mbox_conf
I0321 15:15:57.932332 32543 net.cpp:157] Top shape: 1 66 10 10 (6600)
I0321 15:15:57.932337 32543 net.cpp:165] Memory required for data: 254763288
I0321 15:15:57.932343 32543 layer_factory.hpp:77] Creating layer conv6_2_mbox_conf_perm
I0321 15:15:57.932353 32543 net.cpp:100] Creating Layer conv6_2_mbox_conf_perm
I0321 15:15:57.932358 32543 net.cpp:434] conv6_2_mbox_conf_perm <- conv6_2_mbox_conf
I0321 15:15:57.932364 32543 net.cpp:408] conv6_2_mbox_conf_perm -> conv6_2_mbox_conf_perm
I0321 15:15:57.932482 32543 net.cpp:150] Setting up conv6_2_mbox_conf_perm
I0321 15:15:57.932488 32543 net.cpp:157] Top shape: 1 10 10 66 (6600)
I0321 15:15:57.932492 32543 net.cpp:165] Memory required for data: 254789688
I0321 15:15:57.932495 32543 layer_factory.hpp:77] Creating layer conv6_2_mbox_conf_flat
I0321 15:15:57.932502 32543 net.cpp:100] Creating Layer conv6_2_mbox_conf_flat
I0321 15:15:57.932507 32543 net.cpp:434] conv6_2_mbox_conf_flat <- conv6_2_mbox_conf_perm
I0321 15:15:57.932512 32543 net.cpp:408] conv6_2_mbox_conf_flat -> conv6_2_mbox_conf_flat
I0321 15:15:57.932538 32543 net.cpp:150] Setting up conv6_2_mbox_conf_flat
I0321 15:15:57.932543 32543 net.cpp:157] Top shape: 1 6600 (6600)
I0321 15:15:57.932548 32543 net.cpp:165] Memory required for data: 254816088
I0321 15:15:57.932551 32543 layer_factory.hpp:77] Creating layer conv6_2_mbox_priorbox
I0321 15:15:57.932559 32543 net.cpp:100] Creating Layer conv6_2_mbox_priorbox
I0321 15:15:57.932564 32543 net.cpp:434] conv6_2_mbox_priorbox <- conv6_2_conv6_2_relu_0_split_3
I0321 15:15:57.932569 32543 net.cpp:434] conv6_2_mbox_priorbox <- data_data_0_split_3
I0321 15:15:57.932574 32543 net.cpp:408] conv6_2_mbox_priorbox -> conv6_2_mbox_priorbox
I0321 15:15:57.932605 32543 net.cpp:150] Setting up conv6_2_mbox_priorbox
I0321 15:15:57.932610 32543 net.cpp:157] Top shape: 1 2 2400 (4800)
I0321 15:15:57.932613 32543 net.cpp:165] Memory required for data: 254835288
I0321 15:15:57.932616 32543 layer_factory.hpp:77] Creating layer conv7_2_mbox_loc
I0321 15:15:57.932626 32543 net.cpp:100] Creating Layer conv7_2_mbox_loc
I0321 15:15:57.932631 32543 net.cpp:434] conv7_2_mbox_loc <- conv7_2_conv7_2_relu_0_split_1
I0321 15:15:57.932637 32543 net.cpp:408] conv7_2_mbox_loc -> conv7_2_mbox_loc
I0321 15:15:57.934813 32543 net.cpp:150] Setting up conv7_2_mbox_loc
I0321 15:15:57.934823 32543 net.cpp:157] Top shape: 1 24 5 5 (600)
I0321 15:15:57.934826 32543 net.cpp:165] Memory required for data: 254837688
I0321 15:15:57.934834 32543 layer_factory.hpp:77] Creating layer conv7_2_mbox_loc_perm
I0321 15:15:57.934840 32543 net.cpp:100] Creating Layer conv7_2_mbox_loc_perm
I0321 15:15:57.934846 32543 net.cpp:434] conv7_2_mbox_loc_perm <- conv7_2_mbox_loc
I0321 15:15:57.934852 32543 net.cpp:408] conv7_2_mbox_loc_perm -> conv7_2_mbox_loc_perm
I0321 15:15:57.934973 32543 net.cpp:150] Setting up conv7_2_mbox_loc_perm
I0321 15:15:57.934979 32543 net.cpp:157] Top shape: 1 5 5 24 (600)
I0321 15:15:57.934983 32543 net.cpp:165] Memory required for data: 254840088
I0321 15:15:57.934986 32543 layer_factory.hpp:77] Creating layer conv7_2_mbox_loc_flat
I0321 15:15:57.934993 32543 net.cpp:100] Creating Layer conv7_2_mbox_loc_flat
I0321 15:15:57.934996 32543 net.cpp:434] conv7_2_mbox_loc_flat <- conv7_2_mbox_loc_perm
I0321 15:15:57.935003 32543 net.cpp:408] conv7_2_mbox_loc_flat -> conv7_2_mbox_loc_flat
I0321 15:15:57.935029 32543 net.cpp:150] Setting up conv7_2_mbox_loc_flat
I0321 15:15:57.935034 32543 net.cpp:157] Top shape: 1 600 (600)
I0321 15:15:57.935036 32543 net.cpp:165] Memory required for data: 254842488
I0321 15:15:57.935040 32543 layer_factory.hpp:77] Creating layer conv7_2_mbox_conf
I0321 15:15:57.935053 32543 net.cpp:100] Creating Layer conv7_2_mbox_conf
I0321 15:15:57.935058 32543 net.cpp:434] conv7_2_mbox_conf <- conv7_2_conv7_2_relu_0_split_2
I0321 15:15:57.935063 32543 net.cpp:408] conv7_2_mbox_conf -> conv7_2_mbox_conf
I0321 15:15:57.937583 32543 net.cpp:150] Setting up conv7_2_mbox_conf
I0321 15:15:57.937592 32543 net.cpp:157] Top shape: 1 66 5 5 (1650)
I0321 15:15:57.937597 32543 net.cpp:165] Memory required for data: 254849088
I0321 15:15:57.937602 32543 layer_factory.hpp:77] Creating layer conv7_2_mbox_conf_perm
I0321 15:15:57.937610 32543 net.cpp:100] Creating Layer conv7_2_mbox_conf_perm
I0321 15:15:57.937615 32543 net.cpp:434] conv7_2_mbox_conf_perm <- conv7_2_mbox_conf
I0321 15:15:57.937621 32543 net.cpp:408] conv7_2_mbox_conf_perm -> conv7_2_mbox_conf_perm
I0321 15:15:57.937753 32543 net.cpp:150] Setting up conv7_2_mbox_conf_perm
I0321 15:15:57.937762 32543 net.cpp:157] Top shape: 1 5 5 66 (1650)
I0321 15:15:57.937764 32543 net.cpp:165] Memory required for data: 254855688
I0321 15:15:57.937768 32543 layer_factory.hpp:77] Creating layer conv7_2_mbox_conf_flat
I0321 15:15:57.937774 32543 net.cpp:100] Creating Layer conv7_2_mbox_conf_flat
I0321 15:15:57.937778 32543 net.cpp:434] conv7_2_mbox_conf_flat <- conv7_2_mbox_conf_perm
I0321 15:15:57.937785 32543 net.cpp:408] conv7_2_mbox_conf_flat -> conv7_2_mbox_conf_flat
I0321 15:15:57.937813 32543 net.cpp:150] Setting up conv7_2_mbox_conf_flat
I0321 15:15:57.937819 32543 net.cpp:157] Top shape: 1 1650 (1650)
I0321 15:15:57.937824 32543 net.cpp:165] Memory required for data: 254862288
I0321 15:15:57.937827 32543 layer_factory.hpp:77] Creating layer conv7_2_mbox_priorbox
I0321 15:15:57.937834 32543 net.cpp:100] Creating Layer conv7_2_mbox_priorbox
I0321 15:15:57.937837 32543 net.cpp:434] conv7_2_mbox_priorbox <- conv7_2_conv7_2_relu_0_split_3
I0321 15:15:57.937842 32543 net.cpp:434] conv7_2_mbox_priorbox <- data_data_0_split_4
I0321 15:15:57.937849 32543 net.cpp:408] conv7_2_mbox_priorbox -> conv7_2_mbox_priorbox
I0321 15:15:57.937877 32543 net.cpp:150] Setting up conv7_2_mbox_priorbox
I0321 15:15:57.937883 32543 net.cpp:157] Top shape: 1 2 600 (1200)
I0321 15:15:57.937886 32543 net.cpp:165] Memory required for data: 254867088
I0321 15:15:57.937891 32543 layer_factory.hpp:77] Creating layer conv8_2_mbox_loc
I0321 15:15:57.937899 32543 net.cpp:100] Creating Layer conv8_2_mbox_loc
I0321 15:15:57.937903 32543 net.cpp:434] conv8_2_mbox_loc <- conv8_2_conv8_2_relu_0_split_1
I0321 15:15:57.937911 32543 net.cpp:408] conv8_2_mbox_loc -> conv8_2_mbox_loc
I0321 15:15:57.939954 32543 net.cpp:150] Setting up conv8_2_mbox_loc
I0321 15:15:57.939965 32543 net.cpp:157] Top shape: 1 16 3 3 (144)
I0321 15:15:57.939978 32543 net.cpp:165] Memory required for data: 254867664
I0321 15:15:57.939985 32543 layer_factory.hpp:77] Creating layer conv8_2_mbox_loc_perm
I0321 15:15:57.939992 32543 net.cpp:100] Creating Layer conv8_2_mbox_loc_perm
I0321 15:15:57.939996 32543 net.cpp:434] conv8_2_mbox_loc_perm <- conv8_2_mbox_loc
I0321 15:15:57.940004 32543 net.cpp:408] conv8_2_mbox_loc_perm -> conv8_2_mbox_loc_perm
I0321 15:15:57.940121 32543 net.cpp:150] Setting up conv8_2_mbox_loc_perm
I0321 15:15:57.940127 32543 net.cpp:157] Top shape: 1 3 3 16 (144)
I0321 15:15:57.940130 32543 net.cpp:165] Memory required for data: 254868240
I0321 15:15:57.940135 32543 layer_factory.hpp:77] Creating layer conv8_2_mbox_loc_flat
I0321 15:15:57.940140 32543 net.cpp:100] Creating Layer conv8_2_mbox_loc_flat
I0321 15:15:57.940145 32543 net.cpp:434] conv8_2_mbox_loc_flat <- conv8_2_mbox_loc_perm
I0321 15:15:57.940150 32543 net.cpp:408] conv8_2_mbox_loc_flat -> conv8_2_mbox_loc_flat
I0321 15:15:57.940177 32543 net.cpp:150] Setting up conv8_2_mbox_loc_flat
I0321 15:15:57.940183 32543 net.cpp:157] Top shape: 1 144 (144)
I0321 15:15:57.940187 32543 net.cpp:165] Memory required for data: 254868816
I0321 15:15:57.940191 32543 layer_factory.hpp:77] Creating layer conv8_2_mbox_conf
I0321 15:15:57.940199 32543 net.cpp:100] Creating Layer conv8_2_mbox_conf
I0321 15:15:57.940203 32543 net.cpp:434] conv8_2_mbox_conf <- conv8_2_conv8_2_relu_0_split_2
I0321 15:15:57.940210 32543 net.cpp:408] conv8_2_mbox_conf -> conv8_2_mbox_conf
I0321 15:15:57.942540 32543 net.cpp:150] Setting up conv8_2_mbox_conf
I0321 15:15:57.942550 32543 net.cpp:157] Top shape: 1 44 3 3 (396)
I0321 15:15:57.942554 32543 net.cpp:165] Memory required for data: 254870400
I0321 15:15:57.942561 32543 layer_factory.hpp:77] Creating layer conv8_2_mbox_conf_perm
I0321 15:15:57.942569 32543 net.cpp:100] Creating Layer conv8_2_mbox_conf_perm
I0321 15:15:57.942574 32543 net.cpp:434] conv8_2_mbox_conf_perm <- conv8_2_mbox_conf
I0321 15:15:57.942579 32543 net.cpp:408] conv8_2_mbox_conf_perm -> conv8_2_mbox_conf_perm
I0321 15:15:57.942698 32543 net.cpp:150] Setting up conv8_2_mbox_conf_perm
I0321 15:15:57.942703 32543 net.cpp:157] Top shape: 1 3 3 44 (396)
I0321 15:15:57.942708 32543 net.cpp:165] Memory required for data: 254871984
I0321 15:15:57.942711 32543 layer_factory.hpp:77] Creating layer conv8_2_mbox_conf_flat
I0321 15:15:57.942716 32543 net.cpp:100] Creating Layer conv8_2_mbox_conf_flat
I0321 15:15:57.942720 32543 net.cpp:434] conv8_2_mbox_conf_flat <- conv8_2_mbox_conf_perm
I0321 15:15:57.942726 32543 net.cpp:408] conv8_2_mbox_conf_flat -> conv8_2_mbox_conf_flat
I0321 15:15:57.942755 32543 net.cpp:150] Setting up conv8_2_mbox_conf_flat
I0321 15:15:57.942760 32543 net.cpp:157] Top shape: 1 396 (396)
I0321 15:15:57.942764 32543 net.cpp:165] Memory required for data: 254873568
I0321 15:15:57.942767 32543 layer_factory.hpp:77] Creating layer conv8_2_mbox_priorbox
I0321 15:15:57.942775 32543 net.cpp:100] Creating Layer conv8_2_mbox_priorbox
I0321 15:15:57.942777 32543 net.cpp:434] conv8_2_mbox_priorbox <- conv8_2_conv8_2_relu_0_split_3
I0321 15:15:57.942785 32543 net.cpp:434] conv8_2_mbox_priorbox <- data_data_0_split_5
I0321 15:15:57.942790 32543 net.cpp:408] conv8_2_mbox_priorbox -> conv8_2_mbox_priorbox
I0321 15:15:57.942819 32543 net.cpp:150] Setting up conv8_2_mbox_priorbox
I0321 15:15:57.942826 32543 net.cpp:157] Top shape: 1 2 144 (288)
I0321 15:15:57.942828 32543 net.cpp:165] Memory required for data: 254874720
I0321 15:15:57.942831 32543 layer_factory.hpp:77] Creating layer conv9_2_mbox_loc
I0321 15:15:57.942843 32543 net.cpp:100] Creating Layer conv9_2_mbox_loc
I0321 15:15:57.942848 32543 net.cpp:434] conv9_2_mbox_loc <- conv9_2_conv9_2_relu_0_split_0
I0321 15:15:57.942853 32543 net.cpp:408] conv9_2_mbox_loc -> conv9_2_mbox_loc
I0321 15:15:57.944372 32543 net.cpp:150] Setting up conv9_2_mbox_loc
I0321 15:15:57.944382 32543 net.cpp:157] Top shape: 1 16 1 1 (16)
I0321 15:15:57.944386 32543 net.cpp:165] Memory required for data: 254874784
I0321 15:15:57.944403 32543 layer_factory.hpp:77] Creating layer conv9_2_mbox_loc_perm
I0321 15:15:57.944411 32543 net.cpp:100] Creating Layer conv9_2_mbox_loc_perm
I0321 15:15:57.944416 32543 net.cpp:434] conv9_2_mbox_loc_perm <- conv9_2_mbox_loc
I0321 15:15:57.944422 32543 net.cpp:408] conv9_2_mbox_loc_perm -> conv9_2_mbox_loc_perm
I0321 15:15:57.944535 32543 net.cpp:150] Setting up conv9_2_mbox_loc_perm
I0321 15:15:57.944541 32543 net.cpp:157] Top shape: 1 1 1 16 (16)
I0321 15:15:57.944545 32543 net.cpp:165] Memory required for data: 254874848
I0321 15:15:57.944550 32543 layer_factory.hpp:77] Creating layer conv9_2_mbox_loc_flat
I0321 15:15:57.944555 32543 net.cpp:100] Creating Layer conv9_2_mbox_loc_flat
I0321 15:15:57.944558 32543 net.cpp:434] conv9_2_mbox_loc_flat <- conv9_2_mbox_loc_perm
I0321 15:15:57.944566 32543 net.cpp:408] conv9_2_mbox_loc_flat -> conv9_2_mbox_loc_flat
I0321 15:15:57.944593 32543 net.cpp:150] Setting up conv9_2_mbox_loc_flat
I0321 15:15:57.944598 32543 net.cpp:157] Top shape: 1 16 (16)
I0321 15:15:57.944602 32543 net.cpp:165] Memory required for data: 254874912
I0321 15:15:57.944605 32543 layer_factory.hpp:77] Creating layer conv9_2_mbox_conf
I0321 15:15:57.944615 32543 net.cpp:100] Creating Layer conv9_2_mbox_conf
I0321 15:15:57.944619 32543 net.cpp:434] conv9_2_mbox_conf <- conv9_2_conv9_2_relu_0_split_1
I0321 15:15:57.944625 32543 net.cpp:408] conv9_2_mbox_conf -> conv9_2_mbox_conf
I0321 15:15:57.946952 32543 net.cpp:150] Setting up conv9_2_mbox_conf
I0321 15:15:57.946962 32543 net.cpp:157] Top shape: 1 44 1 1 (44)
I0321 15:15:57.946966 32543 net.cpp:165] Memory required for data: 254875088
I0321 15:15:57.946972 32543 layer_factory.hpp:77] Creating layer conv9_2_mbox_conf_perm
I0321 15:15:57.946980 32543 net.cpp:100] Creating Layer conv9_2_mbox_conf_perm
I0321 15:15:57.946985 32543 net.cpp:434] conv9_2_mbox_conf_perm <- conv9_2_mbox_conf
I0321 15:15:57.946991 32543 net.cpp:408] conv9_2_mbox_conf_perm -> conv9_2_mbox_conf_perm
I0321 15:15:57.947108 32543 net.cpp:150] Setting up conv9_2_mbox_conf_perm
I0321 15:15:57.947116 32543 net.cpp:157] Top shape: 1 1 1 44 (44)
I0321 15:15:57.947120 32543 net.cpp:165] Memory required for data: 254875264
I0321 15:15:57.947124 32543 layer_factory.hpp:77] Creating layer conv9_2_mbox_conf_flat
I0321 15:15:57.947129 32543 net.cpp:100] Creating Layer conv9_2_mbox_conf_flat
I0321 15:15:57.947134 32543 net.cpp:434] conv9_2_mbox_conf_flat <- conv9_2_mbox_conf_perm
I0321 15:15:57.947139 32543 net.cpp:408] conv9_2_mbox_conf_flat -> conv9_2_mbox_conf_flat
I0321 15:15:57.947166 32543 net.cpp:150] Setting up conv9_2_mbox_conf_flat
I0321 15:15:57.947172 32543 net.cpp:157] Top shape: 1 44 (44)
I0321 15:15:57.947176 32543 net.cpp:165] Memory required for data: 254875440
I0321 15:15:57.947180 32543 layer_factory.hpp:77] Creating layer conv9_2_mbox_priorbox
I0321 15:15:57.947186 32543 net.cpp:100] Creating Layer conv9_2_mbox_priorbox
I0321 15:15:57.947190 32543 net.cpp:434] conv9_2_mbox_priorbox <- conv9_2_conv9_2_relu_0_split_2
I0321 15:15:57.947196 32543 net.cpp:434] conv9_2_mbox_priorbox <- data_data_0_split_6
I0321 15:15:57.947201 32543 net.cpp:408] conv9_2_mbox_priorbox -> conv9_2_mbox_priorbox
I0321 15:15:57.947232 32543 net.cpp:150] Setting up conv9_2_mbox_priorbox
I0321 15:15:57.947237 32543 net.cpp:157] Top shape: 1 2 16 (32)
I0321 15:15:57.947240 32543 net.cpp:165] Memory required for data: 254875568
I0321 15:15:57.947243 32543 layer_factory.hpp:77] Creating layer mbox_loc
I0321 15:15:57.947250 32543 net.cpp:100] Creating Layer mbox_loc
I0321 15:15:57.947255 32543 net.cpp:434] mbox_loc <- conv4_3_norm_mbox_loc_flat
I0321 15:15:57.947260 32543 net.cpp:434] mbox_loc <- fc7_mbox_loc_flat
I0321 15:15:57.947265 32543 net.cpp:434] mbox_loc <- conv6_2_mbox_loc_flat
I0321 15:15:57.947269 32543 net.cpp:434] mbox_loc <- conv7_2_mbox_loc_flat
I0321 15:15:57.947273 32543 net.cpp:434] mbox_loc <- conv8_2_mbox_loc_flat
I0321 15:15:57.947278 32543 net.cpp:434] mbox_loc <- conv9_2_mbox_loc_flat
I0321 15:15:57.947284 32543 net.cpp:408] mbox_loc -> mbox_loc
I0321 15:15:57.947312 32543 net.cpp:150] Setting up mbox_loc
I0321 15:15:57.947326 32543 net.cpp:157] Top shape: 1 34928 (34928)
I0321 15:15:57.947330 32543 net.cpp:165] Memory required for data: 255015280
I0321 15:15:57.947335 32543 layer_factory.hpp:77] Creating layer mbox_conf
I0321 15:15:57.947340 32543 net.cpp:100] Creating Layer mbox_conf
I0321 15:15:57.947343 32543 net.cpp:434] mbox_conf <- conv4_3_norm_mbox_conf_flat
I0321 15:15:57.947350 32543 net.cpp:434] mbox_conf <- fc7_mbox_conf_flat
I0321 15:15:57.947353 32543 net.cpp:434] mbox_conf <- conv6_2_mbox_conf_flat
I0321 15:15:57.947357 32543 net.cpp:434] mbox_conf <- conv7_2_mbox_conf_flat
I0321 15:15:57.947361 32543 net.cpp:434] mbox_conf <- conv8_2_mbox_conf_flat
I0321 15:15:57.947365 32543 net.cpp:434] mbox_conf <- conv9_2_mbox_conf_flat
I0321 15:15:57.947371 32543 net.cpp:408] mbox_conf -> mbox_conf
I0321 15:15:57.947399 32543 net.cpp:150] Setting up mbox_conf
I0321 15:15:57.947405 32543 net.cpp:157] Top shape: 1 96052 (96052)
I0321 15:15:57.947408 32543 net.cpp:165] Memory required for data: 255399488
I0321 15:15:57.947412 32543 layer_factory.hpp:77] Creating layer mbox_priorbox
I0321 15:15:57.947417 32543 net.cpp:100] Creating Layer mbox_priorbox
I0321 15:15:57.947422 32543 net.cpp:434] mbox_priorbox <- conv4_3_norm_mbox_priorbox
I0321 15:15:57.947427 32543 net.cpp:434] mbox_priorbox <- fc7_mbox_priorbox
I0321 15:15:57.947430 32543 net.cpp:434] mbox_priorbox <- conv6_2_mbox_priorbox
I0321 15:15:57.947434 32543 net.cpp:434] mbox_priorbox <- conv7_2_mbox_priorbox
I0321 15:15:57.947438 32543 net.cpp:434] mbox_priorbox <- conv8_2_mbox_priorbox
I0321 15:15:57.947443 32543 net.cpp:434] mbox_priorbox <- conv9_2_mbox_priorbox
I0321 15:15:57.947448 32543 net.cpp:408] mbox_priorbox -> mbox_priorbox
I0321 15:15:57.947474 32543 net.cpp:150] Setting up mbox_priorbox
I0321 15:15:57.947479 32543 net.cpp:157] Top shape: 1 2 34928 (69856)
I0321 15:15:57.947484 32543 net.cpp:165] Memory required for data: 255678912
I0321 15:15:57.947486 32543 layer_factory.hpp:77] Creating layer mbox_conf_reshape
I0321 15:15:57.947494 32543 net.cpp:100] Creating Layer mbox_conf_reshape
I0321 15:15:57.947497 32543 net.cpp:434] mbox_conf_reshape <- mbox_conf
I0321 15:15:57.947504 32543 net.cpp:408] mbox_conf_reshape -> mbox_conf_reshape
I0321 15:15:57.947540 32543 net.cpp:150] Setting up mbox_conf_reshape
I0321 15:15:57.947544 32543 net.cpp:157] Top shape: 1 8732 11 (96052)
I0321 15:15:57.947548 32543 net.cpp:165] Memory required for data: 256063120
I0321 15:15:57.947552 32543 layer_factory.hpp:77] Creating layer mbox_conf_softmax
I0321 15:15:57.947559 32543 net.cpp:100] Creating Layer mbox_conf_softmax
I0321 15:15:57.947563 32543 net.cpp:434] mbox_conf_softmax <- mbox_conf_reshape
I0321 15:15:57.947571 32543 net.cpp:408] mbox_conf_softmax -> mbox_conf_softmax
I0321 15:15:57.947815 32543 net.cpp:150] Setting up mbox_conf_softmax
I0321 15:15:57.947824 32543 net.cpp:157] Top shape: 1 8732 11 (96052)
I0321 15:15:57.947826 32543 net.cpp:165] Memory required for data: 256447328
I0321 15:15:57.947830 32543 layer_factory.hpp:77] Creating layer mbox_conf_flatten
I0321 15:15:57.947836 32543 net.cpp:100] Creating Layer mbox_conf_flatten
I0321 15:15:57.947840 32543 net.cpp:434] mbox_conf_flatten <- mbox_conf_softmax
I0321 15:15:57.947845 32543 net.cpp:408] mbox_conf_flatten -> mbox_conf_flatten
I0321 15:15:57.947875 32543 net.cpp:150] Setting up mbox_conf_flatten
I0321 15:15:57.947880 32543 net.cpp:157] Top shape: 1 96052 (96052)
I0321 15:15:57.947883 32543 net.cpp:165] Memory required for data: 256831536
I0321 15:15:57.947887 32543 layer_factory.hpp:77] Creating layer detection_out
I0321 15:15:57.947906 32543 net.cpp:100] Creating Layer detection_out
I0321 15:15:57.947911 32543 net.cpp:434] detection_out <- mbox_loc
I0321 15:15:57.947914 32543 net.cpp:434] detection_out <- mbox_conf_flatten
I0321 15:15:57.947918 32543 net.cpp:434] detection_out <- mbox_priorbox
I0321 15:15:57.947926 32543 net.cpp:408] detection_out -> detection_out
W0321 15:15:57.947952 32543 detection_output_layer.cpp:49] Failed to create directory: /home/zs/data/VOCdevkit/results/VOC2007/SSD_300x300_0321_conv5/Main
I0321 15:15:57.948424 32543 net.cpp:150] Setting up detection_out
I0321 15:15:57.948433 32543 net.cpp:157] Top shape: 1 1 1 7 (7)
I0321 15:15:57.948437 32543 net.cpp:165] Memory required for data: 256831564
I0321 15:15:57.948441 32543 layer_factory.hpp:77] Creating layer detection_eval
I0321 15:15:57.948448 32543 net.cpp:100] Creating Layer detection_eval
I0321 15:15:57.948453 32543 net.cpp:434] detection_eval <- detection_out
I0321 15:15:57.948457 32543 net.cpp:434] detection_eval <- label
I0321 15:15:57.948463 32543 net.cpp:408] detection_eval -> detection_eval
I0321 15:15:57.948542 32543 net.cpp:150] Setting up detection_eval
I0321 15:15:57.948549 32543 net.cpp:157] Top shape: 1 1 11 5 (55)
I0321 15:15:57.948552 32543 net.cpp:165] Memory required for data: 256831784
I0321 15:15:57.948556 32543 net.cpp:228] detection_eval does not need backward computation.
I0321 15:15:57.948561 32543 net.cpp:228] detection_out does not need backward computation.
I0321 15:15:57.948565 32543 net.cpp:228] mbox_conf_flatten does not need backward computation.
I0321 15:15:57.948570 32543 net.cpp:228] mbox_conf_softmax does not need backward computation.
…
