…
      sampler {
        min_scale: 0.3
        max_scale: 1
        min_aspect_ratio: 0.5
        max_aspect_ratio: 2
      }
      sample_constraint {
        min_jaccard_overlap: 0.9
      }
      max_sample: 1
      max_trials: 50
    }
    batch_sampler {
      sampler {
        min_scale: 0.3
        max_scale: 1
        min_aspect_ratio: 0.5
        max_aspect_ratio: 2
      }
      sample_constraint {
        max_jaccard_overlap: 1
      }
      max_sample: 1
      max_trials: 50
    }
    label_map_file: "data/NWPU_VHR/labelmap_NWPU_VHR.prototxt"
  }
}
layer {
  name: "conv1_1"
  type: "Convolution"
  bottom: "data"
  top: "conv1_1"
  param {
    lr_mult: 1
    decay_mult: 1
  }
  param {
    lr_mult: 2
    decay_mult: 0
  }
  convolution_param {
    num_output: 64
    pad: 1
    kernel_size: 3
    weight_filler {
      type: "xavier"
    }
    bias_filler {
      type: "constant"
      value: 0
    }
  }
}
layer {
  name: "relu1_1"
  type: "ReLU"
  bottom: "conv1_1"
  top: "conv1_1"
}
layer {
  name: "conv1_2"
  type: "Convolution"
  bottom: "conv1_1"
  top: "conv1_2"
  param {
    lr_mult: 1
    decay_mult: 1
  }
  param {
    lr_mult: 2
    decay_mult: 0
  }
  convolution_param {
    num_output: 64
    pad: 1
    kernel_size: 3
    weight_filler {
      type: "xavier"
    }
    bias_filler {
      type: "constant"
      value: 0
    }
  }
}
layer {
  name: "relu1_2"
  type: "ReLU"
  bottom: "conv1_2"
  top: "conv1_2"
}
layer {
  name: "pool1"
  type: "Pooling"
  bottom: "conv1_2"
  top: "pool1"
  pooling_param {
    pool: MAX
    kernel_size: 2
    stride: 2
  }
}
layer {
  name: "conv2_1"
  type: "Convolution"
  bottom: "pool1"
  top: "conv2_1"
  param {
    lr_mult: 1
    decay_mult: 1
  }
  param {
    lr_mult: 2
    decay_mult: 0
  }
  convolution_param {
    num_output: 128
    pad: 1
    kernel_size: 3
    weight_filler {
      type: "xavier"
    }
    bias_filler {
      type: "constant"
      value: 0
    }
  }
}
layer {
  name: "relu2_1"
  type: "ReLU"
  bottom: "conv2_1"
  top: "conv2_1"
}
layer {
  name: "conv2_2"
  type: "Convolution"
  bottom: "conv2_1"
  top: "conv2_2"
  param {
    lr_mult: 1
    decay_mult: 1
  }
  param {
    lr_mult: 2
    decay_mult: 0
  }
  convolution_param {
    num_output: 128
    pad: 1
    kernel_size: 3
    weight_filler {
      type: "xavier"
    }
    bias_filler {
      type: "constant"
      value: 0
    }
  }
}
layer {
  name: "relu2_2"
  type: "ReLU"
  bottom: "conv2_2"
  top: "conv2_2"
}
layer {
  name: "pool2"
  type: "Pooling"
  bottom: "conv2_2"
  top: "pool2"
  pooling_param {
    pool: MAX
    kernel_size: 2
    stride: 2
  }
}
layer {
  name: "conv3_1"
  type: "Convolution"
  bottom: "pool2"
  top: "conv3_1"
  param {
    lr_mult: 1
    decay_mult: 1
  }
  param {
    lr_mult: 2
    decay_mult: 0
  }
  convolution_param {
    num_output: 256
    pad: 1
    kernel_size: 3
    weight_filler {
      type: "xavier"
    }
    bias_filler {
      type: "constant"
      value: 0
    }
  }
}
layer {
  name: "relu3_1"
  type: "ReLU"
  bottom: "conv3_1"
  top: "conv3_1"
}
layer {
  name: "conv3_2"
  type: "Convolution"
  bottom: "conv3_1"
  top: "conv3_2"
  param {
    lr_mult: 1
    decay_mult: 1
  }
  param {
    lr_mult: 2
    decay_mult: 0
  }
  convolution_param {
    num_output: 256
    pad: 1
    kernel_size: 3
    weight_filler {
      type: "xavier"
    }
    bias_filler {
      type: "constant"
      value: 0
    }
  }
}
layer {
  name: "relu3_2"
  type: "ReLU"
  bottom: "conv3_2"
  top: "conv3_2"
}
layer {
  name: "conv3_3"
  type: "Convolution"
  bottom: "conv3_2"
  top: "conv3_3"
  param {
    lr_mult: 1
    decay_mult: 1
  }
  param {
    lr_mult: 2
    decay_mult: 0
  }
  convolution_param {
    num_output: 256
    pad: 1
    kernel_size: 3
    weight_filler {
      type: "xavier"
    }
    bias_filler {
      type: "constant"
      value: 0
    }
  }
}
layer {
  name: "relu3_3"
  type: "ReLU"
  bottom: "conv3_3"
  top: "conv3_3"
}
layer {
  name: "pool3"
  type: "Pooling"
  bottom: "conv3_3"
  top: "pool3"
  pooling_param {
    pool: MAX
    kernel_size: 2
    stride: 2
  }
}
layer {
  name: "conv4_1"
  type: "Convolution"
  bottom: "pool3"
  top: "conv4_1"
  param {
    lr_mult: 1
    decay_mult: 1
  }
  param {
    lr_mult: 2
    decay_mult: 0
  }
  convolution_param {
    num_output: 512
    pad: 1
    kernel_size: 3
    weight_filler {
      type: "xavier"
    }
    bias_filler {
      type: "constant"
      value: 0
    }
  }
}
layer {
  name: "relu4_1"
  type: "ReLU"
  bottom: "conv4_1"
  top: "conv4_1"
}
layer {
  name: "conv4_2"
  type: "Convolution"
  bottom: "conv4_1"
  top: "conv4_2"
  param {
    lr_mult: 1
    decay_mult: 1
  }
  param {
    lr_mult: 2
    decay_mult: 0
  }
  convolution_param {
    num_output: 512
    pad: 1
    kernel_size: 3
    weight_filler {
      type: "xavier"
    }
    bias_filler {
      type: "constant"
      value: 0
    }
  }
}
layer {
  name: "relu4_2"
  type: "ReLU"
  bottom: "conv4_2"
  top: "conv4_2"
}
layer {
  name: "conv4_3"
  type: "Convolution"
  bottom: "conv4_2"
  top: "conv4_3"
  param {
    lr_mult: 1
    decay_mult: 1
  }
  param {
    lr_mult: 2
    decay_mult: 0
  }
  convolution_param {
    num_output: 512
    pad: 1
    kernel_size: 3
    weight_filler {
      type: "xavier"
    }
    bias_filler {
      type: "constant"
      value: 0
    }
  }
}
layer {
  name: "relu4_3"
  type: "ReLU"
  bottom: "conv4_3"
  top: "conv4_3"
}
layer {
  name: "pool4"
  type: "Pooling"
  bottom: "conv4_3"
  top: "pool4"
  pooling_param {
    pool: MAX
    kernel_size: 2
    stride: 2
  }
}
layer {
  name: "conv5_1"
  type: "Convolution"
  bottom: "pool4"
  top: "conv5_1"
  param {
    lr_mult: 1
    decay_mult: 1
  }
  param {
    lr_mult: 2
    decay_mult: 0
  }
  convolution_param {
    num_output: 512
    pad: 1
    kernel_size: 3
    weight_filler {
      type: "xavier"
    }
    bias_filler {
      type: "constant"
      value: 0
    }
    dilation: 1
  }
}
layer {
  name: "relu5_1"
  type: "ReLU"
  bottom: "conv5_1"
  top: "conv5_1"
}
layer {
  name: "conv5_2"
  type: "Convolution"
  bottom: "conv5_1"
  top: "conv5_2"
  param {
    lr_mult: 1
    decay_mult: 1
  }
  param {
    lr_mult: 2
    decay_mult: 0
  }
  convolution_param {
    num_output: 512
    pad: 1
    kernel_size: 3
    weight_filler {
      type: "xavier"
    }
    bias_filler {
      type: "constant"
      value: 0
    }
    dilation: 1
  }
}
layer {
  name: "relu5_2"
  type: "ReLU"
  bottom: "conv5_2"
  top: "conv5_2"
}
layer {
  name: "conv5_3"
  type: "Convolution"
  bottom: "conv5_2"
  top: "conv5_3"
  param {
    lr_mult: 1
    decay_mult: 1
  }
  param {
    lr_mult: 2
    decay_mult: 0
  }
  convolution_param {
    num_output: 512
    pad: 1
    kernel_size: 3
    weight_filler {
      type: "xavier"
    }
    bias_filler {
      type: "constant"
      value: 0
    }
    dilation: 1
  }
}
layer {
  name: "relu5_3"
  type: "ReLU"
  bottom: "conv5_3"
  top: "conv5_3"
}
layer {
  name: "pool5"
  type: "Pooling"
  bottom: "conv5_3"
  top: "pool5"
  pooling_param {
    pool: MAX
    kernel_size: 3
    stride: 1
    pad: 1
  }
}
layer {
  name: "fc6"
  type: "Convolution"
  bottom: "pool5"
  top: "fc6"
  param {
    lr_mult: 1
    decay_mult: 1
  }
  param {
    lr_mult: 2
    decay_mult: 0
  }
  convolution_param {
    num_output: 1024
    pad: 6
    kernel_size: 3
    weight_filler {
      type: "xavier"
    }
    bias_filler {
      type: "constant"
      value: 0
    }
    dilation: 6
  }
}
layer {
  name: "relu6"
  type: "ReLU"
  bottom: "fc6"
  top: "fc6"
}
layer {
  name: "fc7"
  type: "Convolution"
  bottom: "fc6"
  top: "fc7"
  param {
    lr_mult: 1
    decay_mult: 1
  }
  param {
    lr_mult: 2
    decay_mult: 0
  }
  convolution_param {
    num_output: 1024
    kernel_size: 1
    weight_filler {
      type: "xavier"
    }
    bias_filler {
      type: "constant"
      value: 0
    }
  }
}
layer {
  name: "relu7"
  type: "ReLU"
  bottom: "fc7"
  top: "fc7"
}
layer {
  name: "conv6_1"
  type: "Convolution"
  bottom: "fc7"
  top: "conv6_1"
  param {
    lr_mult: 1
    decay_mult: 1
  }
  param {
    lr_mult: 2
    decay_mult: 0
  }
  convolution_param {
    num_output: 256
    pad: 0
    kernel_size: 1
    stride: 1
    weight_filler {
      type: "xavier"
    }
    bias_filler {
      type: "constant"
      value: 0
    }
  }
}
layer {
  name: "conv6_1_relu"
  type: "ReLU"
  bottom: "conv6_1"
  top: "conv6_1"
}
layer {
  name: "conv6_2"
  type: "Convolution"
  bottom: "conv6_1"
  top: "conv6_2"
  param {
    lr_mult: 1
    decay_mult: 1
  }
  param {
    lr_mult: 2
    decay_mult: 0
  }
  convolution_param {
    num_output: 512
    pad: 1
    kernel_size: 3
    stride: 2
    weight_filler {
      type: "xavier"
    }
    bias_filler {
      type: "constant"
      value: 0
    }
  }
}
layer {
  name: "conv6_2_relu"
  type: "ReLU"
  bottom: "conv6_2"
  top: "conv6_2"
}
layer {
  name: "conv7_1"
  type: "Convolution"
  bottom: "conv6_2"
  top: "conv7_1"
  param {
    lr_mult: 1
    decay_mult: 1
  }
  param {
    lr_mult: 2
    decay_mult: 0
  }
  convolution_param {
    num_output: 128
    pad: 0
    kernel_size: 1
    stride: 1
    weight_filler {
      type: "xavier"
    }
    bias_filler {
      type: "constant"
      value: 0
    }
  }
}
layer {
  name: "conv7_1_relu"
  type: "ReLU"
  bottom: "conv7_1"
  top: "conv7_1"
}
layer {
  name: "conv7_2"
  type: "Convolution"
  bottom: "conv7_1"
  top: "conv7_2"
  param {
    lr_mult: 1
    decay_mult: 1
  }
  param {
    lr_mult: 2
    decay_mult: 0
  }
  convolution_param {
    num_output: 256
    pad: 1
    kernel_size: 3
    stride: 2
    weight_filler {
      type: "xavier"
    }
    bias_filler {
      type: "constant"
      value: 0
    }
  }
}
layer {
  name: "conv7_2_relu"
  type: "ReLU"
  bottom: "conv7_2"
  top: "conv7_2"
}
layer {
  name: "conv8_1"
  type: "Convolution"
  bottom: "conv7_2"
  top: "conv8_1"
  param {
    lr_mult: 1
    decay_mult: 1
  }
  param {
    lr_mult: 2
    decay_mult: 0
  }
  convolution_param {
    num_output: 128
    pad: 0
    kernel_size: 1
    stride: 1
    weight_filler {
      type: "xavier"
    }
    bias_filler {
      type: "constant"
      value: 0
    }
  }
}
layer {
  name: "conv8_1_relu"
  type: "ReLU"
  bottom: "conv8_1"
  top: "conv8_1"
}
layer {
  name: "conv8_2"
  type: "Convolution"
  bottom: "conv8_1"
  top: "conv8_2"
  param {
    lr_mult: 1
    decay_mult: 1
  }
  param {
    lr_mult: 2
    decay_mult: 0
  }
  convolution_param {
    num_output: 256
    pad: 0
    kernel_size: 3
    stride: 1
    weight_filler {
      type: "xavier"
    }
    bias_filler {
      type: "constant"
      value: 0
    }
  }
}
layer {
  name: "conv8_2_relu"
  type: "ReLU"
  bottom: "conv8_2"
  top: "conv8_2"
}
layer {
  name: "conv9_1"
  type: "Convolution"
  bottom: "conv8_2"
  top: "conv9_1"
  param {
    lr_mult: 1
    decay_mult: 1
  }
  param {
    lr_mult: 2
    decay_mult: 0
  }
  convolution_param {
    num_output: 128
    pad: 0
    kernel_size: 1
    stride: 1
    weight_filler {
      type: "xavier"
    }
    bias_filler {
      type: "constant"
      value: 0
    }
  }
}
layer {
  name: "conv9_1_relu"
  type: "ReLU"
  bottom: "conv9_1"
  top: "conv9_1"
}
layer {
  name: "conv9_2"
  type: "Convolution"
  bottom: "conv9_1"
  top: "conv9_2"
  param {
    lr_mult: 1
    decay_mult: 1
  }
  param {
    lr_mult: 2
    decay_mult: 0
  }
  convolution_param {
    num_output: 256
    pad: 0
    kernel_size: 3
    stride: 1
    weight_filler {
      type: "xavier"
    }
    bias_filler {
      type: "constant"
      value: 0
    }
  }
}
layer {
  name: "conv9_2_relu"
  type: "ReLU"
  bottom: "conv9_2"
  top: "conv9_2"
}
layer {
  name: "conv4_3_norm"
  type: "Normalize"
  bottom: "conv4_3"
  top: "conv4_3_norm"
  norm_param {
    across_spatial: false
    scale_filler {
      type: "constant"
      value: 20
    }
    channel_shared: false
  }
}
layer {
  name: "conv4_3_norm_mbox_loc"
  type: "Convolution"
  bottom: "conv4_3_norm"
  top: "conv4_3_norm_mbox_loc"
  param {
    lr_mult: 1
    decay_mult: 1
  }
  param {
    lr_mult: 2
    decay_mult: 0
  }
  convolution_param {
    num_output: 16
    pad: 1
    kernel_size: 3
    stride: 1
    weight_filler {
      type: "xavier"
    }
    bias_filler {
      type: "constant"
      value: 0
    }
  }
}
layer {
  name: "conv4_3_norm_mbox_loc_perm"
  type: "Permute"
  bottom: "conv4_3_norm_mbox_loc"
  top: "conv4_3_norm_mbox_loc_perm"
  permute_param {
    order: 0
    order: 2
    order: 3
    order: 1
  }
}
layer {
  name: "conv4_3_norm_mbox_loc_flat"
  type: "Flatten"
  bottom: "conv4_3_norm_mbox_loc_perm"
  top: "conv4_3_norm_mbox_loc_flat"
  flatten_param {
    axis: 1
  }
}
layer {
  name: "conv4_3_norm_mbox_conf"
  type: "Convolution"
  bottom: "conv4_3_norm"
  top: "conv4_3_norm_mbox_conf"
  param {
    lr_mult: 1
    decay_mult: 1
  }
  param {
    lr_mult: 2
    decay_mult: 0
  }
  convolution_param {
    num_output: 44
    pad: 1
    kernel_size: 3
    stride: 1
    weight_filler {
      type: "xavier"
    }
    bias_filler {
      type: "constant"
      value: 0
    }
  }
}
layer {
  name: "conv4_3_norm_mbox_conf_perm"
  type: "Permute"
  bottom: "conv4_3_norm_mbox_conf"
  top: "conv4_3_norm_mbox_conf_perm"
  permute_param {
    order: 0
    order: 2
    order: 3
    order: 1
  }
}
layer {
  name: "conv4_3_norm_mbox_conf_flat"
  type: "Flatten"
  bottom: "conv4_3_norm_mbox_conf_perm"
  top: "conv4_3_norm_mbox_conf_flat"
  flatten_param {
    axis: 1
  }
}
layer {
  name: "conv4_3_norm_mbox_priorbox"
  type: "PriorBox"
  bottom: "conv4_3_norm"
  bottom: "data"
  top: "conv4_3_norm_mbox_priorbox"
  prior_box_param {
    min_size: 30
    max_size: 60
    aspect_ratio: 2
    flip: true
    clip: false
    variance: 0.1
    variance: 0.1
    variance: 0.2
    variance: 0.2
    step: 8
    offset: 0.5
  }
}
layer {
  name: "fc7_mbox_loc"
  type: "Convolution"
  bottom: "fc7"
  top: "fc7_mbox_loc"
  param {
    lr_mult: 1
    decay_mult: 1
  }
  param {
    lr_mult: 2
    decay_mult: 0
  }
  convolution_param {
    num_output: 24
    pad: 1
    kernel_size: 3
    stride: 1
    weight_filler {
      type: "xavier"
    }
    bias_filler {
      type: "constant"
      value: 0
    }
  }
}
layer {
  name: "fc7_mbox_loc_perm"
  type: "Permute"
  bottom: "fc7_mbox_loc"
  top: "fc7_mbox_loc_perm"
  permute_param {
    order: 0
    order: 2
    order: 3
    order: 1
  }
}
layer {
  name: "fc7_mbox_loc_flat"
  type: "Flatten"
  bottom: "fc7_mbox_loc_perm"
  top: "fc7_mbox_loc_flat"
  flatten_param {
    axis: 1
  }
}
layer {
  name: "fc7_mbox_conf"
  type: "Convolution"
  bottom: "fc7"
  top: "fc7_mbox_conf"
  param {
    lr_mult: 1
    decay_mult: 1
  }
  param {
    lr_mult: 2
    decay_mult: 0
  }
  convolution_param {
    num_output: 66
    pad: 1
    kernel_size: 3
    stride: 1
    weight_filler {
      type: "xavier"
    }
    bias_filler {
      type: "constant"
      value: 0
    }
  }
}
layer {
  name: "fc7_mbox_conf_perm"
  type: "Permute"
  bottom: "fc7_mbox_conf"
  top: "fc7_mbox_conf_perm"
  permute_param {
    order: 0
    order: 2
    order: 3
    order: 1
  }
}
layer {
  name: "fc7_mbox_conf_flat"
  type: "Flatten"
  bottom: "fc7_mbox_conf_perm"
  top: "fc7_mbox_conf_flat"
  flatten_param {
    axis: 1
  }
}
layer {
  name: "fc7_mbox_priorbox"
  type: "PriorBox"
  bottom: "fc7"
  bottom: "data"
  top: "fc7_mbox_priorbox"
  prior_box_param {
    min_size: 60
    max_size: 111
    aspect_ratio: 2
    aspect_ratio: 3
    flip: true
    clip: false
    variance: 0.1
    variance: 0.1
    variance: 0.2
    variance: 0.2
    step: 16
    offset: 0.5
  }
}
layer {
  name: "conv6_2_mbox_loc"
  type: "Convolution"
  bottom: "conv6_2"
  top: "conv6_2_mbox_loc"
  param {
    lr_mult: 1
    decay_mult: 1
  }
  param {
    lr_mult: 2
    decay_mult: 0
  }
  convolution_param {
    num_output: 24
    pad: 1
    kernel_size: 3
    stride: 1
    weight_filler {
      type: "xavier"
    }
    bias_filler {
      type: "constant"
      value: 0
    }
  }
}
layer {
  name: "conv6_2_mbox_loc_perm"
  type: "Permute"
  bottom: "conv6_2_mbox_loc"
  top: "conv6_2_mbox_loc_perm"
  permute_param {
    order: 0
    order: 2
    order: 3
    order: 1
  }
}
layer {
  name: "conv6_2_mbox_loc_flat"
  type: "Flatten"
  bottom: "conv6_2_mbox_loc_perm"
  top: "conv6_2_mbox_loc_flat"
  flatten_param {
    axis: 1
  }
}
layer {
  name: "conv6_2_mbox_conf"
  type: "Convolution"
  bottom: "conv6_2"
  top: "conv6_2_mbox_conf"
  param {
    lr_mult: 1
    decay_mult: 1
  }
  param {
    lr_mult: 2
    decay_mult: 0
  }
  convolution_param {
    num_output: 66
    pad: 1
    kernel_size: 3
    stride: 1
    weight_filler {
      type: "xavier"
    }
    bias_filler {
      type: "constant"
      value: 0
    }
  }
}
layer {
  name: "conv6_2_mbox_conf_perm"
  type: "Permute"
  bottom: "conv6_2_mbox_conf"
  top: "conv6_2_mbox_conf_perm"
  permute_param {
    order: 0
    order: 2
    order: 3
    order: 1
  }
}
layer {
  name: "conv6_2_mbox_conf_flat"
  type: "Flatten"
  bottom: "conv6_2_mbox_conf_perm"
  top: "conv6_2_mbox_conf_flat"
  flatten_param {
    axis: 1
  }
}
layer {
  name: "conv6_2_mbox_priorbox"
  type: "PriorBox"
  bottom: "conv6_2"
  bottom: "data"
  top: "conv6_2_mbox_priorbox"
  prior_box_param {
    min_size: 111
    max_size: 162
    aspect_ratio: 2
    aspect_ratio: 3
    flip: true
    clip: false
    variance: 0.1
    variance: 0.1
    variance: 0.2
    variance: 0.2
    step: 32
    offset: 0.5
  }
}
layer {
  name: "conv7_2_mbox_loc"
  type: "Convolution"
  bottom: "conv7_2"
  top: "conv7_2_mbox_loc"
  param {
    lr_mult: 1
    decay_mult: 1
  }
  param {
    lr_mult: 2
    decay_mult: 0
  }
  convolution_param {
    num_output: 24
    pad: 1
    kernel_size: 3
    stride: 1
    weight_filler {
      type: "xavier"
    }
    bias_filler {
      type: "constant"
      value: 0
    }
  }
}
layer {
  name: "conv7_2_mbox_loc_perm"
  type: "Permute"
  bottom: "conv7_2_mbox_loc"
  top: "conv7_2_mbox_loc_perm"
  permute_param {
    order: 0
    order: 2
    order: 3
    order: 1
  }
}
layer {
  name: "conv7_2_mbox_loc_flat"
  type: "Flatten"
  bottom: "conv7_2_mbox_loc_perm"
  top: "conv7_2_mbox_loc_flat"
  flatten_param {
    axis: 1
  }
}
layer {
  name: "conv7_2_mbox_conf"
  type: "Convolution"
  bottom: "conv7_2"
  top: "conv7_2_mbox_conf"
  param {
    lr_mult: 1
    decay_mult: 1
  }
  param {
    lr_mult: 2
    decay_mult: 0
  }
  convolution_param {
    num_output: 66
    pad: 1
    kernel_size: 3
    stride: 1
    weight_filler {
      type: "xavier"
    }
    bias_filler {
      type: "constant"
      value: 0
    }
  }
}
layer {
  name: "conv7_2_mbox_conf_perm"
  type: "Permute"
  bottom: "conv7_2_mbox_conf"
  top: "conv7_2_mbox_conf_perm"
  permute_param {
    order: 0
    order: 2
    order: 3
    order: 1
  }
}
layer {
  name: "conv7_2_mbox_conf_flat"
  type: "Flatten"
  bottom: "conv7_2_mbox_conf_perm"
  top: "conv7_2_mbox_conf_flat"
  flatten_param {
    axis: 1
  }
}
layer {
  name: "conv7_2_mbox_priorbox"
  type: "PriorBox"
  bottom: "conv7_2"
  bottom: "data"
  top: "conv7_2_mbox_priorbox"
  prior_box_param {
    min_size: 162
    max_size: 213
    aspect_ratio: 2
    aspect_ratio: 3
    flip: true
    clip: false
    variance: 0.1
    variance: 0.1
    variance: 0.2
    variance: 0.2
    step: 64
    offset: 0.5
  }
}
layer {
  name: "conv8_2_mbox_loc"
  type: "Convolution"
  bottom: "conv8_2"
  top: "conv8_2_mbox_loc"
  param {
    lr_mult: 1
    decay_mult: 1
  }
  param {
    lr_mult: 2
    decay_mult: 0
  }
  convolution_param {
    num_output: 16
    pad: 1
    kernel_size: 3
    stride: 1
    weight_filler {
      type: "xavier"
    }
    bias_filler {
      type: "constant"
      value: 0
    }
  }
}
layer {
  name: "conv8_2_mbox_loc_perm"
  type: "Permute"
  bottom: "conv8_2_mbox_loc"
  top: "conv8_2_mbox_loc_perm"
  permute_param {
    order: 0
    order: 2
    order: 3
    order: 1
  }
}
layer {
  name: "conv8_2_mbox_loc_flat"
  type: "Flatten"
  bottom: "conv8_2_mbox_loc_perm"
  top: "conv8_2_mbox_loc_flat"
  flatten_param {
    axis: 1
  }
}
layer {
  name: "conv8_2_mbox_conf"
  type: "Convolution"
  bottom: "conv8_2"
  top: "conv8_2_mbox_conf"
  param {
    lr_mult: 1
    decay_mult: 1
  }
  param {
    lr_mult: 2
    decay_mult: 0
  }
  convolution_param {
    num_output: 44
    pad: 1
    kernel_size: 3
    stride: 1
    weight_filler {
      type: "xavier"
    }
    bias_filler {
      type: "constant"
      value: 0
    }
  }
}
layer {
  name: "conv8_2_mbox_conf_perm"
  type: "Permute"
  bottom: "conv8_2_mbox_conf"
  top: "conv8_2_mbox_conf_perm"
  permute_param {
    order: 0
    order: 2
    order: 3
    order: 1
  }
}
layer {
  name: "conv8_2_mbox_conf_flat"
  type: "Flatten"
  bottom: "conv8_2_mbox_conf_perm"
  top: "conv8_2_mbox_conf_flat"
  flatten_param {
    axis: 1
  }
}
layer {
  name: "conv8_2_mbox_priorbox"
  type: "PriorBox"
  bottom: "conv8_2"
  bottom: "data"
  top: "conv8_2_mbox_priorbox"
  prior_box_param {
    min_size: 213
    max_size: 264
    aspect_ratio: 2
    flip: true
    clip: false
    variance: 0.1
    variance: 0.1
    variance: 0.2
    variance: 0.2
    step: 100
    offset: 0.5
  }
}
layer {
  name: "conv9_2_mbox_loc"
  type: "Convolution"
  bottom: "conv9_2"
  top: "conv9_2_mbox_loc"
  param {
    lr_mult: 1
    decay_mult: 1
  }
  param {
    lr_mult: 2
    decay_mult: 0
  }
  convolution_param {
    num_output: 16
    pad: 1
    kernel_size: 3
    stride: 1
    weight_filler {
      type: "xavier"
    }
    bias_filler {
      type: "constant"
      value: 0
    }
  }
}
layer {
  name: "conv9_2_mbox_loc_perm"
  type: "Permute"
  bottom: "conv9_2_mbox_loc"
  top: "conv9_2_mbox_loc_perm"
  permute_param {
    order: 0
    order: 2
    order: 3
    order: 1
  }
}
layer {
  name: "conv9_2_mbox_loc_flat"
  type: "Flatten"
  bottom: "conv9_2_mbox_loc_perm"
  top: "conv9_2_mbox_loc_flat"
  flatten_param {
    axis: 1
  }
}
layer {
  name: "conv9_2_mbox_conf"
  type: "Convolution"
  bottom: "conv9_2"
  top: "conv9_2_mbox_conf"
  param {
    lr_mult: 1
    decay_mult: 1
  }
  param {
    lr_mult: 2
    decay_mult: 0
  }
  convolution_param {
    num_output: 44
    pad: 1
    kernel_size: 3
    stride: 1
    weight_filler {
      type: "xavier"
    }
    bias_filler {
      type: "constant"
      value: 0
    }
  }
}
layer {
  name: "conv9_2_mbox_conf_perm"
  type: "Permute"
  bottom: "conv9_2_mbox_conf"
  top: "conv9_2_mbox_conf_perm"
  permute_param {
    order: 0
    order: 2
    order: 3
    order: 1
  }
}
layer {
  name: "conv9_2_mbox_conf_flat"
  type: "Flatten"
  bottom: "conv9_2_mbox_conf_perm"
  top: "conv9_2_mbox_conf_flat"
  flatten_param {
    axis: 1
  }
}
layer {
  name: "conv9_2_mbox_priorbox"
  type: "PriorBox"
  bottom: "conv9_2"
  bottom: "data"
  top: "conv9_2_mbox_priorbox"
  prior_box_param {
    min_size: 264
    max_size: 315
    aspect_ratio: 2
    flip: true
    clip: false
    variance: 0.1
    variance: 0.1
    variance: 0.2
    variance: 0.2
    step: 300
    offset: 0.5
  }
}
layer {
  name: "mbox_loc"
  type: "Concat"
  bottom: "conv4_3_norm_mbox_loc_flat"
  bottom: "fc7_mbox_loc_flat"
  bottom: "conv6_2_mbox_loc_flat"
  bottom: "conv7_2_mbox_loc_flat"
  bottom: "conv8_2_mbox_loc_flat"
  bottom: "conv9_2_mbox_loc_flat"
  top: "mbox_loc"
  concat_param {
    axis: 1
  }
}
layer {
  name: "mbox_conf"
  type: "Concat"
  bottom: "conv4_3_norm_mbox_conf_flat"
  bottom: "fc7_mbox_conf_flat"
  bottom: "conv6_2_mbox_conf_flat"
  bottom: "conv7_2_mbox_conf_flat"
  bottom: "conv8_2_mbox_conf_flat"
  bottom: "conv9_2_mbox_conf_flat"
  top: "mbox_conf"
  concat_param {
    axis: 1
  }
}
layer {
  name: "mbox_priorbox"
  type: "Concat"
  bottom: "conv4_3_norm_mbox_priorbox"
  bottom: "fc7_mbox_priorbox"
  bottom: "conv6_2_mbox_priorbox"
  bottom: "conv7_2_mbox_priorbox"
  bottom: "conv8_2_mbox_priorbox"
  bottom: "conv9_2_mbox_priorbox"
  top: "mbox_priorbox"
  concat_param {
    axis: 2
  }
}
layer {
  name: "mbox_loss"
  type: "MultiBoxLoss"
  bottom: "mbox_loc"
  bottom: "mbox_conf"
  bottom: "mbox_priorbox"
  bottom: "label"
  top: "mbox_loss"
  include {
    phase: TRAIN
  }
  propagate_down: true
  propagate_down: true
  propagate_down: false
  propagate_down: false
  loss_param {
    normalization: VALID
  }
  multibox_loss_param {
    loc_loss_type: SMOOTH_L1
    conf_loss_type: SOFTMAX
    loc_weight: 1
    num_classes: 11
    share_location: true
    match_type: PER_PREDICTION
    overlap_threshold: 0.5
    use_prior_for_matching: true
    background_label_id: 0
    use_difficult_gt: true
    neg_pos_ratio: 3
    neg_overlap: 0.5
    code_type: CENTER_SIZE
    ignore_cross_boundary_bbox: false
    mining_type: MAX_NEGATIVE
  }
}
I0401 21:09:11.460304 12342 layer_factory.hpp:77] Creating layer data
I0401 21:09:11.460922 12342 net.cpp:100] Creating Layer data
I0401 21:09:11.461030 12342 net.cpp:408] data -> data
I0401 21:09:11.461149 12342 net.cpp:408] data -> label
I0401 21:09:11.482780 12357 db_lmdb.cpp:35] Opened lmdb examples/NWPU_VHR/NWPU_VHR_trainval_lmdb
I0401 21:09:11.524785 12342 annotated_data_layer.cpp:62] output data size: 32,3,300,300
I0401 21:09:11.675071 12342 net.cpp:150] Setting up data
I0401 21:09:11.676239 12342 net.cpp:157] Top shape: 32 3 300 300 (8640000)
I0401 21:09:11.676272 12342 net.cpp:157] Top shape: 1 1 4 8 (32)
I0401 21:09:11.676295 12342 net.cpp:165] Memory required for data: 34560128
I0401 21:09:11.676326 12342 layer_factory.hpp:77] Creating layer data_data_0_split
I0401 21:09:11.676358 12342 net.cpp:100] Creating Layer data_data_0_split
I0401 21:09:11.676385 12342 net.cpp:434] data_data_0_split <- data
I0401 21:09:11.676432 12342 net.cpp:408] data_data_0_split -> data_data_0_split_0
I0401 21:09:11.676479 12342 net.cpp:408] data_data_0_split -> data_data_0_split_1
I0401 21:09:11.676510 12342 net.cpp:408] data_data_0_split -> data_data_0_split_2
I0401 21:09:11.676546 12342 net.cpp:408] data_data_0_split -> data_data_0_split_3
I0401 21:09:11.677292 12342 net.cpp:408] data_data_0_split -> data_data_0_split_4
I0401 21:09:11.677327 12342 net.cpp:408] data_data_0_split -> data_data_0_split_5
I0401 21:09:11.677357 12342 net.cpp:408] data_data_0_split -> data_data_0_split_6
I0401 21:09:11.677502 12342 net.cpp:150] Setting up data_data_0_split
I0401 21:09:11.677533 12342 net.cpp:157] Top shape: 32 3 300 300 (8640000)
I0401 21:09:11.677557 12342 net.cpp:157] Top shape: 32 3 300 300 (8640000)
I0401 21:09:11.677580 12342 net.cpp:157] Top shape: 32 3 300 300 (8640000)
I0401 21:09:11.677603 12342 net.cpp:157] Top shape: 32 3 300 300 (8640000)
I0401 21:09:11.677626 12342 net.cpp:157] Top shape: 32 3 300 300 (8640000)
I0401 21:09:11.677649 12342 net.cpp:157] Top shape: 32 3 300 300 (8640000)
I0401 21:09:11.677671 12342 net.cpp:157] Top shape: 32 3 300 300 (8640000)
I0401 21:09:11.677693 12342 net.cpp:165] Memory required for data: 276480128
I0401 21:09:11.677713 12342 layer_factory.hpp:77] Creating layer conv1_1
I0401 21:09:11.677780 12342 net.cpp:100] Creating Layer conv1_1
I0401 21:09:11.677806 12342 net.cpp:434] conv1_1 <- data_data_0_split_0
I0401 21:09:11.677834 12342 net.cpp:408] conv1_1 -> conv1_1
I0401 21:09:12.856938 12342 net.cpp:150] Setting up conv1_1
I0401 21:09:12.856973 12342 net.cpp:157] Top shape: 32 64 300 300 (184320000)
I0401 21:09:12.856979 12342 net.cpp:165] Memory required for data: 1013760128
I0401 21:09:12.857007 12342 layer_factory.hpp:77] Creating layer relu1_1
I0401 21:09:12.857023 12342 net.cpp:100] Creating Layer relu1_1
I0401 21:09:12.857033 12342 net.cpp:434] relu1_1 <- conv1_1
I0401 21:09:12.857043 12342 net.cpp:395] relu1_1 -> conv1_1 (in-place)
I0401 21:09:12.873946 12342 net.cpp:150] Setting up relu1_1
I0401 21:09:12.873967 12342 net.cpp:157] Top shape: 32 64 300 300 (184320000)
I0401 21:09:12.873973 12342 net.cpp:165] Memory required for data: 1751040128
I0401 21:09:12.873980 12342 layer_factory.hpp:77] Creating layer conv1_2
I0401 21:09:12.874001 12342 net.cpp:100] Creating Layer conv1_2
I0401 21:09:12.874009 12342 net.cpp:434] conv1_2 <- conv1_1
I0401 21:09:12.874018 12342 net.cpp:408] conv1_2 -> conv1_2
I0401 21:09:12.876960 12342 net.cpp:150] Setting up conv1_2
I0401 21:09:12.876979 12342 net.cpp:157] Top shape: 32 64 300 300 (184320000)
I0401 21:09:12.876986 12342 net.cpp:165] Memory required for data: 2488320128
I0401 21:09:12.877001 12342 layer_factory.hpp:77] Creating layer relu1_2
I0401 21:09:12.877010 12342 net.cpp:100] Creating Layer relu1_2
I0401 21:09:12.877018 12342 net.cpp:434] relu1_2 <- conv1_2
I0401 21:09:12.877027 12342 net.cpp:395] relu1_2 -> conv1_2 (in-place)
I0401 21:09:12.877223 12342 net.cpp:150] Setting up relu1_2
I0401 21:09:12.877236 12342 net.cpp:157] Top shape: 32 64 300 300 (184320000)
I0401 21:09:12.877243 12342 net.cpp:165] Memory required for data: 3225600128
I0401 21:09:12.877249 12342 layer_factory.hpp:77] Creating layer pool1
I0401 21:09:12.877259 12342 net.cpp:100] Creating Layer pool1
I0401 21:09:12.877265 12342 net.cpp:434] pool1 <- conv1_2
I0401 21:09:12.877274 12342 net.cpp:408] pool1 -> pool1
I0401 21:09:12.877333 12342 net.cpp:150] Setting up pool1
I0401 21:09:12.877344 12342 net.cpp:157] Top shape: 32 64 150 150 (46080000)
I0401 21:09:12.877349 12342 net.cpp:165] Memory required for data: 3409920128
I0401 21:09:12.877357 12342 layer_factory.hpp:77] Creating layer conv2_1
I0401 21:09:12.877367 12342 net.cpp:100] Creating Layer conv2_1
I0401 21:09:12.877375 12342 net.cpp:434] conv2_1 <- pool1
I0401 21:09:12.877383 12342 net.cpp:408] conv2_1 -> conv2_1
I0401 21:09:12.880131 12342 net.cpp:150] Setting up conv2_1
I0401 21:09:12.880151 12342 net.cpp:157] Top shape: 32 128 150 150 (92160000)
I0401 21:09:12.880156 12342 net.cpp:165] Memory required for data: 3778560128
I0401 21:09:12.880169 12342 layer_factory.hpp:77] Creating layer relu2_1
I0401 21:09:12.880193 12342 net.cpp:100] Creating Layer relu2_1
I0401 21:09:12.880203 12342 net.cpp:434] relu2_1 <- conv2_1
I0401 21:09:12.880210 12342 net.cpp:395] relu2_1 -> conv2_1 (in-place)
I0401 21:09:12.880412 12342 net.cpp:150] Setting up relu2_1
I0401 21:09:12.880426 12342 net.cpp:157] Top shape: 32 128 150 150 (92160000)
I0401 21:09:12.880432 12342 net.cpp:165] Memory required for data: 4147200128
I0401 21:09:12.880439 12342 layer_factory.hpp:77] Creating layer conv2_2
I0401 21:09:12.880450 12342 net.cpp:100] Creating Layer conv2_2
I0401 21:09:12.880460 12342 net.cpp:434] conv2_2 <- conv2_1
I0401 21:09:12.880468 12342 net.cpp:408] conv2_2 -> conv2_2
I0401 21:09:12.883853 12342 net.cpp:150] Setting up conv2_2
I0401 21:09:12.883872 12342 net.cpp:157] Top shape: 32 128 150 150 (92160000)
I0401 21:09:12.883878 12342 net.cpp:165] Memory required for data: 4515840128
I0401 21:09:12.883888 12342 layer_factory.hpp:77] Creating layer relu2_2
I0401 21:09:12.883898 12342 net.cpp:100] Creating Layer relu2_2
I0401 21:09:12.883906 12342 net.cpp:434] relu2_2 <- conv2_2
I0401 21:09:12.883916 12342 net.cpp:395] relu2_2 -> conv2_2 (in-place)
I0401 21:09:12.884773 12342 net.cpp:150] Setting up relu2_2
I0401 21:09:12.884791 12342 net.cpp:157] Top shape: 32 128 150 150 (92160000)
I0401 21:09:12.884797 12342 net.cpp:165] Memory required for data: 4884480128
I0401 21:09:12.884805 12342 layer_factory.hpp:77] Creating layer pool2
I0401 21:09:12.884816 12342 net.cpp:100] Creating Layer pool2
I0401 21:09:12.884824 12342 net.cpp:434] pool2 <- conv2_2
I0401 21:09:12.884832 12342 net.cpp:408] pool2 -> pool2
I0401 21:09:12.884883 12342 net.cpp:150] Setting up pool2
I0401 21:09:12.884897 12342 net.cpp:157] Top shape: 32 128 75 75 (23040000)
I0401 21:09:12.884902 12342 net.cpp:165] Memory required for data: 4976640128
I0401 21:09:12.884910 12342 layer_factory.hpp:77] Creating layer conv3_1
I0401 21:09:12.884924 12342 net.cpp:100] Creating Layer conv3_1
I0401 21:09:12.884932 12342 net.cpp:434] conv3_1 <- pool2
I0401 21:09:12.884940 12342 net.cpp:408] conv3_1 -> conv3_1
I0401 21:09:12.907873 12342 net.cpp:150] Setting up conv3_1
I0401 21:09:12.907907 12342 net.cpp:157] Top shape: 32 256 75 75 (46080000)
I0401 21:09:12.907912 12342 net.cpp:165] Memory required for data: 5160960128
I0401 21:09:12.907938 12342 layer_factory.hpp:77] Creating layer relu3_1
I0401 21:09:12.907953 12342 net.cpp:100] Creating Layer relu3_1
I0401 21:09:12.907963 12342 net.cpp:434] relu3_1 <- conv3_1
I0401 21:09:12.907971 12342 net.cpp:395] relu3_1 -> conv3_1 (in-place)
I0401 21:09:12.908210 12342 net.cpp:150] Setting up relu3_1
I0401 21:09:12.908227 12342 net.cpp:157] Top shape: 32 256 75 75 (46080000)
I0401 21:09:12.908234 12342 net.cpp:165] Memory required for data: 5345280128
I0401 21:09:12.908241 12342 layer_factory.hpp:77] Creating layer conv3_2
I0401 21:09:12.908257 12342 net.cpp:100] Creating Layer conv3_2
I0401 21:09:12.908270 12342 net.cpp:434] conv3_2 <- conv3_1
I0401 21:09:12.908284 12342 net.cpp:408] conv3_2 -> conv3_2
I0401 21:09:12.916738 12342 net.cpp:150] Setting up conv3_2
I0401 21:09:12.916759 12342 net.cpp:157] Top shape: 32 256 75 75 (46080000)
I0401 21:09:12.916770 12342 net.cpp:165] Memory required for data: 5529600128
I0401 21:09:12.916785 12342 layer_factory.hpp:77] Creating layer relu3_2
I0401 21:09:12.916793 12342 net.cpp:100] Creating Layer relu3_2
I0401 21:09:12.916800 12342 net.cpp:434] relu3_2 <- conv3_2
I0401 21:09:12.916811 12342 net.cpp:395] relu3_2 -> conv3_2 (in-place)
I0401 21:09:12.917052 12342 net.cpp:150] Setting up relu3_2
I0401 21:09:12.917069 12342 net.cpp:157] Top shape: 32 256 75 75 (46080000)
I0401 21:09:12.917079 12342 net.cpp:165] Memory required for data: 5713920128
I0401 21:09:12.917088 12342 layer_factory.hpp:77] Creating layer conv3_3
I0401 21:09:12.917109 12342 net.cpp:100] Creating Layer conv3_3
I0401 21:09:12.917115 12342 net.cpp:434] conv3_3 <- conv3_2
I0401 21:09:12.917125 12342 net.cpp:408] conv3_3 -> conv3_3
I0401 21:09:12.941779 12342 net.cpp:150] Setting up conv3_3
I0401 21:09:12.941831 12342 net.cpp:157] Top shape: 32 256 75 75 (46080000)
I0401 21:09:12.941838 12342 net.cpp:165] Memory required for data: 5898240128
I0401 21:09:12.941859 12342 layer_factory.hpp:77] Creating layer relu3_3
I0401 21:09:12.941874 12342 net.cpp:100] Creating Layer relu3_3
I0401 21:09:12.941882 12342 net.cpp:434] relu3_3 <- conv3_3
I0401 21:09:12.941891 12342 net.cpp:395] relu3_3 -> conv3_3 (in-place)
I0401 21:09:12.942795 12342 net.cpp:150] Setting up relu3_3
I0401 21:09:12.942813 12342 net.cpp:157] Top shape: 32 256 75 75 (46080000)
I0401 21:09:12.942824 12342 net.cpp:165] Memory required for data: 6082560128
I0401 21:09:12.942832 12342 layer_factory.hpp:77] Creating layer pool3
I0401 21:09:12.942843 12342 net.cpp:100] Creating Layer pool3
I0401 21:09:12.942849 12342 net.cpp:434] pool3 <- conv3_3
I0401 21:09:12.942858 12342 net.cpp:408] pool3 -> pool3
I0401 21:09:12.942926 12342 net.cpp:150] Setting up pool3
I0401 21:09:12.942943 12342 net.cpp:157] Top shape: 32 256 38 38 (11829248)
I0401 21:09:12.942950 12342 net.cpp:165] Memory required for data: 6129877120
I0401 21:09:12.942957 12342 layer_factory.hpp:77] Creating layer conv4_1
I0401 21:09:12.942973 12342 net.cpp:100] Creating Layer conv4_1
I0401 21:09:12.942981 12342 net.cpp:434] conv4_1 <- pool3
I0401 21:09:12.942991 12342 net.cpp:408] conv4_1 -> conv4_1
I0401 21:09:12.974516 12342 net.cpp:150] Setting up conv4_1
I0401 21:09:12.974550 12342 net.cpp:157] Top shape: 32 512 38 38 (23658496)
I0401 21:09:12.974556 12342 net.cpp:165] Memory required for data: 6224511104
I0401 21:09:12.974576 12342 layer_factory.hpp:77] Creating layer relu4_1
I0401 21:09:12.974591 12342 net.cpp:100] Creating Layer relu4_1
I0401 21:09:12.974598 12342 net.cpp:434] relu4_1 <- conv4_1
I0401 21:09:12.974611 12342 net.cpp:395] relu4_1 -> conv4_1 (in-place)
I0401 21:09:12.974851 12342 net.cpp:150] Setting up relu4_1
I0401 21:09:12.974870 12342 net.cpp:157] Top shape: 32 512 38 38 (23658496)
I0401 21:09:12.974875 12342 net.cpp:165] Memory required for data: 6319145088
I0401 21:09:12.974881 12342 layer_factory.hpp:77] Creating layer conv4_2
I0401 21:09:12.974903 12342 net.cpp:100] Creating Layer conv4_2
I0401 21:09:12.974916 12342 net.cpp:434] conv4_2 <- conv4_1
I0401 21:09:12.974930 12342 net.cpp:408] conv4_2 -> conv4_2
I0401 21:09:13.031770 12342 net.cpp:150] Setting up conv4_2
I0401 21:09:13.031805 12342 net.cpp:157] Top shape: 32 512 38 38 (23658496)
I0401 21:09:13.031811 12342 net.cpp:165] Memory required for data: 6413779072
I0401 21:09:13.031838 12342 layer_factory.hpp:77] Creating layer relu4_2
I0401 21:09:13.031853 12342 net.cpp:100] Creating Layer relu4_2
I0401 21:09:13.031862 12342 net.cpp:434] relu4_2 <- conv4_2
I0401 21:09:13.031872 12342 net.cpp:395] relu4_2 -> conv4_2 (in-place)
I0401 21:09:13.032119 12342 net.cpp:150] Setting up relu4_2
I0401 21:09:13.032136 12342 net.cpp:157] Top shape: 32 512 38 38 (23658496)
I0401 21:09:13.032142 12342 net.cpp:165] Memory required for data: 6508413056
I0401 21:09:13.032150 12342 layer_factory.hpp:77] Creating layer conv4_3
I0401 21:09:13.032168 12342 net.cpp:100] Creating Layer conv4_3
I0401 21:09:13.032181 12342 net.cpp:434] conv4_3 <- conv4_2
I0401 21:09:13.032196 12342 net.cpp:408] conv4_3 -> conv4_3
I0401 21:09:13.090087 12342 net.cpp:150] Setting up conv4_3
I0401 21:09:13.090116 12342 net.cpp:157] Top shape: 32 512 38 38 (23658496)
I0401 21:09:13.090122 12342 net.cpp:165] Memory required for data: 6603047040
I0401 21:09:13.090140 12342 layer_factory.hpp:77] Creating layer relu4_3
I0401 21:09:13.090155 12342 net.cpp:100] Creating Layer relu4_3
I0401 21:09:13.090164 12342 net.cpp:434] relu4_3 <- conv4_3
I0401 21:09:13.090175 12342 net.cpp:395] relu4_3 -> conv4_3 (in-place)
I0401 21:09:13.090423 12342 net.cpp:150] Setting up relu4_3
I0401 21:09:13.090442 12342 net.cpp:157] Top shape: 32 512 38 38 (23658496)
I0401 21:09:13.090448 12342 net.cpp:165] Memory required for data: 6697681024
I0401 21:09:13.090454 12342 layer_factory.hpp:77] Creating layer conv4_3_relu4_3_0_split
I0401 21:09:13.090463 12342 net.cpp:100] Creating Layer conv4_3_relu4_3_0_split
I0401 21:09:13.090489 12342 net.cpp:434] conv4_3_relu4_3_0_split <- conv4_3
I0401 21:09:13.090505 12342 net.cpp:408] conv4_3_relu4_3_0_split -> conv4_3_relu4_3_0_split_0
I0401 21:09:13.090517 12342 net.cpp:408] conv4_3_relu4_3_0_split -> conv4_3_relu4_3_0_split_1
I0401 21:09:13.090582 12342 net.cpp:150] Setting up conv4_3_relu4_3_0_split
I0401 21:09:13.090600 12342 net.cpp:157] Top shape: 32 512 38 38 (23658496)
I0401 21:09:13.090608 12342 net.cpp:157] Top shape: 32 512 38 38 (23658496)
I0401 21:09:13.090613 12342 net.cpp:165] Memory required for data: 6886948992
I0401 21:09:13.090620 12342 layer_factory.hpp:77] Creating layer pool4
I0401 21:09:13.090632 12342 net.cpp:100] Creating Layer pool4
I0401 21:09:13.090641 12342 net.cpp:434] pool4 <- conv4_3_relu4_3_0_split_0
I0401 21:09:13.090651 12342 net.cpp:408] pool4 -> pool4
I0401 21:09:13.090711 12342 net.cpp:150] Setting up pool4
I0401 21:09:13.090728 12342 net.cpp:157] Top shape: 32 512 19 19 (5914624)
I0401 21:09:13.090734 12342 net.cpp:165] Memory required for data: 6910607488
I0401 21:09:13.090740 12342 layer_factory.hpp:77] Creating layer conv5_1
I0401 21:09:13.090761 12342 net.cpp:100] Creating Layer conv5_1
I0401 21:09:13.090775 12342 net.cpp:434] conv5_1 <- pool4
I0401 21:09:13.090787 12342 net.cpp:408] conv5_1 -> conv5_1
I0401 21:09:13.138008 12342 net.cpp:150] Setting up conv5_1
I0401 21:09:13.138247 12342 net.cpp:157] Top shape: 32 512 19 19 (5914624)
I0401 21:09:13.138964 12342 net.cpp:165] Memory required for data: 6934265984
I0401 21:09:13.139077 12342 layer_factory.hpp:77] Creating layer relu5_1
I0401 21:09:13.139158 12342 net.cpp:100] Creating Layer relu5_1
I0401 21:09:13.139231 12342 net.cpp:434] relu5_1 <- conv5_1
I0401 21:09:13.139308 12342 net.cpp:395] relu5_1 -> conv5_1 (in-place)
I0401 21:09:13.141441 12342 net.cpp:150] Setting up relu5_1
I0401 21:09:13.141571 12342 net.cpp:157] Top shape: 32 512 19 19 (5914624)
I0401 21:09:13.141644 12342 net.cpp:165] Memory required for data: 6957924480
I0401 21:09:13.141716 12342 layer_factory.hpp:77] Creating layer conv5_2
I0401 21:09:13.141824 12342 net.cpp:100] Creating Layer conv5_2
I0401 21:09:13.141896 12342 net.cpp:434] conv5_2 <- conv5_1
I0401 21:09:13.141971 12342 net.cpp:408] conv5_2 -> conv5_2
I0401 21:09:13.195101 12342 net.cpp:150] Setting up conv5_2
I0401 21:09:13.195170 12342 net.cpp:157] Top shape: 32 512 19 19 (5914624)
I0401 21:09:13.195195 12342 net.cpp:165] Memory required for data: 6981582976
I0401 21:09:13.195227 12342 layer_factory.hpp:77] Creating layer relu5_2
I0401 21:09:13.195261 12342 net.cpp:100] Creating Layer relu5_2
I0401 21:09:13.195286 12342 net.cpp:434] relu5_2 <- conv5_2
I0401 21:09:13.195313 12342 net.cpp:395] relu5_2 -> conv5_2 (in-place)
I0401 21:09:13.195597 12342 net.cpp:150] Setting up relu5_2
I0401 21:09:13.195631 12342 net.cpp:157] Top shape: 32 512 19 19 (5914624)
I0401 21:09:13.195652 12342 net.cpp:165] Memory required for data: 7005241472
I0401 21:09:13.195673 12342 layer_factory.hpp:77] Creating layer conv5_3
I0401 21:09:13.195708 12342 net.cpp:100] Creating Layer conv5_3
I0401 21:09:13.195731 12342 net.cpp:434] conv5_3 <- conv5_2
I0401 21:09:13.195760 12342 net.cpp:408] conv5_3 -> conv5_3
I0401 21:09:13.246889 12342 net.cpp:150] Setting up conv5_3
I0401 21:09:13.249083 12342 net.cpp:157] Top shape: 32 512 19 19 (5914624)
I0401 21:09:13.249110 12342 net.cpp:165] Memory required for data: 7028899968
I0401 21:09:13.249143 12342 layer_factory.hpp:77] Creating layer relu5_3
I0401 21:09:13.249181 12342 net.cpp:100] Creating Layer relu5_3
I0401 21:09:13.249207 12342 net.cpp:434] relu5_3 <- conv5_3
I0401 21:09:13.249235 12342 net.cpp:395] relu5_3 -> conv5_3 (in-place)
I0401 21:09:13.249541 12342 net.cpp:150] Setting up relu5_3
I0401 21:09:13.249573 12342 net.cpp:157] Top shape: 32 512 19 19 (5914624)
I0401 21:09:13.249595 12342 net.cpp:165] Memory required for data: 7052558464
I0401 21:09:13.249619 12342 layer_factory.hpp:77] Creating layer pool5
I0401 21:09:13.249644 12342 net.cpp:100] Creating Layer pool5
I0401 21:09:13.249675 12342 net.cpp:434] pool5 <- conv5_3
I0401 21:09:13.249717 12342 net.cpp:408] pool5 -> pool5
I0401 21:09:13.249828 12342 net.cpp:150] Setting up pool5
I0401 21:09:13.249861 12342 net.cpp:157] Top shape: 32 512 19 19 (5914624)
I0401 21:09:13.249882 12342 net.cpp:165] Memory required for data: 7076216960
I0401 21:09:13.249903 12342 layer_factory.hpp:77] Creating layer fc6
I0401 21:09:13.249938 12342 net.cpp:100] Creating Layer fc6
I0401 21:09:13.249961 12342 net.cpp:434] fc6 <- pool5
I0401 21:09:13.249989 12342 net.cpp:408] fc6 -> fc6
I0401 21:09:13.343204 12342 net.cpp:150] Setting up fc6
I0401 21:09:13.343236 12342 net.cpp:157] Top shape: 32 1024 19 19 (11829248)
I0401 21:09:13.343241 12342 net.cpp:165] Memory required for data: 7123533952
I0401 21:09:13.343256 12342 layer_factory.hpp:77] Creating layer relu6
I0401 21:09:13.343273 12342 net.cpp:100] Creating Layer relu6
I0401 21:09:13.343284 12342 net.cpp:434] relu6 <- fc6
I0401 21:09:13.343297 12342 net.cpp:395] relu6 -> fc6 (in-place)
I0401 21:09:13.344406 12342 net.cpp:150] Setting up relu6
I0401 21:09:13.344424 12342 net.cpp:157] Top shape: 32 1024 19 19 (11829248)
I0401 21:09:13.344430 12342 net.cpp:165] Memory required for data: 7170850944
I0401 21:09:13.344437 12342 layer_factory.hpp:77] Creating layer fc7
I0401 21:09:13.344453 12342 net.cpp:100] Creating Layer fc7
I0401 21:09:13.344462 12342 net.cpp:434] fc7 <- fc6
I0401 21:09:13.344473 12342 net.cpp:408] fc7 -> fc7
I0401 21:09:13.373044 12342 net.cpp:150] Setting up fc7
I0401 21:09:13.373075 12342 net.cpp:157] Top shape: 32 1024 19 19 (11829248)
I0401 21:09:13.373080 12342 net.cpp:165] Memory required for data: 7218167936
I0401 21:09:13.373095 12342 layer_factory.hpp:77] Creating layer relu7
I0401 21:09:13.373107 12342 net.cpp:100] Creating Layer relu7
I0401 21:09:13.373116 12342 net.cpp:434] relu7 <- fc7
I0401 21:09:13.373128 12342 net.cpp:395] relu7 -> fc7 (in-place)
I0401 21:09:13.373355 12342 net.cpp:150] Setting up relu7
I0401 21:09:13.373371 12342 net.cpp:157] Top shape: 32 1024 19 19 (11829248)
I0401 21:09:13.373378 12342 net.cpp:165] Memory required for data: 7265484928
I0401 21:09:13.373383 12342 layer_factory.hpp:77] Creating layer fc7_relu7_0_split
I0401 21:09:13.373394 12342 net.cpp:100] Creating Layer fc7_relu7_0_split
I0401 21:09:13.373402 12342 net.cpp:434] fc7_relu7_0_split <- fc7
I0401 21:09:13.373412 12342 net.cpp:408] fc7_relu7_0_split -> fc7_relu7_0_split_0
I0401 21:09:13.373425 12342 net.cpp:408] fc7_relu7_0_split -> fc7_relu7_0_split_1
I0401 21:09:13.373443 12342 net.cpp:408] fc7_relu7_0_split -> fc7_relu7_0_split_2
I0401 21:09:13.373456 12342 net.cpp:408] fc7_relu7_0_split -> fc7_relu7_0_split_3
I0401 21:09:13.373538 12342 net.cpp:150] Setting up fc7_relu7_0_split
I0401 21:09:13.373551 12342 net.cpp:157] Top shape: 32 1024 19 19 (11829248)
I0401 21:09:13.373562 12342 net.cpp:157] Top shape: 32 1024 19 19 (11829248)
I0401 21:09:13.373570 12342 net.cpp:157] Top shape: 32 1024 19 19 (11829248)
I0401 21:09:13.373579 12342 net.cpp:157] Top shape: 32 1024 19 19 (11829248)
I0401 21:09:13.373585 12342 net.cpp:165] Memory required for data: 7454752896
I0401 21:09:13.373591 12342 layer_factory.hpp:77] Creating layer conv6_1
I0401 21:09:13.373608 12342 net.cpp:100] Creating Layer conv6_1
I0401 21:09:13.373616 12342 net.cpp:434] conv6_1 <- fc7_relu7_0_split_0
I0401 21:09:13.373630 12342 net.cpp:408] conv6_1 -> conv6_1
I0401 21:09:13.379361 12342 net.cpp:150] Setting up conv6_1
I0401 21:09:13.379384 12342 net.cpp:157] Top shape: 32 256 19 19 (2957312)
I0401 21:09:13.379390 12342 net.cpp:165] Memory required for data: 7466582144
I0401 21:09:13.379403 12342 layer_factory.hpp:77] Creating layer conv6_1_relu
I0401 21:09:13.379415 12342 net.cpp:100] Creating Layer conv6_1_relu
I0401 21:09:13.379422 12342 net.cpp:434] conv6_1_relu <- conv6_1
I0401 21:09:13.379432 12342 net.cpp:395] conv6_1_relu -> conv6_1 (in-place)
I0401 21:09:13.379662 12342 net.cpp:150] Setting up conv6_1_relu
I0401 21:09:13.379678 12342 net.cpp:157] Top shape: 32 256 19 19 (2957312)
I0401 21:09:13.379684 12342 net.cpp:165] Memory required for data: 7478411392
I0401 21:09:13.379705 12342 layer_factory.hpp:77] Creating layer conv6_2
I0401 21:09:13.379722 12342 net.cpp:100] Creating Layer conv6_2
I0401 21:09:13.379730 12342 net.cpp:434] conv6_2 <- conv6_1
I0401 21:09:13.379740 12342 net.cpp:408] conv6_2 -> conv6_2
I0401 21:09:13.409584 12342 net.cpp:150] Setting up conv6_2
I0401 21:09:13.409617 12342 net.cpp:157] Top shape: 32 512 10 10 (1638400)
I0401 21:09:13.409624 12342 net.cpp:165] Memory required for data: 7484964992
I0401 21:09:13.409647 12342 layer_factory.hpp:77] Creating layer conv6_2_relu
I0401 21:09:13.409664 12342 net.cpp:100] Creating Layer conv6_2_relu
I0401 21:09:13.409674 12342 net.cpp:434] conv6_2_relu <- conv6_2
I0401 21:09:13.409687 12342 net.cpp:395] conv6_2_relu -> conv6_2 (in-place)
I0401 21:09:13.410641 12342 net.cpp:150] Setting up conv6_2_relu
I0401 21:09:13.410658 12342 net.cpp:157] Top shape: 32 512 10 10 (1638400)
I0401 21:09:13.410665 12342 net.cpp:165] Memory required for data: 7491518592
I0401 21:09:13.410671 12342 layer_factory.hpp:77] Creating layer conv6_2_conv6_2_relu_0_split
I0401 21:09:13.410681 12342 net.cpp:100] Creating Layer conv6_2_conv6_2_relu_0_split
I0401 21:09:13.410689 12342 net.cpp:434] conv6_2_conv6_2_relu_0_split <- conv6_2
I0401 21:09:13.410699 12342 net.cpp:408] conv6_2_conv6_2_relu_0_split -> conv6_2_conv6_2_relu_0_split_0
I0401 21:09:13.410713 12342 net.cpp:408] conv6_2_conv6_2_relu_0_split -> conv6_2_conv6_2_relu_0_split_1
I0401 21:09:13.410724 12342 net.cpp:408] conv6_2_conv6_2_relu_0_split -> conv6_2_conv6_2_relu_0_split_2
I0401 21:09:13.410738 12342 net.cpp:408] conv6_2_conv6_2_relu_0_split -> conv6_2_conv6_2_relu_0_split_3
I0401 21:09:13.410827 12342 net.cpp:150] Setting up conv6_2_conv6_2_relu_0_split
I0401 21:09:13.410840 12342 net.cpp:157] Top shape: 32 512 10 10 (1638400)
I0401 21:09:13.410847 12342 net.cpp:157] Top shape: 32 512 10 10 (1638400)
I0401 21:09:13.410854 12342 net.cpp:157] Top shape: 32 512 10 10 (1638400)
I0401 21:09:13.410862 12342 net.cpp:157] Top shape: 32 512 10 10 (1638400)
I0401 21:09:13.410869 12342 net.cpp:165] Memory required for data: 7517732992
I0401 21:09:13.410877 12342 layer_factory.hpp:77] Creating layer conv7_1
I0401 21:09:13.410897 12342 net.cpp:100] Creating Layer conv7_1
I0401 21:09:13.410905 12342 net.cpp:434] conv7_1 <- conv6_2_conv6_2_relu_0_split_0
I0401 21:09:13.410915 12342 net.cpp:408] conv7_1 -> conv7_1
I0401 21:09:13.413167 12342 net.cpp:150] Setting up conv7_1
I0401 21:09:13.413185 12342 net.cpp:157] Top shape: 32 128 10 10 (409600)
I0401 21:09:13.413192 12342 net.cpp:165] Memory required for data: 7519371392
I0401 21:09:13.413203 12342 layer_factory.hpp:77] Creating layer conv7_1_relu
I0401 21:09:13.413213 12342 net.cpp:100] Creating Layer conv7_1_relu
I0401 21:09:13.413220 12342 net.cpp:434] conv7_1_relu <- conv7_1
I0401 21:09:13.413229 12342 net.cpp:395] conv7_1_relu -> conv7_1 (in-place)
I0401 21:09:13.413452 12342 net.cpp:150] Setting up conv7_1_relu
I0401 21:09:13.413470 12342 net.cpp:157] Top shape: 32 128 10 10 (409600)
I0401 21:09:13.413475 12342 net.cpp:165] Memory required for data: 7521009792
I0401 21:09:13.413480 12342 layer_factory.hpp:77] Creating layer conv7_2
I0401 21:09:13.413497 12342 net.cpp:100] Creating Layer conv7_2
I0401 21:09:13.413506 12342 net.cpp:434] conv7_2 <- conv7_1
I0401 21:09:13.413517 12342 net.cpp:408] conv7_2 -> conv7_2
I0401 21:09:13.434952 12342 net.cpp:150] Setting up conv7_2
I0401 21:09:13.434979 12342 net.cpp:157] Top shape: 32 256 5 5 (204800)
I0401 21:09:13.434985 12342 net.cpp:165] Memory required for data: 7521828992
I0401 21:09:13.434998 12342 layer_factory.hpp:77] Creating layer conv7_2_relu
I0401 21:09:13.435010 12342 net.cpp:100] Creating Layer conv7_2_relu
I0401 21:09:13.435019 12342 net.cpp:434] conv7_2_relu <- conv7_2
I0401 21:09:13.435031 12342 net.cpp:395] conv7_2_relu -> conv7_2 (in-place)
I0401 21:09:13.435253 12342 net.cpp:150] Setting up conv7_2_relu
I0401 21:09:13.435268 12342 net.cpp:157] Top shape: 32 256 5 5 (204800)
I0401 21:09:13.435277 12342 net.cpp:165] Memory required for data: 7522648192
I0401 21:09:13.435283 12342 layer_factory.hpp:77] Creating layer conv7_2_conv7_2_relu_0_split
I0401 21:09:13.435305 12342 net.cpp:100] Creating Layer conv7_2_conv7_2_relu_0_split
I0401 21:09:13.435313 12342 net.cpp:434] conv7_2_conv7_2_relu_0_split <- conv7_2
I0401 21:09:13.435324 12342 net.cpp:408] conv7_2_conv7_2_relu_0_split -> conv7_2_conv7_2_relu_0_split_0
I0401 21:09:13.435338 12342 net.cpp:408] conv7_2_conv7_2_relu_0_split -> conv7_2_conv7_2_relu_0_split_1
I0401 21:09:13.435348 12342 net.cpp:408] conv7_2_conv7_2_relu_0_split -> conv7_2_conv7_2_relu_0_split_2
I0401 21:09:13.435358 12342 net.cpp:408] conv7_2_conv7_2_relu_0_split -> conv7_2_conv7_2_relu_0_split_3
I0401 21:09:13.435446 12342 net.cpp:150] Setting up conv7_2_conv7_2_relu_0_split
I0401 21:09:13.435458 12342 net.cpp:157] Top shape: 32 256 5 5 (204800)
I0401 21:09:13.435468 12342 net.cpp:157] Top shape: 32 256 5 5 (204800)
I0401 21:09:13.435477 12342 net.cpp:157] Top shape: 32 256 5 5 (204800)
I0401 21:09:13.435484 12342 net.cpp:157] Top shape: 32 256 5 5 (204800)
I0401 21:09:13.435492 12342 net.cpp:165] Memory required for data: 7525924992
I0401 21:09:13.435499 12342 layer_factory.hpp:77] Creating layer conv8_1
I0401 21:09:13.435515 12342 net.cpp:100] Creating Layer conv8_1
I0401 21:09:13.435524 12342 net.cpp:434] conv8_1 <- conv7_2_conv7_2_relu_0_split_0
I0401 21:09:13.435535 12342 net.cpp:408] conv8_1 -> conv8_1
I0401 21:09:13.437532 12342 net.cpp:150] Setting up conv8_1
I0401 21:09:13.437549 12342 net.cpp:157] Top shape: 32 128 5 5 (102400)
I0401 21:09:13.437556 12342 net.cpp:165] Memory required for data: 7526334592
I0401 21:09:13.437567 12342 layer_factory.hpp:77] Creating layer conv8_1_relu
I0401 21:09:13.437577 12342 net.cpp:100] Creating Layer conv8_1_relu
I0401 21:09:13.437584 12342 net.cpp:434] conv8_1_relu <- conv8_1
I0401 21:09:13.437594 12342 net.cpp:395] conv8_1_relu -> conv8_1 (in-place)
I0401 21:09:13.437844 12342 net.cpp:150] Setting up conv8_1_relu
I0401 21:09:13.437860 12342 net.cpp:157] Top shape: 32 128 5 5 (102400)
I0401 21:09:13.437865 12342 net.cpp:165] Memory required for data: 7526744192
I0401 21:09:13.437871 12342 layer_factory.hpp:77] Creating layer conv8_2
I0401 21:09:13.437887 12342 net.cpp:100] Creating Layer conv8_2
I0401 21:09:13.437896 12342 net.cpp:434] conv8_2 <- conv8_1
I0401 21:09:13.437906 12342 net.cpp:408] conv8_2 -> conv8_2
I0401 21:09:13.460054 12342 net.cpp:150] Setting up conv8_2
I0401 21:09:13.460083 12342 net.cpp:157] Top shape: 32 256 3 3 (73728)
I0401 21:09:13.460089 12342 net.cpp:165] Memory required for data: 7527039104
I0401 21:09:13.460103 12342 layer_factory.hpp:77] Creating layer conv8_2_relu
I0401 21:09:13.460115 12342 net.cpp:100] Creating Layer conv8_2_relu
I0401 21:09:13.460124 12342 net.cpp:434] conv8_2_relu <- conv8_2
I0401 21:09:13.460135 12342 net.cpp:395] conv8_2_relu -> conv8_2 (in-place)
I0401 21:09:13.461081 12342 net.cpp:150] Setting up conv8_2_relu
I0401 21:09:13.461098 12342 net.cpp:157] Top shape: 32 256 3 3 (73728)
I0401 21:09:13.461104 12342 net.cpp:165] Memory required for data: 7527334016
I0401 21:09:13.461110 12342 layer_factory.hpp:77] Creating layer conv8_2_conv8_2_relu_0_split
I0401 21:09:13.461122 12342 net.cpp:100] Creating Layer conv8_2_conv8_2_relu_0_split
I0401 21:09:13.461131 12342 net.cpp:434] conv8_2_conv8_2_relu_0_split <- conv8_2
I0401 21:09:13.461141 12342 net.cpp:408] conv8_2_conv8_2_relu_0_split -> conv8_2_conv8_2_relu_0_split_0
I0401 21:09:13.461155 12342 net.cpp:408] conv8_2_conv8_2_relu_0_split -> conv8_2_conv8_2_relu_0_split_1
I0401 21:09:13.461167 12342 net.cpp:408] conv8_2_conv8_2_relu_0_split -> conv8_2_conv8_2_relu_0_split_2
I0401 21:09:13.461177 12342 net.cpp:408] conv8_2_conv8_2_relu_0_split -> conv8_2_conv8_2_relu_0_split_3
I0401 21:09:13.461268 12342 net.cpp:150] Setting up conv8_2_conv8_2_relu_0_split
I0401 21:09:13.461282 12342 net.cpp:157] Top shape: 32 256 3 3 (73728)
I0401 21:09:13.461288 12342 net.cpp:157] Top shape: 32 256 3 3 (73728)
I0401 21:09:13.461295 12342 net.cpp:157] Top shape: 32 256 3 3 (73728)
I0401 21:09:13.461304 12342 net.cpp:157] Top shape: 32 256 3 3 (73728)
I0401 21:09:13.461320 12342 net.cpp:165] Memory required for data: 7528513664
I0401 21:09:13.461326 12342 layer_factory.hpp:77] Creating layer conv9_1
I0401 21:09:13.461345 12342 net.cpp:100] Creating Layer conv9_1
I0401 21:09:13.461354 12342 net.cpp:434] conv9_1 <- conv8_2_conv8_2_relu_0_split_0
I0401 21:09:13.461364 12342 net.cpp:408] conv9_1 -> conv9_1
I0401 21:09:13.463397 12342 net.cpp:150] Setting up conv9_1
I0401 21:09:13.463418 12342 net.cpp:157] Top shape: 32 128 3 3 (36864)
I0401 21:09:13.463424 12342 net.cpp:165] Memory required for data: 7528661120
I0401 21:09:13.463438 12342 layer_factory.hpp:77] Creating layer conv9_1_relu
I0401 21:09:13.463448 12342 net.cpp:100] Creating Layer conv9_1_relu
I0401 21:09:13.463455 12342 net.cpp:434] conv9_1_relu <- conv9_1
I0401 21:09:13.463465 12342 net.cpp:395] conv9_1_relu -> conv9_1 (in-place)
I0401 21:09:13.463690 12342 net.cpp:150] Setting up conv9_1_relu
I0401 21:09:13.463704 12342 net.cpp:157] Top shape: 32 128 3 3 (36864)
I0401 21:09:13.463711 12342 net.cpp:165] Memory required for data: 7528808576
I0401 21:09:13.463716 12342 layer_factory.hpp:77] Creating layer conv9_2
I0401 21:09:13.463732 12342 net.cpp:100] Creating Layer conv9_2
I0401 21:09:13.463742 12342 net.cpp:434] conv9_2 <- conv9_1
I0401 21:09:13.463750 12342 net.cpp:408] conv9_2 -> conv9_2
I0401 21:09:13.469826 12342 net.cpp:150] Setting up conv9_2
I0401 21:09:13.469851 12342 net.cpp:157] Top shape: 32 256 1 1 (8192)
I0401 21:09:13.469856 12342 net.cpp:165] Memory required for data: 7528841344
I0401 21:09:13.469869 12342 layer_factory.hpp:77] Creating layer conv9_2_relu
I0401 21:09:13.469883 12342 net.cpp:100] Creating Layer conv9_2_relu
I0401 21:09:13.469893 12342 net.cpp:434] conv9_2_relu <- conv9_2
I0401 21:09:13.469903 12342 net.cpp:395] conv9_2_relu -> conv9_2 (in-place)
I0401 21:09:13.470136 12342 net.cpp:150] Setting up conv9_2_relu
I0401 21:09:13.470150 12342 net.cpp:157] Top shape: 32 256 1 1 (8192)
I0401 21:09:13.470156 12342 net.cpp:165] Memory required for data: 7528874112
I0401 21:09:13.470162 12342 layer_factory.hpp:77] Creating layer conv9_2_conv9_2_relu_0_split
I0401 21:09:13.470173 12342 net.cpp:100] Creating Layer conv9_2_conv9_2_relu_0_split
I0401 21:09:13.470181 12342 net.cpp:434] conv9_2_conv9_2_relu_0_split <- conv9_2
I0401 21:09:13.470190 12342 net.cpp:408] conv9_2_conv9_2_relu_0_split -> conv9_2_conv9_2_relu_0_split_0
I0401 21:09:13.470202 12342 net.cpp:408] conv9_2_conv9_2_relu_0_split -> conv9_2_conv9_2_relu_0_split_1
I0401 21:09:13.470213 12342 net.cpp:408] conv9_2_conv9_2_relu_0_split -> conv9_2_conv9_2_relu_0_split_2
I0401 21:09:13.470288 12342 net.cpp:150] Setting up conv9_2_conv9_2_relu_0_split
I0401 21:09:13.470299 12342 net.cpp:157] Top shape: 32 256 1 1 (8192)
I0401 21:09:13.470306 12342 net.cpp:157] Top shape: 32 256 1 1 (8192)
I0401 21:09:13.470314 12342 net.cpp:157] Top shape: 32 256 1 1 (8192)
I0401 21:09:13.470319 12342 net.cpp:165] Memory required for data: 7528972416
I0401 21:09:13.470325 12342 layer_factory.hpp:77] Creating layer conv4_3_norm
I0401 21:09:13.470337 12342 net.cpp:100] Creating Layer conv4_3_norm
I0401 21:09:13.470345 12342 net.cpp:434] conv4_3_norm <- conv4_3_relu4_3_0_split_1
I0401 21:09:13.470355 12342 net.cpp:408] conv4_3_norm -> conv4_3_norm
I0401 21:09:13.470561 12342 net.cpp:150] Setting up conv4_3_norm
I0401 21:09:13.470573 12342 net.cpp:157] Top shape: 32 512 38 38 (23658496)
I0401 21:09:13.470579 12342 net.cpp:165] Memory required for data: 7623606400
I0401 21:09:13.470587 12342 layer_factory.hpp:77] Creating layer conv4_3_norm_conv4_3_norm_0_split
I0401 21:09:13.470599 12342 net.cpp:100] Creating Layer conv4_3_norm_conv4_3_norm_0_split
I0401 21:09:13.470607 12342 net.cpp:434] conv4_3_norm_conv4_3_norm_0_split <- conv4_3_norm
I0401 21:09:13.470614 12342 net.cpp:408] conv4_3_norm_conv4_3_norm_0_split -> conv4_3_norm_conv4_3_norm_0_split_0
I0401 21:09:13.470625 12342 net.cpp:408] conv4_3_norm_conv4_3_norm_0_split -> conv4_3_norm_conv4_3_norm_0_split_1
I0401 21:09:13.470635 12342 net.cpp:408] conv4_3_norm_conv4_3_norm_0_split -> conv4_3_norm_conv4_3_norm_0_split_2
I0401 21:09:13.470716 12342 net.cpp:150] Setting up conv4_3_norm_conv4_3_norm_0_split
I0401 21:09:13.470729 12342 net.cpp:157] Top shape: 32 512 38 38 (23658496)
I0401 21:09:13.470736 12342 net.cpp:157] Top shape: 32 512 38 38 (23658496)
I0401 21:09:13.470744 12342 net.cpp:157] Top shape: 32 512 38 38 (23658496)
I0401 21:09:13.470749 12342 net.cpp:165] Memory required for data: 7907508352
I0401 21:09:13.470757 12342 layer_factory.hpp:77] Creating layer conv4_3_norm_mbox_loc
I0401 21:09:13.470769 12342 net.cpp:100] Creating Layer conv4_3_norm_mbox_loc
I0401 21:09:13.470777 12342 net.cpp:434] conv4_3_norm_mbox_loc <- conv4_3_norm_conv4_3_norm_0_split_0
I0401 21:09:13.470788 12342 net.cpp:408] conv4_3_norm_mbox_loc -> conv4_3_norm_mbox_loc
I0401 21:09:13.489861 12342 net.cpp:150] Setting up conv4_3_norm_mbox_loc
I0401 21:09:13.489886 12342 net.cpp:157] Top shape: 32 16 38 38 (739328)
I0401 21:09:13.489892 12342 net.cpp:165] Memory required for data: 7910465664
I0401 21:09:13.489903 12342 layer_factory.hpp:77] Creating layer conv4_3_norm_mbox_loc_perm
I0401 21:09:13.489918 12342 net.cpp:100] Creating Layer conv4_3_norm_mbox_loc_perm
I0401 21:09:13.489928 12342 net.cpp:434] conv4_3_norm_mbox_loc_perm <- conv4_3_norm_mbox_loc
I0401 21:09:13.489936 12342 net.cpp:408] conv4_3_norm_mbox_loc_perm -> conv4_3_norm_mbox_loc_perm
I0401 21:09:13.490098 12342 net.cpp:150] Setting up conv4_3_norm_mbox_loc_perm
I0401 21:09:13.490110 12342 net.cpp:157] Top shape: 32 38 38 16 (739328)
I0401 21:09:13.490116 12342 net.cpp:165] Memory required for data: 7913422976
I0401 21:09:13.490123 12342 layer_factory.hpp:77] Creating layer conv4_3_norm_mbox_loc_flat
I0401 21:09:13.490131 12342 net.cpp:100] Creating Layer conv4_3_norm_mbox_loc_flat
I0401 21:09:13.490139 12342 net.cpp:434] conv4_3_norm_mbox_loc_flat <- conv4_3_norm_mbox_loc_perm
I0401 21:09:13.490149 12342 net.cpp:408] conv4_3_norm_mbox_loc_flat -> conv4_3_norm_mbox_loc_flat
I0401 21:09:13.490203 12342 net.cpp:150] Setting up conv4_3_norm_mbox_loc_flat
I0401 21:09:13.490216 12342 net.cpp:157] Top shape: 32 23104 (739328)
I0401 21:09:13.490221 12342 net.cpp:165] Memory required for data: 7916380288
I0401 21:09:13.490227 12342 layer_factory.hpp:77] Creating layer conv4_3_norm_mbox_conf
I0401 21:09:13.490248 12342 net.cpp:100] Creating Layer conv4_3_norm_mbox_conf
I0401 21:09:13.490257 12342 net.cpp:434] conv4_3_norm_mbox_conf <- conv4_3_norm_conv4_3_norm_0_split_1
I0401 21:09:13.490267 12342 net.cpp:408] conv4_3_norm_mbox_conf -> conv4_3_norm_mbox_conf
I0401 21:09:13.496409 12342 net.cpp:150] Setting up conv4_3_norm_mbox_conf
I0401 21:09:13.496435 12342 net.cpp:157] Top shape: 32 44 38 38 (2033152)
I0401 21:09:13.496441 12342 net.cpp:165] Memory required for data: 7924512896
I0401 21:09:13.496455 12342 layer_factory.hpp:77] Creating layer conv4_3_norm_mbox_conf_perm
I0401 21:09:13.496469 12342 net.cpp:100] Creating Layer conv4_3_norm_mbox_conf_perm
I0401 21:09:13.496479 12342 net.cpp:434] conv4_3_norm_mbox_conf_perm <- conv4_3_norm_mbox_conf
I0401 21:09:13.496490 12342 net.cpp:408] conv4_3_norm_mbox_conf_perm -> conv4_3_norm_mbox_conf_perm
I0401 21:09:13.496639 12342 net.cpp:150] Setting up conv4_3_norm_mbox_conf_perm
I0401 21:09:13.496654 12342 net.cpp:157] Top shape: 32 38 38 44 (2033152)
I0401 21:09:13.496661 12342 net.cpp:165] Memory required for data: 7932645504
I0401 21:09:13.496668 12342 layer_factory.hpp:77] Creating layer conv4_3_norm_mbox_conf_flat
I0401 21:09:13.496680 12342 net.cpp:100] Creating Layer conv4_3_norm_mbox_conf_flat
I0401 21:09:13.496687 12342 net.cpp:434] conv4_3_norm_mbox_conf_flat <- conv4_3_norm_mbox_conf_perm
I0401 21:09:13.496698 12342 net.cpp:408] conv4_3_norm_mbox_conf_flat -> conv4_3_norm_mbox_conf_flat
I0401 21:09:13.496733 12342 net.cpp:150] Setting up conv4_3_norm_mbox_conf_flat
I0401 21:09:13.496745 12342 net.cpp:157] Top shape: 32 63536 (2033152)
I0401 21:09:13.496750 12342 net.cpp:165] Memory required for data: 7940778112
I0401 21:09:13.496757 12342 layer_factory.hpp:77] Creating layer conv4_3_norm_mbox_priorbox
I0401 21:09:13.496769 12342 net.cpp:100] Creating Layer conv4_3_norm_mbox_priorbox
I0401 21:09:13.496788 12342 net.cpp:434] conv4_3_norm_mbox_priorbox <- conv4_3_norm_conv4_3_norm_0_split_2
I0401 21:09:13.496799 12342 net.cpp:434] conv4_3_norm_mbox_priorbox <- data_data_0_split_1
I0401 21:09:13.496811 12342 net.cpp:408] conv4_3_norm_mbox_priorbox -> conv4_3_norm_mbox_priorbox
I0401 21:09:13.496856 12342 net.cpp:150] Setting up conv4_3_norm_mbox_priorbox
I0401 21:09:13.496867 12342 net.cpp:157] Top shape: 1 2 23104 (46208)
I0401 21:09:13.496873 12342 net.cpp:165] Memory required for data: 7940962944
I0401 21:09:13.496878 12342 layer_factory.hpp:77] Creating layer fc7_mbox_loc
I0401 21:09:13.496893 12342 net.cpp:100] Creating Layer fc7_mbox_loc
I0401 21:09:13.496901 12342 net.cpp:434] fc7_mbox_loc <- fc7_relu7_0_split_1
I0401 21:09:13.496912 12342 net.cpp:408] fc7_mbox_loc -> fc7_mbox_loc
I0401 21:09:13.501374 12342 net.cpp:150] Setting up fc7_mbox_loc
I0401 21:09:13.501395 12342 net.cpp:157] Top shape: 32 24 19 19 (277248)
I0401 21:09:13.501401 12342 net.cpp:165] Memory required for data: 7942071936
I0401 21:09:13.501415 12342 layer_factory.hpp:77] Creating layer fc7_mbox_loc_perm
I0401 21:09:13.501428 12342 net.cpp:100] Creating Layer fc7_mbox_loc_perm
I0401 21:09:13.501437 12342 net.cpp:434] fc7_mbox_loc_perm <- fc7_mbox_loc
I0401 21:09:13.501448 12342 net.cpp:408] fc7_mbox_loc_perm -> fc7_mbox_loc_perm
I0401 21:09:13.501590 12342 net.cpp:150] Setting up fc7_mbox_loc_perm
I0401 21:09:13.501603 12342 net.cpp:157] Top shape: 32 19 19 24 (277248)
I0401 21:09:13.501610 12342 net.cpp:165] Memory required for data: 7943180928
I0401 21:09:13.501618 12342 layer_factory.hpp:77] Creating layer fc7_mbox_loc_flat
I0401 21:09:13.501629 12342 net.cpp:100] Creating Layer fc7_mbox_loc_flat
I0401 21:09:13.501637 12342 net.cpp:434] fc7_mbox_loc_flat <- fc7_mbox_loc_perm
I0401 21:09:13.501647 12342 net.cpp:408] fc7_mbox_loc_flat -> fc7_mbox_loc_flat
I0401 21:09:13.501684 12342 net.cpp:150] Setting up fc7_mbox_loc_flat
I0401 21:09:13.501696 12342 net.cpp:157] Top shape: 32 8664 (277248)
I0401 21:09:13.501703 12342 net.cpp:165] Memory required for data: 7944289920
I0401 21:09:13.501708 12342 layer_factory.hpp:77] Creating layer fc7_mbox_conf
I0401 21:09:13.501724 12342 net.cpp:100] Creating Layer fc7_mbox_conf
I0401 21:09:13.502182 12342 net.cpp:434] fc7_mbox_conf <- fc7_relu7_0_split_2
I0401 21:09:13.502203 12342 net.cpp:408] fc7_mbox_conf -> fc7_mbox_conf
I0401 21:09:13.511139 12342 net.cpp:150] Setting up fc7_mbox_conf
I0401 21:09:13.511162 12342 net.cpp:157] Top shape: 32 66 19 19 (762432)
I0401 21:09:13.511168 12342 net.cpp:165] Memory required for data: 7947339648
I0401 21:09:13.511180 12342 layer_factory.hpp:77] Creating layer fc7_mbox_conf_perm
I0401 21:09:13.511194 12342 net.cpp:100] Creating Layer fc7_mbox_conf_perm
I0401 21:09:13.511204 12342 net.cpp:434] fc7_mbox_conf_perm <- fc7_mbox_conf
I0401 21:09:13.511215 12342 net.cpp:408] fc7_mbox_conf_perm -> fc7_mbox_conf_perm
I0401 21:09:13.511358 12342 net.cpp:150] Setting up fc7_mbox_conf_perm
I0401 21:09:13.511370 12342 net.cpp:157] Top shape: 32 19 19 66 (762432)
I0401 21:09:13.511375 12342 net.cpp:165] Memory required for data: 7950389376
I0401 21:09:13.511381 12342 layer_factory.hpp:77] Creating layer fc7_mbox_conf_flat
I0401 21:09:13.511392 12342 net.cpp:100] Creating Layer fc7_mbox_conf_flat
I0401 21:09:13.511399 12342 net.cpp:434] fc7_mbox_conf_flat <- fc7_mbox_conf_perm
I0401 21:09:13.511409 12342 net.cpp:408] fc7_mbox_conf_flat -> fc7_mbox_conf_flat
I0401 21:09:13.511445 12342 net.cpp:150] Setting up fc7_mbox_conf_flat
I0401 21:09:13.511457 12342 net.cpp:157] Top shape: 32 23826 (762432)
I0401 21:09:13.511462 12342 net.cpp:165] Memory required for data: 7953439104
I0401 21:09:13.511469 12342 layer_factory.hpp:77] Creating layer fc7_mbox_priorbox
I0401 21:09:13.511482 12342 net.cpp:100] Creating Layer fc7_mbox_priorbox
I0401 21:09:13.511489 12342 net.cpp:434] fc7_mbox_priorbox <- fc7_relu7_0_split_3
I0401 21:09:13.511497 12342 net.cpp:434] fc7_mbox_priorbox <- data_data_0_split_2
I0401 21:09:13.511523 12342 net.cpp:408] fc7_mbox_priorbox -> fc7_mbox_priorbox
I0401 21:09:13.511564 12342 net.cpp:150] Setting up fc7_mbox_priorbox
I0401 21:09:13.511576 12342 net.cpp:157] Top shape: 1 2 8664 (17328)
I0401 21:09:13.511581 12342 net.cpp:165] Memory required for data: 7953508416
I0401 21:09:13.511587 12342 layer_factory.hpp:77] Creating layer conv6_2_mbox_loc
I0401 21:09:13.511601 12342 net.cpp:100] Creating Layer conv6_2_mbox_loc
I0401 21:09:13.511610 12342 net.cpp:434] conv6_2_mbox_loc <- conv6_2_conv6_2_relu_0_split_1
I0401 21:09:13.511621 12342 net.cpp:408] conv6_2_mbox_loc -> conv6_2_mbox_loc
I0401 21:09:13.515080 12342 net.cpp:150] Setting up conv6_2_mbox_loc
I0401 21:09:13.515100 12342 net.cpp:157] Top shape: 32 24 10 10 (76800)
I0401 21:09:13.515106 12342 net.cpp:165] Memory required for data: 7953815616
I0401 21:09:13.515116 12342 layer_factory.hpp:77] Creating layer conv6_2_mbox_loc_perm
I0401 21:09:13.515128 12342 net.cpp:100] Creating Layer conv6_2_mbox_loc_perm
I0401 21:09:13.515136 12342 net.cpp:434] conv6_2_mbox_loc_perm <- conv6_2_mbox_loc
I0401 21:09:13.515146 12342 net.cpp:408] conv6_2_mbox_loc_perm -> conv6_2_mbox_loc_perm
I0401 21:09:13.515291 12342 net.cpp:150] Setting up conv6_2_mbox_loc_perm
I0401 21:09:13.515305 12342 net.cpp:157] Top shape: 32 10 10 24 (76800)
I0401 21:09:13.515311 12342 net.cpp:165] Memory required for data: 7954122816
I0401 21:09:13.515316 12342 layer_factory.hpp:77] Creating layer conv6_2_mbox_loc_flat
I0401 21:09:13.515326 12342 net.cpp:100] Creating Layer conv6_2_mbox_loc_flat
I0401 21:09:13.515334 12342 net.cpp:434] conv6_2_mbox_loc_flat <- conv6_2_mbox_loc_perm
I0401 21:09:13.515343 12342 net.cpp:408] conv6_2_mbox_loc_flat -> conv6_2_mbox_loc_flat
I0401 21:09:13.515379 12342 net.cpp:150] Setting up conv6_2_mbox_loc_flat
I0401 21:09:13.515389 12342 net.cpp:157] Top shape: 32 2400 (76800)
I0401 21:09:13.515395 12342 net.cpp:165] Memory required for data: 7954430016
I0401 21:09:13.515401 12342 layer_factory.hpp:77] Creating layer conv6_2_mbox_conf
I0401 21:09:13.515419 12342 net.cpp:100] Creating Layer conv6_2_mbox_conf
I0401 21:09:13.515429 12342 net.cpp:434] conv6_2_mbox_conf <- conv6_2_conv6_2_relu_0_split_2
I0401 21:09:13.515439 12342 net.cpp:408] conv6_2_mbox_conf -> conv6_2_mbox_conf
I0401 21:09:13.545913 12342 net.cpp:150] Setting up conv6_2_mbox_conf
I0401 21:09:13.545943 12342 net.cpp:157] Top shape: 32 66 10 10 (211200)
I0401 21:09:13.545948 12342 net.cpp:165] Memory required for data: 7955274816
I0401 21:09:13.545964 12342 layer_factory.hpp:77] Creating layer conv6_2_mbox_conf_perm
I0401 21:09:13.545981 12342 net.cpp:100] Creating Layer conv6_2_mbox_conf_perm
I0401 21:09:13.545992 12342 net.cpp:434] conv6_2_mbox_conf_perm <- conv6_2_mbox_conf
I0401 21:09:13.546005 12342 net.cpp:408] conv6_2_mbox_conf_perm -> conv6_2_mbox_conf_perm
I0401 21:09:13.546154 12342 net.cpp:150] Setting up conv6_2_mbox_conf_perm
I0401 21:09:13.546169 12342 net.cpp:157] Top shape: 32 10 10 66 (211200)
I0401 21:09:13.546173 12342 net.cpp:165] Memory required for data: 7956119616
I0401 21:09:13.546178 12342 layer_factory.hpp:77] Creating layer conv6_2_mbox_conf_flat
I0401 21:09:13.546190 12342 net.cpp:100] Creating Layer conv6_2_mbox_conf_flat
I0401 21:09:13.546198 12342 net.cpp:434] conv6_2_mbox_conf_flat <- conv6_2_mbox_conf_perm
I0401 21:09:13.546206 12342 net.cpp:408] conv6_2_mbox_conf_flat -> conv6_2_mbox_conf_flat
I0401 21:09:13.546244 12342 net.cpp:150] Setting up conv6_2_mbox_conf_flat
I0401 21:09:13.546257 12342 net.cpp:157] Top shape: 32 6600 (211200)
I0401 21:09:13.546262 12342 net.cpp:165] Memory required for data: 7956964416
I0401 21:09:13.546268 12342 layer_factory.hpp:77] Creating layer conv6_2_mbox_priorbox
I0401 21:09:13.546280 12342 net.cpp:100] Creating Layer conv6_2_mbox_priorbox
I0401 21:09:13.546288 12342 net.cpp:434] conv6_2_mbox_priorbox <- conv6_2_conv6_2_relu_0_split_3
I0401 21:09:13.546298 12342 net.cpp:434] conv6_2_mbox_priorbox <- data_data_0_split_3
I0401 21:09:13.546308 12342 net.cpp:408] conv6_2_mbox_priorbox -> conv6_2_mbox_priorbox
I0401 21:09:13.546350 12342 net.cpp:150] Setting up conv6_2_mbox_priorbox
I0401 21:09:13.546372 12342 net.cpp:157] Top shape: 1 2 2400 (4800)
I0401 21:09:13.546378 12342 net.cpp:165] Memory required for data: 7956983616
I0401 21:09:13.546384 12342 layer_factory.hpp:77] Creating layer conv7_2_mbox_loc
I0401 21:09:13.546401 12342 net.cpp:100] Creating Layer conv7_2_mbox_loc
I0401 21:09:13.546408 12342 net.cpp:434] conv7_2_mbox_loc <- conv7_2_conv7_2_relu_0_split_1
I0401 21:09:13.546419 12342 net.cpp:408] conv7_2_mbox_loc -> conv7_2_mbox_loc
I0401 21:09:13.548671 12342 net.cpp:150] Setting up conv7_2_mbox_loc
I0401 21:09:13.548688 12342 net.cpp:157] Top shape: 32 24 5 5 (19200)
I0401 21:09:13.548694 12342 net.cpp:165] Memory required for data: 7957060416
I0401 21:09:13.548705 12342 layer_factory.hpp:77] Creating layer conv7_2_mbox_loc_perm
I0401 21:09:13.548717 12342 net.cpp:100] Creating Layer conv7_2_mbox_loc_perm
I0401 21:09:13.548725 12342 net.cpp:434] conv7_2_mbox_loc_perm <- conv7_2_mbox_loc
I0401 21:09:13.548736 12342 net.cpp:408] conv7_2_mbox_loc_perm -> conv7_2_mbox_loc_perm
I0401 21:09:13.548869 12342 net.cpp:150] Setting up conv7_2_mbox_loc_perm
I0401 21:09:13.548882 12342 net.cpp:157] Top shape: 32 5 5 24 (19200)
I0401 21:09:13.548887 12342 net.cpp:165] Memory required for data: 7957137216
I0401 21:09:13.548893 12342 layer_factory.hpp:77] Creating layer conv7_2_mbox_loc_flat
I0401 21:09:13.548908 12342 net.cpp:100] Creating Layer conv7_2_mbox_loc_flat
I0401 21:09:13.548916 12342 net.cpp:434] conv7_2_mbox_loc_flat <- conv7_2_mbox_loc_perm
I0401 21:09:13.548925 12342 net.cpp:408] conv7_2_mbox_loc_flat -> conv7_2_mbox_loc_flat
I0401 21:09:13.548964 12342 net.cpp:150] Setting up conv7_2_mbox_loc_flat
I0401 21:09:13.548974 12342 net.cpp:157] Top shape: 32 600 (19200)
I0401 21:09:13.548979 12342 net.cpp:165] Memory required for data: 7957214016
I0401 21:09:13.548985 12342 layer_factory.hpp:77] Creating layer conv7_2_mbox_conf
I0401 21:09:13.549000 12342 net.cpp:100] Creating Layer conv7_2_mbox_conf
I0401 21:09:13.549008 12342 net.cpp:434] conv7_2_mbox_conf <- conv7_2_conv7_2_relu_0_split_2
I0401 21:09:13.549018 12342 net.cpp:408] conv7_2_mbox_conf -> conv7_2_mbox_conf
I0401 21:09:13.552109 12342 net.cpp:150] Setting up conv7_2_mbox_conf
I0401 21:09:13.552127 12342 net.cpp:157] Top shape: 32 66 5 5 (52800)
I0401 21:09:13.552134 12342 net.cpp:165] Memory required for data: 7957425216
I0401 21:09:13.552145 12342 layer_factory.hpp:77] Creating layer conv7_2_mbox_conf_perm
I0401 21:09:13.552156 12342 net.cpp:100] Creating Layer conv7_2_mbox_conf_perm
I0401 21:09:13.552165 12342 net.cpp:434] conv7_2_mbox_conf_perm <- conv7_2_mbox_conf
I0401 21:09:13.552176 12342 net.cpp:408] conv7_2_mbox_conf_perm -> conv7_2_mbox_conf_perm
I0401 21:09:13.552314 12342 net.cpp:150] Setting up conv7_2_mbox_conf_perm
I0401 21:09:13.552330 12342 net.cpp:157] Top shape: 32 5 5 66 (52800)
I0401 21:09:13.552337 12342 net.cpp:165] Memory required for data: 7957636416
I0401 21:09:13.552345 12342 layer_factory.hpp:77] Creating layer conv7_2_mbox_conf_flat
I0401 21:09:13.552356 12342 net.cpp:100] Creating Layer conv7_2_mbox_conf_flat
I0401 21:09:13.552364 12342 net.cpp:434] conv7_2_mbox_conf_flat <- conv7_2_mbox_conf_perm
I0401 21:09:13.552373 12342 net.cpp:408] conv7_2_mbox_conf_flat -> conv7_2_mbox_conf_flat
I0401 21:09:13.552412 12342 net.cpp:150] Setting up conv7_2_mbox_conf_flat
I0401 21:09:13.552423 12342 net.cpp:157] Top shape: 32 1650 (52800)
I0401 21:09:13.552428 12342 net.cpp:165] Memory required for data: 7957847616
I0401 21:09:13.552433 12342 layer_factory.hpp:77] Creating layer conv7_2_mbox_priorbox
I0401 21:09:13.552445 12342 net.cpp:100] Creating Layer conv7_2_mbox_priorbox
I0401 21:09:13.552453 12342 net.cpp:434] conv7_2_mbox_priorbox <- conv7_2_conv7_2_relu_0_split_3
I0401 21:09:13.552460 12342 net.cpp:434] conv7_2_mbox_priorbox <- data_data_0_split_4
I0401 21:09:13.552471 12342 net.cpp:408] conv7_2_mbox_priorbox -> conv7_2_mbox_priorbox
I0401 21:09:13.552510 12342 net.cpp:150] Setting up conv7_2_mbox_priorbox
I0401 21:09:13.552520 12342 net.cpp:157] Top shape: 1 2 600 (1200)
I0401 21:09:13.552534 12342 net.cpp:165] Memory required for data: 7957852416
I0401 21:09:13.552541 12342 layer_factory.hpp:77] Creating layer conv8_2_mbox_loc
I0401 21:09:13.552558 12342 net.cpp:100] Creating Layer conv8_2_mbox_loc
I0401 21:09:13.552567 12342 net.cpp:434] conv8_2_mbox_loc <- conv8_2_conv8_2_relu_0_split_1
I0401 21:09:13.552577 12342 net.cpp:408] conv8_2_mbox_loc -> conv8_2_mbox_loc
I0401 21:09:13.554656 12342 net.cpp:150] Setting up conv8_2_mbox_loc
I0401 21:09:13.554677 12342 net.cpp:157] Top shape: 32 16 3 3 (4608)
I0401 21:09:13.554682 12342 net.cpp:165] Memory required for data: 7957870848
I0401 21:09:13.554705 12342 layer_factory.hpp:77] Creating layer conv8_2_mbox_loc_perm
I0401 21:09:13.554718 12342 net.cpp:100] Creating Layer conv8_2_mbox_loc_perm
I0401 21:09:13.554726 12342 net.cpp:434] conv8_2_mbox_loc_perm <- conv8_2_mbox_loc
I0401 21:09:13.554735 12342 net.cpp:408] conv8_2_mbox_loc_perm -> conv8_2_mbox_loc_perm
I0401 21:09:13.554875 12342 net.cpp:150] Setting up conv8_2_mbox_loc_perm
I0401 21:09:13.554888 12342 net.cpp:157] Top shape: 32 3 3 16 (4608)
I0401 21:09:13.554893 12342 net.cpp:165] Memory required for data: 7957889280
I0401 21:09:13.554899 12342 layer_factory.hpp:77] Creating layer conv8_2_mbox_loc_flat
I0401 21:09:13.554908 12342 net.cpp:100] Creating Layer conv8_2_mbox_loc_flat
I0401 21:09:13.554916 12342 net.cpp:434] conv8_2_mbox_loc_flat <- conv8_2_mbox_loc_perm
I0401 21:09:13.554924 12342 net.cpp:408] conv8_2_mbox_loc_flat -> conv8_2_mbox_loc_flat
I0401 21:09:13.554961 12342 net.cpp:150] Setting up conv8_2_mbox_loc_flat
I0401 21:09:13.554971 12342 net.cpp:157] Top shape: 32 144 (4608)
I0401 21:09:13.554976 12342 net.cpp:165] Memory required for data: 7957907712
I0401 21:09:13.554982 12342 layer_factory.hpp:77] Creating layer conv8_2_mbox_conf
I0401 21:09:13.554996 12342 net.cpp:100] Creating Layer conv8_2_mbox_conf
I0401 21:09:13.555003 12342 net.cpp:434] conv8_2_mbox_conf <- conv8_2_conv8_2_relu_0_split_2
I0401 21:09:13.555013 12342 net.cpp:408] conv8_2_mbox_conf -> conv8_2_mbox_conf
I0401 21:09:13.557646 12342 net.cpp:150] Setting up conv8_2_mbox_conf
I0401 21:09:13.557665 12342 net.cpp:157] Top shape: 32 44 3 3 (12672)
I0401 21:09:13.557672 12342 net.cpp:165] Memory required for data: 7957958400
I0401 21:09:13.557682 12342 layer_factory.hpp:77] Creating layer conv8_2_mbox_conf_perm
I0401 21:09:13.557693 12342 net.cpp:100] Creating Layer conv8_2_mbox_conf_perm
I0401 21:09:13.557701 12342 net.cpp:434] conv8_2_mbox_conf_perm <- conv8_2_mbox_conf
I0401 21:09:13.557711 12342 net.cpp:408] conv8_2_mbox_conf_perm -> conv8_2_mbox_conf_perm
I0401 21:09:13.573896 12342 net.cpp:150] Setting up conv8_2_mbox_conf_perm
I0401 21:09:13.573918 12342 net.cpp:157] Top shape: 32 3 3 44 (12672)
I0401 21:09:13.573925 12342 net.cpp:165] Memory required for data: 7958009088
I0401 21:09:13.573931 12342 layer_factory.hpp:77] Creating layer conv8_2_mbox_conf_flat
I0401 21:09:13.573943 12342 net.cpp:100] Creating Layer conv8_2_mbox_conf_flat
I0401 21:09:13.573952 12342 net.cpp:434] conv8_2_mbox_conf_flat <- conv8_2_mbox_conf_perm
I0401 21:09:13.573963 12342 net.cpp:408] conv8_2_mbox_conf_flat -> conv8_2_mbox_conf_flat
I0401 21:09:13.574000 12342 net.cpp:150] Setting up conv8_2_mbox_conf_flat
I0401 21:09:13.574010 12342 net.cpp:157] Top shape: 32 396 (12672)
I0401 21:09:13.574017 12342 net.cpp:165] Memory required for data: 7958059776
I0401 21:09:13.574021 12342 layer_factory.hpp:77] Creating layer conv8_2_mbox_priorbox
I0401 21:09:13.574034 12342 net.cpp:100] Creating Layer conv8_2_mbox_priorbox
I0401 21:09:13.574043 12342 net.cpp:434] conv8_2_mbox_priorbox <- conv8_2_conv8_2_relu_0_split_3
I0401 21:09:13.574050 12342 net.cpp:434] conv8_2_mbox_priorbox <- data_data_0_split_5
I0401 21:09:13.574062 12342 net.cpp:408] conv8_2_mbox_priorbox -> conv8_2_mbox_priorbox
I0401 21:09:13.574103 12342 net.cpp:150] Setting up conv8_2_mbox_priorbox
I0401 21:09:13.574115 12342 net.cpp:157] Top shape: 1 2 144 (288)
I0401 21:09:13.574120 12342 net.cpp:165] Memory required for data: 7958060928
I0401 21:09:13.574139 12342 layer_factory.hpp:77] Creating layer conv9_2_mbox_loc
I0401 21:09:13.574156 12342 net.cpp:100] Creating Layer conv9_2_mbox_loc
I0401 21:09:13.574165 12342 net.cpp:434] conv9_2_mbox_loc <- conv9_2_conv9_2_relu_0_split_0
I0401 21:09:13.574177 12342 net.cpp:408] conv9_2_mbox_loc -> conv9_2_mbox_loc
I0401 21:09:13.576287 12342 net.cpp:150] Setting up conv9_2_mbox_loc
I0401 21:09:13.576303 12342 net.cpp:157] Top shape: 32 16 1 1 (512)
I0401 21:09:13.576309 12342 net.cpp:165] Memory required for data: 7958062976
I0401 21:09:13.576320 12342 layer_factory.hpp:77] Creating layer conv9_2_mbox_loc_perm
I0401 21:09:13.576331 12342 net.cpp:100] Creating Layer conv9_2_mbox_loc_perm
I0401 21:09:13.576339 12342 net.cpp:434] conv9_2_mbox_loc_perm <- conv9_2_mbox_loc
I0401 21:09:13.576352 12342 net.cpp:408] conv9_2_mbox_loc_perm -> conv9_2_mbox_loc_perm
I0401 21:09:13.576491 12342 net.cpp:150] Setting up conv9_2_mbox_loc_perm
I0401 21:09:13.576503 12342 net.cpp:157] Top shape: 32 1 1 16 (512)
I0401 21:09:13.576508 12342 net.cpp:165] Memory required for data: 7958065024
I0401 21:09:13.576514 12342 layer_factory.hpp:77] Creating layer conv9_2_mbox_loc_flat
I0401 21:09:13.576522 12342 net.cpp:100] Creating Layer conv9_2_mbox_loc_flat
I0401 21:09:13.576535 12342 net.cpp:434] conv9_2_mbox_loc_flat <- conv9_2_mbox_loc_perm
I0401 21:09:13.576544 12342 net.cpp:408] conv9_2_mbox_loc_flat -> conv9_2_mbox_loc_flat
I0401 21:09:13.576581 12342 net.cpp:150] Setting up conv9_2_mbox_loc_flat
I0401 21:09:13.576591 12342 net.cpp:157] Top shape: 32 16 (512)
I0401 21:09:13.576596 12342 net.cpp:165] Memory required for data: 7958067072
I0401 21:09:13.576601 12342 layer_factory.hpp:77] Creating layer conv9_2_mbox_conf
I0401 21:09:13.576616 12342 net.cpp:100] Creating Layer conv9_2_mbox_conf
I0401 21:09:13.576623 12342 net.cpp:434] conv9_2_mbox_conf <- conv9_2_conv9_2_relu_0_split_1
I0401 21:09:13.576634 12342 net.cpp:408] conv9_2_mbox_conf -> conv9_2_mbox_conf
I0401 21:09:13.579986 12342 net.cpp:150] Setting up conv9_2_mbox_conf
I0401 21:09:13.580006 12342 net.cpp:157] Top shape: 32 44 1 1 (1408)
I0401 21:09:13.580013 12342 net.cpp:165] Memory required for data: 7958072704
I0401 21:09:13.580024 12342 layer_factory.hpp:77] Creating layer conv9_2_mbox_conf_perm
I0401 21:09:13.580036 12342 net.cpp:100] Creating Layer conv9_2_mbox_conf_perm
I0401 21:09:13.580044 12342 net.cpp:434] conv9_2_mbox_conf_perm <- conv9_2_mbox_conf
I0401 21:09:13.580055 12342 net.cpp:408] conv9_2_mbox_conf_perm -> conv9_2_mbox_conf_perm
I0401 21:09:13.580194 12342 net.cpp:150] Setting up conv9_2_mbox_conf_perm
I0401 21:09:13.580206 12342 net.cpp:157] Top shape: 32 1 1 44 (1408)
I0401 21:09:13.580212 12342 net.cpp:165] Memory required for data: 7958078336
I0401 21:09:13.580219 12342 layer_factory.hpp:77] Creating layer conv9_2_mbox_conf_flat
I0401 21:09:13.580229 12342 net.cpp:100] Creating Layer conv9_2_mbox_conf_flat
I0401 21:09:13.580235 12342 net.cpp:434] conv9_2_mbox_conf_flat <- conv9_2_mbox_conf_perm
I0401 21:09:13.580243 12342 net.cpp:408] conv9_2_mbox_conf_flat -> conv9_2_mbox_conf_flat
I0401 21:09:13.580281 12342 net.cpp:150] Setting up conv9_2_mbox_conf_flat
I0401 21:09:13.580291 12342 net.cpp:157] Top shape: 32 44 (1408)
I0401 21:09:13.580296 12342 net.cpp:165] Memory required for data: 7958083968
I0401 21:09:13.580302 12342 layer_factory.hpp:77] Creating layer conv9_2_mbox_priorbox
I0401 21:09:13.580313 12342 net.cpp:100] Creating Layer conv9_2_mbox_priorbox
I0401 21:09:13.580320 12342 net.cpp:434] conv9_2_mbox_priorbox <- conv9_2_conv9_2_relu_0_split_2
I0401 21:09:13.580327 12342 net.cpp:434] conv9_2_mbox_priorbox <- data_data_0_split_6
I0401 21:09:13.580337 12342 net.cpp:408] conv9_2_mbox_priorbox -> conv9_2_mbox_priorbox
I0401 21:09:13.580386 12342 net.cpp:150] Setting up conv9_2_mbox_priorbox
I0401 21:09:13.580399 12342 net.cpp:157] Top shape: 1 2 16 (32)
I0401 21:09:13.580404 12342 net.cpp:165] Memory required for data: 7958084096
I0401 21:09:13.580410 12342 layer_factory.hpp:77] Creating layer mbox_loc
I0401 21:09:13.580422 12342 net.cpp:100] Creating Layer mbox_loc
I0401 21:09:13.580440 12342 net.cpp:434] mbox_loc <- conv4_3_norm_mbox_loc_flat
I0401 21:09:13.580448 12342 net.cpp:434] mbox_loc <- fc7_mbox_loc_flat
I0401 21:09:13.580456 12342 net.cpp:434] mbox_loc <- conv6_2_mbox_loc_flat
I0401 21:09:13.580464 12342 net.cpp:434] mbox_loc <- conv7_2_mbox_loc_flat
I0401 21:09:13.580471 12342 net.cpp:434] mbox_loc <- conv8_2_mbox_loc_flat
I0401 21:09:13.580477 12342 net.cpp:434] mbox_loc <- conv9_2_mbox_loc_flat
I0401 21:09:13.580487 12342 net.cpp:408] mbox_loc -> mbox_loc
I0401 21:09:13.580540 12342 net.cpp:150] Setting up mbox_loc
I0401 21:09:13.580554 12342 net.cpp:157] Top shape: 32 34928 (1117696)
I0401 21:09:13.580560 12342 net.cpp:165] Memory required for data: 7962554880
I0401 21:09:13.580567 12342 layer_factory.hpp:77] Creating layer mbox_conf
I0401 21:09:13.580577 12342 net.cpp:100] Creating Layer mbox_conf
I0401 21:09:13.580585 12342 net.cpp:434] mbox_conf <- conv4_3_norm_mbox_conf_flat
I0401 21:09:13.580591 12342 net.cpp:434] mbox_conf <- fc7_mbox_conf_flat
I0401 21:09:13.580600 12342 net.cpp:434] mbox_conf <- conv6_2_mbox_conf_flat
I0401 21:09:13.580607 12342 net.cpp:434] mbox_conf <- conv7_2_mbox_conf_flat
I0401 21:09:13.580613 12342 net.cpp:434] mbox_conf <- conv8_2_mbox_conf_flat
I0401 21:09:13.580621 12342 net.cpp:434] mbox_conf <- conv9_2_mbox_conf_flat
I0401 21:09:13.580631 12342 net.cpp:408] mbox_conf -> mbox_conf
I0401 21:09:13.580678 12342 net.cpp:150] Setting up mbox_conf
I0401 21:09:13.580691 12342 net.cpp:157] Top shape: 32 96052 (3073664)
I0401 21:09:13.580698 12342 net.cpp:165] Memory required for data: 7974849536
I0401 21:09:13.580703 12342 layer_factory.hpp:77] Creating layer mbox_priorbox
I0401 21:09:13.580713 12342 net.cpp:100] Creating Layer mbox_priorbox
I0401 21:09:13.580720 12342 net.cpp:434] mbox_priorbox <- conv4_3_norm_mbox_priorbox
I0401 21:09:13.580727 12342 net.cpp:434] mbox_priorbox <- fc7_mbox_priorbox
I0401 21:09:13.580735 12342 net.cpp:434] mbox_priorbox <- conv6_2_mbox_priorbox
I0401 21:09:13.580742 12342 net.cpp:434] mbox_priorbox <- conv7_2_mbox_priorbox
I0401 21:09:13.580749 12342 net.cpp:434] mbox_priorbox <- conv8_2_mbox_priorbox
I0401 21:09:13.580754 12342 net.cpp:434] mbox_priorbox <- conv9_2_mbox_priorbox
I0401 21:09:13.580765 12342 net.cpp:408] mbox_priorbox -> mbox_priorbox
I0401 21:09:13.580806 12342 net.cpp:150] Setting up mbox_priorbox
I0401 21:09:13.580826 12342 net.cpp:157] Top shape: 1 2 34928 (69856)
I0401 21:09:13.580834 12342 net.cpp:165] Memory required for data: 7975128960
I0401 21:09:13.580840 12342 layer_factory.hpp:77] Creating layer mbox_loss
I0401 21:09:13.580857 12342 net.cpp:100] Creating Layer mbox_loss
I0401 21:09:13.580863 12342 net.cpp:434] mbox_loss <- mbox_loc
I0401 21:09:13.580870 12342 net.cpp:434] mbox_loss <- mbox_conf
I0401 21:09:13.580876 12342 net.cpp:434] mbox_loss <- mbox_priorbox
…
  phase: TEST
}
layer {
  name: "data"
  type: "AnnotatedData"
  top: "data"
  top: "label"
  include {
    phase: TEST
  }
  transform_param {
    mean_value: 104
    mean_value: 117
    mean_value: 123
    resize_param {
      prob: 1
      resize_mode: WARP
      height: 300
      width: 300
      interp_mode: LINEAR
    }
  }
  data_param {
    source: "examples/NWPU_VHR/NWPU_VHR_test_lmdb"
    batch_size: 1
    backend: LMDB
  }
  annotated_data_param {
    batch_sampler {
    }
    label_map_file: "data/NWPU_VHR/labelmap_NWPU_VHR.prototxt"
  }
}
layer {
  name: "conv1_1"
  type: "Convolution"
  bottom: "data"
  top: "conv1_1"
  param {
    lr_mult: 1
    decay_mult: 1
  }
  param {
    lr_mult: 2
    decay_mult: 0
  }
  convolution_param {
    num_output: 64
    pad: 1
    kernel_size: 3
    weight_filler {
      type: "xavier"
    }
    bias_filler {
      type: "constant"
      value: 0
    }
  }
}
layer {
  name: "relu1_1"
  type: "ReLU"
  bottom: "conv1_1"
  top: "conv1_1"
}
layer {
  name: "conv1_2"
  type: "Convolution"
  bottom: "conv1_1"
  top: "conv1_2"
  param {
    lr_mult: 1
    decay_mult: 1
  }
  param {
    lr_mult: 2
    decay_mult: 0
  }
  convolution_param {
    num_output: 64
    pad: 1
    kernel_size: 3
    weight_filler {
      type: "xavier"
    }
    bias_filler {
      type: "constant"
      value: 0
    }
  }
}
layer {
  name: "relu1_2"
  type: "ReLU"
  bottom: "conv1_2"
  top: "conv1_2"
}
layer {
  name: "pool1"
  type: "Pooling"
  bottom: "conv1_2"
  top: "pool1"
  pooling_param {
    pool: MAX
    kernel_size: 2
    stride: 2
  }
}
layer {
  name: "conv2_1"
  type: "Convolution"
  bottom: "pool1"
  top: "conv2_1"
  param {
    lr_mult: 1
    decay_mult: 1
  }
  param {
    lr_mult: 2
    decay_mult: 0
  }
  convolution_param {
    num_output: 128
    pad: 1
    kernel_size: 3
    weight_filler {
      type: "xavier"
    }
    bias_filler {
      type: "constant"
      value: 0
    }
  }
}
layer {
  name: "relu2_1"
  type: "ReLU"
  bottom: "conv2_1"
  top: "conv2_1"
}
layer {
  name: "conv2_2"
  type: "Convolution"
  bottom: "conv2_1"
  top: "conv2_2"
  param {
    lr_mult: 1
    decay_mult: 1
  }
  param {
    lr_mult: 2
    decay_mult: 0
  }
  convolution_param {
    num_output: 128
    pad: 1
    kernel_size: 3
    weight_filler {
      type: "xavier"
    }
    bias_filler {
      type: "constant"
      value: 0
    }
  }
}
layer {
  name: "relu2_2"
  type: "ReLU"
  bottom: "conv2_2"
  top: "conv2_2"
}
layer {
  name: "pool2"
  type: "Pooling"
  bottom: "conv2_2"
  top: "pool2"
  pooling_param {
    pool: MAX
    kernel_size: 2
    stride: 2
  }
}
layer {
  name: "conv3_1"
  type: "Convolution"
  bottom: "pool2"
  top: "conv3_1"
  param {
    lr_mult: 1
    decay_mult: 1
  }
  param {
    lr_mult: 2
    decay_mult: 0
  }
  convolution_param {
    num_output: 256
    pad: 1
    kernel_size: 3
    weight_filler {
      type: "xavier"
    }
    bias_filler {
      type: "constant"
      value: 0
    }
  }
}
layer {
  name: "relu3_1"
  type: "ReLU"
  bottom: "conv3_1"
  top: "conv3_1"
}
layer {
  name: "conv3_2"
  type: "Convolution"
  bottom: "conv3_1"
  top: "conv3_2"
  param {
    lr_mult: 1
    decay_mult: 1
  }
  param {
    lr_mult: 2
    decay_mult: 0
  }
  convolution_param {
    num_output: 256
    pad: 1
    kernel_size: 3
    weight_filler {
      type: "xavier"
    }
    bias_filler {
      type: "constant"
      value: 0
    }
  }
}
layer {
  name: "relu3_2"
  type: "ReLU"
  bottom: "conv3_2"
  top: "conv3_2"
}
layer {
  name: "conv3_3"
  type: "Convolution"
  bottom: "conv3_2"
  top: "conv3_3"
  param {
    lr_mult: 1
    decay_mult: 1
  }
  param {
    lr_mult: 2
    decay_mult: 0
  }
  convolution_param {
    num_output: 256
    pad: 1
    kernel_size: 3
    weight_filler {
      type: "xavier"
    }
    bias_filler {
      type: "constant"
      value: 0
    }
  }
}
layer {
  name: "relu3_3"
  type: "ReLU"
  bottom: "conv3_3"
  top: "conv3_3"
}
layer {
  name: "pool3"
  type: "Pooling"
  bottom: "conv3_3"
  top: "pool3"
  pooling_param {
    pool: MAX
    kernel_size: 2
    stride: 2
  }
}
layer {
  name: "conv4_1"
  type: "Convolution"
  bottom: "pool3"
  top: "conv4_1"
  param {
    lr_mult: 1
    decay_mult: 1
  }
  param {
    lr_mult: 2
    decay_mult: 0
  }
  convolution_param {
    num_output: 512
    pad: 1
    kernel_size: 3
    weight_filler {
      type: "xavier"
    }
    bias_filler {
      type: "constant"
      value: 0
    }
  }
}
layer {
  name: "relu4_1"
  type: "ReLU"
  bottom: "conv4_1"
  top: "conv4_1"
}
layer {
  name: "conv4_2"
  type: "Convolution"
  bottom: "conv4_1"
  top: "conv4_2"
  param {
    lr_mult: 1
    decay_mult: 1
  }
  param {
    lr_mult: 2
    decay_mult: 0
  }
  convolution_param {
    num_output: 512
    pad: 1
    kernel_size: 3
    weight_filler {
      type: "xavier"
    }
    bias_filler {
      type: "constant"
      value: 0
    }
  }
}
layer {
  name: "relu4_2"
  type: "ReLU"
  bottom: "conv4_2"
  top: "conv4_2"
}
layer {
  name: "conv4_3"
  type: "Convolution"
  bottom: "conv4_2"
  top: "conv4_3"
  param {
    lr_mult: 1
    decay_mult: 1
  }
  param {
    lr_mult: 2
    decay_mult: 0
  }
  convolution_param {
    num_output: 512
    pad: 1
    kernel_size: 3
    weight_filler {
      type: "xavier"
    }
    bias_filler {
      type: "constant"
      value: 0
    }
  }
}
layer {
  name: "relu4_3"
  type: "ReLU"
  bottom: "conv4_3"
  top: "conv4_3"
}
layer {
  name: "pool4"
  type: "Pooling"
  bottom: "conv4_3"
  top: "pool4"
  pooling_param {
    pool: MAX
    kernel_size: 2
    stride: 2
  }
}
layer {
  name: "conv5_1"
  type: "Convolution"
  bottom: "pool4"
  top: "conv5_1"
  param {
    lr_mult: 1
    decay_mult: 1
  }
  param {
    lr_mult: 2
    decay_mult: 0
  }
  convolution_param {
    num_output: 512
    pad: 1
    kernel_size: 3
    weight_filler {
      type: "xavier"
    }
    bias_filler {
      type: "constant"
      value: 0
    }
    dilation: 1
  }
}
layer {
  name: "relu5_1"
  type: "ReLU"
  bottom: "conv5_1"
  top: "conv5_1"
}
layer {
  name: "conv5_2"
  type: "Convolution"
  bottom: "conv5_1"
  top: "conv5_2"
  param {
    lr_mult: 1
    decay_mult: 1
  }
  param {
    lr_mult: 2
    decay_mult: 0
  }
  convolution_param {
    num_output: 512
    pad: 1
    kernel_size: 3
    weight_filler {
      type: "xavier"
    }
    bias_filler {
      type: "constant"
      value: 0
    }
    dilation: 1
  }
}
layer {
  name: "relu5_2"
  type: "ReLU"
  bottom: "conv5_2"
  top: "conv5_2"
}
layer {
  name: "conv5_3"
  type: "Convolution"
  bottom: "conv5_2"
  top: "conv5_3"
  param {
    lr_mult: 1
    decay_mult: 1
  }
  param {
    lr_mult: 2
    decay_mult: 0
  }
  convolution_param {
    num_output: 512
    pad: 1
    kernel_size: 3
    weight_filler {
      type: "xavier"
    }
    bias_filler {
      type: "constant"
      value: 0
    }
    dilation: 1
  }
}
layer {
  name: "relu5_3"
  type: "ReLU"
  bottom: "conv5_3"
  top: "conv5_3"
}
layer {
  name: "pool5"
  type: "Pooling"
  bottom: "conv5_3"
  top: "pool5"
  pooling_param {
    pool: MAX
    kernel_size: 3
    stride: 1
    pad: 1
  }
}
layer {
  name: "fc6"
  type: "Convolution"
  bottom: "pool5"
  top: "fc6"
  param {
    lr_mult: 1
    decay_mult: 1
  }
  param {
    lr_mult: 2
    decay_mult: 0
  }
  convolution_param {
    num_output: 1024
    pad: 6
    kernel_size: 3
    weight_filler {
      type: "xavier"
    }
    bias_filler {
      type: "constant"
      value: 0
    }
    dilation: 6
  }
}
layer {
  name: "relu6"
  type: "ReLU"
  bottom: "fc6"
  top: "fc6"
}
layer {
  name: "fc7"
  type: "Convolution"
  bottom: "fc6"
  top: "fc7"
  param {
    lr_mult: 1
    decay_mult: 1
  }
  param {
    lr_mult: 2
    decay_mult: 0
  }
  convolution_param {
    num_output: 1024
    kernel_size: 1
    weight_filler {
      type: "xavier"
    }
    bias_filler {
      type: "constant"
      value: 0
    }
  }
}
layer {
  name: "relu7"
  type: "ReLU"
  bottom: "fc7"
  top: "fc7"
}
layer {
  name: "conv6_1"
  type: "Convolution"
  bottom: "fc7"
  top: "conv6_1"
  param {
    lr_mult: 1
    decay_mult: 1
  }
  param {
    lr_mult: 2
    decay_mult: 0
  }
  convolution_param {
    num_output: 256
    pad: 0
    kernel_size: 1
    stride: 1
    weight_filler {
      type: "xavier"
    }
    bias_filler {
      type: "constant"
      value: 0
    }
  }
}
layer {
  name: "conv6_1_relu"
  type: "ReLU"
  bottom: "conv6_1"
  top: "conv6_1"
}
layer {
  name: "conv6_2"
  type: "Convolution"
  bottom: "conv6_1"
  top: "conv6_2"
  param {
    lr_mult: 1
    decay_mult: 1
  }
  param {
    lr_mult: 2
    decay_mult: 0
  }
  convolution_param {
    num_output: 512
    pad: 1
    kernel_size: 3
    stride: 2
    weight_filler {
      type: "xavier"
    }
    bias_filler {
      type: "constant"
      value: 0
    }
  }
}
layer {
  name: "conv6_2_relu"
  type: "ReLU"
  bottom: "conv6_2"
  top: "conv6_2"
}
layer {
  name: "conv7_1"
  type: "Convolution"
  bottom: "conv6_2"
  top: "conv7_1"
  param {
    lr_mult: 1
    decay_mult: 1
  }
  param {
    lr_mult: 2
    decay_mult: 0
  }
  convolution_param {
    num_output: 128
    pad: 0
    kernel_size: 1
    stride: 1
    weight_filler {
      type: "xavier"
    }
    bias_filler {
      type: "constant"
      value: 0
    }
  }
}
layer {
  name: "conv7_1_relu"
  type: "ReLU"
  bottom: "conv7_1"
  top: "conv7_1"
}
layer {
  name: "conv7_2"
  type: "Convolution"
  bottom: "conv7_1"
  top: "conv7_2"
  param {
    lr_mult: 1
    decay_mult: 1
  }
  param {
    lr_mult: 2
    decay_mult: 0
  }
  convolution_param {
    num_output: 256
    pad: 1
    kernel_size: 3
    stride: 2
    weight_filler {
      type: "xavier"
    }
    bias_filler {
      type: "constant"
      value: 0
    }
  }
}
layer {
  name: "conv7_2_relu"
  type: "ReLU"
  bottom: "conv7_2"
  top: "conv7_2"
}
layer {
  name: "conv8_1"
  type: "Convolution"
  bottom: "conv7_2"
  top: "conv8_1"
  param {
    lr_mult: 1
    decay_mult: 1
  }
  param {
    lr_mult: 2
    decay_mult: 0
  }
  convolution_param {
    num_output: 128
    pad: 0
    kernel_size: 1
    stride: 1
    weight_filler {
      type: "xavier"
    }
    bias_filler {
      type: "constant"
      value: 0
    }
  }
}
layer {
  name: "conv8_1_relu"
  type: "ReLU"
  bottom: "conv8_1"
  top: "conv8_1"
}
layer {
  name: "conv8_2"
  type: "Convolution"
  bottom: "conv8_1"
  top: "conv8_2"
  param {
    lr_mult: 1
    decay_mult: 1
  }
  param {
    lr_mult: 2
    decay_mult: 0
  }
  convolution_param {
    num_output: 256
    pad: 0
    kernel_size: 3
    stride: 1
    weight_filler {
      type: "xavier"
    }
    bias_filler {
      type: "constant"
      value: 0
    }
  }
}
layer {
  name: "conv8_2_relu"
  type: "ReLU"
  bottom: "conv8_2"
  top: "conv8_2"
}
layer {
  name: "conv9_1"
  type: "Convolution"
  bottom: "conv8_2"
  top: "conv9_1"
  param {
    lr_mult: 1
    decay_mult: 1
  }
  param {
    lr_mult: 2
    decay_mult: 0
  }
  convolution_param {
    num_output: 128
    pad: 0
    kernel_size: 1
    stride: 1
    weight_filler {
      type: "xavier"
    }
    bias_filler {
      type: "constant"
      value: 0
    }
  }
}
layer {
  name: "conv9_1_relu"
  type: "ReLU"
  bottom: "conv9_1"
  top: "conv9_1"
}
layer {
  name: "conv9_2"
  type: "Convolution"
  bottom: "conv9_1"
  top: "conv9_2"
  param {
    lr_mult: 1
    decay_mult: 1
  }
  param {
    lr_mult: 2
    decay_mult: 0
  }
  convolution_param {
    num_output: 256
    pad: 0
    kernel_size: 3
    stride: 1
    weight_filler {
      type: "xavier"
    }
    bias_filler {
      type: "constant"
      value: 0
    }
  }
}
layer {
  name: "conv9_2_relu"
  type: "ReLU"
  bottom: "conv9_2"
  top: "conv9_2"
}
layer {
  name: "conv4_3_norm"
  type: "Normalize"
  bottom: "conv4_3"
  top: "conv4_3_norm"
  norm_param {
    across_spatial: false
    scale_filler {
      type: "constant"
      value: 20
    }
    channel_shared: false
  }
}
layer {
  name: "conv4_3_norm_mbox_loc"
  type: "Convolution"
  bottom: "conv4_3_norm"
  top: "conv4_3_norm_mbox_loc"
  param {
    lr_mult: 1
    decay_mult: 1
  }
  param {
    lr_mult: 2
    decay_mult: 0
  }
  convolution_param {
    num_output: 16
    pad: 1
    kernel_size: 3
    stride: 1
    weight_filler {
      type: "xavier"
    }
    bias_filler {
      type: "constant"
      value: 0
    }
  }
}
layer {
  name: "conv4_3_norm_mbox_loc_perm"
  type: "Permute"
  bottom: "conv4_3_norm_mbox_loc"
  top: "conv4_3_norm_mbox_loc_perm"
  permute_param {
    order: 0
    order: 2
    order: 3
    order: 1
  }
}
layer {
  name: "conv4_3_norm_mbox_loc_flat"
  type: "Flatten"
  bottom: "conv4_3_norm_mbox_loc_perm"
  top: "conv4_3_norm_mbox_loc_flat"
  flatten_param {
    axis: 1
  }
}
layer {
  name: "conv4_3_norm_mbox_conf"
  type: "Convolution"
  bottom: "conv4_3_norm"
  top: "conv4_3_norm_mbox_conf"
  param {
    lr_mult: 1
    decay_mult: 1
  }
  param {
    lr_mult: 2
    decay_mult: 0
  }
  convolution_param {
    num_output: 44
    pad: 1
    kernel_size: 3
    stride: 1
    weight_filler {
      type: "xavier"
    }
    bias_filler {
      type: "constant"
      value: 0
    }
  }
}
layer {
  name: "conv4_3_norm_mbox_conf_perm"
  type: "Permute"
  bottom: "conv4_3_norm_mbox_conf"
  top: "conv4_3_norm_mbox_conf_perm"
  permute_param {
    order: 0
    order: 2
    order: 3
    order: 1
  }
}
layer {
  name: "conv4_3_norm_mbox_conf_flat"
  type: "Flatten"
  bottom: "conv4_3_norm_mbox_conf_perm"
  top: "conv4_3_norm_mbox_conf_flat"
  flatten_param {
    axis: 1
  }
}
layer {
  name: "conv4_3_norm_mbox_priorbox"
  type: "PriorBox"
  bottom: "conv4_3_norm"
  bottom: "data"
  top: "conv4_3_norm_mbox_priorbox"
  prior_box_param {
    min_size: 30
    max_size: 60
    aspect_ratio: 2
    flip: true
    clip: false
    variance: 0.1
    variance: 0.1
    variance: 0.2
    variance: 0.2
    step: 8
    offset: 0.5
  }
}
layer {
  name: "fc7_mbox_loc"
  type: "Convolution"
  bottom: "fc7"
  top: "fc7_mbox_loc"
  param {
    lr_mult: 1
    decay_mult: 1
  }
  param {
    lr_mult: 2
    decay_mult: 0
  }
  convolution_param {
    num_output: 24
    pad: 1
    kernel_size: 3
    stride: 1
    weight_filler {
      type: "xavier"
    }
    bias_filler {
      type: "constant"
      value: 0
    }
  }
}
layer {
  name: "fc7_mbox_loc_perm"
  type: "Permute"
  bottom: "fc7_mbox_loc"
  top: "fc7_mbox_loc_perm"
  permute_param {
    order: 0
    order: 2
    order: 3
    order: 1
  }
}
layer {
  name: "fc7_mbox_loc_flat"
  type: "Flatten"
  bottom: "fc7_mbox_loc_perm"
  top: "fc7_mbox_loc_flat"
  flatten_param {
    axis: 1
  }
}
layer {
  name: "fc7_mbox_conf"
  type: "Convolution"
  bottom: "fc7"
  top: "fc7_mbox_conf"
  param {
    lr_mult: 1
    decay_mult: 1
  }
  param {
    lr_mult: 2
    decay_mult: 0
  }
  convolution_param {
    num_output: 66
    pad: 1
    kernel_size: 3
    stride: 1
    weight_filler {
      type: "xavier"
    }
    bias_filler {
      type: "constant"
      value: 0
    }
  }
}
layer {
  name: "fc7_mbox_conf_perm"
  type: "Permute"
  bottom: "fc7_mbox_conf"
  top: "fc7_mbox_conf_perm"
  permute_param {
    order: 0
    order: 2
    order: 3
    order: 1
  }
}
layer {
  name: "fc7_mbox_conf_flat"
  type: "Flatten"
  bottom: "fc7_mbox_conf_perm"
  top: "fc7_mbox_conf_flat"
  flatten_param {
    axis: 1
  }
}
layer {
  name: "fc7_mbox_priorbox"
  type: "PriorBox"
  bottom: "fc7"
  bottom: "data"
  top: "fc7_mbox_priorbox"
  prior_box_param {
    min_size: 60
    max_size: 111
    aspect_ratio: 2
    aspect_ratio: 3
    flip: true
    clip: false
    variance: 0.1
    variance: 0.1
    variance: 0.2
    variance: 0.2
    step: 16
    offset: 0.5
  }
}
layer {
  name: "conv6_2_mbox_loc"
  type: "Convolution"
  bottom: "conv6_2"
  top: "conv6_2_mbox_loc"
  param {
    lr_mult: 1
    decay_mult: 1
  }
  param {
    lr_mult: 2
    decay_mult: 0
  }
  convolution_param {
    num_output: 24
    pad: 1
    kernel_size: 3
    stride: 1
    weight_filler {
      type: "xavier"
    }
    bias_filler {
      type: "constant"
      value: 0
    }
  }
}
layer {
  name: "conv6_2_mbox_loc_perm"
  type: "Permute"
  bottom: "conv6_2_mbox_loc"
  top: "conv6_2_mbox_loc_perm"
  permute_param {
    order: 0
    order: 2
    order: 3
    order: 1
  }
}
layer {
  name: "conv6_2_mbox_loc_flat"
  type: "Flatten"
  bottom: "conv6_2_mbox_loc_perm"
  top: "conv6_2_mbox_loc_flat"
  flatten_param {
    axis: 1
  }
}
layer {
  name: "conv6_2_mbox_conf"
  type: "Convolution"
  bottom: "conv6_2"
  top: "conv6_2_mbox_conf"
  param {
    lr_mult: 1
    decay_mult: 1
  }
  param {
    lr_mult: 2
    decay_mult: 0
  }
  convolution_param {
    num_output: 66
    pad: 1
    kernel_size: 3
    stride: 1
    weight_filler {
      type: "xavier"
    }
    bias_filler {
      type: "constant"
      value: 0
    }
  }
}
layer {
  name: "conv6_2_mbox_conf_perm"
  type: "Permute"
  bottom: "conv6_2_mbox_conf"
  top: "conv6_2_mbox_conf_perm"
  permute_param {
    order: 0
    order: 2
    order: 3
    order: 1
  }
}
layer {
  name: "conv6_2_mbox_conf_flat"
  type: "Flatten"
  bottom: "conv6_2_mbox_conf_perm"
  top: "conv6_2_mbox_conf_flat"
  flatten_param {
    axis: 1
  }
}
layer {
  name: "conv6_2_mbox_priorbox"
  type: "PriorBox"
  bottom: "conv6_2"
  bottom: "data"
  top: "conv6_2_mbox_priorbox"
  prior_box_param {
    min_size: 111
    max_size: 162
    aspect_ratio: 2
    aspect_ratio: 3
    flip: true
    clip: false
    variance: 0.1
    variance: 0.1
    variance: 0.2
    variance: 0.2
    step: 32
    offset: 0.5
  }
}
layer {
  name: "conv7_2_mbox_loc"
  type: "Convolution"
  bottom: "conv7_2"
  top: "conv7_2_mbox_loc"
  param {
    lr_mult: 1
    decay_mult: 1
  }
  param {
    lr_mult: 2
    decay_mult: 0
  }
  convolution_param {
    num_output: 24
    pad: 1
    kernel_size: 3
    stride: 1
    weight_filler {
      type: "xavier"
    }
    bias_filler {
      type: "constant"
      value: 0
    }
  }
}
layer {
  name: "conv7_2_mbox_loc_perm"
  type: "Permute"
  bottom: "conv7_2_mbox_loc"
  top: "conv7_2_mbox_loc_perm"
  permute_param {
    order: 0
    order: 2
    order: 3
    order: 1
  }
}
layer {
  name: "conv7_2_mbox_loc_flat"
  type: "Flatten"
  bottom: "conv7_2_mbox_loc_perm"
  top: "conv7_2_mbox_loc_flat"
  flatten_param {
    axis: 1
  }
}
layer {
  name: "conv7_2_mbox_conf"
  type: "Convolution"
  bottom: "conv7_2"
  top: "conv7_2_mbox_conf"
  param {
    lr_mult: 1
    decay_mult: 1
  }
  param {
    lr_mult: 2
    decay_mult: 0
  }
  convolution_param {
    num_output: 66
    pad: 1
    kernel_size: 3
    stride: 1
    weight_filler {
      type: "xavier"
    }
    bias_filler {
      type: "constant"
      value: 0
    }
  }
}
layer {
  name: "conv7_2_mbox_conf_perm"
  type: "Permute"
  bottom: "conv7_2_mbox_conf"
  top: "conv7_2_mbox_conf_perm"
  permute_param {
    order: 0
    order: 2
    order: 3
    order: 1
  }
}
layer {
  name: "conv7_2_mbox_conf_flat"
  type: "Flatten"
  bottom: "conv7_2_mbox_conf_perm"
  top: "conv7_2_mbox_conf_flat"
  flatten_param {
    axis: 1
  }
}
layer {
  name: "conv7_2_mbox_priorbox"
  type: "PriorBox"
  bottom: "conv7_2"
  bottom: "data"
  top: "conv7_2_mbox_priorbox"
  prior_box_param {
    min_size: 162
    max_size: 213
    aspect_ratio: 2
    aspect_ratio: 3
    flip: true
    clip: false
    variance: 0.1
    variance: 0.1
    variance: 0.2
    variance: 0.2
    step: 64
    offset: 0.5
  }
}
layer {
  name: "conv8_2_mbox_loc"
  type: "Convolution"
  bottom: "conv8_2"
  top: "conv8_2_mbox_loc"
  param {
    lr_mult: 1
    decay_mult: 1
  }
  param {
    lr_mult: 2
    decay_mult: 0
  }
  convolution_param {
    num_output: 16
    pad: 1
    kernel_size: 3
    stride: 1
    weight_filler {
      type: "xavier"
    }
    bias_filler {
      type: "constant"
      value: 0
    }
  }
}
layer {
  name: "conv8_2_mbox_loc_perm"
  type: "Permute"
  bottom: "conv8_2_mbox_loc"
  top: "conv8_2_mbox_loc_perm"
  permute_param {
    order: 0
    order: 2
    order: 3
    order: 1
  }
}
layer {
  name: "conv8_2_mbox_loc_flat"
  type: "Flatten"
  bottom: "conv8_2_mbox_loc_perm"
  top: "conv8_2_mbox_loc_flat"
  flatten_param {
    axis: 1
  }
}
layer {
  name: "conv8_2_mbox_conf"
  type: "Convolution"
  bottom: "conv8_2"
  top: "conv8_2_mbox_conf"
  param {
    lr_mult: 1
    decay_mult: 1
  }
  param {
    lr_mult: 2
    decay_mult: 0
  }
  convolution_param {
    num_output: 44
    pad: 1
    kernel_size: 3
    stride: 1
    weight_filler {
      type: "xavier"
    }
    bias_filler {
      type: "constant"
      value: 0
    }
  }
}
layer {
  name: "conv8_2_mbox_conf_perm"
  type: "Permute"
  bottom: "conv8_2_mbox_conf"
  top: "conv8_2_mbox_conf_perm"
  permute_param {
    order: 0
    order: 2
    order: 3
    order: 1
  }
}
layer {
  name: "conv8_2_mbox_conf_flat"
  type: "Flatten"
  bottom: "conv8_2_mbox_conf_perm"
  top: "conv8_2_mbox_conf_flat"
  flatten_param {
    axis: 1
  }
}
layer {
  name: "conv8_2_mbox_priorbox"
  type: "PriorBox"
  bottom: "conv8_2"
  bottom: "data"
  top: "conv8_2_mbox_priorbox"
  prior_box_param {
    min_size: 213
    max_size: 264
    aspect_ratio: 2
    flip: true
    clip: false
    variance: 0.1
    variance: 0.1
    variance: 0.2
    variance: 0.2
    step: 100
    offset: 0.5
  }
}
layer {
  name: "conv9_2_mbox_loc"
  type: "Convolution"
  bottom: "conv9_2"
  top: "conv9_2_mbox_loc"
  param {
    lr_mult: 1
    decay_mult: 1
  }
  param {
    lr_mult: 2
    decay_mult: 0
  }
  convolution_param {
    num_output: 16
    pad: 1
    kernel_size: 3
    stride: 1
    weight_filler {
      type: "xavier"
    }
    bias_filler {
      type: "constant"
      value: 0
    }
  }
}
layer {
  name: "conv9_2_mbox_loc_perm"
  type: "Permute"
  bottom: "conv9_2_mbox_loc"
  top: "conv9_2_mbox_loc_perm"
  permute_param {
    order: 0
    order: 2
    order: 3
    order: 1
  }
}
layer {
  name: "conv9_2_mbox_loc_flat"
  type: "Flatten"
  bottom: "conv9_2_mbox_loc_perm"
  top: "conv9_2_mbox_loc_flat"
  flatten_param {
    axis: 1
  }
}
layer {
  name: "conv9_2_mbox_conf"
  type: "Convolution"
  bottom: "conv9_2"
  top: "conv9_2_mbox_conf"
  param {
    lr_mult: 1
    decay_mult: 1
  }
  param {
    lr_mult: 2
    decay_mult: 0
  }
  convolution_param {
    num_output: 44
    pad: 1
    kernel_size: 3
    stride: 1
    weight_filler {
      type: "xavier"
    }
    bias_filler {
      type: "constant"
      value: 0
    }
  }
}
layer {
  name: "conv9_2_mbox_conf_perm"
  type: "Permute"
  bottom: "conv9_2_mbox_conf"
  top: "conv9_2_mbox_conf_perm"
  permute_param {
    order: 0
    order: 2
    order: 3
    order: 1
  }
}
layer {
  name: "conv9_2_mbox_conf_flat"
  type: "Flatten"
  bottom: "conv9_2_mbox_conf_perm"
  top: "conv9_2_mbox_conf_flat"
  flatten_param {
    axis: 1
  }
}
layer {
  name: "conv9_2_mbox_priorbox"
  type: "PriorBox"
  bottom: "conv9_2"
  bottom: "data"
  top: "conv9_2_mbox_priorbox"
  prior_box_param {
    min_size: 264
    max_size: 315
    aspect_ratio: 2
    flip: true
    clip: false
    variance: 0.1
    variance: 0.1
    variance: 0.2
    variance: 0.2
    step: 300
    offset: 0.5
  }
}
layer {
  name: "mbox_loc"
  type: "Concat"
  bottom: "conv4_3_norm_mbox_loc_flat"
  bottom: "fc7_mbox_loc_flat"
  bottom: "conv6_2_mbox_loc_flat"
  bottom: "conv7_2_mbox_loc_flat"
  bottom: "conv8_2_mbox_loc_flat"
  bottom: "conv9_2_mbox_loc_flat"
  top: "mbox_loc"
  concat_param {
    axis: 1
  }
}
layer {
  name: "mbox_conf"
  type: "Concat"
  bottom: "conv4_3_norm_mbox_conf_flat"
  bottom: "fc7_mbox_conf_flat"
  bottom: "conv6_2_mbox_conf_flat"
  bottom: "conv7_2_mbox_conf_flat"
  bottom: "conv8_2_mbox_conf_flat"
  bottom: "conv9_2_mbox_conf_flat"
  top: "mbox_conf"
  concat_param {
    axis: 1
  }
}
layer {
  name: "mbox_priorbox"
  type: "Concat"
  bottom: "conv4_3_norm_mbox_priorbox"
  bottom: "fc7_mbox_priorbox"
  bottom: "conv6_2_mbox_priorbox"
  bottom: "conv7_2_mbox_priorbox"
  bottom: "conv8_2_mbox_priorbox"
  bottom: "conv9_2_mbox_priorbox"
  top: "mbox_priorbox"
  concat_param {
    axis: 2
  }
}
layer {
  name: "test_loss"
  type: "MultiBoxLoss"
  bottom: "mbox_loc"
  bottom: "mbox_conf"
  bottom: "mbox_priorbox"
  bottom: "label"
  top: "test_loss"
  include {
    phase: TEST
  }
  propagate_down: true
  propagate_down: true
  propagate_down: false
  propagate_down: false
  loss_param {
    normalization: VALID
  }
  multibox_loss_param {
    loc_loss_type: SMOOTH_L1
    conf_loss_type: SOFTMAX
    loc_weight: 1
    num_classes: 11
    share_location: true
    match_type: PER_PREDICTION
    overlap_threshold: 0.5
    use_prior_for_matching: true
    background_label_id: 0
    use_difficult_gt: true
    neg_pos_ratio: 3
    neg_overlap: 0.5
    code_type: CENTER_SIZE
    ignore_cross_boundary_bbox: false
    mining_type: MAX_NEGATIVE
  }
}
layer {
  name: "silence"
  type: "Silence"
  bottom: "test_loss"
}
layer {
  name: "mbox_conf_reshape"
  type: "Reshape"
  bottom: "mbox_conf"
  top: "mbox_conf_reshape"
  reshape_param {
    shape {
      dim: 0
      dim: -1
      dim: 11
    }
  }
}
layer {
  name: "mbox_conf_softmax"
  type: "Softmax"
  bottom: "mbox_conf_reshape"
  top: "mbox_conf_softmax"
  softmax_param {
    axis: 2
  }
}
layer {
  name: "mbox_conf_flatten"
  type: "Flatten"
  bottom: "mbox_conf_softmax"
  top: "mbox_conf_flatten"
  flatten_param {
    axis: 1
  }
}
layer {
  name: "detection_out"
  type: "DetectionOutput"
  bottom: "mbox_loc"
  bottom: "mbox_conf_flatten"
  bottom: "mbox_priorbox"
  bottom: "label"
  top: "detection_out"
  include {
    phase: TEST
  }
  detection_output_param {
    num_classes: 11
    share_location: true
    background_label_id: 0
    nms_param {
      nms_threshold: 0.45
      top_k: 400
    }
    save_output_param {
      output_directory: "/home/zs/data/VOCdevkit/results/VOC2007/SSD_300x300_0319_ini/Main"
      output_name_prefix: "comp4_det_test_"
      output_format: "VOC"
      label_map_file: "data/NWPU_VHR/labelmap_NWPU_VHR.prototxt"
      name_size_file: "data/NWPU_VHR/test_name_size.txt"
      num_test_image: 123
    }
    code_type: CENTER_SIZE
    keep_top_k: 200
    confidence_threshold: 0.01
  }
}
layer {
  name: "detection_eval"
  type: "DetectionEvaluate"
  bottom: "detection_out"
  bottom: "label"
  top: "detection_eval"
  include {
    phase: TEST
  }
  detection_evaluate_param {
    num_classes: 11
    background_label_id: 0
    overlap_threshold: 0.5
    evaluate_difficult_gt: false
    name_size_file: "data/NWPU_VHR/test_name_size.txt"
  }
}
I0401 21:09:13.586392 12342 layer_factory.hpp:77] Creating layer data
I0401 21:09:13.586465 12342 net.cpp:100] Creating Layer data
I0401 21:09:13.586478 12342 net.cpp:408] data -> data
I0401 21:09:13.586496 12342 net.cpp:408] data -> label
I0401 21:09:13.598780 12360 db_lmdb.cpp:35] Opened lmdb examples/NWPU_VHR/NWPU_VHR_test_lmdb
I0401 21:09:13.625232 12342 annotated_data_layer.cpp:62] output data size: 1,3,300,300
I0401 21:09:13.642308 12342 net.cpp:150] Setting up data
I0401 21:09:13.642340 12342 net.cpp:157] Top shape: 1 3 300 300 (270000)
I0401 21:09:13.642352 12342 net.cpp:157] Top shape: 1 1 4 8 (32)
I0401 21:09:13.642359 12342 net.cpp:165] Memory required for data: 1080128
I0401 21:09:13.642369 12342 layer_factory.hpp:77] Creating layer data_data_0_split
I0401 21:09:13.642387 12342 net.cpp:100] Creating Layer data_data_0_split
I0401 21:09:13.642395 12342 net.cpp:434] data_data_0_split <- data
I0401 21:09:13.642405 12342 net.cpp:408] data_data_0_split -> data_data_0_split_0
I0401 21:09:13.642421 12342 net.cpp:408] data_data_0_split -> data_data_0_split_1
I0401 21:09:13.642429 12342 net.cpp:408] data_data_0_split -> data_data_0_split_2
I0401 21:09:13.642438 12342 net.cpp:408] data_data_0_split -> data_data_0_split_3
I0401 21:09:13.642446 12342 net.cpp:408] data_data_0_split -> data_data_0_split_4
I0401 21:09:13.642455 12342 net.cpp:408] data_data_0_split -> data_data_0_split_5
I0401 21:09:13.642463 12342 net.cpp:408] data_data_0_split -> data_data_0_split_6
I0401 21:09:13.642650 12342 net.cpp:150] Setting up data_data_0_split
I0401 21:09:13.642668 12342 net.cpp:157] Top shape: 1 3 300 300 (270000)
I0401 21:09:13.642675 12342 net.cpp:157] Top shape: 1 3 300 300 (270000)
I0401 21:09:13.642683 12342 net.cpp:157] Top shape: 1 3 300 300 (270000)
I0401 21:09:13.642691 12342 net.cpp:157] Top shape: 1 3 300 300 (270000)
I0401 21:09:13.642699 12342 net.cpp:157] Top shape: 1 3 300 300 (270000)
I0401 21:09:13.642705 12342 net.cpp:157] Top shape: 1 3 300 300 (270000)
I0401 21:09:13.642714 12342 net.cpp:157] Top shape: 1 3 300 300 (270000)
I0401 21:09:13.642719 12342 net.cpp:165] Memory required for data: 8640128
I0401 21:09:13.642725 12342 layer_factory.hpp:77] Creating layer label_data_1_split
I0401 21:09:13.642735 12342 net.cpp:100] Creating Layer label_data_1_split
I0401 21:09:13.642748 12342 net.cpp:434] label_data_1_split <- label
I0401 21:09:13.642761 12342 net.cpp:408] label_data_1_split -> label_data_1_split_0
I0401 21:09:13.642772 12342 net.cpp:408] label_data_1_split -> label_data_1_split_1
I0401 21:09:13.642781 12342 net.cpp:408] label_data_1_split -> label_data_1_split_2
I0401 21:09:13.642861 12342 net.cpp:150] Setting up label_data_1_split
I0401 21:09:13.642877 12342 net.cpp:157] Top shape: 1 1 4 8 (32)
I0401 21:09:13.642884 12342 net.cpp:157] Top shape: 1 1 4 8 (32)
I0401 21:09:13.642890 12342 net.cpp:157] Top shape: 1 1 4 8 (32)
I0401 21:09:13.642896 12342 net.cpp:165] Memory required for data: 8640512
I0401 21:09:13.642902 12342 layer_factory.hpp:77] Creating layer conv1_1
I0401 21:09:13.642921 12342 net.cpp:100] Creating Layer conv1_1
I0401 21:09:13.642933 12342 net.cpp:434] conv1_1 <- data_data_0_split_0
I0401 21:09:13.642946 12342 net.cpp:408] conv1_1 -> conv1_1
I0401 21:09:13.645685 12342 net.cpp:150] Setting up conv1_1
I0401 21:09:13.645705 12342 net.cpp:157] Top shape: 1 64 300 300 (5760000)
I0401 21:09:13.645714 12342 net.cpp:165] Memory required for data: 31680512
I0401 21:09:13.645754 12342 layer_factory.hpp:77] Creating layer relu1_1
I0401 21:09:13.645767 12342 net.cpp:100] Creating Layer relu1_1
I0401 21:09:13.645773 12342 net.cpp:434] relu1_1 <- conv1_1
I0401 21:09:13.645781 12342 net.cpp:395] relu1_1 -> conv1_1 (in-place)
I0401 21:09:13.646023 12342 net.cpp:150] Setting up relu1_1
I0401 21:09:13.646040 12342 net.cpp:157] Top shape: 1 64 300 300 (5760000)
I0401 21:09:13.646050 12342 net.cpp:165] Memory required for data: 54720512
I0401 21:09:13.646059 12342 layer_factory.hpp:77] Creating layer conv1_2
I0401 21:09:13.646072 12342 net.cpp:100] Creating Layer conv1_2
I0401 21:09:13.646080 12342 net.cpp:434] conv1_2 <- conv1_1
I0401 21:09:13.646090 12342 net.cpp:408] conv1_2 -> conv1_2
I0401 21:09:13.648270 12342 net.cpp:150] Setting up conv1_2
I0401 21:09:13.648290 12342 net.cpp:157] Top shape: 1 64 300 300 (5760000)
I0401 21:09:13.648300 12342 net.cpp:165] Memory required for data: 77760512
I0401 21:09:13.648315 12342 layer_factory.hpp:77] Creating layer relu1_2
I0401 21:09:13.648324 12342 net.cpp:100] Creating Layer relu1_2
I0401 21:09:13.648331 12342 net.cpp:434] relu1_2 <- conv1_2
I0401 21:09:13.648339 12342 net.cpp:395] relu1_2 -> conv1_2 (in-place)
I0401 21:09:13.648568 12342 net.cpp:150] Setting up relu1_2
I0401 21:09:13.648586 12342 net.cpp:157] Top shape: 1 64 300 300 (5760000)
I0401 21:09:13.648597 12342 net.cpp:165] Memory required for data: 100800512
I0401 21:09:13.648604 12342 layer_factory.hpp:77] Creating layer pool1
I0401 21:09:13.648615 12342 net.cpp:100] Creating Layer pool1
I0401 21:09:13.648622 12342 net.cpp:434] pool1 <- conv1_2
I0401 21:09:13.648629 12342 net.cpp:408] pool1 -> pool1
I0401 21:09:13.648702 12342 net.cpp:150] Setting up pool1
I0401 21:09:13.648718 12342 net.cpp:157] Top shape: 1 64 150 150 (1440000)
I0401 21:09:13.648725 12342 net.cpp:165] Memory required for data: 106560512
I0401 21:09:13.648735 12342 layer_factory.hpp:77] Creating layer conv2_1
I0401 21:09:13.648749 12342 net.cpp:100] Creating Layer conv2_1
I0401 21:09:13.648763 12342 net.cpp:434] conv2_1 <- pool1
I0401 21:09:13.648777 12342 net.cpp:408] conv2_1 -> conv2_1
I0401 21:09:13.668100 12342 net.cpp:150] Setting up conv2_1
I0401 21:09:13.668134 12342 net.cpp:157] Top shape: 1 128 150 150 (2880000)
I0401 21:09:13.668140 12342 net.cpp:165] Memory required for data: 118080512
I0401 21:09:13.668164 12342 layer_factory.hpp:77] Creating layer relu2_1
I0401 21:09:13.668179 12342 net.cpp:100] Creating Layer relu2_1
I0401 21:09:13.668187 12342 net.cpp:434] relu2_1 <- conv2_1
I0401 21:09:13.668196 12342 net.cpp:395] relu2_1 -> conv2_1 (in-place)
I0401 21:09:13.669158 12342 net.cpp:150] Setting up relu2_1
I0401 21:09:13.669178 12342 net.cpp:157] Top shape: 1 128 150 150 (2880000)
I0401 21:09:13.669188 12342 net.cpp:165] Memory required for data: 129600512
I0401 21:09:13.669196 12342 layer_factory.hpp:77] Creating layer conv2_2
I0401 21:09:13.669212 12342 net.cpp:100] Creating Layer conv2_2
I0401 21:09:13.669220 12342 net.cpp:434] conv2_2 <- conv2_1
I0401 21:09:13.669230 12342 net.cpp:408] conv2_2 -> conv2_2
I0401 21:09:13.672996 12342 net.cpp:150] Setting up conv2_2
I0401 21:09:13.673015 12342 net.cpp:157] Top shape: 1 128 150 150 (2880000)
I0401 21:09:13.673027 12342 net.cpp:165] Memory required for data: 141120512
I0401 21:09:13.673041 12342 layer_factory.hpp:77] Creating layer relu2_2
I0401 21:09:13.673050 12342 net.cpp:100] Creating Layer relu2_2
I0401 21:09:13.673056 12342 net.cpp:434] relu2_2 <- conv2_2
I0401 21:09:13.673065 12342 net.cpp:395] relu2_2 -> conv2_2 (in-place)
I0401 21:09:13.673305 12342 net.cpp:150] Setting up relu2_2
I0401 21:09:13.673323 12342 net.cpp:157] Top shape: 1 128 150 150 (2880000)
I0401 21:09:13.673334 12342 net.cpp:165] Memory required for data: 152640512
I0401 21:09:13.673342 12342 layer_factory.hpp:77] Creating layer pool2
I0401 21:09:13.673353 12342 net.cpp:100] Creating Layer pool2
I0401 21:09:13.673359 12342 net.cpp:434] pool2 <- conv2_2
I0401 21:09:13.673368 12342 net.cpp:408] pool2 -> pool2
I0401 21:09:13.673442 12342 net.cpp:150] Setting up pool2
I0401 21:09:13.673460 12342 net.cpp:157] Top shape: 1 128 75 75 (720000)
I0401 21:09:13.673465 12342 net.cpp:165] Memory required for data: 155520512
I0401 21:09:13.673471 12342 layer_factory.hpp:77] Creating layer conv3_1
I0401 21:09:13.673485 12342 net.cpp:100] Creating Layer conv3_1
I0401 21:09:13.673497 12342 net.cpp:434] conv3_1 <- pool2
I0401 21:09:13.673511 12342 net.cpp:408] conv3_1 -> conv3_1
I0401 21:09:13.679904 12342 net.cpp:150] Setting up conv3_1
I0401 21:09:13.679965 12342 net.cpp:157] Top shape: 1 256 75 75 (1440000)
I0401 21:09:13.679989 12342 net.cpp:165] Memory required for data: 161280512
I0401 21:09:13.680021 12342 layer_factory.hpp:77] Creating layer relu3_1
I0401 21:09:13.680045 12342 net.cpp:100] Creating Layer relu3_1
I0401 21:09:13.680066 12342 net.cpp:434] relu3_1 <- conv3_1
I0401 21:09:13.680088 12342 net.cpp:395] relu3_1 -> conv3_1 (in-place)
I0401 21:09:13.680369 12342 net.cpp:150] Setting up relu3_1
I0401 21:09:13.693768 12342 net.cpp:157] Top shape: 1 256 75 75 (1440000)
I0401 21:09:13.693811 12342 net.cpp:165] Memory required for data: 167040512
I0401 21:09:13.693838 12342 layer_factory.hpp:77] Creating layer conv3_2
I0401 21:09:13.693868 12342 net.cpp:100] Creating Layer conv3_2
I0401 21:09:13.693891 12342 net.cpp:434] conv3_2 <- conv3_1
I0401 21:09:13.693915 12342 net.cpp:408] conv3_2 -> conv3_2
I0401 21:09:13.702610 12342 net.cpp:150] Setting up conv3_2
I0401 21:09:13.702669 12342 net.cpp:157] Top shape: 1 256 75 75 (1440000)
I0401 21:09:13.702694 12342 net.cpp:165] Memory required for data: 172800512
I0401 21:09:13.702723 12342 layer_factory.hpp:77] Creating layer relu3_2
I0401 21:09:13.702752 12342 net.cpp:100] Creating Layer relu3_2
I0401 21:09:13.702775 12342 net.cpp:434] relu3_2 <- conv3_2
I0401 21:09:13.702795 12342 net.cpp:395] relu3_2 -> conv3_2 (in-place)
I0401 21:09:13.703073 12342 net.cpp:150] Setting up relu3_2
I0401 21:09:13.703109 12342 net.cpp:157] Top shape: 1 256 75 75 (1440000)
I0401 21:09:13.703135 12342 net.cpp:165] Memory required for data: 178560512
I0401 21:09:13.703153 12342 layer_factory.hpp:77] Creating layer conv3_3
I0401 21:09:13.703199 12342 net.cpp:100] Creating Layer conv3_3
I0401 21:09:13.703225 12342 net.cpp:434] conv3_3 <- conv3_2
I0401 21:09:13.703256 12342 net.cpp:408] conv3_3 -> conv3_3
I0401 21:09:13.716363 12342 net.cpp:150] Setting up conv3_3
I0401 21:09:13.729773 12342 net.cpp:157] Top shape: 1 256 75 75 (1440000)
I0401 21:09:13.729828 12342 net.cpp:165] Memory required for data: 184320512
I0401 21:09:13.729868 12342 layer_factory.hpp:77] Creating layer relu3_3
I0401 21:09:13.729902 12342 net.cpp:100] Creating Layer relu3_3
I0401 21:09:13.729923 12342 net.cpp:434] relu3_3 <- conv3_3
I0401 21:09:13.729946 12342 net.cpp:395] relu3_3 -> conv3_3 (in-place)
I0401 21:09:13.731166 12342 net.cpp:150] Setting up relu3_3
I0401 21:09:13.731205 12342 net.cpp:157] Top shape: 1 256 75 75 (1440000)
I0401 21:09:13.731231 12342 net.cpp:165] Memory required for data: 190080512
I0401 21:09:13.731253 12342 layer_factory.hpp:77] Creating layer pool3
I0401 21:09:13.731276 12342 net.cpp:100] Creating Layer pool3
I0401 21:09:13.731295 12342 net.cpp:434] pool3 <- conv3_3
I0401 21:09:13.731318 12342 net.cpp:408] pool3 -> pool3
I0401 21:09:13.731439 12342 net.cpp:150] Setting up pool3
I0401 21:09:13.731473 12342 net.cpp:157] Top shape: 1 256 38 38 (369664)
I0401 21:09:13.731498 12342 net.cpp:165] Memory required for data: 191559168
I0401 21:09:13.731518 12342 layer_factory.hpp:77] Creating layer conv4_1
I0401 21:09:13.731547 12342 net.cpp:100] Creating Layer conv4_1
I0401 21:09:13.731572 12342 net.cpp:434] conv4_1 <- pool3
I0401 21:09:13.731603 12342 net.cpp:408] conv4_1 -> conv4_1
I0401 21:09:13.762704 12342 net.cpp:150] Setting up conv4_1
I0401 21:09:13.762776 12342 net.cpp:157] Top shape: 1 512 38 38 (739328)
I0401 21:09:13.762800 12342 net.cpp:165] Memory required for data: 194516480
I0401 21:09:13.762830 12342 layer_factory.hpp:77] Creating layer relu4_1
I0401 21:09:13.762856 12342 net.cpp:100] Creating Layer relu4_1
I0401 21:09:13.762877 12342 net.cpp:434] relu4_1 <- conv4_1
I0401 21:09:13.762899 12342 net.cpp:395] relu4_1 -> conv4_1 (in-place)
I0401 21:09:13.763226 12342 net.cpp:150] Setting up relu4_1
I0401 21:09:13.763264 12342 net.cpp:157] Top shape: 1 512 38 38 (739328)
I0401 21:09:13.763290 12342 net.cpp:165] Memory required for data: 197473792
I0401 21:09:13.763311 12342 layer_factory.hpp:77] Creating layer conv4_2
I0401 21:09:13.763340 12342 net.cpp:100] Creating Layer conv4_2
I0401 21:09:13.763361 12342 net.cpp:434] conv4_2 <- conv4_1
I0401 21:09:13.763384 12342 net.cpp:408] conv4_2 -> conv4_2
I0401 21:09:13.819525 12342 net.cpp:150] Setting up conv4_2
I0401 21:09:13.819598 12342 net.cpp:157] Top shape: 1 512 38 38 (739328)
I0401 21:09:13.819622 12342 net.cpp:165] Memory required for data: 200431104
I0401 21:09:13.819658 12342 layer_factory.hpp:77] Creating layer relu4_2
I0401 21:09:13.819684 12342 net.cpp:100] Creating Layer relu4_2
I0401 21:09:13.819703 12342 net.cpp:434] relu4_2 <- conv4_2
I0401 21:09:13.819726 12342 net.cpp:395] relu4_2 -> conv4_2 (in-place)
I0401 21:09:13.820005 12342 net.cpp:150] Setting up relu4_2
I0401 21:09:13.820044 12342 net.cpp:157] Top shape: 1 512 38 38 (739328)
I0401 21:09:13.820070 12342 net.cpp:165] Memory required for data: 203388416
I0401 21:09:13.820091 12342 layer_factory.hpp:77] Creating layer conv4_3
I0401 21:09:13.820119 12342 net.cpp:100] Creating Layer conv4_3
I0401 21:09:13.820144 12342 net.cpp:434] conv4_3 <- conv4_2
I0401 21:09:13.820176 12342 net.cpp:408] conv4_3 -> conv4_3
I0401 21:09:13.866412 12342 net.cpp:150] Setting up conv4_3
I0401 21:09:13.881773 12342 net.cpp:157] Top shape: 1 512 38 38 (739328)
I0401 21:09:13.881826 12342 net.cpp:165] Memory required for data: 206345728
I0401 21:09:13.881861 12342 layer_factory.hpp:77] Creating layer relu4_3
I0401 21:09:13.881888 12342 net.cpp:100] Creating Layer relu4_3
I0401 21:09:13.881911 12342 net.cpp:434] relu4_3 <- conv4_3
I0401 21:09:13.881932 12342 net.cpp:395] relu4_3 -> conv4_3 (in-place)
I0401 21:09:13.883188 12342 net.cpp:150] Setting up relu4_3
I0401 21:09:13.883224 12342 net.cpp:157] Top shape: 1 512 38 38 (739328)
I0401 21:09:13.883262 12342 net.cpp:165] Memory required for data: 209303040
I0401 21:09:13.883301 12342 layer_factory.hpp:77] Creating layer conv4_3_relu4_3_0_split
I0401 21:09:13.883330 12342 net.cpp:100] Creating Layer conv4_3_relu4_3_0_split
I0401 21:09:13.883352 12342 net.cpp:434] conv4_3_relu4_3_0_split <- conv4_3
I0401 21:09:13.883374 12342 net.cpp:408] conv4_3_relu4_3_0_split -> conv4_3_relu4_3_0_split_0
I0401 21:09:13.883400 12342 net.cpp:408] conv4_3_relu4_3_0_split -> conv4_3_relu4_3_0_split_1
I0401 21:09:13.883512 12342 net.cpp:150] Setting up conv4_3_relu4_3_0_split
I0401 21:09:13.883546 12342 net.cpp:157] Top shape: 1 512 38 38 (739328)
I0401 21:09:13.883574 12342 net.cpp:157] Top shape: 1 512 38 38 (739328)
I0401 21:09:13.883592 12342 net.cpp:165] Memory required for data: 215217664
I0401 21:09:13.883611 12342 layer_factory.hpp:77] Creating layer pool4
I0401 21:09:13.883633 12342 net.cpp:100] Creating Layer pool4
I0401 21:09:13.883661 12342 net.cpp:434] pool4 <- conv4_3_relu4_3_0_split_0
I0401 21:09:13.883690 12342 net.cpp:408] pool4 -> pool4
I0401 21:09:13.883778 12342 net.cpp:150] Setting up pool4
I0401 21:09:13.883812 12342 net.cpp:157] Top shape: 1 512 19 19 (184832)
I0401 21:09:13.883837 12342 net.cpp:165] Memory required for data: 215956992
I0401 21:09:13.883857 12342 layer_factory.hpp:77] Creating layer conv5_1
I0401 21:09:13.883885 12342 net.cpp:100] Creating Layer conv5_1
I0401 21:09:13.883911 12342 net.cpp:434] conv5_1 <- pool4
I0401 21:09:13.883944 12342 net.cpp:408] conv5_1 -> conv5_1
I0401 21:09:13.921821 12342 net.cpp:150] Setting up conv5_1
I0401 21:09:13.937767 12342 net.cpp:157] Top shape: 1 512 19 19 (184832)
I0401 21:09:13.937821 12342 net.cpp:165] Memory required for data: 216696320
I0401 21:09:13.937857 12342 layer_factory.hpp:77] Creating layer relu5_1
I0401 21:09:13.937882 12342 net.cpp:100] Creating Layer relu5_1
I0401 21:09:13.937906 12342 net.cpp:434] relu5_1 <- conv5_1
I0401 21:09:13.937928 12342 net.cpp:395] relu5_1 -> conv5_1 (in-place)
I0401 21:09:13.938280 12342 net.cpp:150] Setting up relu5_1
I0401 21:09:13.938316 12342 net.cpp:157] Top shape: 1 512 19 19 (184832)
I0401 21:09:13.938343 12342 net.cpp:165] Memory required for data: 217435648
I0401 21:09:13.938372 12342 layer_factory.hpp:77] Creating layer conv5_2
I0401 21:09:13.938405 12342 net.cpp:100] Creating Layer conv5_2
I0401 21:09:13.938426 12342 net.cpp:434] conv5_2 <- conv5_1
I0401 21:09:13.938457 12342 net.cpp:408] conv5_2 -> conv5_2
I0401 21:09:13.980674 12342 net.cpp:150] Setting up conv5_2
I0401 21:09:13.980749 12342 net.cpp:157] Top shape: 1 512 19 19 (184832)
I0401 21:09:13.980774 12342 net.cpp:165] Memory required for data: 218174976
I0401 21:09:13.980803 12342 layer_factory.hpp:77] Creating layer relu5_2
I0401 21:09:13.980829 12342 net.cpp:100] Creating Layer relu5_2
I0401 21:09:13.980849 12342 net.cpp:434] relu5_2 <- conv5_2
I0401 21:09:13.980870 12342 net.cpp:395] relu5_2 -> conv5_2 (in-place)
I0401 21:09:13.981163 12342 net.cpp:150] Setting up relu5_2
I0401 21:09:13.981199 12342 net.cpp:157] Top shape: 1 512 19 19 (184832)
I0401 21:09:13.981225 12342 net.cpp:165] Memory required for data: 218914304
I0401 21:09:13.981245 12342 layer_factory.hpp:77] Creating layer conv5_3
I0401 21:09:13.981285 12342 net.cpp:100] Creating Layer conv5_3
I0401 21:09:13.981313 12342 net.cpp:434] conv5_3 <- conv5_2
I0401 21:09:13.981345 12342 net.cpp:408] conv5_3 -> conv5_3
I0401 21:09:14.033077 12342 net.cpp:150] Setting up conv5_3
I0401 21:09:14.033776 12342 net.cpp:157] Top shape: 1 512 19 19 (184832)
I0401 21:09:14.033812 12342 net.cpp:165] Memory required for data: 219653632
I0401 21:09:14.033851 12342 layer_factory.hpp:77] Creating layer relu5_3
I0401 21:09:14.033890 12342 net.cpp:100] Creating Layer relu5_3
I0401 21:09:14.033915 12342 net.cpp:434] relu5_3 <- conv5_3
I0401 21:09:14.033938 12342 net.cpp:395] relu5_3 -> conv5_3 (in-place)
I0401 21:09:14.035097 12342 net.cpp:150] Setting up relu5_3
I0401 21:09:14.035136 12342 net.cpp:157] Top shape: 1 512 19 19 (184832)
I0401 21:09:14.035162 12342 net.cpp:165] Memory required for data: 220392960
I0401 21:09:14.035203 12342 layer_factory.hpp:77] Creating layer pool5
I0401 21:09:14.035233 12342 net.cpp:100] Creating Layer pool5
I0401 21:09:14.035257 12342 net.cpp:434] pool5 <- conv5_3
I0401 21:09:14.035288 12342 net.cpp:408] pool5 -> pool5
I0401 21:09:14.035398 12342 net.cpp:150] Setting up pool5
I0401 21:09:14.035434 12342 net.cpp:157] Top shape: 1 512 19 19 (184832)
I0401 21:09:14.035457 12342 net.cpp:165] Memory required for data: 221132288
I0401 21:09:14.035477 12342 layer_factory.hpp:77] Creating layer fc6
I0401 21:09:14.035509 12342 net.cpp:100] Creating Layer fc6
I0401 21:09:14.035535 12342 net.cpp:434] fc6 <- pool5
I0401 21:09:14.035569 12342 net.cpp:408] fc6 -> fc6
I0401 21:09:14.083395 12342 net.cpp:150] Setting up fc6
I0401 21:09:14.083636 12342 net.cpp:157] Top shape: 1 1024 19 19 (369664)
I0401 21:09:14.083724 12342 net.cpp:165] Memory required for data: 222610944
I0401 21:09:14.083803 12342 layer_factory.hpp:77] Creating layer relu6
I0401 21:09:14.083879 12342 net.cpp:100] Creating Layer relu6
I0401 21:09:14.083947 12342 net.cpp:434] relu6 <- fc6
I0401 21:09:14.084018 12342 net.cpp:395] relu6 -> fc6 (in-place)
I0401 21:09:14.084408 12342 net.cpp:150] Setting up relu6
I0401 21:09:14.084528 12342 net.cpp:157] Top shape: 1 1024 19 19 (369664)
I0401 21:09:14.084594 12342 net.cpp:165] Memory required for data: 224089600
I0401 21:09:14.084662 12342 layer_factory.hpp:77] Creating layer fc7
I0401 21:09:14.084749 12342 net.cpp:100] Creating Layer fc7
I0401 21:09:14.084818 12342 net.cpp:434] fc7 <- fc6
I0401 21:09:14.084899 12342 net.cpp:408] fc7 -> fc7
I0401 21:09:14.102016 12342 net.cpp:150] Setting up fc7
I0401 21:09:14.102238 12342 net.cpp:157] Top shape: 1 1024 19 19 (369664)
I0401 21:09:14.102308 12342 net.cpp:165] Memory required for data: 225568256
I0401 21:09:14.102389 12342 layer_factory.hpp:77] Creating layer relu7
I0401 21:09:14.102468 12342 net.cpp:100] Creating Layer relu7
I0401 21:09:14.102538 12342 net.cpp:434] relu7 <- fc7
I0401 21:09:14.102612 12342 net.cpp:395] relu7 -> fc7 (in-place)
I0401 21:09:14.102960 12342 net.cpp:150] Setting up relu7
I0401 21:09:14.103040 12342 net.cpp:157] Top shape: 1 1024 19 19 (369664)
I0401 21:09:14.103111 12342 net.cpp:165] Memory required for data: 227046912
I0401 21:09:14.103184 12342 layer_factory.hpp:77] Creating layer fc7_relu7_0_split
I0401 21:09:14.103266 12342 net.cpp:100] Creating Layer fc7_relu7_0_split
I0401 21:09:14.103336 12342 net.cpp:434] fc7_relu7_0_split <- fc7
I0401 21:09:14.103412 12342 net.cpp:408] fc7_relu7_0_split -> fc7_relu7_0_split_0
I0401 21:09:14.103494 12342 net.cpp:408] fc7_relu7_0_split -> fc7_relu7_0_split_1
I0401 21:09:14.103574 12342 net.cpp:408] fc7_relu7_0_split -> fc7_relu7_0_split_2
I0401 21:09:14.103652 12342 net.cpp:408] fc7_relu7_0_split -> fc7_relu7_0_split_3
I0401 21:09:14.103824 12342 net.cpp:150] Setting up fc7_relu7_0_split
I0401 21:09:14.103899 12342 net.cpp:157] Top shape: 1 1024 19 19 (369664)
I0401 21:09:14.103966 12342 net.cpp:157] Top shape: 1 1024 19 19 (369664)
I0401 21:09:14.104037 12342 net.cpp:157] Top shape: 1 1024 19 19 (369664)
I0401 21:09:14.104104 12342 net.cpp:157] Top shape: 1 1024 19 19 (369664)
I0401 21:09:14.104167 12342 net.cpp:165] Memory required for data: 232961536
I0401 21:09:14.104233 12342 layer_factory.hpp:77] Creating layer conv6_1
I0401 21:09:14.104317 12342 net.cpp:100] Creating Layer conv6_1
I0401 21:09:14.104383 12342 net.cpp:434] conv6_1 <- fc7_relu7_0_split_0
I0401 21:09:14.104457 12342 net.cpp:408] conv6_1 -> conv6_1
I0401 21:09:14.110990 12342 net.cpp:150] Setting up conv6_1
I0401 21:09:14.133770 12342 net.cpp:157] Top shape: 1 256 19 19 (92416)
I0401 21:09:14.133936 12342 net.cpp:165] Memory required for data: 233331200
I0401 21:09:14.134022 12342 layer_factory.hpp:77] Creating layer conv6_1_relu
I0401 21:09:14.134109 12342 net.cpp:100] Creating Layer conv6_1_relu
I0401 21:09:14.134183 12342 net.cpp:434] conv6_1_relu <- conv6_1
I0401 21:09:14.134268 12342 net.cpp:395] conv6_1_relu -> conv6_1 (in-place)
I0401 21:09:14.134676 12342 net.cpp:150] Setting up conv6_1_relu
I0401 21:09:14.134816 12342 net.cpp:157] Top shape: 1 256 19 19 (92416)
I0401 21:09:14.134886 12342 net.cpp:165] Memory required for data: 233700864
I0401 21:09:14.134959 12342 layer_factory.hpp:77] Creating layer conv6_2
I0401 21:09:14.135044 12342 net.cpp:100] Creating Layer conv6_2
I0401 21:09:14.135114 12342 net.cpp:434] conv6_2 <- conv6_1
I0401 21:09:14.135191 12342 net.cpp:408] conv6_2 -> conv6_2
I0401 21:09:14.174613 12342 net.cpp:150] Setting up conv6_2
I0401 21:09:14.174681 12342 net.cpp:157] Top shape: 1 512 10 10 (51200)
I0401 21:09:14.174706 12342 net.cpp:165] Memory required for data: 233905664
I0401 21:09:14.174752 12342 layer_factory.hpp:77] Creating layer conv6_2_relu
I0401 21:09:14.174787 12342 net.cpp:100] Creating Layer conv6_2_relu
I0401 21:09:14.174813 12342 net.cpp:434] conv6_2_relu <- conv6_2
I0401 21:09:14.174839 12342 net.cpp:395] conv6_2_relu -> conv6_2 (in-place)
I0401 21:09:14.175932 12342 net.cpp:150] Setting up conv6_2_relu
I0401 21:09:14.175968 12342 net.cpp:157] Top shape: 1 512 10 10 (51200)
I0401 21:09:14.175992 12342 net.cpp:165] Memory required for data: 234110464
I0401 21:09:14.176013 12342 layer_factory.hpp:77] Creating layer conv6_2_conv6_2_relu_0_split
I0401 21:09:14.176041 12342 net.cpp:100] Creating Layer conv6_2_conv6_2_relu_0_split
I0401 21:09:14.176065 12342 net.cpp:434] conv6_2_conv6_2_relu_0_split <- conv6_2
I0401 21:09:14.176090 12342 net.cpp:408] conv6_2_conv6_2_relu_0_split -> conv6_2_conv6_2_relu_0_split_0
I0401 21:09:14.176120 12342 net.cpp:408] conv6_2_conv6_2_relu_0_split -> conv6_2_conv6_2_relu_0_split_1
I0401 21:09:14.181794 12342 net.cpp:408] conv6_2_conv6_2_relu_0_split -> conv6_2_conv6_2_relu_0_split_2
I0401 21:09:14.181835 12342 net.cpp:408] conv6_2_conv6_2_relu_0_split -> conv6_2_conv6_2_relu_0_split_3
I0401 21:09:14.182004 12342 net.cpp:150] Setting up conv6_2_conv6_2_relu_0_split
I0401 21:09:14.182034 12342 net.cpp:157] Top shape: 1 512 10 10 (51200)
I0401 21:09:14.182060 12342 net.cpp:157] Top shape: 1 512 10 10 (51200)
I0401 21:09:14.182083 12342 net.cpp:157] Top shape: 1 512 10 10 (51200)
I0401 21:09:14.182104 12342 net.cpp:157] Top shape: 1 512 10 10 (51200)
I0401 21:09:14.182126 12342 net.cpp:165] Memory required for data: 234929664
I0401 21:09:14.182147 12342 layer_factory.hpp:77] Creating layer conv7_1
I0401 21:09:14.182183 12342 net.cpp:100] Creating Layer conv7_1
I0401 21:09:14.182207 12342 net.cpp:434] conv7_1 <- conv6_2_conv6_2_relu_0_split_0
I0401 21:09:14.182235 12342 net.cpp:408] conv7_1 -> conv7_1
I0401 21:09:14.185053 12342 net.cpp:150] Setting up conv7_1
I0401 21:09:14.185092 12342 net.cpp:157] Top shape: 1 128 10 10 (12800)
I0401 21:09:14.185117 12342 net.cpp:165] Memory required for data: 234980864
I0401 21:09:14.185145 12342 layer_factory.hpp:77] Creating layer conv7_1_relu
I0401 21:09:14.185173 12342 net.cpp:100] Creating Layer conv7_1_relu
I0401 21:09:14.185194 12342 net.cpp:434] conv7_1_relu <- conv7_1
I0401 21:09:14.185217 12342 net.cpp:395] conv7_1_relu -> conv7_1 (in-place)
I0401 21:09:14.185510 12342 net.cpp:150] Setting up conv7_1_relu
I0401 21:09:14.185542 12342 net.cpp:157] Top shape: 1 128 10 10 (12800)
I0401 21:09:14.185564 12342 net.cpp:165] Memory required for data: 235032064
I0401 21:09:14.185585 12342 layer_factory.hpp:77] Creating layer conv7_2
I0401 21:09:14.185618 12342 net.cpp:100] Creating Layer conv7_2
I0401 21:09:14.185643 12342 net.cpp:434] conv7_2 <- conv7_1
I0401 21:09:14.185669 12342 net.cpp:408] conv7_2 -> conv7_2
I0401 21:09:14.191541 12342 net.cpp:150] Setting up conv7_2
I0401 21:09:14.213774 12342 net.cpp:157] Top shape: 1 256 5 5 (6400)
I0401 21:09:14.213834 12342 net.cpp:165] Memory required for data: 235057664
I0401 21:09:14.213871 12342 layer_factory.hpp:77] Creating layer conv7_2_relu
I0401 21:09:14.213910 12342 net.cpp:100] Creating Layer conv7_2_relu
I0401 21:09:14.213937 12342 net.cpp:434] conv7_2_relu <- conv7_2
I0401 21:09:14.213964 12342 net.cpp:395] conv7_2_relu -> conv7_2 (in-place)
I0401 21:09:14.214381 12342 net.cpp:150] Setting up conv7_2_relu
I0401 21:09:14.214423 12342 net.cpp:157] Top shape: 1 256 5 5 (6400)
I0401 21:09:14.214460 12342 net.cpp:165] Memory required for data: 235083264
I0401 21:09:14.214484 12342 layer_factory.hpp:77] Creating layer conv7_2_conv7_2_relu_0_split
I0401 21:09:14.214514 12342 net.cpp:100] Creating Layer conv7_2_conv7_2_relu_0_split
I0401 21:09:14.214535 12342 net.cpp:434] conv7_2_conv7_2_relu_0_split <- conv7_2
I0401 21:09:14.214560 12342 net.cpp:408] conv7_2_conv7_2_relu_0_split -> conv7_2_conv7_2_relu_0_split_0
I0401 21:09:14.214592 12342 net.cpp:408] conv7_2_conv7_2_relu_0_split -> conv7_2_conv7_2_relu_0_split_1
I0401 21:09:14.214622 12342 net.cpp:408] conv7_2_conv7_2_relu_0_split -> conv7_2_conv7_2_relu_0_split_2
I0401 21:09:14.214649 12342 net.cpp:408] conv7_2_conv7_2_relu_0_split -> conv7_2_conv7_2_relu_0_split_3
I0401 21:09:14.214830 12342 net.cpp:150] Setting up conv7_2_conv7_2_relu_0_split
I0401 21:09:14.214860 12342 net.cpp:157] Top shape: 1 256 5 5 (6400)
I0401 21:09:14.214884 12342 net.cpp:157] Top shape: 1 256 5 5 (6400)
I0401 21:09:14.214906 12342 net.cpp:157] Top shape: 1 256 5 5 (6400)
I0401 21:09:14.214929 12342 net.cpp:157] Top shape: 1 256 5 5 (6400)
I0401 21:09:14.214951 12342 net.cpp:165] Memory required for data: 235185664
I0401 21:09:14.214972 12342 layer_factory.hpp:77] Creating layer conv8_1
I0401 21:09:14.215006 12342 net.cpp:100] Creating Layer conv8_1
I0401 21:09:14.215030 12342 net.cpp:434] conv8_1 <- conv7_2_conv7_2_relu_0_split_0
I0401 21:09:14.215057 12342 net.cpp:408] conv8_1 -> conv8_1
I0401 21:09:14.217684 12342 net.cpp:150] Setting up conv8_1
I0401 21:09:14.217721 12342 net.cpp:157] Top shape: 1 128 5 5 (3200)
I0401 21:09:14.217772 12342 net.cpp:165] Memory required for data: 235198464
I0401 21:09:14.217800 12342 layer_factory.hpp:77] Creating layer conv8_1_relu
I0401 21:09:14.217825 12342 net.cpp:100] Creating Layer conv8_1_relu
I0401 21:09:14.217847 12342 net.cpp:434] conv8_1_relu <- conv8_1
I0401 21:09:14.217872 12342 net.cpp:395] conv8_1_relu -> conv8_1 (in-place)
I0401 21:09:14.218963 12342 net.cpp:150] Setting up conv8_1_relu
I0401 21:09:14.233768 12342 net.cpp:157] Top shape: 1 128 5 5 (3200)
I0401 21:09:14.233817 12342 net.cpp:165] Memory required for data: 235211264
I0401 21:09:14.233844 12342 layer_factory.hpp:77] Creating layer conv8_2
I0401 21:09:14.233887 12342 net.cpp:100] Creating Layer conv8_2
I0401 21:09:14.233911 12342 net.cpp:434] conv8_2 <- conv8_1
I0401 21:09:14.233932 12342 net.cpp:408] conv8_2 -> conv8_2
I0401 21:09:14.240685 12342 net.cpp:150] Setting up conv8_2
I0401 21:09:14.240741 12342 net.cpp:157] Top shape: 1 256 3 3 (2304)
I0401 21:09:14.240758 12342 net.cpp:165] Memory required for data: 235220480
I0401 21:09:14.240783 12342 layer_factory.hpp:77] Creating layer conv8_2_relu
I0401 21:09:14.240805 12342 net.cpp:100] Creating Layer conv8_2_relu
I0401 21:09:14.240824 12342 net.cpp:434] conv8_2_relu <- conv8_2
I0401 21:09:14.240845 12342 net.cpp:395] conv8_2_relu -> conv8_2 (in-place)
I0401 21:09:14.241107 12342 net.cpp:150] Setting up conv8_2_relu
I0401 21:09:14.241135 12342 net.cpp:157] Top shape: 1 256 3 3 (2304)
I0401 21:09:14.241153 12342 net.cpp:165] Memory required for data: 235229696
I0401 21:09:14.241168 12342 layer_factory.hpp:77] Creating layer conv8_2_conv8_2_relu_0_split
I0401 21:09:14.241189 12342 net.cpp:100] Creating Layer conv8_2_conv8_2_relu_0_split
I0401 21:09:14.241206 12342 net.cpp:434] conv8_2_conv8_2_relu_0_split <- conv8_2
I0401 21:09:14.241227 12342 net.cpp:408] conv8_2_conv8_2_relu_0_split -> conv8_2_conv8_2_relu_0_split_0
I0401 21:09:14.241250 12342 net.cpp:408] conv8_2_conv8_2_relu_0_split -> conv8_2_conv8_2_relu_0_split_1
I0401 21:09:14.241272 12342 net.cpp:408] conv8_2_conv8_2_relu_0_split -> conv8_2_conv8_2_relu_0_split_2
I0401 21:09:14.241299 12342 net.cpp:408] conv8_2_conv8_2_relu_0_split -> conv8_2_conv8_2_relu_0_split_3
I0401 21:09:14.241452 12342 net.cpp:150] Setting up conv8_2_conv8_2_relu_0_split
I0401 21:09:14.241482 12342 net.cpp:157] Top shape: 1 256 3 3 (2304)
I0401 21:09:14.241506 12342 net.cpp:157] Top shape: 1 256 3 3 (2304)
I0401 21:09:14.241539 12342 net.cpp:157] Top shape: 1 256 3 3 (2304)
I0401 21:09:14.241573 12342 net.cpp:157] Top shape: 1 256 3 3 (2304)
I0401 21:09:14.241595 12342 net.cpp:165] Memory required for data: 235266560
I0401 21:09:14.241614 12342 layer_factory.hpp:77] Creating layer conv9_1
I0401 21:09:14.241648 12342 net.cpp:100] Creating Layer conv9_1
I0401 21:09:14.241673 12342 net.cpp:434] conv9_1 <- conv8_2_conv8_2_relu_0_split_0
I0401 21:09:14.241701 12342 net.cpp:408] conv9_1 -> conv9_1
I0401 21:09:14.245383 12342 net.cpp:150] Setting up conv9_1
I0401 21:09:14.245424 12342 net.cpp:157] Top shape: 1 128 3 3 (1152)
I0401 21:09:14.245445 12342 net.cpp:165] Memory required for data: 235271168
I0401 21:09:14.245468 12342 layer_factory.hpp:77] Creating layer conv9_1_relu
I0401 21:09:14.245488 12342 net.cpp:100] Creating Layer conv9_1_relu
I0401 21:09:14.245507 12342 net.cpp:434] conv9_1_relu <- conv9_1
I0401 21:09:14.245527 12342 net.cpp:395] conv9_1_relu -> conv9_1 (in-place)
I0401 21:09:14.245843 12342 net.cpp:150] Setting up conv9_1_relu
I0401 21:09:14.245877 12342 net.cpp:157] Top shape: 1 128 3 3 (1152)
I0401 21:09:14.245900 12342 net.cpp:165] Memory required for data: 235275776
I0401 21:09:14.245921 12342 layer_factory.hpp:77] Creating layer conv9_2
I0401 21:09:14.245952 12342 net.cpp:100] Creating Layer conv9_2
I0401 21:09:14.245975 12342 net.cpp:434] conv9_2 <- conv9_1
I0401 21:09:14.246004 12342 net.cpp:408] conv9_2 -> conv9_2
I0401 21:09:14.252657 12342 net.cpp:150] Setting up conv9_2
I0401 21:09:14.265766 12342 net.cpp:157] Top shape: 1 256 1 1 (256)
I0401 21:09:14.265812 12342 net.cpp:165] Memory required for data: 235276800
I0401 21:09:14.265849 12342 layer_factory.hpp:77] Creating layer conv9_2_relu
I0401 21:09:14.265887 12342 net.cpp:100] Creating Layer conv9_2_relu
I0401 21:09:14.265913 12342 net.cpp:434] conv9_2_relu <- conv9_2
I0401 21:09:14.265939 12342 net.cpp:395] conv9_2_relu -> conv9_2 (in-place)
I0401 21:09:14.267202 12342 net.cpp:150] Setting up conv9_2_relu
I0401 21:09:14.267235 12342 net.cpp:157] Top shape: 1 256 1 1 (256)
I0401 21:09:14.267253 12342 net.cpp:165] Memory required for data: 235277824
I0401 21:09:14.267269 12342 layer_factory.hpp:77] Creating layer conv9_2_conv9_2_relu_0_split
I0401 21:09:14.267292 12342 net.cpp:100] Creating Layer conv9_2_conv9_2_relu_0_split
I0401 21:09:14.267310 12342 net.cpp:434] conv9_2_conv9_2_relu_0_split <- conv9_2
I0401 21:09:14.267331 12342 net.cpp:408] conv9_2_conv9_2_relu_0_split -> conv9_2_conv9_2_relu_0_split_0
I0401 21:09:14.267354 12342 net.cpp:408] conv9_2_conv9_2_relu_0_split -> conv9_2_conv9_2_relu_0_split_1
I0401 21:09:14.267376 12342 net.cpp:408] conv9_2_conv9_2_relu_0_split -> conv9_2_conv9_2_relu_0_split_2
I0401 21:09:14.267499 12342 net.cpp:150] Setting up conv9_2_conv9_2_relu_0_split
I0401 21:09:14.267522 12342 net.cpp:157] Top shape: 1 256 1 1 (256)
I0401 21:09:14.267540 12342 net.cpp:157] Top shape: 1 256 1 1 (256)
I0401 21:09:14.267556 12342 net.cpp:157] Top shape: 1 256 1 1 (256)
I0401 21:09:14.267572 12342 net.cpp:165] Memory required for data: 235280896
I0401 21:09:14.267587 12342 layer_factory.hpp:77] Creating layer conv4_3_norm
I0401 21:09:14.267611 12342 net.cpp:100] Creating Layer conv4_3_norm
I0401 21:09:14.267629 12342 net.cpp:434] conv4_3_norm <- conv4_3_relu4_3_0_split_1
I0401 21:09:14.267649 12342 net.cpp:408] conv4_3_norm -> conv4_3_norm
I0401 21:09:14.267967 12342 net.cpp:150] Setting up conv4_3_norm
I0401 21:09:14.268000 12342 net.cpp:157] Top shape: 1 512 38 38 (739328)
I0401 21:09:14.268023 12342 net.cpp:165] Memory required for data: 238238208
I0401 21:09:14.268049 12342 layer_factory.hpp:77] Creating layer conv4_3_norm_conv4_3_norm_0_split
I0401 21:09:14.268074 12342 net.cpp:100] Creating Layer conv4_3_norm_conv4_3_norm_0_split
I0401 21:09:14.268095 12342 net.cpp:434] conv4_3_norm_conv4_3_norm_0_split <- conv4_3_norm
I0401 21:09:14.268121 12342 net.cpp:408] conv4_3_norm_conv4_3_norm_0_split -> conv4_3_norm_conv4_3_norm_0_split_0
I0401 21:09:14.268151 12342 net.cpp:408] conv4_3_norm_conv4_3_norm_0_split -> conv4_3_norm_conv4_3_norm_0_split_1
I0401 21:09:14.268190 12342 net.cpp:408] conv4_3_norm_conv4_3_norm_0_split -> conv4_3_norm_conv4_3_norm_0_split_2
I0401 21:09:14.268333 12342 net.cpp:150] Setting up conv4_3_norm_conv4_3_norm_0_split
I0401 21:09:14.268363 12342 net.cpp:157] Top shape: 1 512 38 38 (739328)
I0401 21:09:14.268388 12342 net.cpp:157] Top shape: 1 512 38 38 (739328)
I0401 21:09:14.268414 12342 net.cpp:157] Top shape: 1 512 38 38 (739328)
I0401 21:09:14.268436 12342 net.cpp:165] Memory required for data: 247110144
I0401 21:09:14.268457 12342 layer_factory.hpp:77] Creating layer conv4_3_norm_mbox_loc
I0401 21:09:14.268488 12342 net.cpp:100] Creating Layer conv4_3_norm_mbox_loc
I0401 21:09:14.268512 12342 net.cpp:434] conv4_3_norm_mbox_loc <- conv4_3_norm_conv4_3_norm_0_split_0
I0401 21:09:14.268541 12342 net.cpp:408] conv4_3_norm_mbox_loc -> conv4_3_norm_mbox_loc
I0401 21:09:14.272104 12342 net.cpp:150] Setting up conv4_3_norm_mbox_loc
I0401 21:09:14.272143 12342 net.cpp:157] Top shape: 1 16 38 38 (23104)
I0401 21:09:14.272166 12342 net.cpp:165] Memory required for data: 247202560
I0401 21:09:14.272192 12342 layer_factory.hpp:77] Creating layer conv4_3_norm_mbox_loc_perm
I0401 21:09:14.272223 12342 net.cpp:100] Creating Layer conv4_3_norm_mbox_loc_perm
I0401 21:09:14.272248 12342 net.cpp:434] conv4_3_norm_mbox_loc_perm <- conv4_3_norm_mbox_loc
I0401 21:09:14.272274 12342 net.cpp:408] conv4_3_norm_mbox_loc_perm -> conv4_3_norm_mbox_loc_perm
I0401 21:09:14.272514 12342 net.cpp:150] Setting up conv4_3_norm_mbox_loc_perm
I0401 21:09:14.272545 12342 net.cpp:157] Top shape: 1 38 38 16 (23104)
I0401 21:09:14.272567 12342 net.cpp:165] Memory required for data: 247294976
I0401 21:09:14.272588 12342 layer_factory.hpp:77] Creating layer conv4_3_norm_mbox_loc_flat
I0401 21:09:14.272629 12342 net.cpp:100] Creating Layer conv4_3_norm_mbox_loc_flat
I0401 21:09:14.272655 12342 net.cpp:434] conv4_3_norm_mbox_loc_flat <- conv4_3_norm_mbox_loc_perm
I0401 21:09:14.272681 12342 net.cpp:408] conv4_3_norm_mbox_loc_flat -> conv4_3_norm_mbox_loc_flat
I0401 21:09:14.272748 12342 net.cpp:150] Setting up conv4_3_norm_mbox_loc_flat
I0401 21:09:14.272775 12342 net.cpp:157] Top shape: 1 23104 (23104)
I0401 21:09:14.272796 12342 net.cpp:165] Memory required for data: 247387392
I0401 21:09:14.272819 12342 layer_factory.hpp:77] Creating layer conv4_3_norm_mbox_conf
I0401 21:09:14.272850 12342 net.cpp:100] Creating Layer conv4_3_norm_mbox_conf
I0401 21:09:14.272873 12342 net.cpp:434] conv4_3_norm_mbox_conf <- conv4_3_norm_conv4_3_norm_0_split_1
I0401 21:09:14.272902 12342 net.cpp:408] conv4_3_norm_mbox_conf -> conv4_3_norm_mbox_conf
I0401 21:09:14.277650 12342 net.cpp:150] Setting up conv4_3_norm_mbox_conf
I0401 21:09:14.277690 12342 net.cpp:157] Top shape: 1 44 38 38 (63536)
I0401 21:09:14.277709 12342 net.cpp:165] Memory required for data: 247641536
I0401 21:09:14.277755 12342 layer_factory.hpp:77] Creating layer conv4_3_norm_mbox_conf_perm
I0401 21:09:14.277786 12342 net.cpp:100] Creating Layer conv4_3_norm_mbox_conf_perm
I0401 21:09:14.277806 12342 net.cpp:434] conv4_3_norm_mbox_conf_perm <- conv4_3_norm_mbox_conf
I0401 21:09:14.277827 12342 net.cpp:408] conv4_3_norm_mbox_conf_perm -> conv4_3_norm_mbox_conf_perm
I0401 21:09:14.278018 12342 net.cpp:150] Setting up conv4_3_norm_mbox_conf_perm
I0401 21:09:14.278043 12342 net.cpp:157] Top shape: 1 38 38 44 (63536)
I0401 21:09:14.278060 12342 net.cpp:165] Memory required for data: 247895680
I0401 21:09:14.278077 12342 layer_factory.hpp:77] Creating layer conv4_3_norm_mbox_conf_flat
I0401 21:09:14.278100 12342 net.cpp:100] Creating Layer conv4_3_norm_mbox_conf_flat
I0401 21:09:14.278118 12342 net.cpp:434] conv4_3_norm_mbox_conf_flat <- conv4_3_norm_mbox_conf_perm
I0401 21:09:14.278136 12342 net.cpp:408] conv4_3_norm_mbox_conf_flat -> conv4_3_norm_mbox_conf_flat
I0401 21:09:14.278193 12342 net.cpp:150] Setting up conv4_3_norm_mbox_conf_flat
I0401 21:09:14.278216 12342 net.cpp:157] Top shape: 1 63536 (63536)
I0401 21:09:14.278234 12342 net.cpp:165] Memory required for data: 248149824
I0401 21:09:14.278249 12342 layer_factory.hpp:77] Creating layer conv4_3_norm_mbox_priorbox
I0401 21:09:14.278290 12342 net.cpp:100] Creating Layer conv4_3_norm_mbox_priorbox
I0401 21:09:14.278311 12342 net.cpp:434] conv4_3_norm_mbox_priorbox <- conv4_3_norm_conv4_3_norm_0_split_2
I0401 21:09:14.278331 12342 net.cpp:434] conv4_3_norm_mbox_priorbox <- data_data_0_split_1
I0401 21:09:14.278354 12342 net.cpp:408] conv4_3_norm_mbox_priorbox -> conv4_3_norm_mbox_priorbox
I0401 21:09:14.278424 12342 net.cpp:150] Setting up conv4_3_norm_mbox_priorbox
I0401 21:09:14.278453 12342 net.cpp:157] Top shape: 1 2 23104 (46208)
I0401 21:09:14.278475 12342 net.cpp:165] Memory required for data: 248334656
I0401 21:09:14.278496 12342 layer_factory.hpp:77] Creating layer fc7_mbox_loc
I0401 21:09:14.278527 12342 net.cpp:100] Creating Layer fc7_mbox_loc
I0401 21:09:14.278550 12342 net.cpp:434] fc7_mbox_loc <- fc7_relu7_0_split_1
I0401 21:09:14.278580 12342 net.cpp:408] fc7_mbox_loc -> fc7_mbox_loc
I0401 21:09:14.283675 12342 net.cpp:150] Setting up fc7_mbox_loc
I0401 21:09:14.283720 12342 net.cpp:157] Top shape: 1 24 19 19 (8664)
I0401 21:09:14.283738 12342 net.cpp:165] Memory required for data: 248369312
I0401 21:09:14.283761 12342 layer_factory.hpp:77] Creating layer fc7_mbox_loc_perm
I0401 21:09:14.283782 12342 net.cpp:100] Creating Layer fc7_mbox_loc_perm
I0401 21:09:14.283798 12342 net.cpp:434] fc7_mbox_loc_perm <- fc7_mbox_loc
I0401 21:09:14.283820 12342 net.cpp:408] fc7_mbox_loc_perm -> fc7_mbox_loc_perm
I0401 21:09:14.284003 12342 net.cpp:150] Setting up fc7_mbox_loc_perm
I0401 21:09:14.284026 12342 net.cpp:157] Top shape: 1 19 19 24 (8664)
I0401 21:09:14.284042 12342 net.cpp:165] Memory required for data: 248403968
I0401 21:09:14.284059 12342 layer_factory.hpp:77] Creating layer fc7_mbox_loc_flat
I0401 21:09:14.284078 12342 net.cpp:100] Creating Layer fc7_mbox_loc_flat
I0401 21:09:14.284094 12342 net.cpp:434] fc7_mbox_loc_flat <- fc7_mbox_loc_perm
I0401 21:09:14.284116 12342 net.cpp:408] fc7_mbox_loc_flat -> fc7_mbox_loc_flat
I0401 21:09:14.284171 12342 net.cpp:150] Setting up fc7_mbox_loc_flat
I0401 21:09:14.284196 12342 net.cpp:157] Top shape: 1 8664 (8664)
I0401 21:09:14.284211 12342 net.cpp:165] Memory required for data: 248438624
I0401 21:09:14.284227 12342 layer_factory.hpp:77] Creating layer fc7_mbox_conf
I0401 21:09:14.284253 12342 net.cpp:100] Creating Layer fc7_mbox_conf
I0401 21:09:14.284271 12342 net.cpp:434] fc7_mbox_conf <- fc7_relu7_0_split_2
I0401 21:09:14.284293 12342 net.cpp:408] fc7_mbox_conf -> fc7_mbox_conf
I0401 21:09:14.293773 12342 net.cpp:150] Setting up fc7_mbox_conf
I0401 21:09:14.293833 12342 net.cpp:157] Top shape: 1 66 19 19 (23826)
I0401 21:09:14.293857 12342 net.cpp:165] Memory required for data: 248533928
I0401 21:09:14.293887 12342 layer_factory.hpp:77] Creating layer fc7_mbox_conf_perm
I0401 21:09:14.293921 12342 net.cpp:100] Creating Layer fc7_mbox_conf_perm
I0401 21:09:14.293946 12342 net.cpp:434] fc7_mbox_conf_perm <- fc7_mbox_conf
I0401 21:09:14.293973 12342 net.cpp:408] fc7_mbox_conf_perm -> fc7_mbox_conf_perm
I0401 21:09:14.294219 12342 net.cpp:150] Setting up fc7_mbox_conf_perm
I0401 21:09:14.294246 12342 net.cpp:157] Top shape: 1 19 19 66 (23826)
I0401 21:09:14.294265 12342 net.cpp:165] Memory required for data: 248629232
I0401 21:09:14.294281 12342 layer_factory.hpp:77] Creating layer fc7_mbox_conf_flat
I0401 21:09:14.294299 12342 net.cpp:100] Creating Layer fc7_mbox_conf_flat
I0401 21:09:14.294317 12342 net.cpp:434] fc7_mbox_conf_flat <- fc7_mbox_conf_perm
I0401 21:09:14.294337 12342 net.cpp:408] fc7_mbox_conf_flat -> fc7_mbox_conf_flat
I0401 21:09:14.294397 12342 net.cpp:150] Setting up fc7_mbox_conf_flat
I0401 21:09:14.294420 12342 net.cpp:157] Top shape: 1 23826 (23826)
I0401 21:09:14.294435 12342 net.cpp:165] Memory required for data: 248724536
I0401 21:09:14.294450 12342 layer_factory.hpp:77] Creating layer fc7_mbox_priorbox
I0401 21:09:14.294471 12342 net.cpp:100] Creating Layer fc7_mbox_priorbox
I0401 21:09:14.294488 12342 net.cpp:434] fc7_mbox_priorbox <- fc7_relu7_0_split_3
I0401 21:09:14.294507 12342 net.cpp:434] fc7_mbox_priorbox <- data_data_0_split_2
I0401 21:09:14.294546 12342 net.cpp:408] fc7_mbox_priorbox -> fc7_mbox_priorbox
I0401 21:09:14.294612 12342 net.cpp:150] Setting up fc7_mbox_priorbox
I0401 21:09:14.294636 12342 net.cpp:157] Top shape: 1 2 8664 (17328)
I0401 21:09:14.294651 12342 net.cpp:165] Memory required for data: 248793848
I0401 21:09:14.294667 12342 layer_factory.hpp:77] Creating layer conv6_2_mbox_loc
I0401 21:09:14.294692 12342 net.cpp:100] Creating Layer conv6_2_mbox_loc
I0401 21:09:14.294710 12342 net.cpp:434] conv6_2_mbox_loc <- conv6_2_conv6_2_relu_0_split_1
I0401 21:09:14.294730 12342 net.cpp:408] conv6_2_mbox_loc -> conv6_2_mbox_loc
I0401 21:09:14.298979 12342 net.cpp:150] Setting up conv6_2_mbox_loc
I0401 21:09:14.299024 12342 net.cpp:157] Top shape: 1 24 10 10 (2400)
I0401 21:09:14.299048 12342 net.cpp:165] Memory required for data: 248803448
I0401 21:09:14.299077 12342 layer_factory.hpp:77] Creating layer conv6_2_mbox_loc_perm
I0401 21:09:14.299109 12342 net.cpp:100] Creating Layer conv6_2_mbox_loc_perm
I0401 21:09:14.299134 12342 net.cpp:434] conv6_2_mbox_loc_perm <- conv6_2_mbox_loc
I0401 21:09:14.299160 12342 net.cpp:408] conv6_2_mbox_loc_perm -> conv6_2_mbox_loc_perm
I0401 21:09:14.299407 12342 net.cpp:150] Setting up conv6_2_mbox_loc_perm
I0401 21:09:14.299437 12342 net.cpp:157] Top shape: 1 10 10 24 (2400)
I0401 21:09:14.299460 12342 net.cpp:165] Memory required for data: 248813048
I0401 21:09:14.299480 12342 layer_factory.hpp:77] Creating layer conv6_2_mbox_loc_flat
I0401 21:09:14.299507 12342 net.cpp:100] Creating Layer conv6_2_mbox_loc_flat
I0401 21:09:14.299528 12342 net.cpp:434] conv6_2_mbox_loc_flat <- conv6_2_mbox_loc_perm
I0401 21:09:14.299548 12342 net.cpp:408] conv6_2_mbox_loc_flat -> conv6_2_mbox_loc_flat
I0401 21:09:14.299607 12342 net.cpp:150] Setting up conv6_2_mbox_loc_flat
I0401 21:09:14.299630 12342 net.cpp:157] Top shape: 1 2400 (2400)
I0401 21:09:14.299646 12342 net.cpp:165] Memory required for data: 248822648
I0401 21:09:14.299662 12342 layer_factory.hpp:77] Creating layer conv6_2_mbox_conf
I0401 21:09:14.299687 12342 net.cpp:100] Creating Layer conv6_2_mbox_conf
I0401 21:09:14.299705 12342 net.cpp:434] conv6_2_mbox_conf <- conv6_2_conv6_2_relu_0_split_2
I0401 21:09:14.299728 12342 net.cpp:408] conv6_2_mbox_conf -> conv6_2_mbox_conf
I0401 21:09:14.306495 12342 net.cpp:150] Setting up conv6_2_mbox_conf
I0401 21:09:14.306541 12342 net.cpp:157] Top shape: 1 66 10 10 (6600)
I0401 21:09:14.306560 12342 net.cpp:165] Memory required for data: 248849048
I0401 21:09:14.306583 12342 layer_factory.hpp:77] Creating layer conv6_2_mbox_conf_perm
I0401 21:09:14.306609 12342 net.cpp:100] Creating Layer conv6_2_mbox_conf_perm
I0401 21:09:14.306629 12342 net.cpp:434] conv6_2_mbox_conf_perm <- conv6_2_mbox_conf
I0401 21:09:14.306651 12342 net.cpp:408] conv6_2_mbox_conf_perm -> conv6_2_mbox_conf_perm
I0401 21:09:14.306836 12342 net.cpp:150] Setting up conv6_2_mbox_conf_perm
I0401 21:09:14.306864 12342 net.cpp:157] Top shape: 1 10 10 66 (6600)
I0401 21:09:14.306879 12342 net.cpp:165] Memory required for data: 248875448
I0401 21:09:14.306895 12342 layer_factory.hpp:77] Creating layer conv6_2_mbox_conf_flat
I0401 21:09:14.306915 12342 net.cpp:100] Creating Layer conv6_2_mbox_conf_flat
I0401 21:09:14.306936 12342 net.cpp:434] conv6_2_mbox_conf_flat <- conv6_2_mbox_conf_perm
I0401 21:09:14.306959 12342 net.cpp:408] conv6_2_mbox_conf_flat -> conv6_2_mbox_conf_flat
I0401 21:09:14.307027 12342 net.cpp:150] Setting up conv6_2_mbox_conf_flat
I0401 21:09:14.307055 12342 net.cpp:157] Top shape: 1 6600 (6600)
I0401 21:09:14.307076 12342 net.cpp:165] Memory required for data: 248901848
I0401 21:09:14.307097 12342 layer_factory.hpp:77] Creating layer conv6_2_mbox_priorbox
I0401 21:09:14.307126 12342 net.cpp:100] Creating Layer conv6_2_mbox_priorbox
I0401 21:09:14.307149 12342 net.cpp:434] conv6_2_mbox_priorbox <- conv6_2_conv6_2_relu_0_split_3
I0401 21:09:14.307173 12342 net.cpp:434] conv6_2_mbox_priorbox <- data_data_0_split_3
I0401 21:09:14.307202 12342 net.cpp:408] conv6_2_mbox_priorbox -> conv6_2_mbox_priorbox
I0401 21:09:14.307283 12342 net.cpp:150] Setting up conv6_2_mbox_priorbox
I0401 21:09:14.307322 12342 net.cpp:157] Top shape: 1 2 2400 (4800)
I0401 21:09:14.307344 12342 net.cpp:165] Memory required for data: 248921048
I0401 21:09:14.307365 12342 layer_factory.hpp:77] Creating layer conv7_2_mbox_loc
I0401 21:09:14.307399 12342 net.cpp:100] Creating Layer conv7_2_mbox_loc
I0401 21:09:14.307423 12342 net.cpp:434] conv7_2_mbox_loc <- conv7_2_conv7_2_relu_0_split_1
I0401 21:09:14.307451 12342 net.cpp:408] conv7_2_mbox_loc -> conv7_2_mbox_loc
I0401 21:09:14.311072 12342 net.cpp:150] Setting up conv7_2_mbox_loc
I0401 21:09:14.311115 12342 net.cpp:157] Top shape: 1 24 5 5 (600)
I0401 21:09:14.311133 12342 net.cpp:165] Memory required for data: 248923448
I0401 21:09:14.311157 12342 layer_factory.hpp:77] Creating layer conv7_2_mbox_loc_perm
I0401 21:09:14.311184 12342 net.cpp:100] Creating Layer conv7_2_mbox_loc_perm
I0401 21:09:14.311208 12342 net.cpp:434] conv7_2_mbox_loc_perm <- conv7_2_mbox_loc
I0401 21:09:14.311235 12342 net.cpp:408] conv7_2_mbox_loc_perm -> conv7_2_mbox_loc_perm
I0401 21:09:14.311486 12342 net.cpp:150] Setting up conv7_2_mbox_loc_perm
I0401 21:09:14.311516 12342 net.cpp:157] Top shape: 1 5 5 24 (600)
I0401 21:09:14.311537 12342 net.cpp:165] Memory required for data: 248925848
I0401 21:09:14.311558 12342 layer_factory.hpp:77] Creating layer conv7_2_mbox_loc_flat
I0401 21:09:14.311586 12342 net.cpp:100] Creating Layer conv7_2_mbox_loc_flat
I0401 21:09:14.311609 12342 net.cpp:434] conv7_2_mbox_loc_flat <- conv7_2_mbox_loc_perm
I0401 21:09:14.311636 12342 net.cpp:408] conv7_2_mbox_loc_flat -> conv7_2_mbox_loc_flat
I0401 21:09:14.311702 12342 net.cpp:150] Setting up conv7_2_mbox_loc_flat
I0401 21:09:14.311729 12342 net.cpp:157] Top shape: 1 600 (600)
I0401 21:09:14.311749 12342 net.cpp:165] Memory required for data: 248928248
I0401 21:09:14.311770 12342 layer_factory.hpp:77] Creating layer conv7_2_mbox_conf
I0401 21:09:14.311805 12342 net.cpp:100] Creating Layer conv7_2_mbox_conf
I0401 21:09:14.311830 12342 net.cpp:434] conv7_2_mbox_conf <- conv7_2_conv7_2_relu_0_split_2
I0401 21:09:14.311862 12342 net.cpp:408] conv7_2_mbox_conf -> conv7_2_mbox_conf
I0401 21:09:14.316241 12342 net.cpp:150] Setting up conv7_2_mbox_conf
I0401 21:09:14.316278 12342 net.cpp:157] Top shape: 1 66 5 5 (1650)
I0401 21:09:14.316303 12342 net.cpp:165] Memory required for data: 248934848
I0401 21:09:14.316329 12342 layer_factory.hpp:77] Creating layer conv7_2_mbox_conf_perm
I0401 21:09:14.316359 12342 net.cpp:100] Creating Layer conv7_2_mbox_conf_perm
I0401 21:09:14.316383 12342 net.cpp:434] conv7_2_mbox_conf_perm <- conv7_2_mbox_conf
I0401 21:09:14.316411 12342 net.cpp:408] conv7_2_mbox_conf_perm -> conv7_2_mbox_conf_perm
I0401 21:09:14.316609 12342 net.cpp:150] Setting up conv7_2_mbox_conf_perm
I0401 21:09:14.316635 12342 net.cpp:157] Top shape: 1 5 5 66 (1650)
I0401 21:09:14.316651 12342 net.cpp:165] Memory required for data: 248941448
I0401 21:09:14.316668 12342 layer_factory.hpp:77] Creating layer conv7_2_mbox_conf_flat
I0401 21:09:14.316689 12342 net.cpp:100] Creating Layer conv7_2_mbox_conf_flat
I0401 21:09:14.316706 12342 net.cpp:434] conv7_2_mbox_conf_flat <- conv7_2_mbox_conf_perm
I0401 21:09:14.316725 12342 net.cpp:408] conv7_2_mbox_conf_flat -> conv7_2_mbox_conf_flat
I0401 21:09:14.316784 12342 net.cpp:150] Setting up conv7_2_mbox_conf_flat
I0401 21:09:14.316807 12342 net.cpp:157] Top shape: 1 1650 (1650)
I0401 21:09:14.316821 12342 net.cpp:165] Memory required for data: 248948048
I0401 21:09:14.316838 12342 layer_factory.hpp:77] Creating layer conv7_2_mbox_priorbox
I0401 21:09:14.316859 12342 net.cpp:100] Creating Layer conv7_2_mbox_priorbox
I0401 21:09:14.316877 12342 net.cpp:434] conv7_2_mbox_priorbox <- conv7_2_conv7_2_relu_0_split_3
I0401 21:09:14.316896 12342 net.cpp:434] conv7_2_mbox_priorbox <- data_data_0_split_4
I0401 21:09:14.316915 12342 net.cpp:408] conv7_2_mbox_priorbox -> conv7_2_mbox_priorbox
I0401 21:09:14.316977 12342 net.cpp:150] Setting up conv7_2_mbox_priorbox
I0401 21:09:14.316999 12342 net.cpp:157] Top shape: 1 2 600 (1200)
I0401 21:09:14.317021 12342 net.cpp:165] Memory required for data: 248952848
I0401 21:09:14.317047 12342 layer_factory.hpp:77] Creating layer conv8_2_mbox_loc
I0401 21:09:14.317073 12342 net.cpp:100] Creating Layer conv8_2_mbox_loc
I0401 21:09:14.317091 12342 net.cpp:434] conv8_2_mbox_loc <- conv8_2_conv8_2_relu_0_split_1
I0401 21:09:14.317112 12342 net.cpp:408] conv8_2_mbox_loc -> conv8_2_mbox_loc
I0401 21:09:14.319599 12342 net.cpp:150] Setting up conv8_2_mbox_loc
I0401 21:09:14.319631 12342 net.cpp:157] Top shape: 1 16 3 3 (144)
I0401 21:09:14.319654 12342 net.cpp:165] Memory required for data: 248953424
I0401 21:09:14.319695 12342 layer_factory.hpp:77] Creating layer conv8_2_mbox_loc_perm
I0401 21:09:14.319723 12342 net.cpp:100] Creating Layer conv8_2_mbox_loc_perm
I0401 21:09:14.319747 12342 net.cpp:434] conv8_2_mbox_loc_perm <- conv8_2_mbox_loc
I0401 21:09:14.319774 12342 net.cpp:408] conv8_2_mbox_loc_perm -> conv8_2_mbox_loc_perm
I0401 21:09:14.320021 12342 net.cpp:150] Setting up conv8_2_mbox_loc_perm
I0401 21:09:14.320052 12342 net.cpp:157] Top shape: 1 3 3 16 (144)
I0401 21:09:14.320075 12342 net.cpp:165] Memory required for data: 248954000
I0401 21:09:14.320096 12342 layer_factory.hpp:77] Creating layer conv8_2_mbox_loc_flat
I0401 21:09:14.320122 12342 net.cpp:100] Creating Layer conv8_2_mbox_loc_flat
I0401 21:09:14.320144 12342 net.cpp:434] conv8_2_mbox_loc_flat <- conv8_2_mbox_loc_perm
I0401 21:09:14.320173 12342 net.cpp:408] conv8_2_mbox_loc_flat -> conv8_2_mbox_loc_flat
I0401 21:09:14.320238 12342 net.cpp:150] Setting up conv8_2_mbox_loc_flat
I0401 21:09:14.320266 12342 net.cpp:157] Top shape: 1 144 (144)
I0401 21:09:14.320287 12342 net.cpp:165] Memory required for data: 248954576
I0401 21:09:14.320308 12342 layer_factory.hpp:77] Creating layer conv8_2_mbox_conf
I0401 21:09:14.320339 12342 net.cpp:100] Creating Layer conv8_2_mbox_conf
I0401 21:09:14.320363 12342 net.cpp:434] conv8_2_mbox_conf <- conv8_2_conv8_2_relu_0_split_2
I0401 21:09:14.320392 12342 net.cpp:408] conv8_2_mbox_conf -> conv8_2_mbox_conf
I0401 21:09:14.324292 12342 net.cpp:150] Setting up conv8_2_mbox_conf
I0401 21:09:14.324327 12342 net.cpp:157] Top shape: 1 44 3 3 (396)
I0401 21:09:14.324345 12342 net.cpp:165] Memory required for data: 248956160
I0401 21:09:14.324367 12342 layer_factory.hpp:77] Creating layer conv8_2_mbox_conf_perm
I0401 21:09:14.324386 12342 net.cpp:100] Creating Layer conv8_2_mbox_conf_perm
I0401 21:09:14.324406 12342 net.cpp:434] conv8_2_mbox_conf_perm <- conv8_2_mbox_conf
I0401 21:09:14.324426 12342 net.cpp:408] conv8_2_mbox_conf_perm -> conv8_2_mbox_conf_perm
I0401 21:09:14.324617 12342 net.cpp:150] Setting up conv8_2_mbox_conf_perm
I0401 21:09:14.324642 12342 net.cpp:157] Top shape: 1 3 3 44 (396)
I0401 21:09:14.324657 12342 net.cpp:165] Memory required for data: 248957744
I0401 21:09:14.324673 12342 layer_factory.hpp:77] Creating layer conv8_2_mbox_conf_flat
I0401 21:09:14.324692 12342 net.cpp:100] Creating Layer conv8_2_mbox_conf_flat
I0401 21:09:14.324708 12342 net.cpp:434] conv8_2_mbox_conf_flat <- conv8_2_mbox_conf_perm
I0401 21:09:14.324729 12342 net.cpp:408] conv8_2_mbox_conf_flat -> conv8_2_mbox_conf_flat
I0401 21:09:14.324790 12342 net.cpp:150] Setting up conv8_2_mbox_conf_flat
I0401 21:09:14.324813 12342 net.cpp:157] Top shape: 1 396 (396)
I0401 21:09:14.324829 12342 net.cpp:165] Memory required for data: 248959328
I0401 21:09:14.324844 12342 layer_factory.hpp:77] Creating layer conv8_2_mbox_priorbox
I0401 21:09:14.324863 12342 net.cpp:100] Creating Layer conv8_2_mbox_priorbox
I0401 21:09:14.324880 12342 net.cpp:434] conv8_2_mbox_priorbox <- conv8_2_conv8_2_relu_0_split_3
I0401 21:09:14.324898 12342 net.cpp:434] conv8_2_mbox_priorbox <- data_data_0_split_5
I0401 21:09:14.324920 12342 net.cpp:408] conv8_2_mbox_priorbox -> conv8_2_mbox_priorbox
I0401 21:09:14.324987 12342 net.cpp:150] Setting up conv8_2_mbox_priorbox
I0401 21:09:14.325014 12342 net.cpp:157] Top shape: 1 2 144 (288)
I0401 21:09:14.325037 12342 net.cpp:165] Memory required for data: 248960480
I0401 21:09:14.325057 12342 layer_factory.hpp:77] Creating layer conv9_2_mbox_loc
I0401 21:09:14.325103 12342 net.cpp:100] Creating Layer conv9_2_mbox_loc
I0401 21:09:14.325129 12342 net.cpp:434] conv9_2_mbox_loc <- conv9_2_conv9_2_relu_0_split_0
I0401 21:09:14.325156 12342 net.cpp:408] conv9_2_mbox_loc -> conv9_2_mbox_loc
I0401 21:09:14.328451 12342 net.cpp:150] Setting up conv9_2_mbox_loc
I0401 21:09:14.328485 12342 net.cpp:157] Top shape: 1 16 1 1 (16)
I0401 21:09:14.328505 12342 net.cpp:165] Memory required for data: 248960544
I0401 21:09:14.328526 12342 layer_factory.hpp:77] Creating layer conv9_2_mbox_loc_perm
I0401 21:09:14.328547 12342 net.cpp:100] Creating Layer conv9_2_mbox_loc_perm
I0401 21:09:14.328563 12342 net.cpp:434] conv9_2_mbox_loc_perm <- conv9_2_mbox_loc
I0401 21:09:14.328585 12342 net.cpp:408] conv9_2_mbox_loc_perm -> conv9_2_mbox_loc_perm
I0401 21:09:14.328773 12342 net.cpp:150] Setting up conv9_2_mbox_loc_perm
I0401 21:09:14.328796 12342 net.cpp:157] Top shape: 1 1 1 16 (16)
I0401 21:09:14.328812 12342 net.cpp:165] Memory required for data: 248960608
I0401 21:09:14.328828 12342 layer_factory.hpp:77] Creating layer conv9_2_mbox_loc_flat
I0401 21:09:14.328846 12342 net.cpp:100] Creating Layer conv9_2_mbox_loc_flat
I0401 21:09:14.328863 12342 net.cpp:434] conv9_2_mbox_loc_flat <- conv9_2_mbox_loc_perm
I0401 21:09:14.328883 12342 net.cpp:408] conv9_2_mbox_loc_flat -> conv9_2_mbox_loc_flat
I0401 21:09:14.328941 12342 net.cpp:150] Setting up conv9_2_mbox_loc_flat
I0401 21:09:14.328964 12342 net.cpp:157] Top shape: 1 16 (16)
I0401 21:09:14.328981 12342 net.cpp:165] Memory required for data: 248960672
I0401 21:09:14.328997 12342 layer_factory.hpp:77] Creating layer conv9_2_mbox_conf
I0401 21:09:14.329025 12342 net.cpp:100] Creating Layer conv9_2_mbox_conf
I0401 21:09:14.329043 12342 net.cpp:434] conv9_2_mbox_conf <- conv9_2_conv9_2_relu_0_split_1
I0401 21:09:14.329064 12342 net.cpp:408] conv9_2_mbox_conf -> conv9_2_mbox_conf
I0401 21:09:14.332868 12342 net.cpp:150] Setting up conv9_2_mbox_conf
I0401 21:09:14.332904 12342 net.cpp:157] Top shape: 1 44 1 1 (44)
I0401 21:09:14.332921 12342 net.cpp:165] Memory required for data: 248960848
I0401 21:09:14.332945 12342 layer_factory.hpp:77] Creating layer conv9_2_mbox_conf_perm
I0401 21:09:14.332968 12342 net.cpp:100] Creating Layer conv9_2_mbox_conf_perm
I0401 21:09:14.332986 12342 net.cpp:434] conv9_2_mbox_conf_perm <- conv9_2_mbox_conf
I0401 21:09:14.333005 12342 net.cpp:408] conv9_2_mbox_conf_perm -> conv9_2_mbox_conf_perm
I0401 21:09:14.333195 12342 net.cpp:150] Setting up conv9_2_mbox_conf_perm
I0401 21:09:14.333220 12342 net.cpp:157] Top shape: 1 1 1 44 (44)
I0401 21:09:14.333237 12342 net.cpp:165] Memory required for data: 248961024
I0401 21:09:14.333254 12342 layer_factory.hpp:77] Creating layer conv9_2_mbox_conf_flat
I0401 21:09:14.333276 12342 net.cpp:100] Creating Layer conv9_2_mbox_conf_flat
I0401 21:09:14.333294 12342 net.cpp:434] conv9_2_mbox_conf_flat <- conv9_2_mbox_conf_perm
I0401 21:09:14.333314 12342 net.cpp:408] conv9_2_mbox_conf_flat -> conv9_2_mbox_conf_flat
I0401 21:09:14.333374 12342 net.cpp:150] Setting up conv9_2_mbox_conf_flat
I0401 21:09:14.333395 12342 net.cpp:157] Top shape: 1 44 (44)
I0401 21:09:14.333415 12342 net.cpp:165] Memory required for data: 248961200
I0401 21:09:14.333436 12342 layer_factory.hpp:77] Creating layer conv9_2_mbox_priorbox
I0401 21:09:14.333462 12342 net.cpp:100] Creating Layer conv9_2_mbox_priorbox
I0401 21:09:14.333485 12342 net.cpp:434] conv9_2_mbox_priorbox <- conv9_2_conv9_2_relu_0_split_2
I0401 21:09:14.333508 12342 net.cpp:434] conv9_2_mbox_priorbox <- data_data_0_split_6
I0401 21:09:14.333536 12342 net.cpp:408] conv9_2_mbox_priorbox -> conv9_2_mbox_priorbox
I0401 21:09:14.333606 12342 net.cpp:150] Setting up conv9_2_mbox_priorbox
I0401 21:09:14.333633 12342 net.cpp:157] Top shape: 1 2 16 (32)
I0401 21:09:14.333653 12342 net.cpp:165] Memory required for data: 248961328
I0401 21:09:14.333674 12342 layer_factory.hpp:77] Creating layer mbox_loc
I0401 21:09:14.333703 12342 net.cpp:100] Creating Layer mbox_loc
I0401 21:09:14.333750 12342 net.cpp:434] mbox_loc <- conv4_3_norm_mbox_loc_flat
I0401 21:09:14.333791 12342 net.cpp:434] mbox_loc <- fc7_mbox_loc_flat
I0401 21:09:14.333817 12342 net.cpp:434] mbox_loc <- conv6_2_mbox_loc_flat
I0401 21:09:14.333839 12342 net.cpp:434] mbox_loc <- conv7_2_mbox_loc_flat
I0401 21:09:14.333860 12342 net.cpp:434] mbox_loc <- conv8_2_mbox_loc_flat
I0401 21:09:14.333884 12342 net.cpp:434] mbox_loc <- conv9_2_mbox_loc_flat
I0401 21:09:14.333909 12342 net.cpp:408] mbox_loc -> mbox_loc
I0401 21:09:14.333981 12342 net.cpp:150] Setting up mbox_loc
I0401 21:09:14.334007 12342 net.cpp:157] Top shape: 1 34928 (34928)
I0401 21:09:14.334028 12342 net.cpp:165] Memory required for data: 249101040
I0401 21:09:14.334048 12342 layer_factory.hpp:77] Creating layer mbox_loc_mbox_loc_0_split
I0401 21:09:14.334074 12342 net.cpp:100] Creating Layer mbox_loc_mbox_loc_0_split
I0401 21:09:14.334096 12342 net.cpp:434] mbox_loc_mbox_loc_0_split <- mbox_loc
I0401 21:09:14.334125 12342 net.cpp:408] mbox_loc_mbox_loc_0_split -> mbox_loc_mbox_loc_0_split_0
I0401 21:09:14.334152 12342 net.cpp:408] mbox_loc_mbox_loc_0_split -> mbox_loc_mbox_loc_0_split_1
I0401 21:09:14.334251 12342 net.cpp:150] Setting up mbox_loc_mbox_loc_0_split
I0401 21:09:14.334278 12342 net.cpp:157] Top shape: 1 34928 (34928)
I0401 21:09:14.334300 12342 net.cpp:157] Top shape: 1 34928 (34928)
I0401 21:09:14.334321 12342 net.cpp:165] Memory required for data: 249380464
I0401 21:09:14.334342 12342 layer_factory.hpp:77] Creating layer mbox_conf
I0401 21:09:14.334368 12342 net.cpp:100] Creating Layer mbox_conf
I0401 21:09:14.334391 12342 net.cpp:434] mbox_conf <- conv4_3_norm_mbox_conf_flat
I0401 21:09:14.334415 12342 net.cpp:434] mbox_conf <- fc7_mbox_conf_flat
I0401 21:09:14.334439 12342 net.cpp:434] mbox_conf <- conv6_2_mbox_conf_flat
I0401 21:09:14.334460 12342 net.cpp:434] mbox_conf <- conv7_2_mbox_conf_flat
I0401 21:09:14.334476 12342 net.cpp:434] mbox_conf <- conv8_2_mbox_conf_flat
I0401 21:09:14.334493 12342 net.cpp:434] mbox_conf <- conv9_2_mbox_conf_flat
I0401 21:09:14.334512 12342 net.cpp:408] mbox_conf -> mbox_conf
I0401 21:09:14.334573 12342 net.cpp:150] Setting up mbox_conf
I0401 21:09:14.334596 12342 net.cpp:157] Top shape: 1 96052 (96052)
I0401 21:09:14.334611 12342 net.cpp:165] Memory required for data: 249764672
I0401 21:09:14.334627 12342 layer_factory.hpp:77] Creating layer mbox_conf_mbox_conf_0_split
I0401 21:09:14.334645 12342 net.cpp:100] Creating Layer mbox_conf_mbox_conf_0_split
I0401 21:09:14.334661 12342 net.cpp:434] mbox_conf_mbox_conf_0_split <- mbox_conf
I0401 21:09:14.334682 12342 net.cpp:408] mbox_conf_mbox_conf_0_split -> mbox_conf_mbox_conf_0_split_0
I0401 21:09:14.334703 12342 net.cpp:408] mbox_conf_mbox_conf_0_split -> mbox_conf_mbox_conf_0_split_1
I0401 21:09:14.334784 12342 net.cpp:150] Setting up mbox_conf_mbox_conf_0_split
I0401 21:09:14.334805 12342 net.cpp:157] Top shape: 1 96052 (96052)
I0401 21:09:14.334823 12342 net.cpp:157] Top shape: 1 96052 (96052)
I0401 21:09:14.334841 12342 net.cpp:165] Memory required for data: 250533088
I0401 21:09:14.334856 12342 layer_factory.hpp:77] Creating layer mbox_priorbox
I0401 21:09:14.334877 12342 net.cpp:100] Creating Layer mbox_priorbox
I0401 21:09:14.334894 12342 net.cpp:434] mbox_priorbox <- conv4_3_norm_mbox_priorbox
I0401 21:09:14.334911 12342 net.cpp:434] mbox_priorbox <- fc7_mbox_priorbox
I0401 21:09:14.334930 12342 net.cpp:434] mbox_priorbox <- conv6_2_mbox_priorbox
I0401 21:09:14.334947 12342 net.cpp:434] mbox_priorbox <- conv7_2_mbox_priorbox
I0401 21:09:14.334964 12342 net.cpp:434] mbox_priorbox <- conv8_2_mbox_priorbox
I0401 21:09:14.334980 12342 net.cpp:434] mbox_priorbox <- conv9_2_mbox_priorbox
I0401 21:09:14.335000 12342 net.cpp:408] mbox_priorbox -> mbox_priorbox
I0401 21:09:14.335057 12342 net.cpp:150] Setting up mbox_priorbox
I0401 21:09:14.335081 12342 net.cpp:157] Top shape: 1 2 34928 (69856)
I0401 21:09:14.335096 12342 net.cpp:165] Memory required for data: 250812512
I0401 21:09:14.335111 12342 layer_factory.hpp:77] Creating layer mbox_priorbox_mbox_priorbox_0_split
I0401 21:09:14.335137 12342 net.cpp:100] Creating Layer mbox_priorbox_mbox_priorbox_0_split
I0401 21:09:14.335160 12342 net.cpp:434] mbox_priorbox_mbox_priorbox_0_split <- mbox_priorbox
I0401 21:09:14.335180 12342 net.cpp:408] mbox_priorbox_mbox_priorbox_0_split -> mbox_priorbox_mbox_priorbox_0_split_0
I0401 21:09:14.335202 12342 net.cpp:408] mbox_priorbox_mbox_priorbox_0_split -> mbox_priorbox_mbox_priorbox_0_split_1
I0401 21:09:14.335281 12342 net.cpp:150] Setting up mbox_priorbox_mbox_priorbox_0_split
I0401 21:09:14.335305 12342 net.cpp:157] Top shape: 1 2 34928 (69856)
I0401 21:09:14.335325 12342 net.cpp:157] Top shape: 1 2 34928 (69856)
I0401 21:09:14.335340 12342 net.cpp:165] Memory required for data: 251371360
I0401 21:09:14.335356 12342 layer_factory.hpp:77] Creating layer test_loss
I0401 21:09:14.335384 12342 net.cpp:100] Creating Layer test_loss
I0401 21:09:14.335402 12342 net.cpp:434] test_loss <- mbox_loc_mbox_loc_0_split_0
I0401 21:09:14.335419 12342 net.cpp:434] test_loss <- mbox_conf_mbox_conf_0_split_0
…
I0401 21:09:14.336529 12342 net.cpp:434] silence <- test_loss
I0401 21:09:14.336553 12342 net.cpp:150] Setting up silence
I0401 21:09:14.336572 12342 net.cpp:165] Memory required for data: 251371364
I0401 21:09:14.336588 12342 layer_factory.hpp:77] Creating layer mbox_conf_reshape
I0401 21:09:14.336611 12342 net.cpp:100] Creating Layer mbox_conf_reshape
I0401 21:09:14.336628 12342 net.cpp:434] mbox_conf_reshape <- mbox_conf_mbox_conf_0_split_1
I0401 21:09:14.336648 12342 net.cpp:408] mbox_conf_reshape -> mbox_conf_reshape
I0401 21:09:14.336719 12342 net.cpp:150] Setting up mbox_conf_reshape
I0401 21:09:14.336745 12342 net.cpp:157] Top shape: 1 8732 11 (96052)
I0401 21:09:14.336760 12342 net.cpp:165] Memory required for data: 251755572
I0401 21:09:14.336777 12342 layer_factory.hpp:77] Creating layer mbox_conf_softmax
I0401 21:09:14.336797 12342 net.cpp:100] Creating Layer mbox_conf_softmax
I0401 21:09:14.336813 12342 net.cpp:434] mbox_conf_softmax <- mbox_conf_reshape
I0401 21:09:14.336833 12342 net.cpp:408] mbox_conf_softmax -> mbox_conf_softmax
I0401 21:09:14.337198 12342 net.cpp:150] Setting up mbox_conf_softmax
I0401 21:09:14.337229 12342 net.cpp:157] Top shape: 1 8732 11 (96052)
I0401 21:09:14.337245 12342 net.cpp:165] Memory required for data: 252139780
I0401 21:09:14.337262 12342 layer_factory.hpp:77] Creating layer mbox_conf_flatten
I0401 21:09:14.337281 12342 net.cpp:100] Creating Layer mbox_conf_flatten
I0401 21:09:14.337298 12342 net.cpp:434] mbox_conf_flatten <- mbox_conf_softmax
I0401 21:09:14.337317 12342 net.cpp:408] mbox_conf_flatten -> mbox_conf_flatten
I0401 21:09:14.337375 12342 net.cpp:150] Setting up mbox_conf_flatten
I0401 21:09:14.337399 12342 net.cpp:157] Top shape: 1 96052 (96052)
I0401 21:09:14.337414 12342 net.cpp:165] Memory required for data: 252523988
I0401 21:09:14.337431 12342 layer_factory.hpp:77] Creating layer detection_out
I0401 21:09:14.337462 12342 net.cpp:100] Creating Layer detection_out
I0401 21:09:14.337481 12342 net.cpp:434] detection_out <- mbox_loc_mbox_loc_0_split_1
I0401 21:09:14.337496 12342 net.cpp:434] detection_out <- mbox_conf_flatten
I0401 21:09:14.337513 12342 net.cpp:434] detection_out <- mbox_priorbox_mbox_priorbox_0_split_1
I0401 21:09:14.337535 12342 net.cpp:434] detection_out <- label_data_1_split_1
I0401 21:09:14.337568 12342 net.cpp:408] detection_out -> detection_out
W0401 21:09:14.337615 12342 detection_output_layer.cpp:49] Failed to create directory: /home/zs/data/VOCdevkit/results/VOC2007/SSD_300x300_0319_ini/Main
I0401 21:09:14.338258 12342 net.cpp:150] Setting up detection_out
I0401 21:09:14.338290 12342 net.cpp:157] Top shape: 1 1 1 7 (7)
I0401 21:09:14.338312 12342 net.cpp:165] Memory required for data: 252524016
I0401 21:09:14.338333 12342 layer_factory.hpp:77] Creating layer detection_eval
I0401 21:09:14.338359 12342 net.cpp:100] Creating Layer detection_eval
I0401 21:09:14.338383 12342 net.cpp:434] detection_eval <- detection_out
I0401 21:09:14.338405 12342 net.cpp:434] detection_eval <- label_data_1_split_2
I0401 21:09:14.338431 12342 net.cpp:408] detection_eval -> detection_eval
I0401 21:09:14.338626 12342 net.cpp:150] Setting up detection_eval
I0401 21:09:14.338656 12342 net.cpp:157] Top shape: 1 1 11 5 (55)
I0401 21:09:14.338677 12342 net.cpp:165] Memory required for data: 252524236
I0401 21:09:14.338696 12342 net.cpp:228] detection_eval does not need backward computation.
I0401 21:09:14.338713 12342 net.cpp:228] detection_out does not need backward computation.
I0401 21:09:14.338732 12342 net.cpp:228] mbox_conf_flatten does not need backward computation.
I0401 21:09:14.338748 12342 net.cpp:228] mbox_conf_softmax does not need backward computation.
…
