…
      sampler {
        min_scale: 0.3
        max_scale: 1
        min_aspect_ratio: 0.5
        max_aspect_ratio: 2
      }
      sample_constraint {
        min_jaccard_overlap: 0.9
      }
      max_sample: 1
      max_trials: 50
    }
    batch_sampler {
      sampler {
        min_scale: 0.3
        max_scale: 1
        min_aspect_ratio: 0.5
        max_aspect_ratio: 2
      }
      sample_constraint {
        max_jaccard_overlap: 1
      }
      max_sample: 1
      max_trials: 50
    }
    label_map_file: "data/NWPU_VHR/labelmap_NWPU_VHR.prototxt"
  }
}
layer {
  name: "conv1_1"
  type: "Convolution"
  bottom: "data"
  top: "conv1_1"
  param {
    lr_mult: 1
    decay_mult: 1
  }
  param {
    lr_mult: 2
    decay_mult: 0
  }
  convolution_param {
    num_output: 64
    pad: 1
    kernel_size: 3
    weight_filler {
      type: "xavier"
    }
    bias_filler {
      type: "constant"
      value: 0
    }
  }
}
layer {
  name: "relu1_1"
  type: "ReLU"
  bottom: "conv1_1"
  top: "conv1_1"
}
layer {
  name: "conv1_2"
  type: "Convolution"
  bottom: "conv1_1"
  top: "conv1_2"
  param {
    lr_mult: 1
    decay_mult: 1
  }
  param {
    lr_mult: 2
    decay_mult: 0
  }
  convolution_param {
    num_output: 64
    pad: 1
    kernel_size: 3
    weight_filler {
      type: "xavier"
    }
    bias_filler {
      type: "constant"
      value: 0
    }
  }
}
layer {
  name: "relu1_2"
  type: "ReLU"
  bottom: "conv1_2"
  top: "conv1_2"
}
layer {
  name: "pool1"
  type: "Pooling"
  bottom: "conv1_2"
  top: "pool1"
  pooling_param {
    pool: MAX
    kernel_size: 2
    stride: 2
  }
}
layer {
  name: "conv2_1"
  type: "Convolution"
  bottom: "pool1"
  top: "conv2_1"
  param {
    lr_mult: 1
    decay_mult: 1
  }
  param {
    lr_mult: 2
    decay_mult: 0
  }
  convolution_param {
    num_output: 128
    pad: 1
    kernel_size: 3
    weight_filler {
      type: "xavier"
    }
    bias_filler {
      type: "constant"
      value: 0
    }
  }
}
layer {
  name: "relu2_1"
  type: "ReLU"
  bottom: "conv2_1"
  top: "conv2_1"
}
layer {
  name: "conv2_2"
  type: "Convolution"
  bottom: "conv2_1"
  top: "conv2_2"
  param {
    lr_mult: 1
    decay_mult: 1
  }
  param {
    lr_mult: 2
    decay_mult: 0
  }
  convolution_param {
    num_output: 128
    pad: 1
    kernel_size: 3
    weight_filler {
      type: "xavier"
    }
    bias_filler {
      type: "constant"
      value: 0
    }
  }
}
layer {
  name: "relu2_2"
  type: "ReLU"
  bottom: "conv2_2"
  top: "conv2_2"
}
layer {
  name: "pool2"
  type: "Pooling"
  bottom: "conv2_2"
  top: "pool2"
  pooling_param {
    pool: MAX
    kernel_size: 2
    stride: 2
  }
}
layer {
  name: "conv3_1"
  type: "Convolution"
  bottom: "pool2"
  top: "conv3_1"
  param {
    lr_mult: 1
    decay_mult: 1
  }
  param {
    lr_mult: 2
    decay_mult: 0
  }
  convolution_param {
    num_output: 256
    pad: 1
    kernel_size: 3
    weight_filler {
      type: "xavier"
    }
    bias_filler {
      type: "constant"
      value: 0
    }
  }
}
layer {
  name: "relu3_1"
  type: "ReLU"
  bottom: "conv3_1"
  top: "conv3_1"
}
layer {
  name: "conv3_2"
  type: "Convolution"
  bottom: "conv3_1"
  top: "conv3_2"
  param {
    lr_mult: 1
    decay_mult: 1
  }
  param {
    lr_mult: 2
    decay_mult: 0
  }
  convolution_param {
    num_output: 256
    pad: 1
    kernel_size: 3
    weight_filler {
      type: "xavier"
    }
    bias_filler {
      type: "constant"
      value: 0
    }
  }
}
layer {
  name: "relu3_2"
  type: "ReLU"
  bottom: "conv3_2"
  top: "conv3_2"
}
layer {
  name: "conv3_3"
  type: "Convolution"
  bottom: "conv3_2"
  top: "conv3_3"
  param {
    lr_mult: 1
    decay_mult: 1
  }
  param {
    lr_mult: 2
    decay_mult: 0
  }
  convolution_param {
    num_output: 256
    pad: 1
    kernel_size: 3
    weight_filler {
      type: "xavier"
    }
    bias_filler {
      type: "constant"
      value: 0
    }
  }
}
layer {
  name: "relu3_3"
  type: "ReLU"
  bottom: "conv3_3"
  top: "conv3_3"
}
layer {
  name: "pool3"
  type: "Pooling"
  bottom: "conv3_3"
  top: "pool3"
  pooling_param {
    pool: MAX
    kernel_size: 2
    stride: 2
  }
}
layer {
  name: "conv4_1"
  type: "Convolution"
  bottom: "pool3"
  top: "conv4_1"
  param {
    lr_mult: 1
    decay_mult: 1
  }
  param {
    lr_mult: 2
    decay_mult: 0
  }
  convolution_param {
    num_output: 512
    pad: 1
    kernel_size: 3
    weight_filler {
      type: "xavier"
    }
    bias_filler {
      type: "constant"
      value: 0
    }
  }
}
layer {
  name: "relu4_1"
  type: "ReLU"
  bottom: "conv4_1"
  top: "conv4_1"
}
layer {
  name: "conv4_2_depthwise"
  type: "DepthwiseConvolution"
  bottom: "conv4_1"
  top: "conv4_2_3x3"
  param {
    lr_mult: 1
    decay_mult: 1
  }
  param {
    lr_mult: 2
    decay_mult: 0
  }
  convolution_param {
    num_output: 512
    pad: 1
    kernel_size: 3
    group: 512
    weight_filler {
      type: "xavier"
    }
    bias_filler {
      type: "constant"
      value: 0
    }
  }
}
layer {
  name: "conv4_2_3x3_relu"
  type: "ReLU"
  bottom: "conv4_2_3x3"
  top: "conv4_2_3x3"
}
layer {
  name: "conv4_2_1x1"
  type: "Convolution"
  bottom: "conv4_2_3x3"
  top: "conv4_2"
  param {
    lr_mult: 1
    decay_mult: 1
  }
  param {
    lr_mult: 2
    decay_mult: 0
  }
  convolution_param {
    num_output: 512
    pad: 0
    kernel_size: 1
    stride: 1
    weight_filler {
      type: "xavier"
    }
    bias_filler {
      type: "constant"
      value: 0
    }
  }
}
layer {
  name: "relu4_2"
  type: "ReLU"
  bottom: "conv4_2"
  top: "conv4_2"
}
layer {
  name: "conv4_3"
  type: "Convolution"
  bottom: "conv4_2"
  top: "conv4_3"
  param {
    lr_mult: 1
    decay_mult: 1
  }
  param {
    lr_mult: 2
    decay_mult: 0
  }
  convolution_param {
    num_output: 512
    pad: 1
    kernel_size: 3
    weight_filler {
      type: "xavier"
    }
    bias_filler {
      type: "constant"
      value: 0
    }
  }
}
layer {
  name: "relu4_3"
  type: "ReLU"
  bottom: "conv4_3"
  top: "conv4_3"
}
layer {
  name: "pool4"
  type: "Pooling"
  bottom: "conv4_3"
  top: "pool4"
  pooling_param {
    pool: MAX
    kernel_size: 2
    stride: 2
  }
}
layer {
  name: "conv5_1_depthwise"
  type: "DepthwiseConvolution"
  bottom: "pool4"
  top: "conv5_1_3x3"
  param {
    lr_mult: 1
    decay_mult: 1
  }
  param {
    lr_mult: 2
    decay_mult: 0
  }
  convolution_param {
    num_output: 512
    pad: 1
    kernel_size: 3
    group: 512
    weight_filler {
      type: "xavier"
    }
    bias_filler {
      type: "constant"
      value: 0
    }
    dilation: 1
  }
}
layer {
  name: "conv5_1_3x3_relu"
  type: "ReLU"
  bottom: "conv5_1_3x3"
  top: "conv5_1_3x3"
}
layer {
  name: "conv5_1_1x1"
  type: "Convolution"
  bottom: "conv5_1_3x3"
  top: "conv5_1"
  param {
    lr_mult: 1
    decay_mult: 1
  }
  param {
    lr_mult: 2
    decay_mult: 0
  }
  convolution_param {
    num_output: 512
    pad: 0
    kernel_size: 1
    stride: 1
    weight_filler {
      type: "xavier"
    }
    bias_filler {
      type: "constant"
      value: 0
    }
    dilation: 1
  }
}
layer {
  name: "relu5_1"
  type: "ReLU"
  bottom: "conv5_1"
  top: "conv5_1"
}
layer {
  name: "conv5_2_depthwise"
  type: "DepthwiseConvolution"
  bottom: "conv5_1"
  top: "conv5_2_3x3"
  param {
    lr_mult: 1
    decay_mult: 1
  }
  param {
    lr_mult: 2
    decay_mult: 0
  }
  convolution_param {
    num_output: 512
    pad: 1
    kernel_size: 3
    group: 512
    weight_filler {
      type: "xavier"
    }
    bias_filler {
      type: "constant"
      value: 0
    }
    dilation: 1
  }
}
layer {
  name: "conv5_2_3x3_relu"
  type: "ReLU"
  bottom: "conv5_2_3x3"
  top: "conv5_2_3x3"
}
layer {
  name: "conv5_2_1x1"
  type: "Convolution"
  bottom: "conv5_2_3x3"
  top: "conv5_2"
  param {
    lr_mult: 1
    decay_mult: 1
  }
  param {
    lr_mult: 2
    decay_mult: 0
  }
  convolution_param {
    num_output: 512
    pad: 0
    kernel_size: 1
    stride: 1
    weight_filler {
      type: "xavier"
    }
    bias_filler {
      type: "constant"
      value: 0
    }
    dilation: 1
  }
}
layer {
  name: "relu5_2"
  type: "ReLU"
  bottom: "conv5_2"
  top: "conv5_2"
}
layer {
  name: "conv5_3_depthwise"
  type: "DepthwiseConvolution"
  bottom: "conv5_2"
  top: "conv5_3_3x3"
  param {
    lr_mult: 1
    decay_mult: 1
  }
  param {
    lr_mult: 2
    decay_mult: 0
  }
  convolution_param {
    num_output: 512
    pad: 1
    kernel_size: 3
    group: 512
    weight_filler {
      type: "xavier"
    }
    bias_filler {
      type: "constant"
      value: 0
    }
    dilation: 1
  }
}
layer {
  name: "conv5_3_3x3_relu"
  type: "ReLU"
  bottom: "conv5_3_3x3"
  top: "conv5_3_3x3"
}
layer {
  name: "conv5_3_1x1"
  type: "Convolution"
  bottom: "conv5_3_3x3"
  top: "conv5_3"
  param {
    lr_mult: 1
    decay_mult: 1
  }
  param {
    lr_mult: 2
    decay_mult: 0
  }
  convolution_param {
    num_output: 512
    pad: 0
    kernel_size: 1
    stride: 1
    weight_filler {
      type: "xavier"
    }
    bias_filler {
      type: "constant"
      value: 0
    }
    dilation: 1
  }
}
layer {
  name: "relu5_3"
  type: "ReLU"
  bottom: "conv5_3"
  top: "conv5_3"
}
layer {
  name: "pool5"
  type: "Pooling"
  bottom: "conv5_3"
  top: "pool5"
  pooling_param {
    pool: MAX
    kernel_size: 3
    stride: 1
    pad: 1
  }
}
layer {
  name: "fc6_depthwise"
  type: "DepthwiseConvolution"
  bottom: "pool5"
  top: "fc6_3x3"
  param {
    lr_mult: 1
    decay_mult: 1
  }
  param {
    lr_mult: 2
    decay_mult: 0
  }
  convolution_param {
    num_output: 512
    pad: 6
    kernel_size: 3
    group: 512
    weight_filler {
      type: "xavier"
    }
    bias_filler {
      type: "constant"
      value: 0
    }
    dilation: 6
  }
}
layer {
  name: "fc6_3x3_relu"
  type: "ReLU"
  bottom: "fc6_3x3"
  top: "fc6_3x3"
}
layer {
  name: "fc6_1x1"
  type: "Convolution"
  bottom: "fc6_3x3"
  top: "fc6"
  param {
    lr_mult: 1
    decay_mult: 1
  }
  param {
    lr_mult: 2
    decay_mult: 0
  }
  convolution_param {
    num_output: 1024
    pad: 0
    kernel_size: 1
    stride: 1
    weight_filler {
      type: "xavier"
    }
    bias_filler {
      type: "constant"
      value: 0
    }
    dilation: 6
  }
}
layer {
  name: "relu6"
  type: "ReLU"
  bottom: "fc6"
  top: "fc6"
}
layer {
  name: "fc7"
  type: "Convolution"
  bottom: "fc6"
  top: "fc7"
  param {
    lr_mult: 1
    decay_mult: 1
  }
  param {
    lr_mult: 2
    decay_mult: 0
  }
  convolution_param {
    num_output: 1024
    kernel_size: 1
    weight_filler {
      type: "xavier"
    }
    bias_filler {
      type: "constant"
      value: 0
    }
  }
}
layer {
  name: "relu7"
  type: "ReLU"
  bottom: "fc7"
  top: "fc7"
}
layer {
  name: "conv6_1"
  type: "Convolution"
  bottom: "fc7"
  top: "conv6_1"
  param {
    lr_mult: 1
    decay_mult: 1
  }
  param {
    lr_mult: 2
    decay_mult: 0
  }
  convolution_param {
    num_output: 256
    pad: 0
    kernel_size: 1
    stride: 1
    weight_filler {
      type: "xavier"
    }
    bias_filler {
      type: "constant"
      value: 0
    }
  }
}
layer {
  name: "conv6_1_relu"
  type: "ReLU"
  bottom: "conv6_1"
  top: "conv6_1"
}
layer {
  name: "conv6_2"
  type: "Convolution"
  bottom: "conv6_1"
  top: "conv6_2"
  param {
    lr_mult: 1
    decay_mult: 1
  }
  param {
    lr_mult: 2
    decay_mult: 0
  }
  convolution_param {
    num_output: 512
    pad: 1
    kernel_size: 3
    stride: 2
    weight_filler {
      type: "xavier"
    }
    bias_filler {
      type: "constant"
      value: 0
    }
  }
}
layer {
  name: "conv6_2_relu"
  type: "ReLU"
  bottom: "conv6_2"
  top: "conv6_2"
}
layer {
  name: "conv7_1"
  type: "Convolution"
  bottom: "conv6_2"
  top: "conv7_1"
  param {
    lr_mult: 1
    decay_mult: 1
  }
  param {
    lr_mult: 2
    decay_mult: 0
  }
  convolution_param {
    num_output: 128
    pad: 0
    kernel_size: 1
    stride: 1
    weight_filler {
      type: "xavier"
    }
    bias_filler {
      type: "constant"
      value: 0
    }
  }
}
layer {
  name: "conv7_1_relu"
  type: "ReLU"
  bottom: "conv7_1"
  top: "conv7_1"
}
layer {
  name: "conv7_2"
  type: "Convolution"
  bottom: "conv7_1"
  top: "conv7_2"
  param {
    lr_mult: 1
    decay_mult: 1
  }
  param {
    lr_mult: 2
    decay_mult: 0
  }
  convolution_param {
    num_output: 256
    pad: 1
    kernel_size: 3
    stride: 2
    weight_filler {
      type: "xavier"
    }
    bias_filler {
      type: "constant"
      value: 0
    }
  }
}
layer {
  name: "conv7_2_relu"
  type: "ReLU"
  bottom: "conv7_2"
  top: "conv7_2"
}
layer {
  name: "conv8_1"
  type: "Convolution"
  bottom: "conv7_2"
  top: "conv8_1"
  param {
    lr_mult: 1
    decay_mult: 1
  }
  param {
    lr_mult: 2
    decay_mult: 0
  }
  convolution_param {
    num_output: 128
    pad: 0
    kernel_size: 1
    stride: 1
    weight_filler {
      type: "xavier"
    }
    bias_filler {
      type: "constant"
      value: 0
    }
  }
}
layer {
  name: "conv8_1_relu"
  type: "ReLU"
  bottom: "conv8_1"
  top: "conv8_1"
}
layer {
  name: "conv8_2"
  type: "Convolution"
  bottom: "conv8_1"
  top: "conv8_2"
  param {
    lr_mult: 1
    decay_mult: 1
  }
  param {
    lr_mult: 2
    decay_mult: 0
  }
  convolution_param {
    num_output: 256
    pad: 0
    kernel_size: 3
    stride: 1
    weight_filler {
      type: "xavier"
    }
    bias_filler {
      type: "constant"
      value: 0
    }
  }
}
layer {
  name: "conv8_2_relu"
  type: "ReLU"
  bottom: "conv8_2"
  top: "conv8_2"
}
layer {
  name: "conv9_1"
  type: "Convolution"
  bottom: "conv8_2"
  top: "conv9_1"
  param {
    lr_mult: 1
    decay_mult: 1
  }
  param {
    lr_mult: 2
    decay_mult: 0
  }
  convolution_param {
    num_output: 128
    pad: 0
    kernel_size: 1
    stride: 1
    weight_filler {
      type: "xavier"
    }
    bias_filler {
      type: "constant"
      value: 0
    }
  }
}
layer {
  name: "conv9_1_relu"
  type: "ReLU"
  bottom: "conv9_1"
  top: "conv9_1"
}
layer {
  name: "conv9_2"
  type: "Convolution"
  bottom: "conv9_1"
  top: "conv9_2"
  param {
    lr_mult: 1
    decay_mult: 1
  }
  param {
    lr_mult: 2
    decay_mult: 0
  }
  convolution_param {
    num_output: 256
    pad: 0
    kernel_size: 3
    stride: 1
    weight_filler {
      type: "xavier"
    }
    bias_filler {
      type: "constant"
      value: 0
    }
  }
}
layer {
  name: "conv9_2_relu"
  type: "ReLU"
  bottom: "conv9_2"
  top: "conv9_2"
}
layer {
  name: "conv4_3_norm"
  type: "Normalize"
  bottom: "conv4_3"
  top: "conv4_3_norm"
  norm_param {
    across_spatial: false
    scale_filler {
      type: "constant"
      value: 20
    }
    channel_shared: false
  }
}
layer {
  name: "conv4_3_norm_mbox_loc"
  type: "Convolution"
  bottom: "conv4_3_norm"
  top: "conv4_3_norm_mbox_loc"
  param {
    lr_mult: 1
    decay_mult: 1
  }
  param {
    lr_mult: 2
    decay_mult: 0
  }
  convolution_param {
    num_output: 16
    pad: 1
    kernel_size: 3
    stride: 1
    weight_filler {
      type: "xavier"
    }
    bias_filler {
      type: "constant"
      value: 0
    }
  }
}
layer {
  name: "conv4_3_norm_mbox_loc_perm"
  type: "Permute"
  bottom: "conv4_3_norm_mbox_loc"
  top: "conv4_3_norm_mbox_loc_perm"
  permute_param {
    order: 0
    order: 2
    order: 3
    order: 1
  }
}
layer {
  name: "conv4_3_norm_mbox_loc_flat"
  type: "Flatten"
  bottom: "conv4_3_norm_mbox_loc_perm"
  top: "conv4_3_norm_mbox_loc_flat"
  flatten_param {
    axis: 1
  }
}
layer {
  name: "conv4_3_norm_mbox_conf"
  type: "Convolution"
  bottom: "conv4_3_norm"
  top: "conv4_3_norm_mbox_conf"
  param {
    lr_mult: 1
    decay_mult: 1
  }
  param {
    lr_mult: 2
    decay_mult: 0
  }
  convolution_param {
    num_output: 44
    pad: 1
    kernel_size: 3
    stride: 1
    weight_filler {
      type: "xavier"
    }
    bias_filler {
      type: "constant"
      value: 0
    }
  }
}
layer {
  name: "conv4_3_norm_mbox_conf_perm"
  type: "Permute"
  bottom: "conv4_3_norm_mbox_conf"
  top: "conv4_3_norm_mbox_conf_perm"
  permute_param {
    order: 0
    order: 2
    order: 3
    order: 1
  }
}
layer {
  name: "conv4_3_norm_mbox_conf_flat"
  type: "Flatten"
  bottom: "conv4_3_norm_mbox_conf_perm"
  top: "conv4_3_norm_mbox_conf_flat"
  flatten_param {
    axis: 1
  }
}
layer {
  name: "conv4_3_norm_mbox_priorbox"
  type: "PriorBox"
  bottom: "conv4_3_norm"
  bottom: "data"
  top: "conv4_3_norm_mbox_priorbox"
  prior_box_param {
    min_size: 30
    max_size: 60
    aspect_ratio: 2
    flip: true
    clip: false
    variance: 0.1
    variance: 0.1
    variance: 0.2
    variance: 0.2
    step: 8
    offset: 0.5
  }
}
layer {
  name: "fc7_mbox_loc"
  type: "Convolution"
  bottom: "fc7"
  top: "fc7_mbox_loc"
  param {
    lr_mult: 1
    decay_mult: 1
  }
  param {
    lr_mult: 2
    decay_mult: 0
  }
  convolution_param {
    num_output: 24
    pad: 1
    kernel_size: 3
    stride: 1
    weight_filler {
      type: "xavier"
    }
    bias_filler {
      type: "constant"
      value: 0
    }
  }
}
layer {
  name: "fc7_mbox_loc_perm"
  type: "Permute"
  bottom: "fc7_mbox_loc"
  top: "fc7_mbox_loc_perm"
  permute_param {
    order: 0
    order: 2
    order: 3
    order: 1
  }
}
layer {
  name: "fc7_mbox_loc_flat"
  type: "Flatten"
  bottom: "fc7_mbox_loc_perm"
  top: "fc7_mbox_loc_flat"
  flatten_param {
    axis: 1
  }
}
layer {
  name: "fc7_mbox_conf"
  type: "Convolution"
  bottom: "fc7"
  top: "fc7_mbox_conf"
  param {
    lr_mult: 1
    decay_mult: 1
  }
  param {
    lr_mult: 2
    decay_mult: 0
  }
  convolution_param {
    num_output: 66
    pad: 1
    kernel_size: 3
    stride: 1
    weight_filler {
      type: "xavier"
    }
    bias_filler {
      type: "constant"
      value: 0
    }
  }
}
layer {
  name: "fc7_mbox_conf_perm"
  type: "Permute"
  bottom: "fc7_mbox_conf"
  top: "fc7_mbox_conf_perm"
  permute_param {
    order: 0
    order: 2
    order: 3
    order: 1
  }
}
layer {
  name: "fc7_mbox_conf_flat"
  type: "Flatten"
  bottom: "fc7_mbox_conf_perm"
  top: "fc7_mbox_conf_flat"
  flatten_param {
    axis: 1
  }
}
layer {
  name: "fc7_mbox_priorbox"
  type: "PriorBox"
  bottom: "fc7"
  bottom: "data"
  top: "fc7_mbox_priorbox"
  prior_box_param {
    min_size: 60
    max_size: 111
    aspect_ratio: 2
    aspect_ratio: 3
    flip: true
    clip: false
    variance: 0.1
    variance: 0.1
    variance: 0.2
    variance: 0.2
    step: 16
    offset: 0.5
  }
}
layer {
  name: "conv6_2_mbox_loc"
  type: "Convolution"
  bottom: "conv6_2"
  top: "conv6_2_mbox_loc"
  param {
    lr_mult: 1
    decay_mult: 1
  }
  param {
    lr_mult: 2
    decay_mult: 0
  }
  convolution_param {
    num_output: 24
    pad: 1
    kernel_size: 3
    stride: 1
    weight_filler {
      type: "xavier"
    }
    bias_filler {
      type: "constant"
      value: 0
    }
  }
}
layer {
  name: "conv6_2_mbox_loc_perm"
  type: "Permute"
  bottom: "conv6_2_mbox_loc"
  top: "conv6_2_mbox_loc_perm"
  permute_param {
    order: 0
    order: 2
    order: 3
    order: 1
  }
}
layer {
  name: "conv6_2_mbox_loc_flat"
  type: "Flatten"
  bottom: "conv6_2_mbox_loc_perm"
  top: "conv6_2_mbox_loc_flat"
  flatten_param {
    axis: 1
  }
}
layer {
  name: "conv6_2_mbox_conf"
  type: "Convolution"
  bottom: "conv6_2"
  top: "conv6_2_mbox_conf"
  param {
    lr_mult: 1
    decay_mult: 1
  }
  param {
    lr_mult: 2
    decay_mult: 0
  }
  convolution_param {
    num_output: 66
    pad: 1
    kernel_size: 3
    stride: 1
    weight_filler {
      type: "xavier"
    }
    bias_filler {
      type: "constant"
      value: 0
    }
  }
}
layer {
  name: "conv6_2_mbox_conf_perm"
  type: "Permute"
  bottom: "conv6_2_mbox_conf"
  top: "conv6_2_mbox_conf_perm"
  permute_param {
    order: 0
    order: 2
    order: 3
    order: 1
  }
}
layer {
  name: "conv6_2_mbox_conf_flat"
  type: "Flatten"
  bottom: "conv6_2_mbox_conf_perm"
  top: "conv6_2_mbox_conf_flat"
  flatten_param {
    axis: 1
  }
}
layer {
  name: "conv6_2_mbox_priorbox"
  type: "PriorBox"
  bottom: "conv6_2"
  bottom: "data"
  top: "conv6_2_mbox_priorbox"
  prior_box_param {
    min_size: 111
    max_size: 162
    aspect_ratio: 2
    aspect_ratio: 3
    flip: true
    clip: false
    variance: 0.1
    variance: 0.1
    variance: 0.2
    variance: 0.2
    step: 32
    offset: 0.5
  }
}
layer {
  name: "conv7_2_mbox_loc"
  type: "Convolution"
  bottom: "conv7_2"
  top: "conv7_2_mbox_loc"
  param {
    lr_mult: 1
    decay_mult: 1
  }
  param {
    lr_mult: 2
    decay_mult: 0
  }
  convolution_param {
    num_output: 24
    pad: 1
    kernel_size: 3
    stride: 1
    weight_filler {
      type: "xavier"
    }
    bias_filler {
      type: "constant"
      value: 0
    }
  }
}
layer {
  name: "conv7_2_mbox_loc_perm"
  type: "Permute"
  bottom: "conv7_2_mbox_loc"
  top: "conv7_2_mbox_loc_perm"
  permute_param {
    order: 0
    order: 2
    order: 3
    order: 1
  }
}
layer {
  name: "conv7_2_mbox_loc_flat"
  type: "Flatten"
  bottom: "conv7_2_mbox_loc_perm"
  top: "conv7_2_mbox_loc_flat"
  flatten_param {
    axis: 1
  }
}
layer {
  name: "conv7_2_mbox_conf"
  type: "Convolution"
  bottom: "conv7_2"
  top: "conv7_2_mbox_conf"
  param {
    lr_mult: 1
    decay_mult: 1
  }
  param {
    lr_mult: 2
    decay_mult: 0
  }
  convolution_param {
    num_output: 66
    pad: 1
    kernel_size: 3
    stride: 1
    weight_filler {
      type: "xavier"
    }
    bias_filler {
      type: "constant"
      value: 0
    }
  }
}
layer {
  name: "conv7_2_mbox_conf_perm"
  type: "Permute"
  bottom: "conv7_2_mbox_conf"
  top: "conv7_2_mbox_conf_perm"
  permute_param {
    order: 0
    order: 2
    order: 3
    order: 1
  }
}
layer {
  name: "conv7_2_mbox_conf_flat"
  type: "Flatten"
  bottom: "conv7_2_mbox_conf_perm"
  top: "conv7_2_mbox_conf_flat"
  flatten_param {
    axis: 1
  }
}
layer {
  name: "conv7_2_mbox_priorbox"
  type: "PriorBox"
  bottom: "conv7_2"
  bottom: "data"
  top: "conv7_2_mbox_priorbox"
  prior_box_param {
    min_size: 162
    max_size: 213
    aspect_ratio: 2
    aspect_ratio: 3
    flip: true
    clip: false
    variance: 0.1
    variance: 0.1
    variance: 0.2
    variance: 0.2
    step: 64
    offset: 0.5
  }
}
layer {
  name: "conv8_2_mbox_loc"
  type: "Convolution"
  bottom: "conv8_2"
  top: "conv8_2_mbox_loc"
  param {
    lr_mult: 1
    decay_mult: 1
  }
  param {
    lr_mult: 2
    decay_mult: 0
  }
  convolution_param {
    num_output: 16
    pad: 1
    kernel_size: 3
    stride: 1
    weight_filler {
      type: "xavier"
    }
    bias_filler {
      type: "constant"
      value: 0
    }
  }
}
layer {
  name: "conv8_2_mbox_loc_perm"
  type: "Permute"
  bottom: "conv8_2_mbox_loc"
  top: "conv8_2_mbox_loc_perm"
  permute_param {
    order: 0
    order: 2
    order: 3
    order: 1
  }
}
layer {
  name: "conv8_2_mbox_loc_flat"
  type: "Flatten"
  bottom: "conv8_2_mbox_loc_perm"
  top: "conv8_2_mbox_loc_flat"
  flatten_param {
    axis: 1
  }
}
layer {
  name: "conv8_2_mbox_conf"
  type: "Convolution"
  bottom: "conv8_2"
  top: "conv8_2_mbox_conf"
  param {
    lr_mult: 1
    decay_mult: 1
  }
  param {
    lr_mult: 2
    decay_mult: 0
  }
  convolution_param {
    num_output: 44
    pad: 1
    kernel_size: 3
    stride: 1
    weight_filler {
      type: "xavier"
    }
    bias_filler {
      type: "constant"
      value: 0
    }
  }
}
layer {
  name: "conv8_2_mbox_conf_perm"
  type: "Permute"
  bottom: "conv8_2_mbox_conf"
  top: "conv8_2_mbox_conf_perm"
  permute_param {
    order: 0
    order: 2
    order: 3
    order: 1
  }
}
layer {
  name: "conv8_2_mbox_conf_flat"
  type: "Flatten"
  bottom: "conv8_2_mbox_conf_perm"
  top: "conv8_2_mbox_conf_flat"
  flatten_param {
    axis: 1
  }
}
layer {
  name: "conv8_2_mbox_priorbox"
  type: "PriorBox"
  bottom: "conv8_2"
  bottom: "data"
  top: "conv8_2_mbox_priorbox"
  prior_box_param {
    min_size: 213
    max_size: 264
    aspect_ratio: 2
    flip: true
    clip: false
    variance: 0.1
    variance: 0.1
    variance: 0.2
    variance: 0.2
    step: 100
    offset: 0.5
  }
}
layer {
  name: "conv9_2_mbox_loc"
  type: "Convolution"
  bottom: "conv9_2"
  top: "conv9_2_mbox_loc"
  param {
    lr_mult: 1
    decay_mult: 1
  }
  param {
    lr_mult: 2
    decay_mult: 0
  }
  convolution_param {
    num_output: 16
    pad: 1
    kernel_size: 3
    stride: 1
    weight_filler {
      type: "xavier"
    }
    bias_filler {
      type: "constant"
      value: 0
    }
  }
}
layer {
  name: "conv9_2_mbox_loc_perm"
  type: "Permute"
  bottom: "conv9_2_mbox_loc"
  top: "conv9_2_mbox_loc_perm"
  permute_param {
    order: 0
    order: 2
    order: 3
    order: 1
  }
}
layer {
  name: "conv9_2_mbox_loc_flat"
  type: "Flatten"
  bottom: "conv9_2_mbox_loc_perm"
  top: "conv9_2_mbox_loc_flat"
  flatten_param {
    axis: 1
  }
}
layer {
  name: "conv9_2_mbox_conf"
  type: "Convolution"
  bottom: "conv9_2"
  top: "conv9_2_mbox_conf"
  param {
    lr_mult: 1
    decay_mult: 1
  }
  param {
    lr_mult: 2
    decay_mult: 0
  }
  convolution_param {
    num_output: 44
    pad: 1
    kernel_size: 3
    stride: 1
    weight_filler {
      type: "xavier"
    }
    bias_filler {
      type: "constant"
      value: 0
    }
  }
}
layer {
  name: "conv9_2_mbox_conf_perm"
  type: "Permute"
  bottom: "conv9_2_mbox_conf"
  top: "conv9_2_mbox_conf_perm"
  permute_param {
    order: 0
    order: 2
    order: 3
    order: 1
  }
}
layer {
  name: "conv9_2_mbox_conf_flat"
  type: "Flatten"
  bottom: "conv9_2_mbox_conf_perm"
  top: "conv9_2_mbox_conf_flat"
  flatten_param {
    axis: 1
  }
}
layer {
  name: "conv9_2_mbox_priorbox"
  type: "PriorBox"
  bottom: "conv9_2"
  bottom: "data"
  top: "conv9_2_mbox_priorbox"
  prior_box_param {
    min_size: 264
    max_size: 315
    aspect_ratio: 2
    flip: true
    clip: false
    variance: 0.1
    variance: 0.1
    variance: 0.2
    variance: 0.2
    step: 300
    offset: 0.5
  }
}
layer {
  name: "mbox_loc"
  type: "Concat"
  bottom: "conv4_3_norm_mbox_loc_flat"
  bottom: "fc7_mbox_loc_flat"
  bottom: "conv6_2_mbox_loc_flat"
  bottom: "conv7_2_mbox_loc_flat"
  bottom: "conv8_2_mbox_loc_flat"
  bottom: "conv9_2_mbox_loc_flat"
  top: "mbox_loc"
  concat_param {
    axis: 1
  }
}
layer {
  name: "mbox_conf"
  type: "Concat"
  bottom: "conv4_3_norm_mbox_conf_flat"
  bottom: "fc7_mbox_conf_flat"
  bottom: "conv6_2_mbox_conf_flat"
  bottom: "conv7_2_mbox_conf_flat"
  bottom: "conv8_2_mbox_conf_flat"
  bottom: "conv9_2_mbox_conf_flat"
  top: "mbox_conf"
  concat_param {
    axis: 1
  }
}
layer {
  name: "mbox_priorbox"
  type: "Concat"
  bottom: "conv4_3_norm_mbox_priorbox"
  bottom: "fc7_mbox_priorbox"
  bottom: "conv6_2_mbox_priorbox"
  bottom: "conv7_2_mbox_priorbox"
  bottom: "conv8_2_mbox_priorbox"
  bottom: "conv9_2_mbox_priorbox"
  top: "mbox_priorbox"
  concat_param {
    axis: 2
  }
}
layer {
  name: "mbox_loss"
  type: "MultiBoxLoss"
  bottom: "mbox_loc"
  bottom: "mbox_conf"
  bottom: "mbox_priorbox"
  bottom: "label"
  top: "mbox_loss"
  include {
    phase: TRAIN
  }
  propagate_down: true
  propagate_down: true
  propagate_down: false
  propagate_down: false
  loss_param {
    normalization: VALID
  }
  multibox_loss_param {
    loc_loss_type: SMOOTH_L1
    conf_loss_type: SOFTMAX
    loc_weight: 1
    num_classes: 11
    share_location: true
    match_type: PER_PREDICTION
    overlap_threshold: 0.5
    use_prior_for_matching: true
    background_label_id: 0
    use_difficult_gt: true
    neg_pos_ratio: 3
    neg_overlap: 0.5
    code_type: CENTER_SIZE
    ignore_cross_boundary_bbox: false
    mining_type: MAX_NEGATIVE
  }
}
I0322 09:50:24.672504 30568 layer_factory.hpp:77] Creating layer data
I0322 09:50:24.672925 30568 net.cpp:100] Creating Layer data
I0322 09:50:24.672945 30568 net.cpp:408] data -> data
I0322 09:50:24.672974 30568 net.cpp:408] data -> label
I0322 09:50:24.673763 30583 db_lmdb.cpp:35] Opened lmdb examples/NWPU_VHR/NWPU_VHR_trainval_lmdb
I0322 09:50:24.690726 30568 annotated_data_layer.cpp:62] output data size: 32,3,300,300
I0322 09:50:24.738550 30568 net.cpp:150] Setting up data
I0322 09:50:24.738576 30568 net.cpp:157] Top shape: 32 3 300 300 (8640000)
I0322 09:50:24.738582 30568 net.cpp:157] Top shape: 1 1 4 8 (32)
I0322 09:50:24.738586 30568 net.cpp:165] Memory required for data: 34560128
I0322 09:50:24.738596 30568 layer_factory.hpp:77] Creating layer data_data_0_split
I0322 09:50:24.738611 30568 net.cpp:100] Creating Layer data_data_0_split
I0322 09:50:24.738618 30568 net.cpp:434] data_data_0_split <- data
I0322 09:50:24.738632 30568 net.cpp:408] data_data_0_split -> data_data_0_split_0
I0322 09:50:24.738643 30568 net.cpp:408] data_data_0_split -> data_data_0_split_1
I0322 09:50:24.738651 30568 net.cpp:408] data_data_0_split -> data_data_0_split_2
I0322 09:50:24.738659 30568 net.cpp:408] data_data_0_split -> data_data_0_split_3
I0322 09:50:24.738667 30568 net.cpp:408] data_data_0_split -> data_data_0_split_4
I0322 09:50:24.738673 30568 net.cpp:408] data_data_0_split -> data_data_0_split_5
I0322 09:50:24.738679 30568 net.cpp:408] data_data_0_split -> data_data_0_split_6
I0322 09:50:24.738785 30568 net.cpp:150] Setting up data_data_0_split
I0322 09:50:24.738792 30568 net.cpp:157] Top shape: 32 3 300 300 (8640000)
I0322 09:50:24.738797 30568 net.cpp:157] Top shape: 32 3 300 300 (8640000)
I0322 09:50:24.738802 30568 net.cpp:157] Top shape: 32 3 300 300 (8640000)
I0322 09:50:24.738807 30568 net.cpp:157] Top shape: 32 3 300 300 (8640000)
I0322 09:50:24.738812 30568 net.cpp:157] Top shape: 32 3 300 300 (8640000)
I0322 09:50:24.738817 30568 net.cpp:157] Top shape: 32 3 300 300 (8640000)
I0322 09:50:24.738824 30568 net.cpp:157] Top shape: 32 3 300 300 (8640000)
I0322 09:50:24.738831 30568 net.cpp:165] Memory required for data: 276480128
I0322 09:50:24.738835 30568 layer_factory.hpp:77] Creating layer conv1_1
I0322 09:50:24.738859 30568 net.cpp:100] Creating Layer conv1_1
I0322 09:50:24.738867 30568 net.cpp:434] conv1_1 <- data_data_0_split_0
I0322 09:50:24.738874 30568 net.cpp:408] conv1_1 -> conv1_1
I0322 09:50:25.204107 30568 net.cpp:150] Setting up conv1_1
I0322 09:50:25.204133 30568 net.cpp:157] Top shape: 32 64 300 300 (184320000)
I0322 09:50:25.204136 30568 net.cpp:165] Memory required for data: 1013760128
I0322 09:50:25.204155 30568 layer_factory.hpp:77] Creating layer relu1_1
I0322 09:50:25.204167 30568 net.cpp:100] Creating Layer relu1_1
I0322 09:50:25.204174 30568 net.cpp:434] relu1_1 <- conv1_1
I0322 09:50:25.204180 30568 net.cpp:395] relu1_1 -> conv1_1 (in-place)
I0322 09:50:25.204807 30568 net.cpp:150] Setting up relu1_1
I0322 09:50:25.204818 30568 net.cpp:157] Top shape: 32 64 300 300 (184320000)
I0322 09:50:25.204836 30568 net.cpp:165] Memory required for data: 1751040128
I0322 09:50:25.204840 30568 layer_factory.hpp:77] Creating layer conv1_2
I0322 09:50:25.204855 30568 net.cpp:100] Creating Layer conv1_2
I0322 09:50:25.204861 30568 net.cpp:434] conv1_2 <- conv1_1
I0322 09:50:25.204867 30568 net.cpp:408] conv1_2 -> conv1_2
I0322 09:50:25.207065 30568 net.cpp:150] Setting up conv1_2
I0322 09:50:25.207098 30568 net.cpp:157] Top shape: 32 64 300 300 (184320000)
I0322 09:50:25.207103 30568 net.cpp:165] Memory required for data: 2488320128
I0322 09:50:25.207113 30568 layer_factory.hpp:77] Creating layer relu1_2
I0322 09:50:25.207121 30568 net.cpp:100] Creating Layer relu1_2
I0322 09:50:25.207126 30568 net.cpp:434] relu1_2 <- conv1_2
I0322 09:50:25.207131 30568 net.cpp:395] relu1_2 -> conv1_2 (in-place)
I0322 09:50:25.207273 30568 net.cpp:150] Setting up relu1_2
I0322 09:50:25.207280 30568 net.cpp:157] Top shape: 32 64 300 300 (184320000)
I0322 09:50:25.207285 30568 net.cpp:165] Memory required for data: 3225600128
I0322 09:50:25.207289 30568 layer_factory.hpp:77] Creating layer pool1
I0322 09:50:25.207298 30568 net.cpp:100] Creating Layer pool1
I0322 09:50:25.207304 30568 net.cpp:434] pool1 <- conv1_2
I0322 09:50:25.207311 30568 net.cpp:408] pool1 -> pool1
I0322 09:50:25.207357 30568 net.cpp:150] Setting up pool1
I0322 09:50:25.207365 30568 net.cpp:157] Top shape: 32 64 150 150 (46080000)
I0322 09:50:25.207368 30568 net.cpp:165] Memory required for data: 3409920128
I0322 09:50:25.207376 30568 layer_factory.hpp:77] Creating layer conv2_1
I0322 09:50:25.207391 30568 net.cpp:100] Creating Layer conv2_1
I0322 09:50:25.207398 30568 net.cpp:434] conv2_1 <- pool1
I0322 09:50:25.207404 30568 net.cpp:408] conv2_1 -> conv2_1
I0322 09:50:25.209246 30568 net.cpp:150] Setting up conv2_1
I0322 09:50:25.209259 30568 net.cpp:157] Top shape: 32 128 150 150 (92160000)
I0322 09:50:25.209262 30568 net.cpp:165] Memory required for data: 3778560128
I0322 09:50:25.209275 30568 layer_factory.hpp:77] Creating layer relu2_1
I0322 09:50:25.209285 30568 net.cpp:100] Creating Layer relu2_1
I0322 09:50:25.209290 30568 net.cpp:434] relu2_1 <- conv2_1
I0322 09:50:25.209295 30568 net.cpp:395] relu2_1 -> conv2_1 (in-place)
I0322 09:50:25.209439 30568 net.cpp:150] Setting up relu2_1
I0322 09:50:25.209450 30568 net.cpp:157] Top shape: 32 128 150 150 (92160000)
I0322 09:50:25.209453 30568 net.cpp:165] Memory required for data: 4147200128
I0322 09:50:25.209457 30568 layer_factory.hpp:77] Creating layer conv2_2
I0322 09:50:25.209470 30568 net.cpp:100] Creating Layer conv2_2
I0322 09:50:25.209476 30568 net.cpp:434] conv2_2 <- conv2_1
I0322 09:50:25.209484 30568 net.cpp:408] conv2_2 -> conv2_2
I0322 09:50:25.211738 30568 net.cpp:150] Setting up conv2_2
I0322 09:50:25.211751 30568 net.cpp:157] Top shape: 32 128 150 150 (92160000)
I0322 09:50:25.211755 30568 net.cpp:165] Memory required for data: 4515840128
I0322 09:50:25.211762 30568 layer_factory.hpp:77] Creating layer relu2_2
I0322 09:50:25.211768 30568 net.cpp:100] Creating Layer relu2_2
I0322 09:50:25.211772 30568 net.cpp:434] relu2_2 <- conv2_2
I0322 09:50:25.211779 30568 net.cpp:395] relu2_2 -> conv2_2 (in-place)
I0322 09:50:25.212447 30568 net.cpp:150] Setting up relu2_2
I0322 09:50:25.212460 30568 net.cpp:157] Top shape: 32 128 150 150 (92160000)
I0322 09:50:25.212462 30568 net.cpp:165] Memory required for data: 4884480128
I0322 09:50:25.212467 30568 layer_factory.hpp:77] Creating layer pool2
I0322 09:50:25.212491 30568 net.cpp:100] Creating Layer pool2
I0322 09:50:25.212497 30568 net.cpp:434] pool2 <- conv2_2
I0322 09:50:25.212502 30568 net.cpp:408] pool2 -> pool2
I0322 09:50:25.212541 30568 net.cpp:150] Setting up pool2
I0322 09:50:25.212548 30568 net.cpp:157] Top shape: 32 128 75 75 (23040000)
I0322 09:50:25.212553 30568 net.cpp:165] Memory required for data: 4976640128
I0322 09:50:25.212556 30568 layer_factory.hpp:77] Creating layer conv3_1
I0322 09:50:25.212565 30568 net.cpp:100] Creating Layer conv3_1
I0322 09:50:25.212571 30568 net.cpp:434] conv3_1 <- pool2
I0322 09:50:25.212580 30568 net.cpp:408] conv3_1 -> conv3_1
I0322 09:50:25.216938 30568 net.cpp:150] Setting up conv3_1
I0322 09:50:25.216954 30568 net.cpp:157] Top shape: 32 256 75 75 (46080000)
I0322 09:50:25.216958 30568 net.cpp:165] Memory required for data: 5160960128
I0322 09:50:25.216969 30568 layer_factory.hpp:77] Creating layer relu3_1
I0322 09:50:25.216977 30568 net.cpp:100] Creating Layer relu3_1
I0322 09:50:25.216982 30568 net.cpp:434] relu3_1 <- conv3_1
I0322 09:50:25.216987 30568 net.cpp:395] relu3_1 -> conv3_1 (in-place)
I0322 09:50:25.217154 30568 net.cpp:150] Setting up relu3_1
I0322 09:50:25.217162 30568 net.cpp:157] Top shape: 32 256 75 75 (46080000)
I0322 09:50:25.217166 30568 net.cpp:165] Memory required for data: 5345280128
I0322 09:50:25.217171 30568 layer_factory.hpp:77] Creating layer conv3_2
I0322 09:50:25.217180 30568 net.cpp:100] Creating Layer conv3_2
I0322 09:50:25.217185 30568 net.cpp:434] conv3_2 <- conv3_1
I0322 09:50:25.217193 30568 net.cpp:408] conv3_2 -> conv3_2
I0322 09:50:25.222257 30568 net.cpp:150] Setting up conv3_2
I0322 09:50:25.222270 30568 net.cpp:157] Top shape: 32 256 75 75 (46080000)
I0322 09:50:25.222285 30568 net.cpp:165] Memory required for data: 5529600128
I0322 09:50:25.222292 30568 layer_factory.hpp:77] Creating layer relu3_2
I0322 09:50:25.222301 30568 net.cpp:100] Creating Layer relu3_2
I0322 09:50:25.222304 30568 net.cpp:434] relu3_2 <- conv3_2
I0322 09:50:25.222309 30568 net.cpp:395] relu3_2 -> conv3_2 (in-place)
I0322 09:50:25.222470 30568 net.cpp:150] Setting up relu3_2
I0322 09:50:25.222481 30568 net.cpp:157] Top shape: 32 256 75 75 (46080000)
I0322 09:50:25.222484 30568 net.cpp:165] Memory required for data: 5713920128
I0322 09:50:25.222488 30568 layer_factory.hpp:77] Creating layer conv3_3
I0322 09:50:25.222504 30568 net.cpp:100] Creating Layer conv3_3
I0322 09:50:25.222510 30568 net.cpp:434] conv3_3 <- conv3_2
I0322 09:50:25.222517 30568 net.cpp:408] conv3_3 -> conv3_3
I0322 09:50:25.227459 30568 net.cpp:150] Setting up conv3_3
I0322 09:50:25.227474 30568 net.cpp:157] Top shape: 32 256 75 75 (46080000)
I0322 09:50:25.227478 30568 net.cpp:165] Memory required for data: 5898240128
I0322 09:50:25.227484 30568 layer_factory.hpp:77] Creating layer relu3_3
I0322 09:50:25.227491 30568 net.cpp:100] Creating Layer relu3_3
I0322 09:50:25.227496 30568 net.cpp:434] relu3_3 <- conv3_3
I0322 09:50:25.227502 30568 net.cpp:395] relu3_3 -> conv3_3 (in-place)
I0322 09:50:25.228224 30568 net.cpp:150] Setting up relu3_3
I0322 09:50:25.228235 30568 net.cpp:157] Top shape: 32 256 75 75 (46080000)
I0322 09:50:25.228240 30568 net.cpp:165] Memory required for data: 6082560128
I0322 09:50:25.228245 30568 layer_factory.hpp:77] Creating layer pool3
I0322 09:50:25.228251 30568 net.cpp:100] Creating Layer pool3
I0322 09:50:25.228256 30568 net.cpp:434] pool3 <- conv3_3
I0322 09:50:25.228265 30568 net.cpp:408] pool3 -> pool3
I0322 09:50:25.228304 30568 net.cpp:150] Setting up pool3
I0322 09:50:25.228312 30568 net.cpp:157] Top shape: 32 256 38 38 (11829248)
I0322 09:50:25.228315 30568 net.cpp:165] Memory required for data: 6129877120
I0322 09:50:25.228319 30568 layer_factory.hpp:77] Creating layer conv4_1
I0322 09:50:25.228332 30568 net.cpp:100] Creating Layer conv4_1
I0322 09:50:25.228338 30568 net.cpp:434] conv4_1 <- pool3
I0322 09:50:25.228344 30568 net.cpp:408] conv4_1 -> conv4_1
I0322 09:50:25.237378 30568 net.cpp:150] Setting up conv4_1
I0322 09:50:25.237401 30568 net.cpp:157] Top shape: 32 512 38 38 (23658496)
I0322 09:50:25.237426 30568 net.cpp:165] Memory required for data: 6224511104
I0322 09:50:25.237437 30568 layer_factory.hpp:77] Creating layer relu4_1
I0322 09:50:25.237449 30568 net.cpp:100] Creating Layer relu4_1
I0322 09:50:25.237455 30568 net.cpp:434] relu4_1 <- conv4_1
I0322 09:50:25.237462 30568 net.cpp:395] relu4_1 -> conv4_1 (in-place)
I0322 09:50:25.237625 30568 net.cpp:150] Setting up relu4_1
I0322 09:50:25.237635 30568 net.cpp:157] Top shape: 32 512 38 38 (23658496)
I0322 09:50:25.237643 30568 net.cpp:165] Memory required for data: 6319145088
I0322 09:50:25.237648 30568 layer_factory.hpp:77] Creating layer conv4_2_depthwise
I0322 09:50:25.237658 30568 net.cpp:100] Creating Layer conv4_2_depthwise
I0322 09:50:25.237663 30568 net.cpp:434] conv4_2_depthwise <- conv4_1
I0322 09:50:25.237669 30568 net.cpp:408] conv4_2_depthwise -> conv4_2_3x3
I0322 09:50:25.237918 30568 net.cpp:150] Setting up conv4_2_depthwise
I0322 09:50:25.237927 30568 net.cpp:157] Top shape: 32 512 38 38 (23658496)
I0322 09:50:25.237932 30568 net.cpp:165] Memory required for data: 6413779072
I0322 09:50:25.237942 30568 layer_factory.hpp:77] Creating layer conv4_2_3x3_relu
I0322 09:50:25.237949 30568 net.cpp:100] Creating Layer conv4_2_3x3_relu
I0322 09:50:25.237952 30568 net.cpp:434] conv4_2_3x3_relu <- conv4_2_3x3
I0322 09:50:25.237959 30568 net.cpp:395] conv4_2_3x3_relu -> conv4_2_3x3 (in-place)
I0322 09:50:25.238132 30568 net.cpp:150] Setting up conv4_2_3x3_relu
I0322 09:50:25.238142 30568 net.cpp:157] Top shape: 32 512 38 38 (23658496)
I0322 09:50:25.238147 30568 net.cpp:165] Memory required for data: 6508413056
I0322 09:50:25.238150 30568 layer_factory.hpp:77] Creating layer conv4_2_1x1
I0322 09:50:25.238160 30568 net.cpp:100] Creating Layer conv4_2_1x1
I0322 09:50:25.238164 30568 net.cpp:434] conv4_2_1x1 <- conv4_2_3x3
I0322 09:50:25.238170 30568 net.cpp:408] conv4_2_1x1 -> conv4_2
I0322 09:50:25.241214 30568 net.cpp:150] Setting up conv4_2_1x1
I0322 09:50:25.241225 30568 net.cpp:157] Top shape: 32 512 38 38 (23658496)
I0322 09:50:25.241245 30568 net.cpp:165] Memory required for data: 6603047040
I0322 09:50:25.241250 30568 layer_factory.hpp:77] Creating layer relu4_2
I0322 09:50:25.241257 30568 net.cpp:100] Creating Layer relu4_2
I0322 09:50:25.241261 30568 net.cpp:434] relu4_2 <- conv4_2
I0322 09:50:25.241269 30568 net.cpp:395] relu4_2 -> conv4_2 (in-place)
I0322 09:50:25.241437 30568 net.cpp:150] Setting up relu4_2
I0322 09:50:25.241448 30568 net.cpp:157] Top shape: 32 512 38 38 (23658496)
I0322 09:50:25.241452 30568 net.cpp:165] Memory required for data: 6697681024
I0322 09:50:25.241456 30568 layer_factory.hpp:77] Creating layer conv4_3
I0322 09:50:25.241466 30568 net.cpp:100] Creating Layer conv4_3
I0322 09:50:25.241470 30568 net.cpp:434] conv4_3 <- conv4_2
I0322 09:50:25.241477 30568 net.cpp:408] conv4_3 -> conv4_3
I0322 09:50:25.255779 30568 net.cpp:150] Setting up conv4_3
I0322 09:50:25.255816 30568 net.cpp:157] Top shape: 32 512 38 38 (23658496)
I0322 09:50:25.255821 30568 net.cpp:165] Memory required for data: 6792315008
I0322 09:50:25.255831 30568 layer_factory.hpp:77] Creating layer relu4_3
I0322 09:50:25.255841 30568 net.cpp:100] Creating Layer relu4_3
I0322 09:50:25.255846 30568 net.cpp:434] relu4_3 <- conv4_3
I0322 09:50:25.255853 30568 net.cpp:395] relu4_3 -> conv4_3 (in-place)
I0322 09:50:25.256525 30568 net.cpp:150] Setting up relu4_3
I0322 09:50:25.256537 30568 net.cpp:157] Top shape: 32 512 38 38 (23658496)
I0322 09:50:25.256541 30568 net.cpp:165] Memory required for data: 6886948992
I0322 09:50:25.256546 30568 layer_factory.hpp:77] Creating layer conv4_3_relu4_3_0_split
I0322 09:50:25.256551 30568 net.cpp:100] Creating Layer conv4_3_relu4_3_0_split
I0322 09:50:25.256561 30568 net.cpp:434] conv4_3_relu4_3_0_split <- conv4_3
I0322 09:50:25.256567 30568 net.cpp:408] conv4_3_relu4_3_0_split -> conv4_3_relu4_3_0_split_0
I0322 09:50:25.256574 30568 net.cpp:408] conv4_3_relu4_3_0_split -> conv4_3_relu4_3_0_split_1
I0322 09:50:25.256614 30568 net.cpp:150] Setting up conv4_3_relu4_3_0_split
I0322 09:50:25.256633 30568 net.cpp:157] Top shape: 32 512 38 38 (23658496)
I0322 09:50:25.256639 30568 net.cpp:157] Top shape: 32 512 38 38 (23658496)
I0322 09:50:25.256642 30568 net.cpp:165] Memory required for data: 7076216960
I0322 09:50:25.256645 30568 layer_factory.hpp:77] Creating layer pool4
I0322 09:50:25.256652 30568 net.cpp:100] Creating Layer pool4
I0322 09:50:25.256656 30568 net.cpp:434] pool4 <- conv4_3_relu4_3_0_split_0
I0322 09:50:25.256664 30568 net.cpp:408] pool4 -> pool4
I0322 09:50:25.256696 30568 net.cpp:150] Setting up pool4
I0322 09:50:25.256703 30568 net.cpp:157] Top shape: 32 512 19 19 (5914624)
I0322 09:50:25.256707 30568 net.cpp:165] Memory required for data: 7099875456
I0322 09:50:25.256711 30568 layer_factory.hpp:77] Creating layer conv5_1_depthwise
I0322 09:50:25.256722 30568 net.cpp:100] Creating Layer conv5_1_depthwise
I0322 09:50:25.256727 30568 net.cpp:434] conv5_1_depthwise <- pool4
I0322 09:50:25.256733 30568 net.cpp:408] conv5_1_depthwise -> conv5_1_3x3
I0322 09:50:25.256934 30568 net.cpp:150] Setting up conv5_1_depthwise
I0322 09:50:25.256942 30568 net.cpp:157] Top shape: 32 512 19 19 (5914624)
I0322 09:50:25.256945 30568 net.cpp:165] Memory required for data: 7123533952
I0322 09:50:25.256952 30568 layer_factory.hpp:77] Creating layer conv5_1_3x3_relu
I0322 09:50:25.256958 30568 net.cpp:100] Creating Layer conv5_1_3x3_relu
I0322 09:50:25.256961 30568 net.cpp:434] conv5_1_3x3_relu <- conv5_1_3x3
I0322 09:50:25.256965 30568 net.cpp:395] conv5_1_3x3_relu -> conv5_1_3x3 (in-place)
I0322 09:50:25.257119 30568 net.cpp:150] Setting up conv5_1_3x3_relu
I0322 09:50:25.257128 30568 net.cpp:157] Top shape: 32 512 19 19 (5914624)
I0322 09:50:25.257131 30568 net.cpp:165] Memory required for data: 7147192448
I0322 09:50:25.257135 30568 layer_factory.hpp:77] Creating layer conv5_1_1x1
I0322 09:50:25.257145 30568 net.cpp:100] Creating Layer conv5_1_1x1
I0322 09:50:25.257149 30568 net.cpp:434] conv5_1_1x1 <- conv5_1_3x3
I0322 09:50:25.257156 30568 net.cpp:408] conv5_1_1x1 -> conv5_1
I0322 09:50:25.259925 30568 net.cpp:150] Setting up conv5_1_1x1
I0322 09:50:25.259938 30568 net.cpp:157] Top shape: 32 512 19 19 (5914624)
I0322 09:50:25.259943 30568 net.cpp:165] Memory required for data: 7170850944
I0322 09:50:25.259948 30568 layer_factory.hpp:77] Creating layer relu5_1
I0322 09:50:25.259961 30568 net.cpp:100] Creating Layer relu5_1
I0322 09:50:25.259966 30568 net.cpp:434] relu5_1 <- conv5_1
I0322 09:50:25.259974 30568 net.cpp:395] relu5_1 -> conv5_1 (in-place)
I0322 09:50:25.260138 30568 net.cpp:150] Setting up relu5_1
I0322 09:50:25.260149 30568 net.cpp:157] Top shape: 32 512 19 19 (5914624)
I0322 09:50:25.260152 30568 net.cpp:165] Memory required for data: 7194509440
I0322 09:50:25.260156 30568 layer_factory.hpp:77] Creating layer conv5_2_depthwise
I0322 09:50:25.260165 30568 net.cpp:100] Creating Layer conv5_2_depthwise
I0322 09:50:25.260169 30568 net.cpp:434] conv5_2_depthwise <- conv5_1
I0322 09:50:25.260175 30568 net.cpp:408] conv5_2_depthwise -> conv5_2_3x3
I0322 09:50:25.260388 30568 net.cpp:150] Setting up conv5_2_depthwise
I0322 09:50:25.260397 30568 net.cpp:157] Top shape: 32 512 19 19 (5914624)
I0322 09:50:25.260401 30568 net.cpp:165] Memory required for data: 7218167936
I0322 09:50:25.260407 30568 layer_factory.hpp:77] Creating layer conv5_2_3x3_relu
I0322 09:50:25.260413 30568 net.cpp:100] Creating Layer conv5_2_3x3_relu
I0322 09:50:25.260418 30568 net.cpp:434] conv5_2_3x3_relu <- conv5_2_3x3
I0322 09:50:25.260423 30568 net.cpp:395] conv5_2_3x3_relu -> conv5_2_3x3 (in-place)
I0322 09:50:25.261076 30568 net.cpp:150] Setting up conv5_2_3x3_relu
I0322 09:50:25.261088 30568 net.cpp:157] Top shape: 32 512 19 19 (5914624)
I0322 09:50:25.261092 30568 net.cpp:165] Memory required for data: 7241826432
I0322 09:50:25.261096 30568 layer_factory.hpp:77] Creating layer conv5_2_1x1
I0322 09:50:25.261106 30568 net.cpp:100] Creating Layer conv5_2_1x1
I0322 09:50:25.261111 30568 net.cpp:434] conv5_2_1x1 <- conv5_2_3x3
I0322 09:50:25.261118 30568 net.cpp:408] conv5_2_1x1 -> conv5_2
I0322 09:50:25.264170 30568 net.cpp:150] Setting up conv5_2_1x1
I0322 09:50:25.264194 30568 net.cpp:157] Top shape: 32 512 19 19 (5914624)
I0322 09:50:25.264199 30568 net.cpp:165] Memory required for data: 7265484928
I0322 09:50:25.264204 30568 layer_factory.hpp:77] Creating layer relu5_2
I0322 09:50:25.264212 30568 net.cpp:100] Creating Layer relu5_2
I0322 09:50:25.264216 30568 net.cpp:434] relu5_2 <- conv5_2
I0322 09:50:25.264222 30568 net.cpp:395] relu5_2 -> conv5_2 (in-place)
I0322 09:50:25.264380 30568 net.cpp:150] Setting up relu5_2
I0322 09:50:25.264390 30568 net.cpp:157] Top shape: 32 512 19 19 (5914624)
I0322 09:50:25.264394 30568 net.cpp:165] Memory required for data: 7289143424
I0322 09:50:25.264398 30568 layer_factory.hpp:77] Creating layer conv5_3_depthwise
I0322 09:50:25.264407 30568 net.cpp:100] Creating Layer conv5_3_depthwise
I0322 09:50:25.264412 30568 net.cpp:434] conv5_3_depthwise <- conv5_2
I0322 09:50:25.264418 30568 net.cpp:408] conv5_3_depthwise -> conv5_3_3x3
I0322 09:50:25.264631 30568 net.cpp:150] Setting up conv5_3_depthwise
I0322 09:50:25.264639 30568 net.cpp:157] Top shape: 32 512 19 19 (5914624)
I0322 09:50:25.264642 30568 net.cpp:165] Memory required for data: 7312801920
I0322 09:50:25.264648 30568 layer_factory.hpp:77] Creating layer conv5_3_3x3_relu
I0322 09:50:25.264653 30568 net.cpp:100] Creating Layer conv5_3_3x3_relu
I0322 09:50:25.264658 30568 net.cpp:434] conv5_3_3x3_relu <- conv5_3_3x3
I0322 09:50:25.264663 30568 net.cpp:395] conv5_3_3x3_relu -> conv5_3_3x3 (in-place)
I0322 09:50:25.264816 30568 net.cpp:150] Setting up conv5_3_3x3_relu
I0322 09:50:25.264825 30568 net.cpp:157] Top shape: 32 512 19 19 (5914624)
I0322 09:50:25.264829 30568 net.cpp:165] Memory required for data: 7336460416
I0322 09:50:25.264833 30568 layer_factory.hpp:77] Creating layer conv5_3_1x1
I0322 09:50:25.264842 30568 net.cpp:100] Creating Layer conv5_3_1x1
I0322 09:50:25.264847 30568 net.cpp:434] conv5_3_1x1 <- conv5_3_3x3
I0322 09:50:25.264853 30568 net.cpp:408] conv5_3_1x1 -> conv5_3
I0322 09:50:25.267153 30568 net.cpp:150] Setting up conv5_3_1x1
I0322 09:50:25.267165 30568 net.cpp:157] Top shape: 32 512 19 19 (5914624)
I0322 09:50:25.267169 30568 net.cpp:165] Memory required for data: 7360118912
I0322 09:50:25.267180 30568 layer_factory.hpp:77] Creating layer relu5_3
I0322 09:50:25.267187 30568 net.cpp:100] Creating Layer relu5_3
I0322 09:50:25.267191 30568 net.cpp:434] relu5_3 <- conv5_3
I0322 09:50:25.267197 30568 net.cpp:395] relu5_3 -> conv5_3 (in-place)
I0322 09:50:25.267846 30568 net.cpp:150] Setting up relu5_3
I0322 09:50:25.267858 30568 net.cpp:157] Top shape: 32 512 19 19 (5914624)
I0322 09:50:25.267861 30568 net.cpp:165] Memory required for data: 7383777408
I0322 09:50:25.267866 30568 layer_factory.hpp:77] Creating layer pool5
I0322 09:50:25.267874 30568 net.cpp:100] Creating Layer pool5
I0322 09:50:25.267879 30568 net.cpp:434] pool5 <- conv5_3
I0322 09:50:25.267884 30568 net.cpp:408] pool5 -> pool5
I0322 09:50:25.267930 30568 net.cpp:150] Setting up pool5
I0322 09:50:25.267937 30568 net.cpp:157] Top shape: 32 512 19 19 (5914624)
I0322 09:50:25.267940 30568 net.cpp:165] Memory required for data: 7407435904
I0322 09:50:25.267944 30568 layer_factory.hpp:77] Creating layer fc6_depthwise
I0322 09:50:25.267953 30568 net.cpp:100] Creating Layer fc6_depthwise
I0322 09:50:25.267957 30568 net.cpp:434] fc6_depthwise <- pool5
I0322 09:50:25.267963 30568 net.cpp:408] fc6_depthwise -> fc6_3x3
I0322 09:50:25.268172 30568 net.cpp:150] Setting up fc6_depthwise
I0322 09:50:25.268179 30568 net.cpp:157] Top shape: 32 512 19 19 (5914624)
I0322 09:50:25.268183 30568 net.cpp:165] Memory required for data: 7431094400
I0322 09:50:25.268189 30568 layer_factory.hpp:77] Creating layer fc6_3x3_relu
I0322 09:50:25.268194 30568 net.cpp:100] Creating Layer fc6_3x3_relu
I0322 09:50:25.268199 30568 net.cpp:434] fc6_3x3_relu <- fc6_3x3
I0322 09:50:25.268204 30568 net.cpp:395] fc6_3x3_relu -> fc6_3x3 (in-place)
I0322 09:50:25.268362 30568 net.cpp:150] Setting up fc6_3x3_relu
I0322 09:50:25.268370 30568 net.cpp:157] Top shape: 32 512 19 19 (5914624)
I0322 09:50:25.268386 30568 net.cpp:165] Memory required for data: 7454752896
I0322 09:50:25.268393 30568 layer_factory.hpp:77] Creating layer fc6_1x1
I0322 09:50:25.268402 30568 net.cpp:100] Creating Layer fc6_1x1
I0322 09:50:25.268406 30568 net.cpp:434] fc6_1x1 <- fc6_3x3
I0322 09:50:25.268414 30568 net.cpp:408] fc6_1x1 -> fc6
I0322 09:50:25.271541 30568 net.cpp:150] Setting up fc6_1x1
I0322 09:50:25.271553 30568 net.cpp:157] Top shape: 32 1024 19 19 (11829248)
I0322 09:50:25.271558 30568 net.cpp:165] Memory required for data: 7502069888
I0322 09:50:25.271564 30568 layer_factory.hpp:77] Creating layer relu6
I0322 09:50:25.271569 30568 net.cpp:100] Creating Layer relu6
I0322 09:50:25.271574 30568 net.cpp:434] relu6 <- fc6
I0322 09:50:25.271580 30568 net.cpp:395] relu6 -> fc6 (in-place)
I0322 09:50:25.271754 30568 net.cpp:150] Setting up relu6
I0322 09:50:25.271762 30568 net.cpp:157] Top shape: 32 1024 19 19 (11829248)
I0322 09:50:25.271766 30568 net.cpp:165] Memory required for data: 7549386880
I0322 09:50:25.271770 30568 layer_factory.hpp:77] Creating layer fc7
I0322 09:50:25.271780 30568 net.cpp:100] Creating Layer fc7
I0322 09:50:25.271786 30568 net.cpp:434] fc7 <- fc6
I0322 09:50:25.271792 30568 net.cpp:408] fc7 -> fc7
I0322 09:50:25.279374 30568 net.cpp:150] Setting up fc7
I0322 09:50:25.279407 30568 net.cpp:157] Top shape: 32 1024 19 19 (11829248)
I0322 09:50:25.279410 30568 net.cpp:165] Memory required for data: 7596703872
I0322 09:50:25.279419 30568 layer_factory.hpp:77] Creating layer relu7
I0322 09:50:25.279436 30568 net.cpp:100] Creating Layer relu7
I0322 09:50:25.279443 30568 net.cpp:434] relu7 <- fc7
I0322 09:50:25.279449 30568 net.cpp:395] relu7 -> fc7 (in-place)
I0322 09:50:25.279608 30568 net.cpp:150] Setting up relu7
I0322 09:50:25.279618 30568 net.cpp:157] Top shape: 32 1024 19 19 (11829248)
I0322 09:50:25.279623 30568 net.cpp:165] Memory required for data: 7644020864
I0322 09:50:25.279626 30568 layer_factory.hpp:77] Creating layer fc7_relu7_0_split
I0322 09:50:25.279631 30568 net.cpp:100] Creating Layer fc7_relu7_0_split
I0322 09:50:25.279635 30568 net.cpp:434] fc7_relu7_0_split <- fc7
I0322 09:50:25.279642 30568 net.cpp:408] fc7_relu7_0_split -> fc7_relu7_0_split_0
I0322 09:50:25.279649 30568 net.cpp:408] fc7_relu7_0_split -> fc7_relu7_0_split_1
I0322 09:50:25.279655 30568 net.cpp:408] fc7_relu7_0_split -> fc7_relu7_0_split_2
I0322 09:50:25.279661 30568 net.cpp:408] fc7_relu7_0_split -> fc7_relu7_0_split_3
I0322 09:50:25.279721 30568 net.cpp:150] Setting up fc7_relu7_0_split
I0322 09:50:25.279728 30568 net.cpp:157] Top shape: 32 1024 19 19 (11829248)
I0322 09:50:25.279732 30568 net.cpp:157] Top shape: 32 1024 19 19 (11829248)
I0322 09:50:25.279736 30568 net.cpp:157] Top shape: 32 1024 19 19 (11829248)
I0322 09:50:25.279742 30568 net.cpp:157] Top shape: 32 1024 19 19 (11829248)
I0322 09:50:25.279745 30568 net.cpp:165] Memory required for data: 7833288832
I0322 09:50:25.279748 30568 layer_factory.hpp:77] Creating layer conv6_1
I0322 09:50:25.279759 30568 net.cpp:100] Creating Layer conv6_1
I0322 09:50:25.279764 30568 net.cpp:434] conv6_1 <- fc7_relu7_0_split_0
I0322 09:50:25.279772 30568 net.cpp:408] conv6_1 -> conv6_1
I0322 09:50:25.282896 30568 net.cpp:150] Setting up conv6_1
I0322 09:50:25.282922 30568 net.cpp:157] Top shape: 32 256 19 19 (2957312)
I0322 09:50:25.282927 30568 net.cpp:165] Memory required for data: 7845118080
I0322 09:50:25.282934 30568 layer_factory.hpp:77] Creating layer conv6_1_relu
I0322 09:50:25.282943 30568 net.cpp:100] Creating Layer conv6_1_relu
I0322 09:50:25.282948 30568 net.cpp:434] conv6_1_relu <- conv6_1
I0322 09:50:25.282953 30568 net.cpp:395] conv6_1_relu -> conv6_1 (in-place)
I0322 09:50:25.283612 30568 net.cpp:150] Setting up conv6_1_relu
I0322 09:50:25.283624 30568 net.cpp:157] Top shape: 32 256 19 19 (2957312)
I0322 09:50:25.283629 30568 net.cpp:165] Memory required for data: 7856947328
I0322 09:50:25.283635 30568 layer_factory.hpp:77] Creating layer conv6_2
I0322 09:50:25.283651 30568 net.cpp:100] Creating Layer conv6_2
I0322 09:50:25.283661 30568 net.cpp:434] conv6_2 <- conv6_1
I0322 09:50:25.283690 30568 net.cpp:408] conv6_2 -> conv6_2
I0322 09:50:25.291334 30568 net.cpp:150] Setting up conv6_2
I0322 09:50:25.291353 30568 net.cpp:157] Top shape: 32 512 10 10 (1638400)
I0322 09:50:25.291358 30568 net.cpp:165] Memory required for data: 7863500928
I0322 09:50:25.291368 30568 layer_factory.hpp:77] Creating layer conv6_2_relu
I0322 09:50:25.291379 30568 net.cpp:100] Creating Layer conv6_2_relu
I0322 09:50:25.291386 30568 net.cpp:434] conv6_2_relu <- conv6_2
I0322 09:50:25.291394 30568 net.cpp:395] conv6_2_relu -> conv6_2 (in-place)
I0322 09:50:25.291556 30568 net.cpp:150] Setting up conv6_2_relu
I0322 09:50:25.291566 30568 net.cpp:157] Top shape: 32 512 10 10 (1638400)
I0322 09:50:25.291571 30568 net.cpp:165] Memory required for data: 7870054528
I0322 09:50:25.291576 30568 layer_factory.hpp:77] Creating layer conv6_2_conv6_2_relu_0_split
I0322 09:50:25.291587 30568 net.cpp:100] Creating Layer conv6_2_conv6_2_relu_0_split
I0322 09:50:25.291594 30568 net.cpp:434] conv6_2_conv6_2_relu_0_split <- conv6_2
I0322 09:50:25.291604 30568 net.cpp:408] conv6_2_conv6_2_relu_0_split -> conv6_2_conv6_2_relu_0_split_0
I0322 09:50:25.291613 30568 net.cpp:408] conv6_2_conv6_2_relu_0_split -> conv6_2_conv6_2_relu_0_split_1
I0322 09:50:25.291622 30568 net.cpp:408] conv6_2_conv6_2_relu_0_split -> conv6_2_conv6_2_relu_0_split_2
I0322 09:50:25.291632 30568 net.cpp:408] conv6_2_conv6_2_relu_0_split -> conv6_2_conv6_2_relu_0_split_3
I0322 09:50:25.291698 30568 net.cpp:150] Setting up conv6_2_conv6_2_relu_0_split
I0322 09:50:25.291707 30568 net.cpp:157] Top shape: 32 512 10 10 (1638400)
I0322 09:50:25.291712 30568 net.cpp:157] Top shape: 32 512 10 10 (1638400)
I0322 09:50:25.291718 30568 net.cpp:157] Top shape: 32 512 10 10 (1638400)
I0322 09:50:25.291725 30568 net.cpp:157] Top shape: 32 512 10 10 (1638400)
I0322 09:50:25.291729 30568 net.cpp:165] Memory required for data: 7896268928
I0322 09:50:25.291735 30568 layer_factory.hpp:77] Creating layer conv7_1
I0322 09:50:25.291750 30568 net.cpp:100] Creating Layer conv7_1
I0322 09:50:25.291756 30568 net.cpp:434] conv7_1 <- conv6_2_conv6_2_relu_0_split_0
I0322 09:50:25.291769 30568 net.cpp:408] conv7_1 -> conv7_1
I0322 09:50:25.293241 30568 net.cpp:150] Setting up conv7_1
I0322 09:50:25.293253 30568 net.cpp:157] Top shape: 32 128 10 10 (409600)
I0322 09:50:25.293258 30568 net.cpp:165] Memory required for data: 7897907328
I0322 09:50:25.293267 30568 layer_factory.hpp:77] Creating layer conv7_1_relu
I0322 09:50:25.293275 30568 net.cpp:100] Creating Layer conv7_1_relu
I0322 09:50:25.293282 30568 net.cpp:434] conv7_1_relu <- conv7_1
I0322 09:50:25.293292 30568 net.cpp:395] conv7_1_relu -> conv7_1 (in-place)
I0322 09:50:25.293449 30568 net.cpp:150] Setting up conv7_1_relu
I0322 09:50:25.293459 30568 net.cpp:157] Top shape: 32 128 10 10 (409600)
I0322 09:50:25.293464 30568 net.cpp:165] Memory required for data: 7899545728
I0322 09:50:25.293469 30568 layer_factory.hpp:77] Creating layer conv7_2
I0322 09:50:25.293483 30568 net.cpp:100] Creating Layer conv7_2
I0322 09:50:25.293489 30568 net.cpp:434] conv7_2 <- conv7_1
I0322 09:50:25.293500 30568 net.cpp:408] conv7_2 -> conv7_2
I0322 09:50:25.296710 30568 net.cpp:150] Setting up conv7_2
I0322 09:50:25.296723 30568 net.cpp:157] Top shape: 32 256 5 5 (204800)
I0322 09:50:25.296730 30568 net.cpp:165] Memory required for data: 7900364928
I0322 09:50:25.296741 30568 layer_factory.hpp:77] Creating layer conv7_2_relu
I0322 09:50:25.296749 30568 net.cpp:100] Creating Layer conv7_2_relu
I0322 09:50:25.296756 30568 net.cpp:434] conv7_2_relu <- conv7_2
I0322 09:50:25.296766 30568 net.cpp:395] conv7_2_relu -> conv7_2 (in-place)
I0322 09:50:25.297426 30568 net.cpp:150] Setting up conv7_2_relu
I0322 09:50:25.297441 30568 net.cpp:157] Top shape: 32 256 5 5 (204800)
I0322 09:50:25.297446 30568 net.cpp:165] Memory required for data: 7901184128
I0322 09:50:25.297451 30568 layer_factory.hpp:77] Creating layer conv7_2_conv7_2_relu_0_split
I0322 09:50:25.297461 30568 net.cpp:100] Creating Layer conv7_2_conv7_2_relu_0_split
I0322 09:50:25.297469 30568 net.cpp:434] conv7_2_conv7_2_relu_0_split <- conv7_2
I0322 09:50:25.297490 30568 net.cpp:408] conv7_2_conv7_2_relu_0_split -> conv7_2_conv7_2_relu_0_split_0
I0322 09:50:25.297502 30568 net.cpp:408] conv7_2_conv7_2_relu_0_split -> conv7_2_conv7_2_relu_0_split_1
I0322 09:50:25.297511 30568 net.cpp:408] conv7_2_conv7_2_relu_0_split -> conv7_2_conv7_2_relu_0_split_2
I0322 09:50:25.297520 30568 net.cpp:408] conv7_2_conv7_2_relu_0_split -> conv7_2_conv7_2_relu_0_split_3
I0322 09:50:25.297586 30568 net.cpp:150] Setting up conv7_2_conv7_2_relu_0_split
I0322 09:50:25.297593 30568 net.cpp:157] Top shape: 32 256 5 5 (204800)
I0322 09:50:25.297600 30568 net.cpp:157] Top shape: 32 256 5 5 (204800)
I0322 09:50:25.297606 30568 net.cpp:157] Top shape: 32 256 5 5 (204800)
I0322 09:50:25.297613 30568 net.cpp:157] Top shape: 32 256 5 5 (204800)
I0322 09:50:25.297618 30568 net.cpp:165] Memory required for data: 7904460928
I0322 09:50:25.297624 30568 layer_factory.hpp:77] Creating layer conv8_1
I0322 09:50:25.297637 30568 net.cpp:100] Creating Layer conv8_1
I0322 09:50:25.297643 30568 net.cpp:434] conv8_1 <- conv7_2_conv7_2_relu_0_split_0
I0322 09:50:25.297653 30568 net.cpp:408] conv8_1 -> conv8_1
I0322 09:50:25.299016 30568 net.cpp:150] Setting up conv8_1
I0322 09:50:25.299029 30568 net.cpp:157] Top shape: 32 128 5 5 (102400)
I0322 09:50:25.299034 30568 net.cpp:165] Memory required for data: 7904870528
I0322 09:50:25.299043 30568 layer_factory.hpp:77] Creating layer conv8_1_relu
I0322 09:50:25.299053 30568 net.cpp:100] Creating Layer conv8_1_relu
I0322 09:50:25.299060 30568 net.cpp:434] conv8_1_relu <- conv8_1
I0322 09:50:25.299070 30568 net.cpp:395] conv8_1_relu -> conv8_1 (in-place)
I0322 09:50:25.299232 30568 net.cpp:150] Setting up conv8_1_relu
I0322 09:50:25.299242 30568 net.cpp:157] Top shape: 32 128 5 5 (102400)
I0322 09:50:25.299245 30568 net.cpp:165] Memory required for data: 7905280128
I0322 09:50:25.299252 30568 layer_factory.hpp:77] Creating layer conv8_2
I0322 09:50:25.299268 30568 net.cpp:100] Creating Layer conv8_2
I0322 09:50:25.299273 30568 net.cpp:434] conv8_2 <- conv8_1
I0322 09:50:25.299283 30568 net.cpp:408] conv8_2 -> conv8_2
I0322 09:50:25.302983 30568 net.cpp:150] Setting up conv8_2
I0322 09:50:25.302996 30568 net.cpp:157] Top shape: 32 256 3 3 (73728)
I0322 09:50:25.303001 30568 net.cpp:165] Memory required for data: 7905575040
I0322 09:50:25.303025 30568 layer_factory.hpp:77] Creating layer conv8_2_relu
I0322 09:50:25.303035 30568 net.cpp:100] Creating Layer conv8_2_relu
I0322 09:50:25.303042 30568 net.cpp:434] conv8_2_relu <- conv8_2
I0322 09:50:25.303056 30568 net.cpp:395] conv8_2_relu -> conv8_2 (in-place)
I0322 09:50:25.303223 30568 net.cpp:150] Setting up conv8_2_relu
I0322 09:50:25.303234 30568 net.cpp:157] Top shape: 32 256 3 3 (73728)
I0322 09:50:25.303238 30568 net.cpp:165] Memory required for data: 7905869952
I0322 09:50:25.303244 30568 layer_factory.hpp:77] Creating layer conv8_2_conv8_2_relu_0_split
I0322 09:50:25.303253 30568 net.cpp:100] Creating Layer conv8_2_conv8_2_relu_0_split
I0322 09:50:25.303261 30568 net.cpp:434] conv8_2_conv8_2_relu_0_split <- conv8_2
I0322 09:50:25.303268 30568 net.cpp:408] conv8_2_conv8_2_relu_0_split -> conv8_2_conv8_2_relu_0_split_0
I0322 09:50:25.303280 30568 net.cpp:408] conv8_2_conv8_2_relu_0_split -> conv8_2_conv8_2_relu_0_split_1
I0322 09:50:25.303289 30568 net.cpp:408] conv8_2_conv8_2_relu_0_split -> conv8_2_conv8_2_relu_0_split_2
I0322 09:50:25.303299 30568 net.cpp:408] conv8_2_conv8_2_relu_0_split -> conv8_2_conv8_2_relu_0_split_3
I0322 09:50:25.303366 30568 net.cpp:150] Setting up conv8_2_conv8_2_relu_0_split
I0322 09:50:25.303375 30568 net.cpp:157] Top shape: 32 256 3 3 (73728)
I0322 09:50:25.303380 30568 net.cpp:157] Top shape: 32 256 3 3 (73728)
I0322 09:50:25.303385 30568 net.cpp:157] Top shape: 32 256 3 3 (73728)
I0322 09:50:25.303393 30568 net.cpp:157] Top shape: 32 256 3 3 (73728)
I0322 09:50:25.303398 30568 net.cpp:165] Memory required for data: 7907049600
I0322 09:50:25.303403 30568 layer_factory.hpp:77] Creating layer conv9_1
I0322 09:50:25.303429 30568 net.cpp:100] Creating Layer conv9_1
I0322 09:50:25.303443 30568 net.cpp:434] conv9_1 <- conv8_2_conv8_2_relu_0_split_0
I0322 09:50:25.303453 30568 net.cpp:408] conv9_1 -> conv9_1
I0322 09:50:25.304791 30568 net.cpp:150] Setting up conv9_1
I0322 09:50:25.304805 30568 net.cpp:157] Top shape: 32 128 3 3 (36864)
I0322 09:50:25.304811 30568 net.cpp:165] Memory required for data: 7907197056
I0322 09:50:25.304821 30568 layer_factory.hpp:77] Creating layer conv9_1_relu
I0322 09:50:25.304831 30568 net.cpp:100] Creating Layer conv9_1_relu
I0322 09:50:25.304836 30568 net.cpp:434] conv9_1_relu <- conv9_1
I0322 09:50:25.304844 30568 net.cpp:395] conv9_1_relu -> conv9_1 (in-place)
I0322 09:50:25.305511 30568 net.cpp:150] Setting up conv9_1_relu
I0322 09:50:25.305523 30568 net.cpp:157] Top shape: 32 128 3 3 (36864)
I0322 09:50:25.305528 30568 net.cpp:165] Memory required for data: 7907344512
I0322 09:50:25.305534 30568 layer_factory.hpp:77] Creating layer conv9_2
I0322 09:50:25.305549 30568 net.cpp:100] Creating Layer conv9_2
I0322 09:50:25.305557 30568 net.cpp:434] conv9_2 <- conv9_1
I0322 09:50:25.305567 30568 net.cpp:408] conv9_2 -> conv9_2
I0322 09:50:25.309273 30568 net.cpp:150] Setting up conv9_2
I0322 09:50:25.309286 30568 net.cpp:157] Top shape: 32 256 1 1 (8192)
I0322 09:50:25.309290 30568 net.cpp:165] Memory required for data: 7907377280
I0322 09:50:25.309315 30568 layer_factory.hpp:77] Creating layer conv9_2_relu
I0322 09:50:25.309329 30568 net.cpp:100] Creating Layer conv9_2_relu
I0322 09:50:25.309336 30568 net.cpp:434] conv9_2_relu <- conv9_2
I0322 09:50:25.309343 30568 net.cpp:395] conv9_2_relu -> conv9_2 (in-place)
I0322 09:50:25.309514 30568 net.cpp:150] Setting up conv9_2_relu
I0322 09:50:25.309523 30568 net.cpp:157] Top shape: 32 256 1 1 (8192)
I0322 09:50:25.309528 30568 net.cpp:165] Memory required for data: 7907410048
I0322 09:50:25.309535 30568 layer_factory.hpp:77] Creating layer conv9_2_conv9_2_relu_0_split
I0322 09:50:25.309545 30568 net.cpp:100] Creating Layer conv9_2_conv9_2_relu_0_split
I0322 09:50:25.309551 30568 net.cpp:434] conv9_2_conv9_2_relu_0_split <- conv9_2
I0322 09:50:25.309559 30568 net.cpp:408] conv9_2_conv9_2_relu_0_split -> conv9_2_conv9_2_relu_0_split_0
I0322 09:50:25.309571 30568 net.cpp:408] conv9_2_conv9_2_relu_0_split -> conv9_2_conv9_2_relu_0_split_1
I0322 09:50:25.309581 30568 net.cpp:408] conv9_2_conv9_2_relu_0_split -> conv9_2_conv9_2_relu_0_split_2
I0322 09:50:25.309638 30568 net.cpp:150] Setting up conv9_2_conv9_2_relu_0_split
I0322 09:50:25.309648 30568 net.cpp:157] Top shape: 32 256 1 1 (8192)
I0322 09:50:25.309653 30568 net.cpp:157] Top shape: 32 256 1 1 (8192)
I0322 09:50:25.309659 30568 net.cpp:157] Top shape: 32 256 1 1 (8192)
I0322 09:50:25.309665 30568 net.cpp:165] Memory required for data: 7907508352
I0322 09:50:25.309674 30568 layer_factory.hpp:77] Creating layer conv4_3_norm
I0322 09:50:25.309685 30568 net.cpp:100] Creating Layer conv4_3_norm
I0322 09:50:25.309692 30568 net.cpp:434] conv4_3_norm <- conv4_3_relu4_3_0_split_1
I0322 09:50:25.309700 30568 net.cpp:408] conv4_3_norm -> conv4_3_norm
I0322 09:50:25.309861 30568 net.cpp:150] Setting up conv4_3_norm
I0322 09:50:25.309870 30568 net.cpp:157] Top shape: 32 512 38 38 (23658496)
I0322 09:50:25.309875 30568 net.cpp:165] Memory required for data: 8002142336
I0322 09:50:25.309882 30568 layer_factory.hpp:77] Creating layer conv4_3_norm_conv4_3_norm_0_split
I0322 09:50:25.309891 30568 net.cpp:100] Creating Layer conv4_3_norm_conv4_3_norm_0_split
I0322 09:50:25.309896 30568 net.cpp:434] conv4_3_norm_conv4_3_norm_0_split <- conv4_3_norm
I0322 09:50:25.309906 30568 net.cpp:408] conv4_3_norm_conv4_3_norm_0_split -> conv4_3_norm_conv4_3_norm_0_split_0
I0322 09:50:25.309926 30568 net.cpp:408] conv4_3_norm_conv4_3_norm_0_split -> conv4_3_norm_conv4_3_norm_0_split_1
I0322 09:50:25.309936 30568 net.cpp:408] conv4_3_norm_conv4_3_norm_0_split -> conv4_3_norm_conv4_3_norm_0_split_2
I0322 09:50:25.309983 30568 net.cpp:150] Setting up conv4_3_norm_conv4_3_norm_0_split
I0322 09:50:25.309993 30568 net.cpp:157] Top shape: 32 512 38 38 (23658496)
I0322 09:50:25.310007 30568 net.cpp:157] Top shape: 32 512 38 38 (23658496)
I0322 09:50:25.310015 30568 net.cpp:157] Top shape: 32 512 38 38 (23658496)
I0322 09:50:25.310020 30568 net.cpp:165] Memory required for data: 8286044288
I0322 09:50:25.310025 30568 layer_factory.hpp:77] Creating layer conv4_3_norm_mbox_loc
I0322 09:50:25.310039 30568 net.cpp:100] Creating Layer conv4_3_norm_mbox_loc
I0322 09:50:25.310045 30568 net.cpp:434] conv4_3_norm_mbox_loc <- conv4_3_norm_conv4_3_norm_0_split_0
I0322 09:50:25.310055 30568 net.cpp:408] conv4_3_norm_mbox_loc -> conv4_3_norm_mbox_loc
I0322 09:50:25.312089 30568 net.cpp:150] Setting up conv4_3_norm_mbox_loc
I0322 09:50:25.312104 30568 net.cpp:157] Top shape: 32 16 38 38 (739328)
I0322 09:50:25.312110 30568 net.cpp:165] Memory required for data: 8289001600
I0322 09:50:25.312119 30568 layer_factory.hpp:77] Creating layer conv4_3_norm_mbox_loc_perm
I0322 09:50:25.312129 30568 net.cpp:100] Creating Layer conv4_3_norm_mbox_loc_perm
I0322 09:50:25.312139 30568 net.cpp:434] conv4_3_norm_mbox_loc_perm <- conv4_3_norm_mbox_loc
I0322 09:50:25.312149 30568 net.cpp:408] conv4_3_norm_mbox_loc_perm -> conv4_3_norm_mbox_loc_perm
I0322 09:50:25.312258 30568 net.cpp:150] Setting up conv4_3_norm_mbox_loc_perm
I0322 09:50:25.312268 30568 net.cpp:157] Top shape: 32 38 38 16 (739328)
I0322 09:50:25.312273 30568 net.cpp:165] Memory required for data: 8291958912
I0322 09:50:25.312278 30568 layer_factory.hpp:77] Creating layer conv4_3_norm_mbox_loc_flat
I0322 09:50:25.312288 30568 net.cpp:100] Creating Layer conv4_3_norm_mbox_loc_flat
I0322 09:50:25.312295 30568 net.cpp:434] conv4_3_norm_mbox_loc_flat <- conv4_3_norm_mbox_loc_perm
I0322 09:50:25.312304 30568 net.cpp:408] conv4_3_norm_mbox_loc_flat -> conv4_3_norm_mbox_loc_flat
I0322 09:50:25.312336 30568 net.cpp:150] Setting up conv4_3_norm_mbox_loc_flat
I0322 09:50:25.312345 30568 net.cpp:157] Top shape: 32 23104 (739328)
I0322 09:50:25.312348 30568 net.cpp:165] Memory required for data: 8294916224
I0322 09:50:25.312353 30568 layer_factory.hpp:77] Creating layer conv4_3_norm_mbox_conf
I0322 09:50:25.312369 30568 net.cpp:100] Creating Layer conv4_3_norm_mbox_conf
I0322 09:50:25.312376 30568 net.cpp:434] conv4_3_norm_mbox_conf <- conv4_3_norm_conv4_3_norm_0_split_1
I0322 09:50:25.312384 30568 net.cpp:408] conv4_3_norm_mbox_conf -> conv4_3_norm_mbox_conf
I0322 09:50:25.314998 30568 net.cpp:150] Setting up conv4_3_norm_mbox_conf
I0322 09:50:25.315014 30568 net.cpp:157] Top shape: 32 44 38 38 (2033152)
I0322 09:50:25.315019 30568 net.cpp:165] Memory required for data: 8303048832
I0322 09:50:25.315028 30568 layer_factory.hpp:77] Creating layer conv4_3_norm_mbox_conf_perm
I0322 09:50:25.315037 30568 net.cpp:100] Creating Layer conv4_3_norm_mbox_conf_perm
I0322 09:50:25.315045 30568 net.cpp:434] conv4_3_norm_mbox_conf_perm <- conv4_3_norm_mbox_conf
I0322 09:50:25.315057 30568 net.cpp:408] conv4_3_norm_mbox_conf_perm -> conv4_3_norm_mbox_conf_perm
I0322 09:50:25.315160 30568 net.cpp:150] Setting up conv4_3_norm_mbox_conf_perm
I0322 09:50:25.315169 30568 net.cpp:157] Top shape: 32 38 38 44 (2033152)
I0322 09:50:25.315176 30568 net.cpp:165] Memory required for data: 8311181440
I0322 09:50:25.315181 30568 layer_factory.hpp:77] Creating layer conv4_3_norm_mbox_conf_flat
I0322 09:50:25.315189 30568 net.cpp:100] Creating Layer conv4_3_norm_mbox_conf_flat
I0322 09:50:25.315197 30568 net.cpp:434] conv4_3_norm_mbox_conf_flat <- conv4_3_norm_mbox_conf_perm
I0322 09:50:25.315208 30568 net.cpp:408] conv4_3_norm_mbox_conf_flat -> conv4_3_norm_mbox_conf_flat
I0322 09:50:25.315240 30568 net.cpp:150] Setting up conv4_3_norm_mbox_conf_flat
I0322 09:50:25.315248 30568 net.cpp:157] Top shape: 32 63536 (2033152)
I0322 09:50:25.315251 30568 net.cpp:165] Memory required for data: 8319314048
I0322 09:50:25.315258 30568 layer_factory.hpp:77] Creating layer conv4_3_norm_mbox_priorbox
I0322 09:50:25.315266 30568 net.cpp:100] Creating Layer conv4_3_norm_mbox_priorbox
I0322 09:50:25.315273 30568 net.cpp:434] conv4_3_norm_mbox_priorbox <- conv4_3_norm_conv4_3_norm_0_split_2
I0322 09:50:25.315289 30568 net.cpp:434] conv4_3_norm_mbox_priorbox <- data_data_0_split_1
I0322 09:50:25.315300 30568 net.cpp:408] conv4_3_norm_mbox_priorbox -> conv4_3_norm_mbox_priorbox
I0322 09:50:25.315335 30568 net.cpp:150] Setting up conv4_3_norm_mbox_priorbox
I0322 09:50:25.315342 30568 net.cpp:157] Top shape: 1 2 23104 (46208)
I0322 09:50:25.315346 30568 net.cpp:165] Memory required for data: 8319498880
I0322 09:50:25.315352 30568 layer_factory.hpp:77] Creating layer fc7_mbox_loc
I0322 09:50:25.315366 30568 net.cpp:100] Creating Layer fc7_mbox_loc
I0322 09:50:25.315371 30568 net.cpp:434] fc7_mbox_loc <- fc7_relu7_0_split_1
I0322 09:50:25.315379 30568 net.cpp:408] fc7_mbox_loc -> fc7_mbox_loc
I0322 09:50:25.318056 30568 net.cpp:150] Setting up fc7_mbox_loc
I0322 09:50:25.318070 30568 net.cpp:157] Top shape: 32 24 19 19 (277248)
I0322 09:50:25.318075 30568 net.cpp:165] Memory required for data: 8320607872
I0322 09:50:25.318084 30568 layer_factory.hpp:77] Creating layer fc7_mbox_loc_perm
I0322 09:50:25.318096 30568 net.cpp:100] Creating Layer fc7_mbox_loc_perm
I0322 09:50:25.318104 30568 net.cpp:434] fc7_mbox_loc_perm <- fc7_mbox_loc
I0322 09:50:25.318112 30568 net.cpp:408] fc7_mbox_loc_perm -> fc7_mbox_loc_perm
I0322 09:50:25.318217 30568 net.cpp:150] Setting up fc7_mbox_loc_perm
I0322 09:50:25.318226 30568 net.cpp:157] Top shape: 32 19 19 24 (277248)
I0322 09:50:25.318230 30568 net.cpp:165] Memory required for data: 8321716864
I0322 09:50:25.318236 30568 layer_factory.hpp:77] Creating layer fc7_mbox_loc_flat
I0322 09:50:25.318246 30568 net.cpp:100] Creating Layer fc7_mbox_loc_flat
I0322 09:50:25.318253 30568 net.cpp:434] fc7_mbox_loc_flat <- fc7_mbox_loc_perm
I0322 09:50:25.318260 30568 net.cpp:408] fc7_mbox_loc_flat -> fc7_mbox_loc_flat
I0322 09:50:25.318289 30568 net.cpp:150] Setting up fc7_mbox_loc_flat
I0322 09:50:25.318297 30568 net.cpp:157] Top shape: 32 8664 (277248)
I0322 09:50:25.318302 30568 net.cpp:165] Memory required for data: 8322825856
I0322 09:50:25.318307 30568 layer_factory.hpp:77] Creating layer fc7_mbox_conf
I0322 09:50:25.318323 30568 net.cpp:100] Creating Layer fc7_mbox_conf
I0322 09:50:25.318328 30568 net.cpp:434] fc7_mbox_conf <- fc7_relu7_0_split_2
I0322 09:50:25.318338 30568 net.cpp:408] fc7_mbox_conf -> fc7_mbox_conf
I0322 09:50:25.323607 30568 net.cpp:150] Setting up fc7_mbox_conf
I0322 09:50:25.323631 30568 net.cpp:157] Top shape: 32 66 19 19 (762432)
I0322 09:50:25.323635 30568 net.cpp:165] Memory required for data: 8325875584
I0322 09:50:25.323658 30568 layer_factory.hpp:77] Creating layer fc7_mbox_conf_perm
I0322 09:50:25.323670 30568 net.cpp:100] Creating Layer fc7_mbox_conf_perm
I0322 09:50:25.323678 30568 net.cpp:434] fc7_mbox_conf_perm <- fc7_mbox_conf
I0322 09:50:25.323688 30568 net.cpp:408] fc7_mbox_conf_perm -> fc7_mbox_conf_perm
I0322 09:50:25.323794 30568 net.cpp:150] Setting up fc7_mbox_conf_perm
I0322 09:50:25.323803 30568 net.cpp:157] Top shape: 32 19 19 66 (762432)
I0322 09:50:25.323808 30568 net.cpp:165] Memory required for data: 8328925312
I0322 09:50:25.323813 30568 layer_factory.hpp:77] Creating layer fc7_mbox_conf_flat
I0322 09:50:25.323825 30568 net.cpp:100] Creating Layer fc7_mbox_conf_flat
I0322 09:50:25.323832 30568 net.cpp:434] fc7_mbox_conf_flat <- fc7_mbox_conf_perm
I0322 09:50:25.323839 30568 net.cpp:408] fc7_mbox_conf_flat -> fc7_mbox_conf_flat
I0322 09:50:25.323869 30568 net.cpp:150] Setting up fc7_mbox_conf_flat
I0322 09:50:25.323877 30568 net.cpp:157] Top shape: 32 23826 (762432)
I0322 09:50:25.323881 30568 net.cpp:165] Memory required for data: 8331975040
I0322 09:50:25.323886 30568 layer_factory.hpp:77] Creating layer fc7_mbox_priorbox
I0322 09:50:25.323899 30568 net.cpp:100] Creating Layer fc7_mbox_priorbox
I0322 09:50:25.323906 30568 net.cpp:434] fc7_mbox_priorbox <- fc7_relu7_0_split_3
I0322 09:50:25.323912 30568 net.cpp:434] fc7_mbox_priorbox <- data_data_0_split_2
I0322 09:50:25.323920 30568 net.cpp:408] fc7_mbox_priorbox -> fc7_mbox_priorbox
I0322 09:50:25.323956 30568 net.cpp:150] Setting up fc7_mbox_priorbox
I0322 09:50:25.323964 30568 net.cpp:157] Top shape: 1 2 8664 (17328)
I0322 09:50:25.323982 30568 net.cpp:165] Memory required for data: 8332044352
I0322 09:50:25.323987 30568 layer_factory.hpp:77] Creating layer conv6_2_mbox_loc
I0322 09:50:25.324002 30568 net.cpp:100] Creating Layer conv6_2_mbox_loc
I0322 09:50:25.324008 30568 net.cpp:434] conv6_2_mbox_loc <- conv6_2_conv6_2_relu_0_split_1
I0322 09:50:25.324019 30568 net.cpp:408] conv6_2_mbox_loc -> conv6_2_mbox_loc
I0322 09:50:25.326278 30568 net.cpp:150] Setting up conv6_2_mbox_loc
I0322 09:50:25.326292 30568 net.cpp:157] Top shape: 32 24 10 10 (76800)
I0322 09:50:25.326297 30568 net.cpp:165] Memory required for data: 8332351552
I0322 09:50:25.326321 30568 layer_factory.hpp:77] Creating layer conv6_2_mbox_loc_perm
I0322 09:50:25.326333 30568 net.cpp:100] Creating Layer conv6_2_mbox_loc_perm
I0322 09:50:25.326340 30568 net.cpp:434] conv6_2_mbox_loc_perm <- conv6_2_mbox_loc
I0322 09:50:25.326350 30568 net.cpp:408] conv6_2_mbox_loc_perm -> conv6_2_mbox_loc_perm
I0322 09:50:25.326455 30568 net.cpp:150] Setting up conv6_2_mbox_loc_perm
I0322 09:50:25.326463 30568 net.cpp:157] Top shape: 32 10 10 24 (76800)
I0322 09:50:25.326467 30568 net.cpp:165] Memory required for data: 8332658752
I0322 09:50:25.326473 30568 layer_factory.hpp:77] Creating layer conv6_2_mbox_loc_flat
I0322 09:50:25.326486 30568 net.cpp:100] Creating Layer conv6_2_mbox_loc_flat
I0322 09:50:25.326493 30568 net.cpp:434] conv6_2_mbox_loc_flat <- conv6_2_mbox_loc_perm
I0322 09:50:25.326501 30568 net.cpp:408] conv6_2_mbox_loc_flat -> conv6_2_mbox_loc_flat
I0322 09:50:25.326534 30568 net.cpp:150] Setting up conv6_2_mbox_loc_flat
I0322 09:50:25.326540 30568 net.cpp:157] Top shape: 32 2400 (76800)
I0322 09:50:25.326545 30568 net.cpp:165] Memory required for data: 8332965952
I0322 09:50:25.326551 30568 layer_factory.hpp:77] Creating layer conv6_2_mbox_conf
I0322 09:50:25.326565 30568 net.cpp:100] Creating Layer conv6_2_mbox_conf
I0322 09:50:25.326571 30568 net.cpp:434] conv6_2_mbox_conf <- conv6_2_conv6_2_relu_0_split_2
I0322 09:50:25.326582 30568 net.cpp:408] conv6_2_mbox_conf -> conv6_2_mbox_conf
I0322 09:50:25.330385 30568 net.cpp:150] Setting up conv6_2_mbox_conf
I0322 09:50:25.330401 30568 net.cpp:157] Top shape: 32 66 10 10 (211200)
I0322 09:50:25.330407 30568 net.cpp:165] Memory required for data: 8333810752
I0322 09:50:25.330430 30568 layer_factory.hpp:77] Creating layer conv6_2_mbox_conf_perm
I0322 09:50:25.330440 30568 net.cpp:100] Creating Layer conv6_2_mbox_conf_perm
I0322 09:50:25.330447 30568 net.cpp:434] conv6_2_mbox_conf_perm <- conv6_2_mbox_conf
I0322 09:50:25.330458 30568 net.cpp:408] conv6_2_mbox_conf_perm -> conv6_2_mbox_conf_perm
I0322 09:50:25.330564 30568 net.cpp:150] Setting up conv6_2_mbox_conf_perm
I0322 09:50:25.330574 30568 net.cpp:157] Top shape: 32 10 10 66 (211200)
I0322 09:50:25.330579 30568 net.cpp:165] Memory required for data: 8334655552
I0322 09:50:25.330585 30568 layer_factory.hpp:77] Creating layer conv6_2_mbox_conf_flat
I0322 09:50:25.330593 30568 net.cpp:100] Creating Layer conv6_2_mbox_conf_flat
I0322 09:50:25.330600 30568 net.cpp:434] conv6_2_mbox_conf_flat <- conv6_2_mbox_conf_perm
I0322 09:50:25.330610 30568 net.cpp:408] conv6_2_mbox_conf_flat -> conv6_2_mbox_conf_flat
I0322 09:50:25.330641 30568 net.cpp:150] Setting up conv6_2_mbox_conf_flat
I0322 09:50:25.330648 30568 net.cpp:157] Top shape: 32 6600 (211200)
I0322 09:50:25.330653 30568 net.cpp:165] Memory required for data: 8335500352
I0322 09:50:25.330659 30568 layer_factory.hpp:77] Creating layer conv6_2_mbox_priorbox
I0322 09:50:25.330669 30568 net.cpp:100] Creating Layer conv6_2_mbox_priorbox
I0322 09:50:25.330677 30568 net.cpp:434] conv6_2_mbox_priorbox <- conv6_2_conv6_2_relu_0_split_3
I0322 09:50:25.330683 30568 net.cpp:434] conv6_2_mbox_priorbox <- data_data_0_split_3
I0322 09:50:25.330694 30568 net.cpp:408] conv6_2_mbox_priorbox -> conv6_2_mbox_priorbox
I0322 09:50:25.330726 30568 net.cpp:150] Setting up conv6_2_mbox_priorbox
I0322 09:50:25.330734 30568 net.cpp:157] Top shape: 1 2 2400 (4800)
I0322 09:50:25.330739 30568 net.cpp:165] Memory required for data: 8335519552
I0322 09:50:25.330754 30568 layer_factory.hpp:77] Creating layer conv7_2_mbox_loc
I0322 09:50:25.330768 30568 net.cpp:100] Creating Layer conv7_2_mbox_loc
I0322 09:50:25.330775 30568 net.cpp:434] conv7_2_mbox_loc <- conv7_2_conv7_2_relu_0_split_1
I0322 09:50:25.330785 30568 net.cpp:408] conv7_2_mbox_loc -> conv7_2_mbox_loc
I0322 09:50:25.332285 30568 net.cpp:150] Setting up conv7_2_mbox_loc
I0322 09:50:25.332298 30568 net.cpp:157] Top shape: 32 24 5 5 (19200)
I0322 09:50:25.332304 30568 net.cpp:165] Memory required for data: 8335596352
I0322 09:50:25.332312 30568 layer_factory.hpp:77] Creating layer conv7_2_mbox_loc_perm
I0322 09:50:25.332324 30568 net.cpp:100] Creating Layer conv7_2_mbox_loc_perm
I0322 09:50:25.332330 30568 net.cpp:434] conv7_2_mbox_loc_perm <- conv7_2_mbox_loc
I0322 09:50:25.332340 30568 net.cpp:408] conv7_2_mbox_loc_perm -> conv7_2_mbox_loc_perm
I0322 09:50:25.332442 30568 net.cpp:150] Setting up conv7_2_mbox_loc_perm
I0322 09:50:25.332451 30568 net.cpp:157] Top shape: 32 5 5 24 (19200)
I0322 09:50:25.332455 30568 net.cpp:165] Memory required for data: 8335673152
I0322 09:50:25.332460 30568 layer_factory.hpp:77] Creating layer conv7_2_mbox_loc_flat
I0322 09:50:25.332468 30568 net.cpp:100] Creating Layer conv7_2_mbox_loc_flat
I0322 09:50:25.332474 30568 net.cpp:434] conv7_2_mbox_loc_flat <- conv7_2_mbox_loc_perm
I0322 09:50:25.332484 30568 net.cpp:408] conv7_2_mbox_loc_flat -> conv7_2_mbox_loc_flat
I0322 09:50:25.332515 30568 net.cpp:150] Setting up conv7_2_mbox_loc_flat
I0322 09:50:25.332525 30568 net.cpp:157] Top shape: 32 600 (19200)
I0322 09:50:25.332530 30568 net.cpp:165] Memory required for data: 8335749952
I0322 09:50:25.332535 30568 layer_factory.hpp:77] Creating layer conv7_2_mbox_conf
I0322 09:50:25.332548 30568 net.cpp:100] Creating Layer conv7_2_mbox_conf
I0322 09:50:25.332554 30568 net.cpp:434] conv7_2_mbox_conf <- conv7_2_conv7_2_relu_0_split_2
I0322 09:50:25.332566 30568 net.cpp:408] conv7_2_mbox_conf -> conv7_2_mbox_conf
I0322 09:50:25.334463 30568 net.cpp:150] Setting up conv7_2_mbox_conf
I0322 09:50:25.334476 30568 net.cpp:157] Top shape: 32 66 5 5 (52800)
I0322 09:50:25.334481 30568 net.cpp:165] Memory required for data: 8335961152
I0322 09:50:25.334491 30568 layer_factory.hpp:77] Creating layer conv7_2_mbox_conf_perm
I0322 09:50:25.334503 30568 net.cpp:100] Creating Layer conv7_2_mbox_conf_perm
I0322 09:50:25.334511 30568 net.cpp:434] conv7_2_mbox_conf_perm <- conv7_2_mbox_conf
I0322 09:50:25.334520 30568 net.cpp:408] conv7_2_mbox_conf_perm -> conv7_2_mbox_conf_perm
I0322 09:50:25.334619 30568 net.cpp:150] Setting up conv7_2_mbox_conf_perm
I0322 09:50:25.334628 30568 net.cpp:157] Top shape: 32 5 5 66 (52800)
I0322 09:50:25.334633 30568 net.cpp:165] Memory required for data: 8336172352
I0322 09:50:25.334638 30568 layer_factory.hpp:77] Creating layer conv7_2_mbox_conf_flat
I0322 09:50:25.334647 30568 net.cpp:100] Creating Layer conv7_2_mbox_conf_flat
I0322 09:50:25.334655 30568 net.cpp:434] conv7_2_mbox_conf_flat <- conv7_2_mbox_conf_perm
I0322 09:50:25.334661 30568 net.cpp:408] conv7_2_mbox_conf_flat -> conv7_2_mbox_conf_flat
I0322 09:50:25.334693 30568 net.cpp:150] Setting up conv7_2_mbox_conf_flat
I0322 09:50:25.334700 30568 net.cpp:157] Top shape: 32 1650 (52800)
I0322 09:50:25.334705 30568 net.cpp:165] Memory required for data: 8336383552
I0322 09:50:25.334710 30568 layer_factory.hpp:77] Creating layer conv7_2_mbox_priorbox
I0322 09:50:25.334719 30568 net.cpp:100] Creating Layer conv7_2_mbox_priorbox
I0322 09:50:25.334728 30568 net.cpp:434] conv7_2_mbox_priorbox <- conv7_2_conv7_2_relu_0_split_3
I0322 09:50:25.334734 30568 net.cpp:434] conv7_2_mbox_priorbox <- data_data_0_split_4
I0322 09:50:25.334745 30568 net.cpp:408] conv7_2_mbox_priorbox -> conv7_2_mbox_priorbox
I0322 09:50:25.334775 30568 net.cpp:150] Setting up conv7_2_mbox_priorbox
I0322 09:50:25.334784 30568 net.cpp:157] Top shape: 1 2 600 (1200)
I0322 09:50:25.334789 30568 net.cpp:165] Memory required for data: 8336388352
I0322 09:50:25.334794 30568 layer_factory.hpp:77] Creating layer conv8_2_mbox_loc
I0322 09:50:25.334816 30568 net.cpp:100] Creating Layer conv8_2_mbox_loc
I0322 09:50:25.334825 30568 net.cpp:434] conv8_2_mbox_loc <- conv8_2_conv8_2_relu_0_split_1
I0322 09:50:25.334834 30568 net.cpp:408] conv8_2_mbox_loc -> conv8_2_mbox_loc
I0322 09:50:25.336241 30568 net.cpp:150] Setting up conv8_2_mbox_loc
I0322 09:50:25.336254 30568 net.cpp:157] Top shape: 32 16 3 3 (4608)
I0322 09:50:25.336261 30568 net.cpp:165] Memory required for data: 8336406784
I0322 09:50:25.336269 30568 layer_factory.hpp:77] Creating layer conv8_2_mbox_loc_perm
I0322 09:50:25.336279 30568 net.cpp:100] Creating Layer conv8_2_mbox_loc_perm
I0322 09:50:25.336285 30568 net.cpp:434] conv8_2_mbox_loc_perm <- conv8_2_mbox_loc
I0322 09:50:25.336297 30568 net.cpp:408] conv8_2_mbox_loc_perm -> conv8_2_mbox_loc_perm
I0322 09:50:25.336393 30568 net.cpp:150] Setting up conv8_2_mbox_loc_perm
I0322 09:50:25.336406 30568 net.cpp:157] Top shape: 32 3 3 16 (4608)
I0322 09:50:25.336416 30568 net.cpp:165] Memory required for data: 8336425216
I0322 09:50:25.336422 30568 layer_factory.hpp:77] Creating layer conv8_2_mbox_loc_flat
I0322 09:50:25.336431 30568 net.cpp:100] Creating Layer conv8_2_mbox_loc_flat
I0322 09:50:25.336436 30568 net.cpp:434] conv8_2_mbox_loc_flat <- conv8_2_mbox_loc_perm
I0322 09:50:25.336447 30568 net.cpp:408] conv8_2_mbox_loc_flat -> conv8_2_mbox_loc_flat
I0322 09:50:25.336477 30568 net.cpp:150] Setting up conv8_2_mbox_loc_flat
I0322 09:50:25.336485 30568 net.cpp:157] Top shape: 32 144 (4608)
I0322 09:50:25.336489 30568 net.cpp:165] Memory required for data: 8336443648
I0322 09:50:25.336495 30568 layer_factory.hpp:77] Creating layer conv8_2_mbox_conf
I0322 09:50:25.336510 30568 net.cpp:100] Creating Layer conv8_2_mbox_conf
I0322 09:50:25.336515 30568 net.cpp:434] conv8_2_mbox_conf <- conv8_2_conv8_2_relu_0_split_2
I0322 09:50:25.336525 30568 net.cpp:408] conv8_2_mbox_conf -> conv8_2_mbox_conf
I0322 09:50:25.338733 30568 net.cpp:150] Setting up conv8_2_mbox_conf
I0322 09:50:25.338760 30568 net.cpp:157] Top shape: 32 44 3 3 (12672)
I0322 09:50:25.338765 30568 net.cpp:165] Memory required for data: 8336494336
I0322 09:50:25.338788 30568 layer_factory.hpp:77] Creating layer conv8_2_mbox_conf_perm
I0322 09:50:25.338798 30568 net.cpp:100] Creating Layer conv8_2_mbox_conf_perm
I0322 09:50:25.338804 30568 net.cpp:434] conv8_2_mbox_conf_perm <- conv8_2_mbox_conf
I0322 09:50:25.338815 30568 net.cpp:408] conv8_2_mbox_conf_perm -> conv8_2_mbox_conf_perm
I0322 09:50:25.338917 30568 net.cpp:150] Setting up conv8_2_mbox_conf_perm
I0322 09:50:25.338927 30568 net.cpp:157] Top shape: 32 3 3 44 (12672)
I0322 09:50:25.338932 30568 net.cpp:165] Memory required for data: 8336545024
I0322 09:50:25.338939 30568 layer_factory.hpp:77] Creating layer conv8_2_mbox_conf_flat
I0322 09:50:25.338948 30568 net.cpp:100] Creating Layer conv8_2_mbox_conf_flat
I0322 09:50:25.338956 30568 net.cpp:434] conv8_2_mbox_conf_flat <- conv8_2_mbox_conf_perm
I0322 09:50:25.338965 30568 net.cpp:408] conv8_2_mbox_conf_flat -> conv8_2_mbox_conf_flat
I0322 09:50:25.338992 30568 net.cpp:150] Setting up conv8_2_mbox_conf_flat
I0322 09:50:25.338999 30568 net.cpp:157] Top shape: 32 396 (12672)
I0322 09:50:25.339004 30568 net.cpp:165] Memory required for data: 8336595712
I0322 09:50:25.339010 30568 layer_factory.hpp:77] Creating layer conv8_2_mbox_priorbox
I0322 09:50:25.339020 30568 net.cpp:100] Creating Layer conv8_2_mbox_priorbox
I0322 09:50:25.339026 30568 net.cpp:434] conv8_2_mbox_priorbox <- conv8_2_conv8_2_relu_0_split_3
I0322 09:50:25.339033 30568 net.cpp:434] conv8_2_mbox_priorbox <- data_data_0_split_5
I0322 09:50:25.339045 30568 net.cpp:408] conv8_2_mbox_priorbox -> conv8_2_mbox_priorbox
I0322 09:50:25.339076 30568 net.cpp:150] Setting up conv8_2_mbox_priorbox
I0322 09:50:25.339083 30568 net.cpp:157] Top shape: 1 2 144 (288)
I0322 09:50:25.339088 30568 net.cpp:165] Memory required for data: 8336596864
I0322 09:50:25.339094 30568 layer_factory.hpp:77] Creating layer conv9_2_mbox_loc
I0322 09:50:25.339108 30568 net.cpp:100] Creating Layer conv9_2_mbox_loc
I0322 09:50:25.339114 30568 net.cpp:434] conv9_2_mbox_loc <- conv9_2_conv9_2_relu_0_split_0
I0322 09:50:25.339138 30568 net.cpp:408] conv9_2_mbox_loc -> conv9_2_mbox_loc
I0322 09:50:25.340551 30568 net.cpp:150] Setting up conv9_2_mbox_loc
I0322 09:50:25.340564 30568 net.cpp:157] Top shape: 32 16 1 1 (512)
I0322 09:50:25.340569 30568 net.cpp:165] Memory required for data: 8336598912
I0322 09:50:25.340579 30568 layer_factory.hpp:77] Creating layer conv9_2_mbox_loc_perm
I0322 09:50:25.340589 30568 net.cpp:100] Creating Layer conv9_2_mbox_loc_perm
I0322 09:50:25.340596 30568 net.cpp:434] conv9_2_mbox_loc_perm <- conv9_2_mbox_loc
I0322 09:50:25.340606 30568 net.cpp:408] conv9_2_mbox_loc_perm -> conv9_2_mbox_loc_perm
I0322 09:50:25.340710 30568 net.cpp:150] Setting up conv9_2_mbox_loc_perm
I0322 09:50:25.340718 30568 net.cpp:157] Top shape: 32 1 1 16 (512)
I0322 09:50:25.340723 30568 net.cpp:165] Memory required for data: 8336600960
I0322 09:50:25.340728 30568 layer_factory.hpp:77] Creating layer conv9_2_mbox_loc_flat
I0322 09:50:25.340735 30568 net.cpp:100] Creating Layer conv9_2_mbox_loc_flat
I0322 09:50:25.340744 30568 net.cpp:434] conv9_2_mbox_loc_flat <- conv9_2_mbox_loc_perm
I0322 09:50:25.340754 30568 net.cpp:408] conv9_2_mbox_loc_flat -> conv9_2_mbox_loc_flat
I0322 09:50:25.340783 30568 net.cpp:150] Setting up conv9_2_mbox_loc_flat
I0322 09:50:25.340790 30568 net.cpp:157] Top shape: 32 16 (512)
I0322 09:50:25.340795 30568 net.cpp:165] Memory required for data: 8336603008
I0322 09:50:25.340801 30568 layer_factory.hpp:77] Creating layer conv9_2_mbox_conf
I0322 09:50:25.340813 30568 net.cpp:100] Creating Layer conv9_2_mbox_conf
I0322 09:50:25.340819 30568 net.cpp:434] conv9_2_mbox_conf <- conv9_2_conv9_2_relu_0_split_1
I0322 09:50:25.340831 30568 net.cpp:408] conv9_2_mbox_conf -> conv9_2_mbox_conf
I0322 09:50:25.342536 30568 net.cpp:150] Setting up conv9_2_mbox_conf
I0322 09:50:25.342550 30568 net.cpp:157] Top shape: 32 44 1 1 (1408)
I0322 09:50:25.342555 30568 net.cpp:165] Memory required for data: 8336608640
I0322 09:50:25.342566 30568 layer_factory.hpp:77] Creating layer conv9_2_mbox_conf_perm
I0322 09:50:25.342577 30568 net.cpp:100] Creating Layer conv9_2_mbox_conf_perm
I0322 09:50:25.342584 30568 net.cpp:434] conv9_2_mbox_conf_perm <- conv9_2_mbox_conf
I0322 09:50:25.342594 30568 net.cpp:408] conv9_2_mbox_conf_perm -> conv9_2_mbox_conf_perm
I0322 09:50:25.342692 30568 net.cpp:150] Setting up conv9_2_mbox_conf_perm
I0322 09:50:25.342702 30568 net.cpp:157] Top shape: 32 1 1 44 (1408)
I0322 09:50:25.342707 30568 net.cpp:165] Memory required for data: 8336614272
I0322 09:50:25.342712 30568 layer_factory.hpp:77] Creating layer conv9_2_mbox_conf_flat
I0322 09:50:25.342722 30568 net.cpp:100] Creating Layer conv9_2_mbox_conf_flat
I0322 09:50:25.342730 30568 net.cpp:434] conv9_2_mbox_conf_flat <- conv9_2_mbox_conf_perm
I0322 09:50:25.342737 30568 net.cpp:408] conv9_2_mbox_conf_flat -> conv9_2_mbox_conf_flat
I0322 09:50:25.342767 30568 net.cpp:150] Setting up conv9_2_mbox_conf_flat
I0322 09:50:25.342775 30568 net.cpp:157] Top shape: 32 44 (1408)
I0322 09:50:25.342780 30568 net.cpp:165] Memory required for data: 8336619904
I0322 09:50:25.342787 30568 layer_factory.hpp:77] Creating layer conv9_2_mbox_priorbox
I0322 09:50:25.342794 30568 net.cpp:100] Creating Layer conv9_2_mbox_priorbox
I0322 09:50:25.342803 30568 net.cpp:434] conv9_2_mbox_priorbox <- conv9_2_conv9_2_relu_0_split_2
I0322 09:50:25.342809 30568 net.cpp:434] conv9_2_mbox_priorbox <- data_data_0_split_6
I0322 09:50:25.342818 30568 net.cpp:408] conv9_2_mbox_priorbox -> conv9_2_mbox_priorbox
I0322 09:50:25.342851 30568 net.cpp:150] Setting up conv9_2_mbox_priorbox
I0322 09:50:25.342860 30568 net.cpp:157] Top shape: 1 2 16 (32)
I0322 09:50:25.342865 30568 net.cpp:165] Memory required for data: 8336620032
I0322 09:50:25.342871 30568 layer_factory.hpp:77] Creating layer mbox_loc
I0322 09:50:25.342880 30568 net.cpp:100] Creating Layer mbox_loc
I0322 09:50:25.342886 30568 net.cpp:434] mbox_loc <- conv4_3_norm_mbox_loc_flat
I0322 09:50:25.342893 30568 net.cpp:434] mbox_loc <- fc7_mbox_loc_flat
I0322 09:50:25.342907 30568 net.cpp:434] mbox_loc <- conv6_2_mbox_loc_flat
I0322 09:50:25.342914 30568 net.cpp:434] mbox_loc <- conv7_2_mbox_loc_flat
I0322 09:50:25.342921 30568 net.cpp:434] mbox_loc <- conv8_2_mbox_loc_flat
I0322 09:50:25.342928 30568 net.cpp:434] mbox_loc <- conv9_2_mbox_loc_flat
I0322 09:50:25.342936 30568 net.cpp:408] mbox_loc -> mbox_loc
I0322 09:50:25.342970 30568 net.cpp:150] Setting up mbox_loc
I0322 09:50:25.342978 30568 net.cpp:157] Top shape: 32 34928 (1117696)
I0322 09:50:25.342983 30568 net.cpp:165] Memory required for data: 8341090816
I0322 09:50:25.342988 30568 layer_factory.hpp:77] Creating layer mbox_conf
I0322 09:50:25.342996 30568 net.cpp:100] Creating Layer mbox_conf
I0322 09:50:25.343003 30568 net.cpp:434] mbox_conf <- conv4_3_norm_mbox_conf_flat
I0322 09:50:25.343009 30568 net.cpp:434] mbox_conf <- fc7_mbox_conf_flat
I0322 09:50:25.343015 30568 net.cpp:434] mbox_conf <- conv6_2_mbox_conf_flat
I0322 09:50:25.343021 30568 net.cpp:434] mbox_conf <- conv7_2_mbox_conf_flat
I0322 09:50:25.343029 30568 net.cpp:434] mbox_conf <- conv8_2_mbox_conf_flat
I0322 09:50:25.343035 30568 net.cpp:434] mbox_conf <- conv9_2_mbox_conf_flat
I0322 09:50:25.343042 30568 net.cpp:408] mbox_conf -> mbox_conf
I0322 09:50:25.343073 30568 net.cpp:150] Setting up mbox_conf
I0322 09:50:25.343080 30568 net.cpp:157] Top shape: 32 96052 (3073664)
I0322 09:50:25.343086 30568 net.cpp:165] Memory required for data: 8353385472
I0322 09:50:25.343091 30568 layer_factory.hpp:77] Creating layer mbox_priorbox
I0322 09:50:25.343097 30568 net.cpp:100] Creating Layer mbox_priorbox
I0322 09:50:25.343106 30568 net.cpp:434] mbox_priorbox <- conv4_3_norm_mbox_priorbox
I0322 09:50:25.343111 30568 net.cpp:434] mbox_priorbox <- fc7_mbox_priorbox
I0322 09:50:25.343118 30568 net.cpp:434] mbox_priorbox <- conv6_2_mbox_priorbox
I0322 09:50:25.343123 30568 net.cpp:434] mbox_priorbox <- conv7_2_mbox_priorbox
I0322 09:50:25.343132 30568 net.cpp:434] mbox_priorbox <- conv8_2_mbox_priorbox
I0322 09:50:25.343137 30568 net.cpp:434] mbox_priorbox <- conv9_2_mbox_priorbox
I0322 09:50:25.343144 30568 net.cpp:408] mbox_priorbox -> mbox_priorbox
I0322 09:50:25.343173 30568 net.cpp:150] Setting up mbox_priorbox
I0322 09:50:25.343181 30568 net.cpp:157] Top shape: 1 2 34928 (69856)
I0322 09:50:25.343185 30568 net.cpp:165] Memory required for data: 8353664896
I0322 09:50:25.343191 30568 layer_factory.hpp:77] Creating layer mbox_loss
I0322 09:50:25.343205 30568 net.cpp:100] Creating Layer mbox_loss
I0322 09:50:25.343212 30568 net.cpp:434] mbox_loss <- mbox_loc
I0322 09:50:25.343221 30568 net.cpp:434] mbox_loss <- mbox_conf
I0322 09:50:25.343230 30568 net.cpp:434] mbox_loss <- mbox_priorbox
…
  phase: TEST
}
layer {
  name: "data"
  type: "AnnotatedData"
  top: "data"
  top: "label"
  include {
    phase: TEST
  }
  transform_param {
    mean_value: 104
    mean_value: 117
    mean_value: 123
    resize_param {
      prob: 1
      resize_mode: WARP
      height: 300
      width: 300
      interp_mode: LINEAR
    }
  }
  data_param {
    source: "examples/NWPU_VHR/NWPU_VHR_test_lmdb"
    batch_size: 1
    backend: LMDB
  }
  annotated_data_param {
    batch_sampler {
    }
    label_map_file: "data/NWPU_VHR/labelmap_NWPU_VHR.prototxt"
  }
}
layer {
  name: "conv1_1"
  type: "Convolution"
  bottom: "data"
  top: "conv1_1"
  param {
    lr_mult: 1
    decay_mult: 1
  }
  param {
    lr_mult: 2
    decay_mult: 0
  }
  convolution_param {
    num_output: 64
    pad: 1
    kernel_size: 3
    weight_filler {
      type: "xavier"
    }
    bias_filler {
      type: "constant"
      value: 0
    }
  }
}
layer {
  name: "relu1_1"
  type: "ReLU"
  bottom: "conv1_1"
  top: "conv1_1"
}
layer {
  name: "conv1_2"
  type: "Convolution"
  bottom: "conv1_1"
  top: "conv1_2"
  param {
    lr_mult: 1
    decay_mult: 1
  }
  param {
    lr_mult: 2
    decay_mult: 0
  }
  convolution_param {
    num_output: 64
    pad: 1
    kernel_size: 3
    weight_filler {
      type: "xavier"
    }
    bias_filler {
      type: "constant"
      value: 0
    }
  }
}
layer {
  name: "relu1_2"
  type: "ReLU"
  bottom: "conv1_2"
  top: "conv1_2"
}
layer {
  name: "pool1"
  type: "Pooling"
  bottom: "conv1_2"
  top: "pool1"
  pooling_param {
    pool: MAX
    kernel_size: 2
    stride: 2
  }
}
layer {
  name: "conv2_1"
  type: "Convolution"
  bottom: "pool1"
  top: "conv2_1"
  param {
    lr_mult: 1
    decay_mult: 1
  }
  param {
    lr_mult: 2
    decay_mult: 0
  }
  convolution_param {
    num_output: 128
    pad: 1
    kernel_size: 3
    weight_filler {
      type: "xavier"
    }
    bias_filler {
      type: "constant"
      value: 0
    }
  }
}
layer {
  name: "relu2_1"
  type: "ReLU"
  bottom: "conv2_1"
  top: "conv2_1"
}
layer {
  name: "conv2_2"
  type: "Convolution"
  bottom: "conv2_1"
  top: "conv2_2"
  param {
    lr_mult: 1
    decay_mult: 1
  }
  param {
    lr_mult: 2
    decay_mult: 0
  }
  convolution_param {
    num_output: 128
    pad: 1
    kernel_size: 3
    weight_filler {
      type: "xavier"
    }
    bias_filler {
      type: "constant"
      value: 0
    }
  }
}
layer {
  name: "relu2_2"
  type: "ReLU"
  bottom: "conv2_2"
  top: "conv2_2"
}
layer {
  name: "pool2"
  type: "Pooling"
  bottom: "conv2_2"
  top: "pool2"
  pooling_param {
    pool: MAX
    kernel_size: 2
    stride: 2
  }
}
layer {
  name: "conv3_1"
  type: "Convolution"
  bottom: "pool2"
  top: "conv3_1"
  param {
    lr_mult: 1
    decay_mult: 1
  }
  param {
    lr_mult: 2
    decay_mult: 0
  }
  convolution_param {
    num_output: 256
    pad: 1
    kernel_size: 3
    weight_filler {
      type: "xavier"
    }
    bias_filler {
      type: "constant"
      value: 0
    }
  }
}
layer {
  name: "relu3_1"
  type: "ReLU"
  bottom: "conv3_1"
  top: "conv3_1"
}
layer {
  name: "conv3_2"
  type: "Convolution"
  bottom: "conv3_1"
  top: "conv3_2"
  param {
    lr_mult: 1
    decay_mult: 1
  }
  param {
    lr_mult: 2
    decay_mult: 0
  }
  convolution_param {
    num_output: 256
    pad: 1
    kernel_size: 3
    weight_filler {
      type: "xavier"
    }
    bias_filler {
      type: "constant"
      value: 0
    }
  }
}
layer {
  name: "relu3_2"
  type: "ReLU"
  bottom: "conv3_2"
  top: "conv3_2"
}
layer {
  name: "conv3_3"
  type: "Convolution"
  bottom: "conv3_2"
  top: "conv3_3"
  param {
    lr_mult: 1
    decay_mult: 1
  }
  param {
    lr_mult: 2
    decay_mult: 0
  }
  convolution_param {
    num_output: 256
    pad: 1
    kernel_size: 3
    weight_filler {
      type: "xavier"
    }
    bias_filler {
      type: "constant"
      value: 0
    }
  }
}
layer {
  name: "relu3_3"
  type: "ReLU"
  bottom: "conv3_3"
  top: "conv3_3"
}
layer {
  name: "pool3"
  type: "Pooling"
  bottom: "conv3_3"
  top: "pool3"
  pooling_param {
    pool: MAX
    kernel_size: 2
    stride: 2
  }
}
layer {
  name: "conv4_1"
  type: "Convolution"
  bottom: "pool3"
  top: "conv4_1"
  param {
    lr_mult: 1
    decay_mult: 1
  }
  param {
    lr_mult: 2
    decay_mult: 0
  }
  convolution_param {
    num_output: 512
    pad: 1
    kernel_size: 3
    weight_filler {
      type: "xavier"
    }
    bias_filler {
      type: "constant"
      value: 0
    }
  }
}
layer {
  name: "relu4_1"
  type: "ReLU"
  bottom: "conv4_1"
  top: "conv4_1"
}
layer {
  name: "conv4_2_depthwise"
  type: "DepthwiseConvolution"
  bottom: "conv4_1"
  top: "conv4_2_3x3"
  param {
    lr_mult: 1
    decay_mult: 1
  }
  param {
    lr_mult: 2
    decay_mult: 0
  }
  convolution_param {
    num_output: 512
    pad: 1
    kernel_size: 3
    group: 512
    weight_filler {
      type: "xavier"
    }
    bias_filler {
      type: "constant"
      value: 0
    }
  }
}
layer {
  name: "conv4_2_3x3_relu"
  type: "ReLU"
  bottom: "conv4_2_3x3"
  top: "conv4_2_3x3"
}
layer {
  name: "conv4_2_1x1"
  type: "Convolution"
  bottom: "conv4_2_3x3"
  top: "conv4_2"
  param {
    lr_mult: 1
    decay_mult: 1
  }
  param {
    lr_mult: 2
    decay_mult: 0
  }
  convolution_param {
    num_output: 512
    pad: 0
    kernel_size: 1
    stride: 1
    weight_filler {
      type: "xavier"
    }
    bias_filler {
      type: "constant"
      value: 0
    }
  }
}
layer {
  name: "relu4_2"
  type: "ReLU"
  bottom: "conv4_2"
  top: "conv4_2"
}
layer {
  name: "conv4_3"
  type: "Convolution"
  bottom: "conv4_2"
  top: "conv4_3"
  param {
    lr_mult: 1
    decay_mult: 1
  }
  param {
    lr_mult: 2
    decay_mult: 0
  }
  convolution_param {
    num_output: 512
    pad: 1
    kernel_size: 3
    weight_filler {
      type: "xavier"
    }
    bias_filler {
      type: "constant"
      value: 0
    }
  }
}
layer {
  name: "relu4_3"
  type: "ReLU"
  bottom: "conv4_3"
  top: "conv4_3"
}
layer {
  name: "pool4"
  type: "Pooling"
  bottom: "conv4_3"
  top: "pool4"
  pooling_param {
    pool: MAX
    kernel_size: 2
    stride: 2
  }
}
layer {
  name: "conv5_1_depthwise"
  type: "DepthwiseConvolution"
  bottom: "pool4"
  top: "conv5_1_3x3"
  param {
    lr_mult: 1
    decay_mult: 1
  }
  param {
    lr_mult: 2
    decay_mult: 0
  }
  convolution_param {
    num_output: 512
    pad: 1
    kernel_size: 3
    group: 512
    weight_filler {
      type: "xavier"
    }
    bias_filler {
      type: "constant"
      value: 0
    }
    dilation: 1
  }
}
layer {
  name: "conv5_1_3x3_relu"
  type: "ReLU"
  bottom: "conv5_1_3x3"
  top: "conv5_1_3x3"
}
layer {
  name: "conv5_1_1x1"
  type: "Convolution"
  bottom: "conv5_1_3x3"
  top: "conv5_1"
  param {
    lr_mult: 1
    decay_mult: 1
  }
  param {
    lr_mult: 2
    decay_mult: 0
  }
  convolution_param {
    num_output: 512
    pad: 0
    kernel_size: 1
    stride: 1
    weight_filler {
      type: "xavier"
    }
    bias_filler {
      type: "constant"
      value: 0
    }
    dilation: 1
  }
}
layer {
  name: "relu5_1"
  type: "ReLU"
  bottom: "conv5_1"
  top: "conv5_1"
}
layer {
  name: "conv5_2_depthwise"
  type: "DepthwiseConvolution"
  bottom: "conv5_1"
  top: "conv5_2_3x3"
  param {
    lr_mult: 1
    decay_mult: 1
  }
  param {
    lr_mult: 2
    decay_mult: 0
  }
  convolution_param {
    num_output: 512
    pad: 1
    kernel_size: 3
    group: 512
    weight_filler {
      type: "xavier"
    }
    bias_filler {
      type: "constant"
      value: 0
    }
    dilation: 1
  }
}
layer {
  name: "conv5_2_3x3_relu"
  type: "ReLU"
  bottom: "conv5_2_3x3"
  top: "conv5_2_3x3"
}
layer {
  name: "conv5_2_1x1"
  type: "Convolution"
  bottom: "conv5_2_3x3"
  top: "conv5_2"
  param {
    lr_mult: 1
    decay_mult: 1
  }
  param {
    lr_mult: 2
    decay_mult: 0
  }
  convolution_param {
    num_output: 512
    pad: 0
    kernel_size: 1
    stride: 1
    weight_filler {
      type: "xavier"
    }
    bias_filler {
      type: "constant"
      value: 0
    }
    dilation: 1
  }
}
layer {
  name: "relu5_2"
  type: "ReLU"
  bottom: "conv5_2"
  top: "conv5_2"
}
layer {
  name: "conv5_3_depthwise"
  type: "DepthwiseConvolution"
  bottom: "conv5_2"
  top: "conv5_3_3x3"
  param {
    lr_mult: 1
    decay_mult: 1
  }
  param {
    lr_mult: 2
    decay_mult: 0
  }
  convolution_param {
    num_output: 512
    pad: 1
    kernel_size: 3
    group: 512
    weight_filler {
      type: "xavier"
    }
    bias_filler {
      type: "constant"
      value: 0
    }
    dilation: 1
  }
}
layer {
  name: "conv5_3_3x3_relu"
  type: "ReLU"
  bottom: "conv5_3_3x3"
  top: "conv5_3_3x3"
}
layer {
  name: "conv5_3_1x1"
  type: "Convolution"
  bottom: "conv5_3_3x3"
  top: "conv5_3"
  param {
    lr_mult: 1
    decay_mult: 1
  }
  param {
    lr_mult: 2
    decay_mult: 0
  }
  convolution_param {
    num_output: 512
    pad: 0
    kernel_size: 1
    stride: 1
    weight_filler {
      type: "xavier"
    }
    bias_filler {
      type: "constant"
      value: 0
    }
    dilation: 1
  }
}
layer {
  name: "relu5_3"
  type: "ReLU"
  bottom: "conv5_3"
  top: "conv5_3"
}
layer {
  name: "pool5"
  type: "Pooling"
  bottom: "conv5_3"
  top: "pool5"
  pooling_param {
    pool: MAX
    kernel_size: 3
    stride: 1
    pad: 1
  }
}
layer {
  name: "fc6_depthwise"
  type: "DepthwiseConvolution"
  bottom: "pool5"
  top: "fc6_3x3"
  param {
    lr_mult: 1
    decay_mult: 1
  }
  param {
    lr_mult: 2
    decay_mult: 0
  }
  convolution_param {
    num_output: 512
    pad: 6
    kernel_size: 3
    group: 512
    weight_filler {
      type: "xavier"
    }
    bias_filler {
      type: "constant"
      value: 0
    }
    dilation: 6
  }
}
layer {
  name: "fc6_3x3_relu"
  type: "ReLU"
  bottom: "fc6_3x3"
  top: "fc6_3x3"
}
layer {
  name: "fc6_1x1"
  type: "Convolution"
  bottom: "fc6_3x3"
  top: "fc6"
  param {
    lr_mult: 1
    decay_mult: 1
  }
  param {
    lr_mult: 2
    decay_mult: 0
  }
  convolution_param {
    num_output: 1024
    pad: 0
    kernel_size: 1
    stride: 1
    weight_filler {
      type: "xavier"
    }
    bias_filler {
      type: "constant"
      value: 0
    }
    dilation: 6
  }
}
layer {
  name: "relu6"
  type: "ReLU"
  bottom: "fc6"
  top: "fc6"
}
layer {
  name: "fc7"
  type: "Convolution"
  bottom: "fc6"
  top: "fc7"
  param {
    lr_mult: 1
    decay_mult: 1
  }
  param {
    lr_mult: 2
    decay_mult: 0
  }
  convolution_param {
    num_output: 1024
    kernel_size: 1
    weight_filler {
      type: "xavier"
    }
    bias_filler {
      type: "constant"
      value: 0
    }
  }
}
layer {
  name: "relu7"
  type: "ReLU"
  bottom: "fc7"
  top: "fc7"
}
layer {
  name: "conv6_1"
  type: "Convolution"
  bottom: "fc7"
  top: "conv6_1"
  param {
    lr_mult: 1
    decay_mult: 1
  }
  param {
    lr_mult: 2
    decay_mult: 0
  }
  convolution_param {
    num_output: 256
    pad: 0
    kernel_size: 1
    stride: 1
    weight_filler {
      type: "xavier"
    }
    bias_filler {
      type: "constant"
      value: 0
    }
  }
}
layer {
  name: "conv6_1_relu"
  type: "ReLU"
  bottom: "conv6_1"
  top: "conv6_1"
}
layer {
  name: "conv6_2"
  type: "Convolution"
  bottom: "conv6_1"
  top: "conv6_2"
  param {
    lr_mult: 1
    decay_mult: 1
  }
  param {
    lr_mult: 2
    decay_mult: 0
  }
  convolution_param {
    num_output: 512
    pad: 1
    kernel_size: 3
    stride: 2
    weight_filler {
      type: "xavier"
    }
    bias_filler {
      type: "constant"
      value: 0
    }
  }
}
layer {
  name: "conv6_2_relu"
  type: "ReLU"
  bottom: "conv6_2"
  top: "conv6_2"
}
layer {
  name: "conv7_1"
  type: "Convolution"
  bottom: "conv6_2"
  top: "conv7_1"
  param {
    lr_mult: 1
    decay_mult: 1
  }
  param {
    lr_mult: 2
    decay_mult: 0
  }
  convolution_param {
    num_output: 128
    pad: 0
    kernel_size: 1
    stride: 1
    weight_filler {
      type: "xavier"
    }
    bias_filler {
      type: "constant"
      value: 0
    }
  }
}
layer {
  name: "conv7_1_relu"
  type: "ReLU"
  bottom: "conv7_1"
  top: "conv7_1"
}
layer {
  name: "conv7_2"
  type: "Convolution"
  bottom: "conv7_1"
  top: "conv7_2"
  param {
    lr_mult: 1
    decay_mult: 1
  }
  param {
    lr_mult: 2
    decay_mult: 0
  }
  convolution_param {
    num_output: 256
    pad: 1
    kernel_size: 3
    stride: 2
    weight_filler {
      type: "xavier"
    }
    bias_filler {
      type: "constant"
      value: 0
    }
  }
}
layer {
  name: "conv7_2_relu"
  type: "ReLU"
  bottom: "conv7_2"
  top: "conv7_2"
}
layer {
  name: "conv8_1"
  type: "Convolution"
  bottom: "conv7_2"
  top: "conv8_1"
  param {
    lr_mult: 1
    decay_mult: 1
  }
  param {
    lr_mult: 2
    decay_mult: 0
  }
  convolution_param {
    num_output: 128
    pad: 0
    kernel_size: 1
    stride: 1
    weight_filler {
      type: "xavier"
    }
    bias_filler {
      type: "constant"
      value: 0
    }
  }
}
layer {
  name: "conv8_1_relu"
  type: "ReLU"
  bottom: "conv8_1"
  top: "conv8_1"
}
layer {
  name: "conv8_2"
  type: "Convolution"
  bottom: "conv8_1"
  top: "conv8_2"
  param {
    lr_mult: 1
    decay_mult: 1
  }
  param {
    lr_mult: 2
    decay_mult: 0
  }
  convolution_param {
    num_output: 256
    pad: 0
    kernel_size: 3
    stride: 1
    weight_filler {
      type: "xavier"
    }
    bias_filler {
      type: "constant"
      value: 0
    }
  }
}
layer {
  name: "conv8_2_relu"
  type: "ReLU"
  bottom: "conv8_2"
  top: "conv8_2"
}
layer {
  name: "conv9_1"
  type: "Convolution"
  bottom: "conv8_2"
  top: "conv9_1"
  param {
    lr_mult: 1
    decay_mult: 1
  }
  param {
    lr_mult: 2
    decay_mult: 0
  }
  convolution_param {
    num_output: 128
    pad: 0
    kernel_size: 1
    stride: 1
    weight_filler {
      type: "xavier"
    }
    bias_filler {
      type: "constant"
      value: 0
    }
  }
}
layer {
  name: "conv9_1_relu"
  type: "ReLU"
  bottom: "conv9_1"
  top: "conv9_1"
}
layer {
  name: "conv9_2"
  type: "Convolution"
  bottom: "conv9_1"
  top: "conv9_2"
  param {
    lr_mult: 1
    decay_mult: 1
  }
  param {
    lr_mult: 2
    decay_mult: 0
  }
  convolution_param {
    num_output: 256
    pad: 0
    kernel_size: 3
    stride: 1
    weight_filler {
      type: "xavier"
    }
    bias_filler {
      type: "constant"
      value: 0
    }
  }
}
layer {
  name: "conv9_2_relu"
  type: "ReLU"
  bottom: "conv9_2"
  top: "conv9_2"
}
layer {
  name: "conv4_3_norm"
  type: "Normalize"
  bottom: "conv4_3"
  top: "conv4_3_norm"
  norm_param {
    across_spatial: false
    scale_filler {
      type: "constant"
      value: 20
    }
    channel_shared: false
  }
}
layer {
  name: "conv4_3_norm_mbox_loc"
  type: "Convolution"
  bottom: "conv4_3_norm"
  top: "conv4_3_norm_mbox_loc"
  param {
    lr_mult: 1
    decay_mult: 1
  }
  param {
    lr_mult: 2
    decay_mult: 0
  }
  convolution_param {
    num_output: 16
    pad: 1
    kernel_size: 3
    stride: 1
    weight_filler {
      type: "xavier"
    }
    bias_filler {
      type: "constant"
      value: 0
    }
  }
}
layer {
  name: "conv4_3_norm_mbox_loc_perm"
  type: "Permute"
  bottom: "conv4_3_norm_mbox_loc"
  top: "conv4_3_norm_mbox_loc_perm"
  permute_param {
    order: 0
    order: 2
    order: 3
    order: 1
  }
}
layer {
  name: "conv4_3_norm_mbox_loc_flat"
  type: "Flatten"
  bottom: "conv4_3_norm_mbox_loc_perm"
  top: "conv4_3_norm_mbox_loc_flat"
  flatten_param {
    axis: 1
  }
}
layer {
  name: "conv4_3_norm_mbox_conf"
  type: "Convolution"
  bottom: "conv4_3_norm"
  top: "conv4_3_norm_mbox_conf"
  param {
    lr_mult: 1
    decay_mult: 1
  }
  param {
    lr_mult: 2
    decay_mult: 0
  }
  convolution_param {
    num_output: 44
    pad: 1
    kernel_size: 3
    stride: 1
    weight_filler {
      type: "xavier"
    }
    bias_filler {
      type: "constant"
      value: 0
    }
  }
}
layer {
  name: "conv4_3_norm_mbox_conf_perm"
  type: "Permute"
  bottom: "conv4_3_norm_mbox_conf"
  top: "conv4_3_norm_mbox_conf_perm"
  permute_param {
    order: 0
    order: 2
    order: 3
    order: 1
  }
}
layer {
  name: "conv4_3_norm_mbox_conf_flat"
  type: "Flatten"
  bottom: "conv4_3_norm_mbox_conf_perm"
  top: "conv4_3_norm_mbox_conf_flat"
  flatten_param {
    axis: 1
  }
}
layer {
  name: "conv4_3_norm_mbox_priorbox"
  type: "PriorBox"
  bottom: "conv4_3_norm"
  bottom: "data"
  top: "conv4_3_norm_mbox_priorbox"
  prior_box_param {
    min_size: 30
    max_size: 60
    aspect_ratio: 2
    flip: true
    clip: false
    variance: 0.1
    variance: 0.1
    variance: 0.2
    variance: 0.2
    step: 8
    offset: 0.5
  }
}
layer {
  name: "fc7_mbox_loc"
  type: "Convolution"
  bottom: "fc7"
  top: "fc7_mbox_loc"
  param {
    lr_mult: 1
    decay_mult: 1
  }
  param {
    lr_mult: 2
    decay_mult: 0
  }
  convolution_param {
    num_output: 24
    pad: 1
    kernel_size: 3
    stride: 1
    weight_filler {
      type: "xavier"
    }
    bias_filler {
      type: "constant"
      value: 0
    }
  }
}
layer {
  name: "fc7_mbox_loc_perm"
  type: "Permute"
  bottom: "fc7_mbox_loc"
  top: "fc7_mbox_loc_perm"
  permute_param {
    order: 0
    order: 2
    order: 3
    order: 1
  }
}
layer {
  name: "fc7_mbox_loc_flat"
  type: "Flatten"
  bottom: "fc7_mbox_loc_perm"
  top: "fc7_mbox_loc_flat"
  flatten_param {
    axis: 1
  }
}
layer {
  name: "fc7_mbox_conf"
  type: "Convolution"
  bottom: "fc7"
  top: "fc7_mbox_conf"
  param {
    lr_mult: 1
    decay_mult: 1
  }
  param {
    lr_mult: 2
    decay_mult: 0
  }
  convolution_param {
    num_output: 66
    pad: 1
    kernel_size: 3
    stride: 1
    weight_filler {
      type: "xavier"
    }
    bias_filler {
      type: "constant"
      value: 0
    }
  }
}
layer {
  name: "fc7_mbox_conf_perm"
  type: "Permute"
  bottom: "fc7_mbox_conf"
  top: "fc7_mbox_conf_perm"
  permute_param {
    order: 0
    order: 2
    order: 3
    order: 1
  }
}
layer {
  name: "fc7_mbox_conf_flat"
  type: "Flatten"
  bottom: "fc7_mbox_conf_perm"
  top: "fc7_mbox_conf_flat"
  flatten_param {
    axis: 1
  }
}
layer {
  name: "fc7_mbox_priorbox"
  type: "PriorBox"
  bottom: "fc7"
  bottom: "data"
  top: "fc7_mbox_priorbox"
  prior_box_param {
    min_size: 60
    max_size: 111
    aspect_ratio: 2
    aspect_ratio: 3
    flip: true
    clip: false
    variance: 0.1
    variance: 0.1
    variance: 0.2
    variance: 0.2
    step: 16
    offset: 0.5
  }
}
layer {
  name: "conv6_2_mbox_loc"
  type: "Convolution"
  bottom: "conv6_2"
  top: "conv6_2_mbox_loc"
  param {
    lr_mult: 1
    decay_mult: 1
  }
  param {
    lr_mult: 2
    decay_mult: 0
  }
  convolution_param {
    num_output: 24
    pad: 1
    kernel_size: 3
    stride: 1
    weight_filler {
      type: "xavier"
    }
    bias_filler {
      type: "constant"
      value: 0
    }
  }
}
layer {
  name: "conv6_2_mbox_loc_perm"
  type: "Permute"
  bottom: "conv6_2_mbox_loc"
  top: "conv6_2_mbox_loc_perm"
  permute_param {
    order: 0
    order: 2
    order: 3
    order: 1
  }
}
layer {
  name: "conv6_2_mbox_loc_flat"
  type: "Flatten"
  bottom: "conv6_2_mbox_loc_perm"
  top: "conv6_2_mbox_loc_flat"
  flatten_param {
    axis: 1
  }
}
layer {
  name: "conv6_2_mbox_conf"
  type: "Convolution"
  bottom: "conv6_2"
  top: "conv6_2_mbox_conf"
  param {
    lr_mult: 1
    decay_mult: 1
  }
  param {
    lr_mult: 2
    decay_mult: 0
  }
  convolution_param {
    num_output: 66
    pad: 1
    kernel_size: 3
    stride: 1
    weight_filler {
      type: "xavier"
    }
    bias_filler {
      type: "constant"
      value: 0
    }
  }
}
layer {
  name: "conv6_2_mbox_conf_perm"
  type: "Permute"
  bottom: "conv6_2_mbox_conf"
  top: "conv6_2_mbox_conf_perm"
  permute_param {
    order: 0
    order: 2
    order: 3
    order: 1
  }
}
layer {
  name: "conv6_2_mbox_conf_flat"
  type: "Flatten"
  bottom: "conv6_2_mbox_conf_perm"
  top: "conv6_2_mbox_conf_flat"
  flatten_param {
    axis: 1
  }
}
layer {
  name: "conv6_2_mbox_priorbox"
  type: "PriorBox"
  bottom: "conv6_2"
  bottom: "data"
  top: "conv6_2_mbox_priorbox"
  prior_box_param {
    min_size: 111
    max_size: 162
    aspect_ratio: 2
    aspect_ratio: 3
    flip: true
    clip: false
    variance: 0.1
    variance: 0.1
    variance: 0.2
    variance: 0.2
    step: 32
    offset: 0.5
  }
}
layer {
  name: "conv7_2_mbox_loc"
  type: "Convolution"
  bottom: "conv7_2"
  top: "conv7_2_mbox_loc"
  param {
    lr_mult: 1
    decay_mult: 1
  }
  param {
    lr_mult: 2
    decay_mult: 0
  }
  convolution_param {
    num_output: 24
    pad: 1
    kernel_size: 3
    stride: 1
    weight_filler {
      type: "xavier"
    }
    bias_filler {
      type: "constant"
      value: 0
    }
  }
}
layer {
  name: "conv7_2_mbox_loc_perm"
  type: "Permute"
  bottom: "conv7_2_mbox_loc"
  top: "conv7_2_mbox_loc_perm"
  permute_param {
    order: 0
    order: 2
    order: 3
    order: 1
  }
}
layer {
  name: "conv7_2_mbox_loc_flat"
  type: "Flatten"
  bottom: "conv7_2_mbox_loc_perm"
  top: "conv7_2_mbox_loc_flat"
  flatten_param {
    axis: 1
  }
}
layer {
  name: "conv7_2_mbox_conf"
  type: "Convolution"
  bottom: "conv7_2"
  top: "conv7_2_mbox_conf"
  param {
    lr_mult: 1
    decay_mult: 1
  }
  param {
    lr_mult: 2
    decay_mult: 0
  }
  convolution_param {
    num_output: 66
    pad: 1
    kernel_size: 3
    stride: 1
    weight_filler {
      type: "xavier"
    }
    bias_filler {
      type: "constant"
      value: 0
    }
  }
}
layer {
  name: "conv7_2_mbox_conf_perm"
  type: "Permute"
  bottom: "conv7_2_mbox_conf"
  top: "conv7_2_mbox_conf_perm"
  permute_param {
    order: 0
    order: 2
    order: 3
    order: 1
  }
}
layer {
  name: "conv7_2_mbox_conf_flat"
  type: "Flatten"
  bottom: "conv7_2_mbox_conf_perm"
  top: "conv7_2_mbox_conf_flat"
  flatten_param {
    axis: 1
  }
}
layer {
  name: "conv7_2_mbox_priorbox"
  type: "PriorBox"
  bottom: "conv7_2"
  bottom: "data"
  top: "conv7_2_mbox_priorbox"
  prior_box_param {
    min_size: 162
    max_size: 213
    aspect_ratio: 2
    aspect_ratio: 3
    flip: true
    clip: false
    variance: 0.1
    variance: 0.1
    variance: 0.2
    variance: 0.2
    step: 64
    offset: 0.5
  }
}
layer {
  name: "conv8_2_mbox_loc"
  type: "Convolution"
  bottom: "conv8_2"
  top: "conv8_2_mbox_loc"
  param {
    lr_mult: 1
    decay_mult: 1
  }
  param {
    lr_mult: 2
    decay_mult: 0
  }
  convolution_param {
    num_output: 16
    pad: 1
    kernel_size: 3
    stride: 1
    weight_filler {
      type: "xavier"
    }
    bias_filler {
      type: "constant"
      value: 0
    }
  }
}
layer {
  name: "conv8_2_mbox_loc_perm"
  type: "Permute"
  bottom: "conv8_2_mbox_loc"
  top: "conv8_2_mbox_loc_perm"
  permute_param {
    order: 0
    order: 2
    order: 3
    order: 1
  }
}
layer {
  name: "conv8_2_mbox_loc_flat"
  type: "Flatten"
  bottom: "conv8_2_mbox_loc_perm"
  top: "conv8_2_mbox_loc_flat"
  flatten_param {
    axis: 1
  }
}
layer {
  name: "conv8_2_mbox_conf"
  type: "Convolution"
  bottom: "conv8_2"
  top: "conv8_2_mbox_conf"
  param {
    lr_mult: 1
    decay_mult: 1
  }
  param {
    lr_mult: 2
    decay_mult: 0
  }
  convolution_param {
    num_output: 44
    pad: 1
    kernel_size: 3
    stride: 1
    weight_filler {
      type: "xavier"
    }
    bias_filler {
      type: "constant"
      value: 0
    }
  }
}
layer {
  name: "conv8_2_mbox_conf_perm"
  type: "Permute"
  bottom: "conv8_2_mbox_conf"
  top: "conv8_2_mbox_conf_perm"
  permute_param {
    order: 0
    order: 2
    order: 3
    order: 1
  }
}
layer {
  name: "conv8_2_mbox_conf_flat"
  type: "Flatten"
  bottom: "conv8_2_mbox_conf_perm"
  top: "conv8_2_mbox_conf_flat"
  flatten_param {
    axis: 1
  }
}
layer {
  name: "conv8_2_mbox_priorbox"
  type: "PriorBox"
  bottom: "conv8_2"
  bottom: "data"
  top: "conv8_2_mbox_priorbox"
  prior_box_param {
    min_size: 213
    max_size: 264
    aspect_ratio: 2
    flip: true
    clip: false
    variance: 0.1
    variance: 0.1
    variance: 0.2
    variance: 0.2
    step: 100
    offset: 0.5
  }
}
layer {
  name: "conv9_2_mbox_loc"
  type: "Convolution"
  bottom: "conv9_2"
  top: "conv9_2_mbox_loc"
  param {
    lr_mult: 1
    decay_mult: 1
  }
  param {
    lr_mult: 2
    decay_mult: 0
  }
  convolution_param {
    num_output: 16
    pad: 1
    kernel_size: 3
    stride: 1
    weight_filler {
      type: "xavier"
    }
    bias_filler {
      type: "constant"
      value: 0
    }
  }
}
layer {
  name: "conv9_2_mbox_loc_perm"
  type: "Permute"
  bottom: "conv9_2_mbox_loc"
  top: "conv9_2_mbox_loc_perm"
  permute_param {
    order: 0
    order: 2
    order: 3
    order: 1
  }
}
layer {
  name: "conv9_2_mbox_loc_flat"
  type: "Flatten"
  bottom: "conv9_2_mbox_loc_perm"
  top: "conv9_2_mbox_loc_flat"
  flatten_param {
    axis: 1
  }
}
layer {
  name: "conv9_2_mbox_conf"
  type: "Convolution"
  bottom: "conv9_2"
  top: "conv9_2_mbox_conf"
  param {
    lr_mult: 1
    decay_mult: 1
  }
  param {
    lr_mult: 2
    decay_mult: 0
  }
  convolution_param {
    num_output: 44
    pad: 1
    kernel_size: 3
    stride: 1
    weight_filler {
      type: "xavier"
    }
    bias_filler {
      type: "constant"
      value: 0
    }
  }
}
layer {
  name: "conv9_2_mbox_conf_perm"
  type: "Permute"
  bottom: "conv9_2_mbox_conf"
  top: "conv9_2_mbox_conf_perm"
  permute_param {
    order: 0
    order: 2
    order: 3
    order: 1
  }
}
layer {
  name: "conv9_2_mbox_conf_flat"
  type: "Flatten"
  bottom: "conv9_2_mbox_conf_perm"
  top: "conv9_2_mbox_conf_flat"
  flatten_param {
    axis: 1
  }
}
layer {
  name: "conv9_2_mbox_priorbox"
  type: "PriorBox"
  bottom: "conv9_2"
  bottom: "data"
  top: "conv9_2_mbox_priorbox"
  prior_box_param {
    min_size: 264
    max_size: 315
    aspect_ratio: 2
    flip: true
    clip: false
    variance: 0.1
    variance: 0.1
    variance: 0.2
    variance: 0.2
    step: 300
    offset: 0.5
  }
}
layer {
  name: "mbox_loc"
  type: "Concat"
  bottom: "conv4_3_norm_mbox_loc_flat"
  bottom: "fc7_mbox_loc_flat"
  bottom: "conv6_2_mbox_loc_flat"
  bottom: "conv7_2_mbox_loc_flat"
  bottom: "conv8_2_mbox_loc_flat"
  bottom: "conv9_2_mbox_loc_flat"
  top: "mbox_loc"
  concat_param {
    axis: 1
  }
}
layer {
  name: "mbox_conf"
  type: "Concat"
  bottom: "conv4_3_norm_mbox_conf_flat"
  bottom: "fc7_mbox_conf_flat"
  bottom: "conv6_2_mbox_conf_flat"
  bottom: "conv7_2_mbox_conf_flat"
  bottom: "conv8_2_mbox_conf_flat"
  bottom: "conv9_2_mbox_conf_flat"
  top: "mbox_conf"
  concat_param {
    axis: 1
  }
}
layer {
  name: "mbox_priorbox"
  type: "Concat"
  bottom: "conv4_3_norm_mbox_priorbox"
  bottom: "fc7_mbox_priorbox"
  bottom: "conv6_2_mbox_priorbox"
  bottom: "conv7_2_mbox_priorbox"
  bottom: "conv8_2_mbox_priorbox"
  bottom: "conv9_2_mbox_priorbox"
  top: "mbox_priorbox"
  concat_param {
    axis: 2
  }
}
layer {
  name: "mbox_conf_reshape"
  type: "Reshape"
  bottom: "mbox_conf"
  top: "mbox_conf_reshape"
  reshape_param {
    shape {
      dim: 0
      dim: -1
      dim: 11
    }
  }
}
layer {
  name: "mbox_conf_softmax"
  type: "Softmax"
  bottom: "mbox_conf_reshape"
  top: "mbox_conf_softmax"
  softmax_param {
    axis: 2
  }
}
layer {
  name: "mbox_conf_flatten"
  type: "Flatten"
  bottom: "mbox_conf_softmax"
  top: "mbox_conf_flatten"
  flatten_param {
    axis: 1
  }
}
layer {
  name: "detection_out"
  type: "DetectionOutput"
  bottom: "mbox_loc"
  bottom: "mbox_conf_flatten"
  bottom: "mbox_priorbox"
  top: "detection_out"
  include {
    phase: TEST
  }
  detection_output_param {
    num_classes: 11
    share_location: true
    background_label_id: 0
    nms_param {
      nms_threshold: 0.45
      top_k: 400
    }
    save_output_param {
      output_directory: "/home/zs/data/VOCdevkit/results/VOC2007/SSD_300x300_0322_conv4_2/Main"
      output_name_prefix: "comp4_det_test_"
      output_format: "VOC"
      label_map_file: "data/NWPU_VHR/labelmap_NWPU_VHR.prototxt"
      name_size_file: "data/NWPU_VHR/test_name_size.txt"
      num_test_image: 123
    }
    code_type: CENTER_SIZE
    keep_top_k: 200
    confidence_threshold: 0.01
  }
}
layer {
  name: "detection_eval"
  type: "DetectionEvaluate"
  bottom: "detection_out"
  bottom: "label"
  top: "detection_eval"
  include {
    phase: TEST
  }
  detection_evaluate_param {
    num_classes: 11
    background_label_id: 0
    overlap_threshold: 0.5
    evaluate_difficult_gt: false
    name_size_file: "data/NWPU_VHR/test_name_size.txt"
  }
}
I0322 09:50:25.346530 30568 layer_factory.hpp:77] Creating layer data
I0322 09:50:25.346595 30568 net.cpp:100] Creating Layer data
I0322 09:50:25.346604 30568 net.cpp:408] data -> data
I0322 09:50:25.346616 30568 net.cpp:408] data -> label
I0322 09:50:25.347401 30585 db_lmdb.cpp:35] Opened lmdb examples/NWPU_VHR/NWPU_VHR_test_lmdb
I0322 09:50:25.356314 30568 annotated_data_layer.cpp:62] output data size: 1,3,300,300
I0322 09:50:25.359992 30568 net.cpp:150] Setting up data
I0322 09:50:25.360011 30568 net.cpp:157] Top shape: 1 3 300 300 (270000)
I0322 09:50:25.360019 30568 net.cpp:157] Top shape: 1 1 4 8 (32)
I0322 09:50:25.360023 30568 net.cpp:165] Memory required for data: 1080128
I0322 09:50:25.360031 30568 layer_factory.hpp:77] Creating layer data_data_0_split
I0322 09:50:25.360049 30568 net.cpp:100] Creating Layer data_data_0_split
I0322 09:50:25.360055 30568 net.cpp:434] data_data_0_split <- data
I0322 09:50:25.360065 30568 net.cpp:408] data_data_0_split -> data_data_0_split_0
I0322 09:50:25.360080 30568 net.cpp:408] data_data_0_split -> data_data_0_split_1
I0322 09:50:25.360090 30568 net.cpp:408] data_data_0_split -> data_data_0_split_2
I0322 09:50:25.360100 30568 net.cpp:408] data_data_0_split -> data_data_0_split_3
I0322 09:50:25.360108 30568 net.cpp:408] data_data_0_split -> data_data_0_split_4
I0322 09:50:25.360116 30568 net.cpp:408] data_data_0_split -> data_data_0_split_5
I0322 09:50:25.360126 30568 net.cpp:408] data_data_0_split -> data_data_0_split_6
I0322 09:50:25.360244 30568 net.cpp:150] Setting up data_data_0_split
I0322 09:50:25.360255 30568 net.cpp:157] Top shape: 1 3 300 300 (270000)
I0322 09:50:25.360260 30568 net.cpp:157] Top shape: 1 3 300 300 (270000)
I0322 09:50:25.360267 30568 net.cpp:157] Top shape: 1 3 300 300 (270000)
I0322 09:50:25.360275 30568 net.cpp:157] Top shape: 1 3 300 300 (270000)
I0322 09:50:25.360280 30568 net.cpp:157] Top shape: 1 3 300 300 (270000)
I0322 09:50:25.360286 30568 net.cpp:157] Top shape: 1 3 300 300 (270000)
I0322 09:50:25.360296 30568 net.cpp:157] Top shape: 1 3 300 300 (270000)
I0322 09:50:25.360299 30568 net.cpp:165] Memory required for data: 8640128
I0322 09:50:25.360306 30568 layer_factory.hpp:77] Creating layer conv1_1
I0322 09:50:25.360321 30568 net.cpp:100] Creating Layer conv1_1
I0322 09:50:25.360327 30568 net.cpp:434] conv1_1 <- data_data_0_split_0
I0322 09:50:25.360337 30568 net.cpp:408] conv1_1 -> conv1_1
I0322 09:50:25.362269 30568 net.cpp:150] Setting up conv1_1
I0322 09:50:25.362283 30568 net.cpp:157] Top shape: 1 64 300 300 (5760000)
I0322 09:50:25.362289 30568 net.cpp:165] Memory required for data: 31680128
I0322 09:50:25.362304 30568 layer_factory.hpp:77] Creating layer relu1_1
I0322 09:50:25.362313 30568 net.cpp:100] Creating Layer relu1_1
I0322 09:50:25.362318 30568 net.cpp:434] relu1_1 <- conv1_1
I0322 09:50:25.362326 30568 net.cpp:395] relu1_1 -> conv1_1 (in-place)
I0322 09:50:25.362493 30568 net.cpp:150] Setting up relu1_1
I0322 09:50:25.362504 30568 net.cpp:157] Top shape: 1 64 300 300 (5760000)
I0322 09:50:25.362521 30568 net.cpp:165] Memory required for data: 54720128
I0322 09:50:25.362529 30568 layer_factory.hpp:77] Creating layer conv1_2
I0322 09:50:25.362542 30568 net.cpp:100] Creating Layer conv1_2
I0322 09:50:25.362548 30568 net.cpp:434] conv1_2 <- conv1_1
I0322 09:50:25.362556 30568 net.cpp:408] conv1_2 -> conv1_2
I0322 09:50:25.363989 30568 net.cpp:150] Setting up conv1_2
I0322 09:50:25.364002 30568 net.cpp:157] Top shape: 1 64 300 300 (5760000)
I0322 09:50:25.364007 30568 net.cpp:165] Memory required for data: 77760128
I0322 09:50:25.364017 30568 layer_factory.hpp:77] Creating layer relu1_2
I0322 09:50:25.364027 30568 net.cpp:100] Creating Layer relu1_2
I0322 09:50:25.364032 30568 net.cpp:434] relu1_2 <- conv1_2
I0322 09:50:25.364040 30568 net.cpp:395] relu1_2 -> conv1_2 (in-place)
I0322 09:50:25.364717 30568 net.cpp:150] Setting up relu1_2
I0322 09:50:25.364730 30568 net.cpp:157] Top shape: 1 64 300 300 (5760000)
I0322 09:50:25.364734 30568 net.cpp:165] Memory required for data: 100800128
I0322 09:50:25.364740 30568 layer_factory.hpp:77] Creating layer pool1
I0322 09:50:25.364749 30568 net.cpp:100] Creating Layer pool1
I0322 09:50:25.364756 30568 net.cpp:434] pool1 <- conv1_2
I0322 09:50:25.364764 30568 net.cpp:408] pool1 -> pool1
I0322 09:50:25.364814 30568 net.cpp:150] Setting up pool1
I0322 09:50:25.364822 30568 net.cpp:157] Top shape: 1 64 150 150 (1440000)
I0322 09:50:25.364827 30568 net.cpp:165] Memory required for data: 106560128
I0322 09:50:25.364832 30568 layer_factory.hpp:77] Creating layer conv2_1
I0322 09:50:25.364843 30568 net.cpp:100] Creating Layer conv2_1
I0322 09:50:25.364850 30568 net.cpp:434] conv2_1 <- pool1
I0322 09:50:25.364859 30568 net.cpp:408] conv2_1 -> conv2_1
I0322 09:50:25.366891 30568 net.cpp:150] Setting up conv2_1
I0322 09:50:25.366904 30568 net.cpp:157] Top shape: 1 128 150 150 (2880000)
I0322 09:50:25.366909 30568 net.cpp:165] Memory required for data: 118080128
I0322 09:50:25.366922 30568 layer_factory.hpp:77] Creating layer relu2_1
I0322 09:50:25.366932 30568 net.cpp:100] Creating Layer relu2_1
I0322 09:50:25.366938 30568 net.cpp:434] relu2_1 <- conv2_1
I0322 09:50:25.366947 30568 net.cpp:395] relu2_1 -> conv2_1 (in-place)
I0322 09:50:25.367115 30568 net.cpp:150] Setting up relu2_1
I0322 09:50:25.367125 30568 net.cpp:157] Top shape: 1 128 150 150 (2880000)
I0322 09:50:25.367130 30568 net.cpp:165] Memory required for data: 129600128
I0322 09:50:25.367136 30568 layer_factory.hpp:77] Creating layer conv2_2
I0322 09:50:25.367147 30568 net.cpp:100] Creating Layer conv2_2
I0322 09:50:25.367154 30568 net.cpp:434] conv2_2 <- conv2_1
I0322 09:50:25.367162 30568 net.cpp:408] conv2_2 -> conv2_2
I0322 09:50:25.369508 30568 net.cpp:150] Setting up conv2_2
I0322 09:50:25.369521 30568 net.cpp:157] Top shape: 1 128 150 150 (2880000)
I0322 09:50:25.369526 30568 net.cpp:165] Memory required for data: 141120128
I0322 09:50:25.369535 30568 layer_factory.hpp:77] Creating layer relu2_2
I0322 09:50:25.369545 30568 net.cpp:100] Creating Layer relu2_2
I0322 09:50:25.369552 30568 net.cpp:434] relu2_2 <- conv2_2
I0322 09:50:25.369560 30568 net.cpp:395] relu2_2 -> conv2_2 (in-place)
I0322 09:50:25.369736 30568 net.cpp:150] Setting up relu2_2
I0322 09:50:25.369747 30568 net.cpp:157] Top shape: 1 128 150 150 (2880000)
I0322 09:50:25.369752 30568 net.cpp:165] Memory required for data: 152640128
I0322 09:50:25.369760 30568 layer_factory.hpp:77] Creating layer pool2
I0322 09:50:25.369767 30568 net.cpp:100] Creating Layer pool2
I0322 09:50:25.369773 30568 net.cpp:434] pool2 <- conv2_2
I0322 09:50:25.369781 30568 net.cpp:408] pool2 -> pool2
I0322 09:50:25.369829 30568 net.cpp:150] Setting up pool2
I0322 09:50:25.369838 30568 net.cpp:157] Top shape: 1 128 75 75 (720000)
I0322 09:50:25.369843 30568 net.cpp:165] Memory required for data: 155520128
I0322 09:50:25.369849 30568 layer_factory.hpp:77] Creating layer conv3_1
I0322 09:50:25.369861 30568 net.cpp:100] Creating Layer conv3_1
I0322 09:50:25.369868 30568 net.cpp:434] conv3_1 <- pool2
I0322 09:50:25.369875 30568 net.cpp:408] conv3_1 -> conv3_1
I0322 09:50:25.373634 30568 net.cpp:150] Setting up conv3_1
I0322 09:50:25.373649 30568 net.cpp:157] Top shape: 1 256 75 75 (1440000)
I0322 09:50:25.373654 30568 net.cpp:165] Memory required for data: 161280128
I0322 09:50:25.373668 30568 layer_factory.hpp:77] Creating layer relu3_1
I0322 09:50:25.373680 30568 net.cpp:100] Creating Layer relu3_1
I0322 09:50:25.373687 30568 net.cpp:434] relu3_1 <- conv3_1
I0322 09:50:25.373695 30568 net.cpp:395] relu3_1 -> conv3_1 (in-place)
I0322 09:50:25.374393 30568 net.cpp:150] Setting up relu3_1
I0322 09:50:25.374406 30568 net.cpp:157] Top shape: 1 256 75 75 (1440000)
I0322 09:50:25.374411 30568 net.cpp:165] Memory required for data: 167040128
I0322 09:50:25.374418 30568 layer_factory.hpp:77] Creating layer conv3_2
I0322 09:50:25.374429 30568 net.cpp:100] Creating Layer conv3_2
I0322 09:50:25.374438 30568 net.cpp:434] conv3_2 <- conv3_1
I0322 09:50:25.374447 30568 net.cpp:408] conv3_2 -> conv3_2
I0322 09:50:25.379550 30568 net.cpp:150] Setting up conv3_2
I0322 09:50:25.379568 30568 net.cpp:157] Top shape: 1 256 75 75 (1440000)
I0322 09:50:25.379575 30568 net.cpp:165] Memory required for data: 172800128
I0322 09:50:25.379585 30568 layer_factory.hpp:77] Creating layer relu3_2
I0322 09:50:25.379596 30568 net.cpp:100] Creating Layer relu3_2
I0322 09:50:25.379603 30568 net.cpp:434] relu3_2 <- conv3_2
I0322 09:50:25.379612 30568 net.cpp:395] relu3_2 -> conv3_2 (in-place)
I0322 09:50:25.379777 30568 net.cpp:150] Setting up relu3_2
I0322 09:50:25.379787 30568 net.cpp:157] Top shape: 1 256 75 75 (1440000)
I0322 09:50:25.379791 30568 net.cpp:165] Memory required for data: 178560128
I0322 09:50:25.379797 30568 layer_factory.hpp:77] Creating layer conv3_3
I0322 09:50:25.379813 30568 net.cpp:100] Creating Layer conv3_3
I0322 09:50:25.379819 30568 net.cpp:434] conv3_3 <- conv3_2
I0322 09:50:25.379828 30568 net.cpp:408] conv3_3 -> conv3_3
I0322 09:50:25.385016 30568 net.cpp:150] Setting up conv3_3
I0322 09:50:25.385036 30568 net.cpp:157] Top shape: 1 256 75 75 (1440000)
I0322 09:50:25.385040 30568 net.cpp:165] Memory required for data: 184320128
I0322 09:50:25.385051 30568 layer_factory.hpp:77] Creating layer relu3_3
I0322 09:50:25.385062 30568 net.cpp:100] Creating Layer relu3_3
I0322 09:50:25.385069 30568 net.cpp:434] relu3_3 <- conv3_3
I0322 09:50:25.385077 30568 net.cpp:395] relu3_3 -> conv3_3 (in-place)
I0322 09:50:25.385246 30568 net.cpp:150] Setting up relu3_3
I0322 09:50:25.385258 30568 net.cpp:157] Top shape: 1 256 75 75 (1440000)
I0322 09:50:25.385262 30568 net.cpp:165] Memory required for data: 190080128
I0322 09:50:25.385267 30568 layer_factory.hpp:77] Creating layer pool3
I0322 09:50:25.385277 30568 net.cpp:100] Creating Layer pool3
I0322 09:50:25.385282 30568 net.cpp:434] pool3 <- conv3_3
I0322 09:50:25.385290 30568 net.cpp:408] pool3 -> pool3
I0322 09:50:25.385344 30568 net.cpp:150] Setting up pool3
I0322 09:50:25.385352 30568 net.cpp:157] Top shape: 1 256 38 38 (369664)
I0322 09:50:25.385359 30568 net.cpp:165] Memory required for data: 191558784
I0322 09:50:25.385363 30568 layer_factory.hpp:77] Creating layer conv4_1
I0322 09:50:25.385376 30568 net.cpp:100] Creating Layer conv4_1
I0322 09:50:25.385382 30568 net.cpp:434] conv4_1 <- pool3
I0322 09:50:25.385391 30568 net.cpp:408] conv4_1 -> conv4_1
I0322 09:50:25.393551 30568 net.cpp:150] Setting up conv4_1
I0322 09:50:25.393570 30568 net.cpp:157] Top shape: 1 512 38 38 (739328)
I0322 09:50:25.393575 30568 net.cpp:165] Memory required for data: 194516096
I0322 09:50:25.393587 30568 layer_factory.hpp:77] Creating layer relu4_1
I0322 09:50:25.393596 30568 net.cpp:100] Creating Layer relu4_1
I0322 09:50:25.393604 30568 net.cpp:434] relu4_1 <- conv4_1
I0322 09:50:25.393611 30568 net.cpp:395] relu4_1 -> conv4_1 (in-place)
I0322 09:50:25.394340 30568 net.cpp:150] Setting up relu4_1
I0322 09:50:25.394351 30568 net.cpp:157] Top shape: 1 512 38 38 (739328)
I0322 09:50:25.394356 30568 net.cpp:165] Memory required for data: 197473408
I0322 09:50:25.394361 30568 layer_factory.hpp:77] Creating layer conv4_2_depthwise
I0322 09:50:25.394376 30568 net.cpp:100] Creating Layer conv4_2_depthwise
I0322 09:50:25.394395 30568 net.cpp:434] conv4_2_depthwise <- conv4_1
I0322 09:50:25.394404 30568 net.cpp:408] conv4_2_depthwise -> conv4_2_3x3
I0322 09:50:25.394678 30568 net.cpp:150] Setting up conv4_2_depthwise
I0322 09:50:25.394688 30568 net.cpp:157] Top shape: 1 512 38 38 (739328)
I0322 09:50:25.394693 30568 net.cpp:165] Memory required for data: 200430720
I0322 09:50:25.394706 30568 layer_factory.hpp:77] Creating layer conv4_2_3x3_relu
I0322 09:50:25.394714 30568 net.cpp:100] Creating Layer conv4_2_3x3_relu
I0322 09:50:25.394721 30568 net.cpp:434] conv4_2_3x3_relu <- conv4_2_3x3
I0322 09:50:25.394728 30568 net.cpp:395] conv4_2_3x3_relu -> conv4_2_3x3 (in-place)
I0322 09:50:25.394893 30568 net.cpp:150] Setting up conv4_2_3x3_relu
I0322 09:50:25.394902 30568 net.cpp:157] Top shape: 1 512 38 38 (739328)
I0322 09:50:25.394907 30568 net.cpp:165] Memory required for data: 203388032
I0322 09:50:25.394912 30568 layer_factory.hpp:77] Creating layer conv4_2_1x1
I0322 09:50:25.394925 30568 net.cpp:100] Creating Layer conv4_2_1x1
I0322 09:50:25.394930 30568 net.cpp:434] conv4_2_1x1 <- conv4_2_3x3
I0322 09:50:25.394939 30568 net.cpp:408] conv4_2_1x1 -> conv4_2
I0322 09:50:25.398118 30568 net.cpp:150] Setting up conv4_2_1x1
I0322 09:50:25.398131 30568 net.cpp:157] Top shape: 1 512 38 38 (739328)
I0322 09:50:25.398136 30568 net.cpp:165] Memory required for data: 206345344
I0322 09:50:25.398146 30568 layer_factory.hpp:77] Creating layer relu4_2
I0322 09:50:25.398155 30568 net.cpp:100] Creating Layer relu4_2
I0322 09:50:25.398161 30568 net.cpp:434] relu4_2 <- conv4_2
I0322 09:50:25.398169 30568 net.cpp:395] relu4_2 -> conv4_2 (in-place)
I0322 09:50:25.398334 30568 net.cpp:150] Setting up relu4_2
I0322 09:50:25.398342 30568 net.cpp:157] Top shape: 1 512 38 38 (739328)
I0322 09:50:25.398346 30568 net.cpp:165] Memory required for data: 209302656
I0322 09:50:25.398351 30568 layer_factory.hpp:77] Creating layer conv4_3
I0322 09:50:25.398365 30568 net.cpp:100] Creating Layer conv4_3
I0322 09:50:25.398370 30568 net.cpp:434] conv4_3 <- conv4_2
I0322 09:50:25.398378 30568 net.cpp:408] conv4_3 -> conv4_3
I0322 09:50:25.412462 30568 net.cpp:150] Setting up conv4_3
I0322 09:50:25.412488 30568 net.cpp:157] Top shape: 1 512 38 38 (739328)
I0322 09:50:25.412492 30568 net.cpp:165] Memory required for data: 212259968
I0322 09:50:25.412503 30568 layer_factory.hpp:77] Creating layer relu4_3
I0322 09:50:25.412514 30568 net.cpp:100] Creating Layer relu4_3
I0322 09:50:25.412523 30568 net.cpp:434] relu4_3 <- conv4_3
I0322 09:50:25.412537 30568 net.cpp:395] relu4_3 -> conv4_3 (in-place)
I0322 09:50:25.412706 30568 net.cpp:150] Setting up relu4_3
I0322 09:50:25.412716 30568 net.cpp:157] Top shape: 1 512 38 38 (739328)
I0322 09:50:25.412721 30568 net.cpp:165] Memory required for data: 215217280
I0322 09:50:25.412726 30568 layer_factory.hpp:77] Creating layer conv4_3_relu4_3_0_split
I0322 09:50:25.412735 30568 net.cpp:100] Creating Layer conv4_3_relu4_3_0_split
I0322 09:50:25.412741 30568 net.cpp:434] conv4_3_relu4_3_0_split <- conv4_3
I0322 09:50:25.412751 30568 net.cpp:408] conv4_3_relu4_3_0_split -> conv4_3_relu4_3_0_split_0
I0322 09:50:25.412760 30568 net.cpp:408] conv4_3_relu4_3_0_split -> conv4_3_relu4_3_0_split_1
I0322 09:50:25.412811 30568 net.cpp:150] Setting up conv4_3_relu4_3_0_split
I0322 09:50:25.412818 30568 net.cpp:157] Top shape: 1 512 38 38 (739328)
I0322 09:50:25.412825 30568 net.cpp:157] Top shape: 1 512 38 38 (739328)
I0322 09:50:25.412829 30568 net.cpp:165] Memory required for data: 221131904
I0322 09:50:25.412835 30568 layer_factory.hpp:77] Creating layer pool4
I0322 09:50:25.412843 30568 net.cpp:100] Creating Layer pool4
I0322 09:50:25.412849 30568 net.cpp:434] pool4 <- conv4_3_relu4_3_0_split_0
I0322 09:50:25.412858 30568 net.cpp:408] pool4 -> pool4
I0322 09:50:25.412902 30568 net.cpp:150] Setting up pool4
I0322 09:50:25.412910 30568 net.cpp:157] Top shape: 1 512 19 19 (184832)
I0322 09:50:25.412915 30568 net.cpp:165] Memory required for data: 221871232
I0322 09:50:25.412920 30568 layer_factory.hpp:77] Creating layer conv5_1_depthwise
I0322 09:50:25.412946 30568 net.cpp:100] Creating Layer conv5_1_depthwise
I0322 09:50:25.412955 30568 net.cpp:434] conv5_1_depthwise <- pool4
I0322 09:50:25.412962 30568 net.cpp:408] conv5_1_depthwise -> conv5_1_3x3
I0322 09:50:25.413230 30568 net.cpp:150] Setting up conv5_1_depthwise
I0322 09:50:25.413239 30568 net.cpp:157] Top shape: 1 512 19 19 (184832)
I0322 09:50:25.413244 30568 net.cpp:165] Memory required for data: 222610560
I0322 09:50:25.413252 30568 layer_factory.hpp:77] Creating layer conv5_1_3x3_relu
I0322 09:50:25.413260 30568 net.cpp:100] Creating Layer conv5_1_3x3_relu
I0322 09:50:25.413265 30568 net.cpp:434] conv5_1_3x3_relu <- conv5_1_3x3
I0322 09:50:25.413272 30568 net.cpp:395] conv5_1_3x3_relu -> conv5_1_3x3 (in-place)
I0322 09:50:25.413992 30568 net.cpp:150] Setting up conv5_1_3x3_relu
I0322 09:50:25.414005 30568 net.cpp:157] Top shape: 1 512 19 19 (184832)
I0322 09:50:25.414010 30568 net.cpp:165] Memory required for data: 223349888
I0322 09:50:25.414016 30568 layer_factory.hpp:77] Creating layer conv5_1_1x1
I0322 09:50:25.414028 30568 net.cpp:100] Creating Layer conv5_1_1x1
I0322 09:50:25.414034 30568 net.cpp:434] conv5_1_1x1 <- conv5_1_3x3
I0322 09:50:25.414043 30568 net.cpp:408] conv5_1_1x1 -> conv5_1
I0322 09:50:25.416415 30568 net.cpp:150] Setting up conv5_1_1x1
I0322 09:50:25.416430 30568 net.cpp:157] Top shape: 1 512 19 19 (184832)
I0322 09:50:25.416435 30568 net.cpp:165] Memory required for data: 224089216
I0322 09:50:25.416445 30568 layer_factory.hpp:77] Creating layer relu5_1
I0322 09:50:25.416460 30568 net.cpp:100] Creating Layer relu5_1
I0322 09:50:25.416466 30568 net.cpp:434] relu5_1 <- conv5_1
I0322 09:50:25.416473 30568 net.cpp:395] relu5_1 -> conv5_1 (in-place)
I0322 09:50:25.416643 30568 net.cpp:150] Setting up relu5_1
I0322 09:50:25.416653 30568 net.cpp:157] Top shape: 1 512 19 19 (184832)
I0322 09:50:25.416658 30568 net.cpp:165] Memory required for data: 224828544
I0322 09:50:25.416663 30568 layer_factory.hpp:77] Creating layer conv5_2_depthwise
I0322 09:50:25.416676 30568 net.cpp:100] Creating Layer conv5_2_depthwise
I0322 09:50:25.416683 30568 net.cpp:434] conv5_2_depthwise <- conv5_1
I0322 09:50:25.416697 30568 net.cpp:408] conv5_2_depthwise -> conv5_2_3x3
I0322 09:50:25.416960 30568 net.cpp:150] Setting up conv5_2_depthwise
I0322 09:50:25.416970 30568 net.cpp:157] Top shape: 1 512 19 19 (184832)
I0322 09:50:25.416973 30568 net.cpp:165] Memory required for data: 225567872
I0322 09:50:25.416982 30568 layer_factory.hpp:77] Creating layer conv5_2_3x3_relu
I0322 09:50:25.416990 30568 net.cpp:100] Creating Layer conv5_2_3x3_relu
I0322 09:50:25.416996 30568 net.cpp:434] conv5_2_3x3_relu <- conv5_2_3x3
I0322 09:50:25.417002 30568 net.cpp:395] conv5_2_3x3_relu -> conv5_2_3x3 (in-place)
I0322 09:50:25.417171 30568 net.cpp:150] Setting up conv5_2_3x3_relu
I0322 09:50:25.417181 30568 net.cpp:157] Top shape: 1 512 19 19 (184832)
I0322 09:50:25.417184 30568 net.cpp:165] Memory required for data: 226307200
I0322 09:50:25.417189 30568 layer_factory.hpp:77] Creating layer conv5_2_1x1
I0322 09:50:25.417204 30568 net.cpp:100] Creating Layer conv5_2_1x1
I0322 09:50:25.417209 30568 net.cpp:434] conv5_2_1x1 <- conv5_2_3x3
I0322 09:50:25.417220 30568 net.cpp:408] conv5_2_1x1 -> conv5_2
I0322 09:50:25.420444 30568 net.cpp:150] Setting up conv5_2_1x1
I0322 09:50:25.420462 30568 net.cpp:157] Top shape: 1 512 19 19 (184832)
I0322 09:50:25.420466 30568 net.cpp:165] Memory required for data: 227046528
I0322 09:50:25.420475 30568 layer_factory.hpp:77] Creating layer relu5_2
I0322 09:50:25.420485 30568 net.cpp:100] Creating Layer relu5_2
I0322 09:50:25.420493 30568 net.cpp:434] relu5_2 <- conv5_2
I0322 09:50:25.420507 30568 net.cpp:395] relu5_2 -> conv5_2 (in-place)
I0322 09:50:25.421255 30568 net.cpp:150] Setting up relu5_2
I0322 09:50:25.421267 30568 net.cpp:157] Top shape: 1 512 19 19 (184832)
I0322 09:50:25.421272 30568 net.cpp:165] Memory required for data: 227785856
I0322 09:50:25.421277 30568 layer_factory.hpp:77] Creating layer conv5_3_depthwise
I0322 09:50:25.421290 30568 net.cpp:100] Creating Layer conv5_3_depthwise
I0322 09:50:25.421308 30568 net.cpp:434] conv5_3_depthwise <- conv5_2
I0322 09:50:25.421319 30568 net.cpp:408] conv5_3_depthwise -> conv5_3_3x3
I0322 09:50:25.421599 30568 net.cpp:150] Setting up conv5_3_depthwise
I0322 09:50:25.421608 30568 net.cpp:157] Top shape: 1 512 19 19 (184832)
I0322 09:50:25.421613 30568 net.cpp:165] Memory required for data: 228525184
I0322 09:50:25.421622 30568 layer_factory.hpp:77] Creating layer conv5_3_3x3_relu
I0322 09:50:25.421630 30568 net.cpp:100] Creating Layer conv5_3_3x3_relu
I0322 09:50:25.421636 30568 net.cpp:434] conv5_3_3x3_relu <- conv5_3_3x3
I0322 09:50:25.421645 30568 net.cpp:395] conv5_3_3x3_relu -> conv5_3_3x3 (in-place)
I0322 09:50:25.421838 30568 net.cpp:150] Setting up conv5_3_3x3_relu
I0322 09:50:25.421849 30568 net.cpp:157] Top shape: 1 512 19 19 (184832)
I0322 09:50:25.421852 30568 net.cpp:165] Memory required for data: 229264512
I0322 09:50:25.421859 30568 layer_factory.hpp:77] Creating layer conv5_3_1x1
I0322 09:50:25.421874 30568 net.cpp:100] Creating Layer conv5_3_1x1
I0322 09:50:25.421880 30568 net.cpp:434] conv5_3_1x1 <- conv5_3_3x3
I0322 09:50:25.421887 30568 net.cpp:408] conv5_3_1x1 -> conv5_3
I0322 09:50:25.424825 30568 net.cpp:150] Setting up conv5_3_1x1
I0322 09:50:25.424840 30568 net.cpp:157] Top shape: 1 512 19 19 (184832)
I0322 09:50:25.424844 30568 net.cpp:165] Memory required for data: 230003840
I0322 09:50:25.424863 30568 layer_factory.hpp:77] Creating layer relu5_3
I0322 09:50:25.424873 30568 net.cpp:100] Creating Layer relu5_3
I0322 09:50:25.424880 30568 net.cpp:434] relu5_3 <- conv5_3
I0322 09:50:25.424888 30568 net.cpp:395] relu5_3 -> conv5_3 (in-place)
I0322 09:50:25.425060 30568 net.cpp:150] Setting up relu5_3
I0322 09:50:25.425071 30568 net.cpp:157] Top shape: 1 512 19 19 (184832)
I0322 09:50:25.425076 30568 net.cpp:165] Memory required for data: 230743168
I0322 09:50:25.425081 30568 layer_factory.hpp:77] Creating layer pool5
I0322 09:50:25.425091 30568 net.cpp:100] Creating Layer pool5
I0322 09:50:25.425097 30568 net.cpp:434] pool5 <- conv5_3
I0322 09:50:25.425104 30568 net.cpp:408] pool5 -> pool5
I0322 09:50:25.425163 30568 net.cpp:150] Setting up pool5
I0322 09:50:25.425173 30568 net.cpp:157] Top shape: 1 512 19 19 (184832)
I0322 09:50:25.425179 30568 net.cpp:165] Memory required for data: 231482496
I0322 09:50:25.425189 30568 layer_factory.hpp:77] Creating layer fc6_depthwise
I0322 09:50:25.425202 30568 net.cpp:100] Creating Layer fc6_depthwise
I0322 09:50:25.425207 30568 net.cpp:434] fc6_depthwise <- pool5
I0322 09:50:25.425215 30568 net.cpp:408] fc6_depthwise -> fc6_3x3
I0322 09:50:25.425477 30568 net.cpp:150] Setting up fc6_depthwise
I0322 09:50:25.425487 30568 net.cpp:157] Top shape: 1 512 19 19 (184832)
I0322 09:50:25.425490 30568 net.cpp:165] Memory required for data: 232221824
I0322 09:50:25.425498 30568 layer_factory.hpp:77] Creating layer fc6_3x3_relu
I0322 09:50:25.425510 30568 net.cpp:100] Creating Layer fc6_3x3_relu
I0322 09:50:25.425516 30568 net.cpp:434] fc6_3x3_relu <- fc6_3x3
I0322 09:50:25.425523 30568 net.cpp:395] fc6_3x3_relu -> fc6_3x3 (in-place)
I0322 09:50:25.426223 30568 net.cpp:150] Setting up fc6_3x3_relu
I0322 09:50:25.426236 30568 net.cpp:157] Top shape: 1 512 19 19 (184832)
I0322 09:50:25.426241 30568 net.cpp:165] Memory required for data: 232961152
I0322 09:50:25.426246 30568 layer_factory.hpp:77] Creating layer fc6_1x1
I0322 09:50:25.426264 30568 net.cpp:100] Creating Layer fc6_1x1
I0322 09:50:25.426270 30568 net.cpp:434] fc6_1x1 <- fc6_3x3
I0322 09:50:25.426280 30568 net.cpp:408] fc6_1x1 -> fc6
I0322 09:50:25.429491 30568 net.cpp:150] Setting up fc6_1x1
I0322 09:50:25.429505 30568 net.cpp:157] Top shape: 1 1024 19 19 (369664)
I0322 09:50:25.429512 30568 net.cpp:165] Memory required for data: 234439808
I0322 09:50:25.429520 30568 layer_factory.hpp:77] Creating layer relu6
I0322 09:50:25.429531 30568 net.cpp:100] Creating Layer relu6
I0322 09:50:25.429538 30568 net.cpp:434] relu6 <- fc6
I0322 09:50:25.429545 30568 net.cpp:395] relu6 -> fc6 (in-place)
I0322 09:50:25.429875 30568 net.cpp:150] Setting up relu6
I0322 09:50:25.429888 30568 net.cpp:157] Top shape: 1 1024 19 19 (369664)
I0322 09:50:25.429893 30568 net.cpp:165] Memory required for data: 235918464
I0322 09:50:25.429899 30568 layer_factory.hpp:77] Creating layer fc7
I0322 09:50:25.429914 30568 net.cpp:100] Creating Layer fc7
I0322 09:50:25.429920 30568 net.cpp:434] fc7 <- fc6
I0322 09:50:25.429930 30568 net.cpp:408] fc7 -> fc7
I0322 09:50:25.437080 30568 net.cpp:150] Setting up fc7
I0322 09:50:25.437103 30568 net.cpp:157] Top shape: 1 1024 19 19 (369664)
I0322 09:50:25.437108 30568 net.cpp:165] Memory required for data: 237397120
I0322 09:50:25.437119 30568 layer_factory.hpp:77] Creating layer relu7
I0322 09:50:25.437130 30568 net.cpp:100] Creating Layer relu7
I0322 09:50:25.437139 30568 net.cpp:434] relu7 <- fc7
I0322 09:50:25.437150 30568 net.cpp:395] relu7 -> fc7 (in-place)
I0322 09:50:25.437326 30568 net.cpp:150] Setting up relu7
I0322 09:50:25.437337 30568 net.cpp:157] Top shape: 1 1024 19 19 (369664)
I0322 09:50:25.437341 30568 net.cpp:165] Memory required for data: 238875776
I0322 09:50:25.437346 30568 layer_factory.hpp:77] Creating layer fc7_relu7_0_split
I0322 09:50:25.437355 30568 net.cpp:100] Creating Layer fc7_relu7_0_split
I0322 09:50:25.437361 30568 net.cpp:434] fc7_relu7_0_split <- fc7
I0322 09:50:25.437371 30568 net.cpp:408] fc7_relu7_0_split -> fc7_relu7_0_split_0
I0322 09:50:25.437381 30568 net.cpp:408] fc7_relu7_0_split -> fc7_relu7_0_split_1
I0322 09:50:25.437391 30568 net.cpp:408] fc7_relu7_0_split -> fc7_relu7_0_split_2
I0322 09:50:25.437402 30568 net.cpp:408] fc7_relu7_0_split -> fc7_relu7_0_split_3
I0322 09:50:25.437489 30568 net.cpp:150] Setting up fc7_relu7_0_split
I0322 09:50:25.437497 30568 net.cpp:157] Top shape: 1 1024 19 19 (369664)
I0322 09:50:25.437503 30568 net.cpp:157] Top shape: 1 1024 19 19 (369664)
I0322 09:50:25.437510 30568 net.cpp:157] Top shape: 1 1024 19 19 (369664)
I0322 09:50:25.437516 30568 net.cpp:157] Top shape: 1 1024 19 19 (369664)
I0322 09:50:25.437521 30568 net.cpp:165] Memory required for data: 244790400
I0322 09:50:25.437526 30568 layer_factory.hpp:77] Creating layer conv6_1
I0322 09:50:25.437542 30568 net.cpp:100] Creating Layer conv6_1
I0322 09:50:25.437548 30568 net.cpp:434] conv6_1 <- fc7_relu7_0_split_0
I0322 09:50:25.437561 30568 net.cpp:408] conv6_1 -> conv6_1
I0322 09:50:25.440871 30568 net.cpp:150] Setting up conv6_1
I0322 09:50:25.440891 30568 net.cpp:157] Top shape: 1 256 19 19 (92416)
I0322 09:50:25.440896 30568 net.cpp:165] Memory required for data: 245160064
I0322 09:50:25.440906 30568 layer_factory.hpp:77] Creating layer conv6_1_relu
I0322 09:50:25.440914 30568 net.cpp:100] Creating Layer conv6_1_relu
I0322 09:50:25.440923 30568 net.cpp:434] conv6_1_relu <- conv6_1
I0322 09:50:25.440930 30568 net.cpp:395] conv6_1_relu -> conv6_1 (in-place)
I0322 09:50:25.441105 30568 net.cpp:150] Setting up conv6_1_relu
I0322 09:50:25.441114 30568 net.cpp:157] Top shape: 1 256 19 19 (92416)
I0322 09:50:25.441120 30568 net.cpp:165] Memory required for data: 245529728
I0322 09:50:25.441125 30568 layer_factory.hpp:77] Creating layer conv6_2
I0322 09:50:25.441139 30568 net.cpp:100] Creating Layer conv6_2
I0322 09:50:25.441145 30568 net.cpp:434] conv6_2 <- conv6_1
I0322 09:50:25.441156 30568 net.cpp:408] conv6_2 -> conv6_2
I0322 09:50:25.449820 30568 net.cpp:150] Setting up conv6_2
I0322 09:50:25.449841 30568 net.cpp:157] Top shape: 1 512 10 10 (51200)
I0322 09:50:25.449846 30568 net.cpp:165] Memory required for data: 245734528
I0322 09:50:25.449859 30568 layer_factory.hpp:77] Creating layer conv6_2_relu
I0322 09:50:25.449872 30568 net.cpp:100] Creating Layer conv6_2_relu
I0322 09:50:25.449878 30568 net.cpp:434] conv6_2_relu <- conv6_2
I0322 09:50:25.449889 30568 net.cpp:395] conv6_2_relu -> conv6_2 (in-place)
I0322 09:50:25.450631 30568 net.cpp:150] Setting up conv6_2_relu
I0322 09:50:25.450644 30568 net.cpp:157] Top shape: 1 512 10 10 (51200)
I0322 09:50:25.450649 30568 net.cpp:165] Memory required for data: 245939328
I0322 09:50:25.450654 30568 layer_factory.hpp:77] Creating layer conv6_2_conv6_2_relu_0_split
I0322 09:50:25.450678 30568 net.cpp:100] Creating Layer conv6_2_conv6_2_relu_0_split
I0322 09:50:25.450685 30568 net.cpp:434] conv6_2_conv6_2_relu_0_split <- conv6_2
I0322 09:50:25.450695 30568 net.cpp:408] conv6_2_conv6_2_relu_0_split -> conv6_2_conv6_2_relu_0_split_0
I0322 09:50:25.450708 30568 net.cpp:408] conv6_2_conv6_2_relu_0_split -> conv6_2_conv6_2_relu_0_split_1
I0322 09:50:25.450719 30568 net.cpp:408] conv6_2_conv6_2_relu_0_split -> conv6_2_conv6_2_relu_0_split_2
I0322 09:50:25.450727 30568 net.cpp:408] conv6_2_conv6_2_relu_0_split -> conv6_2_conv6_2_relu_0_split_3
I0322 09:50:25.450812 30568 net.cpp:150] Setting up conv6_2_conv6_2_relu_0_split
I0322 09:50:25.450821 30568 net.cpp:157] Top shape: 1 512 10 10 (51200)
I0322 09:50:25.450827 30568 net.cpp:157] Top shape: 1 512 10 10 (51200)
I0322 09:50:25.450834 30568 net.cpp:157] Top shape: 1 512 10 10 (51200)
I0322 09:50:25.450839 30568 net.cpp:157] Top shape: 1 512 10 10 (51200)
I0322 09:50:25.450846 30568 net.cpp:165] Memory required for data: 246758528
I0322 09:50:25.450852 30568 layer_factory.hpp:77] Creating layer conv7_1
I0322 09:50:25.450867 30568 net.cpp:100] Creating Layer conv7_1
I0322 09:50:25.450873 30568 net.cpp:434] conv7_1 <- conv6_2_conv6_2_relu_0_split_0
I0322 09:50:25.450884 30568 net.cpp:408] conv7_1 -> conv7_1
I0322 09:50:25.452517 30568 net.cpp:150] Setting up conv7_1
I0322 09:50:25.452530 30568 net.cpp:157] Top shape: 1 128 10 10 (12800)
I0322 09:50:25.452535 30568 net.cpp:165] Memory required for data: 246809728
I0322 09:50:25.452544 30568 layer_factory.hpp:77] Creating layer conv7_1_relu
I0322 09:50:25.452554 30568 net.cpp:100] Creating Layer conv7_1_relu
I0322 09:50:25.452560 30568 net.cpp:434] conv7_1_relu <- conv7_1
I0322 09:50:25.452570 30568 net.cpp:395] conv7_1_relu -> conv7_1 (in-place)
I0322 09:50:25.452742 30568 net.cpp:150] Setting up conv7_1_relu
I0322 09:50:25.452752 30568 net.cpp:157] Top shape: 1 128 10 10 (12800)
I0322 09:50:25.452756 30568 net.cpp:165] Memory required for data: 246860928
I0322 09:50:25.452761 30568 layer_factory.hpp:77] Creating layer conv7_2
I0322 09:50:25.452775 30568 net.cpp:100] Creating Layer conv7_2
I0322 09:50:25.452781 30568 net.cpp:434] conv7_2 <- conv7_1
I0322 09:50:25.452791 30568 net.cpp:408] conv7_2 -> conv7_2
I0322 09:50:25.456166 30568 net.cpp:150] Setting up conv7_2
I0322 09:50:25.456182 30568 net.cpp:157] Top shape: 1 256 5 5 (6400)
I0322 09:50:25.456187 30568 net.cpp:165] Memory required for data: 246886528
I0322 09:50:25.456195 30568 layer_factory.hpp:77] Creating layer conv7_2_relu
I0322 09:50:25.456205 30568 net.cpp:100] Creating Layer conv7_2_relu
I0322 09:50:25.456212 30568 net.cpp:434] conv7_2_relu <- conv7_2
I0322 09:50:25.456223 30568 net.cpp:395] conv7_2_relu -> conv7_2 (in-place)
I0322 09:50:25.456404 30568 net.cpp:150] Setting up conv7_2_relu
I0322 09:50:25.456414 30568 net.cpp:157] Top shape: 1 256 5 5 (6400)
I0322 09:50:25.456419 30568 net.cpp:165] Memory required for data: 246912128
I0322 09:50:25.456425 30568 layer_factory.hpp:77] Creating layer conv7_2_conv7_2_relu_0_split
I0322 09:50:25.456435 30568 net.cpp:100] Creating Layer conv7_2_conv7_2_relu_0_split
I0322 09:50:25.456442 30568 net.cpp:434] conv7_2_conv7_2_relu_0_split <- conv7_2
I0322 09:50:25.456452 30568 net.cpp:408] conv7_2_conv7_2_relu_0_split -> conv7_2_conv7_2_relu_0_split_0
I0322 09:50:25.456465 30568 net.cpp:408] conv7_2_conv7_2_relu_0_split -> conv7_2_conv7_2_relu_0_split_1
I0322 09:50:25.456475 30568 net.cpp:408] conv7_2_conv7_2_relu_0_split -> conv7_2_conv7_2_relu_0_split_2
I0322 09:50:25.456482 30568 net.cpp:408] conv7_2_conv7_2_relu_0_split -> conv7_2_conv7_2_relu_0_split_3
I0322 09:50:25.456560 30568 net.cpp:150] Setting up conv7_2_conv7_2_relu_0_split
I0322 09:50:25.456569 30568 net.cpp:157] Top shape: 1 256 5 5 (6400)
I0322 09:50:25.456575 30568 net.cpp:157] Top shape: 1 256 5 5 (6400)
I0322 09:50:25.456581 30568 net.cpp:157] Top shape: 1 256 5 5 (6400)
I0322 09:50:25.456588 30568 net.cpp:157] Top shape: 1 256 5 5 (6400)
I0322 09:50:25.456593 30568 net.cpp:165] Memory required for data: 247014528
I0322 09:50:25.456609 30568 layer_factory.hpp:77] Creating layer conv8_1
I0322 09:50:25.456621 30568 net.cpp:100] Creating Layer conv8_1
I0322 09:50:25.456630 30568 net.cpp:434] conv8_1 <- conv7_2_conv7_2_relu_0_split_0
I0322 09:50:25.456641 30568 net.cpp:408] conv8_1 -> conv8_1
I0322 09:50:25.458178 30568 net.cpp:150] Setting up conv8_1
I0322 09:50:25.458190 30568 net.cpp:157] Top shape: 1 128 5 5 (3200)
I0322 09:50:25.458195 30568 net.cpp:165] Memory required for data: 247027328
I0322 09:50:25.458205 30568 layer_factory.hpp:77] Creating layer conv8_1_relu
I0322 09:50:25.458215 30568 net.cpp:100] Creating Layer conv8_1_relu
I0322 09:50:25.458222 30568 net.cpp:434] conv8_1_relu <- conv8_1
I0322 09:50:25.458231 30568 net.cpp:395] conv8_1_relu -> conv8_1 (in-place)
I0322 09:50:25.458961 30568 net.cpp:150] Setting up conv8_1_relu
I0322 09:50:25.458973 30568 net.cpp:157] Top shape: 1 128 5 5 (3200)
I0322 09:50:25.458978 30568 net.cpp:165] Memory required for data: 247040128
I0322 09:50:25.458983 30568 layer_factory.hpp:77] Creating layer conv8_2
I0322 09:50:25.458998 30568 net.cpp:100] Creating Layer conv8_2
I0322 09:50:25.459005 30568 net.cpp:434] conv8_2 <- conv8_1
I0322 09:50:25.459015 30568 net.cpp:408] conv8_2 -> conv8_2
I0322 09:50:25.463021 30568 net.cpp:150] Setting up conv8_2
I0322 09:50:25.463039 30568 net.cpp:157] Top shape: 1 256 3 3 (2304)
I0322 09:50:25.463045 30568 net.cpp:165] Memory required for data: 247049344
I0322 09:50:25.463054 30568 layer_factory.hpp:77] Creating layer conv8_2_relu
I0322 09:50:25.463063 30568 net.cpp:100] Creating Layer conv8_2_relu
I0322 09:50:25.463073 30568 net.cpp:434] conv8_2_relu <- conv8_2
I0322 09:50:25.463081 30568 net.cpp:395] conv8_2_relu -> conv8_2 (in-place)
I0322 09:50:25.463273 30568 net.cpp:150] Setting up conv8_2_relu
I0322 09:50:25.463282 30568 net.cpp:157] Top shape: 1 256 3 3 (2304)
I0322 09:50:25.463289 30568 net.cpp:165] Memory required for data: 247058560
I0322 09:50:25.463294 30568 layer_factory.hpp:77] Creating layer conv8_2_conv8_2_relu_0_split
I0322 09:50:25.463304 30568 net.cpp:100] Creating Layer conv8_2_conv8_2_relu_0_split
I0322 09:50:25.463310 30568 net.cpp:434] conv8_2_conv8_2_relu_0_split <- conv8_2
I0322 09:50:25.463320 30568 net.cpp:408] conv8_2_conv8_2_relu_0_split -> conv8_2_conv8_2_relu_0_split_0
I0322 09:50:25.463331 30568 net.cpp:408] conv8_2_conv8_2_relu_0_split -> conv8_2_conv8_2_relu_0_split_1
I0322 09:50:25.463340 30568 net.cpp:408] conv8_2_conv8_2_relu_0_split -> conv8_2_conv8_2_relu_0_split_2
I0322 09:50:25.463351 30568 net.cpp:408] conv8_2_conv8_2_relu_0_split -> conv8_2_conv8_2_relu_0_split_3
I0322 09:50:25.463433 30568 net.cpp:150] Setting up conv8_2_conv8_2_relu_0_split
I0322 09:50:25.463441 30568 net.cpp:157] Top shape: 1 256 3 3 (2304)
I0322 09:50:25.463448 30568 net.cpp:157] Top shape: 1 256 3 3 (2304)
I0322 09:50:25.463454 30568 net.cpp:157] Top shape: 1 256 3 3 (2304)
I0322 09:50:25.463460 30568 net.cpp:157] Top shape: 1 256 3 3 (2304)
I0322 09:50:25.463466 30568 net.cpp:165] Memory required for data: 247095424
I0322 09:50:25.463472 30568 layer_factory.hpp:77] Creating layer conv9_1
I0322 09:50:25.463495 30568 net.cpp:100] Creating Layer conv9_1
I0322 09:50:25.463501 30568 net.cpp:434] conv9_1 <- conv8_2_conv8_2_relu_0_split_0
I0322 09:50:25.463510 30568 net.cpp:408] conv9_1 -> conv9_1
I0322 09:50:25.465860 30568 net.cpp:150] Setting up conv9_1
I0322 09:50:25.465880 30568 net.cpp:157] Top shape: 1 128 3 3 (1152)
I0322 09:50:25.465888 30568 net.cpp:165] Memory required for data: 247100032
I0322 09:50:25.465898 30568 layer_factory.hpp:77] Creating layer conv9_1_relu
I0322 09:50:25.465906 30568 net.cpp:100] Creating Layer conv9_1_relu
I0322 09:50:25.465912 30568 net.cpp:434] conv9_1_relu <- conv9_1
I0322 09:50:25.465920 30568 net.cpp:395] conv9_1_relu -> conv9_1 (in-place)
I0322 09:50:25.466095 30568 net.cpp:150] Setting up conv9_1_relu
I0322 09:50:25.466105 30568 net.cpp:157] Top shape: 1 128 3 3 (1152)
I0322 09:50:25.466111 30568 net.cpp:165] Memory required for data: 247104640
I0322 09:50:25.466117 30568 layer_factory.hpp:77] Creating layer conv9_2
I0322 09:50:25.466143 30568 net.cpp:100] Creating Layer conv9_2
I0322 09:50:25.466151 30568 net.cpp:434] conv9_2 <- conv9_1
I0322 09:50:25.466161 30568 net.cpp:408] conv9_2 -> conv9_2
I0322 09:50:25.470130 30568 net.cpp:150] Setting up conv9_2
I0322 09:50:25.470146 30568 net.cpp:157] Top shape: 1 256 1 1 (256)
I0322 09:50:25.470150 30568 net.cpp:165] Memory required for data: 247105664
I0322 09:50:25.470160 30568 layer_factory.hpp:77] Creating layer conv9_2_relu
I0322 09:50:25.470173 30568 net.cpp:100] Creating Layer conv9_2_relu
I0322 09:50:25.470181 30568 net.cpp:434] conv9_2_relu <- conv9_2
I0322 09:50:25.470190 30568 net.cpp:395] conv9_2_relu -> conv9_2 (in-place)
I0322 09:50:25.470927 30568 net.cpp:150] Setting up conv9_2_relu
I0322 09:50:25.470939 30568 net.cpp:157] Top shape: 1 256 1 1 (256)
I0322 09:50:25.470943 30568 net.cpp:165] Memory required for data: 247106688
I0322 09:50:25.470949 30568 layer_factory.hpp:77] Creating layer conv9_2_conv9_2_relu_0_split
I0322 09:50:25.470958 30568 net.cpp:100] Creating Layer conv9_2_conv9_2_relu_0_split
I0322 09:50:25.470966 30568 net.cpp:434] conv9_2_conv9_2_relu_0_split <- conv9_2
I0322 09:50:25.470976 30568 net.cpp:408] conv9_2_conv9_2_relu_0_split -> conv9_2_conv9_2_relu_0_split_0
I0322 09:50:25.470988 30568 net.cpp:408] conv9_2_conv9_2_relu_0_split -> conv9_2_conv9_2_relu_0_split_1
I0322 09:50:25.470998 30568 net.cpp:408] conv9_2_conv9_2_relu_0_split -> conv9_2_conv9_2_relu_0_split_2
I0322 09:50:25.471068 30568 net.cpp:150] Setting up conv9_2_conv9_2_relu_0_split
I0322 09:50:25.471078 30568 net.cpp:157] Top shape: 1 256 1 1 (256)
I0322 09:50:25.471083 30568 net.cpp:157] Top shape: 1 256 1 1 (256)
I0322 09:50:25.471089 30568 net.cpp:157] Top shape: 1 256 1 1 (256)
I0322 09:50:25.471094 30568 net.cpp:165] Memory required for data: 247109760
I0322 09:50:25.471101 30568 layer_factory.hpp:77] Creating layer conv4_3_norm
I0322 09:50:25.471113 30568 net.cpp:100] Creating Layer conv4_3_norm
I0322 09:50:25.471122 30568 net.cpp:434] conv4_3_norm <- conv4_3_relu4_3_0_split_1
I0322 09:50:25.471129 30568 net.cpp:408] conv4_3_norm -> conv4_3_norm
I0322 09:50:25.471305 30568 net.cpp:150] Setting up conv4_3_norm
I0322 09:50:25.471313 30568 net.cpp:157] Top shape: 1 512 38 38 (739328)
I0322 09:50:25.471318 30568 net.cpp:165] Memory required for data: 250067072
I0322 09:50:25.471326 30568 layer_factory.hpp:77] Creating layer conv4_3_norm_conv4_3_norm_0_split
I0322 09:50:25.471334 30568 net.cpp:100] Creating Layer conv4_3_norm_conv4_3_norm_0_split
I0322 09:50:25.471338 30568 net.cpp:434] conv4_3_norm_conv4_3_norm_0_split <- conv4_3_norm
I0322 09:50:25.471345 30568 net.cpp:408] conv4_3_norm_conv4_3_norm_0_split -> conv4_3_norm_conv4_3_norm_0_split_0
I0322 09:50:25.471366 30568 net.cpp:408] conv4_3_norm_conv4_3_norm_0_split -> conv4_3_norm_conv4_3_norm_0_split_1
I0322 09:50:25.471376 30568 net.cpp:408] conv4_3_norm_conv4_3_norm_0_split -> conv4_3_norm_conv4_3_norm_0_split_2
I0322 09:50:25.471436 30568 net.cpp:150] Setting up conv4_3_norm_conv4_3_norm_0_split
I0322 09:50:25.471443 30568 net.cpp:157] Top shape: 1 512 38 38 (739328)
I0322 09:50:25.471451 30568 net.cpp:157] Top shape: 1 512 38 38 (739328)
I0322 09:50:25.471457 30568 net.cpp:157] Top shape: 1 512 38 38 (739328)
I0322 09:50:25.471462 30568 net.cpp:165] Memory required for data: 258939008
I0322 09:50:25.471467 30568 layer_factory.hpp:77] Creating layer conv4_3_norm_mbox_loc
I0322 09:50:25.471484 30568 net.cpp:100] Creating Layer conv4_3_norm_mbox_loc
I0322 09:50:25.471493 30568 net.cpp:434] conv4_3_norm_mbox_loc <- conv4_3_norm_conv4_3_norm_0_split_0
I0322 09:50:25.471505 30568 net.cpp:408] conv4_3_norm_mbox_loc -> conv4_3_norm_mbox_loc
I0322 09:50:25.473718 30568 net.cpp:150] Setting up conv4_3_norm_mbox_loc
I0322 09:50:25.473752 30568 net.cpp:157] Top shape: 1 16 38 38 (23104)
I0322 09:50:25.473760 30568 net.cpp:165] Memory required for data: 259031424
I0322 09:50:25.473769 30568 layer_factory.hpp:77] Creating layer conv4_3_norm_mbox_loc_perm
I0322 09:50:25.473780 30568 net.cpp:100] Creating Layer conv4_3_norm_mbox_loc_perm
I0322 09:50:25.473798 30568 net.cpp:434] conv4_3_norm_mbox_loc_perm <- conv4_3_norm_mbox_loc
I0322 09:50:25.473809 30568 net.cpp:408] conv4_3_norm_mbox_loc_perm -> conv4_3_norm_mbox_loc_perm
I0322 09:50:25.473933 30568 net.cpp:150] Setting up conv4_3_norm_mbox_loc_perm
I0322 09:50:25.473942 30568 net.cpp:157] Top shape: 1 38 38 16 (23104)
I0322 09:50:25.473948 30568 net.cpp:165] Memory required for data: 259123840
I0322 09:50:25.473953 30568 layer_factory.hpp:77] Creating layer conv4_3_norm_mbox_loc_flat
I0322 09:50:25.473960 30568 net.cpp:100] Creating Layer conv4_3_norm_mbox_loc_flat
I0322 09:50:25.473966 30568 net.cpp:434] conv4_3_norm_mbox_loc_flat <- conv4_3_norm_mbox_loc_perm
I0322 09:50:25.473976 30568 net.cpp:408] conv4_3_norm_mbox_loc_flat -> conv4_3_norm_mbox_loc_flat
I0322 09:50:25.474012 30568 net.cpp:150] Setting up conv4_3_norm_mbox_loc_flat
I0322 09:50:25.474020 30568 net.cpp:157] Top shape: 1 23104 (23104)
I0322 09:50:25.474023 30568 net.cpp:165] Memory required for data: 259216256
I0322 09:50:25.474030 30568 layer_factory.hpp:77] Creating layer conv4_3_norm_mbox_conf
I0322 09:50:25.474042 30568 net.cpp:100] Creating Layer conv4_3_norm_mbox_conf
I0322 09:50:25.474048 30568 net.cpp:434] conv4_3_norm_mbox_conf <- conv4_3_norm_conv4_3_norm_0_split_1
I0322 09:50:25.474058 30568 net.cpp:408] conv4_3_norm_mbox_conf -> conv4_3_norm_mbox_conf
I0322 09:50:25.476881 30568 net.cpp:150] Setting up conv4_3_norm_mbox_conf
I0322 09:50:25.476894 30568 net.cpp:157] Top shape: 1 44 38 38 (63536)
I0322 09:50:25.476899 30568 net.cpp:165] Memory required for data: 259470400
I0322 09:50:25.476909 30568 layer_factory.hpp:77] Creating layer conv4_3_norm_mbox_conf_perm
I0322 09:50:25.476923 30568 net.cpp:100] Creating Layer conv4_3_norm_mbox_conf_perm
I0322 09:50:25.476933 30568 net.cpp:434] conv4_3_norm_mbox_conf_perm <- conv4_3_norm_mbox_conf
I0322 09:50:25.476943 30568 net.cpp:408] conv4_3_norm_mbox_conf_perm -> conv4_3_norm_mbox_conf_perm
I0322 09:50:25.477075 30568 net.cpp:150] Setting up conv4_3_norm_mbox_conf_perm
I0322 09:50:25.477084 30568 net.cpp:157] Top shape: 1 38 38 44 (63536)
I0322 09:50:25.477090 30568 net.cpp:165] Memory required for data: 259724544
I0322 09:50:25.477095 30568 layer_factory.hpp:77] Creating layer conv4_3_norm_mbox_conf_flat
I0322 09:50:25.477104 30568 net.cpp:100] Creating Layer conv4_3_norm_mbox_conf_flat
I0322 09:50:25.477111 30568 net.cpp:434] conv4_3_norm_mbox_conf_flat <- conv4_3_norm_mbox_conf_perm
I0322 09:50:25.477120 30568 net.cpp:408] conv4_3_norm_mbox_conf_flat -> conv4_3_norm_mbox_conf_flat
I0322 09:50:25.477156 30568 net.cpp:150] Setting up conv4_3_norm_mbox_conf_flat
I0322 09:50:25.477164 30568 net.cpp:157] Top shape: 1 63536 (63536)
I0322 09:50:25.477169 30568 net.cpp:165] Memory required for data: 259978688
I0322 09:50:25.477174 30568 layer_factory.hpp:77] Creating layer conv4_3_norm_mbox_priorbox
I0322 09:50:25.477183 30568 net.cpp:100] Creating Layer conv4_3_norm_mbox_priorbox
I0322 09:50:25.477190 30568 net.cpp:434] conv4_3_norm_mbox_priorbox <- conv4_3_norm_conv4_3_norm_0_split_2
I0322 09:50:25.477198 30568 net.cpp:434] conv4_3_norm_mbox_priorbox <- data_data_0_split_1
I0322 09:50:25.477210 30568 net.cpp:408] conv4_3_norm_mbox_priorbox -> conv4_3_norm_mbox_priorbox
I0322 09:50:25.477247 30568 net.cpp:150] Setting up conv4_3_norm_mbox_priorbox
I0322 09:50:25.477255 30568 net.cpp:157] Top shape: 1 2 23104 (46208)
I0322 09:50:25.477260 30568 net.cpp:165] Memory required for data: 260163520
I0322 09:50:25.477265 30568 layer_factory.hpp:77] Creating layer fc7_mbox_loc
I0322 09:50:25.477283 30568 net.cpp:100] Creating Layer fc7_mbox_loc
I0322 09:50:25.477288 30568 net.cpp:434] fc7_mbox_loc <- fc7_relu7_0_split_1
I0322 09:50:25.477298 30568 net.cpp:408] fc7_mbox_loc -> fc7_mbox_loc
I0322 09:50:25.480175 30568 net.cpp:150] Setting up fc7_mbox_loc
I0322 09:50:25.480191 30568 net.cpp:157] Top shape: 1 24 19 19 (8664)
I0322 09:50:25.480196 30568 net.cpp:165] Memory required for data: 260198176
I0322 09:50:25.480207 30568 layer_factory.hpp:77] Creating layer fc7_mbox_loc_perm
I0322 09:50:25.480229 30568 net.cpp:100] Creating Layer fc7_mbox_loc_perm
I0322 09:50:25.480237 30568 net.cpp:434] fc7_mbox_loc_perm <- fc7_mbox_loc
I0322 09:50:25.480247 30568 net.cpp:408] fc7_mbox_loc_perm -> fc7_mbox_loc_perm
I0322 09:50:25.480372 30568 net.cpp:150] Setting up fc7_mbox_loc_perm
I0322 09:50:25.480381 30568 net.cpp:157] Top shape: 1 19 19 24 (8664)
I0322 09:50:25.480386 30568 net.cpp:165] Memory required for data: 260232832
I0322 09:50:25.480391 30568 layer_factory.hpp:77] Creating layer fc7_mbox_loc_flat
I0322 09:50:25.480401 30568 net.cpp:100] Creating Layer fc7_mbox_loc_flat
I0322 09:50:25.480406 30568 net.cpp:434] fc7_mbox_loc_flat <- fc7_mbox_loc_perm
I0322 09:50:25.480414 30568 net.cpp:408] fc7_mbox_loc_flat -> fc7_mbox_loc_flat
I0322 09:50:25.480448 30568 net.cpp:150] Setting up fc7_mbox_loc_flat
I0322 09:50:25.480456 30568 net.cpp:157] Top shape: 1 8664 (8664)
I0322 09:50:25.480460 30568 net.cpp:165] Memory required for data: 260267488
I0322 09:50:25.480465 30568 layer_factory.hpp:77] Creating layer fc7_mbox_conf
I0322 09:50:25.480481 30568 net.cpp:100] Creating Layer fc7_mbox_conf
I0322 09:50:25.480489 30568 net.cpp:434] fc7_mbox_conf <- fc7_relu7_0_split_2
I0322 09:50:25.480497 30568 net.cpp:408] fc7_mbox_conf -> fc7_mbox_conf
I0322 09:50:25.485905 30568 net.cpp:150] Setting up fc7_mbox_conf
I0322 09:50:25.485925 30568 net.cpp:157] Top shape: 1 66 19 19 (23826)
I0322 09:50:25.485932 30568 net.cpp:165] Memory required for data: 260362792
I0322 09:50:25.485960 30568 layer_factory.hpp:77] Creating layer fc7_mbox_conf_perm
I0322 09:50:25.485973 30568 net.cpp:100] Creating Layer fc7_mbox_conf_perm
I0322 09:50:25.485982 30568 net.cpp:434] fc7_mbox_conf_perm <- fc7_mbox_conf
I0322 09:50:25.485996 30568 net.cpp:408] fc7_mbox_conf_perm -> fc7_mbox_conf_perm
I0322 09:50:25.486138 30568 net.cpp:150] Setting up fc7_mbox_conf_perm
I0322 09:50:25.486148 30568 net.cpp:157] Top shape: 1 19 19 66 (23826)
I0322 09:50:25.486152 30568 net.cpp:165] Memory required for data: 260458096
I0322 09:50:25.486160 30568 layer_factory.hpp:77] Creating layer fc7_mbox_conf_flat
I0322 09:50:25.486169 30568 net.cpp:100] Creating Layer fc7_mbox_conf_flat
I0322 09:50:25.486176 30568 net.cpp:434] fc7_mbox_conf_flat <- fc7_mbox_conf_perm
I0322 09:50:25.486183 30568 net.cpp:408] fc7_mbox_conf_flat -> fc7_mbox_conf_flat
I0322 09:50:25.486220 30568 net.cpp:150] Setting up fc7_mbox_conf_flat
I0322 09:50:25.486227 30568 net.cpp:157] Top shape: 1 23826 (23826)
I0322 09:50:25.486232 30568 net.cpp:165] Memory required for data: 260553400
I0322 09:50:25.486238 30568 layer_factory.hpp:77] Creating layer fc7_mbox_priorbox
I0322 09:50:25.486250 30568 net.cpp:100] Creating Layer fc7_mbox_priorbox
I0322 09:50:25.486258 30568 net.cpp:434] fc7_mbox_priorbox <- fc7_relu7_0_split_3
I0322 09:50:25.486268 30568 net.cpp:434] fc7_mbox_priorbox <- data_data_0_split_2
I0322 09:50:25.486275 30568 net.cpp:408] fc7_mbox_priorbox -> fc7_mbox_priorbox
I0322 09:50:25.486316 30568 net.cpp:150] Setting up fc7_mbox_priorbox
I0322 09:50:25.486325 30568 net.cpp:157] Top shape: 1 2 8664 (17328)
I0322 09:50:25.486330 30568 net.cpp:165] Memory required for data: 260622712
I0322 09:50:25.486335 30568 layer_factory.hpp:77] Creating layer conv6_2_mbox_loc
I0322 09:50:25.486347 30568 net.cpp:100] Creating Layer conv6_2_mbox_loc
I0322 09:50:25.486356 30568 net.cpp:434] conv6_2_mbox_loc <- conv6_2_conv6_2_relu_0_split_1
I0322 09:50:25.486366 30568 net.cpp:408] conv6_2_mbox_loc -> conv6_2_mbox_loc
I0322 09:50:25.488766 30568 net.cpp:150] Setting up conv6_2_mbox_loc
I0322 09:50:25.488780 30568 net.cpp:157] Top shape: 1 24 10 10 (2400)
I0322 09:50:25.488788 30568 net.cpp:165] Memory required for data: 260632312
I0322 09:50:25.488797 30568 layer_factory.hpp:77] Creating layer conv6_2_mbox_loc_perm
I0322 09:50:25.488806 30568 net.cpp:100] Creating Layer conv6_2_mbox_loc_perm
I0322 09:50:25.488814 30568 net.cpp:434] conv6_2_mbox_loc_perm <- conv6_2_mbox_loc
I0322 09:50:25.488824 30568 net.cpp:408] conv6_2_mbox_loc_perm -> conv6_2_mbox_loc_perm
I0322 09:50:25.488961 30568 net.cpp:150] Setting up conv6_2_mbox_loc_perm
I0322 09:50:25.488970 30568 net.cpp:157] Top shape: 1 10 10 24 (2400)
I0322 09:50:25.488975 30568 net.cpp:165] Memory required for data: 260641912
I0322 09:50:25.488981 30568 layer_factory.hpp:77] Creating layer conv6_2_mbox_loc_flat
I0322 09:50:25.488991 30568 net.cpp:100] Creating Layer conv6_2_mbox_loc_flat
I0322 09:50:25.488997 30568 net.cpp:434] conv6_2_mbox_loc_flat <- conv6_2_mbox_loc_perm
I0322 09:50:25.489007 30568 net.cpp:408] conv6_2_mbox_loc_flat -> conv6_2_mbox_loc_flat
I0322 09:50:25.489042 30568 net.cpp:150] Setting up conv6_2_mbox_loc_flat
I0322 09:50:25.489049 30568 net.cpp:157] Top shape: 1 2400 (2400)
I0322 09:50:25.489054 30568 net.cpp:165] Memory required for data: 260651512
I0322 09:50:25.489061 30568 layer_factory.hpp:77] Creating layer conv6_2_mbox_conf
I0322 09:50:25.489076 30568 net.cpp:100] Creating Layer conv6_2_mbox_conf
I0322 09:50:25.489082 30568 net.cpp:434] conv6_2_mbox_conf <- conv6_2_conv6_2_relu_0_split_2
I0322 09:50:25.489092 30568 net.cpp:408] conv6_2_mbox_conf -> conv6_2_mbox_conf
I0322 09:50:25.493114 30568 net.cpp:150] Setting up conv6_2_mbox_conf
I0322 09:50:25.493129 30568 net.cpp:157] Top shape: 1 66 10 10 (6600)
I0322 09:50:25.493134 30568 net.cpp:165] Memory required for data: 260677912
I0322 09:50:25.493144 30568 layer_factory.hpp:77] Creating layer conv6_2_mbox_conf_perm
I0322 09:50:25.493155 30568 net.cpp:100] Creating Layer conv6_2_mbox_conf_perm
I0322 09:50:25.493161 30568 net.cpp:434] conv6_2_mbox_conf_perm <- conv6_2_mbox_conf
I0322 09:50:25.493171 30568 net.cpp:408] conv6_2_mbox_conf_perm -> conv6_2_mbox_conf_perm
I0322 09:50:25.493296 30568 net.cpp:150] Setting up conv6_2_mbox_conf_perm
I0322 09:50:25.493305 30568 net.cpp:157] Top shape: 1 10 10 66 (6600)
I0322 09:50:25.493310 30568 net.cpp:165] Memory required for data: 260704312
I0322 09:50:25.493315 30568 layer_factory.hpp:77] Creating layer conv6_2_mbox_conf_flat
I0322 09:50:25.493324 30568 net.cpp:100] Creating Layer conv6_2_mbox_conf_flat
I0322 09:50:25.493330 30568 net.cpp:434] conv6_2_mbox_conf_flat <- conv6_2_mbox_conf_perm
I0322 09:50:25.493340 30568 net.cpp:408] conv6_2_mbox_conf_flat -> conv6_2_mbox_conf_flat
I0322 09:50:25.493377 30568 net.cpp:150] Setting up conv6_2_mbox_conf_flat
I0322 09:50:25.493384 30568 net.cpp:157] Top shape: 1 6600 (6600)
I0322 09:50:25.493389 30568 net.cpp:165] Memory required for data: 260730712
I0322 09:50:25.493394 30568 layer_factory.hpp:77] Creating layer conv6_2_mbox_priorbox
I0322 09:50:25.493403 30568 net.cpp:100] Creating Layer conv6_2_mbox_priorbox
I0322 09:50:25.493408 30568 net.cpp:434] conv6_2_mbox_priorbox <- conv6_2_conv6_2_relu_0_split_3
I0322 09:50:25.493417 30568 net.cpp:434] conv6_2_mbox_priorbox <- data_data_0_split_3
I0322 09:50:25.493427 30568 net.cpp:408] conv6_2_mbox_priorbox -> conv6_2_mbox_priorbox
I0322 09:50:25.493469 30568 net.cpp:150] Setting up conv6_2_mbox_priorbox
I0322 09:50:25.493476 30568 net.cpp:157] Top shape: 1 2 2400 (4800)
I0322 09:50:25.493482 30568 net.cpp:165] Memory required for data: 260749912
I0322 09:50:25.493487 30568 layer_factory.hpp:77] Creating layer conv7_2_mbox_loc
I0322 09:50:25.493501 30568 net.cpp:100] Creating Layer conv7_2_mbox_loc
I0322 09:50:25.493510 30568 net.cpp:434] conv7_2_mbox_loc <- conv7_2_conv7_2_relu_0_split_1
I0322 09:50:25.493520 30568 net.cpp:408] conv7_2_mbox_loc -> conv7_2_mbox_loc
I0322 09:50:25.495717 30568 net.cpp:150] Setting up conv7_2_mbox_loc
I0322 09:50:25.495731 30568 net.cpp:157] Top shape: 1 24 5 5 (600)
I0322 09:50:25.495736 30568 net.cpp:165] Memory required for data: 260752312
I0322 09:50:25.495746 30568 layer_factory.hpp:77] Creating layer conv7_2_mbox_loc_perm
I0322 09:50:25.495759 30568 net.cpp:100] Creating Layer conv7_2_mbox_loc_perm
I0322 09:50:25.495765 30568 net.cpp:434] conv7_2_mbox_loc_perm <- conv7_2_mbox_loc
I0322 09:50:25.495774 30568 net.cpp:408] conv7_2_mbox_loc_perm -> conv7_2_mbox_loc_perm
I0322 09:50:25.495903 30568 net.cpp:150] Setting up conv7_2_mbox_loc_perm
I0322 09:50:25.495911 30568 net.cpp:157] Top shape: 1 5 5 24 (600)
I0322 09:50:25.495930 30568 net.cpp:165] Memory required for data: 260754712
I0322 09:50:25.495935 30568 layer_factory.hpp:77] Creating layer conv7_2_mbox_loc_flat
I0322 09:50:25.495945 30568 net.cpp:100] Creating Layer conv7_2_mbox_loc_flat
I0322 09:50:25.495952 30568 net.cpp:434] conv7_2_mbox_loc_flat <- conv7_2_mbox_loc_perm
I0322 09:50:25.495962 30568 net.cpp:408] conv7_2_mbox_loc_flat -> conv7_2_mbox_loc_flat
I0322 09:50:25.496001 30568 net.cpp:150] Setting up conv7_2_mbox_loc_flat
I0322 09:50:25.496007 30568 net.cpp:157] Top shape: 1 600 (600)
I0322 09:50:25.496012 30568 net.cpp:165] Memory required for data: 260757112
I0322 09:50:25.496017 30568 layer_factory.hpp:77] Creating layer conv7_2_mbox_conf
I0322 09:50:25.496033 30568 net.cpp:100] Creating Layer conv7_2_mbox_conf
I0322 09:50:25.496042 30568 net.cpp:434] conv7_2_mbox_conf <- conv7_2_conv7_2_relu_0_split_2
I0322 09:50:25.496052 30568 net.cpp:408] conv7_2_mbox_conf -> conv7_2_mbox_conf
I0322 09:50:25.499183 30568 net.cpp:150] Setting up conv7_2_mbox_conf
I0322 09:50:25.499197 30568 net.cpp:157] Top shape: 1 66 5 5 (1650)
I0322 09:50:25.499202 30568 net.cpp:165] Memory required for data: 260763712
I0322 09:50:25.499212 30568 layer_factory.hpp:77] Creating layer conv7_2_mbox_conf_perm
I0322 09:50:25.499223 30568 net.cpp:100] Creating Layer conv7_2_mbox_conf_perm
I0322 09:50:25.499231 30568 net.cpp:434] conv7_2_mbox_conf_perm <- conv7_2_mbox_conf
I0322 09:50:25.499239 30568 net.cpp:408] conv7_2_mbox_conf_perm -> conv7_2_mbox_conf_perm
I0322 09:50:25.499366 30568 net.cpp:150] Setting up conv7_2_mbox_conf_perm
I0322 09:50:25.499373 30568 net.cpp:157] Top shape: 1 5 5 66 (1650)
I0322 09:50:25.499378 30568 net.cpp:165] Memory required for data: 260770312
I0322 09:50:25.499384 30568 layer_factory.hpp:77] Creating layer conv7_2_mbox_conf_flat
I0322 09:50:25.499393 30568 net.cpp:100] Creating Layer conv7_2_mbox_conf_flat
I0322 09:50:25.499399 30568 net.cpp:434] conv7_2_mbox_conf_flat <- conv7_2_mbox_conf_perm
I0322 09:50:25.499408 30568 net.cpp:408] conv7_2_mbox_conf_flat -> conv7_2_mbox_conf_flat
I0322 09:50:25.499446 30568 net.cpp:150] Setting up conv7_2_mbox_conf_flat
I0322 09:50:25.499454 30568 net.cpp:157] Top shape: 1 1650 (1650)
I0322 09:50:25.499459 30568 net.cpp:165] Memory required for data: 260776912
I0322 09:50:25.499464 30568 layer_factory.hpp:77] Creating layer conv7_2_mbox_priorbox
I0322 09:50:25.499475 30568 net.cpp:100] Creating Layer conv7_2_mbox_priorbox
I0322 09:50:25.499481 30568 net.cpp:434] conv7_2_mbox_priorbox <- conv7_2_conv7_2_relu_0_split_3
I0322 09:50:25.499488 30568 net.cpp:434] conv7_2_mbox_priorbox <- data_data_0_split_4
I0322 09:50:25.499496 30568 net.cpp:408] conv7_2_mbox_priorbox -> conv7_2_mbox_priorbox
I0322 09:50:25.499537 30568 net.cpp:150] Setting up conv7_2_mbox_priorbox
I0322 09:50:25.499544 30568 net.cpp:157] Top shape: 1 2 600 (1200)
I0322 09:50:25.499548 30568 net.cpp:165] Memory required for data: 260781712
I0322 09:50:25.499553 30568 layer_factory.hpp:77] Creating layer conv8_2_mbox_loc
I0322 09:50:25.499568 30568 net.cpp:100] Creating Layer conv8_2_mbox_loc
I0322 09:50:25.499577 30568 net.cpp:434] conv8_2_mbox_loc <- conv8_2_conv8_2_relu_0_split_1
I0322 09:50:25.499588 30568 net.cpp:408] conv8_2_mbox_loc -> conv8_2_mbox_loc
I0322 09:50:25.501142 30568 net.cpp:150] Setting up conv8_2_mbox_loc
I0322 09:50:25.501157 30568 net.cpp:157] Top shape: 1 16 3 3 (144)
I0322 09:50:25.501163 30568 net.cpp:165] Memory required for data: 260782288
I0322 09:50:25.501171 30568 layer_factory.hpp:77] Creating layer conv8_2_mbox_loc_perm
I0322 09:50:25.501180 30568 net.cpp:100] Creating Layer conv8_2_mbox_loc_perm
I0322 09:50:25.501188 30568 net.cpp:434] conv8_2_mbox_loc_perm <- conv8_2_mbox_loc
I0322 09:50:25.501202 30568 net.cpp:408] conv8_2_mbox_loc_perm -> conv8_2_mbox_loc_perm
I0322 09:50:25.501327 30568 net.cpp:150] Setting up conv8_2_mbox_loc_perm
I0322 09:50:25.501334 30568 net.cpp:157] Top shape: 1 3 3 16 (144)
I0322 09:50:25.501339 30568 net.cpp:165] Memory required for data: 260782864
I0322 09:50:25.501356 30568 layer_factory.hpp:77] Creating layer conv8_2_mbox_loc_flat
I0322 09:50:25.501366 30568 net.cpp:100] Creating Layer conv8_2_mbox_loc_flat
I0322 09:50:25.501372 30568 net.cpp:434] conv8_2_mbox_loc_flat <- conv8_2_mbox_loc_perm
I0322 09:50:25.501382 30568 net.cpp:408] conv8_2_mbox_loc_flat -> conv8_2_mbox_loc_flat
I0322 09:50:25.501418 30568 net.cpp:150] Setting up conv8_2_mbox_loc_flat
I0322 09:50:25.501425 30568 net.cpp:157] Top shape: 1 144 (144)
I0322 09:50:25.501430 30568 net.cpp:165] Memory required for data: 260783440
I0322 09:50:25.501435 30568 layer_factory.hpp:77] Creating layer conv8_2_mbox_conf
I0322 09:50:25.501451 30568 net.cpp:100] Creating Layer conv8_2_mbox_conf
I0322 09:50:25.501457 30568 net.cpp:434] conv8_2_mbox_conf <- conv8_2_conv8_2_relu_0_split_2
I0322 09:50:25.501466 30568 net.cpp:408] conv8_2_mbox_conf -> conv8_2_mbox_conf
I0322 09:50:25.503821 30568 net.cpp:150] Setting up conv8_2_mbox_conf
I0322 09:50:25.503834 30568 net.cpp:157] Top shape: 1 44 3 3 (396)
I0322 09:50:25.503839 30568 net.cpp:165] Memory required for data: 260785024
I0322 09:50:25.503849 30568 layer_factory.hpp:77] Creating layer conv8_2_mbox_conf_perm
I0322 09:50:25.503862 30568 net.cpp:100] Creating Layer conv8_2_mbox_conf_perm
I0322 09:50:25.503868 30568 net.cpp:434] conv8_2_mbox_conf_perm <- conv8_2_mbox_conf
I0322 09:50:25.503880 30568 net.cpp:408] conv8_2_mbox_conf_perm -> conv8_2_mbox_conf_perm
I0322 09:50:25.504004 30568 net.cpp:150] Setting up conv8_2_mbox_conf_perm
I0322 09:50:25.504014 30568 net.cpp:157] Top shape: 1 3 3 44 (396)
I0322 09:50:25.504017 30568 net.cpp:165] Memory required for data: 260786608
I0322 09:50:25.504022 30568 layer_factory.hpp:77] Creating layer conv8_2_mbox_conf_flat
I0322 09:50:25.504030 30568 net.cpp:100] Creating Layer conv8_2_mbox_conf_flat
I0322 09:50:25.504037 30568 net.cpp:434] conv8_2_mbox_conf_flat <- conv8_2_mbox_conf_perm
I0322 09:50:25.504046 30568 net.cpp:408] conv8_2_mbox_conf_flat -> conv8_2_mbox_conf_flat
I0322 09:50:25.504082 30568 net.cpp:150] Setting up conv8_2_mbox_conf_flat
I0322 09:50:25.504092 30568 net.cpp:157] Top shape: 1 396 (396)
I0322 09:50:25.504097 30568 net.cpp:165] Memory required for data: 260788192
I0322 09:50:25.504103 30568 layer_factory.hpp:77] Creating layer conv8_2_mbox_priorbox
I0322 09:50:25.504112 30568 net.cpp:100] Creating Layer conv8_2_mbox_priorbox
I0322 09:50:25.504117 30568 net.cpp:434] conv8_2_mbox_priorbox <- conv8_2_conv8_2_relu_0_split_3
I0322 09:50:25.504124 30568 net.cpp:434] conv8_2_mbox_priorbox <- data_data_0_split_5
I0322 09:50:25.504134 30568 net.cpp:408] conv8_2_mbox_priorbox -> conv8_2_mbox_priorbox
I0322 09:50:25.504176 30568 net.cpp:150] Setting up conv8_2_mbox_priorbox
I0322 09:50:25.504185 30568 net.cpp:157] Top shape: 1 2 144 (288)
I0322 09:50:25.504190 30568 net.cpp:165] Memory required for data: 260789344
I0322 09:50:25.504195 30568 layer_factory.hpp:77] Creating layer conv9_2_mbox_loc
I0322 09:50:25.504210 30568 net.cpp:100] Creating Layer conv9_2_mbox_loc
I0322 09:50:25.504216 30568 net.cpp:434] conv9_2_mbox_loc <- conv9_2_conv9_2_relu_0_split_0
I0322 09:50:25.504226 30568 net.cpp:408] conv9_2_mbox_loc -> conv9_2_mbox_loc
I0322 09:50:25.505790 30568 net.cpp:150] Setting up conv9_2_mbox_loc
I0322 09:50:25.505805 30568 net.cpp:157] Top shape: 1 16 1 1 (16)
I0322 09:50:25.505808 30568 net.cpp:165] Memory required for data: 260789408
I0322 09:50:25.505820 30568 layer_factory.hpp:77] Creating layer conv9_2_mbox_loc_perm
I0322 09:50:25.505831 30568 net.cpp:100] Creating Layer conv9_2_mbox_loc_perm
I0322 09:50:25.505838 30568 net.cpp:434] conv9_2_mbox_loc_perm <- conv9_2_mbox_loc
I0322 09:50:25.505851 30568 net.cpp:408] conv9_2_mbox_loc_perm -> conv9_2_mbox_loc_perm
I0322 09:50:25.505977 30568 net.cpp:150] Setting up conv9_2_mbox_loc_perm
I0322 09:50:25.505986 30568 net.cpp:157] Top shape: 1 1 1 16 (16)
I0322 09:50:25.505990 30568 net.cpp:165] Memory required for data: 260789472
I0322 09:50:25.505995 30568 layer_factory.hpp:77] Creating layer conv9_2_mbox_loc_flat
I0322 09:50:25.506006 30568 net.cpp:100] Creating Layer conv9_2_mbox_loc_flat
I0322 09:50:25.506021 30568 net.cpp:434] conv9_2_mbox_loc_flat <- conv9_2_mbox_loc_perm
I0322 09:50:25.506029 30568 net.cpp:408] conv9_2_mbox_loc_flat -> conv9_2_mbox_loc_flat
I0322 09:50:25.506067 30568 net.cpp:150] Setting up conv9_2_mbox_loc_flat
I0322 09:50:25.506076 30568 net.cpp:157] Top shape: 1 16 (16)
I0322 09:50:25.506081 30568 net.cpp:165] Memory required for data: 260789536
I0322 09:50:25.506086 30568 layer_factory.hpp:77] Creating layer conv9_2_mbox_conf
I0322 09:50:25.506099 30568 net.cpp:100] Creating Layer conv9_2_mbox_conf
I0322 09:50:25.506105 30568 net.cpp:434] conv9_2_mbox_conf <- conv9_2_conv9_2_relu_0_split_1
I0322 09:50:25.506116 30568 net.cpp:408] conv9_2_mbox_conf -> conv9_2_mbox_conf
I0322 09:50:25.508450 30568 net.cpp:150] Setting up conv9_2_mbox_conf
I0322 09:50:25.508462 30568 net.cpp:157] Top shape: 1 44 1 1 (44)
I0322 09:50:25.508467 30568 net.cpp:165] Memory required for data: 260789712
I0322 09:50:25.508476 30568 layer_factory.hpp:77] Creating layer conv9_2_mbox_conf_perm
I0322 09:50:25.508486 30568 net.cpp:100] Creating Layer conv9_2_mbox_conf_perm
I0322 09:50:25.508494 30568 net.cpp:434] conv9_2_mbox_conf_perm <- conv9_2_mbox_conf
I0322 09:50:25.508505 30568 net.cpp:408] conv9_2_mbox_conf_perm -> conv9_2_mbox_conf_perm
I0322 09:50:25.508635 30568 net.cpp:150] Setting up conv9_2_mbox_conf_perm
I0322 09:50:25.508642 30568 net.cpp:157] Top shape: 1 1 1 44 (44)
I0322 09:50:25.508646 30568 net.cpp:165] Memory required for data: 260789888
I0322 09:50:25.508652 30568 layer_factory.hpp:77] Creating layer conv9_2_mbox_conf_flat
I0322 09:50:25.508661 30568 net.cpp:100] Creating Layer conv9_2_mbox_conf_flat
I0322 09:50:25.508667 30568 net.cpp:434] conv9_2_mbox_conf_flat <- conv9_2_mbox_conf_perm
I0322 09:50:25.508677 30568 net.cpp:408] conv9_2_mbox_conf_flat -> conv9_2_mbox_conf_flat
I0322 09:50:25.508714 30568 net.cpp:150] Setting up conv9_2_mbox_conf_flat
I0322 09:50:25.508723 30568 net.cpp:157] Top shape: 1 44 (44)
I0322 09:50:25.508728 30568 net.cpp:165] Memory required for data: 260790064
I0322 09:50:25.508733 30568 layer_factory.hpp:77] Creating layer conv9_2_mbox_priorbox
I0322 09:50:25.508741 30568 net.cpp:100] Creating Layer conv9_2_mbox_priorbox
I0322 09:50:25.508747 30568 net.cpp:434] conv9_2_mbox_priorbox <- conv9_2_conv9_2_relu_0_split_2
I0322 09:50:25.508754 30568 net.cpp:434] conv9_2_mbox_priorbox <- data_data_0_split_6
I0322 09:50:25.508764 30568 net.cpp:408] conv9_2_mbox_priorbox -> conv9_2_mbox_priorbox
I0322 09:50:25.508803 30568 net.cpp:150] Setting up conv9_2_mbox_priorbox
I0322 09:50:25.508812 30568 net.cpp:157] Top shape: 1 2 16 (32)
I0322 09:50:25.508816 30568 net.cpp:165] Memory required for data: 260790192
I0322 09:50:25.508821 30568 layer_factory.hpp:77] Creating layer mbox_loc
I0322 09:50:25.508827 30568 net.cpp:100] Creating Layer mbox_loc
I0322 09:50:25.508832 30568 net.cpp:434] mbox_loc <- conv4_3_norm_mbox_loc_flat
I0322 09:50:25.508837 30568 net.cpp:434] mbox_loc <- fc7_mbox_loc_flat
I0322 09:50:25.508843 30568 net.cpp:434] mbox_loc <- conv6_2_mbox_loc_flat
I0322 09:50:25.508848 30568 net.cpp:434] mbox_loc <- conv7_2_mbox_loc_flat
I0322 09:50:25.508853 30568 net.cpp:434] mbox_loc <- conv8_2_mbox_loc_flat
I0322 09:50:25.508857 30568 net.cpp:434] mbox_loc <- conv9_2_mbox_loc_flat
I0322 09:50:25.508862 30568 net.cpp:408] mbox_loc -> mbox_loc
I0322 09:50:25.508893 30568 net.cpp:150] Setting up mbox_loc
I0322 09:50:25.508899 30568 net.cpp:157] Top shape: 1 34928 (34928)
I0322 09:50:25.508903 30568 net.cpp:165] Memory required for data: 260929904
I0322 09:50:25.508905 30568 layer_factory.hpp:77] Creating layer mbox_conf
I0322 09:50:25.508911 30568 net.cpp:100] Creating Layer mbox_conf
I0322 09:50:25.508915 30568 net.cpp:434] mbox_conf <- conv4_3_norm_mbox_conf_flat
I0322 09:50:25.508920 30568 net.cpp:434] mbox_conf <- fc7_mbox_conf_flat
I0322 09:50:25.508924 30568 net.cpp:434] mbox_conf <- conv6_2_mbox_conf_flat
I0322 09:50:25.508929 30568 net.cpp:434] mbox_conf <- conv7_2_mbox_conf_flat
I0322 09:50:25.508934 30568 net.cpp:434] mbox_conf <- conv8_2_mbox_conf_flat
I0322 09:50:25.508945 30568 net.cpp:434] mbox_conf <- conv9_2_mbox_conf_flat
I0322 09:50:25.508950 30568 net.cpp:408] mbox_conf -> mbox_conf
I0322 09:50:25.508978 30568 net.cpp:150] Setting up mbox_conf
I0322 09:50:25.508985 30568 net.cpp:157] Top shape: 1 96052 (96052)
I0322 09:50:25.508987 30568 net.cpp:165] Memory required for data: 261314112
I0322 09:50:25.508991 30568 layer_factory.hpp:77] Creating layer mbox_priorbox
I0322 09:50:25.508997 30568 net.cpp:100] Creating Layer mbox_priorbox
I0322 09:50:25.509002 30568 net.cpp:434] mbox_priorbox <- conv4_3_norm_mbox_priorbox
I0322 09:50:25.509006 30568 net.cpp:434] mbox_priorbox <- fc7_mbox_priorbox
I0322 09:50:25.509011 30568 net.cpp:434] mbox_priorbox <- conv6_2_mbox_priorbox
I0322 09:50:25.509016 30568 net.cpp:434] mbox_priorbox <- conv7_2_mbox_priorbox
I0322 09:50:25.509019 30568 net.cpp:434] mbox_priorbox <- conv8_2_mbox_priorbox
I0322 09:50:25.509022 30568 net.cpp:434] mbox_priorbox <- conv9_2_mbox_priorbox
I0322 09:50:25.509027 30568 net.cpp:408] mbox_priorbox -> mbox_priorbox
I0322 09:50:25.509053 30568 net.cpp:150] Setting up mbox_priorbox
I0322 09:50:25.509058 30568 net.cpp:157] Top shape: 1 2 34928 (69856)
I0322 09:50:25.509063 30568 net.cpp:165] Memory required for data: 261593536
I0322 09:50:25.509065 30568 layer_factory.hpp:77] Creating layer mbox_conf_reshape
I0322 09:50:25.509073 30568 net.cpp:100] Creating Layer mbox_conf_reshape
I0322 09:50:25.509076 30568 net.cpp:434] mbox_conf_reshape <- mbox_conf
I0322 09:50:25.509083 30568 net.cpp:408] mbox_conf_reshape -> mbox_conf_reshape
I0322 09:50:25.509119 30568 net.cpp:150] Setting up mbox_conf_reshape
I0322 09:50:25.509125 30568 net.cpp:157] Top shape: 1 8732 11 (96052)
I0322 09:50:25.509129 30568 net.cpp:165] Memory required for data: 261977744
I0322 09:50:25.509132 30568 layer_factory.hpp:77] Creating layer mbox_conf_softmax
I0322 09:50:25.509138 30568 net.cpp:100] Creating Layer mbox_conf_softmax
I0322 09:50:25.509142 30568 net.cpp:434] mbox_conf_softmax <- mbox_conf_reshape
I0322 09:50:25.509151 30568 net.cpp:408] mbox_conf_softmax -> mbox_conf_softmax
I0322 09:50:25.509394 30568 net.cpp:150] Setting up mbox_conf_softmax
I0322 09:50:25.509403 30568 net.cpp:157] Top shape: 1 8732 11 (96052)
I0322 09:50:25.509407 30568 net.cpp:165] Memory required for data: 262361952
I0322 09:50:25.509411 30568 layer_factory.hpp:77] Creating layer mbox_conf_flatten
I0322 09:50:25.509416 30568 net.cpp:100] Creating Layer mbox_conf_flatten
I0322 09:50:25.509421 30568 net.cpp:434] mbox_conf_flatten <- mbox_conf_softmax
I0322 09:50:25.509426 30568 net.cpp:408] mbox_conf_flatten -> mbox_conf_flatten
I0322 09:50:25.509455 30568 net.cpp:150] Setting up mbox_conf_flatten
I0322 09:50:25.509461 30568 net.cpp:157] Top shape: 1 96052 (96052)
I0322 09:50:25.509464 30568 net.cpp:165] Memory required for data: 262746160
I0322 09:50:25.509467 30568 layer_factory.hpp:77] Creating layer detection_out
I0322 09:50:25.509480 30568 net.cpp:100] Creating Layer detection_out
I0322 09:50:25.509485 30568 net.cpp:434] detection_out <- mbox_loc
I0322 09:50:25.509488 30568 net.cpp:434] detection_out <- mbox_conf_flatten
I0322 09:50:25.509493 30568 net.cpp:434] detection_out <- mbox_priorbox
I0322 09:50:25.509500 30568 net.cpp:408] detection_out -> detection_out
W0322 09:50:25.509526 30568 detection_output_layer.cpp:49] Failed to create directory: /home/zs/data/VOCdevkit/results/VOC2007/SSD_300x300_0322_conv4_2/Main
I0322 09:50:25.510097 30568 net.cpp:150] Setting up detection_out
I0322 09:50:25.510112 30568 net.cpp:157] Top shape: 1 1 1 7 (7)
I0322 09:50:25.510118 30568 net.cpp:165] Memory required for data: 262746188
I0322 09:50:25.510123 30568 layer_factory.hpp:77] Creating layer detection_eval
I0322 09:50:25.510133 30568 net.cpp:100] Creating Layer detection_eval
I0322 09:50:25.510141 30568 net.cpp:434] detection_eval <- detection_out
I0322 09:50:25.510149 30568 net.cpp:434] detection_eval <- label
I0322 09:50:25.510157 30568 net.cpp:408] detection_eval -> detection_eval
I0322 09:50:25.510248 30568 net.cpp:150] Setting up detection_eval
I0322 09:50:25.510265 30568 net.cpp:157] Top shape: 1 1 11 5 (55)
I0322 09:50:25.510270 30568 net.cpp:165] Memory required for data: 262746408
I0322 09:50:25.510277 30568 net.cpp:228] detection_eval does not need backward computation.
I0322 09:50:25.510282 30568 net.cpp:228] detection_out does not need backward computation.
I0322 09:50:25.510288 30568 net.cpp:228] mbox_conf_flatten does not need backward computation.
I0322 09:50:25.510295 30568 net.cpp:228] mbox_conf_softmax does not need backward computation.
…
