…
      sampler {
        min_scale: 0.3
        max_scale: 1
        min_aspect_ratio: 0.5
        max_aspect_ratio: 2
      }
      sample_constraint {
        min_jaccard_overlap: 0.9
      }
      max_sample: 1
      max_trials: 50
    }
    batch_sampler {
      sampler {
        min_scale: 0.3
        max_scale: 1
        min_aspect_ratio: 0.5
        max_aspect_ratio: 2
      }
      sample_constraint {
        max_jaccard_overlap: 1
      }
      max_sample: 1
      max_trials: 50
    }
    label_map_file: "data/VOC0712/labelmap_voc.prototxt"
  }
}
layer {
  name: "conv1_1"
  type: "Convolution"
  bottom: "data"
  top: "conv1_1"
  param {
    lr_mult: 1
    decay_mult: 1
  }
  param {
    lr_mult: 2
    decay_mult: 0
  }
  convolution_param {
    num_output: 64
    pad: 1
    kernel_size: 3
    weight_filler {
      type: "xavier"
    }
    bias_filler {
      type: "constant"
      value: 0
    }
  }
}
layer {
  name: "relu1_1"
  type: "ReLU"
  bottom: "conv1_1"
  top: "conv1_1"
}
layer {
  name: "conv1_2"
  type: "Convolution"
  bottom: "conv1_1"
  top: "conv1_2"
  param {
    lr_mult: 1
    decay_mult: 1
  }
  param {
    lr_mult: 2
    decay_mult: 0
  }
  convolution_param {
    num_output: 64
    pad: 1
    kernel_size: 3
    weight_filler {
      type: "xavier"
    }
    bias_filler {
      type: "constant"
      value: 0
    }
  }
}
layer {
  name: "relu1_2"
  type: "ReLU"
  bottom: "conv1_2"
  top: "conv1_2"
}
layer {
  name: "pool1"
  type: "Pooling"
  bottom: "conv1_2"
  top: "pool1"
  pooling_param {
    pool: MAX
    kernel_size: 2
    stride: 2
  }
}
layer {
  name: "conv2_1"
  type: "Convolution"
  bottom: "pool1"
  top: "conv2_1"
  param {
    lr_mult: 1
    decay_mult: 1
  }
  param {
    lr_mult: 2
    decay_mult: 0
  }
  convolution_param {
    num_output: 128
    pad: 1
    kernel_size: 3
    weight_filler {
      type: "xavier"
    }
    bias_filler {
      type: "constant"
      value: 0
    }
  }
}
layer {
  name: "relu2_1"
  type: "ReLU"
  bottom: "conv2_1"
  top: "conv2_1"
}
layer {
  name: "conv2_2"
  type: "Convolution"
  bottom: "conv2_1"
  top: "conv2_2"
  param {
    lr_mult: 1
    decay_mult: 1
  }
  param {
    lr_mult: 2
    decay_mult: 0
  }
  convolution_param {
    num_output: 128
    pad: 1
    kernel_size: 3
    weight_filler {
      type: "xavier"
    }
    bias_filler {
      type: "constant"
      value: 0
    }
  }
}
layer {
  name: "relu2_2"
  type: "ReLU"
  bottom: "conv2_2"
  top: "conv2_2"
}
layer {
  name: "pool2"
  type: "Pooling"
  bottom: "conv2_2"
  top: "pool2"
  pooling_param {
    pool: MAX
    kernel_size: 2
    stride: 2
  }
}
layer {
  name: "conv3_1"
  type: "Convolution"
  bottom: "pool2"
  top: "conv3_1"
  param {
    lr_mult: 1
    decay_mult: 1
  }
  param {
    lr_mult: 2
    decay_mult: 0
  }
  convolution_param {
    num_output: 256
    pad: 1
    kernel_size: 3
    weight_filler {
      type: "xavier"
    }
    bias_filler {
      type: "constant"
      value: 0
    }
  }
}
layer {
  name: "relu3_1"
  type: "ReLU"
  bottom: "conv3_1"
  top: "conv3_1"
}
layer {
  name: "conv3_2"
  type: "Convolution"
  bottom: "conv3_1"
  top: "conv3_2"
  param {
    lr_mult: 1
    decay_mult: 1
  }
  param {
    lr_mult: 2
    decay_mult: 0
  }
  convolution_param {
    num_output: 256
    pad: 1
    kernel_size: 3
    weight_filler {
      type: "xavier"
    }
    bias_filler {
      type: "constant"
      value: 0
    }
  }
}
layer {
  name: "relu3_2"
  type: "ReLU"
  bottom: "conv3_2"
  top: "conv3_2"
}
layer {
  name: "conv3_3"
  type: "Convolution"
  bottom: "conv3_2"
  top: "conv3_3"
  param {
    lr_mult: 1
    decay_mult: 1
  }
  param {
    lr_mult: 2
    decay_mult: 0
  }
  convolution_param {
    num_output: 256
    pad: 1
    kernel_size: 3
    weight_filler {
      type: "xavier"
    }
    bias_filler {
      type: "constant"
      value: 0
    }
  }
}
layer {
  name: "relu3_3"
  type: "ReLU"
  bottom: "conv3_3"
  top: "conv3_3"
}
layer {
  name: "pool3"
  type: "Pooling"
  bottom: "conv3_3"
  top: "pool3"
  pooling_param {
    pool: MAX
    kernel_size: 2
    stride: 2
  }
}
layer {
  name: "conv4_1"
  type: "Convolution"
  bottom: "pool3"
  top: "conv4_1"
  param {
    lr_mult: 1
    decay_mult: 1
  }
  param {
    lr_mult: 2
    decay_mult: 0
  }
  convolution_param {
    num_output: 512
    pad: 1
    kernel_size: 3
    weight_filler {
      type: "xavier"
    }
    bias_filler {
      type: "constant"
      value: 0
    }
  }
}
layer {
  name: "relu4_1"
  type: "ReLU"
  bottom: "conv4_1"
  top: "conv4_1"
}
layer {
  name: "conv4_2"
  type: "Convolution"
  bottom: "conv4_1"
  top: "conv4_2"
  param {
    lr_mult: 1
    decay_mult: 1
  }
  param {
    lr_mult: 2
    decay_mult: 0
  }
  convolution_param {
    num_output: 512
    pad: 1
    kernel_size: 3
    weight_filler {
      type: "xavier"
    }
    bias_filler {
      type: "constant"
      value: 0
    }
  }
}
layer {
  name: "relu4_2"
  type: "ReLU"
  bottom: "conv4_2"
  top: "conv4_2"
}
layer {
  name: "conv4_3"
  type: "Convolution"
  bottom: "conv4_2"
  top: "conv4_3"
  param {
    lr_mult: 1
    decay_mult: 1
  }
  param {
    lr_mult: 2
    decay_mult: 0
  }
  convolution_param {
    num_output: 512
    pad: 1
    kernel_size: 3
    weight_filler {
      type: "xavier"
    }
    bias_filler {
      type: "constant"
      value: 0
    }
  }
}
layer {
  name: "relu4_3"
  type: "ReLU"
  bottom: "conv4_3"
  top: "conv4_3"
}
layer {
  name: "pool4"
  type: "Pooling"
  bottom: "conv4_3"
  top: "pool4"
  pooling_param {
    pool: MAX
    kernel_size: 2
    stride: 2
  }
}
layer {
  name: "conv5_1"
  type: "Convolution"
  bottom: "pool4"
  top: "conv5_1"
  param {
    lr_mult: 1
    decay_mult: 1
  }
  param {
    lr_mult: 2
    decay_mult: 0
  }
  convolution_param {
    num_output: 512
    pad: 1
    kernel_size: 3
    weight_filler {
      type: "xavier"
    }
    bias_filler {
      type: "constant"
      value: 0
    }
    dilation: 1
  }
}
layer {
  name: "relu5_1"
  type: "ReLU"
  bottom: "conv5_1"
  top: "conv5_1"
}
layer {
  name: "conv5_2"
  type: "Convolution"
  bottom: "conv5_1"
  top: "conv5_2"
  param {
    lr_mult: 1
    decay_mult: 1
  }
  param {
    lr_mult: 2
    decay_mult: 0
  }
  convolution_param {
    num_output: 512
    pad: 1
    kernel_size: 3
    weight_filler {
      type: "xavier"
    }
    bias_filler {
      type: "constant"
      value: 0
    }
    dilation: 1
  }
}
layer {
  name: "relu5_2"
  type: "ReLU"
  bottom: "conv5_2"
  top: "conv5_2"
}
layer {
  name: "conv5_3"
  type: "Convolution"
  bottom: "conv5_2"
  top: "conv5_3"
  param {
    lr_mult: 1
    decay_mult: 1
  }
  param {
    lr_mult: 2
    decay_mult: 0
  }
  convolution_param {
    num_output: 512
    pad: 1
    kernel_size: 3
    weight_filler {
      type: "xavier"
    }
    bias_filler {
      type: "constant"
      value: 0
    }
    dilation: 1
  }
}
layer {
  name: "relu5_3"
  type: "ReLU"
  bottom: "conv5_3"
  top: "conv5_3"
}
layer {
  name: "pool5"
  type: "Pooling"
  bottom: "conv5_3"
  top: "pool5"
  pooling_param {
    pool: MAX
    kernel_size: 3
    stride: 1
    pad: 1
  }
}
layer {
  name: "fc6"
  type: "Convolution"
  bottom: "pool5"
  top: "fc6"
  param {
    lr_mult: 1
    decay_mult: 1
  }
  param {
    lr_mult: 2
    decay_mult: 0
  }
  convolution_param {
    num_output: 1024
    pad: 6
    kernel_size: 3
    weight_filler {
      type: "xavier"
    }
    bias_filler {
      type: "constant"
      value: 0
    }
    dilation: 6
  }
}
layer {
  name: "relu6"
  type: "ReLU"
  bottom: "fc6"
  top: "fc6"
}
layer {
  name: "fc7"
  type: "Convolution"
  bottom: "fc6"
  top: "fc7"
  param {
    lr_mult: 1
    decay_mult: 1
  }
  param {
    lr_mult: 2
    decay_mult: 0
  }
  convolution_param {
    num_output: 1024
    kernel_size: 1
    weight_filler {
      type: "xavier"
    }
    bias_filler {
      type: "constant"
      value: 0
    }
  }
}
layer {
  name: "relu7"
  type: "ReLU"
  bottom: "fc7"
  top: "fc7"
}
layer {
  name: "conv6_1"
  type: "Convolution"
  bottom: "fc7"
  top: "conv6_1"
  param {
    lr_mult: 1
    decay_mult: 1
  }
  param {
    lr_mult: 2
    decay_mult: 0
  }
  convolution_param {
    num_output: 256
    pad: 0
    kernel_size: 1
    stride: 1
    weight_filler {
      type: "xavier"
    }
    bias_filler {
      type: "constant"
      value: 0
    }
  }
}
layer {
  name: "conv6_1_relu"
  type: "ReLU"
  bottom: "conv6_1"
  top: "conv6_1"
}
layer {
  name: "conv6_2"
  type: "Convolution"
  bottom: "conv6_1"
  top: "conv6_2"
  param {
    lr_mult: 1
    decay_mult: 1
  }
  param {
    lr_mult: 2
    decay_mult: 0
  }
  convolution_param {
    num_output: 512
    pad: 1
    kernel_size: 3
    stride: 2
    weight_filler {
      type: "xavier"
    }
    bias_filler {
      type: "constant"
      value: 0
    }
  }
}
layer {
  name: "conv6_2_relu"
  type: "ReLU"
  bottom: "conv6_2"
  top: "conv6_2"
}
layer {
  name: "conv7_1"
  type: "Convolution"
  bottom: "conv6_2"
  top: "conv7_1"
  param {
    lr_mult: 1
    decay_mult: 1
  }
  param {
    lr_mult: 2
    decay_mult: 0
  }
  convolution_param {
    num_output: 128
    pad: 0
    kernel_size: 1
    stride: 1
    weight_filler {
      type: "xavier"
    }
    bias_filler {
      type: "constant"
      value: 0
    }
  }
}
layer {
  name: "conv7_1_relu"
  type: "ReLU"
  bottom: "conv7_1"
  top: "conv7_1"
}
layer {
  name: "conv7_2"
  type: "Convolution"
  bottom: "conv7_1"
  top: "conv7_2"
  param {
    lr_mult: 1
    decay_mult: 1
  }
  param {
    lr_mult: 2
    decay_mult: 0
  }
  convolution_param {
    num_output: 256
    pad: 1
    kernel_size: 3
    stride: 2
    weight_filler {
      type: "xavier"
    }
    bias_filler {
      type: "constant"
      value: 0
    }
  }
}
layer {
  name: "conv7_2_relu"
  type: "ReLU"
  bottom: "conv7_2"
  top: "conv7_2"
}
layer {
  name: "conv8_1"
  type: "Convolution"
  bottom: "conv7_2"
  top: "conv8_1"
  param {
    lr_mult: 1
    decay_mult: 1
  }
  param {
    lr_mult: 2
    decay_mult: 0
  }
  convolution_param {
    num_output: 128
    pad: 0
    kernel_size: 1
    stride: 1
    weight_filler {
      type: "xavier"
    }
    bias_filler {
      type: "constant"
      value: 0
    }
  }
}
layer {
  name: "conv8_1_relu"
  type: "ReLU"
  bottom: "conv8_1"
  top: "conv8_1"
}
layer {
  name: "conv8_2"
  type: "Convolution"
  bottom: "conv8_1"
  top: "conv8_2"
  param {
    lr_mult: 1
    decay_mult: 1
  }
  param {
    lr_mult: 2
    decay_mult: 0
  }
  convolution_param {
    num_output: 256
    pad: 0
    kernel_size: 3
    stride: 1
    weight_filler {
      type: "xavier"
    }
    bias_filler {
      type: "constant"
      value: 0
    }
  }
}
layer {
  name: "conv8_2_relu"
  type: "ReLU"
  bottom: "conv8_2"
  top: "conv8_2"
}
layer {
  name: "conv9_1"
  type: "Convolution"
  bottom: "conv8_2"
  top: "conv9_1"
  param {
    lr_mult: 1
    decay_mult: 1
  }
  param {
    lr_mult: 2
    decay_mult: 0
  }
  convolution_param {
    num_output: 128
    pad: 0
    kernel_size: 1
    stride: 1
    weight_filler {
      type: "xavier"
    }
    bias_filler {
      type: "constant"
      value: 0
    }
  }
}
layer {
  name: "conv9_1_relu"
  type: "ReLU"
  bottom: "conv9_1"
  top: "conv9_1"
}
layer {
  name: "conv9_2"
  type: "Convolution"
  bottom: "conv9_1"
  top: "conv9_2"
  param {
    lr_mult: 1
    decay_mult: 1
  }
  param {
    lr_mult: 2
    decay_mult: 0
  }
  convolution_param {
    num_output: 256
    pad: 0
    kernel_size: 3
    stride: 1
    weight_filler {
      type: "xavier"
    }
    bias_filler {
      type: "constant"
      value: 0
    }
  }
}
layer {
  name: "conv9_2_relu"
  type: "ReLU"
  bottom: "conv9_2"
  top: "conv9_2"
}
layer {
  name: "conv4_3_norm"
  type: "Normalize"
  bottom: "conv4_3"
  top: "conv4_3_norm"
  norm_param {
    across_spatial: false
    scale_filler {
      type: "constant"
      value: 20
    }
    channel_shared: false
  }
}
layer {
  name: "conv4_3_norm_mbox_loc"
  type: "Convolution"
  bottom: "conv4_3_norm"
  top: "conv4_3_norm_mbox_loc"
  param {
    lr_mult: 1
    decay_mult: 1
  }
  param {
    lr_mult: 2
    decay_mult: 0
  }
  convolution_param {
    num_output: 16
    pad: 1
    kernel_size: 3
    stride: 1
    weight_filler {
      type: "xavier"
    }
    bias_filler {
      type: "constant"
      value: 0
    }
  }
}
layer {
  name: "conv4_3_norm_mbox_loc_perm"
  type: "Permute"
  bottom: "conv4_3_norm_mbox_loc"
  top: "conv4_3_norm_mbox_loc_perm"
  permute_param {
    order: 0
    order: 2
    order: 3
    order: 1
  }
}
layer {
  name: "conv4_3_norm_mbox_loc_flat"
  type: "Flatten"
  bottom: "conv4_3_norm_mbox_loc_perm"
  top: "conv4_3_norm_mbox_loc_flat"
  flatten_param {
    axis: 1
  }
}
layer {
  name: "conv4_3_norm_mbox_conf"
  type: "Convolution"
  bottom: "conv4_3_norm"
  top: "conv4_3_norm_mbox_conf"
  param {
    lr_mult: 1
    decay_mult: 1
  }
  param {
    lr_mult: 2
    decay_mult: 0
  }
  convolution_param {
    num_output: 84
    pad: 1
    kernel_size: 3
    stride: 1
    weight_filler {
      type: "xavier"
    }
    bias_filler {
      type: "constant"
      value: 0
    }
  }
}
layer {
  name: "conv4_3_norm_mbox_conf_perm"
  type: "Permute"
  bottom: "conv4_3_norm_mbox_conf"
  top: "conv4_3_norm_mbox_conf_perm"
  permute_param {
    order: 0
    order: 2
    order: 3
    order: 1
  }
}
layer {
  name: "conv4_3_norm_mbox_conf_flat"
  type: "Flatten"
  bottom: "conv4_3_norm_mbox_conf_perm"
  top: "conv4_3_norm_mbox_conf_flat"
  flatten_param {
    axis: 1
  }
}
layer {
  name: "conv4_3_norm_mbox_priorbox"
  type: "PriorBox"
  bottom: "conv4_3_norm"
  bottom: "data"
  top: "conv4_3_norm_mbox_priorbox"
  prior_box_param {
    min_size: 30
    max_size: 60
    aspect_ratio: 2
    flip: true
    clip: false
    variance: 0.1
    variance: 0.1
    variance: 0.2
    variance: 0.2
    step: 8
    offset: 0.5
  }
}
layer {
  name: "fc7_mbox_loc"
  type: "Convolution"
  bottom: "fc7"
  top: "fc7_mbox_loc"
  param {
    lr_mult: 1
    decay_mult: 1
  }
  param {
    lr_mult: 2
    decay_mult: 0
  }
  convolution_param {
    num_output: 24
    pad: 1
    kernel_size: 3
    stride: 1
    weight_filler {
      type: "xavier"
    }
    bias_filler {
      type: "constant"
      value: 0
    }
  }
}
layer {
  name: "fc7_mbox_loc_perm"
  type: "Permute"
  bottom: "fc7_mbox_loc"
  top: "fc7_mbox_loc_perm"
  permute_param {
    order: 0
    order: 2
    order: 3
    order: 1
  }
}
layer {
  name: "fc7_mbox_loc_flat"
  type: "Flatten"
  bottom: "fc7_mbox_loc_perm"
  top: "fc7_mbox_loc_flat"
  flatten_param {
    axis: 1
  }
}
layer {
  name: "fc7_mbox_conf"
  type: "Convolution"
  bottom: "fc7"
  top: "fc7_mbox_conf"
  param {
    lr_mult: 1
    decay_mult: 1
  }
  param {
    lr_mult: 2
    decay_mult: 0
  }
  convolution_param {
    num_output: 126
    pad: 1
    kernel_size: 3
    stride: 1
    weight_filler {
      type: "xavier"
    }
    bias_filler {
      type: "constant"
      value: 0
    }
  }
}
layer {
  name: "fc7_mbox_conf_perm"
  type: "Permute"
  bottom: "fc7_mbox_conf"
  top: "fc7_mbox_conf_perm"
  permute_param {
    order: 0
    order: 2
    order: 3
    order: 1
  }
}
layer {
  name: "fc7_mbox_conf_flat"
  type: "Flatten"
  bottom: "fc7_mbox_conf_perm"
  top: "fc7_mbox_conf_flat"
  flatten_param {
    axis: 1
  }
}
layer {
  name: "fc7_mbox_priorbox"
  type: "PriorBox"
  bottom: "fc7"
  bottom: "data"
  top: "fc7_mbox_priorbox"
  prior_box_param {
    min_size: 60
    max_size: 111
    aspect_ratio: 2
    aspect_ratio: 3
    flip: true
    clip: false
    variance: 0.1
    variance: 0.1
    variance: 0.2
    variance: 0.2
    step: 16
    offset: 0.5
  }
}
layer {
  name: "conv6_2_mbox_loc"
  type: "Convolution"
  bottom: "conv6_2"
  top: "conv6_2_mbox_loc"
  param {
    lr_mult: 1
    decay_mult: 1
  }
  param {
    lr_mult: 2
    decay_mult: 0
  }
  convolution_param {
    num_output: 24
    pad: 1
    kernel_size: 3
    stride: 1
    weight_filler {
      type: "xavier"
    }
    bias_filler {
      type: "constant"
      value: 0
    }
  }
}
layer {
  name: "conv6_2_mbox_loc_perm"
  type: "Permute"
  bottom: "conv6_2_mbox_loc"
  top: "conv6_2_mbox_loc_perm"
  permute_param {
    order: 0
    order: 2
    order: 3
    order: 1
  }
}
layer {
  name: "conv6_2_mbox_loc_flat"
  type: "Flatten"
  bottom: "conv6_2_mbox_loc_perm"
  top: "conv6_2_mbox_loc_flat"
  flatten_param {
    axis: 1
  }
}
layer {
  name: "conv6_2_mbox_conf"
  type: "Convolution"
  bottom: "conv6_2"
  top: "conv6_2_mbox_conf"
  param {
    lr_mult: 1
    decay_mult: 1
  }
  param {
    lr_mult: 2
    decay_mult: 0
  }
  convolution_param {
    num_output: 126
    pad: 1
    kernel_size: 3
    stride: 1
    weight_filler {
      type: "xavier"
    }
    bias_filler {
      type: "constant"
      value: 0
    }
  }
}
layer {
  name: "conv6_2_mbox_conf_perm"
  type: "Permute"
  bottom: "conv6_2_mbox_conf"
  top: "conv6_2_mbox_conf_perm"
  permute_param {
    order: 0
    order: 2
    order: 3
    order: 1
  }
}
layer {
  name: "conv6_2_mbox_conf_flat"
  type: "Flatten"
  bottom: "conv6_2_mbox_conf_perm"
  top: "conv6_2_mbox_conf_flat"
  flatten_param {
    axis: 1
  }
}
layer {
  name: "conv6_2_mbox_priorbox"
  type: "PriorBox"
  bottom: "conv6_2"
  bottom: "data"
  top: "conv6_2_mbox_priorbox"
  prior_box_param {
    min_size: 111
    max_size: 162
    aspect_ratio: 2
    aspect_ratio: 3
    flip: true
    clip: false
    variance: 0.1
    variance: 0.1
    variance: 0.2
    variance: 0.2
    step: 32
    offset: 0.5
  }
}
layer {
  name: "conv7_2_mbox_loc"
  type: "Convolution"
  bottom: "conv7_2"
  top: "conv7_2_mbox_loc"
  param {
    lr_mult: 1
    decay_mult: 1
  }
  param {
    lr_mult: 2
    decay_mult: 0
  }
  convolution_param {
    num_output: 24
    pad: 1
    kernel_size: 3
    stride: 1
    weight_filler {
      type: "xavier"
    }
    bias_filler {
      type: "constant"
      value: 0
    }
  }
}
layer {
  name: "conv7_2_mbox_loc_perm"
  type: "Permute"
  bottom: "conv7_2_mbox_loc"
  top: "conv7_2_mbox_loc_perm"
  permute_param {
    order: 0
    order: 2
    order: 3
    order: 1
  }
}
layer {
  name: "conv7_2_mbox_loc_flat"
  type: "Flatten"
  bottom: "conv7_2_mbox_loc_perm"
  top: "conv7_2_mbox_loc_flat"
  flatten_param {
    axis: 1
  }
}
layer {
  name: "conv7_2_mbox_conf"
  type: "Convolution"
  bottom: "conv7_2"
  top: "conv7_2_mbox_conf"
  param {
    lr_mult: 1
    decay_mult: 1
  }
  param {
    lr_mult: 2
    decay_mult: 0
  }
  convolution_param {
    num_output: 126
    pad: 1
    kernel_size: 3
    stride: 1
    weight_filler {
      type: "xavier"
    }
    bias_filler {
      type: "constant"
      value: 0
    }
  }
}
layer {
  name: "conv7_2_mbox_conf_perm"
  type: "Permute"
  bottom: "conv7_2_mbox_conf"
  top: "conv7_2_mbox_conf_perm"
  permute_param {
    order: 0
    order: 2
    order: 3
    order: 1
  }
}
layer {
  name: "conv7_2_mbox_conf_flat"
  type: "Flatten"
  bottom: "conv7_2_mbox_conf_perm"
  top: "conv7_2_mbox_conf_flat"
  flatten_param {
    axis: 1
  }
}
layer {
  name: "conv7_2_mbox_priorbox"
  type: "PriorBox"
  bottom: "conv7_2"
  bottom: "data"
  top: "conv7_2_mbox_priorbox"
  prior_box_param {
    min_size: 162
    max_size: 213
    aspect_ratio: 2
    aspect_ratio: 3
    flip: true
    clip: false
    variance: 0.1
    variance: 0.1
    variance: 0.2
    variance: 0.2
    step: 64
    offset: 0.5
  }
}
layer {
  name: "conv8_2_mbox_loc"
  type: "Convolution"
  bottom: "conv8_2"
  top: "conv8_2_mbox_loc"
  param {
    lr_mult: 1
    decay_mult: 1
  }
  param {
    lr_mult: 2
    decay_mult: 0
  }
  convolution_param {
    num_output: 16
    pad: 1
    kernel_size: 3
    stride: 1
    weight_filler {
      type: "xavier"
    }
    bias_filler {
      type: "constant"
      value: 0
    }
  }
}
layer {
  name: "conv8_2_mbox_loc_perm"
  type: "Permute"
  bottom: "conv8_2_mbox_loc"
  top: "conv8_2_mbox_loc_perm"
  permute_param {
    order: 0
    order: 2
    order: 3
    order: 1
  }
}
layer {
  name: "conv8_2_mbox_loc_flat"
  type: "Flatten"
  bottom: "conv8_2_mbox_loc_perm"
  top: "conv8_2_mbox_loc_flat"
  flatten_param {
    axis: 1
  }
}
layer {
  name: "conv8_2_mbox_conf"
  type: "Convolution"
  bottom: "conv8_2"
  top: "conv8_2_mbox_conf"
  param {
    lr_mult: 1
    decay_mult: 1
  }
  param {
    lr_mult: 2
    decay_mult: 0
  }
  convolution_param {
    num_output: 84
    pad: 1
    kernel_size: 3
    stride: 1
    weight_filler {
      type: "xavier"
    }
    bias_filler {
      type: "constant"
      value: 0
    }
  }
}
layer {
  name: "conv8_2_mbox_conf_perm"
  type: "Permute"
  bottom: "conv8_2_mbox_conf"
  top: "conv8_2_mbox_conf_perm"
  permute_param {
    order: 0
    order: 2
    order: 3
    order: 1
  }
}
layer {
  name: "conv8_2_mbox_conf_flat"
  type: "Flatten"
  bottom: "conv8_2_mbox_conf_perm"
  top: "conv8_2_mbox_conf_flat"
  flatten_param {
    axis: 1
  }
}
layer {
  name: "conv8_2_mbox_priorbox"
  type: "PriorBox"
  bottom: "conv8_2"
  bottom: "data"
  top: "conv8_2_mbox_priorbox"
  prior_box_param {
    min_size: 213
    max_size: 264
    aspect_ratio: 2
    flip: true
    clip: false
    variance: 0.1
    variance: 0.1
    variance: 0.2
    variance: 0.2
    step: 100
    offset: 0.5
  }
}
layer {
  name: "conv9_2_mbox_loc"
  type: "Convolution"
  bottom: "conv9_2"
  top: "conv9_2_mbox_loc"
  param {
    lr_mult: 1
    decay_mult: 1
  }
  param {
    lr_mult: 2
    decay_mult: 0
  }
  convolution_param {
    num_output: 16
    pad: 1
    kernel_size: 3
    stride: 1
    weight_filler {
      type: "xavier"
    }
    bias_filler {
      type: "constant"
      value: 0
    }
  }
}
layer {
  name: "conv9_2_mbox_loc_perm"
  type: "Permute"
  bottom: "conv9_2_mbox_loc"
  top: "conv9_2_mbox_loc_perm"
  permute_param {
    order: 0
    order: 2
    order: 3
    order: 1
  }
}
layer {
  name: "conv9_2_mbox_loc_flat"
  type: "Flatten"
  bottom: "conv9_2_mbox_loc_perm"
  top: "conv9_2_mbox_loc_flat"
  flatten_param {
    axis: 1
  }
}
layer {
  name: "conv9_2_mbox_conf"
  type: "Convolution"
  bottom: "conv9_2"
  top: "conv9_2_mbox_conf"
  param {
    lr_mult: 1
    decay_mult: 1
  }
  param {
    lr_mult: 2
    decay_mult: 0
  }
  convolution_param {
    num_output: 84
    pad: 1
    kernel_size: 3
    stride: 1
    weight_filler {
      type: "xavier"
    }
    bias_filler {
      type: "constant"
      value: 0
    }
  }
}
layer {
  name: "conv9_2_mbox_conf_perm"
  type: "Permute"
  bottom: "conv9_2_mbox_conf"
  top: "conv9_2_mbox_conf_perm"
  permute_param {
    order: 0
    order: 2
    order: 3
    order: 1
  }
}
layer {
  name: "conv9_2_mbox_conf_flat"
  type: "Flatten"
  bottom: "conv9_2_mbox_conf_perm"
  top: "conv9_2_mbox_conf_flat"
  flatten_param {
    axis: 1
  }
}
layer {
  name: "conv9_2_mbox_priorbox"
  type: "PriorBox"
  bottom: "conv9_2"
  bottom: "data"
  top: "conv9_2_mbox_priorbox"
  prior_box_param {
    min_size: 264
    max_size: 315
    aspect_ratio: 2
    flip: true
    clip: false
    variance: 0.1
    variance: 0.1
    variance: 0.2
    variance: 0.2
    step: 300
    offset: 0.5
  }
}
layer {
  name: "mbox_loc"
  type: "Concat"
  bottom: "conv4_3_norm_mbox_loc_flat"
  bottom: "fc7_mbox_loc_flat"
  bottom: "conv6_2_mbox_loc_flat"
  bottom: "conv7_2_mbox_loc_flat"
  bottom: "conv8_2_mbox_loc_flat"
  bottom: "conv9_2_mbox_loc_flat"
  top: "mbox_loc"
  concat_param {
    axis: 1
  }
}
layer {
  name: "mbox_conf"
  type: "Concat"
  bottom: "conv4_3_norm_mbox_conf_flat"
  bottom: "fc7_mbox_conf_flat"
  bottom: "conv6_2_mbox_conf_flat"
  bottom: "conv7_2_mbox_conf_flat"
  bottom: "conv8_2_mbox_conf_flat"
  bottom: "conv9_2_mbox_conf_flat"
  top: "mbox_conf"
  concat_param {
    axis: 1
  }
}
layer {
  name: "mbox_priorbox"
  type: "Concat"
  bottom: "conv4_3_norm_mbox_priorbox"
  bottom: "fc7_mbox_priorbox"
  bottom: "conv6_2_mbox_priorbox"
  bottom: "conv7_2_mbox_priorbox"
  bottom: "conv8_2_mbox_priorbox"
  bottom: "conv9_2_mbox_priorbox"
  top: "mbox_priorbox"
  concat_param {
    axis: 2
  }
}
layer {
  name: "mbox_loss"
  type: "MultiBoxLoss"
  bottom: "mbox_loc"
  bottom: "mbox_conf"
  bottom: "mbox_priorbox"
  bottom: "label"
  top: "mbox_loss"
  include {
    phase: TRAIN
  }
  propagate_down: true
  propagate_down: true
  propagate_down: false
  propagate_down: false
  loss_param {
    normalization: VALID
  }
  multibox_loss_param {
    loc_loss_type: SMOOTH_L1
    conf_loss_type: SOFTMAX
    loc_weight: 1
    num_classes: 21
    share_location: true
    match_type: PER_PREDICTION
    overlap_threshold: 0.5
    use_prior_for_matching: true
    background_label_id: 0
    use_difficult_gt: true
    neg_pos_ratio: 3
    neg_overlap: 0.5
    code_type: CENTER_SIZE
    ignore_cross_boundary_bbox: false
    mining_type: MAX_NEGATIVE
  }
}
I0228 14:53:47.521136 15940 layer_factory.hpp:77] Creating layer data
I0228 14:53:47.521575 15940 net.cpp:100] Creating Layer data
I0228 14:53:47.521592 15940 net.cpp:408] data -> data
I0228 14:53:47.521626 15940 net.cpp:408] data -> label
I0228 14:53:47.522384 15954 db_lmdb.cpp:35] Opened lmdb examples/VOC0712/VOC0712_trainval_lmdb
I0228 14:53:47.535411 15940 annotated_data_layer.cpp:62] output data size: 32,3,300,300
I0228 14:53:47.575623 15940 net.cpp:150] Setting up data
I0228 14:53:47.575665 15940 net.cpp:157] Top shape: 32 3 300 300 (8640000)
I0228 14:53:47.575671 15940 net.cpp:157] Top shape: 1 1 1 8 (8)
I0228 14:53:47.575675 15940 net.cpp:165] Memory required for data: 34560032
I0228 14:53:47.575704 15940 layer_factory.hpp:77] Creating layer data_data_0_split
I0228 14:53:47.575726 15940 net.cpp:100] Creating Layer data_data_0_split
I0228 14:53:47.575734 15940 net.cpp:434] data_data_0_split <- data
I0228 14:53:47.575750 15940 net.cpp:408] data_data_0_split -> data_data_0_split_0
I0228 14:53:47.575767 15940 net.cpp:408] data_data_0_split -> data_data_0_split_1
I0228 14:53:47.575775 15940 net.cpp:408] data_data_0_split -> data_data_0_split_2
I0228 14:53:47.575783 15940 net.cpp:408] data_data_0_split -> data_data_0_split_3
I0228 14:53:47.575793 15940 net.cpp:408] data_data_0_split -> data_data_0_split_4
I0228 14:53:47.575801 15940 net.cpp:408] data_data_0_split -> data_data_0_split_5
I0228 14:53:47.575808 15940 net.cpp:408] data_data_0_split -> data_data_0_split_6
I0228 14:53:47.575884 15940 net.cpp:150] Setting up data_data_0_split
I0228 14:53:47.575892 15940 net.cpp:157] Top shape: 32 3 300 300 (8640000)
I0228 14:53:47.575896 15940 net.cpp:157] Top shape: 32 3 300 300 (8640000)
I0228 14:53:47.575901 15940 net.cpp:157] Top shape: 32 3 300 300 (8640000)
I0228 14:53:47.575906 15940 net.cpp:157] Top shape: 32 3 300 300 (8640000)
I0228 14:53:47.575914 15940 net.cpp:157] Top shape: 32 3 300 300 (8640000)
I0228 14:53:47.575920 15940 net.cpp:157] Top shape: 32 3 300 300 (8640000)
I0228 14:53:47.575929 15940 net.cpp:157] Top shape: 32 3 300 300 (8640000)
I0228 14:53:47.575935 15940 net.cpp:165] Memory required for data: 276480032
I0228 14:53:47.575945 15940 layer_factory.hpp:77] Creating layer conv1_1
I0228 14:53:47.575966 15940 net.cpp:100] Creating Layer conv1_1
I0228 14:53:47.575973 15940 net.cpp:434] conv1_1 <- data_data_0_split_0
I0228 14:53:47.575980 15940 net.cpp:408] conv1_1 -> conv1_1
I0228 14:53:47.984807 15940 net.cpp:150] Setting up conv1_1
I0228 14:53:47.984827 15940 net.cpp:157] Top shape: 32 64 300 300 (184320000)
I0228 14:53:47.984832 15940 net.cpp:165] Memory required for data: 1013760032
I0228 14:53:47.984849 15940 layer_factory.hpp:77] Creating layer relu1_1
I0228 14:53:47.984858 15940 net.cpp:100] Creating Layer relu1_1
I0228 14:53:47.984864 15940 net.cpp:434] relu1_1 <- conv1_1
I0228 14:53:47.984870 15940 net.cpp:395] relu1_1 -> conv1_1 (in-place)
I0228 14:53:47.985496 15940 net.cpp:150] Setting up relu1_1
I0228 14:53:47.985507 15940 net.cpp:157] Top shape: 32 64 300 300 (184320000)
I0228 14:53:47.985527 15940 net.cpp:165] Memory required for data: 1751040032
I0228 14:53:47.985530 15940 layer_factory.hpp:77] Creating layer conv1_2
I0228 14:53:47.985543 15940 net.cpp:100] Creating Layer conv1_2
I0228 14:53:47.985548 15940 net.cpp:434] conv1_2 <- conv1_1
I0228 14:53:47.985553 15940 net.cpp:408] conv1_2 -> conv1_2
I0228 14:53:47.987411 15940 net.cpp:150] Setting up conv1_2
I0228 14:53:47.987422 15940 net.cpp:157] Top shape: 32 64 300 300 (184320000)
I0228 14:53:47.987442 15940 net.cpp:165] Memory required for data: 2488320032
I0228 14:53:47.987450 15940 layer_factory.hpp:77] Creating layer relu1_2
I0228 14:53:47.987457 15940 net.cpp:100] Creating Layer relu1_2
I0228 14:53:47.987462 15940 net.cpp:434] relu1_2 <- conv1_2
I0228 14:53:47.987468 15940 net.cpp:395] relu1_2 -> conv1_2 (in-place)
I0228 14:53:47.987608 15940 net.cpp:150] Setting up relu1_2
I0228 14:53:47.987617 15940 net.cpp:157] Top shape: 32 64 300 300 (184320000)
I0228 14:53:47.987622 15940 net.cpp:165] Memory required for data: 3225600032
I0228 14:53:47.987624 15940 layer_factory.hpp:77] Creating layer pool1
I0228 14:53:47.987632 15940 net.cpp:100] Creating Layer pool1
I0228 14:53:47.987635 15940 net.cpp:434] pool1 <- conv1_2
I0228 14:53:47.987641 15940 net.cpp:408] pool1 -> pool1
I0228 14:53:47.987679 15940 net.cpp:150] Setting up pool1
I0228 14:53:47.987687 15940 net.cpp:157] Top shape: 32 64 150 150 (46080000)
I0228 14:53:47.987691 15940 net.cpp:165] Memory required for data: 3409920032
I0228 14:53:47.987695 15940 layer_factory.hpp:77] Creating layer conv2_1
I0228 14:53:47.987704 15940 net.cpp:100] Creating Layer conv2_1
I0228 14:53:47.987709 15940 net.cpp:434] conv2_1 <- pool1
I0228 14:53:47.987730 15940 net.cpp:408] conv2_1 -> conv2_1
I0228 14:53:47.989511 15940 net.cpp:150] Setting up conv2_1
I0228 14:53:47.989522 15940 net.cpp:157] Top shape: 32 128 150 150 (92160000)
I0228 14:53:47.989542 15940 net.cpp:165] Memory required for data: 3778560032
I0228 14:53:47.989550 15940 layer_factory.hpp:77] Creating layer relu2_1
I0228 14:53:47.989558 15940 net.cpp:100] Creating Layer relu2_1
I0228 14:53:47.989562 15940 net.cpp:434] relu2_1 <- conv2_1
I0228 14:53:47.989567 15940 net.cpp:395] relu2_1 -> conv2_1 (in-place)
I0228 14:53:47.989708 15940 net.cpp:150] Setting up relu2_1
I0228 14:53:47.989717 15940 net.cpp:157] Top shape: 32 128 150 150 (92160000)
I0228 14:53:47.989722 15940 net.cpp:165] Memory required for data: 4147200032
I0228 14:53:47.989725 15940 layer_factory.hpp:77] Creating layer conv2_2
I0228 14:53:47.989733 15940 net.cpp:100] Creating Layer conv2_2
I0228 14:53:47.989738 15940 net.cpp:434] conv2_2 <- conv2_1
I0228 14:53:47.989744 15940 net.cpp:408] conv2_2 -> conv2_2
I0228 14:53:47.991809 15940 net.cpp:150] Setting up conv2_2
I0228 14:53:47.991820 15940 net.cpp:157] Top shape: 32 128 150 150 (92160000)
I0228 14:53:47.991840 15940 net.cpp:165] Memory required for data: 4515840032
I0228 14:53:47.991847 15940 layer_factory.hpp:77] Creating layer relu2_2
I0228 14:53:47.991852 15940 net.cpp:100] Creating Layer relu2_2
I0228 14:53:47.991858 15940 net.cpp:434] relu2_2 <- conv2_2
I0228 14:53:47.991863 15940 net.cpp:395] relu2_2 -> conv2_2 (in-place)
I0228 14:53:47.992491 15940 net.cpp:150] Setting up relu2_2
I0228 14:53:47.992503 15940 net.cpp:157] Top shape: 32 128 150 150 (92160000)
I0228 14:53:47.992522 15940 net.cpp:165] Memory required for data: 4884480032
I0228 14:53:47.992527 15940 layer_factory.hpp:77] Creating layer pool2
I0228 14:53:47.992533 15940 net.cpp:100] Creating Layer pool2
I0228 14:53:47.992537 15940 net.cpp:434] pool2 <- conv2_2
I0228 14:53:47.992542 15940 net.cpp:408] pool2 -> pool2
I0228 14:53:47.992578 15940 net.cpp:150] Setting up pool2
I0228 14:53:47.992586 15940 net.cpp:157] Top shape: 32 128 75 75 (23040000)
I0228 14:53:47.992590 15940 net.cpp:165] Memory required for data: 4976640032
I0228 14:53:47.992594 15940 layer_factory.hpp:77] Creating layer conv3_1
I0228 14:53:47.992602 15940 net.cpp:100] Creating Layer conv3_1
I0228 14:53:47.992606 15940 net.cpp:434] conv3_1 <- pool2
I0228 14:53:47.992612 15940 net.cpp:408] conv3_1 -> conv3_1
I0228 14:53:47.996619 15940 net.cpp:150] Setting up conv3_1
I0228 14:53:47.996636 15940 net.cpp:157] Top shape: 32 256 75 75 (46080000)
I0228 14:53:47.996641 15940 net.cpp:165] Memory required for data: 5160960032
I0228 14:53:47.996654 15940 layer_factory.hpp:77] Creating layer relu3_1
I0228 14:53:47.996662 15940 net.cpp:100] Creating Layer relu3_1
I0228 14:53:47.996671 15940 net.cpp:434] relu3_1 <- conv3_1
I0228 14:53:47.996680 15940 net.cpp:395] relu3_1 -> conv3_1 (in-place)
I0228 14:53:47.996847 15940 net.cpp:150] Setting up relu3_1
I0228 14:53:47.996857 15940 net.cpp:157] Top shape: 32 256 75 75 (46080000)
I0228 14:53:47.996863 15940 net.cpp:165] Memory required for data: 5345280032
I0228 14:53:47.996868 15940 layer_factory.hpp:77] Creating layer conv3_2
I0228 14:53:47.996881 15940 net.cpp:100] Creating Layer conv3_2
I0228 14:53:47.996888 15940 net.cpp:434] conv3_2 <- conv3_1
I0228 14:53:47.996896 15940 net.cpp:408] conv3_2 -> conv3_2
I0228 14:53:48.001941 15940 net.cpp:150] Setting up conv3_2
I0228 14:53:48.001966 15940 net.cpp:157] Top shape: 32 256 75 75 (46080000)
I0228 14:53:48.001971 15940 net.cpp:165] Memory required for data: 5529600032
I0228 14:53:48.001986 15940 layer_factory.hpp:77] Creating layer relu3_2
I0228 14:53:48.001996 15940 net.cpp:100] Creating Layer relu3_2
I0228 14:53:48.002003 15940 net.cpp:434] relu3_2 <- conv3_2
I0228 14:53:48.002012 15940 net.cpp:395] relu3_2 -> conv3_2 (in-place)
I0228 14:53:48.002174 15940 net.cpp:150] Setting up relu3_2
I0228 14:53:48.002184 15940 net.cpp:157] Top shape: 32 256 75 75 (46080000)
I0228 14:53:48.002190 15940 net.cpp:165] Memory required for data: 5713920032
I0228 14:53:48.002195 15940 layer_factory.hpp:77] Creating layer conv3_3
I0228 14:53:48.002224 15940 net.cpp:100] Creating Layer conv3_3
I0228 14:53:48.002233 15940 net.cpp:434] conv3_3 <- conv3_2
I0228 14:53:48.002240 15940 net.cpp:408] conv3_3 -> conv3_3
I0228 14:53:48.006940 15940 net.cpp:150] Setting up conv3_3
I0228 14:53:48.006969 15940 net.cpp:157] Top shape: 32 256 75 75 (46080000)
I0228 14:53:48.006974 15940 net.cpp:165] Memory required for data: 5898240032
I0228 14:53:48.007002 15940 layer_factory.hpp:77] Creating layer relu3_3
I0228 14:53:48.007014 15940 net.cpp:100] Creating Layer relu3_3
I0228 14:53:48.007023 15940 net.cpp:434] relu3_3 <- conv3_3
I0228 14:53:48.007032 15940 net.cpp:395] relu3_3 -> conv3_3 (in-place)
I0228 14:53:48.007685 15940 net.cpp:150] Setting up relu3_3
I0228 14:53:48.007699 15940 net.cpp:157] Top shape: 32 256 75 75 (46080000)
I0228 14:53:48.007704 15940 net.cpp:165] Memory required for data: 6082560032
I0228 14:53:48.007725 15940 layer_factory.hpp:77] Creating layer pool3
I0228 14:53:48.007735 15940 net.cpp:100] Creating Layer pool3
I0228 14:53:48.007740 15940 net.cpp:434] pool3 <- conv3_3
I0228 14:53:48.007750 15940 net.cpp:408] pool3 -> pool3
I0228 14:53:48.007797 15940 net.cpp:150] Setting up pool3
I0228 14:53:48.007805 15940 net.cpp:157] Top shape: 32 256 38 38 (11829248)
I0228 14:53:48.007809 15940 net.cpp:165] Memory required for data: 6129877024
I0228 14:53:48.007815 15940 layer_factory.hpp:77] Creating layer conv4_1
I0228 14:53:48.007829 15940 net.cpp:100] Creating Layer conv4_1
I0228 14:53:48.007835 15940 net.cpp:434] conv4_1 <- pool3
I0228 14:53:48.007843 15940 net.cpp:408] conv4_1 -> conv4_1
I0228 14:53:48.016458 15940 net.cpp:150] Setting up conv4_1
I0228 14:53:48.016481 15940 net.cpp:157] Top shape: 32 512 38 38 (23658496)
I0228 14:53:48.016487 15940 net.cpp:165] Memory required for data: 6224511008
I0228 14:53:48.016499 15940 layer_factory.hpp:77] Creating layer relu4_1
I0228 14:53:48.016510 15940 net.cpp:100] Creating Layer relu4_1
I0228 14:53:48.016518 15940 net.cpp:434] relu4_1 <- conv4_1
I0228 14:53:48.016527 15940 net.cpp:395] relu4_1 -> conv4_1 (in-place)
I0228 14:53:48.016688 15940 net.cpp:150] Setting up relu4_1
I0228 14:53:48.016698 15940 net.cpp:157] Top shape: 32 512 38 38 (23658496)
I0228 14:53:48.016703 15940 net.cpp:165] Memory required for data: 6319144992
I0228 14:53:48.016708 15940 layer_factory.hpp:77] Creating layer conv4_2
I0228 14:53:48.016722 15940 net.cpp:100] Creating Layer conv4_2
I0228 14:53:48.016731 15940 net.cpp:434] conv4_2 <- conv4_1
I0228 14:53:48.016738 15940 net.cpp:408] conv4_2 -> conv4_2
I0228 14:53:48.030129 15940 net.cpp:150] Setting up conv4_2
I0228 14:53:48.030153 15940 net.cpp:157] Top shape: 32 512 38 38 (23658496)
I0228 14:53:48.030158 15940 net.cpp:165] Memory required for data: 6413778976
I0228 14:53:48.030190 15940 layer_factory.hpp:77] Creating layer relu4_2
I0228 14:53:48.030202 15940 net.cpp:100] Creating Layer relu4_2
I0228 14:53:48.030210 15940 net.cpp:434] relu4_2 <- conv4_2
I0228 14:53:48.030220 15940 net.cpp:395] relu4_2 -> conv4_2 (in-place)
I0228 14:53:48.030383 15940 net.cpp:150] Setting up relu4_2
I0228 14:53:48.030393 15940 net.cpp:157] Top shape: 32 512 38 38 (23658496)
I0228 14:53:48.030397 15940 net.cpp:165] Memory required for data: 6508412960
I0228 14:53:48.030403 15940 layer_factory.hpp:77] Creating layer conv4_3
I0228 14:53:48.030417 15940 net.cpp:100] Creating Layer conv4_3
I0228 14:53:48.030422 15940 net.cpp:434] conv4_3 <- conv4_2
I0228 14:53:48.030431 15940 net.cpp:408] conv4_3 -> conv4_3
I0228 14:53:48.043653 15940 net.cpp:150] Setting up conv4_3
I0228 14:53:48.043674 15940 net.cpp:157] Top shape: 32 512 38 38 (23658496)
I0228 14:53:48.043679 15940 net.cpp:165] Memory required for data: 6603046944
I0228 14:53:48.043706 15940 layer_factory.hpp:77] Creating layer relu4_3
I0228 14:53:48.043718 15940 net.cpp:100] Creating Layer relu4_3
I0228 14:53:48.043726 15940 net.cpp:434] relu4_3 <- conv4_3
I0228 14:53:48.043735 15940 net.cpp:395] relu4_3 -> conv4_3 (in-place)
I0228 14:53:48.043895 15940 net.cpp:150] Setting up relu4_3
I0228 14:53:48.043922 15940 net.cpp:157] Top shape: 32 512 38 38 (23658496)
I0228 14:53:48.043928 15940 net.cpp:165] Memory required for data: 6697680928
I0228 14:53:48.043932 15940 layer_factory.hpp:77] Creating layer conv4_3_relu4_3_0_split
I0228 14:53:48.043942 15940 net.cpp:100] Creating Layer conv4_3_relu4_3_0_split
I0228 14:53:48.043949 15940 net.cpp:434] conv4_3_relu4_3_0_split <- conv4_3
I0228 14:53:48.043957 15940 net.cpp:408] conv4_3_relu4_3_0_split -> conv4_3_relu4_3_0_split_0
I0228 14:53:48.043968 15940 net.cpp:408] conv4_3_relu4_3_0_split -> conv4_3_relu4_3_0_split_1
I0228 14:53:48.044010 15940 net.cpp:150] Setting up conv4_3_relu4_3_0_split
I0228 14:53:48.044019 15940 net.cpp:157] Top shape: 32 512 38 38 (23658496)
I0228 14:53:48.044025 15940 net.cpp:157] Top shape: 32 512 38 38 (23658496)
I0228 14:53:48.044032 15940 net.cpp:165] Memory required for data: 6886948896
I0228 14:53:48.044039 15940 layer_factory.hpp:77] Creating layer pool4
I0228 14:53:48.044049 15940 net.cpp:100] Creating Layer pool4
I0228 14:53:48.044056 15940 net.cpp:434] pool4 <- conv4_3_relu4_3_0_split_0
I0228 14:53:48.044064 15940 net.cpp:408] pool4 -> pool4
I0228 14:53:48.044111 15940 net.cpp:150] Setting up pool4
I0228 14:53:48.044118 15940 net.cpp:157] Top shape: 32 512 19 19 (5914624)
I0228 14:53:48.044123 15940 net.cpp:165] Memory required for data: 6910607392
I0228 14:53:48.044128 15940 layer_factory.hpp:77] Creating layer conv5_1
I0228 14:53:48.044140 15940 net.cpp:100] Creating Layer conv5_1
I0228 14:53:48.044147 15940 net.cpp:434] conv5_1 <- pool4
I0228 14:53:48.044155 15940 net.cpp:408] conv5_1 -> conv5_1
I0228 14:53:48.057936 15940 net.cpp:150] Setting up conv5_1
I0228 14:53:48.057960 15940 net.cpp:157] Top shape: 32 512 19 19 (5914624)
I0228 14:53:48.057965 15940 net.cpp:165] Memory required for data: 6934265888
I0228 14:53:48.057978 15940 layer_factory.hpp:77] Creating layer relu5_1
I0228 14:53:48.057989 15940 net.cpp:100] Creating Layer relu5_1
I0228 14:53:48.057996 15940 net.cpp:434] relu5_1 <- conv5_1
I0228 14:53:48.058007 15940 net.cpp:395] relu5_1 -> conv5_1 (in-place)
I0228 14:53:48.058666 15940 net.cpp:150] Setting up relu5_1
I0228 14:53:48.058678 15940 net.cpp:157] Top shape: 32 512 19 19 (5914624)
I0228 14:53:48.058683 15940 net.cpp:165] Memory required for data: 6957924384
I0228 14:53:48.058704 15940 layer_factory.hpp:77] Creating layer conv5_2
I0228 14:53:48.058718 15940 net.cpp:100] Creating Layer conv5_2
I0228 14:53:48.058724 15940 net.cpp:434] conv5_2 <- conv5_1
I0228 14:53:48.058732 15940 net.cpp:408] conv5_2 -> conv5_2
I0228 14:53:48.071856 15940 net.cpp:150] Setting up conv5_2
I0228 14:53:48.071878 15940 net.cpp:157] Top shape: 32 512 19 19 (5914624)
I0228 14:53:48.071883 15940 net.cpp:165] Memory required for data: 6981582880
I0228 14:53:48.071905 15940 layer_factory.hpp:77] Creating layer relu5_2
I0228 14:53:48.071918 15940 net.cpp:100] Creating Layer relu5_2
I0228 14:53:48.071926 15940 net.cpp:434] relu5_2 <- conv5_2
I0228 14:53:48.071936 15940 net.cpp:395] relu5_2 -> conv5_2 (in-place)
I0228 14:53:48.072091 15940 net.cpp:150] Setting up relu5_2
I0228 14:53:48.072103 15940 net.cpp:157] Top shape: 32 512 19 19 (5914624)
I0228 14:53:48.072106 15940 net.cpp:165] Memory required for data: 7005241376
I0228 14:53:48.072113 15940 layer_factory.hpp:77] Creating layer conv5_3
I0228 14:53:48.072125 15940 net.cpp:100] Creating Layer conv5_3
I0228 14:53:48.072132 15940 net.cpp:434] conv5_3 <- conv5_2
I0228 14:53:48.072140 15940 net.cpp:408] conv5_3 -> conv5_3
I0228 14:53:48.085458 15940 net.cpp:150] Setting up conv5_3
I0228 14:53:48.085481 15940 net.cpp:157] Top shape: 32 512 19 19 (5914624)
I0228 14:53:48.085487 15940 net.cpp:165] Memory required for data: 7028899872
I0228 14:53:48.085500 15940 layer_factory.hpp:77] Creating layer relu5_3
I0228 14:53:48.085515 15940 net.cpp:100] Creating Layer relu5_3
I0228 14:53:48.085523 15940 net.cpp:434] relu5_3 <- conv5_3
I0228 14:53:48.085533 15940 net.cpp:395] relu5_3 -> conv5_3 (in-place)
I0228 14:53:48.085705 15940 net.cpp:150] Setting up relu5_3
I0228 14:53:48.085714 15940 net.cpp:157] Top shape: 32 512 19 19 (5914624)
I0228 14:53:48.085734 15940 net.cpp:165] Memory required for data: 7052558368
I0228 14:53:48.085742 15940 layer_factory.hpp:77] Creating layer pool5
I0228 14:53:48.085753 15940 net.cpp:100] Creating Layer pool5
I0228 14:53:48.085758 15940 net.cpp:434] pool5 <- conv5_3
I0228 14:53:48.085767 15940 net.cpp:408] pool5 -> pool5
I0228 14:53:48.085813 15940 net.cpp:150] Setting up pool5
I0228 14:53:48.085820 15940 net.cpp:157] Top shape: 32 512 19 19 (5914624)
I0228 14:53:48.085824 15940 net.cpp:165] Memory required for data: 7076216864
I0228 14:53:48.085829 15940 layer_factory.hpp:77] Creating layer fc6
I0228 14:53:48.085844 15940 net.cpp:100] Creating Layer fc6
I0228 14:53:48.085850 15940 net.cpp:434] fc6 <- pool5
I0228 14:53:48.085858 15940 net.cpp:408] fc6 -> fc6
I0228 14:53:48.110105 15940 net.cpp:150] Setting up fc6
I0228 14:53:48.110133 15940 net.cpp:157] Top shape: 32 1024 19 19 (11829248)
I0228 14:53:48.110138 15940 net.cpp:165] Memory required for data: 7123533856
I0228 14:53:48.110150 15940 layer_factory.hpp:77] Creating layer relu6
I0228 14:53:48.110162 15940 net.cpp:100] Creating Layer relu6
I0228 14:53:48.110170 15940 net.cpp:434] relu6 <- fc6
I0228 14:53:48.110178 15940 net.cpp:395] relu6 -> fc6 (in-place)
I0228 14:53:48.110975 15940 net.cpp:150] Setting up relu6
I0228 14:53:48.110987 15940 net.cpp:157] Top shape: 32 1024 19 19 (11829248)
I0228 14:53:48.110993 15940 net.cpp:165] Memory required for data: 7170850848
I0228 14:53:48.111014 15940 layer_factory.hpp:77] Creating layer fc7
I0228 14:53:48.111029 15940 net.cpp:100] Creating Layer fc7
I0228 14:53:48.111037 15940 net.cpp:434] fc7 <- fc6
I0228 14:53:48.111044 15940 net.cpp:408] fc7 -> fc7
I0228 14:53:48.117612 15940 net.cpp:150] Setting up fc7
I0228 14:53:48.117627 15940 net.cpp:157] Top shape: 32 1024 19 19 (11829248)
I0228 14:53:48.117632 15940 net.cpp:165] Memory required for data: 7218167840
I0228 14:53:48.117643 15940 layer_factory.hpp:77] Creating layer relu7
I0228 14:53:48.117653 15940 net.cpp:100] Creating Layer relu7
I0228 14:53:48.117661 15940 net.cpp:434] relu7 <- fc7
I0228 14:53:48.117669 15940 net.cpp:395] relu7 -> fc7 (in-place)
I0228 14:53:48.117822 15940 net.cpp:150] Setting up relu7
I0228 14:53:48.117831 15940 net.cpp:157] Top shape: 32 1024 19 19 (11829248)
I0228 14:53:48.117836 15940 net.cpp:165] Memory required for data: 7265484832
I0228 14:53:48.117842 15940 layer_factory.hpp:77] Creating layer fc7_relu7_0_split
I0228 14:53:48.117852 15940 net.cpp:100] Creating Layer fc7_relu7_0_split
I0228 14:53:48.117857 15940 net.cpp:434] fc7_relu7_0_split <- fc7
I0228 14:53:48.117866 15940 net.cpp:408] fc7_relu7_0_split -> fc7_relu7_0_split_0
I0228 14:53:48.117877 15940 net.cpp:408] fc7_relu7_0_split -> fc7_relu7_0_split_1
I0228 14:53:48.117893 15940 net.cpp:408] fc7_relu7_0_split -> fc7_relu7_0_split_2
I0228 14:53:48.117902 15940 net.cpp:408] fc7_relu7_0_split -> fc7_relu7_0_split_3
I0228 14:53:48.117961 15940 net.cpp:150] Setting up fc7_relu7_0_split
I0228 14:53:48.117969 15940 net.cpp:157] Top shape: 32 1024 19 19 (11829248)
I0228 14:53:48.117976 15940 net.cpp:157] Top shape: 32 1024 19 19 (11829248)
I0228 14:53:48.117983 15940 net.cpp:157] Top shape: 32 1024 19 19 (11829248)
I0228 14:53:48.117990 15940 net.cpp:157] Top shape: 32 1024 19 19 (11829248)
I0228 14:53:48.117995 15940 net.cpp:165] Memory required for data: 7454752800
I0228 14:53:48.118001 15940 layer_factory.hpp:77] Creating layer conv6_1
I0228 14:53:48.118014 15940 net.cpp:100] Creating Layer conv6_1
I0228 14:53:48.118021 15940 net.cpp:434] conv6_1 <- fc7_relu7_0_split_0
I0228 14:53:48.118028 15940 net.cpp:408] conv6_1 -> conv6_1
I0228 14:53:48.121681 15940 net.cpp:150] Setting up conv6_1
I0228 14:53:48.121697 15940 net.cpp:157] Top shape: 32 256 19 19 (2957312)
I0228 14:53:48.121702 15940 net.cpp:165] Memory required for data: 7466582048
I0228 14:53:48.121712 15940 layer_factory.hpp:77] Creating layer conv6_1_relu
I0228 14:53:48.121724 15940 net.cpp:100] Creating Layer conv6_1_relu
I0228 14:53:48.121732 15940 net.cpp:434] conv6_1_relu <- conv6_1
I0228 14:53:48.121752 15940 net.cpp:395] conv6_1_relu -> conv6_1 (in-place)
I0228 14:53:48.121907 15940 net.cpp:150] Setting up conv6_1_relu
I0228 14:53:48.121918 15940 net.cpp:157] Top shape: 32 256 19 19 (2957312)
I0228 14:53:48.121922 15940 net.cpp:165] Memory required for data: 7478411296
I0228 14:53:48.121928 15940 layer_factory.hpp:77] Creating layer conv6_2
I0228 14:53:48.121940 15940 net.cpp:100] Creating Layer conv6_2
I0228 14:53:48.121948 15940 net.cpp:434] conv6_2 <- conv6_1
I0228 14:53:48.121955 15940 net.cpp:408] conv6_2 -> conv6_2
I0228 14:53:48.129472 15940 net.cpp:150] Setting up conv6_2
I0228 14:53:48.129493 15940 net.cpp:157] Top shape: 32 512 10 10 (1638400)
I0228 14:53:48.129498 15940 net.cpp:165] Memory required for data: 7484964896
I0228 14:53:48.129531 15940 layer_factory.hpp:77] Creating layer conv6_2_relu
I0228 14:53:48.129542 15940 net.cpp:100] Creating Layer conv6_2_relu
I0228 14:53:48.129550 15940 net.cpp:434] conv6_2_relu <- conv6_2
I0228 14:53:48.129560 15940 net.cpp:395] conv6_2_relu -> conv6_2 (in-place)
I0228 14:53:48.130226 15940 net.cpp:150] Setting up conv6_2_relu
I0228 14:53:48.130239 15940 net.cpp:157] Top shape: 32 512 10 10 (1638400)
I0228 14:53:48.130244 15940 net.cpp:165] Memory required for data: 7491518496
I0228 14:53:48.130261 15940 layer_factory.hpp:77] Creating layer conv6_2_conv6_2_relu_0_split
I0228 14:53:48.130270 15940 net.cpp:100] Creating Layer conv6_2_conv6_2_relu_0_split
I0228 14:53:48.130277 15940 net.cpp:434] conv6_2_conv6_2_relu_0_split <- conv6_2
I0228 14:53:48.130286 15940 net.cpp:408] conv6_2_conv6_2_relu_0_split -> conv6_2_conv6_2_relu_0_split_0
I0228 14:53:48.130298 15940 net.cpp:408] conv6_2_conv6_2_relu_0_split -> conv6_2_conv6_2_relu_0_split_1
I0228 14:53:48.130307 15940 net.cpp:408] conv6_2_conv6_2_relu_0_split -> conv6_2_conv6_2_relu_0_split_2
I0228 14:53:48.130316 15940 net.cpp:408] conv6_2_conv6_2_relu_0_split -> conv6_2_conv6_2_relu_0_split_3
I0228 14:53:48.130379 15940 net.cpp:150] Setting up conv6_2_conv6_2_relu_0_split
I0228 14:53:48.130388 15940 net.cpp:157] Top shape: 32 512 10 10 (1638400)
I0228 14:53:48.130394 15940 net.cpp:157] Top shape: 32 512 10 10 (1638400)
I0228 14:53:48.130400 15940 net.cpp:157] Top shape: 32 512 10 10 (1638400)
I0228 14:53:48.130409 15940 net.cpp:157] Top shape: 32 512 10 10 (1638400)
I0228 14:53:48.130414 15940 net.cpp:165] Memory required for data: 7517732896
I0228 14:53:48.130419 15940 layer_factory.hpp:77] Creating layer conv7_1
I0228 14:53:48.130432 15940 net.cpp:100] Creating Layer conv7_1
I0228 14:53:48.130439 15940 net.cpp:434] conv7_1 <- conv6_2_conv6_2_relu_0_split_0
I0228 14:53:48.130447 15940 net.cpp:408] conv7_1 -> conv7_1
I0228 14:53:48.131891 15940 net.cpp:150] Setting up conv7_1
I0228 14:53:48.131903 15940 net.cpp:157] Top shape: 32 128 10 10 (409600)
I0228 14:53:48.131908 15940 net.cpp:165] Memory required for data: 7519371296
I0228 14:53:48.131919 15940 layer_factory.hpp:77] Creating layer conv7_1_relu
I0228 14:53:48.131928 15940 net.cpp:100] Creating Layer conv7_1_relu
I0228 14:53:48.131935 15940 net.cpp:434] conv7_1_relu <- conv7_1
I0228 14:53:48.131942 15940 net.cpp:395] conv7_1_relu -> conv7_1 (in-place)
I0228 14:53:48.132095 15940 net.cpp:150] Setting up conv7_1_relu
I0228 14:53:48.132105 15940 net.cpp:157] Top shape: 32 128 10 10 (409600)
I0228 14:53:48.132110 15940 net.cpp:165] Memory required for data: 7521009696
I0228 14:53:48.132115 15940 layer_factory.hpp:77] Creating layer conv7_2
I0228 14:53:48.132128 15940 net.cpp:100] Creating Layer conv7_2
I0228 14:53:48.132135 15940 net.cpp:434] conv7_2 <- conv7_1
I0228 14:53:48.132143 15940 net.cpp:408] conv7_2 -> conv7_2
I0228 14:53:48.135129 15940 net.cpp:150] Setting up conv7_2
I0228 14:53:48.135144 15940 net.cpp:157] Top shape: 32 256 5 5 (204800)
I0228 14:53:48.135149 15940 net.cpp:165] Memory required for data: 7521828896
I0228 14:53:48.135174 15940 layer_factory.hpp:77] Creating layer conv7_2_relu
I0228 14:53:48.135181 15940 net.cpp:100] Creating Layer conv7_2_relu
I0228 14:53:48.135188 15940 net.cpp:434] conv7_2_relu <- conv7_2
I0228 14:53:48.135196 15940 net.cpp:395] conv7_2_relu -> conv7_2 (in-place)
I0228 14:53:48.135359 15940 net.cpp:150] Setting up conv7_2_relu
I0228 14:53:48.135367 15940 net.cpp:157] Top shape: 32 256 5 5 (204800)
I0228 14:53:48.135373 15940 net.cpp:165] Memory required for data: 7522648096
I0228 14:53:48.135378 15940 layer_factory.hpp:77] Creating layer conv7_2_conv7_2_relu_0_split
I0228 14:53:48.135386 15940 net.cpp:100] Creating Layer conv7_2_conv7_2_relu_0_split
I0228 14:53:48.135396 15940 net.cpp:434] conv7_2_conv7_2_relu_0_split <- conv7_2
I0228 14:53:48.135403 15940 net.cpp:408] conv7_2_conv7_2_relu_0_split -> conv7_2_conv7_2_relu_0_split_0
I0228 14:53:48.135414 15940 net.cpp:408] conv7_2_conv7_2_relu_0_split -> conv7_2_conv7_2_relu_0_split_1
I0228 14:53:48.135426 15940 net.cpp:408] conv7_2_conv7_2_relu_0_split -> conv7_2_conv7_2_relu_0_split_2
I0228 14:53:48.135434 15940 net.cpp:408] conv7_2_conv7_2_relu_0_split -> conv7_2_conv7_2_relu_0_split_3
I0228 14:53:48.135496 15940 net.cpp:150] Setting up conv7_2_conv7_2_relu_0_split
I0228 14:53:48.135504 15940 net.cpp:157] Top shape: 32 256 5 5 (204800)
I0228 14:53:48.135510 15940 net.cpp:157] Top shape: 32 256 5 5 (204800)
I0228 14:53:48.135516 15940 net.cpp:157] Top shape: 32 256 5 5 (204800)
I0228 14:53:48.135525 15940 net.cpp:157] Top shape: 32 256 5 5 (204800)
I0228 14:53:48.135531 15940 net.cpp:165] Memory required for data: 7525924896
I0228 14:53:48.135537 15940 layer_factory.hpp:77] Creating layer conv8_1
I0228 14:53:48.135550 15940 net.cpp:100] Creating Layer conv8_1
I0228 14:53:48.135557 15940 net.cpp:434] conv8_1 <- conv7_2_conv7_2_relu_0_split_0
I0228 14:53:48.135566 15940 net.cpp:408] conv8_1 -> conv8_1
I0228 14:53:48.136888 15940 net.cpp:150] Setting up conv8_1
I0228 14:53:48.136901 15940 net.cpp:157] Top shape: 32 128 5 5 (102400)
I0228 14:53:48.136907 15940 net.cpp:165] Memory required for data: 7526334496
I0228 14:53:48.136917 15940 layer_factory.hpp:77] Creating layer conv8_1_relu
I0228 14:53:48.136926 15940 net.cpp:100] Creating Layer conv8_1_relu
I0228 14:53:48.136934 15940 net.cpp:434] conv8_1_relu <- conv8_1
I0228 14:53:48.136942 15940 net.cpp:395] conv8_1_relu -> conv8_1 (in-place)
I0228 14:53:48.137091 15940 net.cpp:150] Setting up conv8_1_relu
I0228 14:53:48.137100 15940 net.cpp:157] Top shape: 32 128 5 5 (102400)
I0228 14:53:48.137105 15940 net.cpp:165] Memory required for data: 7526744096
I0228 14:53:48.137111 15940 layer_factory.hpp:77] Creating layer conv8_2
I0228 14:53:48.137122 15940 net.cpp:100] Creating Layer conv8_2
I0228 14:53:48.137128 15940 net.cpp:434] conv8_2 <- conv8_1
I0228 14:53:48.137136 15940 net.cpp:408] conv8_2 -> conv8_2
I0228 14:53:48.140692 15940 net.cpp:150] Setting up conv8_2
I0228 14:53:48.140705 15940 net.cpp:157] Top shape: 32 256 3 3 (73728)
I0228 14:53:48.140710 15940 net.cpp:165] Memory required for data: 7527039008
I0228 14:53:48.140735 15940 layer_factory.hpp:77] Creating layer conv8_2_relu
I0228 14:53:48.140745 15940 net.cpp:100] Creating Layer conv8_2_relu
I0228 14:53:48.140751 15940 net.cpp:434] conv8_2_relu <- conv8_2
I0228 14:53:48.140759 15940 net.cpp:395] conv8_2_relu -> conv8_2 (in-place)
I0228 14:53:48.141432 15940 net.cpp:150] Setting up conv8_2_relu
I0228 14:53:48.141444 15940 net.cpp:157] Top shape: 32 256 3 3 (73728)
I0228 14:53:48.141448 15940 net.cpp:165] Memory required for data: 7527333920
I0228 14:53:48.141469 15940 layer_factory.hpp:77] Creating layer conv8_2_conv8_2_relu_0_split
I0228 14:53:48.141479 15940 net.cpp:100] Creating Layer conv8_2_conv8_2_relu_0_split
I0228 14:53:48.141486 15940 net.cpp:434] conv8_2_conv8_2_relu_0_split <- conv8_2
I0228 14:53:48.141494 15940 net.cpp:408] conv8_2_conv8_2_relu_0_split -> conv8_2_conv8_2_relu_0_split_0
I0228 14:53:48.141505 15940 net.cpp:408] conv8_2_conv8_2_relu_0_split -> conv8_2_conv8_2_relu_0_split_1
I0228 14:53:48.141515 15940 net.cpp:408] conv8_2_conv8_2_relu_0_split -> conv8_2_conv8_2_relu_0_split_2
I0228 14:53:48.141528 15940 net.cpp:408] conv8_2_conv8_2_relu_0_split -> conv8_2_conv8_2_relu_0_split_3
I0228 14:53:48.141592 15940 net.cpp:150] Setting up conv8_2_conv8_2_relu_0_split
I0228 14:53:48.141608 15940 net.cpp:157] Top shape: 32 256 3 3 (73728)
I0228 14:53:48.141615 15940 net.cpp:157] Top shape: 32 256 3 3 (73728)
I0228 14:53:48.141623 15940 net.cpp:157] Top shape: 32 256 3 3 (73728)
I0228 14:53:48.141629 15940 net.cpp:157] Top shape: 32 256 3 3 (73728)
I0228 14:53:48.141635 15940 net.cpp:165] Memory required for data: 7528513568
I0228 14:53:48.141640 15940 layer_factory.hpp:77] Creating layer conv9_1
I0228 14:53:48.141654 15940 net.cpp:100] Creating Layer conv9_1
I0228 14:53:48.141661 15940 net.cpp:434] conv9_1 <- conv8_2_conv8_2_relu_0_split_0
I0228 14:53:48.141669 15940 net.cpp:408] conv9_1 -> conv9_1
I0228 14:53:48.142971 15940 net.cpp:150] Setting up conv9_1
I0228 14:53:48.142984 15940 net.cpp:157] Top shape: 32 128 3 3 (36864)
I0228 14:53:48.142989 15940 net.cpp:165] Memory required for data: 7528661024
I0228 14:53:48.143009 15940 layer_factory.hpp:77] Creating layer conv9_1_relu
I0228 14:53:48.143018 15940 net.cpp:100] Creating Layer conv9_1_relu
I0228 14:53:48.143024 15940 net.cpp:434] conv9_1_relu <- conv9_1
I0228 14:53:48.143033 15940 net.cpp:395] conv9_1_relu -> conv9_1 (in-place)
I0228 14:53:48.143180 15940 net.cpp:150] Setting up conv9_1_relu
I0228 14:53:48.143189 15940 net.cpp:157] Top shape: 32 128 3 3 (36864)
I0228 14:53:48.143194 15940 net.cpp:165] Memory required for data: 7528808480
I0228 14:53:48.143200 15940 layer_factory.hpp:77] Creating layer conv9_2
I0228 14:53:48.143211 15940 net.cpp:100] Creating Layer conv9_2
I0228 14:53:48.143219 15940 net.cpp:434] conv9_2 <- conv9_1
I0228 14:53:48.143227 15940 net.cpp:408] conv9_2 -> conv9_2
I0228 14:53:48.146797 15940 net.cpp:150] Setting up conv9_2
I0228 14:53:48.146811 15940 net.cpp:157] Top shape: 32 256 1 1 (8192)
I0228 14:53:48.146816 15940 net.cpp:165] Memory required for data: 7528841248
I0228 14:53:48.146826 15940 layer_factory.hpp:77] Creating layer conv9_2_relu
I0228 14:53:48.146836 15940 net.cpp:100] Creating Layer conv9_2_relu
I0228 14:53:48.146840 15940 net.cpp:434] conv9_2_relu <- conv9_2
I0228 14:53:48.146847 15940 net.cpp:395] conv9_2_relu -> conv9_2 (in-place)
I0228 14:53:48.147011 15940 net.cpp:150] Setting up conv9_2_relu
I0228 14:53:48.147022 15940 net.cpp:157] Top shape: 32 256 1 1 (8192)
I0228 14:53:48.147027 15940 net.cpp:165] Memory required for data: 7528874016
I0228 14:53:48.147032 15940 layer_factory.hpp:77] Creating layer conv9_2_conv9_2_relu_0_split
I0228 14:53:48.147042 15940 net.cpp:100] Creating Layer conv9_2_conv9_2_relu_0_split
I0228 14:53:48.147048 15940 net.cpp:434] conv9_2_conv9_2_relu_0_split <- conv9_2
I0228 14:53:48.147056 15940 net.cpp:408] conv9_2_conv9_2_relu_0_split -> conv9_2_conv9_2_relu_0_split_0
I0228 14:53:48.147066 15940 net.cpp:408] conv9_2_conv9_2_relu_0_split -> conv9_2_conv9_2_relu_0_split_1
I0228 14:53:48.147078 15940 net.cpp:408] conv9_2_conv9_2_relu_0_split -> conv9_2_conv9_2_relu_0_split_2
I0228 14:53:48.147130 15940 net.cpp:150] Setting up conv9_2_conv9_2_relu_0_split
I0228 14:53:48.147137 15940 net.cpp:157] Top shape: 32 256 1 1 (8192)
I0228 14:53:48.147143 15940 net.cpp:157] Top shape: 32 256 1 1 (8192)
I0228 14:53:48.147150 15940 net.cpp:157] Top shape: 32 256 1 1 (8192)
I0228 14:53:48.147156 15940 net.cpp:165] Memory required for data: 7528972320
I0228 14:53:48.147162 15940 layer_factory.hpp:77] Creating layer conv4_3_norm
I0228 14:53:48.147172 15940 net.cpp:100] Creating Layer conv4_3_norm
I0228 14:53:48.147181 15940 net.cpp:434] conv4_3_norm <- conv4_3_relu4_3_0_split_1
I0228 14:53:48.147188 15940 net.cpp:408] conv4_3_norm -> conv4_3_norm
I0228 14:53:48.147328 15940 net.cpp:150] Setting up conv4_3_norm
I0228 14:53:48.147336 15940 net.cpp:157] Top shape: 32 512 38 38 (23658496)
I0228 14:53:48.147342 15940 net.cpp:165] Memory required for data: 7623606304
I0228 14:53:48.147351 15940 layer_factory.hpp:77] Creating layer conv4_3_norm_conv4_3_norm_0_split
I0228 14:53:48.147358 15940 net.cpp:100] Creating Layer conv4_3_norm_conv4_3_norm_0_split
I0228 14:53:48.147363 15940 net.cpp:434] conv4_3_norm_conv4_3_norm_0_split <- conv4_3_norm
I0228 14:53:48.147372 15940 net.cpp:408] conv4_3_norm_conv4_3_norm_0_split -> conv4_3_norm_conv4_3_norm_0_split_0
I0228 14:53:48.147389 15940 net.cpp:408] conv4_3_norm_conv4_3_norm_0_split -> conv4_3_norm_conv4_3_norm_0_split_1
I0228 14:53:48.147399 15940 net.cpp:408] conv4_3_norm_conv4_3_norm_0_split -> conv4_3_norm_conv4_3_norm_0_split_2
I0228 14:53:48.147444 15940 net.cpp:150] Setting up conv4_3_norm_conv4_3_norm_0_split
I0228 14:53:48.147454 15940 net.cpp:157] Top shape: 32 512 38 38 (23658496)
I0228 14:53:48.147459 15940 net.cpp:157] Top shape: 32 512 38 38 (23658496)
I0228 14:53:48.147465 15940 net.cpp:157] Top shape: 32 512 38 38 (23658496)
I0228 14:53:48.147472 15940 net.cpp:165] Memory required for data: 7907508256
I0228 14:53:48.147478 15940 layer_factory.hpp:77] Creating layer conv4_3_norm_mbox_loc
I0228 14:53:48.147490 15940 net.cpp:100] Creating Layer conv4_3_norm_mbox_loc
I0228 14:53:48.147496 15940 net.cpp:434] conv4_3_norm_mbox_loc <- conv4_3_norm_conv4_3_norm_0_split_0
I0228 14:53:48.147505 15940 net.cpp:408] conv4_3_norm_mbox_loc -> conv4_3_norm_mbox_loc
I0228 14:53:48.149510 15940 net.cpp:150] Setting up conv4_3_norm_mbox_loc
I0228 14:53:48.149523 15940 net.cpp:157] Top shape: 32 16 38 38 (739328)
I0228 14:53:48.149529 15940 net.cpp:165] Memory required for data: 7910465568
I0228 14:53:48.149539 15940 layer_factory.hpp:77] Creating layer conv4_3_norm_mbox_loc_perm
I0228 14:53:48.149551 15940 net.cpp:100] Creating Layer conv4_3_norm_mbox_loc_perm
I0228 14:53:48.149557 15940 net.cpp:434] conv4_3_norm_mbox_loc_perm <- conv4_3_norm_mbox_loc
I0228 14:53:48.149565 15940 net.cpp:408] conv4_3_norm_mbox_loc_perm -> conv4_3_norm_mbox_loc_perm
I0228 14:53:48.149658 15940 net.cpp:150] Setting up conv4_3_norm_mbox_loc_perm
I0228 14:53:48.149668 15940 net.cpp:157] Top shape: 32 38 38 16 (739328)
I0228 14:53:48.149672 15940 net.cpp:165] Memory required for data: 7913422880
I0228 14:53:48.149677 15940 layer_factory.hpp:77] Creating layer conv4_3_norm_mbox_loc_flat
I0228 14:53:48.149686 15940 net.cpp:100] Creating Layer conv4_3_norm_mbox_loc_flat
I0228 14:53:48.149694 15940 net.cpp:434] conv4_3_norm_mbox_loc_flat <- conv4_3_norm_mbox_loc_perm
I0228 14:53:48.149701 15940 net.cpp:408] conv4_3_norm_mbox_loc_flat -> conv4_3_norm_mbox_loc_flat
I0228 14:53:48.149741 15940 net.cpp:150] Setting up conv4_3_norm_mbox_loc_flat
I0228 14:53:48.149750 15940 net.cpp:157] Top shape: 32 23104 (739328)
I0228 14:53:48.149757 15940 net.cpp:165] Memory required for data: 7916380192
I0228 14:53:48.149763 15940 layer_factory.hpp:77] Creating layer conv4_3_norm_mbox_conf
I0228 14:53:48.149781 15940 net.cpp:100] Creating Layer conv4_3_norm_mbox_conf
I0228 14:53:48.149787 15940 net.cpp:434] conv4_3_norm_mbox_conf <- conv4_3_norm_conv4_3_norm_0_split_1
I0228 14:53:48.149796 15940 net.cpp:408] conv4_3_norm_mbox_conf -> conv4_3_norm_mbox_conf
I0228 14:53:48.153805 15940 net.cpp:150] Setting up conv4_3_norm_mbox_conf
I0228 14:53:48.153820 15940 net.cpp:157] Top shape: 32 84 38 38 (3881472)
I0228 14:53:48.153825 15940 net.cpp:165] Memory required for data: 7931906080
I0228 14:53:48.153836 15940 layer_factory.hpp:77] Creating layer conv4_3_norm_mbox_conf_perm
I0228 14:53:48.153846 15940 net.cpp:100] Creating Layer conv4_3_norm_mbox_conf_perm
I0228 14:53:48.153854 15940 net.cpp:434] conv4_3_norm_mbox_conf_perm <- conv4_3_norm_mbox_conf
I0228 14:53:48.153863 15940 net.cpp:408] conv4_3_norm_mbox_conf_perm -> conv4_3_norm_mbox_conf_perm
I0228 14:53:48.153961 15940 net.cpp:150] Setting up conv4_3_norm_mbox_conf_perm
I0228 14:53:48.153970 15940 net.cpp:157] Top shape: 32 38 38 84 (3881472)
I0228 14:53:48.153975 15940 net.cpp:165] Memory required for data: 7947431968
I0228 14:53:48.153980 15940 layer_factory.hpp:77] Creating layer conv4_3_norm_mbox_conf_flat
I0228 14:53:48.153990 15940 net.cpp:100] Creating Layer conv4_3_norm_mbox_conf_flat
I0228 14:53:48.153996 15940 net.cpp:434] conv4_3_norm_mbox_conf_flat <- conv4_3_norm_mbox_conf_perm
I0228 14:53:48.154004 15940 net.cpp:408] conv4_3_norm_mbox_conf_flat -> conv4_3_norm_mbox_conf_flat
I0228 14:53:48.154034 15940 net.cpp:150] Setting up conv4_3_norm_mbox_conf_flat
I0228 14:53:48.154052 15940 net.cpp:157] Top shape: 32 121296 (3881472)
I0228 14:53:48.154057 15940 net.cpp:165] Memory required for data: 7962957856
I0228 14:53:48.154062 15940 layer_factory.hpp:77] Creating layer conv4_3_norm_mbox_priorbox
I0228 14:53:48.154070 15940 net.cpp:100] Creating Layer conv4_3_norm_mbox_priorbox
I0228 14:53:48.154079 15940 net.cpp:434] conv4_3_norm_mbox_priorbox <- conv4_3_norm_conv4_3_norm_0_split_2
I0228 14:53:48.154086 15940 net.cpp:434] conv4_3_norm_mbox_priorbox <- data_data_0_split_1
I0228 14:53:48.154094 15940 net.cpp:408] conv4_3_norm_mbox_priorbox -> conv4_3_norm_mbox_priorbox
I0228 14:53:48.154131 15940 net.cpp:150] Setting up conv4_3_norm_mbox_priorbox
I0228 14:53:48.154140 15940 net.cpp:157] Top shape: 1 2 23104 (46208)
I0228 14:53:48.154145 15940 net.cpp:165] Memory required for data: 7963142688
I0228 14:53:48.154150 15940 layer_factory.hpp:77] Creating layer fc7_mbox_loc
I0228 14:53:48.154161 15940 net.cpp:100] Creating Layer fc7_mbox_loc
I0228 14:53:48.154170 15940 net.cpp:434] fc7_mbox_loc <- fc7_relu7_0_split_1
I0228 14:53:48.154178 15940 net.cpp:408] fc7_mbox_loc -> fc7_mbox_loc
I0228 14:53:48.156816 15940 net.cpp:150] Setting up fc7_mbox_loc
I0228 14:53:48.156831 15940 net.cpp:157] Top shape: 32 24 19 19 (277248)
I0228 14:53:48.156836 15940 net.cpp:165] Memory required for data: 7964251680
I0228 14:53:48.156847 15940 layer_factory.hpp:77] Creating layer fc7_mbox_loc_perm
I0228 14:53:48.156857 15940 net.cpp:100] Creating Layer fc7_mbox_loc_perm
I0228 14:53:48.156862 15940 net.cpp:434] fc7_mbox_loc_perm <- fc7_mbox_loc
I0228 14:53:48.156872 15940 net.cpp:408] fc7_mbox_loc_perm -> fc7_mbox_loc_perm
I0228 14:53:48.156967 15940 net.cpp:150] Setting up fc7_mbox_loc_perm
I0228 14:53:48.156976 15940 net.cpp:157] Top shape: 32 19 19 24 (277248)
I0228 14:53:48.156981 15940 net.cpp:165] Memory required for data: 7965360672
I0228 14:53:48.156987 15940 layer_factory.hpp:77] Creating layer fc7_mbox_loc_flat
I0228 14:53:48.156997 15940 net.cpp:100] Creating Layer fc7_mbox_loc_flat
I0228 14:53:48.157004 15940 net.cpp:434] fc7_mbox_loc_flat <- fc7_mbox_loc_perm
I0228 14:53:48.157011 15940 net.cpp:408] fc7_mbox_loc_flat -> fc7_mbox_loc_flat
I0228 14:53:48.157044 15940 net.cpp:150] Setting up fc7_mbox_loc_flat
I0228 14:53:48.157052 15940 net.cpp:157] Top shape: 32 8664 (277248)
I0228 14:53:48.157057 15940 net.cpp:165] Memory required for data: 7966469664
I0228 14:53:48.157061 15940 layer_factory.hpp:77] Creating layer fc7_mbox_conf
I0228 14:53:48.157075 15940 net.cpp:100] Creating Layer fc7_mbox_conf
I0228 14:53:48.157081 15940 net.cpp:434] fc7_mbox_conf <- fc7_relu7_0_split_2
I0228 14:53:48.157089 15940 net.cpp:408] fc7_mbox_conf -> fc7_mbox_conf
I0228 14:53:48.165091 15940 net.cpp:150] Setting up fc7_mbox_conf
I0228 14:53:48.165114 15940 net.cpp:157] Top shape: 32 126 19 19 (1455552)
I0228 14:53:48.165119 15940 net.cpp:165] Memory required for data: 7972291872
I0228 14:53:48.165148 15940 layer_factory.hpp:77] Creating layer fc7_mbox_conf_perm
I0228 14:53:48.165160 15940 net.cpp:100] Creating Layer fc7_mbox_conf_perm
I0228 14:53:48.165169 15940 net.cpp:434] fc7_mbox_conf_perm <- fc7_mbox_conf
I0228 14:53:48.165179 15940 net.cpp:408] fc7_mbox_conf_perm -> fc7_mbox_conf_perm
I0228 14:53:48.165283 15940 net.cpp:150] Setting up fc7_mbox_conf_perm
I0228 14:53:48.165292 15940 net.cpp:157] Top shape: 32 19 19 126 (1455552)
I0228 14:53:48.165297 15940 net.cpp:165] Memory required for data: 7978114080
I0228 14:53:48.165302 15940 layer_factory.hpp:77] Creating layer fc7_mbox_conf_flat
I0228 14:53:48.165310 15940 net.cpp:100] Creating Layer fc7_mbox_conf_flat
I0228 14:53:48.165318 15940 net.cpp:434] fc7_mbox_conf_flat <- fc7_mbox_conf_perm
I0228 14:53:48.165326 15940 net.cpp:408] fc7_mbox_conf_flat -> fc7_mbox_conf_flat
I0228 14:53:48.165354 15940 net.cpp:150] Setting up fc7_mbox_conf_flat
I0228 14:53:48.165362 15940 net.cpp:157] Top shape: 32 45486 (1455552)
I0228 14:53:48.165367 15940 net.cpp:165] Memory required for data: 7983936288
I0228 14:53:48.165374 15940 layer_factory.hpp:77] Creating layer fc7_mbox_priorbox
I0228 14:53:48.165396 15940 net.cpp:100] Creating Layer fc7_mbox_priorbox
I0228 14:53:48.165403 15940 net.cpp:434] fc7_mbox_priorbox <- fc7_relu7_0_split_3
I0228 14:53:48.165412 15940 net.cpp:434] fc7_mbox_priorbox <- data_data_0_split_2
I0228 14:53:48.165421 15940 net.cpp:408] fc7_mbox_priorbox -> fc7_mbox_priorbox
I0228 14:53:48.165455 15940 net.cpp:150] Setting up fc7_mbox_priorbox
I0228 14:53:48.165463 15940 net.cpp:157] Top shape: 1 2 8664 (17328)
I0228 14:53:48.165468 15940 net.cpp:165] Memory required for data: 7984005600
I0228 14:53:48.165474 15940 layer_factory.hpp:77] Creating layer conv6_2_mbox_loc
I0228 14:53:48.165489 15940 net.cpp:100] Creating Layer conv6_2_mbox_loc
I0228 14:53:48.165495 15940 net.cpp:434] conv6_2_mbox_loc <- conv6_2_conv6_2_relu_0_split_1
I0228 14:53:48.165503 15940 net.cpp:408] conv6_2_mbox_loc -> conv6_2_mbox_loc
I0228 14:53:48.167680 15940 net.cpp:150] Setting up conv6_2_mbox_loc
I0228 14:53:48.167693 15940 net.cpp:157] Top shape: 32 24 10 10 (76800)
I0228 14:53:48.167699 15940 net.cpp:165] Memory required for data: 7984312800
I0228 14:53:48.167709 15940 layer_factory.hpp:77] Creating layer conv6_2_mbox_loc_perm
I0228 14:53:48.167719 15940 net.cpp:100] Creating Layer conv6_2_mbox_loc_perm
I0228 14:53:48.167726 15940 net.cpp:434] conv6_2_mbox_loc_perm <- conv6_2_mbox_loc
I0228 14:53:48.167734 15940 net.cpp:408] conv6_2_mbox_loc_perm -> conv6_2_mbox_loc_perm
I0228 14:53:48.167832 15940 net.cpp:150] Setting up conv6_2_mbox_loc_perm
I0228 14:53:48.167841 15940 net.cpp:157] Top shape: 32 10 10 24 (76800)
I0228 14:53:48.167846 15940 net.cpp:165] Memory required for data: 7984620000
I0228 14:53:48.167851 15940 layer_factory.hpp:77] Creating layer conv6_2_mbox_loc_flat
I0228 14:53:48.167860 15940 net.cpp:100] Creating Layer conv6_2_mbox_loc_flat
I0228 14:53:48.167867 15940 net.cpp:434] conv6_2_mbox_loc_flat <- conv6_2_mbox_loc_perm
I0228 14:53:48.167876 15940 net.cpp:408] conv6_2_mbox_loc_flat -> conv6_2_mbox_loc_flat
I0228 14:53:48.167902 15940 net.cpp:150] Setting up conv6_2_mbox_loc_flat
I0228 14:53:48.167910 15940 net.cpp:157] Top shape: 32 2400 (76800)
I0228 14:53:48.167915 15940 net.cpp:165] Memory required for data: 7984927200
I0228 14:53:48.167920 15940 layer_factory.hpp:77] Creating layer conv6_2_mbox_conf
I0228 14:53:48.167934 15940 net.cpp:100] Creating Layer conv6_2_mbox_conf
I0228 14:53:48.167940 15940 net.cpp:434] conv6_2_mbox_conf <- conv6_2_conv6_2_relu_0_split_2
I0228 14:53:48.167950 15940 net.cpp:408] conv6_2_mbox_conf -> conv6_2_mbox_conf
I0228 14:53:48.172718 15940 net.cpp:150] Setting up conv6_2_mbox_conf
I0228 14:53:48.172732 15940 net.cpp:157] Top shape: 32 126 10 10 (403200)
I0228 14:53:48.172737 15940 net.cpp:165] Memory required for data: 7986540000
I0228 14:53:48.172763 15940 layer_factory.hpp:77] Creating layer conv6_2_mbox_conf_perm
I0228 14:53:48.172772 15940 net.cpp:100] Creating Layer conv6_2_mbox_conf_perm
I0228 14:53:48.172780 15940 net.cpp:434] conv6_2_mbox_conf_perm <- conv6_2_mbox_conf
I0228 14:53:48.172787 15940 net.cpp:408] conv6_2_mbox_conf_perm -> conv6_2_mbox_conf_perm
I0228 14:53:48.172886 15940 net.cpp:150] Setting up conv6_2_mbox_conf_perm
I0228 14:53:48.172895 15940 net.cpp:157] Top shape: 32 10 10 126 (403200)
I0228 14:53:48.172899 15940 net.cpp:165] Memory required for data: 7988152800
I0228 14:53:48.172904 15940 layer_factory.hpp:77] Creating layer conv6_2_mbox_conf_flat
I0228 14:53:48.172914 15940 net.cpp:100] Creating Layer conv6_2_mbox_conf_flat
I0228 14:53:48.172921 15940 net.cpp:434] conv6_2_mbox_conf_flat <- conv6_2_mbox_conf_perm
I0228 14:53:48.172929 15940 net.cpp:408] conv6_2_mbox_conf_flat -> conv6_2_mbox_conf_flat
I0228 14:53:48.172957 15940 net.cpp:150] Setting up conv6_2_mbox_conf_flat
I0228 14:53:48.172966 15940 net.cpp:157] Top shape: 32 12600 (403200)
I0228 14:53:48.172971 15940 net.cpp:165] Memory required for data: 7989765600
I0228 14:53:48.172976 15940 layer_factory.hpp:77] Creating layer conv6_2_mbox_priorbox
I0228 14:53:48.172984 15940 net.cpp:100] Creating Layer conv6_2_mbox_priorbox
I0228 14:53:48.173002 15940 net.cpp:434] conv6_2_mbox_priorbox <- conv6_2_conv6_2_relu_0_split_3
I0228 14:53:48.173008 15940 net.cpp:434] conv6_2_mbox_priorbox <- data_data_0_split_3
I0228 14:53:48.173017 15940 net.cpp:408] conv6_2_mbox_priorbox -> conv6_2_mbox_priorbox
I0228 14:53:48.173050 15940 net.cpp:150] Setting up conv6_2_mbox_priorbox
I0228 14:53:48.173059 15940 net.cpp:157] Top shape: 1 2 2400 (4800)
I0228 14:53:48.173063 15940 net.cpp:165] Memory required for data: 7989784800
I0228 14:53:48.173069 15940 layer_factory.hpp:77] Creating layer conv7_2_mbox_loc
I0228 14:53:48.173080 15940 net.cpp:100] Creating Layer conv7_2_mbox_loc
I0228 14:53:48.173089 15940 net.cpp:434] conv7_2_mbox_loc <- conv7_2_conv7_2_relu_0_split_1
I0228 14:53:48.173099 15940 net.cpp:408] conv7_2_mbox_loc -> conv7_2_mbox_loc
I0228 14:53:48.174525 15940 net.cpp:150] Setting up conv7_2_mbox_loc
I0228 14:53:48.174537 15940 net.cpp:157] Top shape: 32 24 5 5 (19200)
I0228 14:53:48.174543 15940 net.cpp:165] Memory required for data: 7989861600
I0228 14:53:48.174567 15940 layer_factory.hpp:77] Creating layer conv7_2_mbox_loc_perm
I0228 14:53:48.174577 15940 net.cpp:100] Creating Layer conv7_2_mbox_loc_perm
I0228 14:53:48.174584 15940 net.cpp:434] conv7_2_mbox_loc_perm <- conv7_2_mbox_loc
I0228 14:53:48.174593 15940 net.cpp:408] conv7_2_mbox_loc_perm -> conv7_2_mbox_loc_perm
I0228 14:53:48.174685 15940 net.cpp:150] Setting up conv7_2_mbox_loc_perm
I0228 14:53:48.174693 15940 net.cpp:157] Top shape: 32 5 5 24 (19200)
I0228 14:53:48.174698 15940 net.cpp:165] Memory required for data: 7989938400
I0228 14:53:48.174705 15940 layer_factory.hpp:77] Creating layer conv7_2_mbox_loc_flat
I0228 14:53:48.174712 15940 net.cpp:100] Creating Layer conv7_2_mbox_loc_flat
I0228 14:53:48.174721 15940 net.cpp:434] conv7_2_mbox_loc_flat <- conv7_2_mbox_loc_perm
I0228 14:53:48.174728 15940 net.cpp:408] conv7_2_mbox_loc_flat -> conv7_2_mbox_loc_flat
I0228 14:53:48.174758 15940 net.cpp:150] Setting up conv7_2_mbox_loc_flat
I0228 14:53:48.174765 15940 net.cpp:157] Top shape: 32 600 (19200)
I0228 14:53:48.174769 15940 net.cpp:165] Memory required for data: 7990015200
I0228 14:53:48.174775 15940 layer_factory.hpp:77] Creating layer conv7_2_mbox_conf
I0228 14:53:48.174788 15940 net.cpp:100] Creating Layer conv7_2_mbox_conf
I0228 14:53:48.174794 15940 net.cpp:434] conv7_2_mbox_conf <- conv7_2_conv7_2_relu_0_split_2
I0228 14:53:48.174803 15940 net.cpp:408] conv7_2_mbox_conf -> conv7_2_mbox_conf
I0228 14:53:48.177903 15940 net.cpp:150] Setting up conv7_2_mbox_conf
I0228 14:53:48.177918 15940 net.cpp:157] Top shape: 32 126 5 5 (100800)
I0228 14:53:48.177923 15940 net.cpp:165] Memory required for data: 7990418400
I0228 14:53:48.177932 15940 layer_factory.hpp:77] Creating layer conv7_2_mbox_conf_perm
I0228 14:53:48.177943 15940 net.cpp:100] Creating Layer conv7_2_mbox_conf_perm
I0228 14:53:48.177953 15940 net.cpp:434] conv7_2_mbox_conf_perm <- conv7_2_mbox_conf
I0228 14:53:48.177961 15940 net.cpp:408] conv7_2_mbox_conf_perm -> conv7_2_mbox_conf_perm
I0228 14:53:48.178056 15940 net.cpp:150] Setting up conv7_2_mbox_conf_perm
I0228 14:53:48.178064 15940 net.cpp:157] Top shape: 32 5 5 126 (100800)
I0228 14:53:48.178069 15940 net.cpp:165] Memory required for data: 7990821600
I0228 14:53:48.178074 15940 layer_factory.hpp:77] Creating layer conv7_2_mbox_conf_flat
I0228 14:53:48.178082 15940 net.cpp:100] Creating Layer conv7_2_mbox_conf_flat
I0228 14:53:48.178092 15940 net.cpp:434] conv7_2_mbox_conf_flat <- conv7_2_mbox_conf_perm
I0228 14:53:48.178100 15940 net.cpp:408] conv7_2_mbox_conf_flat -> conv7_2_mbox_conf_flat
I0228 14:53:48.178129 15940 net.cpp:150] Setting up conv7_2_mbox_conf_flat
I0228 14:53:48.178138 15940 net.cpp:157] Top shape: 32 3150 (100800)
I0228 14:53:48.178141 15940 net.cpp:165] Memory required for data: 7991224800
I0228 14:53:48.178148 15940 layer_factory.hpp:77] Creating layer conv7_2_mbox_priorbox
I0228 14:53:48.178156 15940 net.cpp:100] Creating Layer conv7_2_mbox_priorbox
I0228 14:53:48.178162 15940 net.cpp:434] conv7_2_mbox_priorbox <- conv7_2_conv7_2_relu_0_split_3
I0228 14:53:48.178180 15940 net.cpp:434] conv7_2_mbox_priorbox <- data_data_0_split_4
I0228 14:53:48.178190 15940 net.cpp:408] conv7_2_mbox_priorbox -> conv7_2_mbox_priorbox
I0228 14:53:48.178222 15940 net.cpp:150] Setting up conv7_2_mbox_priorbox
I0228 14:53:48.178231 15940 net.cpp:157] Top shape: 1 2 600 (1200)
I0228 14:53:48.178234 15940 net.cpp:165] Memory required for data: 7991229600
I0228 14:53:48.178241 15940 layer_factory.hpp:77] Creating layer conv8_2_mbox_loc
I0228 14:53:48.178251 15940 net.cpp:100] Creating Layer conv8_2_mbox_loc
I0228 14:53:48.178259 15940 net.cpp:434] conv8_2_mbox_loc <- conv8_2_conv8_2_relu_0_split_1
I0228 14:53:48.178268 15940 net.cpp:408] conv8_2_mbox_loc -> conv8_2_mbox_loc
I0228 14:53:48.179631 15940 net.cpp:150] Setting up conv8_2_mbox_loc
I0228 14:53:48.179646 15940 net.cpp:157] Top shape: 32 16 3 3 (4608)
I0228 14:53:48.179651 15940 net.cpp:165] Memory required for data: 7991248032
I0228 14:53:48.179667 15940 layer_factory.hpp:77] Creating layer conv8_2_mbox_loc_perm
I0228 14:53:48.179677 15940 net.cpp:100] Creating Layer conv8_2_mbox_loc_perm
I0228 14:53:48.179685 15940 net.cpp:434] conv8_2_mbox_loc_perm <- conv8_2_mbox_loc
I0228 14:53:48.179693 15940 net.cpp:408] conv8_2_mbox_loc_perm -> conv8_2_mbox_loc_perm
I0228 14:53:48.179788 15940 net.cpp:150] Setting up conv8_2_mbox_loc_perm
I0228 14:53:48.179797 15940 net.cpp:157] Top shape: 32 3 3 16 (4608)
I0228 14:53:48.179802 15940 net.cpp:165] Memory required for data: 7991266464
I0228 14:53:48.179807 15940 layer_factory.hpp:77] Creating layer conv8_2_mbox_loc_flat
I0228 14:53:48.179816 15940 net.cpp:100] Creating Layer conv8_2_mbox_loc_flat
I0228 14:53:48.179822 15940 net.cpp:434] conv8_2_mbox_loc_flat <- conv8_2_mbox_loc_perm
I0228 14:53:48.179831 15940 net.cpp:408] conv8_2_mbox_loc_flat -> conv8_2_mbox_loc_flat
I0228 14:53:48.179862 15940 net.cpp:150] Setting up conv8_2_mbox_loc_flat
I0228 14:53:48.179869 15940 net.cpp:157] Top shape: 32 144 (4608)
I0228 14:53:48.179875 15940 net.cpp:165] Memory required for data: 7991284896
I0228 14:53:48.179879 15940 layer_factory.hpp:77] Creating layer conv8_2_mbox_conf
I0228 14:53:48.179893 15940 net.cpp:100] Creating Layer conv8_2_mbox_conf
I0228 14:53:48.179898 15940 net.cpp:434] conv8_2_mbox_conf <- conv8_2_conv8_2_relu_0_split_2
I0228 14:53:48.179908 15940 net.cpp:408] conv8_2_mbox_conf -> conv8_2_mbox_conf
I0228 14:53:48.181937 15940 net.cpp:150] Setting up conv8_2_mbox_conf
I0228 14:53:48.181951 15940 net.cpp:157] Top shape: 32 84 3 3 (24192)
I0228 14:53:48.181957 15940 net.cpp:165] Memory required for data: 7991381664
I0228 14:53:48.181967 15940 layer_factory.hpp:77] Creating layer conv8_2_mbox_conf_perm
I0228 14:53:48.181977 15940 net.cpp:100] Creating Layer conv8_2_mbox_conf_perm
I0228 14:53:48.181982 15940 net.cpp:434] conv8_2_mbox_conf_perm <- conv8_2_mbox_conf
I0228 14:53:48.181991 15940 net.cpp:408] conv8_2_mbox_conf_perm -> conv8_2_mbox_conf_perm
I0228 14:53:48.182085 15940 net.cpp:150] Setting up conv8_2_mbox_conf_perm
I0228 14:53:48.182094 15940 net.cpp:157] Top shape: 32 3 3 84 (24192)
I0228 14:53:48.182099 15940 net.cpp:165] Memory required for data: 7991478432
I0228 14:53:48.182104 15940 layer_factory.hpp:77] Creating layer conv8_2_mbox_conf_flat
I0228 14:53:48.182113 15940 net.cpp:100] Creating Layer conv8_2_mbox_conf_flat
I0228 14:53:48.182119 15940 net.cpp:434] conv8_2_mbox_conf_flat <- conv8_2_mbox_conf_perm
I0228 14:53:48.182127 15940 net.cpp:408] conv8_2_mbox_conf_flat -> conv8_2_mbox_conf_flat
I0228 14:53:48.182155 15940 net.cpp:150] Setting up conv8_2_mbox_conf_flat
I0228 14:53:48.182163 15940 net.cpp:157] Top shape: 32 756 (24192)
I0228 14:53:48.182168 15940 net.cpp:165] Memory required for data: 7991575200
I0228 14:53:48.182173 15940 layer_factory.hpp:77] Creating layer conv8_2_mbox_priorbox
I0228 14:53:48.182183 15940 net.cpp:100] Creating Layer conv8_2_mbox_priorbox
I0228 14:53:48.182191 15940 net.cpp:434] conv8_2_mbox_priorbox <- conv8_2_conv8_2_relu_0_split_3
I0228 14:53:48.182198 15940 net.cpp:434] conv8_2_mbox_priorbox <- data_data_0_split_5
I0228 14:53:48.182215 15940 net.cpp:408] conv8_2_mbox_priorbox -> conv8_2_mbox_priorbox
I0228 14:53:48.182248 15940 net.cpp:150] Setting up conv8_2_mbox_priorbox
I0228 14:53:48.182257 15940 net.cpp:157] Top shape: 1 2 144 (288)
I0228 14:53:48.182261 15940 net.cpp:165] Memory required for data: 7991576352
I0228 14:53:48.182267 15940 layer_factory.hpp:77] Creating layer conv9_2_mbox_loc
I0228 14:53:48.182278 15940 net.cpp:100] Creating Layer conv9_2_mbox_loc
I0228 14:53:48.182287 15940 net.cpp:434] conv9_2_mbox_loc <- conv9_2_conv9_2_relu_0_split_0
I0228 14:53:48.182296 15940 net.cpp:408] conv9_2_mbox_loc -> conv9_2_mbox_loc
I0228 14:53:48.183656 15940 net.cpp:150] Setting up conv9_2_mbox_loc
I0228 14:53:48.183670 15940 net.cpp:157] Top shape: 32 16 1 1 (512)
I0228 14:53:48.183676 15940 net.cpp:165] Memory required for data: 7991578400
I0228 14:53:48.183686 15940 layer_factory.hpp:77] Creating layer conv9_2_mbox_loc_perm
I0228 14:53:48.183694 15940 net.cpp:100] Creating Layer conv9_2_mbox_loc_perm
I0228 14:53:48.183701 15940 net.cpp:434] conv9_2_mbox_loc_perm <- conv9_2_mbox_loc
I0228 14:53:48.183710 15940 net.cpp:408] conv9_2_mbox_loc_perm -> conv9_2_mbox_loc_perm
I0228 14:53:48.183804 15940 net.cpp:150] Setting up conv9_2_mbox_loc_perm
I0228 14:53:48.183812 15940 net.cpp:157] Top shape: 32 1 1 16 (512)
I0228 14:53:48.183817 15940 net.cpp:165] Memory required for data: 7991580448
I0228 14:53:48.183822 15940 layer_factory.hpp:77] Creating layer conv9_2_mbox_loc_flat
I0228 14:53:48.183830 15940 net.cpp:100] Creating Layer conv9_2_mbox_loc_flat
I0228 14:53:48.183837 15940 net.cpp:434] conv9_2_mbox_loc_flat <- conv9_2_mbox_loc_perm
I0228 14:53:48.183845 15940 net.cpp:408] conv9_2_mbox_loc_flat -> conv9_2_mbox_loc_flat
I0228 14:53:48.183876 15940 net.cpp:150] Setting up conv9_2_mbox_loc_flat
I0228 14:53:48.183882 15940 net.cpp:157] Top shape: 32 16 (512)
I0228 14:53:48.183887 15940 net.cpp:165] Memory required for data: 7991582496
I0228 14:53:48.183892 15940 layer_factory.hpp:77] Creating layer conv9_2_mbox_conf
I0228 14:53:48.183905 15940 net.cpp:100] Creating Layer conv9_2_mbox_conf
I0228 14:53:48.183912 15940 net.cpp:434] conv9_2_mbox_conf <- conv9_2_conv9_2_relu_0_split_1
I0228 14:53:48.183920 15940 net.cpp:408] conv9_2_mbox_conf -> conv9_2_mbox_conf
I0228 14:53:48.186463 15940 net.cpp:150] Setting up conv9_2_mbox_conf
I0228 14:53:48.186477 15940 net.cpp:157] Top shape: 32 84 1 1 (2688)
I0228 14:53:48.186483 15940 net.cpp:165] Memory required for data: 7991593248
I0228 14:53:48.186492 15940 layer_factory.hpp:77] Creating layer conv9_2_mbox_conf_perm
I0228 14:53:48.186501 15940 net.cpp:100] Creating Layer conv9_2_mbox_conf_perm
I0228 14:53:48.186509 15940 net.cpp:434] conv9_2_mbox_conf_perm <- conv9_2_mbox_conf
I0228 14:53:48.186517 15940 net.cpp:408] conv9_2_mbox_conf_perm -> conv9_2_mbox_conf_perm
I0228 14:53:48.186611 15940 net.cpp:150] Setting up conv9_2_mbox_conf_perm
I0228 14:53:48.186619 15940 net.cpp:157] Top shape: 32 1 1 84 (2688)
I0228 14:53:48.186625 15940 net.cpp:165] Memory required for data: 7991604000
I0228 14:53:48.186630 15940 layer_factory.hpp:77] Creating layer conv9_2_mbox_conf_flat
I0228 14:53:48.186640 15940 net.cpp:100] Creating Layer conv9_2_mbox_conf_flat
I0228 14:53:48.186645 15940 net.cpp:434] conv9_2_mbox_conf_flat <- conv9_2_mbox_conf_perm
I0228 14:53:48.186653 15940 net.cpp:408] conv9_2_mbox_conf_flat -> conv9_2_mbox_conf_flat
I0228 14:53:48.186684 15940 net.cpp:150] Setting up conv9_2_mbox_conf_flat
I0228 14:53:48.186691 15940 net.cpp:157] Top shape: 32 84 (2688)
I0228 14:53:48.186695 15940 net.cpp:165] Memory required for data: 7991614752
I0228 14:53:48.186702 15940 layer_factory.hpp:77] Creating layer conv9_2_mbox_priorbox
I0228 14:53:48.186709 15940 net.cpp:100] Creating Layer conv9_2_mbox_priorbox
I0228 14:53:48.186717 15940 net.cpp:434] conv9_2_mbox_priorbox <- conv9_2_conv9_2_relu_0_split_2
I0228 14:53:48.186723 15940 net.cpp:434] conv9_2_mbox_priorbox <- data_data_0_split_6
I0228 14:53:48.186733 15940 net.cpp:408] conv9_2_mbox_priorbox -> conv9_2_mbox_priorbox
I0228 14:53:48.186764 15940 net.cpp:150] Setting up conv9_2_mbox_priorbox
I0228 14:53:48.186779 15940 net.cpp:157] Top shape: 1 2 16 (32)
I0228 14:53:48.186784 15940 net.cpp:165] Memory required for data: 7991614880
I0228 14:53:48.186789 15940 layer_factory.hpp:77] Creating layer mbox_loc
I0228 14:53:48.186800 15940 net.cpp:100] Creating Layer mbox_loc
I0228 14:53:48.186807 15940 net.cpp:434] mbox_loc <- conv4_3_norm_mbox_loc_flat
I0228 14:53:48.186815 15940 net.cpp:434] mbox_loc <- fc7_mbox_loc_flat
I0228 14:53:48.186822 15940 net.cpp:434] mbox_loc <- conv6_2_mbox_loc_flat
I0228 14:53:48.186830 15940 net.cpp:434] mbox_loc <- conv7_2_mbox_loc_flat
I0228 14:53:48.186836 15940 net.cpp:434] mbox_loc <- conv8_2_mbox_loc_flat
I0228 14:53:48.186841 15940 net.cpp:434] mbox_loc <- conv9_2_mbox_loc_flat
I0228 14:53:48.186851 15940 net.cpp:408] mbox_loc -> mbox_loc
I0228 14:53:48.186882 15940 net.cpp:150] Setting up mbox_loc
I0228 14:53:48.186890 15940 net.cpp:157] Top shape: 32 34928 (1117696)
I0228 14:53:48.186894 15940 net.cpp:165] Memory required for data: 7996085664
I0228 14:53:48.186900 15940 layer_factory.hpp:77] Creating layer mbox_conf
I0228 14:53:48.186908 15940 net.cpp:100] Creating Layer mbox_conf
I0228 14:53:48.186915 15940 net.cpp:434] mbox_conf <- conv4_3_norm_mbox_conf_flat
I0228 14:53:48.186923 15940 net.cpp:434] mbox_conf <- fc7_mbox_conf_flat
I0228 14:53:48.186930 15940 net.cpp:434] mbox_conf <- conv6_2_mbox_conf_flat
I0228 14:53:48.186936 15940 net.cpp:434] mbox_conf <- conv7_2_mbox_conf_flat
I0228 14:53:48.186944 15940 net.cpp:434] mbox_conf <- conv8_2_mbox_conf_flat
I0228 14:53:48.186950 15940 net.cpp:434] mbox_conf <- conv9_2_mbox_conf_flat
I0228 14:53:48.186960 15940 net.cpp:408] mbox_conf -> mbox_conf
I0228 14:53:48.186988 15940 net.cpp:150] Setting up mbox_conf
I0228 14:53:48.186995 15940 net.cpp:157] Top shape: 32 183372 (5867904)
I0228 14:53:48.187000 15940 net.cpp:165] Memory required for data: 8019557280
I0228 14:53:48.187005 15940 layer_factory.hpp:77] Creating layer mbox_priorbox
I0228 14:53:48.187013 15940 net.cpp:100] Creating Layer mbox_priorbox
I0228 14:53:48.187021 15940 net.cpp:434] mbox_priorbox <- conv4_3_norm_mbox_priorbox
I0228 14:53:48.187028 15940 net.cpp:434] mbox_priorbox <- fc7_mbox_priorbox
I0228 14:53:48.187038 15940 net.cpp:434] mbox_priorbox <- conv6_2_mbox_priorbox
I0228 14:53:48.187044 15940 net.cpp:434] mbox_priorbox <- conv7_2_mbox_priorbox
I0228 14:53:48.187050 15940 net.cpp:434] mbox_priorbox <- conv8_2_mbox_priorbox
I0228 14:53:48.187055 15940 net.cpp:434] mbox_priorbox <- conv9_2_mbox_priorbox
I0228 14:53:48.187064 15940 net.cpp:408] mbox_priorbox -> mbox_priorbox
I0228 14:53:48.187093 15940 net.cpp:150] Setting up mbox_priorbox
I0228 14:53:48.187101 15940 net.cpp:157] Top shape: 1 2 34928 (69856)
I0228 14:53:48.187105 15940 net.cpp:165] Memory required for data: 8019836704
I0228 14:53:48.187111 15940 layer_factory.hpp:77] Creating layer mbox_loss
I0228 14:53:48.187125 15940 net.cpp:100] Creating Layer mbox_loss
I0228 14:53:48.187130 15940 net.cpp:434] mbox_loss <- mbox_loc
I0228 14:53:48.187137 15940 net.cpp:434] mbox_loss <- mbox_conf
I0228 14:53:48.187144 15940 net.cpp:434] mbox_loss <- mbox_priorbox
…
state {
  phase: TEST
}
layer {
  name: "data"
  type: "AnnotatedData"
  top: "data"
  top: "label"
  include {
    phase: TEST
  }
  transform_param {
    mean_value: 104
    mean_value: 117
    mean_value: 123
    resize_param {
      prob: 1
      resize_mode: WARP
      height: 300
      width: 300
      interp_mode: LINEAR
    }
  }
  data_param {
    source: "examples/VOC0712/VOC0712_test_lmdb"
    batch_size: 8
    backend: LMDB
  }
  annotated_data_param {
    batch_sampler {
    }
    label_map_file: "data/VOC0712/labelmap_voc.prototxt"
  }
}
layer {
  name: "conv1_1"
  type: "Convolution"
  bottom: "data"
  top: "conv1_1"
  param {
    lr_mult: 1
    decay_mult: 1
  }
  param {
    lr_mult: 2
    decay_mult: 0
  }
  convolution_param {
    num_output: 64
    pad: 1
    kernel_size: 3
    weight_filler {
      type: "xavier"
    }
    bias_filler {
      type: "constant"
      value: 0
    }
  }
}
layer {
  name: "relu1_1"
  type: "ReLU"
  bottom: "conv1_1"
  top: "conv1_1"
}
layer {
  name: "conv1_2"
  type: "Convolution"
  bottom: "conv1_1"
  top: "conv1_2"
  param {
    lr_mult: 1
    decay_mult: 1
  }
  param {
    lr_mult: 2
    decay_mult: 0
  }
  convolution_param {
    num_output: 64
    pad: 1
    kernel_size: 3
    weight_filler {
      type: "xavier"
    }
    bias_filler {
      type: "constant"
      value: 0
    }
  }
}
layer {
  name: "relu1_2"
  type: "ReLU"
  bottom: "conv1_2"
  top: "conv1_2"
}
layer {
  name: "pool1"
  type: "Pooling"
  bottom: "conv1_2"
  top: "pool1"
  pooling_param {
    pool: MAX
    kernel_size: 2
    stride: 2
  }
}
layer {
  name: "conv2_1"
  type: "Convolution"
  bottom: "pool1"
  top: "conv2_1"
  param {
    lr_mult: 1
    decay_mult: 1
  }
  param {
    lr_mult: 2
    decay_mult: 0
  }
  convolution_param {
    num_output: 128
    pad: 1
    kernel_size: 3
    weight_filler {
      type: "xavier"
    }
    bias_filler {
      type: "constant"
      value: 0
    }
  }
}
layer {
  name: "relu2_1"
  type: "ReLU"
  bottom: "conv2_1"
  top: "conv2_1"
}
layer {
  name: "conv2_2"
  type: "Convolution"
  bottom: "conv2_1"
  top: "conv2_2"
  param {
    lr_mult: 1
    decay_mult: 1
  }
  param {
    lr_mult: 2
    decay_mult: 0
  }
  convolution_param {
    num_output: 128
    pad: 1
    kernel_size: 3
    weight_filler {
      type: "xavier"
    }
    bias_filler {
      type: "constant"
      value: 0
    }
  }
}
layer {
  name: "relu2_2"
  type: "ReLU"
  bottom: "conv2_2"
  top: "conv2_2"
}
layer {
  name: "pool2"
  type: "Pooling"
  bottom: "conv2_2"
  top: "pool2"
  pooling_param {
    pool: MAX
    kernel_size: 2
    stride: 2
  }
}
layer {
  name: "conv3_1"
  type: "Convolution"
  bottom: "pool2"
  top: "conv3_1"
  param {
    lr_mult: 1
    decay_mult: 1
  }
  param {
    lr_mult: 2
    decay_mult: 0
  }
  convolution_param {
    num_output: 256
    pad: 1
    kernel_size: 3
    weight_filler {
      type: "xavier"
    }
    bias_filler {
      type: "constant"
      value: 0
    }
  }
}
layer {
  name: "relu3_1"
  type: "ReLU"
  bottom: "conv3_1"
  top: "conv3_1"
}
layer {
  name: "conv3_2"
  type: "Convolution"
  bottom: "conv3_1"
  top: "conv3_2"
  param {
    lr_mult: 1
    decay_mult: 1
  }
  param {
    lr_mult: 2
    decay_mult: 0
  }
  convolution_param {
    num_output: 256
    pad: 1
    kernel_size: 3
    weight_filler {
      type: "xavier"
    }
    bias_filler {
      type: "constant"
      value: 0
    }
  }
}
layer {
  name: "relu3_2"
  type: "ReLU"
  bottom: "conv3_2"
  top: "conv3_2"
}
layer {
  name: "conv3_3"
  type: "Convolution"
  bottom: "conv3_2"
  top: "conv3_3"
  param {
    lr_mult: 1
    decay_mult: 1
  }
  param {
    lr_mult: 2
    decay_mult: 0
  }
  convolution_param {
    num_output: 256
    pad: 1
    kernel_size: 3
    weight_filler {
      type: "xavier"
    }
    bias_filler {
      type: "constant"
      value: 0
    }
  }
}
layer {
  name: "relu3_3"
  type: "ReLU"
  bottom: "conv3_3"
  top: "conv3_3"
}
layer {
  name: "pool3"
  type: "Pooling"
  bottom: "conv3_3"
  top: "pool3"
  pooling_param {
    pool: MAX
    kernel_size: 2
    stride: 2
  }
}
layer {
  name: "conv4_1"
  type: "Convolution"
  bottom: "pool3"
  top: "conv4_1"
  param {
    lr_mult: 1
    decay_mult: 1
  }
  param {
    lr_mult: 2
    decay_mult: 0
  }
  convolution_param {
    num_output: 512
    pad: 1
    kernel_size: 3
    weight_filler {
      type: "xavier"
    }
    bias_filler {
      type: "constant"
      value: 0
    }
  }
}
layer {
  name: "relu4_1"
  type: "ReLU"
  bottom: "conv4_1"
  top: "conv4_1"
}
layer {
  name: "conv4_2"
  type: "Convolution"
  bottom: "conv4_1"
  top: "conv4_2"
  param {
    lr_mult: 1
    decay_mult: 1
  }
  param {
    lr_mult: 2
    decay_mult: 0
  }
  convolution_param {
    num_output: 512
    pad: 1
    kernel_size: 3
    weight_filler {
      type: "xavier"
    }
    bias_filler {
      type: "constant"
      value: 0
    }
  }
}
layer {
  name: "relu4_2"
  type: "ReLU"
  bottom: "conv4_2"
  top: "conv4_2"
}
layer {
  name: "conv4_3"
  type: "Convolution"
  bottom: "conv4_2"
  top: "conv4_3"
  param {
    lr_mult: 1
    decay_mult: 1
  }
  param {
    lr_mult: 2
    decay_mult: 0
  }
  convolution_param {
    num_output: 512
    pad: 1
    kernel_size: 3
    weight_filler {
      type: "xavier"
    }
    bias_filler {
      type: "constant"
      value: 0
    }
  }
}
layer {
  name: "relu4_3"
  type: "ReLU"
  bottom: "conv4_3"
  top: "conv4_3"
}
layer {
  name: "pool4"
  type: "Pooling"
  bottom: "conv4_3"
  top: "pool4"
  pooling_param {
    pool: MAX
    kernel_size: 2
    stride: 2
  }
}
layer {
  name: "conv5_1"
  type: "Convolution"
  bottom: "pool4"
  top: "conv5_1"
  param {
    lr_mult: 1
    decay_mult: 1
  }
  param {
    lr_mult: 2
    decay_mult: 0
  }
  convolution_param {
    num_output: 512
    pad: 1
    kernel_size: 3
    weight_filler {
      type: "xavier"
    }
    bias_filler {
      type: "constant"
      value: 0
    }
    dilation: 1
  }
}
layer {
  name: "relu5_1"
  type: "ReLU"
  bottom: "conv5_1"
  top: "conv5_1"
}
layer {
  name: "conv5_2"
  type: "Convolution"
  bottom: "conv5_1"
  top: "conv5_2"
  param {
    lr_mult: 1
    decay_mult: 1
  }
  param {
    lr_mult: 2
    decay_mult: 0
  }
  convolution_param {
    num_output: 512
    pad: 1
    kernel_size: 3
    weight_filler {
      type: "xavier"
    }
    bias_filler {
      type: "constant"
      value: 0
    }
    dilation: 1
  }
}
layer {
  name: "relu5_2"
  type: "ReLU"
  bottom: "conv5_2"
  top: "conv5_2"
}
layer {
  name: "conv5_3"
  type: "Convolution"
  bottom: "conv5_2"
  top: "conv5_3"
  param {
    lr_mult: 1
    decay_mult: 1
  }
  param {
    lr_mult: 2
    decay_mult: 0
  }
  convolution_param {
    num_output: 512
    pad: 1
    kernel_size: 3
    weight_filler {
      type: "xavier"
    }
    bias_filler {
      type: "constant"
      value: 0
    }
    dilation: 1
  }
}
layer {
  name: "relu5_3"
  type: "ReLU"
  bottom: "conv5_3"
  top: "conv5_3"
}
layer {
  name: "pool5"
  type: "Pooling"
  bottom: "conv5_3"
  top: "pool5"
  pooling_param {
    pool: MAX
    kernel_size: 3
    stride: 1
    pad: 1
  }
}
layer {
  name: "fc6"
  type: "Convolution"
  bottom: "pool5"
  top: "fc6"
  param {
    lr_mult: 1
    decay_mult: 1
  }
  param {
    lr_mult: 2
    decay_mult: 0
  }
  convolution_param {
    num_output: 1024
    pad: 6
    kernel_size: 3
    weight_filler {
      type: "xavier"
    }
    bias_filler {
      type: "constant"
      value: 0
    }
    dilation: 6
  }
}
layer {
  name: "relu6"
  type: "ReLU"
  bottom: "fc6"
  top: "fc6"
}
layer {
  name: "fc7"
  type: "Convolution"
  bottom: "fc6"
  top: "fc7"
  param {
    lr_mult: 1
    decay_mult: 1
  }
  param {
    lr_mult: 2
    decay_mult: 0
  }
  convolution_param {
    num_output: 1024
    kernel_size: 1
    weight_filler {
      type: "xavier"
    }
    bias_filler {
      type: "constant"
      value: 0
    }
  }
}
layer {
  name: "relu7"
  type: "ReLU"
  bottom: "fc7"
  top: "fc7"
}
layer {
  name: "conv6_1"
  type: "Convolution"
  bottom: "fc7"
  top: "conv6_1"
  param {
    lr_mult: 1
    decay_mult: 1
  }
  param {
    lr_mult: 2
    decay_mult: 0
  }
  convolution_param {
    num_output: 256
    pad: 0
    kernel_size: 1
    stride: 1
    weight_filler {
      type: "xavier"
    }
    bias_filler {
      type: "constant"
      value: 0
    }
  }
}
layer {
  name: "conv6_1_relu"
  type: "ReLU"
  bottom: "conv6_1"
  top: "conv6_1"
}
layer {
  name: "conv6_2"
  type: "Convolution"
  bottom: "conv6_1"
  top: "conv6_2"
  param {
    lr_mult: 1
    decay_mult: 1
  }
  param {
    lr_mult: 2
    decay_mult: 0
  }
  convolution_param {
    num_output: 512
    pad: 1
    kernel_size: 3
    stride: 2
    weight_filler {
      type: "xavier"
    }
    bias_filler {
      type: "constant"
      value: 0
    }
  }
}
layer {
  name: "conv6_2_relu"
  type: "ReLU"
  bottom: "conv6_2"
  top: "conv6_2"
}
layer {
  name: "conv7_1"
  type: "Convolution"
  bottom: "conv6_2"
  top: "conv7_1"
  param {
    lr_mult: 1
    decay_mult: 1
  }
  param {
    lr_mult: 2
    decay_mult: 0
  }
  convolution_param {
    num_output: 128
    pad: 0
    kernel_size: 1
    stride: 1
    weight_filler {
      type: "xavier"
    }
    bias_filler {
      type: "constant"
      value: 0
    }
  }
}
layer {
  name: "conv7_1_relu"
  type: "ReLU"
  bottom: "conv7_1"
  top: "conv7_1"
}
layer {
  name: "conv7_2"
  type: "Convolution"
  bottom: "conv7_1"
  top: "conv7_2"
  param {
    lr_mult: 1
    decay_mult: 1
  }
  param {
    lr_mult: 2
    decay_mult: 0
  }
  convolution_param {
    num_output: 256
    pad: 1
    kernel_size: 3
    stride: 2
    weight_filler {
      type: "xavier"
    }
    bias_filler {
      type: "constant"
      value: 0
    }
  }
}
layer {
  name: "conv7_2_relu"
  type: "ReLU"
  bottom: "conv7_2"
  top: "conv7_2"
}
layer {
  name: "conv8_1"
  type: "Convolution"
  bottom: "conv7_2"
  top: "conv8_1"
  param {
    lr_mult: 1
    decay_mult: 1
  }
  param {
    lr_mult: 2
    decay_mult: 0
  }
  convolution_param {
    num_output: 128
    pad: 0
    kernel_size: 1
    stride: 1
    weight_filler {
      type: "xavier"
    }
    bias_filler {
      type: "constant"
      value: 0
    }
  }
}
layer {
  name: "conv8_1_relu"
  type: "ReLU"
  bottom: "conv8_1"
  top: "conv8_1"
}
layer {
  name: "conv8_2"
  type: "Convolution"
  bottom: "conv8_1"
  top: "conv8_2"
  param {
    lr_mult: 1
    decay_mult: 1
  }
  param {
    lr_mult: 2
    decay_mult: 0
  }
  convolution_param {
    num_output: 256
    pad: 0
    kernel_size: 3
    stride: 1
    weight_filler {
      type: "xavier"
    }
    bias_filler {
      type: "constant"
      value: 0
    }
  }
}
layer {
  name: "conv8_2_relu"
  type: "ReLU"
  bottom: "conv8_2"
  top: "conv8_2"
}
layer {
  name: "conv9_1"
  type: "Convolution"
  bottom: "conv8_2"
  top: "conv9_1"
  param {
    lr_mult: 1
    decay_mult: 1
  }
  param {
    lr_mult: 2
    decay_mult: 0
  }
  convolution_param {
    num_output: 128
    pad: 0
    kernel_size: 1
    stride: 1
    weight_filler {
      type: "xavier"
    }
    bias_filler {
      type: "constant"
      value: 0
    }
  }
}
layer {
  name: "conv9_1_relu"
  type: "ReLU"
  bottom: "conv9_1"
  top: "conv9_1"
}
layer {
  name: "conv9_2"
  type: "Convolution"
  bottom: "conv9_1"
  top: "conv9_2"
  param {
    lr_mult: 1
    decay_mult: 1
  }
  param {
    lr_mult: 2
    decay_mult: 0
  }
  convolution_param {
    num_output: 256
    pad: 0
    kernel_size: 3
    stride: 1
    weight_filler {
      type: "xavier"
    }
    bias_filler {
      type: "constant"
      value: 0
    }
  }
}
layer {
  name: "conv9_2_relu"
  type: "ReLU"
  bottom: "conv9_2"
  top: "conv9_2"
}
layer {
  name: "conv4_3_norm"
  type: "Normalize"
  bottom: "conv4_3"
  top: "conv4_3_norm"
  norm_param {
    across_spatial: false
    scale_filler {
      type: "constant"
      value: 20
    }
    channel_shared: false
  }
}
layer {
  name: "conv4_3_norm_mbox_loc"
  type: "Convolution"
  bottom: "conv4_3_norm"
  top: "conv4_3_norm_mbox_loc"
  param {
    lr_mult: 1
    decay_mult: 1
  }
  param {
    lr_mult: 2
    decay_mult: 0
  }
  convolution_param {
    num_output: 16
    pad: 1
    kernel_size: 3
    stride: 1
    weight_filler {
      type: "xavier"
    }
    bias_filler {
      type: "constant"
      value: 0
    }
  }
}
layer {
  name: "conv4_3_norm_mbox_loc_perm"
  type: "Permute"
  bottom: "conv4_3_norm_mbox_loc"
  top: "conv4_3_norm_mbox_loc_perm"
  permute_param {
    order: 0
    order: 2
    order: 3
    order: 1
  }
}
layer {
  name: "conv4_3_norm_mbox_loc_flat"
  type: "Flatten"
  bottom: "conv4_3_norm_mbox_loc_perm"
  top: "conv4_3_norm_mbox_loc_flat"
  flatten_param {
    axis: 1
  }
}
layer {
  name: "conv4_3_norm_mbox_conf"
  type: "Convolution"
  bottom: "conv4_3_norm"
  top: "conv4_3_norm_mbox_conf"
  param {
    lr_mult: 1
    decay_mult: 1
  }
  param {
    lr_mult: 2
    decay_mult: 0
  }
  convolution_param {
    num_output: 84
    pad: 1
    kernel_size: 3
    stride: 1
    weight_filler {
      type: "xavier"
    }
    bias_filler {
      type: "constant"
      value: 0
    }
  }
}
layer {
  name: "conv4_3_norm_mbox_conf_perm"
  type: "Permute"
  bottom: "conv4_3_norm_mbox_conf"
  top: "conv4_3_norm_mbox_conf_perm"
  permute_param {
    order: 0
    order: 2
    order: 3
    order: 1
  }
}
layer {
  name: "conv4_3_norm_mbox_conf_flat"
  type: "Flatten"
  bottom: "conv4_3_norm_mbox_conf_perm"
  top: "conv4_3_norm_mbox_conf_flat"
  flatten_param {
    axis: 1
  }
}
layer {
  name: "conv4_3_norm_mbox_priorbox"
  type: "PriorBox"
  bottom: "conv4_3_norm"
  bottom: "data"
  top: "conv4_3_norm_mbox_priorbox"
  prior_box_param {
    min_size: 30
    max_size: 60
    aspect_ratio: 2
    flip: true
    clip: false
    variance: 0.1
    variance: 0.1
    variance: 0.2
    variance: 0.2
    step: 8
    offset: 0.5
  }
}
layer {
  name: "fc7_mbox_loc"
  type: "Convolution"
  bottom: "fc7"
  top: "fc7_mbox_loc"
  param {
    lr_mult: 1
    decay_mult: 1
  }
  param {
    lr_mult: 2
    decay_mult: 0
  }
  convolution_param {
    num_output: 24
    pad: 1
    kernel_size: 3
    stride: 1
    weight_filler {
      type: "xavier"
    }
    bias_filler {
      type: "constant"
      value: 0
    }
  }
}
layer {
  name: "fc7_mbox_loc_perm"
  type: "Permute"
  bottom: "fc7_mbox_loc"
  top: "fc7_mbox_loc_perm"
  permute_param {
    order: 0
    order: 2
    order: 3
    order: 1
  }
}
layer {
  name: "fc7_mbox_loc_flat"
  type: "Flatten"
  bottom: "fc7_mbox_loc_perm"
  top: "fc7_mbox_loc_flat"
  flatten_param {
    axis: 1
  }
}
layer {
  name: "fc7_mbox_conf"
  type: "Convolution"
  bottom: "fc7"
  top: "fc7_mbox_conf"
  param {
    lr_mult: 1
    decay_mult: 1
  }
  param {
    lr_mult: 2
    decay_mult: 0
  }
  convolution_param {
    num_output: 126
    pad: 1
    kernel_size: 3
    stride: 1
    weight_filler {
      type: "xavier"
    }
    bias_filler {
      type: "constant"
      value: 0
    }
  }
}
layer {
  name: "fc7_mbox_conf_perm"
  type: "Permute"
  bottom: "fc7_mbox_conf"
  top: "fc7_mbox_conf_perm"
  permute_param {
    order: 0
    order: 2
    order: 3
    order: 1
  }
}
layer {
  name: "fc7_mbox_conf_flat"
  type: "Flatten"
  bottom: "fc7_mbox_conf_perm"
  top: "fc7_mbox_conf_flat"
  flatten_param {
    axis: 1
  }
}
layer {
  name: "fc7_mbox_priorbox"
  type: "PriorBox"
  bottom: "fc7"
  bottom: "data"
  top: "fc7_mbox_priorbox"
  prior_box_param {
    min_size: 60
    max_size: 111
    aspect_ratio: 2
    aspect_ratio: 3
    flip: true
    clip: false
    variance: 0.1
    variance: 0.1
    variance: 0.2
    variance: 0.2
    step: 16
    offset: 0.5
  }
}
layer {
  name: "conv6_2_mbox_loc"
  type: "Convolution"
  bottom: "conv6_2"
  top: "conv6_2_mbox_loc"
  param {
    lr_mult: 1
    decay_mult: 1
  }
  param {
    lr_mult: 2
    decay_mult: 0
  }
  convolution_param {
    num_output: 24
    pad: 1
    kernel_size: 3
    stride: 1
    weight_filler {
      type: "xavier"
    }
    bias_filler {
      type: "constant"
      value: 0
    }
  }
}
layer {
  name: "conv6_2_mbox_loc_perm"
  type: "Permute"
  bottom: "conv6_2_mbox_loc"
  top: "conv6_2_mbox_loc_perm"
  permute_param {
    order: 0
    order: 2
    order: 3
    order: 1
  }
}
layer {
  name: "conv6_2_mbox_loc_flat"
  type: "Flatten"
  bottom: "conv6_2_mbox_loc_perm"
  top: "conv6_2_mbox_loc_flat"
  flatten_param {
    axis: 1
  }
}
layer {
  name: "conv6_2_mbox_conf"
  type: "Convolution"
  bottom: "conv6_2"
  top: "conv6_2_mbox_conf"
  param {
    lr_mult: 1
    decay_mult: 1
  }
  param {
    lr_mult: 2
    decay_mult: 0
  }
  convolution_param {
    num_output: 126
    pad: 1
    kernel_size: 3
    stride: 1
    weight_filler {
      type: "xavier"
    }
    bias_filler {
      type: "constant"
      value: 0
    }
  }
}
layer {
  name: "conv6_2_mbox_conf_perm"
  type: "Permute"
  bottom: "conv6_2_mbox_conf"
  top: "conv6_2_mbox_conf_perm"
  permute_param {
    order: 0
    order: 2
    order: 3
    order: 1
  }
}
layer {
  name: "conv6_2_mbox_conf_flat"
  type: "Flatten"
  bottom: "conv6_2_mbox_conf_perm"
  top: "conv6_2_mbox_conf_flat"
  flatten_param {
    axis: 1
  }
}
layer {
  name: "conv6_2_mbox_priorbox"
  type: "PriorBox"
  bottom: "conv6_2"
  bottom: "data"
  top: "conv6_2_mbox_priorbox"
  prior_box_param {
    min_size: 111
    max_size: 162
    aspect_ratio: 2
    aspect_ratio: 3
    flip: true
    clip: false
    variance: 0.1
    variance: 0.1
    variance: 0.2
    variance: 0.2
    step: 32
    offset: 0.5
  }
}
layer {
  name: "conv7_2_mbox_loc"
  type: "Convolution"
  bottom: "conv7_2"
  top: "conv7_2_mbox_loc"
  param {
    lr_mult: 1
    decay_mult: 1
  }
  param {
    lr_mult: 2
    decay_mult: 0
  }
  convolution_param {
    num_output: 24
    pad: 1
    kernel_size: 3
    stride: 1
    weight_filler {
      type: "xavier"
    }
    bias_filler {
      type: "constant"
      value: 0
    }
  }
}
layer {
  name: "conv7_2_mbox_loc_perm"
  type: "Permute"
  bottom: "conv7_2_mbox_loc"
  top: "conv7_2_mbox_loc_perm"
  permute_param {
    order: 0
    order: 2
    order: 3
    order: 1
  }
}
layer {
  name: "conv7_2_mbox_loc_flat"
  type: "Flatten"
  bottom: "conv7_2_mbox_loc_perm"
  top: "conv7_2_mbox_loc_flat"
  flatten_param {
    axis: 1
  }
}
layer {
  name: "conv7_2_mbox_conf"
  type: "Convolution"
  bottom: "conv7_2"
  top: "conv7_2_mbox_conf"
  param {
    lr_mult: 1
    decay_mult: 1
  }
  param {
    lr_mult: 2
    decay_mult: 0
  }
  convolution_param {
    num_output: 126
    pad: 1
    kernel_size: 3
    stride: 1
    weight_filler {
      type: "xavier"
    }
    bias_filler {
      type: "constant"
      value: 0
    }
  }
}
layer {
  name: "conv7_2_mbox_conf_perm"
  type: "Permute"
  bottom: "conv7_2_mbox_conf"
  top: "conv7_2_mbox_conf_perm"
  permute_param {
    order: 0
    order: 2
    order: 3
    order: 1
  }
}
layer {
  name: "conv7_2_mbox_conf_flat"
  type: "Flatten"
  bottom: "conv7_2_mbox_conf_perm"
  top: "conv7_2_mbox_conf_flat"
  flatten_param {
    axis: 1
  }
}
layer {
  name: "conv7_2_mbox_priorbox"
  type: "PriorBox"
  bottom: "conv7_2"
  bottom: "data"
  top: "conv7_2_mbox_priorbox"
  prior_box_param {
    min_size: 162
    max_size: 213
    aspect_ratio: 2
    aspect_ratio: 3
    flip: true
    clip: false
    variance: 0.1
    variance: 0.1
    variance: 0.2
    variance: 0.2
    step: 64
    offset: 0.5
  }
}
layer {
  name: "conv8_2_mbox_loc"
  type: "Convolution"
  bottom: "conv8_2"
  top: "conv8_2_mbox_loc"
  param {
    lr_mult: 1
    decay_mult: 1
  }
  param {
    lr_mult: 2
    decay_mult: 0
  }
  convolution_param {
    num_output: 16
    pad: 1
    kernel_size: 3
    stride: 1
    weight_filler {
      type: "xavier"
    }
    bias_filler {
      type: "constant"
      value: 0
    }
  }
}
layer {
  name: "conv8_2_mbox_loc_perm"
  type: "Permute"
  bottom: "conv8_2_mbox_loc"
  top: "conv8_2_mbox_loc_perm"
  permute_param {
    order: 0
    order: 2
    order: 3
    order: 1
  }
}
layer {
  name: "conv8_2_mbox_loc_flat"
  type: "Flatten"
  bottom: "conv8_2_mbox_loc_perm"
  top: "conv8_2_mbox_loc_flat"
  flatten_param {
    axis: 1
  }
}
layer {
  name: "conv8_2_mbox_conf"
  type: "Convolution"
  bottom: "conv8_2"
  top: "conv8_2_mbox_conf"
  param {
    lr_mult: 1
    decay_mult: 1
  }
  param {
    lr_mult: 2
    decay_mult: 0
  }
  convolution_param {
    num_output: 84
    pad: 1
    kernel_size: 3
    stride: 1
    weight_filler {
      type: "xavier"
    }
    bias_filler {
      type: "constant"
      value: 0
    }
  }
}
layer {
  name: "conv8_2_mbox_conf_perm"
  type: "Permute"
  bottom: "conv8_2_mbox_conf"
  top: "conv8_2_mbox_conf_perm"
  permute_param {
    order: 0
    order: 2
    order: 3
    order: 1
  }
}
layer {
  name: "conv8_2_mbox_conf_flat"
  type: "Flatten"
  bottom: "conv8_2_mbox_conf_perm"
  top: "conv8_2_mbox_conf_flat"
  flatten_param {
    axis: 1
  }
}
layer {
  name: "conv8_2_mbox_priorbox"
  type: "PriorBox"
  bottom: "conv8_2"
  bottom: "data"
  top: "conv8_2_mbox_priorbox"
  prior_box_param {
    min_size: 213
    max_size: 264
    aspect_ratio: 2
    flip: true
    clip: false
    variance: 0.1
    variance: 0.1
    variance: 0.2
    variance: 0.2
    step: 100
    offset: 0.5
  }
}
layer {
  name: "conv9_2_mbox_loc"
  type: "Convolution"
  bottom: "conv9_2"
  top: "conv9_2_mbox_loc"
  param {
    lr_mult: 1
    decay_mult: 1
  }
  param {
    lr_mult: 2
    decay_mult: 0
  }
  convolution_param {
    num_output: 16
    pad: 1
    kernel_size: 3
    stride: 1
    weight_filler {
      type: "xavier"
    }
    bias_filler {
      type: "constant"
      value: 0
    }
  }
}
layer {
  name: "conv9_2_mbox_loc_perm"
  type: "Permute"
  bottom: "conv9_2_mbox_loc"
  top: "conv9_2_mbox_loc_perm"
  permute_param {
    order: 0
    order: 2
    order: 3
    order: 1
  }
}
layer {
  name: "conv9_2_mbox_loc_flat"
  type: "Flatten"
  bottom: "conv9_2_mbox_loc_perm"
  top: "conv9_2_mbox_loc_flat"
  flatten_param {
    axis: 1
  }
}
layer {
  name: "conv9_2_mbox_conf"
  type: "Convolution"
  bottom: "conv9_2"
  top: "conv9_2_mbox_conf"
  param {
    lr_mult: 1
    decay_mult: 1
  }
  param {
    lr_mult: 2
    decay_mult: 0
  }
  convolution_param {
    num_output: 84
    pad: 1
    kernel_size: 3
    stride: 1
    weight_filler {
      type: "xavier"
    }
    bias_filler {
      type: "constant"
      value: 0
    }
  }
}
layer {
  name: "conv9_2_mbox_conf_perm"
  type: "Permute"
  bottom: "conv9_2_mbox_conf"
  top: "conv9_2_mbox_conf_perm"
  permute_param {
    order: 0
    order: 2
    order: 3
    order: 1
  }
}
layer {
  name: "conv9_2_mbox_conf_flat"
  type: "Flatten"
  bottom: "conv9_2_mbox_conf_perm"
  top: "conv9_2_mbox_conf_flat"
  flatten_param {
    axis: 1
  }
}
layer {
  name: "conv9_2_mbox_priorbox"
  type: "PriorBox"
  bottom: "conv9_2"
  bottom: "data"
  top: "conv9_2_mbox_priorbox"
  prior_box_param {
    min_size: 264
    max_size: 315
    aspect_ratio: 2
    flip: true
    clip: false
    variance: 0.1
    variance: 0.1
    variance: 0.2
    variance: 0.2
    step: 300
    offset: 0.5
  }
}
layer {
  name: "mbox_loc"
  type: "Concat"
  bottom: "conv4_3_norm_mbox_loc_flat"
  bottom: "fc7_mbox_loc_flat"
  bottom: "conv6_2_mbox_loc_flat"
  bottom: "conv7_2_mbox_loc_flat"
  bottom: "conv8_2_mbox_loc_flat"
  bottom: "conv9_2_mbox_loc_flat"
  top: "mbox_loc"
  concat_param {
    axis: 1
  }
}
layer {
  name: "mbox_conf"
  type: "Concat"
  bottom: "conv4_3_norm_mbox_conf_flat"
  bottom: "fc7_mbox_conf_flat"
  bottom: "conv6_2_mbox_conf_flat"
  bottom: "conv7_2_mbox_conf_flat"
  bottom: "conv8_2_mbox_conf_flat"
  bottom: "conv9_2_mbox_conf_flat"
  top: "mbox_conf"
  concat_param {
    axis: 1
  }
}
layer {
  name: "mbox_priorbox"
  type: "Concat"
  bottom: "conv4_3_norm_mbox_priorbox"
  bottom: "fc7_mbox_priorbox"
  bottom: "conv6_2_mbox_priorbox"
  bottom: "conv7_2_mbox_priorbox"
  bottom: "conv8_2_mbox_priorbox"
  bottom: "conv9_2_mbox_priorbox"
  top: "mbox_priorbox"
  concat_param {
    axis: 2
  }
}
layer {
  name: "mbox_conf_reshape"
  type: "Reshape"
  bottom: "mbox_conf"
  top: "mbox_conf_reshape"
  reshape_param {
    shape {
      dim: 0
      dim: -1
      dim: 21
    }
  }
}
layer {
  name: "mbox_conf_softmax"
  type: "Softmax"
  bottom: "mbox_conf_reshape"
  top: "mbox_conf_softmax"
  softmax_param {
    axis: 2
  }
}
layer {
  name: "mbox_conf_flatten"
  type: "Flatten"
  bottom: "mbox_conf_softmax"
  top: "mbox_conf_flatten"
  flatten_param {
    axis: 1
  }
}
layer {
  name: "detection_out"
  type: "DetectionOutput"
  bottom: "mbox_loc"
  bottom: "mbox_conf_flatten"
  bottom: "mbox_priorbox"
  top: "detection_out"
  include {
    phase: TEST
  }
  detection_output_param {
    num_classes: 21
    share_location: true
    background_label_id: 0
    nms_param {
      nms_threshold: 0.45
      top_k: 400
    }
    save_output_param {
      output_directory: "/home/zs/data/VOCdevkit/results/VOC2007/SSD_300x300/Main"
      output_name_prefix: "comp4_det_test_"
      output_format: "VOC"
      label_map_file: "data/VOC0712/labelmap_voc.prototxt"
      name_size_file: "data/VOC0712/test_name_size.txt"
      num_test_image: 4952
    }
    code_type: CENTER_SIZE
    keep_top_k: 200
    confidence_threshold: 0.01
  }
}
layer {
  name: "detection_eval"
  type: "DetectionEvaluate"
  bottom: "detection_out"
  bottom: "label"
  top: "detection_eval"
  include {
    phase: TEST
  }
  detection_evaluate_param {
    num_classes: 21
    background_label_id: 0
    overlap_threshold: 0.5
    evaluate_difficult_gt: false
    name_size_file: "data/VOC0712/test_name_size.txt"
  }
}
I0228 14:53:48.190754 15940 layer_factory.hpp:77] Creating layer data
I0228 14:53:48.190824 15940 net.cpp:100] Creating Layer data
I0228 14:53:48.190835 15940 net.cpp:408] data -> data
I0228 14:53:48.190847 15940 net.cpp:408] data -> label
I0228 14:53:48.192399 15956 db_lmdb.cpp:35] Opened lmdb examples/VOC0712/VOC0712_test_lmdb
I0228 14:53:48.195297 15940 annotated_data_layer.cpp:62] output data size: 8,3,300,300
I0228 14:53:48.208431 15940 net.cpp:150] Setting up data
I0228 14:53:48.208454 15940 net.cpp:157] Top shape: 8 3 300 300 (2160000)
I0228 14:53:48.208461 15940 net.cpp:157] Top shape: 1 1 2 8 (16)
I0228 14:53:48.208465 15940 net.cpp:165] Memory required for data: 8640064
I0228 14:53:48.208472 15940 layer_factory.hpp:77] Creating layer data_data_0_split
I0228 14:53:48.208488 15940 net.cpp:100] Creating Layer data_data_0_split
I0228 14:53:48.208495 15940 net.cpp:434] data_data_0_split <- data
I0228 14:53:48.208505 15940 net.cpp:408] data_data_0_split -> data_data_0_split_0
I0228 14:53:48.208520 15940 net.cpp:408] data_data_0_split -> data_data_0_split_1
I0228 14:53:48.208531 15940 net.cpp:408] data_data_0_split -> data_data_0_split_2
I0228 14:53:48.208540 15940 net.cpp:408] data_data_0_split -> data_data_0_split_3
I0228 14:53:48.208549 15940 net.cpp:408] data_data_0_split -> data_data_0_split_4
I0228 14:53:48.208559 15940 net.cpp:408] data_data_0_split -> data_data_0_split_5
I0228 14:53:48.208566 15940 net.cpp:408] data_data_0_split -> data_data_0_split_6
I0228 14:53:48.208735 15940 net.cpp:150] Setting up data_data_0_split
I0228 14:53:48.208745 15940 net.cpp:157] Top shape: 8 3 300 300 (2160000)
I0228 14:53:48.208750 15940 net.cpp:157] Top shape: 8 3 300 300 (2160000)
I0228 14:53:48.208760 15940 net.cpp:157] Top shape: 8 3 300 300 (2160000)
I0228 14:53:48.208765 15940 net.cpp:157] Top shape: 8 3 300 300 (2160000)
I0228 14:53:48.208772 15940 net.cpp:157] Top shape: 8 3 300 300 (2160000)
I0228 14:53:48.208778 15940 net.cpp:157] Top shape: 8 3 300 300 (2160000)
I0228 14:53:48.208787 15940 net.cpp:157] Top shape: 8 3 300 300 (2160000)
I0228 14:53:48.208803 15940 net.cpp:165] Memory required for data: 69120064
I0228 14:53:48.208811 15940 layer_factory.hpp:77] Creating layer conv1_1
I0228 14:53:48.208827 15940 net.cpp:100] Creating Layer conv1_1
I0228 14:53:48.208833 15940 net.cpp:434] conv1_1 <- data_data_0_split_0
I0228 14:53:48.208842 15940 net.cpp:408] conv1_1 -> conv1_1
I0228 14:53:48.210317 15940 net.cpp:150] Setting up conv1_1
I0228 14:53:48.210331 15940 net.cpp:157] Top shape: 8 64 300 300 (46080000)
I0228 14:53:48.210337 15940 net.cpp:165] Memory required for data: 253440064
I0228 14:53:48.210351 15940 layer_factory.hpp:77] Creating layer relu1_1
I0228 14:53:48.210361 15940 net.cpp:100] Creating Layer relu1_1
I0228 14:53:48.210366 15940 net.cpp:434] relu1_1 <- conv1_1
I0228 14:53:48.210376 15940 net.cpp:395] relu1_1 -> conv1_1 (in-place)
I0228 14:53:48.210532 15940 net.cpp:150] Setting up relu1_1
I0228 14:53:48.210542 15940 net.cpp:157] Top shape: 8 64 300 300 (46080000)
I0228 14:53:48.210546 15940 net.cpp:165] Memory required for data: 437760064
I0228 14:53:48.210552 15940 layer_factory.hpp:77] Creating layer conv1_2
I0228 14:53:48.210566 15940 net.cpp:100] Creating Layer conv1_2
I0228 14:53:48.210570 15940 net.cpp:434] conv1_2 <- conv1_1
I0228 14:53:48.210578 15940 net.cpp:408] conv1_2 -> conv1_2
I0228 14:53:48.212028 15940 net.cpp:150] Setting up conv1_2
I0228 14:53:48.212041 15940 net.cpp:157] Top shape: 8 64 300 300 (46080000)
I0228 14:53:48.212046 15940 net.cpp:165] Memory required for data: 622080064
I0228 14:53:48.212056 15940 layer_factory.hpp:77] Creating layer relu1_2
I0228 14:53:48.212066 15940 net.cpp:100] Creating Layer relu1_2
I0228 14:53:48.212072 15940 net.cpp:434] relu1_2 <- conv1_2
I0228 14:53:48.212081 15940 net.cpp:395] relu1_2 -> conv1_2 (in-place)
I0228 14:53:48.212235 15940 net.cpp:150] Setting up relu1_2
I0228 14:53:48.212246 15940 net.cpp:157] Top shape: 8 64 300 300 (46080000)
I0228 14:53:48.212273 15940 net.cpp:165] Memory required for data: 806400064
I0228 14:53:48.212282 15940 layer_factory.hpp:77] Creating layer pool1
I0228 14:53:48.212291 15940 net.cpp:100] Creating Layer pool1
I0228 14:53:48.212301 15940 net.cpp:434] pool1 <- conv1_2
I0228 14:53:48.212307 15940 net.cpp:408] pool1 -> pool1
I0228 14:53:48.212357 15940 net.cpp:150] Setting up pool1
I0228 14:53:48.212365 15940 net.cpp:157] Top shape: 8 64 150 150 (11520000)
I0228 14:53:48.212370 15940 net.cpp:165] Memory required for data: 852480064
I0228 14:53:48.212375 15940 layer_factory.hpp:77] Creating layer conv2_1
I0228 14:53:48.212388 15940 net.cpp:100] Creating Layer conv2_1
I0228 14:53:48.212394 15940 net.cpp:434] conv2_1 <- pool1
I0228 14:53:48.212404 15940 net.cpp:408] conv2_1 -> conv2_1
I0228 14:53:48.213943 15940 net.cpp:150] Setting up conv2_1
I0228 14:53:48.213955 15940 net.cpp:157] Top shape: 8 128 150 150 (23040000)
I0228 14:53:48.213960 15940 net.cpp:165] Memory required for data: 944640064
I0228 14:53:48.213973 15940 layer_factory.hpp:77] Creating layer relu2_1
I0228 14:53:48.213984 15940 net.cpp:100] Creating Layer relu2_1
I0228 14:53:48.213989 15940 net.cpp:434] relu2_1 <- conv2_1
I0228 14:53:48.213999 15940 net.cpp:395] relu2_1 -> conv2_1 (in-place)
I0228 14:53:48.214701 15940 net.cpp:150] Setting up relu2_1
I0228 14:53:48.214713 15940 net.cpp:157] Top shape: 8 128 150 150 (23040000)
I0228 14:53:48.214718 15940 net.cpp:165] Memory required for data: 1036800064
I0228 14:53:48.214725 15940 layer_factory.hpp:77] Creating layer conv2_2
I0228 14:53:48.214736 15940 net.cpp:100] Creating Layer conv2_2
I0228 14:53:48.214745 15940 net.cpp:434] conv2_2 <- conv2_1
I0228 14:53:48.214752 15940 net.cpp:408] conv2_2 -> conv2_2
I0228 14:53:48.217135 15940 net.cpp:150] Setting up conv2_2
I0228 14:53:48.217149 15940 net.cpp:157] Top shape: 8 128 150 150 (23040000)
I0228 14:53:48.217155 15940 net.cpp:165] Memory required for data: 1128960064
I0228 14:53:48.217165 15940 layer_factory.hpp:77] Creating layer relu2_2
I0228 14:53:48.217175 15940 net.cpp:100] Creating Layer relu2_2
I0228 14:53:48.217182 15940 net.cpp:434] relu2_2 <- conv2_2
I0228 14:53:48.217205 15940 net.cpp:395] relu2_2 -> conv2_2 (in-place)
I0228 14:53:48.217375 15940 net.cpp:150] Setting up relu2_2
I0228 14:53:48.217386 15940 net.cpp:157] Top shape: 8 128 150 150 (23040000)
I0228 14:53:48.217391 15940 net.cpp:165] Memory required for data: 1221120064
I0228 14:53:48.217396 15940 layer_factory.hpp:77] Creating layer pool2
I0228 14:53:48.217404 15940 net.cpp:100] Creating Layer pool2
I0228 14:53:48.217411 15940 net.cpp:434] pool2 <- conv2_2
I0228 14:53:48.217417 15940 net.cpp:408] pool2 -> pool2
I0228 14:53:48.217471 15940 net.cpp:150] Setting up pool2
I0228 14:53:48.217479 15940 net.cpp:157] Top shape: 8 128 75 75 (5760000)
I0228 14:53:48.217483 15940 net.cpp:165] Memory required for data: 1244160064
I0228 14:53:48.217489 15940 layer_factory.hpp:77] Creating layer conv3_1
I0228 14:53:48.217500 15940 net.cpp:100] Creating Layer conv3_1
I0228 14:53:48.217509 15940 net.cpp:434] conv3_1 <- pool2
I0228 14:53:48.217515 15940 net.cpp:408] conv3_1 -> conv3_1
I0228 14:53:48.221990 15940 net.cpp:150] Setting up conv3_1
I0228 14:53:48.222008 15940 net.cpp:157] Top shape: 8 256 75 75 (11520000)
I0228 14:53:48.222014 15940 net.cpp:165] Memory required for data: 1290240064
I0228 14:53:48.222028 15940 layer_factory.hpp:77] Creating layer relu3_1
I0228 14:53:48.222040 15940 net.cpp:100] Creating Layer relu3_1
I0228 14:53:48.222049 15940 net.cpp:434] relu3_1 <- conv3_1
I0228 14:53:48.222056 15940 net.cpp:395] relu3_1 -> conv3_1 (in-place)
I0228 14:53:48.222223 15940 net.cpp:150] Setting up relu3_1
I0228 14:53:48.222234 15940 net.cpp:157] Top shape: 8 256 75 75 (11520000)
I0228 14:53:48.222239 15940 net.cpp:165] Memory required for data: 1336320064
I0228 14:53:48.222244 15940 layer_factory.hpp:77] Creating layer conv3_2
I0228 14:53:48.222256 15940 net.cpp:100] Creating Layer conv3_2
I0228 14:53:48.222262 15940 net.cpp:434] conv3_2 <- conv3_1
I0228 14:53:48.222271 15940 net.cpp:408] conv3_2 -> conv3_2
I0228 14:53:48.227566 15940 net.cpp:150] Setting up conv3_2
I0228 14:53:48.227593 15940 net.cpp:157] Top shape: 8 256 75 75 (11520000)
I0228 14:53:48.227598 15940 net.cpp:165] Memory required for data: 1382400064
I0228 14:53:48.227612 15940 layer_factory.hpp:77] Creating layer relu3_2
I0228 14:53:48.227623 15940 net.cpp:100] Creating Layer relu3_2
I0228 14:53:48.227632 15940 net.cpp:434] relu3_2 <- conv3_2
I0228 14:53:48.227643 15940 net.cpp:395] relu3_2 -> conv3_2 (in-place)
I0228 14:53:48.227818 15940 net.cpp:150] Setting up relu3_2
I0228 14:53:48.227828 15940 net.cpp:157] Top shape: 8 256 75 75 (11520000)
I0228 14:53:48.227833 15940 net.cpp:165] Memory required for data: 1428480064
I0228 14:53:48.227838 15940 layer_factory.hpp:77] Creating layer conv3_3
I0228 14:53:48.227857 15940 net.cpp:100] Creating Layer conv3_3
I0228 14:53:48.227864 15940 net.cpp:434] conv3_3 <- conv3_2
I0228 14:53:48.227872 15940 net.cpp:408] conv3_3 -> conv3_3
I0228 14:53:48.233111 15940 net.cpp:150] Setting up conv3_3
I0228 14:53:48.233139 15940 net.cpp:157] Top shape: 8 256 75 75 (11520000)
I0228 14:53:48.233145 15940 net.cpp:165] Memory required for data: 1474560064
I0228 14:53:48.233160 15940 layer_factory.hpp:77] Creating layer relu3_3
I0228 14:53:48.233173 15940 net.cpp:100] Creating Layer relu3_3
I0228 14:53:48.233181 15940 net.cpp:434] relu3_3 <- conv3_3
I0228 14:53:48.233191 15940 net.cpp:395] relu3_3 -> conv3_3 (in-place)
I0228 14:53:48.233922 15940 net.cpp:150] Setting up relu3_3
I0228 14:53:48.233934 15940 net.cpp:157] Top shape: 8 256 75 75 (11520000)
I0228 14:53:48.233939 15940 net.cpp:165] Memory required for data: 1520640064
I0228 14:53:48.233945 15940 layer_factory.hpp:77] Creating layer pool3
I0228 14:53:48.233955 15940 net.cpp:100] Creating Layer pool3
I0228 14:53:48.233961 15940 net.cpp:434] pool3 <- conv3_3
I0228 14:53:48.233970 15940 net.cpp:408] pool3 -> pool3
I0228 14:53:48.234030 15940 net.cpp:150] Setting up pool3
I0228 14:53:48.234040 15940 net.cpp:157] Top shape: 8 256 38 38 (2957312)
I0228 14:53:48.234043 15940 net.cpp:165] Memory required for data: 1532469312
I0228 14:53:48.234050 15940 layer_factory.hpp:77] Creating layer conv4_1
I0228 14:53:48.234081 15940 net.cpp:100] Creating Layer conv4_1
I0228 14:53:48.234087 15940 net.cpp:434] conv4_1 <- pool3
I0228 14:53:48.234097 15940 net.cpp:408] conv4_1 -> conv4_1
I0228 14:53:48.242123 15940 net.cpp:150] Setting up conv4_1
I0228 14:53:48.242146 15940 net.cpp:157] Top shape: 8 512 38 38 (5914624)
I0228 14:53:48.242151 15940 net.cpp:165] Memory required for data: 1556127808
I0228 14:53:48.242162 15940 layer_factory.hpp:77] Creating layer relu4_1
I0228 14:53:48.242174 15940 net.cpp:100] Creating Layer relu4_1
I0228 14:53:48.242182 15940 net.cpp:434] relu4_1 <- conv4_1
I0228 14:53:48.242189 15940 net.cpp:395] relu4_1 -> conv4_1 (in-place)
I0228 14:53:48.242362 15940 net.cpp:150] Setting up relu4_1
I0228 14:53:48.242373 15940 net.cpp:157] Top shape: 8 512 38 38 (5914624)
I0228 14:53:48.242379 15940 net.cpp:165] Memory required for data: 1579786304
I0228 14:53:48.242383 15940 layer_factory.hpp:77] Creating layer conv4_2
I0228 14:53:48.242398 15940 net.cpp:100] Creating Layer conv4_2
I0228 14:53:48.242405 15940 net.cpp:434] conv4_2 <- conv4_1
I0228 14:53:48.242415 15940 net.cpp:408] conv4_2 -> conv4_2
I0228 14:53:48.256043 15940 net.cpp:150] Setting up conv4_2
I0228 14:53:48.256065 15940 net.cpp:157] Top shape: 8 512 38 38 (5914624)
I0228 14:53:48.256072 15940 net.cpp:165] Memory required for data: 1603444800
I0228 14:53:48.256088 15940 layer_factory.hpp:77] Creating layer relu4_2
I0228 14:53:48.256099 15940 net.cpp:100] Creating Layer relu4_2
I0228 14:53:48.256109 15940 net.cpp:434] relu4_2 <- conv4_2
I0228 14:53:48.256119 15940 net.cpp:395] relu4_2 -> conv4_2 (in-place)
I0228 14:53:48.256302 15940 net.cpp:150] Setting up relu4_2
I0228 14:53:48.256314 15940 net.cpp:157] Top shape: 8 512 38 38 (5914624)
I0228 14:53:48.256319 15940 net.cpp:165] Memory required for data: 1627103296
I0228 14:53:48.256325 15940 layer_factory.hpp:77] Creating layer conv4_3
I0228 14:53:48.256338 15940 net.cpp:100] Creating Layer conv4_3
I0228 14:53:48.256346 15940 net.cpp:434] conv4_3 <- conv4_2
I0228 14:53:48.256356 15940 net.cpp:408] conv4_3 -> conv4_3
I0228 14:53:48.269973 15940 net.cpp:150] Setting up conv4_3
I0228 14:53:48.269999 15940 net.cpp:157] Top shape: 8 512 38 38 (5914624)
I0228 14:53:48.270004 15940 net.cpp:165] Memory required for data: 1650761792
I0228 14:53:48.270015 15940 layer_factory.hpp:77] Creating layer relu4_3
I0228 14:53:48.270027 15940 net.cpp:100] Creating Layer relu4_3
I0228 14:53:48.270035 15940 net.cpp:434] relu4_3 <- conv4_3
I0228 14:53:48.270045 15940 net.cpp:395] relu4_3 -> conv4_3 (in-place)
I0228 14:53:48.270781 15940 net.cpp:150] Setting up relu4_3
I0228 14:53:48.270793 15940 net.cpp:157] Top shape: 8 512 38 38 (5914624)
I0228 14:53:48.270798 15940 net.cpp:165] Memory required for data: 1674420288
I0228 14:53:48.270803 15940 layer_factory.hpp:77] Creating layer conv4_3_relu4_3_0_split
I0228 14:53:48.270812 15940 net.cpp:100] Creating Layer conv4_3_relu4_3_0_split
I0228 14:53:48.270819 15940 net.cpp:434] conv4_3_relu4_3_0_split <- conv4_3
I0228 14:53:48.270828 15940 net.cpp:408] conv4_3_relu4_3_0_split -> conv4_3_relu4_3_0_split_0
I0228 14:53:48.270838 15940 net.cpp:408] conv4_3_relu4_3_0_split -> conv4_3_relu4_3_0_split_1
I0228 14:53:48.270895 15940 net.cpp:150] Setting up conv4_3_relu4_3_0_split
I0228 14:53:48.270905 15940 net.cpp:157] Top shape: 8 512 38 38 (5914624)
I0228 14:53:48.270910 15940 net.cpp:157] Top shape: 8 512 38 38 (5914624)
I0228 14:53:48.270915 15940 net.cpp:165] Memory required for data: 1721737280
I0228 14:53:48.270920 15940 layer_factory.hpp:77] Creating layer pool4
I0228 14:53:48.270929 15940 net.cpp:100] Creating Layer pool4
I0228 14:53:48.270934 15940 net.cpp:434] pool4 <- conv4_3_relu4_3_0_split_0
I0228 14:53:48.270942 15940 net.cpp:408] pool4 -> pool4
I0228 14:53:48.270992 15940 net.cpp:150] Setting up pool4
I0228 14:53:48.271001 15940 net.cpp:157] Top shape: 8 512 19 19 (1478656)
I0228 14:53:48.271005 15940 net.cpp:165] Memory required for data: 1727651904
I0228 14:53:48.271010 15940 layer_factory.hpp:77] Creating layer conv5_1
I0228 14:53:48.271041 15940 net.cpp:100] Creating Layer conv5_1
I0228 14:53:48.271049 15940 net.cpp:434] conv5_1 <- pool4
I0228 14:53:48.271057 15940 net.cpp:408] conv5_1 -> conv5_1
I0228 14:53:48.284801 15940 net.cpp:150] Setting up conv5_1
I0228 14:53:48.284827 15940 net.cpp:157] Top shape: 8 512 19 19 (1478656)
I0228 14:53:48.284833 15940 net.cpp:165] Memory required for data: 1733566528
I0228 14:53:48.284844 15940 layer_factory.hpp:77] Creating layer relu5_1
I0228 14:53:48.284855 15940 net.cpp:100] Creating Layer relu5_1
I0228 14:53:48.284864 15940 net.cpp:434] relu5_1 <- conv5_1
I0228 14:53:48.284874 15940 net.cpp:395] relu5_1 -> conv5_1 (in-place)
I0228 14:53:48.285051 15940 net.cpp:150] Setting up relu5_1
I0228 14:53:48.285063 15940 net.cpp:157] Top shape: 8 512 19 19 (1478656)
I0228 14:53:48.285066 15940 net.cpp:165] Memory required for data: 1739481152
I0228 14:53:48.285073 15940 layer_factory.hpp:77] Creating layer conv5_2
I0228 14:53:48.285089 15940 net.cpp:100] Creating Layer conv5_2
I0228 14:53:48.285094 15940 net.cpp:434] conv5_2 <- conv5_1
I0228 14:53:48.285104 15940 net.cpp:408] conv5_2 -> conv5_2
I0228 14:53:48.298893 15940 net.cpp:150] Setting up conv5_2
I0228 14:53:48.298916 15940 net.cpp:157] Top shape: 8 512 19 19 (1478656)
I0228 14:53:48.298921 15940 net.cpp:165] Memory required for data: 1745395776
I0228 14:53:48.298933 15940 layer_factory.hpp:77] Creating layer relu5_2
I0228 14:53:48.298945 15940 net.cpp:100] Creating Layer relu5_2
I0228 14:53:48.298954 15940 net.cpp:434] relu5_2 <- conv5_2
I0228 14:53:48.298964 15940 net.cpp:395] relu5_2 -> conv5_2 (in-place)
I0228 14:53:48.299139 15940 net.cpp:150] Setting up relu5_2
I0228 14:53:48.299149 15940 net.cpp:157] Top shape: 8 512 19 19 (1478656)
I0228 14:53:48.299154 15940 net.cpp:165] Memory required for data: 1751310400
I0228 14:53:48.299157 15940 layer_factory.hpp:77] Creating layer conv5_3
I0228 14:53:48.299175 15940 net.cpp:100] Creating Layer conv5_3
I0228 14:53:48.299183 15940 net.cpp:434] conv5_3 <- conv5_2
I0228 14:53:48.299192 15940 net.cpp:408] conv5_3 -> conv5_3
I0228 14:53:48.312882 15940 net.cpp:150] Setting up conv5_3
I0228 14:53:48.312907 15940 net.cpp:157] Top shape: 8 512 19 19 (1478656)
I0228 14:53:48.312912 15940 net.cpp:165] Memory required for data: 1757225024
I0228 14:53:48.312923 15940 layer_factory.hpp:77] Creating layer relu5_3
I0228 14:53:48.312943 15940 net.cpp:100] Creating Layer relu5_3
I0228 14:53:48.312952 15940 net.cpp:434] relu5_3 <- conv5_3
I0228 14:53:48.312960 15940 net.cpp:395] relu5_3 -> conv5_3 (in-place)
I0228 14:53:48.313700 15940 net.cpp:150] Setting up relu5_3
I0228 14:53:48.313714 15940 net.cpp:157] Top shape: 8 512 19 19 (1478656)
I0228 14:53:48.313719 15940 net.cpp:165] Memory required for data: 1763139648
I0228 14:53:48.313724 15940 layer_factory.hpp:77] Creating layer pool5
I0228 14:53:48.313735 15940 net.cpp:100] Creating Layer pool5
I0228 14:53:48.313742 15940 net.cpp:434] pool5 <- conv5_3
I0228 14:53:48.313750 15940 net.cpp:408] pool5 -> pool5
I0228 14:53:48.313805 15940 net.cpp:150] Setting up pool5
I0228 14:53:48.313813 15940 net.cpp:157] Top shape: 8 512 19 19 (1478656)
I0228 14:53:48.313817 15940 net.cpp:165] Memory required for data: 1769054272
I0228 14:53:48.313823 15940 layer_factory.hpp:77] Creating layer fc6
I0228 14:53:48.313838 15940 net.cpp:100] Creating Layer fc6
I0228 14:53:48.313846 15940 net.cpp:434] fc6 <- pool5
I0228 14:53:48.313856 15940 net.cpp:408] fc6 -> fc6
I0228 14:53:48.338281 15940 net.cpp:150] Setting up fc6
I0228 14:53:48.338305 15940 net.cpp:157] Top shape: 8 1024 19 19 (2957312)
I0228 14:53:48.338310 15940 net.cpp:165] Memory required for data: 1780883520
I0228 14:53:48.338321 15940 layer_factory.hpp:77] Creating layer relu6
I0228 14:53:48.338332 15940 net.cpp:100] Creating Layer relu6
I0228 14:53:48.338341 15940 net.cpp:434] relu6 <- fc6
I0228 14:53:48.338352 15940 net.cpp:395] relu6 -> fc6 (in-place)
I0228 14:53:48.338618 15940 net.cpp:150] Setting up relu6
I0228 14:53:48.338629 15940 net.cpp:157] Top shape: 8 1024 19 19 (2957312)
I0228 14:53:48.338632 15940 net.cpp:165] Memory required for data: 1792712768
I0228 14:53:48.338649 15940 layer_factory.hpp:77] Creating layer fc7
I0228 14:53:48.338663 15940 net.cpp:100] Creating Layer fc7
I0228 14:53:48.338670 15940 net.cpp:434] fc7 <- fc6
I0228 14:53:48.338680 15940 net.cpp:408] fc7 -> fc7
I0228 14:53:48.346812 15940 net.cpp:150] Setting up fc7
I0228 14:53:48.346835 15940 net.cpp:157] Top shape: 8 1024 19 19 (2957312)
I0228 14:53:48.346839 15940 net.cpp:165] Memory required for data: 1804542016
I0228 14:53:48.346850 15940 layer_factory.hpp:77] Creating layer relu7
I0228 14:53:48.346860 15940 net.cpp:100] Creating Layer relu7
I0228 14:53:48.346868 15940 net.cpp:434] relu7 <- fc7
I0228 14:53:48.346879 15940 net.cpp:395] relu7 -> fc7 (in-place)
I0228 14:53:48.347059 15940 net.cpp:150] Setting up relu7
I0228 14:53:48.347069 15940 net.cpp:157] Top shape: 8 1024 19 19 (2957312)
I0228 14:53:48.347074 15940 net.cpp:165] Memory required for data: 1816371264
I0228 14:53:48.347077 15940 layer_factory.hpp:77] Creating layer fc7_relu7_0_split
I0228 14:53:48.347087 15940 net.cpp:100] Creating Layer fc7_relu7_0_split
I0228 14:53:48.347095 15940 net.cpp:434] fc7_relu7_0_split <- fc7
I0228 14:53:48.347103 15940 net.cpp:408] fc7_relu7_0_split -> fc7_relu7_0_split_0
I0228 14:53:48.347115 15940 net.cpp:408] fc7_relu7_0_split -> fc7_relu7_0_split_1
I0228 14:53:48.347133 15940 net.cpp:408] fc7_relu7_0_split -> fc7_relu7_0_split_2
I0228 14:53:48.347146 15940 net.cpp:408] fc7_relu7_0_split -> fc7_relu7_0_split_3
I0228 14:53:48.347244 15940 net.cpp:150] Setting up fc7_relu7_0_split
I0228 14:53:48.347255 15940 net.cpp:157] Top shape: 8 1024 19 19 (2957312)
I0228 14:53:48.347262 15940 net.cpp:157] Top shape: 8 1024 19 19 (2957312)
I0228 14:53:48.347268 15940 net.cpp:157] Top shape: 8 1024 19 19 (2957312)
I0228 14:53:48.347275 15940 net.cpp:157] Top shape: 8 1024 19 19 (2957312)
I0228 14:53:48.347296 15940 net.cpp:165] Memory required for data: 1863688256
I0228 14:53:48.347316 15940 layer_factory.hpp:77] Creating layer conv6_1
I0228 14:53:48.347344 15940 net.cpp:100] Creating Layer conv6_1
I0228 14:53:48.347362 15940 net.cpp:434] conv6_1 <- fc7_relu7_0_split_0
I0228 14:53:48.347385 15940 net.cpp:408] conv6_1 -> conv6_1
I0228 14:53:48.351266 15940 net.cpp:150] Setting up conv6_1
I0228 14:53:48.351286 15940 net.cpp:157] Top shape: 8 256 19 19 (739328)
I0228 14:53:48.351291 15940 net.cpp:165] Memory required for data: 1866645568
I0228 14:53:48.351302 15940 layer_factory.hpp:77] Creating layer conv6_1_relu
I0228 14:53:48.351313 15940 net.cpp:100] Creating Layer conv6_1_relu
I0228 14:53:48.351322 15940 net.cpp:434] conv6_1_relu <- conv6_1
I0228 14:53:48.351330 15940 net.cpp:395] conv6_1_relu -> conv6_1 (in-place)
I0228 14:53:48.351532 15940 net.cpp:150] Setting up conv6_1_relu
I0228 14:53:48.351543 15940 net.cpp:157] Top shape: 8 256 19 19 (739328)
I0228 14:53:48.351547 15940 net.cpp:165] Memory required for data: 1869602880
I0228 14:53:48.351550 15940 layer_factory.hpp:77] Creating layer conv6_2
I0228 14:53:48.351565 15940 net.cpp:100] Creating Layer conv6_2
I0228 14:53:48.351573 15940 net.cpp:434] conv6_2 <- conv6_1
I0228 14:53:48.351585 15940 net.cpp:408] conv6_2 -> conv6_2
I0228 14:53:48.359719 15940 net.cpp:150] Setting up conv6_2
I0228 14:53:48.359741 15940 net.cpp:157] Top shape: 8 512 10 10 (409600)
I0228 14:53:48.359746 15940 net.cpp:165] Memory required for data: 1871241280
I0228 14:53:48.359766 15940 layer_factory.hpp:77] Creating layer conv6_2_relu
I0228 14:53:48.359779 15940 net.cpp:100] Creating Layer conv6_2_relu
I0228 14:53:48.359789 15940 net.cpp:434] conv6_2_relu <- conv6_2
I0228 14:53:48.359798 15940 net.cpp:395] conv6_2_relu -> conv6_2 (in-place)
I0228 14:53:48.360570 15940 net.cpp:150] Setting up conv6_2_relu
I0228 14:53:48.360582 15940 net.cpp:157] Top shape: 8 512 10 10 (409600)
I0228 14:53:48.360589 15940 net.cpp:165] Memory required for data: 1872879680
I0228 14:53:48.360594 15940 layer_factory.hpp:77] Creating layer conv6_2_conv6_2_relu_0_split
I0228 14:53:48.360605 15940 net.cpp:100] Creating Layer conv6_2_conv6_2_relu_0_split
I0228 14:53:48.360611 15940 net.cpp:434] conv6_2_conv6_2_relu_0_split <- conv6_2
I0228 14:53:48.360638 15940 net.cpp:408] conv6_2_conv6_2_relu_0_split -> conv6_2_conv6_2_relu_0_split_0
I0228 14:53:48.360652 15940 net.cpp:408] conv6_2_conv6_2_relu_0_split -> conv6_2_conv6_2_relu_0_split_1
I0228 14:53:48.360663 15940 net.cpp:408] conv6_2_conv6_2_relu_0_split -> conv6_2_conv6_2_relu_0_split_2
I0228 14:53:48.360673 15940 net.cpp:408] conv6_2_conv6_2_relu_0_split -> conv6_2_conv6_2_relu_0_split_3
I0228 14:53:48.360761 15940 net.cpp:150] Setting up conv6_2_conv6_2_relu_0_split
I0228 14:53:48.360771 15940 net.cpp:157] Top shape: 8 512 10 10 (409600)
I0228 14:53:48.360776 15940 net.cpp:157] Top shape: 8 512 10 10 (409600)
I0228 14:53:48.360781 15940 net.cpp:157] Top shape: 8 512 10 10 (409600)
I0228 14:53:48.360787 15940 net.cpp:157] Top shape: 8 512 10 10 (409600)
I0228 14:53:48.360792 15940 net.cpp:165] Memory required for data: 1879433280
I0228 14:53:48.360797 15940 layer_factory.hpp:77] Creating layer conv7_1
I0228 14:53:48.360812 15940 net.cpp:100] Creating Layer conv7_1
I0228 14:53:48.360821 15940 net.cpp:434] conv7_1 <- conv6_2_conv6_2_relu_0_split_0
I0228 14:53:48.360832 15940 net.cpp:408] conv7_1 -> conv7_1
I0228 14:53:48.362483 15940 net.cpp:150] Setting up conv7_1
I0228 14:53:48.362494 15940 net.cpp:157] Top shape: 8 128 10 10 (102400)
I0228 14:53:48.362499 15940 net.cpp:165] Memory required for data: 1879842880
I0228 14:53:48.362509 15940 layer_factory.hpp:77] Creating layer conv7_1_relu
I0228 14:53:48.362516 15940 net.cpp:100] Creating Layer conv7_1_relu
I0228 14:53:48.362522 15940 net.cpp:434] conv7_1_relu <- conv7_1
I0228 14:53:48.362530 15940 net.cpp:395] conv7_1_relu -> conv7_1 (in-place)
I0228 14:53:48.362710 15940 net.cpp:150] Setting up conv7_1_relu
I0228 14:53:48.362720 15940 net.cpp:157] Top shape: 8 128 10 10 (102400)
I0228 14:53:48.362723 15940 net.cpp:165] Memory required for data: 1880252480
I0228 14:53:48.362728 15940 layer_factory.hpp:77] Creating layer conv7_2
I0228 14:53:48.362743 15940 net.cpp:100] Creating Layer conv7_2
I0228 14:53:48.362751 15940 net.cpp:434] conv7_2 <- conv7_1
I0228 14:53:48.362761 15940 net.cpp:408] conv7_2 -> conv7_2
I0228 14:53:48.366225 15940 net.cpp:150] Setting up conv7_2
I0228 14:53:48.366240 15940 net.cpp:157] Top shape: 8 256 5 5 (51200)
I0228 14:53:48.366245 15940 net.cpp:165] Memory required for data: 1880457280
I0228 14:53:48.366250 15940 layer_factory.hpp:77] Creating layer conv7_2_relu
I0228 14:53:48.366256 15940 net.cpp:100] Creating Layer conv7_2_relu
I0228 14:53:48.366261 15940 net.cpp:434] conv7_2_relu <- conv7_2
I0228 14:53:48.366268 15940 net.cpp:395] conv7_2_relu -> conv7_2 (in-place)
I0228 14:53:48.366447 15940 net.cpp:150] Setting up conv7_2_relu
I0228 14:53:48.366458 15940 net.cpp:157] Top shape: 8 256 5 5 (51200)
I0228 14:53:48.366462 15940 net.cpp:165] Memory required for data: 1880662080
I0228 14:53:48.366467 15940 layer_factory.hpp:77] Creating layer conv7_2_conv7_2_relu_0_split
I0228 14:53:48.366477 15940 net.cpp:100] Creating Layer conv7_2_conv7_2_relu_0_split
I0228 14:53:48.366485 15940 net.cpp:434] conv7_2_conv7_2_relu_0_split <- conv7_2
I0228 14:53:48.366494 15940 net.cpp:408] conv7_2_conv7_2_relu_0_split -> conv7_2_conv7_2_relu_0_split_0
I0228 14:53:48.366506 15940 net.cpp:408] conv7_2_conv7_2_relu_0_split -> conv7_2_conv7_2_relu_0_split_1
I0228 14:53:48.366518 15940 net.cpp:408] conv7_2_conv7_2_relu_0_split -> conv7_2_conv7_2_relu_0_split_2
I0228 14:53:48.366529 15940 net.cpp:408] conv7_2_conv7_2_relu_0_split -> conv7_2_conv7_2_relu_0_split_3
I0228 14:53:48.366623 15940 net.cpp:150] Setting up conv7_2_conv7_2_relu_0_split
I0228 14:53:48.366631 15940 net.cpp:157] Top shape: 8 256 5 5 (51200)
I0228 14:53:48.366636 15940 net.cpp:157] Top shape: 8 256 5 5 (51200)
I0228 14:53:48.366641 15940 net.cpp:157] Top shape: 8 256 5 5 (51200)
I0228 14:53:48.366647 15940 net.cpp:157] Top shape: 8 256 5 5 (51200)
I0228 14:53:48.366652 15940 net.cpp:165] Memory required for data: 1881481280
I0228 14:53:48.366657 15940 layer_factory.hpp:77] Creating layer conv8_1
I0228 14:53:48.366684 15940 net.cpp:100] Creating Layer conv8_1
I0228 14:53:48.366694 15940 net.cpp:434] conv8_1 <- conv7_2_conv7_2_relu_0_split_0
I0228 14:53:48.366704 15940 net.cpp:408] conv8_1 -> conv8_1
I0228 14:53:48.368199 15940 net.cpp:150] Setting up conv8_1
I0228 14:53:48.368212 15940 net.cpp:157] Top shape: 8 128 5 5 (25600)
I0228 14:53:48.368217 15940 net.cpp:165] Memory required for data: 1881583680
I0228 14:53:48.368227 15940 layer_factory.hpp:77] Creating layer conv8_1_relu
I0228 14:53:48.368235 15940 net.cpp:100] Creating Layer conv8_1_relu
I0228 14:53:48.368243 15940 net.cpp:434] conv8_1_relu <- conv8_1
I0228 14:53:48.368273 15940 net.cpp:395] conv8_1_relu -> conv8_1 (in-place)
I0228 14:53:48.369031 15940 net.cpp:150] Setting up conv8_1_relu
I0228 14:53:48.369045 15940 net.cpp:157] Top shape: 8 128 5 5 (25600)
I0228 14:53:48.369051 15940 net.cpp:165] Memory required for data: 1881686080
I0228 14:53:48.369057 15940 layer_factory.hpp:77] Creating layer conv8_2
I0228 14:53:48.369071 15940 net.cpp:100] Creating Layer conv8_2
I0228 14:53:48.369077 15940 net.cpp:434] conv8_2 <- conv8_1
I0228 14:53:48.369088 15940 net.cpp:408] conv8_2 -> conv8_2
I0228 14:53:48.373023 15940 net.cpp:150] Setting up conv8_2
I0228 14:53:48.373039 15940 net.cpp:157] Top shape: 8 256 3 3 (18432)
I0228 14:53:48.373044 15940 net.cpp:165] Memory required for data: 1881759808
I0228 14:53:48.373054 15940 layer_factory.hpp:77] Creating layer conv8_2_relu
I0228 14:53:48.373064 15940 net.cpp:100] Creating Layer conv8_2_relu
I0228 14:53:48.373070 15940 net.cpp:434] conv8_2_relu <- conv8_2
I0228 14:53:48.373078 15940 net.cpp:395] conv8_2_relu -> conv8_2 (in-place)
I0228 14:53:48.373261 15940 net.cpp:150] Setting up conv8_2_relu
I0228 14:53:48.373272 15940 net.cpp:157] Top shape: 8 256 3 3 (18432)
I0228 14:53:48.373276 15940 net.cpp:165] Memory required for data: 1881833536
I0228 14:53:48.373282 15940 layer_factory.hpp:77] Creating layer conv8_2_conv8_2_relu_0_split
I0228 14:53:48.373294 15940 net.cpp:100] Creating Layer conv8_2_conv8_2_relu_0_split
I0228 14:53:48.373303 15940 net.cpp:434] conv8_2_conv8_2_relu_0_split <- conv8_2
I0228 14:53:48.373312 15940 net.cpp:408] conv8_2_conv8_2_relu_0_split -> conv8_2_conv8_2_relu_0_split_0
I0228 14:53:48.373323 15940 net.cpp:408] conv8_2_conv8_2_relu_0_split -> conv8_2_conv8_2_relu_0_split_1
I0228 14:53:48.373334 15940 net.cpp:408] conv8_2_conv8_2_relu_0_split -> conv8_2_conv8_2_relu_0_split_2
I0228 14:53:48.373344 15940 net.cpp:408] conv8_2_conv8_2_relu_0_split -> conv8_2_conv8_2_relu_0_split_3
I0228 14:53:48.373427 15940 net.cpp:150] Setting up conv8_2_conv8_2_relu_0_split
I0228 14:53:48.373435 15940 net.cpp:157] Top shape: 8 256 3 3 (18432)
I0228 14:53:48.373442 15940 net.cpp:157] Top shape: 8 256 3 3 (18432)
I0228 14:53:48.373450 15940 net.cpp:157] Top shape: 8 256 3 3 (18432)
I0228 14:53:48.373456 15940 net.cpp:157] Top shape: 8 256 3 3 (18432)
I0228 14:53:48.373461 15940 net.cpp:165] Memory required for data: 1882128448
I0228 14:53:48.373467 15940 layer_factory.hpp:77] Creating layer conv9_1
I0228 14:53:48.373482 15940 net.cpp:100] Creating Layer conv9_1
I0228 14:53:48.373492 15940 net.cpp:434] conv9_1 <- conv8_2_conv8_2_relu_0_split_0
I0228 14:53:48.373502 15940 net.cpp:408] conv9_1 -> conv9_1
I0228 14:53:48.375854 15940 net.cpp:150] Setting up conv9_1
I0228 14:53:48.375867 15940 net.cpp:157] Top shape: 8 128 3 3 (9216)
I0228 14:53:48.375871 15940 net.cpp:165] Memory required for data: 1882165312
I0228 14:53:48.375881 15940 layer_factory.hpp:77] Creating layer conv9_1_relu
I0228 14:53:48.375891 15940 net.cpp:100] Creating Layer conv9_1_relu
I0228 14:53:48.375898 15940 net.cpp:434] conv9_1_relu <- conv9_1
I0228 14:53:48.375907 15940 net.cpp:395] conv9_1_relu -> conv9_1 (in-place)
I0228 14:53:48.376080 15940 net.cpp:150] Setting up conv9_1_relu
I0228 14:53:48.376091 15940 net.cpp:157] Top shape: 8 128 3 3 (9216)
I0228 14:53:48.376096 15940 net.cpp:165] Memory required for data: 1882202176
I0228 14:53:48.376101 15940 layer_factory.hpp:77] Creating layer conv9_2
I0228 14:53:48.376113 15940 net.cpp:100] Creating Layer conv9_2
I0228 14:53:48.376130 15940 net.cpp:434] conv9_2 <- conv9_1
I0228 14:53:48.376142 15940 net.cpp:408] conv9_2 -> conv9_2
I0228 14:53:48.380072 15940 net.cpp:150] Setting up conv9_2
I0228 14:53:48.380087 15940 net.cpp:157] Top shape: 8 256 1 1 (2048)
I0228 14:53:48.380093 15940 net.cpp:165] Memory required for data: 1882210368
I0228 14:53:48.380103 15940 layer_factory.hpp:77] Creating layer conv9_2_relu
I0228 14:53:48.380116 15940 net.cpp:100] Creating Layer conv9_2_relu
I0228 14:53:48.380125 15940 net.cpp:434] conv9_2_relu <- conv9_2
I0228 14:53:48.380136 15940 net.cpp:395] conv9_2_relu -> conv9_2 (in-place)
I0228 14:53:48.380920 15940 net.cpp:150] Setting up conv9_2_relu
I0228 14:53:48.380935 15940 net.cpp:157] Top shape: 8 256 1 1 (2048)
I0228 14:53:48.380941 15940 net.cpp:165] Memory required for data: 1882218560
I0228 14:53:48.380947 15940 layer_factory.hpp:77] Creating layer conv9_2_conv9_2_relu_0_split
I0228 14:53:48.380956 15940 net.cpp:100] Creating Layer conv9_2_conv9_2_relu_0_split
I0228 14:53:48.380964 15940 net.cpp:434] conv9_2_conv9_2_relu_0_split <- conv9_2
I0228 14:53:48.380973 15940 net.cpp:408] conv9_2_conv9_2_relu_0_split -> conv9_2_conv9_2_relu_0_split_0
I0228 14:53:48.380985 15940 net.cpp:408] conv9_2_conv9_2_relu_0_split -> conv9_2_conv9_2_relu_0_split_1
I0228 14:53:48.380995 15940 net.cpp:408] conv9_2_conv9_2_relu_0_split -> conv9_2_conv9_2_relu_0_split_2
I0228 14:53:48.381064 15940 net.cpp:150] Setting up conv9_2_conv9_2_relu_0_split
I0228 14:53:48.381072 15940 net.cpp:157] Top shape: 8 256 1 1 (2048)
I0228 14:53:48.381078 15940 net.cpp:157] Top shape: 8 256 1 1 (2048)
I0228 14:53:48.381085 15940 net.cpp:157] Top shape: 8 256 1 1 (2048)
I0228 14:53:48.381089 15940 net.cpp:165] Memory required for data: 1882243136
I0228 14:53:48.381094 15940 layer_factory.hpp:77] Creating layer conv4_3_norm
I0228 14:53:48.381105 15940 net.cpp:100] Creating Layer conv4_3_norm
I0228 14:53:48.381112 15940 net.cpp:434] conv4_3_norm <- conv4_3_relu4_3_0_split_1
I0228 14:53:48.381121 15940 net.cpp:408] conv4_3_norm -> conv4_3_norm
I0228 14:53:48.381304 15940 net.cpp:150] Setting up conv4_3_norm
I0228 14:53:48.381314 15940 net.cpp:157] Top shape: 8 512 38 38 (5914624)
I0228 14:53:48.381319 15940 net.cpp:165] Memory required for data: 1905901632
I0228 14:53:48.381326 15940 layer_factory.hpp:77] Creating layer conv4_3_norm_conv4_3_norm_0_split
I0228 14:53:48.381335 15940 net.cpp:100] Creating Layer conv4_3_norm_conv4_3_norm_0_split
I0228 14:53:48.381341 15940 net.cpp:434] conv4_3_norm_conv4_3_norm_0_split <- conv4_3_norm
I0228 14:53:48.381350 15940 net.cpp:408] conv4_3_norm_conv4_3_norm_0_split -> conv4_3_norm_conv4_3_norm_0_split_0
I0228 14:53:48.381358 15940 net.cpp:408] conv4_3_norm_conv4_3_norm_0_split -> conv4_3_norm_conv4_3_norm_0_split_1
I0228 14:53:48.381367 15940 net.cpp:408] conv4_3_norm_conv4_3_norm_0_split -> conv4_3_norm_conv4_3_norm_0_split_2
I0228 14:53:48.381425 15940 net.cpp:150] Setting up conv4_3_norm_conv4_3_norm_0_split
I0228 14:53:48.381434 15940 net.cpp:157] Top shape: 8 512 38 38 (5914624)
I0228 14:53:48.381439 15940 net.cpp:157] Top shape: 8 512 38 38 (5914624)
I0228 14:53:48.381445 15940 net.cpp:157] Top shape: 8 512 38 38 (5914624)
I0228 14:53:48.381450 15940 net.cpp:165] Memory required for data: 1976877120
I0228 14:53:48.381456 15940 layer_factory.hpp:77] Creating layer conv4_3_norm_mbox_loc
I0228 14:53:48.381470 15940 net.cpp:100] Creating Layer conv4_3_norm_mbox_loc
I0228 14:53:48.381477 15940 net.cpp:434] conv4_3_norm_mbox_loc <- conv4_3_norm_conv4_3_norm_0_split_0
I0228 14:53:48.381485 15940 net.cpp:408] conv4_3_norm_mbox_loc -> conv4_3_norm_mbox_loc
I0228 14:53:48.383716 15940 net.cpp:150] Setting up conv4_3_norm_mbox_loc
I0228 14:53:48.383730 15940 net.cpp:157] Top shape: 8 16 38 38 (184832)
I0228 14:53:48.383735 15940 net.cpp:165] Memory required for data: 1977616448
I0228 14:53:48.383745 15940 layer_factory.hpp:77] Creating layer conv4_3_norm_mbox_loc_perm
I0228 14:53:48.383757 15940 net.cpp:100] Creating Layer conv4_3_norm_mbox_loc_perm
I0228 14:53:48.383762 15940 net.cpp:434] conv4_3_norm_mbox_loc_perm <- conv4_3_norm_mbox_loc
I0228 14:53:48.383786 15940 net.cpp:408] conv4_3_norm_mbox_loc_perm -> conv4_3_norm_mbox_loc_perm
I0228 14:53:48.383918 15940 net.cpp:150] Setting up conv4_3_norm_mbox_loc_perm
I0228 14:53:48.383927 15940 net.cpp:157] Top shape: 8 38 38 16 (184832)
I0228 14:53:48.383931 15940 net.cpp:165] Memory required for data: 1978355776
I0228 14:53:48.383936 15940 layer_factory.hpp:77] Creating layer conv4_3_norm_mbox_loc_flat
I0228 14:53:48.383945 15940 net.cpp:100] Creating Layer conv4_3_norm_mbox_loc_flat
I0228 14:53:48.383952 15940 net.cpp:434] conv4_3_norm_mbox_loc_flat <- conv4_3_norm_mbox_loc_perm
I0228 14:53:48.383962 15940 net.cpp:408] conv4_3_norm_mbox_loc_flat -> conv4_3_norm_mbox_loc_flat
I0228 14:53:48.384011 15940 net.cpp:150] Setting up conv4_3_norm_mbox_loc_flat
I0228 14:53:48.384021 15940 net.cpp:157] Top shape: 8 23104 (184832)
I0228 14:53:48.384025 15940 net.cpp:165] Memory required for data: 1979095104
I0228 14:53:48.384030 15940 layer_factory.hpp:77] Creating layer conv4_3_norm_mbox_conf
I0228 14:53:48.384050 15940 net.cpp:100] Creating Layer conv4_3_norm_mbox_conf
I0228 14:53:48.384058 15940 net.cpp:434] conv4_3_norm_mbox_conf <- conv4_3_norm_conv4_3_norm_0_split_1
I0228 14:53:48.384068 15940 net.cpp:408] conv4_3_norm_mbox_conf -> conv4_3_norm_mbox_conf
I0228 14:53:48.388409 15940 net.cpp:150] Setting up conv4_3_norm_mbox_conf
I0228 14:53:48.388425 15940 net.cpp:157] Top shape: 8 84 38 38 (970368)
I0228 14:53:48.388432 15940 net.cpp:165] Memory required for data: 1982976576
I0228 14:53:48.388442 15940 layer_factory.hpp:77] Creating layer conv4_3_norm_mbox_conf_perm
I0228 14:53:48.388455 15940 net.cpp:100] Creating Layer conv4_3_norm_mbox_conf_perm
I0228 14:53:48.388464 15940 net.cpp:434] conv4_3_norm_mbox_conf_perm <- conv4_3_norm_mbox_conf
I0228 14:53:48.388473 15940 net.cpp:408] conv4_3_norm_mbox_conf_perm -> conv4_3_norm_mbox_conf_perm
I0228 14:53:48.388599 15940 net.cpp:150] Setting up conv4_3_norm_mbox_conf_perm
I0228 14:53:48.388608 15940 net.cpp:157] Top shape: 8 38 38 84 (970368)
I0228 14:53:48.388612 15940 net.cpp:165] Memory required for data: 1986858048
I0228 14:53:48.388618 15940 layer_factory.hpp:77] Creating layer conv4_3_norm_mbox_conf_flat
I0228 14:53:48.388629 15940 net.cpp:100] Creating Layer conv4_3_norm_mbox_conf_flat
I0228 14:53:48.388635 15940 net.cpp:434] conv4_3_norm_mbox_conf_flat <- conv4_3_norm_mbox_conf_perm
I0228 14:53:48.388643 15940 net.cpp:408] conv4_3_norm_mbox_conf_flat -> conv4_3_norm_mbox_conf_flat
I0228 14:53:48.388680 15940 net.cpp:150] Setting up conv4_3_norm_mbox_conf_flat
I0228 14:53:48.388689 15940 net.cpp:157] Top shape: 8 121296 (970368)
I0228 14:53:48.388694 15940 net.cpp:165] Memory required for data: 1990739520
I0228 14:53:48.388698 15940 layer_factory.hpp:77] Creating layer conv4_3_norm_mbox_priorbox
I0228 14:53:48.388710 15940 net.cpp:100] Creating Layer conv4_3_norm_mbox_priorbox
I0228 14:53:48.388715 15940 net.cpp:434] conv4_3_norm_mbox_priorbox <- conv4_3_norm_conv4_3_norm_0_split_2
I0228 14:53:48.388723 15940 net.cpp:434] conv4_3_norm_mbox_priorbox <- data_data_0_split_1
I0228 14:53:48.388731 15940 net.cpp:408] conv4_3_norm_mbox_priorbox -> conv4_3_norm_mbox_priorbox
I0228 14:53:48.388778 15940 net.cpp:150] Setting up conv4_3_norm_mbox_priorbox
I0228 14:53:48.388787 15940 net.cpp:157] Top shape: 1 2 23104 (46208)
I0228 14:53:48.388792 15940 net.cpp:165] Memory required for data: 1990924352
I0228 14:53:48.388797 15940 layer_factory.hpp:77] Creating layer fc7_mbox_loc
I0228 14:53:48.388809 15940 net.cpp:100] Creating Layer fc7_mbox_loc
I0228 14:53:48.388816 15940 net.cpp:434] fc7_mbox_loc <- fc7_relu7_0_split_1
I0228 14:53:48.388826 15940 net.cpp:408] fc7_mbox_loc -> fc7_mbox_loc
I0228 14:53:48.391705 15940 net.cpp:150] Setting up fc7_mbox_loc
I0228 14:53:48.391718 15940 net.cpp:157] Top shape: 8 24 19 19 (69312)
I0228 14:53:48.391722 15940 net.cpp:165] Memory required for data: 1991201600
I0228 14:53:48.391732 15940 layer_factory.hpp:77] Creating layer fc7_mbox_loc_perm
I0228 14:53:48.391743 15940 net.cpp:100] Creating Layer fc7_mbox_loc_perm
I0228 14:53:48.391764 15940 net.cpp:434] fc7_mbox_loc_perm <- fc7_mbox_loc
I0228 14:53:48.391773 15940 net.cpp:408] fc7_mbox_loc_perm -> fc7_mbox_loc_perm
I0228 14:53:48.391901 15940 net.cpp:150] Setting up fc7_mbox_loc_perm
I0228 14:53:48.391911 15940 net.cpp:157] Top shape: 8 19 19 24 (69312)
I0228 14:53:48.391916 15940 net.cpp:165] Memory required for data: 1991478848
I0228 14:53:48.391921 15940 layer_factory.hpp:77] Creating layer fc7_mbox_loc_flat
I0228 14:53:48.391930 15940 net.cpp:100] Creating Layer fc7_mbox_loc_flat
I0228 14:53:48.391935 15940 net.cpp:434] fc7_mbox_loc_flat <- fc7_mbox_loc_perm
I0228 14:53:48.391945 15940 net.cpp:408] fc7_mbox_loc_flat -> fc7_mbox_loc_flat
I0228 14:53:48.391983 15940 net.cpp:150] Setting up fc7_mbox_loc_flat
I0228 14:53:48.391991 15940 net.cpp:157] Top shape: 8 8664 (69312)
I0228 14:53:48.391995 15940 net.cpp:165] Memory required for data: 1991756096
I0228 14:53:48.392001 15940 layer_factory.hpp:77] Creating layer fc7_mbox_conf
I0228 14:53:48.392014 15940 net.cpp:100] Creating Layer fc7_mbox_conf
I0228 14:53:48.392020 15940 net.cpp:434] fc7_mbox_conf <- fc7_relu7_0_split_2
I0228 14:53:48.392031 15940 net.cpp:408] fc7_mbox_conf -> fc7_mbox_conf
I0228 14:53:48.400111 15940 net.cpp:150] Setting up fc7_mbox_conf
I0228 14:53:48.400131 15940 net.cpp:157] Top shape: 8 126 19 19 (363888)
I0228 14:53:48.400137 15940 net.cpp:165] Memory required for data: 1993211648
I0228 14:53:48.400148 15940 layer_factory.hpp:77] Creating layer fc7_mbox_conf_perm
I0228 14:53:48.400161 15940 net.cpp:100] Creating Layer fc7_mbox_conf_perm
I0228 14:53:48.400169 15940 net.cpp:434] fc7_mbox_conf_perm <- fc7_mbox_conf
I0228 14:53:48.400180 15940 net.cpp:408] fc7_mbox_conf_perm -> fc7_mbox_conf_perm
I0228 14:53:48.400327 15940 net.cpp:150] Setting up fc7_mbox_conf_perm
I0228 14:53:48.400337 15940 net.cpp:157] Top shape: 8 19 19 126 (363888)
I0228 14:53:48.400341 15940 net.cpp:165] Memory required for data: 1994667200
I0228 14:53:48.400346 15940 layer_factory.hpp:77] Creating layer fc7_mbox_conf_flat
I0228 14:53:48.400357 15940 net.cpp:100] Creating Layer fc7_mbox_conf_flat
I0228 14:53:48.400364 15940 net.cpp:434] fc7_mbox_conf_flat <- fc7_mbox_conf_perm
I0228 14:53:48.400374 15940 net.cpp:408] fc7_mbox_conf_flat -> fc7_mbox_conf_flat
I0228 14:53:48.400413 15940 net.cpp:150] Setting up fc7_mbox_conf_flat
I0228 14:53:48.400420 15940 net.cpp:157] Top shape: 8 45486 (363888)
I0228 14:53:48.400424 15940 net.cpp:165] Memory required for data: 1996122752
I0228 14:53:48.400430 15940 layer_factory.hpp:77] Creating layer fc7_mbox_priorbox
I0228 14:53:48.400442 15940 net.cpp:100] Creating Layer fc7_mbox_priorbox
I0228 14:53:48.400449 15940 net.cpp:434] fc7_mbox_priorbox <- fc7_relu7_0_split_3
I0228 14:53:48.400457 15940 net.cpp:434] fc7_mbox_priorbox <- data_data_0_split_2
I0228 14:53:48.400467 15940 net.cpp:408] fc7_mbox_priorbox -> fc7_mbox_priorbox
I0228 14:53:48.400506 15940 net.cpp:150] Setting up fc7_mbox_priorbox
I0228 14:53:48.400514 15940 net.cpp:157] Top shape: 1 2 8664 (17328)
I0228 14:53:48.400519 15940 net.cpp:165] Memory required for data: 1996192064
I0228 14:53:48.400523 15940 layer_factory.hpp:77] Creating layer conv6_2_mbox_loc
I0228 14:53:48.400542 15940 net.cpp:100] Creating Layer conv6_2_mbox_loc
I0228 14:53:48.400549 15940 net.cpp:434] conv6_2_mbox_loc <- conv6_2_conv6_2_relu_0_split_1
I0228 14:53:48.400559 15940 net.cpp:408] conv6_2_mbox_loc -> conv6_2_mbox_loc
I0228 14:53:48.402974 15940 net.cpp:150] Setting up conv6_2_mbox_loc
I0228 14:53:48.402988 15940 net.cpp:157] Top shape: 8 24 10 10 (19200)
I0228 14:53:48.402992 15940 net.cpp:165] Memory required for data: 1996268864
I0228 14:53:48.403002 15940 layer_factory.hpp:77] Creating layer conv6_2_mbox_loc_perm
I0228 14:53:48.403015 15940 net.cpp:100] Creating Layer conv6_2_mbox_loc_perm
I0228 14:53:48.403023 15940 net.cpp:434] conv6_2_mbox_loc_perm <- conv6_2_mbox_loc
I0228 14:53:48.403033 15940 net.cpp:408] conv6_2_mbox_loc_perm -> conv6_2_mbox_loc_perm
I0228 14:53:48.403167 15940 net.cpp:150] Setting up conv6_2_mbox_loc_perm
I0228 14:53:48.403188 15940 net.cpp:157] Top shape: 8 10 10 24 (19200)
I0228 14:53:48.403193 15940 net.cpp:165] Memory required for data: 1996345664
I0228 14:53:48.403199 15940 layer_factory.hpp:77] Creating layer conv6_2_mbox_loc_flat
I0228 14:53:48.403208 15940 net.cpp:100] Creating Layer conv6_2_mbox_loc_flat
I0228 14:53:48.403214 15940 net.cpp:434] conv6_2_mbox_loc_flat <- conv6_2_mbox_loc_perm
I0228 14:53:48.403223 15940 net.cpp:408] conv6_2_mbox_loc_flat -> conv6_2_mbox_loc_flat
I0228 14:53:48.403261 15940 net.cpp:150] Setting up conv6_2_mbox_loc_flat
I0228 14:53:48.403270 15940 net.cpp:157] Top shape: 8 2400 (19200)
I0228 14:53:48.403275 15940 net.cpp:165] Memory required for data: 1996422464
I0228 14:53:48.403280 15940 layer_factory.hpp:77] Creating layer conv6_2_mbox_conf
I0228 14:53:48.403295 15940 net.cpp:100] Creating Layer conv6_2_mbox_conf
I0228 14:53:48.403304 15940 net.cpp:434] conv6_2_mbox_conf <- conv6_2_conv6_2_relu_0_split_2
I0228 14:53:48.403312 15940 net.cpp:408] conv6_2_mbox_conf -> conv6_2_mbox_conf
I0228 14:53:48.408766 15940 net.cpp:150] Setting up conv6_2_mbox_conf
I0228 14:53:48.408797 15940 net.cpp:157] Top shape: 8 126 10 10 (100800)
I0228 14:53:48.408802 15940 net.cpp:165] Memory required for data: 1996825664
I0228 14:53:48.408815 15940 layer_factory.hpp:77] Creating layer conv6_2_mbox_conf_perm
I0228 14:53:48.408829 15940 net.cpp:100] Creating Layer conv6_2_mbox_conf_perm
I0228 14:53:48.408839 15940 net.cpp:434] conv6_2_mbox_conf_perm <- conv6_2_mbox_conf
I0228 14:53:48.408852 15940 net.cpp:408] conv6_2_mbox_conf_perm -> conv6_2_mbox_conf_perm
I0228 14:53:48.408993 15940 net.cpp:150] Setting up conv6_2_mbox_conf_perm
I0228 14:53:48.409003 15940 net.cpp:157] Top shape: 8 10 10 126 (100800)
I0228 14:53:48.409008 15940 net.cpp:165] Memory required for data: 1997228864
I0228 14:53:48.409013 15940 layer_factory.hpp:77] Creating layer conv6_2_mbox_conf_flat
I0228 14:53:48.409023 15940 net.cpp:100] Creating Layer conv6_2_mbox_conf_flat
I0228 14:53:48.409029 15940 net.cpp:434] conv6_2_mbox_conf_flat <- conv6_2_mbox_conf_perm
I0228 14:53:48.409039 15940 net.cpp:408] conv6_2_mbox_conf_flat -> conv6_2_mbox_conf_flat
I0228 14:53:48.409080 15940 net.cpp:150] Setting up conv6_2_mbox_conf_flat
I0228 14:53:48.409087 15940 net.cpp:157] Top shape: 8 12600 (100800)
I0228 14:53:48.409093 15940 net.cpp:165] Memory required for data: 1997632064
I0228 14:53:48.409098 15940 layer_factory.hpp:77] Creating layer conv6_2_mbox_priorbox
I0228 14:53:48.409109 15940 net.cpp:100] Creating Layer conv6_2_mbox_priorbox
I0228 14:53:48.409114 15940 net.cpp:434] conv6_2_mbox_priorbox <- conv6_2_conv6_2_relu_0_split_3
I0228 14:53:48.409122 15940 net.cpp:434] conv6_2_mbox_priorbox <- data_data_0_split_3
I0228 14:53:48.409133 15940 net.cpp:408] conv6_2_mbox_priorbox -> conv6_2_mbox_priorbox
I0228 14:53:48.409183 15940 net.cpp:150] Setting up conv6_2_mbox_priorbox
I0228 14:53:48.409191 15940 net.cpp:157] Top shape: 1 2 2400 (4800)
I0228 14:53:48.409196 15940 net.cpp:165] Memory required for data: 1997651264
I0228 14:53:48.409200 15940 layer_factory.hpp:77] Creating layer conv7_2_mbox_loc
I0228 14:53:48.409217 15940 net.cpp:100] Creating Layer conv7_2_mbox_loc
I0228 14:53:48.409224 15940 net.cpp:434] conv7_2_mbox_loc <- conv7_2_conv7_2_relu_0_split_1
I0228 14:53:48.409234 15940 net.cpp:408] conv7_2_mbox_loc -> conv7_2_mbox_loc
I0228 14:53:48.411556 15940 net.cpp:150] Setting up conv7_2_mbox_loc
I0228 14:53:48.411569 15940 net.cpp:157] Top shape: 8 24 5 5 (4800)
I0228 14:53:48.411574 15940 net.cpp:165] Memory required for data: 1997670464
I0228 14:53:48.411586 15940 layer_factory.hpp:77] Creating layer conv7_2_mbox_loc_perm
I0228 14:53:48.411594 15940 net.cpp:100] Creating Layer conv7_2_mbox_loc_perm
I0228 14:53:48.411602 15940 net.cpp:434] conv7_2_mbox_loc_perm <- conv7_2_mbox_loc
I0228 14:53:48.411612 15940 net.cpp:408] conv7_2_mbox_loc_perm -> conv7_2_mbox_loc_perm
I0228 14:53:48.411738 15940 net.cpp:150] Setting up conv7_2_mbox_loc_perm
I0228 14:53:48.411747 15940 net.cpp:157] Top shape: 8 5 5 24 (4800)
I0228 14:53:48.411768 15940 net.cpp:165] Memory required for data: 1997689664
I0228 14:53:48.411774 15940 layer_factory.hpp:77] Creating layer conv7_2_mbox_loc_flat
I0228 14:53:48.411783 15940 net.cpp:100] Creating Layer conv7_2_mbox_loc_flat
I0228 14:53:48.411789 15940 net.cpp:434] conv7_2_mbox_loc_flat <- conv7_2_mbox_loc_perm
I0228 14:53:48.411799 15940 net.cpp:408] conv7_2_mbox_loc_flat -> conv7_2_mbox_loc_flat
I0228 14:53:48.411835 15940 net.cpp:150] Setting up conv7_2_mbox_loc_flat
I0228 14:53:48.411844 15940 net.cpp:157] Top shape: 8 600 (4800)
I0228 14:53:48.411849 15940 net.cpp:165] Memory required for data: 1997708864
I0228 14:53:48.411854 15940 layer_factory.hpp:77] Creating layer conv7_2_mbox_conf
I0228 14:53:48.411870 15940 net.cpp:100] Creating Layer conv7_2_mbox_conf
I0228 14:53:48.411876 15940 net.cpp:434] conv7_2_mbox_conf <- conv7_2_conv7_2_relu_0_split_2
I0228 14:53:48.411890 15940 net.cpp:408] conv7_2_mbox_conf -> conv7_2_mbox_conf
I0228 14:53:48.415933 15940 net.cpp:150] Setting up conv7_2_mbox_conf
I0228 14:53:48.415949 15940 net.cpp:157] Top shape: 8 126 5 5 (25200)
I0228 14:53:48.415956 15940 net.cpp:165] Memory required for data: 1997809664
I0228 14:53:48.415966 15940 layer_factory.hpp:77] Creating layer conv7_2_mbox_conf_perm
I0228 14:53:48.415982 15940 net.cpp:100] Creating Layer conv7_2_mbox_conf_perm
I0228 14:53:48.415988 15940 net.cpp:434] conv7_2_mbox_conf_perm <- conv7_2_mbox_conf
I0228 14:53:48.416000 15940 net.cpp:408] conv7_2_mbox_conf_perm -> conv7_2_mbox_conf_perm
I0228 14:53:48.416129 15940 net.cpp:150] Setting up conv7_2_mbox_conf_perm
I0228 14:53:48.416139 15940 net.cpp:157] Top shape: 8 5 5 126 (25200)
I0228 14:53:48.416144 15940 net.cpp:165] Memory required for data: 1997910464
I0228 14:53:48.416151 15940 layer_factory.hpp:77] Creating layer conv7_2_mbox_conf_flat
I0228 14:53:48.416160 15940 net.cpp:100] Creating Layer conv7_2_mbox_conf_flat
I0228 14:53:48.416167 15940 net.cpp:434] conv7_2_mbox_conf_flat <- conv7_2_mbox_conf_perm
I0228 14:53:48.416174 15940 net.cpp:408] conv7_2_mbox_conf_flat -> conv7_2_mbox_conf_flat
I0228 14:53:48.416214 15940 net.cpp:150] Setting up conv7_2_mbox_conf_flat
I0228 14:53:48.416224 15940 net.cpp:157] Top shape: 8 3150 (25200)
I0228 14:53:48.416229 15940 net.cpp:165] Memory required for data: 1998011264
I0228 14:53:48.416234 15940 layer_factory.hpp:77] Creating layer conv7_2_mbox_priorbox
I0228 14:53:48.416244 15940 net.cpp:100] Creating Layer conv7_2_mbox_priorbox
I0228 14:53:48.416275 15940 net.cpp:434] conv7_2_mbox_priorbox <- conv7_2_conv7_2_relu_0_split_3
I0228 14:53:48.416283 15940 net.cpp:434] conv7_2_mbox_priorbox <- data_data_0_split_4
I0228 14:53:48.416293 15940 net.cpp:408] conv7_2_mbox_priorbox -> conv7_2_mbox_priorbox
I0228 14:53:48.416333 15940 net.cpp:150] Setting up conv7_2_mbox_priorbox
I0228 14:53:48.416345 15940 net.cpp:157] Top shape: 1 2 600 (1200)
I0228 14:53:48.416350 15940 net.cpp:165] Memory required for data: 1998016064
I0228 14:53:48.416355 15940 layer_factory.hpp:77] Creating layer conv8_2_mbox_loc
I0228 14:53:48.416371 15940 net.cpp:100] Creating Layer conv8_2_mbox_loc
I0228 14:53:48.416379 15940 net.cpp:434] conv8_2_mbox_loc <- conv8_2_conv8_2_relu_0_split_1
I0228 14:53:48.416389 15940 net.cpp:408] conv8_2_mbox_loc -> conv8_2_mbox_loc
I0228 14:53:48.417975 15940 net.cpp:150] Setting up conv8_2_mbox_loc
I0228 14:53:48.417989 15940 net.cpp:157] Top shape: 8 16 3 3 (1152)
I0228 14:53:48.417994 15940 net.cpp:165] Memory required for data: 1998020672
I0228 14:53:48.418013 15940 layer_factory.hpp:77] Creating layer conv8_2_mbox_loc_perm
I0228 14:53:48.418025 15940 net.cpp:100] Creating Layer conv8_2_mbox_loc_perm
I0228 14:53:48.418031 15940 net.cpp:434] conv8_2_mbox_loc_perm <- conv8_2_mbox_loc
I0228 14:53:48.418040 15940 net.cpp:408] conv8_2_mbox_loc_perm -> conv8_2_mbox_loc_perm
I0228 14:53:48.418167 15940 net.cpp:150] Setting up conv8_2_mbox_loc_perm
I0228 14:53:48.418176 15940 net.cpp:157] Top shape: 8 3 3 16 (1152)
I0228 14:53:48.418180 15940 net.cpp:165] Memory required for data: 1998025280
I0228 14:53:48.418186 15940 layer_factory.hpp:77] Creating layer conv8_2_mbox_loc_flat
I0228 14:53:48.418203 15940 net.cpp:100] Creating Layer conv8_2_mbox_loc_flat
I0228 14:53:48.418210 15940 net.cpp:434] conv8_2_mbox_loc_flat <- conv8_2_mbox_loc_perm
I0228 14:53:48.418220 15940 net.cpp:408] conv8_2_mbox_loc_flat -> conv8_2_mbox_loc_flat
I0228 14:53:48.418258 15940 net.cpp:150] Setting up conv8_2_mbox_loc_flat
I0228 14:53:48.418267 15940 net.cpp:157] Top shape: 8 144 (1152)
I0228 14:53:48.418270 15940 net.cpp:165] Memory required for data: 1998029888
I0228 14:53:48.418277 15940 layer_factory.hpp:77] Creating layer conv8_2_mbox_conf
I0228 14:53:48.418289 15940 net.cpp:100] Creating Layer conv8_2_mbox_conf
I0228 14:53:48.418296 15940 net.cpp:434] conv8_2_mbox_conf <- conv8_2_conv8_2_relu_0_split_2
I0228 14:53:48.418306 15940 net.cpp:408] conv8_2_mbox_conf -> conv8_2_mbox_conf
I0228 14:53:48.421082 15940 net.cpp:150] Setting up conv8_2_mbox_conf
I0228 14:53:48.421095 15940 net.cpp:157] Top shape: 8 84 3 3 (6048)
I0228 14:53:48.421100 15940 net.cpp:165] Memory required for data: 1998054080
I0228 14:53:48.421109 15940 layer_factory.hpp:77] Creating layer conv8_2_mbox_conf_perm
I0228 14:53:48.421119 15940 net.cpp:100] Creating Layer conv8_2_mbox_conf_perm
I0228 14:53:48.421126 15940 net.cpp:434] conv8_2_mbox_conf_perm <- conv8_2_mbox_conf
I0228 14:53:48.421138 15940 net.cpp:408] conv8_2_mbox_conf_perm -> conv8_2_mbox_conf_perm
I0228 14:53:48.421267 15940 net.cpp:150] Setting up conv8_2_mbox_conf_perm
I0228 14:53:48.421275 15940 net.cpp:157] Top shape: 8 3 3 84 (6048)
I0228 14:53:48.421279 15940 net.cpp:165] Memory required for data: 1998078272
I0228 14:53:48.421285 15940 layer_factory.hpp:77] Creating layer conv8_2_mbox_conf_flat
I0228 14:53:48.421293 15940 net.cpp:100] Creating Layer conv8_2_mbox_conf_flat
I0228 14:53:48.421301 15940 net.cpp:434] conv8_2_mbox_conf_flat <- conv8_2_mbox_conf_perm
I0228 14:53:48.421311 15940 net.cpp:408] conv8_2_mbox_conf_flat -> conv8_2_mbox_conf_flat
I0228 14:53:48.421349 15940 net.cpp:150] Setting up conv8_2_mbox_conf_flat
I0228 14:53:48.421356 15940 net.cpp:157] Top shape: 8 756 (6048)
I0228 14:53:48.421360 15940 net.cpp:165] Memory required for data: 1998102464
I0228 14:53:48.421365 15940 layer_factory.hpp:77] Creating layer conv8_2_mbox_priorbox
I0228 14:53:48.421375 15940 net.cpp:100] Creating Layer conv8_2_mbox_priorbox
I0228 14:53:48.421384 15940 net.cpp:434] conv8_2_mbox_priorbox <- conv8_2_conv8_2_relu_0_split_3
I0228 14:53:48.421392 15940 net.cpp:434] conv8_2_mbox_priorbox <- data_data_0_split_5
I0228 14:53:48.421401 15940 net.cpp:408] conv8_2_mbox_priorbox -> conv8_2_mbox_priorbox
I0228 14:53:48.421443 15940 net.cpp:150] Setting up conv8_2_mbox_priorbox
I0228 14:53:48.421452 15940 net.cpp:157] Top shape: 1 2 144 (288)
I0228 14:53:48.421456 15940 net.cpp:165] Memory required for data: 1998103616
I0228 14:53:48.421461 15940 layer_factory.hpp:77] Creating layer conv9_2_mbox_loc
I0228 14:53:48.421474 15940 net.cpp:100] Creating Layer conv9_2_mbox_loc
I0228 14:53:48.421483 15940 net.cpp:434] conv9_2_mbox_loc <- conv9_2_conv9_2_relu_0_split_0
I0228 14:53:48.421494 15940 net.cpp:408] conv9_2_mbox_loc -> conv9_2_mbox_loc
I0228 14:53:48.423635 15940 net.cpp:150] Setting up conv9_2_mbox_loc
I0228 14:53:48.423647 15940 net.cpp:157] Top shape: 8 16 1 1 (128)
I0228 14:53:48.423651 15940 net.cpp:165] Memory required for data: 1998104128
I0228 14:53:48.423661 15940 layer_factory.hpp:77] Creating layer conv9_2_mbox_loc_perm
I0228 14:53:48.423672 15940 net.cpp:100] Creating Layer conv9_2_mbox_loc_perm
I0228 14:53:48.423684 15940 net.cpp:434] conv9_2_mbox_loc_perm <- conv9_2_mbox_loc
I0228 14:53:48.423692 15940 net.cpp:408] conv9_2_mbox_loc_perm -> conv9_2_mbox_loc_perm
I0228 14:53:48.423820 15940 net.cpp:150] Setting up conv9_2_mbox_loc_perm
I0228 14:53:48.423830 15940 net.cpp:157] Top shape: 8 1 1 16 (128)
I0228 14:53:48.423835 15940 net.cpp:165] Memory required for data: 1998104640
I0228 14:53:48.423838 15940 layer_factory.hpp:77] Creating layer conv9_2_mbox_loc_flat
I0228 14:53:48.423847 15940 net.cpp:100] Creating Layer conv9_2_mbox_loc_flat
I0228 14:53:48.423861 15940 net.cpp:434] conv9_2_mbox_loc_flat <- conv9_2_mbox_loc_perm
I0228 14:53:48.423871 15940 net.cpp:408] conv9_2_mbox_loc_flat -> conv9_2_mbox_loc_flat
I0228 14:53:48.423912 15940 net.cpp:150] Setting up conv9_2_mbox_loc_flat
I0228 14:53:48.423919 15940 net.cpp:157] Top shape: 8 16 (128)
I0228 14:53:48.423923 15940 net.cpp:165] Memory required for data: 1998105152
I0228 14:53:48.423929 15940 layer_factory.hpp:77] Creating layer conv9_2_mbox_conf
I0228 14:53:48.423943 15940 net.cpp:100] Creating Layer conv9_2_mbox_conf
I0228 14:53:48.423950 15940 net.cpp:434] conv9_2_mbox_conf <- conv9_2_conv9_2_relu_0_split_1
I0228 14:53:48.423962 15940 net.cpp:408] conv9_2_mbox_conf -> conv9_2_mbox_conf
I0228 14:53:48.426764 15940 net.cpp:150] Setting up conv9_2_mbox_conf
I0228 14:53:48.426776 15940 net.cpp:157] Top shape: 8 84 1 1 (672)
I0228 14:53:48.426781 15940 net.cpp:165] Memory required for data: 1998107840
I0228 14:53:48.426791 15940 layer_factory.hpp:77] Creating layer conv9_2_mbox_conf_perm
I0228 14:53:48.426805 15940 net.cpp:100] Creating Layer conv9_2_mbox_conf_perm
I0228 14:53:48.426813 15940 net.cpp:434] conv9_2_mbox_conf_perm <- conv9_2_mbox_conf
I0228 14:53:48.426822 15940 net.cpp:408] conv9_2_mbox_conf_perm -> conv9_2_mbox_conf_perm
I0228 14:53:48.426949 15940 net.cpp:150] Setting up conv9_2_mbox_conf_perm
I0228 14:53:48.426957 15940 net.cpp:157] Top shape: 8 1 1 84 (672)
I0228 14:53:48.426961 15940 net.cpp:165] Memory required for data: 1998110528
I0228 14:53:48.426966 15940 layer_factory.hpp:77] Creating layer conv9_2_mbox_conf_flat
I0228 14:53:48.426975 15940 net.cpp:100] Creating Layer conv9_2_mbox_conf_flat
I0228 14:53:48.426981 15940 net.cpp:434] conv9_2_mbox_conf_flat <- conv9_2_mbox_conf_perm
I0228 14:53:48.426990 15940 net.cpp:408] conv9_2_mbox_conf_flat -> conv9_2_mbox_conf_flat
I0228 14:53:48.427027 15940 net.cpp:150] Setting up conv9_2_mbox_conf_flat
I0228 14:53:48.427037 15940 net.cpp:157] Top shape: 8 84 (672)
I0228 14:53:48.427040 15940 net.cpp:165] Memory required for data: 1998113216
I0228 14:53:48.427045 15940 layer_factory.hpp:77] Creating layer conv9_2_mbox_priorbox
I0228 14:53:48.427057 15940 net.cpp:100] Creating Layer conv9_2_mbox_priorbox
I0228 14:53:48.427062 15940 net.cpp:434] conv9_2_mbox_priorbox <- conv9_2_conv9_2_relu_0_split_2
I0228 14:53:48.427069 15940 net.cpp:434] conv9_2_mbox_priorbox <- data_data_0_split_6
I0228 14:53:48.427076 15940 net.cpp:408] conv9_2_mbox_priorbox -> conv9_2_mbox_priorbox
I0228 14:53:48.427116 15940 net.cpp:150] Setting up conv9_2_mbox_priorbox
I0228 14:53:48.427126 15940 net.cpp:157] Top shape: 1 2 16 (32)
I0228 14:53:48.427131 15940 net.cpp:165] Memory required for data: 1998113344
I0228 14:53:48.427136 15940 layer_factory.hpp:77] Creating layer mbox_loc
I0228 14:53:48.427147 15940 net.cpp:100] Creating Layer mbox_loc
I0228 14:53:48.427155 15940 net.cpp:434] mbox_loc <- conv4_3_norm_mbox_loc_flat
I0228 14:53:48.427162 15940 net.cpp:434] mbox_loc <- fc7_mbox_loc_flat
I0228 14:53:48.427170 15940 net.cpp:434] mbox_loc <- conv6_2_mbox_loc_flat
I0228 14:53:48.427176 15940 net.cpp:434] mbox_loc <- conv7_2_mbox_loc_flat
I0228 14:53:48.427182 15940 net.cpp:434] mbox_loc <- conv8_2_mbox_loc_flat
I0228 14:53:48.427188 15940 net.cpp:434] mbox_loc <- conv9_2_mbox_loc_flat
I0228 14:53:48.427196 15940 net.cpp:408] mbox_loc -> mbox_loc
I0228 14:53:48.427237 15940 net.cpp:150] Setting up mbox_loc
I0228 14:53:48.427244 15940 net.cpp:157] Top shape: 8 34928 (279424)
I0228 14:53:48.427249 15940 net.cpp:165] Memory required for data: 1999231040
I0228 14:53:48.427254 15940 layer_factory.hpp:77] Creating layer mbox_conf
I0228 14:53:48.427264 15940 net.cpp:100] Creating Layer mbox_conf
I0228 14:53:48.427270 15940 net.cpp:434] mbox_conf <- conv4_3_norm_mbox_conf_flat
I0228 14:53:48.427278 15940 net.cpp:434] mbox_conf <- fc7_mbox_conf_flat
I0228 14:53:48.427284 15940 net.cpp:434] mbox_conf <- conv6_2_mbox_conf_flat
I0228 14:53:48.427291 15940 net.cpp:434] mbox_conf <- conv7_2_mbox_conf_flat
I0228 14:53:48.427296 15940 net.cpp:434] mbox_conf <- conv8_2_mbox_conf_flat
I0228 14:53:48.427314 15940 net.cpp:434] mbox_conf <- conv9_2_mbox_conf_flat
I0228 14:53:48.427323 15940 net.cpp:408] mbox_conf -> mbox_conf
I0228 14:53:48.427361 15940 net.cpp:150] Setting up mbox_conf
I0228 14:53:48.427371 15940 net.cpp:157] Top shape: 8 183372 (1466976)
I0228 14:53:48.427374 15940 net.cpp:165] Memory required for data: 2005098944
I0228 14:53:48.427381 15940 layer_factory.hpp:77] Creating layer mbox_priorbox
I0228 14:53:48.427389 15940 net.cpp:100] Creating Layer mbox_priorbox
I0228 14:53:48.427397 15940 net.cpp:434] mbox_priorbox <- conv4_3_norm_mbox_priorbox
I0228 14:53:48.427404 15940 net.cpp:434] mbox_priorbox <- fc7_mbox_priorbox
I0228 14:53:48.427412 15940 net.cpp:434] mbox_priorbox <- conv6_2_mbox_priorbox
I0228 14:53:48.427419 15940 net.cpp:434] mbox_priorbox <- conv7_2_mbox_priorbox
I0228 14:53:48.427424 15940 net.cpp:434] mbox_priorbox <- conv8_2_mbox_priorbox
I0228 14:53:48.427430 15940 net.cpp:434] mbox_priorbox <- conv9_2_mbox_priorbox
I0228 14:53:48.427440 15940 net.cpp:408] mbox_priorbox -> mbox_priorbox
I0228 14:53:48.427498 15940 net.cpp:150] Setting up mbox_priorbox
I0228 14:53:48.427506 15940 net.cpp:157] Top shape: 1 2 34928 (69856)
I0228 14:53:48.427511 15940 net.cpp:165] Memory required for data: 2005378368
I0228 14:53:48.427516 15940 layer_factory.hpp:77] Creating layer mbox_conf_reshape
I0228 14:53:48.427526 15940 net.cpp:100] Creating Layer mbox_conf_reshape
I0228 14:53:48.427532 15940 net.cpp:434] mbox_conf_reshape <- mbox_conf
I0228 14:53:48.427543 15940 net.cpp:408] mbox_conf_reshape -> mbox_conf_reshape
I0228 14:53:48.427597 15940 net.cpp:150] Setting up mbox_conf_reshape
I0228 14:53:48.427605 15940 net.cpp:157] Top shape: 8 8732 21 (1466976)
I0228 14:53:48.427610 15940 net.cpp:165] Memory required for data: 2011246272
I0228 14:53:48.427615 15940 layer_factory.hpp:77] Creating layer mbox_conf_softmax
I0228 14:53:48.427626 15940 net.cpp:100] Creating Layer mbox_conf_softmax
I0228 14:53:48.427634 15940 net.cpp:434] mbox_conf_softmax <- mbox_conf_reshape
I0228 14:53:48.427641 15940 net.cpp:408] mbox_conf_softmax -> mbox_conf_softmax
I0228 14:53:48.427902 15940 net.cpp:150] Setting up mbox_conf_softmax
I0228 14:53:48.427913 15940 net.cpp:157] Top shape: 8 8732 21 (1466976)
I0228 14:53:48.427918 15940 net.cpp:165] Memory required for data: 2017114176
I0228 14:53:48.427923 15940 layer_factory.hpp:77] Creating layer mbox_conf_flatten
I0228 14:53:48.427932 15940 net.cpp:100] Creating Layer mbox_conf_flatten
I0228 14:53:48.427938 15940 net.cpp:434] mbox_conf_flatten <- mbox_conf_softmax
I0228 14:53:48.427948 15940 net.cpp:408] mbox_conf_flatten -> mbox_conf_flatten
I0228 14:53:48.427989 15940 net.cpp:150] Setting up mbox_conf_flatten
I0228 14:53:48.427997 15940 net.cpp:157] Top shape: 8 183372 (1466976)
I0228 14:53:48.428002 15940 net.cpp:165] Memory required for data: 2022982080
I0228 14:53:48.428009 15940 layer_factory.hpp:77] Creating layer detection_out
I0228 14:53:48.428026 15940 net.cpp:100] Creating Layer detection_out
I0228 14:53:48.428036 15940 net.cpp:434] detection_out <- mbox_loc
I0228 14:53:48.428045 15940 net.cpp:434] detection_out <- mbox_conf_flatten
I0228 14:53:48.428052 15940 net.cpp:434] detection_out <- mbox_priorbox
I0228 14:53:48.428066 15940 net.cpp:408] detection_out -> detection_out
W0228 14:53:48.428103 15940 detection_output_layer.cpp:49] Failed to create directory: /home/zs/data/VOCdevkit/results/VOC2007/SSD_300x300/Main
I0228 14:53:48.429425 15940 net.cpp:150] Setting up detection_out
I0228 14:53:48.429438 15940 net.cpp:157] Top shape: 1 1 1 7 (7)
I0228 14:53:48.429443 15940 net.cpp:165] Memory required for data: 2022982108
I0228 14:53:48.429450 15940 layer_factory.hpp:77] Creating layer detection_eval
I0228 14:53:48.429461 15940 net.cpp:100] Creating Layer detection_eval
I0228 14:53:48.429469 15940 net.cpp:434] detection_eval <- detection_out
I0228 14:53:48.429476 15940 net.cpp:434] detection_eval <- label
I0228 14:53:48.429484 15940 net.cpp:408] detection_eval -> detection_eval
I0228 14:53:48.430267 15940 net.cpp:150] Setting up detection_eval
I0228 14:53:48.430284 15940 net.cpp:157] Top shape: 1 1 21 5 (105)
I0228 14:53:48.430289 15940 net.cpp:165] Memory required for data: 2022982528
I0228 14:53:48.430295 15940 net.cpp:228] detection_eval does not need backward computation.
I0228 14:53:48.430301 15940 net.cpp:228] detection_out does not need backward computation.
I0228 14:53:48.430310 15940 net.cpp:228] mbox_conf_flatten does not need backward computation.
I0228 14:53:48.430315 15940 net.cpp:228] mbox_conf_softmax does not need backward computation.
…
