…
      sampler {
        min_scale: 0.3
        max_scale: 1
        min_aspect_ratio: 0.5
        max_aspect_ratio: 2
      }
      sample_constraint {
        min_jaccard_overlap: 0.9
      }
      max_sample: 1
      max_trials: 50
    }
    batch_sampler {
      sampler {
        min_scale: 0.3
        max_scale: 1
        min_aspect_ratio: 0.5
        max_aspect_ratio: 2
      }
      sample_constraint {
        max_jaccard_overlap: 1
      }
      max_sample: 1
      max_trials: 50
    }
    label_map_file: "data/NWPU_VHR/labelmap_NWPU_VHR.prototxt"
  }
}
layer {
  name: "conv1_1"
  type: "Convolution"
  bottom: "data"
  top: "conv1_1"
  param {
    lr_mult: 1
    decay_mult: 1
  }
  param {
    lr_mult: 2
    decay_mult: 0
  }
  convolution_param {
    num_output: 64
    pad: 1
    kernel_size: 3
    weight_filler {
      type: "xavier"
    }
    bias_filler {
      type: "constant"
      value: 0
    }
  }
}
layer {
  name: "relu1_1"
  type: "ReLU"
  bottom: "conv1_1"
  top: "conv1_1"
}
layer {
  name: "conv1_2"
  type: "Convolution"
  bottom: "conv1_1"
  top: "conv1_2"
  param {
    lr_mult: 1
    decay_mult: 1
  }
  param {
    lr_mult: 2
    decay_mult: 0
  }
  convolution_param {
    num_output: 64
    pad: 1
    kernel_size: 3
    weight_filler {
      type: "xavier"
    }
    bias_filler {
      type: "constant"
      value: 0
    }
  }
}
layer {
  name: "relu1_2"
  type: "ReLU"
  bottom: "conv1_2"
  top: "conv1_2"
}
layer {
  name: "pool1"
  type: "Pooling"
  bottom: "conv1_2"
  top: "pool1"
  pooling_param {
    pool: MAX
    kernel_size: 2
    stride: 2
  }
}
layer {
  name: "conv2_1"
  type: "Convolution"
  bottom: "pool1"
  top: "conv2_1"
  param {
    lr_mult: 1
    decay_mult: 1
  }
  param {
    lr_mult: 2
    decay_mult: 0
  }
  convolution_param {
    num_output: 128
    pad: 1
    kernel_size: 3
    weight_filler {
      type: "xavier"
    }
    bias_filler {
      type: "constant"
      value: 0
    }
  }
}
layer {
  name: "relu2_1"
  type: "ReLU"
  bottom: "conv2_1"
  top: "conv2_1"
}
layer {
  name: "conv2_2"
  type: "Convolution"
  bottom: "conv2_1"
  top: "conv2_2"
  param {
    lr_mult: 1
    decay_mult: 1
  }
  param {
    lr_mult: 2
    decay_mult: 0
  }
  convolution_param {
    num_output: 128
    pad: 1
    kernel_size: 3
    weight_filler {
      type: "xavier"
    }
    bias_filler {
      type: "constant"
      value: 0
    }
  }
}
layer {
  name: "relu2_2"
  type: "ReLU"
  bottom: "conv2_2"
  top: "conv2_2"
}
layer {
  name: "pool2"
  type: "Pooling"
  bottom: "conv2_2"
  top: "pool2"
  pooling_param {
    pool: MAX
    kernel_size: 2
    stride: 2
  }
}
layer {
  name: "conv3_1"
  type: "Convolution"
  bottom: "pool2"
  top: "conv3_1"
  param {
    lr_mult: 1
    decay_mult: 1
  }
  param {
    lr_mult: 2
    decay_mult: 0
  }
  convolution_param {
    num_output: 256
    pad: 1
    kernel_size: 3
    weight_filler {
      type: "xavier"
    }
    bias_filler {
      type: "constant"
      value: 0
    }
  }
}
layer {
  name: "relu3_1"
  type: "ReLU"
  bottom: "conv3_1"
  top: "conv3_1"
}
layer {
  name: "conv3_2"
  type: "Convolution"
  bottom: "conv3_1"
  top: "conv3_2"
  param {
    lr_mult: 1
    decay_mult: 1
  }
  param {
    lr_mult: 2
    decay_mult: 0
  }
  convolution_param {
    num_output: 256
    pad: 1
    kernel_size: 3
    weight_filler {
      type: "xavier"
    }
    bias_filler {
      type: "constant"
      value: 0
    }
  }
}
layer {
  name: "relu3_2"
  type: "ReLU"
  bottom: "conv3_2"
  top: "conv3_2"
}
layer {
  name: "conv3_3"
  type: "Convolution"
  bottom: "conv3_2"
  top: "conv3_3"
  param {
    lr_mult: 1
    decay_mult: 1
  }
  param {
    lr_mult: 2
    decay_mult: 0
  }
  convolution_param {
    num_output: 256
    pad: 1
    kernel_size: 3
    weight_filler {
      type: "xavier"
    }
    bias_filler {
      type: "constant"
      value: 0
    }
  }
}
layer {
  name: "relu3_3"
  type: "ReLU"
  bottom: "conv3_3"
  top: "conv3_3"
}
layer {
  name: "pool3"
  type: "Pooling"
  bottom: "conv3_3"
  top: "pool3"
  pooling_param {
    pool: MAX
    kernel_size: 2
    stride: 2
  }
}
layer {
  name: "conv4_1_depthwise"
  type: "DepthwiseConvolution"
  bottom: "pool3"
  top: "conv4_1_3x3"
  param {
    lr_mult: 1
    decay_mult: 1
  }
  param {
    lr_mult: 2
    decay_mult: 0
  }
  convolution_param {
    num_output: 256
    pad: 1
    kernel_size: 3
    group: 256
    weight_filler {
      type: "xavier"
    }
    bias_filler {
      type: "constant"
      value: 0
    }
  }
}
layer {
  name: "conv4_1_3x3_relu"
  type: "ReLU"
  bottom: "conv4_1_3x3"
  top: "conv4_1_3x3"
}
layer {
  name: "conv4_1_1x1"
  type: "Convolution"
  bottom: "conv4_1_3x3"
  top: "conv4_1"
  param {
    lr_mult: 1
    decay_mult: 1
  }
  param {
    lr_mult: 2
    decay_mult: 0
  }
  convolution_param {
    num_output: 512
    pad: 0
    kernel_size: 1
    stride: 1
    weight_filler {
      type: "xavier"
    }
    bias_filler {
      type: "constant"
      value: 0
    }
  }
}
layer {
  name: "relu4_1"
  type: "ReLU"
  bottom: "conv4_1"
  top: "conv4_1"
}
layer {
  name: "conv4_2"
  type: "Convolution"
  bottom: "conv4_1"
  top: "conv4_2"
  param {
    lr_mult: 1
    decay_mult: 1
  }
  param {
    lr_mult: 2
    decay_mult: 0
  }
  convolution_param {
    num_output: 512
    pad: 1
    kernel_size: 3
    weight_filler {
      type: "xavier"
    }
    bias_filler {
      type: "constant"
      value: 0
    }
  }
}
layer {
  name: "relu4_2"
  type: "ReLU"
  bottom: "conv4_2"
  top: "conv4_2"
}
layer {
  name: "conv4_3"
  type: "Convolution"
  bottom: "conv4_2"
  top: "conv4_3"
  param {
    lr_mult: 1
    decay_mult: 1
  }
  param {
    lr_mult: 2
    decay_mult: 0
  }
  convolution_param {
    num_output: 512
    pad: 1
    kernel_size: 3
    weight_filler {
      type: "xavier"
    }
    bias_filler {
      type: "constant"
      value: 0
    }
  }
}
layer {
  name: "relu4_3"
  type: "ReLU"
  bottom: "conv4_3"
  top: "conv4_3"
}
layer {
  name: "pool4"
  type: "Pooling"
  bottom: "conv4_3"
  top: "pool4"
  pooling_param {
    pool: MAX
    kernel_size: 2
    stride: 2
  }
}
layer {
  name: "conv5_1_depthwise"
  type: "DepthwiseConvolution"
  bottom: "pool4"
  top: "conv5_1_3x3"
  param {
    lr_mult: 1
    decay_mult: 1
  }
  param {
    lr_mult: 2
    decay_mult: 0
  }
  convolution_param {
    num_output: 512
    pad: 1
    kernel_size: 3
    group: 512
    weight_filler {
      type: "xavier"
    }
    bias_filler {
      type: "constant"
      value: 0
    }
    dilation: 1
  }
}
layer {
  name: "conv5_1_3x3_relu"
  type: "ReLU"
  bottom: "conv5_1_3x3"
  top: "conv5_1_3x3"
}
layer {
  name: "conv5_1_1x1"
  type: "Convolution"
  bottom: "conv5_1_3x3"
  top: "conv5_1"
  param {
    lr_mult: 1
    decay_mult: 1
  }
  param {
    lr_mult: 2
    decay_mult: 0
  }
  convolution_param {
    num_output: 512
    pad: 0
    kernel_size: 1
    stride: 1
    weight_filler {
      type: "xavier"
    }
    bias_filler {
      type: "constant"
      value: 0
    }
    dilation: 1
  }
}
layer {
  name: "relu5_1"
  type: "ReLU"
  bottom: "conv5_1"
  top: "conv5_1"
}
layer {
  name: "conv5_2_depthwise"
  type: "DepthwiseConvolution"
  bottom: "conv5_1"
  top: "conv5_2_3x3"
  param {
    lr_mult: 1
    decay_mult: 1
  }
  param {
    lr_mult: 2
    decay_mult: 0
  }
  convolution_param {
    num_output: 512
    pad: 1
    kernel_size: 3
    group: 512
    weight_filler {
      type: "xavier"
    }
    bias_filler {
      type: "constant"
      value: 0
    }
    dilation: 1
  }
}
layer {
  name: "conv5_2_3x3_relu"
  type: "ReLU"
  bottom: "conv5_2_3x3"
  top: "conv5_2_3x3"
}
layer {
  name: "conv5_2_1x1"
  type: "Convolution"
  bottom: "conv5_2_3x3"
  top: "conv5_2"
  param {
    lr_mult: 1
    decay_mult: 1
  }
  param {
    lr_mult: 2
    decay_mult: 0
  }
  convolution_param {
    num_output: 512
    pad: 0
    kernel_size: 1
    stride: 1
    weight_filler {
      type: "xavier"
    }
    bias_filler {
      type: "constant"
      value: 0
    }
    dilation: 1
  }
}
layer {
  name: "relu5_2"
  type: "ReLU"
  bottom: "conv5_2"
  top: "conv5_2"
}
layer {
  name: "conv5_3_depthwise"
  type: "DepthwiseConvolution"
  bottom: "conv5_2"
  top: "conv5_3_3x3"
  param {
    lr_mult: 1
    decay_mult: 1
  }
  param {
    lr_mult: 2
    decay_mult: 0
  }
  convolution_param {
    num_output: 512
    pad: 1
    kernel_size: 3
    group: 512
    weight_filler {
      type: "xavier"
    }
    bias_filler {
      type: "constant"
      value: 0
    }
    dilation: 1
  }
}
layer {
  name: "conv5_3_3x3_relu"
  type: "ReLU"
  bottom: "conv5_3_3x3"
  top: "conv5_3_3x3"
}
layer {
  name: "conv5_3_1x1"
  type: "Convolution"
  bottom: "conv5_3_3x3"
  top: "conv5_3"
  param {
    lr_mult: 1
    decay_mult: 1
  }
  param {
    lr_mult: 2
    decay_mult: 0
  }
  convolution_param {
    num_output: 512
    pad: 0
    kernel_size: 1
    stride: 1
    weight_filler {
      type: "xavier"
    }
    bias_filler {
      type: "constant"
      value: 0
    }
    dilation: 1
  }
}
layer {
  name: "relu5_3"
  type: "ReLU"
  bottom: "conv5_3"
  top: "conv5_3"
}
layer {
  name: "pool5"
  type: "Pooling"
  bottom: "conv5_3"
  top: "pool5"
  pooling_param {
    pool: MAX
    kernel_size: 3
    stride: 1
    pad: 1
  }
}
layer {
  name: "fc6_depthwise"
  type: "DepthwiseConvolution"
  bottom: "pool5"
  top: "fc6_3x3"
  param {
    lr_mult: 1
    decay_mult: 1
  }
  param {
    lr_mult: 2
    decay_mult: 0
  }
  convolution_param {
    num_output: 512
    pad: 6
    kernel_size: 3
    group: 512
    weight_filler {
      type: "xavier"
    }
    bias_filler {
      type: "constant"
      value: 0
    }
    dilation: 6
  }
}
layer {
  name: "fc6_3x3_relu"
  type: "ReLU"
  bottom: "fc6_3x3"
  top: "fc6_3x3"
}
layer {
  name: "fc6_1x1"
  type: "Convolution"
  bottom: "fc6_3x3"
  top: "fc6"
  param {
    lr_mult: 1
    decay_mult: 1
  }
  param {
    lr_mult: 2
    decay_mult: 0
  }
  convolution_param {
    num_output: 1024
    pad: 0
    kernel_size: 1
    stride: 1
    weight_filler {
      type: "xavier"
    }
    bias_filler {
      type: "constant"
      value: 0
    }
    dilation: 6
  }
}
layer {
  name: "relu6"
  type: "ReLU"
  bottom: "fc6"
  top: "fc6"
}
layer {
  name: "fc7"
  type: "Convolution"
  bottom: "fc6"
  top: "fc7"
  param {
    lr_mult: 1
    decay_mult: 1
  }
  param {
    lr_mult: 2
    decay_mult: 0
  }
  convolution_param {
    num_output: 1024
    kernel_size: 1
    weight_filler {
      type: "xavier"
    }
    bias_filler {
      type: "constant"
      value: 0
    }
  }
}
layer {
  name: "relu7"
  type: "ReLU"
  bottom: "fc7"
  top: "fc7"
}
layer {
  name: "conv6_1"
  type: "Convolution"
  bottom: "fc7"
  top: "conv6_1"
  param {
    lr_mult: 1
    decay_mult: 1
  }
  param {
    lr_mult: 2
    decay_mult: 0
  }
  convolution_param {
    num_output: 256
    pad: 0
    kernel_size: 1
    stride: 1
    weight_filler {
      type: "xavier"
    }
    bias_filler {
      type: "constant"
      value: 0
    }
  }
}
layer {
  name: "conv6_1_relu"
  type: "ReLU"
  bottom: "conv6_1"
  top: "conv6_1"
}
layer {
  name: "conv6_2_depthwise"
  type: "DepthwiseConvolution"
  bottom: "conv6_1"
  top: "conv6_2_3x3"
  param {
    lr_mult: 1
    decay_mult: 1
  }
  param {
    lr_mult: 2
    decay_mult: 0
  }
  convolution_param {
    num_output: 256
    pad: 1
    kernel_size: 3
    group: 256
    stride: 2
    weight_filler {
      type: "xavier"
    }
    bias_filler {
      type: "constant"
      value: 0
    }
  }
}
layer {
  name: "conv6_2_3x3_relu"
  type: "ReLU"
  bottom: "conv6_2_3x3"
  top: "conv6_2_3x3"
}
layer {
  name: "conv6_2_1x1"
  type: "Convolution"
  bottom: "conv6_2_3x3"
  top: "conv6_2"
  param {
    lr_mult: 1
    decay_mult: 1
  }
  param {
    lr_mult: 2
    decay_mult: 0
  }
  convolution_param {
    num_output: 512
    pad: 0
    kernel_size: 1
    stride: 1
    weight_filler {
      type: "xavier"
    }
    bias_filler {
      type: "constant"
      value: 0
    }
  }
}
layer {
  name: "conv6_2_relu"
  type: "ReLU"
  bottom: "conv6_2"
  top: "conv6_2"
}
layer {
  name: "conv7_1"
  type: "Convolution"
  bottom: "conv6_2"
  top: "conv7_1"
  param {
    lr_mult: 1
    decay_mult: 1
  }
  param {
    lr_mult: 2
    decay_mult: 0
  }
  convolution_param {
    num_output: 128
    pad: 0
    kernel_size: 1
    stride: 1
    weight_filler {
      type: "xavier"
    }
    bias_filler {
      type: "constant"
      value: 0
    }
  }
}
layer {
  name: "conv7_1_relu"
  type: "ReLU"
  bottom: "conv7_1"
  top: "conv7_1"
}
layer {
  name: "conv7_2"
  type: "Convolution"
  bottom: "conv7_1"
  top: "conv7_2"
  param {
    lr_mult: 1
    decay_mult: 1
  }
  param {
    lr_mult: 2
    decay_mult: 0
  }
  convolution_param {
    num_output: 256
    pad: 1
    kernel_size: 3
    stride: 2
    weight_filler {
      type: "xavier"
    }
    bias_filler {
      type: "constant"
      value: 0
    }
  }
}
layer {
  name: "conv7_2_relu"
  type: "ReLU"
  bottom: "conv7_2"
  top: "conv7_2"
}
layer {
  name: "conv8_1"
  type: "Convolution"
  bottom: "conv7_2"
  top: "conv8_1"
  param {
    lr_mult: 1
    decay_mult: 1
  }
  param {
    lr_mult: 2
    decay_mult: 0
  }
  convolution_param {
    num_output: 128
    pad: 0
    kernel_size: 1
    stride: 1
    weight_filler {
      type: "xavier"
    }
    bias_filler {
      type: "constant"
      value: 0
    }
  }
}
layer {
  name: "conv8_1_relu"
  type: "ReLU"
  bottom: "conv8_1"
  top: "conv8_1"
}
layer {
  name: "conv8_2"
  type: "Convolution"
  bottom: "conv8_1"
  top: "conv8_2"
  param {
    lr_mult: 1
    decay_mult: 1
  }
  param {
    lr_mult: 2
    decay_mult: 0
  }
  convolution_param {
    num_output: 256
    pad: 0
    kernel_size: 3
    stride: 1
    weight_filler {
      type: "xavier"
    }
    bias_filler {
      type: "constant"
      value: 0
    }
  }
}
layer {
  name: "conv8_2_relu"
  type: "ReLU"
  bottom: "conv8_2"
  top: "conv8_2"
}
layer {
  name: "conv9_1"
  type: "Convolution"
  bottom: "conv8_2"
  top: "conv9_1"
  param {
    lr_mult: 1
    decay_mult: 1
  }
  param {
    lr_mult: 2
    decay_mult: 0
  }
  convolution_param {
    num_output: 128
    pad: 0
    kernel_size: 1
    stride: 1
    weight_filler {
      type: "xavier"
    }
    bias_filler {
      type: "constant"
      value: 0
    }
  }
}
layer {
  name: "conv9_1_relu"
  type: "ReLU"
  bottom: "conv9_1"
  top: "conv9_1"
}
layer {
  name: "conv9_2"
  type: "Convolution"
  bottom: "conv9_1"
  top: "conv9_2"
  param {
    lr_mult: 1
    decay_mult: 1
  }
  param {
    lr_mult: 2
    decay_mult: 0
  }
  convolution_param {
    num_output: 256
    pad: 0
    kernel_size: 3
    stride: 1
    weight_filler {
      type: "xavier"
    }
    bias_filler {
      type: "constant"
      value: 0
    }
  }
}
layer {
  name: "conv9_2_relu"
  type: "ReLU"
  bottom: "conv9_2"
  top: "conv9_2"
}
layer {
  name: "conv4_3_norm"
  type: "Normalize"
  bottom: "conv4_3"
  top: "conv4_3_norm"
  norm_param {
    across_spatial: false
    scale_filler {
      type: "constant"
      value: 20
    }
    channel_shared: false
  }
}
layer {
  name: "conv4_3_norm_mbox_loc"
  type: "Convolution"
  bottom: "conv4_3_norm"
  top: "conv4_3_norm_mbox_loc"
  param {
    lr_mult: 1
    decay_mult: 1
  }
  param {
    lr_mult: 2
    decay_mult: 0
  }
  convolution_param {
    num_output: 16
    pad: 1
    kernel_size: 3
    stride: 1
    weight_filler {
      type: "xavier"
    }
    bias_filler {
      type: "constant"
      value: 0
    }
  }
}
layer {
  name: "conv4_3_norm_mbox_loc_perm"
  type: "Permute"
  bottom: "conv4_3_norm_mbox_loc"
  top: "conv4_3_norm_mbox_loc_perm"
  permute_param {
    order: 0
    order: 2
    order: 3
    order: 1
  }
}
layer {
  name: "conv4_3_norm_mbox_loc_flat"
  type: "Flatten"
  bottom: "conv4_3_norm_mbox_loc_perm"
  top: "conv4_3_norm_mbox_loc_flat"
  flatten_param {
    axis: 1
  }
}
layer {
  name: "conv4_3_norm_mbox_conf"
  type: "Convolution"
  bottom: "conv4_3_norm"
  top: "conv4_3_norm_mbox_conf"
  param {
    lr_mult: 1
    decay_mult: 1
  }
  param {
    lr_mult: 2
    decay_mult: 0
  }
  convolution_param {
    num_output: 44
    pad: 1
    kernel_size: 3
    stride: 1
    weight_filler {
      type: "xavier"
    }
    bias_filler {
      type: "constant"
      value: 0
    }
  }
}
layer {
  name: "conv4_3_norm_mbox_conf_perm"
  type: "Permute"
  bottom: "conv4_3_norm_mbox_conf"
  top: "conv4_3_norm_mbox_conf_perm"
  permute_param {
    order: 0
    order: 2
    order: 3
    order: 1
  }
}
layer {
  name: "conv4_3_norm_mbox_conf_flat"
  type: "Flatten"
  bottom: "conv4_3_norm_mbox_conf_perm"
  top: "conv4_3_norm_mbox_conf_flat"
  flatten_param {
    axis: 1
  }
}
layer {
  name: "conv4_3_norm_mbox_priorbox"
  type: "PriorBox"
  bottom: "conv4_3_norm"
  bottom: "data"
  top: "conv4_3_norm_mbox_priorbox"
  prior_box_param {
    min_size: 30
    max_size: 60
    aspect_ratio: 2
    flip: true
    clip: false
    variance: 0.1
    variance: 0.1
    variance: 0.2
    variance: 0.2
    step: 8
    offset: 0.5
  }
}
layer {
  name: "fc7_mbox_loc"
  type: "Convolution"
  bottom: "fc7"
  top: "fc7_mbox_loc"
  param {
    lr_mult: 1
    decay_mult: 1
  }
  param {
    lr_mult: 2
    decay_mult: 0
  }
  convolution_param {
    num_output: 24
    pad: 1
    kernel_size: 3
    stride: 1
    weight_filler {
      type: "xavier"
    }
    bias_filler {
      type: "constant"
      value: 0
    }
  }
}
layer {
  name: "fc7_mbox_loc_perm"
  type: "Permute"
  bottom: "fc7_mbox_loc"
  top: "fc7_mbox_loc_perm"
  permute_param {
    order: 0
    order: 2
    order: 3
    order: 1
  }
}
layer {
  name: "fc7_mbox_loc_flat"
  type: "Flatten"
  bottom: "fc7_mbox_loc_perm"
  top: "fc7_mbox_loc_flat"
  flatten_param {
    axis: 1
  }
}
layer {
  name: "fc7_mbox_conf"
  type: "Convolution"
  bottom: "fc7"
  top: "fc7_mbox_conf"
  param {
    lr_mult: 1
    decay_mult: 1
  }
  param {
    lr_mult: 2
    decay_mult: 0
  }
  convolution_param {
    num_output: 66
    pad: 1
    kernel_size: 3
    stride: 1
    weight_filler {
      type: "xavier"
    }
    bias_filler {
      type: "constant"
      value: 0
    }
  }
}
layer {
  name: "fc7_mbox_conf_perm"
  type: "Permute"
  bottom: "fc7_mbox_conf"
  top: "fc7_mbox_conf_perm"
  permute_param {
    order: 0
    order: 2
    order: 3
    order: 1
  }
}
layer {
  name: "fc7_mbox_conf_flat"
  type: "Flatten"
  bottom: "fc7_mbox_conf_perm"
  top: "fc7_mbox_conf_flat"
  flatten_param {
    axis: 1
  }
}
layer {
  name: "fc7_mbox_priorbox"
  type: "PriorBox"
  bottom: "fc7"
  bottom: "data"
  top: "fc7_mbox_priorbox"
  prior_box_param {
    min_size: 60
    max_size: 111
    aspect_ratio: 2
    aspect_ratio: 3
    flip: true
    clip: false
    variance: 0.1
    variance: 0.1
    variance: 0.2
    variance: 0.2
    step: 16
    offset: 0.5
  }
}
layer {
  name: "conv6_2_mbox_loc"
  type: "Convolution"
  bottom: "conv6_2"
  top: "conv6_2_mbox_loc"
  param {
    lr_mult: 1
    decay_mult: 1
  }
  param {
    lr_mult: 2
    decay_mult: 0
  }
  convolution_param {
    num_output: 24
    pad: 1
    kernel_size: 3
    stride: 1
    weight_filler {
      type: "xavier"
    }
    bias_filler {
      type: "constant"
      value: 0
    }
  }
}
layer {
  name: "conv6_2_mbox_loc_perm"
  type: "Permute"
  bottom: "conv6_2_mbox_loc"
  top: "conv6_2_mbox_loc_perm"
  permute_param {
    order: 0
    order: 2
    order: 3
    order: 1
  }
}
layer {
  name: "conv6_2_mbox_loc_flat"
  type: "Flatten"
  bottom: "conv6_2_mbox_loc_perm"
  top: "conv6_2_mbox_loc_flat"
  flatten_param {
    axis: 1
  }
}
layer {
  name: "conv6_2_mbox_conf"
  type: "Convolution"
  bottom: "conv6_2"
  top: "conv6_2_mbox_conf"
  param {
    lr_mult: 1
    decay_mult: 1
  }
  param {
    lr_mult: 2
    decay_mult: 0
  }
  convolution_param {
    num_output: 66
    pad: 1
    kernel_size: 3
    stride: 1
    weight_filler {
      type: "xavier"
    }
    bias_filler {
      type: "constant"
      value: 0
    }
  }
}
layer {
  name: "conv6_2_mbox_conf_perm"
  type: "Permute"
  bottom: "conv6_2_mbox_conf"
  top: "conv6_2_mbox_conf_perm"
  permute_param {
    order: 0
    order: 2
    order: 3
    order: 1
  }
}
layer {
  name: "conv6_2_mbox_conf_flat"
  type: "Flatten"
  bottom: "conv6_2_mbox_conf_perm"
  top: "conv6_2_mbox_conf_flat"
  flatten_param {
    axis: 1
  }
}
layer {
  name: "conv6_2_mbox_priorbox"
  type: "PriorBox"
  bottom: "conv6_2"
  bottom: "data"
  top: "conv6_2_mbox_priorbox"
  prior_box_param {
    min_size: 111
    max_size: 162
    aspect_ratio: 2
    aspect_ratio: 3
    flip: true
    clip: false
    variance: 0.1
    variance: 0.1
    variance: 0.2
    variance: 0.2
    step: 32
    offset: 0.5
  }
}
layer {
  name: "conv7_2_mbox_loc"
  type: "Convolution"
  bottom: "conv7_2"
  top: "conv7_2_mbox_loc"
  param {
    lr_mult: 1
    decay_mult: 1
  }
  param {
    lr_mult: 2
    decay_mult: 0
  }
  convolution_param {
    num_output: 24
    pad: 1
    kernel_size: 3
    stride: 1
    weight_filler {
      type: "xavier"
    }
    bias_filler {
      type: "constant"
      value: 0
    }
  }
}
layer {
  name: "conv7_2_mbox_loc_perm"
  type: "Permute"
  bottom: "conv7_2_mbox_loc"
  top: "conv7_2_mbox_loc_perm"
  permute_param {
    order: 0
    order: 2
    order: 3
    order: 1
  }
}
layer {
  name: "conv7_2_mbox_loc_flat"
  type: "Flatten"
  bottom: "conv7_2_mbox_loc_perm"
  top: "conv7_2_mbox_loc_flat"
  flatten_param {
    axis: 1
  }
}
layer {
  name: "conv7_2_mbox_conf"
  type: "Convolution"
  bottom: "conv7_2"
  top: "conv7_2_mbox_conf"
  param {
    lr_mult: 1
    decay_mult: 1
  }
  param {
    lr_mult: 2
    decay_mult: 0
  }
  convolution_param {
    num_output: 66
    pad: 1
    kernel_size: 3
    stride: 1
    weight_filler {
      type: "xavier"
    }
    bias_filler {
      type: "constant"
      value: 0
    }
  }
}
layer {
  name: "conv7_2_mbox_conf_perm"
  type: "Permute"
  bottom: "conv7_2_mbox_conf"
  top: "conv7_2_mbox_conf_perm"
  permute_param {
    order: 0
    order: 2
    order: 3
    order: 1
  }
}
layer {
  name: "conv7_2_mbox_conf_flat"
  type: "Flatten"
  bottom: "conv7_2_mbox_conf_perm"
  top: "conv7_2_mbox_conf_flat"
  flatten_param {
    axis: 1
  }
}
layer {
  name: "conv7_2_mbox_priorbox"
  type: "PriorBox"
  bottom: "conv7_2"
  bottom: "data"
  top: "conv7_2_mbox_priorbox"
  prior_box_param {
    min_size: 162
    max_size: 213
    aspect_ratio: 2
    aspect_ratio: 3
    flip: true
    clip: false
    variance: 0.1
    variance: 0.1
    variance: 0.2
    variance: 0.2
    step: 64
    offset: 0.5
  }
}
layer {
  name: "conv8_2_mbox_loc"
  type: "Convolution"
  bottom: "conv8_2"
  top: "conv8_2_mbox_loc"
  param {
    lr_mult: 1
    decay_mult: 1
  }
  param {
    lr_mult: 2
    decay_mult: 0
  }
  convolution_param {
    num_output: 16
    pad: 1
    kernel_size: 3
    stride: 1
    weight_filler {
      type: "xavier"
    }
    bias_filler {
      type: "constant"
      value: 0
    }
  }
}
layer {
  name: "conv8_2_mbox_loc_perm"
  type: "Permute"
  bottom: "conv8_2_mbox_loc"
  top: "conv8_2_mbox_loc_perm"
  permute_param {
    order: 0
    order: 2
    order: 3
    order: 1
  }
}
layer {
  name: "conv8_2_mbox_loc_flat"
  type: "Flatten"
  bottom: "conv8_2_mbox_loc_perm"
  top: "conv8_2_mbox_loc_flat"
  flatten_param {
    axis: 1
  }
}
layer {
  name: "conv8_2_mbox_conf"
  type: "Convolution"
  bottom: "conv8_2"
  top: "conv8_2_mbox_conf"
  param {
    lr_mult: 1
    decay_mult: 1
  }
  param {
    lr_mult: 2
    decay_mult: 0
  }
  convolution_param {
    num_output: 44
    pad: 1
    kernel_size: 3
    stride: 1
    weight_filler {
      type: "xavier"
    }
    bias_filler {
      type: "constant"
      value: 0
    }
  }
}
layer {
  name: "conv8_2_mbox_conf_perm"
  type: "Permute"
  bottom: "conv8_2_mbox_conf"
  top: "conv8_2_mbox_conf_perm"
  permute_param {
    order: 0
    order: 2
    order: 3
    order: 1
  }
}
layer {
  name: "conv8_2_mbox_conf_flat"
  type: "Flatten"
  bottom: "conv8_2_mbox_conf_perm"
  top: "conv8_2_mbox_conf_flat"
  flatten_param {
    axis: 1
  }
}
layer {
  name: "conv8_2_mbox_priorbox"
  type: "PriorBox"
  bottom: "conv8_2"
  bottom: "data"
  top: "conv8_2_mbox_priorbox"
  prior_box_param {
    min_size: 213
    max_size: 264
    aspect_ratio: 2
    flip: true
    clip: false
    variance: 0.1
    variance: 0.1
    variance: 0.2
    variance: 0.2
    step: 100
    offset: 0.5
  }
}
layer {
  name: "conv9_2_mbox_loc"
  type: "Convolution"
  bottom: "conv9_2"
  top: "conv9_2_mbox_loc"
  param {
    lr_mult: 1
    decay_mult: 1
  }
  param {
    lr_mult: 2
    decay_mult: 0
  }
  convolution_param {
    num_output: 16
    pad: 1
    kernel_size: 3
    stride: 1
    weight_filler {
      type: "xavier"
    }
    bias_filler {
      type: "constant"
      value: 0
    }
  }
}
layer {
  name: "conv9_2_mbox_loc_perm"
  type: "Permute"
  bottom: "conv9_2_mbox_loc"
  top: "conv9_2_mbox_loc_perm"
  permute_param {
    order: 0
    order: 2
    order: 3
    order: 1
  }
}
layer {
  name: "conv9_2_mbox_loc_flat"
  type: "Flatten"
  bottom: "conv9_2_mbox_loc_perm"
  top: "conv9_2_mbox_loc_flat"
  flatten_param {
    axis: 1
  }
}
layer {
  name: "conv9_2_mbox_conf"
  type: "Convolution"
  bottom: "conv9_2"
  top: "conv9_2_mbox_conf"
  param {
    lr_mult: 1
    decay_mult: 1
  }
  param {
    lr_mult: 2
    decay_mult: 0
  }
  convolution_param {
    num_output: 44
    pad: 1
    kernel_size: 3
    stride: 1
    weight_filler {
      type: "xavier"
    }
    bias_filler {
      type: "constant"
      value: 0
    }
  }
}
layer {
  name: "conv9_2_mbox_conf_perm"
  type: "Permute"
  bottom: "conv9_2_mbox_conf"
  top: "conv9_2_mbox_conf_perm"
  permute_param {
    order: 0
    order: 2
    order: 3
    order: 1
  }
}
layer {
  name: "conv9_2_mbox_conf_flat"
  type: "Flatten"
  bottom: "conv9_2_mbox_conf_perm"
  top: "conv9_2_mbox_conf_flat"
  flatten_param {
    axis: 1
  }
}
layer {
  name: "conv9_2_mbox_priorbox"
  type: "PriorBox"
  bottom: "conv9_2"
  bottom: "data"
  top: "conv9_2_mbox_priorbox"
  prior_box_param {
    min_size: 264
    max_size: 315
    aspect_ratio: 2
    flip: true
    clip: false
    variance: 0.1
    variance: 0.1
    variance: 0.2
    variance: 0.2
    step: 300
    offset: 0.5
  }
}
layer {
  name: "mbox_loc"
  type: "Concat"
  bottom: "conv4_3_norm_mbox_loc_flat"
  bottom: "fc7_mbox_loc_flat"
  bottom: "conv6_2_mbox_loc_flat"
  bottom: "conv7_2_mbox_loc_flat"
  bottom: "conv8_2_mbox_loc_flat"
  bottom: "conv9_2_mbox_loc_flat"
  top: "mbox_loc"
  concat_param {
    axis: 1
  }
}
layer {
  name: "mbox_conf"
  type: "Concat"
  bottom: "conv4_3_norm_mbox_conf_flat"
  bottom: "fc7_mbox_conf_flat"
  bottom: "conv6_2_mbox_conf_flat"
  bottom: "conv7_2_mbox_conf_flat"
  bottom: "conv8_2_mbox_conf_flat"
  bottom: "conv9_2_mbox_conf_flat"
  top: "mbox_conf"
  concat_param {
    axis: 1
  }
}
layer {
  name: "mbox_priorbox"
  type: "Concat"
  bottom: "conv4_3_norm_mbox_priorbox"
  bottom: "fc7_mbox_priorbox"
  bottom: "conv6_2_mbox_priorbox"
  bottom: "conv7_2_mbox_priorbox"
  bottom: "conv8_2_mbox_priorbox"
  bottom: "conv9_2_mbox_priorbox"
  top: "mbox_priorbox"
  concat_param {
    axis: 2
  }
}
layer {
  name: "mbox_loss"
  type: "MultiBoxLoss"
  bottom: "mbox_loc"
  bottom: "mbox_conf"
  bottom: "mbox_priorbox"
  bottom: "label"
  top: "mbox_loss"
  include {
    phase: TRAIN
  }
  propagate_down: true
  propagate_down: true
  propagate_down: false
  propagate_down: false
  loss_param {
    normalization: VALID
  }
  multibox_loss_param {
    loc_loss_type: SMOOTH_L1
    conf_loss_type: SOFTMAX
    loc_weight: 1
    num_classes: 11
    share_location: true
    match_type: PER_PREDICTION
    overlap_threshold: 0.5
    use_prior_for_matching: true
    background_label_id: 0
    use_difficult_gt: true
    neg_pos_ratio: 3
    neg_overlap: 0.5
    code_type: CENTER_SIZE
    ignore_cross_boundary_bbox: false
    mining_type: MAX_NEGATIVE
  }
}
I0615 20:34:31.057140 19289 layer_factory.hpp:77] Creating layer data
I0615 20:34:31.057647 19289 net.cpp:100] Creating Layer data
I0615 20:34:31.057664 19289 net.cpp:408] data -> data
I0615 20:34:31.057703 19289 net.cpp:408] data -> label
I0615 20:34:31.058599 19294 db_lmdb.cpp:35] Opened lmdb examples/NWPU_VHR/NWPU_VHR_trainval_lmdb
I0615 20:34:31.080962 19289 annotated_data_layer.cpp:62] output data size: 32,3,300,300
I0615 20:34:31.124599 19289 net.cpp:150] Setting up data
I0615 20:34:31.124641 19289 net.cpp:157] Top shape: 32 3 300 300 (8640000)
I0615 20:34:31.124648 19289 net.cpp:157] Top shape: 1 1 4 8 (32)
I0615 20:34:31.124651 19289 net.cpp:165] Memory required for data: 34560128
I0615 20:34:31.124665 19289 layer_factory.hpp:77] Creating layer data_data_0_split
I0615 20:34:31.124683 19289 net.cpp:100] Creating Layer data_data_0_split
I0615 20:34:31.124692 19289 net.cpp:434] data_data_0_split <- data
I0615 20:34:31.124709 19289 net.cpp:408] data_data_0_split -> data_data_0_split_0
I0615 20:34:31.124722 19289 net.cpp:408] data_data_0_split -> data_data_0_split_1
I0615 20:34:31.124729 19289 net.cpp:408] data_data_0_split -> data_data_0_split_2
I0615 20:34:31.124737 19289 net.cpp:408] data_data_0_split -> data_data_0_split_3
I0615 20:34:31.124743 19289 net.cpp:408] data_data_0_split -> data_data_0_split_4
I0615 20:34:31.124750 19289 net.cpp:408] data_data_0_split -> data_data_0_split_5
I0615 20:34:31.124756 19289 net.cpp:408] data_data_0_split -> data_data_0_split_6
I0615 20:34:31.124856 19289 net.cpp:150] Setting up data_data_0_split
I0615 20:34:31.124864 19289 net.cpp:157] Top shape: 32 3 300 300 (8640000)
I0615 20:34:31.124868 19289 net.cpp:157] Top shape: 32 3 300 300 (8640000)
I0615 20:34:31.124873 19289 net.cpp:157] Top shape: 32 3 300 300 (8640000)
I0615 20:34:31.124878 19289 net.cpp:157] Top shape: 32 3 300 300 (8640000)
I0615 20:34:31.124907 19289 net.cpp:157] Top shape: 32 3 300 300 (8640000)
I0615 20:34:31.124912 19289 net.cpp:157] Top shape: 32 3 300 300 (8640000)
I0615 20:34:31.124915 19289 net.cpp:157] Top shape: 32 3 300 300 (8640000)
I0615 20:34:31.124919 19289 net.cpp:165] Memory required for data: 276480128
I0615 20:34:31.124924 19289 layer_factory.hpp:77] Creating layer conv1_1
I0615 20:34:31.124944 19289 net.cpp:100] Creating Layer conv1_1
I0615 20:34:31.124950 19289 net.cpp:434] conv1_1 <- data_data_0_split_0
I0615 20:34:31.124960 19289 net.cpp:408] conv1_1 -> conv1_1
I0615 20:34:31.760637 19289 net.cpp:150] Setting up conv1_1
I0615 20:34:31.760673 19289 net.cpp:157] Top shape: 32 64 300 300 (184320000)
I0615 20:34:31.760676 19289 net.cpp:165] Memory required for data: 1013760128
I0615 20:34:31.760699 19289 layer_factory.hpp:77] Creating layer relu1_1
I0615 20:34:31.760710 19289 net.cpp:100] Creating Layer relu1_1
I0615 20:34:31.760715 19289 net.cpp:434] relu1_1 <- conv1_1
I0615 20:34:31.760722 19289 net.cpp:395] relu1_1 -> conv1_1 (in-place)
I0615 20:34:31.760788 19289 net.cpp:150] Setting up relu1_1
I0615 20:34:31.760798 19289 net.cpp:157] Top shape: 32 64 300 300 (184320000)
I0615 20:34:31.760802 19289 net.cpp:165] Memory required for data: 1751040128
I0615 20:34:31.760805 19289 layer_factory.hpp:77] Creating layer conv1_2
I0615 20:34:31.760819 19289 net.cpp:100] Creating Layer conv1_2
I0615 20:34:31.760823 19289 net.cpp:434] conv1_2 <- conv1_1
I0615 20:34:31.760828 19289 net.cpp:408] conv1_2 -> conv1_2
I0615 20:34:31.761838 19289 net.cpp:150] Setting up conv1_2
I0615 20:34:31.761864 19289 net.cpp:157] Top shape: 32 64 300 300 (184320000)
I0615 20:34:31.761868 19289 net.cpp:165] Memory required for data: 2488320128
I0615 20:34:31.761881 19289 layer_factory.hpp:77] Creating layer relu1_2
I0615 20:34:31.761890 19289 net.cpp:100] Creating Layer relu1_2
I0615 20:34:31.761896 19289 net.cpp:434] relu1_2 <- conv1_2
I0615 20:34:31.761904 19289 net.cpp:395] relu1_2 -> conv1_2 (in-place)
I0615 20:34:31.762063 19289 net.cpp:150] Setting up relu1_2
I0615 20:34:31.762073 19289 net.cpp:157] Top shape: 32 64 300 300 (184320000)
I0615 20:34:31.762079 19289 net.cpp:165] Memory required for data: 3225600128
I0615 20:34:31.762082 19289 layer_factory.hpp:77] Creating layer pool1
I0615 20:34:31.762090 19289 net.cpp:100] Creating Layer pool1
I0615 20:34:31.762095 19289 net.cpp:434] pool1 <- conv1_2
I0615 20:34:31.762101 19289 net.cpp:408] pool1 -> pool1
I0615 20:34:31.762148 19289 net.cpp:150] Setting up pool1
I0615 20:34:31.762154 19289 net.cpp:157] Top shape: 32 64 150 150 (46080000)
I0615 20:34:31.762158 19289 net.cpp:165] Memory required for data: 3409920128
I0615 20:34:31.762162 19289 layer_factory.hpp:77] Creating layer conv2_1
I0615 20:34:31.762173 19289 net.cpp:100] Creating Layer conv2_1
I0615 20:34:31.762177 19289 net.cpp:434] conv2_1 <- pool1
I0615 20:34:31.762182 19289 net.cpp:408] conv2_1 -> conv2_1
I0615 20:34:31.763134 19289 net.cpp:150] Setting up conv2_1
I0615 20:34:31.763161 19289 net.cpp:157] Top shape: 32 128 150 150 (92160000)
I0615 20:34:31.763168 19289 net.cpp:165] Memory required for data: 3778560128
I0615 20:34:31.763181 19289 layer_factory.hpp:77] Creating layer relu2_1
I0615 20:34:31.763193 19289 net.cpp:100] Creating Layer relu2_1
I0615 20:34:31.763198 19289 net.cpp:434] relu2_1 <- conv2_1
I0615 20:34:31.763206 19289 net.cpp:395] relu2_1 -> conv2_1 (in-place)
I0615 20:34:31.763267 19289 net.cpp:150] Setting up relu2_1
I0615 20:34:31.763275 19289 net.cpp:157] Top shape: 32 128 150 150 (92160000)
I0615 20:34:31.763279 19289 net.cpp:165] Memory required for data: 4147200128
I0615 20:34:31.763283 19289 layer_factory.hpp:77] Creating layer conv2_2
I0615 20:34:31.763293 19289 net.cpp:100] Creating Layer conv2_2
I0615 20:34:31.763298 19289 net.cpp:434] conv2_2 <- conv2_1
I0615 20:34:31.763303 19289 net.cpp:408] conv2_2 -> conv2_2
I0615 20:34:31.765759 19289 net.cpp:150] Setting up conv2_2
I0615 20:34:31.765789 19289 net.cpp:157] Top shape: 32 128 150 150 (92160000)
I0615 20:34:31.765794 19289 net.cpp:165] Memory required for data: 4515840128
I0615 20:34:31.765832 19289 layer_factory.hpp:77] Creating layer relu2_2
I0615 20:34:31.765844 19289 net.cpp:100] Creating Layer relu2_2
I0615 20:34:31.765851 19289 net.cpp:434] relu2_2 <- conv2_2
I0615 20:34:31.765858 19289 net.cpp:395] relu2_2 -> conv2_2 (in-place)
I0615 20:34:31.766018 19289 net.cpp:150] Setting up relu2_2
I0615 20:34:31.766029 19289 net.cpp:157] Top shape: 32 128 150 150 (92160000)
I0615 20:34:31.766033 19289 net.cpp:165] Memory required for data: 4884480128
I0615 20:34:31.766047 19289 layer_factory.hpp:77] Creating layer pool2
I0615 20:34:31.766055 19289 net.cpp:100] Creating Layer pool2
I0615 20:34:31.766059 19289 net.cpp:434] pool2 <- conv2_2
I0615 20:34:31.766065 19289 net.cpp:408] pool2 -> pool2
I0615 20:34:31.766099 19289 net.cpp:150] Setting up pool2
I0615 20:34:31.766104 19289 net.cpp:157] Top shape: 32 128 75 75 (23040000)
I0615 20:34:31.766108 19289 net.cpp:165] Memory required for data: 4976640128
I0615 20:34:31.766113 19289 layer_factory.hpp:77] Creating layer conv3_1
I0615 20:34:31.766124 19289 net.cpp:100] Creating Layer conv3_1
I0615 20:34:31.766127 19289 net.cpp:434] conv3_1 <- pool2
I0615 20:34:31.766132 19289 net.cpp:408] conv3_1 -> conv3_1
I0615 20:34:31.768733 19289 net.cpp:150] Setting up conv3_1
I0615 20:34:31.768767 19289 net.cpp:157] Top shape: 32 256 75 75 (46080000)
I0615 20:34:31.768771 19289 net.cpp:165] Memory required for data: 5160960128
I0615 20:34:31.768786 19289 layer_factory.hpp:77] Creating layer relu3_1
I0615 20:34:31.768797 19289 net.cpp:100] Creating Layer relu3_1
I0615 20:34:31.768803 19289 net.cpp:434] relu3_1 <- conv3_1
I0615 20:34:31.768810 19289 net.cpp:395] relu3_1 -> conv3_1 (in-place)
I0615 20:34:31.768873 19289 net.cpp:150] Setting up relu3_1
I0615 20:34:31.768882 19289 net.cpp:157] Top shape: 32 256 75 75 (46080000)
I0615 20:34:31.768887 19289 net.cpp:165] Memory required for data: 5345280128
I0615 20:34:31.768890 19289 layer_factory.hpp:77] Creating layer conv3_2
I0615 20:34:31.768901 19289 net.cpp:100] Creating Layer conv3_2
I0615 20:34:31.768905 19289 net.cpp:434] conv3_2 <- conv3_1
I0615 20:34:31.768913 19289 net.cpp:408] conv3_2 -> conv3_2
I0615 20:34:31.772958 19289 net.cpp:150] Setting up conv3_2
I0615 20:34:31.772992 19289 net.cpp:157] Top shape: 32 256 75 75 (46080000)
I0615 20:34:31.772996 19289 net.cpp:165] Memory required for data: 5529600128
I0615 20:34:31.773007 19289 layer_factory.hpp:77] Creating layer relu3_2
I0615 20:34:31.773020 19289 net.cpp:100] Creating Layer relu3_2
I0615 20:34:31.773025 19289 net.cpp:434] relu3_2 <- conv3_2
I0615 20:34:31.773031 19289 net.cpp:395] relu3_2 -> conv3_2 (in-place)
I0615 20:34:31.773192 19289 net.cpp:150] Setting up relu3_2
I0615 20:34:31.773203 19289 net.cpp:157] Top shape: 32 256 75 75 (46080000)
I0615 20:34:31.773207 19289 net.cpp:165] Memory required for data: 5713920128
I0615 20:34:31.773211 19289 layer_factory.hpp:77] Creating layer conv3_3
I0615 20:34:31.773226 19289 net.cpp:100] Creating Layer conv3_3
I0615 20:34:31.773229 19289 net.cpp:434] conv3_3 <- conv3_2
I0615 20:34:31.773236 19289 net.cpp:408] conv3_3 -> conv3_3
I0615 20:34:31.778342 19289 net.cpp:150] Setting up conv3_3
I0615 20:34:31.778375 19289 net.cpp:157] Top shape: 32 256 75 75 (46080000)
I0615 20:34:31.778380 19289 net.cpp:165] Memory required for data: 5898240128
I0615 20:34:31.778393 19289 layer_factory.hpp:77] Creating layer relu3_3
I0615 20:34:31.778403 19289 net.cpp:100] Creating Layer relu3_3
I0615 20:34:31.778410 19289 net.cpp:434] relu3_3 <- conv3_3
I0615 20:34:31.778417 19289 net.cpp:395] relu3_3 -> conv3_3 (in-place)
I0615 20:34:31.778582 19289 net.cpp:150] Setting up relu3_3
I0615 20:34:31.778594 19289 net.cpp:157] Top shape: 32 256 75 75 (46080000)
I0615 20:34:31.778599 19289 net.cpp:165] Memory required for data: 6082560128
I0615 20:34:31.778602 19289 layer_factory.hpp:77] Creating layer pool3
I0615 20:34:31.778609 19289 net.cpp:100] Creating Layer pool3
I0615 20:34:31.778614 19289 net.cpp:434] pool3 <- conv3_3
I0615 20:34:31.778621 19289 net.cpp:408] pool3 -> pool3
I0615 20:34:31.778659 19289 net.cpp:150] Setting up pool3
I0615 20:34:31.778687 19289 net.cpp:157] Top shape: 32 256 38 38 (11829248)
I0615 20:34:31.778692 19289 net.cpp:165] Memory required for data: 6129877120
I0615 20:34:31.778695 19289 layer_factory.hpp:77] Creating layer conv4_1_depthwise
I0615 20:34:31.778705 19289 net.cpp:100] Creating Layer conv4_1_depthwise
I0615 20:34:31.778709 19289 net.cpp:434] conv4_1_depthwise <- pool3
I0615 20:34:31.778715 19289 net.cpp:408] conv4_1_depthwise -> conv4_1_3x3
I0615 20:34:31.778878 19289 net.cpp:150] Setting up conv4_1_depthwise
I0615 20:34:31.778887 19289 net.cpp:157] Top shape: 32 256 38 38 (11829248)
I0615 20:34:31.778889 19289 net.cpp:165] Memory required for data: 6177194112
I0615 20:34:31.778895 19289 layer_factory.hpp:77] Creating layer conv4_1_3x3_relu
I0615 20:34:31.778903 19289 net.cpp:100] Creating Layer conv4_1_3x3_relu
I0615 20:34:31.778905 19289 net.cpp:434] conv4_1_3x3_relu <- conv4_1_3x3
I0615 20:34:31.778910 19289 net.cpp:395] conv4_1_3x3_relu -> conv4_1_3x3 (in-place)
I0615 20:34:31.779078 19289 net.cpp:150] Setting up conv4_1_3x3_relu
I0615 20:34:31.779089 19289 net.cpp:157] Top shape: 32 256 38 38 (11829248)
I0615 20:34:31.779093 19289 net.cpp:165] Memory required for data: 6224511104
I0615 20:34:31.779098 19289 layer_factory.hpp:77] Creating layer conv4_1_1x1
I0615 20:34:31.779107 19289 net.cpp:100] Creating Layer conv4_1_1x1
I0615 20:34:31.779112 19289 net.cpp:434] conv4_1_1x1 <- conv4_1_3x3
I0615 20:34:31.779117 19289 net.cpp:408] conv4_1_1x1 -> conv4_1
I0615 20:34:31.780129 19289 net.cpp:150] Setting up conv4_1_1x1
I0615 20:34:31.780151 19289 net.cpp:157] Top shape: 32 512 38 38 (23658496)
I0615 20:34:31.780156 19289 net.cpp:165] Memory required for data: 6319145088
I0615 20:34:31.780169 19289 layer_factory.hpp:77] Creating layer relu4_1
I0615 20:34:31.780175 19289 net.cpp:100] Creating Layer relu4_1
I0615 20:34:31.780179 19289 net.cpp:434] relu4_1 <- conv4_1
I0615 20:34:31.780186 19289 net.cpp:395] relu4_1 -> conv4_1 (in-place)
I0615 20:34:31.780354 19289 net.cpp:150] Setting up relu4_1
I0615 20:34:31.780364 19289 net.cpp:157] Top shape: 32 512 38 38 (23658496)
I0615 20:34:31.780369 19289 net.cpp:165] Memory required for data: 6413779072
I0615 20:34:31.780373 19289 layer_factory.hpp:77] Creating layer conv4_2
I0615 20:34:31.780383 19289 net.cpp:100] Creating Layer conv4_2
I0615 20:34:31.780387 19289 net.cpp:434] conv4_2 <- conv4_1
I0615 20:34:31.780393 19289 net.cpp:408] conv4_2 -> conv4_2
I0615 20:34:31.793663 19289 net.cpp:150] Setting up conv4_2
I0615 20:34:31.793694 19289 net.cpp:157] Top shape: 32 512 38 38 (23658496)
I0615 20:34:31.793699 19289 net.cpp:165] Memory required for data: 6508413056
I0615 20:34:31.793709 19289 layer_factory.hpp:77] Creating layer relu4_2
I0615 20:34:31.793720 19289 net.cpp:100] Creating Layer relu4_2
I0615 20:34:31.793725 19289 net.cpp:434] relu4_2 <- conv4_2
I0615 20:34:31.793733 19289 net.cpp:395] relu4_2 -> conv4_2 (in-place)
I0615 20:34:31.793797 19289 net.cpp:150] Setting up relu4_2
I0615 20:34:31.793807 19289 net.cpp:157] Top shape: 32 512 38 38 (23658496)
I0615 20:34:31.793809 19289 net.cpp:165] Memory required for data: 6603047040
I0615 20:34:31.793813 19289 layer_factory.hpp:77] Creating layer conv4_3
I0615 20:34:31.793824 19289 net.cpp:100] Creating Layer conv4_3
I0615 20:34:31.793829 19289 net.cpp:434] conv4_3 <- conv4_2
I0615 20:34:31.793835 19289 net.cpp:408] conv4_3 -> conv4_3
I0615 20:34:31.808259 19289 net.cpp:150] Setting up conv4_3
I0615 20:34:31.808293 19289 net.cpp:157] Top shape: 32 512 38 38 (23658496)
I0615 20:34:31.808298 19289 net.cpp:165] Memory required for data: 6697681024
I0615 20:34:31.808310 19289 layer_factory.hpp:77] Creating layer relu4_3
I0615 20:34:31.808320 19289 net.cpp:100] Creating Layer relu4_3
I0615 20:34:31.808326 19289 net.cpp:434] relu4_3 <- conv4_3
I0615 20:34:31.808334 19289 net.cpp:395] relu4_3 -> conv4_3 (in-place)
I0615 20:34:31.808517 19289 net.cpp:150] Setting up relu4_3
I0615 20:34:31.808529 19289 net.cpp:157] Top shape: 32 512 38 38 (23658496)
I0615 20:34:31.808533 19289 net.cpp:165] Memory required for data: 6792315008
I0615 20:34:31.808555 19289 layer_factory.hpp:77] Creating layer conv4_3_relu4_3_0_split
I0615 20:34:31.808563 19289 net.cpp:100] Creating Layer conv4_3_relu4_3_0_split
I0615 20:34:31.808568 19289 net.cpp:434] conv4_3_relu4_3_0_split <- conv4_3
I0615 20:34:31.808573 19289 net.cpp:408] conv4_3_relu4_3_0_split -> conv4_3_relu4_3_0_split_0
I0615 20:34:31.808581 19289 net.cpp:408] conv4_3_relu4_3_0_split -> conv4_3_relu4_3_0_split_1
I0615 20:34:31.808610 19289 net.cpp:150] Setting up conv4_3_relu4_3_0_split
I0615 20:34:31.808617 19289 net.cpp:157] Top shape: 32 512 38 38 (23658496)
I0615 20:34:31.808622 19289 net.cpp:157] Top shape: 32 512 38 38 (23658496)
I0615 20:34:31.808626 19289 net.cpp:165] Memory required for data: 6981582976
I0615 20:34:31.808629 19289 layer_factory.hpp:77] Creating layer pool4
I0615 20:34:31.808637 19289 net.cpp:100] Creating Layer pool4
I0615 20:34:31.808643 19289 net.cpp:434] pool4 <- conv4_3_relu4_3_0_split_0
I0615 20:34:31.808650 19289 net.cpp:408] pool4 -> pool4
I0615 20:34:31.808674 19289 net.cpp:150] Setting up pool4
I0615 20:34:31.808681 19289 net.cpp:157] Top shape: 32 512 19 19 (5914624)
I0615 20:34:31.808683 19289 net.cpp:165] Memory required for data: 7005241472
I0615 20:34:31.808688 19289 layer_factory.hpp:77] Creating layer conv5_1_depthwise
I0615 20:34:31.808696 19289 net.cpp:100] Creating Layer conv5_1_depthwise
I0615 20:34:31.808701 19289 net.cpp:434] conv5_1_depthwise <- pool4
I0615 20:34:31.808706 19289 net.cpp:408] conv5_1_depthwise -> conv5_1_3x3
I0615 20:34:31.808861 19289 net.cpp:150] Setting up conv5_1_depthwise
I0615 20:34:31.808869 19289 net.cpp:157] Top shape: 32 512 19 19 (5914624)
I0615 20:34:31.808872 19289 net.cpp:165] Memory required for data: 7028899968
I0615 20:34:31.808879 19289 layer_factory.hpp:77] Creating layer conv5_1_3x3_relu
I0615 20:34:31.808884 19289 net.cpp:100] Creating Layer conv5_1_3x3_relu
I0615 20:34:31.808888 19289 net.cpp:434] conv5_1_3x3_relu <- conv5_1_3x3
I0615 20:34:31.808893 19289 net.cpp:395] conv5_1_3x3_relu -> conv5_1_3x3 (in-place)
I0615 20:34:31.808945 19289 net.cpp:150] Setting up conv5_1_3x3_relu
I0615 20:34:31.808954 19289 net.cpp:157] Top shape: 32 512 19 19 (5914624)
I0615 20:34:31.808957 19289 net.cpp:165] Memory required for data: 7052558464
I0615 20:34:31.808961 19289 layer_factory.hpp:77] Creating layer conv5_1_1x1
I0615 20:34:31.808970 19289 net.cpp:100] Creating Layer conv5_1_1x1
I0615 20:34:31.808975 19289 net.cpp:434] conv5_1_1x1 <- conv5_1_3x3
I0615 20:34:31.808980 19289 net.cpp:408] conv5_1_1x1 -> conv5_1
I0615 20:34:31.811424 19289 net.cpp:150] Setting up conv5_1_1x1
I0615 20:34:31.811460 19289 net.cpp:157] Top shape: 32 512 19 19 (5914624)
I0615 20:34:31.811465 19289 net.cpp:165] Memory required for data: 7076216960
I0615 20:34:31.811475 19289 layer_factory.hpp:77] Creating layer relu5_1
I0615 20:34:31.811491 19289 net.cpp:100] Creating Layer relu5_1
I0615 20:34:31.811496 19289 net.cpp:434] relu5_1 <- conv5_1
I0615 20:34:31.811503 19289 net.cpp:395] relu5_1 -> conv5_1 (in-place)
I0615 20:34:31.811671 19289 net.cpp:150] Setting up relu5_1
I0615 20:34:31.811681 19289 net.cpp:157] Top shape: 32 512 19 19 (5914624)
I0615 20:34:31.811684 19289 net.cpp:165] Memory required for data: 7099875456
I0615 20:34:31.811689 19289 layer_factory.hpp:77] Creating layer conv5_2_depthwise
I0615 20:34:31.811700 19289 net.cpp:100] Creating Layer conv5_2_depthwise
I0615 20:34:31.811704 19289 net.cpp:434] conv5_2_depthwise <- conv5_1
I0615 20:34:31.811712 19289 net.cpp:408] conv5_2_depthwise -> conv5_2_3x3
I0615 20:34:31.811884 19289 net.cpp:150] Setting up conv5_2_depthwise
I0615 20:34:31.811892 19289 net.cpp:157] Top shape: 32 512 19 19 (5914624)
I0615 20:34:31.811897 19289 net.cpp:165] Memory required for data: 7123533952
I0615 20:34:31.811902 19289 layer_factory.hpp:77] Creating layer conv5_2_3x3_relu
I0615 20:34:31.811908 19289 net.cpp:100] Creating Layer conv5_2_3x3_relu
I0615 20:34:31.811913 19289 net.cpp:434] conv5_2_3x3_relu <- conv5_2_3x3
I0615 20:34:31.811916 19289 net.cpp:395] conv5_2_3x3_relu -> conv5_2_3x3 (in-place)
I0615 20:34:31.811993 19289 net.cpp:150] Setting up conv5_2_3x3_relu
I0615 20:34:31.812003 19289 net.cpp:157] Top shape: 32 512 19 19 (5914624)
I0615 20:34:31.812006 19289 net.cpp:165] Memory required for data: 7147192448
I0615 20:34:31.812011 19289 layer_factory.hpp:77] Creating layer conv5_2_1x1
I0615 20:34:31.812019 19289 net.cpp:100] Creating Layer conv5_2_1x1
I0615 20:34:31.812024 19289 net.cpp:434] conv5_2_1x1 <- conv5_2_3x3
I0615 20:34:31.812031 19289 net.cpp:408] conv5_2_1x1 -> conv5_2
I0615 20:34:31.813830 19289 net.cpp:150] Setting up conv5_2_1x1
I0615 20:34:31.813864 19289 net.cpp:157] Top shape: 32 512 19 19 (5914624)
I0615 20:34:31.813868 19289 net.cpp:165] Memory required for data: 7170850944
I0615 20:34:31.813879 19289 layer_factory.hpp:77] Creating layer relu5_2
I0615 20:34:31.813889 19289 net.cpp:100] Creating Layer relu5_2
I0615 20:34:31.813895 19289 net.cpp:434] relu5_2 <- conv5_2
I0615 20:34:31.813902 19289 net.cpp:395] relu5_2 -> conv5_2 (in-place)
I0615 20:34:31.814067 19289 net.cpp:150] Setting up relu5_2
I0615 20:34:31.814079 19289 net.cpp:157] Top shape: 32 512 19 19 (5914624)
I0615 20:34:31.814082 19289 net.cpp:165] Memory required for data: 7194509440
I0615 20:34:31.814087 19289 layer_factory.hpp:77] Creating layer conv5_3_depthwise
I0615 20:34:31.814098 19289 net.cpp:100] Creating Layer conv5_3_depthwise
I0615 20:34:31.814102 19289 net.cpp:434] conv5_3_depthwise <- conv5_2
I0615 20:34:31.814108 19289 net.cpp:408] conv5_3_depthwise -> conv5_3_3x3
I0615 20:34:31.814281 19289 net.cpp:150] Setting up conv5_3_depthwise
I0615 20:34:31.814290 19289 net.cpp:157] Top shape: 32 512 19 19 (5914624)
I0615 20:34:31.814293 19289 net.cpp:165] Memory required for data: 7218167936
I0615 20:34:31.814299 19289 layer_factory.hpp:77] Creating layer conv5_3_3x3_relu
I0615 20:34:31.814306 19289 net.cpp:100] Creating Layer conv5_3_3x3_relu
I0615 20:34:31.814309 19289 net.cpp:434] conv5_3_3x3_relu <- conv5_3_3x3
I0615 20:34:31.814313 19289 net.cpp:395] conv5_3_3x3_relu -> conv5_3_3x3 (in-place)
I0615 20:34:31.814366 19289 net.cpp:150] Setting up conv5_3_3x3_relu
I0615 20:34:31.814375 19289 net.cpp:157] Top shape: 32 512 19 19 (5914624)
I0615 20:34:31.814378 19289 net.cpp:165] Memory required for data: 7241826432
I0615 20:34:31.814383 19289 layer_factory.hpp:77] Creating layer conv5_3_1x1
I0615 20:34:31.814391 19289 net.cpp:100] Creating Layer conv5_3_1x1
I0615 20:34:31.814395 19289 net.cpp:434] conv5_3_1x1 <- conv5_3_3x3
I0615 20:34:31.814401 19289 net.cpp:408] conv5_3_1x1 -> conv5_3
I0615 20:34:31.817931 19289 net.cpp:150] Setting up conv5_3_1x1
I0615 20:34:31.817970 19289 net.cpp:157] Top shape: 32 512 19 19 (5914624)
I0615 20:34:31.817975 19289 net.cpp:165] Memory required for data: 7265484928
I0615 20:34:31.817993 19289 layer_factory.hpp:77] Creating layer relu5_3
I0615 20:34:31.818006 19289 net.cpp:100] Creating Layer relu5_3
I0615 20:34:31.818012 19289 net.cpp:434] relu5_3 <- conv5_3
I0615 20:34:31.818022 19289 net.cpp:395] relu5_3 -> conv5_3 (in-place)
I0615 20:34:31.818202 19289 net.cpp:150] Setting up relu5_3
I0615 20:34:31.818212 19289 net.cpp:157] Top shape: 32 512 19 19 (5914624)
I0615 20:34:31.818217 19289 net.cpp:165] Memory required for data: 7289143424
I0615 20:34:31.818222 19289 layer_factory.hpp:77] Creating layer pool5
I0615 20:34:31.818230 19289 net.cpp:100] Creating Layer pool5
I0615 20:34:31.818234 19289 net.cpp:434] pool5 <- conv5_3
I0615 20:34:31.818240 19289 net.cpp:408] pool5 -> pool5
I0615 20:34:31.818287 19289 net.cpp:150] Setting up pool5
I0615 20:34:31.818295 19289 net.cpp:157] Top shape: 32 512 19 19 (5914624)
I0615 20:34:31.818298 19289 net.cpp:165] Memory required for data: 7312801920
I0615 20:34:31.818302 19289 layer_factory.hpp:77] Creating layer fc6_depthwise
I0615 20:34:31.818315 19289 net.cpp:100] Creating Layer fc6_depthwise
I0615 20:34:31.818317 19289 net.cpp:434] fc6_depthwise <- pool5
I0615 20:34:31.818325 19289 net.cpp:408] fc6_depthwise -> fc6_3x3
I0615 20:34:31.818497 19289 net.cpp:150] Setting up fc6_depthwise
I0615 20:34:31.818506 19289 net.cpp:157] Top shape: 32 512 19 19 (5914624)
I0615 20:34:31.818531 19289 net.cpp:165] Memory required for data: 7336460416
I0615 20:34:31.818538 19289 layer_factory.hpp:77] Creating layer fc6_3x3_relu
I0615 20:34:31.818543 19289 net.cpp:100] Creating Layer fc6_3x3_relu
I0615 20:34:31.818548 19289 net.cpp:434] fc6_3x3_relu <- fc6_3x3
I0615 20:34:31.818553 19289 net.cpp:395] fc6_3x3_relu -> fc6_3x3 (in-place)
I0615 20:34:31.818624 19289 net.cpp:150] Setting up fc6_3x3_relu
I0615 20:34:31.818632 19289 net.cpp:157] Top shape: 32 512 19 19 (5914624)
I0615 20:34:31.818636 19289 net.cpp:165] Memory required for data: 7360118912
I0615 20:34:31.818640 19289 layer_factory.hpp:77] Creating layer fc6_1x1
I0615 20:34:31.818650 19289 net.cpp:100] Creating Layer fc6_1x1
I0615 20:34:31.818655 19289 net.cpp:434] fc6_1x1 <- fc6_3x3
I0615 20:34:31.818662 19289 net.cpp:408] fc6_1x1 -> fc6
I0615 20:34:31.821775 19289 net.cpp:150] Setting up fc6_1x1
I0615 20:34:31.821808 19289 net.cpp:157] Top shape: 32 1024 19 19 (11829248)
I0615 20:34:31.821811 19289 net.cpp:165] Memory required for data: 7407435904
I0615 20:34:31.821822 19289 layer_factory.hpp:77] Creating layer relu6
I0615 20:34:31.821832 19289 net.cpp:100] Creating Layer relu6
I0615 20:34:31.821837 19289 net.cpp:434] relu6 <- fc6
I0615 20:34:31.821846 19289 net.cpp:395] relu6 -> fc6 (in-place)
I0615 20:34:31.822144 19289 net.cpp:150] Setting up relu6
I0615 20:34:31.822155 19289 net.cpp:157] Top shape: 32 1024 19 19 (11829248)
I0615 20:34:31.822160 19289 net.cpp:165] Memory required for data: 7454752896
I0615 20:34:31.822163 19289 layer_factory.hpp:77] Creating layer fc7
I0615 20:34:31.822177 19289 net.cpp:100] Creating Layer fc7
I0615 20:34:31.822181 19289 net.cpp:434] fc7 <- fc6
I0615 20:34:31.822187 19289 net.cpp:408] fc7 -> fc7
I0615 20:34:31.828627 19289 net.cpp:150] Setting up fc7
I0615 20:34:31.828662 19289 net.cpp:157] Top shape: 32 1024 19 19 (11829248)
I0615 20:34:31.828666 19289 net.cpp:165] Memory required for data: 7502069888
I0615 20:34:31.828676 19289 layer_factory.hpp:77] Creating layer relu7
I0615 20:34:31.828687 19289 net.cpp:100] Creating Layer relu7
I0615 20:34:31.828693 19289 net.cpp:434] relu7 <- fc7
I0615 20:34:31.828703 19289 net.cpp:395] relu7 -> fc7 (in-place)
I0615 20:34:31.828775 19289 net.cpp:150] Setting up relu7
I0615 20:34:31.828784 19289 net.cpp:157] Top shape: 32 1024 19 19 (11829248)
I0615 20:34:31.828788 19289 net.cpp:165] Memory required for data: 7549386880
I0615 20:34:31.828792 19289 layer_factory.hpp:77] Creating layer fc7_relu7_0_split
I0615 20:34:31.828799 19289 net.cpp:100] Creating Layer fc7_relu7_0_split
I0615 20:34:31.828802 19289 net.cpp:434] fc7_relu7_0_split <- fc7
I0615 20:34:31.828809 19289 net.cpp:408] fc7_relu7_0_split -> fc7_relu7_0_split_0
I0615 20:34:31.828815 19289 net.cpp:408] fc7_relu7_0_split -> fc7_relu7_0_split_1
I0615 20:34:31.828822 19289 net.cpp:408] fc7_relu7_0_split -> fc7_relu7_0_split_2
I0615 20:34:31.828832 19289 net.cpp:408] fc7_relu7_0_split -> fc7_relu7_0_split_3
I0615 20:34:31.828881 19289 net.cpp:150] Setting up fc7_relu7_0_split
I0615 20:34:31.828886 19289 net.cpp:157] Top shape: 32 1024 19 19 (11829248)
I0615 20:34:31.828891 19289 net.cpp:157] Top shape: 32 1024 19 19 (11829248)
I0615 20:34:31.828896 19289 net.cpp:157] Top shape: 32 1024 19 19 (11829248)
I0615 20:34:31.828899 19289 net.cpp:157] Top shape: 32 1024 19 19 (11829248)
I0615 20:34:31.828902 19289 net.cpp:165] Memory required for data: 7738654848
I0615 20:34:31.828907 19289 layer_factory.hpp:77] Creating layer conv6_1
I0615 20:34:31.828917 19289 net.cpp:100] Creating Layer conv6_1
I0615 20:34:31.828927 19289 net.cpp:434] conv6_1 <- fc7_relu7_0_split_0
I0615 20:34:31.828933 19289 net.cpp:408] conv6_1 -> conv6_1
I0615 20:34:31.830711 19289 net.cpp:150] Setting up conv6_1
I0615 20:34:31.830739 19289 net.cpp:157] Top shape: 32 256 19 19 (2957312)
I0615 20:34:31.830744 19289 net.cpp:165] Memory required for data: 7750484096
I0615 20:34:31.830754 19289 layer_factory.hpp:77] Creating layer conv6_1_relu
I0615 20:34:31.830765 19289 net.cpp:100] Creating Layer conv6_1_relu
I0615 20:34:31.830796 19289 net.cpp:434] conv6_1_relu <- conv6_1
I0615 20:34:31.830804 19289 net.cpp:395] conv6_1_relu -> conv6_1 (in-place)
I0615 20:34:31.832295 19289 net.cpp:150] Setting up conv6_1_relu
I0615 20:34:31.832324 19289 net.cpp:157] Top shape: 32 256 19 19 (2957312)
I0615 20:34:31.832329 19289 net.cpp:165] Memory required for data: 7762313344
I0615 20:34:31.832335 19289 layer_factory.hpp:77] Creating layer conv6_2_depthwise
I0615 20:34:31.832350 19289 net.cpp:100] Creating Layer conv6_2_depthwise
I0615 20:34:31.832357 19289 net.cpp:434] conv6_2_depthwise <- conv6_1
I0615 20:34:31.832366 19289 net.cpp:408] conv6_2_depthwise -> conv6_2_3x3
I0615 20:34:31.832584 19289 net.cpp:150] Setting up conv6_2_depthwise
I0615 20:34:31.832594 19289 net.cpp:157] Top shape: 32 256 10 10 (819200)
I0615 20:34:31.832597 19289 net.cpp:165] Memory required for data: 7765590144
I0615 20:34:31.832604 19289 layer_factory.hpp:77] Creating layer conv6_2_3x3_relu
I0615 20:34:31.832612 19289 net.cpp:100] Creating Layer conv6_2_3x3_relu
I0615 20:34:31.832617 19289 net.cpp:434] conv6_2_3x3_relu <- conv6_2_3x3
I0615 20:34:31.832623 19289 net.cpp:395] conv6_2_3x3_relu -> conv6_2_3x3 (in-place)
I0615 20:34:31.832698 19289 net.cpp:150] Setting up conv6_2_3x3_relu
I0615 20:34:31.832707 19289 net.cpp:157] Top shape: 32 256 10 10 (819200)
I0615 20:34:31.832712 19289 net.cpp:165] Memory required for data: 7768866944
I0615 20:34:31.832715 19289 layer_factory.hpp:77] Creating layer conv6_2_1x1
I0615 20:34:31.832727 19289 net.cpp:100] Creating Layer conv6_2_1x1
I0615 20:34:31.832732 19289 net.cpp:434] conv6_2_1x1 <- conv6_2_3x3
I0615 20:34:31.832738 19289 net.cpp:408] conv6_2_1x1 -> conv6_2
I0615 20:34:31.834770 19289 net.cpp:150] Setting up conv6_2_1x1
I0615 20:34:31.834808 19289 net.cpp:157] Top shape: 32 512 10 10 (1638400)
I0615 20:34:31.834813 19289 net.cpp:165] Memory required for data: 7775420544
I0615 20:34:31.834825 19289 layer_factory.hpp:77] Creating layer conv6_2_relu
I0615 20:34:31.834836 19289 net.cpp:100] Creating Layer conv6_2_relu
I0615 20:34:31.834841 19289 net.cpp:434] conv6_2_relu <- conv6_2
I0615 20:34:31.834851 19289 net.cpp:395] conv6_2_relu -> conv6_2 (in-place)
I0615 20:34:31.835032 19289 net.cpp:150] Setting up conv6_2_relu
I0615 20:34:31.835043 19289 net.cpp:157] Top shape: 32 512 10 10 (1638400)
I0615 20:34:31.835047 19289 net.cpp:165] Memory required for data: 7781974144
I0615 20:34:31.835052 19289 layer_factory.hpp:77] Creating layer conv6_2_conv6_2_relu_0_split
I0615 20:34:31.835059 19289 net.cpp:100] Creating Layer conv6_2_conv6_2_relu_0_split
I0615 20:34:31.835063 19289 net.cpp:434] conv6_2_conv6_2_relu_0_split <- conv6_2
I0615 20:34:31.835076 19289 net.cpp:408] conv6_2_conv6_2_relu_0_split -> conv6_2_conv6_2_relu_0_split_0
I0615 20:34:31.835085 19289 net.cpp:408] conv6_2_conv6_2_relu_0_split -> conv6_2_conv6_2_relu_0_split_1
I0615 20:34:31.835090 19289 net.cpp:408] conv6_2_conv6_2_relu_0_split -> conv6_2_conv6_2_relu_0_split_2
I0615 20:34:31.835098 19289 net.cpp:408] conv6_2_conv6_2_relu_0_split -> conv6_2_conv6_2_relu_0_split_3
I0615 20:34:31.835144 19289 net.cpp:150] Setting up conv6_2_conv6_2_relu_0_split
I0615 20:34:31.835152 19289 net.cpp:157] Top shape: 32 512 10 10 (1638400)
I0615 20:34:31.835156 19289 net.cpp:157] Top shape: 32 512 10 10 (1638400)
I0615 20:34:31.835160 19289 net.cpp:157] Top shape: 32 512 10 10 (1638400)
I0615 20:34:31.835165 19289 net.cpp:157] Top shape: 32 512 10 10 (1638400)
I0615 20:34:31.835168 19289 net.cpp:165] Memory required for data: 7808188544
I0615 20:34:31.835172 19289 layer_factory.hpp:77] Creating layer conv7_1
I0615 20:34:31.835183 19289 net.cpp:100] Creating Layer conv7_1
I0615 20:34:31.835189 19289 net.cpp:434] conv7_1 <- conv6_2_conv6_2_relu_0_split_0
I0615 20:34:31.835197 19289 net.cpp:408] conv7_1 -> conv7_1
I0615 20:34:31.836031 19289 net.cpp:150] Setting up conv7_1
I0615 20:34:31.836046 19289 net.cpp:157] Top shape: 32 128 10 10 (409600)
I0615 20:34:31.836050 19289 net.cpp:165] Memory required for data: 7809826944
I0615 20:34:31.836058 19289 layer_factory.hpp:77] Creating layer conv7_1_relu
I0615 20:34:31.836083 19289 net.cpp:100] Creating Layer conv7_1_relu
I0615 20:34:31.836088 19289 net.cpp:434] conv7_1_relu <- conv7_1
I0615 20:34:31.836093 19289 net.cpp:395] conv7_1_relu -> conv7_1 (in-place)
I0615 20:34:31.836159 19289 net.cpp:150] Setting up conv7_1_relu
I0615 20:34:31.836169 19289 net.cpp:157] Top shape: 32 128 10 10 (409600)
I0615 20:34:31.836172 19289 net.cpp:165] Memory required for data: 7811465344
I0615 20:34:31.836176 19289 layer_factory.hpp:77] Creating layer conv7_2
I0615 20:34:31.836189 19289 net.cpp:100] Creating Layer conv7_2
I0615 20:34:31.836192 19289 net.cpp:434] conv7_2 <- conv7_1
I0615 20:34:31.836197 19289 net.cpp:408] conv7_2 -> conv7_2
I0615 20:34:31.838131 19289 net.cpp:150] Setting up conv7_2
I0615 20:34:31.838162 19289 net.cpp:157] Top shape: 32 256 5 5 (204800)
I0615 20:34:31.838166 19289 net.cpp:165] Memory required for data: 7812284544
I0615 20:34:31.838177 19289 layer_factory.hpp:77] Creating layer conv7_2_relu
I0615 20:34:31.838186 19289 net.cpp:100] Creating Layer conv7_2_relu
I0615 20:34:31.838193 19289 net.cpp:434] conv7_2_relu <- conv7_2
I0615 20:34:31.838201 19289 net.cpp:395] conv7_2_relu -> conv7_2 (in-place)
I0615 20:34:31.839686 19289 net.cpp:150] Setting up conv7_2_relu
I0615 20:34:31.839717 19289 net.cpp:157] Top shape: 32 256 5 5 (204800)
I0615 20:34:31.839723 19289 net.cpp:165] Memory required for data: 7813103744
I0615 20:34:31.839731 19289 layer_factory.hpp:77] Creating layer conv7_2_conv7_2_relu_0_split
I0615 20:34:31.839743 19289 net.cpp:100] Creating Layer conv7_2_conv7_2_relu_0_split
I0615 20:34:31.839751 19289 net.cpp:434] conv7_2_conv7_2_relu_0_split <- conv7_2
I0615 20:34:31.839761 19289 net.cpp:408] conv7_2_conv7_2_relu_0_split -> conv7_2_conv7_2_relu_0_split_0
I0615 20:34:31.839771 19289 net.cpp:408] conv7_2_conv7_2_relu_0_split -> conv7_2_conv7_2_relu_0_split_1
I0615 20:34:31.839778 19289 net.cpp:408] conv7_2_conv7_2_relu_0_split -> conv7_2_conv7_2_relu_0_split_2
I0615 20:34:31.839785 19289 net.cpp:408] conv7_2_conv7_2_relu_0_split -> conv7_2_conv7_2_relu_0_split_3
I0615 20:34:31.839857 19289 net.cpp:150] Setting up conv7_2_conv7_2_relu_0_split
I0615 20:34:31.839865 19289 net.cpp:157] Top shape: 32 256 5 5 (204800)
I0615 20:34:31.839869 19289 net.cpp:157] Top shape: 32 256 5 5 (204800)
I0615 20:34:31.839874 19289 net.cpp:157] Top shape: 32 256 5 5 (204800)
I0615 20:34:31.839877 19289 net.cpp:157] Top shape: 32 256 5 5 (204800)
I0615 20:34:31.839881 19289 net.cpp:165] Memory required for data: 7816380544
I0615 20:34:31.839884 19289 layer_factory.hpp:77] Creating layer conv8_1
I0615 20:34:31.839908 19289 net.cpp:100] Creating Layer conv8_1
I0615 20:34:31.839913 19289 net.cpp:434] conv8_1 <- conv7_2_conv7_2_relu_0_split_0
I0615 20:34:31.839921 19289 net.cpp:408] conv8_1 -> conv8_1
I0615 20:34:31.840742 19289 net.cpp:150] Setting up conv8_1
I0615 20:34:31.840767 19289 net.cpp:157] Top shape: 32 128 5 5 (102400)
I0615 20:34:31.840772 19289 net.cpp:165] Memory required for data: 7816790144
I0615 20:34:31.840781 19289 layer_factory.hpp:77] Creating layer conv8_1_relu
I0615 20:34:31.840793 19289 net.cpp:100] Creating Layer conv8_1_relu
I0615 20:34:31.840800 19289 net.cpp:434] conv8_1_relu <- conv8_1
I0615 20:34:31.840806 19289 net.cpp:395] conv8_1_relu -> conv8_1 (in-place)
I0615 20:34:31.840878 19289 net.cpp:150] Setting up conv8_1_relu
I0615 20:34:31.840885 19289 net.cpp:157] Top shape: 32 128 5 5 (102400)
I0615 20:34:31.840889 19289 net.cpp:165] Memory required for data: 7817199744
I0615 20:34:31.840893 19289 layer_factory.hpp:77] Creating layer conv8_2
I0615 20:34:31.840905 19289 net.cpp:100] Creating Layer conv8_2
I0615 20:34:31.840909 19289 net.cpp:434] conv8_2 <- conv8_1
I0615 20:34:31.840914 19289 net.cpp:408] conv8_2 -> conv8_2
I0615 20:34:31.843693 19289 net.cpp:150] Setting up conv8_2
I0615 20:34:31.843726 19289 net.cpp:157] Top shape: 32 256 3 3 (73728)
I0615 20:34:31.843730 19289 net.cpp:165] Memory required for data: 7817494656
I0615 20:34:31.843740 19289 layer_factory.hpp:77] Creating layer conv8_2_relu
I0615 20:34:31.843762 19289 net.cpp:100] Creating Layer conv8_2_relu
I0615 20:34:31.843792 19289 net.cpp:434] conv8_2_relu <- conv8_2
I0615 20:34:31.843801 19289 net.cpp:395] conv8_2_relu -> conv8_2 (in-place)
I0615 20:34:31.843968 19289 net.cpp:150] Setting up conv8_2_relu
I0615 20:34:31.843981 19289 net.cpp:157] Top shape: 32 256 3 3 (73728)
I0615 20:34:31.843983 19289 net.cpp:165] Memory required for data: 7817789568
I0615 20:34:31.843988 19289 layer_factory.hpp:77] Creating layer conv8_2_conv8_2_relu_0_split
I0615 20:34:31.843995 19289 net.cpp:100] Creating Layer conv8_2_conv8_2_relu_0_split
I0615 20:34:31.844000 19289 net.cpp:434] conv8_2_conv8_2_relu_0_split <- conv8_2
I0615 20:34:31.844007 19289 net.cpp:408] conv8_2_conv8_2_relu_0_split -> conv8_2_conv8_2_relu_0_split_0
I0615 20:34:31.844015 19289 net.cpp:408] conv8_2_conv8_2_relu_0_split -> conv8_2_conv8_2_relu_0_split_1
I0615 20:34:31.844022 19289 net.cpp:408] conv8_2_conv8_2_relu_0_split -> conv8_2_conv8_2_relu_0_split_2
I0615 20:34:31.844028 19289 net.cpp:408] conv8_2_conv8_2_relu_0_split -> conv8_2_conv8_2_relu_0_split_3
I0615 20:34:31.844076 19289 net.cpp:150] Setting up conv8_2_conv8_2_relu_0_split
I0615 20:34:31.844084 19289 net.cpp:157] Top shape: 32 256 3 3 (73728)
I0615 20:34:31.844090 19289 net.cpp:157] Top shape: 32 256 3 3 (73728)
I0615 20:34:31.844095 19289 net.cpp:157] Top shape: 32 256 3 3 (73728)
I0615 20:34:31.844099 19289 net.cpp:157] Top shape: 32 256 3 3 (73728)
I0615 20:34:31.844105 19289 net.cpp:165] Memory required for data: 7818969216
I0615 20:34:31.844107 19289 layer_factory.hpp:77] Creating layer conv9_1
I0615 20:34:31.844120 19289 net.cpp:100] Creating Layer conv9_1
I0615 20:34:31.844125 19289 net.cpp:434] conv9_1 <- conv8_2_conv8_2_relu_0_split_0
I0615 20:34:31.844131 19289 net.cpp:408] conv9_1 -> conv9_1
I0615 20:34:31.844846 19289 net.cpp:150] Setting up conv9_1
I0615 20:34:31.844863 19289 net.cpp:157] Top shape: 32 128 3 3 (36864)
I0615 20:34:31.844867 19289 net.cpp:165] Memory required for data: 7819116672
I0615 20:34:31.844875 19289 layer_factory.hpp:77] Creating layer conv9_1_relu
I0615 20:34:31.844882 19289 net.cpp:100] Creating Layer conv9_1_relu
I0615 20:34:31.844887 19289 net.cpp:434] conv9_1_relu <- conv9_1
I0615 20:34:31.844892 19289 net.cpp:395] conv9_1_relu -> conv9_1 (in-place)
I0615 20:34:31.844957 19289 net.cpp:150] Setting up conv9_1_relu
I0615 20:34:31.844966 19289 net.cpp:157] Top shape: 32 128 3 3 (36864)
I0615 20:34:31.844970 19289 net.cpp:165] Memory required for data: 7819264128
I0615 20:34:31.844974 19289 layer_factory.hpp:77] Creating layer conv9_2
I0615 20:34:31.844985 19289 net.cpp:100] Creating Layer conv9_2
I0615 20:34:31.844990 19289 net.cpp:434] conv9_2 <- conv9_1
I0615 20:34:31.844996 19289 net.cpp:408] conv9_2 -> conv9_2
I0615 20:34:31.849164 19289 net.cpp:150] Setting up conv9_2
I0615 20:34:31.849197 19289 net.cpp:157] Top shape: 32 256 1 1 (8192)
I0615 20:34:31.849201 19289 net.cpp:165] Memory required for data: 7819296896
I0615 20:34:31.849213 19289 layer_factory.hpp:77] Creating layer conv9_2_relu
I0615 20:34:31.849225 19289 net.cpp:100] Creating Layer conv9_2_relu
I0615 20:34:31.849231 19289 net.cpp:434] conv9_2_relu <- conv9_2
I0615 20:34:31.849238 19289 net.cpp:395] conv9_2_relu -> conv9_2 (in-place)
I0615 20:34:31.849432 19289 net.cpp:150] Setting up conv9_2_relu
I0615 20:34:31.849444 19289 net.cpp:157] Top shape: 32 256 1 1 (8192)
I0615 20:34:31.849448 19289 net.cpp:165] Memory required for data: 7819329664
I0615 20:34:31.849452 19289 layer_factory.hpp:77] Creating layer conv9_2_conv9_2_relu_0_split
I0615 20:34:31.849462 19289 net.cpp:100] Creating Layer conv9_2_conv9_2_relu_0_split
I0615 20:34:31.849465 19289 net.cpp:434] conv9_2_conv9_2_relu_0_split <- conv9_2
I0615 20:34:31.849472 19289 net.cpp:408] conv9_2_conv9_2_relu_0_split -> conv9_2_conv9_2_relu_0_split_0
I0615 20:34:31.849480 19289 net.cpp:408] conv9_2_conv9_2_relu_0_split -> conv9_2_conv9_2_relu_0_split_1
I0615 20:34:31.849488 19289 net.cpp:408] conv9_2_conv9_2_relu_0_split -> conv9_2_conv9_2_relu_0_split_2
I0615 20:34:31.849529 19289 net.cpp:150] Setting up conv9_2_conv9_2_relu_0_split
I0615 20:34:31.849552 19289 net.cpp:157] Top shape: 32 256 1 1 (8192)
I0615 20:34:31.849557 19289 net.cpp:157] Top shape: 32 256 1 1 (8192)
I0615 20:34:31.849561 19289 net.cpp:157] Top shape: 32 256 1 1 (8192)
I0615 20:34:31.849565 19289 net.cpp:165] Memory required for data: 7819427968
I0615 20:34:31.849570 19289 layer_factory.hpp:77] Creating layer conv4_3_norm
I0615 20:34:31.849578 19289 net.cpp:100] Creating Layer conv4_3_norm
I0615 20:34:31.849584 19289 net.cpp:434] conv4_3_norm <- conv4_3_relu4_3_0_split_1
I0615 20:34:31.849591 19289 net.cpp:408] conv4_3_norm -> conv4_3_norm
I0615 20:34:31.849704 19289 net.cpp:150] Setting up conv4_3_norm
I0615 20:34:31.849712 19289 net.cpp:157] Top shape: 32 512 38 38 (23658496)
I0615 20:34:31.849716 19289 net.cpp:165] Memory required for data: 7914061952
I0615 20:34:31.849723 19289 layer_factory.hpp:77] Creating layer conv4_3_norm_conv4_3_norm_0_split
I0615 20:34:31.849730 19289 net.cpp:100] Creating Layer conv4_3_norm_conv4_3_norm_0_split
I0615 20:34:31.849732 19289 net.cpp:434] conv4_3_norm_conv4_3_norm_0_split <- conv4_3_norm
I0615 20:34:31.849740 19289 net.cpp:408] conv4_3_norm_conv4_3_norm_0_split -> conv4_3_norm_conv4_3_norm_0_split_0
I0615 20:34:31.849746 19289 net.cpp:408] conv4_3_norm_conv4_3_norm_0_split -> conv4_3_norm_conv4_3_norm_0_split_1
I0615 20:34:31.849751 19289 net.cpp:408] conv4_3_norm_conv4_3_norm_0_split -> conv4_3_norm_conv4_3_norm_0_split_2
I0615 20:34:31.849781 19289 net.cpp:150] Setting up conv4_3_norm_conv4_3_norm_0_split
I0615 20:34:31.849788 19289 net.cpp:157] Top shape: 32 512 38 38 (23658496)
I0615 20:34:31.849792 19289 net.cpp:157] Top shape: 32 512 38 38 (23658496)
I0615 20:34:31.849797 19289 net.cpp:157] Top shape: 32 512 38 38 (23658496)
I0615 20:34:31.849799 19289 net.cpp:165] Memory required for data: 8197963904
I0615 20:34:31.849804 19289 layer_factory.hpp:77] Creating layer conv4_3_norm_mbox_loc
I0615 20:34:31.849817 19289 net.cpp:100] Creating Layer conv4_3_norm_mbox_loc
I0615 20:34:31.849822 19289 net.cpp:434] conv4_3_norm_mbox_loc <- conv4_3_norm_conv4_3_norm_0_split_0
I0615 20:34:31.849829 19289 net.cpp:408] conv4_3_norm_mbox_loc -> conv4_3_norm_mbox_loc
I0615 20:34:31.850733 19289 net.cpp:150] Setting up conv4_3_norm_mbox_loc
I0615 20:34:31.850749 19289 net.cpp:157] Top shape: 32 16 38 38 (739328)
I0615 20:34:31.850752 19289 net.cpp:165] Memory required for data: 8200921216
I0615 20:34:31.850759 19289 layer_factory.hpp:77] Creating layer conv4_3_norm_mbox_loc_perm
I0615 20:34:31.850770 19289 net.cpp:100] Creating Layer conv4_3_norm_mbox_loc_perm
I0615 20:34:31.850775 19289 net.cpp:434] conv4_3_norm_mbox_loc_perm <- conv4_3_norm_mbox_loc
I0615 20:34:31.850782 19289 net.cpp:408] conv4_3_norm_mbox_loc_perm -> conv4_3_norm_mbox_loc_perm
I0615 20:34:31.850857 19289 net.cpp:150] Setting up conv4_3_norm_mbox_loc_perm
I0615 20:34:31.850867 19289 net.cpp:157] Top shape: 32 38 38 16 (739328)
I0615 20:34:31.850870 19289 net.cpp:165] Memory required for data: 8203878528
I0615 20:34:31.850874 19289 layer_factory.hpp:77] Creating layer conv4_3_norm_mbox_loc_flat
I0615 20:34:31.850883 19289 net.cpp:100] Creating Layer conv4_3_norm_mbox_loc_flat
I0615 20:34:31.850886 19289 net.cpp:434] conv4_3_norm_mbox_loc_flat <- conv4_3_norm_mbox_loc_perm
I0615 20:34:31.850891 19289 net.cpp:408] conv4_3_norm_mbox_loc_flat -> conv4_3_norm_mbox_loc_flat
I0615 20:34:31.850911 19289 net.cpp:150] Setting up conv4_3_norm_mbox_loc_flat
I0615 20:34:31.850917 19289 net.cpp:157] Top shape: 32 23104 (739328)
I0615 20:34:31.850921 19289 net.cpp:165] Memory required for data: 8206835840
I0615 20:34:31.850924 19289 layer_factory.hpp:77] Creating layer conv4_3_norm_mbox_conf
I0615 20:34:31.850935 19289 net.cpp:100] Creating Layer conv4_3_norm_mbox_conf
I0615 20:34:31.850940 19289 net.cpp:434] conv4_3_norm_mbox_conf <- conv4_3_norm_conv4_3_norm_0_split_1
I0615 20:34:31.850947 19289 net.cpp:408] conv4_3_norm_mbox_conf -> conv4_3_norm_mbox_conf
I0615 20:34:31.852636 19289 net.cpp:150] Setting up conv4_3_norm_mbox_conf
I0615 20:34:31.852672 19289 net.cpp:157] Top shape: 32 44 38 38 (2033152)
I0615 20:34:31.852701 19289 net.cpp:165] Memory required for data: 8214968448
I0615 20:34:31.852713 19289 layer_factory.hpp:77] Creating layer conv4_3_norm_mbox_conf_perm
I0615 20:34:31.852727 19289 net.cpp:100] Creating Layer conv4_3_norm_mbox_conf_perm
I0615 20:34:31.852742 19289 net.cpp:434] conv4_3_norm_mbox_conf_perm <- conv4_3_norm_mbox_conf
I0615 20:34:31.852749 19289 net.cpp:408] conv4_3_norm_mbox_conf_perm -> conv4_3_norm_mbox_conf_perm
I0615 20:34:31.852834 19289 net.cpp:150] Setting up conv4_3_norm_mbox_conf_perm
I0615 20:34:31.852843 19289 net.cpp:157] Top shape: 32 38 38 44 (2033152)
I0615 20:34:31.852846 19289 net.cpp:165] Memory required for data: 8223101056
I0615 20:34:31.852850 19289 layer_factory.hpp:77] Creating layer conv4_3_norm_mbox_conf_flat
I0615 20:34:31.852859 19289 net.cpp:100] Creating Layer conv4_3_norm_mbox_conf_flat
I0615 20:34:31.852864 19289 net.cpp:434] conv4_3_norm_mbox_conf_flat <- conv4_3_norm_mbox_conf_perm
I0615 20:34:31.852869 19289 net.cpp:408] conv4_3_norm_mbox_conf_flat -> conv4_3_norm_mbox_conf_flat
I0615 20:34:31.852890 19289 net.cpp:150] Setting up conv4_3_norm_mbox_conf_flat
I0615 20:34:31.852896 19289 net.cpp:157] Top shape: 32 63536 (2033152)
I0615 20:34:31.852900 19289 net.cpp:165] Memory required for data: 8231233664
I0615 20:34:31.852903 19289 layer_factory.hpp:77] Creating layer conv4_3_norm_mbox_priorbox
I0615 20:34:31.852911 19289 net.cpp:100] Creating Layer conv4_3_norm_mbox_priorbox
I0615 20:34:31.852916 19289 net.cpp:434] conv4_3_norm_mbox_priorbox <- conv4_3_norm_conv4_3_norm_0_split_2
I0615 20:34:31.852921 19289 net.cpp:434] conv4_3_norm_mbox_priorbox <- data_data_0_split_1
I0615 20:34:31.852928 19289 net.cpp:408] conv4_3_norm_mbox_priorbox -> conv4_3_norm_mbox_priorbox
I0615 20:34:31.852958 19289 net.cpp:150] Setting up conv4_3_norm_mbox_priorbox
I0615 20:34:31.852967 19289 net.cpp:157] Top shape: 1 2 23104 (46208)
I0615 20:34:31.852969 19289 net.cpp:165] Memory required for data: 8231418496
I0615 20:34:31.852973 19289 layer_factory.hpp:77] Creating layer fc7_mbox_loc
I0615 20:34:31.852988 19289 net.cpp:100] Creating Layer fc7_mbox_loc
I0615 20:34:31.852994 19289 net.cpp:434] fc7_mbox_loc <- fc7_relu7_0_split_1
I0615 20:34:31.853003 19289 net.cpp:408] fc7_mbox_loc -> fc7_mbox_loc
I0615 20:34:31.855559 19289 net.cpp:150] Setting up fc7_mbox_loc
I0615 20:34:31.855597 19289 net.cpp:157] Top shape: 32 24 19 19 (277248)
I0615 20:34:31.855602 19289 net.cpp:165] Memory required for data: 8232527488
I0615 20:34:31.855625 19289 layer_factory.hpp:77] Creating layer fc7_mbox_loc_perm
I0615 20:34:31.855639 19289 net.cpp:100] Creating Layer fc7_mbox_loc_perm
I0615 20:34:31.855646 19289 net.cpp:434] fc7_mbox_loc_perm <- fc7_mbox_loc
I0615 20:34:31.855654 19289 net.cpp:408] fc7_mbox_loc_perm -> fc7_mbox_loc_perm
I0615 20:34:31.855738 19289 net.cpp:150] Setting up fc7_mbox_loc_perm
I0615 20:34:31.855747 19289 net.cpp:157] Top shape: 32 19 19 24 (277248)
I0615 20:34:31.855751 19289 net.cpp:165] Memory required for data: 8233636480
I0615 20:34:31.855756 19289 layer_factory.hpp:77] Creating layer fc7_mbox_loc_flat
I0615 20:34:31.855762 19289 net.cpp:100] Creating Layer fc7_mbox_loc_flat
I0615 20:34:31.855767 19289 net.cpp:434] fc7_mbox_loc_flat <- fc7_mbox_loc_perm
I0615 20:34:31.855772 19289 net.cpp:408] fc7_mbox_loc_flat -> fc7_mbox_loc_flat
I0615 20:34:31.855792 19289 net.cpp:150] Setting up fc7_mbox_loc_flat
I0615 20:34:31.855796 19289 net.cpp:157] Top shape: 32 8664 (277248)
I0615 20:34:31.855800 19289 net.cpp:165] Memory required for data: 8234745472
I0615 20:34:31.855803 19289 layer_factory.hpp:77] Creating layer fc7_mbox_conf
I0615 20:34:31.855818 19289 net.cpp:100] Creating Layer fc7_mbox_conf
I0615 20:34:31.855823 19289 net.cpp:434] fc7_mbox_conf <- fc7_relu7_0_split_2
I0615 20:34:31.855829 19289 net.cpp:408] fc7_mbox_conf -> fc7_mbox_conf
I0615 20:34:31.861490 19289 net.cpp:150] Setting up fc7_mbox_conf
I0615 20:34:31.861521 19289 net.cpp:157] Top shape: 32 66 19 19 (762432)
I0615 20:34:31.861524 19289 net.cpp:165] Memory required for data: 8237795200
I0615 20:34:31.861562 19289 layer_factory.hpp:77] Creating layer fc7_mbox_conf_perm
I0615 20:34:31.861580 19289 net.cpp:100] Creating Layer fc7_mbox_conf_perm
I0615 20:34:31.861589 19289 net.cpp:434] fc7_mbox_conf_perm <- fc7_mbox_conf
I0615 20:34:31.861599 19289 net.cpp:408] fc7_mbox_conf_perm -> fc7_mbox_conf_perm
I0615 20:34:31.861690 19289 net.cpp:150] Setting up fc7_mbox_conf_perm
I0615 20:34:31.861697 19289 net.cpp:157] Top shape: 32 19 19 66 (762432)
I0615 20:34:31.861702 19289 net.cpp:165] Memory required for data: 8240844928
I0615 20:34:31.861706 19289 layer_factory.hpp:77] Creating layer fc7_mbox_conf_flat
I0615 20:34:31.861714 19289 net.cpp:100] Creating Layer fc7_mbox_conf_flat
I0615 20:34:31.861721 19289 net.cpp:434] fc7_mbox_conf_flat <- fc7_mbox_conf_perm
I0615 20:34:31.861727 19289 net.cpp:408] fc7_mbox_conf_flat -> fc7_mbox_conf_flat
I0615 20:34:31.861745 19289 net.cpp:150] Setting up fc7_mbox_conf_flat
I0615 20:34:31.861752 19289 net.cpp:157] Top shape: 32 23826 (762432)
I0615 20:34:31.861757 19289 net.cpp:165] Memory required for data: 8243894656
I0615 20:34:31.861760 19289 layer_factory.hpp:77] Creating layer fc7_mbox_priorbox
I0615 20:34:31.861769 19289 net.cpp:100] Creating Layer fc7_mbox_priorbox
I0615 20:34:31.861775 19289 net.cpp:434] fc7_mbox_priorbox <- fc7_relu7_0_split_3
I0615 20:34:31.861780 19289 net.cpp:434] fc7_mbox_priorbox <- data_data_0_split_2
I0615 20:34:31.861788 19289 net.cpp:408] fc7_mbox_priorbox -> fc7_mbox_priorbox
I0615 20:34:31.861814 19289 net.cpp:150] Setting up fc7_mbox_priorbox
I0615 20:34:31.861820 19289 net.cpp:157] Top shape: 1 2 8664 (17328)
I0615 20:34:31.861824 19289 net.cpp:165] Memory required for data: 8243963968
I0615 20:34:31.861829 19289 layer_factory.hpp:77] Creating layer conv6_2_mbox_loc
I0615 20:34:31.861842 19289 net.cpp:100] Creating Layer conv6_2_mbox_loc
I0615 20:34:31.861847 19289 net.cpp:434] conv6_2_mbox_loc <- conv6_2_conv6_2_relu_0_split_1
I0615 20:34:31.861853 19289 net.cpp:408] conv6_2_mbox_loc -> conv6_2_mbox_loc
I0615 20:34:31.863133 19289 net.cpp:150] Setting up conv6_2_mbox_loc
I0615 20:34:31.863162 19289 net.cpp:157] Top shape: 32 24 10 10 (76800)
I0615 20:34:31.863166 19289 net.cpp:165] Memory required for data: 8244271168
I0615 20:34:31.863176 19289 layer_factory.hpp:77] Creating layer conv6_2_mbox_loc_perm
I0615 20:34:31.863188 19289 net.cpp:100] Creating Layer conv6_2_mbox_loc_perm
I0615 20:34:31.863193 19289 net.cpp:434] conv6_2_mbox_loc_perm <- conv6_2_mbox_loc
I0615 20:34:31.863202 19289 net.cpp:408] conv6_2_mbox_loc_perm -> conv6_2_mbox_loc_perm
I0615 20:34:31.863283 19289 net.cpp:150] Setting up conv6_2_mbox_loc_perm
I0615 20:34:31.863291 19289 net.cpp:157] Top shape: 32 10 10 24 (76800)
I0615 20:34:31.863296 19289 net.cpp:165] Memory required for data: 8244578368
I0615 20:34:31.863298 19289 layer_factory.hpp:77] Creating layer conv6_2_mbox_loc_flat
I0615 20:34:31.863306 19289 net.cpp:100] Creating Layer conv6_2_mbox_loc_flat
I0615 20:34:31.863312 19289 net.cpp:434] conv6_2_mbox_loc_flat <- conv6_2_mbox_loc_perm
I0615 20:34:31.863318 19289 net.cpp:408] conv6_2_mbox_loc_flat -> conv6_2_mbox_loc_flat
I0615 20:34:31.863337 19289 net.cpp:150] Setting up conv6_2_mbox_loc_flat
I0615 20:34:31.863343 19289 net.cpp:157] Top shape: 32 2400 (76800)
I0615 20:34:31.863346 19289 net.cpp:165] Memory required for data: 8244885568
I0615 20:34:31.863350 19289 layer_factory.hpp:77] Creating layer conv6_2_mbox_conf
I0615 20:34:31.863363 19289 net.cpp:100] Creating Layer conv6_2_mbox_conf
I0615 20:34:31.863369 19289 net.cpp:434] conv6_2_mbox_conf <- conv6_2_conv6_2_relu_0_split_2
I0615 20:34:31.863376 19289 net.cpp:408] conv6_2_mbox_conf -> conv6_2_mbox_conf
I0615 20:34:31.866179 19289 net.cpp:150] Setting up conv6_2_mbox_conf
I0615 20:34:31.866212 19289 net.cpp:157] Top shape: 32 66 10 10 (211200)
I0615 20:34:31.866216 19289 net.cpp:165] Memory required for data: 8245730368
I0615 20:34:31.866230 19289 layer_factory.hpp:77] Creating layer conv6_2_mbox_conf_perm
I0615 20:34:31.866241 19289 net.cpp:100] Creating Layer conv6_2_mbox_conf_perm
I0615 20:34:31.866268 19289 net.cpp:434] conv6_2_mbox_conf_perm <- conv6_2_mbox_conf
I0615 20:34:31.866278 19289 net.cpp:408] conv6_2_mbox_conf_perm -> conv6_2_mbox_conf_perm
I0615 20:34:31.866372 19289 net.cpp:150] Setting up conv6_2_mbox_conf_perm
I0615 20:34:31.866379 19289 net.cpp:157] Top shape: 32 10 10 66 (211200)
I0615 20:34:31.866384 19289 net.cpp:165] Memory required for data: 8246575168
I0615 20:34:31.866387 19289 layer_factory.hpp:77] Creating layer conv6_2_mbox_conf_flat
I0615 20:34:31.866396 19289 net.cpp:100] Creating Layer conv6_2_mbox_conf_flat
I0615 20:34:31.866400 19289 net.cpp:434] conv6_2_mbox_conf_flat <- conv6_2_mbox_conf_perm
I0615 20:34:31.866407 19289 net.cpp:408] conv6_2_mbox_conf_flat -> conv6_2_mbox_conf_flat
I0615 20:34:31.866427 19289 net.cpp:150] Setting up conv6_2_mbox_conf_flat
I0615 20:34:31.866434 19289 net.cpp:157] Top shape: 32 6600 (211200)
I0615 20:34:31.866438 19289 net.cpp:165] Memory required for data: 8247419968
I0615 20:34:31.866441 19289 layer_factory.hpp:77] Creating layer conv6_2_mbox_priorbox
I0615 20:34:31.866451 19289 net.cpp:100] Creating Layer conv6_2_mbox_priorbox
I0615 20:34:31.866457 19289 net.cpp:434] conv6_2_mbox_priorbox <- conv6_2_conv6_2_relu_0_split_3
I0615 20:34:31.866463 19289 net.cpp:434] conv6_2_mbox_priorbox <- data_data_0_split_3
I0615 20:34:31.866470 19289 net.cpp:408] conv6_2_mbox_priorbox -> conv6_2_mbox_priorbox
I0615 20:34:31.866497 19289 net.cpp:150] Setting up conv6_2_mbox_priorbox
I0615 20:34:31.866504 19289 net.cpp:157] Top shape: 1 2 2400 (4800)
I0615 20:34:31.866508 19289 net.cpp:165] Memory required for data: 8247439168
I0615 20:34:31.866511 19289 layer_factory.hpp:77] Creating layer conv7_2_mbox_loc
I0615 20:34:31.866524 19289 net.cpp:100] Creating Layer conv7_2_mbox_loc
I0615 20:34:31.866530 19289 net.cpp:434] conv7_2_mbox_loc <- conv7_2_conv7_2_relu_0_split_1
I0615 20:34:31.866536 19289 net.cpp:408] conv7_2_mbox_loc -> conv7_2_mbox_loc
I0615 20:34:31.867447 19289 net.cpp:150] Setting up conv7_2_mbox_loc
I0615 20:34:31.867475 19289 net.cpp:157] Top shape: 32 24 5 5 (19200)
I0615 20:34:31.867478 19289 net.cpp:165] Memory required for data: 8247515968
I0615 20:34:31.867488 19289 layer_factory.hpp:77] Creating layer conv7_2_mbox_loc_perm
I0615 20:34:31.867499 19289 net.cpp:100] Creating Layer conv7_2_mbox_loc_perm
I0615 20:34:31.867506 19289 net.cpp:434] conv7_2_mbox_loc_perm <- conv7_2_mbox_loc
I0615 20:34:31.867513 19289 net.cpp:408] conv7_2_mbox_loc_perm -> conv7_2_mbox_loc_perm
I0615 20:34:31.867588 19289 net.cpp:150] Setting up conv7_2_mbox_loc_perm
I0615 20:34:31.867596 19289 net.cpp:157] Top shape: 32 5 5 24 (19200)
I0615 20:34:31.867601 19289 net.cpp:165] Memory required for data: 8247592768
I0615 20:34:31.867606 19289 layer_factory.hpp:77] Creating layer conv7_2_mbox_loc_flat
I0615 20:34:31.867614 19289 net.cpp:100] Creating Layer conv7_2_mbox_loc_flat
I0615 20:34:31.867617 19289 net.cpp:434] conv7_2_mbox_loc_flat <- conv7_2_mbox_loc_perm
I0615 20:34:31.867624 19289 net.cpp:408] conv7_2_mbox_loc_flat -> conv7_2_mbox_loc_flat
I0615 20:34:31.867643 19289 net.cpp:150] Setting up conv7_2_mbox_loc_flat
I0615 20:34:31.867648 19289 net.cpp:157] Top shape: 32 600 (19200)
I0615 20:34:31.867651 19289 net.cpp:165] Memory required for data: 8247669568
I0615 20:34:31.867655 19289 layer_factory.hpp:77] Creating layer conv7_2_mbox_conf
I0615 20:34:31.867668 19289 net.cpp:100] Creating Layer conv7_2_mbox_conf
I0615 20:34:31.867672 19289 net.cpp:434] conv7_2_mbox_conf <- conv7_2_conv7_2_relu_0_split_2
I0615 20:34:31.867679 19289 net.cpp:408] conv7_2_mbox_conf -> conv7_2_mbox_conf
I0615 20:34:31.870443 19289 net.cpp:150] Setting up conv7_2_mbox_conf
I0615 20:34:31.870474 19289 net.cpp:157] Top shape: 32 66 5 5 (52800)
I0615 20:34:31.870478 19289 net.cpp:165] Memory required for data: 8247880768
I0615 20:34:31.870489 19289 layer_factory.hpp:77] Creating layer conv7_2_mbox_conf_perm
I0615 20:34:31.870501 19289 net.cpp:100] Creating Layer conv7_2_mbox_conf_perm
I0615 20:34:31.870509 19289 net.cpp:434] conv7_2_mbox_conf_perm <- conv7_2_mbox_conf
I0615 20:34:31.870537 19289 net.cpp:408] conv7_2_mbox_conf_perm -> conv7_2_mbox_conf_perm
I0615 20:34:31.870621 19289 net.cpp:150] Setting up conv7_2_mbox_conf_perm
I0615 20:34:31.870630 19289 net.cpp:157] Top shape: 32 5 5 66 (52800)
I0615 20:34:31.870633 19289 net.cpp:165] Memory required for data: 8248091968
I0615 20:34:31.870637 19289 layer_factory.hpp:77] Creating layer conv7_2_mbox_conf_flat
I0615 20:34:31.870645 19289 net.cpp:100] Creating Layer conv7_2_mbox_conf_flat
I0615 20:34:31.870651 19289 net.cpp:434] conv7_2_mbox_conf_flat <- conv7_2_mbox_conf_perm
I0615 20:34:31.870658 19289 net.cpp:408] conv7_2_mbox_conf_flat -> conv7_2_mbox_conf_flat
I0615 20:34:31.870677 19289 net.cpp:150] Setting up conv7_2_mbox_conf_flat
I0615 20:34:31.870683 19289 net.cpp:157] Top shape: 32 1650 (52800)
I0615 20:34:31.870687 19289 net.cpp:165] Memory required for data: 8248303168
I0615 20:34:31.870692 19289 layer_factory.hpp:77] Creating layer conv7_2_mbox_priorbox
I0615 20:34:31.870700 19289 net.cpp:100] Creating Layer conv7_2_mbox_priorbox
I0615 20:34:31.870707 19289 net.cpp:434] conv7_2_mbox_priorbox <- conv7_2_conv7_2_relu_0_split_3
I0615 20:34:31.870713 19289 net.cpp:434] conv7_2_mbox_priorbox <- data_data_0_split_4
I0615 20:34:31.870721 19289 net.cpp:408] conv7_2_mbox_priorbox -> conv7_2_mbox_priorbox
I0615 20:34:31.870748 19289 net.cpp:150] Setting up conv7_2_mbox_priorbox
I0615 20:34:31.870754 19289 net.cpp:157] Top shape: 1 2 600 (1200)
I0615 20:34:31.870759 19289 net.cpp:165] Memory required for data: 8248307968
I0615 20:34:31.870762 19289 layer_factory.hpp:77] Creating layer conv8_2_mbox_loc
I0615 20:34:31.870775 19289 net.cpp:100] Creating Layer conv8_2_mbox_loc
I0615 20:34:31.870780 19289 net.cpp:434] conv8_2_mbox_loc <- conv8_2_conv8_2_relu_0_split_1
I0615 20:34:31.870787 19289 net.cpp:408] conv8_2_mbox_loc -> conv8_2_mbox_loc
I0615 20:34:31.871565 19289 net.cpp:150] Setting up conv8_2_mbox_loc
I0615 20:34:31.871582 19289 net.cpp:157] Top shape: 32 16 3 3 (4608)
I0615 20:34:31.871585 19289 net.cpp:165] Memory required for data: 8248326400
I0615 20:34:31.871592 19289 layer_factory.hpp:77] Creating layer conv8_2_mbox_loc_perm
I0615 20:34:31.871601 19289 net.cpp:100] Creating Layer conv8_2_mbox_loc_perm
I0615 20:34:31.871606 19289 net.cpp:434] conv8_2_mbox_loc_perm <- conv8_2_mbox_loc
I0615 20:34:31.871613 19289 net.cpp:408] conv8_2_mbox_loc_perm -> conv8_2_mbox_loc_perm
I0615 20:34:31.871685 19289 net.cpp:150] Setting up conv8_2_mbox_loc_perm
I0615 20:34:31.871695 19289 net.cpp:157] Top shape: 32 3 3 16 (4608)
I0615 20:34:31.871698 19289 net.cpp:165] Memory required for data: 8248344832
I0615 20:34:31.871701 19289 layer_factory.hpp:77] Creating layer conv8_2_mbox_loc_flat
I0615 20:34:31.871708 19289 net.cpp:100] Creating Layer conv8_2_mbox_loc_flat
I0615 20:34:31.871712 19289 net.cpp:434] conv8_2_mbox_loc_flat <- conv8_2_mbox_loc_perm
I0615 20:34:31.871717 19289 net.cpp:408] conv8_2_mbox_loc_flat -> conv8_2_mbox_loc_flat
I0615 20:34:31.871737 19289 net.cpp:150] Setting up conv8_2_mbox_loc_flat
I0615 20:34:31.871742 19289 net.cpp:157] Top shape: 32 144 (4608)
I0615 20:34:31.871747 19289 net.cpp:165] Memory required for data: 8248363264
I0615 20:34:31.871750 19289 layer_factory.hpp:77] Creating layer conv8_2_mbox_conf
I0615 20:34:31.871759 19289 net.cpp:100] Creating Layer conv8_2_mbox_conf
I0615 20:34:31.871764 19289 net.cpp:434] conv8_2_mbox_conf <- conv8_2_conv8_2_relu_0_split_2
I0615 20:34:31.871770 19289 net.cpp:408] conv8_2_mbox_conf -> conv8_2_mbox_conf
I0615 20:34:31.872794 19289 net.cpp:150] Setting up conv8_2_mbox_conf
I0615 20:34:31.872817 19289 net.cpp:157] Top shape: 32 44 3 3 (12672)
I0615 20:34:31.872822 19289 net.cpp:165] Memory required for data: 8248413952
I0615 20:34:31.872830 19289 layer_factory.hpp:77] Creating layer conv8_2_mbox_conf_perm
I0615 20:34:31.872841 19289 net.cpp:100] Creating Layer conv8_2_mbox_conf_perm
I0615 20:34:31.872848 19289 net.cpp:434] conv8_2_mbox_conf_perm <- conv8_2_mbox_conf
I0615 20:34:31.872857 19289 net.cpp:408] conv8_2_mbox_conf_perm -> conv8_2_mbox_conf_perm
I0615 20:34:31.872951 19289 net.cpp:150] Setting up conv8_2_mbox_conf_perm
I0615 20:34:31.872959 19289 net.cpp:157] Top shape: 32 3 3 44 (12672)
I0615 20:34:31.872962 19289 net.cpp:165] Memory required for data: 8248464640
I0615 20:34:31.872967 19289 layer_factory.hpp:77] Creating layer conv8_2_mbox_conf_flat
I0615 20:34:31.872977 19289 net.cpp:100] Creating Layer conv8_2_mbox_conf_flat
I0615 20:34:31.872982 19289 net.cpp:434] conv8_2_mbox_conf_flat <- conv8_2_mbox_conf_perm
I0615 20:34:31.872987 19289 net.cpp:408] conv8_2_mbox_conf_flat -> conv8_2_mbox_conf_flat
I0615 20:34:31.873008 19289 net.cpp:150] Setting up conv8_2_mbox_conf_flat
I0615 20:34:31.873014 19289 net.cpp:157] Top shape: 32 396 (12672)
I0615 20:34:31.873018 19289 net.cpp:165] Memory required for data: 8248515328
I0615 20:34:31.873021 19289 layer_factory.hpp:77] Creating layer conv8_2_mbox_priorbox
I0615 20:34:31.873030 19289 net.cpp:100] Creating Layer conv8_2_mbox_priorbox
I0615 20:34:31.873036 19289 net.cpp:434] conv8_2_mbox_priorbox <- conv8_2_conv8_2_relu_0_split_3
I0615 20:34:31.873041 19289 net.cpp:434] conv8_2_mbox_priorbox <- data_data_0_split_5
I0615 20:34:31.873049 19289 net.cpp:408] conv8_2_mbox_priorbox -> conv8_2_mbox_priorbox
I0615 20:34:31.873075 19289 net.cpp:150] Setting up conv8_2_mbox_priorbox
I0615 20:34:31.873081 19289 net.cpp:157] Top shape: 1 2 144 (288)
I0615 20:34:31.873085 19289 net.cpp:165] Memory required for data: 8248516480
I0615 20:34:31.873087 19289 layer_factory.hpp:77] Creating layer conv9_2_mbox_loc
I0615 20:34:31.873100 19289 net.cpp:100] Creating Layer conv9_2_mbox_loc
I0615 20:34:31.873104 19289 net.cpp:434] conv9_2_mbox_loc <- conv9_2_conv9_2_relu_0_split_0
I0615 20:34:31.873116 19289 net.cpp:408] conv9_2_mbox_loc -> conv9_2_mbox_loc
I0615 20:34:31.873924 19289 net.cpp:150] Setting up conv9_2_mbox_loc
I0615 20:34:31.873945 19289 net.cpp:157] Top shape: 32 16 1 1 (512)
I0615 20:34:31.873950 19289 net.cpp:165] Memory required for data: 8248518528
I0615 20:34:31.873960 19289 layer_factory.hpp:77] Creating layer conv9_2_mbox_loc_perm
I0615 20:34:31.873970 19289 net.cpp:100] Creating Layer conv9_2_mbox_loc_perm
I0615 20:34:31.873975 19289 net.cpp:434] conv9_2_mbox_loc_perm <- conv9_2_mbox_loc
I0615 20:34:31.873982 19289 net.cpp:408] conv9_2_mbox_loc_perm -> conv9_2_mbox_loc_perm
I0615 20:34:31.874058 19289 net.cpp:150] Setting up conv9_2_mbox_loc_perm
I0615 20:34:31.874065 19289 net.cpp:157] Top shape: 32 1 1 16 (512)
I0615 20:34:31.874068 19289 net.cpp:165] Memory required for data: 8248520576
I0615 20:34:31.874073 19289 layer_factory.hpp:77] Creating layer conv9_2_mbox_loc_flat
I0615 20:34:31.874080 19289 net.cpp:100] Creating Layer conv9_2_mbox_loc_flat
I0615 20:34:31.874086 19289 net.cpp:434] conv9_2_mbox_loc_flat <- conv9_2_mbox_loc_perm
I0615 20:34:31.874092 19289 net.cpp:408] conv9_2_mbox_loc_flat -> conv9_2_mbox_loc_flat
I0615 20:34:31.874111 19289 net.cpp:150] Setting up conv9_2_mbox_loc_flat
I0615 20:34:31.874117 19289 net.cpp:157] Top shape: 32 16 (512)
I0615 20:34:31.874120 19289 net.cpp:165] Memory required for data: 8248522624
I0615 20:34:31.874125 19289 layer_factory.hpp:77] Creating layer conv9_2_mbox_conf
I0615 20:34:31.874138 19289 net.cpp:100] Creating Layer conv9_2_mbox_conf
I0615 20:34:31.874143 19289 net.cpp:434] conv9_2_mbox_conf <- conv9_2_conv9_2_relu_0_split_1
I0615 20:34:31.874150 19289 net.cpp:408] conv9_2_mbox_conf -> conv9_2_mbox_conf
I0615 20:34:31.876600 19289 net.cpp:150] Setting up conv9_2_mbox_conf
I0615 20:34:31.876629 19289 net.cpp:157] Top shape: 32 44 1 1 (1408)
I0615 20:34:31.876632 19289 net.cpp:165] Memory required for data: 8248528256
I0615 20:34:31.876643 19289 layer_factory.hpp:77] Creating layer conv9_2_mbox_conf_perm
I0615 20:34:31.876657 19289 net.cpp:100] Creating Layer conv9_2_mbox_conf_perm
I0615 20:34:31.876664 19289 net.cpp:434] conv9_2_mbox_conf_perm <- conv9_2_mbox_conf
I0615 20:34:31.876673 19289 net.cpp:408] conv9_2_mbox_conf_perm -> conv9_2_mbox_conf_perm
I0615 20:34:31.876749 19289 net.cpp:150] Setting up conv9_2_mbox_conf_perm
I0615 20:34:31.876757 19289 net.cpp:157] Top shape: 32 1 1 44 (1408)
I0615 20:34:31.876781 19289 net.cpp:165] Memory required for data: 8248533888
I0615 20:34:31.876785 19289 layer_factory.hpp:77] Creating layer conv9_2_mbox_conf_flat
I0615 20:34:31.876793 19289 net.cpp:100] Creating Layer conv9_2_mbox_conf_flat
I0615 20:34:31.876797 19289 net.cpp:434] conv9_2_mbox_conf_flat <- conv9_2_mbox_conf_perm
I0615 20:34:31.876804 19289 net.cpp:408] conv9_2_mbox_conf_flat -> conv9_2_mbox_conf_flat
I0615 20:34:31.876825 19289 net.cpp:150] Setting up conv9_2_mbox_conf_flat
I0615 20:34:31.876832 19289 net.cpp:157] Top shape: 32 44 (1408)
I0615 20:34:31.876837 19289 net.cpp:165] Memory required for data: 8248539520
I0615 20:34:31.876840 19289 layer_factory.hpp:77] Creating layer conv9_2_mbox_priorbox
I0615 20:34:31.876848 19289 net.cpp:100] Creating Layer conv9_2_mbox_priorbox
I0615 20:34:31.876852 19289 net.cpp:434] conv9_2_mbox_priorbox <- conv9_2_conv9_2_relu_0_split_2
I0615 20:34:31.876857 19289 net.cpp:434] conv9_2_mbox_priorbox <- data_data_0_split_6
I0615 20:34:31.876863 19289 net.cpp:408] conv9_2_mbox_priorbox -> conv9_2_mbox_priorbox
I0615 20:34:31.876889 19289 net.cpp:150] Setting up conv9_2_mbox_priorbox
I0615 20:34:31.876895 19289 net.cpp:157] Top shape: 1 2 16 (32)
I0615 20:34:31.876899 19289 net.cpp:165] Memory required for data: 8248539648
I0615 20:34:31.876904 19289 layer_factory.hpp:77] Creating layer mbox_loc
I0615 20:34:31.876911 19289 net.cpp:100] Creating Layer mbox_loc
I0615 20:34:31.876916 19289 net.cpp:434] mbox_loc <- conv4_3_norm_mbox_loc_flat
I0615 20:34:31.876921 19289 net.cpp:434] mbox_loc <- fc7_mbox_loc_flat
I0615 20:34:31.876927 19289 net.cpp:434] mbox_loc <- conv6_2_mbox_loc_flat
I0615 20:34:31.876932 19289 net.cpp:434] mbox_loc <- conv7_2_mbox_loc_flat
I0615 20:34:31.876936 19289 net.cpp:434] mbox_loc <- conv8_2_mbox_loc_flat
I0615 20:34:31.876940 19289 net.cpp:434] mbox_loc <- conv9_2_mbox_loc_flat
I0615 20:34:31.876946 19289 net.cpp:408] mbox_loc -> mbox_loc
I0615 20:34:31.876971 19289 net.cpp:150] Setting up mbox_loc
I0615 20:34:31.876977 19289 net.cpp:157] Top shape: 32 34928 (1117696)
I0615 20:34:31.876981 19289 net.cpp:165] Memory required for data: 8253010432
I0615 20:34:31.876986 19289 layer_factory.hpp:77] Creating layer mbox_conf
I0615 20:34:31.876991 19289 net.cpp:100] Creating Layer mbox_conf
I0615 20:34:31.876996 19289 net.cpp:434] mbox_conf <- conv4_3_norm_mbox_conf_flat
I0615 20:34:31.877001 19289 net.cpp:434] mbox_conf <- fc7_mbox_conf_flat
I0615 20:34:31.877005 19289 net.cpp:434] mbox_conf <- conv6_2_mbox_conf_flat
I0615 20:34:31.877009 19289 net.cpp:434] mbox_conf <- conv7_2_mbox_conf_flat
I0615 20:34:31.877014 19289 net.cpp:434] mbox_conf <- conv8_2_mbox_conf_flat
I0615 20:34:31.877018 19289 net.cpp:434] mbox_conf <- conv9_2_mbox_conf_flat
I0615 20:34:31.877023 19289 net.cpp:408] mbox_conf -> mbox_conf
I0615 20:34:31.877048 19289 net.cpp:150] Setting up mbox_conf
I0615 20:34:31.877054 19289 net.cpp:157] Top shape: 32 96052 (3073664)
I0615 20:34:31.877058 19289 net.cpp:165] Memory required for data: 8265305088
I0615 20:34:31.877061 19289 layer_factory.hpp:77] Creating layer mbox_priorbox
I0615 20:34:31.877068 19289 net.cpp:100] Creating Layer mbox_priorbox
I0615 20:34:31.877071 19289 net.cpp:434] mbox_priorbox <- conv4_3_norm_mbox_priorbox
I0615 20:34:31.877076 19289 net.cpp:434] mbox_priorbox <- fc7_mbox_priorbox
I0615 20:34:31.877081 19289 net.cpp:434] mbox_priorbox <- conv6_2_mbox_priorbox
I0615 20:34:31.877086 19289 net.cpp:434] mbox_priorbox <- conv7_2_mbox_priorbox
I0615 20:34:31.877090 19289 net.cpp:434] mbox_priorbox <- conv8_2_mbox_priorbox
I0615 20:34:31.877094 19289 net.cpp:434] mbox_priorbox <- conv9_2_mbox_priorbox
I0615 20:34:31.877099 19289 net.cpp:408] mbox_priorbox -> mbox_priorbox
I0615 20:34:31.877118 19289 net.cpp:150] Setting up mbox_priorbox
I0615 20:34:31.877123 19289 net.cpp:157] Top shape: 1 2 34928 (69856)
I0615 20:34:31.877126 19289 net.cpp:165] Memory required for data: 8265584512
I0615 20:34:31.877130 19289 layer_factory.hpp:77] Creating layer mbox_loss
I0615 20:34:31.877141 19289 net.cpp:100] Creating Layer mbox_loss
I0615 20:34:31.877152 19289 net.cpp:434] mbox_loss <- mbox_loc
I0615 20:34:31.877157 19289 net.cpp:434] mbox_loss <- mbox_conf
I0615 20:34:31.877162 19289 net.cpp:434] mbox_loss <- mbox_priorbox
…
  phase: TEST
}
layer {
  name: "data"
  type: "AnnotatedData"
  top: "data"
  top: "label"
  include {
    phase: TEST
  }
  transform_param {
    mean_value: 104
    mean_value: 117
    mean_value: 123
    resize_param {
      prob: 1
      resize_mode: WARP
      height: 300
      width: 300
      interp_mode: LINEAR
    }
  }
  data_param {
    source: "examples/NWPU_VHR/NWPU_VHR_test_lmdb"
    batch_size: 1
    backend: LMDB
  }
  annotated_data_param {
    batch_sampler {
    }
    label_map_file: "data/NWPU_VHR/labelmap_NWPU_VHR.prototxt"
  }
}
layer {
  name: "conv1_1"
  type: "Convolution"
  bottom: "data"
  top: "conv1_1"
  param {
    lr_mult: 1
    decay_mult: 1
  }
  param {
    lr_mult: 2
    decay_mult: 0
  }
  convolution_param {
    num_output: 64
    pad: 1
    kernel_size: 3
    weight_filler {
      type: "xavier"
    }
    bias_filler {
      type: "constant"
      value: 0
    }
  }
}
layer {
  name: "relu1_1"
  type: "ReLU"
  bottom: "conv1_1"
  top: "conv1_1"
}
layer {
  name: "conv1_2"
  type: "Convolution"
  bottom: "conv1_1"
  top: "conv1_2"
  param {
    lr_mult: 1
    decay_mult: 1
  }
  param {
    lr_mult: 2
    decay_mult: 0
  }
  convolution_param {
    num_output: 64
    pad: 1
    kernel_size: 3
    weight_filler {
      type: "xavier"
    }
    bias_filler {
      type: "constant"
      value: 0
    }
  }
}
layer {
  name: "relu1_2"
  type: "ReLU"
  bottom: "conv1_2"
  top: "conv1_2"
}
layer {
  name: "pool1"
  type: "Pooling"
  bottom: "conv1_2"
  top: "pool1"
  pooling_param {
    pool: MAX
    kernel_size: 2
    stride: 2
  }
}
layer {
  name: "conv2_1"
  type: "Convolution"
  bottom: "pool1"
  top: "conv2_1"
  param {
    lr_mult: 1
    decay_mult: 1
  }
  param {
    lr_mult: 2
    decay_mult: 0
  }
  convolution_param {
    num_output: 128
    pad: 1
    kernel_size: 3
    weight_filler {
      type: "xavier"
    }
    bias_filler {
      type: "constant"
      value: 0
    }
  }
}
layer {
  name: "relu2_1"
  type: "ReLU"
  bottom: "conv2_1"
  top: "conv2_1"
}
layer {
  name: "conv2_2"
  type: "Convolution"
  bottom: "conv2_1"
  top: "conv2_2"
  param {
    lr_mult: 1
    decay_mult: 1
  }
  param {
    lr_mult: 2
    decay_mult: 0
  }
  convolution_param {
    num_output: 128
    pad: 1
    kernel_size: 3
    weight_filler {
      type: "xavier"
    }
    bias_filler {
      type: "constant"
      value: 0
    }
  }
}
layer {
  name: "relu2_2"
  type: "ReLU"
  bottom: "conv2_2"
  top: "conv2_2"
}
layer {
  name: "pool2"
  type: "Pooling"
  bottom: "conv2_2"
  top: "pool2"
  pooling_param {
    pool: MAX
    kernel_size: 2
    stride: 2
  }
}
layer {
  name: "conv3_1"
  type: "Convolution"
  bottom: "pool2"
  top: "conv3_1"
  param {
    lr_mult: 1
    decay_mult: 1
  }
  param {
    lr_mult: 2
    decay_mult: 0
  }
  convolution_param {
    num_output: 256
    pad: 1
    kernel_size: 3
    weight_filler {
      type: "xavier"
    }
    bias_filler {
      type: "constant"
      value: 0
    }
  }
}
layer {
  name: "relu3_1"
  type: "ReLU"
  bottom: "conv3_1"
  top: "conv3_1"
}
layer {
  name: "conv3_2"
  type: "Convolution"
  bottom: "conv3_1"
  top: "conv3_2"
  param {
    lr_mult: 1
    decay_mult: 1
  }
  param {
    lr_mult: 2
    decay_mult: 0
  }
  convolution_param {
    num_output: 256
    pad: 1
    kernel_size: 3
    weight_filler {
      type: "xavier"
    }
    bias_filler {
      type: "constant"
      value: 0
    }
  }
}
layer {
  name: "relu3_2"
  type: "ReLU"
  bottom: "conv3_2"
  top: "conv3_2"
}
layer {
  name: "conv3_3"
  type: "Convolution"
  bottom: "conv3_2"
  top: "conv3_3"
  param {
    lr_mult: 1
    decay_mult: 1
  }
  param {
    lr_mult: 2
    decay_mult: 0
  }
  convolution_param {
    num_output: 256
    pad: 1
    kernel_size: 3
    weight_filler {
      type: "xavier"
    }
    bias_filler {
      type: "constant"
      value: 0
    }
  }
}
layer {
  name: "relu3_3"
  type: "ReLU"
  bottom: "conv3_3"
  top: "conv3_3"
}
layer {
  name: "pool3"
  type: "Pooling"
  bottom: "conv3_3"
  top: "pool3"
  pooling_param {
    pool: MAX
    kernel_size: 2
    stride: 2
  }
}
layer {
  name: "conv4_1_depthwise"
  type: "DepthwiseConvolution"
  bottom: "pool3"
  top: "conv4_1_3x3"
  param {
    lr_mult: 1
    decay_mult: 1
  }
  param {
    lr_mult: 2
    decay_mult: 0
  }
  convolution_param {
    num_output: 256
    pad: 1
    kernel_size: 3
    group: 256
    weight_filler {
      type: "xavier"
    }
    bias_filler {
      type: "constant"
      value: 0
    }
  }
}
layer {
  name: "conv4_1_3x3_relu"
  type: "ReLU"
  bottom: "conv4_1_3x3"
  top: "conv4_1_3x3"
}
layer {
  name: "conv4_1_1x1"
  type: "Convolution"
  bottom: "conv4_1_3x3"
  top: "conv4_1"
  param {
    lr_mult: 1
    decay_mult: 1
  }
  param {
    lr_mult: 2
    decay_mult: 0
  }
  convolution_param {
    num_output: 512
    pad: 0
    kernel_size: 1
    stride: 1
    weight_filler {
      type: "xavier"
    }
    bias_filler {
      type: "constant"
      value: 0
    }
  }
}
layer {
  name: "relu4_1"
  type: "ReLU"
  bottom: "conv4_1"
  top: "conv4_1"
}
layer {
  name: "conv4_2"
  type: "Convolution"
  bottom: "conv4_1"
  top: "conv4_2"
  param {
    lr_mult: 1
    decay_mult: 1
  }
  param {
    lr_mult: 2
    decay_mult: 0
  }
  convolution_param {
    num_output: 512
    pad: 1
    kernel_size: 3
    weight_filler {
      type: "xavier"
    }
    bias_filler {
      type: "constant"
      value: 0
    }
  }
}
layer {
  name: "relu4_2"
  type: "ReLU"
  bottom: "conv4_2"
  top: "conv4_2"
}
layer {
  name: "conv4_3"
  type: "Convolution"
  bottom: "conv4_2"
  top: "conv4_3"
  param {
    lr_mult: 1
    decay_mult: 1
  }
  param {
    lr_mult: 2
    decay_mult: 0
  }
  convolution_param {
    num_output: 512
    pad: 1
    kernel_size: 3
    weight_filler {
      type: "xavier"
    }
    bias_filler {
      type: "constant"
      value: 0
    }
  }
}
layer {
  name: "relu4_3"
  type: "ReLU"
  bottom: "conv4_3"
  top: "conv4_3"
}
layer {
  name: "pool4"
  type: "Pooling"
  bottom: "conv4_3"
  top: "pool4"
  pooling_param {
    pool: MAX
    kernel_size: 2
    stride: 2
  }
}
layer {
  name: "conv5_1_depthwise"
  type: "DepthwiseConvolution"
  bottom: "pool4"
  top: "conv5_1_3x3"
  param {
    lr_mult: 1
    decay_mult: 1
  }
  param {
    lr_mult: 2
    decay_mult: 0
  }
  convolution_param {
    num_output: 512
    pad: 1
    kernel_size: 3
    group: 512
    weight_filler {
      type: "xavier"
    }
    bias_filler {
      type: "constant"
      value: 0
    }
    dilation: 1
  }
}
layer {
  name: "conv5_1_3x3_relu"
  type: "ReLU"
  bottom: "conv5_1_3x3"
  top: "conv5_1_3x3"
}
layer {
  name: "conv5_1_1x1"
  type: "Convolution"
  bottom: "conv5_1_3x3"
  top: "conv5_1"
  param {
    lr_mult: 1
    decay_mult: 1
  }
  param {
    lr_mult: 2
    decay_mult: 0
  }
  convolution_param {
    num_output: 512
    pad: 0
    kernel_size: 1
    stride: 1
    weight_filler {
      type: "xavier"
    }
    bias_filler {
      type: "constant"
      value: 0
    }
    dilation: 1
  }
}
layer {
  name: "relu5_1"
  type: "ReLU"
  bottom: "conv5_1"
  top: "conv5_1"
}
layer {
  name: "conv5_2_depthwise"
  type: "DepthwiseConvolution"
  bottom: "conv5_1"
  top: "conv5_2_3x3"
  param {
    lr_mult: 1
    decay_mult: 1
  }
  param {
    lr_mult: 2
    decay_mult: 0
  }
  convolution_param {
    num_output: 512
    pad: 1
    kernel_size: 3
    group: 512
    weight_filler {
      type: "xavier"
    }
    bias_filler {
      type: "constant"
      value: 0
    }
    dilation: 1
  }
}
layer {
  name: "conv5_2_3x3_relu"
  type: "ReLU"
  bottom: "conv5_2_3x3"
  top: "conv5_2_3x3"
}
layer {
  name: "conv5_2_1x1"
  type: "Convolution"
  bottom: "conv5_2_3x3"
  top: "conv5_2"
  param {
    lr_mult: 1
    decay_mult: 1
  }
  param {
    lr_mult: 2
    decay_mult: 0
  }
  convolution_param {
    num_output: 512
    pad: 0
    kernel_size: 1
    stride: 1
    weight_filler {
      type: "xavier"
    }
    bias_filler {
      type: "constant"
      value: 0
    }
    dilation: 1
  }
}
layer {
  name: "relu5_2"
  type: "ReLU"
  bottom: "conv5_2"
  top: "conv5_2"
}
layer {
  name: "conv5_3_depthwise"
  type: "DepthwiseConvolution"
  bottom: "conv5_2"
  top: "conv5_3_3x3"
  param {
    lr_mult: 1
    decay_mult: 1
  }
  param {
    lr_mult: 2
    decay_mult: 0
  }
  convolution_param {
    num_output: 512
    pad: 1
    kernel_size: 3
    group: 512
    weight_filler {
      type: "xavier"
    }
    bias_filler {
      type: "constant"
      value: 0
    }
    dilation: 1
  }
}
layer {
  name: "conv5_3_3x3_relu"
  type: "ReLU"
  bottom: "conv5_3_3x3"
  top: "conv5_3_3x3"
}
layer {
  name: "conv5_3_1x1"
  type: "Convolution"
  bottom: "conv5_3_3x3"
  top: "conv5_3"
  param {
    lr_mult: 1
    decay_mult: 1
  }
  param {
    lr_mult: 2
    decay_mult: 0
  }
  convolution_param {
    num_output: 512
    pad: 0
    kernel_size: 1
    stride: 1
    weight_filler {
      type: "xavier"
    }
    bias_filler {
      type: "constant"
      value: 0
    }
    dilation: 1
  }
}
layer {
  name: "relu5_3"
  type: "ReLU"
  bottom: "conv5_3"
  top: "conv5_3"
}
layer {
  name: "pool5"
  type: "Pooling"
  bottom: "conv5_3"
  top: "pool5"
  pooling_param {
    pool: MAX
    kernel_size: 3
    stride: 1
    pad: 1
  }
}
layer {
  name: "fc6_depthwise"
  type: "DepthwiseConvolution"
  bottom: "pool5"
  top: "fc6_3x3"
  param {
    lr_mult: 1
    decay_mult: 1
  }
  param {
    lr_mult: 2
    decay_mult: 0
  }
  convolution_param {
    num_output: 512
    pad: 6
    kernel_size: 3
    group: 512
    weight_filler {
      type: "xavier"
    }
    bias_filler {
      type: "constant"
      value: 0
    }
    dilation: 6
  }
}
layer {
  name: "fc6_3x3_relu"
  type: "ReLU"
  bottom: "fc6_3x3"
  top: "fc6_3x3"
}
layer {
  name: "fc6_1x1"
  type: "Convolution"
  bottom: "fc6_3x3"
  top: "fc6"
  param {
    lr_mult: 1
    decay_mult: 1
  }
  param {
    lr_mult: 2
    decay_mult: 0
  }
  convolution_param {
    num_output: 1024
    pad: 0
    kernel_size: 1
    stride: 1
    weight_filler {
      type: "xavier"
    }
    bias_filler {
      type: "constant"
      value: 0
    }
    dilation: 6
  }
}
layer {
  name: "relu6"
  type: "ReLU"
  bottom: "fc6"
  top: "fc6"
}
layer {
  name: "fc7"
  type: "Convolution"
  bottom: "fc6"
  top: "fc7"
  param {
    lr_mult: 1
    decay_mult: 1
  }
  param {
    lr_mult: 2
    decay_mult: 0
  }
  convolution_param {
    num_output: 1024
    kernel_size: 1
    weight_filler {
      type: "xavier"
    }
    bias_filler {
      type: "constant"
      value: 0
    }
  }
}
layer {
  name: "relu7"
  type: "ReLU"
  bottom: "fc7"
  top: "fc7"
}
layer {
  name: "conv6_1"
  type: "Convolution"
  bottom: "fc7"
  top: "conv6_1"
  param {
    lr_mult: 1
    decay_mult: 1
  }
  param {
    lr_mult: 2
    decay_mult: 0
  }
  convolution_param {
    num_output: 256
    pad: 0
    kernel_size: 1
    stride: 1
    weight_filler {
      type: "xavier"
    }
    bias_filler {
      type: "constant"
      value: 0
    }
  }
}
layer {
  name: "conv6_1_relu"
  type: "ReLU"
  bottom: "conv6_1"
  top: "conv6_1"
}
layer {
  name: "conv6_2_depthwise"
  type: "DepthwiseConvolution"
  bottom: "conv6_1"
  top: "conv6_2_3x3"
  param {
    lr_mult: 1
    decay_mult: 1
  }
  param {
    lr_mult: 2
    decay_mult: 0
  }
  convolution_param {
    num_output: 256
    pad: 1
    kernel_size: 3
    group: 256
    stride: 2
    weight_filler {
      type: "xavier"
    }
    bias_filler {
      type: "constant"
      value: 0
    }
  }
}
layer {
  name: "conv6_2_3x3_relu"
  type: "ReLU"
  bottom: "conv6_2_3x3"
  top: "conv6_2_3x3"
}
layer {
  name: "conv6_2_1x1"
  type: "Convolution"
  bottom: "conv6_2_3x3"
  top: "conv6_2"
  param {
    lr_mult: 1
    decay_mult: 1
  }
  param {
    lr_mult: 2
    decay_mult: 0
  }
  convolution_param {
    num_output: 512
    pad: 0
    kernel_size: 1
    stride: 1
    weight_filler {
      type: "xavier"
    }
    bias_filler {
      type: "constant"
      value: 0
    }
  }
}
layer {
  name: "conv6_2_relu"
  type: "ReLU"
  bottom: "conv6_2"
  top: "conv6_2"
}
layer {
  name: "conv7_1"
  type: "Convolution"
  bottom: "conv6_2"
  top: "conv7_1"
  param {
    lr_mult: 1
    decay_mult: 1
  }
  param {
    lr_mult: 2
    decay_mult: 0
  }
  convolution_param {
    num_output: 128
    pad: 0
    kernel_size: 1
    stride: 1
    weight_filler {
      type: "xavier"
    }
    bias_filler {
      type: "constant"
      value: 0
    }
  }
}
layer {
  name: "conv7_1_relu"
  type: "ReLU"
  bottom: "conv7_1"
  top: "conv7_1"
}
layer {
  name: "conv7_2"
  type: "Convolution"
  bottom: "conv7_1"
  top: "conv7_2"
  param {
    lr_mult: 1
    decay_mult: 1
  }
  param {
    lr_mult: 2
    decay_mult: 0
  }
  convolution_param {
    num_output: 256
    pad: 1
    kernel_size: 3
    stride: 2
    weight_filler {
      type: "xavier"
    }
    bias_filler {
      type: "constant"
      value: 0
    }
  }
}
layer {
  name: "conv7_2_relu"
  type: "ReLU"
  bottom: "conv7_2"
  top: "conv7_2"
}
layer {
  name: "conv8_1"
  type: "Convolution"
  bottom: "conv7_2"
  top: "conv8_1"
  param {
    lr_mult: 1
    decay_mult: 1
  }
  param {
    lr_mult: 2
    decay_mult: 0
  }
  convolution_param {
    num_output: 128
    pad: 0
    kernel_size: 1
    stride: 1
    weight_filler {
      type: "xavier"
    }
    bias_filler {
      type: "constant"
      value: 0
    }
  }
}
layer {
  name: "conv8_1_relu"
  type: "ReLU"
  bottom: "conv8_1"
  top: "conv8_1"
}
layer {
  name: "conv8_2"
  type: "Convolution"
  bottom: "conv8_1"
  top: "conv8_2"
  param {
    lr_mult: 1
    decay_mult: 1
  }
  param {
    lr_mult: 2
    decay_mult: 0
  }
  convolution_param {
    num_output: 256
    pad: 0
    kernel_size: 3
    stride: 1
    weight_filler {
      type: "xavier"
    }
    bias_filler {
      type: "constant"
      value: 0
    }
  }
}
layer {
  name: "conv8_2_relu"
  type: "ReLU"
  bottom: "conv8_2"
  top: "conv8_2"
}
layer {
  name: "conv9_1"
  type: "Convolution"
  bottom: "conv8_2"
  top: "conv9_1"
  param {
    lr_mult: 1
    decay_mult: 1
  }
  param {
    lr_mult: 2
    decay_mult: 0
  }
  convolution_param {
    num_output: 128
    pad: 0
    kernel_size: 1
    stride: 1
    weight_filler {
      type: "xavier"
    }
    bias_filler {
      type: "constant"
      value: 0
    }
  }
}
layer {
  name: "conv9_1_relu"
  type: "ReLU"
  bottom: "conv9_1"
  top: "conv9_1"
}
layer {
  name: "conv9_2"
  type: "Convolution"
  bottom: "conv9_1"
  top: "conv9_2"
  param {
    lr_mult: 1
    decay_mult: 1
  }
  param {
    lr_mult: 2
    decay_mult: 0
  }
  convolution_param {
    num_output: 256
    pad: 0
    kernel_size: 3
    stride: 1
    weight_filler {
      type: "xavier"
    }
    bias_filler {
      type: "constant"
      value: 0
    }
  }
}
layer {
  name: "conv9_2_relu"
  type: "ReLU"
  bottom: "conv9_2"
  top: "conv9_2"
}
layer {
  name: "conv4_3_norm"
  type: "Normalize"
  bottom: "conv4_3"
  top: "conv4_3_norm"
  norm_param {
    across_spatial: false
    scale_filler {
      type: "constant"
      value: 20
    }
    channel_shared: false
  }
}
layer {
  name: "conv4_3_norm_mbox_loc"
  type: "Convolution"
  bottom: "conv4_3_norm"
  top: "conv4_3_norm_mbox_loc"
  param {
    lr_mult: 1
    decay_mult: 1
  }
  param {
    lr_mult: 2
    decay_mult: 0
  }
  convolution_param {
    num_output: 16
    pad: 1
    kernel_size: 3
    stride: 1
    weight_filler {
      type: "xavier"
    }
    bias_filler {
      type: "constant"
      value: 0
    }
  }
}
layer {
  name: "conv4_3_norm_mbox_loc_perm"
  type: "Permute"
  bottom: "conv4_3_norm_mbox_loc"
  top: "conv4_3_norm_mbox_loc_perm"
  permute_param {
    order: 0
    order: 2
    order: 3
    order: 1
  }
}
layer {
  name: "conv4_3_norm_mbox_loc_flat"
  type: "Flatten"
  bottom: "conv4_3_norm_mbox_loc_perm"
  top: "conv4_3_norm_mbox_loc_flat"
  flatten_param {
    axis: 1
  }
}
layer {
  name: "conv4_3_norm_mbox_conf"
  type: "Convolution"
  bottom: "conv4_3_norm"
  top: "conv4_3_norm_mbox_conf"
  param {
    lr_mult: 1
    decay_mult: 1
  }
  param {
    lr_mult: 2
    decay_mult: 0
  }
  convolution_param {
    num_output: 44
    pad: 1
    kernel_size: 3
    stride: 1
    weight_filler {
      type: "xavier"
    }
    bias_filler {
      type: "constant"
      value: 0
    }
  }
}
layer {
  name: "conv4_3_norm_mbox_conf_perm"
  type: "Permute"
  bottom: "conv4_3_norm_mbox_conf"
  top: "conv4_3_norm_mbox_conf_perm"
  permute_param {
    order: 0
    order: 2
    order: 3
    order: 1
  }
}
layer {
  name: "conv4_3_norm_mbox_conf_flat"
  type: "Flatten"
  bottom: "conv4_3_norm_mbox_conf_perm"
  top: "conv4_3_norm_mbox_conf_flat"
  flatten_param {
    axis: 1
  }
}
layer {
  name: "conv4_3_norm_mbox_priorbox"
  type: "PriorBox"
  bottom: "conv4_3_norm"
  bottom: "data"
  top: "conv4_3_norm_mbox_priorbox"
  prior_box_param {
    min_size: 30
    max_size: 60
    aspect_ratio: 2
    flip: true
    clip: false
    variance: 0.1
    variance: 0.1
    variance: 0.2
    variance: 0.2
    step: 8
    offset: 0.5
  }
}
layer {
  name: "fc7_mbox_loc"
  type: "Convolution"
  bottom: "fc7"
  top: "fc7_mbox_loc"
  param {
    lr_mult: 1
    decay_mult: 1
  }
  param {
    lr_mult: 2
    decay_mult: 0
  }
  convolution_param {
    num_output: 24
    pad: 1
    kernel_size: 3
    stride: 1
    weight_filler {
      type: "xavier"
    }
    bias_filler {
      type: "constant"
      value: 0
    }
  }
}
layer {
  name: "fc7_mbox_loc_perm"
  type: "Permute"
  bottom: "fc7_mbox_loc"
  top: "fc7_mbox_loc_perm"
  permute_param {
    order: 0
    order: 2
    order: 3
    order: 1
  }
}
layer {
  name: "fc7_mbox_loc_flat"
  type: "Flatten"
  bottom: "fc7_mbox_loc_perm"
  top: "fc7_mbox_loc_flat"
  flatten_param {
    axis: 1
  }
}
layer {
  name: "fc7_mbox_conf"
  type: "Convolution"
  bottom: "fc7"
  top: "fc7_mbox_conf"
  param {
    lr_mult: 1
    decay_mult: 1
  }
  param {
    lr_mult: 2
    decay_mult: 0
  }
  convolution_param {
    num_output: 66
    pad: 1
    kernel_size: 3
    stride: 1
    weight_filler {
      type: "xavier"
    }
    bias_filler {
      type: "constant"
      value: 0
    }
  }
}
layer {
  name: "fc7_mbox_conf_perm"
  type: "Permute"
  bottom: "fc7_mbox_conf"
  top: "fc7_mbox_conf_perm"
  permute_param {
    order: 0
    order: 2
    order: 3
    order: 1
  }
}
layer {
  name: "fc7_mbox_conf_flat"
  type: "Flatten"
  bottom: "fc7_mbox_conf_perm"
  top: "fc7_mbox_conf_flat"
  flatten_param {
    axis: 1
  }
}
layer {
  name: "fc7_mbox_priorbox"
  type: "PriorBox"
  bottom: "fc7"
  bottom: "data"
  top: "fc7_mbox_priorbox"
  prior_box_param {
    min_size: 60
    max_size: 111
    aspect_ratio: 2
    aspect_ratio: 3
    flip: true
    clip: false
    variance: 0.1
    variance: 0.1
    variance: 0.2
    variance: 0.2
    step: 16
    offset: 0.5
  }
}
layer {
  name: "conv6_2_mbox_loc"
  type: "Convolution"
  bottom: "conv6_2"
  top: "conv6_2_mbox_loc"
  param {
    lr_mult: 1
    decay_mult: 1
  }
  param {
    lr_mult: 2
    decay_mult: 0
  }
  convolution_param {
    num_output: 24
    pad: 1
    kernel_size: 3
    stride: 1
    weight_filler {
      type: "xavier"
    }
    bias_filler {
      type: "constant"
      value: 0
    }
  }
}
layer {
  name: "conv6_2_mbox_loc_perm"
  type: "Permute"
  bottom: "conv6_2_mbox_loc"
  top: "conv6_2_mbox_loc_perm"
  permute_param {
    order: 0
    order: 2
    order: 3
    order: 1
  }
}
layer {
  name: "conv6_2_mbox_loc_flat"
  type: "Flatten"
  bottom: "conv6_2_mbox_loc_perm"
  top: "conv6_2_mbox_loc_flat"
  flatten_param {
    axis: 1
  }
}
layer {
  name: "conv6_2_mbox_conf"
  type: "Convolution"
  bottom: "conv6_2"
  top: "conv6_2_mbox_conf"
  param {
    lr_mult: 1
    decay_mult: 1
  }
  param {
    lr_mult: 2
    decay_mult: 0
  }
  convolution_param {
    num_output: 66
    pad: 1
    kernel_size: 3
    stride: 1
    weight_filler {
      type: "xavier"
    }
    bias_filler {
      type: "constant"
      value: 0
    }
  }
}
layer {
  name: "conv6_2_mbox_conf_perm"
  type: "Permute"
  bottom: "conv6_2_mbox_conf"
  top: "conv6_2_mbox_conf_perm"
  permute_param {
    order: 0
    order: 2
    order: 3
    order: 1
  }
}
layer {
  name: "conv6_2_mbox_conf_flat"
  type: "Flatten"
  bottom: "conv6_2_mbox_conf_perm"
  top: "conv6_2_mbox_conf_flat"
  flatten_param {
    axis: 1
  }
}
layer {
  name: "conv6_2_mbox_priorbox"
  type: "PriorBox"
  bottom: "conv6_2"
  bottom: "data"
  top: "conv6_2_mbox_priorbox"
  prior_box_param {
    min_size: 111
    max_size: 162
    aspect_ratio: 2
    aspect_ratio: 3
    flip: true
    clip: false
    variance: 0.1
    variance: 0.1
    variance: 0.2
    variance: 0.2
    step: 32
    offset: 0.5
  }
}
layer {
  name: "conv7_2_mbox_loc"
  type: "Convolution"
  bottom: "conv7_2"
  top: "conv7_2_mbox_loc"
  param {
    lr_mult: 1
    decay_mult: 1
  }
  param {
    lr_mult: 2
    decay_mult: 0
  }
  convolution_param {
    num_output: 24
    pad: 1
    kernel_size: 3
    stride: 1
    weight_filler {
      type: "xavier"
    }
    bias_filler {
      type: "constant"
      value: 0
    }
  }
}
layer {
  name: "conv7_2_mbox_loc_perm"
  type: "Permute"
  bottom: "conv7_2_mbox_loc"
  top: "conv7_2_mbox_loc_perm"
  permute_param {
    order: 0
    order: 2
    order: 3
    order: 1
  }
}
layer {
  name: "conv7_2_mbox_loc_flat"
  type: "Flatten"
  bottom: "conv7_2_mbox_loc_perm"
  top: "conv7_2_mbox_loc_flat"
  flatten_param {
    axis: 1
  }
}
layer {
  name: "conv7_2_mbox_conf"
  type: "Convolution"
  bottom: "conv7_2"
  top: "conv7_2_mbox_conf"
  param {
    lr_mult: 1
    decay_mult: 1
  }
  param {
    lr_mult: 2
    decay_mult: 0
  }
  convolution_param {
    num_output: 66
    pad: 1
    kernel_size: 3
    stride: 1
    weight_filler {
      type: "xavier"
    }
    bias_filler {
      type: "constant"
      value: 0
    }
  }
}
layer {
  name: "conv7_2_mbox_conf_perm"
  type: "Permute"
  bottom: "conv7_2_mbox_conf"
  top: "conv7_2_mbox_conf_perm"
  permute_param {
    order: 0
    order: 2
    order: 3
    order: 1
  }
}
layer {
  name: "conv7_2_mbox_conf_flat"
  type: "Flatten"
  bottom: "conv7_2_mbox_conf_perm"
  top: "conv7_2_mbox_conf_flat"
  flatten_param {
    axis: 1
  }
}
layer {
  name: "conv7_2_mbox_priorbox"
  type: "PriorBox"
  bottom: "conv7_2"
  bottom: "data"
  top: "conv7_2_mbox_priorbox"
  prior_box_param {
    min_size: 162
    max_size: 213
    aspect_ratio: 2
    aspect_ratio: 3
    flip: true
    clip: false
    variance: 0.1
    variance: 0.1
    variance: 0.2
    variance: 0.2
    step: 64
    offset: 0.5
  }
}
layer {
  name: "conv8_2_mbox_loc"
  type: "Convolution"
  bottom: "conv8_2"
  top: "conv8_2_mbox_loc"
  param {
    lr_mult: 1
    decay_mult: 1
  }
  param {
    lr_mult: 2
    decay_mult: 0
  }
  convolution_param {
    num_output: 16
    pad: 1
    kernel_size: 3
    stride: 1
    weight_filler {
      type: "xavier"
    }
    bias_filler {
      type: "constant"
      value: 0
    }
  }
}
layer {
  name: "conv8_2_mbox_loc_perm"
  type: "Permute"
  bottom: "conv8_2_mbox_loc"
  top: "conv8_2_mbox_loc_perm"
  permute_param {
    order: 0
    order: 2
    order: 3
    order: 1
  }
}
layer {
  name: "conv8_2_mbox_loc_flat"
  type: "Flatten"
  bottom: "conv8_2_mbox_loc_perm"
  top: "conv8_2_mbox_loc_flat"
  flatten_param {
    axis: 1
  }
}
layer {
  name: "conv8_2_mbox_conf"
  type: "Convolution"
  bottom: "conv8_2"
  top: "conv8_2_mbox_conf"
  param {
    lr_mult: 1
    decay_mult: 1
  }
  param {
    lr_mult: 2
    decay_mult: 0
  }
  convolution_param {
    num_output: 44
    pad: 1
    kernel_size: 3
    stride: 1
    weight_filler {
      type: "xavier"
    }
    bias_filler {
      type: "constant"
      value: 0
    }
  }
}
layer {
  name: "conv8_2_mbox_conf_perm"
  type: "Permute"
  bottom: "conv8_2_mbox_conf"
  top: "conv8_2_mbox_conf_perm"
  permute_param {
    order: 0
    order: 2
    order: 3
    order: 1
  }
}
layer {
  name: "conv8_2_mbox_conf_flat"
  type: "Flatten"
  bottom: "conv8_2_mbox_conf_perm"
  top: "conv8_2_mbox_conf_flat"
  flatten_param {
    axis: 1
  }
}
layer {
  name: "conv8_2_mbox_priorbox"
  type: "PriorBox"
  bottom: "conv8_2"
  bottom: "data"
  top: "conv8_2_mbox_priorbox"
  prior_box_param {
    min_size: 213
    max_size: 264
    aspect_ratio: 2
    flip: true
    clip: false
    variance: 0.1
    variance: 0.1
    variance: 0.2
    variance: 0.2
    step: 100
    offset: 0.5
  }
}
layer {
  name: "conv9_2_mbox_loc"
  type: "Convolution"
  bottom: "conv9_2"
  top: "conv9_2_mbox_loc"
  param {
    lr_mult: 1
    decay_mult: 1
  }
  param {
    lr_mult: 2
    decay_mult: 0
  }
  convolution_param {
    num_output: 16
    pad: 1
    kernel_size: 3
    stride: 1
    weight_filler {
      type: "xavier"
    }
    bias_filler {
      type: "constant"
      value: 0
    }
  }
}
layer {
  name: "conv9_2_mbox_loc_perm"
  type: "Permute"
  bottom: "conv9_2_mbox_loc"
  top: "conv9_2_mbox_loc_perm"
  permute_param {
    order: 0
    order: 2
    order: 3
    order: 1
  }
}
layer {
  name: "conv9_2_mbox_loc_flat"
  type: "Flatten"
  bottom: "conv9_2_mbox_loc_perm"
  top: "conv9_2_mbox_loc_flat"
  flatten_param {
    axis: 1
  }
}
layer {
  name: "conv9_2_mbox_conf"
  type: "Convolution"
  bottom: "conv9_2"
  top: "conv9_2_mbox_conf"
  param {
    lr_mult: 1
    decay_mult: 1
  }
  param {
    lr_mult: 2
    decay_mult: 0
  }
  convolution_param {
    num_output: 44
    pad: 1
    kernel_size: 3
    stride: 1
    weight_filler {
      type: "xavier"
    }
    bias_filler {
      type: "constant"
      value: 0
    }
  }
}
layer {
  name: "conv9_2_mbox_conf_perm"
  type: "Permute"
  bottom: "conv9_2_mbox_conf"
  top: "conv9_2_mbox_conf_perm"
  permute_param {
    order: 0
    order: 2
    order: 3
    order: 1
  }
}
layer {
  name: "conv9_2_mbox_conf_flat"
  type: "Flatten"
  bottom: "conv9_2_mbox_conf_perm"
  top: "conv9_2_mbox_conf_flat"
  flatten_param {
    axis: 1
  }
}
layer {
  name: "conv9_2_mbox_priorbox"
  type: "PriorBox"
  bottom: "conv9_2"
  bottom: "data"
  top: "conv9_2_mbox_priorbox"
  prior_box_param {
    min_size: 264
    max_size: 315
    aspect_ratio: 2
    flip: true
    clip: false
    variance: 0.1
    variance: 0.1
    variance: 0.2
    variance: 0.2
    step: 300
    offset: 0.5
  }
}
layer {
  name: "mbox_loc"
  type: "Concat"
  bottom: "conv4_3_norm_mbox_loc_flat"
  bottom: "fc7_mbox_loc_flat"
  bottom: "conv6_2_mbox_loc_flat"
  bottom: "conv7_2_mbox_loc_flat"
  bottom: "conv8_2_mbox_loc_flat"
  bottom: "conv9_2_mbox_loc_flat"
  top: "mbox_loc"
  concat_param {
    axis: 1
  }
}
layer {
  name: "mbox_conf"
  type: "Concat"
  bottom: "conv4_3_norm_mbox_conf_flat"
  bottom: "fc7_mbox_conf_flat"
  bottom: "conv6_2_mbox_conf_flat"
  bottom: "conv7_2_mbox_conf_flat"
  bottom: "conv8_2_mbox_conf_flat"
  bottom: "conv9_2_mbox_conf_flat"
  top: "mbox_conf"
  concat_param {
    axis: 1
  }
}
layer {
  name: "mbox_priorbox"
  type: "Concat"
  bottom: "conv4_3_norm_mbox_priorbox"
  bottom: "fc7_mbox_priorbox"
  bottom: "conv6_2_mbox_priorbox"
  bottom: "conv7_2_mbox_priorbox"
  bottom: "conv8_2_mbox_priorbox"
  bottom: "conv9_2_mbox_priorbox"
  top: "mbox_priorbox"
  concat_param {
    axis: 2
  }
}
layer {
  name: "mbox_conf_reshape"
  type: "Reshape"
  bottom: "mbox_conf"
  top: "mbox_conf_reshape"
  reshape_param {
    shape {
      dim: 0
      dim: -1
      dim: 11
    }
  }
}
layer {
  name: "mbox_conf_softmax"
  type: "Softmax"
  bottom: "mbox_conf_reshape"
  top: "mbox_conf_softmax"
  softmax_param {
    axis: 2
  }
}
layer {
  name: "mbox_conf_flatten"
  type: "Flatten"
  bottom: "mbox_conf_softmax"
  top: "mbox_conf_flatten"
  flatten_param {
    axis: 1
  }
}
layer {
  name: "detection_out"
  type: "DetectionOutput"
  bottom: "mbox_loc"
  bottom: "mbox_conf_flatten"
  bottom: "mbox_priorbox"
  top: "detection_out"
  include {
    phase: TEST
  }
  detection_output_param {
    num_classes: 11
    share_location: true
    background_label_id: 0
    nms_param {
      nms_threshold: 0.45
      top_k: 400
    }
    save_output_param {
      output_directory: "/home/zs/data/VOCdevkit/results/VOC2007/SSD_300x300_0323_conv6/Main"
      output_name_prefix: "comp4_det_test_"
      output_format: "VOC"
      label_map_file: "data/NWPU_VHR/labelmap_NWPU_VHR.prototxt"
      name_size_file: "data/NWPU_VHR/test_name_size.txt"
      num_test_image: 123
    }
    code_type: CENTER_SIZE
    keep_top_k: 200
    confidence_threshold: 0.01
  }
}
layer {
  name: "detection_eval"
  type: "DetectionEvaluate"
  bottom: "detection_out"
  bottom: "label"
  top: "detection_eval"
  include {
    phase: TEST
  }
  detection_evaluate_param {
    num_classes: 11
    background_label_id: 0
    overlap_threshold: 0.5
    evaluate_difficult_gt: false
    name_size_file: "data/NWPU_VHR/test_name_size.txt"
  }
}
I0615 20:34:31.886556 19289 layer_factory.hpp:77] Creating layer data
I0615 20:34:31.886636 19289 net.cpp:100] Creating Layer data
I0615 20:34:31.886647 19289 net.cpp:408] data -> data
I0615 20:34:31.886667 19289 net.cpp:408] data -> label
I0615 20:34:31.887399 19296 db_lmdb.cpp:35] Opened lmdb examples/NWPU_VHR/NWPU_VHR_test_lmdb
I0615 20:34:31.896687 19289 annotated_data_layer.cpp:62] output data size: 1,3,300,300
I0615 20:34:31.899698 19289 net.cpp:150] Setting up data
I0615 20:34:31.899734 19289 net.cpp:157] Top shape: 1 3 300 300 (270000)
I0615 20:34:31.899739 19289 net.cpp:157] Top shape: 1 1 4 8 (32)
I0615 20:34:31.899741 19289 net.cpp:165] Memory required for data: 1080128
I0615 20:34:31.899749 19289 layer_factory.hpp:77] Creating layer data_data_0_split
I0615 20:34:31.899788 19289 net.cpp:100] Creating Layer data_data_0_split
I0615 20:34:31.899796 19289 net.cpp:434] data_data_0_split <- data
I0615 20:34:31.899804 19289 net.cpp:408] data_data_0_split -> data_data_0_split_0
I0615 20:34:31.899816 19289 net.cpp:408] data_data_0_split -> data_data_0_split_1
I0615 20:34:31.899824 19289 net.cpp:408] data_data_0_split -> data_data_0_split_2
I0615 20:34:31.899832 19289 net.cpp:408] data_data_0_split -> data_data_0_split_3
I0615 20:34:31.899837 19289 net.cpp:408] data_data_0_split -> data_data_0_split_4
I0615 20:34:31.899842 19289 net.cpp:408] data_data_0_split -> data_data_0_split_5
I0615 20:34:31.899849 19289 net.cpp:408] data_data_0_split -> data_data_0_split_6
I0615 20:34:31.899945 19289 net.cpp:150] Setting up data_data_0_split
I0615 20:34:31.899955 19289 net.cpp:157] Top shape: 1 3 300 300 (270000)
I0615 20:34:31.899960 19289 net.cpp:157] Top shape: 1 3 300 300 (270000)
I0615 20:34:31.899964 19289 net.cpp:157] Top shape: 1 3 300 300 (270000)
I0615 20:34:31.899968 19289 net.cpp:157] Top shape: 1 3 300 300 (270000)
I0615 20:34:31.899972 19289 net.cpp:157] Top shape: 1 3 300 300 (270000)
I0615 20:34:31.899976 19289 net.cpp:157] Top shape: 1 3 300 300 (270000)
I0615 20:34:31.899981 19289 net.cpp:157] Top shape: 1 3 300 300 (270000)
I0615 20:34:31.899984 19289 net.cpp:165] Memory required for data: 8640128
I0615 20:34:31.899988 19289 layer_factory.hpp:77] Creating layer conv1_1
I0615 20:34:31.900002 19289 net.cpp:100] Creating Layer conv1_1
I0615 20:34:31.900007 19289 net.cpp:434] conv1_1 <- data_data_0_split_0
I0615 20:34:31.900013 19289 net.cpp:408] conv1_1 -> conv1_1
I0615 20:34:31.900907 19289 net.cpp:150] Setting up conv1_1
I0615 20:34:31.900933 19289 net.cpp:157] Top shape: 1 64 300 300 (5760000)
I0615 20:34:31.900936 19289 net.cpp:165] Memory required for data: 31680128
I0615 20:34:31.900950 19289 layer_factory.hpp:77] Creating layer relu1_1
I0615 20:34:31.900960 19289 net.cpp:100] Creating Layer relu1_1
I0615 20:34:31.900967 19289 net.cpp:434] relu1_1 <- conv1_1
I0615 20:34:31.900974 19289 net.cpp:395] relu1_1 -> conv1_1 (in-place)
I0615 20:34:31.901150 19289 net.cpp:150] Setting up relu1_1
I0615 20:34:31.901162 19289 net.cpp:157] Top shape: 1 64 300 300 (5760000)
I0615 20:34:31.901166 19289 net.cpp:165] Memory required for data: 54720128
I0615 20:34:31.901171 19289 layer_factory.hpp:77] Creating layer conv1_2
I0615 20:34:31.901185 19289 net.cpp:100] Creating Layer conv1_2
I0615 20:34:31.901190 19289 net.cpp:434] conv1_2 <- conv1_1
I0615 20:34:31.901196 19289 net.cpp:408] conv1_2 -> conv1_2
I0615 20:34:31.902065 19289 net.cpp:150] Setting up conv1_2
I0615 20:34:31.902091 19289 net.cpp:157] Top shape: 1 64 300 300 (5760000)
I0615 20:34:31.902093 19289 net.cpp:165] Memory required for data: 77760128
I0615 20:34:31.902107 19289 layer_factory.hpp:77] Creating layer relu1_2
I0615 20:34:31.902117 19289 net.cpp:100] Creating Layer relu1_2
I0615 20:34:31.902120 19289 net.cpp:434] relu1_2 <- conv1_2
I0615 20:34:31.902127 19289 net.cpp:395] relu1_2 -> conv1_2 (in-place)
I0615 20:34:31.902302 19289 net.cpp:150] Setting up relu1_2
I0615 20:34:31.902314 19289 net.cpp:157] Top shape: 1 64 300 300 (5760000)
I0615 20:34:31.902318 19289 net.cpp:165] Memory required for data: 100800128
I0615 20:34:31.902323 19289 layer_factory.hpp:77] Creating layer pool1
I0615 20:34:31.902330 19289 net.cpp:100] Creating Layer pool1
I0615 20:34:31.902336 19289 net.cpp:434] pool1 <- conv1_2
I0615 20:34:31.902343 19289 net.cpp:408] pool1 -> pool1
I0615 20:34:31.902381 19289 net.cpp:150] Setting up pool1
I0615 20:34:31.902388 19289 net.cpp:157] Top shape: 1 64 150 150 (1440000)
I0615 20:34:31.902392 19289 net.cpp:165] Memory required for data: 106560128
I0615 20:34:31.902395 19289 layer_factory.hpp:77] Creating layer conv2_1
I0615 20:34:31.902405 19289 net.cpp:100] Creating Layer conv2_1
I0615 20:34:31.902410 19289 net.cpp:434] conv2_1 <- pool1
I0615 20:34:31.902418 19289 net.cpp:408] conv2_1 -> conv2_1
I0615 20:34:31.903345 19289 net.cpp:150] Setting up conv2_1
I0615 20:34:31.903398 19289 net.cpp:157] Top shape: 1 128 150 150 (2880000)
I0615 20:34:31.903401 19289 net.cpp:165] Memory required for data: 118080128
I0615 20:34:31.903415 19289 layer_factory.hpp:77] Creating layer relu2_1
I0615 20:34:31.903426 19289 net.cpp:100] Creating Layer relu2_1
I0615 20:34:31.903432 19289 net.cpp:434] relu2_1 <- conv2_1
I0615 20:34:31.903439 19289 net.cpp:395] relu2_1 -> conv2_1 (in-place)
I0615 20:34:31.904800 19289 net.cpp:150] Setting up relu2_1
I0615 20:34:31.904826 19289 net.cpp:157] Top shape: 1 128 150 150 (2880000)
I0615 20:34:31.904830 19289 net.cpp:165] Memory required for data: 129600128
I0615 20:34:31.904839 19289 layer_factory.hpp:77] Creating layer conv2_2
I0615 20:34:31.904855 19289 net.cpp:100] Creating Layer conv2_2
I0615 20:34:31.904862 19289 net.cpp:434] conv2_2 <- conv2_1
I0615 20:34:31.904870 19289 net.cpp:408] conv2_2 -> conv2_2
I0615 20:34:31.906311 19289 net.cpp:150] Setting up conv2_2
I0615 20:34:31.906339 19289 net.cpp:157] Top shape: 1 128 150 150 (2880000)
I0615 20:34:31.906343 19289 net.cpp:165] Memory required for data: 141120128
I0615 20:34:31.906352 19289 layer_factory.hpp:77] Creating layer relu2_2
I0615 20:34:31.906363 19289 net.cpp:100] Creating Layer relu2_2
I0615 20:34:31.906368 19289 net.cpp:434] relu2_2 <- conv2_2
I0615 20:34:31.906374 19289 net.cpp:395] relu2_2 -> conv2_2 (in-place)
I0615 20:34:31.906440 19289 net.cpp:150] Setting up relu2_2
I0615 20:34:31.906447 19289 net.cpp:157] Top shape: 1 128 150 150 (2880000)
I0615 20:34:31.906452 19289 net.cpp:165] Memory required for data: 152640128
I0615 20:34:31.906455 19289 layer_factory.hpp:77] Creating layer pool2
I0615 20:34:31.906462 19289 net.cpp:100] Creating Layer pool2
I0615 20:34:31.906467 19289 net.cpp:434] pool2 <- conv2_2
I0615 20:34:31.906473 19289 net.cpp:408] pool2 -> pool2
I0615 20:34:31.906509 19289 net.cpp:150] Setting up pool2
I0615 20:34:31.906515 19289 net.cpp:157] Top shape: 1 128 75 75 (720000)
I0615 20:34:31.906519 19289 net.cpp:165] Memory required for data: 155520128
I0615 20:34:31.906523 19289 layer_factory.hpp:77] Creating layer conv3_1
I0615 20:34:31.906533 19289 net.cpp:100] Creating Layer conv3_1
I0615 20:34:31.906538 19289 net.cpp:434] conv3_1 <- pool2
I0615 20:34:31.906544 19289 net.cpp:408] conv3_1 -> conv3_1
I0615 20:34:31.909461 19289 net.cpp:150] Setting up conv3_1
I0615 20:34:31.909492 19289 net.cpp:157] Top shape: 1 256 75 75 (1440000)
I0615 20:34:31.909495 19289 net.cpp:165] Memory required for data: 161280128
I0615 20:34:31.909510 19289 layer_factory.hpp:77] Creating layer relu3_1
I0615 20:34:31.909523 19289 net.cpp:100] Creating Layer relu3_1
I0615 20:34:31.909528 19289 net.cpp:434] relu3_1 <- conv3_1
I0615 20:34:31.909535 19289 net.cpp:395] relu3_1 -> conv3_1 (in-place)
I0615 20:34:31.909714 19289 net.cpp:150] Setting up relu3_1
I0615 20:34:31.909724 19289 net.cpp:157] Top shape: 1 256 75 75 (1440000)
I0615 20:34:31.909729 19289 net.cpp:165] Memory required for data: 167040128
I0615 20:34:31.909732 19289 layer_factory.hpp:77] Creating layer conv3_2
I0615 20:34:31.909744 19289 net.cpp:100] Creating Layer conv3_2
I0615 20:34:31.909749 19289 net.cpp:434] conv3_2 <- conv3_1
I0615 20:34:31.909754 19289 net.cpp:408] conv3_2 -> conv3_2
I0615 20:34:31.913893 19289 net.cpp:150] Setting up conv3_2
I0615 20:34:31.913928 19289 net.cpp:157] Top shape: 1 256 75 75 (1440000)
I0615 20:34:31.913933 19289 net.cpp:165] Memory required for data: 172800128
I0615 20:34:31.913944 19289 layer_factory.hpp:77] Creating layer relu3_2
I0615 20:34:31.913954 19289 net.cpp:100] Creating Layer relu3_2
I0615 20:34:31.913960 19289 net.cpp:434] relu3_2 <- conv3_2
I0615 20:34:31.913969 19289 net.cpp:395] relu3_2 -> conv3_2 (in-place)
I0615 20:34:31.914031 19289 net.cpp:150] Setting up relu3_2
I0615 20:34:31.914039 19289 net.cpp:157] Top shape: 1 256 75 75 (1440000)
I0615 20:34:31.914042 19289 net.cpp:165] Memory required for data: 178560128
I0615 20:34:31.914047 19289 layer_factory.hpp:77] Creating layer conv3_3
I0615 20:34:31.914062 19289 net.cpp:100] Creating Layer conv3_3
I0615 20:34:31.914065 19289 net.cpp:434] conv3_3 <- conv3_2
I0615 20:34:31.914103 19289 net.cpp:408] conv3_3 -> conv3_3
I0615 20:34:31.919360 19289 net.cpp:150] Setting up conv3_3
I0615 20:34:31.919391 19289 net.cpp:157] Top shape: 1 256 75 75 (1440000)
I0615 20:34:31.919395 19289 net.cpp:165] Memory required for data: 184320128
I0615 20:34:31.919406 19289 layer_factory.hpp:77] Creating layer relu3_3
I0615 20:34:31.919417 19289 net.cpp:100] Creating Layer relu3_3
I0615 20:34:31.919423 19289 net.cpp:434] relu3_3 <- conv3_3
I0615 20:34:31.919430 19289 net.cpp:395] relu3_3 -> conv3_3 (in-place)
I0615 20:34:31.919595 19289 net.cpp:150] Setting up relu3_3
I0615 20:34:31.919613 19289 net.cpp:157] Top shape: 1 256 75 75 (1440000)
I0615 20:34:31.919616 19289 net.cpp:165] Memory required for data: 190080128
I0615 20:34:31.919620 19289 layer_factory.hpp:77] Creating layer pool3
I0615 20:34:31.919627 19289 net.cpp:100] Creating Layer pool3
I0615 20:34:31.919632 19289 net.cpp:434] pool3 <- conv3_3
I0615 20:34:31.919638 19289 net.cpp:408] pool3 -> pool3
I0615 20:34:31.919673 19289 net.cpp:150] Setting up pool3
I0615 20:34:31.919680 19289 net.cpp:157] Top shape: 1 256 38 38 (369664)
I0615 20:34:31.919684 19289 net.cpp:165] Memory required for data: 191558784
I0615 20:34:31.919688 19289 layer_factory.hpp:77] Creating layer conv4_1_depthwise
I0615 20:34:31.919697 19289 net.cpp:100] Creating Layer conv4_1_depthwise
I0615 20:34:31.919700 19289 net.cpp:434] conv4_1_depthwise <- pool3
I0615 20:34:31.919708 19289 net.cpp:408] conv4_1_depthwise -> conv4_1_3x3
I0615 20:34:31.919896 19289 net.cpp:150] Setting up conv4_1_depthwise
I0615 20:34:31.919904 19289 net.cpp:157] Top shape: 1 256 38 38 (369664)
I0615 20:34:31.919909 19289 net.cpp:165] Memory required for data: 193037440
I0615 20:34:31.919914 19289 layer_factory.hpp:77] Creating layer conv4_1_3x3_relu
I0615 20:34:31.919920 19289 net.cpp:100] Creating Layer conv4_1_3x3_relu
I0615 20:34:31.919926 19289 net.cpp:434] conv4_1_3x3_relu <- conv4_1_3x3
I0615 20:34:31.919931 19289 net.cpp:395] conv4_1_3x3_relu -> conv4_1_3x3 (in-place)
I0615 20:34:31.919987 19289 net.cpp:150] Setting up conv4_1_3x3_relu
I0615 20:34:31.919994 19289 net.cpp:157] Top shape: 1 256 38 38 (369664)
I0615 20:34:31.920004 19289 net.cpp:165] Memory required for data: 194516096
I0615 20:34:31.920008 19289 layer_factory.hpp:77] Creating layer conv4_1_1x1
I0615 20:34:31.920018 19289 net.cpp:100] Creating Layer conv4_1_1x1
I0615 20:34:31.920022 19289 net.cpp:434] conv4_1_1x1 <- conv4_1_3x3
I0615 20:34:31.920027 19289 net.cpp:408] conv4_1_1x1 -> conv4_1
I0615 20:34:31.921268 19289 net.cpp:150] Setting up conv4_1_1x1
I0615 20:34:31.921303 19289 net.cpp:157] Top shape: 1 512 38 38 (739328)
I0615 20:34:31.921306 19289 net.cpp:165] Memory required for data: 197473408
I0615 20:34:31.921322 19289 layer_factory.hpp:77] Creating layer relu4_1
I0615 20:34:31.921334 19289 net.cpp:100] Creating Layer relu4_1
I0615 20:34:31.921339 19289 net.cpp:434] relu4_1 <- conv4_1
I0615 20:34:31.921346 19289 net.cpp:395] relu4_1 -> conv4_1 (in-place)
I0615 20:34:31.921533 19289 net.cpp:150] Setting up relu4_1
I0615 20:34:31.921545 19289 net.cpp:157] Top shape: 1 512 38 38 (739328)
I0615 20:34:31.921550 19289 net.cpp:165] Memory required for data: 200430720
I0615 20:34:31.921553 19289 layer_factory.hpp:77] Creating layer conv4_2
I0615 20:34:31.921566 19289 net.cpp:100] Creating Layer conv4_2
I0615 20:34:31.921569 19289 net.cpp:434] conv4_2 <- conv4_1
I0615 20:34:31.921576 19289 net.cpp:408] conv4_2 -> conv4_2
I0615 20:34:31.934928 19289 net.cpp:150] Setting up conv4_2
I0615 20:34:31.934967 19289 net.cpp:157] Top shape: 1 512 38 38 (739328)
I0615 20:34:31.934970 19289 net.cpp:165] Memory required for data: 203388032
I0615 20:34:31.934981 19289 layer_factory.hpp:77] Creating layer relu4_2
I0615 20:34:31.934991 19289 net.cpp:100] Creating Layer relu4_2
I0615 20:34:31.934998 19289 net.cpp:434] relu4_2 <- conv4_2
I0615 20:34:31.935004 19289 net.cpp:395] relu4_2 -> conv4_2 (in-place)
I0615 20:34:31.935075 19289 net.cpp:150] Setting up relu4_2
I0615 20:34:31.935083 19289 net.cpp:157] Top shape: 1 512 38 38 (739328)
I0615 20:34:31.935109 19289 net.cpp:165] Memory required for data: 206345344
I0615 20:34:31.935114 19289 layer_factory.hpp:77] Creating layer conv4_3
I0615 20:34:31.935125 19289 net.cpp:100] Creating Layer conv4_3
I0615 20:34:31.935129 19289 net.cpp:434] conv4_3 <- conv4_2
I0615 20:34:31.935137 19289 net.cpp:408] conv4_3 -> conv4_3
I0615 20:34:31.949823 19289 net.cpp:150] Setting up conv4_3
I0615 20:34:31.949858 19289 net.cpp:157] Top shape: 1 512 38 38 (739328)
I0615 20:34:31.949862 19289 net.cpp:165] Memory required for data: 209302656
I0615 20:34:31.949874 19289 layer_factory.hpp:77] Creating layer relu4_3
I0615 20:34:31.949884 19289 net.cpp:100] Creating Layer relu4_3
I0615 20:34:31.949892 19289 net.cpp:434] relu4_3 <- conv4_3
I0615 20:34:31.949899 19289 net.cpp:395] relu4_3 -> conv4_3 (in-place)
I0615 20:34:31.950094 19289 net.cpp:150] Setting up relu4_3
I0615 20:34:31.950107 19289 net.cpp:157] Top shape: 1 512 38 38 (739328)
I0615 20:34:31.950111 19289 net.cpp:165] Memory required for data: 212259968
I0615 20:34:31.950115 19289 layer_factory.hpp:77] Creating layer conv4_3_relu4_3_0_split
I0615 20:34:31.950122 19289 net.cpp:100] Creating Layer conv4_3_relu4_3_0_split
I0615 20:34:31.950126 19289 net.cpp:434] conv4_3_relu4_3_0_split <- conv4_3
I0615 20:34:31.950132 19289 net.cpp:408] conv4_3_relu4_3_0_split -> conv4_3_relu4_3_0_split_0
I0615 20:34:31.950141 19289 net.cpp:408] conv4_3_relu4_3_0_split -> conv4_3_relu4_3_0_split_1
I0615 20:34:31.950177 19289 net.cpp:150] Setting up conv4_3_relu4_3_0_split
I0615 20:34:31.950184 19289 net.cpp:157] Top shape: 1 512 38 38 (739328)
I0615 20:34:31.950189 19289 net.cpp:157] Top shape: 1 512 38 38 (739328)
I0615 20:34:31.950193 19289 net.cpp:165] Memory required for data: 218174592
I0615 20:34:31.950196 19289 layer_factory.hpp:77] Creating layer pool4
I0615 20:34:31.950206 19289 net.cpp:100] Creating Layer pool4
I0615 20:34:31.950210 19289 net.cpp:434] pool4 <- conv4_3_relu4_3_0_split_0
I0615 20:34:31.950215 19289 net.cpp:408] pool4 -> pool4
I0615 20:34:31.950245 19289 net.cpp:150] Setting up pool4
I0615 20:34:31.950253 19289 net.cpp:157] Top shape: 1 512 19 19 (184832)
I0615 20:34:31.950256 19289 net.cpp:165] Memory required for data: 218913920
I0615 20:34:31.950259 19289 layer_factory.hpp:77] Creating layer conv5_1_depthwise
I0615 20:34:31.950271 19289 net.cpp:100] Creating Layer conv5_1_depthwise
I0615 20:34:31.950274 19289 net.cpp:434] conv5_1_depthwise <- pool4
I0615 20:34:31.950282 19289 net.cpp:408] conv5_1_depthwise -> conv5_1_3x3
I0615 20:34:31.950472 19289 net.cpp:150] Setting up conv5_1_depthwise
I0615 20:34:31.950480 19289 net.cpp:157] Top shape: 1 512 19 19 (184832)
I0615 20:34:31.950484 19289 net.cpp:165] Memory required for data: 219653248
I0615 20:34:31.950490 19289 layer_factory.hpp:77] Creating layer conv5_1_3x3_relu
I0615 20:34:31.950498 19289 net.cpp:100] Creating Layer conv5_1_3x3_relu
I0615 20:34:31.950502 19289 net.cpp:434] conv5_1_3x3_relu <- conv5_1_3x3
I0615 20:34:31.950506 19289 net.cpp:395] conv5_1_3x3_relu -> conv5_1_3x3 (in-place)
I0615 20:34:31.950573 19289 net.cpp:150] Setting up conv5_1_3x3_relu
I0615 20:34:31.950582 19289 net.cpp:157] Top shape: 1 512 19 19 (184832)
I0615 20:34:31.950584 19289 net.cpp:165] Memory required for data: 220392576
I0615 20:34:31.950588 19289 layer_factory.hpp:77] Creating layer conv5_1_1x1
I0615 20:34:31.950599 19289 net.cpp:100] Creating Layer conv5_1_1x1
I0615 20:34:31.950603 19289 net.cpp:434] conv5_1_1x1 <- conv5_1_3x3
I0615 20:34:31.950608 19289 net.cpp:408] conv5_1_1x1 -> conv5_1
I0615 20:34:31.953269 19289 net.cpp:150] Setting up conv5_1_1x1
I0615 20:34:31.953300 19289 net.cpp:157] Top shape: 1 512 19 19 (184832)
I0615 20:34:31.953305 19289 net.cpp:165] Memory required for data: 221131904
I0615 20:34:31.953313 19289 layer_factory.hpp:77] Creating layer relu5_1
I0615 20:34:31.953331 19289 net.cpp:100] Creating Layer relu5_1
I0615 20:34:31.953337 19289 net.cpp:434] relu5_1 <- conv5_1
I0615 20:34:31.953344 19289 net.cpp:395] relu5_1 -> conv5_1 (in-place)
I0615 20:34:31.953528 19289 net.cpp:150] Setting up relu5_1
I0615 20:34:31.953553 19289 net.cpp:157] Top shape: 1 512 19 19 (184832)
I0615 20:34:31.953558 19289 net.cpp:165] Memory required for data: 221871232
I0615 20:34:31.953562 19289 layer_factory.hpp:77] Creating layer conv5_2_depthwise
I0615 20:34:31.953572 19289 net.cpp:100] Creating Layer conv5_2_depthwise
I0615 20:34:31.953577 19289 net.cpp:434] conv5_2_depthwise <- conv5_1
I0615 20:34:31.953584 19289 net.cpp:408] conv5_2_depthwise -> conv5_2_3x3
I0615 20:34:31.953790 19289 net.cpp:150] Setting up conv5_2_depthwise
I0615 20:34:31.953797 19289 net.cpp:157] Top shape: 1 512 19 19 (184832)
I0615 20:34:31.953801 19289 net.cpp:165] Memory required for data: 222610560
I0615 20:34:31.953807 19289 layer_factory.hpp:77] Creating layer conv5_2_3x3_relu
I0615 20:34:31.953812 19289 net.cpp:100] Creating Layer conv5_2_3x3_relu
I0615 20:34:31.953816 19289 net.cpp:434] conv5_2_3x3_relu <- conv5_2_3x3
I0615 20:34:31.953822 19289 net.cpp:395] conv5_2_3x3_relu -> conv5_2_3x3 (in-place)
I0615 20:34:31.953896 19289 net.cpp:150] Setting up conv5_2_3x3_relu
I0615 20:34:31.953903 19289 net.cpp:157] Top shape: 1 512 19 19 (184832)
I0615 20:34:31.953907 19289 net.cpp:165] Memory required for data: 223349888
I0615 20:34:31.953910 19289 layer_factory.hpp:77] Creating layer conv5_2_1x1
I0615 20:34:31.953922 19289 net.cpp:100] Creating Layer conv5_2_1x1
I0615 20:34:31.953925 19289 net.cpp:434] conv5_2_1x1 <- conv5_2_3x3
I0615 20:34:31.953932 19289 net.cpp:408] conv5_2_1x1 -> conv5_2
I0615 20:34:31.955755 19289 net.cpp:150] Setting up conv5_2_1x1
I0615 20:34:31.955787 19289 net.cpp:157] Top shape: 1 512 19 19 (184832)
I0615 20:34:31.955791 19289 net.cpp:165] Memory required for data: 224089216
I0615 20:34:31.955801 19289 layer_factory.hpp:77] Creating layer relu5_2
I0615 20:34:31.955811 19289 net.cpp:100] Creating Layer relu5_2
I0615 20:34:31.955818 19289 net.cpp:434] relu5_2 <- conv5_2
I0615 20:34:31.955826 19289 net.cpp:395] relu5_2 -> conv5_2 (in-place)
I0615 20:34:31.957438 19289 net.cpp:150] Setting up relu5_2
I0615 20:34:31.957468 19289 net.cpp:157] Top shape: 1 512 19 19 (184832)
I0615 20:34:31.957473 19289 net.cpp:165] Memory required for data: 224828544
I0615 20:34:31.957480 19289 layer_factory.hpp:77] Creating layer conv5_3_depthwise
I0615 20:34:31.957499 19289 net.cpp:100] Creating Layer conv5_3_depthwise
I0615 20:34:31.957504 19289 net.cpp:434] conv5_3_depthwise <- conv5_2
I0615 20:34:31.957515 19289 net.cpp:408] conv5_3_depthwise -> conv5_3_3x3
I0615 20:34:31.957744 19289 net.cpp:150] Setting up conv5_3_depthwise
I0615 20:34:31.957751 19289 net.cpp:157] Top shape: 1 512 19 19 (184832)
I0615 20:34:31.957754 19289 net.cpp:165] Memory required for data: 225567872
I0615 20:34:31.957763 19289 layer_factory.hpp:77] Creating layer conv5_3_3x3_relu
I0615 20:34:31.957772 19289 net.cpp:100] Creating Layer conv5_3_3x3_relu
I0615 20:34:31.957775 19289 net.cpp:434] conv5_3_3x3_relu <- conv5_3_3x3
I0615 20:34:31.957779 19289 net.cpp:395] conv5_3_3x3_relu -> conv5_3_3x3 (in-place)
I0615 20:34:31.957845 19289 net.cpp:150] Setting up conv5_3_3x3_relu
I0615 20:34:31.957852 19289 net.cpp:157] Top shape: 1 512 19 19 (184832)
I0615 20:34:31.957855 19289 net.cpp:165] Memory required for data: 226307200
I0615 20:34:31.957859 19289 layer_factory.hpp:77] Creating layer conv5_3_1x1
I0615 20:34:31.957870 19289 net.cpp:100] Creating Layer conv5_3_1x1
I0615 20:34:31.957875 19289 net.cpp:434] conv5_3_1x1 <- conv5_3_3x3
I0615 20:34:31.957881 19289 net.cpp:408] conv5_3_1x1 -> conv5_3
I0615 20:34:31.960458 19289 net.cpp:150] Setting up conv5_3_1x1
I0615 20:34:31.960492 19289 net.cpp:157] Top shape: 1 512 19 19 (184832)
I0615 20:34:31.960496 19289 net.cpp:165] Memory required for data: 227046528
I0615 20:34:31.960513 19289 layer_factory.hpp:77] Creating layer relu5_3
I0615 20:34:31.960523 19289 net.cpp:100] Creating Layer relu5_3
I0615 20:34:31.960530 19289 net.cpp:434] relu5_3 <- conv5_3
I0615 20:34:31.960536 19289 net.cpp:395] relu5_3 -> conv5_3 (in-place)
I0615 20:34:31.960716 19289 net.cpp:150] Setting up relu5_3
I0615 20:34:31.960724 19289 net.cpp:157] Top shape: 1 512 19 19 (184832)
I0615 20:34:31.960747 19289 net.cpp:165] Memory required for data: 227785856
I0615 20:34:31.960752 19289 layer_factory.hpp:77] Creating layer pool5
I0615 20:34:31.960763 19289 net.cpp:100] Creating Layer pool5
I0615 20:34:31.960767 19289 net.cpp:434] pool5 <- conv5_3
I0615 20:34:31.960775 19289 net.cpp:408] pool5 -> pool5
I0615 20:34:31.960819 19289 net.cpp:150] Setting up pool5
I0615 20:34:31.960825 19289 net.cpp:157] Top shape: 1 512 19 19 (184832)
I0615 20:34:31.960829 19289 net.cpp:165] Memory required for data: 228525184
I0615 20:34:31.960834 19289 layer_factory.hpp:77] Creating layer fc6_depthwise
I0615 20:34:31.960844 19289 net.cpp:100] Creating Layer fc6_depthwise
I0615 20:34:31.960847 19289 net.cpp:434] fc6_depthwise <- pool5
I0615 20:34:31.960853 19289 net.cpp:408] fc6_depthwise -> fc6_3x3
I0615 20:34:31.961030 19289 net.cpp:150] Setting up fc6_depthwise
I0615 20:34:31.961037 19289 net.cpp:157] Top shape: 1 512 19 19 (184832)
I0615 20:34:31.961040 19289 net.cpp:165] Memory required for data: 229264512
I0615 20:34:31.961045 19289 layer_factory.hpp:77] Creating layer fc6_3x3_relu
I0615 20:34:31.961051 19289 net.cpp:100] Creating Layer fc6_3x3_relu
I0615 20:34:31.961055 19289 net.cpp:434] fc6_3x3_relu <- fc6_3x3
I0615 20:34:31.961061 19289 net.cpp:395] fc6_3x3_relu -> fc6_3x3 (in-place)
I0615 20:34:31.961125 19289 net.cpp:150] Setting up fc6_3x3_relu
I0615 20:34:31.961134 19289 net.cpp:157] Top shape: 1 512 19 19 (184832)
I0615 20:34:31.961138 19289 net.cpp:165] Memory required for data: 230003840
I0615 20:34:31.961140 19289 layer_factory.hpp:77] Creating layer fc6_1x1
I0615 20:34:31.961150 19289 net.cpp:100] Creating Layer fc6_1x1
I0615 20:34:31.961154 19289 net.cpp:434] fc6_1x1 <- fc6_3x3
I0615 20:34:31.961160 19289 net.cpp:408] fc6_1x1 -> fc6
I0615 20:34:31.964347 19289 net.cpp:150] Setting up fc6_1x1
I0615 20:34:31.964381 19289 net.cpp:157] Top shape: 1 1024 19 19 (369664)
I0615 20:34:31.964386 19289 net.cpp:165] Memory required for data: 231482496
I0615 20:34:31.964395 19289 layer_factory.hpp:77] Creating layer relu6
I0615 20:34:31.964406 19289 net.cpp:100] Creating Layer relu6
I0615 20:34:31.964411 19289 net.cpp:434] relu6 <- fc6
I0615 20:34:31.964421 19289 net.cpp:395] relu6 -> fc6 (in-place)
I0615 20:34:31.964747 19289 net.cpp:150] Setting up relu6
I0615 20:34:31.964757 19289 net.cpp:157] Top shape: 1 1024 19 19 (369664)
I0615 20:34:31.964761 19289 net.cpp:165] Memory required for data: 232961152
I0615 20:34:31.964766 19289 layer_factory.hpp:77] Creating layer fc7
I0615 20:34:31.964778 19289 net.cpp:100] Creating Layer fc7
I0615 20:34:31.964782 19289 net.cpp:434] fc7 <- fc6
I0615 20:34:31.964795 19289 net.cpp:408] fc7 -> fc7
I0615 20:34:31.971321 19289 net.cpp:150] Setting up fc7
I0615 20:34:31.971361 19289 net.cpp:157] Top shape: 1 1024 19 19 (369664)
I0615 20:34:31.971365 19289 net.cpp:165] Memory required for data: 234439808
I0615 20:34:31.971375 19289 layer_factory.hpp:77] Creating layer relu7
I0615 20:34:31.971386 19289 net.cpp:100] Creating Layer relu7
I0615 20:34:31.971392 19289 net.cpp:434] relu7 <- fc7
I0615 20:34:31.971401 19289 net.cpp:395] relu7 -> fc7 (in-place)
I0615 20:34:31.971482 19289 net.cpp:150] Setting up relu7
I0615 20:34:31.971489 19289 net.cpp:157] Top shape: 1 1024 19 19 (369664)
I0615 20:34:31.971493 19289 net.cpp:165] Memory required for data: 235918464
I0615 20:34:31.971496 19289 layer_factory.hpp:77] Creating layer fc7_relu7_0_split
I0615 20:34:31.971503 19289 net.cpp:100] Creating Layer fc7_relu7_0_split
I0615 20:34:31.971508 19289 net.cpp:434] fc7_relu7_0_split <- fc7
I0615 20:34:31.971514 19289 net.cpp:408] fc7_relu7_0_split -> fc7_relu7_0_split_0
I0615 20:34:31.971521 19289 net.cpp:408] fc7_relu7_0_split -> fc7_relu7_0_split_1
I0615 20:34:31.971527 19289 net.cpp:408] fc7_relu7_0_split -> fc7_relu7_0_split_2
I0615 20:34:31.971534 19289 net.cpp:408] fc7_relu7_0_split -> fc7_relu7_0_split_3
I0615 20:34:31.971585 19289 net.cpp:150] Setting up fc7_relu7_0_split
I0615 20:34:31.971590 19289 net.cpp:157] Top shape: 1 1024 19 19 (369664)
I0615 20:34:31.971617 19289 net.cpp:157] Top shape: 1 1024 19 19 (369664)
I0615 20:34:31.971622 19289 net.cpp:157] Top shape: 1 1024 19 19 (369664)
I0615 20:34:31.971626 19289 net.cpp:157] Top shape: 1 1024 19 19 (369664)
I0615 20:34:31.971629 19289 net.cpp:165] Memory required for data: 241833088
I0615 20:34:31.971633 19289 layer_factory.hpp:77] Creating layer conv6_1
I0615 20:34:31.971647 19289 net.cpp:100] Creating Layer conv6_1
I0615 20:34:31.971652 19289 net.cpp:434] conv6_1 <- fc7_relu7_0_split_0
I0615 20:34:31.971658 19289 net.cpp:408] conv6_1 -> conv6_1
I0615 20:34:31.974889 19289 net.cpp:150] Setting up conv6_1
I0615 20:34:31.974920 19289 net.cpp:157] Top shape: 1 256 19 19 (92416)
I0615 20:34:31.974925 19289 net.cpp:165] Memory required for data: 242202752
I0615 20:34:31.974936 19289 layer_factory.hpp:77] Creating layer conv6_1_relu
I0615 20:34:31.974946 19289 net.cpp:100] Creating Layer conv6_1_relu
I0615 20:34:31.974953 19289 net.cpp:434] conv6_1_relu <- conv6_1
I0615 20:34:31.974961 19289 net.cpp:395] conv6_1_relu -> conv6_1 (in-place)
I0615 20:34:31.975162 19289 net.cpp:150] Setting up conv6_1_relu
I0615 20:34:31.975172 19289 net.cpp:157] Top shape: 1 256 19 19 (92416)
I0615 20:34:31.975178 19289 net.cpp:165] Memory required for data: 242572416
I0615 20:34:31.975183 19289 layer_factory.hpp:77] Creating layer conv6_2_depthwise
I0615 20:34:31.975193 19289 net.cpp:100] Creating Layer conv6_2_depthwise
I0615 20:34:31.975198 19289 net.cpp:434] conv6_2_depthwise <- conv6_1
I0615 20:34:31.975205 19289 net.cpp:408] conv6_2_depthwise -> conv6_2_3x3
I0615 20:34:31.975391 19289 net.cpp:150] Setting up conv6_2_depthwise
I0615 20:34:31.975399 19289 net.cpp:157] Top shape: 1 256 10 10 (25600)
I0615 20:34:31.975402 19289 net.cpp:165] Memory required for data: 242674816
I0615 20:34:31.975409 19289 layer_factory.hpp:77] Creating layer conv6_2_3x3_relu
I0615 20:34:31.975415 19289 net.cpp:100] Creating Layer conv6_2_3x3_relu
I0615 20:34:31.975419 19289 net.cpp:434] conv6_2_3x3_relu <- conv6_2_3x3
I0615 20:34:31.975423 19289 net.cpp:395] conv6_2_3x3_relu -> conv6_2_3x3 (in-place)
I0615 20:34:31.975486 19289 net.cpp:150] Setting up conv6_2_3x3_relu
I0615 20:34:31.975493 19289 net.cpp:157] Top shape: 1 256 10 10 (25600)
I0615 20:34:31.975497 19289 net.cpp:165] Memory required for data: 242777216
I0615 20:34:31.975500 19289 layer_factory.hpp:77] Creating layer conv6_2_1x1
I0615 20:34:31.975512 19289 net.cpp:100] Creating Layer conv6_2_1x1
I0615 20:34:31.975515 19289 net.cpp:434] conv6_2_1x1 <- conv6_2_3x3
I0615 20:34:31.975520 19289 net.cpp:408] conv6_2_1x1 -> conv6_2
I0615 20:34:31.976851 19289 net.cpp:150] Setting up conv6_2_1x1
I0615 20:34:31.976881 19289 net.cpp:157] Top shape: 1 512 10 10 (51200)
I0615 20:34:31.976883 19289 net.cpp:165] Memory required for data: 242982016
I0615 20:34:31.976893 19289 layer_factory.hpp:77] Creating layer conv6_2_relu
I0615 20:34:31.976903 19289 net.cpp:100] Creating Layer conv6_2_relu
I0615 20:34:31.976910 19289 net.cpp:434] conv6_2_relu <- conv6_2
I0615 20:34:31.976918 19289 net.cpp:395] conv6_2_relu -> conv6_2 (in-place)
I0615 20:34:31.977095 19289 net.cpp:150] Setting up conv6_2_relu
I0615 20:34:31.977106 19289 net.cpp:157] Top shape: 1 512 10 10 (51200)
I0615 20:34:31.977110 19289 net.cpp:165] Memory required for data: 243186816
I0615 20:34:31.977114 19289 layer_factory.hpp:77] Creating layer conv6_2_conv6_2_relu_0_split
I0615 20:34:31.977123 19289 net.cpp:100] Creating Layer conv6_2_conv6_2_relu_0_split
I0615 20:34:31.977128 19289 net.cpp:434] conv6_2_conv6_2_relu_0_split <- conv6_2
I0615 20:34:31.977134 19289 net.cpp:408] conv6_2_conv6_2_relu_0_split -> conv6_2_conv6_2_relu_0_split_0
I0615 20:34:31.977142 19289 net.cpp:408] conv6_2_conv6_2_relu_0_split -> conv6_2_conv6_2_relu_0_split_1
I0615 20:34:31.977149 19289 net.cpp:408] conv6_2_conv6_2_relu_0_split -> conv6_2_conv6_2_relu_0_split_2
I0615 20:34:31.977154 19289 net.cpp:408] conv6_2_conv6_2_relu_0_split -> conv6_2_conv6_2_relu_0_split_3
I0615 20:34:31.977206 19289 net.cpp:150] Setting up conv6_2_conv6_2_relu_0_split
I0615 20:34:31.977232 19289 net.cpp:157] Top shape: 1 512 10 10 (51200)
I0615 20:34:31.977237 19289 net.cpp:157] Top shape: 1 512 10 10 (51200)
I0615 20:34:31.977241 19289 net.cpp:157] Top shape: 1 512 10 10 (51200)
I0615 20:34:31.977246 19289 net.cpp:157] Top shape: 1 512 10 10 (51200)
I0615 20:34:31.977264 19289 net.cpp:165] Memory required for data: 244006016
I0615 20:34:31.977270 19289 layer_factory.hpp:77] Creating layer conv7_1
I0615 20:34:31.977288 19289 net.cpp:100] Creating Layer conv7_1
I0615 20:34:31.977293 19289 net.cpp:434] conv7_1 <- conv6_2_conv6_2_relu_0_split_0
I0615 20:34:31.977299 19289 net.cpp:408] conv7_1 -> conv7_1
I0615 20:34:31.978137 19289 net.cpp:150] Setting up conv7_1
I0615 20:34:31.978159 19289 net.cpp:157] Top shape: 1 128 10 10 (12800)
I0615 20:34:31.978164 19289 net.cpp:165] Memory required for data: 244057216
I0615 20:34:31.978173 19289 layer_factory.hpp:77] Creating layer conv7_1_relu
I0615 20:34:31.978181 19289 net.cpp:100] Creating Layer conv7_1_relu
I0615 20:34:31.978186 19289 net.cpp:434] conv7_1_relu <- conv7_1
I0615 20:34:31.978193 19289 net.cpp:395] conv7_1_relu -> conv7_1 (in-place)
I0615 20:34:31.978391 19289 net.cpp:150] Setting up conv7_1_relu
I0615 20:34:31.978402 19289 net.cpp:157] Top shape: 1 128 10 10 (12800)
I0615 20:34:31.978406 19289 net.cpp:165] Memory required for data: 244108416
I0615 20:34:31.978411 19289 layer_factory.hpp:77] Creating layer conv7_2
I0615 20:34:31.978423 19289 net.cpp:100] Creating Layer conv7_2
I0615 20:34:31.978427 19289 net.cpp:434] conv7_2 <- conv7_1
I0615 20:34:31.978435 19289 net.cpp:408] conv7_2 -> conv7_2
I0615 20:34:31.982954 19289 net.cpp:150] Setting up conv7_2
I0615 20:34:31.983006 19289 net.cpp:157] Top shape: 1 256 5 5 (6400)
I0615 20:34:31.983011 19289 net.cpp:165] Memory required for data: 244134016
I0615 20:34:31.983026 19289 layer_factory.hpp:77] Creating layer conv7_2_relu
I0615 20:34:31.983042 19289 net.cpp:100] Creating Layer conv7_2_relu
I0615 20:34:31.983050 19289 net.cpp:434] conv7_2_relu <- conv7_2
I0615 20:34:31.983058 19289 net.cpp:395] conv7_2_relu -> conv7_2 (in-place)
I0615 20:34:31.983141 19289 net.cpp:150] Setting up conv7_2_relu
I0615 20:34:31.983150 19289 net.cpp:157] Top shape: 1 256 5 5 (6400)
I0615 20:34:31.983152 19289 net.cpp:165] Memory required for data: 244159616
I0615 20:34:31.983156 19289 layer_factory.hpp:77] Creating layer conv7_2_conv7_2_relu_0_split
I0615 20:34:31.983165 19289 net.cpp:100] Creating Layer conv7_2_conv7_2_relu_0_split
I0615 20:34:31.983170 19289 net.cpp:434] conv7_2_conv7_2_relu_0_split <- conv7_2
I0615 20:34:31.983175 19289 net.cpp:408] conv7_2_conv7_2_relu_0_split -> conv7_2_conv7_2_relu_0_split_0
I0615 20:34:31.983183 19289 net.cpp:408] conv7_2_conv7_2_relu_0_split -> conv7_2_conv7_2_relu_0_split_1
I0615 20:34:31.983189 19289 net.cpp:408] conv7_2_conv7_2_relu_0_split -> conv7_2_conv7_2_relu_0_split_2
I0615 20:34:31.983196 19289 net.cpp:408] conv7_2_conv7_2_relu_0_split -> conv7_2_conv7_2_relu_0_split_3
I0615 20:34:31.983247 19289 net.cpp:150] Setting up conv7_2_conv7_2_relu_0_split
I0615 20:34:31.983253 19289 net.cpp:157] Top shape: 1 256 5 5 (6400)
I0615 20:34:31.983256 19289 net.cpp:157] Top shape: 1 256 5 5 (6400)
I0615 20:34:31.983260 19289 net.cpp:157] Top shape: 1 256 5 5 (6400)
I0615 20:34:31.983264 19289 net.cpp:157] Top shape: 1 256 5 5 (6400)
I0615 20:34:31.983268 19289 net.cpp:165] Memory required for data: 244262016
I0615 20:34:31.983271 19289 layer_factory.hpp:77] Creating layer conv8_1
I0615 20:34:31.983289 19289 net.cpp:100] Creating Layer conv8_1
I0615 20:34:31.983292 19289 net.cpp:434] conv8_1 <- conv7_2_conv7_2_relu_0_split_0
I0615 20:34:31.983299 19289 net.cpp:408] conv8_1 -> conv8_1
I0615 20:34:31.984179 19289 net.cpp:150] Setting up conv8_1
I0615 20:34:31.984200 19289 net.cpp:157] Top shape: 1 128 5 5 (3200)
I0615 20:34:31.984205 19289 net.cpp:165] Memory required for data: 244274816
I0615 20:34:31.984215 19289 layer_factory.hpp:77] Creating layer conv8_1_relu
I0615 20:34:31.984223 19289 net.cpp:100] Creating Layer conv8_1_relu
I0615 20:34:31.984230 19289 net.cpp:434] conv8_1_relu <- conv8_1
I0615 20:34:31.984263 19289 net.cpp:395] conv8_1_relu -> conv8_1 (in-place)
I0615 20:34:31.984459 19289 net.cpp:150] Setting up conv8_1_relu
I0615 20:34:31.984469 19289 net.cpp:157] Top shape: 1 128 5 5 (3200)
I0615 20:34:31.984473 19289 net.cpp:165] Memory required for data: 244287616
I0615 20:34:31.984477 19289 layer_factory.hpp:77] Creating layer conv8_2
I0615 20:34:31.984489 19289 net.cpp:100] Creating Layer conv8_2
I0615 20:34:31.984494 19289 net.cpp:434] conv8_2 <- conv8_1
I0615 20:34:31.984501 19289 net.cpp:408] conv8_2 -> conv8_2
I0615 20:34:31.987398 19289 net.cpp:150] Setting up conv8_2
I0615 20:34:31.987433 19289 net.cpp:157] Top shape: 1 256 3 3 (2304)
I0615 20:34:31.987438 19289 net.cpp:165] Memory required for data: 244296832
I0615 20:34:31.987452 19289 layer_factory.hpp:77] Creating layer conv8_2_relu
I0615 20:34:31.987480 19289 net.cpp:100] Creating Layer conv8_2_relu
I0615 20:34:31.987491 19289 net.cpp:434] conv8_2_relu <- conv8_2
I0615 20:34:31.987504 19289 net.cpp:395] conv8_2_relu -> conv8_2 (in-place)
I0615 20:34:31.987583 19289 net.cpp:150] Setting up conv8_2_relu
I0615 20:34:31.987593 19289 net.cpp:157] Top shape: 1 256 3 3 (2304)
I0615 20:34:31.987598 19289 net.cpp:165] Memory required for data: 244306048
I0615 20:34:31.987604 19289 layer_factory.hpp:77] Creating layer conv8_2_conv8_2_relu_0_split
I0615 20:34:31.987617 19289 net.cpp:100] Creating Layer conv8_2_conv8_2_relu_0_split
I0615 20:34:31.987623 19289 net.cpp:434] conv8_2_conv8_2_relu_0_split <- conv8_2
I0615 20:34:31.987632 19289 net.cpp:408] conv8_2_conv8_2_relu_0_split -> conv8_2_conv8_2_relu_0_split_0
I0615 20:34:31.987643 19289 net.cpp:408] conv8_2_conv8_2_relu_0_split -> conv8_2_conv8_2_relu_0_split_1
I0615 20:34:31.987654 19289 net.cpp:408] conv8_2_conv8_2_relu_0_split -> conv8_2_conv8_2_relu_0_split_2
I0615 20:34:31.987663 19289 net.cpp:408] conv8_2_conv8_2_relu_0_split -> conv8_2_conv8_2_relu_0_split_3
I0615 20:34:31.987720 19289 net.cpp:150] Setting up conv8_2_conv8_2_relu_0_split
I0615 20:34:31.987727 19289 net.cpp:157] Top shape: 1 256 3 3 (2304)
I0615 20:34:31.987735 19289 net.cpp:157] Top shape: 1 256 3 3 (2304)
I0615 20:34:31.987740 19289 net.cpp:157] Top shape: 1 256 3 3 (2304)
I0615 20:34:31.987746 19289 net.cpp:157] Top shape: 1 256 3 3 (2304)
I0615 20:34:31.987751 19289 net.cpp:165] Memory required for data: 244342912
I0615 20:34:31.987757 19289 layer_factory.hpp:77] Creating layer conv9_1
I0615 20:34:31.987774 19289 net.cpp:100] Creating Layer conv9_1
I0615 20:34:31.987782 19289 net.cpp:434] conv9_1 <- conv8_2_conv8_2_relu_0_split_0
I0615 20:34:31.987792 19289 net.cpp:408] conv9_1 -> conv9_1
I0615 20:34:31.988517 19289 net.cpp:150] Setting up conv9_1
I0615 20:34:31.988530 19289 net.cpp:157] Top shape: 1 128 3 3 (1152)
I0615 20:34:31.988535 19289 net.cpp:165] Memory required for data: 244347520
I0615 20:34:31.988545 19289 layer_factory.hpp:77] Creating layer conv9_1_relu
I0615 20:34:31.988555 19289 net.cpp:100] Creating Layer conv9_1_relu
I0615 20:34:31.988562 19289 net.cpp:434] conv9_1_relu <- conv9_1
I0615 20:34:31.988571 19289 net.cpp:395] conv9_1_relu -> conv9_1 (in-place)
I0615 20:34:31.990079 19289 net.cpp:150] Setting up conv9_1_relu
I0615 20:34:31.990109 19289 net.cpp:157] Top shape: 1 128 3 3 (1152)
I0615 20:34:31.990114 19289 net.cpp:165] Memory required for data: 244352128
I0615 20:34:31.990123 19289 layer_factory.hpp:77] Creating layer conv9_2
I0615 20:34:31.990146 19289 net.cpp:100] Creating Layer conv9_2
I0615 20:34:31.990157 19289 net.cpp:434] conv9_2 <- conv9_1
I0615 20:34:31.990170 19289 net.cpp:408] conv9_2 -> conv9_2
I0615 20:34:31.993072 19289 net.cpp:150] Setting up conv9_2
I0615 20:34:31.993110 19289 net.cpp:157] Top shape: 1 256 1 1 (256)
I0615 20:34:31.993115 19289 net.cpp:165] Memory required for data: 244353152
I0615 20:34:31.993129 19289 layer_factory.hpp:77] Creating layer conv9_2_relu
I0615 20:34:31.993142 19289 net.cpp:100] Creating Layer conv9_2_relu
I0615 20:34:31.993153 19289 net.cpp:434] conv9_2_relu <- conv9_2
I0615 20:34:31.993165 19289 net.cpp:395] conv9_2_relu -> conv9_2 (in-place)
I0615 20:34:31.993288 19289 net.cpp:150] Setting up conv9_2_relu
I0615 20:34:31.993299 19289 net.cpp:157] Top shape: 1 256 1 1 (256)
I0615 20:34:31.993304 19289 net.cpp:165] Memory required for data: 244354176
I0615 20:34:31.993309 19289 layer_factory.hpp:77] Creating layer conv9_2_conv9_2_relu_0_split
I0615 20:34:31.993319 19289 net.cpp:100] Creating Layer conv9_2_conv9_2_relu_0_split
I0615 20:34:31.993330 19289 net.cpp:434] conv9_2_conv9_2_relu_0_split <- conv9_2
I0615 20:34:31.993340 19289 net.cpp:408] conv9_2_conv9_2_relu_0_split -> conv9_2_conv9_2_relu_0_split_0
I0615 20:34:31.993351 19289 net.cpp:408] conv9_2_conv9_2_relu_0_split -> conv9_2_conv9_2_relu_0_split_1
I0615 20:34:31.993361 19289 net.cpp:408] conv9_2_conv9_2_relu_0_split -> conv9_2_conv9_2_relu_0_split_2
I0615 20:34:31.993412 19289 net.cpp:150] Setting up conv9_2_conv9_2_relu_0_split
I0615 20:34:31.993420 19289 net.cpp:157] Top shape: 1 256 1 1 (256)
I0615 20:34:31.993427 19289 net.cpp:157] Top shape: 1 256 1 1 (256)
I0615 20:34:31.993432 19289 net.cpp:157] Top shape: 1 256 1 1 (256)
I0615 20:34:31.993438 19289 net.cpp:165] Memory required for data: 244357248
I0615 20:34:31.993443 19289 layer_factory.hpp:77] Creating layer conv4_3_norm
I0615 20:34:31.993458 19289 net.cpp:100] Creating Layer conv4_3_norm
I0615 20:34:31.993464 19289 net.cpp:434] conv4_3_norm <- conv4_3_relu4_3_0_split_1
I0615 20:34:31.993472 19289 net.cpp:408] conv4_3_norm -> conv4_3_norm
I0615 20:34:31.993597 19289 net.cpp:150] Setting up conv4_3_norm
I0615 20:34:31.993607 19289 net.cpp:157] Top shape: 1 512 38 38 (739328)
I0615 20:34:31.993611 19289 net.cpp:165] Memory required for data: 247314560
I0615 20:34:31.993618 19289 layer_factory.hpp:77] Creating layer conv4_3_norm_conv4_3_norm_0_split
I0615 20:34:31.993630 19289 net.cpp:100] Creating Layer conv4_3_norm_conv4_3_norm_0_split
I0615 20:34:31.993636 19289 net.cpp:434] conv4_3_norm_conv4_3_norm_0_split <- conv4_3_norm
I0615 20:34:31.993646 19289 net.cpp:408] conv4_3_norm_conv4_3_norm_0_split -> conv4_3_norm_conv4_3_norm_0_split_0
I0615 20:34:31.993656 19289 net.cpp:408] conv4_3_norm_conv4_3_norm_0_split -> conv4_3_norm_conv4_3_norm_0_split_1
I0615 20:34:31.993665 19289 net.cpp:408] conv4_3_norm_conv4_3_norm_0_split -> conv4_3_norm_conv4_3_norm_0_split_2
I0615 20:34:31.993706 19289 net.cpp:150] Setting up conv4_3_norm_conv4_3_norm_0_split
I0615 20:34:31.993714 19289 net.cpp:157] Top shape: 1 512 38 38 (739328)
I0615 20:34:31.993721 19289 net.cpp:157] Top shape: 1 512 38 38 (739328)
I0615 20:34:31.993726 19289 net.cpp:157] Top shape: 1 512 38 38 (739328)
I0615 20:34:31.993732 19289 net.cpp:165] Memory required for data: 256186496
I0615 20:34:31.993737 19289 layer_factory.hpp:77] Creating layer conv4_3_norm_mbox_loc
I0615 20:34:31.993757 19289 net.cpp:100] Creating Layer conv4_3_norm_mbox_loc
I0615 20:34:31.993765 19289 net.cpp:434] conv4_3_norm_mbox_loc <- conv4_3_norm_conv4_3_norm_0_split_0
I0615 20:34:31.993775 19289 net.cpp:408] conv4_3_norm_mbox_loc -> conv4_3_norm_mbox_loc
I0615 20:34:31.994930 19289 net.cpp:150] Setting up conv4_3_norm_mbox_loc
I0615 20:34:31.994957 19289 net.cpp:157] Top shape: 1 16 38 38 (23104)
I0615 20:34:31.994962 19289 net.cpp:165] Memory required for data: 256278912
I0615 20:34:31.994974 19289 layer_factory.hpp:77] Creating layer conv4_3_norm_mbox_loc_perm
I0615 20:34:31.994988 19289 net.cpp:100] Creating Layer conv4_3_norm_mbox_loc_perm
I0615 20:34:31.994995 19289 net.cpp:434] conv4_3_norm_mbox_loc_perm <- conv4_3_norm_mbox_loc
I0615 20:34:31.995005 19289 net.cpp:408] conv4_3_norm_mbox_loc_perm -> conv4_3_norm_mbox_loc_perm
I0615 20:34:31.995105 19289 net.cpp:150] Setting up conv4_3_norm_mbox_loc_perm
I0615 20:34:31.995115 19289 net.cpp:157] Top shape: 1 38 38 16 (23104)
I0615 20:34:31.995118 19289 net.cpp:165] Memory required for data: 256371328
I0615 20:34:31.995123 19289 layer_factory.hpp:77] Creating layer conv4_3_norm_mbox_loc_flat
I0615 20:34:31.995136 19289 net.cpp:100] Creating Layer conv4_3_norm_mbox_loc_flat
I0615 20:34:31.995142 19289 net.cpp:434] conv4_3_norm_mbox_loc_flat <- conv4_3_norm_mbox_loc_perm
I0615 20:34:31.995170 19289 net.cpp:408] conv4_3_norm_mbox_loc_flat -> conv4_3_norm_mbox_loc_flat
I0615 20:34:31.995200 19289 net.cpp:150] Setting up conv4_3_norm_mbox_loc_flat
I0615 20:34:31.995210 19289 net.cpp:157] Top shape: 1 23104 (23104)
I0615 20:34:31.995214 19289 net.cpp:165] Memory required for data: 256463744
I0615 20:34:31.995219 19289 layer_factory.hpp:77] Creating layer conv4_3_norm_mbox_conf
I0615 20:34:31.995239 19289 net.cpp:100] Creating Layer conv4_3_norm_mbox_conf
I0615 20:34:31.995246 19289 net.cpp:434] conv4_3_norm_mbox_conf <- conv4_3_norm_conv4_3_norm_0_split_1
I0615 20:34:31.995254 19289 net.cpp:408] conv4_3_norm_mbox_conf -> conv4_3_norm_mbox_conf
I0615 20:34:31.996881 19289 net.cpp:150] Setting up conv4_3_norm_mbox_conf
I0615 20:34:31.996906 19289 net.cpp:157] Top shape: 1 44 38 38 (63536)
I0615 20:34:31.996912 19289 net.cpp:165] Memory required for data: 256717888
I0615 20:34:31.996924 19289 layer_factory.hpp:77] Creating layer conv4_3_norm_mbox_conf_perm
I0615 20:34:31.996937 19289 net.cpp:100] Creating Layer conv4_3_norm_mbox_conf_perm
I0615 20:34:31.996944 19289 net.cpp:434] conv4_3_norm_mbox_conf_perm <- conv4_3_norm_mbox_conf
I0615 20:34:31.996958 19289 net.cpp:408] conv4_3_norm_mbox_conf_perm -> conv4_3_norm_mbox_conf_perm
I0615 20:34:31.997041 19289 net.cpp:150] Setting up conv4_3_norm_mbox_conf_perm
I0615 20:34:31.997051 19289 net.cpp:157] Top shape: 1 38 38 44 (63536)
I0615 20:34:31.997056 19289 net.cpp:165] Memory required for data: 256972032
I0615 20:34:31.997062 19289 layer_factory.hpp:77] Creating layer conv4_3_norm_mbox_conf_flat
I0615 20:34:31.997074 19289 net.cpp:100] Creating Layer conv4_3_norm_mbox_conf_flat
I0615 20:34:31.997081 19289 net.cpp:434] conv4_3_norm_mbox_conf_flat <- conv4_3_norm_mbox_conf_perm
I0615 20:34:31.997089 19289 net.cpp:408] conv4_3_norm_mbox_conf_flat -> conv4_3_norm_mbox_conf_flat
I0615 20:34:31.997117 19289 net.cpp:150] Setting up conv4_3_norm_mbox_conf_flat
I0615 20:34:31.997125 19289 net.cpp:157] Top shape: 1 63536 (63536)
I0615 20:34:31.997130 19289 net.cpp:165] Memory required for data: 257226176
I0615 20:34:31.997135 19289 layer_factory.hpp:77] Creating layer conv4_3_norm_mbox_priorbox
I0615 20:34:31.997148 19289 net.cpp:100] Creating Layer conv4_3_norm_mbox_priorbox
I0615 20:34:31.997155 19289 net.cpp:434] conv4_3_norm_mbox_priorbox <- conv4_3_norm_conv4_3_norm_0_split_2
I0615 20:34:31.997164 19289 net.cpp:434] conv4_3_norm_mbox_priorbox <- data_data_0_split_1
I0615 20:34:31.997172 19289 net.cpp:408] conv4_3_norm_mbox_priorbox -> conv4_3_norm_mbox_priorbox
I0615 20:34:31.997208 19289 net.cpp:150] Setting up conv4_3_norm_mbox_priorbox
I0615 20:34:31.997216 19289 net.cpp:157] Top shape: 1 2 23104 (46208)
I0615 20:34:31.997220 19289 net.cpp:165] Memory required for data: 257411008
I0615 20:34:31.997225 19289 layer_factory.hpp:77] Creating layer fc7_mbox_loc
I0615 20:34:31.997242 19289 net.cpp:100] Creating Layer fc7_mbox_loc
I0615 20:34:31.997273 19289 net.cpp:434] fc7_mbox_loc <- fc7_relu7_0_split_1
I0615 20:34:31.997287 19289 net.cpp:408] fc7_mbox_loc -> fc7_mbox_loc
I0615 20:34:32.000831 19289 net.cpp:150] Setting up fc7_mbox_loc
I0615 20:34:32.000865 19289 net.cpp:157] Top shape: 1 24 19 19 (8664)
I0615 20:34:32.000870 19289 net.cpp:165] Memory required for data: 257445664
I0615 20:34:32.000900 19289 layer_factory.hpp:77] Creating layer fc7_mbox_loc_perm
I0615 20:34:32.000916 19289 net.cpp:100] Creating Layer fc7_mbox_loc_perm
I0615 20:34:32.000927 19289 net.cpp:434] fc7_mbox_loc_perm <- fc7_mbox_loc
I0615 20:34:32.000939 19289 net.cpp:408] fc7_mbox_loc_perm -> fc7_mbox_loc_perm
I0615 20:34:32.001034 19289 net.cpp:150] Setting up fc7_mbox_loc_perm
I0615 20:34:32.001044 19289 net.cpp:157] Top shape: 1 19 19 24 (8664)
I0615 20:34:32.001049 19289 net.cpp:165] Memory required for data: 257480320
I0615 20:34:32.001055 19289 layer_factory.hpp:77] Creating layer fc7_mbox_loc_flat
I0615 20:34:32.001066 19289 net.cpp:100] Creating Layer fc7_mbox_loc_flat
I0615 20:34:32.001073 19289 net.cpp:434] fc7_mbox_loc_flat <- fc7_mbox_loc_perm
I0615 20:34:32.001106 19289 net.cpp:408] fc7_mbox_loc_flat -> fc7_mbox_loc_flat
I0615 20:34:32.001133 19289 net.cpp:150] Setting up fc7_mbox_loc_flat
I0615 20:34:32.001142 19289 net.cpp:157] Top shape: 1 8664 (8664)
I0615 20:34:32.001145 19289 net.cpp:165] Memory required for data: 257514976
I0615 20:34:32.001152 19289 layer_factory.hpp:77] Creating layer fc7_mbox_conf
I0615 20:34:32.001171 19289 net.cpp:100] Creating Layer fc7_mbox_conf
I0615 20:34:32.001178 19289 net.cpp:434] fc7_mbox_conf <- fc7_relu7_0_split_2
I0615 20:34:32.001188 19289 net.cpp:408] fc7_mbox_conf -> fc7_mbox_conf
I0615 20:34:32.005497 19289 net.cpp:150] Setting up fc7_mbox_conf
I0615 20:34:32.005534 19289 net.cpp:157] Top shape: 1 66 19 19 (23826)
I0615 20:34:32.005540 19289 net.cpp:165] Memory required for data: 257610280
I0615 20:34:32.005554 19289 layer_factory.hpp:77] Creating layer fc7_mbox_conf_perm
I0615 20:34:32.005573 19289 net.cpp:100] Creating Layer fc7_mbox_conf_perm
I0615 20:34:32.005582 19289 net.cpp:434] fc7_mbox_conf_perm <- fc7_mbox_conf
I0615 20:34:32.005594 19289 net.cpp:408] fc7_mbox_conf_perm -> fc7_mbox_conf_perm
I0615 20:34:32.005690 19289 net.cpp:150] Setting up fc7_mbox_conf_perm
I0615 20:34:32.005700 19289 net.cpp:157] Top shape: 1 19 19 66 (23826)
I0615 20:34:32.005705 19289 net.cpp:165] Memory required for data: 257705584
I0615 20:34:32.005710 19289 layer_factory.hpp:77] Creating layer fc7_mbox_conf_flat
I0615 20:34:32.005720 19289 net.cpp:100] Creating Layer fc7_mbox_conf_flat
I0615 20:34:32.005728 19289 net.cpp:434] fc7_mbox_conf_flat <- fc7_mbox_conf_perm
I0615 20:34:32.005738 19289 net.cpp:408] fc7_mbox_conf_flat -> fc7_mbox_conf_flat
I0615 20:34:32.005766 19289 net.cpp:150] Setting up fc7_mbox_conf_flat
I0615 20:34:32.005774 19289 net.cpp:157] Top shape: 1 23826 (23826)
I0615 20:34:32.005779 19289 net.cpp:165] Memory required for data: 257800888
I0615 20:34:32.005785 19289 layer_factory.hpp:77] Creating layer fc7_mbox_priorbox
I0615 20:34:32.005795 19289 net.cpp:100] Creating Layer fc7_mbox_priorbox
I0615 20:34:32.005802 19289 net.cpp:434] fc7_mbox_priorbox <- fc7_relu7_0_split_3
I0615 20:34:32.005811 19289 net.cpp:434] fc7_mbox_priorbox <- data_data_0_split_2
I0615 20:34:32.005822 19289 net.cpp:408] fc7_mbox_priorbox -> fc7_mbox_priorbox
I0615 20:34:32.005857 19289 net.cpp:150] Setting up fc7_mbox_priorbox
I0615 20:34:32.005865 19289 net.cpp:157] Top shape: 1 2 8664 (17328)
I0615 20:34:32.005872 19289 net.cpp:165] Memory required for data: 257870200
I0615 20:34:32.005877 19289 layer_factory.hpp:77] Creating layer conv6_2_mbox_loc
I0615 20:34:32.005895 19289 net.cpp:100] Creating Layer conv6_2_mbox_loc
I0615 20:34:32.005904 19289 net.cpp:434] conv6_2_mbox_loc <- conv6_2_conv6_2_relu_0_split_1
I0615 20:34:32.005918 19289 net.cpp:408] conv6_2_mbox_loc -> conv6_2_mbox_loc
I0615 20:34:32.007266 19289 net.cpp:150] Setting up conv6_2_mbox_loc
I0615 20:34:32.007304 19289 net.cpp:157] Top shape: 1 24 10 10 (2400)
I0615 20:34:32.007309 19289 net.cpp:165] Memory required for data: 257879800
I0615 20:34:32.007324 19289 layer_factory.hpp:77] Creating layer conv6_2_mbox_loc_perm
I0615 20:34:32.007339 19289 net.cpp:100] Creating Layer conv6_2_mbox_loc_perm
I0615 20:34:32.007347 19289 net.cpp:434] conv6_2_mbox_loc_perm <- conv6_2_mbox_loc
I0615 20:34:32.007360 19289 net.cpp:408] conv6_2_mbox_loc_perm -> conv6_2_mbox_loc_perm
I0615 20:34:32.007470 19289 net.cpp:150] Setting up conv6_2_mbox_loc_perm
I0615 20:34:32.007480 19289 net.cpp:157] Top shape: 1 10 10 24 (2400)
I0615 20:34:32.007484 19289 net.cpp:165] Memory required for data: 257889400
I0615 20:34:32.007490 19289 layer_factory.hpp:77] Creating layer conv6_2_mbox_loc_flat
I0615 20:34:32.007503 19289 net.cpp:100] Creating Layer conv6_2_mbox_loc_flat
I0615 20:34:32.007509 19289 net.cpp:434] conv6_2_mbox_loc_flat <- conv6_2_mbox_loc_perm
I0615 20:34:32.007517 19289 net.cpp:408] conv6_2_mbox_loc_flat -> conv6_2_mbox_loc_flat
I0615 20:34:32.007545 19289 net.cpp:150] Setting up conv6_2_mbox_loc_flat
I0615 20:34:32.007555 19289 net.cpp:157] Top shape: 1 2400 (2400)
I0615 20:34:32.007581 19289 net.cpp:165] Memory required for data: 257899000
I0615 20:34:32.007588 19289 layer_factory.hpp:77] Creating layer conv6_2_mbox_conf
I0615 20:34:32.007607 19289 net.cpp:100] Creating Layer conv6_2_mbox_conf
I0615 20:34:32.007616 19289 net.cpp:434] conv6_2_mbox_conf <- conv6_2_conv6_2_relu_0_split_2
I0615 20:34:32.007628 19289 net.cpp:408] conv6_2_mbox_conf -> conv6_2_mbox_conf
I0615 20:34:32.010426 19289 net.cpp:150] Setting up conv6_2_mbox_conf
I0615 20:34:32.010457 19289 net.cpp:157] Top shape: 1 66 10 10 (6600)
I0615 20:34:32.010462 19289 net.cpp:165] Memory required for data: 257925400
I0615 20:34:32.010475 19289 layer_factory.hpp:77] Creating layer conv6_2_mbox_conf_perm
I0615 20:34:32.010489 19289 net.cpp:100] Creating Layer conv6_2_mbox_conf_perm
I0615 20:34:32.010496 19289 net.cpp:434] conv6_2_mbox_conf_perm <- conv6_2_mbox_conf
I0615 20:34:32.010519 19289 net.cpp:408] conv6_2_mbox_conf_perm -> conv6_2_mbox_conf_perm
I0615 20:34:32.010607 19289 net.cpp:150] Setting up conv6_2_mbox_conf_perm
I0615 20:34:32.010617 19289 net.cpp:157] Top shape: 1 10 10 66 (6600)
I0615 20:34:32.010620 19289 net.cpp:165] Memory required for data: 257951800
I0615 20:34:32.010627 19289 layer_factory.hpp:77] Creating layer conv6_2_mbox_conf_flat
I0615 20:34:32.010638 19289 net.cpp:100] Creating Layer conv6_2_mbox_conf_flat
I0615 20:34:32.010645 19289 net.cpp:434] conv6_2_mbox_conf_flat <- conv6_2_mbox_conf_perm
I0615 20:34:32.010654 19289 net.cpp:408] conv6_2_mbox_conf_flat -> conv6_2_mbox_conf_flat
I0615 20:34:32.010681 19289 net.cpp:150] Setting up conv6_2_mbox_conf_flat
I0615 20:34:32.010689 19289 net.cpp:157] Top shape: 1 6600 (6600)
I0615 20:34:32.010694 19289 net.cpp:165] Memory required for data: 257978200
I0615 20:34:32.010699 19289 layer_factory.hpp:77] Creating layer conv6_2_mbox_priorbox
I0615 20:34:32.010712 19289 net.cpp:100] Creating Layer conv6_2_mbox_priorbox
I0615 20:34:32.010721 19289 net.cpp:434] conv6_2_mbox_priorbox <- conv6_2_conv6_2_relu_0_split_3
I0615 20:34:32.010730 19289 net.cpp:434] conv6_2_mbox_priorbox <- data_data_0_split_3
I0615 20:34:32.010740 19289 net.cpp:408] conv6_2_mbox_priorbox -> conv6_2_mbox_priorbox
I0615 20:34:32.010776 19289 net.cpp:150] Setting up conv6_2_mbox_priorbox
I0615 20:34:32.010782 19289 net.cpp:157] Top shape: 1 2 2400 (4800)
I0615 20:34:32.010787 19289 net.cpp:165] Memory required for data: 257997400
I0615 20:34:32.010792 19289 layer_factory.hpp:77] Creating layer conv7_2_mbox_loc
I0615 20:34:32.010812 19289 net.cpp:100] Creating Layer conv7_2_mbox_loc
I0615 20:34:32.010819 19289 net.cpp:434] conv7_2_mbox_loc <- conv7_2_conv7_2_relu_0_split_1
I0615 20:34:32.010828 19289 net.cpp:408] conv7_2_mbox_loc -> conv7_2_mbox_loc
I0615 20:34:32.011844 19289 net.cpp:150] Setting up conv7_2_mbox_loc
I0615 20:34:32.011875 19289 net.cpp:157] Top shape: 1 24 5 5 (600)
I0615 20:34:32.011880 19289 net.cpp:165] Memory required for data: 257999800
I0615 20:34:32.011893 19289 layer_factory.hpp:77] Creating layer conv7_2_mbox_loc_perm
I0615 20:34:32.011907 19289 net.cpp:100] Creating Layer conv7_2_mbox_loc_perm
I0615 20:34:32.011916 19289 net.cpp:434] conv7_2_mbox_loc_perm <- conv7_2_mbox_loc
I0615 20:34:32.011926 19289 net.cpp:408] conv7_2_mbox_loc_perm -> conv7_2_mbox_loc_perm
I0615 20:34:32.012022 19289 net.cpp:150] Setting up conv7_2_mbox_loc_perm
I0615 20:34:32.012029 19289 net.cpp:157] Top shape: 1 5 5 24 (600)
I0615 20:34:32.012035 19289 net.cpp:165] Memory required for data: 258002200
I0615 20:34:32.012042 19289 layer_factory.hpp:77] Creating layer conv7_2_mbox_loc_flat
I0615 20:34:32.012051 19289 net.cpp:100] Creating Layer conv7_2_mbox_loc_flat
I0615 20:34:32.012058 19289 net.cpp:434] conv7_2_mbox_loc_flat <- conv7_2_mbox_loc_perm
I0615 20:34:32.012068 19289 net.cpp:408] conv7_2_mbox_loc_flat -> conv7_2_mbox_loc_flat
I0615 20:34:32.012095 19289 net.cpp:150] Setting up conv7_2_mbox_loc_flat
I0615 20:34:32.012104 19289 net.cpp:157] Top shape: 1 600 (600)
I0615 20:34:32.012107 19289 net.cpp:165] Memory required for data: 258004600
I0615 20:34:32.012113 19289 layer_factory.hpp:77] Creating layer conv7_2_mbox_conf
I0615 20:34:32.012153 19289 net.cpp:100] Creating Layer conv7_2_mbox_conf
I0615 20:34:32.012161 19289 net.cpp:434] conv7_2_mbox_conf <- conv7_2_conv7_2_relu_0_split_2
I0615 20:34:32.012172 19289 net.cpp:408] conv7_2_mbox_conf -> conv7_2_mbox_conf
I0615 20:34:32.015374 19289 net.cpp:150] Setting up conv7_2_mbox_conf
I0615 20:34:32.015408 19289 net.cpp:157] Top shape: 1 66 5 5 (1650)
I0615 20:34:32.015413 19289 net.cpp:165] Memory required for data: 258011200
I0615 20:34:32.015426 19289 layer_factory.hpp:77] Creating layer conv7_2_mbox_conf_perm
I0615 20:34:32.015442 19289 net.cpp:100] Creating Layer conv7_2_mbox_conf_perm
I0615 20:34:32.015451 19289 net.cpp:434] conv7_2_mbox_conf_perm <- conv7_2_mbox_conf
I0615 20:34:32.015465 19289 net.cpp:408] conv7_2_mbox_conf_perm -> conv7_2_mbox_conf_perm
I0615 20:34:32.015558 19289 net.cpp:150] Setting up conv7_2_mbox_conf_perm
I0615 20:34:32.015568 19289 net.cpp:157] Top shape: 1 5 5 66 (1650)
I0615 20:34:32.015571 19289 net.cpp:165] Memory required for data: 258017800
I0615 20:34:32.015578 19289 layer_factory.hpp:77] Creating layer conv7_2_mbox_conf_flat
I0615 20:34:32.015588 19289 net.cpp:100] Creating Layer conv7_2_mbox_conf_flat
I0615 20:34:32.015595 19289 net.cpp:434] conv7_2_mbox_conf_flat <- conv7_2_mbox_conf_perm
I0615 20:34:32.015604 19289 net.cpp:408] conv7_2_mbox_conf_flat -> conv7_2_mbox_conf_flat
I0615 20:34:32.015631 19289 net.cpp:150] Setting up conv7_2_mbox_conf_flat
I0615 20:34:32.015640 19289 net.cpp:157] Top shape: 1 1650 (1650)
I0615 20:34:32.015645 19289 net.cpp:165] Memory required for data: 258024400
I0615 20:34:32.015650 19289 layer_factory.hpp:77] Creating layer conv7_2_mbox_priorbox
I0615 20:34:32.015668 19289 net.cpp:100] Creating Layer conv7_2_mbox_priorbox
I0615 20:34:32.015679 19289 net.cpp:434] conv7_2_mbox_priorbox <- conv7_2_conv7_2_relu_0_split_3
I0615 20:34:32.015687 19289 net.cpp:434] conv7_2_mbox_priorbox <- data_data_0_split_4
I0615 20:34:32.015697 19289 net.cpp:408] conv7_2_mbox_priorbox -> conv7_2_mbox_priorbox
I0615 20:34:32.015733 19289 net.cpp:150] Setting up conv7_2_mbox_priorbox
I0615 20:34:32.015740 19289 net.cpp:157] Top shape: 1 2 600 (1200)
I0615 20:34:32.015745 19289 net.cpp:165] Memory required for data: 258029200
I0615 20:34:32.015750 19289 layer_factory.hpp:77] Creating layer conv8_2_mbox_loc
I0615 20:34:32.015769 19289 net.cpp:100] Creating Layer conv8_2_mbox_loc
I0615 20:34:32.015775 19289 net.cpp:434] conv8_2_mbox_loc <- conv8_2_conv8_2_relu_0_split_1
I0615 20:34:32.015787 19289 net.cpp:408] conv8_2_mbox_loc -> conv8_2_mbox_loc
I0615 20:34:32.016650 19289 net.cpp:150] Setting up conv8_2_mbox_loc
I0615 20:34:32.016665 19289 net.cpp:157] Top shape: 1 16 3 3 (144)
I0615 20:34:32.016669 19289 net.cpp:165] Memory required for data: 258029776
I0615 20:34:32.016680 19289 layer_factory.hpp:77] Creating layer conv8_2_mbox_loc_perm
I0615 20:34:32.016693 19289 net.cpp:100] Creating Layer conv8_2_mbox_loc_perm
I0615 20:34:32.016700 19289 net.cpp:434] conv8_2_mbox_loc_perm <- conv8_2_mbox_loc
I0615 20:34:32.016710 19289 net.cpp:408] conv8_2_mbox_loc_perm -> conv8_2_mbox_loc_perm
I0615 20:34:32.016793 19289 net.cpp:150] Setting up conv8_2_mbox_loc_perm
I0615 20:34:32.016801 19289 net.cpp:157] Top shape: 1 3 3 16 (144)
I0615 20:34:32.016806 19289 net.cpp:165] Memory required for data: 258030352
I0615 20:34:32.016813 19289 layer_factory.hpp:77] Creating layer conv8_2_mbox_loc_flat
I0615 20:34:32.016825 19289 net.cpp:100] Creating Layer conv8_2_mbox_loc_flat
I0615 20:34:32.016832 19289 net.cpp:434] conv8_2_mbox_loc_flat <- conv8_2_mbox_loc_perm
I0615 20:34:32.016842 19289 net.cpp:408] conv8_2_mbox_loc_flat -> conv8_2_mbox_loc_flat
I0615 20:34:32.016868 19289 net.cpp:150] Setting up conv8_2_mbox_loc_flat
I0615 20:34:32.016876 19289 net.cpp:157] Top shape: 1 144 (144)
I0615 20:34:32.016886 19289 net.cpp:165] Memory required for data: 258030928
I0615 20:34:32.016892 19289 layer_factory.hpp:77] Creating layer conv8_2_mbox_conf
I0615 20:34:32.016908 19289 net.cpp:100] Creating Layer conv8_2_mbox_conf
I0615 20:34:32.016916 19289 net.cpp:434] conv8_2_mbox_conf <- conv8_2_conv8_2_relu_0_split_2
I0615 20:34:32.016944 19289 net.cpp:408] conv8_2_mbox_conf -> conv8_2_mbox_conf
I0615 20:34:32.018911 19289 net.cpp:150] Setting up conv8_2_mbox_conf
I0615 20:34:32.018951 19289 net.cpp:157] Top shape: 1 44 3 3 (396)
I0615 20:34:32.018956 19289 net.cpp:165] Memory required for data: 258032512
I0615 20:34:32.018970 19289 layer_factory.hpp:77] Creating layer conv8_2_mbox_conf_perm
I0615 20:34:32.018986 19289 net.cpp:100] Creating Layer conv8_2_mbox_conf_perm
I0615 20:34:32.018996 19289 net.cpp:434] conv8_2_mbox_conf_perm <- conv8_2_mbox_conf
I0615 20:34:32.019011 19289 net.cpp:408] conv8_2_mbox_conf_perm -> conv8_2_mbox_conf_perm
I0615 20:34:32.019105 19289 net.cpp:150] Setting up conv8_2_mbox_conf_perm
I0615 20:34:32.019114 19289 net.cpp:157] Top shape: 1 3 3 44 (396)
I0615 20:34:32.019119 19289 net.cpp:165] Memory required for data: 258034096
I0615 20:34:32.019125 19289 layer_factory.hpp:77] Creating layer conv8_2_mbox_conf_flat
I0615 20:34:32.019137 19289 net.cpp:100] Creating Layer conv8_2_mbox_conf_flat
I0615 20:34:32.019143 19289 net.cpp:434] conv8_2_mbox_conf_flat <- conv8_2_mbox_conf_perm
I0615 20:34:32.019153 19289 net.cpp:408] conv8_2_mbox_conf_flat -> conv8_2_mbox_conf_flat
I0615 20:34:32.019181 19289 net.cpp:150] Setting up conv8_2_mbox_conf_flat
I0615 20:34:32.019188 19289 net.cpp:157] Top shape: 1 396 (396)
I0615 20:34:32.019193 19289 net.cpp:165] Memory required for data: 258035680
I0615 20:34:32.019198 19289 layer_factory.hpp:77] Creating layer conv8_2_mbox_priorbox
I0615 20:34:32.019212 19289 net.cpp:100] Creating Layer conv8_2_mbox_priorbox
I0615 20:34:32.019219 19289 net.cpp:434] conv8_2_mbox_priorbox <- conv8_2_conv8_2_relu_0_split_3
I0615 20:34:32.019227 19289 net.cpp:434] conv8_2_mbox_priorbox <- data_data_0_split_5
I0615 20:34:32.019241 19289 net.cpp:408] conv8_2_mbox_priorbox -> conv8_2_mbox_priorbox
I0615 20:34:32.019277 19289 net.cpp:150] Setting up conv8_2_mbox_priorbox
I0615 20:34:32.019285 19289 net.cpp:157] Top shape: 1 2 144 (288)
I0615 20:34:32.019289 19289 net.cpp:165] Memory required for data: 258036832
I0615 20:34:32.019294 19289 layer_factory.hpp:77] Creating layer conv9_2_mbox_loc
I0615 20:34:32.019315 19289 net.cpp:100] Creating Layer conv9_2_mbox_loc
I0615 20:34:32.019321 19289 net.cpp:434] conv9_2_mbox_loc <- conv9_2_conv9_2_relu_0_split_0
I0615 20:34:32.019331 19289 net.cpp:408] conv9_2_mbox_loc -> conv9_2_mbox_loc
I0615 20:34:32.020210 19289 net.cpp:150] Setting up conv9_2_mbox_loc
I0615 20:34:32.020236 19289 net.cpp:157] Top shape: 1 16 1 1 (16)
I0615 20:34:32.020241 19289 net.cpp:165] Memory required for data: 258036896
I0615 20:34:32.020253 19289 layer_factory.hpp:77] Creating layer conv9_2_mbox_loc_perm
I0615 20:34:32.020268 19289 net.cpp:100] Creating Layer conv9_2_mbox_loc_perm
I0615 20:34:32.020277 19289 net.cpp:434] conv9_2_mbox_loc_perm <- conv9_2_mbox_loc
I0615 20:34:32.020287 19289 net.cpp:408] conv9_2_mbox_loc_perm -> conv9_2_mbox_loc_perm
I0615 20:34:32.020372 19289 net.cpp:150] Setting up conv9_2_mbox_loc_perm
I0615 20:34:32.020381 19289 net.cpp:157] Top shape: 1 1 1 16 (16)
I0615 20:34:32.020386 19289 net.cpp:165] Memory required for data: 258036960
I0615 20:34:32.020391 19289 layer_factory.hpp:77] Creating layer conv9_2_mbox_loc_flat
I0615 20:34:32.020401 19289 net.cpp:100] Creating Layer conv9_2_mbox_loc_flat
I0615 20:34:32.020407 19289 net.cpp:434] conv9_2_mbox_loc_flat <- conv9_2_mbox_loc_perm
I0615 20:34:32.020418 19289 net.cpp:408] conv9_2_mbox_loc_flat -> conv9_2_mbox_loc_flat
I0615 20:34:32.020444 19289 net.cpp:150] Setting up conv9_2_mbox_loc_flat
I0615 20:34:32.020452 19289 net.cpp:157] Top shape: 1 16 (16)
I0615 20:34:32.020457 19289 net.cpp:165] Memory required for data: 258037024
I0615 20:34:32.020463 19289 layer_factory.hpp:77] Creating layer conv9_2_mbox_conf
I0615 20:34:32.020480 19289 net.cpp:100] Creating Layer conv9_2_mbox_conf
I0615 20:34:32.020488 19289 net.cpp:434] conv9_2_mbox_conf <- conv9_2_conv9_2_relu_0_split_1
I0615 20:34:32.020500 19289 net.cpp:408] conv9_2_mbox_conf -> conv9_2_mbox_conf
I0615 20:34:32.023480 19289 net.cpp:150] Setting up conv9_2_mbox_conf
I0615 20:34:32.023509 19289 net.cpp:157] Top shape: 1 44 1 1 (44)
I0615 20:34:32.023514 19289 net.cpp:165] Memory required for data: 258037200
I0615 20:34:32.023530 19289 layer_factory.hpp:77] Creating layer conv9_2_mbox_conf_perm
I0615 20:34:32.023547 19289 net.cpp:100] Creating Layer conv9_2_mbox_conf_perm
I0615 20:34:32.023556 19289 net.cpp:434] conv9_2_mbox_conf_perm <- conv9_2_mbox_conf
I0615 20:34:32.023572 19289 net.cpp:408] conv9_2_mbox_conf_perm -> conv9_2_mbox_conf_perm
I0615 20:34:32.023659 19289 net.cpp:150] Setting up conv9_2_mbox_conf_perm
I0615 20:34:32.023669 19289 net.cpp:157] Top shape: 1 1 1 44 (44)
I0615 20:34:32.023674 19289 net.cpp:165] Memory required for data: 258037376
I0615 20:34:32.023679 19289 layer_factory.hpp:77] Creating layer conv9_2_mbox_conf_flat
I0615 20:34:32.023690 19289 net.cpp:100] Creating Layer conv9_2_mbox_conf_flat
I0615 20:34:32.023697 19289 net.cpp:434] conv9_2_mbox_conf_flat <- conv9_2_mbox_conf_perm
I0615 20:34:32.023705 19289 net.cpp:408] conv9_2_mbox_conf_flat -> conv9_2_mbox_conf_flat
I0615 20:34:32.023733 19289 net.cpp:150] Setting up conv9_2_mbox_conf_flat
I0615 20:34:32.023741 19289 net.cpp:157] Top shape: 1 44 (44)
I0615 20:34:32.023746 19289 net.cpp:165] Memory required for data: 258037552
I0615 20:34:32.023752 19289 layer_factory.hpp:77] Creating layer conv9_2_mbox_priorbox
I0615 20:34:32.023764 19289 net.cpp:100] Creating Layer conv9_2_mbox_priorbox
I0615 20:34:32.023770 19289 net.cpp:434] conv9_2_mbox_priorbox <- conv9_2_conv9_2_relu_0_split_2
I0615 20:34:32.023779 19289 net.cpp:434] conv9_2_mbox_priorbox <- data_data_0_split_6
I0615 20:34:32.023787 19289 net.cpp:408] conv9_2_mbox_priorbox -> conv9_2_mbox_priorbox
I0615 20:34:32.023830 19289 net.cpp:150] Setting up conv9_2_mbox_priorbox
I0615 20:34:32.023838 19289 net.cpp:157] Top shape: 1 2 16 (32)
I0615 20:34:32.023844 19289 net.cpp:165] Memory required for data: 258037680
I0615 20:34:32.023849 19289 layer_factory.hpp:77] Creating layer mbox_loc
I0615 20:34:32.023864 19289 net.cpp:100] Creating Layer mbox_loc
I0615 20:34:32.023871 19289 net.cpp:434] mbox_loc <- conv4_3_norm_mbox_loc_flat
I0615 20:34:32.023880 19289 net.cpp:434] mbox_loc <- fc7_mbox_loc_flat
I0615 20:34:32.023888 19289 net.cpp:434] mbox_loc <- conv6_2_mbox_loc_flat
I0615 20:34:32.023895 19289 net.cpp:434] mbox_loc <- conv7_2_mbox_loc_flat
I0615 20:34:32.023902 19289 net.cpp:434] mbox_loc <- conv8_2_mbox_loc_flat
I0615 20:34:32.023910 19289 net.cpp:434] mbox_loc <- conv9_2_mbox_loc_flat
I0615 20:34:32.023917 19289 net.cpp:408] mbox_loc -> mbox_loc
I0615 20:34:32.023947 19289 net.cpp:150] Setting up mbox_loc
I0615 20:34:32.023954 19289 net.cpp:157] Top shape: 1 34928 (34928)
I0615 20:34:32.023960 19289 net.cpp:165] Memory required for data: 258177392
I0615 20:34:32.023965 19289 layer_factory.hpp:77] Creating layer mbox_conf
I0615 20:34:32.023973 19289 net.cpp:100] Creating Layer mbox_conf
I0615 20:34:32.023980 19289 net.cpp:434] mbox_conf <- conv4_3_norm_mbox_conf_flat
I0615 20:34:32.023988 19289 net.cpp:434] mbox_conf <- fc7_mbox_conf_flat
I0615 20:34:32.023995 19289 net.cpp:434] mbox_conf <- conv6_2_mbox_conf_flat
I0615 20:34:32.024003 19289 net.cpp:434] mbox_conf <- conv7_2_mbox_conf_flat
I0615 20:34:32.024008 19289 net.cpp:434] mbox_conf <- conv8_2_mbox_conf_flat
I0615 20:34:32.024015 19289 net.cpp:434] mbox_conf <- conv9_2_mbox_conf_flat
I0615 20:34:32.024024 19289 net.cpp:408] mbox_conf -> mbox_conf
I0615 20:34:32.024049 19289 net.cpp:150] Setting up mbox_conf
I0615 20:34:32.024055 19289 net.cpp:157] Top shape: 1 96052 (96052)
I0615 20:34:32.024060 19289 net.cpp:165] Memory required for data: 258561600
I0615 20:34:32.024065 19289 layer_factory.hpp:77] Creating layer mbox_priorbox
I0615 20:34:32.024075 19289 net.cpp:100] Creating Layer mbox_priorbox
I0615 20:34:32.024082 19289 net.cpp:434] mbox_priorbox <- conv4_3_norm_mbox_priorbox
I0615 20:34:32.024091 19289 net.cpp:434] mbox_priorbox <- fc7_mbox_priorbox
I0615 20:34:32.024096 19289 net.cpp:434] mbox_priorbox <- conv6_2_mbox_priorbox
I0615 20:34:32.024122 19289 net.cpp:434] mbox_priorbox <- conv7_2_mbox_priorbox
I0615 20:34:32.024129 19289 net.cpp:434] mbox_priorbox <- conv8_2_mbox_priorbox
I0615 20:34:32.024137 19289 net.cpp:434] mbox_priorbox <- conv9_2_mbox_priorbox
I0615 20:34:32.024145 19289 net.cpp:408] mbox_priorbox -> mbox_priorbox
I0615 20:34:32.024173 19289 net.cpp:150] Setting up mbox_priorbox
I0615 20:34:32.024179 19289 net.cpp:157] Top shape: 1 2 34928 (69856)
I0615 20:34:32.024185 19289 net.cpp:165] Memory required for data: 258841024
I0615 20:34:32.024191 19289 layer_factory.hpp:77] Creating layer mbox_conf_reshape
I0615 20:34:32.024201 19289 net.cpp:100] Creating Layer mbox_conf_reshape
I0615 20:34:32.024206 19289 net.cpp:434] mbox_conf_reshape <- mbox_conf
I0615 20:34:32.024219 19289 net.cpp:408] mbox_conf_reshape -> mbox_conf_reshape
I0615 20:34:32.024255 19289 net.cpp:150] Setting up mbox_conf_reshape
I0615 20:34:32.024263 19289 net.cpp:157] Top shape: 1 8732 11 (96052)
I0615 20:34:32.024267 19289 net.cpp:165] Memory required for data: 259225232
I0615 20:34:32.024273 19289 layer_factory.hpp:77] Creating layer mbox_conf_softmax
I0615 20:34:32.024282 19289 net.cpp:100] Creating Layer mbox_conf_softmax
I0615 20:34:32.024287 19289 net.cpp:434] mbox_conf_softmax <- mbox_conf_reshape
I0615 20:34:32.024304 19289 net.cpp:408] mbox_conf_softmax -> mbox_conf_softmax
I0615 20:34:32.024443 19289 net.cpp:150] Setting up mbox_conf_softmax
I0615 20:34:32.024454 19289 net.cpp:157] Top shape: 1 8732 11 (96052)
I0615 20:34:32.024459 19289 net.cpp:165] Memory required for data: 259609440
I0615 20:34:32.024464 19289 layer_factory.hpp:77] Creating layer mbox_conf_flatten
I0615 20:34:32.024474 19289 net.cpp:100] Creating Layer mbox_conf_flatten
I0615 20:34:32.024480 19289 net.cpp:434] mbox_conf_flatten <- mbox_conf_softmax
I0615 20:34:32.024488 19289 net.cpp:408] mbox_conf_flatten -> mbox_conf_flatten
I0615 20:34:32.024516 19289 net.cpp:150] Setting up mbox_conf_flatten
I0615 20:34:32.024525 19289 net.cpp:157] Top shape: 1 96052 (96052)
I0615 20:34:32.024529 19289 net.cpp:165] Memory required for data: 259993648
I0615 20:34:32.024541 19289 layer_factory.hpp:77] Creating layer detection_out
I0615 20:34:32.024560 19289 net.cpp:100] Creating Layer detection_out
I0615 20:34:32.024569 19289 net.cpp:434] detection_out <- mbox_loc
I0615 20:34:32.024574 19289 net.cpp:434] detection_out <- mbox_conf_flatten
I0615 20:34:32.024580 19289 net.cpp:434] detection_out <- mbox_priorbox
I0615 20:34:32.024591 19289 net.cpp:408] detection_out -> detection_out
W0615 20:34:32.027536 19289 detection_output_layer.cpp:49] Failed to create directory: /home/zs/data/VOCdevkit/results/VOC2007/SSD_300x300_0323_conv6/Main
I0615 20:34:32.028159 19289 net.cpp:150] Setting up detection_out
I0615 20:34:32.028174 19289 net.cpp:157] Top shape: 1 1 1 7 (7)
I0615 20:34:32.028179 19289 net.cpp:165] Memory required for data: 259993676
I0615 20:34:32.028187 19289 layer_factory.hpp:77] Creating layer detection_eval
I0615 20:34:32.028203 19289 net.cpp:100] Creating Layer detection_eval
I0615 20:34:32.028211 19289 net.cpp:434] detection_eval <- detection_out
I0615 20:34:32.028220 19289 net.cpp:434] detection_eval <- label
I0615 20:34:32.028230 19289 net.cpp:408] detection_eval -> detection_eval
I0615 20:34:32.028318 19289 net.cpp:150] Setting up detection_eval
I0615 20:34:32.028328 19289 net.cpp:157] Top shape: 1 1 11 5 (55)
I0615 20:34:32.028332 19289 net.cpp:165] Memory required for data: 259993896
I0615 20:34:32.028338 19289 net.cpp:228] detection_eval does not need backward computation.
I0615 20:34:32.028345 19289 net.cpp:228] detection_out does not need backward computation.
I0615 20:34:32.028352 19289 net.cpp:228] mbox_conf_flatten does not need backward computation.
I0615 20:34:32.028358 19289 net.cpp:228] mbox_conf_softmax does not need backward computation.
…
