…
      sampler {
        min_scale: 0.3
        max_scale: 1
        min_aspect_ratio: 0.5
        max_aspect_ratio: 2
      }
      sample_constraint {
        min_jaccard_overlap: 0.9
      }
      max_sample: 1
      max_trials: 50
    }
    batch_sampler {
      sampler {
        min_scale: 0.3
        max_scale: 1
        min_aspect_ratio: 0.5
        max_aspect_ratio: 2
      }
      sample_constraint {
        max_jaccard_overlap: 1
      }
      max_sample: 1
      max_trials: 50
    }
    label_map_file: "data/NWPU_VHR/labelmap_NWPU_VHR.prototxt"
  }
}
layer {
  name: "conv1_1"
  type: "Convolution"
  bottom: "data"
  top: "conv1_1"
  param {
    lr_mult: 1
    decay_mult: 1
  }
  param {
    lr_mult: 2
    decay_mult: 0
  }
  convolution_param {
    num_output: 64
    pad: 1
    kernel_size: 3
    weight_filler {
      type: "xavier"
    }
    bias_filler {
      type: "constant"
      value: 0
    }
  }
}
layer {
  name: "relu1_1"
  type: "ReLU"
  bottom: "conv1_1"
  top: "conv1_1"
}
layer {
  name: "conv1_2"
  type: "Convolution"
  bottom: "conv1_1"
  top: "conv1_2"
  param {
    lr_mult: 1
    decay_mult: 1
  }
  param {
    lr_mult: 2
    decay_mult: 0
  }
  convolution_param {
    num_output: 64
    pad: 1
    kernel_size: 3
    weight_filler {
      type: "xavier"
    }
    bias_filler {
      type: "constant"
      value: 0
    }
  }
}
layer {
  name: "relu1_2"
  type: "ReLU"
  bottom: "conv1_2"
  top: "conv1_2"
}
layer {
  name: "pool1"
  type: "Pooling"
  bottom: "conv1_2"
  top: "pool1"
  pooling_param {
    pool: MAX
    kernel_size: 2
    stride: 2
  }
}
layer {
  name: "conv2_1"
  type: "Convolution"
  bottom: "pool1"
  top: "conv2_1"
  param {
    lr_mult: 1
    decay_mult: 1
  }
  param {
    lr_mult: 2
    decay_mult: 0
  }
  convolution_param {
    num_output: 128
    pad: 1
    kernel_size: 3
    weight_filler {
      type: "xavier"
    }
    bias_filler {
      type: "constant"
      value: 0
    }
  }
}
layer {
  name: "relu2_1"
  type: "ReLU"
  bottom: "conv2_1"
  top: "conv2_1"
}
layer {
  name: "conv2_2"
  type: "Convolution"
  bottom: "conv2_1"
  top: "conv2_2"
  param {
    lr_mult: 1
    decay_mult: 1
  }
  param {
    lr_mult: 2
    decay_mult: 0
  }
  convolution_param {
    num_output: 128
    pad: 1
    kernel_size: 3
    weight_filler {
      type: "xavier"
    }
    bias_filler {
      type: "constant"
      value: 0
    }
  }
}
layer {
  name: "relu2_2"
  type: "ReLU"
  bottom: "conv2_2"
  top: "conv2_2"
}
layer {
  name: "pool2"
  type: "Pooling"
  bottom: "conv2_2"
  top: "pool2"
  pooling_param {
    pool: MAX
    kernel_size: 2
    stride: 2
  }
}
layer {
  name: "conv3_1"
  type: "Convolution"
  bottom: "pool2"
  top: "conv3_1"
  param {
    lr_mult: 1
    decay_mult: 1
  }
  param {
    lr_mult: 2
    decay_mult: 0
  }
  convolution_param {
    num_output: 256
    pad: 1
    kernel_size: 3
    weight_filler {
      type: "xavier"
    }
    bias_filler {
      type: "constant"
      value: 0
    }
  }
}
layer {
  name: "relu3_1"
  type: "ReLU"
  bottom: "conv3_1"
  top: "conv3_1"
}
layer {
  name: "conv3_2"
  type: "Convolution"
  bottom: "conv3_1"
  top: "conv3_2"
  param {
    lr_mult: 1
    decay_mult: 1
  }
  param {
    lr_mult: 2
    decay_mult: 0
  }
  convolution_param {
    num_output: 256
    pad: 1
    kernel_size: 3
    weight_filler {
      type: "xavier"
    }
    bias_filler {
      type: "constant"
      value: 0
    }
  }
}
layer {
  name: "relu3_2"
  type: "ReLU"
  bottom: "conv3_2"
  top: "conv3_2"
}
layer {
  name: "conv3_3"
  type: "Convolution"
  bottom: "conv3_2"
  top: "conv3_3"
  param {
    lr_mult: 1
    decay_mult: 1
  }
  param {
    lr_mult: 2
    decay_mult: 0
  }
  convolution_param {
    num_output: 256
    pad: 1
    kernel_size: 3
    weight_filler {
      type: "xavier"
    }
    bias_filler {
      type: "constant"
      value: 0
    }
  }
}
layer {
  name: "relu3_3"
  type: "ReLU"
  bottom: "conv3_3"
  top: "conv3_3"
}
layer {
  name: "pool3"
  type: "Pooling"
  bottom: "conv3_3"
  top: "pool3"
  pooling_param {
    pool: MAX
    kernel_size: 2
    stride: 2
  }
}
layer {
  name: "conv4_1_depthwise"
  type: "DepthwiseConvolution"
  bottom: "pool3"
  top: "conv4_1_3x3"
  param {
    lr_mult: 1
    decay_mult: 1
  }
  param {
    lr_mult: 2
    decay_mult: 0
  }
  convolution_param {
    num_output: 256
    pad: 1
    kernel_size: 3
    group: 256
    weight_filler {
      type: "xavier"
    }
    bias_filler {
      type: "constant"
      value: 0
    }
  }
}
layer {
  name: "conv4_1_3x3_relu"
  type: "ReLU"
  bottom: "conv4_1_3x3"
  top: "conv4_1_3x3"
}
layer {
  name: "conv4_1_1x1"
  type: "Convolution"
  bottom: "conv4_1_3x3"
  top: "conv4_1"
  param {
    lr_mult: 1
    decay_mult: 1
  }
  param {
    lr_mult: 2
    decay_mult: 0
  }
  convolution_param {
    num_output: 512
    pad: 0
    kernel_size: 1
    stride: 1
    weight_filler {
      type: "xavier"
    }
    bias_filler {
      type: "constant"
      value: 0
    }
  }
}
layer {
  name: "relu4_1"
  type: "ReLU"
  bottom: "conv4_1"
  top: "conv4_1"
}
layer {
  name: "conv4_2"
  type: "Convolution"
  bottom: "conv4_1"
  top: "conv4_2"
  param {
    lr_mult: 1
    decay_mult: 1
  }
  param {
    lr_mult: 2
    decay_mult: 0
  }
  convolution_param {
    num_output: 512
    pad: 1
    kernel_size: 3
    weight_filler {
      type: "xavier"
    }
    bias_filler {
      type: "constant"
      value: 0
    }
  }
}
layer {
  name: "relu4_2"
  type: "ReLU"
  bottom: "conv4_2"
  top: "conv4_2"
}
layer {
  name: "conv4_3"
  type: "Convolution"
  bottom: "conv4_2"
  top: "conv4_3"
  param {
    lr_mult: 1
    decay_mult: 1
  }
  param {
    lr_mult: 2
    decay_mult: 0
  }
  convolution_param {
    num_output: 512
    pad: 1
    kernel_size: 3
    weight_filler {
      type: "xavier"
    }
    bias_filler {
      type: "constant"
      value: 0
    }
  }
}
layer {
  name: "relu4_3"
  type: "ReLU"
  bottom: "conv4_3"
  top: "conv4_3"
}
layer {
  name: "pool4"
  type: "Pooling"
  bottom: "conv4_3"
  top: "pool4"
  pooling_param {
    pool: MAX
    kernel_size: 2
    stride: 2
  }
}
layer {
  name: "conv5_1_depthwise"
  type: "DepthwiseConvolution"
  bottom: "pool4"
  top: "conv5_1_3x3"
  param {
    lr_mult: 1
    decay_mult: 1
  }
  param {
    lr_mult: 2
    decay_mult: 0
  }
  convolution_param {
    num_output: 512
    pad: 1
    kernel_size: 3
    group: 512
    weight_filler {
      type: "xavier"
    }
    bias_filler {
      type: "constant"
      value: 0
    }
    dilation: 1
  }
}
layer {
  name: "conv5_1_3x3_relu"
  type: "ReLU"
  bottom: "conv5_1_3x3"
  top: "conv5_1_3x3"
}
layer {
  name: "conv5_1_1x1"
  type: "Convolution"
  bottom: "conv5_1_3x3"
  top: "conv5_1"
  param {
    lr_mult: 1
    decay_mult: 1
  }
  param {
    lr_mult: 2
    decay_mult: 0
  }
  convolution_param {
    num_output: 512
    pad: 0
    kernel_size: 1
    stride: 1
    weight_filler {
      type: "xavier"
    }
    bias_filler {
      type: "constant"
      value: 0
    }
    dilation: 1
  }
}
layer {
  name: "relu5_1"
  type: "ReLU"
  bottom: "conv5_1"
  top: "conv5_1"
}
layer {
  name: "conv5_2_depthwise"
  type: "DepthwiseConvolution"
  bottom: "conv5_1"
  top: "conv5_2_3x3"
  param {
    lr_mult: 1
    decay_mult: 1
  }
  param {
    lr_mult: 2
    decay_mult: 0
  }
  convolution_param {
    num_output: 512
    pad: 1
    kernel_size: 3
    group: 512
    weight_filler {
      type: "xavier"
    }
    bias_filler {
      type: "constant"
      value: 0
    }
    dilation: 1
  }
}
layer {
  name: "conv5_2_3x3_relu"
  type: "ReLU"
  bottom: "conv5_2_3x3"
  top: "conv5_2_3x3"
}
layer {
  name: "conv5_2_1x1"
  type: "Convolution"
  bottom: "conv5_2_3x3"
  top: "conv5_2"
  param {
    lr_mult: 1
    decay_mult: 1
  }
  param {
    lr_mult: 2
    decay_mult: 0
  }
  convolution_param {
    num_output: 512
    pad: 0
    kernel_size: 1
    stride: 1
    weight_filler {
      type: "xavier"
    }
    bias_filler {
      type: "constant"
      value: 0
    }
    dilation: 1
  }
}
layer {
  name: "relu5_2"
  type: "ReLU"
  bottom: "conv5_2"
  top: "conv5_2"
}
layer {
  name: "conv5_3_depthwise"
  type: "DepthwiseConvolution"
  bottom: "conv5_2"
  top: "conv5_3_3x3"
  param {
    lr_mult: 1
    decay_mult: 1
  }
  param {
    lr_mult: 2
    decay_mult: 0
  }
  convolution_param {
    num_output: 512
    pad: 1
    kernel_size: 3
    group: 512
    weight_filler {
      type: "xavier"
    }
    bias_filler {
      type: "constant"
      value: 0
    }
    dilation: 1
  }
}
layer {
  name: "conv5_3_3x3_relu"
  type: "ReLU"
  bottom: "conv5_3_3x3"
  top: "conv5_3_3x3"
}
layer {
  name: "conv5_3_1x1"
  type: "Convolution"
  bottom: "conv5_3_3x3"
  top: "conv5_3"
  param {
    lr_mult: 1
    decay_mult: 1
  }
  param {
    lr_mult: 2
    decay_mult: 0
  }
  convolution_param {
    num_output: 512
    pad: 0
    kernel_size: 1
    stride: 1
    weight_filler {
      type: "xavier"
    }
    bias_filler {
      type: "constant"
      value: 0
    }
    dilation: 1
  }
}
layer {
  name: "relu5_3"
  type: "ReLU"
  bottom: "conv5_3"
  top: "conv5_3"
}
layer {
  name: "pool5"
  type: "Pooling"
  bottom: "conv5_3"
  top: "pool5"
  pooling_param {
    pool: MAX
    kernel_size: 3
    stride: 1
    pad: 1
  }
}
layer {
  name: "fc6_depthwise"
  type: "DepthwiseConvolution"
  bottom: "pool5"
  top: "fc6_3x3"
  param {
    lr_mult: 1
    decay_mult: 1
  }
  param {
    lr_mult: 2
    decay_mult: 0
  }
  convolution_param {
    num_output: 512
    pad: 6
    kernel_size: 3
    group: 512
    weight_filler {
      type: "xavier"
    }
    bias_filler {
      type: "constant"
      value: 0
    }
    dilation: 6
  }
}
layer {
  name: "fc6_3x3_relu"
  type: "ReLU"
  bottom: "fc6_3x3"
  top: "fc6_3x3"
}
layer {
  name: "fc6_1x1"
  type: "Convolution"
  bottom: "fc6_3x3"
  top: "fc6"
  param {
    lr_mult: 1
    decay_mult: 1
  }
  param {
    lr_mult: 2
    decay_mult: 0
  }
  convolution_param {
    num_output: 1024
    pad: 0
    kernel_size: 1
    stride: 1
    weight_filler {
      type: "xavier"
    }
    bias_filler {
      type: "constant"
      value: 0
    }
    dilation: 6
  }
}
layer {
  name: "relu6"
  type: "ReLU"
  bottom: "fc6"
  top: "fc6"
}
layer {
  name: "fc7"
  type: "Convolution"
  bottom: "fc6"
  top: "fc7"
  param {
    lr_mult: 1
    decay_mult: 1
  }
  param {
    lr_mult: 2
    decay_mult: 0
  }
  convolution_param {
    num_output: 1024
    kernel_size: 1
    weight_filler {
      type: "xavier"
    }
    bias_filler {
      type: "constant"
      value: 0
    }
  }
}
layer {
  name: "relu7"
  type: "ReLU"
  bottom: "fc7"
  top: "fc7"
}
layer {
  name: "conv6_1"
  type: "Convolution"
  bottom: "fc7"
  top: "conv6_1"
  param {
    lr_mult: 1
    decay_mult: 1
  }
  param {
    lr_mult: 2
    decay_mult: 0
  }
  convolution_param {
    num_output: 256
    pad: 0
    kernel_size: 1
    stride: 1
    weight_filler {
      type: "xavier"
    }
    bias_filler {
      type: "constant"
      value: 0
    }
  }
}
layer {
  name: "conv6_1_relu"
  type: "ReLU"
  bottom: "conv6_1"
  top: "conv6_1"
}
layer {
  name: "conv6_2_depthwise"
  type: "DepthwiseConvolution"
  bottom: "conv6_1"
  top: "conv6_2_3x3"
  param {
    lr_mult: 1
    decay_mult: 1
  }
  param {
    lr_mult: 2
    decay_mult: 0
  }
  convolution_param {
    num_output: 256
    pad: 1
    kernel_size: 3
    group: 256
    stride: 2
    weight_filler {
      type: "xavier"
    }
    bias_filler {
      type: "constant"
      value: 0
    }
  }
}
layer {
  name: "conv6_2_3x3_relu"
  type: "ReLU"
  bottom: "conv6_2_3x3"
  top: "conv6_2_3x3"
}
layer {
  name: "conv6_2_1x1"
  type: "Convolution"
  bottom: "conv6_2_3x3"
  top: "conv6_2"
  param {
    lr_mult: 1
    decay_mult: 1
  }
  param {
    lr_mult: 2
    decay_mult: 0
  }
  convolution_param {
    num_output: 512
    pad: 0
    kernel_size: 1
    stride: 1
    weight_filler {
      type: "xavier"
    }
    bias_filler {
      type: "constant"
      value: 0
    }
  }
}
layer {
  name: "conv6_2_relu"
  type: "ReLU"
  bottom: "conv6_2"
  top: "conv6_2"
}
layer {
  name: "conv7_1"
  type: "Convolution"
  bottom: "conv6_2"
  top: "conv7_1"
  param {
    lr_mult: 1
    decay_mult: 1
  }
  param {
    lr_mult: 2
    decay_mult: 0
  }
  convolution_param {
    num_output: 128
    pad: 0
    kernel_size: 1
    stride: 1
    weight_filler {
      type: "xavier"
    }
    bias_filler {
      type: "constant"
      value: 0
    }
  }
}
layer {
  name: "conv7_1_relu"
  type: "ReLU"
  bottom: "conv7_1"
  top: "conv7_1"
}
layer {
  name: "conv7_2"
  type: "Convolution"
  bottom: "conv7_1"
  top: "conv7_2"
  param {
    lr_mult: 1
    decay_mult: 1
  }
  param {
    lr_mult: 2
    decay_mult: 0
  }
  convolution_param {
    num_output: 256
    pad: 1
    kernel_size: 3
    stride: 2
    weight_filler {
      type: "xavier"
    }
    bias_filler {
      type: "constant"
      value: 0
    }
  }
}
layer {
  name: "conv7_2_relu"
  type: "ReLU"
  bottom: "conv7_2"
  top: "conv7_2"
}
layer {
  name: "conv8_1"
  type: "Convolution"
  bottom: "conv7_2"
  top: "conv8_1"
  param {
    lr_mult: 1
    decay_mult: 1
  }
  param {
    lr_mult: 2
    decay_mult: 0
  }
  convolution_param {
    num_output: 128
    pad: 0
    kernel_size: 1
    stride: 1
    weight_filler {
      type: "xavier"
    }
    bias_filler {
      type: "constant"
      value: 0
    }
  }
}
layer {
  name: "conv8_1_relu"
  type: "ReLU"
  bottom: "conv8_1"
  top: "conv8_1"
}
layer {
  name: "conv8_2"
  type: "Convolution"
  bottom: "conv8_1"
  top: "conv8_2"
  param {
    lr_mult: 1
    decay_mult: 1
  }
  param {
    lr_mult: 2
    decay_mult: 0
  }
  convolution_param {
    num_output: 256
    pad: 0
    kernel_size: 3
    stride: 1
    weight_filler {
      type: "xavier"
    }
    bias_filler {
      type: "constant"
      value: 0
    }
  }
}
layer {
  name: "conv8_2_relu"
  type: "ReLU"
  bottom: "conv8_2"
  top: "conv8_2"
}
layer {
  name: "conv9_1"
  type: "Convolution"
  bottom: "conv8_2"
  top: "conv9_1"
  param {
    lr_mult: 1
    decay_mult: 1
  }
  param {
    lr_mult: 2
    decay_mult: 0
  }
  convolution_param {
    num_output: 128
    pad: 0
    kernel_size: 1
    stride: 1
    weight_filler {
      type: "xavier"
    }
    bias_filler {
      type: "constant"
      value: 0
    }
  }
}
layer {
  name: "conv9_1_relu"
  type: "ReLU"
  bottom: "conv9_1"
  top: "conv9_1"
}
layer {
  name: "conv9_2"
  type: "Convolution"
  bottom: "conv9_1"
  top: "conv9_2"
  param {
    lr_mult: 1
    decay_mult: 1
  }
  param {
    lr_mult: 2
    decay_mult: 0
  }
  convolution_param {
    num_output: 256
    pad: 0
    kernel_size: 3
    stride: 1
    weight_filler {
      type: "xavier"
    }
    bias_filler {
      type: "constant"
      value: 0
    }
  }
}
layer {
  name: "conv9_2_relu"
  type: "ReLU"
  bottom: "conv9_2"
  top: "conv9_2"
}
layer {
  name: "conv4_3_norm"
  type: "Normalize"
  bottom: "conv4_3"
  top: "conv4_3_norm"
  norm_param {
    across_spatial: false
    scale_filler {
      type: "constant"
      value: 20
    }
    channel_shared: false
  }
}
layer {
  name: "conv4_3_norm_mbox_loc"
  type: "Convolution"
  bottom: "conv4_3_norm"
  top: "conv4_3_norm_mbox_loc"
  param {
    lr_mult: 1
    decay_mult: 1
  }
  param {
    lr_mult: 2
    decay_mult: 0
  }
  convolution_param {
    num_output: 16
    pad: 1
    kernel_size: 3
    stride: 1
    weight_filler {
      type: "xavier"
    }
    bias_filler {
      type: "constant"
      value: 0
    }
  }
}
layer {
  name: "conv4_3_norm_mbox_loc_perm"
  type: "Permute"
  bottom: "conv4_3_norm_mbox_loc"
  top: "conv4_3_norm_mbox_loc_perm"
  permute_param {
    order: 0
    order: 2
    order: 3
    order: 1
  }
}
layer {
  name: "conv4_3_norm_mbox_loc_flat"
  type: "Flatten"
  bottom: "conv4_3_norm_mbox_loc_perm"
  top: "conv4_3_norm_mbox_loc_flat"
  flatten_param {
    axis: 1
  }
}
layer {
  name: "conv4_3_norm_mbox_conf"
  type: "Convolution"
  bottom: "conv4_3_norm"
  top: "conv4_3_norm_mbox_conf"
  param {
    lr_mult: 1
    decay_mult: 1
  }
  param {
    lr_mult: 2
    decay_mult: 0
  }
  convolution_param {
    num_output: 44
    pad: 1
    kernel_size: 3
    stride: 1
    weight_filler {
      type: "xavier"
    }
    bias_filler {
      type: "constant"
      value: 0
    }
  }
}
layer {
  name: "conv4_3_norm_mbox_conf_perm"
  type: "Permute"
  bottom: "conv4_3_norm_mbox_conf"
  top: "conv4_3_norm_mbox_conf_perm"
  permute_param {
    order: 0
    order: 2
    order: 3
    order: 1
  }
}
layer {
  name: "conv4_3_norm_mbox_conf_flat"
  type: "Flatten"
  bottom: "conv4_3_norm_mbox_conf_perm"
  top: "conv4_3_norm_mbox_conf_flat"
  flatten_param {
    axis: 1
  }
}
layer {
  name: "conv4_3_norm_mbox_priorbox"
  type: "PriorBox"
  bottom: "conv4_3_norm"
  bottom: "data"
  top: "conv4_3_norm_mbox_priorbox"
  prior_box_param {
    min_size: 30
    max_size: 60
    aspect_ratio: 2
    flip: true
    clip: false
    variance: 0.1
    variance: 0.1
    variance: 0.2
    variance: 0.2
    step: 8
    offset: 0.5
  }
}
layer {
  name: "fc7_mbox_loc"
  type: "Convolution"
  bottom: "fc7"
  top: "fc7_mbox_loc"
  param {
    lr_mult: 1
    decay_mult: 1
  }
  param {
    lr_mult: 2
    decay_mult: 0
  }
  convolution_param {
    num_output: 24
    pad: 1
    kernel_size: 3
    stride: 1
    weight_filler {
      type: "xavier"
    }
    bias_filler {
      type: "constant"
      value: 0
    }
  }
}
layer {
  name: "fc7_mbox_loc_perm"
  type: "Permute"
  bottom: "fc7_mbox_loc"
  top: "fc7_mbox_loc_perm"
  permute_param {
    order: 0
    order: 2
    order: 3
    order: 1
  }
}
layer {
  name: "fc7_mbox_loc_flat"
  type: "Flatten"
  bottom: "fc7_mbox_loc_perm"
  top: "fc7_mbox_loc_flat"
  flatten_param {
    axis: 1
  }
}
layer {
  name: "fc7_mbox_conf"
  type: "Convolution"
  bottom: "fc7"
  top: "fc7_mbox_conf"
  param {
    lr_mult: 1
    decay_mult: 1
  }
  param {
    lr_mult: 2
    decay_mult: 0
  }
  convolution_param {
    num_output: 66
    pad: 1
    kernel_size: 3
    stride: 1
    weight_filler {
      type: "xavier"
    }
    bias_filler {
      type: "constant"
      value: 0
    }
  }
}
layer {
  name: "fc7_mbox_conf_perm"
  type: "Permute"
  bottom: "fc7_mbox_conf"
  top: "fc7_mbox_conf_perm"
  permute_param {
    order: 0
    order: 2
    order: 3
    order: 1
  }
}
layer {
  name: "fc7_mbox_conf_flat"
  type: "Flatten"
  bottom: "fc7_mbox_conf_perm"
  top: "fc7_mbox_conf_flat"
  flatten_param {
    axis: 1
  }
}
layer {
  name: "fc7_mbox_priorbox"
  type: "PriorBox"
  bottom: "fc7"
  bottom: "data"
  top: "fc7_mbox_priorbox"
  prior_box_param {
    min_size: 60
    max_size: 111
    aspect_ratio: 2
    aspect_ratio: 3
    flip: true
    clip: false
    variance: 0.1
    variance: 0.1
    variance: 0.2
    variance: 0.2
    step: 16
    offset: 0.5
  }
}
layer {
  name: "conv6_2_mbox_loc"
  type: "Convolution"
  bottom: "conv6_2"
  top: "conv6_2_mbox_loc"
  param {
    lr_mult: 1
    decay_mult: 1
  }
  param {
    lr_mult: 2
    decay_mult: 0
  }
  convolution_param {
    num_output: 24
    pad: 1
    kernel_size: 3
    stride: 1
    weight_filler {
      type: "xavier"
    }
    bias_filler {
      type: "constant"
      value: 0
    }
  }
}
layer {
  name: "conv6_2_mbox_loc_perm"
  type: "Permute"
  bottom: "conv6_2_mbox_loc"
  top: "conv6_2_mbox_loc_perm"
  permute_param {
    order: 0
    order: 2
    order: 3
    order: 1
  }
}
layer {
  name: "conv6_2_mbox_loc_flat"
  type: "Flatten"
  bottom: "conv6_2_mbox_loc_perm"
  top: "conv6_2_mbox_loc_flat"
  flatten_param {
    axis: 1
  }
}
layer {
  name: "conv6_2_mbox_conf"
  type: "Convolution"
  bottom: "conv6_2"
  top: "conv6_2_mbox_conf"
  param {
    lr_mult: 1
    decay_mult: 1
  }
  param {
    lr_mult: 2
    decay_mult: 0
  }
  convolution_param {
    num_output: 66
    pad: 1
    kernel_size: 3
    stride: 1
    weight_filler {
      type: "xavier"
    }
    bias_filler {
      type: "constant"
      value: 0
    }
  }
}
layer {
  name: "conv6_2_mbox_conf_perm"
  type: "Permute"
  bottom: "conv6_2_mbox_conf"
  top: "conv6_2_mbox_conf_perm"
  permute_param {
    order: 0
    order: 2
    order: 3
    order: 1
  }
}
layer {
  name: "conv6_2_mbox_conf_flat"
  type: "Flatten"
  bottom: "conv6_2_mbox_conf_perm"
  top: "conv6_2_mbox_conf_flat"
  flatten_param {
    axis: 1
  }
}
layer {
  name: "conv6_2_mbox_priorbox"
  type: "PriorBox"
  bottom: "conv6_2"
  bottom: "data"
  top: "conv6_2_mbox_priorbox"
  prior_box_param {
    min_size: 111
    max_size: 162
    aspect_ratio: 2
    aspect_ratio: 3
    flip: true
    clip: false
    variance: 0.1
    variance: 0.1
    variance: 0.2
    variance: 0.2
    step: 32
    offset: 0.5
  }
}
layer {
  name: "conv7_2_mbox_loc"
  type: "Convolution"
  bottom: "conv7_2"
  top: "conv7_2_mbox_loc"
  param {
    lr_mult: 1
    decay_mult: 1
  }
  param {
    lr_mult: 2
    decay_mult: 0
  }
  convolution_param {
    num_output: 24
    pad: 1
    kernel_size: 3
    stride: 1
    weight_filler {
      type: "xavier"
    }
    bias_filler {
      type: "constant"
      value: 0
    }
  }
}
layer {
  name: "conv7_2_mbox_loc_perm"
  type: "Permute"
  bottom: "conv7_2_mbox_loc"
  top: "conv7_2_mbox_loc_perm"
  permute_param {
    order: 0
    order: 2
    order: 3
    order: 1
  }
}
layer {
  name: "conv7_2_mbox_loc_flat"
  type: "Flatten"
  bottom: "conv7_2_mbox_loc_perm"
  top: "conv7_2_mbox_loc_flat"
  flatten_param {
    axis: 1
  }
}
layer {
  name: "conv7_2_mbox_conf"
  type: "Convolution"
  bottom: "conv7_2"
  top: "conv7_2_mbox_conf"
  param {
    lr_mult: 1
    decay_mult: 1
  }
  param {
    lr_mult: 2
    decay_mult: 0
  }
  convolution_param {
    num_output: 66
    pad: 1
    kernel_size: 3
    stride: 1
    weight_filler {
      type: "xavier"
    }
    bias_filler {
      type: "constant"
      value: 0
    }
  }
}
layer {
  name: "conv7_2_mbox_conf_perm"
  type: "Permute"
  bottom: "conv7_2_mbox_conf"
  top: "conv7_2_mbox_conf_perm"
  permute_param {
    order: 0
    order: 2
    order: 3
    order: 1
  }
}
layer {
  name: "conv7_2_mbox_conf_flat"
  type: "Flatten"
  bottom: "conv7_2_mbox_conf_perm"
  top: "conv7_2_mbox_conf_flat"
  flatten_param {
    axis: 1
  }
}
layer {
  name: "conv7_2_mbox_priorbox"
  type: "PriorBox"
  bottom: "conv7_2"
  bottom: "data"
  top: "conv7_2_mbox_priorbox"
  prior_box_param {
    min_size: 162
    max_size: 213
    aspect_ratio: 2
    aspect_ratio: 3
    flip: true
    clip: false
    variance: 0.1
    variance: 0.1
    variance: 0.2
    variance: 0.2
    step: 64
    offset: 0.5
  }
}
layer {
  name: "conv8_2_mbox_loc"
  type: "Convolution"
  bottom: "conv8_2"
  top: "conv8_2_mbox_loc"
  param {
    lr_mult: 1
    decay_mult: 1
  }
  param {
    lr_mult: 2
    decay_mult: 0
  }
  convolution_param {
    num_output: 16
    pad: 1
    kernel_size: 3
    stride: 1
    weight_filler {
      type: "xavier"
    }
    bias_filler {
      type: "constant"
      value: 0
    }
  }
}
layer {
  name: "conv8_2_mbox_loc_perm"
  type: "Permute"
  bottom: "conv8_2_mbox_loc"
  top: "conv8_2_mbox_loc_perm"
  permute_param {
    order: 0
    order: 2
    order: 3
    order: 1
  }
}
layer {
  name: "conv8_2_mbox_loc_flat"
  type: "Flatten"
  bottom: "conv8_2_mbox_loc_perm"
  top: "conv8_2_mbox_loc_flat"
  flatten_param {
    axis: 1
  }
}
layer {
  name: "conv8_2_mbox_conf"
  type: "Convolution"
  bottom: "conv8_2"
  top: "conv8_2_mbox_conf"
  param {
    lr_mult: 1
    decay_mult: 1
  }
  param {
    lr_mult: 2
    decay_mult: 0
  }
  convolution_param {
    num_output: 44
    pad: 1
    kernel_size: 3
    stride: 1
    weight_filler {
      type: "xavier"
    }
    bias_filler {
      type: "constant"
      value: 0
    }
  }
}
layer {
  name: "conv8_2_mbox_conf_perm"
  type: "Permute"
  bottom: "conv8_2_mbox_conf"
  top: "conv8_2_mbox_conf_perm"
  permute_param {
    order: 0
    order: 2
    order: 3
    order: 1
  }
}
layer {
  name: "conv8_2_mbox_conf_flat"
  type: "Flatten"
  bottom: "conv8_2_mbox_conf_perm"
  top: "conv8_2_mbox_conf_flat"
  flatten_param {
    axis: 1
  }
}
layer {
  name: "conv8_2_mbox_priorbox"
  type: "PriorBox"
  bottom: "conv8_2"
  bottom: "data"
  top: "conv8_2_mbox_priorbox"
  prior_box_param {
    min_size: 213
    max_size: 264
    aspect_ratio: 2
    flip: true
    clip: false
    variance: 0.1
    variance: 0.1
    variance: 0.2
    variance: 0.2
    step: 100
    offset: 0.5
  }
}
layer {
  name: "conv9_2_mbox_loc"
  type: "Convolution"
  bottom: "conv9_2"
  top: "conv9_2_mbox_loc"
  param {
    lr_mult: 1
    decay_mult: 1
  }
  param {
    lr_mult: 2
    decay_mult: 0
  }
  convolution_param {
    num_output: 16
    pad: 1
    kernel_size: 3
    stride: 1
    weight_filler {
      type: "xavier"
    }
    bias_filler {
      type: "constant"
      value: 0
    }
  }
}
layer {
  name: "conv9_2_mbox_loc_perm"
  type: "Permute"
  bottom: "conv9_2_mbox_loc"
  top: "conv9_2_mbox_loc_perm"
  permute_param {
    order: 0
    order: 2
    order: 3
    order: 1
  }
}
layer {
  name: "conv9_2_mbox_loc_flat"
  type: "Flatten"
  bottom: "conv9_2_mbox_loc_perm"
  top: "conv9_2_mbox_loc_flat"
  flatten_param {
    axis: 1
  }
}
layer {
  name: "conv9_2_mbox_conf"
  type: "Convolution"
  bottom: "conv9_2"
  top: "conv9_2_mbox_conf"
  param {
    lr_mult: 1
    decay_mult: 1
  }
  param {
    lr_mult: 2
    decay_mult: 0
  }
  convolution_param {
    num_output: 44
    pad: 1
    kernel_size: 3
    stride: 1
    weight_filler {
      type: "xavier"
    }
    bias_filler {
      type: "constant"
      value: 0
    }
  }
}
layer {
  name: "conv9_2_mbox_conf_perm"
  type: "Permute"
  bottom: "conv9_2_mbox_conf"
  top: "conv9_2_mbox_conf_perm"
  permute_param {
    order: 0
    order: 2
    order: 3
    order: 1
  }
}
layer {
  name: "conv9_2_mbox_conf_flat"
  type: "Flatten"
  bottom: "conv9_2_mbox_conf_perm"
  top: "conv9_2_mbox_conf_flat"
  flatten_param {
    axis: 1
  }
}
layer {
  name: "conv9_2_mbox_priorbox"
  type: "PriorBox"
  bottom: "conv9_2"
  bottom: "data"
  top: "conv9_2_mbox_priorbox"
  prior_box_param {
    min_size: 264
    max_size: 315
    aspect_ratio: 2
    flip: true
    clip: false
    variance: 0.1
    variance: 0.1
    variance: 0.2
    variance: 0.2
    step: 300
    offset: 0.5
  }
}
layer {
  name: "mbox_loc"
  type: "Concat"
  bottom: "conv4_3_norm_mbox_loc_flat"
  bottom: "fc7_mbox_loc_flat"
  bottom: "conv6_2_mbox_loc_flat"
  bottom: "conv7_2_mbox_loc_flat"
  bottom: "conv8_2_mbox_loc_flat"
  bottom: "conv9_2_mbox_loc_flat"
  top: "mbox_loc"
  concat_param {
    axis: 1
  }
}
layer {
  name: "mbox_conf"
  type: "Concat"
  bottom: "conv4_3_norm_mbox_conf_flat"
  bottom: "fc7_mbox_conf_flat"
  bottom: "conv6_2_mbox_conf_flat"
  bottom: "conv7_2_mbox_conf_flat"
  bottom: "conv8_2_mbox_conf_flat"
  bottom: "conv9_2_mbox_conf_flat"
  top: "mbox_conf"
  concat_param {
    axis: 1
  }
}
layer {
  name: "mbox_priorbox"
  type: "Concat"
  bottom: "conv4_3_norm_mbox_priorbox"
  bottom: "fc7_mbox_priorbox"
  bottom: "conv6_2_mbox_priorbox"
  bottom: "conv7_2_mbox_priorbox"
  bottom: "conv8_2_mbox_priorbox"
  bottom: "conv9_2_mbox_priorbox"
  top: "mbox_priorbox"
  concat_param {
    axis: 2
  }
}
layer {
  name: "mbox_loss"
  type: "MultiBoxLoss"
  bottom: "mbox_loc"
  bottom: "mbox_conf"
  bottom: "mbox_priorbox"
  bottom: "label"
  top: "mbox_loss"
  include {
    phase: TRAIN
  }
  propagate_down: true
  propagate_down: true
  propagate_down: false
  propagate_down: false
  loss_param {
    normalization: VALID
  }
  multibox_loss_param {
    loc_loss_type: SMOOTH_L1
    conf_loss_type: SOFTMAX
    loc_weight: 1
    num_classes: 11
    share_location: true
    match_type: PER_PREDICTION
    overlap_threshold: 0.5
    use_prior_for_matching: true
    background_label_id: 0
    use_difficult_gt: true
    neg_pos_ratio: 3
    neg_overlap: 0.5
    code_type: CENTER_SIZE
    ignore_cross_boundary_bbox: false
    mining_type: MAX_NEGATIVE
  }
}
I0323 17:01:47.491413 31012 layer_factory.hpp:77] Creating layer data
I0323 17:01:47.491978 31012 net.cpp:100] Creating Layer data
I0323 17:01:47.491998 31012 net.cpp:408] data -> data
I0323 17:01:47.492035 31012 net.cpp:408] data -> label
I0323 17:01:47.507355 31026 db_lmdb.cpp:35] Opened lmdb examples/NWPU_VHR/NWPU_VHR_trainval_lmdb
I0323 17:01:47.524350 31012 annotated_data_layer.cpp:62] output data size: 32,3,300,300
I0323 17:01:47.571596 31012 net.cpp:150] Setting up data
I0323 17:01:47.571622 31012 net.cpp:157] Top shape: 32 3 300 300 (8640000)
I0323 17:01:47.571630 31012 net.cpp:157] Top shape: 1 1 4 8 (32)
I0323 17:01:47.571633 31012 net.cpp:165] Memory required for data: 34560128
I0323 17:01:47.571645 31012 layer_factory.hpp:77] Creating layer data_data_0_split
I0323 17:01:47.571662 31012 net.cpp:100] Creating Layer data_data_0_split
I0323 17:01:47.571671 31012 net.cpp:434] data_data_0_split <- data
I0323 17:01:47.571688 31012 net.cpp:408] data_data_0_split -> data_data_0_split_0
I0323 17:01:47.571702 31012 net.cpp:408] data_data_0_split -> data_data_0_split_1
I0323 17:01:47.571709 31012 net.cpp:408] data_data_0_split -> data_data_0_split_2
I0323 17:01:47.571717 31012 net.cpp:408] data_data_0_split -> data_data_0_split_3
I0323 17:01:47.571723 31012 net.cpp:408] data_data_0_split -> data_data_0_split_4
I0323 17:01:47.571729 31012 net.cpp:408] data_data_0_split -> data_data_0_split_5
I0323 17:01:47.571734 31012 net.cpp:408] data_data_0_split -> data_data_0_split_6
I0323 17:01:47.571858 31012 net.cpp:150] Setting up data_data_0_split
I0323 17:01:47.571868 31012 net.cpp:157] Top shape: 32 3 300 300 (8640000)
I0323 17:01:47.571873 31012 net.cpp:157] Top shape: 32 3 300 300 (8640000)
I0323 17:01:47.571878 31012 net.cpp:157] Top shape: 32 3 300 300 (8640000)
I0323 17:01:47.571883 31012 net.cpp:157] Top shape: 32 3 300 300 (8640000)
I0323 17:01:47.571887 31012 net.cpp:157] Top shape: 32 3 300 300 (8640000)
I0323 17:01:47.571909 31012 net.cpp:157] Top shape: 32 3 300 300 (8640000)
I0323 17:01:47.571916 31012 net.cpp:157] Top shape: 32 3 300 300 (8640000)
I0323 17:01:47.571920 31012 net.cpp:165] Memory required for data: 276480128
I0323 17:01:47.571925 31012 layer_factory.hpp:77] Creating layer conv1_1
I0323 17:01:47.571943 31012 net.cpp:100] Creating Layer conv1_1
I0323 17:01:47.571949 31012 net.cpp:434] conv1_1 <- data_data_0_split_0
I0323 17:01:47.571955 31012 net.cpp:408] conv1_1 -> conv1_1
I0323 17:01:48.025597 31012 net.cpp:150] Setting up conv1_1
I0323 17:01:48.025624 31012 net.cpp:157] Top shape: 32 64 300 300 (184320000)
I0323 17:01:48.025627 31012 net.cpp:165] Memory required for data: 1013760128
I0323 17:01:48.025647 31012 layer_factory.hpp:77] Creating layer relu1_1
I0323 17:01:48.025677 31012 net.cpp:100] Creating Layer relu1_1
I0323 17:01:48.025684 31012 net.cpp:434] relu1_1 <- conv1_1
I0323 17:01:48.025691 31012 net.cpp:395] relu1_1 -> conv1_1 (in-place)
I0323 17:01:48.026414 31012 net.cpp:150] Setting up relu1_1
I0323 17:01:48.026428 31012 net.cpp:157] Top shape: 32 64 300 300 (184320000)
I0323 17:01:48.026432 31012 net.cpp:165] Memory required for data: 1751040128
I0323 17:01:48.026437 31012 layer_factory.hpp:77] Creating layer conv1_2
I0323 17:01:48.026450 31012 net.cpp:100] Creating Layer conv1_2
I0323 17:01:48.026455 31012 net.cpp:434] conv1_2 <- conv1_1
I0323 17:01:48.026463 31012 net.cpp:408] conv1_2 -> conv1_2
I0323 17:01:48.028584 31012 net.cpp:150] Setting up conv1_2
I0323 17:01:48.028599 31012 net.cpp:157] Top shape: 32 64 300 300 (184320000)
I0323 17:01:48.028604 31012 net.cpp:165] Memory required for data: 2488320128
I0323 17:01:48.028612 31012 layer_factory.hpp:77] Creating layer relu1_2
I0323 17:01:48.028620 31012 net.cpp:100] Creating Layer relu1_2
I0323 17:01:48.028625 31012 net.cpp:434] relu1_2 <- conv1_2
I0323 17:01:48.028633 31012 net.cpp:395] relu1_2 -> conv1_2 (in-place)
I0323 17:01:48.028802 31012 net.cpp:150] Setting up relu1_2
I0323 17:01:48.028813 31012 net.cpp:157] Top shape: 32 64 300 300 (184320000)
I0323 17:01:48.028817 31012 net.cpp:165] Memory required for data: 3225600128
I0323 17:01:48.028821 31012 layer_factory.hpp:77] Creating layer pool1
I0323 17:01:48.028828 31012 net.cpp:100] Creating Layer pool1
I0323 17:01:48.028832 31012 net.cpp:434] pool1 <- conv1_2
I0323 17:01:48.028839 31012 net.cpp:408] pool1 -> pool1
I0323 17:01:48.028887 31012 net.cpp:150] Setting up pool1
I0323 17:01:48.028898 31012 net.cpp:157] Top shape: 32 64 150 150 (46080000)
I0323 17:01:48.028903 31012 net.cpp:165] Memory required for data: 3409920128
I0323 17:01:48.028916 31012 layer_factory.hpp:77] Creating layer conv2_1
I0323 17:01:48.028929 31012 net.cpp:100] Creating Layer conv2_1
I0323 17:01:48.028936 31012 net.cpp:434] conv2_1 <- pool1
I0323 17:01:48.028944 31012 net.cpp:408] conv2_1 -> conv2_1
I0323 17:01:48.030844 31012 net.cpp:150] Setting up conv2_1
I0323 17:01:48.030858 31012 net.cpp:157] Top shape: 32 128 150 150 (92160000)
I0323 17:01:48.030861 31012 net.cpp:165] Memory required for data: 3778560128
I0323 17:01:48.030869 31012 layer_factory.hpp:77] Creating layer relu2_1
I0323 17:01:48.030877 31012 net.cpp:100] Creating Layer relu2_1
I0323 17:01:48.030884 31012 net.cpp:434] relu2_1 <- conv2_1
I0323 17:01:48.030889 31012 net.cpp:395] relu2_1 -> conv2_1 (in-place)
I0323 17:01:48.031065 31012 net.cpp:150] Setting up relu2_1
I0323 17:01:48.031081 31012 net.cpp:157] Top shape: 32 128 150 150 (92160000)
I0323 17:01:48.031087 31012 net.cpp:165] Memory required for data: 4147200128
I0323 17:01:48.031095 31012 layer_factory.hpp:77] Creating layer conv2_2
I0323 17:01:48.031108 31012 net.cpp:100] Creating Layer conv2_2
I0323 17:01:48.031116 31012 net.cpp:434] conv2_2 <- conv2_1
I0323 17:01:48.031121 31012 net.cpp:408] conv2_2 -> conv2_2
I0323 17:01:48.033329 31012 net.cpp:150] Setting up conv2_2
I0323 17:01:48.033340 31012 net.cpp:157] Top shape: 32 128 150 150 (92160000)
I0323 17:01:48.033344 31012 net.cpp:165] Memory required for data: 4515840128
I0323 17:01:48.033382 31012 layer_factory.hpp:77] Creating layer relu2_2
I0323 17:01:48.033390 31012 net.cpp:100] Creating Layer relu2_2
I0323 17:01:48.033393 31012 net.cpp:434] relu2_2 <- conv2_2
I0323 17:01:48.033399 31012 net.cpp:395] relu2_2 -> conv2_2 (in-place)
I0323 17:01:48.034057 31012 net.cpp:150] Setting up relu2_2
I0323 17:01:48.034070 31012 net.cpp:157] Top shape: 32 128 150 150 (92160000)
I0323 17:01:48.034073 31012 net.cpp:165] Memory required for data: 4884480128
I0323 17:01:48.034078 31012 layer_factory.hpp:77] Creating layer pool2
I0323 17:01:48.034085 31012 net.cpp:100] Creating Layer pool2
I0323 17:01:48.034090 31012 net.cpp:434] pool2 <- conv2_2
I0323 17:01:48.034096 31012 net.cpp:408] pool2 -> pool2
I0323 17:01:48.034132 31012 net.cpp:150] Setting up pool2
I0323 17:01:48.034138 31012 net.cpp:157] Top shape: 32 128 75 75 (23040000)
I0323 17:01:48.034142 31012 net.cpp:165] Memory required for data: 4976640128
I0323 17:01:48.034147 31012 layer_factory.hpp:77] Creating layer conv3_1
I0323 17:01:48.034155 31012 net.cpp:100] Creating Layer conv3_1
I0323 17:01:48.034159 31012 net.cpp:434] conv3_1 <- pool2
I0323 17:01:48.034164 31012 net.cpp:408] conv3_1 -> conv3_1
I0323 17:01:48.038462 31012 net.cpp:150] Setting up conv3_1
I0323 17:01:48.038478 31012 net.cpp:157] Top shape: 32 256 75 75 (46080000)
I0323 17:01:48.038482 31012 net.cpp:165] Memory required for data: 5160960128
I0323 17:01:48.038508 31012 layer_factory.hpp:77] Creating layer relu3_1
I0323 17:01:48.038517 31012 net.cpp:100] Creating Layer relu3_1
I0323 17:01:48.038523 31012 net.cpp:434] relu3_1 <- conv3_1
I0323 17:01:48.038528 31012 net.cpp:395] relu3_1 -> conv3_1 (in-place)
I0323 17:01:48.038700 31012 net.cpp:150] Setting up relu3_1
I0323 17:01:48.038710 31012 net.cpp:157] Top shape: 32 256 75 75 (46080000)
I0323 17:01:48.038715 31012 net.cpp:165] Memory required for data: 5345280128
I0323 17:01:48.038718 31012 layer_factory.hpp:77] Creating layer conv3_2
I0323 17:01:48.038728 31012 net.cpp:100] Creating Layer conv3_2
I0323 17:01:48.038733 31012 net.cpp:434] conv3_2 <- conv3_1
I0323 17:01:48.038740 31012 net.cpp:408] conv3_2 -> conv3_2
I0323 17:01:48.043720 31012 net.cpp:150] Setting up conv3_2
I0323 17:01:48.043733 31012 net.cpp:157] Top shape: 32 256 75 75 (46080000)
I0323 17:01:48.043737 31012 net.cpp:165] Memory required for data: 5529600128
I0323 17:01:48.043745 31012 layer_factory.hpp:77] Creating layer relu3_2
I0323 17:01:48.043751 31012 net.cpp:100] Creating Layer relu3_2
I0323 17:01:48.043757 31012 net.cpp:434] relu3_2 <- conv3_2
I0323 17:01:48.043763 31012 net.cpp:395] relu3_2 -> conv3_2 (in-place)
I0323 17:01:48.043946 31012 net.cpp:150] Setting up relu3_2
I0323 17:01:48.043956 31012 net.cpp:157] Top shape: 32 256 75 75 (46080000)
I0323 17:01:48.043959 31012 net.cpp:165] Memory required for data: 5713920128
I0323 17:01:48.043964 31012 layer_factory.hpp:77] Creating layer conv3_3
I0323 17:01:48.043975 31012 net.cpp:100] Creating Layer conv3_3
I0323 17:01:48.043982 31012 net.cpp:434] conv3_3 <- conv3_2
I0323 17:01:48.043987 31012 net.cpp:408] conv3_3 -> conv3_3
I0323 17:01:48.048904 31012 net.cpp:150] Setting up conv3_3
I0323 17:01:48.048920 31012 net.cpp:157] Top shape: 32 256 75 75 (46080000)
I0323 17:01:48.048923 31012 net.cpp:165] Memory required for data: 5898240128
I0323 17:01:48.048931 31012 layer_factory.hpp:77] Creating layer relu3_3
I0323 17:01:48.048938 31012 net.cpp:100] Creating Layer relu3_3
I0323 17:01:48.048943 31012 net.cpp:434] relu3_3 <- conv3_3
I0323 17:01:48.048947 31012 net.cpp:395] relu3_3 -> conv3_3 (in-place)
I0323 17:01:48.049621 31012 net.cpp:150] Setting up relu3_3
I0323 17:01:48.049633 31012 net.cpp:157] Top shape: 32 256 75 75 (46080000)
I0323 17:01:48.049638 31012 net.cpp:165] Memory required for data: 6082560128
I0323 17:01:48.049641 31012 layer_factory.hpp:77] Creating layer pool3
I0323 17:01:48.049665 31012 net.cpp:100] Creating Layer pool3
I0323 17:01:48.049671 31012 net.cpp:434] pool3 <- conv3_3
I0323 17:01:48.049677 31012 net.cpp:408] pool3 -> pool3
I0323 17:01:48.049716 31012 net.cpp:150] Setting up pool3
I0323 17:01:48.049755 31012 net.cpp:157] Top shape: 32 256 38 38 (11829248)
I0323 17:01:48.049759 31012 net.cpp:165] Memory required for data: 6129877120
I0323 17:01:48.049764 31012 layer_factory.hpp:77] Creating layer conv4_1_depthwise
I0323 17:01:48.049772 31012 net.cpp:100] Creating Layer conv4_1_depthwise
I0323 17:01:48.049777 31012 net.cpp:434] conv4_1_depthwise <- pool3
I0323 17:01:48.049783 31012 net.cpp:408] conv4_1_depthwise -> conv4_1_3x3
I0323 17:01:48.050038 31012 net.cpp:150] Setting up conv4_1_depthwise
I0323 17:01:48.050050 31012 net.cpp:157] Top shape: 32 256 38 38 (11829248)
I0323 17:01:48.050053 31012 net.cpp:165] Memory required for data: 6177194112
I0323 17:01:48.050060 31012 layer_factory.hpp:77] Creating layer conv4_1_3x3_relu
I0323 17:01:48.050066 31012 net.cpp:100] Creating Layer conv4_1_3x3_relu
I0323 17:01:48.050072 31012 net.cpp:434] conv4_1_3x3_relu <- conv4_1_3x3
I0323 17:01:48.050078 31012 net.cpp:395] conv4_1_3x3_relu -> conv4_1_3x3 (in-place)
I0323 17:01:48.050257 31012 net.cpp:150] Setting up conv4_1_3x3_relu
I0323 17:01:48.050268 31012 net.cpp:157] Top shape: 32 256 38 38 (11829248)
I0323 17:01:48.050272 31012 net.cpp:165] Memory required for data: 6224511104
I0323 17:01:48.050276 31012 layer_factory.hpp:77] Creating layer conv4_1_1x1
I0323 17:01:48.050285 31012 net.cpp:100] Creating Layer conv4_1_1x1
I0323 17:01:48.050292 31012 net.cpp:434] conv4_1_1x1 <- conv4_1_3x3
I0323 17:01:48.050297 31012 net.cpp:408] conv4_1_1x1 -> conv4_1
I0323 17:01:48.052795 31012 net.cpp:150] Setting up conv4_1_1x1
I0323 17:01:48.052808 31012 net.cpp:157] Top shape: 32 512 38 38 (23658496)
I0323 17:01:48.052811 31012 net.cpp:165] Memory required for data: 6319145088
I0323 17:01:48.052839 31012 layer_factory.hpp:77] Creating layer relu4_1
I0323 17:01:48.052846 31012 net.cpp:100] Creating Layer relu4_1
I0323 17:01:48.052851 31012 net.cpp:434] relu4_1 <- conv4_1
I0323 17:01:48.052857 31012 net.cpp:395] relu4_1 -> conv4_1 (in-place)
I0323 17:01:48.053050 31012 net.cpp:150] Setting up relu4_1
I0323 17:01:48.053059 31012 net.cpp:157] Top shape: 32 512 38 38 (23658496)
I0323 17:01:48.053063 31012 net.cpp:165] Memory required for data: 6413779072
I0323 17:01:48.053068 31012 layer_factory.hpp:77] Creating layer conv4_2
I0323 17:01:48.053077 31012 net.cpp:100] Creating Layer conv4_2
I0323 17:01:48.053082 31012 net.cpp:434] conv4_2 <- conv4_1
I0323 17:01:48.053090 31012 net.cpp:408] conv4_2 -> conv4_2
I0323 17:01:48.067008 31012 net.cpp:150] Setting up conv4_2
I0323 17:01:48.067031 31012 net.cpp:157] Top shape: 32 512 38 38 (23658496)
I0323 17:01:48.067035 31012 net.cpp:165] Memory required for data: 6508413056
I0323 17:01:48.067044 31012 layer_factory.hpp:77] Creating layer relu4_2
I0323 17:01:48.067054 31012 net.cpp:100] Creating Layer relu4_2
I0323 17:01:48.067059 31012 net.cpp:434] relu4_2 <- conv4_2
I0323 17:01:48.067066 31012 net.cpp:395] relu4_2 -> conv4_2 (in-place)
I0323 17:01:48.067253 31012 net.cpp:150] Setting up relu4_2
I0323 17:01:48.067268 31012 net.cpp:157] Top shape: 32 512 38 38 (23658496)
I0323 17:01:48.067273 31012 net.cpp:165] Memory required for data: 6603047040
I0323 17:01:48.067278 31012 layer_factory.hpp:77] Creating layer conv4_3
I0323 17:01:48.067296 31012 net.cpp:100] Creating Layer conv4_3
I0323 17:01:48.067302 31012 net.cpp:434] conv4_3 <- conv4_2
I0323 17:01:48.067309 31012 net.cpp:408] conv4_3 -> conv4_3
I0323 17:01:48.081281 31012 net.cpp:150] Setting up conv4_3
I0323 17:01:48.081305 31012 net.cpp:157] Top shape: 32 512 38 38 (23658496)
I0323 17:01:48.081311 31012 net.cpp:165] Memory required for data: 6697681024
I0323 17:01:48.081323 31012 layer_factory.hpp:77] Creating layer relu4_3
I0323 17:01:48.081334 31012 net.cpp:100] Creating Layer relu4_3
I0323 17:01:48.081343 31012 net.cpp:434] relu4_3 <- conv4_3
I0323 17:01:48.081352 31012 net.cpp:395] relu4_3 -> conv4_3 (in-place)
I0323 17:01:48.082047 31012 net.cpp:150] Setting up relu4_3
I0323 17:01:48.082059 31012 net.cpp:157] Top shape: 32 512 38 38 (23658496)
I0323 17:01:48.082063 31012 net.cpp:165] Memory required for data: 6792315008
I0323 17:01:48.082100 31012 layer_factory.hpp:77] Creating layer conv4_3_relu4_3_0_split
I0323 17:01:48.082109 31012 net.cpp:100] Creating Layer conv4_3_relu4_3_0_split
I0323 17:01:48.082115 31012 net.cpp:434] conv4_3_relu4_3_0_split <- conv4_3
I0323 17:01:48.082123 31012 net.cpp:408] conv4_3_relu4_3_0_split -> conv4_3_relu4_3_0_split_0
I0323 17:01:48.082135 31012 net.cpp:408] conv4_3_relu4_3_0_split -> conv4_3_relu4_3_0_split_1
I0323 17:01:48.082180 31012 net.cpp:150] Setting up conv4_3_relu4_3_0_split
I0323 17:01:48.082191 31012 net.cpp:157] Top shape: 32 512 38 38 (23658496)
I0323 17:01:48.082196 31012 net.cpp:157] Top shape: 32 512 38 38 (23658496)
I0323 17:01:48.082203 31012 net.cpp:165] Memory required for data: 6981582976
I0323 17:01:48.082207 31012 layer_factory.hpp:77] Creating layer pool4
I0323 17:01:48.082217 31012 net.cpp:100] Creating Layer pool4
I0323 17:01:48.082224 31012 net.cpp:434] pool4 <- conv4_3_relu4_3_0_split_0
I0323 17:01:48.082232 31012 net.cpp:408] pool4 -> pool4
I0323 17:01:48.082274 31012 net.cpp:150] Setting up pool4
I0323 17:01:48.082281 31012 net.cpp:157] Top shape: 32 512 19 19 (5914624)
I0323 17:01:48.082284 31012 net.cpp:165] Memory required for data: 7005241472
I0323 17:01:48.082288 31012 layer_factory.hpp:77] Creating layer conv5_1_depthwise
I0323 17:01:48.082300 31012 net.cpp:100] Creating Layer conv5_1_depthwise
I0323 17:01:48.082306 31012 net.cpp:434] conv5_1_depthwise <- pool4
I0323 17:01:48.082314 31012 net.cpp:408] conv5_1_depthwise -> conv5_1_3x3
I0323 17:01:48.082552 31012 net.cpp:150] Setting up conv5_1_depthwise
I0323 17:01:48.082561 31012 net.cpp:157] Top shape: 32 512 19 19 (5914624)
I0323 17:01:48.082566 31012 net.cpp:165] Memory required for data: 7028899968
I0323 17:01:48.082577 31012 layer_factory.hpp:77] Creating layer conv5_1_3x3_relu
I0323 17:01:48.082588 31012 net.cpp:100] Creating Layer conv5_1_3x3_relu
I0323 17:01:48.082593 31012 net.cpp:434] conv5_1_3x3_relu <- conv5_1_3x3
I0323 17:01:48.082604 31012 net.cpp:395] conv5_1_3x3_relu -> conv5_1_3x3 (in-place)
I0323 17:01:48.082772 31012 net.cpp:150] Setting up conv5_1_3x3_relu
I0323 17:01:48.082784 31012 net.cpp:157] Top shape: 32 512 19 19 (5914624)
I0323 17:01:48.082789 31012 net.cpp:165] Memory required for data: 7052558464
I0323 17:01:48.082796 31012 layer_factory.hpp:77] Creating layer conv5_1_1x1
I0323 17:01:48.082811 31012 net.cpp:100] Creating Layer conv5_1_1x1
I0323 17:01:48.082818 31012 net.cpp:434] conv5_1_1x1 <- conv5_1_3x3
I0323 17:01:48.082826 31012 net.cpp:408] conv5_1_1x1 -> conv5_1
I0323 17:01:48.086460 31012 net.cpp:150] Setting up conv5_1_1x1
I0323 17:01:48.086493 31012 net.cpp:157] Top shape: 32 512 19 19 (5914624)
I0323 17:01:48.086498 31012 net.cpp:165] Memory required for data: 7076216960
I0323 17:01:48.086504 31012 layer_factory.hpp:77] Creating layer relu5_1
I0323 17:01:48.086519 31012 net.cpp:100] Creating Layer relu5_1
I0323 17:01:48.086529 31012 net.cpp:434] relu5_1 <- conv5_1
I0323 17:01:48.086535 31012 net.cpp:395] relu5_1 -> conv5_1 (in-place)
I0323 17:01:48.086704 31012 net.cpp:150] Setting up relu5_1
I0323 17:01:48.086712 31012 net.cpp:157] Top shape: 32 512 19 19 (5914624)
I0323 17:01:48.086716 31012 net.cpp:165] Memory required for data: 7099875456
I0323 17:01:48.086722 31012 layer_factory.hpp:77] Creating layer conv5_2_depthwise
I0323 17:01:48.086732 31012 net.cpp:100] Creating Layer conv5_2_depthwise
I0323 17:01:48.086740 31012 net.cpp:434] conv5_2_depthwise <- conv5_1
I0323 17:01:48.086750 31012 net.cpp:408] conv5_2_depthwise -> conv5_2_3x3
I0323 17:01:48.086982 31012 net.cpp:150] Setting up conv5_2_depthwise
I0323 17:01:48.086989 31012 net.cpp:157] Top shape: 32 512 19 19 (5914624)
I0323 17:01:48.086993 31012 net.cpp:165] Memory required for data: 7123533952
I0323 17:01:48.087003 31012 layer_factory.hpp:77] Creating layer conv5_2_3x3_relu
I0323 17:01:48.087013 31012 net.cpp:100] Creating Layer conv5_2_3x3_relu
I0323 17:01:48.087016 31012 net.cpp:434] conv5_2_3x3_relu <- conv5_2_3x3
I0323 17:01:48.087026 31012 net.cpp:395] conv5_2_3x3_relu -> conv5_2_3x3 (in-place)
I0323 17:01:48.087754 31012 net.cpp:150] Setting up conv5_2_3x3_relu
I0323 17:01:48.087767 31012 net.cpp:157] Top shape: 32 512 19 19 (5914624)
I0323 17:01:48.087772 31012 net.cpp:165] Memory required for data: 7147192448
I0323 17:01:48.087779 31012 layer_factory.hpp:77] Creating layer conv5_2_1x1
I0323 17:01:48.087791 31012 net.cpp:100] Creating Layer conv5_2_1x1
I0323 17:01:48.087800 31012 net.cpp:434] conv5_2_1x1 <- conv5_2_3x3
I0323 17:01:48.087807 31012 net.cpp:408] conv5_2_1x1 -> conv5_2
I0323 17:01:48.090114 31012 net.cpp:150] Setting up conv5_2_1x1
I0323 17:01:48.090127 31012 net.cpp:157] Top shape: 32 512 19 19 (5914624)
I0323 17:01:48.090131 31012 net.cpp:165] Memory required for data: 7170850944
I0323 17:01:48.090153 31012 layer_factory.hpp:77] Creating layer relu5_2
I0323 17:01:48.090160 31012 net.cpp:100] Creating Layer relu5_2
I0323 17:01:48.090164 31012 net.cpp:434] relu5_2 <- conv5_2
I0323 17:01:48.090171 31012 net.cpp:395] relu5_2 -> conv5_2 (in-place)
I0323 17:01:48.090332 31012 net.cpp:150] Setting up relu5_2
I0323 17:01:48.090342 31012 net.cpp:157] Top shape: 32 512 19 19 (5914624)
I0323 17:01:48.090345 31012 net.cpp:165] Memory required for data: 7194509440
I0323 17:01:48.090350 31012 layer_factory.hpp:77] Creating layer conv5_3_depthwise
I0323 17:01:48.090364 31012 net.cpp:100] Creating Layer conv5_3_depthwise
I0323 17:01:48.090370 31012 net.cpp:434] conv5_3_depthwise <- conv5_2
I0323 17:01:48.090380 31012 net.cpp:408] conv5_3_depthwise -> conv5_3_3x3
I0323 17:01:48.090621 31012 net.cpp:150] Setting up conv5_3_depthwise
I0323 17:01:48.090631 31012 net.cpp:157] Top shape: 32 512 19 19 (5914624)
I0323 17:01:48.090634 31012 net.cpp:165] Memory required for data: 7218167936
I0323 17:01:48.090641 31012 layer_factory.hpp:77] Creating layer conv5_3_3x3_relu
I0323 17:01:48.090651 31012 net.cpp:100] Creating Layer conv5_3_3x3_relu
I0323 17:01:48.090657 31012 net.cpp:434] conv5_3_3x3_relu <- conv5_3_3x3
I0323 17:01:48.090662 31012 net.cpp:395] conv5_3_3x3_relu -> conv5_3_3x3 (in-place)
I0323 17:01:48.090831 31012 net.cpp:150] Setting up conv5_3_3x3_relu
I0323 17:01:48.090842 31012 net.cpp:157] Top shape: 32 512 19 19 (5914624)
I0323 17:01:48.090847 31012 net.cpp:165] Memory required for data: 7241826432
I0323 17:01:48.090852 31012 layer_factory.hpp:77] Creating layer conv5_3_1x1
I0323 17:01:48.090864 31012 net.cpp:100] Creating Layer conv5_3_1x1
I0323 17:01:48.090870 31012 net.cpp:434] conv5_3_1x1 <- conv5_3_3x3
I0323 17:01:48.090878 31012 net.cpp:408] conv5_3_1x1 -> conv5_3
I0323 17:01:48.093997 31012 net.cpp:150] Setting up conv5_3_1x1
I0323 17:01:48.094010 31012 net.cpp:157] Top shape: 32 512 19 19 (5914624)
I0323 17:01:48.094015 31012 net.cpp:165] Memory required for data: 7265484928
I0323 17:01:48.094027 31012 layer_factory.hpp:77] Creating layer relu5_3
I0323 17:01:48.094035 31012 net.cpp:100] Creating Layer relu5_3
I0323 17:01:48.094043 31012 net.cpp:434] relu5_3 <- conv5_3
I0323 17:01:48.094049 31012 net.cpp:395] relu5_3 -> conv5_3 (in-place)
I0323 17:01:48.094719 31012 net.cpp:150] Setting up relu5_3
I0323 17:01:48.094730 31012 net.cpp:157] Top shape: 32 512 19 19 (5914624)
I0323 17:01:48.094751 31012 net.cpp:165] Memory required for data: 7289143424
I0323 17:01:48.094755 31012 layer_factory.hpp:77] Creating layer pool5
I0323 17:01:48.094763 31012 net.cpp:100] Creating Layer pool5
I0323 17:01:48.094768 31012 net.cpp:434] pool5 <- conv5_3
I0323 17:01:48.094772 31012 net.cpp:408] pool5 -> pool5
I0323 17:01:48.094820 31012 net.cpp:150] Setting up pool5
I0323 17:01:48.094830 31012 net.cpp:157] Top shape: 32 512 19 19 (5914624)
I0323 17:01:48.094832 31012 net.cpp:165] Memory required for data: 7312801920
I0323 17:01:48.094837 31012 layer_factory.hpp:77] Creating layer fc6_depthwise
I0323 17:01:48.094846 31012 net.cpp:100] Creating Layer fc6_depthwise
I0323 17:01:48.094851 31012 net.cpp:434] fc6_depthwise <- pool5
I0323 17:01:48.094857 31012 net.cpp:408] fc6_depthwise -> fc6_3x3
I0323 17:01:48.095078 31012 net.cpp:150] Setting up fc6_depthwise
I0323 17:01:48.095088 31012 net.cpp:157] Top shape: 32 512 19 19 (5914624)
I0323 17:01:48.095100 31012 net.cpp:165] Memory required for data: 7336460416
I0323 17:01:48.095108 31012 layer_factory.hpp:77] Creating layer fc6_3x3_relu
I0323 17:01:48.095115 31012 net.cpp:100] Creating Layer fc6_3x3_relu
I0323 17:01:48.095120 31012 net.cpp:434] fc6_3x3_relu <- fc6_3x3
I0323 17:01:48.095125 31012 net.cpp:395] fc6_3x3_relu -> fc6_3x3 (in-place)
I0323 17:01:48.095300 31012 net.cpp:150] Setting up fc6_3x3_relu
I0323 17:01:48.095310 31012 net.cpp:157] Top shape: 32 512 19 19 (5914624)
I0323 17:01:48.095315 31012 net.cpp:165] Memory required for data: 7360118912
I0323 17:01:48.095319 31012 layer_factory.hpp:77] Creating layer fc6_1x1
I0323 17:01:48.095330 31012 net.cpp:100] Creating Layer fc6_1x1
I0323 17:01:48.095336 31012 net.cpp:434] fc6_1x1 <- fc6_3x3
I0323 17:01:48.095345 31012 net.cpp:408] fc6_1x1 -> fc6
I0323 17:01:48.098532 31012 net.cpp:150] Setting up fc6_1x1
I0323 17:01:48.098546 31012 net.cpp:157] Top shape: 32 1024 19 19 (11829248)
I0323 17:01:48.098549 31012 net.cpp:165] Memory required for data: 7407435904
I0323 17:01:48.098563 31012 layer_factory.hpp:77] Creating layer relu6
I0323 17:01:48.098569 31012 net.cpp:100] Creating Layer relu6
I0323 17:01:48.098573 31012 net.cpp:434] relu6 <- fc6
I0323 17:01:48.098579 31012 net.cpp:395] relu6 -> fc6 (in-place)
I0323 17:01:48.098745 31012 net.cpp:150] Setting up relu6
I0323 17:01:48.098754 31012 net.cpp:157] Top shape: 32 1024 19 19 (11829248)
I0323 17:01:48.098757 31012 net.cpp:165] Memory required for data: 7454752896
I0323 17:01:48.098762 31012 layer_factory.hpp:77] Creating layer fc7
I0323 17:01:48.098770 31012 net.cpp:100] Creating Layer fc7
I0323 17:01:48.098774 31012 net.cpp:434] fc7 <- fc6
I0323 17:01:48.098780 31012 net.cpp:408] fc7 -> fc7
I0323 17:01:48.106210 31012 net.cpp:150] Setting up fc7
I0323 17:01:48.106228 31012 net.cpp:157] Top shape: 32 1024 19 19 (11829248)
I0323 17:01:48.106232 31012 net.cpp:165] Memory required for data: 7502069888
I0323 17:01:48.106240 31012 layer_factory.hpp:77] Creating layer relu7
I0323 17:01:48.106248 31012 net.cpp:100] Creating Layer relu7
I0323 17:01:48.106253 31012 net.cpp:434] relu7 <- fc7
I0323 17:01:48.106258 31012 net.cpp:395] relu7 -> fc7 (in-place)
I0323 17:01:48.106428 31012 net.cpp:150] Setting up relu7
I0323 17:01:48.106438 31012 net.cpp:157] Top shape: 32 1024 19 19 (11829248)
I0323 17:01:48.106442 31012 net.cpp:165] Memory required for data: 7549386880
I0323 17:01:48.106446 31012 layer_factory.hpp:77] Creating layer fc7_relu7_0_split
I0323 17:01:48.106452 31012 net.cpp:100] Creating Layer fc7_relu7_0_split
I0323 17:01:48.106456 31012 net.cpp:434] fc7_relu7_0_split <- fc7
I0323 17:01:48.106467 31012 net.cpp:408] fc7_relu7_0_split -> fc7_relu7_0_split_0
I0323 17:01:48.106474 31012 net.cpp:408] fc7_relu7_0_split -> fc7_relu7_0_split_1
I0323 17:01:48.106482 31012 net.cpp:408] fc7_relu7_0_split -> fc7_relu7_0_split_2
I0323 17:01:48.106490 31012 net.cpp:408] fc7_relu7_0_split -> fc7_relu7_0_split_3
I0323 17:01:48.106549 31012 net.cpp:150] Setting up fc7_relu7_0_split
I0323 17:01:48.106555 31012 net.cpp:157] Top shape: 32 1024 19 19 (11829248)
I0323 17:01:48.106560 31012 net.cpp:157] Top shape: 32 1024 19 19 (11829248)
I0323 17:01:48.106564 31012 net.cpp:157] Top shape: 32 1024 19 19 (11829248)
I0323 17:01:48.106568 31012 net.cpp:157] Top shape: 32 1024 19 19 (11829248)
I0323 17:01:48.106571 31012 net.cpp:165] Memory required for data: 7738654848
I0323 17:01:48.106575 31012 layer_factory.hpp:77] Creating layer conv6_1
I0323 17:01:48.106585 31012 net.cpp:100] Creating Layer conv6_1
I0323 17:01:48.106591 31012 net.cpp:434] conv6_1 <- fc7_relu7_0_split_0
I0323 17:01:48.106601 31012 net.cpp:408] conv6_1 -> conv6_1
I0323 17:01:48.108907 31012 net.cpp:150] Setting up conv6_1
I0323 17:01:48.108919 31012 net.cpp:157] Top shape: 32 256 19 19 (2957312)
I0323 17:01:48.108924 31012 net.cpp:165] Memory required for data: 7750484096
I0323 17:01:48.108930 31012 layer_factory.hpp:77] Creating layer conv6_1_relu
I0323 17:01:48.108937 31012 net.cpp:100] Creating Layer conv6_1_relu
I0323 17:01:48.108940 31012 net.cpp:434] conv6_1_relu <- conv6_1
I0323 17:01:48.108959 31012 net.cpp:395] conv6_1_relu -> conv6_1 (in-place)
I0323 17:01:48.109633 31012 net.cpp:150] Setting up conv6_1_relu
I0323 17:01:48.109647 31012 net.cpp:157] Top shape: 32 256 19 19 (2957312)
I0323 17:01:48.109665 31012 net.cpp:165] Memory required for data: 7762313344
I0323 17:01:48.109669 31012 layer_factory.hpp:77] Creating layer conv6_2_depthwise
I0323 17:01:48.109678 31012 net.cpp:100] Creating Layer conv6_2_depthwise
I0323 17:01:48.109683 31012 net.cpp:434] conv6_2_depthwise <- conv6_1
I0323 17:01:48.109690 31012 net.cpp:408] conv6_2_depthwise -> conv6_2_3x3
I0323 17:01:48.109925 31012 net.cpp:150] Setting up conv6_2_depthwise
I0323 17:01:48.109935 31012 net.cpp:157] Top shape: 32 256 10 10 (819200)
I0323 17:01:48.109938 31012 net.cpp:165] Memory required for data: 7765590144
I0323 17:01:48.109944 31012 layer_factory.hpp:77] Creating layer conv6_2_3x3_relu
I0323 17:01:48.109951 31012 net.cpp:100] Creating Layer conv6_2_3x3_relu
I0323 17:01:48.109954 31012 net.cpp:434] conv6_2_3x3_relu <- conv6_2_3x3
I0323 17:01:48.109959 31012 net.cpp:395] conv6_2_3x3_relu -> conv6_2_3x3 (in-place)
I0323 17:01:48.110133 31012 net.cpp:150] Setting up conv6_2_3x3_relu
I0323 17:01:48.110144 31012 net.cpp:157] Top shape: 32 256 10 10 (819200)
I0323 17:01:48.110148 31012 net.cpp:165] Memory required for data: 7768866944
I0323 17:01:48.110152 31012 layer_factory.hpp:77] Creating layer conv6_2_1x1
I0323 17:01:48.110165 31012 net.cpp:100] Creating Layer conv6_2_1x1
I0323 17:01:48.110172 31012 net.cpp:434] conv6_2_1x1 <- conv6_2_3x3
I0323 17:01:48.110178 31012 net.cpp:408] conv6_2_1x1 -> conv6_2
I0323 17:01:48.112850 31012 net.cpp:150] Setting up conv6_2_1x1
I0323 17:01:48.112881 31012 net.cpp:157] Top shape: 32 512 10 10 (1638400)
I0323 17:01:48.112906 31012 net.cpp:165] Memory required for data: 7775420544
I0323 17:01:48.112915 31012 layer_factory.hpp:77] Creating layer conv6_2_relu
I0323 17:01:48.112923 31012 net.cpp:100] Creating Layer conv6_2_relu
I0323 17:01:48.112929 31012 net.cpp:434] conv6_2_relu <- conv6_2
I0323 17:01:48.112941 31012 net.cpp:395] conv6_2_relu -> conv6_2 (in-place)
I0323 17:01:48.113097 31012 net.cpp:150] Setting up conv6_2_relu
I0323 17:01:48.113108 31012 net.cpp:157] Top shape: 32 512 10 10 (1638400)
I0323 17:01:48.113113 31012 net.cpp:165] Memory required for data: 7781974144
I0323 17:01:48.113118 31012 layer_factory.hpp:77] Creating layer conv6_2_conv6_2_relu_0_split
I0323 17:01:48.113124 31012 net.cpp:100] Creating Layer conv6_2_conv6_2_relu_0_split
I0323 17:01:48.113127 31012 net.cpp:434] conv6_2_conv6_2_relu_0_split <- conv6_2
I0323 17:01:48.113134 31012 net.cpp:408] conv6_2_conv6_2_relu_0_split -> conv6_2_conv6_2_relu_0_split_0
I0323 17:01:48.113142 31012 net.cpp:408] conv6_2_conv6_2_relu_0_split -> conv6_2_conv6_2_relu_0_split_1
I0323 17:01:48.113148 31012 net.cpp:408] conv6_2_conv6_2_relu_0_split -> conv6_2_conv6_2_relu_0_split_2
I0323 17:01:48.113159 31012 net.cpp:408] conv6_2_conv6_2_relu_0_split -> conv6_2_conv6_2_relu_0_split_3
I0323 17:01:48.113225 31012 net.cpp:150] Setting up conv6_2_conv6_2_relu_0_split
I0323 17:01:48.113237 31012 net.cpp:157] Top shape: 32 512 10 10 (1638400)
I0323 17:01:48.113243 31012 net.cpp:157] Top shape: 32 512 10 10 (1638400)
I0323 17:01:48.113250 31012 net.cpp:157] Top shape: 32 512 10 10 (1638400)
I0323 17:01:48.113256 31012 net.cpp:157] Top shape: 32 512 10 10 (1638400)
I0323 17:01:48.113261 31012 net.cpp:165] Memory required for data: 7808188544
I0323 17:01:48.113270 31012 layer_factory.hpp:77] Creating layer conv7_1
I0323 17:01:48.113287 31012 net.cpp:100] Creating Layer conv7_1
I0323 17:01:48.113296 31012 net.cpp:434] conv7_1 <- conv6_2_conv6_2_relu_0_split_0
I0323 17:01:48.113310 31012 net.cpp:408] conv7_1 -> conv7_1
I0323 17:01:48.114830 31012 net.cpp:150] Setting up conv7_1
I0323 17:01:48.114845 31012 net.cpp:157] Top shape: 32 128 10 10 (409600)
I0323 17:01:48.114850 31012 net.cpp:165] Memory required for data: 7809826944
I0323 17:01:48.114861 31012 layer_factory.hpp:77] Creating layer conv7_1_relu
I0323 17:01:48.114878 31012 net.cpp:100] Creating Layer conv7_1_relu
I0323 17:01:48.114886 31012 net.cpp:434] conv7_1_relu <- conv7_1
I0323 17:01:48.114894 31012 net.cpp:395] conv7_1_relu -> conv7_1 (in-place)
I0323 17:01:48.115572 31012 net.cpp:150] Setting up conv7_1_relu
I0323 17:01:48.115586 31012 net.cpp:157] Top shape: 32 128 10 10 (409600)
I0323 17:01:48.115590 31012 net.cpp:165] Memory required for data: 7811465344
I0323 17:01:48.115595 31012 layer_factory.hpp:77] Creating layer conv7_2
I0323 17:01:48.115609 31012 net.cpp:100] Creating Layer conv7_2
I0323 17:01:48.115617 31012 net.cpp:434] conv7_2 <- conv7_1
I0323 17:01:48.115626 31012 net.cpp:408] conv7_2 -> conv7_2
I0323 17:01:48.118129 31012 net.cpp:150] Setting up conv7_2
I0323 17:01:48.118142 31012 net.cpp:157] Top shape: 32 256 5 5 (204800)
I0323 17:01:48.118149 31012 net.cpp:165] Memory required for data: 7812284544
I0323 17:01:48.118157 31012 layer_factory.hpp:77] Creating layer conv7_2_relu
I0323 17:01:48.118166 31012 net.cpp:100] Creating Layer conv7_2_relu
I0323 17:01:48.118175 31012 net.cpp:434] conv7_2_relu <- conv7_2
I0323 17:01:48.118183 31012 net.cpp:395] conv7_2_relu -> conv7_2 (in-place)
I0323 17:01:48.118346 31012 net.cpp:150] Setting up conv7_2_relu
I0323 17:01:48.118356 31012 net.cpp:157] Top shape: 32 256 5 5 (204800)
I0323 17:01:48.118361 31012 net.cpp:165] Memory required for data: 7813103744
I0323 17:01:48.118366 31012 layer_factory.hpp:77] Creating layer conv7_2_conv7_2_relu_0_split
I0323 17:01:48.118376 31012 net.cpp:100] Creating Layer conv7_2_conv7_2_relu_0_split
I0323 17:01:48.118381 31012 net.cpp:434] conv7_2_conv7_2_relu_0_split <- conv7_2
I0323 17:01:48.118391 31012 net.cpp:408] conv7_2_conv7_2_relu_0_split -> conv7_2_conv7_2_relu_0_split_0
I0323 17:01:48.118402 31012 net.cpp:408] conv7_2_conv7_2_relu_0_split -> conv7_2_conv7_2_relu_0_split_1
I0323 17:01:48.118410 31012 net.cpp:408] conv7_2_conv7_2_relu_0_split -> conv7_2_conv7_2_relu_0_split_2
I0323 17:01:48.118422 31012 net.cpp:408] conv7_2_conv7_2_relu_0_split -> conv7_2_conv7_2_relu_0_split_3
I0323 17:01:48.118489 31012 net.cpp:150] Setting up conv7_2_conv7_2_relu_0_split
I0323 17:01:48.118496 31012 net.cpp:157] Top shape: 32 256 5 5 (204800)
I0323 17:01:48.118502 31012 net.cpp:157] Top shape: 32 256 5 5 (204800)
I0323 17:01:48.118508 31012 net.cpp:157] Top shape: 32 256 5 5 (204800)
I0323 17:01:48.118515 31012 net.cpp:157] Top shape: 32 256 5 5 (204800)
I0323 17:01:48.118521 31012 net.cpp:165] Memory required for data: 7816380544
I0323 17:01:48.118526 31012 layer_factory.hpp:77] Creating layer conv8_1
I0323 17:01:48.118541 31012 net.cpp:100] Creating Layer conv8_1
I0323 17:01:48.118547 31012 net.cpp:434] conv8_1 <- conv7_2_conv7_2_relu_0_split_0
I0323 17:01:48.118557 31012 net.cpp:408] conv8_1 -> conv8_1
I0323 17:01:48.119917 31012 net.cpp:150] Setting up conv8_1
I0323 17:01:48.119930 31012 net.cpp:157] Top shape: 32 128 5 5 (102400)
I0323 17:01:48.119935 31012 net.cpp:165] Memory required for data: 7816790144
I0323 17:01:48.119944 31012 layer_factory.hpp:77] Creating layer conv8_1_relu
I0323 17:01:48.119953 31012 net.cpp:100] Creating Layer conv8_1_relu
I0323 17:01:48.119958 31012 net.cpp:434] conv8_1_relu <- conv8_1
I0323 17:01:48.119969 31012 net.cpp:395] conv8_1_relu -> conv8_1 (in-place)
I0323 17:01:48.120129 31012 net.cpp:150] Setting up conv8_1_relu
I0323 17:01:48.120139 31012 net.cpp:157] Top shape: 32 128 5 5 (102400)
I0323 17:01:48.120143 31012 net.cpp:165] Memory required for data: 7817199744
I0323 17:01:48.120149 31012 layer_factory.hpp:77] Creating layer conv8_2
I0323 17:01:48.120162 31012 net.cpp:100] Creating Layer conv8_2
I0323 17:01:48.120168 31012 net.cpp:434] conv8_2 <- conv8_1
I0323 17:01:48.120178 31012 net.cpp:408] conv8_2 -> conv8_2
I0323 17:01:48.123927 31012 net.cpp:150] Setting up conv8_2
I0323 17:01:48.123944 31012 net.cpp:157] Top shape: 32 256 3 3 (73728)
I0323 17:01:48.123948 31012 net.cpp:165] Memory required for data: 7817494656
I0323 17:01:48.123957 31012 layer_factory.hpp:77] Creating layer conv8_2_relu
I0323 17:01:48.123981 31012 net.cpp:100] Creating Layer conv8_2_relu
I0323 17:01:48.123996 31012 net.cpp:434] conv8_2_relu <- conv8_2
I0323 17:01:48.124004 31012 net.cpp:395] conv8_2_relu -> conv8_2 (in-place)
I0323 17:01:48.124667 31012 net.cpp:150] Setting up conv8_2_relu
I0323 17:01:48.124680 31012 net.cpp:157] Top shape: 32 256 3 3 (73728)
I0323 17:01:48.124686 31012 net.cpp:165] Memory required for data: 7817789568
I0323 17:01:48.124691 31012 layer_factory.hpp:77] Creating layer conv8_2_conv8_2_relu_0_split
I0323 17:01:48.124701 31012 net.cpp:100] Creating Layer conv8_2_conv8_2_relu_0_split
I0323 17:01:48.124709 31012 net.cpp:434] conv8_2_conv8_2_relu_0_split <- conv8_2
I0323 17:01:48.124720 31012 net.cpp:408] conv8_2_conv8_2_relu_0_split -> conv8_2_conv8_2_relu_0_split_0
I0323 17:01:48.124732 31012 net.cpp:408] conv8_2_conv8_2_relu_0_split -> conv8_2_conv8_2_relu_0_split_1
I0323 17:01:48.124742 31012 net.cpp:408] conv8_2_conv8_2_relu_0_split -> conv8_2_conv8_2_relu_0_split_2
I0323 17:01:48.124752 31012 net.cpp:408] conv8_2_conv8_2_relu_0_split -> conv8_2_conv8_2_relu_0_split_3
I0323 17:01:48.124820 31012 net.cpp:150] Setting up conv8_2_conv8_2_relu_0_split
I0323 17:01:48.124833 31012 net.cpp:157] Top shape: 32 256 3 3 (73728)
I0323 17:01:48.124841 31012 net.cpp:157] Top shape: 32 256 3 3 (73728)
I0323 17:01:48.124847 31012 net.cpp:157] Top shape: 32 256 3 3 (73728)
I0323 17:01:48.124853 31012 net.cpp:157] Top shape: 32 256 3 3 (73728)
I0323 17:01:48.124857 31012 net.cpp:165] Memory required for data: 7818969216
I0323 17:01:48.124863 31012 layer_factory.hpp:77] Creating layer conv9_1
I0323 17:01:48.124881 31012 net.cpp:100] Creating Layer conv9_1
I0323 17:01:48.124886 31012 net.cpp:434] conv9_1 <- conv8_2_conv8_2_relu_0_split_0
I0323 17:01:48.124895 31012 net.cpp:408] conv9_1 -> conv9_1
I0323 17:01:48.126264 31012 net.cpp:150] Setting up conv9_1
I0323 17:01:48.126278 31012 net.cpp:157] Top shape: 32 128 3 3 (36864)
I0323 17:01:48.126283 31012 net.cpp:165] Memory required for data: 7819116672
I0323 17:01:48.126292 31012 layer_factory.hpp:77] Creating layer conv9_1_relu
I0323 17:01:48.126305 31012 net.cpp:100] Creating Layer conv9_1_relu
I0323 17:01:48.126313 31012 net.cpp:434] conv9_1_relu <- conv9_1
I0323 17:01:48.126320 31012 net.cpp:395] conv9_1_relu -> conv9_1 (in-place)
I0323 17:01:48.126479 31012 net.cpp:150] Setting up conv9_1_relu
I0323 17:01:48.126489 31012 net.cpp:157] Top shape: 32 128 3 3 (36864)
I0323 17:01:48.126494 31012 net.cpp:165] Memory required for data: 7819264128
I0323 17:01:48.126500 31012 layer_factory.hpp:77] Creating layer conv9_2
I0323 17:01:48.126513 31012 net.cpp:100] Creating Layer conv9_2
I0323 17:01:48.126519 31012 net.cpp:434] conv9_2 <- conv9_1
I0323 17:01:48.126530 31012 net.cpp:408] conv9_2 -> conv9_2
I0323 17:01:48.130239 31012 net.cpp:150] Setting up conv9_2
I0323 17:01:48.130252 31012 net.cpp:157] Top shape: 32 256 1 1 (8192)
I0323 17:01:48.130257 31012 net.cpp:165] Memory required for data: 7819296896
I0323 17:01:48.130283 31012 layer_factory.hpp:77] Creating layer conv9_2_relu
I0323 17:01:48.130295 31012 net.cpp:100] Creating Layer conv9_2_relu
I0323 17:01:48.130303 31012 net.cpp:434] conv9_2_relu <- conv9_2
I0323 17:01:48.130311 31012 net.cpp:395] conv9_2_relu -> conv9_2 (in-place)
I0323 17:01:48.130486 31012 net.cpp:150] Setting up conv9_2_relu
I0323 17:01:48.130496 31012 net.cpp:157] Top shape: 32 256 1 1 (8192)
I0323 17:01:48.130501 31012 net.cpp:165] Memory required for data: 7819329664
I0323 17:01:48.130506 31012 layer_factory.hpp:77] Creating layer conv9_2_conv9_2_relu_0_split
I0323 17:01:48.130517 31012 net.cpp:100] Creating Layer conv9_2_conv9_2_relu_0_split
I0323 17:01:48.130523 31012 net.cpp:434] conv9_2_conv9_2_relu_0_split <- conv9_2
I0323 17:01:48.130532 31012 net.cpp:408] conv9_2_conv9_2_relu_0_split -> conv9_2_conv9_2_relu_0_split_0
I0323 17:01:48.130543 31012 net.cpp:408] conv9_2_conv9_2_relu_0_split -> conv9_2_conv9_2_relu_0_split_1
I0323 17:01:48.130555 31012 net.cpp:408] conv9_2_conv9_2_relu_0_split -> conv9_2_conv9_2_relu_0_split_2
I0323 17:01:48.130617 31012 net.cpp:150] Setting up conv9_2_conv9_2_relu_0_split
I0323 17:01:48.130633 31012 net.cpp:157] Top shape: 32 256 1 1 (8192)
I0323 17:01:48.130640 31012 net.cpp:157] Top shape: 32 256 1 1 (8192)
I0323 17:01:48.130647 31012 net.cpp:157] Top shape: 32 256 1 1 (8192)
I0323 17:01:48.130653 31012 net.cpp:165] Memory required for data: 7819427968
I0323 17:01:48.130659 31012 layer_factory.hpp:77] Creating layer conv4_3_norm
I0323 17:01:48.130671 31012 net.cpp:100] Creating Layer conv4_3_norm
I0323 17:01:48.130678 31012 net.cpp:434] conv4_3_norm <- conv4_3_relu4_3_0_split_1
I0323 17:01:48.130686 31012 net.cpp:408] conv4_3_norm -> conv4_3_norm
I0323 17:01:48.130831 31012 net.cpp:150] Setting up conv4_3_norm
I0323 17:01:48.130839 31012 net.cpp:157] Top shape: 32 512 38 38 (23658496)
I0323 17:01:48.130846 31012 net.cpp:165] Memory required for data: 7914061952
I0323 17:01:48.130852 31012 layer_factory.hpp:77] Creating layer conv4_3_norm_conv4_3_norm_0_split
I0323 17:01:48.130859 31012 net.cpp:100] Creating Layer conv4_3_norm_conv4_3_norm_0_split
I0323 17:01:48.130867 31012 net.cpp:434] conv4_3_norm_conv4_3_norm_0_split <- conv4_3_norm
I0323 17:01:48.130877 31012 net.cpp:408] conv4_3_norm_conv4_3_norm_0_split -> conv4_3_norm_conv4_3_norm_0_split_0
I0323 17:01:48.130887 31012 net.cpp:408] conv4_3_norm_conv4_3_norm_0_split -> conv4_3_norm_conv4_3_norm_0_split_1
I0323 17:01:48.130894 31012 net.cpp:408] conv4_3_norm_conv4_3_norm_0_split -> conv4_3_norm_conv4_3_norm_0_split_2
I0323 17:01:48.130947 31012 net.cpp:150] Setting up conv4_3_norm_conv4_3_norm_0_split
I0323 17:01:48.130956 31012 net.cpp:157] Top shape: 32 512 38 38 (23658496)
I0323 17:01:48.130962 31012 net.cpp:157] Top shape: 32 512 38 38 (23658496)
I0323 17:01:48.130969 31012 net.cpp:157] Top shape: 32 512 38 38 (23658496)
I0323 17:01:48.130975 31012 net.cpp:165] Memory required for data: 8197963904
I0323 17:01:48.130981 31012 layer_factory.hpp:77] Creating layer conv4_3_norm_mbox_loc
I0323 17:01:48.130995 31012 net.cpp:100] Creating Layer conv4_3_norm_mbox_loc
I0323 17:01:48.131001 31012 net.cpp:434] conv4_3_norm_mbox_loc <- conv4_3_norm_conv4_3_norm_0_split_0
I0323 17:01:48.131012 31012 net.cpp:408] conv4_3_norm_mbox_loc -> conv4_3_norm_mbox_loc
I0323 17:01:48.133060 31012 net.cpp:150] Setting up conv4_3_norm_mbox_loc
I0323 17:01:48.133074 31012 net.cpp:157] Top shape: 32 16 38 38 (739328)
I0323 17:01:48.133078 31012 net.cpp:165] Memory required for data: 8200921216
I0323 17:01:48.133087 31012 layer_factory.hpp:77] Creating layer conv4_3_norm_mbox_loc_perm
I0323 17:01:48.133101 31012 net.cpp:100] Creating Layer conv4_3_norm_mbox_loc_perm
I0323 17:01:48.133110 31012 net.cpp:434] conv4_3_norm_mbox_loc_perm <- conv4_3_norm_mbox_loc
I0323 17:01:48.133118 31012 net.cpp:408] conv4_3_norm_mbox_loc_perm -> conv4_3_norm_mbox_loc_perm
I0323 17:01:48.133221 31012 net.cpp:150] Setting up conv4_3_norm_mbox_loc_perm
I0323 17:01:48.133231 31012 net.cpp:157] Top shape: 32 38 38 16 (739328)
I0323 17:01:48.133235 31012 net.cpp:165] Memory required for data: 8203878528
I0323 17:01:48.133240 31012 layer_factory.hpp:77] Creating layer conv4_3_norm_mbox_loc_flat
I0323 17:01:48.133252 31012 net.cpp:100] Creating Layer conv4_3_norm_mbox_loc_flat
I0323 17:01:48.133260 31012 net.cpp:434] conv4_3_norm_mbox_loc_flat <- conv4_3_norm_mbox_loc_perm
I0323 17:01:48.133266 31012 net.cpp:408] conv4_3_norm_mbox_loc_flat -> conv4_3_norm_mbox_loc_flat
I0323 17:01:48.133298 31012 net.cpp:150] Setting up conv4_3_norm_mbox_loc_flat
I0323 17:01:48.133306 31012 net.cpp:157] Top shape: 32 23104 (739328)
I0323 17:01:48.133311 31012 net.cpp:165] Memory required for data: 8206835840
I0323 17:01:48.133316 31012 layer_factory.hpp:77] Creating layer conv4_3_norm_mbox_conf
I0323 17:01:48.133332 31012 net.cpp:100] Creating Layer conv4_3_norm_mbox_conf
I0323 17:01:48.133340 31012 net.cpp:434] conv4_3_norm_mbox_conf <- conv4_3_norm_conv4_3_norm_0_split_1
I0323 17:01:48.133353 31012 net.cpp:408] conv4_3_norm_mbox_conf -> conv4_3_norm_mbox_conf
I0323 17:01:48.135962 31012 net.cpp:150] Setting up conv4_3_norm_mbox_conf
I0323 17:01:48.135975 31012 net.cpp:157] Top shape: 32 44 38 38 (2033152)
I0323 17:01:48.136000 31012 net.cpp:165] Memory required for data: 8214968448
I0323 17:01:48.136011 31012 layer_factory.hpp:77] Creating layer conv4_3_norm_mbox_conf_perm
I0323 17:01:48.136024 31012 net.cpp:100] Creating Layer conv4_3_norm_mbox_conf_perm
I0323 17:01:48.136032 31012 net.cpp:434] conv4_3_norm_mbox_conf_perm <- conv4_3_norm_mbox_conf
I0323 17:01:48.136044 31012 net.cpp:408] conv4_3_norm_mbox_conf_perm -> conv4_3_norm_mbox_conf_perm
I0323 17:01:48.136148 31012 net.cpp:150] Setting up conv4_3_norm_mbox_conf_perm
I0323 17:01:48.136157 31012 net.cpp:157] Top shape: 32 38 38 44 (2033152)
I0323 17:01:48.136162 31012 net.cpp:165] Memory required for data: 8223101056
I0323 17:01:48.136166 31012 layer_factory.hpp:77] Creating layer conv4_3_norm_mbox_conf_flat
I0323 17:01:48.136176 31012 net.cpp:100] Creating Layer conv4_3_norm_mbox_conf_flat
I0323 17:01:48.136183 31012 net.cpp:434] conv4_3_norm_mbox_conf_flat <- conv4_3_norm_mbox_conf_perm
I0323 17:01:48.136193 31012 net.cpp:408] conv4_3_norm_mbox_conf_flat -> conv4_3_norm_mbox_conf_flat
I0323 17:01:48.136221 31012 net.cpp:150] Setting up conv4_3_norm_mbox_conf_flat
I0323 17:01:48.136230 31012 net.cpp:157] Top shape: 32 63536 (2033152)
I0323 17:01:48.136234 31012 net.cpp:165] Memory required for data: 8231233664
I0323 17:01:48.136240 31012 layer_factory.hpp:77] Creating layer conv4_3_norm_mbox_priorbox
I0323 17:01:48.136251 31012 net.cpp:100] Creating Layer conv4_3_norm_mbox_priorbox
I0323 17:01:48.136260 31012 net.cpp:434] conv4_3_norm_mbox_priorbox <- conv4_3_norm_conv4_3_norm_0_split_2
I0323 17:01:48.136266 31012 net.cpp:434] conv4_3_norm_mbox_priorbox <- data_data_0_split_1
I0323 17:01:48.136276 31012 net.cpp:408] conv4_3_norm_mbox_priorbox -> conv4_3_norm_mbox_priorbox
I0323 17:01:48.136313 31012 net.cpp:150] Setting up conv4_3_norm_mbox_priorbox
I0323 17:01:48.136325 31012 net.cpp:157] Top shape: 1 2 23104 (46208)
I0323 17:01:48.136332 31012 net.cpp:165] Memory required for data: 8231418496
I0323 17:01:48.136337 31012 layer_factory.hpp:77] Creating layer fc7_mbox_loc
I0323 17:01:48.136351 31012 net.cpp:100] Creating Layer fc7_mbox_loc
I0323 17:01:48.136360 31012 net.cpp:434] fc7_mbox_loc <- fc7_relu7_0_split_1
I0323 17:01:48.136369 31012 net.cpp:408] fc7_mbox_loc -> fc7_mbox_loc
I0323 17:01:48.139854 31012 net.cpp:150] Setting up fc7_mbox_loc
I0323 17:01:48.139883 31012 net.cpp:157] Top shape: 32 24 19 19 (277248)
I0323 17:01:48.139889 31012 net.cpp:165] Memory required for data: 8232527488
I0323 17:01:48.139922 31012 layer_factory.hpp:77] Creating layer fc7_mbox_loc_perm
I0323 17:01:48.139932 31012 net.cpp:100] Creating Layer fc7_mbox_loc_perm
I0323 17:01:48.139940 31012 net.cpp:434] fc7_mbox_loc_perm <- fc7_mbox_loc
I0323 17:01:48.139950 31012 net.cpp:408] fc7_mbox_loc_perm -> fc7_mbox_loc_perm
I0323 17:01:48.140053 31012 net.cpp:150] Setting up fc7_mbox_loc_perm
I0323 17:01:48.140061 31012 net.cpp:157] Top shape: 32 19 19 24 (277248)
I0323 17:01:48.140066 31012 net.cpp:165] Memory required for data: 8233636480
I0323 17:01:48.140072 31012 layer_factory.hpp:77] Creating layer fc7_mbox_loc_flat
I0323 17:01:48.140081 31012 net.cpp:100] Creating Layer fc7_mbox_loc_flat
I0323 17:01:48.140089 31012 net.cpp:434] fc7_mbox_loc_flat <- fc7_mbox_loc_perm
I0323 17:01:48.140097 31012 net.cpp:408] fc7_mbox_loc_flat -> fc7_mbox_loc_flat
I0323 17:01:48.140126 31012 net.cpp:150] Setting up fc7_mbox_loc_flat
I0323 17:01:48.140134 31012 net.cpp:157] Top shape: 32 8664 (277248)
I0323 17:01:48.140138 31012 net.cpp:165] Memory required for data: 8234745472
I0323 17:01:48.140143 31012 layer_factory.hpp:77] Creating layer fc7_mbox_conf
I0323 17:01:48.140195 31012 net.cpp:100] Creating Layer fc7_mbox_conf
I0323 17:01:48.140202 31012 net.cpp:434] fc7_mbox_conf <- fc7_relu7_0_split_2
I0323 17:01:48.140213 31012 net.cpp:408] fc7_mbox_conf -> fc7_mbox_conf
I0323 17:01:48.145565 31012 net.cpp:150] Setting up fc7_mbox_conf
I0323 17:01:48.145583 31012 net.cpp:157] Top shape: 32 66 19 19 (762432)
I0323 17:01:48.145588 31012 net.cpp:165] Memory required for data: 8237795200
I0323 17:01:48.145612 31012 layer_factory.hpp:77] Creating layer fc7_mbox_conf_perm
I0323 17:01:48.145624 31012 net.cpp:100] Creating Layer fc7_mbox_conf_perm
I0323 17:01:48.145634 31012 net.cpp:434] fc7_mbox_conf_perm <- fc7_mbox_conf
I0323 17:01:48.145644 31012 net.cpp:408] fc7_mbox_conf_perm -> fc7_mbox_conf_perm
I0323 17:01:48.145776 31012 net.cpp:150] Setting up fc7_mbox_conf_perm
I0323 17:01:48.145786 31012 net.cpp:157] Top shape: 32 19 19 66 (762432)
I0323 17:01:48.145792 31012 net.cpp:165] Memory required for data: 8240844928
I0323 17:01:48.145797 31012 layer_factory.hpp:77] Creating layer fc7_mbox_conf_flat
I0323 17:01:48.145805 31012 net.cpp:100] Creating Layer fc7_mbox_conf_flat
I0323 17:01:48.145812 31012 net.cpp:434] fc7_mbox_conf_flat <- fc7_mbox_conf_perm
I0323 17:01:48.145822 31012 net.cpp:408] fc7_mbox_conf_flat -> fc7_mbox_conf_flat
I0323 17:01:48.145855 31012 net.cpp:150] Setting up fc7_mbox_conf_flat
I0323 17:01:48.145862 31012 net.cpp:157] Top shape: 32 23826 (762432)
I0323 17:01:48.145869 31012 net.cpp:165] Memory required for data: 8243894656
I0323 17:01:48.145874 31012 layer_factory.hpp:77] Creating layer fc7_mbox_priorbox
I0323 17:01:48.145884 31012 net.cpp:100] Creating Layer fc7_mbox_priorbox
I0323 17:01:48.145889 31012 net.cpp:434] fc7_mbox_priorbox <- fc7_relu7_0_split_3
I0323 17:01:48.145896 31012 net.cpp:434] fc7_mbox_priorbox <- data_data_0_split_2
I0323 17:01:48.145906 31012 net.cpp:408] fc7_mbox_priorbox -> fc7_mbox_priorbox
I0323 17:01:48.145941 31012 net.cpp:150] Setting up fc7_mbox_priorbox
I0323 17:01:48.145948 31012 net.cpp:157] Top shape: 1 2 8664 (17328)
I0323 17:01:48.145953 31012 net.cpp:165] Memory required for data: 8243963968
I0323 17:01:48.145962 31012 layer_factory.hpp:77] Creating layer conv6_2_mbox_loc
I0323 17:01:48.145974 31012 net.cpp:100] Creating Layer conv6_2_mbox_loc
I0323 17:01:48.145980 31012 net.cpp:434] conv6_2_mbox_loc <- conv6_2_conv6_2_relu_0_split_1
I0323 17:01:48.145992 31012 net.cpp:408] conv6_2_mbox_loc -> conv6_2_mbox_loc
I0323 17:01:48.148206 31012 net.cpp:150] Setting up conv6_2_mbox_loc
I0323 17:01:48.148219 31012 net.cpp:157] Top shape: 32 24 10 10 (76800)
I0323 17:01:48.148224 31012 net.cpp:165] Memory required for data: 8244271168
I0323 17:01:48.148234 31012 layer_factory.hpp:77] Creating layer conv6_2_mbox_loc_perm
I0323 17:01:48.148247 31012 net.cpp:100] Creating Layer conv6_2_mbox_loc_perm
I0323 17:01:48.148254 31012 net.cpp:434] conv6_2_mbox_loc_perm <- conv6_2_mbox_loc
I0323 17:01:48.148262 31012 net.cpp:408] conv6_2_mbox_loc_perm -> conv6_2_mbox_loc_perm
I0323 17:01:48.148366 31012 net.cpp:150] Setting up conv6_2_mbox_loc_perm
I0323 17:01:48.148376 31012 net.cpp:157] Top shape: 32 10 10 24 (76800)
I0323 17:01:48.148380 31012 net.cpp:165] Memory required for data: 8244578368
I0323 17:01:48.148386 31012 layer_factory.hpp:77] Creating layer conv6_2_mbox_loc_flat
I0323 17:01:48.148396 31012 net.cpp:100] Creating Layer conv6_2_mbox_loc_flat
I0323 17:01:48.148404 31012 net.cpp:434] conv6_2_mbox_loc_flat <- conv6_2_mbox_loc_perm
I0323 17:01:48.148411 31012 net.cpp:408] conv6_2_mbox_loc_flat -> conv6_2_mbox_loc_flat
I0323 17:01:48.148442 31012 net.cpp:150] Setting up conv6_2_mbox_loc_flat
I0323 17:01:48.148448 31012 net.cpp:157] Top shape: 32 2400 (76800)
I0323 17:01:48.148453 31012 net.cpp:165] Memory required for data: 8244885568
I0323 17:01:48.148458 31012 layer_factory.hpp:77] Creating layer conv6_2_mbox_conf
I0323 17:01:48.148471 31012 net.cpp:100] Creating Layer conv6_2_mbox_conf
I0323 17:01:48.148478 31012 net.cpp:434] conv6_2_mbox_conf <- conv6_2_conv6_2_relu_0_split_2
I0323 17:01:48.148489 31012 net.cpp:408] conv6_2_mbox_conf -> conv6_2_mbox_conf
I0323 17:01:48.152328 31012 net.cpp:150] Setting up conv6_2_mbox_conf
I0323 17:01:48.152344 31012 net.cpp:157] Top shape: 32 66 10 10 (211200)
I0323 17:01:48.152365 31012 net.cpp:165] Memory required for data: 8245730368
I0323 17:01:48.152375 31012 layer_factory.hpp:77] Creating layer conv6_2_mbox_conf_perm
I0323 17:01:48.152385 31012 net.cpp:100] Creating Layer conv6_2_mbox_conf_perm
I0323 17:01:48.152401 31012 net.cpp:434] conv6_2_mbox_conf_perm <- conv6_2_mbox_conf
I0323 17:01:48.152411 31012 net.cpp:408] conv6_2_mbox_conf_perm -> conv6_2_mbox_conf_perm
I0323 17:01:48.152516 31012 net.cpp:150] Setting up conv6_2_mbox_conf_perm
I0323 17:01:48.152526 31012 net.cpp:157] Top shape: 32 10 10 66 (211200)
I0323 17:01:48.152531 31012 net.cpp:165] Memory required for data: 8246575168
I0323 17:01:48.152539 31012 layer_factory.hpp:77] Creating layer conv6_2_mbox_conf_flat
I0323 17:01:48.152549 31012 net.cpp:100] Creating Layer conv6_2_mbox_conf_flat
I0323 17:01:48.152556 31012 net.cpp:434] conv6_2_mbox_conf_flat <- conv6_2_mbox_conf_perm
I0323 17:01:48.152565 31012 net.cpp:408] conv6_2_mbox_conf_flat -> conv6_2_mbox_conf_flat
I0323 17:01:48.152595 31012 net.cpp:150] Setting up conv6_2_mbox_conf_flat
I0323 17:01:48.152602 31012 net.cpp:157] Top shape: 32 6600 (211200)
I0323 17:01:48.152606 31012 net.cpp:165] Memory required for data: 8247419968
I0323 17:01:48.152612 31012 layer_factory.hpp:77] Creating layer conv6_2_mbox_priorbox
I0323 17:01:48.152623 31012 net.cpp:100] Creating Layer conv6_2_mbox_priorbox
I0323 17:01:48.152631 31012 net.cpp:434] conv6_2_mbox_priorbox <- conv6_2_conv6_2_relu_0_split_3
I0323 17:01:48.152637 31012 net.cpp:434] conv6_2_mbox_priorbox <- data_data_0_split_3
I0323 17:01:48.152647 31012 net.cpp:408] conv6_2_mbox_priorbox -> conv6_2_mbox_priorbox
I0323 17:01:48.152680 31012 net.cpp:150] Setting up conv6_2_mbox_priorbox
I0323 17:01:48.152688 31012 net.cpp:157] Top shape: 1 2 2400 (4800)
I0323 17:01:48.152693 31012 net.cpp:165] Memory required for data: 8247439168
I0323 17:01:48.152698 31012 layer_factory.hpp:77] Creating layer conv7_2_mbox_loc
I0323 17:01:48.152712 31012 net.cpp:100] Creating Layer conv7_2_mbox_loc
I0323 17:01:48.152719 31012 net.cpp:434] conv7_2_mbox_loc <- conv7_2_conv7_2_relu_0_split_1
I0323 17:01:48.152729 31012 net.cpp:408] conv7_2_mbox_loc -> conv7_2_mbox_loc
I0323 17:01:48.154243 31012 net.cpp:150] Setting up conv7_2_mbox_loc
I0323 17:01:48.154256 31012 net.cpp:157] Top shape: 32 24 5 5 (19200)
I0323 17:01:48.154263 31012 net.cpp:165] Memory required for data: 8247515968
I0323 17:01:48.154271 31012 layer_factory.hpp:77] Creating layer conv7_2_mbox_loc_perm
I0323 17:01:48.154281 31012 net.cpp:100] Creating Layer conv7_2_mbox_loc_perm
I0323 17:01:48.154287 31012 net.cpp:434] conv7_2_mbox_loc_perm <- conv7_2_mbox_loc
I0323 17:01:48.154299 31012 net.cpp:408] conv7_2_mbox_loc_perm -> conv7_2_mbox_loc_perm
I0323 17:01:48.154400 31012 net.cpp:150] Setting up conv7_2_mbox_loc_perm
I0323 17:01:48.154409 31012 net.cpp:157] Top shape: 32 5 5 24 (19200)
I0323 17:01:48.154413 31012 net.cpp:165] Memory required for data: 8247592768
I0323 17:01:48.154419 31012 layer_factory.hpp:77] Creating layer conv7_2_mbox_loc_flat
I0323 17:01:48.154428 31012 net.cpp:100] Creating Layer conv7_2_mbox_loc_flat
I0323 17:01:48.154434 31012 net.cpp:434] conv7_2_mbox_loc_flat <- conv7_2_mbox_loc_perm
I0323 17:01:48.154444 31012 net.cpp:408] conv7_2_mbox_loc_flat -> conv7_2_mbox_loc_flat
I0323 17:01:48.154479 31012 net.cpp:150] Setting up conv7_2_mbox_loc_flat
I0323 17:01:48.154485 31012 net.cpp:157] Top shape: 32 600 (19200)
I0323 17:01:48.154489 31012 net.cpp:165] Memory required for data: 8247669568
I0323 17:01:48.154495 31012 layer_factory.hpp:77] Creating layer conv7_2_mbox_conf
I0323 17:01:48.154510 31012 net.cpp:100] Creating Layer conv7_2_mbox_conf
I0323 17:01:48.154516 31012 net.cpp:434] conv7_2_mbox_conf <- conv7_2_conv7_2_relu_0_split_2
I0323 17:01:48.154526 31012 net.cpp:408] conv7_2_mbox_conf -> conv7_2_mbox_conf
I0323 17:01:48.156405 31012 net.cpp:150] Setting up conv7_2_mbox_conf
I0323 17:01:48.156419 31012 net.cpp:157] Top shape: 32 66 5 5 (52800)
I0323 17:01:48.156424 31012 net.cpp:165] Memory required for data: 8247880768
I0323 17:01:48.156443 31012 layer_factory.hpp:77] Creating layer conv7_2_mbox_conf_perm
I0323 17:01:48.156455 31012 net.cpp:100] Creating Layer conv7_2_mbox_conf_perm
I0323 17:01:48.156463 31012 net.cpp:434] conv7_2_mbox_conf_perm <- conv7_2_mbox_conf
I0323 17:01:48.156472 31012 net.cpp:408] conv7_2_mbox_conf_perm -> conv7_2_mbox_conf_perm
I0323 17:01:48.156580 31012 net.cpp:150] Setting up conv7_2_mbox_conf_perm
I0323 17:01:48.156589 31012 net.cpp:157] Top shape: 32 5 5 66 (52800)
I0323 17:01:48.156594 31012 net.cpp:165] Memory required for data: 8248091968
I0323 17:01:48.156602 31012 layer_factory.hpp:77] Creating layer conv7_2_mbox_conf_flat
I0323 17:01:48.156612 31012 net.cpp:100] Creating Layer conv7_2_mbox_conf_flat
I0323 17:01:48.156618 31012 net.cpp:434] conv7_2_mbox_conf_flat <- conv7_2_mbox_conf_perm
I0323 17:01:48.156626 31012 net.cpp:408] conv7_2_mbox_conf_flat -> conv7_2_mbox_conf_flat
I0323 17:01:48.156661 31012 net.cpp:150] Setting up conv7_2_mbox_conf_flat
I0323 17:01:48.156667 31012 net.cpp:157] Top shape: 32 1650 (52800)
I0323 17:01:48.156672 31012 net.cpp:165] Memory required for data: 8248303168
I0323 17:01:48.156679 31012 layer_factory.hpp:77] Creating layer conv7_2_mbox_priorbox
I0323 17:01:48.156690 31012 net.cpp:100] Creating Layer conv7_2_mbox_priorbox
I0323 17:01:48.156697 31012 net.cpp:434] conv7_2_mbox_priorbox <- conv7_2_conv7_2_relu_0_split_3
I0323 17:01:48.156703 31012 net.cpp:434] conv7_2_mbox_priorbox <- data_data_0_split_4
I0323 17:01:48.156713 31012 net.cpp:408] conv7_2_mbox_priorbox -> conv7_2_mbox_priorbox
I0323 17:01:48.156744 31012 net.cpp:150] Setting up conv7_2_mbox_priorbox
I0323 17:01:48.156751 31012 net.cpp:157] Top shape: 1 2 600 (1200)
I0323 17:01:48.156756 31012 net.cpp:165] Memory required for data: 8248307968
I0323 17:01:48.156762 31012 layer_factory.hpp:77] Creating layer conv8_2_mbox_loc
I0323 17:01:48.156774 31012 net.cpp:100] Creating Layer conv8_2_mbox_loc
I0323 17:01:48.156781 31012 net.cpp:434] conv8_2_mbox_loc <- conv8_2_conv8_2_relu_0_split_1
I0323 17:01:48.156792 31012 net.cpp:408] conv8_2_mbox_loc -> conv8_2_mbox_loc
I0323 17:01:48.158233 31012 net.cpp:150] Setting up conv8_2_mbox_loc
I0323 17:01:48.158246 31012 net.cpp:157] Top shape: 32 16 3 3 (4608)
I0323 17:01:48.158252 31012 net.cpp:165] Memory required for data: 8248326400
I0323 17:01:48.158259 31012 layer_factory.hpp:77] Creating layer conv8_2_mbox_loc_perm
I0323 17:01:48.158272 31012 net.cpp:100] Creating Layer conv8_2_mbox_loc_perm
I0323 17:01:48.158279 31012 net.cpp:434] conv8_2_mbox_loc_perm <- conv8_2_mbox_loc
I0323 17:01:48.158291 31012 net.cpp:408] conv8_2_mbox_loc_perm -> conv8_2_mbox_loc_perm
I0323 17:01:48.158388 31012 net.cpp:150] Setting up conv8_2_mbox_loc_perm
I0323 17:01:48.158396 31012 net.cpp:157] Top shape: 32 3 3 16 (4608)
I0323 17:01:48.158402 31012 net.cpp:165] Memory required for data: 8248344832
I0323 17:01:48.158407 31012 layer_factory.hpp:77] Creating layer conv8_2_mbox_loc_flat
I0323 17:01:48.158417 31012 net.cpp:100] Creating Layer conv8_2_mbox_loc_flat
I0323 17:01:48.158426 31012 net.cpp:434] conv8_2_mbox_loc_flat <- conv8_2_mbox_loc_perm
I0323 17:01:48.158432 31012 net.cpp:408] conv8_2_mbox_loc_flat -> conv8_2_mbox_loc_flat
I0323 17:01:48.158466 31012 net.cpp:150] Setting up conv8_2_mbox_loc_flat
I0323 17:01:48.158474 31012 net.cpp:157] Top shape: 32 144 (4608)
I0323 17:01:48.158479 31012 net.cpp:165] Memory required for data: 8248363264
I0323 17:01:48.158485 31012 layer_factory.hpp:77] Creating layer conv8_2_mbox_conf
I0323 17:01:48.158498 31012 net.cpp:100] Creating Layer conv8_2_mbox_conf
I0323 17:01:48.158504 31012 net.cpp:434] conv8_2_mbox_conf <- conv8_2_conv8_2_relu_0_split_2
I0323 17:01:48.158515 31012 net.cpp:408] conv8_2_mbox_conf -> conv8_2_mbox_conf
I0323 17:01:48.160698 31012 net.cpp:150] Setting up conv8_2_mbox_conf
I0323 17:01:48.160712 31012 net.cpp:157] Top shape: 32 44 3 3 (12672)
I0323 17:01:48.160717 31012 net.cpp:165] Memory required for data: 8248413952
I0323 17:01:48.160740 31012 layer_factory.hpp:77] Creating layer conv8_2_mbox_conf_perm
I0323 17:01:48.160749 31012 net.cpp:100] Creating Layer conv8_2_mbox_conf_perm
I0323 17:01:48.160758 31012 net.cpp:434] conv8_2_mbox_conf_perm <- conv8_2_mbox_conf
I0323 17:01:48.160768 31012 net.cpp:408] conv8_2_mbox_conf_perm -> conv8_2_mbox_conf_perm
I0323 17:01:48.160871 31012 net.cpp:150] Setting up conv8_2_mbox_conf_perm
I0323 17:01:48.160888 31012 net.cpp:157] Top shape: 32 3 3 44 (12672)
I0323 17:01:48.160897 31012 net.cpp:165] Memory required for data: 8248464640
I0323 17:01:48.160902 31012 layer_factory.hpp:77] Creating layer conv8_2_mbox_conf_flat
I0323 17:01:48.160910 31012 net.cpp:100] Creating Layer conv8_2_mbox_conf_flat
I0323 17:01:48.160917 31012 net.cpp:434] conv8_2_mbox_conf_flat <- conv8_2_mbox_conf_perm
I0323 17:01:48.160926 31012 net.cpp:408] conv8_2_mbox_conf_flat -> conv8_2_mbox_conf_flat
I0323 17:01:48.160960 31012 net.cpp:150] Setting up conv8_2_mbox_conf_flat
I0323 17:01:48.160969 31012 net.cpp:157] Top shape: 32 396 (12672)
I0323 17:01:48.160974 31012 net.cpp:165] Memory required for data: 8248515328
I0323 17:01:48.160980 31012 layer_factory.hpp:77] Creating layer conv8_2_mbox_priorbox
I0323 17:01:48.160991 31012 net.cpp:100] Creating Layer conv8_2_mbox_priorbox
I0323 17:01:48.160998 31012 net.cpp:434] conv8_2_mbox_priorbox <- conv8_2_conv8_2_relu_0_split_3
I0323 17:01:48.161005 31012 net.cpp:434] conv8_2_mbox_priorbox <- data_data_0_split_5
I0323 17:01:48.161016 31012 net.cpp:408] conv8_2_mbox_priorbox -> conv8_2_mbox_priorbox
I0323 17:01:48.161049 31012 net.cpp:150] Setting up conv8_2_mbox_priorbox
I0323 17:01:48.161057 31012 net.cpp:157] Top shape: 1 2 144 (288)
I0323 17:01:48.161062 31012 net.cpp:165] Memory required for data: 8248516480
I0323 17:01:48.161068 31012 layer_factory.hpp:77] Creating layer conv9_2_mbox_loc
I0323 17:01:48.161083 31012 net.cpp:100] Creating Layer conv9_2_mbox_loc
I0323 17:01:48.161090 31012 net.cpp:434] conv9_2_mbox_loc <- conv9_2_conv9_2_relu_0_split_0
I0323 17:01:48.161103 31012 net.cpp:408] conv9_2_mbox_loc -> conv9_2_mbox_loc
I0323 17:01:48.162513 31012 net.cpp:150] Setting up conv9_2_mbox_loc
I0323 17:01:48.162525 31012 net.cpp:157] Top shape: 32 16 1 1 (512)
I0323 17:01:48.162531 31012 net.cpp:165] Memory required for data: 8248518528
I0323 17:01:48.162540 31012 layer_factory.hpp:77] Creating layer conv9_2_mbox_loc_perm
I0323 17:01:48.162550 31012 net.cpp:100] Creating Layer conv9_2_mbox_loc_perm
I0323 17:01:48.162559 31012 net.cpp:434] conv9_2_mbox_loc_perm <- conv9_2_mbox_loc
I0323 17:01:48.162569 31012 net.cpp:408] conv9_2_mbox_loc_perm -> conv9_2_mbox_loc_perm
I0323 17:01:48.162669 31012 net.cpp:150] Setting up conv9_2_mbox_loc_perm
I0323 17:01:48.162678 31012 net.cpp:157] Top shape: 32 1 1 16 (512)
I0323 17:01:48.162681 31012 net.cpp:165] Memory required for data: 8248520576
I0323 17:01:48.162688 31012 layer_factory.hpp:77] Creating layer conv9_2_mbox_loc_flat
I0323 17:01:48.162695 31012 net.cpp:100] Creating Layer conv9_2_mbox_loc_flat
I0323 17:01:48.162703 31012 net.cpp:434] conv9_2_mbox_loc_flat <- conv9_2_mbox_loc_perm
I0323 17:01:48.162715 31012 net.cpp:408] conv9_2_mbox_loc_flat -> conv9_2_mbox_loc_flat
I0323 17:01:48.162747 31012 net.cpp:150] Setting up conv9_2_mbox_loc_flat
I0323 17:01:48.162755 31012 net.cpp:157] Top shape: 32 16 (512)
I0323 17:01:48.162760 31012 net.cpp:165] Memory required for data: 8248522624
I0323 17:01:48.162765 31012 layer_factory.hpp:77] Creating layer conv9_2_mbox_conf
I0323 17:01:48.162780 31012 net.cpp:100] Creating Layer conv9_2_mbox_conf
I0323 17:01:48.162786 31012 net.cpp:434] conv9_2_mbox_conf <- conv9_2_conv9_2_relu_0_split_1
I0323 17:01:48.162796 31012 net.cpp:408] conv9_2_mbox_conf -> conv9_2_mbox_conf
I0323 17:01:48.164456 31012 net.cpp:150] Setting up conv9_2_mbox_conf
I0323 17:01:48.164470 31012 net.cpp:157] Top shape: 32 44 1 1 (1408)
I0323 17:01:48.164476 31012 net.cpp:165] Memory required for data: 8248528256
I0323 17:01:48.164485 31012 layer_factory.hpp:77] Creating layer conv9_2_mbox_conf_perm
I0323 17:01:48.164496 31012 net.cpp:100] Creating Layer conv9_2_mbox_conf_perm
I0323 17:01:48.164503 31012 net.cpp:434] conv9_2_mbox_conf_perm <- conv9_2_mbox_conf
I0323 17:01:48.164512 31012 net.cpp:408] conv9_2_mbox_conf_perm -> conv9_2_mbox_conf_perm
I0323 17:01:48.164613 31012 net.cpp:150] Setting up conv9_2_mbox_conf_perm
I0323 17:01:48.164623 31012 net.cpp:157] Top shape: 32 1 1 44 (1408)
I0323 17:01:48.164638 31012 net.cpp:165] Memory required for data: 8248533888
I0323 17:01:48.164644 31012 layer_factory.hpp:77] Creating layer conv9_2_mbox_conf_flat
I0323 17:01:48.164654 31012 net.cpp:100] Creating Layer conv9_2_mbox_conf_flat
I0323 17:01:48.164660 31012 net.cpp:434] conv9_2_mbox_conf_flat <- conv9_2_mbox_conf_perm
I0323 17:01:48.164669 31012 net.cpp:408] conv9_2_mbox_conf_flat -> conv9_2_mbox_conf_flat
I0323 17:01:48.164701 31012 net.cpp:150] Setting up conv9_2_mbox_conf_flat
I0323 17:01:48.164708 31012 net.cpp:157] Top shape: 32 44 (1408)
I0323 17:01:48.164713 31012 net.cpp:165] Memory required for data: 8248539520
I0323 17:01:48.164719 31012 layer_factory.hpp:77] Creating layer conv9_2_mbox_priorbox
I0323 17:01:48.164731 31012 net.cpp:100] Creating Layer conv9_2_mbox_priorbox
I0323 17:01:48.164738 31012 net.cpp:434] conv9_2_mbox_priorbox <- conv9_2_conv9_2_relu_0_split_2
I0323 17:01:48.164746 31012 net.cpp:434] conv9_2_mbox_priorbox <- data_data_0_split_6
I0323 17:01:48.164753 31012 net.cpp:408] conv9_2_mbox_priorbox -> conv9_2_mbox_priorbox
I0323 17:01:48.164786 31012 net.cpp:150] Setting up conv9_2_mbox_priorbox
I0323 17:01:48.164793 31012 net.cpp:157] Top shape: 1 2 16 (32)
I0323 17:01:48.164799 31012 net.cpp:165] Memory required for data: 8248539648
I0323 17:01:48.164808 31012 layer_factory.hpp:77] Creating layer mbox_loc
I0323 17:01:48.164820 31012 net.cpp:100] Creating Layer mbox_loc
I0323 17:01:48.164827 31012 net.cpp:434] mbox_loc <- conv4_3_norm_mbox_loc_flat
I0323 17:01:48.164834 31012 net.cpp:434] mbox_loc <- fc7_mbox_loc_flat
I0323 17:01:48.164842 31012 net.cpp:434] mbox_loc <- conv6_2_mbox_loc_flat
I0323 17:01:48.164849 31012 net.cpp:434] mbox_loc <- conv7_2_mbox_loc_flat
I0323 17:01:48.164856 31012 net.cpp:434] mbox_loc <- conv8_2_mbox_loc_flat
I0323 17:01:48.164861 31012 net.cpp:434] mbox_loc <- conv9_2_mbox_loc_flat
I0323 17:01:48.164870 31012 net.cpp:408] mbox_loc -> mbox_loc
I0323 17:01:48.164906 31012 net.cpp:150] Setting up mbox_loc
I0323 17:01:48.164912 31012 net.cpp:157] Top shape: 32 34928 (1117696)
I0323 17:01:48.164917 31012 net.cpp:165] Memory required for data: 8253010432
I0323 17:01:48.164923 31012 layer_factory.hpp:77] Creating layer mbox_conf
I0323 17:01:48.164932 31012 net.cpp:100] Creating Layer mbox_conf
I0323 17:01:48.164939 31012 net.cpp:434] mbox_conf <- conv4_3_norm_mbox_conf_flat
I0323 17:01:48.164947 31012 net.cpp:434] mbox_conf <- fc7_mbox_conf_flat
I0323 17:01:48.164953 31012 net.cpp:434] mbox_conf <- conv6_2_mbox_conf_flat
I0323 17:01:48.164960 31012 net.cpp:434] mbox_conf <- conv7_2_mbox_conf_flat
I0323 17:01:48.164968 31012 net.cpp:434] mbox_conf <- conv8_2_mbox_conf_flat
I0323 17:01:48.164973 31012 net.cpp:434] mbox_conf <- conv9_2_mbox_conf_flat
I0323 17:01:48.164983 31012 net.cpp:408] mbox_conf -> mbox_conf
I0323 17:01:48.165014 31012 net.cpp:150] Setting up mbox_conf
I0323 17:01:48.165022 31012 net.cpp:157] Top shape: 32 96052 (3073664)
I0323 17:01:48.165027 31012 net.cpp:165] Memory required for data: 8265305088
I0323 17:01:48.165032 31012 layer_factory.hpp:77] Creating layer mbox_priorbox
I0323 17:01:48.165041 31012 net.cpp:100] Creating Layer mbox_priorbox
I0323 17:01:48.165050 31012 net.cpp:434] mbox_priorbox <- conv4_3_norm_mbox_priorbox
I0323 17:01:48.165055 31012 net.cpp:434] mbox_priorbox <- fc7_mbox_priorbox
I0323 17:01:48.165063 31012 net.cpp:434] mbox_priorbox <- conv6_2_mbox_priorbox
I0323 17:01:48.165071 31012 net.cpp:434] mbox_priorbox <- conv7_2_mbox_priorbox
I0323 17:01:48.165076 31012 net.cpp:434] mbox_priorbox <- conv8_2_mbox_priorbox
I0323 17:01:48.165083 31012 net.cpp:434] mbox_priorbox <- conv9_2_mbox_priorbox
I0323 17:01:48.165091 31012 net.cpp:408] mbox_priorbox -> mbox_priorbox
I0323 17:01:48.165120 31012 net.cpp:150] Setting up mbox_priorbox
I0323 17:01:48.165127 31012 net.cpp:157] Top shape: 1 2 34928 (69856)
I0323 17:01:48.165132 31012 net.cpp:165] Memory required for data: 8265584512
I0323 17:01:48.165138 31012 layer_factory.hpp:77] Creating layer mbox_loss
I0323 17:01:48.165153 31012 net.cpp:100] Creating Layer mbox_loss
I0323 17:01:48.165165 31012 net.cpp:434] mbox_loss <- mbox_loc
I0323 17:01:48.165172 31012 net.cpp:434] mbox_loss <- mbox_conf
I0323 17:01:48.165179 31012 net.cpp:434] mbox_loss <- mbox_priorbox
…
  phase: TEST
}
layer {
  name: "data"
  type: "AnnotatedData"
  top: "data"
  top: "label"
  include {
    phase: TEST
  }
  transform_param {
    mean_value: 104
    mean_value: 117
    mean_value: 123
    resize_param {
      prob: 1
      resize_mode: WARP
      height: 300
      width: 300
      interp_mode: LINEAR
    }
  }
  data_param {
    source: "examples/NWPU_VHR/NWPU_VHR_test_lmdb"
    batch_size: 1
    backend: LMDB
  }
  annotated_data_param {
    batch_sampler {
    }
    label_map_file: "data/NWPU_VHR/labelmap_NWPU_VHR.prototxt"
  }
}
layer {
  name: "conv1_1"
  type: "Convolution"
  bottom: "data"
  top: "conv1_1"
  param {
    lr_mult: 1
    decay_mult: 1
  }
  param {
    lr_mult: 2
    decay_mult: 0
  }
  convolution_param {
    num_output: 64
    pad: 1
    kernel_size: 3
    weight_filler {
      type: "xavier"
    }
    bias_filler {
      type: "constant"
      value: 0
    }
  }
}
layer {
  name: "relu1_1"
  type: "ReLU"
  bottom: "conv1_1"
  top: "conv1_1"
}
layer {
  name: "conv1_2"
  type: "Convolution"
  bottom: "conv1_1"
  top: "conv1_2"
  param {
    lr_mult: 1
    decay_mult: 1
  }
  param {
    lr_mult: 2
    decay_mult: 0
  }
  convolution_param {
    num_output: 64
    pad: 1
    kernel_size: 3
    weight_filler {
      type: "xavier"
    }
    bias_filler {
      type: "constant"
      value: 0
    }
  }
}
layer {
  name: "relu1_2"
  type: "ReLU"
  bottom: "conv1_2"
  top: "conv1_2"
}
layer {
  name: "pool1"
  type: "Pooling"
  bottom: "conv1_2"
  top: "pool1"
  pooling_param {
    pool: MAX
    kernel_size: 2
    stride: 2
  }
}
layer {
  name: "conv2_1"
  type: "Convolution"
  bottom: "pool1"
  top: "conv2_1"
  param {
    lr_mult: 1
    decay_mult: 1
  }
  param {
    lr_mult: 2
    decay_mult: 0
  }
  convolution_param {
    num_output: 128
    pad: 1
    kernel_size: 3
    weight_filler {
      type: "xavier"
    }
    bias_filler {
      type: "constant"
      value: 0
    }
  }
}
layer {
  name: "relu2_1"
  type: "ReLU"
  bottom: "conv2_1"
  top: "conv2_1"
}
layer {
  name: "conv2_2"
  type: "Convolution"
  bottom: "conv2_1"
  top: "conv2_2"
  param {
    lr_mult: 1
    decay_mult: 1
  }
  param {
    lr_mult: 2
    decay_mult: 0
  }
  convolution_param {
    num_output: 128
    pad: 1
    kernel_size: 3
    weight_filler {
      type: "xavier"
    }
    bias_filler {
      type: "constant"
      value: 0
    }
  }
}
layer {
  name: "relu2_2"
  type: "ReLU"
  bottom: "conv2_2"
  top: "conv2_2"
}
layer {
  name: "pool2"
  type: "Pooling"
  bottom: "conv2_2"
  top: "pool2"
  pooling_param {
    pool: MAX
    kernel_size: 2
    stride: 2
  }
}
layer {
  name: "conv3_1"
  type: "Convolution"
  bottom: "pool2"
  top: "conv3_1"
  param {
    lr_mult: 1
    decay_mult: 1
  }
  param {
    lr_mult: 2
    decay_mult: 0
  }
  convolution_param {
    num_output: 256
    pad: 1
    kernel_size: 3
    weight_filler {
      type: "xavier"
    }
    bias_filler {
      type: "constant"
      value: 0
    }
  }
}
layer {
  name: "relu3_1"
  type: "ReLU"
  bottom: "conv3_1"
  top: "conv3_1"
}
layer {
  name: "conv3_2"
  type: "Convolution"
  bottom: "conv3_1"
  top: "conv3_2"
  param {
    lr_mult: 1
    decay_mult: 1
  }
  param {
    lr_mult: 2
    decay_mult: 0
  }
  convolution_param {
    num_output: 256
    pad: 1
    kernel_size: 3
    weight_filler {
      type: "xavier"
    }
    bias_filler {
      type: "constant"
      value: 0
    }
  }
}
layer {
  name: "relu3_2"
  type: "ReLU"
  bottom: "conv3_2"
  top: "conv3_2"
}
layer {
  name: "conv3_3"
  type: "Convolution"
  bottom: "conv3_2"
  top: "conv3_3"
  param {
    lr_mult: 1
    decay_mult: 1
  }
  param {
    lr_mult: 2
    decay_mult: 0
  }
  convolution_param {
    num_output: 256
    pad: 1
    kernel_size: 3
    weight_filler {
      type: "xavier"
    }
    bias_filler {
      type: "constant"
      value: 0
    }
  }
}
layer {
  name: "relu3_3"
  type: "ReLU"
  bottom: "conv3_3"
  top: "conv3_3"
}
layer {
  name: "pool3"
  type: "Pooling"
  bottom: "conv3_3"
  top: "pool3"
  pooling_param {
    pool: MAX
    kernel_size: 2
    stride: 2
  }
}
layer {
  name: "conv4_1_depthwise"
  type: "DepthwiseConvolution"
  bottom: "pool3"
  top: "conv4_1_3x3"
  param {
    lr_mult: 1
    decay_mult: 1
  }
  param {
    lr_mult: 2
    decay_mult: 0
  }
  convolution_param {
    num_output: 256
    pad: 1
    kernel_size: 3
    group: 256
    weight_filler {
      type: "xavier"
    }
    bias_filler {
      type: "constant"
      value: 0
    }
  }
}
layer {
  name: "conv4_1_3x3_relu"
  type: "ReLU"
  bottom: "conv4_1_3x3"
  top: "conv4_1_3x3"
}
layer {
  name: "conv4_1_1x1"
  type: "Convolution"
  bottom: "conv4_1_3x3"
  top: "conv4_1"
  param {
    lr_mult: 1
    decay_mult: 1
  }
  param {
    lr_mult: 2
    decay_mult: 0
  }
  convolution_param {
    num_output: 512
    pad: 0
    kernel_size: 1
    stride: 1
    weight_filler {
      type: "xavier"
    }
    bias_filler {
      type: "constant"
      value: 0
    }
  }
}
layer {
  name: "relu4_1"
  type: "ReLU"
  bottom: "conv4_1"
  top: "conv4_1"
}
layer {
  name: "conv4_2"
  type: "Convolution"
  bottom: "conv4_1"
  top: "conv4_2"
  param {
    lr_mult: 1
    decay_mult: 1
  }
  param {
    lr_mult: 2
    decay_mult: 0
  }
  convolution_param {
    num_output: 512
    pad: 1
    kernel_size: 3
    weight_filler {
      type: "xavier"
    }
    bias_filler {
      type: "constant"
      value: 0
    }
  }
}
layer {
  name: "relu4_2"
  type: "ReLU"
  bottom: "conv4_2"
  top: "conv4_2"
}
layer {
  name: "conv4_3"
  type: "Convolution"
  bottom: "conv4_2"
  top: "conv4_3"
  param {
    lr_mult: 1
    decay_mult: 1
  }
  param {
    lr_mult: 2
    decay_mult: 0
  }
  convolution_param {
    num_output: 512
    pad: 1
    kernel_size: 3
    weight_filler {
      type: "xavier"
    }
    bias_filler {
      type: "constant"
      value: 0
    }
  }
}
layer {
  name: "relu4_3"
  type: "ReLU"
  bottom: "conv4_3"
  top: "conv4_3"
}
layer {
  name: "pool4"
  type: "Pooling"
  bottom: "conv4_3"
  top: "pool4"
  pooling_param {
    pool: MAX
    kernel_size: 2
    stride: 2
  }
}
layer {
  name: "conv5_1_depthwise"
  type: "DepthwiseConvolution"
  bottom: "pool4"
  top: "conv5_1_3x3"
  param {
    lr_mult: 1
    decay_mult: 1
  }
  param {
    lr_mult: 2
    decay_mult: 0
  }
  convolution_param {
    num_output: 512
    pad: 1
    kernel_size: 3
    group: 512
    weight_filler {
      type: "xavier"
    }
    bias_filler {
      type: "constant"
      value: 0
    }
    dilation: 1
  }
}
layer {
  name: "conv5_1_3x3_relu"
  type: "ReLU"
  bottom: "conv5_1_3x3"
  top: "conv5_1_3x3"
}
layer {
  name: "conv5_1_1x1"
  type: "Convolution"
  bottom: "conv5_1_3x3"
  top: "conv5_1"
  param {
    lr_mult: 1
    decay_mult: 1
  }
  param {
    lr_mult: 2
    decay_mult: 0
  }
  convolution_param {
    num_output: 512
    pad: 0
    kernel_size: 1
    stride: 1
    weight_filler {
      type: "xavier"
    }
    bias_filler {
      type: "constant"
      value: 0
    }
    dilation: 1
  }
}
layer {
  name: "relu5_1"
  type: "ReLU"
  bottom: "conv5_1"
  top: "conv5_1"
}
layer {
  name: "conv5_2_depthwise"
  type: "DepthwiseConvolution"
  bottom: "conv5_1"
  top: "conv5_2_3x3"
  param {
    lr_mult: 1
    decay_mult: 1
  }
  param {
    lr_mult: 2
    decay_mult: 0
  }
  convolution_param {
    num_output: 512
    pad: 1
    kernel_size: 3
    group: 512
    weight_filler {
      type: "xavier"
    }
    bias_filler {
      type: "constant"
      value: 0
    }
    dilation: 1
  }
}
layer {
  name: "conv5_2_3x3_relu"
  type: "ReLU"
  bottom: "conv5_2_3x3"
  top: "conv5_2_3x3"
}
layer {
  name: "conv5_2_1x1"
  type: "Convolution"
  bottom: "conv5_2_3x3"
  top: "conv5_2"
  param {
    lr_mult: 1
    decay_mult: 1
  }
  param {
    lr_mult: 2
    decay_mult: 0
  }
  convolution_param {
    num_output: 512
    pad: 0
    kernel_size: 1
    stride: 1
    weight_filler {
      type: "xavier"
    }
    bias_filler {
      type: "constant"
      value: 0
    }
    dilation: 1
  }
}
layer {
  name: "relu5_2"
  type: "ReLU"
  bottom: "conv5_2"
  top: "conv5_2"
}
layer {
  name: "conv5_3_depthwise"
  type: "DepthwiseConvolution"
  bottom: "conv5_2"
  top: "conv5_3_3x3"
  param {
    lr_mult: 1
    decay_mult: 1
  }
  param {
    lr_mult: 2
    decay_mult: 0
  }
  convolution_param {
    num_output: 512
    pad: 1
    kernel_size: 3
    group: 512
    weight_filler {
      type: "xavier"
    }
    bias_filler {
      type: "constant"
      value: 0
    }
    dilation: 1
  }
}
layer {
  name: "conv5_3_3x3_relu"
  type: "ReLU"
  bottom: "conv5_3_3x3"
  top: "conv5_3_3x3"
}
layer {
  name: "conv5_3_1x1"
  type: "Convolution"
  bottom: "conv5_3_3x3"
  top: "conv5_3"
  param {
    lr_mult: 1
    decay_mult: 1
  }
  param {
    lr_mult: 2
    decay_mult: 0
  }
  convolution_param {
    num_output: 512
    pad: 0
    kernel_size: 1
    stride: 1
    weight_filler {
      type: "xavier"
    }
    bias_filler {
      type: "constant"
      value: 0
    }
    dilation: 1
  }
}
layer {
  name: "relu5_3"
  type: "ReLU"
  bottom: "conv5_3"
  top: "conv5_3"
}
layer {
  name: "pool5"
  type: "Pooling"
  bottom: "conv5_3"
  top: "pool5"
  pooling_param {
    pool: MAX
    kernel_size: 3
    stride: 1
    pad: 1
  }
}
layer {
  name: "fc6_depthwise"
  type: "DepthwiseConvolution"
  bottom: "pool5"
  top: "fc6_3x3"
  param {
    lr_mult: 1
    decay_mult: 1
  }
  param {
    lr_mult: 2
    decay_mult: 0
  }
  convolution_param {
    num_output: 512
    pad: 6
    kernel_size: 3
    group: 512
    weight_filler {
      type: "xavier"
    }
    bias_filler {
      type: "constant"
      value: 0
    }
    dilation: 6
  }
}
layer {
  name: "fc6_3x3_relu"
  type: "ReLU"
  bottom: "fc6_3x3"
  top: "fc6_3x3"
}
layer {
  name: "fc6_1x1"
  type: "Convolution"
  bottom: "fc6_3x3"
  top: "fc6"
  param {
    lr_mult: 1
    decay_mult: 1
  }
  param {
    lr_mult: 2
    decay_mult: 0
  }
  convolution_param {
    num_output: 1024
    pad: 0
    kernel_size: 1
    stride: 1
    weight_filler {
      type: "xavier"
    }
    bias_filler {
      type: "constant"
      value: 0
    }
    dilation: 6
  }
}
layer {
  name: "relu6"
  type: "ReLU"
  bottom: "fc6"
  top: "fc6"
}
layer {
  name: "fc7"
  type: "Convolution"
  bottom: "fc6"
  top: "fc7"
  param {
    lr_mult: 1
    decay_mult: 1
  }
  param {
    lr_mult: 2
    decay_mult: 0
  }
  convolution_param {
    num_output: 1024
    kernel_size: 1
    weight_filler {
      type: "xavier"
    }
    bias_filler {
      type: "constant"
      value: 0
    }
  }
}
layer {
  name: "relu7"
  type: "ReLU"
  bottom: "fc7"
  top: "fc7"
}
layer {
  name: "conv6_1"
  type: "Convolution"
  bottom: "fc7"
  top: "conv6_1"
  param {
    lr_mult: 1
    decay_mult: 1
  }
  param {
    lr_mult: 2
    decay_mult: 0
  }
  convolution_param {
    num_output: 256
    pad: 0
    kernel_size: 1
    stride: 1
    weight_filler {
      type: "xavier"
    }
    bias_filler {
      type: "constant"
      value: 0
    }
  }
}
layer {
  name: "conv6_1_relu"
  type: "ReLU"
  bottom: "conv6_1"
  top: "conv6_1"
}
layer {
  name: "conv6_2_depthwise"
  type: "DepthwiseConvolution"
  bottom: "conv6_1"
  top: "conv6_2_3x3"
  param {
    lr_mult: 1
    decay_mult: 1
  }
  param {
    lr_mult: 2
    decay_mult: 0
  }
  convolution_param {
    num_output: 256
    pad: 1
    kernel_size: 3
    group: 256
    stride: 2
    weight_filler {
      type: "xavier"
    }
    bias_filler {
      type: "constant"
      value: 0
    }
  }
}
layer {
  name: "conv6_2_3x3_relu"
  type: "ReLU"
  bottom: "conv6_2_3x3"
  top: "conv6_2_3x3"
}
layer {
  name: "conv6_2_1x1"
  type: "Convolution"
  bottom: "conv6_2_3x3"
  top: "conv6_2"
  param {
    lr_mult: 1
    decay_mult: 1
  }
  param {
    lr_mult: 2
    decay_mult: 0
  }
  convolution_param {
    num_output: 512
    pad: 0
    kernel_size: 1
    stride: 1
    weight_filler {
      type: "xavier"
    }
    bias_filler {
      type: "constant"
      value: 0
    }
  }
}
layer {
  name: "conv6_2_relu"
  type: "ReLU"
  bottom: "conv6_2"
  top: "conv6_2"
}
layer {
  name: "conv7_1"
  type: "Convolution"
  bottom: "conv6_2"
  top: "conv7_1"
  param {
    lr_mult: 1
    decay_mult: 1
  }
  param {
    lr_mult: 2
    decay_mult: 0
  }
  convolution_param {
    num_output: 128
    pad: 0
    kernel_size: 1
    stride: 1
    weight_filler {
      type: "xavier"
    }
    bias_filler {
      type: "constant"
      value: 0
    }
  }
}
layer {
  name: "conv7_1_relu"
  type: "ReLU"
  bottom: "conv7_1"
  top: "conv7_1"
}
layer {
  name: "conv7_2"
  type: "Convolution"
  bottom: "conv7_1"
  top: "conv7_2"
  param {
    lr_mult: 1
    decay_mult: 1
  }
  param {
    lr_mult: 2
    decay_mult: 0
  }
  convolution_param {
    num_output: 256
    pad: 1
    kernel_size: 3
    stride: 2
    weight_filler {
      type: "xavier"
    }
    bias_filler {
      type: "constant"
      value: 0
    }
  }
}
layer {
  name: "conv7_2_relu"
  type: "ReLU"
  bottom: "conv7_2"
  top: "conv7_2"
}
layer {
  name: "conv8_1"
  type: "Convolution"
  bottom: "conv7_2"
  top: "conv8_1"
  param {
    lr_mult: 1
    decay_mult: 1
  }
  param {
    lr_mult: 2
    decay_mult: 0
  }
  convolution_param {
    num_output: 128
    pad: 0
    kernel_size: 1
    stride: 1
    weight_filler {
      type: "xavier"
    }
    bias_filler {
      type: "constant"
      value: 0
    }
  }
}
layer {
  name: "conv8_1_relu"
  type: "ReLU"
  bottom: "conv8_1"
  top: "conv8_1"
}
layer {
  name: "conv8_2"
  type: "Convolution"
  bottom: "conv8_1"
  top: "conv8_2"
  param {
    lr_mult: 1
    decay_mult: 1
  }
  param {
    lr_mult: 2
    decay_mult: 0
  }
  convolution_param {
    num_output: 256
    pad: 0
    kernel_size: 3
    stride: 1
    weight_filler {
      type: "xavier"
    }
    bias_filler {
      type: "constant"
      value: 0
    }
  }
}
layer {
  name: "conv8_2_relu"
  type: "ReLU"
  bottom: "conv8_2"
  top: "conv8_2"
}
layer {
  name: "conv9_1"
  type: "Convolution"
  bottom: "conv8_2"
  top: "conv9_1"
  param {
    lr_mult: 1
    decay_mult: 1
  }
  param {
    lr_mult: 2
    decay_mult: 0
  }
  convolution_param {
    num_output: 128
    pad: 0
    kernel_size: 1
    stride: 1
    weight_filler {
      type: "xavier"
    }
    bias_filler {
      type: "constant"
      value: 0
    }
  }
}
layer {
  name: "conv9_1_relu"
  type: "ReLU"
  bottom: "conv9_1"
  top: "conv9_1"
}
layer {
  name: "conv9_2"
  type: "Convolution"
  bottom: "conv9_1"
  top: "conv9_2"
  param {
    lr_mult: 1
    decay_mult: 1
  }
  param {
    lr_mult: 2
    decay_mult: 0
  }
  convolution_param {
    num_output: 256
    pad: 0
    kernel_size: 3
    stride: 1
    weight_filler {
      type: "xavier"
    }
    bias_filler {
      type: "constant"
      value: 0
    }
  }
}
layer {
  name: "conv9_2_relu"
  type: "ReLU"
  bottom: "conv9_2"
  top: "conv9_2"
}
layer {
  name: "conv4_3_norm"
  type: "Normalize"
  bottom: "conv4_3"
  top: "conv4_3_norm"
  norm_param {
    across_spatial: false
    scale_filler {
      type: "constant"
      value: 20
    }
    channel_shared: false
  }
}
layer {
  name: "conv4_3_norm_mbox_loc"
  type: "Convolution"
  bottom: "conv4_3_norm"
  top: "conv4_3_norm_mbox_loc"
  param {
    lr_mult: 1
    decay_mult: 1
  }
  param {
    lr_mult: 2
    decay_mult: 0
  }
  convolution_param {
    num_output: 16
    pad: 1
    kernel_size: 3
    stride: 1
    weight_filler {
      type: "xavier"
    }
    bias_filler {
      type: "constant"
      value: 0
    }
  }
}
layer {
  name: "conv4_3_norm_mbox_loc_perm"
  type: "Permute"
  bottom: "conv4_3_norm_mbox_loc"
  top: "conv4_3_norm_mbox_loc_perm"
  permute_param {
    order: 0
    order: 2
    order: 3
    order: 1
  }
}
layer {
  name: "conv4_3_norm_mbox_loc_flat"
  type: "Flatten"
  bottom: "conv4_3_norm_mbox_loc_perm"
  top: "conv4_3_norm_mbox_loc_flat"
  flatten_param {
    axis: 1
  }
}
layer {
  name: "conv4_3_norm_mbox_conf"
  type: "Convolution"
  bottom: "conv4_3_norm"
  top: "conv4_3_norm_mbox_conf"
  param {
    lr_mult: 1
    decay_mult: 1
  }
  param {
    lr_mult: 2
    decay_mult: 0
  }
  convolution_param {
    num_output: 44
    pad: 1
    kernel_size: 3
    stride: 1
    weight_filler {
      type: "xavier"
    }
    bias_filler {
      type: "constant"
      value: 0
    }
  }
}
layer {
  name: "conv4_3_norm_mbox_conf_perm"
  type: "Permute"
  bottom: "conv4_3_norm_mbox_conf"
  top: "conv4_3_norm_mbox_conf_perm"
  permute_param {
    order: 0
    order: 2
    order: 3
    order: 1
  }
}
layer {
  name: "conv4_3_norm_mbox_conf_flat"
  type: "Flatten"
  bottom: "conv4_3_norm_mbox_conf_perm"
  top: "conv4_3_norm_mbox_conf_flat"
  flatten_param {
    axis: 1
  }
}
layer {
  name: "conv4_3_norm_mbox_priorbox"
  type: "PriorBox"
  bottom: "conv4_3_norm"
  bottom: "data"
  top: "conv4_3_norm_mbox_priorbox"
  prior_box_param {
    min_size: 30
    max_size: 60
    aspect_ratio: 2
    flip: true
    clip: false
    variance: 0.1
    variance: 0.1
    variance: 0.2
    variance: 0.2
    step: 8
    offset: 0.5
  }
}
layer {
  name: "fc7_mbox_loc"
  type: "Convolution"
  bottom: "fc7"
  top: "fc7_mbox_loc"
  param {
    lr_mult: 1
    decay_mult: 1
  }
  param {
    lr_mult: 2
    decay_mult: 0
  }
  convolution_param {
    num_output: 24
    pad: 1
    kernel_size: 3
    stride: 1
    weight_filler {
      type: "xavier"
    }
    bias_filler {
      type: "constant"
      value: 0
    }
  }
}
layer {
  name: "fc7_mbox_loc_perm"
  type: "Permute"
  bottom: "fc7_mbox_loc"
  top: "fc7_mbox_loc_perm"
  permute_param {
    order: 0
    order: 2
    order: 3
    order: 1
  }
}
layer {
  name: "fc7_mbox_loc_flat"
  type: "Flatten"
  bottom: "fc7_mbox_loc_perm"
  top: "fc7_mbox_loc_flat"
  flatten_param {
    axis: 1
  }
}
layer {
  name: "fc7_mbox_conf"
  type: "Convolution"
  bottom: "fc7"
  top: "fc7_mbox_conf"
  param {
    lr_mult: 1
    decay_mult: 1
  }
  param {
    lr_mult: 2
    decay_mult: 0
  }
  convolution_param {
    num_output: 66
    pad: 1
    kernel_size: 3
    stride: 1
    weight_filler {
      type: "xavier"
    }
    bias_filler {
      type: "constant"
      value: 0
    }
  }
}
layer {
  name: "fc7_mbox_conf_perm"
  type: "Permute"
  bottom: "fc7_mbox_conf"
  top: "fc7_mbox_conf_perm"
  permute_param {
    order: 0
    order: 2
    order: 3
    order: 1
  }
}
layer {
  name: "fc7_mbox_conf_flat"
  type: "Flatten"
  bottom: "fc7_mbox_conf_perm"
  top: "fc7_mbox_conf_flat"
  flatten_param {
    axis: 1
  }
}
layer {
  name: "fc7_mbox_priorbox"
  type: "PriorBox"
  bottom: "fc7"
  bottom: "data"
  top: "fc7_mbox_priorbox"
  prior_box_param {
    min_size: 60
    max_size: 111
    aspect_ratio: 2
    aspect_ratio: 3
    flip: true
    clip: false
    variance: 0.1
    variance: 0.1
    variance: 0.2
    variance: 0.2
    step: 16
    offset: 0.5
  }
}
layer {
  name: "conv6_2_mbox_loc"
  type: "Convolution"
  bottom: "conv6_2"
  top: "conv6_2_mbox_loc"
  param {
    lr_mult: 1
    decay_mult: 1
  }
  param {
    lr_mult: 2
    decay_mult: 0
  }
  convolution_param {
    num_output: 24
    pad: 1
    kernel_size: 3
    stride: 1
    weight_filler {
      type: "xavier"
    }
    bias_filler {
      type: "constant"
      value: 0
    }
  }
}
layer {
  name: "conv6_2_mbox_loc_perm"
  type: "Permute"
  bottom: "conv6_2_mbox_loc"
  top: "conv6_2_mbox_loc_perm"
  permute_param {
    order: 0
    order: 2
    order: 3
    order: 1
  }
}
layer {
  name: "conv6_2_mbox_loc_flat"
  type: "Flatten"
  bottom: "conv6_2_mbox_loc_perm"
  top: "conv6_2_mbox_loc_flat"
  flatten_param {
    axis: 1
  }
}
layer {
  name: "conv6_2_mbox_conf"
  type: "Convolution"
  bottom: "conv6_2"
  top: "conv6_2_mbox_conf"
  param {
    lr_mult: 1
    decay_mult: 1
  }
  param {
    lr_mult: 2
    decay_mult: 0
  }
  convolution_param {
    num_output: 66
    pad: 1
    kernel_size: 3
    stride: 1
    weight_filler {
      type: "xavier"
    }
    bias_filler {
      type: "constant"
      value: 0
    }
  }
}
layer {
  name: "conv6_2_mbox_conf_perm"
  type: "Permute"
  bottom: "conv6_2_mbox_conf"
  top: "conv6_2_mbox_conf_perm"
  permute_param {
    order: 0
    order: 2
    order: 3
    order: 1
  }
}
layer {
  name: "conv6_2_mbox_conf_flat"
  type: "Flatten"
  bottom: "conv6_2_mbox_conf_perm"
  top: "conv6_2_mbox_conf_flat"
  flatten_param {
    axis: 1
  }
}
layer {
  name: "conv6_2_mbox_priorbox"
  type: "PriorBox"
  bottom: "conv6_2"
  bottom: "data"
  top: "conv6_2_mbox_priorbox"
  prior_box_param {
    min_size: 111
    max_size: 162
    aspect_ratio: 2
    aspect_ratio: 3
    flip: true
    clip: false
    variance: 0.1
    variance: 0.1
    variance: 0.2
    variance: 0.2
    step: 32
    offset: 0.5
  }
}
layer {
  name: "conv7_2_mbox_loc"
  type: "Convolution"
  bottom: "conv7_2"
  top: "conv7_2_mbox_loc"
  param {
    lr_mult: 1
    decay_mult: 1
  }
  param {
    lr_mult: 2
    decay_mult: 0
  }
  convolution_param {
    num_output: 24
    pad: 1
    kernel_size: 3
    stride: 1
    weight_filler {
      type: "xavier"
    }
    bias_filler {
      type: "constant"
      value: 0
    }
  }
}
layer {
  name: "conv7_2_mbox_loc_perm"
  type: "Permute"
  bottom: "conv7_2_mbox_loc"
  top: "conv7_2_mbox_loc_perm"
  permute_param {
    order: 0
    order: 2
    order: 3
    order: 1
  }
}
layer {
  name: "conv7_2_mbox_loc_flat"
  type: "Flatten"
  bottom: "conv7_2_mbox_loc_perm"
  top: "conv7_2_mbox_loc_flat"
  flatten_param {
    axis: 1
  }
}
layer {
  name: "conv7_2_mbox_conf"
  type: "Convolution"
  bottom: "conv7_2"
  top: "conv7_2_mbox_conf"
  param {
    lr_mult: 1
    decay_mult: 1
  }
  param {
    lr_mult: 2
    decay_mult: 0
  }
  convolution_param {
    num_output: 66
    pad: 1
    kernel_size: 3
    stride: 1
    weight_filler {
      type: "xavier"
    }
    bias_filler {
      type: "constant"
      value: 0
    }
  }
}
layer {
  name: "conv7_2_mbox_conf_perm"
  type: "Permute"
  bottom: "conv7_2_mbox_conf"
  top: "conv7_2_mbox_conf_perm"
  permute_param {
    order: 0
    order: 2
    order: 3
    order: 1
  }
}
layer {
  name: "conv7_2_mbox_conf_flat"
  type: "Flatten"
  bottom: "conv7_2_mbox_conf_perm"
  top: "conv7_2_mbox_conf_flat"
  flatten_param {
    axis: 1
  }
}
layer {
  name: "conv7_2_mbox_priorbox"
  type: "PriorBox"
  bottom: "conv7_2"
  bottom: "data"
  top: "conv7_2_mbox_priorbox"
  prior_box_param {
    min_size: 162
    max_size: 213
    aspect_ratio: 2
    aspect_ratio: 3
    flip: true
    clip: false
    variance: 0.1
    variance: 0.1
    variance: 0.2
    variance: 0.2
    step: 64
    offset: 0.5
  }
}
layer {
  name: "conv8_2_mbox_loc"
  type: "Convolution"
  bottom: "conv8_2"
  top: "conv8_2_mbox_loc"
  param {
    lr_mult: 1
    decay_mult: 1
  }
  param {
    lr_mult: 2
    decay_mult: 0
  }
  convolution_param {
    num_output: 16
    pad: 1
    kernel_size: 3
    stride: 1
    weight_filler {
      type: "xavier"
    }
    bias_filler {
      type: "constant"
      value: 0
    }
  }
}
layer {
  name: "conv8_2_mbox_loc_perm"
  type: "Permute"
  bottom: "conv8_2_mbox_loc"
  top: "conv8_2_mbox_loc_perm"
  permute_param {
    order: 0
    order: 2
    order: 3
    order: 1
  }
}
layer {
  name: "conv8_2_mbox_loc_flat"
  type: "Flatten"
  bottom: "conv8_2_mbox_loc_perm"
  top: "conv8_2_mbox_loc_flat"
  flatten_param {
    axis: 1
  }
}
layer {
  name: "conv8_2_mbox_conf"
  type: "Convolution"
  bottom: "conv8_2"
  top: "conv8_2_mbox_conf"
  param {
    lr_mult: 1
    decay_mult: 1
  }
  param {
    lr_mult: 2
    decay_mult: 0
  }
  convolution_param {
    num_output: 44
    pad: 1
    kernel_size: 3
    stride: 1
    weight_filler {
      type: "xavier"
    }
    bias_filler {
      type: "constant"
      value: 0
    }
  }
}
layer {
  name: "conv8_2_mbox_conf_perm"
  type: "Permute"
  bottom: "conv8_2_mbox_conf"
  top: "conv8_2_mbox_conf_perm"
  permute_param {
    order: 0
    order: 2
    order: 3
    order: 1
  }
}
layer {
  name: "conv8_2_mbox_conf_flat"
  type: "Flatten"
  bottom: "conv8_2_mbox_conf_perm"
  top: "conv8_2_mbox_conf_flat"
  flatten_param {
    axis: 1
  }
}
layer {
  name: "conv8_2_mbox_priorbox"
  type: "PriorBox"
  bottom: "conv8_2"
  bottom: "data"
  top: "conv8_2_mbox_priorbox"
  prior_box_param {
    min_size: 213
    max_size: 264
    aspect_ratio: 2
    flip: true
    clip: false
    variance: 0.1
    variance: 0.1
    variance: 0.2
    variance: 0.2
    step: 100
    offset: 0.5
  }
}
layer {
  name: "conv9_2_mbox_loc"
  type: "Convolution"
  bottom: "conv9_2"
  top: "conv9_2_mbox_loc"
  param {
    lr_mult: 1
    decay_mult: 1
  }
  param {
    lr_mult: 2
    decay_mult: 0
  }
  convolution_param {
    num_output: 16
    pad: 1
    kernel_size: 3
    stride: 1
    weight_filler {
      type: "xavier"
    }
    bias_filler {
      type: "constant"
      value: 0
    }
  }
}
layer {
  name: "conv9_2_mbox_loc_perm"
  type: "Permute"
  bottom: "conv9_2_mbox_loc"
  top: "conv9_2_mbox_loc_perm"
  permute_param {
    order: 0
    order: 2
    order: 3
    order: 1
  }
}
layer {
  name: "conv9_2_mbox_loc_flat"
  type: "Flatten"
  bottom: "conv9_2_mbox_loc_perm"
  top: "conv9_2_mbox_loc_flat"
  flatten_param {
    axis: 1
  }
}
layer {
  name: "conv9_2_mbox_conf"
  type: "Convolution"
  bottom: "conv9_2"
  top: "conv9_2_mbox_conf"
  param {
    lr_mult: 1
    decay_mult: 1
  }
  param {
    lr_mult: 2
    decay_mult: 0
  }
  convolution_param {
    num_output: 44
    pad: 1
    kernel_size: 3
    stride: 1
    weight_filler {
      type: "xavier"
    }
    bias_filler {
      type: "constant"
      value: 0
    }
  }
}
layer {
  name: "conv9_2_mbox_conf_perm"
  type: "Permute"
  bottom: "conv9_2_mbox_conf"
  top: "conv9_2_mbox_conf_perm"
  permute_param {
    order: 0
    order: 2
    order: 3
    order: 1
  }
}
layer {
  name: "conv9_2_mbox_conf_flat"
  type: "Flatten"
  bottom: "conv9_2_mbox_conf_perm"
  top: "conv9_2_mbox_conf_flat"
  flatten_param {
    axis: 1
  }
}
layer {
  name: "conv9_2_mbox_priorbox"
  type: "PriorBox"
  bottom: "conv9_2"
  bottom: "data"
  top: "conv9_2_mbox_priorbox"
  prior_box_param {
    min_size: 264
    max_size: 315
    aspect_ratio: 2
    flip: true
    clip: false
    variance: 0.1
    variance: 0.1
    variance: 0.2
    variance: 0.2
    step: 300
    offset: 0.5
  }
}
layer {
  name: "mbox_loc"
  type: "Concat"
  bottom: "conv4_3_norm_mbox_loc_flat"
  bottom: "fc7_mbox_loc_flat"
  bottom: "conv6_2_mbox_loc_flat"
  bottom: "conv7_2_mbox_loc_flat"
  bottom: "conv8_2_mbox_loc_flat"
  bottom: "conv9_2_mbox_loc_flat"
  top: "mbox_loc"
  concat_param {
    axis: 1
  }
}
layer {
  name: "mbox_conf"
  type: "Concat"
  bottom: "conv4_3_norm_mbox_conf_flat"
  bottom: "fc7_mbox_conf_flat"
  bottom: "conv6_2_mbox_conf_flat"
  bottom: "conv7_2_mbox_conf_flat"
  bottom: "conv8_2_mbox_conf_flat"
  bottom: "conv9_2_mbox_conf_flat"
  top: "mbox_conf"
  concat_param {
    axis: 1
  }
}
layer {
  name: "mbox_priorbox"
  type: "Concat"
  bottom: "conv4_3_norm_mbox_priorbox"
  bottom: "fc7_mbox_priorbox"
  bottom: "conv6_2_mbox_priorbox"
  bottom: "conv7_2_mbox_priorbox"
  bottom: "conv8_2_mbox_priorbox"
  bottom: "conv9_2_mbox_priorbox"
  top: "mbox_priorbox"
  concat_param {
    axis: 2
  }
}
layer {
  name: "mbox_conf_reshape"
  type: "Reshape"
  bottom: "mbox_conf"
  top: "mbox_conf_reshape"
  reshape_param {
    shape {
      dim: 0
      dim: -1
      dim: 11
    }
  }
}
layer {
  name: "mbox_conf_softmax"
  type: "Softmax"
  bottom: "mbox_conf_reshape"
  top: "mbox_conf_softmax"
  softmax_param {
    axis: 2
  }
}
layer {
  name: "mbox_conf_flatten"
  type: "Flatten"
  bottom: "mbox_conf_softmax"
  top: "mbox_conf_flatten"
  flatten_param {
    axis: 1
  }
}
layer {
  name: "detection_out"
  type: "DetectionOutput"
  bottom: "mbox_loc"
  bottom: "mbox_conf_flatten"
  bottom: "mbox_priorbox"
  top: "detection_out"
  include {
    phase: TEST
  }
  detection_output_param {
    num_classes: 11
    share_location: true
    background_label_id: 0
    nms_param {
      nms_threshold: 0.45
      top_k: 400
    }
    save_output_param {
      output_directory: "/home/zs/data/VOCdevkit/results/VOC2007/SSD_300x300_0323_conv6/Main"
      output_name_prefix: "comp4_det_test_"
      output_format: "VOC"
      label_map_file: "data/NWPU_VHR/labelmap_NWPU_VHR.prototxt"
      name_size_file: "data/NWPU_VHR/test_name_size.txt"
      num_test_image: 123
    }
    code_type: CENTER_SIZE
    keep_top_k: 200
    confidence_threshold: 0.01
  }
}
layer {
  name: "detection_eval"
  type: "DetectionEvaluate"
  bottom: "detection_out"
  bottom: "label"
  top: "detection_eval"
  include {
    phase: TEST
  }
  detection_evaluate_param {
    num_classes: 11
    background_label_id: 0
    overlap_threshold: 0.5
    evaluate_difficult_gt: false
    name_size_file: "data/NWPU_VHR/test_name_size.txt"
  }
}
I0323 17:01:48.168571 31012 layer_factory.hpp:77] Creating layer data
I0323 17:01:48.168635 31012 net.cpp:100] Creating Layer data
I0323 17:01:48.168644 31012 net.cpp:408] data -> data
I0323 17:01:48.168656 31012 net.cpp:408] data -> label
I0323 17:01:48.173934 31029 db_lmdb.cpp:35] Opened lmdb examples/NWPU_VHR/NWPU_VHR_test_lmdb
I0323 17:01:48.183012 31012 annotated_data_layer.cpp:62] output data size: 1,3,300,300
I0323 17:01:48.186777 31012 net.cpp:150] Setting up data
I0323 17:01:48.186794 31012 net.cpp:157] Top shape: 1 3 300 300 (270000)
I0323 17:01:48.186800 31012 net.cpp:157] Top shape: 1 1 4 8 (32)
I0323 17:01:48.186803 31012 net.cpp:165] Memory required for data: 1080128
I0323 17:01:48.186810 31012 layer_factory.hpp:77] Creating layer data_data_0_split
I0323 17:01:48.186838 31012 net.cpp:100] Creating Layer data_data_0_split
I0323 17:01:48.186843 31012 net.cpp:434] data_data_0_split <- data
I0323 17:01:48.186851 31012 net.cpp:408] data_data_0_split -> data_data_0_split_0
I0323 17:01:48.186859 31012 net.cpp:408] data_data_0_split -> data_data_0_split_1
I0323 17:01:48.186866 31012 net.cpp:408] data_data_0_split -> data_data_0_split_2
I0323 17:01:48.186872 31012 net.cpp:408] data_data_0_split -> data_data_0_split_3
I0323 17:01:48.186877 31012 net.cpp:408] data_data_0_split -> data_data_0_split_4
I0323 17:01:48.186883 31012 net.cpp:408] data_data_0_split -> data_data_0_split_5
I0323 17:01:48.186888 31012 net.cpp:408] data_data_0_split -> data_data_0_split_6
I0323 17:01:48.187000 31012 net.cpp:150] Setting up data_data_0_split
I0323 17:01:48.187006 31012 net.cpp:157] Top shape: 1 3 300 300 (270000)
I0323 17:01:48.187011 31012 net.cpp:157] Top shape: 1 3 300 300 (270000)
I0323 17:01:48.187016 31012 net.cpp:157] Top shape: 1 3 300 300 (270000)
I0323 17:01:48.187019 31012 net.cpp:157] Top shape: 1 3 300 300 (270000)
I0323 17:01:48.187023 31012 net.cpp:157] Top shape: 1 3 300 300 (270000)
I0323 17:01:48.187026 31012 net.cpp:157] Top shape: 1 3 300 300 (270000)
I0323 17:01:48.187031 31012 net.cpp:157] Top shape: 1 3 300 300 (270000)
I0323 17:01:48.187034 31012 net.cpp:165] Memory required for data: 8640128
I0323 17:01:48.187038 31012 layer_factory.hpp:77] Creating layer conv1_1
I0323 17:01:48.187050 31012 net.cpp:100] Creating Layer conv1_1
I0323 17:01:48.187054 31012 net.cpp:434] conv1_1 <- data_data_0_split_0
I0323 17:01:48.187059 31012 net.cpp:408] conv1_1 -> conv1_1
I0323 17:01:48.188913 31012 net.cpp:150] Setting up conv1_1
I0323 17:01:48.188925 31012 net.cpp:157] Top shape: 1 64 300 300 (5760000)
I0323 17:01:48.188928 31012 net.cpp:165] Memory required for data: 31680128
I0323 17:01:48.188940 31012 layer_factory.hpp:77] Creating layer relu1_1
I0323 17:01:48.188946 31012 net.cpp:100] Creating Layer relu1_1
I0323 17:01:48.188949 31012 net.cpp:434] relu1_1 <- conv1_1
I0323 17:01:48.188954 31012 net.cpp:395] relu1_1 -> conv1_1 (in-place)
I0323 17:01:48.189612 31012 net.cpp:150] Setting up relu1_1
I0323 17:01:48.189622 31012 net.cpp:157] Top shape: 1 64 300 300 (5760000)
I0323 17:01:48.189625 31012 net.cpp:165] Memory required for data: 54720128
I0323 17:01:48.189630 31012 layer_factory.hpp:77] Creating layer conv1_2
I0323 17:01:48.189640 31012 net.cpp:100] Creating Layer conv1_2
I0323 17:01:48.189643 31012 net.cpp:434] conv1_2 <- conv1_1
I0323 17:01:48.189649 31012 net.cpp:408] conv1_2 -> conv1_2
I0323 17:01:48.191053 31012 net.cpp:150] Setting up conv1_2
I0323 17:01:48.191064 31012 net.cpp:157] Top shape: 1 64 300 300 (5760000)
I0323 17:01:48.191068 31012 net.cpp:165] Memory required for data: 77760128
I0323 17:01:48.191076 31012 layer_factory.hpp:77] Creating layer relu1_2
I0323 17:01:48.191082 31012 net.cpp:100] Creating Layer relu1_2
I0323 17:01:48.191087 31012 net.cpp:434] relu1_2 <- conv1_2
I0323 17:01:48.191092 31012 net.cpp:395] relu1_2 -> conv1_2 (in-place)
I0323 17:01:48.191236 31012 net.cpp:150] Setting up relu1_2
I0323 17:01:48.191242 31012 net.cpp:157] Top shape: 1 64 300 300 (5760000)
I0323 17:01:48.191246 31012 net.cpp:165] Memory required for data: 100800128
I0323 17:01:48.191249 31012 layer_factory.hpp:77] Creating layer pool1
I0323 17:01:48.191256 31012 net.cpp:100] Creating Layer pool1
I0323 17:01:48.191260 31012 net.cpp:434] pool1 <- conv1_2
I0323 17:01:48.191265 31012 net.cpp:408] pool1 -> pool1
I0323 17:01:48.191305 31012 net.cpp:150] Setting up pool1
I0323 17:01:48.191310 31012 net.cpp:157] Top shape: 1 64 150 150 (1440000)
I0323 17:01:48.191314 31012 net.cpp:165] Memory required for data: 106560128
I0323 17:01:48.191318 31012 layer_factory.hpp:77] Creating layer conv2_1
I0323 17:01:48.191325 31012 net.cpp:100] Creating Layer conv2_1
I0323 17:01:48.191329 31012 net.cpp:434] conv2_1 <- pool1
I0323 17:01:48.191334 31012 net.cpp:408] conv2_1 -> conv2_1
I0323 17:01:48.193326 31012 net.cpp:150] Setting up conv2_1
I0323 17:01:48.193337 31012 net.cpp:157] Top shape: 1 128 150 150 (2880000)
I0323 17:01:48.193353 31012 net.cpp:165] Memory required for data: 118080128
I0323 17:01:48.193362 31012 layer_factory.hpp:77] Creating layer relu2_1
I0323 17:01:48.193369 31012 net.cpp:100] Creating Layer relu2_1
I0323 17:01:48.193373 31012 net.cpp:434] relu2_1 <- conv2_1
I0323 17:01:48.193378 31012 net.cpp:395] relu2_1 -> conv2_1 (in-place)
I0323 17:01:48.193533 31012 net.cpp:150] Setting up relu2_1
I0323 17:01:48.193542 31012 net.cpp:157] Top shape: 1 128 150 150 (2880000)
I0323 17:01:48.193545 31012 net.cpp:165] Memory required for data: 129600128
I0323 17:01:48.193548 31012 layer_factory.hpp:77] Creating layer conv2_2
I0323 17:01:48.193557 31012 net.cpp:100] Creating Layer conv2_2
I0323 17:01:48.193562 31012 net.cpp:434] conv2_2 <- conv2_1
I0323 17:01:48.193567 31012 net.cpp:408] conv2_2 -> conv2_2
I0323 17:01:48.195865 31012 net.cpp:150] Setting up conv2_2
I0323 17:01:48.195876 31012 net.cpp:157] Top shape: 1 128 150 150 (2880000)
I0323 17:01:48.195880 31012 net.cpp:165] Memory required for data: 141120128
I0323 17:01:48.195886 31012 layer_factory.hpp:77] Creating layer relu2_2
I0323 17:01:48.195892 31012 net.cpp:100] Creating Layer relu2_2
I0323 17:01:48.195897 31012 net.cpp:434] relu2_2 <- conv2_2
I0323 17:01:48.195902 31012 net.cpp:395] relu2_2 -> conv2_2 (in-place)
I0323 17:01:48.196568 31012 net.cpp:150] Setting up relu2_2
I0323 17:01:48.196578 31012 net.cpp:157] Top shape: 1 128 150 150 (2880000)
I0323 17:01:48.196581 31012 net.cpp:165] Memory required for data: 152640128
I0323 17:01:48.196586 31012 layer_factory.hpp:77] Creating layer pool2
I0323 17:01:48.196593 31012 net.cpp:100] Creating Layer pool2
I0323 17:01:48.196596 31012 net.cpp:434] pool2 <- conv2_2
I0323 17:01:48.196601 31012 net.cpp:408] pool2 -> pool2
I0323 17:01:48.196643 31012 net.cpp:150] Setting up pool2
I0323 17:01:48.196650 31012 net.cpp:157] Top shape: 1 128 75 75 (720000)
I0323 17:01:48.196652 31012 net.cpp:165] Memory required for data: 155520128
I0323 17:01:48.196656 31012 layer_factory.hpp:77] Creating layer conv3_1
I0323 17:01:48.196665 31012 net.cpp:100] Creating Layer conv3_1
I0323 17:01:48.196668 31012 net.cpp:434] conv3_1 <- pool2
I0323 17:01:48.196673 31012 net.cpp:408] conv3_1 -> conv3_1
I0323 17:01:48.200402 31012 net.cpp:150] Setting up conv3_1
I0323 17:01:48.200413 31012 net.cpp:157] Top shape: 1 256 75 75 (1440000)
I0323 17:01:48.200417 31012 net.cpp:165] Memory required for data: 161280128
I0323 17:01:48.200428 31012 layer_factory.hpp:77] Creating layer relu3_1
I0323 17:01:48.200434 31012 net.cpp:100] Creating Layer relu3_1
I0323 17:01:48.200438 31012 net.cpp:434] relu3_1 <- conv3_1
I0323 17:01:48.200443 31012 net.cpp:395] relu3_1 -> conv3_1 (in-place)
I0323 17:01:48.200597 31012 net.cpp:150] Setting up relu3_1
I0323 17:01:48.200604 31012 net.cpp:157] Top shape: 1 256 75 75 (1440000)
I0323 17:01:48.200608 31012 net.cpp:165] Memory required for data: 167040128
I0323 17:01:48.200611 31012 layer_factory.hpp:77] Creating layer conv3_2
I0323 17:01:48.200620 31012 net.cpp:100] Creating Layer conv3_2
I0323 17:01:48.200624 31012 net.cpp:434] conv3_2 <- conv3_1
I0323 17:01:48.200630 31012 net.cpp:408] conv3_2 -> conv3_2
I0323 17:01:48.205657 31012 net.cpp:150] Setting up conv3_2
I0323 17:01:48.205669 31012 net.cpp:157] Top shape: 1 256 75 75 (1440000)
I0323 17:01:48.205673 31012 net.cpp:165] Memory required for data: 172800128
I0323 17:01:48.205682 31012 layer_factory.hpp:77] Creating layer relu3_2
I0323 17:01:48.205687 31012 net.cpp:100] Creating Layer relu3_2
I0323 17:01:48.205691 31012 net.cpp:434] relu3_2 <- conv3_2
I0323 17:01:48.205696 31012 net.cpp:395] relu3_2 -> conv3_2 (in-place)
I0323 17:01:48.205873 31012 net.cpp:150] Setting up relu3_2
I0323 17:01:48.205881 31012 net.cpp:157] Top shape: 1 256 75 75 (1440000)
I0323 17:01:48.205884 31012 net.cpp:165] Memory required for data: 178560128
I0323 17:01:48.205888 31012 layer_factory.hpp:77] Creating layer conv3_3
I0323 17:01:48.205899 31012 net.cpp:100] Creating Layer conv3_3
I0323 17:01:48.205902 31012 net.cpp:434] conv3_3 <- conv3_2
I0323 17:01:48.205925 31012 net.cpp:408] conv3_3 -> conv3_3
I0323 17:01:48.211021 31012 net.cpp:150] Setting up conv3_3
I0323 17:01:48.211040 31012 net.cpp:157] Top shape: 1 256 75 75 (1440000)
I0323 17:01:48.211043 31012 net.cpp:165] Memory required for data: 184320128
I0323 17:01:48.211051 31012 layer_factory.hpp:77] Creating layer relu3_3
I0323 17:01:48.211060 31012 net.cpp:100] Creating Layer relu3_3
I0323 17:01:48.211063 31012 net.cpp:434] relu3_3 <- conv3_3
I0323 17:01:48.211069 31012 net.cpp:395] relu3_3 -> conv3_3 (in-place)
I0323 17:01:48.211740 31012 net.cpp:150] Setting up relu3_3
I0323 17:01:48.211750 31012 net.cpp:157] Top shape: 1 256 75 75 (1440000)
I0323 17:01:48.211753 31012 net.cpp:165] Memory required for data: 190080128
I0323 17:01:48.211756 31012 layer_factory.hpp:77] Creating layer pool3
I0323 17:01:48.211764 31012 net.cpp:100] Creating Layer pool3
I0323 17:01:48.211768 31012 net.cpp:434] pool3 <- conv3_3
I0323 17:01:48.211773 31012 net.cpp:408] pool3 -> pool3
I0323 17:01:48.211819 31012 net.cpp:150] Setting up pool3
I0323 17:01:48.211825 31012 net.cpp:157] Top shape: 1 256 38 38 (369664)
I0323 17:01:48.211828 31012 net.cpp:165] Memory required for data: 191558784
I0323 17:01:48.211833 31012 layer_factory.hpp:77] Creating layer conv4_1_depthwise
I0323 17:01:48.211839 31012 net.cpp:100] Creating Layer conv4_1_depthwise
I0323 17:01:48.211843 31012 net.cpp:434] conv4_1_depthwise <- pool3
I0323 17:01:48.211849 31012 net.cpp:408] conv4_1_depthwise -> conv4_1_3x3
I0323 17:01:48.212088 31012 net.cpp:150] Setting up conv4_1_depthwise
I0323 17:01:48.212095 31012 net.cpp:157] Top shape: 1 256 38 38 (369664)
I0323 17:01:48.212098 31012 net.cpp:165] Memory required for data: 193037440
I0323 17:01:48.212103 31012 layer_factory.hpp:77] Creating layer conv4_1_3x3_relu
I0323 17:01:48.212110 31012 net.cpp:100] Creating Layer conv4_1_3x3_relu
I0323 17:01:48.212112 31012 net.cpp:434] conv4_1_3x3_relu <- conv4_1_3x3
I0323 17:01:48.212117 31012 net.cpp:395] conv4_1_3x3_relu -> conv4_1_3x3 (in-place)
I0323 17:01:48.212265 31012 net.cpp:150] Setting up conv4_1_3x3_relu
I0323 17:01:48.212273 31012 net.cpp:157] Top shape: 1 256 38 38 (369664)
I0323 17:01:48.212276 31012 net.cpp:165] Memory required for data: 194516096
I0323 17:01:48.212280 31012 layer_factory.hpp:77] Creating layer conv4_1_1x1
I0323 17:01:48.212288 31012 net.cpp:100] Creating Layer conv4_1_1x1
I0323 17:01:48.212292 31012 net.cpp:434] conv4_1_1x1 <- conv4_1_3x3
I0323 17:01:48.212297 31012 net.cpp:408] conv4_1_1x1 -> conv4_1
I0323 17:01:48.214083 31012 net.cpp:150] Setting up conv4_1_1x1
I0323 17:01:48.214094 31012 net.cpp:157] Top shape: 1 512 38 38 (739328)
I0323 17:01:48.214098 31012 net.cpp:165] Memory required for data: 197473408
I0323 17:01:48.214108 31012 layer_factory.hpp:77] Creating layer relu4_1
I0323 17:01:48.214114 31012 net.cpp:100] Creating Layer relu4_1
I0323 17:01:48.214118 31012 net.cpp:434] relu4_1 <- conv4_1
I0323 17:01:48.214123 31012 net.cpp:395] relu4_1 -> conv4_1 (in-place)
I0323 17:01:48.214278 31012 net.cpp:150] Setting up relu4_1
I0323 17:01:48.214285 31012 net.cpp:157] Top shape: 1 512 38 38 (739328)
I0323 17:01:48.214289 31012 net.cpp:165] Memory required for data: 200430720
I0323 17:01:48.214293 31012 layer_factory.hpp:77] Creating layer conv4_2
I0323 17:01:48.214300 31012 net.cpp:100] Creating Layer conv4_2
I0323 17:01:48.214304 31012 net.cpp:434] conv4_2 <- conv4_1
I0323 17:01:48.214310 31012 net.cpp:408] conv4_2 -> conv4_2
I0323 17:01:48.228166 31012 net.cpp:150] Setting up conv4_2
I0323 17:01:48.228186 31012 net.cpp:157] Top shape: 1 512 38 38 (739328)
I0323 17:01:48.228190 31012 net.cpp:165] Memory required for data: 203388032
I0323 17:01:48.228199 31012 layer_factory.hpp:77] Creating layer relu4_2
I0323 17:01:48.228209 31012 net.cpp:100] Creating Layer relu4_2
I0323 17:01:48.228214 31012 net.cpp:434] relu4_2 <- conv4_2
I0323 17:01:48.228219 31012 net.cpp:395] relu4_2 -> conv4_2 (in-place)
I0323 17:01:48.228379 31012 net.cpp:150] Setting up relu4_2
I0323 17:01:48.228386 31012 net.cpp:157] Top shape: 1 512 38 38 (739328)
I0323 17:01:48.228407 31012 net.cpp:165] Memory required for data: 206345344
I0323 17:01:48.228411 31012 layer_factory.hpp:77] Creating layer conv4_3
I0323 17:01:48.228421 31012 net.cpp:100] Creating Layer conv4_3
I0323 17:01:48.228425 31012 net.cpp:434] conv4_3 <- conv4_2
I0323 17:01:48.228431 31012 net.cpp:408] conv4_3 -> conv4_3
I0323 17:01:48.242329 31012 net.cpp:150] Setting up conv4_3
I0323 17:01:48.242350 31012 net.cpp:157] Top shape: 1 512 38 38 (739328)
I0323 17:01:48.242354 31012 net.cpp:165] Memory required for data: 209302656
I0323 17:01:48.242363 31012 layer_factory.hpp:77] Creating layer relu4_3
I0323 17:01:48.242372 31012 net.cpp:100] Creating Layer relu4_3
I0323 17:01:48.242378 31012 net.cpp:434] relu4_3 <- conv4_3
I0323 17:01:48.242384 31012 net.cpp:395] relu4_3 -> conv4_3 (in-place)
I0323 17:01:48.243079 31012 net.cpp:150] Setting up relu4_3
I0323 17:01:48.243089 31012 net.cpp:157] Top shape: 1 512 38 38 (739328)
I0323 17:01:48.243093 31012 net.cpp:165] Memory required for data: 212259968
I0323 17:01:48.243098 31012 layer_factory.hpp:77] Creating layer conv4_3_relu4_3_0_split
I0323 17:01:48.243103 31012 net.cpp:100] Creating Layer conv4_3_relu4_3_0_split
I0323 17:01:48.243108 31012 net.cpp:434] conv4_3_relu4_3_0_split <- conv4_3
I0323 17:01:48.243113 31012 net.cpp:408] conv4_3_relu4_3_0_split -> conv4_3_relu4_3_0_split_0
I0323 17:01:48.243121 31012 net.cpp:408] conv4_3_relu4_3_0_split -> conv4_3_relu4_3_0_split_1
I0323 17:01:48.243165 31012 net.cpp:150] Setting up conv4_3_relu4_3_0_split
I0323 17:01:48.243170 31012 net.cpp:157] Top shape: 1 512 38 38 (739328)
I0323 17:01:48.243175 31012 net.cpp:157] Top shape: 1 512 38 38 (739328)
I0323 17:01:48.243178 31012 net.cpp:165] Memory required for data: 218174592
I0323 17:01:48.243181 31012 layer_factory.hpp:77] Creating layer pool4
I0323 17:01:48.243187 31012 net.cpp:100] Creating Layer pool4
I0323 17:01:48.243192 31012 net.cpp:434] pool4 <- conv4_3_relu4_3_0_split_0
I0323 17:01:48.243197 31012 net.cpp:408] pool4 -> pool4
I0323 17:01:48.243233 31012 net.cpp:150] Setting up pool4
I0323 17:01:48.243238 31012 net.cpp:157] Top shape: 1 512 19 19 (184832)
I0323 17:01:48.243242 31012 net.cpp:165] Memory required for data: 218913920
I0323 17:01:48.243247 31012 layer_factory.hpp:77] Creating layer conv5_1_depthwise
I0323 17:01:48.243253 31012 net.cpp:100] Creating Layer conv5_1_depthwise
I0323 17:01:48.243257 31012 net.cpp:434] conv5_1_depthwise <- pool4
I0323 17:01:48.243263 31012 net.cpp:408] conv5_1_depthwise -> conv5_1_3x3
I0323 17:01:48.243508 31012 net.cpp:150] Setting up conv5_1_depthwise
I0323 17:01:48.243515 31012 net.cpp:157] Top shape: 1 512 19 19 (184832)
I0323 17:01:48.243518 31012 net.cpp:165] Memory required for data: 219653248
I0323 17:01:48.243523 31012 layer_factory.hpp:77] Creating layer conv5_1_3x3_relu
I0323 17:01:48.243530 31012 net.cpp:100] Creating Layer conv5_1_3x3_relu
I0323 17:01:48.243532 31012 net.cpp:434] conv5_1_3x3_relu <- conv5_1_3x3
I0323 17:01:48.243538 31012 net.cpp:395] conv5_1_3x3_relu -> conv5_1_3x3 (in-place)
I0323 17:01:48.243690 31012 net.cpp:150] Setting up conv5_1_3x3_relu
I0323 17:01:48.243697 31012 net.cpp:157] Top shape: 1 512 19 19 (184832)
I0323 17:01:48.243701 31012 net.cpp:165] Memory required for data: 220392576
I0323 17:01:48.243705 31012 layer_factory.hpp:77] Creating layer conv5_1_1x1
I0323 17:01:48.243713 31012 net.cpp:100] Creating Layer conv5_1_1x1
I0323 17:01:48.243717 31012 net.cpp:434] conv5_1_1x1 <- conv5_1_3x3
I0323 17:01:48.243722 31012 net.cpp:408] conv5_1_1x1 -> conv5_1
I0323 17:01:48.247014 31012 net.cpp:150] Setting up conv5_1_1x1
I0323 17:01:48.247028 31012 net.cpp:157] Top shape: 1 512 19 19 (184832)
I0323 17:01:48.247032 31012 net.cpp:165] Memory required for data: 221131904
I0323 17:01:48.247040 31012 layer_factory.hpp:77] Creating layer relu5_1
I0323 17:01:48.247052 31012 net.cpp:100] Creating Layer relu5_1
I0323 17:01:48.247057 31012 net.cpp:434] relu5_1 <- conv5_1
I0323 17:01:48.247063 31012 net.cpp:395] relu5_1 -> conv5_1 (in-place)
I0323 17:01:48.247225 31012 net.cpp:150] Setting up relu5_1
I0323 17:01:48.247248 31012 net.cpp:157] Top shape: 1 512 19 19 (184832)
I0323 17:01:48.247252 31012 net.cpp:165] Memory required for data: 221871232
I0323 17:01:48.247256 31012 layer_factory.hpp:77] Creating layer conv5_2_depthwise
I0323 17:01:48.247265 31012 net.cpp:100] Creating Layer conv5_2_depthwise
I0323 17:01:48.247268 31012 net.cpp:434] conv5_2_depthwise <- conv5_1
I0323 17:01:48.247278 31012 net.cpp:408] conv5_2_depthwise -> conv5_2_3x3
I0323 17:01:48.247539 31012 net.cpp:150] Setting up conv5_2_depthwise
I0323 17:01:48.247546 31012 net.cpp:157] Top shape: 1 512 19 19 (184832)
I0323 17:01:48.247550 31012 net.cpp:165] Memory required for data: 222610560
I0323 17:01:48.247555 31012 layer_factory.hpp:77] Creating layer conv5_2_3x3_relu
I0323 17:01:48.247560 31012 net.cpp:100] Creating Layer conv5_2_3x3_relu
I0323 17:01:48.247565 31012 net.cpp:434] conv5_2_3x3_relu <- conv5_2_3x3
I0323 17:01:48.247568 31012 net.cpp:395] conv5_2_3x3_relu -> conv5_2_3x3 (in-place)
I0323 17:01:48.248287 31012 net.cpp:150] Setting up conv5_2_3x3_relu
I0323 17:01:48.248297 31012 net.cpp:157] Top shape: 1 512 19 19 (184832)
I0323 17:01:48.248301 31012 net.cpp:165] Memory required for data: 223349888
I0323 17:01:48.248306 31012 layer_factory.hpp:77] Creating layer conv5_2_1x1
I0323 17:01:48.248317 31012 net.cpp:100] Creating Layer conv5_2_1x1
I0323 17:01:48.248320 31012 net.cpp:434] conv5_2_1x1 <- conv5_2_3x3
I0323 17:01:48.248327 31012 net.cpp:408] conv5_2_1x1 -> conv5_2
I0323 17:01:48.251230 31012 net.cpp:150] Setting up conv5_2_1x1
I0323 17:01:48.251241 31012 net.cpp:157] Top shape: 1 512 19 19 (184832)
I0323 17:01:48.251245 31012 net.cpp:165] Memory required for data: 224089216
I0323 17:01:48.251251 31012 layer_factory.hpp:77] Creating layer relu5_2
I0323 17:01:48.251258 31012 net.cpp:100] Creating Layer relu5_2
I0323 17:01:48.251262 31012 net.cpp:434] relu5_2 <- conv5_2
I0323 17:01:48.251267 31012 net.cpp:395] relu5_2 -> conv5_2 (in-place)
I0323 17:01:48.251441 31012 net.cpp:150] Setting up relu5_2
I0323 17:01:48.251449 31012 net.cpp:157] Top shape: 1 512 19 19 (184832)
I0323 17:01:48.251453 31012 net.cpp:165] Memory required for data: 224828544
I0323 17:01:48.251457 31012 layer_factory.hpp:77] Creating layer conv5_3_depthwise
I0323 17:01:48.251464 31012 net.cpp:100] Creating Layer conv5_3_depthwise
I0323 17:01:48.251467 31012 net.cpp:434] conv5_3_depthwise <- conv5_2
I0323 17:01:48.251474 31012 net.cpp:408] conv5_3_depthwise -> conv5_3_3x3
I0323 17:01:48.251729 31012 net.cpp:150] Setting up conv5_3_depthwise
I0323 17:01:48.251736 31012 net.cpp:157] Top shape: 1 512 19 19 (184832)
I0323 17:01:48.251739 31012 net.cpp:165] Memory required for data: 225567872
I0323 17:01:48.251745 31012 layer_factory.hpp:77] Creating layer conv5_3_3x3_relu
I0323 17:01:48.251750 31012 net.cpp:100] Creating Layer conv5_3_3x3_relu
I0323 17:01:48.251754 31012 net.cpp:434] conv5_3_3x3_relu <- conv5_3_3x3
I0323 17:01:48.251760 31012 net.cpp:395] conv5_3_3x3_relu -> conv5_3_3x3 (in-place)
I0323 17:01:48.251922 31012 net.cpp:150] Setting up conv5_3_3x3_relu
I0323 17:01:48.251929 31012 net.cpp:157] Top shape: 1 512 19 19 (184832)
I0323 17:01:48.251932 31012 net.cpp:165] Memory required for data: 226307200
I0323 17:01:48.251936 31012 layer_factory.hpp:77] Creating layer conv5_3_1x1
I0323 17:01:48.251945 31012 net.cpp:100] Creating Layer conv5_3_1x1
I0323 17:01:48.251950 31012 net.cpp:434] conv5_3_1x1 <- conv5_3_3x3
I0323 17:01:48.251956 31012 net.cpp:408] conv5_3_1x1 -> conv5_3
I0323 17:01:48.255162 31012 net.cpp:150] Setting up conv5_3_1x1
I0323 17:01:48.255173 31012 net.cpp:157] Top shape: 1 512 19 19 (184832)
I0323 17:01:48.255177 31012 net.cpp:165] Memory required for data: 227046528
I0323 17:01:48.255189 31012 layer_factory.hpp:77] Creating layer relu5_3
I0323 17:01:48.255198 31012 net.cpp:100] Creating Layer relu5_3
I0323 17:01:48.255201 31012 net.cpp:434] relu5_3 <- conv5_3
I0323 17:01:48.255208 31012 net.cpp:395] relu5_3 -> conv5_3 (in-place)
I0323 17:01:48.255903 31012 net.cpp:150] Setting up relu5_3
I0323 17:01:48.255913 31012 net.cpp:157] Top shape: 1 512 19 19 (184832)
I0323 17:01:48.255930 31012 net.cpp:165] Memory required for data: 227785856
I0323 17:01:48.255935 31012 layer_factory.hpp:77] Creating layer pool5
I0323 17:01:48.255942 31012 net.cpp:100] Creating Layer pool5
I0323 17:01:48.255945 31012 net.cpp:434] pool5 <- conv5_3
I0323 17:01:48.255952 31012 net.cpp:408] pool5 -> pool5
I0323 17:01:48.256006 31012 net.cpp:150] Setting up pool5
I0323 17:01:48.256013 31012 net.cpp:157] Top shape: 1 512 19 19 (184832)
I0323 17:01:48.256016 31012 net.cpp:165] Memory required for data: 228525184
I0323 17:01:48.256021 31012 layer_factory.hpp:77] Creating layer fc6_depthwise
I0323 17:01:48.256028 31012 net.cpp:100] Creating Layer fc6_depthwise
I0323 17:01:48.256031 31012 net.cpp:434] fc6_depthwise <- pool5
I0323 17:01:48.256036 31012 net.cpp:408] fc6_depthwise -> fc6_3x3
I0323 17:01:48.256294 31012 net.cpp:150] Setting up fc6_depthwise
I0323 17:01:48.256300 31012 net.cpp:157] Top shape: 1 512 19 19 (184832)
I0323 17:01:48.256304 31012 net.cpp:165] Memory required for data: 229264512
I0323 17:01:48.256309 31012 layer_factory.hpp:77] Creating layer fc6_3x3_relu
I0323 17:01:48.256314 31012 net.cpp:100] Creating Layer fc6_3x3_relu
I0323 17:01:48.256319 31012 net.cpp:434] fc6_3x3_relu <- fc6_3x3
I0323 17:01:48.256325 31012 net.cpp:395] fc6_3x3_relu -> fc6_3x3 (in-place)
I0323 17:01:48.256487 31012 net.cpp:150] Setting up fc6_3x3_relu
I0323 17:01:48.256495 31012 net.cpp:157] Top shape: 1 512 19 19 (184832)
I0323 17:01:48.256498 31012 net.cpp:165] Memory required for data: 230003840
I0323 17:01:48.256502 31012 layer_factory.hpp:77] Creating layer fc6_1x1
I0323 17:01:48.256510 31012 net.cpp:100] Creating Layer fc6_1x1
I0323 17:01:48.256515 31012 net.cpp:434] fc6_1x1 <- fc6_3x3
I0323 17:01:48.256521 31012 net.cpp:408] fc6_1x1 -> fc6
I0323 17:01:48.259702 31012 net.cpp:150] Setting up fc6_1x1
I0323 17:01:48.259714 31012 net.cpp:157] Top shape: 1 1024 19 19 (369664)
I0323 17:01:48.259718 31012 net.cpp:165] Memory required for data: 231482496
I0323 17:01:48.259726 31012 layer_factory.hpp:77] Creating layer relu6
I0323 17:01:48.259732 31012 net.cpp:100] Creating Layer relu6
I0323 17:01:48.259735 31012 net.cpp:434] relu6 <- fc6
I0323 17:01:48.259740 31012 net.cpp:395] relu6 -> fc6 (in-place)
I0323 17:01:48.259925 31012 net.cpp:150] Setting up relu6
I0323 17:01:48.259932 31012 net.cpp:157] Top shape: 1 1024 19 19 (369664)
I0323 17:01:48.259935 31012 net.cpp:165] Memory required for data: 232961152
I0323 17:01:48.259939 31012 layer_factory.hpp:77] Creating layer fc7
I0323 17:01:48.259948 31012 net.cpp:100] Creating Layer fc7
I0323 17:01:48.259953 31012 net.cpp:434] fc7 <- fc6
I0323 17:01:48.259958 31012 net.cpp:408] fc7 -> fc7
I0323 17:01:48.267246 31012 net.cpp:150] Setting up fc7
I0323 17:01:48.267268 31012 net.cpp:157] Top shape: 1 1024 19 19 (369664)
I0323 17:01:48.267271 31012 net.cpp:165] Memory required for data: 234439808
I0323 17:01:48.267280 31012 layer_factory.hpp:77] Creating layer relu7
I0323 17:01:48.267289 31012 net.cpp:100] Creating Layer relu7
I0323 17:01:48.267297 31012 net.cpp:434] relu7 <- fc7
I0323 17:01:48.267303 31012 net.cpp:395] relu7 -> fc7 (in-place)
I0323 17:01:48.267468 31012 net.cpp:150] Setting up relu7
I0323 17:01:48.267477 31012 net.cpp:157] Top shape: 1 1024 19 19 (369664)
I0323 17:01:48.267479 31012 net.cpp:165] Memory required for data: 235918464
I0323 17:01:48.267483 31012 layer_factory.hpp:77] Creating layer fc7_relu7_0_split
I0323 17:01:48.267490 31012 net.cpp:100] Creating Layer fc7_relu7_0_split
I0323 17:01:48.267494 31012 net.cpp:434] fc7_relu7_0_split <- fc7
I0323 17:01:48.267500 31012 net.cpp:408] fc7_relu7_0_split -> fc7_relu7_0_split_0
I0323 17:01:48.267508 31012 net.cpp:408] fc7_relu7_0_split -> fc7_relu7_0_split_1
I0323 17:01:48.267513 31012 net.cpp:408] fc7_relu7_0_split -> fc7_relu7_0_split_2
I0323 17:01:48.267518 31012 net.cpp:408] fc7_relu7_0_split -> fc7_relu7_0_split_3
I0323 17:01:48.267585 31012 net.cpp:150] Setting up fc7_relu7_0_split
I0323 17:01:48.267591 31012 net.cpp:157] Top shape: 1 1024 19 19 (369664)
I0323 17:01:48.267612 31012 net.cpp:157] Top shape: 1 1024 19 19 (369664)
I0323 17:01:48.267616 31012 net.cpp:157] Top shape: 1 1024 19 19 (369664)
I0323 17:01:48.267621 31012 net.cpp:157] Top shape: 1 1024 19 19 (369664)
I0323 17:01:48.267623 31012 net.cpp:165] Memory required for data: 241833088
I0323 17:01:48.267627 31012 layer_factory.hpp:77] Creating layer conv6_1
I0323 17:01:48.267638 31012 net.cpp:100] Creating Layer conv6_1
I0323 17:01:48.267642 31012 net.cpp:434] conv6_1 <- fc7_relu7_0_split_0
I0323 17:01:48.267649 31012 net.cpp:408] conv6_1 -> conv6_1
I0323 17:01:48.270064 31012 net.cpp:150] Setting up conv6_1
I0323 17:01:48.270076 31012 net.cpp:157] Top shape: 1 256 19 19 (92416)
I0323 17:01:48.270081 31012 net.cpp:165] Memory required for data: 242202752
I0323 17:01:48.270087 31012 layer_factory.hpp:77] Creating layer conv6_1_relu
I0323 17:01:48.270092 31012 net.cpp:100] Creating Layer conv6_1_relu
I0323 17:01:48.270097 31012 net.cpp:434] conv6_1_relu <- conv6_1
I0323 17:01:48.270102 31012 net.cpp:395] conv6_1_relu -> conv6_1 (in-place)
I0323 17:01:48.270802 31012 net.cpp:150] Setting up conv6_1_relu
I0323 17:01:48.270812 31012 net.cpp:157] Top shape: 1 256 19 19 (92416)
I0323 17:01:48.270815 31012 net.cpp:165] Memory required for data: 242572416
I0323 17:01:48.270819 31012 layer_factory.hpp:77] Creating layer conv6_2_depthwise
I0323 17:01:48.270828 31012 net.cpp:100] Creating Layer conv6_2_depthwise
I0323 17:01:48.270833 31012 net.cpp:434] conv6_2_depthwise <- conv6_1
I0323 17:01:48.270841 31012 net.cpp:408] conv6_2_depthwise -> conv6_2_3x3
I0323 17:01:48.271104 31012 net.cpp:150] Setting up conv6_2_depthwise
I0323 17:01:48.271111 31012 net.cpp:157] Top shape: 1 256 10 10 (25600)
I0323 17:01:48.271116 31012 net.cpp:165] Memory required for data: 242674816
I0323 17:01:48.271121 31012 layer_factory.hpp:77] Creating layer conv6_2_3x3_relu
I0323 17:01:48.271127 31012 net.cpp:100] Creating Layer conv6_2_3x3_relu
I0323 17:01:48.271131 31012 net.cpp:434] conv6_2_3x3_relu <- conv6_2_3x3
I0323 17:01:48.271136 31012 net.cpp:395] conv6_2_3x3_relu -> conv6_2_3x3 (in-place)
I0323 17:01:48.271297 31012 net.cpp:150] Setting up conv6_2_3x3_relu
I0323 17:01:48.271306 31012 net.cpp:157] Top shape: 1 256 10 10 (25600)
I0323 17:01:48.271308 31012 net.cpp:165] Memory required for data: 242777216
I0323 17:01:48.271311 31012 layer_factory.hpp:77] Creating layer conv6_2_1x1
I0323 17:01:48.271320 31012 net.cpp:100] Creating Layer conv6_2_1x1
I0323 17:01:48.271324 31012 net.cpp:434] conv6_2_1x1 <- conv6_2_3x3
I0323 17:01:48.271330 31012 net.cpp:408] conv6_2_1x1 -> conv6_2
I0323 17:01:48.273195 31012 net.cpp:150] Setting up conv6_2_1x1
I0323 17:01:48.273205 31012 net.cpp:157] Top shape: 1 512 10 10 (51200)
I0323 17:01:48.273210 31012 net.cpp:165] Memory required for data: 242982016
I0323 17:01:48.273216 31012 layer_factory.hpp:77] Creating layer conv6_2_relu
I0323 17:01:48.273222 31012 net.cpp:100] Creating Layer conv6_2_relu
I0323 17:01:48.273226 31012 net.cpp:434] conv6_2_relu <- conv6_2
I0323 17:01:48.273231 31012 net.cpp:395] conv6_2_relu -> conv6_2 (in-place)
I0323 17:01:48.273396 31012 net.cpp:150] Setting up conv6_2_relu
I0323 17:01:48.273403 31012 net.cpp:157] Top shape: 1 512 10 10 (51200)
I0323 17:01:48.273406 31012 net.cpp:165] Memory required for data: 243186816
I0323 17:01:48.273411 31012 layer_factory.hpp:77] Creating layer conv6_2_conv6_2_relu_0_split
I0323 17:01:48.273417 31012 net.cpp:100] Creating Layer conv6_2_conv6_2_relu_0_split
I0323 17:01:48.273422 31012 net.cpp:434] conv6_2_conv6_2_relu_0_split <- conv6_2
I0323 17:01:48.273427 31012 net.cpp:408] conv6_2_conv6_2_relu_0_split -> conv6_2_conv6_2_relu_0_split_0
I0323 17:01:48.273434 31012 net.cpp:408] conv6_2_conv6_2_relu_0_split -> conv6_2_conv6_2_relu_0_split_1
I0323 17:01:48.273440 31012 net.cpp:408] conv6_2_conv6_2_relu_0_split -> conv6_2_conv6_2_relu_0_split_2
I0323 17:01:48.273445 31012 net.cpp:408] conv6_2_conv6_2_relu_0_split -> conv6_2_conv6_2_relu_0_split_3
I0323 17:01:48.273514 31012 net.cpp:150] Setting up conv6_2_conv6_2_relu_0_split
I0323 17:01:48.273519 31012 net.cpp:157] Top shape: 1 512 10 10 (51200)
I0323 17:01:48.273532 31012 net.cpp:157] Top shape: 1 512 10 10 (51200)
I0323 17:01:48.273536 31012 net.cpp:157] Top shape: 1 512 10 10 (51200)
I0323 17:01:48.273540 31012 net.cpp:157] Top shape: 1 512 10 10 (51200)
I0323 17:01:48.273545 31012 net.cpp:165] Memory required for data: 244006016
I0323 17:01:48.273547 31012 layer_factory.hpp:77] Creating layer conv7_1
I0323 17:01:48.273557 31012 net.cpp:100] Creating Layer conv7_1
I0323 17:01:48.273561 31012 net.cpp:434] conv7_1 <- conv6_2_conv6_2_relu_0_split_0
I0323 17:01:48.273567 31012 net.cpp:408] conv7_1 -> conv7_1
I0323 17:01:48.275174 31012 net.cpp:150] Setting up conv7_1
I0323 17:01:48.275184 31012 net.cpp:157] Top shape: 1 128 10 10 (12800)
I0323 17:01:48.275188 31012 net.cpp:165] Memory required for data: 244057216
I0323 17:01:48.275195 31012 layer_factory.hpp:77] Creating layer conv7_1_relu
I0323 17:01:48.275202 31012 net.cpp:100] Creating Layer conv7_1_relu
I0323 17:01:48.275205 31012 net.cpp:434] conv7_1_relu <- conv7_1
I0323 17:01:48.275213 31012 net.cpp:395] conv7_1_relu -> conv7_1 (in-place)
I0323 17:01:48.275908 31012 net.cpp:150] Setting up conv7_1_relu
I0323 17:01:48.275918 31012 net.cpp:157] Top shape: 1 128 10 10 (12800)
I0323 17:01:48.275921 31012 net.cpp:165] Memory required for data: 244108416
I0323 17:01:48.275925 31012 layer_factory.hpp:77] Creating layer conv7_2
I0323 17:01:48.275940 31012 net.cpp:100] Creating Layer conv7_2
I0323 17:01:48.275944 31012 net.cpp:434] conv7_2 <- conv7_1
I0323 17:01:48.275950 31012 net.cpp:408] conv7_2 -> conv7_2
I0323 17:01:48.279417 31012 net.cpp:150] Setting up conv7_2
I0323 17:01:48.279433 31012 net.cpp:157] Top shape: 1 256 5 5 (6400)
I0323 17:01:48.279436 31012 net.cpp:165] Memory required for data: 244134016
I0323 17:01:48.279443 31012 layer_factory.hpp:77] Creating layer conv7_2_relu
I0323 17:01:48.279451 31012 net.cpp:100] Creating Layer conv7_2_relu
I0323 17:01:48.279456 31012 net.cpp:434] conv7_2_relu <- conv7_2
I0323 17:01:48.279461 31012 net.cpp:395] conv7_2_relu -> conv7_2 (in-place)
I0323 17:01:48.279621 31012 net.cpp:150] Setting up conv7_2_relu
I0323 17:01:48.279628 31012 net.cpp:157] Top shape: 1 256 5 5 (6400)
I0323 17:01:48.279633 31012 net.cpp:165] Memory required for data: 244159616
I0323 17:01:48.279635 31012 layer_factory.hpp:77] Creating layer conv7_2_conv7_2_relu_0_split
I0323 17:01:48.279642 31012 net.cpp:100] Creating Layer conv7_2_conv7_2_relu_0_split
I0323 17:01:48.279646 31012 net.cpp:434] conv7_2_conv7_2_relu_0_split <- conv7_2
I0323 17:01:48.279654 31012 net.cpp:408] conv7_2_conv7_2_relu_0_split -> conv7_2_conv7_2_relu_0_split_0
I0323 17:01:48.279660 31012 net.cpp:408] conv7_2_conv7_2_relu_0_split -> conv7_2_conv7_2_relu_0_split_1
I0323 17:01:48.279666 31012 net.cpp:408] conv7_2_conv7_2_relu_0_split -> conv7_2_conv7_2_relu_0_split_2
I0323 17:01:48.279672 31012 net.cpp:408] conv7_2_conv7_2_relu_0_split -> conv7_2_conv7_2_relu_0_split_3
I0323 17:01:48.279742 31012 net.cpp:150] Setting up conv7_2_conv7_2_relu_0_split
I0323 17:01:48.279747 31012 net.cpp:157] Top shape: 1 256 5 5 (6400)
I0323 17:01:48.279750 31012 net.cpp:157] Top shape: 1 256 5 5 (6400)
I0323 17:01:48.279755 31012 net.cpp:157] Top shape: 1 256 5 5 (6400)
I0323 17:01:48.279759 31012 net.cpp:157] Top shape: 1 256 5 5 (6400)
I0323 17:01:48.279762 31012 net.cpp:165] Memory required for data: 244262016
I0323 17:01:48.279765 31012 layer_factory.hpp:77] Creating layer conv8_1
I0323 17:01:48.279775 31012 net.cpp:100] Creating Layer conv8_1
I0323 17:01:48.279779 31012 net.cpp:434] conv8_1 <- conv7_2_conv7_2_relu_0_split_0
I0323 17:01:48.279786 31012 net.cpp:408] conv8_1 -> conv8_1
I0323 17:01:48.281242 31012 net.cpp:150] Setting up conv8_1
I0323 17:01:48.281258 31012 net.cpp:157] Top shape: 1 128 5 5 (3200)
I0323 17:01:48.281262 31012 net.cpp:165] Memory required for data: 244274816
I0323 17:01:48.281268 31012 layer_factory.hpp:77] Creating layer conv8_1_relu
I0323 17:01:48.281273 31012 net.cpp:100] Creating Layer conv8_1_relu
I0323 17:01:48.281278 31012 net.cpp:434] conv8_1_relu <- conv8_1
I0323 17:01:48.281299 31012 net.cpp:395] conv8_1_relu -> conv8_1 (in-place)
I0323 17:01:48.281463 31012 net.cpp:150] Setting up conv8_1_relu
I0323 17:01:48.281471 31012 net.cpp:157] Top shape: 1 128 5 5 (3200)
I0323 17:01:48.281473 31012 net.cpp:165] Memory required for data: 244287616
I0323 17:01:48.281477 31012 layer_factory.hpp:77] Creating layer conv8_2
I0323 17:01:48.281487 31012 net.cpp:100] Creating Layer conv8_2
I0323 17:01:48.281491 31012 net.cpp:434] conv8_2 <- conv8_1
I0323 17:01:48.281497 31012 net.cpp:408] conv8_2 -> conv8_2
I0323 17:01:48.285387 31012 net.cpp:150] Setting up conv8_2
I0323 17:01:48.285400 31012 net.cpp:157] Top shape: 1 256 3 3 (2304)
I0323 17:01:48.285404 31012 net.cpp:165] Memory required for data: 244296832
I0323 17:01:48.285411 31012 layer_factory.hpp:77] Creating layer conv8_2_relu
I0323 17:01:48.285425 31012 net.cpp:100] Creating Layer conv8_2_relu
I0323 17:01:48.285429 31012 net.cpp:434] conv8_2_relu <- conv8_2
I0323 17:01:48.285435 31012 net.cpp:395] conv8_2_relu -> conv8_2 (in-place)
I0323 17:01:48.286149 31012 net.cpp:150] Setting up conv8_2_relu
I0323 17:01:48.286159 31012 net.cpp:157] Top shape: 1 256 3 3 (2304)
I0323 17:01:48.286164 31012 net.cpp:165] Memory required for data: 244306048
I0323 17:01:48.286167 31012 layer_factory.hpp:77] Creating layer conv8_2_conv8_2_relu_0_split
I0323 17:01:48.286173 31012 net.cpp:100] Creating Layer conv8_2_conv8_2_relu_0_split
I0323 17:01:48.286178 31012 net.cpp:434] conv8_2_conv8_2_relu_0_split <- conv8_2
I0323 17:01:48.286185 31012 net.cpp:408] conv8_2_conv8_2_relu_0_split -> conv8_2_conv8_2_relu_0_split_0
I0323 17:01:48.286191 31012 net.cpp:408] conv8_2_conv8_2_relu_0_split -> conv8_2_conv8_2_relu_0_split_1
I0323 17:01:48.286196 31012 net.cpp:408] conv8_2_conv8_2_relu_0_split -> conv8_2_conv8_2_relu_0_split_2
I0323 17:01:48.286204 31012 net.cpp:408] conv8_2_conv8_2_relu_0_split -> conv8_2_conv8_2_relu_0_split_3
I0323 17:01:48.286278 31012 net.cpp:150] Setting up conv8_2_conv8_2_relu_0_split
I0323 17:01:48.286283 31012 net.cpp:157] Top shape: 1 256 3 3 (2304)
I0323 17:01:48.286288 31012 net.cpp:157] Top shape: 1 256 3 3 (2304)
I0323 17:01:48.286291 31012 net.cpp:157] Top shape: 1 256 3 3 (2304)
I0323 17:01:48.286295 31012 net.cpp:157] Top shape: 1 256 3 3 (2304)
I0323 17:01:48.286298 31012 net.cpp:165] Memory required for data: 244342912
I0323 17:01:48.286303 31012 layer_factory.hpp:77] Creating layer conv9_1
I0323 17:01:48.286311 31012 net.cpp:100] Creating Layer conv9_1
I0323 17:01:48.286314 31012 net.cpp:434] conv9_1 <- conv8_2_conv8_2_relu_0_split_0
I0323 17:01:48.286321 31012 net.cpp:408] conv9_1 -> conv9_1
I0323 17:01:48.288626 31012 net.cpp:150] Setting up conv9_1
I0323 17:01:48.288640 31012 net.cpp:157] Top shape: 1 128 3 3 (1152)
I0323 17:01:48.288642 31012 net.cpp:165] Memory required for data: 244347520
I0323 17:01:48.288650 31012 layer_factory.hpp:77] Creating layer conv9_1_relu
I0323 17:01:48.288657 31012 net.cpp:100] Creating Layer conv9_1_relu
I0323 17:01:48.288662 31012 net.cpp:434] conv9_1_relu <- conv9_1
I0323 17:01:48.288667 31012 net.cpp:395] conv9_1_relu -> conv9_1 (in-place)
I0323 17:01:48.288833 31012 net.cpp:150] Setting up conv9_1_relu
I0323 17:01:48.288841 31012 net.cpp:157] Top shape: 1 128 3 3 (1152)
I0323 17:01:48.288846 31012 net.cpp:165] Memory required for data: 244352128
I0323 17:01:48.288848 31012 layer_factory.hpp:77] Creating layer conv9_2
I0323 17:01:48.288857 31012 net.cpp:100] Creating Layer conv9_2
I0323 17:01:48.288861 31012 net.cpp:434] conv9_2 <- conv9_1
I0323 17:01:48.288870 31012 net.cpp:408] conv9_2 -> conv9_2
I0323 17:01:48.292829 31012 net.cpp:150] Setting up conv9_2
I0323 17:01:48.292841 31012 net.cpp:157] Top shape: 1 256 1 1 (256)
I0323 17:01:48.292845 31012 net.cpp:165] Memory required for data: 244353152
I0323 17:01:48.292852 31012 layer_factory.hpp:77] Creating layer conv9_2_relu
I0323 17:01:48.292858 31012 net.cpp:100] Creating Layer conv9_2_relu
I0323 17:01:48.292862 31012 net.cpp:434] conv9_2_relu <- conv9_2
I0323 17:01:48.292870 31012 net.cpp:395] conv9_2_relu -> conv9_2 (in-place)
I0323 17:01:48.293066 31012 net.cpp:150] Setting up conv9_2_relu
I0323 17:01:48.293073 31012 net.cpp:157] Top shape: 1 256 1 1 (256)
I0323 17:01:48.293076 31012 net.cpp:165] Memory required for data: 244354176
I0323 17:01:48.293081 31012 layer_factory.hpp:77] Creating layer conv9_2_conv9_2_relu_0_split
I0323 17:01:48.293087 31012 net.cpp:100] Creating Layer conv9_2_conv9_2_relu_0_split
I0323 17:01:48.293090 31012 net.cpp:434] conv9_2_conv9_2_relu_0_split <- conv9_2
I0323 17:01:48.293097 31012 net.cpp:408] conv9_2_conv9_2_relu_0_split -> conv9_2_conv9_2_relu_0_split_0
I0323 17:01:48.293103 31012 net.cpp:408] conv9_2_conv9_2_relu_0_split -> conv9_2_conv9_2_relu_0_split_1
I0323 17:01:48.293110 31012 net.cpp:408] conv9_2_conv9_2_relu_0_split -> conv9_2_conv9_2_relu_0_split_2
I0323 17:01:48.293170 31012 net.cpp:150] Setting up conv9_2_conv9_2_relu_0_split
I0323 17:01:48.293175 31012 net.cpp:157] Top shape: 1 256 1 1 (256)
I0323 17:01:48.293179 31012 net.cpp:157] Top shape: 1 256 1 1 (256)
I0323 17:01:48.293184 31012 net.cpp:157] Top shape: 1 256 1 1 (256)
I0323 17:01:48.293186 31012 net.cpp:165] Memory required for data: 244357248
I0323 17:01:48.293190 31012 layer_factory.hpp:77] Creating layer conv4_3_norm
I0323 17:01:48.293198 31012 net.cpp:100] Creating Layer conv4_3_norm
I0323 17:01:48.293203 31012 net.cpp:434] conv4_3_norm <- conv4_3_relu4_3_0_split_1
I0323 17:01:48.293208 31012 net.cpp:408] conv4_3_norm -> conv4_3_norm
I0323 17:01:48.293401 31012 net.cpp:150] Setting up conv4_3_norm
I0323 17:01:48.293409 31012 net.cpp:157] Top shape: 1 512 38 38 (739328)
I0323 17:01:48.293413 31012 net.cpp:165] Memory required for data: 247314560
I0323 17:01:48.293418 31012 layer_factory.hpp:77] Creating layer conv4_3_norm_conv4_3_norm_0_split
I0323 17:01:48.293424 31012 net.cpp:100] Creating Layer conv4_3_norm_conv4_3_norm_0_split
I0323 17:01:48.293428 31012 net.cpp:434] conv4_3_norm_conv4_3_norm_0_split <- conv4_3_norm
I0323 17:01:48.293434 31012 net.cpp:408] conv4_3_norm_conv4_3_norm_0_split -> conv4_3_norm_conv4_3_norm_0_split_0
I0323 17:01:48.293440 31012 net.cpp:408] conv4_3_norm_conv4_3_norm_0_split -> conv4_3_norm_conv4_3_norm_0_split_1
I0323 17:01:48.293445 31012 net.cpp:408] conv4_3_norm_conv4_3_norm_0_split -> conv4_3_norm_conv4_3_norm_0_split_2
I0323 17:01:48.293493 31012 net.cpp:150] Setting up conv4_3_norm_conv4_3_norm_0_split
I0323 17:01:48.293499 31012 net.cpp:157] Top shape: 1 512 38 38 (739328)
I0323 17:01:48.293503 31012 net.cpp:157] Top shape: 1 512 38 38 (739328)
I0323 17:01:48.293507 31012 net.cpp:157] Top shape: 1 512 38 38 (739328)
I0323 17:01:48.293511 31012 net.cpp:165] Memory required for data: 256186496
I0323 17:01:48.293514 31012 layer_factory.hpp:77] Creating layer conv4_3_norm_mbox_loc
I0323 17:01:48.293524 31012 net.cpp:100] Creating Layer conv4_3_norm_mbox_loc
I0323 17:01:48.293529 31012 net.cpp:434] conv4_3_norm_mbox_loc <- conv4_3_norm_conv4_3_norm_0_split_0
I0323 17:01:48.293535 31012 net.cpp:408] conv4_3_norm_mbox_loc -> conv4_3_norm_mbox_loc
I0323 17:01:48.296368 31012 net.cpp:150] Setting up conv4_3_norm_mbox_loc
I0323 17:01:48.296380 31012 net.cpp:157] Top shape: 1 16 38 38 (23104)
I0323 17:01:48.296382 31012 net.cpp:165] Memory required for data: 256278912
I0323 17:01:48.296389 31012 layer_factory.hpp:77] Creating layer conv4_3_norm_mbox_loc_perm
I0323 17:01:48.296397 31012 net.cpp:100] Creating Layer conv4_3_norm_mbox_loc_perm
I0323 17:01:48.296401 31012 net.cpp:434] conv4_3_norm_mbox_loc_perm <- conv4_3_norm_mbox_loc
I0323 17:01:48.296408 31012 net.cpp:408] conv4_3_norm_mbox_loc_perm -> conv4_3_norm_mbox_loc_perm
I0323 17:01:48.296530 31012 net.cpp:150] Setting up conv4_3_norm_mbox_loc_perm
I0323 17:01:48.296536 31012 net.cpp:157] Top shape: 1 38 38 16 (23104)
I0323 17:01:48.296540 31012 net.cpp:165] Memory required for data: 256371328
I0323 17:01:48.296542 31012 layer_factory.hpp:77] Creating layer conv4_3_norm_mbox_loc_flat
I0323 17:01:48.296550 31012 net.cpp:100] Creating Layer conv4_3_norm_mbox_loc_flat
I0323 17:01:48.296555 31012 net.cpp:434] conv4_3_norm_mbox_loc_flat <- conv4_3_norm_mbox_loc_perm
I0323 17:01:48.296567 31012 net.cpp:408] conv4_3_norm_mbox_loc_flat -> conv4_3_norm_mbox_loc_flat
I0323 17:01:48.296598 31012 net.cpp:150] Setting up conv4_3_norm_mbox_loc_flat
I0323 17:01:48.296604 31012 net.cpp:157] Top shape: 1 23104 (23104)
I0323 17:01:48.296608 31012 net.cpp:165] Memory required for data: 256463744
I0323 17:01:48.296613 31012 layer_factory.hpp:77] Creating layer conv4_3_norm_mbox_conf
I0323 17:01:48.296622 31012 net.cpp:100] Creating Layer conv4_3_norm_mbox_conf
I0323 17:01:48.296627 31012 net.cpp:434] conv4_3_norm_mbox_conf <- conv4_3_norm_conv4_3_norm_0_split_1
I0323 17:01:48.296634 31012 net.cpp:408] conv4_3_norm_mbox_conf -> conv4_3_norm_mbox_conf
I0323 17:01:48.299537 31012 net.cpp:150] Setting up conv4_3_norm_mbox_conf
I0323 17:01:48.299554 31012 net.cpp:157] Top shape: 1 44 38 38 (63536)
I0323 17:01:48.299558 31012 net.cpp:165] Memory required for data: 256717888
I0323 17:01:48.299566 31012 layer_factory.hpp:77] Creating layer conv4_3_norm_mbox_conf_perm
I0323 17:01:48.299572 31012 net.cpp:100] Creating Layer conv4_3_norm_mbox_conf_perm
I0323 17:01:48.299577 31012 net.cpp:434] conv4_3_norm_mbox_conf_perm <- conv4_3_norm_mbox_conf
I0323 17:01:48.299584 31012 net.cpp:408] conv4_3_norm_mbox_conf_perm -> conv4_3_norm_mbox_conf_perm
I0323 17:01:48.299702 31012 net.cpp:150] Setting up conv4_3_norm_mbox_conf_perm
I0323 17:01:48.299710 31012 net.cpp:157] Top shape: 1 38 38 44 (63536)
I0323 17:01:48.299713 31012 net.cpp:165] Memory required for data: 256972032
I0323 17:01:48.299717 31012 layer_factory.hpp:77] Creating layer conv4_3_norm_mbox_conf_flat
I0323 17:01:48.299723 31012 net.cpp:100] Creating Layer conv4_3_norm_mbox_conf_flat
I0323 17:01:48.299727 31012 net.cpp:434] conv4_3_norm_mbox_conf_flat <- conv4_3_norm_mbox_conf_perm
I0323 17:01:48.299733 31012 net.cpp:408] conv4_3_norm_mbox_conf_flat -> conv4_3_norm_mbox_conf_flat
I0323 17:01:48.299758 31012 net.cpp:150] Setting up conv4_3_norm_mbox_conf_flat
I0323 17:01:48.299764 31012 net.cpp:157] Top shape: 1 63536 (63536)
I0323 17:01:48.299767 31012 net.cpp:165] Memory required for data: 257226176
I0323 17:01:48.299772 31012 layer_factory.hpp:77] Creating layer conv4_3_norm_mbox_priorbox
I0323 17:01:48.299779 31012 net.cpp:100] Creating Layer conv4_3_norm_mbox_priorbox
I0323 17:01:48.299783 31012 net.cpp:434] conv4_3_norm_mbox_priorbox <- conv4_3_norm_conv4_3_norm_0_split_2
I0323 17:01:48.299788 31012 net.cpp:434] conv4_3_norm_mbox_priorbox <- data_data_0_split_1
I0323 17:01:48.299794 31012 net.cpp:408] conv4_3_norm_mbox_priorbox -> conv4_3_norm_mbox_priorbox
I0323 17:01:48.299824 31012 net.cpp:150] Setting up conv4_3_norm_mbox_priorbox
I0323 17:01:48.299831 31012 net.cpp:157] Top shape: 1 2 23104 (46208)
I0323 17:01:48.299834 31012 net.cpp:165] Memory required for data: 257411008
I0323 17:01:48.299837 31012 layer_factory.hpp:77] Creating layer fc7_mbox_loc
I0323 17:01:48.299849 31012 net.cpp:100] Creating Layer fc7_mbox_loc
I0323 17:01:48.299854 31012 net.cpp:434] fc7_mbox_loc <- fc7_relu7_0_split_1
I0323 17:01:48.299859 31012 net.cpp:408] fc7_mbox_loc -> fc7_mbox_loc
I0323 17:01:48.302709 31012 net.cpp:150] Setting up fc7_mbox_loc
I0323 17:01:48.302721 31012 net.cpp:157] Top shape: 1 24 19 19 (8664)
I0323 17:01:48.302724 31012 net.cpp:165] Memory required for data: 257445664
I0323 17:01:48.302739 31012 layer_factory.hpp:77] Creating layer fc7_mbox_loc_perm
I0323 17:01:48.302747 31012 net.cpp:100] Creating Layer fc7_mbox_loc_perm
I0323 17:01:48.302752 31012 net.cpp:434] fc7_mbox_loc_perm <- fc7_mbox_loc
I0323 17:01:48.302757 31012 net.cpp:408] fc7_mbox_loc_perm -> fc7_mbox_loc_perm
I0323 17:01:48.302873 31012 net.cpp:150] Setting up fc7_mbox_loc_perm
I0323 17:01:48.302881 31012 net.cpp:157] Top shape: 1 19 19 24 (8664)
I0323 17:01:48.302883 31012 net.cpp:165] Memory required for data: 257480320
I0323 17:01:48.302887 31012 layer_factory.hpp:77] Creating layer fc7_mbox_loc_flat
I0323 17:01:48.302893 31012 net.cpp:100] Creating Layer fc7_mbox_loc_flat
I0323 17:01:48.302896 31012 net.cpp:434] fc7_mbox_loc_flat <- fc7_mbox_loc_perm
I0323 17:01:48.302917 31012 net.cpp:408] fc7_mbox_loc_flat -> fc7_mbox_loc_flat
I0323 17:01:48.302945 31012 net.cpp:150] Setting up fc7_mbox_loc_flat
I0323 17:01:48.302951 31012 net.cpp:157] Top shape: 1 8664 (8664)
I0323 17:01:48.302954 31012 net.cpp:165] Memory required for data: 257514976
I0323 17:01:48.302958 31012 layer_factory.hpp:77] Creating layer fc7_mbox_conf
I0323 17:01:48.302968 31012 net.cpp:100] Creating Layer fc7_mbox_conf
I0323 17:01:48.302971 31012 net.cpp:434] fc7_mbox_conf <- fc7_relu7_0_split_2
I0323 17:01:48.302976 31012 net.cpp:408] fc7_mbox_conf -> fc7_mbox_conf
I0323 17:01:48.308298 31012 net.cpp:150] Setting up fc7_mbox_conf
I0323 17:01:48.308312 31012 net.cpp:157] Top shape: 1 66 19 19 (23826)
I0323 17:01:48.308316 31012 net.cpp:165] Memory required for data: 257610280
I0323 17:01:48.308323 31012 layer_factory.hpp:77] Creating layer fc7_mbox_conf_perm
I0323 17:01:48.308331 31012 net.cpp:100] Creating Layer fc7_mbox_conf_perm
I0323 17:01:48.308334 31012 net.cpp:434] fc7_mbox_conf_perm <- fc7_mbox_conf
I0323 17:01:48.308341 31012 net.cpp:408] fc7_mbox_conf_perm -> fc7_mbox_conf_perm
I0323 17:01:48.308460 31012 net.cpp:150] Setting up fc7_mbox_conf_perm
I0323 17:01:48.308468 31012 net.cpp:157] Top shape: 1 19 19 66 (23826)
I0323 17:01:48.308471 31012 net.cpp:165] Memory required for data: 257705584
I0323 17:01:48.308475 31012 layer_factory.hpp:77] Creating layer fc7_mbox_conf_flat
I0323 17:01:48.308480 31012 net.cpp:100] Creating Layer fc7_mbox_conf_flat
I0323 17:01:48.308485 31012 net.cpp:434] fc7_mbox_conf_flat <- fc7_mbox_conf_perm
I0323 17:01:48.308491 31012 net.cpp:408] fc7_mbox_conf_flat -> fc7_mbox_conf_flat
I0323 17:01:48.308517 31012 net.cpp:150] Setting up fc7_mbox_conf_flat
I0323 17:01:48.308523 31012 net.cpp:157] Top shape: 1 23826 (23826)
I0323 17:01:48.308526 31012 net.cpp:165] Memory required for data: 257800888
I0323 17:01:48.308531 31012 layer_factory.hpp:77] Creating layer fc7_mbox_priorbox
I0323 17:01:48.308537 31012 net.cpp:100] Creating Layer fc7_mbox_priorbox
I0323 17:01:48.308540 31012 net.cpp:434] fc7_mbox_priorbox <- fc7_relu7_0_split_3
I0323 17:01:48.308545 31012 net.cpp:434] fc7_mbox_priorbox <- data_data_0_split_2
I0323 17:01:48.308552 31012 net.cpp:408] fc7_mbox_priorbox -> fc7_mbox_priorbox
I0323 17:01:48.308583 31012 net.cpp:150] Setting up fc7_mbox_priorbox
I0323 17:01:48.308588 31012 net.cpp:157] Top shape: 1 2 8664 (17328)
I0323 17:01:48.308591 31012 net.cpp:165] Memory required for data: 257870200
I0323 17:01:48.308594 31012 layer_factory.hpp:77] Creating layer conv6_2_mbox_loc
I0323 17:01:48.308604 31012 net.cpp:100] Creating Layer conv6_2_mbox_loc
I0323 17:01:48.308609 31012 net.cpp:434] conv6_2_mbox_loc <- conv6_2_conv6_2_relu_0_split_1
I0323 17:01:48.308614 31012 net.cpp:408] conv6_2_mbox_loc -> conv6_2_mbox_loc
I0323 17:01:48.310997 31012 net.cpp:150] Setting up conv6_2_mbox_loc
I0323 17:01:48.311008 31012 net.cpp:157] Top shape: 1 24 10 10 (2400)
I0323 17:01:48.311012 31012 net.cpp:165] Memory required for data: 257879800
I0323 17:01:48.311019 31012 layer_factory.hpp:77] Creating layer conv6_2_mbox_loc_perm
I0323 17:01:48.311026 31012 net.cpp:100] Creating Layer conv6_2_mbox_loc_perm
I0323 17:01:48.311030 31012 net.cpp:434] conv6_2_mbox_loc_perm <- conv6_2_mbox_loc
I0323 17:01:48.311036 31012 net.cpp:408] conv6_2_mbox_loc_perm -> conv6_2_mbox_loc_perm
I0323 17:01:48.311157 31012 net.cpp:150] Setting up conv6_2_mbox_loc_perm
I0323 17:01:48.311166 31012 net.cpp:157] Top shape: 1 10 10 24 (2400)
I0323 17:01:48.311168 31012 net.cpp:165] Memory required for data: 257889400
I0323 17:01:48.311172 31012 layer_factory.hpp:77] Creating layer conv6_2_mbox_loc_flat
I0323 17:01:48.311178 31012 net.cpp:100] Creating Layer conv6_2_mbox_loc_flat
I0323 17:01:48.311182 31012 net.cpp:434] conv6_2_mbox_loc_flat <- conv6_2_mbox_loc_perm
I0323 17:01:48.311188 31012 net.cpp:408] conv6_2_mbox_loc_flat -> conv6_2_mbox_loc_flat
I0323 17:01:48.311213 31012 net.cpp:150] Setting up conv6_2_mbox_loc_flat
I0323 17:01:48.311219 31012 net.cpp:157] Top shape: 1 2400 (2400)
I0323 17:01:48.311223 31012 net.cpp:165] Memory required for data: 257899000
I0323 17:01:48.311237 31012 layer_factory.hpp:77] Creating layer conv6_2_mbox_conf
I0323 17:01:48.311249 31012 net.cpp:100] Creating Layer conv6_2_mbox_conf
I0323 17:01:48.311252 31012 net.cpp:434] conv6_2_mbox_conf <- conv6_2_conv6_2_relu_0_split_2
I0323 17:01:48.311259 31012 net.cpp:408] conv6_2_mbox_conf -> conv6_2_mbox_conf
I0323 17:01:48.315227 31012 net.cpp:150] Setting up conv6_2_mbox_conf
I0323 17:01:48.315238 31012 net.cpp:157] Top shape: 1 66 10 10 (6600)
I0323 17:01:48.315243 31012 net.cpp:165] Memory required for data: 257925400
I0323 17:01:48.315249 31012 layer_factory.hpp:77] Creating layer conv6_2_mbox_conf_perm
I0323 17:01:48.315258 31012 net.cpp:100] Creating Layer conv6_2_mbox_conf_perm
I0323 17:01:48.315263 31012 net.cpp:434] conv6_2_mbox_conf_perm <- conv6_2_mbox_conf
I0323 17:01:48.315268 31012 net.cpp:408] conv6_2_mbox_conf_perm -> conv6_2_mbox_conf_perm
I0323 17:01:48.315384 31012 net.cpp:150] Setting up conv6_2_mbox_conf_perm
I0323 17:01:48.315390 31012 net.cpp:157] Top shape: 1 10 10 66 (6600)
I0323 17:01:48.315393 31012 net.cpp:165] Memory required for data: 257951800
I0323 17:01:48.315397 31012 layer_factory.hpp:77] Creating layer conv6_2_mbox_conf_flat
I0323 17:01:48.315404 31012 net.cpp:100] Creating Layer conv6_2_mbox_conf_flat
I0323 17:01:48.315408 31012 net.cpp:434] conv6_2_mbox_conf_flat <- conv6_2_mbox_conf_perm
I0323 17:01:48.315412 31012 net.cpp:408] conv6_2_mbox_conf_flat -> conv6_2_mbox_conf_flat
I0323 17:01:48.315439 31012 net.cpp:150] Setting up conv6_2_mbox_conf_flat
I0323 17:01:48.315445 31012 net.cpp:157] Top shape: 1 6600 (6600)
I0323 17:01:48.315448 31012 net.cpp:165] Memory required for data: 257978200
I0323 17:01:48.315451 31012 layer_factory.hpp:77] Creating layer conv6_2_mbox_priorbox
I0323 17:01:48.315459 31012 net.cpp:100] Creating Layer conv6_2_mbox_priorbox
I0323 17:01:48.315464 31012 net.cpp:434] conv6_2_mbox_priorbox <- conv6_2_conv6_2_relu_0_split_3
I0323 17:01:48.315467 31012 net.cpp:434] conv6_2_mbox_priorbox <- data_data_0_split_3
I0323 17:01:48.315472 31012 net.cpp:408] conv6_2_mbox_priorbox -> conv6_2_mbox_priorbox
I0323 17:01:48.315502 31012 net.cpp:150] Setting up conv6_2_mbox_priorbox
I0323 17:01:48.315508 31012 net.cpp:157] Top shape: 1 2 2400 (4800)
I0323 17:01:48.315512 31012 net.cpp:165] Memory required for data: 257997400
I0323 17:01:48.315515 31012 layer_factory.hpp:77] Creating layer conv7_2_mbox_loc
I0323 17:01:48.315524 31012 net.cpp:100] Creating Layer conv7_2_mbox_loc
I0323 17:01:48.315529 31012 net.cpp:434] conv7_2_mbox_loc <- conv7_2_conv7_2_relu_0_split_1
I0323 17:01:48.315538 31012 net.cpp:408] conv7_2_mbox_loc -> conv7_2_mbox_loc
I0323 17:01:48.318229 31012 net.cpp:150] Setting up conv7_2_mbox_loc
I0323 17:01:48.318241 31012 net.cpp:157] Top shape: 1 24 5 5 (600)
I0323 17:01:48.318245 31012 net.cpp:165] Memory required for data: 257999800
I0323 17:01:48.318251 31012 layer_factory.hpp:77] Creating layer conv7_2_mbox_loc_perm
I0323 17:01:48.318259 31012 net.cpp:100] Creating Layer conv7_2_mbox_loc_perm
I0323 17:01:48.318264 31012 net.cpp:434] conv7_2_mbox_loc_perm <- conv7_2_mbox_loc
I0323 17:01:48.318271 31012 net.cpp:408] conv7_2_mbox_loc_perm -> conv7_2_mbox_loc_perm
I0323 17:01:48.318392 31012 net.cpp:150] Setting up conv7_2_mbox_loc_perm
I0323 17:01:48.318398 31012 net.cpp:157] Top shape: 1 5 5 24 (600)
I0323 17:01:48.318403 31012 net.cpp:165] Memory required for data: 258002200
I0323 17:01:48.318405 31012 layer_factory.hpp:77] Creating layer conv7_2_mbox_loc_flat
I0323 17:01:48.318411 31012 net.cpp:100] Creating Layer conv7_2_mbox_loc_flat
I0323 17:01:48.318415 31012 net.cpp:434] conv7_2_mbox_loc_flat <- conv7_2_mbox_loc_perm
I0323 17:01:48.318421 31012 net.cpp:408] conv7_2_mbox_loc_flat -> conv7_2_mbox_loc_flat
I0323 17:01:48.318449 31012 net.cpp:150] Setting up conv7_2_mbox_loc_flat
I0323 17:01:48.318454 31012 net.cpp:157] Top shape: 1 600 (600)
I0323 17:01:48.318457 31012 net.cpp:165] Memory required for data: 258004600
I0323 17:01:48.318460 31012 layer_factory.hpp:77] Creating layer conv7_2_mbox_conf
I0323 17:01:48.318485 31012 net.cpp:100] Creating Layer conv7_2_mbox_conf
I0323 17:01:48.318490 31012 net.cpp:434] conv7_2_mbox_conf <- conv7_2_conv7_2_relu_0_split_2
I0323 17:01:48.318495 31012 net.cpp:408] conv7_2_mbox_conf -> conv7_2_mbox_conf
I0323 17:01:48.321033 31012 net.cpp:150] Setting up conv7_2_mbox_conf
I0323 17:01:48.321044 31012 net.cpp:157] Top shape: 1 66 5 5 (1650)
I0323 17:01:48.321048 31012 net.cpp:165] Memory required for data: 258011200
I0323 17:01:48.321054 31012 layer_factory.hpp:77] Creating layer conv7_2_mbox_conf_perm
I0323 17:01:48.321060 31012 net.cpp:100] Creating Layer conv7_2_mbox_conf_perm
I0323 17:01:48.321065 31012 net.cpp:434] conv7_2_mbox_conf_perm <- conv7_2_mbox_conf
I0323 17:01:48.321071 31012 net.cpp:408] conv7_2_mbox_conf_perm -> conv7_2_mbox_conf_perm
I0323 17:01:48.321189 31012 net.cpp:150] Setting up conv7_2_mbox_conf_perm
I0323 17:01:48.321197 31012 net.cpp:157] Top shape: 1 5 5 66 (1650)
I0323 17:01:48.321199 31012 net.cpp:165] Memory required for data: 258017800
I0323 17:01:48.321202 31012 layer_factory.hpp:77] Creating layer conv7_2_mbox_conf_flat
I0323 17:01:48.321209 31012 net.cpp:100] Creating Layer conv7_2_mbox_conf_flat
I0323 17:01:48.321213 31012 net.cpp:434] conv7_2_mbox_conf_flat <- conv7_2_mbox_conf_perm
I0323 17:01:48.321219 31012 net.cpp:408] conv7_2_mbox_conf_flat -> conv7_2_mbox_conf_flat
I0323 17:01:48.321245 31012 net.cpp:150] Setting up conv7_2_mbox_conf_flat
I0323 17:01:48.321251 31012 net.cpp:157] Top shape: 1 1650 (1650)
I0323 17:01:48.321254 31012 net.cpp:165] Memory required for data: 258024400
I0323 17:01:48.321259 31012 layer_factory.hpp:77] Creating layer conv7_2_mbox_priorbox
I0323 17:01:48.321265 31012 net.cpp:100] Creating Layer conv7_2_mbox_priorbox
I0323 17:01:48.321269 31012 net.cpp:434] conv7_2_mbox_priorbox <- conv7_2_conv7_2_relu_0_split_3
I0323 17:01:48.321274 31012 net.cpp:434] conv7_2_mbox_priorbox <- data_data_0_split_4
I0323 17:01:48.321280 31012 net.cpp:408] conv7_2_mbox_priorbox -> conv7_2_mbox_priorbox
I0323 17:01:48.321310 31012 net.cpp:150] Setting up conv7_2_mbox_priorbox
I0323 17:01:48.321316 31012 net.cpp:157] Top shape: 1 2 600 (1200)
I0323 17:01:48.321319 31012 net.cpp:165] Memory required for data: 258029200
I0323 17:01:48.321322 31012 layer_factory.hpp:77] Creating layer conv8_2_mbox_loc
I0323 17:01:48.321331 31012 net.cpp:100] Creating Layer conv8_2_mbox_loc
I0323 17:01:48.321334 31012 net.cpp:434] conv8_2_mbox_loc <- conv8_2_conv8_2_relu_0_split_1
I0323 17:01:48.321342 31012 net.cpp:408] conv8_2_mbox_loc -> conv8_2_mbox_loc
I0323 17:01:48.322877 31012 net.cpp:150] Setting up conv8_2_mbox_loc
I0323 17:01:48.322887 31012 net.cpp:157] Top shape: 1 16 3 3 (144)
I0323 17:01:48.322891 31012 net.cpp:165] Memory required for data: 258029776
I0323 17:01:48.322897 31012 layer_factory.hpp:77] Creating layer conv8_2_mbox_loc_perm
I0323 17:01:48.322904 31012 net.cpp:100] Creating Layer conv8_2_mbox_loc_perm
I0323 17:01:48.322908 31012 net.cpp:434] conv8_2_mbox_loc_perm <- conv8_2_mbox_loc
I0323 17:01:48.322916 31012 net.cpp:408] conv8_2_mbox_loc_perm -> conv8_2_mbox_loc_perm
I0323 17:01:48.323037 31012 net.cpp:150] Setting up conv8_2_mbox_loc_perm
I0323 17:01:48.323043 31012 net.cpp:157] Top shape: 1 3 3 16 (144)
I0323 17:01:48.323046 31012 net.cpp:165] Memory required for data: 258030352
I0323 17:01:48.323050 31012 layer_factory.hpp:77] Creating layer conv8_2_mbox_loc_flat
I0323 17:01:48.323056 31012 net.cpp:100] Creating Layer conv8_2_mbox_loc_flat
I0323 17:01:48.323061 31012 net.cpp:434] conv8_2_mbox_loc_flat <- conv8_2_mbox_loc_perm
I0323 17:01:48.323066 31012 net.cpp:408] conv8_2_mbox_loc_flat -> conv8_2_mbox_loc_flat
I0323 17:01:48.323092 31012 net.cpp:150] Setting up conv8_2_mbox_loc_flat
I0323 17:01:48.323098 31012 net.cpp:157] Top shape: 1 144 (144)
I0323 17:01:48.323101 31012 net.cpp:165] Memory required for data: 258030928
I0323 17:01:48.323104 31012 layer_factory.hpp:77] Creating layer conv8_2_mbox_conf
I0323 17:01:48.323114 31012 net.cpp:100] Creating Layer conv8_2_mbox_conf
I0323 17:01:48.323118 31012 net.cpp:434] conv8_2_mbox_conf <- conv8_2_conv8_2_relu_0_split_2
I0323 17:01:48.323135 31012 net.cpp:408] conv8_2_mbox_conf -> conv8_2_mbox_conf
I0323 17:01:48.325459 31012 net.cpp:150] Setting up conv8_2_mbox_conf
I0323 17:01:48.325469 31012 net.cpp:157] Top shape: 1 44 3 3 (396)
I0323 17:01:48.325471 31012 net.cpp:165] Memory required for data: 258032512
I0323 17:01:48.325479 31012 layer_factory.hpp:77] Creating layer conv8_2_mbox_conf_perm
I0323 17:01:48.325485 31012 net.cpp:100] Creating Layer conv8_2_mbox_conf_perm
I0323 17:01:48.325490 31012 net.cpp:434] conv8_2_mbox_conf_perm <- conv8_2_mbox_conf
I0323 17:01:48.325495 31012 net.cpp:408] conv8_2_mbox_conf_perm -> conv8_2_mbox_conf_perm
I0323 17:01:48.325613 31012 net.cpp:150] Setting up conv8_2_mbox_conf_perm
I0323 17:01:48.325618 31012 net.cpp:157] Top shape: 1 3 3 44 (396)
I0323 17:01:48.325621 31012 net.cpp:165] Memory required for data: 258034096
I0323 17:01:48.325625 31012 layer_factory.hpp:77] Creating layer conv8_2_mbox_conf_flat
I0323 17:01:48.325632 31012 net.cpp:100] Creating Layer conv8_2_mbox_conf_flat
I0323 17:01:48.325635 31012 net.cpp:434] conv8_2_mbox_conf_flat <- conv8_2_mbox_conf_perm
I0323 17:01:48.325640 31012 net.cpp:408] conv8_2_mbox_conf_flat -> conv8_2_mbox_conf_flat
I0323 17:01:48.325667 31012 net.cpp:150] Setting up conv8_2_mbox_conf_flat
I0323 17:01:48.325673 31012 net.cpp:157] Top shape: 1 396 (396)
I0323 17:01:48.325676 31012 net.cpp:165] Memory required for data: 258035680
I0323 17:01:48.325680 31012 layer_factory.hpp:77] Creating layer conv8_2_mbox_priorbox
I0323 17:01:48.325686 31012 net.cpp:100] Creating Layer conv8_2_mbox_priorbox
I0323 17:01:48.325690 31012 net.cpp:434] conv8_2_mbox_priorbox <- conv8_2_conv8_2_relu_0_split_3
I0323 17:01:48.325695 31012 net.cpp:434] conv8_2_mbox_priorbox <- data_data_0_split_5
I0323 17:01:48.325700 31012 net.cpp:408] conv8_2_mbox_priorbox -> conv8_2_mbox_priorbox
I0323 17:01:48.325744 31012 net.cpp:150] Setting up conv8_2_mbox_priorbox
I0323 17:01:48.325752 31012 net.cpp:157] Top shape: 1 2 144 (288)
I0323 17:01:48.325755 31012 net.cpp:165] Memory required for data: 258036832
I0323 17:01:48.325759 31012 layer_factory.hpp:77] Creating layer conv9_2_mbox_loc
I0323 17:01:48.325770 31012 net.cpp:100] Creating Layer conv9_2_mbox_loc
I0323 17:01:48.325774 31012 net.cpp:434] conv9_2_mbox_loc <- conv9_2_conv9_2_relu_0_split_0
I0323 17:01:48.325780 31012 net.cpp:408] conv9_2_mbox_loc -> conv9_2_mbox_loc
I0323 17:01:48.327303 31012 net.cpp:150] Setting up conv9_2_mbox_loc
I0323 17:01:48.327314 31012 net.cpp:157] Top shape: 1 16 1 1 (16)
I0323 17:01:48.327317 31012 net.cpp:165] Memory required for data: 258036896
I0323 17:01:48.327323 31012 layer_factory.hpp:77] Creating layer conv9_2_mbox_loc_perm
I0323 17:01:48.327332 31012 net.cpp:100] Creating Layer conv9_2_mbox_loc_perm
I0323 17:01:48.327337 31012 net.cpp:434] conv9_2_mbox_loc_perm <- conv9_2_mbox_loc
I0323 17:01:48.327342 31012 net.cpp:408] conv9_2_mbox_loc_perm -> conv9_2_mbox_loc_perm
I0323 17:01:48.327455 31012 net.cpp:150] Setting up conv9_2_mbox_loc_perm
I0323 17:01:48.327461 31012 net.cpp:157] Top shape: 1 1 1 16 (16)
I0323 17:01:48.327463 31012 net.cpp:165] Memory required for data: 258036960
I0323 17:01:48.327467 31012 layer_factory.hpp:77] Creating layer conv9_2_mbox_loc_flat
I0323 17:01:48.327476 31012 net.cpp:100] Creating Layer conv9_2_mbox_loc_flat
I0323 17:01:48.327481 31012 net.cpp:434] conv9_2_mbox_loc_flat <- conv9_2_mbox_loc_perm
I0323 17:01:48.327486 31012 net.cpp:408] conv9_2_mbox_loc_flat -> conv9_2_mbox_loc_flat
I0323 17:01:48.327512 31012 net.cpp:150] Setting up conv9_2_mbox_loc_flat
I0323 17:01:48.327517 31012 net.cpp:157] Top shape: 1 16 (16)
I0323 17:01:48.327520 31012 net.cpp:165] Memory required for data: 258037024
I0323 17:01:48.327524 31012 layer_factory.hpp:77] Creating layer conv9_2_mbox_conf
I0323 17:01:48.327535 31012 net.cpp:100] Creating Layer conv9_2_mbox_conf
I0323 17:01:48.327539 31012 net.cpp:434] conv9_2_mbox_conf <- conv9_2_conv9_2_relu_0_split_1
I0323 17:01:48.327544 31012 net.cpp:408] conv9_2_mbox_conf -> conv9_2_mbox_conf
I0323 17:01:48.329910 31012 net.cpp:150] Setting up conv9_2_mbox_conf
I0323 17:01:48.329921 31012 net.cpp:157] Top shape: 1 44 1 1 (44)
I0323 17:01:48.329923 31012 net.cpp:165] Memory required for data: 258037200
I0323 17:01:48.329929 31012 layer_factory.hpp:77] Creating layer conv9_2_mbox_conf_perm
I0323 17:01:48.329937 31012 net.cpp:100] Creating Layer conv9_2_mbox_conf_perm
I0323 17:01:48.329942 31012 net.cpp:434] conv9_2_mbox_conf_perm <- conv9_2_mbox_conf
I0323 17:01:48.329949 31012 net.cpp:408] conv9_2_mbox_conf_perm -> conv9_2_mbox_conf_perm
I0323 17:01:48.330068 31012 net.cpp:150] Setting up conv9_2_mbox_conf_perm
I0323 17:01:48.330076 31012 net.cpp:157] Top shape: 1 1 1 44 (44)
I0323 17:01:48.330080 31012 net.cpp:165] Memory required for data: 258037376
I0323 17:01:48.330082 31012 layer_factory.hpp:77] Creating layer conv9_2_mbox_conf_flat
I0323 17:01:48.330088 31012 net.cpp:100] Creating Layer conv9_2_mbox_conf_flat
I0323 17:01:48.330092 31012 net.cpp:434] conv9_2_mbox_conf_flat <- conv9_2_mbox_conf_perm
I0323 17:01:48.330097 31012 net.cpp:408] conv9_2_mbox_conf_flat -> conv9_2_mbox_conf_flat
I0323 17:01:48.330126 31012 net.cpp:150] Setting up conv9_2_mbox_conf_flat
I0323 17:01:48.330132 31012 net.cpp:157] Top shape: 1 44 (44)
I0323 17:01:48.330135 31012 net.cpp:165] Memory required for data: 258037552
I0323 17:01:48.330138 31012 layer_factory.hpp:77] Creating layer conv9_2_mbox_priorbox
I0323 17:01:48.330145 31012 net.cpp:100] Creating Layer conv9_2_mbox_priorbox
I0323 17:01:48.330148 31012 net.cpp:434] conv9_2_mbox_priorbox <- conv9_2_conv9_2_relu_0_split_2
I0323 17:01:48.330153 31012 net.cpp:434] conv9_2_mbox_priorbox <- data_data_0_split_6
I0323 17:01:48.330160 31012 net.cpp:408] conv9_2_mbox_priorbox -> conv9_2_mbox_priorbox
I0323 17:01:48.330188 31012 net.cpp:150] Setting up conv9_2_mbox_priorbox
I0323 17:01:48.330194 31012 net.cpp:157] Top shape: 1 2 16 (32)
I0323 17:01:48.330199 31012 net.cpp:165] Memory required for data: 258037680
I0323 17:01:48.330202 31012 layer_factory.hpp:77] Creating layer mbox_loc
I0323 17:01:48.330209 31012 net.cpp:100] Creating Layer mbox_loc
I0323 17:01:48.330212 31012 net.cpp:434] mbox_loc <- conv4_3_norm_mbox_loc_flat
I0323 17:01:48.330217 31012 net.cpp:434] mbox_loc <- fc7_mbox_loc_flat
I0323 17:01:48.330222 31012 net.cpp:434] mbox_loc <- conv6_2_mbox_loc_flat
I0323 17:01:48.330226 31012 net.cpp:434] mbox_loc <- conv7_2_mbox_loc_flat
I0323 17:01:48.330230 31012 net.cpp:434] mbox_loc <- conv8_2_mbox_loc_flat
I0323 17:01:48.330235 31012 net.cpp:434] mbox_loc <- conv9_2_mbox_loc_flat
I0323 17:01:48.330240 31012 net.cpp:408] mbox_loc -> mbox_loc
I0323 17:01:48.330271 31012 net.cpp:150] Setting up mbox_loc
I0323 17:01:48.330276 31012 net.cpp:157] Top shape: 1 34928 (34928)
I0323 17:01:48.330278 31012 net.cpp:165] Memory required for data: 258177392
I0323 17:01:48.330282 31012 layer_factory.hpp:77] Creating layer mbox_conf
I0323 17:01:48.330287 31012 net.cpp:100] Creating Layer mbox_conf
I0323 17:01:48.330291 31012 net.cpp:434] mbox_conf <- conv4_3_norm_mbox_conf_flat
I0323 17:01:48.330296 31012 net.cpp:434] mbox_conf <- fc7_mbox_conf_flat
I0323 17:01:48.330302 31012 net.cpp:434] mbox_conf <- conv6_2_mbox_conf_flat
I0323 17:01:48.330305 31012 net.cpp:434] mbox_conf <- conv7_2_mbox_conf_flat
I0323 17:01:48.330309 31012 net.cpp:434] mbox_conf <- conv8_2_mbox_conf_flat
I0323 17:01:48.330313 31012 net.cpp:434] mbox_conf <- conv9_2_mbox_conf_flat
I0323 17:01:48.330318 31012 net.cpp:408] mbox_conf -> mbox_conf
I0323 17:01:48.330345 31012 net.cpp:150] Setting up mbox_conf
I0323 17:01:48.330350 31012 net.cpp:157] Top shape: 1 96052 (96052)
I0323 17:01:48.330353 31012 net.cpp:165] Memory required for data: 258561600
I0323 17:01:48.330358 31012 layer_factory.hpp:77] Creating layer mbox_priorbox
I0323 17:01:48.330363 31012 net.cpp:100] Creating Layer mbox_priorbox
I0323 17:01:48.330365 31012 net.cpp:434] mbox_priorbox <- conv4_3_norm_mbox_priorbox
I0323 17:01:48.330370 31012 net.cpp:434] mbox_priorbox <- fc7_mbox_priorbox
I0323 17:01:48.330375 31012 net.cpp:434] mbox_priorbox <- conv6_2_mbox_priorbox
I0323 17:01:48.330387 31012 net.cpp:434] mbox_priorbox <- conv7_2_mbox_priorbox
I0323 17:01:48.330391 31012 net.cpp:434] mbox_priorbox <- conv8_2_mbox_priorbox
I0323 17:01:48.330394 31012 net.cpp:434] mbox_priorbox <- conv9_2_mbox_priorbox
I0323 17:01:48.330400 31012 net.cpp:408] mbox_priorbox -> mbox_priorbox
I0323 17:01:48.330428 31012 net.cpp:150] Setting up mbox_priorbox
I0323 17:01:48.330435 31012 net.cpp:157] Top shape: 1 2 34928 (69856)
I0323 17:01:48.330437 31012 net.cpp:165] Memory required for data: 258841024
I0323 17:01:48.330441 31012 layer_factory.hpp:77] Creating layer mbox_conf_reshape
I0323 17:01:48.330447 31012 net.cpp:100] Creating Layer mbox_conf_reshape
I0323 17:01:48.330451 31012 net.cpp:434] mbox_conf_reshape <- mbox_conf
I0323 17:01:48.330457 31012 net.cpp:408] mbox_conf_reshape -> mbox_conf_reshape
I0323 17:01:48.330492 31012 net.cpp:150] Setting up mbox_conf_reshape
I0323 17:01:48.330497 31012 net.cpp:157] Top shape: 1 8732 11 (96052)
I0323 17:01:48.330502 31012 net.cpp:165] Memory required for data: 259225232
I0323 17:01:48.330504 31012 layer_factory.hpp:77] Creating layer mbox_conf_softmax
I0323 17:01:48.330513 31012 net.cpp:100] Creating Layer mbox_conf_softmax
I0323 17:01:48.330516 31012 net.cpp:434] mbox_conf_softmax <- mbox_conf_reshape
I0323 17:01:48.330523 31012 net.cpp:408] mbox_conf_softmax -> mbox_conf_softmax
I0323 17:01:48.330770 31012 net.cpp:150] Setting up mbox_conf_softmax
I0323 17:01:48.330778 31012 net.cpp:157] Top shape: 1 8732 11 (96052)
I0323 17:01:48.330781 31012 net.cpp:165] Memory required for data: 259609440
I0323 17:01:48.330785 31012 layer_factory.hpp:77] Creating layer mbox_conf_flatten
I0323 17:01:48.330790 31012 net.cpp:100] Creating Layer mbox_conf_flatten
I0323 17:01:48.330794 31012 net.cpp:434] mbox_conf_flatten <- mbox_conf_softmax
I0323 17:01:48.330801 31012 net.cpp:408] mbox_conf_flatten -> mbox_conf_flatten
I0323 17:01:48.330830 31012 net.cpp:150] Setting up mbox_conf_flatten
I0323 17:01:48.330835 31012 net.cpp:157] Top shape: 1 96052 (96052)
I0323 17:01:48.330839 31012 net.cpp:165] Memory required for data: 259993648
I0323 17:01:48.330842 31012 layer_factory.hpp:77] Creating layer detection_out
I0323 17:01:48.330855 31012 net.cpp:100] Creating Layer detection_out
I0323 17:01:48.330859 31012 net.cpp:434] detection_out <- mbox_loc
I0323 17:01:48.330863 31012 net.cpp:434] detection_out <- mbox_conf_flatten
I0323 17:01:48.330868 31012 net.cpp:434] detection_out <- mbox_priorbox
I0323 17:01:48.330874 31012 net.cpp:408] detection_out -> detection_out
W0323 17:01:48.330900 31012 detection_output_layer.cpp:49] Failed to create directory: /home/zs/data/VOCdevkit/results/VOC2007/SSD_300x300_0323_conv6/Main
I0323 17:01:48.335510 31012 net.cpp:150] Setting up detection_out
I0323 17:01:48.335521 31012 net.cpp:157] Top shape: 1 1 1 7 (7)
I0323 17:01:48.335525 31012 net.cpp:165] Memory required for data: 259993676
I0323 17:01:48.335530 31012 layer_factory.hpp:77] Creating layer detection_eval
I0323 17:01:48.335538 31012 net.cpp:100] Creating Layer detection_eval
I0323 17:01:48.335542 31012 net.cpp:434] detection_eval <- detection_out
I0323 17:01:48.335547 31012 net.cpp:434] detection_eval <- label
I0323 17:01:48.335552 31012 net.cpp:408] detection_eval -> detection_eval
I0323 17:01:48.335635 31012 net.cpp:150] Setting up detection_eval
I0323 17:01:48.335642 31012 net.cpp:157] Top shape: 1 1 11 5 (55)
I0323 17:01:48.335645 31012 net.cpp:165] Memory required for data: 259993896
I0323 17:01:48.335649 31012 net.cpp:228] detection_eval does not need backward computation.
I0323 17:01:48.335654 31012 net.cpp:228] detection_out does not need backward computation.
I0323 17:01:48.335659 31012 net.cpp:228] mbox_conf_flatten does not need backward computation.
I0323 17:01:48.335661 31012 net.cpp:228] mbox_conf_softmax does not need backward computation.
…
