…
      sampler {
        min_scale: 0.3
        max_scale: 1
        min_aspect_ratio: 0.5
        max_aspect_ratio: 2
      }
      sample_constraint {
        min_jaccard_overlap: 0.9
      }
      max_sample: 1
      max_trials: 50
    }
    batch_sampler {
      sampler {
        min_scale: 0.3
        max_scale: 1
        min_aspect_ratio: 0.5
        max_aspect_ratio: 2
      }
      sample_constraint {
        max_jaccard_overlap: 1
      }
      max_sample: 1
      max_trials: 50
    }
    label_map_file: "data/NWPU_VHR/labelmap_NWPU_VHR.prototxt"
  }
}
layer {
  name: "conv1_1"
  type: "Convolution"
  bottom: "data"
  top: "conv1_1"
  param {
    lr_mult: 1
    decay_mult: 1
  }
  param {
    lr_mult: 2
    decay_mult: 0
  }
  convolution_param {
    num_output: 64
    pad: 1
    kernel_size: 3
    weight_filler {
      type: "xavier"
    }
    bias_filler {
      type: "constant"
      value: 0
    }
  }
}
layer {
  name: "relu1_1"
  type: "ReLU"
  bottom: "conv1_1"
  top: "conv1_1"
}
layer {
  name: "conv1_2"
  type: "Convolution"
  bottom: "conv1_1"
  top: "conv1_2"
  param {
    lr_mult: 1
    decay_mult: 1
  }
  param {
    lr_mult: 2
    decay_mult: 0
  }
  convolution_param {
    num_output: 64
    pad: 1
    kernel_size: 3
    weight_filler {
      type: "xavier"
    }
    bias_filler {
      type: "constant"
      value: 0
    }
  }
}
layer {
  name: "relu1_2"
  type: "ReLU"
  bottom: "conv1_2"
  top: "conv1_2"
}
layer {
  name: "pool1"
  type: "Pooling"
  bottom: "conv1_2"
  top: "pool1"
  pooling_param {
    pool: MAX
    kernel_size: 2
    stride: 2
  }
}
layer {
  name: "conv2_1"
  type: "Convolution"
  bottom: "pool1"
  top: "conv2_1"
  param {
    lr_mult: 1
    decay_mult: 1
  }
  param {
    lr_mult: 2
    decay_mult: 0
  }
  convolution_param {
    num_output: 128
    pad: 1
    kernel_size: 3
    weight_filler {
      type: "xavier"
    }
    bias_filler {
      type: "constant"
      value: 0
    }
  }
}
layer {
  name: "relu2_1"
  type: "ReLU"
  bottom: "conv2_1"
  top: "conv2_1"
}
layer {
  name: "conv2_2"
  type: "Convolution"
  bottom: "conv2_1"
  top: "conv2_2"
  param {
    lr_mult: 1
    decay_mult: 1
  }
  param {
    lr_mult: 2
    decay_mult: 0
  }
  convolution_param {
    num_output: 128
    pad: 1
    kernel_size: 3
    weight_filler {
      type: "xavier"
    }
    bias_filler {
      type: "constant"
      value: 0
    }
  }
}
layer {
  name: "relu2_2"
  type: "ReLU"
  bottom: "conv2_2"
  top: "conv2_2"
}
layer {
  name: "pool2"
  type: "Pooling"
  bottom: "conv2_2"
  top: "pool2"
  pooling_param {
    pool: MAX
    kernel_size: 2
    stride: 2
  }
}
layer {
  name: "conv3_1"
  type: "Convolution"
  bottom: "pool2"
  top: "conv3_1"
  param {
    lr_mult: 1
    decay_mult: 1
  }
  param {
    lr_mult: 2
    decay_mult: 0
  }
  convolution_param {
    num_output: 256
    pad: 1
    kernel_size: 3
    weight_filler {
      type: "xavier"
    }
    bias_filler {
      type: "constant"
      value: 0
    }
  }
}
layer {
  name: "relu3_1"
  type: "ReLU"
  bottom: "conv3_1"
  top: "conv3_1"
}
layer {
  name: "conv3_2"
  type: "Convolution"
  bottom: "conv3_1"
  top: "conv3_2"
  param {
    lr_mult: 1
    decay_mult: 1
  }
  param {
    lr_mult: 2
    decay_mult: 0
  }
  convolution_param {
    num_output: 256
    pad: 1
    kernel_size: 3
    weight_filler {
      type: "xavier"
    }
    bias_filler {
      type: "constant"
      value: 0
    }
  }
}
layer {
  name: "relu3_2"
  type: "ReLU"
  bottom: "conv3_2"
  top: "conv3_2"
}
layer {
  name: "conv3_3"
  type: "Convolution"
  bottom: "conv3_2"
  top: "conv3_3"
  param {
    lr_mult: 1
    decay_mult: 1
  }
  param {
    lr_mult: 2
    decay_mult: 0
  }
  convolution_param {
    num_output: 256
    pad: 1
    kernel_size: 3
    weight_filler {
      type: "xavier"
    }
    bias_filler {
      type: "constant"
      value: 0
    }
  }
}
layer {
  name: "relu3_3"
  type: "ReLU"
  bottom: "conv3_3"
  top: "conv3_3"
}
layer {
  name: "pool3"
  type: "Pooling"
  bottom: "conv3_3"
  top: "pool3"
  pooling_param {
    pool: MAX
    kernel_size: 2
    stride: 2
  }
}
layer {
  name: "conv4_1"
  type: "Convolution"
  bottom: "pool3"
  top: "conv4_1"
  param {
    lr_mult: 1
    decay_mult: 1
  }
  param {
    lr_mult: 2
    decay_mult: 0
  }
  convolution_param {
    num_output: 512
    pad: 1
    kernel_size: 3
    weight_filler {
      type: "xavier"
    }
    bias_filler {
      type: "constant"
      value: 0
    }
  }
}
layer {
  name: "relu4_1"
  type: "ReLU"
  bottom: "conv4_1"
  top: "conv4_1"
}
layer {
  name: "conv4_2"
  type: "Convolution"
  bottom: "conv4_1"
  top: "conv4_2"
  param {
    lr_mult: 1
    decay_mult: 1
  }
  param {
    lr_mult: 2
    decay_mult: 0
  }
  convolution_param {
    num_output: 512
    pad: 1
    kernel_size: 3
    weight_filler {
      type: "xavier"
    }
    bias_filler {
      type: "constant"
      value: 0
    }
  }
}
layer {
  name: "relu4_2"
  type: "ReLU"
  bottom: "conv4_2"
  top: "conv4_2"
}
layer {
  name: "conv4_3"
  type: "Convolution"
  bottom: "conv4_2"
  top: "conv4_3"
  param {
    lr_mult: 1
    decay_mult: 1
  }
  param {
    lr_mult: 2
    decay_mult: 0
  }
  convolution_param {
    num_output: 512
    pad: 1
    kernel_size: 3
    weight_filler {
      type: "xavier"
    }
    bias_filler {
      type: "constant"
      value: 0
    }
  }
}
layer {
  name: "relu4_3"
  type: "ReLU"
  bottom: "conv4_3"
  top: "conv4_3"
}
layer {
  name: "pool4"
  type: "Pooling"
  bottom: "conv4_3"
  top: "pool4"
  pooling_param {
    pool: MAX
    kernel_size: 2
    stride: 2
  }
}
layer {
  name: "conv5_1"
  type: "Convolution"
  bottom: "pool4"
  top: "conv5_1"
  param {
    lr_mult: 1
    decay_mult: 1
  }
  param {
    lr_mult: 2
    decay_mult: 0
  }
  convolution_param {
    num_output: 512
    pad: 1
    kernel_size: 3
    weight_filler {
      type: "xavier"
    }
    bias_filler {
      type: "constant"
      value: 0
    }
    dilation: 1
  }
}
layer {
  name: "relu5_1"
  type: "ReLU"
  bottom: "conv5_1"
  top: "conv5_1"
}
layer {
  name: "conv5_2"
  type: "Convolution"
  bottom: "conv5_1"
  top: "conv5_2"
  param {
    lr_mult: 1
    decay_mult: 1
  }
  param {
    lr_mult: 2
    decay_mult: 0
  }
  convolution_param {
    num_output: 512
    pad: 1
    kernel_size: 3
    weight_filler {
      type: "xavier"
    }
    bias_filler {
      type: "constant"
      value: 0
    }
    dilation: 1
  }
}
layer {
  name: "relu5_2"
  type: "ReLU"
  bottom: "conv5_2"
  top: "conv5_2"
}
layer {
  name: "conv5_3_depthwise"
  type: "DepthwiseConvolution"
  bottom: "conv5_2"
  top: "conv5_3_3x3"
  param {
    lr_mult: 1
    decay_mult: 1
  }
  param {
    lr_mult: 2
    decay_mult: 0
  }
  convolution_param {
    num_output: 512
    pad: 1
    kernel_size: 3
    group: 512
    weight_filler {
      type: "xavier"
    }
    bias_filler {
      type: "constant"
      value: 0
    }
    dilation: 1
  }
}
layer {
  name: "conv5_3_3x3_relu"
  type: "ReLU"
  bottom: "conv5_3_3x3"
  top: "conv5_3_3x3"
}
layer {
  name: "conv5_3_1x1"
  type: "Convolution"
  bottom: "conv5_3_3x3"
  top: "conv5_3"
  param {
    lr_mult: 1
    decay_mult: 1
  }
  param {
    lr_mult: 2
    decay_mult: 0
  }
  convolution_param {
    num_output: 512
    pad: 0
    kernel_size: 1
    stride: 1
    weight_filler {
      type: "xavier"
    }
    bias_filler {
      type: "constant"
      value: 0
    }
    dilation: 1
  }
}
layer {
  name: "relu5_3"
  type: "ReLU"
  bottom: "conv5_3"
  top: "conv5_3"
}
layer {
  name: "pool5"
  type: "Pooling"
  bottom: "conv5_3"
  top: "pool5"
  pooling_param {
    pool: MAX
    kernel_size: 3
    stride: 1
    pad: 1
  }
}
layer {
  name: "fc6"
  type: "Convolution"
  bottom: "pool5"
  top: "fc6"
  param {
    lr_mult: 1
    decay_mult: 1
  }
  param {
    lr_mult: 2
    decay_mult: 0
  }
  convolution_param {
    num_output: 1024
    pad: 6
    kernel_size: 3
    weight_filler {
      type: "xavier"
    }
    bias_filler {
      type: "constant"
      value: 0
    }
    dilation: 6
  }
}
layer {
  name: "relu6"
  type: "ReLU"
  bottom: "fc6"
  top: "fc6"
}
layer {
  name: "fc7"
  type: "Convolution"
  bottom: "fc6"
  top: "fc7"
  param {
    lr_mult: 1
    decay_mult: 1
  }
  param {
    lr_mult: 2
    decay_mult: 0
  }
  convolution_param {
    num_output: 1024
    kernel_size: 1
    weight_filler {
      type: "xavier"
    }
    bias_filler {
      type: "constant"
      value: 0
    }
  }
}
layer {
  name: "relu7"
  type: "ReLU"
  bottom: "fc7"
  top: "fc7"
}
layer {
  name: "conv6_1"
  type: "Convolution"
  bottom: "fc7"
  top: "conv6_1"
  param {
    lr_mult: 1
    decay_mult: 1
  }
  param {
    lr_mult: 2
    decay_mult: 0
  }
  convolution_param {
    num_output: 256
    pad: 0
    kernel_size: 1
    stride: 1
    weight_filler {
      type: "xavier"
    }
    bias_filler {
      type: "constant"
      value: 0
    }
  }
}
layer {
  name: "conv6_1_relu"
  type: "ReLU"
  bottom: "conv6_1"
  top: "conv6_1"
}
layer {
  name: "conv6_2"
  type: "Convolution"
  bottom: "conv6_1"
  top: "conv6_2"
  param {
    lr_mult: 1
    decay_mult: 1
  }
  param {
    lr_mult: 2
    decay_mult: 0
  }
  convolution_param {
    num_output: 512
    pad: 1
    kernel_size: 3
    stride: 2
    weight_filler {
      type: "xavier"
    }
    bias_filler {
      type: "constant"
      value: 0
    }
  }
}
layer {
  name: "conv6_2_relu"
  type: "ReLU"
  bottom: "conv6_2"
  top: "conv6_2"
}
layer {
  name: "conv7_1"
  type: "Convolution"
  bottom: "conv6_2"
  top: "conv7_1"
  param {
    lr_mult: 1
    decay_mult: 1
  }
  param {
    lr_mult: 2
    decay_mult: 0
  }
  convolution_param {
    num_output: 128
    pad: 0
    kernel_size: 1
    stride: 1
    weight_filler {
      type: "xavier"
    }
    bias_filler {
      type: "constant"
      value: 0
    }
  }
}
layer {
  name: "conv7_1_relu"
  type: "ReLU"
  bottom: "conv7_1"
  top: "conv7_1"
}
layer {
  name: "conv7_2"
  type: "Convolution"
  bottom: "conv7_1"
  top: "conv7_2"
  param {
    lr_mult: 1
    decay_mult: 1
  }
  param {
    lr_mult: 2
    decay_mult: 0
  }
  convolution_param {
    num_output: 256
    pad: 1
    kernel_size: 3
    stride: 2
    weight_filler {
      type: "xavier"
    }
    bias_filler {
      type: "constant"
      value: 0
    }
  }
}
layer {
  name: "conv7_2_relu"
  type: "ReLU"
  bottom: "conv7_2"
  top: "conv7_2"
}
layer {
  name: "conv8_1"
  type: "Convolution"
  bottom: "conv7_2"
  top: "conv8_1"
  param {
    lr_mult: 1
    decay_mult: 1
  }
  param {
    lr_mult: 2
    decay_mult: 0
  }
  convolution_param {
    num_output: 128
    pad: 0
    kernel_size: 1
    stride: 1
    weight_filler {
      type: "xavier"
    }
    bias_filler {
      type: "constant"
      value: 0
    }
  }
}
layer {
  name: "conv8_1_relu"
  type: "ReLU"
  bottom: "conv8_1"
  top: "conv8_1"
}
layer {
  name: "conv8_2"
  type: "Convolution"
  bottom: "conv8_1"
  top: "conv8_2"
  param {
    lr_mult: 1
    decay_mult: 1
  }
  param {
    lr_mult: 2
    decay_mult: 0
  }
  convolution_param {
    num_output: 256
    pad: 0
    kernel_size: 3
    stride: 1
    weight_filler {
      type: "xavier"
    }
    bias_filler {
      type: "constant"
      value: 0
    }
  }
}
layer {
  name: "conv8_2_relu"
  type: "ReLU"
  bottom: "conv8_2"
  top: "conv8_2"
}
layer {
  name: "conv9_1"
  type: "Convolution"
  bottom: "conv8_2"
  top: "conv9_1"
  param {
    lr_mult: 1
    decay_mult: 1
  }
  param {
    lr_mult: 2
    decay_mult: 0
  }
  convolution_param {
    num_output: 128
    pad: 0
    kernel_size: 1
    stride: 1
    weight_filler {
      type: "xavier"
    }
    bias_filler {
      type: "constant"
      value: 0
    }
  }
}
layer {
  name: "conv9_1_relu"
  type: "ReLU"
  bottom: "conv9_1"
  top: "conv9_1"
}
layer {
  name: "conv9_2"
  type: "Convolution"
  bottom: "conv9_1"
  top: "conv9_2"
  param {
    lr_mult: 1
    decay_mult: 1
  }
  param {
    lr_mult: 2
    decay_mult: 0
  }
  convolution_param {
    num_output: 256
    pad: 0
    kernel_size: 3
    stride: 1
    weight_filler {
      type: "xavier"
    }
    bias_filler {
      type: "constant"
      value: 0
    }
  }
}
layer {
  name: "conv9_2_relu"
  type: "ReLU"
  bottom: "conv9_2"
  top: "conv9_2"
}
layer {
  name: "conv4_3_norm"
  type: "Normalize"
  bottom: "conv4_3"
  top: "conv4_3_norm"
  norm_param {
    across_spatial: false
    scale_filler {
      type: "constant"
      value: 20
    }
    channel_shared: false
  }
}
layer {
  name: "conv4_3_norm_mbox_loc"
  type: "Convolution"
  bottom: "conv4_3_norm"
  top: "conv4_3_norm_mbox_loc"
  param {
    lr_mult: 1
    decay_mult: 1
  }
  param {
    lr_mult: 2
    decay_mult: 0
  }
  convolution_param {
    num_output: 16
    pad: 1
    kernel_size: 3
    stride: 1
    weight_filler {
      type: "xavier"
    }
    bias_filler {
      type: "constant"
      value: 0
    }
  }
}
layer {
  name: "conv4_3_norm_mbox_loc_perm"
  type: "Permute"
  bottom: "conv4_3_norm_mbox_loc"
  top: "conv4_3_norm_mbox_loc_perm"
  permute_param {
    order: 0
    order: 2
    order: 3
    order: 1
  }
}
layer {
  name: "conv4_3_norm_mbox_loc_flat"
  type: "Flatten"
  bottom: "conv4_3_norm_mbox_loc_perm"
  top: "conv4_3_norm_mbox_loc_flat"
  flatten_param {
    axis: 1
  }
}
layer {
  name: "conv4_3_norm_mbox_conf"
  type: "Convolution"
  bottom: "conv4_3_norm"
  top: "conv4_3_norm_mbox_conf"
  param {
    lr_mult: 1
    decay_mult: 1
  }
  param {
    lr_mult: 2
    decay_mult: 0
  }
  convolution_param {
    num_output: 44
    pad: 1
    kernel_size: 3
    stride: 1
    weight_filler {
      type: "xavier"
    }
    bias_filler {
      type: "constant"
      value: 0
    }
  }
}
layer {
  name: "conv4_3_norm_mbox_conf_perm"
  type: "Permute"
  bottom: "conv4_3_norm_mbox_conf"
  top: "conv4_3_norm_mbox_conf_perm"
  permute_param {
    order: 0
    order: 2
    order: 3
    order: 1
  }
}
layer {
  name: "conv4_3_norm_mbox_conf_flat"
  type: "Flatten"
  bottom: "conv4_3_norm_mbox_conf_perm"
  top: "conv4_3_norm_mbox_conf_flat"
  flatten_param {
    axis: 1
  }
}
layer {
  name: "conv4_3_norm_mbox_priorbox"
  type: "PriorBox"
  bottom: "conv4_3_norm"
  bottom: "data"
  top: "conv4_3_norm_mbox_priorbox"
  prior_box_param {
    min_size: 30
    max_size: 60
    aspect_ratio: 2
    flip: true
    clip: false
    variance: 0.1
    variance: 0.1
    variance: 0.2
    variance: 0.2
    step: 8
    offset: 0.5
  }
}
layer {
  name: "fc7_mbox_loc"
  type: "Convolution"
  bottom: "fc7"
  top: "fc7_mbox_loc"
  param {
    lr_mult: 1
    decay_mult: 1
  }
  param {
    lr_mult: 2
    decay_mult: 0
  }
  convolution_param {
    num_output: 24
    pad: 1
    kernel_size: 3
    stride: 1
    weight_filler {
      type: "xavier"
    }
    bias_filler {
      type: "constant"
      value: 0
    }
  }
}
layer {
  name: "fc7_mbox_loc_perm"
  type: "Permute"
  bottom: "fc7_mbox_loc"
  top: "fc7_mbox_loc_perm"
  permute_param {
    order: 0
    order: 2
    order: 3
    order: 1
  }
}
layer {
  name: "fc7_mbox_loc_flat"
  type: "Flatten"
  bottom: "fc7_mbox_loc_perm"
  top: "fc7_mbox_loc_flat"
  flatten_param {
    axis: 1
  }
}
layer {
  name: "fc7_mbox_conf"
  type: "Convolution"
  bottom: "fc7"
  top: "fc7_mbox_conf"
  param {
    lr_mult: 1
    decay_mult: 1
  }
  param {
    lr_mult: 2
    decay_mult: 0
  }
  convolution_param {
    num_output: 66
    pad: 1
    kernel_size: 3
    stride: 1
    weight_filler {
      type: "xavier"
    }
    bias_filler {
      type: "constant"
      value: 0
    }
  }
}
layer {
  name: "fc7_mbox_conf_perm"
  type: "Permute"
  bottom: "fc7_mbox_conf"
  top: "fc7_mbox_conf_perm"
  permute_param {
    order: 0
    order: 2
    order: 3
    order: 1
  }
}
layer {
  name: "fc7_mbox_conf_flat"
  type: "Flatten"
  bottom: "fc7_mbox_conf_perm"
  top: "fc7_mbox_conf_flat"
  flatten_param {
    axis: 1
  }
}
layer {
  name: "fc7_mbox_priorbox"
  type: "PriorBox"
  bottom: "fc7"
  bottom: "data"
  top: "fc7_mbox_priorbox"
  prior_box_param {
    min_size: 60
    max_size: 111
    aspect_ratio: 2
    aspect_ratio: 3
    flip: true
    clip: false
    variance: 0.1
    variance: 0.1
    variance: 0.2
    variance: 0.2
    step: 16
    offset: 0.5
  }
}
layer {
  name: "conv6_2_mbox_loc"
  type: "Convolution"
  bottom: "conv6_2"
  top: "conv6_2_mbox_loc"
  param {
    lr_mult: 1
    decay_mult: 1
  }
  param {
    lr_mult: 2
    decay_mult: 0
  }
  convolution_param {
    num_output: 24
    pad: 1
    kernel_size: 3
    stride: 1
    weight_filler {
      type: "xavier"
    }
    bias_filler {
      type: "constant"
      value: 0
    }
  }
}
layer {
  name: "conv6_2_mbox_loc_perm"
  type: "Permute"
  bottom: "conv6_2_mbox_loc"
  top: "conv6_2_mbox_loc_perm"
  permute_param {
    order: 0
    order: 2
    order: 3
    order: 1
  }
}
layer {
  name: "conv6_2_mbox_loc_flat"
  type: "Flatten"
  bottom: "conv6_2_mbox_loc_perm"
  top: "conv6_2_mbox_loc_flat"
  flatten_param {
    axis: 1
  }
}
layer {
  name: "conv6_2_mbox_conf"
  type: "Convolution"
  bottom: "conv6_2"
  top: "conv6_2_mbox_conf"
  param {
    lr_mult: 1
    decay_mult: 1
  }
  param {
    lr_mult: 2
    decay_mult: 0
  }
  convolution_param {
    num_output: 66
    pad: 1
    kernel_size: 3
    stride: 1
    weight_filler {
      type: "xavier"
    }
    bias_filler {
      type: "constant"
      value: 0
    }
  }
}
layer {
  name: "conv6_2_mbox_conf_perm"
  type: "Permute"
  bottom: "conv6_2_mbox_conf"
  top: "conv6_2_mbox_conf_perm"
  permute_param {
    order: 0
    order: 2
    order: 3
    order: 1
  }
}
layer {
  name: "conv6_2_mbox_conf_flat"
  type: "Flatten"
  bottom: "conv6_2_mbox_conf_perm"
  top: "conv6_2_mbox_conf_flat"
  flatten_param {
    axis: 1
  }
}
layer {
  name: "conv6_2_mbox_priorbox"
  type: "PriorBox"
  bottom: "conv6_2"
  bottom: "data"
  top: "conv6_2_mbox_priorbox"
  prior_box_param {
    min_size: 111
    max_size: 162
    aspect_ratio: 2
    aspect_ratio: 3
    flip: true
    clip: false
    variance: 0.1
    variance: 0.1
    variance: 0.2
    variance: 0.2
    step: 32
    offset: 0.5
  }
}
layer {
  name: "conv7_2_mbox_loc"
  type: "Convolution"
  bottom: "conv7_2"
  top: "conv7_2_mbox_loc"
  param {
    lr_mult: 1
    decay_mult: 1
  }
  param {
    lr_mult: 2
    decay_mult: 0
  }
  convolution_param {
    num_output: 24
    pad: 1
    kernel_size: 3
    stride: 1
    weight_filler {
      type: "xavier"
    }
    bias_filler {
      type: "constant"
      value: 0
    }
  }
}
layer {
  name: "conv7_2_mbox_loc_perm"
  type: "Permute"
  bottom: "conv7_2_mbox_loc"
  top: "conv7_2_mbox_loc_perm"
  permute_param {
    order: 0
    order: 2
    order: 3
    order: 1
  }
}
layer {
  name: "conv7_2_mbox_loc_flat"
  type: "Flatten"
  bottom: "conv7_2_mbox_loc_perm"
  top: "conv7_2_mbox_loc_flat"
  flatten_param {
    axis: 1
  }
}
layer {
  name: "conv7_2_mbox_conf"
  type: "Convolution"
  bottom: "conv7_2"
  top: "conv7_2_mbox_conf"
  param {
    lr_mult: 1
    decay_mult: 1
  }
  param {
    lr_mult: 2
    decay_mult: 0
  }
  convolution_param {
    num_output: 66
    pad: 1
    kernel_size: 3
    stride: 1
    weight_filler {
      type: "xavier"
    }
    bias_filler {
      type: "constant"
      value: 0
    }
  }
}
layer {
  name: "conv7_2_mbox_conf_perm"
  type: "Permute"
  bottom: "conv7_2_mbox_conf"
  top: "conv7_2_mbox_conf_perm"
  permute_param {
    order: 0
    order: 2
    order: 3
    order: 1
  }
}
layer {
  name: "conv7_2_mbox_conf_flat"
  type: "Flatten"
  bottom: "conv7_2_mbox_conf_perm"
  top: "conv7_2_mbox_conf_flat"
  flatten_param {
    axis: 1
  }
}
layer {
  name: "conv7_2_mbox_priorbox"
  type: "PriorBox"
  bottom: "conv7_2"
  bottom: "data"
  top: "conv7_2_mbox_priorbox"
  prior_box_param {
    min_size: 162
    max_size: 213
    aspect_ratio: 2
    aspect_ratio: 3
    flip: true
    clip: false
    variance: 0.1
    variance: 0.1
    variance: 0.2
    variance: 0.2
    step: 64
    offset: 0.5
  }
}
layer {
  name: "conv8_2_mbox_loc"
  type: "Convolution"
  bottom: "conv8_2"
  top: "conv8_2_mbox_loc"
  param {
    lr_mult: 1
    decay_mult: 1
  }
  param {
    lr_mult: 2
    decay_mult: 0
  }
  convolution_param {
    num_output: 16
    pad: 1
    kernel_size: 3
    stride: 1
    weight_filler {
      type: "xavier"
    }
    bias_filler {
      type: "constant"
      value: 0
    }
  }
}
layer {
  name: "conv8_2_mbox_loc_perm"
  type: "Permute"
  bottom: "conv8_2_mbox_loc"
  top: "conv8_2_mbox_loc_perm"
  permute_param {
    order: 0
    order: 2
    order: 3
    order: 1
  }
}
layer {
  name: "conv8_2_mbox_loc_flat"
  type: "Flatten"
  bottom: "conv8_2_mbox_loc_perm"
  top: "conv8_2_mbox_loc_flat"
  flatten_param {
    axis: 1
  }
}
layer {
  name: "conv8_2_mbox_conf"
  type: "Convolution"
  bottom: "conv8_2"
  top: "conv8_2_mbox_conf"
  param {
    lr_mult: 1
    decay_mult: 1
  }
  param {
    lr_mult: 2
    decay_mult: 0
  }
  convolution_param {
    num_output: 44
    pad: 1
    kernel_size: 3
    stride: 1
    weight_filler {
      type: "xavier"
    }
    bias_filler {
      type: "constant"
      value: 0
    }
  }
}
layer {
  name: "conv8_2_mbox_conf_perm"
  type: "Permute"
  bottom: "conv8_2_mbox_conf"
  top: "conv8_2_mbox_conf_perm"
  permute_param {
    order: 0
    order: 2
    order: 3
    order: 1
  }
}
layer {
  name: "conv8_2_mbox_conf_flat"
  type: "Flatten"
  bottom: "conv8_2_mbox_conf_perm"
  top: "conv8_2_mbox_conf_flat"
  flatten_param {
    axis: 1
  }
}
layer {
  name: "conv8_2_mbox_priorbox"
  type: "PriorBox"
  bottom: "conv8_2"
  bottom: "data"
  top: "conv8_2_mbox_priorbox"
  prior_box_param {
    min_size: 213
    max_size: 264
    aspect_ratio: 2
    flip: true
    clip: false
    variance: 0.1
    variance: 0.1
    variance: 0.2
    variance: 0.2
    step: 100
    offset: 0.5
  }
}
layer {
  name: "conv9_2_mbox_loc"
  type: "Convolution"
  bottom: "conv9_2"
  top: "conv9_2_mbox_loc"
  param {
    lr_mult: 1
    decay_mult: 1
  }
  param {
    lr_mult: 2
    decay_mult: 0
  }
  convolution_param {
    num_output: 16
    pad: 1
    kernel_size: 3
    stride: 1
    weight_filler {
      type: "xavier"
    }
    bias_filler {
      type: "constant"
      value: 0
    }
  }
}
layer {
  name: "conv9_2_mbox_loc_perm"
  type: "Permute"
  bottom: "conv9_2_mbox_loc"
  top: "conv9_2_mbox_loc_perm"
  permute_param {
    order: 0
    order: 2
    order: 3
    order: 1
  }
}
layer {
  name: "conv9_2_mbox_loc_flat"
  type: "Flatten"
  bottom: "conv9_2_mbox_loc_perm"
  top: "conv9_2_mbox_loc_flat"
  flatten_param {
    axis: 1
  }
}
layer {
  name: "conv9_2_mbox_conf"
  type: "Convolution"
  bottom: "conv9_2"
  top: "conv9_2_mbox_conf"
  param {
    lr_mult: 1
    decay_mult: 1
  }
  param {
    lr_mult: 2
    decay_mult: 0
  }
  convolution_param {
    num_output: 44
    pad: 1
    kernel_size: 3
    stride: 1
    weight_filler {
      type: "xavier"
    }
    bias_filler {
      type: "constant"
      value: 0
    }
  }
}
layer {
  name: "conv9_2_mbox_conf_perm"
  type: "Permute"
  bottom: "conv9_2_mbox_conf"
  top: "conv9_2_mbox_conf_perm"
  permute_param {
    order: 0
    order: 2
    order: 3
    order: 1
  }
}
layer {
  name: "conv9_2_mbox_conf_flat"
  type: "Flatten"
  bottom: "conv9_2_mbox_conf_perm"
  top: "conv9_2_mbox_conf_flat"
  flatten_param {
    axis: 1
  }
}
layer {
  name: "conv9_2_mbox_priorbox"
  type: "PriorBox"
  bottom: "conv9_2"
  bottom: "data"
  top: "conv9_2_mbox_priorbox"
  prior_box_param {
    min_size: 264
    max_size: 315
    aspect_ratio: 2
    flip: true
    clip: false
    variance: 0.1
    variance: 0.1
    variance: 0.2
    variance: 0.2
    step: 300
    offset: 0.5
  }
}
layer {
  name: "mbox_loc"
  type: "Concat"
  bottom: "conv4_3_norm_mbox_loc_flat"
  bottom: "fc7_mbox_loc_flat"
  bottom: "conv6_2_mbox_loc_flat"
  bottom: "conv7_2_mbox_loc_flat"
  bottom: "conv8_2_mbox_loc_flat"
  bottom: "conv9_2_mbox_loc_flat"
  top: "mbox_loc"
  concat_param {
    axis: 1
  }
}
layer {
  name: "mbox_conf"
  type: "Concat"
  bottom: "conv4_3_norm_mbox_conf_flat"
  bottom: "fc7_mbox_conf_flat"
  bottom: "conv6_2_mbox_conf_flat"
  bottom: "conv7_2_mbox_conf_flat"
  bottom: "conv8_2_mbox_conf_flat"
  bottom: "conv9_2_mbox_conf_flat"
  top: "mbox_conf"
  concat_param {
    axis: 1
  }
}
layer {
  name: "mbox_priorbox"
  type: "Concat"
  bottom: "conv4_3_norm_mbox_priorbox"
  bottom: "fc7_mbox_priorbox"
  bottom: "conv6_2_mbox_priorbox"
  bottom: "conv7_2_mbox_priorbox"
  bottom: "conv8_2_mbox_priorbox"
  bottom: "conv9_2_mbox_priorbox"
  top: "mbox_priorbox"
  concat_param {
    axis: 2
  }
}
layer {
  name: "mbox_loss"
  type: "MultiBoxLoss"
  bottom: "mbox_loc"
  bottom: "mbox_conf"
  bottom: "mbox_priorbox"
  bottom: "label"
  top: "mbox_loss"
  include {
    phase: TRAIN
  }
  propagate_down: true
  propagate_down: true
  propagate_down: false
  propagate_down: false
  loss_param {
    normalization: VALID
  }
  multibox_loss_param {
    loc_loss_type: SMOOTH_L1
    conf_loss_type: SOFTMAX
    loc_weight: 1
    num_classes: 11
    share_location: true
    match_type: PER_PREDICTION
    overlap_threshold: 0.5
    use_prior_for_matching: true
    background_label_id: 0
    use_difficult_gt: true
    neg_pos_ratio: 3
    neg_overlap: 0.5
    code_type: CENTER_SIZE
    ignore_cross_boundary_bbox: false
    mining_type: MAX_NEGATIVE
  }
}
I0319 00:37:05.321128 28074 layer_factory.hpp:77] Creating layer data
I0319 00:37:05.321780 28074 net.cpp:100] Creating Layer data
I0319 00:37:05.321828 28074 net.cpp:408] data -> data
I0319 00:37:05.321898 28074 net.cpp:408] data -> label
I0319 00:37:05.322784 28089 db_lmdb.cpp:35] Opened lmdb examples/NWPU_VHR/NWPU_VHR_trainval_lmdb
I0319 00:37:05.348062 28074 annotated_data_layer.cpp:62] output data size: 32,3,300,300
I0319 00:37:05.402693 28074 net.cpp:150] Setting up data
I0319 00:37:05.402745 28074 net.cpp:157] Top shape: 32 3 300 300 (8640000)
I0319 00:37:05.402755 28074 net.cpp:157] Top shape: 1 1 4 8 (32)
I0319 00:37:05.402760 28074 net.cpp:165] Memory required for data: 34560128
I0319 00:37:05.402774 28074 layer_factory.hpp:77] Creating layer data_data_0_split
I0319 00:37:05.402794 28074 net.cpp:100] Creating Layer data_data_0_split
I0319 00:37:05.402806 28074 net.cpp:434] data_data_0_split <- data
I0319 00:37:05.402828 28074 net.cpp:408] data_data_0_split -> data_data_0_split_0
I0319 00:37:05.402846 28074 net.cpp:408] data_data_0_split -> data_data_0_split_1
I0319 00:37:05.402863 28074 net.cpp:408] data_data_0_split -> data_data_0_split_2
I0319 00:37:05.402876 28074 net.cpp:408] data_data_0_split -> data_data_0_split_3
I0319 00:37:05.402887 28074 net.cpp:408] data_data_0_split -> data_data_0_split_4
I0319 00:37:05.402897 28074 net.cpp:408] data_data_0_split -> data_data_0_split_5
I0319 00:37:05.402909 28074 net.cpp:408] data_data_0_split -> data_data_0_split_6
I0319 00:37:05.403033 28074 net.cpp:150] Setting up data_data_0_split
I0319 00:37:05.403048 28074 net.cpp:157] Top shape: 32 3 300 300 (8640000)
I0319 00:37:05.403057 28074 net.cpp:157] Top shape: 32 3 300 300 (8640000)
I0319 00:37:05.403065 28074 net.cpp:157] Top shape: 32 3 300 300 (8640000)
I0319 00:37:05.403076 28074 net.cpp:157] Top shape: 32 3 300 300 (8640000)
I0319 00:37:05.403084 28074 net.cpp:157] Top shape: 32 3 300 300 (8640000)
I0319 00:37:05.403091 28074 net.cpp:157] Top shape: 32 3 300 300 (8640000)
I0319 00:37:05.403098 28074 net.cpp:157] Top shape: 32 3 300 300 (8640000)
I0319 00:37:05.403108 28074 net.cpp:165] Memory required for data: 276480128
I0319 00:37:05.403115 28074 layer_factory.hpp:77] Creating layer conv1_1
I0319 00:37:05.403139 28074 net.cpp:100] Creating Layer conv1_1
I0319 00:37:05.403187 28074 net.cpp:434] conv1_1 <- data_data_0_split_0
I0319 00:37:05.403203 28074 net.cpp:408] conv1_1 -> conv1_1
I0319 00:37:06.029911 28074 net.cpp:150] Setting up conv1_1
I0319 00:37:06.029942 28074 net.cpp:157] Top shape: 32 64 300 300 (184320000)
I0319 00:37:06.029948 28074 net.cpp:165] Memory required for data: 1013760128
I0319 00:37:06.029973 28074 layer_factory.hpp:77] Creating layer relu1_1
I0319 00:37:06.029989 28074 net.cpp:100] Creating Layer relu1_1
I0319 00:37:06.029999 28074 net.cpp:434] relu1_1 <- conv1_1
I0319 00:37:06.030007 28074 net.cpp:395] relu1_1 -> conv1_1 (in-place)
I0319 00:37:06.030855 28074 net.cpp:150] Setting up relu1_1
I0319 00:37:06.030871 28074 net.cpp:157] Top shape: 32 64 300 300 (184320000)
I0319 00:37:06.030876 28074 net.cpp:165] Memory required for data: 1751040128
I0319 00:37:06.030882 28074 layer_factory.hpp:77] Creating layer conv1_2
I0319 00:37:06.030900 28074 net.cpp:100] Creating Layer conv1_2
I0319 00:37:06.030910 28074 net.cpp:434] conv1_2 <- conv1_1
I0319 00:37:06.030920 28074 net.cpp:408] conv1_2 -> conv1_2
I0319 00:37:06.033861 28074 net.cpp:150] Setting up conv1_2
I0319 00:37:06.033880 28074 net.cpp:157] Top shape: 32 64 300 300 (184320000)
I0319 00:37:06.033886 28074 net.cpp:165] Memory required for data: 2488320128
I0319 00:37:06.033898 28074 layer_factory.hpp:77] Creating layer relu1_2
I0319 00:37:06.033910 28074 net.cpp:100] Creating Layer relu1_2
I0319 00:37:06.033918 28074 net.cpp:434] relu1_2 <- conv1_2
I0319 00:37:06.033926 28074 net.cpp:395] relu1_2 -> conv1_2 (in-place)
I0319 00:37:06.034126 28074 net.cpp:150] Setting up relu1_2
I0319 00:37:06.034137 28074 net.cpp:157] Top shape: 32 64 300 300 (184320000)
I0319 00:37:06.034144 28074 net.cpp:165] Memory required for data: 3225600128
I0319 00:37:06.034153 28074 layer_factory.hpp:77] Creating layer pool1
I0319 00:37:06.034163 28074 net.cpp:100] Creating Layer pool1
I0319 00:37:06.034174 28074 net.cpp:434] pool1 <- conv1_2
I0319 00:37:06.034183 28074 net.cpp:408] pool1 -> pool1
I0319 00:37:06.034240 28074 net.cpp:150] Setting up pool1
I0319 00:37:06.034250 28074 net.cpp:157] Top shape: 32 64 150 150 (46080000)
I0319 00:37:06.034255 28074 net.cpp:165] Memory required for data: 3409920128
I0319 00:37:06.034279 28074 layer_factory.hpp:77] Creating layer conv2_1
I0319 00:37:06.034292 28074 net.cpp:100] Creating Layer conv2_1
I0319 00:37:06.034301 28074 net.cpp:434] conv2_1 <- pool1
I0319 00:37:06.034308 28074 net.cpp:408] conv2_1 -> conv2_1
I0319 00:37:06.037082 28074 net.cpp:150] Setting up conv2_1
I0319 00:37:06.037098 28074 net.cpp:157] Top shape: 32 128 150 150 (92160000)
I0319 00:37:06.037104 28074 net.cpp:165] Memory required for data: 3778560128
I0319 00:37:06.037117 28074 layer_factory.hpp:77] Creating layer relu2_1
I0319 00:37:06.037130 28074 net.cpp:100] Creating Layer relu2_1
I0319 00:37:06.037138 28074 net.cpp:434] relu2_1 <- conv2_1
I0319 00:37:06.037147 28074 net.cpp:395] relu2_1 -> conv2_1 (in-place)
I0319 00:37:06.037351 28074 net.cpp:150] Setting up relu2_1
I0319 00:37:06.037365 28074 net.cpp:157] Top shape: 32 128 150 150 (92160000)
I0319 00:37:06.037370 28074 net.cpp:165] Memory required for data: 4147200128
I0319 00:37:06.037376 28074 layer_factory.hpp:77] Creating layer conv2_2
I0319 00:37:06.037389 28074 net.cpp:100] Creating Layer conv2_2
I0319 00:37:06.037397 28074 net.cpp:434] conv2_2 <- conv2_1
I0319 00:37:06.037405 28074 net.cpp:408] conv2_2 -> conv2_2
I0319 00:37:06.040868 28074 net.cpp:150] Setting up conv2_2
I0319 00:37:06.040884 28074 net.cpp:157] Top shape: 32 128 150 150 (92160000)
I0319 00:37:06.040890 28074 net.cpp:165] Memory required for data: 4515840128
I0319 00:37:06.040900 28074 layer_factory.hpp:77] Creating layer relu2_2
I0319 00:37:06.040911 28074 net.cpp:100] Creating Layer relu2_2
I0319 00:37:06.040916 28074 net.cpp:434] relu2_2 <- conv2_2
I0319 00:37:06.040926 28074 net.cpp:395] relu2_2 -> conv2_2 (in-place)
I0319 00:37:06.041775 28074 net.cpp:150] Setting up relu2_2
I0319 00:37:06.041790 28074 net.cpp:157] Top shape: 32 128 150 150 (92160000)
I0319 00:37:06.041795 28074 net.cpp:165] Memory required for data: 4884480128
I0319 00:37:06.041800 28074 layer_factory.hpp:77] Creating layer pool2
I0319 00:37:06.041807 28074 net.cpp:100] Creating Layer pool2
I0319 00:37:06.041812 28074 net.cpp:434] pool2 <- conv2_2
I0319 00:37:06.041817 28074 net.cpp:408] pool2 -> pool2
I0319 00:37:06.041855 28074 net.cpp:150] Setting up pool2
I0319 00:37:06.041863 28074 net.cpp:157] Top shape: 32 128 75 75 (23040000)
I0319 00:37:06.041868 28074 net.cpp:165] Memory required for data: 4976640128
I0319 00:37:06.041873 28074 layer_factory.hpp:77] Creating layer conv3_1
I0319 00:37:06.041885 28074 net.cpp:100] Creating Layer conv3_1
I0319 00:37:06.041893 28074 net.cpp:434] conv3_1 <- pool2
I0319 00:37:06.041900 28074 net.cpp:408] conv3_1 -> conv3_1
I0319 00:37:06.046229 28074 net.cpp:150] Setting up conv3_1
I0319 00:37:06.046258 28074 net.cpp:157] Top shape: 32 256 75 75 (46080000)
I0319 00:37:06.046263 28074 net.cpp:165] Memory required for data: 5160960128
I0319 00:37:06.046278 28074 layer_factory.hpp:77] Creating layer relu3_1
I0319 00:37:06.046294 28074 net.cpp:100] Creating Layer relu3_1
I0319 00:37:06.046303 28074 net.cpp:434] relu3_1 <- conv3_1
I0319 00:37:06.046311 28074 net.cpp:395] relu3_1 -> conv3_1 (in-place)
I0319 00:37:06.046492 28074 net.cpp:150] Setting up relu3_1
I0319 00:37:06.046502 28074 net.cpp:157] Top shape: 32 256 75 75 (46080000)
I0319 00:37:06.046507 28074 net.cpp:165] Memory required for data: 5345280128
I0319 00:37:06.046514 28074 layer_factory.hpp:77] Creating layer conv3_2
I0319 00:37:06.046528 28074 net.cpp:100] Creating Layer conv3_2
I0319 00:37:06.046535 28074 net.cpp:434] conv3_2 <- conv3_1
I0319 00:37:06.046545 28074 net.cpp:408] conv3_2 -> conv3_2
I0319 00:37:06.051545 28074 net.cpp:150] Setting up conv3_2
I0319 00:37:06.051568 28074 net.cpp:157] Top shape: 32 256 75 75 (46080000)
I0319 00:37:06.051574 28074 net.cpp:165] Memory required for data: 5529600128
I0319 00:37:06.051585 28074 layer_factory.hpp:77] Creating layer relu3_2
I0319 00:37:06.051599 28074 net.cpp:100] Creating Layer relu3_2
I0319 00:37:06.051605 28074 net.cpp:434] relu3_2 <- conv3_2
I0319 00:37:06.051614 28074 net.cpp:395] relu3_2 -> conv3_2 (in-place)
I0319 00:37:06.051796 28074 net.cpp:150] Setting up relu3_2
I0319 00:37:06.051807 28074 net.cpp:157] Top shape: 32 256 75 75 (46080000)
I0319 00:37:06.051813 28074 net.cpp:165] Memory required for data: 5713920128
I0319 00:37:06.051818 28074 layer_factory.hpp:77] Creating layer conv3_3
I0319 00:37:06.051836 28074 net.cpp:100] Creating Layer conv3_3
I0319 00:37:06.051842 28074 net.cpp:434] conv3_3 <- conv3_2
I0319 00:37:06.051852 28074 net.cpp:408] conv3_3 -> conv3_3
I0319 00:37:06.056851 28074 net.cpp:150] Setting up conv3_3
I0319 00:37:06.056869 28074 net.cpp:157] Top shape: 32 256 75 75 (46080000)
I0319 00:37:06.056874 28074 net.cpp:165] Memory required for data: 5898240128
I0319 00:37:06.056885 28074 layer_factory.hpp:77] Creating layer relu3_3
I0319 00:37:06.056895 28074 net.cpp:100] Creating Layer relu3_3
I0319 00:37:06.056905 28074 net.cpp:434] relu3_3 <- conv3_3
I0319 00:37:06.056915 28074 net.cpp:395] relu3_3 -> conv3_3 (in-place)
I0319 00:37:06.057585 28074 net.cpp:150] Setting up relu3_3
I0319 00:37:06.057597 28074 net.cpp:157] Top shape: 32 256 75 75 (46080000)
I0319 00:37:06.057605 28074 net.cpp:165] Memory required for data: 6082560128
I0319 00:37:06.057610 28074 layer_factory.hpp:77] Creating layer pool3
I0319 00:37:06.057621 28074 net.cpp:100] Creating Layer pool3
I0319 00:37:06.057627 28074 net.cpp:434] pool3 <- conv3_3
I0319 00:37:06.057638 28074 net.cpp:408] pool3 -> pool3
I0319 00:37:06.057687 28074 net.cpp:150] Setting up pool3
I0319 00:37:06.057695 28074 net.cpp:157] Top shape: 32 256 38 38 (11829248)
I0319 00:37:06.057700 28074 net.cpp:165] Memory required for data: 6129877120
I0319 00:37:06.057706 28074 layer_factory.hpp:77] Creating layer conv4_1
I0319 00:37:06.057720 28074 net.cpp:100] Creating Layer conv4_1
I0319 00:37:06.057747 28074 net.cpp:434] conv4_1 <- pool3
I0319 00:37:06.057760 28074 net.cpp:408] conv4_1 -> conv4_1
I0319 00:37:06.066710 28074 net.cpp:150] Setting up conv4_1
I0319 00:37:06.066738 28074 net.cpp:157] Top shape: 32 512 38 38 (23658496)
I0319 00:37:06.066743 28074 net.cpp:165] Memory required for data: 6224511104
I0319 00:37:06.066756 28074 layer_factory.hpp:77] Creating layer relu4_1
I0319 00:37:06.066769 28074 net.cpp:100] Creating Layer relu4_1
I0319 00:37:06.066777 28074 net.cpp:434] relu4_1 <- conv4_1
I0319 00:37:06.066785 28074 net.cpp:395] relu4_1 -> conv4_1 (in-place)
I0319 00:37:06.066962 28074 net.cpp:150] Setting up relu4_1
I0319 00:37:06.066972 28074 net.cpp:157] Top shape: 32 512 38 38 (23658496)
I0319 00:37:06.066977 28074 net.cpp:165] Memory required for data: 6319145088
I0319 00:37:06.066982 28074 layer_factory.hpp:77] Creating layer conv4_2
I0319 00:37:06.066999 28074 net.cpp:100] Creating Layer conv4_2
I0319 00:37:06.067005 28074 net.cpp:434] conv4_2 <- conv4_1
I0319 00:37:06.067013 28074 net.cpp:408] conv4_2 -> conv4_2
I0319 00:37:06.081159 28074 net.cpp:150] Setting up conv4_2
I0319 00:37:06.081184 28074 net.cpp:157] Top shape: 32 512 38 38 (23658496)
I0319 00:37:06.081190 28074 net.cpp:165] Memory required for data: 6413779072
I0319 00:37:06.081209 28074 layer_factory.hpp:77] Creating layer relu4_2
I0319 00:37:06.081226 28074 net.cpp:100] Creating Layer relu4_2
I0319 00:37:06.081235 28074 net.cpp:434] relu4_2 <- conv4_2
I0319 00:37:06.081246 28074 net.cpp:395] relu4_2 -> conv4_2 (in-place)
I0319 00:37:06.081425 28074 net.cpp:150] Setting up relu4_2
I0319 00:37:06.081435 28074 net.cpp:157] Top shape: 32 512 38 38 (23658496)
I0319 00:37:06.081440 28074 net.cpp:165] Memory required for data: 6508413056
I0319 00:37:06.081446 28074 layer_factory.hpp:77] Creating layer conv4_3
I0319 00:37:06.081463 28074 net.cpp:100] Creating Layer conv4_3
I0319 00:37:06.081470 28074 net.cpp:434] conv4_3 <- conv4_2
I0319 00:37:06.081480 28074 net.cpp:408] conv4_3 -> conv4_3
I0319 00:37:06.095603 28074 net.cpp:150] Setting up conv4_3
I0319 00:37:06.095630 28074 net.cpp:157] Top shape: 32 512 38 38 (23658496)
I0319 00:37:06.095635 28074 net.cpp:165] Memory required for data: 6603047040
I0319 00:37:06.095647 28074 layer_factory.hpp:77] Creating layer relu4_3
I0319 00:37:06.095675 28074 net.cpp:100] Creating Layer relu4_3
I0319 00:37:06.095685 28074 net.cpp:434] relu4_3 <- conv4_3
I0319 00:37:06.095695 28074 net.cpp:395] relu4_3 -> conv4_3 (in-place)
I0319 00:37:06.095872 28074 net.cpp:150] Setting up relu4_3
I0319 00:37:06.095883 28074 net.cpp:157] Top shape: 32 512 38 38 (23658496)
I0319 00:37:06.095888 28074 net.cpp:165] Memory required for data: 6697681024
I0319 00:37:06.095893 28074 layer_factory.hpp:77] Creating layer conv4_3_relu4_3_0_split
I0319 00:37:06.095904 28074 net.cpp:100] Creating Layer conv4_3_relu4_3_0_split
I0319 00:37:06.095911 28074 net.cpp:434] conv4_3_relu4_3_0_split <- conv4_3
I0319 00:37:06.095921 28074 net.cpp:408] conv4_3_relu4_3_0_split -> conv4_3_relu4_3_0_split_0
I0319 00:37:06.095932 28074 net.cpp:408] conv4_3_relu4_3_0_split -> conv4_3_relu4_3_0_split_1
I0319 00:37:06.095979 28074 net.cpp:150] Setting up conv4_3_relu4_3_0_split
I0319 00:37:06.095989 28074 net.cpp:157] Top shape: 32 512 38 38 (23658496)
I0319 00:37:06.095996 28074 net.cpp:157] Top shape: 32 512 38 38 (23658496)
I0319 00:37:06.096001 28074 net.cpp:165] Memory required for data: 6886948992
I0319 00:37:06.096006 28074 layer_factory.hpp:77] Creating layer pool4
I0319 00:37:06.096016 28074 net.cpp:100] Creating Layer pool4
I0319 00:37:06.096024 28074 net.cpp:434] pool4 <- conv4_3_relu4_3_0_split_0
I0319 00:37:06.096032 28074 net.cpp:408] pool4 -> pool4
I0319 00:37:06.096076 28074 net.cpp:150] Setting up pool4
I0319 00:37:06.096084 28074 net.cpp:157] Top shape: 32 512 19 19 (5914624)
I0319 00:37:06.096088 28074 net.cpp:165] Memory required for data: 6910607488
I0319 00:37:06.096093 28074 layer_factory.hpp:77] Creating layer conv5_1
I0319 00:37:06.096108 28074 net.cpp:100] Creating Layer conv5_1
I0319 00:37:06.096114 28074 net.cpp:434] conv5_1 <- pool4
I0319 00:37:06.096122 28074 net.cpp:408] conv5_1 -> conv5_1
I0319 00:37:06.110643 28074 net.cpp:150] Setting up conv5_1
I0319 00:37:06.110667 28074 net.cpp:157] Top shape: 32 512 19 19 (5914624)
I0319 00:37:06.110673 28074 net.cpp:165] Memory required for data: 6934265984
I0319 00:37:06.110685 28074 layer_factory.hpp:77] Creating layer relu5_1
I0319 00:37:06.110703 28074 net.cpp:100] Creating Layer relu5_1
I0319 00:37:06.110711 28074 net.cpp:434] relu5_1 <- conv5_1
I0319 00:37:06.110723 28074 net.cpp:395] relu5_1 -> conv5_1 (in-place)
I0319 00:37:06.111405 28074 net.cpp:150] Setting up relu5_1
I0319 00:37:06.111418 28074 net.cpp:157] Top shape: 32 512 19 19 (5914624)
I0319 00:37:06.111423 28074 net.cpp:165] Memory required for data: 6957924480
I0319 00:37:06.111428 28074 layer_factory.hpp:77] Creating layer conv5_2
I0319 00:37:06.111445 28074 net.cpp:100] Creating Layer conv5_2
I0319 00:37:06.111454 28074 net.cpp:434] conv5_2 <- conv5_1
I0319 00:37:06.111464 28074 net.cpp:408] conv5_2 -> conv5_2
I0319 00:37:06.125525 28074 net.cpp:150] Setting up conv5_2
I0319 00:37:06.125552 28074 net.cpp:157] Top shape: 32 512 19 19 (5914624)
I0319 00:37:06.125557 28074 net.cpp:165] Memory required for data: 6981582976
I0319 00:37:06.125568 28074 layer_factory.hpp:77] Creating layer relu5_2
I0319 00:37:06.125582 28074 net.cpp:100] Creating Layer relu5_2
I0319 00:37:06.125591 28074 net.cpp:434] relu5_2 <- conv5_2
I0319 00:37:06.125603 28074 net.cpp:395] relu5_2 -> conv5_2 (in-place)
I0319 00:37:06.125790 28074 net.cpp:150] Setting up relu5_2
I0319 00:37:06.125802 28074 net.cpp:157] Top shape: 32 512 19 19 (5914624)
I0319 00:37:06.125807 28074 net.cpp:165] Memory required for data: 7005241472
I0319 00:37:06.125811 28074 layer_factory.hpp:77] Creating layer conv5_3_depthwise
I0319 00:37:06.125825 28074 net.cpp:100] Creating Layer conv5_3_depthwise
I0319 00:37:06.125833 28074 net.cpp:434] conv5_3_depthwise <- conv5_2
I0319 00:37:06.125844 28074 net.cpp:408] conv5_3_depthwise -> conv5_3_3x3
I0319 00:37:06.126086 28074 net.cpp:150] Setting up conv5_3_depthwise
I0319 00:37:06.126096 28074 net.cpp:157] Top shape: 32 512 19 19 (5914624)
I0319 00:37:06.126101 28074 net.cpp:165] Memory required for data: 7028899968
I0319 00:37:06.126111 28074 layer_factory.hpp:77] Creating layer conv5_3_3x3_relu
I0319 00:37:06.126137 28074 net.cpp:100] Creating Layer conv5_3_3x3_relu
I0319 00:37:06.126143 28074 net.cpp:434] conv5_3_3x3_relu <- conv5_3_3x3
I0319 00:37:06.126152 28074 net.cpp:395] conv5_3_3x3_relu -> conv5_3_3x3 (in-place)
I0319 00:37:06.126314 28074 net.cpp:150] Setting up conv5_3_3x3_relu
I0319 00:37:06.126324 28074 net.cpp:157] Top shape: 32 512 19 19 (5914624)
I0319 00:37:06.126329 28074 net.cpp:165] Memory required for data: 7052558464
I0319 00:37:06.126335 28074 layer_factory.hpp:77] Creating layer conv5_3_1x1
I0319 00:37:06.126351 28074 net.cpp:100] Creating Layer conv5_3_1x1
I0319 00:37:06.126358 28074 net.cpp:434] conv5_3_1x1 <- conv5_3_3x3
I0319 00:37:06.126365 28074 net.cpp:408] conv5_3_1x1 -> conv5_3
I0319 00:37:06.129451 28074 net.cpp:150] Setting up conv5_3_1x1
I0319 00:37:06.129467 28074 net.cpp:157] Top shape: 32 512 19 19 (5914624)
I0319 00:37:06.129472 28074 net.cpp:165] Memory required for data: 7076216960
I0319 00:37:06.129482 28074 layer_factory.hpp:77] Creating layer relu5_3
I0319 00:37:06.129492 28074 net.cpp:100] Creating Layer relu5_3
I0319 00:37:06.129501 28074 net.cpp:434] relu5_3 <- conv5_3
I0319 00:37:06.129508 28074 net.cpp:395] relu5_3 -> conv5_3 (in-place)
I0319 00:37:06.130206 28074 net.cpp:150] Setting up relu5_3
I0319 00:37:06.130220 28074 net.cpp:157] Top shape: 32 512 19 19 (5914624)
I0319 00:37:06.130225 28074 net.cpp:165] Memory required for data: 7099875456
I0319 00:37:06.130230 28074 layer_factory.hpp:77] Creating layer pool5
I0319 00:37:06.130244 28074 net.cpp:100] Creating Layer pool5
I0319 00:37:06.130254 28074 net.cpp:434] pool5 <- conv5_3
I0319 00:37:06.130260 28074 net.cpp:408] pool5 -> pool5
I0319 00:37:06.130308 28074 net.cpp:150] Setting up pool5
I0319 00:37:06.130317 28074 net.cpp:157] Top shape: 32 512 19 19 (5914624)
I0319 00:37:06.130323 28074 net.cpp:165] Memory required for data: 7123533952
I0319 00:37:06.130328 28074 layer_factory.hpp:77] Creating layer fc6
I0319 00:37:06.130342 28074 net.cpp:100] Creating Layer fc6
I0319 00:37:06.130347 28074 net.cpp:434] fc6 <- pool5
I0319 00:37:06.130357 28074 net.cpp:408] fc6 -> fc6
I0319 00:37:06.155776 28074 net.cpp:150] Setting up fc6
I0319 00:37:06.155804 28074 net.cpp:157] Top shape: 32 1024 19 19 (11829248)
I0319 00:37:06.155809 28074 net.cpp:165] Memory required for data: 7170850944
I0319 00:37:06.155822 28074 layer_factory.hpp:77] Creating layer relu6
I0319 00:37:06.155834 28074 net.cpp:100] Creating Layer relu6
I0319 00:37:06.155844 28074 net.cpp:434] relu6 <- fc6
I0319 00:37:06.155856 28074 net.cpp:395] relu6 -> fc6 (in-place)
I0319 00:37:06.156085 28074 net.cpp:150] Setting up relu6
I0319 00:37:06.156095 28074 net.cpp:157] Top shape: 32 1024 19 19 (11829248)
I0319 00:37:06.156100 28074 net.cpp:165] Memory required for data: 7218167936
I0319 00:37:06.156105 28074 layer_factory.hpp:77] Creating layer fc7
I0319 00:37:06.156126 28074 net.cpp:100] Creating Layer fc7
I0319 00:37:06.156132 28074 net.cpp:434] fc7 <- fc6
I0319 00:37:06.156141 28074 net.cpp:408] fc7 -> fc7
I0319 00:37:06.163272 28074 net.cpp:150] Setting up fc7
I0319 00:37:06.163296 28074 net.cpp:157] Top shape: 32 1024 19 19 (11829248)
I0319 00:37:06.163302 28074 net.cpp:165] Memory required for data: 7265484928
I0319 00:37:06.163313 28074 layer_factory.hpp:77] Creating layer relu7
I0319 00:37:06.163324 28074 net.cpp:100] Creating Layer relu7
I0319 00:37:06.163333 28074 net.cpp:434] relu7 <- fc7
I0319 00:37:06.163343 28074 net.cpp:395] relu7 -> fc7 (in-place)
I0319 00:37:06.163517 28074 net.cpp:150] Setting up relu7
I0319 00:37:06.163527 28074 net.cpp:157] Top shape: 32 1024 19 19 (11829248)
I0319 00:37:06.163533 28074 net.cpp:165] Memory required for data: 7312801920
I0319 00:37:06.163538 28074 layer_factory.hpp:77] Creating layer fc7_relu7_0_split
I0319 00:37:06.163548 28074 net.cpp:100] Creating Layer fc7_relu7_0_split
I0319 00:37:06.163554 28074 net.cpp:434] fc7_relu7_0_split <- fc7
I0319 00:37:06.163565 28074 net.cpp:408] fc7_relu7_0_split -> fc7_relu7_0_split_0
I0319 00:37:06.163585 28074 net.cpp:408] fc7_relu7_0_split -> fc7_relu7_0_split_1
I0319 00:37:06.163609 28074 net.cpp:408] fc7_relu7_0_split -> fc7_relu7_0_split_2
I0319 00:37:06.163617 28074 net.cpp:408] fc7_relu7_0_split -> fc7_relu7_0_split_3
I0319 00:37:06.163686 28074 net.cpp:150] Setting up fc7_relu7_0_split
I0319 00:37:06.163695 28074 net.cpp:157] Top shape: 32 1024 19 19 (11829248)
I0319 00:37:06.163702 28074 net.cpp:157] Top shape: 32 1024 19 19 (11829248)
I0319 00:37:06.163708 28074 net.cpp:157] Top shape: 32 1024 19 19 (11829248)
I0319 00:37:06.163717 28074 net.cpp:157] Top shape: 32 1024 19 19 (11829248)
I0319 00:37:06.163722 28074 net.cpp:165] Memory required for data: 7502069888
I0319 00:37:06.163729 28074 layer_factory.hpp:77] Creating layer conv6_1
I0319 00:37:06.163743 28074 net.cpp:100] Creating Layer conv6_1
I0319 00:37:06.163750 28074 net.cpp:434] conv6_1 <- fc7_relu7_0_split_0
I0319 00:37:06.163760 28074 net.cpp:408] conv6_1 -> conv6_1
I0319 00:37:06.166644 28074 net.cpp:150] Setting up conv6_1
I0319 00:37:06.166661 28074 net.cpp:157] Top shape: 32 256 19 19 (2957312)
I0319 00:37:06.166667 28074 net.cpp:165] Memory required for data: 7513899136
I0319 00:37:06.166683 28074 layer_factory.hpp:77] Creating layer conv6_1_relu
I0319 00:37:06.166692 28074 net.cpp:100] Creating Layer conv6_1_relu
I0319 00:37:06.166697 28074 net.cpp:434] conv6_1_relu <- conv6_1
I0319 00:37:06.166708 28074 net.cpp:395] conv6_1_relu -> conv6_1 (in-place)
I0319 00:37:06.167392 28074 net.cpp:150] Setting up conv6_1_relu
I0319 00:37:06.167404 28074 net.cpp:157] Top shape: 32 256 19 19 (2957312)
I0319 00:37:06.167409 28074 net.cpp:165] Memory required for data: 7525728384
I0319 00:37:06.167416 28074 layer_factory.hpp:77] Creating layer conv6_2
I0319 00:37:06.167429 28074 net.cpp:100] Creating Layer conv6_2
I0319 00:37:06.167435 28074 net.cpp:434] conv6_2 <- conv6_1
I0319 00:37:06.167444 28074 net.cpp:408] conv6_2 -> conv6_2
I0319 00:37:06.175134 28074 net.cpp:150] Setting up conv6_2
I0319 00:37:06.175158 28074 net.cpp:157] Top shape: 32 512 10 10 (1638400)
I0319 00:37:06.175163 28074 net.cpp:165] Memory required for data: 7532281984
I0319 00:37:06.175174 28074 layer_factory.hpp:77] Creating layer conv6_2_relu
I0319 00:37:06.175186 28074 net.cpp:100] Creating Layer conv6_2_relu
I0319 00:37:06.175194 28074 net.cpp:434] conv6_2_relu <- conv6_2
I0319 00:37:06.175205 28074 net.cpp:395] conv6_2_relu -> conv6_2 (in-place)
I0319 00:37:06.175377 28074 net.cpp:150] Setting up conv6_2_relu
I0319 00:37:06.175388 28074 net.cpp:157] Top shape: 32 512 10 10 (1638400)
I0319 00:37:06.175392 28074 net.cpp:165] Memory required for data: 7538835584
I0319 00:37:06.175398 28074 layer_factory.hpp:77] Creating layer conv6_2_conv6_2_relu_0_split
I0319 00:37:06.175407 28074 net.cpp:100] Creating Layer conv6_2_conv6_2_relu_0_split
I0319 00:37:06.175415 28074 net.cpp:434] conv6_2_conv6_2_relu_0_split <- conv6_2
I0319 00:37:06.175423 28074 net.cpp:408] conv6_2_conv6_2_relu_0_split -> conv6_2_conv6_2_relu_0_split_0
I0319 00:37:06.175434 28074 net.cpp:408] conv6_2_conv6_2_relu_0_split -> conv6_2_conv6_2_relu_0_split_1
I0319 00:37:06.175446 28074 net.cpp:408] conv6_2_conv6_2_relu_0_split -> conv6_2_conv6_2_relu_0_split_2
I0319 00:37:06.175456 28074 net.cpp:408] conv6_2_conv6_2_relu_0_split -> conv6_2_conv6_2_relu_0_split_3
I0319 00:37:06.175525 28074 net.cpp:150] Setting up conv6_2_conv6_2_relu_0_split
I0319 00:37:06.175534 28074 net.cpp:157] Top shape: 32 512 10 10 (1638400)
I0319 00:37:06.175539 28074 net.cpp:157] Top shape: 32 512 10 10 (1638400)
I0319 00:37:06.175545 28074 net.cpp:157] Top shape: 32 512 10 10 (1638400)
I0319 00:37:06.175554 28074 net.cpp:157] Top shape: 32 512 10 10 (1638400)
I0319 00:37:06.175559 28074 net.cpp:165] Memory required for data: 7565049984
I0319 00:37:06.175566 28074 layer_factory.hpp:77] Creating layer conv7_1
I0319 00:37:06.175582 28074 net.cpp:100] Creating Layer conv7_1
I0319 00:37:06.175588 28074 net.cpp:434] conv7_1 <- conv6_2_conv6_2_relu_0_split_0
I0319 00:37:06.175598 28074 net.cpp:408] conv7_1 -> conv7_1
I0319 00:37:06.177114 28074 net.cpp:150] Setting up conv7_1
I0319 00:37:06.177141 28074 net.cpp:157] Top shape: 32 128 10 10 (409600)
I0319 00:37:06.177147 28074 net.cpp:165] Memory required for data: 7566688384
I0319 00:37:06.177158 28074 layer_factory.hpp:77] Creating layer conv7_1_relu
I0319 00:37:06.177168 28074 net.cpp:100] Creating Layer conv7_1_relu
I0319 00:37:06.177176 28074 net.cpp:434] conv7_1_relu <- conv7_1
I0319 00:37:06.177186 28074 net.cpp:395] conv7_1_relu -> conv7_1 (in-place)
I0319 00:37:06.177351 28074 net.cpp:150] Setting up conv7_1_relu
I0319 00:37:06.177361 28074 net.cpp:157] Top shape: 32 128 10 10 (409600)
I0319 00:37:06.177366 28074 net.cpp:165] Memory required for data: 7568326784
I0319 00:37:06.177373 28074 layer_factory.hpp:77] Creating layer conv7_2
I0319 00:37:06.177388 28074 net.cpp:100] Creating Layer conv7_2
I0319 00:37:06.177395 28074 net.cpp:434] conv7_2 <- conv7_1
I0319 00:37:06.177410 28074 net.cpp:408] conv7_2 -> conv7_2
I0319 00:37:06.180642 28074 net.cpp:150] Setting up conv7_2
I0319 00:37:06.180660 28074 net.cpp:157] Top shape: 32 256 5 5 (204800)
I0319 00:37:06.180665 28074 net.cpp:165] Memory required for data: 7569145984
I0319 00:37:06.180675 28074 layer_factory.hpp:77] Creating layer conv7_2_relu
I0319 00:37:06.180685 28074 net.cpp:100] Creating Layer conv7_2_relu
I0319 00:37:06.180691 28074 net.cpp:434] conv7_2_relu <- conv7_2
I0319 00:37:06.180701 28074 net.cpp:395] conv7_2_relu -> conv7_2 (in-place)
I0319 00:37:06.180864 28074 net.cpp:150] Setting up conv7_2_relu
I0319 00:37:06.180874 28074 net.cpp:157] Top shape: 32 256 5 5 (204800)
I0319 00:37:06.180878 28074 net.cpp:165] Memory required for data: 7569965184
I0319 00:37:06.180883 28074 layer_factory.hpp:77] Creating layer conv7_2_conv7_2_relu_0_split
I0319 00:37:06.180896 28074 net.cpp:100] Creating Layer conv7_2_conv7_2_relu_0_split
I0319 00:37:06.180903 28074 net.cpp:434] conv7_2_conv7_2_relu_0_split <- conv7_2
I0319 00:37:06.180912 28074 net.cpp:408] conv7_2_conv7_2_relu_0_split -> conv7_2_conv7_2_relu_0_split_0
I0319 00:37:06.180923 28074 net.cpp:408] conv7_2_conv7_2_relu_0_split -> conv7_2_conv7_2_relu_0_split_1
I0319 00:37:06.180933 28074 net.cpp:408] conv7_2_conv7_2_relu_0_split -> conv7_2_conv7_2_relu_0_split_2
I0319 00:37:06.180941 28074 net.cpp:408] conv7_2_conv7_2_relu_0_split -> conv7_2_conv7_2_relu_0_split_3
I0319 00:37:06.181011 28074 net.cpp:150] Setting up conv7_2_conv7_2_relu_0_split
I0319 00:37:06.181020 28074 net.cpp:157] Top shape: 32 256 5 5 (204800)
I0319 00:37:06.181028 28074 net.cpp:157] Top shape: 32 256 5 5 (204800)
I0319 00:37:06.181036 28074 net.cpp:157] Top shape: 32 256 5 5 (204800)
I0319 00:37:06.181042 28074 net.cpp:157] Top shape: 32 256 5 5 (204800)
I0319 00:37:06.181051 28074 net.cpp:165] Memory required for data: 7573241984
I0319 00:37:06.181057 28074 layer_factory.hpp:77] Creating layer conv8_1
I0319 00:37:06.181071 28074 net.cpp:100] Creating Layer conv8_1
I0319 00:37:06.181077 28074 net.cpp:434] conv8_1 <- conv7_2_conv7_2_relu_0_split_0
I0319 00:37:06.181087 28074 net.cpp:408] conv8_1 -> conv8_1
I0319 00:37:06.182476 28074 net.cpp:150] Setting up conv8_1
I0319 00:37:06.182492 28074 net.cpp:157] Top shape: 32 128 5 5 (102400)
I0319 00:37:06.182497 28074 net.cpp:165] Memory required for data: 7573651584
I0319 00:37:06.182505 28074 layer_factory.hpp:77] Creating layer conv8_1_relu
I0319 00:37:06.182516 28074 net.cpp:100] Creating Layer conv8_1_relu
I0319 00:37:06.182523 28074 net.cpp:434] conv8_1_relu <- conv8_1
I0319 00:37:06.182533 28074 net.cpp:395] conv8_1_relu -> conv8_1 (in-place)
I0319 00:37:06.183221 28074 net.cpp:150] Setting up conv8_1_relu
I0319 00:37:06.183236 28074 net.cpp:157] Top shape: 32 128 5 5 (102400)
I0319 00:37:06.183241 28074 net.cpp:165] Memory required for data: 7574061184
I0319 00:37:06.183248 28074 layer_factory.hpp:77] Creating layer conv8_2
I0319 00:37:06.183260 28074 net.cpp:100] Creating Layer conv8_2
I0319 00:37:06.183269 28074 net.cpp:434] conv8_2 <- conv8_1
I0319 00:37:06.183277 28074 net.cpp:408] conv8_2 -> conv8_2
I0319 00:37:06.187047 28074 net.cpp:150] Setting up conv8_2
I0319 00:37:06.187064 28074 net.cpp:157] Top shape: 32 256 3 3 (73728)
I0319 00:37:06.187085 28074 net.cpp:165] Memory required for data: 7574356096
I0319 00:37:06.187098 28074 layer_factory.hpp:77] Creating layer conv8_2_relu
I0319 00:37:06.187108 28074 net.cpp:100] Creating Layer conv8_2_relu
I0319 00:37:06.187114 28074 net.cpp:434] conv8_2_relu <- conv8_2
I0319 00:37:06.187122 28074 net.cpp:395] conv8_2_relu -> conv8_2 (in-place)
I0319 00:37:06.187310 28074 net.cpp:150] Setting up conv8_2_relu
I0319 00:37:06.187321 28074 net.cpp:157] Top shape: 32 256 3 3 (73728)
I0319 00:37:06.187325 28074 net.cpp:165] Memory required for data: 7574651008
I0319 00:37:06.187332 28074 layer_factory.hpp:77] Creating layer conv8_2_conv8_2_relu_0_split
I0319 00:37:06.187343 28074 net.cpp:100] Creating Layer conv8_2_conv8_2_relu_0_split
I0319 00:37:06.187351 28074 net.cpp:434] conv8_2_conv8_2_relu_0_split <- conv8_2
I0319 00:37:06.187361 28074 net.cpp:408] conv8_2_conv8_2_relu_0_split -> conv8_2_conv8_2_relu_0_split_0
I0319 00:37:06.187373 28074 net.cpp:408] conv8_2_conv8_2_relu_0_split -> conv8_2_conv8_2_relu_0_split_1
I0319 00:37:06.187383 28074 net.cpp:408] conv8_2_conv8_2_relu_0_split -> conv8_2_conv8_2_relu_0_split_2
I0319 00:37:06.187392 28074 net.cpp:408] conv8_2_conv8_2_relu_0_split -> conv8_2_conv8_2_relu_0_split_3
I0319 00:37:06.187461 28074 net.cpp:150] Setting up conv8_2_conv8_2_relu_0_split
I0319 00:37:06.187470 28074 net.cpp:157] Top shape: 32 256 3 3 (73728)
I0319 00:37:06.187476 28074 net.cpp:157] Top shape: 32 256 3 3 (73728)
I0319 00:37:06.187484 28074 net.cpp:157] Top shape: 32 256 3 3 (73728)
I0319 00:37:06.187489 28074 net.cpp:157] Top shape: 32 256 3 3 (73728)
I0319 00:37:06.187497 28074 net.cpp:165] Memory required for data: 7575830656
I0319 00:37:06.187502 28074 layer_factory.hpp:77] Creating layer conv9_1
I0319 00:37:06.187518 28074 net.cpp:100] Creating Layer conv9_1
I0319 00:37:06.187525 28074 net.cpp:434] conv9_1 <- conv8_2_conv8_2_relu_0_split_0
I0319 00:37:06.187536 28074 net.cpp:408] conv9_1 -> conv9_1
I0319 00:37:06.188951 28074 net.cpp:150] Setting up conv9_1
I0319 00:37:06.188964 28074 net.cpp:157] Top shape: 32 128 3 3 (36864)
I0319 00:37:06.188969 28074 net.cpp:165] Memory required for data: 7575978112
I0319 00:37:06.188980 28074 layer_factory.hpp:77] Creating layer conv9_1_relu
I0319 00:37:06.188992 28074 net.cpp:100] Creating Layer conv9_1_relu
I0319 00:37:06.188999 28074 net.cpp:434] conv9_1_relu <- conv9_1
I0319 00:37:06.189007 28074 net.cpp:395] conv9_1_relu -> conv9_1 (in-place)
I0319 00:37:06.189170 28074 net.cpp:150] Setting up conv9_1_relu
I0319 00:37:06.189184 28074 net.cpp:157] Top shape: 32 128 3 3 (36864)
I0319 00:37:06.189188 28074 net.cpp:165] Memory required for data: 7576125568
I0319 00:37:06.189194 28074 layer_factory.hpp:77] Creating layer conv9_2
I0319 00:37:06.189210 28074 net.cpp:100] Creating Layer conv9_2
I0319 00:37:06.189218 28074 net.cpp:434] conv9_2 <- conv9_1
I0319 00:37:06.189227 28074 net.cpp:408] conv9_2 -> conv9_2
I0319 00:37:06.193033 28074 net.cpp:150] Setting up conv9_2
I0319 00:37:06.193050 28074 net.cpp:157] Top shape: 32 256 1 1 (8192)
I0319 00:37:06.193055 28074 net.cpp:165] Memory required for data: 7576158336
I0319 00:37:06.193064 28074 layer_factory.hpp:77] Creating layer conv9_2_relu
I0319 00:37:06.193076 28074 net.cpp:100] Creating Layer conv9_2_relu
I0319 00:37:06.193084 28074 net.cpp:434] conv9_2_relu <- conv9_2
I0319 00:37:06.193092 28074 net.cpp:395] conv9_2_relu -> conv9_2 (in-place)
I0319 00:37:06.193807 28074 net.cpp:150] Setting up conv9_2_relu
I0319 00:37:06.193820 28074 net.cpp:157] Top shape: 32 256 1 1 (8192)
I0319 00:37:06.193826 28074 net.cpp:165] Memory required for data: 7576191104
I0319 00:37:06.193831 28074 layer_factory.hpp:77] Creating layer conv9_2_conv9_2_relu_0_split
I0319 00:37:06.193842 28074 net.cpp:100] Creating Layer conv9_2_conv9_2_relu_0_split
I0319 00:37:06.193848 28074 net.cpp:434] conv9_2_conv9_2_relu_0_split <- conv9_2
I0319 00:37:06.193859 28074 net.cpp:408] conv9_2_conv9_2_relu_0_split -> conv9_2_conv9_2_relu_0_split_0
I0319 00:37:06.193871 28074 net.cpp:408] conv9_2_conv9_2_relu_0_split -> conv9_2_conv9_2_relu_0_split_1
I0319 00:37:06.193893 28074 net.cpp:408] conv9_2_conv9_2_relu_0_split -> conv9_2_conv9_2_relu_0_split_2
I0319 00:37:06.193959 28074 net.cpp:150] Setting up conv9_2_conv9_2_relu_0_split
I0319 00:37:06.193969 28074 net.cpp:157] Top shape: 32 256 1 1 (8192)
I0319 00:37:06.193975 28074 net.cpp:157] Top shape: 32 256 1 1 (8192)
I0319 00:37:06.193982 28074 net.cpp:157] Top shape: 32 256 1 1 (8192)
I0319 00:37:06.193989 28074 net.cpp:165] Memory required for data: 7576289408
I0319 00:37:06.193995 28074 layer_factory.hpp:77] Creating layer conv4_3_norm
I0319 00:37:06.194007 28074 net.cpp:100] Creating Layer conv4_3_norm
I0319 00:37:06.194015 28074 net.cpp:434] conv4_3_norm <- conv4_3_relu4_3_0_split_1
I0319 00:37:06.194023 28074 net.cpp:408] conv4_3_norm -> conv4_3_norm
I0319 00:37:06.194180 28074 net.cpp:150] Setting up conv4_3_norm
I0319 00:37:06.194190 28074 net.cpp:157] Top shape: 32 512 38 38 (23658496)
I0319 00:37:06.194193 28074 net.cpp:165] Memory required for data: 7670923392
I0319 00:37:06.194201 28074 layer_factory.hpp:77] Creating layer conv4_3_norm_conv4_3_norm_0_split
I0319 00:37:06.194212 28074 net.cpp:100] Creating Layer conv4_3_norm_conv4_3_norm_0_split
I0319 00:37:06.194217 28074 net.cpp:434] conv4_3_norm_conv4_3_norm_0_split <- conv4_3_norm
I0319 00:37:06.194226 28074 net.cpp:408] conv4_3_norm_conv4_3_norm_0_split -> conv4_3_norm_conv4_3_norm_0_split_0
I0319 00:37:06.194236 28074 net.cpp:408] conv4_3_norm_conv4_3_norm_0_split -> conv4_3_norm_conv4_3_norm_0_split_1
I0319 00:37:06.194247 28074 net.cpp:408] conv4_3_norm_conv4_3_norm_0_split -> conv4_3_norm_conv4_3_norm_0_split_2
I0319 00:37:06.194293 28074 net.cpp:150] Setting up conv4_3_norm_conv4_3_norm_0_split
I0319 00:37:06.194300 28074 net.cpp:157] Top shape: 32 512 38 38 (23658496)
I0319 00:37:06.194306 28074 net.cpp:157] Top shape: 32 512 38 38 (23658496)
I0319 00:37:06.194314 28074 net.cpp:157] Top shape: 32 512 38 38 (23658496)
I0319 00:37:06.194320 28074 net.cpp:165] Memory required for data: 7954825344
I0319 00:37:06.194326 28074 layer_factory.hpp:77] Creating layer conv4_3_norm_mbox_loc
I0319 00:37:06.194339 28074 net.cpp:100] Creating Layer conv4_3_norm_mbox_loc
I0319 00:37:06.194345 28074 net.cpp:434] conv4_3_norm_mbox_loc <- conv4_3_norm_conv4_3_norm_0_split_0
I0319 00:37:06.194353 28074 net.cpp:408] conv4_3_norm_mbox_loc -> conv4_3_norm_mbox_loc
I0319 00:37:06.196447 28074 net.cpp:150] Setting up conv4_3_norm_mbox_loc
I0319 00:37:06.196462 28074 net.cpp:157] Top shape: 32 16 38 38 (739328)
I0319 00:37:06.196468 28074 net.cpp:165] Memory required for data: 7957782656
I0319 00:37:06.196478 28074 layer_factory.hpp:77] Creating layer conv4_3_norm_mbox_loc_perm
I0319 00:37:06.196501 28074 net.cpp:100] Creating Layer conv4_3_norm_mbox_loc_perm
I0319 00:37:06.196506 28074 net.cpp:434] conv4_3_norm_mbox_loc_perm <- conv4_3_norm_mbox_loc
I0319 00:37:06.196516 28074 net.cpp:408] conv4_3_norm_mbox_loc_perm -> conv4_3_norm_mbox_loc_perm
I0319 00:37:06.196633 28074 net.cpp:150] Setting up conv4_3_norm_mbox_loc_perm
I0319 00:37:06.196645 28074 net.cpp:157] Top shape: 32 38 38 16 (739328)
I0319 00:37:06.196650 28074 net.cpp:165] Memory required for data: 7960739968
I0319 00:37:06.196660 28074 layer_factory.hpp:77] Creating layer conv4_3_norm_mbox_loc_flat
I0319 00:37:06.196671 28074 net.cpp:100] Creating Layer conv4_3_norm_mbox_loc_flat
I0319 00:37:06.196677 28074 net.cpp:434] conv4_3_norm_mbox_loc_flat <- conv4_3_norm_mbox_loc_perm
I0319 00:37:06.196686 28074 net.cpp:408] conv4_3_norm_mbox_loc_flat -> conv4_3_norm_mbox_loc_flat
I0319 00:37:06.196719 28074 net.cpp:150] Setting up conv4_3_norm_mbox_loc_flat
I0319 00:37:06.196727 28074 net.cpp:157] Top shape: 32 23104 (739328)
I0319 00:37:06.196732 28074 net.cpp:165] Memory required for data: 7963697280
I0319 00:37:06.196738 28074 layer_factory.hpp:77] Creating layer conv4_3_norm_mbox_conf
I0319 00:37:06.196751 28074 net.cpp:100] Creating Layer conv4_3_norm_mbox_conf
I0319 00:37:06.196759 28074 net.cpp:434] conv4_3_norm_mbox_conf <- conv4_3_norm_conv4_3_norm_0_split_1
I0319 00:37:06.196779 28074 net.cpp:408] conv4_3_norm_mbox_conf -> conv4_3_norm_mbox_conf
I0319 00:37:06.199524 28074 net.cpp:150] Setting up conv4_3_norm_mbox_conf
I0319 00:37:06.199539 28074 net.cpp:157] Top shape: 32 44 38 38 (2033152)
I0319 00:37:06.199546 28074 net.cpp:165] Memory required for data: 7971829888
I0319 00:37:06.199555 28074 layer_factory.hpp:77] Creating layer conv4_3_norm_mbox_conf_perm
I0319 00:37:06.199565 28074 net.cpp:100] Creating Layer conv4_3_norm_mbox_conf_perm
I0319 00:37:06.199573 28074 net.cpp:434] conv4_3_norm_mbox_conf_perm <- conv4_3_norm_mbox_conf
I0319 00:37:06.199584 28074 net.cpp:408] conv4_3_norm_mbox_conf_perm -> conv4_3_norm_mbox_conf_perm
I0319 00:37:06.199689 28074 net.cpp:150] Setting up conv4_3_norm_mbox_conf_perm
I0319 00:37:06.199698 28074 net.cpp:157] Top shape: 32 38 38 44 (2033152)
I0319 00:37:06.199704 28074 net.cpp:165] Memory required for data: 7979962496
I0319 00:37:06.199710 28074 layer_factory.hpp:77] Creating layer conv4_3_norm_mbox_conf_flat
I0319 00:37:06.199723 28074 net.cpp:100] Creating Layer conv4_3_norm_mbox_conf_flat
I0319 00:37:06.199730 28074 net.cpp:434] conv4_3_norm_mbox_conf_flat <- conv4_3_norm_mbox_conf_perm
I0319 00:37:06.199739 28074 net.cpp:408] conv4_3_norm_mbox_conf_flat -> conv4_3_norm_mbox_conf_flat
I0319 00:37:06.199769 28074 net.cpp:150] Setting up conv4_3_norm_mbox_conf_flat
I0319 00:37:06.199777 28074 net.cpp:157] Top shape: 32 63536 (2033152)
I0319 00:37:06.199781 28074 net.cpp:165] Memory required for data: 7988095104
I0319 00:37:06.199789 28074 layer_factory.hpp:77] Creating layer conv4_3_norm_mbox_priorbox
I0319 00:37:06.199800 28074 net.cpp:100] Creating Layer conv4_3_norm_mbox_priorbox
I0319 00:37:06.199805 28074 net.cpp:434] conv4_3_norm_mbox_priorbox <- conv4_3_norm_conv4_3_norm_0_split_2
I0319 00:37:06.199812 28074 net.cpp:434] conv4_3_norm_mbox_priorbox <- data_data_0_split_1
I0319 00:37:06.199825 28074 net.cpp:408] conv4_3_norm_mbox_priorbox -> conv4_3_norm_mbox_priorbox
I0319 00:37:06.199858 28074 net.cpp:150] Setting up conv4_3_norm_mbox_priorbox
I0319 00:37:06.199867 28074 net.cpp:157] Top shape: 1 2 23104 (46208)
I0319 00:37:06.199872 28074 net.cpp:165] Memory required for data: 7988279936
I0319 00:37:06.199878 28074 layer_factory.hpp:77] Creating layer fc7_mbox_loc
I0319 00:37:06.199895 28074 net.cpp:100] Creating Layer fc7_mbox_loc
I0319 00:37:06.199903 28074 net.cpp:434] fc7_mbox_loc <- fc7_relu7_0_split_1
I0319 00:37:06.199910 28074 net.cpp:408] fc7_mbox_loc -> fc7_mbox_loc
I0319 00:37:06.202661 28074 net.cpp:150] Setting up fc7_mbox_loc
I0319 00:37:06.202674 28074 net.cpp:157] Top shape: 32 24 19 19 (277248)
I0319 00:37:06.202679 28074 net.cpp:165] Memory required for data: 7989388928
I0319 00:37:06.202689 28074 layer_factory.hpp:77] Creating layer fc7_mbox_loc_perm
I0319 00:37:06.202702 28074 net.cpp:100] Creating Layer fc7_mbox_loc_perm
I0319 00:37:06.202709 28074 net.cpp:434] fc7_mbox_loc_perm <- fc7_mbox_loc
I0319 00:37:06.202721 28074 net.cpp:408] fc7_mbox_loc_perm -> fc7_mbox_loc_perm
I0319 00:37:06.202826 28074 net.cpp:150] Setting up fc7_mbox_loc_perm
I0319 00:37:06.202836 28074 net.cpp:157] Top shape: 32 19 19 24 (277248)
I0319 00:37:06.202841 28074 net.cpp:165] Memory required for data: 7990497920
I0319 00:37:06.202845 28074 layer_factory.hpp:77] Creating layer fc7_mbox_loc_flat
I0319 00:37:06.202864 28074 net.cpp:100] Creating Layer fc7_mbox_loc_flat
I0319 00:37:06.202874 28074 net.cpp:434] fc7_mbox_loc_flat <- fc7_mbox_loc_perm
I0319 00:37:06.202881 28074 net.cpp:408] fc7_mbox_loc_flat -> fc7_mbox_loc_flat
I0319 00:37:06.202914 28074 net.cpp:150] Setting up fc7_mbox_loc_flat
I0319 00:37:06.202922 28074 net.cpp:157] Top shape: 32 8664 (277248)
I0319 00:37:06.202929 28074 net.cpp:165] Memory required for data: 7991606912
I0319 00:37:06.202934 28074 layer_factory.hpp:77] Creating layer fc7_mbox_conf
I0319 00:37:06.202947 28074 net.cpp:100] Creating Layer fc7_mbox_conf
I0319 00:37:06.202953 28074 net.cpp:434] fc7_mbox_conf <- fc7_relu7_0_split_2
I0319 00:37:06.202965 28074 net.cpp:408] fc7_mbox_conf -> fc7_mbox_conf
I0319 00:37:06.208241 28074 net.cpp:150] Setting up fc7_mbox_conf
I0319 00:37:06.208258 28074 net.cpp:157] Top shape: 32 66 19 19 (762432)
I0319 00:37:06.208263 28074 net.cpp:165] Memory required for data: 7994656640
I0319 00:37:06.208276 28074 layer_factory.hpp:77] Creating layer fc7_mbox_conf_perm
I0319 00:37:06.208287 28074 net.cpp:100] Creating Layer fc7_mbox_conf_perm
I0319 00:37:06.208295 28074 net.cpp:434] fc7_mbox_conf_perm <- fc7_mbox_conf
I0319 00:37:06.208304 28074 net.cpp:408] fc7_mbox_conf_perm -> fc7_mbox_conf_perm
I0319 00:37:06.208413 28074 net.cpp:150] Setting up fc7_mbox_conf_perm
I0319 00:37:06.208422 28074 net.cpp:157] Top shape: 32 19 19 66 (762432)
I0319 00:37:06.208426 28074 net.cpp:165] Memory required for data: 7997706368
I0319 00:37:06.208432 28074 layer_factory.hpp:77] Creating layer fc7_mbox_conf_flat
I0319 00:37:06.208444 28074 net.cpp:100] Creating Layer fc7_mbox_conf_flat
I0319 00:37:06.208451 28074 net.cpp:434] fc7_mbox_conf_flat <- fc7_mbox_conf_perm
I0319 00:37:06.208458 28074 net.cpp:408] fc7_mbox_conf_flat -> fc7_mbox_conf_flat
I0319 00:37:06.208489 28074 net.cpp:150] Setting up fc7_mbox_conf_flat
I0319 00:37:06.208499 28074 net.cpp:157] Top shape: 32 23826 (762432)
I0319 00:37:06.208504 28074 net.cpp:165] Memory required for data: 8000756096
I0319 00:37:06.208509 28074 layer_factory.hpp:77] Creating layer fc7_mbox_priorbox
I0319 00:37:06.208521 28074 net.cpp:100] Creating Layer fc7_mbox_priorbox
I0319 00:37:06.208530 28074 net.cpp:434] fc7_mbox_priorbox <- fc7_relu7_0_split_3
I0319 00:37:06.208539 28074 net.cpp:434] fc7_mbox_priorbox <- data_data_0_split_2
I0319 00:37:06.208547 28074 net.cpp:408] fc7_mbox_priorbox -> fc7_mbox_priorbox
I0319 00:37:06.208583 28074 net.cpp:150] Setting up fc7_mbox_priorbox
I0319 00:37:06.208592 28074 net.cpp:157] Top shape: 1 2 8664 (17328)
I0319 00:37:06.208596 28074 net.cpp:165] Memory required for data: 8000825408
I0319 00:37:06.208601 28074 layer_factory.hpp:77] Creating layer conv6_2_mbox_loc
I0319 00:37:06.208617 28074 net.cpp:100] Creating Layer conv6_2_mbox_loc
I0319 00:37:06.208626 28074 net.cpp:434] conv6_2_mbox_loc <- conv6_2_conv6_2_relu_0_split_1
I0319 00:37:06.208637 28074 net.cpp:408] conv6_2_mbox_loc -> conv6_2_mbox_loc
I0319 00:37:06.210952 28074 net.cpp:150] Setting up conv6_2_mbox_loc
I0319 00:37:06.210966 28074 net.cpp:157] Top shape: 32 24 10 10 (76800)
I0319 00:37:06.210973 28074 net.cpp:165] Memory required for data: 8001132608
I0319 00:37:06.210981 28074 layer_factory.hpp:77] Creating layer conv6_2_mbox_loc_perm
I0319 00:37:06.210994 28074 net.cpp:100] Creating Layer conv6_2_mbox_loc_perm
I0319 00:37:06.211000 28074 net.cpp:434] conv6_2_mbox_loc_perm <- conv6_2_mbox_loc
I0319 00:37:06.211009 28074 net.cpp:408] conv6_2_mbox_loc_perm -> conv6_2_mbox_loc_perm
I0319 00:37:06.211122 28074 net.cpp:150] Setting up conv6_2_mbox_loc_perm
I0319 00:37:06.211130 28074 net.cpp:157] Top shape: 32 10 10 24 (76800)
I0319 00:37:06.211135 28074 net.cpp:165] Memory required for data: 8001439808
I0319 00:37:06.211143 28074 layer_factory.hpp:77] Creating layer conv6_2_mbox_loc_flat
I0319 00:37:06.211149 28074 net.cpp:100] Creating Layer conv6_2_mbox_loc_flat
I0319 00:37:06.211156 28074 net.cpp:434] conv6_2_mbox_loc_flat <- conv6_2_mbox_loc_perm
I0319 00:37:06.211165 28074 net.cpp:408] conv6_2_mbox_loc_flat -> conv6_2_mbox_loc_flat
I0319 00:37:06.211197 28074 net.cpp:150] Setting up conv6_2_mbox_loc_flat
I0319 00:37:06.211206 28074 net.cpp:157] Top shape: 32 2400 (76800)
I0319 00:37:06.211210 28074 net.cpp:165] Memory required for data: 8001747008
I0319 00:37:06.211215 28074 layer_factory.hpp:77] Creating layer conv6_2_mbox_conf
I0319 00:37:06.211231 28074 net.cpp:100] Creating Layer conv6_2_mbox_conf
I0319 00:37:06.211237 28074 net.cpp:434] conv6_2_mbox_conf <- conv6_2_conv6_2_relu_0_split_2
I0319 00:37:06.211247 28074 net.cpp:408] conv6_2_mbox_conf -> conv6_2_mbox_conf
I0319 00:37:06.215098 28074 net.cpp:150] Setting up conv6_2_mbox_conf
I0319 00:37:06.215114 28074 net.cpp:157] Top shape: 32 66 10 10 (211200)
I0319 00:37:06.215119 28074 net.cpp:165] Memory required for data: 8002591808
I0319 00:37:06.215147 28074 layer_factory.hpp:77] Creating layer conv6_2_mbox_conf_perm
I0319 00:37:06.215157 28074 net.cpp:100] Creating Layer conv6_2_mbox_conf_perm
I0319 00:37:06.215164 28074 net.cpp:434] conv6_2_mbox_conf_perm <- conv6_2_mbox_conf
I0319 00:37:06.215175 28074 net.cpp:408] conv6_2_mbox_conf_perm -> conv6_2_mbox_conf_perm
I0319 00:37:06.215287 28074 net.cpp:150] Setting up conv6_2_mbox_conf_perm
I0319 00:37:06.215296 28074 net.cpp:157] Top shape: 32 10 10 66 (211200)
I0319 00:37:06.215301 28074 net.cpp:165] Memory required for data: 8003436608
I0319 00:37:06.215307 28074 layer_factory.hpp:77] Creating layer conv6_2_mbox_conf_flat
I0319 00:37:06.215315 28074 net.cpp:100] Creating Layer conv6_2_mbox_conf_flat
I0319 00:37:06.215322 28074 net.cpp:434] conv6_2_mbox_conf_flat <- conv6_2_mbox_conf_perm
I0319 00:37:06.215332 28074 net.cpp:408] conv6_2_mbox_conf_flat -> conv6_2_mbox_conf_flat
I0319 00:37:06.215364 28074 net.cpp:150] Setting up conv6_2_mbox_conf_flat
I0319 00:37:06.215373 28074 net.cpp:157] Top shape: 32 6600 (211200)
I0319 00:37:06.215376 28074 net.cpp:165] Memory required for data: 8004281408
I0319 00:37:06.215382 28074 layer_factory.hpp:77] Creating layer conv6_2_mbox_priorbox
I0319 00:37:06.215392 28074 net.cpp:100] Creating Layer conv6_2_mbox_priorbox
I0319 00:37:06.215399 28074 net.cpp:434] conv6_2_mbox_priorbox <- conv6_2_conv6_2_relu_0_split_3
I0319 00:37:06.215406 28074 net.cpp:434] conv6_2_mbox_priorbox <- data_data_0_split_3
I0319 00:37:06.215420 28074 net.cpp:408] conv6_2_mbox_priorbox -> conv6_2_mbox_priorbox
I0319 00:37:06.215456 28074 net.cpp:150] Setting up conv6_2_mbox_priorbox
I0319 00:37:06.215464 28074 net.cpp:157] Top shape: 1 2 2400 (4800)
I0319 00:37:06.215469 28074 net.cpp:165] Memory required for data: 8004300608
I0319 00:37:06.215476 28074 layer_factory.hpp:77] Creating layer conv7_2_mbox_loc
I0319 00:37:06.215488 28074 net.cpp:100] Creating Layer conv7_2_mbox_loc
I0319 00:37:06.215494 28074 net.cpp:434] conv7_2_mbox_loc <- conv7_2_conv7_2_relu_0_split_1
I0319 00:37:06.215504 28074 net.cpp:408] conv7_2_mbox_loc -> conv7_2_mbox_loc
I0319 00:37:06.217042 28074 net.cpp:150] Setting up conv7_2_mbox_loc
I0319 00:37:06.217056 28074 net.cpp:157] Top shape: 32 24 5 5 (19200)
I0319 00:37:06.217059 28074 net.cpp:165] Memory required for data: 8004377408
I0319 00:37:06.217069 28074 layer_factory.hpp:77] Creating layer conv7_2_mbox_loc_perm
I0319 00:37:06.217082 28074 net.cpp:100] Creating Layer conv7_2_mbox_loc_perm
I0319 00:37:06.217089 28074 net.cpp:434] conv7_2_mbox_loc_perm <- conv7_2_mbox_loc
I0319 00:37:06.217098 28074 net.cpp:408] conv7_2_mbox_loc_perm -> conv7_2_mbox_loc_perm
I0319 00:37:06.217200 28074 net.cpp:150] Setting up conv7_2_mbox_loc_perm
I0319 00:37:06.217208 28074 net.cpp:157] Top shape: 32 5 5 24 (19200)
I0319 00:37:06.217213 28074 net.cpp:165] Memory required for data: 8004454208
I0319 00:37:06.217219 28074 layer_factory.hpp:77] Creating layer conv7_2_mbox_loc_flat
I0319 00:37:06.217231 28074 net.cpp:100] Creating Layer conv7_2_mbox_loc_flat
I0319 00:37:06.217239 28074 net.cpp:434] conv7_2_mbox_loc_flat <- conv7_2_mbox_loc_perm
I0319 00:37:06.217247 28074 net.cpp:408] conv7_2_mbox_loc_flat -> conv7_2_mbox_loc_flat
I0319 00:37:06.217278 28074 net.cpp:150] Setting up conv7_2_mbox_loc_flat
I0319 00:37:06.217286 28074 net.cpp:157] Top shape: 32 600 (19200)
I0319 00:37:06.217293 28074 net.cpp:165] Memory required for data: 8004531008
I0319 00:37:06.217298 28074 layer_factory.hpp:77] Creating layer conv7_2_mbox_conf
I0319 00:37:06.217310 28074 net.cpp:100] Creating Layer conv7_2_mbox_conf
I0319 00:37:06.217317 28074 net.cpp:434] conv7_2_mbox_conf <- conv7_2_conv7_2_relu_0_split_2
I0319 00:37:06.217332 28074 net.cpp:408] conv7_2_mbox_conf -> conv7_2_mbox_conf
I0319 00:37:06.219266 28074 net.cpp:150] Setting up conv7_2_mbox_conf
I0319 00:37:06.219280 28074 net.cpp:157] Top shape: 32 66 5 5 (52800)
I0319 00:37:06.219285 28074 net.cpp:165] Memory required for data: 8004742208
I0319 00:37:06.219307 28074 layer_factory.hpp:77] Creating layer conv7_2_mbox_conf_perm
I0319 00:37:06.219326 28074 net.cpp:100] Creating Layer conv7_2_mbox_conf_perm
I0319 00:37:06.219336 28074 net.cpp:434] conv7_2_mbox_conf_perm <- conv7_2_mbox_conf
I0319 00:37:06.219344 28074 net.cpp:408] conv7_2_mbox_conf_perm -> conv7_2_mbox_conf_perm
I0319 00:37:06.219449 28074 net.cpp:150] Setting up conv7_2_mbox_conf_perm
I0319 00:37:06.219458 28074 net.cpp:157] Top shape: 32 5 5 66 (52800)
I0319 00:37:06.219463 28074 net.cpp:165] Memory required for data: 8004953408
I0319 00:37:06.219470 28074 layer_factory.hpp:77] Creating layer conv7_2_mbox_conf_flat
I0319 00:37:06.219478 28074 net.cpp:100] Creating Layer conv7_2_mbox_conf_flat
I0319 00:37:06.219486 28074 net.cpp:434] conv7_2_mbox_conf_flat <- conv7_2_mbox_conf_perm
I0319 00:37:06.219496 28074 net.cpp:408] conv7_2_mbox_conf_flat -> conv7_2_mbox_conf_flat
I0319 00:37:06.219527 28074 net.cpp:150] Setting up conv7_2_mbox_conf_flat
I0319 00:37:06.219535 28074 net.cpp:157] Top shape: 32 1650 (52800)
I0319 00:37:06.219540 28074 net.cpp:165] Memory required for data: 8005164608
I0319 00:37:06.219545 28074 layer_factory.hpp:77] Creating layer conv7_2_mbox_priorbox
I0319 00:37:06.219555 28074 net.cpp:100] Creating Layer conv7_2_mbox_priorbox
I0319 00:37:06.219570 28074 net.cpp:434] conv7_2_mbox_priorbox <- conv7_2_conv7_2_relu_0_split_3
I0319 00:37:06.219576 28074 net.cpp:434] conv7_2_mbox_priorbox <- data_data_0_split_4
I0319 00:37:06.219586 28074 net.cpp:408] conv7_2_mbox_priorbox -> conv7_2_mbox_priorbox
I0319 00:37:06.219619 28074 net.cpp:150] Setting up conv7_2_mbox_priorbox
I0319 00:37:06.219626 28074 net.cpp:157] Top shape: 1 2 600 (1200)
I0319 00:37:06.219631 28074 net.cpp:165] Memory required for data: 8005169408
I0319 00:37:06.219636 28074 layer_factory.hpp:77] Creating layer conv8_2_mbox_loc
I0319 00:37:06.219650 28074 net.cpp:100] Creating Layer conv8_2_mbox_loc
I0319 00:37:06.219657 28074 net.cpp:434] conv8_2_mbox_loc <- conv8_2_conv8_2_relu_0_split_1
I0319 00:37:06.219667 28074 net.cpp:408] conv8_2_mbox_loc -> conv8_2_mbox_loc
I0319 00:37:06.221108 28074 net.cpp:150] Setting up conv8_2_mbox_loc
I0319 00:37:06.221122 28074 net.cpp:157] Top shape: 32 16 3 3 (4608)
I0319 00:37:06.221127 28074 net.cpp:165] Memory required for data: 8005187840
I0319 00:37:06.221137 28074 layer_factory.hpp:77] Creating layer conv8_2_mbox_loc_perm
I0319 00:37:06.221148 28074 net.cpp:100] Creating Layer conv8_2_mbox_loc_perm
I0319 00:37:06.221158 28074 net.cpp:434] conv8_2_mbox_loc_perm <- conv8_2_mbox_loc
I0319 00:37:06.221168 28074 net.cpp:408] conv8_2_mbox_loc_perm -> conv8_2_mbox_loc_perm
I0319 00:37:06.221267 28074 net.cpp:150] Setting up conv8_2_mbox_loc_perm
I0319 00:37:06.221276 28074 net.cpp:157] Top shape: 32 3 3 16 (4608)
I0319 00:37:06.221280 28074 net.cpp:165] Memory required for data: 8005206272
I0319 00:37:06.221287 28074 layer_factory.hpp:77] Creating layer conv8_2_mbox_loc_flat
I0319 00:37:06.221297 28074 net.cpp:100] Creating Layer conv8_2_mbox_loc_flat
I0319 00:37:06.221304 28074 net.cpp:434] conv8_2_mbox_loc_flat <- conv8_2_mbox_loc_perm
I0319 00:37:06.221313 28074 net.cpp:408] conv8_2_mbox_loc_flat -> conv8_2_mbox_loc_flat
I0319 00:37:06.221344 28074 net.cpp:150] Setting up conv8_2_mbox_loc_flat
I0319 00:37:06.221352 28074 net.cpp:157] Top shape: 32 144 (4608)
I0319 00:37:06.221357 28074 net.cpp:165] Memory required for data: 8005224704
I0319 00:37:06.221361 28074 layer_factory.hpp:77] Creating layer conv8_2_mbox_conf
I0319 00:37:06.221376 28074 net.cpp:100] Creating Layer conv8_2_mbox_conf
I0319 00:37:06.221384 28074 net.cpp:434] conv8_2_mbox_conf <- conv8_2_conv8_2_relu_0_split_2
I0319 00:37:06.221397 28074 net.cpp:408] conv8_2_mbox_conf -> conv8_2_mbox_conf
I0319 00:37:06.223124 28074 net.cpp:150] Setting up conv8_2_mbox_conf
I0319 00:37:06.223140 28074 net.cpp:157] Top shape: 32 44 3 3 (12672)
I0319 00:37:06.223146 28074 net.cpp:165] Memory required for data: 8005275392
I0319 00:37:06.223155 28074 layer_factory.hpp:77] Creating layer conv8_2_mbox_conf_perm
I0319 00:37:06.223165 28074 net.cpp:100] Creating Layer conv8_2_mbox_conf_perm
I0319 00:37:06.223181 28074 net.cpp:434] conv8_2_mbox_conf_perm <- conv8_2_mbox_conf
I0319 00:37:06.223191 28074 net.cpp:408] conv8_2_mbox_conf_perm -> conv8_2_mbox_conf_perm
I0319 00:37:06.223294 28074 net.cpp:150] Setting up conv8_2_mbox_conf_perm
I0319 00:37:06.223304 28074 net.cpp:157] Top shape: 32 3 3 44 (12672)
I0319 00:37:06.223310 28074 net.cpp:165] Memory required for data: 8005326080
I0319 00:37:06.223320 28074 layer_factory.hpp:77] Creating layer conv8_2_mbox_conf_flat
I0319 00:37:06.223328 28074 net.cpp:100] Creating Layer conv8_2_mbox_conf_flat
I0319 00:37:06.223335 28074 net.cpp:434] conv8_2_mbox_conf_flat <- conv8_2_mbox_conf_perm
I0319 00:37:06.223345 28074 net.cpp:408] conv8_2_mbox_conf_flat -> conv8_2_mbox_conf_flat
I0319 00:37:06.223376 28074 net.cpp:150] Setting up conv8_2_mbox_conf_flat
I0319 00:37:06.223384 28074 net.cpp:157] Top shape: 32 396 (12672)
I0319 00:37:06.223388 28074 net.cpp:165] Memory required for data: 8005376768
I0319 00:37:06.223394 28074 layer_factory.hpp:77] Creating layer conv8_2_mbox_priorbox
I0319 00:37:06.223407 28074 net.cpp:100] Creating Layer conv8_2_mbox_priorbox
I0319 00:37:06.223413 28074 net.cpp:434] conv8_2_mbox_priorbox <- conv8_2_conv8_2_relu_0_split_3
I0319 00:37:06.223419 28074 net.cpp:434] conv8_2_mbox_priorbox <- data_data_0_split_5
I0319 00:37:06.223438 28074 net.cpp:408] conv8_2_mbox_priorbox -> conv8_2_mbox_priorbox
I0319 00:37:06.223470 28074 net.cpp:150] Setting up conv8_2_mbox_priorbox
I0319 00:37:06.223477 28074 net.cpp:157] Top shape: 1 2 144 (288)
I0319 00:37:06.223482 28074 net.cpp:165] Memory required for data: 8005377920
I0319 00:37:06.223489 28074 layer_factory.hpp:77] Creating layer conv9_2_mbox_loc
I0319 00:37:06.223503 28074 net.cpp:100] Creating Layer conv9_2_mbox_loc
I0319 00:37:06.223510 28074 net.cpp:434] conv9_2_mbox_loc <- conv9_2_conv9_2_relu_0_split_0
I0319 00:37:06.223520 28074 net.cpp:408] conv9_2_mbox_loc -> conv9_2_mbox_loc
I0319 00:37:06.224946 28074 net.cpp:150] Setting up conv9_2_mbox_loc
I0319 00:37:06.224961 28074 net.cpp:157] Top shape: 32 16 1 1 (512)
I0319 00:37:06.224965 28074 net.cpp:165] Memory required for data: 8005379968
I0319 00:37:06.224974 28074 layer_factory.hpp:77] Creating layer conv9_2_mbox_loc_perm
I0319 00:37:06.224984 28074 net.cpp:100] Creating Layer conv9_2_mbox_loc_perm
I0319 00:37:06.224992 28074 net.cpp:434] conv9_2_mbox_loc_perm <- conv9_2_mbox_loc
I0319 00:37:06.225001 28074 net.cpp:408] conv9_2_mbox_loc_perm -> conv9_2_mbox_loc_perm
I0319 00:37:06.225105 28074 net.cpp:150] Setting up conv9_2_mbox_loc_perm
I0319 00:37:06.225114 28074 net.cpp:157] Top shape: 32 1 1 16 (512)
I0319 00:37:06.225119 28074 net.cpp:165] Memory required for data: 8005382016
I0319 00:37:06.225124 28074 layer_factory.hpp:77] Creating layer conv9_2_mbox_loc_flat
I0319 00:37:06.225134 28074 net.cpp:100] Creating Layer conv9_2_mbox_loc_flat
I0319 00:37:06.225142 28074 net.cpp:434] conv9_2_mbox_loc_flat <- conv9_2_mbox_loc_perm
I0319 00:37:06.225153 28074 net.cpp:408] conv9_2_mbox_loc_flat -> conv9_2_mbox_loc_flat
I0319 00:37:06.225183 28074 net.cpp:150] Setting up conv9_2_mbox_loc_flat
I0319 00:37:06.225190 28074 net.cpp:157] Top shape: 32 16 (512)
I0319 00:37:06.225196 28074 net.cpp:165] Memory required for data: 8005384064
I0319 00:37:06.225201 28074 layer_factory.hpp:77] Creating layer conv9_2_mbox_conf
I0319 00:37:06.225215 28074 net.cpp:100] Creating Layer conv9_2_mbox_conf
I0319 00:37:06.225222 28074 net.cpp:434] conv9_2_mbox_conf <- conv9_2_conv9_2_relu_0_split_1
I0319 00:37:06.225234 28074 net.cpp:408] conv9_2_mbox_conf -> conv9_2_mbox_conf
I0319 00:37:06.227509 28074 net.cpp:150] Setting up conv9_2_mbox_conf
I0319 00:37:06.227522 28074 net.cpp:157] Top shape: 32 44 1 1 (1408)
I0319 00:37:06.227527 28074 net.cpp:165] Memory required for data: 8005389696
I0319 00:37:06.227537 28074 layer_factory.hpp:77] Creating layer conv9_2_mbox_conf_perm
I0319 00:37:06.227548 28074 net.cpp:100] Creating Layer conv9_2_mbox_conf_perm
I0319 00:37:06.227555 28074 net.cpp:434] conv9_2_mbox_conf_perm <- conv9_2_mbox_conf
I0319 00:37:06.227576 28074 net.cpp:408] conv9_2_mbox_conf_perm -> conv9_2_mbox_conf_perm
I0319 00:37:06.227681 28074 net.cpp:150] Setting up conv9_2_mbox_conf_perm
I0319 00:37:06.227690 28074 net.cpp:157] Top shape: 32 1 1 44 (1408)
I0319 00:37:06.227695 28074 net.cpp:165] Memory required for data: 8005395328
I0319 00:37:06.227700 28074 layer_factory.hpp:77] Creating layer conv9_2_mbox_conf_flat
I0319 00:37:06.227711 28074 net.cpp:100] Creating Layer conv9_2_mbox_conf_flat
I0319 00:37:06.227716 28074 net.cpp:434] conv9_2_mbox_conf_flat <- conv9_2_mbox_conf_perm
I0319 00:37:06.227727 28074 net.cpp:408] conv9_2_mbox_conf_flat -> conv9_2_mbox_conf_flat
I0319 00:37:06.227759 28074 net.cpp:150] Setting up conv9_2_mbox_conf_flat
I0319 00:37:06.227767 28074 net.cpp:157] Top shape: 32 44 (1408)
I0319 00:37:06.227772 28074 net.cpp:165] Memory required for data: 8005400960
I0319 00:37:06.227777 28074 layer_factory.hpp:77] Creating layer conv9_2_mbox_priorbox
I0319 00:37:06.227787 28074 net.cpp:100] Creating Layer conv9_2_mbox_priorbox
I0319 00:37:06.227795 28074 net.cpp:434] conv9_2_mbox_priorbox <- conv9_2_conv9_2_relu_0_split_2
I0319 00:37:06.227803 28074 net.cpp:434] conv9_2_mbox_priorbox <- data_data_0_split_6
I0319 00:37:06.227818 28074 net.cpp:408] conv9_2_mbox_priorbox -> conv9_2_mbox_priorbox
I0319 00:37:06.227854 28074 net.cpp:150] Setting up conv9_2_mbox_priorbox
I0319 00:37:06.227862 28074 net.cpp:157] Top shape: 1 2 16 (32)
I0319 00:37:06.227867 28074 net.cpp:165] Memory required for data: 8005401088
I0319 00:37:06.227872 28074 layer_factory.hpp:77] Creating layer mbox_loc
I0319 00:37:06.227882 28074 net.cpp:100] Creating Layer mbox_loc
I0319 00:37:06.227891 28074 net.cpp:434] mbox_loc <- conv4_3_norm_mbox_loc_flat
I0319 00:37:06.227898 28074 net.cpp:434] mbox_loc <- fc7_mbox_loc_flat
I0319 00:37:06.227907 28074 net.cpp:434] mbox_loc <- conv6_2_mbox_loc_flat
I0319 00:37:06.227913 28074 net.cpp:434] mbox_loc <- conv7_2_mbox_loc_flat
I0319 00:37:06.227921 28074 net.cpp:434] mbox_loc <- conv8_2_mbox_loc_flat
I0319 00:37:06.227927 28074 net.cpp:434] mbox_loc <- conv9_2_mbox_loc_flat
I0319 00:37:06.227937 28074 net.cpp:408] mbox_loc -> mbox_loc
I0319 00:37:06.227970 28074 net.cpp:150] Setting up mbox_loc
I0319 00:37:06.227982 28074 net.cpp:157] Top shape: 32 34928 (1117696)
I0319 00:37:06.227986 28074 net.cpp:165] Memory required for data: 8009871872
I0319 00:37:06.227991 28074 layer_factory.hpp:77] Creating layer mbox_conf
I0319 00:37:06.228000 28074 net.cpp:100] Creating Layer mbox_conf
I0319 00:37:06.228009 28074 net.cpp:434] mbox_conf <- conv4_3_norm_mbox_conf_flat
I0319 00:37:06.228016 28074 net.cpp:434] mbox_conf <- fc7_mbox_conf_flat
I0319 00:37:06.228024 28074 net.cpp:434] mbox_conf <- conv6_2_mbox_conf_flat
I0319 00:37:06.228030 28074 net.cpp:434] mbox_conf <- conv7_2_mbox_conf_flat
I0319 00:37:06.228037 28074 net.cpp:434] mbox_conf <- conv8_2_mbox_conf_flat
I0319 00:37:06.228044 28074 net.cpp:434] mbox_conf <- conv9_2_mbox_conf_flat
I0319 00:37:06.228060 28074 net.cpp:408] mbox_conf -> mbox_conf
I0319 00:37:06.228091 28074 net.cpp:150] Setting up mbox_conf
I0319 00:37:06.228098 28074 net.cpp:157] Top shape: 32 96052 (3073664)
I0319 00:37:06.228103 28074 net.cpp:165] Memory required for data: 8022166528
I0319 00:37:06.228109 28074 layer_factory.hpp:77] Creating layer mbox_priorbox
I0319 00:37:06.228118 28074 net.cpp:100] Creating Layer mbox_priorbox
I0319 00:37:06.228125 28074 net.cpp:434] mbox_priorbox <- conv4_3_norm_mbox_priorbox
I0319 00:37:06.228132 28074 net.cpp:434] mbox_priorbox <- fc7_mbox_priorbox
I0319 00:37:06.228138 28074 net.cpp:434] mbox_priorbox <- conv6_2_mbox_priorbox
I0319 00:37:06.228145 28074 net.cpp:434] mbox_priorbox <- conv7_2_mbox_priorbox
I0319 00:37:06.228152 28074 net.cpp:434] mbox_priorbox <- conv8_2_mbox_priorbox
I0319 00:37:06.228157 28074 net.cpp:434] mbox_priorbox <- conv9_2_mbox_priorbox
I0319 00:37:06.228164 28074 net.cpp:408] mbox_priorbox -> mbox_priorbox
I0319 00:37:06.228193 28074 net.cpp:150] Setting up mbox_priorbox
I0319 00:37:06.228202 28074 net.cpp:157] Top shape: 1 2 34928 (69856)
I0319 00:37:06.228214 28074 net.cpp:165] Memory required for data: 8022445952
I0319 00:37:06.228220 28074 layer_factory.hpp:77] Creating layer mbox_loss
I0319 00:37:06.228236 28074 net.cpp:100] Creating Layer mbox_loss
I0319 00:37:06.228243 28074 net.cpp:434] mbox_loss <- mbox_loc
I0319 00:37:06.228250 28074 net.cpp:434] mbox_loss <- mbox_conf
I0319 00:37:06.228255 28074 net.cpp:434] mbox_loss <- mbox_priorbox
…
  phase: TEST
}
layer {
  name: "data"
  type: "AnnotatedData"
  top: "data"
  top: "label"
  include {
    phase: TEST
  }
  transform_param {
    mean_value: 104
    mean_value: 117
    mean_value: 123
    resize_param {
      prob: 1
      resize_mode: WARP
      height: 300
      width: 300
      interp_mode: LINEAR
    }
  }
  data_param {
    source: "examples/NWPU_VHR/NWPU_VHR_test_lmdb"
    batch_size: 1
    backend: LMDB
  }
  annotated_data_param {
    batch_sampler {
    }
    label_map_file: "data/NWPU_VHR/labelmap_NWPU_VHR.prototxt"
  }
}
layer {
  name: "conv1_1"
  type: "Convolution"
  bottom: "data"
  top: "conv1_1"
  param {
    lr_mult: 1
    decay_mult: 1
  }
  param {
    lr_mult: 2
    decay_mult: 0
  }
  convolution_param {
    num_output: 64
    pad: 1
    kernel_size: 3
    weight_filler {
      type: "xavier"
    }
    bias_filler {
      type: "constant"
      value: 0
    }
  }
}
layer {
  name: "relu1_1"
  type: "ReLU"
  bottom: "conv1_1"
  top: "conv1_1"
}
layer {
  name: "conv1_2"
  type: "Convolution"
  bottom: "conv1_1"
  top: "conv1_2"
  param {
    lr_mult: 1
    decay_mult: 1
  }
  param {
    lr_mult: 2
    decay_mult: 0
  }
  convolution_param {
    num_output: 64
    pad: 1
    kernel_size: 3
    weight_filler {
      type: "xavier"
    }
    bias_filler {
      type: "constant"
      value: 0
    }
  }
}
layer {
  name: "relu1_2"
  type: "ReLU"
  bottom: "conv1_2"
  top: "conv1_2"
}
layer {
  name: "pool1"
  type: "Pooling"
  bottom: "conv1_2"
  top: "pool1"
  pooling_param {
    pool: MAX
    kernel_size: 2
    stride: 2
  }
}
layer {
  name: "conv2_1"
  type: "Convolution"
  bottom: "pool1"
  top: "conv2_1"
  param {
    lr_mult: 1
    decay_mult: 1
  }
  param {
    lr_mult: 2
    decay_mult: 0
  }
  convolution_param {
    num_output: 128
    pad: 1
    kernel_size: 3
    weight_filler {
      type: "xavier"
    }
    bias_filler {
      type: "constant"
      value: 0
    }
  }
}
layer {
  name: "relu2_1"
  type: "ReLU"
  bottom: "conv2_1"
  top: "conv2_1"
}
layer {
  name: "conv2_2"
  type: "Convolution"
  bottom: "conv2_1"
  top: "conv2_2"
  param {
    lr_mult: 1
    decay_mult: 1
  }
  param {
    lr_mult: 2
    decay_mult: 0
  }
  convolution_param {
    num_output: 128
    pad: 1
    kernel_size: 3
    weight_filler {
      type: "xavier"
    }
    bias_filler {
      type: "constant"
      value: 0
    }
  }
}
layer {
  name: "relu2_2"
  type: "ReLU"
  bottom: "conv2_2"
  top: "conv2_2"
}
layer {
  name: "pool2"
  type: "Pooling"
  bottom: "conv2_2"
  top: "pool2"
  pooling_param {
    pool: MAX
    kernel_size: 2
    stride: 2
  }
}
layer {
  name: "conv3_1"
  type: "Convolution"
  bottom: "pool2"
  top: "conv3_1"
  param {
    lr_mult: 1
    decay_mult: 1
  }
  param {
    lr_mult: 2
    decay_mult: 0
  }
  convolution_param {
    num_output: 256
    pad: 1
    kernel_size: 3
    weight_filler {
      type: "xavier"
    }
    bias_filler {
      type: "constant"
      value: 0
    }
  }
}
layer {
  name: "relu3_1"
  type: "ReLU"
  bottom: "conv3_1"
  top: "conv3_1"
}
layer {
  name: "conv3_2"
  type: "Convolution"
  bottom: "conv3_1"
  top: "conv3_2"
  param {
    lr_mult: 1
    decay_mult: 1
  }
  param {
    lr_mult: 2
    decay_mult: 0
  }
  convolution_param {
    num_output: 256
    pad: 1
    kernel_size: 3
    weight_filler {
      type: "xavier"
    }
    bias_filler {
      type: "constant"
      value: 0
    }
  }
}
layer {
  name: "relu3_2"
  type: "ReLU"
  bottom: "conv3_2"
  top: "conv3_2"
}
layer {
  name: "conv3_3"
  type: "Convolution"
  bottom: "conv3_2"
  top: "conv3_3"
  param {
    lr_mult: 1
    decay_mult: 1
  }
  param {
    lr_mult: 2
    decay_mult: 0
  }
  convolution_param {
    num_output: 256
    pad: 1
    kernel_size: 3
    weight_filler {
      type: "xavier"
    }
    bias_filler {
      type: "constant"
      value: 0
    }
  }
}
layer {
  name: "relu3_3"
  type: "ReLU"
  bottom: "conv3_3"
  top: "conv3_3"
}
layer {
  name: "pool3"
  type: "Pooling"
  bottom: "conv3_3"
  top: "pool3"
  pooling_param {
    pool: MAX
    kernel_size: 2
    stride: 2
  }
}
layer {
  name: "conv4_1"
  type: "Convolution"
  bottom: "pool3"
  top: "conv4_1"
  param {
    lr_mult: 1
    decay_mult: 1
  }
  param {
    lr_mult: 2
    decay_mult: 0
  }
  convolution_param {
    num_output: 512
    pad: 1
    kernel_size: 3
    weight_filler {
      type: "xavier"
    }
    bias_filler {
      type: "constant"
      value: 0
    }
  }
}
layer {
  name: "relu4_1"
  type: "ReLU"
  bottom: "conv4_1"
  top: "conv4_1"
}
layer {
  name: "conv4_2"
  type: "Convolution"
  bottom: "conv4_1"
  top: "conv4_2"
  param {
    lr_mult: 1
    decay_mult: 1
  }
  param {
    lr_mult: 2
    decay_mult: 0
  }
  convolution_param {
    num_output: 512
    pad: 1
    kernel_size: 3
    weight_filler {
      type: "xavier"
    }
    bias_filler {
      type: "constant"
      value: 0
    }
  }
}
layer {
  name: "relu4_2"
  type: "ReLU"
  bottom: "conv4_2"
  top: "conv4_2"
}
layer {
  name: "conv4_3"
  type: "Convolution"
  bottom: "conv4_2"
  top: "conv4_3"
  param {
    lr_mult: 1
    decay_mult: 1
  }
  param {
    lr_mult: 2
    decay_mult: 0
  }
  convolution_param {
    num_output: 512
    pad: 1
    kernel_size: 3
    weight_filler {
      type: "xavier"
    }
    bias_filler {
      type: "constant"
      value: 0
    }
  }
}
layer {
  name: "relu4_3"
  type: "ReLU"
  bottom: "conv4_3"
  top: "conv4_3"
}
layer {
  name: "pool4"
  type: "Pooling"
  bottom: "conv4_3"
  top: "pool4"
  pooling_param {
    pool: MAX
    kernel_size: 2
    stride: 2
  }
}
layer {
  name: "conv5_1"
  type: "Convolution"
  bottom: "pool4"
  top: "conv5_1"
  param {
    lr_mult: 1
    decay_mult: 1
  }
  param {
    lr_mult: 2
    decay_mult: 0
  }
  convolution_param {
    num_output: 512
    pad: 1
    kernel_size: 3
    weight_filler {
      type: "xavier"
    }
    bias_filler {
      type: "constant"
      value: 0
    }
    dilation: 1
  }
}
layer {
  name: "relu5_1"
  type: "ReLU"
  bottom: "conv5_1"
  top: "conv5_1"
}
layer {
  name: "conv5_2"
  type: "Convolution"
  bottom: "conv5_1"
  top: "conv5_2"
  param {
    lr_mult: 1
    decay_mult: 1
  }
  param {
    lr_mult: 2
    decay_mult: 0
  }
  convolution_param {
    num_output: 512
    pad: 1
    kernel_size: 3
    weight_filler {
      type: "xavier"
    }
    bias_filler {
      type: "constant"
      value: 0
    }
    dilation: 1
  }
}
layer {
  name: "relu5_2"
  type: "ReLU"
  bottom: "conv5_2"
  top: "conv5_2"
}
layer {
  name: "conv5_3_depthwise"
  type: "DepthwiseConvolution"
  bottom: "conv5_2"
  top: "conv5_3_3x3"
  param {
    lr_mult: 1
    decay_mult: 1
  }
  param {
    lr_mult: 2
    decay_mult: 0
  }
  convolution_param {
    num_output: 512
    pad: 1
    kernel_size: 3
    group: 512
    weight_filler {
      type: "xavier"
    }
    bias_filler {
      type: "constant"
      value: 0
    }
    dilation: 1
  }
}
layer {
  name: "conv5_3_3x3_relu"
  type: "ReLU"
  bottom: "conv5_3_3x3"
  top: "conv5_3_3x3"
}
layer {
  name: "conv5_3_1x1"
  type: "Convolution"
  bottom: "conv5_3_3x3"
  top: "conv5_3"
  param {
    lr_mult: 1
    decay_mult: 1
  }
  param {
    lr_mult: 2
    decay_mult: 0
  }
  convolution_param {
    num_output: 512
    pad: 0
    kernel_size: 1
    stride: 1
    weight_filler {
      type: "xavier"
    }
    bias_filler {
      type: "constant"
      value: 0
    }
    dilation: 1
  }
}
layer {
  name: "relu5_3"
  type: "ReLU"
  bottom: "conv5_3"
  top: "conv5_3"
}
layer {
  name: "pool5"
  type: "Pooling"
  bottom: "conv5_3"
  top: "pool5"
  pooling_param {
    pool: MAX
    kernel_size: 3
    stride: 1
    pad: 1
  }
}
layer {
  name: "fc6"
  type: "Convolution"
  bottom: "pool5"
  top: "fc6"
  param {
    lr_mult: 1
    decay_mult: 1
  }
  param {
    lr_mult: 2
    decay_mult: 0
  }
  convolution_param {
    num_output: 1024
    pad: 6
    kernel_size: 3
    weight_filler {
      type: "xavier"
    }
    bias_filler {
      type: "constant"
      value: 0
    }
    dilation: 6
  }
}
layer {
  name: "relu6"
  type: "ReLU"
  bottom: "fc6"
  top: "fc6"
}
layer {
  name: "fc7"
  type: "Convolution"
  bottom: "fc6"
  top: "fc7"
  param {
    lr_mult: 1
    decay_mult: 1
  }
  param {
    lr_mult: 2
    decay_mult: 0
  }
  convolution_param {
    num_output: 1024
    kernel_size: 1
    weight_filler {
      type: "xavier"
    }
    bias_filler {
      type: "constant"
      value: 0
    }
  }
}
layer {
  name: "relu7"
  type: "ReLU"
  bottom: "fc7"
  top: "fc7"
}
layer {
  name: "conv6_1"
  type: "Convolution"
  bottom: "fc7"
  top: "conv6_1"
  param {
    lr_mult: 1
    decay_mult: 1
  }
  param {
    lr_mult: 2
    decay_mult: 0
  }
  convolution_param {
    num_output: 256
    pad: 0
    kernel_size: 1
    stride: 1
    weight_filler {
      type: "xavier"
    }
    bias_filler {
      type: "constant"
      value: 0
    }
  }
}
layer {
  name: "conv6_1_relu"
  type: "ReLU"
  bottom: "conv6_1"
  top: "conv6_1"
}
layer {
  name: "conv6_2"
  type: "Convolution"
  bottom: "conv6_1"
  top: "conv6_2"
  param {
    lr_mult: 1
    decay_mult: 1
  }
  param {
    lr_mult: 2
    decay_mult: 0
  }
  convolution_param {
    num_output: 512
    pad: 1
    kernel_size: 3
    stride: 2
    weight_filler {
      type: "xavier"
    }
    bias_filler {
      type: "constant"
      value: 0
    }
  }
}
layer {
  name: "conv6_2_relu"
  type: "ReLU"
  bottom: "conv6_2"
  top: "conv6_2"
}
layer {
  name: "conv7_1"
  type: "Convolution"
  bottom: "conv6_2"
  top: "conv7_1"
  param {
    lr_mult: 1
    decay_mult: 1
  }
  param {
    lr_mult: 2
    decay_mult: 0
  }
  convolution_param {
    num_output: 128
    pad: 0
    kernel_size: 1
    stride: 1
    weight_filler {
      type: "xavier"
    }
    bias_filler {
      type: "constant"
      value: 0
    }
  }
}
layer {
  name: "conv7_1_relu"
  type: "ReLU"
  bottom: "conv7_1"
  top: "conv7_1"
}
layer {
  name: "conv7_2"
  type: "Convolution"
  bottom: "conv7_1"
  top: "conv7_2"
  param {
    lr_mult: 1
    decay_mult: 1
  }
  param {
    lr_mult: 2
    decay_mult: 0
  }
  convolution_param {
    num_output: 256
    pad: 1
    kernel_size: 3
    stride: 2
    weight_filler {
      type: "xavier"
    }
    bias_filler {
      type: "constant"
      value: 0
    }
  }
}
layer {
  name: "conv7_2_relu"
  type: "ReLU"
  bottom: "conv7_2"
  top: "conv7_2"
}
layer {
  name: "conv8_1"
  type: "Convolution"
  bottom: "conv7_2"
  top: "conv8_1"
  param {
    lr_mult: 1
    decay_mult: 1
  }
  param {
    lr_mult: 2
    decay_mult: 0
  }
  convolution_param {
    num_output: 128
    pad: 0
    kernel_size: 1
    stride: 1
    weight_filler {
      type: "xavier"
    }
    bias_filler {
      type: "constant"
      value: 0
    }
  }
}
layer {
  name: "conv8_1_relu"
  type: "ReLU"
  bottom: "conv8_1"
  top: "conv8_1"
}
layer {
  name: "conv8_2"
  type: "Convolution"
  bottom: "conv8_1"
  top: "conv8_2"
  param {
    lr_mult: 1
    decay_mult: 1
  }
  param {
    lr_mult: 2
    decay_mult: 0
  }
  convolution_param {
    num_output: 256
    pad: 0
    kernel_size: 3
    stride: 1
    weight_filler {
      type: "xavier"
    }
    bias_filler {
      type: "constant"
      value: 0
    }
  }
}
layer {
  name: "conv8_2_relu"
  type: "ReLU"
  bottom: "conv8_2"
  top: "conv8_2"
}
layer {
  name: "conv9_1"
  type: "Convolution"
  bottom: "conv8_2"
  top: "conv9_1"
  param {
    lr_mult: 1
    decay_mult: 1
  }
  param {
    lr_mult: 2
    decay_mult: 0
  }
  convolution_param {
    num_output: 128
    pad: 0
    kernel_size: 1
    stride: 1
    weight_filler {
      type: "xavier"
    }
    bias_filler {
      type: "constant"
      value: 0
    }
  }
}
layer {
  name: "conv9_1_relu"
  type: "ReLU"
  bottom: "conv9_1"
  top: "conv9_1"
}
layer {
  name: "conv9_2"
  type: "Convolution"
  bottom: "conv9_1"
  top: "conv9_2"
  param {
    lr_mult: 1
    decay_mult: 1
  }
  param {
    lr_mult: 2
    decay_mult: 0
  }
  convolution_param {
    num_output: 256
    pad: 0
    kernel_size: 3
    stride: 1
    weight_filler {
      type: "xavier"
    }
    bias_filler {
      type: "constant"
      value: 0
    }
  }
}
layer {
  name: "conv9_2_relu"
  type: "ReLU"
  bottom: "conv9_2"
  top: "conv9_2"
}
layer {
  name: "conv4_3_norm"
  type: "Normalize"
  bottom: "conv4_3"
  top: "conv4_3_norm"
  norm_param {
    across_spatial: false
    scale_filler {
      type: "constant"
      value: 20
    }
    channel_shared: false
  }
}
layer {
  name: "conv4_3_norm_mbox_loc"
  type: "Convolution"
  bottom: "conv4_3_norm"
  top: "conv4_3_norm_mbox_loc"
  param {
    lr_mult: 1
    decay_mult: 1
  }
  param {
    lr_mult: 2
    decay_mult: 0
  }
  convolution_param {
    num_output: 16
    pad: 1
    kernel_size: 3
    stride: 1
    weight_filler {
      type: "xavier"
    }
    bias_filler {
      type: "constant"
      value: 0
    }
  }
}
layer {
  name: "conv4_3_norm_mbox_loc_perm"
  type: "Permute"
  bottom: "conv4_3_norm_mbox_loc"
  top: "conv4_3_norm_mbox_loc_perm"
  permute_param {
    order: 0
    order: 2
    order: 3
    order: 1
  }
}
layer {
  name: "conv4_3_norm_mbox_loc_flat"
  type: "Flatten"
  bottom: "conv4_3_norm_mbox_loc_perm"
  top: "conv4_3_norm_mbox_loc_flat"
  flatten_param {
    axis: 1
  }
}
layer {
  name: "conv4_3_norm_mbox_conf"
  type: "Convolution"
  bottom: "conv4_3_norm"
  top: "conv4_3_norm_mbox_conf"
  param {
    lr_mult: 1
    decay_mult: 1
  }
  param {
    lr_mult: 2
    decay_mult: 0
  }
  convolution_param {
    num_output: 44
    pad: 1
    kernel_size: 3
    stride: 1
    weight_filler {
      type: "xavier"
    }
    bias_filler {
      type: "constant"
      value: 0
    }
  }
}
layer {
  name: "conv4_3_norm_mbox_conf_perm"
  type: "Permute"
  bottom: "conv4_3_norm_mbox_conf"
  top: "conv4_3_norm_mbox_conf_perm"
  permute_param {
    order: 0
    order: 2
    order: 3
    order: 1
  }
}
layer {
  name: "conv4_3_norm_mbox_conf_flat"
  type: "Flatten"
  bottom: "conv4_3_norm_mbox_conf_perm"
  top: "conv4_3_norm_mbox_conf_flat"
  flatten_param {
    axis: 1
  }
}
layer {
  name: "conv4_3_norm_mbox_priorbox"
  type: "PriorBox"
  bottom: "conv4_3_norm"
  bottom: "data"
  top: "conv4_3_norm_mbox_priorbox"
  prior_box_param {
    min_size: 30
    max_size: 60
    aspect_ratio: 2
    flip: true
    clip: false
    variance: 0.1
    variance: 0.1
    variance: 0.2
    variance: 0.2
    step: 8
    offset: 0.5
  }
}
layer {
  name: "fc7_mbox_loc"
  type: "Convolution"
  bottom: "fc7"
  top: "fc7_mbox_loc"
  param {
    lr_mult: 1
    decay_mult: 1
  }
  param {
    lr_mult: 2
    decay_mult: 0
  }
  convolution_param {
    num_output: 24
    pad: 1
    kernel_size: 3
    stride: 1
    weight_filler {
      type: "xavier"
    }
    bias_filler {
      type: "constant"
      value: 0
    }
  }
}
layer {
  name: "fc7_mbox_loc_perm"
  type: "Permute"
  bottom: "fc7_mbox_loc"
  top: "fc7_mbox_loc_perm"
  permute_param {
    order: 0
    order: 2
    order: 3
    order: 1
  }
}
layer {
  name: "fc7_mbox_loc_flat"
  type: "Flatten"
  bottom: "fc7_mbox_loc_perm"
  top: "fc7_mbox_loc_flat"
  flatten_param {
    axis: 1
  }
}
layer {
  name: "fc7_mbox_conf"
  type: "Convolution"
  bottom: "fc7"
  top: "fc7_mbox_conf"
  param {
    lr_mult: 1
    decay_mult: 1
  }
  param {
    lr_mult: 2
    decay_mult: 0
  }
  convolution_param {
    num_output: 66
    pad: 1
    kernel_size: 3
    stride: 1
    weight_filler {
      type: "xavier"
    }
    bias_filler {
      type: "constant"
      value: 0
    }
  }
}
layer {
  name: "fc7_mbox_conf_perm"
  type: "Permute"
  bottom: "fc7_mbox_conf"
  top: "fc7_mbox_conf_perm"
  permute_param {
    order: 0
    order: 2
    order: 3
    order: 1
  }
}
layer {
  name: "fc7_mbox_conf_flat"
  type: "Flatten"
  bottom: "fc7_mbox_conf_perm"
  top: "fc7_mbox_conf_flat"
  flatten_param {
    axis: 1
  }
}
layer {
  name: "fc7_mbox_priorbox"
  type: "PriorBox"
  bottom: "fc7"
  bottom: "data"
  top: "fc7_mbox_priorbox"
  prior_box_param {
    min_size: 60
    max_size: 111
    aspect_ratio: 2
    aspect_ratio: 3
    flip: true
    clip: false
    variance: 0.1
    variance: 0.1
    variance: 0.2
    variance: 0.2
    step: 16
    offset: 0.5
  }
}
layer {
  name: "conv6_2_mbox_loc"
  type: "Convolution"
  bottom: "conv6_2"
  top: "conv6_2_mbox_loc"
  param {
    lr_mult: 1
    decay_mult: 1
  }
  param {
    lr_mult: 2
    decay_mult: 0
  }
  convolution_param {
    num_output: 24
    pad: 1
    kernel_size: 3
    stride: 1
    weight_filler {
      type: "xavier"
    }
    bias_filler {
      type: "constant"
      value: 0
    }
  }
}
layer {
  name: "conv6_2_mbox_loc_perm"
  type: "Permute"
  bottom: "conv6_2_mbox_loc"
  top: "conv6_2_mbox_loc_perm"
  permute_param {
    order: 0
    order: 2
    order: 3
    order: 1
  }
}
layer {
  name: "conv6_2_mbox_loc_flat"
  type: "Flatten"
  bottom: "conv6_2_mbox_loc_perm"
  top: "conv6_2_mbox_loc_flat"
  flatten_param {
    axis: 1
  }
}
layer {
  name: "conv6_2_mbox_conf"
  type: "Convolution"
  bottom: "conv6_2"
  top: "conv6_2_mbox_conf"
  param {
    lr_mult: 1
    decay_mult: 1
  }
  param {
    lr_mult: 2
    decay_mult: 0
  }
  convolution_param {
    num_output: 66
    pad: 1
    kernel_size: 3
    stride: 1
    weight_filler {
      type: "xavier"
    }
    bias_filler {
      type: "constant"
      value: 0
    }
  }
}
layer {
  name: "conv6_2_mbox_conf_perm"
  type: "Permute"
  bottom: "conv6_2_mbox_conf"
  top: "conv6_2_mbox_conf_perm"
  permute_param {
    order: 0
    order: 2
    order: 3
    order: 1
  }
}
layer {
  name: "conv6_2_mbox_conf_flat"
  type: "Flatten"
  bottom: "conv6_2_mbox_conf_perm"
  top: "conv6_2_mbox_conf_flat"
  flatten_param {
    axis: 1
  }
}
layer {
  name: "conv6_2_mbox_priorbox"
  type: "PriorBox"
  bottom: "conv6_2"
  bottom: "data"
  top: "conv6_2_mbox_priorbox"
  prior_box_param {
    min_size: 111
    max_size: 162
    aspect_ratio: 2
    aspect_ratio: 3
    flip: true
    clip: false
    variance: 0.1
    variance: 0.1
    variance: 0.2
    variance: 0.2
    step: 32
    offset: 0.5
  }
}
layer {
  name: "conv7_2_mbox_loc"
  type: "Convolution"
  bottom: "conv7_2"
  top: "conv7_2_mbox_loc"
  param {
    lr_mult: 1
    decay_mult: 1
  }
  param {
    lr_mult: 2
    decay_mult: 0
  }
  convolution_param {
    num_output: 24
    pad: 1
    kernel_size: 3
    stride: 1
    weight_filler {
      type: "xavier"
    }
    bias_filler {
      type: "constant"
      value: 0
    }
  }
}
layer {
  name: "conv7_2_mbox_loc_perm"
  type: "Permute"
  bottom: "conv7_2_mbox_loc"
  top: "conv7_2_mbox_loc_perm"
  permute_param {
    order: 0
    order: 2
    order: 3
    order: 1
  }
}
layer {
  name: "conv7_2_mbox_loc_flat"
  type: "Flatten"
  bottom: "conv7_2_mbox_loc_perm"
  top: "conv7_2_mbox_loc_flat"
  flatten_param {
    axis: 1
  }
}
layer {
  name: "conv7_2_mbox_conf"
  type: "Convolution"
  bottom: "conv7_2"
  top: "conv7_2_mbox_conf"
  param {
    lr_mult: 1
    decay_mult: 1
  }
  param {
    lr_mult: 2
    decay_mult: 0
  }
  convolution_param {
    num_output: 66
    pad: 1
    kernel_size: 3
    stride: 1
    weight_filler {
      type: "xavier"
    }
    bias_filler {
      type: "constant"
      value: 0
    }
  }
}
layer {
  name: "conv7_2_mbox_conf_perm"
  type: "Permute"
  bottom: "conv7_2_mbox_conf"
  top: "conv7_2_mbox_conf_perm"
  permute_param {
    order: 0
    order: 2
    order: 3
    order: 1
  }
}
layer {
  name: "conv7_2_mbox_conf_flat"
  type: "Flatten"
  bottom: "conv7_2_mbox_conf_perm"
  top: "conv7_2_mbox_conf_flat"
  flatten_param {
    axis: 1
  }
}
layer {
  name: "conv7_2_mbox_priorbox"
  type: "PriorBox"
  bottom: "conv7_2"
  bottom: "data"
  top: "conv7_2_mbox_priorbox"
  prior_box_param {
    min_size: 162
    max_size: 213
    aspect_ratio: 2
    aspect_ratio: 3
    flip: true
    clip: false
    variance: 0.1
    variance: 0.1
    variance: 0.2
    variance: 0.2
    step: 64
    offset: 0.5
  }
}
layer {
  name: "conv8_2_mbox_loc"
  type: "Convolution"
  bottom: "conv8_2"
  top: "conv8_2_mbox_loc"
  param {
    lr_mult: 1
    decay_mult: 1
  }
  param {
    lr_mult: 2
    decay_mult: 0
  }
  convolution_param {
    num_output: 16
    pad: 1
    kernel_size: 3
    stride: 1
    weight_filler {
      type: "xavier"
    }
    bias_filler {
      type: "constant"
      value: 0
    }
  }
}
layer {
  name: "conv8_2_mbox_loc_perm"
  type: "Permute"
  bottom: "conv8_2_mbox_loc"
  top: "conv8_2_mbox_loc_perm"
  permute_param {
    order: 0
    order: 2
    order: 3
    order: 1
  }
}
layer {
  name: "conv8_2_mbox_loc_flat"
  type: "Flatten"
  bottom: "conv8_2_mbox_loc_perm"
  top: "conv8_2_mbox_loc_flat"
  flatten_param {
    axis: 1
  }
}
layer {
  name: "conv8_2_mbox_conf"
  type: "Convolution"
  bottom: "conv8_2"
  top: "conv8_2_mbox_conf"
  param {
    lr_mult: 1
    decay_mult: 1
  }
  param {
    lr_mult: 2
    decay_mult: 0
  }
  convolution_param {
    num_output: 44
    pad: 1
    kernel_size: 3
    stride: 1
    weight_filler {
      type: "xavier"
    }
    bias_filler {
      type: "constant"
      value: 0
    }
  }
}
layer {
  name: "conv8_2_mbox_conf_perm"
  type: "Permute"
  bottom: "conv8_2_mbox_conf"
  top: "conv8_2_mbox_conf_perm"
  permute_param {
    order: 0
    order: 2
    order: 3
    order: 1
  }
}
layer {
  name: "conv8_2_mbox_conf_flat"
  type: "Flatten"
  bottom: "conv8_2_mbox_conf_perm"
  top: "conv8_2_mbox_conf_flat"
  flatten_param {
    axis: 1
  }
}
layer {
  name: "conv8_2_mbox_priorbox"
  type: "PriorBox"
  bottom: "conv8_2"
  bottom: "data"
  top: "conv8_2_mbox_priorbox"
  prior_box_param {
    min_size: 213
    max_size: 264
    aspect_ratio: 2
    flip: true
    clip: false
    variance: 0.1
    variance: 0.1
    variance: 0.2
    variance: 0.2
    step: 100
    offset: 0.5
  }
}
layer {
  name: "conv9_2_mbox_loc"
  type: "Convolution"
  bottom: "conv9_2"
  top: "conv9_2_mbox_loc"
  param {
    lr_mult: 1
    decay_mult: 1
  }
  param {
    lr_mult: 2
    decay_mult: 0
  }
  convolution_param {
    num_output: 16
    pad: 1
    kernel_size: 3
    stride: 1
    weight_filler {
      type: "xavier"
    }
    bias_filler {
      type: "constant"
      value: 0
    }
  }
}
layer {
  name: "conv9_2_mbox_loc_perm"
  type: "Permute"
  bottom: "conv9_2_mbox_loc"
  top: "conv9_2_mbox_loc_perm"
  permute_param {
    order: 0
    order: 2
    order: 3
    order: 1
  }
}
layer {
  name: "conv9_2_mbox_loc_flat"
  type: "Flatten"
  bottom: "conv9_2_mbox_loc_perm"
  top: "conv9_2_mbox_loc_flat"
  flatten_param {
    axis: 1
  }
}
layer {
  name: "conv9_2_mbox_conf"
  type: "Convolution"
  bottom: "conv9_2"
  top: "conv9_2_mbox_conf"
  param {
    lr_mult: 1
    decay_mult: 1
  }
  param {
    lr_mult: 2
    decay_mult: 0
  }
  convolution_param {
    num_output: 44
    pad: 1
    kernel_size: 3
    stride: 1
    weight_filler {
      type: "xavier"
    }
    bias_filler {
      type: "constant"
      value: 0
    }
  }
}
layer {
  name: "conv9_2_mbox_conf_perm"
  type: "Permute"
  bottom: "conv9_2_mbox_conf"
  top: "conv9_2_mbox_conf_perm"
  permute_param {
    order: 0
    order: 2
    order: 3
    order: 1
  }
}
layer {
  name: "conv9_2_mbox_conf_flat"
  type: "Flatten"
  bottom: "conv9_2_mbox_conf_perm"
  top: "conv9_2_mbox_conf_flat"
  flatten_param {
    axis: 1
  }
}
layer {
  name: "conv9_2_mbox_priorbox"
  type: "PriorBox"
  bottom: "conv9_2"
  bottom: "data"
  top: "conv9_2_mbox_priorbox"
  prior_box_param {
    min_size: 264
    max_size: 315
    aspect_ratio: 2
    flip: true
    clip: false
    variance: 0.1
    variance: 0.1
    variance: 0.2
    variance: 0.2
    step: 300
    offset: 0.5
  }
}
layer {
  name: "mbox_loc"
  type: "Concat"
  bottom: "conv4_3_norm_mbox_loc_flat"
  bottom: "fc7_mbox_loc_flat"
  bottom: "conv6_2_mbox_loc_flat"
  bottom: "conv7_2_mbox_loc_flat"
  bottom: "conv8_2_mbox_loc_flat"
  bottom: "conv9_2_mbox_loc_flat"
  top: "mbox_loc"
  concat_param {
    axis: 1
  }
}
layer {
  name: "mbox_conf"
  type: "Concat"
  bottom: "conv4_3_norm_mbox_conf_flat"
  bottom: "fc7_mbox_conf_flat"
  bottom: "conv6_2_mbox_conf_flat"
  bottom: "conv7_2_mbox_conf_flat"
  bottom: "conv8_2_mbox_conf_flat"
  bottom: "conv9_2_mbox_conf_flat"
  top: "mbox_conf"
  concat_param {
    axis: 1
  }
}
layer {
  name: "mbox_priorbox"
  type: "Concat"
  bottom: "conv4_3_norm_mbox_priorbox"
  bottom: "fc7_mbox_priorbox"
  bottom: "conv6_2_mbox_priorbox"
  bottom: "conv7_2_mbox_priorbox"
  bottom: "conv8_2_mbox_priorbox"
  bottom: "conv9_2_mbox_priorbox"
  top: "mbox_priorbox"
  concat_param {
    axis: 2
  }
}
layer {
  name: "mbox_conf_reshape"
  type: "Reshape"
  bottom: "mbox_conf"
  top: "mbox_conf_reshape"
  reshape_param {
    shape {
      dim: 0
      dim: -1
      dim: 11
    }
  }
}
layer {
  name: "mbox_conf_softmax"
  type: "Softmax"
  bottom: "mbox_conf_reshape"
  top: "mbox_conf_softmax"
  softmax_param {
    axis: 2
  }
}
layer {
  name: "mbox_conf_flatten"
  type: "Flatten"
  bottom: "mbox_conf_softmax"
  top: "mbox_conf_flatten"
  flatten_param {
    axis: 1
  }
}
layer {
  name: "detection_out"
  type: "DetectionOutput"
  bottom: "mbox_loc"
  bottom: "mbox_conf_flatten"
  bottom: "mbox_priorbox"
  top: "detection_out"
  include {
    phase: TEST
  }
  detection_output_param {
    num_classes: 11
    share_location: true
    background_label_id: 0
    nms_param {
      nms_threshold: 0.45
      top_k: 400
    }
    save_output_param {
      output_directory: "/home/zs/data/VOCdevkit/results/VOC2007/SSD_300x300_initial_0317/Main"
      output_name_prefix: "comp4_det_test_"
      output_format: "VOC"
      label_map_file: "data/NWPU_VHR/labelmap_NWPU_VHR.prototxt"
      name_size_file: "data/NWPU_VHR/test_name_size.txt"
      num_test_image: 123
    }
    code_type: CENTER_SIZE
    keep_top_k: 200
    confidence_threshold: 0.01
  }
}
layer {
  name: "detection_eval"
  type: "DetectionEvaluate"
  bottom: "detection_out"
  bottom: "label"
  top: "detection_eval"
  include {
    phase: TEST
  }
  detection_evaluate_param {
    num_classes: 11
    background_label_id: 0
    overlap_threshold: 0.5
    evaluate_difficult_gt: false
    name_size_file: "data/NWPU_VHR/test_name_size.txt"
  }
}
I0319 00:37:06.231554 28074 layer_factory.hpp:77] Creating layer data
I0319 00:37:06.231622 28074 net.cpp:100] Creating Layer data
I0319 00:37:06.231634 28074 net.cpp:408] data -> data
I0319 00:37:06.231647 28074 net.cpp:408] data -> label
I0319 00:37:06.232726 28095 db_lmdb.cpp:35] Opened lmdb examples/NWPU_VHR/NWPU_VHR_test_lmdb
I0319 00:37:06.241683 28074 annotated_data_layer.cpp:62] output data size: 1,3,300,300
I0319 00:37:06.245285 28074 net.cpp:150] Setting up data
I0319 00:37:06.245309 28074 net.cpp:157] Top shape: 1 3 300 300 (270000)
I0319 00:37:06.245316 28074 net.cpp:157] Top shape: 1 1 4 8 (32)
I0319 00:37:06.245321 28074 net.cpp:165] Memory required for data: 1080128
I0319 00:37:06.245328 28074 layer_factory.hpp:77] Creating layer data_data_0_split
I0319 00:37:06.245345 28074 net.cpp:100] Creating Layer data_data_0_split
I0319 00:37:06.245354 28074 net.cpp:434] data_data_0_split <- data
I0319 00:37:06.245364 28074 net.cpp:408] data_data_0_split -> data_data_0_split_0
I0319 00:37:06.245380 28074 net.cpp:408] data_data_0_split -> data_data_0_split_1
I0319 00:37:06.245391 28074 net.cpp:408] data_data_0_split -> data_data_0_split_2
I0319 00:37:06.245402 28074 net.cpp:408] data_data_0_split -> data_data_0_split_3
I0319 00:37:06.245411 28074 net.cpp:408] data_data_0_split -> data_data_0_split_4
I0319 00:37:06.245419 28074 net.cpp:408] data_data_0_split -> data_data_0_split_5
I0319 00:37:06.245429 28074 net.cpp:408] data_data_0_split -> data_data_0_split_6
I0319 00:37:06.245539 28074 net.cpp:150] Setting up data_data_0_split
I0319 00:37:06.245548 28074 net.cpp:157] Top shape: 1 3 300 300 (270000)
I0319 00:37:06.245555 28074 net.cpp:157] Top shape: 1 3 300 300 (270000)
I0319 00:37:06.245564 28074 net.cpp:157] Top shape: 1 3 300 300 (270000)
I0319 00:37:06.245573 28074 net.cpp:157] Top shape: 1 3 300 300 (270000)
I0319 00:37:06.245579 28074 net.cpp:157] Top shape: 1 3 300 300 (270000)
I0319 00:37:06.245584 28074 net.cpp:157] Top shape: 1 3 300 300 (270000)
I0319 00:37:06.245592 28074 net.cpp:157] Top shape: 1 3 300 300 (270000)
I0319 00:37:06.245599 28074 net.cpp:165] Memory required for data: 8640128
I0319 00:37:06.245604 28074 layer_factory.hpp:77] Creating layer conv1_1
I0319 00:37:06.245620 28074 net.cpp:100] Creating Layer conv1_1
I0319 00:37:06.245626 28074 net.cpp:434] conv1_1 <- data_data_0_split_0
I0319 00:37:06.245635 28074 net.cpp:408] conv1_1 -> conv1_1
I0319 00:37:06.247632 28074 net.cpp:150] Setting up conv1_1
I0319 00:37:06.247645 28074 net.cpp:157] Top shape: 1 64 300 300 (5760000)
I0319 00:37:06.247653 28074 net.cpp:165] Memory required for data: 31680128
I0319 00:37:06.247666 28074 layer_factory.hpp:77] Creating layer relu1_1
I0319 00:37:06.247676 28074 net.cpp:100] Creating Layer relu1_1
I0319 00:37:06.247683 28074 net.cpp:434] relu1_1 <- conv1_1
I0319 00:37:06.247691 28074 net.cpp:395] relu1_1 -> conv1_1 (in-place)
I0319 00:37:06.247859 28074 net.cpp:150] Setting up relu1_1
I0319 00:37:06.247869 28074 net.cpp:157] Top shape: 1 64 300 300 (5760000)
I0319 00:37:06.247874 28074 net.cpp:165] Memory required for data: 54720128
I0319 00:37:06.247880 28074 layer_factory.hpp:77] Creating layer conv1_2
I0319 00:37:06.247892 28074 net.cpp:100] Creating Layer conv1_2
I0319 00:37:06.247900 28074 net.cpp:434] conv1_2 <- conv1_1
I0319 00:37:06.247908 28074 net.cpp:408] conv1_2 -> conv1_2
I0319 00:37:06.249368 28074 net.cpp:150] Setting up conv1_2
I0319 00:37:06.249382 28074 net.cpp:157] Top shape: 1 64 300 300 (5760000)
I0319 00:37:06.249387 28074 net.cpp:165] Memory required for data: 77760128
I0319 00:37:06.249398 28074 layer_factory.hpp:77] Creating layer relu1_2
I0319 00:37:06.249409 28074 net.cpp:100] Creating Layer relu1_2
I0319 00:37:06.249414 28074 net.cpp:434] relu1_2 <- conv1_2
I0319 00:37:06.249421 28074 net.cpp:395] relu1_2 -> conv1_2 (in-place)
I0319 00:37:06.250129 28074 net.cpp:150] Setting up relu1_2
I0319 00:37:06.250144 28074 net.cpp:157] Top shape: 1 64 300 300 (5760000)
I0319 00:37:06.250149 28074 net.cpp:165] Memory required for data: 100800128
I0319 00:37:06.250169 28074 layer_factory.hpp:77] Creating layer pool1
I0319 00:37:06.250180 28074 net.cpp:100] Creating Layer pool1
I0319 00:37:06.250188 28074 net.cpp:434] pool1 <- conv1_2
I0319 00:37:06.250195 28074 net.cpp:408] pool1 -> pool1
I0319 00:37:06.250247 28074 net.cpp:150] Setting up pool1
I0319 00:37:06.250255 28074 net.cpp:157] Top shape: 1 64 150 150 (1440000)
I0319 00:37:06.250262 28074 net.cpp:165] Memory required for data: 106560128
I0319 00:37:06.250267 28074 layer_factory.hpp:77] Creating layer conv2_1
I0319 00:37:06.250277 28074 net.cpp:100] Creating Layer conv2_1
I0319 00:37:06.250283 28074 net.cpp:434] conv2_1 <- pool1
I0319 00:37:06.250293 28074 net.cpp:408] conv2_1 -> conv2_1
I0319 00:37:06.252348 28074 net.cpp:150] Setting up conv2_1
I0319 00:37:06.252362 28074 net.cpp:157] Top shape: 1 128 150 150 (2880000)
I0319 00:37:06.252367 28074 net.cpp:165] Memory required for data: 118080128
I0319 00:37:06.252380 28074 layer_factory.hpp:77] Creating layer relu2_1
I0319 00:37:06.252390 28074 net.cpp:100] Creating Layer relu2_1
I0319 00:37:06.252398 28074 net.cpp:434] relu2_1 <- conv2_1
I0319 00:37:06.252406 28074 net.cpp:395] relu2_1 -> conv2_1 (in-place)
I0319 00:37:06.252574 28074 net.cpp:150] Setting up relu2_1
I0319 00:37:06.252584 28074 net.cpp:157] Top shape: 1 128 150 150 (2880000)
I0319 00:37:06.252588 28074 net.cpp:165] Memory required for data: 129600128
I0319 00:37:06.252594 28074 layer_factory.hpp:77] Creating layer conv2_2
I0319 00:37:06.252607 28074 net.cpp:100] Creating Layer conv2_2
I0319 00:37:06.252614 28074 net.cpp:434] conv2_2 <- conv2_1
I0319 00:37:06.252622 28074 net.cpp:408] conv2_2 -> conv2_2
I0319 00:37:06.255072 28074 net.cpp:150] Setting up conv2_2
I0319 00:37:06.255089 28074 net.cpp:157] Top shape: 1 128 150 150 (2880000)
I0319 00:37:06.255095 28074 net.cpp:165] Memory required for data: 141120128
I0319 00:37:06.255103 28074 layer_factory.hpp:77] Creating layer relu2_2
I0319 00:37:06.255113 28074 net.cpp:100] Creating Layer relu2_2
I0319 00:37:06.255122 28074 net.cpp:434] relu2_2 <- conv2_2
I0319 00:37:06.255131 28074 net.cpp:395] relu2_2 -> conv2_2 (in-place)
I0319 00:37:06.255297 28074 net.cpp:150] Setting up relu2_2
I0319 00:37:06.255308 28074 net.cpp:157] Top shape: 1 128 150 150 (2880000)
I0319 00:37:06.255313 28074 net.cpp:165] Memory required for data: 152640128
I0319 00:37:06.255318 28074 layer_factory.hpp:77] Creating layer pool2
I0319 00:37:06.255327 28074 net.cpp:100] Creating Layer pool2
I0319 00:37:06.255334 28074 net.cpp:434] pool2 <- conv2_2
I0319 00:37:06.255342 28074 net.cpp:408] pool2 -> pool2
I0319 00:37:06.255393 28074 net.cpp:150] Setting up pool2
I0319 00:37:06.255400 28074 net.cpp:157] Top shape: 1 128 75 75 (720000)
I0319 00:37:06.255404 28074 net.cpp:165] Memory required for data: 155520128
I0319 00:37:06.255410 28074 layer_factory.hpp:77] Creating layer conv3_1
I0319 00:37:06.255421 28074 net.cpp:100] Creating Layer conv3_1
I0319 00:37:06.255429 28074 net.cpp:434] conv3_1 <- pool2
I0319 00:37:06.255436 28074 net.cpp:408] conv3_1 -> conv3_1
I0319 00:37:06.259455 28074 net.cpp:150] Setting up conv3_1
I0319 00:37:06.259476 28074 net.cpp:157] Top shape: 1 256 75 75 (1440000)
I0319 00:37:06.259481 28074 net.cpp:165] Memory required for data: 161280128
I0319 00:37:06.259497 28074 layer_factory.hpp:77] Creating layer relu3_1
I0319 00:37:06.259510 28074 net.cpp:100] Creating Layer relu3_1
I0319 00:37:06.259527 28074 net.cpp:434] relu3_1 <- conv3_1
I0319 00:37:06.259539 28074 net.cpp:395] relu3_1 -> conv3_1 (in-place)
I0319 00:37:06.259815 28074 net.cpp:150] Setting up relu3_1
I0319 00:37:06.259830 28074 net.cpp:157] Top shape: 1 256 75 75 (1440000)
I0319 00:37:06.259835 28074 net.cpp:165] Memory required for data: 167040128
I0319 00:37:06.259841 28074 layer_factory.hpp:77] Creating layer conv3_2
I0319 00:37:06.259857 28074 net.cpp:100] Creating Layer conv3_2
I0319 00:37:06.259871 28074 net.cpp:434] conv3_2 <- conv3_1
I0319 00:37:06.259881 28074 net.cpp:408] conv3_2 -> conv3_2
I0319 00:37:06.265149 28074 net.cpp:150] Setting up conv3_2
I0319 00:37:06.265190 28074 net.cpp:157] Top shape: 1 256 75 75 (1440000)
I0319 00:37:06.265197 28074 net.cpp:165] Memory required for data: 172800128
I0319 00:37:06.265208 28074 layer_factory.hpp:77] Creating layer relu3_2
I0319 00:37:06.265220 28074 net.cpp:100] Creating Layer relu3_2
I0319 00:37:06.265226 28074 net.cpp:434] relu3_2 <- conv3_2
I0319 00:37:06.265240 28074 net.cpp:395] relu3_2 -> conv3_2 (in-place)
I0319 00:37:06.265990 28074 net.cpp:150] Setting up relu3_2
I0319 00:37:06.266005 28074 net.cpp:157] Top shape: 1 256 75 75 (1440000)
I0319 00:37:06.266010 28074 net.cpp:165] Memory required for data: 178560128
I0319 00:37:06.266016 28074 layer_factory.hpp:77] Creating layer conv3_3
I0319 00:37:06.266032 28074 net.cpp:100] Creating Layer conv3_3
I0319 00:37:06.266041 28074 net.cpp:434] conv3_3 <- conv3_2
I0319 00:37:06.266048 28074 net.cpp:408] conv3_3 -> conv3_3
I0319 00:37:06.271330 28074 net.cpp:150] Setting up conv3_3
I0319 00:37:06.271351 28074 net.cpp:157] Top shape: 1 256 75 75 (1440000)
I0319 00:37:06.271356 28074 net.cpp:165] Memory required for data: 184320128
I0319 00:37:06.271368 28074 layer_factory.hpp:77] Creating layer relu3_3
I0319 00:37:06.271379 28074 net.cpp:100] Creating Layer relu3_3
I0319 00:37:06.271414 28074 net.cpp:434] relu3_3 <- conv3_3
I0319 00:37:06.271438 28074 net.cpp:395] relu3_3 -> conv3_3 (in-place)
I0319 00:37:06.271646 28074 net.cpp:150] Setting up relu3_3
I0319 00:37:06.271658 28074 net.cpp:157] Top shape: 1 256 75 75 (1440000)
I0319 00:37:06.271663 28074 net.cpp:165] Memory required for data: 190080128
I0319 00:37:06.271669 28074 layer_factory.hpp:77] Creating layer pool3
I0319 00:37:06.271679 28074 net.cpp:100] Creating Layer pool3
I0319 00:37:06.271706 28074 net.cpp:434] pool3 <- conv3_3
I0319 00:37:06.271728 28074 net.cpp:408] pool3 -> pool3
I0319 00:37:06.271809 28074 net.cpp:150] Setting up pool3
I0319 00:37:06.271821 28074 net.cpp:157] Top shape: 1 256 38 38 (369664)
I0319 00:37:06.271826 28074 net.cpp:165] Memory required for data: 191558784
I0319 00:37:06.271831 28074 layer_factory.hpp:77] Creating layer conv4_1
I0319 00:37:06.271847 28074 net.cpp:100] Creating Layer conv4_1
I0319 00:37:06.271872 28074 net.cpp:434] conv4_1 <- pool3
I0319 00:37:06.271896 28074 net.cpp:408] conv4_1 -> conv4_1
I0319 00:37:06.280352 28074 net.cpp:150] Setting up conv4_1
I0319 00:37:06.280377 28074 net.cpp:157] Top shape: 1 512 38 38 (739328)
I0319 00:37:06.280382 28074 net.cpp:165] Memory required for data: 194516096
I0319 00:37:06.280395 28074 layer_factory.hpp:77] Creating layer relu4_1
I0319 00:37:06.280407 28074 net.cpp:100] Creating Layer relu4_1
I0319 00:37:06.280419 28074 net.cpp:434] relu4_1 <- conv4_1
I0319 00:37:06.280432 28074 net.cpp:395] relu4_1 -> conv4_1 (in-place)
I0319 00:37:06.280613 28074 net.cpp:150] Setting up relu4_1
I0319 00:37:06.280624 28074 net.cpp:157] Top shape: 1 512 38 38 (739328)
I0319 00:37:06.280628 28074 net.cpp:165] Memory required for data: 197473408
I0319 00:37:06.280634 28074 layer_factory.hpp:77] Creating layer conv4_2
I0319 00:37:06.280649 28074 net.cpp:100] Creating Layer conv4_2
I0319 00:37:06.280658 28074 net.cpp:434] conv4_2 <- conv4_1
I0319 00:37:06.280665 28074 net.cpp:408] conv4_2 -> conv4_2
I0319 00:37:06.294948 28074 net.cpp:150] Setting up conv4_2
I0319 00:37:06.294975 28074 net.cpp:157] Top shape: 1 512 38 38 (739328)
I0319 00:37:06.294981 28074 net.cpp:165] Memory required for data: 200430720
I0319 00:37:06.294997 28074 layer_factory.hpp:77] Creating layer relu4_2
I0319 00:37:06.295009 28074 net.cpp:100] Creating Layer relu4_2
I0319 00:37:06.295022 28074 net.cpp:434] relu4_2 <- conv4_2
I0319 00:37:06.295033 28074 net.cpp:395] relu4_2 -> conv4_2 (in-place)
I0319 00:37:06.295768 28074 net.cpp:150] Setting up relu4_2
I0319 00:37:06.295780 28074 net.cpp:157] Top shape: 1 512 38 38 (739328)
I0319 00:37:06.295786 28074 net.cpp:165] Memory required for data: 203388032
I0319 00:37:06.295792 28074 layer_factory.hpp:77] Creating layer conv4_3
I0319 00:37:06.295805 28074 net.cpp:100] Creating Layer conv4_3
I0319 00:37:06.295812 28074 net.cpp:434] conv4_3 <- conv4_2
I0319 00:37:06.295838 28074 net.cpp:408] conv4_3 -> conv4_3
I0319 00:37:06.310191 28074 net.cpp:150] Setting up conv4_3
I0319 00:37:06.310216 28074 net.cpp:157] Top shape: 1 512 38 38 (739328)
I0319 00:37:06.310221 28074 net.cpp:165] Memory required for data: 206345344
I0319 00:37:06.310235 28074 layer_factory.hpp:77] Creating layer relu4_3
I0319 00:37:06.310246 28074 net.cpp:100] Creating Layer relu4_3
I0319 00:37:06.310257 28074 net.cpp:434] relu4_3 <- conv4_3
I0319 00:37:06.310268 28074 net.cpp:395] relu4_3 -> conv4_3 (in-place)
I0319 00:37:06.310443 28074 net.cpp:150] Setting up relu4_3
I0319 00:37:06.310454 28074 net.cpp:157] Top shape: 1 512 38 38 (739328)
I0319 00:37:06.310458 28074 net.cpp:165] Memory required for data: 209302656
I0319 00:37:06.310464 28074 layer_factory.hpp:77] Creating layer conv4_3_relu4_3_0_split
I0319 00:37:06.310473 28074 net.cpp:100] Creating Layer conv4_3_relu4_3_0_split
I0319 00:37:06.310479 28074 net.cpp:434] conv4_3_relu4_3_0_split <- conv4_3
I0319 00:37:06.310488 28074 net.cpp:408] conv4_3_relu4_3_0_split -> conv4_3_relu4_3_0_split_0
I0319 00:37:06.310499 28074 net.cpp:408] conv4_3_relu4_3_0_split -> conv4_3_relu4_3_0_split_1
I0319 00:37:06.310550 28074 net.cpp:150] Setting up conv4_3_relu4_3_0_split
I0319 00:37:06.310559 28074 net.cpp:157] Top shape: 1 512 38 38 (739328)
I0319 00:37:06.310564 28074 net.cpp:157] Top shape: 1 512 38 38 (739328)
I0319 00:37:06.310569 28074 net.cpp:165] Memory required for data: 215217280
I0319 00:37:06.310576 28074 layer_factory.hpp:77] Creating layer pool4
I0319 00:37:06.310585 28074 net.cpp:100] Creating Layer pool4
I0319 00:37:06.310591 28074 net.cpp:434] pool4 <- conv4_3_relu4_3_0_split_0
I0319 00:37:06.310598 28074 net.cpp:408] pool4 -> pool4
I0319 00:37:06.310644 28074 net.cpp:150] Setting up pool4
I0319 00:37:06.310652 28074 net.cpp:157] Top shape: 1 512 19 19 (184832)
I0319 00:37:06.310657 28074 net.cpp:165] Memory required for data: 215956608
I0319 00:37:06.310662 28074 layer_factory.hpp:77] Creating layer conv5_1
I0319 00:37:06.310675 28074 net.cpp:100] Creating Layer conv5_1
I0319 00:37:06.310683 28074 net.cpp:434] conv5_1 <- pool4
I0319 00:37:06.310691 28074 net.cpp:408] conv5_1 -> conv5_1
I0319 00:37:06.325078 28074 net.cpp:150] Setting up conv5_1
I0319 00:37:06.325104 28074 net.cpp:157] Top shape: 1 512 19 19 (184832)
I0319 00:37:06.325109 28074 net.cpp:165] Memory required for data: 216695936
I0319 00:37:06.325121 28074 layer_factory.hpp:77] Creating layer relu5_1
I0319 00:37:06.325134 28074 net.cpp:100] Creating Layer relu5_1
I0319 00:37:06.325142 28074 net.cpp:434] relu5_1 <- conv5_1
I0319 00:37:06.325150 28074 net.cpp:395] relu5_1 -> conv5_1 (in-place)
I0319 00:37:06.325317 28074 net.cpp:150] Setting up relu5_1
I0319 00:37:06.325327 28074 net.cpp:157] Top shape: 1 512 19 19 (184832)
I0319 00:37:06.325332 28074 net.cpp:165] Memory required for data: 217435264
I0319 00:37:06.325338 28074 layer_factory.hpp:77] Creating layer conv5_2
I0319 00:37:06.325351 28074 net.cpp:100] Creating Layer conv5_2
I0319 00:37:06.325357 28074 net.cpp:434] conv5_2 <- conv5_1
I0319 00:37:06.325367 28074 net.cpp:408] conv5_2 -> conv5_2
I0319 00:37:06.339766 28074 net.cpp:150] Setting up conv5_2
I0319 00:37:06.339789 28074 net.cpp:157] Top shape: 1 512 19 19 (184832)
I0319 00:37:06.339794 28074 net.cpp:165] Memory required for data: 218174592
I0319 00:37:06.339807 28074 layer_factory.hpp:77] Creating layer relu5_2
I0319 00:37:06.339821 28074 net.cpp:100] Creating Layer relu5_2
I0319 00:37:06.339829 28074 net.cpp:434] relu5_2 <- conv5_2
I0319 00:37:06.339838 28074 net.cpp:395] relu5_2 -> conv5_2 (in-place)
I0319 00:37:06.340579 28074 net.cpp:150] Setting up relu5_2
I0319 00:37:06.340592 28074 net.cpp:157] Top shape: 1 512 19 19 (184832)
I0319 00:37:06.340596 28074 net.cpp:165] Memory required for data: 218913920
I0319 00:37:06.340602 28074 layer_factory.hpp:77] Creating layer conv5_3_depthwise
I0319 00:37:06.340617 28074 net.cpp:100] Creating Layer conv5_3_depthwise
I0319 00:37:06.340623 28074 net.cpp:434] conv5_3_depthwise <- conv5_2
I0319 00:37:06.340647 28074 net.cpp:408] conv5_3_depthwise -> conv5_3_3x3
I0319 00:37:06.340945 28074 net.cpp:150] Setting up conv5_3_depthwise
I0319 00:37:06.340956 28074 net.cpp:157] Top shape: 1 512 19 19 (184832)
I0319 00:37:06.340960 28074 net.cpp:165] Memory required for data: 219653248
I0319 00:37:06.340971 28074 layer_factory.hpp:77] Creating layer conv5_3_3x3_relu
I0319 00:37:06.340987 28074 net.cpp:100] Creating Layer conv5_3_3x3_relu
I0319 00:37:06.340994 28074 net.cpp:434] conv5_3_3x3_relu <- conv5_3_3x3
I0319 00:37:06.341001 28074 net.cpp:395] conv5_3_3x3_relu -> conv5_3_3x3 (in-place)
I0319 00:37:06.341176 28074 net.cpp:150] Setting up conv5_3_3x3_relu
I0319 00:37:06.341188 28074 net.cpp:157] Top shape: 1 512 19 19 (184832)
I0319 00:37:06.341194 28074 net.cpp:165] Memory required for data: 220392576
I0319 00:37:06.341202 28074 layer_factory.hpp:77] Creating layer conv5_3_1x1
I0319 00:37:06.341215 28074 net.cpp:100] Creating Layer conv5_3_1x1
I0319 00:37:06.341222 28074 net.cpp:434] conv5_3_1x1 <- conv5_3_3x3
I0319 00:37:06.341230 28074 net.cpp:408] conv5_3_1x1 -> conv5_3
I0319 00:37:06.344609 28074 net.cpp:150] Setting up conv5_3_1x1
I0319 00:37:06.344628 28074 net.cpp:157] Top shape: 1 512 19 19 (184832)
I0319 00:37:06.344633 28074 net.cpp:165] Memory required for data: 221131904
I0319 00:37:06.344645 28074 layer_factory.hpp:77] Creating layer relu5_3
I0319 00:37:06.344655 28074 net.cpp:100] Creating Layer relu5_3
I0319 00:37:06.344663 28074 net.cpp:434] relu5_3 <- conv5_3
I0319 00:37:06.344674 28074 net.cpp:395] relu5_3 -> conv5_3 (in-place)
I0319 00:37:06.344849 28074 net.cpp:150] Setting up relu5_3
I0319 00:37:06.344861 28074 net.cpp:157] Top shape: 1 512 19 19 (184832)
I0319 00:37:06.344866 28074 net.cpp:165] Memory required for data: 221871232
I0319 00:37:06.344871 28074 layer_factory.hpp:77] Creating layer pool5
I0319 00:37:06.344883 28074 net.cpp:100] Creating Layer pool5
I0319 00:37:06.344892 28074 net.cpp:434] pool5 <- conv5_3
I0319 00:37:06.344899 28074 net.cpp:408] pool5 -> pool5
I0319 00:37:06.344956 28074 net.cpp:150] Setting up pool5
I0319 00:37:06.344969 28074 net.cpp:157] Top shape: 1 512 19 19 (184832)
I0319 00:37:06.344974 28074 net.cpp:165] Memory required for data: 222610560
I0319 00:37:06.344980 28074 layer_factory.hpp:77] Creating layer fc6
I0319 00:37:06.344993 28074 net.cpp:100] Creating Layer fc6
I0319 00:37:06.345000 28074 net.cpp:434] fc6 <- pool5
I0319 00:37:06.345011 28074 net.cpp:408] fc6 -> fc6
I0319 00:37:06.370415 28074 net.cpp:150] Setting up fc6
I0319 00:37:06.370443 28074 net.cpp:157] Top shape: 1 1024 19 19 (369664)
I0319 00:37:06.370450 28074 net.cpp:165] Memory required for data: 224089216
I0319 00:37:06.370461 28074 layer_factory.hpp:77] Creating layer relu6
I0319 00:37:06.370473 28074 net.cpp:100] Creating Layer relu6
I0319 00:37:06.370481 28074 net.cpp:434] relu6 <- fc6
I0319 00:37:06.370492 28074 net.cpp:395] relu6 -> fc6 (in-place)
I0319 00:37:06.370743 28074 net.cpp:150] Setting up relu6
I0319 00:37:06.370754 28074 net.cpp:157] Top shape: 1 1024 19 19 (369664)
I0319 00:37:06.370759 28074 net.cpp:165] Memory required for data: 225567872
I0319 00:37:06.370765 28074 layer_factory.hpp:77] Creating layer fc7
I0319 00:37:06.370792 28074 net.cpp:100] Creating Layer fc7
I0319 00:37:06.370800 28074 net.cpp:434] fc7 <- fc6
I0319 00:37:06.370810 28074 net.cpp:408] fc7 -> fc7
I0319 00:37:06.378923 28074 net.cpp:150] Setting up fc7
I0319 00:37:06.378949 28074 net.cpp:157] Top shape: 1 1024 19 19 (369664)
I0319 00:37:06.378954 28074 net.cpp:165] Memory required for data: 227046528
I0319 00:37:06.378967 28074 layer_factory.hpp:77] Creating layer relu7
I0319 00:37:06.378980 28074 net.cpp:100] Creating Layer relu7
I0319 00:37:06.378988 28074 net.cpp:434] relu7 <- fc7
I0319 00:37:06.378999 28074 net.cpp:395] relu7 -> fc7 (in-place)
I0319 00:37:06.379760 28074 net.cpp:150] Setting up relu7
I0319 00:37:06.379772 28074 net.cpp:157] Top shape: 1 1024 19 19 (369664)
I0319 00:37:06.379777 28074 net.cpp:165] Memory required for data: 228525184
I0319 00:37:06.379783 28074 layer_factory.hpp:77] Creating layer fc7_relu7_0_split
I0319 00:37:06.379808 28074 net.cpp:100] Creating Layer fc7_relu7_0_split
I0319 00:37:06.379818 28074 net.cpp:434] fc7_relu7_0_split <- fc7
I0319 00:37:06.379827 28074 net.cpp:408] fc7_relu7_0_split -> fc7_relu7_0_split_0
I0319 00:37:06.379846 28074 net.cpp:408] fc7_relu7_0_split -> fc7_relu7_0_split_1
I0319 00:37:06.379858 28074 net.cpp:408] fc7_relu7_0_split -> fc7_relu7_0_split_2
I0319 00:37:06.379868 28074 net.cpp:408] fc7_relu7_0_split -> fc7_relu7_0_split_3
I0319 00:37:06.379962 28074 net.cpp:150] Setting up fc7_relu7_0_split
I0319 00:37:06.379971 28074 net.cpp:157] Top shape: 1 1024 19 19 (369664)
I0319 00:37:06.379977 28074 net.cpp:157] Top shape: 1 1024 19 19 (369664)
I0319 00:37:06.379984 28074 net.cpp:157] Top shape: 1 1024 19 19 (369664)
I0319 00:37:06.379990 28074 net.cpp:157] Top shape: 1 1024 19 19 (369664)
I0319 00:37:06.379995 28074 net.cpp:165] Memory required for data: 234439808
I0319 00:37:06.380000 28074 layer_factory.hpp:77] Creating layer conv6_1
I0319 00:37:06.380017 28074 net.cpp:100] Creating Layer conv6_1
I0319 00:37:06.380025 28074 net.cpp:434] conv6_1 <- fc7_relu7_0_split_0
I0319 00:37:06.380039 28074 net.cpp:408] conv6_1 -> conv6_1
I0319 00:37:06.382562 28074 net.cpp:150] Setting up conv6_1
I0319 00:37:06.382577 28074 net.cpp:157] Top shape: 1 256 19 19 (92416)
I0319 00:37:06.382582 28074 net.cpp:165] Memory required for data: 234809472
I0319 00:37:06.382598 28074 layer_factory.hpp:77] Creating layer conv6_1_relu
I0319 00:37:06.382609 28074 net.cpp:100] Creating Layer conv6_1_relu
I0319 00:37:06.382617 28074 net.cpp:434] conv6_1_relu <- conv6_1
I0319 00:37:06.382624 28074 net.cpp:395] conv6_1_relu -> conv6_1 (in-place)
I0319 00:37:06.382810 28074 net.cpp:150] Setting up conv6_1_relu
I0319 00:37:06.382822 28074 net.cpp:157] Top shape: 1 256 19 19 (92416)
I0319 00:37:06.382827 28074 net.cpp:165] Memory required for data: 235179136
I0319 00:37:06.382833 28074 layer_factory.hpp:77] Creating layer conv6_2
I0319 00:37:06.382848 28074 net.cpp:100] Creating Layer conv6_2
I0319 00:37:06.382853 28074 net.cpp:434] conv6_2 <- conv6_1
I0319 00:37:06.382864 28074 net.cpp:408] conv6_2 -> conv6_2
I0319 00:37:06.391420 28074 net.cpp:150] Setting up conv6_2
I0319 00:37:06.391445 28074 net.cpp:157] Top shape: 1 512 10 10 (51200)
I0319 00:37:06.391449 28074 net.cpp:165] Memory required for data: 235383936
I0319 00:37:06.391463 28074 layer_factory.hpp:77] Creating layer conv6_2_relu
I0319 00:37:06.391476 28074 net.cpp:100] Creating Layer conv6_2_relu
I0319 00:37:06.391484 28074 net.cpp:434] conv6_2_relu <- conv6_2
I0319 00:37:06.391494 28074 net.cpp:395] conv6_2_relu -> conv6_2 (in-place)
I0319 00:37:06.391690 28074 net.cpp:150] Setting up conv6_2_relu
I0319 00:37:06.391700 28074 net.cpp:157] Top shape: 1 512 10 10 (51200)
I0319 00:37:06.391705 28074 net.cpp:165] Memory required for data: 235588736
I0319 00:37:06.391711 28074 layer_factory.hpp:77] Creating layer conv6_2_conv6_2_relu_0_split
I0319 00:37:06.391723 28074 net.cpp:100] Creating Layer conv6_2_conv6_2_relu_0_split
I0319 00:37:06.391729 28074 net.cpp:434] conv6_2_conv6_2_relu_0_split <- conv6_2
I0319 00:37:06.391739 28074 net.cpp:408] conv6_2_conv6_2_relu_0_split -> conv6_2_conv6_2_relu_0_split_0
I0319 00:37:06.391750 28074 net.cpp:408] conv6_2_conv6_2_relu_0_split -> conv6_2_conv6_2_relu_0_split_1
I0319 00:37:06.391762 28074 net.cpp:408] conv6_2_conv6_2_relu_0_split -> conv6_2_conv6_2_relu_0_split_2
I0319 00:37:06.391769 28074 net.cpp:408] conv6_2_conv6_2_relu_0_split -> conv6_2_conv6_2_relu_0_split_3
I0319 00:37:06.391860 28074 net.cpp:150] Setting up conv6_2_conv6_2_relu_0_split
I0319 00:37:06.391871 28074 net.cpp:157] Top shape: 1 512 10 10 (51200)
I0319 00:37:06.391880 28074 net.cpp:157] Top shape: 1 512 10 10 (51200)
I0319 00:37:06.391885 28074 net.cpp:157] Top shape: 1 512 10 10 (51200)
I0319 00:37:06.391892 28074 net.cpp:157] Top shape: 1 512 10 10 (51200)
I0319 00:37:06.391896 28074 net.cpp:165] Memory required for data: 236407936
I0319 00:37:06.391902 28074 layer_factory.hpp:77] Creating layer conv7_1
I0319 00:37:06.391937 28074 net.cpp:100] Creating Layer conv7_1
I0319 00:37:06.391943 28074 net.cpp:434] conv7_1 <- conv6_2_conv6_2_relu_0_split_0
I0319 00:37:06.391954 28074 net.cpp:408] conv7_1 -> conv7_1
I0319 00:37:06.393643 28074 net.cpp:150] Setting up conv7_1
I0319 00:37:06.393657 28074 net.cpp:157] Top shape: 1 128 10 10 (12800)
I0319 00:37:06.393662 28074 net.cpp:165] Memory required for data: 236459136
I0319 00:37:06.393671 28074 layer_factory.hpp:77] Creating layer conv7_1_relu
I0319 00:37:06.393682 28074 net.cpp:100] Creating Layer conv7_1_relu
I0319 00:37:06.393687 28074 net.cpp:434] conv7_1_relu <- conv7_1
I0319 00:37:06.393697 28074 net.cpp:395] conv7_1_relu -> conv7_1 (in-place)
I0319 00:37:06.394459 28074 net.cpp:150] Setting up conv7_1_relu
I0319 00:37:06.394474 28074 net.cpp:157] Top shape: 1 128 10 10 (12800)
I0319 00:37:06.394480 28074 net.cpp:165] Memory required for data: 236510336
I0319 00:37:06.394485 28074 layer_factory.hpp:77] Creating layer conv7_2
I0319 00:37:06.394500 28074 net.cpp:100] Creating Layer conv7_2
I0319 00:37:06.394507 28074 net.cpp:434] conv7_2 <- conv7_1
I0319 00:37:06.394526 28074 net.cpp:408] conv7_2 -> conv7_2
I0319 00:37:06.398016 28074 net.cpp:150] Setting up conv7_2
I0319 00:37:06.398037 28074 net.cpp:157] Top shape: 1 256 5 5 (6400)
I0319 00:37:06.398044 28074 net.cpp:165] Memory required for data: 236535936
I0319 00:37:06.398054 28074 layer_factory.hpp:77] Creating layer conv7_2_relu
I0319 00:37:06.398063 28074 net.cpp:100] Creating Layer conv7_2_relu
I0319 00:37:06.398070 28074 net.cpp:434] conv7_2_relu <- conv7_2
I0319 00:37:06.398079 28074 net.cpp:395] conv7_2_relu -> conv7_2 (in-place)
I0319 00:37:06.398265 28074 net.cpp:150] Setting up conv7_2_relu
I0319 00:37:06.398277 28074 net.cpp:157] Top shape: 1 256 5 5 (6400)
I0319 00:37:06.398280 28074 net.cpp:165] Memory required for data: 236561536
I0319 00:37:06.398286 28074 layer_factory.hpp:77] Creating layer conv7_2_conv7_2_relu_0_split
I0319 00:37:06.398298 28074 net.cpp:100] Creating Layer conv7_2_conv7_2_relu_0_split
I0319 00:37:06.398303 28074 net.cpp:434] conv7_2_conv7_2_relu_0_split <- conv7_2
I0319 00:37:06.398315 28074 net.cpp:408] conv7_2_conv7_2_relu_0_split -> conv7_2_conv7_2_relu_0_split_0
I0319 00:37:06.398329 28074 net.cpp:408] conv7_2_conv7_2_relu_0_split -> conv7_2_conv7_2_relu_0_split_1
I0319 00:37:06.398339 28074 net.cpp:408] conv7_2_conv7_2_relu_0_split -> conv7_2_conv7_2_relu_0_split_2
I0319 00:37:06.398346 28074 net.cpp:408] conv7_2_conv7_2_relu_0_split -> conv7_2_conv7_2_relu_0_split_3
I0319 00:37:06.398439 28074 net.cpp:150] Setting up conv7_2_conv7_2_relu_0_split
I0319 00:37:06.398450 28074 net.cpp:157] Top shape: 1 256 5 5 (6400)
I0319 00:37:06.398456 28074 net.cpp:157] Top shape: 1 256 5 5 (6400)
I0319 00:37:06.398463 28074 net.cpp:157] Top shape: 1 256 5 5 (6400)
I0319 00:37:06.398469 28074 net.cpp:157] Top shape: 1 256 5 5 (6400)
I0319 00:37:06.398475 28074 net.cpp:165] Memory required for data: 236663936
I0319 00:37:06.398480 28074 layer_factory.hpp:77] Creating layer conv8_1
I0319 00:37:06.398496 28074 net.cpp:100] Creating Layer conv8_1
I0319 00:37:06.398504 28074 net.cpp:434] conv8_1 <- conv7_2_conv7_2_relu_0_split_0
I0319 00:37:06.398514 28074 net.cpp:408] conv8_1 -> conv8_1
I0319 00:37:06.400058 28074 net.cpp:150] Setting up conv8_1
I0319 00:37:06.400072 28074 net.cpp:157] Top shape: 1 128 5 5 (3200)
I0319 00:37:06.400079 28074 net.cpp:165] Memory required for data: 236676736
I0319 00:37:06.400089 28074 layer_factory.hpp:77] Creating layer conv8_1_relu
I0319 00:37:06.400097 28074 net.cpp:100] Creating Layer conv8_1_relu
I0319 00:37:06.400104 28074 net.cpp:434] conv8_1_relu <- conv8_1
I0319 00:37:06.400111 28074 net.cpp:395] conv8_1_relu -> conv8_1 (in-place)
I0319 00:37:06.400295 28074 net.cpp:150] Setting up conv8_1_relu
I0319 00:37:06.400307 28074 net.cpp:157] Top shape: 1 128 5 5 (3200)
I0319 00:37:06.400312 28074 net.cpp:165] Memory required for data: 236689536
I0319 00:37:06.400318 28074 layer_factory.hpp:77] Creating layer conv8_2
I0319 00:37:06.400333 28074 net.cpp:100] Creating Layer conv8_2
I0319 00:37:06.400352 28074 net.cpp:434] conv8_2 <- conv8_1
I0319 00:37:06.400362 28074 net.cpp:408] conv8_2 -> conv8_2
I0319 00:37:06.404646 28074 net.cpp:150] Setting up conv8_2
I0319 00:37:06.404671 28074 net.cpp:157] Top shape: 1 256 3 3 (2304)
I0319 00:37:06.404676 28074 net.cpp:165] Memory required for data: 236698752
I0319 00:37:06.404688 28074 layer_factory.hpp:77] Creating layer conv8_2_relu
I0319 00:37:06.404701 28074 net.cpp:100] Creating Layer conv8_2_relu
I0319 00:37:06.404711 28074 net.cpp:434] conv8_2_relu <- conv8_2
I0319 00:37:06.404719 28074 net.cpp:395] conv8_2_relu -> conv8_2 (in-place)
I0319 00:37:06.405542 28074 net.cpp:150] Setting up conv8_2_relu
I0319 00:37:06.405556 28074 net.cpp:157] Top shape: 1 256 3 3 (2304)
I0319 00:37:06.405562 28074 net.cpp:165] Memory required for data: 236707968
I0319 00:37:06.405567 28074 layer_factory.hpp:77] Creating layer conv8_2_conv8_2_relu_0_split
I0319 00:37:06.405577 28074 net.cpp:100] Creating Layer conv8_2_conv8_2_relu_0_split
I0319 00:37:06.405583 28074 net.cpp:434] conv8_2_conv8_2_relu_0_split <- conv8_2
I0319 00:37:06.405593 28074 net.cpp:408] conv8_2_conv8_2_relu_0_split -> conv8_2_conv8_2_relu_0_split_0
I0319 00:37:06.405604 28074 net.cpp:408] conv8_2_conv8_2_relu_0_split -> conv8_2_conv8_2_relu_0_split_1
I0319 00:37:06.405613 28074 net.cpp:408] conv8_2_conv8_2_relu_0_split -> conv8_2_conv8_2_relu_0_split_2
I0319 00:37:06.405647 28074 net.cpp:408] conv8_2_conv8_2_relu_0_split -> conv8_2_conv8_2_relu_0_split_3
I0319 00:37:06.405814 28074 net.cpp:150] Setting up conv8_2_conv8_2_relu_0_split
I0319 00:37:06.405840 28074 net.cpp:157] Top shape: 1 256 3 3 (2304)
I0319 00:37:06.405859 28074 net.cpp:157] Top shape: 1 256 3 3 (2304)
I0319 00:37:06.405877 28074 net.cpp:157] Top shape: 1 256 3 3 (2304)
I0319 00:37:06.405896 28074 net.cpp:157] Top shape: 1 256 3 3 (2304)
I0319 00:37:06.405912 28074 net.cpp:165] Memory required for data: 236744832
I0319 00:37:06.405930 28074 layer_factory.hpp:77] Creating layer conv9_1
I0319 00:37:06.405961 28074 net.cpp:100] Creating Layer conv9_1
I0319 00:37:06.405972 28074 net.cpp:434] conv9_1 <- conv8_2_conv8_2_relu_0_split_0
I0319 00:37:06.405982 28074 net.cpp:408] conv9_1 -> conv9_1
I0319 00:37:06.408421 28074 net.cpp:150] Setting up conv9_1
I0319 00:37:06.408439 28074 net.cpp:157] Top shape: 1 128 3 3 (1152)
I0319 00:37:06.408445 28074 net.cpp:165] Memory required for data: 236749440
I0319 00:37:06.408455 28074 layer_factory.hpp:77] Creating layer conv9_1_relu
I0319 00:37:06.408465 28074 net.cpp:100] Creating Layer conv9_1_relu
I0319 00:37:06.408471 28074 net.cpp:434] conv9_1_relu <- conv9_1
I0319 00:37:06.408483 28074 net.cpp:395] conv9_1_relu -> conv9_1 (in-place)
I0319 00:37:06.408704 28074 net.cpp:150] Setting up conv9_1_relu
I0319 00:37:06.408717 28074 net.cpp:157] Top shape: 1 128 3 3 (1152)
I0319 00:37:06.408722 28074 net.cpp:165] Memory required for data: 236754048
I0319 00:37:06.408728 28074 layer_factory.hpp:77] Creating layer conv9_2
I0319 00:37:06.408744 28074 net.cpp:100] Creating Layer conv9_2
I0319 00:37:06.408751 28074 net.cpp:434] conv9_2 <- conv9_1
I0319 00:37:06.408759 28074 net.cpp:408] conv9_2 -> conv9_2
I0319 00:37:06.412860 28074 net.cpp:150] Setting up conv9_2
I0319 00:37:06.412880 28074 net.cpp:157] Top shape: 1 256 1 1 (256)
I0319 00:37:06.412885 28074 net.cpp:165] Memory required for data: 236755072
I0319 00:37:06.412896 28074 layer_factory.hpp:77] Creating layer conv9_2_relu
I0319 00:37:06.412907 28074 net.cpp:100] Creating Layer conv9_2_relu
I0319 00:37:06.412914 28074 net.cpp:434] conv9_2_relu <- conv9_2
I0319 00:37:06.412921 28074 net.cpp:395] conv9_2_relu -> conv9_2 (in-place)
I0319 00:37:06.413156 28074 net.cpp:150] Setting up conv9_2_relu
I0319 00:37:06.413169 28074 net.cpp:157] Top shape: 1 256 1 1 (256)
I0319 00:37:06.413174 28074 net.cpp:165] Memory required for data: 236756096
I0319 00:37:06.413179 28074 layer_factory.hpp:77] Creating layer conv9_2_conv9_2_relu_0_split
I0319 00:37:06.413190 28074 net.cpp:100] Creating Layer conv9_2_conv9_2_relu_0_split
I0319 00:37:06.413198 28074 net.cpp:434] conv9_2_conv9_2_relu_0_split <- conv9_2
I0319 00:37:06.413244 28074 net.cpp:408] conv9_2_conv9_2_relu_0_split -> conv9_2_conv9_2_relu_0_split_0
I0319 00:37:06.413275 28074 net.cpp:408] conv9_2_conv9_2_relu_0_split -> conv9_2_conv9_2_relu_0_split_1
I0319 00:37:06.413298 28074 net.cpp:408] conv9_2_conv9_2_relu_0_split -> conv9_2_conv9_2_relu_0_split_2
I0319 00:37:06.413409 28074 net.cpp:150] Setting up conv9_2_conv9_2_relu_0_split
I0319 00:37:06.413420 28074 net.cpp:157] Top shape: 1 256 1 1 (256)
I0319 00:37:06.413426 28074 net.cpp:157] Top shape: 1 256 1 1 (256)
I0319 00:37:06.413432 28074 net.cpp:157] Top shape: 1 256 1 1 (256)
I0319 00:37:06.413439 28074 net.cpp:165] Memory required for data: 236759168
I0319 00:37:06.413444 28074 layer_factory.hpp:77] Creating layer conv4_3_norm
I0319 00:37:06.413453 28074 net.cpp:100] Creating Layer conv4_3_norm
I0319 00:37:06.413460 28074 net.cpp:434] conv4_3_norm <- conv4_3_relu4_3_0_split_1
I0319 00:37:06.413473 28074 net.cpp:408] conv4_3_norm -> conv4_3_norm
I0319 00:37:06.413743 28074 net.cpp:150] Setting up conv4_3_norm
I0319 00:37:06.413755 28074 net.cpp:157] Top shape: 1 512 38 38 (739328)
I0319 00:37:06.413760 28074 net.cpp:165] Memory required for data: 239716480
I0319 00:37:06.413769 28074 layer_factory.hpp:77] Creating layer conv4_3_norm_conv4_3_norm_0_split
I0319 00:37:06.413779 28074 net.cpp:100] Creating Layer conv4_3_norm_conv4_3_norm_0_split
I0319 00:37:06.413784 28074 net.cpp:434] conv4_3_norm_conv4_3_norm_0_split <- conv4_3_norm
I0319 00:37:06.413794 28074 net.cpp:408] conv4_3_norm_conv4_3_norm_0_split -> conv4_3_norm_conv4_3_norm_0_split_0
I0319 00:37:06.413805 28074 net.cpp:408] conv4_3_norm_conv4_3_norm_0_split -> conv4_3_norm_conv4_3_norm_0_split_1
I0319 00:37:06.413813 28074 net.cpp:408] conv4_3_norm_conv4_3_norm_0_split -> conv4_3_norm_conv4_3_norm_0_split_2
I0319 00:37:06.413920 28074 net.cpp:150] Setting up conv4_3_norm_conv4_3_norm_0_split
I0319 00:37:06.413946 28074 net.cpp:157] Top shape: 1 512 38 38 (739328)
I0319 00:37:06.413965 28074 net.cpp:157] Top shape: 1 512 38 38 (739328)
I0319 00:37:06.413983 28074 net.cpp:157] Top shape: 1 512 38 38 (739328)
I0319 00:37:06.413998 28074 net.cpp:165] Memory required for data: 248588416
I0319 00:37:06.414016 28074 layer_factory.hpp:77] Creating layer conv4_3_norm_mbox_loc
I0319 00:37:06.414044 28074 net.cpp:100] Creating Layer conv4_3_norm_mbox_loc
I0319 00:37:06.414063 28074 net.cpp:434] conv4_3_norm_mbox_loc <- conv4_3_norm_conv4_3_norm_0_split_0
I0319 00:37:06.414085 28074 net.cpp:408] conv4_3_norm_mbox_loc -> conv4_3_norm_mbox_loc
I0319 00:37:06.416628 28074 net.cpp:150] Setting up conv4_3_norm_mbox_loc
I0319 00:37:06.416644 28074 net.cpp:157] Top shape: 1 16 38 38 (23104)
I0319 00:37:06.416649 28074 net.cpp:165] Memory required for data: 248680832
I0319 00:37:06.416658 28074 layer_factory.hpp:77] Creating layer conv4_3_norm_mbox_loc_perm
I0319 00:37:06.416682 28074 net.cpp:100] Creating Layer conv4_3_norm_mbox_loc_perm
I0319 00:37:06.416692 28074 net.cpp:434] conv4_3_norm_mbox_loc_perm <- conv4_3_norm_mbox_loc
I0319 00:37:06.416700 28074 net.cpp:408] conv4_3_norm_mbox_loc_perm -> conv4_3_norm_mbox_loc_perm
I0319 00:37:06.416863 28074 net.cpp:150] Setting up conv4_3_norm_mbox_loc_perm
I0319 00:37:06.416875 28074 net.cpp:157] Top shape: 1 38 38 16 (23104)
I0319 00:37:06.416882 28074 net.cpp:165] Memory required for data: 248773248
I0319 00:37:06.416888 28074 layer_factory.hpp:77] Creating layer conv4_3_norm_mbox_loc_flat
I0319 00:37:06.416898 28074 net.cpp:100] Creating Layer conv4_3_norm_mbox_loc_flat
I0319 00:37:06.416904 28074 net.cpp:434] conv4_3_norm_mbox_loc_flat <- conv4_3_norm_mbox_loc_perm
I0319 00:37:06.416913 28074 net.cpp:408] conv4_3_norm_mbox_loc_flat -> conv4_3_norm_mbox_loc_flat
I0319 00:37:06.416956 28074 net.cpp:150] Setting up conv4_3_norm_mbox_loc_flat
I0319 00:37:06.416967 28074 net.cpp:157] Top shape: 1 23104 (23104)
I0319 00:37:06.416972 28074 net.cpp:165] Memory required for data: 248865664
I0319 00:37:06.416980 28074 layer_factory.hpp:77] Creating layer conv4_3_norm_mbox_conf
I0319 00:37:06.417009 28074 net.cpp:100] Creating Layer conv4_3_norm_mbox_conf
I0319 00:37:06.417017 28074 net.cpp:434] conv4_3_norm_mbox_conf <- conv4_3_norm_conv4_3_norm_0_split_1
I0319 00:37:06.417028 28074 net.cpp:408] conv4_3_norm_mbox_conf -> conv4_3_norm_mbox_conf
I0319 00:37:06.419939 28074 net.cpp:150] Setting up conv4_3_norm_mbox_conf
I0319 00:37:06.419953 28074 net.cpp:157] Top shape: 1 44 38 38 (63536)
I0319 00:37:06.419958 28074 net.cpp:165] Memory required for data: 249119808
I0319 00:37:06.419965 28074 layer_factory.hpp:77] Creating layer conv4_3_norm_mbox_conf_perm
I0319 00:37:06.419972 28074 net.cpp:100] Creating Layer conv4_3_norm_mbox_conf_perm
I0319 00:37:06.419977 28074 net.cpp:434] conv4_3_norm_mbox_conf_perm <- conv4_3_norm_mbox_conf
I0319 00:37:06.419986 28074 net.cpp:408] conv4_3_norm_mbox_conf_perm -> conv4_3_norm_mbox_conf_perm
I0319 00:37:06.420150 28074 net.cpp:150] Setting up conv4_3_norm_mbox_conf_perm
I0319 00:37:06.420161 28074 net.cpp:157] Top shape: 1 38 38 44 (63536)
I0319 00:37:06.420166 28074 net.cpp:165] Memory required for data: 249373952
I0319 00:37:06.420169 28074 layer_factory.hpp:77] Creating layer conv4_3_norm_mbox_conf_flat
I0319 00:37:06.420178 28074 net.cpp:100] Creating Layer conv4_3_norm_mbox_conf_flat
I0319 00:37:06.420187 28074 net.cpp:434] conv4_3_norm_mbox_conf_flat <- conv4_3_norm_mbox_conf_perm
I0319 00:37:06.420197 28074 net.cpp:408] conv4_3_norm_mbox_conf_flat -> conv4_3_norm_mbox_conf_flat
I0319 00:37:06.420238 28074 net.cpp:150] Setting up conv4_3_norm_mbox_conf_flat
I0319 00:37:06.420248 28074 net.cpp:157] Top shape: 1 63536 (63536)
I0319 00:37:06.420255 28074 net.cpp:165] Memory required for data: 249628096
I0319 00:37:06.420261 28074 layer_factory.hpp:77] Creating layer conv4_3_norm_mbox_priorbox
I0319 00:37:06.420274 28074 net.cpp:100] Creating Layer conv4_3_norm_mbox_priorbox
I0319 00:37:06.420282 28074 net.cpp:434] conv4_3_norm_mbox_priorbox <- conv4_3_norm_conv4_3_norm_0_split_2
I0319 00:37:06.420290 28074 net.cpp:434] conv4_3_norm_mbox_priorbox <- data_data_0_split_1
I0319 00:37:06.420302 28074 net.cpp:408] conv4_3_norm_mbox_priorbox -> conv4_3_norm_mbox_priorbox
I0319 00:37:06.420346 28074 net.cpp:150] Setting up conv4_3_norm_mbox_priorbox
I0319 00:37:06.420356 28074 net.cpp:157] Top shape: 1 2 23104 (46208)
I0319 00:37:06.420363 28074 net.cpp:165] Memory required for data: 249812928
I0319 00:37:06.420368 28074 layer_factory.hpp:77] Creating layer fc7_mbox_loc
I0319 00:37:06.420385 28074 net.cpp:100] Creating Layer fc7_mbox_loc
I0319 00:37:06.420393 28074 net.cpp:434] fc7_mbox_loc <- fc7_relu7_0_split_1
I0319 00:37:06.420403 28074 net.cpp:408] fc7_mbox_loc -> fc7_mbox_loc
I0319 00:37:06.423354 28074 net.cpp:150] Setting up fc7_mbox_loc
I0319 00:37:06.423369 28074 net.cpp:157] Top shape: 1 24 19 19 (8664)
I0319 00:37:06.423374 28074 net.cpp:165] Memory required for data: 249847584
I0319 00:37:06.423384 28074 layer_factory.hpp:77] Creating layer fc7_mbox_loc_perm
I0319 00:37:06.423398 28074 net.cpp:100] Creating Layer fc7_mbox_loc_perm
I0319 00:37:06.423405 28074 net.cpp:434] fc7_mbox_loc_perm <- fc7_mbox_loc
I0319 00:37:06.423414 28074 net.cpp:408] fc7_mbox_loc_perm -> fc7_mbox_loc_perm
I0319 00:37:06.423563 28074 net.cpp:150] Setting up fc7_mbox_loc_perm
I0319 00:37:06.423573 28074 net.cpp:157] Top shape: 1 19 19 24 (8664)
I0319 00:37:06.423576 28074 net.cpp:165] Memory required for data: 249882240
I0319 00:37:06.423581 28074 layer_factory.hpp:77] Creating layer fc7_mbox_loc_flat
I0319 00:37:06.423593 28074 net.cpp:100] Creating Layer fc7_mbox_loc_flat
I0319 00:37:06.423601 28074 net.cpp:434] fc7_mbox_loc_flat <- fc7_mbox_loc_perm
I0319 00:37:06.423609 28074 net.cpp:408] fc7_mbox_loc_flat -> fc7_mbox_loc_flat
I0319 00:37:06.423651 28074 net.cpp:150] Setting up fc7_mbox_loc_flat
I0319 00:37:06.423661 28074 net.cpp:157] Top shape: 1 8664 (8664)
I0319 00:37:06.423668 28074 net.cpp:165] Memory required for data: 249916896
I0319 00:37:06.423673 28074 layer_factory.hpp:77] Creating layer fc7_mbox_conf
I0319 00:37:06.423691 28074 net.cpp:100] Creating Layer fc7_mbox_conf
I0319 00:37:06.423712 28074 net.cpp:434] fc7_mbox_conf <- fc7_relu7_0_split_2
I0319 00:37:06.423724 28074 net.cpp:408] fc7_mbox_conf -> fc7_mbox_conf
I0319 00:37:06.429251 28074 net.cpp:150] Setting up fc7_mbox_conf
I0319 00:37:06.429268 28074 net.cpp:157] Top shape: 1 66 19 19 (23826)
I0319 00:37:06.429272 28074 net.cpp:165] Memory required for data: 250012200
I0319 00:37:06.429280 28074 layer_factory.hpp:77] Creating layer fc7_mbox_conf_perm
I0319 00:37:06.429291 28074 net.cpp:100] Creating Layer fc7_mbox_conf_perm
I0319 00:37:06.429296 28074 net.cpp:434] fc7_mbox_conf_perm <- fc7_mbox_conf
I0319 00:37:06.429302 28074 net.cpp:408] fc7_mbox_conf_perm -> fc7_mbox_conf_perm
I0319 00:37:06.429466 28074 net.cpp:150] Setting up fc7_mbox_conf_perm
I0319 00:37:06.429476 28074 net.cpp:157] Top shape: 1 19 19 66 (23826)
I0319 00:37:06.429479 28074 net.cpp:165] Memory required for data: 250107504
I0319 00:37:06.429484 28074 layer_factory.hpp:77] Creating layer fc7_mbox_conf_flat
I0319 00:37:06.429495 28074 net.cpp:100] Creating Layer fc7_mbox_conf_flat
I0319 00:37:06.429502 28074 net.cpp:434] fc7_mbox_conf_flat <- fc7_mbox_conf_perm
I0319 00:37:06.429512 28074 net.cpp:408] fc7_mbox_conf_flat -> fc7_mbox_conf_flat
I0319 00:37:06.429553 28074 net.cpp:150] Setting up fc7_mbox_conf_flat
I0319 00:37:06.429564 28074 net.cpp:157] Top shape: 1 23826 (23826)
I0319 00:37:06.429570 28074 net.cpp:165] Memory required for data: 250202808
I0319 00:37:06.429576 28074 layer_factory.hpp:77] Creating layer fc7_mbox_priorbox
I0319 00:37:06.429587 28074 net.cpp:100] Creating Layer fc7_mbox_priorbox
I0319 00:37:06.429595 28074 net.cpp:434] fc7_mbox_priorbox <- fc7_relu7_0_split_3
I0319 00:37:06.429602 28074 net.cpp:434] fc7_mbox_priorbox <- data_data_0_split_2
I0319 00:37:06.429612 28074 net.cpp:408] fc7_mbox_priorbox -> fc7_mbox_priorbox
I0319 00:37:06.429661 28074 net.cpp:150] Setting up fc7_mbox_priorbox
I0319 00:37:06.429670 28074 net.cpp:157] Top shape: 1 2 8664 (17328)
I0319 00:37:06.429697 28074 net.cpp:165] Memory required for data: 250272120
I0319 00:37:06.429718 28074 layer_factory.hpp:77] Creating layer conv6_2_mbox_loc
I0319 00:37:06.429759 28074 net.cpp:100] Creating Layer conv6_2_mbox_loc
I0319 00:37:06.429769 28074 net.cpp:434] conv6_2_mbox_loc <- conv6_2_conv6_2_relu_0_split_1
I0319 00:37:06.429781 28074 net.cpp:408] conv6_2_mbox_loc -> conv6_2_mbox_loc
I0319 00:37:06.432261 28074 net.cpp:150] Setting up conv6_2_mbox_loc
I0319 00:37:06.432274 28074 net.cpp:157] Top shape: 1 24 10 10 (2400)
I0319 00:37:06.432281 28074 net.cpp:165] Memory required for data: 250281720
I0319 00:37:06.432289 28074 layer_factory.hpp:77] Creating layer conv6_2_mbox_loc_perm
I0319 00:37:06.432301 28074 net.cpp:100] Creating Layer conv6_2_mbox_loc_perm
I0319 00:37:06.432308 28074 net.cpp:434] conv6_2_mbox_loc_perm <- conv6_2_mbox_loc
I0319 00:37:06.432320 28074 net.cpp:408] conv6_2_mbox_loc_perm -> conv6_2_mbox_loc_perm
I0319 00:37:06.432471 28074 net.cpp:150] Setting up conv6_2_mbox_loc_perm
I0319 00:37:06.432480 28074 net.cpp:157] Top shape: 1 10 10 24 (2400)
I0319 00:37:06.432484 28074 net.cpp:165] Memory required for data: 250291320
I0319 00:37:06.432490 28074 layer_factory.hpp:77] Creating layer conv6_2_mbox_loc_flat
I0319 00:37:06.432502 28074 net.cpp:100] Creating Layer conv6_2_mbox_loc_flat
I0319 00:37:06.432508 28074 net.cpp:434] conv6_2_mbox_loc_flat <- conv6_2_mbox_loc_perm
I0319 00:37:06.432520 28074 net.cpp:408] conv6_2_mbox_loc_flat -> conv6_2_mbox_loc_flat
I0319 00:37:06.432561 28074 net.cpp:150] Setting up conv6_2_mbox_loc_flat
I0319 00:37:06.432571 28074 net.cpp:157] Top shape: 1 2400 (2400)
I0319 00:37:06.432576 28074 net.cpp:165] Memory required for data: 250300920
I0319 00:37:06.432585 28074 layer_factory.hpp:77] Creating layer conv6_2_mbox_conf
I0319 00:37:06.432600 28074 net.cpp:100] Creating Layer conv6_2_mbox_conf
I0319 00:37:06.432606 28074 net.cpp:434] conv6_2_mbox_conf <- conv6_2_conv6_2_relu_0_split_2
I0319 00:37:06.432616 28074 net.cpp:408] conv6_2_mbox_conf -> conv6_2_mbox_conf
I0319 00:37:06.436744 28074 net.cpp:150] Setting up conv6_2_mbox_conf
I0319 00:37:06.436779 28074 net.cpp:157] Top shape: 1 66 10 10 (6600)
I0319 00:37:06.436784 28074 net.cpp:165] Memory required for data: 250327320
I0319 00:37:06.436790 28074 layer_factory.hpp:77] Creating layer conv6_2_mbox_conf_perm
I0319 00:37:06.436798 28074 net.cpp:100] Creating Layer conv6_2_mbox_conf_perm
I0319 00:37:06.436803 28074 net.cpp:434] conv6_2_mbox_conf_perm <- conv6_2_mbox_conf
I0319 00:37:06.436810 28074 net.cpp:408] conv6_2_mbox_conf_perm -> conv6_2_mbox_conf_perm
I0319 00:37:06.436976 28074 net.cpp:150] Setting up conv6_2_mbox_conf_perm
I0319 00:37:06.436986 28074 net.cpp:157] Top shape: 1 10 10 66 (6600)
I0319 00:37:06.436990 28074 net.cpp:165] Memory required for data: 250353720
I0319 00:37:06.436995 28074 layer_factory.hpp:77] Creating layer conv6_2_mbox_conf_flat
I0319 00:37:06.437005 28074 net.cpp:100] Creating Layer conv6_2_mbox_conf_flat
I0319 00:37:06.437013 28074 net.cpp:434] conv6_2_mbox_conf_flat <- conv6_2_mbox_conf_perm
I0319 00:37:06.437023 28074 net.cpp:408] conv6_2_mbox_conf_flat -> conv6_2_mbox_conf_flat
I0319 00:37:06.437067 28074 net.cpp:150] Setting up conv6_2_mbox_conf_flat
I0319 00:37:06.437077 28074 net.cpp:157] Top shape: 1 6600 (6600)
I0319 00:37:06.437083 28074 net.cpp:165] Memory required for data: 250380120
I0319 00:37:06.437089 28074 layer_factory.hpp:77] Creating layer conv6_2_mbox_priorbox
I0319 00:37:06.437099 28074 net.cpp:100] Creating Layer conv6_2_mbox_priorbox
I0319 00:37:06.437106 28074 net.cpp:434] conv6_2_mbox_priorbox <- conv6_2_conv6_2_relu_0_split_3
I0319 00:37:06.437115 28074 net.cpp:434] conv6_2_mbox_priorbox <- data_data_0_split_3
I0319 00:37:06.437129 28074 net.cpp:408] conv6_2_mbox_priorbox -> conv6_2_mbox_priorbox
I0319 00:37:06.437175 28074 net.cpp:150] Setting up conv6_2_mbox_priorbox
I0319 00:37:06.437186 28074 net.cpp:157] Top shape: 1 2 2400 (4800)
I0319 00:37:06.437191 28074 net.cpp:165] Memory required for data: 250399320
I0319 00:37:06.437199 28074 layer_factory.hpp:77] Creating layer conv7_2_mbox_loc
I0319 00:37:06.437213 28074 net.cpp:100] Creating Layer conv7_2_mbox_loc
I0319 00:37:06.437220 28074 net.cpp:434] conv7_2_mbox_loc <- conv7_2_conv7_2_relu_0_split_1
I0319 00:37:06.437232 28074 net.cpp:408] conv7_2_mbox_loc -> conv7_2_mbox_loc
I0319 00:37:06.439497 28074 net.cpp:150] Setting up conv7_2_mbox_loc
I0319 00:37:06.439510 28074 net.cpp:157] Top shape: 1 24 5 5 (600)
I0319 00:37:06.439514 28074 net.cpp:165] Memory required for data: 250401720
I0319 00:37:06.439522 28074 layer_factory.hpp:77] Creating layer conv7_2_mbox_loc_perm
I0319 00:37:06.439529 28074 net.cpp:100] Creating Layer conv7_2_mbox_loc_perm
I0319 00:37:06.439534 28074 net.cpp:434] conv7_2_mbox_loc_perm <- conv7_2_mbox_loc
I0319 00:37:06.439540 28074 net.cpp:408] conv7_2_mbox_loc_perm -> conv7_2_mbox_loc_perm
I0319 00:37:06.439703 28074 net.cpp:150] Setting up conv7_2_mbox_loc_perm
I0319 00:37:06.439713 28074 net.cpp:157] Top shape: 1 5 5 24 (600)
I0319 00:37:06.439718 28074 net.cpp:165] Memory required for data: 250404120
I0319 00:37:06.439723 28074 layer_factory.hpp:77] Creating layer conv7_2_mbox_loc_flat
I0319 00:37:06.439729 28074 net.cpp:100] Creating Layer conv7_2_mbox_loc_flat
I0319 00:37:06.439738 28074 net.cpp:434] conv7_2_mbox_loc_flat <- conv7_2_mbox_loc_perm
I0319 00:37:06.439748 28074 net.cpp:408] conv7_2_mbox_loc_flat -> conv7_2_mbox_loc_flat
I0319 00:37:06.439790 28074 net.cpp:150] Setting up conv7_2_mbox_loc_flat
I0319 00:37:06.439800 28074 net.cpp:157] Top shape: 1 600 (600)
I0319 00:37:06.439806 28074 net.cpp:165] Memory required for data: 250406520
I0319 00:37:06.439812 28074 layer_factory.hpp:77] Creating layer conv7_2_mbox_conf
I0319 00:37:06.439828 28074 net.cpp:100] Creating Layer conv7_2_mbox_conf
I0319 00:37:06.439836 28074 net.cpp:434] conv7_2_mbox_conf <- conv7_2_conv7_2_relu_0_split_2
I0319 00:37:06.439848 28074 net.cpp:408] conv7_2_mbox_conf -> conv7_2_mbox_conf
I0319 00:37:06.442548 28074 net.cpp:150] Setting up conv7_2_mbox_conf
I0319 00:37:06.442561 28074 net.cpp:157] Top shape: 1 66 5 5 (1650)
I0319 00:37:06.442581 28074 net.cpp:165] Memory required for data: 250413120
I0319 00:37:06.442607 28074 layer_factory.hpp:77] Creating layer conv7_2_mbox_conf_perm
I0319 00:37:06.442621 28074 net.cpp:100] Creating Layer conv7_2_mbox_conf_perm
I0319 00:37:06.442646 28074 net.cpp:434] conv7_2_mbox_conf_perm <- conv7_2_mbox_conf
I0319 00:37:06.442661 28074 net.cpp:408] conv7_2_mbox_conf_perm -> conv7_2_mbox_conf_perm
I0319 00:37:06.442814 28074 net.cpp:150] Setting up conv7_2_mbox_conf_perm
I0319 00:37:06.442823 28074 net.cpp:157] Top shape: 1 5 5 66 (1650)
I0319 00:37:06.442828 28074 net.cpp:165] Memory required for data: 250419720
I0319 00:37:06.442842 28074 layer_factory.hpp:77] Creating layer conv7_2_mbox_conf_flat
I0319 00:37:06.442849 28074 net.cpp:100] Creating Layer conv7_2_mbox_conf_flat
I0319 00:37:06.442857 28074 net.cpp:434] conv7_2_mbox_conf_flat <- conv7_2_mbox_conf_perm
I0319 00:37:06.442867 28074 net.cpp:408] conv7_2_mbox_conf_flat -> conv7_2_mbox_conf_flat
I0319 00:37:06.442910 28074 net.cpp:150] Setting up conv7_2_mbox_conf_flat
I0319 00:37:06.442920 28074 net.cpp:157] Top shape: 1 1650 (1650)
I0319 00:37:06.442925 28074 net.cpp:165] Memory required for data: 250426320
I0319 00:37:06.442931 28074 layer_factory.hpp:77] Creating layer conv7_2_mbox_priorbox
I0319 00:37:06.442942 28074 net.cpp:100] Creating Layer conv7_2_mbox_priorbox
I0319 00:37:06.442950 28074 net.cpp:434] conv7_2_mbox_priorbox <- conv7_2_conv7_2_relu_0_split_3
I0319 00:37:06.442958 28074 net.cpp:434] conv7_2_mbox_priorbox <- data_data_0_split_4
I0319 00:37:06.442970 28074 net.cpp:408] conv7_2_mbox_priorbox -> conv7_2_mbox_priorbox
I0319 00:37:06.443034 28074 net.cpp:150] Setting up conv7_2_mbox_priorbox
I0319 00:37:06.443048 28074 net.cpp:157] Top shape: 1 2 600 (1200)
I0319 00:37:06.443050 28074 net.cpp:165] Memory required for data: 250431120
I0319 00:37:06.443055 28074 layer_factory.hpp:77] Creating layer conv8_2_mbox_loc
I0319 00:37:06.443073 28074 net.cpp:100] Creating Layer conv8_2_mbox_loc
I0319 00:37:06.443081 28074 net.cpp:434] conv8_2_mbox_loc <- conv8_2_conv8_2_relu_0_split_1
I0319 00:37:06.443092 28074 net.cpp:408] conv8_2_mbox_loc -> conv8_2_mbox_loc
I0319 00:37:06.444710 28074 net.cpp:150] Setting up conv8_2_mbox_loc
I0319 00:37:06.444722 28074 net.cpp:157] Top shape: 1 16 3 3 (144)
I0319 00:37:06.444727 28074 net.cpp:165] Memory required for data: 250431696
I0319 00:37:06.444736 28074 layer_factory.hpp:77] Creating layer conv8_2_mbox_loc_perm
I0319 00:37:06.444748 28074 net.cpp:100] Creating Layer conv8_2_mbox_loc_perm
I0319 00:37:06.444756 28074 net.cpp:434] conv8_2_mbox_loc_perm <- conv8_2_mbox_loc
I0319 00:37:06.444766 28074 net.cpp:408] conv8_2_mbox_loc_perm -> conv8_2_mbox_loc_perm
I0319 00:37:06.444917 28074 net.cpp:150] Setting up conv8_2_mbox_loc_perm
I0319 00:37:06.444926 28074 net.cpp:157] Top shape: 1 3 3 16 (144)
I0319 00:37:06.444931 28074 net.cpp:165] Memory required for data: 250432272
I0319 00:37:06.444936 28074 layer_factory.hpp:77] Creating layer conv8_2_mbox_loc_flat
I0319 00:37:06.444945 28074 net.cpp:100] Creating Layer conv8_2_mbox_loc_flat
I0319 00:37:06.444953 28074 net.cpp:434] conv8_2_mbox_loc_flat <- conv8_2_mbox_loc_perm
I0319 00:37:06.444964 28074 net.cpp:408] conv8_2_mbox_loc_flat -> conv8_2_mbox_loc_flat
I0319 00:37:06.445008 28074 net.cpp:150] Setting up conv8_2_mbox_loc_flat
I0319 00:37:06.445017 28074 net.cpp:157] Top shape: 1 144 (144)
I0319 00:37:06.445022 28074 net.cpp:165] Memory required for data: 250432848
I0319 00:37:06.445029 28074 layer_factory.hpp:77] Creating layer conv8_2_mbox_conf
I0319 00:37:06.445044 28074 net.cpp:100] Creating Layer conv8_2_mbox_conf
I0319 00:37:06.445050 28074 net.cpp:434] conv8_2_mbox_conf <- conv8_2_conv8_2_relu_0_split_2
I0319 00:37:06.445061 28074 net.cpp:408] conv8_2_mbox_conf -> conv8_2_mbox_conf
I0319 00:37:06.447510 28074 net.cpp:150] Setting up conv8_2_mbox_conf
I0319 00:37:06.447523 28074 net.cpp:157] Top shape: 1 44 3 3 (396)
I0319 00:37:06.447527 28074 net.cpp:165] Memory required for data: 250434432
I0319 00:37:06.447535 28074 layer_factory.hpp:77] Creating layer conv8_2_mbox_conf_perm
I0319 00:37:06.447557 28074 net.cpp:100] Creating Layer conv8_2_mbox_conf_perm
I0319 00:37:06.447566 28074 net.cpp:434] conv8_2_mbox_conf_perm <- conv8_2_mbox_conf
I0319 00:37:06.447576 28074 net.cpp:408] conv8_2_mbox_conf_perm -> conv8_2_mbox_conf_perm
I0319 00:37:06.447726 28074 net.cpp:150] Setting up conv8_2_mbox_conf_perm
I0319 00:37:06.447736 28074 net.cpp:157] Top shape: 1 3 3 44 (396)
I0319 00:37:06.447739 28074 net.cpp:165] Memory required for data: 250436016
I0319 00:37:06.447746 28074 layer_factory.hpp:77] Creating layer conv8_2_mbox_conf_flat
I0319 00:37:06.447753 28074 net.cpp:100] Creating Layer conv8_2_mbox_conf_flat
I0319 00:37:06.447762 28074 net.cpp:434] conv8_2_mbox_conf_flat <- conv8_2_mbox_conf_perm
I0319 00:37:06.447770 28074 net.cpp:408] conv8_2_mbox_conf_flat -> conv8_2_mbox_conf_flat
I0319 00:37:06.447813 28074 net.cpp:150] Setting up conv8_2_mbox_conf_flat
I0319 00:37:06.447824 28074 net.cpp:157] Top shape: 1 396 (396)
I0319 00:37:06.447830 28074 net.cpp:165] Memory required for data: 250437600
I0319 00:37:06.447836 28074 layer_factory.hpp:77] Creating layer conv8_2_mbox_priorbox
I0319 00:37:06.447847 28074 net.cpp:100] Creating Layer conv8_2_mbox_priorbox
I0319 00:37:06.447854 28074 net.cpp:434] conv8_2_mbox_priorbox <- conv8_2_conv8_2_relu_0_split_3
I0319 00:37:06.447863 28074 net.cpp:434] conv8_2_mbox_priorbox <- data_data_0_split_5
I0319 00:37:06.447875 28074 net.cpp:408] conv8_2_mbox_priorbox -> conv8_2_mbox_priorbox
I0319 00:37:06.447919 28074 net.cpp:150] Setting up conv8_2_mbox_priorbox
I0319 00:37:06.447929 28074 net.cpp:157] Top shape: 1 2 144 (288)
I0319 00:37:06.447937 28074 net.cpp:165] Memory required for data: 250438752
I0319 00:37:06.447942 28074 layer_factory.hpp:77] Creating layer conv9_2_mbox_loc
I0319 00:37:06.447957 28074 net.cpp:100] Creating Layer conv9_2_mbox_loc
I0319 00:37:06.447963 28074 net.cpp:434] conv9_2_mbox_loc <- conv9_2_conv9_2_relu_0_split_0
I0319 00:37:06.447978 28074 net.cpp:408] conv9_2_mbox_loc -> conv9_2_mbox_loc
I0319 00:37:06.450160 28074 net.cpp:150] Setting up conv9_2_mbox_loc
I0319 00:37:06.450172 28074 net.cpp:157] Top shape: 1 16 1 1 (16)
I0319 00:37:06.450176 28074 net.cpp:165] Memory required for data: 250438816
I0319 00:37:06.450182 28074 layer_factory.hpp:77] Creating layer conv9_2_mbox_loc_perm
I0319 00:37:06.450192 28074 net.cpp:100] Creating Layer conv9_2_mbox_loc_perm
I0319 00:37:06.450197 28074 net.cpp:434] conv9_2_mbox_loc_perm <- conv9_2_mbox_loc
I0319 00:37:06.450206 28074 net.cpp:408] conv9_2_mbox_loc_perm -> conv9_2_mbox_loc_perm
I0319 00:37:06.450368 28074 net.cpp:150] Setting up conv9_2_mbox_loc_perm
I0319 00:37:06.450378 28074 net.cpp:157] Top shape: 1 1 1 16 (16)
I0319 00:37:06.450381 28074 net.cpp:165] Memory required for data: 250438880
I0319 00:37:06.450387 28074 layer_factory.hpp:77] Creating layer conv9_2_mbox_loc_flat
I0319 00:37:06.450395 28074 net.cpp:100] Creating Layer conv9_2_mbox_loc_flat
I0319 00:37:06.450403 28074 net.cpp:434] conv9_2_mbox_loc_flat <- conv9_2_mbox_loc_perm
I0319 00:37:06.450412 28074 net.cpp:408] conv9_2_mbox_loc_flat -> conv9_2_mbox_loc_flat
I0319 00:37:06.450453 28074 net.cpp:150] Setting up conv9_2_mbox_loc_flat
I0319 00:37:06.450464 28074 net.cpp:157] Top shape: 1 16 (16)
I0319 00:37:06.450471 28074 net.cpp:165] Memory required for data: 250438944
I0319 00:37:06.450479 28074 layer_factory.hpp:77] Creating layer conv9_2_mbox_conf
I0319 00:37:06.450496 28074 net.cpp:100] Creating Layer conv9_2_mbox_conf
I0319 00:37:06.450505 28074 net.cpp:434] conv9_2_mbox_conf <- conv9_2_conv9_2_relu_0_split_1
I0319 00:37:06.450522 28074 net.cpp:408] conv9_2_mbox_conf -> conv9_2_mbox_conf
I0319 00:37:06.452962 28074 net.cpp:150] Setting up conv9_2_mbox_conf
I0319 00:37:06.452975 28074 net.cpp:157] Top shape: 1 44 1 1 (44)
I0319 00:37:06.452980 28074 net.cpp:165] Memory required for data: 250439120
I0319 00:37:06.452987 28074 layer_factory.hpp:77] Creating layer conv9_2_mbox_conf_perm
I0319 00:37:06.453002 28074 net.cpp:100] Creating Layer conv9_2_mbox_conf_perm
I0319 00:37:06.453011 28074 net.cpp:434] conv9_2_mbox_conf_perm <- conv9_2_mbox_conf
I0319 00:37:06.453035 28074 net.cpp:408] conv9_2_mbox_conf_perm -> conv9_2_mbox_conf_perm
I0319 00:37:06.453199 28074 net.cpp:150] Setting up conv9_2_mbox_conf_perm
I0319 00:37:06.453210 28074 net.cpp:157] Top shape: 1 1 1 44 (44)
I0319 00:37:06.453213 28074 net.cpp:165] Memory required for data: 250439296
I0319 00:37:06.453219 28074 layer_factory.hpp:77] Creating layer conv9_2_mbox_conf_flat
I0319 00:37:06.453229 28074 net.cpp:100] Creating Layer conv9_2_mbox_conf_flat
I0319 00:37:06.453238 28074 net.cpp:434] conv9_2_mbox_conf_flat <- conv9_2_mbox_conf_perm
I0319 00:37:06.453245 28074 net.cpp:408] conv9_2_mbox_conf_flat -> conv9_2_mbox_conf_flat
I0319 00:37:06.453290 28074 net.cpp:150] Setting up conv9_2_mbox_conf_flat
I0319 00:37:06.453301 28074 net.cpp:157] Top shape: 1 44 (44)
I0319 00:37:06.453323 28074 net.cpp:165] Memory required for data: 250439472
I0319 00:37:06.453332 28074 layer_factory.hpp:77] Creating layer conv9_2_mbox_priorbox
I0319 00:37:06.453346 28074 net.cpp:100] Creating Layer conv9_2_mbox_priorbox
I0319 00:37:06.453354 28074 net.cpp:434] conv9_2_mbox_priorbox <- conv9_2_conv9_2_relu_0_split_2
I0319 00:37:06.453362 28074 net.cpp:434] conv9_2_mbox_priorbox <- data_data_0_split_6
I0319 00:37:06.453372 28074 net.cpp:408] conv9_2_mbox_priorbox -> conv9_2_mbox_priorbox
I0319 00:37:06.453424 28074 net.cpp:150] Setting up conv9_2_mbox_priorbox
I0319 00:37:06.453436 28074 net.cpp:157] Top shape: 1 2 16 (32)
I0319 00:37:06.453444 28074 net.cpp:165] Memory required for data: 250439600
I0319 00:37:06.453450 28074 layer_factory.hpp:77] Creating layer mbox_loc
I0319 00:37:06.453460 28074 net.cpp:100] Creating Layer mbox_loc
I0319 00:37:06.453469 28074 net.cpp:434] mbox_loc <- conv4_3_norm_mbox_loc_flat
I0319 00:37:06.453478 28074 net.cpp:434] mbox_loc <- fc7_mbox_loc_flat
I0319 00:37:06.453487 28074 net.cpp:434] mbox_loc <- conv6_2_mbox_loc_flat
I0319 00:37:06.453497 28074 net.cpp:434] mbox_loc <- conv7_2_mbox_loc_flat
I0319 00:37:06.453505 28074 net.cpp:434] mbox_loc <- conv8_2_mbox_loc_flat
I0319 00:37:06.453512 28074 net.cpp:434] mbox_loc <- conv9_2_mbox_loc_flat
I0319 00:37:06.453521 28074 net.cpp:408] mbox_loc -> mbox_loc
I0319 00:37:06.453568 28074 net.cpp:150] Setting up mbox_loc
I0319 00:37:06.453582 28074 net.cpp:157] Top shape: 1 34928 (34928)
I0319 00:37:06.453586 28074 net.cpp:165] Memory required for data: 250579312
I0319 00:37:06.453593 28074 layer_factory.hpp:77] Creating layer mbox_conf
I0319 00:37:06.453604 28074 net.cpp:100] Creating Layer mbox_conf
I0319 00:37:06.453613 28074 net.cpp:434] mbox_conf <- conv4_3_norm_mbox_conf_flat
I0319 00:37:06.453620 28074 net.cpp:434] mbox_conf <- fc7_mbox_conf_flat
I0319 00:37:06.453629 28074 net.cpp:434] mbox_conf <- conv6_2_mbox_conf_flat
I0319 00:37:06.453636 28074 net.cpp:434] mbox_conf <- conv7_2_mbox_conf_flat
I0319 00:37:06.453645 28074 net.cpp:434] mbox_conf <- conv8_2_mbox_conf_flat
I0319 00:37:06.453651 28074 net.cpp:434] mbox_conf <- conv9_2_mbox_conf_flat
I0319 00:37:06.453660 28074 net.cpp:408] mbox_conf -> mbox_conf
I0319 00:37:06.453753 28074 net.cpp:150] Setting up mbox_conf
I0319 00:37:06.453783 28074 net.cpp:157] Top shape: 1 96052 (96052)
I0319 00:37:06.453793 28074 net.cpp:165] Memory required for data: 250963520
I0319 00:37:06.453797 28074 layer_factory.hpp:77] Creating layer mbox_priorbox
I0319 00:37:06.453807 28074 net.cpp:100] Creating Layer mbox_priorbox
I0319 00:37:06.453815 28074 net.cpp:434] mbox_priorbox <- conv4_3_norm_mbox_priorbox
I0319 00:37:06.453822 28074 net.cpp:434] mbox_priorbox <- fc7_mbox_priorbox
I0319 00:37:06.453830 28074 net.cpp:434] mbox_priorbox <- conv6_2_mbox_priorbox
I0319 00:37:06.453840 28074 net.cpp:434] mbox_priorbox <- conv7_2_mbox_priorbox
I0319 00:37:06.453847 28074 net.cpp:434] mbox_priorbox <- conv8_2_mbox_priorbox
I0319 00:37:06.453855 28074 net.cpp:434] mbox_priorbox <- conv9_2_mbox_priorbox
I0319 00:37:06.453862 28074 net.cpp:408] mbox_priorbox -> mbox_priorbox
I0319 00:37:06.453913 28074 net.cpp:150] Setting up mbox_priorbox
I0319 00:37:06.453949 28074 net.cpp:157] Top shape: 1 2 34928 (69856)
I0319 00:37:06.453959 28074 net.cpp:165] Memory required for data: 251242944
I0319 00:37:06.453965 28074 layer_factory.hpp:77] Creating layer mbox_conf_reshape
I0319 00:37:06.453977 28074 net.cpp:100] Creating Layer mbox_conf_reshape
I0319 00:37:06.453984 28074 net.cpp:434] mbox_conf_reshape <- mbox_conf
I0319 00:37:06.453995 28074 net.cpp:408] mbox_conf_reshape -> mbox_conf_reshape
I0319 00:37:06.454051 28074 net.cpp:150] Setting up mbox_conf_reshape
I0319 00:37:06.454062 28074 net.cpp:157] Top shape: 1 8732 11 (96052)
I0319 00:37:06.454066 28074 net.cpp:165] Memory required for data: 251627152
I0319 00:37:06.454071 28074 layer_factory.hpp:77] Creating layer mbox_conf_softmax
I0319 00:37:06.454084 28074 net.cpp:100] Creating Layer mbox_conf_softmax
I0319 00:37:06.454092 28074 net.cpp:434] mbox_conf_softmax <- mbox_conf_reshape
I0319 00:37:06.454104 28074 net.cpp:408] mbox_conf_softmax -> mbox_conf_softmax
I0319 00:37:06.454387 28074 net.cpp:150] Setting up mbox_conf_softmax
I0319 00:37:06.454397 28074 net.cpp:157] Top shape: 1 8732 11 (96052)
I0319 00:37:06.454404 28074 net.cpp:165] Memory required for data: 252011360
I0319 00:37:06.454411 28074 layer_factory.hpp:77] Creating layer mbox_conf_flatten
I0319 00:37:06.454421 28074 net.cpp:100] Creating Layer mbox_conf_flatten
I0319 00:37:06.454427 28074 net.cpp:434] mbox_conf_flatten <- mbox_conf_softmax
I0319 00:37:06.454440 28074 net.cpp:408] mbox_conf_flatten -> mbox_conf_flatten
I0319 00:37:06.454484 28074 net.cpp:150] Setting up mbox_conf_flatten
I0319 00:37:06.454494 28074 net.cpp:157] Top shape: 1 96052 (96052)
I0319 00:37:06.454501 28074 net.cpp:165] Memory required for data: 252395568
I0319 00:37:06.454507 28074 layer_factory.hpp:77] Creating layer detection_out
I0319 00:37:06.454526 28074 net.cpp:100] Creating Layer detection_out
I0319 00:37:06.454535 28074 net.cpp:434] detection_out <- mbox_loc
I0319 00:37:06.454540 28074 net.cpp:434] detection_out <- mbox_conf_flatten
I0319 00:37:06.454548 28074 net.cpp:434] detection_out <- mbox_priorbox
I0319 00:37:06.454561 28074 net.cpp:408] detection_out -> detection_out
W0319 00:37:06.454597 28074 detection_output_layer.cpp:49] Failed to create directory: /home/zs/data/VOCdevkit/results/VOC2007/SSD_300x300_initial_0317/Main
I0319 00:37:06.454984 28074 net.cpp:150] Setting up detection_out
I0319 00:37:06.454995 28074 net.cpp:157] Top shape: 1 1 1 7 (7)
I0319 00:37:06.455003 28074 net.cpp:165] Memory required for data: 252395596
I0319 00:37:06.455013 28074 layer_factory.hpp:77] Creating layer detection_eval
I0319 00:37:06.455029 28074 net.cpp:100] Creating Layer detection_eval
I0319 00:37:06.455054 28074 net.cpp:434] detection_eval <- detection_out
I0319 00:37:06.455065 28074 net.cpp:434] detection_eval <- label
I0319 00:37:06.455075 28074 net.cpp:408] detection_eval -> detection_eval
I0319 00:37:06.455186 28074 net.cpp:150] Setting up detection_eval
I0319 00:37:06.455196 28074 net.cpp:157] Top shape: 1 1 11 5 (55)
I0319 00:37:06.455204 28074 net.cpp:165] Memory required for data: 252395816
I0319 00:37:06.455212 28074 net.cpp:228] detection_eval does not need backward computation.
I0319 00:37:06.455221 28074 net.cpp:228] detection_out does not need backward computation.
I0319 00:37:06.455229 28074 net.cpp:228] mbox_conf_flatten does not need backward computation.
I0319 00:37:06.455237 28074 net.cpp:228] mbox_conf_softmax does not need backward computation.
…
