…
      sampler {
        min_scale: 0.3
        max_scale: 1
        min_aspect_ratio: 0.5
        max_aspect_ratio: 2
      }
      sample_constraint {
        min_jaccard_overlap: 0.9
      }
      max_sample: 1
      max_trials: 50
    }
    batch_sampler {
      sampler {
        min_scale: 0.3
        max_scale: 1
        min_aspect_ratio: 0.5
        max_aspect_ratio: 2
      }
      sample_constraint {
        max_jaccard_overlap: 1
      }
      max_sample: 1
      max_trials: 50
    }
    label_map_file: "data/NWPU_VHR/labelmap_NWPU_VHR.prototxt"
  }
}
layer {
  name: "conv1_1"
  type: "Convolution"
  bottom: "data"
  top: "conv1_1"
  param {
    lr_mult: 1
    decay_mult: 1
  }
  param {
    lr_mult: 2
    decay_mult: 0
  }
  convolution_param {
    num_output: 64
    pad: 1
    kernel_size: 3
    weight_filler {
      type: "xavier"
    }
    bias_filler {
      type: "constant"
      value: 0
    }
  }
}
layer {
  name: "relu1_1"
  type: "ReLU"
  bottom: "conv1_1"
  top: "conv1_1"
}
layer {
  name: "conv1_2"
  type: "Convolution"
  bottom: "conv1_1"
  top: "conv1_2"
  param {
    lr_mult: 1
    decay_mult: 1
  }
  param {
    lr_mult: 2
    decay_mult: 0
  }
  convolution_param {
    num_output: 64
    pad: 1
    kernel_size: 3
    weight_filler {
      type: "xavier"
    }
    bias_filler {
      type: "constant"
      value: 0
    }
  }
}
layer {
  name: "relu1_2"
  type: "ReLU"
  bottom: "conv1_2"
  top: "conv1_2"
}
layer {
  name: "pool1"
  type: "Pooling"
  bottom: "conv1_2"
  top: "pool1"
  pooling_param {
    pool: MAX
    kernel_size: 2
    stride: 2
  }
}
layer {
  name: "conv2_1"
  type: "Convolution"
  bottom: "pool1"
  top: "conv2_1"
  param {
    lr_mult: 1
    decay_mult: 1
  }
  param {
    lr_mult: 2
    decay_mult: 0
  }
  convolution_param {
    num_output: 128
    pad: 1
    kernel_size: 3
    weight_filler {
      type: "xavier"
    }
    bias_filler {
      type: "constant"
      value: 0
    }
  }
}
layer {
  name: "relu2_1"
  type: "ReLU"
  bottom: "conv2_1"
  top: "conv2_1"
}
layer {
  name: "conv2_2"
  type: "Convolution"
  bottom: "conv2_1"
  top: "conv2_2"
  param {
    lr_mult: 1
    decay_mult: 1
  }
  param {
    lr_mult: 2
    decay_mult: 0
  }
  convolution_param {
    num_output: 128
    pad: 1
    kernel_size: 3
    weight_filler {
      type: "xavier"
    }
    bias_filler {
      type: "constant"
      value: 0
    }
  }
}
layer {
  name: "relu2_2"
  type: "ReLU"
  bottom: "conv2_2"
  top: "conv2_2"
}
layer {
  name: "pool2"
  type: "Pooling"
  bottom: "conv2_2"
  top: "pool2"
  pooling_param {
    pool: MAX
    kernel_size: 2
    stride: 2
  }
}
layer {
  name: "conv3_1"
  type: "Convolution"
  bottom: "pool2"
  top: "conv3_1"
  param {
    lr_mult: 1
    decay_mult: 1
  }
  param {
    lr_mult: 2
    decay_mult: 0
  }
  convolution_param {
    num_output: 256
    pad: 1
    kernel_size: 3
    weight_filler {
      type: "xavier"
    }
    bias_filler {
      type: "constant"
      value: 0
    }
  }
}
layer {
  name: "relu3_1"
  type: "ReLU"
  bottom: "conv3_1"
  top: "conv3_1"
}
layer {
  name: "conv3_2"
  type: "Convolution"
  bottom: "conv3_1"
  top: "conv3_2"
  param {
    lr_mult: 1
    decay_mult: 1
  }
  param {
    lr_mult: 2
    decay_mult: 0
  }
  convolution_param {
    num_output: 256
    pad: 1
    kernel_size: 3
    weight_filler {
      type: "xavier"
    }
    bias_filler {
      type: "constant"
      value: 0
    }
  }
}
layer {
  name: "relu3_2"
  type: "ReLU"
  bottom: "conv3_2"
  top: "conv3_2"
}
layer {
  name: "conv3_3"
  type: "Convolution"
  bottom: "conv3_2"
  top: "conv3_3"
  param {
    lr_mult: 1
    decay_mult: 1
  }
  param {
    lr_mult: 2
    decay_mult: 0
  }
  convolution_param {
    num_output: 256
    pad: 1
    kernel_size: 3
    weight_filler {
      type: "xavier"
    }
    bias_filler {
      type: "constant"
      value: 0
    }
  }
}
layer {
  name: "relu3_3"
  type: "ReLU"
  bottom: "conv3_3"
  top: "conv3_3"
}
layer {
  name: "pool3"
  type: "Pooling"
  bottom: "conv3_3"
  top: "pool3"
  pooling_param {
    pool: MAX
    kernel_size: 2
    stride: 2
  }
}
layer {
  name: "conv4_1"
  type: "Convolution"
  bottom: "pool3"
  top: "conv4_1"
  param {
    lr_mult: 1
    decay_mult: 1
  }
  param {
    lr_mult: 2
    decay_mult: 0
  }
  convolution_param {
    num_output: 512
    pad: 1
    kernel_size: 3
    weight_filler {
      type: "xavier"
    }
    bias_filler {
      type: "constant"
      value: 0
    }
  }
}
layer {
  name: "relu4_1"
  type: "ReLU"
  bottom: "conv4_1"
  top: "conv4_1"
}
layer {
  name: "conv4_2"
  type: "Convolution"
  bottom: "conv4_1"
  top: "conv4_2"
  param {
    lr_mult: 1
    decay_mult: 1
  }
  param {
    lr_mult: 2
    decay_mult: 0
  }
  convolution_param {
    num_output: 512
    pad: 1
    kernel_size: 3
    weight_filler {
      type: "xavier"
    }
    bias_filler {
      type: "constant"
      value: 0
    }
  }
}
layer {
  name: "relu4_2"
  type: "ReLU"
  bottom: "conv4_2"
  top: "conv4_2"
}
layer {
  name: "conv4_3"
  type: "Convolution"
  bottom: "conv4_2"
  top: "conv4_3"
  param {
    lr_mult: 1
    decay_mult: 1
  }
  param {
    lr_mult: 2
    decay_mult: 0
  }
  convolution_param {
    num_output: 512
    pad: 1
    kernel_size: 3
    weight_filler {
      type: "xavier"
    }
    bias_filler {
      type: "constant"
      value: 0
    }
  }
}
layer {
  name: "relu4_3"
  type: "ReLU"
  bottom: "conv4_3"
  top: "conv4_3"
}
layer {
  name: "pool4"
  type: "Pooling"
  bottom: "conv4_3"
  top: "pool4"
  pooling_param {
    pool: MAX
    kernel_size: 2
    stride: 2
  }
}
layer {
  name: "conv5_1"
  type: "Convolution"
  bottom: "pool4"
  top: "conv5_1"
  param {
    lr_mult: 1
    decay_mult: 1
  }
  param {
    lr_mult: 2
    decay_mult: 0
  }
  convolution_param {
    num_output: 512
    pad: 1
    kernel_size: 3
    weight_filler {
      type: "xavier"
    }
    bias_filler {
      type: "constant"
      value: 0
    }
    dilation: 1
  }
}
layer {
  name: "relu5_1"
  type: "ReLU"
  bottom: "conv5_1"
  top: "conv5_1"
}
layer {
  name: "conv5_2"
  type: "Convolution"
  bottom: "conv5_1"
  top: "conv5_2"
  param {
    lr_mult: 1
    decay_mult: 1
  }
  param {
    lr_mult: 2
    decay_mult: 0
  }
  convolution_param {
    num_output: 512
    pad: 1
    kernel_size: 3
    weight_filler {
      type: "xavier"
    }
    bias_filler {
      type: "constant"
      value: 0
    }
    dilation: 1
  }
}
layer {
  name: "relu5_2"
  type: "ReLU"
  bottom: "conv5_2"
  top: "conv5_2"
}
layer {
  name: "conv5_3"
  type: "Convolution"
  bottom: "conv5_2"
  top: "conv5_3"
  param {
    lr_mult: 1
    decay_mult: 1
  }
  param {
    lr_mult: 2
    decay_mult: 0
  }
  convolution_param {
    num_output: 512
    pad: 1
    kernel_size: 3
    weight_filler {
      type: "xavier"
    }
    bias_filler {
      type: "constant"
      value: 0
    }
    dilation: 1
  }
}
layer {
  name: "relu5_3"
  type: "ReLU"
  bottom: "conv5_3"
  top: "conv5_3"
}
layer {
  name: "pool5"
  type: "Pooling"
  bottom: "conv5_3"
  top: "pool5"
  pooling_param {
    pool: MAX
    kernel_size: 3
    stride: 1
    pad: 1
  }
}
layer {
  name: "fc6"
  type: "Convolution"
  bottom: "pool5"
  top: "fc6"
  param {
    lr_mult: 1
    decay_mult: 1
  }
  param {
    lr_mult: 2
    decay_mult: 0
  }
  convolution_param {
    num_output: 1024
    pad: 6
    kernel_size: 3
    weight_filler {
      type: "xavier"
    }
    bias_filler {
      type: "constant"
      value: 0
    }
    dilation: 6
  }
}
layer {
  name: "relu6"
  type: "ReLU"
  bottom: "fc6"
  top: "fc6"
}
layer {
  name: "fc7"
  type: "Convolution"
  bottom: "fc6"
  top: "fc7"
  param {
    lr_mult: 1
    decay_mult: 1
  }
  param {
    lr_mult: 2
    decay_mult: 0
  }
  convolution_param {
    num_output: 1024
    kernel_size: 1
    weight_filler {
      type: "xavier"
    }
    bias_filler {
      type: "constant"
      value: 0
    }
  }
}
layer {
  name: "relu7"
  type: "ReLU"
  bottom: "fc7"
  top: "fc7"
}
layer {
  name: "conv6_1"
  type: "Convolution"
  bottom: "fc7"
  top: "conv6_1"
  param {
    lr_mult: 1
    decay_mult: 1
  }
  param {
    lr_mult: 2
    decay_mult: 0
  }
  convolution_param {
    num_output: 256
    pad: 0
    kernel_size: 1
    stride: 1
    weight_filler {
      type: "xavier"
    }
    bias_filler {
      type: "constant"
      value: 0
    }
  }
}
layer {
  name: "conv6_1_relu"
  type: "ReLU"
  bottom: "conv6_1"
  top: "conv6_1"
}
layer {
  name: "conv6_2"
  type: "Convolution"
  bottom: "conv6_1"
  top: "conv6_2"
  param {
    lr_mult: 1
    decay_mult: 1
  }
  param {
    lr_mult: 2
    decay_mult: 0
  }
  convolution_param {
    num_output: 512
    pad: 1
    kernel_size: 3
    stride: 2
    weight_filler {
      type: "xavier"
    }
    bias_filler {
      type: "constant"
      value: 0
    }
  }
}
layer {
  name: "conv6_2_relu"
  type: "ReLU"
  bottom: "conv6_2"
  top: "conv6_2"
}
layer {
  name: "conv7_1"
  type: "Convolution"
  bottom: "conv6_2"
  top: "conv7_1"
  param {
    lr_mult: 1
    decay_mult: 1
  }
  param {
    lr_mult: 2
    decay_mult: 0
  }
  convolution_param {
    num_output: 128
    pad: 0
    kernel_size: 1
    stride: 1
    weight_filler {
      type: "xavier"
    }
    bias_filler {
      type: "constant"
      value: 0
    }
  }
}
layer {
  name: "conv7_1_relu"
  type: "ReLU"
  bottom: "conv7_1"
  top: "conv7_1"
}
layer {
  name: "conv7_2"
  type: "Convolution"
  bottom: "conv7_1"
  top: "conv7_2"
  param {
    lr_mult: 1
    decay_mult: 1
  }
  param {
    lr_mult: 2
    decay_mult: 0
  }
  convolution_param {
    num_output: 256
    pad: 1
    kernel_size: 3
    stride: 2
    weight_filler {
      type: "xavier"
    }
    bias_filler {
      type: "constant"
      value: 0
    }
  }
}
layer {
  name: "conv7_2_relu"
  type: "ReLU"
  bottom: "conv7_2"
  top: "conv7_2"
}
layer {
  name: "conv8_1"
  type: "Convolution"
  bottom: "conv7_2"
  top: "conv8_1"
  param {
    lr_mult: 1
    decay_mult: 1
  }
  param {
    lr_mult: 2
    decay_mult: 0
  }
  convolution_param {
    num_output: 128
    pad: 0
    kernel_size: 1
    stride: 1
    weight_filler {
      type: "xavier"
    }
    bias_filler {
      type: "constant"
      value: 0
    }
  }
}
layer {
  name: "conv8_1_relu"
  type: "ReLU"
  bottom: "conv8_1"
  top: "conv8_1"
}
layer {
  name: "conv8_2"
  type: "Convolution"
  bottom: "conv8_1"
  top: "conv8_2"
  param {
    lr_mult: 1
    decay_mult: 1
  }
  param {
    lr_mult: 2
    decay_mult: 0
  }
  convolution_param {
    num_output: 256
    pad: 0
    kernel_size: 3
    stride: 1
    weight_filler {
      type: "xavier"
    }
    bias_filler {
      type: "constant"
      value: 0
    }
  }
}
layer {
  name: "conv8_2_relu"
  type: "ReLU"
  bottom: "conv8_2"
  top: "conv8_2"
}
layer {
  name: "conv9_1"
  type: "Convolution"
  bottom: "conv8_2"
  top: "conv9_1"
  param {
    lr_mult: 1
    decay_mult: 1
  }
  param {
    lr_mult: 2
    decay_mult: 0
  }
  convolution_param {
    num_output: 128
    pad: 0
    kernel_size: 1
    stride: 1
    weight_filler {
      type: "xavier"
    }
    bias_filler {
      type: "constant"
      value: 0
    }
  }
}
layer {
  name: "conv9_1_relu"
  type: "ReLU"
  bottom: "conv9_1"
  top: "conv9_1"
}
layer {
  name: "conv9_2"
  type: "Convolution"
  bottom: "conv9_1"
  top: "conv9_2"
  param {
    lr_mult: 1
    decay_mult: 1
  }
  param {
    lr_mult: 2
    decay_mult: 0
  }
  convolution_param {
    num_output: 256
    pad: 0
    kernel_size: 3
    stride: 1
    weight_filler {
      type: "xavier"
    }
    bias_filler {
      type: "constant"
      value: 0
    }
  }
}
layer {
  name: "conv9_2_relu"
  type: "ReLU"
  bottom: "conv9_2"
  top: "conv9_2"
}
layer {
  name: "conv4_3_norm"
  type: "Normalize"
  bottom: "conv4_3"
  top: "conv4_3_norm"
  norm_param {
    across_spatial: false
    scale_filler {
      type: "constant"
      value: 20
    }
    channel_shared: false
  }
}
layer {
  name: "conv4_3_norm_mbox_loc"
  type: "Convolution"
  bottom: "conv4_3_norm"
  top: "conv4_3_norm_mbox_loc"
  param {
    lr_mult: 1
    decay_mult: 1
  }
  param {
    lr_mult: 2
    decay_mult: 0
  }
  convolution_param {
    num_output: 16
    pad: 1
    kernel_size: 3
    stride: 1
    weight_filler {
      type: "xavier"
    }
    bias_filler {
      type: "constant"
      value: 0
    }
  }
}
layer {
  name: "conv4_3_norm_mbox_loc_perm"
  type: "Permute"
  bottom: "conv4_3_norm_mbox_loc"
  top: "conv4_3_norm_mbox_loc_perm"
  permute_param {
    order: 0
    order: 2
    order: 3
    order: 1
  }
}
layer {
  name: "conv4_3_norm_mbox_loc_flat"
  type: "Flatten"
  bottom: "conv4_3_norm_mbox_loc_perm"
  top: "conv4_3_norm_mbox_loc_flat"
  flatten_param {
    axis: 1
  }
}
layer {
  name: "conv4_3_norm_mbox_conf"
  type: "Convolution"
  bottom: "conv4_3_norm"
  top: "conv4_3_norm_mbox_conf"
  param {
    lr_mult: 1
    decay_mult: 1
  }
  param {
    lr_mult: 2
    decay_mult: 0
  }
  convolution_param {
    num_output: 44
    pad: 1
    kernel_size: 3
    stride: 1
    weight_filler {
      type: "xavier"
    }
    bias_filler {
      type: "constant"
      value: 0
    }
  }
}
layer {
  name: "conv4_3_norm_mbox_conf_perm"
  type: "Permute"
  bottom: "conv4_3_norm_mbox_conf"
  top: "conv4_3_norm_mbox_conf_perm"
  permute_param {
    order: 0
    order: 2
    order: 3
    order: 1
  }
}
layer {
  name: "conv4_3_norm_mbox_conf_flat"
  type: "Flatten"
  bottom: "conv4_3_norm_mbox_conf_perm"
  top: "conv4_3_norm_mbox_conf_flat"
  flatten_param {
    axis: 1
  }
}
layer {
  name: "conv4_3_norm_mbox_priorbox"
  type: "PriorBox"
  bottom: "conv4_3_norm"
  bottom: "data"
  top: "conv4_3_norm_mbox_priorbox"
  prior_box_param {
    min_size: 30
    max_size: 60
    aspect_ratio: 2
    flip: true
    clip: false
    variance: 0.1
    variance: 0.1
    variance: 0.2
    variance: 0.2
    step: 8
    offset: 0.5
  }
}
layer {
  name: "fc7_mbox_loc"
  type: "Convolution"
  bottom: "fc7"
  top: "fc7_mbox_loc"
  param {
    lr_mult: 1
    decay_mult: 1
  }
  param {
    lr_mult: 2
    decay_mult: 0
  }
  convolution_param {
    num_output: 24
    pad: 1
    kernel_size: 3
    stride: 1
    weight_filler {
      type: "xavier"
    }
    bias_filler {
      type: "constant"
      value: 0
    }
  }
}
layer {
  name: "fc7_mbox_loc_perm"
  type: "Permute"
  bottom: "fc7_mbox_loc"
  top: "fc7_mbox_loc_perm"
  permute_param {
    order: 0
    order: 2
    order: 3
    order: 1
  }
}
layer {
  name: "fc7_mbox_loc_flat"
  type: "Flatten"
  bottom: "fc7_mbox_loc_perm"
  top: "fc7_mbox_loc_flat"
  flatten_param {
    axis: 1
  }
}
layer {
  name: "fc7_mbox_conf"
  type: "Convolution"
  bottom: "fc7"
  top: "fc7_mbox_conf"
  param {
    lr_mult: 1
    decay_mult: 1
  }
  param {
    lr_mult: 2
    decay_mult: 0
  }
  convolution_param {
    num_output: 66
    pad: 1
    kernel_size: 3
    stride: 1
    weight_filler {
      type: "xavier"
    }
    bias_filler {
      type: "constant"
      value: 0
    }
  }
}
layer {
  name: "fc7_mbox_conf_perm"
  type: "Permute"
  bottom: "fc7_mbox_conf"
  top: "fc7_mbox_conf_perm"
  permute_param {
    order: 0
    order: 2
    order: 3
    order: 1
  }
}
layer {
  name: "fc7_mbox_conf_flat"
  type: "Flatten"
  bottom: "fc7_mbox_conf_perm"
  top: "fc7_mbox_conf_flat"
  flatten_param {
    axis: 1
  }
}
layer {
  name: "fc7_mbox_priorbox"
  type: "PriorBox"
  bottom: "fc7"
  bottom: "data"
  top: "fc7_mbox_priorbox"
  prior_box_param {
    min_size: 60
    max_size: 111
    aspect_ratio: 2
    aspect_ratio: 3
    flip: true
    clip: false
    variance: 0.1
    variance: 0.1
    variance: 0.2
    variance: 0.2
    step: 16
    offset: 0.5
  }
}
layer {
  name: "conv6_2_mbox_loc"
  type: "Convolution"
  bottom: "conv6_2"
  top: "conv6_2_mbox_loc"
  param {
    lr_mult: 1
    decay_mult: 1
  }
  param {
    lr_mult: 2
    decay_mult: 0
  }
  convolution_param {
    num_output: 24
    pad: 1
    kernel_size: 3
    stride: 1
    weight_filler {
      type: "xavier"
    }
    bias_filler {
      type: "constant"
      value: 0
    }
  }
}
layer {
  name: "conv6_2_mbox_loc_perm"
  type: "Permute"
  bottom: "conv6_2_mbox_loc"
  top: "conv6_2_mbox_loc_perm"
  permute_param {
    order: 0
    order: 2
    order: 3
    order: 1
  }
}
layer {
  name: "conv6_2_mbox_loc_flat"
  type: "Flatten"
  bottom: "conv6_2_mbox_loc_perm"
  top: "conv6_2_mbox_loc_flat"
  flatten_param {
    axis: 1
  }
}
layer {
  name: "conv6_2_mbox_conf"
  type: "Convolution"
  bottom: "conv6_2"
  top: "conv6_2_mbox_conf"
  param {
    lr_mult: 1
    decay_mult: 1
  }
  param {
    lr_mult: 2
    decay_mult: 0
  }
  convolution_param {
    num_output: 66
    pad: 1
    kernel_size: 3
    stride: 1
    weight_filler {
      type: "xavier"
    }
    bias_filler {
      type: "constant"
      value: 0
    }
  }
}
layer {
  name: "conv6_2_mbox_conf_perm"
  type: "Permute"
  bottom: "conv6_2_mbox_conf"
  top: "conv6_2_mbox_conf_perm"
  permute_param {
    order: 0
    order: 2
    order: 3
    order: 1
  }
}
layer {
  name: "conv6_2_mbox_conf_flat"
  type: "Flatten"
  bottom: "conv6_2_mbox_conf_perm"
  top: "conv6_2_mbox_conf_flat"
  flatten_param {
    axis: 1
  }
}
layer {
  name: "conv6_2_mbox_priorbox"
  type: "PriorBox"
  bottom: "conv6_2"
  bottom: "data"
  top: "conv6_2_mbox_priorbox"
  prior_box_param {
    min_size: 111
    max_size: 162
    aspect_ratio: 2
    aspect_ratio: 3
    flip: true
    clip: false
    variance: 0.1
    variance: 0.1
    variance: 0.2
    variance: 0.2
    step: 32
    offset: 0.5
  }
}
layer {
  name: "conv7_2_mbox_loc"
  type: "Convolution"
  bottom: "conv7_2"
  top: "conv7_2_mbox_loc"
  param {
    lr_mult: 1
    decay_mult: 1
  }
  param {
    lr_mult: 2
    decay_mult: 0
  }
  convolution_param {
    num_output: 24
    pad: 1
    kernel_size: 3
    stride: 1
    weight_filler {
      type: "xavier"
    }
    bias_filler {
      type: "constant"
      value: 0
    }
  }
}
layer {
  name: "conv7_2_mbox_loc_perm"
  type: "Permute"
  bottom: "conv7_2_mbox_loc"
  top: "conv7_2_mbox_loc_perm"
  permute_param {
    order: 0
    order: 2
    order: 3
    order: 1
  }
}
layer {
  name: "conv7_2_mbox_loc_flat"
  type: "Flatten"
  bottom: "conv7_2_mbox_loc_perm"
  top: "conv7_2_mbox_loc_flat"
  flatten_param {
    axis: 1
  }
}
layer {
  name: "conv7_2_mbox_conf"
  type: "Convolution"
  bottom: "conv7_2"
  top: "conv7_2_mbox_conf"
  param {
    lr_mult: 1
    decay_mult: 1
  }
  param {
    lr_mult: 2
    decay_mult: 0
  }
  convolution_param {
    num_output: 66
    pad: 1
    kernel_size: 3
    stride: 1
    weight_filler {
      type: "xavier"
    }
    bias_filler {
      type: "constant"
      value: 0
    }
  }
}
layer {
  name: "conv7_2_mbox_conf_perm"
  type: "Permute"
  bottom: "conv7_2_mbox_conf"
  top: "conv7_2_mbox_conf_perm"
  permute_param {
    order: 0
    order: 2
    order: 3
    order: 1
  }
}
layer {
  name: "conv7_2_mbox_conf_flat"
  type: "Flatten"
  bottom: "conv7_2_mbox_conf_perm"
  top: "conv7_2_mbox_conf_flat"
  flatten_param {
    axis: 1
  }
}
layer {
  name: "conv7_2_mbox_priorbox"
  type: "PriorBox"
  bottom: "conv7_2"
  bottom: "data"
  top: "conv7_2_mbox_priorbox"
  prior_box_param {
    min_size: 162
    max_size: 213
    aspect_ratio: 2
    aspect_ratio: 3
    flip: true
    clip: false
    variance: 0.1
    variance: 0.1
    variance: 0.2
    variance: 0.2
    step: 64
    offset: 0.5
  }
}
layer {
  name: "conv8_2_mbox_loc"
  type: "Convolution"
  bottom: "conv8_2"
  top: "conv8_2_mbox_loc"
  param {
    lr_mult: 1
    decay_mult: 1
  }
  param {
    lr_mult: 2
    decay_mult: 0
  }
  convolution_param {
    num_output: 16
    pad: 1
    kernel_size: 3
    stride: 1
    weight_filler {
      type: "xavier"
    }
    bias_filler {
      type: "constant"
      value: 0
    }
  }
}
layer {
  name: "conv8_2_mbox_loc_perm"
  type: "Permute"
  bottom: "conv8_2_mbox_loc"
  top: "conv8_2_mbox_loc_perm"
  permute_param {
    order: 0
    order: 2
    order: 3
    order: 1
  }
}
layer {
  name: "conv8_2_mbox_loc_flat"
  type: "Flatten"
  bottom: "conv8_2_mbox_loc_perm"
  top: "conv8_2_mbox_loc_flat"
  flatten_param {
    axis: 1
  }
}
layer {
  name: "conv8_2_mbox_conf"
  type: "Convolution"
  bottom: "conv8_2"
  top: "conv8_2_mbox_conf"
  param {
    lr_mult: 1
    decay_mult: 1
  }
  param {
    lr_mult: 2
    decay_mult: 0
  }
  convolution_param {
    num_output: 44
    pad: 1
    kernel_size: 3
    stride: 1
    weight_filler {
      type: "xavier"
    }
    bias_filler {
      type: "constant"
      value: 0
    }
  }
}
layer {
  name: "conv8_2_mbox_conf_perm"
  type: "Permute"
  bottom: "conv8_2_mbox_conf"
  top: "conv8_2_mbox_conf_perm"
  permute_param {
    order: 0
    order: 2
    order: 3
    order: 1
  }
}
layer {
  name: "conv8_2_mbox_conf_flat"
  type: "Flatten"
  bottom: "conv8_2_mbox_conf_perm"
  top: "conv8_2_mbox_conf_flat"
  flatten_param {
    axis: 1
  }
}
layer {
  name: "conv8_2_mbox_priorbox"
  type: "PriorBox"
  bottom: "conv8_2"
  bottom: "data"
  top: "conv8_2_mbox_priorbox"
  prior_box_param {
    min_size: 213
    max_size: 264
    aspect_ratio: 2
    flip: true
    clip: false
    variance: 0.1
    variance: 0.1
    variance: 0.2
    variance: 0.2
    step: 100
    offset: 0.5
  }
}
layer {
  name: "conv9_2_mbox_loc"
  type: "Convolution"
  bottom: "conv9_2"
  top: "conv9_2_mbox_loc"
  param {
    lr_mult: 1
    decay_mult: 1
  }
  param {
    lr_mult: 2
    decay_mult: 0
  }
  convolution_param {
    num_output: 16
    pad: 1
    kernel_size: 3
    stride: 1
    weight_filler {
      type: "xavier"
    }
    bias_filler {
      type: "constant"
      value: 0
    }
  }
}
layer {
  name: "conv9_2_mbox_loc_perm"
  type: "Permute"
  bottom: "conv9_2_mbox_loc"
  top: "conv9_2_mbox_loc_perm"
  permute_param {
    order: 0
    order: 2
    order: 3
    order: 1
  }
}
layer {
  name: "conv9_2_mbox_loc_flat"
  type: "Flatten"
  bottom: "conv9_2_mbox_loc_perm"
  top: "conv9_2_mbox_loc_flat"
  flatten_param {
    axis: 1
  }
}
layer {
  name: "conv9_2_mbox_conf"
  type: "Convolution"
  bottom: "conv9_2"
  top: "conv9_2_mbox_conf"
  param {
    lr_mult: 1
    decay_mult: 1
  }
  param {
    lr_mult: 2
    decay_mult: 0
  }
  convolution_param {
    num_output: 44
    pad: 1
    kernel_size: 3
    stride: 1
    weight_filler {
      type: "xavier"
    }
    bias_filler {
      type: "constant"
      value: 0
    }
  }
}
layer {
  name: "conv9_2_mbox_conf_perm"
  type: "Permute"
  bottom: "conv9_2_mbox_conf"
  top: "conv9_2_mbox_conf_perm"
  permute_param {
    order: 0
    order: 2
    order: 3
    order: 1
  }
}
layer {
  name: "conv9_2_mbox_conf_flat"
  type: "Flatten"
  bottom: "conv9_2_mbox_conf_perm"
  top: "conv9_2_mbox_conf_flat"
  flatten_param {
    axis: 1
  }
}
layer {
  name: "conv9_2_mbox_priorbox"
  type: "PriorBox"
  bottom: "conv9_2"
  bottom: "data"
  top: "conv9_2_mbox_priorbox"
  prior_box_param {
    min_size: 264
    max_size: 315
    aspect_ratio: 2
    flip: true
    clip: false
    variance: 0.1
    variance: 0.1
    variance: 0.2
    variance: 0.2
    step: 300
    offset: 0.5
  }
}
layer {
  name: "mbox_loc"
  type: "Concat"
  bottom: "conv4_3_norm_mbox_loc_flat"
  bottom: "fc7_mbox_loc_flat"
  bottom: "conv6_2_mbox_loc_flat"
  bottom: "conv7_2_mbox_loc_flat"
  bottom: "conv8_2_mbox_loc_flat"
  bottom: "conv9_2_mbox_loc_flat"
  top: "mbox_loc"
  concat_param {
    axis: 1
  }
}
layer {
  name: "mbox_conf"
  type: "Concat"
  bottom: "conv4_3_norm_mbox_conf_flat"
  bottom: "fc7_mbox_conf_flat"
  bottom: "conv6_2_mbox_conf_flat"
  bottom: "conv7_2_mbox_conf_flat"
  bottom: "conv8_2_mbox_conf_flat"
  bottom: "conv9_2_mbox_conf_flat"
  top: "mbox_conf"
  concat_param {
    axis: 1
  }
}
layer {
  name: "mbox_priorbox"
  type: "Concat"
  bottom: "conv4_3_norm_mbox_priorbox"
  bottom: "fc7_mbox_priorbox"
  bottom: "conv6_2_mbox_priorbox"
  bottom: "conv7_2_mbox_priorbox"
  bottom: "conv8_2_mbox_priorbox"
  bottom: "conv9_2_mbox_priorbox"
  top: "mbox_priorbox"
  concat_param {
    axis: 2
  }
}
layer {
  name: "mbox_loss"
  type: "MultiBoxLoss"
  bottom: "mbox_loc"
  bottom: "mbox_conf"
  bottom: "mbox_priorbox"
  bottom: "label"
  top: "mbox_loss"
  include {
    phase: TRAIN
  }
  propagate_down: true
  propagate_down: true
  propagate_down: false
  propagate_down: false
  loss_param {
    normalization: VALID
  }
  multibox_loss_param {
    loc_loss_type: SMOOTH_L1
    conf_loss_type: SOFTMAX
    loc_weight: 1
    num_classes: 11
    share_location: true
    match_type: PER_PREDICTION
    overlap_threshold: 0.5
    use_prior_for_matching: true
    background_label_id: 0
    use_difficult_gt: true
    neg_pos_ratio: 3
    neg_overlap: 0.5
    code_type: CENTER_SIZE
    ignore_cross_boundary_bbox: false
    mining_type: MAX_NEGATIVE
  }
}
I0326 09:48:10.314882 32487 layer_factory.hpp:77] Creating layer data
I0326 09:48:10.315521 32487 net.cpp:100] Creating Layer data
I0326 09:48:10.315603 32487 net.cpp:408] data -> data
I0326 09:48:10.315707 32487 net.cpp:408] data -> label
I0326 09:48:10.342816 32501 db_lmdb.cpp:35] Opened lmdb examples/NWPU_VHR/NWPU_VHR_trainval_lmdb
I0326 09:48:10.397689 32487 annotated_data_layer.cpp:62] output data size: 32,3,300,300
I0326 09:48:10.569922 32487 net.cpp:150] Setting up data
I0326 09:48:10.570173 32487 net.cpp:157] Top shape: 32 3 300 300 (8640000)
I0326 09:48:10.570312 32487 net.cpp:157] Top shape: 1 1 4 8 (32)
I0326 09:48:10.570413 32487 net.cpp:165] Memory required for data: 34560128
I0326 09:48:10.570540 32487 layer_factory.hpp:77] Creating layer data_data_0_split
I0326 09:48:10.570657 32487 net.cpp:100] Creating Layer data_data_0_split
I0326 09:48:10.570772 32487 net.cpp:434] data_data_0_split <- data
I0326 09:48:10.570892 32487 net.cpp:408] data_data_0_split -> data_data_0_split_0
I0326 09:48:10.571015 32487 net.cpp:408] data_data_0_split -> data_data_0_split_1
I0326 09:48:10.571127 32487 net.cpp:408] data_data_0_split -> data_data_0_split_2
I0326 09:48:10.571233 32487 net.cpp:408] data_data_0_split -> data_data_0_split_3
I0326 09:48:10.571339 32487 net.cpp:408] data_data_0_split -> data_data_0_split_4
I0326 09:48:10.571444 32487 net.cpp:408] data_data_0_split -> data_data_0_split_5
I0326 09:48:10.571545 32487 net.cpp:408] data_data_0_split -> data_data_0_split_6
I0326 09:48:10.571772 32487 net.cpp:150] Setting up data_data_0_split
I0326 09:48:10.571877 32487 net.cpp:157] Top shape: 32 3 300 300 (8640000)
I0326 09:48:10.571976 32487 net.cpp:157] Top shape: 32 3 300 300 (8640000)
I0326 09:48:10.572006 32487 net.cpp:157] Top shape: 32 3 300 300 (8640000)
I0326 09:48:10.572175 32487 net.cpp:157] Top shape: 32 3 300 300 (8640000)
I0326 09:48:10.572274 32487 net.cpp:157] Top shape: 32 3 300 300 (8640000)
I0326 09:48:10.572374 32487 net.cpp:157] Top shape: 32 3 300 300 (8640000)
I0326 09:48:10.572474 32487 net.cpp:157] Top shape: 32 3 300 300 (8640000)
I0326 09:48:10.572568 32487 net.cpp:165] Memory required for data: 276480128
I0326 09:48:10.572670 32487 layer_factory.hpp:77] Creating layer conv1_1
I0326 09:48:10.572805 32487 net.cpp:100] Creating Layer conv1_1
I0326 09:48:10.572901 32487 net.cpp:434] conv1_1 <- data_data_0_split_0
I0326 09:48:10.573015 32487 net.cpp:408] conv1_1 -> conv1_1
I0326 09:48:12.172992 32487 net.cpp:150] Setting up conv1_1
I0326 09:48:12.179880 32487 net.cpp:157] Top shape: 32 64 300 300 (184320000)
I0326 09:48:12.180114 32487 net.cpp:165] Memory required for data: 1013760128
I0326 09:48:12.180248 32487 layer_factory.hpp:77] Creating layer relu1_1
I0326 09:48:12.180356 32487 net.cpp:100] Creating Layer relu1_1
I0326 09:48:12.180454 32487 net.cpp:434] relu1_1 <- conv1_1
I0326 09:48:12.180558 32487 net.cpp:395] relu1_1 -> conv1_1 (in-place)
I0326 09:48:12.181747 32487 net.cpp:150] Setting up relu1_1
I0326 09:48:12.181918 32487 net.cpp:157] Top shape: 32 64 300 300 (184320000)
I0326 09:48:12.182019 32487 net.cpp:165] Memory required for data: 1751040128
I0326 09:48:12.182126 32487 layer_factory.hpp:77] Creating layer conv1_2
I0326 09:48:12.182243 32487 net.cpp:100] Creating Layer conv1_2
I0326 09:48:12.182343 32487 net.cpp:434] conv1_2 <- conv1_1
I0326 09:48:12.182467 32487 net.cpp:408] conv1_2 -> conv1_2
I0326 09:48:12.185958 32487 net.cpp:150] Setting up conv1_2
I0326 09:48:12.186245 32487 net.cpp:157] Top shape: 32 64 300 300 (184320000)
I0326 09:48:12.186344 32487 net.cpp:165] Memory required for data: 2488320128
I0326 09:48:12.186458 32487 layer_factory.hpp:77] Creating layer relu1_2
I0326 09:48:12.186563 32487 net.cpp:100] Creating Layer relu1_2
I0326 09:48:12.186662 32487 net.cpp:434] relu1_2 <- conv1_2
I0326 09:48:12.186764 32487 net.cpp:395] relu1_2 -> conv1_2 (in-place)
I0326 09:48:12.187088 32487 net.cpp:150] Setting up relu1_2
I0326 09:48:12.189785 32487 net.cpp:157] Top shape: 32 64 300 300 (184320000)
I0326 09:48:12.190034 32487 net.cpp:165] Memory required for data: 3225600128
I0326 09:48:12.190224 32487 layer_factory.hpp:77] Creating layer pool1
I0326 09:48:12.190382 32487 net.cpp:100] Creating Layer pool1
I0326 09:48:12.190521 32487 net.cpp:434] pool1 <- conv1_2
I0326 09:48:12.190630 32487 net.cpp:408] pool1 -> pool1
I0326 09:48:12.190932 32487 net.cpp:150] Setting up pool1
I0326 09:48:12.191088 32487 net.cpp:157] Top shape: 32 64 150 150 (46080000)
I0326 09:48:12.191269 32487 net.cpp:165] Memory required for data: 3409920128
I0326 09:48:12.191371 32487 layer_factory.hpp:77] Creating layer conv2_1
I0326 09:48:12.191543 32487 net.cpp:100] Creating Layer conv2_1
I0326 09:48:12.191642 32487 net.cpp:434] conv2_1 <- pool1
I0326 09:48:12.191749 32487 net.cpp:408] conv2_1 -> conv2_1
I0326 09:48:12.199735 32487 net.cpp:150] Setting up conv2_1
I0326 09:48:12.201784 32487 net.cpp:157] Top shape: 32 128 150 150 (92160000)
I0326 09:48:12.201992 32487 net.cpp:165] Memory required for data: 3778560128
I0326 09:48:12.202127 32487 layer_factory.hpp:77] Creating layer relu2_1
I0326 09:48:12.205786 32487 net.cpp:100] Creating Layer relu2_1
I0326 09:48:12.206002 32487 net.cpp:434] relu2_1 <- conv2_1
I0326 09:48:12.206113 32487 net.cpp:395] relu2_1 -> conv2_1 (in-place)
I0326 09:48:12.206524 32487 net.cpp:150] Setting up relu2_1
I0326 09:48:12.206686 32487 net.cpp:157] Top shape: 32 128 150 150 (92160000)
I0326 09:48:12.206789 32487 net.cpp:165] Memory required for data: 4147200128
I0326 09:48:12.206972 32487 layer_factory.hpp:77] Creating layer conv2_2
I0326 09:48:12.207093 32487 net.cpp:100] Creating Layer conv2_2
I0326 09:48:12.207191 32487 net.cpp:434] conv2_2 <- conv2_1
I0326 09:48:12.207332 32487 net.cpp:408] conv2_2 -> conv2_2
I0326 09:48:12.215435 32487 net.cpp:150] Setting up conv2_2
I0326 09:48:12.217787 32487 net.cpp:157] Top shape: 32 128 150 150 (92160000)
I0326 09:48:12.218029 32487 net.cpp:165] Memory required for data: 4515840128
I0326 09:48:12.218179 32487 layer_factory.hpp:77] Creating layer relu2_2
I0326 09:48:12.218324 32487 net.cpp:100] Creating Layer relu2_2
I0326 09:48:12.218423 32487 net.cpp:434] relu2_2 <- conv2_2
I0326 09:48:12.218562 32487 net.cpp:395] relu2_2 -> conv2_2 (in-place)
I0326 09:48:12.219826 32487 net.cpp:150] Setting up relu2_2
I0326 09:48:12.232581 32487 net.cpp:157] Top shape: 32 128 150 150 (92160000)
I0326 09:48:12.232879 32487 net.cpp:165] Memory required for data: 4884480128
I0326 09:48:12.232988 32487 layer_factory.hpp:77] Creating layer pool2
I0326 09:48:12.233103 32487 net.cpp:100] Creating Layer pool2
I0326 09:48:12.233206 32487 net.cpp:434] pool2 <- conv2_2
I0326 09:48:12.233317 32487 net.cpp:408] pool2 -> pool2
I0326 09:48:12.233580 32487 net.cpp:150] Setting up pool2
I0326 09:48:12.233758 32487 net.cpp:157] Top shape: 32 128 75 75 (23040000)
I0326 09:48:12.233884 32487 net.cpp:165] Memory required for data: 4976640128
I0326 09:48:12.233991 32487 layer_factory.hpp:77] Creating layer conv3_1
I0326 09:48:12.234122 32487 net.cpp:100] Creating Layer conv3_1
I0326 09:48:12.234221 32487 net.cpp:434] conv3_1 <- pool2
I0326 09:48:12.234341 32487 net.cpp:408] conv3_1 -> conv3_1
I0326 09:48:12.252362 32487 net.cpp:150] Setting up conv3_1
I0326 09:48:12.252657 32487 net.cpp:157] Top shape: 32 256 75 75 (46080000)
I0326 09:48:12.252815 32487 net.cpp:165] Memory required for data: 5160960128
I0326 09:48:12.252969 32487 layer_factory.hpp:77] Creating layer relu3_1
I0326 09:48:12.253077 32487 net.cpp:100] Creating Layer relu3_1
I0326 09:48:12.253214 32487 net.cpp:434] relu3_1 <- conv3_1
I0326 09:48:12.253350 32487 net.cpp:395] relu3_1 -> conv3_1 (in-place)
I0326 09:48:12.253765 32487 net.cpp:150] Setting up relu3_1
I0326 09:48:12.265780 32487 net.cpp:157] Top shape: 32 256 75 75 (46080000)
I0326 09:48:12.266078 32487 net.cpp:165] Memory required for data: 5345280128
I0326 09:48:12.266252 32487 layer_factory.hpp:77] Creating layer conv3_2
I0326 09:48:12.266417 32487 net.cpp:100] Creating Layer conv3_2
I0326 09:48:12.266520 32487 net.cpp:434] conv3_2 <- conv3_1
I0326 09:48:12.266669 32487 net.cpp:408] conv3_2 -> conv3_2
I0326 09:48:12.284533 32487 net.cpp:150] Setting up conv3_2
I0326 09:48:12.284842 32487 net.cpp:157] Top shape: 32 256 75 75 (46080000)
I0326 09:48:12.284946 32487 net.cpp:165] Memory required for data: 5529600128
I0326 09:48:12.285109 32487 layer_factory.hpp:77] Creating layer relu3_2
I0326 09:48:12.285255 32487 net.cpp:100] Creating Layer relu3_2
I0326 09:48:12.285359 32487 net.cpp:434] relu3_2 <- conv3_2
I0326 09:48:12.285498 32487 net.cpp:395] relu3_2 -> conv3_2 (in-place)
I0326 09:48:12.285995 32487 net.cpp:150] Setting up relu3_2
I0326 09:48:12.286171 32487 net.cpp:157] Top shape: 32 256 75 75 (46080000)
I0326 09:48:12.286271 32487 net.cpp:165] Memory required for data: 5713920128
I0326 09:48:12.286375 32487 layer_factory.hpp:77] Creating layer conv3_3
I0326 09:48:12.286542 32487 net.cpp:100] Creating Layer conv3_3
I0326 09:48:12.286677 32487 net.cpp:434] conv3_3 <- conv3_2
I0326 09:48:12.286803 32487 net.cpp:408] conv3_3 -> conv3_3
I0326 09:48:12.296272 32487 net.cpp:150] Setting up conv3_3
I0326 09:48:12.325789 32487 net.cpp:157] Top shape: 32 256 75 75 (46080000)
I0326 09:48:12.325839 32487 net.cpp:165] Memory required for data: 5898240128
I0326 09:48:12.325857 32487 layer_factory.hpp:77] Creating layer relu3_3
I0326 09:48:12.325876 32487 net.cpp:100] Creating Layer relu3_3
I0326 09:48:12.325886 32487 net.cpp:434] relu3_3 <- conv3_3
I0326 09:48:12.325894 32487 net.cpp:395] relu3_3 -> conv3_3 (in-place)
I0326 09:48:12.327023 32487 net.cpp:150] Setting up relu3_3
I0326 09:48:12.327042 32487 net.cpp:157] Top shape: 32 256 75 75 (46080000)
I0326 09:48:12.327054 32487 net.cpp:165] Memory required for data: 6082560128
I0326 09:48:12.327062 32487 layer_factory.hpp:77] Creating layer pool3
I0326 09:48:12.327075 32487 net.cpp:100] Creating Layer pool3
I0326 09:48:12.327085 32487 net.cpp:434] pool3 <- conv3_3
I0326 09:48:12.327098 32487 net.cpp:408] pool3 -> pool3
I0326 09:48:12.327188 32487 net.cpp:150] Setting up pool3
I0326 09:48:12.327206 32487 net.cpp:157] Top shape: 32 256 38 38 (11829248)
I0326 09:48:12.327214 32487 net.cpp:165] Memory required for data: 6129877120
I0326 09:48:12.327221 32487 layer_factory.hpp:77] Creating layer conv4_1
I0326 09:48:12.327247 32487 net.cpp:100] Creating Layer conv4_1
I0326 09:48:12.327255 32487 net.cpp:434] conv4_1 <- pool3
I0326 09:48:12.327265 32487 net.cpp:408] conv4_1 -> conv4_1
I0326 09:48:12.351161 32487 net.cpp:150] Setting up conv4_1
I0326 09:48:12.351198 32487 net.cpp:157] Top shape: 32 512 38 38 (23658496)
I0326 09:48:12.351205 32487 net.cpp:165] Memory required for data: 6224511104
I0326 09:48:12.351227 32487 layer_factory.hpp:77] Creating layer relu4_1
I0326 09:48:12.351246 32487 net.cpp:100] Creating Layer relu4_1
I0326 09:48:12.351259 32487 net.cpp:434] relu4_1 <- conv4_1
I0326 09:48:12.351269 32487 net.cpp:395] relu4_1 -> conv4_1 (in-place)
I0326 09:48:12.351523 32487 net.cpp:150] Setting up relu4_1
I0326 09:48:12.351541 32487 net.cpp:157] Top shape: 32 512 38 38 (23658496)
I0326 09:48:12.351547 32487 net.cpp:165] Memory required for data: 6319145088
I0326 09:48:12.351553 32487 layer_factory.hpp:77] Creating layer conv4_2
I0326 09:48:12.351574 32487 net.cpp:100] Creating Layer conv4_2
I0326 09:48:12.351583 32487 net.cpp:434] conv4_2 <- conv4_1
I0326 09:48:12.351594 32487 net.cpp:408] conv4_2 -> conv4_2
I0326 09:48:12.406884 32487 net.cpp:150] Setting up conv4_2
I0326 09:48:12.406927 32487 net.cpp:157] Top shape: 32 512 38 38 (23658496)
I0326 09:48:12.406935 32487 net.cpp:165] Memory required for data: 6413779072
I0326 09:48:12.406962 32487 layer_factory.hpp:77] Creating layer relu4_2
I0326 09:48:12.406982 32487 net.cpp:100] Creating Layer relu4_2
I0326 09:48:12.406994 32487 net.cpp:434] relu4_2 <- conv4_2
I0326 09:48:12.407004 32487 net.cpp:395] relu4_2 -> conv4_2 (in-place)
I0326 09:48:12.407266 32487 net.cpp:150] Setting up relu4_2
I0326 09:48:12.407284 32487 net.cpp:157] Top shape: 32 512 38 38 (23658496)
I0326 09:48:12.407289 32487 net.cpp:165] Memory required for data: 6508413056
I0326 09:48:12.407295 32487 layer_factory.hpp:77] Creating layer conv4_3
I0326 09:48:12.407312 32487 net.cpp:100] Creating Layer conv4_3
I0326 09:48:12.407320 32487 net.cpp:434] conv4_3 <- conv4_2
I0326 09:48:12.407331 32487 net.cpp:408] conv4_3 -> conv4_3
I0326 09:48:12.457303 32487 net.cpp:150] Setting up conv4_3
I0326 09:48:12.465152 32487 net.cpp:157] Top shape: 32 512 38 38 (23658496)
I0326 09:48:12.465204 32487 net.cpp:165] Memory required for data: 6603047040
I0326 09:48:12.465248 32487 layer_factory.hpp:77] Creating layer relu4_3
I0326 09:48:12.465286 32487 net.cpp:100] Creating Layer relu4_3
I0326 09:48:12.465322 32487 net.cpp:434] relu4_3 <- conv4_3
I0326 09:48:12.465355 32487 net.cpp:395] relu4_3 -> conv4_3 (in-place)
I0326 09:48:12.465724 32487 net.cpp:150] Setting up relu4_3
I0326 09:48:12.465783 32487 net.cpp:157] Top shape: 32 512 38 38 (23658496)
I0326 09:48:12.465812 32487 net.cpp:165] Memory required for data: 6697681024
I0326 09:48:12.465840 32487 layer_factory.hpp:77] Creating layer conv4_3_relu4_3_0_split
I0326 09:48:12.465878 32487 net.cpp:100] Creating Layer conv4_3_relu4_3_0_split
I0326 09:48:12.465926 32487 net.cpp:434] conv4_3_relu4_3_0_split <- conv4_3
I0326 09:48:12.465960 32487 net.cpp:408] conv4_3_relu4_3_0_split -> conv4_3_relu4_3_0_split_0
I0326 09:48:12.465992 32487 net.cpp:408] conv4_3_relu4_3_0_split -> conv4_3_relu4_3_0_split_1
I0326 09:48:12.466100 32487 net.cpp:150] Setting up conv4_3_relu4_3_0_split
I0326 09:48:12.466135 32487 net.cpp:157] Top shape: 32 512 38 38 (23658496)
I0326 09:48:12.466163 32487 net.cpp:157] Top shape: 32 512 38 38 (23658496)
I0326 09:48:12.466188 32487 net.cpp:165] Memory required for data: 6886948992
I0326 09:48:12.466215 32487 layer_factory.hpp:77] Creating layer pool4
I0326 09:48:12.466246 32487 net.cpp:100] Creating Layer pool4
I0326 09:48:12.466274 32487 net.cpp:434] pool4 <- conv4_3_relu4_3_0_split_0
I0326 09:48:12.466303 32487 net.cpp:408] pool4 -> pool4
I0326 09:48:12.466389 32487 net.cpp:150] Setting up pool4
I0326 09:48:12.466420 32487 net.cpp:157] Top shape: 32 512 19 19 (5914624)
I0326 09:48:12.466447 32487 net.cpp:165] Memory required for data: 6910607488
I0326 09:48:12.466473 32487 layer_factory.hpp:77] Creating layer conv5_1
I0326 09:48:12.466513 32487 net.cpp:100] Creating Layer conv5_1
I0326 09:48:12.466542 32487 net.cpp:434] conv5_1 <- pool4
I0326 09:48:12.466578 32487 net.cpp:408] conv5_1 -> conv5_1
I0326 09:48:12.512732 32487 net.cpp:150] Setting up conv5_1
I0326 09:48:12.533118 32487 net.cpp:157] Top shape: 32 512 19 19 (5914624)
I0326 09:48:12.533183 32487 net.cpp:165] Memory required for data: 6934265984
I0326 09:48:12.533226 32487 layer_factory.hpp:77] Creating layer relu5_1
I0326 09:48:12.533257 32487 net.cpp:100] Creating Layer relu5_1
I0326 09:48:12.533277 32487 net.cpp:434] relu5_1 <- conv5_1
I0326 09:48:12.533313 32487 net.cpp:395] relu5_1 -> conv5_1 (in-place)
I0326 09:48:12.534555 32487 net.cpp:150] Setting up relu5_1
I0326 09:48:12.534603 32487 net.cpp:157] Top shape: 32 512 19 19 (5914624)
I0326 09:48:12.534631 32487 net.cpp:165] Memory required for data: 6957924480
I0326 09:48:12.534662 32487 layer_factory.hpp:77] Creating layer conv5_2
I0326 09:48:12.534704 32487 net.cpp:100] Creating Layer conv5_2
I0326 09:48:12.534737 32487 net.cpp:434] conv5_2 <- conv5_1
I0326 09:48:12.534775 32487 net.cpp:408] conv5_2 -> conv5_2
I0326 09:48:12.601377 32487 net.cpp:150] Setting up conv5_2
I0326 09:48:12.609680 32487 net.cpp:157] Top shape: 32 512 19 19 (5914624)
I0326 09:48:12.609779 32487 net.cpp:165] Memory required for data: 6981582976
I0326 09:48:12.609818 32487 layer_factory.hpp:77] Creating layer relu5_2
I0326 09:48:12.609854 32487 net.cpp:100] Creating Layer relu5_2
I0326 09:48:12.609879 32487 net.cpp:434] relu5_2 <- conv5_2
I0326 09:48:12.609910 32487 net.cpp:395] relu5_2 -> conv5_2 (in-place)
I0326 09:48:12.610317 32487 net.cpp:150] Setting up relu5_2
I0326 09:48:12.610359 32487 net.cpp:157] Top shape: 32 512 19 19 (5914624)
I0326 09:48:12.610388 32487 net.cpp:165] Memory required for data: 7005241472
I0326 09:48:12.610417 32487 layer_factory.hpp:77] Creating layer conv5_3
I0326 09:48:12.610466 32487 net.cpp:100] Creating Layer conv5_3
I0326 09:48:12.610498 32487 net.cpp:434] conv5_3 <- conv5_2
I0326 09:48:12.610538 32487 net.cpp:408] conv5_3 -> conv5_3
I0326 09:48:12.651114 32487 net.cpp:150] Setting up conv5_3
I0326 09:48:12.651506 32487 net.cpp:157] Top shape: 32 512 19 19 (5914624)
I0326 09:48:12.655522 32487 net.cpp:165] Memory required for data: 7028899968
I0326 09:48:12.655643 32487 layer_factory.hpp:77] Creating layer relu5_3
I0326 09:48:12.655773 32487 net.cpp:100] Creating Layer relu5_3
I0326 09:48:12.664038 32487 net.cpp:434] relu5_3 <- conv5_3
I0326 09:48:12.664333 32487 net.cpp:395] relu5_3 -> conv5_3 (in-place)
I0326 09:48:12.664882 32487 net.cpp:150] Setting up relu5_3
I0326 09:48:12.665089 32487 net.cpp:157] Top shape: 32 512 19 19 (5914624)
I0326 09:48:12.665192 32487 net.cpp:165] Memory required for data: 7052558464
I0326 09:48:12.665302 32487 layer_factory.hpp:77] Creating layer pool5
I0326 09:48:12.665443 32487 net.cpp:100] Creating Layer pool5
I0326 09:48:12.665546 32487 net.cpp:434] pool5 <- conv5_3
I0326 09:48:12.665678 32487 net.cpp:408] pool5 -> pool5
I0326 09:48:12.665957 32487 net.cpp:150] Setting up pool5
I0326 09:48:12.666123 32487 net.cpp:157] Top shape: 32 512 19 19 (5914624)
I0326 09:48:12.666225 32487 net.cpp:165] Memory required for data: 7076216960
I0326 09:48:12.666338 32487 layer_factory.hpp:77] Creating layer fc6
I0326 09:48:12.666463 32487 net.cpp:100] Creating Layer fc6
I0326 09:48:12.666564 32487 net.cpp:434] fc6 <- pool5
I0326 09:48:12.666678 32487 net.cpp:408] fc6 -> fc6
I0326 09:48:12.781594 32487 net.cpp:150] Setting up fc6
I0326 09:48:12.785789 32487 net.cpp:157] Top shape: 32 1024 19 19 (11829248)
I0326 09:48:12.786090 32487 net.cpp:165] Memory required for data: 7123533952
I0326 09:48:12.786211 32487 layer_factory.hpp:77] Creating layer relu6
I0326 09:48:12.786320 32487 net.cpp:100] Creating Layer relu6
I0326 09:48:12.786418 32487 net.cpp:434] relu6 <- fc6
I0326 09:48:12.786520 32487 net.cpp:395] relu6 -> fc6 (in-place)
I0326 09:48:12.788103 32487 net.cpp:150] Setting up relu6
I0326 09:48:12.796977 32487 net.cpp:157] Top shape: 32 1024 19 19 (11829248)
I0326 09:48:12.797230 32487 net.cpp:165] Memory required for data: 7170850944
I0326 09:48:12.797340 32487 layer_factory.hpp:77] Creating layer fc7
I0326 09:48:12.797471 32487 net.cpp:100] Creating Layer fc7
I0326 09:48:12.797576 32487 net.cpp:434] fc7 <- fc6
I0326 09:48:12.797689 32487 net.cpp:408] fc7 -> fc7
I0326 09:48:12.822891 32487 net.cpp:150] Setting up fc7
I0326 09:48:12.837791 32487 net.cpp:157] Top shape: 32 1024 19 19 (11829248)
I0326 09:48:12.837873 32487 net.cpp:165] Memory required for data: 7218167936
I0326 09:48:12.837910 32487 layer_factory.hpp:77] Creating layer relu7
I0326 09:48:12.837944 32487 net.cpp:100] Creating Layer relu7
I0326 09:48:12.837966 32487 net.cpp:434] relu7 <- fc7
I0326 09:48:12.837997 32487 net.cpp:395] relu7 -> fc7 (in-place)
I0326 09:48:12.838392 32487 net.cpp:150] Setting up relu7
I0326 09:48:12.838429 32487 net.cpp:157] Top shape: 32 1024 19 19 (11829248)
I0326 09:48:12.838459 32487 net.cpp:165] Memory required for data: 7265484928
I0326 09:48:12.838487 32487 layer_factory.hpp:77] Creating layer fc7_relu7_0_split
I0326 09:48:12.838523 32487 net.cpp:100] Creating Layer fc7_relu7_0_split
I0326 09:48:12.838552 32487 net.cpp:434] fc7_relu7_0_split <- fc7
I0326 09:48:12.838591 32487 net.cpp:408] fc7_relu7_0_split -> fc7_relu7_0_split_0
I0326 09:48:12.838630 32487 net.cpp:408] fc7_relu7_0_split -> fc7_relu7_0_split_1
I0326 09:48:12.838678 32487 net.cpp:408] fc7_relu7_0_split -> fc7_relu7_0_split_2
I0326 09:48:12.838714 32487 net.cpp:408] fc7_relu7_0_split -> fc7_relu7_0_split_3
I0326 09:48:12.838884 32487 net.cpp:150] Setting up fc7_relu7_0_split
I0326 09:48:12.838922 32487 net.cpp:157] Top shape: 32 1024 19 19 (11829248)
I0326 09:48:12.838954 32487 net.cpp:157] Top shape: 32 1024 19 19 (11829248)
I0326 09:48:12.838986 32487 net.cpp:157] Top shape: 32 1024 19 19 (11829248)
I0326 09:48:12.839022 32487 net.cpp:157] Top shape: 32 1024 19 19 (11829248)
I0326 09:48:12.839051 32487 net.cpp:165] Memory required for data: 7454752896
I0326 09:48:12.839082 32487 layer_factory.hpp:77] Creating layer conv6_1
I0326 09:48:12.839126 32487 net.cpp:100] Creating Layer conv6_1
I0326 09:48:12.839157 32487 net.cpp:434] conv6_1 <- fc7_relu7_0_split_0
I0326 09:48:12.839195 32487 net.cpp:408] conv6_1 -> conv6_1
I0326 09:48:12.846323 32487 net.cpp:150] Setting up conv6_1
I0326 09:48:12.865778 32487 net.cpp:157] Top shape: 32 256 19 19 (2957312)
I0326 09:48:12.865854 32487 net.cpp:165] Memory required for data: 7466582144
I0326 09:48:12.865891 32487 layer_factory.hpp:77] Creating layer conv6_1_relu
I0326 09:48:12.865927 32487 net.cpp:100] Creating Layer conv6_1_relu
I0326 09:48:12.865952 32487 net.cpp:434] conv6_1_relu <- conv6_1
I0326 09:48:12.865989 32487 net.cpp:395] conv6_1_relu -> conv6_1 (in-place)
I0326 09:48:12.866436 32487 net.cpp:150] Setting up conv6_1_relu
I0326 09:48:12.866478 32487 net.cpp:157] Top shape: 32 256 19 19 (2957312)
I0326 09:48:12.866505 32487 net.cpp:165] Memory required for data: 7478411392
I0326 09:48:12.866542 32487 layer_factory.hpp:77] Creating layer conv6_2
I0326 09:48:12.866597 32487 net.cpp:100] Creating Layer conv6_2
I0326 09:48:12.866631 32487 net.cpp:434] conv6_2 <- conv6_1
I0326 09:48:12.866675 32487 net.cpp:408] conv6_2 -> conv6_2
I0326 09:48:12.901178 32487 net.cpp:150] Setting up conv6_2
I0326 09:48:12.910329 32487 net.cpp:157] Top shape: 32 512 10 10 (1638400)
I0326 09:48:12.910403 32487 net.cpp:165] Memory required for data: 7484964992
I0326 09:48:12.910454 32487 layer_factory.hpp:77] Creating layer conv6_2_relu
I0326 09:48:12.910560 32487 net.cpp:100] Creating Layer conv6_2_relu
I0326 09:48:12.910591 32487 net.cpp:434] conv6_2_relu <- conv6_2
I0326 09:48:12.910723 32487 net.cpp:395] conv6_2_relu -> conv6_2 (in-place)
I0326 09:48:12.917085 32487 net.cpp:150] Setting up conv6_2_relu
I0326 09:48:12.917161 32487 net.cpp:157] Top shape: 32 512 10 10 (1638400)
I0326 09:48:12.917186 32487 net.cpp:165] Memory required for data: 7491518592
I0326 09:48:12.917212 32487 layer_factory.hpp:77] Creating layer conv6_2_conv6_2_relu_0_split
I0326 09:48:12.917243 32487 net.cpp:100] Creating Layer conv6_2_conv6_2_relu_0_split
I0326 09:48:12.917268 32487 net.cpp:434] conv6_2_conv6_2_relu_0_split <- conv6_2
I0326 09:48:12.917304 32487 net.cpp:408] conv6_2_conv6_2_relu_0_split -> conv6_2_conv6_2_relu_0_split_0
I0326 09:48:12.917341 32487 net.cpp:408] conv6_2_conv6_2_relu_0_split -> conv6_2_conv6_2_relu_0_split_1
I0326 09:48:12.917376 32487 net.cpp:408] conv6_2_conv6_2_relu_0_split -> conv6_2_conv6_2_relu_0_split_2
I0326 09:48:12.917412 32487 net.cpp:408] conv6_2_conv6_2_relu_0_split -> conv6_2_conv6_2_relu_0_split_3
I0326 09:48:12.917564 32487 net.cpp:150] Setting up conv6_2_conv6_2_relu_0_split
I0326 09:48:12.917596 32487 net.cpp:157] Top shape: 32 512 10 10 (1638400)
I0326 09:48:12.917618 32487 net.cpp:157] Top shape: 32 512 10 10 (1638400)
I0326 09:48:12.917646 32487 net.cpp:157] Top shape: 32 512 10 10 (1638400)
I0326 09:48:12.917677 32487 net.cpp:157] Top shape: 32 512 10 10 (1638400)
I0326 09:48:12.917707 32487 net.cpp:165] Memory required for data: 7517732992
I0326 09:48:12.917764 32487 layer_factory.hpp:77] Creating layer conv7_1
I0326 09:48:12.917809 32487 net.cpp:100] Creating Layer conv7_1
I0326 09:48:12.917837 32487 net.cpp:434] conv7_1 <- conv6_2_conv6_2_relu_0_split_0
I0326 09:48:12.917874 32487 net.cpp:408] conv7_1 -> conv7_1
I0326 09:48:12.920493 32487 net.cpp:150] Setting up conv7_1
I0326 09:48:12.920567 32487 net.cpp:157] Top shape: 32 128 10 10 (409600)
I0326 09:48:12.920590 32487 net.cpp:165] Memory required for data: 7519371392
I0326 09:48:12.920630 32487 layer_factory.hpp:77] Creating layer conv7_1_relu
I0326 09:48:12.920661 32487 net.cpp:100] Creating Layer conv7_1_relu
I0326 09:48:12.920693 32487 net.cpp:434] conv7_1_relu <- conv7_1
I0326 09:48:12.920730 32487 net.cpp:395] conv7_1_relu -> conv7_1 (in-place)
I0326 09:48:12.921025 32487 net.cpp:150] Setting up conv7_1_relu
I0326 09:48:12.921062 32487 net.cpp:157] Top shape: 32 128 10 10 (409600)
I0326 09:48:12.921085 32487 net.cpp:165] Memory required for data: 7521009792
I0326 09:48:12.921103 32487 layer_factory.hpp:77] Creating layer conv7_2
I0326 09:48:12.921145 32487 net.cpp:100] Creating Layer conv7_2
I0326 09:48:12.921169 32487 net.cpp:434] conv7_2 <- conv7_1
I0326 09:48:12.921200 32487 net.cpp:408] conv7_2 -> conv7_2
I0326 09:48:12.927192 32487 net.cpp:150] Setting up conv7_2
I0326 09:48:12.941783 32487 net.cpp:157] Top shape: 32 256 5 5 (204800)
I0326 09:48:12.941856 32487 net.cpp:165] Memory required for data: 7521828992
I0326 09:48:12.941893 32487 layer_factory.hpp:77] Creating layer conv7_2_relu
I0326 09:48:12.941928 32487 net.cpp:100] Creating Layer conv7_2_relu
I0326 09:48:12.941951 32487 net.cpp:434] conv7_2_relu <- conv7_2
I0326 09:48:12.941984 32487 net.cpp:395] conv7_2_relu -> conv7_2 (in-place)
I0326 09:48:12.942378 32487 net.cpp:150] Setting up conv7_2_relu
I0326 09:48:12.942414 32487 net.cpp:157] Top shape: 32 256 5 5 (204800)
I0326 09:48:12.942431 32487 net.cpp:165] Memory required for data: 7522648192
I0326 09:48:12.942464 32487 layer_factory.hpp:77] Creating layer conv7_2_conv7_2_relu_0_split
I0326 09:48:12.942508 32487 net.cpp:100] Creating Layer conv7_2_conv7_2_relu_0_split
I0326 09:48:12.942536 32487 net.cpp:434] conv7_2_conv7_2_relu_0_split <- conv7_2
I0326 09:48:12.942570 32487 net.cpp:408] conv7_2_conv7_2_relu_0_split -> conv7_2_conv7_2_relu_0_split_0
I0326 09:48:12.942605 32487 net.cpp:408] conv7_2_conv7_2_relu_0_split -> conv7_2_conv7_2_relu_0_split_1
I0326 09:48:12.942636 32487 net.cpp:408] conv7_2_conv7_2_relu_0_split -> conv7_2_conv7_2_relu_0_split_2
I0326 09:48:12.942669 32487 net.cpp:408] conv7_2_conv7_2_relu_0_split -> conv7_2_conv7_2_relu_0_split_3
I0326 09:48:12.942826 32487 net.cpp:150] Setting up conv7_2_conv7_2_relu_0_split
I0326 09:48:12.942867 32487 net.cpp:157] Top shape: 32 256 5 5 (204800)
I0326 09:48:12.942894 32487 net.cpp:157] Top shape: 32 256 5 5 (204800)
I0326 09:48:12.942925 32487 net.cpp:157] Top shape: 32 256 5 5 (204800)
I0326 09:48:12.942950 32487 net.cpp:157] Top shape: 32 256 5 5 (204800)
I0326 09:48:12.942968 32487 net.cpp:165] Memory required for data: 7525924992
I0326 09:48:12.942992 32487 layer_factory.hpp:77] Creating layer conv8_1
I0326 09:48:12.943033 32487 net.cpp:100] Creating Layer conv8_1
I0326 09:48:12.943063 32487 net.cpp:434] conv8_1 <- conv7_2_conv7_2_relu_0_split_0
I0326 09:48:12.943092 32487 net.cpp:408] conv8_1 -> conv8_1
I0326 09:48:12.945469 32487 net.cpp:150] Setting up conv8_1
I0326 09:48:12.945549 32487 net.cpp:157] Top shape: 32 128 5 5 (102400)
I0326 09:48:12.945572 32487 net.cpp:165] Memory required for data: 7526334592
I0326 09:48:12.945611 32487 layer_factory.hpp:77] Creating layer conv8_1_relu
I0326 09:48:12.945639 32487 net.cpp:100] Creating Layer conv8_1_relu
I0326 09:48:12.945665 32487 net.cpp:434] conv8_1_relu <- conv8_1
I0326 09:48:12.945704 32487 net.cpp:395] conv8_1_relu -> conv8_1 (in-place)
I0326 09:48:12.946032 32487 net.cpp:150] Setting up conv8_1_relu
I0326 09:48:12.946070 32487 net.cpp:157] Top shape: 32 128 5 5 (102400)
I0326 09:48:12.946101 32487 net.cpp:165] Memory required for data: 7526744192
I0326 09:48:12.946127 32487 layer_factory.hpp:77] Creating layer conv8_2
I0326 09:48:12.946169 32487 net.cpp:100] Creating Layer conv8_2
I0326 09:48:12.946202 32487 net.cpp:434] conv8_2 <- conv8_1
I0326 09:48:12.946241 32487 net.cpp:408] conv8_2 -> conv8_2
I0326 09:48:12.953039 32487 net.cpp:150] Setting up conv8_2
I0326 09:48:12.965787 32487 net.cpp:157] Top shape: 32 256 3 3 (73728)
I0326 09:48:12.965888 32487 net.cpp:165] Memory required for data: 7527039104
I0326 09:48:12.965935 32487 layer_factory.hpp:77] Creating layer conv8_2_relu
I0326 09:48:12.965970 32487 net.cpp:100] Creating Layer conv8_2_relu
I0326 09:48:12.966001 32487 net.cpp:434] conv8_2_relu <- conv8_2
I0326 09:48:12.966032 32487 net.cpp:395] conv8_2_relu -> conv8_2 (in-place)
I0326 09:48:12.967496 32487 net.cpp:150] Setting up conv8_2_relu
I0326 09:48:12.967707 32487 net.cpp:157] Top shape: 32 256 3 3 (73728)
I0326 09:48:12.967819 32487 net.cpp:165] Memory required for data: 7527334016
I0326 09:48:12.967932 32487 layer_factory.hpp:77] Creating layer conv8_2_conv8_2_relu_0_split
I0326 09:48:12.968058 32487 net.cpp:100] Creating Layer conv8_2_conv8_2_relu_0_split
I0326 09:48:12.968176 32487 net.cpp:434] conv8_2_conv8_2_relu_0_split <- conv8_2
I0326 09:48:12.968300 32487 net.cpp:408] conv8_2_conv8_2_relu_0_split -> conv8_2_conv8_2_relu_0_split_0
I0326 09:48:12.968432 32487 net.cpp:408] conv8_2_conv8_2_relu_0_split -> conv8_2_conv8_2_relu_0_split_1
I0326 09:48:12.968555 32487 net.cpp:408] conv8_2_conv8_2_relu_0_split -> conv8_2_conv8_2_relu_0_split_2
I0326 09:48:12.968796 32487 net.cpp:408] conv8_2_conv8_2_relu_0_split -> conv8_2_conv8_2_relu_0_split_3
I0326 09:48:12.969077 32487 net.cpp:150] Setting up conv8_2_conv8_2_relu_0_split
I0326 09:48:12.969197 32487 net.cpp:157] Top shape: 32 256 3 3 (73728)
I0326 09:48:12.969307 32487 net.cpp:157] Top shape: 32 256 3 3 (73728)
I0326 09:48:12.969416 32487 net.cpp:157] Top shape: 32 256 3 3 (73728)
I0326 09:48:12.969523 32487 net.cpp:157] Top shape: 32 256 3 3 (73728)
I0326 09:48:12.969635 32487 net.cpp:165] Memory required for data: 7528513664
I0326 09:48:12.969784 32487 layer_factory.hpp:77] Creating layer conv9_1
I0326 09:48:12.969909 32487 net.cpp:100] Creating Layer conv9_1
I0326 09:48:12.970013 32487 net.cpp:434] conv9_1 <- conv8_2_conv8_2_relu_0_split_0
I0326 09:48:12.970132 32487 net.cpp:408] conv9_1 -> conv9_1
I0326 09:48:12.972690 32487 net.cpp:150] Setting up conv9_1
I0326 09:48:12.972995 32487 net.cpp:157] Top shape: 32 128 3 3 (36864)
I0326 09:48:12.973107 32487 net.cpp:165] Memory required for data: 7528661120
I0326 09:48:12.973223 32487 layer_factory.hpp:77] Creating layer conv9_1_relu
I0326 09:48:12.973338 32487 net.cpp:100] Creating Layer conv9_1_relu
I0326 09:48:12.973453 32487 net.cpp:434] conv9_1_relu <- conv9_1
I0326 09:48:12.973563 32487 net.cpp:395] conv9_1_relu -> conv9_1 (in-place)
I0326 09:48:12.974025 32487 net.cpp:150] Setting up conv9_1_relu
I0326 09:48:12.974195 32487 net.cpp:157] Top shape: 32 128 3 3 (36864)
I0326 09:48:12.974297 32487 net.cpp:165] Memory required for data: 7528808576
I0326 09:48:12.974407 32487 layer_factory.hpp:77] Creating layer conv9_2
I0326 09:48:12.974531 32487 net.cpp:100] Creating Layer conv9_2
I0326 09:48:12.974637 32487 net.cpp:434] conv9_2 <- conv9_1
I0326 09:48:12.974757 32487 net.cpp:408] conv9_2 -> conv9_2
I0326 09:48:12.981691 32487 net.cpp:150] Setting up conv9_2
I0326 09:48:12.989764 32487 net.cpp:157] Top shape: 32 256 1 1 (8192)
I0326 09:48:12.990025 32487 net.cpp:165] Memory required for data: 7528841344
I0326 09:48:12.990144 32487 layer_factory.hpp:77] Creating layer conv9_2_relu
I0326 09:48:12.990252 32487 net.cpp:100] Creating Layer conv9_2_relu
I0326 09:48:12.990355 32487 net.cpp:434] conv9_2_relu <- conv9_2
I0326 09:48:12.990465 32487 net.cpp:395] conv9_2_relu -> conv9_2 (in-place)
I0326 09:48:12.990906 32487 net.cpp:150] Setting up conv9_2_relu
I0326 09:48:12.991060 32487 net.cpp:157] Top shape: 32 256 1 1 (8192)
I0326 09:48:12.991158 32487 net.cpp:165] Memory required for data: 7528874112
I0326 09:48:12.991255 32487 layer_factory.hpp:77] Creating layer conv9_2_conv9_2_relu_0_split
I0326 09:48:12.991366 32487 net.cpp:100] Creating Layer conv9_2_conv9_2_relu_0_split
I0326 09:48:12.991464 32487 net.cpp:434] conv9_2_conv9_2_relu_0_split <- conv9_2
I0326 09:48:12.991573 32487 net.cpp:408] conv9_2_conv9_2_relu_0_split -> conv9_2_conv9_2_relu_0_split_0
I0326 09:48:12.991694 32487 net.cpp:408] conv9_2_conv9_2_relu_0_split -> conv9_2_conv9_2_relu_0_split_1
I0326 09:48:12.991803 32487 net.cpp:408] conv9_2_conv9_2_relu_0_split -> conv9_2_conv9_2_relu_0_split_2
I0326 09:48:12.992085 32487 net.cpp:150] Setting up conv9_2_conv9_2_relu_0_split
I0326 09:48:12.992252 32487 net.cpp:157] Top shape: 32 256 1 1 (8192)
I0326 09:48:12.992357 32487 net.cpp:157] Top shape: 32 256 1 1 (8192)
I0326 09:48:12.992460 32487 net.cpp:157] Top shape: 32 256 1 1 (8192)
I0326 09:48:12.992558 32487 net.cpp:165] Memory required for data: 7528972416
I0326 09:48:12.992666 32487 layer_factory.hpp:77] Creating layer conv4_3_norm
I0326 09:48:12.992789 32487 net.cpp:100] Creating Layer conv4_3_norm
I0326 09:48:12.992955 32487 net.cpp:434] conv4_3_norm <- conv4_3_relu4_3_0_split_1
I0326 09:48:12.993070 32487 net.cpp:408] conv4_3_norm -> conv4_3_norm
I0326 09:48:12.993559 32487 net.cpp:150] Setting up conv4_3_norm
I0326 09:48:12.993723 32487 net.cpp:157] Top shape: 32 512 38 38 (23658496)
I0326 09:48:12.993894 32487 net.cpp:165] Memory required for data: 7623606400
I0326 09:48:12.994011 32487 layer_factory.hpp:77] Creating layer conv4_3_norm_conv4_3_norm_0_split
I0326 09:48:12.994128 32487 net.cpp:100] Creating Layer conv4_3_norm_conv4_3_norm_0_split
I0326 09:48:12.994230 32487 net.cpp:434] conv4_3_norm_conv4_3_norm_0_split <- conv4_3_norm
I0326 09:48:12.994336 32487 net.cpp:408] conv4_3_norm_conv4_3_norm_0_split -> conv4_3_norm_conv4_3_norm_0_split_0
I0326 09:48:12.994453 32487 net.cpp:408] conv4_3_norm_conv4_3_norm_0_split -> conv4_3_norm_conv4_3_norm_0_split_1
I0326 09:48:12.994566 32487 net.cpp:408] conv4_3_norm_conv4_3_norm_0_split -> conv4_3_norm_conv4_3_norm_0_split_2
I0326 09:48:12.994778 32487 net.cpp:150] Setting up conv4_3_norm_conv4_3_norm_0_split
I0326 09:48:12.994905 32487 net.cpp:157] Top shape: 32 512 38 38 (23658496)
I0326 09:48:12.995010 32487 net.cpp:157] Top shape: 32 512 38 38 (23658496)
I0326 09:48:12.995112 32487 net.cpp:157] Top shape: 32 512 38 38 (23658496)
I0326 09:48:12.995213 32487 net.cpp:165] Memory required for data: 7907508352
I0326 09:48:12.995321 32487 layer_factory.hpp:77] Creating layer conv4_3_norm_mbox_loc
I0326 09:48:12.995440 32487 net.cpp:100] Creating Layer conv4_3_norm_mbox_loc
I0326 09:48:12.995541 32487 net.cpp:434] conv4_3_norm_mbox_loc <- conv4_3_norm_conv4_3_norm_0_split_0
I0326 09:48:12.995658 32487 net.cpp:408] conv4_3_norm_mbox_loc -> conv4_3_norm_mbox_loc
I0326 09:48:12.999405 32487 net.cpp:150] Setting up conv4_3_norm_mbox_loc
I0326 09:48:12.999706 32487 net.cpp:157] Top shape: 32 16 38 38 (739328)
I0326 09:48:12.999815 32487 net.cpp:165] Memory required for data: 7910465664
I0326 09:48:12.999925 32487 layer_factory.hpp:77] Creating layer conv4_3_norm_mbox_loc_perm
I0326 09:48:13.000056 32487 net.cpp:100] Creating Layer conv4_3_norm_mbox_loc_perm
I0326 09:48:13.000159 32487 net.cpp:434] conv4_3_norm_mbox_loc_perm <- conv4_3_norm_mbox_loc
I0326 09:48:13.000270 32487 net.cpp:408] conv4_3_norm_mbox_loc_perm -> conv4_3_norm_mbox_loc_perm
I0326 09:48:13.000617 32487 net.cpp:150] Setting up conv4_3_norm_mbox_loc_perm
I0326 09:48:13.000777 32487 net.cpp:157] Top shape: 32 38 38 16 (739328)
I0326 09:48:13.000880 32487 net.cpp:165] Memory required for data: 7913422976
I0326 09:48:13.000985 32487 layer_factory.hpp:77] Creating layer conv4_3_norm_mbox_loc_flat
I0326 09:48:13.001101 32487 net.cpp:100] Creating Layer conv4_3_norm_mbox_loc_flat
I0326 09:48:13.001201 32487 net.cpp:434] conv4_3_norm_mbox_loc_flat <- conv4_3_norm_mbox_loc_perm
I0326 09:48:13.001313 32487 net.cpp:408] conv4_3_norm_mbox_loc_flat -> conv4_3_norm_mbox_loc_flat
I0326 09:48:13.001536 32487 net.cpp:150] Setting up conv4_3_norm_mbox_loc_flat
I0326 09:48:13.001689 32487 net.cpp:157] Top shape: 32 23104 (739328)
I0326 09:48:13.001809 32487 net.cpp:165] Memory required for data: 7916380288
I0326 09:48:13.001917 32487 layer_factory.hpp:77] Creating layer conv4_3_norm_mbox_conf
I0326 09:48:13.002135 32487 net.cpp:100] Creating Layer conv4_3_norm_mbox_conf
I0326 09:48:13.002231 32487 net.cpp:434] conv4_3_norm_mbox_conf <- conv4_3_norm_conv4_3_norm_0_split_1
I0326 09:48:13.002342 32487 net.cpp:408] conv4_3_norm_mbox_conf -> conv4_3_norm_mbox_conf
I0326 09:48:13.007200 32487 net.cpp:150] Setting up conv4_3_norm_mbox_conf
I0326 09:48:13.015126 32487 net.cpp:157] Top shape: 32 44 38 38 (2033152)
I0326 09:48:13.015404 32487 net.cpp:165] Memory required for data: 7924512896
I0326 09:48:13.015519 32487 layer_factory.hpp:77] Creating layer conv4_3_norm_mbox_conf_perm
I0326 09:48:13.015640 32487 net.cpp:100] Creating Layer conv4_3_norm_mbox_conf_perm
I0326 09:48:13.015743 32487 net.cpp:434] conv4_3_norm_mbox_conf_perm <- conv4_3_norm_mbox_conf
I0326 09:48:13.015848 32487 net.cpp:408] conv4_3_norm_mbox_conf_perm -> conv4_3_norm_mbox_conf_perm
I0326 09:48:13.016196 32487 net.cpp:150] Setting up conv4_3_norm_mbox_conf_perm
I0326 09:48:13.016360 32487 net.cpp:157] Top shape: 32 38 38 44 (2033152)
I0326 09:48:13.016458 32487 net.cpp:165] Memory required for data: 7932645504
I0326 09:48:13.016556 32487 layer_factory.hpp:77] Creating layer conv4_3_norm_mbox_conf_flat
I0326 09:48:13.016675 32487 net.cpp:100] Creating Layer conv4_3_norm_mbox_conf_flat
I0326 09:48:13.016772 32487 net.cpp:434] conv4_3_norm_mbox_conf_flat <- conv4_3_norm_mbox_conf_perm
I0326 09:48:13.016873 32487 net.cpp:408] conv4_3_norm_mbox_conf_flat -> conv4_3_norm_mbox_conf_flat
I0326 09:48:13.017011 32487 net.cpp:150] Setting up conv4_3_norm_mbox_conf_flat
I0326 09:48:13.017128 32487 net.cpp:157] Top shape: 32 63536 (2033152)
I0326 09:48:13.017220 32487 net.cpp:165] Memory required for data: 7940778112
I0326 09:48:13.017316 32487 layer_factory.hpp:77] Creating layer conv4_3_norm_mbox_priorbox
I0326 09:48:13.017433 32487 net.cpp:100] Creating Layer conv4_3_norm_mbox_priorbox
I0326 09:48:13.017535 32487 net.cpp:434] conv4_3_norm_mbox_priorbox <- conv4_3_norm_conv4_3_norm_0_split_2
I0326 09:48:13.017647 32487 net.cpp:434] conv4_3_norm_mbox_priorbox <- data_data_0_split_1
I0326 09:48:13.017776 32487 net.cpp:408] conv4_3_norm_mbox_priorbox -> conv4_3_norm_mbox_priorbox
I0326 09:48:13.017933 32487 net.cpp:150] Setting up conv4_3_norm_mbox_priorbox
I0326 09:48:13.018048 32487 net.cpp:157] Top shape: 1 2 23104 (46208)
I0326 09:48:13.018141 32487 net.cpp:165] Memory required for data: 7940962944
I0326 09:48:13.018234 32487 layer_factory.hpp:77] Creating layer fc7_mbox_loc
I0326 09:48:13.018345 32487 net.cpp:100] Creating Layer fc7_mbox_loc
I0326 09:48:13.018437 32487 net.cpp:434] fc7_mbox_loc <- fc7_relu7_0_split_1
I0326 09:48:13.018540 32487 net.cpp:408] fc7_mbox_loc -> fc7_mbox_loc
I0326 09:48:13.024114 32487 net.cpp:150] Setting up fc7_mbox_loc
I0326 09:48:13.034024 32487 net.cpp:157] Top shape: 32 24 19 19 (277248)
I0326 09:48:13.034310 32487 net.cpp:165] Memory required for data: 7942071936
I0326 09:48:13.034493 32487 layer_factory.hpp:77] Creating layer fc7_mbox_loc_perm
I0326 09:48:13.034644 32487 net.cpp:100] Creating Layer fc7_mbox_loc_perm
I0326 09:48:13.034771 32487 net.cpp:434] fc7_mbox_loc_perm <- fc7_mbox_loc
I0326 09:48:13.034937 32487 net.cpp:408] fc7_mbox_loc_perm -> fc7_mbox_loc_perm
I0326 09:48:13.035408 32487 net.cpp:150] Setting up fc7_mbox_loc_perm
I0326 09:48:13.035655 32487 net.cpp:157] Top shape: 32 19 19 24 (277248)
I0326 09:48:13.035804 32487 net.cpp:165] Memory required for data: 7943180928
I0326 09:48:13.035946 32487 layer_factory.hpp:77] Creating layer fc7_mbox_loc_flat
I0326 09:48:13.036108 32487 net.cpp:100] Creating Layer fc7_mbox_loc_flat
I0326 09:48:13.036244 32487 net.cpp:434] fc7_mbox_loc_flat <- fc7_mbox_loc_perm
I0326 09:48:13.036401 32487 net.cpp:408] fc7_mbox_loc_flat -> fc7_mbox_loc_flat
I0326 09:48:13.036873 32487 net.cpp:150] Setting up fc7_mbox_loc_flat
I0326 09:48:13.037191 32487 net.cpp:157] Top shape: 32 8664 (277248)
I0326 09:48:13.037377 32487 net.cpp:165] Memory required for data: 7944289920
I0326 09:48:13.037530 32487 layer_factory.hpp:77] Creating layer fc7_mbox_conf
I0326 09:48:13.037708 32487 net.cpp:100] Creating Layer fc7_mbox_conf
I0326 09:48:13.037876 32487 net.cpp:434] fc7_mbox_conf <- fc7_relu7_0_split_2
I0326 09:48:13.038041 32487 net.cpp:408] fc7_mbox_conf -> fc7_mbox_conf
I0326 09:48:13.050601 32487 net.cpp:150] Setting up fc7_mbox_conf
I0326 09:48:13.065814 32487 net.cpp:157] Top shape: 32 66 19 19 (762432)
I0326 09:48:13.066254 32487 net.cpp:165] Memory required for data: 7947339648
I0326 09:48:13.066404 32487 layer_factory.hpp:77] Creating layer fc7_mbox_conf_perm
I0326 09:48:13.066527 32487 net.cpp:100] Creating Layer fc7_mbox_conf_perm
I0326 09:48:13.066635 32487 net.cpp:434] fc7_mbox_conf_perm <- fc7_mbox_conf
I0326 09:48:13.066794 32487 net.cpp:408] fc7_mbox_conf_perm -> fc7_mbox_conf_perm
I0326 09:48:13.067155 32487 net.cpp:150] Setting up fc7_mbox_conf_perm
I0326 09:48:13.067315 32487 net.cpp:157] Top shape: 32 19 19 66 (762432)
I0326 09:48:13.067420 32487 net.cpp:165] Memory required for data: 7950389376
I0326 09:48:13.067528 32487 layer_factory.hpp:77] Creating layer fc7_mbox_conf_flat
I0326 09:48:13.067638 32487 net.cpp:100] Creating Layer fc7_mbox_conf_flat
I0326 09:48:13.067737 32487 net.cpp:434] fc7_mbox_conf_flat <- fc7_mbox_conf_perm
I0326 09:48:13.067857 32487 net.cpp:408] fc7_mbox_conf_flat -> fc7_mbox_conf_flat
I0326 09:48:13.068068 32487 net.cpp:150] Setting up fc7_mbox_conf_flat
I0326 09:48:13.068222 32487 net.cpp:157] Top shape: 32 23826 (762432)
I0326 09:48:13.068320 32487 net.cpp:165] Memory required for data: 7953439104
I0326 09:48:13.068425 32487 layer_factory.hpp:77] Creating layer fc7_mbox_priorbox
I0326 09:48:13.068531 32487 net.cpp:100] Creating Layer fc7_mbox_priorbox
I0326 09:48:13.068629 32487 net.cpp:434] fc7_mbox_priorbox <- fc7_relu7_0_split_3
I0326 09:48:13.068855 32487 net.cpp:434] fc7_mbox_priorbox <- data_data_0_split_2
I0326 09:48:13.068982 32487 net.cpp:408] fc7_mbox_priorbox -> fc7_mbox_priorbox
I0326 09:48:13.069217 32487 net.cpp:150] Setting up fc7_mbox_priorbox
I0326 09:48:13.069347 32487 net.cpp:157] Top shape: 1 2 8664 (17328)
I0326 09:48:13.069453 32487 net.cpp:165] Memory required for data: 7953508416
I0326 09:48:13.069559 32487 layer_factory.hpp:77] Creating layer conv6_2_mbox_loc
I0326 09:48:13.069681 32487 net.cpp:100] Creating Layer conv6_2_mbox_loc
I0326 09:48:13.069829 32487 net.cpp:434] conv6_2_mbox_loc <- conv6_2_conv6_2_relu_0_split_1
I0326 09:48:13.070003 32487 net.cpp:408] conv6_2_mbox_loc -> conv6_2_mbox_loc
I0326 09:48:13.074998 32487 net.cpp:150] Setting up conv6_2_mbox_loc
I0326 09:48:13.075350 32487 net.cpp:157] Top shape: 32 24 10 10 (76800)
I0326 09:48:13.075469 32487 net.cpp:165] Memory required for data: 7953815616
I0326 09:48:13.075598 32487 layer_factory.hpp:77] Creating layer conv6_2_mbox_loc_perm
I0326 09:48:13.075721 32487 net.cpp:100] Creating Layer conv6_2_mbox_loc_perm
I0326 09:48:13.075830 32487 net.cpp:434] conv6_2_mbox_loc_perm <- conv6_2_mbox_loc
I0326 09:48:13.075950 32487 net.cpp:408] conv6_2_mbox_loc_perm -> conv6_2_mbox_loc_perm
I0326 09:48:13.076333 32487 net.cpp:150] Setting up conv6_2_mbox_loc_perm
I0326 09:48:13.076515 32487 net.cpp:157] Top shape: 32 10 10 24 (76800)
I0326 09:48:13.076625 32487 net.cpp:165] Memory required for data: 7954122816
I0326 09:48:13.076740 32487 layer_factory.hpp:77] Creating layer conv6_2_mbox_loc_flat
I0326 09:48:13.076858 32487 net.cpp:100] Creating Layer conv6_2_mbox_loc_flat
I0326 09:48:13.076964 32487 net.cpp:434] conv6_2_mbox_loc_flat <- conv6_2_mbox_loc_perm
I0326 09:48:13.077100 32487 net.cpp:408] conv6_2_mbox_loc_flat -> conv6_2_mbox_loc_flat
I0326 09:48:13.077344 32487 net.cpp:150] Setting up conv6_2_mbox_loc_flat
I0326 09:48:13.077481 32487 net.cpp:157] Top shape: 32 2400 (76800)
I0326 09:48:13.077594 32487 net.cpp:165] Memory required for data: 7954430016
I0326 09:48:13.077706 32487 layer_factory.hpp:77] Creating layer conv6_2_mbox_conf
I0326 09:48:13.077873 32487 net.cpp:100] Creating Layer conv6_2_mbox_conf
I0326 09:48:13.077982 32487 net.cpp:434] conv6_2_mbox_conf <- conv6_2_conv6_2_relu_0_split_2
I0326 09:48:13.078120 32487 net.cpp:408] conv6_2_mbox_conf -> conv6_2_mbox_conf
I0326 09:48:13.086035 32487 net.cpp:150] Setting up conv6_2_mbox_conf
I0326 09:48:13.091934 32487 net.cpp:157] Top shape: 32 66 10 10 (211200)
I0326 09:48:13.092259 32487 net.cpp:165] Memory required for data: 7955274816
I0326 09:48:13.092392 32487 layer_factory.hpp:77] Creating layer conv6_2_mbox_conf_perm
I0326 09:48:13.092517 32487 net.cpp:100] Creating Layer conv6_2_mbox_conf_perm
I0326 09:48:13.092624 32487 net.cpp:434] conv6_2_mbox_conf_perm <- conv6_2_mbox_conf
I0326 09:48:13.092749 32487 net.cpp:408] conv6_2_mbox_conf_perm -> conv6_2_mbox_conf_perm
I0326 09:48:13.106060 32487 net.cpp:150] Setting up conv6_2_mbox_conf_perm
I0326 09:48:13.106405 32487 net.cpp:157] Top shape: 32 10 10 66 (211200)
I0326 09:48:13.106524 32487 net.cpp:165] Memory required for data: 7956119616
I0326 09:48:13.106637 32487 layer_factory.hpp:77] Creating layer conv6_2_mbox_conf_flat
I0326 09:48:13.106760 32487 net.cpp:100] Creating Layer conv6_2_mbox_conf_flat
I0326 09:48:13.106866 32487 net.cpp:434] conv6_2_mbox_conf_flat <- conv6_2_mbox_conf_perm
I0326 09:48:13.106986 32487 net.cpp:408] conv6_2_mbox_conf_flat -> conv6_2_mbox_conf_flat
I0326 09:48:13.107172 32487 net.cpp:150] Setting up conv6_2_mbox_conf_flat
I0326 09:48:13.107303 32487 net.cpp:157] Top shape: 32 6600 (211200)
I0326 09:48:13.107409 32487 net.cpp:165] Memory required for data: 7956964416
I0326 09:48:13.107511 32487 layer_factory.hpp:77] Creating layer conv6_2_mbox_priorbox
I0326 09:48:13.107620 32487 net.cpp:100] Creating Layer conv6_2_mbox_priorbox
I0326 09:48:13.107720 32487 net.cpp:434] conv6_2_mbox_priorbox <- conv6_2_conv6_2_relu_0_split_3
I0326 09:48:13.107831 32487 net.cpp:434] conv6_2_mbox_priorbox <- data_data_0_split_3
I0326 09:48:13.107945 32487 net.cpp:408] conv6_2_mbox_priorbox -> conv6_2_mbox_priorbox
I0326 09:48:13.108111 32487 net.cpp:150] Setting up conv6_2_mbox_priorbox
I0326 09:48:13.108247 32487 net.cpp:157] Top shape: 1 2 2400 (4800)
I0326 09:48:13.108346 32487 net.cpp:165] Memory required for data: 7956983616
I0326 09:48:13.108448 32487 layer_factory.hpp:77] Creating layer conv7_2_mbox_loc
I0326 09:48:13.108572 32487 net.cpp:100] Creating Layer conv7_2_mbox_loc
I0326 09:48:13.108675 32487 net.cpp:434] conv7_2_mbox_loc <- conv7_2_conv7_2_relu_0_split_1
I0326 09:48:13.108786 32487 net.cpp:408] conv7_2_mbox_loc -> conv7_2_mbox_loc
I0326 09:48:13.112155 32487 net.cpp:150] Setting up conv7_2_mbox_loc
I0326 09:48:13.112481 32487 net.cpp:157] Top shape: 32 24 5 5 (19200)
I0326 09:48:13.112592 32487 net.cpp:165] Memory required for data: 7957060416
I0326 09:48:13.112705 32487 layer_factory.hpp:77] Creating layer conv7_2_mbox_loc_perm
I0326 09:48:13.112818 32487 net.cpp:100] Creating Layer conv7_2_mbox_loc_perm
I0326 09:48:13.112926 32487 net.cpp:434] conv7_2_mbox_loc_perm <- conv7_2_mbox_loc
I0326 09:48:13.113035 32487 net.cpp:408] conv7_2_mbox_loc_perm -> conv7_2_mbox_loc_perm
I0326 09:48:13.113320 32487 net.cpp:150] Setting up conv7_2_mbox_loc_perm
I0326 09:48:13.113484 32487 net.cpp:157] Top shape: 32 5 5 24 (19200)
I0326 09:48:13.113587 32487 net.cpp:165] Memory required for data: 7957137216
I0326 09:48:13.113693 32487 layer_factory.hpp:77] Creating layer conv7_2_mbox_loc_flat
I0326 09:48:13.113819 32487 net.cpp:100] Creating Layer conv7_2_mbox_loc_flat
I0326 09:48:13.113920 32487 net.cpp:434] conv7_2_mbox_loc_flat <- conv7_2_mbox_loc_perm
I0326 09:48:13.114029 32487 net.cpp:408] conv7_2_mbox_loc_flat -> conv7_2_mbox_loc_flat
I0326 09:48:13.114178 32487 net.cpp:150] Setting up conv7_2_mbox_loc_flat
I0326 09:48:13.114279 32487 net.cpp:157] Top shape: 32 600 (19200)
I0326 09:48:13.114377 32487 net.cpp:165] Memory required for data: 7957214016
I0326 09:48:13.114477 32487 layer_factory.hpp:77] Creating layer conv7_2_mbox_conf
I0326 09:48:13.114590 32487 net.cpp:100] Creating Layer conv7_2_mbox_conf
I0326 09:48:13.114688 32487 net.cpp:434] conv7_2_mbox_conf <- conv7_2_conv7_2_relu_0_split_2
I0326 09:48:13.114800 32487 net.cpp:408] conv7_2_mbox_conf -> conv7_2_mbox_conf
I0326 09:48:13.118360 32487 net.cpp:150] Setting up conv7_2_mbox_conf
I0326 09:48:13.118646 32487 net.cpp:157] Top shape: 32 66 5 5 (52800)
I0326 09:48:13.118750 32487 net.cpp:165] Memory required for data: 7957425216
I0326 09:48:13.118863 32487 layer_factory.hpp:77] Creating layer conv7_2_mbox_conf_perm
I0326 09:48:13.118973 32487 net.cpp:100] Creating Layer conv7_2_mbox_conf_perm
I0326 09:48:13.119076 32487 net.cpp:434] conv7_2_mbox_conf_perm <- conv7_2_mbox_conf
I0326 09:48:13.119186 32487 net.cpp:408] conv7_2_mbox_conf_perm -> conv7_2_mbox_conf_perm
I0326 09:48:13.119453 32487 net.cpp:150] Setting up conv7_2_mbox_conf_perm
I0326 09:48:13.119614 32487 net.cpp:157] Top shape: 32 5 5 66 (52800)
I0326 09:48:13.119709 32487 net.cpp:165] Memory required for data: 7957636416
I0326 09:48:13.119812 32487 layer_factory.hpp:77] Creating layer conv7_2_mbox_conf_flat
I0326 09:48:13.119921 32487 net.cpp:100] Creating Layer conv7_2_mbox_conf_flat
I0326 09:48:13.120023 32487 net.cpp:434] conv7_2_mbox_conf_flat <- conv7_2_mbox_conf_perm
I0326 09:48:13.120134 32487 net.cpp:408] conv7_2_mbox_conf_flat -> conv7_2_mbox_conf_flat
I0326 09:48:13.120293 32487 net.cpp:150] Setting up conv7_2_mbox_conf_flat
I0326 09:48:13.120406 32487 net.cpp:157] Top shape: 32 1650 (52800)
I0326 09:48:13.120507 32487 net.cpp:165] Memory required for data: 7957847616
I0326 09:48:13.120606 32487 layer_factory.hpp:77] Creating layer conv7_2_mbox_priorbox
I0326 09:48:13.120723 32487 net.cpp:100] Creating Layer conv7_2_mbox_priorbox
I0326 09:48:13.120820 32487 net.cpp:434] conv7_2_mbox_priorbox <- conv7_2_conv7_2_relu_0_split_3
I0326 09:48:13.120923 32487 net.cpp:434] conv7_2_mbox_priorbox <- data_data_0_split_4
I0326 09:48:13.121033 32487 net.cpp:408] conv7_2_mbox_priorbox -> conv7_2_mbox_priorbox
I0326 09:48:13.121201 32487 net.cpp:150] Setting up conv7_2_mbox_priorbox
I0326 09:48:13.121317 32487 net.cpp:157] Top shape: 1 2 600 (1200)
I0326 09:48:13.121440 32487 net.cpp:165] Memory required for data: 7957852416
I0326 09:48:13.121538 32487 layer_factory.hpp:77] Creating layer conv8_2_mbox_loc
I0326 09:48:13.121657 32487 net.cpp:100] Creating Layer conv8_2_mbox_loc
I0326 09:48:13.121774 32487 net.cpp:434] conv8_2_mbox_loc <- conv8_2_conv8_2_relu_0_split_1
I0326 09:48:13.121886 32487 net.cpp:408] conv8_2_mbox_loc -> conv8_2_mbox_loc
I0326 09:48:13.124377 32487 net.cpp:150] Setting up conv8_2_mbox_loc
I0326 09:48:13.124629 32487 net.cpp:157] Top shape: 32 16 3 3 (4608)
I0326 09:48:13.124729 32487 net.cpp:165] Memory required for data: 7957870848
I0326 09:48:13.124862 32487 layer_factory.hpp:77] Creating layer conv8_2_mbox_loc_perm
I0326 09:48:13.124969 32487 net.cpp:100] Creating Layer conv8_2_mbox_loc_perm
I0326 09:48:13.125068 32487 net.cpp:434] conv8_2_mbox_loc_perm <- conv8_2_mbox_loc
I0326 09:48:13.125180 32487 net.cpp:408] conv8_2_mbox_loc_perm -> conv8_2_mbox_loc_perm
I0326 09:48:13.125459 32487 net.cpp:150] Setting up conv8_2_mbox_loc_perm
I0326 09:48:13.125617 32487 net.cpp:157] Top shape: 32 3 3 16 (4608)
I0326 09:48:13.125715 32487 net.cpp:165] Memory required for data: 7957889280
I0326 09:48:13.125844 32487 layer_factory.hpp:77] Creating layer conv8_2_mbox_loc_flat
I0326 09:48:13.125953 32487 net.cpp:100] Creating Layer conv8_2_mbox_loc_flat
I0326 09:48:13.126056 32487 net.cpp:434] conv8_2_mbox_loc_flat <- conv8_2_mbox_loc_perm
I0326 09:48:13.126160 32487 net.cpp:408] conv8_2_mbox_loc_flat -> conv8_2_mbox_loc_flat
I0326 09:48:13.126307 32487 net.cpp:150] Setting up conv8_2_mbox_loc_flat
I0326 09:48:13.126410 32487 net.cpp:157] Top shape: 32 144 (4608)
I0326 09:48:13.126505 32487 net.cpp:165] Memory required for data: 7957907712
I0326 09:48:13.126605 32487 layer_factory.hpp:77] Creating layer conv8_2_mbox_conf
I0326 09:48:13.126734 32487 net.cpp:100] Creating Layer conv8_2_mbox_conf
I0326 09:48:13.126834 32487 net.cpp:434] conv8_2_mbox_conf <- conv8_2_conv8_2_relu_0_split_2
I0326 09:48:13.126942 32487 net.cpp:408] conv8_2_mbox_conf -> conv8_2_mbox_conf
I0326 09:48:13.130633 32487 net.cpp:150] Setting up conv8_2_mbox_conf
I0326 09:48:13.145784 32487 net.cpp:157] Top shape: 32 44 3 3 (12672)
I0326 09:48:13.146100 32487 net.cpp:165] Memory required for data: 7957958400
I0326 09:48:13.146225 32487 layer_factory.hpp:77] Creating layer conv8_2_mbox_conf_perm
I0326 09:48:13.146355 32487 net.cpp:100] Creating Layer conv8_2_mbox_conf_perm
I0326 09:48:13.146464 32487 net.cpp:434] conv8_2_mbox_conf_perm <- conv8_2_mbox_conf
I0326 09:48:13.146579 32487 net.cpp:408] conv8_2_mbox_conf_perm -> conv8_2_mbox_conf_perm
I0326 09:48:13.146950 32487 net.cpp:150] Setting up conv8_2_mbox_conf_perm
I0326 09:48:13.147115 32487 net.cpp:157] Top shape: 32 3 3 44 (12672)
I0326 09:48:13.147218 32487 net.cpp:165] Memory required for data: 7958009088
I0326 09:48:13.147325 32487 layer_factory.hpp:77] Creating layer conv8_2_mbox_conf_flat
I0326 09:48:13.147436 32487 net.cpp:100] Creating Layer conv8_2_mbox_conf_flat
I0326 09:48:13.147541 32487 net.cpp:434] conv8_2_mbox_conf_flat <- conv8_2_mbox_conf_perm
I0326 09:48:13.147650 32487 net.cpp:408] conv8_2_mbox_conf_flat -> conv8_2_mbox_conf_flat
I0326 09:48:13.147802 32487 net.cpp:150] Setting up conv8_2_mbox_conf_flat
I0326 09:48:13.147908 32487 net.cpp:157] Top shape: 32 396 (12672)
I0326 09:48:13.148015 32487 net.cpp:165] Memory required for data: 7958059776
I0326 09:48:13.148118 32487 layer_factory.hpp:77] Creating layer conv8_2_mbox_priorbox
I0326 09:48:13.148231 32487 net.cpp:100] Creating Layer conv8_2_mbox_priorbox
I0326 09:48:13.148334 32487 net.cpp:434] conv8_2_mbox_priorbox <- conv8_2_conv8_2_relu_0_split_3
I0326 09:48:13.148442 32487 net.cpp:434] conv8_2_mbox_priorbox <- data_data_0_split_5
I0326 09:48:13.148555 32487 net.cpp:408] conv8_2_mbox_priorbox -> conv8_2_mbox_priorbox
I0326 09:48:13.148707 32487 net.cpp:150] Setting up conv8_2_mbox_priorbox
I0326 09:48:13.148813 32487 net.cpp:157] Top shape: 1 2 144 (288)
I0326 09:48:13.148916 32487 net.cpp:165] Memory required for data: 7958060928
I0326 09:48:13.149034 32487 layer_factory.hpp:77] Creating layer conv9_2_mbox_loc
I0326 09:48:13.149173 32487 net.cpp:100] Creating Layer conv9_2_mbox_loc
I0326 09:48:13.149288 32487 net.cpp:434] conv9_2_mbox_loc <- conv9_2_conv9_2_relu_0_split_0
I0326 09:48:13.149408 32487 net.cpp:408] conv9_2_mbox_loc -> conv9_2_mbox_loc
I0326 09:48:13.151962 32487 net.cpp:150] Setting up conv9_2_mbox_loc
I0326 09:48:13.152196 32487 net.cpp:157] Top shape: 32 16 1 1 (512)
I0326 09:48:13.152303 32487 net.cpp:165] Memory required for data: 7958062976
I0326 09:48:13.152417 32487 layer_factory.hpp:77] Creating layer conv9_2_mbox_loc_perm
I0326 09:48:13.152528 32487 net.cpp:100] Creating Layer conv9_2_mbox_loc_perm
I0326 09:48:13.152626 32487 net.cpp:434] conv9_2_mbox_loc_perm <- conv9_2_mbox_loc
I0326 09:48:13.152736 32487 net.cpp:408] conv9_2_mbox_loc_perm -> conv9_2_mbox_loc_perm
I0326 09:48:13.153010 32487 net.cpp:150] Setting up conv9_2_mbox_loc_perm
I0326 09:48:13.153163 32487 net.cpp:157] Top shape: 32 1 1 16 (512)
I0326 09:48:13.153260 32487 net.cpp:165] Memory required for data: 7958065024
I0326 09:48:13.153386 32487 layer_factory.hpp:77] Creating layer conv9_2_mbox_loc_flat
I0326 09:48:13.153492 32487 net.cpp:100] Creating Layer conv9_2_mbox_loc_flat
I0326 09:48:13.153592 32487 net.cpp:434] conv9_2_mbox_loc_flat <- conv9_2_mbox_loc_perm
I0326 09:48:13.153697 32487 net.cpp:408] conv9_2_mbox_loc_flat -> conv9_2_mbox_loc_flat
I0326 09:48:13.153877 32487 net.cpp:150] Setting up conv9_2_mbox_loc_flat
I0326 09:48:13.153981 32487 net.cpp:157] Top shape: 32 16 (512)
I0326 09:48:13.154093 32487 net.cpp:165] Memory required for data: 7958067072
I0326 09:48:13.154206 32487 layer_factory.hpp:77] Creating layer conv9_2_mbox_conf
I0326 09:48:13.154340 32487 net.cpp:100] Creating Layer conv9_2_mbox_conf
I0326 09:48:13.154454 32487 net.cpp:434] conv9_2_mbox_conf <- conv9_2_conv9_2_relu_0_split_1
I0326 09:48:13.154579 32487 net.cpp:408] conv9_2_mbox_conf -> conv9_2_mbox_conf
I0326 09:48:13.158725 32487 net.cpp:150] Setting up conv9_2_mbox_conf
I0326 09:48:13.159030 32487 net.cpp:157] Top shape: 32 44 1 1 (1408)
I0326 09:48:13.159142 32487 net.cpp:165] Memory required for data: 7958072704
I0326 09:48:13.159256 32487 layer_factory.hpp:77] Creating layer conv9_2_mbox_conf_perm
I0326 09:48:13.159366 32487 net.cpp:100] Creating Layer conv9_2_mbox_conf_perm
I0326 09:48:13.159466 32487 net.cpp:434] conv9_2_mbox_conf_perm <- conv9_2_mbox_conf
I0326 09:48:13.159580 32487 net.cpp:408] conv9_2_mbox_conf_perm -> conv9_2_mbox_conf_perm
I0326 09:48:13.159862 32487 net.cpp:150] Setting up conv9_2_mbox_conf_perm
I0326 09:48:13.160008 32487 net.cpp:157] Top shape: 32 1 1 44 (1408)
I0326 09:48:13.160107 32487 net.cpp:165] Memory required for data: 7958078336
I0326 09:48:13.160209 32487 layer_factory.hpp:77] Creating layer conv9_2_mbox_conf_flat
I0326 09:48:13.160316 32487 net.cpp:100] Creating Layer conv9_2_mbox_conf_flat
I0326 09:48:13.160423 32487 net.cpp:434] conv9_2_mbox_conf_flat <- conv9_2_mbox_conf_perm
I0326 09:48:13.160534 32487 net.cpp:408] conv9_2_mbox_conf_flat -> conv9_2_mbox_conf_flat
I0326 09:48:13.160696 32487 net.cpp:150] Setting up conv9_2_mbox_conf_flat
I0326 09:48:13.160817 32487 net.cpp:157] Top shape: 32 44 (1408)
I0326 09:48:13.160919 32487 net.cpp:165] Memory required for data: 7958083968
I0326 09:48:13.161020 32487 layer_factory.hpp:77] Creating layer conv9_2_mbox_priorbox
I0326 09:48:13.161134 32487 net.cpp:100] Creating Layer conv9_2_mbox_priorbox
I0326 09:48:13.161240 32487 net.cpp:434] conv9_2_mbox_priorbox <- conv9_2_conv9_2_relu_0_split_2
I0326 09:48:13.161350 32487 net.cpp:434] conv9_2_mbox_priorbox <- data_data_0_split_6
I0326 09:48:13.161464 32487 net.cpp:408] conv9_2_mbox_priorbox -> conv9_2_mbox_priorbox
I0326 09:48:13.161629 32487 net.cpp:150] Setting up conv9_2_mbox_priorbox
I0326 09:48:13.161774 32487 net.cpp:157] Top shape: 1 2 16 (32)
I0326 09:48:13.161876 32487 net.cpp:165] Memory required for data: 7958084096
I0326 09:48:13.161980 32487 layer_factory.hpp:77] Creating layer mbox_loc
I0326 09:48:13.162106 32487 net.cpp:100] Creating Layer mbox_loc
I0326 09:48:13.162220 32487 net.cpp:434] mbox_loc <- conv4_3_norm_mbox_loc_flat
I0326 09:48:13.162328 32487 net.cpp:434] mbox_loc <- fc7_mbox_loc_flat
I0326 09:48:13.162436 32487 net.cpp:434] mbox_loc <- conv6_2_mbox_loc_flat
I0326 09:48:13.162539 32487 net.cpp:434] mbox_loc <- conv7_2_mbox_loc_flat
I0326 09:48:13.162641 32487 net.cpp:434] mbox_loc <- conv8_2_mbox_loc_flat
I0326 09:48:13.162744 32487 net.cpp:434] mbox_loc <- conv9_2_mbox_loc_flat
I0326 09:48:13.162856 32487 net.cpp:408] mbox_loc -> mbox_loc
I0326 09:48:13.163017 32487 net.cpp:150] Setting up mbox_loc
I0326 09:48:13.163123 32487 net.cpp:157] Top shape: 32 34928 (1117696)
I0326 09:48:13.163224 32487 net.cpp:165] Memory required for data: 7962554880
I0326 09:48:13.163326 32487 layer_factory.hpp:77] Creating layer mbox_conf
I0326 09:48:13.163435 32487 net.cpp:100] Creating Layer mbox_conf
I0326 09:48:13.163535 32487 net.cpp:434] mbox_conf <- conv4_3_norm_mbox_conf_flat
I0326 09:48:13.163641 32487 net.cpp:434] mbox_conf <- fc7_mbox_conf_flat
I0326 09:48:13.163746 32487 net.cpp:434] mbox_conf <- conv6_2_mbox_conf_flat
I0326 09:48:13.163851 32487 net.cpp:434] mbox_conf <- conv7_2_mbox_conf_flat
I0326 09:48:13.163955 32487 net.cpp:434] mbox_conf <- conv8_2_mbox_conf_flat
I0326 09:48:13.164058 32487 net.cpp:434] mbox_conf <- conv9_2_mbox_conf_flat
I0326 09:48:13.164165 32487 net.cpp:408] mbox_conf -> mbox_conf
I0326 09:48:13.164310 32487 net.cpp:150] Setting up mbox_conf
I0326 09:48:13.164414 32487 net.cpp:157] Top shape: 32 96052 (3073664)
I0326 09:48:13.164513 32487 net.cpp:165] Memory required for data: 7974849536
I0326 09:48:13.164618 32487 layer_factory.hpp:77] Creating layer mbox_priorbox
I0326 09:48:13.164721 32487 net.cpp:100] Creating Layer mbox_priorbox
I0326 09:48:13.164821 32487 net.cpp:434] mbox_priorbox <- conv4_3_norm_mbox_priorbox
I0326 09:48:13.164927 32487 net.cpp:434] mbox_priorbox <- fc7_mbox_priorbox
I0326 09:48:13.165031 32487 net.cpp:434] mbox_priorbox <- conv6_2_mbox_priorbox
I0326 09:48:13.165135 32487 net.cpp:434] mbox_priorbox <- conv7_2_mbox_priorbox
I0326 09:48:13.165237 32487 net.cpp:434] mbox_priorbox <- conv8_2_mbox_priorbox
I0326 09:48:13.165341 32487 net.cpp:434] mbox_priorbox <- conv9_2_mbox_priorbox
I0326 09:48:13.165453 32487 net.cpp:408] mbox_priorbox -> mbox_priorbox
I0326 09:48:13.165601 32487 net.cpp:150] Setting up mbox_priorbox
I0326 09:48:13.165702 32487 net.cpp:157] Top shape: 1 2 34928 (69856)
I0326 09:48:13.165820 32487 net.cpp:165] Memory required for data: 7975128960
I0326 09:48:13.165925 32487 layer_factory.hpp:77] Creating layer mbox_loss
I0326 09:48:13.166039 32487 net.cpp:100] Creating Layer mbox_loss
I0326 09:48:13.166157 32487 net.cpp:434] mbox_loss <- mbox_loc
I0326 09:48:13.166285 32487 net.cpp:434] mbox_loss <- mbox_conf
I0326 09:48:13.166390 32487 net.cpp:434] mbox_loss <- mbox_priorbox
…
  phase: TEST
}
layer {
  name: "data"
  type: "AnnotatedData"
  top: "data"
  top: "label"
  include {
    phase: TEST
  }
  transform_param {
    mean_value: 104
    mean_value: 117
    mean_value: 123
    resize_param {
      prob: 1
      resize_mode: WARP
      height: 300
      width: 300
      interp_mode: LINEAR
    }
  }
  data_param {
    source: "examples/NWPU_VHR/NWPU_VHR_test_lmdb"
    batch_size: 1
    backend: LMDB
  }
  annotated_data_param {
    batch_sampler {
    }
    label_map_file: "data/NWPU_VHR/labelmap_NWPU_VHR.prototxt"
  }
}
layer {
  name: "conv1_1"
  type: "Convolution"
  bottom: "data"
  top: "conv1_1"
  param {
    lr_mult: 1
    decay_mult: 1
  }
  param {
    lr_mult: 2
    decay_mult: 0
  }
  convolution_param {
    num_output: 64
    pad: 1
    kernel_size: 3
    weight_filler {
      type: "xavier"
    }
    bias_filler {
      type: "constant"
      value: 0
    }
  }
}
layer {
  name: "relu1_1"
  type: "ReLU"
  bottom: "conv1_1"
  top: "conv1_1"
}
layer {
  name: "conv1_2"
  type: "Convolution"
  bottom: "conv1_1"
  top: "conv1_2"
  param {
    lr_mult: 1
    decay_mult: 1
  }
  param {
    lr_mult: 2
    decay_mult: 0
  }
  convolution_param {
    num_output: 64
    pad: 1
    kernel_size: 3
    weight_filler {
      type: "xavier"
    }
    bias_filler {
      type: "constant"
      value: 0
    }
  }
}
layer {
  name: "relu1_2"
  type: "ReLU"
  bottom: "conv1_2"
  top: "conv1_2"
}
layer {
  name: "pool1"
  type: "Pooling"
  bottom: "conv1_2"
  top: "pool1"
  pooling_param {
    pool: MAX
    kernel_size: 2
    stride: 2
  }
}
layer {
  name: "conv2_1"
  type: "Convolution"
  bottom: "pool1"
  top: "conv2_1"
  param {
    lr_mult: 1
    decay_mult: 1
  }
  param {
    lr_mult: 2
    decay_mult: 0
  }
  convolution_param {
    num_output: 128
    pad: 1
    kernel_size: 3
    weight_filler {
      type: "xavier"
    }
    bias_filler {
      type: "constant"
      value: 0
    }
  }
}
layer {
  name: "relu2_1"
  type: "ReLU"
  bottom: "conv2_1"
  top: "conv2_1"
}
layer {
  name: "conv2_2"
  type: "Convolution"
  bottom: "conv2_1"
  top: "conv2_2"
  param {
    lr_mult: 1
    decay_mult: 1
  }
  param {
    lr_mult: 2
    decay_mult: 0
  }
  convolution_param {
    num_output: 128
    pad: 1
    kernel_size: 3
    weight_filler {
      type: "xavier"
    }
    bias_filler {
      type: "constant"
      value: 0
    }
  }
}
layer {
  name: "relu2_2"
  type: "ReLU"
  bottom: "conv2_2"
  top: "conv2_2"
}
layer {
  name: "pool2"
  type: "Pooling"
  bottom: "conv2_2"
  top: "pool2"
  pooling_param {
    pool: MAX
    kernel_size: 2
    stride: 2
  }
}
layer {
  name: "conv3_1"
  type: "Convolution"
  bottom: "pool2"
  top: "conv3_1"
  param {
    lr_mult: 1
    decay_mult: 1
  }
  param {
    lr_mult: 2
    decay_mult: 0
  }
  convolution_param {
    num_output: 256
    pad: 1
    kernel_size: 3
    weight_filler {
      type: "xavier"
    }
    bias_filler {
      type: "constant"
      value: 0
    }
  }
}
layer {
  name: "relu3_1"
  type: "ReLU"
  bottom: "conv3_1"
  top: "conv3_1"
}
layer {
  name: "conv3_2"
  type: "Convolution"
  bottom: "conv3_1"
  top: "conv3_2"
  param {
    lr_mult: 1
    decay_mult: 1
  }
  param {
    lr_mult: 2
    decay_mult: 0
  }
  convolution_param {
    num_output: 256
    pad: 1
    kernel_size: 3
    weight_filler {
      type: "xavier"
    }
    bias_filler {
      type: "constant"
      value: 0
    }
  }
}
layer {
  name: "relu3_2"
  type: "ReLU"
  bottom: "conv3_2"
  top: "conv3_2"
}
layer {
  name: "conv3_3"
  type: "Convolution"
  bottom: "conv3_2"
  top: "conv3_3"
  param {
    lr_mult: 1
    decay_mult: 1
  }
  param {
    lr_mult: 2
    decay_mult: 0
  }
  convolution_param {
    num_output: 256
    pad: 1
    kernel_size: 3
    weight_filler {
      type: "xavier"
    }
    bias_filler {
      type: "constant"
      value: 0
    }
  }
}
layer {
  name: "relu3_3"
  type: "ReLU"
  bottom: "conv3_3"
  top: "conv3_3"
}
layer {
  name: "pool3"
  type: "Pooling"
  bottom: "conv3_3"
  top: "pool3"
  pooling_param {
    pool: MAX
    kernel_size: 2
    stride: 2
  }
}
layer {
  name: "conv4_1"
  type: "Convolution"
  bottom: "pool3"
  top: "conv4_1"
  param {
    lr_mult: 1
    decay_mult: 1
  }
  param {
    lr_mult: 2
    decay_mult: 0
  }
  convolution_param {
    num_output: 512
    pad: 1
    kernel_size: 3
    weight_filler {
      type: "xavier"
    }
    bias_filler {
      type: "constant"
      value: 0
    }
  }
}
layer {
  name: "relu4_1"
  type: "ReLU"
  bottom: "conv4_1"
  top: "conv4_1"
}
layer {
  name: "conv4_2"
  type: "Convolution"
  bottom: "conv4_1"
  top: "conv4_2"
  param {
    lr_mult: 1
    decay_mult: 1
  }
  param {
    lr_mult: 2
    decay_mult: 0
  }
  convolution_param {
    num_output: 512
    pad: 1
    kernel_size: 3
    weight_filler {
      type: "xavier"
    }
    bias_filler {
      type: "constant"
      value: 0
    }
  }
}
layer {
  name: "relu4_2"
  type: "ReLU"
  bottom: "conv4_2"
  top: "conv4_2"
}
layer {
  name: "conv4_3"
  type: "Convolution"
  bottom: "conv4_2"
  top: "conv4_3"
  param {
    lr_mult: 1
    decay_mult: 1
  }
  param {
    lr_mult: 2
    decay_mult: 0
  }
  convolution_param {
    num_output: 512
    pad: 1
    kernel_size: 3
    weight_filler {
      type: "xavier"
    }
    bias_filler {
      type: "constant"
      value: 0
    }
  }
}
layer {
  name: "relu4_3"
  type: "ReLU"
  bottom: "conv4_3"
  top: "conv4_3"
}
layer {
  name: "pool4"
  type: "Pooling"
  bottom: "conv4_3"
  top: "pool4"
  pooling_param {
    pool: MAX
    kernel_size: 2
    stride: 2
  }
}
layer {
  name: "conv5_1"
  type: "Convolution"
  bottom: "pool4"
  top: "conv5_1"
  param {
    lr_mult: 1
    decay_mult: 1
  }
  param {
    lr_mult: 2
    decay_mult: 0
  }
  convolution_param {
    num_output: 512
    pad: 1
    kernel_size: 3
    weight_filler {
      type: "xavier"
    }
    bias_filler {
      type: "constant"
      value: 0
    }
    dilation: 1
  }
}
layer {
  name: "relu5_1"
  type: "ReLU"
  bottom: "conv5_1"
  top: "conv5_1"
}
layer {
  name: "conv5_2"
  type: "Convolution"
  bottom: "conv5_1"
  top: "conv5_2"
  param {
    lr_mult: 1
    decay_mult: 1
  }
  param {
    lr_mult: 2
    decay_mult: 0
  }
  convolution_param {
    num_output: 512
    pad: 1
    kernel_size: 3
    weight_filler {
      type: "xavier"
    }
    bias_filler {
      type: "constant"
      value: 0
    }
    dilation: 1
  }
}
layer {
  name: "relu5_2"
  type: "ReLU"
  bottom: "conv5_2"
  top: "conv5_2"
}
layer {
  name: "conv5_3"
  type: "Convolution"
  bottom: "conv5_2"
  top: "conv5_3"
  param {
    lr_mult: 1
    decay_mult: 1
  }
  param {
    lr_mult: 2
    decay_mult: 0
  }
  convolution_param {
    num_output: 512
    pad: 1
    kernel_size: 3
    weight_filler {
      type: "xavier"
    }
    bias_filler {
      type: "constant"
      value: 0
    }
    dilation: 1
  }
}
layer {
  name: "relu5_3"
  type: "ReLU"
  bottom: "conv5_3"
  top: "conv5_3"
}
layer {
  name: "pool5"
  type: "Pooling"
  bottom: "conv5_3"
  top: "pool5"
  pooling_param {
    pool: MAX
    kernel_size: 3
    stride: 1
    pad: 1
  }
}
layer {
  name: "fc6"
  type: "Convolution"
  bottom: "pool5"
  top: "fc6"
  param {
    lr_mult: 1
    decay_mult: 1
  }
  param {
    lr_mult: 2
    decay_mult: 0
  }
  convolution_param {
    num_output: 1024
    pad: 6
    kernel_size: 3
    weight_filler {
      type: "xavier"
    }
    bias_filler {
      type: "constant"
      value: 0
    }
    dilation: 6
  }
}
layer {
  name: "relu6"
  type: "ReLU"
  bottom: "fc6"
  top: "fc6"
}
layer {
  name: "fc7"
  type: "Convolution"
  bottom: "fc6"
  top: "fc7"
  param {
    lr_mult: 1
    decay_mult: 1
  }
  param {
    lr_mult: 2
    decay_mult: 0
  }
  convolution_param {
    num_output: 1024
    kernel_size: 1
    weight_filler {
      type: "xavier"
    }
    bias_filler {
      type: "constant"
      value: 0
    }
  }
}
layer {
  name: "relu7"
  type: "ReLU"
  bottom: "fc7"
  top: "fc7"
}
layer {
  name: "conv6_1"
  type: "Convolution"
  bottom: "fc7"
  top: "conv6_1"
  param {
    lr_mult: 1
    decay_mult: 1
  }
  param {
    lr_mult: 2
    decay_mult: 0
  }
  convolution_param {
    num_output: 256
    pad: 0
    kernel_size: 1
    stride: 1
    weight_filler {
      type: "xavier"
    }
    bias_filler {
      type: "constant"
      value: 0
    }
  }
}
layer {
  name: "conv6_1_relu"
  type: "ReLU"
  bottom: "conv6_1"
  top: "conv6_1"
}
layer {
  name: "conv6_2"
  type: "Convolution"
  bottom: "conv6_1"
  top: "conv6_2"
  param {
    lr_mult: 1
    decay_mult: 1
  }
  param {
    lr_mult: 2
    decay_mult: 0
  }
  convolution_param {
    num_output: 512
    pad: 1
    kernel_size: 3
    stride: 2
    weight_filler {
      type: "xavier"
    }
    bias_filler {
      type: "constant"
      value: 0
    }
  }
}
layer {
  name: "conv6_2_relu"
  type: "ReLU"
  bottom: "conv6_2"
  top: "conv6_2"
}
layer {
  name: "conv7_1"
  type: "Convolution"
  bottom: "conv6_2"
  top: "conv7_1"
  param {
    lr_mult: 1
    decay_mult: 1
  }
  param {
    lr_mult: 2
    decay_mult: 0
  }
  convolution_param {
    num_output: 128
    pad: 0
    kernel_size: 1
    stride: 1
    weight_filler {
      type: "xavier"
    }
    bias_filler {
      type: "constant"
      value: 0
    }
  }
}
layer {
  name: "conv7_1_relu"
  type: "ReLU"
  bottom: "conv7_1"
  top: "conv7_1"
}
layer {
  name: "conv7_2"
  type: "Convolution"
  bottom: "conv7_1"
  top: "conv7_2"
  param {
    lr_mult: 1
    decay_mult: 1
  }
  param {
    lr_mult: 2
    decay_mult: 0
  }
  convolution_param {
    num_output: 256
    pad: 1
    kernel_size: 3
    stride: 2
    weight_filler {
      type: "xavier"
    }
    bias_filler {
      type: "constant"
      value: 0
    }
  }
}
layer {
  name: "conv7_2_relu"
  type: "ReLU"
  bottom: "conv7_2"
  top: "conv7_2"
}
layer {
  name: "conv8_1"
  type: "Convolution"
  bottom: "conv7_2"
  top: "conv8_1"
  param {
    lr_mult: 1
    decay_mult: 1
  }
  param {
    lr_mult: 2
    decay_mult: 0
  }
  convolution_param {
    num_output: 128
    pad: 0
    kernel_size: 1
    stride: 1
    weight_filler {
      type: "xavier"
    }
    bias_filler {
      type: "constant"
      value: 0
    }
  }
}
layer {
  name: "conv8_1_relu"
  type: "ReLU"
  bottom: "conv8_1"
  top: "conv8_1"
}
layer {
  name: "conv8_2"
  type: "Convolution"
  bottom: "conv8_1"
  top: "conv8_2"
  param {
    lr_mult: 1
    decay_mult: 1
  }
  param {
    lr_mult: 2
    decay_mult: 0
  }
  convolution_param {
    num_output: 256
    pad: 0
    kernel_size: 3
    stride: 1
    weight_filler {
      type: "xavier"
    }
    bias_filler {
      type: "constant"
      value: 0
    }
  }
}
layer {
  name: "conv8_2_relu"
  type: "ReLU"
  bottom: "conv8_2"
  top: "conv8_2"
}
layer {
  name: "conv9_1"
  type: "Convolution"
  bottom: "conv8_2"
  top: "conv9_1"
  param {
    lr_mult: 1
    decay_mult: 1
  }
  param {
    lr_mult: 2
    decay_mult: 0
  }
  convolution_param {
    num_output: 128
    pad: 0
    kernel_size: 1
    stride: 1
    weight_filler {
      type: "xavier"
    }
    bias_filler {
      type: "constant"
      value: 0
    }
  }
}
layer {
  name: "conv9_1_relu"
  type: "ReLU"
  bottom: "conv9_1"
  top: "conv9_1"
}
layer {
  name: "conv9_2"
  type: "Convolution"
  bottom: "conv9_1"
  top: "conv9_2"
  param {
    lr_mult: 1
    decay_mult: 1
  }
  param {
    lr_mult: 2
    decay_mult: 0
  }
  convolution_param {
    num_output: 256
    pad: 0
    kernel_size: 3
    stride: 1
    weight_filler {
      type: "xavier"
    }
    bias_filler {
      type: "constant"
      value: 0
    }
  }
}
layer {
  name: "conv9_2_relu"
  type: "ReLU"
  bottom: "conv9_2"
  top: "conv9_2"
}
layer {
  name: "conv4_3_norm"
  type: "Normalize"
  bottom: "conv4_3"
  top: "conv4_3_norm"
  norm_param {
    across_spatial: false
    scale_filler {
      type: "constant"
      value: 20
    }
    channel_shared: false
  }
}
layer {
  name: "conv4_3_norm_mbox_loc"
  type: "Convolution"
  bottom: "conv4_3_norm"
  top: "conv4_3_norm_mbox_loc"
  param {
    lr_mult: 1
    decay_mult: 1
  }
  param {
    lr_mult: 2
    decay_mult: 0
  }
  convolution_param {
    num_output: 16
    pad: 1
    kernel_size: 3
    stride: 1
    weight_filler {
      type: "xavier"
    }
    bias_filler {
      type: "constant"
      value: 0
    }
  }
}
layer {
  name: "conv4_3_norm_mbox_loc_perm"
  type: "Permute"
  bottom: "conv4_3_norm_mbox_loc"
  top: "conv4_3_norm_mbox_loc_perm"
  permute_param {
    order: 0
    order: 2
    order: 3
    order: 1
  }
}
layer {
  name: "conv4_3_norm_mbox_loc_flat"
  type: "Flatten"
  bottom: "conv4_3_norm_mbox_loc_perm"
  top: "conv4_3_norm_mbox_loc_flat"
  flatten_param {
    axis: 1
  }
}
layer {
  name: "conv4_3_norm_mbox_conf"
  type: "Convolution"
  bottom: "conv4_3_norm"
  top: "conv4_3_norm_mbox_conf"
  param {
    lr_mult: 1
    decay_mult: 1
  }
  param {
    lr_mult: 2
    decay_mult: 0
  }
  convolution_param {
    num_output: 44
    pad: 1
    kernel_size: 3
    stride: 1
    weight_filler {
      type: "xavier"
    }
    bias_filler {
      type: "constant"
      value: 0
    }
  }
}
layer {
  name: "conv4_3_norm_mbox_conf_perm"
  type: "Permute"
  bottom: "conv4_3_norm_mbox_conf"
  top: "conv4_3_norm_mbox_conf_perm"
  permute_param {
    order: 0
    order: 2
    order: 3
    order: 1
  }
}
layer {
  name: "conv4_3_norm_mbox_conf_flat"
  type: "Flatten"
  bottom: "conv4_3_norm_mbox_conf_perm"
  top: "conv4_3_norm_mbox_conf_flat"
  flatten_param {
    axis: 1
  }
}
layer {
  name: "conv4_3_norm_mbox_priorbox"
  type: "PriorBox"
  bottom: "conv4_3_norm"
  bottom: "data"
  top: "conv4_3_norm_mbox_priorbox"
  prior_box_param {
    min_size: 30
    max_size: 60
    aspect_ratio: 2
    flip: true
    clip: false
    variance: 0.1
    variance: 0.1
    variance: 0.2
    variance: 0.2
    step: 8
    offset: 0.5
  }
}
layer {
  name: "fc7_mbox_loc"
  type: "Convolution"
  bottom: "fc7"
  top: "fc7_mbox_loc"
  param {
    lr_mult: 1
    decay_mult: 1
  }
  param {
    lr_mult: 2
    decay_mult: 0
  }
  convolution_param {
    num_output: 24
    pad: 1
    kernel_size: 3
    stride: 1
    weight_filler {
      type: "xavier"
    }
    bias_filler {
      type: "constant"
      value: 0
    }
  }
}
layer {
  name: "fc7_mbox_loc_perm"
  type: "Permute"
  bottom: "fc7_mbox_loc"
  top: "fc7_mbox_loc_perm"
  permute_param {
    order: 0
    order: 2
    order: 3
    order: 1
  }
}
layer {
  name: "fc7_mbox_loc_flat"
  type: "Flatten"
  bottom: "fc7_mbox_loc_perm"
  top: "fc7_mbox_loc_flat"
  flatten_param {
    axis: 1
  }
}
layer {
  name: "fc7_mbox_conf"
  type: "Convolution"
  bottom: "fc7"
  top: "fc7_mbox_conf"
  param {
    lr_mult: 1
    decay_mult: 1
  }
  param {
    lr_mult: 2
    decay_mult: 0
  }
  convolution_param {
    num_output: 66
    pad: 1
    kernel_size: 3
    stride: 1
    weight_filler {
      type: "xavier"
    }
    bias_filler {
      type: "constant"
      value: 0
    }
  }
}
layer {
  name: "fc7_mbox_conf_perm"
  type: "Permute"
  bottom: "fc7_mbox_conf"
  top: "fc7_mbox_conf_perm"
  permute_param {
    order: 0
    order: 2
    order: 3
    order: 1
  }
}
layer {
  name: "fc7_mbox_conf_flat"
  type: "Flatten"
  bottom: "fc7_mbox_conf_perm"
  top: "fc7_mbox_conf_flat"
  flatten_param {
    axis: 1
  }
}
layer {
  name: "fc7_mbox_priorbox"
  type: "PriorBox"
  bottom: "fc7"
  bottom: "data"
  top: "fc7_mbox_priorbox"
  prior_box_param {
    min_size: 60
    max_size: 111
    aspect_ratio: 2
    aspect_ratio: 3
    flip: true
    clip: false
    variance: 0.1
    variance: 0.1
    variance: 0.2
    variance: 0.2
    step: 16
    offset: 0.5
  }
}
layer {
  name: "conv6_2_mbox_loc"
  type: "Convolution"
  bottom: "conv6_2"
  top: "conv6_2_mbox_loc"
  param {
    lr_mult: 1
    decay_mult: 1
  }
  param {
    lr_mult: 2
    decay_mult: 0
  }
  convolution_param {
    num_output: 24
    pad: 1
    kernel_size: 3
    stride: 1
    weight_filler {
      type: "xavier"
    }
    bias_filler {
      type: "constant"
      value: 0
    }
  }
}
layer {
  name: "conv6_2_mbox_loc_perm"
  type: "Permute"
  bottom: "conv6_2_mbox_loc"
  top: "conv6_2_mbox_loc_perm"
  permute_param {
    order: 0
    order: 2
    order: 3
    order: 1
  }
}
layer {
  name: "conv6_2_mbox_loc_flat"
  type: "Flatten"
  bottom: "conv6_2_mbox_loc_perm"
  top: "conv6_2_mbox_loc_flat"
  flatten_param {
    axis: 1
  }
}
layer {
  name: "conv6_2_mbox_conf"
  type: "Convolution"
  bottom: "conv6_2"
  top: "conv6_2_mbox_conf"
  param {
    lr_mult: 1
    decay_mult: 1
  }
  param {
    lr_mult: 2
    decay_mult: 0
  }
  convolution_param {
    num_output: 66
    pad: 1
    kernel_size: 3
    stride: 1
    weight_filler {
      type: "xavier"
    }
    bias_filler {
      type: "constant"
      value: 0
    }
  }
}
layer {
  name: "conv6_2_mbox_conf_perm"
  type: "Permute"
  bottom: "conv6_2_mbox_conf"
  top: "conv6_2_mbox_conf_perm"
  permute_param {
    order: 0
    order: 2
    order: 3
    order: 1
  }
}
layer {
  name: "conv6_2_mbox_conf_flat"
  type: "Flatten"
  bottom: "conv6_2_mbox_conf_perm"
  top: "conv6_2_mbox_conf_flat"
  flatten_param {
    axis: 1
  }
}
layer {
  name: "conv6_2_mbox_priorbox"
  type: "PriorBox"
  bottom: "conv6_2"
  bottom: "data"
  top: "conv6_2_mbox_priorbox"
  prior_box_param {
    min_size: 111
    max_size: 162
    aspect_ratio: 2
    aspect_ratio: 3
    flip: true
    clip: false
    variance: 0.1
    variance: 0.1
    variance: 0.2
    variance: 0.2
    step: 32
    offset: 0.5
  }
}
layer {
  name: "conv7_2_mbox_loc"
  type: "Convolution"
  bottom: "conv7_2"
  top: "conv7_2_mbox_loc"
  param {
    lr_mult: 1
    decay_mult: 1
  }
  param {
    lr_mult: 2
    decay_mult: 0
  }
  convolution_param {
    num_output: 24
    pad: 1
    kernel_size: 3
    stride: 1
    weight_filler {
      type: "xavier"
    }
    bias_filler {
      type: "constant"
      value: 0
    }
  }
}
layer {
  name: "conv7_2_mbox_loc_perm"
  type: "Permute"
  bottom: "conv7_2_mbox_loc"
  top: "conv7_2_mbox_loc_perm"
  permute_param {
    order: 0
    order: 2
    order: 3
    order: 1
  }
}
layer {
  name: "conv7_2_mbox_loc_flat"
  type: "Flatten"
  bottom: "conv7_2_mbox_loc_perm"
  top: "conv7_2_mbox_loc_flat"
  flatten_param {
    axis: 1
  }
}
layer {
  name: "conv7_2_mbox_conf"
  type: "Convolution"
  bottom: "conv7_2"
  top: "conv7_2_mbox_conf"
  param {
    lr_mult: 1
    decay_mult: 1
  }
  param {
    lr_mult: 2
    decay_mult: 0
  }
  convolution_param {
    num_output: 66
    pad: 1
    kernel_size: 3
    stride: 1
    weight_filler {
      type: "xavier"
    }
    bias_filler {
      type: "constant"
      value: 0
    }
  }
}
layer {
  name: "conv7_2_mbox_conf_perm"
  type: "Permute"
  bottom: "conv7_2_mbox_conf"
  top: "conv7_2_mbox_conf_perm"
  permute_param {
    order: 0
    order: 2
    order: 3
    order: 1
  }
}
layer {
  name: "conv7_2_mbox_conf_flat"
  type: "Flatten"
  bottom: "conv7_2_mbox_conf_perm"
  top: "conv7_2_mbox_conf_flat"
  flatten_param {
    axis: 1
  }
}
layer {
  name: "conv7_2_mbox_priorbox"
  type: "PriorBox"
  bottom: "conv7_2"
  bottom: "data"
  top: "conv7_2_mbox_priorbox"
  prior_box_param {
    min_size: 162
    max_size: 213
    aspect_ratio: 2
    aspect_ratio: 3
    flip: true
    clip: false
    variance: 0.1
    variance: 0.1
    variance: 0.2
    variance: 0.2
    step: 64
    offset: 0.5
  }
}
layer {
  name: "conv8_2_mbox_loc"
  type: "Convolution"
  bottom: "conv8_2"
  top: "conv8_2_mbox_loc"
  param {
    lr_mult: 1
    decay_mult: 1
  }
  param {
    lr_mult: 2
    decay_mult: 0
  }
  convolution_param {
    num_output: 16
    pad: 1
    kernel_size: 3
    stride: 1
    weight_filler {
      type: "xavier"
    }
    bias_filler {
      type: "constant"
      value: 0
    }
  }
}
layer {
  name: "conv8_2_mbox_loc_perm"
  type: "Permute"
  bottom: "conv8_2_mbox_loc"
  top: "conv8_2_mbox_loc_perm"
  permute_param {
    order: 0
    order: 2
    order: 3
    order: 1
  }
}
layer {
  name: "conv8_2_mbox_loc_flat"
  type: "Flatten"
  bottom: "conv8_2_mbox_loc_perm"
  top: "conv8_2_mbox_loc_flat"
  flatten_param {
    axis: 1
  }
}
layer {
  name: "conv8_2_mbox_conf"
  type: "Convolution"
  bottom: "conv8_2"
  top: "conv8_2_mbox_conf"
  param {
    lr_mult: 1
    decay_mult: 1
  }
  param {
    lr_mult: 2
    decay_mult: 0
  }
  convolution_param {
    num_output: 44
    pad: 1
    kernel_size: 3
    stride: 1
    weight_filler {
      type: "xavier"
    }
    bias_filler {
      type: "constant"
      value: 0
    }
  }
}
layer {
  name: "conv8_2_mbox_conf_perm"
  type: "Permute"
  bottom: "conv8_2_mbox_conf"
  top: "conv8_2_mbox_conf_perm"
  permute_param {
    order: 0
    order: 2
    order: 3
    order: 1
  }
}
layer {
  name: "conv8_2_mbox_conf_flat"
  type: "Flatten"
  bottom: "conv8_2_mbox_conf_perm"
  top: "conv8_2_mbox_conf_flat"
  flatten_param {
    axis: 1
  }
}
layer {
  name: "conv8_2_mbox_priorbox"
  type: "PriorBox"
  bottom: "conv8_2"
  bottom: "data"
  top: "conv8_2_mbox_priorbox"
  prior_box_param {
    min_size: 213
    max_size: 264
    aspect_ratio: 2
    flip: true
    clip: false
    variance: 0.1
    variance: 0.1
    variance: 0.2
    variance: 0.2
    step: 100
    offset: 0.5
  }
}
layer {
  name: "conv9_2_mbox_loc"
  type: "Convolution"
  bottom: "conv9_2"
  top: "conv9_2_mbox_loc"
  param {
    lr_mult: 1
    decay_mult: 1
  }
  param {
    lr_mult: 2
    decay_mult: 0
  }
  convolution_param {
    num_output: 16
    pad: 1
    kernel_size: 3
    stride: 1
    weight_filler {
      type: "xavier"
    }
    bias_filler {
      type: "constant"
      value: 0
    }
  }
}
layer {
  name: "conv9_2_mbox_loc_perm"
  type: "Permute"
  bottom: "conv9_2_mbox_loc"
  top: "conv9_2_mbox_loc_perm"
  permute_param {
    order: 0
    order: 2
    order: 3
    order: 1
  }
}
layer {
  name: "conv9_2_mbox_loc_flat"
  type: "Flatten"
  bottom: "conv9_2_mbox_loc_perm"
  top: "conv9_2_mbox_loc_flat"
  flatten_param {
    axis: 1
  }
}
layer {
  name: "conv9_2_mbox_conf"
  type: "Convolution"
  bottom: "conv9_2"
  top: "conv9_2_mbox_conf"
  param {
    lr_mult: 1
    decay_mult: 1
  }
  param {
    lr_mult: 2
    decay_mult: 0
  }
  convolution_param {
    num_output: 44
    pad: 1
    kernel_size: 3
    stride: 1
    weight_filler {
      type: "xavier"
    }
    bias_filler {
      type: "constant"
      value: 0
    }
  }
}
layer {
  name: "conv9_2_mbox_conf_perm"
  type: "Permute"
  bottom: "conv9_2_mbox_conf"
  top: "conv9_2_mbox_conf_perm"
  permute_param {
    order: 0
    order: 2
    order: 3
    order: 1
  }
}
layer {
  name: "conv9_2_mbox_conf_flat"
  type: "Flatten"
  bottom: "conv9_2_mbox_conf_perm"
  top: "conv9_2_mbox_conf_flat"
  flatten_param {
    axis: 1
  }
}
layer {
  name: "conv9_2_mbox_priorbox"
  type: "PriorBox"
  bottom: "conv9_2"
  bottom: "data"
  top: "conv9_2_mbox_priorbox"
  prior_box_param {
    min_size: 264
    max_size: 315
    aspect_ratio: 2
    flip: true
    clip: false
    variance: 0.1
    variance: 0.1
    variance: 0.2
    variance: 0.2
    step: 300
    offset: 0.5
  }
}
layer {
  name: "mbox_loc"
  type: "Concat"
  bottom: "conv4_3_norm_mbox_loc_flat"
  bottom: "fc7_mbox_loc_flat"
  bottom: "conv6_2_mbox_loc_flat"
  bottom: "conv7_2_mbox_loc_flat"
  bottom: "conv8_2_mbox_loc_flat"
  bottom: "conv9_2_mbox_loc_flat"
  top: "mbox_loc"
  concat_param {
    axis: 1
  }
}
layer {
  name: "mbox_conf"
  type: "Concat"
  bottom: "conv4_3_norm_mbox_conf_flat"
  bottom: "fc7_mbox_conf_flat"
  bottom: "conv6_2_mbox_conf_flat"
  bottom: "conv7_2_mbox_conf_flat"
  bottom: "conv8_2_mbox_conf_flat"
  bottom: "conv9_2_mbox_conf_flat"
  top: "mbox_conf"
  concat_param {
    axis: 1
  }
}
layer {
  name: "mbox_priorbox"
  type: "Concat"
  bottom: "conv4_3_norm_mbox_priorbox"
  bottom: "fc7_mbox_priorbox"
  bottom: "conv6_2_mbox_priorbox"
  bottom: "conv7_2_mbox_priorbox"
  bottom: "conv8_2_mbox_priorbox"
  bottom: "conv9_2_mbox_priorbox"
  top: "mbox_priorbox"
  concat_param {
    axis: 2
  }
}
layer {
  name: "mbox_conf_reshape"
  type: "Reshape"
  bottom: "mbox_conf"
  top: "mbox_conf_reshape"
  reshape_param {
    shape {
      dim: 0
      dim: -1
      dim: 11
    }
  }
}
layer {
  name: "mbox_conf_softmax"
  type: "Softmax"
  bottom: "mbox_conf_reshape"
  top: "mbox_conf_softmax"
  softmax_param {
    axis: 2
  }
}
layer {
  name: "mbox_conf_flatten"
  type: "Flatten"
  bottom: "mbox_conf_softmax"
  top: "mbox_conf_flatten"
  flatten_param {
    axis: 1
  }
}
layer {
  name: "detection_out"
  type: "DetectionOutput"
  bottom: "mbox_loc"
  bottom: "mbox_conf_flatten"
  bottom: "mbox_priorbox"
  top: "detection_out"
  include {
    phase: TEST
  }
  detection_output_param {
    num_classes: 11
    share_location: true
    background_label_id: 0
    nms_param {
      nms_threshold: 0.45
      top_k: 400
    }
    save_output_param {
      output_directory: "/home/zs/data/VOCdevkit/results/VOC2007/SSD_300x300_0326_3w/Main"
      output_name_prefix: "comp4_det_test_"
      output_format: "VOC"
      label_map_file: "data/NWPU_VHR/labelmap_NWPU_VHR.prototxt"
      name_size_file: "data/NWPU_VHR/test_name_size.txt"
      num_test_image: 123
    }
    code_type: CENTER_SIZE
    keep_top_k: 200
    confidence_threshold: 0.01
  }
}
layer {
  name: "detection_eval"
  type: "DetectionEvaluate"
  bottom: "detection_out"
  bottom: "label"
  top: "detection_eval"
  include {
    phase: TEST
  }
  detection_evaluate_param {
    num_classes: 11
    background_label_id: 0
    overlap_threshold: 0.5
    evaluate_difficult_gt: false
    name_size_file: "data/NWPU_VHR/test_name_size.txt"
  }
}
I0326 09:48:13.208742 32487 layer_factory.hpp:77] Creating layer data
I0326 09:48:13.208919 32487 net.cpp:100] Creating Layer data
I0326 09:48:13.208989 32487 net.cpp:408] data -> data
I0326 09:48:13.209072 32487 net.cpp:408] data -> label
I0326 09:48:13.218838 32506 db_lmdb.cpp:35] Opened lmdb examples/NWPU_VHR/NWPU_VHR_test_lmdb
I0326 09:48:13.233615 32487 annotated_data_layer.cpp:62] output data size: 1,3,300,300
I0326 09:48:13.243752 32487 net.cpp:150] Setting up data
I0326 09:48:13.243791 32487 net.cpp:157] Top shape: 1 3 300 300 (270000)
I0326 09:48:13.243800 32487 net.cpp:157] Top shape: 1 1 4 8 (32)
I0326 09:48:13.243805 32487 net.cpp:165] Memory required for data: 1080128
I0326 09:48:13.243814 32487 layer_factory.hpp:77] Creating layer data_data_0_split
I0326 09:48:13.243834 32487 net.cpp:100] Creating Layer data_data_0_split
I0326 09:48:13.243840 32487 net.cpp:434] data_data_0_split <- data
I0326 09:48:13.243851 32487 net.cpp:408] data_data_0_split -> data_data_0_split_0
I0326 09:48:13.243866 32487 net.cpp:408] data_data_0_split -> data_data_0_split_1
I0326 09:48:13.243877 32487 net.cpp:408] data_data_0_split -> data_data_0_split_2
I0326 09:48:13.243886 32487 net.cpp:408] data_data_0_split -> data_data_0_split_3
I0326 09:48:13.243896 32487 net.cpp:408] data_data_0_split -> data_data_0_split_4
I0326 09:48:13.243903 32487 net.cpp:408] data_data_0_split -> data_data_0_split_5
I0326 09:48:13.243912 32487 net.cpp:408] data_data_0_split -> data_data_0_split_6
I0326 09:48:13.244081 32487 net.cpp:150] Setting up data_data_0_split
I0326 09:48:13.244093 32487 net.cpp:157] Top shape: 1 3 300 300 (270000)
I0326 09:48:13.244102 32487 net.cpp:157] Top shape: 1 3 300 300 (270000)
I0326 09:48:13.244110 32487 net.cpp:157] Top shape: 1 3 300 300 (270000)
I0326 09:48:13.244117 32487 net.cpp:157] Top shape: 1 3 300 300 (270000)
I0326 09:48:13.244124 32487 net.cpp:157] Top shape: 1 3 300 300 (270000)
I0326 09:48:13.244132 32487 net.cpp:157] Top shape: 1 3 300 300 (270000)
I0326 09:48:13.244139 32487 net.cpp:157] Top shape: 1 3 300 300 (270000)
I0326 09:48:13.244145 32487 net.cpp:165] Memory required for data: 8640128
I0326 09:48:13.244151 32487 layer_factory.hpp:77] Creating layer conv1_1
I0326 09:48:13.244168 32487 net.cpp:100] Creating Layer conv1_1
I0326 09:48:13.244177 32487 net.cpp:434] conv1_1 <- data_data_0_split_0
I0326 09:48:13.244215 32487 net.cpp:408] conv1_1 -> conv1_1
I0326 09:48:13.251679 32487 net.cpp:150] Setting up conv1_1
I0326 09:48:13.251719 32487 net.cpp:157] Top shape: 1 64 300 300 (5760000)
I0326 09:48:13.251729 32487 net.cpp:165] Memory required for data: 31680128
I0326 09:48:13.251751 32487 layer_factory.hpp:77] Creating layer relu1_1
I0326 09:48:13.251766 32487 net.cpp:100] Creating Layer relu1_1
I0326 09:48:13.251775 32487 net.cpp:434] relu1_1 <- conv1_1
I0326 09:48:13.251785 32487 net.cpp:395] relu1_1 -> conv1_1 (in-place)
I0326 09:48:13.252095 32487 net.cpp:150] Setting up relu1_1
I0326 09:48:13.252113 32487 net.cpp:157] Top shape: 1 64 300 300 (5760000)
I0326 09:48:13.252120 32487 net.cpp:165] Memory required for data: 54720128
I0326 09:48:13.252127 32487 layer_factory.hpp:77] Creating layer conv1_2
I0326 09:48:13.252146 32487 net.cpp:100] Creating Layer conv1_2
I0326 09:48:13.252156 32487 net.cpp:434] conv1_2 <- conv1_1
I0326 09:48:13.252167 32487 net.cpp:408] conv1_2 -> conv1_2
I0326 09:48:13.262715 32487 net.cpp:150] Setting up conv1_2
I0326 09:48:13.262755 32487 net.cpp:157] Top shape: 1 64 300 300 (5760000)
I0326 09:48:13.262763 32487 net.cpp:165] Memory required for data: 77760128
I0326 09:48:13.262782 32487 layer_factory.hpp:77] Creating layer relu1_2
I0326 09:48:13.262796 32487 net.cpp:100] Creating Layer relu1_2
I0326 09:48:13.262804 32487 net.cpp:434] relu1_2 <- conv1_2
I0326 09:48:13.262814 32487 net.cpp:395] relu1_2 -> conv1_2 (in-place)
I0326 09:48:13.263057 32487 net.cpp:150] Setting up relu1_2
I0326 09:48:13.263072 32487 net.cpp:157] Top shape: 1 64 300 300 (5760000)
I0326 09:48:13.263077 32487 net.cpp:165] Memory required for data: 100800128
I0326 09:48:13.263082 32487 layer_factory.hpp:77] Creating layer pool1
I0326 09:48:13.263092 32487 net.cpp:100] Creating Layer pool1
I0326 09:48:13.263098 32487 net.cpp:434] pool1 <- conv1_2
I0326 09:48:13.263105 32487 net.cpp:408] pool1 -> pool1
I0326 09:48:13.263172 32487 net.cpp:150] Setting up pool1
I0326 09:48:13.263182 32487 net.cpp:157] Top shape: 1 64 150 150 (1440000)
I0326 09:48:13.263188 32487 net.cpp:165] Memory required for data: 106560128
I0326 09:48:13.263195 32487 layer_factory.hpp:77] Creating layer conv2_1
I0326 09:48:13.263209 32487 net.cpp:100] Creating Layer conv2_1
I0326 09:48:13.263216 32487 net.cpp:434] conv2_1 <- pool1
I0326 09:48:13.263224 32487 net.cpp:408] conv2_1 -> conv2_1
I0326 09:48:13.277774 32487 net.cpp:150] Setting up conv2_1
I0326 09:48:13.277819 32487 net.cpp:157] Top shape: 1 128 150 150 (2880000)
I0326 09:48:13.277827 32487 net.cpp:165] Memory required for data: 118080128
I0326 09:48:13.277853 32487 layer_factory.hpp:77] Creating layer relu2_1
I0326 09:48:13.277868 32487 net.cpp:100] Creating Layer relu2_1
I0326 09:48:13.277878 32487 net.cpp:434] relu2_1 <- conv2_1
I0326 09:48:13.277889 32487 net.cpp:395] relu2_1 -> conv2_1 (in-place)
I0326 09:48:13.279134 32487 net.cpp:150] Setting up relu2_1
I0326 09:48:13.279160 32487 net.cpp:157] Top shape: 1 128 150 150 (2880000)
I0326 09:48:13.279165 32487 net.cpp:165] Memory required for data: 129600128
I0326 09:48:13.279172 32487 layer_factory.hpp:77] Creating layer conv2_2
I0326 09:48:13.279191 32487 net.cpp:100] Creating Layer conv2_2
I0326 09:48:13.279198 32487 net.cpp:434] conv2_2 <- conv2_1
I0326 09:48:13.279207 32487 net.cpp:408] conv2_2 -> conv2_2
I0326 09:48:13.291208 32487 net.cpp:150] Setting up conv2_2
I0326 09:48:13.291251 32487 net.cpp:157] Top shape: 1 128 150 150 (2880000)
I0326 09:48:13.291260 32487 net.cpp:165] Memory required for data: 141120128
I0326 09:48:13.291278 32487 layer_factory.hpp:77] Creating layer relu2_2
I0326 09:48:13.291291 32487 net.cpp:100] Creating Layer relu2_2
I0326 09:48:13.291301 32487 net.cpp:434] relu2_2 <- conv2_2
I0326 09:48:13.291311 32487 net.cpp:395] relu2_2 -> conv2_2 (in-place)
I0326 09:48:13.291617 32487 net.cpp:150] Setting up relu2_2
I0326 09:48:13.291635 32487 net.cpp:157] Top shape: 1 128 150 150 (2880000)
I0326 09:48:13.291643 32487 net.cpp:165] Memory required for data: 152640128
I0326 09:48:13.291651 32487 layer_factory.hpp:77] Creating layer pool2
I0326 09:48:13.291687 32487 net.cpp:100] Creating Layer pool2
I0326 09:48:13.291694 32487 net.cpp:434] pool2 <- conv2_2
I0326 09:48:13.291705 32487 net.cpp:408] pool2 -> pool2
I0326 09:48:13.291805 32487 net.cpp:150] Setting up pool2
I0326 09:48:13.291821 32487 net.cpp:157] Top shape: 1 128 75 75 (720000)
I0326 09:48:13.291826 32487 net.cpp:165] Memory required for data: 155520128
I0326 09:48:13.291834 32487 layer_factory.hpp:77] Creating layer conv3_1
I0326 09:48:13.291851 32487 net.cpp:100] Creating Layer conv3_1
I0326 09:48:13.291862 32487 net.cpp:434] conv3_1 <- pool2
I0326 09:48:13.291872 32487 net.cpp:408] conv3_1 -> conv3_1
I0326 09:48:13.312098 32487 net.cpp:150] Setting up conv3_1
I0326 09:48:13.312142 32487 net.cpp:157] Top shape: 1 256 75 75 (1440000)
I0326 09:48:13.312150 32487 net.cpp:165] Memory required for data: 161280128
I0326 09:48:13.312180 32487 layer_factory.hpp:77] Creating layer relu3_1
I0326 09:48:13.312196 32487 net.cpp:100] Creating Layer relu3_1
I0326 09:48:13.312204 32487 net.cpp:434] relu3_1 <- conv3_1
I0326 09:48:13.312213 32487 net.cpp:395] relu3_1 -> conv3_1 (in-place)
I0326 09:48:13.312505 32487 net.cpp:150] Setting up relu3_1
I0326 09:48:13.312522 32487 net.cpp:157] Top shape: 1 256 75 75 (1440000)
I0326 09:48:13.312528 32487 net.cpp:165] Memory required for data: 167040128
I0326 09:48:13.312535 32487 layer_factory.hpp:77] Creating layer conv3_2
I0326 09:48:13.312551 32487 net.cpp:100] Creating Layer conv3_2
I0326 09:48:13.312561 32487 net.cpp:434] conv3_2 <- conv3_1
I0326 09:48:13.312569 32487 net.cpp:408] conv3_2 -> conv3_2
I0326 09:48:13.349941 32487 net.cpp:150] Setting up conv3_2
I0326 09:48:13.349985 32487 net.cpp:157] Top shape: 1 256 75 75 (1440000)
I0326 09:48:13.349994 32487 net.cpp:165] Memory required for data: 172800128
I0326 09:48:13.350013 32487 layer_factory.hpp:77] Creating layer relu3_2
I0326 09:48:13.350028 32487 net.cpp:100] Creating Layer relu3_2
I0326 09:48:13.350035 32487 net.cpp:434] relu3_2 <- conv3_2
I0326 09:48:13.350047 32487 net.cpp:395] relu3_2 -> conv3_2 (in-place)
I0326 09:48:13.350419 32487 net.cpp:150] Setting up relu3_2
I0326 09:48:13.350437 32487 net.cpp:157] Top shape: 1 256 75 75 (1440000)
I0326 09:48:13.350443 32487 net.cpp:165] Memory required for data: 178560128
I0326 09:48:13.350451 32487 layer_factory.hpp:77] Creating layer conv3_3
I0326 09:48:13.350471 32487 net.cpp:100] Creating Layer conv3_3
I0326 09:48:13.350481 32487 net.cpp:434] conv3_3 <- conv3_2
I0326 09:48:13.350492 32487 net.cpp:408] conv3_3 -> conv3_3
I0326 09:48:13.383839 32487 net.cpp:150] Setting up conv3_3
I0326 09:48:13.383875 32487 net.cpp:157] Top shape: 1 256 75 75 (1440000)
I0326 09:48:13.383882 32487 net.cpp:165] Memory required for data: 184320128
I0326 09:48:13.383900 32487 layer_factory.hpp:77] Creating layer relu3_3
I0326 09:48:13.383915 32487 net.cpp:100] Creating Layer relu3_3
I0326 09:48:13.383924 32487 net.cpp:434] relu3_3 <- conv3_3
I0326 09:48:13.383934 32487 net.cpp:395] relu3_3 -> conv3_3 (in-place)
I0326 09:48:13.385015 32487 net.cpp:150] Setting up relu3_3
I0326 09:48:13.385035 32487 net.cpp:157] Top shape: 1 256 75 75 (1440000)
I0326 09:48:13.385042 32487 net.cpp:165] Memory required for data: 190080128
I0326 09:48:13.385049 32487 layer_factory.hpp:77] Creating layer pool3
I0326 09:48:13.385061 32487 net.cpp:100] Creating Layer pool3
I0326 09:48:13.385068 32487 net.cpp:434] pool3 <- conv3_3
I0326 09:48:13.385078 32487 net.cpp:408] pool3 -> pool3
I0326 09:48:13.385164 32487 net.cpp:150] Setting up pool3
I0326 09:48:13.385180 32487 net.cpp:157] Top shape: 1 256 38 38 (369664)
I0326 09:48:13.385187 32487 net.cpp:165] Memory required for data: 191558784
I0326 09:48:13.385195 32487 layer_factory.hpp:77] Creating layer conv4_1
I0326 09:48:13.385211 32487 net.cpp:100] Creating Layer conv4_1
I0326 09:48:13.385218 32487 net.cpp:434] conv4_1 <- pool3
I0326 09:48:13.385229 32487 net.cpp:408] conv4_1 -> conv4_1
I0326 09:48:13.434368 32487 net.cpp:150] Setting up conv4_1
I0326 09:48:13.434409 32487 net.cpp:157] Top shape: 1 512 38 38 (739328)
I0326 09:48:13.434446 32487 net.cpp:165] Memory required for data: 194516096
I0326 09:48:13.434468 32487 layer_factory.hpp:77] Creating layer relu4_1
I0326 09:48:13.434481 32487 net.cpp:100] Creating Layer relu4_1
I0326 09:48:13.434490 32487 net.cpp:434] relu4_1 <- conv4_1
I0326 09:48:13.434501 32487 net.cpp:395] relu4_1 -> conv4_1 (in-place)
I0326 09:48:13.434870 32487 net.cpp:150] Setting up relu4_1
I0326 09:48:13.434888 32487 net.cpp:157] Top shape: 1 512 38 38 (739328)
I0326 09:48:13.434895 32487 net.cpp:165] Memory required for data: 197473408
I0326 09:48:13.434900 32487 layer_factory.hpp:77] Creating layer conv4_2
I0326 09:48:13.434918 32487 net.cpp:100] Creating Layer conv4_2
I0326 09:48:13.434924 32487 net.cpp:434] conv4_2 <- conv4_1
I0326 09:48:13.434934 32487 net.cpp:408] conv4_2 -> conv4_2
I0326 09:48:13.561626 32487 net.cpp:150] Setting up conv4_2
I0326 09:48:13.562189 32487 net.cpp:157] Top shape: 1 512 38 38 (739328)
I0326 09:48:13.562218 32487 net.cpp:165] Memory required for data: 200430720
I0326 09:48:13.562258 32487 layer_factory.hpp:77] Creating layer relu4_2
I0326 09:48:13.562289 32487 net.cpp:100] Creating Layer relu4_2
I0326 09:48:13.562314 32487 net.cpp:434] relu4_2 <- conv4_2
I0326 09:48:13.562341 32487 net.cpp:395] relu4_2 -> conv4_2 (in-place)
I0326 09:48:13.562633 32487 net.cpp:150] Setting up relu4_2
I0326 09:48:13.562664 32487 net.cpp:157] Top shape: 1 512 38 38 (739328)
I0326 09:48:13.562688 32487 net.cpp:165] Memory required for data: 203388032
I0326 09:48:13.562711 32487 layer_factory.hpp:77] Creating layer conv4_3
I0326 09:48:13.562741 32487 net.cpp:100] Creating Layer conv4_3
I0326 09:48:13.562780 32487 net.cpp:434] conv4_3 <- conv4_2
I0326 09:48:13.562810 32487 net.cpp:408] conv4_3 -> conv4_3
I0326 09:48:13.623581 32487 net.cpp:150] Setting up conv4_3
I0326 09:48:13.623651 32487 net.cpp:157] Top shape: 1 512 38 38 (739328)
I0326 09:48:13.623677 32487 net.cpp:165] Memory required for data: 206345344
I0326 09:48:13.623710 32487 layer_factory.hpp:77] Creating layer relu4_3
I0326 09:48:13.623739 32487 net.cpp:100] Creating Layer relu4_3
I0326 09:48:13.623764 32487 net.cpp:434] relu4_3 <- conv4_3
I0326 09:48:13.623790 32487 net.cpp:395] relu4_3 -> conv4_3 (in-place)
I0326 09:48:13.624905 32487 net.cpp:150] Setting up relu4_3
I0326 09:48:13.624940 32487 net.cpp:157] Top shape: 1 512 38 38 (739328)
I0326 09:48:13.624963 32487 net.cpp:165] Memory required for data: 209302656
I0326 09:48:13.624985 32487 layer_factory.hpp:77] Creating layer conv4_3_relu4_3_0_split
I0326 09:48:13.625011 32487 net.cpp:100] Creating Layer conv4_3_relu4_3_0_split
I0326 09:48:13.625032 32487 net.cpp:434] conv4_3_relu4_3_0_split <- conv4_3
I0326 09:48:13.625057 32487 net.cpp:408] conv4_3_relu4_3_0_split -> conv4_3_relu4_3_0_split_0
I0326 09:48:13.625087 32487 net.cpp:408] conv4_3_relu4_3_0_split -> conv4_3_relu4_3_0_split_1
I0326 09:48:13.625178 32487 net.cpp:150] Setting up conv4_3_relu4_3_0_split
I0326 09:48:13.625257 32487 net.cpp:157] Top shape: 1 512 38 38 (739328)
I0326 09:48:13.625326 32487 net.cpp:157] Top shape: 1 512 38 38 (739328)
I0326 09:48:13.625408 32487 net.cpp:165] Memory required for data: 215217280
I0326 09:48:13.625478 32487 layer_factory.hpp:77] Creating layer pool4
I0326 09:48:13.625547 32487 net.cpp:100] Creating Layer pool4
I0326 09:48:13.625612 32487 net.cpp:434] pool4 <- conv4_3_relu4_3_0_split_0
I0326 09:48:13.625681 32487 net.cpp:408] pool4 -> pool4
I0326 09:48:13.625861 32487 net.cpp:150] Setting up pool4
I0326 09:48:13.625934 32487 net.cpp:157] Top shape: 1 512 19 19 (184832)
I0326 09:48:13.625998 32487 net.cpp:165] Memory required for data: 215956608
I0326 09:48:13.626065 32487 layer_factory.hpp:77] Creating layer conv5_1
I0326 09:48:13.626142 32487 net.cpp:100] Creating Layer conv5_1
I0326 09:48:13.626207 32487 net.cpp:434] conv5_1 <- pool4
I0326 09:48:13.626276 32487 net.cpp:408] conv5_1 -> conv5_1
I0326 09:48:13.687070 32487 net.cpp:150] Setting up conv5_1
I0326 09:48:13.687146 32487 net.cpp:157] Top shape: 1 512 19 19 (184832)
I0326 09:48:13.687178 32487 net.cpp:165] Memory required for data: 216695936
I0326 09:48:13.687222 32487 layer_factory.hpp:77] Creating layer relu5_1
I0326 09:48:13.687245 32487 net.cpp:100] Creating Layer relu5_1
I0326 09:48:13.687266 32487 net.cpp:434] relu5_1 <- conv5_1
I0326 09:48:13.687286 32487 net.cpp:395] relu5_1 -> conv5_1 (in-place)
I0326 09:48:13.687588 32487 net.cpp:150] Setting up relu5_1
I0326 09:48:13.687615 32487 net.cpp:157] Top shape: 1 512 19 19 (184832)
I0326 09:48:13.687633 32487 net.cpp:165] Memory required for data: 217435264
I0326 09:48:13.687649 32487 layer_factory.hpp:77] Creating layer conv5_2
I0326 09:48:13.687675 32487 net.cpp:100] Creating Layer conv5_2
I0326 09:48:13.687693 32487 net.cpp:434] conv5_2 <- conv5_1
I0326 09:48:13.687714 32487 net.cpp:408] conv5_2 -> conv5_2
I0326 09:48:13.714222 32487 net.cpp:150] Setting up conv5_2
I0326 09:48:13.714300 32487 net.cpp:157] Top shape: 1 512 19 19 (184832)
I0326 09:48:13.714319 32487 net.cpp:165] Memory required for data: 218174592
I0326 09:48:13.714349 32487 layer_factory.hpp:77] Creating layer relu5_2
I0326 09:48:13.714385 32487 net.cpp:100] Creating Layer relu5_2
I0326 09:48:13.714407 32487 net.cpp:434] relu5_2 <- conv5_2
I0326 09:48:13.714433 32487 net.cpp:395] relu5_2 -> conv5_2 (in-place)
I0326 09:48:13.714690 32487 net.cpp:150] Setting up relu5_2
I0326 09:48:13.714717 32487 net.cpp:157] Top shape: 1 512 19 19 (184832)
I0326 09:48:13.714733 32487 net.cpp:165] Memory required for data: 218913920
I0326 09:48:13.714751 32487 layer_factory.hpp:77] Creating layer conv5_3
I0326 09:48:13.714778 32487 net.cpp:100] Creating Layer conv5_3
I0326 09:48:13.714797 32487 net.cpp:434] conv5_3 <- conv5_2
I0326 09:48:13.714818 32487 net.cpp:408] conv5_3 -> conv5_3
I0326 09:48:13.741343 32487 net.cpp:150] Setting up conv5_3
I0326 09:48:13.741410 32487 net.cpp:157] Top shape: 1 512 19 19 (184832)
I0326 09:48:13.741428 32487 net.cpp:165] Memory required for data: 219653248
I0326 09:48:13.741454 32487 layer_factory.hpp:77] Creating layer relu5_3
I0326 09:48:13.741487 32487 net.cpp:100] Creating Layer relu5_3
I0326 09:48:13.741506 32487 net.cpp:434] relu5_3 <- conv5_3
I0326 09:48:13.741528 32487 net.cpp:395] relu5_3 -> conv5_3 (in-place)
I0326 09:48:13.742597 32487 net.cpp:150] Setting up relu5_3
I0326 09:48:13.742630 32487 net.cpp:157] Top shape: 1 512 19 19 (184832)
I0326 09:48:13.742648 32487 net.cpp:165] Memory required for data: 220392576
I0326 09:48:13.742666 32487 layer_factory.hpp:77] Creating layer pool5
I0326 09:48:13.742687 32487 net.cpp:100] Creating Layer pool5
I0326 09:48:13.742705 32487 net.cpp:434] pool5 <- conv5_3
I0326 09:48:13.742725 32487 net.cpp:408] pool5 -> pool5
I0326 09:48:13.742808 32487 net.cpp:150] Setting up pool5
I0326 09:48:13.742832 32487 net.cpp:157] Top shape: 1 512 19 19 (184832)
I0326 09:48:13.742848 32487 net.cpp:165] Memory required for data: 221131904
I0326 09:48:13.742866 32487 layer_factory.hpp:77] Creating layer fc6
I0326 09:48:13.742904 32487 net.cpp:100] Creating Layer fc6
I0326 09:48:13.742924 32487 net.cpp:434] fc6 <- pool5
I0326 09:48:13.742946 32487 net.cpp:408] fc6 -> fc6
I0326 09:48:13.790977 32487 net.cpp:150] Setting up fc6
I0326 09:48:13.791045 32487 net.cpp:157] Top shape: 1 1024 19 19 (369664)
I0326 09:48:13.791064 32487 net.cpp:165] Memory required for data: 222610560
I0326 09:48:13.791090 32487 layer_factory.hpp:77] Creating layer relu6
I0326 09:48:13.791115 32487 net.cpp:100] Creating Layer relu6
I0326 09:48:13.791136 32487 net.cpp:434] relu6 <- fc6
I0326 09:48:13.791160 32487 net.cpp:395] relu6 -> fc6 (in-place)
I0326 09:48:13.791496 32487 net.cpp:150] Setting up relu6
I0326 09:48:13.791523 32487 net.cpp:157] Top shape: 1 1024 19 19 (369664)
I0326 09:48:13.791540 32487 net.cpp:165] Memory required for data: 224089216
I0326 09:48:13.791571 32487 layer_factory.hpp:77] Creating layer fc7
I0326 09:48:13.791599 32487 net.cpp:100] Creating Layer fc7
I0326 09:48:13.791618 32487 net.cpp:434] fc7 <- fc6
I0326 09:48:13.791646 32487 net.cpp:408] fc7 -> fc7
I0326 09:48:13.804915 32487 net.cpp:150] Setting up fc7
I0326 09:48:13.804991 32487 net.cpp:157] Top shape: 1 1024 19 19 (369664)
I0326 09:48:13.805019 32487 net.cpp:165] Memory required for data: 225567872
I0326 09:48:13.805052 32487 layer_factory.hpp:77] Creating layer relu7
I0326 09:48:13.805079 32487 net.cpp:100] Creating Layer relu7
I0326 09:48:13.805101 32487 net.cpp:434] relu7 <- fc7
I0326 09:48:13.805128 32487 net.cpp:395] relu7 -> fc7 (in-place)
I0326 09:48:13.805510 32487 net.cpp:150] Setting up relu7
I0326 09:48:13.805620 32487 net.cpp:157] Top shape: 1 1024 19 19 (369664)
I0326 09:48:13.805721 32487 net.cpp:165] Memory required for data: 227046528
I0326 09:48:13.805855 32487 layer_factory.hpp:77] Creating layer fc7_relu7_0_split
I0326 09:48:13.805974 32487 net.cpp:100] Creating Layer fc7_relu7_0_split
I0326 09:48:13.806080 32487 net.cpp:434] fc7_relu7_0_split <- fc7
I0326 09:48:13.806195 32487 net.cpp:408] fc7_relu7_0_split -> fc7_relu7_0_split_0
I0326 09:48:13.806318 32487 net.cpp:408] fc7_relu7_0_split -> fc7_relu7_0_split_1
I0326 09:48:13.806457 32487 net.cpp:408] fc7_relu7_0_split -> fc7_relu7_0_split_2
I0326 09:48:13.806571 32487 net.cpp:408] fc7_relu7_0_split -> fc7_relu7_0_split_3
I0326 09:48:13.806812 32487 net.cpp:150] Setting up fc7_relu7_0_split
I0326 09:48:13.806927 32487 net.cpp:157] Top shape: 1 1024 19 19 (369664)
I0326 09:48:13.807035 32487 net.cpp:157] Top shape: 1 1024 19 19 (369664)
I0326 09:48:13.807142 32487 net.cpp:157] Top shape: 1 1024 19 19 (369664)
I0326 09:48:13.807250 32487 net.cpp:157] Top shape: 1 1024 19 19 (369664)
I0326 09:48:13.807353 32487 net.cpp:165] Memory required for data: 232961152
I0326 09:48:13.807474 32487 layer_factory.hpp:77] Creating layer conv6_1
I0326 09:48:13.807600 32487 net.cpp:100] Creating Layer conv6_1
I0326 09:48:13.807706 32487 net.cpp:434] conv6_1 <- fc7_relu7_0_split_0
I0326 09:48:13.807821 32487 net.cpp:408] conv6_1 -> conv6_1
I0326 09:48:13.814549 32487 net.cpp:150] Setting up conv6_1
I0326 09:48:13.814766 32487 net.cpp:157] Top shape: 1 256 19 19 (92416)
I0326 09:48:13.814867 32487 net.cpp:165] Memory required for data: 233330816
I0326 09:48:13.814980 32487 layer_factory.hpp:77] Creating layer conv6_1_relu
I0326 09:48:13.815106 32487 net.cpp:100] Creating Layer conv6_1_relu
I0326 09:48:13.815203 32487 net.cpp:434] conv6_1_relu <- conv6_1
I0326 09:48:13.815315 32487 net.cpp:395] conv6_1_relu -> conv6_1 (in-place)
I0326 09:48:13.815654 32487 net.cpp:150] Setting up conv6_1_relu
I0326 09:48:13.815807 32487 net.cpp:157] Top shape: 1 256 19 19 (92416)
I0326 09:48:13.815904 32487 net.cpp:165] Memory required for data: 233700480
I0326 09:48:13.816010 32487 layer_factory.hpp:77] Creating layer conv6_2
I0326 09:48:13.816140 32487 net.cpp:100] Creating Layer conv6_2
I0326 09:48:13.816236 32487 net.cpp:434] conv6_2 <- conv6_1
I0326 09:48:13.816339 32487 net.cpp:408] conv6_2 -> conv6_2
I0326 09:48:13.833940 32487 net.cpp:150] Setting up conv6_2
I0326 09:48:13.834251 32487 net.cpp:157] Top shape: 1 512 10 10 (51200)
I0326 09:48:13.834362 32487 net.cpp:165] Memory required for data: 233905280
I0326 09:48:13.834491 32487 layer_factory.hpp:77] Creating layer conv6_2_relu
I0326 09:48:13.834616 32487 net.cpp:100] Creating Layer conv6_2_relu
I0326 09:48:13.834722 32487 net.cpp:434] conv6_2_relu <- conv6_2
I0326 09:48:13.834832 32487 net.cpp:395] conv6_2_relu -> conv6_2 (in-place)
I0326 09:48:13.837697 32487 net.cpp:150] Setting up conv6_2_relu
I0326 09:48:13.837869 32487 net.cpp:157] Top shape: 1 512 10 10 (51200)
I0326 09:48:13.837980 32487 net.cpp:165] Memory required for data: 234110080
I0326 09:48:13.838093 32487 layer_factory.hpp:77] Creating layer conv6_2_conv6_2_relu_0_split
I0326 09:48:13.838220 32487 net.cpp:100] Creating Layer conv6_2_conv6_2_relu_0_split
I0326 09:48:13.838331 32487 net.cpp:434] conv6_2_conv6_2_relu_0_split <- conv6_2
I0326 09:48:13.838464 32487 net.cpp:408] conv6_2_conv6_2_relu_0_split -> conv6_2_conv6_2_relu_0_split_0
I0326 09:48:13.838598 32487 net.cpp:408] conv6_2_conv6_2_relu_0_split -> conv6_2_conv6_2_relu_0_split_1
I0326 09:48:13.838719 32487 net.cpp:408] conv6_2_conv6_2_relu_0_split -> conv6_2_conv6_2_relu_0_split_2
I0326 09:48:13.838855 32487 net.cpp:408] conv6_2_conv6_2_relu_0_split -> conv6_2_conv6_2_relu_0_split_3
I0326 09:48:13.839125 32487 net.cpp:150] Setting up conv6_2_conv6_2_relu_0_split
I0326 09:48:13.839475 32487 net.cpp:157] Top shape: 1 512 10 10 (51200)
I0326 09:48:13.839601 32487 net.cpp:157] Top shape: 1 512 10 10 (51200)
I0326 09:48:13.839707 32487 net.cpp:157] Top shape: 1 512 10 10 (51200)
I0326 09:48:13.839815 32487 net.cpp:157] Top shape: 1 512 10 10 (51200)
I0326 09:48:13.839917 32487 net.cpp:165] Memory required for data: 234929280
I0326 09:48:13.840023 32487 layer_factory.hpp:77] Creating layer conv7_1
I0326 09:48:13.840148 32487 net.cpp:100] Creating Layer conv7_1
I0326 09:48:13.840250 32487 net.cpp:434] conv7_1 <- conv6_2_conv6_2_relu_0_split_0
I0326 09:48:13.840536 32487 net.cpp:408] conv7_1 -> conv7_1
I0326 09:48:13.845708 32487 net.cpp:150] Setting up conv7_1
I0326 09:48:13.846937 32487 net.cpp:157] Top shape: 1 128 10 10 (12800)
I0326 09:48:13.847100 32487 net.cpp:165] Memory required for data: 234980480
I0326 09:48:13.847210 32487 layer_factory.hpp:77] Creating layer conv7_1_relu
I0326 09:48:13.847311 32487 net.cpp:100] Creating Layer conv7_1_relu
I0326 09:48:13.847410 32487 net.cpp:434] conv7_1_relu <- conv7_1
I0326 09:48:13.847519 32487 net.cpp:395] conv7_1_relu -> conv7_1 (in-place)
I0326 09:48:13.847860 32487 net.cpp:150] Setting up conv7_1_relu
I0326 09:48:13.849078 32487 net.cpp:157] Top shape: 1 128 10 10 (12800)
I0326 09:48:13.849231 32487 net.cpp:165] Memory required for data: 235031680
I0326 09:48:13.849330 32487 layer_factory.hpp:77] Creating layer conv7_2
I0326 09:48:13.849436 32487 net.cpp:100] Creating Layer conv7_2
I0326 09:48:13.849530 32487 net.cpp:434] conv7_2 <- conv7_1
I0326 09:48:13.849632 32487 net.cpp:408] conv7_2 -> conv7_2
I0326 09:48:13.861186 32487 net.cpp:150] Setting up conv7_2
I0326 09:48:13.861780 32487 net.cpp:157] Top shape: 1 256 5 5 (6400)
I0326 09:48:13.861912 32487 net.cpp:165] Memory required for data: 235057280
I0326 09:48:13.862023 32487 layer_factory.hpp:77] Creating layer conv7_2_relu
I0326 09:48:13.862125 32487 net.cpp:100] Creating Layer conv7_2_relu
I0326 09:48:13.862231 32487 net.cpp:434] conv7_2_relu <- conv7_2
I0326 09:48:13.862331 32487 net.cpp:395] conv7_2_relu -> conv7_2 (in-place)
I0326 09:48:13.862695 32487 net.cpp:150] Setting up conv7_2_relu
I0326 09:48:13.863888 32487 net.cpp:157] Top shape: 1 256 5 5 (6400)
I0326 09:48:13.864033 32487 net.cpp:165] Memory required for data: 235082880
I0326 09:48:13.864141 32487 layer_factory.hpp:77] Creating layer conv7_2_conv7_2_relu_0_split
I0326 09:48:13.864253 32487 net.cpp:100] Creating Layer conv7_2_conv7_2_relu_0_split
I0326 09:48:13.864356 32487 net.cpp:434] conv7_2_conv7_2_relu_0_split <- conv7_2
I0326 09:48:13.864462 32487 net.cpp:408] conv7_2_conv7_2_relu_0_split -> conv7_2_conv7_2_relu_0_split_0
I0326 09:48:13.864581 32487 net.cpp:408] conv7_2_conv7_2_relu_0_split -> conv7_2_conv7_2_relu_0_split_1
I0326 09:48:13.864701 32487 net.cpp:408] conv7_2_conv7_2_relu_0_split -> conv7_2_conv7_2_relu_0_split_2
I0326 09:48:13.864815 32487 net.cpp:408] conv7_2_conv7_2_relu_0_split -> conv7_2_conv7_2_relu_0_split_3
I0326 09:48:13.865058 32487 net.cpp:150] Setting up conv7_2_conv7_2_relu_0_split
I0326 09:48:13.865165 32487 net.cpp:157] Top shape: 1 256 5 5 (6400)
I0326 09:48:13.865269 32487 net.cpp:157] Top shape: 1 256 5 5 (6400)
I0326 09:48:13.865370 32487 net.cpp:157] Top shape: 1 256 5 5 (6400)
I0326 09:48:13.865471 32487 net.cpp:157] Top shape: 1 256 5 5 (6400)
I0326 09:48:13.865569 32487 net.cpp:165] Memory required for data: 235185280
I0326 09:48:13.865677 32487 layer_factory.hpp:77] Creating layer conv8_1
I0326 09:48:13.865824 32487 net.cpp:100] Creating Layer conv8_1
I0326 09:48:13.865957 32487 net.cpp:434] conv8_1 <- conv7_2_conv7_2_relu_0_split_0
I0326 09:48:13.866082 32487 net.cpp:408] conv8_1 -> conv8_1
I0326 09:48:13.871489 32487 net.cpp:150] Setting up conv8_1
I0326 09:48:13.871734 32487 net.cpp:157] Top shape: 1 128 5 5 (3200)
I0326 09:48:13.871842 32487 net.cpp:165] Memory required for data: 235198080
I0326 09:48:13.871978 32487 layer_factory.hpp:77] Creating layer conv8_1_relu
I0326 09:48:13.872092 32487 net.cpp:100] Creating Layer conv8_1_relu
I0326 09:48:13.872195 32487 net.cpp:434] conv8_1_relu <- conv8_1
I0326 09:48:13.872303 32487 net.cpp:395] conv8_1_relu -> conv8_1 (in-place)
I0326 09:48:13.874706 32487 net.cpp:150] Setting up conv8_1_relu
I0326 09:48:13.874893 32487 net.cpp:157] Top shape: 1 128 5 5 (3200)
I0326 09:48:13.874995 32487 net.cpp:165] Memory required for data: 235210880
I0326 09:48:13.875097 32487 layer_factory.hpp:77] Creating layer conv8_2
I0326 09:48:13.875571 32487 net.cpp:100] Creating Layer conv8_2
I0326 09:48:13.875682 32487 net.cpp:434] conv8_2 <- conv8_1
I0326 09:48:13.875880 32487 net.cpp:408] conv8_2 -> conv8_2
I0326 09:48:13.890411 32487 net.cpp:150] Setting up conv8_2
I0326 09:48:13.890709 32487 net.cpp:157] Top shape: 1 256 3 3 (2304)
I0326 09:48:13.890822 32487 net.cpp:165] Memory required for data: 235220096
I0326 09:48:13.890942 32487 layer_factory.hpp:77] Creating layer conv8_2_relu
I0326 09:48:13.891060 32487 net.cpp:100] Creating Layer conv8_2_relu
I0326 09:48:13.891167 32487 net.cpp:434] conv8_2_relu <- conv8_2
I0326 09:48:13.891274 32487 net.cpp:395] conv8_2_relu -> conv8_2 (in-place)
I0326 09:48:13.891728 32487 net.cpp:150] Setting up conv8_2_relu
I0326 09:48:13.891894 32487 net.cpp:157] Top shape: 1 256 3 3 (2304)
I0326 09:48:13.891997 32487 net.cpp:165] Memory required for data: 235229312
I0326 09:48:13.892107 32487 layer_factory.hpp:77] Creating layer conv8_2_conv8_2_relu_0_split
I0326 09:48:13.892225 32487 net.cpp:100] Creating Layer conv8_2_conv8_2_relu_0_split
I0326 09:48:13.892331 32487 net.cpp:434] conv8_2_conv8_2_relu_0_split <- conv8_2
I0326 09:48:13.892525 32487 net.cpp:408] conv8_2_conv8_2_relu_0_split -> conv8_2_conv8_2_relu_0_split_0
I0326 09:48:13.892653 32487 net.cpp:408] conv8_2_conv8_2_relu_0_split -> conv8_2_conv8_2_relu_0_split_1
I0326 09:48:13.892773 32487 net.cpp:408] conv8_2_conv8_2_relu_0_split -> conv8_2_conv8_2_relu_0_split_2
I0326 09:48:13.893586 32487 net.cpp:408] conv8_2_conv8_2_relu_0_split -> conv8_2_conv8_2_relu_0_split_3
I0326 09:48:13.893882 32487 net.cpp:150] Setting up conv8_2_conv8_2_relu_0_split
I0326 09:48:13.894049 32487 net.cpp:157] Top shape: 1 256 3 3 (2304)
I0326 09:48:13.894158 32487 net.cpp:157] Top shape: 1 256 3 3 (2304)
I0326 09:48:13.894268 32487 net.cpp:157] Top shape: 1 256 3 3 (2304)
I0326 09:48:13.894373 32487 net.cpp:157] Top shape: 1 256 3 3 (2304)
I0326 09:48:13.894474 32487 net.cpp:165] Memory required for data: 235266176
I0326 09:48:13.894583 32487 layer_factory.hpp:77] Creating layer conv9_1
I0326 09:48:13.894721 32487 net.cpp:100] Creating Layer conv9_1
I0326 09:48:13.894829 32487 net.cpp:434] conv9_1 <- conv8_2_conv8_2_relu_0_split_0
I0326 09:48:13.894939 32487 net.cpp:408] conv9_1 -> conv9_1
I0326 09:48:13.903198 32487 net.cpp:150] Setting up conv9_1
I0326 09:48:13.903455 32487 net.cpp:157] Top shape: 1 128 3 3 (1152)
I0326 09:48:13.903554 32487 net.cpp:165] Memory required for data: 235270784
I0326 09:48:13.903663 32487 layer_factory.hpp:77] Creating layer conv9_1_relu
I0326 09:48:13.903771 32487 net.cpp:100] Creating Layer conv9_1_relu
I0326 09:48:13.903867 32487 net.cpp:434] conv9_1_relu <- conv9_1
I0326 09:48:13.903973 32487 net.cpp:395] conv9_1_relu -> conv9_1 (in-place)
I0326 09:48:13.904345 32487 net.cpp:150] Setting up conv9_1_relu
I0326 09:48:13.904496 32487 net.cpp:157] Top shape: 1 128 3 3 (1152)
I0326 09:48:13.904588 32487 net.cpp:165] Memory required for data: 235275392
I0326 09:48:13.904687 32487 layer_factory.hpp:77] Creating layer conv9_2
I0326 09:48:13.904798 32487 net.cpp:100] Creating Layer conv9_2
I0326 09:48:13.904899 32487 net.cpp:434] conv9_2 <- conv9_1
I0326 09:48:13.904999 32487 net.cpp:408] conv9_2 -> conv9_2
I0326 09:48:13.919616 32487 net.cpp:150] Setting up conv9_2
I0326 09:48:13.919872 32487 net.cpp:157] Top shape: 1 256 1 1 (256)
I0326 09:48:13.919986 32487 net.cpp:165] Memory required for data: 235276416
I0326 09:48:13.920120 32487 layer_factory.hpp:77] Creating layer conv9_2_relu
I0326 09:48:13.920249 32487 net.cpp:100] Creating Layer conv9_2_relu
I0326 09:48:13.920362 32487 net.cpp:434] conv9_2_relu <- conv9_2
I0326 09:48:13.920475 32487 net.cpp:395] conv9_2_relu -> conv9_2 (in-place)
I0326 09:48:13.922832 32487 net.cpp:150] Setting up conv9_2_relu
I0326 09:48:13.923002 32487 net.cpp:157] Top shape: 1 256 1 1 (256)
I0326 09:48:13.923101 32487 net.cpp:165] Memory required for data: 235277440
I0326 09:48:13.923315 32487 layer_factory.hpp:77] Creating layer conv9_2_conv9_2_relu_0_split
I0326 09:48:13.923429 32487 net.cpp:100] Creating Layer conv9_2_conv9_2_relu_0_split
I0326 09:48:13.923532 32487 net.cpp:434] conv9_2_conv9_2_relu_0_split <- conv9_2
I0326 09:48:13.923643 32487 net.cpp:408] conv9_2_conv9_2_relu_0_split -> conv9_2_conv9_2_relu_0_split_0
I0326 09:48:13.924383 32487 net.cpp:408] conv9_2_conv9_2_relu_0_split -> conv9_2_conv9_2_relu_0_split_1
I0326 09:48:13.924499 32487 net.cpp:408] conv9_2_conv9_2_relu_0_split -> conv9_2_conv9_2_relu_0_split_2
I0326 09:48:13.924733 32487 net.cpp:150] Setting up conv9_2_conv9_2_relu_0_split
I0326 09:48:13.924861 32487 net.cpp:157] Top shape: 1 256 1 1 (256)
I0326 09:48:13.924968 32487 net.cpp:157] Top shape: 1 256 1 1 (256)
I0326 09:48:13.925072 32487 net.cpp:157] Top shape: 1 256 1 1 (256)
I0326 09:48:13.925168 32487 net.cpp:165] Memory required for data: 235280512
I0326 09:48:13.925268 32487 layer_factory.hpp:77] Creating layer conv4_3_norm
I0326 09:48:13.925388 32487 net.cpp:100] Creating Layer conv4_3_norm
I0326 09:48:13.925501 32487 net.cpp:434] conv4_3_norm <- conv4_3_relu4_3_0_split_1
I0326 09:48:13.925613 32487 net.cpp:408] conv4_3_norm -> conv4_3_norm
I0326 09:48:13.926537 32487 net.cpp:150] Setting up conv4_3_norm
I0326 09:48:13.926692 32487 net.cpp:157] Top shape: 1 512 38 38 (739328)
I0326 09:48:13.926792 32487 net.cpp:165] Memory required for data: 238237824
I0326 09:48:13.926906 32487 layer_factory.hpp:77] Creating layer conv4_3_norm_conv4_3_norm_0_split
I0326 09:48:13.927019 32487 net.cpp:100] Creating Layer conv4_3_norm_conv4_3_norm_0_split
I0326 09:48:13.927125 32487 net.cpp:434] conv4_3_norm_conv4_3_norm_0_split <- conv4_3_norm
I0326 09:48:13.927234 32487 net.cpp:408] conv4_3_norm_conv4_3_norm_0_split -> conv4_3_norm_conv4_3_norm_0_split_0
I0326 09:48:13.927351 32487 net.cpp:408] conv4_3_norm_conv4_3_norm_0_split -> conv4_3_norm_conv4_3_norm_0_split_1
I0326 09:48:13.927464 32487 net.cpp:408] conv4_3_norm_conv4_3_norm_0_split -> conv4_3_norm_conv4_3_norm_0_split_2
I0326 09:48:13.927697 32487 net.cpp:150] Setting up conv4_3_norm_conv4_3_norm_0_split
I0326 09:48:13.927804 32487 net.cpp:157] Top shape: 1 512 38 38 (739328)
I0326 09:48:13.927906 32487 net.cpp:157] Top shape: 1 512 38 38 (739328)
I0326 09:48:13.928006 32487 net.cpp:157] Top shape: 1 512 38 38 (739328)
I0326 09:48:13.928104 32487 net.cpp:165] Memory required for data: 247109760
I0326 09:48:13.928205 32487 layer_factory.hpp:77] Creating layer conv4_3_norm_mbox_loc
I0326 09:48:13.928318 32487 net.cpp:100] Creating Layer conv4_3_norm_mbox_loc
I0326 09:48:13.928611 32487 net.cpp:434] conv4_3_norm_mbox_loc <- conv4_3_norm_conv4_3_norm_0_split_0
I0326 09:48:13.928725 32487 net.cpp:408] conv4_3_norm_mbox_loc -> conv4_3_norm_mbox_loc
I0326 09:48:13.935742 32487 net.cpp:150] Setting up conv4_3_norm_mbox_loc
I0326 09:48:13.937108 32487 net.cpp:157] Top shape: 1 16 38 38 (23104)
I0326 09:48:13.937270 32487 net.cpp:165] Memory required for data: 247202176
I0326 09:48:13.937384 32487 layer_factory.hpp:77] Creating layer conv4_3_norm_mbox_loc_perm
I0326 09:48:13.937494 32487 net.cpp:100] Creating Layer conv4_3_norm_mbox_loc_perm
I0326 09:48:13.937594 32487 net.cpp:434] conv4_3_norm_mbox_loc_perm <- conv4_3_norm_mbox_loc
I0326 09:48:13.937713 32487 net.cpp:408] conv4_3_norm_mbox_loc_perm -> conv4_3_norm_mbox_loc_perm
I0326 09:48:13.938032 32487 net.cpp:150] Setting up conv4_3_norm_mbox_loc_perm
I0326 09:48:13.938202 32487 net.cpp:157] Top shape: 1 38 38 16 (23104)
I0326 09:48:13.938302 32487 net.cpp:165] Memory required for data: 247294592
I0326 09:48:13.938416 32487 layer_factory.hpp:77] Creating layer conv4_3_norm_mbox_loc_flat
I0326 09:48:13.938536 32487 net.cpp:100] Creating Layer conv4_3_norm_mbox_loc_flat
I0326 09:48:13.938637 32487 net.cpp:434] conv4_3_norm_mbox_loc_flat <- conv4_3_norm_mbox_loc_perm
I0326 09:48:13.938748 32487 net.cpp:408] conv4_3_norm_mbox_loc_flat -> conv4_3_norm_mbox_loc_flat
I0326 09:48:13.938911 32487 net.cpp:150] Setting up conv4_3_norm_mbox_loc_flat
I0326 09:48:13.939015 32487 net.cpp:157] Top shape: 1 23104 (23104)
I0326 09:48:13.939221 32487 net.cpp:165] Memory required for data: 247387008
I0326 09:48:13.939321 32487 layer_factory.hpp:77] Creating layer conv4_3_norm_mbox_conf
I0326 09:48:13.939447 32487 net.cpp:100] Creating Layer conv4_3_norm_mbox_conf
I0326 09:48:13.939549 32487 net.cpp:434] conv4_3_norm_mbox_conf <- conv4_3_norm_conv4_3_norm_0_split_1
I0326 09:48:13.939664 32487 net.cpp:408] conv4_3_norm_mbox_conf -> conv4_3_norm_mbox_conf
I0326 09:48:13.949548 32487 net.cpp:150] Setting up conv4_3_norm_mbox_conf
I0326 09:48:13.950088 32487 net.cpp:157] Top shape: 1 44 38 38 (63536)
I0326 09:48:13.950314 32487 net.cpp:165] Memory required for data: 247641152
I0326 09:48:13.950431 32487 layer_factory.hpp:77] Creating layer conv4_3_norm_mbox_conf_perm
I0326 09:48:13.950551 32487 net.cpp:100] Creating Layer conv4_3_norm_mbox_conf_perm
I0326 09:48:13.950659 32487 net.cpp:434] conv4_3_norm_mbox_conf_perm <- conv4_3_norm_mbox_conf
I0326 09:48:13.950774 32487 net.cpp:408] conv4_3_norm_mbox_conf_perm -> conv4_3_norm_mbox_conf_perm
I0326 09:48:13.951133 32487 net.cpp:150] Setting up conv4_3_norm_mbox_conf_perm
I0326 09:48:13.951297 32487 net.cpp:157] Top shape: 1 38 38 44 (63536)
I0326 09:48:13.951407 32487 net.cpp:165] Memory required for data: 247895296
I0326 09:48:13.951516 32487 layer_factory.hpp:77] Creating layer conv4_3_norm_mbox_conf_flat
I0326 09:48:13.951633 32487 net.cpp:100] Creating Layer conv4_3_norm_mbox_conf_flat
I0326 09:48:13.951743 32487 net.cpp:434] conv4_3_norm_mbox_conf_flat <- conv4_3_norm_mbox_conf_perm
I0326 09:48:13.951858 32487 net.cpp:408] conv4_3_norm_mbox_conf_flat -> conv4_3_norm_mbox_conf_flat
I0326 09:48:13.952035 32487 net.cpp:150] Setting up conv4_3_norm_mbox_conf_flat
I0326 09:48:13.952142 32487 net.cpp:157] Top shape: 1 63536 (63536)
I0326 09:48:13.952239 32487 net.cpp:165] Memory required for data: 248149440
I0326 09:48:13.952340 32487 layer_factory.hpp:77] Creating layer conv4_3_norm_mbox_priorbox
I0326 09:48:13.952499 32487 net.cpp:100] Creating Layer conv4_3_norm_mbox_priorbox
I0326 09:48:13.952602 32487 net.cpp:434] conv4_3_norm_mbox_priorbox <- conv4_3_norm_conv4_3_norm_0_split_2
I0326 09:48:13.952718 32487 net.cpp:434] conv4_3_norm_mbox_priorbox <- data_data_0_split_1
I0326 09:48:13.952832 32487 net.cpp:408] conv4_3_norm_mbox_priorbox -> conv4_3_norm_mbox_priorbox
I0326 09:48:13.952994 32487 net.cpp:150] Setting up conv4_3_norm_mbox_priorbox
I0326 09:48:13.953119 32487 net.cpp:157] Top shape: 1 2 23104 (46208)
I0326 09:48:13.953223 32487 net.cpp:165] Memory required for data: 248334272
I0326 09:48:13.953325 32487 layer_factory.hpp:77] Creating layer fc7_mbox_loc
I0326 09:48:13.953438 32487 net.cpp:100] Creating Layer fc7_mbox_loc
I0326 09:48:13.953541 32487 net.cpp:434] fc7_mbox_loc <- fc7_relu7_0_split_1
I0326 09:48:13.953651 32487 net.cpp:408] fc7_mbox_loc -> fc7_mbox_loc
I0326 09:48:13.959035 32487 net.cpp:150] Setting up fc7_mbox_loc
I0326 09:48:13.959219 32487 net.cpp:157] Top shape: 1 24 19 19 (8664)
I0326 09:48:13.959326 32487 net.cpp:165] Memory required for data: 248368928
I0326 09:48:13.959458 32487 layer_factory.hpp:77] Creating layer fc7_mbox_loc_perm
I0326 09:48:13.959570 32487 net.cpp:100] Creating Layer fc7_mbox_loc_perm
I0326 09:48:13.959679 32487 net.cpp:434] fc7_mbox_loc_perm <- fc7_mbox_loc
I0326 09:48:13.959795 32487 net.cpp:408] fc7_mbox_loc_perm -> fc7_mbox_loc_perm
I0326 09:48:13.960121 32487 net.cpp:150] Setting up fc7_mbox_loc_perm
I0326 09:48:13.960283 32487 net.cpp:157] Top shape: 1 19 19 24 (8664)
I0326 09:48:13.960393 32487 net.cpp:165] Memory required for data: 248403584
I0326 09:48:13.960527 32487 layer_factory.hpp:77] Creating layer fc7_mbox_loc_flat
I0326 09:48:13.960651 32487 net.cpp:100] Creating Layer fc7_mbox_loc_flat
I0326 09:48:13.960764 32487 net.cpp:434] fc7_mbox_loc_flat <- fc7_mbox_loc_perm
I0326 09:48:13.960881 32487 net.cpp:408] fc7_mbox_loc_flat -> fc7_mbox_loc_flat
I0326 09:48:13.961037 32487 net.cpp:150] Setting up fc7_mbox_loc_flat
I0326 09:48:13.961140 32487 net.cpp:157] Top shape: 1 8664 (8664)
I0326 09:48:13.961238 32487 net.cpp:165] Memory required for data: 248438240
I0326 09:48:13.961341 32487 layer_factory.hpp:77] Creating layer fc7_mbox_conf
I0326 09:48:13.961454 32487 net.cpp:100] Creating Layer fc7_mbox_conf
I0326 09:48:13.961565 32487 net.cpp:434] fc7_mbox_conf <- fc7_relu7_0_split_2
I0326 09:48:13.961676 32487 net.cpp:408] fc7_mbox_conf -> fc7_mbox_conf
I0326 09:48:13.982956 32487 net.cpp:150] Setting up fc7_mbox_conf
I0326 09:48:13.983258 32487 net.cpp:157] Top shape: 1 66 19 19 (23826)
I0326 09:48:13.983383 32487 net.cpp:165] Memory required for data: 248533544
I0326 09:48:13.983502 32487 layer_factory.hpp:77] Creating layer fc7_mbox_conf_perm
I0326 09:48:13.983623 32487 net.cpp:100] Creating Layer fc7_mbox_conf_perm
I0326 09:48:13.983729 32487 net.cpp:434] fc7_mbox_conf_perm <- fc7_mbox_conf
I0326 09:48:13.983841 32487 net.cpp:408] fc7_mbox_conf_perm -> fc7_mbox_conf_perm
I0326 09:48:13.984184 32487 net.cpp:150] Setting up fc7_mbox_conf_perm
I0326 09:48:13.984347 32487 net.cpp:157] Top shape: 1 19 19 66 (23826)
I0326 09:48:13.984467 32487 net.cpp:165] Memory required for data: 248628848
I0326 09:48:13.984570 32487 layer_factory.hpp:77] Creating layer fc7_mbox_conf_flat
I0326 09:48:13.984684 32487 net.cpp:100] Creating Layer fc7_mbox_conf_flat
I0326 09:48:13.984786 32487 net.cpp:434] fc7_mbox_conf_flat <- fc7_mbox_conf_perm
I0326 09:48:13.984895 32487 net.cpp:408] fc7_mbox_conf_flat -> fc7_mbox_conf_flat
I0326 09:48:13.985049 32487 net.cpp:150] Setting up fc7_mbox_conf_flat
I0326 09:48:13.985153 32487 net.cpp:157] Top shape: 1 23826 (23826)
I0326 09:48:13.985257 32487 net.cpp:165] Memory required for data: 248724152
I0326 09:48:13.985359 32487 layer_factory.hpp:77] Creating layer fc7_mbox_priorbox
I0326 09:48:13.985471 32487 net.cpp:100] Creating Layer fc7_mbox_priorbox
I0326 09:48:13.985591 32487 net.cpp:434] fc7_mbox_priorbox <- fc7_relu7_0_split_3
I0326 09:48:13.985700 32487 net.cpp:434] fc7_mbox_priorbox <- data_data_0_split_2
I0326 09:48:13.985827 32487 net.cpp:408] fc7_mbox_priorbox -> fc7_mbox_priorbox
I0326 09:48:13.985994 32487 net.cpp:150] Setting up fc7_mbox_priorbox
I0326 09:48:13.986100 32487 net.cpp:157] Top shape: 1 2 8664 (17328)
I0326 09:48:13.986202 32487 net.cpp:165] Memory required for data: 248793464
I0326 09:48:13.986361 32487 layer_factory.hpp:77] Creating layer conv6_2_mbox_loc
I0326 09:48:13.986480 32487 net.cpp:100] Creating Layer conv6_2_mbox_loc
I0326 09:48:13.986584 32487 net.cpp:434] conv6_2_mbox_loc <- conv6_2_conv6_2_relu_0_split_1
I0326 09:48:13.986713 32487 net.cpp:408] conv6_2_mbox_loc -> conv6_2_mbox_loc
I0326 09:48:13.992978 32487 net.cpp:150] Setting up conv6_2_mbox_loc
I0326 09:48:13.993309 32487 net.cpp:157] Top shape: 1 24 10 10 (2400)
I0326 09:48:13.993417 32487 net.cpp:165] Memory required for data: 248803064
I0326 09:48:13.993535 32487 layer_factory.hpp:77] Creating layer conv6_2_mbox_loc_perm
I0326 09:48:13.993657 32487 net.cpp:100] Creating Layer conv6_2_mbox_loc_perm
I0326 09:48:13.993783 32487 net.cpp:434] conv6_2_mbox_loc_perm <- conv6_2_mbox_loc
I0326 09:48:13.993898 32487 net.cpp:408] conv6_2_mbox_loc_perm -> conv6_2_mbox_loc_perm
I0326 09:48:13.994340 32487 net.cpp:150] Setting up conv6_2_mbox_loc_perm
I0326 09:48:13.994508 32487 net.cpp:157] Top shape: 1 10 10 24 (2400)
I0326 09:48:13.994614 32487 net.cpp:165] Memory required for data: 248812664
I0326 09:48:13.994721 32487 layer_factory.hpp:77] Creating layer conv6_2_mbox_loc_flat
I0326 09:48:13.994843 32487 net.cpp:100] Creating Layer conv6_2_mbox_loc_flat
I0326 09:48:13.994951 32487 net.cpp:434] conv6_2_mbox_loc_flat <- conv6_2_mbox_loc_perm
I0326 09:48:13.995074 32487 net.cpp:408] conv6_2_mbox_loc_flat -> conv6_2_mbox_loc_flat
I0326 09:48:13.995242 32487 net.cpp:150] Setting up conv6_2_mbox_loc_flat
I0326 09:48:13.995362 32487 net.cpp:157] Top shape: 1 2400 (2400)
I0326 09:48:13.995460 32487 net.cpp:165] Memory required for data: 248822264
I0326 09:48:13.995563 32487 layer_factory.hpp:77] Creating layer conv6_2_mbox_conf
I0326 09:48:13.995681 32487 net.cpp:100] Creating Layer conv6_2_mbox_conf
I0326 09:48:13.995784 32487 net.cpp:434] conv6_2_mbox_conf <- conv6_2_conv6_2_relu_0_split_2
I0326 09:48:13.995898 32487 net.cpp:408] conv6_2_mbox_conf -> conv6_2_mbox_conf
I0326 09:48:14.033002 32487 net.cpp:150] Setting up conv6_2_mbox_conf
I0326 09:48:14.034307 32487 net.cpp:157] Top shape: 1 66 10 10 (6600)
I0326 09:48:14.034492 32487 net.cpp:165] Memory required for data: 248848664
I0326 09:48:14.034611 32487 layer_factory.hpp:77] Creating layer conv6_2_mbox_conf_perm
I0326 09:48:14.035359 32487 net.cpp:100] Creating Layer conv6_2_mbox_conf_perm
I0326 09:48:14.035486 32487 net.cpp:434] conv6_2_mbox_conf_perm <- conv6_2_mbox_conf
I0326 09:48:14.035607 32487 net.cpp:408] conv6_2_mbox_conf_perm -> conv6_2_mbox_conf_perm
I0326 09:48:14.036032 32487 net.cpp:150] Setting up conv6_2_mbox_conf_perm
I0326 09:48:14.036198 32487 net.cpp:157] Top shape: 1 10 10 66 (6600)
I0326 09:48:14.036309 32487 net.cpp:165] Memory required for data: 248875064
I0326 09:48:14.036993 32487 layer_factory.hpp:77] Creating layer conv6_2_mbox_conf_flat
I0326 09:48:14.037122 32487 net.cpp:100] Creating Layer conv6_2_mbox_conf_flat
I0326 09:48:14.037231 32487 net.cpp:434] conv6_2_mbox_conf_flat <- conv6_2_mbox_conf_perm
I0326 09:48:14.037904 32487 net.cpp:408] conv6_2_mbox_conf_flat -> conv6_2_mbox_conf_flat
I0326 09:48:14.038087 32487 net.cpp:150] Setting up conv6_2_mbox_conf_flat
I0326 09:48:14.038553 32487 net.cpp:157] Top shape: 1 6600 (6600)
I0326 09:48:14.038669 32487 net.cpp:165] Memory required for data: 248901464
I0326 09:48:14.038775 32487 layer_factory.hpp:77] Creating layer conv6_2_mbox_priorbox
I0326 09:48:14.038889 32487 net.cpp:100] Creating Layer conv6_2_mbox_priorbox
I0326 09:48:14.039011 32487 net.cpp:434] conv6_2_mbox_priorbox <- conv6_2_conv6_2_relu_0_split_3
I0326 09:48:14.039124 32487 net.cpp:434] conv6_2_mbox_priorbox <- data_data_0_split_3
I0326 09:48:14.039240 32487 net.cpp:408] conv6_2_mbox_priorbox -> conv6_2_mbox_priorbox
I0326 09:48:14.039412 32487 net.cpp:150] Setting up conv6_2_mbox_priorbox
I0326 09:48:14.039515 32487 net.cpp:157] Top shape: 1 2 2400 (4800)
I0326 09:48:14.040026 32487 net.cpp:165] Memory required for data: 248920664
I0326 09:48:14.040132 32487 layer_factory.hpp:77] Creating layer conv7_2_mbox_loc
I0326 09:48:14.040254 32487 net.cpp:100] Creating Layer conv7_2_mbox_loc
I0326 09:48:14.040359 32487 net.cpp:434] conv7_2_mbox_loc <- conv7_2_conv7_2_relu_0_split_1
I0326 09:48:14.040472 32487 net.cpp:408] conv7_2_mbox_loc -> conv7_2_mbox_loc
I0326 09:48:14.053261 32487 net.cpp:150] Setting up conv7_2_mbox_loc
I0326 09:48:14.053557 32487 net.cpp:157] Top shape: 1 24 5 5 (600)
I0326 09:48:14.053665 32487 net.cpp:165] Memory required for data: 248923064
I0326 09:48:14.054836 32487 layer_factory.hpp:77] Creating layer conv7_2_mbox_loc_perm
I0326 09:48:14.054958 32487 net.cpp:100] Creating Layer conv7_2_mbox_loc_perm
I0326 09:48:14.055068 32487 net.cpp:434] conv7_2_mbox_loc_perm <- conv7_2_mbox_loc
I0326 09:48:14.055269 32487 net.cpp:408] conv7_2_mbox_loc_perm -> conv7_2_mbox_loc_perm
I0326 09:48:14.055671 32487 net.cpp:150] Setting up conv7_2_mbox_loc_perm
I0326 09:48:14.056942 32487 net.cpp:157] Top shape: 1 5 5 24 (600)
I0326 09:48:14.057102 32487 net.cpp:165] Memory required for data: 248925464
I0326 09:48:14.057210 32487 layer_factory.hpp:77] Creating layer conv7_2_mbox_loc_flat
I0326 09:48:14.057319 32487 net.cpp:100] Creating Layer conv7_2_mbox_loc_flat
I0326 09:48:14.057422 32487 net.cpp:434] conv7_2_mbox_loc_flat <- conv7_2_mbox_loc_perm
I0326 09:48:14.057538 32487 net.cpp:408] conv7_2_mbox_loc_flat -> conv7_2_mbox_loc_flat
I0326 09:48:14.057711 32487 net.cpp:150] Setting up conv7_2_mbox_loc_flat
I0326 09:48:14.057909 32487 net.cpp:157] Top shape: 1 600 (600)
I0326 09:48:14.058025 32487 net.cpp:165] Memory required for data: 248927864
I0326 09:48:14.058130 32487 layer_factory.hpp:77] Creating layer conv7_2_mbox_conf
I0326 09:48:14.058244 32487 net.cpp:100] Creating Layer conv7_2_mbox_conf
I0326 09:48:14.058348 32487 net.cpp:434] conv7_2_mbox_conf <- conv7_2_conv7_2_relu_0_split_2
I0326 09:48:14.058473 32487 net.cpp:408] conv7_2_mbox_conf -> conv7_2_mbox_conf
I0326 09:48:14.072700 32487 net.cpp:150] Setting up conv7_2_mbox_conf
I0326 09:48:14.075050 32487 net.cpp:157] Top shape: 1 66 5 5 (1650)
I0326 09:48:14.075269 32487 net.cpp:165] Memory required for data: 248934464
I0326 09:48:14.075386 32487 layer_factory.hpp:77] Creating layer conv7_2_mbox_conf_perm
I0326 09:48:14.075502 32487 net.cpp:100] Creating Layer conv7_2_mbox_conf_perm
I0326 09:48:14.075609 32487 net.cpp:434] conv7_2_mbox_conf_perm <- conv7_2_mbox_conf
I0326 09:48:14.075721 32487 net.cpp:408] conv7_2_mbox_conf_perm -> conv7_2_mbox_conf_perm
I0326 09:48:14.076136 32487 net.cpp:150] Setting up conv7_2_mbox_conf_perm
I0326 09:48:14.076294 32487 net.cpp:157] Top shape: 1 5 5 66 (1650)
I0326 09:48:14.076396 32487 net.cpp:165] Memory required for data: 248941064
I0326 09:48:14.076503 32487 layer_factory.hpp:77] Creating layer conv7_2_mbox_conf_flat
I0326 09:48:14.076617 32487 net.cpp:100] Creating Layer conv7_2_mbox_conf_flat
I0326 09:48:14.076725 32487 net.cpp:434] conv7_2_mbox_conf_flat <- conv7_2_mbox_conf_perm
I0326 09:48:14.076835 32487 net.cpp:408] conv7_2_mbox_conf_flat -> conv7_2_mbox_conf_flat
I0326 09:48:14.076990 32487 net.cpp:150] Setting up conv7_2_mbox_conf_flat
I0326 09:48:14.077097 32487 net.cpp:157] Top shape: 1 1650 (1650)
I0326 09:48:14.077212 32487 net.cpp:165] Memory required for data: 248947664
I0326 09:48:14.078111 32487 layer_factory.hpp:77] Creating layer conv7_2_mbox_priorbox
I0326 09:48:14.078250 32487 net.cpp:100] Creating Layer conv7_2_mbox_priorbox
I0326 09:48:14.078353 32487 net.cpp:434] conv7_2_mbox_priorbox <- conv7_2_conv7_2_relu_0_split_3
I0326 09:48:14.078474 32487 net.cpp:434] conv7_2_mbox_priorbox <- data_data_0_split_4
I0326 09:48:14.078584 32487 net.cpp:408] conv7_2_mbox_priorbox -> conv7_2_mbox_priorbox
I0326 09:48:14.078763 32487 net.cpp:150] Setting up conv7_2_mbox_priorbox
I0326 09:48:14.078867 32487 net.cpp:157] Top shape: 1 2 600 (1200)
I0326 09:48:14.078968 32487 net.cpp:165] Memory required for data: 248952464
I0326 09:48:14.079067 32487 layer_factory.hpp:77] Creating layer conv8_2_mbox_loc
I0326 09:48:14.079185 32487 net.cpp:100] Creating Layer conv8_2_mbox_loc
I0326 09:48:14.079298 32487 net.cpp:434] conv8_2_mbox_loc <- conv8_2_conv8_2_relu_0_split_1
I0326 09:48:14.079408 32487 net.cpp:408] conv8_2_mbox_loc -> conv8_2_mbox_loc
I0326 09:48:14.087496 32487 net.cpp:150] Setting up conv8_2_mbox_loc
I0326 09:48:14.090013 32487 net.cpp:157] Top shape: 1 16 3 3 (144)
I0326 09:48:14.090203 32487 net.cpp:165] Memory required for data: 248953040
I0326 09:48:14.090344 32487 layer_factory.hpp:77] Creating layer conv8_2_mbox_loc_perm
I0326 09:48:14.090469 32487 net.cpp:100] Creating Layer conv8_2_mbox_loc_perm
I0326 09:48:14.090577 32487 net.cpp:434] conv8_2_mbox_loc_perm <- conv8_2_mbox_loc
I0326 09:48:14.090692 32487 net.cpp:408] conv8_2_mbox_loc_perm -> conv8_2_mbox_loc_perm
I0326 09:48:14.091126 32487 net.cpp:150] Setting up conv8_2_mbox_loc_perm
I0326 09:48:14.092123 32487 net.cpp:157] Top shape: 1 3 3 16 (144)
I0326 09:48:14.092281 32487 net.cpp:165] Memory required for data: 248953616
I0326 09:48:14.092391 32487 layer_factory.hpp:77] Creating layer conv8_2_mbox_loc_flat
I0326 09:48:14.092509 32487 net.cpp:100] Creating Layer conv8_2_mbox_loc_flat
I0326 09:48:14.092613 32487 net.cpp:434] conv8_2_mbox_loc_flat <- conv8_2_mbox_loc_perm
I0326 09:48:14.092726 32487 net.cpp:408] conv8_2_mbox_loc_flat -> conv8_2_mbox_loc_flat
I0326 09:48:14.092892 32487 net.cpp:150] Setting up conv8_2_mbox_loc_flat
I0326 09:48:14.093001 32487 net.cpp:157] Top shape: 1 144 (144)
I0326 09:48:14.093112 32487 net.cpp:165] Memory required for data: 248954192
I0326 09:48:14.093247 32487 layer_factory.hpp:77] Creating layer conv8_2_mbox_conf
I0326 09:48:14.093365 32487 net.cpp:100] Creating Layer conv8_2_mbox_conf
I0326 09:48:14.093470 32487 net.cpp:434] conv8_2_mbox_conf <- conv8_2_conv8_2_relu_0_split_2
I0326 09:48:14.094271 32487 net.cpp:408] conv8_2_mbox_conf -> conv8_2_mbox_conf
I0326 09:48:14.107436 32487 net.cpp:150] Setting up conv8_2_mbox_conf
I0326 09:48:14.107738 32487 net.cpp:157] Top shape: 1 44 3 3 (396)
I0326 09:48:14.107846 32487 net.cpp:165] Memory required for data: 248955776
I0326 09:48:14.107959 32487 layer_factory.hpp:77] Creating layer conv8_2_mbox_conf_perm
I0326 09:48:14.108091 32487 net.cpp:100] Creating Layer conv8_2_mbox_conf_perm
I0326 09:48:14.109143 32487 net.cpp:434] conv8_2_mbox_conf_perm <- conv8_2_mbox_conf
I0326 09:48:14.109264 32487 net.cpp:408] conv8_2_mbox_conf_perm -> conv8_2_mbox_conf_perm
I0326 09:48:14.109661 32487 net.cpp:150] Setting up conv8_2_mbox_conf_perm
I0326 09:48:14.110204 32487 net.cpp:157] Top shape: 1 3 3 44 (396)
I0326 09:48:14.110355 32487 net.cpp:165] Memory required for data: 248957360
I0326 09:48:14.110464 32487 layer_factory.hpp:77] Creating layer conv8_2_mbox_conf_flat
I0326 09:48:14.110579 32487 net.cpp:100] Creating Layer conv8_2_mbox_conf_flat
I0326 09:48:14.110683 32487 net.cpp:434] conv8_2_mbox_conf_flat <- conv8_2_mbox_conf_perm
I0326 09:48:14.110798 32487 net.cpp:408] conv8_2_mbox_conf_flat -> conv8_2_mbox_conf_flat
I0326 09:48:14.110980 32487 net.cpp:150] Setting up conv8_2_mbox_conf_flat
I0326 09:48:14.111102 32487 net.cpp:157] Top shape: 1 396 (396)
I0326 09:48:14.111202 32487 net.cpp:165] Memory required for data: 248958944
I0326 09:48:14.112342 32487 layer_factory.hpp:77] Creating layer conv8_2_mbox_priorbox
I0326 09:48:14.112462 32487 net.cpp:100] Creating Layer conv8_2_mbox_priorbox
I0326 09:48:14.112566 32487 net.cpp:434] conv8_2_mbox_priorbox <- conv8_2_conv8_2_relu_0_split_3
I0326 09:48:14.112684 32487 net.cpp:434] conv8_2_mbox_priorbox <- data_data_0_split_5
I0326 09:48:14.112795 32487 net.cpp:408] conv8_2_mbox_priorbox -> conv8_2_mbox_priorbox
I0326 09:48:14.113009 32487 net.cpp:150] Setting up conv8_2_mbox_priorbox
I0326 09:48:14.113131 32487 net.cpp:157] Top shape: 1 2 144 (288)
I0326 09:48:14.113232 32487 net.cpp:165] Memory required for data: 248960096
I0326 09:48:14.113335 32487 layer_factory.hpp:77] Creating layer conv9_2_mbox_loc
I0326 09:48:14.113482 32487 net.cpp:100] Creating Layer conv9_2_mbox_loc
I0326 09:48:14.113773 32487 net.cpp:434] conv9_2_mbox_loc <- conv9_2_conv9_2_relu_0_split_0
I0326 09:48:14.113888 32487 net.cpp:408] conv9_2_mbox_loc -> conv9_2_mbox_loc
I0326 09:48:14.126543 32487 net.cpp:150] Setting up conv9_2_mbox_loc
I0326 09:48:14.126808 32487 net.cpp:157] Top shape: 1 16 1 1 (16)
I0326 09:48:14.126914 32487 net.cpp:165] Memory required for data: 248960160
I0326 09:48:14.127033 32487 layer_factory.hpp:77] Creating layer conv9_2_mbox_loc_perm
I0326 09:48:14.127149 32487 net.cpp:100] Creating Layer conv9_2_mbox_loc_perm
I0326 09:48:14.127267 32487 net.cpp:434] conv9_2_mbox_loc_perm <- conv9_2_mbox_loc
I0326 09:48:14.127382 32487 net.cpp:408] conv9_2_mbox_loc_perm -> conv9_2_mbox_loc_perm
I0326 09:48:14.127697 32487 net.cpp:150] Setting up conv9_2_mbox_loc_perm
I0326 09:48:14.127851 32487 net.cpp:157] Top shape: 1 1 1 16 (16)
I0326 09:48:14.127955 32487 net.cpp:165] Memory required for data: 248960224
I0326 09:48:14.128062 32487 layer_factory.hpp:77] Creating layer conv9_2_mbox_loc_flat
I0326 09:48:14.128173 32487 net.cpp:100] Creating Layer conv9_2_mbox_loc_flat
I0326 09:48:14.128296 32487 net.cpp:434] conv9_2_mbox_loc_flat <- conv9_2_mbox_loc_perm
I0326 09:48:14.129319 32487 net.cpp:408] conv9_2_mbox_loc_flat -> conv9_2_mbox_loc_flat
I0326 09:48:14.130477 32487 net.cpp:150] Setting up conv9_2_mbox_loc_flat
I0326 09:48:14.130640 32487 net.cpp:157] Top shape: 1 16 (16)
I0326 09:48:14.130738 32487 net.cpp:165] Memory required for data: 248960288
I0326 09:48:14.130842 32487 layer_factory.hpp:77] Creating layer conv9_2_mbox_conf
I0326 09:48:14.130969 32487 net.cpp:100] Creating Layer conv9_2_mbox_conf
I0326 09:48:14.131083 32487 net.cpp:434] conv9_2_mbox_conf <- conv9_2_conv9_2_relu_0_split_1
I0326 09:48:14.131196 32487 net.cpp:408] conv9_2_mbox_conf -> conv9_2_mbox_conf
I0326 09:48:14.139219 32487 net.cpp:150] Setting up conv9_2_mbox_conf
I0326 09:48:14.139489 32487 net.cpp:157] Top shape: 1 44 1 1 (44)
I0326 09:48:14.139600 32487 net.cpp:165] Memory required for data: 248960464
I0326 09:48:14.139720 32487 layer_factory.hpp:77] Creating layer conv9_2_mbox_conf_perm
I0326 09:48:14.139839 32487 net.cpp:100] Creating Layer conv9_2_mbox_conf_perm
I0326 09:48:14.139961 32487 net.cpp:434] conv9_2_mbox_conf_perm <- conv9_2_mbox_conf
I0326 09:48:14.140081 32487 net.cpp:408] conv9_2_mbox_conf_perm -> conv9_2_mbox_conf_perm
I0326 09:48:14.140517 32487 net.cpp:150] Setting up conv9_2_mbox_conf_perm
I0326 09:48:14.140676 32487 net.cpp:157] Top shape: 1 1 1 44 (44)
I0326 09:48:14.140776 32487 net.cpp:165] Memory required for data: 248960640
I0326 09:48:14.140897 32487 layer_factory.hpp:77] Creating layer conv9_2_mbox_conf_flat
I0326 09:48:14.141026 32487 net.cpp:100] Creating Layer conv9_2_mbox_conf_flat
I0326 09:48:14.141130 32487 net.cpp:434] conv9_2_mbox_conf_flat <- conv9_2_mbox_conf_perm
I0326 09:48:14.141244 32487 net.cpp:408] conv9_2_mbox_conf_flat -> conv9_2_mbox_conf_flat
I0326 09:48:14.141396 32487 net.cpp:150] Setting up conv9_2_mbox_conf_flat
I0326 09:48:14.141502 32487 net.cpp:157] Top shape: 1 44 (44)
I0326 09:48:14.141602 32487 net.cpp:165] Memory required for data: 248960816
I0326 09:48:14.141705 32487 layer_factory.hpp:77] Creating layer conv9_2_mbox_priorbox
I0326 09:48:14.141844 32487 net.cpp:100] Creating Layer conv9_2_mbox_priorbox
I0326 09:48:14.141945 32487 net.cpp:434] conv9_2_mbox_priorbox <- conv9_2_conv9_2_relu_0_split_2
I0326 09:48:14.142069 32487 net.cpp:434] conv9_2_mbox_priorbox <- data_data_0_split_6
I0326 09:48:14.142184 32487 net.cpp:408] conv9_2_mbox_priorbox -> conv9_2_mbox_priorbox
I0326 09:48:14.142341 32487 net.cpp:150] Setting up conv9_2_mbox_priorbox
I0326 09:48:14.142446 32487 net.cpp:157] Top shape: 1 2 16 (32)
I0326 09:48:14.142547 32487 net.cpp:165] Memory required for data: 248960944
I0326 09:48:14.142648 32487 layer_factory.hpp:77] Creating layer mbox_loc
I0326 09:48:14.142758 32487 net.cpp:100] Creating Layer mbox_loc
I0326 09:48:14.142859 32487 net.cpp:434] mbox_loc <- conv4_3_norm_mbox_loc_flat
I0326 09:48:14.142967 32487 net.cpp:434] mbox_loc <- fc7_mbox_loc_flat
I0326 09:48:14.143074 32487 net.cpp:434] mbox_loc <- conv6_2_mbox_loc_flat
I0326 09:48:14.143195 32487 net.cpp:434] mbox_loc <- conv7_2_mbox_loc_flat
I0326 09:48:14.143299 32487 net.cpp:434] mbox_loc <- conv8_2_mbox_loc_flat
I0326 09:48:14.143405 32487 net.cpp:434] mbox_loc <- conv9_2_mbox_loc_flat
I0326 09:48:14.143514 32487 net.cpp:408] mbox_loc -> mbox_loc
I0326 09:48:14.143667 32487 net.cpp:150] Setting up mbox_loc
I0326 09:48:14.143772 32487 net.cpp:157] Top shape: 1 34928 (34928)
I0326 09:48:14.143874 32487 net.cpp:165] Memory required for data: 249100656
I0326 09:48:14.143978 32487 layer_factory.hpp:77] Creating layer mbox_conf
I0326 09:48:14.144088 32487 net.cpp:100] Creating Layer mbox_conf
I0326 09:48:14.144207 32487 net.cpp:434] mbox_conf <- conv4_3_norm_mbox_conf_flat
I0326 09:48:14.144312 32487 net.cpp:434] mbox_conf <- fc7_mbox_conf_flat
I0326 09:48:14.144418 32487 net.cpp:434] mbox_conf <- conv6_2_mbox_conf_flat
I0326 09:48:14.144522 32487 net.cpp:434] mbox_conf <- conv7_2_mbox_conf_flat
I0326 09:48:14.144625 32487 net.cpp:434] mbox_conf <- conv8_2_mbox_conf_flat
I0326 09:48:14.144729 32487 net.cpp:434] mbox_conf <- conv9_2_mbox_conf_flat
I0326 09:48:14.144851 32487 net.cpp:408] mbox_conf -> mbox_conf
I0326 09:48:14.145001 32487 net.cpp:150] Setting up mbox_conf
I0326 09:48:14.145107 32487 net.cpp:157] Top shape: 1 96052 (96052)
I0326 09:48:14.145206 32487 net.cpp:165] Memory required for data: 249484864
I0326 09:48:14.145325 32487 layer_factory.hpp:77] Creating layer mbox_priorbox
I0326 09:48:14.145431 32487 net.cpp:100] Creating Layer mbox_priorbox
I0326 09:48:14.145551 32487 net.cpp:434] mbox_priorbox <- conv4_3_norm_mbox_priorbox
I0326 09:48:14.145668 32487 net.cpp:434] mbox_priorbox <- fc7_mbox_priorbox
I0326 09:48:14.145792 32487 net.cpp:434] mbox_priorbox <- conv6_2_mbox_priorbox
I0326 09:48:14.145895 32487 net.cpp:434] mbox_priorbox <- conv7_2_mbox_priorbox
I0326 09:48:14.145998 32487 net.cpp:434] mbox_priorbox <- conv8_2_mbox_priorbox
I0326 09:48:14.146101 32487 net.cpp:434] mbox_priorbox <- conv9_2_mbox_priorbox
I0326 09:48:14.146211 32487 net.cpp:408] mbox_priorbox -> mbox_priorbox
I0326 09:48:14.146380 32487 net.cpp:150] Setting up mbox_priorbox
I0326 09:48:14.146486 32487 net.cpp:157] Top shape: 1 2 34928 (69856)
I0326 09:48:14.146589 32487 net.cpp:165] Memory required for data: 249764288
I0326 09:48:14.146689 32487 layer_factory.hpp:77] Creating layer mbox_conf_reshape
I0326 09:48:14.146800 32487 net.cpp:100] Creating Layer mbox_conf_reshape
I0326 09:48:14.146900 32487 net.cpp:434] mbox_conf_reshape <- mbox_conf
I0326 09:48:14.147011 32487 net.cpp:408] mbox_conf_reshape -> mbox_conf_reshape
I0326 09:48:14.147171 32487 net.cpp:150] Setting up mbox_conf_reshape
I0326 09:48:14.147279 32487 net.cpp:157] Top shape: 1 8732 11 (96052)
I0326 09:48:14.147378 32487 net.cpp:165] Memory required for data: 250148496
I0326 09:48:14.147496 32487 layer_factory.hpp:77] Creating layer mbox_conf_softmax
I0326 09:48:14.147608 32487 net.cpp:100] Creating Layer mbox_conf_softmax
I0326 09:48:14.147709 32487 net.cpp:434] mbox_conf_softmax <- mbox_conf_reshape
I0326 09:48:14.147819 32487 net.cpp:408] mbox_conf_softmax -> mbox_conf_softmax
I0326 09:48:14.148391 32487 net.cpp:150] Setting up mbox_conf_softmax
I0326 09:48:14.148538 32487 net.cpp:157] Top shape: 1 8732 11 (96052)
I0326 09:48:14.148638 32487 net.cpp:165] Memory required for data: 250532704
I0326 09:48:14.148741 32487 layer_factory.hpp:77] Creating layer mbox_conf_flatten
I0326 09:48:14.148851 32487 net.cpp:100] Creating Layer mbox_conf_flatten
I0326 09:48:14.148953 32487 net.cpp:434] mbox_conf_flatten <- mbox_conf_softmax
I0326 09:48:14.149068 32487 net.cpp:408] mbox_conf_flatten -> mbox_conf_flatten
I0326 09:48:14.149222 32487 net.cpp:150] Setting up mbox_conf_flatten
I0326 09:48:14.149327 32487 net.cpp:157] Top shape: 1 96052 (96052)
I0326 09:48:14.149441 32487 net.cpp:165] Memory required for data: 250916912
I0326 09:48:14.149556 32487 layer_factory.hpp:77] Creating layer detection_out
I0326 09:48:14.149677 32487 net.cpp:100] Creating Layer detection_out
I0326 09:48:14.149801 32487 net.cpp:434] detection_out <- mbox_loc
I0326 09:48:14.149907 32487 net.cpp:434] detection_out <- mbox_conf_flatten
I0326 09:48:14.150017 32487 net.cpp:434] detection_out <- mbox_priorbox
I0326 09:48:14.150126 32487 net.cpp:408] detection_out -> detection_out
I0326 09:48:14.199376 32487 net.cpp:150] Setting up detection_out
I0326 09:48:14.199403 32487 net.cpp:157] Top shape: 1 1 1 7 (7)
I0326 09:48:14.199409 32487 net.cpp:165] Memory required for data: 250916940
I0326 09:48:14.199415 32487 layer_factory.hpp:77] Creating layer detection_eval
I0326 09:48:14.199432 32487 net.cpp:100] Creating Layer detection_eval
I0326 09:48:14.199440 32487 net.cpp:434] detection_eval <- detection_out
I0326 09:48:14.199448 32487 net.cpp:434] detection_eval <- label
I0326 09:48:14.199456 32487 net.cpp:408] detection_eval -> detection_eval
I0326 09:48:14.199628 32487 net.cpp:150] Setting up detection_eval
I0326 09:48:14.199638 32487 net.cpp:157] Top shape: 1 1 11 5 (55)
I0326 09:48:14.199643 32487 net.cpp:165] Memory required for data: 250917160
I0326 09:48:14.199649 32487 net.cpp:228] detection_eval does not need backward computation.
I0326 09:48:14.199656 32487 net.cpp:228] detection_out does not need backward computation.
I0326 09:48:14.199663 32487 net.cpp:228] mbox_conf_flatten does not need backward computation.
I0326 09:48:14.199671 32487 net.cpp:228] mbox_conf_softmax does not need backward computation.
…
